HloModule jit_train_step, is_scheduled=true, input_output_alias={ {0}: (0, {}, may-alias), {1}: (1, {}, may-alias), {2}: (2, {}, may-alias), {3}: (3, {}, may-alias), {4}: (4, {}, may-alias), {5}: (5, {}, may-alias), {6}: (6, {}, may-alias), {7}: (7, {}, may-alias), {8}: (8, {}, may-alias), {9}: (9, {}, may-alias), {10}: (10, {}, may-alias), {11}: (11, {}, may-alias), {12}: (12, {}, may-alias), {13}: (13, {}, may-alias), {14}: (14, {}, may-alias), {15}: (15, {}, may-alias), {16}: (16, {}, may-alias), {17}: (17, {}, may-alias), {18}: (18, {}, may-alias), {19}: (19, {}, may-alias), {20}: (20, {}, may-alias), {21}: (21, {}, may-alias), {22}: (22, {}, may-alias), {23}: (23, {}, may-alias), {24}: (24, {}, may-alias), {25}: (25, {}, may-alias), {26}: (26, {}, may-alias), {27}: (27, {}, may-alias), {28}: (28, {}, may-alias), {29}: (29, {}, may-alias), {30}: (30, {}, may-alias), {31}: (31, {}, may-alias), {32}: (32, {}, may-alias), {33}: (33, {}, may-alias), {34}: (34, {}, may-alias), {35}: (35, {}, may-alias), {36}: (36, {}, may-alias), {37}: (37, {}, may-alias), {38}: (38, {}, may-alias) }, entry_computation_layout={(s32[]{:T(128)}, f32[4096]{0:T(1024)}, f32[4096,4,14336]{2,1,0:T(4,128)}, f32[4096,4,14336]{2,1,0:T(4,128)}, f32[14336,4,4096]{2,1,0:T(4,128)}, /*index=5*/f32[4096,4]{0,1:T(4,128)}, f32[4096,4]{0,1:T(4,128)}, f32[4096,4,8,128]{3,2,1,0:T(8,128)}, f32[32,4,128,4096]{3,2,1,0:T(8,128)}, f32[4096,4,32,128]{3,2,1,0:T(8,128)}, /*index=10*/f32[4096,4,8,128]{3,2,1,0:T(8,128)}, f32[4096,128256]{1,0:T(8,128)}, f32[128256,4096]{1,0:T(8,128)}, s32[]{:T(128)}, f32[4096]{0:T(1024)}, /*index=15*/f32[4096,4,14336]{2,1,0:T(4,128)}, f32[4096,4,14336]{2,1,0:T(4,128)}, f32[14336,4,4096]{2,1,0:T(4,128)}, f32[4096,4]{0,1:T(4,128)}, f32[4096,4]{0,1:T(4,128)}, /*index=20*/f32[4096,4,8,128]{3,2,1,0:T(8,128)}, f32[32,4,128,4096]{3,2,1,0:T(8,128)}, f32[4096,4,32,128]{3,2,1,0:T(8,128)}, f32[4096,4,8,128]{3,2,1,0:T(8,128)}, f32[4096,128256]{1,0:T(8,128)}, /*index=25*/f32[128256,4096]{1,0:T(8,128)}, f32[4096]{0:T(1024)}, f32[4096,4,14336]{2,1,0:T(4,128)}, f32[4096,4,14336]{2,1,0:T(4,128)}, f32[14336,4,4096]{2,1,0:T(4,128)}, /*index=30*/f32[4096,4]{0,1:T(4,128)}, f32[4096,4]{0,1:T(4,128)}, f32[4096,4,8,128]{3,2,1,0:T(8,128)}, f32[32,4,128,4096]{3,2,1,0:T(8,128)}, f32[4096,4,32,128]{3,2,1,0:T(8,128)}, /*index=35*/f32[4096,4,8,128]{3,2,1,0:T(8,128)}, f32[4096,128256]{1,0:T(8,128)}, f32[128256,4096]{1,0:T(8,128)}, s32[]{:T(128)}, s32[4,128]{1,0:T(4,128)}, /*index=40*/s32[4,128]{1,0:T(4,128)}, s32[4,128]{1,0:T(4,128)}, s32[4,128]{1,0:T(4,128)}, s32[4,128]{1,0:T(4,128)})->(s32[]{:T(128)}, f32[4096]{0:T(1024)}, f32[4096,4,14336]{2,1,0:T(4,128)}, f32[4096,4,14336]{2,1,0:T(4,128)}, f32[14336,4,4096]{2,1,0:T(4,128)}, /*index=5*/f32[4096,4]{0,1:T(4,128)}, f32[4096,4]{0,1:T(4,128)}, f32[4096,4,8,128]{3,2,1,0:T(8,128)}, f32[32,4,128,4096]{3,2,1,0:T(8,128)}, f32[4096,4,32,128]{3,2,1,0:T(8,128)}, /*index=10*/f32[4096,4,8,128]{3,2,1,0:T(8,128)}, f32[4096,128256]{1,0:T(8,128)}, f32[128256,4096]{1,0:T(8,128)}, s32[]{:T(128)}, f32[4096]{0:T(1024)}, /*index=15*/f32[4096,4,14336]{2,1,0:T(4,128)}, f32[4096,4,14336]{2,1,0:T(4,128)}, f32[14336,4,4096]{2,1,0:T(4,128)}, f32[4096,4]{0,1:T(4,128)}, f32[4096,4]{0,1:T(4,128)}, /*index=20*/f32[4096,4,8,128]{3,2,1,0:T(8,128)}, f32[32,4,128,4096]{3,2,1,0:T(8,128)}, f32[4096,4,32,128]{3,2,1,0:T(8,128)}, f32[4096,4,8,128]{3,2,1,0:T(8,128)}, f32[4096,128256]{1,0:T(8,128)}, /*index=25*/f32[128256,4096]{1,0:T(8,128)}, f32[4096]{0:T(1024)}, f32[4096,4,14336]{2,1,0:T(4,128)}, f32[4096,4,14336]{2,1,0:T(4,128)}, f32[14336,4,4096]{2,1,0:T(4,128)}, /*index=30*/f32[4096,4]{0,1:T(4,128)}, f32[4096,4]{0,1:T(4,128)}, f32[4096,4,8,128]{3,2,1,0:T(8,128)}, f32[32,4,128,4096]{3,2,1,0:T(8,128)}, f32[4096,4,32,128]{3,2,1,0:T(8,128)}, /*index=35*/f32[4096,4,8,128]{3,2,1,0:T(8,128)}, f32[4096,128256]{1,0:T(8,128)}, f32[128256,4096]{1,0:T(8,128)}, s32[]{:T(128)}, f32[]{:T(128)}, /*index=40*/f32[]{:T(128)}, f32[]{:T(128)}, f32[]{:T(128)}, f32[]{:T(128)}, f32[]{:T(128)}, /*index=45*/f32[]{:T(128)}, f32[]{:T(128)}, f32[]{:T(128)}, s32[]{:T(128)}, f32[]{:T(128)})}, allow_spmd_sharding_propagation_to_parameters={false,false,false,false,false,false,false,false,false,false,false,false,false,false,false,false,false,false,false,false,false,false,false,false,false,false,false,false,false,false,false,false,false,false,false,false,false,false,false,false,false,false,false,false}, allow_spmd_sharding_propagation_to_output={false,false,false,false,false,false,false,false,false,false,false,false,false,false,false,false,false,false,false,false,false,false,false,false,false,false,false,false,false,false,false,false,false,false,false,false,false,false,false,true,true,true,true,true,true,true,true,true,true,true}, num_partitions=4

FileNames

FunctionNames

FileLocations

StackFrames


%fused_computation (param_0.2: bf16[128256,4096], param_1.7: s32[1024]) -> bf16[512,4096] {
  %param_0.2 = bf16[128256,4096]{1,0:T(8,128)(2,1)} parameter(0)
  %param_1.7 = s32[1024]{0:T(1024)S(1)} parameter(1)
  %custom-call.1 = s32[1024]{0:T(1024)} custom-call(%param_1.7), custom_call_target="AssumeGatherIndicesInBound", operand_layout_constraints={s32[1024]{0:T(1024)}}, metadata={op_name="jit(train_step)/jvp(TransformerLinenPure.apply)/TransformerLinenPure/decoder/decoder._apply_embedding/token_embedder/gather" stack_frame_id=0}
  %slice.6 = s32[512]{0:T(512)} slice(%custom-call.1), slice={[0:512]}, metadata={op_name="jit(train_step)/jvp(TransformerLinenPure.apply)/TransformerLinenPure/decoder/decoder._apply_embedding/token_embedder/gather" stack_frame_id=0}
  %reshape.380 = s32[4,128]{1,0:T(4,128)} reshape(%slice.6), metadata={op_name="jit(train_step)/jvp(TransformerLinenPure.apply)/TransformerLinenPure/decoder/decoder._apply_embedding/token_embedder/broadcast_in_dim" stack_frame_id=0}
  %transpose.241 = s32[4,128]{1,0:T(4,128)} transpose(%reshape.380), dimensions={0,1}, metadata={op_name="jit(train_step)/jvp(TransformerLinenPure.apply)/TransformerLinenPure/decoder/decoder._apply_embedding/token_embedder/broadcast_in_dim" stack_frame_id=0}
  %gather.4 = bf16[4,128,4096]{2,1,0:T(8,128)(2,1)} gather(%param_0.2, %transpose.241), offset_dims={2}, collapsed_slice_dims={0}, start_index_map={0}, index_vector_dim=2, slice_sizes={1,4096}, metadata={op_name="jit(train_step)/jvp(TransformerLinenPure.apply)/TransformerLinenPure/decoder/decoder._apply_embedding/token_embedder/gather" stack_frame_id=0}
  %transpose.240 = bf16[4,128,4096]{2,1,0:T(8,128)(2,1)} transpose(%gather.4), dimensions={0,1,2}, metadata={op_name="jit(train_step)/jvp(TransformerLinenPure.apply)/TransformerLinenPure/decoder/decoder._apply_embedding/token_embedder/gather" stack_frame_id=0}
  ROOT %reshape.379 = bf16[512,4096]{1,0:T(8,128)(2,1)} reshape(%transpose.240), metadata={op_name="jit(train_step)/jvp(TransformerLinenPure.apply)/TransformerLinenPure/decoder/decoder._apply_embedding/token_embedder/gather" stack_frame_id=0}
}

%region_33.38.clone (scatter-add.6: bf16[], scatter-add.7: bf16[]) -> bf16[] {
  %scatter-add.6 = bf16[]{:T(256)} parameter(0), metadata={op_name="jit(train_step)/transpose(jvp(TransformerLinenPure.apply))/TransformerLinenPure/decoder/decoder._apply_embedding/token_embedder/scatter-add"}
  %scatter-add.7 = bf16[]{:T(256)} parameter(1), metadata={op_name="jit(train_step)/transpose(jvp(TransformerLinenPure.apply))/TransformerLinenPure/decoder/decoder._apply_embedding/token_embedder/scatter-add"}
  ROOT %add.462 = bf16[]{:T(256)} add(%scatter-add.6, %scatter-add.7), metadata={op_name="jit(train_step)/transpose(jvp(TransformerLinenPure.apply))/TransformerLinenPure/decoder/decoder._apply_embedding/token_embedder/add" stack_frame_id=0}, backend_config={"flag_configs":[],"scoped_memory_configs":[],"used_scoped_memory_configs":[],"aliasing_operands":{"lists":[]}}
}

%fused_computation.1 (param_0.3: bf16[128256,4096], param_1.5: s32[512], param_2.4: bf16[512,4096]) -> bf16[128256,4096] {
  %param_0.3 = bf16[128256,4096]{1,0:T(8,128)(2,1)} parameter(0)
  %param_1.5 = s32[512]{0:T(512)S(1)} parameter(1)
  %reshape.387 = s32[4,128]{1,0:T(4,128)} reshape(%param_1.5), metadata={op_name="jit(train_step)/jvp(TransformerLinenPure.apply)/TransformerLinenPure/decoder/decoder._apply_embedding/token_embedder/broadcast_in_dim" stack_frame_id=0}
  %transpose.246 = s32[4,128]{1,0:T(4,128)} transpose(%reshape.387), dimensions={0,1}, metadata={op_name="jit(train_step)/jvp(TransformerLinenPure.apply)/TransformerLinenPure/decoder/decoder._apply_embedding/token_embedder/broadcast_in_dim" stack_frame_id=0}
  %param_2.4 = bf16[512,4096]{1,0:T(8,128)(2,1)S(1)} parameter(2)
  %reshape.388 = bf16[4,128,4096]{2,1,0:T(8,128)(2,1)} reshape(%param_2.4), metadata={op_name="jit(train_step)/transpose(jvp(TransformerLinenPure.apply))/TransformerLinenPure/decoder/while" stack_frame_id=0}
  %transpose.247 = bf16[4,128,4096]{2,1,0:T(8,128)(2,1)} transpose(%reshape.388), dimensions={0,1,2}, metadata={op_name="jit(train_step)/transpose(jvp(TransformerLinenPure.apply))/TransformerLinenPure/decoder/while" stack_frame_id=0}
  ROOT %scatter.2 = bf16[128256,4096]{1,0:T(8,128)(2,1)} scatter(%param_0.3, %transpose.246, %transpose.247), update_window_dims={2}, inserted_window_dims={0}, scatter_dims_to_operand_dims={0}, index_vector_dim=2, to_apply=%region_33.38.clone, metadata={op_name="jit(train_step)/transpose(jvp(TransformerLinenPure.apply))/TransformerLinenPure/decoder/decoder._apply_embedding/token_embedder/scatter-add" stack_frame_id=0}
}

%region_32.37 (reduce_sum.244: f32[], reduce_sum.245: f32[]) -> f32[] {
  %reduce_sum.244 = f32[]{:T(128)} parameter(0), metadata={op_name="jit(train_step)/reduce_sum"}
  %reduce_sum.245 = f32[]{:T(128)} parameter(1), metadata={op_name="jit(train_step)/reduce_sum"}
  ROOT %reduce_sum.249 = f32[]{:T(128)} add(%reduce_sum.244, %reduce_sum.245), metadata={op_name="jit(train_step)/reduce_sum" stack_frame_id=0}, backend_config={"flag_configs":[],"scoped_memory_configs":[],"used_scoped_memory_configs":[],"aliasing_operands":{"lists":[]}}
}

%fused_computation.280.clone.clone.clone (param_0.1106: bf16[4,128,128256], param_1.1269: s32[4,128], param_2.1080: f32[4,128], param_3.773: f32[4,128], param_4.481: bf16[4,128], param_5.412: f32[4,128]) -> bf16[4,128,128256] {
  %param_5.412 = f32[4,128]{1,0:T(4,128)S(1)} parameter(5)
  %mul.1937 = f32[4,128,128256]{2,1,0:T(8,128)} broadcast(%param_5.412), dimensions={0,1}, metadata={op_name="jit(train_step)/transpose(jvp())/mul" stack_frame_id=0}
  %param_3.773 = f32[4,128]{1,0:T(4,128)S(1)} parameter(3)
  %mul.1936 = f32[4,128,128256]{2,1,0:T(8,128)} broadcast(%param_3.773), dimensions={0,1}, metadata={op_name="jit(train_step)/transpose(jvp())/mul" stack_frame_id=0}
  %param_0.1106 = bf16[4,128,128256]{2,1,0:T(8,128)(2,1)} parameter(0)
  %convert_element_type.1060 = f32[4,128,128256]{2,1,0:T(8,128)} convert(%param_0.1106), metadata={op_name="jit(train_step)/jvp(TransformerLinenPure.apply)/TransformerLinenPure/decoder/decoder.apply_output_head/convert_element_type" stack_frame_id=0}
  %param_4.481 = bf16[4,128]{1,0:T(4,128)(2,1)S(1)} parameter(4)
  %sub.94 = f32[4,128,128256]{2,1,0:T(8,128)} broadcast(%param_4.481), dimensions={0,1}, metadata={op_name="jit(train_step)/jvp()/sub" stack_frame_id=0}
  %sub.93 = f32[4,128,128256]{2,1,0:T(8,128)} subtract(%convert_element_type.1060, %sub.94), metadata={op_name="jit(train_step)/jvp()/sub" stack_frame_id=0}
  %exp.62 = f32[4,128,128256]{2,1,0:T(8,128)} exponential(%sub.93), metadata={op_name="jit(train_step)/jvp()/exp" stack_frame_id=0}
  %mul.1935 = f32[4,128,128256]{2,1,0:T(8,128)} multiply(%mul.1936, %exp.62), metadata={op_name="jit(train_step)/transpose(jvp())/mul" stack_frame_id=0}
  %param_2.1080 = f32[4,128]{1,0:T(4,128)S(1)} parameter(2)
  %div.823 = f32[4,128,128256]{2,1,0:T(8,128)} broadcast(%param_2.1080), dimensions={0,1}, metadata={op_name="jit(train_step)/transpose(jvp())/div" stack_frame_id=0}
  %div.822 = f32[4,128,128256]{2,1,0:T(8,128)} divide(%mul.1935, %div.823), metadata={op_name="jit(train_step)/transpose(jvp())/div" stack_frame_id=0}
  %param_1.1269 = s32[4,128]{1,0:T(4,128)S(1)} parameter(1)
  %eq.49 = s32[4,128,128256]{2,1,0:T(8,128)} broadcast(%param_1.1269), dimensions={0,1}, metadata={op_name="jit(train_step)/jvp(jit(_one_hot))/eq" stack_frame_id=0}
  %eq.48 = s32[4,128,128256]{2,1,0:T(8,128)} iota(), iota_dimension=2, metadata={op_name="jit(train_step)/jvp(jit(_one_hot))/eq" stack_frame_id=0}
  %eq.47 = pred[4,128,128256]{2,1,0:T(8,128)(4,1)} compare(%eq.49, %eq.48), direction=EQ, metadata={op_name="jit(train_step)/jvp(jit(_one_hot))/eq" stack_frame_id=0}
  %convert_element_type.1059 = f32[4,128,128256]{2,1,0:T(8,128)} convert(%eq.47), metadata={op_name="jit(train_step)/jvp(jit(_one_hot))/convert_element_type" stack_frame_id=0}
  %sub.92 = f32[4,128,128256]{2,1,0:T(8,128)} subtract(%div.822, %convert_element_type.1059), metadata={op_name="jit(train_step)/transpose(jvp())/sub" stack_frame_id=0}
  %mul.1934 = f32[4,128,128256]{2,1,0:T(8,128)} multiply(%mul.1937, %sub.92), metadata={op_name="jit(train_step)/transpose(jvp())/mul" stack_frame_id=0}
  ROOT %convert_element_type.1058 = bf16[4,128,128256]{2,1,0:T(8,128)(2,1)} convert(%mul.1934), metadata={op_name="jit(train_step)/transpose(jvp(TransformerLinenPure.apply))/TransformerLinenPure/decoder/decoder.apply_output_head/convert_element_type" stack_frame_id=0}
}

%fused_computation.316.clone.clone (param_0.1107: f32[4,128], param_1.1270: bf16[4,128,4096], param_2.1082: bf16[4096]) -> bf16[4,128,4096] {
  %param_1.1270 = bf16[4,128,4096]{2,1,0:T(8,128)(2,1)S(1)} parameter(1)
  %convert_element_type.1062 = f32[4,128,4096]{2,1,0:T(8,128)} convert(%param_1.1270), metadata={op_name="jit(train_step)/jvp(TransformerLinenPure.apply)/TransformerLinenPure/decoder/decoder.apply_output_head/decoder_norm/convert_element_type" stack_frame_id=0}
  %param_0.1107 = f32[4,128]{1,0:T(4,128)S(1)} parameter(0)
  %mul.1940 = f32[4,128,4096]{2,1,0:T(8,128)} broadcast(%param_0.1107), dimensions={0,1}, metadata={op_name="jit(train_step)/jvp(TransformerLinenPure.apply)/TransformerLinenPure/decoder/decoder.apply_output_head/decoder_norm/mul" stack_frame_id=0}
  %mul.1939 = f32[4,128,4096]{2,1,0:T(8,128)} multiply(%convert_element_type.1062, %mul.1940), metadata={op_name="jit(train_step)/jvp(TransformerLinenPure.apply)/TransformerLinenPure/decoder/decoder.apply_output_head/decoder_norm/mul" stack_frame_id=0}
  %convert_element_type.1061 = bf16[4,128,4096]{2,1,0:T(8,128)(2,1)} convert(%mul.1939), metadata={op_name="jit(train_step)/jvp(TransformerLinenPure.apply)/TransformerLinenPure/decoder/decoder.apply_output_head/decoder_norm/convert_element_type" stack_frame_id=0}
  %param_2.1082 = bf16[4096]{0:T(1024)(128)(2,1)S(1)} parameter(2)
  %mul.1941 = bf16[4,128,4096]{2,1,0:T(8,128)(2,1)} broadcast(%param_2.1082), dimensions={2}, metadata={op_name="jit(train_step)/jvp(TransformerLinenPure.apply)/TransformerLinenPure/decoder/decoder.apply_output_head/decoder_norm/mul" stack_frame_id=0}
  ROOT %mul.1938 = bf16[4,128,4096]{2,1,0:T(8,128)(2,1)} multiply(%convert_element_type.1061, %mul.1941), metadata={op_name="jit(train_step)/jvp(TransformerLinenPure.apply)/TransformerLinenPure/decoder/decoder.apply_output_head/decoder_norm/mul" stack_frame_id=0}
}

%fused_computation.219 (param_0.1126: bf16[4,128,128256], param_1.1285: s32[4,128], param_2.1106: f32[4,128], param_3.789: f32[4,128], param_4.496: bf16[4,128], param_5.427: f32[4,128], param_6.300: f32[4,128], param_7.198: bf16[4,128,4096], param_8.116: bf16[4096]) -> (f32[], bf16[4096,128256,1]) {
  %param_6.300 = f32[4,128]{1,0:T(4,128)S(1)} parameter(6)
  %param_7.198 = bf16[4,128,4096]{2,1,0:T(8,128)(2,1)S(1)} parameter(7)
  %param_8.116 = bf16[4096]{0:T(1024)(128)(2,1)S(1)} parameter(8)
  %fusion.239.clone.1 = bf16[4,128,4096]{2,1,0:T(8,128)(2,1)} fusion(%param_6.300, %param_7.198, %param_8.116), kind=kLoop, calls=%fused_computation.316.clone.clone, metadata={op_name="jit(train_step)/jvp(TransformerLinenPure.apply)/TransformerLinenPure/decoder/decoder.apply_output_head/decoder_norm/mul" stack_frame_id=0}
  %param_0.1126 = bf16[4,128,128256]{2,1,0:T(8,128)(2,1)} parameter(0)
  %param_1.1285 = s32[4,128]{1,0:T(4,128)S(1)} parameter(1)
  %param_2.1106 = f32[4,128]{1,0:T(4,128)S(1)} parameter(2)
  %param_3.789 = f32[4,128]{1,0:T(4,128)S(1)} parameter(3)
  %param_4.496 = bf16[4,128]{1,0:T(4,128)(2,1)S(1)} parameter(4)
  %param_5.427 = f32[4,128]{1,0:T(4,128)S(1)} parameter(5)
  %multiply_convert_fusion.1.clone.1 = bf16[4,128,128256]{2,1,0:T(8,128)(2,1)} fusion(%param_0.1126, %param_1.1285, %param_2.1106, %param_3.789, %param_4.496, /*index=5*/%param_5.427), kind=kLoop, calls=%fused_computation.280.clone.clone.clone, metadata={op_name="jit(train_step)/transpose(jvp(TransformerLinenPure.apply))/TransformerLinenPure/decoder/decoder.apply_output_head/convert_element_type" stack_frame_id=0}
  %convolution.88.clone.1 = bf16[4096,128256,1]{1,0,2:T(8,128)(2,1)} convolution(%fusion.239.clone.1, %multiply_convert_fusion.1.clone.1), window={size=4}, dim_labels=0fb_0io->bf0, metadata={op_name="jit(train_step)/transpose(jvp(TransformerLinenPure.apply))/TransformerLinenPure/decoder/decoder.apply_output_head/logits_dense/dot_general" stack_frame_id=0}
  %bitcast.306 = bf16[4096,128256]{1,0:T(8,128)(2,1)} bitcast(%convolution.88.clone.1), metadata={op_name="jit(train_step)/transpose(jvp(TransformerLinenPure.apply))/TransformerLinenPure/decoder/decoder.apply_output_head/logits_dense/dot_general" stack_frame_id=0}
  %convert_element_type.939 = f32[4096,128256]{1,0:T(8,128)} convert(%bitcast.306), metadata={op_name="jit(train_step)/transpose(jvp(TransformerLinenPure.apply))/TransformerLinenPure/decoder/decoder.apply_output_head/logits_dense/convert_element_type" stack_frame_id=0}
  %square.157 = f32[4096,128256]{1,0:T(8,128)} multiply(%convert_element_type.939, %convert_element_type.939), metadata={op_name="jit(train_step)/square" stack_frame_id=0}
  %constant.998 = f32[]{:T(128)} constant(0)
  %reduce.79 = f32[]{:T(128)} reduce(%square.157, %constant.998), dimensions={0,1}, to_apply=%region_32.37, metadata={op_name="jit(train_step)/reduce_sum" stack_frame_id=0}
  ROOT %tuple.154 = (f32[]{:T(128)}, bf16[4096,128256,1]{1,0,2:T(8,128)(2,1)}) tuple(%reduce.79, %convolution.88.clone.1)
}

%region_34.39 (reduce_sum.250: f32[], reduce_sum.251: f32[]) -> f32[] {
  %reduce_sum.250 = f32[]{:T(128)} parameter(0), metadata={op_name="jit(train_step)/reduce_sum"}
  %reduce_sum.251 = f32[]{:T(128)} parameter(1), metadata={op_name="jit(train_step)/reduce_sum"}
  ROOT %reduce_sum.252 = f32[]{:T(128)} add(%reduce_sum.250, %reduce_sum.251), metadata={op_name="jit(train_step)/reduce_sum" stack_frame_id=0}, backend_config={"flag_configs":[],"scoped_memory_configs":[],"used_scoped_memory_configs":[],"aliasing_operands":{"lists":[]}}
}

%fused_computation.220 (param_0.1125: bf16[128256,4096]) -> f32[] {
  %param_0.1125 = bf16[128256,4096]{1,0:T(8,128)(2,1)} parameter(0)
  %convert_element_type.941 = f32[128256,4096]{1,0:T(8,128)} convert(%param_0.1125), metadata={op_name="jit(train_step)/transpose(jvp(TransformerLinenPure.apply))/TransformerLinenPure/decoder/decoder._apply_embedding/token_embedder/convert_element_type" stack_frame_id=0}
  %square.159 = f32[128256,4096]{1,0:T(8,128)} multiply(%convert_element_type.941, %convert_element_type.941), metadata={op_name="jit(train_step)/square" stack_frame_id=0}
  %constant.997 = f32[]{:T(128)} constant(0)
  ROOT %reduce.80 = f32[]{:T(128)} reduce(%square.159, %constant.997), dimensions={0,1}, to_apply=%region_34.39, metadata={op_name="jit(train_step)/reduce_sum" stack_frame_id=0}
}

%region_60.65 (reduce_sum.385: f32[], reduce_sum.389: f32[]) -> f32[] {
  %reduce_sum.385 = f32[]{:T(128)} parameter(0), metadata={op_name="jit(train_step)/reduce_sum"}
  %reduce_sum.389 = f32[]{:T(128)} parameter(1), metadata={op_name="jit(train_step)/reduce_sum"}
  ROOT %reduce_sum.390 = f32[]{:T(128)} add(%reduce_sum.385, %reduce_sum.389), metadata={op_name="jit(train_step)/reduce_sum" stack_frame_id=0}, backend_config={"flag_configs":[],"scoped_memory_configs":[],"used_scoped_memory_configs":[],"aliasing_operands":{"lists":[]}}
}

%region_46.51 (reduce_sum.313: f32[], reduce_sum.314: f32[]) -> f32[] {
  %reduce_sum.313 = f32[]{:T(128)} parameter(0), metadata={op_name="jit(train_step)/reduce_sum"}
  %reduce_sum.314 = f32[]{:T(128)} parameter(1), metadata={op_name="jit(train_step)/reduce_sum"}
  ROOT %reduce_sum.315 = f32[]{:T(128)} add(%reduce_sum.313, %reduce_sum.314), metadata={op_name="jit(train_step)/reduce_sum" stack_frame_id=0}, backend_config={"flag_configs":[],"scoped_memory_configs":[],"used_scoped_memory_configs":[],"aliasing_operands":{"lists":[]}}
}

%fused_computation.221 (param_0.1113: f32[128256,4096], param_1.1273: f32[], param_2.1094: f32[], param_3.777: f32[], param_4.484: f32[128256,4096], param_5.415: f32[], param_6.288: bf16[128256,4096], param_7.186: pred[], param_8.104: f32[128256,4096]) -> (f32[], f32[128256,4096], f32[128256,4096], f32[128256,4096], f32[]) {
  %param_0.1113 = f32[128256,4096]{1,0:T(8,128)} parameter(0)
  %param_3.777 = f32[]{:T(128)S(6)} parameter(3)
  %mul.1800.clone.1 = f32[128256,4096]{1,0:T(8,128)} broadcast(%param_3.777), dimensions={}, metadata={op_name="jit(train_step)/mul" stack_frame_id=0}
  %param_7.186 = pred[]{:T(512)S(6)} parameter(7)
  %select_n.242.clone.1 = pred[128256,4096]{1,0:T(8,128)(4,1)} broadcast(%param_7.186), dimensions={}, metadata={op_name="jit(train_step)/select_n" stack_frame_id=0}
  %param_6.288 = bf16[128256,4096]{1,0:T(8,128)(2,1)} parameter(6)
  %convert_element_type.1033.clone.1 = f32[128256,4096]{1,0:T(8,128)} convert(%param_6.288), metadata={op_name="jit(train_step)/transpose(jvp(TransformerLinenPure.apply))/TransformerLinenPure/decoder/decoder._apply_embedding/token_embedder/convert_element_type" stack_frame_id=0}
  %param_5.415 = f32[]{:T(128)} parameter(5)
  %div.725.clone.1 = f32[128256,4096]{1,0:T(8,128)} broadcast(%param_5.415), dimensions={}, metadata={op_name="jit(train_step)/div" stack_frame_id=0}
  %div.724.clone.1 = f32[128256,4096]{1,0:T(8,128)} divide(%convert_element_type.1033.clone.1, %div.725.clone.1), metadata={op_name="jit(train_step)/div" stack_frame_id=0}
  %select_n.241.clone.1 = f32[128256,4096]{1,0:T(8,128)} select(%select_n.242.clone.1, %convert_element_type.1033.clone.1, %div.724.clone.1), metadata={op_name="jit(train_step)/select_n" stack_frame_id=0}
  %constant.899.clone.1 = f32[]{:T(128)} constant(0.1)
  %broadcast.515.clone.1 = f32[128256,4096]{1,0:T(8,128)} broadcast(%constant.899.clone.1), dimensions={}, metadata={op_name="broadcast.61"}
  %mul.1806.clone.1 = f32[128256,4096]{1,0:T(8,128)} multiply(%select_n.241.clone.1, %broadcast.515.clone.1), metadata={op_name="jit(train_step)/mul" stack_frame_id=0}
  %param_8.104 = f32[128256,4096]{1,0:T(8,128)} parameter(8)
  %constant.903.clone.1 = f32[]{:T(128)} constant(0.9)
  %mul.1807.clone.1 = f32[128256,4096]{1,0:T(8,128)} broadcast(%constant.903.clone.1), dimensions={}, metadata={op_name="jit(train_step)/mul" stack_frame_id=0}
  %mul.1805.clone.1 = f32[128256,4096]{1,0:T(8,128)} multiply(%param_8.104, %mul.1807.clone.1), metadata={op_name="jit(train_step)/mul" stack_frame_id=0}
  %add.762.clone.1 = f32[128256,4096]{1,0:T(8,128)} add(%mul.1806.clone.1, %mul.1805.clone.1), metadata={op_name="jit(train_step)/add" stack_frame_id=0}
  %param_2.1094 = f32[]{:T(128)S(6)} parameter(2)
  %div.721.clone.1 = f32[128256,4096]{1,0:T(8,128)} broadcast(%param_2.1094), dimensions={}, metadata={op_name="jit(train_step)/div" stack_frame_id=0}
  %integer_pow.60.clone.1 = f32[128256,4096]{1,0:T(8,128)} multiply(%select_n.241.clone.1, %select_n.241.clone.1), metadata={op_name="jit(train_step)/integer_pow" stack_frame_id=0}
  %constant.902.clone.1 = f32[]{:T(128)} constant(0.05)
  %mul.1804.clone.1 = f32[128256,4096]{1,0:T(8,128)} broadcast(%constant.902.clone.1), dimensions={}, metadata={op_name="jit(train_step)/mul" stack_frame_id=0}
  %mul.1802.clone.1 = f32[128256,4096]{1,0:T(8,128)} multiply(%integer_pow.60.clone.1, %mul.1804.clone.1), metadata={op_name="jit(train_step)/mul" stack_frame_id=0}
  %param_4.484 = f32[128256,4096]{1,0:T(8,128)} parameter(4)
  %constant.901.clone.1 = f32[]{:T(128)} constant(0.95)
  %mul.1803.clone.1 = f32[128256,4096]{1,0:T(8,128)} broadcast(%constant.901.clone.1), dimensions={}, metadata={op_name="jit(train_step)/mul" stack_frame_id=0}
  %mul.1801.clone.1 = f32[128256,4096]{1,0:T(8,128)} multiply(%param_4.484, %mul.1803.clone.1), metadata={op_name="jit(train_step)/mul" stack_frame_id=0}
  %add.761.clone.1 = f32[128256,4096]{1,0:T(8,128)} add(%mul.1802.clone.1, %mul.1801.clone.1), metadata={op_name="jit(train_step)/add" stack_frame_id=0}
  %param_1.1273 = f32[]{:T(128)S(6)} parameter(1)
  %div.720.clone.1 = f32[128256,4096]{1,0:T(8,128)} broadcast(%param_1.1273), dimensions={}, metadata={op_name="jit(train_step)/div" stack_frame_id=0}
  %div.719.clone.1 = f32[128256,4096]{1,0:T(8,128)} divide(%add.761.clone.1, %div.720.clone.1), metadata={op_name="jit(train_step)/div" stack_frame_id=0}
  %sqrt.58.clone.1 = f32[128256,4096]{1,0:T(8,128)} sqrt(%div.719.clone.1), metadata={op_name="jit(train_step)/sqrt" stack_frame_id=0}
  %constant.900.clone.1 = f32[]{:T(128)} constant(1e-08)
  %add.760.clone.1 = f32[128256,4096]{1,0:T(8,128)} broadcast(%constant.900.clone.1), dimensions={}, metadata={op_name="jit(train_step)/add" stack_frame_id=0}
  %add.759.clone.1 = f32[128256,4096]{1,0:T(8,128)} add(%sqrt.58.clone.1, %add.760.clone.1), metadata={op_name="jit(train_step)/add" stack_frame_id=0}
  %multiply.183.clone.1 = f32[128256,4096]{1,0:T(8,128)} multiply(%div.721.clone.1, %add.759.clone.1), metadata={op_name="multiply.33"}
  %div.718.clone.1 = f32[128256,4096]{1,0:T(8,128)} divide(%add.762.clone.1, %multiply.183.clone.1), metadata={op_name="jit(train_step)/div" stack_frame_id=0}
  %mul.1799.clone.1 = f32[128256,4096]{1,0:T(8,128)} multiply(%param_0.1113, %broadcast.515.clone.1), metadata={op_name="jit(train_step)/mul" stack_frame_id=0}
  %add.758.clone.1 = f32[128256,4096]{1,0:T(8,128)} add(%div.718.clone.1, %mul.1799.clone.1), metadata={op_name="jit(train_step)/add" stack_frame_id=0}
  %mul.1798.clone.1 = f32[128256,4096]{1,0:T(8,128)} multiply(%mul.1800.clone.1, %add.758.clone.1), metadata={op_name="jit(train_step)/mul" stack_frame_id=0}
  %add.757.clone.1 = f32[128256,4096]{1,0:T(8,128)} add(%param_0.1113, %mul.1798.clone.1), metadata={op_name="jit(train_step)/add" stack_frame_id=0}
  %square.160 = f32[128256,4096]{1,0:T(8,128)} multiply(%add.757.clone.1, %add.757.clone.1), metadata={op_name="jit(train_step)/square" stack_frame_id=0}
  %constant.985 = f32[]{:T(128)} constant(0)
  %reduce.81 = f32[]{:T(128)} reduce(%square.160, %constant.985), dimensions={0,1}, to_apply=%region_60.65, metadata={op_name="jit(train_step)/reduce_sum" stack_frame_id=0}
  %reduce.83.clone.1 = f32[]{:T(128)} reduce(%integer_pow.60.clone.1, %constant.985), dimensions={0,1}, to_apply=%region_46.51, metadata={op_name="jit(train_step)/reduce_sum" stack_frame_id=0}
  ROOT %tuple.135 = (f32[]{:T(128)}, f32[128256,4096]{1,0:T(8,128)}, f32[128256,4096]{1,0:T(8,128)}, f32[128256,4096]{1,0:T(8,128)}, f32[]{:T(128)}) tuple(%reduce.81, %add.757.clone.1, %add.761.clone.1, %add.762.clone.1, %reduce.83.clone.1)
}

%region_59.64 (reduce_sum.382: f32[], reduce_sum.383: f32[]) -> f32[] {
  %reduce_sum.382 = f32[]{:T(128)} parameter(0), metadata={op_name="jit(train_step)/reduce_sum"}
  %reduce_sum.383 = f32[]{:T(128)} parameter(1), metadata={op_name="jit(train_step)/reduce_sum"}
  ROOT %reduce_sum.384 = f32[]{:T(128)} add(%reduce_sum.382, %reduce_sum.383), metadata={op_name="jit(train_step)/reduce_sum" stack_frame_id=0}, backend_config={"flag_configs":[],"scoped_memory_configs":[],"used_scoped_memory_configs":[],"aliasing_operands":{"lists":[]}}
}

%region_45.50 (reduce_sum.307: f32[], reduce_sum.308: f32[]) -> f32[] {
  %reduce_sum.307 = f32[]{:T(128)} parameter(0), metadata={op_name="jit(train_step)/reduce_sum"}
  %reduce_sum.308 = f32[]{:T(128)} parameter(1), metadata={op_name="jit(train_step)/reduce_sum"}
  ROOT %reduce_sum.312 = f32[]{:T(128)} add(%reduce_sum.307, %reduce_sum.308), metadata={op_name="jit(train_step)/reduce_sum" stack_frame_id=0}, backend_config={"flag_configs":[],"scoped_memory_configs":[],"used_scoped_memory_configs":[],"aliasing_operands":{"lists":[]}}
}

%fused_computation.222 (param_0.1114: f32[4096,128256], param_1.1274: f32[], param_2.1095: f32[], param_3.778: f32[], param_4.485: f32[4096,128256], param_5.416: f32[], param_6.289: bf16[4096,128256,1], param_7.187: pred[], param_8.105: f32[4096,128256]) -> (f32[], f32[4096,128256], f32[4096,128256], f32[4096,128256], f32[]) {
  %param_0.1114 = f32[4096,128256]{1,0:T(8,128)} parameter(0)
  %param_3.778 = f32[]{:T(128)S(6)} parameter(3)
  %mul.1810.clone.1 = f32[4096,128256]{1,0:T(8,128)} broadcast(%param_3.778), dimensions={}, metadata={op_name="jit(train_step)/mul" stack_frame_id=0}
  %param_7.187 = pred[]{:T(512)S(6)} parameter(7)
  %select_n.246.clone.1 = pred[4096,128256]{1,0:T(8,128)(4,1)} broadcast(%param_7.187), dimensions={}, metadata={op_name="jit(train_step)/select_n" stack_frame_id=0}
  %param_6.289 = bf16[4096,128256,1]{1,0,2:T(8,128)(2,1)} parameter(6)
  %bitcast.409.clone.1 = bf16[4096,128256]{1,0:T(8,128)(2,1)} bitcast(%param_6.289), metadata={op_name="jit(train_step)/transpose(jvp(TransformerLinenPure.apply))/TransformerLinenPure/decoder/decoder.apply_output_head/logits_dense/dot_general" stack_frame_id=0}
  %convert_element_type.1035.clone.1 = f32[4096,128256]{1,0:T(8,128)} convert(%bitcast.409.clone.1), metadata={op_name="jit(train_step)/transpose(jvp(TransformerLinenPure.apply))/TransformerLinenPure/decoder/decoder.apply_output_head/logits_dense/convert_element_type" stack_frame_id=0}
  %param_5.416 = f32[]{:T(128)} parameter(5)
  %div.733.clone.1 = f32[4096,128256]{1,0:T(8,128)} broadcast(%param_5.416), dimensions={}, metadata={op_name="jit(train_step)/div" stack_frame_id=0}
  %div.732.clone.1 = f32[4096,128256]{1,0:T(8,128)} divide(%convert_element_type.1035.clone.1, %div.733.clone.1), metadata={op_name="jit(train_step)/div" stack_frame_id=0}
  %select_n.245.clone.1 = f32[4096,128256]{1,0:T(8,128)} select(%select_n.246.clone.1, %convert_element_type.1035.clone.1, %div.732.clone.1), metadata={op_name="jit(train_step)/select_n" stack_frame_id=0}
  %constant.905.clone.1 = f32[]{:T(128)} constant(0.1)
  %broadcast.517.clone.1 = f32[4096,128256]{1,0:T(8,128)} broadcast(%constant.905.clone.1), dimensions={}, metadata={op_name="broadcast.62"}
  %mul.1816.clone.1 = f32[4096,128256]{1,0:T(8,128)} multiply(%select_n.245.clone.1, %broadcast.517.clone.1), metadata={op_name="jit(train_step)/mul" stack_frame_id=0}
  %param_8.105 = f32[4096,128256]{1,0:T(8,128)} parameter(8)
  %constant.909.clone.1 = f32[]{:T(128)} constant(0.9)
  %mul.1817.clone.1 = f32[4096,128256]{1,0:T(8,128)} broadcast(%constant.909.clone.1), dimensions={}, metadata={op_name="jit(train_step)/mul" stack_frame_id=0}
  %mul.1815.clone.1 = f32[4096,128256]{1,0:T(8,128)} multiply(%param_8.105, %mul.1817.clone.1), metadata={op_name="jit(train_step)/mul" stack_frame_id=0}
  %add.768.clone.1 = f32[4096,128256]{1,0:T(8,128)} add(%mul.1816.clone.1, %mul.1815.clone.1), metadata={op_name="jit(train_step)/add" stack_frame_id=0}
  %param_2.1095 = f32[]{:T(128)S(6)} parameter(2)
  %div.729.clone.1 = f32[4096,128256]{1,0:T(8,128)} broadcast(%param_2.1095), dimensions={}, metadata={op_name="jit(train_step)/div" stack_frame_id=0}
  %integer_pow.61.clone.1 = f32[4096,128256]{1,0:T(8,128)} multiply(%select_n.245.clone.1, %select_n.245.clone.1), metadata={op_name="jit(train_step)/integer_pow" stack_frame_id=0}
  %constant.908.clone.1 = f32[]{:T(128)} constant(0.05)
  %mul.1814.clone.1 = f32[4096,128256]{1,0:T(8,128)} broadcast(%constant.908.clone.1), dimensions={}, metadata={op_name="jit(train_step)/mul" stack_frame_id=0}
  %mul.1812.clone.1 = f32[4096,128256]{1,0:T(8,128)} multiply(%integer_pow.61.clone.1, %mul.1814.clone.1), metadata={op_name="jit(train_step)/mul" stack_frame_id=0}
  %param_4.485 = f32[4096,128256]{1,0:T(8,128)} parameter(4)
  %constant.907.clone.1 = f32[]{:T(128)} constant(0.95)
  %mul.1813.clone.1 = f32[4096,128256]{1,0:T(8,128)} broadcast(%constant.907.clone.1), dimensions={}, metadata={op_name="jit(train_step)/mul" stack_frame_id=0}
  %mul.1811.clone.1 = f32[4096,128256]{1,0:T(8,128)} multiply(%param_4.485, %mul.1813.clone.1), metadata={op_name="jit(train_step)/mul" stack_frame_id=0}
  %add.767.clone.1 = f32[4096,128256]{1,0:T(8,128)} add(%mul.1812.clone.1, %mul.1811.clone.1), metadata={op_name="jit(train_step)/add" stack_frame_id=0}
  %param_1.1274 = f32[]{:T(128)S(6)} parameter(1)
  %div.728.clone.1 = f32[4096,128256]{1,0:T(8,128)} broadcast(%param_1.1274), dimensions={}, metadata={op_name="jit(train_step)/div" stack_frame_id=0}
  %div.727.clone.1 = f32[4096,128256]{1,0:T(8,128)} divide(%add.767.clone.1, %div.728.clone.1), metadata={op_name="jit(train_step)/div" stack_frame_id=0}
  %sqrt.59.clone.1 = f32[4096,128256]{1,0:T(8,128)} sqrt(%div.727.clone.1), metadata={op_name="jit(train_step)/sqrt" stack_frame_id=0}
  %constant.906.clone.1 = f32[]{:T(128)} constant(1e-08)
  %add.766.clone.1 = f32[4096,128256]{1,0:T(8,128)} broadcast(%constant.906.clone.1), dimensions={}, metadata={op_name="jit(train_step)/add" stack_frame_id=0}
  %add.765.clone.1 = f32[4096,128256]{1,0:T(8,128)} add(%sqrt.59.clone.1, %add.766.clone.1), metadata={op_name="jit(train_step)/add" stack_frame_id=0}
  %multiply.184.clone.1 = f32[4096,128256]{1,0:T(8,128)} multiply(%div.729.clone.1, %add.765.clone.1), metadata={op_name="multiply.32"}
  %div.726.clone.1 = f32[4096,128256]{1,0:T(8,128)} divide(%add.768.clone.1, %multiply.184.clone.1), metadata={op_name="jit(train_step)/div" stack_frame_id=0}
  %mul.1809.clone.1 = f32[4096,128256]{1,0:T(8,128)} multiply(%param_0.1114, %broadcast.517.clone.1), metadata={op_name="jit(train_step)/mul" stack_frame_id=0}
  %add.764.clone.1 = f32[4096,128256]{1,0:T(8,128)} add(%div.726.clone.1, %mul.1809.clone.1), metadata={op_name="jit(train_step)/add" stack_frame_id=0}
  %mul.1808.clone.1 = f32[4096,128256]{1,0:T(8,128)} multiply(%mul.1810.clone.1, %add.764.clone.1), metadata={op_name="jit(train_step)/mul" stack_frame_id=0}
  %add.763.clone.1 = f32[4096,128256]{1,0:T(8,128)} add(%param_0.1114, %mul.1808.clone.1), metadata={op_name="jit(train_step)/add" stack_frame_id=0}
  %square.161 = f32[4096,128256]{1,0:T(8,128)} multiply(%add.763.clone.1, %add.763.clone.1), metadata={op_name="jit(train_step)/square" stack_frame_id=0}
  %constant.986 = f32[]{:T(128)} constant(0)
  %reduce.82 = f32[]{:T(128)} reduce(%square.161, %constant.986), dimensions={0,1}, to_apply=%region_59.64, metadata={op_name="jit(train_step)/reduce_sum" stack_frame_id=0}
  %reduce.84.clone.1 = f32[]{:T(128)} reduce(%integer_pow.61.clone.1, %constant.986), dimensions={0,1}, to_apply=%region_45.50, metadata={op_name="jit(train_step)/reduce_sum" stack_frame_id=0}
  ROOT %tuple.136 = (f32[]{:T(128)}, f32[4096,128256]{1,0:T(8,128)}, f32[4096,128256]{1,0:T(8,128)}, f32[4096,128256]{1,0:T(8,128)}, f32[]{:T(128)}) tuple(%reduce.82, %add.763.clone.1, %add.767.clone.1, %add.768.clone.1, %reduce.84.clone.1)
}

%region_25.30 (reduce_sum.208: f32[], reduce_sum.209: f32[]) -> f32[] {
  %reduce_sum.208 = f32[]{:T(128)} parameter(0), metadata={op_name="jit(train_step)/reduce_sum"}
  %reduce_sum.209 = f32[]{:T(128)} parameter(1), metadata={op_name="jit(train_step)/reduce_sum"}
  ROOT %reduce_sum.210 = f32[]{:T(128)} add(%reduce_sum.208, %reduce_sum.209), metadata={op_name="jit(train_step)/reduce_sum" stack_frame_id=0}, backend_config={"flag_configs":[],"scoped_memory_configs":[],"used_scoped_memory_configs":[],"aliasing_operands":{"lists":[]}}
}

%fused_computation.239 (param_0.1131: f32[4,14336,4096]) -> f32[] {
  %param_0.1131 = f32[4,14336,4096]{2,0,1:T(4,128)} parameter(0)
  %bitcast.314 = f32[14336,4,4096]{2,1,0:T(4,128)} bitcast(%param_0.1131), metadata={op_name="jit(train_step)/transpose(jvp(TransformerLinenPure.apply))/TransformerLinenPure/decoder/transpose" stack_frame_id=0}
  %square.164 = f32[14336,4,4096]{2,1,0:T(4,128)} multiply(%bitcast.314, %bitcast.314), metadata={op_name="jit(train_step)/square" stack_frame_id=0}
  %constant.1003 = f32[]{:T(128)} constant(0)
  ROOT %reduce.85 = f32[]{:T(128)} reduce(%square.164, %constant.1003), dimensions={0,1,2}, to_apply=%region_25.30, metadata={op_name="jit(train_step)/reduce_sum" stack_frame_id=0}
}

%region_24.29 (reduce_sum.202: f32[], reduce_sum.203: f32[]) -> f32[] {
  %reduce_sum.202 = f32[]{:T(128)} parameter(0), metadata={op_name="jit(train_step)/reduce_sum"}
  %reduce_sum.203 = f32[]{:T(128)} parameter(1), metadata={op_name="jit(train_step)/reduce_sum"}
  ROOT %reduce_sum.207 = f32[]{:T(128)} add(%reduce_sum.202, %reduce_sum.203), metadata={op_name="jit(train_step)/reduce_sum" stack_frame_id=0}, backend_config={"flag_configs":[],"scoped_memory_configs":[],"used_scoped_memory_configs":[],"aliasing_operands":{"lists":[]}}
}

%region_23.28 (reduce_sum.196: f32[], reduce_sum.200: f32[]) -> f32[] {
  %reduce_sum.196 = f32[]{:T(128)} parameter(0), metadata={op_name="jit(train_step)/reduce_sum"}
  %reduce_sum.200 = f32[]{:T(128)} parameter(1), metadata={op_name="jit(train_step)/reduce_sum"}
  ROOT %reduce_sum.201 = f32[]{:T(128)} add(%reduce_sum.196, %reduce_sum.200), metadata={op_name="jit(train_step)/reduce_sum" stack_frame_id=0}, backend_config={"flag_configs":[],"scoped_memory_configs":[],"used_scoped_memory_configs":[],"aliasing_operands":{"lists":[]}}
}

%fused_computation.241 (param_0.1132: f32[4,4096,14336], param_1.1288: f32[4,4096,14336]) -> (f32[], f32[]) {
  %param_0.1132 = f32[4,4096,14336]{2,0,1:T(4,128)} parameter(0)
  %bitcast.318 = f32[4096,4,14336]{2,1,0:T(4,128)} bitcast(%param_0.1132), metadata={op_name="jit(train_step)/transpose(jvp(TransformerLinenPure.apply))/TransformerLinenPure/decoder/transpose" stack_frame_id=0}
  %square.167 = f32[4096,4,14336]{2,1,0:T(4,128)} multiply(%bitcast.318, %bitcast.318), metadata={op_name="jit(train_step)/square" stack_frame_id=0}
  %constant.1004 = f32[]{:T(128)} constant(0)
  %reduce.86 = f32[]{:T(128)} reduce(%square.167, %constant.1004), dimensions={0,1,2}, to_apply=%region_24.29, metadata={op_name="jit(train_step)/reduce_sum" stack_frame_id=0}
  %param_1.1288 = f32[4,4096,14336]{2,0,1:T(4,128)} parameter(1)
  %bitcast.322.clone.1 = f32[4096,4,14336]{2,1,0:T(4,128)} bitcast(%param_1.1288), metadata={op_name="jit(train_step)/transpose(jvp(TransformerLinenPure.apply))/TransformerLinenPure/decoder/transpose" stack_frame_id=0}
  %square.170.clone.1 = f32[4096,4,14336]{2,1,0:T(4,128)} multiply(%bitcast.322.clone.1, %bitcast.322.clone.1), metadata={op_name="jit(train_step)/square" stack_frame_id=0}
  %reduce.87.clone.1 = f32[]{:T(128)} reduce(%square.170.clone.1, %constant.1004), dimensions={0,1,2}, to_apply=%region_23.28, metadata={op_name="jit(train_step)/reduce_sum" stack_frame_id=0}
  ROOT %tuple.155 = (f32[]{:T(128)}, f32[]{:T(128)}) tuple(%reduce.86, %reduce.87.clone.1)
}

%fused_computation.244 (param_0.699: f32[14336,4,4096]) -> bf16[4,14336,4096] {
  %param_0.699 = f32[14336,4,4096]{2,1,0:T(4,128)} parameter(0)
  %copy.234 = bf16[14336,4,4096]{2,0,1:T(8,128)(2,1)} copy(%param_0.699), sharding={replicated}, metadata={op_name="state.params[\'params\'][\'decoder\'][\'layers\'][\'mlp\'][\'wo\'][\'kernel\']"}
  ROOT %bitcast.323 = bf16[4,14336,4096]{2,1,0:T(8,128)(2,1)} bitcast(%copy.234), metadata={op_name="jit(train_step)/jvp(TransformerLinenPure.apply)/TransformerLinenPure/decoder/transpose" stack_frame_id=0}
}

%fused_computation.245 (param_0.701: f32[4096,4,14336]) -> bf16[4,4096,14336] {
  %param_0.701 = f32[4096,4,14336]{2,1,0:T(4,128)} parameter(0)
  %copy.235 = bf16[4096,4,14336]{2,0,1:T(8,128)(2,1)} copy(%param_0.701), sharding={replicated}, metadata={op_name="state.params[\'params\'][\'decoder\'][\'layers\'][\'mlp\'][\'wi_1\'][\'kernel\']"}
  ROOT %bitcast.324 = bf16[4,4096,14336]{2,1,0:T(8,128)(2,1)} bitcast(%copy.235), metadata={op_name="jit(train_step)/jvp(TransformerLinenPure.apply)/TransformerLinenPure/decoder/transpose" stack_frame_id=0}
}

%fused_computation.246 (param_0.703: f32[4096,4,14336]) -> bf16[4,4096,14336] {
  %param_0.703 = f32[4096,4,14336]{2,1,0:T(4,128)} parameter(0)
  %copy.236 = bf16[4096,4,14336]{2,0,1:T(8,128)(2,1)} copy(%param_0.703), sharding={replicated}, metadata={op_name="state.params[\'params\'][\'decoder\'][\'layers\'][\'mlp\'][\'wi_0\'][\'kernel\']"}
  ROOT %bitcast.325 = bf16[4,4096,14336]{2,1,0:T(8,128)(2,1)} bitcast(%copy.236), metadata={op_name="jit(train_step)/jvp(TransformerLinenPure.apply)/TransformerLinenPure/decoder/transpose" stack_frame_id=0}
}

%region_52.57 (reduce_sum.343: f32[], reduce_sum.347: f32[]) -> f32[] {
  %reduce_sum.343 = f32[]{:T(128)} parameter(0), metadata={op_name="jit(train_step)/reduce_sum"}
  %reduce_sum.347 = f32[]{:T(128)} parameter(1), metadata={op_name="jit(train_step)/reduce_sum"}
  ROOT %reduce_sum.348 = f32[]{:T(128)} add(%reduce_sum.343, %reduce_sum.347), metadata={op_name="jit(train_step)/reduce_sum" stack_frame_id=0}, backend_config={"flag_configs":[],"scoped_memory_configs":[],"used_scoped_memory_configs":[],"aliasing_operands":{"lists":[]}}
}

%region_38.43 (reduce_sum.271: f32[], reduce_sum.272: f32[]) -> f32[] {
  %reduce_sum.271 = f32[]{:T(128)} parameter(0), metadata={op_name="jit(train_step)/reduce_sum"}
  %reduce_sum.272 = f32[]{:T(128)} parameter(1), metadata={op_name="jit(train_step)/reduce_sum"}
  ROOT %reduce_sum.273 = f32[]{:T(128)} add(%reduce_sum.271, %reduce_sum.272), metadata={op_name="jit(train_step)/reduce_sum" stack_frame_id=0}, backend_config={"flag_configs":[],"scoped_memory_configs":[],"used_scoped_memory_configs":[],"aliasing_operands":{"lists":[]}}
}

%fused_computation.247 (param_0.1121: f32[14336,4,4096], param_1.1281: f32[], param_2.1102: f32[], param_3.785: f32[], param_4.492: f32[14336,4,4096], param_5.423: f32[], param_6.296: f32[4,14336,4096], param_7.194: pred[], param_8.112: f32[14336,4,4096]) -> (f32[], f32[14336,4,4096], f32[14336,4,4096], f32[14336,4,4096], f32[]) {
  %param_0.1121 = f32[14336,4,4096]{2,1,0:T(4,128)} parameter(0)
  %param_3.785 = f32[]{:T(128)S(6)} parameter(3)
  %mul.1868.clone.1 = f32[14336,4,4096]{2,1,0:T(4,128)} broadcast(%param_3.785), dimensions={}, metadata={op_name="jit(train_step)/mul" stack_frame_id=0}
  %param_7.194 = pred[]{:T(512)S(6)} parameter(7)
  %select_n.274.clone.1 = pred[14336,4,4096]{2,1,0:T(4,128)(4,1)} broadcast(%param_7.194), dimensions={}, metadata={op_name="jit(train_step)/select_n" stack_frame_id=0}
  %param_6.296 = f32[4,14336,4096]{2,0,1:T(4,128)} parameter(6)
  %bitcast.423.clone.1 = f32[14336,4,4096]{2,1,0:T(4,128)} bitcast(%param_6.296), metadata={op_name="jit(train_step)/transpose(jvp(TransformerLinenPure.apply))/TransformerLinenPure/decoder/transpose" stack_frame_id=0}
  %param_5.423 = f32[]{:T(128)} parameter(5)
  %div.789.clone.1 = f32[14336,4,4096]{2,1,0:T(4,128)} broadcast(%param_5.423), dimensions={}, metadata={op_name="jit(train_step)/div" stack_frame_id=0}
  %div.788.clone.1 = f32[14336,4,4096]{2,1,0:T(4,128)} divide(%bitcast.423.clone.1, %div.789.clone.1), metadata={op_name="jit(train_step)/div" stack_frame_id=0}
  %select_n.273.clone.1 = f32[14336,4,4096]{2,1,0:T(4,128)} select(%select_n.274.clone.1, %bitcast.423.clone.1, %div.788.clone.1), metadata={op_name="jit(train_step)/select_n" stack_frame_id=0}
  %constant.947.clone.1 = f32[]{:T(128)} constant(0.1)
  %broadcast.547.clone.1 = f32[14336,4,4096]{2,1,0:T(4,128)} broadcast(%constant.947.clone.1), dimensions={}, metadata={op_name="broadcast.69"}
  %mul.1874.clone.1 = f32[14336,4,4096]{2,1,0:T(4,128)} multiply(%select_n.273.clone.1, %broadcast.547.clone.1), metadata={op_name="jit(train_step)/mul" stack_frame_id=0}
  %param_8.112 = f32[14336,4,4096]{2,1,0:T(4,128)} parameter(8)
  %constant.951.clone.1 = f32[]{:T(128)} constant(0.9)
  %mul.1875.clone.1 = f32[14336,4,4096]{2,1,0:T(4,128)} broadcast(%constant.951.clone.1), dimensions={}, metadata={op_name="jit(train_step)/mul" stack_frame_id=0}
  %mul.1873.clone.1 = f32[14336,4,4096]{2,1,0:T(4,128)} multiply(%param_8.112, %mul.1875.clone.1), metadata={op_name="jit(train_step)/mul" stack_frame_id=0}
  %add.806.clone.1 = f32[14336,4,4096]{2,1,0:T(4,128)} add(%mul.1874.clone.1, %mul.1873.clone.1), metadata={op_name="jit(train_step)/add" stack_frame_id=0}
  %param_2.1102 = f32[]{:T(128)S(6)} parameter(2)
  %div.785.clone.1 = f32[14336,4,4096]{2,1,0:T(4,128)} broadcast(%param_2.1102), dimensions={}, metadata={op_name="jit(train_step)/div" stack_frame_id=0}
  %integer_pow.68.clone.1 = f32[14336,4,4096]{2,1,0:T(4,128)} multiply(%select_n.273.clone.1, %select_n.273.clone.1), metadata={op_name="jit(train_step)/integer_pow" stack_frame_id=0}
  %constant.950.clone.1 = f32[]{:T(128)} constant(0.05)
  %mul.1872.clone.1 = f32[14336,4,4096]{2,1,0:T(4,128)} broadcast(%constant.950.clone.1), dimensions={}, metadata={op_name="jit(train_step)/mul" stack_frame_id=0}
  %mul.1870.clone.1 = f32[14336,4,4096]{2,1,0:T(4,128)} multiply(%integer_pow.68.clone.1, %mul.1872.clone.1), metadata={op_name="jit(train_step)/mul" stack_frame_id=0}
  %param_4.492 = f32[14336,4,4096]{2,1,0:T(4,128)} parameter(4)
  %constant.949.clone.1 = f32[]{:T(128)} constant(0.95)
  %mul.1871.clone.1 = f32[14336,4,4096]{2,1,0:T(4,128)} broadcast(%constant.949.clone.1), dimensions={}, metadata={op_name="jit(train_step)/mul" stack_frame_id=0}
  %mul.1869.clone.1 = f32[14336,4,4096]{2,1,0:T(4,128)} multiply(%param_4.492, %mul.1871.clone.1), metadata={op_name="jit(train_step)/mul" stack_frame_id=0}
  %add.805.clone.1 = f32[14336,4,4096]{2,1,0:T(4,128)} add(%mul.1870.clone.1, %mul.1869.clone.1), metadata={op_name="jit(train_step)/add" stack_frame_id=0}
  %param_1.1281 = f32[]{:T(128)S(6)} parameter(1)
  %div.784.clone.1 = f32[14336,4,4096]{2,1,0:T(4,128)} broadcast(%param_1.1281), dimensions={}, metadata={op_name="jit(train_step)/div" stack_frame_id=0}
  %div.783.clone.1 = f32[14336,4,4096]{2,1,0:T(4,128)} divide(%add.805.clone.1, %div.784.clone.1), metadata={op_name="jit(train_step)/div" stack_frame_id=0}
  %sqrt.66.clone.1 = f32[14336,4,4096]{2,1,0:T(4,128)} sqrt(%div.783.clone.1), metadata={op_name="jit(train_step)/sqrt" stack_frame_id=0}
  %constant.948.clone.1 = f32[]{:T(128)} constant(1e-08)
  %add.804.clone.1 = f32[14336,4,4096]{2,1,0:T(4,128)} broadcast(%constant.948.clone.1), dimensions={}, metadata={op_name="jit(train_step)/add" stack_frame_id=0}
  %add.803.clone.1 = f32[14336,4,4096]{2,1,0:T(4,128)} add(%sqrt.66.clone.1, %add.804.clone.1), metadata={op_name="jit(train_step)/add" stack_frame_id=0}
  %multiply.191.clone.1 = f32[14336,4,4096]{2,1,0:T(4,128)} multiply(%div.785.clone.1, %add.803.clone.1), metadata={op_name="multiply.25"}
  %div.782.clone.1 = f32[14336,4,4096]{2,1,0:T(4,128)} divide(%add.806.clone.1, %multiply.191.clone.1), metadata={op_name="jit(train_step)/div" stack_frame_id=0}
  %mul.1867.clone.1 = f32[14336,4,4096]{2,1,0:T(4,128)} multiply(%param_0.1121, %broadcast.547.clone.1), metadata={op_name="jit(train_step)/mul" stack_frame_id=0}
  %add.802.clone.1 = f32[14336,4,4096]{2,1,0:T(4,128)} add(%div.782.clone.1, %mul.1867.clone.1), metadata={op_name="jit(train_step)/add" stack_frame_id=0}
  %mul.1866.clone.1 = f32[14336,4,4096]{2,1,0:T(4,128)} multiply(%mul.1868.clone.1, %add.802.clone.1), metadata={op_name="jit(train_step)/mul" stack_frame_id=0}
  %add.801.clone.1 = f32[14336,4,4096]{2,1,0:T(4,128)} add(%param_0.1121, %mul.1866.clone.1), metadata={op_name="jit(train_step)/add" stack_frame_id=0}
  %square.171 = f32[14336,4,4096]{2,1,0:T(4,128)} multiply(%add.801.clone.1, %add.801.clone.1), metadata={op_name="jit(train_step)/square" stack_frame_id=0}
  %constant.993 = f32[]{:T(128)} constant(0)
  %reduce.88 = f32[]{:T(128)} reduce(%square.171, %constant.993), dimensions={0,1,2}, to_apply=%region_52.57, metadata={op_name="jit(train_step)/reduce_sum" stack_frame_id=0}
  %reduce.91.clone.1 = f32[]{:T(128)} reduce(%integer_pow.68.clone.1, %constant.993), dimensions={0,1,2}, to_apply=%region_38.43, metadata={op_name="jit(train_step)/reduce_sum" stack_frame_id=0}
  ROOT %tuple.137 = (f32[]{:T(128)}, f32[14336,4,4096]{2,1,0:T(4,128)}, f32[14336,4,4096]{2,1,0:T(4,128)}, f32[14336,4,4096]{2,1,0:T(4,128)}, f32[]{:T(128)}) tuple(%reduce.88, %add.801.clone.1, %add.805.clone.1, %add.806.clone.1, %reduce.91.clone.1)
}

%region_51.56 (reduce_sum.340: f32[], reduce_sum.341: f32[]) -> f32[] {
  %reduce_sum.340 = f32[]{:T(128)} parameter(0), metadata={op_name="jit(train_step)/reduce_sum"}
  %reduce_sum.341 = f32[]{:T(128)} parameter(1), metadata={op_name="jit(train_step)/reduce_sum"}
  ROOT %reduce_sum.342 = f32[]{:T(128)} add(%reduce_sum.340, %reduce_sum.341), metadata={op_name="jit(train_step)/reduce_sum" stack_frame_id=0}, backend_config={"flag_configs":[],"scoped_memory_configs":[],"used_scoped_memory_configs":[],"aliasing_operands":{"lists":[]}}
}

%region_37.42 (reduce_sum.265: f32[], reduce_sum.266: f32[]) -> f32[] {
  %reduce_sum.265 = f32[]{:T(128)} parameter(0), metadata={op_name="jit(train_step)/reduce_sum"}
  %reduce_sum.266 = f32[]{:T(128)} parameter(1), metadata={op_name="jit(train_step)/reduce_sum"}
  ROOT %reduce_sum.270 = f32[]{:T(128)} add(%reduce_sum.265, %reduce_sum.266), metadata={op_name="jit(train_step)/reduce_sum" stack_frame_id=0}, backend_config={"flag_configs":[],"scoped_memory_configs":[],"used_scoped_memory_configs":[],"aliasing_operands":{"lists":[]}}
}

%fused_computation.248 (param_0.1122: f32[4096,4,14336], param_1.1282: f32[], param_2.1103: f32[], param_3.786: f32[], param_4.493: f32[4096,4,14336], param_5.424: f32[], param_6.297: f32[4,4096,14336], param_7.195: pred[], param_8.113: f32[4096,4,14336]) -> (f32[], f32[4096,4,14336], f32[4096,4,14336], f32[4096,4,14336], f32[]) {
  %param_0.1122 = f32[4096,4,14336]{2,1,0:T(4,128)} parameter(0)
  %param_3.786 = f32[]{:T(128)S(6)} parameter(3)
  %mul.1878.clone.1 = f32[4096,4,14336]{2,1,0:T(4,128)} broadcast(%param_3.786), dimensions={}, metadata={op_name="jit(train_step)/mul" stack_frame_id=0}
  %param_7.195 = pred[]{:T(512)S(6)} parameter(7)
  %select_n.278.clone.1 = pred[4096,4,14336]{2,1,0:T(4,128)(4,1)} broadcast(%param_7.195), dimensions={}, metadata={op_name="jit(train_step)/select_n" stack_frame_id=0}
  %param_6.297 = f32[4,4096,14336]{2,0,1:T(4,128)} parameter(6)
  %bitcast.425.clone.1 = f32[4096,4,14336]{2,1,0:T(4,128)} bitcast(%param_6.297), metadata={op_name="jit(train_step)/transpose(jvp(TransformerLinenPure.apply))/TransformerLinenPure/decoder/transpose" stack_frame_id=0}
  %param_5.424 = f32[]{:T(128)} parameter(5)
  %div.797.clone.1 = f32[4096,4,14336]{2,1,0:T(4,128)} broadcast(%param_5.424), dimensions={}, metadata={op_name="jit(train_step)/div" stack_frame_id=0}
  %div.796.clone.1 = f32[4096,4,14336]{2,1,0:T(4,128)} divide(%bitcast.425.clone.1, %div.797.clone.1), metadata={op_name="jit(train_step)/div" stack_frame_id=0}
  %select_n.277.clone.1 = f32[4096,4,14336]{2,1,0:T(4,128)} select(%select_n.278.clone.1, %bitcast.425.clone.1, %div.796.clone.1), metadata={op_name="jit(train_step)/select_n" stack_frame_id=0}
  %constant.953.clone.1 = f32[]{:T(128)} constant(0.1)
  %broadcast.553.clone.1 = f32[4096,4,14336]{2,1,0:T(4,128)} broadcast(%constant.953.clone.1), dimensions={}, metadata={op_name="broadcast.71"}
  %mul.1882.clone.1 = f32[4096,4,14336]{2,1,0:T(4,128)} multiply(%select_n.277.clone.1, %broadcast.553.clone.1), metadata={op_name="jit(train_step)/mul" stack_frame_id=0}
  %param_8.113 = f32[4096,4,14336]{2,1,0:T(4,128)} parameter(8)
  %constant.957.clone.1 = f32[]{:T(128)} constant(0.9)
  %broadcast.552.clone.1 = f32[4096,4,14336]{2,1,0:T(4,128)} broadcast(%constant.957.clone.1), dimensions={}, metadata={op_name="broadcast.70"}
  %mul.1881.clone.1 = f32[4096,4,14336]{2,1,0:T(4,128)} multiply(%param_8.113, %broadcast.552.clone.1), metadata={op_name="jit(train_step)/mul" stack_frame_id=0}
  %add.811.clone.1 = f32[4096,4,14336]{2,1,0:T(4,128)} add(%mul.1882.clone.1, %mul.1881.clone.1), metadata={op_name="jit(train_step)/add" stack_frame_id=0}
  %param_2.1103 = f32[]{:T(128)S(6)} parameter(2)
  %div.793.clone.1 = f32[4096,4,14336]{2,1,0:T(4,128)} broadcast(%param_2.1103), dimensions={}, metadata={op_name="jit(train_step)/div" stack_frame_id=0}
  %integer_pow.69.clone.1 = f32[4096,4,14336]{2,1,0:T(4,128)} multiply(%select_n.277.clone.1, %select_n.277.clone.1), metadata={op_name="jit(train_step)/integer_pow" stack_frame_id=0}
  %constant.956.clone.1 = f32[]{:T(128)} constant(0.05)
  %broadcast.551.clone.1 = f32[4096,4,14336]{2,1,0:T(4,128)} broadcast(%constant.956.clone.1), dimensions={}, metadata={op_name="broadcast.60"}
  %mul.1880.clone.1 = f32[4096,4,14336]{2,1,0:T(4,128)} multiply(%integer_pow.69.clone.1, %broadcast.551.clone.1), metadata={op_name="jit(train_step)/mul" stack_frame_id=0}
  %param_4.493 = f32[4096,4,14336]{2,1,0:T(4,128)} parameter(4)
  %constant.955.clone.1 = f32[]{:T(128)} constant(0.95)
  %broadcast.550.clone.1 = f32[4096,4,14336]{2,1,0:T(4,128)} broadcast(%constant.955.clone.1), dimensions={}, metadata={op_name="broadcast.59"}
  %mul.1879.clone.1 = f32[4096,4,14336]{2,1,0:T(4,128)} multiply(%param_4.493, %broadcast.550.clone.1), metadata={op_name="jit(train_step)/mul" stack_frame_id=0}
  %add.810.clone.1 = f32[4096,4,14336]{2,1,0:T(4,128)} add(%mul.1880.clone.1, %mul.1879.clone.1), metadata={op_name="jit(train_step)/add" stack_frame_id=0}
  %param_1.1282 = f32[]{:T(128)S(6)} parameter(1)
  %div.792.clone.1 = f32[4096,4,14336]{2,1,0:T(4,128)} broadcast(%param_1.1282), dimensions={}, metadata={op_name="jit(train_step)/div" stack_frame_id=0}
  %div.791.clone.1 = f32[4096,4,14336]{2,1,0:T(4,128)} divide(%add.810.clone.1, %div.792.clone.1), metadata={op_name="jit(train_step)/div" stack_frame_id=0}
  %sqrt.67.clone.1 = f32[4096,4,14336]{2,1,0:T(4,128)} sqrt(%div.791.clone.1), metadata={op_name="jit(train_step)/sqrt" stack_frame_id=0}
  %constant.954.clone.1 = f32[]{:T(128)} constant(1e-08)
  %broadcast.548.clone.1 = f32[4096,4,14336]{2,1,0:T(4,128)} broadcast(%constant.954.clone.1), dimensions={}, metadata={op_name="broadcast.54"}
  %add.809.clone.1 = f32[4096,4,14336]{2,1,0:T(4,128)} add(%sqrt.67.clone.1, %broadcast.548.clone.1), metadata={op_name="jit(train_step)/add" stack_frame_id=0}
  %multiply.192.clone.1 = f32[4096,4,14336]{2,1,0:T(4,128)} multiply(%div.793.clone.1, %add.809.clone.1), metadata={op_name="multiply.24"}
  %div.790.clone.1 = f32[4096,4,14336]{2,1,0:T(4,128)} divide(%add.811.clone.1, %multiply.192.clone.1), metadata={op_name="jit(train_step)/div" stack_frame_id=0}
  %mul.1877.clone.1 = f32[4096,4,14336]{2,1,0:T(4,128)} multiply(%param_0.1122, %broadcast.553.clone.1), metadata={op_name="jit(train_step)/mul" stack_frame_id=0}
  %add.808.clone.1 = f32[4096,4,14336]{2,1,0:T(4,128)} add(%div.790.clone.1, %mul.1877.clone.1), metadata={op_name="jit(train_step)/add" stack_frame_id=0}
  %mul.1876.clone.1 = f32[4096,4,14336]{2,1,0:T(4,128)} multiply(%mul.1878.clone.1, %add.808.clone.1), metadata={op_name="jit(train_step)/mul" stack_frame_id=0}
  %add.807.clone.1 = f32[4096,4,14336]{2,1,0:T(4,128)} add(%param_0.1122, %mul.1876.clone.1), metadata={op_name="jit(train_step)/add" stack_frame_id=0}
  %square.172 = f32[4096,4,14336]{2,1,0:T(4,128)} multiply(%add.807.clone.1, %add.807.clone.1), metadata={op_name="jit(train_step)/square" stack_frame_id=0}
  %constant.994 = f32[]{:T(128)} constant(0)
  %reduce.89 = f32[]{:T(128)} reduce(%square.172, %constant.994), dimensions={0,1,2}, to_apply=%region_51.56, metadata={op_name="jit(train_step)/reduce_sum" stack_frame_id=0}
  %reduce.92.clone.1 = f32[]{:T(128)} reduce(%integer_pow.69.clone.1, %constant.994), dimensions={0,1,2}, to_apply=%region_37.42, metadata={op_name="jit(train_step)/reduce_sum" stack_frame_id=0}
  ROOT %tuple.138 = (f32[]{:T(128)}, f32[4096,4,14336]{2,1,0:T(4,128)}, f32[4096,4,14336]{2,1,0:T(4,128)}, f32[4096,4,14336]{2,1,0:T(4,128)}, f32[]{:T(128)}) tuple(%reduce.89, %add.807.clone.1, %add.810.clone.1, %add.811.clone.1, %reduce.92.clone.1)
}

%region_50.55 (reduce_sum.334: f32[], reduce_sum.335: f32[]) -> f32[] {
  %reduce_sum.334 = f32[]{:T(128)} parameter(0), metadata={op_name="jit(train_step)/reduce_sum"}
  %reduce_sum.335 = f32[]{:T(128)} parameter(1), metadata={op_name="jit(train_step)/reduce_sum"}
  ROOT %reduce_sum.336 = f32[]{:T(128)} add(%reduce_sum.334, %reduce_sum.335), metadata={op_name="jit(train_step)/reduce_sum" stack_frame_id=0}, backend_config={"flag_configs":[],"scoped_memory_configs":[],"used_scoped_memory_configs":[],"aliasing_operands":{"lists":[]}}
}

%region_36.41 (reduce_sum.259: f32[], reduce_sum.263: f32[]) -> f32[] {
  %reduce_sum.259 = f32[]{:T(128)} parameter(0), metadata={op_name="jit(train_step)/reduce_sum"}
  %reduce_sum.263 = f32[]{:T(128)} parameter(1), metadata={op_name="jit(train_step)/reduce_sum"}
  ROOT %reduce_sum.264 = f32[]{:T(128)} add(%reduce_sum.259, %reduce_sum.263), metadata={op_name="jit(train_step)/reduce_sum" stack_frame_id=0}, backend_config={"flag_configs":[],"scoped_memory_configs":[],"used_scoped_memory_configs":[],"aliasing_operands":{"lists":[]}}
}

%fused_computation.249 (param_0.1123: f32[4096,4,14336], param_1.1283: f32[], param_2.1104: f32[], param_3.787: f32[], param_4.494: f32[4096,4,14336], param_5.425: f32[], param_6.298: f32[4,4096,14336], param_7.196: pred[], param_8.114: f32[4096,4,14336]) -> (f32[], f32[4096,4,14336], f32[4096,4,14336], f32[4096,4,14336], f32[]) {
  %param_0.1123 = f32[4096,4,14336]{2,1,0:T(4,128)} parameter(0)
  %param_3.787 = f32[]{:T(128)S(6)} parameter(3)
  %mul.1885.clone.1 = f32[4096,4,14336]{2,1,0:T(4,128)} broadcast(%param_3.787), dimensions={}, metadata={op_name="jit(train_step)/mul" stack_frame_id=0}
  %param_7.196 = pred[]{:T(512)S(6)} parameter(7)
  %select_n.282.clone.1 = pred[4096,4,14336]{2,1,0:T(4,128)(4,1)} broadcast(%param_7.196), dimensions={}, metadata={op_name="jit(train_step)/select_n" stack_frame_id=0}
  %param_6.298 = f32[4,4096,14336]{2,0,1:T(4,128)} parameter(6)
  %bitcast.427.clone.1 = f32[4096,4,14336]{2,1,0:T(4,128)} bitcast(%param_6.298), metadata={op_name="jit(train_step)/transpose(jvp(TransformerLinenPure.apply))/TransformerLinenPure/decoder/transpose" stack_frame_id=0}
  %param_5.425 = f32[]{:T(128)} parameter(5)
  %div.805.clone.1 = f32[4096,4,14336]{2,1,0:T(4,128)} broadcast(%param_5.425), dimensions={}, metadata={op_name="jit(train_step)/div" stack_frame_id=0}
  %div.804.clone.1 = f32[4096,4,14336]{2,1,0:T(4,128)} divide(%bitcast.427.clone.1, %div.805.clone.1), metadata={op_name="jit(train_step)/div" stack_frame_id=0}
  %select_n.281.clone.1 = f32[4096,4,14336]{2,1,0:T(4,128)} select(%select_n.282.clone.1, %bitcast.427.clone.1, %div.804.clone.1), metadata={op_name="jit(train_step)/select_n" stack_frame_id=0}
  %constant.959.clone.1 = f32[]{:T(128)} constant(0.1)
  %broadcast.559.clone.1 = f32[4096,4,14336]{2,1,0:T(4,128)} broadcast(%constant.959.clone.1), dimensions={}, metadata={op_name="broadcast.71"}
  %mul.1889.clone.1 = f32[4096,4,14336]{2,1,0:T(4,128)} multiply(%select_n.281.clone.1, %broadcast.559.clone.1), metadata={op_name="jit(train_step)/mul" stack_frame_id=0}
  %param_8.114 = f32[4096,4,14336]{2,1,0:T(4,128)} parameter(8)
  %constant.963.clone.1 = f32[]{:T(128)} constant(0.9)
  %broadcast.558.clone.1 = f32[4096,4,14336]{2,1,0:T(4,128)} broadcast(%constant.963.clone.1), dimensions={}, metadata={op_name="broadcast.70"}
  %mul.1888.clone.1 = f32[4096,4,14336]{2,1,0:T(4,128)} multiply(%param_8.114, %broadcast.558.clone.1), metadata={op_name="jit(train_step)/mul" stack_frame_id=0}
  %add.816.clone.1 = f32[4096,4,14336]{2,1,0:T(4,128)} add(%mul.1889.clone.1, %mul.1888.clone.1), metadata={op_name="jit(train_step)/add" stack_frame_id=0}
  %param_2.1104 = f32[]{:T(128)S(6)} parameter(2)
  %div.801.clone.1 = f32[4096,4,14336]{2,1,0:T(4,128)} broadcast(%param_2.1104), dimensions={}, metadata={op_name="jit(train_step)/div" stack_frame_id=0}
  %integer_pow.70.clone.1 = f32[4096,4,14336]{2,1,0:T(4,128)} multiply(%select_n.281.clone.1, %select_n.281.clone.1), metadata={op_name="jit(train_step)/integer_pow" stack_frame_id=0}
  %constant.962.clone.1 = f32[]{:T(128)} constant(0.05)
  %broadcast.557.clone.1 = f32[4096,4,14336]{2,1,0:T(4,128)} broadcast(%constant.962.clone.1), dimensions={}, metadata={op_name="broadcast.60"}
  %mul.1887.clone.1 = f32[4096,4,14336]{2,1,0:T(4,128)} multiply(%integer_pow.70.clone.1, %broadcast.557.clone.1), metadata={op_name="jit(train_step)/mul" stack_frame_id=0}
  %param_4.494 = f32[4096,4,14336]{2,1,0:T(4,128)} parameter(4)
  %constant.961.clone.1 = f32[]{:T(128)} constant(0.95)
  %broadcast.556.clone.1 = f32[4096,4,14336]{2,1,0:T(4,128)} broadcast(%constant.961.clone.1), dimensions={}, metadata={op_name="broadcast.59"}
  %mul.1886.clone.1 = f32[4096,4,14336]{2,1,0:T(4,128)} multiply(%param_4.494, %broadcast.556.clone.1), metadata={op_name="jit(train_step)/mul" stack_frame_id=0}
  %add.815.clone.1 = f32[4096,4,14336]{2,1,0:T(4,128)} add(%mul.1887.clone.1, %mul.1886.clone.1), metadata={op_name="jit(train_step)/add" stack_frame_id=0}
  %param_1.1283 = f32[]{:T(128)S(6)} parameter(1)
  %div.800.clone.1 = f32[4096,4,14336]{2,1,0:T(4,128)} broadcast(%param_1.1283), dimensions={}, metadata={op_name="jit(train_step)/div" stack_frame_id=0}
  %div.799.clone.1 = f32[4096,4,14336]{2,1,0:T(4,128)} divide(%add.815.clone.1, %div.800.clone.1), metadata={op_name="jit(train_step)/div" stack_frame_id=0}
  %sqrt.68.clone.1 = f32[4096,4,14336]{2,1,0:T(4,128)} sqrt(%div.799.clone.1), metadata={op_name="jit(train_step)/sqrt" stack_frame_id=0}
  %constant.960.clone.1 = f32[]{:T(128)} constant(1e-08)
  %broadcast.554.clone.1 = f32[4096,4,14336]{2,1,0:T(4,128)} broadcast(%constant.960.clone.1), dimensions={}, metadata={op_name="broadcast.54"}
  %add.814.clone.1 = f32[4096,4,14336]{2,1,0:T(4,128)} add(%sqrt.68.clone.1, %broadcast.554.clone.1), metadata={op_name="jit(train_step)/add" stack_frame_id=0}
  %multiply.193.clone.1 = f32[4096,4,14336]{2,1,0:T(4,128)} multiply(%div.801.clone.1, %add.814.clone.1), metadata={op_name="multiply.23"}
  %div.798.clone.1 = f32[4096,4,14336]{2,1,0:T(4,128)} divide(%add.816.clone.1, %multiply.193.clone.1), metadata={op_name="jit(train_step)/div" stack_frame_id=0}
  %mul.1884.clone.1 = f32[4096,4,14336]{2,1,0:T(4,128)} multiply(%param_0.1123, %broadcast.559.clone.1), metadata={op_name="jit(train_step)/mul" stack_frame_id=0}
  %add.813.clone.1 = f32[4096,4,14336]{2,1,0:T(4,128)} add(%div.798.clone.1, %mul.1884.clone.1), metadata={op_name="jit(train_step)/add" stack_frame_id=0}
  %mul.1883.clone.1 = f32[4096,4,14336]{2,1,0:T(4,128)} multiply(%mul.1885.clone.1, %add.813.clone.1), metadata={op_name="jit(train_step)/mul" stack_frame_id=0}
  %add.812.clone.1 = f32[4096,4,14336]{2,1,0:T(4,128)} add(%param_0.1123, %mul.1883.clone.1), metadata={op_name="jit(train_step)/add" stack_frame_id=0}
  %square.173 = f32[4096,4,14336]{2,1,0:T(4,128)} multiply(%add.812.clone.1, %add.812.clone.1), metadata={op_name="jit(train_step)/square" stack_frame_id=0}
  %constant.995 = f32[]{:T(128)} constant(0)
  %reduce.90 = f32[]{:T(128)} reduce(%square.173, %constant.995), dimensions={0,1,2}, to_apply=%region_50.55, metadata={op_name="jit(train_step)/reduce_sum" stack_frame_id=0}
  %reduce.93.clone.1 = f32[]{:T(128)} reduce(%integer_pow.70.clone.1, %constant.995), dimensions={0,1,2}, to_apply=%region_36.41, metadata={op_name="jit(train_step)/reduce_sum" stack_frame_id=0}
  ROOT %tuple.139 = (f32[]{:T(128)}, f32[4096,4,14336]{2,1,0:T(4,128)}, f32[4096,4,14336]{2,1,0:T(4,128)}, f32[4096,4,14336]{2,1,0:T(4,128)}, f32[]{:T(128)}) tuple(%reduce.90, %add.812.clone.1, %add.815.clone.1, %add.816.clone.1, %reduce.93.clone.1)
}

%region_30.35 (reduce_sum.235: f32[], reduce_sum.236: f32[]) -> f32[] {
  %reduce_sum.235 = f32[]{:T(128)} parameter(0), metadata={op_name="jit(train_step)/reduce_sum"}
  %reduce_sum.236 = f32[]{:T(128)} parameter(1), metadata={op_name="jit(train_step)/reduce_sum"}
  ROOT %reduce_sum.237 = f32[]{:T(128)} add(%reduce_sum.235, %reduce_sum.236), metadata={op_name="jit(train_step)/reduce_sum" stack_frame_id=0}, backend_config={"flag_configs":[],"scoped_memory_configs":[],"used_scoped_memory_configs":[],"aliasing_operands":{"lists":[]}}
}

%fused_computation.267 (param_0.1127: f32[4,4096,32,128]) -> f32[] {
  %param_0.1127 = f32[4,4096,32,128]{3,2,0,1:T(8,128)} parameter(0)
  %bitcast.329 = f32[4096,4,32,128]{3,2,1,0:T(8,128)} bitcast(%param_0.1127), metadata={op_name="jit(train_step)/transpose(jvp(TransformerLinenPure.apply))/TransformerLinenPure/decoder/transpose" stack_frame_id=0}
  %square.176 = f32[4096,4,32,128]{3,2,1,0:T(8,128)} multiply(%bitcast.329, %bitcast.329), metadata={op_name="jit(train_step)/square" stack_frame_id=0}
  %constant.999 = f32[]{:T(128)} constant(0)
  ROOT %reduce.94 = f32[]{:T(128)} reduce(%square.176, %constant.999), dimensions={0,1,2,3}, to_apply=%region_30.35, metadata={op_name="jit(train_step)/reduce_sum" stack_frame_id=0}
}

%region_29.34 (reduce_sum.229: f32[], reduce_sum.230: f32[]) -> f32[] {
  %reduce_sum.229 = f32[]{:T(128)} parameter(0), metadata={op_name="jit(train_step)/reduce_sum"}
  %reduce_sum.230 = f32[]{:T(128)} parameter(1), metadata={op_name="jit(train_step)/reduce_sum"}
  ROOT %reduce_sum.231 = f32[]{:T(128)} add(%reduce_sum.229, %reduce_sum.230), metadata={op_name="jit(train_step)/reduce_sum" stack_frame_id=0}, backend_config={"flag_configs":[],"scoped_memory_configs":[],"used_scoped_memory_configs":[],"aliasing_operands":{"lists":[]}}
}

%fused_computation.269 (param_0.1128: f32[4,32,128,4096]) -> f32[] {
  %param_0.1128 = f32[4,32,128,4096]{3,2,0,1:T(8,128)} parameter(0)
  %bitcast.333 = f32[32,4,128,4096]{3,2,1,0:T(8,128)} bitcast(%param_0.1128), metadata={op_name="jit(train_step)/transpose(jvp(TransformerLinenPure.apply))/TransformerLinenPure/decoder/transpose" stack_frame_id=0}
  %square.179 = f32[32,4,128,4096]{3,2,1,0:T(8,128)} multiply(%bitcast.333, %bitcast.333), metadata={op_name="jit(train_step)/square" stack_frame_id=0}
  %constant.1000 = f32[]{:T(128)} constant(0)
  ROOT %reduce.95 = f32[]{:T(128)} reduce(%square.179, %constant.1000), dimensions={0,1,2,3}, to_apply=%region_29.34, metadata={op_name="jit(train_step)/reduce_sum" stack_frame_id=0}
}

%fused_computation.270 (param_0.753: f32[32,4,128,4096]) -> bf16[4,32,128,4096] {
  %param_0.753 = f32[32,4,128,4096]{3,2,1,0:T(8,128)} parameter(0)
  %copy.237 = bf16[32,4,128,4096]{3,2,0,1:T(8,128)(2,1)} copy(%param_0.753), sharding={replicated}, metadata={op_name="state.params[\'params\'][\'decoder\'][\'layers\'][\'self_attention\'][\'out\'][\'kernel\']"}
  ROOT %bitcast.334 = bf16[4,32,128,4096]{3,2,1,0:T(8,128)(2,1)} bitcast(%copy.237), metadata={op_name="jit(train_step)/jvp(TransformerLinenPure.apply)/TransformerLinenPure/decoder/transpose" stack_frame_id=0}
}

%region_57.62 (reduce_sum.370: f32[], reduce_sum.371: f32[]) -> f32[] {
  %reduce_sum.370 = f32[]{:T(128)} parameter(0), metadata={op_name="jit(train_step)/reduce_sum"}
  %reduce_sum.371 = f32[]{:T(128)} parameter(1), metadata={op_name="jit(train_step)/reduce_sum"}
  ROOT %reduce_sum.375 = f32[]{:T(128)} add(%reduce_sum.370, %reduce_sum.371), metadata={op_name="jit(train_step)/reduce_sum" stack_frame_id=0}, backend_config={"flag_configs":[],"scoped_memory_configs":[],"used_scoped_memory_configs":[],"aliasing_operands":{"lists":[]}}
}

%region_43.48 (reduce_sum.298: f32[], reduce_sum.299: f32[]) -> f32[] {
  %reduce_sum.298 = f32[]{:T(128)} parameter(0), metadata={op_name="jit(train_step)/reduce_sum"}
  %reduce_sum.299 = f32[]{:T(128)} parameter(1), metadata={op_name="jit(train_step)/reduce_sum"}
  ROOT %reduce_sum.300 = f32[]{:T(128)} add(%reduce_sum.298, %reduce_sum.299), metadata={op_name="jit(train_step)/reduce_sum" stack_frame_id=0}, backend_config={"flag_configs":[],"scoped_memory_configs":[],"used_scoped_memory_configs":[],"aliasing_operands":{"lists":[]}}
}

%fused_computation.271 (param_0.1116: f32[4096,4,32,128], param_1.1276: f32[], param_2.1097: f32[], param_3.780: f32[], param_4.487: f32[4096,4,32,128], param_5.418: f32[], param_6.291: f32[4,4096,32,128], param_7.189: pred[], param_8.107: f32[4096,4,32,128]) -> (f32[], f32[4096,4,32,128], f32[4096,4,32,128], f32[4096,4,32,128], f32[]) {
  %param_0.1116 = f32[4096,4,32,128]{3,2,1,0:T(8,128)} parameter(0)
  %param_3.780 = f32[]{:T(128)S(6)} parameter(3)
  %mul.1827.clone.1 = f32[4096,4,32,128]{3,2,1,0:T(8,128)} broadcast(%param_3.780), dimensions={}, metadata={op_name="jit(train_step)/mul" stack_frame_id=0}
  %param_7.189 = pred[]{:T(512)S(6)} parameter(7)
  %select_n.254.clone.1 = pred[4096,4,32,128]{3,2,1,0:T(8,128)(4,1)} broadcast(%param_7.189), dimensions={}, metadata={op_name="jit(train_step)/select_n" stack_frame_id=0}
  %param_6.291 = f32[4,4096,32,128]{3,2,0,1:T(8,128)} parameter(6)
  %bitcast.413.clone.1 = f32[4096,4,32,128]{3,2,1,0:T(8,128)} bitcast(%param_6.291), metadata={op_name="jit(train_step)/transpose(jvp(TransformerLinenPure.apply))/TransformerLinenPure/decoder/transpose" stack_frame_id=0}
  %param_5.418 = f32[]{:T(128)} parameter(5)
  %div.749.clone.1 = f32[4096,4,32,128]{3,2,1,0:T(8,128)} broadcast(%param_5.418), dimensions={}, metadata={op_name="jit(train_step)/div" stack_frame_id=0}
  %div.748.clone.1 = f32[4096,4,32,128]{3,2,1,0:T(8,128)} divide(%bitcast.413.clone.1, %div.749.clone.1), metadata={op_name="jit(train_step)/div" stack_frame_id=0}
  %select_n.253.clone.1 = f32[4096,4,32,128]{3,2,1,0:T(8,128)} select(%select_n.254.clone.1, %bitcast.413.clone.1, %div.748.clone.1), metadata={op_name="jit(train_step)/select_n" stack_frame_id=0}
  %constant.917.clone.1 = f32[]{:T(128)} constant(0.1)
  %broadcast.525.clone.1 = f32[4096,4,32,128]{3,2,1,0:T(8,128)} broadcast(%constant.917.clone.1), dimensions={}, metadata={op_name="broadcast.63"}
  %mul.1833.clone.1 = f32[4096,4,32,128]{3,2,1,0:T(8,128)} multiply(%select_n.253.clone.1, %broadcast.525.clone.1), metadata={op_name="jit(train_step)/mul" stack_frame_id=0}
  %param_8.107 = f32[4096,4,32,128]{3,2,1,0:T(8,128)} parameter(8)
  %constant.921.clone.1 = f32[]{:T(128)} constant(0.9)
  %mul.1834.clone.1 = f32[4096,4,32,128]{3,2,1,0:T(8,128)} broadcast(%constant.921.clone.1), dimensions={}, metadata={op_name="jit(train_step)/mul" stack_frame_id=0}
  %mul.1832.clone.1 = f32[4096,4,32,128]{3,2,1,0:T(8,128)} multiply(%param_8.107, %mul.1834.clone.1), metadata={op_name="jit(train_step)/mul" stack_frame_id=0}
  %add.779.clone.1 = f32[4096,4,32,128]{3,2,1,0:T(8,128)} add(%mul.1833.clone.1, %mul.1832.clone.1), metadata={op_name="jit(train_step)/add" stack_frame_id=0}
  %param_2.1097 = f32[]{:T(128)S(6)} parameter(2)
  %div.745.clone.1 = f32[4096,4,32,128]{3,2,1,0:T(8,128)} broadcast(%param_2.1097), dimensions={}, metadata={op_name="jit(train_step)/div" stack_frame_id=0}
  %integer_pow.63.clone.1 = f32[4096,4,32,128]{3,2,1,0:T(8,128)} multiply(%select_n.253.clone.1, %select_n.253.clone.1), metadata={op_name="jit(train_step)/integer_pow" stack_frame_id=0}
  %constant.920.clone.1 = f32[]{:T(128)} constant(0.05)
  %mul.1831.clone.1 = f32[4096,4,32,128]{3,2,1,0:T(8,128)} broadcast(%constant.920.clone.1), dimensions={}, metadata={op_name="jit(train_step)/mul" stack_frame_id=0}
  %mul.1829.clone.1 = f32[4096,4,32,128]{3,2,1,0:T(8,128)} multiply(%integer_pow.63.clone.1, %mul.1831.clone.1), metadata={op_name="jit(train_step)/mul" stack_frame_id=0}
  %param_4.487 = f32[4096,4,32,128]{3,2,1,0:T(8,128)} parameter(4)
  %constant.919.clone.1 = f32[]{:T(128)} constant(0.95)
  %mul.1830.clone.1 = f32[4096,4,32,128]{3,2,1,0:T(8,128)} broadcast(%constant.919.clone.1), dimensions={}, metadata={op_name="jit(train_step)/mul" stack_frame_id=0}
  %mul.1828.clone.1 = f32[4096,4,32,128]{3,2,1,0:T(8,128)} multiply(%param_4.487, %mul.1830.clone.1), metadata={op_name="jit(train_step)/mul" stack_frame_id=0}
  %add.778.clone.1 = f32[4096,4,32,128]{3,2,1,0:T(8,128)} add(%mul.1829.clone.1, %mul.1828.clone.1), metadata={op_name="jit(train_step)/add" stack_frame_id=0}
  %param_1.1276 = f32[]{:T(128)S(6)} parameter(1)
  %div.744.clone.1 = f32[4096,4,32,128]{3,2,1,0:T(8,128)} broadcast(%param_1.1276), dimensions={}, metadata={op_name="jit(train_step)/div" stack_frame_id=0}
  %div.743.clone.1 = f32[4096,4,32,128]{3,2,1,0:T(8,128)} divide(%add.778.clone.1, %div.744.clone.1), metadata={op_name="jit(train_step)/div" stack_frame_id=0}
  %sqrt.61.clone.1 = f32[4096,4,32,128]{3,2,1,0:T(8,128)} sqrt(%div.743.clone.1), metadata={op_name="jit(train_step)/sqrt" stack_frame_id=0}
  %constant.918.clone.1 = f32[]{:T(128)} constant(1e-08)
  %add.777.clone.1 = f32[4096,4,32,128]{3,2,1,0:T(8,128)} broadcast(%constant.918.clone.1), dimensions={}, metadata={op_name="jit(train_step)/add" stack_frame_id=0}
  %add.776.clone.1 = f32[4096,4,32,128]{3,2,1,0:T(8,128)} add(%sqrt.61.clone.1, %add.777.clone.1), metadata={op_name="jit(train_step)/add" stack_frame_id=0}
  %multiply.186.clone.1 = f32[4096,4,32,128]{3,2,1,0:T(8,128)} multiply(%div.745.clone.1, %add.776.clone.1), metadata={op_name="multiply.30"}
  %div.742.clone.1 = f32[4096,4,32,128]{3,2,1,0:T(8,128)} divide(%add.779.clone.1, %multiply.186.clone.1), metadata={op_name="jit(train_step)/div" stack_frame_id=0}
  %mul.1826.clone.1 = f32[4096,4,32,128]{3,2,1,0:T(8,128)} multiply(%param_0.1116, %broadcast.525.clone.1), metadata={op_name="jit(train_step)/mul" stack_frame_id=0}
  %add.775.clone.1 = f32[4096,4,32,128]{3,2,1,0:T(8,128)} add(%div.742.clone.1, %mul.1826.clone.1), metadata={op_name="jit(train_step)/add" stack_frame_id=0}
  %mul.1825.clone.1 = f32[4096,4,32,128]{3,2,1,0:T(8,128)} multiply(%mul.1827.clone.1, %add.775.clone.1), metadata={op_name="jit(train_step)/mul" stack_frame_id=0}
  %add.774.clone.1 = f32[4096,4,32,128]{3,2,1,0:T(8,128)} add(%param_0.1116, %mul.1825.clone.1), metadata={op_name="jit(train_step)/add" stack_frame_id=0}
  %square.180 = f32[4096,4,32,128]{3,2,1,0:T(8,128)} multiply(%add.774.clone.1, %add.774.clone.1), metadata={op_name="jit(train_step)/square" stack_frame_id=0}
  %constant.988 = f32[]{:T(128)} constant(0)
  %reduce.96 = f32[]{:T(128)} reduce(%square.180, %constant.988), dimensions={0,1,2,3}, to_apply=%region_57.62, metadata={op_name="jit(train_step)/reduce_sum" stack_frame_id=0}
  %reduce.100.clone.1 = f32[]{:T(128)} reduce(%integer_pow.63.clone.1, %constant.988), dimensions={0,1,2,3}, to_apply=%region_43.48, metadata={op_name="jit(train_step)/reduce_sum" stack_frame_id=0}
  ROOT %tuple.140 = (f32[]{:T(128)}, f32[4096,4,32,128]{3,2,1,0:T(8,128)}, f32[4096,4,32,128]{3,2,1,0:T(8,128)}, f32[4096,4,32,128]{3,2,1,0:T(8,128)}, f32[]{:T(128)}) tuple(%reduce.96, %add.774.clone.1, %add.778.clone.1, %add.779.clone.1, %reduce.100.clone.1)
}

%region_56.61 (reduce_sum.364: f32[], reduce_sum.368: f32[]) -> f32[] {
  %reduce_sum.364 = f32[]{:T(128)} parameter(0), metadata={op_name="jit(train_step)/reduce_sum"}
  %reduce_sum.368 = f32[]{:T(128)} parameter(1), metadata={op_name="jit(train_step)/reduce_sum"}
  ROOT %reduce_sum.369 = f32[]{:T(128)} add(%reduce_sum.364, %reduce_sum.368), metadata={op_name="jit(train_step)/reduce_sum" stack_frame_id=0}, backend_config={"flag_configs":[],"scoped_memory_configs":[],"used_scoped_memory_configs":[],"aliasing_operands":{"lists":[]}}
}

%region_42.47 (reduce_sum.292: f32[], reduce_sum.293: f32[]) -> f32[] {
  %reduce_sum.292 = f32[]{:T(128)} parameter(0), metadata={op_name="jit(train_step)/reduce_sum"}
  %reduce_sum.293 = f32[]{:T(128)} parameter(1), metadata={op_name="jit(train_step)/reduce_sum"}
  ROOT %reduce_sum.294 = f32[]{:T(128)} add(%reduce_sum.292, %reduce_sum.293), metadata={op_name="jit(train_step)/reduce_sum" stack_frame_id=0}, backend_config={"flag_configs":[],"scoped_memory_configs":[],"used_scoped_memory_configs":[],"aliasing_operands":{"lists":[]}}
}

%fused_computation.272 (param_0.1117: f32[32,4,128,4096], param_1.1277: f32[], param_2.1098: f32[], param_3.781: f32[], param_4.488: f32[32,4,128,4096], param_5.419: f32[], param_6.292: f32[4,32,128,4096], param_7.190: pred[], param_8.108: f32[32,4,128,4096]) -> (f32[], f32[32,4,128,4096], f32[32,4,128,4096], f32[32,4,128,4096], f32[]) {
  %param_0.1117 = f32[32,4,128,4096]{3,2,1,0:T(8,128)} parameter(0)
  %param_3.781 = f32[]{:T(128)S(6)} parameter(3)
  %mul.1837.clone.1 = f32[32,4,128,4096]{3,2,1,0:T(8,128)} broadcast(%param_3.781), dimensions={}, metadata={op_name="jit(train_step)/mul" stack_frame_id=0}
  %param_7.190 = pred[]{:T(512)S(6)} parameter(7)
  %select_n.258.clone.1 = pred[32,4,128,4096]{3,2,1,0:T(8,128)(4,1)} broadcast(%param_7.190), dimensions={}, metadata={op_name="jit(train_step)/select_n" stack_frame_id=0}
  %param_6.292 = f32[4,32,128,4096]{3,2,0,1:T(8,128)} parameter(6)
  %bitcast.415.clone.1 = f32[32,4,128,4096]{3,2,1,0:T(8,128)} bitcast(%param_6.292), metadata={op_name="jit(train_step)/transpose(jvp(TransformerLinenPure.apply))/TransformerLinenPure/decoder/transpose" stack_frame_id=0}
  %param_5.419 = f32[]{:T(128)} parameter(5)
  %div.757.clone.1 = f32[32,4,128,4096]{3,2,1,0:T(8,128)} broadcast(%param_5.419), dimensions={}, metadata={op_name="jit(train_step)/div" stack_frame_id=0}
  %div.756.clone.1 = f32[32,4,128,4096]{3,2,1,0:T(8,128)} divide(%bitcast.415.clone.1, %div.757.clone.1), metadata={op_name="jit(train_step)/div" stack_frame_id=0}
  %select_n.257.clone.1 = f32[32,4,128,4096]{3,2,1,0:T(8,128)} select(%select_n.258.clone.1, %bitcast.415.clone.1, %div.756.clone.1), metadata={op_name="jit(train_step)/select_n" stack_frame_id=0}
  %constant.923.clone.1 = f32[]{:T(128)} constant(0.1)
  %broadcast.527.clone.1 = f32[32,4,128,4096]{3,2,1,0:T(8,128)} broadcast(%constant.923.clone.1), dimensions={}, metadata={op_name="broadcast.64"}
  %mul.1843.clone.1 = f32[32,4,128,4096]{3,2,1,0:T(8,128)} multiply(%select_n.257.clone.1, %broadcast.527.clone.1), metadata={op_name="jit(train_step)/mul" stack_frame_id=0}
  %param_8.108 = f32[32,4,128,4096]{3,2,1,0:T(8,128)} parameter(8)
  %constant.927.clone.1 = f32[]{:T(128)} constant(0.9)
  %mul.1844.clone.1 = f32[32,4,128,4096]{3,2,1,0:T(8,128)} broadcast(%constant.927.clone.1), dimensions={}, metadata={op_name="jit(train_step)/mul" stack_frame_id=0}
  %mul.1842.clone.1 = f32[32,4,128,4096]{3,2,1,0:T(8,128)} multiply(%param_8.108, %mul.1844.clone.1), metadata={op_name="jit(train_step)/mul" stack_frame_id=0}
  %add.785.clone.1 = f32[32,4,128,4096]{3,2,1,0:T(8,128)} add(%mul.1843.clone.1, %mul.1842.clone.1), metadata={op_name="jit(train_step)/add" stack_frame_id=0}
  %param_2.1098 = f32[]{:T(128)S(6)} parameter(2)
  %div.753.clone.1 = f32[32,4,128,4096]{3,2,1,0:T(8,128)} broadcast(%param_2.1098), dimensions={}, metadata={op_name="jit(train_step)/div" stack_frame_id=0}
  %integer_pow.64.clone.1 = f32[32,4,128,4096]{3,2,1,0:T(8,128)} multiply(%select_n.257.clone.1, %select_n.257.clone.1), metadata={op_name="jit(train_step)/integer_pow" stack_frame_id=0}
  %constant.926.clone.1 = f32[]{:T(128)} constant(0.05)
  %mul.1841.clone.1 = f32[32,4,128,4096]{3,2,1,0:T(8,128)} broadcast(%constant.926.clone.1), dimensions={}, metadata={op_name="jit(train_step)/mul" stack_frame_id=0}
  %mul.1839.clone.1 = f32[32,4,128,4096]{3,2,1,0:T(8,128)} multiply(%integer_pow.64.clone.1, %mul.1841.clone.1), metadata={op_name="jit(train_step)/mul" stack_frame_id=0}
  %param_4.488 = f32[32,4,128,4096]{3,2,1,0:T(8,128)} parameter(4)
  %constant.925.clone.1 = f32[]{:T(128)} constant(0.95)
  %mul.1840.clone.1 = f32[32,4,128,4096]{3,2,1,0:T(8,128)} broadcast(%constant.925.clone.1), dimensions={}, metadata={op_name="jit(train_step)/mul" stack_frame_id=0}
  %mul.1838.clone.1 = f32[32,4,128,4096]{3,2,1,0:T(8,128)} multiply(%param_4.488, %mul.1840.clone.1), metadata={op_name="jit(train_step)/mul" stack_frame_id=0}
  %add.784.clone.1 = f32[32,4,128,4096]{3,2,1,0:T(8,128)} add(%mul.1839.clone.1, %mul.1838.clone.1), metadata={op_name="jit(train_step)/add" stack_frame_id=0}
  %param_1.1277 = f32[]{:T(128)S(6)} parameter(1)
  %div.752.clone.1 = f32[32,4,128,4096]{3,2,1,0:T(8,128)} broadcast(%param_1.1277), dimensions={}, metadata={op_name="jit(train_step)/div" stack_frame_id=0}
  %div.751.clone.1 = f32[32,4,128,4096]{3,2,1,0:T(8,128)} divide(%add.784.clone.1, %div.752.clone.1), metadata={op_name="jit(train_step)/div" stack_frame_id=0}
  %sqrt.62.clone.1 = f32[32,4,128,4096]{3,2,1,0:T(8,128)} sqrt(%div.751.clone.1), metadata={op_name="jit(train_step)/sqrt" stack_frame_id=0}
  %constant.924.clone.1 = f32[]{:T(128)} constant(1e-08)
  %add.783.clone.1 = f32[32,4,128,4096]{3,2,1,0:T(8,128)} broadcast(%constant.924.clone.1), dimensions={}, metadata={op_name="jit(train_step)/add" stack_frame_id=0}
  %add.782.clone.1 = f32[32,4,128,4096]{3,2,1,0:T(8,128)} add(%sqrt.62.clone.1, %add.783.clone.1), metadata={op_name="jit(train_step)/add" stack_frame_id=0}
  %multiply.187.clone.1 = f32[32,4,128,4096]{3,2,1,0:T(8,128)} multiply(%div.753.clone.1, %add.782.clone.1), metadata={op_name="multiply.29"}
  %div.750.clone.1 = f32[32,4,128,4096]{3,2,1,0:T(8,128)} divide(%add.785.clone.1, %multiply.187.clone.1), metadata={op_name="jit(train_step)/div" stack_frame_id=0}
  %mul.1836.clone.1 = f32[32,4,128,4096]{3,2,1,0:T(8,128)} multiply(%param_0.1117, %broadcast.527.clone.1), metadata={op_name="jit(train_step)/mul" stack_frame_id=0}
  %add.781.clone.1 = f32[32,4,128,4096]{3,2,1,0:T(8,128)} add(%div.750.clone.1, %mul.1836.clone.1), metadata={op_name="jit(train_step)/add" stack_frame_id=0}
  %mul.1835.clone.1 = f32[32,4,128,4096]{3,2,1,0:T(8,128)} multiply(%mul.1837.clone.1, %add.781.clone.1), metadata={op_name="jit(train_step)/mul" stack_frame_id=0}
  %add.780.clone.1 = f32[32,4,128,4096]{3,2,1,0:T(8,128)} add(%param_0.1117, %mul.1835.clone.1), metadata={op_name="jit(train_step)/add" stack_frame_id=0}
  %square.181 = f32[32,4,128,4096]{3,2,1,0:T(8,128)} multiply(%add.780.clone.1, %add.780.clone.1), metadata={op_name="jit(train_step)/square" stack_frame_id=0}
  %constant.989 = f32[]{:T(128)} constant(0)
  %reduce.97 = f32[]{:T(128)} reduce(%square.181, %constant.989), dimensions={0,1,2,3}, to_apply=%region_56.61, metadata={op_name="jit(train_step)/reduce_sum" stack_frame_id=0}
  %reduce.101.clone.1 = f32[]{:T(128)} reduce(%integer_pow.64.clone.1, %constant.989), dimensions={0,1,2,3}, to_apply=%region_42.47, metadata={op_name="jit(train_step)/reduce_sum" stack_frame_id=0}
  ROOT %tuple.141 = (f32[]{:T(128)}, f32[32,4,128,4096]{3,2,1,0:T(8,128)}, f32[32,4,128,4096]{3,2,1,0:T(8,128)}, f32[32,4,128,4096]{3,2,1,0:T(8,128)}, f32[]{:T(128)}) tuple(%reduce.97, %add.780.clone.1, %add.784.clone.1, %add.785.clone.1, %reduce.101.clone.1)
}

%region_47.52 (reduce_sum.319: f32[], reduce_sum.320: f32[]) -> f32[] {
  %reduce_sum.319 = f32[]{:T(128)} parameter(0), metadata={op_name="jit(train_step)/jvp()/reduce_sum"}
  %reduce_sum.320 = f32[]{:T(128)} parameter(1), metadata={op_name="jit(train_step)/jvp()/reduce_sum"}
  ROOT %reduce_sum.321 = f32[]{:T(128)} add(%reduce_sum.319, %reduce_sum.320), metadata={op_name="jit(train_step)/jvp()/reduce_sum" stack_frame_id=0}, backend_config={"flag_configs":[],"scoped_memory_configs":[],"used_scoped_memory_configs":[],"aliasing_operands":{"lists":[]}}
}

%fused_computation.279 (param_0.1136: bf16[4,128,128256], param_1.1292: f32[4,128], param_2.1109: s32[4,128], param_3.791: bf16[4,128]) -> f32[4,128] {
  %param_2.1109 = s32[4,128]{1,0:T(4,128)S(1)} parameter(2)
  %eq.30 = s32[4,128,128256]{2,1,0:T(8,128)} broadcast(%param_2.1109), dimensions={0,1}, metadata={op_name="jit(train_step)/jvp(jit(_one_hot))/eq" stack_frame_id=0}
  %eq.25 = s32[4,128,128256]{2,1,0:T(8,128)} iota(), iota_dimension=2, metadata={op_name="jit(train_step)/jvp(jit(_one_hot))/eq" stack_frame_id=0}
  %eq.24 = pred[4,128,128256]{2,1,0:T(8,128)(4,1)} compare(%eq.30, %eq.25), direction=EQ, metadata={op_name="jit(train_step)/jvp(jit(_one_hot))/eq" stack_frame_id=0}
  %param_0.1136 = bf16[4,128,128256]{2,1,0:T(8,128)(2,1)} parameter(0)
  %convert_element_type.966 = f32[4,128,128256]{2,1,0:T(8,128)} convert(%param_0.1136), metadata={op_name="jit(train_step)/jvp(TransformerLinenPure.apply)/TransformerLinenPure/decoder/decoder.apply_output_head/convert_element_type" stack_frame_id=0}
  %param_3.791 = bf16[4,128]{1,0:T(4,128)(2,1)S(1)} parameter(3)
  %sub.73 = f32[4,128,128256]{2,1,0:T(8,128)} broadcast(%param_3.791), dimensions={0,1}, metadata={op_name="jit(train_step)/jvp()/sub" stack_frame_id=0}
  %sub.64 = f32[4,128,128256]{2,1,0:T(8,128)} subtract(%convert_element_type.966, %sub.73), metadata={op_name="jit(train_step)/jvp()/sub" stack_frame_id=0}
  %param_1.1292 = f32[4,128]{1,0:T(4,128)S(1)} parameter(1)
  %sub.71 = f32[4,128,128256]{2,1,0:T(8,128)} broadcast(%param_1.1292), dimensions={0,1}, metadata={op_name="jit(train_step)/jvp()/sub" stack_frame_id=0}
  %sub.60 = f32[4,128,128256]{2,1,0:T(8,128)} subtract(%sub.64, %sub.71), metadata={op_name="jit(train_step)/jvp()/sub" stack_frame_id=0}
  %constant.1009 = f32[]{:T(128)} constant(0)
  %broadcast.472 = f32[4,128,128256]{2,1,0:T(8,128)} broadcast(%constant.1009), dimensions={}, metadata={op_name="broadcast.39"}
  %mul.1674 = f32[4,128,128256]{2,1,0:T(8,128)} select(%eq.24, %sub.60, %broadcast.472), metadata={op_name="jit(train_step)/jvp()/mul" stack_frame_id=0}
  ROOT %reduce.98 = f32[4,128]{1,0:T(4,128)S(1)} reduce(%mul.1674, %constant.1009), dimensions={2}, to_apply=%region_47.52, metadata={op_name="jit(train_step)/jvp()/reduce_sum" stack_frame_id=0}
}

%region_7.10 (reduce_sum.123: f32[], reduce_sum.127: f32[]) -> f32[] {
  %reduce_sum.123 = f32[]{:T(128)} parameter(0), metadata={op_name="jit(train_step)/jvp()/reduce_sum"}
  %reduce_sum.127 = f32[]{:T(128)} parameter(1), metadata={op_name="jit(train_step)/jvp()/reduce_sum"}
  ROOT %reduce_sum.128 = f32[]{:T(128)} add(%reduce_sum.123, %reduce_sum.127), metadata={op_name="jit(train_step)/jvp()/reduce_sum" stack_frame_id=0}, backend_config={"flag_configs":[],"scoped_memory_configs":[],"used_scoped_memory_configs":[],"aliasing_operands":{"lists":[]}}
}

%fused_computation.284 (param_0.1137: bf16[4,128,128256], param_1.1293: bf16[4,128]) -> f32[4,128] {
  %param_0.1137 = bf16[4,128,128256]{2,1,0:T(8,128)(2,1)} parameter(0)
  %convert_element_type.972 = f32[4,128,128256]{2,1,0:T(8,128)} convert(%param_0.1137), metadata={op_name="jit(train_step)/jvp(TransformerLinenPure.apply)/TransformerLinenPure/decoder/decoder.apply_output_head/convert_element_type" stack_frame_id=0}
  %param_1.1293 = bf16[4,128]{1,0:T(4,128)(2,1)S(1)} parameter(1)
  %sub.74 = f32[4,128,128256]{2,1,0:T(8,128)} broadcast(%param_1.1293), dimensions={0,1}, metadata={op_name="jit(train_step)/jvp()/sub" stack_frame_id=0}
  %sub.70 = f32[4,128,128256]{2,1,0:T(8,128)} subtract(%convert_element_type.972, %sub.74), metadata={op_name="jit(train_step)/jvp()/sub" stack_frame_id=0}
  %exp.54 = f32[4,128,128256]{2,1,0:T(8,128)} exponential(%sub.70), metadata={op_name="jit(train_step)/jvp()/exp" stack_frame_id=0}
  %constant.1010 = f32[]{:T(128)} constant(0)
  ROOT %reduce.99 = f32[4,128]{1,0:T(4,128)S(1)} reduce(%exp.54, %constant.1010), dimensions={2}, to_apply=%region_7.10, metadata={op_name="jit(train_step)/jvp()/reduce_sum" stack_frame_id=0}
}

%region_31.36 (reduce_sum.238: f32[], reduce_sum.242: f32[]) -> f32[] {
  %reduce_sum.238 = f32[]{:T(128)} parameter(0), metadata={op_name="jit(train_step)/reduce_sum"}
  %reduce_sum.242 = f32[]{:T(128)} parameter(1), metadata={op_name="jit(train_step)/reduce_sum"}
  ROOT %reduce_sum.243 = f32[]{:T(128)} add(%reduce_sum.238, %reduce_sum.242), metadata={op_name="jit(train_step)/reduce_sum" stack_frame_id=0}, backend_config={"flag_configs":[],"scoped_memory_configs":[],"used_scoped_memory_configs":[],"aliasing_operands":{"lists":[]}}
}

%region_28.33 (reduce_sum.223: f32[], reduce_sum.224: f32[]) -> f32[] {
  %reduce_sum.223 = f32[]{:T(128)} parameter(0), metadata={op_name="jit(train_step)/reduce_sum"}
  %reduce_sum.224 = f32[]{:T(128)} parameter(1), metadata={op_name="jit(train_step)/reduce_sum"}
  ROOT %reduce_sum.228 = f32[]{:T(128)} add(%reduce_sum.223, %reduce_sum.224), metadata={op_name="jit(train_step)/reduce_sum" stack_frame_id=0}, backend_config={"flag_configs":[],"scoped_memory_configs":[],"used_scoped_memory_configs":[],"aliasing_operands":{"lists":[]}}
}

%fused_computation.290 (param_0.1129: f32[4,4096,8,128], param_1.1286: f32[4,4096,8,128]) -> (f32[], f32[]) {
  %param_0.1129 = f32[4,4096,8,128]{3,2,0,1:T(8,128)} parameter(0)
  %bitcast.350 = f32[4096,4,8,128]{3,2,1,0:T(8,128)} bitcast(%param_0.1129), metadata={op_name="jit(train_step)/transpose(jvp(TransformerLinenPure.apply))/TransformerLinenPure/decoder/transpose" stack_frame_id=0}
  %square.184 = f32[4096,4,8,128]{3,2,1,0:T(8,128)} multiply(%bitcast.350, %bitcast.350), metadata={op_name="jit(train_step)/square" stack_frame_id=0}
  %constant.1001 = f32[]{:T(128)} constant(0)
  %reduce.102 = f32[]{:T(128)} reduce(%square.184, %constant.1001), dimensions={0,1,2,3}, to_apply=%region_31.36, metadata={op_name="jit(train_step)/reduce_sum" stack_frame_id=0}
  %param_1.1286 = f32[4,4096,8,128]{3,2,0,1:T(8,128)} parameter(1)
  %bitcast.354.clone.1 = f32[4096,4,8,128]{3,2,1,0:T(8,128)} bitcast(%param_1.1286), metadata={op_name="jit(train_step)/transpose(jvp(TransformerLinenPure.apply))/TransformerLinenPure/decoder/transpose" stack_frame_id=0}
  %square.187.clone.1 = f32[4096,4,8,128]{3,2,1,0:T(8,128)} multiply(%bitcast.354.clone.1, %bitcast.354.clone.1), metadata={op_name="jit(train_step)/square" stack_frame_id=0}
  %reduce.103.clone.1 = f32[]{:T(128)} reduce(%square.187.clone.1, %constant.1001), dimensions={0,1,2,3}, to_apply=%region_28.33, metadata={op_name="jit(train_step)/reduce_sum" stack_frame_id=0}
  ROOT %tuple.156 = (f32[]{:T(128)}, f32[]{:T(128)}) tuple(%reduce.102, %reduce.103.clone.1)
}

%fused_computation.293 (param_0.812: f32[4096,4,8,128]) -> bf16[4,4096,8,128] {
  %param_0.812 = f32[4096,4,8,128]{3,2,1,0:T(8,128)} parameter(0)
  %copy.238 = bf16[4096,4,8,128]{3,2,0,1:T(8,128)(2,1)} copy(%param_0.812), sharding={replicated}, metadata={op_name="state.params[\'params\'][\'decoder\'][\'layers\'][\'self_attention\'][\'value\'][\'kernel\']"}
  ROOT %bitcast.355 = bf16[4,4096,8,128]{3,2,1,0:T(8,128)(2,1)S(1)} bitcast(%copy.238), metadata={op_name="jit(train_step)/jvp(TransformerLinenPure.apply)/TransformerLinenPure/decoder/transpose" stack_frame_id=0}
}

%region_58.63 (reduce_sum.376: f32[], reduce_sum.377: f32[]) -> f32[] {
  %reduce_sum.376 = f32[]{:T(128)} parameter(0), metadata={op_name="jit(train_step)/reduce_sum"}
  %reduce_sum.377 = f32[]{:T(128)} parameter(1), metadata={op_name="jit(train_step)/reduce_sum"}
  ROOT %reduce_sum.378 = f32[]{:T(128)} add(%reduce_sum.376, %reduce_sum.377), metadata={op_name="jit(train_step)/reduce_sum" stack_frame_id=0}, backend_config={"flag_configs":[],"scoped_memory_configs":[],"used_scoped_memory_configs":[],"aliasing_operands":{"lists":[]}}
}

%region_44.49 (reduce_sum.301: f32[], reduce_sum.305: f32[]) -> f32[] {
  %reduce_sum.301 = f32[]{:T(128)} parameter(0), metadata={op_name="jit(train_step)/reduce_sum"}
  %reduce_sum.305 = f32[]{:T(128)} parameter(1), metadata={op_name="jit(train_step)/reduce_sum"}
  ROOT %reduce_sum.306 = f32[]{:T(128)} add(%reduce_sum.301, %reduce_sum.305), metadata={op_name="jit(train_step)/reduce_sum" stack_frame_id=0}, backend_config={"flag_configs":[],"scoped_memory_configs":[],"used_scoped_memory_configs":[],"aliasing_operands":{"lists":[]}}
}

%fused_computation.294 (param_0.1115: f32[4096,4,8,128], param_1.1275: f32[], param_2.1096: f32[], param_3.779: f32[], param_4.486: f32[4096,4,8,128], param_5.417: f32[], param_6.290: f32[4,4096,8,128], param_7.188: pred[], param_8.106: f32[4096,4,8,128]) -> (f32[], f32[4096,4,8,128], f32[4096,4,8,128], f32[4096,4,8,128], f32[]) {
  %param_0.1115 = f32[4096,4,8,128]{3,2,1,0:T(8,128)} parameter(0)
  %param_3.779 = f32[]{:T(128)S(6)} parameter(3)
  %mul.1820.clone.1 = f32[4096,4,8,128]{3,2,1,0:T(8,128)} broadcast(%param_3.779), dimensions={}, metadata={op_name="jit(train_step)/mul" stack_frame_id=0}
  %param_7.188 = pred[]{:T(512)S(6)} parameter(7)
  %select_n.250.clone.1 = pred[4096,4,8,128]{3,2,1,0:T(8,128)(4,1)} broadcast(%param_7.188), dimensions={}, metadata={op_name="jit(train_step)/select_n" stack_frame_id=0}
  %param_6.290 = f32[4,4096,8,128]{3,2,0,1:T(8,128)} parameter(6)
  %bitcast.411.clone.1 = f32[4096,4,8,128]{3,2,1,0:T(8,128)} bitcast(%param_6.290), metadata={op_name="jit(train_step)/transpose(jvp(TransformerLinenPure.apply))/TransformerLinenPure/decoder/transpose" stack_frame_id=0}
  %param_5.417 = f32[]{:T(128)} parameter(5)
  %div.741.clone.1 = f32[4096,4,8,128]{3,2,1,0:T(8,128)} broadcast(%param_5.417), dimensions={}, metadata={op_name="jit(train_step)/div" stack_frame_id=0}
  %div.740.clone.1 = f32[4096,4,8,128]{3,2,1,0:T(8,128)} divide(%bitcast.411.clone.1, %div.741.clone.1), metadata={op_name="jit(train_step)/div" stack_frame_id=0}
  %select_n.249.clone.1 = f32[4096,4,8,128]{3,2,1,0:T(8,128)} select(%select_n.250.clone.1, %bitcast.411.clone.1, %div.740.clone.1), metadata={op_name="jit(train_step)/select_n" stack_frame_id=0}
  %constant.911.clone.1 = f32[]{:T(128)} constant(0.1)
  %broadcast.523.clone.1 = f32[4096,4,8,128]{3,2,1,0:T(8,128)} broadcast(%constant.911.clone.1), dimensions={}, metadata={op_name="broadcast.66"}
  %mul.1824.clone.1 = f32[4096,4,8,128]{3,2,1,0:T(8,128)} multiply(%select_n.249.clone.1, %broadcast.523.clone.1), metadata={op_name="jit(train_step)/mul" stack_frame_id=0}
  %param_8.106 = f32[4096,4,8,128]{3,2,1,0:T(8,128)} parameter(8)
  %constant.915.clone.1 = f32[]{:T(128)} constant(0.9)
  %broadcast.522.clone.1 = f32[4096,4,8,128]{3,2,1,0:T(8,128)} broadcast(%constant.915.clone.1), dimensions={}, metadata={op_name="broadcast.65"}
  %mul.1823.clone.1 = f32[4096,4,8,128]{3,2,1,0:T(8,128)} multiply(%param_8.106, %broadcast.522.clone.1), metadata={op_name="jit(train_step)/mul" stack_frame_id=0}
  %add.773.clone.1 = f32[4096,4,8,128]{3,2,1,0:T(8,128)} add(%mul.1824.clone.1, %mul.1823.clone.1), metadata={op_name="jit(train_step)/add" stack_frame_id=0}
  %param_2.1096 = f32[]{:T(128)S(6)} parameter(2)
  %div.737.clone.1 = f32[4096,4,8,128]{3,2,1,0:T(8,128)} broadcast(%param_2.1096), dimensions={}, metadata={op_name="jit(train_step)/div" stack_frame_id=0}
  %integer_pow.62.clone.1 = f32[4096,4,8,128]{3,2,1,0:T(8,128)} multiply(%select_n.249.clone.1, %select_n.249.clone.1), metadata={op_name="jit(train_step)/integer_pow" stack_frame_id=0}
  %constant.914.clone.1 = f32[]{:T(128)} constant(0.05)
  %broadcast.521.clone.1 = f32[4096,4,8,128]{3,2,1,0:T(8,128)} broadcast(%constant.914.clone.1), dimensions={}, metadata={op_name="broadcast.56"}
  %mul.1822.clone.1 = f32[4096,4,8,128]{3,2,1,0:T(8,128)} multiply(%integer_pow.62.clone.1, %broadcast.521.clone.1), metadata={op_name="jit(train_step)/mul" stack_frame_id=0}
  %param_4.486 = f32[4096,4,8,128]{3,2,1,0:T(8,128)} parameter(4)
  %constant.913.clone.1 = f32[]{:T(128)} constant(0.95)
  %broadcast.520.clone.1 = f32[4096,4,8,128]{3,2,1,0:T(8,128)} broadcast(%constant.913.clone.1), dimensions={}, metadata={op_name="broadcast.55"}
  %mul.1821.clone.1 = f32[4096,4,8,128]{3,2,1,0:T(8,128)} multiply(%param_4.486, %broadcast.520.clone.1), metadata={op_name="jit(train_step)/mul" stack_frame_id=0}
  %add.772.clone.1 = f32[4096,4,8,128]{3,2,1,0:T(8,128)} add(%mul.1822.clone.1, %mul.1821.clone.1), metadata={op_name="jit(train_step)/add" stack_frame_id=0}
  %param_1.1275 = f32[]{:T(128)S(6)} parameter(1)
  %div.736.clone.1 = f32[4096,4,8,128]{3,2,1,0:T(8,128)} broadcast(%param_1.1275), dimensions={}, metadata={op_name="jit(train_step)/div" stack_frame_id=0}
  %div.735.clone.1 = f32[4096,4,8,128]{3,2,1,0:T(8,128)} divide(%add.772.clone.1, %div.736.clone.1), metadata={op_name="jit(train_step)/div" stack_frame_id=0}
  %sqrt.60.clone.1 = f32[4096,4,8,128]{3,2,1,0:T(8,128)} sqrt(%div.735.clone.1), metadata={op_name="jit(train_step)/sqrt" stack_frame_id=0}
  %constant.912.clone.1 = f32[]{:T(128)} constant(1e-08)
  %broadcast.518.clone.1 = f32[4096,4,8,128]{3,2,1,0:T(8,128)} broadcast(%constant.912.clone.1), dimensions={}, metadata={op_name="broadcast.52"}
  %add.771.clone.1 = f32[4096,4,8,128]{3,2,1,0:T(8,128)} add(%sqrt.60.clone.1, %broadcast.518.clone.1), metadata={op_name="jit(train_step)/add" stack_frame_id=0}
  %multiply.185.clone.1 = f32[4096,4,8,128]{3,2,1,0:T(8,128)} multiply(%div.737.clone.1, %add.771.clone.1), metadata={op_name="multiply.31"}
  %div.734.clone.1 = f32[4096,4,8,128]{3,2,1,0:T(8,128)} divide(%add.773.clone.1, %multiply.185.clone.1), metadata={op_name="jit(train_step)/div" stack_frame_id=0}
  %mul.1819.clone.1 = f32[4096,4,8,128]{3,2,1,0:T(8,128)} multiply(%param_0.1115, %broadcast.523.clone.1), metadata={op_name="jit(train_step)/mul" stack_frame_id=0}
  %add.770.clone.1 = f32[4096,4,8,128]{3,2,1,0:T(8,128)} add(%div.734.clone.1, %mul.1819.clone.1), metadata={op_name="jit(train_step)/add" stack_frame_id=0}
  %mul.1818.clone.1 = f32[4096,4,8,128]{3,2,1,0:T(8,128)} multiply(%mul.1820.clone.1, %add.770.clone.1), metadata={op_name="jit(train_step)/mul" stack_frame_id=0}
  %add.769.clone.1 = f32[4096,4,8,128]{3,2,1,0:T(8,128)} add(%param_0.1115, %mul.1818.clone.1), metadata={op_name="jit(train_step)/add" stack_frame_id=0}
  %square.188 = f32[4096,4,8,128]{3,2,1,0:T(8,128)} multiply(%add.769.clone.1, %add.769.clone.1), metadata={op_name="jit(train_step)/square" stack_frame_id=0}
  %constant.987 = f32[]{:T(128)} constant(0)
  %reduce.104 = f32[]{:T(128)} reduce(%square.188, %constant.987), dimensions={0,1,2,3}, to_apply=%region_58.63, metadata={op_name="jit(train_step)/reduce_sum" stack_frame_id=0}
  %reduce.106.clone.1 = f32[]{:T(128)} reduce(%integer_pow.62.clone.1, %constant.987), dimensions={0,1,2,3}, to_apply=%region_44.49, metadata={op_name="jit(train_step)/reduce_sum" stack_frame_id=0}
  ROOT %tuple.142 = (f32[]{:T(128)}, f32[4096,4,8,128]{3,2,1,0:T(8,128)}, f32[4096,4,8,128]{3,2,1,0:T(8,128)}, f32[4096,4,8,128]{3,2,1,0:T(8,128)}, f32[]{:T(128)}) tuple(%reduce.104, %add.769.clone.1, %add.772.clone.1, %add.773.clone.1, %reduce.106.clone.1)
}

%region_55.60 (reduce_sum.361: f32[], reduce_sum.362: f32[]) -> f32[] {
  %reduce_sum.361 = f32[]{:T(128)} parameter(0), metadata={op_name="jit(train_step)/reduce_sum"}
  %reduce_sum.362 = f32[]{:T(128)} parameter(1), metadata={op_name="jit(train_step)/reduce_sum"}
  ROOT %reduce_sum.363 = f32[]{:T(128)} add(%reduce_sum.361, %reduce_sum.362), metadata={op_name="jit(train_step)/reduce_sum" stack_frame_id=0}, backend_config={"flag_configs":[],"scoped_memory_configs":[],"used_scoped_memory_configs":[],"aliasing_operands":{"lists":[]}}
}

%region_41.46 (reduce_sum.286: f32[], reduce_sum.287: f32[]) -> f32[] {
  %reduce_sum.286 = f32[]{:T(128)} parameter(0), metadata={op_name="jit(train_step)/reduce_sum"}
  %reduce_sum.287 = f32[]{:T(128)} parameter(1), metadata={op_name="jit(train_step)/reduce_sum"}
  ROOT %reduce_sum.291 = f32[]{:T(128)} add(%reduce_sum.286, %reduce_sum.287), metadata={op_name="jit(train_step)/reduce_sum" stack_frame_id=0}, backend_config={"flag_configs":[],"scoped_memory_configs":[],"used_scoped_memory_configs":[],"aliasing_operands":{"lists":[]}}
}

%fused_computation.295 (param_0.1118: f32[4096,4,8,128], param_1.1278: f32[], param_2.1099: f32[], param_3.782: f32[], param_4.489: f32[4096,4,8,128], param_5.420: f32[], param_6.293: f32[4,4096,8,128], param_7.191: pred[], param_8.109: f32[4096,4,8,128]) -> (f32[], f32[4096,4,8,128], f32[4096,4,8,128], f32[4096,4,8,128], f32[]) {
  %param_0.1118 = f32[4096,4,8,128]{3,2,1,0:T(8,128)} parameter(0)
  %param_3.782 = f32[]{:T(128)S(6)} parameter(3)
  %mul.1847.clone.1 = f32[4096,4,8,128]{3,2,1,0:T(8,128)} broadcast(%param_3.782), dimensions={}, metadata={op_name="jit(train_step)/mul" stack_frame_id=0}
  %param_7.191 = pred[]{:T(512)S(6)} parameter(7)
  %select_n.262.clone.1 = pred[4096,4,8,128]{3,2,1,0:T(8,128)(4,1)} broadcast(%param_7.191), dimensions={}, metadata={op_name="jit(train_step)/select_n" stack_frame_id=0}
  %param_6.293 = f32[4,4096,8,128]{3,2,0,1:T(8,128)} parameter(6)
  %bitcast.417.clone.1 = f32[4096,4,8,128]{3,2,1,0:T(8,128)} bitcast(%param_6.293), metadata={op_name="jit(train_step)/transpose(jvp(TransformerLinenPure.apply))/TransformerLinenPure/decoder/transpose" stack_frame_id=0}
  %param_5.420 = f32[]{:T(128)} parameter(5)
  %div.765.clone.1 = f32[4096,4,8,128]{3,2,1,0:T(8,128)} broadcast(%param_5.420), dimensions={}, metadata={op_name="jit(train_step)/div" stack_frame_id=0}
  %div.764.clone.1 = f32[4096,4,8,128]{3,2,1,0:T(8,128)} divide(%bitcast.417.clone.1, %div.765.clone.1), metadata={op_name="jit(train_step)/div" stack_frame_id=0}
  %select_n.261.clone.1 = f32[4096,4,8,128]{3,2,1,0:T(8,128)} select(%select_n.262.clone.1, %bitcast.417.clone.1, %div.764.clone.1), metadata={op_name="jit(train_step)/select_n" stack_frame_id=0}
  %constant.929.clone.1 = f32[]{:T(128)} constant(0.1)
  %broadcast.533.clone.1 = f32[4096,4,8,128]{3,2,1,0:T(8,128)} broadcast(%constant.929.clone.1), dimensions={}, metadata={op_name="broadcast.66"}
  %mul.1851.clone.1 = f32[4096,4,8,128]{3,2,1,0:T(8,128)} multiply(%select_n.261.clone.1, %broadcast.533.clone.1), metadata={op_name="jit(train_step)/mul" stack_frame_id=0}
  %param_8.109 = f32[4096,4,8,128]{3,2,1,0:T(8,128)} parameter(8)
  %constant.933.clone.1 = f32[]{:T(128)} constant(0.9)
  %broadcast.532.clone.1 = f32[4096,4,8,128]{3,2,1,0:T(8,128)} broadcast(%constant.933.clone.1), dimensions={}, metadata={op_name="broadcast.65"}
  %mul.1850.clone.1 = f32[4096,4,8,128]{3,2,1,0:T(8,128)} multiply(%param_8.109, %broadcast.532.clone.1), metadata={op_name="jit(train_step)/mul" stack_frame_id=0}
  %add.790.clone.1 = f32[4096,4,8,128]{3,2,1,0:T(8,128)} add(%mul.1851.clone.1, %mul.1850.clone.1), metadata={op_name="jit(train_step)/add" stack_frame_id=0}
  %param_2.1099 = f32[]{:T(128)S(6)} parameter(2)
  %div.761.clone.1 = f32[4096,4,8,128]{3,2,1,0:T(8,128)} broadcast(%param_2.1099), dimensions={}, metadata={op_name="jit(train_step)/div" stack_frame_id=0}
  %integer_pow.65.clone.1 = f32[4096,4,8,128]{3,2,1,0:T(8,128)} multiply(%select_n.261.clone.1, %select_n.261.clone.1), metadata={op_name="jit(train_step)/integer_pow" stack_frame_id=0}
  %constant.932.clone.1 = f32[]{:T(128)} constant(0.05)
  %broadcast.531.clone.1 = f32[4096,4,8,128]{3,2,1,0:T(8,128)} broadcast(%constant.932.clone.1), dimensions={}, metadata={op_name="broadcast.56"}
  %mul.1849.clone.1 = f32[4096,4,8,128]{3,2,1,0:T(8,128)} multiply(%integer_pow.65.clone.1, %broadcast.531.clone.1), metadata={op_name="jit(train_step)/mul" stack_frame_id=0}
  %param_4.489 = f32[4096,4,8,128]{3,2,1,0:T(8,128)} parameter(4)
  %constant.931.clone.1 = f32[]{:T(128)} constant(0.95)
  %broadcast.530.clone.1 = f32[4096,4,8,128]{3,2,1,0:T(8,128)} broadcast(%constant.931.clone.1), dimensions={}, metadata={op_name="broadcast.55"}
  %mul.1848.clone.1 = f32[4096,4,8,128]{3,2,1,0:T(8,128)} multiply(%param_4.489, %broadcast.530.clone.1), metadata={op_name="jit(train_step)/mul" stack_frame_id=0}
  %add.789.clone.1 = f32[4096,4,8,128]{3,2,1,0:T(8,128)} add(%mul.1849.clone.1, %mul.1848.clone.1), metadata={op_name="jit(train_step)/add" stack_frame_id=0}
  %param_1.1278 = f32[]{:T(128)S(6)} parameter(1)
  %div.760.clone.1 = f32[4096,4,8,128]{3,2,1,0:T(8,128)} broadcast(%param_1.1278), dimensions={}, metadata={op_name="jit(train_step)/div" stack_frame_id=0}
  %div.759.clone.1 = f32[4096,4,8,128]{3,2,1,0:T(8,128)} divide(%add.789.clone.1, %div.760.clone.1), metadata={op_name="jit(train_step)/div" stack_frame_id=0}
  %sqrt.63.clone.1 = f32[4096,4,8,128]{3,2,1,0:T(8,128)} sqrt(%div.759.clone.1), metadata={op_name="jit(train_step)/sqrt" stack_frame_id=0}
  %constant.930.clone.1 = f32[]{:T(128)} constant(1e-08)
  %broadcast.528.clone.1 = f32[4096,4,8,128]{3,2,1,0:T(8,128)} broadcast(%constant.930.clone.1), dimensions={}, metadata={op_name="broadcast.52"}
  %add.788.clone.1 = f32[4096,4,8,128]{3,2,1,0:T(8,128)} add(%sqrt.63.clone.1, %broadcast.528.clone.1), metadata={op_name="jit(train_step)/add" stack_frame_id=0}
  %multiply.188.clone.1 = f32[4096,4,8,128]{3,2,1,0:T(8,128)} multiply(%div.761.clone.1, %add.788.clone.1), metadata={op_name="multiply.28"}
  %div.758.clone.1 = f32[4096,4,8,128]{3,2,1,0:T(8,128)} divide(%add.790.clone.1, %multiply.188.clone.1), metadata={op_name="jit(train_step)/div" stack_frame_id=0}
  %mul.1846.clone.1 = f32[4096,4,8,128]{3,2,1,0:T(8,128)} multiply(%param_0.1118, %broadcast.533.clone.1), metadata={op_name="jit(train_step)/mul" stack_frame_id=0}
  %add.787.clone.1 = f32[4096,4,8,128]{3,2,1,0:T(8,128)} add(%div.758.clone.1, %mul.1846.clone.1), metadata={op_name="jit(train_step)/add" stack_frame_id=0}
  %mul.1845.clone.1 = f32[4096,4,8,128]{3,2,1,0:T(8,128)} multiply(%mul.1847.clone.1, %add.787.clone.1), metadata={op_name="jit(train_step)/mul" stack_frame_id=0}
  %add.786.clone.1 = f32[4096,4,8,128]{3,2,1,0:T(8,128)} add(%param_0.1118, %mul.1845.clone.1), metadata={op_name="jit(train_step)/add" stack_frame_id=0}
  %square.189 = f32[4096,4,8,128]{3,2,1,0:T(8,128)} multiply(%add.786.clone.1, %add.786.clone.1), metadata={op_name="jit(train_step)/square" stack_frame_id=0}
  %constant.990 = f32[]{:T(128)} constant(0)
  %reduce.105 = f32[]{:T(128)} reduce(%square.189, %constant.990), dimensions={0,1,2,3}, to_apply=%region_55.60, metadata={op_name="jit(train_step)/reduce_sum" stack_frame_id=0}
  %reduce.107.clone.1 = f32[]{:T(128)} reduce(%integer_pow.65.clone.1, %constant.990), dimensions={0,1,2,3}, to_apply=%region_41.46, metadata={op_name="jit(train_step)/reduce_sum" stack_frame_id=0}
  ROOT %tuple.143 = (f32[]{:T(128)}, f32[4096,4,8,128]{3,2,1,0:T(8,128)}, f32[4096,4,8,128]{3,2,1,0:T(8,128)}, f32[4096,4,8,128]{3,2,1,0:T(8,128)}, f32[]{:T(128)}) tuple(%reduce.105, %add.786.clone.1, %add.789.clone.1, %add.790.clone.1, %reduce.107.clone.1)
}

%fused_computation.311 (param_0.877: bf16[4,128,4096], param_1.943: f32[4,128], param_2.720: f32[4,128], param_3.440: bf16[4,128,4096], param_4.265: bf16[4096]) -> bf16[4,128,4096] {
  %param_3.440 = bf16[4,128,4096]{2,1,0:T(8,128)(2,1)S(1)} parameter(3)
  %param_4.265 = bf16[4096]{0:T(1024)(128)(2,1)S(1)} parameter(4)
  %mul.1754 = bf16[4,128,4096]{2,1,0:T(8,128)(2,1)} broadcast(%param_4.265), dimensions={2}, metadata={op_name="jit(train_step)/jvp(TransformerLinenPure.apply)/TransformerLinenPure/decoder/decoder.apply_output_head/decoder_norm/mul" stack_frame_id=0}
  %mul.1728 = bf16[4,128,4096]{2,1,0:T(8,128)(2,1)} multiply(%param_3.440, %mul.1754), metadata={op_name="jit(train_step)/transpose(jvp(TransformerLinenPure.apply))/TransformerLinenPure/decoder/decoder.apply_output_head/decoder_norm/mul" stack_frame_id=0}
  %convert_element_type.989 = f32[4,128,4096]{2,1,0:T(8,128)} convert(%mul.1728), metadata={op_name="jit(train_step)/transpose(jvp(TransformerLinenPure.apply))/TransformerLinenPure/decoder/decoder.apply_output_head/decoder_norm/convert_element_type" stack_frame_id=0}
  %param_2.720 = f32[4,128]{1,0:T(4,128)S(1)} parameter(2)
  %mul.1725 = f32[4,128,4096]{2,1,0:T(8,128)} broadcast(%param_2.720), dimensions={0,1}, metadata={op_name="jit(train_step)/jvp(TransformerLinenPure.apply)/TransformerLinenPure/decoder/decoder.apply_output_head/decoder_norm/mul" stack_frame_id=0}
  %mul.1716 = f32[4,128,4096]{2,1,0:T(8,128)} multiply(%convert_element_type.989, %mul.1725), metadata={op_name="jit(train_step)/transpose(jvp(TransformerLinenPure.apply))/TransformerLinenPure/decoder/decoder.apply_output_head/decoder_norm/mul" stack_frame_id=0}
  %param_0.877 = bf16[4,128,4096]{2,1,0:T(8,128)(2,1)S(1)} parameter(0)
  %convert_element_type.1000 = f32[4,128,4096]{2,1,0:T(8,128)} convert(%param_0.877), metadata={op_name="jit(train_step)/jvp(TransformerLinenPure.apply)/TransformerLinenPure/decoder/decoder.apply_output_head/decoder_norm/convert_element_type" stack_frame_id=0}
  %param_1.943 = f32[4,128]{1,0:T(4,128)S(1)} parameter(1)
  %mul.1723 = f32[4,128,4096]{2,1,0:T(8,128)} broadcast(%param_1.943), dimensions={0,1}, metadata={op_name="jit(train_step)/transpose(jvp(TransformerLinenPure.apply))/TransformerLinenPure/decoder/decoder.apply_output_head/decoder_norm/mul" stack_frame_id=0}
  %mul.1722 = f32[4,128,4096]{2,1,0:T(8,128)} multiply(%convert_element_type.1000, %mul.1723), metadata={op_name="jit(train_step)/transpose(jvp(TransformerLinenPure.apply))/TransformerLinenPure/decoder/decoder.apply_output_head/decoder_norm/mul" stack_frame_id=0}
  %add_any.138 = f32[4,128,4096]{2,1,0:T(8,128)} add(%mul.1716, %mul.1722), metadata={op_name="jit(train_step)/transpose(jvp(TransformerLinenPure.apply))/TransformerLinenPure/decoder/decoder.apply_output_head/decoder_norm/add_any" stack_frame_id=0}
  ROOT %convert_element_type.987 = bf16[4,128,4096]{2,1,0:T(8,128)(2,1)} convert(%add_any.138), metadata={op_name="jit(train_step)/transpose(jvp(TransformerLinenPure.apply))/TransformerLinenPure/decoder/decoder.apply_output_head/decoder_norm/convert_element_type" stack_frame_id=0}
}

%region_4.7 (reduce_sum.114: f32[], reduce_sum.115: f32[]) -> f32[] {
  %reduce_sum.114 = f32[]{:T(128)} parameter(0), metadata={op_name="jit(train_step)/jvp(TransformerLinenPure.apply)/TransformerLinenPure/decoder/decoder.apply_output_head/decoder_norm/reduce_sum"}
  %reduce_sum.115 = f32[]{:T(128)} parameter(1), metadata={op_name="jit(train_step)/jvp(TransformerLinenPure.apply)/TransformerLinenPure/decoder/decoder.apply_output_head/decoder_norm/reduce_sum"}
  ROOT %reduce_sum.116 = f32[]{:T(128)} add(%reduce_sum.114, %reduce_sum.115), metadata={op_name="jit(train_step)/jvp(TransformerLinenPure.apply)/TransformerLinenPure/decoder/decoder.apply_output_head/decoder_norm/reduce_sum" stack_frame_id=0}, backend_config={"flag_configs":[],"scoped_memory_configs":[],"used_scoped_memory_configs":[],"aliasing_operands":{"lists":[]}}
}

%fused_computation.312 (param_0.1138: bf16[4,128,4096]) -> f32[4,128] {
  %param_0.1138 = bf16[4,128,4096]{2,1,0:T(8,128)(2,1)S(1)} parameter(0)
  %convert_element_type.991 = f32[4,128,4096]{2,1,0:T(8,128)} convert(%param_0.1138), metadata={op_name="jit(train_step)/jvp(TransformerLinenPure.apply)/TransformerLinenPure/decoder/decoder.apply_output_head/decoder_norm/convert_element_type" stack_frame_id=0}
  %square.192 = f32[4,128,4096]{2,1,0:T(8,128)} multiply(%convert_element_type.991, %convert_element_type.991), metadata={op_name="jit(train_step)/jvp(TransformerLinenPure.apply)/TransformerLinenPure/decoder/decoder.apply_output_head/decoder_norm/square" stack_frame_id=0}
  %constant.1011 = f32[]{:T(128)} constant(0)
  ROOT %reduce.108 = f32[4,128]{1,0:T(4,128)S(1)} reduce(%square.192, %constant.1011), dimensions={2}, to_apply=%region_4.7, metadata={op_name="jit(train_step)/jvp(TransformerLinenPure.apply)/TransformerLinenPure/decoder/decoder.apply_output_head/decoder_norm/reduce_sum" stack_frame_id=0}
}

%region_10.13 (reduce_sum.141: f32[], reduce_sum.142: f32[]) -> f32[] {
  %reduce_sum.141 = f32[]{:T(128)} parameter(0), metadata={op_name="jit(train_step)/transpose(jvp(TransformerLinenPure.apply))/TransformerLinenPure/decoder/decoder.apply_output_head/decoder_norm/reduce_sum"}
  %reduce_sum.142 = f32[]{:T(128)} parameter(1), metadata={op_name="jit(train_step)/transpose(jvp(TransformerLinenPure.apply))/TransformerLinenPure/decoder/decoder.apply_output_head/decoder_norm/reduce_sum"}
  ROOT %reduce_sum.143 = f32[]{:T(128)} add(%reduce_sum.141, %reduce_sum.142), metadata={op_name="jit(train_step)/transpose(jvp(TransformerLinenPure.apply))/TransformerLinenPure/decoder/decoder.apply_output_head/decoder_norm/reduce_sum" stack_frame_id=0}, backend_config={"flag_configs":[],"scoped_memory_configs":[],"used_scoped_memory_configs":[],"aliasing_operands":{"lists":[]}}
}

%fused_computation.314 (param_0.1133: bf16[4,128,4096], param_1.1289: bf16[4,128,4096], param_2.1107: bf16[4096]) -> f32[4,128] {
  %param_0.1133 = bf16[4,128,4096]{2,1,0:T(8,128)(2,1)S(1)} parameter(0)
  %convert_element_type.998 = f32[4,128,4096]{2,1,0:T(8,128)} convert(%param_0.1133), metadata={op_name="jit(train_step)/jvp(TransformerLinenPure.apply)/TransformerLinenPure/decoder/decoder.apply_output_head/decoder_norm/convert_element_type" stack_frame_id=0}
  %param_1.1289 = bf16[4,128,4096]{2,1,0:T(8,128)(2,1)S(1)} parameter(1)
  %param_2.1107 = bf16[4096]{0:T(1024)(128)(2,1)S(1)} parameter(2)
  %mul.1753 = bf16[4,128,4096]{2,1,0:T(8,128)(2,1)} broadcast(%param_2.1107), dimensions={2}, metadata={op_name="jit(train_step)/jvp(TransformerLinenPure.apply)/TransformerLinenPure/decoder/decoder.apply_output_head/decoder_norm/mul" stack_frame_id=0}
  %mul.1727 = bf16[4,128,4096]{2,1,0:T(8,128)(2,1)} multiply(%param_1.1289, %mul.1753), metadata={op_name="jit(train_step)/transpose(jvp(TransformerLinenPure.apply))/TransformerLinenPure/decoder/decoder.apply_output_head/decoder_norm/mul" stack_frame_id=0}
  %convert_element_type.997 = f32[4,128,4096]{2,1,0:T(8,128)} convert(%mul.1727), metadata={op_name="jit(train_step)/transpose(jvp(TransformerLinenPure.apply))/TransformerLinenPure/decoder/decoder.apply_output_head/decoder_norm/convert_element_type" stack_frame_id=0}
  %mul.1720 = f32[4,128,4096]{2,1,0:T(8,128)} multiply(%convert_element_type.998, %convert_element_type.997), metadata={op_name="jit(train_step)/transpose(jvp(TransformerLinenPure.apply))/TransformerLinenPure/decoder/decoder.apply_output_head/decoder_norm/mul" stack_frame_id=0}
  %constant.1005 = f32[]{:T(128)} constant(0)
  ROOT %reduce.109 = f32[4,128]{1,0:T(4,128)S(1)} reduce(%mul.1720, %constant.1005), dimensions={2}, to_apply=%region_10.13, metadata={op_name="jit(train_step)/transpose(jvp(TransformerLinenPure.apply))/TransformerLinenPure/decoder/decoder.apply_output_head/decoder_norm/reduce_sum" stack_frame_id=0}
}

%region_8.11 (reduce_sum.129: bf16[], reduce_sum.130: bf16[]) -> bf16[] {
  %reduce_sum.129 = bf16[]{:T(256)} parameter(0), metadata={op_name="jit(train_step)/transpose(jvp(TransformerLinenPure.apply))/TransformerLinenPure/decoder/decoder.apply_output_head/decoder_norm/reduce_sum"}
  %reduce_sum.130 = bf16[]{:T(256)} parameter(1), metadata={op_name="jit(train_step)/transpose(jvp(TransformerLinenPure.apply))/TransformerLinenPure/decoder/decoder.apply_output_head/decoder_norm/reduce_sum"}
  ROOT %reduce_sum.134 = bf16[]{:T(256)} add(%reduce_sum.129, %reduce_sum.130), metadata={op_name="jit(train_step)/transpose(jvp(TransformerLinenPure.apply))/TransformerLinenPure/decoder/decoder.apply_output_head/decoder_norm/reduce_sum" stack_frame_id=0}, backend_config={"flag_configs":[],"scoped_memory_configs":[],"used_scoped_memory_configs":[],"aliasing_operands":{"lists":[]}}
}

%fused_computation.235.clone.clone (param_0.1102: f32[4096,128256]) -> bf16[4096,128256,1] {
  %param_0.1102 = f32[4096,128256]{1,0:T(8,128)} parameter(0)
  %convert_element_type.1049 = bf16[4096,128256]{1,0:T(8,128)(2,1)} convert(%param_0.1102), metadata={op_name="jit(train_step)/jvp(TransformerLinenPure.apply)/TransformerLinenPure/decoder/decoder.apply_output_head/logits_dense/convert_element_type" stack_frame_id=0}
  ROOT %bitcast.449 = bf16[4096,128256,1]{1,0,2:T(8,128)(2,1)} bitcast(%convert_element_type.1049), metadata={op_name="jit(train_step)/jvp(TransformerLinenPure.apply)/TransformerLinenPure/decoder/decoder.apply_output_head/logits_dense/convert_element_type" stack_frame_id=0}
}

%fused_computation.280.clone.1.clone.clone (param_0.1103: bf16[4,128,128256], param_1.1265: s32[4,128], param_2.1075: f32[4,128], param_3.770: f32[4,128], param_4.478: bf16[4,128], param_5.409: f32[4,128]) -> bf16[4,128,128256] {
  %param_5.409 = f32[4,128]{1,0:T(4,128)S(1)} parameter(5)
  %mul.1925 = f32[4,128,128256]{2,1,0:T(8,128)} broadcast(%param_5.409), dimensions={0,1}, metadata={op_name="jit(train_step)/transpose(jvp())/mul" stack_frame_id=0}
  %param_3.770 = f32[4,128]{1,0:T(4,128)S(1)} parameter(3)
  %mul.1924 = f32[4,128,128256]{2,1,0:T(8,128)} broadcast(%param_3.770), dimensions={0,1}, metadata={op_name="jit(train_step)/transpose(jvp())/mul" stack_frame_id=0}
  %param_0.1103 = bf16[4,128,128256]{2,1,0:T(8,128)(2,1)} parameter(0)
  %convert_element_type.1052 = f32[4,128,128256]{2,1,0:T(8,128)} convert(%param_0.1103), metadata={op_name="jit(train_step)/jvp(TransformerLinenPure.apply)/TransformerLinenPure/decoder/decoder.apply_output_head/convert_element_type" stack_frame_id=0}
  %param_4.478 = bf16[4,128]{1,0:T(4,128)(2,1)S(1)} parameter(4)
  %sub.88 = f32[4,128,128256]{2,1,0:T(8,128)} broadcast(%param_4.478), dimensions={0,1}, metadata={op_name="jit(train_step)/jvp()/sub" stack_frame_id=0}
  %sub.87 = f32[4,128,128256]{2,1,0:T(8,128)} subtract(%convert_element_type.1052, %sub.88), metadata={op_name="jit(train_step)/jvp()/sub" stack_frame_id=0}
  %exp.60 = f32[4,128,128256]{2,1,0:T(8,128)} exponential(%sub.87), metadata={op_name="jit(train_step)/jvp()/exp" stack_frame_id=0}
  %mul.1923 = f32[4,128,128256]{2,1,0:T(8,128)} multiply(%mul.1924, %exp.60), metadata={op_name="jit(train_step)/transpose(jvp())/mul" stack_frame_id=0}
  %param_2.1075 = f32[4,128]{1,0:T(4,128)S(1)} parameter(2)
  %div.819 = f32[4,128,128256]{2,1,0:T(8,128)} broadcast(%param_2.1075), dimensions={0,1}, metadata={op_name="jit(train_step)/transpose(jvp())/div" stack_frame_id=0}
  %div.818 = f32[4,128,128256]{2,1,0:T(8,128)} divide(%mul.1923, %div.819), metadata={op_name="jit(train_step)/transpose(jvp())/div" stack_frame_id=0}
  %param_1.1265 = s32[4,128]{1,0:T(4,128)S(1)} parameter(1)
  %eq.43 = s32[4,128,128256]{2,1,0:T(8,128)} broadcast(%param_1.1265), dimensions={0,1}, metadata={op_name="jit(train_step)/jvp(jit(_one_hot))/eq" stack_frame_id=0}
  %eq.42 = s32[4,128,128256]{2,1,0:T(8,128)} iota(), iota_dimension=2, metadata={op_name="jit(train_step)/jvp(jit(_one_hot))/eq" stack_frame_id=0}
  %eq.41 = pred[4,128,128256]{2,1,0:T(8,128)(4,1)} compare(%eq.43, %eq.42), direction=EQ, metadata={op_name="jit(train_step)/jvp(jit(_one_hot))/eq" stack_frame_id=0}
  %convert_element_type.1051 = f32[4,128,128256]{2,1,0:T(8,128)} convert(%eq.41), metadata={op_name="jit(train_step)/jvp(jit(_one_hot))/convert_element_type" stack_frame_id=0}
  %sub.86 = f32[4,128,128256]{2,1,0:T(8,128)} subtract(%div.818, %convert_element_type.1051), metadata={op_name="jit(train_step)/transpose(jvp())/sub" stack_frame_id=0}
  %mul.1922 = f32[4,128,128256]{2,1,0:T(8,128)} multiply(%mul.1925, %sub.86), metadata={op_name="jit(train_step)/transpose(jvp())/mul" stack_frame_id=0}
  ROOT %convert_element_type.1050 = bf16[4,128,128256]{2,1,0:T(8,128)(2,1)} convert(%mul.1922), metadata={op_name="jit(train_step)/transpose(jvp(TransformerLinenPure.apply))/TransformerLinenPure/decoder/decoder.apply_output_head/convert_element_type" stack_frame_id=0}
}

%fused_computation.315 (param_0.1101: f32[4,128], param_1.1264: bf16[4,128,4096], param_2.1076: f32[4096,128256], param_3.771: bf16[4,128,128256], param_4.479: s32[4,128], param_5.410: f32[4,128], param_6.285: f32[4,128], param_7.183: bf16[4,128], param_8.102: f32[4,128]) -> (bf16[4096], bf16[4,128,4096]) {
  %param_1.1264 = bf16[4,128,4096]{2,1,0:T(8,128)(2,1)S(1)} parameter(1)
  %convert_element_type.1010 = f32[4,128,4096]{2,1,0:T(8,128)} convert(%param_1.1264), metadata={op_name="jit(train_step)/jvp(TransformerLinenPure.apply)/TransformerLinenPure/decoder/decoder.apply_output_head/decoder_norm/convert_element_type" stack_frame_id=0}
  %param_0.1101 = f32[4,128]{1,0:T(4,128)S(1)} parameter(0)
  %mul.1742 = f32[4,128,4096]{2,1,0:T(8,128)} broadcast(%param_0.1101), dimensions={0,1}, metadata={op_name="jit(train_step)/jvp(TransformerLinenPure.apply)/TransformerLinenPure/decoder/decoder.apply_output_head/decoder_norm/mul" stack_frame_id=0}
  %mul.1741 = f32[4,128,4096]{2,1,0:T(8,128)} multiply(%convert_element_type.1010, %mul.1742), metadata={op_name="jit(train_step)/jvp(TransformerLinenPure.apply)/TransformerLinenPure/decoder/decoder.apply_output_head/decoder_norm/mul" stack_frame_id=0}
  %convert_element_type.1009 = bf16[4,128,4096]{2,1,0:T(8,128)(2,1)} convert(%mul.1741), metadata={op_name="jit(train_step)/jvp(TransformerLinenPure.apply)/TransformerLinenPure/decoder/decoder.apply_output_head/decoder_norm/convert_element_type" stack_frame_id=0}
  %param_3.771 = bf16[4,128,128256]{2,1,0:T(8,128)(2,1)} parameter(3)
  %param_4.479 = s32[4,128]{1,0:T(4,128)S(1)} parameter(4)
  %param_5.410 = f32[4,128]{1,0:T(4,128)S(1)} parameter(5)
  %param_6.285 = f32[4,128]{1,0:T(4,128)S(1)} parameter(6)
  %param_7.183 = bf16[4,128]{1,0:T(4,128)(2,1)S(1)} parameter(7)
  %param_8.102 = f32[4,128]{1,0:T(4,128)S(1)} parameter(8)
  %multiply_convert_fusion.2.clone.1 = bf16[4,128,128256]{2,1,0:T(8,128)(2,1)} fusion(%param_3.771, %param_4.479, %param_5.410, %param_6.285, %param_7.183, /*index=5*/%param_8.102), kind=kLoop, calls=%fused_computation.280.clone.1.clone.clone, metadata={op_name="jit(train_step)/transpose(jvp(TransformerLinenPure.apply))/TransformerLinenPure/decoder/decoder.apply_output_head/convert_element_type" stack_frame_id=0}
  %param_2.1076 = f32[4096,128256]{1,0:T(8,128)} parameter(2)
  %fusion.219.clone.1 = bf16[4096,128256,1]{1,0,2:T(8,128)(2,1)} fusion(%param_2.1076), kind=kLoop, calls=%fused_computation.235.clone.clone, metadata={op_name="jit(train_step)/jvp(TransformerLinenPure.apply)/TransformerLinenPure/decoder/decoder.apply_output_head/logits_dense/convert_element_type" stack_frame_id=0}
  %convolution.86.clone.1 = bf16[4,128,4096]{2,1,0:T(8,128)(2,1)S(1)} convolution(%multiply_convert_fusion.2.clone.1, %fusion.219.clone.1), window={size=1}, dim_labels=0bf_oi0->0bf, metadata={op_name="jit(train_step)/transpose(jvp(TransformerLinenPure.apply))/TransformerLinenPure/decoder/decoder.apply_output_head/logits_dense/dot_general" stack_frame_id=0}
  %mul.1724 = bf16[4,128,4096]{2,1,0:T(8,128)(2,1)} multiply(%convert_element_type.1009, %convolution.86.clone.1), metadata={op_name="jit(train_step)/transpose(jvp(TransformerLinenPure.apply))/TransformerLinenPure/decoder/decoder.apply_output_head/decoder_norm/mul" stack_frame_id=0}
  %constant.878 = bf16[]{:T(256)} constant(0)
  %reduce.110 = bf16[4096]{0:T(1024)(128)(2,1)} reduce(%mul.1724, %constant.878), dimensions={0,1}, to_apply=%region_8.11, metadata={op_name="jit(train_step)/transpose(jvp(TransformerLinenPure.apply))/TransformerLinenPure/decoder/decoder.apply_output_head/decoder_norm/reduce_sum" stack_frame_id=0}
  ROOT %tuple.153 = (bf16[4096]{0:T(1024)(128)(2,1)}, bf16[4,128,4096]{2,1,0:T(8,128)(2,1)S(1)}) tuple(%reduce.110, %convolution.86.clone.1)
}

%fused_computation.323 (param_0.911: f32[64], param_1.978: f32[4,128]) -> (bf16[4,128,1,64], bf16[4,128,1,64]) {
  %param_1.978 = f32[4,128]{1,0:T(4,128)S(1)} parameter(1)
  %div.621 = f32[4,128,1,64]{3,1,0,2:T(8,128)} broadcast(%param_1.978), dimensions={0,1}, metadata={op_name="jit(train_step)/layers/div" stack_frame_id=0}
  %param_0.911 = f32[64]{0:T(128)S(1)} parameter(0)
  %div.619 = f32[4,128,1,64]{3,1,0,2:T(8,128)} broadcast(%param_0.911), dimensions={3}, metadata={op_name="jit(train_step)/layers/div" stack_frame_id=0}
  %div.618 = f32[4,128,1,64]{3,1,0,2:T(8,128)} divide(%div.621, %div.619), metadata={op_name="jit(train_step)/layers/div" stack_frame_id=0}
  %sin.38 = f32[4,128,1,64]{3,1,0,2:T(8,128)} sine(%div.618), metadata={op_name="jit(train_step)/layers/sin" stack_frame_id=0}
  %convert_element_type.1018 = bf16[4,128,1,64]{3,1,0,2:T(8,128)(2,1)S(1)} convert(%sin.38), metadata={op_name="jit(train_step)/layers/convert_element_type" stack_frame_id=0}
  %cos.41.clone.1 = f32[4,128,1,64]{3,1,0,2:T(8,128)} cosine(%div.618), metadata={op_name="jit(train_step)/layers/cos" stack_frame_id=0}
  %convert_element_type.1017.clone.1 = bf16[4,128,1,64]{3,1,0,2:T(8,128)(2,1)S(1)} convert(%cos.41.clone.1), metadata={op_name="jit(train_step)/layers/convert_element_type" stack_frame_id=0}
  ROOT %tuple.150 = (bf16[4,128,1,64]{3,1,0,2:T(8,128)(2,1)S(1)}, bf16[4,128,1,64]{3,1,0,2:T(8,128)(2,1)S(1)}) tuple(%convert_element_type.1018, %convert_element_type.1017.clone.1)
}

%fused_computation.324 (param_0.908: bf16[4,128,1,64]) -> bf16[4,128,1,128] {
  %param_0.908 = bf16[4,128,1,64]{3,1,0,2:T(8,128)(2,1)S(1)} parameter(0)
  %constant.858 = bf16[]{:T(256)} constant(-inf)
  %pad.38 = bf16[4,128,1,128]{3,1,0,2:T(8,128)(2,1)} pad(%param_0.908, %constant.858), padding=0_0x0_0x0_0x0_64, metadata={op_name="jit(train_step)/layers/concatenate" stack_frame_id=0}
  %pad.37 = bf16[4,128,1,128]{3,1,0,2:T(8,128)(2,1)} pad(%param_0.908, %constant.858), padding=0_0x0_0x0_0x64_0, metadata={op_name="jit(train_step)/layers/concatenate" stack_frame_id=0}
  ROOT %maximum.34 = bf16[4,128,1,128]{3,1,0,2:T(8,128)(2,1)} maximum(%pad.38, %pad.37), metadata={op_name="jit(train_step)/layers/concatenate" stack_frame_id=0}
}

%fused_computation.325 (param_0.910: bf16[4,128,1,64]) -> bf16[4,128,1,128] {
  %param_0.910 = bf16[4,128,1,64]{3,1,0,2:T(8,128)(2,1)S(1)} parameter(0)
  %constant.857 = bf16[]{:T(256)} constant(-inf)
  %pad.40 = bf16[4,128,1,128]{3,1,0,2:T(8,128)(2,1)} pad(%param_0.910, %constant.857), padding=0_0x0_0x0_0x0_64, metadata={op_name="jit(train_step)/layers/concatenate" stack_frame_id=0}
  %pad.39 = bf16[4,128,1,128]{3,1,0,2:T(8,128)(2,1)} pad(%param_0.910, %constant.857), padding=0_0x0_0x0_0x64_0, metadata={op_name="jit(train_step)/layers/concatenate" stack_frame_id=0}
  ROOT %maximum.35 = bf16[4,128,1,128]{3,1,0,2:T(8,128)(2,1)} maximum(%pad.40, %pad.39), metadata={op_name="jit(train_step)/layers/concatenate" stack_frame_id=0}
}

%region_27.32 (reduce_sum.217: f32[], reduce_sum.221: f32[]) -> f32[] {
  %reduce_sum.217 = f32[]{:T(128)} parameter(0), metadata={op_name="jit(train_step)/reduce_sum"}
  %reduce_sum.221 = f32[]{:T(128)} parameter(1), metadata={op_name="jit(train_step)/reduce_sum"}
  ROOT %reduce_sum.222 = f32[]{:T(128)} add(%reduce_sum.217, %reduce_sum.221), metadata={op_name="jit(train_step)/reduce_sum" stack_frame_id=0}, backend_config={"flag_configs":[],"scoped_memory_configs":[],"used_scoped_memory_configs":[],"aliasing_operands":{"lists":[]}}
}

%region_26.31 (reduce_sum.214: f32[], reduce_sum.215: f32[]) -> f32[] {
  %reduce_sum.214 = f32[]{:T(128)} parameter(0), metadata={op_name="jit(train_step)/reduce_sum"}
  %reduce_sum.215 = f32[]{:T(128)} parameter(1), metadata={op_name="jit(train_step)/reduce_sum"}
  ROOT %reduce_sum.216 = f32[]{:T(128)} add(%reduce_sum.214, %reduce_sum.215), metadata={op_name="jit(train_step)/reduce_sum" stack_frame_id=0}, backend_config={"flag_configs":[],"scoped_memory_configs":[],"used_scoped_memory_configs":[],"aliasing_operands":{"lists":[]}}
}

%fused_computation.329 (param_0.1130: f32[4,4096], param_1.1287: f32[4,4096]) -> (f32[], f32[]) {
  %param_0.1130 = f32[4,4096]{1,0:T(4,128)S(1)} parameter(0)
  %bitcast.371 = f32[4096,4]{0,1:T(4,128)} bitcast(%param_0.1130), metadata={op_name="jit(train_step)/transpose(jvp(TransformerLinenPure.apply))/TransformerLinenPure/decoder/transpose" stack_frame_id=0}
  %square.195 = f32[4096,4]{0,1:T(4,128)} multiply(%bitcast.371, %bitcast.371), metadata={op_name="jit(train_step)/square" stack_frame_id=0}
  %constant.1002 = f32[]{:T(128)} constant(0)
  %reduce.111 = f32[]{:T(128)} reduce(%square.195, %constant.1002), dimensions={0,1}, to_apply=%region_27.32, metadata={op_name="jit(train_step)/reduce_sum" stack_frame_id=0}
  %param_1.1287 = f32[4,4096]{1,0:T(4,128)S(1)} parameter(1)
  %bitcast.375.clone.1 = f32[4096,4]{0,1:T(4,128)} bitcast(%param_1.1287), metadata={op_name="jit(train_step)/transpose(jvp(TransformerLinenPure.apply))/TransformerLinenPure/decoder/transpose" stack_frame_id=0}
  %square.198.clone.1 = f32[4096,4]{0,1:T(4,128)} multiply(%bitcast.375.clone.1, %bitcast.375.clone.1), metadata={op_name="jit(train_step)/square" stack_frame_id=0}
  %reduce.112.clone.1 = f32[]{:T(128)} reduce(%square.198.clone.1, %constant.1002), dimensions={0,1}, to_apply=%region_26.31, metadata={op_name="jit(train_step)/reduce_sum" stack_frame_id=0}
  ROOT %tuple.157 = (f32[]{:T(128)}, f32[]{:T(128)}) tuple(%reduce.111, %reduce.112.clone.1)
}

%region_54.59 (reduce_sum.355: f32[], reduce_sum.356: f32[]) -> f32[] {
  %reduce_sum.355 = f32[]{:T(128)} parameter(0), metadata={op_name="jit(train_step)/reduce_sum"}
  %reduce_sum.356 = f32[]{:T(128)} parameter(1), metadata={op_name="jit(train_step)/reduce_sum"}
  ROOT %reduce_sum.357 = f32[]{:T(128)} add(%reduce_sum.355, %reduce_sum.356), metadata={op_name="jit(train_step)/reduce_sum" stack_frame_id=0}, backend_config={"flag_configs":[],"scoped_memory_configs":[],"used_scoped_memory_configs":[],"aliasing_operands":{"lists":[]}}
}

%region_40.45 (reduce_sum.280: f32[], reduce_sum.284: f32[]) -> f32[] {
  %reduce_sum.280 = f32[]{:T(128)} parameter(0), metadata={op_name="jit(train_step)/reduce_sum"}
  %reduce_sum.284 = f32[]{:T(128)} parameter(1), metadata={op_name="jit(train_step)/reduce_sum"}
  ROOT %reduce_sum.285 = f32[]{:T(128)} add(%reduce_sum.280, %reduce_sum.284), metadata={op_name="jit(train_step)/reduce_sum" stack_frame_id=0}, backend_config={"flag_configs":[],"scoped_memory_configs":[],"used_scoped_memory_configs":[],"aliasing_operands":{"lists":[]}}
}

%fused_computation.332 (param_0.1119: f32[4096,4], param_1.1279: f32[], param_2.1100: f32[], param_3.783: f32[], param_4.490: f32[4096,4], param_5.421: f32[], param_6.294: f32[4,4096], param_7.192: pred[], param_8.110: f32[4096,4]) -> (f32[], f32[4096,4], f32[4096,4], f32[4096,4], f32[]) {
  %param_0.1119 = f32[4096,4]{0,1:T(4,128)S(1)} parameter(0)
  %param_3.783 = f32[]{:T(128)S(6)} parameter(3)
  %mul.1854.clone.1 = f32[4096,4]{0,1:T(4,128)} broadcast(%param_3.783), dimensions={}, metadata={op_name="jit(train_step)/mul" stack_frame_id=0}
  %param_7.192 = pred[]{:T(512)S(6)} parameter(7)
  %select_n.266.clone.1 = pred[4096,4]{0,1:T(4,128)(4,1)} broadcast(%param_7.192), dimensions={}, metadata={op_name="jit(train_step)/select_n" stack_frame_id=0}
  %param_6.294 = f32[4,4096]{1,0:T(4,128)S(1)} parameter(6)
  %bitcast.419.clone.1 = f32[4096,4]{0,1:T(4,128)} bitcast(%param_6.294), metadata={op_name="jit(train_step)/transpose(jvp(TransformerLinenPure.apply))/TransformerLinenPure/decoder/transpose" stack_frame_id=0}
  %param_5.421 = f32[]{:T(128)} parameter(5)
  %div.773.clone.1 = f32[4096,4]{0,1:T(4,128)} broadcast(%param_5.421), dimensions={}, metadata={op_name="jit(train_step)/div" stack_frame_id=0}
  %div.772.clone.1 = f32[4096,4]{0,1:T(4,128)} divide(%bitcast.419.clone.1, %div.773.clone.1), metadata={op_name="jit(train_step)/div" stack_frame_id=0}
  %select_n.265.clone.1 = f32[4096,4]{0,1:T(4,128)} select(%select_n.266.clone.1, %bitcast.419.clone.1, %div.772.clone.1), metadata={op_name="jit(train_step)/select_n" stack_frame_id=0}
  %constant.935.clone.1 = f32[]{:T(128)} constant(0.1)
  %broadcast.539.clone.1 = f32[4096,4]{0,1:T(4,128)} broadcast(%constant.935.clone.1), dimensions={}, metadata={op_name="broadcast.68"}
  %mul.1858.clone.1 = f32[4096,4]{0,1:T(4,128)} multiply(%select_n.265.clone.1, %broadcast.539.clone.1), metadata={op_name="jit(train_step)/mul" stack_frame_id=0}
  %param_8.110 = f32[4096,4]{0,1:T(4,128)S(1)} parameter(8)
  %constant.939.clone.1 = f32[]{:T(128)} constant(0.9)
  %broadcast.538.clone.1 = f32[4096,4]{0,1:T(4,128)} broadcast(%constant.939.clone.1), dimensions={}, metadata={op_name="broadcast.67"}
  %mul.1857.clone.1 = f32[4096,4]{0,1:T(4,128)} multiply(%param_8.110, %broadcast.538.clone.1), metadata={op_name="jit(train_step)/mul" stack_frame_id=0}
  %add.795.clone.1 = f32[4096,4]{0,1:T(4,128)S(1)} add(%mul.1858.clone.1, %mul.1857.clone.1), metadata={op_name="jit(train_step)/add" stack_frame_id=0}
  %param_2.1100 = f32[]{:T(128)S(6)} parameter(2)
  %div.769.clone.1 = f32[4096,4]{0,1:T(4,128)} broadcast(%param_2.1100), dimensions={}, metadata={op_name="jit(train_step)/div" stack_frame_id=0}
  %integer_pow.66.clone.1 = f32[4096,4]{0,1:T(4,128)} multiply(%select_n.265.clone.1, %select_n.265.clone.1), metadata={op_name="jit(train_step)/integer_pow" stack_frame_id=0}
  %constant.938.clone.1 = f32[]{:T(128)} constant(0.05)
  %broadcast.537.clone.1 = f32[4096,4]{0,1:T(4,128)} broadcast(%constant.938.clone.1), dimensions={}, metadata={op_name="broadcast.58"}
  %mul.1856.clone.1 = f32[4096,4]{0,1:T(4,128)} multiply(%integer_pow.66.clone.1, %broadcast.537.clone.1), metadata={op_name="jit(train_step)/mul" stack_frame_id=0}
  %param_4.490 = f32[4096,4]{0,1:T(4,128)S(1)} parameter(4)
  %constant.937.clone.1 = f32[]{:T(128)} constant(0.95)
  %broadcast.536.clone.1 = f32[4096,4]{0,1:T(4,128)} broadcast(%constant.937.clone.1), dimensions={}, metadata={op_name="broadcast.57"}
  %mul.1855.clone.1 = f32[4096,4]{0,1:T(4,128)} multiply(%param_4.490, %broadcast.536.clone.1), metadata={op_name="jit(train_step)/mul" stack_frame_id=0}
  %add.794.clone.1 = f32[4096,4]{0,1:T(4,128)S(1)} add(%mul.1856.clone.1, %mul.1855.clone.1), metadata={op_name="jit(train_step)/add" stack_frame_id=0}
  %param_1.1279 = f32[]{:T(128)S(6)} parameter(1)
  %div.768.clone.1 = f32[4096,4]{0,1:T(4,128)} broadcast(%param_1.1279), dimensions={}, metadata={op_name="jit(train_step)/div" stack_frame_id=0}
  %div.767.clone.1 = f32[4096,4]{0,1:T(4,128)} divide(%add.794.clone.1, %div.768.clone.1), metadata={op_name="jit(train_step)/div" stack_frame_id=0}
  %sqrt.64.clone.1 = f32[4096,4]{0,1:T(4,128)} sqrt(%div.767.clone.1), metadata={op_name="jit(train_step)/sqrt" stack_frame_id=0}
  %constant.936.clone.1 = f32[]{:T(128)} constant(1e-08)
  %broadcast.534.clone.1 = f32[4096,4]{0,1:T(4,128)} broadcast(%constant.936.clone.1), dimensions={}, metadata={op_name="broadcast.53"}
  %add.793.clone.1 = f32[4096,4]{0,1:T(4,128)} add(%sqrt.64.clone.1, %broadcast.534.clone.1), metadata={op_name="jit(train_step)/add" stack_frame_id=0}
  %multiply.189.clone.1 = f32[4096,4]{0,1:T(4,128)} multiply(%div.769.clone.1, %add.793.clone.1), metadata={op_name="multiply.27"}
  %div.766.clone.1 = f32[4096,4]{0,1:T(4,128)} divide(%add.795.clone.1, %multiply.189.clone.1), metadata={op_name="jit(train_step)/div" stack_frame_id=0}
  %mul.1853.clone.1 = f32[4096,4]{0,1:T(4,128)} multiply(%param_0.1119, %broadcast.539.clone.1), metadata={op_name="jit(train_step)/mul" stack_frame_id=0}
  %add.792.clone.1 = f32[4096,4]{0,1:T(4,128)} add(%div.766.clone.1, %mul.1853.clone.1), metadata={op_name="jit(train_step)/add" stack_frame_id=0}
  %mul.1852.clone.1 = f32[4096,4]{0,1:T(4,128)} multiply(%mul.1854.clone.1, %add.792.clone.1), metadata={op_name="jit(train_step)/mul" stack_frame_id=0}
  %add.791.clone.1 = f32[4096,4]{0,1:T(4,128)S(1)} add(%param_0.1119, %mul.1852.clone.1), metadata={op_name="jit(train_step)/add" stack_frame_id=0}
  %square.199 = f32[4096,4]{0,1:T(4,128)} multiply(%add.791.clone.1, %add.791.clone.1), metadata={op_name="jit(train_step)/square" stack_frame_id=0}
  %constant.991 = f32[]{:T(128)} constant(0)
  %reduce.113 = f32[]{:T(128)} reduce(%square.199, %constant.991), dimensions={0,1}, to_apply=%region_54.59, metadata={op_name="jit(train_step)/reduce_sum" stack_frame_id=0}
  %reduce.115.clone.1 = f32[]{:T(128)} reduce(%integer_pow.66.clone.1, %constant.991), dimensions={0,1}, to_apply=%region_40.45, metadata={op_name="jit(train_step)/reduce_sum" stack_frame_id=0}
  ROOT %tuple.144 = (f32[]{:T(128)}, f32[4096,4]{0,1:T(4,128)S(1)}, f32[4096,4]{0,1:T(4,128)S(1)}, f32[4096,4]{0,1:T(4,128)S(1)}, f32[]{:T(128)}) tuple(%reduce.113, %add.791.clone.1, %add.794.clone.1, %add.795.clone.1, %reduce.115.clone.1)
}

%region_53.58 (reduce_sum.349: f32[], reduce_sum.350: f32[]) -> f32[] {
  %reduce_sum.349 = f32[]{:T(128)} parameter(0), metadata={op_name="jit(train_step)/reduce_sum"}
  %reduce_sum.350 = f32[]{:T(128)} parameter(1), metadata={op_name="jit(train_step)/reduce_sum"}
  ROOT %reduce_sum.354 = f32[]{:T(128)} add(%reduce_sum.349, %reduce_sum.350), metadata={op_name="jit(train_step)/reduce_sum" stack_frame_id=0}, backend_config={"flag_configs":[],"scoped_memory_configs":[],"used_scoped_memory_configs":[],"aliasing_operands":{"lists":[]}}
}

%region_39.44 (reduce_sum.277: f32[], reduce_sum.278: f32[]) -> f32[] {
  %reduce_sum.277 = f32[]{:T(128)} parameter(0), metadata={op_name="jit(train_step)/reduce_sum"}
  %reduce_sum.278 = f32[]{:T(128)} parameter(1), metadata={op_name="jit(train_step)/reduce_sum"}
  ROOT %reduce_sum.279 = f32[]{:T(128)} add(%reduce_sum.277, %reduce_sum.278), metadata={op_name="jit(train_step)/reduce_sum" stack_frame_id=0}, backend_config={"flag_configs":[],"scoped_memory_configs":[],"used_scoped_memory_configs":[],"aliasing_operands":{"lists":[]}}
}

%fused_computation.333 (param_0.1120: f32[4096,4], param_1.1280: f32[], param_2.1101: f32[], param_3.784: f32[], param_4.491: f32[4096,4], param_5.422: f32[], param_6.295: f32[4,4096], param_7.193: pred[], param_8.111: f32[4096,4]) -> (f32[], f32[4096,4], f32[4096,4], f32[4096,4], f32[]) {
  %param_0.1120 = f32[4096,4]{0,1:T(4,128)S(1)} parameter(0)
  %param_3.784 = f32[]{:T(128)S(6)} parameter(3)
  %mul.1861.clone.1 = f32[4096,4]{0,1:T(4,128)} broadcast(%param_3.784), dimensions={}, metadata={op_name="jit(train_step)/mul" stack_frame_id=0}
  %param_7.193 = pred[]{:T(512)S(6)} parameter(7)
  %select_n.270.clone.1 = pred[4096,4]{0,1:T(4,128)(4,1)} broadcast(%param_7.193), dimensions={}, metadata={op_name="jit(train_step)/select_n" stack_frame_id=0}
  %param_6.295 = f32[4,4096]{1,0:T(4,128)S(1)} parameter(6)
  %bitcast.421.clone.1 = f32[4096,4]{0,1:T(4,128)} bitcast(%param_6.295), metadata={op_name="jit(train_step)/transpose(jvp(TransformerLinenPure.apply))/TransformerLinenPure/decoder/transpose" stack_frame_id=0}
  %param_5.422 = f32[]{:T(128)} parameter(5)
  %div.781.clone.1 = f32[4096,4]{0,1:T(4,128)} broadcast(%param_5.422), dimensions={}, metadata={op_name="jit(train_step)/div" stack_frame_id=0}
  %div.780.clone.1 = f32[4096,4]{0,1:T(4,128)} divide(%bitcast.421.clone.1, %div.781.clone.1), metadata={op_name="jit(train_step)/div" stack_frame_id=0}
  %select_n.269.clone.1 = f32[4096,4]{0,1:T(4,128)} select(%select_n.270.clone.1, %bitcast.421.clone.1, %div.780.clone.1), metadata={op_name="jit(train_step)/select_n" stack_frame_id=0}
  %constant.941.clone.1 = f32[]{:T(128)} constant(0.1)
  %broadcast.545.clone.1 = f32[4096,4]{0,1:T(4,128)} broadcast(%constant.941.clone.1), dimensions={}, metadata={op_name="broadcast.68"}
  %mul.1865.clone.1 = f32[4096,4]{0,1:T(4,128)} multiply(%select_n.269.clone.1, %broadcast.545.clone.1), metadata={op_name="jit(train_step)/mul" stack_frame_id=0}
  %param_8.111 = f32[4096,4]{0,1:T(4,128)S(1)} parameter(8)
  %constant.945.clone.1 = f32[]{:T(128)} constant(0.9)
  %broadcast.544.clone.1 = f32[4096,4]{0,1:T(4,128)} broadcast(%constant.945.clone.1), dimensions={}, metadata={op_name="broadcast.67"}
  %mul.1864.clone.1 = f32[4096,4]{0,1:T(4,128)} multiply(%param_8.111, %broadcast.544.clone.1), metadata={op_name="jit(train_step)/mul" stack_frame_id=0}
  %add.800.clone.1 = f32[4096,4]{0,1:T(4,128)S(1)} add(%mul.1865.clone.1, %mul.1864.clone.1), metadata={op_name="jit(train_step)/add" stack_frame_id=0}
  %param_2.1101 = f32[]{:T(128)S(6)} parameter(2)
  %div.777.clone.1 = f32[4096,4]{0,1:T(4,128)} broadcast(%param_2.1101), dimensions={}, metadata={op_name="jit(train_step)/div" stack_frame_id=0}
  %integer_pow.67.clone.1 = f32[4096,4]{0,1:T(4,128)} multiply(%select_n.269.clone.1, %select_n.269.clone.1), metadata={op_name="jit(train_step)/integer_pow" stack_frame_id=0}
  %constant.944.clone.1 = f32[]{:T(128)} constant(0.05)
  %broadcast.543.clone.1 = f32[4096,4]{0,1:T(4,128)} broadcast(%constant.944.clone.1), dimensions={}, metadata={op_name="broadcast.58"}
  %mul.1863.clone.1 = f32[4096,4]{0,1:T(4,128)} multiply(%integer_pow.67.clone.1, %broadcast.543.clone.1), metadata={op_name="jit(train_step)/mul" stack_frame_id=0}
  %param_4.491 = f32[4096,4]{0,1:T(4,128)S(1)} parameter(4)
  %constant.943.clone.1 = f32[]{:T(128)} constant(0.95)
  %broadcast.542.clone.1 = f32[4096,4]{0,1:T(4,128)} broadcast(%constant.943.clone.1), dimensions={}, metadata={op_name="broadcast.57"}
  %mul.1862.clone.1 = f32[4096,4]{0,1:T(4,128)} multiply(%param_4.491, %broadcast.542.clone.1), metadata={op_name="jit(train_step)/mul" stack_frame_id=0}
  %add.799.clone.1 = f32[4096,4]{0,1:T(4,128)S(1)} add(%mul.1863.clone.1, %mul.1862.clone.1), metadata={op_name="jit(train_step)/add" stack_frame_id=0}
  %param_1.1280 = f32[]{:T(128)S(6)} parameter(1)
  %div.776.clone.1 = f32[4096,4]{0,1:T(4,128)} broadcast(%param_1.1280), dimensions={}, metadata={op_name="jit(train_step)/div" stack_frame_id=0}
  %div.775.clone.1 = f32[4096,4]{0,1:T(4,128)} divide(%add.799.clone.1, %div.776.clone.1), metadata={op_name="jit(train_step)/div" stack_frame_id=0}
  %sqrt.65.clone.1 = f32[4096,4]{0,1:T(4,128)} sqrt(%div.775.clone.1), metadata={op_name="jit(train_step)/sqrt" stack_frame_id=0}
  %constant.942.clone.1 = f32[]{:T(128)} constant(1e-08)
  %broadcast.540.clone.1 = f32[4096,4]{0,1:T(4,128)} broadcast(%constant.942.clone.1), dimensions={}, metadata={op_name="broadcast.53"}
  %add.798.clone.1 = f32[4096,4]{0,1:T(4,128)} add(%sqrt.65.clone.1, %broadcast.540.clone.1), metadata={op_name="jit(train_step)/add" stack_frame_id=0}
  %multiply.190.clone.1 = f32[4096,4]{0,1:T(4,128)} multiply(%div.777.clone.1, %add.798.clone.1), metadata={op_name="multiply.26"}
  %div.774.clone.1 = f32[4096,4]{0,1:T(4,128)} divide(%add.800.clone.1, %multiply.190.clone.1), metadata={op_name="jit(train_step)/div" stack_frame_id=0}
  %mul.1860.clone.1 = f32[4096,4]{0,1:T(4,128)} multiply(%param_0.1120, %broadcast.545.clone.1), metadata={op_name="jit(train_step)/mul" stack_frame_id=0}
  %add.797.clone.1 = f32[4096,4]{0,1:T(4,128)} add(%div.774.clone.1, %mul.1860.clone.1), metadata={op_name="jit(train_step)/add" stack_frame_id=0}
  %mul.1859.clone.1 = f32[4096,4]{0,1:T(4,128)} multiply(%mul.1861.clone.1, %add.797.clone.1), metadata={op_name="jit(train_step)/mul" stack_frame_id=0}
  %add.796.clone.1 = f32[4096,4]{0,1:T(4,128)S(1)} add(%param_0.1120, %mul.1859.clone.1), metadata={op_name="jit(train_step)/add" stack_frame_id=0}
  %square.200 = f32[4096,4]{0,1:T(4,128)} multiply(%add.796.clone.1, %add.796.clone.1), metadata={op_name="jit(train_step)/square" stack_frame_id=0}
  %constant.992 = f32[]{:T(128)} constant(0)
  %reduce.114 = f32[]{:T(128)} reduce(%square.200, %constant.992), dimensions={0,1}, to_apply=%region_53.58, metadata={op_name="jit(train_step)/reduce_sum" stack_frame_id=0}
  %reduce.116.clone.1 = f32[]{:T(128)} reduce(%integer_pow.67.clone.1, %constant.992), dimensions={0,1}, to_apply=%region_39.44, metadata={op_name="jit(train_step)/reduce_sum" stack_frame_id=0}
  ROOT %tuple.145 = (f32[]{:T(128)}, f32[4096,4]{0,1:T(4,128)S(1)}, f32[4096,4]{0,1:T(4,128)S(1)}, f32[4096,4]{0,1:T(4,128)S(1)}, f32[]{:T(128)}) tuple(%reduce.114, %add.796.clone.1, %add.799.clone.1, %add.800.clone.1, %reduce.116.clone.1)
}

%region_9.12 (reduce_sum.135: f32[], reduce_sum.136: f32[]) -> f32[] {
  %reduce_sum.135 = f32[]{:T(128)} parameter(0), metadata={op_name="jit(train_step)/reduce_sum"}
  %reduce_sum.136 = f32[]{:T(128)} parameter(1), metadata={op_name="jit(train_step)/reduce_sum"}
  ROOT %reduce_sum.137 = f32[]{:T(128)} add(%reduce_sum.135, %reduce_sum.136), metadata={op_name="jit(train_step)/reduce_sum" stack_frame_id=0}, backend_config={"flag_configs":[],"scoped_memory_configs":[],"used_scoped_memory_configs":[],"aliasing_operands":{"lists":[]}}
}

%fused_computation.344 (param_0.1134: bf16[4096]) -> f32[] {
  %param_0.1134 = bf16[4096]{0:T(1024)(128)(2,1)S(1)} parameter(0)
  %convert_element_type.1022 = f32[4096]{0:T(1024)} convert(%param_0.1134), metadata={op_name="jit(train_step)/transpose(jvp(TransformerLinenPure.apply))/TransformerLinenPure/decoder/decoder.apply_output_head/decoder_norm/convert_element_type" stack_frame_id=0}
  %square.203 = f32[4096]{0:T(1024)} multiply(%convert_element_type.1022, %convert_element_type.1022), metadata={op_name="jit(train_step)/square" stack_frame_id=0}
  %constant.1006 = f32[]{:T(128)} constant(0)
  ROOT %reduce.117 = f32[]{:T(128)} reduce(%square.203, %constant.1006), dimensions={0}, to_apply=%region_9.12, metadata={op_name="jit(train_step)/reduce_sum" stack_frame_id=0}
}

%region_49.54 (reduce_sum.328: f32[], reduce_sum.329: f32[]) -> f32[] {
  %reduce_sum.328 = f32[]{:T(128)} parameter(0), metadata={op_name="jit(train_step)/reduce_sum"}
  %reduce_sum.329 = f32[]{:T(128)} parameter(1), metadata={op_name="jit(train_step)/reduce_sum"}
  ROOT %reduce_sum.333 = f32[]{:T(128)} add(%reduce_sum.328, %reduce_sum.329), metadata={op_name="jit(train_step)/reduce_sum" stack_frame_id=0}, backend_config={"flag_configs":[],"scoped_memory_configs":[],"used_scoped_memory_configs":[],"aliasing_operands":{"lists":[]}}
}

%region_35.40 (reduce_sum.256: f32[], reduce_sum.257: f32[]) -> f32[] {
  %reduce_sum.256 = f32[]{:T(128)} parameter(0), metadata={op_name="jit(train_step)/reduce_sum"}
  %reduce_sum.257 = f32[]{:T(128)} parameter(1), metadata={op_name="jit(train_step)/reduce_sum"}
  ROOT %reduce_sum.258 = f32[]{:T(128)} add(%reduce_sum.256, %reduce_sum.257), metadata={op_name="jit(train_step)/reduce_sum" stack_frame_id=0}, backend_config={"flag_configs":[],"scoped_memory_configs":[],"used_scoped_memory_configs":[],"aliasing_operands":{"lists":[]}}
}

%fused_computation.345 (param_0.1124: f32[4096], param_1.1284: f32[], param_2.1105: f32[], param_3.788: f32[], param_4.495: f32[4096], param_5.426: f32[], param_6.299: bf16[4096], param_7.197: pred[], param_8.115: f32[4096]) -> (f32[], f32[4096], f32[4096], f32[4096], f32[]) {
  %param_0.1124 = f32[4096]{0:T(1024)S(1)} parameter(0)
  %param_3.788 = f32[]{:T(128)S(6)} parameter(3)
  %mul.1892.clone.1 = f32[4096]{0:T(1024)} broadcast(%param_3.788), dimensions={}, metadata={op_name="jit(train_step)/mul" stack_frame_id=0}
  %param_7.197 = pred[]{:T(512)S(6)} parameter(7)
  %select_n.286.clone.1 = pred[4096]{0:T(1024)(128)(4,1)} broadcast(%param_7.197), dimensions={}, metadata={op_name="jit(train_step)/select_n" stack_frame_id=0}
  %param_6.299 = bf16[4096]{0:T(1024)(128)(2,1)S(1)} parameter(6)
  %convert_element_type.1037.clone.1 = f32[4096]{0:T(1024)} convert(%param_6.299), metadata={op_name="jit(train_step)/transpose(jvp(TransformerLinenPure.apply))/TransformerLinenPure/decoder/decoder.apply_output_head/decoder_norm/convert_element_type" stack_frame_id=0}
  %param_5.426 = f32[]{:T(128)} parameter(5)
  %div.813.clone.1 = f32[4096]{0:T(1024)} broadcast(%param_5.426), dimensions={}, metadata={op_name="jit(train_step)/div" stack_frame_id=0}
  %div.812.clone.1 = f32[4096]{0:T(1024)} divide(%convert_element_type.1037.clone.1, %div.813.clone.1), metadata={op_name="jit(train_step)/div" stack_frame_id=0}
  %select_n.285.clone.1 = f32[4096]{0:T(1024)} select(%select_n.286.clone.1, %convert_element_type.1037.clone.1, %div.812.clone.1), metadata={op_name="jit(train_step)/select_n" stack_frame_id=0}
  %constant.965.clone.1 = f32[]{:T(128)} constant(0.1)
  %broadcast.561.clone.1 = f32[4096]{0:T(1024)} broadcast(%constant.965.clone.1), dimensions={}, metadata={op_name="broadcast.72"}
  %mul.1898.clone.1 = f32[4096]{0:T(1024)} multiply(%select_n.285.clone.1, %broadcast.561.clone.1), metadata={op_name="jit(train_step)/mul" stack_frame_id=0}
  %param_8.115 = f32[4096]{0:T(1024)S(1)} parameter(8)
  %constant.969.clone.1 = f32[]{:T(128)} constant(0.9)
  %mul.1899.clone.1 = f32[4096]{0:T(1024)} broadcast(%constant.969.clone.1), dimensions={}, metadata={op_name="jit(train_step)/mul" stack_frame_id=0}
  %mul.1897.clone.1 = f32[4096]{0:T(1024)} multiply(%param_8.115, %mul.1899.clone.1), metadata={op_name="jit(train_step)/mul" stack_frame_id=0}
  %add.822.clone.1 = f32[4096]{0:T(1024)S(1)} add(%mul.1898.clone.1, %mul.1897.clone.1), metadata={op_name="jit(train_step)/add" stack_frame_id=0}
  %param_2.1105 = f32[]{:T(128)S(6)} parameter(2)
  %div.809.clone.1 = f32[4096]{0:T(1024)} broadcast(%param_2.1105), dimensions={}, metadata={op_name="jit(train_step)/div" stack_frame_id=0}
  %integer_pow.71.clone.1 = f32[4096]{0:T(1024)} multiply(%select_n.285.clone.1, %select_n.285.clone.1), metadata={op_name="jit(train_step)/integer_pow" stack_frame_id=0}
  %constant.968.clone.1 = f32[]{:T(128)} constant(0.05)
  %mul.1896.clone.1 = f32[4096]{0:T(1024)} broadcast(%constant.968.clone.1), dimensions={}, metadata={op_name="jit(train_step)/mul" stack_frame_id=0}
  %mul.1894.clone.1 = f32[4096]{0:T(1024)} multiply(%integer_pow.71.clone.1, %mul.1896.clone.1), metadata={op_name="jit(train_step)/mul" stack_frame_id=0}
  %param_4.495 = f32[4096]{0:T(1024)S(1)} parameter(4)
  %constant.967.clone.1 = f32[]{:T(128)} constant(0.95)
  %mul.1895.clone.1 = f32[4096]{0:T(1024)} broadcast(%constant.967.clone.1), dimensions={}, metadata={op_name="jit(train_step)/mul" stack_frame_id=0}
  %mul.1893.clone.1 = f32[4096]{0:T(1024)} multiply(%param_4.495, %mul.1895.clone.1), metadata={op_name="jit(train_step)/mul" stack_frame_id=0}
  %add.821.clone.1 = f32[4096]{0:T(1024)S(1)} add(%mul.1894.clone.1, %mul.1893.clone.1), metadata={op_name="jit(train_step)/add" stack_frame_id=0}
  %param_1.1284 = f32[]{:T(128)S(6)} parameter(1)
  %div.808.clone.1 = f32[4096]{0:T(1024)} broadcast(%param_1.1284), dimensions={}, metadata={op_name="jit(train_step)/div" stack_frame_id=0}
  %div.807.clone.1 = f32[4096]{0:T(1024)} divide(%add.821.clone.1, %div.808.clone.1), metadata={op_name="jit(train_step)/div" stack_frame_id=0}
  %sqrt.69.clone.1 = f32[4096]{0:T(1024)} sqrt(%div.807.clone.1), metadata={op_name="jit(train_step)/sqrt" stack_frame_id=0}
  %constant.966.clone.1 = f32[]{:T(128)} constant(1e-08)
  %add.820.clone.1 = f32[4096]{0:T(1024)} broadcast(%constant.966.clone.1), dimensions={}, metadata={op_name="jit(train_step)/add" stack_frame_id=0}
  %add.819.clone.1 = f32[4096]{0:T(1024)} add(%sqrt.69.clone.1, %add.820.clone.1), metadata={op_name="jit(train_step)/add" stack_frame_id=0}
  %multiply.194.clone.1 = f32[4096]{0:T(1024)} multiply(%div.809.clone.1, %add.819.clone.1), metadata={op_name="multiply.22"}
  %div.806.clone.1 = f32[4096]{0:T(1024)} divide(%add.822.clone.1, %multiply.194.clone.1), metadata={op_name="jit(train_step)/div" stack_frame_id=0}
  %mul.1891.clone.1 = f32[4096]{0:T(1024)} multiply(%param_0.1124, %broadcast.561.clone.1), metadata={op_name="jit(train_step)/mul" stack_frame_id=0}
…
","bitwidth":"32"},{"zeroes":"4294967295","ones":"0","bitwidth":"32"},{"zeroes":"4294967295","ones":"0","bitwidth":"32"}],"is_index_aligned":[]},"used_scoped_memory_configs":[]}
  %bitcast.207.clone.3 = bf16[4,128,4096]{2,1,0:T(8,128)(2,1)} bitcast(%dynamic_slice.208.clone.3), metadata={op_name="jit(train_step)/transpose(jvp(TransformerLinenPure.apply))/TransformerLinenPure/decoder/while/body/squeeze" stack_frame_id=0}
  %param_2.1173 = bf16[4,32,128,128]{3,2,1,0:T(8,128)(2,1)S(1)} parameter(2)
  %fusion.83.clone.3 = bf16[4,128,32,128]{3,1,2,0:T(8,128)(2,1)} fusion(%param_2.1173), kind=kLoop, calls=%fused_computation.81.clone.clone.clone.clone.clone.clone, metadata={op_name="jit(train_step)/transpose(jvp(TransformerLinenPure.apply))/TransformerLinenPure/decoder/while/body/closed_call/checkpoint/rematted_computation/layers/transpose" stack_frame_id=0}
  %param_0.1272 = bf16[4,32,128,4096]{3,2,1,0:T(8,128)(2,1)} parameter(0)
  %fusion.82.clone.3 = bf16[32,128,4096,1]{2,1,0,3:T(8,128)(2,1)} fusion(%param_0.1272, %param_1.1396), kind=kLoop, calls=%fused_computation.25.clone.1.clone.clone.clone.clone.clone.clone, metadata={op_name="jit(train_step)/transpose(jvp(TransformerLinenPure.apply))/TransformerLinenPure/decoder/while/body/closed_call/checkpoint/rematted_computation/layers/convert_element_type" stack_frame_id=0}
  %convolution.62.clone.3 = bf16[4,128,4096,1]{2,1,3,0:T(8,128)(2,1)} convolution(%fusion.83.clone.3, %fusion.82.clone.3), window={size=1x32}, dim_labels=0b1f_1io0->0bf1, metadata={op_name="jit(train_step)/transpose(jvp(TransformerLinenPure.apply))/TransformerLinenPure/decoder/while/body/closed_call/checkpoint/rematted_computation/layers/dot_general" stack_frame_id=0}
  %bitcast.182.clone.3 = bf16[4,128,4096]{2,1,0:T(8,128)(2,1)} bitcast(%convolution.62.clone.3), metadata={op_name="jit(train_step)/transpose(jvp(TransformerLinenPure.apply))/TransformerLinenPure/decoder/while/body/closed_call/checkpoint/rematted_computation/layers/dot_general" stack_frame_id=0}
  %add.621.clone.3 = bf16[4,128,4096]{2,1,0:T(8,128)(2,1)S(1)} add(%bitcast.207.clone.3, %bitcast.182.clone.3), metadata={op_name="jit(train_step)/transpose(jvp(TransformerLinenPure.apply))/TransformerLinenPure/decoder/while/body/closed_call/checkpoint/rematted_computation/layers/add" stack_frame_id=0}
  %convert_element_type.1118 = f32[4,128,4096]{2,1,0:T(8,128)} convert(%add.621.clone.3), metadata={op_name="jit(train_step)/transpose(jvp(TransformerLinenPure.apply))/TransformerLinenPure/decoder/while/body/closed_call/checkpoint/rematted_computation/layers/convert_element_type" stack_frame_id=0}
  %square.215 = f32[4,128,4096]{2,1,0:T(8,128)} multiply(%convert_element_type.1118, %convert_element_type.1118), metadata={op_name="jit(train_step)/transpose(jvp(TransformerLinenPure.apply))/TransformerLinenPure/decoder/while/body/closed_call/checkpoint/rematted_computation/layers/square" stack_frame_id=0}
  %constant.1130 = f32[]{:T(128)} constant(0)
  %reduce.138 = f32[4,128]{1,0:T(4,128)S(1)} reduce(%square.215, %constant.1130), dimensions={2}, to_apply=%region_13.16, metadata={op_name="jit(train_step)/transpose(jvp(TransformerLinenPure.apply))/TransformerLinenPure/decoder/while/body/closed_call/checkpoint/rematted_computation/layers/reduce_sum" stack_frame_id=0}
  ROOT %tuple.188 = (f32[4,128]{1,0:T(4,128)S(1)}, bf16[4,128,4096]{2,1,0:T(8,128)(2,1)S(1)}) tuple(%reduce.138, %add.621.clone.3)
}

%convert_element_type.556.reduce_sub_computation (lhs.1: bf16[], rhs.1: bf16[]) -> bf16[] {
  %lhs.1 = bf16[] parameter(0)
  %rhs.1 = bf16[] parameter(1)
  ROOT %add.610 = bf16[] add(%lhs.1, %rhs.1), backend_config={"flag_configs":[],"scoped_memory_configs":[],"used_scoped_memory_configs":[],"aliasing_operands":{"lists":[]}}
}

%fused_computation.121.clone.clone (param_0.1254: bf16[4,4096], param_1.1383: s32[]) -> bf16[4096] {
  %param_0.1254 = bf16[4,4096]{1,0:T(4,128)(2,1)} parameter(0)
  %param_1.1383 = s32[]{:T(128)S(6)} parameter(1)
  %constant.1118 = s32[]{:T(128)} constant(0)
  %dynamic_slice.318 = bf16[1,4096]{1,0:T(2,128)(2,1)} dynamic-slice(%param_0.1254, %param_1.1383, %constant.1118), dynamic_slice_sizes={1,4096}, metadata={op_name="jit(train_step)/transpose(jvp(TransformerLinenPure.apply))/TransformerLinenPure/decoder/while/body/dynamic_slice" stack_frame_id=0}, backend_config={"flag_configs":[],"scoped_memory_configs":[],"indices_config":{"index_known_bits":[{"zeroes":"4294967292","ones":"0","bitwidth":"32"},{"zeroes":"4294967295","ones":"0","bitwidth":"32"}],"is_index_aligned":[]},"used_scoped_memory_configs":[]}
  %constant.1119 = bf16[]{:T(256)} constant(-0), metadata={op_name="jit(train_step)/transpose(jvp(TransformerLinenPure.apply))/TransformerLinenPure/decoder/while/body/closed_call/checkpoint/rematted_computation/layers/convert_element_type" stack_frame_id=0}
  ROOT %reduce.137 = bf16[4096]{0:T(1024)(128)(2,1)S(1)} reduce(%dynamic_slice.318, %constant.1119), dimensions={0}, to_apply=%convert_element_type.556.reduce_sub_computation, metadata={op_name="jit(train_step)/transpose(jvp(TransformerLinenPure.apply))/TransformerLinenPure/decoder/while/body/closed_call/checkpoint/rematted_computation/layers/convert_element_type" stack_frame_id=0}
}

%fused_computation.12.clone.clone.clone (param_0.1273: bf16[4,14336,4096], param_1.1397: s32[]) -> bf16[14336,4096,1] {
  %param_0.1273 = bf16[4,14336,4096]{2,1,0:T(8,128)(2,1)} parameter(0)
  %param_1.1397 = s32[]{:T(128)S(6)} parameter(1)
  %constant.1131 = s32[]{:T(128)} constant(0)
  %dynamic_slice.326 = bf16[1,14336,4096]{2,1,0:T(8,128)(2,1)} dynamic-slice(%param_0.1273, %param_1.1397, %constant.1131, %constant.1131), dynamic_slice_sizes={1,14336,4096}, metadata={op_name="jit(train_step)/transpose(jvp(TransformerLinenPure.apply))/TransformerLinenPure/decoder/while/body/dynamic_slice" stack_frame_id=0}, backend_config={"flag_configs":[],"scoped_memory_configs":[],"indices_config":{"index_known_bits":[{"zeroes":"4294967292","ones":"0","bitwidth":"32"},{"zeroes":"4294967295","ones":"0","bitwidth":"32"},{"zeroes":"4294967295","ones":"0","bitwidth":"32"}],"is_index_aligned":[]},"used_scoped_memory_configs":[]}
  ROOT %bitcast.566 = bf16[14336,4096,1]{1,0,2:T(8,128)(2,1)} bitcast(%dynamic_slice.326), metadata={op_name="jit(train_step)/transpose(jvp(TransformerLinenPure.apply))/TransformerLinenPure/decoder/while/body/closed_call/checkpoint/rematted_computation/layers/convert_element_type" stack_frame_id=0}
}

%bitcast_fusion.3.clone.clone (bitcast_input.12: bf16[4,128,4096]) -> bf16[4,128,4096] {
  %bitcast_input.12 = bf16[4,128,4096]{2,1,0:T(8,128)(2,1)S(1)} parameter(0)
  ROOT %bitcast.565 = bf16[4,128,4096]{2,1,0:T(8,128)(2,1)} bitcast(%bitcast_input.12)
}

%fused_computation.13.clone.clone (param_0.1274: bf16[4,128,4096], param_1.1398: bf16[4,14336,4096], param_2.1174: s32[]) -> bf16[14336,4,128] {
  %param_1.1398 = bf16[4,14336,4096]{2,1,0:T(8,128)(2,1)} parameter(1)
  %param_2.1174 = s32[]{:T(128)S(6)} parameter(2)
  %fusion.344 = bf16[14336,4096,1]{1,0,2:T(8,128)(2,1)} fusion(%param_1.1398, %param_2.1174), kind=kLoop, calls=%fused_computation.12.clone.clone.clone, metadata={op_name="jit(train_step)/transpose(jvp(TransformerLinenPure.apply))/TransformerLinenPure/decoder/while/body/closed_call/checkpoint/rematted_computation/layers/convert_element_type" stack_frame_id=0}
  %param_0.1274 = bf16[4,128,4096]{2,1,0:T(8,128)(2,1)S(1)} parameter(0)
  %fusion.345 = bf16[4,128,4096]{2,1,0:T(8,128)(2,1)} fusion(%param_0.1274), kind=kLoop, calls=%bitcast_fusion.3.clone.clone
  ROOT %convolution.114 = bf16[14336,4,128]{0,2,1:T(8,128)(2,1)S(1)} convolution(%fusion.344, %fusion.345), window={size=4 pad=3_3 rhs_reversal=1}, dim_labels=bf0_0oi->b0f, metadata={op_name="jit(train_step)/transpose(jvp(TransformerLinenPure.apply))/TransformerLinenPure/decoder/while/body/closed_call/checkpoint/layers/dot_general" stack_frame_id=0}
}

%fused_computation.144.clone.1.clone (param_0.1275: f32[4,128]) -> f32[4,128] {
  %param_0.1275 = f32[4,128]{1,0:T(4,128)S(1)} parameter(0)
  %constant.1133 = f32[]{:T(128)} constant(0.000244140625)
  %closed_call.86 = f32[4,128]{1,0:T(4,128)} broadcast(%constant.1133), dimensions={}, metadata={op_name="jit(train_step)/transpose(jvp(TransformerLinenPure.apply))/TransformerLinenPure/decoder/while/body/closed_call" stack_frame_id=0}
  %div.847 = f32[4,128]{1,0:T(4,128)} multiply(%param_0.1275, %closed_call.86), metadata={op_name="jit(train_step)/transpose(jvp(TransformerLinenPure.apply))/TransformerLinenPure/decoder/while/body/closed_call/checkpoint/rematted_computation/layers/div" stack_frame_id=0}
  %constant.1132 = f32[]{:T(128)} constant(1e-05)
  %closed_call.85 = f32[4,128]{1,0:T(4,128)} broadcast(%constant.1132), dimensions={}, metadata={op_name="jit(train_step)/transpose(jvp(TransformerLinenPure.apply))/TransformerLinenPure/decoder/while/body/closed_call" stack_frame_id=0}
  %add.847 = f32[4,128]{1,0:T(4,128)} add(%div.847, %closed_call.85), metadata={op_name="jit(train_step)/transpose(jvp(TransformerLinenPure.apply))/TransformerLinenPure/decoder/while/body/closed_call/checkpoint/rematted_computation/layers/add" stack_frame_id=0}
  ROOT %rsqrt.98 = f32[4,128]{1,0:T(4,128)S(1)} rsqrt(%add.847), metadata={op_name="jit(train_step)/transpose(jvp(TransformerLinenPure.apply))/TransformerLinenPure/decoder/while/body/closed_call/checkpoint/rematted_computation/layers/rsqrt" stack_frame_id=0}
}

%fused_computation.11.clone.1.clone.clone (param_0.1279: bf16[4,4096,14336], param_1.1402: s32[]) -> bf16[4096,14336,1] {
  %param_0.1279 = bf16[4,4096,14336]{2,1,0:T(8,128)(2,1)} parameter(0)
  %param_1.1402 = s32[]{:T(128)S(6)} parameter(1)
  %constant.1135 = s32[]{:T(128)} constant(0)
  %dynamic_slice.328 = bf16[1,4096,14336]{2,1,0:T(8,128)(2,1)} dynamic-slice(%param_0.1279, %param_1.1402, %constant.1135, %constant.1135), dynamic_slice_sizes={1,4096,14336}, metadata={op_name="jit(train_step)/transpose(jvp(TransformerLinenPure.apply))/TransformerLinenPure/decoder/while/body/dynamic_slice" stack_frame_id=0}, backend_config={"flag_configs":[],"scoped_memory_configs":[],"indices_config":{"index_known_bits":[{"zeroes":"4294967292","ones":"0","bitwidth":"32"},{"zeroes":"4294967295","ones":"0","bitwidth":"32"},{"zeroes":"4294967295","ones":"0","bitwidth":"32"}],"is_index_aligned":[]},"used_scoped_memory_configs":[]}
  ROOT %bitcast.568 = bf16[4096,14336,1]{1,0,2:T(8,128)(2,1)} bitcast(%dynamic_slice.328), metadata={op_name="jit(train_step)/transpose(jvp(TransformerLinenPure.apply))/TransformerLinenPure/decoder/while/body/closed_call/checkpoint/rematted_computation/layers/convert_element_type" stack_frame_id=0}
}

%fused_computation.96.clone.2.clone.clone (param_0.1280: f32[4,128], param_1.1403: bf16[4,128,4096], param_2.1177: bf16[4096]) -> bf16[4,128,4096] {
  %param_1.1403 = bf16[4,128,4096]{2,1,0:T(8,128)(2,1)S(1)} parameter(1)
  %convert_element_type.1122 = f32[4,128,4096]{2,1,0:T(8,128)} convert(%param_1.1403), metadata={op_name="jit(train_step)/transpose(jvp(TransformerLinenPure.apply))/TransformerLinenPure/decoder/while/body/closed_call/checkpoint/rematted_computation/layers/convert_element_type" stack_frame_id=0}
  %param_0.1280 = f32[4,128]{1,0:T(4,128)S(1)} parameter(0)
  %mul.2092 = f32[4,128,4096]{2,1,0:T(8,128)} broadcast(%param_0.1280), dimensions={0,1}, metadata={op_name="jit(train_step)/transpose(jvp(TransformerLinenPure.apply))/TransformerLinenPure/decoder/while/body/closed_call/checkpoint/rematted_computation/layers/mul" stack_frame_id=0}
  %mul.2091 = f32[4,128,4096]{2,1,0:T(8,128)} multiply(%convert_element_type.1122, %mul.2092), metadata={op_name="jit(train_step)/transpose(jvp(TransformerLinenPure.apply))/TransformerLinenPure/decoder/while/body/closed_call/checkpoint/rematted_computation/layers/mul" stack_frame_id=0}
  %convert_element_type.1121 = bf16[4,128,4096]{2,1,0:T(8,128)(2,1)} convert(%mul.2091), metadata={op_name="jit(train_step)/transpose(jvp(TransformerLinenPure.apply))/TransformerLinenPure/decoder/while/body/closed_call/checkpoint/rematted_computation/layers/convert_element_type" stack_frame_id=0}
  %param_2.1177 = bf16[4096]{0:T(1024)(128)(2,1)S(1)} parameter(2)
  %mul.2093 = bf16[4,128,4096]{2,1,0:T(8,128)(2,1)} broadcast(%param_2.1177), dimensions={2}, metadata={op_name="jit(train_step)/transpose(jvp(TransformerLinenPure.apply))/TransformerLinenPure/decoder/while/body/closed_call/checkpoint/rematted_computation/layers/mul" stack_frame_id=0}
  ROOT %mul.2090 = bf16[4,128,4096]{2,1,0:T(8,128)(2,1)} multiply(%convert_element_type.1121, %mul.2093), metadata={op_name="jit(train_step)/transpose(jvp(TransformerLinenPure.apply))/TransformerLinenPure/decoder/while/body/closed_call/checkpoint/rematted_computation/layers/mul" stack_frame_id=0}
}

%fused_computation.23.clone.clone (param_0.1281: bf16[4,4096,14336], param_1.1404: s32[], param_2.1178: f32[4,128], param_3.840: bf16[4,128,4096], param_4.527: bf16[4096]) -> bf16[4,128,14336] {
  %param_2.1178 = f32[4,128]{1,0:T(4,128)S(1)} parameter(2)
  %param_3.840 = bf16[4,128,4096]{2,1,0:T(8,128)(2,1)S(1)} parameter(3)
  %param_4.527 = bf16[4096]{0:T(1024)(128)(2,1)S(1)} parameter(4)
  %fusion.349 = bf16[4,128,4096]{2,1,0:T(8,128)(2,1)} fusion(%param_2.1178, %param_3.840, %param_4.527), kind=kLoop, calls=%fused_computation.96.clone.2.clone.clone, metadata={op_name="jit(train_step)/transpose(jvp(TransformerLinenPure.apply))/TransformerLinenPure/decoder/while/body/closed_call/checkpoint/rematted_computation/layers/mul" stack_frame_id=0}
  %param_0.1281 = bf16[4,4096,14336]{2,1,0:T(8,128)(2,1)} parameter(0)
  %param_1.1404 = s32[]{:T(128)S(6)} parameter(1)
  %fusion.348 = bf16[4096,14336,1]{1,0,2:T(8,128)(2,1)} fusion(%param_0.1281, %param_1.1404), kind=kLoop, calls=%fused_computation.11.clone.1.clone.clone, metadata={op_name="jit(train_step)/transpose(jvp(TransformerLinenPure.apply))/TransformerLinenPure/decoder/while/body/closed_call/checkpoint/rematted_computation/layers/convert_element_type" stack_frame_id=0}
  ROOT %convolution.116 = bf16[4,128,14336]{2,1,0:T(8,128)(2,1)S(1)} convolution(%fusion.349, %fusion.348), window={size=1}, dim_labels=0bf_io0->0bf, metadata={op_name="jit(train_step)/transpose(jvp(TransformerLinenPure.apply))/TransformerLinenPure/decoder/while/body/closed_call/checkpoint/rematted_computation/layers/dot_general" stack_frame_id=0}
}

%fused_computation.14.clone.1.clone.clone (param_0.1282: bf16[4,4096,14336], param_1.1405: s32[]) -> bf16[4096,14336,1] {
  %param_0.1282 = bf16[4,4096,14336]{2,1,0:T(8,128)(2,1)} parameter(0)
  %param_1.1405 = s32[]{:T(128)S(6)} parameter(1)
  %constant.1136 = s32[]{:T(128)} constant(0)
  %dynamic_slice.329 = bf16[1,4096,14336]{2,1,0:T(8,128)(2,1)} dynamic-slice(%param_0.1282, %param_1.1405, %constant.1136, %constant.1136), dynamic_slice_sizes={1,4096,14336}, metadata={op_name="jit(train_step)/transpose(jvp(TransformerLinenPure.apply))/TransformerLinenPure/decoder/while/body/dynamic_slice" stack_frame_id=0}, backend_config={"flag_configs":[],"scoped_memory_configs":[],"indices_config":{"index_known_bits":[{"zeroes":"4294967292","ones":"0","bitwidth":"32"},{"zeroes":"4294967295","ones":"0","bitwidth":"32"},{"zeroes":"4294967295","ones":"0","bitwidth":"32"}],"is_index_aligned":[]},"used_scoped_memory_configs":[]}
  ROOT %bitcast.569 = bf16[4096,14336,1]{1,0,2:T(8,128)(2,1)} bitcast(%dynamic_slice.329), metadata={op_name="jit(train_step)/transpose(jvp(TransformerLinenPure.apply))/TransformerLinenPure/decoder/while/body/closed_call/checkpoint/rematted_computation/layers/convert_element_type" stack_frame_id=0}
}

%fused_computation.39.clone.1.clone.clone (param_0.1283: bf16[14336,4,128], param_1.1406: bf16[4,128,14336]) -> bf16[4,128,14336] {
  %param_1.1406 = bf16[4,128,14336]{2,1,0:T(8,128)(2,1)S(1)} parameter(1)
  %constant.1137 = bf16[]{:T(256)} constant(1)
  %jit_silu_.44 = bf16[4,128,14336]{2,1,0:T(8,128)(2,1)} broadcast(%constant.1137), dimensions={}, metadata={op_name="jit(train_step)/transpose(jvp(TransformerLinenPure.apply))/TransformerLinenPure/decoder/while/body/closed_call/checkpoint/rematted_computation/layers/jit(silu)" stack_frame_id=0}
  %neg.130 = bf16[4,128,14336]{2,1,0:T(8,128)(2,1)} negate(%param_1.1406), metadata={op_name="jit(train_step)/transpose(jvp(TransformerLinenPure.apply))/TransformerLinenPure/decoder/while/body/closed_call/checkpoint/rematted_computation/layers/jit(silu)/neg" stack_frame_id=0}
  %exp.69 = bf16[4,128,14336]{2,1,0:T(8,128)(2,1)} exponential(%neg.130), metadata={op_name="jit(train_step)/transpose(jvp(TransformerLinenPure.apply))/TransformerLinenPure/decoder/while/body/closed_call/checkpoint/rematted_computation/layers/jit(silu)/exp" stack_frame_id=0}
  %add.848 = bf16[4,128,14336]{2,1,0:T(8,128)(2,1)} add(%exp.69, %jit_silu_.44), metadata={op_name="jit(train_step)/transpose(jvp(TransformerLinenPure.apply))/TransformerLinenPure/decoder/while/body/closed_call/checkpoint/rematted_computation/layers/jit(silu)/add" stack_frame_id=0}
  %div.848 = bf16[4,128,14336]{2,1,0:T(8,128)(2,1)} divide(%jit_silu_.44, %add.848), metadata={op_name="jit(train_step)/transpose(jvp(TransformerLinenPure.apply))/TransformerLinenPure/decoder/while/body/closed_call/checkpoint/rematted_computation/layers/jit(silu)/div" stack_frame_id=0}
  %mul.2095 = bf16[4,128,14336]{2,1,0:T(8,128)(2,1)} multiply(%param_1.1406, %div.848), metadata={op_name="jit(train_step)/transpose(jvp(TransformerLinenPure.apply))/TransformerLinenPure/decoder/while/body/closed_call/checkpoint/rematted_computation/layers/jit(silu)/mul" stack_frame_id=0}
  %param_0.1283 = bf16[14336,4,128]{0,2,1:T(8,128)(2,1)S(1)} parameter(0)
  %bitcast.570 = bf16[4,128,14336]{2,1,0:T(8,128)(2,1)} bitcast(%param_0.1283), metadata={op_name="jit(train_step)/transpose(jvp(TransformerLinenPure.apply))/TransformerLinenPure/decoder/while/body/closed_call/checkpoint/layers/dot_general" stack_frame_id=0}
  ROOT %mul.2094 = bf16[4,128,14336]{2,1,0:T(8,128)(2,1)} multiply(%mul.2095, %bitcast.570), metadata={op_name="jit(train_step)/transpose(jvp(TransformerLinenPure.apply))/TransformerLinenPure/decoder/while/body/closed_call/checkpoint/layers/mul" stack_frame_id=0}
}

%fused_computation.21.clone.clone (param_0.1284: bf16[4,4096,14336], param_1.1407: s32[], param_2.1179: bf16[14336,4,128], param_3.841: bf16[4,128,14336]) -> bf16[4,128,4096] {
  %param_2.1179 = bf16[14336,4,128]{0,2,1:T(8,128)(2,1)S(1)} parameter(2)
  %param_3.841 = bf16[4,128,14336]{2,1,0:T(8,128)(2,1)S(1)} parameter(3)
  %bitcast_multiply_fusion.15 = bf16[4,128,14336]{2,1,0:T(8,128)(2,1)} fusion(%param_2.1179, %param_3.841), kind=kLoop, calls=%fused_computation.39.clone.1.clone.clone, metadata={op_name="jit(train_step)/transpose(jvp(TransformerLinenPure.apply))/TransformerLinenPure/decoder/while/body/closed_call/checkpoint/layers/mul" stack_frame_id=0}
  %param_0.1284 = bf16[4,4096,14336]{2,1,0:T(8,128)(2,1)} parameter(0)
  %param_1.1407 = s32[]{:T(128)S(6)} parameter(1)
  %fusion.350 = bf16[4096,14336,1]{1,0,2:T(8,128)(2,1)} fusion(%param_0.1284, %param_1.1407), kind=kLoop, calls=%fused_computation.14.clone.1.clone.clone, metadata={op_name="jit(train_step)/transpose(jvp(TransformerLinenPure.apply))/TransformerLinenPure/decoder/while/body/closed_call/checkpoint/rematted_computation/layers/convert_element_type" stack_frame_id=0}
  ROOT %convolution.117 = bf16[4,128,4096]{2,1,0:T(8,128)(2,1)S(1)} convolution(%bitcast_multiply_fusion.15, %fusion.350), window={size=1}, dim_labels=0bf_oi0->0bf, metadata={op_name="jit(train_step)/transpose(jvp(TransformerLinenPure.apply))/TransformerLinenPure/decoder/while/body/closed_call/checkpoint/layers/dot_general" stack_frame_id=0}
}

%fused_computation.14.clone.clone.clone (param_0.1276: bf16[4,4096,14336], param_1.1399: s32[]) -> bf16[4096,14336,1] {
  %param_0.1276 = bf16[4,4096,14336]{2,1,0:T(8,128)(2,1)} parameter(0)
  %param_1.1399 = s32[]{:T(128)S(6)} parameter(1)
  %constant.1134 = s32[]{:T(128)} constant(0)
  %dynamic_slice.327 = bf16[1,4096,14336]{2,1,0:T(8,128)(2,1)} dynamic-slice(%param_0.1276, %param_1.1399, %constant.1134, %constant.1134), dynamic_slice_sizes={1,4096,14336}, metadata={op_name="jit(train_step)/transpose(jvp(TransformerLinenPure.apply))/TransformerLinenPure/decoder/while/body/dynamic_slice" stack_frame_id=0}, backend_config={"flag_configs":[],"scoped_memory_configs":[],"indices_config":{"index_known_bits":[{"zeroes":"4294967292","ones":"0","bitwidth":"32"},{"zeroes":"4294967295","ones":"0","bitwidth":"32"},{"zeroes":"4294967295","ones":"0","bitwidth":"32"}],"is_index_aligned":[]},"used_scoped_memory_configs":[]}
  ROOT %bitcast.567 = bf16[4096,14336,1]{1,0,2:T(8,128)(2,1)} bitcast(%dynamic_slice.327), metadata={op_name="jit(train_step)/transpose(jvp(TransformerLinenPure.apply))/TransformerLinenPure/decoder/while/body/closed_call/checkpoint/rematted_computation/layers/convert_element_type" stack_frame_id=0}
}

%fused_computation.96.clone.1.clone.clone (param_0.1277: f32[4,128], param_1.1400: bf16[4,128,4096], param_2.1175: bf16[4096]) -> bf16[4,128,4096] {
  %param_1.1400 = bf16[4,128,4096]{2,1,0:T(8,128)(2,1)S(1)} parameter(1)
  %convert_element_type.1120 = f32[4,128,4096]{2,1,0:T(8,128)} convert(%param_1.1400), metadata={op_name="jit(train_step)/transpose(jvp(TransformerLinenPure.apply))/TransformerLinenPure/decoder/while/body/closed_call/checkpoint/rematted_computation/layers/convert_element_type" stack_frame_id=0}
  %param_0.1277 = f32[4,128]{1,0:T(4,128)S(1)} parameter(0)
  %mul.2088 = f32[4,128,4096]{2,1,0:T(8,128)} broadcast(%param_0.1277), dimensions={0,1}, metadata={op_name="jit(train_step)/transpose(jvp(TransformerLinenPure.apply))/TransformerLinenPure/decoder/while/body/closed_call/checkpoint/rematted_computation/layers/mul" stack_frame_id=0}
  %mul.2087 = f32[4,128,4096]{2,1,0:T(8,128)} multiply(%convert_element_type.1120, %mul.2088), metadata={op_name="jit(train_step)/transpose(jvp(TransformerLinenPure.apply))/TransformerLinenPure/decoder/while/body/closed_call/checkpoint/rematted_computation/layers/mul" stack_frame_id=0}
  %convert_element_type.1119 = bf16[4,128,4096]{2,1,0:T(8,128)(2,1)} convert(%mul.2087), metadata={op_name="jit(train_step)/transpose(jvp(TransformerLinenPure.apply))/TransformerLinenPure/decoder/while/body/closed_call/checkpoint/rematted_computation/layers/convert_element_type" stack_frame_id=0}
  %param_2.1175 = bf16[4096]{0:T(1024)(128)(2,1)S(1)} parameter(2)
  %mul.2089 = bf16[4,128,4096]{2,1,0:T(8,128)(2,1)} broadcast(%param_2.1175), dimensions={2}, metadata={op_name="jit(train_step)/transpose(jvp(TransformerLinenPure.apply))/TransformerLinenPure/decoder/while/body/closed_call/checkpoint/rematted_computation/layers/mul" stack_frame_id=0}
  ROOT %mul.2086 = bf16[4,128,4096]{2,1,0:T(8,128)(2,1)} multiply(%convert_element_type.1119, %mul.2089), metadata={op_name="jit(train_step)/transpose(jvp(TransformerLinenPure.apply))/TransformerLinenPure/decoder/while/body/closed_call/checkpoint/rematted_computation/layers/mul" stack_frame_id=0}
}

%fused_computation.20.clone.clone (param_0.1278: bf16[4,4096,14336], param_1.1401: s32[], param_2.1176: f32[4,128], param_3.839: bf16[4,128,4096], param_4.526: bf16[4096]) -> bf16[4,128,14336] {
  %param_2.1176 = f32[4,128]{1,0:T(4,128)S(1)} parameter(2)
  %param_3.839 = bf16[4,128,4096]{2,1,0:T(8,128)(2,1)S(1)} parameter(3)
  %param_4.526 = bf16[4096]{0:T(1024)(128)(2,1)S(1)} parameter(4)
  %fusion.347 = bf16[4,128,4096]{2,1,0:T(8,128)(2,1)} fusion(%param_2.1176, %param_3.839, %param_4.526), kind=kLoop, calls=%fused_computation.96.clone.1.clone.clone, metadata={op_name="jit(train_step)/transpose(jvp(TransformerLinenPure.apply))/TransformerLinenPure/decoder/while/body/closed_call/checkpoint/rematted_computation/layers/mul" stack_frame_id=0}
  %param_0.1278 = bf16[4,4096,14336]{2,1,0:T(8,128)(2,1)} parameter(0)
  %param_1.1401 = s32[]{:T(128)S(6)} parameter(1)
  %fusion.346 = bf16[4096,14336,1]{1,0,2:T(8,128)(2,1)} fusion(%param_0.1278, %param_1.1401), kind=kLoop, calls=%fused_computation.14.clone.clone.clone, metadata={op_name="jit(train_step)/transpose(jvp(TransformerLinenPure.apply))/TransformerLinenPure/decoder/while/body/closed_call/checkpoint/rematted_computation/layers/convert_element_type" stack_frame_id=0}
  ROOT %convolution.115 = bf16[4,128,14336]{2,1,0:T(8,128)(2,1)S(1)} convolution(%fusion.347, %fusion.346), window={size=1}, dim_labels=0bf_io0->0bf, metadata={op_name="jit(train_step)/transpose(jvp(TransformerLinenPure.apply))/TransformerLinenPure/decoder/while/body/closed_call/checkpoint/rematted_computation/layers/dot_general" stack_frame_id=0}
}

%region_14.17 (reduce_sum.166: f32[], reduce_sum.167: f32[]) -> f32[] {
  %reduce_sum.166 = f32[]{:T(128)} parameter(0), metadata={op_name="jit(train_step)/transpose(jvp(TransformerLinenPure.apply))/TransformerLinenPure/decoder/while/body/closed_call/checkpoint/layers/reduce_sum"}
  %reduce_sum.167 = f32[]{:T(128)} parameter(1), metadata={op_name="jit(train_step)/transpose(jvp(TransformerLinenPure.apply))/TransformerLinenPure/decoder/while/body/closed_call/checkpoint/layers/reduce_sum"}
  ROOT %reduce_sum.168 = f32[]{:T(128)} add(%reduce_sum.166, %reduce_sum.167), metadata={op_name="checkpoint/layers/reduce_sum" stack_frame_id=0}, backend_config={"flag_configs":[],"scoped_memory_configs":[],"used_scoped_memory_configs":[],"aliasing_operands":{"lists":[]}}
}

%fused_computation.11.clone.clone.clone.clone.clone.clone.clone (param_0.1285: bf16[4,4096,14336], param_1.1408: s32[]) -> bf16[4096,14336,1] {
  %param_0.1285 = bf16[4,4096,14336]{2,1,0:T(8,128)(2,1)} parameter(0)
  %param_1.1408 = s32[]{:T(128)S(6)} parameter(1)
  %constant.1138 = s32[]{:T(128)} constant(0)
  %dynamic_slice.330 = bf16[1,4096,14336]{2,1,0:T(8,128)(2,1)} dynamic-slice(%param_0.1285, %param_1.1408, %constant.1138, %constant.1138), dynamic_slice_sizes={1,4096,14336}, metadata={op_name="jit(train_step)/transpose(jvp(TransformerLinenPure.apply))/TransformerLinenPure/decoder/while/body/dynamic_slice" stack_frame_id=0}, backend_config={"flag_configs":[],"scoped_memory_configs":[],"indices_config":{"index_known_bits":[{"zeroes":"4294967292","ones":"0","bitwidth":"32"},{"zeroes":"4294967295","ones":"0","bitwidth":"32"},{"zeroes":"4294967295","ones":"0","bitwidth":"32"}],"is_index_aligned":[]},"used_scoped_memory_configs":[]}
  ROOT %bitcast.571 = bf16[4096,14336,1]{1,0,2:T(8,128)(2,1)} bitcast(%dynamic_slice.330), metadata={op_name="jit(train_step)/transpose(jvp(TransformerLinenPure.apply))/TransformerLinenPure/decoder/while/body/closed_call/checkpoint/rematted_computation/layers/convert_element_type" stack_frame_id=0}
}

%fused_computation.38.clone.1.clone.clone.clone.clone (param_0.1286: bf16[4,128,14336], param_1.1409: bf16[4,128,14336], param_2.1180: bf16[14336,4,128]) -> bf16[4,128,14336] {
  %param_2.1180 = bf16[14336,4,128]{0,2,1:T(8,128)(2,1)S(1)} parameter(2)
  %bitcast.572 = bf16[4,128,14336]{2,1,0:T(8,128)(2,1)} bitcast(%param_2.1180), metadata={op_name="jit(train_step)/transpose(jvp(TransformerLinenPure.apply))/TransformerLinenPure/decoder/while/body/closed_call/checkpoint/layers/dot_general" stack_frame_id=0}
  %param_1.1409 = bf16[4,128,14336]{2,1,0:T(8,128)(2,1)S(1)} parameter(1)
  %mul.2100 = bf16[4,128,14336]{2,1,0:T(8,128)(2,1)} multiply(%bitcast.572, %param_1.1409), metadata={op_name="jit(train_step)/transpose(jvp(TransformerLinenPure.apply))/TransformerLinenPure/decoder/while/body/closed_call/checkpoint/layers/mul" stack_frame_id=0}
  %constant.1139 = bf16[]{:T(256)} constant(1)
  %jit_silu_.45 = bf16[4,128,14336]{2,1,0:T(8,128)(2,1)} broadcast(%constant.1139), dimensions={}, metadata={op_name="jit(train_step)/transpose(jvp(TransformerLinenPure.apply))/TransformerLinenPure/decoder/while/body/closed_call/checkpoint/rematted_computation/layers/jit(silu)" stack_frame_id=0}
  %param_0.1286 = bf16[4,128,14336]{2,1,0:T(8,128)(2,1)S(1)} parameter(0)
  %neg.131 = bf16[4,128,14336]{2,1,0:T(8,128)(2,1)} negate(%param_0.1286), metadata={op_name="jit(train_step)/transpose(jvp(TransformerLinenPure.apply))/TransformerLinenPure/decoder/while/body/closed_call/checkpoint/rematted_computation/layers/jit(silu)/neg" stack_frame_id=0}
  %exp.70 = bf16[4,128,14336]{2,1,0:T(8,128)(2,1)} exponential(%neg.131), metadata={op_name="jit(train_step)/transpose(jvp(TransformerLinenPure.apply))/TransformerLinenPure/decoder/while/body/closed_call/checkpoint/rematted_computation/layers/jit(silu)/exp" stack_frame_id=0}
  %add.849 = bf16[4,128,14336]{2,1,0:T(8,128)(2,1)} add(%exp.70, %jit_silu_.45), metadata={op_name="jit(train_step)/transpose(jvp(TransformerLinenPure.apply))/TransformerLinenPure/decoder/while/body/closed_call/checkpoint/rematted_computation/layers/jit(silu)/add" stack_frame_id=0}
  %div.849 = bf16[4,128,14336]{2,1,0:T(8,128)(2,1)} divide(%jit_silu_.45, %add.849), metadata={op_name="jit(train_step)/transpose(jvp(TransformerLinenPure.apply))/TransformerLinenPure/decoder/while/body/closed_call/checkpoint/rematted_computation/layers/jit(silu)/div" stack_frame_id=0}
  %mul.2099 = bf16[4,128,14336]{2,1,0:T(8,128)(2,1)} multiply(%mul.2100, %div.849), metadata={op_name="jit(train_step)/transpose(jvp(TransformerLinenPure.apply))/TransformerLinenPure/decoder/while/body/closed_call/checkpoint/layers/jit(silu)/mul" stack_frame_id=0}
  %mul.2098 = bf16[4,128,14336]{2,1,0:T(8,128)(2,1)} multiply(%param_0.1286, %mul.2100), metadata={op_name="jit(train_step)/transpose(jvp(TransformerLinenPure.apply))/TransformerLinenPure/decoder/while/body/closed_call/checkpoint/layers/jit(silu)/mul" stack_frame_id=0}
  %sub.98 = bf16[4,128,14336]{2,1,0:T(8,128)(2,1)} subtract(%jit_silu_.45, %div.849), metadata={op_name="jit(train_step)/transpose(jvp(TransformerLinenPure.apply))/TransformerLinenPure/decoder/while/body/closed_call/checkpoint/rematted_computation/layers/jit(silu)/sub" stack_frame_id=0}
  %mul.2097 = bf16[4,128,14336]{2,1,0:T(8,128)(2,1)} multiply(%div.849, %sub.98), metadata={op_name="jit(train_step)/transpose(jvp(TransformerLinenPure.apply))/TransformerLinenPure/decoder/while/body/closed_call/checkpoint/rematted_computation/layers/jit(silu)/mul" stack_frame_id=0}
  %mul.2096 = bf16[4,128,14336]{2,1,0:T(8,128)(2,1)} multiply(%mul.2098, %mul.2097), metadata={op_name="jit(train_step)/transpose(jvp(TransformerLinenPure.apply))/TransformerLinenPure/decoder/while/body/closed_call/checkpoint/layers/jit(silu)/mul" stack_frame_id=0}
  ROOT %add_any.145 = bf16[4,128,14336]{2,1,0:T(8,128)(2,1)} add(%mul.2099, %mul.2096), metadata={op_name="jit(train_step)/transpose(jvp(TransformerLinenPure.apply))/TransformerLinenPure/decoder/while/body/closed_call/checkpoint/layers/jit(silu)/add_any" stack_frame_id=0}
}

%fused_computation.63.clone.clone (param_0.1287: bf16[4,128,4096], param_1.1410: bf16[4096], param_2.1181: bf16[4,128,4096], param_3.842: bf16[4,4096,14336], param_4.528: s32[], param_5.435: bf16[4,128,14336], param_6.305: bf16[4,128,14336], param_7.200: bf16[14336,4,128]) -> (f32[4,128], bf16[4,128,4096]) {
  %param_0.1287 = bf16[4,128,4096]{2,1,0:T(8,128)(2,1)S(1)} parameter(0)
  %convert_element_type.1124 = f32[4,128,4096]{2,1,0:T(8,128)} convert(%param_0.1287), metadata={op_name="jit(train_step)/transpose(jvp(TransformerLinenPure.apply))/TransformerLinenPure/decoder/while/body/closed_call/checkpoint/rematted_computation/layers/convert_element_type" stack_frame_id=0}
  %param_2.1181 = bf16[4,128,4096]{2,1,0:T(8,128)(2,1)S(1)} parameter(2)
  %param_5.435 = bf16[4,128,14336]{2,1,0:T(8,128)(2,1)S(1)} parameter(5)
  %param_6.305 = bf16[4,128,14336]{2,1,0:T(8,128)(2,1)S(1)} parameter(6)
  %param_7.200 = bf16[14336,4,128]{0,2,1:T(8,128)(2,1)S(1)} parameter(7)
  %fusion.134.clone.3 = bf16[4,128,14336]{2,1,0:T(8,128)(2,1)} fusion(%param_5.435, %param_6.305, %param_7.200), kind=kLoop, calls=%fused_computation.38.clone.1.clone.clone.clone.clone, metadata={op_name="jit(train_step)/transpose(jvp(TransformerLinenPure.apply))/TransformerLinenPure/decoder/while/body/closed_call/checkpoint/layers/jit(silu)/add_any" stack_frame_id=0}
  %param_3.842 = bf16[4,4096,14336]{2,1,0:T(8,128)(2,1)} parameter(3)
  %param_4.528 = s32[]{:T(128)S(6)} parameter(4)
  %fusion.79.clone.3 = bf16[4096,14336,1]{1,0,2:T(8,128)(2,1)} fusion(%param_3.842, %param_4.528), kind=kLoop, calls=%fused_computation.11.clone.clone.clone.clone.clone.clone.clone, metadata={op_name="jit(train_step)/transpose(jvp(TransformerLinenPure.apply))/TransformerLinenPure/decoder/while/body/closed_call/checkpoint/rematted_computation/layers/convert_element_type" stack_frame_id=0}
  %convolution.60.clone.3 = bf16[4,128,4096]{2,1,0:T(8,128)(2,1)} convolution(%fusion.134.clone.3, %fusion.79.clone.3), window={size=1}, dim_labels=0bf_oi0->0bf, metadata={op_name="jit(train_step)/transpose(jvp(TransformerLinenPure.apply))/TransformerLinenPure/decoder/while/body/closed_call/checkpoint/layers/dot_general" stack_frame_id=0}
  %add_any.132.clone.3 = bf16[4,128,4096]{2,1,0:T(8,128)(2,1)S(1)} add(%param_2.1181, %convolution.60.clone.3), metadata={op_name="jit(train_step)/transpose(jvp(TransformerLinenPure.apply))/TransformerLinenPure/decoder/while/body/closed_call/checkpoint/layers/add_any" stack_frame_id=0}
  %param_1.1410 = bf16[4096]{0:T(1024)(128)(2,1)S(1)} parameter(1)
  %mul.2103 = bf16[4,128,4096]{2,1,0:T(8,128)(2,1)} broadcast(%param_1.1410), dimensions={2}, metadata={op_name="jit(train_step)/transpose(jvp(TransformerLinenPure.apply))/TransformerLinenPure/decoder/while/body/closed_call/checkpoint/rematted_computation/layers/mul" stack_frame_id=0}
  %mul.2102 = bf16[4,128,4096]{2,1,0:T(8,128)(2,1)} multiply(%add_any.132.clone.3, %mul.2103), metadata={op_name="jit(train_step)/transpose(jvp(TransformerLinenPure.apply))/TransformerLinenPure/decoder/while/body/closed_call/checkpoint/layers/mul" stack_frame_id=0}
  %convert_element_type.1123 = f32[4,128,4096]{2,1,0:T(8,128)} convert(%mul.2102), metadata={op_name="jit(train_step)/transpose(jvp(TransformerLinenPure.apply))/TransformerLinenPure/decoder/while/body/closed_call/checkpoint/layers/convert_element_type" stack_frame_id=0}
  %mul.2101 = f32[4,128,4096]{2,1,0:T(8,128)} multiply(%convert_element_type.1124, %convert_element_type.1123), metadata={op_name="jit(train_step)/transpose(jvp(TransformerLinenPure.apply))/TransformerLinenPure/decoder/while/body/closed_call/checkpoint/layers/mul" stack_frame_id=0}
  %constant.1140 = f32[]{:T(128)} constant(0)
  %reduce.139 = f32[4,128]{1,0:T(4,128)S(1)} reduce(%mul.2101, %constant.1140), dimensions={2}, to_apply=%region_14.17, metadata={op_name="jit(train_step)/transpose(jvp(TransformerLinenPure.apply))/TransformerLinenPure/decoder/while/body/closed_call/checkpoint/layers/reduce_sum" stack_frame_id=0}
  ROOT %tuple.189 = (f32[4,128]{1,0:T(4,128)S(1)}, bf16[4,128,4096]{2,1,0:T(8,128)(2,1)S(1)}) tuple(%reduce.139, %add_any.132.clone.3)
}

%fused_computation.140.clone.clone (param_0.1288: f32[4,128], param_1.1411: f32[4,128]) -> f32[4,128] {
  %param_0.1288 = f32[4,128]{1,0:T(4,128)S(1)} parameter(0)
  %param_1.1411 = f32[4,128]{1,0:T(4,128)S(1)} parameter(1)
  %constant.1144 = f32[]{:T(128)} constant(0.000244140625)
  %closed_call.89 = f32[4,128]{1,0:T(4,128)} broadcast(%constant.1144), dimensions={}, metadata={op_name="jit(train_step)/transpose(jvp(TransformerLinenPure.apply))/TransformerLinenPure/decoder/while/body/closed_call" stack_frame_id=0}
  %div.851 = f32[4,128]{1,0:T(4,128)} multiply(%param_1.1411, %closed_call.89), metadata={op_name="jit(train_step)/transpose(jvp(TransformerLinenPure.apply))/TransformerLinenPure/decoder/while/body/closed_call/checkpoint/rematted_computation/layers/div" stack_frame_id=0}
  %constant.1143 = f32[]{:T(128)} constant(1e-05)
  %closed_call.88 = f32[4,128]{1,0:T(4,128)} broadcast(%constant.1143), dimensions={}, metadata={op_name="jit(train_step)/transpose(jvp(TransformerLinenPure.apply))/TransformerLinenPure/decoder/while/body/closed_call" stack_frame_id=0}
  %add.850 = f32[4,128]{1,0:T(4,128)} add(%div.851, %closed_call.88), metadata={op_name="jit(train_step)/transpose(jvp(TransformerLinenPure.apply))/TransformerLinenPure/decoder/while/body/closed_call/checkpoint/rematted_computation/layers/add" stack_frame_id=0}
  %rsqrt.99 = f32[4,128]{1,0:T(4,128)} rsqrt(%add.850), metadata={op_name="jit(train_step)/transpose(jvp(TransformerLinenPure.apply))/TransformerLinenPure/decoder/while/body/closed_call/checkpoint/rematted_computation/layers/rsqrt" stack_frame_id=0}
  %div.850 = f32[4,128]{1,0:T(4,128)} divide(%rsqrt.99, %add.850), metadata={op_name="jit(train_step)/transpose(jvp(TransformerLinenPure.apply))/TransformerLinenPure/decoder/while/body/closed_call/checkpoint/rematted_computation/layers/div" stack_frame_id=0}
  %constant.1142 = f32[]{:T(128)} constant(-0.5)
  %closed_call.87 = f32[4,128]{1,0:T(4,128)} broadcast(%constant.1142), dimensions={}, metadata={op_name="jit(train_step)/transpose(jvp(TransformerLinenPure.apply))/TransformerLinenPure/decoder/while/body/closed_call" stack_frame_id=0}
  %mul.2106 = f32[4,128]{1,0:T(4,128)} multiply(%div.850, %closed_call.87), metadata={op_name="jit(train_step)/transpose(jvp(TransformerLinenPure.apply))/TransformerLinenPure/decoder/while/body/closed_call/checkpoint/rematted_computation/layers/mul" stack_frame_id=0}
  %mul.2105 = f32[4,128]{1,0:T(4,128)} multiply(%param_0.1288, %mul.2106), metadata={op_name="jit(train_step)/transpose(jvp(TransformerLinenPure.apply))/TransformerLinenPure/decoder/while/body/closed_call/checkpoint/layers/mul" stack_frame_id=0}
  %constant.1141 = f32[]{:T(128)} constant(0.00048828125)
  %mul.2107 = f32[4,128]{1,0:T(4,128)} broadcast(%constant.1141), dimensions={}, metadata={op_name="jit(train_step)/transpose(jvp(TransformerLinenPure.apply))/TransformerLinenPure/decoder/while/body/closed_call/checkpoint/layers/mul" stack_frame_id=0}
  ROOT %mul.2104 = f32[4,128]{1,0:T(4,128)S(1)} multiply(%mul.2105, %mul.2107), metadata={op_name="jit(train_step)/transpose(jvp(TransformerLinenPure.apply))/TransformerLinenPure/decoder/while/body/closed_call/checkpoint/layers/mul" stack_frame_id=0}
}

%region_20.24 (reduce_sum.175: bf16[], reduce_sum.179: bf16[]) -> bf16[] {
  %reduce_sum.175 = bf16[]{:T(256)} parameter(0), metadata={op_name="jit(train_step)/transpose(jvp(TransformerLinenPure.apply))/TransformerLinenPure/decoder/while/body/closed_call/checkpoint/layers/reduce_sum"}
  %reduce_sum.179 = bf16[]{:T(256)} parameter(1), metadata={op_name="jit(train_step)/transpose(jvp(TransformerLinenPure.apply))/TransformerLinenPure/decoder/while/body/closed_call/checkpoint/layers/reduce_sum"}
  ROOT %reduce_sum.180 = bf16[]{:T(256)} add(%reduce_sum.175, %reduce_sum.179), metadata={op_name="checkpoint/layers/reduce_sum" stack_frame_id=0}, backend_config={"flag_configs":[],"scoped_memory_configs":[],"used_scoped_memory_configs":[],"aliasing_operands":{"lists":[]}}
}

%fused_computation.93.clone.clone (param_0.1289: bf16[4,128,4096], param_1.1412: f32[4,128], param_2.1182: bf16[4,128,4096], param_3.843: bf16[4,128,4096], param_4.529: f32[4,128], param_5.436: bf16[4096]) -> (bf16[4096], bf16[4,128,4096]) {
  %param_2.1182 = bf16[4,128,4096]{2,1,0:T(8,128)(2,1)S(1)} parameter(2)
  %convert_element_type.1126 = f32[4,128,4096]{2,1,0:T(8,128)} convert(%param_2.1182), metadata={op_name="jit(train_step)/transpose(jvp(TransformerLinenPure.apply))/TransformerLinenPure/decoder/while/body/closed_call/checkpoint/rematted_computation/layers/convert_element_type" stack_frame_id=0}
  %param_1.1412 = f32[4,128]{1,0:T(4,128)S(1)} parameter(1)
  %mul.2110 = f32[4,128,4096]{2,1,0:T(8,128)} broadcast(%param_1.1412), dimensions={0,1}, metadata={op_name="jit(train_step)/transpose(jvp(TransformerLinenPure.apply))/TransformerLinenPure/decoder/while/body/closed_call/checkpoint/rematted_computation/layers/mul" stack_frame_id=0}
  %mul.2109 = f32[4,128,4096]{2,1,0:T(8,128)} multiply(%convert_element_type.1126, %mul.2110), metadata={op_name="jit(train_step)/transpose(jvp(TransformerLinenPure.apply))/TransformerLinenPure/decoder/while/body/closed_call/checkpoint/rematted_computation/layers/mul" stack_frame_id=0}
  %convert_element_type.1125 = bf16[4,128,4096]{2,1,0:T(8,128)(2,1)} convert(%mul.2109), metadata={op_name="jit(train_step)/transpose(jvp(TransformerLinenPure.apply))/TransformerLinenPure/decoder/while/body/closed_call/checkpoint/rematted_computation/layers/convert_element_type" stack_frame_id=0}
  %param_0.1289 = bf16[4,128,4096]{2,1,0:T(8,128)(2,1)S(1)} parameter(0)
  %mul.2108 = bf16[4,128,4096]{2,1,0:T(8,128)(2,1)} multiply(%convert_element_type.1125, %param_0.1289), metadata={op_name="jit(train_step)/transpose(jvp(TransformerLinenPure.apply))/TransformerLinenPure/decoder/while/body/closed_call/checkpoint/layers/mul" stack_frame_id=0}
  %constant.1145 = bf16[]{:T(256)} constant(0)
  %reduce.140 = bf16[4096]{0:T(1024)(128)(2,1)} reduce(%mul.2108, %constant.1145), dimensions={0,1}, to_apply=%region_20.24, metadata={op_name="jit(train_step)/transpose(jvp(TransformerLinenPure.apply))/TransformerLinenPure/decoder/while/body/closed_call/checkpoint/layers/reduce_sum" stack_frame_id=0}
  %param_3.843 = bf16[4,128,4096]{2,1,0:T(8,128)(2,1)S(1)} parameter(3)
  %param_5.436 = bf16[4096]{0:T(1024)(128)(2,1)S(1)} parameter(5)
  %mul.1399.clone.3 = bf16[4,128,4096]{2,1,0:T(8,128)(2,1)} broadcast(%param_5.436), dimensions={2}, metadata={op_name="jit(train_step)/transpose(jvp(TransformerLinenPure.apply))/TransformerLinenPure/decoder/while/body/closed_call/checkpoint/rematted_computation/layers/mul" stack_frame_id=0}
  %mul.1353.clone.3 = bf16[4,128,4096]{2,1,0:T(8,128)(2,1)} multiply(%param_0.1289, %mul.1399.clone.3), metadata={op_name="jit(train_step)/transpose(jvp(TransformerLinenPure.apply))/TransformerLinenPure/decoder/while/body/closed_call/checkpoint/layers/mul" stack_frame_id=0}
  %convert_element_type.769.clone.3 = f32[4,128,4096]{2,1,0:T(8,128)} convert(%mul.1353.clone.3), metadata={op_name="jit(train_step)/transpose(jvp(TransformerLinenPure.apply))/TransformerLinenPure/decoder/while/body/closed_call/checkpoint/layers/convert_element_type" stack_frame_id=0}
  %mul.1333.clone.3 = f32[4,128,4096]{2,1,0:T(8,128)} multiply(%convert_element_type.769.clone.3, %mul.2110), metadata={op_name="jit(train_step)/transpose(jvp(TransformerLinenPure.apply))/TransformerLinenPure/decoder/while/body/closed_call/checkpoint/layers/mul" stack_frame_id=0}
  %param_4.529 = f32[4,128]{1,0:T(4,128)S(1)} parameter(4)
  %mul.1344.clone.3 = f32[4,128,4096]{2,1,0:T(8,128)} broadcast(%param_4.529), dimensions={0,1}, metadata={op_name="jit(train_step)/transpose(jvp(TransformerLinenPure.apply))/TransformerLinenPure/decoder/while/body/closed_call/checkpoint/layers/mul" stack_frame_id=0}
  %mul.1332.clone.3 = f32[4,128,4096]{2,1,0:T(8,128)} multiply(%convert_element_type.1126, %mul.1344.clone.3), metadata={op_name="jit(train_step)/transpose(jvp(TransformerLinenPure.apply))/TransformerLinenPure/decoder/while/body/closed_call/checkpoint/layers/mul" stack_frame_id=0}
  %add_any.126.clone.3 = f32[4,128,4096]{2,1,0:T(8,128)} add(%mul.1333.clone.3, %mul.1332.clone.3), metadata={op_name="jit(train_step)/transpose(jvp(TransformerLinenPure.apply))/TransformerLinenPure/decoder/while/body/closed_call/checkpoint/layers/add_any" stack_frame_id=0}
  %convert_element_type.767.clone.3 = bf16[4,128,4096]{2,1,0:T(8,128)(2,1)} convert(%add_any.126.clone.3), metadata={op_name="jit(train_step)/transpose(jvp(TransformerLinenPure.apply))/TransformerLinenPure/decoder/while/body/closed_call/checkpoint/layers/convert_element_type" stack_frame_id=0}
  %add_any.124.clone.3 = bf16[4,128,4096]{2,1,0:T(8,128)(2,1)S(1)} add(%param_3.843, %convert_element_type.767.clone.3), metadata={op_name="jit(train_step)/transpose(jvp(TransformerLinenPure.apply))/TransformerLinenPure/decoder/while/body/closed_call/checkpoint/layers/add_any" stack_frame_id=0}
  ROOT %tuple.190 = (bf16[4096]{0:T(1024)(128)(2,1)}, bf16[4,128,4096]{2,1,0:T(8,128)(2,1)S(1)}) tuple(%reduce.140, %add_any.124.clone.3)
}

%region_15.18 (dot_general.157: f32[], dot_general.158: f32[]) -> f32[] {
  %dot_general.157 = f32[]{:T(128)} parameter(0), metadata={op_name="vmap(jit(_splash_attention))/hsd,hsd->hs/dot_general"}
  %dot_general.158 = f32[]{:T(128)} parameter(1), metadata={op_name="vmap(jit(_splash_attention))/hsd,hsd->hs/dot_general"}
  ROOT %add.157 = f32[]{:T(128)} add(%dot_general.157, %dot_general.158), metadata={op_name="add.31"}, backend_config={"flag_configs":[],"scoped_memory_configs":[],"used_scoped_memory_configs":[],"aliasing_operands":{"lists":[]}}
}

%fused_computation.25.clone.clone.clone.clone.clone.clone.clone (param_0.1290: bf16[4,32,128,4096], param_1.1413: s32[]) -> bf16[32,128,4096,1] {
  %param_0.1290 = bf16[4,32,128,4096]{3,2,1,0:T(8,128)(2,1)} parameter(0)
  %param_1.1413 = s32[]{:T(128)S(6)} parameter(1)
  %constant.1146 = s32[]{:T(128)} constant(0)
  %dynamic_slice.331 = bf16[1,32,128,4096]{3,2,1,0:T(8,128)(2,1)} dynamic-slice(%param_0.1290, %param_1.1413, %constant.1146, %constant.1146, %constant.1146), dynamic_slice_sizes={1,32,128,4096}, metadata={op_name="jit(train_step)/transpose(jvp(TransformerLinenPure.apply))/TransformerLinenPure/decoder/while/body/dynamic_slice" stack_frame_id=0}, backend_config={"flag_configs":[],"scoped_memory_configs":[],"indices_config":{"index_known_bits":[{"zeroes":"4294967292","ones":"0","bitwidth":"32"},{"zeroes":"4294967295","ones":"0","bitwidth":"32"},{"zeroes":"4294967295","ones":"0","bitwidth":"32"},{"zeroes":"4294967295","ones":"0","bitwidth":"32"}],"is_index_aligned":[]},"used_scoped_memory_configs":[]}
  ROOT %bitcast.573 = bf16[32,128,4096,1]{2,1,0,3:T(8,128)(2,1)} bitcast(%dynamic_slice.331), metadata={op_name="jit(train_step)/transpose(jvp(TransformerLinenPure.apply))/TransformerLinenPure/decoder/while/body/closed_call/checkpoint/rematted_computation/layers/convert_element_type" stack_frame_id=0}
}

%fused_computation.76.clone.clone.clone.clone.clone.clone (param_0.1291: bf16[4,128,4096]) -> bf16[4,128,4096,1] {
  %param_0.1291 = bf16[4,128,4096]{2,1,0:T(8,128)(2,1)S(1)} parameter(0)
  ROOT %bitcast.574 = bf16[4,128,4096,1]{2,1,3,0:T(8,128)(2,1)} bitcast(%param_0.1291), metadata={op_name="jit(train_step)/transpose(jvp(TransformerLinenPure.apply))/TransformerLinenPure/decoder/while/body/closed_call/checkpoint/layers/add_any" stack_frame_id=0}
}

%fused_computation.66.clone.clone (param_0.1292: bf16[4,32,128,128], param_1.1414: bf16[4,32,128,4096], param_2.1183: s32[], param_3.844: bf16[4,128,4096]) -> (f32[4,32,128], bf16[4,32,128,128]) {
  %param_0.1292 = bf16[4,32,128,128]{3,2,1,0:T(8,128)(2,1)S(1)} parameter(0)
  %convert.87 = f32[4,32,128,128]{3,2,1,0:T(8,128)} convert(%param_0.1292), metadata={op_name="jit(train_step)/transpose(jvp(TransformerLinenPure.apply))/TransformerLinenPure/decoder/while/body/closed_call/checkpoint/layers/shard_map/convert" stack_frame_id=0}
  %param_3.844 = bf16[4,128,4096]{2,1,0:T(8,128)(2,1)S(1)} parameter(3)
  %fusion.95.clone.3 = bf16[4,128,4096,1]{2,1,3,0:T(8,128)(2,1)} fusion(%param_3.844), kind=kLoop, calls=%fused_computation.76.clone.clone.clone.clone.clone.clone, metadata={op_name="jit(train_step)/transpose(jvp(TransformerLinenPure.apply))/TransformerLinenPure/decoder/while/body/closed_call/checkpoint/layers/add_any" stack_frame_id=0}
  %param_1.1414 = bf16[4,32,128,4096]{3,2,1,0:T(8,128)(2,1)} parameter(1)
  %param_2.1183 = s32[]{:T(128)S(6)} parameter(2)
  %fusion.94.clone.3 = bf16[32,128,4096,1]{2,1,0,3:T(8,128)(2,1)} fusion(%param_1.1414, %param_2.1183), kind=kLoop, calls=%fused_computation.25.clone.clone.clone.clone.clone.clone.clone, metadata={op_name="jit(train_step)/transpose(jvp(TransformerLinenPure.apply))/TransformerLinenPure/decoder/while/body/closed_call/checkpoint/rematted_computation/layers/convert_element_type" stack_frame_id=0}
  %convolution.64.clone.3 = bf16[4,128,32,128]{3,1,2,0:T(8,128)(2,1)} convolution(%fusion.95.clone.3, %fusion.94.clone.3), window={size=1x32 pad=0_0x31_31 rhs_reversal=0x1}, dim_labels=0bf1_1oi0->0b1f, metadata={op_name="jit(train_step)/transpose(jvp(TransformerLinenPure.apply))/TransformerLinenPure/decoder/while/body/closed_call/checkpoint/layers/dot_general" stack_frame_id=0}
  %constant.611.clone.3 = bf16[]{:T(256)} constant(0.25)
  %div.442.clone.3 = bf16[4,128,32,128]{3,1,2,0:T(8,128)(2,1)} broadcast(%constant.611.clone.3), dimensions={}, metadata={op_name="jit(train_step)/transpose(jvp(TransformerLinenPure.apply))/TransformerLinenPure/decoder/while/body/closed_call/checkpoint/layers/div" stack_frame_id=0}
  %div.441.clone.3 = bf16[4,128,32,128]{3,1,2,0:T(8,128)(2,1)} multiply(%convolution.64.clone.3, %div.442.clone.3), metadata={op_name="jit(train_step)/transpose(jvp(TransformerLinenPure.apply))/TransformerLinenPure/decoder/while/body/closed_call/checkpoint/layers/div" stack_frame_id=0}
  %bitcast.209.clone.3 = bf16[4,32,128,128]{3,2,1,0:T(8,128)(2,1)S(1)} bitcast(%div.441.clone.3), metadata={op_name="jit(train_step)/transpose(jvp(TransformerLinenPure.apply))/TransformerLinenPure/decoder/while/body/closed_call/checkpoint/layers/div" stack_frame_id=0}
  %convert.86 = f32[4,32,128,128]{3,2,1,0:T(8,128)} convert(%bitcast.209.clone.3), metadata={op_name="jit(train_step)/transpose(jvp(TransformerLinenPure.apply))/TransformerLinenPure/decoder/while/body/closed_call/checkpoint/layers/shard_map/convert.1" stack_frame_id=0}
  %multiply.196 = f32[4,32,128,128]{3,2,1,0:T(8,128)} multiply(%convert.87, %convert.86), metadata={op_name="jit(train_step)/transpose(jvp(TransformerLinenPure.apply))/TransformerLinenPure/decoder/while/body/closed_call/checkpoint/layers/shard_map/multiply" stack_frame_id=0}
  %constant.1147 = f32[]{:T(128)} constant(0)
  %dot_general.189 = f32[4,32,128]{2,1,0:T(8,128)S(1)} reduce(%multiply.196, %constant.1147), dimensions={3}, to_apply=%region_15.18, metadata={op_name="jit(train_step)/transpose(jvp(TransformerLinenPure.apply))/TransformerLinenPure/decoder/while/body/closed_call/checkpoint/layers/shard_map/vmap(jit(_splash_attention))/hsd,hsd->hs/dot_general" stack_frame_id=0}
  ROOT %tuple.191 = (f32[4,32,128]{2,1,0:T(8,128)S(1)}, bf16[4,32,128,128]{3,2,1,0:T(8,128)(2,1)S(1)}) tuple(%dot_general.189, %bitcast.209.clone.3)
}
