HloModule jit_train_step, is_scheduled=true, input_output_alias={ {0}: (0, {}, may-alias), {1}: (1, {}, may-alias), {2}: (2, {}, may-alias), {3}: (3, {}, may-alias), {4}: (4, {}, may-alias), {5}: (5, {}, may-alias), {6}: (6, {}, may-alias), {7}: (7, {}, may-alias), {8}: (8, {}, may-alias), {9}: (9, {}, may-alias), {10}: (10, {}, may-alias), {11}: (11, {}, may-alias), {12}: (12, {}, may-alias), {13}: (13, {}, may-alias), {14}: (14, {}, may-alias), {15}: (15, {}, may-alias), {16}: (16, {}, may-alias), {17}: (17, {}, may-alias), {18}: (18, {}, may-alias), {19}: (19, {}, may-alias), {20}: (20, {}, may-alias), {21}: (21, {}, may-alias), {22}: (22, {}, may-alias), {23}: (23, {}, may-alias), {24}: (24, {}, may-alias), {25}: (25, {}, may-alias), {26}: (26, {}, may-alias), {27}: (27, {}, may-alias), {28}: (28, {}, may-alias), {29}: (29, {}, may-alias), {30}: (30, {}, may-alias), {31}: (31, {}, may-alias), {32}: (32, {}, may-alias), {33}: (33, {}, may-alias), {34}: (34, {}, may-alias), {35}: (35, {}, may-alias), {36}: (36, {}, may-alias), {37}: (37, {}, may-alias), {38}: (38, {}, may-alias) }, entry_computation_layout={(s32[]{:T(128)}, f32[4096]{0:T(1024)}, f32[4096,4,14336]{2,1,0:T(4,128)}, f32[4096,4,14336]{2,1,0:T(4,128)}, f32[14336,4,4096]{2,1,0:T(4,128)}, /*index=5*/f32[4096,4]{0,1:T(4,128)}, f32[4096,4]{0,1:T(4,128)}, f32[4096,4,8,128]{3,2,1,0:T(8,128)}, f32[32,4,128,4096]{3,2,1,0:T(8,128)}, f32[4096,4,32,128]{3,2,1,0:T(8,128)}, /*index=10*/f32[4096,4,8,128]{3,2,1,0:T(8,128)}, f32[4096,128256]{1,0:T(8,128)}, f32[128256,4096]{1,0:T(8,128)}, s32[]{:T(128)}, f32[4096]{0:T(1024)}, /*index=15*/f32[4096,4,14336]{2,1,0:T(4,128)}, f32[4096,4,14336]{2,1,0:T(4,128)}, f32[14336,4,4096]{2,1,0:T(4,128)}, f32[4096,4]{0,1:T(4,128)}, f32[4096,4]{0,1:T(4,128)}, /*index=20*/f32[4096,4,8,128]{3,2,1,0:T(8,128)}, f32[32,4,128,4096]{3,2,1,0:T(8,128)}, f32[4096,4,32,128]{3,2,1,0:T(8,128)}, f32[4096,4,8,128]{3,2,1,0:T(8,128)}, f32[4096,128256]{1,0:T(8,128)}, /*index=25*/f32[128256,4096]{1,0:T(8,128)}, f32[4096]{0:T(1024)}, f32[4096,4,14336]{2,1,0:T(4,128)}, f32[4096,4,14336]{2,1,0:T(4,128)}, f32[14336,4,4096]{2,1,0:T(4,128)}, /*index=30*/f32[4096,4]{0,1:T(4,128)}, f32[4096,4]{0,1:T(4,128)}, f32[4096,4,8,128]{3,2,1,0:T(8,128)}, f32[32,4,128,4096]{3,2,1,0:T(8,128)}, f32[4096,4,32,128]{3,2,1,0:T(8,128)}, /*index=35*/f32[4096,4,8,128]{3,2,1,0:T(8,128)}, f32[4096,128256]{1,0:T(8,128)}, f32[128256,4096]{1,0:T(8,128)}, s32[]{:T(128)}, s32[4,128]{1,0:T(4,128)}, /*index=40*/s32[4,128]{1,0:T(4,128)}, s32[4,128]{1,0:T(4,128)}, s32[4,128]{1,0:T(4,128)}, s32[4,128]{1,0:T(4,128)})->(s32[]{:T(128)}, f32[4096]{0:T(1024)}, f32[4096,4,14336]{2,1,0:T(4,128)}, f32[4096,4,14336]{2,1,0:T(4,128)}, f32[14336,4,4096]{2,1,0:T(4,128)}, /*index=5*/f32[4096,4]{0,1:T(4,128)}, f32[4096,4]{0,1:T(4,128)}, f32[4096,4,8,128]{3,2,1,0:T(8,128)}, f32[32,4,128,4096]{3,2,1,0:T(8,128)}, f32[4096,4,32,128]{3,2,1,0:T(8,128)}, /*index=10*/f32[4096,4,8,128]{3,2,1,0:T(8,128)}, f32[4096,128256]{1,0:T(8,128)}, f32[128256,4096]{1,0:T(8,128)}, s32[]{:T(128)}, f32[4096]{0:T(1024)}, /*index=15*/f32[4096,4,14336]{2,1,0:T(4,128)}, f32[4096,4,14336]{2,1,0:T(4,128)}, f32[14336,4,4096]{2,1,0:T(4,128)}, f32[4096,4]{0,1:T(4,128)}, f32[4096,4]{0,1:T(4,128)}, /*index=20*/f32[4096,4,8,128]{3,2,1,0:T(8,128)}, f32[32,4,128,4096]{3,2,1,0:T(8,128)}, f32[4096,4,32,128]{3,2,1,0:T(8,128)}, f32[4096,4,8,128]{3,2,1,0:T(8,128)}, f32[4096,128256]{1,0:T(8,128)}, /*index=25*/f32[128256,4096]{1,0:T(8,128)}, f32[4096]{0:T(1024)}, f32[4096,4,14336]{2,1,0:T(4,128)}, f32[4096,4,14336]{2,1,0:T(4,128)}, f32[14336,4,4096]{2,1,0:T(4,128)}, /*index=30*/f32[4096,4]{0,1:T(4,128)}, f32[4096,4]{0,1:T(4,128)}, f32[4096,4,8,128]{3,2,1,0:T(8,128)}, f32[32,4,128,4096]{3,2,1,0:T(8,128)}, f32[4096,4,32,128]{3,2,1,0:T(8,128)}, /*index=35*/f32[4096,4,8,128]{3,2,1,0:T(8,128)}, f32[4096,128256]{1,0:T(8,128)}, f32[128256,4096]{1,0:T(8,128)}, s32[]{:T(128)}, f32[]{:T(128)}, /*index=40*/f32[]{:T(128)}, f32[]{:T(128)}, f32[]{:T(128)}, f32[]{:T(128)}, f32[]{:T(128)}, /*index=45*/f32[]{:T(128)}, f32[]{:T(128)}, f32[]{:T(128)}, s32[]{:T(128)}, f32[]{:T(128)})}, allow_spmd_sharding_propagation_to_parameters={false,false,false,false,false,false,false,false,false,false,false,false,false,false,false,false,false,false,false,false,false,false,false,false,false,false,false,false,false,false,false,false,false,false,false,false,false,false,false,false,false,false,false,false}, allow_spmd_sharding_propagation_to_output={false,false,false,false,false,false,false,false,false,false,false,false,false,false,false,false,false,false,false,false,false,false,false,false,false,false,false,false,false,false,false,false,false,false,false,false,false,false,false,true,true,true,true,true,true,true,true,true,true,true}, num_partitions=4

FileNames

FunctionNames

FileLocations

StackFrames


%fused_computation (param_0.2: bf16[128256,4096], param_1.7: s32[1024]) -> bf16[512,4096] {
  %param_0.2 = bf16[128256,4096]{1,0:T(8,128)(2,1)} parameter(0)
  %param_1.7 = s32[1024]{0:T(1024)S(1)} parameter(1)
  %custom-call.1 = s32[1024]{0:T(1024)} custom-call(%param_1.7), custom_call_target="AssumeGatherIndicesInBound", operand_layout_constraints={s32[1024]{0:T(1024)}}, metadata={op_name="jit(train_step)/jvp(TransformerLinenPure.apply)/TransformerLinenPure/decoder/decoder._apply_embedding/token_embedder/gather" stack_frame_id=0}
  %slice.6 = s32[512]{0:T(512)} slice(%custom-call.1), slice={[0:512]}, metadata={op_name="jit(train_step)/jvp(TransformerLinenPure.apply)/TransformerLinenPure/decoder/decoder._apply_embedding/token_embedder/gather" stack_frame_id=0}
  %reshape.342 = s32[4,128]{1,0:T(4,128)} reshape(%slice.6), metadata={op_name="jit(train_step)/jvp(TransformerLinenPure.apply)/TransformerLinenPure/decoder/decoder._apply_embedding/token_embedder/broadcast_in_dim" stack_frame_id=0}
  %transpose.326 = s32[4,128]{1,0:T(4,128)} transpose(%reshape.342), dimensions={0,1}, metadata={op_name="jit(train_step)/jvp(TransformerLinenPure.apply)/TransformerLinenPure/decoder/decoder._apply_embedding/token_embedder/broadcast_in_dim" stack_frame_id=0}
  %gather.4 = bf16[4,128,4096]{2,1,0:T(8,128)(2,1)} gather(%param_0.2, %transpose.326), offset_dims={2}, collapsed_slice_dims={0}, start_index_map={0}, index_vector_dim=2, slice_sizes={1,4096}, metadata={op_name="jit(train_step)/jvp(TransformerLinenPure.apply)/TransformerLinenPure/decoder/decoder._apply_embedding/token_embedder/gather" stack_frame_id=0}
  %transpose.325 = bf16[4,128,4096]{2,1,0:T(8,128)(2,1)} transpose(%gather.4), dimensions={0,1,2}, metadata={op_name="jit(train_step)/jvp(TransformerLinenPure.apply)/TransformerLinenPure/decoder/decoder._apply_embedding/token_embedder/gather" stack_frame_id=0}
  ROOT %reshape.341 = bf16[512,4096]{1,0:T(8,128)(2,1)} reshape(%transpose.325), metadata={op_name="jit(train_step)/jvp(TransformerLinenPure.apply)/TransformerLinenPure/decoder/decoder._apply_embedding/token_embedder/gather" stack_frame_id=0}
}

%region_33.38.clone (scatter-add.6: bf16[], scatter-add.7: bf16[]) -> bf16[] {
  %scatter-add.6 = bf16[]{:T(256)} parameter(0), metadata={op_name="jit(train_step)/transpose(jvp(TransformerLinenPure.apply))/TransformerLinenPure/decoder/decoder._apply_embedding/token_embedder/scatter-add"}
  %scatter-add.7 = bf16[]{:T(256)} parameter(1), metadata={op_name="jit(train_step)/transpose(jvp(TransformerLinenPure.apply))/TransformerLinenPure/decoder/decoder._apply_embedding/token_embedder/scatter-add"}
  ROOT %add.476 = bf16[]{:T(256)} add(%scatter-add.6, %scatter-add.7), metadata={op_name="jit(train_step)/transpose(jvp(TransformerLinenPure.apply))/TransformerLinenPure/decoder/decoder._apply_embedding/token_embedder/add" stack_frame_id=0}, backend_config={"flag_configs":[],"scoped_memory_configs":[],"used_scoped_memory_configs":[],"aliasing_operands":{"lists":[]}}
}

%fused_computation.1 (param_0.3: bf16[128256,4096], param_1.5: s32[512], param_2.4: bf16[512,4096]) -> bf16[128256,4096] {
  %param_0.3 = bf16[128256,4096]{1,0:T(8,128)(2,1)} parameter(0)
  %param_1.5 = s32[512]{0:T(512)S(1)} parameter(1)
  %reshape.349 = s32[4,128]{1,0:T(4,128)} reshape(%param_1.5), metadata={op_name="jit(train_step)/jvp(TransformerLinenPure.apply)/TransformerLinenPure/decoder/decoder._apply_embedding/token_embedder/broadcast_in_dim" stack_frame_id=0}
  %transpose.331 = s32[4,128]{1,0:T(4,128)} transpose(%reshape.349), dimensions={0,1}, metadata={op_name="jit(train_step)/jvp(TransformerLinenPure.apply)/TransformerLinenPure/decoder/decoder._apply_embedding/token_embedder/broadcast_in_dim" stack_frame_id=0}
  %param_2.4 = bf16[512,4096]{1,0:T(8,128)(2,1)S(1)} parameter(2)
  %reshape.350 = bf16[4,128,4096]{2,1,0:T(8,128)(2,1)} reshape(%param_2.4), metadata={op_name="jit(train_step)/transpose(jvp(TransformerLinenPure.apply))/TransformerLinenPure/decoder/while" stack_frame_id=0}
  %transpose.332 = bf16[4,128,4096]{2,1,0:T(8,128)(2,1)} transpose(%reshape.350), dimensions={0,1,2}, metadata={op_name="jit(train_step)/transpose(jvp(TransformerLinenPure.apply))/TransformerLinenPure/decoder/while" stack_frame_id=0}
  ROOT %scatter.2 = bf16[128256,4096]{1,0:T(8,128)(2,1)} scatter(%param_0.3, %transpose.331, %transpose.332), update_window_dims={2}, inserted_window_dims={0}, scatter_dims_to_operand_dims={0}, index_vector_dim=2, to_apply=%region_33.38.clone, metadata={op_name="jit(train_step)/transpose(jvp(TransformerLinenPure.apply))/TransformerLinenPure/decoder/decoder._apply_embedding/token_embedder/scatter-add" stack_frame_id=0}
}

%region_32.37 (reduce_sum.190: f32[], reduce_sum.191: f32[]) -> f32[] {
  %reduce_sum.190 = f32[]{:T(128)} parameter(0), metadata={op_name="jit(train_step)/reduce_sum"}
  %reduce_sum.191 = f32[]{:T(128)} parameter(1), metadata={op_name="jit(train_step)/reduce_sum"}
  ROOT %reduce_sum.192 = f32[]{:T(128)} add(%reduce_sum.190, %reduce_sum.191), metadata={op_name="jit(train_step)/reduce_sum" stack_frame_id=0}, backend_config={"flag_configs":[],"scoped_memory_configs":[],"used_scoped_memory_configs":[],"aliasing_operands":{"lists":[]}}
}

%fused_computation.281.clone.clone.clone (param_0.1085: bf16[4,128,128256], param_1.1251: s32[4,128], param_2.1077: f32[4,128], param_3.781: f32[4,128], param_4.482: bf16[4,128], param_5.404: f32[4,128]) -> bf16[4,128,128256] {
  %param_5.404 = f32[4,128]{1,0:T(4,128)S(1)} parameter(5)
  %mul.1607 = f32[4,128,128256]{2,1,0:T(8,128)} broadcast(%param_5.404), dimensions={0,1}, metadata={op_name="jit(train_step)/transpose(jvp())/mul" stack_frame_id=0}
  %param_3.781 = f32[4,128]{1,0:T(4,128)S(1)} parameter(3)
  %mul.1606 = f32[4,128,128256]{2,1,0:T(8,128)} broadcast(%param_3.781), dimensions={0,1}, metadata={op_name="jit(train_step)/transpose(jvp())/mul" stack_frame_id=0}
  %param_0.1085 = bf16[4,128,128256]{2,1,0:T(8,128)(2,1)} parameter(0)
  %convert_element_type.1032 = f32[4,128,128256]{2,1,0:T(8,128)} convert(%param_0.1085), metadata={op_name="jit(train_step)/jvp(TransformerLinenPure.apply)/TransformerLinenPure/decoder/decoder.apply_output_head/convert_element_type" stack_frame_id=0}
  %param_4.482 = bf16[4,128]{1,0:T(4,128)(2,1)S(1)} parameter(4)
  %sub.94 = f32[4,128,128256]{2,1,0:T(8,128)} broadcast(%param_4.482), dimensions={0,1}, metadata={op_name="jit(train_step)/jvp()/sub" stack_frame_id=0}
  %sub.93 = f32[4,128,128256]{2,1,0:T(8,128)} subtract(%convert_element_type.1032, %sub.94), metadata={op_name="jit(train_step)/jvp()/sub" stack_frame_id=0}
  %exp.62 = f32[4,128,128256]{2,1,0:T(8,128)} exponential(%sub.93), metadata={op_name="jit(train_step)/jvp()/exp" stack_frame_id=0}
  %mul.1605 = f32[4,128,128256]{2,1,0:T(8,128)} multiply(%mul.1606, %exp.62), metadata={op_name="jit(train_step)/transpose(jvp())/mul" stack_frame_id=0}
  %param_2.1077 = f32[4,128]{1,0:T(4,128)S(1)} parameter(2)
  %div.823 = f32[4,128,128256]{2,1,0:T(8,128)} broadcast(%param_2.1077), dimensions={0,1}, metadata={op_name="jit(train_step)/transpose(jvp())/div" stack_frame_id=0}
  %div.822 = f32[4,128,128256]{2,1,0:T(8,128)} divide(%mul.1605, %div.823), metadata={op_name="jit(train_step)/transpose(jvp())/div" stack_frame_id=0}
  %param_1.1251 = s32[4,128]{1,0:T(4,128)S(1)} parameter(1)
  %eq.49 = s32[4,128,128256]{2,1,0:T(8,128)} broadcast(%param_1.1251), dimensions={0,1}, metadata={op_name="jit(train_step)/jvp(jit(_one_hot))/eq" stack_frame_id=0}
  %eq.48 = s32[4,128,128256]{2,1,0:T(8,128)} iota(), iota_dimension=2, metadata={op_name="jit(train_step)/jvp(jit(_one_hot))/eq" stack_frame_id=0}
  %eq.47 = pred[4,128,128256]{2,1,0:T(8,128)(4,1)} compare(%eq.49, %eq.48), direction=EQ, metadata={op_name="jit(train_step)/jvp(jit(_one_hot))/eq" stack_frame_id=0}
  %convert_element_type.1031 = f32[4,128,128256]{2,1,0:T(8,128)} convert(%eq.47), metadata={op_name="jit(train_step)/jvp(jit(_one_hot))/convert_element_type" stack_frame_id=0}
  %sub.92 = f32[4,128,128256]{2,1,0:T(8,128)} subtract(%div.822, %convert_element_type.1031), metadata={op_name="jit(train_step)/transpose(jvp())/sub" stack_frame_id=0}
  %mul.1604 = f32[4,128,128256]{2,1,0:T(8,128)} multiply(%mul.1607, %sub.92), metadata={op_name="jit(train_step)/transpose(jvp())/mul" stack_frame_id=0}
  ROOT %convert_element_type.1030 = bf16[4,128,128256]{2,1,0:T(8,128)(2,1)} convert(%mul.1604), metadata={op_name="jit(train_step)/transpose(jvp(TransformerLinenPure.apply))/TransformerLinenPure/decoder/decoder.apply_output_head/convert_element_type" stack_frame_id=0}
}

%fused_computation.317.clone.clone (param_0.1086: f32[4,128], param_1.1252: bf16[4,128,4096], param_2.1079: bf16[4096]) -> bf16[4,128,4096] {
  %param_2.1079 = bf16[4096]{0:T(1024)(128)(2,1)S(1)} parameter(2)
  %dot_general.383 = bf16[4,128,4096]{2,1,0:T(8,128)(2,1)} broadcast(%param_2.1079), dimensions={2}, metadata={op_name="jit(train_step)/jvp(TransformerLinenPure.apply)/TransformerLinenPure/decoder/decoder.apply_output_head/decoder_norm/...k,k->...k/dot_general" stack_frame_id=0}
  %param_1.1252 = bf16[4,128,4096]{2,1,0:T(8,128)(2,1)S(1)} parameter(1)
  %convert_element_type.1034 = f32[4,128,4096]{2,1,0:T(8,128)} convert(%param_1.1252), metadata={op_name="jit(train_step)/jvp(TransformerLinenPure.apply)/TransformerLinenPure/decoder/decoder.apply_output_head/decoder_norm/convert_element_type" stack_frame_id=0}
  %param_0.1086 = f32[4,128]{1,0:T(4,128)S(1)} parameter(0)
  %mul.1609 = f32[4,128,4096]{2,1,0:T(8,128)} broadcast(%param_0.1086), dimensions={0,1}, metadata={op_name="jit(train_step)/jvp(TransformerLinenPure.apply)/TransformerLinenPure/decoder/decoder.apply_output_head/decoder_norm/mul" stack_frame_id=0}
  %mul.1608 = f32[4,128,4096]{2,1,0:T(8,128)} multiply(%convert_element_type.1034, %mul.1609), metadata={op_name="jit(train_step)/jvp(TransformerLinenPure.apply)/TransformerLinenPure/decoder/decoder.apply_output_head/decoder_norm/mul" stack_frame_id=0}
  %convert_element_type.1033 = bf16[4,128,4096]{2,1,0:T(8,128)(2,1)} convert(%mul.1608), metadata={op_name="jit(train_step)/jvp(TransformerLinenPure.apply)/TransformerLinenPure/decoder/decoder.apply_output_head/decoder_norm/convert_element_type" stack_frame_id=0}
  ROOT %dot_general.382 = bf16[4,128,4096]{2,1,0:T(8,128)(2,1)} multiply(%dot_general.383, %convert_element_type.1033), metadata={op_name="jit(train_step)/jvp(TransformerLinenPure.apply)/TransformerLinenPure/decoder/decoder.apply_output_head/decoder_norm/...k,k->...k/dot_general" stack_frame_id=0}
}

%fused_computation.220 (param_0.1105: bf16[4,128,128256], param_1.1267: s32[4,128], param_2.1103: f32[4,128], param_3.797: f32[4,128], param_4.497: bf16[4,128], param_5.419: f32[4,128], param_6.287: f32[4,128], param_7.186: bf16[4,128,4096], param_8.112: bf16[4096]) -> (f32[], bf16[4096,128256,1]) {
  %param_6.287 = f32[4,128]{1,0:T(4,128)S(1)} parameter(6)
  %param_7.186 = bf16[4,128,4096]{2,1,0:T(8,128)(2,1)S(1)} parameter(7)
  %param_8.112 = bf16[4096]{0:T(1024)(128)(2,1)S(1)} parameter(8)
  %fusion.229.clone.1 = bf16[4,128,4096]{2,1,0:T(8,128)(2,1)} fusion(%param_6.287, %param_7.186, %param_8.112), kind=kLoop, calls=%fused_computation.317.clone.clone, metadata={op_name="jit(train_step)/jvp(TransformerLinenPure.apply)/TransformerLinenPure/decoder/decoder.apply_output_head/decoder_norm/...k,k->...k/dot_general" stack_frame_id=0}
  %param_0.1105 = bf16[4,128,128256]{2,1,0:T(8,128)(2,1)} parameter(0)
  %param_1.1267 = s32[4,128]{1,0:T(4,128)S(1)} parameter(1)
  %param_2.1103 = f32[4,128]{1,0:T(4,128)S(1)} parameter(2)
  %param_3.797 = f32[4,128]{1,0:T(4,128)S(1)} parameter(3)
  %param_4.497 = bf16[4,128]{1,0:T(4,128)(2,1)S(1)} parameter(4)
  %param_5.419 = f32[4,128]{1,0:T(4,128)S(1)} parameter(5)
  %multiply_convert_fusion.1.clone.1 = bf16[4,128,128256]{2,1,0:T(8,128)(2,1)} fusion(%param_0.1105, %param_1.1267, %param_2.1103, %param_3.797, %param_4.497, /*index=5*/%param_5.419), kind=kLoop, calls=%fused_computation.281.clone.clone.clone, metadata={op_name="jit(train_step)/transpose(jvp(TransformerLinenPure.apply))/TransformerLinenPure/decoder/decoder.apply_output_head/convert_element_type" stack_frame_id=0}
  %convolution.82.clone.1 = bf16[4096,128256,1]{1,0,2:T(8,128)(2,1)} convolution(%fusion.229.clone.1, %multiply_convert_fusion.1.clone.1), window={size=4}, dim_labels=0fb_0io->bf0, metadata={op_name="jit(train_step)/transpose(jvp(TransformerLinenPure.apply))/TransformerLinenPure/decoder/decoder.apply_output_head/logits_dense/dot_general" stack_frame_id=0}
  %bitcast.300 = bf16[4096,128256]{1,0:T(8,128)(2,1)} bitcast(%convolution.82.clone.1), metadata={op_name="jit(train_step)/transpose(jvp(TransformerLinenPure.apply))/TransformerLinenPure/decoder/decoder.apply_output_head/logits_dense/dot_general" stack_frame_id=0}
  %convert_element_type.911 = f32[4096,128256]{1,0:T(8,128)} convert(%bitcast.300), metadata={op_name="jit(train_step)/transpose(jvp(TransformerLinenPure.apply))/TransformerLinenPure/decoder/decoder.apply_output_head/logits_dense/convert_element_type" stack_frame_id=0}
  %square.157 = f32[4096,128256]{1,0:T(8,128)} multiply(%convert_element_type.911, %convert_element_type.911), metadata={op_name="jit(train_step)/square" stack_frame_id=0}
  %constant.1006 = f32[]{:T(128)} constant(0)
  %reduce.118 = f32[]{:T(128)} reduce(%square.157, %constant.1006), dimensions={0,1}, to_apply=%region_32.37, metadata={op_name="jit(train_step)/reduce_sum" stack_frame_id=0}
  ROOT %tuple.154 = (f32[]{:T(128)}, bf16[4096,128256,1]{1,0,2:T(8,128)(2,1)}) tuple(%reduce.118, %convolution.82.clone.1)
}

%region_34.39 (reduce_sum.196: f32[], reduce_sum.197: f32[]) -> f32[] {
  %reduce_sum.196 = f32[]{:T(128)} parameter(0), metadata={op_name="jit(train_step)/reduce_sum"}
  %reduce_sum.197 = f32[]{:T(128)} parameter(1), metadata={op_name="jit(train_step)/reduce_sum"}
  ROOT %reduce_sum.198 = f32[]{:T(128)} add(%reduce_sum.196, %reduce_sum.197), metadata={op_name="jit(train_step)/reduce_sum" stack_frame_id=0}, backend_config={"flag_configs":[],"scoped_memory_configs":[],"used_scoped_memory_configs":[],"aliasing_operands":{"lists":[]}}
}

%fused_computation.221 (param_0.1104: bf16[128256,4096]) -> f32[] {
  %param_0.1104 = bf16[128256,4096]{1,0:T(8,128)(2,1)} parameter(0)
  %convert_element_type.913 = f32[128256,4096]{1,0:T(8,128)} convert(%param_0.1104), metadata={op_name="jit(train_step)/transpose(jvp(TransformerLinenPure.apply))/TransformerLinenPure/decoder/decoder._apply_embedding/token_embedder/convert_element_type" stack_frame_id=0}
  %square.159 = f32[128256,4096]{1,0:T(8,128)} multiply(%convert_element_type.913, %convert_element_type.913), metadata={op_name="jit(train_step)/square" stack_frame_id=0}
  %constant.1005 = f32[]{:T(128)} constant(0)
  ROOT %reduce.119 = f32[]{:T(128)} reduce(%square.159, %constant.1005), dimensions={0,1}, to_apply=%region_34.39, metadata={op_name="jit(train_step)/reduce_sum" stack_frame_id=0}
}

%region_60.65 (reduce_sum.338: f32[], reduce_sum.339: f32[]) -> f32[] {
  %reduce_sum.338 = f32[]{:T(128)} parameter(0), metadata={op_name="jit(train_step)/reduce_sum"}
  %reduce_sum.339 = f32[]{:T(128)} parameter(1), metadata={op_name="jit(train_step)/reduce_sum"}
  ROOT %reduce_sum.329 = f32[]{:T(128)} add(%reduce_sum.338, %reduce_sum.339), metadata={op_name="jit(train_step)/reduce_sum" stack_frame_id=0}, backend_config={"flag_configs":[],"scoped_memory_configs":[],"used_scoped_memory_configs":[],"aliasing_operands":{"lists":[]}}
}

%region_46.51 (reduce_sum.259: f32[], reduce_sum.260: f32[]) -> f32[] {
  %reduce_sum.259 = f32[]{:T(128)} parameter(0), metadata={op_name="jit(train_step)/reduce_sum"}
  %reduce_sum.260 = f32[]{:T(128)} parameter(1), metadata={op_name="jit(train_step)/reduce_sum"}
  ROOT %reduce_sum.261 = f32[]{:T(128)} add(%reduce_sum.259, %reduce_sum.260), metadata={op_name="jit(train_step)/reduce_sum" stack_frame_id=0}, backend_config={"flag_configs":[],"scoped_memory_configs":[],"used_scoped_memory_configs":[],"aliasing_operands":{"lists":[]}}
}

%fused_computation.222 (param_0.1092: f32[128256,4096], param_1.1255: f32[], param_2.1091: f32[], param_3.785: f32[], param_4.485: f32[128256,4096], param_5.407: f32[], param_6.275: bf16[128256,4096], param_7.174: pred[], param_8.100: f32[128256,4096]) -> (f32[], f32[128256,4096], f32[128256,4096], f32[128256,4096], f32[]) {
  %param_0.1092 = f32[128256,4096]{1,0:T(8,128)} parameter(0)
  %param_3.785 = f32[]{:T(128)S(6)} parameter(3)
  %mul.1476.clone.1 = f32[128256,4096]{1,0:T(8,128)} broadcast(%param_3.785), dimensions={}, metadata={op_name="jit(train_step)/mul" stack_frame_id=0}
  %param_7.174 = pred[]{:T(512)S(6)} parameter(7)
  %select_n.242.clone.1 = pred[128256,4096]{1,0:T(8,128)(4,1)} broadcast(%param_7.174), dimensions={}, metadata={op_name="jit(train_step)/select_n" stack_frame_id=0}
  %param_6.275 = bf16[128256,4096]{1,0:T(8,128)(2,1)} parameter(6)
  %convert_element_type.1005.clone.1 = f32[128256,4096]{1,0:T(8,128)} convert(%param_6.275), metadata={op_name="jit(train_step)/transpose(jvp(TransformerLinenPure.apply))/TransformerLinenPure/decoder/decoder._apply_embedding/token_embedder/convert_element_type" stack_frame_id=0}
  %param_5.407 = f32[]{:T(128)} parameter(5)
  %div.725.clone.1 = f32[128256,4096]{1,0:T(8,128)} broadcast(%param_5.407), dimensions={}, metadata={op_name="jit(train_step)/div" stack_frame_id=0}
  %div.724.clone.1 = f32[128256,4096]{1,0:T(8,128)} divide(%convert_element_type.1005.clone.1, %div.725.clone.1), metadata={op_name="jit(train_step)/div" stack_frame_id=0}
  %select_n.241.clone.1 = f32[128256,4096]{1,0:T(8,128)} select(%select_n.242.clone.1, %convert_element_type.1005.clone.1, %div.724.clone.1), metadata={op_name="jit(train_step)/select_n" stack_frame_id=0}
  %constant.907.clone.1 = f32[]{:T(128)} constant(0.1)
  %broadcast.554.clone.1 = f32[128256,4096]{1,0:T(8,128)} broadcast(%constant.907.clone.1), dimensions={}, metadata={op_name="broadcast.61"}
  %mul.1482.clone.1 = f32[128256,4096]{1,0:T(8,128)} multiply(%select_n.241.clone.1, %broadcast.554.clone.1), metadata={op_name="jit(train_step)/mul" stack_frame_id=0}
  %param_8.100 = f32[128256,4096]{1,0:T(8,128)} parameter(8)
  %constant.911.clone.1 = f32[]{:T(128)} constant(0.9)
  %mul.1483.clone.1 = f32[128256,4096]{1,0:T(8,128)} broadcast(%constant.911.clone.1), dimensions={}, metadata={op_name="jit(train_step)/mul" stack_frame_id=0}
  %mul.1481.clone.1 = f32[128256,4096]{1,0:T(8,128)} multiply(%param_8.100, %mul.1483.clone.1), metadata={op_name="jit(train_step)/mul" stack_frame_id=0}
  %add.776.clone.1 = f32[128256,4096]{1,0:T(8,128)} add(%mul.1482.clone.1, %mul.1481.clone.1), metadata={op_name="jit(train_step)/add" stack_frame_id=0}
  %param_2.1091 = f32[]{:T(128)S(6)} parameter(2)
  %div.721.clone.1 = f32[128256,4096]{1,0:T(8,128)} broadcast(%param_2.1091), dimensions={}, metadata={op_name="jit(train_step)/div" stack_frame_id=0}
  %integer_pow.60.clone.1 = f32[128256,4096]{1,0:T(8,128)} multiply(%select_n.241.clone.1, %select_n.241.clone.1), metadata={op_name="jit(train_step)/integer_pow" stack_frame_id=0}
  %constant.910.clone.1 = f32[]{:T(128)} constant(0.05)
  %mul.1480.clone.1 = f32[128256,4096]{1,0:T(8,128)} broadcast(%constant.910.clone.1), dimensions={}, metadata={op_name="jit(train_step)/mul" stack_frame_id=0}
  %mul.1478.clone.1 = f32[128256,4096]{1,0:T(8,128)} multiply(%integer_pow.60.clone.1, %mul.1480.clone.1), metadata={op_name="jit(train_step)/mul" stack_frame_id=0}
  %param_4.485 = f32[128256,4096]{1,0:T(8,128)} parameter(4)
  %constant.909.clone.1 = f32[]{:T(128)} constant(0.95)
  %mul.1479.clone.1 = f32[128256,4096]{1,0:T(8,128)} broadcast(%constant.909.clone.1), dimensions={}, metadata={op_name="jit(train_step)/mul" stack_frame_id=0}
  %mul.1477.clone.1 = f32[128256,4096]{1,0:T(8,128)} multiply(%param_4.485, %mul.1479.clone.1), metadata={op_name="jit(train_step)/mul" stack_frame_id=0}
  %add.775.clone.1 = f32[128256,4096]{1,0:T(8,128)} add(%mul.1478.clone.1, %mul.1477.clone.1), metadata={op_name="jit(train_step)/add" stack_frame_id=0}
  %param_1.1255 = f32[]{:T(128)S(6)} parameter(1)
  %div.720.clone.1 = f32[128256,4096]{1,0:T(8,128)} broadcast(%param_1.1255), dimensions={}, metadata={op_name="jit(train_step)/div" stack_frame_id=0}
  %div.719.clone.1 = f32[128256,4096]{1,0:T(8,128)} divide(%add.775.clone.1, %div.720.clone.1), metadata={op_name="jit(train_step)/div" stack_frame_id=0}
  %sqrt.58.clone.1 = f32[128256,4096]{1,0:T(8,128)} sqrt(%div.719.clone.1), metadata={op_name="jit(train_step)/sqrt" stack_frame_id=0}
  %constant.908.clone.1 = f32[]{:T(128)} constant(1e-08)
  %add.774.clone.1 = f32[128256,4096]{1,0:T(8,128)} broadcast(%constant.908.clone.1), dimensions={}, metadata={op_name="jit(train_step)/add" stack_frame_id=0}
  %add.773.clone.1 = f32[128256,4096]{1,0:T(8,128)} add(%sqrt.58.clone.1, %add.774.clone.1), metadata={op_name="jit(train_step)/add" stack_frame_id=0}
  %multiply.256.clone.1 = f32[128256,4096]{1,0:T(8,128)} multiply(%div.721.clone.1, %add.773.clone.1), metadata={op_name="multiply.42"}
  %div.718.clone.1 = f32[128256,4096]{1,0:T(8,128)} divide(%add.776.clone.1, %multiply.256.clone.1), metadata={op_name="jit(train_step)/div" stack_frame_id=0}
  %mul.1475.clone.1 = f32[128256,4096]{1,0:T(8,128)} multiply(%param_0.1092, %broadcast.554.clone.1), metadata={op_name="jit(train_step)/mul" stack_frame_id=0}
  %add.772.clone.1 = f32[128256,4096]{1,0:T(8,128)} add(%div.718.clone.1, %mul.1475.clone.1), metadata={op_name="jit(train_step)/add" stack_frame_id=0}
  %mul.1474.clone.1 = f32[128256,4096]{1,0:T(8,128)} multiply(%mul.1476.clone.1, %add.772.clone.1), metadata={op_name="jit(train_step)/mul" stack_frame_id=0}
  %add.771.clone.1 = f32[128256,4096]{1,0:T(8,128)} add(%param_0.1092, %mul.1474.clone.1), metadata={op_name="jit(train_step)/add" stack_frame_id=0}
  %square.160 = f32[128256,4096]{1,0:T(8,128)} multiply(%add.771.clone.1, %add.771.clone.1), metadata={op_name="jit(train_step)/square" stack_frame_id=0}
  %constant.993 = f32[]{:T(128)} constant(0)
  %reduce.120 = f32[]{:T(128)} reduce(%square.160, %constant.993), dimensions={0,1}, to_apply=%region_60.65, metadata={op_name="jit(train_step)/reduce_sum" stack_frame_id=0}
  %reduce.122.clone.1 = f32[]{:T(128)} reduce(%integer_pow.60.clone.1, %constant.993), dimensions={0,1}, to_apply=%region_46.51, metadata={op_name="jit(train_step)/reduce_sum" stack_frame_id=0}
  ROOT %tuple.135 = (f32[]{:T(128)}, f32[128256,4096]{1,0:T(8,128)}, f32[128256,4096]{1,0:T(8,128)}, f32[128256,4096]{1,0:T(8,128)}, f32[]{:T(128)}) tuple(%reduce.120, %add.771.clone.1, %add.775.clone.1, %add.776.clone.1, %reduce.122.clone.1)
}

%region_59.64 (reduce_sum.331: f32[], reduce_sum.332: f32[]) -> f32[] {
  %reduce_sum.331 = f32[]{:T(128)} parameter(0), metadata={op_name="jit(train_step)/reduce_sum"}
  %reduce_sum.332 = f32[]{:T(128)} parameter(1), metadata={op_name="jit(train_step)/reduce_sum"}
  ROOT %reduce_sum.323 = f32[]{:T(128)} add(%reduce_sum.331, %reduce_sum.332), metadata={op_name="jit(train_step)/reduce_sum" stack_frame_id=0}, backend_config={"flag_configs":[],"scoped_memory_configs":[],"used_scoped_memory_configs":[],"aliasing_operands":{"lists":[]}}
}

%region_45.50 (reduce_sum.253: f32[], reduce_sum.254: f32[]) -> f32[] {
  %reduce_sum.253 = f32[]{:T(128)} parameter(0), metadata={op_name="jit(train_step)/reduce_sum"}
  %reduce_sum.254 = f32[]{:T(128)} parameter(1), metadata={op_name="jit(train_step)/reduce_sum"}
  ROOT %reduce_sum.255 = f32[]{:T(128)} add(%reduce_sum.253, %reduce_sum.254), metadata={op_name="jit(train_step)/reduce_sum" stack_frame_id=0}, backend_config={"flag_configs":[],"scoped_memory_configs":[],"used_scoped_memory_configs":[],"aliasing_operands":{"lists":[]}}
}

%fused_computation.223 (param_0.1093: f32[4096,128256], param_1.1256: f32[], param_2.1092: f32[], param_3.786: f32[], param_4.486: f32[4096,128256], param_5.408: f32[], param_6.276: bf16[4096,128256,1], param_7.175: pred[], param_8.101: f32[4096,128256]) -> (f32[], f32[4096,128256], f32[4096,128256], f32[4096,128256], f32[]) {
  %param_0.1093 = f32[4096,128256]{1,0:T(8,128)} parameter(0)
  %param_3.786 = f32[]{:T(128)S(6)} parameter(3)
  %mul.1486.clone.1 = f32[4096,128256]{1,0:T(8,128)} broadcast(%param_3.786), dimensions={}, metadata={op_name="jit(train_step)/mul" stack_frame_id=0}
  %param_7.175 = pred[]{:T(512)S(6)} parameter(7)
  %select_n.246.clone.1 = pred[4096,128256]{1,0:T(8,128)(4,1)} broadcast(%param_7.175), dimensions={}, metadata={op_name="jit(train_step)/select_n" stack_frame_id=0}
  %param_6.276 = bf16[4096,128256,1]{1,0,2:T(8,128)(2,1)} parameter(6)
  %bitcast.403.clone.1 = bf16[4096,128256]{1,0:T(8,128)(2,1)} bitcast(%param_6.276), metadata={op_name="jit(train_step)/transpose(jvp(TransformerLinenPure.apply))/TransformerLinenPure/decoder/decoder.apply_output_head/logits_dense/dot_general" stack_frame_id=0}
  %convert_element_type.1007.clone.1 = f32[4096,128256]{1,0:T(8,128)} convert(%bitcast.403.clone.1), metadata={op_name="jit(train_step)/transpose(jvp(TransformerLinenPure.apply))/TransformerLinenPure/decoder/decoder.apply_output_head/logits_dense/convert_element_type" stack_frame_id=0}
  %param_5.408 = f32[]{:T(128)} parameter(5)
  %div.733.clone.1 = f32[4096,128256]{1,0:T(8,128)} broadcast(%param_5.408), dimensions={}, metadata={op_name="jit(train_step)/div" stack_frame_id=0}
  %div.732.clone.1 = f32[4096,128256]{1,0:T(8,128)} divide(%convert_element_type.1007.clone.1, %div.733.clone.1), metadata={op_name="jit(train_step)/div" stack_frame_id=0}
  %select_n.245.clone.1 = f32[4096,128256]{1,0:T(8,128)} select(%select_n.246.clone.1, %convert_element_type.1007.clone.1, %div.732.clone.1), metadata={op_name="jit(train_step)/select_n" stack_frame_id=0}
  %constant.913.clone.1 = f32[]{:T(128)} constant(0.1)
  %broadcast.556.clone.1 = f32[4096,128256]{1,0:T(8,128)} broadcast(%constant.913.clone.1), dimensions={}, metadata={op_name="broadcast.62"}
  %mul.1492.clone.1 = f32[4096,128256]{1,0:T(8,128)} multiply(%select_n.245.clone.1, %broadcast.556.clone.1), metadata={op_name="jit(train_step)/mul" stack_frame_id=0}
  %param_8.101 = f32[4096,128256]{1,0:T(8,128)} parameter(8)
  %constant.917.clone.1 = f32[]{:T(128)} constant(0.9)
  %mul.1493.clone.1 = f32[4096,128256]{1,0:T(8,128)} broadcast(%constant.917.clone.1), dimensions={}, metadata={op_name="jit(train_step)/mul" stack_frame_id=0}
  %mul.1491.clone.1 = f32[4096,128256]{1,0:T(8,128)} multiply(%param_8.101, %mul.1493.clone.1), metadata={op_name="jit(train_step)/mul" stack_frame_id=0}
  %add.782.clone.1 = f32[4096,128256]{1,0:T(8,128)} add(%mul.1492.clone.1, %mul.1491.clone.1), metadata={op_name="jit(train_step)/add" stack_frame_id=0}
  %param_2.1092 = f32[]{:T(128)S(6)} parameter(2)
  %div.729.clone.1 = f32[4096,128256]{1,0:T(8,128)} broadcast(%param_2.1092), dimensions={}, metadata={op_name="jit(train_step)/div" stack_frame_id=0}
  %integer_pow.61.clone.1 = f32[4096,128256]{1,0:T(8,128)} multiply(%select_n.245.clone.1, %select_n.245.clone.1), metadata={op_name="jit(train_step)/integer_pow" stack_frame_id=0}
  %constant.916.clone.1 = f32[]{:T(128)} constant(0.05)
  %mul.1490.clone.1 = f32[4096,128256]{1,0:T(8,128)} broadcast(%constant.916.clone.1), dimensions={}, metadata={op_name="jit(train_step)/mul" stack_frame_id=0}
  %mul.1488.clone.1 = f32[4096,128256]{1,0:T(8,128)} multiply(%integer_pow.61.clone.1, %mul.1490.clone.1), metadata={op_name="jit(train_step)/mul" stack_frame_id=0}
  %param_4.486 = f32[4096,128256]{1,0:T(8,128)} parameter(4)
  %constant.915.clone.1 = f32[]{:T(128)} constant(0.95)
  %mul.1489.clone.1 = f32[4096,128256]{1,0:T(8,128)} broadcast(%constant.915.clone.1), dimensions={}, metadata={op_name="jit(train_step)/mul" stack_frame_id=0}
  %mul.1487.clone.1 = f32[4096,128256]{1,0:T(8,128)} multiply(%param_4.486, %mul.1489.clone.1), metadata={op_name="jit(train_step)/mul" stack_frame_id=0}
  %add.781.clone.1 = f32[4096,128256]{1,0:T(8,128)} add(%mul.1488.clone.1, %mul.1487.clone.1), metadata={op_name="jit(train_step)/add" stack_frame_id=0}
  %param_1.1256 = f32[]{:T(128)S(6)} parameter(1)
  %div.728.clone.1 = f32[4096,128256]{1,0:T(8,128)} broadcast(%param_1.1256), dimensions={}, metadata={op_name="jit(train_step)/div" stack_frame_id=0}
  %div.727.clone.1 = f32[4096,128256]{1,0:T(8,128)} divide(%add.781.clone.1, %div.728.clone.1), metadata={op_name="jit(train_step)/div" stack_frame_id=0}
  %sqrt.59.clone.1 = f32[4096,128256]{1,0:T(8,128)} sqrt(%div.727.clone.1), metadata={op_name="jit(train_step)/sqrt" stack_frame_id=0}
  %constant.914.clone.1 = f32[]{:T(128)} constant(1e-08)
  %add.780.clone.1 = f32[4096,128256]{1,0:T(8,128)} broadcast(%constant.914.clone.1), dimensions={}, metadata={op_name="jit(train_step)/add" stack_frame_id=0}
  %add.779.clone.1 = f32[4096,128256]{1,0:T(8,128)} add(%sqrt.59.clone.1, %add.780.clone.1), metadata={op_name="jit(train_step)/add" stack_frame_id=0}
  %multiply.257.clone.1 = f32[4096,128256]{1,0:T(8,128)} multiply(%div.729.clone.1, %add.779.clone.1), metadata={op_name="multiply.41"}
  %div.726.clone.1 = f32[4096,128256]{1,0:T(8,128)} divide(%add.782.clone.1, %multiply.257.clone.1), metadata={op_name="jit(train_step)/div" stack_frame_id=0}
  %mul.1485.clone.1 = f32[4096,128256]{1,0:T(8,128)} multiply(%param_0.1093, %broadcast.556.clone.1), metadata={op_name="jit(train_step)/mul" stack_frame_id=0}
  %add.778.clone.1 = f32[4096,128256]{1,0:T(8,128)} add(%div.726.clone.1, %mul.1485.clone.1), metadata={op_name="jit(train_step)/add" stack_frame_id=0}
  %mul.1484.clone.1 = f32[4096,128256]{1,0:T(8,128)} multiply(%mul.1486.clone.1, %add.778.clone.1), metadata={op_name="jit(train_step)/mul" stack_frame_id=0}
  %add.777.clone.1 = f32[4096,128256]{1,0:T(8,128)} add(%param_0.1093, %mul.1484.clone.1), metadata={op_name="jit(train_step)/add" stack_frame_id=0}
  %square.161 = f32[4096,128256]{1,0:T(8,128)} multiply(%add.777.clone.1, %add.777.clone.1), metadata={op_name="jit(train_step)/square" stack_frame_id=0}
  %constant.994 = f32[]{:T(128)} constant(0)
  %reduce.121 = f32[]{:T(128)} reduce(%square.161, %constant.994), dimensions={0,1}, to_apply=%region_59.64, metadata={op_name="jit(train_step)/reduce_sum" stack_frame_id=0}
  %reduce.123.clone.1 = f32[]{:T(128)} reduce(%integer_pow.61.clone.1, %constant.994), dimensions={0,1}, to_apply=%region_45.50, metadata={op_name="jit(train_step)/reduce_sum" stack_frame_id=0}
  ROOT %tuple.136 = (f32[]{:T(128)}, f32[4096,128256]{1,0:T(8,128)}, f32[4096,128256]{1,0:T(8,128)}, f32[4096,128256]{1,0:T(8,128)}, f32[]{:T(128)}) tuple(%reduce.121, %add.777.clone.1, %add.781.clone.1, %add.782.clone.1, %reduce.123.clone.1)
}

%region_25.30 (reduce_sum.154: f32[], reduce_sum.155: f32[]) -> f32[] {
  %reduce_sum.154 = f32[]{:T(128)} parameter(0), metadata={op_name="jit(train_step)/reduce_sum"}
  %reduce_sum.155 = f32[]{:T(128)} parameter(1), metadata={op_name="jit(train_step)/reduce_sum"}
  ROOT %reduce_sum.156 = f32[]{:T(128)} add(%reduce_sum.154, %reduce_sum.155), metadata={op_name="jit(train_step)/reduce_sum" stack_frame_id=0}, backend_config={"flag_configs":[],"scoped_memory_configs":[],"used_scoped_memory_configs":[],"aliasing_operands":{"lists":[]}}
}

%fused_computation.240 (param_0.1110: f32[4,14336,4096]) -> f32[] {
  %param_0.1110 = f32[4,14336,4096]{2,0,1:T(4,128)} parameter(0)
  %bitcast.308 = f32[14336,4,4096]{2,1,0:T(4,128)} bitcast(%param_0.1110), metadata={op_name="jit(train_step)/transpose(jvp(TransformerLinenPure.apply))/TransformerLinenPure/decoder/transpose" stack_frame_id=0}
  %square.164 = f32[14336,4,4096]{2,1,0:T(4,128)} multiply(%bitcast.308, %bitcast.308), metadata={op_name="jit(train_step)/square" stack_frame_id=0}
  %constant.1011 = f32[]{:T(128)} constant(0)
  ROOT %reduce.124 = f32[]{:T(128)} reduce(%square.164, %constant.1011), dimensions={0,1,2}, to_apply=%region_25.30, metadata={op_name="jit(train_step)/reduce_sum" stack_frame_id=0}
}

%region_24.29 (reduce_sum.148: f32[], reduce_sum.149: f32[]) -> f32[] {
  %reduce_sum.148 = f32[]{:T(128)} parameter(0), metadata={op_name="jit(train_step)/reduce_sum"}
  %reduce_sum.149 = f32[]{:T(128)} parameter(1), metadata={op_name="jit(train_step)/reduce_sum"}
  ROOT %reduce_sum.150 = f32[]{:T(128)} add(%reduce_sum.148, %reduce_sum.149), metadata={op_name="jit(train_step)/reduce_sum" stack_frame_id=0}, backend_config={"flag_configs":[],"scoped_memory_configs":[],"used_scoped_memory_configs":[],"aliasing_operands":{"lists":[]}}
}

%region_23.28 (reduce_sum.142: f32[], reduce_sum.143: f32[]) -> f32[] {
  %reduce_sum.142 = f32[]{:T(128)} parameter(0), metadata={op_name="jit(train_step)/reduce_sum"}
  %reduce_sum.143 = f32[]{:T(128)} parameter(1), metadata={op_name="jit(train_step)/reduce_sum"}
  ROOT %reduce_sum.147 = f32[]{:T(128)} add(%reduce_sum.142, %reduce_sum.143), metadata={op_name="jit(train_step)/reduce_sum" stack_frame_id=0}, backend_config={"flag_configs":[],"scoped_memory_configs":[],"used_scoped_memory_configs":[],"aliasing_operands":{"lists":[]}}
}

%fused_computation.242 (param_0.1111: f32[4,4096,14336], param_1.1270: f32[4,4096,14336]) -> (f32[], f32[]) {
  %param_0.1111 = f32[4,4096,14336]{2,0,1:T(4,128)} parameter(0)
  %bitcast.312 = f32[4096,4,14336]{2,1,0:T(4,128)} bitcast(%param_0.1111), metadata={op_name="jit(train_step)/transpose(jvp(TransformerLinenPure.apply))/TransformerLinenPure/decoder/transpose" stack_frame_id=0}
  %square.167 = f32[4096,4,14336]{2,1,0:T(4,128)} multiply(%bitcast.312, %bitcast.312), metadata={op_name="jit(train_step)/square" stack_frame_id=0}
  %constant.1012 = f32[]{:T(128)} constant(0)
  %reduce.125 = f32[]{:T(128)} reduce(%square.167, %constant.1012), dimensions={0,1,2}, to_apply=%region_24.29, metadata={op_name="jit(train_step)/reduce_sum" stack_frame_id=0}
  %param_1.1270 = f32[4,4096,14336]{2,0,1:T(4,128)} parameter(1)
  %bitcast.316.clone.1 = f32[4096,4,14336]{2,1,0:T(4,128)} bitcast(%param_1.1270), metadata={op_name="jit(train_step)/transpose(jvp(TransformerLinenPure.apply))/TransformerLinenPure/decoder/transpose" stack_frame_id=0}
  %square.170.clone.1 = f32[4096,4,14336]{2,1,0:T(4,128)} multiply(%bitcast.316.clone.1, %bitcast.316.clone.1), metadata={op_name="jit(train_step)/square" stack_frame_id=0}
  %reduce.126.clone.1 = f32[]{:T(128)} reduce(%square.170.clone.1, %constant.1012), dimensions={0,1,2}, to_apply=%region_23.28, metadata={op_name="jit(train_step)/reduce_sum" stack_frame_id=0}
  ROOT %tuple.155 = (f32[]{:T(128)}, f32[]{:T(128)}) tuple(%reduce.125, %reduce.126.clone.1)
}

%fused_computation.245 (param_0.681: f32[14336,4,4096]) -> bf16[4,14336,4096] {
  %param_0.681 = f32[14336,4,4096]{2,1,0:T(4,128)} parameter(0)
  %copy.234 = bf16[14336,4,4096]{2,0,1:T(8,128)(2,1)} copy(%param_0.681), sharding={replicated}, metadata={op_name="state.params[\'params\'][\'decoder\'][\'layers\'][\'mlp\'][\'wo\'][\'kernel\']"}
  ROOT %bitcast.317 = bf16[4,14336,4096]{2,1,0:T(8,128)(2,1)} bitcast(%copy.234), metadata={op_name="jit(train_step)/jvp(TransformerLinenPure.apply)/TransformerLinenPure/decoder/transpose" stack_frame_id=0}
}

%fused_computation.246 (param_0.683: f32[4096,4,14336]) -> bf16[4,4096,14336] {
  %param_0.683 = f32[4096,4,14336]{2,1,0:T(4,128)} parameter(0)
  %copy.235 = bf16[4096,4,14336]{2,0,1:T(8,128)(2,1)} copy(%param_0.683), sharding={replicated}, metadata={op_name="state.params[\'params\'][\'decoder\'][\'layers\'][\'mlp\'][\'wi_1\'][\'kernel\']"}
  ROOT %bitcast.318 = bf16[4,4096,14336]{2,1,0:T(8,128)(2,1)} bitcast(%copy.235), metadata={op_name="jit(train_step)/jvp(TransformerLinenPure.apply)/TransformerLinenPure/decoder/transpose" stack_frame_id=0}
}

%fused_computation.247 (param_0.685: f32[4096,4,14336]) -> bf16[4,4096,14336] {
  %param_0.685 = f32[4096,4,14336]{2,1,0:T(4,128)} parameter(0)
  %copy.236 = bf16[4096,4,14336]{2,0,1:T(8,128)(2,1)} copy(%param_0.685), sharding={replicated}, metadata={op_name="state.params[\'params\'][\'decoder\'][\'layers\'][\'mlp\'][\'wi_0\'][\'kernel\']"}
  ROOT %bitcast.319 = bf16[4,4096,14336]{2,1,0:T(8,128)(2,1)} bitcast(%copy.236), metadata={op_name="jit(train_step)/jvp(TransformerLinenPure.apply)/TransformerLinenPure/decoder/transpose" stack_frame_id=0}
}

%region_52.57 (reduce_sum.289: f32[], reduce_sum.290: f32[]) -> f32[] {
  %reduce_sum.289 = f32[]{:T(128)} parameter(0), metadata={op_name="jit(train_step)/reduce_sum"}
  %reduce_sum.290 = f32[]{:T(128)} parameter(1), metadata={op_name="jit(train_step)/reduce_sum"}
  ROOT %reduce_sum.294 = f32[]{:T(128)} add(%reduce_sum.289, %reduce_sum.290), metadata={op_name="jit(train_step)/reduce_sum" stack_frame_id=0}, backend_config={"flag_configs":[],"scoped_memory_configs":[],"used_scoped_memory_configs":[],"aliasing_operands":{"lists":[]}}
}

%region_38.43 (reduce_sum.217: f32[], reduce_sum.218: f32[]) -> f32[] {
  %reduce_sum.217 = f32[]{:T(128)} parameter(0), metadata={op_name="jit(train_step)/reduce_sum"}
  %reduce_sum.218 = f32[]{:T(128)} parameter(1), metadata={op_name="jit(train_step)/reduce_sum"}
  ROOT %reduce_sum.219 = f32[]{:T(128)} add(%reduce_sum.217, %reduce_sum.218), metadata={op_name="jit(train_step)/reduce_sum" stack_frame_id=0}, backend_config={"flag_configs":[],"scoped_memory_configs":[],"used_scoped_memory_configs":[],"aliasing_operands":{"lists":[]}}
}

%fused_computation.248 (param_0.1100: f32[14336,4,4096], param_1.1263: f32[], param_2.1099: f32[], param_3.793: f32[], param_4.493: f32[14336,4,4096], param_5.415: f32[], param_6.283: f32[4,14336,4096], param_7.182: pred[], param_8.108: f32[14336,4,4096]) -> (f32[], f32[14336,4,4096], f32[14336,4,4096], f32[14336,4,4096], f32[]) {
  %param_0.1100 = f32[14336,4,4096]{2,1,0:T(4,128)} parameter(0)
  %param_3.793 = f32[]{:T(128)S(6)} parameter(3)
  %mul.1544.clone.1 = f32[14336,4,4096]{2,1,0:T(4,128)} broadcast(%param_3.793), dimensions={}, metadata={op_name="jit(train_step)/mul" stack_frame_id=0}
  %param_7.182 = pred[]{:T(512)S(6)} parameter(7)
  %select_n.274.clone.1 = pred[14336,4,4096]{2,1,0:T(4,128)(4,1)} broadcast(%param_7.182), dimensions={}, metadata={op_name="jit(train_step)/select_n" stack_frame_id=0}
  %param_6.283 = f32[4,14336,4096]{2,0,1:T(4,128)} parameter(6)
  %bitcast.417.clone.1 = f32[14336,4,4096]{2,1,0:T(4,128)} bitcast(%param_6.283), metadata={op_name="jit(train_step)/transpose(jvp(TransformerLinenPure.apply))/TransformerLinenPure/decoder/transpose" stack_frame_id=0}
  %param_5.415 = f32[]{:T(128)} parameter(5)
  %div.789.clone.1 = f32[14336,4,4096]{2,1,0:T(4,128)} broadcast(%param_5.415), dimensions={}, metadata={op_name="jit(train_step)/div" stack_frame_id=0}
  %div.788.clone.1 = f32[14336,4,4096]{2,1,0:T(4,128)} divide(%bitcast.417.clone.1, %div.789.clone.1), metadata={op_name="jit(train_step)/div" stack_frame_id=0}
  %select_n.273.clone.1 = f32[14336,4,4096]{2,1,0:T(4,128)} select(%select_n.274.clone.1, %bitcast.417.clone.1, %div.788.clone.1), metadata={op_name="jit(train_step)/select_n" stack_frame_id=0}
  %constant.955.clone.1 = f32[]{:T(128)} constant(0.1)
  %broadcast.586.clone.1 = f32[14336,4,4096]{2,1,0:T(4,128)} broadcast(%constant.955.clone.1), dimensions={}, metadata={op_name="broadcast.69"}
  %mul.1550.clone.1 = f32[14336,4,4096]{2,1,0:T(4,128)} multiply(%select_n.273.clone.1, %broadcast.586.clone.1), metadata={op_name="jit(train_step)/mul" stack_frame_id=0}
  %param_8.108 = f32[14336,4,4096]{2,1,0:T(4,128)} parameter(8)
  %constant.959.clone.1 = f32[]{:T(128)} constant(0.9)
  %mul.1551.clone.1 = f32[14336,4,4096]{2,1,0:T(4,128)} broadcast(%constant.959.clone.1), dimensions={}, metadata={op_name="jit(train_step)/mul" stack_frame_id=0}
  %mul.1549.clone.1 = f32[14336,4,4096]{2,1,0:T(4,128)} multiply(%param_8.108, %mul.1551.clone.1), metadata={op_name="jit(train_step)/mul" stack_frame_id=0}
  %add.820.clone.1 = f32[14336,4,4096]{2,1,0:T(4,128)} add(%mul.1550.clone.1, %mul.1549.clone.1), metadata={op_name="jit(train_step)/add" stack_frame_id=0}
  %param_2.1099 = f32[]{:T(128)S(6)} parameter(2)
  %div.785.clone.1 = f32[14336,4,4096]{2,1,0:T(4,128)} broadcast(%param_2.1099), dimensions={}, metadata={op_name="jit(train_step)/div" stack_frame_id=0}
  %integer_pow.68.clone.1 = f32[14336,4,4096]{2,1,0:T(4,128)} multiply(%select_n.273.clone.1, %select_n.273.clone.1), metadata={op_name="jit(train_step)/integer_pow" stack_frame_id=0}
  %constant.958.clone.1 = f32[]{:T(128)} constant(0.05)
  %mul.1548.clone.1 = f32[14336,4,4096]{2,1,0:T(4,128)} broadcast(%constant.958.clone.1), dimensions={}, metadata={op_name="jit(train_step)/mul" stack_frame_id=0}
  %mul.1546.clone.1 = f32[14336,4,4096]{2,1,0:T(4,128)} multiply(%integer_pow.68.clone.1, %mul.1548.clone.1), metadata={op_name="jit(train_step)/mul" stack_frame_id=0}
  %param_4.493 = f32[14336,4,4096]{2,1,0:T(4,128)} parameter(4)
  %constant.957.clone.1 = f32[]{:T(128)} constant(0.95)
  %mul.1547.clone.1 = f32[14336,4,4096]{2,1,0:T(4,128)} broadcast(%constant.957.clone.1), dimensions={}, metadata={op_name="jit(train_step)/mul" stack_frame_id=0}
  %mul.1545.clone.1 = f32[14336,4,4096]{2,1,0:T(4,128)} multiply(%param_4.493, %mul.1547.clone.1), metadata={op_name="jit(train_step)/mul" stack_frame_id=0}
  %add.819.clone.1 = f32[14336,4,4096]{2,1,0:T(4,128)} add(%mul.1546.clone.1, %mul.1545.clone.1), metadata={op_name="jit(train_step)/add" stack_frame_id=0}
  %param_1.1263 = f32[]{:T(128)S(6)} parameter(1)
  %div.784.clone.1 = f32[14336,4,4096]{2,1,0:T(4,128)} broadcast(%param_1.1263), dimensions={}, metadata={op_name="jit(train_step)/div" stack_frame_id=0}
  %div.783.clone.1 = f32[14336,4,4096]{2,1,0:T(4,128)} divide(%add.819.clone.1, %div.784.clone.1), metadata={op_name="jit(train_step)/div" stack_frame_id=0}
  %sqrt.66.clone.1 = f32[14336,4,4096]{2,1,0:T(4,128)} sqrt(%div.783.clone.1), metadata={op_name="jit(train_step)/sqrt" stack_frame_id=0}
  %constant.956.clone.1 = f32[]{:T(128)} constant(1e-08)
  %add.818.clone.1 = f32[14336,4,4096]{2,1,0:T(4,128)} broadcast(%constant.956.clone.1), dimensions={}, metadata={op_name="jit(train_step)/add" stack_frame_id=0}
  %add.817.clone.1 = f32[14336,4,4096]{2,1,0:T(4,128)} add(%sqrt.66.clone.1, %add.818.clone.1), metadata={op_name="jit(train_step)/add" stack_frame_id=0}
  %multiply.264.clone.1 = f32[14336,4,4096]{2,1,0:T(4,128)} multiply(%div.785.clone.1, %add.817.clone.1), metadata={op_name="multiply.34"}
  %div.782.clone.1 = f32[14336,4,4096]{2,1,0:T(4,128)} divide(%add.820.clone.1, %multiply.264.clone.1), metadata={op_name="jit(train_step)/div" stack_frame_id=0}
  %mul.1543.clone.1 = f32[14336,4,4096]{2,1,0:T(4,128)} multiply(%param_0.1100, %broadcast.586.clone.1), metadata={op_name="jit(train_step)/mul" stack_frame_id=0}
  %add.816.clone.1 = f32[14336,4,4096]{2,1,0:T(4,128)} add(%div.782.clone.1, %mul.1543.clone.1), metadata={op_name="jit(train_step)/add" stack_frame_id=0}
  %mul.1542.clone.1 = f32[14336,4,4096]{2,1,0:T(4,128)} multiply(%mul.1544.clone.1, %add.816.clone.1), metadata={op_name="jit(train_step)/mul" stack_frame_id=0}
  %add.815.clone.1 = f32[14336,4,4096]{2,1,0:T(4,128)} add(%param_0.1100, %mul.1542.clone.1), metadata={op_name="jit(train_step)/add" stack_frame_id=0}
  %square.171 = f32[14336,4,4096]{2,1,0:T(4,128)} multiply(%add.815.clone.1, %add.815.clone.1), metadata={op_name="jit(train_step)/square" stack_frame_id=0}
  %constant.1001 = f32[]{:T(128)} constant(0)
  %reduce.127 = f32[]{:T(128)} reduce(%square.171, %constant.1001), dimensions={0,1,2}, to_apply=%region_52.57, metadata={op_name="jit(train_step)/reduce_sum" stack_frame_id=0}
  %reduce.130.clone.1 = f32[]{:T(128)} reduce(%integer_pow.68.clone.1, %constant.1001), dimensions={0,1,2}, to_apply=%region_38.43, metadata={op_name="jit(train_step)/reduce_sum" stack_frame_id=0}
  ROOT %tuple.137 = (f32[]{:T(128)}, f32[14336,4,4096]{2,1,0:T(4,128)}, f32[14336,4,4096]{2,1,0:T(4,128)}, f32[14336,4,4096]{2,1,0:T(4,128)}, f32[]{:T(128)}) tuple(%reduce.127, %add.815.clone.1, %add.819.clone.1, %add.820.clone.1, %reduce.130.clone.1)
}

%region_51.56 (reduce_sum.283: f32[], reduce_sum.287: f32[]) -> f32[] {
  %reduce_sum.283 = f32[]{:T(128)} parameter(0), metadata={op_name="jit(train_step)/reduce_sum"}
  %reduce_sum.287 = f32[]{:T(128)} parameter(1), metadata={op_name="jit(train_step)/reduce_sum"}
  ROOT %reduce_sum.288 = f32[]{:T(128)} add(%reduce_sum.283, %reduce_sum.287), metadata={op_name="jit(train_step)/reduce_sum" stack_frame_id=0}, backend_config={"flag_configs":[],"scoped_memory_configs":[],"used_scoped_memory_configs":[],"aliasing_operands":{"lists":[]}}
}

%region_37.42 (reduce_sum.211: f32[], reduce_sum.212: f32[]) -> f32[] {
  %reduce_sum.211 = f32[]{:T(128)} parameter(0), metadata={op_name="jit(train_step)/reduce_sum"}
  %reduce_sum.212 = f32[]{:T(128)} parameter(1), metadata={op_name="jit(train_step)/reduce_sum"}
  ROOT %reduce_sum.213 = f32[]{:T(128)} add(%reduce_sum.211, %reduce_sum.212), metadata={op_name="jit(train_step)/reduce_sum" stack_frame_id=0}, backend_config={"flag_configs":[],"scoped_memory_configs":[],"used_scoped_memory_configs":[],"aliasing_operands":{"lists":[]}}
}

%fused_computation.249 (param_0.1101: f32[4096,4,14336], param_1.1264: f32[], param_2.1100: f32[], param_3.794: f32[], param_4.494: f32[4096,4,14336], param_5.416: f32[], param_6.284: f32[4,4096,14336], param_7.183: pred[], param_8.109: f32[4096,4,14336]) -> (f32[], f32[4096,4,14336], f32[4096,4,14336], f32[4096,4,14336], f32[]) {
  %param_0.1101 = f32[4096,4,14336]{2,1,0:T(4,128)} parameter(0)
  %param_3.794 = f32[]{:T(128)S(6)} parameter(3)
  %mul.1554.clone.1 = f32[4096,4,14336]{2,1,0:T(4,128)} broadcast(%param_3.794), dimensions={}, metadata={op_name="jit(train_step)/mul" stack_frame_id=0}
  %param_7.183 = pred[]{:T(512)S(6)} parameter(7)
  %select_n.278.clone.1 = pred[4096,4,14336]{2,1,0:T(4,128)(4,1)} broadcast(%param_7.183), dimensions={}, metadata={op_name="jit(train_step)/select_n" stack_frame_id=0}
  %param_6.284 = f32[4,4096,14336]{2,0,1:T(4,128)} parameter(6)
  %bitcast.419.clone.1 = f32[4096,4,14336]{2,1,0:T(4,128)} bitcast(%param_6.284), metadata={op_name="jit(train_step)/transpose(jvp(TransformerLinenPure.apply))/TransformerLinenPure/decoder/transpose" stack_frame_id=0}
  %param_5.416 = f32[]{:T(128)} parameter(5)
  %div.797.clone.1 = f32[4096,4,14336]{2,1,0:T(4,128)} broadcast(%param_5.416), dimensions={}, metadata={op_name="jit(train_step)/div" stack_frame_id=0}
  %div.796.clone.1 = f32[4096,4,14336]{2,1,0:T(4,128)} divide(%bitcast.419.clone.1, %div.797.clone.1), metadata={op_name="jit(train_step)/div" stack_frame_id=0}
  %select_n.277.clone.1 = f32[4096,4,14336]{2,1,0:T(4,128)} select(%select_n.278.clone.1, %bitcast.419.clone.1, %div.796.clone.1), metadata={op_name="jit(train_step)/select_n" stack_frame_id=0}
  %constant.961.clone.1 = f32[]{:T(128)} constant(0.1)
  %broadcast.592.clone.1 = f32[4096,4,14336]{2,1,0:T(4,128)} broadcast(%constant.961.clone.1), dimensions={}, metadata={op_name="broadcast.71"}
  %mul.1558.clone.1 = f32[4096,4,14336]{2,1,0:T(4,128)} multiply(%select_n.277.clone.1, %broadcast.592.clone.1), metadata={op_name="jit(train_step)/mul" stack_frame_id=0}
  %param_8.109 = f32[4096,4,14336]{2,1,0:T(4,128)} parameter(8)
  %constant.965.clone.1 = f32[]{:T(128)} constant(0.9)
  %broadcast.591.clone.1 = f32[4096,4,14336]{2,1,0:T(4,128)} broadcast(%constant.965.clone.1), dimensions={}, metadata={op_name="broadcast.70"}
  %mul.1557.clone.1 = f32[4096,4,14336]{2,1,0:T(4,128)} multiply(%param_8.109, %broadcast.591.clone.1), metadata={op_name="jit(train_step)/mul" stack_frame_id=0}
  %add.825.clone.1 = f32[4096,4,14336]{2,1,0:T(4,128)} add(%mul.1558.clone.1, %mul.1557.clone.1), metadata={op_name="jit(train_step)/add" stack_frame_id=0}
  %param_2.1100 = f32[]{:T(128)S(6)} parameter(2)
  %div.793.clone.1 = f32[4096,4,14336]{2,1,0:T(4,128)} broadcast(%param_2.1100), dimensions={}, metadata={op_name="jit(train_step)/div" stack_frame_id=0}
  %integer_pow.69.clone.1 = f32[4096,4,14336]{2,1,0:T(4,128)} multiply(%select_n.277.clone.1, %select_n.277.clone.1), metadata={op_name="jit(train_step)/integer_pow" stack_frame_id=0}
  %constant.964.clone.1 = f32[]{:T(128)} constant(0.05)
  %broadcast.590.clone.1 = f32[4096,4,14336]{2,1,0:T(4,128)} broadcast(%constant.964.clone.1), dimensions={}, metadata={op_name="broadcast.60"}
  %mul.1556.clone.1 = f32[4096,4,14336]{2,1,0:T(4,128)} multiply(%integer_pow.69.clone.1, %broadcast.590.clone.1), metadata={op_name="jit(train_step)/mul" stack_frame_id=0}
  %param_4.494 = f32[4096,4,14336]{2,1,0:T(4,128)} parameter(4)
  %constant.963.clone.1 = f32[]{:T(128)} constant(0.95)
  %broadcast.589.clone.1 = f32[4096,4,14336]{2,1,0:T(4,128)} broadcast(%constant.963.clone.1), dimensions={}, metadata={op_name="broadcast.59"}
  %mul.1555.clone.1 = f32[4096,4,14336]{2,1,0:T(4,128)} multiply(%param_4.494, %broadcast.589.clone.1), metadata={op_name="jit(train_step)/mul" stack_frame_id=0}
  %add.824.clone.1 = f32[4096,4,14336]{2,1,0:T(4,128)} add(%mul.1556.clone.1, %mul.1555.clone.1), metadata={op_name="jit(train_step)/add" stack_frame_id=0}
  %param_1.1264 = f32[]{:T(128)S(6)} parameter(1)
  %div.792.clone.1 = f32[4096,4,14336]{2,1,0:T(4,128)} broadcast(%param_1.1264), dimensions={}, metadata={op_name="jit(train_step)/div" stack_frame_id=0}
  %div.791.clone.1 = f32[4096,4,14336]{2,1,0:T(4,128)} divide(%add.824.clone.1, %div.792.clone.1), metadata={op_name="jit(train_step)/div" stack_frame_id=0}
  %sqrt.67.clone.1 = f32[4096,4,14336]{2,1,0:T(4,128)} sqrt(%div.791.clone.1), metadata={op_name="jit(train_step)/sqrt" stack_frame_id=0}
  %constant.962.clone.1 = f32[]{:T(128)} constant(1e-08)
  %broadcast.587.clone.1 = f32[4096,4,14336]{2,1,0:T(4,128)} broadcast(%constant.962.clone.1), dimensions={}, metadata={op_name="broadcast.54"}
  %add.823.clone.1 = f32[4096,4,14336]{2,1,0:T(4,128)} add(%sqrt.67.clone.1, %broadcast.587.clone.1), metadata={op_name="jit(train_step)/add" stack_frame_id=0}
  %multiply.265.clone.1 = f32[4096,4,14336]{2,1,0:T(4,128)} multiply(%div.793.clone.1, %add.823.clone.1), metadata={op_name="multiply.33"}
  %div.790.clone.1 = f32[4096,4,14336]{2,1,0:T(4,128)} divide(%add.825.clone.1, %multiply.265.clone.1), metadata={op_name="jit(train_step)/div" stack_frame_id=0}
  %mul.1553.clone.1 = f32[4096,4,14336]{2,1,0:T(4,128)} multiply(%param_0.1101, %broadcast.592.clone.1), metadata={op_name="jit(train_step)/mul" stack_frame_id=0}
  %add.822.clone.1 = f32[4096,4,14336]{2,1,0:T(4,128)} add(%div.790.clone.1, %mul.1553.clone.1), metadata={op_name="jit(train_step)/add" stack_frame_id=0}
  %mul.1552.clone.1 = f32[4096,4,14336]{2,1,0:T(4,128)} multiply(%mul.1554.clone.1, %add.822.clone.1), metadata={op_name="jit(train_step)/mul" stack_frame_id=0}
  %add.821.clone.1 = f32[4096,4,14336]{2,1,0:T(4,128)} add(%param_0.1101, %mul.1552.clone.1), metadata={op_name="jit(train_step)/add" stack_frame_id=0}
  %square.172 = f32[4096,4,14336]{2,1,0:T(4,128)} multiply(%add.821.clone.1, %add.821.clone.1), metadata={op_name="jit(train_step)/square" stack_frame_id=0}
  %constant.1002 = f32[]{:T(128)} constant(0)
  %reduce.128 = f32[]{:T(128)} reduce(%square.172, %constant.1002), dimensions={0,1,2}, to_apply=%region_51.56, metadata={op_name="jit(train_step)/reduce_sum" stack_frame_id=0}
  %reduce.131.clone.1 = f32[]{:T(128)} reduce(%integer_pow.69.clone.1, %constant.1002), dimensions={0,1,2}, to_apply=%region_37.42, metadata={op_name="jit(train_step)/reduce_sum" stack_frame_id=0}
  ROOT %tuple.138 = (f32[]{:T(128)}, f32[4096,4,14336]{2,1,0:T(4,128)}, f32[4096,4,14336]{2,1,0:T(4,128)}, f32[4096,4,14336]{2,1,0:T(4,128)}, f32[]{:T(128)}) tuple(%reduce.128, %add.821.clone.1, %add.824.clone.1, %add.825.clone.1, %reduce.131.clone.1)
}

%region_50.55 (reduce_sum.280: f32[], reduce_sum.281: f32[]) -> f32[] {
  %reduce_sum.280 = f32[]{:T(128)} parameter(0), metadata={op_name="jit(train_step)/reduce_sum"}
  %reduce_sum.281 = f32[]{:T(128)} parameter(1), metadata={op_name="jit(train_step)/reduce_sum"}
  ROOT %reduce_sum.282 = f32[]{:T(128)} add(%reduce_sum.280, %reduce_sum.281), metadata={op_name="jit(train_step)/reduce_sum" stack_frame_id=0}, backend_config={"flag_configs":[],"scoped_memory_configs":[],"used_scoped_memory_configs":[],"aliasing_operands":{"lists":[]}}
}

%region_36.41 (reduce_sum.205: f32[], reduce_sum.206: f32[]) -> f32[] {
  %reduce_sum.205 = f32[]{:T(128)} parameter(0), metadata={op_name="jit(train_step)/reduce_sum"}
  %reduce_sum.206 = f32[]{:T(128)} parameter(1), metadata={op_name="jit(train_step)/reduce_sum"}
  ROOT %reduce_sum.210 = f32[]{:T(128)} add(%reduce_sum.205, %reduce_sum.206), metadata={op_name="jit(train_step)/reduce_sum" stack_frame_id=0}, backend_config={"flag_configs":[],"scoped_memory_configs":[],"used_scoped_memory_configs":[],"aliasing_operands":{"lists":[]}}
}

%fused_computation.250 (param_0.1102: f32[4096,4,14336], param_1.1265: f32[], param_2.1101: f32[], param_3.795: f32[], param_4.495: f32[4096,4,14336], param_5.417: f32[], param_6.285: f32[4,4096,14336], param_7.184: pred[], param_8.110: f32[4096,4,14336]) -> (f32[], f32[4096,4,14336], f32[4096,4,14336], f32[4096,4,14336], f32[]) {
  %param_0.1102 = f32[4096,4,14336]{2,1,0:T(4,128)} parameter(0)
  %param_3.795 = f32[]{:T(128)S(6)} parameter(3)
  %mul.1561.clone.1 = f32[4096,4,14336]{2,1,0:T(4,128)} broadcast(%param_3.795), dimensions={}, metadata={op_name="jit(train_step)/mul" stack_frame_id=0}
  %param_7.184 = pred[]{:T(512)S(6)} parameter(7)
  %select_n.282.clone.1 = pred[4096,4,14336]{2,1,0:T(4,128)(4,1)} broadcast(%param_7.184), dimensions={}, metadata={op_name="jit(train_step)/select_n" stack_frame_id=0}
  %param_6.285 = f32[4,4096,14336]{2,0,1:T(4,128)} parameter(6)
  %bitcast.421.clone.1 = f32[4096,4,14336]{2,1,0:T(4,128)} bitcast(%param_6.285), metadata={op_name="jit(train_step)/transpose(jvp(TransformerLinenPure.apply))/TransformerLinenPure/decoder/transpose" stack_frame_id=0}
  %param_5.417 = f32[]{:T(128)} parameter(5)
  %div.805.clone.1 = f32[4096,4,14336]{2,1,0:T(4,128)} broadcast(%param_5.417), dimensions={}, metadata={op_name="jit(train_step)/div" stack_frame_id=0}
  %div.804.clone.1 = f32[4096,4,14336]{2,1,0:T(4,128)} divide(%bitcast.421.clone.1, %div.805.clone.1), metadata={op_name="jit(train_step)/div" stack_frame_id=0}
  %select_n.281.clone.1 = f32[4096,4,14336]{2,1,0:T(4,128)} select(%select_n.282.clone.1, %bitcast.421.clone.1, %div.804.clone.1), metadata={op_name="jit(train_step)/select_n" stack_frame_id=0}
  %constant.967.clone.1 = f32[]{:T(128)} constant(0.1)
  %broadcast.598.clone.1 = f32[4096,4,14336]{2,1,0:T(4,128)} broadcast(%constant.967.clone.1), dimensions={}, metadata={op_name="broadcast.71"}
  %mul.1565.clone.1 = f32[4096,4,14336]{2,1,0:T(4,128)} multiply(%select_n.281.clone.1, %broadcast.598.clone.1), metadata={op_name="jit(train_step)/mul" stack_frame_id=0}
  %param_8.110 = f32[4096,4,14336]{2,1,0:T(4,128)} parameter(8)
  %constant.971.clone.1 = f32[]{:T(128)} constant(0.9)
  %broadcast.597.clone.1 = f32[4096,4,14336]{2,1,0:T(4,128)} broadcast(%constant.971.clone.1), dimensions={}, metadata={op_name="broadcast.70"}
  %mul.1564.clone.1 = f32[4096,4,14336]{2,1,0:T(4,128)} multiply(%param_8.110, %broadcast.597.clone.1), metadata={op_name="jit(train_step)/mul" stack_frame_id=0}
  %add.830.clone.1 = f32[4096,4,14336]{2,1,0:T(4,128)} add(%mul.1565.clone.1, %mul.1564.clone.1), metadata={op_name="jit(train_step)/add" stack_frame_id=0}
  %param_2.1101 = f32[]{:T(128)S(6)} parameter(2)
  %div.801.clone.1 = f32[4096,4,14336]{2,1,0:T(4,128)} broadcast(%param_2.1101), dimensions={}, metadata={op_name="jit(train_step)/div" stack_frame_id=0}
  %integer_pow.70.clone.1 = f32[4096,4,14336]{2,1,0:T(4,128)} multiply(%select_n.281.clone.1, %select_n.281.clone.1), metadata={op_name="jit(train_step)/integer_pow" stack_frame_id=0}
  %constant.970.clone.1 = f32[]{:T(128)} constant(0.05)
  %broadcast.596.clone.1 = f32[4096,4,14336]{2,1,0:T(4,128)} broadcast(%constant.970.clone.1), dimensions={}, metadata={op_name="broadcast.60"}
  %mul.1563.clone.1 = f32[4096,4,14336]{2,1,0:T(4,128)} multiply(%integer_pow.70.clone.1, %broadcast.596.clone.1), metadata={op_name="jit(train_step)/mul" stack_frame_id=0}
  %param_4.495 = f32[4096,4,14336]{2,1,0:T(4,128)} parameter(4)
  %constant.969.clone.1 = f32[]{:T(128)} constant(0.95)
  %broadcast.595.clone.1 = f32[4096,4,14336]{2,1,0:T(4,128)} broadcast(%constant.969.clone.1), dimensions={}, metadata={op_name="broadcast.59"}
  %mul.1562.clone.1 = f32[4096,4,14336]{2,1,0:T(4,128)} multiply(%param_4.495, %broadcast.595.clone.1), metadata={op_name="jit(train_step)/mul" stack_frame_id=0}
  %add.829.clone.1 = f32[4096,4,14336]{2,1,0:T(4,128)} add(%mul.1563.clone.1, %mul.1562.clone.1), metadata={op_name="jit(train_step)/add" stack_frame_id=0}
  %param_1.1265 = f32[]{:T(128)S(6)} parameter(1)
  %div.800.clone.1 = f32[4096,4,14336]{2,1,0:T(4,128)} broadcast(%param_1.1265), dimensions={}, metadata={op_name="jit(train_step)/div" stack_frame_id=0}
  %div.799.clone.1 = f32[4096,4,14336]{2,1,0:T(4,128)} divide(%add.829.clone.1, %div.800.clone.1), metadata={op_name="jit(train_step)/div" stack_frame_id=0}
  %sqrt.68.clone.1 = f32[4096,4,14336]{2,1,0:T(4,128)} sqrt(%div.799.clone.1), metadata={op_name="jit(train_step)/sqrt" stack_frame_id=0}
  %constant.968.clone.1 = f32[]{:T(128)} constant(1e-08)
  %broadcast.593.clone.1 = f32[4096,4,14336]{2,1,0:T(4,128)} broadcast(%constant.968.clone.1), dimensions={}, metadata={op_name="broadcast.54"}
  %add.828.clone.1 = f32[4096,4,14336]{2,1,0:T(4,128)} add(%sqrt.68.clone.1, %broadcast.593.clone.1), metadata={op_name="jit(train_step)/add" stack_frame_id=0}
  %multiply.266.clone.1 = f32[4096,4,14336]{2,1,0:T(4,128)} multiply(%div.801.clone.1, %add.828.clone.1), metadata={op_name="multiply.32"}
  %div.798.clone.1 = f32[4096,4,14336]{2,1,0:T(4,128)} divide(%add.830.clone.1, %multiply.266.clone.1), metadata={op_name="jit(train_step)/div" stack_frame_id=0}
  %mul.1560.clone.1 = f32[4096,4,14336]{2,1,0:T(4,128)} multiply(%param_0.1102, %broadcast.598.clone.1), metadata={op_name="jit(train_step)/mul" stack_frame_id=0}
  %add.827.clone.1 = f32[4096,4,14336]{2,1,0:T(4,128)} add(%div.798.clone.1, %mul.1560.clone.1), metadata={op_name="jit(train_step)/add" stack_frame_id=0}
  %mul.1559.clone.1 = f32[4096,4,14336]{2,1,0:T(4,128)} multiply(%mul.1561.clone.1, %add.827.clone.1), metadata={op_name="jit(train_step)/mul" stack_frame_id=0}
  %add.826.clone.1 = f32[4096,4,14336]{2,1,0:T(4,128)} add(%param_0.1102, %mul.1559.clone.1), metadata={op_name="jit(train_step)/add" stack_frame_id=0}
  %square.173 = f32[4096,4,14336]{2,1,0:T(4,128)} multiply(%add.826.clone.1, %add.826.clone.1), metadata={op_name="jit(train_step)/square" stack_frame_id=0}
  %constant.1003 = f32[]{:T(128)} constant(0)
  %reduce.129 = f32[]{:T(128)} reduce(%square.173, %constant.1003), dimensions={0,1,2}, to_apply=%region_50.55, metadata={op_name="jit(train_step)/reduce_sum" stack_frame_id=0}
  %reduce.132.clone.1 = f32[]{:T(128)} reduce(%integer_pow.70.clone.1, %constant.1003), dimensions={0,1,2}, to_apply=%region_36.41, metadata={op_name="jit(train_step)/reduce_sum" stack_frame_id=0}
  ROOT %tuple.139 = (f32[]{:T(128)}, f32[4096,4,14336]{2,1,0:T(4,128)}, f32[4096,4,14336]{2,1,0:T(4,128)}, f32[4096,4,14336]{2,1,0:T(4,128)}, f32[]{:T(128)}) tuple(%reduce.129, %add.826.clone.1, %add.829.clone.1, %add.830.clone.1, %reduce.132.clone.1)
}

%region_30.35 (reduce_sum.178: f32[], reduce_sum.182: f32[]) -> f32[] {
  %reduce_sum.178 = f32[]{:T(128)} parameter(0), metadata={op_name="jit(train_step)/reduce_sum"}
  %reduce_sum.182 = f32[]{:T(128)} parameter(1), metadata={op_name="jit(train_step)/reduce_sum"}
  ROOT %reduce_sum.183 = f32[]{:T(128)} add(%reduce_sum.178, %reduce_sum.182), metadata={op_name="jit(train_step)/reduce_sum" stack_frame_id=0}, backend_config={"flag_configs":[],"scoped_memory_configs":[],"used_scoped_memory_configs":[],"aliasing_operands":{"lists":[]}}
}

%fused_computation.268 (param_0.1106: f32[4,4096,32,128]) -> f32[] {
  %param_0.1106 = f32[4,4096,32,128]{3,2,0,1:T(8,128)} parameter(0)
  %bitcast.323 = f32[4096,4,32,128]{3,2,1,0:T(8,128)} bitcast(%param_0.1106), metadata={op_name="jit(train_step)/transpose(jvp(TransformerLinenPure.apply))/TransformerLinenPure/decoder/transpose" stack_frame_id=0}
  %square.176 = f32[4096,4,32,128]{3,2,1,0:T(8,128)} multiply(%bitcast.323, %bitcast.323), metadata={op_name="jit(train_step)/square" stack_frame_id=0}
  %constant.1007 = f32[]{:T(128)} constant(0)
  ROOT %reduce.133 = f32[]{:T(128)} reduce(%square.176, %constant.1007), dimensions={0,1,2,3}, to_apply=%region_30.35, metadata={op_name="jit(train_step)/reduce_sum" stack_frame_id=0}
}

%region_29.34 (reduce_sum.175: f32[], reduce_sum.176: f32[]) -> f32[] {
  %reduce_sum.175 = f32[]{:T(128)} parameter(0), metadata={op_name="jit(train_step)/reduce_sum"}
  %reduce_sum.176 = f32[]{:T(128)} parameter(1), metadata={op_name="jit(train_step)/reduce_sum"}
  ROOT %reduce_sum.177 = f32[]{:T(128)} add(%reduce_sum.175, %reduce_sum.176), metadata={op_name="jit(train_step)/reduce_sum" stack_frame_id=0}, backend_config={"flag_configs":[],"scoped_memory_configs":[],"used_scoped_memory_configs":[],"aliasing_operands":{"lists":[]}}
}

%fused_computation.270 (param_0.1107: f32[4,32,128,4096]) -> f32[] {
  %param_0.1107 = f32[4,32,128,4096]{3,2,0,1:T(8,128)} parameter(0)
  %bitcast.327 = f32[32,4,128,4096]{3,2,1,0:T(8,128)} bitcast(%param_0.1107), metadata={op_name="jit(train_step)/transpose(jvp(TransformerLinenPure.apply))/TransformerLinenPure/decoder/transpose" stack_frame_id=0}
  %square.179 = f32[32,4,128,4096]{3,2,1,0:T(8,128)} multiply(%bitcast.327, %bitcast.327), metadata={op_name="jit(train_step)/square" stack_frame_id=0}
  %constant.1008 = f32[]{:T(128)} constant(0)
  ROOT %reduce.134 = f32[]{:T(128)} reduce(%square.179, %constant.1008), dimensions={0,1,2,3}, to_apply=%region_29.34, metadata={op_name="jit(train_step)/reduce_sum" stack_frame_id=0}
}

%fused_computation.271 (param_0.735: f32[32,4,128,4096]) -> bf16[4,32,128,4096] {
  %param_0.735 = f32[32,4,128,4096]{3,2,1,0:T(8,128)} parameter(0)
  %copy.237 = bf16[32,4,128,4096]{3,2,0,1:T(8,128)(2,1)} copy(%param_0.735), sharding={replicated}, metadata={op_name="state.params[\'params\'][\'decoder\'][\'layers\'][\'self_attention\'][\'out\'][\'kernel\']"}
  ROOT %bitcast.328 = bf16[4,32,128,4096]{3,2,1,0:T(8,128)(2,1)} bitcast(%copy.237), metadata={op_name="jit(train_step)/jvp(TransformerLinenPure.apply)/TransformerLinenPure/decoder/transpose" stack_frame_id=0}
}

%region_57.62 (reduce_sum.317: f32[], reduce_sum.318: f32[]) -> f32[] {
  %reduce_sum.317 = f32[]{:T(128)} parameter(0), metadata={op_name="jit(train_step)/reduce_sum"}
  %reduce_sum.318 = f32[]{:T(128)} parameter(1), metadata={op_name="jit(train_step)/reduce_sum"}
  ROOT %reduce_sum.316 = f32[]{:T(128)} add(%reduce_sum.317, %reduce_sum.318), metadata={op_name="jit(train_step)/reduce_sum" stack_frame_id=0}, backend_config={"flag_configs":[],"scoped_memory_configs":[],"used_scoped_memory_configs":[],"aliasing_operands":{"lists":[]}}
}

%region_43.48 (reduce_sum.241: f32[], reduce_sum.245: f32[]) -> f32[] {
  %reduce_sum.241 = f32[]{:T(128)} parameter(0), metadata={op_name="jit(train_step)/reduce_sum"}
  %reduce_sum.245 = f32[]{:T(128)} parameter(1), metadata={op_name="jit(train_step)/reduce_sum"}
  ROOT %reduce_sum.246 = f32[]{:T(128)} add(%reduce_sum.241, %reduce_sum.245), metadata={op_name="jit(train_step)/reduce_sum" stack_frame_id=0}, backend_config={"flag_configs":[],"scoped_memory_configs":[],"used_scoped_memory_configs":[],"aliasing_operands":{"lists":[]}}
}

%fused_computation.272 (param_0.1095: f32[4096,4,32,128], param_1.1258: f32[], param_2.1094: f32[], param_3.788: f32[], param_4.488: f32[4096,4,32,128], param_5.410: f32[], param_6.278: f32[4,4096,32,128], param_7.177: pred[], param_8.103: f32[4096,4,32,128]) -> (f32[], f32[4096,4,32,128], f32[4096,4,32,128], f32[4096,4,32,128], f32[]) {
  %param_0.1095 = f32[4096,4,32,128]{3,2,1,0:T(8,128)} parameter(0)
  %param_3.788 = f32[]{:T(128)S(6)} parameter(3)
  %mul.1503.clone.1 = f32[4096,4,32,128]{3,2,1,0:T(8,128)} broadcast(%param_3.788), dimensions={}, metadata={op_name="jit(train_step)/mul" stack_frame_id=0}
  %param_7.177 = pred[]{:T(512)S(6)} parameter(7)
  %select_n.254.clone.1 = pred[4096,4,32,128]{3,2,1,0:T(8,128)(4,1)} broadcast(%param_7.177), dimensions={}, metadata={op_name="jit(train_step)/select_n" stack_frame_id=0}
  %param_6.278 = f32[4,4096,32,128]{3,2,0,1:T(8,128)} parameter(6)
  %bitcast.407.clone.1 = f32[4096,4,32,128]{3,2,1,0:T(8,128)} bitcast(%param_6.278), metadata={op_name="jit(train_step)/transpose(jvp(TransformerLinenPure.apply))/TransformerLinenPure/decoder/transpose" stack_frame_id=0}
  %param_5.410 = f32[]{:T(128)} parameter(5)
  %div.749.clone.1 = f32[4096,4,32,128]{3,2,1,0:T(8,128)} broadcast(%param_5.410), dimensions={}, metadata={op_name="jit(train_step)/div" stack_frame_id=0}
  %div.748.clone.1 = f32[4096,4,32,128]{3,2,1,0:T(8,128)} divide(%bitcast.407.clone.1, %div.749.clone.1), metadata={op_name="jit(train_step)/div" stack_frame_id=0}
  %select_n.253.clone.1 = f32[4096,4,32,128]{3,2,1,0:T(8,128)} select(%select_n.254.clone.1, %bitcast.407.clone.1, %div.748.clone.1), metadata={op_name="jit(train_step)/select_n" stack_frame_id=0}
  %constant.925.clone.1 = f32[]{:T(128)} constant(0.1)
  %broadcast.564.clone.1 = f32[4096,4,32,128]{3,2,1,0:T(8,128)} broadcast(%constant.925.clone.1), dimensions={}, metadata={op_name="broadcast.63"}
  %mul.1509.clone.1 = f32[4096,4,32,128]{3,2,1,0:T(8,128)} multiply(%select_n.253.clone.1, %broadcast.564.clone.1), metadata={op_name="jit(train_step)/mul" stack_frame_id=0}
  %param_8.103 = f32[4096,4,32,128]{3,2,1,0:T(8,128)} parameter(8)
  %constant.929.clone.1 = f32[]{:T(128)} constant(0.9)
  %mul.1510.clone.1 = f32[4096,4,32,128]{3,2,1,0:T(8,128)} broadcast(%constant.929.clone.1), dimensions={}, metadata={op_name="jit(train_step)/mul" stack_frame_id=0}
  %mul.1508.clone.1 = f32[4096,4,32,128]{3,2,1,0:T(8,128)} multiply(%param_8.103, %mul.1510.clone.1), metadata={op_name="jit(train_step)/mul" stack_frame_id=0}
  %add.793.clone.1 = f32[4096,4,32,128]{3,2,1,0:T(8,128)} add(%mul.1509.clone.1, %mul.1508.clone.1), metadata={op_name="jit(train_step)/add" stack_frame_id=0}
  %param_2.1094 = f32[]{:T(128)S(6)} parameter(2)
  %div.745.clone.1 = f32[4096,4,32,128]{3,2,1,0:T(8,128)} broadcast(%param_2.1094), dimensions={}, metadata={op_name="jit(train_step)/div" stack_frame_id=0}
  %integer_pow.63.clone.1 = f32[4096,4,32,128]{3,2,1,0:T(8,128)} multiply(%select_n.253.clone.1, %select_n.253.clone.1), metadata={op_name="jit(train_step)/integer_pow" stack_frame_id=0}
  %constant.928.clone.1 = f32[]{:T(128)} constant(0.05)
  %mul.1507.clone.1 = f32[4096,4,32,128]{3,2,1,0:T(8,128)} broadcast(%constant.928.clone.1), dimensions={}, metadata={op_name="jit(train_step)/mul" stack_frame_id=0}
  %mul.1505.clone.1 = f32[4096,4,32,128]{3,2,1,0:T(8,128)} multiply(%integer_pow.63.clone.1, %mul.1507.clone.1), metadata={op_name="jit(train_step)/mul" stack_frame_id=0}
  %param_4.488 = f32[4096,4,32,128]{3,2,1,0:T(8,128)} parameter(4)
  %constant.927.clone.1 = f32[]{:T(128)} constant(0.95)
  %mul.1506.clone.1 = f32[4096,4,32,128]{3,2,1,0:T(8,128)} broadcast(%constant.927.clone.1), dimensions={}, metadata={op_name="jit(train_step)/mul" stack_frame_id=0}
  %mul.1504.clone.1 = f32[4096,4,32,128]{3,2,1,0:T(8,128)} multiply(%param_4.488, %mul.1506.clone.1), metadata={op_name="jit(train_step)/mul" stack_frame_id=0}
  %add.792.clone.1 = f32[4096,4,32,128]{3,2,1,0:T(8,128)} add(%mul.1505.clone.1, %mul.1504.clone.1), metadata={op_name="jit(train_step)/add" stack_frame_id=0}
  %param_1.1258 = f32[]{:T(128)S(6)} parameter(1)
  %div.744.clone.1 = f32[4096,4,32,128]{3,2,1,0:T(8,128)} broadcast(%param_1.1258), dimensions={}, metadata={op_name="jit(train_step)/div" stack_frame_id=0}
  %div.743.clone.1 = f32[4096,4,32,128]{3,2,1,0:T(8,128)} divide(%add.792.clone.1, %div.744.clone.1), metadata={op_name="jit(train_step)/div" stack_frame_id=0}
  %sqrt.61.clone.1 = f32[4096,4,32,128]{3,2,1,0:T(8,128)} sqrt(%div.743.clone.1), metadata={op_name="jit(train_step)/sqrt" stack_frame_id=0}
  %constant.926.clone.1 = f32[]{:T(128)} constant(1e-08)
  %add.791.clone.1 = f32[4096,4,32,128]{3,2,1,0:T(8,128)} broadcast(%constant.926.clone.1), dimensions={}, metadata={op_name="jit(train_step)/add" stack_frame_id=0}
  %add.790.clone.1 = f32[4096,4,32,128]{3,2,1,0:T(8,128)} add(%sqrt.61.clone.1, %add.791.clone.1), metadata={op_name="jit(train_step)/add" stack_frame_id=0}
  %multiply.259.clone.1 = f32[4096,4,32,128]{3,2,1,0:T(8,128)} multiply(%div.745.clone.1, %add.790.clone.1), metadata={op_name="multiply.39"}
  %div.742.clone.1 = f32[4096,4,32,128]{3,2,1,0:T(8,128)} divide(%add.793.clone.1, %multiply.259.clone.1), metadata={op_name="jit(train_step)/div" stack_frame_id=0}
  %mul.1502.clone.1 = f32[4096,4,32,128]{3,2,1,0:T(8,128)} multiply(%param_0.1095, %broadcast.564.clone.1), metadata={op_name="jit(train_step)/mul" stack_frame_id=0}
  %add.789.clone.1 = f32[4096,4,32,128]{3,2,1,0:T(8,128)} add(%div.742.clone.1, %mul.1502.clone.1), metadata={op_name="jit(train_step)/add" stack_frame_id=0}
  %mul.1501.clone.1 = f32[4096,4,32,128]{3,2,1,0:T(8,128)} multiply(%mul.1503.clone.1, %add.789.clone.1), metadata={op_name="jit(train_step)/mul" stack_frame_id=0}
  %add.788.clone.1 = f32[4096,4,32,128]{3,2,1,0:T(8,128)} add(%param_0.1095, %mul.1501.clone.1), metadata={op_name="jit(train_step)/add" stack_frame_id=0}
  %square.180 = f32[4096,4,32,128]{3,2,1,0:T(8,128)} multiply(%add.788.clone.1, %add.788.clone.1), metadata={op_name="jit(train_step)/square" stack_frame_id=0}
  %constant.996 = f32[]{:T(128)} constant(0)
  %reduce.135 = f32[]{:T(128)} reduce(%square.180, %constant.996), dimensions={0,1,2,3}, to_apply=%region_57.62, metadata={op_name="jit(train_step)/reduce_sum" stack_frame_id=0}
  %reduce.139.clone.1 = f32[]{:T(128)} reduce(%integer_pow.63.clone.1, %constant.996), dimensions={0,1,2,3}, to_apply=%region_43.48, metadata={op_name="jit(train_step)/reduce_sum" stack_frame_id=0}
  ROOT %tuple.140 = (f32[]{:T(128)}, f32[4096,4,32,128]{3,2,1,0:T(8,128)}, f32[4096,4,32,128]{3,2,1,0:T(8,128)}, f32[4096,4,32,128]{3,2,1,0:T(8,128)}, f32[]{:T(128)}) tuple(%reduce.135, %add.788.clone.1, %add.792.clone.1, %add.793.clone.1, %reduce.139.clone.1)
}

%region_56.61 (reduce_sum.310: f32[], reduce_sum.311: f32[]) -> f32[] {
  %reduce_sum.310 = f32[]{:T(128)} parameter(0), metadata={op_name="jit(train_step)/reduce_sum"}
  %reduce_sum.311 = f32[]{:T(128)} parameter(1), metadata={op_name="jit(train_step)/reduce_sum"}
  ROOT %reduce_sum.315 = f32[]{:T(128)} add(%reduce_sum.310, %reduce_sum.311), metadata={op_name="jit(train_step)/reduce_sum" stack_frame_id=0}, backend_config={"flag_configs":[],"scoped_memory_configs":[],"used_scoped_memory_configs":[],"aliasing_operands":{"lists":[]}}
}

%region_42.47 (reduce_sum.238: f32[], reduce_sum.239: f32[]) -> f32[] {
  %reduce_sum.238 = f32[]{:T(128)} parameter(0), metadata={op_name="jit(train_step)/reduce_sum"}
  %reduce_sum.239 = f32[]{:T(128)} parameter(1), metadata={op_name="jit(train_step)/reduce_sum"}
  ROOT %reduce_sum.240 = f32[]{:T(128)} add(%reduce_sum.238, %reduce_sum.239), metadata={op_name="jit(train_step)/reduce_sum" stack_frame_id=0}, backend_config={"flag_configs":[],"scoped_memory_configs":[],"used_scoped_memory_configs":[],"aliasing_operands":{"lists":[]}}
}

%fused_computation.273 (param_0.1096: f32[32,4,128,4096], param_1.1259: f32[], param_2.1095: f32[], param_3.789: f32[], param_4.489: f32[32,4,128,4096], param_5.411: f32[], param_6.279: f32[4,32,128,4096], param_7.178: pred[], param_8.104: f32[32,4,128,4096]) -> (f32[], f32[32,4,128,4096], f32[32,4,128,4096], f32[32,4,128,4096], f32[]) {
  %param_0.1096 = f32[32,4,128,4096]{3,2,1,0:T(8,128)} parameter(0)
  %param_3.789 = f32[]{:T(128)S(6)} parameter(3)
  %mul.1513.clone.1 = f32[32,4,128,4096]{3,2,1,0:T(8,128)} broadcast(%param_3.789), dimensions={}, metadata={op_name="jit(train_step)/mul" stack_frame_id=0}
  %param_7.178 = pred[]{:T(512)S(6)} parameter(7)
  %select_n.258.clone.1 = pred[32,4,128,4096]{3,2,1,0:T(8,128)(4,1)} broadcast(%param_7.178), dimensions={}, metadata={op_name="jit(train_step)/select_n" stack_frame_id=0}
  %param_6.279 = f32[4,32,128,4096]{3,2,0,1:T(8,128)} parameter(6)
  %bitcast.409.clone.1 = f32[32,4,128,4096]{3,2,1,0:T(8,128)} bitcast(%param_6.279), metadata={op_name="jit(train_step)/transpose(jvp(TransformerLinenPure.apply))/TransformerLinenPure/decoder/transpose" stack_frame_id=0}
  %param_5.411 = f32[]{:T(128)} parameter(5)
  %div.757.clone.1 = f32[32,4,128,4096]{3,2,1,0:T(8,128)} broadcast(%param_5.411), dimensions={}, metadata={op_name="jit(train_step)/div" stack_frame_id=0}
  %div.756.clone.1 = f32[32,4,128,4096]{3,2,1,0:T(8,128)} divide(%bitcast.409.clone.1, %div.757.clone.1), metadata={op_name="jit(train_step)/div" stack_frame_id=0}
  %select_n.257.clone.1 = f32[32,4,128,4096]{3,2,1,0:T(8,128)} select(%select_n.258.clone.1, %bitcast.409.clone.1, %div.756.clone.1), metadata={op_name="jit(train_step)/select_n" stack_frame_id=0}
  %constant.931.clone.1 = f32[]{:T(128)} constant(0.1)
  %broadcast.566.clone.1 = f32[32,4,128,4096]{3,2,1,0:T(8,128)} broadcast(%constant.931.clone.1), dimensions={}, metadata={op_name="broadcast.64"}
  %mul.1519.clone.1 = f32[32,4,128,4096]{3,2,1,0:T(8,128)} multiply(%select_n.257.clone.1, %broadcast.566.clone.1), metadata={op_name="jit(train_step)/mul" stack_frame_id=0}
  %param_8.104 = f32[32,4,128,4096]{3,2,1,0:T(8,128)} parameter(8)
  %constant.935.clone.1 = f32[]{:T(128)} constant(0.9)
  %mul.1520.clone.1 = f32[32,4,128,4096]{3,2,1,0:T(8,128)} broadcast(%constant.935.clone.1), dimensions={}, metadata={op_name="jit(train_step)/mul" stack_frame_id=0}
  %mul.1518.clone.1 = f32[32,4,128,4096]{3,2,1,0:T(8,128)} multiply(%param_8.104, %mul.1520.clone.1), metadata={op_name="jit(train_step)/mul" stack_frame_id=0}
  %add.799.clone.1 = f32[32,4,128,4096]{3,2,1,0:T(8,128)} add(%mul.1519.clone.1, %mul.1518.clone.1), metadata={op_name="jit(train_step)/add" stack_frame_id=0}
  %param_2.1095 = f32[]{:T(128)S(6)} parameter(2)
  %div.753.clone.1 = f32[32,4,128,4096]{3,2,1,0:T(8,128)} broadcast(%param_2.1095), dimensions={}, metadata={op_name="jit(train_step)/div" stack_frame_id=0}
  %integer_pow.64.clone.1 = f32[32,4,128,4096]{3,2,1,0:T(8,128)} multiply(%select_n.257.clone.1, %select_n.257.clone.1), metadata={op_name="jit(train_step)/integer_pow" stack_frame_id=0}
  %constant.934.clone.1 = f32[]{:T(128)} constant(0.05)
  %mul.1517.clone.1 = f32[32,4,128,4096]{3,2,1,0:T(8,128)} broadcast(%constant.934.clone.1), dimensions={}, metadata={op_name="jit(train_step)/mul" stack_frame_id=0}
  %mul.1515.clone.1 = f32[32,4,128,4096]{3,2,1,0:T(8,128)} multiply(%integer_pow.64.clone.1, %mul.1517.clone.1), metadata={op_name="jit(train_step)/mul" stack_frame_id=0}
  %param_4.489 = f32[32,4,128,4096]{3,2,1,0:T(8,128)} parameter(4)
  %constant.933.clone.1 = f32[]{:T(128)} constant(0.95)
  %mul.1516.clone.1 = f32[32,4,128,4096]{3,2,1,0:T(8,128)} broadcast(%constant.933.clone.1), dimensions={}, metadata={op_name="jit(train_step)/mul" stack_frame_id=0}
  %mul.1514.clone.1 = f32[32,4,128,4096]{3,2,1,0:T(8,128)} multiply(%param_4.489, %mul.1516.clone.1), metadata={op_name="jit(train_step)/mul" stack_frame_id=0}
  %add.798.clone.1 = f32[32,4,128,4096]{3,2,1,0:T(8,128)} add(%mul.1515.clone.1, %mul.1514.clone.1), metadata={op_name="jit(train_step)/add" stack_frame_id=0}
  %param_1.1259 = f32[]{:T(128)S(6)} parameter(1)
  %div.752.clone.1 = f32[32,4,128,4096]{3,2,1,0:T(8,128)} broadcast(%param_1.1259), dimensions={}, metadata={op_name="jit(train_step)/div" stack_frame_id=0}
  %div.751.clone.1 = f32[32,4,128,4096]{3,2,1,0:T(8,128)} divide(%add.798.clone.1, %div.752.clone.1), metadata={op_name="jit(train_step)/div" stack_frame_id=0}
  %sqrt.62.clone.1 = f32[32,4,128,4096]{3,2,1,0:T(8,128)} sqrt(%div.751.clone.1), metadata={op_name="jit(train_step)/sqrt" stack_frame_id=0}
  %constant.932.clone.1 = f32[]{:T(128)} constant(1e-08)
  %add.797.clone.1 = f32[32,4,128,4096]{3,2,1,0:T(8,128)} broadcast(%constant.932.clone.1), dimensions={}, metadata={op_name="jit(train_step)/add" stack_frame_id=0}
  %add.796.clone.1 = f32[32,4,128,4096]{3,2,1,0:T(8,128)} add(%sqrt.62.clone.1, %add.797.clone.1), metadata={op_name="jit(train_step)/add" stack_frame_id=0}
  %multiply.260.clone.1 = f32[32,4,128,4096]{3,2,1,0:T(8,128)} multiply(%div.753.clone.1, %add.796.clone.1), metadata={op_name="multiply.38"}
  %div.750.clone.1 = f32[32,4,128,4096]{3,2,1,0:T(8,128)} divide(%add.799.clone.1, %multiply.260.clone.1), metadata={op_name="jit(train_step)/div" stack_frame_id=0}
  %mul.1512.clone.1 = f32[32,4,128,4096]{3,2,1,0:T(8,128)} multiply(%param_0.1096, %broadcast.566.clone.1), metadata={op_name="jit(train_step)/mul" stack_frame_id=0}
  %add.795.clone.1 = f32[32,4,128,4096]{3,2,1,0:T(8,128)} add(%div.750.clone.1, %mul.1512.clone.1), metadata={op_name="jit(train_step)/add" stack_frame_id=0}
  %mul.1511.clone.1 = f32[32,4,128,4096]{3,2,1,0:T(8,128)} multiply(%mul.1513.clone.1, %add.795.clone.1), metadata={op_name="jit(train_step)/mul" stack_frame_id=0}
  %add.794.clone.1 = f32[32,4,128,4096]{3,2,1,0:T(8,128)} add(%param_0.1096, %mul.1511.clone.1), metadata={op_name="jit(train_step)/add" stack_frame_id=0}
  %square.181 = f32[32,4,128,4096]{3,2,1,0:T(8,128)} multiply(%add.794.clone.1, %add.794.clone.1), metadata={op_name="jit(train_step)/square" stack_frame_id=0}
  %constant.997 = f32[]{:T(128)} constant(0)
  %reduce.136 = f32[]{:T(128)} reduce(%square.181, %constant.997), dimensions={0,1,2,3}, to_apply=%region_56.61, metadata={op_name="jit(train_step)/reduce_sum" stack_frame_id=0}
  %reduce.140.clone.1 = f32[]{:T(128)} reduce(%integer_pow.64.clone.1, %constant.997), dimensions={0,1,2,3}, to_apply=%region_42.47, metadata={op_name="jit(train_step)/reduce_sum" stack_frame_id=0}
  ROOT %tuple.141 = (f32[]{:T(128)}, f32[32,4,128,4096]{3,2,1,0:T(8,128)}, f32[32,4,128,4096]{3,2,1,0:T(8,128)}, f32[32,4,128,4096]{3,2,1,0:T(8,128)}, f32[]{:T(128)}) tuple(%reduce.136, %add.794.clone.1, %add.798.clone.1, %add.799.clone.1, %reduce.140.clone.1)
}

%region_47.52 (reduce_sum.262: f32[], reduce_sum.266: f32[]) -> f32[] {
  %reduce_sum.262 = f32[]{:T(128)} parameter(0), metadata={op_name="jit(train_step)/jvp()/reduce_sum"}
  %reduce_sum.266 = f32[]{:T(128)} parameter(1), metadata={op_name="jit(train_step)/jvp()/reduce_sum"}
  ROOT %reduce_sum.267 = f32[]{:T(128)} add(%reduce_sum.262, %reduce_sum.266), metadata={op_name="jit(train_step)/jvp()/reduce_sum" stack_frame_id=0}, backend_config={"flag_configs":[],"scoped_memory_configs":[],"used_scoped_memory_configs":[],"aliasing_operands":{"lists":[]}}
}

%fused_computation.280 (param_0.1115: bf16[4,128,128256], param_1.1274: f32[4,128], param_2.1106: s32[4,128], param_3.799: bf16[4,128]) -> f32[4,128] {
  %param_2.1106 = s32[4,128]{1,0:T(4,128)S(1)} parameter(2)
  %eq.30 = s32[4,128,128256]{2,1,0:T(8,128)} broadcast(%param_2.1106), dimensions={0,1}, metadata={op_name="jit(train_step)/jvp(jit(_one_hot))/eq" stack_frame_id=0}
  %eq.25 = s32[4,128,128256]{2,1,0:T(8,128)} iota(), iota_dimension=2, metadata={op_name="jit(train_step)/jvp(jit(_one_hot))/eq" stack_frame_id=0}
  %eq.24 = pred[4,128,128256]{2,1,0:T(8,128)(4,1)} compare(%eq.30, %eq.25), direction=EQ, metadata={op_name="jit(train_step)/jvp(jit(_one_hot))/eq" stack_frame_id=0}
  %param_0.1115 = bf16[4,128,128256]{2,1,0:T(8,128)(2,1)} parameter(0)
  %convert_element_type.938 = f32[4,128,128256]{2,1,0:T(8,128)} convert(%param_0.1115), metadata={op_name="jit(train_step)/jvp(TransformerLinenPure.apply)/TransformerLinenPure/decoder/decoder.apply_output_head/convert_element_type" stack_frame_id=0}
  %param_3.799 = bf16[4,128]{1,0:T(4,128)(2,1)S(1)} parameter(3)
  %sub.73 = f32[4,128,128256]{2,1,0:T(8,128)} broadcast(%param_3.799), dimensions={0,1}, metadata={op_name="jit(train_step)/jvp()/sub" stack_frame_id=0}
  %sub.64 = f32[4,128,128256]{2,1,0:T(8,128)} subtract(%convert_element_type.938, %sub.73), metadata={op_name="jit(train_step)/jvp()/sub" stack_frame_id=0}
  %param_1.1274 = f32[4,128]{1,0:T(4,128)S(1)} parameter(1)
  %sub.71 = f32[4,128,128256]{2,1,0:T(8,128)} broadcast(%param_1.1274), dimensions={0,1}, metadata={op_name="jit(train_step)/jvp()/sub" stack_frame_id=0}
  %sub.60 = f32[4,128,128256]{2,1,0:T(8,128)} subtract(%sub.64, %sub.71), metadata={op_name="jit(train_step)/jvp()/sub" stack_frame_id=0}
  %constant.1017 = f32[]{:T(128)} constant(0)
  %broadcast.511 = f32[4,128,128256]{2,1,0:T(8,128)} broadcast(%constant.1017), dimensions={}, metadata={op_name="broadcast.83"}
  %mul.1367 = f32[4,128,128256]{2,1,0:T(8,128)} select(%eq.24, %sub.60, %broadcast.511), metadata={op_name="jit(train_step)/jvp()/mul" stack_frame_id=0}
  ROOT %reduce.137 = f32[4,128]{1,0:T(4,128)S(1)} reduce(%mul.1367, %constant.1017), dimensions={2}, to_apply=%region_47.52, metadata={op_name="jit(train_step)/jvp()/reduce_sum" stack_frame_id=0}
}

%region_7.10 (reduce_sum.93: f32[], reduce_sum.94: f32[]) -> f32[] {
  %reduce_sum.93 = f32[]{:T(128)} parameter(0), metadata={op_name="jit(train_step)/jvp()/reduce_sum"}
  %reduce_sum.94 = f32[]{:T(128)} parameter(1), metadata={op_name="jit(train_step)/jvp()/reduce_sum"}
  ROOT %reduce_sum.95 = f32[]{:T(128)} add(%reduce_sum.93, %reduce_sum.94), metadata={op_name="jit(train_step)/jvp()/reduce_sum" stack_frame_id=0}, backend_config={"flag_configs":[],"scoped_memory_configs":[],"used_scoped_memory_configs":[],"aliasing_operands":{"lists":[]}}
}

%fused_computation.285 (param_0.1116: bf16[4,128,128256], param_1.1275: bf16[4,128]) -> f32[4,128] {
  %param_0.1116 = bf16[4,128,128256]{2,1,0:T(8,128)(2,1)} parameter(0)
  %convert_element_type.944 = f32[4,128,128256]{2,1,0:T(8,128)} convert(%param_0.1116), metadata={op_name="jit(train_step)/jvp(TransformerLinenPure.apply)/TransformerLinenPure/decoder/decoder.apply_output_head/convert_element_type" stack_frame_id=0}
  %param_1.1275 = bf16[4,128]{1,0:T(4,128)(2,1)S(1)} parameter(1)
  %sub.74 = f32[4,128,128256]{2,1,0:T(8,128)} broadcast(%param_1.1275), dimensions={0,1}, metadata={op_name="jit(train_step)/jvp()/sub" stack_frame_id=0}
  %sub.70 = f32[4,128,128256]{2,1,0:T(8,128)} subtract(%convert_element_type.944, %sub.74), metadata={op_name="jit(train_step)/jvp()/sub" stack_frame_id=0}
  %exp.54 = f32[4,128,128256]{2,1,0:T(8,128)} exponential(%sub.70), metadata={op_name="jit(train_step)/jvp()/exp" stack_frame_id=0}
  %constant.1018 = f32[]{:T(128)} constant(0)
  ROOT %reduce.138 = f32[4,128]{1,0:T(4,128)S(1)} reduce(%exp.54, %constant.1018), dimensions={2}, to_apply=%region_7.10, metadata={op_name="jit(train_step)/jvp()/reduce_sum" stack_frame_id=0}
}

%region_31.36 (reduce_sum.184: f32[], reduce_sum.185: f32[]) -> f32[] {
  %reduce_sum.184 = f32[]{:T(128)} parameter(0), metadata={op_name="jit(train_step)/reduce_sum"}
  %reduce_sum.185 = f32[]{:T(128)} parameter(1), metadata={op_name="jit(train_step)/reduce_sum"}
  ROOT %reduce_sum.189 = f32[]{:T(128)} add(%reduce_sum.184, %reduce_sum.185), metadata={op_name="jit(train_step)/reduce_sum" stack_frame_id=0}, backend_config={"flag_configs":[],"scoped_memory_configs":[],"used_scoped_memory_configs":[],"aliasing_operands":{"lists":[]}}
}

%region_28.33 (reduce_sum.169: f32[], reduce_sum.170: f32[]) -> f32[] {
  %reduce_sum.169 = f32[]{:T(128)} parameter(0), metadata={op_name="jit(train_step)/reduce_sum"}
  %reduce_sum.170 = f32[]{:T(128)} parameter(1), metadata={op_name="jit(train_step)/reduce_sum"}
  ROOT %reduce_sum.171 = f32[]{:T(128)} add(%reduce_sum.169, %reduce_sum.170), metadata={op_name="jit(train_step)/reduce_sum" stack_frame_id=0}, backend_config={"flag_configs":[],"scoped_memory_configs":[],"used_scoped_memory_configs":[],"aliasing_operands":{"lists":[]}}
}

%fused_computation.291 (param_0.1108: f32[4,4096,8,128], param_1.1268: f32[4,4096,8,128]) -> (f32[], f32[]) {
  %param_0.1108 = f32[4,4096,8,128]{3,2,0,1:T(8,128)} parameter(0)
  %bitcast.344 = f32[4096,4,8,128]{3,2,1,0:T(8,128)} bitcast(%param_0.1108), metadata={op_name="jit(train_step)/transpose(jvp(TransformerLinenPure.apply))/TransformerLinenPure/decoder/transpose" stack_frame_id=0}
  %square.184 = f32[4096,4,8,128]{3,2,1,0:T(8,128)} multiply(%bitcast.344, %bitcast.344), metadata={op_name="jit(train_step)/square" stack_frame_id=0}
  %constant.1009 = f32[]{:T(128)} constant(0)
  %reduce.141 = f32[]{:T(128)} reduce(%square.184, %constant.1009), dimensions={0,1,2,3}, to_apply=%region_31.36, metadata={op_name="jit(train_step)/reduce_sum" stack_frame_id=0}
  %param_1.1268 = f32[4,4096,8,128]{3,2,0,1:T(8,128)S(1)} parameter(1)
  %bitcast.348.clone.1 = f32[4096,4,8,128]{3,2,1,0:T(8,128)} bitcast(%param_1.1268), metadata={op_name="jit(train_step)/transpose(jvp(TransformerLinenPure.apply))/TransformerLinenPure/decoder/transpose" stack_frame_id=0}
  %square.187.clone.1 = f32[4096,4,8,128]{3,2,1,0:T(8,128)} multiply(%bitcast.348.clone.1, %bitcast.348.clone.1), metadata={op_name="jit(train_step)/square" stack_frame_id=0}
  %reduce.142.clone.1 = f32[]{:T(128)} reduce(%square.187.clone.1, %constant.1009), dimensions={0,1,2,3}, to_apply=%region_28.33, metadata={op_name="jit(train_step)/reduce_sum" stack_frame_id=0}
  ROOT %tuple.156 = (f32[]{:T(128)}, f32[]{:T(128)}) tuple(%reduce.141, %reduce.142.clone.1)
}

%fused_computation.294 (param_0.794: f32[4096,4,8,128]) -> bf16[4,4096,8,128] {
  %param_0.794 = f32[4096,4,8,128]{3,2,1,0:T(8,128)S(1)} parameter(0)
  %copy.238 = bf16[4096,4,8,128]{3,2,0,1:T(8,128)(2,1)} copy(%param_0.794), sharding={replicated}, metadata={op_name="state.params[\'params\'][\'decoder\'][\'layers\'][\'self_attention\'][\'value\'][\'kernel\']"}
  ROOT %bitcast.349 = bf16[4,4096,8,128]{3,2,1,0:T(8,128)(2,1)} bitcast(%copy.238), metadata={op_name="jit(train_step)/jvp(TransformerLinenPure.apply)/TransformerLinenPure/decoder/transpose" stack_frame_id=0}
}

%region_58.63 (reduce_sum.324: f32[], reduce_sum.325: f32[]) -> f32[] {
  %reduce_sum.324 = f32[]{:T(128)} parameter(0), metadata={op_name="jit(train_step)/reduce_sum"}
  %reduce_sum.325 = f32[]{:T(128)} parameter(1), metadata={op_name="jit(train_step)/reduce_sum"}
  ROOT %reduce_sum.322 = f32[]{:T(128)} add(%reduce_sum.324, %reduce_sum.325), metadata={op_name="jit(train_step)/reduce_sum" stack_frame_id=0}, backend_config={"flag_configs":[],"scoped_memory_configs":[],"used_scoped_memory_configs":[],"aliasing_operands":{"lists":[]}}
}

%region_44.49 (reduce_sum.247: f32[], reduce_sum.248: f32[]) -> f32[] {
  %reduce_sum.247 = f32[]{:T(128)} parameter(0), metadata={op_name="jit(train_step)/reduce_sum"}
  %reduce_sum.248 = f32[]{:T(128)} parameter(1), metadata={op_name="jit(train_step)/reduce_sum"}
  ROOT %reduce_sum.252 = f32[]{:T(128)} add(%reduce_sum.247, %reduce_sum.248), metadata={op_name="jit(train_step)/reduce_sum" stack_frame_id=0}, backend_config={"flag_configs":[],"scoped_memory_configs":[],"used_scoped_memory_configs":[],"aliasing_operands":{"lists":[]}}
}

%fused_computation.295 (param_0.1094: f32[4096,4,8,128], param_1.1257: f32[], param_2.1093: f32[], param_3.787: f32[], param_4.487: f32[4096,4,8,128], param_5.409: f32[], param_6.277: f32[4,4096,8,128], param_7.176: pred[], param_8.102: f32[4096,4,8,128]) -> (f32[], f32[4096,4,8,128], f32[4096,4,8,128], f32[4096,4,8,128], f32[]) {
  %param_0.1094 = f32[4096,4,8,128]{3,2,1,0:T(8,128)S(1)} parameter(0)
  %param_3.787 = f32[]{:T(128)S(6)} parameter(3)
  %mul.1496.clone.1 = f32[4096,4,8,128]{3,2,1,0:T(8,128)} broadcast(%param_3.787), dimensions={}, metadata={op_name="jit(train_step)/mul" stack_frame_id=0}
  %param_7.176 = pred[]{:T(512)S(6)} parameter(7)
  %select_n.250.clone.1 = pred[4096,4,8,128]{3,2,1,0:T(8,128)(4,1)} broadcast(%param_7.176), dimensions={}, metadata={op_name="jit(train_step)/select_n" stack_frame_id=0}
  %param_6.277 = f32[4,4096,8,128]{3,2,0,1:T(8,128)} parameter(6)
  %bitcast.405.clone.1 = f32[4096,4,8,128]{3,2,1,0:T(8,128)} bitcast(%param_6.277), metadata={op_name="jit(train_step)/transpose(jvp(TransformerLinenPure.apply))/TransformerLinenPure/decoder/transpose" stack_frame_id=0}
  %param_5.409 = f32[]{:T(128)} parameter(5)
  %div.741.clone.1 = f32[4096,4,8,128]{3,2,1,0:T(8,128)} broadcast(%param_5.409), dimensions={}, metadata={op_name="jit(train_step)/div" stack_frame_id=0}
  %div.740.clone.1 = f32[4096,4,8,128]{3,2,1,0:T(8,128)} divide(%bitcast.405.clone.1, %div.741.clone.1), metadata={op_name="jit(train_step)/div" stack_frame_id=0}
  %select_n.249.clone.1 = f32[4096,4,8,128]{3,2,1,0:T(8,128)} select(%select_n.250.clone.1, %bitcast.405.clone.1, %div.740.clone.1), metadata={op_name="jit(train_step)/select_n" stack_frame_id=0}
  %constant.919.clone.1 = f32[]{:T(128)} constant(0.1)
  %broadcast.562.clone.1 = f32[4096,4,8,128]{3,2,1,0:T(8,128)} broadcast(%constant.919.clone.1), dimensions={}, metadata={op_name="broadcast.66"}
  %mul.1500.clone.1 = f32[4096,4,8,128]{3,2,1,0:T(8,128)} multiply(%select_n.249.clone.1, %broadcast.562.clone.1), metadata={op_name="jit(train_step)/mul" stack_frame_id=0}
  %param_8.102 = f32[4096,4,8,128]{3,2,1,0:T(8,128)} parameter(8)
  %constant.923.clone.1 = f32[]{:T(128)} constant(0.9)
  %broadcast.561.clone.1 = f32[4096,4,8,128]{3,2,1,0:T(8,128)} broadcast(%constant.923.clone.1), dimensions={}, metadata={op_name="broadcast.65"}
  %mul.1499.clone.1 = f32[4096,4,8,128]{3,2,1,0:T(8,128)} multiply(%param_8.102, %broadcast.561.clone.1), metadata={op_name="jit(train_step)/mul" stack_frame_id=0}
  %add.787.clone.1 = f32[4096,4,8,128]{3,2,1,0:T(8,128)} add(%mul.1500.clone.1, %mul.1499.clone.1), metadata={op_name="jit(train_step)/add" stack_frame_id=0}
  %param_2.1093 = f32[]{:T(128)S(6)} parameter(2)
  %div.737.clone.1 = f32[4096,4,8,128]{3,2,1,0:T(8,128)} broadcast(%param_2.1093), dimensions={}, metadata={op_name="jit(train_step)/div" stack_frame_id=0}
  %integer_pow.62.clone.1 = f32[4096,4,8,128]{3,2,1,0:T(8,128)} multiply(%select_n.249.clone.1, %select_n.249.clone.1), metadata={op_name="jit(train_step)/integer_pow" stack_frame_id=0}
  %constant.922.clone.1 = f32[]{:T(128)} constant(0.05)
  %broadcast.560.clone.1 = f32[4096,4,8,128]{3,2,1,0:T(8,128)} broadcast(%constant.922.clone.1), dimensions={}, metadata={op_name="broadcast.56"}
  %mul.1498.clone.1 = f32[4096,4,8,128]{3,2,1,0:T(8,128)} multiply(%integer_pow.62.clone.1, %broadcast.560.clone.1), metadata={op_name="jit(train_step)/mul" stack_frame_id=0}
  %param_4.487 = f32[4096,4,8,128]{3,2,1,0:T(8,128)} parameter(4)
  %constant.921.clone.1 = f32[]{:T(128)} constant(0.95)
  %broadcast.559.clone.1 = f32[4096,4,8,128]{3,2,1,0:T(8,128)} broadcast(%constant.921.clone.1), dimensions={}, metadata={op_name="broadcast.55"}
  %mul.1497.clone.1 = f32[4096,4,8,128]{3,2,1,0:T(8,128)} multiply(%param_4.487, %broadcast.559.clone.1), metadata={op_name="jit(train_step)/mul" stack_frame_id=0}
  %add.786.clone.1 = f32[4096,4,8,128]{3,2,1,0:T(8,128)} add(%mul.1498.clone.1, %mul.1497.clone.1), metadata={op_name="jit(train_step)/add" stack_frame_id=0}
  %param_1.1257 = f32[]{:T(128)S(6)} parameter(1)
  %div.736.clone.1 = f32[4096,4,8,128]{3,2,1,0:T(8,128)} broadcast(%param_1.1257), dimensions={}, metadata={op_name="jit(train_step)/div" stack_frame_id=0}
  %div.735.clone.1 = f32[4096,4,8,128]{3,2,1,0:T(8,128)} divide(%add.786.clone.1, %div.736.clone.1), metadata={op_name="jit(train_step)/div" stack_frame_id=0}
  %sqrt.60.clone.1 = f32[4096,4,8,128]{3,2,1,0:T(8,128)} sqrt(%div.735.clone.1), metadata={op_name="jit(train_step)/sqrt" stack_frame_id=0}
  %constant.920.clone.1 = f32[]{:T(128)} constant(1e-08)
  %broadcast.557.clone.1 = f32[4096,4,8,128]{3,2,1,0:T(8,128)} broadcast(%constant.920.clone.1), dimensions={}, metadata={op_name="broadcast.52"}
  %add.785.clone.1 = f32[4096,4,8,128]{3,2,1,0:T(8,128)} add(%sqrt.60.clone.1, %broadcast.557.clone.1), metadata={op_name="jit(train_step)/add" stack_frame_id=0}
  %multiply.258.clone.1 = f32[4096,4,8,128]{3,2,1,0:T(8,128)} multiply(%div.737.clone.1, %add.785.clone.1), metadata={op_name="multiply.40"}
  %div.734.clone.1 = f32[4096,4,8,128]{3,2,1,0:T(8,128)} divide(%add.787.clone.1, %multiply.258.clone.1), metadata={op_name="jit(train_step)/div" stack_frame_id=0}
  %mul.1495.clone.1 = f32[4096,4,8,128]{3,2,1,0:T(8,128)} multiply(%param_0.1094, %broadcast.562.clone.1), metadata={op_name="jit(train_step)/mul" stack_frame_id=0}
  %add.784.clone.1 = f32[4096,4,8,128]{3,2,1,0:T(8,128)} add(%div.734.clone.1, %mul.1495.clone.1), metadata={op_name="jit(train_step)/add" stack_frame_id=0}
  %mul.1494.clone.1 = f32[4096,4,8,128]{3,2,1,0:T(8,128)} multiply(%mul.1496.clone.1, %add.784.clone.1), metadata={op_name="jit(train_step)/mul" stack_frame_id=0}
  %add.783.clone.1 = f32[4096,4,8,128]{3,2,1,0:T(8,128)S(1)} add(%param_0.1094, %mul.1494.clone.1), metadata={op_name="jit(train_step)/add" stack_frame_id=0}
  %square.188 = f32[4096,4,8,128]{3,2,1,0:T(8,128)} multiply(%add.783.clone.1, %add.783.clone.1), metadata={op_name="jit(train_step)/square" stack_frame_id=0}
  %constant.995 = f32[]{:T(128)} constant(0)
  %reduce.143 = f32[]{:T(128)} reduce(%square.188, %constant.995), dimensions={0,1,2,3}, to_apply=%region_58.63, metadata={op_name="jit(train_step)/reduce_sum" stack_frame_id=0}
  %reduce.145.clone.1 = f32[]{:T(128)} reduce(%integer_pow.62.clone.1, %constant.995), dimensions={0,1,2,3}, to_apply=%region_44.49, metadata={op_name="jit(train_step)/reduce_sum" stack_frame_id=0}
  ROOT %tuple.142 = (f32[]{:T(128)}, f32[4096,4,8,128]{3,2,1,0:T(8,128)S(1)}, f32[4096,4,8,128]{3,2,1,0:T(8,128)}, f32[4096,4,8,128]{3,2,1,0:T(8,128)}, f32[]{:T(128)}) tuple(%reduce.143, %add.783.clone.1, %add.786.clone.1, %add.787.clone.1, %reduce.145.clone.1)
}

%region_55.60 (reduce_sum.304: f32[], reduce_sum.308: f32[]) -> f32[] {
  %reduce_sum.304 = f32[]{:T(128)} parameter(0), metadata={op_name="jit(train_step)/reduce_sum"}
  %reduce_sum.308 = f32[]{:T(128)} parameter(1), metadata={op_name="jit(train_step)/reduce_sum"}
  ROOT %reduce_sum.309 = f32[]{:T(128)} add(%reduce_sum.304, %reduce_sum.308), metadata={op_name="jit(train_step)/reduce_sum" stack_frame_id=0}, backend_config={"flag_configs":[],"scoped_memory_configs":[],"used_scoped_memory_configs":[],"aliasing_operands":{"lists":[]}}
}

%region_41.46 (reduce_sum.232: f32[], reduce_sum.233: f32[]) -> f32[] {
  %reduce_sum.232 = f32[]{:T(128)} parameter(0), metadata={op_name="jit(train_step)/reduce_sum"}
  %reduce_sum.233 = f32[]{:T(128)} parameter(1), metadata={op_name="jit(train_step)/reduce_sum"}
  ROOT %reduce_sum.234 = f32[]{:T(128)} add(%reduce_sum.232, %reduce_sum.233), metadata={op_name="jit(train_step)/reduce_sum" stack_frame_id=0}, backend_config={"flag_configs":[],"scoped_memory_configs":[],"used_scoped_memory_configs":[],"aliasing_operands":{"lists":[]}}
}

%fused_computation.296 (param_0.1097: f32[4096,4,8,128], param_1.1260: f32[], param_2.1096: f32[], param_3.790: f32[], param_4.490: f32[4096,4,8,128], param_5.412: f32[], param_6.280: f32[4,4096,8,128], param_7.179: pred[], param_8.105: f32[4096,4,8,128]) -> (f32[], f32[4096,4,8,128], f32[4096,4,8,128], f32[4096,4,8,128], f32[]) {
  %param_0.1097 = f32[4096,4,8,128]{3,2,1,0:T(8,128)} parameter(0)
  %param_3.790 = f32[]{:T(128)S(6)} parameter(3)
  %mul.1523.clone.1 = f32[4096,4,8,128]{3,2,1,0:T(8,128)} broadcast(%param_3.790), dimensions={}, metadata={op_name="jit(train_step)/mul" stack_frame_id=0}
  %param_7.179 = pred[]{:T(512)S(6)} parameter(7)
  %select_n.262.clone.1 = pred[4096,4,8,128]{3,2,1,0:T(8,128)(4,1)} broadcast(%param_7.179), dimensions={}, metadata={op_name="jit(train_step)/select_n" stack_frame_id=0}
  %param_6.280 = f32[4,4096,8,128]{3,2,0,1:T(8,128)S(1)} parameter(6)
  %bitcast.411.clone.1 = f32[4096,4,8,128]{3,2,1,0:T(8,128)} bitcast(%param_6.280), metadata={op_name="jit(train_step)/transpose(jvp(TransformerLinenPure.apply))/TransformerLinenPure/decoder/transpose" stack_frame_id=0}
  %param_5.412 = f32[]{:T(128)} parameter(5)
  %div.765.clone.1 = f32[4096,4,8,128]{3,2,1,0:T(8,128)} broadcast(%param_5.412), dimensions={}, metadata={op_name="jit(train_step)/div" stack_frame_id=0}
  %div.764.clone.1 = f32[4096,4,8,128]{3,2,1,0:T(8,128)} divide(%bitcast.411.clone.1, %div.765.clone.1), metadata={op_name="jit(train_step)/div" stack_frame_id=0}
  %select_n.261.clone.1 = f32[4096,4,8,128]{3,2,1,0:T(8,128)} select(%select_n.262.clone.1, %bitcast.411.clone.1, %div.764.clone.1), metadata={op_name="jit(train_step)/select_n" stack_frame_id=0}
  %constant.937.clone.1 = f32[]{:T(128)} constant(0.1)
  %broadcast.572.clone.1 = f32[4096,4,8,128]{3,2,1,0:T(8,128)} broadcast(%constant.937.clone.1), dimensions={}, metadata={op_name="broadcast.66"}
  %mul.1527.clone.1 = f32[4096,4,8,128]{3,2,1,0:T(8,128)} multiply(%select_n.261.clone.1, %broadcast.572.clone.1), metadata={op_name="jit(train_step)/mul" stack_frame_id=0}
  %param_8.105 = f32[4096,4,8,128]{3,2,1,0:T(8,128)} parameter(8)
  %constant.941.clone.1 = f32[]{:T(128)} constant(0.9)
  %broadcast.571.clone.1 = f32[4096,4,8,128]{3,2,1,0:T(8,128)} broadcast(%constant.941.clone.1), dimensions={}, metadata={op_name="broadcast.65"}
  %mul.1526.clone.1 = f32[4096,4,8,128]{3,2,1,0:T(8,128)} multiply(%param_8.105, %broadcast.571.clone.1), metadata={op_name="jit(train_step)/mul" stack_frame_id=0}
  %add.804.clone.1 = f32[4096,4,8,128]{3,2,1,0:T(8,128)} add(%mul.1527.clone.1, %mul.1526.clone.1), metadata={op_name="jit(train_step)/add" stack_frame_id=0}
  %param_2.1096 = f32[]{:T(128)S(6)} parameter(2)
  %div.761.clone.1 = f32[4096,4,8,128]{3,2,1,0:T(8,128)} broadcast(%param_2.1096), dimensions={}, metadata={op_name="jit(train_step)/div" stack_frame_id=0}
  %integer_pow.65.clone.1 = f32[4096,4,8,128]{3,2,1,0:T(8,128)} multiply(%select_n.261.clone.1, %select_n.261.clone.1), metadata={op_name="jit(train_step)/integer_pow" stack_frame_id=0}
  %constant.940.clone.1 = f32[]{:T(128)} constant(0.05)
  %broadcast.570.clone.1 = f32[4096,4,8,128]{3,2,1,0:T(8,128)} broadcast(%constant.940.clone.1), dimensions={}, metadata={op_name="broadcast.56"}
  %mul.1525.clone.1 = f32[4096,4,8,128]{3,2,1,0:T(8,128)} multiply(%integer_pow.65.clone.1, %broadcast.570.clone.1), metadata={op_name="jit(train_step)/mul" stack_frame_id=0}
  %param_4.490 = f32[4096,4,8,128]{3,2,1,0:T(8,128)} parameter(4)
  %constant.939.clone.1 = f32[]{:T(128)} constant(0.95)
  %broadcast.569.clone.1 = f32[4096,4,8,128]{3,2,1,0:T(8,128)} broadcast(%constant.939.clone.1), dimensions={}, metadata={op_name="broadcast.55"}
  %mul.1524.clone.1 = f32[4096,4,8,128]{3,2,1,0:T(8,128)} multiply(%param_4.490, %broadcast.569.clone.1), metadata={op_name="jit(train_step)/mul" stack_frame_id=0}
  %add.803.clone.1 = f32[4096,4,8,128]{3,2,1,0:T(8,128)} add(%mul.1525.clone.1, %mul.1524.clone.1), metadata={op_name="jit(train_step)/add" stack_frame_id=0}
  %param_1.1260 = f32[]{:T(128)S(6)} parameter(1)
  %div.760.clone.1 = f32[4096,4,8,128]{3,2,1,0:T(8,128)} broadcast(%param_1.1260), dimensions={}, metadata={op_name="jit(train_step)/div" stack_frame_id=0}
  %div.759.clone.1 = f32[4096,4,8,128]{3,2,1,0:T(8,128)} divide(%add.803.clone.1, %div.760.clone.1), metadata={op_name="jit(train_step)/div" stack_frame_id=0}
  %sqrt.63.clone.1 = f32[4096,4,8,128]{3,2,1,0:T(8,128)} sqrt(%div.759.clone.1), metadata={op_name="jit(train_step)/sqrt" stack_frame_id=0}
  %constant.938.clone.1 = f32[]{:T(128)} constant(1e-08)
  %broadcast.567.clone.1 = f32[4096,4,8,128]{3,2,1,0:T(8,128)} broadcast(%constant.938.clone.1), dimensions={}, metadata={op_name="broadcast.52"}
  %add.802.clone.1 = f32[4096,4,8,128]{3,2,1,0:T(8,128)} add(%sqrt.63.clone.1, %broadcast.567.clone.1), metadata={op_name="jit(train_step)/add" stack_frame_id=0}
  %multiply.261.clone.1 = f32[4096,4,8,128]{3,2,1,0:T(8,128)} multiply(%div.761.clone.1, %add.802.clone.1), metadata={op_name="multiply.37"}
  %div.758.clone.1 = f32[4096,4,8,128]{3,2,1,0:T(8,128)} divide(%add.804.clone.1, %multiply.261.clone.1), metadata={op_name="jit(train_step)/div" stack_frame_id=0}
  %mul.1522.clone.1 = f32[4096,4,8,128]{3,2,1,0:T(8,128)} multiply(%param_0.1097, %broadcast.572.clone.1), metadata={op_name="jit(train_step)/mul" stack_frame_id=0}
  %add.801.clone.1 = f32[4096,4,8,128]{3,2,1,0:T(8,128)} add(%div.758.clone.1, %mul.1522.clone.1), metadata={op_name="jit(train_step)/add" stack_frame_id=0}
  %mul.1521.clone.1 = f32[4096,4,8,128]{3,2,1,0:T(8,128)} multiply(%mul.1523.clone.1, %add.801.clone.1), metadata={op_name="jit(train_step)/mul" stack_frame_id=0}
  %add.800.clone.1 = f32[4096,4,8,128]{3,2,1,0:T(8,128)} add(%param_0.1097, %mul.1521.clone.1), metadata={op_name="jit(train_step)/add" stack_frame_id=0}
  %square.189 = f32[4096,4,8,128]{3,2,1,0:T(8,128)} multiply(%add.800.clone.1, %add.800.clone.1), metadata={op_name="jit(train_step)/square" stack_frame_id=0}
  %constant.998 = f32[]{:T(128)} constant(0)
  %reduce.144 = f32[]{:T(128)} reduce(%square.189, %constant.998), dimensions={0,1,2,3}, to_apply=%region_55.60, metadata={op_name="jit(train_step)/reduce_sum" stack_frame_id=0}
  %reduce.146.clone.1 = f32[]{:T(128)} reduce(%integer_pow.65.clone.1, %constant.998), dimensions={0,1,2,3}, to_apply=%region_41.46, metadata={op_name="jit(train_step)/reduce_sum" stack_frame_id=0}
  ROOT %tuple.143 = (f32[]{:T(128)}, f32[4096,4,8,128]{3,2,1,0:T(8,128)}, f32[4096,4,8,128]{3,2,1,0:T(8,128)}, f32[4096,4,8,128]{3,2,1,0:T(8,128)}, f32[]{:T(128)}) tuple(%reduce.144, %add.800.clone.1, %add.803.clone.1, %add.804.clone.1, %reduce.146.clone.1)
}

%fused_computation.312 (param_0.859: bf16[4,128,4096], param_1.928: f32[4,128], param_2.717: f32[4,128], param_3.448: bf16[4,128,4096], param_4.266: bf16[4096]) -> bf16[4,128,4096] {
  %param_3.448 = bf16[4,128,4096]{2,1,0:T(8,128)(2,1)S(1)} parameter(3)
  %param_4.266 = bf16[4096]{0:T(1024)(128)(2,1)S(1)} parameter(4)
  %dot_general.371 = bf16[4,128,4096]{2,1,0:T(8,128)(2,1)} broadcast(%param_4.266), dimensions={2}, metadata={op_name="jit(train_step)/jvp(TransformerLinenPure.apply)/TransformerLinenPure/decoder/decoder.apply_output_head/decoder_norm/...k,k->...k/dot_general" stack_frame_id=0}
  %dot_general.361 = bf16[4,128,4096]{2,1,0:T(8,128)(2,1)} multiply(%param_3.448, %dot_general.371), metadata={op_name="jit(train_step)/transpose(jvp(TransformerLinenPure.apply))/TransformerLinenPure/decoder/decoder.apply_output_head/decoder_norm/...k,k->...k/dot_general" stack_frame_id=0}
  %convert_element_type.961 = f32[4,128,4096]{2,1,0:T(8,128)} convert(%dot_general.361), metadata={op_name="jit(train_step)/transpose(jvp(TransformerLinenPure.apply))/TransformerLinenPure/decoder/decoder.apply_output_head/decoder_norm/convert_element_type" stack_frame_id=0}
  %param_2.717 = f32[4,128]{1,0:T(4,128)S(1)} parameter(2)
  %mul.1417 = f32[4,128,4096]{2,1,0:T(8,128)} broadcast(%param_2.717), dimensions={0,1}, metadata={op_name="jit(train_step)/jvp(TransformerLinenPure.apply)/TransformerLinenPure/decoder/decoder.apply_output_head/decoder_norm/mul" stack_frame_id=0}
  %mul.1409 = f32[4,128,4096]{2,1,0:T(8,128)} multiply(%convert_element_type.961, %mul.1417), metadata={op_name="jit(train_step)/transpose(jvp(TransformerLinenPure.apply))/TransformerLinenPure/decoder/decoder.apply_output_head/decoder_norm/mul" stack_frame_id=0}
  %param_0.859 = bf16[4,128,4096]{2,1,0:T(8,128)(2,1)S(1)} parameter(0)
  %convert_element_type.972 = f32[4,128,4096]{2,1,0:T(8,128)} convert(%param_0.859), metadata={op_name="jit(train_step)/jvp(TransformerLinenPure.apply)/TransformerLinenPure/decoder/decoder.apply_output_head/decoder_norm/convert_element_type" stack_frame_id=0}
  %param_1.928 = f32[4,128]{1,0:T(4,128)S(1)} parameter(1)
  %mul.1416 = f32[4,128,4096]{2,1,0:T(8,128)} broadcast(%param_1.928), dimensions={0,1}, metadata={op_name="jit(train_step)/transpose(jvp(TransformerLinenPure.apply))/TransformerLinenPure/decoder/decoder.apply_output_head/decoder_norm/mul" stack_frame_id=0}
  %mul.1415 = f32[4,128,4096]{2,1,0:T(8,128)} multiply(%convert_element_type.972, %mul.1416), metadata={op_name="jit(train_step)/transpose(jvp(TransformerLinenPure.apply))/TransformerLinenPure/decoder/decoder.apply_output_head/decoder_norm/mul" stack_frame_id=0}
  %add_any.138 = f32[4,128,4096]{2,1,0:T(8,128)} add(%mul.1409, %mul.1415), metadata={op_name="jit(train_step)/transpose(jvp(TransformerLinenPure.apply))/TransformerLinenPure/decoder/decoder.apply_output_head/decoder_norm/add_any" stack_frame_id=0}
  ROOT %convert_element_type.959 = bf16[4,128,4096]{2,1,0:T(8,128)(2,1)} convert(%add_any.138), metadata={op_name="jit(train_step)/transpose(jvp(TransformerLinenPure.apply))/TransformerLinenPure/decoder/decoder.apply_output_head/decoder_norm/convert_element_type" stack_frame_id=0}
}

%region_5.8 (reduce_sum.87: f32[], reduce_sum.88: f32[]) -> f32[] {
  %reduce_sum.87 = f32[]{:T(128)} parameter(0), metadata={op_name="jit(train_step)/jvp(TransformerLinenPure.apply)/TransformerLinenPure/decoder/decoder.apply_output_head/decoder_norm/reduce_sum"}
  %reduce_sum.88 = f32[]{:T(128)} parameter(1), metadata={op_name="jit(train_step)/jvp(TransformerLinenPure.apply)/TransformerLinenPure/decoder/decoder.apply_output_head/decoder_norm/reduce_sum"}
  ROOT %reduce_sum.92 = f32[]{:T(128)} add(%reduce_sum.87, %reduce_sum.88), metadata={op_name="jit(train_step)/jvp(TransformerLinenPure.apply)/TransformerLinenPure/decoder/decoder.apply_output_head/decoder_norm/reduce_sum" stack_frame_id=0}, backend_config={"flag_configs":[],"scoped_memory_configs":[],"used_scoped_memory_configs":[],"aliasing_operands":{"lists":[]}}
}

%fused_computation.313 (param_0.1117: bf16[4,128,4096]) -> f32[4,128] {
  %param_0.1117 = bf16[4,128,4096]{2,1,0:T(8,128)(2,1)S(1)} parameter(0)
  %convert_element_type.963 = f32[4,128,4096]{2,1,0:T(8,128)} convert(%param_0.1117), metadata={op_name="jit(train_step)/jvp(TransformerLinenPure.apply)/TransformerLinenPure/decoder/decoder.apply_output_head/decoder_norm/convert_element_type" stack_frame_id=0}
  %square.192 = f32[4,128,4096]{2,1,0:T(8,128)} multiply(%convert_element_type.963, %convert_element_type.963), metadata={op_name="jit(train_step)/jvp(TransformerLinenPure.apply)/TransformerLinenPure/decoder/decoder.apply_output_head/decoder_norm/square" stack_frame_id=0}
  %constant.1019 = f32[]{:T(128)} constant(0)
  ROOT %reduce.147 = f32[4,128]{1,0:T(4,128)S(1)} reduce(%square.192, %constant.1019), dimensions={2}, to_apply=%region_5.8, metadata={op_name="jit(train_step)/jvp(TransformerLinenPure.apply)/TransformerLinenPure/decoder/decoder.apply_output_head/decoder_norm/reduce_sum" stack_frame_id=0}
}

%region_10.13 (reduce_sum.102: f32[], reduce_sum.106: f32[]) -> f32[] {
  %reduce_sum.102 = f32[]{:T(128)} parameter(0), metadata={op_name="jit(train_step)/transpose(jvp(TransformerLinenPure.apply))/TransformerLinenPure/decoder/decoder.apply_output_head/decoder_norm/reduce_sum"}
  %reduce_sum.106 = f32[]{:T(128)} parameter(1), metadata={op_name="jit(train_step)/transpose(jvp(TransformerLinenPure.apply))/TransformerLinenPure/decoder/decoder.apply_output_head/decoder_norm/reduce_sum"}
  ROOT %reduce_sum.107 = f32[]{:T(128)} add(%reduce_sum.102, %reduce_sum.106), metadata={op_name="jit(train_step)/transpose(jvp(TransformerLinenPure.apply))/TransformerLinenPure/decoder/decoder.apply_output_head/decoder_norm/reduce_sum" stack_frame_id=0}, backend_config={"flag_configs":[],"scoped_memory_configs":[],"used_scoped_memory_configs":[],"aliasing_operands":{"lists":[]}}
}

%fused_computation.315 (param_0.1112: bf16[4,128,4096], param_1.1271: bf16[4,128,4096], param_2.1104: bf16[4096]) -> f32[4,128] {
  %param_0.1112 = bf16[4,128,4096]{2,1,0:T(8,128)(2,1)S(1)} parameter(0)
  %convert_element_type.970 = f32[4,128,4096]{2,1,0:T(8,128)} convert(%param_0.1112), metadata={op_name="jit(train_step)/jvp(TransformerLinenPure.apply)/TransformerLinenPure/decoder/decoder.apply_output_head/decoder_norm/convert_element_type" stack_frame_id=0}
  %param_1.1271 = bf16[4,128,4096]{2,1,0:T(8,128)(2,1)S(1)} parameter(1)
  %param_2.1104 = bf16[4096]{0:T(1024)(128)(2,1)S(1)} parameter(2)
  %dot_general.370 = bf16[4,128,4096]{2,1,0:T(8,128)(2,1)} broadcast(%param_2.1104), dimensions={2}, metadata={op_name="jit(train_step)/jvp(TransformerLinenPure.apply)/TransformerLinenPure/decoder/decoder.apply_output_head/decoder_norm/...k,k->...k/dot_general" stack_frame_id=0}
  %dot_general.360 = bf16[4,128,4096]{2,1,0:T(8,128)(2,1)} multiply(%param_1.1271, %dot_general.370), metadata={op_name="jit(train_step)/transpose(jvp(TransformerLinenPure.apply))/TransformerLinenPure/decoder/decoder.apply_output_head/decoder_norm/...k,k->...k/dot_general" stack_frame_id=0}
  %convert_element_type.969 = f32[4,128,4096]{2,1,0:T(8,128)} convert(%dot_general.360), metadata={op_name="jit(train_step)/transpose(jvp(TransformerLinenPure.apply))/TransformerLinenPure/decoder/decoder.apply_output_head/decoder_norm/convert_element_type" stack_frame_id=0}
  %mul.1413 = f32[4,128,4096]{2,1,0:T(8,128)} multiply(%convert_element_type.970, %convert_element_type.969), metadata={op_name="jit(train_step)/transpose(jvp(TransformerLinenPure.apply))/TransformerLinenPure/decoder/decoder.apply_output_head/decoder_norm/mul" stack_frame_id=0}
  %constant.1013 = f32[]{:T(128)} constant(0)
  ROOT %reduce.148 = f32[4,128]{1,0:T(4,128)S(1)} reduce(%mul.1413, %constant.1013), dimensions={2}, to_apply=%region_10.13, metadata={op_name="jit(train_step)/transpose(jvp(TransformerLinenPure.apply))/TransformerLinenPure/decoder/decoder.apply_output_head/decoder_norm/reduce_sum" stack_frame_id=0}
}

%region_8.11 (dot_general.182: bf16[], dot_general.183: bf16[]) -> bf16[] {
  %dot_general.182 = bf16[]{:T(256)} parameter(0), metadata={op_name="jit(train_step)/transpose(jvp(TransformerLinenPure.apply))/TransformerLinenPure/decoder/decoder.apply_output_head/decoder_norm/...k,k->...k/dot_general"}
  %dot_general.183 = bf16[]{:T(256)} parameter(1), metadata={op_name="jit(train_step)/transpose(jvp(TransformerLinenPure.apply))/TransformerLinenPure/decoder/decoder.apply_output_head/decoder_norm/...k,k->...k/dot_general"}
  ROOT %add.168 = bf16[]{:T(256)} add(%dot_general.182, %dot_general.183), metadata={op_name="add.54"}, backend_config={"flag_configs":[],"scoped_memory_configs":[],"used_scoped_memory_configs":[],"aliasing_operands":{"lists":[]}}
}

%fused_computation.236.clone.clone (param_0.1081: f32[4096,128256]) -> bf16[4096,128256,1] {
  %param_0.1081 = f32[4096,128256]{1,0:T(8,128)} parameter(0)
  %convert_element_type.1021 = bf16[4096,128256]{1,0:T(8,128)(2,1)} convert(%param_0.1081), metadata={op_name="jit(train_step)/jvp(TransformerLinenPure.apply)/TransformerLinenPure/decoder/decoder.apply_output_head/logits_dense/convert_element_type" stack_frame_id=0}
  ROOT %bitcast.443 = bf16[4096,128256,1]{1,0,2:T(8,128)(2,1)} bitcast(%convert_element_type.1021), metadata={op_name="jit(train_step)/jvp(TransformerLinenPure.apply)/TransformerLinenPure/decoder/decoder.apply_output_head/logits_dense/convert_element_type" stack_frame_id=0}
}

%fused_computation.281.clone.1.clone.clone (param_0.1082: bf16[4,128,128256], param_1.1247: s32[4,128], param_2.1072: f32[4,128], param_3.778: f32[4,128], param_4.479: bf16[4,128], param_5.401: f32[4,128]) -> bf16[4,128,128256] {
  %param_5.401 = f32[4,128]{1,0:T(4,128)S(1)} parameter(5)
  %mul.1597 = f32[4,128,128256]{2,1,0:T(8,128)} broadcast(%param_5.401), dimensions={0,1}, metadata={op_name="jit(train_step)/transpose(jvp())/mul" stack_frame_id=0}
  %param_3.778 = f32[4,128]{1,0:T(4,128)S(1)} parameter(3)
  %mul.1596 = f32[4,128,128256]{2,1,0:T(8,128)} broadcast(%param_3.778), dimensions={0,1}, metadata={op_name="jit(train_step)/transpose(jvp())/mul" stack_frame_id=0}
  %param_0.1082 = bf16[4,128,128256]{2,1,0:T(8,128)(2,1)} parameter(0)
  %convert_element_type.1024 = f32[4,128,128256]{2,1,0:T(8,128)} convert(%param_0.1082), metadata={op_name="jit(train_step)/jvp(TransformerLinenPure.apply)/TransformerLinenPure/decoder/decoder.apply_output_head/convert_element_type" stack_frame_id=0}
  %param_4.479 = bf16[4,128]{1,0:T(4,128)(2,1)S(1)} parameter(4)
  %sub.88 = f32[4,128,128256]{2,1,0:T(8,128)} broadcast(%param_4.479), dimensions={0,1}, metadata={op_name="jit(train_step)/jvp()/sub" stack_frame_id=0}
  %sub.87 = f32[4,128,128256]{2,1,0:T(8,128)} subtract(%convert_element_type.1024, %sub.88), metadata={op_name="jit(train_step)/jvp()/sub" stack_frame_id=0}
  %exp.60 = f32[4,128,128256]{2,1,0:T(8,128)} exponential(%sub.87), metadata={op_name="jit(train_step)/jvp()/exp" stack_frame_id=0}
  %mul.1595 = f32[4,128,128256]{2,1,0:T(8,128)} multiply(%mul.1596, %exp.60), metadata={op_name="jit(train_step)/transpose(jvp())/mul" stack_frame_id=0}
  %param_2.1072 = f32[4,128]{1,0:T(4,128)S(1)} parameter(2)
  %div.819 = f32[4,128,128256]{2,1,0:T(8,128)} broadcast(%param_2.1072), dimensions={0,1}, metadata={op_name="jit(train_step)/transpose(jvp())/div" stack_frame_id=0}
  %div.818 = f32[4,128,128256]{2,1,0:T(8,128)} divide(%mul.1595, %div.819), metadata={op_name="jit(train_step)/transpose(jvp())/div" stack_frame_id=0}
  %param_1.1247 = s32[4,128]{1,0:T(4,128)S(1)} parameter(1)
  %eq.43 = s32[4,128,128256]{2,1,0:T(8,128)} broadcast(%param_1.1247), dimensions={0,1}, metadata={op_name="jit(train_step)/jvp(jit(_one_hot))/eq" stack_frame_id=0}
  %eq.42 = s32[4,128,128256]{2,1,0:T(8,128)} iota(), iota_dimension=2, metadata={op_name="jit(train_step)/jvp(jit(_one_hot))/eq" stack_frame_id=0}
  %eq.41 = pred[4,128,128256]{2,1,0:T(8,128)(4,1)} compare(%eq.43, %eq.42), direction=EQ, metadata={op_name="jit(train_step)/jvp(jit(_one_hot))/eq" stack_frame_id=0}
  %convert_element_type.1023 = f32[4,128,128256]{2,1,0:T(8,128)} convert(%eq.41), metadata={op_name="jit(train_step)/jvp(jit(_one_hot))/convert_element_type" stack_frame_id=0}
  %sub.86 = f32[4,128,128256]{2,1,0:T(8,128)} subtract(%div.818, %convert_element_type.1023), metadata={op_name="jit(train_step)/transpose(jvp())/sub" stack_frame_id=0}
  %mul.1594 = f32[4,128,128256]{2,1,0:T(8,128)} multiply(%mul.1597, %sub.86), metadata={op_name="jit(train_step)/transpose(jvp())/mul" stack_frame_id=0}
  ROOT %convert_element_type.1022 = bf16[4,128,128256]{2,1,0:T(8,128)(2,1)} convert(%mul.1594), metadata={op_name="jit(train_step)/transpose(jvp(TransformerLinenPure.apply))/TransformerLinenPure/decoder/decoder.apply_output_head/convert_element_type" stack_frame_id=0}
}

%fused_computation.316 (param_0.1080: f32[4,128], param_1.1246: bf16[4,128,4096], param_2.1073: f32[4096,128256], param_3.779: bf16[4,128,128256], param_4.480: s32[4,128], param_5.402: f32[4,128], param_6.272: f32[4,128], param_7.171: bf16[4,128], param_8.98: f32[4,128]) -> (bf16[4096], bf16[4,128,4096]) {
  %param_3.779 = bf16[4,128,128256]{2,1,0:T(8,128)(2,1)} parameter(3)
  %param_4.480 = s32[4,128]{1,0:T(4,128)S(1)} parameter(4)
  %param_5.402 = f32[4,128]{1,0:T(4,128)S(1)} parameter(5)
  %param_6.272 = f32[4,128]{1,0:T(4,128)S(1)} parameter(6)
  %param_7.171 = bf16[4,128]{1,0:T(4,128)(2,1)S(1)} parameter(7)
  %param_8.98 = f32[4,128]{1,0:T(4,128)S(1)} parameter(8)
  %multiply_convert_fusion.2.clone.1 = bf16[4,128,128256]{2,1,0:T(8,128)(2,1)} fusion(%param_3.779, %param_4.480, %param_5.402, %param_6.272, %param_7.171, /*index=5*/%param_8.98), kind=kLoop, calls=%fused_computation.281.clone.1.clone.clone, metadata={op_name="jit(train_step)/transpose(jvp(TransformerLinenPure.apply))/TransformerLinenPure/decoder/decoder.apply_output_head/convert_element_type" stack_frame_id=0}
  %param_2.1073 = f32[4096,128256]{1,0:T(8,128)} parameter(2)
  %fusion.209.clone.1 = bf16[4096,128256,1]{1,0,2:T(8,128)(2,1)} fusion(%param_2.1073), kind=kLoop, calls=%fused_computation.236.clone.clone, metadata={op_name="jit(train_step)/jvp(TransformerLinenPure.apply)/TransformerLinenPure/decoder/decoder.apply_output_head/logits_dense/convert_element_type" stack_frame_id=0}
  %convolution.80.clone.1 = bf16[4,128,4096]{2,1,0:T(8,128)(2,1)S(1)} convolution(%multiply_convert_fusion.2.clone.1, %fusion.209.clone.1), window={size=1}, dim_labels=0bf_oi0->0bf, metadata={op_name="jit(train_step)/transpose(jvp(TransformerLinenPure.apply))/TransformerLinenPure/decoder/decoder.apply_output_head/logits_dense/dot_general" stack_frame_id=0}
  %param_1.1246 = bf16[4,128,4096]{2,1,0:T(8,128)(2,1)S(1)} parameter(1)
  %convert_element_type.982 = f32[4,128,4096]{2,1,0:T(8,128)} convert(%param_1.1246), metadata={op_name="jit(train_step)/jvp(TransformerLinenPure.apply)/TransformerLinenPure/decoder/decoder.apply_output_head/decoder_norm/convert_element_type" stack_frame_id=0}
  %param_0.1080 = f32[4,128]{1,0:T(4,128)S(1)} parameter(0)
  %mul.1428 = f32[4,128,4096]{2,1,0:T(8,128)} broadcast(%param_0.1080), dimensions={0,1}, metadata={op_name="jit(train_step)/jvp(TransformerLinenPure.apply)/TransformerLinenPure/decoder/decoder.apply_output_head/decoder_norm/mul" stack_frame_id=0}
  %mul.1427 = f32[4,128,4096]{2,1,0:T(8,128)} multiply(%convert_element_type.982, %mul.1428), metadata={op_name="jit(train_step)/jvp(TransformerLinenPure.apply)/TransformerLinenPure/decoder/decoder.apply_output_head/decoder_norm/mul" stack_frame_id=0}
  %convert_element_type.981 = bf16[4,128,4096]{2,1,0:T(8,128)(2,1)} convert(%mul.1427), metadata={op_name="jit(train_step)/jvp(TransformerLinenPure.apply)/TransformerLinenPure/decoder/decoder.apply_output_head/decoder_norm/convert_element_type" stack_frame_id=0}
  %multiply.252 = bf16[4,128,4096]{2,1,0:T(8,128)(2,1)} multiply(%convolution.80.clone.1, %convert_element_type.981), metadata={op_name="multiply.206"}
  %constant.874 = bf16[]{:T(256)} constant(0)
  %reduce.149 = bf16[4096]{0:T(1024)(128)(2,1)} reduce(%multiply.252, %constant.874), dimensions={0,1}, to_apply=%region_8.11, metadata={op_name="jit(train_step)/transpose(jvp(TransformerLinenPure.apply))/TransformerLinenPure/decoder/decoder.apply_output_head/decoder_norm/...k,k->...k/dot_general" stack_frame_id=0}
  ROOT %tuple.153 = (bf16[4096]{0:T(1024)(128)(2,1)}, bf16[4,128,4096]{2,1,0:T(8,128)(2,1)S(1)}) tuple(%reduce.149, %convolution.80.clone.1)
}

%fused_computation.324 (param_0.891: f32[64], param_1.961: f32[4,128]) -> (bf16[4,128,1,64], bf16[4,128,1,64]) {
  %param_1.961 = f32[4,128]{1,0:T(4,128)S(1)} parameter(1)
  %div.621 = f32[4,128,1,64]{3,1,0,2:T(8,128)} broadcast(%param_1.961), dimensions={0,1}, metadata={op_name="jit(train_step)/layers/div" stack_frame_id=0}
  %param_0.891 = f32[64]{0:T(128)S(1)} parameter(0)
  %div.619 = f32[4,128,1,64]{3,1,0,2:T(8,128)} broadcast(%param_0.891), dimensions={3}, metadata={op_name="jit(train_step)/layers/div" stack_frame_id=0}
  %div.618 = f32[4,128,1,64]{3,1,0,2:T(8,128)} divide(%div.621, %div.619), metadata={op_name="jit(train_step)/layers/div" stack_frame_id=0}
  %sin.38 = f32[4,128,1,64]{3,1,0,2:T(8,128)} sine(%div.618), metadata={op_name="jit(train_step)/layers/sin" stack_frame_id=0}
  %convert_element_type.990 = bf16[4,128,1,64]{3,1,0,2:T(8,128)(2,1)S(1)} convert(%sin.38), metadata={op_name="jit(train_step)/layers/convert_element_type" stack_frame_id=0}
  %cos.41.clone.1 = f32[4,128,1,64]{3,1,0,2:T(8,128)} cosine(%div.618), metadata={op_name="jit(train_step)/layers/cos" stack_frame_id=0}
  %convert_element_type.989.clone.1 = bf16[4,128,1,64]{3,1,0,2:T(8,128)(2,1)S(1)} convert(%cos.41.clone.1), metadata={op_name="jit(train_step)/layers/convert_element_type" stack_frame_id=0}
  ROOT %tuple.150 = (bf16[4,128,1,64]{3,1,0,2:T(8,128)(2,1)S(1)}, bf16[4,128,1,64]{3,1,0,2:T(8,128)(2,1)S(1)}) tuple(%convert_element_type.990, %convert_element_type.989.clone.1)
}

%fused_computation.325 (param_0.888: bf16[4,128,1,64]) -> bf16[4,128,1,128] {
  %param_0.888 = bf16[4,128,1,64]{3,1,0,2:T(8,128)(2,1)S(1)} parameter(0)
  %constant.866 = bf16[]{:T(256)} constant(-inf)
  %pad.38 = bf16[4,128,1,128]{3,1,0,2:T(8,128)(2,1)} pad(%param_0.888, %constant.866), padding=0_0x0_0x0_0x0_64, metadata={op_name="jit(train_step)/layers/concatenate" stack_frame_id=0}
  %pad.37 = bf16[4,128,1,128]{3,1,0,2:T(8,128)(2,1)} pad(%param_0.888, %constant.866), padding=0_0x0_0x0_0x64_0, metadata={op_name="jit(train_step)/layers/concatenate" stack_frame_id=0}
  ROOT %maximum.34 = bf16[4,128,1,128]{3,1,0,2:T(8,128)(2,1)} maximum(%pad.38, %pad.37), metadata={op_name="jit(train_step)/layers/concatenate" stack_frame_id=0}
}

%fused_computation.326 (param_0.890: bf16[4,128,1,64]) -> bf16[4,128,1,128] {
  %param_0.890 = bf16[4,128,1,64]{3,1,0,2:T(8,128)(2,1)S(1)} parameter(0)
  %constant.865 = bf16[]{:T(256)} constant(-inf)
  %pad.40 = bf16[4,128,1,128]{3,1,0,2:T(8,128)(2,1)} pad(%param_0.890, %constant.865), padding=0_0x0_0x0_0x0_64, metadata={op_name="jit(train_step)/layers/concatenate" stack_frame_id=0}
  %pad.39 = bf16[4,128,1,128]{3,1,0,2:T(8,128)(2,1)} pad(%param_0.890, %constant.865), padding=0_0x0_0x0_0x64_0, metadata={op_name="jit(train_step)/layers/concatenate" stack_frame_id=0}
  ROOT %maximum.35 = bf16[4,128,1,128]{3,1,0,2:T(8,128)(2,1)} maximum(%pad.40, %pad.39), metadata={op_name="jit(train_step)/layers/concatenate" stack_frame_id=0}
}

%region_27.32 (reduce_sum.163: f32[], reduce_sum.164: f32[]) -> f32[] {
  %reduce_sum.163 = f32[]{:T(128)} parameter(0), metadata={op_name="jit(train_step)/reduce_sum"}
  %reduce_sum.164 = f32[]{:T(128)} parameter(1), metadata={op_name="jit(train_step)/reduce_sum"}
  ROOT %reduce_sum.168 = f32[]{:T(128)} add(%reduce_sum.163, %reduce_sum.164), metadata={op_name="jit(train_step)/reduce_sum" stack_frame_id=0}, backend_config={"flag_configs":[],"scoped_memory_configs":[],"used_scoped_memory_configs":[],"aliasing_operands":{"lists":[]}}
}

%region_26.31 (reduce_sum.157: f32[], reduce_sum.161: f32[]) -> f32[] {
  %reduce_sum.157 = f32[]{:T(128)} parameter(0), metadata={op_name="jit(train_step)/reduce_sum"}
  %reduce_sum.161 = f32[]{:T(128)} parameter(1), metadata={op_name="jit(train_step)/reduce_sum"}
  ROOT %reduce_sum.162 = f32[]{:T(128)} add(%reduce_sum.157, %reduce_sum.161), metadata={op_name="jit(train_step)/reduce_sum" stack_frame_id=0}, backend_config={"flag_configs":[],"scoped_memory_configs":[],"used_scoped_memory_configs":[],"aliasing_operands":{"lists":[]}}
}

%fused_computation.330 (param_0.1109: f32[4,4096], param_1.1269: f32[4,4096]) -> (f32[], f32[]) {
  %param_0.1109 = f32[4,4096]{1,0:T(4,128)S(1)} parameter(0)
  %bitcast.365 = f32[4096,4]{0,1:T(4,128)} bitcast(%param_0.1109), metadata={op_name="jit(train_step)/transpose(jvp(TransformerLinenPure.apply))/TransformerLinenPure/decoder/transpose" stack_frame_id=0}
  %square.195 = f32[4096,4]{0,1:T(4,128)} multiply(%bitcast.365, %bitcast.365), metadata={op_name="jit(train_step)/square" stack_frame_id=0}
  %constant.1010 = f32[]{:T(128)} constant(0)
  %reduce.150 = f32[]{:T(128)} reduce(%square.195, %constant.1010), dimensions={0,1}, to_apply=%region_27.32, metadata={op_name="jit(train_step)/reduce_sum" stack_frame_id=0}
  %param_1.1269 = f32[4,4096]{1,0:T(4,128)S(1)} parameter(1)
  %bitcast.369.clone.1 = f32[4096,4]{0,1:T(4,128)} bitcast(%param_1.1269), metadata={op_name="jit(train_step)/transpose(jvp(TransformerLinenPure.apply))/TransformerLinenPure/decoder/transpose" stack_frame_id=0}
  %square.198.clone.1 = f32[4096,4]{0,1:T(4,128)} multiply(%bitcast.369.clone.1, %bitcast.369.clone.1), metadata={op_name="jit(train_step)/square" stack_frame_id=0}
  %reduce.151.clone.1 = f32[]{:T(128)} reduce(%square.198.clone.1, %constant.1010), dimensions={0,1}, to_apply=%region_26.31, metadata={op_name="jit(train_step)/reduce_sum" stack_frame_id=0}
  ROOT %tuple.157 = (f32[]{:T(128)}, f32[]{:T(128)}) tuple(%reduce.150, %reduce.151.clone.1)
}

%region_54.59 (reduce_sum.301: f32[], reduce_sum.302: f32[]) -> f32[] {
  %reduce_sum.301 = f32[]{:T(128)} parameter(0), metadata={op_name="jit(train_step)/reduce_sum"}
  %reduce_sum.302 = f32[]{:T(128)} parameter(1), metadata={op_name="jit(train_step)/reduce_sum"}
  ROOT %reduce_sum.303 = f32[]{:T(128)} add(%reduce_sum.301, %reduce_sum.302), metadata={op_name="jit(train_step)/reduce_sum" stack_frame_id=0}, backend_config={"flag_configs":[],"scoped_memory_configs":[],"used_scoped_memory_configs":[],"aliasing_operands":{"lists":[]}}
}

%region_40.45 (reduce_sum.226: f32[], reduce_sum.227: f32[]) -> f32[] {
  %reduce_sum.226 = f32[]{:T(128)} parameter(0), metadata={op_name="jit(train_step)/reduce_sum"}
  %reduce_sum.227 = f32[]{:T(128)} parameter(1), metadata={op_name="jit(train_step)/reduce_sum"}
  ROOT %reduce_sum.231 = f32[]{:T(128)} add(%reduce_sum.226, %reduce_sum.227), metadata={op_name="jit(train_step)/reduce_sum" stack_frame_id=0}, backend_config={"flag_configs":[],"scoped_memory_configs":[],"used_scoped_memory_configs":[],"aliasing_operands":{"lists":[]}}
}

%fused_computation.333 (param_0.1098: f32[4096,4], param_1.1261: f32[], param_2.1097: f32[], param_3.791: f32[], param_4.491: f32[4096,4], param_5.413: f32[], param_6.281: f32[4,4096], param_7.180: pred[], param_8.106: f32[4096,4]) -> (f32[], f32[4096,4], f32[4096,4], f32[4096,4], f32[]) {
  %param_0.1098 = f32[4096,4]{0,1:T(4,128)S(1)} parameter(0)
  %param_3.791 = f32[]{:T(128)S(6)} parameter(3)
  %mul.1530.clone.1 = f32[4096,4]{0,1:T(4,128)} broadcast(%param_3.791), dimensions={}, metadata={op_name="jit(train_step)/mul" stack_frame_id=0}
  %param_7.180 = pred[]{:T(512)S(6)} parameter(7)
  %select_n.266.clone.1 = pred[4096,4]{0,1:T(4,128)(4,1)} broadcast(%param_7.180), dimensions={}, metadata={op_name="jit(train_step)/select_n" stack_frame_id=0}
  %param_6.281 = f32[4,4096]{1,0:T(4,128)S(1)} parameter(6)
  %bitcast.413.clone.1 = f32[4096,4]{0,1:T(4,128)} bitcast(%param_6.281), metadata={op_name="jit(train_step)/transpose(jvp(TransformerLinenPure.apply))/TransformerLinenPure/decoder/transpose" stack_frame_id=0}
  %param_5.413 = f32[]{:T(128)} parameter(5)
  %div.773.clone.1 = f32[4096,4]{0,1:T(4,128)} broadcast(%param_5.413), dimensions={}, metadata={op_name="jit(train_step)/div" stack_frame_id=0}
  %div.772.clone.1 = f32[4096,4]{0,1:T(4,128)} divide(%bitcast.413.clone.1, %div.773.clone.1), metadata={op_name="jit(train_step)/div" stack_frame_id=0}
  %select_n.265.clone.1 = f32[4096,4]{0,1:T(4,128)} select(%select_n.266.clone.1, %bitcast.413.clone.1, %div.772.clone.1), metadata={op_name="jit(train_step)/select_n" stack_frame_id=0}
  %constant.943.clone.1 = f32[]{:T(128)} constant(0.1)
  %broadcast.578.clone.1 = f32[4096,4]{0,1:T(4,128)} broadcast(%constant.943.clone.1), dimensions={}, metadata={op_name="broadcast.68"}
  %mul.1534.clone.1 = f32[4096,4]{0,1:T(4,128)} multiply(%select_n.265.clone.1, %broadcast.578.clone.1), metadata={op_name="jit(train_step)/mul" stack_frame_id=0}
  %param_8.106 = f32[4096,4]{0,1:T(4,128)S(1)} parameter(8)
  %constant.947.clone.1 = f32[]{:T(128)} constant(0.9)
  %broadcast.577.clone.1 = f32[4096,4]{0,1:T(4,128)} broadcast(%constant.947.clone.1), dimensions={}, metadata={op_name="broadcast.67"}
  %mul.1533.clone.1 = f32[4096,4]{0,1:T(4,128)} multiply(%param_8.106, %broadcast.577.clone.1), metadata={op_name="jit(train_step)/mul" stack_frame_id=0}
  %add.809.clone.1 = f32[4096,4]{0,1:T(4,128)S(1)} add(%mul.1534.clone.1, %mul.1533.clone.1), metadata={op_name="jit(train_step)/add" stack_frame_id=0}
  %param_2.1097 = f32[]{:T(128)S(6)} parameter(2)
  %div.769.clone.1 = f32[4096,4]{0,1:T(4,128)} broadcast(%param_2.1097), dimensions={}, metadata={op_name="jit(train_step)/div" stack_frame_id=0}
  %integer_pow.66.clone.1 = f32[4096,4]{0,1:T(4,128)} multiply(%select_n.265.clone.1, %select_n.265.clone.1), metadata={op_name="jit(train_step)/integer_pow" stack_frame_id=0}
  %constant.946.clone.1 = f32[]{:T(128)} constant(0.05)
  %broadcast.576.clone.1 = f32[4096,4]{0,1:T(4,128)} broadcast(%constant.946.clone.1), dimensions={}, metadata={op_name="broadcast.58"}
  %mul.1532.clone.1 = f32[4096,4]{0,1:T(4,128)} multiply(%integer_pow.66.clone.1, %broadcast.576.clone.1), metadata={op_name="jit(train_step)/mul" stack_frame_id=0}
  %param_4.491 = f32[4096,4]{0,1:T(4,128)S(1)} parameter(4)
  %constant.945.clone.1 = f32[]{:T(128)} constant(0.95)
  %broadcast.575.clone.1 = f32[4096,4]{0,1:T(4,128)} broadcast(%constant.945.clone.1), dimensions={}, metadata={op_name="broadcast.57"}
  %mul.1531.clone.1 = f32[4096,4]{0,1:T(4,128)} multiply(%param_4.491, %broadcast.575.clone.1), metadata={op_name="jit(train_step)/mul" stack_frame_id=0}
  %add.808.clone.1 = f32[4096,4]{0,1:T(4,128)S(1)} add(%mul.1532.clone.1, %mul.1531.clone.1), metadata={op_name="jit(train_step)/add" stack_frame_id=0}
  %param_1.1261 = f32[]{:T(128)S(6)} parameter(1)
  %div.768.clone.1 = f32[4096,4]{0,1:T(4,128)} broadcast(%param_1.1261), dimensions={}, metadata={op_name="jit(train_step)/div" stack_frame_id=0}
  %div.767.clone.1 = f32[4096,4]{0,1:T(4,128)} divide(%add.808.clone.1, %div.768.clone.1), metadata={op_name="jit(train_step)/div" stack_frame_id=0}
  %sqrt.64.clone.1 = f32[4096,4]{0,1:T(4,128)} sqrt(%div.767.clone.1), metadata={op_name="jit(train_step)/sqrt" stack_frame_id=0}
  %constant.944.clone.1 = f32[]{:T(128)} constant(1e-08)
  %broadcast.573.clone.1 = f32[4096,4]{0,1:T(4,128)} broadcast(%constant.944.clone.1), dimensions={}, metadata={op_name="broadcast.53"}
  %add.807.clone.1 = f32[4096,4]{0,1:T(4,128)} add(%sqrt.64.clone.1, %broadcast.573.clone.1), metadata={op_name="jit(train_step)/add" stack_frame_id=0}
  %multiply.262.clone.1 = f32[4096,4]{0,1:T(4,128)} multiply(%div.769.clone.1, %add.807.clone.1), metadata={op_name="multiply.36"}
  %div.766.clone.1 = f32[4096,4]{0,1:T(4,128)} divide(%add.809.clone.1, %multiply.262.clone.1), metadata={op_name="jit(train_step)/div" stack_frame_id=0}
  %mul.1529.clone.1 = f32[4096,4]{0,1:T(4,128)} multiply(%param_0.1098, %broadcast.578.clone.1), metadata={op_name="jit(train_step)/mul" stack_frame_id=0}
  %add.806.clone.1 = f32[4096,4]{0,1:T(4,128)} add(%div.766.clone.1, %mul.1529.clone.1), metadata={op_name="jit(train_step)/add" stack_frame_id=0}
  %mul.1528.clone.1 = f32[4096,4]{0,1:T(4,128)} multiply(%mul.1530.clone.1, %add.806.clone.1), metadata={op_name="jit(train_step)/mul" stack_frame_id=0}
  %add.805.clone.1 = f32[4096,4]{0,1:T(4,128)S(1)} add(%param_0.1098, %mul.1528.clone.1), metadata={op_name="jit(train_step)/add" stack_frame_id=0}
  %square.199 = f32[4096,4]{0,1:T(4,128)} multiply(%add.805.clone.1, %add.805.clone.1), metadata={op_name="jit(train_step)/square" stack_frame_id=0}
  %constant.999 = f32[]{:T(128)} constant(0)
  %reduce.152 = f32[]{:T(128)} reduce(%square.199, %constant.999), dimensions={0,1}, to_apply=%region_54.59, metadata={op_name="jit(train_step)/reduce_sum" stack_frame_id=0}
  %reduce.154.clone.1 = f32[]{:T(128)} reduce(%integer_pow.66.clone.1, %constant.999), dimensions={0,1}, to_apply=%region_40.45, metadata={op_name="jit(train_step)/reduce_sum" stack_frame_id=0}
  ROOT %tuple.144 = (f32[]{:T(128)}, f32[4096,4]{0,1:T(4,128)S(1)}, f32[4096,4]{0,1:T(4,128)S(1)}, f32[4096,4]{0,1:T(4,128)S(1)}, f32[]{:T(128)}) tuple(%reduce.152, %add.805.clone.1, %add.808.clone.1, %add.809.clone.1, %reduce.154.clone.1)
}

%region_53.58 (reduce_sum.295: f32[], reduce_sum.296: f32[]) -> f32[] {
  %reduce_sum.295 = f32[]{:T(128)} parameter(0), metadata={op_name="jit(train_step)/reduce_sum"}
  %reduce_sum.296 = f32[]{:T(128)} parameter(1), metadata={op_name="jit(train_step)/reduce_sum"}
  ROOT %reduce_sum.297 = f32[]{:T(128)} add(%reduce_sum.295, %reduce_sum.296), metadata={op_name="jit(train_step)/reduce_sum" stack_frame_id=0}, backend_config={"flag_configs":[],"scoped_memory_configs":[],"used_scoped_memory_configs":[],"aliasing_operands":{"lists":[]}}
}

%region_39.44 (reduce_sum.220: f32[], reduce_sum.224: f32[]) -> f32[] {
  %reduce_sum.220 = f32[]{:T(128)} parameter(0), metadata={op_name="jit(train_step)/reduce_sum"}
  %reduce_sum.224 = f32[]{:T(128)} parameter(1), metadata={op_name="jit(train_step)/reduce_sum"}
  ROOT %reduce_sum.225 = f32[]{:T(128)} add(%reduce_sum.220, %reduce_sum.224), metadata={op_name="jit(train_step)/reduce_sum" stack_frame_id=0}, backend_config={"flag_configs":[],"scoped_memory_configs":[],"used_scoped_memory_configs":[],"aliasing_operands":{"lists":[]}}
}

%fused_computation.334 (param_0.1099: f32[4096,4], param_1.1262: f32[], param_2.1098: f32[], param_3.792: f32[], param_4.492: f32[4096,4], param_5.414: f32[], param_6.282: f32[4,4096], param_7.181: pred[], param_8.107: f32[4096,4]) -> (f32[], f32[4096,4], f32[4096,4], f32[4096,4], f32[]) {
  %param_0.1099 = f32[4096,4]{0,1:T(4,128)S(1)} parameter(0)
  %param_3.792 = f32[]{:T(128)S(6)} parameter(3)
  %mul.1537.clone.1 = f32[4096,4]{0,1:T(4,128)} broadcast(%param_3.792), dimensions={}, metadata={op_name="jit(train_step)/mul" stack_frame_id=0}
  %param_7.181 = pred[]{:T(512)S(6)} parameter(7)
  %select_n.270.clone.1 = pred[4096,4]{0,1:T(4,128)(4,1)} broadcast(%param_7.181), dimensions={}, metadata={op_name="jit(train_step)/select_n" stack_frame_id=0}
  %param_6.282 = f32[4,4096]{1,0:T(4,128)S(1)} parameter(6)
  %bitcast.415.clone.1 = f32[4096,4]{0,1:T(4,128)} bitcast(%param_6.282), metadata={op_name="jit(train_step)/transpose(jvp(TransformerLinenPure.apply))/TransformerLinenPure/decoder/transpose" stack_frame_id=0}
  %param_5.414 = f32[]{:T(128)} parameter(5)
  %div.781.clone.1 = f32[4096,4]{0,1:T(4,128)} broadcast(%param_5.414), dimensions={}, metadata={op_name="jit(train_step)/div" stack_frame_id=0}
  %div.780.clone.1 = f32[4096,4]{0,1:T(4,128)} divide(%bitcast.415.clone.1, %div.781.clone.1), metadata={op_name="jit(train_step)/div" stack_frame_id=0}
  %select_n.269.clone.1 = f32[4096,4]{0,1:T(4,128)} select(%select_n.270.clone.1, %bitcast.415.clone.1, %div.780.clone.1), metadata={op_name="jit(train_step)/select_n" stack_frame_id=0}
  %constant.949.clone.1 = f32[]{:T(128)} constant(0.1)
  %broadcast.584.clone.1 = f32[4096,4]{0,1:T(4,128)} broadcast(%constant.949.clone.1), dimensions={}, metadata={op_name="broadcast.68"}
  %mul.1541.clone.1 = f32[4096,4]{0,1:T(4,128)} multiply(%select_n.269.clone.1, %broadcast.584.clone.1), metadata={op_name="jit(train_step)/mul" stack_frame_id=0}
  %param_8.107 = f32[4096,4]{0,1:T(4,128)S(1)} parameter(8)
  %constant.953.clone.1 = f32[]{:T(128)} constant(0.9)
  %broadcast.583.clone.1 = f32[4096,4]{0,1:T(4,128)} broadcast(%constant.953.clone.1), dimensions={}, metadata={op_name="broadcast.67"}
  %mul.1540.clone.1 = f32[4096,4]{0,1:T(4,128)} multiply(%param_8.107, %broadcast.583.clone.1), metadata={op_name="jit(train_step)/mul" stack_frame_id=0}
  %add.814.clone.1 = f32[4096,4]{0,1:T(4,128)S(1)} add(%mul.1541.clone.1, %mul.1540.clone.1), metadata={op_name="jit(train_step)/add" stack_frame_id=0}
  %param_2.1098 = f32[]{:T(128)S(6)} parameter(2)
  %div.777.clone.1 = f32[4096,4]{0,1:T(4,128)} broadcast(%param_2.1098), dimensions={}, metadata={op_name="jit(train_step)/div" stack_frame_id=0}
  %integer_pow.67.clone.1 = f32[4096,4]{0,1:T(4,128)} multiply(%select_n.269.clone.1, %select_n.269.clone.1), metadata={op_name="jit(train_step)/integer_pow" stack_frame_id=0}
  %constant.952.clone.1 = f32[]{:T(128)} constant(0.05)
  %broadcast.582.clone.1 = f32[4096,4]{0,1:T(4,128)} broadcast(%constant.952.clone.1), dimensions={}, metadata={op_name="broadcast.58"}
  %mul.1539.clone.1 = f32[4096,4]{0,1:T(4,128)} multiply(%integer_pow.67.clone.1, %broadcast.582.clone.1), metadata={op_name="jit(train_step)/mul" stack_frame_id=0}
  %param_4.492 = f32[4096,4]{0,1:T(4,128)S(1)} parameter(4)
  %constant.951.clone.1 = f32[]{:T(128)} constant(0.95)
  %broadcast.581.clone.1 = f32[4096,4]{0,1:T(4,128)} broadcast(%constant.951.clone.1), dimensions={}, metadata={op_name="broadcast.57"}
  %mul.1538.clone.1 = f32[4096,4]{0,1:T(4,128)} multiply(%param_4.492, %broadcast.581.clone.1), metadata={op_name="jit(train_step)/mul" stack_frame_id=0}
  %add.813.clone.1 = f32[4096,4]{0,1:T(4,128)S(1)} add(%mul.1539.clone.1, %mul.1538.clone.1), metadata={op_name="jit(train_step)/add" stack_frame_id=0}
  %param_1.1262 = f32[]{:T(128)S(6)} parameter(1)
  %div.776.clone.1 = f32[4096,4]{0,1:T(4,128)} broadcast(%param_1.1262), dimensions={}, metadata={op_name="jit(train_step)/div" stack_frame_id=0}
  %div.775.clone.1 = f32[4096,4]{0,1:T(4,128)} divide(%add.813.clone.1, %div.776.clone.1), metadata={op_name="jit(train_step)/div" stack_frame_id=0}
  %sqrt.65.clone.1 = f32[4096,4]{0,1:T(4,128)} sqrt(%div.775.clone.1), metadata={op_name="jit(train_step)/sqrt" stack_frame_id=0}
  %constant.950.clone.1 = f32[]{:T(128)} constant(1e-08)
  %broadcast.579.clone.1 = f32[4096,4]{0,1:T(4,128)} broadcast(%constant.950.clone.1), dimensions={}, metadata={op_name="broadcast.53"}
  %add.812.clone.1 = f32[4096,4]{0,1:T(4,128)} add(%sqrt.65.clone.1, %broadcast.579.clone.1), metadata={op_name="jit(train_step)/add" stack_frame_id=0}
  %multiply.263.clone.1 = f32[4096,4]{0,1:T(4,128)} multiply(%div.777.clone.1, %add.812.clone.1), metadata={op_name="multiply.35"}
  %div.774.clone.1 = f32[4096,4]{0,1:T(4,128)} divide(%add.814.clone.1, %multiply.263.clone.1), metadata={op_name="jit(train_step)/div" stack_frame_id=0}
  %mul.1536.clone.1 = f32[4096,4]{0,1:T(4,128)} multiply(%param_0.1099, %broadcast.584.clone.1), metadata={op_name="jit(train_step)/mul" stack_frame_id=0}
  %add.811.clone.1 = f32[4096,4]{0,1:T(4,128)} add(%div.774.clone.1, %mul.1536.clone.1), metadata={op_name="jit(train_step)/add" stack_frame_id=0}
  %mul.1535.clone.1 = f32[4096,4]{0,1:T(4,128)} multiply(%mul.1537.clone.1, %add.811.clone.1), metadata={op_name="jit(train_step)/mul" stack_frame_id=0}
  %add.810.clone.1 = f32[4096,4]{0,1:T(4,128)S(1)} add(%param_0.1099, %mul.1535.clone.1), metadata={op_name="jit(train_step)/add" stack_frame_id=0}
  %square.200 = f32[4096,4]{0,1:T(4,128)} multiply(%add.810.clone.1, %add.810.clone.1), metadata={op_name="jit(train_step)/square" stack_frame_id=0}
  %constant.1000 = f32[]{:T(128)} constant(0)
  %reduce.153 = f32[]{:T(128)} reduce(%square.200, %constant.1000), dimensions={0,1}, to_apply=%region_53.58, metadata={op_name="jit(train_step)/reduce_sum" stack_frame_id=0}
  %reduce.155.clone.1 = f32[]{:T(128)} reduce(%integer_pow.67.clone.1, %constant.1000), dimensions={0,1}, to_apply=%region_39.44, metadata={op_name="jit(train_step)/reduce_sum" stack_frame_id=0}
  ROOT %tuple.145 = (f32[]{:T(128)}, f32[4096,4]{0,1:T(4,128)S(1)}, f32[4096,4]{0,1:T(4,128)S(1)}, f32[4096,4]{0,1:T(4,128)S(1)}, f32[]{:T(128)}) tuple(%reduce.153, %add.810.clone.1, %add.813.clone.1, %add.814.clone.1, %reduce.155.clone.1)
}

%region_9.12 (reduce_sum.99: f32[], reduce_sum.100: f32[]) -> f32[] {
  %reduce_sum.100 = f32[]{:T(128)} parameter(1), metadata={op_name="jit(train_step)/reduce_sum"}
  %reduce_sum.99 = f32[]{:T(128)} parameter(0), metadata={op_name="jit(train_step)/reduce_sum"}
  ROOT %reduce_sum.101 = f32[]{:T(128)} add(%reduce_sum.99, %reduce_sum.100), metadata={op_name="jit(train_step)/reduce_sum" stack_frame_id=0}, backend_config={"flag_configs":[],"scoped_memory_configs":[],"used_scoped_memory_configs":[],"aliasing_operands":{"lists":[]}}
}

%fused_computation.345 (param_0.1113: bf16[4096]) -> f32[] {
  %param_0.1113 = bf16[4096]{0:T(1024)(128)(2,1)S(1)} parameter(0)
  %convert_element_type.994 = f32[4096]{0:T(1024)} convert(%param_0.1113), metadata={op_name="jit(train_step)/transpose(jvp(TransformerLinenPure.apply))/TransformerLinenPure/decoder/decoder.apply_output_head/decoder_norm/convert_element_type" stack_frame_id=0}
  %square.203 = f32[4096]{0:T(1024)} multiply(%convert_element_type.994, %convert_element_type.994), metadata={op_name="jit(train_step)/square" stack_frame_id=0}
  %constant.1014 = f32[]{:T(128)} constant(0)
  ROOT %reduce.156 = f32[]{:T(128)} reduce(%square.203, %constant.1014), dimensions={0}, to_apply=%region_9.12, metadata={op_name="jit(train_step)/reduce_sum" stack_frame_id=0}
}

%region_49.54 (reduce_sum.274: f32[], reduce_sum.275: f32[]) -> f32[] {
  %reduce_sum.274 = f32[]{:T(128)} parameter(0), metadata={op_name="jit(train_step)/reduce_sum"}
  %reduce_sum.275 = f32[]{:T(128)} parameter(1), metadata={op_name="jit(train_step)/reduce_sum"}
  ROOT %reduce_sum.276 = f32[]{:T(128)} add(%reduce_sum.274, %reduce_sum.275), metadata={op_name="jit(train_step)/reduce_sum" stack_frame_id=0}, backend_config={"flag_configs":[],"scoped_memory_configs":[],"used_scoped_memory_configs":[],"aliasing_operands":{"lists":[]}}
}

%region_35.40 (reduce_sum.199: f32[], reduce_sum.203: f32[]) -> f32[] {
  %reduce_sum.199 = f32[]{:T(128)} parameter(0), metadata={op_name="jit(train_step)/reduce_sum"}
  %reduce_sum.203 = f32[]{:T(128)} parameter(1), metadata={op_name="jit(train_step)/reduce_sum"}
  ROOT %reduce_sum.204 = f32[]{:T(128)} add(%reduce_sum.199, %reduce_sum.203), metadata={op_name="jit(train_step)/reduce_sum" stack_frame_id=0}, backend_config={"flag_configs":[],"scoped_memory_configs":[],"used_scoped_memory_configs":[],"aliasing_operands":{"lists":[]}}
}

%fused_computation.346 (param_0.1103: f32[4096], param_1.1266: f32[], param_2.1102: f32[], param_3.796: f32[], param_4.496: f32[4096], param_5.418: f32[], param_6.286: bf16[4096], param_7.185: pred[], param_8.111: f32[4096]) -> (f32[], f32[4096], f32[4096], f32[4096], f32[]) {
  %param_0.1103 = f32[4096]{0:T(1024)S(1)} parameter(0)
  %param_3.796 = f32[]{:T(128)S(6)} parameter(3)
  %mul.1568.clone.1 = f32[4096]{0:T(1024)} broadcast(%param_3.796), dimensions={}, metadata={op_name="jit(train_step)/mul" stack_frame_id=0}
  %param_7.185 = pred[]{:T(512)S(6)} parameter(7)
  %select_n.286.clone.1 = pred[4096]{0:T(1024)(128)(4,1)} broadcast(%param_7.185), dimensions={}, metadata={op_name="jit(train_step)/select_n" stack_frame_id=0}
  %param_6.286 = bf16[4096]{0:T(1024)(128)(2,1)S(1)} parameter(6)
  %convert_element_type.1009.clone.1 = f32[4096]{0:T(1024)} convert(%param_6.286), metadata={op_name="jit(train_step)/transpose(jvp(TransformerLinenPure.apply))/TransformerLinenPure/decoder/decoder.apply_output_head/decoder_norm/convert_element_type" stack_frame_id=0}
  %param_5.418 = f32[]{:T(128)} parameter(5)
  %div.813.clone.1 = f32[4096]{0:T(1024)} broadcast(%param_5.418), dimensions={}, metadata={op_name="jit(train_step)/div" stack_frame_id=0}
  %div.812.clone.1 = f32[4096]{0:T(1024)} divide(%convert_element_type.1009.clone.1, %div.813.clone.1), metadata={op_name="jit(train_step)/div" stack_frame_id=0}
  %select_n.285.clone.1 = f32[4096]{0:T(1024)} select(%select_n.286.clone.1, %convert_element_type.1009.clone.1, %div.812.clone.1), metadata={op_name="jit(train_step)/select_n" stack_frame_id=0}
  %constant.973.clone.1 = f32[]{:T(128)} constant(0.1)
  %broadcast.600.clone.1 = f32[4096]{0:T(1024)} broadcast(%constant.973.clone.1), dimensions={}, metadata={op_name="broadcast.72"}
  %mul.1574.clone.1 = f32[4096]{0:T(1024)} multiply(%select_n.285.clone.1, %broadcast.600.clone.1), metadata={op_name="jit(train_step)/mul" stack_frame_id=0}
  %param_8.111 = f32[4096]{0:T(1024)S(1)} parameter(8)
  %constant.977.clone.1 = f32[]{:T(128)} constant(0.9)
  %mul.1575.clone.1 = f32[4096]{0:T(1024)} broadcast(%constant.977.clone.1), dimensions={}, metadata={op_name="jit(train_step)/mul" stack_frame_id=0}
  %mul.1573.clone.1 = f32[4096]{0:T(1024)} multiply(%param_8.111, %mul.1575.clone.1), metadata={op_name="jit(train_step)/mul" stack_frame_id=0}
  %add.836.clone.1 = f32[4096]{0:T(1024)S(1)} add(%mul.1574.clone.1, %mul.1573.clone.1), metadata={op_name="jit(train_step)/add" stack_frame_id=0}
  %param_2.1102 = f32[]{:T(128)S(6)} parameter(2)
  %div.809.clone.1 = f32[4096]{0:T(1024)} broadcast(%param_2.1102), dimensions={}, metadata={op_name="jit(train_step)/div" stack_frame_id=0}
  %integer_pow.71.clone.1 = f32[4096]{0:T(1024)} multiply(%select_n.285.clone.1, %select_n.285.clone.1), metadata={op_name="jit(train_step)/integer_pow" stack_frame_id=0}
  %constant.976.clone.1 = f32[]{:T(128)} constant(0.05)
  %mul.1572.clone.1 = f32[4096]{0:T(1024)} broadcast(%constant.976.clone.1), dimensions={}, metadata={op_name="jit(train_step)/mul" stack_frame_id=0}
  %mul.1570.clone.1 = f32[4096]{0:T(1024)} multiply(%integer_pow.71.clone.1, %mul.1572.clone.1), metadata={op_name="jit(train_step)/mul" stack_frame_id=0}
  %param_4.496 = f32[4096]{0:T(1024)S(1)} parameter(4)
  %constant.975.clone.1 = f32[]{:T(128)} constant(0.95)
  %mul.1571.clone.1 = f32[4096]{0:T(1024)} broadcast(%constant.975.clone.1), dimensions={}, metadata={op_name="jit(train_step)/mul" stack_frame_id=0}
  %mul.1569.clone.1 = f32[4096]{0:T(1024)} multiply(%param_4.496, %mul.1571.clone.1), metadata={op_name="jit(train_step)/mul" stack_frame_id=0}
  %add.835.clone.1 = f32[4096]{0:T(1024)S(1)} add(%mul.1570.clone.1, %mul.1569.clone.1), metadata={op_name="jit(train_step)/add" stack_frame_id=0}
  %param_1.1266 = f32[]{:T(128)S(6)} parameter(1)
  %div.808.clone.1 = f32[4096]{0:T(1024)} broadcast(%param_1.1266), dimensions={}, metadata={op_name="jit(train_step)/div" stack_frame_id=0}
  %div.807.clone.1 = f32[4096]{0:T(1024)} divide(%add.835.clone.1, %div.808.clone.1), metadata={op_name="jit(train_step)/div" stack_frame_id=0}
  %sqrt.69.clone.1 = f32[4096]{0:T(1024)} sqrt(%div.807.clone.1), metadata={op_name="jit(train_step)/sqrt" stack_frame_id=0}
  %constant.974.clone.1 = f32[]{:T(128)} constant(1e-08)
  %add.834.clone.1 = f32[4096]{0:T(1024)} broadcast(%constant.974.clone.1), dimensions={}, metadata={op_name="jit(train_step)/add" stack_frame_id=0}
  %add.833.clone.1 = f32[4096]{0:T(1024)} add(%sqrt.69.clone.1, %add.834.clone.1), metadata={op_name="jit(train_step)/add" stack_frame_id=0}
  %multiply.267.clone.1 = f32[4096]{0:T(1024)} multiply(%div.809.clone.1, %add.833.clone.1), metadata={op_name="multiply.31"}
  %div.806.clone.1 = f32[4096]{0:T(1024)} divide(%add.836.clone.1, %multiply.267.clone.1), metadata={op_name="jit(train_step)/div" stack_frame_id=0}
  %mul.1567.clone.1 = f32[4096]{0:T(1024)} multiply(%param_0.1103, %broadcast.600.clone.1), metadata={op_name="jit(train_step)/mul" stack_frame_id=0}
…
:[]}
  %bitcast.207.clone.3 = bf16[4,128,4096]{2,1,0:T(8,128)(2,1)} bitcast(%dynamic_slice.210.clone.3), metadata={op_name="jit(train_step)/transpose(jvp(TransformerLinenPure.apply))/TransformerLinenPure/decoder/while/body/squeeze" stack_frame_id=0}
  %param_2.1170 = bf16[4,32,128,128]{3,2,1,0:T(8,128)(2,1)S(1)} parameter(2)
  %fusion.80.clone.3 = bf16[4,128,32,128]{3,1,2,0:T(8,128)(2,1)} fusion(%param_2.1170), kind=kLoop, calls=%fused_computation.80.clone.clone.clone.clone.clone.clone, metadata={op_name="jit(train_step)/transpose(jvp(TransformerLinenPure.apply))/TransformerLinenPure/decoder/while/body/closed_call/checkpoint/rematted_computation/layers/transpose" stack_frame_id=0}
  %param_0.1252 = bf16[4,32,128,4096]{3,2,1,0:T(8,128)(2,1)} parameter(0)
  %fusion.79.clone.3 = bf16[32,128,4096,1]{2,1,0,3:T(8,128)(2,1)} fusion(%param_0.1252, %param_1.1379), kind=kLoop, calls=%fused_computation.25.clone.1.clone.clone.clone.clone.clone.clone, metadata={op_name="jit(train_step)/transpose(jvp(TransformerLinenPure.apply))/TransformerLinenPure/decoder/while/body/closed_call/checkpoint/rematted_computation/layers/convert_element_type" stack_frame_id=0}
  %convolution.60.clone.3 = bf16[4,128,4096,1]{2,1,3,0:T(8,128)(2,1)} convolution(%fusion.80.clone.3, %fusion.79.clone.3), window={size=1x32}, dim_labels=0b1f_1io0->0bf1, metadata={op_name="jit(train_step)/transpose(jvp(TransformerLinenPure.apply))/TransformerLinenPure/decoder/while/body/closed_call/checkpoint/rematted_computation/layers/dot_general" stack_frame_id=0}
  %bitcast.182.clone.3 = bf16[4,128,4096]{2,1,0:T(8,128)(2,1)} bitcast(%convolution.60.clone.3), metadata={op_name="jit(train_step)/transpose(jvp(TransformerLinenPure.apply))/TransformerLinenPure/decoder/while/body/closed_call/checkpoint/rematted_computation/layers/dot_general" stack_frame_id=0}
  %add.635.clone.3 = bf16[4,128,4096]{2,1,0:T(8,128)(2,1)S(1)} add(%bitcast.207.clone.3, %bitcast.182.clone.3), metadata={op_name="jit(train_step)/transpose(jvp(TransformerLinenPure.apply))/TransformerLinenPure/decoder/while/body/closed_call/checkpoint/rematted_computation/layers/add" stack_frame_id=0}
  %convert_element_type.1090 = f32[4,128,4096]{2,1,0:T(8,128)} convert(%add.635.clone.3), metadata={op_name="jit(train_step)/transpose(jvp(TransformerLinenPure.apply))/TransformerLinenPure/decoder/while/body/closed_call/checkpoint/rematted_computation/layers/convert_element_type" stack_frame_id=0}
  %square.215 = f32[4,128,4096]{2,1,0:T(8,128)} multiply(%convert_element_type.1090, %convert_element_type.1090), metadata={op_name="jit(train_step)/transpose(jvp(TransformerLinenPure.apply))/TransformerLinenPure/decoder/while/body/closed_call/checkpoint/rematted_computation/layers/square" stack_frame_id=0}
  %constant.1138 = f32[]{:T(128)} constant(0)
  %reduce.177 = f32[4,128]{1,0:T(4,128)S(1)} reduce(%square.215, %constant.1138), dimensions={2}, to_apply=%region_13.16, metadata={op_name="jit(train_step)/transpose(jvp(TransformerLinenPure.apply))/TransformerLinenPure/decoder/while/body/closed_call/checkpoint/rematted_computation/layers/reduce_sum" stack_frame_id=0}
  ROOT %tuple.188 = (f32[4,128]{1,0:T(4,128)S(1)}, bf16[4,128,4096]{2,1,0:T(8,128)(2,1)S(1)}) tuple(%reduce.177, %add.635.clone.3)
}

%convert_element_type.523.reduce_sub_computation (lhs: bf16[], rhs: bf16[]) -> bf16[] {
  %lhs = bf16[] parameter(0)
  %rhs = bf16[] parameter(1)
  ROOT %add.623 = bf16[] add(%lhs, %rhs), backend_config={"flag_configs":[],"scoped_memory_configs":[],"used_scoped_memory_configs":[],"aliasing_operands":{"lists":[]}}
}

%fused_computation.122.clone.clone (param_0.1234: bf16[4,4096], param_1.1366: s32[]) -> bf16[4096] {
  %param_0.1234 = bf16[4,4096]{1,0:T(4,128)(2,1)} parameter(0)
  %param_1.1366 = s32[]{:T(128)S(6)} parameter(1)
  %constant.1126 = s32[]{:T(128)} constant(0)
  %dynamic_slice.312 = bf16[1,4096]{1,0:T(2,128)(2,1)} dynamic-slice(%param_0.1234, %param_1.1366, %constant.1126), dynamic_slice_sizes={1,4096}, metadata={op_name="jit(train_step)/transpose(jvp(TransformerLinenPure.apply))/TransformerLinenPure/decoder/while/body/dynamic_slice" stack_frame_id=0}, backend_config={"flag_configs":[],"scoped_memory_configs":[],"indices_config":{"index_known_bits":[{"zeroes":"4294967292","ones":"0","bitwidth":"32"},{"zeroes":"4294967295","ones":"0","bitwidth":"32"}],"is_index_aligned":[]},"used_scoped_memory_configs":[]}
  %constant.1127 = bf16[]{:T(256)} constant(-0), metadata={op_name="jit(train_step)/transpose(jvp(TransformerLinenPure.apply))/TransformerLinenPure/decoder/while/body/closed_call/checkpoint/rematted_computation/layers/convert_element_type" stack_frame_id=0}
  ROOT %reduce.176 = bf16[4096]{0:T(1024)(128)(2,1)S(1)} reduce(%dynamic_slice.312, %constant.1127), dimensions={0}, to_apply=%convert_element_type.523.reduce_sub_computation, metadata={op_name="jit(train_step)/transpose(jvp(TransformerLinenPure.apply))/TransformerLinenPure/decoder/while/body/closed_call/checkpoint/rematted_computation/layers/convert_element_type" stack_frame_id=0}
}

%fused_computation.12.clone.clone.clone (param_0.1253: bf16[4,14336,4096], param_1.1380: s32[]) -> bf16[14336,4096,1] {
  %param_0.1253 = bf16[4,14336,4096]{2,1,0:T(8,128)(2,1)} parameter(0)
  %param_1.1380 = s32[]{:T(128)S(6)} parameter(1)
  %constant.1139 = s32[]{:T(128)} constant(0)
  %dynamic_slice.320 = bf16[1,14336,4096]{2,1,0:T(8,128)(2,1)} dynamic-slice(%param_0.1253, %param_1.1380, %constant.1139, %constant.1139), dynamic_slice_sizes={1,14336,4096}, metadata={op_name="jit(train_step)/transpose(jvp(TransformerLinenPure.apply))/TransformerLinenPure/decoder/while/body/dynamic_slice" stack_frame_id=0}, backend_config={"flag_configs":[],"scoped_memory_configs":[],"indices_config":{"index_known_bits":[{"zeroes":"4294967292","ones":"0","bitwidth":"32"},{"zeroes":"4294967295","ones":"0","bitwidth":"32"},{"zeroes":"4294967295","ones":"0","bitwidth":"32"}],"is_index_aligned":[]},"used_scoped_memory_configs":[]}
  ROOT %bitcast.561 = bf16[14336,4096,1]{1,0,2:T(8,128)(2,1)} bitcast(%dynamic_slice.320), metadata={op_name="jit(train_step)/transpose(jvp(TransformerLinenPure.apply))/TransformerLinenPure/decoder/while/body/closed_call/checkpoint/rematted_computation/layers/convert_element_type" stack_frame_id=0}
}

%bitcast_fusion.3.clone.clone (bitcast_input.12: bf16[4,128,4096]) -> bf16[4,128,4096] {
  %bitcast_input.12 = bf16[4,128,4096]{2,1,0:T(8,128)(2,1)S(1)} parameter(0)
  ROOT %bitcast.560 = bf16[4,128,4096]{2,1,0:T(8,128)(2,1)} bitcast(%bitcast_input.12)
}

%fused_computation.13.clone.clone (param_0.1254: bf16[4,128,4096], param_1.1381: bf16[4,14336,4096], param_2.1171: s32[]) -> bf16[14336,4,128] {
  %param_1.1381 = bf16[4,14336,4096]{2,1,0:T(8,128)(2,1)} parameter(1)
  %param_2.1171 = s32[]{:T(128)S(6)} parameter(2)
  %fusion.333 = bf16[14336,4096,1]{1,0,2:T(8,128)(2,1)} fusion(%param_1.1381, %param_2.1171), kind=kLoop, calls=%fused_computation.12.clone.clone.clone, metadata={op_name="jit(train_step)/transpose(jvp(TransformerLinenPure.apply))/TransformerLinenPure/decoder/while/body/closed_call/checkpoint/rematted_computation/layers/convert_element_type" stack_frame_id=0}
  %param_0.1254 = bf16[4,128,4096]{2,1,0:T(8,128)(2,1)S(1)} parameter(0)
  %fusion.334 = bf16[4,128,4096]{2,1,0:T(8,128)(2,1)} fusion(%param_0.1254), kind=kLoop, calls=%bitcast_fusion.3.clone.clone
  ROOT %convolution.108 = bf16[14336,4,128]{0,2,1:T(8,128)(2,1)S(1)} convolution(%fusion.333, %fusion.334), window={size=4 pad=3_3 rhs_reversal=1}, dim_labels=bf0_0oi->b0f, metadata={op_name="jit(train_step)/transpose(jvp(TransformerLinenPure.apply))/TransformerLinenPure/decoder/while/body/closed_call/checkpoint/layers/dot_general" stack_frame_id=0}
}

%fused_computation.144.clone.1.clone (param_0.1255: f32[4,128]) -> f32[4,128] {
  %param_0.1255 = f32[4,128]{1,0:T(4,128)S(1)} parameter(0)
  %constant.1141 = f32[]{:T(128)} constant(0.000244140625)
  %closed_call.86 = f32[4,128]{1,0:T(4,128)} broadcast(%constant.1141), dimensions={}, metadata={op_name="jit(train_step)/transpose(jvp(TransformerLinenPure.apply))/TransformerLinenPure/decoder/while/body/closed_call" stack_frame_id=0}
  %div.847 = f32[4,128]{1,0:T(4,128)} multiply(%param_0.1255, %closed_call.86), metadata={op_name="jit(train_step)/transpose(jvp(TransformerLinenPure.apply))/TransformerLinenPure/decoder/while/body/closed_call/checkpoint/rematted_computation/layers/div" stack_frame_id=0}
  %constant.1140 = f32[]{:T(128)} constant(1e-05)
  %closed_call.85 = f32[4,128]{1,0:T(4,128)} broadcast(%constant.1140), dimensions={}, metadata={op_name="jit(train_step)/transpose(jvp(TransformerLinenPure.apply))/TransformerLinenPure/decoder/while/body/closed_call" stack_frame_id=0}
  %add.861 = f32[4,128]{1,0:T(4,128)} add(%div.847, %closed_call.85), metadata={op_name="jit(train_step)/transpose(jvp(TransformerLinenPure.apply))/TransformerLinenPure/decoder/while/body/closed_call/checkpoint/rematted_computation/layers/add" stack_frame_id=0}
  ROOT %rsqrt.98 = f32[4,128]{1,0:T(4,128)S(1)} rsqrt(%add.861), metadata={op_name="jit(train_step)/transpose(jvp(TransformerLinenPure.apply))/TransformerLinenPure/decoder/while/body/closed_call/checkpoint/rematted_computation/layers/rsqrt" stack_frame_id=0}
}

%fused_computation.11.clone.1.clone.clone (param_0.1259: bf16[4,4096,14336], param_1.1385: s32[]) -> bf16[4096,14336,1] {
  %param_0.1259 = bf16[4,4096,14336]{2,1,0:T(8,128)(2,1)} parameter(0)
  %param_1.1385 = s32[]{:T(128)S(6)} parameter(1)
  %constant.1143 = s32[]{:T(128)} constant(0)
  %dynamic_slice.322 = bf16[1,4096,14336]{2,1,0:T(8,128)(2,1)} dynamic-slice(%param_0.1259, %param_1.1385, %constant.1143, %constant.1143), dynamic_slice_sizes={1,4096,14336}, metadata={op_name="jit(train_step)/transpose(jvp(TransformerLinenPure.apply))/TransformerLinenPure/decoder/while/body/dynamic_slice" stack_frame_id=0}, backend_config={"flag_configs":[],"scoped_memory_configs":[],"indices_config":{"index_known_bits":[{"zeroes":"4294967292","ones":"0","bitwidth":"32"},{"zeroes":"4294967295","ones":"0","bitwidth":"32"},{"zeroes":"4294967295","ones":"0","bitwidth":"32"}],"is_index_aligned":[]},"used_scoped_memory_configs":[]}
  ROOT %bitcast.563 = bf16[4096,14336,1]{1,0,2:T(8,128)(2,1)} bitcast(%dynamic_slice.322), metadata={op_name="jit(train_step)/transpose(jvp(TransformerLinenPure.apply))/TransformerLinenPure/decoder/while/body/closed_call/checkpoint/rematted_computation/layers/convert_element_type" stack_frame_id=0}
}

%fused_computation.96.clone.2.clone.clone (param_0.1260: f32[4,128], param_1.1386: bf16[4,128,4096], param_2.1174: bf16[4096]) -> bf16[4,128,4096] {
  %param_2.1174 = bf16[4096]{0:T(1024)(128)(2,1)S(1)} parameter(2)
  %dot_general.428 = bf16[4,128,4096]{2,1,0:T(8,128)(2,1)} broadcast(%param_2.1174), dimensions={2}, metadata={op_name="jit(train_step)/transpose(jvp(TransformerLinenPure.apply))/TransformerLinenPure/decoder/while/body/closed_call/checkpoint/rematted_computation/layers/...k,k->...k/dot_general" stack_frame_id=0}
  %param_1.1386 = bf16[4,128,4096]{2,1,0:T(8,128)(2,1)S(1)} parameter(1)
  %convert_element_type.1094 = f32[4,128,4096]{2,1,0:T(8,128)} convert(%param_1.1386), metadata={op_name="jit(train_step)/transpose(jvp(TransformerLinenPure.apply))/TransformerLinenPure/decoder/while/body/closed_call/checkpoint/rematted_computation/layers/convert_element_type" stack_frame_id=0}
  %param_0.1260 = f32[4,128]{1,0:T(4,128)S(1)} parameter(0)
  %mul.1711 = f32[4,128,4096]{2,1,0:T(8,128)} broadcast(%param_0.1260), dimensions={0,1}, metadata={op_name="jit(train_step)/transpose(jvp(TransformerLinenPure.apply))/TransformerLinenPure/decoder/while/body/closed_call/checkpoint/rematted_computation/layers/mul" stack_frame_id=0}
  %mul.1710 = f32[4,128,4096]{2,1,0:T(8,128)} multiply(%convert_element_type.1094, %mul.1711), metadata={op_name="jit(train_step)/transpose(jvp(TransformerLinenPure.apply))/TransformerLinenPure/decoder/while/body/closed_call/checkpoint/rematted_computation/layers/mul" stack_frame_id=0}
  %convert_element_type.1093 = bf16[4,128,4096]{2,1,0:T(8,128)(2,1)} convert(%mul.1710), metadata={op_name="jit(train_step)/transpose(jvp(TransformerLinenPure.apply))/TransformerLinenPure/decoder/while/body/closed_call/checkpoint/rematted_computation/layers/convert_element_type" stack_frame_id=0}
  ROOT %dot_general.427 = bf16[4,128,4096]{2,1,0:T(8,128)(2,1)} multiply(%dot_general.428, %convert_element_type.1093), metadata={op_name="jit(train_step)/transpose(jvp(TransformerLinenPure.apply))/TransformerLinenPure/decoder/while/body/closed_call/checkpoint/rematted_computation/layers/...k,k->...k/dot_general" stack_frame_id=0}
}

%fused_computation.23.clone.clone (param_0.1261: bf16[4,4096,14336], param_1.1387: s32[], param_2.1175: f32[4,128], param_3.848: bf16[4,128,4096], param_4.528: bf16[4096]) -> bf16[4,128,14336] {
  %param_2.1175 = f32[4,128]{1,0:T(4,128)S(1)} parameter(2)
  %param_3.848 = bf16[4,128,4096]{2,1,0:T(8,128)(2,1)S(1)} parameter(3)
  %param_4.528 = bf16[4096]{0:T(1024)(128)(2,1)S(1)} parameter(4)
  %fusion.338 = bf16[4,128,4096]{2,1,0:T(8,128)(2,1)} fusion(%param_2.1175, %param_3.848, %param_4.528), kind=kLoop, calls=%fused_computation.96.clone.2.clone.clone, metadata={op_name="jit(train_step)/transpose(jvp(TransformerLinenPure.apply))/TransformerLinenPure/decoder/while/body/closed_call/checkpoint/rematted_computation/layers/...k,k->...k/dot_general" stack_frame_id=0}
  %param_0.1261 = bf16[4,4096,14336]{2,1,0:T(8,128)(2,1)} parameter(0)
  %param_1.1387 = s32[]{:T(128)S(6)} parameter(1)
  %fusion.337 = bf16[4096,14336,1]{1,0,2:T(8,128)(2,1)} fusion(%param_0.1261, %param_1.1387), kind=kLoop, calls=%fused_computation.11.clone.1.clone.clone, metadata={op_name="jit(train_step)/transpose(jvp(TransformerLinenPure.apply))/TransformerLinenPure/decoder/while/body/closed_call/checkpoint/rematted_computation/layers/convert_element_type" stack_frame_id=0}
  ROOT %convolution.110 = bf16[4,128,14336]{2,1,0:T(8,128)(2,1)S(1)} convolution(%fusion.338, %fusion.337), window={size=1}, dim_labels=0bf_io0->0bf, metadata={op_name="jit(train_step)/transpose(jvp(TransformerLinenPure.apply))/TransformerLinenPure/decoder/while/body/closed_call/checkpoint/rematted_computation/layers/dot_general" stack_frame_id=0}
}

%fused_computation.14.clone.1.clone.clone (param_0.1262: bf16[4,4096,14336], param_1.1388: s32[]) -> bf16[4096,14336,1] {
  %param_0.1262 = bf16[4,4096,14336]{2,1,0:T(8,128)(2,1)} parameter(0)
  %param_1.1388 = s32[]{:T(128)S(6)} parameter(1)
  %constant.1144 = s32[]{:T(128)} constant(0)
  %dynamic_slice.323 = bf16[1,4096,14336]{2,1,0:T(8,128)(2,1)} dynamic-slice(%param_0.1262, %param_1.1388, %constant.1144, %constant.1144), dynamic_slice_sizes={1,4096,14336}, metadata={op_name="jit(train_step)/transpose(jvp(TransformerLinenPure.apply))/TransformerLinenPure/decoder/while/body/dynamic_slice" stack_frame_id=0}, backend_config={"flag_configs":[],"scoped_memory_configs":[],"indices_config":{"index_known_bits":[{"zeroes":"4294967292","ones":"0","bitwidth":"32"},{"zeroes":"4294967295","ones":"0","bitwidth":"32"},{"zeroes":"4294967295","ones":"0","bitwidth":"32"}],"is_index_aligned":[]},"used_scoped_memory_configs":[]}
  ROOT %bitcast.564 = bf16[4096,14336,1]{1,0,2:T(8,128)(2,1)} bitcast(%dynamic_slice.323), metadata={op_name="jit(train_step)/transpose(jvp(TransformerLinenPure.apply))/TransformerLinenPure/decoder/while/body/closed_call/checkpoint/rematted_computation/layers/convert_element_type" stack_frame_id=0}
}

%fused_computation.39.clone.1.clone.clone (param_0.1263: bf16[14336,4,128], param_1.1389: bf16[4,128,14336]) -> bf16[4,128,14336] {
  %param_1.1389 = bf16[4,128,14336]{2,1,0:T(8,128)(2,1)S(1)} parameter(1)
  %constant.1145 = bf16[]{:T(256)} constant(1)
  %jit_silu_.44 = bf16[4,128,14336]{2,1,0:T(8,128)(2,1)} broadcast(%constant.1145), dimensions={}, metadata={op_name="jit(train_step)/transpose(jvp(TransformerLinenPure.apply))/TransformerLinenPure/decoder/while/body/closed_call/checkpoint/rematted_computation/layers/jit(silu)" stack_frame_id=0}
  %neg.130 = bf16[4,128,14336]{2,1,0:T(8,128)(2,1)} negate(%param_1.1389), metadata={op_name="jit(train_step)/transpose(jvp(TransformerLinenPure.apply))/TransformerLinenPure/decoder/while/body/closed_call/checkpoint/rematted_computation/layers/jit(silu)/neg" stack_frame_id=0}
  %exp.69 = bf16[4,128,14336]{2,1,0:T(8,128)(2,1)} exponential(%neg.130), metadata={op_name="jit(train_step)/transpose(jvp(TransformerLinenPure.apply))/TransformerLinenPure/decoder/while/body/closed_call/checkpoint/rematted_computation/layers/jit(silu)/exp" stack_frame_id=0}
  %add.862 = bf16[4,128,14336]{2,1,0:T(8,128)(2,1)} add(%exp.69, %jit_silu_.44), metadata={op_name="jit(train_step)/transpose(jvp(TransformerLinenPure.apply))/TransformerLinenPure/decoder/while/body/closed_call/checkpoint/rematted_computation/layers/jit(silu)/add" stack_frame_id=0}
  %div.848 = bf16[4,128,14336]{2,1,0:T(8,128)(2,1)} divide(%jit_silu_.44, %add.862), metadata={op_name="jit(train_step)/transpose(jvp(TransformerLinenPure.apply))/TransformerLinenPure/decoder/while/body/closed_call/checkpoint/rematted_computation/layers/jit(silu)/div" stack_frame_id=0}
  %mul.1713 = bf16[4,128,14336]{2,1,0:T(8,128)(2,1)} multiply(%param_1.1389, %div.848), metadata={op_name="jit(train_step)/transpose(jvp(TransformerLinenPure.apply))/TransformerLinenPure/decoder/while/body/closed_call/checkpoint/rematted_computation/layers/jit(silu)/mul" stack_frame_id=0}
  %param_0.1263 = bf16[14336,4,128]{0,2,1:T(8,128)(2,1)S(1)} parameter(0)
  %bitcast.565 = bf16[4,128,14336]{2,1,0:T(8,128)(2,1)} bitcast(%param_0.1263), metadata={op_name="jit(train_step)/transpose(jvp(TransformerLinenPure.apply))/TransformerLinenPure/decoder/while/body/closed_call/checkpoint/layers/dot_general" stack_frame_id=0}
  ROOT %mul.1712 = bf16[4,128,14336]{2,1,0:T(8,128)(2,1)} multiply(%mul.1713, %bitcast.565), metadata={op_name="jit(train_step)/transpose(jvp(TransformerLinenPure.apply))/TransformerLinenPure/decoder/while/body/closed_call/checkpoint/layers/mul" stack_frame_id=0}
}

%fused_computation.21.clone.clone (param_0.1264: bf16[4,4096,14336], param_1.1390: s32[], param_2.1176: bf16[14336,4,128], param_3.849: bf16[4,128,14336]) -> bf16[4,128,4096] {
  %param_2.1176 = bf16[14336,4,128]{0,2,1:T(8,128)(2,1)S(1)} parameter(2)
  %param_3.849 = bf16[4,128,14336]{2,1,0:T(8,128)(2,1)S(1)} parameter(3)
  %bitcast_multiply_fusion.15 = bf16[4,128,14336]{2,1,0:T(8,128)(2,1)} fusion(%param_2.1176, %param_3.849), kind=kLoop, calls=%fused_computation.39.clone.1.clone.clone, metadata={op_name="jit(train_step)/transpose(jvp(TransformerLinenPure.apply))/TransformerLinenPure/decoder/while/body/closed_call/checkpoint/layers/mul" stack_frame_id=0}
  %param_0.1264 = bf16[4,4096,14336]{2,1,0:T(8,128)(2,1)} parameter(0)
  %param_1.1390 = s32[]{:T(128)S(6)} parameter(1)
  %fusion.339 = bf16[4096,14336,1]{1,0,2:T(8,128)(2,1)} fusion(%param_0.1264, %param_1.1390), kind=kLoop, calls=%fused_computation.14.clone.1.clone.clone, metadata={op_name="jit(train_step)/transpose(jvp(TransformerLinenPure.apply))/TransformerLinenPure/decoder/while/body/closed_call/checkpoint/rematted_computation/layers/convert_element_type" stack_frame_id=0}
  ROOT %convolution.111 = bf16[4,128,4096]{2,1,0:T(8,128)(2,1)S(1)} convolution(%bitcast_multiply_fusion.15, %fusion.339), window={size=1}, dim_labels=0bf_oi0->0bf, metadata={op_name="jit(train_step)/transpose(jvp(TransformerLinenPure.apply))/TransformerLinenPure/decoder/while/body/closed_call/checkpoint/layers/dot_general" stack_frame_id=0}
}

%fused_computation.14.clone.clone.clone (param_0.1256: bf16[4,4096,14336], param_1.1382: s32[]) -> bf16[4096,14336,1] {
  %param_0.1256 = bf16[4,4096,14336]{2,1,0:T(8,128)(2,1)} parameter(0)
  %param_1.1382 = s32[]{:T(128)S(6)} parameter(1)
  %constant.1142 = s32[]{:T(128)} constant(0)
  %dynamic_slice.321 = bf16[1,4096,14336]{2,1,0:T(8,128)(2,1)} dynamic-slice(%param_0.1256, %param_1.1382, %constant.1142, %constant.1142), dynamic_slice_sizes={1,4096,14336}, metadata={op_name="jit(train_step)/transpose(jvp(TransformerLinenPure.apply))/TransformerLinenPure/decoder/while/body/dynamic_slice" stack_frame_id=0}, backend_config={"flag_configs":[],"scoped_memory_configs":[],"indices_config":{"index_known_bits":[{"zeroes":"4294967292","ones":"0","bitwidth":"32"},{"zeroes":"4294967295","ones":"0","bitwidth":"32"},{"zeroes":"4294967295","ones":"0","bitwidth":"32"}],"is_index_aligned":[]},"used_scoped_memory_configs":[]}
  ROOT %bitcast.562 = bf16[4096,14336,1]{1,0,2:T(8,128)(2,1)} bitcast(%dynamic_slice.321), metadata={op_name="jit(train_step)/transpose(jvp(TransformerLinenPure.apply))/TransformerLinenPure/decoder/while/body/closed_call/checkpoint/rematted_computation/layers/convert_element_type" stack_frame_id=0}
}

%fused_computation.96.clone.1.clone.clone (param_0.1257: f32[4,128], param_1.1383: bf16[4,128,4096], param_2.1172: bf16[4096]) -> bf16[4,128,4096] {
  %param_2.1172 = bf16[4096]{0:T(1024)(128)(2,1)S(1)} parameter(2)
  %dot_general.426 = bf16[4,128,4096]{2,1,0:T(8,128)(2,1)} broadcast(%param_2.1172), dimensions={2}, metadata={op_name="jit(train_step)/transpose(jvp(TransformerLinenPure.apply))/TransformerLinenPure/decoder/while/body/closed_call/checkpoint/rematted_computation/layers/...k,k->...k/dot_general" stack_frame_id=0}
  %param_1.1383 = bf16[4,128,4096]{2,1,0:T(8,128)(2,1)S(1)} parameter(1)
  %convert_element_type.1092 = f32[4,128,4096]{2,1,0:T(8,128)} convert(%param_1.1383), metadata={op_name="jit(train_step)/transpose(jvp(TransformerLinenPure.apply))/TransformerLinenPure/decoder/while/body/closed_call/checkpoint/rematted_computation/layers/convert_element_type" stack_frame_id=0}
  %param_0.1257 = f32[4,128]{1,0:T(4,128)S(1)} parameter(0)
  %mul.1709 = f32[4,128,4096]{2,1,0:T(8,128)} broadcast(%param_0.1257), dimensions={0,1}, metadata={op_name="jit(train_step)/transpose(jvp(TransformerLinenPure.apply))/TransformerLinenPure/decoder/while/body/closed_call/checkpoint/rematted_computation/layers/mul" stack_frame_id=0}
  %mul.1708 = f32[4,128,4096]{2,1,0:T(8,128)} multiply(%convert_element_type.1092, %mul.1709), metadata={op_name="jit(train_step)/transpose(jvp(TransformerLinenPure.apply))/TransformerLinenPure/decoder/while/body/closed_call/checkpoint/rematted_computation/layers/mul" stack_frame_id=0}
  %convert_element_type.1091 = bf16[4,128,4096]{2,1,0:T(8,128)(2,1)} convert(%mul.1708), metadata={op_name="jit(train_step)/transpose(jvp(TransformerLinenPure.apply))/TransformerLinenPure/decoder/while/body/closed_call/checkpoint/rematted_computation/layers/convert_element_type" stack_frame_id=0}
  ROOT %dot_general.425 = bf16[4,128,4096]{2,1,0:T(8,128)(2,1)} multiply(%dot_general.426, %convert_element_type.1091), metadata={op_name="jit(train_step)/transpose(jvp(TransformerLinenPure.apply))/TransformerLinenPure/decoder/while/body/closed_call/checkpoint/rematted_computation/layers/...k,k->...k/dot_general" stack_frame_id=0}
}

%fused_computation.20.clone.clone (param_0.1258: bf16[4,4096,14336], param_1.1384: s32[], param_2.1173: f32[4,128], param_3.847: bf16[4,128,4096], param_4.527: bf16[4096]) -> bf16[4,128,14336] {
  %param_2.1173 = f32[4,128]{1,0:T(4,128)S(1)} parameter(2)
  %param_3.847 = bf16[4,128,4096]{2,1,0:T(8,128)(2,1)S(1)} parameter(3)
  %param_4.527 = bf16[4096]{0:T(1024)(128)(2,1)S(1)} parameter(4)
  %fusion.336 = bf16[4,128,4096]{2,1,0:T(8,128)(2,1)} fusion(%param_2.1173, %param_3.847, %param_4.527), kind=kLoop, calls=%fused_computation.96.clone.1.clone.clone, metadata={op_name="jit(train_step)/transpose(jvp(TransformerLinenPure.apply))/TransformerLinenPure/decoder/while/body/closed_call/checkpoint/rematted_computation/layers/...k,k->...k/dot_general" stack_frame_id=0}
  %param_0.1258 = bf16[4,4096,14336]{2,1,0:T(8,128)(2,1)} parameter(0)
  %param_1.1384 = s32[]{:T(128)S(6)} parameter(1)
  %fusion.335 = bf16[4096,14336,1]{1,0,2:T(8,128)(2,1)} fusion(%param_0.1258, %param_1.1384), kind=kLoop, calls=%fused_computation.14.clone.clone.clone, metadata={op_name="jit(train_step)/transpose(jvp(TransformerLinenPure.apply))/TransformerLinenPure/decoder/while/body/closed_call/checkpoint/rematted_computation/layers/convert_element_type" stack_frame_id=0}
  ROOT %convolution.109 = bf16[4,128,14336]{2,1,0:T(8,128)(2,1)S(1)} convolution(%fusion.336, %fusion.335), window={size=1}, dim_labels=0bf_io0->0bf, metadata={op_name="jit(train_step)/transpose(jvp(TransformerLinenPure.apply))/TransformerLinenPure/decoder/while/body/closed_call/checkpoint/rematted_computation/layers/dot_general" stack_frame_id=0}
}

%region_14.17 (reduce_sum.126: f32[], reduce_sum.127: f32[]) -> f32[] {
  %reduce_sum.126 = f32[]{:T(128)} parameter(0), metadata={op_name="jit(train_step)/transpose(jvp(TransformerLinenPure.apply))/TransformerLinenPure/decoder/while/body/closed_call/checkpoint/layers/reduce_sum"}
  %reduce_sum.127 = f32[]{:T(128)} parameter(1), metadata={op_name="jit(train_step)/transpose(jvp(TransformerLinenPure.apply))/TransformerLinenPure/decoder/while/body/closed_call/checkpoint/layers/reduce_sum"}
  ROOT %reduce_sum.128 = f32[]{:T(128)} add(%reduce_sum.126, %reduce_sum.127), metadata={op_name="checkpoint/layers/reduce_sum" stack_frame_id=0}, backend_config={"flag_configs":[],"scoped_memory_configs":[],"used_scoped_memory_configs":[],"aliasing_operands":{"lists":[]}}
}

%fused_computation.11.clone.clone.clone.clone.clone.clone.clone (param_0.1265: bf16[4,4096,14336], param_1.1391: s32[]) -> bf16[4096,14336,1] {
  %param_0.1265 = bf16[4,4096,14336]{2,1,0:T(8,128)(2,1)} parameter(0)
  %param_1.1391 = s32[]{:T(128)S(6)} parameter(1)
  %constant.1146 = s32[]{:T(128)} constant(0)
  %dynamic_slice.324 = bf16[1,4096,14336]{2,1,0:T(8,128)(2,1)} dynamic-slice(%param_0.1265, %param_1.1391, %constant.1146, %constant.1146), dynamic_slice_sizes={1,4096,14336}, metadata={op_name="jit(train_step)/transpose(jvp(TransformerLinenPure.apply))/TransformerLinenPure/decoder/while/body/dynamic_slice" stack_frame_id=0}, backend_config={"flag_configs":[],"scoped_memory_configs":[],"indices_config":{"index_known_bits":[{"zeroes":"4294967292","ones":"0","bitwidth":"32"},{"zeroes":"4294967295","ones":"0","bitwidth":"32"},{"zeroes":"4294967295","ones":"0","bitwidth":"32"}],"is_index_aligned":[]},"used_scoped_memory_configs":[]}
  ROOT %bitcast.566 = bf16[4096,14336,1]{1,0,2:T(8,128)(2,1)} bitcast(%dynamic_slice.324), metadata={op_name="jit(train_step)/transpose(jvp(TransformerLinenPure.apply))/TransformerLinenPure/decoder/while/body/closed_call/checkpoint/rematted_computation/layers/convert_element_type" stack_frame_id=0}
}

%fused_computation.38.clone.1.clone.clone.clone.clone (param_0.1266: bf16[4,128,14336], param_1.1392: bf16[4,128,14336], param_2.1177: bf16[14336,4,128]) -> bf16[4,128,14336] {
  %param_2.1177 = bf16[14336,4,128]{0,2,1:T(8,128)(2,1)S(1)} parameter(2)
  %bitcast.567 = bf16[4,128,14336]{2,1,0:T(8,128)(2,1)} bitcast(%param_2.1177), metadata={op_name="jit(train_step)/transpose(jvp(TransformerLinenPure.apply))/TransformerLinenPure/decoder/while/body/closed_call/checkpoint/layers/dot_general" stack_frame_id=0}
  %param_1.1392 = bf16[4,128,14336]{2,1,0:T(8,128)(2,1)S(1)} parameter(1)
  %mul.1718 = bf16[4,128,14336]{2,1,0:T(8,128)(2,1)} multiply(%bitcast.567, %param_1.1392), metadata={op_name="jit(train_step)/transpose(jvp(TransformerLinenPure.apply))/TransformerLinenPure/decoder/while/body/closed_call/checkpoint/layers/mul" stack_frame_id=0}
  %constant.1147 = bf16[]{:T(256)} constant(1)
  %jit_silu_.45 = bf16[4,128,14336]{2,1,0:T(8,128)(2,1)} broadcast(%constant.1147), dimensions={}, metadata={op_name="jit(train_step)/transpose(jvp(TransformerLinenPure.apply))/TransformerLinenPure/decoder/while/body/closed_call/checkpoint/rematted_computation/layers/jit(silu)" stack_frame_id=0}
  %param_0.1266 = bf16[4,128,14336]{2,1,0:T(8,128)(2,1)S(1)} parameter(0)
  %neg.131 = bf16[4,128,14336]{2,1,0:T(8,128)(2,1)} negate(%param_0.1266), metadata={op_name="jit(train_step)/transpose(jvp(TransformerLinenPure.apply))/TransformerLinenPure/decoder/while/body/closed_call/checkpoint/rematted_computation/layers/jit(silu)/neg" stack_frame_id=0}
  %exp.70 = bf16[4,128,14336]{2,1,0:T(8,128)(2,1)} exponential(%neg.131), metadata={op_name="jit(train_step)/transpose(jvp(TransformerLinenPure.apply))/TransformerLinenPure/decoder/while/body/closed_call/checkpoint/rematted_computation/layers/jit(silu)/exp" stack_frame_id=0}
  %add.863 = bf16[4,128,14336]{2,1,0:T(8,128)(2,1)} add(%exp.70, %jit_silu_.45), metadata={op_name="jit(train_step)/transpose(jvp(TransformerLinenPure.apply))/TransformerLinenPure/decoder/while/body/closed_call/checkpoint/rematted_computation/layers/jit(silu)/add" stack_frame_id=0}
  %div.849 = bf16[4,128,14336]{2,1,0:T(8,128)(2,1)} divide(%jit_silu_.45, %add.863), metadata={op_name="jit(train_step)/transpose(jvp(TransformerLinenPure.apply))/TransformerLinenPure/decoder/while/body/closed_call/checkpoint/rematted_computation/layers/jit(silu)/div" stack_frame_id=0}
  %mul.1717 = bf16[4,128,14336]{2,1,0:T(8,128)(2,1)} multiply(%mul.1718, %div.849), metadata={op_name="jit(train_step)/transpose(jvp(TransformerLinenPure.apply))/TransformerLinenPure/decoder/while/body/closed_call/checkpoint/layers/jit(silu)/mul" stack_frame_id=0}
  %mul.1716 = bf16[4,128,14336]{2,1,0:T(8,128)(2,1)} multiply(%param_0.1266, %mul.1718), metadata={op_name="jit(train_step)/transpose(jvp(TransformerLinenPure.apply))/TransformerLinenPure/decoder/while/body/closed_call/checkpoint/layers/jit(silu)/mul" stack_frame_id=0}
  %sub.98 = bf16[4,128,14336]{2,1,0:T(8,128)(2,1)} subtract(%jit_silu_.45, %div.849), metadata={op_name="jit(train_step)/transpose(jvp(TransformerLinenPure.apply))/TransformerLinenPure/decoder/while/body/closed_call/checkpoint/rematted_computation/layers/jit(silu)/sub" stack_frame_id=0}
  %mul.1715 = bf16[4,128,14336]{2,1,0:T(8,128)(2,1)} multiply(%div.849, %sub.98), metadata={op_name="jit(train_step)/transpose(jvp(TransformerLinenPure.apply))/TransformerLinenPure/decoder/while/body/closed_call/checkpoint/rematted_computation/layers/jit(silu)/mul" stack_frame_id=0}
  %mul.1714 = bf16[4,128,14336]{2,1,0:T(8,128)(2,1)} multiply(%mul.1716, %mul.1715), metadata={op_name="jit(train_step)/transpose(jvp(TransformerLinenPure.apply))/TransformerLinenPure/decoder/while/body/closed_call/checkpoint/layers/jit(silu)/mul" stack_frame_id=0}
  ROOT %add_any.145 = bf16[4,128,14336]{2,1,0:T(8,128)(2,1)} add(%mul.1717, %mul.1714), metadata={op_name="jit(train_step)/transpose(jvp(TransformerLinenPure.apply))/TransformerLinenPure/decoder/while/body/closed_call/checkpoint/layers/jit(silu)/add_any" stack_frame_id=0}
}

%fused_computation.63.clone.clone (param_0.1267: bf16[4,128,4096], param_1.1393: bf16[4096], param_2.1178: bf16[4,128,4096], param_3.850: bf16[4,4096,14336], param_4.529: s32[], param_5.425: bf16[4,128,14336], param_6.291: bf16[4,128,14336], param_7.188: bf16[14336,4,128]) -> (f32[4,128], bf16[4,128,4096]) {
  %param_0.1267 = bf16[4,128,4096]{2,1,0:T(8,128)(2,1)S(1)} parameter(0)
  %convert_element_type.1096 = f32[4,128,4096]{2,1,0:T(8,128)} convert(%param_0.1267), metadata={op_name="jit(train_step)/transpose(jvp(TransformerLinenPure.apply))/TransformerLinenPure/decoder/while/body/closed_call/checkpoint/rematted_computation/layers/convert_element_type" stack_frame_id=0}
  %param_2.1178 = bf16[4,128,4096]{2,1,0:T(8,128)(2,1)S(1)} parameter(2)
  %param_5.425 = bf16[4,128,14336]{2,1,0:T(8,128)(2,1)S(1)} parameter(5)
  %param_6.291 = bf16[4,128,14336]{2,1,0:T(8,128)(2,1)S(1)} parameter(6)
  %param_7.188 = bf16[14336,4,128]{0,2,1:T(8,128)(2,1)S(1)} parameter(7)
  %fusion.134.clone.3 = bf16[4,128,14336]{2,1,0:T(8,128)(2,1)} fusion(%param_5.425, %param_6.291, %param_7.188), kind=kLoop, calls=%fused_computation.38.clone.1.clone.clone.clone.clone, metadata={op_name="jit(train_step)/transpose(jvp(TransformerLinenPure.apply))/TransformerLinenPure/decoder/while/body/closed_call/checkpoint/layers/jit(silu)/add_any" stack_frame_id=0}
  %param_3.850 = bf16[4,4096,14336]{2,1,0:T(8,128)(2,1)} parameter(3)
  %param_4.529 = s32[]{:T(128)S(6)} parameter(4)
  %fusion.91.clone.3 = bf16[4096,14336,1]{1,0,2:T(8,128)(2,1)} fusion(%param_3.850, %param_4.529), kind=kLoop, calls=%fused_computation.11.clone.clone.clone.clone.clone.clone.clone, metadata={op_name="jit(train_step)/transpose(jvp(TransformerLinenPure.apply))/TransformerLinenPure/decoder/while/body/closed_call/checkpoint/rematted_computation/layers/convert_element_type" stack_frame_id=0}
  %convolution.64.clone.3 = bf16[4,128,4096]{2,1,0:T(8,128)(2,1)} convolution(%fusion.134.clone.3, %fusion.91.clone.3), window={size=1}, dim_labels=0bf_oi0->0bf, metadata={op_name="jit(train_step)/transpose(jvp(TransformerLinenPure.apply))/TransformerLinenPure/decoder/while/body/closed_call/checkpoint/layers/dot_general" stack_frame_id=0}
  %add_any.132.clone.3 = bf16[4,128,4096]{2,1,0:T(8,128)(2,1)S(1)} add(%param_2.1178, %convolution.64.clone.3), metadata={op_name="jit(train_step)/transpose(jvp(TransformerLinenPure.apply))/TransformerLinenPure/decoder/while/body/closed_call/checkpoint/layers/add_any" stack_frame_id=0}
  %param_1.1393 = bf16[4096]{0:T(1024)(128)(2,1)S(1)} parameter(1)
  %dot_general.430 = bf16[4,128,4096]{2,1,0:T(8,128)(2,1)} broadcast(%param_1.1393), dimensions={2}, metadata={op_name="jit(train_step)/transpose(jvp(TransformerLinenPure.apply))/TransformerLinenPure/decoder/while/body/closed_call/checkpoint/rematted_computation/layers/...k,k->...k/dot_general" stack_frame_id=0}
  %dot_general.429 = bf16[4,128,4096]{2,1,0:T(8,128)(2,1)} multiply(%add_any.132.clone.3, %dot_general.430), metadata={op_name="jit(train_step)/transpose(jvp(TransformerLinenPure.apply))/TransformerLinenPure/decoder/while/body/closed_call/checkpoint/layers/...k,k->...k/dot_general" stack_frame_id=0}
  %convert_element_type.1095 = f32[4,128,4096]{2,1,0:T(8,128)} convert(%dot_general.429), metadata={op_name="jit(train_step)/transpose(jvp(TransformerLinenPure.apply))/TransformerLinenPure/decoder/while/body/closed_call/checkpoint/layers/convert_element_type" stack_frame_id=0}
  %mul.1719 = f32[4,128,4096]{2,1,0:T(8,128)} multiply(%convert_element_type.1096, %convert_element_type.1095), metadata={op_name="jit(train_step)/transpose(jvp(TransformerLinenPure.apply))/TransformerLinenPure/decoder/while/body/closed_call/checkpoint/layers/mul" stack_frame_id=0}
  %constant.1148 = f32[]{:T(128)} constant(0)
  %reduce.178 = f32[4,128]{1,0:T(4,128)S(1)} reduce(%mul.1719, %constant.1148), dimensions={2}, to_apply=%region_14.17, metadata={op_name="jit(train_step)/transpose(jvp(TransformerLinenPure.apply))/TransformerLinenPure/decoder/while/body/closed_call/checkpoint/layers/reduce_sum" stack_frame_id=0}
  ROOT %tuple.189 = (f32[4,128]{1,0:T(4,128)S(1)}, bf16[4,128,4096]{2,1,0:T(8,128)(2,1)S(1)}) tuple(%reduce.178, %add_any.132.clone.3)
}

%fused_computation.140.clone.clone (param_0.1268: f32[4,128], param_1.1394: f32[4,128]) -> f32[4,128] {
  %param_0.1268 = f32[4,128]{1,0:T(4,128)S(1)} parameter(0)
  %param_1.1394 = f32[4,128]{1,0:T(4,128)S(1)} parameter(1)
  %constant.1152 = f32[]{:T(128)} constant(0.000244140625)
  %closed_call.89 = f32[4,128]{1,0:T(4,128)} broadcast(%constant.1152), dimensions={}, metadata={op_name="jit(train_step)/transpose(jvp(TransformerLinenPure.apply))/TransformerLinenPure/decoder/while/body/closed_call" stack_frame_id=0}
  %div.851 = f32[4,128]{1,0:T(4,128)} multiply(%param_1.1394, %closed_call.89), metadata={op_name="jit(train_step)/transpose(jvp(TransformerLinenPure.apply))/TransformerLinenPure/decoder/while/body/closed_call/checkpoint/rematted_computation/layers/div" stack_frame_id=0}
  %constant.1151 = f32[]{:T(128)} constant(1e-05)
  %closed_call.88 = f32[4,128]{1,0:T(4,128)} broadcast(%constant.1151), dimensions={}, metadata={op_name="jit(train_step)/transpose(jvp(TransformerLinenPure.apply))/TransformerLinenPure/decoder/while/body/closed_call" stack_frame_id=0}
  %add.864 = f32[4,128]{1,0:T(4,128)} add(%div.851, %closed_call.88), metadata={op_name="jit(train_step)/transpose(jvp(TransformerLinenPure.apply))/TransformerLinenPure/decoder/while/body/closed_call/checkpoint/rematted_computation/layers/add" stack_frame_id=0}
  %rsqrt.99 = f32[4,128]{1,0:T(4,128)} rsqrt(%add.864), metadata={op_name="jit(train_step)/transpose(jvp(TransformerLinenPure.apply))/TransformerLinenPure/decoder/while/body/closed_call/checkpoint/rematted_computation/layers/rsqrt" stack_frame_id=0}
  %div.850 = f32[4,128]{1,0:T(4,128)} divide(%rsqrt.99, %add.864), metadata={op_name="jit(train_step)/transpose(jvp(TransformerLinenPure.apply))/TransformerLinenPure/decoder/while/body/closed_call/checkpoint/rematted_computation/layers/div" stack_frame_id=0}
  %constant.1150 = f32[]{:T(128)} constant(-0.5)
  %closed_call.87 = f32[4,128]{1,0:T(4,128)} broadcast(%constant.1150), dimensions={}, metadata={op_name="jit(train_step)/transpose(jvp(TransformerLinenPure.apply))/TransformerLinenPure/decoder/while/body/closed_call" stack_frame_id=0}
  %mul.1722 = f32[4,128]{1,0:T(4,128)} multiply(%div.850, %closed_call.87), metadata={op_name="jit(train_step)/transpose(jvp(TransformerLinenPure.apply))/TransformerLinenPure/decoder/while/body/closed_call/checkpoint/rematted_computation/layers/mul" stack_frame_id=0}
  %mul.1721 = f32[4,128]{1,0:T(4,128)} multiply(%param_0.1268, %mul.1722), metadata={op_name="jit(train_step)/transpose(jvp(TransformerLinenPure.apply))/TransformerLinenPure/decoder/while/body/closed_call/checkpoint/layers/mul" stack_frame_id=0}
  %constant.1149 = f32[]{:T(128)} constant(0.00048828125)
  %mul.1723 = f32[4,128]{1,0:T(4,128)} broadcast(%constant.1149), dimensions={}, metadata={op_name="jit(train_step)/transpose(jvp(TransformerLinenPure.apply))/TransformerLinenPure/decoder/while/body/closed_call/checkpoint/layers/mul" stack_frame_id=0}
  ROOT %mul.1720 = f32[4,128]{1,0:T(4,128)S(1)} multiply(%mul.1721, %mul.1723), metadata={op_name="jit(train_step)/transpose(jvp(TransformerLinenPure.apply))/TransformerLinenPure/decoder/while/body/closed_call/checkpoint/layers/mul" stack_frame_id=0}
}

%region_20.24 (dot_general.187: bf16[], dot_general.188: bf16[]) -> bf16[] {
  %dot_general.187 = bf16[]{:T(256)} parameter(0), metadata={op_name="jit(train_step)/transpose(jvp(TransformerLinenPure.apply))/TransformerLinenPure/decoder/while/body/closed_call/checkpoint/layers/...k,k->...k/dot_general"}
  %dot_general.188 = bf16[]{:T(256)} parameter(1), metadata={op_name="jit(train_step)/transpose(jvp(TransformerLinenPure.apply))/TransformerLinenPure/decoder/while/body/closed_call/checkpoint/layers/...k,k->...k/dot_general"}
  ROOT %add.173 = bf16[]{:T(256)} add(%dot_general.187, %dot_general.188), metadata={op_name="add.39"}, backend_config={"flag_configs":[],"scoped_memory_configs":[],"used_scoped_memory_configs":[],"aliasing_operands":{"lists":[]}}
}

%fused_computation.94.clone.clone (param_0.1269: bf16[4,128,4096], param_1.1395: f32[4,128], param_2.1179: bf16[4,128,4096], param_3.851: bf16[4,128,4096], param_4.530: f32[4,128], param_5.426: bf16[4096]) -> (bf16[4096], bf16[4,128,4096]) {
  %param_0.1269 = bf16[4,128,4096]{2,1,0:T(8,128)(2,1)S(1)} parameter(0)
  %param_2.1179 = bf16[4,128,4096]{2,1,0:T(8,128)(2,1)S(1)} parameter(2)
  %convert_element_type.1098 = f32[4,128,4096]{2,1,0:T(8,128)} convert(%param_2.1179), metadata={op_name="jit(train_step)/transpose(jvp(TransformerLinenPure.apply))/TransformerLinenPure/decoder/while/body/closed_call/checkpoint/rematted_computation/layers/convert_element_type" stack_frame_id=0}
  %param_1.1395 = f32[4,128]{1,0:T(4,128)S(1)} parameter(1)
  %mul.1725 = f32[4,128,4096]{2,1,0:T(8,128)} broadcast(%param_1.1395), dimensions={0,1}, metadata={op_name="jit(train_step)/transpose(jvp(TransformerLinenPure.apply))/TransformerLinenPure/decoder/while/body/closed_call/checkpoint/rematted_computation/layers/mul" stack_frame_id=0}
  %mul.1724 = f32[4,128,4096]{2,1,0:T(8,128)} multiply(%convert_element_type.1098, %mul.1725), metadata={op_name="jit(train_step)/transpose(jvp(TransformerLinenPure.apply))/TransformerLinenPure/decoder/while/body/closed_call/checkpoint/rematted_computation/layers/mul" stack_frame_id=0}
  %convert_element_type.1097 = bf16[4,128,4096]{2,1,0:T(8,128)(2,1)} convert(%mul.1724), metadata={op_name="jit(train_step)/transpose(jvp(TransformerLinenPure.apply))/TransformerLinenPure/decoder/while/body/closed_call/checkpoint/rematted_computation/layers/convert_element_type" stack_frame_id=0}
  %multiply.271 = bf16[4,128,4096]{2,1,0:T(8,128)(2,1)} multiply(%param_0.1269, %convert_element_type.1097), metadata={op_name="multiply.204"}
  %constant.1153 = bf16[]{:T(256)} constant(0)
  %reduce.179 = bf16[4096]{0:T(1024)(128)(2,1)} reduce(%multiply.271, %constant.1153), dimensions={0,1}, to_apply=%region_20.24, metadata={op_name="jit(train_step)/transpose(jvp(TransformerLinenPure.apply))/TransformerLinenPure/decoder/while/body/closed_call/checkpoint/layers/...k,k->...k/dot_general" stack_frame_id=0}
  %param_3.851 = bf16[4,128,4096]{2,1,0:T(8,128)(2,1)S(1)} parameter(3)
  %param_5.426 = bf16[4096]{0:T(1024)(128)(2,1)S(1)} parameter(5)
  %dot_general.286.clone.3 = bf16[4,128,4096]{2,1,0:T(8,128)(2,1)} broadcast(%param_5.426), dimensions={2}, metadata={op_name="jit(train_step)/transpose(jvp(TransformerLinenPure.apply))/TransformerLinenPure/decoder/while/body/closed_call/checkpoint/rematted_computation/layers/...k,k->...k/dot_general" stack_frame_id=0}
  %dot_general.263.clone.3 = bf16[4,128,4096]{2,1,0:T(8,128)(2,1)} multiply(%param_0.1269, %dot_general.286.clone.3), metadata={op_name="jit(train_step)/transpose(jvp(TransformerLinenPure.apply))/TransformerLinenPure/decoder/while/body/closed_call/checkpoint/layers/...k,k->...k/dot_general" stack_frame_id=0}
  %convert_element_type.753.clone.3 = f32[4,128,4096]{2,1,0:T(8,128)} convert(%dot_general.263.clone.3), metadata={op_name="jit(train_step)/transpose(jvp(TransformerLinenPure.apply))/TransformerLinenPure/decoder/while/body/closed_call/checkpoint/layers/convert_element_type" stack_frame_id=0}
  %mul.1142.clone.3 = f32[4,128,4096]{2,1,0:T(8,128)} multiply(%convert_element_type.753.clone.3, %mul.1725), metadata={op_name="jit(train_step)/transpose(jvp(TransformerLinenPure.apply))/TransformerLinenPure/decoder/while/body/closed_call/checkpoint/layers/mul" stack_frame_id=0}
  %param_4.530 = f32[4,128]{1,0:T(4,128)S(1)} parameter(4)
  %mul.1151.clone.3 = f32[4,128,4096]{2,1,0:T(8,128)} broadcast(%param_4.530), dimensions={0,1}, metadata={op_name="jit(train_step)/transpose(jvp(TransformerLinenPure.apply))/TransformerLinenPure/decoder/while/body/closed_call/checkpoint/layers/mul" stack_frame_id=0}
  %mul.1141.clone.3 = f32[4,128,4096]{2,1,0:T(8,128)} multiply(%convert_element_type.1098, %mul.1151.clone.3), metadata={op_name="jit(train_step)/transpose(jvp(TransformerLinenPure.apply))/TransformerLinenPure/decoder/while/body/closed_call/checkpoint/layers/mul" stack_frame_id=0}
  %add_any.126.clone.3 = f32[4,128,4096]{2,1,0:T(8,128)} add(%mul.1142.clone.3, %mul.1141.clone.3), metadata={op_name="jit(train_step)/transpose(jvp(TransformerLinenPure.apply))/TransformerLinenPure/decoder/while/body/closed_call/checkpoint/layers/add_any" stack_frame_id=0}
  %convert_element_type.751.clone.3 = bf16[4,128,4096]{2,1,0:T(8,128)(2,1)} convert(%add_any.126.clone.3), metadata={op_name="jit(train_step)/transpose(jvp(TransformerLinenPure.apply))/TransformerLinenPure/decoder/while/body/closed_call/checkpoint/layers/convert_element_type" stack_frame_id=0}
  %add_any.124.clone.3 = bf16[4,128,4096]{2,1,0:T(8,128)(2,1)S(1)} add(%param_3.851, %convert_element_type.751.clone.3), metadata={op_name="jit(train_step)/transpose(jvp(TransformerLinenPure.apply))/TransformerLinenPure/decoder/while/body/closed_call/checkpoint/layers/add_any" stack_frame_id=0}
  ROOT %tuple.190 = (bf16[4096]{0:T(1024)(128)(2,1)}, bf16[4,128,4096]{2,1,0:T(8,128)(2,1)S(1)}) tuple(%reduce.179, %add_any.124.clone.3)
}

%region_15.18 (dot_general.184: f32[], dot_general.185: f32[]) -> f32[] {
  %dot_general.184 = f32[]{:T(128)} parameter(0), metadata={op_name="vmap(jit(_splash_attention))/hsd,hsd->hs/dot_general"}
  %dot_general.185 = f32[]{:T(128)} parameter(1), metadata={op_name="vmap(jit(_splash_attention))/hsd,hsd->hs/dot_general"}
  ROOT %add.169 = f32[]{:T(128)} add(%dot_general.184, %dot_general.185), metadata={op_name="add.31"}, backend_config={"flag_configs":[],"scoped_memory_configs":[],"used_scoped_memory_configs":[],"aliasing_operands":{"lists":[]}}
}

%fused_computation.25.clone.clone.clone.clone.clone.clone.clone (param_0.1270: bf16[4,32,128,4096], param_1.1396: s32[]) -> bf16[32,128,4096,1] {
  %param_0.1270 = bf16[4,32,128,4096]{3,2,1,0:T(8,128)(2,1)} parameter(0)
  %param_1.1396 = s32[]{:T(128)S(6)} parameter(1)
  %constant.1154 = s32[]{:T(128)} constant(0)
  %dynamic_slice.325 = bf16[1,32,128,4096]{3,2,1,0:T(8,128)(2,1)} dynamic-slice(%param_0.1270, %param_1.1396, %constant.1154, %constant.1154, %constant.1154), dynamic_slice_sizes={1,32,128,4096}, metadata={op_name="jit(train_step)/transpose(jvp(TransformerLinenPure.apply))/TransformerLinenPure/decoder/while/body/dynamic_slice" stack_frame_id=0}, backend_config={"flag_configs":[],"scoped_memory_configs":[],"indices_config":{"index_known_bits":[{"zeroes":"4294967292","ones":"0","bitwidth":"32"},{"zeroes":"4294967295","ones":"0","bitwidth":"32"},{"zeroes":"4294967295","ones":"0","bitwidth":"32"},{"zeroes":"4294967295","ones":"0","bitwidth":"32"}],"is_index_aligned":[]},"used_scoped_memory_configs":[]}
  ROOT %bitcast.568 = bf16[32,128,4096,1]{2,1,0,3:T(8,128)(2,1)} bitcast(%dynamic_slice.325), metadata={op_name="jit(train_step)/transpose(jvp(TransformerLinenPure.apply))/TransformerLinenPure/decoder/while/body/closed_call/checkpoint/rematted_computation/layers/convert_element_type" stack_frame_id=0}
}

%fused_computation.76.clone.clone.clone.clone.clone.clone (param_0.1271: bf16[4,128,4096]) -> bf16[4,128,4096,1] {
  %param_0.1271 = bf16[4,128,4096]{2,1,0:T(8,128)(2,1)S(1)} parameter(0)
  ROOT %bitcast.569 = bf16[4,128,4096,1]{2,1,3,0:T(8,128)(2,1)} bitcast(%param_0.1271), metadata={op_name="jit(train_step)/transpose(jvp(TransformerLinenPure.apply))/TransformerLinenPure/decoder/while/body/closed_call/checkpoint/layers/add_any" stack_frame_id=0}
}

%fused_computation.66.clone.clone (param_0.1272: bf16[4,32,128,128], param_1.1397: bf16[4,32,128,4096], param_2.1180: s32[], param_3.852: bf16[4,128,4096]) -> (f32[4,32,128], bf16[4,32,128,128]) {
  %param_0.1272 = bf16[4,32,128,128]{3,2,1,0:T(8,128)(2,1)S(1)} parameter(0)
  %convert.124 = f32[4,32,128,128]{3,2,1,0:T(8,128)} convert(%param_0.1272), metadata={op_name="jit(train_step)/transpose(jvp(TransformerLinenPure.apply))/TransformerLinenPure/decoder/while/body/closed_call/checkpoint/layers/shard_map/convert" stack_frame_id=0}
  %param_3.852 = bf16[4,128,4096]{2,1,0:T(8,128)(2,1)S(1)} parameter(3)
  %fusion.84.clone.3 = bf16[4,128,4096,1]{2,1,3,0:T(8,128)(2,1)} fusion(%param_3.852), kind=kLoop, calls=%fused_computation.76.clone.clone.clone.clone.clone.clone, metadata={op_name="jit(train_step)/transpose(jvp(TransformerLinenPure.apply))/TransformerLinenPure/decoder/while/body/closed_call/checkpoint/layers/add_any" stack_frame_id=0}
  %param_1.1397 = bf16[4,32,128,4096]{3,2,1,0:T(8,128)(2,1)} parameter(1)
  %param_2.1180 = s32[]{:T(128)S(6)} parameter(2)
  %fusion.83.clone.3 = bf16[32,128,4096,1]{2,1,0,3:T(8,128)(2,1)} fusion(%param_1.1397, %param_2.1180), kind=kLoop, calls=%fused_computation.25.clone.clone.clone.clone.clone.clone.clone, metadata={op_name="jit(train_step)/transpose(jvp(TransformerLinenPure.apply))/TransformerLinenPure/decoder/while/body/closed_call/checkpoint/rematted_computation/layers/convert_element_type" stack_frame_id=0}
  %convolution.62.clone.3 = bf16[4,128,32,128]{3,1,2,0:T(8,128)(2,1)} convolution(%fusion.84.clone.3, %fusion.83.clone.3), window={size=1x32 pad=0_0x31_31 rhs_reversal=0x1}, dim_labels=0bf1_1oi0->0b1f, metadata={op_name="jit(train_step)/transpose(jvp(TransformerLinenPure.apply))/TransformerLinenPure/decoder/while/body/closed_call/checkpoint/layers/dot_general" stack_frame_id=0}
  %constant.619.clone.3 = bf16[]{:T(256)} constant(0.25)
  %div.442.clone.3 = bf16[4,128,32,128]{3,1,2,0:T(8,128)(2,1)} broadcast(%constant.619.clone.3), dimensions={}, metadata={op_name="jit(train_step)/transpose(jvp(TransformerLinenPure.apply))/TransformerLinenPure/decoder/while/body/closed_call/checkpoint/layers/div" stack_frame_id=0}
  %div.441.clone.3 = bf16[4,128,32,128]{3,1,2,0:T(8,128)(2,1)} multiply(%convolution.62.clone.3, %div.442.clone.3), metadata={op_name="jit(train_step)/transpose(jvp(TransformerLinenPure.apply))/TransformerLinenPure/decoder/while/body/closed_call/checkpoint/layers/div" stack_frame_id=0}
  %bitcast.209.clone.3 = bf16[4,32,128,128]{3,2,1,0:T(8,128)(2,1)S(1)} bitcast(%div.441.clone.3), metadata={op_name="jit(train_step)/transpose(jvp(TransformerLinenPure.apply))/TransformerLinenPure/decoder/while/body/closed_call/checkpoint/layers/div" stack_frame_id=0}
  %convert.123 = f32[4,32,128,128]{3,2,1,0:T(8,128)} convert(%bitcast.209.clone.3), metadata={op_name="jit(train_step)/transpose(jvp(TransformerLinenPure.apply))/TransformerLinenPure/decoder/while/body/closed_call/checkpoint/layers/shard_map/convert.1" stack_frame_id=0}
  %multiply.272 = f32[4,32,128,128]{3,2,1,0:T(8,128)} multiply(%convert.124, %convert.123), metadata={op_name="jit(train_step)/transpose(jvp(TransformerLinenPure.apply))/TransformerLinenPure/decoder/while/body/closed_call/checkpoint/layers/shard_map/multiply" stack_frame_id=0}
  %constant.1155 = f32[]{:T(128)} constant(0)
  %dot_general.431 = f32[4,32,128]{2,1,0:T(8,128)S(1)} reduce(%multiply.272, %constant.1155), dimensions={3}, to_apply=%region_15.18, metadata={op_name="jit(train_step)/transpose(jvp(TransformerLinenPure.apply))/TransformerLinenPure/decoder/while/body/closed_call/checkpoint/layers/shard_map/vmap(jit(_splash_attention))/hsd,hsd->hs/dot_general" stack_frame_id=0}
  ROOT %tuple.191 = (f32[4,32,128]{2,1,0:T(8,128)S(1)}, bf16[4,32,128,128]{3,2,1,0:T(8,128)(2,1)S(1)}) tuple(%dot_general.431, %bitcast.209.clone.3)
}
