HloModule jit_train_step, is_scheduled=true, input_output_alias={ {0}: (0, {}, may-alias), {1}: (1, {}, may-alias), {2}: (2, {}, may-alias), {3}: (3, {}, may-alias), {4}: (4, {}, may-alias), {5}: (5, {}, may-alias), {6}: (6, {}, may-alias), {7}: (7, {}, may-alias), {8}: (8, {}, may-alias), {9}: (9, {}, may-alias), {10}: (10, {}, may-alias), {11}: (11, {}, may-alias), {12}: (12, {}, may-alias), {13}: (13, {}, may-alias), {14}: (14, {}, may-alias), {15}: (15, {}, may-alias), {16}: (16, {}, may-alias), {17}: (17, {}, may-alias), {18}: (18, {}, may-alias), {19}: (19, {}, may-alias), {20}: (20, {}, may-alias), {21}: (21, {}, may-alias), {22}: (22, {}, may-alias), {23}: (23, {}, may-alias), {24}: (24, {}, may-alias), {25}: (25, {}, may-alias), {26}: (26, {}, may-alias), {27}: (27, {}, may-alias), {28}: (28, {}, may-alias), {29}: (29, {}, may-alias), {30}: (30, {}, may-alias), {31}: (31, {}, may-alias), {32}: (32, {}, may-alias), {33}: (33, {}, may-alias), {34}: (34, {}, may-alias), {35}: (35, {}, may-alias), {36}: (36, {}, may-alias), {37}: (37, {}, may-alias), {38}: (38, {}, may-alias), {39}: (39, {}, may-alias), {40}: (40, {}, may-alias), {41}: (41, {}, may-alias), {42}: (42, {}, may-alias), {43}: (43, {}, may-alias), {44}: (44, {}, may-alias), {45}: (45, {}, may-alias), {46}: (46, {}, may-alias), {47}: (47, {}, may-alias), {48}: (48, {}, may-alias), {49}: (49, {}, may-alias), {50}: (50, {}, may-alias), {51}: (51, {}, may-alias), {52}: (52, {}, may-alias), {53}: (53, {}, may-alias), {54}: (54, {}, may-alias), {55}: (55, {}, may-alias), {56}: (56, {}, may-alias), {57}: (57, {}, may-alias), {58}: (58, {}, may-alias), {59}: (59, {}, may-alias), {60}: (60, {}, may-alias), {61}: (61, {}, may-alias), {62}: (62, {}, may-alias), {63}: (63, {}, may-alias), {64}: (64, {}, may-alias), {65}: (65, {}, may-alias), {66}: (66, {}, may-alias), {67}: (67, {}, may-alias), {68}: (68, {}, may-alias), {69}: (69, {}, may-alias), {70}: (70, {}, may-alias), {71}: (71, {}, may-alias), {72}: (72, {}, may-alias), {73}: (73, {}, may-alias), {74}: (74, {}, may-alias), {75}: (75, {}, may-alias), {76}: (76, {}, may-alias), {77}: (77, {}, may-alias), {78}: (78, {}, may-alias), {79}: (79, {}, may-alias), {80}: (80, {}, may-alias), {81}: (81, {}, may-alias), {82}: (82, {}, may-alias), {83}: (83, {}, may-alias), {84}: (84, {}, may-alias), {85}: (85, {}, may-alias), {86}: (86, {}, may-alias), {87}: (87, {}, may-alias), {88}: (88, {}, may-alias), {89}: (89, {}, may-alias), {90}: (90, {}, may-alias), {91}: (91, {}, may-alias), {92}: (92, {}, may-alias), {93}: (93, {}, may-alias), {94}: (94, {}, may-alias), {95}: (95, {}, may-alias), {96}: (96, {}, may-alias), {97}: (97, {}, may-alias), {98}: (98, {}, may-alias) }, entry_computation_layout={(s32[]{:T(128)}, f32[512]{0:T(512)}, f32[512,3,18432]{2,0,1:T(8,128)}, f32[512,3,18432]{2,0,1:T(8,128)}, f32[18432,3,512]{2,0,1:T(8,128)}, /*index=5*/f32[512,3]{0,1:T(4,128)}, f32[512,3]{0,1:T(4,128)}, f32[512,3]{0,1:T(4,128)}, f32[128,3,128,512]{3,2,1,0:T(8,128)}, f32[1536,3]{0,1:T(4,128)}, /*index=10*/f32[512,3,576]{0,2,1:T(8,128)}, f32[512,3,128,256]{3,2,1,0:T(8,128)}, f32[512,3,1536]{2,0,1:T(8,128)}, f32[1536,3,128,192]{2,3,1,0:T(8,128)}, f32[512,129280]{1,0:T(8,128)}, /*index=15*/f32[256,1]{0,1:T(1,128)}, f32[512,1,256]{2,1,0:T(1,128)}, f32[256,1,512,512]{3,2,1,0:T(8,128)}, f32[256,1,512,512]{3,2,1,0:T(8,128)}, f32[256,1,512,512]{3,2,1,0:T(8,128)}, /*index=20*/f32[512,1,512]{2,1,0:T(1,128)}, f32[512,1,512]{2,1,0:T(1,128)}, f32[512,1,512]{2,1,0:T(1,128)}, f32[512,1]{0,1:T(1,128)}, f32[512,1]{0,1:T(1,128)}, /*index=25*/f32[512,1]{0,1:T(1,128)}, f32[128,1,128,512]{3,2,1,0:T(8,128)}, f32[1536,1]{0,1:T(1,128)}, f32[512,1,576]{0,2,1:T(8,128)}, f32[512,1,128,256]{3,2,1,0:T(8,128)}, /*index=30*/f32[512,1,1536]{2,1,0:T(1,128)}, f32[1536,1,128,192]{2,3,1,0:T(8,128)}, f32[129280,512]{1,0:T(8,128)}, s32[]{:T(128)}, f32[512]{0:T(512)}, /*index=35*/f32[512,3,18432]{2,0,1:T(8,128)}, f32[512,3,18432]{2,0,1:T(8,128)}, f32[18432,3,512]{2,0,1:T(8,128)}, f32[512,3]{0,1:T(4,128)}, f32[512,3]{0,1:T(4,128)}, /*index=40*/f32[512,3]{0,1:T(4,128)}, f32[128,3,128,512]{3,2,1,0:T(8,128)}, f32[1536,3]{0,1:T(4,128)}, f32[512,3,576]{0,2,1:T(8,128)}, f32[512,3,128,256]{3,2,1,0:T(8,128)}, /*index=45*/f32[512,3,1536]{2,0,1:T(8,128)}, f32[1536,3,128,192]{2,3,1,0:T(8,128)}, f32[512,129280]{1,0:T(8,128)}, f32[256,1]{0,1:T(1,128)}, f32[512,1,256]{2,1,0:T(1,128)}, /*index=50*/f32[256,1,512,512]{3,2,1,0:T(8,128)}, f32[256,1,512,512]{3,2,1,0:T(8,128)}, f32[256,1,512,512]{3,2,1,0:T(8,128)}, f32[512,1,512]{2,1,0:T(1,128)}, f32[512,1,512]{2,1,0:T(1,128)}, /*index=55*/f32[512,1,512]{2,1,0:T(1,128)}, f32[512,1]{0,1:T(1,128)}, f32[512,1]{0,1:T(1,128)}, f32[512,1]{0,1:T(1,128)}, f32[128,1,128,512]{3,2,1,0:T(8,128)}, /*index=60*/f32[1536,1]{0,1:T(1,128)}, f32[512,1,576]{0,2,1:T(8,128)}, f32[512,1,128,256]{3,2,1,0:T(8,128)}, f32[512,1,1536]{2,1,0:T(1,128)}, f32[1536,1,128,192]{2,3,1,0:T(8,128)}, /*index=65*/f32[129280,512]{1,0:T(8,128)}, f32[512]{0:T(512)}, f32[512,3,18432]{2,0,1:T(8,128)}, f32[512,3,18432]{2,0,1:T(8,128)}, f32[18432,3,512]{2,0,1:T(8,128)}, /*index=70*/f32[512,3]{0,1:T(4,128)}, f32[512,3]{0,1:T(4,128)}, f32[512,3]{0,1:T(4,128)}, f32[128,3,128,512]{3,2,1,0:T(8,128)}, f32[1536,3]{0,1:T(4,128)}, /*index=75*/f32[512,3,576]{0,2,1:T(8,128)}, f32[512,3,128,256]{3,2,1,0:T(8,128)}, f32[512,3,1536]{2,0,1:T(8,128)}, f32[1536,3,128,192]{2,3,1,0:T(8,128)}, f32[512,129280]{1,0:T(8,128)}, /*index=80*/f32[256,1]{0,1:T(1,128)}, f32[512,1,256]{2,1,0:T(1,128)}, f32[256,1,512,512]{3,2,1,0:T(8,128)}, f32[256,1,512,512]{3,2,1,0:T(8,128)}, f32[256,1,512,512]{3,2,1,0:T(8,128)}, /*index=85*/f32[512,1,512]{2,1,0:T(1,128)}, f32[512,1,512]{2,1,0:T(1,128)}, f32[512,1,512]{2,1,0:T(1,128)}, f32[512,1]{0,1:T(1,128)}, f32[512,1]{0,1:T(1,128)}, /*index=90*/f32[512,1]{0,1:T(1,128)}, f32[128,1,128,512]{3,2,1,0:T(8,128)}, f32[1536,1]{0,1:T(1,128)}, f32[512,1,576]{0,2,1:T(8,128)}, f32[512,1,128,256]{3,2,1,0:T(8,128)}, /*index=95*/f32[512,1,1536]{2,1,0:T(1,128)}, f32[1536,1,128,192]{2,3,1,0:T(8,128)}, f32[129280,512]{1,0:T(8,128)}, s32[]{:T(128)}, s32[4,128]{1,0:T(4,128)}, /*index=100*/s32[4,128]{1,0:T(4,128)}, s32[4,128]{1,0:T(4,128)}, s32[4,128]{1,0:T(4,128)}, s32[4,128]{1,0:T(4,128)})->(s32[]{:T(128)}, f32[512]{0:T(512)}, f32[512,3,18432]{2,0,1:T(8,128)}, f32[512,3,18432]{2,0,1:T(8,128)}, f32[18432,3,512]{2,0,1:T(8,128)}, /*index=5*/f32[512,3]{0,1:T(4,128)}, f32[512,3]{0,1:T(4,128)}, f32[512,3]{0,1:T(4,128)}, f32[128,3,128,512]{3,2,1,0:T(8,128)}, f32[1536,3]{0,1:T(4,128)}, /*index=10*/f32[512,3,576]{0,2,1:T(8,128)}, f32[512,3,128,256]{3,2,1,0:T(8,128)}, f32[512,3,1536]{2,0,1:T(8,128)}, f32[1536,3,128,192]{2,3,1,0:T(8,128)}, f32[512,129280]{1,0:T(8,128)}, /*index=15*/f32[256,1]{0,1:T(1,128)}, f32[512,1,256]{2,1,0:T(1,128)}, f32[256,1,512,512]{3,2,1,0:T(8,128)}, f32[256,1,512,512]{3,2,1,0:T(8,128)}, f32[256,1,512,512]{3,2,1,0:T(8,128)}, /*index=20*/f32[512,1,512]{2,1,0:T(1,128)}, f32[512,1,512]{2,1,0:T(1,128)}, f32[512,1,512]{2,1,0:T(1,128)}, f32[512,1]{0,1:T(1,128)}, f32[512,1]{0,1:T(1,128)}, /*index=25*/f32[512,1]{0,1:T(1,128)}, f32[128,1,128,512]{3,2,1,0:T(8,128)}, f32[1536,1]{0,1:T(1,128)}, f32[512,1,576]{0,2,1:T(8,128)}, f32[512,1,128,256]{3,2,1,0:T(8,128)}, /*index=30*/f32[512,1,1536]{2,1,0:T(1,128)}, f32[1536,1,128,192]{2,3,1,0:T(8,128)}, f32[129280,512]{1,0:T(8,128)}, s32[]{:T(128)}, f32[512]{0:T(512)}, /*index=35*/f32[512,3,18432]{2,0,1:T(8,128)}, f32[512,3,18432]{2,0,1:T(8,128)}, f32[18432,3,512]{2,0,1:T(8,128)}, f32[512,3]{0,1:T(4,128)}, f32[512,3]{0,1:T(4,128)}, /*index=40*/f32[512,3]{0,1:T(4,128)}, f32[128,3,128,512]{3,2,1,0:T(8,128)}, f32[1536,3]{0,1:T(4,128)}, f32[512,3,576]{0,2,1:T(8,128)}, f32[512,3,128,256]{3,2,1,0:T(8,128)}, /*index=45*/f32[512,3,1536]{2,0,1:T(8,128)}, f32[1536,3,128,192]{2,3,1,0:T(8,128)}, f32[512,129280]{1,0:T(8,128)}, f32[256,1]{0,1:T(1,128)}, f32[512,1,256]{2,1,0:T(1,128)}, /*index=50*/f32[256,1,512,512]{3,2,1,0:T(8,128)}, f32[256,1,512,512]{3,2,1,0:T(8,128)}, f32[256,1,512,512]{3,2,1,0:T(8,128)}, f32[512,1,512]{2,1,0:T(1,128)}, f32[512,1,512]{2,1,0:T(1,128)}, /*index=55*/f32[512,1,512]{2,1,0:T(1,128)}, f32[512,1]{0,1:T(1,128)}, f32[512,1]{0,1:T(1,128)}, f32[512,1]{0,1:T(1,128)}, f32[128,1,128,512]{3,2,1,0:T(8,128)}, /*index=60*/f32[1536,1]{0,1:T(1,128)}, f32[512,1,576]{0,2,1:T(8,128)}, f32[512,1,128,256]{3,2,1,0:T(8,128)}, f32[512,1,1536]{2,1,0:T(1,128)}, f32[1536,1,128,192]{2,3,1,0:T(8,128)}, /*index=65*/f32[129280,512]{1,0:T(8,128)}, f32[512]{0:T(512)}, f32[512,3,18432]{2,0,1:T(8,128)}, f32[512,3,18432]{2,0,1:T(8,128)}, f32[18432,3,512]{2,0,1:T(8,128)}, /*index=70*/f32[512,3]{0,1:T(4,128)}, f32[512,3]{0,1:T(4,128)}, f32[512,3]{0,1:T(4,128)}, f32[128,3,128,512]{3,2,1,0:T(8,128)}, f32[1536,3]{0,1:T(4,128)}, /*index=75*/f32[512,3,576]{0,2,1:T(8,128)}, f32[512,3,128,256]{3,2,1,0:T(8,128)}, f32[512,3,1536]{2,0,1:T(8,128)}, f32[1536,3,128,192]{2,3,1,0:T(8,128)}, f32[512,129280]{1,0:T(8,128)}, /*index=80*/f32[256,1]{0,1:T(1,128)}, f32[512,1,256]{2,1,0:T(1,128)}, f32[256,1,512,512]{3,2,1,0:T(8,128)}, f32[256,1,512,512]{3,2,1,0:T(8,128)}, f32[256,1,512,512]{3,2,1,0:T(8,128)}, /*index=85*/f32[512,1,512]{2,1,0:T(1,128)}, f32[512,1,512]{2,1,0:T(1,128)}, f32[512,1,512]{2,1,0:T(1,128)}, f32[512,1]{0,1:T(1,128)}, f32[512,1]{0,1:T(1,128)}, /*index=90*/f32[512,1]{0,1:T(1,128)}, f32[128,1,128,512]{3,2,1,0:T(8,128)}, f32[1536,1]{0,1:T(1,128)}, f32[512,1,576]{0,2,1:T(8,128)}, f32[512,1,128,256]{3,2,1,0:T(8,128)}, /*index=95*/f32[512,1,1536]{2,1,0:T(1,128)}, f32[1536,1,128,192]{2,3,1,0:T(8,128)}, f32[129280,512]{1,0:T(8,128)}, s32[]{:T(128)}, f32[]{:T(128)}, /*index=100*/f32[]{:T(128)}, f32[]{:T(128)}, f32[]{:T(128)}, f32[]{:T(128)}, f32[]{:T(128)}, /*index=105*/f32[]{:T(128)}, f32[]{:T(128)}, f32[]{:T(128)}, s32[]{:T(128)}, f32[]{:T(128)})}, allow_spmd_sharding_propagation_to_parameters={false,false,false,false,false,false,false,false,false,false,false,false,false,false,false,false,false,false,false,false,false,false,false,false,false,false,false,false,false,false,false,false,false,false,false,false,false,false,false,false,false,false,false,false,false,false,false,false,false,false,false,false,false,false,false,false,false,false,false,false,false,false,false,false,false,false,false,false,false,false,false,false,false,false,false,false,false,false,false,false,false,false,false,false,false,false,false,false,false,false,false,false,false,false,false,false,false,false,false,false,false,false,false,false}, allow_spmd_sharding_propagation_to_output={false,false,false,false,false,false,false,false,false,false,false,false,false,false,false,false,false,false,false,false,false,false,false,false,false,false,false,false,false,false,false,false,false,false,false,false,false,false,false,false,false,false,false,false,false,false,false,false,false,false,false,false,false,false,false,false,false,false,false,false,false,false,false,false,false,false,false,false,false,false,false,false,false,false,false,false,false,false,false,false,false,false,false,false,false,false,false,false,false,false,false,false,false,false,false,false,false,false,false,true,true,true,true,true,true,true,true,true,true,true}, num_partitions=4

FileNames

FunctionNames

FileLocations

StackFrames


%region_46.56 (top_k.25: bf16[], top_k.26: bf16[], top_k.27: s32[], top_k.28: s32[]) -> pred[] {
  %constant.1358 = s32[]{:T(128)} constant(0)
  %constant.1359 = s32[]{:T(128)} constant(2147483647)
  %top_k.25 = bf16[]{:T(256)} parameter(0), metadata={op_name="top_k"}
  %top_k.26 = bf16[]{:T(256)} parameter(1), metadata={op_name="top_k"}
  %top_k.27 = s32[]{:T(128)} parameter(2), metadata={op_name="top_k"}
  %top_k.28 = s32[]{:T(128)} parameter(3), metadata={op_name="top_k"}
  %convert.269 = f32[]{:T(128)S(6)} convert(%top_k.25), metadata={op_name="convert.18"}, backend_config={"flag_configs":[],"scoped_memory_configs":[],"used_scoped_memory_configs":[],"aliasing_operands":{"lists":[]}}
  %bitcast-convert.39 = s32[]{:T(128)S(6)} bitcast-convert(%convert.269), metadata={op_name="bitcast-convert.8"}, backend_config={"flag_configs":[],"scoped_memory_configs":[],"used_scoped_memory_configs":[],"aliasing_operands":{"lists":[]}}
  %compare.144 = pred[]{:T(512)S(6)} compare(%bitcast-convert.39, %constant.1358), direction=LT, metadata={op_name="compare.38"}, backend_config={"flag_configs":[],"scoped_memory_configs":[],"used_scoped_memory_configs":[],"aliasing_operands":{"lists":[]}}
  %xor.40 = s32[]{:T(128)S(6)} xor(%constant.1359, %bitcast-convert.39), metadata={op_name="xor.8"}, backend_config={"flag_configs":[],"scoped_memory_configs":[],"used_scoped_memory_configs":[],"aliasing_operands":{"lists":[]}}
  %select.127 = s32[]{:T(128)S(6)} select(%compare.144, %xor.40, %bitcast-convert.39), metadata={op_name="select.16"}, backend_config={"flag_configs":[],"scoped_memory_configs":[],"used_scoped_memory_configs":[],"aliasing_operands":{"lists":[{"indices":["1","3"]}]}}
  %convert.270 = f32[]{:T(128)S(6)} convert(%top_k.26), metadata={op_name="convert.19"}, backend_config={"flag_configs":[],"scoped_memory_configs":[],"used_scoped_memory_configs":[],"aliasing_operands":{"lists":[]}}
  %bitcast-convert.40 = s32[]{:T(128)S(6)} bitcast-convert(%convert.270), metadata={op_name="bitcast-convert.9"}, backend_config={"flag_configs":[],"scoped_memory_configs":[],"used_scoped_memory_configs":[],"aliasing_operands":{"lists":[]}}
  %compare.145 = pred[]{:T(512)S(6)} compare(%bitcast-convert.40, %constant.1358), direction=LT, metadata={op_name="compare.39"}, backend_config={"flag_configs":[],"scoped_memory_configs":[],"used_scoped_memory_configs":[],"aliasing_operands":{"lists":[]}}
  %xor.41 = s32[]{:T(128)S(6)} xor(%constant.1359, %bitcast-convert.40), metadata={op_name="xor.9"}, backend_config={"flag_configs":[],"scoped_memory_configs":[],"used_scoped_memory_configs":[],"aliasing_operands":{"lists":[]}}
  %select.128 = s32[]{:T(128)S(6)} select(%compare.145, %xor.41, %bitcast-convert.40), metadata={op_name="select.17"}, backend_config={"flag_configs":[],"scoped_memory_configs":[],"used_scoped_memory_configs":[],"aliasing_operands":{"lists":[{"indices":["1","3"]}]}}
  %compare.146 = pred[]{:T(512)S(6)} compare(%select.127, %select.128), direction=GT, metadata={op_name="compare.0"}, backend_config={"flag_configs":[],"scoped_memory_configs":[],"used_scoped_memory_configs":[],"aliasing_operands":{"lists":[]}}
  %compare.147 = pred[]{:T(512)S(6)} compare(%select.128, %select.127), direction=GT, metadata={op_name="compare.117"}, backend_config={"flag_configs":[],"scoped_memory_configs":[],"used_scoped_memory_configs":[],"aliasing_operands":{"lists":[]}}
  %compare.148 = pred[]{:T(512)S(6)} compare(%compare.146, %compare.147), direction=EQ, metadata={op_name="compare.118"}, backend_config={"flag_configs":[],"scoped_memory_configs":[],"used_scoped_memory_configs":[],"aliasing_operands":{"lists":[]}}
  %compare.149 = pred[]{:T(512)S(6)} compare(%top_k.27, %top_k.28), direction=LT, metadata={op_name="compare.119"}, backend_config={"flag_configs":[],"scoped_memory_configs":[],"used_scoped_memory_configs":[],"aliasing_operands":{"lists":[]}}
  ROOT %select.129 = pred[]{:T(512)} select(%compare.148, %compare.149, %compare.146), metadata={op_name="select.113"}, backend_config={"flag_configs":[],"scoped_memory_configs":[],"used_scoped_memory_configs":[],"aliasing_operands":{"lists":[]}}
}

%region_47.57 (sort.64: s32[], sort.65: s32[], sort.66: s32[], sort.67: s32[]) -> pred[] {
  %sort.64 = s32[]{:T(128)} parameter(0), metadata={op_name="jit(argsort)/sort"}
  %sort.65 = s32[]{:T(128)} parameter(1), metadata={op_name="jit(argsort)/sort"}
  %sort.66 = s32[]{:T(128)} parameter(2), metadata={op_name="jit(argsort)/sort"}
  %sort.67 = s32[]{:T(128)} parameter(3), metadata={op_name="jit(argsort)/sort"}
  %lt_to.32 = pred[]{:T(512)S(6)} compare(%sort.64, %sort.65), direction=LT, metadata={op_name="lt_to"}, backend_config={"flag_configs":[],"scoped_memory_configs":[],"used_scoped_memory_configs":[],"aliasing_operands":{"lists":[]}}
  %lt_to.33 = pred[]{:T(512)S(6)} compare(%sort.65, %sort.64), direction=LT, metadata={op_name="lt_to"}, backend_config={"flag_configs":[],"scoped_memory_configs":[],"used_scoped_memory_configs":[],"aliasing_operands":{"lists":[]}}
  %compare.150 = pred[]{:T(512)S(6)} compare(%lt_to.32, %lt_to.33), direction=EQ, metadata={op_name="compare.120"}, backend_config={"flag_configs":[],"scoped_memory_configs":[],"used_scoped_memory_configs":[],"aliasing_operands":{"lists":[]}}
  %compare.151 = pred[]{:T(512)S(6)} compare(%sort.66, %sort.67), direction=LT, metadata={op_name="compare.121"}, backend_config={"flag_configs":[],"scoped_memory_configs":[],"used_scoped_memory_configs":[],"aliasing_operands":{"lists":[]}}
  ROOT %select.130 = pred[]{:T(512)} select(%compare.150, %compare.151, %lt_to.32), metadata={op_name="select.114"}, backend_config={"flag_configs":[],"scoped_memory_configs":[],"used_scoped_memory_configs":[],"aliasing_operands":{"lists":[]}}
}

%region_48.58 (sort.68: s32[], sort.69: s32[], sort.70: s32[], sort.71: s32[]) -> pred[] {
  %sort.68 = s32[]{:T(128)} parameter(0), metadata={op_name="jit(argsort)/sort"}
  %sort.69 = s32[]{:T(128)} parameter(1), metadata={op_name="jit(argsort)/sort"}
  %sort.70 = s32[]{:T(128)} parameter(2), metadata={op_name="jit(argsort)/sort"}
  %sort.71 = s32[]{:T(128)} parameter(3), metadata={op_name="jit(argsort)/sort"}
  %lt_to.34 = pred[]{:T(512)S(6)} compare(%sort.68, %sort.69), direction=LT, metadata={op_name="lt_to"}, backend_config={"flag_configs":[],"scoped_memory_configs":[],"used_scoped_memory_configs":[],"aliasing_operands":{"lists":[]}}
  %lt_to.35 = pred[]{:T(512)S(6)} compare(%sort.69, %sort.68), direction=LT, metadata={op_name="lt_to"}, backend_config={"flag_configs":[],"scoped_memory_configs":[],"used_scoped_memory_configs":[],"aliasing_operands":{"lists":[]}}
  %compare.152 = pred[]{:T(512)S(6)} compare(%lt_to.34, %lt_to.35), direction=EQ, metadata={op_name="compare.122"}, backend_config={"flag_configs":[],"scoped_memory_configs":[],"used_scoped_memory_configs":[],"aliasing_operands":{"lists":[]}}
  %compare.153 = pred[]{:T(512)S(6)} compare(%sort.70, %sort.71), direction=LT, metadata={op_name="compare.123"}, backend_config={"flag_configs":[],"scoped_memory_configs":[],"used_scoped_memory_configs":[],"aliasing_operands":{"lists":[]}}
  ROOT %select.131 = pred[]{:T(512)} select(%compare.152, %compare.153, %lt_to.34), metadata={op_name="select.115"}, backend_config={"flag_configs":[],"scoped_memory_configs":[],"used_scoped_memory_configs":[],"aliasing_operands":{"lists":[]}}
}

%region_67.80 (sort.78: s32[], sort.79: s32[], sort.80: s32[], sort.81: s32[]) -> pred[] {
  %sort.78 = s32[]{:T(128)} parameter(0), metadata={op_name="sort_activations/jit(argsort)/sort"}
  %sort.79 = s32[]{:T(128)} parameter(1), metadata={op_name="sort_activations/jit(argsort)/sort"}
  %sort.80 = s32[]{:T(128)} parameter(2), metadata={op_name="sort_activations/jit(argsort)/sort"}
  %sort.81 = s32[]{:T(128)} parameter(3), metadata={op_name="sort_activations/jit(argsort)/sort"}
  %lt_to.37 = pred[]{:T(512)S(6)} compare(%sort.78, %sort.79), direction=LT, metadata={op_name="lt_to"}, backend_config={"flag_configs":[],"scoped_memory_configs":[],"used_scoped_memory_configs":[],"aliasing_operands":{"lists":[]}}
  %lt_to.38 = pred[]{:T(512)S(6)} compare(%sort.79, %sort.78), direction=LT, metadata={op_name="lt_to"}, backend_config={"flag_configs":[],"scoped_memory_configs":[],"used_scoped_memory_configs":[],"aliasing_operands":{"lists":[]}}
  %compare.156 = pred[]{:T(512)S(6)} compare(%lt_to.37, %lt_to.38), direction=EQ, metadata={op_name="compare.124"}, backend_config={"flag_configs":[],"scoped_memory_configs":[],"used_scoped_memory_configs":[],"aliasing_operands":{"lists":[]}}
  %compare.157 = pred[]{:T(512)S(6)} compare(%sort.80, %sort.81), direction=LT, metadata={op_name="compare.125"}, backend_config={"flag_configs":[],"scoped_memory_configs":[],"used_scoped_memory_configs":[],"aliasing_operands":{"lists":[]}}
  ROOT %select.134 = pred[]{:T(512)} select(%compare.156, %compare.157, %lt_to.37), metadata={op_name="select.116"}, backend_config={"flag_configs":[],"scoped_memory_configs":[],"used_scoped_memory_configs":[],"aliasing_operands":{"lists":[]}}
}

%region_119.141 (reduce_sum.151: bf16[], reduce_sum.152: bf16[]) -> bf16[] {
  %reduce_sum.151 = bf16[]{:T(256)} parameter(0), metadata={op_name="jit(train_step)/transpose(jvp(TransformerLinenPure.apply))/TransformerLinenPure/decoder/moe_layers.wrapped_fn/while/body/closed_call/checkpoint/moe_layers/reduce_sum"}
  %reduce_sum.152 = bf16[]{:T(256)} parameter(1), metadata={op_name="jit(train_step)/transpose(jvp(TransformerLinenPure.apply))/TransformerLinenPure/decoder/moe_layers.wrapped_fn/while/body/closed_call/checkpoint/moe_layers/reduce_sum"}
  ROOT %reduce_sum.153 = bf16[]{:T(256)} add(%reduce_sum.151, %reduce_sum.152), metadata={op_name="checkpoint/moe_layers/reduce_sum" stack_frame_id=0}, backend_config={"flag_configs":[],"scoped_memory_configs":[],"used_scoped_memory_configs":[],"aliasing_operands":{"lists":[]}}
}

%region_107.126 (psum.6: bf16[], psum.9: bf16[]) -> bf16[] {
  %psum.6 = bf16[]{:T(256)} parameter(0), metadata={op_name="psum"}
  %psum.9 = bf16[]{:T(256)} parameter(1), metadata={op_name="psum"}
  ROOT %add.1373 = bf16[]{:T(256)} add(%psum.6, %psum.9), metadata={op_name="add" stack_frame_id=0}, backend_config={"flag_configs":[],"scoped_memory_configs":[],"used_scoped_memory_configs":[],"aliasing_operands":{"lists":[]}}
}

%region_108.127 (psum.10: bf16[], psum.11: bf16[]) -> bf16[] {
  %psum.10 = bf16[]{:T(256)} parameter(0), metadata={op_name="psum"}
  %psum.11 = bf16[]{:T(256)} parameter(1), metadata={op_name="psum"}
  ROOT %add.1374 = bf16[]{:T(256)} add(%psum.10, %psum.11), metadata={op_name="add" stack_frame_id=0}, backend_config={"flag_configs":[],"scoped_memory_configs":[],"used_scoped_memory_configs":[],"aliasing_operands":{"lists":[]}}
}

%region_109.128 (psum.14: bf16[], psum.15: bf16[]) -> bf16[] {
  %psum.14 = bf16[]{:T(256)} parameter(0), metadata={op_name="psum"}
  %psum.15 = bf16[]{:T(256)} parameter(1), metadata={op_name="psum"}
  ROOT %add.1375 = bf16[]{:T(256)} add(%psum.14, %psum.15), metadata={op_name="add" stack_frame_id=0}, backend_config={"flag_configs":[],"scoped_memory_configs":[],"used_scoped_memory_configs":[],"aliasing_operands":{"lists":[]}}
}

%region_62.73 (reduce-window.111: s32[], reduce-window.112: s32[]) -> s32[] {
  %reduce-window.111 = s32[]{:T(128)} parameter(0), metadata={op_name="reduce-window.35"}
  %reduce-window.112 = s32[]{:T(128)} parameter(1), metadata={op_name="reduce-window.35"}
  ROOT %reduce_window_sum.108 = s32[]{:T(128)} add(%reduce-window.111, %reduce-window.112), metadata={op_name="reduce_window_sum"}, backend_config={"flag_configs":[],"scoped_memory_configs":[],"used_scoped_memory_configs":[],"aliasing_operands":{"lists":[]}}
}

%region_64.75 (reduce-window.113: s32[], reduce-window.114: s32[]) -> s32[] {
  %reduce-window.113 = s32[]{:T(128)} parameter(0), metadata={op_name="reduce-window.36"}
  %reduce-window.114 = s32[]{:T(128)} parameter(1), metadata={op_name="reduce-window.36"}
  ROOT %reduce_window_sum.109 = s32[]{:T(128)} add(%reduce-window.113, %reduce-window.114), metadata={op_name="reduce_window_sum"}, backend_config={"flag_configs":[],"scoped_memory_configs":[],"used_scoped_memory_configs":[],"aliasing_operands":{"lists":[]}}
}

%region_65.76 (reduce-window.115: s32[], reduce-window.116: s32[]) -> s32[] {
  %reduce-window.115 = s32[]{:T(128)} parameter(0), metadata={op_name="reduce-window.63"}
  %reduce-window.116 = s32[]{:T(128)} parameter(1), metadata={op_name="reduce-window.63"}
  ROOT %reduce_window_sum.110 = s32[]{:T(128)} add(%reduce-window.115, %reduce-window.116), metadata={op_name="reduce_window_sum"}, backend_config={"flag_configs":[],"scoped_memory_configs":[],"used_scoped_memory_configs":[],"aliasing_operands":{"lists":[]}}
}

%region_68.81.clone (reduce-window.396: s32[], reduce-window.397: s32[]) -> s32[] {
  %reduce-window.396 = s32[]{:T(128)} parameter(0), metadata={op_name="reduce-window.38"}
  %reduce-window.397 = s32[]{:T(128)} parameter(1), metadata={op_name="reduce-window.38"}
  ROOT %reduce_window_sum.317 = s32[]{:T(128)} add(%reduce-window.396, %reduce-window.397), metadata={op_name="reduce_window_sum"}, backend_config={"flag_configs":[],"scoped_memory_configs":[],"used_scoped_memory_configs":[],"aliasing_operands":{"lists":[]}}
}

%region_69.82.clone (reduce-window.400: s32[], reduce-window.401: s32[]) -> s32[] {
  %reduce-window.400 = s32[]{:T(128)} parameter(0), metadata={op_name="reduce-window.64"}
  %reduce-window.401 = s32[]{:T(128)} parameter(1), metadata={op_name="reduce-window.64"}
  ROOT %reduce_window_sum.319 = s32[]{:T(128)} add(%reduce-window.400, %reduce-window.401), metadata={op_name="reduce_window_sum"}, backend_config={"flag_configs":[],"scoped_memory_configs":[],"used_scoped_memory_configs":[],"aliasing_operands":{"lists":[]}}
}

%region_71.84.clone (reduce-window.404: s32[], reduce-window.405: s32[]) -> s32[] {
  %reduce-window.404 = s32[]{:T(128)} parameter(0), metadata={op_name="reduce-window.40"}
  %reduce-window.405 = s32[]{:T(128)} parameter(1), metadata={op_name="reduce-window.40"}
  ROOT %reduce_window_sum.321 = s32[]{:T(128)} add(%reduce-window.404, %reduce-window.405), metadata={op_name="reduce_window_sum"}, backend_config={"flag_configs":[],"scoped_memory_configs":[],"used_scoped_memory_configs":[],"aliasing_operands":{"lists":[]}}
}

%region_72.85.clone (reduce-window.408: s32[], reduce-window.409: s32[]) -> s32[] {
  %reduce-window.408 = s32[]{:T(128)} parameter(0), metadata={op_name="reduce-window.65"}
  %reduce-window.409 = s32[]{:T(128)} parameter(1), metadata={op_name="reduce-window.65"}
  ROOT %reduce_window_sum.323 = s32[]{:T(128)} add(%reduce-window.408, %reduce-window.409), metadata={op_name="reduce_window_sum"}, backend_config={"flag_configs":[],"scoped_memory_configs":[],"used_scoped_memory_configs":[],"aliasing_operands":{"lists":[]}}
}

%region_74.87.clone (reduce-window.412: s32[], reduce-window.413: s32[]) -> s32[] {
  %reduce-window.412 = s32[]{:T(128)} parameter(0), metadata={op_name="reduce-window.42"}
  %reduce-window.413 = s32[]{:T(128)} parameter(1), metadata={op_name="reduce-window.42"}
  ROOT %reduce_window_sum.325 = s32[]{:T(128)} add(%reduce-window.412, %reduce-window.413), metadata={op_name="reduce_window_sum"}, backend_config={"flag_configs":[],"scoped_memory_configs":[],"used_scoped_memory_configs":[],"aliasing_operands":{"lists":[]}}
}

%region_75.88.clone (reduce-window.416: s32[], reduce-window.417: s32[]) -> s32[] {
  %reduce-window.416 = s32[]{:T(128)} parameter(0), metadata={op_name="reduce-window.66"}
  %reduce-window.417 = s32[]{:T(128)} parameter(1), metadata={op_name="reduce-window.66"}
  ROOT %reduce_window_sum.327 = s32[]{:T(128)} add(%reduce-window.416, %reduce-window.417), metadata={op_name="reduce_window_sum"}, backend_config={"flag_configs":[],"scoped_memory_configs":[],"used_scoped_memory_configs":[],"aliasing_operands":{"lists":[]}}
}

%region_80.96.clone (reduce-window.420: s32[], reduce-window.421: s32[]) -> s32[] {
  %reduce-window.420 = s32[]{:T(128)} parameter(0), metadata={op_name="reduce-window.44"}
  %reduce-window.421 = s32[]{:T(128)} parameter(1), metadata={op_name="reduce-window.44"}
  ROOT %reduce_window_sum.329 = s32[]{:T(128)} add(%reduce-window.420, %reduce-window.421), metadata={op_name="reduce_window_sum"}, backend_config={"flag_configs":[],"scoped_memory_configs":[],"used_scoped_memory_configs":[],"aliasing_operands":{"lists":[]}}
}

%region_82.98.clone (reduce-window.424: s32[], reduce-window.425: s32[]) -> s32[] {
  %reduce-window.424 = s32[]{:T(128)} parameter(0), metadata={op_name="reduce-window.45"}
  %reduce-window.425 = s32[]{:T(128)} parameter(1), metadata={op_name="reduce-window.45"}
  ROOT %reduce_window_sum.331 = s32[]{:T(128)} add(%reduce-window.424, %reduce-window.425), metadata={op_name="reduce_window_sum"}, backend_config={"flag_configs":[],"scoped_memory_configs":[],"used_scoped_memory_configs":[],"aliasing_operands":{"lists":[]}}
}

%region_83.99.clone (reduce-window.428: s32[], reduce-window.429: s32[]) -> s32[] {
  %reduce-window.428 = s32[]{:T(128)} parameter(0), metadata={op_name="reduce-window.67"}
  %reduce-window.429 = s32[]{:T(128)} parameter(1), metadata={op_name="reduce-window.67"}
  ROOT %reduce_window_sum.333 = s32[]{:T(128)} add(%reduce-window.428, %reduce-window.429), metadata={op_name="reduce_window_sum"}, backend_config={"flag_configs":[],"scoped_memory_configs":[],"used_scoped_memory_configs":[],"aliasing_operands":{"lists":[]}}
}

%region_94.112 (reduce-window.174: s32[], reduce-window.175: s32[]) -> s32[] {
  %reduce-window.174 = s32[]{:T(128)} parameter(0), metadata={op_name="reduce-window.49"}
  %reduce-window.175 = s32[]{:T(128)} parameter(1), metadata={op_name="reduce-window.49"}
  ROOT %reduce_window_sum.138 = s32[]{:T(128)} add(%reduce-window.174, %reduce-window.175), metadata={op_name="reduce_window_sum"}, backend_config={"flag_configs":[],"scoped_memory_configs":[],"used_scoped_memory_configs":[],"aliasing_operands":{"lists":[]}}
}

%region_95.113 (reduce-window.179: s32[], reduce-window.180: s32[]) -> s32[] {
  %reduce-window.179 = s32[]{:T(128)} parameter(0), metadata={op_name="reduce-window.69"}
  %reduce-window.180 = s32[]{:T(128)} parameter(1), metadata={op_name="reduce-window.69"}
  ROOT %reduce_window_sum.139 = s32[]{:T(128)} add(%reduce-window.179, %reduce-window.180), metadata={op_name="reduce_window_sum"}, backend_config={"flag_configs":[],"scoped_memory_configs":[],"used_scoped_memory_configs":[],"aliasing_operands":{"lists":[]}}
}

%region_97.115 (reduce-window.184: s32[], reduce-window.185: s32[]) -> s32[] {
  %reduce-window.184 = s32[]{:T(128)} parameter(0), metadata={op_name="reduce-window.51"}
  %reduce-window.185 = s32[]{:T(128)} parameter(1), metadata={op_name="reduce-window.51"}
  ROOT %reduce_window_sum.140 = s32[]{:T(128)} add(%reduce-window.184, %reduce-window.185), metadata={op_name="reduce_window_sum"}, backend_config={"flag_configs":[],"scoped_memory_configs":[],"used_scoped_memory_configs":[],"aliasing_operands":{"lists":[]}}
}

%region_98.116 (reduce-window.189: s32[], reduce-window.190: s32[]) -> s32[] {
  %reduce-window.189 = s32[]{:T(128)} parameter(0), metadata={op_name="reduce-window.70"}
  %reduce-window.190 = s32[]{:T(128)} parameter(1), metadata={op_name="reduce-window.70"}
  ROOT %reduce_window_sum.141 = s32[]{:T(128)} add(%reduce-window.189, %reduce-window.190), metadata={op_name="reduce_window_sum"}, backend_config={"flag_configs":[],"scoped_memory_configs":[],"used_scoped_memory_configs":[],"aliasing_operands":{"lists":[]}}
}

%region_103.121 (reduce-window.194: s32[], reduce-window.195: s32[]) -> s32[] {
  %reduce-window.194 = s32[]{:T(128)} parameter(0), metadata={op_name="reduce-window.53"}
  %reduce-window.195 = s32[]{:T(128)} parameter(1), metadata={op_name="reduce-window.53"}
  ROOT %reduce_window_sum.142 = s32[]{:T(128)} add(%reduce-window.194, %reduce-window.195), metadata={op_name="reduce_window_sum"}, backend_config={"flag_configs":[],"scoped_memory_configs":[],"used_scoped_memory_configs":[],"aliasing_operands":{"lists":[]}}
}

%region_105.123 (reduce-window.199: s32[], reduce-window.200: s32[]) -> s32[] {
  %reduce-window.199 = s32[]{:T(128)} parameter(0), metadata={op_name="reduce-window.54"}
  %reduce-window.200 = s32[]{:T(128)} parameter(1), metadata={op_name="reduce-window.54"}
  ROOT %reduce_window_sum.143 = s32[]{:T(128)} add(%reduce-window.199, %reduce-window.200), metadata={op_name="reduce_window_sum"}, backend_config={"flag_configs":[],"scoped_memory_configs":[],"used_scoped_memory_configs":[],"aliasing_operands":{"lists":[]}}
}

%region_106.124 (reduce-window.204: s32[], reduce-window.205: s32[]) -> s32[] {
  %reduce-window.204 = s32[]{:T(128)} parameter(0), metadata={op_name="reduce-window.71"}
  %reduce-window.205 = s32[]{:T(128)} parameter(1), metadata={op_name="reduce-window.71"}
  ROOT %reduce_window_sum.144 = s32[]{:T(128)} add(%reduce-window.204, %reduce-window.205), metadata={op_name="reduce_window_sum"}, backend_config={"flag_configs":[],"scoped_memory_configs":[],"used_scoped_memory_configs":[],"aliasing_operands":{"lists":[]}}
}

%fused_computation.5 (param_0.17: bf16[129280,512], param_1.108: s32[1024]) -> bf16[512,512] {
  %param_0.17 = bf16[129280,512]{1,0:T(8,128)(2,1)} parameter(0)
  %param_1.108 = s32[1024]{0:T(1024)S(1)} parameter(1)
  %custom-call.13 = s32[1024]{0:T(1024)} custom-call(%param_1.108), custom_call_target="AssumeGatherIndicesInBound", operand_layout_constraints={s32[1024]{0:T(1024)}}, metadata={op_name="jit(train_step)/jvp(TransformerLinenPure.apply)/TransformerLinenPure/decoder/decoder._apply_embedding/token_embedder/gather" stack_frame_id=0}
  %slice.920 = s32[512]{0:T(512)} slice(%custom-call.13), slice={[0:512]}, metadata={op_name="jit(train_step)/jvp(TransformerLinenPure.apply)/TransformerLinenPure/decoder/decoder._apply_embedding/token_embedder/gather" stack_frame_id=0}
  %reshape.3445 = s32[4,128]{1,0:T(4,128)} reshape(%slice.920), metadata={op_name="jit(train_step)/jvp(TransformerLinenPure.apply)/TransformerLinenPure/decoder/decoder._apply_embedding/token_embedder/broadcast_in_dim" stack_frame_id=0}
  %transpose.604 = s32[4,128]{1,0:T(4,128)} transpose(%reshape.3445), dimensions={0,1}, metadata={op_name="jit(train_step)/jvp(TransformerLinenPure.apply)/TransformerLinenPure/decoder/decoder._apply_embedding/token_embedder/broadcast_in_dim" stack_frame_id=0}
  %gather.187 = bf16[4,128,512]{2,1,0:T(8,128)(2,1)} gather(%param_0.17, %transpose.604), offset_dims={2}, collapsed_slice_dims={0}, start_index_map={0}, index_vector_dim=2, slice_sizes={1,512}, metadata={op_name="jit(train_step)/jvp(TransformerLinenPure.apply)/TransformerLinenPure/decoder/decoder._apply_embedding/token_embedder/gather" stack_frame_id=0}
  %transpose.603 = bf16[4,128,512]{2,1,0:T(8,128)(2,1)} transpose(%gather.187), dimensions={0,1,2}, metadata={op_name="jit(train_step)/jvp(TransformerLinenPure.apply)/TransformerLinenPure/decoder/decoder._apply_embedding/token_embedder/gather" stack_frame_id=0}
  ROOT %reshape.3444 = bf16[512,512]{1,0:T(8,128)(2,1)S(1)} reshape(%transpose.603), metadata={op_name="jit(train_step)/jvp(TransformerLinenPure.apply)/TransformerLinenPure/decoder/decoder._apply_embedding/token_embedder/gather" stack_frame_id=0}
}

%fused_computation.6 (param_0.20: f32[163840,32], param_1.110: s32[1024]) -> f32[512,32] {
  %param_0.20 = f32[163840,32]{1,0:T(8,128)} parameter(0)
  %param_1.110 = s32[1024]{0:T(1024)S(1)} parameter(1)
  %custom-call.15 = s32[1024]{0:T(1024)} custom-call(%param_1.110), custom_call_target="AssumeGatherIndicesInBound", operand_layout_constraints={s32[1024]{0:T(1024)}}, metadata={op_name="jit(train_step)/dense_layers/gather" stack_frame_id=0}
  %slice.922 = s32[512]{0:T(512)} slice(%custom-call.15), slice={[0:512]}, metadata={op_name="jit(train_step)/dense_layers/gather" stack_frame_id=0}
  %reshape.3453 = s32[4,128]{1,0:T(4,128)} reshape(%slice.922), metadata={op_name="jit(train_step)/dense_layers/broadcast_in_dim" stack_frame_id=0}
  %transpose.610 = s32[4,128]{1,0:T(4,128)} transpose(%reshape.3453), dimensions={0,1}, metadata={op_name="jit(train_step)/dense_layers/broadcast_in_dim" stack_frame_id=0}
  %gather.189 = f32[4,128,32]{2,1,0:T(8,128)} gather(%param_0.20, %transpose.610), offset_dims={2}, collapsed_slice_dims={0}, start_index_map={0}, index_vector_dim=2, slice_sizes={1,32}, metadata={op_name="jit(train_step)/dense_layers/gather" stack_frame_id=0}
  %transpose.609 = f32[4,128,32]{2,1,0:T(8,128)} transpose(%gather.189), dimensions={0,1,2}, metadata={op_name="jit(train_step)/dense_layers/gather" stack_frame_id=0}
  ROOT %reshape.3452 = f32[512,32]{1,0:T(8,128)} reshape(%transpose.609), metadata={op_name="jit(train_step)/dense_layers/gather" stack_frame_id=0}
}

%fused_computation.7 (param_0.23: f32[163840,32], param_1.112: s32[1024]) -> f32[512,32] {
  %param_0.23 = f32[163840,32]{1,0:T(8,128)} parameter(0)
  %param_1.112 = s32[1024]{0:T(1024)S(1)} parameter(1)
  %custom-call.17 = s32[1024]{0:T(1024)} custom-call(%param_1.112), custom_call_target="AssumeGatherIndicesInBound", operand_layout_constraints={s32[1024]{0:T(1024)}}, metadata={op_name="jit(train_step)/dense_layers/gather" stack_frame_id=0}
  %slice.924 = s32[512]{0:T(512)} slice(%custom-call.17), slice={[0:512]}, metadata={op_name="jit(train_step)/dense_layers/gather" stack_frame_id=0}
  %reshape.3461 = s32[4,128]{1,0:T(4,128)} reshape(%slice.924), metadata={op_name="jit(train_step)/dense_layers/broadcast_in_dim" stack_frame_id=0}
  %transpose.616 = s32[4,128]{1,0:T(4,128)} transpose(%reshape.3461), dimensions={0,1}, metadata={op_name="jit(train_step)/dense_layers/broadcast_in_dim" stack_frame_id=0}
  %gather.191 = f32[4,128,32]{2,1,0:T(8,128)} gather(%param_0.23, %transpose.616), offset_dims={2}, collapsed_slice_dims={0}, start_index_map={0}, index_vector_dim=2, slice_sizes={1,32}, metadata={op_name="jit(train_step)/dense_layers/gather" stack_frame_id=0}
  %transpose.615 = f32[4,128,32]{2,1,0:T(8,128)} transpose(%gather.191), dimensions={0,1,2}, metadata={op_name="jit(train_step)/dense_layers/gather" stack_frame_id=0}
  ROOT %reshape.3460 = f32[512,32]{1,0:T(8,128)} reshape(%transpose.615), metadata={op_name="jit(train_step)/dense_layers/gather" stack_frame_id=0}
}

%fused_computation.8 (param_0.26: f32[163840,32], param_1.120: s32[1024]) -> f32[512,32] {
  %param_0.26 = f32[163840,32]{1,0:T(8,128)} parameter(0)
  %param_1.120 = s32[1024]{0:T(1024)S(1)} parameter(1)
  %custom-call.25 = s32[1024]{0:T(1024)} custom-call(%param_1.120), custom_call_target="AssumeGatherIndicesInBound", operand_layout_constraints={s32[1024]{0:T(1024)}}, metadata={op_name="jit(train_step)/transpose(jvp(TransformerLinenPure.apply))/TransformerLinenPure/decoder/moe_layers.wrapped_fn/while/body/closed_call/checkpoint/rematted_computation/moe_layers/gather" stack_frame_id=0}
  %slice.932 = s32[512]{0:T(512)} slice(%custom-call.25), slice={[0:512]}, metadata={op_name="jit(train_step)/transpose(jvp(TransformerLinenPure.apply))/TransformerLinenPure/decoder/moe_layers.wrapped_fn/while/body/closed_call/checkpoint/rematted_computation/moe_layers/gather" stack_frame_id=0}
  %reshape.3469 = s32[4,128]{1,0:T(4,128)} reshape(%slice.932), metadata={op_name="jit(train_step)/transpose(jvp(TransformerLinenPure.apply))/TransformerLinenPure/decoder/moe_layers.wrapped_fn/while/body/closed_call/checkpoint/rematted_computation/moe_layers/select_n" stack_frame_id=0}
  %transpose.622 = s32[4,128]{1,0:T(4,128)} transpose(%reshape.3469), dimensions={0,1}, metadata={op_name="jit(train_step)/transpose(jvp(TransformerLinenPure.apply))/TransformerLinenPure/decoder/moe_layers.wrapped_fn/while/body/closed_call/checkpoint/rematted_computation/moe_layers/select_n" stack_frame_id=0}
  %gather.193 = f32[4,128,32]{2,1,0:T(8,128)} gather(%param_0.26, %transpose.622), offset_dims={2}, collapsed_slice_dims={0}, start_index_map={0}, index_vector_dim=2, slice_sizes={1,32}, metadata={op_name="jit(train_step)/transpose(jvp(TransformerLinenPure.apply))/TransformerLinenPure/decoder/moe_layers.wrapped_fn/while/body/closed_call/checkpoint/rematted_computation/moe_layers/gather" stack_frame_id=0}
  %transpose.621 = f32[4,128,32]{2,1,0:T(8,128)} transpose(%gather.193), dimensions={0,1,2}, metadata={op_name="jit(train_step)/transpose(jvp(TransformerLinenPure.apply))/TransformerLinenPure/decoder/moe_layers.wrapped_fn/while/body/closed_call/checkpoint/rematted_computation/moe_layers/gather" stack_frame_id=0}
  ROOT %reshape.3468 = f32[512,32]{1,0:T(8,128)S(1)} reshape(%transpose.621), metadata={op_name="jit(train_step)/transpose(jvp(TransformerLinenPure.apply))/TransformerLinenPure/decoder/moe_layers.wrapped_fn/while/body/closed_call/checkpoint/rematted_computation/moe_layers/gather" stack_frame_id=0}
}

%fused_computation.9 (param_0.29: f32[163840,32], param_1.122: s32[1024]) -> f32[512,32] {
  %param_0.29 = f32[163840,32]{1,0:T(8,128)} parameter(0)
  %param_1.122 = s32[1024]{0:T(1024)S(1)} parameter(1)
  %custom-call.27 = s32[1024]{0:T(1024)} custom-call(%param_1.122), custom_call_target="AssumeGatherIndicesInBound", operand_layout_constraints={s32[1024]{0:T(1024)}}, metadata={op_name="jit(train_step)/transpose(jvp(TransformerLinenPure.apply))/TransformerLinenPure/decoder/moe_layers.wrapped_fn/while/body/closed_call/checkpoint/rematted_computation/moe_layers/gather" stack_frame_id=0}
  %slice.934 = s32[512]{0:T(512)} slice(%custom-call.27), slice={[0:512]}, metadata={op_name="jit(train_step)/transpose(jvp(TransformerLinenPure.apply))/TransformerLinenPure/decoder/moe_layers.wrapped_fn/while/body/closed_call/checkpoint/rematted_computation/moe_layers/gather" stack_frame_id=0}
  %reshape.3477 = s32[4,128]{1,0:T(4,128)} reshape(%slice.934), metadata={op_name="jit(train_step)/transpose(jvp(TransformerLinenPure.apply))/TransformerLinenPure/decoder/moe_layers.wrapped_fn/while/body/closed_call/checkpoint/rematted_computation/moe_layers/select_n" stack_frame_id=0}
  %transpose.628 = s32[4,128]{1,0:T(4,128)} transpose(%reshape.3477), dimensions={0,1}, metadata={op_name="jit(train_step)/transpose(jvp(TransformerLinenPure.apply))/TransformerLinenPure/decoder/moe_layers.wrapped_fn/while/body/closed_call/checkpoint/rematted_computation/moe_layers/select_n" stack_frame_id=0}
  %gather.195 = f32[4,128,32]{2,1,0:T(8,128)} gather(%param_0.29, %transpose.628), offset_dims={2}, collapsed_slice_dims={0}, start_index_map={0}, index_vector_dim=2, slice_sizes={1,32}, metadata={op_name="jit(train_step)/transpose(jvp(TransformerLinenPure.apply))/TransformerLinenPure/decoder/moe_layers.wrapped_fn/while/body/closed_call/checkpoint/rematted_computation/moe_layers/gather" stack_frame_id=0}
  %transpose.627 = f32[4,128,32]{2,1,0:T(8,128)} transpose(%gather.195), dimensions={0,1,2}, metadata={op_name="jit(train_step)/transpose(jvp(TransformerLinenPure.apply))/TransformerLinenPure/decoder/moe_layers.wrapped_fn/while/body/closed_call/checkpoint/rematted_computation/moe_layers/gather" stack_frame_id=0}
  ROOT %reshape.3476 = f32[512,32]{1,0:T(8,128)S(1)} reshape(%transpose.627), metadata={op_name="jit(train_step)/transpose(jvp(TransformerLinenPure.apply))/TransformerLinenPure/decoder/moe_layers.wrapped_fn/while/body/closed_call/checkpoint/rematted_computation/moe_layers/gather" stack_frame_id=0}
}

%fused_computation.10 (param_0.32: bf16[4096,512], param_1.126: s32[4096]) -> bf16[4096,512] {
  %param_0.32 = bf16[4096,512]{1,0:T(8,128)(2,1)S(1)} parameter(0)
  %param_1.126 = s32[4096]{0:T(1024)S(1)} parameter(1)
  %custom-call.31 = s32[4096]{0:T(1024)} custom-call(%param_1.126), custom_call_target="AssumeGatherIndicesInBound", operand_layout_constraints={s32[4096]{0:T(1024)}}, metadata={op_name="jit(train_step)/transpose(jvp(TransformerLinenPure.apply))/TransformerLinenPure/decoder/moe_layers.wrapped_fn/while/body/closed_call/checkpoint/rematted_computation/moe_layers/shard_map/sort_activations/gather" stack_frame_id=0}
  %slice.938 = s32[4096]{0:T(1024)} slice(%custom-call.31), slice={[0:4096]}, metadata={op_name="jit(train_step)/transpose(jvp(TransformerLinenPure.apply))/TransformerLinenPure/decoder/moe_layers.wrapped_fn/while/body/closed_call/checkpoint/rematted_computation/moe_layers/shard_map/sort_activations/gather" stack_frame_id=0}
  %reshape.3485 = s32[4096]{0:T(1024)} reshape(%slice.938), metadata={op_name="jit(train_step)/transpose(jvp(TransformerLinenPure.apply))/TransformerLinenPure/decoder/moe_layers.wrapped_fn/while/body/closed_call/checkpoint/rematted_computation/moe_layers/shard_map/sort_activations/broadcast_in_dim" stack_frame_id=0}
  %transpose.634 = s32[4096]{0:T(1024)} transpose(%reshape.3485), dimensions={0}, metadata={op_name="jit(train_step)/transpose(jvp(TransformerLinenPure.apply))/TransformerLinenPure/decoder/moe_layers.wrapped_fn/while/body/closed_call/checkpoint/rematted_computation/moe_layers/shard_map/sort_activations/broadcast_in_dim" stack_frame_id=0}
  %gather.197 = bf16[4096,512]{1,0:T(8,128)(2,1)} gather(%param_0.32, %transpose.634), offset_dims={1}, collapsed_slice_dims={0}, start_index_map={0}, index_vector_dim=1, slice_sizes={1,512}, metadata={op_name="jit(train_step)/transpose(jvp(TransformerLinenPure.apply))/TransformerLinenPure/decoder/moe_layers.wrapped_fn/while/body/closed_call/checkpoint/rematted_computation/moe_layers/shard_map/sort_activations/gather" stack_frame_id=0}
  %transpose.633 = bf16[4096,512]{1,0:T(8,128)(2,1)} transpose(%gather.197), dimensions={0,1}, metadata={op_name="jit(train_step)/transpose(jvp(TransformerLinenPure.apply))/TransformerLinenPure/decoder/moe_layers.wrapped_fn/while/body/closed_call/checkpoint/rematted_computation/moe_layers/shard_map/sort_activations/gather" stack_frame_id=0}
  ROOT %reshape.3484 = bf16[4096,512]{1,0:T(8,128)(2,1)} reshape(%transpose.633), metadata={op_name="jit(train_step)/transpose(jvp(TransformerLinenPure.apply))/TransformerLinenPure/decoder/moe_layers.wrapped_fn/while/body/closed_call/checkpoint/rematted_computation/moe_layers/shard_map/sort_activations/gather" stack_frame_id=0}
}

%fused_computation.11 (param_0.35: bf16[4096,512], param_1.128: s32[4096]) -> bf16[4096,512] {
  %param_0.35 = bf16[4096,512]{1,0:T(8,128)(2,1)S(1)} parameter(0)
  %param_1.128 = s32[4096]{0:T(1024)S(1)} parameter(1)
  %custom-call.33 = s32[4096]{0:T(1024)} custom-call(%param_1.128), custom_call_target="AssumeGatherIndicesInBound", operand_layout_constraints={s32[4096]{0:T(1024)}}, metadata={op_name="jit(train_step)/transpose(jvp(TransformerLinenPure.apply))/TransformerLinenPure/decoder/moe_layers.wrapped_fn/while/body/closed_call/checkpoint/moe_layers/shard_map/sort_activations/gather" stack_frame_id=0}
  %slice.940 = s32[4096]{0:T(1024)} slice(%custom-call.33), slice={[0:4096]}, metadata={op_name="jit(train_step)/transpose(jvp(TransformerLinenPure.apply))/TransformerLinenPure/decoder/moe_layers.wrapped_fn/while/body/closed_call/checkpoint/moe_layers/shard_map/sort_activations/gather" stack_frame_id=0}
  %reshape.3493 = s32[4096]{0:T(1024)} reshape(%slice.940), metadata={op_name="jit(train_step)/transpose(jvp(TransformerLinenPure.apply))/TransformerLinenPure/decoder/moe_layers.wrapped_fn/while/body/closed_call/checkpoint/moe_layers/shard_map/sort_activations/broadcast_in_dim" stack_frame_id=0}
  %transpose.640 = s32[4096]{0:T(1024)} transpose(%reshape.3493), dimensions={0}, metadata={op_name="jit(train_step)/transpose(jvp(TransformerLinenPure.apply))/TransformerLinenPure/decoder/moe_layers.wrapped_fn/while/body/closed_call/checkpoint/moe_layers/shard_map/sort_activations/broadcast_in_dim" stack_frame_id=0}
  %gather.199 = bf16[4096,512]{1,0:T(8,128)(2,1)} gather(%param_0.35, %transpose.640), offset_dims={1}, collapsed_slice_dims={0}, start_index_map={0}, index_vector_dim=1, slice_sizes={1,512}, metadata={op_name="jit(train_step)/transpose(jvp(TransformerLinenPure.apply))/TransformerLinenPure/decoder/moe_layers.wrapped_fn/while/body/closed_call/checkpoint/moe_layers/shard_map/sort_activations/gather" stack_frame_id=0}
  %transpose.639 = bf16[4096,512]{1,0:T(8,128)(2,1)} transpose(%gather.199), dimensions={0,1}, metadata={op_name="jit(train_step)/transpose(jvp(TransformerLinenPure.apply))/TransformerLinenPure/decoder/moe_layers.wrapped_fn/while/body/closed_call/checkpoint/moe_layers/shard_map/sort_activations/gather" stack_frame_id=0}
  ROOT %reshape.3492 = bf16[4096,512]{1,0:T(8,128)(2,1)S(1)} reshape(%transpose.639), metadata={op_name="jit(train_step)/transpose(jvp(TransformerLinenPure.apply))/TransformerLinenPure/decoder/moe_layers.wrapped_fn/while/body/closed_call/checkpoint/moe_layers/shard_map/sort_activations/gather" stack_frame_id=0}
}

%fused_computation.12 (param_0.38: bf16[4096,512], param_1.130: s32[4096]) -> bf16[4096,512] {
  %param_0.38 = bf16[4096,512]{1,0:T(8,128)(2,1)S(1)} parameter(0)
  %param_1.130 = s32[4096]{0:T(1024)S(1)} parameter(1)
  %custom-call.35 = s32[4096]{0:T(1024)} custom-call(%param_1.130), custom_call_target="AssumeGatherIndicesInBound", operand_layout_constraints={s32[4096]{0:T(1024)}}, metadata={op_name="jit(train_step)/transpose(jvp(TransformerLinenPure.apply))/TransformerLinenPure/decoder/moe_layers.wrapped_fn/while/body/closed_call/checkpoint/moe_layers/shard_map/sort_activations/gather" stack_frame_id=0}
  %slice.942 = s32[4096]{0:T(1024)} slice(%custom-call.35), slice={[0:4096]}, metadata={op_name="jit(train_step)/transpose(jvp(TransformerLinenPure.apply))/TransformerLinenPure/decoder/moe_layers.wrapped_fn/while/body/closed_call/checkpoint/moe_layers/shard_map/sort_activations/gather" stack_frame_id=0}
  %reshape.3501 = s32[4096]{0:T(1024)} reshape(%slice.942), metadata={op_name="jit(train_step)/transpose(jvp(TransformerLinenPure.apply))/TransformerLinenPure/decoder/moe_layers.wrapped_fn/while/body/closed_call/checkpoint/moe_layers/shard_map/sort_activations/broadcast_in_dim" stack_frame_id=0}
  %transpose.646 = s32[4096]{0:T(1024)} transpose(%reshape.3501), dimensions={0}, metadata={op_name="jit(train_step)/transpose(jvp(TransformerLinenPure.apply))/TransformerLinenPure/decoder/moe_layers.wrapped_fn/while/body/closed_call/checkpoint/moe_layers/shard_map/sort_activations/broadcast_in_dim" stack_frame_id=0}
  %gather.201 = bf16[4096,512]{1,0:T(8,128)(2,1)} gather(%param_0.38, %transpose.646), offset_dims={1}, collapsed_slice_dims={0}, start_index_map={0}, index_vector_dim=1, slice_sizes={1,512}, metadata={op_name="jit(train_step)/transpose(jvp(TransformerLinenPure.apply))/TransformerLinenPure/decoder/moe_layers.wrapped_fn/while/body/closed_call/checkpoint/moe_layers/shard_map/sort_activations/gather" stack_frame_id=0}
  %transpose.645 = bf16[4096,512]{1,0:T(8,128)(2,1)} transpose(%gather.201), dimensions={0,1}, metadata={op_name="jit(train_step)/transpose(jvp(TransformerLinenPure.apply))/TransformerLinenPure/decoder/moe_layers.wrapped_fn/while/body/closed_call/checkpoint/moe_layers/shard_map/sort_activations/gather" stack_frame_id=0}
  ROOT %reshape.3500 = bf16[4096,512]{1,0:T(8,128)(2,1)S(1)} reshape(%transpose.645), metadata={op_name="jit(train_step)/transpose(jvp(TransformerLinenPure.apply))/TransformerLinenPure/decoder/moe_layers.wrapped_fn/while/body/closed_call/checkpoint/moe_layers/shard_map/sort_activations/gather" stack_frame_id=0}
}

%fused_computation.13 (param_0.41: bf16[4096,512], param_1.132: s32[4096]) -> bf16[4096,512] {
  %param_0.41 = bf16[4096,512]{1,0:T(8,128)(2,1)S(1)} parameter(0)
  %param_1.132 = s32[4096]{0:T(1024)S(1)} parameter(1)
  %custom-call.37 = s32[4096]{0:T(1024)} custom-call(%param_1.132), custom_call_target="AssumeGatherIndicesInBound", operand_layout_constraints={s32[4096]{0:T(1024)}}, metadata={op_name="jit(train_step)/transpose(jvp(TransformerLinenPure.apply))/TransformerLinenPure/decoder/moe_layers.wrapped_fn/while/body/closed_call/checkpoint/rematted_computation/moe_layers/shard_map/sort_activations/gather" stack_frame_id=0}
  %slice.944 = s32[4096]{0:T(1024)} slice(%custom-call.37), slice={[0:4096]}, metadata={op_name="jit(train_step)/transpose(jvp(TransformerLinenPure.apply))/TransformerLinenPure/decoder/moe_layers.wrapped_fn/while/body/closed_call/checkpoint/rematted_computation/moe_layers/shard_map/sort_activations/gather" stack_frame_id=0}
  %reshape.3509 = s32[4096]{0:T(1024)} reshape(%slice.944), metadata={op_name="jit(train_step)/transpose(jvp(TransformerLinenPure.apply))/TransformerLinenPure/decoder/moe_layers.wrapped_fn/while/body/closed_call/checkpoint/moe_layers/shard_map/sort_activations/broadcast_in_dim" stack_frame_id=0}
  %transpose.652 = s32[4096]{0:T(1024)} transpose(%reshape.3509), dimensions={0}, metadata={op_name="jit(train_step)/transpose(jvp(TransformerLinenPure.apply))/TransformerLinenPure/decoder/moe_layers.wrapped_fn/while/body/closed_call/checkpoint/moe_layers/shard_map/sort_activations/broadcast_in_dim" stack_frame_id=0}
  %gather.203 = bf16[4096,512]{1,0:T(8,128)(2,1)} gather(%param_0.41, %transpose.652), offset_dims={1}, collapsed_slice_dims={0}, start_index_map={0}, index_vector_dim=1, slice_sizes={1,512}, metadata={op_name="jit(train_step)/transpose(jvp(TransformerLinenPure.apply))/TransformerLinenPure/decoder/moe_layers.wrapped_fn/while/body/closed_call/checkpoint/rematted_computation/moe_layers/shard_map/sort_activations/gather" stack_frame_id=0}
  %transpose.651 = bf16[4096,512]{1,0:T(8,128)(2,1)} transpose(%gather.203), dimensions={0,1}, metadata={op_name="jit(train_step)/transpose(jvp(TransformerLinenPure.apply))/TransformerLinenPure/decoder/moe_layers.wrapped_fn/while/body/closed_call/checkpoint/rematted_computation/moe_layers/shard_map/sort_activations/gather" stack_frame_id=0}
  ROOT %reshape.3508 = bf16[4096,512]{1,0:T(8,128)(2,1)S(1)} reshape(%transpose.651), metadata={op_name="jit(train_step)/transpose(jvp(TransformerLinenPure.apply))/TransformerLinenPure/decoder/moe_layers.wrapped_fn/while/body/closed_call/checkpoint/rematted_computation/moe_layers/shard_map/sort_activations/gather" stack_frame_id=0}
}

%fused_computation.15 (param_0.47: s32[256], param_1.124: s32[1024]) -> s32[263] {
  %param_0.47 = s32[256]{0:T(256)S(1)} parameter(0)
  %param_1.124 = s32[1024]{0:T(1024)S(1)} parameter(1)
  %custom-call.29 = s32[1024]{0:T(1024)} custom-call(%param_1.124), custom_call_target="AssumeGatherIndicesInBound", operand_layout_constraints={s32[1024]{0:T(1024)}}, metadata={op_name="jit(train_step)/transpose(jvp(TransformerLinenPure.apply))/TransformerLinenPure/decoder/moe_layers.wrapped_fn/while/body/closed_call/checkpoint/moe_layers/shard_map/jit(gmm)/jit(_take)/gather" stack_frame_id=0}
  %slice.936 = s32[263]{0:T(512)} slice(%custom-call.29), slice={[0:263]}, metadata={op_name="jit(train_step)/transpose(jvp(TransformerLinenPure.apply))/TransformerLinenPure/decoder/moe_layers.wrapped_fn/while/body/closed_call/checkpoint/moe_layers/shard_map/jit(gmm)/jit(_take)/gather" stack_frame_id=0}
  %reshape.3540 = s32[263]{0:T(512)} reshape(%slice.936), metadata={op_name="jit(train_step)/transpose(jvp(TransformerLinenPure.apply))/TransformerLinenPure/decoder/moe_layers.wrapped_fn/while/body/closed_call/checkpoint/moe_layers/shard_map/jit(gmm)/jit(_take)/broadcast_in_dim" stack_frame_id=0}
  %transpose.668 = s32[263]{0:T(512)} transpose(%reshape.3540), dimensions={0}, metadata={op_name="jit(train_step)/transpose(jvp(TransformerLinenPure.apply))/TransformerLinenPure/decoder/moe_layers.wrapped_fn/while/body/closed_call/checkpoint/moe_layers/shard_map/jit(gmm)/jit(_take)/broadcast_in_dim" stack_frame_id=0}
  %gather.208 = s32[263]{0:T(512)} gather(%param_0.47, %transpose.668), offset_dims={}, collapsed_slice_dims={0}, start_index_map={0}, index_vector_dim=1, slice_sizes={1}, metadata={op_name="jit(train_step)/transpose(jvp(TransformerLinenPure.apply))/TransformerLinenPure/decoder/moe_layers.wrapped_fn/while/body/closed_call/checkpoint/moe_layers/shard_map/jit(gmm)/jit(_take)/gather" stack_frame_id=0}
  %transpose.667 = s32[263]{0:T(512)} transpose(%gather.208), dimensions={0}, metadata={op_name="jit(train_step)/transpose(jvp(TransformerLinenPure.apply))/TransformerLinenPure/decoder/moe_layers.wrapped_fn/while/body/closed_call/checkpoint/moe_layers/shard_map/jit(gmm)/jit(_take)/gather" stack_frame_id=0}
  ROOT %reshape.3539 = s32[263]{0:T(512)S(1)} reshape(%transpose.667), metadata={op_name="jit(train_step)/transpose(jvp(TransformerLinenPure.apply))/TransformerLinenPure/decoder/moe_layers.wrapped_fn/while/body/closed_call/checkpoint/moe_layers/shard_map/jit(gmm)/jit(_take)/gather" stack_frame_id=0}
}

%fused_computation.16 (param_0.50: s32[256], param_1.134: s32[1024]) -> s32[263] {
  %param_0.50 = s32[256]{0:T(256)S(1)} parameter(0)
  %param_1.134 = s32[1024]{0:T(1024)S(1)} parameter(1)
  %custom-call.39 = s32[1024]{0:T(1024)} custom-call(%param_1.134), custom_call_target="AssumeGatherIndicesInBound", operand_layout_constraints={s32[1024]{0:T(1024)}}, metadata={op_name="jit(train_step)/transpose(jvp(TransformerLinenPure.apply))/TransformerLinenPure/decoder/moe_layers.wrapped_fn/while/body/closed_call/checkpoint/moe_layers/shard_map/jit(tgmm)/jit(_take)/gather" stack_frame_id=0}
  %slice.946 = s32[263]{0:T(512)} slice(%custom-call.39), slice={[0:263]}, metadata={op_name="jit(train_step)/transpose(jvp(TransformerLinenPure.apply))/TransformerLinenPure/decoder/moe_layers.wrapped_fn/while/body/closed_call/checkpoint/moe_layers/shard_map/jit(tgmm)/jit(_take)/gather" stack_frame_id=0}
  %reshape.3563 = s32[263]{0:T(512)} reshape(%slice.946), metadata={op_name="jit(train_step)/transpose(jvp(TransformerLinenPure.apply))/TransformerLinenPure/decoder/moe_layers.wrapped_fn/while/body/closed_call/checkpoint/moe_layers/shard_map/jit(tgmm)/jit(_take)/broadcast_in_dim" stack_frame_id=0}
  %transpose.678 = s32[263]{0:T(512)} transpose(%reshape.3563), dimensions={0}, metadata={op_name="jit(train_step)/transpose(jvp(TransformerLinenPure.apply))/TransformerLinenPure/decoder/moe_layers.wrapped_fn/while/body/closed_call/checkpoint/moe_layers/shard_map/jit(tgmm)/jit(_take)/broadcast_in_dim" stack_frame_id=0}
  %gather.211 = s32[263]{0:T(512)} gather(%param_0.50, %transpose.678), offset_dims={}, collapsed_slice_dims={0}, start_index_map={0}, index_vector_dim=1, slice_sizes={1}, metadata={op_name="jit(train_step)/transpose(jvp(TransformerLinenPure.apply))/TransformerLinenPure/decoder/moe_layers.wrapped_fn/while/body/closed_call/checkpoint/moe_layers/shard_map/jit(tgmm)/jit(_take)/gather" stack_frame_id=0}
  %transpose.677 = s32[263]{0:T(512)} transpose(%gather.211), dimensions={0}, metadata={op_name="jit(train_step)/transpose(jvp(TransformerLinenPure.apply))/TransformerLinenPure/decoder/moe_layers.wrapped_fn/while/body/closed_call/checkpoint/moe_layers/shard_map/jit(tgmm)/jit(_take)/gather" stack_frame_id=0}
  ROOT %reshape.3562 = s32[263]{0:T(512)S(1)} reshape(%transpose.677), metadata={op_name="jit(train_step)/transpose(jvp(TransformerLinenPure.apply))/TransformerLinenPure/decoder/moe_layers.wrapped_fn/while/body/closed_call/checkpoint/moe_layers/shard_map/jit(tgmm)/jit(_take)/gather" stack_frame_id=0}
}

%region_173.198.clone (scatter-add.94: bf16[], scatter-add.96: bf16[]) -> bf16[] {
  %scatter-add.94 = bf16[]{:T(256)} parameter(0), metadata={op_name="jit(train_step)/transpose(jvp(TransformerLinenPure.apply))/TransformerLinenPure/decoder/decoder._apply_embedding/token_embedder/scatter-add"}
  %scatter-add.96 = bf16[]{:T(256)} parameter(1), metadata={op_name="jit(train_step)/transpose(jvp(TransformerLinenPure.apply))/TransformerLinenPure/decoder/decoder._apply_embedding/token_embedder/scatter-add"}
  ROOT %add.1833 = bf16[]{:T(256)} add(%scatter-add.94, %scatter-add.96), metadata={op_name="jit(train_step)/transpose(jvp(TransformerLinenPure.apply))/TransformerLinenPure/decoder/decoder._apply_embedding/token_embedder/add" stack_frame_id=0}, backend_config={"flag_configs":[],"scoped_memory_configs":[],"used_scoped_memory_configs":[],"aliasing_operands":{"lists":[]}}
}

%fused_computation.21 (param_0.55: bf16[129280,512], param_1.65: s32[512], param_2.24: bf16[512,512]) -> bf16[129280,512] {
  %param_0.55 = bf16[129280,512]{1,0:T(8,128)(2,1)} parameter(0)
  %param_1.65 = s32[512]{0:T(512)S(1)} parameter(1)
  %reshape.3617 = s32[4,128]{1,0:T(4,128)} reshape(%param_1.65), metadata={op_name="jit(train_step)/jvp(TransformerLinenPure.apply)/TransformerLinenPure/decoder/decoder._apply_embedding/token_embedder/broadcast_in_dim" stack_frame_id=0}
  %transpose.711 = s32[4,128]{1,0:T(4,128)} transpose(%reshape.3617), dimensions={0,1}, metadata={op_name="jit(train_step)/jvp(TransformerLinenPure.apply)/TransformerLinenPure/decoder/decoder._apply_embedding/token_embedder/broadcast_in_dim" stack_frame_id=0}
  %param_2.24 = bf16[512,512]{1,0:T(8,128)(2,1)S(1)} parameter(2)
  %reshape.3618 = bf16[4,128,512]{2,1,0:T(8,128)(2,1)} reshape(%param_2.24), metadata={op_name="jit(train_step)/transpose(jvp(TransformerLinenPure.apply))/TransformerLinenPure/decoder/dense_layers.wrapped_fn/while" stack_frame_id=0}
  %transpose.712 = bf16[4,128,512]{2,1,0:T(8,128)(2,1)} transpose(%reshape.3618), dimensions={0,1,2}, metadata={op_name="jit(train_step)/transpose(jvp(TransformerLinenPure.apply))/TransformerLinenPure/decoder/dense_layers.wrapped_fn/while" stack_frame_id=0}
  ROOT %scatter.77 = bf16[129280,512]{1,0:T(8,128)(2,1)} scatter(%param_0.55, %transpose.711, %transpose.712), update_window_dims={2}, inserted_window_dims={0}, scatter_dims_to_operand_dims={0}, index_vector_dim=2, to_apply=%region_173.198.clone, metadata={op_name="jit(train_step)/transpose(jvp(TransformerLinenPure.apply))/TransformerLinenPure/decoder/decoder._apply_embedding/token_embedder/scatter-add" stack_frame_id=0}
}

%region_11.17 (top_k.0: bf16[], top_k.6: bf16[], top_k.7: s32[], top_k.8: s32[]) -> pred[] {
  %constant.1320 = s32[]{:T(128)} constant(0)
  %constant.1321 = s32[]{:T(128)} constant(2147483647)
  %top_k.0 = bf16[]{:T(256)} parameter(0), metadata={op_name="top_k"}
  %top_k.6 = bf16[]{:T(256)} parameter(1), metadata={op_name="top_k"}
  %top_k.7 = s32[]{:T(128)} parameter(2), metadata={op_name="top_k"}
  %top_k.8 = s32[]{:T(128)} parameter(3), metadata={op_name="top_k"}
  %convert.263 = f32[]{:T(128)S(6)} convert(%top_k.0), metadata={op_name="convert.16"}, backend_config={"flag_configs":[],"scoped_memory_configs":[],"used_scoped_memory_configs":[],"aliasing_operands":{"lists":[]}}
  %bitcast-convert.35 = s32[]{:T(128)S(6)} bitcast-convert(%convert.263), metadata={op_name="bitcast-convert.6"}, backend_config={"flag_configs":[],"scoped_memory_configs":[],"used_scoped_memory_configs":[],"aliasing_operands":{"lists":[]}}
  %compare.128 = pred[]{:T(512)S(6)} compare(%bitcast-convert.35, %constant.1320), direction=LT, metadata={op_name="compare.35"}, backend_config={"flag_configs":[],"scoped_memory_configs":[],"used_scoped_memory_configs":[],"aliasing_operands":{"lists":[]}}
  %xor.36 = s32[]{:T(128)S(6)} xor(%constant.1321, %bitcast-convert.35), metadata={op_name="xor.6"}, backend_config={"flag_configs":[],"scoped_memory_configs":[],"used_scoped_memory_configs":[],"aliasing_operands":{"lists":[]}}
  %select.118 = s32[]{:T(128)S(6)} select(%compare.128, %xor.36, %bitcast-convert.35), metadata={op_name="select.14"}, backend_config={"flag_configs":[],"scoped_memory_configs":[],"used_scoped_memory_configs":[],"aliasing_operands":{"lists":[{"indices":["1","3"]}]}}
  %convert.264 = f32[]{:T(128)S(6)} convert(%top_k.6), metadata={op_name="convert.17"}, backend_config={"flag_configs":[],"scoped_memory_configs":[],"used_scoped_memory_configs":[],"aliasing_operands":{"lists":[]}}
  %bitcast-convert.36 = s32[]{:T(128)S(6)} bitcast-convert(%convert.264), metadata={op_name="bitcast-convert.7"}, backend_config={"flag_configs":[],"scoped_memory_configs":[],"used_scoped_memory_configs":[],"aliasing_operands":{"lists":[]}}
  %compare.129 = pred[]{:T(512)S(6)} compare(%bitcast-convert.36, %constant.1320), direction=LT, metadata={op_name="compare.36"}, backend_config={"flag_configs":[],"scoped_memory_configs":[],"used_scoped_memory_configs":[],"aliasing_operands":{"lists":[]}}
  %xor.37 = s32[]{:T(128)S(6)} xor(%constant.1321, %bitcast-convert.36), metadata={op_name="xor.7"}, backend_config={"flag_configs":[],"scoped_memory_configs":[],"used_scoped_memory_configs":[],"aliasing_operands":{"lists":[]}}
  %select.119 = s32[]{:T(128)S(6)} select(%compare.129, %xor.37, %bitcast-convert.36), metadata={op_name="select.15"}, backend_config={"flag_configs":[],"scoped_memory_configs":[],"used_scoped_memory_configs":[],"aliasing_operands":{"lists":[{"indices":["1","3"]}]}}
  %compare.130 = pred[]{:T(512)S(6)} compare(%select.118, %select.119), direction=GT, metadata={op_name="compare.1"}, backend_config={"flag_configs":[],"scoped_memory_configs":[],"used_scoped_memory_configs":[],"aliasing_operands":{"lists":[]}}
  %compare.131 = pred[]{:T(512)S(6)} compare(%select.119, %select.118), direction=GT, metadata={op_name="compare.108"}, backend_config={"flag_configs":[],"scoped_memory_configs":[],"used_scoped_memory_configs":[],"aliasing_operands":{"lists":[]}}
  %compare.132 = pred[]{:T(512)S(6)} compare(%compare.130, %compare.131), direction=EQ, metadata={op_name="compare.109"}, backend_config={"flag_configs":[],"scoped_memory_configs":[],"used_scoped_memory_configs":[],"aliasing_operands":{"lists":[]}}
  %compare.133 = pred[]{:T(512)S(6)} compare(%top_k.7, %top_k.8), direction=LT, metadata={op_name="compare.110"}, backend_config={"flag_configs":[],"scoped_memory_configs":[],"used_scoped_memory_configs":[],"aliasing_operands":{"lists":[]}}
  ROOT %select.120 = pred[]{:T(512)} select(%compare.132, %compare.133, %compare.130), metadata={op_name="select.108"}, backend_config={"flag_configs":[],"scoped_memory_configs":[],"used_scoped_memory_configs":[],"aliasing_operands":{"lists":[]}}
}

%region_14.20.clone.1 (reduce-window.326: s32[], reduce-window.327: s32[]) -> s32[] {
  %reduce-window.326 = s32[]{:T(128)} parameter(0), metadata={op_name="reduce-window.20"}
  %reduce-window.327 = s32[]{:T(128)} parameter(1), metadata={op_name="reduce-window.20"}
  ROOT %reduce_window_sum.282 = s32[]{:T(128)} add(%reduce-window.326, %reduce-window.327), metadata={op_name="reduce_window_sum"}, backend_config={"flag_configs":[],"scoped_memory_configs":[],"used_scoped_memory_configs":[],"aliasing_operands":{"lists":[]}}
}

%region_15.21.clone.1 (reduce-window.330: s32[], reduce-window.331: s32[]) -> s32[] {
  %reduce-window.330 = s32[]{:T(128)} parameter(0), metadata={op_name="reduce-window.56"}
  %reduce-window.331 = s32[]{:T(128)} parameter(1), metadata={op_name="reduce-window.56"}
  ROOT %reduce_window_sum.284 = s32[]{:T(128)} add(%reduce-window.330, %reduce-window.331), metadata={op_name="reduce_window_sum"}, backend_config={"flag_configs":[],"scoped_memory_configs":[],"used_scoped_memory_configs":[],"aliasing_operands":{"lists":[]}}
}

%region_17.23.clone.1 (reduce-window.334: s32[], reduce-window.335: s32[]) -> s32[] {
  %reduce-window.334 = s32[]{:T(128)} parameter(0), metadata={op_name="reduce-window.22"}
  %reduce-window.335 = s32[]{:T(128)} parameter(1), metadata={op_name="reduce-window.22"}
  ROOT %reduce_window_sum.286 = s32[]{:T(128)} add(%reduce-window.334, %reduce-window.335), metadata={op_name="reduce_window_sum"}, backend_config={"flag_configs":[],"scoped_memory_configs":[],"used_scoped_memory_configs":[],"aliasing_operands":{"lists":[]}}
}

%region_18.24.clone.1 (reduce-window.338: s32[], reduce-window.339: s32[]) -> s32[] {
  %reduce-window.338 = s32[]{:T(128)} parameter(0), metadata={op_name="reduce-window.57"}
  %reduce-window.339 = s32[]{:T(128)} parameter(1), metadata={op_name="reduce-window.57"}
  ROOT %reduce_window_sum.288 = s32[]{:T(128)} add(%reduce-window.338, %reduce-window.339), metadata={op_name="reduce_window_sum"}, backend_config={"flag_configs":[],"scoped_memory_configs":[],"used_scoped_memory_configs":[],"aliasing_operands":{"lists":[]}}
}

%region_20.26.clone.1 (reduce-window.342: s32[], reduce-window.343: s32[]) -> s32[] {
  %reduce-window.342 = s32[]{:T(128)} parameter(0), metadata={op_name="reduce-window.24"}
  %reduce-window.343 = s32[]{:T(128)} parameter(1), metadata={op_name="reduce-window.24"}
  ROOT %reduce_window_sum.290 = s32[]{:T(128)} add(%reduce-window.342, %reduce-window.343), metadata={op_name="reduce_window_sum"}, backend_config={"flag_configs":[],"scoped_memory_configs":[],"used_scoped_memory_configs":[],"aliasing_operands":{"lists":[]}}
}

%region_21.27.clone.1 (reduce-window.346: s32[], reduce-window.347: s32[]) -> s32[] {
  %reduce-window.346 = s32[]{:T(128)} parameter(0), metadata={op_name="reduce-window.58"}
  %reduce-window.347 = s32[]{:T(128)} parameter(1), metadata={op_name="reduce-window.58"}
  ROOT %reduce_window_sum.292 = s32[]{:T(128)} add(%reduce-window.346, %reduce-window.347), metadata={op_name="reduce_window_sum"}, backend_config={"flag_configs":[],"scoped_memory_configs":[],"used_scoped_memory_configs":[],"aliasing_operands":{"lists":[]}}
}

%fused_computation.4.clone (param_0.68: s32[256], param_1.114: s32[1024]) -> s32[263] {
  %param_0.68 = s32[256]{0:T(256)S(1)} parameter(0)
  %param_1.114 = s32[1024]{0:T(1024)S(1)} parameter(1)
  %custom-call.19 = s32[1024]{0:T(1024)} custom-call(%param_1.114), custom_call_target="AssumeGatherIndicesInBound", operand_layout_constraints={s32[1024]{0:T(1024)}}, metadata={op_name="jit(train_step)/jvp(TransformerLinenPure.apply)/TransformerLinenPure/decoder/moe_layers.wrapped_fn/while/body/closed_call/moe_layers/shard_map/jit(gmm)/jit(_take)/gather" stack_frame_id=0}
  %slice.926 = s32[263]{0:T(512)} slice(%custom-call.19), slice={[0:263]}, metadata={op_name="jit(train_step)/jvp(TransformerLinenPure.apply)/TransformerLinenPure/decoder/moe_layers.wrapped_fn/while/body/closed_call/moe_layers/shard_map/jit(gmm)/jit(_take)/gather" stack_frame_id=0}
  %reshape.3761 = s32[263]{0:T(512)} reshape(%slice.926), metadata={op_name="jit(train_step)/jvp(TransformerLinenPure.apply)/TransformerLinenPure/decoder/moe_layers.wrapped_fn/while/body/closed_call/moe_layers/shard_map/jit(gmm)/jit(_take)/broadcast_in_dim" stack_frame_id=0}
  %transpose.794 = s32[263]{0:T(512)} transpose(%reshape.3761), dimensions={0}, metadata={op_name="jit(train_step)/jvp(TransformerLinenPure.apply)/TransformerLinenPure/decoder/moe_layers.wrapped_fn/while/body/closed_call/moe_layers/shard_map/jit(gmm)/jit(_take)/broadcast_in_dim" stack_frame_id=0}
  %gather.213 = s32[263]{0:T(512)} gather(%param_0.68, %transpose.794), offset_dims={}, collapsed_slice_dims={0}, start_index_map={0}, index_vector_dim=1, slice_sizes={1}, metadata={op_name="jit(train_step)/jvp(TransformerLinenPure.apply)/TransformerLinenPure/decoder/moe_layers.wrapped_fn/while/body/closed_call/moe_layers/shard_map/jit(gmm)/jit(_take)/gather" stack_frame_id=0}
  %transpose.793 = s32[263]{0:T(512)} transpose(%gather.213), dimensions={0}, metadata={op_name="jit(train_step)/jvp(TransformerLinenPure.apply)/TransformerLinenPure/decoder/moe_layers.wrapped_fn/while/body/closed_call/moe_layers/shard_map/jit(gmm)/jit(_take)/gather" stack_frame_id=0}
  ROOT %reshape.3760 = s32[263]{0:T(512)S(1)} reshape(%transpose.793), metadata={op_name="jit(train_step)/jvp(TransformerLinenPure.apply)/TransformerLinenPure/decoder/moe_layers.wrapped_fn/while/body/closed_call/moe_layers/shard_map/jit(gmm)/jit(_take)/gather" stack_frame_id=0}
}

%region_26.33.clone.1 (reduce-window.350: s32[], reduce-window.351: s32[]) -> s32[] {
  %reduce-window.350 = s32[]{:T(128)} parameter(0), metadata={op_name="reduce-window.26"}
  %reduce-window.351 = s32[]{:T(128)} parameter(1), metadata={op_name="reduce-window.26"}
  ROOT %reduce_window_sum.294 = s32[]{:T(128)} add(%reduce-window.350, %reduce-window.351), metadata={op_name="reduce_window_sum"}, backend_config={"flag_configs":[],"scoped_memory_configs":[],"used_scoped_memory_configs":[],"aliasing_operands":{"lists":[]}}
}

%region_28.35.clone.1 (reduce-window.354: s32[], reduce-window.355: s32[]) -> s32[] {
  %reduce-window.354 = s32[]{:T(128)} parameter(0), metadata={op_name="reduce-window.27"}
  %reduce-window.355 = s32[]{:T(128)} parameter(1), metadata={op_name="reduce-window.27"}
  ROOT %reduce_window_sum.296 = s32[]{:T(128)} add(%reduce-window.354, %reduce-window.355), metadata={op_name="reduce_window_sum"}, backend_config={"flag_configs":[],"scoped_memory_configs":[],"used_scoped_memory_configs":[],"aliasing_operands":{"lists":[]}}
}

%region_29.36.clone.1 (reduce-window.358: s32[], reduce-window.359: s32[]) -> s32[] {
  %reduce-window.358 = s32[]{:T(128)} parameter(0), metadata={op_name="reduce-window.59"}
  %reduce-window.359 = s32[]{:T(128)} parameter(1), metadata={op_name="reduce-window.59"}
  ROOT %reduce_window_sum.298 = s32[]{:T(128)} add(%reduce-window.358, %reduce-window.359), metadata={op_name="reduce_window_sum"}, backend_config={"flag_configs":[],"scoped_memory_configs":[],"used_scoped_memory_configs":[],"aliasing_operands":{"lists":[]}}
}

%region_12.18 (sort.44: s32[], sort.45: s32[], sort.46: s32[], sort.47: s32[], sort.48: s32[], sort.49: s32[]) -> pred[] {
  %sort.46 = s32[]{:T(128)} parameter(2), metadata={op_name="jit(argsort)/sort"}
  %sort.47 = s32[]{:T(128)} parameter(3), metadata={op_name="jit(argsort)/sort"}
  %sort.44 = s32[]{:T(128)} parameter(0), metadata={op_name="jit(argsort)/sort"}
  %sort.45 = s32[]{:T(128)} parameter(1), metadata={op_name="jit(argsort)/sort"}
  %sort.48 = s32[]{:T(128)} parameter(4), metadata={op_name="jit(argsort)/sort"}
  %sort.49 = s32[]{:T(128)} parameter(5), metadata={op_name="jit(argsort)/sort"}
  %lt_to.27 = pred[]{:T(512)S(6)} compare(%sort.44, %sort.45), direction=LT, metadata={op_name="lt_to"}, backend_config={"flag_configs":[],"scoped_memory_configs":[],"used_scoped_memory_configs":[],"aliasing_operands":{"lists":[]}}
  %lt_to.28 = pred[]{:T(512)S(6)} compare(%sort.45, %sort.44), direction=LT, metadata={op_name="lt_to"}, backend_config={"flag_configs":[],"scoped_memory_configs":[],"used_scoped_memory_configs":[],"aliasing_operands":{"lists":[]}}
  %compare.134 = pred[]{:T(512)S(6)} compare(%lt_to.27, %lt_to.28), direction=EQ, metadata={op_name="compare.111"}, backend_config={"flag_configs":[],"scoped_memory_configs":[],"used_scoped_memory_configs":[],"aliasing_operands":{"lists":[]}}
  %compare.135 = pred[]{:T(512)S(6)} compare(%sort.48, %sort.49), direction=LT, metadata={op_name="compare.112"}, backend_config={"flag_configs":[],"scoped_memory_configs":[],"used_scoped_memory_configs":[],"aliasing_operands":{"lists":[]}}
  ROOT %select.121 = pred[]{:T(512)} select(%compare.134, %compare.135, %lt_to.27), metadata={op_name="select.109"}, backend_config={"flag_configs":[],"scoped_memory_configs":[],"used_scoped_memory_configs":[],"aliasing_operands":{"lists":[]}}
}

%fused_computation.2.clone (param_0.71: bf16[4096,512], param_1.116: s32[4096]) -> bf16[4096,512] {
  %param_0.71 = bf16[4096,512]{1,0:T(8,128)(2,1)S(1)} parameter(0)
  %param_1.116 = s32[4096]{0:T(1024)S(1)} parameter(1)
  %custom-call.21 = s32[4096]{0:T(1024)} custom-call(%param_1.116), custom_call_target="AssumeGatherIndicesInBound", operand_layout_constraints={s32[4096]{0:T(1024)}}, metadata={op_name="jit(train_step)/jvp(TransformerLinenPure.apply)/TransformerLinenPure/decoder/moe_layers.wrapped_fn/while/body/closed_call/moe_layers/shard_map/sort_activations/gather" stack_frame_id=0}
  %slice.928 = s32[4096]{0:T(1024)} slice(%custom-call.21), slice={[0:4096]}, metadata={op_name="jit(train_step)/jvp(TransformerLinenPure.apply)/TransformerLinenPure/decoder/moe_layers.wrapped_fn/while/body/closed_call/moe_layers/shard_map/sort_activations/gather" stack_frame_id=0}
  %reshape.3784 = s32[4096]{0:T(1024)} reshape(%slice.928), metadata={op_name="jit(train_step)/jvp(TransformerLinenPure.apply)/TransformerLinenPure/decoder/moe_layers.wrapped_fn/while/body/closed_call/moe_layers/shard_map/sort_activations/broadcast_in_dim" stack_frame_id=0}
  %transpose.800 = s32[4096]{0:T(1024)} transpose(%reshape.3784), dimensions={0}, metadata={op_name="jit(train_step)/jvp(TransformerLinenPure.apply)/TransformerLinenPure/decoder/moe_layers.wrapped_fn/while/body/closed_call/moe_layers/shard_map/sort_activations/broadcast_in_dim" stack_frame_id=0}
  %gather.214 = bf16[4096,512]{1,0:T(8,128)(2,1)} gather(%param_0.71, %transpose.800), offset_dims={1}, collapsed_slice_dims={0}, start_index_map={0}, index_vector_dim=1, slice_sizes={1,512}, metadata={op_name="jit(train_step)/jvp(TransformerLinenPure.apply)/TransformerLinenPure/decoder/moe_layers.wrapped_fn/while/body/closed_call/moe_layers/shard_map/sort_activations/gather" stack_frame_id=0}
  %transpose.799 = bf16[4096,512]{1,0:T(8,128)(2,1)} transpose(%gather.214), dimensions={0,1}, metadata={op_name="jit(train_step)/jvp(TransformerLinenPure.apply)/TransformerLinenPure/decoder/moe_layers.wrapped_fn/while/body/closed_call/moe_layers/shard_map/sort_activations/gather" stack_frame_id=0}
  ROOT %reshape.3783 = bf16[4096,512]{1,0:T(8,128)(2,1)S(1)} reshape(%transpose.799), metadata={op_name="jit(train_step)/jvp(TransformerLinenPure.apply)/TransformerLinenPure/decoder/moe_layers.wrapped_fn/while/body/closed_call/moe_layers/shard_map/sort_activations/gather" stack_frame_id=0}
}

%region_30.38 (sort.50: s32[], sort.51: s32[], sort.52: s32[], sort.53: s32[], sort.54: s32[], sort.55: s32[]) -> pred[] {
  %sort.52 = s32[]{:T(128)} parameter(2), metadata={op_name="jit(argsort)/sort"}
  %sort.53 = s32[]{:T(128)} parameter(3), metadata={op_name="jit(argsort)/sort"}
  %sort.50 = s32[]{:T(128)} parameter(0), metadata={op_name="jit(argsort)/sort"}
  %sort.51 = s32[]{:T(128)} parameter(1), metadata={op_name="jit(argsort)/sort"}
  %sort.54 = s32[]{:T(128)} parameter(4), metadata={op_name="jit(argsort)/sort"}
  %sort.55 = s32[]{:T(128)} parameter(5), metadata={op_name="jit(argsort)/sort"}
  %lt_to.30 = pred[]{:T(512)S(6)} compare(%sort.50, %sort.51), direction=LT, metadata={op_name="lt_to"}, backend_config={"flag_configs":[],"scoped_memory_configs":[],"used_scoped_memory_configs":[],"aliasing_operands":{"lists":[]}}
  %lt_to.31 = pred[]{:T(512)S(6)} compare(%sort.51, %sort.50), direction=LT, metadata={op_name="lt_to"}, backend_config={"flag_configs":[],"scoped_memory_configs":[],"used_scoped_memory_configs":[],"aliasing_operands":{"lists":[]}}
  %compare.142 = pred[]{:T(512)S(6)} compare(%lt_to.30, %lt_to.31), direction=EQ, metadata={op_name="compare.113"}, backend_config={"flag_configs":[],"scoped_memory_configs":[],"used_scoped_memory_configs":[],"aliasing_operands":{"lists":[]}}
  %compare.143 = pred[]{:T(512)S(6)} compare(%sort.54, %sort.55), direction=LT, metadata={op_name="compare.114"}, backend_config={"flag_configs":[],"scoped_memory_configs":[],"used_scoped_memory_configs":[],"aliasing_operands":{"lists":[]}}
  ROOT %select.126 = pred[]{:T(512)} select(%compare.142, %compare.143, %lt_to.30), metadata={op_name="select.110"}, backend_config={"flag_configs":[],"scoped_memory_configs":[],"used_scoped_memory_configs":[],"aliasing_operands":{"lists":[]}}
}

%fused_computation.3.clone (param_0.72: bf16[4096,512], param_1.118: s32[4096]) -> bf16[4096,512] {
  %param_0.72 = bf16[4096,512]{1,0:T(8,128)(2,1)S(1)} parameter(0)
  %param_1.118 = s32[4096]{0:T(1024)S(1)} parameter(1)
  %custom-call.23 = s32[4096]{0:T(1024)} custom-call(%param_1.118), custom_call_target="AssumeGatherIndicesInBound", operand_layout_constraints={s32[4096]{0:T(1024)}}, metadata={op_name="jit(train_step)/jvp(TransformerLinenPure.apply)/TransformerLinenPure/decoder/moe_layers.wrapped_fn/while/body/closed_call/moe_layers/shard_map/sort_activations/gather" stack_frame_id=0}
  %slice.930 = s32[4096]{0:T(1024)} slice(%custom-call.23), slice={[0:4096]}, metadata={op_name="jit(train_step)/jvp(TransformerLinenPure.apply)/TransformerLinenPure/decoder/moe_layers.wrapped_fn/while/body/closed_call/moe_layers/shard_map/sort_activations/gather" stack_frame_id=0}
  %reshape.3786 = s32[4096]{0:T(1024)} reshape(%slice.930), metadata={op_name="jit(train_step)/jvp(TransformerLinenPure.apply)/TransformerLinenPure/decoder/moe_layers.wrapped_fn/while/body/closed_call/moe_layers/shard_map/sort_activations/broadcast_in_dim" stack_frame_id=0}
  %transpose.802 = s32[4096]{0:T(1024)} transpose(%reshape.3786), dimensions={0}, metadata={op_name="jit(train_step)/jvp(TransformerLinenPure.apply)/TransformerLinenPure/decoder/moe_layers.wrapped_fn/while/body/closed_call/moe_layers/shard_map/sort_activations/broadcast_in_dim" stack_frame_id=0}
  %gather.215 = bf16[4096,512]{1,0:T(8,128)(2,1)} gather(%param_0.72, %transpose.802), offset_dims={1}, collapsed_slice_dims={0}, start_index_map={0}, index_vector_dim=1, slice_sizes={1,512}, metadata={op_name="jit(train_step)/jvp(TransformerLinenPure.apply)/TransformerLinenPure/decoder/moe_layers.wrapped_fn/while/body/closed_call/moe_layers/shard_map/sort_activations/gather" stack_frame_id=0}
  %transpose.801 = bf16[4096,512]{1,0:T(8,128)(2,1)} transpose(%gather.215), dimensions={0,1}, metadata={op_name="jit(train_step)/jvp(TransformerLinenPure.apply)/TransformerLinenPure/decoder/moe_layers.wrapped_fn/while/body/closed_call/moe_layers/shard_map/sort_activations/gather" stack_frame_id=0}
  ROOT %reshape.3785 = bf16[4096,512]{1,0:T(8,128)(2,1)S(1)} reshape(%transpose.801), metadata={op_name="jit(train_step)/jvp(TransformerLinenPure.apply)/TransformerLinenPure/decoder/moe_layers.wrapped_fn/while/body/closed_call/moe_layers/shard_map/sort_activations/gather" stack_frame_id=0}
}

%compare (name: s32[], name.1: s32[], name.2: bf16[], name.3: bf16[]) -> pred[] {
  %name.2 = bf16[] parameter(2)
  %name.3 = bf16[] parameter(3)
  %name = s32[] parameter(0)
  %name.1 = s32[] parameter(1)
  ROOT %compare.385 = pred[] compare(%name, %name.1), direction=LT, backend_config={"flag_configs":[],"scoped_memory_configs":[],"used_scoped_memory_configs":[],"aliasing_operands":{"lists":[]}}
}

%compare.1 (name.4: s32[], name.5: s32[], name.6: f32[], name.7: f32[]) -> pred[] {
  %name.6 = f32[] parameter(2)
  %name.7 = f32[] parameter(3)
  %name.4 = s32[] parameter(0)
  %name.5 = s32[] parameter(1)
  ROOT %compare.386 = pred[] compare(%name.4, %name.5), direction=LT, backend_config={"flag_configs":[],"scoped_memory_configs":[],"used_scoped_memory_configs":[],"aliasing_operands":{"lists":[]}}
}

%compare.2 (name.8: s32[], name.9: s32[], name.10: f32[], name.11: f32[]) -> pred[] {
  %name.10 = f32[] parameter(2)
  %name.11 = f32[] parameter(3)
  %name.8 = s32[] parameter(0)
  %name.9 = s32[] parameter(1)
  ROOT %compare.387 = pred[] compare(%name.8, %name.9), direction=LT, backend_config={"flag_configs":[],"scoped_memory_configs":[],"used_scoped_memory_configs":[],"aliasing_operands":{"lists":[]}}
}

%compare.3 (name.12: s32[], name.13: s32[], name.14: f32[], name.15: f32[]) -> pred[] {
  %name.14 = f32[] parameter(2)
  %name.15 = f32[] parameter(3)
  %name.12 = s32[] parameter(0)
  %name.13 = s32[] parameter(1)
  ROOT %compare.388 = pred[] compare(%name.12, %name.13), direction=LT, backend_config={"flag_configs":[],"scoped_memory_configs":[],"used_scoped_memory_configs":[],"aliasing_operands":{"lists":[]}}
}

%compare.4 (name.16: s32[], name.17: s32[], name.18: f32[], name.19: f32[]) -> pred[] {
  %name.18 = f32[] parameter(2)
  %name.19 = f32[] parameter(3)
  %name.16 = s32[] parameter(0)
  %name.17 = s32[] parameter(1)
  ROOT %compare.389 = pred[] compare(%name.16, %name.17), direction=LT, backend_config={"flag_configs":[],"scoped_memory_configs":[],"used_scoped_memory_configs":[],"aliasing_operands":{"lists":[]}}
}

%called_computation.13 (param_0.4539: s32[256]) -> s32[256] {
  %param_0.4539 = s32[256]{0:T(256)} parameter(0)
  ROOT %copy.2071 = s32[256]{0:T(256)} copy(%param_0.4539), backend_config={"flag_configs":[],"window_config":{"kernel_window_bounds":[],"output_window_bounds":["16"],"input_window_bounds":[],"estimated_cycles":"1134","iteration_bounds":[],"scratchpad_allocation_size":"256","cost_model_type":"COST_MODEL_TYPE_INVALID","ml_estimated_microseconds":0,"is_mask":false,"pad_output_on_minor_dim":"0","pad_input_on_minor_dim":"0","estimated_vmem_bytes":"0","estimated_bundle_count":"0","estimated_scoped_vmem_bytes":"0"},"loop_config":{"loop_order":[],"unrolled_loops":[{"unroll_dimension":"0","unroll_factor":"16","pipeline_remainder":false,"fully_unroll_if_trip_count_is_at_most":"0"}],"vectorizing_shape":[]},"scoped_memory_configs":[],"compute_type":"COMPUTE_TYPE_TILE","used_scoped_memory_configs":[]}
}, execution_thread="sparsecore"

%async_computation.13 (param_0.4540: s32[256]) -> s32[256] {
  %param_0.4540 = s32[256]{0:T(256)} parameter(0)
  ROOT %copy.2072.cloned.1 = s32[256]{0:T(256)} call(%param_0.4540), to_apply=%called_computation.13
}, execution_thread="sparsecore"

%region_49.59 (scatter-add.14: s32[], scatter-add.15: s32[]) -> s32[] {
  %scatter-add.14 = s32[]{:T(128)S(7)} parameter(0), metadata={op_name="scatter-add"}
  %scatter-add.15 = s32[]{:T(128)S(7)} parameter(1), metadata={op_name="scatter-add"}
  ROOT %add.1318 = s32[]{:T(128)S(7)} add(%scatter-add.14, %scatter-add.15), metadata={op_name="add" stack_frame_id=0}, backend_config={"flag_configs":[],"window_config":{"kernel_window_bounds":[],"output_window_bounds":["128"],"input_window_bounds":[],"estimated_cycles":"1165","iteration_bounds":[],"scratchpad_allocation_size":"520","cost_model_type":"COST_MODEL_TYPE_INVALID","ml_estimated_microseconds":0,"is_mask":false,"pad_output_on_minor_dim":"0","pad_input_on_minor_dim":"0","estimated_vmem_bytes":"0","estimated_bundle_count":"0","estimated_scoped_vmem_bytes":"0"},"loop_config":{"loop_order":[],"unrolled_loops":[{"unroll_dimension":"0","unroll_factor":"4","pipeline_remainder":false,"fully_unroll_if_trip_count_is_at_most":"0"}],"vectorizing_shape":[]},"scoped_memory_configs":[],"used_scoped_memory_configs":[]}
}, execution_thread="sparsecore"

%fused_computation.22.clone.clone (param_0.4541: s32[256], param_1.5324: s32[4096], param_2.4484: s32[4096]) -> s32[256] {
  %param_0.4541 = s32[256]{0:T(256)} parameter(0)
  %param_1.5324 = s32[4096]{0:T(1024)} parameter(1)
  %reshape.4051 = s32[4096]{0:T(1024)} reshape(%param_1.5324), metadata={op_name="jit(train_step)/transpose(jvp(TransformerLinenPure.apply))/TransformerLinenPure/decoder/moe_layers.wrapped_fn/while/body/closed_call/checkpoint/rematted_computation/moe_layers/shard_map/jit(clip)/max" stack_frame_id=0}
  %transpose.857 = s32[4096]{0:T(1024)} transpose(%reshape.4051), dimensions={0}, metadata={op_name="jit(train_step)/transpose(jvp(TransformerLinenPure.apply))/TransformerLinenPure/decoder/moe_layers.wrapped_fn/while/body/closed_call/checkpoint/rematted_computation/moe_layers/shard_map/jit(clip)/max" stack_frame_id=0}
  %param_2.4484 = s32[4096]{0:T(1024)} parameter(2)
  %reshape.4052 = s32[4096]{0:T(1024)} reshape(%param_2.4484), metadata={op_name="jit(train_step)/moe_layers/shard_map/broadcast_in_dim" stack_frame_id=0}
  %transpose.858 = s32[4096]{0:T(1024)} transpose(%reshape.4052), dimensions={0}, metadata={op_name="jit(train_step)/moe_layers/shard_map/broadcast_in_dim" stack_frame_id=0}
  ROOT %scatter-add.237 = s32[256]{0:T(256)} scatter(%param_0.4541, %transpose.857, %transpose.858), update_window_dims={}, inserted_window_dims={0}, scatter_dims_to_operand_dims={0}, index_vector_dim=1, to_apply=%region_49.59, metadata={op_name="jit(train_step)/transpose(jvp(TransformerLinenPure.apply))/TransformerLinenPure/decoder/moe_layers.wrapped_fn/while/body/closed_call/checkpoint/rematted_computation/moe_layers/shard_map/scatter-add" stack_frame_id=0}
}, execution_thread="sparsecore"

%called_computation.14 (param_0.4542: s32[256], param_1.5325: s32[4096], param_2.4485: s32[4096]) -> s32[256] {
  %param_0.4542 = s32[256]{0:T(256)} parameter(0)
  %param_1.5325 = s32[4096]{0:T(1024)} parameter(1)
  %param_2.4485 = s32[4096]{0:T(1024)} parameter(2)
  ROOT %scatter_offload_custom_fusion.39 = s32[256]{0:T(256)} fusion(%param_0.4542, %param_1.5325, %param_2.4485), kind=kCustom, calls=%fused_computation.22.clone.clone, metadata={op_name="jit(train_step)/transpose(jvp(TransformerLinenPure.apply))/TransformerLinenPure/decoder/moe_layers.wrapped_fn/while/body/closed_call/checkpoint/rematted_computation/moe_layers/shard_map/scatter-add" stack_frame_id=0}, backend_config={"flag_configs":[],"window_config":{"kernel_window_bounds":[],"output_window_bounds":["256"],"input_window_bounds":[],"estimated_cycles":"9223372036854775807","iteration_bounds":[],"scratchpad_allocation_size":"4160","cost_model_type":"COST_MODEL_TYPE_INVALID","ml_estimated_microseconds":0,"is_mask":false,"pad_output_on_minor_dim":"0","pad_input_on_minor_dim":"0","estimated_vmem_bytes":"0","estimated_bundle_count":"0","estimated_scoped_vmem_bytes":"0"},"loop_config":{"loop_order":[],"unrolled_loops":[],"vectorizing_shape":[]},"scoped_memory_configs":[],"compute_type":"COMPUTE_TYPE_TILE","used_scoped_memory_configs":[]}
}, execution_thread="sparsecore"

%async_computation.14 (param_0.4543: s32[256], param_1.5326: s32[4096], param_2.4486: s32[4096]) -> s32[256] {
  %param_0.4543 = s32[256]{0:T(256)} parameter(0)
  %param_1.5326 = s32[4096]{0:T(1024)} parameter(1)
  %param_2.4486 = s32[4096]{0:T(1024)} parameter(2)
  ROOT %scatter_offload_custom_fusion.40.cloned.1 = s32[256]{0:T(256)} call(%param_0.4543, %param_1.5326, %param_2.4486), to_apply=%called_computation.14, metadata={op_name="jit(train_step)/transpose(jvp(TransformerLinenPure.apply))/TransformerLinenPure/decoder/moe_layers.wrapped_fn/while/body/closed_call/checkpoint/rematted_computation/moe_layers/shard_map/scatter-add" stack_frame_id=0}
}, execution_thread="sparsecore"

%called_computation (param_0.84: s32[256], param_1.136: s32[4096], param_2.80: s32[4096], param_3.3090: token[]) -> s32[256] {
  %param_3.3090 = token[] parameter(3), backend_config={"flag_configs":[],"scoped_memory_configs":[],"implicit_sharding":{"type":"REPLICATED","tile_assignment_dimensions":[],"tile_assignment_devices":[],"tuple_shardings":[],"replicate_on_last_tile_dim":false,"metadata":[],"last_tile_dims":[],"iota_reshape_dims":[],"iota_transpose_perm":[],"is_shard_group":false,"shard_group_id":"0","shard_group_type":"AS"},"used_scoped_memory_configs":[]}
  %param_0.84 = s32[256]{0:T(256)} parameter(0), backend_config={"flag_configs":[],"scoped_memory_configs":[],"compute_type":"COMPUTE_TYPE_SCALAR","used_scoped_memory_configs":[]}
  %param_1.136 = s32[4096]{0:T(1024)} parameter(1), backend_config={"flag_configs":[],"scoped_memory_configs":[],"compute_type":"COMPUTE_TYPE_SCALAR","used_scoped_memory_configs":[]}
  %param_2.80 = s32[4096]{0:T(1024)} parameter(2), backend_config={"flag_configs":[],"scoped_memory_configs":[],"compute_type":"COMPUTE_TYPE_SCALAR","used_scoped_memory_configs":[]}
  %copy.2072.cloned.1.call-start = ((s32[256]{0:T(256)}), s32[256]{0:T(256)}, u32[]{:S(8)}) async-start(%param_0.84), async_execution_thread="sparsecore", calls=%async_computation.13
  %copy.2072.cloned.1.call-done = s32[256]{0:T(256)} async-done(%copy.2072.cloned.1.call-start)
  %scatter_offload_custom_fusion.40.cloned.1.call-start = ((s32[256]{0:T(256)}, s32[4096]{0:T(1024)}, s32[4096]{0:T(1024)}), s32[256]{0:T(256)}, u32[]{:S(8)}) async-start(%copy.2072.cloned.1.call-done, %param_1.136, %param_2.80), async_execution_thread="sparsecore", calls=%async_computation.14, metadata={op_name="jit(train_step)/transpose(jvp(TransformerLinenPure.apply))/TransformerLinenPure/decoder/moe_layers.wrapped_fn/while/body/closed_call/checkpoint/rematted_computation/moe_layers/shard_map/scatter-add" stack_frame_id=0}
  ROOT %scatter_offload_custom_fusion.40.cloned.1.call-done = s32[256]{0:T(256)} async-done(%scatter_offload_custom_fusion.40.cloned.1.call-start), metadata={op_name="jit(train_step)/transpose(jvp(TransformerLinenPure.apply))/TransformerLinenPure/decoder/moe_layers.wrapped_fn/while/body/closed_call/checkpoint/rematted_computation/moe_layers/shard_map/scatter-add" stack_frame_id=0}
}, execution_thread="sparsecore"

%async_computation (param_0.85: s32[256], param_1.137: s32[4096], param_2.81: s32[4096], param_3.3089: token[]) -> s32[256] {
  %param_3.3089 = token[] parameter(3)
  %param_0.85 = s32[256]{0:T(256)} parameter(0)
  %param_1.137 = s32[4096]{0:T(1024)} parameter(1)
  %param_2.81 = s32[4096]{0:T(1024)} parameter(2)
  ROOT %scatter_offload_custom_fusion.2.cloned.1 = s32[256]{0:T(256)} call(%param_0.85, %param_1.137, %param_2.81, %param_3.3089), to_apply=%called_computation, metadata={op_name="jit(train_step)/transpose(jvp(TransformerLinenPure.apply))/TransformerLinenPure/decoder/moe_layers.wrapped_fn/while/body/closed_call/checkpoint/rematted_computation/moe_layers/shard_map/scatter-add" stack_frame_id=0}
}, execution_thread="sparsecore"

%called_computation.15 (param_0.4544: f32[9]) -> f32[9] {
  %param_0.4544 = f32[9]{0:T(128)} parameter(0)
  ROOT %copy.2073 = f32[9]{0:T(128)} copy(%param_0.4544), backend_config={"flag_configs":[],"window_config":{"kernel_window_bounds":[],"output_window_bounds":["8"],"input_window_bounds":[],"estimated_cycles":"1131","iteration_bounds":[],"scratchpad_allocation_size":"128","cost_model_type":"COST_MODEL_TYPE_INVALID","ml_estimated_microseconds":0,"is_mask":false,"pad_output_on_minor_dim":"0","pad_input_on_minor_dim":"0","estimated_vmem_bytes":"0","estimated_bundle_count":"0","estimated_scoped_vmem_bytes":"0"},"loop_config":{"loop_order":[],"unrolled_loops":[{"unroll_dimension":"0","unroll_factor":"16","pipeline_remainder":false,"fully_unroll_if_trip_count_is_at_most":"0"}],"vectorizing_shape":[]},"scoped_memory_configs":[],"compute_type":"COMPUTE_TYPE_TILE","used_scoped_memory_configs":[]}
}, execution_thread="sparsecore"

%async_computation.15 (param_0.4545: f32[9]) -> f32[9] {
  %param_0.4545 = f32[9]{0:T(128)} parameter(0)
  ROOT %copy.2074.cloned.1 = f32[9]{0:T(128)} call(%param_0.4545), to_apply=%called_computation.15
}, execution_thread="sparsecore"

%region_61.72 (scatter-add.24: f32[], scatter-add.25: f32[]) -> f32[] {
  %scatter-add.24 = f32[]{:T(128)S(7)} parameter(0), metadata={op_name="scatter-add"}
  %scatter-add.25 = f32[]{:T(128)S(7)} parameter(1), metadata={op_name="scatter-add"}
  ROOT %add.1324 = f32[]{:T(128)S(7)} add(%scatter-add.24, %scatter-add.25), metadata={op_name="add" stack_frame_id=0}, backend_config={"flag_configs":[],"window_config":{"kernel_window_bounds":[],"output_window_bounds":["128"],"input_window_bounds":[],"estimated_cycles":"1165","iteration_bounds":[],"scratchpad_allocation_size":"520","cost_model_type":"COST_MODEL_TYPE_INVALID","ml_estimated_microseconds":0,"is_mask":false,"pad_output_on_minor_dim":"0","pad_input_on_minor_dim":"0","estimated_vmem_bytes":"0","estimated_bundle_count":"0","estimated_scoped_vmem_bytes":"0"},"loop_config":{"loop_order":[],"unrolled_loops":[{"unroll_dimension":"0","unroll_factor":"4","pipeline_remainder":false,"fully_unroll_if_trip_count_is_at_most":"0"}],"vectorizing_shape":[]},"scoped_memory_configs":[],"used_scoped_memory_configs":[]}
}, execution_thread="sparsecore"

%fused_computation.24.clone.clone (param_0.4546: f32[9], param_1.5327: s32[256], param_2.4487: f32[256]) -> f32[9] {
  %param_0.4546 = f32[9]{0:T(128)} parameter(0)
  %param_1.5327 = s32[256]{0:T(256)} parameter(1)
  %reshape.4053 = s32[256]{0:T(256)} reshape(%param_1.5327), metadata={op_name="jit(train_step)/transpose(jvp(TransformerLinenPure.apply))/TransformerLinenPure/decoder/moe_layers.wrapped_fn/while/body/closed_call/checkpoint/rematted_computation/moe_layers/shard_map/jit(gmm)/broadcast_in_dim" stack_frame_id=0}
  %transpose.859 = s32[256]{0:T(256)} transpose(%reshape.4053), dimensions={0}, metadata={op_name="jit(train_step)/transpose(jvp(TransformerLinenPure.apply))/TransformerLinenPure/decoder/moe_layers.wrapped_fn/while/body/closed_call/checkpoint/rematted_computation/moe_layers/shard_map/jit(gmm)/broadcast_in_dim" stack_frame_id=0}
  %param_2.4487 = f32[256]{0:T(256)} parameter(2)
  %reshape.4054 = f32[256]{0:T(256)} reshape(%param_2.4487), metadata={op_name="jit(train_step)/moe_layers/shard_map/jit(gmm)/broadcast_in_dim" stack_frame_id=0}
  %transpose.860 = f32[256]{0:T(256)} transpose(%reshape.4054), dimensions={0}, metadata={op_name="jit(train_step)/moe_layers/shard_map/jit(gmm)/broadcast_in_dim" stack_frame_id=0}
  ROOT %scatter-add.238 = f32[9]{0:T(128)} scatter(%param_0.4546, %transpose.859, %transpose.860), update_window_dims={}, inserted_window_dims={0}, scatter_dims_to_operand_dims={0}, index_vector_dim=1, indices_are_sorted=true, to_apply=%region_61.72, metadata={op_name="jit(train_step)/transpose(jvp(TransformerLinenPure.apply))/TransformerLinenPure/decoder/moe_layers.wrapped_fn/while/body/closed_call/checkpoint/rematted_computation/moe_layers/shard_map/jit(gmm)/scatter-add" stack_frame_id=0}
}, execution_thread="sparsecore"

%called_computation.16 (param_0.4547: f32[9], param_1.5328: s32[256], param_2.4488: f32[256]) -> f32[9] {
  %param_0.4547 = f32[9]{0:T(128)} parameter(0)
  %param_1.5328 = s32[256]{0:T(256)} parameter(1)
  %param_2.4488 = f32[256]{0:T(256)} parameter(2)
  ROOT %scatter_offload_custom_fusion.41 = f32[9]{0:T(128)} fusion(%param_0.4547, %param_1.5328, %param_2.4488), kind=kCustom, calls=%fused_computation.24.clone.clone, metadata={op_name="jit(train_step)/transpose(jvp(TransformerLinenPure.apply))/TransformerLinenPure/decoder/moe_layers.wrapped_fn/while/body/closed_call/checkpoint/rematted_computation/moe_layers/shard_map/jit(gmm)/scatter-add" stack_frame_id=0}, backend_config={"flag_configs":[],"window_config":{"kernel_window_bounds":[],"output_window_bounds":["16"],"input_window_bounds":[],"estimated_cycles":"9223372036854775807","iteration_bounds":[],"scratchpad_allocation_size":"1312","cost_model_type":"COST_MODEL_TYPE_INVALID","ml_estimated_microseconds":0,"is_mask":false,"pad_output_on_minor_dim":"0","pad_input_on_minor_dim":"0","estimated_vmem_bytes":"0","estimated_bundle_count":"0","estimated_scoped_vmem_bytes":"0"},"loop_config":{"loop_order":[],"unrolled_loops":[],"vectorizing_shape":[]},"scoped_memory_configs":[],"compute_type":"COMPUTE_TYPE_TILE","used_scoped_memory_configs":[]}
}, execution_thread="sparsecore"

%async_computation.16 (param_0.4548: f32[9], param_1.5329: s32[256], param_2.4489: f32[256]) -> f32[9] {
  %param_0.4548 = f32[9]{0:T(128)} parameter(0)
  %param_1.5329 = s32[256]{0:T(256)} parameter(1)
  %param_2.4489 = f32[256]{0:T(256)} parameter(2)
  ROOT %scatter_offload_custom_fusion.42.cloned.1 = f32[9]{0:T(128)} call(%param_0.4548, %param_1.5329, %param_2.4489), to_apply=%called_computation.16, metadata={op_name="jit(train_step)/transpose(jvp(TransformerLinenPure.apply))/TransformerLinenPure/decoder/moe_layers.wrapped_fn/while/body/closed_call/checkpoint/rematted_computation/moe_layers/shard_map/jit(gmm)/scatter-add" stack_frame_id=0}
}, execution_thread="sparsecore"

%called_computation.1 (param_0.87: f32[9], param_1.139: s32[256], param_2.83: f32[256], param_3.3104: token[]) -> f32[9] {
  %param_3.3104 = token[] parameter(3), backend_config={"flag_configs":[],"scoped_memory_configs":[],"implicit_sharding":{"type":"REPLICATED","tile_assignment_dimensions":[],"tile_assignment_devices":[],"tuple_shardings":[],"replicate_on_last_tile_dim":false,"metadata":[],"last_tile_dims":[],"iota_reshape_dims":[],"iota_transpose_perm":[],"is_shard_group":false,"shard_group_id":"0","shard_group_type":"AS"},"used_scoped_memory_configs":[]}
  %param_0.87 = f32[9]{0:T(128)} parameter(0), backend_config={"flag_configs":[],"scoped_memory_configs":[],"compute_type":"COMPUTE_TYPE_SCALAR","used_scoped_memory_configs":[]}
  %param_1.139 = s32[256]{0:T(256)} parameter(1), backend_config={"flag_configs":[],"scoped_memory_configs":[],"compute_type":"COMPUTE_TYPE_SCALAR","used_scoped_memory_configs":[]}
  %param_2.83 = f32[256]{0:T(256)} parameter(2), backend_config={"flag_configs":[],"scoped_memory_configs":[],"compute_type":"COMPUTE_TYPE_SCALAR","used_scoped_memory_configs":[]}
  %copy.2074.cloned.1.call-start = ((f32[9]{0:T(128)}), f32[9]{0:T(128)}, u32[]{:S(8)}) async-start(%param_0.87), async_execution_thread="sparsecore", calls=%async_computation.15
  %copy.2074.cloned.1.call-done = f32[9]{0:T(128)} async-done(%copy.2074.cloned.1.call-start)
  %scatter_offload_custom_fusion.42.cloned.1.call-start = ((f32[9]{0:T(128)}, s32[256]{0:T(256)}, f32[256]{0:T(256)}), f32[9]{0:T(128)}, u32[]{:S(8)}) async-start(%copy.2074.cloned.1.call-done, %param_1.139, %param_2.83), async_execution_thread="sparsecore", calls=%async_computation.16, metadata={op_name="jit(train_step)/transpose(jvp(TransformerLinenPure.apply))/TransformerLinenPure/decoder/moe_layers.wrapped_fn/while/body/closed_call/checkpoint/rematted_computation/moe_layers/shard_map/jit(gmm)/scatter-add" stack_frame_id=0}
  ROOT %scatter_offload_custom_fusion.42.cloned.1.call-done = f32[9]{0:T(128)} async-done(%scatter_offload_custom_fusion.42.cloned.1.call-start), metadata={op_name="jit(train_step)/transpose(jvp(TransformerLinenPure.apply))/TransformerLinenPure/decoder/moe_layers.wrapped_fn/while/body/closed_call/checkpoint/rematted_computation/moe_layers/shard_map/jit(gmm)/scatter-add" stack_frame_id=0}
}, execution_thread="sparsecore"

%async_computation.1 (param_0.88: f32[9], param_1.140: s32[256], param_2.84: f32[256], param_3.3103: token[]) -> f32[9] {
  %param_3.3103 = token[] parameter(3)
  %param_0.88 = f32[9]{0:T(128)} parameter(0)
  %param_1.140 = s32[256]{0:T(256)} parameter(1)
  %param_2.84 = f32[256]{0:T(256)} parameter(2)
  ROOT %scatter_offload_custom_fusion.5.cloned.1 = f32[9]{0:T(128)} call(%param_0.88, %param_1.140, %param_2.84, %param_3.3103), to_apply=%called_computation.1, metadata={op_name="jit(train_step)/transpose(jvp(TransformerLinenPure.apply))/TransformerLinenPure/decoder/moe_layers.wrapped_fn/while/body/closed_call/checkpoint/rematted_computation/moe_layers/shard_map/jit(gmm)/scatter-add" stack_frame_id=0}
}, execution_thread="sparsecore"

%called_computation.17 (param_0.4549: s32[263]) -> s32[263] {
  %param_0.4549 = s32[263]{0:T(512)} parameter(0)
  ROOT %copy.2075 = s32[263]{0:T(512)} copy(%param_0.4549), backend_config={"flag_configs":[],"window_config":{"kernel_window_bounds":[],"output_window_bounds":["32"],"input_window_bounds":[],"estimated_cycles":"1141","iteration_bounds":[],"scratchpad_allocation_size":"512","cost_model_type":"COST_MODEL_TYPE_INVALID","ml_estimated_microseconds":0,"is_mask":false,"pad_output_on_minor_dim":"0","pad_input_on_minor_dim":"0","estimated_vmem_bytes":"0","estimated_bundle_count":"0","estimated_scoped_vmem_bytes":"0"},"loop_config":{"loop_order":[],"unrolled_loops":[{"unroll_dimension":"0","unroll_factor":"16","pipeline_remainder":false,"fully_unroll_if_trip_count_is_at_most":"0"}],"vectorizing_shape":[]},"scoped_memory_configs":[],"compute_type":"COMPUTE_TYPE_TILE","used_scoped_memory_configs":[]}
}, execution_thread="sparsecore"

%async_computation.17 (param_0.4550: s32[263]) -> s32[263] {
  %param_0.4550 = s32[263]{0:T(512)} parameter(0)
  ROOT %copy.2076.cloned.1 = s32[263]{0:T(512)} call(%param_0.4550), to_apply=%called_computation.17
}, execution_thread="sparsecore"

%region_63.74 (scatter-add.28: s32[], scatter-add.29: s32[]) -> s32[] {
  %scatter-add.28 = s32[]{:T(128)S(7)} parameter(0), metadata={op_name="scatter-add"}
  %scatter-add.29 = s32[]{:T(128)S(7)} parameter(1), metadata={op_name="scatter-add"}
  ROOT %add.1325 = s32[]{:T(128)S(7)} add(%scatter-add.28, %scatter-add.29), metadata={op_name="add" stack_frame_id=0}, backend_config={"flag_configs":[],"window_config":{"kernel_window_bounds":[],"output_window_bounds":["128"],"input_window_bounds":[],"estimated_cycles":"1165","iteration_bounds":[],"scratchpad_allocation_size":"520","cost_model_type":"COST_MODEL_TYPE_INVALID","ml_estimated_microseconds":0,"is_mask":false,"pad_output_on_minor_dim":"0","pad_input_on_minor_dim":"0","estimated_vmem_bytes":"0","estimated_bundle_count":"0","estimated_scoped_vmem_bytes":"0"},"loop_config":{"loop_order":[],"unrolled_loops":[{"unroll_dimension":"0","unroll_factor":"4","pipeline_remainder":false,"fully_unroll_if_trip_count_is_at_most":"0"}],"vectorizing_shape":[]},"scoped_memory_configs":[],"used_scoped_memory_configs":[]}
}, execution_thread="sparsecore"

%fused_computation.25.clone.clone (param_0.4551: s32[263], param_1.5330: s32[8], param_2.4490: s32[8]) -> s32[263] {
  %param_0.4551 = s32[263]{0:T(512)} parameter(0)
  %param_1.5330 = s32[8]{0:T(128)} parameter(1)
  %reshape.4055 = s32[8]{0:T(128)} reshape(%param_1.5330), metadata={op_name="jit(train_step)/transpose(jvp(TransformerLinenPure.apply))/TransformerLinenPure/decoder/moe_layers.wrapped_fn/while/body/closed_call/checkpoint/rematted_computation/moe_layers/shard_map/jit(gmm)/select_n" stack_frame_id=0}
  %transpose.861 = s32[8]{0:T(128)} transpose(%reshape.4055), dimensions={0}, metadata={op_name="jit(train_step)/transpose(jvp(TransformerLinenPure.apply))/TransformerLinenPure/decoder/moe_layers.wrapped_fn/while/body/closed_call/checkpoint/rematted_computation/moe_layers/shard_map/jit(gmm)/select_n" stack_frame_id=0}
  %param_2.4490 = s32[8]{0:T(128)} parameter(2)
  %reshape.4056 = s32[8]{0:T(128)} reshape(%param_2.4490), metadata={op_name="jit(train_step)/moe_layers/shard_map/jit(gmm)/broadcast.80" stack_frame_id=0}
  %transpose.862 = s32[8]{0:T(128)} transpose(%reshape.4056), dimensions={0}, metadata={op_name="jit(train_step)/moe_layers/shard_map/jit(gmm)/broadcast.80" stack_frame_id=0}
  ROOT %scatter-add.239 = s32[263]{0:T(512)} scatter(%param_0.4551, %transpose.861, %transpose.862), update_window_dims={}, inserted_window_dims={0}, scatter_dims_to_operand_dims={0}, index_vector_dim=1, to_apply=%region_63.74, metadata={op_name="jit(train_step)/transpose(jvp(TransformerLinenPure.apply))/TransformerLinenPure/decoder/moe_layers.wrapped_fn/while/body/closed_call/checkpoint/rematted_computation/moe_layers/shard_map/jit(gmm)/scatter-add" stack_frame_id=0}
}, execution_thread="sparsecore"

%called_computation.18 (param_0.4552: s32[263], param_1.5331: s32[8], param_2.4491: s32[8]) -> s32[263] {
  %param_0.4552 = s32[263]{0:T(512)} parameter(0)
  %param_1.5331 = s32[8]{0:T(128)} parameter(1)
  %param_2.4491 = s32[8]{0:T(128)} parameter(2)
  ROOT %scatter_offload_custom_fusion.43 = s32[263]{0:T(512)} fusion(%param_0.4552, %param_1.5331, %param_2.4491), kind=kCustom, calls=%fused_computation.25.clone.clone, metadata={op_name="jit(train_step)/transpose(jvp(TransformerLinenPure.apply))/TransformerLinenPure/decoder/moe_layers.wrapped_fn/while/body/closed_call/checkpoint/rematted_computation/moe_layers/shard_map/jit(gmm)/scatter-add" stack_frame_id=0}, backend_config={"flag_configs":[],"window_config":{"kernel_window_bounds":[],"output_window_bounds":["8"],"input_window_bounds":[],"estimated_cycles":"9223372036854775807","iteration_bounds":[],"scratchpad_allocation_size":"256","cost_model_type":"COST_MODEL_TYPE_INVALID","ml_estimated_microseconds":0,"is_mask":false,"pad_output_on_minor_dim":"0","pad_input_on_minor_dim":"0","estimated_vmem_bytes":"0","estimated_bundle_count":"0","estimated_scoped_vmem_bytes":"0"},"loop_config":{"loop_order":[],"unrolled_loops":[],"vectorizing_shape":[]},"scoped_memory_configs":[],"compute_type":"COMPUTE_TYPE_TILE","used_scoped_memory_configs":[]}
}, execution_thread="sparsecore"

%async_computation.18 (param_0.4553: s32[263], param_1.5332: s32[8], param_2.4492: s32[8]) -> s32[263] {
  %param_0.4553 = s32[263]{0:T(512)} parameter(0)
  %param_1.5332 = s32[8]{0:T(128)} parameter(1)
  %param_2.4492 = s32[8]{0:T(128)} parameter(2)
  ROOT %scatter_offload_custom_fusion.44.cloned.1 = s32[263]{0:T(512)} call(%param_0.4553, %param_1.5332, %param_2.4492), to_apply=%called_computation.18, metadata={op_name="jit(train_step)/transpose(jvp(TransformerLinenPure.apply))/TransformerLinenPure/decoder/moe_layers.wrapped_fn/while/body/closed_call/checkpoint/rematted_computation/moe_layers/shard_map/jit(gmm)/scatter-add" stack_frame_id=0}
}, execution_thread="sparsecore"

%called_computation.2 (param_0.90: s32[263], param_1.142: s32[8], param_2.86: s32[8], param_3.3110: token[]) -> s32[263] {
  %param_3.3110 = token[] parameter(3), backend_config={"flag_configs":[],"scoped_memory_configs":[],"implicit_sharding":{"type":"REPLICATED","tile_assignment_dimensions":[],"tile_assignment_devices":[],"tuple_shardings":[],"replicate_on_last_tile_dim":false,"metadata":[],"last_tile_dims":[],"iota_reshape_dims":[],"iota_transpose_perm":[],"is_shard_group":false,"shard_group_id":"0","shard_group_type":"AS"},"used_scoped_memory_configs":[]}
  %param_0.90 = s32[263]{0:T(512)} parameter(0), backend_config={"flag_configs":[],"scoped_memory_configs":[],"compute_type":"COMPUTE_TYPE_SCALAR","used_scoped_memory_configs":[]}
  %param_1.142 = s32[8]{0:T(128)} parameter(1), backend_config={"flag_configs":[],"scoped_memory_configs":[],"compute_type":"COMPUTE_TYPE_SCALAR","used_scoped_memory_configs":[]}
  %param_2.86 = s32[8]{0:T(128)} parameter(2), backend_config={"flag_configs":[],"scoped_memory_configs":[],"compute_type":"COMPUTE_TYPE_SCALAR","used_scoped_memory_configs":[]}
  %copy.2076.cloned.1.call-start = ((s32[263]{0:T(512)}), s32[263]{0:T(512)}, u32[]{:S(8)}) async-start(%param_0.90), async_execution_thread="sparsecore", calls=%async_computation.17
  %copy.2076.cloned.1.call-done = s32[263]{0:T(512)} async-done(%copy.2076.cloned.1.call-start)
  %scatter_offload_custom_fusion.44.cloned.1.call-start = ((s32[263]{0:T(512)}, s32[8]{0:T(128)}, s32[8]{0:T(128)}), s32[263]{0:T(512)}, u32[]{:S(8)}) async-start(%copy.2076.cloned.1.call-done, %param_1.142, %param_2.86), async_execution_thread="sparsecore", calls=%async_computation.18, metadata={op_name="jit(train_step)/transpose(jvp(TransformerLinenPure.apply))/TransformerLinenPure/decoder/moe_layers.wrapped_fn/while/body/closed_call/checkpoint/rematted_computation/moe_layers/shard_map/jit(gmm)/scatter-add" stack_frame_id=0}
  ROOT %scatter_offload_custom_fusion.44.cloned.1.call-done = s32[263]{0:T(512)} async-done(%scatter_offload_custom_fusion.44.cloned.1.call-start), metadata={op_name="jit(train_step)/transpose(jvp(TransformerLinenPure.apply))/TransformerLinenPure/decoder/moe_layers.wrapped_fn/while/body/closed_call/checkpoint/rematted_computation/moe_layers/shard_map/jit(gmm)/scatter-add" stack_frame_id=0}
}, execution_thread="sparsecore"

%async_computation.2 (param_0.91: s32[263], param_1.143: s32[8], param_2.87: s32[8], param_3.3109: token[]) -> s32[263] {
  %param_3.3109 = token[] parameter(3)
  %param_0.91 = s32[263]{0:T(512)} parameter(0)
  %param_1.143 = s32[8]{0:T(128)} parameter(1)
  %param_2.87 = s32[8]{0:T(128)} parameter(2)
  ROOT %scatter_offload_custom_fusion.8.cloned.1 = s32[263]{0:T(512)} call(%param_0.91, %param_1.143, %param_2.87, %param_3.3109), to_apply=%called_computation.2, metadata={op_name="jit(train_step)/transpose(jvp(TransformerLinenPure.apply))/TransformerLinenPure/decoder/moe_layers.wrapped_fn/while/body/closed_call/checkpoint/rematted_computation/moe_layers/shard_map/jit(gmm)/scatter-add" stack_frame_id=0}
}, execution_thread="sparsecore"

%called_computation.19 (param_0.4554: s32[263]) -> s32[263] {
  %param_0.4554 = s32[263]{0:T(512)} parameter(0)
  ROOT %copy.2077 = s32[263]{0:T(512)} copy(%param_0.4554), backend_config={"flag_configs":[],"window_config":{"kernel_window_bounds":[],"output_window_bounds":["32"],"input_window_bounds":[],"estimated_cycles":"1141","iteration_bounds":[],"scratchpad_allocation_size":"512","cost_model_type":"COST_MODEL_TYPE_INVALID","ml_estimated_microseconds":0,"is_mask":false,"pad_output_on_minor_dim":"0","pad_input_on_minor_dim":"0","estimated_vmem_bytes":"0","estimated_bundle_count":"0","estimated_scoped_vmem_bytes":"0"},"loop_config":{"loop_order":[],"unrolled_loops":[{"unroll_dimension":"0","unroll_factor":"16","pipeline_remainder":false,"fully_unroll_if_trip_count_is_at_most":"0"}],"vectorizing_shape":[]},"scoped_memory_configs":[],"compute_type":"COMPUTE_TYPE_TILE","used_scoped_memory_configs":[]}
}, execution_thread="sparsecore"

%async_computation.19 (param_0.4555: s32[263]) -> s32[263] {
  %param_0.4555 = s32[263]{0:T(512)} parameter(0)
  ROOT %copy.2078.cloned.1 = s32[263]{0:T(512)} call(%param_0.4555), to_apply=%called_computation.19
}, execution_thread="sparsecore"

%region_73.86.clone (scatter-add.163: s32[], scatter-add.164: s32[]) -> s32[] {
  %scatter-add.163 = s32[]{:T(128)S(7)} parameter(0), metadata={op_name="scatter-add"}
  %scatter-add.164 = s32[]{:T(128)S(7)} parameter(1), metadata={op_name="scatter-add"}
  ROOT %add.2432 = s32[]{:T(128)S(7)} add(%scatter-add.163, %scatter-add.164), metadata={op_name="add" stack_frame_id=0}, backend_config={"flag_configs":[],"window_config":{"kernel_window_bounds":[],"output_window_bounds":["128"],"input_window_bounds":[],"estimated_cycles":"1165","iteration_bounds":[],"scratchpad_allocation_size":"520","cost_model_type":"COST_MODEL_TYPE_INVALID","ml_estimated_microseconds":0,"is_mask":false,"pad_output_on_minor_dim":"0","pad_input_on_minor_dim":"0","estimated_vmem_bytes":"0","estimated_bundle_count":"0","estimated_scoped_vmem_bytes":"0"},"loop_config":{"loop_order":[],"unrolled_loops":[{"unroll_dimension":"0","unroll_factor":"4","pipeline_remainder":false,"fully_unroll_if_trip_count_is_at_most":"0"}],"vectorizing_shape":[]},"scoped_memory_configs":[],"used_scoped_memory_configs":[]}
}, execution_thread="sparsecore"

%fused_computation.26.clone.clone (param_0.4556: s32[263], param_1.5333: s32[256], param_2.4493: s32[256]) -> s32[263] {
  %param_0.4556 = s32[263]{0:T(512)} parameter(0)
  %param_1.5333 = s32[256]{0:T(256)} parameter(1)
  %reshape.4057 = s32[256]{0:T(256)} reshape(%param_1.5333), metadata={op_name="jit(train_step)/transpose(jvp(TransformerLinenPure.apply))/TransformerLinenPure/decoder/moe_layers.wrapped_fn/while/body/closed_call/checkpoint/moe_layers/shard_map/jit(gmm)/select_n" stack_frame_id=0}
  %transpose.863 = s32[256]{0:T(256)} transpose(%reshape.4057), dimensions={0}, metadata={op_name="jit(train_step)/transpose(jvp(TransformerLinenPure.apply))/TransformerLinenPure/decoder/moe_layers.wrapped_fn/while/body/closed_call/checkpoint/moe_layers/shard_map/jit(gmm)/select_n" stack_frame_id=0}
  %param_2.4493 = s32[256]{0:T(256)} parameter(2)
  %reshape.4058 = s32[256]{0:T(256)} reshape(%param_2.4493), metadata={op_name="jit(train_step)/moe_layers/shard_map/jit(gmm)/broadcast_in_dim" stack_frame_id=0}
  %transpose.864 = s32[256]{0:T(256)} transpose(%reshape.4058), dimensions={0}, metadata={op_name="jit(train_step)/moe_layers/shard_map/jit(gmm)/broadcast_in_dim" stack_frame_id=0}
  ROOT %scatter-add.240 = s32[263]{0:T(512)} scatter(%param_0.4556, %transpose.863, %transpose.864), update_window_dims={}, inserted_window_dims={0}, scatter_dims_to_operand_dims={0}, index_vector_dim=1, to_apply=%region_73.86.clone, metadata={op_name="jit(train_step)/transpose(jvp(TransformerLinenPure.apply))/TransformerLinenPure/decoder/moe_layers.wrapped_fn/while/body/closed_call/checkpoint/moe_layers/shard_map/jit(gmm)/scatter-add" stack_frame_id=0}
}, execution_thread="sparsecore"

%called_computation.20 (param_0.4557: s32[263], param_1.5334: s32[256], param_2.4494: s32[256]) -> s32[263] {
  %param_0.4557 = s32[263]{0:T(512)} parameter(0)
  %param_1.5334 = s32[256]{0:T(256)} parameter(1)
  %param_2.4494 = s32[256]{0:T(256)} parameter(2)
  ROOT %scatter_offload_custom_fusion.45 = s32[263]{0:T(512)} fusion(%param_0.4557, %param_1.5334, %param_2.4494), kind=kCustom, calls=%fused_computation.26.clone.clone, metadata={op_name="jit(train_step)/transpose(jvp(TransformerLinenPure.apply))/TransformerLinenPure/decoder/moe_layers.wrapped_fn/while/body/closed_call/checkpoint/moe_layers/shard_map/jit(gmm)/scatter-add" stack_frame_id=0}, backend_config={"flag_configs":[],"window_config":{"kernel_window_bounds":[],"output_window_bounds":["16"],"input_window_bounds":[],"estimated_cycles":"9223372036854775807","iteration_bounds":[],"scratchpad_allocation_size":"384","cost_model_type":"COST_MODEL_TYPE_INVALID","ml_estimated_microseconds":0,"is_mask":false,"pad_output_on_minor_dim":"0","pad_input_on_minor_dim":"0","estimated_vmem_bytes":"0","estimated_bundle_count":"0","estimated_scoped_vmem_bytes":"0"},"loop_config":{"loop_order":[],"unrolled_loops":[],"vectorizing_shape":[]},"scoped_memory_configs":[],"compute_type":"COMPUTE_TYPE_TILE","used_scoped_memory_configs":[]}
}, execution_thread="sparsecore"

%async_computation.20 (param_0.4558: s32[263], param_1.5335: s32[256], param_2.4495: s32[256]) -> s32[263] {
  %param_0.4558 = s32[263]{0:T(512)} parameter(0)
  %param_1.5335 = s32[256]{0:T(256)} parameter(1)
  %param_2.4495 = s32[256]{0:T(256)} parameter(2)
  ROOT %scatter_offload_custom_fusion.46.cloned.1 = s32[263]{0:T(512)} call(%param_0.4558, %param_1.5335, %param_2.4495), to_apply=%called_computation.20, metadata={op_name="jit(train_step)/transpose(jvp(TransformerLinenPure.apply))/TransformerLinenPure/decoder/moe_layers.wrapped_fn/while/body/closed_call/checkpoint/moe_layers/shard_map/jit(gmm)/scatter-add" stack_frame_id=0}
}, execution_thread="sparsecore"

%called_computation.3 (param_0.93: s32[263], param_1.145: s32[256], param_2.89: s32[256], param_3.3096: token[]) -> s32[263] {
  %param_3.3096 = token[] parameter(3), backend_config={"flag_configs":[],"scoped_memory_configs":[],"implicit_sharding":{"type":"REPLICATED","tile_assignment_dimensions":[],"tile_assignment_devices":[],"tuple_shardings":[],"replicate_on_last_tile_dim":false,"metadata":[],"last_tile_dims":[],"iota_reshape_dims":[],"iota_transpose_perm":[],"is_shard_group":false,"shard_group_id":"0","shard_group_type":"AS"},"used_scoped_memory_configs":[]}
  %param_0.93 = s32[263]{0:T(512)} parameter(0), backend_config={"flag_configs":[],"scoped_memory_configs":[],"compute_type":"COMPUTE_TYPE_SCALAR","used_scoped_memory_configs":[]}
  %param_1.145 = s32[256]{0:T(256)} parameter(1), backend_config={"flag_configs":[],"scoped_memory_configs":[],"compute_type":"COMPUTE_TYPE_SCALAR","used_scoped_memory_configs":[]}
  %param_2.89 = s32[256]{0:T(256)} parameter(2), backend_config={"flag_configs":[],"scoped_memory_configs":[],"compute_type":"COMPUTE_TYPE_SCALAR","used_scoped_memory_configs":[]}
  %copy.2078.cloned.1.call-start = ((s32[263]{0:T(512)}), s32[263]{0:T(512)}, u32[]{:S(8)}) async-start(%param_0.93), async_execution_thread="sparsecore", calls=%async_computation.19
  %copy.2078.cloned.1.call-done = s32[263]{0:T(512)} async-done(%copy.2078.cloned.1.call-start)
  %scatter_offload_custom_fusion.46.cloned.1.call-start = ((s32[263]{0:T(512)}, s32[256]{0:T(256)}, s32[256]{0:T(256)}), s32[263]{0:T(512)}, u32[]{:S(8)}) async-start(%copy.2078.cloned.1.call-done, %param_1.145, %param_2.89), async_execution_thread="sparsecore", calls=%async_computation.20, metadata={op_name="jit(train_step)/transpose(jvp(TransformerLinenPure.apply))/TransformerLinenPure/decoder/moe_layers.wrapped_fn/while/body/closed_call/checkpoint/moe_layers/shard_map/jit(gmm)/scatter-add" stack_frame_id=0}
  ROOT %scatter_offload_custom_fusion.46.cloned.1.call-done = s32[263]{0:T(512)} async-done(%scatter_offload_custom_fusion.46.cloned.1.call-start), metadata={op_name="jit(train_step)/transpose(jvp(TransformerLinenPure.apply))/TransformerLinenPure/decoder/moe_layers.wrapped_fn/while/body/closed_call/checkpoint/moe_layers/shard_map/jit(gmm)/scatter-add" stack_frame_id=0}
}, execution_thread="sparsecore"

%async_computation.3 (param_0.94: s32[263], param_1.146: s32[256], param_2.90: s32[256], param_3.3095: token[]) -> s32[263] {
  %param_3.3095 = token[] parameter(3)
  %param_0.94 = s32[263]{0:T(512)} parameter(0)
  %param_1.146 = s32[256]{0:T(256)} parameter(1)
  %param_2.90 = s32[256]{0:T(256)} parameter(2)
  ROOT %scatter_offload_custom_fusion.11.cloned.1 = s32[263]{0:T(512)} call(%param_0.94, %param_1.146, %param_2.90, %param_3.3095), to_apply=%called_computation.3, metadata={op_name="jit(train_step)/transpose(jvp(TransformerLinenPure.apply))/TransformerLinenPure/decoder/moe_layers.wrapped_fn/while/body/closed_call/checkpoint/moe_layers/shard_map/jit(gmm)/scatter-add" stack_frame_id=0}
}, execution_thread="sparsecore"

%called_computation.21 (param_0.4559: f32[9]) -> f32[9] {
  %param_0.4559 = f32[9]{0:T(128)} parameter(0)
  ROOT %copy.2079 = f32[9]{0:T(128)} copy(%param_0.4559), backend_config={"flag_configs":[],"window_config":{"kernel_window_bounds":[],"output_window_bounds":["8"],"input_window_bounds":[],"estimated_cycles":"1131","iteration_bounds":[],"scratchpad_allocation_size":"128","cost_model_type":"COST_MODEL_TYPE_INVALID","ml_estimated_microseconds":0,"is_mask":false,"pad_output_on_minor_dim":"0","pad_input_on_minor_dim":"0","estimated_vmem_bytes":"0","estimated_bundle_count":"0","estimated_scoped_vmem_bytes":"0"},"loop_config":{"loop_order":[],"unrolled_loops":[{"unroll_dimension":"0","unroll_factor":"16","pipeline_remainder":false,"fully_unroll_if_trip_count_is_at_most":"0"}],"vectorizing_shape":[]},"scoped_memory_configs":[],"compute_type":"COMPUTE_TYPE_TILE","used_scoped_memory_configs":[]}
}, execution_thread="sparsecore"

%async_computation.21 (param_0.4560: f32[9]) -> f32[9] {
  %param_0.4560 = f32[9]{0:T(128)} parameter(0)
  ROOT %copy.2080.cloned.1 = f32[9]{0:T(128)} call(%param_0.4560), to_apply=%called_computation.21
}, execution_thread="sparsecore"

%region_79.95.clone (scatter-add.167: f32[], scatter-add.168: f32[]) -> f32[] {
  %scatter-add.167 = f32[]{:T(128)S(7)} parameter(0), metadata={op_name="scatter-add"}
  %scatter-add.168 = f32[]{:T(128)S(7)} parameter(1), metadata={op_name="scatter-add"}
  ROOT %add.2434 = f32[]{:T(128)S(7)} add(%scatter-add.167, %scatter-add.168), metadata={op_name="add" stack_frame_id=0}, backend_config={"flag_configs":[],"window_config":{"kernel_window_bounds":[],"output_window_bounds":["128"],"input_window_bounds":[],"estimated_cycles":"1165","iteration_bounds":[],"scratchpad_allocation_size":"520","cost_model_type":"COST_MODEL_TYPE_INVALID","ml_estimated_microseconds":0,"is_mask":false,"pad_output_on_minor_dim":"0","pad_input_on_minor_dim":"0","estimated_vmem_bytes":"0","estimated_bundle_count":"0","estimated_scoped_vmem_bytes":"0"},"loop_config":{"loop_order":[],"unrolled_loops":[{"unroll_dimension":"0","unroll_factor":"4","pipeline_remainder":false,"fully_unroll_if_trip_count_is_at_most":"0"}],"vectorizing_shape":[]},"scoped_memory_configs":[],"used_scoped_memory_configs":[]}
}, execution_thread="sparsecore"

%fused_computation.27.clone.clone (param_0.4561: f32[9], param_1.5336: s32[256], param_2.4496: f32[256]) -> f32[9] {
  %param_0.4561 = f32[9]{0:T(128)} parameter(0)
  %param_1.5336 = s32[256]{0:T(256)} parameter(1)
  %reshape.4059 = s32[256]{0:T(256)} reshape(%param_1.5336), metadata={op_name="jit(train_step)/transpose(jvp(TransformerLinenPure.apply))/TransformerLinenPure/decoder/moe_layers.wrapped_fn/while/body/closed_call/checkpoint/moe_layers/shard_map/jit(gmm)/broadcast_in_dim" stack_frame_id=0}
  %transpose.865 = s32[256]{0:T(256)} transpose(%reshape.4059), dimensions={0}, metadata={op_name="jit(train_step)/transpose(jvp(TransformerLinenPure.apply))/TransformerLinenPure/decoder/moe_layers.wrapped_fn/while/body/closed_call/checkpoint/moe_layers/shard_map/jit(gmm)/broadcast_in_dim" stack_frame_id=0}
  %param_2.4496 = f32[256]{0:T(256)} parameter(2)
  %reshape.4060 = f32[256]{0:T(256)} reshape(%param_2.4496), metadata={op_name="jit(train_step)/moe_layers/shard_map/jit(gmm)/broadcast_in_dim" stack_frame_id=0}
  %transpose.866 = f32[256]{0:T(256)} transpose(%reshape.4060), dimensions={0}, metadata={op_name="jit(train_step)/moe_layers/shard_map/jit(gmm)/broadcast_in_dim" stack_frame_id=0}
  ROOT %scatter-add.241 = f32[9]{0:T(128)} scatter(%param_0.4561, %transpose.865, %transpose.866), update_window_dims={}, inserted_window_dims={0}, scatter_dims_to_operand_dims={0}, index_vector_dim=1, indices_are_sorted=true, to_apply=%region_79.95.clone, metadata={op_name="jit(train_step)/transpose(jvp(TransformerLinenPure.apply))/TransformerLinenPure/decoder/moe_layers.wrapped_fn/while/body/closed_call/checkpoint/moe_layers/shard_map/jit(gmm)/scatter-add" stack_frame_id=0}
}, execution_thread="sparsecore"

%called_computation.22 (param_0.4562: f32[9], param_1.5337: s32[256], param_2.4497: f32[256]) -> f32[9] {
  %param_0.4562 = f32[9]{0:T(128)} parameter(0)
  %param_1.5337 = s32[256]{0:T(256)} parameter(1)
  %param_2.4497 = f32[256]{0:T(256)} parameter(2)
  ROOT %scatter_offload_custom_fusion.47 = f32[9]{0:T(128)} fusion(%param_0.4562, %param_1.5337, %param_2.4497), kind=kCustom, calls=%fused_computation.27.clone.clone, metadata={op_name="jit(train_step)/transpose(jvp(TransformerLinenPure.apply))/TransformerLinenPure/decoder/moe_layers.wrapped_fn/while/body/closed_call/checkpoint/moe_layers/shard_map/jit(gmm)/scatter-add" stack_frame_id=0}, backend_config={"flag_configs":[],"window_config":{"kernel_window_bounds":[],"output_window_bounds":["16"],"input_window_bounds":[],"estimated_cycles":"9223372036854775807","iteration_bounds":[],"scratchpad_allocation_size":"1312","cost_model_type":"COST_MODEL_TYPE_INVALID","ml_estimated_microseconds":0,"is_mask":false,"pad_output_on_minor_dim":"0","pad_input_on_minor_dim":"0","estimated_vmem_bytes":"0","estimated_bundle_count":"0","estimated_scoped_vmem_bytes":"0"},"loop_config":{"loop_order":[],"unrolled_loops":[],"vectorizing_shape":[]},"scoped_memory_configs":[],"compute_type":"COMPUTE_TYPE_TILE","used_scoped_memory_configs":[]}
}, execution_thread="sparsecore"

%async_computation.22 (param_0.4563: f32[9], param_1.5338: s32[256], param_2.4498: f32[256]) -> f32[9] {
  %param_0.4563 = f32[9]{0:T(128)} parameter(0)
  %param_1.5338 = s32[256]{0:T(256)} parameter(1)
  %param_2.4498 = f32[256]{0:T(256)} parameter(2)
  ROOT %scatter_offload_custom_fusion.48.cloned.1 = f32[9]{0:T(128)} call(%param_0.4563, %param_1.5338, %param_2.4498), to_apply=%called_computation.22, metadata={op_name="jit(train_step)/transpose(jvp(TransformerLinenPure.apply))/TransformerLinenPure/decoder/moe_layers.wrapped_fn/while/body/closed_call/checkpoint/moe_layers/shard_map/jit(gmm)/scatter-add" stack_frame_id=0}
}, execution_thread="sparsecore"

%called_computation.4 (param_0.96: f32[9], param_1.148: s32[256], param_2.92: f32[256], param_3.3102: token[]) -> f32[9] {
  %param_3.3102 = token[] parameter(3), backend_config={"flag_configs":[],"scoped_memory_configs":[],"implicit_sharding":{"type":"REPLICATED","tile_assignment_dimensions":[],"tile_assignment_devices":[],"tuple_shardings":[],"replicate_on_last_tile_dim":false,"metadata":[],"last_tile_dims":[],"iota_reshape_dims":[],"iota_transpose_perm":[],"is_shard_group":false,"shard_group_id":"0","shard_group_type":"AS"},"used_scoped_memory_configs":[]}
  %param_0.96 = f32[9]{0:T(128)} parameter(0), backend_config={"flag_configs":[],"scoped_memory_configs":[],"compute_type":"COMPUTE_TYPE_SCALAR","used_scoped_memory_configs":[]}
  %param_1.148 = s32[256]{0:T(256)} parameter(1), backend_config={"flag_configs":[],"scoped_memory_configs":[],"compute_type":"COMPUTE_TYPE_SCALAR","used_scoped_memory_configs":[]}
  %param_2.92 = f32[256]{0:T(256)} parameter(2), backend_config={"flag_configs":[],"scoped_memory_configs":[],"compute_type":"COMPUTE_TYPE_SCALAR","used_scoped_memory_configs":[]}
  %copy.2080.cloned.1.call-start = ((f32[9]{0:T(128)}), f32[9]{0:T(128)}, u32[]{:S(8)}) async-start(%param_0.96), async_execution_thread="sparsecore", calls=%async_computation.21
  %copy.2080.cloned.1.call-done = f32[9]{0:T(128)} async-done(%copy.2080.cloned.1.call-start)
  %scatter_offload_custom_fusion.48.cloned.1.call-start = ((f32[9]{0:T(128)}, s32[256]{0:T(256)}, f32[256]{0:T(256)}), f32[9]{0:T(128)}, u32[]{:S(8)}) async-start(%copy.2080.cloned.1.call-done, %param_1.148, %param_2.92), async_execution_thread="sparsecore", calls=%async_computation.22, metadata={op_name="jit(train_step)/transpose(jvp(TransformerLinenPure.apply))/TransformerLinenPure/decoder/moe_layers.wrapped_fn/while/body/closed_call/checkpoint/moe_layers/shard_map/jit(gmm)/scatter-add" stack_frame_id=0}
  ROOT %scatter_offload_custom_fusion.48.cloned.1.call-done = f32[9]{0:T(128)} async-done(%scatter_offload_custom_fusion.48.cloned.1.call-start), metadata={op_name="jit(train_step)/transpose(jvp(TransformerLinenPure.apply))/TransformerLinenPure/decoder/moe_layers.wrapped_fn/while/body/closed_call/checkpoint/moe_layers/shard_map/jit(gmm)/scatter-add" stack_frame_id=0}
}, execution_thread="sparsecore"

%async_computation.4 (param_0.97: f32[9], param_1.149: s32[256], param_2.93: f32[256], param_3.3101: token[]) -> f32[9] {
  %param_3.3101 = token[] parameter(3)
  %param_0.97 = f32[9]{0:T(128)} parameter(0)
  %param_1.149 = s32[256]{0:T(256)} parameter(1)
  %param_2.93 = f32[256]{0:T(256)} parameter(2)
  ROOT %scatter_offload_custom_fusion.14.cloned.1 = f32[9]{0:T(128)} call(%param_0.97, %param_1.149, %param_2.93, %param_3.3101), to_apply=%called_computation.4, metadata={op_name="jit(train_step)/transpose(jvp(TransformerLinenPure.apply))/TransformerLinenPure/decoder/moe_layers.wrapped_fn/while/body/closed_call/checkpoint/moe_layers/shard_map/jit(gmm)/scatter-add" stack_frame_id=0}
}, execution_thread="sparsecore"

%called_computation.23 (param_0.4564: s32[263]) -> s32[263] {
  %param_0.4564 = s32[263]{0:T(512)} parameter(0)
  ROOT %copy.2081 = s32[263]{0:T(512)} copy(%param_0.4564), backend_config={"flag_configs":[],"window_config":{"kernel_window_bounds":[],"output_window_bounds":["32"],"input_window_bounds":[],"estimated_cycles":"1141","iteration_bounds":[],"scratchpad_allocation_size":"512","cost_model_type":"COST_MODEL_TYPE_INVALID","ml_estimated_microseconds":0,"is_mask":false,"pad_output_on_minor_dim":"0","pad_input_on_minor_dim":"0","estimated_vmem_bytes":"0","estimated_bundle_count":"0","estimated_scoped_vmem_bytes":"0"},"loop_config":{"loop_order":[],"unrolled_loops":[{"unroll_dimension":"0","unroll_factor":"16","pipeline_remainder":false,"fully_unroll_if_trip_count_is_at_most":"0"}],"vectorizing_shape":[]},"scoped_memory_configs":[],"compute_type":"COMPUTE_TYPE_TILE","used_scoped_memory_configs":[]}
}, execution_thread="sparsecore"

%async_computation.23 (param_0.4565: s32[263]) -> s32[263] {
  %param_0.4565 = s32[263]{0:T(512)} parameter(0)
  ROOT %copy.2082.cloned.1 = s32[263]{0:T(512)} call(%param_0.4565), to_apply=%called_computation.23
}, execution_thread="sparsecore"

%region_81.97.clone (scatter-add.171: s32[], scatter-add.172: s32[]) -> s32[] {
  %scatter-add.171 = s32[]{:T(128)S(7)} parameter(0), metadata={op_name="scatter-add"}
  %scatter-add.172 = s32[]{:T(128)S(7)} parameter(1), metadata={op_name="scatter-add"}
  ROOT %add.2436 = s32[]{:T(128)S(7)} add(%scatter-add.171, %scatter-add.172), metadata={op_name="add" stack_frame_id=0}, backend_config={"flag_configs":[],"window_config":{"kernel_window_bounds":[],"output_window_bounds":["128"],"input_window_bounds":[],"estimated_cycles":"1165","iteration_bounds":[],"scratchpad_allocation_size":"520","cost_model_type":"COST_MODEL_TYPE_INVALID","ml_estimated_microseconds":0,"is_mask":false,"pad_output_on_minor_dim":"0","pad_input_on_minor_dim":"0","estimated_vmem_bytes":"0","estimated_bundle_count":"0","estimated_scoped_vmem_bytes":"0"},"loop_config":{"loop_order":[],"unrolled_loops":[{"unroll_dimension":"0","unroll_factor":"4","pipeline_remainder":false,"fully_unroll_if_trip_count_is_at_most":"0"}],"vectorizing_shape":[]},"scoped_memory_configs":[],"used_scoped_memory_configs":[]}
}, execution_thread="sparsecore"

%fused_computation.28.clone.clone (param_0.4566: s32[263], param_1.5339: s32[8], param_2.4499: s32[8]) -> s32[263] {
  %param_0.4566 = s32[263]{0:T(512)} parameter(0)
  %param_1.5339 = s32[8]{0:T(128)} parameter(1)
  %reshape.4061 = s32[8]{0:T(128)} reshape(%param_1.5339), metadata={op_name="jit(train_step)/transpose(jvp(TransformerLinenPure.apply))/TransformerLinenPure/decoder/moe_layers.wrapped_fn/while/body/closed_call/checkpoint/moe_layers/shard_map/jit(gmm)/select_n" stack_frame_id=0}
  %transpose.867 = s32[8]{0:T(128)} transpose(%reshape.4061), dimensions={0}, metadata={op_name="jit(train_step)/transpose(jvp(TransformerLinenPure.apply))/TransformerLinenPure/decoder/moe_layers.wrapped_fn/while/body/closed_call/checkpoint/moe_layers/shard_map/jit(gmm)/select_n" stack_frame_id=0}
  %param_2.4499 = s32[8]{0:T(128)} parameter(2)
  %reshape.4062 = s32[8]{0:T(128)} reshape(%param_2.4499), metadata={op_name="jit(train_step)/moe_layers/shard_map/jit(gmm)/broadcast.80" stack_frame_id=0}
  %transpose.868 = s32[8]{0:T(128)} transpose(%reshape.4062), dimensions={0}, metadata={op_name="jit(train_step)/moe_layers/shard_map/jit(gmm)/broadcast.80" stack_frame_id=0}
  ROOT %scatter-add.242 = s32[263]{0:T(512)} scatter(%param_0.4566, %transpose.867, %transpose.868), update_window_dims={}, inserted_window_dims={0}, scatter_dims_to_operand_dims={0}, index_vector_dim=1, to_apply=%region_81.97.clone, metadata={op_name="jit(train_step)/transpose(jvp(TransformerLinenPure.apply))/TransformerLinenPure/decoder/moe_layers.wrapped_fn/while/body/closed_call/checkpoint/moe_layers/shard_map/jit(gmm)/scatter-add" stack_frame_id=0}
}, execution_thread="sparsecore"

%called_computation.24 (param_0.4567: s32[263], param_1.5340: s32[8], param_2.4500: s32[8]) -> s32[263] {
  %param_0.4567 = s32[263]{0:T(512)} parameter(0)
  %param_1.5340 = s32[8]{0:T(128)} parameter(1)
  %param_2.4500 = s32[8]{0:T(128)} parameter(2)
  ROOT %scatter_offload_custom_fusion.49 = s32[263]{0:T(512)} fusion(%param_0.4567, %param_1.5340, %param_2.4500), kind=kCustom, calls=%fused_computation.28.clone.clone, metadata={op_name="jit(train_step)/transpose(jvp(TransformerLinenPure.apply))/TransformerLinenPure/decoder/moe_layers.wrapped_fn/while/body/closed_call/checkpoint/moe_layers/shard_map/jit(gmm)/scatter-add" stack_frame_id=0}, backend_config={"flag_configs":[],"window_config":{"kernel_window_bounds":[],"output_window_bounds":["8"],"input_window_bounds":[],"estimated_cycles":"9223372036854775807","iteration_bounds":[],"scratchpad_allocation_size":"256","cost_model_type":"COST_MODEL_TYPE_INVALID","ml_estimated_microseconds":0,"is_mask":false,"pad_output_on_minor_dim":"0","pad_input_on_minor_dim":"0","estimated_vmem_bytes":"0","estimated_bundle_count":"0","estimated_scoped_vmem_bytes":"0"},"loop_config":{"loop_order":[],"unrolled_loops":[],"vectorizing_shape":[]},"scoped_memory_configs":[],"compute_type":"COMPUTE_TYPE_TILE","used_scoped_memory_configs":[]}
}, execution_thread="sparsecore"

%async_computation.24 (param_0.4568: s32[263], param_1.5341: s32[8], param_2.4501: s32[8]) -> s32[263] {
  %param_0.4568 = s32[263]{0:T(512)} parameter(0)
  %param_1.5341 = s32[8]{0:T(128)} parameter(1)
  %param_2.4501 = s32[8]{0:T(128)} parameter(2)
  ROOT %scatter_offload_custom_fusion.50.cloned.1 = s32[263]{0:T(512)} call(%param_0.4568, %param_1.5341, %param_2.4501), to_apply=%called_computation.24, metadata={op_name="jit(train_step)/transpose(jvp(TransformerLinenPure.apply))/TransformerLinenPure/decoder/moe_layers.wrapped_fn/while/body/closed_call/checkpoint/moe_layers/shard_map/jit(gmm)/scatter-add" stack_frame_id=0}
}, execution_thread="sparsecore"

%called_computation.5 (param_0.99: s32[263], param_1.151: s32[8], param_2.95: s32[8], param_3.3112: token[]) -> s32[263] {
  %param_3.3112 = token[] parameter(3), backend_config={"flag_configs":[],"scoped_memory_configs":[],"implicit_sharding":{"type":"REPLICATED","tile_assignment_dimensions":[],"tile_assignment_devices":[],"tuple_shardings":[],"replicate_on_last_tile_dim":false,"metadata":[],"last_tile_dims":[],"iota_reshape_dims":[],"iota_transpose_perm":[],"is_shard_group":false,"shard_group_id":"0","shard_group_type":"AS"},"used_scoped_memory_configs":[]}
  %param_0.99 = s32[263]{0:T(512)} parameter(0), backend_config={"flag_configs":[],"scoped_memory_configs":[],"compute_type":"COMPUTE_TYPE_SCALAR","used_scoped_memory_configs":[]}
  %param_1.151 = s32[8]{0:T(128)} parameter(1), backend_config={"flag_configs":[],"scoped_memory_configs":[],"compute_type":"COMPUTE_TYPE_SCALAR","used_scoped_memory_configs":[]}
  %param_2.95 = s32[8]{0:T(128)} parameter(2), backend_config={"flag_configs":[],"scoped_memory_configs":[],"compute_type":"COMPUTE_TYPE_SCALAR","used_scoped_memory_configs":[]}
  %copy.2082.cloned.1.call-start = ((s32[263]{0:T(512)}), s32[263]{0:T(512)}, u32[]{:S(8)}) async-start(%param_0.99), async_execution_thread="sparsecore", calls=%async_computation.23
  %copy.2082.cloned.1.call-done = s32[263]{0:T(512)} async-done(%copy.2082.cloned.1.call-start)
  %scatter_offload_custom_fusion.50.cloned.1.call-start = ((s32[263]{0:T(512)}, s32[8]{0:T(128)}, s32[8]{0:T(128)}), s32[263]{0:T(512)}, u32[]{:S(8)}) async-start(%copy.2082.cloned.1.call-done, %param_1.151, %param_2.95), async_execution_thread="sparsecore", calls=%async_computation.24, metadata={op_name="jit(train_step)/transpose(jvp(TransformerLinenPure.apply))/TransformerLinenPure/decoder/moe_layers.wrapped_fn/while/body/closed_call/checkpoint/moe_layers/shard_map/jit(gmm)/scatter-add" stack_frame_id=0}
  ROOT %scatter_offload_custom_fusion.50.cloned.1.call-done = s32[263]{0:T(512)} async-done(%scatter_offload_custom_fusion.50.cloned.1.call-start), metadata={op_name="jit(train_step)/transpose(jvp(TransformerLinenPure.apply))/TransformerLinenPure/decoder/moe_layers.wrapped_fn/while/body/closed_call/checkpoint/moe_layers/shard_map/jit(gmm)/scatter-add" stack_frame_id=0}
}, execution_thread="sparsecore"

%async_computation.5 (param_0.100: s32[263], param_1.152: s32[8], param_2.96: s32[8], param_3.3111: token[]) -> s32[263] {
  %param_3.3111 = token[] parameter(3)
  %param_0.100 = s32[263]{0:T(512)} parameter(0)
  %param_1.152 = s32[8]{0:T(128)} parameter(1)
  %param_2.96 = s32[8]{0:T(128)} parameter(2)
  ROOT %scatter_offload_custom_fusion.17.cloned.1 = s32[263]{0:T(512)} call(%param_0.100, %param_1.152, %param_2.96, %param_3.3111), to_apply=%called_computation.5, metadata={op_name="jit(train_step)/transpose(jvp(TransformerLinenPure.apply))/TransformerLinenPure/decoder/moe_layers.wrapped_fn/while/body/closed_call/checkpoint/moe_layers/shard_map/jit(gmm)/scatter-add" stack_frame_id=0}
}, execution_thread="sparsecore"

%called_computation.25 (param_0.4569: s32[263]) -> s32[263] {
  %param_0.4569 = s32[263]{0:T(512)} parameter(0)
  ROOT %copy.2083 = s32[263]{0:T(512)} copy(%param_0.4569), backend_config={"flag_configs":[],"window_config":{"kernel_window_bounds":[],"output_window_bounds":["32"],"input_window_bounds":[],"estimated_cycles":"1141","iteration_bounds":[],"scratchpad_allocation_size":"512","cost_model_type":"COST_MODEL_TYPE_INVALID","ml_estimated_microseconds":0,"is_mask":false,"pad_output_on_minor_dim":"0","pad_input_on_minor_dim":"0","estimated_vmem_bytes":"0","estimated_bundle_count":"0","estimated_scoped_vmem_bytes":"0"},"loop_config":{"loop_order":[],"unrolled_loops":[{"unroll_dimension":"0","unroll_factor":"16","pipeline_remainder":false,"fully_unroll_if_trip_count_is_at_most":"0"}],"vectorizing_shape":[]},"scoped_memory_configs":[],"compute_type":"COMPUTE_TYPE_TILE","used_scoped_memory_configs":[]}
}, execution_thread="sparsecore"

%async_computation.25 (param_0.4570: s32[263]) -> s32[263] {
  %param_0.4570 = s32[263]{0:T(512)} parameter(0)
  ROOT %copy.2084.cloned.1 = s32[263]{0:T(512)} call(%param_0.4570), to_apply=%called_computation.25
}, execution_thread="sparsecore"

%region_96.114 (scatter-add.48: s32[], scatter-add.49: s32[]) -> s32[] {
  %scatter-add.48 = s32[]{:T(128)S(7)} parameter(0), metadata={op_name="scatter-add"}
  %scatter-add.49 = s32[]{:T(128)S(7)} parameter(1), metadata={op_name="scatter-add"}
  ROOT %add.1362 = s32[]{:T(128)S(7)} add(%scatter-add.48, %scatter-add.49), metadata={op_name="add" stack_frame_id=0}, backend_config={"flag_configs":[],"window_config":{"kernel_window_bounds":[],"output_window_bounds":["128"],"input_window_bounds":[],"estimated_cycles":"1165","iteration_bounds":[],"scratchpad_allocation_size":"520","cost_model_type":"COST_MODEL_TYPE_INVALID","ml_estimated_microseconds":0,"is_mask":false,"pad_output_on_minor_dim":"0","pad_input_on_minor_dim":"0","estimated_vmem_bytes":"0","estimated_bundle_count":"0","estimated_scoped_vmem_bytes":"0"},"loop_config":{"loop_order":[],"unrolled_loops":[{"unroll_dimension":"0","unroll_factor":"4","pipeline_remainder":false,"fully_unroll_if_trip_count_is_at_most":"0"}],"vectorizing_shape":[]},"scoped_memory_configs":[],"used_scoped_memory_configs":[]}
}, execution_thread="sparsecore"

%fused_computation.29.clone.clone (param_0.4571: s32[263], param_1.5342: s32[256], param_2.4502: s32[256]) -> s32[263] {
  %param_0.4571 = s32[263]{0:T(512)} parameter(0)
  %param_1.5342 = s32[256]{0:T(256)} parameter(1)
  %reshape.4063 = s32[256]{0:T(256)} reshape(%param_1.5342), metadata={op_name="jit(train_step)/transpose(jvp(TransformerLinenPure.apply))/TransformerLinenPure/decoder/moe_layers.wrapped_fn/while/body/closed_call/checkpoint/moe_layers/shard_map/jit(tgmm)/select_n" stack_frame_id=0}
  %transpose.869 = s32[256]{0:T(256)} transpose(%reshape.4063), dimensions={0}, metadata={op_name="jit(train_step)/transpose(jvp(TransformerLinenPure.apply))/TransformerLinenPure/decoder/moe_layers.wrapped_fn/while/body/closed_call/checkpoint/moe_layers/shard_map/jit(tgmm)/select_n" stack_frame_id=0}
  %param_2.4502 = s32[256]{0:T(256)} parameter(2)
  %reshape.4064 = s32[256]{0:T(256)} reshape(%param_2.4502), metadata={op_name="jit(train_step)/moe_layers/shard_map/jit(gmm)/broadcast_in_dim" stack_frame_id=0}
  %transpose.870 = s32[256]{0:T(256)} transpose(%reshape.4064), dimensions={0}, metadata={op_name="jit(train_step)/moe_layers/shard_map/jit(gmm)/broadcast_in_dim" stack_frame_id=0}
  ROOT %scatter-add.243 = s32[263]{0:T(512)} scatter(%param_0.4571, %transpose.869, %transpose.870), update_window_dims={}, inserted_window_dims={0}, scatter_dims_to_operand_dims={0}, index_vector_dim=1, to_apply=%region_96.114, metadata={op_name="jit(train_step)/transpose(jvp(TransformerLinenPure.apply))/TransformerLinenPure/decoder/moe_layers.wrapped_fn/while/body/closed_call/checkpoint/moe_layers/shard_map/jit(tgmm)/scatter-add" stack_frame_id=0}
}, execution_thread="sparsecore"

%called_computation.26 (param_0.4572: s32[263], param_1.5343: s32[256], param_2.4503: s32[256]) -> s32[263] {
  %param_0.4572 = s32[263]{0:T(512)} parameter(0)
  %param_1.5343 = s32[256]{0:T(256)} parameter(1)
  %param_2.4503 = s32[256]{0:T(256)} parameter(2)
  ROOT %scatter_offload_custom_fusion.51 = s32[263]{0:T(512)} fusion(%param_0.4572, %param_1.5343, %param_2.4503), kind=kCustom, calls=%fused_computation.29.clone.clone, metadata={op_name="jit(train_step)/transpose(jvp(TransformerLinenPure.apply))/TransformerLinenPure/decoder/moe_layers.wrapped_fn/while/body/closed_call/checkpoint/moe_layers/shard_map/jit(tgmm)/scatter-add" stack_frame_id=0}, backend_config={"flag_configs":[],"window_config":{"kernel_window_bounds":[],"output_window_bounds":["16"],"input_window_bounds":[],"estimated_cycles":"9223372036854775807","iteration_bounds":[],"scratchpad_allocation_size":"384","cost_model_type":"COST_MODEL_TYPE_INVALID","ml_estimated_microseconds":0,"is_mask":false,"pad_output_on_minor_dim":"0","pad_input_on_minor_dim":"0","estimated_vmem_bytes":"0","estimated_bundle_count":"0","estimated_scoped_vmem_bytes":"0"},"loop_config":{"loop_order":[],"unrolled_loops":[],"vectorizing_shape":[]},"scoped_memory_configs":[],"compute_type":"COMPUTE_TYPE_TILE","used_scoped_memory_configs":[]}
}, execution_thread="sparsecore"

%async_computation.26 (param_0.4573: s32[263], param_1.5344: s32[256], param_2.4504: s32[256]) -> s32[263] {
  %param_0.4573 = s32[263]{0:T(512)} parameter(0)
  %param_1.5344 = s32[256]{0:T(256)} parameter(1)
  %param_2.4504 = s32[256]{0:T(256)} parameter(2)
  ROOT %scatter_offload_custom_fusion.52.cloned.1 = s32[263]{0:T(512)} call(%param_0.4573, %param_1.5344, %param_2.4504), to_apply=%called_computation.26, metadata={op_name="jit(train_step)/transpose(jvp(TransformerLinenPure.apply))/TransformerLinenPure/decoder/moe_layers.wrapped_fn/while/body/closed_call/checkpoint/moe_layers/shard_map/jit(tgmm)/scatter-add" stack_frame_id=0}
}, execution_thread="sparsecore"

%called_computation.6 (param_0.102: s32[263], param_1.154: s32[256], param_2.98: s32[256], param_3.3098: token[]) -> s32[263] {
  %param_3.3098 = token[] parameter(3), backend_config={"flag_configs":[],"scoped_memory_configs":[],"implicit_sharding":{"type":"REPLICATED","tile_assignment_dimensions":[],"tile_assignment_devices":[],"tuple_shardings":[],"replicate_on_last_tile_dim":false,"metadata":[],"last_tile_dims":[],"iota_reshape_dims":[],"iota_transpose_perm":[],"is_shard_group":false,"shard_group_id":"0","shard_group_type":"AS"},"used_scoped_memory_configs":[]}
  %param_0.102 = s32[263]{0:T(512)} parameter(0), backend_config={"flag_configs":[],"scoped_memory_configs":[],"compute_type":"COMPUTE_TYPE_SCALAR","used_scoped_memory_configs":[]}
  %param_1.154 = s32[256]{0:T(256)} parameter(1), backend_config={"flag_configs":[],"scoped_memory_configs":[],"compute_type":"COMPUTE_TYPE_SCALAR","used_scoped_memory_configs":[]}
  %param_2.98 = s32[256]{0:T(256)} parameter(2), backend_config={"flag_configs":[],"scoped_memory_configs":[],"compute_type":"COMPUTE_TYPE_SCALAR","used_scoped_memory_configs":[]}
  %copy.2084.cloned.1.call-start = ((s32[263]{0:T(512)}), s32[263]{0:T(512)}, u32[]{:S(8)}) async-start(%param_0.102), async_execution_thread="sparsecore", calls=%async_computation.25
  %copy.2084.cloned.1.call-done = s32[263]{0:T(512)} async-done(%copy.2084.cloned.1.call-start)
  %scatter_offload_custom_fusion.52.cloned.1.call-start = ((s32[263]{0:T(512)}, s32[256]{0:T(256)}, s32[256]{0:T(256)}), s32[263]{0:T(512)}, u32[]{:S(8)}) async-start(%copy.2084.cloned.1.call-done, %param_1.154, %param_2.98), async_execution_thread="sparsecore", calls=%async_computation.26, metadata={op_name="jit(train_step)/transpose(jvp(TransformerLinenPure.apply))/TransformerLinenPure/decoder/moe_layers.wrapped_fn/while/body/closed_call/checkpoint/moe_layers/shard_map/jit(tgmm)/scatter-add" stack_frame_id=0}
  ROOT %scatter_offload_custom_fusion.52.cloned.1.call-done = s32[263]{0:T(512)} async-done(%scatter_offload_custom_fusion.52.cloned.1.call-start), metadata={op_name="jit(train_step)/transpose(jvp(TransformerLinenPure.apply))/TransformerLinenPure/decoder/moe_layers.wrapped_fn/while/body/closed_call/checkpoint/moe_layers/shard_map/jit(tgmm)/scatter-add" stack_frame_id=0}
}, execution_thread="sparsecore"

%async_computation.6 (param_0.103: s32[263], param_1.155: s32[256], param_2.99: s32[256], param_3.3097: token[]) -> s32[263] {
  %param_3.3097 = token[] parameter(3)
  %param_0.103 = s32[263]{0:T(512)} parameter(0)
  %param_1.155 = s32[256]{0:T(256)} parameter(1)
  %param_2.99 = s32[256]{0:T(256)} parameter(2)
  ROOT %scatter_offload_custom_fusion.20.cloned.1 = s32[263]{0:T(512)} call(%param_0.103, %param_1.155, %param_2.99, %param_3.3097), to_apply=%called_computation.6, metadata={op_name="jit(train_step)/transpose(jvp(TransformerLinenPure.apply))/TransformerLinenPure/decoder/moe_layers.wrapped_fn/while/body/closed_call/checkpoint/moe_layers/shard_map/jit(tgmm)/scatter-add" stack_frame_id=0}
}, execution_thread="sparsecore"

%region_102.120 (scatter-add.52: f32[], scatter-add.53: f32[]) -> f32[] {
  %scatter-add.52 = f32[]{:T(128)S(7)} parameter(0), metadata={op_name="scatter-add"}
  %scatter-add.53 = f32[]{:T(128)S(7)} parameter(1), metadata={op_name="scatter-add"}
  ROOT %add.1365 = f32[]{:T(128)S(7)} add(%scatter-add.52, %scatter-add.53), metadata={op_name="add" stack_frame_id=0}, backend_config={"flag_configs":[],"window_config":{"kernel_window_bounds":[],"output_window_bounds":["128"],"input_window_bounds":[],"estimated_cycles":"1165","iteration_bounds":[],"scratchpad_allocation_size":"520","cost_model_type":"COST_MODEL_TYPE_INVALID","ml_estimated_microseconds":0,"is_mask":false,"pad_output_on_minor_dim":"0","pad_input_on_minor_dim":"0","estimated_vmem_bytes":"0","estimated_bundle_count":"0","estimated_scoped_vmem_bytes":"0"},"loop_config":{"loop_order":[],"unrolled_loops":[{"unroll_dimension":"0","unroll_factor":"4","pipeline_remainder":false,"fully_unroll_if_trip_count_is_at_most":"0"}],"vectorizing_shape":[]},"scoped_memory_configs":[],"used_scoped_memory_configs":[]}
}, execution_thread="sparsecore"

%fused_computation.30.clone.clone (param_0.4576: f32[9], param_1.5345: s32[256], param_2.4505: f32[256]) -> f32[9] {
  %param_0.4576 = f32[9]{0:T(128)} parameter(0)
  %param_1.5345 = s32[256]{0:T(256)} parameter(1)
  %reshape.4065 = s32[256]{0:T(256)} reshape(%param_1.5345), metadata={op_name="jit(train_step)/transpose(jvp(TransformerLinenPure.apply))/TransformerLinenPure/decoder/moe_layers.wrapped_fn/while/body/closed_call/checkpoint/moe_layers/shard_map/jit(tgmm)/broadcast_in_dim" stack_frame_id=0}
  %transpose.871 = s32[256]{0:T(256)} transpose(%reshape.4065), dimensions={0}, metadata={op_name="jit(train_step)/transpose(jvp(TransformerLinenPure.apply))/TransformerLinenPure/decoder/moe_layers.wrapped_fn/while/body/closed_call/checkpoint/moe_layers/shard_map/jit(tgmm)/broadcast_in_dim" stack_frame_id=0}
  %param_2.4505 = f32[256]{0:T(256)} parameter(2)
  %reshape.4066 = f32[256]{0:T(256)} reshape(%param_2.4505), metadata={op_name="jit(train_step)/moe_layers/shard_map/jit(gmm)/broadcast_in_dim" stack_frame_id=0}
  %transpose.872 = f32[256]{0:T(256)} transpose(%reshape.4066), dimensions={0}, metadata={op_name="jit(train_step)/moe_layers/shard_map/jit(gmm)/broadcast_in_dim" stack_frame_id=0}
  ROOT %scatter-add.244 = f32[9]{0:T(128)} scatter(%param_0.4576, %transpose.871, %transpose.872), update_window_dims={}, inserted_window_dims={0}, scatter_dims_to_operand_dims={0}, index_vector_dim=1, indices_are_sorted=true, to_apply=%region_102.120, metadata={op_name="jit(train_step)/transpose(jvp(TransformerLinenPure.apply))/TransformerLinenPure/decoder/moe_layers.wrapped_fn/while/body/closed_call/checkpoint/moe_layers/shard_map/jit(tgmm)/scatter-add" stack_frame_id=0}
}, execution_thread="sparsecore"

%called_computation.28 (param_0.4577: f32[9], param_1.5346: s32[256], param_2.4506: f32[256]) -> f32[9] {
  %param_0.4577 = f32[9]{0:T(128)} parameter(0)
  %param_1.5346 = s32[256]{0:T(256)} parameter(1)
  %param_2.4506 = f32[256]{0:T(256)} parameter(2)
  ROOT %scatter_offload_custom_fusion.53 = f32[9]{0:T(128)} fusion(%param_0.4577, %param_1.5346, %param_2.4506), kind=kCustom, calls=%fused_computation.30.clone.clone, metadata={op_name="jit(train_step)/transpose(jvp(TransformerLinenPure.apply))/TransformerLinenPure/decoder/moe_layers.wrapped_fn/while/body/closed_call/checkpoint/moe_layers/shard_map/jit(tgmm)/scatter-add" stack_frame_id=0}, backend_config={"flag_configs":[],"window_config":{"kernel_window_bounds":[],"output_window_bounds":["16"],"input_window_bounds":[],"estimated_cycles":"9223372036854775807","iteration_bounds":[],"scratchpad_allocation_size":"1312","cost_model_type":"COST_MODEL_TYPE_INVALID","ml_estimated_microseconds":0,"is_mask":false,"pad_output_on_minor_dim":"0","pad_input_on_minor_dim":"0","estimated_vmem_bytes":"0","estimated_bundle_count":"0","estimate…
  %sqrt.153.clone.1 = f32[256,1,512,512]{3,2,0,1:T(8,128)} sqrt(%div.2539.clone.1), metadata={op_name="jit(train_step)/sqrt" stack_frame_id=0}
  %constant.4789.clone.1 = f32[]{:T(128)} constant(1e-08)
  %broadcast.4128.clone.1 = f32[256,1,512,512]{3,2,0,1:T(8,128)} broadcast(%constant.4789.clone.1), dimensions={}, metadata={op_name="broadcast.305"}
  %add.3375.clone.1 = f32[256,1,512,512]{3,2,0,1:T(8,128)} add(%sqrt.153.clone.1, %broadcast.4128.clone.1), metadata={op_name="jit(train_step)/add" stack_frame_id=0}
  %multiply.1082.clone.1 = f32[256,1,512,512]{3,2,0,1:T(8,128)} multiply(%div.2541.clone.1, %add.3375.clone.1), metadata={op_name="multiply.267"}
  %div.2538.clone.1 = f32[256,1,512,512]{3,2,0,1:T(8,128)} divide(%add.3376.clone.1, %multiply.1082.clone.1), metadata={op_name="jit(train_step)/div" stack_frame_id=0}
  %mul.5413.clone.1 = f32[256,1,512,512]{3,2,0,1:T(8,128)} multiply(%bitcast.1349.clone.1, %broadcast.4130.clone.1), metadata={op_name="jit(train_step)/mul" stack_frame_id=0}
  %add.3374.clone.1 = f32[256,1,512,512]{3,2,0,1:T(8,128)} add(%div.2538.clone.1, %mul.5413.clone.1), metadata={op_name="jit(train_step)/add" stack_frame_id=0}
  %mul.5412.clone.1 = f32[256,1,512,512]{3,2,0,1:T(8,128)} multiply(%mul.5414.clone.1, %add.3374.clone.1), metadata={op_name="jit(train_step)/mul" stack_frame_id=0}
  %add.3373.clone.1 = f32[256,1,512,512]{3,2,0,1:T(8,128)} add(%bitcast.1349.clone.1, %mul.5412.clone.1), metadata={op_name="jit(train_step)/add" stack_frame_id=0}
  %square.579 = f32[256,1,512,512]{3,2,0,1:T(8,128)} multiply(%add.3373.clone.1, %add.3373.clone.1), metadata={op_name="jit(train_step)/square" stack_frame_id=0}
  %constant.5015 = f32[]{:T(128)} constant(0)
  %reduce.620 = f32[]{:T(128)} reduce(%square.579, %constant.5015), dimensions={0,1,2,3}, to_apply=%region_225.250, metadata={op_name="jit(train_step)/reduce_sum" stack_frame_id=0}
  %bitcast.813.clone.1 = f32[256,1,512,512]{3,2,1,0:T(8,128)} bitcast(%add.3377.clone.1)
  %bitcast.786.clone.1 = f32[256,1,512,512]{3,2,1,0:T(8,128)} bitcast(%add.3376.clone.1)
  %reduce.629.clone.1 = f32[]{:T(128)} reduce(%integer_pow.395.clone.1, %constant.5015), dimensions={0,1,2,3}, to_apply=%region_191.216, metadata={op_name="jit(train_step)/reduce_sum" stack_frame_id=0}
  ROOT %tuple.668 = (f32[]{:T(128)}, f32[256,1,512,512]{3,2,0,1:T(8,128)}, f32[256,1,512,512]{3,2,1,0:T(8,128)}, f32[256,1,512,512]{3,2,1,0:T(8,128)}, f32[]{:T(128)}) tuple(%reduce.620, %add.3373.clone.1, %bitcast.813.clone.1, %bitcast.786.clone.1, %reduce.629.clone.1)
}

%region_155.180 (reduce_sum.509: f32[], reduce_sum.338: f32[]) -> f32[] {
  %reduce_sum.509 = f32[]{:T(128)} parameter(0), metadata={op_name="jit(train_step)/reduce_sum"}
  %reduce_sum.338 = f32[]{:T(128)} parameter(1), metadata={op_name="jit(train_step)/reduce_sum"}
  ROOT %reduce_sum.343 = f32[]{:T(128)} add(%reduce_sum.509, %reduce_sum.338), metadata={op_name="jit(train_step)/reduce_sum" stack_frame_id=0}, backend_config={"flag_configs":[],"scoped_memory_configs":[],"used_scoped_memory_configs":[],"aliasing_operands":{"lists":[]}}
}

%fused_computation.528.clone.clone.clone (param_0.4097: bf16[4,128,129280], param_1.4954: s32[4,128], param_2.4215: f32[4,128], param_3.2918: f32[4,128], param_4.2170: bf16[4,128], param_5.1975: f32[4,128]) -> bf16[4,128,129280] {
  %param_5.1975 = f32[4,128]{1,0:T(4,128)S(1)} parameter(5)
  %mul.5651 = f32[4,128,129280]{2,1,0:T(8,128)} broadcast(%param_5.1975), dimensions={0,1}, metadata={op_name="jit(train_step)/transpose(jvp())/mul" stack_frame_id=0}
  %param_3.2918 = f32[4,128]{1,0:T(4,128)S(1)} parameter(3)
  %mul.5650 = f32[4,128,129280]{2,1,0:T(8,128)} broadcast(%param_3.2918), dimensions={0,1}, metadata={op_name="jit(train_step)/transpose(jvp())/mul" stack_frame_id=0}
  %param_0.4097 = bf16[4,128,129280]{2,1,0:T(8,128)(2,1)} parameter(0)
  %convert_element_type.3111 = f32[4,128,129280]{2,1,0:T(8,128)} convert(%param_0.4097), metadata={op_name="jit(train_step)/jvp(TransformerLinenPure.apply)/TransformerLinenPure/decoder/decoder.apply_output_head/convert_element_type" stack_frame_id=0}
  %param_4.2170 = bf16[4,128]{1,0:T(4,128)(2,1)S(1)} parameter(4)
  %sub.804 = f32[4,128,129280]{2,1,0:T(8,128)} broadcast(%param_4.2170), dimensions={0,1}, metadata={op_name="jit(train_step)/jvp()/sub" stack_frame_id=0}
  %sub.803 = f32[4,128,129280]{2,1,0:T(8,128)} subtract(%convert_element_type.3111, %sub.804), metadata={op_name="jit(train_step)/jvp()/sub" stack_frame_id=0}
  %exp.534 = f32[4,128,129280]{2,1,0:T(8,128)} exponential(%sub.803), metadata={op_name="jit(train_step)/jvp()/exp" stack_frame_id=0}
  %mul.5649 = f32[4,128,129280]{2,1,0:T(8,128)} multiply(%mul.5650, %exp.534), metadata={op_name="jit(train_step)/transpose(jvp())/mul" stack_frame_id=0}
  %param_2.4215 = f32[4,128]{1,0:T(4,128)S(1)} parameter(2)
  %div.2696 = f32[4,128,129280]{2,1,0:T(8,128)} broadcast(%param_2.4215), dimensions={0,1}, metadata={op_name="jit(train_step)/transpose(jvp())/div" stack_frame_id=0}
  %div.2695 = f32[4,128,129280]{2,1,0:T(8,128)} divide(%mul.5649, %div.2696), metadata={op_name="jit(train_step)/transpose(jvp())/div" stack_frame_id=0}
  %param_1.4954 = s32[4,128]{1,0:T(4,128)S(1)} parameter(1)
  %eq.371 = s32[4,128,129280]{2,1,0:T(8,128)} broadcast(%param_1.4954), dimensions={0,1}, metadata={op_name="jit(train_step)/jvp(jit(_one_hot))/eq" stack_frame_id=0}
  %eq.370 = s32[4,128,129280]{2,1,0:T(8,128)} iota(), iota_dimension=2, metadata={op_name="jit(train_step)/jvp(jit(_one_hot))/eq" stack_frame_id=0}
  %eq.369 = pred[4,128,129280]{2,1,0:T(8,128)(4,1)} compare(%eq.371, %eq.370), direction=EQ, metadata={op_name="jit(train_step)/jvp(jit(_one_hot))/eq" stack_frame_id=0}
  %convert_element_type.3110 = f32[4,128,129280]{2,1,0:T(8,128)} convert(%eq.369), metadata={op_name="jit(train_step)/jvp(jit(_one_hot))/convert_element_type" stack_frame_id=0}
  %sub.802 = f32[4,128,129280]{2,1,0:T(8,128)} subtract(%div.2695, %convert_element_type.3110), metadata={op_name="jit(train_step)/transpose(jvp())/sub" stack_frame_id=0}
  %mul.5648 = f32[4,128,129280]{2,1,0:T(8,128)} multiply(%mul.5651, %sub.802), metadata={op_name="jit(train_step)/transpose(jvp())/mul" stack_frame_id=0}
  ROOT %convert_element_type.3109 = bf16[4,128,129280]{2,1,0:T(8,128)(2,1)} convert(%mul.5648), metadata={op_name="jit(train_step)/transpose(jvp(TransformerLinenPure.apply))/TransformerLinenPure/decoder/decoder.apply_output_head/convert_element_type" stack_frame_id=0}
}

%fused_computation.935.clone.clone (param_0.4098: f32[4,128], param_1.4955: bf16[4,128,512], param_2.4217: bf16[512]) -> bf16[4,128,512] {
  %param_1.4955 = bf16[4,128,512]{2,1,0:T(8,128)(2,1)S(1)} parameter(1)
  %convert_element_type.3113 = f32[4,128,512]{2,1,0:T(8,128)} convert(%param_1.4955), metadata={op_name="jit(train_step)/jvp(TransformerLinenPure.apply)/TransformerLinenPure/decoder/decoder.apply_output_head/decoder_norm/convert_element_type" stack_frame_id=0}
  %param_0.4098 = f32[4,128]{1,0:T(4,128)S(1)} parameter(0)
  %mul.5654 = f32[4,128,512]{2,1,0:T(8,128)} broadcast(%param_0.4098), dimensions={0,1}, metadata={op_name="jit(train_step)/jvp(TransformerLinenPure.apply)/TransformerLinenPure/decoder/decoder.apply_output_head/decoder_norm/mul" stack_frame_id=0}
  %mul.5653 = f32[4,128,512]{2,1,0:T(8,128)} multiply(%convert_element_type.3113, %mul.5654), metadata={op_name="jit(train_step)/jvp(TransformerLinenPure.apply)/TransformerLinenPure/decoder/decoder.apply_output_head/decoder_norm/mul" stack_frame_id=0}
  %convert_element_type.3112 = bf16[4,128,512]{2,1,0:T(8,128)(2,1)} convert(%mul.5653), metadata={op_name="jit(train_step)/jvp(TransformerLinenPure.apply)/TransformerLinenPure/decoder/decoder.apply_output_head/decoder_norm/convert_element_type" stack_frame_id=0}
  %param_2.4217 = bf16[512]{0:T(512)(128)(2,1)S(1)} parameter(2)
  %mul.5655 = bf16[4,128,512]{2,1,0:T(8,128)(2,1)} broadcast(%param_2.4217), dimensions={2}, metadata={op_name="jit(train_step)/jvp(TransformerLinenPure.apply)/TransformerLinenPure/decoder/decoder.apply_output_head/decoder_norm/mul" stack_frame_id=0}
  ROOT %mul.5652 = bf16[4,128,512]{2,1,0:T(8,128)(2,1)} multiply(%convert_element_type.3112, %mul.5655), metadata={op_name="jit(train_step)/jvp(TransformerLinenPure.apply)/TransformerLinenPure/decoder/decoder.apply_output_head/decoder_norm/mul" stack_frame_id=0}
}

%fused_computation.517 (param_0.4187: bf16[4,128,129280], param_1.5050: s32[4,128], param_2.4309: f32[4,128], param_3.2974: f32[4,128], param_4.2219: bf16[4,128], param_5.2017: f32[4,128], param_6.1458: f32[4,128], param_7.1138: bf16[4,128,512], param_8.902: bf16[512]) -> (f32[], bf16[512,129280,1]) {
  %param_6.1458 = f32[4,128]{1,0:T(4,128)S(1)} parameter(6)
  %param_7.1138 = bf16[4,128,512]{2,1,0:T(8,128)(2,1)S(1)} parameter(7)
  %param_8.902 = bf16[512]{0:T(512)(128)(2,1)S(1)} parameter(8)
  %fusion.574.clone.1 = bf16[4,128,512]{2,1,0:T(8,128)(2,1)} fusion(%param_6.1458, %param_7.1138, %param_8.902), kind=kLoop, calls=%fused_computation.935.clone.clone, metadata={op_name="jit(train_step)/jvp(TransformerLinenPure.apply)/TransformerLinenPure/decoder/decoder.apply_output_head/decoder_norm/mul" stack_frame_id=0}
  %param_0.4187 = bf16[4,128,129280]{2,1,0:T(8,128)(2,1)} parameter(0)
  %param_1.5050 = s32[4,128]{1,0:T(4,128)S(1)} parameter(1)
  %param_2.4309 = f32[4,128]{1,0:T(4,128)S(1)} parameter(2)
  %param_3.2974 = f32[4,128]{1,0:T(4,128)S(1)} parameter(3)
  %param_4.2219 = bf16[4,128]{1,0:T(4,128)(2,1)S(1)} parameter(4)
  %param_5.2017 = f32[4,128]{1,0:T(4,128)S(1)} parameter(5)
  %multiply_convert_fusion.1.clone.1 = bf16[4,128,129280]{2,1,0:T(8,128)(2,1)} fusion(%param_0.4187, %param_1.5050, %param_2.4309, %param_3.2974, %param_4.2219, /*index=5*/%param_5.2017), kind=kLoop, calls=%fused_computation.528.clone.clone.clone, metadata={op_name="jit(train_step)/transpose(jvp(TransformerLinenPure.apply))/TransformerLinenPure/decoder/decoder.apply_output_head/convert_element_type" stack_frame_id=0}
  %convolution.141.clone.1 = bf16[512,129280,1]{1,0,2:T(8,128)(2,1)} convolution(%fusion.574.clone.1, %multiply_convert_fusion.1.clone.1), window={size=4}, dim_labels=0fb_0io->bf0, metadata={op_name="jit(train_step)/transpose(jvp(TransformerLinenPure.apply))/TransformerLinenPure/decoder/decoder.apply_output_head/logits_dense/dot_general" stack_frame_id=0}
  %bitcast.758 = bf16[512,129280]{1,0:T(8,128)(2,1)} bitcast(%convolution.141.clone.1), metadata={op_name="jit(train_step)/transpose(jvp(TransformerLinenPure.apply))/TransformerLinenPure/decoder/decoder.apply_output_head/logits_dense/dot_general" stack_frame_id=0}
  %convert_element_type.2618 = f32[512,129280]{1,0:T(8,128)} convert(%bitcast.758), metadata={op_name="jit(train_step)/transpose(jvp(TransformerLinenPure.apply))/TransformerLinenPure/decoder/decoder.apply_output_head/logits_dense/convert_element_type" stack_frame_id=0}
  %square.581 = f32[512,129280]{1,0:T(8,128)} multiply(%convert_element_type.2618, %convert_element_type.2618), metadata={op_name="jit(train_step)/square" stack_frame_id=0}
  %constant.5048 = f32[]{:T(128)} constant(0)
  %reduce.621 = f32[]{:T(128)} reduce(%square.581, %constant.5048), dimensions={0,1}, to_apply=%region_155.180, metadata={op_name="jit(train_step)/reduce_sum" stack_frame_id=0}
  ROOT %tuple.757 = (f32[]{:T(128)}, bf16[512,129280,1]{1,0,2:T(8,128)(2,1)}) tuple(%reduce.621, %convolution.141.clone.1)
}

%region_174.199 (reduce_sum.635: f32[], reduce_sum.636: f32[]) -> f32[] {
  %reduce_sum.635 = f32[]{:T(128)} parameter(0), metadata={op_name="jit(train_step)/reduce_sum"}
  %reduce_sum.636 = f32[]{:T(128)} parameter(1), metadata={op_name="jit(train_step)/reduce_sum"}
  ROOT %reduce_sum.424 = f32[]{:T(128)} add(%reduce_sum.635, %reduce_sum.636), metadata={op_name="jit(train_step)/reduce_sum" stack_frame_id=0}, backend_config={"flag_configs":[],"scoped_memory_configs":[],"used_scoped_memory_configs":[],"aliasing_operands":{"lists":[]}}
}

%fused_computation.518 (param_0.4171: bf16[129280,512]) -> f32[] {
  %param_0.4171 = bf16[129280,512]{1,0:T(8,128)(2,1)} parameter(0)
  %convert_element_type.2620 = f32[129280,512]{1,0:T(8,128)} convert(%param_0.4171), metadata={op_name="jit(train_step)/transpose(jvp(TransformerLinenPure.apply))/TransformerLinenPure/decoder/decoder._apply_embedding/token_embedder/convert_element_type" stack_frame_id=0}
  %square.583 = f32[129280,512]{1,0:T(8,128)} multiply(%convert_element_type.2620, %convert_element_type.2620), metadata={op_name="jit(train_step)/square" stack_frame_id=0}
  %constant.5032 = f32[]{:T(128)} constant(0)
  ROOT %reduce.622 = f32[]{:T(128)} reduce(%square.583, %constant.5032), dimensions={0,1}, to_apply=%region_174.199, metadata={op_name="jit(train_step)/reduce_sum" stack_frame_id=0}
}

%region_240.265 (reduce_sum.1097: f32[], reduce_sum.1098: f32[]) -> f32[] {
  %reduce_sum.1097 = f32[]{:T(128)} parameter(0), metadata={op_name="jit(train_step)/reduce_sum"}
  %reduce_sum.1098 = f32[]{:T(128)} parameter(1), metadata={op_name="jit(train_step)/reduce_sum"}
  ROOT %reduce_sum.577 = f32[]{:T(128)} add(%reduce_sum.1097, %reduce_sum.1098), metadata={op_name="jit(train_step)/reduce_sum" stack_frame_id=0}, backend_config={"flag_configs":[],"scoped_memory_configs":[],"used_scoped_memory_configs":[],"aliasing_operands":{"lists":[]}}
}

%region_206.231 (reduce_sum.859: f32[], reduce_sum.860: f32[]) -> f32[] {
  %reduce_sum.859 = f32[]{:T(128)} parameter(0), metadata={op_name="jit(train_step)/reduce_sum"}
  %reduce_sum.860 = f32[]{:T(128)} parameter(1), metadata={op_name="jit(train_step)/reduce_sum"}
  ROOT %reduce_sum.499 = f32[]{:T(128)} add(%reduce_sum.859, %reduce_sum.860), metadata={op_name="jit(train_step)/reduce_sum" stack_frame_id=0}, backend_config={"flag_configs":[],"scoped_memory_configs":[],"used_scoped_memory_configs":[],"aliasing_operands":{"lists":[]}}
}

%fused_computation.519 (param_0.4139: f32[129280,512], param_1.5007: f32[], param_2.4269: f32[], param_3.2937: f32[], param_4.2184: f32[129280,512], param_5.1984: f32[], param_6.1425: bf16[129280,512], param_7.1105: pred[], param_8.870: f32[129280,512]) -> (f32[], f32[129280,512], f32[129280,512], f32[129280,512], f32[]) {
  %param_0.4139 = f32[129280,512]{1,0:T(8,128)} parameter(0)
  %param_3.2937 = f32[]{:T(128)S(6)} parameter(3)
  %mul.5288.clone.1 = f32[129280,512]{1,0:T(8,128)} broadcast(%param_3.2937), dimensions={}, metadata={op_name="jit(train_step)/mul" stack_frame_id=0}
  %param_7.1105 = pred[]{:T(512)S(6)} parameter(7)
  %select_n.2105.clone.1 = pred[129280,512]{1,0:T(8,128)(4,1)} broadcast(%param_7.1105), dimensions={}, metadata={op_name="jit(train_step)/select_n" stack_frame_id=0}
  %param_6.1425 = bf16[129280,512]{1,0:T(8,128)(2,1)} parameter(6)
  %convert_element_type.3054.clone.1 = f32[129280,512]{1,0:T(8,128)} convert(%param_6.1425), metadata={op_name="jit(train_step)/transpose(jvp(TransformerLinenPure.apply))/TransformerLinenPure/decoder/decoder._apply_embedding/token_embedder/convert_element_type" stack_frame_id=0}
  %param_5.1984 = f32[]{:T(128)} parameter(5)
  %div.2437.clone.1 = f32[129280,512]{1,0:T(8,128)} broadcast(%param_5.1984), dimensions={}, metadata={op_name="jit(train_step)/div" stack_frame_id=0}
  %div.2436.clone.1 = f32[129280,512]{1,0:T(8,128)} divide(%convert_element_type.3054.clone.1, %div.2437.clone.1), metadata={op_name="jit(train_step)/div" stack_frame_id=0}
  %select_n.2104.clone.1 = f32[129280,512]{1,0:T(8,128)} select(%select_n.2105.clone.1, %convert_element_type.3054.clone.1, %div.2436.clone.1), metadata={op_name="jit(train_step)/select_n" stack_frame_id=0}
  %constant.4698.clone.1 = f32[]{:T(128)} constant(0.1)
  %broadcast.4070.clone.1 = f32[129280,512]{1,0:T(8,128)} broadcast(%constant.4698.clone.1), dimensions={}, metadata={op_name="broadcast.318"}
  %mul.5294.clone.1 = f32[129280,512]{1,0:T(8,128)} multiply(%select_n.2104.clone.1, %broadcast.4070.clone.1), metadata={op_name="jit(train_step)/mul" stack_frame_id=0}
  %param_8.870 = f32[129280,512]{1,0:T(8,128)} parameter(8)
  %constant.4702.clone.1 = f32[]{:T(128)} constant(0.9)
  %mul.5295.clone.1 = f32[129280,512]{1,0:T(8,128)} broadcast(%constant.4702.clone.1), dimensions={}, metadata={op_name="jit(train_step)/mul" stack_frame_id=0}
  %mul.5293.clone.1 = f32[129280,512]{1,0:T(8,128)} multiply(%param_8.870, %mul.5295.clone.1), metadata={op_name="jit(train_step)/mul" stack_frame_id=0}
  %add.3296.clone.1 = f32[129280,512]{1,0:T(8,128)} add(%mul.5294.clone.1, %mul.5293.clone.1), metadata={op_name="jit(train_step)/add" stack_frame_id=0}
  %param_2.4269 = f32[]{:T(128)S(6)} parameter(2)
  %div.2433.clone.1 = f32[129280,512]{1,0:T(8,128)} broadcast(%param_2.4269), dimensions={}, metadata={op_name="jit(train_step)/div" stack_frame_id=0}
  %integer_pow.380.clone.1 = f32[129280,512]{1,0:T(8,128)} multiply(%select_n.2104.clone.1, %select_n.2104.clone.1), metadata={op_name="jit(train_step)/integer_pow" stack_frame_id=0}
  %constant.4701.clone.1 = f32[]{:T(128)} constant(0.05)
  %mul.5292.clone.1 = f32[129280,512]{1,0:T(8,128)} broadcast(%constant.4701.clone.1), dimensions={}, metadata={op_name="jit(train_step)/mul" stack_frame_id=0}
  %mul.5290.clone.1 = f32[129280,512]{1,0:T(8,128)} multiply(%integer_pow.380.clone.1, %mul.5292.clone.1), metadata={op_name="jit(train_step)/mul" stack_frame_id=0}
  %param_4.2184 = f32[129280,512]{1,0:T(8,128)} parameter(4)
  %constant.4700.clone.1 = f32[]{:T(128)} constant(0.95)
  %mul.5291.clone.1 = f32[129280,512]{1,0:T(8,128)} broadcast(%constant.4700.clone.1), dimensions={}, metadata={op_name="jit(train_step)/mul" stack_frame_id=0}
  %mul.5289.clone.1 = f32[129280,512]{1,0:T(8,128)} multiply(%param_4.2184, %mul.5291.clone.1), metadata={op_name="jit(train_step)/mul" stack_frame_id=0}
  %add.3295.clone.1 = f32[129280,512]{1,0:T(8,128)} add(%mul.5290.clone.1, %mul.5289.clone.1), metadata={op_name="jit(train_step)/add" stack_frame_id=0}
  %param_1.5007 = f32[]{:T(128)S(6)} parameter(1)
  %div.2432.clone.1 = f32[129280,512]{1,0:T(8,128)} broadcast(%param_1.5007), dimensions={}, metadata={op_name="jit(train_step)/div" stack_frame_id=0}
  %div.2431.clone.1 = f32[129280,512]{1,0:T(8,128)} divide(%add.3295.clone.1, %div.2432.clone.1), metadata={op_name="jit(train_step)/div" stack_frame_id=0}
  %sqrt.138.clone.1 = f32[129280,512]{1,0:T(8,128)} sqrt(%div.2431.clone.1), metadata={op_name="jit(train_step)/sqrt" stack_frame_id=0}
  %constant.4699.clone.1 = f32[]{:T(128)} constant(1e-08)
  %add.3294.clone.1 = f32[129280,512]{1,0:T(8,128)} broadcast(%constant.4699.clone.1), dimensions={}, metadata={op_name="jit(train_step)/add" stack_frame_id=0}
  %add.3293.clone.1 = f32[129280,512]{1,0:T(8,128)} add(%sqrt.138.clone.1, %add.3294.clone.1), metadata={op_name="jit(train_step)/add" stack_frame_id=0}
  %multiply.1067.clone.1 = f32[129280,512]{1,0:T(8,128)} multiply(%div.2433.clone.1, %add.3293.clone.1), metadata={op_name="multiply.282"}
  %div.2430.clone.1 = f32[129280,512]{1,0:T(8,128)} divide(%add.3296.clone.1, %multiply.1067.clone.1), metadata={op_name="jit(train_step)/div" stack_frame_id=0}
  %mul.5287.clone.1 = f32[129280,512]{1,0:T(8,128)} multiply(%param_0.4139, %broadcast.4070.clone.1), metadata={op_name="jit(train_step)/mul" stack_frame_id=0}
  %add.3292.clone.1 = f32[129280,512]{1,0:T(8,128)} add(%div.2430.clone.1, %mul.5287.clone.1), metadata={op_name="jit(train_step)/add" stack_frame_id=0}
  %mul.5286.clone.1 = f32[129280,512]{1,0:T(8,128)} multiply(%mul.5288.clone.1, %add.3292.clone.1), metadata={op_name="jit(train_step)/mul" stack_frame_id=0}
  %add.3291.clone.1 = f32[129280,512]{1,0:T(8,128)} add(%param_0.4139, %mul.5286.clone.1), metadata={op_name="jit(train_step)/add" stack_frame_id=0}
  %square.584 = f32[129280,512]{1,0:T(8,128)} multiply(%add.3291.clone.1, %add.3291.clone.1), metadata={op_name="jit(train_step)/square" stack_frame_id=0}
  %constant.5000 = f32[]{:T(128)} constant(0)
  %reduce.623 = f32[]{:T(128)} reduce(%square.584, %constant.5000), dimensions={0,1}, to_apply=%region_240.265, metadata={op_name="jit(train_step)/reduce_sum" stack_frame_id=0}
  %reduce.630.clone.1 = f32[]{:T(128)} reduce(%integer_pow.380.clone.1, %constant.5000), dimensions={0,1}, to_apply=%region_206.231, metadata={op_name="jit(train_step)/reduce_sum" stack_frame_id=0}
  ROOT %tuple.671 = (f32[]{:T(128)}, f32[129280,512]{1,0:T(8,128)}, f32[129280,512]{1,0:T(8,128)}, f32[129280,512]{1,0:T(8,128)}, f32[]{:T(128)}) tuple(%reduce.623, %add.3291.clone.1, %add.3295.clone.1, %add.3296.clone.1, %reduce.630.clone.1)
}

%region_222.247 (reduce_sum.971: f32[], reduce_sum.972: f32[]) -> f32[] {
  %reduce_sum.971 = f32[]{:T(128)} parameter(0), metadata={op_name="jit(train_step)/reduce_sum"}
  %reduce_sum.972 = f32[]{:T(128)} parameter(1), metadata={op_name="jit(train_step)/reduce_sum"}
  ROOT %reduce_sum.535 = f32[]{:T(128)} add(%reduce_sum.971, %reduce_sum.972), metadata={op_name="jit(train_step)/reduce_sum" stack_frame_id=0}, backend_config={"flag_configs":[],"scoped_memory_configs":[],"used_scoped_memory_configs":[],"aliasing_operands":{"lists":[]}}
}

%region_188.213 (reduce_sum.733: f32[], reduce_sum.734: f32[]) -> f32[] {
  %reduce_sum.733 = f32[]{:T(128)} parameter(0), metadata={op_name="jit(train_step)/reduce_sum"}
  %reduce_sum.734 = f32[]{:T(128)} parameter(1), metadata={op_name="jit(train_step)/reduce_sum"}
  ROOT %reduce_sum.457 = f32[]{:T(128)} add(%reduce_sum.733, %reduce_sum.734), metadata={op_name="jit(train_step)/reduce_sum" stack_frame_id=0}, backend_config={"flag_configs":[],"scoped_memory_configs":[],"used_scoped_memory_configs":[],"aliasing_operands":{"lists":[]}}
}

%fused_computation.520 (param_0.4157: f32[512,129280], param_1.5025: f32[], param_2.4287: f32[], param_3.2955: f32[], param_4.2202: f32[512,129280], param_5.2002: f32[], param_6.1443: bf16[512,129280,1], param_7.1123: pred[], param_8.888: f32[512,129280]) -> (f32[], f32[512,129280], f32[512,129280], f32[512,129280], f32[]) {
  %param_0.4157 = f32[512,129280]{1,0:T(8,128)} parameter(0)
  %param_3.2955 = f32[]{:T(128)S(6)} parameter(3)
  %mul.5441.clone.1 = f32[512,129280]{1,0:T(8,128)} broadcast(%param_3.2955), dimensions={}, metadata={op_name="jit(train_step)/mul" stack_frame_id=0}
  %param_7.1123 = pred[]{:T(512)S(6)} parameter(7)
  %select_n.2161.clone.1 = pred[512,129280]{1,0:T(8,128)(4,1)} broadcast(%param_7.1123), dimensions={}, metadata={op_name="jit(train_step)/select_n" stack_frame_id=0}
  %param_6.1443 = bf16[512,129280,1]{1,0,2:T(8,128)(2,1)} parameter(6)
  %bitcast.1354.clone.1 = bf16[512,129280]{1,0:T(8,128)(2,1)} bitcast(%param_6.1443), metadata={op_name="jit(train_step)/transpose(jvp(TransformerLinenPure.apply))/TransformerLinenPure/decoder/decoder.apply_output_head/logits_dense/dot_general" stack_frame_id=0}
  %convert_element_type.3056.clone.1 = f32[512,129280]{1,0:T(8,128)} convert(%bitcast.1354.clone.1), metadata={op_name="jit(train_step)/transpose(jvp(TransformerLinenPure.apply))/TransformerLinenPure/decoder/decoder.apply_output_head/logits_dense/convert_element_type" stack_frame_id=0}
  %param_5.2002 = f32[]{:T(128)} parameter(5)
  %div.2565.clone.1 = f32[512,129280]{1,0:T(8,128)} broadcast(%param_5.2002), dimensions={}, metadata={op_name="jit(train_step)/div" stack_frame_id=0}
  %div.2564.clone.1 = f32[512,129280]{1,0:T(8,128)} divide(%convert_element_type.3056.clone.1, %div.2565.clone.1), metadata={op_name="jit(train_step)/div" stack_frame_id=0}
  %select_n.2160.clone.1 = f32[512,129280]{1,0:T(8,128)} select(%select_n.2161.clone.1, %convert_element_type.3056.clone.1, %div.2564.clone.1), metadata={op_name="jit(train_step)/select_n" stack_frame_id=0}
  %constant.4802.clone.1 = f32[]{:T(128)} constant(0.1)
  %broadcast.4138.clone.1 = f32[512,129280]{1,0:T(8,128)} broadcast(%constant.4802.clone.1), dimensions={}, metadata={op_name="broadcast.333"}
  %mul.5447.clone.1 = f32[512,129280]{1,0:T(8,128)} multiply(%select_n.2160.clone.1, %broadcast.4138.clone.1), metadata={op_name="jit(train_step)/mul" stack_frame_id=0}
  %param_8.888 = f32[512,129280]{1,0:T(8,128)} parameter(8)
  %constant.4806.clone.1 = f32[]{:T(128)} constant(0.9)
  %mul.5448.clone.1 = f32[512,129280]{1,0:T(8,128)} broadcast(%constant.4806.clone.1), dimensions={}, metadata={op_name="jit(train_step)/mul" stack_frame_id=0}
  %mul.5446.clone.1 = f32[512,129280]{1,0:T(8,128)} multiply(%param_8.888, %mul.5448.clone.1), metadata={op_name="jit(train_step)/mul" stack_frame_id=0}
  %add.3395.clone.1 = f32[512,129280]{1,0:T(8,128)} add(%mul.5447.clone.1, %mul.5446.clone.1), metadata={op_name="jit(train_step)/add" stack_frame_id=0}
  %param_2.4287 = f32[]{:T(128)S(6)} parameter(2)
  %div.2561.clone.1 = f32[512,129280]{1,0:T(8,128)} broadcast(%param_2.4287), dimensions={}, metadata={op_name="jit(train_step)/div" stack_frame_id=0}
  %integer_pow.398.clone.1 = f32[512,129280]{1,0:T(8,128)} multiply(%select_n.2160.clone.1, %select_n.2160.clone.1), metadata={op_name="jit(train_step)/integer_pow" stack_frame_id=0}
  %constant.4805.clone.1 = f32[]{:T(128)} constant(0.05)
  %mul.5445.clone.1 = f32[512,129280]{1,0:T(8,128)} broadcast(%constant.4805.clone.1), dimensions={}, metadata={op_name="jit(train_step)/mul" stack_frame_id=0}
  %mul.5443.clone.1 = f32[512,129280]{1,0:T(8,128)} multiply(%integer_pow.398.clone.1, %mul.5445.clone.1), metadata={op_name="jit(train_step)/mul" stack_frame_id=0}
  %param_4.2202 = f32[512,129280]{1,0:T(8,128)} parameter(4)
  %constant.4804.clone.1 = f32[]{:T(128)} constant(0.95)
  %mul.5444.clone.1 = f32[512,129280]{1,0:T(8,128)} broadcast(%constant.4804.clone.1), dimensions={}, metadata={op_name="jit(train_step)/mul" stack_frame_id=0}
  %mul.5442.clone.1 = f32[512,129280]{1,0:T(8,128)} multiply(%param_4.2202, %mul.5444.clone.1), metadata={op_name="jit(train_step)/mul" stack_frame_id=0}
  %add.3394.clone.1 = f32[512,129280]{1,0:T(8,128)} add(%mul.5443.clone.1, %mul.5442.clone.1), metadata={op_name="jit(train_step)/add" stack_frame_id=0}
  %param_1.5025 = f32[]{:T(128)S(6)} parameter(1)
  %div.2560.clone.1 = f32[512,129280]{1,0:T(8,128)} broadcast(%param_1.5025), dimensions={}, metadata={op_name="jit(train_step)/div" stack_frame_id=0}
  %div.2559.clone.1 = f32[512,129280]{1,0:T(8,128)} divide(%add.3394.clone.1, %div.2560.clone.1), metadata={op_name="jit(train_step)/div" stack_frame_id=0}
  %sqrt.156.clone.1 = f32[512,129280]{1,0:T(8,128)} sqrt(%div.2559.clone.1), metadata={op_name="jit(train_step)/sqrt" stack_frame_id=0}
  %constant.4803.clone.1 = f32[]{:T(128)} constant(1e-08)
  %add.3393.clone.1 = f32[512,129280]{1,0:T(8,128)} broadcast(%constant.4803.clone.1), dimensions={}, metadata={op_name="jit(train_step)/add" stack_frame_id=0}
  %add.3392.clone.1 = f32[512,129280]{1,0:T(8,128)} add(%sqrt.156.clone.1, %add.3393.clone.1), metadata={op_name="jit(train_step)/add" stack_frame_id=0}
  %multiply.1085.clone.1 = f32[512,129280]{1,0:T(8,128)} multiply(%div.2561.clone.1, %add.3392.clone.1), metadata={op_name="multiply.264"}
  %div.2558.clone.1 = f32[512,129280]{1,0:T(8,128)} divide(%add.3395.clone.1, %multiply.1085.clone.1), metadata={op_name="jit(train_step)/div" stack_frame_id=0}
  %mul.5440.clone.1 = f32[512,129280]{1,0:T(8,128)} multiply(%param_0.4157, %broadcast.4138.clone.1), metadata={op_name="jit(train_step)/mul" stack_frame_id=0}
  %add.3391.clone.1 = f32[512,129280]{1,0:T(8,128)} add(%div.2558.clone.1, %mul.5440.clone.1), metadata={op_name="jit(train_step)/add" stack_frame_id=0}
  %mul.5439.clone.1 = f32[512,129280]{1,0:T(8,128)} multiply(%mul.5441.clone.1, %add.3391.clone.1), metadata={op_name="jit(train_step)/mul" stack_frame_id=0}
  %add.3390.clone.1 = f32[512,129280]{1,0:T(8,128)} add(%param_0.4157, %mul.5439.clone.1), metadata={op_name="jit(train_step)/add" stack_frame_id=0}
  %square.585 = f32[512,129280]{1,0:T(8,128)} multiply(%add.3390.clone.1, %add.3390.clone.1), metadata={op_name="jit(train_step)/square" stack_frame_id=0}
  %constant.5018 = f32[]{:T(128)} constant(0)
  %reduce.624 = f32[]{:T(128)} reduce(%square.585, %constant.5018), dimensions={0,1}, to_apply=%region_222.247, metadata={op_name="jit(train_step)/reduce_sum" stack_frame_id=0}
  %reduce.631.clone.1 = f32[]{:T(128)} reduce(%integer_pow.398.clone.1, %constant.5018), dimensions={0,1}, to_apply=%region_188.213, metadata={op_name="jit(train_step)/reduce_sum" stack_frame_id=0}
  ROOT %tuple.672 = (f32[]{:T(128)}, f32[512,129280]{1,0:T(8,128)}, f32[512,129280]{1,0:T(8,128)}, f32[512,129280]{1,0:T(8,128)}, f32[]{:T(128)}) tuple(%reduce.624, %add.3390.clone.1, %add.3394.clone.1, %add.3395.clone.1, %reduce.631.clone.1)
}

%region_207.232 (reduce_sum.866: f32[], reduce_sum.867: f32[]) -> f32[] {
  %reduce_sum.866 = f32[]{:T(128)} parameter(0), metadata={op_name="jit(train_step)/jvp()/reduce_sum"}
  %reduce_sum.867 = f32[]{:T(128)} parameter(1), metadata={op_name="jit(train_step)/jvp()/reduce_sum"}
  ROOT %reduce_sum.500 = f32[]{:T(128)} add(%reduce_sum.866, %reduce_sum.867), metadata={op_name="jit(train_step)/jvp()/reduce_sum" stack_frame_id=0}, backend_config={"flag_configs":[],"scoped_memory_configs":[],"used_scoped_memory_configs":[],"aliasing_operands":{"lists":[]}}
}

%fused_computation.521 (param_0.4207: bf16[4,128,129280], param_1.5063: f32[4,128], param_2.4319: s32[4,128], param_3.2982: bf16[4,128]) -> f32[4,128] {
  %param_2.4319 = s32[4,128]{1,0:T(4,128)S(1)} parameter(2)
  %eq.307 = s32[4,128,129280]{2,1,0:T(8,128)} broadcast(%param_2.4319), dimensions={0,1}, metadata={op_name="jit(train_step)/jvp(jit(_one_hot))/eq" stack_frame_id=0}
  %eq.302 = s32[4,128,129280]{2,1,0:T(8,128)} iota(), iota_dimension=2, metadata={op_name="jit(train_step)/jvp(jit(_one_hot))/eq" stack_frame_id=0}
  %eq.301 = pred[4,128,129280]{2,1,0:T(8,128)(4,1)} compare(%eq.307, %eq.302), direction=EQ, metadata={op_name="jit(train_step)/jvp(jit(_one_hot))/eq" stack_frame_id=0}
  %param_0.4207 = bf16[4,128,129280]{2,1,0:T(8,128)(2,1)} parameter(0)
  %convert_element_type.2625 = f32[4,128,129280]{2,1,0:T(8,128)} convert(%param_0.4207), metadata={op_name="jit(train_step)/jvp(TransformerLinenPure.apply)/TransformerLinenPure/decoder/decoder.apply_output_head/convert_element_type" stack_frame_id=0}
  %param_3.2982 = bf16[4,128]{1,0:T(4,128)(2,1)S(1)} parameter(3)
  %sub.665 = f32[4,128,129280]{2,1,0:T(8,128)} broadcast(%param_3.2982), dimensions={0,1}, metadata={op_name="jit(train_step)/jvp()/sub" stack_frame_id=0}
  %sub.656 = f32[4,128,129280]{2,1,0:T(8,128)} subtract(%convert_element_type.2625, %sub.665), metadata={op_name="jit(train_step)/jvp()/sub" stack_frame_id=0}
  %param_1.5063 = f32[4,128]{1,0:T(4,128)S(1)} parameter(1)
  %sub.663 = f32[4,128,129280]{2,1,0:T(8,128)} broadcast(%param_1.5063), dimensions={0,1}, metadata={op_name="jit(train_step)/jvp()/sub" stack_frame_id=0}
  %sub.652 = f32[4,128,129280]{2,1,0:T(8,128)} subtract(%sub.656, %sub.663), metadata={op_name="jit(train_step)/jvp()/sub" stack_frame_id=0}
  %constant.5071 = f32[]{:T(128)} constant(0)
  %broadcast.3645 = f32[4,128,129280]{2,1,0:T(8,128)} broadcast(%constant.5071), dimensions={}, metadata={op_name="broadcast.500"}
  %mul.4239 = f32[4,128,129280]{2,1,0:T(8,128)} select(%eq.301, %sub.652, %broadcast.3645), metadata={op_name="jit(train_step)/jvp()/mul" stack_frame_id=0}
  ROOT %reduce.625 = f32[4,128]{1,0:T(4,128)S(1)} reduce(%mul.4239, %constant.5071), dimensions={2}, to_apply=%region_207.232, metadata={op_name="jit(train_step)/jvp()/reduce_sum" stack_frame_id=0}
}

%region_37.47 (reduce_sum.76: f32[], reduce_sum.82: f32[]) -> f32[] {
  %reduce_sum.76 = f32[]{:T(128)} parameter(0), metadata={op_name="jit(train_step)/jvp()/reduce_sum"}
  %reduce_sum.82 = f32[]{:T(128)} parameter(1), metadata={op_name="jit(train_step)/jvp()/reduce_sum"}
  ROOT %reduce_sum.88 = f32[]{:T(128)} add(%reduce_sum.76, %reduce_sum.82), metadata={op_name="jit(train_step)/jvp()/reduce_sum" stack_frame_id=0}, backend_config={"flag_configs":[],"scoped_memory_configs":[],"used_scoped_memory_configs":[],"aliasing_operands":{"lists":[]}}
}

%fused_computation.532 (param_0.4208: bf16[4,128,129280], param_1.5064: bf16[4,128]) -> f32[4,128] {
  %param_0.4208 = bf16[4,128,129280]{2,1,0:T(8,128)(2,1)} parameter(0)
  %convert_element_type.2631 = f32[4,128,129280]{2,1,0:T(8,128)} convert(%param_0.4208), metadata={op_name="jit(train_step)/jvp(TransformerLinenPure.apply)/TransformerLinenPure/decoder/decoder.apply_output_head/convert_element_type" stack_frame_id=0}
  %param_1.5064 = bf16[4,128]{1,0:T(4,128)(2,1)S(1)} parameter(1)
  %sub.666 = f32[4,128,129280]{2,1,0:T(8,128)} broadcast(%param_1.5064), dimensions={0,1}, metadata={op_name="jit(train_step)/jvp()/sub" stack_frame_id=0}
  %sub.662 = f32[4,128,129280]{2,1,0:T(8,128)} subtract(%convert_element_type.2631, %sub.666), metadata={op_name="jit(train_step)/jvp()/sub" stack_frame_id=0}
  %exp.448 = f32[4,128,129280]{2,1,0:T(8,128)} exponential(%sub.662), metadata={op_name="jit(train_step)/jvp()/exp" stack_frame_id=0}
  %constant.5072 = f32[]{:T(128)} constant(0)
  ROOT %reduce.626 = f32[4,128]{1,0:T(4,128)S(1)} reduce(%exp.448, %constant.5072), dimensions={2}, to_apply=%region_37.47, metadata={op_name="jit(train_step)/jvp()/reduce_sum" stack_frame_id=0}
}

%region_152.177 (reduce_sum.488: f32[], reduce_sum.324: f32[]) -> f32[] {
  %reduce_sum.488 = f32[]{:T(128)} parameter(0), metadata={op_name="jit(train_step)/reduce_sum"}
  %reduce_sum.324 = f32[]{:T(128)} parameter(1), metadata={op_name="jit(train_step)/reduce_sum"}
  ROOT %reduce_sum.329 = f32[]{:T(128)} add(%reduce_sum.488, %reduce_sum.324), metadata={op_name="jit(train_step)/reduce_sum" stack_frame_id=0}, backend_config={"flag_configs":[],"scoped_memory_configs":[],"used_scoped_memory_configs":[],"aliasing_operands":{"lists":[]}}
}

%fused_computation.540 (param_0.4190: f32[3,512,128,256]) -> f32[] {
  %param_0.4190 = f32[3,512,128,256]{3,2,0,1:T(8,128)} parameter(0)
  %bitcast.734 = f32[512,3,128,256]{3,2,1,0:T(8,128)} bitcast(%param_0.4190), metadata={op_name="jit(train_step)/transpose(jvp(TransformerLinenPure.apply))/TransformerLinenPure/decoder/dense_layers.wrapped_fn/transpose" stack_frame_id=0}
  %square.588 = f32[512,3,128,256]{3,2,1,0:T(8,128)} multiply(%bitcast.734, %bitcast.734), metadata={op_name="jit(train_step)/square" stack_frame_id=0}
  %constant.5051 = f32[]{:T(128)} constant(0)
  ROOT %reduce.632 = f32[]{:T(128)} reduce(%square.588, %constant.5051), dimensions={0,1,2,3}, to_apply=%region_152.177, metadata={op_name="jit(train_step)/reduce_sum" stack_frame_id=0}
}

%fused_computation.541 (param_0.1620: f32[512,3,128,256]) -> bf16[3,512,128,256] {
  %param_0.1620 = f32[512,3,128,256]{3,2,1,0:T(8,128)} parameter(0)
  %copy.1549 = bf16[512,3,128,256]{3,0,2,1:T(8,128)(2,1)} copy(%param_0.1620), sharding={replicated}, metadata={op_name="state.params[\'params\'][\'decoder\'][\'dense_layers\'][\'self_attention\'][\'wkv_b\'][\'kernel\']"}
  ROOT %bitcast.735 = bf16[3,512,128,256]{3,1,2,0:T(8,128)(2,1)} bitcast(%copy.1549), metadata={op_name="jit(train_step)/jvp(TransformerLinenPure.apply)/TransformerLinenPure/decoder/dense_layers.wrapped_fn/transpose" stack_frame_id=0}
}

%region_219.244 (reduce_sum.950: f32[], reduce_sum.951: f32[]) -> f32[] {
  %reduce_sum.950 = f32[]{:T(128)} parameter(0), metadata={op_name="jit(train_step)/reduce_sum"}
  %reduce_sum.951 = f32[]{:T(128)} parameter(1), metadata={op_name="jit(train_step)/reduce_sum"}
  ROOT %reduce_sum.528 = f32[]{:T(128)} add(%reduce_sum.950, %reduce_sum.951), metadata={op_name="jit(train_step)/reduce_sum" stack_frame_id=0}, backend_config={"flag_configs":[],"scoped_memory_configs":[],"used_scoped_memory_configs":[],"aliasing_operands":{"lists":[]}}
}

%region_185.210 (reduce_sum.712: f32[], reduce_sum.713: f32[]) -> f32[] {
  %reduce_sum.712 = f32[]{:T(128)} parameter(0), metadata={op_name="jit(train_step)/reduce_sum"}
  %reduce_sum.713 = f32[]{:T(128)} parameter(1), metadata={op_name="jit(train_step)/reduce_sum"}
  ROOT %reduce_sum.450 = f32[]{:T(128)} add(%reduce_sum.712, %reduce_sum.713), metadata={op_name="jit(train_step)/reduce_sum" stack_frame_id=0}, backend_config={"flag_configs":[],"scoped_memory_configs":[],"used_scoped_memory_configs":[],"aliasing_operands":{"lists":[]}}
}

%fused_computation.542 (param_0.4160: f32[512,3,128,256], param_1.5028: f32[], param_2.4290: f32[], param_3.2958: f32[], param_4.2205: f32[512,3,128,256], param_5.2005: f32[], param_6.1446: f32[3,512,128,256], param_7.1126: pred[], param_8.891: f32[512,3,128,256]) -> (f32[], f32[512,3,128,256], f32[512,3,128,256], f32[512,3,128,256], f32[]) {
  %param_0.4160 = f32[512,3,128,256]{3,2,1,0:T(8,128)} parameter(0)
  %param_3.2958 = f32[]{:T(128)S(6)} parameter(3)
  %mul.5471.clone.1 = f32[512,3,128,256]{3,2,1,0:T(8,128)} broadcast(%param_3.2958), dimensions={}, metadata={op_name="jit(train_step)/mul" stack_frame_id=0}
  %param_7.1126 = pred[]{:T(512)S(6)} parameter(7)
  %select_n.2173.clone.1 = pred[512,3,128,256]{3,2,1,0:T(8,128)(4,1)} broadcast(%param_7.1126), dimensions={}, metadata={op_name="jit(train_step)/select_n" stack_frame_id=0}
  %param_6.1446 = f32[3,512,128,256]{3,2,0,1:T(8,128)} parameter(6)
  %bitcast.1360.clone.1 = f32[512,3,128,256]{3,2,1,0:T(8,128)} bitcast(%param_6.1446), metadata={op_name="jit(train_step)/transpose(jvp(TransformerLinenPure.apply))/TransformerLinenPure/decoder/dense_layers.wrapped_fn/transpose" stack_frame_id=0}
  %param_5.2005 = f32[]{:T(128)} parameter(5)
  %div.2589.clone.1 = f32[512,3,128,256]{3,2,1,0:T(8,128)} broadcast(%param_5.2005), dimensions={}, metadata={op_name="jit(train_step)/div" stack_frame_id=0}
  %div.2588.clone.1 = f32[512,3,128,256]{3,2,1,0:T(8,128)} divide(%bitcast.1360.clone.1, %div.2589.clone.1), metadata={op_name="jit(train_step)/div" stack_frame_id=0}
  %select_n.2172.clone.1 = f32[512,3,128,256]{3,2,1,0:T(8,128)} select(%select_n.2173.clone.1, %bitcast.1360.clone.1, %div.2588.clone.1), metadata={op_name="jit(train_step)/select_n" stack_frame_id=0}
  %constant.4820.clone.1 = f32[]{:T(128)} constant(0.1)
  %broadcast.4144.clone.1 = f32[512,3,128,256]{3,2,1,0:T(8,128)} broadcast(%constant.4820.clone.1), dimensions={}, metadata={op_name="broadcast.336"}
  %mul.5477.clone.1 = f32[512,3,128,256]{3,2,1,0:T(8,128)} multiply(%select_n.2172.clone.1, %broadcast.4144.clone.1), metadata={op_name="jit(train_step)/mul" stack_frame_id=0}
  %param_8.891 = f32[512,3,128,256]{3,2,1,0:T(8,128)} parameter(8)
  %constant.4824.clone.1 = f32[]{:T(128)} constant(0.9)
  %mul.5478.clone.1 = f32[512,3,128,256]{3,2,1,0:T(8,128)} broadcast(%constant.4824.clone.1), dimensions={}, metadata={op_name="jit(train_step)/mul" stack_frame_id=0}
  %mul.5476.clone.1 = f32[512,3,128,256]{3,2,1,0:T(8,128)} multiply(%param_8.891, %mul.5478.clone.1), metadata={op_name="jit(train_step)/mul" stack_frame_id=0}
  %add.3413.clone.1 = f32[512,3,128,256]{3,2,1,0:T(8,128)} add(%mul.5477.clone.1, %mul.5476.clone.1), metadata={op_name="jit(train_step)/add" stack_frame_id=0}
  %param_2.4290 = f32[]{:T(128)S(6)} parameter(2)
  %div.2585.clone.1 = f32[512,3,128,256]{3,2,1,0:T(8,128)} broadcast(%param_2.4290), dimensions={}, metadata={op_name="jit(train_step)/div" stack_frame_id=0}
  %integer_pow.401.clone.1 = f32[512,3,128,256]{3,2,1,0:T(8,128)} multiply(%select_n.2172.clone.1, %select_n.2172.clone.1), metadata={op_name="jit(train_step)/integer_pow" stack_frame_id=0}
  %constant.4823.clone.1 = f32[]{:T(128)} constant(0.05)
  %mul.5475.clone.1 = f32[512,3,128,256]{3,2,1,0:T(8,128)} broadcast(%constant.4823.clone.1), dimensions={}, metadata={op_name="jit(train_step)/mul" stack_frame_id=0}
  %mul.5473.clone.1 = f32[512,3,128,256]{3,2,1,0:T(8,128)} multiply(%integer_pow.401.clone.1, %mul.5475.clone.1), metadata={op_name="jit(train_step)/mul" stack_frame_id=0}
  %param_4.2205 = f32[512,3,128,256]{3,2,1,0:T(8,128)} parameter(4)
  %constant.4822.clone.1 = f32[]{:T(128)} constant(0.95)
  %mul.5474.clone.1 = f32[512,3,128,256]{3,2,1,0:T(8,128)} broadcast(%constant.4822.clone.1), dimensions={}, metadata={op_name="jit(train_step)/mul" stack_frame_id=0}
  %mul.5472.clone.1 = f32[512,3,128,256]{3,2,1,0:T(8,128)} multiply(%param_4.2205, %mul.5474.clone.1), metadata={op_name="jit(train_step)/mul" stack_frame_id=0}
  %add.3412.clone.1 = f32[512,3,128,256]{3,2,1,0:T(8,128)} add(%mul.5473.clone.1, %mul.5472.clone.1), metadata={op_name="jit(train_step)/add" stack_frame_id=0}
  %param_1.5028 = f32[]{:T(128)S(6)} parameter(1)
  %div.2584.clone.1 = f32[512,3,128,256]{3,2,1,0:T(8,128)} broadcast(%param_1.5028), dimensions={}, metadata={op_name="jit(train_step)/div" stack_frame_id=0}
  %div.2583.clone.1 = f32[512,3,128,256]{3,2,1,0:T(8,128)} divide(%add.3412.clone.1, %div.2584.clone.1), metadata={op_name="jit(train_step)/div" stack_frame_id=0}
  %sqrt.159.clone.1 = f32[512,3,128,256]{3,2,1,0:T(8,128)} sqrt(%div.2583.clone.1), metadata={op_name="jit(train_step)/sqrt" stack_frame_id=0}
  %constant.4821.clone.1 = f32[]{:T(128)} constant(1e-08)
  %add.3411.clone.1 = f32[512,3,128,256]{3,2,1,0:T(8,128)} broadcast(%constant.4821.clone.1), dimensions={}, metadata={op_name="jit(train_step)/add" stack_frame_id=0}
  %add.3410.clone.1 = f32[512,3,128,256]{3,2,1,0:T(8,128)} add(%sqrt.159.clone.1, %add.3411.clone.1), metadata={op_name="jit(train_step)/add" stack_frame_id=0}
  %multiply.1088.clone.1 = f32[512,3,128,256]{3,2,1,0:T(8,128)} multiply(%div.2585.clone.1, %add.3410.clone.1), metadata={op_name="multiply.261"}
  %div.2582.clone.1 = f32[512,3,128,256]{3,2,1,0:T(8,128)} divide(%add.3413.clone.1, %multiply.1088.clone.1), metadata={op_name="jit(train_step)/div" stack_frame_id=0}
  %mul.5470.clone.1 = f32[512,3,128,256]{3,2,1,0:T(8,128)} multiply(%param_0.4160, %broadcast.4144.clone.1), metadata={op_name="jit(train_step)/mul" stack_frame_id=0}
  %add.3409.clone.1 = f32[512,3,128,256]{3,2,1,0:T(8,128)} add(%div.2582.clone.1, %mul.5470.clone.1), metadata={op_name="jit(train_step)/add" stack_frame_id=0}
  %mul.5469.clone.1 = f32[512,3,128,256]{3,2,1,0:T(8,128)} multiply(%mul.5471.clone.1, %add.3409.clone.1), metadata={op_name="jit(train_step)/mul" stack_frame_id=0}
  %add.3408.clone.1 = f32[512,3,128,256]{3,2,1,0:T(8,128)} add(%param_0.4160, %mul.5469.clone.1), metadata={op_name="jit(train_step)/add" stack_frame_id=0}
  %square.589 = f32[512,3,128,256]{3,2,1,0:T(8,128)} multiply(%add.3408.clone.1, %add.3408.clone.1), metadata={op_name="jit(train_step)/square" stack_frame_id=0}
  %constant.5021 = f32[]{:T(128)} constant(0)
  %reduce.633 = f32[]{:T(128)} reduce(%square.589, %constant.5021), dimensions={0,1,2,3}, to_apply=%region_219.244, metadata={op_name="jit(train_step)/reduce_sum" stack_frame_id=0}
  %reduce.634.clone.1 = f32[]{:T(128)} reduce(%integer_pow.401.clone.1, %constant.5021), dimensions={0,1,2,3}, to_apply=%region_185.210, metadata={op_name="jit(train_step)/reduce_sum" stack_frame_id=0}
  ROOT %tuple.667 = (f32[]{:T(128)}, f32[512,3,128,256]{3,2,1,0:T(8,128)}, f32[512,3,128,256]{3,2,1,0:T(8,128)}, f32[512,3,128,256]{3,2,1,0:T(8,128)}, f32[]{:T(128)}) tuple(%reduce.633, %add.3408.clone.1, %add.3412.clone.1, %add.3413.clone.1, %reduce.634.clone.1)
}

%region_172.197 (reduce_sum.628: f32[], reduce_sum.629: f32[]) -> f32[] {
  %reduce_sum.628 = f32[]{:T(128)} parameter(0), metadata={op_name="jit(train_step)/reduce_sum"}
  %reduce_sum.629 = f32[]{:T(128)} parameter(1), metadata={op_name="jit(train_step)/reduce_sum"}
  ROOT %reduce_sum.423 = f32[]{:T(128)} add(%reduce_sum.628, %reduce_sum.629), metadata={op_name="jit(train_step)/reduce_sum" stack_frame_id=0}, backend_config={"flag_configs":[],"scoped_memory_configs":[],"used_scoped_memory_configs":[],"aliasing_operands":{"lists":[]}}
}

%fused_computation.781.clone.clone (param_0.4124: f32[4,128], param_1.4999: bf16[4,128,1536], param_2.4251: bf16[1536]) -> bf16[4,128,1536,1] {
  %param_1.4999 = bf16[4,128,1536]{2,1,0:T(8,128)(2,1)S(1)} parameter(1)
  %convert_element_type.3135 = f32[4,128,1536]{2,1,0:T(8,128)} convert(%param_1.4999), metadata={op_name="jit(train_step)/jvp(TransformerLinenPure.apply)/TransformerLinenPure/decoder/moe_layers.wrapped_fn/while/body/closed_call/moe_layers/convert_element_type" stack_frame_id=0}
  %param_0.4124 = f32[4,128]{1,0:T(4,128)S(1)} parameter(0)
  %mul.5720 = f32[4,128,1536]{2,1,0:T(8,128)} broadcast(%param_0.4124), dimensions={0,1}, metadata={op_name="jit(train_step)/jvp(TransformerLinenPure.apply)/TransformerLinenPure/decoder/moe_layers.wrapped_fn/while/body/closed_call/moe_layers/mul" stack_frame_id=0}
  %mul.5719 = f32[4,128,1536]{2,1,0:T(8,128)} multiply(%convert_element_type.3135, %mul.5720), metadata={op_name="jit(train_step)/jvp(TransformerLinenPure.apply)/TransformerLinenPure/decoder/moe_layers.wrapped_fn/while/body/closed_call/moe_layers/mul" stack_frame_id=0}
  %convert_element_type.3134 = bf16[4,128,1536]{2,1,0:T(8,128)(2,1)} convert(%mul.5719), metadata={op_name="jit(train_step)/jvp(TransformerLinenPure.apply)/TransformerLinenPure/decoder/moe_layers.wrapped_fn/while/body/closed_call/moe_layers/convert_element_type" stack_frame_id=0}
  %param_2.4251 = bf16[1536]{0:T(1024)(128)(2,1)S(1)} parameter(2)
  %mul.5721 = bf16[4,128,1536]{2,1,0:T(8,128)(2,1)} broadcast(%param_2.4251), dimensions={2}, metadata={op_name="jit(train_step)/jvp(TransformerLinenPure.apply)/TransformerLinenPure/decoder/moe_layers.wrapped_fn/while/body/closed_call/moe_layers/mul" stack_frame_id=0}
  %mul.5718 = bf16[4,128,1536]{2,1,0:T(8,128)(2,1)} multiply(%convert_element_type.3134, %mul.5721), metadata={op_name="jit(train_step)/jvp(TransformerLinenPure.apply)/TransformerLinenPure/decoder/moe_layers.wrapped_fn/while/body/closed_call/moe_layers/mul" stack_frame_id=0}
  ROOT %bitcast.1448 = bf16[4,128,1536,1]{2,1,0,3:T(8,128)(2,1)} bitcast(%mul.5718), metadata={op_name="jit(train_step)/jvp(TransformerLinenPure.apply)/TransformerLinenPure/decoder/moe_layers.wrapped_fn/while/body/closed_call/moe_layers/mul" stack_frame_id=0}
}

%bitcast_fusion.12 (bitcast_input.12: bf16[4,128,128,192]) -> bf16[4,128,128,192] {
  %bitcast_input.12 = bf16[4,128,128,192]{2,1,0,3:T(8,128)(2,1)S(1)} parameter(0)
  ROOT %bitcast.1470 = bf16[4,128,128,192]{2,1,0,3:T(8,128)(2,1)} bitcast(%bitcast_input.12)
}

%fused_computation.551 (param_0.4172: bf16[4,128,128,192], param_1.5039: f32[4,128], param_2.4301: bf16[4,128,1536], param_3.2969: bf16[1536]) -> (f32[], bf16[1536,128,192,1]) {
  %param_1.5039 = f32[4,128]{1,0:T(4,128)S(1)} parameter(1)
  %param_2.4301 = bf16[4,128,1536]{2,1,0:T(8,128)(2,1)S(1)} parameter(2)
  %param_3.2969 = bf16[1536]{0:T(1024)(128)(2,1)S(1)} parameter(3)
  %fusion.458.clone.1 = bf16[4,128,1536,1]{2,1,0,3:T(8,128)(2,1)} fusion(%param_1.5039, %param_2.4301, %param_3.2969), kind=kLoop, calls=%fused_computation.781.clone.clone, metadata={op_name="jit(train_step)/jvp(TransformerLinenPure.apply)/TransformerLinenPure/decoder/moe_layers.wrapped_fn/while/body/closed_call/moe_layers/mul" stack_frame_id=0}
  %param_0.4172 = bf16[4,128,128,192]{2,1,0,3:T(8,128)(2,1)S(1)} parameter(0)
  %fusion.748 = bf16[4,128,128,192]{2,1,0,3:T(8,128)(2,1)} fusion(%param_0.4172), kind=kLoop, calls=%bitcast_fusion.12
  %convolution.146.clone.1 = bf16[1536,128,192,1]{1,0,3,2:T(8,128)(2,1)} convolution(%fusion.458.clone.1, %fusion.748), window={size=192x4 pad=191_191x0_0 rhs_reversal=1x0}, dim_labels=1fb0_1io0->bf01, metadata={op_name="jit(train_step)/transpose(jvp(TransformerLinenPure.apply))/TransformerLinenPure/decoder/moe_layers.wrapped_fn/while/body/closed_call/checkpoint/moe_layers/dot_general" stack_frame_id=0}
  %bitcast.843 = bf16[1536,128,192]{1,0,2:T(8,128)(2,1)} bitcast(%convolution.146.clone.1), metadata={op_name="jit(train_step)/transpose(jvp(TransformerLinenPure.apply))/TransformerLinenPure/decoder/moe_layers.wrapped_fn/while/body/closed_call/checkpoint/moe_layers/dot_general" stack_frame_id=0}
  %broadcast_in_dim.1413 = f32[1536,128,192]{1,0,2:T(8,128)} convert(%bitcast.843), metadata={op_name="jit(train_step)/transpose(jvp(TransformerLinenPure.apply))/TransformerLinenPure/decoder/moe_layers.wrapped_fn/while/body/broadcast_in_dim" stack_frame_id=0}
  %bitcast.745 = f32[1536,1,128,192]{2,0,3,1:T(8,128)} bitcast(%broadcast_in_dim.1413), metadata={op_name="jit(train_step)/transpose(jvp(TransformerLinenPure.apply))/TransformerLinenPure/decoder/moe_layers.wrapped_fn/transpose" stack_frame_id=0}
  %square.592 = f32[1536,1,128,192]{2,0,3,1:T(8,128)} multiply(%bitcast.745, %bitcast.745), metadata={op_name="jit(train_step)/square" stack_frame_id=0}
  %constant.5033 = f32[]{:T(128)} constant(0)
  %reduce.635 = f32[]{:T(128)} reduce(%square.592, %constant.5033), dimensions={0,1,2,3}, to_apply=%region_172.197, metadata={op_name="jit(train_step)/reduce_sum" stack_frame_id=0}
  ROOT %tuple.766 = (f32[]{:T(128)}, bf16[1536,128,192,1]{1,0,3,2:T(8,128)(2,1)}) tuple(%reduce.635, %convolution.146.clone.1)
}

%region_239.264 (reduce_sum.1090: f32[], reduce_sum.1091: f32[]) -> f32[] {
  %reduce_sum.1090 = f32[]{:T(128)} parameter(0), metadata={op_name="jit(train_step)/reduce_sum"}
  %reduce_sum.1091 = f32[]{:T(128)} parameter(1), metadata={op_name="jit(train_step)/reduce_sum"}
  ROOT %reduce_sum.576 = f32[]{:T(128)} add(%reduce_sum.1090, %reduce_sum.1091), metadata={op_name="jit(train_step)/reduce_sum" stack_frame_id=0}, backend_config={"flag_configs":[],"scoped_memory_configs":[],"used_scoped_memory_configs":[],"aliasing_operands":{"lists":[]}}
}

%region_205.230 (reduce_sum.852: f32[], reduce_sum.853: f32[]) -> f32[] {
  %reduce_sum.852 = f32[]{:T(128)} parameter(0), metadata={op_name="jit(train_step)/reduce_sum"}
  %reduce_sum.853 = f32[]{:T(128)} parameter(1), metadata={op_name="jit(train_step)/reduce_sum"}
  ROOT %reduce_sum.494 = f32[]{:T(128)} add(%reduce_sum.852, %reduce_sum.853), metadata={op_name="jit(train_step)/reduce_sum" stack_frame_id=0}, backend_config={"flag_configs":[],"scoped_memory_configs":[],"used_scoped_memory_configs":[],"aliasing_operands":{"lists":[]}}
}

%fused_computation.556 (param_0.4140: f32[], param_1.5008: f32[], param_2.4270: f32[], param_3.2938: f32[1536,1,128,192], param_4.2185: f32[1536,1,128,192], param_5.1985: f32[], param_6.1426: bf16[1536,128,192,1], param_7.1106: pred[], param_8.871: f32[1536,1,128,192]) -> (f32[], f32[1536,1,128,192], f32[1536,1,128,192], f32[1536,1,128,192], f32[]) {
