HloModule jit_train_step, is_scheduled=true, input_output_alias={ {0}: (0, {}, may-alias), {1}: (1, {}, may-alias), {2}: (2, {}, may-alias), {3}: (3, {}, may-alias), {4}: (4, {}, may-alias), {5}: (5, {}, may-alias), {6}: (6, {}, may-alias), {7}: (7, {}, may-alias), {8}: (8, {}, may-alias), {9}: (9, {}, may-alias), {10}: (10, {}, may-alias), {11}: (11, {}, may-alias), {12}: (12, {}, may-alias), {13}: (13, {}, may-alias), {14}: (14, {}, may-alias), {15}: (15, {}, may-alias), {16}: (16, {}, may-alias), {17}: (17, {}, may-alias), {18}: (18, {}, may-alias), {19}: (19, {}, may-alias), {20}: (20, {}, may-alias), {21}: (21, {}, may-alias), {22}: (22, {}, may-alias), {23}: (23, {}, may-alias), {24}: (24, {}, may-alias), {25}: (25, {}, may-alias), {26}: (26, {}, may-alias), {27}: (27, {}, may-alias), {28}: (28, {}, may-alias), {29}: (29, {}, may-alias), {30}: (30, {}, may-alias), {31}: (31, {}, may-alias), {32}: (32, {}, may-alias), {33}: (33, {}, may-alias), {34}: (34, {}, may-alias), {35}: (35, {}, may-alias), {36}: (36, {}, may-alias), {37}: (37, {}, may-alias), {38}: (38, {}, may-alias), {39}: (39, {}, may-alias), {40}: (40, {}, may-alias), {41}: (41, {}, may-alias), {42}: (42, {}, may-alias), {43}: (43, {}, may-alias), {44}: (44, {}, may-alias), {45}: (45, {}, may-alias), {46}: (46, {}, may-alias), {47}: (47, {}, may-alias), {48}: (48, {}, may-alias), {49}: (49, {}, may-alias), {50}: (50, {}, may-alias), {51}: (51, {}, may-alias), {52}: (52, {}, may-alias), {53}: (53, {}, may-alias), {54}: (54, {}, may-alias), {55}: (55, {}, may-alias), {56}: (56, {}, may-alias), {57}: (57, {}, may-alias), {58}: (58, {}, may-alias), {59}: (59, {}, may-alias), {60}: (60, {}, may-alias), {61}: (61, {}, may-alias), {62}: (62, {}, may-alias), {63}: (63, {}, may-alias), {64}: (64, {}, may-alias), {65}: (65, {}, may-alias), {66}: (66, {}, may-alias), {67}: (67, {}, may-alias), {68}: (68, {}, may-alias) }, entry_computation_layout={(f32[4096]{0:T(1024)}, u32[]{:T(128)}, u32[4]{0:T(128)}, u32[]{:T(128)}, u32[4]{0:T(128)}, /*index=5*/u32[]{:T(128)}, u32[4]{0:T(128)}, u32[4]{0:T(128)}, u32[4,4]{1,0:T(4,128)}, u32[4]{0:T(128)}, /*index=10*/u32[4,4]{1,0:T(4,128)}, u32[4]{0:T(128)}, u32[4,4]{1,0:T(4,128)}, u32[4]{0:T(128)}, u32[4,4]{1,0:T(4,128)}, /*index=15*/u32[4]{0:T(128)}, u32[4,4]{1,0:T(4,128)}, u32[4]{0:T(128)}, u32[4,4]{1,0:T(4,128)}, f32[1024,4,14336]{2,1,0:T(4,128)}, /*index=20*/f32[1024,4,14336]{2,1,0:T(4,128)}, f32[14336,4,1024]{2,1,0:T(4,128)}, f32[4096,4]{0,1:T(4,128)}, f32[4096,4]{0,1:T(4,128)}, u32[4]{0:T(128)}, /*index=25*/u32[4,4]{1,0:T(4,128)}, u32[4]{0:T(128)}, u32[4,4]{1,0:T(4,128)}, u32[4]{0:T(128)}, u32[4,4]{1,0:T(4,128)}, /*index=30*/f32[1024,4,8,128]{3,2,1,0:T(8,128)}, f32[32,4,128,1024]{3,2,1,0:T(8,128)}, f32[1024,4,32,128]{3,2,1,0:T(8,128)}, f32[1024,4,8,128]{3,2,1,0:T(8,128)}, f32[1024,128256]{1,0:T(8,128)}, /*index=35*/u32[]{:T(128)}, u32[4]{0:T(128)}, u32[]{:T(128)}, u32[4]{0:T(128)}, u32[]{:T(128)}, /*index=40*/u32[4]{0:T(128)}, f32[128256,1024]{1,0:T(8,128)}, s32[]{:T(128)}, f32[4096]{0:T(1024)}, f32[1024,4,14336]{2,1,0:T(4,128)}, /*index=45*/f32[1024,4,14336]{2,1,0:T(4,128)}, f32[14336,4,1024]{2,1,0:T(4,128)}, f32[4096,4]{0,1:T(4,128)}, f32[4096,4]{0,1:T(4,128)}, f32[1024,4,8,128]{3,2,1,0:T(8,128)}, /*index=50*/f32[32,4,128,1024]{3,2,1,0:T(8,128)}, f32[1024,4,32,128]{3,2,1,0:T(8,128)}, f32[1024,4,8,128]{3,2,1,0:T(8,128)}, f32[1024,128256]{1,0:T(8,128)}, f32[128256,1024]{1,0:T(8,128)}, /*index=55*/f32[4096]{0:T(1024)}, f32[1024,4,14336]{2,1,0:T(4,128)}, f32[1024,4,14336]{2,1,0:T(4,128)}, f32[14336,4,1024]{2,1,0:T(4,128)}, f32[4096,4]{0,1:T(4,128)}, /*index=60*/f32[4096,4]{0,1:T(4,128)}, f32[1024,4,8,128]{3,2,1,0:T(8,128)}, f32[32,4,128,1024]{3,2,1,0:T(8,128)}, f32[1024,4,32,128]{3,2,1,0:T(8,128)}, f32[1024,4,8,128]{3,2,1,0:T(8,128)}, /*index=65*/f32[1024,128256]{1,0:T(8,128)}, f32[128256,1024]{1,0:T(8,128)}, s32[]{:T(128)}, u32[]{:T(128)}, s32[1,128]{1,0:T(1,128)}, /*index=70*/s32[1,128]{1,0:T(1,128)}, s32[1,128]{1,0:T(1,128)}, s32[1,128]{1,0:T(1,128)}, s32[1,128]{1,0:T(1,128)})->(f32[4096]{0:T(1024)}, u32[]{:T(128)}, u32[4]{0:T(128)}, u32[]{:T(128)}, u32[4]{0:T(128)}, /*index=5*/u32[]{:T(128)}, u32[4]{0:T(128)}, u32[4]{0:T(128)}, u32[4,4]{1,0:T(4,128)}, u32[4]{0:T(128)}, /*index=10*/u32[4,4]{1,0:T(4,128)}, u32[4]{0:T(128)}, u32[4,4]{1,0:T(4,128)}, u32[4]{0:T(128)}, u32[4,4]{1,0:T(4,128)}, /*index=15*/u32[4]{0:T(128)}, u32[4,4]{1,0:T(4,128)}, u32[4]{0:T(128)}, u32[4,4]{1,0:T(4,128)}, f32[1024,4,14336]{2,1,0:T(4,128)}, /*index=20*/f32[1024,4,14336]{2,1,0:T(4,128)}, f32[14336,4,1024]{2,1,0:T(4,128)}, f32[4096,4]{0,1:T(4,128)}, f32[4096,4]{0,1:T(4,128)}, u32[4]{0:T(128)}, /*index=25*/u32[4,4]{1,0:T(4,128)}, u32[4]{0:T(128)}, u32[4,4]{1,0:T(4,128)}, u32[4]{0:T(128)}, u32[4,4]{1,0:T(4,128)}, /*index=30*/f32[1024,4,8,128]{3,2,1,0:T(8,128)}, f32[32,4,128,1024]{3,2,1,0:T(8,128)}, f32[1024,4,32,128]{3,2,1,0:T(8,128)}, f32[1024,4,8,128]{3,2,1,0:T(8,128)}, f32[1024,128256]{1,0:T(8,128)}, /*index=35*/u32[]{:T(128)}, u32[4]{0:T(128)}, u32[]{:T(128)}, u32[4]{0:T(128)}, u32[]{:T(128)}, /*index=40*/u32[4]{0:T(128)}, f32[128256,1024]{1,0:T(8,128)}, s32[]{:T(128)}, f32[4096]{0:T(1024)}, f32[1024,4,14336]{2,1,0:T(4,128)}, /*index=45*/f32[1024,4,14336]{2,1,0:T(4,128)}, f32[14336,4,1024]{2,1,0:T(4,128)}, f32[4096,4]{0,1:T(4,128)}, f32[4096,4]{0,1:T(4,128)}, f32[1024,4,8,128]{3,2,1,0:T(8,128)}, /*index=50*/f32[32,4,128,1024]{3,2,1,0:T(8,128)}, f32[1024,4,32,128]{3,2,1,0:T(8,128)}, f32[1024,4,8,128]{3,2,1,0:T(8,128)}, f32[1024,128256]{1,0:T(8,128)}, f32[128256,1024]{1,0:T(8,128)}, /*index=55*/f32[4096]{0:T(1024)}, f32[1024,4,14336]{2,1,0:T(4,128)}, f32[1024,4,14336]{2,1,0:T(4,128)}, f32[14336,4,1024]{2,1,0:T(4,128)}, f32[4096,4]{0,1:T(4,128)}, /*index=60*/f32[4096,4]{0,1:T(4,128)}, f32[1024,4,8,128]{3,2,1,0:T(8,128)}, f32[32,4,128,1024]{3,2,1,0:T(8,128)}, f32[1024,4,32,128]{3,2,1,0:T(8,128)}, f32[1024,4,8,128]{3,2,1,0:T(8,128)}, /*index=65*/f32[1024,128256]{1,0:T(8,128)}, f32[128256,1024]{1,0:T(8,128)}, s32[]{:T(128)}, u32[]{:T(128)}, f32[]{:T(128)}, /*index=70*/f32[]{:T(128)}, f32[]{:T(128)}, f32[]{:T(128)}, f32[]{:T(128)}, f32[]{:T(128)}, /*index=75*/f32[]{:T(128)}, f32[]{:T(128)}, f32[]{:T(128)}, s32[]{:T(128)}, f32[]{:T(128)})}, allow_spmd_sharding_propagation_to_parameters={false,false,false,false,false,false,false,false,false,false,false,false,false,false,false,false,false,false,false,false,false,false,false,false,false,false,false,false,false,false,false,false,false,false,false,false,false,false,false,false,false,false,false,false,false,false,false,false,false,false,false,false,false,false,false,false,false,false,false,false,false,false,false,false,false,false,false,false,false,false,false,false,false,false}, allow_spmd_sharding_propagation_to_output={false,false,false,false,false,false,false,false,false,false,false,false,false,false,false,false,false,false,false,false,false,false,false,false,false,false,false,false,false,false,false,false,false,false,false,false,false,false,false,false,false,false,false,false,false,false,false,false,false,false,false,false,false,false,false,false,false,false,false,false,false,false,false,false,false,false,false,false,false,true,true,true,true,true,true,true,true,true,true,true}, num_partitions=4

FileNames

FunctionNames

FileLocations

StackFrames


%region_5.8.clone (reduce_sum.483: s32[], reduce_sum.487: s32[]) -> s32[] {
  %reduce_sum.483 = s32[]{:T(128)} parameter(0), metadata={op_name="jit(train_step)/jvp()/reduce_sum"}
  %reduce_sum.487 = s32[]{:T(128)} parameter(1), metadata={op_name="jit(train_step)/jvp()/reduce_sum"}
  ROOT %reduce_sum.488 = s32[]{:T(128)} add(%reduce_sum.483, %reduce_sum.487), metadata={op_name="jit(train_step)/jvp()/reduce_sum" stack_frame_id=0}, backend_config={"flag_configs":[],"scoped_memory_configs":[],"used_scoped_memory_configs":[],"aliasing_operands":{"lists":[{"indices":["0","2"]}]}}
}

%region_8.11.clone (reduce_sum.489: bf16[], reduce_sum.490: bf16[]) -> bf16[] {
  %reduce_sum.489 = bf16[]{:T(256)} parameter(0), metadata={op_name="jit(train_step)/transpose(jvp())/reduce_sum"}
  %reduce_sum.490 = bf16[]{:T(256)} parameter(1), metadata={op_name="jit(train_step)/transpose(jvp())/reduce_sum"}
  ROOT %reduce_sum.494 = bf16[]{:T(256)} add(%reduce_sum.489, %reduce_sum.490), metadata={op_name="jit(train_step)/transpose(jvp())/reduce_sum" stack_frame_id=0}, backend_config={"flag_configs":[],"scoped_memory_configs":[],"used_scoped_memory_configs":[],"aliasing_operands":{"lists":[]}}
}

%fused_computation (param_0.2: bf16[128256,1024], param_1.7: s32[1024]) -> bf16[512,1024] {
  %param_0.2 = bf16[128256,1024]{1,0:T(8,128)(2,1)} parameter(0)
  %param_1.7 = s32[1024]{0:T(1024)S(1)} parameter(1)
  %custom-call.1 = s32[1024]{0:T(1024)} custom-call(%param_1.7), custom_call_target="AssumeGatherIndicesInBound", operand_layout_constraints={s32[1024]{0:T(1024)}}, metadata={op_name="jit(train_step)/jvp()/gather" stack_frame_id=0}
  %slice.34 = s32[512]{0:T(512)} slice(%custom-call.1), slice={[0:512]}, metadata={op_name="jit(train_step)/jvp()/gather" stack_frame_id=0}
  %reshape.699 = s32[4,128]{1,0:T(4,128)} reshape(%slice.34), metadata={op_name="jit(train_step)/jvp()/gather" stack_frame_id=0}
  %transpose.245 = s32[4,128]{1,0:T(4,128)} transpose(%reshape.699), dimensions={0,1}, metadata={op_name="jit(train_step)/jvp()/gather" stack_frame_id=0}
  %gather.4 = bf16[4,128,1024]{2,1,0:T(8,128)(2,1)} gather(%param_0.2, %transpose.245), offset_dims={2}, collapsed_slice_dims={0}, start_index_map={0}, index_vector_dim=2, slice_sizes={1,1024}, metadata={op_name="jit(train_step)/jvp()/gather" stack_frame_id=0}
  %transpose.244 = bf16[4,128,1024]{2,1,0:T(8,128)(2,1)} transpose(%gather.4), dimensions={0,1,2}, metadata={op_name="jit(train_step)/jvp()/gather" stack_frame_id=0}
  ROOT %reshape.698 = bf16[512,1024]{1,0:T(8,128)(2,1)S(1)} reshape(%transpose.244), metadata={op_name="jit(train_step)/jvp()/gather" stack_frame_id=0}
}

%region_30.35.clone (scatter-add.6: bf16[], scatter-add.7: bf16[]) -> bf16[] {
  %scatter-add.6 = bf16[]{:T(256)} parameter(0), metadata={op_name="jit(train_step)/transpose(jvp())/scatter-add"}
  %scatter-add.7 = bf16[]{:T(256)} parameter(1), metadata={op_name="jit(train_step)/transpose(jvp())/scatter-add"}
  ROOT %add.488 = bf16[]{:T(256)} add(%scatter-add.6, %scatter-add.7), metadata={op_name="jit(train_step)/transpose(jvp())/add" stack_frame_id=0}, backend_config={"flag_configs":[],"scoped_memory_configs":[],"used_scoped_memory_configs":[],"aliasing_operands":{"lists":[]}}
}

%fused_computation.1 (param_0.3: bf16[128256,1024], param_1.5: s32[512], param_2.4: bf16[512,1024]) -> bf16[128256,1024] {
  %param_0.3 = bf16[128256,1024]{1,0:T(8,128)(2,1)} parameter(0)
  %param_1.5 = s32[512]{0:T(512)S(1)} parameter(1)
  %reshape.706 = s32[4,128]{1,0:T(4,128)} reshape(%param_1.5), metadata={op_name="jit(train_step)/transpose(jvp())/scatter-add" stack_frame_id=0}
  %transpose.250 = s32[4,128]{1,0:T(4,128)} transpose(%reshape.706), dimensions={0,1}, metadata={op_name="jit(train_step)/transpose(jvp())/scatter-add" stack_frame_id=0}
  %param_2.4 = bf16[512,1024]{1,0:T(8,128)(2,1)S(1)} parameter(2)
  %reshape.707 = bf16[4,128,1024]{2,1,0:T(8,128)(2,1)} reshape(%param_2.4), metadata={op_name="jit(train_step)/transpose(jvp())/scatter-add" stack_frame_id=0}
  %transpose.251 = bf16[4,128,1024]{2,1,0:T(8,128)(2,1)} transpose(%reshape.707), dimensions={0,1,2}, metadata={op_name="jit(train_step)/transpose(jvp())/scatter-add" stack_frame_id=0}
  ROOT %scatter.2 = bf16[128256,1024]{1,0:T(8,128)(2,1)} scatter(%param_0.3, %transpose.250, %transpose.251), update_window_dims={2}, inserted_window_dims={0}, scatter_dims_to_operand_dims={0}, index_vector_dim=2, to_apply=%region_30.35.clone, metadata={op_name="jit(train_step)/transpose(jvp())/scatter-add" stack_frame_id=0}
}

%add.15.clone (x.31: bf16[], y.31: bf16[]) -> bf16[] {
  %x.31 = bf16[]{:T(256)} parameter(0)
  %y.31 = bf16[]{:T(256)} parameter(1)
  ROOT %add.487 = bf16[]{:T(256)} add(%x.31, %y.31), backend_config={"flag_configs":[],"scoped_memory_configs":[],"used_scoped_memory_configs":[],"aliasing_operands":{"lists":[]}}
}

%all-reduce-scatter.7 (input.7: bf16[4096,128256]) -> bf16[1024,128256] {
  %input.7 = bf16[4096,128256]{1,0:T(8,128)(2,1)} parameter(0)
  %all-reduce.56 = bf16[4096,128256]{1,0:T(8,128)(2,1)} all-reduce(%input.7), channel_id=62, replica_groups={{0,1,2,3}}, use_global_device_ids=true, to_apply=%add.15.clone, frontend_attributes={from-cross-replica-sharding="true"}, backend_config={"flag_configs":[],"barrier_config":{"barrier_type":"CUSTOM","id":"2"},"scoped_memory_configs":[],"used_scoped_memory_configs":[]}
  %partition-id.24 = u32[] partition-id()
  %constant.747 = u32[] constant(1024)
  %multiply.188 = u32[]{:T(128)} multiply(%partition-id.24, %constant.747)
  %constant.748 = u32[] constant(0)
  ROOT %dynamic-slice.95 = bf16[1024,128256]{1,0:T(8,128)(2,1)} dynamic-slice(%all-reduce.56, %multiply.188, %constant.748), dynamic_slice_sizes={1024,128256}, backend_config={"flag_configs":[],"scoped_memory_configs":[],"indices_config":{"index_known_bits":[{"zeroes":"4294964223","ones":"0","bitwidth":"32"},{"zeroes":"4294967295","ones":"0","bitwidth":"32"}],"is_index_aligned":[]},"used_scoped_memory_configs":[]}
}

%region_29.34 (reduce_sum.244: f32[], reduce_sum.245: f32[]) -> f32[] {
  %reduce_sum.244 = f32[]{:T(128)} parameter(0), metadata={op_name="jit(train_step)/reduce_sum"}
  %reduce_sum.245 = f32[]{:T(128)} parameter(1), metadata={op_name="jit(train_step)/reduce_sum"}
  ROOT %reduce_sum.249 = f32[]{:T(128)} add(%reduce_sum.244, %reduce_sum.245), metadata={op_name="jit(train_step)/reduce_sum" stack_frame_id=0}, backend_config={"flag_configs":[],"scoped_memory_configs":[],"used_scoped_memory_configs":[],"aliasing_operands":{"lists":[]}}
}

%fused_computation.258 (param_0.1276: bf16[1024,128256]) -> f32[] {
  %param_0.1276 = bf16[1024,128256]{1,0:T(8,128)(2,1)} parameter(0)
  %convert_element_type.861 = f32[1024,128256]{1,0:T(8,128)} convert(%param_0.1276), metadata={op_name="jit(train_step)/transpose(jvp())/convert_element_type" stack_frame_id=0}
  %square.158 = f32[1024,128256]{1,0:T(8,128)} multiply(%convert_element_type.861, %convert_element_type.861), metadata={op_name="jit(train_step)/square" stack_frame_id=0}
  %constant.1262 = f32[]{:T(128)} constant(0)
  ROOT %reduce.92 = f32[]{:T(128)} reduce(%square.158, %constant.1262), dimensions={0,1}, to_apply=%region_29.34, metadata={op_name="jit(train_step)/reduce_sum" stack_frame_id=0}
}

%region_31.36 (reduce_sum.250: f32[], reduce_sum.251: f32[]) -> f32[] {
  %reduce_sum.250 = f32[]{:T(128)} parameter(0), metadata={op_name="jit(train_step)/reduce_sum"}
  %reduce_sum.251 = f32[]{:T(128)} parameter(1), metadata={op_name="jit(train_step)/reduce_sum"}
  ROOT %reduce_sum.252 = f32[]{:T(128)} add(%reduce_sum.250, %reduce_sum.251), metadata={op_name="jit(train_step)/reduce_sum" stack_frame_id=0}, backend_config={"flag_configs":[],"scoped_memory_configs":[],"used_scoped_memory_configs":[],"aliasing_operands":{"lists":[]}}
}

%fused_computation.259 (param_0.1275: bf16[128256,1024]) -> f32[] {
  %param_0.1275 = bf16[128256,1024]{1,0:T(8,128)(2,1)} parameter(0)
  %convert_element_type.863 = f32[128256,1024]{1,0:T(8,128)} convert(%param_0.1275), metadata={op_name="jit(train_step)/transpose(jvp())/convert_element_type" stack_frame_id=0}
  %square.160 = f32[128256,1024]{1,0:T(8,128)} multiply(%convert_element_type.863, %convert_element_type.863), metadata={op_name="jit(train_step)/square" stack_frame_id=0}
  %constant.1261 = f32[]{:T(128)} constant(0)
  ROOT %reduce.93 = f32[]{:T(128)} reduce(%square.160, %constant.1261), dimensions={0,1}, to_apply=%region_31.36, metadata={op_name="jit(train_step)/reduce_sum" stack_frame_id=0}
}

%region_57.62 (reduce_sum.385: f32[], reduce_sum.389: f32[]) -> f32[] {
  %reduce_sum.385 = f32[]{:T(128)} parameter(0), metadata={op_name="jit(train_step)/reduce_sum"}
  %reduce_sum.389 = f32[]{:T(128)} parameter(1), metadata={op_name="jit(train_step)/reduce_sum"}
  ROOT %reduce_sum.390 = f32[]{:T(128)} add(%reduce_sum.385, %reduce_sum.389), metadata={op_name="jit(train_step)/reduce_sum" stack_frame_id=0}, backend_config={"flag_configs":[],"scoped_memory_configs":[],"used_scoped_memory_configs":[],"aliasing_operands":{"lists":[]}}
}

%region_43.48 (reduce_sum.313: f32[], reduce_sum.314: f32[]) -> f32[] {
  %reduce_sum.313 = f32[]{:T(128)} parameter(0), metadata={op_name="jit(train_step)/reduce_sum"}
  %reduce_sum.314 = f32[]{:T(128)} parameter(1), metadata={op_name="jit(train_step)/reduce_sum"}
  ROOT %reduce_sum.315 = f32[]{:T(128)} add(%reduce_sum.313, %reduce_sum.314), metadata={op_name="jit(train_step)/reduce_sum" stack_frame_id=0}, backend_config={"flag_configs":[],"scoped_memory_configs":[],"used_scoped_memory_configs":[],"aliasing_operands":{"lists":[]}}
}

%fused_computation.260 (param_0.1261: f32[128256,1024], param_1.1399: f32[], param_2.1092: f32[], param_3.735: f32[], param_4.452: f32[128256,1024], param_5.398: f32[], param_6.253: bf16[128256,1024], param_7.169: pred[], param_8.98: f32[128256,1024]) -> (f32[], f32[128256,1024], f32[128256,1024], f32[128256,1024], f32[]) {
  %param_0.1261 = f32[128256,1024]{1,0:T(8,128)} parameter(0)
  %param_3.735 = f32[]{:T(128)S(6)} parameter(3)
  %mul.1885.clone.1 = f32[128256,1024]{1,0:T(8,128)} broadcast(%param_3.735), dimensions={}, metadata={op_name="jit(train_step)/mul" stack_frame_id=0}
  %param_7.169 = pred[]{:T(512)S(6)} parameter(7)
  %select_n.254.clone.1 = pred[128256,1024]{1,0:T(8,128)(4,1)} broadcast(%param_7.169), dimensions={}, metadata={op_name="jit(train_step)/select_n" stack_frame_id=0}
  %param_6.253 = bf16[128256,1024]{1,0:T(8,128)(2,1)} parameter(6)
  %convert_element_type.970.clone.1 = f32[128256,1024]{1,0:T(8,128)} convert(%param_6.253), metadata={op_name="jit(train_step)/transpose(jvp())/convert_element_type" stack_frame_id=0}
  %param_5.398 = f32[]{:T(128)} parameter(5)
  %div.763.clone.1 = f32[128256,1024]{1,0:T(8,128)} broadcast(%param_5.398), dimensions={}, metadata={op_name="jit(train_step)/div" stack_frame_id=0}
  %div.762.clone.1 = f32[128256,1024]{1,0:T(8,128)} divide(%convert_element_type.970.clone.1, %div.763.clone.1), metadata={op_name="jit(train_step)/div" stack_frame_id=0}
  %select_n.253.clone.1 = f32[128256,1024]{1,0:T(8,128)} select(%select_n.254.clone.1, %convert_element_type.970.clone.1, %div.762.clone.1), metadata={op_name="jit(train_step)/select_n" stack_frame_id=0}
  %constant.1190.clone.1 = f32[]{:T(128)} constant(0.1)
  %broadcast.624.clone.1 = f32[128256,1024]{1,0:T(8,128)} broadcast(%constant.1190.clone.1), dimensions={}, metadata={op_name="broadcast.63"}
  %mul.1891.clone.1 = f32[128256,1024]{1,0:T(8,128)} multiply(%select_n.253.clone.1, %broadcast.624.clone.1), metadata={op_name="jit(train_step)/mul" stack_frame_id=0}
  %param_8.98 = f32[128256,1024]{1,0:T(8,128)} parameter(8)
  %constant.1194.clone.1 = f32[]{:T(128)} constant(0.9)
  %mul.1892.clone.1 = f32[128256,1024]{1,0:T(8,128)} broadcast(%constant.1194.clone.1), dimensions={}, metadata={op_name="jit(train_step)/mul" stack_frame_id=0}
  %mul.1890.clone.1 = f32[128256,1024]{1,0:T(8,128)} multiply(%param_8.98, %mul.1892.clone.1), metadata={op_name="jit(train_step)/mul" stack_frame_id=0}
  %add.803.clone.1 = f32[128256,1024]{1,0:T(8,128)} add(%mul.1891.clone.1, %mul.1890.clone.1), metadata={op_name="jit(train_step)/add" stack_frame_id=0}
  %param_2.1092 = f32[]{:T(128)S(6)} parameter(2)
  %div.759.clone.1 = f32[128256,1024]{1,0:T(8,128)} broadcast(%param_2.1092), dimensions={}, metadata={op_name="jit(train_step)/div" stack_frame_id=0}
  %integer_pow.63.clone.1 = f32[128256,1024]{1,0:T(8,128)} multiply(%select_n.253.clone.1, %select_n.253.clone.1), metadata={op_name="jit(train_step)/integer_pow" stack_frame_id=0}
  %constant.1193.clone.1 = f32[]{:T(128)} constant(0.05)
  %mul.1889.clone.1 = f32[128256,1024]{1,0:T(8,128)} broadcast(%constant.1193.clone.1), dimensions={}, metadata={op_name="jit(train_step)/mul" stack_frame_id=0}
  %mul.1887.clone.1 = f32[128256,1024]{1,0:T(8,128)} multiply(%integer_pow.63.clone.1, %mul.1889.clone.1), metadata={op_name="jit(train_step)/mul" stack_frame_id=0}
  %param_4.452 = f32[128256,1024]{1,0:T(8,128)} parameter(4)
  %constant.1192.clone.1 = f32[]{:T(128)} constant(0.95)
  %mul.1888.clone.1 = f32[128256,1024]{1,0:T(8,128)} broadcast(%constant.1192.clone.1), dimensions={}, metadata={op_name="jit(train_step)/mul" stack_frame_id=0}
  %mul.1886.clone.1 = f32[128256,1024]{1,0:T(8,128)} multiply(%param_4.452, %mul.1888.clone.1), metadata={op_name="jit(train_step)/mul" stack_frame_id=0}
  %add.802.clone.1 = f32[128256,1024]{1,0:T(8,128)} add(%mul.1887.clone.1, %mul.1886.clone.1), metadata={op_name="jit(train_step)/add" stack_frame_id=0}
  %param_1.1399 = f32[]{:T(128)S(6)} parameter(1)
  %div.758.clone.1 = f32[128256,1024]{1,0:T(8,128)} broadcast(%param_1.1399), dimensions={}, metadata={op_name="jit(train_step)/div" stack_frame_id=0}
  %div.757.clone.1 = f32[128256,1024]{1,0:T(8,128)} divide(%add.802.clone.1, %div.758.clone.1), metadata={op_name="jit(train_step)/div" stack_frame_id=0}
  %sqrt.61.clone.1 = f32[128256,1024]{1,0:T(8,128)} sqrt(%div.757.clone.1), metadata={op_name="jit(train_step)/sqrt" stack_frame_id=0}
  %constant.1191.clone.1 = f32[]{:T(128)} constant(1e-08)
  %add.801.clone.1 = f32[128256,1024]{1,0:T(8,128)} broadcast(%constant.1191.clone.1), dimensions={}, metadata={op_name="jit(train_step)/add" stack_frame_id=0}
  %add.800.clone.1 = f32[128256,1024]{1,0:T(8,128)} add(%sqrt.61.clone.1, %add.801.clone.1), metadata={op_name="jit(train_step)/add" stack_frame_id=0}
  %multiply.207.clone.1 = f32[128256,1024]{1,0:T(8,128)} multiply(%div.759.clone.1, %add.800.clone.1), metadata={op_name="multiply.32"}
  %div.756.clone.1 = f32[128256,1024]{1,0:T(8,128)} divide(%add.803.clone.1, %multiply.207.clone.1), metadata={op_name="jit(train_step)/div" stack_frame_id=0}
  %mul.1884.clone.1 = f32[128256,1024]{1,0:T(8,128)} multiply(%param_0.1261, %broadcast.624.clone.1), metadata={op_name="jit(train_step)/mul" stack_frame_id=0}
  %add.799.clone.1 = f32[128256,1024]{1,0:T(8,128)} add(%div.756.clone.1, %mul.1884.clone.1), metadata={op_name="jit(train_step)/add" stack_frame_id=0}
  %mul.1883.clone.1 = f32[128256,1024]{1,0:T(8,128)} multiply(%mul.1885.clone.1, %add.799.clone.1), metadata={op_name="jit(train_step)/mul" stack_frame_id=0}
  %add.798.clone.1 = f32[128256,1024]{1,0:T(8,128)} add(%param_0.1261, %mul.1883.clone.1), metadata={op_name="jit(train_step)/add" stack_frame_id=0}
  %square.161 = f32[128256,1024]{1,0:T(8,128)} multiply(%add.798.clone.1, %add.798.clone.1), metadata={op_name="jit(train_step)/square" stack_frame_id=0}
  %constant.1247 = f32[]{:T(128)} constant(0)
  %reduce.94 = f32[]{:T(128)} reduce(%square.161, %constant.1247), dimensions={0,1}, to_apply=%region_57.62, metadata={op_name="jit(train_step)/reduce_sum" stack_frame_id=0}
  %reduce.96.clone.1 = f32[]{:T(128)} reduce(%integer_pow.63.clone.1, %constant.1247), dimensions={0,1}, to_apply=%region_43.48, metadata={op_name="jit(train_step)/reduce_sum" stack_frame_id=0}
  ROOT %tuple.134 = (f32[]{:T(128)}, f32[128256,1024]{1,0:T(8,128)}, f32[128256,1024]{1,0:T(8,128)}, f32[128256,1024]{1,0:T(8,128)}, f32[]{:T(128)}) tuple(%reduce.94, %add.798.clone.1, %add.802.clone.1, %add.803.clone.1, %reduce.96.clone.1)
}

%region_56.61 (reduce_sum.382: f32[], reduce_sum.383: f32[]) -> f32[] {
  %reduce_sum.382 = f32[]{:T(128)} parameter(0), metadata={op_name="jit(train_step)/reduce_sum"}
  %reduce_sum.383 = f32[]{:T(128)} parameter(1), metadata={op_name="jit(train_step)/reduce_sum"}
  ROOT %reduce_sum.384 = f32[]{:T(128)} add(%reduce_sum.382, %reduce_sum.383), metadata={op_name="jit(train_step)/reduce_sum" stack_frame_id=0}, backend_config={"flag_configs":[],"scoped_memory_configs":[],"used_scoped_memory_configs":[],"aliasing_operands":{"lists":[]}}
}

%region_42.47 (reduce_sum.307: f32[], reduce_sum.308: f32[]) -> f32[] {
  %reduce_sum.307 = f32[]{:T(128)} parameter(0), metadata={op_name="jit(train_step)/reduce_sum"}
  %reduce_sum.308 = f32[]{:T(128)} parameter(1), metadata={op_name="jit(train_step)/reduce_sum"}
  ROOT %reduce_sum.312 = f32[]{:T(128)} add(%reduce_sum.307, %reduce_sum.308), metadata={op_name="jit(train_step)/reduce_sum" stack_frame_id=0}, backend_config={"flag_configs":[],"scoped_memory_configs":[],"used_scoped_memory_configs":[],"aliasing_operands":{"lists":[]}}
}

%fused_computation.261 (param_0.1262: f32[1024,128256], param_1.1400: f32[], param_2.1093: f32[], param_3.736: f32[], param_4.453: f32[1024,128256], param_5.399: f32[], param_6.254: bf16[1024,128256], param_7.170: pred[], param_8.99: f32[1024,128256]) -> (f32[], f32[1024,128256], f32[1024,128256], f32[1024,128256], f32[]) {
  %param_0.1262 = f32[1024,128256]{1,0:T(8,128)} parameter(0)
  %param_3.736 = f32[]{:T(128)S(6)} parameter(3)
  %mul.1895.clone.1 = f32[1024,128256]{1,0:T(8,128)} broadcast(%param_3.736), dimensions={}, metadata={op_name="jit(train_step)/mul" stack_frame_id=0}
  %param_7.170 = pred[]{:T(512)S(6)} parameter(7)
  %select_n.258.clone.1 = pred[1024,128256]{1,0:T(8,128)(4,1)} broadcast(%param_7.170), dimensions={}, metadata={op_name="jit(train_step)/select_n" stack_frame_id=0}
  %param_6.254 = bf16[1024,128256]{1,0:T(8,128)(2,1)} parameter(6)
  %convert_element_type.972.clone.1 = f32[1024,128256]{1,0:T(8,128)} convert(%param_6.254), metadata={op_name="jit(train_step)/transpose(jvp())/convert_element_type" stack_frame_id=0}
  %param_5.399 = f32[]{:T(128)} parameter(5)
  %div.771.clone.1 = f32[1024,128256]{1,0:T(8,128)} broadcast(%param_5.399), dimensions={}, metadata={op_name="jit(train_step)/div" stack_frame_id=0}
  %div.770.clone.1 = f32[1024,128256]{1,0:T(8,128)} divide(%convert_element_type.972.clone.1, %div.771.clone.1), metadata={op_name="jit(train_step)/div" stack_frame_id=0}
  %select_n.257.clone.1 = f32[1024,128256]{1,0:T(8,128)} select(%select_n.258.clone.1, %convert_element_type.972.clone.1, %div.770.clone.1), metadata={op_name="jit(train_step)/select_n" stack_frame_id=0}
  %constant.1196.clone.1 = f32[]{:T(128)} constant(0.1)
  %broadcast.626.clone.1 = f32[1024,128256]{1,0:T(8,128)} broadcast(%constant.1196.clone.1), dimensions={}, metadata={op_name="broadcast.64"}
  %mul.1901.clone.1 = f32[1024,128256]{1,0:T(8,128)} multiply(%select_n.257.clone.1, %broadcast.626.clone.1), metadata={op_name="jit(train_step)/mul" stack_frame_id=0}
  %param_8.99 = f32[1024,128256]{1,0:T(8,128)} parameter(8)
  %constant.1200.clone.1 = f32[]{:T(128)} constant(0.9)
  %mul.1902.clone.1 = f32[1024,128256]{1,0:T(8,128)} broadcast(%constant.1200.clone.1), dimensions={}, metadata={op_name="jit(train_step)/mul" stack_frame_id=0}
  %mul.1900.clone.1 = f32[1024,128256]{1,0:T(8,128)} multiply(%param_8.99, %mul.1902.clone.1), metadata={op_name="jit(train_step)/mul" stack_frame_id=0}
  %add.809.clone.1 = f32[1024,128256]{1,0:T(8,128)} add(%mul.1901.clone.1, %mul.1900.clone.1), metadata={op_name="jit(train_step)/add" stack_frame_id=0}
  %param_2.1093 = f32[]{:T(128)S(6)} parameter(2)
  %div.767.clone.1 = f32[1024,128256]{1,0:T(8,128)} broadcast(%param_2.1093), dimensions={}, metadata={op_name="jit(train_step)/div" stack_frame_id=0}
  %integer_pow.64.clone.1 = f32[1024,128256]{1,0:T(8,128)} multiply(%select_n.257.clone.1, %select_n.257.clone.1), metadata={op_name="jit(train_step)/integer_pow" stack_frame_id=0}
  %constant.1199.clone.1 = f32[]{:T(128)} constant(0.05)
  %mul.1899.clone.1 = f32[1024,128256]{1,0:T(8,128)} broadcast(%constant.1199.clone.1), dimensions={}, metadata={op_name="jit(train_step)/mul" stack_frame_id=0}
  %mul.1897.clone.1 = f32[1024,128256]{1,0:T(8,128)} multiply(%integer_pow.64.clone.1, %mul.1899.clone.1), metadata={op_name="jit(train_step)/mul" stack_frame_id=0}
  %param_4.453 = f32[1024,128256]{1,0:T(8,128)} parameter(4)
  %constant.1198.clone.1 = f32[]{:T(128)} constant(0.95)
  %mul.1898.clone.1 = f32[1024,128256]{1,0:T(8,128)} broadcast(%constant.1198.clone.1), dimensions={}, metadata={op_name="jit(train_step)/mul" stack_frame_id=0}
  %mul.1896.clone.1 = f32[1024,128256]{1,0:T(8,128)} multiply(%param_4.453, %mul.1898.clone.1), metadata={op_name="jit(train_step)/mul" stack_frame_id=0}
  %add.808.clone.1 = f32[1024,128256]{1,0:T(8,128)} add(%mul.1897.clone.1, %mul.1896.clone.1), metadata={op_name="jit(train_step)/add" stack_frame_id=0}
  %param_1.1400 = f32[]{:T(128)S(6)} parameter(1)
  %div.766.clone.1 = f32[1024,128256]{1,0:T(8,128)} broadcast(%param_1.1400), dimensions={}, metadata={op_name="jit(train_step)/div" stack_frame_id=0}
  %div.765.clone.1 = f32[1024,128256]{1,0:T(8,128)} divide(%add.808.clone.1, %div.766.clone.1), metadata={op_name="jit(train_step)/div" stack_frame_id=0}
  %sqrt.62.clone.1 = f32[1024,128256]{1,0:T(8,128)} sqrt(%div.765.clone.1), metadata={op_name="jit(train_step)/sqrt" stack_frame_id=0}
  %constant.1197.clone.1 = f32[]{:T(128)} constant(1e-08)
  %add.807.clone.1 = f32[1024,128256]{1,0:T(8,128)} broadcast(%constant.1197.clone.1), dimensions={}, metadata={op_name="jit(train_step)/add" stack_frame_id=0}
  %add.806.clone.1 = f32[1024,128256]{1,0:T(8,128)} add(%sqrt.62.clone.1, %add.807.clone.1), metadata={op_name="jit(train_step)/add" stack_frame_id=0}
  %multiply.208.clone.1 = f32[1024,128256]{1,0:T(8,128)} multiply(%div.767.clone.1, %add.806.clone.1), metadata={op_name="multiply.31"}
  %div.764.clone.1 = f32[1024,128256]{1,0:T(8,128)} divide(%add.809.clone.1, %multiply.208.clone.1), metadata={op_name="jit(train_step)/div" stack_frame_id=0}
  %mul.1894.clone.1 = f32[1024,128256]{1,0:T(8,128)} multiply(%param_0.1262, %broadcast.626.clone.1), metadata={op_name="jit(train_step)/mul" stack_frame_id=0}
  %add.805.clone.1 = f32[1024,128256]{1,0:T(8,128)} add(%div.764.clone.1, %mul.1894.clone.1), metadata={op_name="jit(train_step)/add" stack_frame_id=0}
  %mul.1893.clone.1 = f32[1024,128256]{1,0:T(8,128)} multiply(%mul.1895.clone.1, %add.805.clone.1), metadata={op_name="jit(train_step)/mul" stack_frame_id=0}
  %add.804.clone.1 = f32[1024,128256]{1,0:T(8,128)} add(%param_0.1262, %mul.1893.clone.1), metadata={op_name="jit(train_step)/add" stack_frame_id=0}
  %square.162 = f32[1024,128256]{1,0:T(8,128)} multiply(%add.804.clone.1, %add.804.clone.1), metadata={op_name="jit(train_step)/square" stack_frame_id=0}
  %constant.1248 = f32[]{:T(128)} constant(0)
  %reduce.95 = f32[]{:T(128)} reduce(%square.162, %constant.1248), dimensions={0,1}, to_apply=%region_56.61, metadata={op_name="jit(train_step)/reduce_sum" stack_frame_id=0}
  %reduce.97.clone.1 = f32[]{:T(128)} reduce(%integer_pow.64.clone.1, %constant.1248), dimensions={0,1}, to_apply=%region_42.47, metadata={op_name="jit(train_step)/reduce_sum" stack_frame_id=0}
  ROOT %tuple.135 = (f32[]{:T(128)}, f32[1024,128256]{1,0:T(8,128)}, f32[1024,128256]{1,0:T(8,128)}, f32[1024,128256]{1,0:T(8,128)}, f32[]{:T(128)}) tuple(%reduce.95, %add.804.clone.1, %add.808.clone.1, %add.809.clone.1, %reduce.97.clone.1)
}

%region_22.27 (reduce_sum.208: f32[], reduce_sum.209: f32[]) -> f32[] {
  %reduce_sum.208 = f32[]{:T(128)} parameter(0), metadata={op_name="jit(train_step)/reduce_sum"}
  %reduce_sum.209 = f32[]{:T(128)} parameter(1), metadata={op_name="jit(train_step)/reduce_sum"}
  ROOT %reduce_sum.210 = f32[]{:T(128)} add(%reduce_sum.208, %reduce_sum.209), metadata={op_name="jit(train_step)/reduce_sum" stack_frame_id=0}, backend_config={"flag_configs":[],"scoped_memory_configs":[],"used_scoped_memory_configs":[],"aliasing_operands":{"lists":[]}}
}

%fused_computation.274 (param_0.1280: f32[4,14336,1024]) -> f32[] {
  %param_0.1280 = f32[4,14336,1024]{2,0,1:T(4,128)} parameter(0)
  %bitcast.467 = f32[14336,4,1024]{2,1,0:T(4,128)} bitcast(%param_0.1280), metadata={op_name="jit(train_step)/transpose(jvp())/transpose" stack_frame_id=0}
  %square.165 = f32[14336,4,1024]{2,1,0:T(4,128)} multiply(%bitcast.467, %bitcast.467), metadata={op_name="jit(train_step)/square" stack_frame_id=0}
  %constant.1266 = f32[]{:T(128)} constant(0)
  ROOT %reduce.98 = f32[]{:T(128)} reduce(%square.165, %constant.1266), dimensions={0,1,2}, to_apply=%region_22.27, metadata={op_name="jit(train_step)/reduce_sum" stack_frame_id=0}
}

%region_21.26 (reduce_sum.202: f32[], reduce_sum.203: f32[]) -> f32[] {
  %reduce_sum.202 = f32[]{:T(128)} parameter(0), metadata={op_name="jit(train_step)/reduce_sum"}
  %reduce_sum.203 = f32[]{:T(128)} parameter(1), metadata={op_name="jit(train_step)/reduce_sum"}
  ROOT %reduce_sum.207 = f32[]{:T(128)} add(%reduce_sum.202, %reduce_sum.203), metadata={op_name="jit(train_step)/reduce_sum" stack_frame_id=0}, backend_config={"flag_configs":[],"scoped_memory_configs":[],"used_scoped_memory_configs":[],"aliasing_operands":{"lists":[]}}
}

%region_20.25 (reduce_sum.196: f32[], reduce_sum.200: f32[]) -> f32[] {
  %reduce_sum.196 = f32[]{:T(128)} parameter(0), metadata={op_name="jit(train_step)/reduce_sum"}
  %reduce_sum.200 = f32[]{:T(128)} parameter(1), metadata={op_name="jit(train_step)/reduce_sum"}
  ROOT %reduce_sum.201 = f32[]{:T(128)} add(%reduce_sum.196, %reduce_sum.200), metadata={op_name="jit(train_step)/reduce_sum" stack_frame_id=0}, backend_config={"flag_configs":[],"scoped_memory_configs":[],"used_scoped_memory_configs":[],"aliasing_operands":{"lists":[]}}
}

%fused_computation.276 (param_0.1281: f32[4,1024,14336], param_1.1412: f32[4,1024,14336]) -> (f32[], f32[]) {
  %param_0.1281 = f32[4,1024,14336]{2,0,1:T(4,128)} parameter(0)
  %bitcast.471 = f32[1024,4,14336]{2,1,0:T(4,128)} bitcast(%param_0.1281), metadata={op_name="jit(train_step)/transpose(jvp())/transpose" stack_frame_id=0}
  %square.168 = f32[1024,4,14336]{2,1,0:T(4,128)} multiply(%bitcast.471, %bitcast.471), metadata={op_name="jit(train_step)/square" stack_frame_id=0}
  %constant.1267 = f32[]{:T(128)} constant(0)
  %reduce.99 = f32[]{:T(128)} reduce(%square.168, %constant.1267), dimensions={0,1,2}, to_apply=%region_21.26, metadata={op_name="jit(train_step)/reduce_sum" stack_frame_id=0}
  %param_1.1412 = f32[4,1024,14336]{2,0,1:T(4,128)} parameter(1)
  %bitcast.475.clone.1 = f32[1024,4,14336]{2,1,0:T(4,128)} bitcast(%param_1.1412), metadata={op_name="jit(train_step)/transpose(jvp())/transpose" stack_frame_id=0}
  %square.171.clone.1 = f32[1024,4,14336]{2,1,0:T(4,128)} multiply(%bitcast.475.clone.1, %bitcast.475.clone.1), metadata={op_name="jit(train_step)/square" stack_frame_id=0}
  %reduce.100.clone.1 = f32[]{:T(128)} reduce(%square.171.clone.1, %constant.1267), dimensions={0,1,2}, to_apply=%region_20.25, metadata={op_name="jit(train_step)/reduce_sum" stack_frame_id=0}
  ROOT %tuple.154 = (f32[]{:T(128)}, f32[]{:T(128)}) tuple(%reduce.99, %reduce.100.clone.1)
}

%fused_computation.279 (param_0.803: f32[14336,4,1024]) -> bf16[4,14336,1024] {
  %param_0.803 = f32[14336,4,1024]{2,1,0:T(4,128)} parameter(0)
  %copy.235 = bf16[14336,4,1024]{2,0,1:T(8,128)(2,1)} copy(%param_0.803), sharding={devices=[1,1,4]<=[4]}, metadata={op_name="state[\'model\'][\'decoder\'][\'layers\'][\'mlp\'][\'wo\'][\'kernel\'].value"}
  ROOT %bitcast.476 = bf16[4,14336,1024]{2,1,0:T(8,128)(2,1)} bitcast(%copy.235), metadata={op_name="jit(train_step)/jvp()/transpose" stack_frame_id=0}
}

%fused_computation.280 (param_0.805: f32[1024,4,14336]) -> bf16[4,1024,14336] {
  %param_0.805 = f32[1024,4,14336]{2,1,0:T(4,128)} parameter(0)
  %copy.236 = bf16[1024,4,14336]{2,0,1:T(8,128)(2,1)} copy(%param_0.805), sharding={devices=[4,1,1]<=[4]}, metadata={op_name="state[\'model\'][\'decoder\'][\'layers\'][\'mlp\'][\'wi_1\'][\'kernel\'].value"}
  ROOT %bitcast.477 = bf16[4,1024,14336]{2,1,0:T(8,128)(2,1)} bitcast(%copy.236), metadata={op_name="jit(train_step)/jvp()/transpose" stack_frame_id=0}
}

%fused_computation.281 (param_0.807: f32[1024,4,14336]) -> bf16[4,1024,14336] {
  %param_0.807 = f32[1024,4,14336]{2,1,0:T(4,128)} parameter(0)
  %copy.237 = bf16[1024,4,14336]{2,0,1:T(8,128)(2,1)} copy(%param_0.807), sharding={devices=[4,1,1]<=[4]}, metadata={op_name="state[\'model\'][\'decoder\'][\'layers\'][\'mlp\'][\'wi_0\'][\'kernel\'].value"}
  ROOT %bitcast.478 = bf16[4,1024,14336]{2,1,0:T(8,128)(2,1)} bitcast(%copy.237), metadata={op_name="jit(train_step)/jvp()/transpose" stack_frame_id=0}
}

%region_49.54 (reduce_sum.343: f32[], reduce_sum.347: f32[]) -> f32[] {
  %reduce_sum.343 = f32[]{:T(128)} parameter(0), metadata={op_name="jit(train_step)/reduce_sum"}
  %reduce_sum.347 = f32[]{:T(128)} parameter(1), metadata={op_name="jit(train_step)/reduce_sum"}
  ROOT %reduce_sum.348 = f32[]{:T(128)} add(%reduce_sum.343, %reduce_sum.347), metadata={op_name="jit(train_step)/reduce_sum" stack_frame_id=0}, backend_config={"flag_configs":[],"scoped_memory_configs":[],"used_scoped_memory_configs":[],"aliasing_operands":{"lists":[]}}
}

%region_35.40 (reduce_sum.271: f32[], reduce_sum.272: f32[]) -> f32[] {
  %reduce_sum.271 = f32[]{:T(128)} parameter(0), metadata={op_name="jit(train_step)/reduce_sum"}
  %reduce_sum.272 = f32[]{:T(128)} parameter(1), metadata={op_name="jit(train_step)/reduce_sum"}
  ROOT %reduce_sum.273 = f32[]{:T(128)} add(%reduce_sum.271, %reduce_sum.272), metadata={op_name="jit(train_step)/reduce_sum" stack_frame_id=0}, backend_config={"flag_configs":[],"scoped_memory_configs":[],"used_scoped_memory_configs":[],"aliasing_operands":{"lists":[]}}
}

%fused_computation.282 (param_0.1269: f32[14336,4,1024], param_1.1407: f32[], param_2.1100: f32[], param_3.743: f32[], param_4.460: f32[14336,4,1024], param_5.406: f32[], param_6.261: f32[4,14336,1024], param_7.177: pred[], param_8.106: f32[14336,4,1024]) -> (f32[], f32[14336,4,1024], f32[14336,4,1024], f32[14336,4,1024], f32[]) {
  %param_0.1269 = f32[14336,4,1024]{2,1,0:T(4,128)} parameter(0)
  %param_3.743 = f32[]{:T(128)S(6)} parameter(3)
  %mul.1939.clone.1 = f32[14336,4,1024]{2,1,0:T(4,128)} broadcast(%param_3.743), dimensions={}, metadata={op_name="jit(train_step)/mul" stack_frame_id=0}
  %param_7.177 = pred[]{:T(512)S(6)} parameter(7)
  %select_n.278.clone.1 = pred[14336,4,1024]{2,1,0:T(4,128)(4,1)} broadcast(%param_7.177), dimensions={}, metadata={op_name="jit(train_step)/select_n" stack_frame_id=0}
  %param_6.261 = f32[4,14336,1024]{2,0,1:T(4,128)} parameter(6)
  %bitcast.623.clone.1 = f32[14336,4,1024]{2,1,0:T(4,128)} bitcast(%param_6.261), metadata={op_name="jit(train_step)/transpose(jvp())/transpose" stack_frame_id=0}
  %param_5.406 = f32[]{:T(128)} parameter(5)
  %div.811.clone.1 = f32[14336,4,1024]{2,1,0:T(4,128)} broadcast(%param_5.406), dimensions={}, metadata={op_name="jit(train_step)/div" stack_frame_id=0}
  %div.810.clone.1 = f32[14336,4,1024]{2,1,0:T(4,128)} divide(%bitcast.623.clone.1, %div.811.clone.1), metadata={op_name="jit(train_step)/div" stack_frame_id=0}
  %select_n.277.clone.1 = f32[14336,4,1024]{2,1,0:T(4,128)} select(%select_n.278.clone.1, %bitcast.623.clone.1, %div.810.clone.1), metadata={op_name="jit(train_step)/select_n" stack_frame_id=0}
  %constant.1226.clone.1 = f32[]{:T(128)} constant(0.1)
  %broadcast.644.clone.1 = f32[14336,4,1024]{2,1,0:T(4,128)} broadcast(%constant.1226.clone.1), dimensions={}, metadata={op_name="broadcast.71"}
  %mul.1945.clone.1 = f32[14336,4,1024]{2,1,0:T(4,128)} multiply(%select_n.277.clone.1, %broadcast.644.clone.1), metadata={op_name="jit(train_step)/mul" stack_frame_id=0}
  %param_8.106 = f32[14336,4,1024]{2,1,0:T(4,128)} parameter(8)
  %constant.1230.clone.1 = f32[]{:T(128)} constant(0.9)
  %mul.1946.clone.1 = f32[14336,4,1024]{2,1,0:T(4,128)} broadcast(%constant.1230.clone.1), dimensions={}, metadata={op_name="jit(train_step)/mul" stack_frame_id=0}
  %mul.1944.clone.1 = f32[14336,4,1024]{2,1,0:T(4,128)} multiply(%param_8.106, %mul.1946.clone.1), metadata={op_name="jit(train_step)/mul" stack_frame_id=0}
  %add.837.clone.1 = f32[14336,4,1024]{2,1,0:T(4,128)} add(%mul.1945.clone.1, %mul.1944.clone.1), metadata={op_name="jit(train_step)/add" stack_frame_id=0}
  %param_2.1100 = f32[]{:T(128)S(6)} parameter(2)
  %div.807.clone.1 = f32[14336,4,1024]{2,1,0:T(4,128)} broadcast(%param_2.1100), dimensions={}, metadata={op_name="jit(train_step)/div" stack_frame_id=0}
  %integer_pow.69.clone.1 = f32[14336,4,1024]{2,1,0:T(4,128)} multiply(%select_n.277.clone.1, %select_n.277.clone.1), metadata={op_name="jit(train_step)/integer_pow" stack_frame_id=0}
  %constant.1229.clone.1 = f32[]{:T(128)} constant(0.05)
  %mul.1943.clone.1 = f32[14336,4,1024]{2,1,0:T(4,128)} broadcast(%constant.1229.clone.1), dimensions={}, metadata={op_name="jit(train_step)/mul" stack_frame_id=0}
  %mul.1941.clone.1 = f32[14336,4,1024]{2,1,0:T(4,128)} multiply(%integer_pow.69.clone.1, %mul.1943.clone.1), metadata={op_name="jit(train_step)/mul" stack_frame_id=0}
  %param_4.460 = f32[14336,4,1024]{2,1,0:T(4,128)} parameter(4)
  %constant.1228.clone.1 = f32[]{:T(128)} constant(0.95)
  %mul.1942.clone.1 = f32[14336,4,1024]{2,1,0:T(4,128)} broadcast(%constant.1228.clone.1), dimensions={}, metadata={op_name="jit(train_step)/mul" stack_frame_id=0}
  %mul.1940.clone.1 = f32[14336,4,1024]{2,1,0:T(4,128)} multiply(%param_4.460, %mul.1942.clone.1), metadata={op_name="jit(train_step)/mul" stack_frame_id=0}
  %add.836.clone.1 = f32[14336,4,1024]{2,1,0:T(4,128)} add(%mul.1941.clone.1, %mul.1940.clone.1), metadata={op_name="jit(train_step)/add" stack_frame_id=0}
  %param_1.1407 = f32[]{:T(128)S(6)} parameter(1)
  %div.806.clone.1 = f32[14336,4,1024]{2,1,0:T(4,128)} broadcast(%param_1.1407), dimensions={}, metadata={op_name="jit(train_step)/div" stack_frame_id=0}
  %div.805.clone.1 = f32[14336,4,1024]{2,1,0:T(4,128)} divide(%add.836.clone.1, %div.806.clone.1), metadata={op_name="jit(train_step)/div" stack_frame_id=0}
  %sqrt.67.clone.1 = f32[14336,4,1024]{2,1,0:T(4,128)} sqrt(%div.805.clone.1), metadata={op_name="jit(train_step)/sqrt" stack_frame_id=0}
  %constant.1227.clone.1 = f32[]{:T(128)} constant(1e-08)
  %add.835.clone.1 = f32[14336,4,1024]{2,1,0:T(4,128)} broadcast(%constant.1227.clone.1), dimensions={}, metadata={op_name="jit(train_step)/add" stack_frame_id=0}
  %add.834.clone.1 = f32[14336,4,1024]{2,1,0:T(4,128)} add(%sqrt.67.clone.1, %add.835.clone.1), metadata={op_name="jit(train_step)/add" stack_frame_id=0}
  %multiply.213.clone.1 = f32[14336,4,1024]{2,1,0:T(4,128)} multiply(%div.807.clone.1, %add.834.clone.1), metadata={op_name="multiply.24"}
  %div.804.clone.1 = f32[14336,4,1024]{2,1,0:T(4,128)} divide(%add.837.clone.1, %multiply.213.clone.1), metadata={op_name="jit(train_step)/div" stack_frame_id=0}
  %mul.1938.clone.1 = f32[14336,4,1024]{2,1,0:T(4,128)} multiply(%param_0.1269, %broadcast.644.clone.1), metadata={op_name="jit(train_step)/mul" stack_frame_id=0}
  %add.833.clone.1 = f32[14336,4,1024]{2,1,0:T(4,128)} add(%div.804.clone.1, %mul.1938.clone.1), metadata={op_name="jit(train_step)/add" stack_frame_id=0}
  %mul.1937.clone.1 = f32[14336,4,1024]{2,1,0:T(4,128)} multiply(%mul.1939.clone.1, %add.833.clone.1), metadata={op_name="jit(train_step)/mul" stack_frame_id=0}
  %add.832.clone.1 = f32[14336,4,1024]{2,1,0:T(4,128)} add(%param_0.1269, %mul.1937.clone.1), metadata={op_name="jit(train_step)/add" stack_frame_id=0}
  %square.172 = f32[14336,4,1024]{2,1,0:T(4,128)} multiply(%add.832.clone.1, %add.832.clone.1), metadata={op_name="jit(train_step)/square" stack_frame_id=0}
  %constant.1255 = f32[]{:T(128)} constant(0)
  %reduce.101 = f32[]{:T(128)} reduce(%square.172, %constant.1255), dimensions={0,1,2}, to_apply=%region_49.54, metadata={op_name="jit(train_step)/reduce_sum" stack_frame_id=0}
  %reduce.104.clone.1 = f32[]{:T(128)} reduce(%integer_pow.69.clone.1, %constant.1255), dimensions={0,1,2}, to_apply=%region_35.40, metadata={op_name="jit(train_step)/reduce_sum" stack_frame_id=0}
  ROOT %tuple.136 = (f32[]{:T(128)}, f32[14336,4,1024]{2,1,0:T(4,128)}, f32[14336,4,1024]{2,1,0:T(4,128)}, f32[14336,4,1024]{2,1,0:T(4,128)}, f32[]{:T(128)}) tuple(%reduce.101, %add.832.clone.1, %add.836.clone.1, %add.837.clone.1, %reduce.104.clone.1)
}

%region_48.53 (reduce_sum.340: f32[], reduce_sum.341: f32[]) -> f32[] {
  %reduce_sum.340 = f32[]{:T(128)} parameter(0), metadata={op_name="jit(train_step)/reduce_sum"}
  %reduce_sum.341 = f32[]{:T(128)} parameter(1), metadata={op_name="jit(train_step)/reduce_sum"}
  ROOT %reduce_sum.342 = f32[]{:T(128)} add(%reduce_sum.340, %reduce_sum.341), metadata={op_name="jit(train_step)/reduce_sum" stack_frame_id=0}, backend_config={"flag_configs":[],"scoped_memory_configs":[],"used_scoped_memory_configs":[],"aliasing_operands":{"lists":[]}}
}

%region_34.39 (reduce_sum.265: f32[], reduce_sum.266: f32[]) -> f32[] {
  %reduce_sum.265 = f32[]{:T(128)} parameter(0), metadata={op_name="jit(train_step)/reduce_sum"}
  %reduce_sum.266 = f32[]{:T(128)} parameter(1), metadata={op_name="jit(train_step)/reduce_sum"}
  ROOT %reduce_sum.270 = f32[]{:T(128)} add(%reduce_sum.265, %reduce_sum.266), metadata={op_name="jit(train_step)/reduce_sum" stack_frame_id=0}, backend_config={"flag_configs":[],"scoped_memory_configs":[],"used_scoped_memory_configs":[],"aliasing_operands":{"lists":[]}}
}

%fused_computation.283 (param_0.1270: f32[1024,4,14336], param_1.1408: f32[], param_2.1101: f32[], param_3.744: f32[], param_4.461: f32[1024,4,14336], param_5.407: f32[], param_6.262: f32[4,1024,14336], param_7.178: pred[], param_8.107: f32[1024,4,14336]) -> (f32[], f32[1024,4,14336], f32[1024,4,14336], f32[1024,4,14336], f32[]) {
  %param_0.1270 = f32[1024,4,14336]{2,1,0:T(4,128)} parameter(0)
  %param_3.744 = f32[]{:T(128)S(6)} parameter(3)
  %mul.1949.clone.1 = f32[1024,4,14336]{2,1,0:T(4,128)} broadcast(%param_3.744), dimensions={}, metadata={op_name="jit(train_step)/mul" stack_frame_id=0}
  %param_7.178 = pred[]{:T(512)S(6)} parameter(7)
  %select_n.282.clone.1 = pred[1024,4,14336]{2,1,0:T(4,128)(4,1)} broadcast(%param_7.178), dimensions={}, metadata={op_name="jit(train_step)/select_n" stack_frame_id=0}
  %param_6.262 = f32[4,1024,14336]{2,0,1:T(4,128)} parameter(6)
  %bitcast.625.clone.1 = f32[1024,4,14336]{2,1,0:T(4,128)} bitcast(%param_6.262), metadata={op_name="jit(train_step)/transpose(jvp())/transpose" stack_frame_id=0}
  %param_5.407 = f32[]{:T(128)} parameter(5)
  %div.819.clone.1 = f32[1024,4,14336]{2,1,0:T(4,128)} broadcast(%param_5.407), dimensions={}, metadata={op_name="jit(train_step)/div" stack_frame_id=0}
  %div.818.clone.1 = f32[1024,4,14336]{2,1,0:T(4,128)} divide(%bitcast.625.clone.1, %div.819.clone.1), metadata={op_name="jit(train_step)/div" stack_frame_id=0}
  %select_n.281.clone.1 = f32[1024,4,14336]{2,1,0:T(4,128)} select(%select_n.282.clone.1, %bitcast.625.clone.1, %div.818.clone.1), metadata={op_name="jit(train_step)/select_n" stack_frame_id=0}
  %constant.1232.clone.1 = f32[]{:T(128)} constant(0.1)
  %broadcast.650.clone.1 = f32[1024,4,14336]{2,1,0:T(4,128)} broadcast(%constant.1232.clone.1), dimensions={}, metadata={op_name="broadcast.73"}
  %mul.1953.clone.1 = f32[1024,4,14336]{2,1,0:T(4,128)} multiply(%select_n.281.clone.1, %broadcast.650.clone.1), metadata={op_name="jit(train_step)/mul" stack_frame_id=0}
  %param_8.107 = f32[1024,4,14336]{2,1,0:T(4,128)} parameter(8)
  %constant.1236.clone.1 = f32[]{:T(128)} constant(0.9)
  %broadcast.649.clone.1 = f32[1024,4,14336]{2,1,0:T(4,128)} broadcast(%constant.1236.clone.1), dimensions={}, metadata={op_name="broadcast.72"}
  %mul.1952.clone.1 = f32[1024,4,14336]{2,1,0:T(4,128)} multiply(%param_8.107, %broadcast.649.clone.1), metadata={op_name="jit(train_step)/mul" stack_frame_id=0}
  %add.842.clone.1 = f32[1024,4,14336]{2,1,0:T(4,128)} add(%mul.1953.clone.1, %mul.1952.clone.1), metadata={op_name="jit(train_step)/add" stack_frame_id=0}
  %param_2.1101 = f32[]{:T(128)S(6)} parameter(2)
  %div.815.clone.1 = f32[1024,4,14336]{2,1,0:T(4,128)} broadcast(%param_2.1101), dimensions={}, metadata={op_name="jit(train_step)/div" stack_frame_id=0}
  %integer_pow.70.clone.1 = f32[1024,4,14336]{2,1,0:T(4,128)} multiply(%select_n.281.clone.1, %select_n.281.clone.1), metadata={op_name="jit(train_step)/integer_pow" stack_frame_id=0}
  %constant.1235.clone.1 = f32[]{:T(128)} constant(0.05)
  %broadcast.648.clone.1 = f32[1024,4,14336]{2,1,0:T(4,128)} broadcast(%constant.1235.clone.1), dimensions={}, metadata={op_name="broadcast.62"}
  %mul.1951.clone.1 = f32[1024,4,14336]{2,1,0:T(4,128)} multiply(%integer_pow.70.clone.1, %broadcast.648.clone.1), metadata={op_name="jit(train_step)/mul" stack_frame_id=0}
  %param_4.461 = f32[1024,4,14336]{2,1,0:T(4,128)} parameter(4)
  %constant.1234.clone.1 = f32[]{:T(128)} constant(0.95)
  %broadcast.647.clone.1 = f32[1024,4,14336]{2,1,0:T(4,128)} broadcast(%constant.1234.clone.1), dimensions={}, metadata={op_name="broadcast.61"}
  %mul.1950.clone.1 = f32[1024,4,14336]{2,1,0:T(4,128)} multiply(%param_4.461, %broadcast.647.clone.1), metadata={op_name="jit(train_step)/mul" stack_frame_id=0}
  %add.841.clone.1 = f32[1024,4,14336]{2,1,0:T(4,128)} add(%mul.1951.clone.1, %mul.1950.clone.1), metadata={op_name="jit(train_step)/add" stack_frame_id=0}
  %param_1.1408 = f32[]{:T(128)S(6)} parameter(1)
  %div.814.clone.1 = f32[1024,4,14336]{2,1,0:T(4,128)} broadcast(%param_1.1408), dimensions={}, metadata={op_name="jit(train_step)/div" stack_frame_id=0}
  %div.813.clone.1 = f32[1024,4,14336]{2,1,0:T(4,128)} divide(%add.841.clone.1, %div.814.clone.1), metadata={op_name="jit(train_step)/div" stack_frame_id=0}
  %sqrt.68.clone.1 = f32[1024,4,14336]{2,1,0:T(4,128)} sqrt(%div.813.clone.1), metadata={op_name="jit(train_step)/sqrt" stack_frame_id=0}
  %constant.1233.clone.1 = f32[]{:T(128)} constant(1e-08)
  %broadcast.645.clone.1 = f32[1024,4,14336]{2,1,0:T(4,128)} broadcast(%constant.1233.clone.1), dimensions={}, metadata={op_name="broadcast.56"}
  %add.840.clone.1 = f32[1024,4,14336]{2,1,0:T(4,128)} add(%sqrt.68.clone.1, %broadcast.645.clone.1), metadata={op_name="jit(train_step)/add" stack_frame_id=0}
  %multiply.214.clone.1 = f32[1024,4,14336]{2,1,0:T(4,128)} multiply(%div.815.clone.1, %add.840.clone.1), metadata={op_name="multiply.23"}
  %div.812.clone.1 = f32[1024,4,14336]{2,1,0:T(4,128)} divide(%add.842.clone.1, %multiply.214.clone.1), metadata={op_name="jit(train_step)/div" stack_frame_id=0}
  %mul.1948.clone.1 = f32[1024,4,14336]{2,1,0:T(4,128)} multiply(%param_0.1270, %broadcast.650.clone.1), metadata={op_name="jit(train_step)/mul" stack_frame_id=0}
  %add.839.clone.1 = f32[1024,4,14336]{2,1,0:T(4,128)} add(%div.812.clone.1, %mul.1948.clone.1), metadata={op_name="jit(train_step)/add" stack_frame_id=0}
  %mul.1947.clone.1 = f32[1024,4,14336]{2,1,0:T(4,128)} multiply(%mul.1949.clone.1, %add.839.clone.1), metadata={op_name="jit(train_step)/mul" stack_frame_id=0}
  %add.838.clone.1 = f32[1024,4,14336]{2,1,0:T(4,128)} add(%param_0.1270, %mul.1947.clone.1), metadata={op_name="jit(train_step)/add" stack_frame_id=0}
  %square.173 = f32[1024,4,14336]{2,1,0:T(4,128)} multiply(%add.838.clone.1, %add.838.clone.1), metadata={op_name="jit(train_step)/square" stack_frame_id=0}
  %constant.1256 = f32[]{:T(128)} constant(0)
  %reduce.102 = f32[]{:T(128)} reduce(%square.173, %constant.1256), dimensions={0,1,2}, to_apply=%region_48.53, metadata={op_name="jit(train_step)/reduce_sum" stack_frame_id=0}
  %reduce.105.clone.1 = f32[]{:T(128)} reduce(%integer_pow.70.clone.1, %constant.1256), dimensions={0,1,2}, to_apply=%region_34.39, metadata={op_name="jit(train_step)/reduce_sum" stack_frame_id=0}
  ROOT %tuple.137 = (f32[]{:T(128)}, f32[1024,4,14336]{2,1,0:T(4,128)}, f32[1024,4,14336]{2,1,0:T(4,128)}, f32[1024,4,14336]{2,1,0:T(4,128)}, f32[]{:T(128)}) tuple(%reduce.102, %add.838.clone.1, %add.841.clone.1, %add.842.clone.1, %reduce.105.clone.1)
}

%region_47.52 (reduce_sum.334: f32[], reduce_sum.335: f32[]) -> f32[] {
  %reduce_sum.334 = f32[]{:T(128)} parameter(0), metadata={op_name="jit(train_step)/reduce_sum"}
  %reduce_sum.335 = f32[]{:T(128)} parameter(1), metadata={op_name="jit(train_step)/reduce_sum"}
  ROOT %reduce_sum.336 = f32[]{:T(128)} add(%reduce_sum.334, %reduce_sum.335), metadata={op_name="jit(train_step)/reduce_sum" stack_frame_id=0}, backend_config={"flag_configs":[],"scoped_memory_configs":[],"used_scoped_memory_configs":[],"aliasing_operands":{"lists":[]}}
}

%region_33.38 (reduce_sum.259: f32[], reduce_sum.263: f32[]) -> f32[] {
  %reduce_sum.259 = f32[]{:T(128)} parameter(0), metadata={op_name="jit(train_step)/reduce_sum"}
  %reduce_sum.263 = f32[]{:T(128)} parameter(1), metadata={op_name="jit(train_step)/reduce_sum"}
  ROOT %reduce_sum.264 = f32[]{:T(128)} add(%reduce_sum.259, %reduce_sum.263), metadata={op_name="jit(train_step)/reduce_sum" stack_frame_id=0}, backend_config={"flag_configs":[],"scoped_memory_configs":[],"used_scoped_memory_configs":[],"aliasing_operands":{"lists":[]}}
}

%fused_computation.284 (param_0.1271: f32[1024,4,14336], param_1.1409: f32[], param_2.1102: f32[], param_3.745: f32[], param_4.462: f32[1024,4,14336], param_5.408: f32[], param_6.263: f32[4,1024,14336], param_7.179: pred[], param_8.108: f32[1024,4,14336]) -> (f32[], f32[1024,4,14336], f32[1024,4,14336], f32[1024,4,14336], f32[]) {
  %param_0.1271 = f32[1024,4,14336]{2,1,0:T(4,128)} parameter(0)
  %param_3.745 = f32[]{:T(128)S(6)} parameter(3)
  %mul.1956.clone.1 = f32[1024,4,14336]{2,1,0:T(4,128)} broadcast(%param_3.745), dimensions={}, metadata={op_name="jit(train_step)/mul" stack_frame_id=0}
  %param_7.179 = pred[]{:T(512)S(6)} parameter(7)
  %select_n.286.clone.1 = pred[1024,4,14336]{2,1,0:T(4,128)(4,1)} broadcast(%param_7.179), dimensions={}, metadata={op_name="jit(train_step)/select_n" stack_frame_id=0}
  %param_6.263 = f32[4,1024,14336]{2,0,1:T(4,128)} parameter(6)
  %bitcast.627.clone.1 = f32[1024,4,14336]{2,1,0:T(4,128)} bitcast(%param_6.263), metadata={op_name="jit(train_step)/transpose(jvp())/transpose" stack_frame_id=0}
  %param_5.408 = f32[]{:T(128)} parameter(5)
  %div.827.clone.1 = f32[1024,4,14336]{2,1,0:T(4,128)} broadcast(%param_5.408), dimensions={}, metadata={op_name="jit(train_step)/div" stack_frame_id=0}
  %div.826.clone.1 = f32[1024,4,14336]{2,1,0:T(4,128)} divide(%bitcast.627.clone.1, %div.827.clone.1), metadata={op_name="jit(train_step)/div" stack_frame_id=0}
  %select_n.285.clone.1 = f32[1024,4,14336]{2,1,0:T(4,128)} select(%select_n.286.clone.1, %bitcast.627.clone.1, %div.826.clone.1), metadata={op_name="jit(train_step)/select_n" stack_frame_id=0}
  %constant.1238.clone.1 = f32[]{:T(128)} constant(0.1)
  %broadcast.656.clone.1 = f32[1024,4,14336]{2,1,0:T(4,128)} broadcast(%constant.1238.clone.1), dimensions={}, metadata={op_name="broadcast.73"}
  %mul.1960.clone.1 = f32[1024,4,14336]{2,1,0:T(4,128)} multiply(%select_n.285.clone.1, %broadcast.656.clone.1), metadata={op_name="jit(train_step)/mul" stack_frame_id=0}
  %param_8.108 = f32[1024,4,14336]{2,1,0:T(4,128)} parameter(8)
  %constant.1242.clone.1 = f32[]{:T(128)} constant(0.9)
  %broadcast.655.clone.1 = f32[1024,4,14336]{2,1,0:T(4,128)} broadcast(%constant.1242.clone.1), dimensions={}, metadata={op_name="broadcast.72"}
  %mul.1959.clone.1 = f32[1024,4,14336]{2,1,0:T(4,128)} multiply(%param_8.108, %broadcast.655.clone.1), metadata={op_name="jit(train_step)/mul" stack_frame_id=0}
  %add.847.clone.1 = f32[1024,4,14336]{2,1,0:T(4,128)} add(%mul.1960.clone.1, %mul.1959.clone.1), metadata={op_name="jit(train_step)/add" stack_frame_id=0}
  %param_2.1102 = f32[]{:T(128)S(6)} parameter(2)
  %div.823.clone.1 = f32[1024,4,14336]{2,1,0:T(4,128)} broadcast(%param_2.1102), dimensions={}, metadata={op_name="jit(train_step)/div" stack_frame_id=0}
  %integer_pow.71.clone.1 = f32[1024,4,14336]{2,1,0:T(4,128)} multiply(%select_n.285.clone.1, %select_n.285.clone.1), metadata={op_name="jit(train_step)/integer_pow" stack_frame_id=0}
  %constant.1241.clone.1 = f32[]{:T(128)} constant(0.05)
  %broadcast.654.clone.1 = f32[1024,4,14336]{2,1,0:T(4,128)} broadcast(%constant.1241.clone.1), dimensions={}, metadata={op_name="broadcast.62"}
  %mul.1958.clone.1 = f32[1024,4,14336]{2,1,0:T(4,128)} multiply(%integer_pow.71.clone.1, %broadcast.654.clone.1), metadata={op_name="jit(train_step)/mul" stack_frame_id=0}
  %param_4.462 = f32[1024,4,14336]{2,1,0:T(4,128)} parameter(4)
  %constant.1240.clone.1 = f32[]{:T(128)} constant(0.95)
  %broadcast.653.clone.1 = f32[1024,4,14336]{2,1,0:T(4,128)} broadcast(%constant.1240.clone.1), dimensions={}, metadata={op_name="broadcast.61"}
  %mul.1957.clone.1 = f32[1024,4,14336]{2,1,0:T(4,128)} multiply(%param_4.462, %broadcast.653.clone.1), metadata={op_name="jit(train_step)/mul" stack_frame_id=0}
  %add.846.clone.1 = f32[1024,4,14336]{2,1,0:T(4,128)} add(%mul.1958.clone.1, %mul.1957.clone.1), metadata={op_name="jit(train_step)/add" stack_frame_id=0}
  %param_1.1409 = f32[]{:T(128)S(6)} parameter(1)
  %div.822.clone.1 = f32[1024,4,14336]{2,1,0:T(4,128)} broadcast(%param_1.1409), dimensions={}, metadata={op_name="jit(train_step)/div" stack_frame_id=0}
  %div.821.clone.1 = f32[1024,4,14336]{2,1,0:T(4,128)} divide(%add.846.clone.1, %div.822.clone.1), metadata={op_name="jit(train_step)/div" stack_frame_id=0}
  %sqrt.69.clone.1 = f32[1024,4,14336]{2,1,0:T(4,128)} sqrt(%div.821.clone.1), metadata={op_name="jit(train_step)/sqrt" stack_frame_id=0}
  %constant.1239.clone.1 = f32[]{:T(128)} constant(1e-08)
  %broadcast.651.clone.1 = f32[1024,4,14336]{2,1,0:T(4,128)} broadcast(%constant.1239.clone.1), dimensions={}, metadata={op_name="broadcast.56"}
  %add.845.clone.1 = f32[1024,4,14336]{2,1,0:T(4,128)} add(%sqrt.69.clone.1, %broadcast.651.clone.1), metadata={op_name="jit(train_step)/add" stack_frame_id=0}
  %multiply.215.clone.1 = f32[1024,4,14336]{2,1,0:T(4,128)} multiply(%div.823.clone.1, %add.845.clone.1), metadata={op_name="multiply.22"}
  %div.820.clone.1 = f32[1024,4,14336]{2,1,0:T(4,128)} divide(%add.847.clone.1, %multiply.215.clone.1), metadata={op_name="jit(train_step)/div" stack_frame_id=0}
  %mul.1955.clone.1 = f32[1024,4,14336]{2,1,0:T(4,128)} multiply(%param_0.1271, %broadcast.656.clone.1), metadata={op_name="jit(train_step)/mul" stack_frame_id=0}
  %add.844.clone.1 = f32[1024,4,14336]{2,1,0:T(4,128)} add(%div.820.clone.1, %mul.1955.clone.1), metadata={op_name="jit(train_step)/add" stack_frame_id=0}
  %mul.1954.clone.1 = f32[1024,4,14336]{2,1,0:T(4,128)} multiply(%mul.1956.clone.1, %add.844.clone.1), metadata={op_name="jit(train_step)/mul" stack_frame_id=0}
  %add.843.clone.1 = f32[1024,4,14336]{2,1,0:T(4,128)} add(%param_0.1271, %mul.1954.clone.1), metadata={op_name="jit(train_step)/add" stack_frame_id=0}
  %square.174 = f32[1024,4,14336]{2,1,0:T(4,128)} multiply(%add.843.clone.1, %add.843.clone.1), metadata={op_name="jit(train_step)/square" stack_frame_id=0}
  %constant.1257 = f32[]{:T(128)} constant(0)
  %reduce.103 = f32[]{:T(128)} reduce(%square.174, %constant.1257), dimensions={0,1,2}, to_apply=%region_47.52, metadata={op_name="jit(train_step)/reduce_sum" stack_frame_id=0}
  %reduce.106.clone.1 = f32[]{:T(128)} reduce(%integer_pow.71.clone.1, %constant.1257), dimensions={0,1,2}, to_apply=%region_33.38, metadata={op_name="jit(train_step)/reduce_sum" stack_frame_id=0}
  ROOT %tuple.138 = (f32[]{:T(128)}, f32[1024,4,14336]{2,1,0:T(4,128)}, f32[1024,4,14336]{2,1,0:T(4,128)}, f32[1024,4,14336]{2,1,0:T(4,128)}, f32[]{:T(128)}) tuple(%reduce.103, %add.843.clone.1, %add.846.clone.1, %add.847.clone.1, %reduce.106.clone.1)
}

%region_27.32 (reduce_sum.235: f32[], reduce_sum.236: f32[]) -> f32[] {
  %reduce_sum.235 = f32[]{:T(128)} parameter(0), metadata={op_name="jit(train_step)/reduce_sum"}
  %reduce_sum.236 = f32[]{:T(128)} parameter(1), metadata={op_name="jit(train_step)/reduce_sum"}
  ROOT %reduce_sum.237 = f32[]{:T(128)} add(%reduce_sum.235, %reduce_sum.236), metadata={op_name="jit(train_step)/reduce_sum" stack_frame_id=0}, backend_config={"flag_configs":[],"scoped_memory_configs":[],"used_scoped_memory_configs":[],"aliasing_operands":{"lists":[]}}
}

%fused_computation.300 (param_0.1277: f32[4,1024,32,128]) -> f32[] {
  %param_0.1277 = f32[4,1024,32,128]{3,2,0,1:T(8,128)} parameter(0)
  %bitcast.482 = f32[1024,4,32,128]{3,2,1,0:T(8,128)} bitcast(%param_0.1277), metadata={op_name="jit(train_step)/transpose(jvp())/transpose" stack_frame_id=0}
  %square.177 = f32[1024,4,32,128]{3,2,1,0:T(8,128)} multiply(%bitcast.482, %bitcast.482), metadata={op_name="jit(train_step)/square" stack_frame_id=0}
  %constant.1263 = f32[]{:T(128)} constant(0)
  ROOT %reduce.107 = f32[]{:T(128)} reduce(%square.177, %constant.1263), dimensions={0,1,2,3}, to_apply=%region_27.32, metadata={op_name="jit(train_step)/reduce_sum" stack_frame_id=0}
}

%region_26.31 (reduce_sum.229: f32[], reduce_sum.230: f32[]) -> f32[] {
  %reduce_sum.229 = f32[]{:T(128)} parameter(0), metadata={op_name="jit(train_step)/reduce_sum"}
  %reduce_sum.230 = f32[]{:T(128)} parameter(1), metadata={op_name="jit(train_step)/reduce_sum"}
  ROOT %reduce_sum.231 = f32[]{:T(128)} add(%reduce_sum.229, %reduce_sum.230), metadata={op_name="jit(train_step)/reduce_sum" stack_frame_id=0}, backend_config={"flag_configs":[],"scoped_memory_configs":[],"used_scoped_memory_configs":[],"aliasing_operands":{"lists":[]}}
}

%fused_computation.302 (param_0.1278: f32[4,32,128,1024]) -> f32[] {
  %param_0.1278 = f32[4,32,128,1024]{3,2,0,1:T(8,128)} parameter(0)
  %bitcast.486 = f32[32,4,128,1024]{3,2,1,0:T(8,128)} bitcast(%param_0.1278), metadata={op_name="jit(train_step)/transpose(jvp())/transpose" stack_frame_id=0}
  %square.180 = f32[32,4,128,1024]{3,2,1,0:T(8,128)} multiply(%bitcast.486, %bitcast.486), metadata={op_name="jit(train_step)/square" stack_frame_id=0}
  %constant.1264 = f32[]{:T(128)} constant(0)
  ROOT %reduce.108 = f32[]{:T(128)} reduce(%square.180, %constant.1264), dimensions={0,1,2,3}, to_apply=%region_26.31, metadata={op_name="jit(train_step)/reduce_sum" stack_frame_id=0}
}

%fused_computation.303 (param_0.851: f32[32,4,128,1024]) -> bf16[4,32,128,1024] {
  %param_0.851 = f32[32,4,128,1024]{3,2,1,0:T(8,128)} parameter(0)
  %copy.238 = bf16[32,4,128,1024]{3,2,0,1:T(8,128)(2,1)} copy(%param_0.851), sharding={devices=[1,1,1,4]<=[4]}, metadata={op_name="state[\'model\'][\'decoder\'][\'layers\'][\'self_attention\'][\'out\'][\'kernel\'].value"}
  ROOT %bitcast.487 = bf16[4,32,128,1024]{3,2,1,0:T(8,128)(2,1)} bitcast(%copy.238), metadata={op_name="jit(train_step)/jvp()/transpose" stack_frame_id=0}
}

%region_54.59 (reduce_sum.370: f32[], reduce_sum.371: f32[]) -> f32[] {
  %reduce_sum.370 = f32[]{:T(128)} parameter(0), metadata={op_name="jit(train_step)/reduce_sum"}
  %reduce_sum.371 = f32[]{:T(128)} parameter(1), metadata={op_name="jit(train_step)/reduce_sum"}
  ROOT %reduce_sum.375 = f32[]{:T(128)} add(%reduce_sum.370, %reduce_sum.371), metadata={op_name="jit(train_step)/reduce_sum" stack_frame_id=0}, backend_config={"flag_configs":[],"scoped_memory_configs":[],"used_scoped_memory_configs":[],"aliasing_operands":{"lists":[]}}
}

%region_40.45 (reduce_sum.298: f32[], reduce_sum.299: f32[]) -> f32[] {
  %reduce_sum.298 = f32[]{:T(128)} parameter(0), metadata={op_name="jit(train_step)/reduce_sum"}
  %reduce_sum.299 = f32[]{:T(128)} parameter(1), metadata={op_name="jit(train_step)/reduce_sum"}
  ROOT %reduce_sum.300 = f32[]{:T(128)} add(%reduce_sum.298, %reduce_sum.299), metadata={op_name="jit(train_step)/reduce_sum" stack_frame_id=0}, backend_config={"flag_configs":[],"scoped_memory_configs":[],"used_scoped_memory_configs":[],"aliasing_operands":{"lists":[]}}
}

%fused_computation.304 (param_0.1264: f32[1024,4,32,128], param_1.1402: f32[], param_2.1095: f32[], param_3.738: f32[], param_4.455: f32[1024,4,32,128], param_5.401: f32[], param_6.256: f32[4,1024,32,128], param_7.172: pred[], param_8.101: f32[1024,4,32,128]) -> (f32[], f32[1024,4,32,128], f32[1024,4,32,128], f32[1024,4,32,128], f32[]) {
  %param_0.1264 = f32[1024,4,32,128]{3,2,1,0:T(8,128)} parameter(0)
  %param_3.738 = f32[]{:T(128)S(6)} parameter(3)
  %mul.1912.clone.1 = f32[1024,4,32,128]{3,2,1,0:T(8,128)} broadcast(%param_3.738), dimensions={}, metadata={op_name="jit(train_step)/mul" stack_frame_id=0}
  %param_7.172 = pred[]{:T(512)S(6)} parameter(7)
  %select_n.266.clone.1 = pred[1024,4,32,128]{3,2,1,0:T(8,128)(4,1)} broadcast(%param_7.172), dimensions={}, metadata={op_name="jit(train_step)/select_n" stack_frame_id=0}
  %param_6.256 = f32[4,1024,32,128]{3,2,0,1:T(8,128)} parameter(6)
  %bitcast.617.clone.1 = f32[1024,4,32,128]{3,2,1,0:T(8,128)} bitcast(%param_6.256), metadata={op_name="jit(train_step)/transpose(jvp())/transpose" stack_frame_id=0}
  %param_5.401 = f32[]{:T(128)} parameter(5)
  %div.787.clone.1 = f32[1024,4,32,128]{3,2,1,0:T(8,128)} broadcast(%param_5.401), dimensions={}, metadata={op_name="jit(train_step)/div" stack_frame_id=0}
  %div.786.clone.1 = f32[1024,4,32,128]{3,2,1,0:T(8,128)} divide(%bitcast.617.clone.1, %div.787.clone.1), metadata={op_name="jit(train_step)/div" stack_frame_id=0}
  %select_n.265.clone.1 = f32[1024,4,32,128]{3,2,1,0:T(8,128)} select(%select_n.266.clone.1, %bitcast.617.clone.1, %div.786.clone.1), metadata={op_name="jit(train_step)/select_n" stack_frame_id=0}
  %constant.1208.clone.1 = f32[]{:T(128)} constant(0.1)
  %broadcast.634.clone.1 = f32[1024,4,32,128]{3,2,1,0:T(8,128)} broadcast(%constant.1208.clone.1), dimensions={}, metadata={op_name="broadcast.65"}
  %mul.1918.clone.1 = f32[1024,4,32,128]{3,2,1,0:T(8,128)} multiply(%select_n.265.clone.1, %broadcast.634.clone.1), metadata={op_name="jit(train_step)/mul" stack_frame_id=0}
  %param_8.101 = f32[1024,4,32,128]{3,2,1,0:T(8,128)} parameter(8)
  %constant.1212.clone.1 = f32[]{:T(128)} constant(0.9)
  %mul.1919.clone.1 = f32[1024,4,32,128]{3,2,1,0:T(8,128)} broadcast(%constant.1212.clone.1), dimensions={}, metadata={op_name="jit(train_step)/mul" stack_frame_id=0}
  %mul.1917.clone.1 = f32[1024,4,32,128]{3,2,1,0:T(8,128)} multiply(%param_8.101, %mul.1919.clone.1), metadata={op_name="jit(train_step)/mul" stack_frame_id=0}
  %add.820.clone.1 = f32[1024,4,32,128]{3,2,1,0:T(8,128)} add(%mul.1918.clone.1, %mul.1917.clone.1), metadata={op_name="jit(train_step)/add" stack_frame_id=0}
  %param_2.1095 = f32[]{:T(128)S(6)} parameter(2)
  %div.783.clone.1 = f32[1024,4,32,128]{3,2,1,0:T(8,128)} broadcast(%param_2.1095), dimensions={}, metadata={op_name="jit(train_step)/div" stack_frame_id=0}
  %integer_pow.66.clone.1 = f32[1024,4,32,128]{3,2,1,0:T(8,128)} multiply(%select_n.265.clone.1, %select_n.265.clone.1), metadata={op_name="jit(train_step)/integer_pow" stack_frame_id=0}
  %constant.1211.clone.1 = f32[]{:T(128)} constant(0.05)
  %mul.1916.clone.1 = f32[1024,4,32,128]{3,2,1,0:T(8,128)} broadcast(%constant.1211.clone.1), dimensions={}, metadata={op_name="jit(train_step)/mul" stack_frame_id=0}
  %mul.1914.clone.1 = f32[1024,4,32,128]{3,2,1,0:T(8,128)} multiply(%integer_pow.66.clone.1, %mul.1916.clone.1), metadata={op_name="jit(train_step)/mul" stack_frame_id=0}
  %param_4.455 = f32[1024,4,32,128]{3,2,1,0:T(8,128)} parameter(4)
  %constant.1210.clone.1 = f32[]{:T(128)} constant(0.95)
  %mul.1915.clone.1 = f32[1024,4,32,128]{3,2,1,0:T(8,128)} broadcast(%constant.1210.clone.1), dimensions={}, metadata={op_name="jit(train_step)/mul" stack_frame_id=0}
  %mul.1913.clone.1 = f32[1024,4,32,128]{3,2,1,0:T(8,128)} multiply(%param_4.455, %mul.1915.clone.1), metadata={op_name="jit(train_step)/mul" stack_frame_id=0}
  %add.819.clone.1 = f32[1024,4,32,128]{3,2,1,0:T(8,128)} add(%mul.1914.clone.1, %mul.1913.clone.1), metadata={op_name="jit(train_step)/add" stack_frame_id=0}
  %param_1.1402 = f32[]{:T(128)S(6)} parameter(1)
  %div.782.clone.1 = f32[1024,4,32,128]{3,2,1,0:T(8,128)} broadcast(%param_1.1402), dimensions={}, metadata={op_name="jit(train_step)/div" stack_frame_id=0}
  %div.781.clone.1 = f32[1024,4,32,128]{3,2,1,0:T(8,128)} divide(%add.819.clone.1, %div.782.clone.1), metadata={op_name="jit(train_step)/div" stack_frame_id=0}
  %sqrt.64.clone.1 = f32[1024,4,32,128]{3,2,1,0:T(8,128)} sqrt(%div.781.clone.1), metadata={op_name="jit(train_step)/sqrt" stack_frame_id=0}
  %constant.1209.clone.1 = f32[]{:T(128)} constant(1e-08)
  %add.818.clone.1 = f32[1024,4,32,128]{3,2,1,0:T(8,128)} broadcast(%constant.1209.clone.1), dimensions={}, metadata={op_name="jit(train_step)/add" stack_frame_id=0}
  %add.817.clone.1 = f32[1024,4,32,128]{3,2,1,0:T(8,128)} add(%sqrt.64.clone.1, %add.818.clone.1), metadata={op_name="jit(train_step)/add" stack_frame_id=0}
  %multiply.210.clone.1 = f32[1024,4,32,128]{3,2,1,0:T(8,128)} multiply(%div.783.clone.1, %add.817.clone.1), metadata={op_name="multiply.29"}
  %div.780.clone.1 = f32[1024,4,32,128]{3,2,1,0:T(8,128)} divide(%add.820.clone.1, %multiply.210.clone.1), metadata={op_name="jit(train_step)/div" stack_frame_id=0}
  %mul.1911.clone.1 = f32[1024,4,32,128]{3,2,1,0:T(8,128)} multiply(%param_0.1264, %broadcast.634.clone.1), metadata={op_name="jit(train_step)/mul" stack_frame_id=0}
  %add.816.clone.1 = f32[1024,4,32,128]{3,2,1,0:T(8,128)} add(%div.780.clone.1, %mul.1911.clone.1), metadata={op_name="jit(train_step)/add" stack_frame_id=0}
  %mul.1910.clone.1 = f32[1024,4,32,128]{3,2,1,0:T(8,128)} multiply(%mul.1912.clone.1, %add.816.clone.1), metadata={op_name="jit(train_step)/mul" stack_frame_id=0}
  %add.815.clone.1 = f32[1024,4,32,128]{3,2,1,0:T(8,128)} add(%param_0.1264, %mul.1910.clone.1), metadata={op_name="jit(train_step)/add" stack_frame_id=0}
  %square.181 = f32[1024,4,32,128]{3,2,1,0:T(8,128)} multiply(%add.815.clone.1, %add.815.clone.1), metadata={op_name="jit(train_step)/square" stack_frame_id=0}
  %constant.1250 = f32[]{:T(128)} constant(0)
  %reduce.109 = f32[]{:T(128)} reduce(%square.181, %constant.1250), dimensions={0,1,2,3}, to_apply=%region_54.59, metadata={op_name="jit(train_step)/reduce_sum" stack_frame_id=0}
  %reduce.113.clone.1 = f32[]{:T(128)} reduce(%integer_pow.66.clone.1, %constant.1250), dimensions={0,1,2,3}, to_apply=%region_40.45, metadata={op_name="jit(train_step)/reduce_sum" stack_frame_id=0}
  ROOT %tuple.139 = (f32[]{:T(128)}, f32[1024,4,32,128]{3,2,1,0:T(8,128)}, f32[1024,4,32,128]{3,2,1,0:T(8,128)}, f32[1024,4,32,128]{3,2,1,0:T(8,128)}, f32[]{:T(128)}) tuple(%reduce.109, %add.815.clone.1, %add.819.clone.1, %add.820.clone.1, %reduce.113.clone.1)
}

%region_53.58 (reduce_sum.364: f32[], reduce_sum.368: f32[]) -> f32[] {
  %reduce_sum.364 = f32[]{:T(128)} parameter(0), metadata={op_name="jit(train_step)/reduce_sum"}
  %reduce_sum.368 = f32[]{:T(128)} parameter(1), metadata={op_name="jit(train_step)/reduce_sum"}
  ROOT %reduce_sum.369 = f32[]{:T(128)} add(%reduce_sum.364, %reduce_sum.368), metadata={op_name="jit(train_step)/reduce_sum" stack_frame_id=0}, backend_config={"flag_configs":[],"scoped_memory_configs":[],"used_scoped_memory_configs":[],"aliasing_operands":{"lists":[]}}
}

%region_39.44 (reduce_sum.292: f32[], reduce_sum.293: f32[]) -> f32[] {
  %reduce_sum.292 = f32[]{:T(128)} parameter(0), metadata={op_name="jit(train_step)/reduce_sum"}
  %reduce_sum.293 = f32[]{:T(128)} parameter(1), metadata={op_name="jit(train_step)/reduce_sum"}
  ROOT %reduce_sum.294 = f32[]{:T(128)} add(%reduce_sum.292, %reduce_sum.293), metadata={op_name="jit(train_step)/reduce_sum" stack_frame_id=0}, backend_config={"flag_configs":[],"scoped_memory_configs":[],"used_scoped_memory_configs":[],"aliasing_operands":{"lists":[]}}
}

%fused_computation.305 (param_0.1265: f32[32,4,128,1024], param_1.1403: f32[], param_2.1096: f32[], param_3.739: f32[], param_4.456: f32[32,4,128,1024], param_5.402: f32[], param_6.257: f32[4,32,128,1024], param_7.173: pred[], param_8.102: f32[32,4,128,1024]) -> (f32[], f32[32,4,128,1024], f32[32,4,128,1024], f32[32,4,128,1024], f32[]) {
  %param_0.1265 = f32[32,4,128,1024]{3,2,1,0:T(8,128)} parameter(0)
  %param_3.739 = f32[]{:T(128)S(6)} parameter(3)
  %mul.1922.clone.1 = f32[32,4,128,1024]{3,2,1,0:T(8,128)} broadcast(%param_3.739), dimensions={}, metadata={op_name="jit(train_step)/mul" stack_frame_id=0}
  %param_7.173 = pred[]{:T(512)S(6)} parameter(7)
  %select_n.270.clone.1 = pred[32,4,128,1024]{3,2,1,0:T(8,128)(4,1)} broadcast(%param_7.173), dimensions={}, metadata={op_name="jit(train_step)/select_n" stack_frame_id=0}
  %param_6.257 = f32[4,32,128,1024]{3,2,0,1:T(8,128)} parameter(6)
  %bitcast.619.clone.1 = f32[32,4,128,1024]{3,2,1,0:T(8,128)} bitcast(%param_6.257), metadata={op_name="jit(train_step)/transpose(jvp())/transpose" stack_frame_id=0}
  %param_5.402 = f32[]{:T(128)} parameter(5)
  %div.795.clone.1 = f32[32,4,128,1024]{3,2,1,0:T(8,128)} broadcast(%param_5.402), dimensions={}, metadata={op_name="jit(train_step)/div" stack_frame_id=0}
  %div.794.clone.1 = f32[32,4,128,1024]{3,2,1,0:T(8,128)} divide(%bitcast.619.clone.1, %div.795.clone.1), metadata={op_name="jit(train_step)/div" stack_frame_id=0}
  %select_n.269.clone.1 = f32[32,4,128,1024]{3,2,1,0:T(8,128)} select(%select_n.270.clone.1, %bitcast.619.clone.1, %div.794.clone.1), metadata={op_name="jit(train_step)/select_n" stack_frame_id=0}
  %constant.1214.clone.1 = f32[]{:T(128)} constant(0.1)
  %broadcast.636.clone.1 = f32[32,4,128,1024]{3,2,1,0:T(8,128)} broadcast(%constant.1214.clone.1), dimensions={}, metadata={op_name="broadcast.66"}
  %mul.1928.clone.1 = f32[32,4,128,1024]{3,2,1,0:T(8,128)} multiply(%select_n.269.clone.1, %broadcast.636.clone.1), metadata={op_name="jit(train_step)/mul" stack_frame_id=0}
  %param_8.102 = f32[32,4,128,1024]{3,2,1,0:T(8,128)} parameter(8)
  %constant.1218.clone.1 = f32[]{:T(128)} constant(0.9)
  %mul.1929.clone.1 = f32[32,4,128,1024]{3,2,1,0:T(8,128)} broadcast(%constant.1218.clone.1), dimensions={}, metadata={op_name="jit(train_step)/mul" stack_frame_id=0}
  %mul.1927.clone.1 = f32[32,4,128,1024]{3,2,1,0:T(8,128)} multiply(%param_8.102, %mul.1929.clone.1), metadata={op_name="jit(train_step)/mul" stack_frame_id=0}
  %add.826.clone.1 = f32[32,4,128,1024]{3,2,1,0:T(8,128)} add(%mul.1928.clone.1, %mul.1927.clone.1), metadata={op_name="jit(train_step)/add" stack_frame_id=0}
  %param_2.1096 = f32[]{:T(128)S(6)} parameter(2)
  %div.791.clone.1 = f32[32,4,128,1024]{3,2,1,0:T(8,128)} broadcast(%param_2.1096), dimensions={}, metadata={op_name="jit(train_step)/div" stack_frame_id=0}
  %integer_pow.67.clone.1 = f32[32,4,128,1024]{3,2,1,0:T(8,128)} multiply(%select_n.269.clone.1, %select_n.269.clone.1), metadata={op_name="jit(train_step)/integer_pow" stack_frame_id=0}
  %constant.1217.clone.1 = f32[]{:T(128)} constant(0.05)
  %mul.1926.clone.1 = f32[32,4,128,1024]{3,2,1,0:T(8,128)} broadcast(%constant.1217.clone.1), dimensions={}, metadata={op_name="jit(train_step)/mul" stack_frame_id=0}
  %mul.1924.clone.1 = f32[32,4,128,1024]{3,2,1,0:T(8,128)} multiply(%integer_pow.67.clone.1, %mul.1926.clone.1), metadata={op_name="jit(train_step)/mul" stack_frame_id=0}
  %param_4.456 = f32[32,4,128,1024]{3,2,1,0:T(8,128)} parameter(4)
  %constant.1216.clone.1 = f32[]{:T(128)} constant(0.95)
  %mul.1925.clone.1 = f32[32,4,128,1024]{3,2,1,0:T(8,128)} broadcast(%constant.1216.clone.1), dimensions={}, metadata={op_name="jit(train_step)/mul" stack_frame_id=0}
  %mul.1923.clone.1 = f32[32,4,128,1024]{3,2,1,0:T(8,128)} multiply(%param_4.456, %mul.1925.clone.1), metadata={op_name="jit(train_step)/mul" stack_frame_id=0}
  %add.825.clone.1 = f32[32,4,128,1024]{3,2,1,0:T(8,128)} add(%mul.1924.clone.1, %mul.1923.clone.1), metadata={op_name="jit(train_step)/add" stack_frame_id=0}
  %param_1.1403 = f32[]{:T(128)S(6)} parameter(1)
  %div.790.clone.1 = f32[32,4,128,1024]{3,2,1,0:T(8,128)} broadcast(%param_1.1403), dimensions={}, metadata={op_name="jit(train_step)/div" stack_frame_id=0}
  %div.789.clone.1 = f32[32,4,128,1024]{3,2,1,0:T(8,128)} divide(%add.825.clone.1, %div.790.clone.1), metadata={op_name="jit(train_step)/div" stack_frame_id=0}
  %sqrt.65.clone.1 = f32[32,4,128,1024]{3,2,1,0:T(8,128)} sqrt(%div.789.clone.1), metadata={op_name="jit(train_step)/sqrt" stack_frame_id=0}
  %constant.1215.clone.1 = f32[]{:T(128)} constant(1e-08)
  %add.824.clone.1 = f32[32,4,128,1024]{3,2,1,0:T(8,128)} broadcast(%constant.1215.clone.1), dimensions={}, metadata={op_name="jit(train_step)/add" stack_frame_id=0}
  %add.823.clone.1 = f32[32,4,128,1024]{3,2,1,0:T(8,128)} add(%sqrt.65.clone.1, %add.824.clone.1), metadata={op_name="jit(train_step)/add" stack_frame_id=0}
  %multiply.211.clone.1 = f32[32,4,128,1024]{3,2,1,0:T(8,128)} multiply(%div.791.clone.1, %add.823.clone.1), metadata={op_name="multiply.28"}
  %div.788.clone.1 = f32[32,4,128,1024]{3,2,1,0:T(8,128)} divide(%add.826.clone.1, %multiply.211.clone.1), metadata={op_name="jit(train_step)/div" stack_frame_id=0}
  %mul.1921.clone.1 = f32[32,4,128,1024]{3,2,1,0:T(8,128)} multiply(%param_0.1265, %broadcast.636.clone.1), metadata={op_name="jit(train_step)/mul" stack_frame_id=0}
  %add.822.clone.1 = f32[32,4,128,1024]{3,2,1,0:T(8,128)} add(%div.788.clone.1, %mul.1921.clone.1), metadata={op_name="jit(train_step)/add" stack_frame_id=0}
  %mul.1920.clone.1 = f32[32,4,128,1024]{3,2,1,0:T(8,128)} multiply(%mul.1922.clone.1, %add.822.clone.1), metadata={op_name="jit(train_step)/mul" stack_frame_id=0}
  %add.821.clone.1 = f32[32,4,128,1024]{3,2,1,0:T(8,128)} add(%param_0.1265, %mul.1920.clone.1), metadata={op_name="jit(train_step)/add" stack_frame_id=0}
  %square.182 = f32[32,4,128,1024]{3,2,1,0:T(8,128)} multiply(%add.821.clone.1, %add.821.clone.1), metadata={op_name="jit(train_step)/square" stack_frame_id=0}
  %constant.1251 = f32[]{:T(128)} constant(0)
  %reduce.110 = f32[]{:T(128)} reduce(%square.182, %constant.1251), dimensions={0,1,2,3}, to_apply=%region_53.58, metadata={op_name="jit(train_step)/reduce_sum" stack_frame_id=0}
  %reduce.114.clone.1 = f32[]{:T(128)} reduce(%integer_pow.67.clone.1, %constant.1251), dimensions={0,1,2,3}, to_apply=%region_39.44, metadata={op_name="jit(train_step)/reduce_sum" stack_frame_id=0}
  ROOT %tuple.140 = (f32[]{:T(128)}, f32[32,4,128,1024]{3,2,1,0:T(8,128)}, f32[32,4,128,1024]{3,2,1,0:T(8,128)}, f32[32,4,128,1024]{3,2,1,0:T(8,128)}, f32[]{:T(128)}) tuple(%reduce.110, %add.821.clone.1, %add.825.clone.1, %add.826.clone.1, %reduce.114.clone.1)
}

%region_7.10 (reduce_sum.123: f32[], reduce_sum.127: f32[]) -> f32[] {
  %reduce_sum.123 = f32[]{:T(128)} parameter(0), metadata={op_name="jit(train_step)/jvp()/reduce_sum"}
  %reduce_sum.127 = f32[]{:T(128)} parameter(1), metadata={op_name="jit(train_step)/jvp()/reduce_sum"}
  ROOT %reduce_sum.128 = f32[]{:T(128)} add(%reduce_sum.123, %reduce_sum.127), metadata={op_name="jit(train_step)/jvp()/reduce_sum" stack_frame_id=0}, backend_config={"flag_configs":[],"scoped_memory_configs":[],"used_scoped_memory_configs":[],"aliasing_operands":{"lists":[]}}
}

%fused_computation.316 (param_0.1286: bf16[128,128256], param_1.1417: bf16[128]) -> f32[128] {
  %param_0.1286 = bf16[128,128256]{1,0:T(8,128)(2,1)S(1)} parameter(0)
  %convert_element_type.884 = f32[128,128256]{1,0:T(8,128)} convert(%param_0.1286), metadata={op_name="jit(train_step)/jvp()/convert_element_type" stack_frame_id=0}
  %bitcast.496 = f32[1,128,128256]{2,1,0:T(8,128)} bitcast(%convert_element_type.884), metadata={op_name="jit(train_step)/jvp()/convert_element_type" stack_frame_id=0}
  %param_1.1417 = bf16[128]{0:T(256)(128)(2,1)S(1)} parameter(1)
  %sub.100 = f32[1,128,128256]{2,1,0:T(8,128)} broadcast(%param_1.1417), dimensions={1}, metadata={op_name="jit(train_step)/jvp()/sub" stack_frame_id=0}
  %sub.71 = f32[1,128,128256]{2,1,0:T(8,128)} subtract(%bitcast.496, %sub.100), metadata={op_name="jit(train_step)/jvp()/sub" stack_frame_id=0}
  %exp.56 = f32[1,128,128256]{2,1,0:T(8,128)} exponential(%sub.71), metadata={op_name="jit(train_step)/jvp()/exp" stack_frame_id=0}
  %constant.1273 = f32[]{:T(128)} constant(0)
  ROOT %reduce.111 = f32[128]{0:T(128)S(1)} reduce(%exp.56, %constant.1273), dimensions={0,2}, to_apply=%region_7.10, metadata={op_name="jit(train_step)/jvp()/reduce_sum" stack_frame_id=0}
}

%region_44.49 (reduce_sum.319: f32[], reduce_sum.320: f32[]) -> f32[] {
  %reduce_sum.319 = f32[]{:T(128)} parameter(0), metadata={op_name="jit(train_step)/jvp()/reduce_sum"}
  %reduce_sum.320 = f32[]{:T(128)} parameter(1), metadata={op_name="jit(train_step)/jvp()/reduce_sum"}
  ROOT %reduce_sum.321 = f32[]{:T(128)} add(%reduce_sum.319, %reduce_sum.320), metadata={op_name="jit(train_step)/jvp()/reduce_sum" stack_frame_id=0}, backend_config={"flag_configs":[],"scoped_memory_configs":[],"used_scoped_memory_configs":[],"aliasing_operands":{"lists":[]}}
}

%fused_computation.322 (param_0.1285: bf16[128,128256], param_1.1415: f32[128], param_2.1106: bf16[128], param_3.748: s32[128]) -> f32[128] {
  %param_3.748 = s32[128]{0:T(128)S(1)} parameter(3)
  %eq.26 = s32[1,128,128256]{2,1,0:T(8,128)} broadcast(%param_3.748), dimensions={1}, metadata={op_name="jit(train_step)/jvp(jit(_one_hot))/eq" stack_frame_id=0}
  %iota.51 = s32[1,128,128256]{2,1,0:T(8,128)} iota(), iota_dimension=2, metadata={op_name="jit(train_step)/jvp(jit(_one_hot))/eq" stack_frame_id=0}
  %eq.21 = pred[1,128,128256]{2,1,0:T(8,128)(4,1)} compare(%eq.26, %iota.51), direction=EQ, metadata={op_name="jit(train_step)/jvp(jit(_one_hot))/eq" stack_frame_id=0}
  %param_0.1285 = bf16[128,128256]{1,0:T(8,128)(2,1)S(1)} parameter(0)
  %convert_element_type.897 = f32[128,128256]{1,0:T(8,128)} convert(%param_0.1285), metadata={op_name="jit(train_step)/jvp()/convert_element_type" stack_frame_id=0}
  %bitcast.508 = f32[1,128,128256]{2,1,0:T(8,128)} bitcast(%convert_element_type.897), metadata={op_name="jit(train_step)/jvp()/convert_element_type" stack_frame_id=0}
  %param_2.1106 = bf16[128]{0:T(256)(128)(2,1)S(1)} parameter(2)
  %sub.99 = f32[1,128,128256]{2,1,0:T(8,128)} broadcast(%param_2.1106), dimensions={1}, metadata={op_name="jit(train_step)/jvp()/sub" stack_frame_id=0}
  %sub.92 = f32[1,128,128256]{2,1,0:T(8,128)} subtract(%bitcast.508, %sub.99), metadata={op_name="jit(train_step)/jvp()/sub" stack_frame_id=0}
  %param_1.1415 = f32[128]{0:T(128)S(1)} parameter(1)
  %sub.97 = f32[1,128,128256]{2,1,0:T(8,128)} broadcast(%param_1.1415), dimensions={1}, metadata={op_name="jit(train_step)/jvp()/sub" stack_frame_id=0}
  %sub.91 = f32[1,128,128256]{2,1,0:T(8,128)} subtract(%sub.92, %sub.97), metadata={op_name="jit(train_step)/jvp()/sub" stack_frame_id=0}
  %constant.1271 = f32[]{:T(128)} constant(0)
  %broadcast.561 = f32[1,128,128256]{2,1,0:T(8,128)} broadcast(%constant.1271), dimensions={}, metadata={op_name="broadcast.98"}
  %mul.1717 = f32[1,128,128256]{2,1,0:T(8,128)} select(%eq.21, %sub.91, %broadcast.561), metadata={op_name="jit(train_step)/jvp()/mul" stack_frame_id=0}
  ROOT %reduce.112 = f32[128]{0:T(128)S(1)} reduce(%mul.1717, %constant.1271), dimensions={0,2}, to_apply=%region_44.49, metadata={op_name="jit(train_step)/jvp()/reduce_sum" stack_frame_id=0}
}

%region_28.33 (reduce_sum.238: f32[], reduce_sum.242: f32[]) -> f32[] {
  %reduce_sum.238 = f32[]{:T(128)} parameter(0), metadata={op_name="jit(train_step)/reduce_sum"}
  %reduce_sum.242 = f32[]{:T(128)} parameter(1), metadata={op_name="jit(train_step)/reduce_sum"}
  ROOT %reduce_sum.243 = f32[]{:T(128)} add(%reduce_sum.238, %reduce_sum.242), metadata={op_name="jit(train_step)/reduce_sum" stack_frame_id=0}, backend_config={"flag_configs":[],"scoped_memory_configs":[],"used_scoped_memory_configs":[],"aliasing_operands":{"lists":[]}}
}

%region_25.30 (reduce_sum.223: f32[], reduce_sum.224: f32[]) -> f32[] {
  %reduce_sum.223 = f32[]{:T(128)} parameter(0), metadata={op_name="jit(train_step)/reduce_sum"}
  %reduce_sum.224 = f32[]{:T(128)} parameter(1), metadata={op_name="jit(train_step)/reduce_sum"}
  ROOT %reduce_sum.228 = f32[]{:T(128)} add(%reduce_sum.223, %reduce_sum.224), metadata={op_name="jit(train_step)/reduce_sum" stack_frame_id=0}, backend_config={"flag_configs":[],"scoped_memory_configs":[],"used_scoped_memory_configs":[],"aliasing_operands":{"lists":[]}}
}

%fused_computation.330 (param_0.1279: f32[4,1024,8,128], param_1.1411: f32[4,1024,8,128]) -> (f32[], f32[]) {
  %param_0.1279 = f32[4,1024,8,128]{3,2,0,1:T(8,128)S(1)} parameter(0)
  %bitcast.527 = f32[1024,4,8,128]{3,2,1,0:T(8,128)} bitcast(%param_0.1279), metadata={op_name="jit(train_step)/transpose(jvp())/transpose" stack_frame_id=0}
  %square.185 = f32[1024,4,8,128]{3,2,1,0:T(8,128)} multiply(%bitcast.527, %bitcast.527), metadata={op_name="jit(train_step)/square" stack_frame_id=0}
  %constant.1265 = f32[]{:T(128)} constant(0)
  %reduce.115 = f32[]{:T(128)} reduce(%square.185, %constant.1265), dimensions={0,1,2,3}, to_apply=%region_28.33, metadata={op_name="jit(train_step)/reduce_sum" stack_frame_id=0}
  %param_1.1411 = f32[4,1024,8,128]{3,2,0,1:T(8,128)S(1)} parameter(1)
  %bitcast.531.clone.1 = f32[1024,4,8,128]{3,2,1,0:T(8,128)} bitcast(%param_1.1411), metadata={op_name="jit(train_step)/transpose(jvp())/transpose" stack_frame_id=0}
  %square.188.clone.1 = f32[1024,4,8,128]{3,2,1,0:T(8,128)} multiply(%bitcast.531.clone.1, %bitcast.531.clone.1), metadata={op_name="jit(train_step)/square" stack_frame_id=0}
  %reduce.116.clone.1 = f32[]{:T(128)} reduce(%square.188.clone.1, %constant.1265), dimensions={0,1,2,3}, to_apply=%region_25.30, metadata={op_name="jit(train_step)/reduce_sum" stack_frame_id=0}
  ROOT %tuple.155 = (f32[]{:T(128)}, f32[]{:T(128)}) tuple(%reduce.115, %reduce.116.clone.1)
}

%fused_computation.333 (param_0.929: f32[1024,4,8,128]) -> bf16[4,1024,8,128] {
  %param_0.929 = f32[1024,4,8,128]{3,2,1,0:T(8,128)S(1)} parameter(0)
  %copy.239 = bf16[1024,4,8,128]{3,0,2,1:T(8,128)(2,1)} copy(%param_0.929), sharding={devices=[4,1,1,1]<=[4]}, metadata={op_name="state[\'model\'][\'decoder\'][\'layers\'][\'self_attention\'][\'value\'][\'kernel\'].value"}
  ROOT %bitcast.532 = bf16[4,1024,8,128]{3,1,2,0:T(8,128)(2,1)} bitcast(%copy.239), metadata={op_name="jit(train_step)/jvp()/transpose" stack_frame_id=0}
}

%region_55.60 (reduce_sum.376: f32[], reduce_sum.377: f32[]) -> f32[] {
  %reduce_sum.376 = f32[]{:T(128)} parameter(0), metadata={op_name="jit(train_step)/reduce_sum"}
  %reduce_sum.377 = f32[]{:T(128)} parameter(1), metadata={op_name="jit(train_step)/reduce_sum"}
  ROOT %reduce_sum.378 = f32[]{:T(128)} add(%reduce_sum.376, %reduce_sum.377), metadata={op_name="jit(train_step)/reduce_sum" stack_frame_id=0}, backend_config={"flag_configs":[],"scoped_memory_configs":[],"used_scoped_memory_configs":[],"aliasing_operands":{"lists":[]}}
}

%region_41.46 (reduce_sum.301: f32[], reduce_sum.305: f32[]) -> f32[] {
  %reduce_sum.301 = f32[]{:T(128)} parameter(0), metadata={op_name="jit(train_step)/reduce_sum"}
  %reduce_sum.305 = f32[]{:T(128)} parameter(1), metadata={op_name="jit(train_step)/reduce_sum"}
  ROOT %reduce_sum.306 = f32[]{:T(128)} add(%reduce_sum.301, %reduce_sum.305), metadata={op_name="jit(train_step)/reduce_sum" stack_frame_id=0}, backend_config={"flag_configs":[],"scoped_memory_configs":[],"used_scoped_memory_configs":[],"aliasing_operands":{"lists":[]}}
}

%fused_computation.334 (param_0.1263: f32[1024,4,8,128], param_1.1401: f32[], param_2.1094: f32[], param_3.737: f32[], param_4.454: f32[1024,4,8,128], param_5.400: f32[], param_6.255: f32[4,1024,8,128], param_7.171: pred[], param_8.100: f32[1024,4,8,128]) -> (f32[], f32[1024,4,8,128], f32[1024,4,8,128], f32[1024,4,8,128], f32[]) {
  %param_0.1263 = f32[1024,4,8,128]{3,2,1,0:T(8,128)S(1)} parameter(0)
  %param_3.737 = f32[]{:T(128)S(6)} parameter(3)
  %mul.1905.clone.1 = f32[1024,4,8,128]{3,2,1,0:T(8,128)} broadcast(%param_3.737), dimensions={}, metadata={op_name="jit(train_step)/mul" stack_frame_id=0}
  %param_7.171 = pred[]{:T(512)S(6)} parameter(7)
  %select_n.262.clone.1 = pred[1024,4,8,128]{3,2,1,0:T(8,128)(4,1)} broadcast(%param_7.171), dimensions={}, metadata={op_name="jit(train_step)/select_n" stack_frame_id=0}
  %param_6.255 = f32[4,1024,8,128]{3,2,0,1:T(8,128)S(1)} parameter(6)
  %bitcast.615.clone.1 = f32[1024,4,8,128]{3,2,1,0:T(8,128)} bitcast(%param_6.255), metadata={op_name="jit(train_step)/transpose(jvp())/transpose" stack_frame_id=0}
  %param_5.400 = f32[]{:T(128)} parameter(5)
  %div.779.clone.1 = f32[1024,4,8,128]{3,2,1,0:T(8,128)} broadcast(%param_5.400), dimensions={}, metadata={op_name="jit(train_step)/div" stack_frame_id=0}
  %div.778.clone.1 = f32[1024,4,8,128]{3,2,1,0:T(8,128)} divide(%bitcast.615.clone.1, %div.779.clone.1), metadata={op_name="jit(train_step)/div" stack_frame_id=0}
  %select_n.261.clone.1 = f32[1024,4,8,128]{3,2,1,0:T(8,128)} select(%select_n.262.clone.1, %bitcast.615.clone.1, %div.778.clone.1), metadata={op_name="jit(train_step)/select_n" stack_frame_id=0}
  %constant.1202.clone.1 = f32[]{:T(128)} constant(0.1)
  %broadcast.632.clone.1 = f32[1024,4,8,128]{3,2,1,0:T(8,128)} broadcast(%constant.1202.clone.1), dimensions={}, metadata={op_name="broadcast.68"}
  %mul.1909.clone.1 = f32[1024,4,8,128]{3,2,1,0:T(8,128)} multiply(%select_n.261.clone.1, %broadcast.632.clone.1), metadata={op_name="jit(train_step)/mul" stack_frame_id=0}
  %param_8.100 = f32[1024,4,8,128]{3,2,1,0:T(8,128)} parameter(8)
  %constant.1206.clone.1 = f32[]{:T(128)} constant(0.9)
  %broadcast.631.clone.1 = f32[1024,4,8,128]{3,2,1,0:T(8,128)} broadcast(%constant.1206.clone.1), dimensions={}, metadata={op_name="broadcast.67"}
  %mul.1908.clone.1 = f32[1024,4,8,128]{3,2,1,0:T(8,128)} multiply(%param_8.100, %broadcast.631.clone.1), metadata={op_name="jit(train_step)/mul" stack_frame_id=0}
  %add.814.clone.1 = f32[1024,4,8,128]{3,2,1,0:T(8,128)} add(%mul.1909.clone.1, %mul.1908.clone.1), metadata={op_name="jit(train_step)/add" stack_frame_id=0}
  %param_2.1094 = f32[]{:T(128)S(6)} parameter(2)
  %div.775.clone.1 = f32[1024,4,8,128]{3,2,1,0:T(8,128)} broadcast(%param_2.1094), dimensions={}, metadata={op_name="jit(train_step)/div" stack_frame_id=0}
  %integer_pow.65.clone.1 = f32[1024,4,8,128]{3,2,1,0:T(8,128)} multiply(%select_n.261.clone.1, %select_n.261.clone.1), metadata={op_name="jit(train_step)/integer_pow" stack_frame_id=0}
  %constant.1205.clone.1 = f32[]{:T(128)} constant(0.05)
  %broadcast.630.clone.1 = f32[1024,4,8,128]{3,2,1,0:T(8,128)} broadcast(%constant.1205.clone.1), dimensions={}, metadata={op_name="broadcast.58"}
  %mul.1907.clone.1 = f32[1024,4,8,128]{3,2,1,0:T(8,128)} multiply(%integer_pow.65.clone.1, %broadcast.630.clone.1), metadata={op_name="jit(train_step)/mul" stack_frame_id=0}
  %param_4.454 = f32[1024,4,8,128]{3,2,1,0:T(8,128)S(1)} parameter(4)
  %constant.1204.clone.1 = f32[]{:T(128)} constant(0.95)
  %broadcast.629.clone.1 = f32[1024,4,8,128]{3,2,1,0:T(8,128)} broadcast(%constant.1204.clone.1), dimensions={}, metadata={op_name="broadcast.57"}
  %mul.1906.clone.1 = f32[1024,4,8,128]{3,2,1,0:T(8,128)} multiply(%param_4.454, %broadcast.629.clone.1), metadata={op_name="jit(train_step)/mul" stack_frame_id=0}
  %add.813.clone.1 = f32[1024,4,8,128]{3,2,1,0:T(8,128)S(1)} add(%mul.1907.clone.1, %mul.1906.clone.1), metadata={op_name="jit(train_step)/add" stack_frame_id=0}
  %param_1.1401 = f32[]{:T(128)S(6)} parameter(1)
  %div.774.clone.1 = f32[1024,4,8,128]{3,2,1,0:T(8,128)} broadcast(%param_1.1401), dimensions={}, metadata={op_name="jit(train_step)/div" stack_frame_id=0}
  %div.773.clone.1 = f32[1024,4,8,128]{3,2,1,0:T(8,128)} divide(%add.813.clone.1, %div.774.clone.1), metadata={op_name="jit(train_step)/div" stack_frame_id=0}
  %sqrt.63.clone.1 = f32[1024,4,8,128]{3,2,1,0:T(8,128)} sqrt(%div.773.clone.1), metadata={op_name="jit(train_step)/sqrt" stack_frame_id=0}
  %constant.1203.clone.1 = f32[]{:T(128)} constant(1e-08)
  %broadcast.627.clone.1 = f32[1024,4,8,128]{3,2,1,0:T(8,128)} broadcast(%constant.1203.clone.1), dimensions={}, metadata={op_name="broadcast.54"}
  %add.812.clone.1 = f32[1024,4,8,128]{3,2,1,0:T(8,128)} add(%sqrt.63.clone.1, %broadcast.627.clone.1), metadata={op_name="jit(train_step)/add" stack_frame_id=0}
  %multiply.209.clone.1 = f32[1024,4,8,128]{3,2,1,0:T(8,128)} multiply(%div.775.clone.1, %add.812.clone.1), metadata={op_name="multiply.30"}
  %div.772.clone.1 = f32[1024,4,8,128]{3,2,1,0:T(8,128)} divide(%add.814.clone.1, %multiply.209.clone.1), metadata={op_name="jit(train_step)/div" stack_frame_id=0}
  %mul.1904.clone.1 = f32[1024,4,8,128]{3,2,1,0:T(8,128)} multiply(%param_0.1263, %broadcast.632.clone.1), metadata={op_name="jit(train_step)/mul" stack_frame_id=0}
  %add.811.clone.1 = f32[1024,4,8,128]{3,2,1,0:T(8,128)} add(%div.772.clone.1, %mul.1904.clone.1), metadata={op_name="jit(train_step)/add" stack_frame_id=0}
  %mul.1903.clone.1 = f32[1024,4,8,128]{3,2,1,0:T(8,128)} multiply(%mul.1905.clone.1, %add.811.clone.1), metadata={op_name="jit(train_step)/mul" stack_frame_id=0}
  %add.810.clone.1 = f32[1024,4,8,128]{3,2,1,0:T(8,128)S(1)} add(%param_0.1263, %mul.1903.clone.1), metadata={op_name="jit(train_step)/add" stack_frame_id=0}
  %square.189 = f32[1024,4,8,128]{3,2,1,0:T(8,128)} multiply(%add.810.clone.1, %add.810.clone.1), metadata={op_name="jit(train_step)/square" stack_frame_id=0}
  %constant.1249 = f32[]{:T(128)} constant(0)
  %reduce.117 = f32[]{:T(128)} reduce(%square.189, %constant.1249), dimensions={0,1,2,3}, to_apply=%region_55.60, metadata={op_name="jit(train_step)/reduce_sum" stack_frame_id=0}
  %reduce.119.clone.1 = f32[]{:T(128)} reduce(%integer_pow.65.clone.1, %constant.1249), dimensions={0,1,2,3}, to_apply=%region_41.46, metadata={op_name="jit(train_step)/reduce_sum" stack_frame_id=0}
  ROOT %tuple.141 = (f32[]{:T(128)}, f32[1024,4,8,128]{3,2,1,0:T(8,128)S(1)}, f32[1024,4,8,128]{3,2,1,0:T(8,128)S(1)}, f32[1024,4,8,128]{3,2,1,0:T(8,128)}, f32[]{:T(128)}) tuple(%reduce.117, %add.810.clone.1, %add.813.clone.1, %add.814.clone.1, %reduce.119.clone.1)
}

%region_52.57 (reduce_sum.361: f32[], reduce_sum.362: f32[]) -> f32[] {
  %reduce_sum.361 = f32[]{:T(128)} parameter(0), metadata={op_name="jit(train_step)/reduce_sum"}
  %reduce_sum.362 = f32[]{:T(128)} parameter(1), metadata={op_name="jit(train_step)/reduce_sum"}
  ROOT %reduce_sum.363 = f32[]{:T(128)} add(%reduce_sum.361, %reduce_sum.362), metadata={op_name="jit(train_step)/reduce_sum" stack_frame_id=0}, backend_config={"flag_configs":[],"scoped_memory_configs":[],"used_scoped_memory_configs":[],"aliasing_operands":{"lists":[]}}
}

%region_38.43 (reduce_sum.286: f32[], reduce_sum.287: f32[]) -> f32[] {
  %reduce_sum.286 = f32[]{:T(128)} parameter(0), metadata={op_name="jit(train_step)/reduce_sum"}
  %reduce_sum.287 = f32[]{:T(128)} parameter(1), metadata={op_name="jit(train_step)/reduce_sum"}
  ROOT %reduce_sum.291 = f32[]{:T(128)} add(%reduce_sum.286, %reduce_sum.287), metadata={op_name="jit(train_step)/reduce_sum" stack_frame_id=0}, backend_config={"flag_configs":[],"scoped_memory_configs":[],"used_scoped_memory_configs":[],"aliasing_operands":{"lists":[]}}
}

%fused_computation.335 (param_0.1266: f32[1024,4,8,128], param_1.1404: f32[], param_2.1097: f32[], param_3.740: f32[], param_4.457: f32[1024,4,8,128], param_5.403: f32[], param_6.258: f32[4,1024,8,128], param_7.174: pred[], param_8.103: f32[1024,4,8,128]) -> (f32[], f32[1024,4,8,128], f32[1024,4,8,128], f32[1024,4,8,128], f32[]) {
  %param_0.1266 = f32[1024,4,8,128]{3,2,1,0:T(8,128)S(1)} parameter(0)
  %param_3.740 = f32[]{:T(128)S(6)} parameter(3)
  %mul.1932.clone.1 = f32[1024,4,8,128]{3,2,1,0:T(8,128)} broadcast(%param_3.740), dimensions={}, metadata={op_name="jit(train_step)/mul" stack_frame_id=0}
  %param_7.174 = pred[]{:T(512)S(6)} parameter(7)
  %select_n.274.clone.1 = pred[1024,4,8,128]{3,2,1,0:T(8,128)(4,1)} broadcast(%param_7.174), dimensions={}, metadata={op_name="jit(train_step)/select_n" stack_frame_id=0}
  %param_6.258 = f32[4,1024,8,128]{3,2,0,1:T(8,128)S(1)} parameter(6)
  %bitcast.621.clone.1 = f32[1024,4,8,128]{3,2,1,0:T(8,128)} bitcast(%param_6.258), metadata={op_name="jit(train_step)/transpose(jvp())/transpose" stack_frame_id=0}
  %param_5.403 = f32[]{:T(128)} parameter(5)
  %div.803.clone.1 = f32[1024,4,8,128]{3,2,1,0:T(8,128)} broadcast(%param_5.403), dimensions={}, metadata={op_name="jit(train_step)/div" stack_frame_id=0}
  %div.802.clone.1 = f32[1024,4,8,128]{3,2,1,0:T(8,128)} divide(%bitcast.621.clone.1, %div.803.clone.1), metadata={op_name="jit(train_step)/div" stack_frame_id=0}
  %select_n.273.clone.1 = f32[1024,4,8,128]{3,2,1,0:T(8,128)} select(%select_n.274.clone.1, %bitcast.621.clone.1, %div.802.clone.1), metadata={op_name="jit(train_step)/select_n" stack_frame_id=0}
  %constant.1220.clone.1 = f32[]{:T(128)} constant(0.1)
  %broadcast.642.clone.1 = f32[1024,4,8,128]{3,2,1,0:T(8,128)} broadcast(%constant.1220.clone.1), dimensions={}, metadata={op_name="broadcast.68"}
  %mul.1936.clone.1 = f32[1024,4,8,128]{3,2,1,0:T(8,128)} multiply(%select_n.273.clone.1, %broadcast.642.clone.1), metadata={op_name="jit(train_step)/mul" stack_frame_id=0}
  %param_8.103 = f32[1024,4,8,128]{3,2,1,0:T(8,128)} parameter(8)
  %constant.1224.clone.1 = f32[]{:T(128)} constant(0.9)
  %broadcast.641.clone.1 = f32[1024,4,8,128]{3,2,1,0:T(8,128)} broadcast(%constant.1224.clone.1), dimensions={}, metadata={op_name="broadcast.67"}
  %mul.1935.clone.1 = f32[1024,4,8,128]{3,2,1,0:T(8,128)} multiply(%param_8.103, %broadcast.641.clone.1), metadata={op_name="jit(train_step)/mul" stack_frame_id=0}
  %add.831.clone.1 = f32[1024,4,8,128]{3,2,1,0:T(8,128)} add(%mul.1936.clone.1, %mul.1935.clone.1), metadata={op_name="jit(train_step)/add" stack_frame_id=0}
  %param_2.1097 = f32[]{:T(128)S(6)} parameter(2)
  %div.799.clone.1 = f32[1024,4,8,128]{3,2,1,0:T(8,128)} broadcast(%param_2.1097), dimensions={}, metadata={op_name="jit(train_step)/div" stack_frame_id=0}
  %integer_pow.68.clone.1 = f32[1024,4,8,128]{3,2,1,0:T(8,128)} multiply(%select_n.273.clone.1, %select_n.273.clone.1), metadata={op_name="jit(train_step)/integer_pow" stack_frame_id=0}
  %constant.1223.clone.1 = f32[]{:T(128)} constant(0.05)
  %broadcast.640.clone.1 = f32[1024,4,8,128]{3,2,1,0:T(8,128)} broadcast(%constant.1223.clone.1), dimensions={}, metadata={op_name="broadcast.58"}
  %mul.1934.clone.1 = f32[1024,4,8,128]{3,2,1,0:T(8,128)} multiply(%integer_pow.68.clone.1, %broadcast.640.clone.1), metadata={op_name="jit(train_step)/mul" stack_frame_id=0}
  %param_4.457 = f32[1024,4,8,128]{3,2,1,0:T(8,128)S(1)} parameter(4)
  %constant.1222.clone.1 = f32[]{:T(128)} constant(0.95)
  %broadcast.639.clone.1 = f32[1024,4,8,128]{3,2,1,0:T(8,128)} broadcast(%constant.1222.clone.1), dimensions={}, metadata={op_name="broadcast.57"}
  %mul.1933.clone.1 = f32[1024,4,8,128]{3,2,1,0:T(8,128)} multiply(%param_4.457, %broadcast.639.clone.1), metadata={op_name="jit(train_step)/mul" stack_frame_id=0}
  %add.830.clone.1 = f32[1024,4,8,128]{3,2,1,0:T(8,128)S(1)} add(%mul.1934.clone.1, %mul.1933.clone.1), metadata={op_name="jit(train_step)/add" stack_frame_id=0}
  %param_1.1404 = f32[]{:T(128)S(6)} parameter(1)
  %div.798.clone.1 = f32[1024,4,8,128]{3,2,1,0:T(8,128)} broadcast(%param_1.1404), dimensions={}, metadata={op_name="jit(train_step)/div" stack_frame_id=0}
  %div.797.clone.1 = f32[1024,4,8,128]{3,2,1,0:T(8,128)} divide(%add.830.clone.1, %div.798.clone.1), metadata={op_name="jit(train_step)/div" stack_frame_id=0}
  %sqrt.66.clone.1 = f32[1024,4,8,128]{3,2,1,0:T(8,128)} sqrt(%div.797.clone.1), metadata={op_name="jit(train_step)/sqrt" stack_frame_id=0}
  %constant.1221.clone.1 = f32[]{:T(128)} constant(1e-08)
  %broadcast.637.clone.1 = f32[1024,4,8,128]{3,2,1,0:T(8,128)} broadcast(%constant.1221.clone.1), dimensions={}, metadata={op_name="broadcast.54"}
  %add.829.clone.1 = f32[1024,4,8,128]{3,2,1,0:T(8,128)} add(%sqrt.66.clone.1, %broadcast.637.clone.1), metadata={op_name="jit(train_step)/add" stack_frame_id=0}
  %multiply.212.clone.1 = f32[1024,4,8,128]{3,2,1,0:T(8,128)} multiply(%div.799.clone.1, %add.829.clone.1), metadata={op_name="multiply.27"}
  %div.796.clone.1 = f32[1024,4,8,128]{3,2,1,0:T(8,128)} divide(%add.831.clone.1, %multiply.212.clone.1), metadata={op_name="jit(train_step)/div" stack_frame_id=0}
  %mul.1931.clone.1 = f32[1024,4,8,128]{3,2,1,0:T(8,128)} multiply(%param_0.1266, %broadcast.642.clone.1), metadata={op_name="jit(train_step)/mul" stack_frame_id=0}
  %add.828.clone.1 = f32[1024,4,8,128]{3,2,1,0:T(8,128)} add(%div.796.clone.1, %mul.1931.clone.1), metadata={op_name="jit(train_step)/add" stack_frame_id=0}
  %mul.1930.clone.1 = f32[1024,4,8,128]{3,2,1,0:T(8,128)} multiply(%mul.1932.clone.1, %add.828.clone.1), metadata={op_name="jit(train_step)/mul" stack_frame_id=0}
  %add.827.clone.1 = f32[1024,4,8,128]{3,2,1,0:T(8,128)S(1)} add(%param_0.1266, %mul.1930.clone.1), metadata={op_name="jit(train_step)/add" stack_frame_id=0}
  %square.190 = f32[1024,4,8,128]{3,2,1,0:T(8,128)} multiply(%add.827.clone.1, %add.827.clone.1), metadata={op_name="jit(train_step)/square" stack_frame_id=0}
  %constant.1252 = f32[]{:T(128)} constant(0)
  %reduce.118 = f32[]{:T(128)} reduce(%square.190, %constant.1252), dimensions={0,1,2,3}, to_apply=%region_52.57, metadata={op_name="jit(train_step)/reduce_sum" stack_frame_id=0}
  %reduce.120.clone.1 = f32[]{:T(128)} reduce(%integer_pow.68.clone.1, %constant.1252), dimensions={0,1,2,3}, to_apply=%region_38.43, metadata={op_name="jit(train_step)/reduce_sum" stack_frame_id=0}
  ROOT %tuple.142 = (f32[]{:T(128)}, f32[1024,4,8,128]{3,2,1,0:T(8,128)S(1)}, f32[1024,4,8,128]{3,2,1,0:T(8,128)S(1)}, f32[1024,4,8,128]{3,2,1,0:T(8,128)}, f32[]{:T(128)}) tuple(%reduce.118, %add.827.clone.1, %add.830.clone.1, %add.831.clone.1, %reduce.120.clone.1)
}

%fused_computation.351 (param_0.998: bf16[1,128,4096], param_1.1044: f32[128], param_2.699: f32[128], param_3.393: bf16[1,128,4096], param_4.231: bf16[4096]) -> bf16[1,128,4096] {
  %param_3.393 = bf16[1,128,4096]{2,1,0:T(8,128)(2,1)S(1)} parameter(3)
  %param_4.231 = bf16[4096]{0:T(1024)(128)(2,1)S(1)} parameter(4)
  %mul.1779 = bf16[1,128,4096]{2,1,0:T(8,128)(2,1)} broadcast(%param_4.231), dimensions={2}, metadata={op_name="jit(train_step)/jvp()/mul" stack_frame_id=0}
  %mul.1765 = bf16[1,128,4096]{2,1,0:T(8,128)(2,1)} multiply(%param_3.393, %mul.1779), metadata={op_name="jit(train_step)/transpose(jvp())/mul" stack_frame_id=0}
  %convert_element_type.915 = f32[1,128,4096]{2,1,0:T(8,128)} convert(%mul.1765), metadata={op_name="jit(train_step)/transpose(jvp())/convert_element_type" stack_frame_id=0}
  %param_2.699 = f32[128]{0:T(128)S(1)} parameter(2)
  %mul.1761 = f32[1,128,4096]{2,1,0:T(8,128)} broadcast(%param_2.699), dimensions={1}, metadata={op_name="jit(train_step)/jvp()/mul" stack_frame_id=0}
  %mul.1753 = f32[1,128,4096]{2,1,0:T(8,128)} multiply(%convert_element_type.915, %mul.1761), metadata={op_name="jit(train_step)/transpose(jvp())/mul" stack_frame_id=0}
  %param_0.998 = bf16[1,128,4096]{2,1,0:T(8,128)(2,1)S(1)} parameter(0)
  %convert_element_type.926 = f32[1,128,4096]{2,1,0:T(8,128)} convert(%param_0.998), metadata={op_name="jit(train_step)/jvp()/convert_element_type" stack_frame_id=0}
  %param_1.1044 = f32[128]{0:T(128)S(1)} parameter(1)
  %mul.1760 = f32[1,128,4096]{2,1,0:T(8,128)} broadcast(%param_1.1044), dimensions={1}, metadata={op_name="jit(train_step)/transpose(jvp())/mul" stack_frame_id=0}
  %mul.1759 = f32[1,128,4096]{2,1,0:T(8,128)} multiply(%convert_element_type.926, %mul.1760), metadata={op_name="jit(train_step)/transpose(jvp())/mul" stack_frame_id=0}
  %add_any.153 = f32[1,128,4096]{2,1,0:T(8,128)} add(%mul.1753, %mul.1759), metadata={op_name="jit(train_step)/transpose(jvp())/add_any" stack_frame_id=0}
  ROOT %convert_element_type.913 = bf16[1,128,4096]{2,1,0:T(8,128)(2,1)} convert(%add_any.153), metadata={op_name="jit(train_step)/transpose(jvp())/convert_element_type" stack_frame_id=0}
}

%region_4.7 (reduce_sum.114: f32[], reduce_sum.115: f32[]) -> f32[] {
  %reduce_sum.114 = f32[]{:T(128)} parameter(0), metadata={op_name="jit(train_step)/jvp()/reduce_sum"}
  %reduce_sum.115 = f32[]{:T(128)} parameter(1), metadata={op_name="jit(train_step)/jvp()/reduce_sum"}
  ROOT %reduce_sum.116 = f32[]{:T(128)} add(%reduce_sum.114, %reduce_sum.115), metadata={op_name="jit(train_step)/jvp()/reduce_sum" stack_frame_id=0}, backend_config={"flag_configs":[],"scoped_memory_configs":[],"used_scoped_memory_configs":[],"aliasing_operands":{"lists":[]}}
}

%fused_computation.352 (param_0.1287: bf16[1,128,4096]) -> f32[128] {
  %param_0.1287 = bf16[1,128,4096]{2,1,0:T(8,128)(2,1)} parameter(0)
  %convert_element_type.917 = f32[1,128,4096]{2,1,0:T(8,128)} convert(%param_0.1287), metadata={op_name="jit(train_step)/jvp()/convert_element_type" stack_frame_id=0}
  %square.193 = f32[1,128,4096]{2,1,0:T(8,128)} multiply(%convert_element_type.917, %convert_element_type.917), metadata={op_name="jit(train_step)/jvp()/square" stack_frame_id=0}
  %constant.1274 = f32[]{:T(128)} constant(0)
  ROOT %reduce.121 = f32[128]{0:T(128)S(1)} reduce(%square.193, %constant.1274), dimensions={0,2}, to_apply=%region_4.7, metadata={op_name="jit(train_step)/jvp()/reduce_sum" stack_frame_id=0}
}

%region_10.13 (reduce_sum.141: f32[], reduce_sum.142: f32[]) -> f32[] {
  %reduce_sum.141 = f32[]{:T(128)} parameter(0), metadata={op_name="jit(train_step)/transpose(jvp())/reduce_sum"}
  %reduce_sum.142 = f32[]{:T(128)} parameter(1), metadata={op_name="jit(train_step)/transpose(jvp())/reduce_sum"}
  ROOT %reduce_sum.143 = f32[]{:T(128)} add(%reduce_sum.141, %reduce_sum.142), metadata={op_name="jit(train_step)/transpose(jvp())/reduce_sum" stack_frame_id=0}, backend_config={"flag_configs":[],"scoped_memory_configs":[],"used_scoped_memory_configs":[],"aliasing_operands":{"lists":[]}}
}

%fused_computation.354 (param_0.1282: bf16[1,128,4096], param_1.1413: bf16[1,128,4096], param_2.1104: bf16[4096]) -> f32[128] {
  %param_0.1282 = bf16[1,128,4096]{2,1,0:T(8,128)(2,1)S(1)} parameter(0)
  %convert_element_type.924 = f32[1,128,4096]{2,1,0:T(8,128)} convert(%param_0.1282), metadata={op_name="jit(train_step)/jvp()/convert_element_type" stack_frame_id=0}
  %param_1.1413 = bf16[1,128,4096]{2,1,0:T(8,128)(2,1)S(1)} parameter(1)
  %param_2.1104 = bf16[4096]{0:T(1024)(128)(2,1)S(1)} parameter(2)
  %mul.1778 = bf16[1,128,4096]{2,1,0:T(8,128)(2,1)} broadcast(%param_2.1104), dimensions={2}, metadata={op_name="jit(train_step)/jvp()/mul" stack_frame_id=0}
  %mul.1764 = bf16[1,128,4096]{2,1,0:T(8,128)(2,1)} multiply(%param_1.1413, %mul.1778), metadata={op_name="jit(train_step)/transpose(jvp())/mul" stack_frame_id=0}
  %convert_element_type.923 = f32[1,128,4096]{2,1,0:T(8,128)} convert(%mul.1764), metadata={op_name="jit(train_step)/transpose(jvp())/convert_element_type" stack_frame_id=0}
  %mul.1757 = f32[1,128,4096]{2,1,0:T(8,128)} multiply(%convert_element_type.924, %convert_element_type.923), metadata={op_name="jit(train_step)/transpose(jvp())/mul" stack_frame_id=0}
  %constant.1268 = f32[]{:T(128)} constant(0)
  ROOT %reduce.122 = f32[128]{0:T(128)S(1)} reduce(%mul.1757, %constant.1268), dimensions={0,2}, to_apply=%region_10.13, metadata={op_name="jit(train_step)/transpose(jvp())/reduce_sum" stack_frame_id=0}
}

%fused_computation.356 (param_0.1011: bf16[4096], param_1.1060: f32[128], param_2.707: bf16[1,128,4096]) -> bf16[128,4096] {
  %param_2.707 = bf16[1,128,4096]{2,1,0:T(8,128)(2,1)S(1)} parameter(2)
  %convert_element_type.932 = f32[1,128,4096]{2,1,0:T(8,128)} convert(%param_2.707), metadata={op_name="jit(train_step)/jvp()/convert_element_type" stack_frame_id=0}
  %param_1.1060 = f32[128]{0:T(128)S(1)} parameter(1)
  %mul.1789 = f32[1,128,4096]{2,1,0:T(8,128)} broadcast(%param_1.1060), dimensions={1}, metadata={op_name="jit(train_step)/jvp()/mul" stack_frame_id=0}
  %mul.1788 = f32[1,128,4096]{2,1,0:T(8,128)} multiply(%convert_element_type.932, %mul.1789), metadata={op_name="jit(train_step)/jvp()/mul" stack_frame_id=0}
  %convert_element_type.931 = bf16[1,128,4096]{2,1,0:T(8,128)(2,1)} convert(%mul.1788), metadata={op_name="jit(train_step)/jvp()/convert_element_type" stack_frame_id=0}
  %param_0.1011 = bf16[4096]{0:T(1024)(128)(2,1)S(1)} parameter(0)
  %mul.1777 = bf16[1,128,4096]{2,1,0:T(8,128)(2,1)} broadcast(%param_0.1011), dimensions={2}, metadata={op_name="jit(train_step)/jvp()/mul" stack_frame_id=0}
  %mul.1769 = bf16[1,128,4096]{2,1,0:T(8,128)(2,1)} multiply(%convert_element_type.931, %mul.1777), metadata={op_name="jit(train_step)/jvp()/mul" stack_frame_id=0}
  ROOT %bitcast.547 = bf16[128,4096]{1,0:T(8,128)(2,1)} bitcast(%mul.1769)
}

%fused_computation.326.clone (param_0.1172: bf16[128,128256], param_1.1290: f32[128], param_2.922: f32[128], param_3.557: bf16[128], param_4.307: s32[128], param_5.257: f32[128]) -> bf16[128,128256] {
  %param_5.257 = f32[128]{0:T(128)S(1)} parameter(5)
  %mul.1854 = f32[1,128,128256]{2,1,0:T(8,128)} broadcast(%param_5.257), dimensions={1}, metadata={op_name="jit(train_step)/transpose(jvp())/mul" stack_frame_id=0}
  %param_1.1290 = f32[128]{0:T(128)S(1)} parameter(1)
  %mul.1853 = f32[1,128,128256]{2,1,0:T(8,128)} broadcast(%param_1.1290), dimensions={1}, metadata={op_name="jit(train_step)/transpose(jvp())/mul" stack_frame_id=0}
  %param_0.1172 = bf16[128,128256]{1,0:T(8,128)(2,1)S(1)} parameter(0)
  %convert_element_type.963 = f32[128,128256]{1,0:T(8,128)} convert(%param_0.1172), metadata={op_name="jit(train_step)/jvp()/convert_element_type" stack_frame_id=0}
  %bitcast.589 = f32[1,128,128256]{2,1,0:T(8,128)} bitcast(%convert_element_type.963), metadata={op_name="jit(train_step)/jvp()/convert_element_type" stack_frame_id=0}
  %param_3.557 = bf16[128]{0:T(256)(128)(2,1)S(1)} parameter(3)
  %sub.103 = f32[1,128,128256]{2,1,0:T(8,128)} broadcast(%param_3.557), dimensions={1}, metadata={op_name="jit(train_step)/jvp()/sub" stack_frame_id=0}
  %sub.102 = f32[1,128,128256]{2,1,0:T(8,128)} subtract(%bitcast.589, %sub.103), metadata={op_name="jit(train_step)/jvp()/sub" stack_frame_id=0}
  %exp.67 = f32[1,128,128256]{2,1,0:T(8,128)} exponential(%sub.102), metadata={op_name="jit(train_step)/jvp()/exp" stack_frame_id=0}
  %mul.1852 = f32[1,128,128256]{2,1,0:T(8,128)} multiply(%mul.1853, %exp.67), metadata={op_name="jit(train_step)/transpose(jvp())/mul" stack_frame_id=0}
  %param_2.922 = f32[128]{0:T(128)S(1)} parameter(2)
  %div.693 = f32[1,128,128256]{2,1,0:T(8,128)} broadcast(%param_2.922), dimensions={1}, metadata={op_name="jit(train_step)/transpose(jvp())/div" stack_frame_id=0}
  %div.692 = f32[1,128,128256]{2,1,0:T(8,128)} divide(%mul.1852, %div.693), metadata={op_name="jit(train_step)/transpose(jvp())/div" stack_frame_id=0}
  %param_4.307 = s32[128]{0:T(128)S(1)} parameter(4)
  %eq.29 = s32[1,128,128256]{2,1,0:T(8,128)} broadcast(%param_4.307), dimensions={1}, metadata={op_name="jit(train_step)/jvp(jit(_one_hot))/eq" stack_frame_id=0}
  %iota.57 = s32[1,128,128256]{2,1,0:T(8,128)} iota(), iota_dimension=2, metadata={op_name="jit(train_step)/jvp(jit(_one_hot))/eq" stack_frame_id=0}
  %eq.28 = pred[1,128,128256]{2,1,0:T(8,128)(4,1)} compare(%eq.29, %iota.57), direction=EQ, metadata={op_name="jit(train_step)/jvp(jit(_one_hot))/eq" stack_frame_id=0}
  %convert_element_type.962 = f32[1,128,128256]{2,1,0:T(8,128)} convert(%eq.28), metadata={op_name="jit(train_step)/jvp(jit(_one_hot))/convert_element_type" stack_frame_id=0}
  %sub.101 = f32[1,128,128256]{2,1,0:T(8,128)} subtract(%div.692, %convert_element_type.962), metadata={op_name="jit(train_step)/transpose(jvp())/sub" stack_frame_id=0}
  %mul.1851 = f32[1,128,128256]{2,1,0:T(8,128)} multiply(%mul.1854, %sub.101), metadata={op_name="jit(train_step)/transpose(jvp())/mul" stack_frame_id=0}
  %convert_element_type.961 = bf16[1,128,128256]{2,1,0:T(8,128)(2,1)} convert(%mul.1851), metadata={op_name="jit(train_step)/transpose(jvp())/convert_element_type" stack_frame_id=0}
  ROOT %bitcast.588 = bf16[128,128256]{1,0:T(8,128)(2,1)} bitcast(%convert_element_type.961)
}

%fused_computation.355 (param_0.1173: bf16[4096], param_1.1291: bf16[1,128,4096], param_2.923: f32[128], param_3.558: bf16[128,128256], param_4.308: f32[128], param_5.258: f32[128], param_6.118: bf16[128], param_7.74: s32[128], param_8: f32[128]) -> bf16[4096,128256] {
  %param_0.1173 = bf16[4096]{0:T(1024)(128)(2,1)S(1)} parameter(0)
  %param_2.923 = f32[128]{0:T(128)S(1)} parameter(2)
  %param_1.1291 = bf16[1,128,4096]{2,1,0:T(8,128)(2,1)S(1)} parameter(1)
  %fusion.298 = bf16[128,4096]{1,0:T(8,128)(2,1)} fusion(%param_0.1173, %param_2.923, %param_1.1291), kind=kLoop, calls=%fused_computation.356
  %param_3.558 = bf16[128,128256]{1,0:T(8,128)(2,1)S(1)} parameter(3)
  %param_4.308 = f32[128]{0:T(128)S(1)} parameter(4)
  %param_5.258 = f32[128]{0:T(128)S(1)} parameter(5)
  %param_6.118 = bf16[128]{0:T(256)(128)(2,1)S(1)} parameter(6)
  %param_7.74 = s32[128]{0:T(128)S(1)} parameter(7)
  %param_8 = f32[128]{0:T(128)S(1)} parameter(8)
  %fusion.319 = bf16[128,128256]{1,0:T(8,128)(2,1)} fusion(%param_3.558, %param_4.308, %param_5.258, %param_6.118, %param_7.74, /*index=5*/%param_8), kind=kLoop, calls=%fused_computation.326.clone
  ROOT %convolution.118 = bf16[4096,128256]{1,0:T(8,128)(2,1)} convolution(%fusion.298, %fusion.319), dim_labels=fb_io->bf, metadata={op_name="jit(train_step)/transpose(jvp())/dot_general" stack_frame_id=0}
}

%region_8.11 (reduce_sum.129: bf16[], reduce_sum.130: bf16[]) -> bf16[] {
  %reduce_sum.129 = bf16[]{:T(256)} parameter(0), metadata={op_name="jit(train_step)/transpose(jvp())/reduce_sum"}
  %reduce_sum.130 = bf16[]{:T(256)} parameter(1), metadata={op_name="jit(train_step)/transpose(jvp())/reduce_sum"}
  ROOT %reduce_sum.134 = bf16[]{:T(256)} add(%reduce_sum.129, %reduce_sum.130), metadata={op_name="jit(train_step)/transpose(jvp())/reduce_sum" stack_frame_id=0}, backend_config={"flag_configs":[],"scoped_memory_configs":[],"used_scoped_memory_configs":[],"aliasing_operands":{"lists":[]}}
}

%fused_computation.326.clone.1.clone.clone (param_0.1257: bf16[128,128256], param_1.1397: f32[128], param_2.1083: f32[128], param_3.732: bf16[128], param_4.450: s32[128], param_5.396: f32[128]) -> bf16[128,128256] {
  %param_5.396 = f32[128]{0:T(128)S(1)} parameter(5)
  %mul.1986 = f32[1,128,128256]{2,1,0:T(8,128)} broadcast(%param_5.396), dimensions={1}, metadata={op_name="jit(train_step)/transpose(jvp())/mul" stack_frame_id=0}
  %param_1.1397 = f32[128]{0:T(128)S(1)} parameter(1)
  %mul.1985 = f32[1,128,128256]{2,1,0:T(8,128)} broadcast(%param_1.1397), dimensions={1}, metadata={op_name="jit(train_step)/transpose(jvp())/mul" stack_frame_id=0}
  %param_0.1257 = bf16[128,128256]{1,0:T(8,128)(2,1)S(1)} parameter(0)
  %convert_element_type.982 = f32[128,128256]{1,0:T(8,128)} convert(%param_0.1257), metadata={op_name="jit(train_step)/jvp()/convert_element_type" stack_frame_id=0}
  %bitcast.653 = f32[1,128,128256]{2,1,0:T(8,128)} bitcast(%convert_element_type.982), metadata={op_name="jit(train_step)/jvp()/convert_element_type" stack_frame_id=0}
  %param_3.732 = bf16[128]{0:T(256)(128)(2,1)S(1)} parameter(3)
  %sub.114 = f32[1,128,128256]{2,1,0:T(8,128)} broadcast(%param_3.732), dimensions={1}, metadata={op_name="jit(train_step)/jvp()/sub" stack_frame_id=0}
  %sub.113 = f32[1,128,128256]{2,1,0:T(8,128)} subtract(%bitcast.653, %sub.114), metadata={op_name="jit(train_step)/jvp()/sub" stack_frame_id=0}
  %exp.72 = f32[1,128,128256]{2,1,0:T(8,128)} exponential(%sub.113), metadata={op_name="jit(train_step)/jvp()/exp" stack_frame_id=0}
  %mul.1984 = f32[1,128,128256]{2,1,0:T(8,128)} multiply(%mul.1985, %exp.72), metadata={op_name="jit(train_step)/transpose(jvp())/mul" stack_frame_id=0}
  %param_2.1083 = f32[128]{0:T(128)S(1)} parameter(2)
  %div.833 = f32[1,128,128256]{2,1,0:T(8,128)} broadcast(%param_2.1083), dimensions={1}, metadata={op_name="jit(train_step)/transpose(jvp())/div" stack_frame_id=0}
  %div.832 = f32[1,128,128256]{2,1,0:T(8,128)} divide(%mul.1984, %div.833), metadata={op_name="jit(train_step)/transpose(jvp())/div" stack_frame_id=0}
  %param_4.450 = s32[128]{0:T(128)S(1)} parameter(4)
  %eq.35 = s32[1,128,128256]{2,1,0:T(8,128)} broadcast(%param_4.450), dimensions={1}, metadata={op_name="jit(train_step)/jvp(jit(_one_hot))/eq" stack_frame_id=0}
  %iota.60 = s32[1,128,128256]{2,1,0:T(8,128)} iota(), iota_dimension=2, metadata={op_name="jit(train_step)/jvp(jit(_one_hot))/eq" stack_frame_id=0}
  %eq.34 = pred[1,128,128256]{2,1,0:T(8,128)(4,1)} compare(%eq.35, %iota.60), direction=EQ, metadata={op_name="jit(train_step)/jvp(jit(_one_hot))/eq" stack_frame_id=0}
  %convert_element_type.981 = f32[1,128,128256]{2,1,0:T(8,128)} convert(%eq.34), metadata={op_name="jit(train_step)/jvp(jit(_one_hot))/convert_element_type" stack_frame_id=0}
  %sub.112 = f32[1,128,128256]{2,1,0:T(8,128)} subtract(%div.832, %convert_element_type.981), metadata={op_name="jit(train_step)/transpose(jvp())/sub" stack_frame_id=0}
  %mul.1983 = f32[1,128,128256]{2,1,0:T(8,128)} multiply(%mul.1986, %sub.112), metadata={op_name="jit(train_step)/transpose(jvp())/mul" stack_frame_id=0}
  %convert_element_type.980 = bf16[1,128,128256]{2,1,0:T(8,128)(2,1)} convert(%mul.1983), metadata={op_name="jit(train_step)/transpose(jvp())/convert_element_type" stack_frame_id=0}
  ROOT %bitcast.652 = bf16[128,128256]{1,0:T(8,128)(2,1)} bitcast(%convert_element_type.980)
}

%bitcast_fusion.4 (bitcast_input.4: bf16[4096,128256]) -> bf16[4096,128256] {
  %bitcast_input.4 = bf16[4096,128256]{1,0:T(8,128)(2,1)} parameter(0)
  ROOT %bitcast.660 = bf16[4096,128256]{1,0:T(8,128)(2,1)} bitcast(%bitcast_input.4)
}

%fused_computation.359 (param_0.1256: f32[128], param_1.1396: bf16[1,128,4096], param_2.1084: bf16[4096,128256], param_3.733: bf16[128,128256], param_4.451: f32[128], param_5.397: f32[128], param_6.252: bf16[128], param_7.168: s32[128], param_8.97: f32[128]) -> (bf16[4096], bf16[1,128,4096]) {
  %param_1.1396 = bf16[1,128,4096]{2,1,0:T(8,128)(2,1)S(1)} parameter(1)
  %convert_element_type.936 = f32[1,128,4096]{2,1,0:T(8,128)} convert(%param_1.1396), metadata={op_name="jit(train_step)/jvp()/convert_element_type" stack_frame_id=0}
  %param_0.1256 = f32[128]{0:T(128)S(1)} parameter(0)
  %mul.1793 = f32[1,128,4096]{2,1,0:T(8,128)} broadcast(%param_0.1256), dimensions={1}, metadata={op_name="jit(train_step)/jvp()/mul" stack_frame_id=0}
  %mul.1792 = f32[1,128,4096]{2,1,0:T(8,128)} multiply(%convert_element_type.936, %mul.1793), metadata={op_name="jit(train_step)/jvp()/mul" stack_frame_id=0}
  %convert_element_type.935 = bf16[1,128,4096]{2,1,0:T(8,128)(2,1)} convert(%mul.1792), metadata={op_name="jit(train_step)/jvp()/convert_element_type" stack_frame_id=0}
  %param_3.733 = bf16[128,128256]{1,0:T(8,128)(2,1)S(1)} parameter(3)
  %param_4.451 = f32[128]{0:T(128)S(1)} parameter(4)
  %param_5.397 = f32[128]{0:T(128)S(1)} parameter(5)
  %param_6.252 = bf16[128]{0:T(256)(128)(2,1)S(1)} parameter(6)
  %param_7.168 = s32[128]{0:T(128)S(1)} parameter(7)
  %param_8.97 = f32[128]{0:T(128)S(1)} parameter(8)
  %fusion.320.clone.1 = bf16[128,128256]{1,0:T(8,128)(2,1)} fusion(%param_3.733, %param_4.451, %param_5.397, %param_6.252, %param_7.168, /*index=5*/%param_8.97), kind=kLoop, calls=%fused_computation.326.clone.1.clone.clone
  %param_2.1084 = bf16[4096,128256]{1,0:T(8,128)(2,1)} parameter(2)
  %fusion.332 = bf16[4096,128256]{1,0:T(8,128)(2,1)} fusion(%param_2.1084), kind=kLoop, calls=%bitcast_fusion.4
  %convolution.117.clone.1 = bf16[128,4096]{1,0:T(8,128)(2,1)} convolution(%fusion.320.clone.1, %fusion.332), dim_labels=bf_oi->bf, metadata={op_name="jit(train_step)/transpose(jvp())/dot_general" stack_frame_id=0}
  %bitcast.545.clone.1 = bf16[1,128,4096]{2,1,0:T(8,128)(2,1)S(1)} bitcast(%convolution.117.clone.1), metadata={op_name="jit(train_step)/transpose(jvp())/dot_general" stack_frame_id=0}
  %mul.1763 = bf16[1,128,4096]{2,1,0:T(8,128)(2,1)} multiply(%convert_element_type.935, %bitcast.545.clone.1), metadata={op_name="jit(train_step)/transpose(jvp())/mul" stack_frame_id=0}
  %constant.1140 = bf16[]{:T(256)} constant(0)
  %reduce.123 = bf16[4096]{0:T(1024)(128)(2,1)S(1)} reduce(%mul.1763, %constant.1140), dimensions={0,1}, to_apply=%region_8.11, metadata={op_name="jit(train_step)/transpose(jvp())/reduce_sum" stack_frame_id=0}
  ROOT %tuple.153 = (bf16[4096]{0:T(1024)(128)(2,1)S(1)}, bf16[1,128,4096]{2,1,0:T(8,128)(2,1)S(1)}) tuple(%reduce.123, %bitcast.545.clone.1)
}

%fused_computation.369 (param_0.1064: f32[128], param_1.1127: f32[64]) -> (bf16[1,128,1,64], bf16[1,128,1,64]) {
  %param_0.1064 = f32[128]{0:T(128)S(1)} parameter(0)
  %div.631 = f32[1,128,1,64]{3,1,2,0:T(8,128)} broadcast(%param_0.1064), dimensions={1}, metadata={op_name="jit(train_step)/div" stack_frame_id=0}
  %param_1.1127 = f32[64]{0:T(128)S(1)} parameter(1)
  %div.639 = f32[1,128,1,64]{3,1,2,0:T(8,128)} broadcast(%param_1.1127), dimensions={3}, metadata={op_name="jit(train_step)/div" stack_frame_id=0}
  %div.626 = f32[1,128,1,64]{3,1,2,0:T(8,128)} divide(%div.631, %div.639), metadata={op_name="jit(train_step)/div" stack_frame_id=0}
  %sin.38 = f32[1,128,1,64]{3,1,2,0:T(8,128)} sine(%div.626), metadata={op_name="jit(train_step)/sin" stack_frame_id=0}
  %convert_element_type.944 = bf16[1,128,1,64]{3,1,2,0:T(8,128)(2,1)S(1)} convert(%sin.38), metadata={op_name="jit(train_step)/convert_element_type" stack_frame_id=0}
  %cos.41.clone.1 = f32[1,128,1,64]{3,1,2,0:T(8,128)} cosine(%div.626), metadata={op_name="jit(train_step)/cos" stack_frame_id=0}
  %convert_element_type.943.clone.1 = bf16[1,128,1,64]{3,1,2,0:T(8,128)(2,1)S(1)} convert(%cos.41.clone.1), metadata={op_name="jit(train_step)/convert_element_type" stack_frame_id=0}
  ROOT %tuple.148 = (bf16[1,128,1,64]{3,1,2,0:T(8,128)(2,1)S(1)}, bf16[1,128,1,64]{3,1,2,0:T(8,128)(2,1)S(1)}) tuple(%convert_element_type.944, %convert_element_type.943.clone.1)
}

%region_24.29 (reduce_sum.217: f32[], reduce_sum.221: f32[]) -> f32[] {
  %reduce_sum.217 = f32[]{:T(128)} parameter(0), metadata={op_name="jit(train_step)/reduce_sum"}
  %reduce_sum.221 = f32[]{:T(128)} parameter(1), metadata={op_name="jit(train_step)/reduce_sum"}
  ROOT %reduce_sum.222 = f32[]{:T(128)} add(%reduce_sum.217, %reduce_sum.221), metadata={op_name="jit(train_step)/reduce_sum" stack_frame_id=0}, backend_config={"flag_configs":[],"scoped_memory_configs":[],"used_scoped_memory_configs":[],"aliasing_operands":{"lists":[]}}
}

%fused_computation.371 (param_0.1273: f32[4,4096]) -> f32[] {
  %param_0.1273 = f32[4,4096]{1,0:T(4,128)S(1)} parameter(0)
  %bitcast.553 = f32[4096,4]{0,1:T(4,128)} bitcast(%param_0.1273), metadata={op_name="jit(train_step)/transpose(jvp())/transpose" stack_frame_id=0}
  %square.196 = f32[4096,4]{0,1:T(4,128)} multiply(%bitcast.553, %bitcast.553), metadata={op_name="jit(train_step)/square" stack_frame_id=0}
  %constant.1259 = f32[]{:T(128)} constant(0)
  ROOT %reduce.124 = f32[]{:T(128)} reduce(%square.196, %constant.1259), dimensions={0,1}, to_apply=%region_24.29, metadata={op_name="jit(train_step)/reduce_sum" stack_frame_id=0}
}

%region_23.28 (reduce_sum.214: f32[], reduce_sum.215: f32[]) -> f32[] {
  %reduce_sum.214 = f32[]{:T(128)} parameter(0), metadata={op_name="jit(train_step)/reduce_sum"}
  %reduce_sum.215 = f32[]{:T(128)} parameter(1), metadata={op_name="jit(train_step)/reduce_sum"}
  ROOT %reduce_sum.216 = f32[]{:T(128)} add(%reduce_sum.214, %reduce_sum.215), metadata={op_name="jit(train_step)/reduce_sum" stack_frame_id=0}, backend_config={"flag_configs":[],"scoped_memory_configs":[],"used_scoped_memory_configs":[],"aliasing_operands":{"lists":[]}}
}

%fused_computation.373 (param_0.1274: f32[4,4096]) -> f32[] {
  %param_0.1274 = f32[4,4096]{1,0:T(4,128)S(1)} parameter(0)
  %bitcast.557 = f32[4096,4]{0,1:T(4,128)} bitcast(%param_0.1274), metadata={op_name="jit(train_step)/transpose(jvp())/transpose" stack_frame_id=0}
  %square.199 = f32[4096,4]{0,1:T(4,128)} multiply(%bitcast.557, %bitcast.557), metadata={op_name="jit(train_step)/square" stack_frame_id=0}
  %constant.1260 = f32[]{:T(128)} constant(0)
  ROOT %reduce.125 = f32[]{:T(128)} reduce(%square.199, %constant.1260), dimensions={0,1}, to_apply=%region_23.28, metadata={op_name="jit(train_step)/reduce_sum" stack_frame_id=0}
}

%region_51.56 (reduce_sum.355: f32[], reduce_sum.356: f32[]) -> f32[] {
  %reduce_sum.355 = f32[]{:T(128)} parameter(0), metadata={op_name="jit(train_step)/reduce_sum"}
  %reduce_sum.356 = f32[]{:T(128)} parameter(1), metadata={op_name="jit(train_step)/reduce_sum"}
  ROOT %reduce_sum.357 = f32[]{:T(128)} add(%reduce_sum.355, %reduce_sum.356), metadata={op_name="jit(train_step)/reduce_sum" stack_frame_id=0}, backend_config={"flag_configs":[],"scoped_memory_configs":[],"used_scoped_memory_configs":[],"aliasing_operands":{"lists":[]}}
}

%region_37.42 (reduce_sum.280: f32[], reduce_sum.284: f32[]) -> f32[] {
  %reduce_sum.280 = f32[]{:T(128)} parameter(0), metadata={op_name="jit(train_step)/reduce_sum"}
  %reduce_sum.284 = f32[]{:T(128)} parameter(1), metadata={op_name="jit(train_step)/reduce_sum"}
  ROOT %reduce_sum.285 = f32[]{:T(128)} add(%reduce_sum.280, %reduce_sum.284), metadata={op_name="jit(train_step)/reduce_sum" stack_frame_id=0}, backend_config={"flag_configs":[],"scoped_memory_configs":[],"used_scoped_memory_configs":[],"aliasing_operands":{"lists":[]}}
}

%fused_computation.374 (param_0.1267: f32[4096,4], param_1.1405: f32[], param_2.1098: f32[], param_3.741: f32[], param_4.458: f32[4096,4], param_5.404: f32[], param_6.259: f32[4,4096], param_7.175: pred[], param_8.104: f32[4096,4]) -> (f32[], f32[4096,4], f32[4096,4], f32[4096,4], f32[]) {
  %param_0.1267 = f32[4096,4]{0,1:T(4,128)S(1)} parameter(0)
  %param_3.741 = f32[]{:T(128)S(6)} parameter(3)
  %mul.1861.clone.1 = f32[4096,4]{0,1:T(4,128)} broadcast(%param_3.741), dimensions={}, metadata={op_name="jit(train_step)/mul" stack_frame_id=0}
  %param_7.175 = pred[]{:T(512)S(6)} parameter(7)
  %select_n.242.clone.1 = pred[4096,4]{0,1:T(4,128)(4,1)} broadcast(%param_7.175), dimensions={}, metadata={op_name="jit(train_step)/select_n" stack_frame_id=0}
  %param_6.259 = f32[4,4096]{1,0:T(4,128)S(1)} parameter(6)
  %bitcast.611.clone.1 = f32[4096,4]{0,1:T(4,128)} bitcast(%param_6.259), metadata={op_name="jit(train_step)/transpose(jvp())/transpose" stack_frame_id=0}
  %param_5.404 = f32[]{:T(128)} parameter(5)
  %div.739.clone.1 = f32[4096,4]{0,1:T(4,128)} broadcast(%param_5.404), dimensions={}, metadata={op_name="jit(train_step)/div" stack_frame_id=0}
  %div.738.clone.1 = f32[4096,4]{0,1:T(4,128)} divide(%bitcast.611.clone.1, %div.739.clone.1), metadata={op_name="jit(train_step)/div" stack_frame_id=0}
  %select_n.241.clone.1 = f32[4096,4]{0,1:T(4,128)} select(%select_n.242.clone.1, %bitcast.611.clone.1, %div.738.clone.1), metadata={op_name="jit(train_step)/select_n" stack_frame_id=0}
  %constant.1172.clone.1 = f32[]{:T(128)} constant(0.1)
  %broadcast.614.clone.1 = f32[4096,4]{0,1:T(4,128)} broadcast(%constant.1172.clone.1), dimensions={}, metadata={op_name="broadcast.70"}
  %mul.1865.clone.1 = f32[4096,4]{0,1:T(4,128)} multiply(%select_n.241.clone.1, %broadcast.614.clone.1), metadata={op_name="jit(train_step)/mul" stack_frame_id=0}
  %param_8.104 = f32[4096,4]{0,1:T(4,128)S(1)} parameter(8)
  %constant.1176.clone.1 = f32[]{:T(128)} constant(0.9)
  %broadcast.613.clone.1 = f32[4096,4]{0,1:T(4,128)} broadcast(%constant.1176.clone.1), dimensions={}, metadata={op_name="broadcast.69"}
  %mul.1864.clone.1 = f32[4096,4]{0,1:T(4,128)} multiply(%param_8.104, %broadcast.613.clone.1), metadata={op_name="jit(train_step)/mul" stack_frame_id=0}
  %add.786.clone.1 = f32[4096,4]{0,1:T(4,128)S(1)} add(%mul.1865.clone.1, %mul.1864.clone.1), metadata={op_name="jit(train_step)/add" stack_frame_id=0}
  %param_2.1098 = f32[]{:T(128)S(6)} parameter(2)
  %div.735.clone.1 = f32[4096,4]{0,1:T(4,128)} broadcast(%param_2.1098), dimensions={}, metadata={op_name="jit(train_step)/div" stack_frame_id=0}
  %integer_pow.60.clone.1 = f32[4096,4]{0,1:T(4,128)} multiply(%select_n.241.clone.1, %select_n.241.clone.1), metadata={op_name="jit(train_step)/integer_pow" stack_frame_id=0}
  %constant.1175.clone.1 = f32[]{:T(128)} constant(0.05)
  %broadcast.612.clone.1 = f32[4096,4]{0,1:T(4,128)} broadcast(%constant.1175.clone.1), dimensions={}, metadata={op_name="broadcast.60"}
  %mul.1863.clone.1 = f32[4096,4]{0,1:T(4,128)} multiply(%integer_pow.60.clone.1, %broadcast.612.clone.1), metadata={op_name="jit(train_step)/mul" stack_frame_id=0}
  %param_4.458 = f32[4096,4]{0,1:T(4,128)S(1)} parameter(4)
  %constant.1174.clone.1 = f32[]{:T(128)} constant(0.95)
  %broadcast.611.clone.1 = f32[4096,4]{0,1:T(4,128)} broadcast(%constant.1174.clone.1), dimensions={}, metadata={op_name="broadcast.59"}
  %mul.1862.clone.1 = f32[4096,4]{0,1:T(4,128)} multiply(%param_4.458, %broadcast.611.clone.1), metadata={op_name="jit(train_step)/mul" stack_frame_id=0}
  %add.785.clone.1 = f32[4096,4]{0,1:T(4,128)S(1)} add(%mul.1863.clone.1, %mul.1862.clone.1), metadata={op_name="jit(train_step)/add" stack_frame_id=0}
  %param_1.1405 = f32[]{:T(128)S(6)} parameter(1)
  %div.734.clone.1 = f32[4096,4]{0,1:T(4,128)} broadcast(%param_1.1405), dimensions={}, metadata={op_name="jit(train_step)/div" stack_frame_id=0}
  %div.733.clone.1 = f32[4096,4]{0,1:T(4,128)} divide(%add.785.clone.1, %div.734.clone.1), metadata={op_name="jit(train_step)/div" stack_frame_id=0}
  %sqrt.58.clone.1 = f32[4096,4]{0,1:T(4,128)} sqrt(%div.733.clone.1), metadata={op_name="jit(train_step)/sqrt" stack_frame_id=0}
  %constant.1173.clone.1 = f32[]{:T(128)} constant(1e-08)
  %broadcast.609.clone.1 = f32[4096,4]{0,1:T(4,128)} broadcast(%constant.1173.clone.1), dimensions={}, metadata={op_name="broadcast.55"}
  %add.784.clone.1 = f32[4096,4]{0,1:T(4,128)} add(%sqrt.58.clone.1, %broadcast.609.clone.1), metadata={op_name="jit(train_step)/add" stack_frame_id=0}
  %multiply.204.clone.1 = f32[4096,4]{0,1:T(4,128)} multiply(%div.735.clone.1, %add.784.clone.1), metadata={op_name="multiply.26"}
  %div.732.clone.1 = f32[4096,4]{0,1:T(4,128)} divide(%add.786.clone.1, %multiply.204.clone.1), metadata={op_name="jit(train_step)/div" stack_frame_id=0}
  %mul.1860.clone.1 = f32[4096,4]{0,1:T(4,128)} multiply(%param_0.1267, %broadcast.614.clone.1), metadata={op_name="jit(train_step)/mul" stack_frame_id=0}
  %add.783.clone.1 = f32[4096,4]{0,1:T(4,128)} add(%div.732.clone.1, %mul.1860.clone.1), metadata={op_name="jit(train_step)/add" stack_frame_id=0}
  %mul.1859.clone.1 = f32[4096,4]{0,1:T(4,128)} multiply(%mul.1861.clone.1, %add.783.clone.1), metadata={op_name="jit(train_step)/mul" stack_frame_id=0}
  %add.782.clone.1 = f32[4096,4]{0,1:T(4,128)S(1)} add(%param_0.1267, %mul.1859.clone.1), metadata={op_name="jit(train_step)/add" stack_frame_id=0}
  %square.200 = f32[4096,4]{0,1:T(4,128)} multiply(%add.782.clone.1, %add.782.clone.1), metadata={op_name="jit(train_step)/square" stack_frame_id=0}
  %constant.1253 = f32[]{:T(128)} constant(0)
  %reduce.126 = f32[]{:T(128)} reduce(%square.200, %constant.1253), dimensions={0,1}, to_apply=%region_51.56, metadata={op_name="jit(train_step)/reduce_sum" stack_frame_id=0}
  %reduce.128.clone.1 = f32[]{:T(128)} reduce(%integer_pow.60.clone.1, %constant.1253), dimensions={0,1}, to_apply=%region_37.42, metadata={op_name="jit(train_step)/reduce_sum" stack_frame_id=0}
  ROOT %tuple.143 = (f32[]{:T(128)}, f32[4096,4]{0,1:T(4,128)S(1)}, f32[4096,4]{0,1:T(4,128)S(1)}, f32[4096,4]{0,1:T(4,128)S(1)}, f32[]{:T(128)}) tuple(%reduce.126, %add.782.clone.1, %add.785.clone.1, %add.786.clone.1, %reduce.128.clone.1)
}

%region_50.55 (reduce_sum.349: f32[], reduce_sum.350: f32[]) -> f32[] {
  %reduce_sum.349 = f32[]{:T(128)} parameter(0), metadata={op_name="jit(train_step)/reduce_sum"}
  %reduce_sum.350 = f32[]{:T(128)} parameter(1), metadata={op_name="jit(train_step)/reduce_sum"}
  ROOT %reduce_sum.354 = f32[]{:T(128)} add(%reduce_sum.349, %reduce_sum.350), metadata={op_name="jit(train_step)/reduce_sum" stack_frame_id=0}, backend_config={"flag_configs":[],"scoped_memory_configs":[],"used_scoped_memory_configs":[],"aliasing_operands":{"lists":[]}}
}

%region_36.41 (reduce_sum.277: f32[], reduce_sum.278: f32[]) -> f32[] {
  %reduce_sum.277 = f32[]{:T(128)} parameter(0), metadata={op_name="jit(train_step)/reduce_sum"}
  %reduce_sum.278 = f32[]{:T(128)} parameter(1), metadata={op_name="jit(train_step)/reduce_sum"}
  ROOT %reduce_sum.279 = f32[]{:T(128)} add(%reduce_sum.277, %reduce_sum.278), metadata={op_name="jit(train_step)/reduce_sum" stack_frame_id=0}, backend_config={"flag_configs":[],"scoped_memory_configs":[],"used_scoped_memory_configs":[],"aliasing_operands":{"lists":[]}}
}

%fused_computation.375 (param_0.1268: f32[4096,4], param_1.1406: f32[], param_2.1099: f32[], param_3.742: f32[], param_4.459: f32[4096,4], param_5.405: f32[], param_6.260: f32[4,4096], param_7.176: pred[], param_8.105: f32[4096,4]) -> (f32[], f32[4096,4], f32[4096,4], f32[4096,4], f32[]) {
  %param_0.1268 = f32[4096,4]{0,1:T(4,128)S(1)} parameter(0)
  %param_3.742 = f32[]{:T(128)S(6)} parameter(3)
  %mul.1868.clone.1 = f32[4096,4]{0,1:T(4,128)} broadcast(%param_3.742), dimensions={}, metadata={op_name="jit(train_step)/mul" stack_frame_id=0}
  %param_7.176 = pred[]{:T(512)S(6)} parameter(7)
  %select_n.246.clone.1 = pred[4096,4]{0,1:T(4,128)(4,1)} broadcast(%param_7.176), dimensions={}, metadata={op_name="jit(train_step)/select_n" stack_frame_id=0}
  %param_6.260 = f32[4,4096]{1,0:T(4,128)S(1)} parameter(6)
  %bitcast.613.clone.1 = f32[4096,4]{0,1:T(4,128)} bitcast(%param_6.260), metadata={op_name="jit(train_step)/transpose(jvp())/transpose" stack_frame_id=0}
  %param_5.405 = f32[]{:T(128)} parameter(5)
  %div.747.clone.1 = f32[4096,4]{0,1:T(4,128)} broadcast(%param_5.405), dimensions={}, metadata={op_name="jit(train_step)/div" stack_frame_id=0}
  %div.746.clone.1 = f32[4096,4]{0,1:T(4,128)} divide(%bitcast.613.clone.1, %div.747.clone.1), metadata={op_name="jit(train_step)/div" stack_frame_id=0}
  %select_n.245.clone.1 = f32[4096,4]{0,1:T(4,128)} select(%select_n.246.clone.1, %bitcast.613.clone.1, %div.746.clone.1), metadata={op_name="jit(train_step)/select_n" stack_frame_id=0}
  %constant.1178.clone.1 = f32[]{:T(128)} constant(0.1)
  %broadcast.620.clone.1 = f32[4096,4]{0,1:T(4,128)} broadcast(%constant.1178.clone.1), dimensions={}, metadata={op_name="broadcast.70"}
  %mul.1872.clone.1 = f32[4096,4]{0,1:T(4,128)} multiply(%select_n.245.clone.1, %broadcast.620.clone.1), metadata={op_name="jit(train_step)/mul" stack_frame_id=0}
  %param_8.105 = f32[4096,4]{0,1:T(4,128)S(1)} parameter(8)
  %constant.1182.clone.1 = f32[]{:T(128)} constant(0.9)
  %broadcast.619.clone.1 = f32[4096,4]{0,1:T(4,128)} broadcast(%constant.1182.clone.1), dimensions={}, metadata={op_name="broadcast.69"}
  %mul.1871.clone.1 = f32[4096,4]{0,1:T(4,128)} multiply(%param_8.105, %broadcast.619.clone.1), metadata={op_name="jit(train_step)/mul" stack_frame_id=0}
  %add.791.clone.1 = f32[4096,4]{0,1:T(4,128)S(1)} add(%mul.1872.clone.1, %mul.1871.clone.1), metadata={op_name="jit(train_step)/add" stack_frame_id=0}
  %param_2.1099 = f32[]{:T(128)S(6)} parameter(2)
  %div.743.clone.1 = f32[4096,4]{0,1:T(4,128)} broadcast(%param_2.1099), dimensions={}, metadata={op_name="jit(train_step)/div" stack_frame_id=0}
  %integer_pow.61.clone.1 = f32[4096,4]{0,1:T(4,128)} multiply(%select_n.245.clone.1, %select_n.245.clone.1), metadata={op_name="jit(train_step)/integer_pow" stack_frame_id=0}
  %constant.1181.clone.1 = f32[]{:T(128)} constant(0.05)
  %broadcast.618.clone.1 = f32[4096,4]{0,1:T(4,128)} broadcast(%constant.1181.clone.1), dimensions={}, metadata={op_name="broadcast.60"}
  %mul.1870.clone.1 = f32[4096,4]{0,1:T(4,128)} multiply(%integer_pow.61.clone.1, %broadcast.618.clone.1), metadata={op_name="jit(train_step)/mul" stack_frame_id=0}
  %param_4.459 = f32[4096,4]{0,1:T(4,128)S(1)} parameter(4)
  %constant.1180.clone.1 = f32[]{:T(128)} constant(0.95)
  %broadcast.617.clone.1 = f32[4096,4]{0,1:T(4,128)} broadcast(%constant.1180.clone.1), dimensions={}, metadata={op_name="broadcast.59"}
  %mul.1869.clone.1 = f32[4096,4]{0,1:T(4,128)} multiply(%param_4.459, %broadcast.617.clone.1), metadata={op_name="jit(train_step)/mul" stack_frame_id=0}
  %add.790.clone.1 = f32[4096,4]{0,1:T(4,128)S(1)} add(%mul.1870.clone.1, %mul.1869.clone.1), metadata={op_name="jit(train_step)/add" stack_frame_id=0}
  %param_1.1406 = f32[]{:T(128)S(6)} parameter(1)
  %div.742.clone.1 = f32[4096,4]{0,1:T(4,128)} broadcast(%param_1.1406), dimensions={}, metadata={op_name="jit(train_step)/div" stack_frame_id=0}
  %div.741.clone.1 = f32[4096,4]{0,1:T(4,128)} divide(%add.790.clone.1, %div.742.clone.1), metadata={op_name="jit(train_step)/div" stack_frame_id=0}
  %sqrt.59.clone.1 = f32[4096,4]{0,1:T(4,128)} sqrt(%div.741.clone.1), metadata={op_name="jit(train_step)/sqrt" stack_frame_id=0}
  %constant.1179.clone.1 = f32[]{:T(128)} constant(1e-08)
  %broadcast.615.clone.1 = f32[4096,4]{0,1:T(4,128)} broadcast(%constant.1179.clone.1), dimensions={}, metadata={op_name="broadcast.55"}
  %add.789.clone.1 = f32[4096,4]{0,1:T(4,128)} add(%sqrt.59.clone.1, %broadcast.615.clone.1), metadata={op_name="jit(train_step)/add" stack_frame_id=0}
  %multiply.205.clone.1 = f32[4096,4]{0,1:T(4,128)} multiply(%div.743.clone.1, %add.789.clone.1), metadata={op_name="multiply.25"}
  %div.740.clone.1 = f32[4096,4]{0,1:T(4,128)} divide(%add.791.clone.1, %multiply.205.clone.1), metadata={op_name="jit(train_step)/div" stack_frame_id=0}
  %mul.1867.clone.1 = f32[4096,4]{0,1:T(4,128)} multiply(%param_0.1268, %broadcast.620.clone.1), metadata={op_name="jit(train_step)/mul" stack_frame_id=0}
  %add.788.clone.1 = f32[4096,4]{0,1:T(4,128)} add(%div.740.clone.1, %mul.1867.clone.1), metadata={op_name="jit(train_step)/add" stack_frame_id=0}
  %mul.1866.clone.1 = f32[4096,4]{0,1:T(4,128)} multiply(%mul.1868.clone.1, %add.788.clone.1), metadata={op_name="jit(train_step)/mul" stack_frame_id=0}
  %add.787.clone.1 = f32[4096,4]{0,1:T(4,128)S(1)} add(%param_0.1268, %mul.1866.clone.1), metadata={op_name="jit(train_step)/add" stack_frame_id=0}
  %square.201 = f32[4096,4]{0,1:T(4,128)} multiply(%add.787.clone.1, %add.787.clone.1), metadata={op_name="jit(train_step)/square" stack_frame_id=0}
  %constant.1254 = f32[]{:T(128)} constant(0)
  %reduce.127 = f32[]{:T(128)} reduce(%square.201, %constant.1254), dimensions={0,1}, to_apply=%region_50.55, metadata={op_name="jit(train_step)/reduce_sum" stack_frame_id=0}
  %reduce.129.clone.1 = f32[]{:T(128)} reduce(%integer_pow.61.clone.1, %constant.1254), dimensions={0,1}, to_apply=%region_36.41, metadata={op_name="jit(train_step)/reduce_sum" stack_frame_id=0}
  ROOT %tuple.144 = (f32[]{:T(128)}, f32[4096,4]{0,1:T(4,128)S(1)}, f32[4096,4]{0,1:T(4,128)S(1)}, f32[4096,4]{0,1:T(4,128)S(1)}, f32[]{:T(128)}) tuple(%reduce.127, %add.787.clone.1, %add.790.clone.1, %add.791.clone.1, %reduce.129.clone.1)
}

%fused_computation.384 (param_0.1059: bf16[1,128,1,64]) -> bf16[1,128,1,128] {
  %param_0.1059 = bf16[1,128,1,64]{3,1,2,0:T(8,128)(2,1)S(1)} parameter(0)
  %constant.1120 = bf16[]{:T(256)} constant(-inf)
  %pad.38 = bf16[1,128,1,128]{3,1,2,0:T(8,128)(2,1)} pad(%param_0.1059, %constant.1120), padding=0_0x0_0x0_0x0_64, metadata={op_name="jit(train_step)/concatenate" stack_frame_id=0}
  %pad.37 = bf16[1,128,1,128]{3,1,2,0:T(8,128)(2,1)} pad(%param_0.1059, %constant.1120), padding=0_0x0_0x0_0x64_0, metadata={op_name="jit(train_step)/concatenate" stack_frame_id=0}
  ROOT %maximum.38 = bf16[1,128,1,128]{3,1,2,0:T(8,128)(2,1)} maximum(%pad.38, %pad.37), metadata={op_name="jit(train_step)/concatenate" stack_frame_id=0}
}

%fused_computation.385 (param_0.1061: bf16[1,128,1,64]) -> bf16[1,128,1,128] {
  %param_0.1061 = bf16[1,128,1,64]{3,1,2,0:T(8,128)(2,1)S(1)} parameter(0)
  %constant.1119 = bf16[]{:T(256)} constant(-inf)
  %pad.40 = bf16[1,128,1,128]{3,1,2,0:T(8,128)(2,1)} pad(%param_0.1061, %constant.1119), padding=0_0x0_0x0_0x0_64, metadata={op_name="jit(train_step)/concatenate" stack_frame_id=0}
  %pad.39 = bf16[1,128,1,128]{3,1,2,0:T(8,128)(2,1)} pad(%param_0.1061, %constant.1119), padding=0_0x0_0x0_0x64_0, metadata={op_name="jit(train_step)/concatenate" stack_frame_id=0}
  ROOT %maximum.39 = bf16[1,128,1,128]{3,1,2,0:T(8,128)(2,1)} maximum(%pad.40, %pad.39), metadata={op_name="jit(train_step)/concatenate" stack_frame_id=0}
}

%region_9.12 (reduce_sum.135: f32[], reduce_sum.136: f32[]) -> f32[] {
  %reduce_sum.135 = f32[]{:T(128)} parameter(0), metadata={op_name="jit(train_step)/reduce_sum"}
  %reduce_sum.136 = f32[]{:T(128)} parameter(1), metadata={op_name="jit(train_step)/reduce_sum"}
  ROOT %reduce_sum.137 = f32[]{:T(128)} add(%reduce_sum.135, %reduce_sum.136), metadata={op_name="jit(train_step)/reduce_sum" stack_frame_id=0}, backend_config={"flag_configs":[],"scoped_memory_configs":[],"used_scoped_memory_configs":[],"aliasing_operands":{"lists":[]}}
}

%fused_computation.388 (param_0.1283: bf16[4096]) -> f32[] {
  %param_0.1283 = bf16[4096]{0:T(1024)(128)(2,1)S(1)} parameter(0)
  %convert_element_type.948 = f32[4096]{0:T(1024)} convert(%param_0.1283), metadata={op_name="jit(train_step)/transpose(jvp())/convert_element_type" stack_frame_id=0}
  %square.204 = f32[4096]{0:T(1024)} multiply(%convert_element_type.948, %convert_element_type.948), metadata={op_name="jit(train_step)/square" stack_frame_id=0}
  %constant.1269 = f32[]{:T(128)} constant(0)
  ROOT %reduce.130 = f32[]{:T(128)} reduce(%square.204, %constant.1269), dimensions={0}, to_apply=%region_9.12, metadata={op_name="jit(train_step)/reduce_sum" stack_frame_id=0}
}

%region_46.51 (reduce_sum.328: f32[], reduce_sum.329: f32[]) -> f32[] {
  %reduce_sum.328 = f32[]{:T(128)} parameter(0), metadata={op_name="jit(train_step)/reduce_sum"}
  %reduce_sum.329 = f32[]{:T(128)} parameter(1), metadata={op_name="jit(train_step)/reduce_sum"}
  ROOT %reduce_sum.333 = f32[]{:T(128)} add(%reduce_sum.328, %reduce_sum.329), metadata={op_name="jit(train_step)/reduce_sum" stack_frame_id=0}, backend_config={"flag_configs":[],"scoped_memory_configs":[],"used_scoped_memory_configs":[],"aliasing_operands":{"lists":[]}}
}

%region_32.37 (reduce_sum.256: f32[], reduce_sum.257: f32[]) -> f32[] {
  %reduce_sum.256 = f32[]{:T(128)} parameter(0), metadata={op_name="jit(train_step)/reduce_sum"}
  %reduce_sum.257 = f32[]{:T(128)} parameter(1), metadata={op_name="jit(train_step)/reduce_sum"}
  ROOT %reduce_sum.258 = f32[]{:T(128)} add(%reduce_sum.256, %reduce_sum.257), metadata={op_name="jit(train_step)/reduce_sum" stack_frame_id=0}, backend_config={"flag_configs":[],"scoped_memory_configs":[],"used_scoped_memory_configs":[],"aliasing_operands":{"lists":[]}}
}

%fused_computation.389 (param_0.1272: f32[4096], param_1.1410: f32[], param_2.1103: f32[], param_3.746: f32[], param_4.463: f32[4096], param_5.409: f32[], param_6.264: bf16[4096], param_7.180: pred[], param_8.109: f32[4096]) -> (f32[], f32[4096], f32[4096], f32[4096], f32[]) {
  %param_0.1272 = f32[4096]{0:T(1024)S(1)} parameter(0)
  %param_3.746 = f32[]{:T(128)S(6)} parameter(3)
  %mul.1875.clone.1 = f32[4096]{0:T(1024)} broadcast(%param_3.746), dimensions={}, metadata={op_name="jit(train_step)/mul" stack_frame_id=0}
  %param_7.180 = pred[]{:T(512)S(6)} parameter(7)
  %select_n.250.clone.1 = pred[4096]{0:T(1024)(128)(4,1)} broadcast(%param_7.180), dimensions={}, metadata={op_name="jit(train_step)/select_n" stack_frame_id=0}
  %param_6.264 = bf16[4096]{0:T(1024)(128)(2,1)S(1)} parameter(6)
  %convert_element_type.968.clone.1 = f32[4096]{0:T(1024)} convert(%param_6.264), metadata={op_name="jit(train_step)/transpose(jvp())/convert_element_type" stack_frame_id=0}
  %param_5.409 = f32[]{:T(128)} parameter(5)
  %div.755.clone.1 = f32[4096]{0:T(1024)} broadcast(%param_5.409), dimensions={}, metadata={op_name="jit(train_step)/div" stack_frame_id=0}
  %div.754.clone.1 = f32[4096]{0:T(1024)} divide(%convert_element_type.968.clone.1, %div.755.clone.1), metadata={op_name="jit(train_step)/div" stack_frame_id=0}
  %select_n.249.clone.1 = f32[4096]{0:T(1024)} select(%select_n.250.clone.1, %convert_element_type.968.clone.1, %div.754.clone.1), metadata={op_name="jit(train_step)/select_n" stack_frame_id=0}
  %constant.1184.clone.1 = f32[]{:T(128)} constant(0.1)
  %broadcast.622.clone.1 = f32[4096]{0:T(1024)} broadcast(%constant.1184.clone.1), dimensions={}, metadata={op_name="broadcast.74"}
  %mul.1881.clone.1 = f32[4096]{0:T(1024)} multiply(%select_n.249.clone.1, %broadcast.622.clone.1), metadata={op_name="jit(train_step)/mul" stack_frame_id=0}
  %param_8.109 = f32[4096]{0:T(1024)S(1)} parameter(8)
  %constant.1188.clone.1 = f32[]{:T(128)} constant(0.9)
  %mul.1882.clone.1 = f32[4096]{0:T(1024)} broadcast(%constant.1188.clone.1), dimensions={}, metadata={op_name="jit(train_step)/mul" stack_frame_id=0}
  %mul.1880.clone.1 = f32[4096]{0:T(1024)} multiply(%param_8.109, %mul.1882.clone.1), metadata={op_name="jit(train_step)/mul" stack_frame_id=0}
  %add.797.clone.1 = f32[4096]{0:T(1024)S(1)} add(%mul.1881.clone.1, %mul.1880.clone.1), metadata={op_name="jit(train_step)/add" stack_frame_id=0}
  %param_2.1103 = f32[]{:T(128)S(6)} parameter(2)
  %div.751.clone.1 = f32[4096]{0:T(1024)} broadcast(%param_2.1103), dimensions={}, metadata={op_name="jit(train_step)/div" stack_frame_id=0}
  %integer_pow.62.clone.1 = f32[4096]{0:T(1024)} multiply(%select_n.249.clone.1, %select_n.249.clone.1), metadata={op_name="jit(train_step)/integer_pow" stack_frame_id=0}
  %constant.1187.clone.1 = f32[]{:T(128)} constant(0.05)
  %mul.1879.clone.1 = f32[4096]{0:T(1024)} broadcast(%constant.1187.clone.1), dimensions={}, metadata={op_name="jit(train_step)/mul" stack_frame_id=0}
  %mul.1877.clone.1 = f32[4096]{0:T(1024)} multiply(%integer_pow.62.clone.1, %mul.1879.clone.1), metadata={op_name="jit(train_step)/mul" stack_frame_id=0}
  %param_4.463 = f32[4096]{0:T(1024)S(1)} parameter(4)
  %constant.1186.clone.1 = f32[]{:T(128)} constant(0.95)
  %mul.1878.clone.1 = f32[4096]{0:T(1024)} broadcast(%constant.1186.clone.1), dimensions={}, metadata={op_name="jit(train_step)/mul" stack_frame_id=0}
  %mul.1876.clone.1 = f32[4096]{0:T(1024)} multiply(%param_4.463, %mul.1878.clone.1), metadata={op_name="jit(train_step)/mul" stack_frame_id=0}
  %add.796.clone.1 = f32[4096]{0:T(1024)S(1)} add(%mul.1877.clone.1, %mul.1876.clone.1), metadata={op_name="jit(train_step)/add" stack_frame_id=0}
  %param_1.1410 = f32[]{:T(128)S(6)} parameter(1)
  %div.750.clone.1 = f32[4096]{0:T(1024)} broadcast(%param_1.1410), dimensions={}, metadata={op_name="jit(train_step)/div" stack_frame_id=0}
  %div.749.clone.1 = f32[4096]{0:T(1024)} divide(%add.796.clone.1, %div.750.clone.1), metadata={op_name="jit(train_step)/div" stack_frame_id=0}
  %sqrt.60.clone.1 = f32[4096]{0:T(1024)} sqrt(%div.749.clone.1), metadata={op_name="jit(train_step)/sqrt" stack_frame_id=0}
  %constant.1185.clone.1 = f32[]{:T(128)} constant(1e-08)
  %add.795.clone.1 = f32[4096]{0:T(1024)} broadcast(%constant.1185.clone.1), dimensions={}, metadata={op_name="jit(train_step)/add" stack_frame_id=0}
  %add.794.clone.1 = f32[4096]{0:T(1024)} add(%sqrt.60.clone.1, %add.795.clone.1), metadata={op_name="jit(train_step)/add" stack_frame_id=0}
  %multiply.206.clone.1 = f32[4096]{0:T(1024)} multiply(%div.751.clone.1, %add.794.clone.1), metadata={op_name="multiply.21"}
  %div.748.clone.1 = f32[4096]{0:T(1024)} divide(%add.797.clone.1, %multiply.206.clone.1), metadata={op_name="jit(train_step)/div" stack_frame_id=0}
  %mul.1874.clone.1 = f32[4096]{0:T(1024)} multiply(%param_0.1272, %broadcast.622.clone.1), metadata={op_name="jit(train_step)/mul" stack_frame_id=0}
  %add.793.clone.1 = f32[4096]{0:T(1024)} add(%div.748.clone.1, %mul.1874.clone.1), metadata={op_name="jit(train_step)/add" stack_frame_id=0}
  %mul.1873.clone.1 = f32[4096]{0:T(1024)} multiply(%mul.1875.clone.1, %add.793.clone.1), metadata={op_name="jit(train_step)/mul" stack_frame_id=0}
  %add.792.clone.1 = f32[4096]{0:T(1024)S(1)} add(%param_0.1272, %mul.1873.clone.1), metadata={op_name="jit(train_step)/add" stack_frame_id=0}
  %square.205 = f32[4096]{0:T(1024)} multiply(%add.792.clone.1, %add.792.clone.1), metadata={op_name="jit(train_step)/square" stack_frame_id=0}
  %constant.1258 = f32[]{:T(128)} constant(0)
  %reduce.131 = f32[]{:T(128)} reduce(%square.205, %constant.1258), dimensions={0}, to_apply=%region_46.51, metadata={op_name="jit(train_step)/reduce_sum" stack_frame_id=0}
  %reduce.132.clone.1 = f32[]{:T(128)} reduce(%integer_pow.62.clone.1, %constant.1258), dimensions={0}, to_apply=%region_32.37, metadata={op_name="jit(train_step)/reduce_sum" stack_frame_id=0}
  ROOT %tuple.147 = (f32[]{:T(128)}, f32[4096]{0:T(1024)S(1)}, f32[4096]{0:T(1024)S(1)}, f32[4096]{0:T(1024)S(1)}, f32[]{:T(128)}) tuple(%reduce.131, %add.792.clone.1, %add.796.clone.1, %add.797.clone.1, %reduce.132.clone.1)
}

%fused_computation.394 (param_0.1089: s32[512]) -> s32[1024] {
  %constant.1055 = s32[] constant(0), metadata={op_name="jit(train_step)/jvp()/gather" stack_frame_id=0}
  %broadcast.589 = s32[1024]{0:T(1024)} broadcast(%constant.1055), dimensions={}, metadata={op_name="jit(train_step)/jvp()/gather" stack_frame_id=0}
  %param_0.1089 = s32[512]{0:T(512)S(1)} parameter(0)
  %constant.1056 = s32[] constant(2147483647), metadata={op_name="jit(train_step)/jvp()/gather" stack_frame_id=0}
  %pad.41 = s32[1024]{0:T(1024)} pad(%param_0.1089, %constant.1056), padding=0_512, metadata={op_name="jit(train_step)/jvp()/gather" stack_frame_id=0}
  %constant.1054 = s32[] constant(128255), metadata={op_name="jit(train_step)/jvp()/gather" stack_frame_id=0}
  %broadcast.588 = s32[1024]{0:T(1024)} broadcast(%constant.1054), dimensions={}, metadata={op_name="jit(train_step)/jvp()/gather" stack_frame_id=0}
  ROOT %clamp.3 = s32[1024]{0:T(1024)S(1)} clamp(%broadcast.589, %pad.41, %broadcast.588), metadata={op_name="jit(train_step)/jvp()/gather" stack_frame_id=0}
}

%fused_computation.397 (param_0.1152: f32[128]) -> f32[128] {
  %param_0.1152 = f32[128]{0:T(128)S(1)} parameter(0)
  %constant.1136 = f32[]{:T(128)} constant(0.000244140625)
  %broadcast.597 = f32[128]{0:T(128)} broadcast(%constant.1136), dimensions={}, metadata={op_name="broadcast.264"}
  %div.667 = f32[128]{0:T(128)} multiply(%param_0.1152, %broadcast.597), metadata={op_name="jit(train_step)/jvp()/div" stack_frame_id=0}
  %constant.1134 = f32[]{:T(128)} constant(1e-05)
  %broadcast.595 = f32[128]{0:T(128)} broadcast(%constant.1134), dimensions={}, metadata={op_name="jit(train_step)/jvp()/add" stack_frame_id=0}
  %add.774 = f32[128]{0:T(128)} add(%div.667, %broadcast.595), metadata={op_name="jit(train_step)/jvp()/add" stack_frame_id=0}
  %bitcast.568 = f32[1,128]{1,0:T(1,128)} bitcast(%add.774), metadata={op_name="jit(train_step)/jvp()/add" stack_frame_id=0}
  %rsqrt.101 = f32[1,128]{1,0:T(1,128)} rsqrt(%bitcast.568), metadata={op_name="jit(train_step)/jvp()/rsqrt" stack_frame_id=0}
  ROOT %bitcast.558 = f32[128]{0:T(128)} bitcast(%rsqrt.101), metadata={op_name="jit(train_step)/jvp()/rsqrt" stack_frame_id=0}
}

%region_5.8 (reduce_sum.120: s32[], reduce_sum.121: s32[]) -> s32[] {
  %reduce_sum.120 = s32[]{:T(128)} parameter(0), metadata={op_name="jit(train_step)/jvp()/reduce_sum"}
…
  %slice.73 = bf16[1,128,8,64]{3,1,2,0:T(8,128)(2,1)} slice(%param_0.1434), slice={[0:1], [0:128], [0:8], [64:128]}, metadata={op_name="jit(train_step)/transpose(jvp())/while/body/closed_call/checkpoint/rematted_computation/split" stack_frame_id=0}
  %neg.131 = bf16[1,128,8,64]{3,1,2,0:T(8,128)(2,1)S(1)} negate(%slice.73), metadata={op_name="jit(train_step)/transpose(jvp())/while/body/closed_call/checkpoint/rematted_computation/neg" stack_frame_id=0}
  %slice.74 = bf16[1,128,8,64]{3,1,2,0:T(8,128)(2,1)S(1)} slice(%param_0.1434), slice={[0:1], [0:128], [0:8], [0:64]}, metadata={op_name="jit(train_step)/transpose(jvp())/while/body/closed_call/checkpoint/rematted_computation/split" stack_frame_id=0}
  ROOT %tuple.185 = (bf16[1,128,8,64]{3,1,2,0:T(8,128)(2,1)S(1)}, bf16[1,128,8,64]{3,1,2,0:T(8,128)(2,1)S(1)}) tuple(%neg.131, %slice.74)
}

%fused_computation.224.clone.clone (param_0.1435: bf16[1,128,8,64], param_1.1510: bf16[1,128,8,64], param_2.1164: bf16[1,128,8,128], param_3.787: bf16[128,128], param_4.486: bf16[128,128]) -> bf16[8,128,128] {
  %param_2.1164 = bf16[1,128,8,128]{3,1,2,0:T(8,128)(2,1)S(1)} parameter(2)
  %param_4.486 = bf16[128,128]{1,0:T(8,128)(2,1)S(1)} parameter(4)
  %mul.2118 = bf16[1,128,8,128]{3,1,2,0:T(8,128)(2,1)} broadcast(%param_4.486), dimensions={1,3}, metadata={op_name="jit(train_step)/transpose(jvp())/while/body/closed_call/checkpoint/rematted_computation/mul" stack_frame_id=0}
  %mul.2116 = bf16[1,128,8,128]{3,1,2,0:T(8,128)(2,1)} multiply(%param_2.1164, %mul.2118), metadata={op_name="jit(train_step)/transpose(jvp())/while/body/closed_call/checkpoint/rematted_computation/mul" stack_frame_id=0}
  %param_1.1510 = bf16[1,128,8,64]{3,1,2,0:T(8,128)(2,1)S(1)} parameter(1)
  %constant.1395 = bf16[]{:T(256)} constant(-inf)
  %pad.63 = bf16[1,128,8,128]{3,1,2,0:T(8,128)(2,1)} pad(%param_1.1510, %constant.1395), padding=0_0x0_0x0_0x0_64, metadata={op_name="jit(train_step)/transpose(jvp())/while/body/closed_call/checkpoint/rematted_computation/concatenate" stack_frame_id=0}
  %param_0.1435 = bf16[1,128,8,64]{3,1,2,0:T(8,128)(2,1)S(1)} parameter(0)
  %pad.62 = bf16[1,128,8,128]{3,1,2,0:T(8,128)(2,1)} pad(%param_0.1435, %constant.1395), padding=0_0x0_0x0_0x64_0, metadata={op_name="jit(train_step)/transpose(jvp())/while/body/closed_call/checkpoint/rematted_computation/concatenate" stack_frame_id=0}
  %maximum.50 = bf16[1,128,8,128]{3,1,2,0:T(8,128)(2,1)} maximum(%pad.63, %pad.62), metadata={op_name="jit(train_step)/transpose(jvp())/while/body/closed_call/checkpoint/rematted_computation/concatenate" stack_frame_id=0}
  %param_3.787 = bf16[128,128]{1,0:T(8,128)(2,1)S(1)} parameter(3)
  %mul.2117 = bf16[1,128,8,128]{3,1,2,0:T(8,128)(2,1)} broadcast(%param_3.787), dimensions={1,3}, metadata={op_name="jit(train_step)/transpose(jvp())/while/body/closed_call/checkpoint/rematted_computation/mul" stack_frame_id=0}
  %mul.2115 = bf16[1,128,8,128]{3,1,2,0:T(8,128)(2,1)} multiply(%maximum.50, %mul.2117), metadata={op_name="jit(train_step)/transpose(jvp())/while/body/closed_call/checkpoint/rematted_computation/mul" stack_frame_id=0}
  %add.870 = bf16[1,128,8,128]{3,1,2,0:T(8,128)(2,1)} add(%mul.2116, %mul.2115), metadata={op_name="jit(train_step)/transpose(jvp())/while/body/closed_call/checkpoint/rematted_computation/add" stack_frame_id=0}
  ROOT %bitcast.797 = bf16[8,128,128]{2,1,0:T(8,128)(2,1)} bitcast(%add.870), metadata={op_name="jit(train_step)/transpose(jvp())/while/body/closed_call/checkpoint/rematted_computation/shard_map/vmap(jit(_splash_attention))/splash_mha_fwd_segmented_residuals/splash_mha_fwd_segmented_residuals/squeeze" stack_frame_id=0}
}

%fused_computation.116.clone.clone (param_0.1423: bf16[4,1024,8,128], param_1.1503: s32[]) -> bf16[1,1024,8,128] {
  %param_0.1423 = bf16[4,1024,8,128]{3,1,2,0:T(8,128)(2,1)} parameter(0)
  %param_1.1503 = s32[]{:T(128)S(6)} parameter(1)
  %constant.1386 = s32[]{:T(128)} constant(0)
  ROOT %dynamic-slice.168 = bf16[1,1024,8,128]{3,1,2,0:T(8,128)(2,1)S(1)} dynamic-slice(%param_0.1423, %param_1.1503, %constant.1386, %constant.1386, %constant.1386), dynamic_slice_sizes={1,1024,8,128}, metadata={op_name="jit(train_step)/transpose(jvp())/while/body/dynamic_slice" stack_frame_id=0}, backend_config={"flag_configs":[],"scoped_memory_configs":[],"indices_config":{"index_known_bits":[{"zeroes":"4294967292","ones":"0","bitwidth":"32"},{"zeroes":"4294967295","ones":"0","bitwidth":"32"},{"zeroes":"4294967295","ones":"0","bitwidth":"32"},{"zeroes":"4294967295","ones":"0","bitwidth":"32"}],"is_index_aligned":[]},"used_scoped_memory_configs":[]}
}

%fused_computation.253.clone.clone (param_0.1470: f32[1,32,128,128]) -> (f32[32,128], f32[1,32,128,1]) {
  %param_0.1470 = f32[1,32,128,128]{2,1,3,0:T(8,128)} parameter(0)
  %slice.77 = f32[1,32,128,1]{2,1,3,0:T(8,128)} slice(%param_0.1470), slice={[0:1], [0:32], [0:128], [0:1]}, metadata={op_name="jit(train_step)/transpose(jvp())/while/body/closed_call/checkpoint/rematted_computation/shard_map/vmap(jit(_splash_attention))/slice" stack_frame_id=0}
  %bitcast.827 = f32[32,128]{1,0:T(8,128)} bitcast(%slice.77), metadata={op_name="jit(train_step)/transpose(jvp())/while/body/closed_call/checkpoint/shard_map/vmap(jit(_splash_attention))/broadcast_in_dim" stack_frame_id=0}
  ROOT %tuple.191 = (f32[32,128]{1,0:T(8,128)}, f32[1,32,128,1]{2,1,3,0:T(8,128)}) tuple(%bitcast.827, %slice.77)
}

%fused_computation.98.clone.clone (param_0.1442: bf16[4,32,128,1024], param_1.1515: s32[]) -> bf16[1,32,128,1024] {
  %param_0.1442 = bf16[4,32,128,1024]{3,2,1,0:T(8,128)(2,1)} parameter(0)
  %param_1.1515 = s32[]{:T(128)S(6)} parameter(1)
  %constant.1399 = s32[]{:T(128)} constant(0)
  ROOT %dynamic-slice.174 = bf16[1,32,128,1024]{3,2,1,0:T(8,128)(2,1)S(1)} dynamic-slice(%param_0.1442, %param_1.1515, %constant.1399, %constant.1399, %constant.1399), dynamic_slice_sizes={1,32,128,1024}, metadata={op_name="jit(train_step)/transpose(jvp())/while/body/dynamic_slice" stack_frame_id=0}, backend_config={"flag_configs":[],"scoped_memory_configs":[],"indices_config":{"index_known_bits":[{"zeroes":"4294967292","ones":"0","bitwidth":"32"},{"zeroes":"4294967295","ones":"0","bitwidth":"32"},{"zeroes":"4294967295","ones":"0","bitwidth":"32"},{"zeroes":"4294967295","ones":"0","bitwidth":"32"}],"is_index_aligned":[]},"used_scoped_memory_configs":[]}
}

%convert_element_type.556.reduce_sub_computation (lhs.1: bf16[], rhs.1: bf16[]) -> bf16[] {
  %lhs.1 = bf16[] parameter(0)
  %rhs.1 = bf16[] parameter(1)
  ROOT %add.643 = bf16[] add(%lhs.1, %rhs.1), backend_config={"flag_configs":[],"scoped_memory_configs":[],"used_scoped_memory_configs":[],"aliasing_operands":{"lists":[]}}
}

%fused_computation.238.clone.clone (param_0.1421: bf16[4,4096], param_1.1501: s32[]) -> bf16[4096] {
  %param_0.1421 = bf16[4,4096]{1,0:T(4,128)(2,1)S(1)} parameter(0)
  %param_1.1501 = s32[]{:T(128)S(6)} parameter(1)
  %constant.1382 = s32[]{:T(128)} constant(0)
  %dynamic_slice.280 = bf16[1,4096]{1,0:T(2,128)(2,1)} dynamic-slice(%param_0.1421, %param_1.1501, %constant.1382), dynamic_slice_sizes={1,4096}, metadata={op_name="jit(train_step)/transpose(jvp())/while/body/dynamic_slice" stack_frame_id=0}, backend_config={"flag_configs":[],"scoped_memory_configs":[],"indices_config":{"index_known_bits":[{"zeroes":"4294967292","ones":"0","bitwidth":"32"},{"zeroes":"4294967295","ones":"0","bitwidth":"32"}],"is_index_aligned":[]},"used_scoped_memory_configs":[]}
  %constant.1383 = bf16[]{:T(256)} constant(-0), metadata={op_name="jit(train_step)/transpose(jvp())/while/body/closed_call/checkpoint/rematted_computation/convert_element_type" stack_frame_id=0}
  ROOT %reduce.149 = bf16[4096]{0:T(1024)(128)(2,1)} reduce(%dynamic_slice.280, %constant.1383), dimensions={0}, to_apply=%convert_element_type.556.reduce_sub_computation, metadata={op_name="jit(train_step)/transpose(jvp())/while/body/closed_call/checkpoint/rematted_computation/convert_element_type" stack_frame_id=0}
}

%fused_computation.84.clone.clone (param_0.1447: bf16[4,1024,14336], param_1.1517: s32[]) -> bf16[1,1024,14336] {
  %param_0.1447 = bf16[4,1024,14336]{2,1,0:T(8,128)(2,1)} parameter(0)
  %param_1.1517 = s32[]{:T(128)S(6)} parameter(1)
  %constant.1403 = s32[]{:T(128)} constant(0)
  ROOT %dynamic-slice.175 = bf16[1,1024,14336]{2,1,0:T(8,128)(2,1)S(1)} dynamic-slice(%param_0.1447, %param_1.1517, %constant.1403, %constant.1403), dynamic_slice_sizes={1,1024,14336}, metadata={op_name="jit(train_step)/transpose(jvp())/while/body/dynamic_slice" stack_frame_id=0}, backend_config={"flag_configs":[],"scoped_memory_configs":[],"indices_config":{"index_known_bits":[{"zeroes":"4294967292","ones":"0","bitwidth":"32"},{"zeroes":"4294967295","ones":"0","bitwidth":"32"},{"zeroes":"4294967295","ones":"0","bitwidth":"32"}],"is_index_aligned":[]},"used_scoped_memory_configs":[]}
}

%fused_computation.85.clone.clone (param_0.1451: bf16[4,14336,1024], param_1.1520: s32[]) -> bf16[1,14336,1024] {
  %param_0.1451 = bf16[4,14336,1024]{2,1,0:T(8,128)(2,1)} parameter(0)
  %param_1.1520 = s32[]{:T(128)S(6)} parameter(1)
  %constant.1404 = s32[]{:T(128)} constant(0)
  ROOT %dynamic-slice.176 = bf16[1,14336,1024]{2,1,0:T(8,128)(2,1)S(1)} dynamic-slice(%param_0.1451, %param_1.1520, %constant.1404, %constant.1404), dynamic_slice_sizes={1,14336,1024}, metadata={op_name="jit(train_step)/transpose(jvp())/while/body/dynamic_slice" stack_frame_id=0}, backend_config={"flag_configs":[],"scoped_memory_configs":[],"indices_config":{"index_known_bits":[{"zeroes":"4294967292","ones":"0","bitwidth":"32"},{"zeroes":"4294967295","ones":"0","bitwidth":"32"},{"zeroes":"4294967295","ones":"0","bitwidth":"32"}],"is_index_aligned":[]},"used_scoped_memory_configs":[]}
}

%fused_computation.76.clone.clone.clone.clone (param_0.1453: bf16[1,14336,4096]) -> bf16[14336,4096] {
  %param_0.1453 = bf16[1,14336,4096]{2,1,0:T(8,128)(2,1)} parameter(0)
  ROOT %bitcast.811 = bf16[14336,4096]{1,0:T(8,128)(2,1)} bitcast(%param_0.1453), metadata={op_name="jit(train_step)/transpose(jvp())/while/body/closed_call/checkpoint/dot_general" stack_frame_id=0}
}

%fused_computation.180.clone.clone (param_0.1452: bf16[1,128,4096]) -> bf16[128,4096] {
  %param_0.1452 = bf16[1,128,4096]{2,1,0:T(8,128)(2,1)S(1)} parameter(0)
  ROOT %bitcast.810 = bf16[128,4096]{1,0:T(8,128)(2,1)} bitcast(%param_0.1452)
}

%fused_computation.109.clone.clone (param_0.1454: bf16[1,14336,4096], param_1.1521: bf16[1,128,4096]) -> bf16[1,128,14336] {
  %param_0.1454 = bf16[1,14336,4096]{2,1,0:T(8,128)(2,1)} parameter(0)
  %fusion.429 = bf16[14336,4096]{1,0:T(8,128)(2,1)} fusion(%param_0.1454), kind=kLoop, calls=%fused_computation.76.clone.clone.clone.clone, metadata={op_name="jit(train_step)/transpose(jvp())/while/body/closed_call/checkpoint/dot_general" stack_frame_id=0}
  %param_1.1521 = bf16[1,128,4096]{2,1,0:T(8,128)(2,1)S(1)} parameter(1)
  %fusion.430 = bf16[128,4096]{1,0:T(8,128)(2,1)} fusion(%param_1.1521), kind=kLoop, calls=%fused_computation.180.clone.clone
  %convolution.146 = bf16[14336,128]{0,1:T(8,128)(2,1)} convolution(%fusion.429, %fusion.430), dim_labels=bf_oi->bf, metadata={op_name="jit(train_step)/transpose(jvp())/while/body/closed_call/checkpoint/dot_general" stack_frame_id=0}
  ROOT %bitcast.812 = bf16[1,128,14336]{2,1,0:T(8,128)(2,1)S(1)} bitcast(%convolution.146), metadata={op_name="jit(train_step)/transpose(jvp())/while/body/closed_call/checkpoint/dot_general" stack_frame_id=0}
}

%fused_computation.86.clone.clone (param_0.1455: bf16[4,1024,14336], param_1.1522: s32[]) -> bf16[1,1024,14336] {
  %param_0.1455 = bf16[4,1024,14336]{2,1,0:T(8,128)(2,1)} parameter(0)
  %param_1.1522 = s32[]{:T(128)S(6)} parameter(1)
  %constant.1405 = s32[]{:T(128)} constant(0)
  ROOT %dynamic-slice.177 = bf16[1,1024,14336]{2,1,0:T(8,128)(2,1)S(1)} dynamic-slice(%param_0.1455, %param_1.1522, %constant.1405, %constant.1405), dynamic_slice_sizes={1,1024,14336}, metadata={op_name="jit(train_step)/transpose(jvp())/while/body/dynamic_slice" stack_frame_id=0}, backend_config={"flag_configs":[],"scoped_memory_configs":[],"indices_config":{"index_known_bits":[{"zeroes":"4294967292","ones":"0","bitwidth":"32"},{"zeroes":"4294967295","ones":"0","bitwidth":"32"},{"zeroes":"4294967295","ones":"0","bitwidth":"32"}],"is_index_aligned":[]},"used_scoped_memory_configs":[]}
}

%fused_computation.241.clone.clone (param_0.1446: f32[128]) -> f32[128] {
  %param_0.1446 = f32[128]{0:T(128)S(1)} parameter(0)
  %constant.1402 = f32[]{:T(128)} constant(0.000244140625)
  %broadcast.676 = f32[128]{0:T(128)} broadcast(%constant.1402), dimensions={}, metadata={op_name="jit(train_step)/transpose(jvp())/while/body/closed_call" stack_frame_id=0}
  %div.857 = f32[128]{0:T(128)} multiply(%param_0.1446, %broadcast.676), metadata={op_name="jit(train_step)/transpose(jvp())/while/body/closed_call/checkpoint/rematted_computation/div" stack_frame_id=0}
  %constant.1401 = f32[]{:T(128)} constant(1e-05)
  %broadcast.675 = f32[128]{0:T(128)} broadcast(%constant.1401), dimensions={}, metadata={op_name="jit(train_step)/transpose(jvp())/while/body/closed_call" stack_frame_id=0}
  %add.872 = f32[128]{0:T(128)} add(%div.857, %broadcast.675), metadata={op_name="jit(train_step)/transpose(jvp())/while/body/closed_call/checkpoint/rematted_computation/add" stack_frame_id=0}
  %bitcast.806 = f32[1,128]{1,0:T(1,128)} bitcast(%add.872), metadata={op_name="jit(train_step)/transpose(jvp())/while/body/closed_call/checkpoint/rematted_computation/add" stack_frame_id=0}
  %rsqrt.115 = f32[1,128]{1,0:T(1,128)} rsqrt(%bitcast.806), metadata={op_name="jit(train_step)/transpose(jvp())/while/body/closed_call/checkpoint/rematted_computation/rsqrt" stack_frame_id=0}
  ROOT %bitcast.805 = f32[128]{0:T(128)S(1)} bitcast(%rsqrt.115), metadata={op_name="jit(train_step)/transpose(jvp())/while/body/closed_call/checkpoint/rematted_computation/rsqrt" stack_frame_id=0}
}

%fused_computation.74.clone.clone (param_0.1459: bf16[1,4096,14336]) -> bf16[4096,14336] {
  %param_0.1459 = bf16[1,4096,14336]{2,1,0:T(8,128)(2,1)} parameter(0)
  ROOT %bitcast.816 = bf16[4096,14336]{1,0:T(8,128)(2,1)} bitcast(%param_0.1459), metadata={op_name="jit(train_step)/transpose(jvp())/while/body/closed_call/checkpoint/dot_general" stack_frame_id=0}
}

%fused_computation.125.clone.clone (param_0.1460: bf16[1,128,14336], param_1.1525: bf16[1,128,14336]) -> bf16[128,14336] {
  %param_1.1525 = bf16[1,128,14336]{2,1,0:T(8,128)(2,1)S(1)} parameter(1)
  %constant.1406 = bf16[]{:T(256)} constant(1)
  %jit_silu_.42 = bf16[1,128,14336]{2,1,0:T(8,128)(2,1)} broadcast(%constant.1406), dimensions={}, metadata={op_name="jit(train_step)/transpose(jvp())/while/body/closed_call/checkpoint/rematted_computation/jit(silu)" stack_frame_id=0}
  %neg.133 = bf16[1,128,14336]{2,1,0:T(8,128)(2,1)} negate(%param_1.1525), metadata={op_name="jit(train_step)/transpose(jvp())/while/body/closed_call/checkpoint/rematted_computation/jit(silu)/neg" stack_frame_id=0}
  %exp.79 = bf16[1,128,14336]{2,1,0:T(8,128)(2,1)} exponential(%neg.133), metadata={op_name="jit(train_step)/transpose(jvp())/while/body/closed_call/checkpoint/rematted_computation/jit(silu)/exp" stack_frame_id=0}
  %add.873 = bf16[1,128,14336]{2,1,0:T(8,128)(2,1)} add(%exp.79, %jit_silu_.42), metadata={op_name="jit(train_step)/transpose(jvp())/while/body/closed_call/checkpoint/rematted_computation/jit(silu)/add" stack_frame_id=0}
  %div.858 = bf16[1,128,14336]{2,1,0:T(8,128)(2,1)} divide(%jit_silu_.42, %add.873), metadata={op_name="jit(train_step)/transpose(jvp())/while/body/closed_call/checkpoint/rematted_computation/jit(silu)/div" stack_frame_id=0}
  %mul.2136 = bf16[1,128,14336]{2,1,0:T(8,128)(2,1)} multiply(%param_1.1525, %div.858), metadata={op_name="jit(train_step)/transpose(jvp())/while/body/closed_call/checkpoint/rematted_computation/jit(silu)/mul" stack_frame_id=0}
  %param_0.1460 = bf16[1,128,14336]{2,1,0:T(8,128)(2,1)S(1)} parameter(0)
  %mul.2135 = bf16[1,128,14336]{2,1,0:T(8,128)(2,1)} multiply(%mul.2136, %param_0.1460), metadata={op_name="jit(train_step)/transpose(jvp())/while/body/closed_call/checkpoint/mul" stack_frame_id=0}
  ROOT %bitcast.817 = bf16[128,14336]{1,0:T(8,128)(2,1)} bitcast(%mul.2135)
}

%fused_computation.73.clone.clone (param_0.1461: bf16[1,4096,14336], param_1.1526: bf16[1,128,14336], param_2.1173: bf16[1,128,14336]) -> bf16[128,4096] {
  %param_1.1526 = bf16[1,128,14336]{2,1,0:T(8,128)(2,1)S(1)} parameter(1)
  %param_2.1173 = bf16[1,128,14336]{2,1,0:T(8,128)(2,1)S(1)} parameter(2)
  %fusion.434 = bf16[128,14336]{1,0:T(8,128)(2,1)} fusion(%param_1.1526, %param_2.1173), kind=kLoop, calls=%fused_computation.125.clone.clone
  %param_0.1461 = bf16[1,4096,14336]{2,1,0:T(8,128)(2,1)} parameter(0)
  %fusion.433 = bf16[4096,14336]{1,0:T(8,128)(2,1)} fusion(%param_0.1461), kind=kLoop, calls=%fused_computation.74.clone.clone, metadata={op_name="jit(train_step)/transpose(jvp())/while/body/closed_call/checkpoint/dot_general" stack_frame_id=0}
  ROOT %convolution.148 = bf16[128,4096]{1,0:T(8,128)(2,1)S(1)} convolution(%fusion.434, %fusion.433), dim_labels=bf_oi->bf, metadata={op_name="jit(train_step)/transpose(jvp())/while/body/closed_call/checkpoint/dot_general" stack_frame_id=0}
}

%region_14.17 (reduce_sum.166: f32[], reduce_sum.167: f32[]) -> f32[] {
  %reduce_sum.166 = f32[]{:T(128)} parameter(0), metadata={op_name="jit(train_step)/transpose(jvp())/while/body/closed_call/checkpoint/reduce_sum"}
  %reduce_sum.167 = f32[]{:T(128)} parameter(1), metadata={op_name="jit(train_step)/transpose(jvp())/while/body/closed_call/checkpoint/reduce_sum"}
  ROOT %reduce_sum.168 = f32[]{:T(128)} add(%reduce_sum.166, %reduce_sum.167), metadata={op_name="checkpoint/reduce_sum" stack_frame_id=0}, backend_config={"flag_configs":[],"scoped_memory_configs":[],"used_scoped_memory_configs":[],"aliasing_operands":{"lists":[]}}
}

%fused_computation.78.clone.clone.clone.clone.clone.clone.clone.clone (param_0.1462: bf16[1,4096,14336]) -> bf16[4096,14336] {
  %param_0.1462 = bf16[1,4096,14336]{2,1,0:T(8,128)(2,1)} parameter(0)
  ROOT %bitcast.818 = bf16[4096,14336]{1,0:T(8,128)(2,1)} bitcast(%param_0.1462), metadata={op_name="jit(train_step)/transpose(jvp())/while/body/closed_call/checkpoint/rematted_computation/dot_general" stack_frame_id=0}
}

%fused_computation.120.clone.1.clone.clone.clone.clone (param_0.1463: bf16[1,128,14336], param_1.1527: bf16[1,128,14336], param_2.1174: bf16[1,128,14336]) -> bf16[128,14336] {
  %param_1.1527 = bf16[1,128,14336]{2,1,0:T(8,128)(2,1)S(1)} parameter(1)
  %param_2.1174 = bf16[1,128,14336]{2,1,0:T(8,128)(2,1)S(1)} parameter(2)
  %mul.2141 = bf16[1,128,14336]{2,1,0:T(8,128)(2,1)} multiply(%param_1.1527, %param_2.1174), metadata={op_name="jit(train_step)/transpose(jvp())/while/body/closed_call/checkpoint/mul" stack_frame_id=0}
  %constant.1407 = bf16[]{:T(256)} constant(1)
  %jit_silu_.43 = bf16[1,128,14336]{2,1,0:T(8,128)(2,1)} broadcast(%constant.1407), dimensions={}, metadata={op_name="jit(train_step)/transpose(jvp())/while/body/closed_call/checkpoint/rematted_computation/jit(silu)" stack_frame_id=0}
  %param_0.1463 = bf16[1,128,14336]{2,1,0:T(8,128)(2,1)S(1)} parameter(0)
  %neg.134 = bf16[1,128,14336]{2,1,0:T(8,128)(2,1)} negate(%param_0.1463), metadata={op_name="jit(train_step)/transpose(jvp())/while/body/closed_call/checkpoint/rematted_computation/jit(silu)/neg" stack_frame_id=0}
  %exp.80 = bf16[1,128,14336]{2,1,0:T(8,128)(2,1)} exponential(%neg.134), metadata={op_name="jit(train_step)/transpose(jvp())/while/body/closed_call/checkpoint/rematted_computation/jit(silu)/exp" stack_frame_id=0}
  %add.874 = bf16[1,128,14336]{2,1,0:T(8,128)(2,1)} add(%exp.80, %jit_silu_.43), metadata={op_name="jit(train_step)/transpose(jvp())/while/body/closed_call/checkpoint/rematted_computation/jit(silu)/add" stack_frame_id=0}
  %div.859 = bf16[1,128,14336]{2,1,0:T(8,128)(2,1)} divide(%jit_silu_.43, %add.874), metadata={op_name="jit(train_step)/transpose(jvp())/while/body/closed_call/checkpoint/rematted_computation/jit(silu)/div" stack_frame_id=0}
  %mul.2140 = bf16[1,128,14336]{2,1,0:T(8,128)(2,1)} multiply(%mul.2141, %div.859), metadata={op_name="jit(train_step)/transpose(jvp())/while/body/closed_call/checkpoint/jit(silu)/mul" stack_frame_id=0}
  %mul.2139 = bf16[1,128,14336]{2,1,0:T(8,128)(2,1)} multiply(%param_0.1463, %mul.2141), metadata={op_name="jit(train_step)/transpose(jvp())/while/body/closed_call/checkpoint/jit(silu)/mul" stack_frame_id=0}
  %sub.118 = bf16[1,128,14336]{2,1,0:T(8,128)(2,1)} subtract(%jit_silu_.43, %div.859), metadata={op_name="jit(train_step)/transpose(jvp())/while/body/closed_call/checkpoint/rematted_computation/jit(silu)/sub" stack_frame_id=0}
  %mul.2138 = bf16[1,128,14336]{2,1,0:T(8,128)(2,1)} multiply(%div.859, %sub.118), metadata={op_name="jit(train_step)/transpose(jvp())/while/body/closed_call/checkpoint/rematted_computation/jit(silu)/mul" stack_frame_id=0}
  %mul.2137 = bf16[1,128,14336]{2,1,0:T(8,128)(2,1)} multiply(%mul.2139, %mul.2138), metadata={op_name="jit(train_step)/transpose(jvp())/while/body/closed_call/checkpoint/jit(silu)/mul" stack_frame_id=0}
  %add_any.160 = bf16[1,128,14336]{2,1,0:T(8,128)(2,1)} add(%mul.2140, %mul.2137), metadata={op_name="jit(train_step)/transpose(jvp())/while/body/closed_call/checkpoint/jit(silu)/add_any" stack_frame_id=0}
  ROOT %bitcast.819 = bf16[128,14336]{1,0:T(8,128)(2,1)} bitcast(%add_any.160)
}

%fused_computation.158.clone.clone (param_0.1464: bf16[1,128,4096], param_1.1528: bf16[4096], param_2.1175: bf16[128,4096], param_3.794: bf16[1,4096,14336], param_4.489: bf16[1,128,14336], param_5.416: bf16[1,128,14336], param_6.268: bf16[1,128,14336]) -> (f32[128], bf16[1,128,4096]) {
  %param_0.1464 = bf16[1,128,4096]{2,1,0:T(8,128)(2,1)S(1)} parameter(0)
  %convert_element_type.1046 = f32[1,128,4096]{2,1,0:T(8,128)} convert(%param_0.1464), metadata={op_name="jit(train_step)/transpose(jvp())/while/body/closed_call/checkpoint/rematted_computation/convert_element_type" stack_frame_id=0}
  %param_2.1175 = bf16[128,4096]{1,0:T(8,128)(2,1)S(1)} parameter(2)
  %param_4.489 = bf16[1,128,14336]{2,1,0:T(8,128)(2,1)S(1)} parameter(4)
  %param_5.416 = bf16[1,128,14336]{2,1,0:T(8,128)(2,1)S(1)} parameter(5)
  %param_6.268 = bf16[1,128,14336]{2,1,0:T(8,128)(2,1)S(1)} parameter(6)
  %fusion.271.clone.3 = bf16[128,14336]{1,0:T(8,128)(2,1)} fusion(%param_4.489, %param_5.416, %param_6.268), kind=kLoop, calls=%fused_computation.120.clone.1.clone.clone.clone.clone
  %param_3.794 = bf16[1,4096,14336]{2,1,0:T(8,128)(2,1)} parameter(3)
  %fusion.158.clone.3 = bf16[4096,14336]{1,0:T(8,128)(2,1)} fusion(%param_3.794), kind=kLoop, calls=%fused_computation.78.clone.clone.clone.clone.clone.clone.clone.clone, metadata={op_name="jit(train_step)/transpose(jvp())/while/body/closed_call/checkpoint/rematted_computation/dot_general" stack_frame_id=0}
  %convolution.97.clone.3 = bf16[128,4096]{1,0:T(8,128)(2,1)} convolution(%fusion.271.clone.3, %fusion.158.clone.3), dim_labels=bf_oi->bf, metadata={op_name="jit(train_step)/transpose(jvp())/while/body/closed_call/checkpoint/dot_general" stack_frame_id=0}
  %add_any.122.clone.3 = bf16[128,4096]{1,0:T(8,128)(2,1)} add(%param_2.1175, %convolution.97.clone.3), metadata={op_name="jit(train_step)/transpose(jvp())/while/body/closed_call/checkpoint/add_any" stack_frame_id=0}
  %bitcast.323.clone.3 = bf16[1,128,4096]{2,1,0:T(8,128)(2,1)S(1)} bitcast(%add_any.122.clone.3), metadata={op_name="jit(train_step)/transpose(jvp())/while/body/closed_call/checkpoint/add_any" stack_frame_id=0}
  %param_1.1528 = bf16[4096]{0:T(1024)(128)(2,1)S(1)} parameter(1)
  %mul.2144 = bf16[1,128,4096]{2,1,0:T(8,128)(2,1)} broadcast(%param_1.1528), dimensions={2}, metadata={op_name="jit(train_step)/transpose(jvp())/while/body/closed_call/checkpoint/rematted_computation/mul" stack_frame_id=0}
  %mul.2143 = bf16[1,128,4096]{2,1,0:T(8,128)(2,1)} multiply(%bitcast.323.clone.3, %mul.2144), metadata={op_name="jit(train_step)/transpose(jvp())/while/body/closed_call/checkpoint/mul" stack_frame_id=0}
  %convert_element_type.1045 = f32[1,128,4096]{2,1,0:T(8,128)} convert(%mul.2143), metadata={op_name="jit(train_step)/transpose(jvp())/while/body/closed_call/checkpoint/convert_element_type" stack_frame_id=0}
  %mul.2142 = f32[1,128,4096]{2,1,0:T(8,128)} multiply(%convert_element_type.1046, %convert_element_type.1045), metadata={op_name="jit(train_step)/transpose(jvp())/while/body/closed_call/checkpoint/mul" stack_frame_id=0}
  %constant.1408 = f32[]{:T(128)} constant(0)
  %reduce.152 = f32[128]{0:T(128)S(1)} reduce(%mul.2142, %constant.1408), dimensions={0,2}, to_apply=%region_14.17, metadata={op_name="jit(train_step)/transpose(jvp())/while/body/closed_call/checkpoint/reduce_sum" stack_frame_id=0}
  ROOT %tuple.188 = (f32[128]{0:T(128)S(1)}, bf16[1,128,4096]{2,1,0:T(8,128)(2,1)S(1)}) tuple(%reduce.152, %bitcast.323.clone.3)
}

%fused_computation.251.clone.clone (param_0.1465: f32[128], param_1.1529: f32[128]) -> f32[128] {
  %param_0.1465 = f32[128]{0:T(128)S(1)} parameter(0)
  %bitcast.822 = f32[1,128]{1,0:T(1,128)} bitcast(%param_0.1465), metadata={op_name="jit(train_step)/transpose(jvp())/while/body/closed_call/checkpoint/reduce_sum" stack_frame_id=0}
  %param_1.1529 = f32[128]{0:T(128)S(1)} parameter(1)
  %constant.1412 = f32[]{:T(128)} constant(0.000244140625)
  %broadcast.678 = f32[128]{0:T(128)} broadcast(%constant.1412), dimensions={}, metadata={op_name="jit(train_step)/transpose(jvp())/while/body/closed_call" stack_frame_id=0}
  %div.861 = f32[128]{0:T(128)} multiply(%param_1.1529, %broadcast.678), metadata={op_name="jit(train_step)/transpose(jvp())/while/body/closed_call/checkpoint/rematted_computation/div" stack_frame_id=0}
  %constant.1411 = f32[]{:T(128)} constant(1e-05)
  %broadcast.677 = f32[128]{0:T(128)} broadcast(%constant.1411), dimensions={}, metadata={op_name="jit(train_step)/transpose(jvp())/while/body/closed_call" stack_frame_id=0}
  %add.875 = f32[128]{0:T(128)} add(%div.861, %broadcast.677), metadata={op_name="jit(train_step)/transpose(jvp())/while/body/closed_call/checkpoint/rematted_computation/add" stack_frame_id=0}
  %bitcast.821 = f32[1,128]{1,0:T(1,128)} bitcast(%add.875), metadata={op_name="jit(train_step)/transpose(jvp())/while/body/closed_call/checkpoint/rematted_computation/add" stack_frame_id=0}
  %rsqrt.116 = f32[1,128]{1,0:T(1,128)} rsqrt(%bitcast.821), metadata={op_name="jit(train_step)/transpose(jvp())/while/body/closed_call/checkpoint/rematted_computation/rsqrt" stack_frame_id=0}
  %div.860 = f32[1,128]{1,0:T(1,128)} divide(%rsqrt.116, %bitcast.821), metadata={op_name="jit(train_step)/transpose(jvp())/while/body/closed_call/checkpoint/rematted_computation/div" stack_frame_id=0}
  %constant.1410 = f32[]{:T(128)} constant(-0.5)
  %closed_call.65 = f32[1,128]{1,0:T(1,128)} broadcast(%constant.1410), dimensions={}, metadata={op_name="jit(train_step)/transpose(jvp())/while/body/closed_call" stack_frame_id=0}
  %mul.2147 = f32[1,128]{1,0:T(1,128)} multiply(%div.860, %closed_call.65), metadata={op_name="jit(train_step)/transpose(jvp())/while/body/closed_call/checkpoint/rematted_computation/mul" stack_frame_id=0}
  %mul.2146 = f32[1,128]{1,0:T(1,128)} multiply(%bitcast.822, %mul.2147), metadata={op_name="jit(train_step)/transpose(jvp())/while/body/closed_call/checkpoint/mul" stack_frame_id=0}
  %constant.1409 = f32[]{:T(128)} constant(0.00048828125)
  %mul.2148 = f32[1,128]{1,0:T(1,128)} broadcast(%constant.1409), dimensions={}, metadata={op_name="jit(train_step)/transpose(jvp())/while/body/closed_call/checkpoint/mul" stack_frame_id=0}
  %mul.2145 = f32[1,128]{1,0:T(1,128)} multiply(%mul.2146, %mul.2148), metadata={op_name="jit(train_step)/transpose(jvp())/while/body/closed_call/checkpoint/mul" stack_frame_id=0}
  ROOT %bitcast.820 = f32[128]{0:T(128)S(1)} bitcast(%mul.2145), metadata={op_name="jit(train_step)/transpose(jvp())/while/body/closed_call/checkpoint/mul" stack_frame_id=0}
}

%region_17.21 (reduce_sum.175: bf16[], reduce_sum.179: bf16[]) -> bf16[] {
  %reduce_sum.175 = bf16[]{:T(256)} parameter(0), metadata={op_name="jit(train_step)/transpose(jvp())/while/body/closed_call/checkpoint/reduce_sum"}
  %reduce_sum.179 = bf16[]{:T(256)} parameter(1), metadata={op_name="jit(train_step)/transpose(jvp())/while/body/closed_call/checkpoint/reduce_sum"}
  ROOT %reduce_sum.180 = bf16[]{:T(256)} add(%reduce_sum.175, %reduce_sum.179), metadata={op_name="checkpoint/reduce_sum" stack_frame_id=0}, backend_config={"flag_configs":[],"scoped_memory_configs":[],"used_scoped_memory_configs":[],"aliasing_operands":{"lists":[]}}
}

%fused_computation.196.clone.clone (param_0.1466: bf16[1,128,4096], param_1.1530: f32[128], param_2.1176: bf16[1,128,4096], param_3.795: bf16[1,128,4096], param_4.490: f32[128], param_5.417: bf16[4096]) -> (bf16[4096], bf16[1,128,4096]) {
  %param_2.1176 = bf16[1,128,4096]{2,1,0:T(8,128)(2,1)S(1)} parameter(2)
  %convert_element_type.1048 = f32[1,128,4096]{2,1,0:T(8,128)} convert(%param_2.1176), metadata={op_name="jit(train_step)/transpose(jvp())/while/body/closed_call/checkpoint/rematted_computation/convert_element_type" stack_frame_id=0}
  %param_1.1530 = f32[128]{0:T(128)S(1)} parameter(1)
  %mul.2151 = f32[1,128,4096]{2,1,0:T(8,128)} broadcast(%param_1.1530), dimensions={1}, metadata={op_name="jit(train_step)/transpose(jvp())/while/body/closed_call/checkpoint/rematted_computation/mul" stack_frame_id=0}
  %mul.2150 = f32[1,128,4096]{2,1,0:T(8,128)} multiply(%convert_element_type.1048, %mul.2151), metadata={op_name="jit(train_step)/transpose(jvp())/while/body/closed_call/checkpoint/rematted_computation/mul" stack_frame_id=0}
  %convert_element_type.1047 = bf16[1,128,4096]{2,1,0:T(8,128)(2,1)} convert(%mul.2150), metadata={op_name="jit(train_step)/transpose(jvp())/while/body/closed_call/checkpoint/rematted_computation/convert_element_type" stack_frame_id=0}
  %param_0.1466 = bf16[1,128,4096]{2,1,0:T(8,128)(2,1)S(1)} parameter(0)
  %mul.2149 = bf16[1,128,4096]{2,1,0:T(8,128)(2,1)} multiply(%convert_element_type.1047, %param_0.1466), metadata={op_name="jit(train_step)/transpose(jvp())/while/body/closed_call/checkpoint/mul" stack_frame_id=0}
  %constant.1413 = bf16[]{:T(256)} constant(0)
  %reduce.153 = bf16[4096]{0:T(1024)(128)(2,1)} reduce(%mul.2149, %constant.1413), dimensions={0,1}, to_apply=%region_17.21, metadata={op_name="jit(train_step)/transpose(jvp())/while/body/closed_call/checkpoint/reduce_sum" stack_frame_id=0}
  %param_3.795 = bf16[1,128,4096]{2,1,0:T(8,128)(2,1)S(1)} parameter(3)
  %param_5.417 = bf16[4096]{0:T(1024)(128)(2,1)S(1)} parameter(5)
  %mul.1494.clone.3 = bf16[1,128,4096]{2,1,0:T(8,128)(2,1)} broadcast(%param_5.417), dimensions={2}, metadata={op_name="jit(train_step)/transpose(jvp())/while/body/closed_call/checkpoint/rematted_computation/mul" stack_frame_id=0}
  %mul.1434.clone.3 = bf16[1,128,4096]{2,1,0:T(8,128)(2,1)} multiply(%param_0.1466, %mul.1494.clone.3), metadata={op_name="jit(train_step)/transpose(jvp())/while/body/closed_call/checkpoint/mul" stack_frame_id=0}
  %convert_element_type.782.clone.3 = f32[1,128,4096]{2,1,0:T(8,128)} convert(%mul.1434.clone.3), metadata={op_name="jit(train_step)/transpose(jvp())/while/body/closed_call/checkpoint/convert_element_type" stack_frame_id=0}
  %mul.1410.clone.3 = f32[1,128,4096]{2,1,0:T(8,128)} multiply(%convert_element_type.782.clone.3, %mul.2151), metadata={op_name="jit(train_step)/transpose(jvp())/while/body/closed_call/checkpoint/mul" stack_frame_id=0}
  %param_4.490 = f32[128]{0:T(128)S(1)} parameter(4)
  %mul.1423.clone.3 = f32[1,128,4096]{2,1,0:T(8,128)} broadcast(%param_4.490), dimensions={1}, metadata={op_name="jit(train_step)/transpose(jvp())/while/body/closed_call/checkpoint/mul" stack_frame_id=0}
  %mul.1409.clone.3 = f32[1,128,4096]{2,1,0:T(8,128)} multiply(%convert_element_type.1048, %mul.1423.clone.3), metadata={op_name="jit(train_step)/transpose(jvp())/while/body/closed_call/checkpoint/mul" stack_frame_id=0}
  %add_any.142.clone.3 = f32[1,128,4096]{2,1,0:T(8,128)} add(%mul.1410.clone.3, %mul.1409.clone.3), metadata={op_name="jit(train_step)/transpose(jvp())/while/body/closed_call/checkpoint/add_any" stack_frame_id=0}
  %convert_element_type.780.clone.3 = bf16[1,128,4096]{2,1,0:T(8,128)(2,1)} convert(%add_any.142.clone.3), metadata={op_name="jit(train_step)/transpose(jvp())/while/body/closed_call/checkpoint/convert_element_type" stack_frame_id=0}
  %add_any.140.clone.3 = bf16[1,128,4096]{2,1,0:T(8,128)(2,1)S(1)} add(%param_3.795, %convert_element_type.780.clone.3), metadata={op_name="jit(train_step)/transpose(jvp())/while/body/closed_call/checkpoint/add_any" stack_frame_id=0}
  ROOT %tuple.189 = (bf16[4096]{0:T(1024)(128)(2,1)}, bf16[1,128,4096]{2,1,0:T(8,128)(2,1)S(1)}) tuple(%reduce.153, %add_any.140.clone.3)
}

%region_15.18 (dot_general.157: f32[], dot_general.158: f32[]) -> f32[] {
  %dot_general.157 = f32[]{:T(128)} parameter(0), metadata={op_name="vmap(jit(_splash_attention))/hsd,hsd->hs/dot_general"}
  %dot_general.158 = f32[]{:T(128)} parameter(1), metadata={op_name="vmap(jit(_splash_attention))/hsd,hsd->hs/dot_general"}
  ROOT %add.154 = f32[]{:T(128)} add(%dot_general.157, %dot_general.158), metadata={op_name="add.31"}, backend_config={"flag_configs":[],"scoped_memory_configs":[],"used_scoped_memory_configs":[],"aliasing_operands":{"lists":[]}}
}

%fused_computation.88.clone.clone.clone.clone (param_0.1467: bf16[1,32,128,4096]) -> bf16[32,128,4096] {
  %param_0.1467 = bf16[1,32,128,4096]{3,2,1,0:T(8,128)(2,1)S(1)} parameter(0)
  ROOT %bitcast.823 = bf16[32,128,4096]{2,1,0:T(8,128)(2,1)} bitcast(%param_0.1467), metadata={op_name="jit(train_step)/transpose(jvp())/while/body/closed_call/checkpoint/rematted_computation/dot_general" stack_frame_id=0}
}

%fused_computation.178.clone.clone.clone.clone (param_0.1468: bf16[1,128,4096]) -> bf16[128,4096,1] {
  %param_0.1468 = bf16[1,128,4096]{2,1,0:T(8,128)(2,1)S(1)} parameter(0)
  ROOT %bitcast.824 = bf16[128,4096,1]{1,0,2:T(8,128)(2,1)} bitcast(%param_0.1468)
}

%fused_computation.159.clone.clone (param_0.1469: bf16[32,128,128], param_1.1531: bf16[1,32,128,4096], param_2.1177: bf16[1,128,4096]) -> (f32[32,128], bf16[128,32,128]) {
  %param_0.1469 = bf16[32,128,128]{2,1,0:T(8,128)(2,1)S(1)} parameter(0)
  %bitcast.826 = bf16[1,32,128,128]{3,2,1,0:T(8,128)(2,1)} bitcast(%param_0.1469), metadata={op_name="jit(train_step)/transpose(jvp())/while/body/closed_call/checkpoint/rematted_computation/shard_map/vmap(jit(_splash_attention))/splash_mha_fwd_segmented_residuals/splash_mha_fwd_segmented_residuals/broadcast_in_dim" stack_frame_id=0}
  %convert.88 = f32[1,32,128,128]{3,2,1,0:T(8,128)} convert(%bitcast.826), metadata={op_name="jit(train_step)/transpose(jvp())/while/body/closed_call/checkpoint/shard_map/convert" stack_frame_id=0}
  %param_2.1177 = bf16[1,128,4096]{2,1,0:T(8,128)(2,1)S(1)} parameter(2)
  %fusion.193.clone.3 = bf16[128,4096,1]{1,0,2:T(8,128)(2,1)} fusion(%param_2.1177), kind=kLoop, calls=%fused_computation.178.clone.clone.clone.clone
  %param_1.1531 = bf16[1,32,128,4096]{3,2,1,0:T(8,128)(2,1)S(1)} parameter(1)
  %fusion.107.clone.3 = bf16[32,128,4096]{2,1,0:T(8,128)(2,1)} fusion(%param_1.1531), kind=kLoop, calls=%fused_computation.88.clone.clone.clone.clone, metadata={op_name="jit(train_step)/transpose(jvp())/while/body/closed_call/checkpoint/rematted_computation/dot_general" stack_frame_id=0}
  %convolution.70.clone.3 = bf16[128,32,128]{2,0,1:T(8,128)(2,1)S(1)} convolution(%fusion.193.clone.3, %fusion.107.clone.3), window={size=32 pad=31_31 rhs_reversal=1}, dim_labels=bf0_0oi->b0f, metadata={op_name="jit(train_step)/transpose(jvp())/while/body/closed_call/checkpoint/dot_general" stack_frame_id=0}
  %bitcast.825 = bf16[1,32,128,128]{3,2,1,0:T(8,128)(2,1)} bitcast(%convolution.70.clone.3), metadata={op_name="jit(train_step)/transpose(jvp())/while/body/closed_call/checkpoint/transpose" stack_frame_id=0}
  %convert.87 = f32[1,32,128,128]{3,2,1,0:T(8,128)} convert(%bitcast.825), metadata={op_name="jit(train_step)/transpose(jvp())/while/body/closed_call/checkpoint/shard_map/convert.1" stack_frame_id=0}
  %multiply.223 = f32[1,32,128,128]{3,2,1,0:T(8,128)} multiply(%convert.88, %convert.87), metadata={op_name="jit(train_step)/transpose(jvp())/while/body/closed_call/checkpoint/shard_map/multiply" stack_frame_id=0}
  %constant.1414 = f32[]{:T(128)} constant(0)
  %dot_general.189 = f32[32,128]{1,0:T(8,128)S(1)} reduce(%multiply.223, %constant.1414), dimensions={0,3}, to_apply=%region_15.18, metadata={op_name="jit(train_step)/transpose(jvp())/while/body/closed_call/checkpoint/shard_map/vmap(jit(_splash_attention))/hsd,hsd->hs/dot_general" stack_frame_id=0}
  ROOT %tuple.190 = (f32[32,128]{1,0:T(8,128)S(1)}, bf16[128,32,128]{2,0,1:T(8,128)(2,1)S(1)}) tuple(%dot_general.189, %convolution.70.clone.3)
}

%fused_computation.176.clone.clone (param_0.1482: bf16[32,128,128], param_1.1539: bf16[128,128]) -> bf16[1,128,32,128] {
  %param_0.1482 = bf16[32,128,128]{2,1,0:T(8,128)(2,1)S(1)} parameter(0)
  %bitcast.842 = bf16[1,32,128,128]{3,2,1,0:T(8,128)(2,1)} bitcast(%param_0.1482), metadata={op_name="jit(train_step)/transpose(jvp())/while/body/closed_call/checkpoint/shard_map/vmap(jit(_splash_attention))/splash_mha_dq_segmented_no_residuals/splash_mha_dq_segmented_no_residuals/broadcast_in_dim" stack_frame_id=0}
  %param_1.1539 = bf16[128,128]{1,0:T(8,128)(2,1)S(1)} parameter(1)
  %broadcast.681 = bf16[1,32,128,128]{3,2,1,0:T(8,128)(2,1)} broadcast(%param_1.1539), dimensions={2,3}, metadata={op_name="jit(train_step)/transpose(jvp())/while/body/closed_call/checkpoint/rematted_computation/mul" stack_frame_id=0}
  %mul.2162 = bf16[1,32,128,128]{3,2,1,0:T(8,128)(2,1)} multiply(%bitcast.842, %broadcast.681), metadata={op_name="jit(train_step)/transpose(jvp())/while/body/closed_call/checkpoint/mul" stack_frame_id=0}
  ROOT %bitcast.841 = bf16[1,128,32,128]{3,1,2,0:T(8,128)(2,1)S(1)} bitcast(%mul.2162), metadata={op_name="jit(train_step)/transpose(jvp())/while/body/closed_call/checkpoint/mul" stack_frame_id=0}
}

%fused_computation.418.clone.clone (param_0.1483: bf16[1,128,32,128]) -> (bf16[1,128,32,64], bf16[1,128,32,64]) {
  %param_0.1483 = bf16[1,128,32,128]{3,1,2,0:T(8,128)(2,1)S(1)} parameter(0)
  %slice.79 = bf16[1,128,32,64]{3,1,2,0:T(8,128)(2,1)S(1)} slice(%param_0.1483), slice={[0:1], [0:128], [0:32], [64:128]}, metadata={op_name="jit(train_step)/transpose(jvp())/while/body/closed_call/checkpoint/split" stack_frame_id=0}
  %slice.50.clone.3 = bf16[1,128,32,64]{3,1,2,0:T(8,128)(2,1)} slice(%param_0.1483), slice={[0:1], [0:128], [0:32], [0:64]}, metadata={op_name="jit(train_step)/transpose(jvp())/while/body/closed_call/checkpoint/split" stack_frame_id=0}
  %neg.103.clone.3 = bf16[1,128,32,64]{3,1,2,0:T(8,128)(2,1)S(1)} negate(%slice.50.clone.3), metadata={op_name="jit(train_step)/transpose(jvp())/while/body/closed_call/checkpoint/neg" stack_frame_id=0}
  ROOT %tuple.195 = (bf16[1,128,32,64]{3,1,2,0:T(8,128)(2,1)S(1)}, bf16[1,128,32,64]{3,1,2,0:T(8,128)(2,1)S(1)}) tuple(%slice.79, %neg.103.clone.3)
}

%fused_computation.170.clone.clone (param_0.1484: bf16[1,128,32,64], param_1.1540: bf16[1,128,32,64], param_2.1184: bf16[32,128,128], param_3.802: bf16[128,128]) -> bf16[128,32,128] {
  %param_1.1540 = bf16[1,128,32,64]{3,1,2,0:T(8,128)(2,1)S(1)} parameter(1)
  %constant.1421 = bf16[]{:T(256)} constant(-inf)
  %pad.69 = bf16[1,128,32,128]{3,1,2,0:T(8,128)(2,1)} pad(%param_1.1540, %constant.1421), padding=0_0x0_0x0_0x0_64, metadata={op_name="jit(train_step)/transpose(jvp())/while/body/closed_call/checkpoint/concatenate" stack_frame_id=0}
  %param_0.1484 = bf16[1,128,32,64]{3,1,2,0:T(8,128)(2,1)S(1)} parameter(0)
  %pad.68 = bf16[1,128,32,128]{3,1,2,0:T(8,128)(2,1)} pad(%param_0.1484, %constant.1421), padding=0_0x0_0x0_0x64_0, metadata={op_name="jit(train_step)/transpose(jvp())/while/body/closed_call/checkpoint/concatenate" stack_frame_id=0}
  %maximum.53 = bf16[1,128,32,128]{3,1,2,0:T(8,128)(2,1)} maximum(%pad.69, %pad.68), metadata={op_name="jit(train_step)/transpose(jvp())/while/body/closed_call/checkpoint/concatenate" stack_frame_id=0}
  %param_2.1184 = bf16[32,128,128]{2,1,0:T(8,128)(2,1)S(1)} parameter(2)
  %bitcast.845 = bf16[1,32,128,128]{3,2,1,0:T(8,128)(2,1)} bitcast(%param_2.1184), metadata={op_name="jit(train_step)/transpose(jvp())/while/body/closed_call/checkpoint/shard_map/vmap(jit(_splash_attention))/splash_mha_dq_segmented_no_residuals/splash_mha_dq_segmented_no_residuals/broadcast_in_dim" stack_frame_id=0}
  %param_3.802 = bf16[128,128]{1,0:T(8,128)(2,1)S(1)} parameter(3)
  %broadcast.682 = bf16[1,32,128,128]{3,2,1,0:T(8,128)(2,1)} broadcast(%param_3.802), dimensions={2,3}, metadata={op_name="jit(train_step)/transpose(jvp())/while/body/closed_call/checkpoint/rematted_computation/mul" stack_frame_id=0}
  %mul.2163 = bf16[1,32,128,128]{3,2,1,0:T(8,128)(2,1)} multiply(%bitcast.845, %broadcast.682), metadata={op_name="jit(train_step)/transpose(jvp())/while/body/closed_call/checkpoint/mul" stack_frame_id=0}
  %bitcast.844 = bf16[1,128,32,128]{3,1,2,0:T(8,128)(2,1)} bitcast(%mul.2163), metadata={op_name="jit(train_step)/transpose(jvp())/while/body/closed_call/checkpoint/mul" stack_frame_id=0}
  %add_any.162 = bf16[1,128,32,128]{3,1,2,0:T(8,128)(2,1)} add(%maximum.53, %bitcast.844), metadata={op_name="jit(train_step)/transpose(jvp())/while/body/closed_call/checkpoint/add_any" stack_frame_id=0}
  ROOT %bitcast.843 = bf16[128,32,128]{2,0,1:T(8,128)(2,1)S(1)} bitcast(%add_any.162)
}

%fused_computation.92.clone.clone.clone.clone (param_0.1495: bf16[1,4096,32,128]) -> bf16[4096,32,128] {
  %param_0.1495 = bf16[1,4096,32,128]{1,3,2,0:T(8,128)(2,1)S(1)} parameter(0)
  ROOT %bitcast.856 = bf16[4096,32,128]{0,2,1:T(8,128)(2,1)} bitcast(%param_0.1495), metadata={op_name="jit(train_step)/transpose(jvp())/while/body/closed_call/checkpoint/rematted_computation/dot_general" stack_frame_id=0}
}

%bitcast_fusion.1.clone.clone (bitcast_input.13: bf16[128,32,128]) -> bf16[128,32,128] {
  %bitcast_input.13 = bf16[128,32,128]{2,0,1:T(8,128)(2,1)S(1)} parameter(0)
  ROOT %bitcast.857 = bf16[128,32,128]{2,0,1:T(8,128)(2,1)} bitcast(%bitcast_input.13)
}

%fused_computation.141.clone.clone (param_0.1496: bf16[128,32,128], param_1.1547: bf16[1,4096,32,128]) -> bf16[128,4096] {
  %param_0.1496 = bf16[128,32,128]{2,0,1:T(8,128)(2,1)S(1)} parameter(0)
  %fusion.446 = bf16[128,32,128]{2,0,1:T(8,128)(2,1)} fusion(%param_0.1496), kind=kLoop, calls=%bitcast_fusion.1.clone.clone
  %param_1.1547 = bf16[1,4096,32,128]{1,3,2,0:T(8,128)(2,1)S(1)} parameter(1)
  %fusion.445 = bf16[4096,32,128]{0,2,1:T(8,128)(2,1)} fusion(%param_1.1547), kind=kLoop, calls=%fused_computation.92.clone.clone.clone.clone, metadata={op_name="jit(train_step)/transpose(jvp())/while/body/closed_call/checkpoint/rematted_computation/dot_general" stack_frame_id=0}
  %convolution.154 = bf16[128,4096,1]{1,0,2:T(8,128)(2,1)} convolution(%fusion.446, %fusion.445), window={size=32}, dim_labels=b0f_o0i->bf0, metadata={op_name="jit(train_step)/transpose(jvp())/while/body/closed_call/checkpoint/dot_general" stack_frame_id=0}
  ROOT %bitcast.858 = bf16[128,4096]{1,0:T(8,128)(2,1)S(1)} bitcast(%convolution.154), metadata={op_name="jit(train_step)/transpose(jvp())/while/body/closed_call/checkpoint/dot_general" stack_frame_id=0}
}

%fused_computation.231.clone.clone (param_0.1474: bf16[8,128,128], param_1.1534: bf16[128,128]) -> bf16[1,128,8,128] {
  %param_0.1474 = bf16[8,128,128]{2,1,0:T(8,128)(2,1)S(1)} parameter(0)
  %bitcast.832 = bf16[1,8,128,128]{3,2,1,0:T(8,128)(2,1)} bitcast(%param_0.1474), metadata={op_name="jit(train_step)/transpose(jvp())/while/body/closed_call/checkpoint/shard_map/vmap(jit(_splash_attention))/splash_mha_dkv_segmented_no_residuals/splash_mha_dkv_segmented_no_residuals/broadcast_in_dim" stack_frame_id=0}
  %param_1.1534 = bf16[128,128]{1,0:T(8,128)(2,1)S(1)} parameter(1)
  %broadcast.679 = bf16[1,8,128,128]{3,2,1,0:T(8,128)(2,1)} broadcast(%param_1.1534), dimensions={2,3}, metadata={op_name="jit(train_step)/transpose(jvp())/while/body/closed_call/checkpoint/rematted_computation/mul" stack_frame_id=0}
  %mul.2156 = bf16[1,8,128,128]{3,2,1,0:T(8,128)(2,1)} multiply(%bitcast.832, %broadcast.679), metadata={op_name="jit(train_step)/transpose(jvp())/while/body/closed_call/checkpoint/mul" stack_frame_id=0}
  ROOT %bitcast.831 = bf16[1,128,8,128]{3,1,2,0:T(8,128)(2,1)S(1)} bitcast(%mul.2156), metadata={op_name="jit(train_step)/transpose(jvp())/while/body/closed_call/checkpoint/mul" stack_frame_id=0}
}

%fused_computation.419.clone.clone (param_0.1475: bf16[1,128,8,128]) -> (bf16[1,128,8,64], bf16[1,128,8,64]) {
  %param_0.1475 = bf16[1,128,8,128]{3,1,2,0:T(8,128)(2,1)S(1)} parameter(0)
  %slice.78 = bf16[1,128,8,64]{3,1,2,0:T(8,128)(2,1)S(1)} slice(%param_0.1475), slice={[0:1], [0:128], [0:8], [64:128]}, metadata={op_name="jit(train_step)/transpose(jvp())/while/body/closed_call/checkpoint/split" stack_frame_id=0}
  %slice.52.clone.3 = bf16[1,128,8,64]{3,1,2,0:T(8,128)(2,1)} slice(%param_0.1475), slice={[0:1], [0:128], [0:8], [0:64]}, metadata={op_name="jit(train_step)/transpose(jvp())/while/body/closed_call/checkpoint/split" stack_frame_id=0}
  %neg.105.clone.3 = bf16[1,128,8,64]{3,1,2,0:T(8,128)(2,1)S(1)} negate(%slice.52.clone.3), metadata={op_name="jit(train_step)/transpose(jvp())/while/body/closed_call/checkpoint/neg" stack_frame_id=0}
  ROOT %tuple.192 = (bf16[1,128,8,64]{3,1,2,0:T(8,128)(2,1)S(1)}, bf16[1,128,8,64]{3,1,2,0:T(8,128)(2,1)S(1)}) tuple(%slice.78, %neg.105.clone.3)
}

%fused_computation.226.clone.clone (param_0.1476: bf16[1,128,8,64], param_1.1535: bf16[1,128,8,64], param_2.1180: bf16[8,128,128], param_3.798: bf16[128,128]) -> bf16[128,8,128] {
  %param_1.1535 = bf16[1,128,8,64]{3,1,2,0:T(8,128)(2,1)S(1)} parameter(1)
  %constant.1416 = bf16[]{:T(256)} constant(-inf)
  %pad.67 = bf16[1,128,8,128]{3,1,2,0:T(8,128)(2,1)} pad(%param_1.1535, %constant.1416), padding=0_0x0_0x0_0x0_64, metadata={op_name="jit(train_step)/transpose(jvp())/while/body/closed_call/checkpoint/concatenate" stack_frame_id=0}
  %param_0.1476 = bf16[1,128,8,64]{3,1,2,0:T(8,128)(2,1)S(1)} parameter(0)
  %pad.66 = bf16[1,128,8,128]{3,1,2,0:T(8,128)(2,1)} pad(%param_0.1476, %constant.1416), padding=0_0x0_0x0_0x64_0, metadata={op_name="jit(train_step)/transpose(jvp())/while/body/closed_call/checkpoint/concatenate" stack_frame_id=0}
  %maximum.52 = bf16[1,128,8,128]{3,1,2,0:T(8,128)(2,1)} maximum(%pad.67, %pad.66), metadata={op_name="jit(train_step)/transpose(jvp())/while/body/closed_call/checkpoint/concatenate" stack_frame_id=0}
  %param_2.1180 = bf16[8,128,128]{2,1,0:T(8,128)(2,1)S(1)} parameter(2)
  %bitcast.835 = bf16[1,8,128,128]{3,2,1,0:T(8,128)(2,1)} bitcast(%param_2.1180), metadata={op_name="jit(train_step)/transpose(jvp())/while/body/closed_call/checkpoint/shard_map/vmap(jit(_splash_attention))/splash_mha_dkv_segmented_no_residuals/splash_mha_dkv_segmented_no_residuals/broadcast_in_dim" stack_frame_id=0}
  %param_3.798 = bf16[128,128]{1,0:T(8,128)(2,1)S(1)} parameter(3)
  %broadcast.680 = bf16[1,8,128,128]{3,2,1,0:T(8,128)(2,1)} broadcast(%param_3.798), dimensions={2,3}, metadata={op_name="jit(train_step)/transpose(jvp())/while/body/closed_call/checkpoint/rematted_computation/mul" stack_frame_id=0}
  %mul.2157 = bf16[1,8,128,128]{3,2,1,0:T(8,128)(2,1)} multiply(%bitcast.835, %broadcast.680), metadata={op_name="jit(train_step)/transpose(jvp())/while/body/closed_call/checkpoint/mul" stack_frame_id=0}
  %bitcast.834 = bf16[1,128,8,128]{3,1,2,0:T(8,128)(2,1)} bitcast(%mul.2157), metadata={op_name="jit(train_step)/transpose(jvp())/while/body/closed_call/checkpoint/mul" stack_frame_id=0}
  %add_any.161 = bf16[1,128,8,128]{3,1,2,0:T(8,128)(2,1)} add(%maximum.52, %bitcast.834), metadata={op_name="jit(train_step)/transpose(jvp())/while/body/closed_call/checkpoint/add_any" stack_frame_id=0}
  ROOT %bitcast.833 = bf16[128,8,128]{2,0,1:T(8,128)(2,1)S(1)} bitcast(%add_any.161)
}

%fused_computation.105.clone.clone.clone.clone (param_0.1493: bf16[1,4096,8,128]) -> bf16[4096,8,128] {
  %param_0.1493 = bf16[1,4096,8,128]{1,3,2,0:T(8,128)(2,1)S(1)} parameter(0)
  ROOT %bitcast.853 = bf16[4096,8,128]{0,2,1:T(8,128)(2,1)} bitcast(%param_0.1493), metadata={op_name="jit(train_step)/transpose(jvp())/while/body/closed_call/checkpoint/rematted_computation/dot_general" stack_frame_id=0}
}

%bitcast_fusion.clone.clone (bitcast_input.12: bf16[128,8,128]) -> bf16[128,8,128] {
  %bitcast_input.12 = bf16[128,8,128]{2,0,1:T(8,128)(2,1)S(1)} parameter(0)
  ROOT %bitcast.854 = bf16[128,8,128]{2,0,1:T(8,128)(2,1)} bitcast(%bitcast_input.12)
}

%fused_computation.139.clone.clone (param_0.1494: bf16[128,8,128], param_1.1546: bf16[1,4096,8,128]) -> bf16[128,4096] {
  %param_0.1494 = bf16[128,8,128]{2,0,1:T(8,128)(2,1)S(1)} parameter(0)
  %fusion.444 = bf16[128,8,128]{2,0,1:T(8,128)(2,1)} fusion(%param_0.1494), kind=kLoop, calls=%bitcast_fusion.clone.clone
  %param_1.1546 = bf16[1,4096,8,128]{1,3,2,0:T(8,128)(2,1)S(1)} parameter(1)
  %fusion.443 = bf16[4096,8,128]{0,2,1:T(8,128)(2,1)} fusion(%param_1.1546), kind=kLoop, calls=%fused_computation.105.clone.clone.clone.clone, metadata={op_name="jit(train_step)/transpose(jvp())/while/body/closed_call/checkpoint/rematted_computation/dot_general" stack_frame_id=0}
  %convolution.153 = bf16[128,4096,1]{1,0,2:T(8,128)(2,1)} convolution(%fusion.444, %fusion.443), window={size=8}, dim_labels=b0f_o0i->bf0, metadata={op_name="jit(train_step)/transpose(jvp())/while/body/closed_call/checkpoint/dot_general" stack_frame_id=0}
  ROOT %bitcast.855 = bf16[128,4096]{1,0:T(8,128)(2,1)S(1)} bitcast(%convolution.153), metadata={op_name="jit(train_step)/transpose(jvp())/while/body/closed_call/checkpoint/dot_general" stack_frame_id=0}
}

%region_16.20 (reduce_sum.172: f32[], reduce_sum.173: f32[]) -> f32[] {
  %reduce_sum.172 = f32[]{:T(128)} parameter(0), metadata={op_name="jit(train_step)/transpose(jvp())/while/body/closed_call/checkpoint/reduce_sum"}
  %reduce_sum.173 = f32[]{:T(128)} parameter(1), metadata={op_name="jit(train_step)/transpose(jvp())/while/body/closed_call/checkpoint/reduce_sum"}
  ROOT %reduce_sum.174 = f32[]{:T(128)} add(%reduce_sum.172, %reduce_sum.173), metadata={op_name="checkpoint/reduce_sum" stack_frame_id=0}, backend_config={"flag_configs":[],"scoped_memory_configs":[],"used_scoped_memory_configs":[],"aliasing_operands":{"lists":[]}}
}

