HloModule jit_train_step, is_scheduled=true, input_output_alias={ {0}: (0, {}, may-alias), {1}: (1, {}, may-alias), {2}: (2, {}, may-alias), {3}: (3, {}, may-alias), {4}: (4, {}, may-alias), {5}: (5, {}, may-alias), {6}: (6, {}, may-alias), {7}: (7, {}, may-alias), {8}: (8, {}, may-alias), {9}: (9, {}, may-alias), {10}: (10, {}, may-alias), {11}: (11, {}, may-alias), {12}: (12, {}, may-alias), {13}: (13, {}, may-alias), {14}: (14, {}, may-alias), {15}: (15, {}, may-alias), {16}: (16, {}, may-alias), {17}: (17, {}, may-alias), {18}: (18, {}, may-alias), {19}: (19, {}, may-alias), {20}: (20, {}, may-alias), {21}: (21, {}, may-alias), {22}: (22, {}, may-alias), {23}: (23, {}, may-alias), {24}: (24, {}, may-alias), {25}: (25, {}, may-alias), {26}: (26, {}, may-alias), {27}: (27, {}, may-alias), {28}: (28, {}, may-alias), {29}: (29, {}, may-alias), {30}: (30, {}, may-alias), {31}: (31, {}, may-alias), {32}: (32, {}, may-alias), {33}: (33, {}, may-alias), {34}: (34, {}, may-alias), {35}: (35, {}, may-alias), {36}: (36, {}, may-alias), {37}: (37, {}, may-alias), {38}: (38, {}, may-alias), {39}: (39, {}, may-alias), {40}: (40, {}, may-alias), {41}: (41, {}, may-alias), {42}: (42, {}, may-alias), {43}: (43, {}, may-alias), {44}: (44, {}, may-alias), {45}: (45, {}, may-alias), {46}: (46, {}, may-alias), {47}: (47, {}, may-alias), {48}: (48, {}, may-alias), {49}: (49, {}, may-alias), {50}: (50, {}, may-alias), {51}: (51, {}, may-alias), {52}: (52, {}, may-alias), {53}: (53, {}, may-alias), {54}: (54, {}, may-alias), {55}: (55, {}, may-alias), {56}: (56, {}, may-alias), {57}: (57, {}, may-alias), {58}: (58, {}, may-alias), {59}: (59, {}, may-alias), {60}: (60, {}, may-alias), {61}: (61, {}, may-alias), {62}: (62, {}, may-alias), {63}: (63, {}, may-alias), {64}: (64, {}, may-alias), {65}: (65, {}, may-alias), {66}: (66, {}, may-alias), {67}: (67, {}, may-alias), {68}: (68, {}, may-alias) }, entry_computation_layout={(f32[4096]{0:T(1024)}, u32[]{:T(128)}, u32[4]{0:T(128)}, u32[]{:T(128)}, u32[4]{0:T(128)}, /*index=5*/u32[]{:T(128)}, u32[4]{0:T(128)}, u32[4]{0:T(128)}, u32[4,4]{1,0:T(4,128)}, u32[4]{0:T(128)}, /*index=10*/u32[4,4]{1,0:T(4,128)}, u32[4]{0:T(128)}, u32[4,4]{1,0:T(4,128)}, u32[4]{0:T(128)}, u32[4,4]{1,0:T(4,128)}, /*index=15*/u32[4]{0:T(128)}, u32[4,4]{1,0:T(4,128)}, u32[4]{0:T(128)}, u32[4,4]{1,0:T(4,128)}, f32[1024,4,14336]{2,1,0:T(4,128)}, /*index=20*/f32[1024,4,14336]{2,1,0:T(4,128)}, f32[14336,4,1024]{2,1,0:T(4,128)}, f32[4096,4]{0,1:T(4,128)}, f32[4096,4]{0,1:T(4,128)}, u32[4]{0:T(128)}, /*index=25*/u32[4,4]{1,0:T(4,128)}, u32[4]{0:T(128)}, u32[4,4]{1,0:T(4,128)}, u32[4]{0:T(128)}, u32[4,4]{1,0:T(4,128)}, /*index=30*/f32[1024,4,8,128]{3,2,1,0:T(8,128)}, f32[32,4,128,1024]{3,2,1,0:T(8,128)}, f32[1024,4,32,128]{3,2,1,0:T(8,128)}, f32[1024,4,8,128]{3,2,1,0:T(8,128)}, f32[1024,128256]{1,0:T(8,128)}, /*index=35*/u32[]{:T(128)}, u32[4]{0:T(128)}, u32[]{:T(128)}, u32[4]{0:T(128)}, u32[]{:T(128)}, /*index=40*/u32[4]{0:T(128)}, f32[128256,1024]{1,0:T(8,128)}, s32[]{:T(128)}, f32[4096]{0:T(1024)}, f32[1024,4,14336]{2,1,0:T(4,128)}, /*index=45*/f32[1024,4,14336]{2,1,0:T(4,128)}, f32[14336,4,1024]{2,1,0:T(4,128)}, f32[4096,4]{0,1:T(4,128)}, f32[4096,4]{0,1:T(4,128)}, f32[1024,4,8,128]{3,2,1,0:T(8,128)}, /*index=50*/f32[32,4,128,1024]{3,2,1,0:T(8,128)}, f32[1024,4,32,128]{3,2,1,0:T(8,128)}, f32[1024,4,8,128]{3,2,1,0:T(8,128)}, f32[1024,128256]{1,0:T(8,128)}, f32[128256,1024]{1,0:T(8,128)}, /*index=55*/f32[4096]{0:T(1024)}, f32[1024,4,14336]{2,1,0:T(4,128)}, f32[1024,4,14336]{2,1,0:T(4,128)}, f32[14336,4,1024]{2,1,0:T(4,128)}, f32[4096,4]{0,1:T(4,128)}, /*index=60*/f32[4096,4]{0,1:T(4,128)}, f32[1024,4,8,128]{3,2,1,0:T(8,128)}, f32[32,4,128,1024]{3,2,1,0:T(8,128)}, f32[1024,4,32,128]{3,2,1,0:T(8,128)}, f32[1024,4,8,128]{3,2,1,0:T(8,128)}, /*index=65*/f32[1024,128256]{1,0:T(8,128)}, f32[128256,1024]{1,0:T(8,128)}, s32[]{:T(128)}, u32[]{:T(128)}, s32[1,128]{1,0:T(1,128)}, /*index=70*/s32[1,128]{1,0:T(1,128)}, s32[1,128]{1,0:T(1,128)}, s32[1,128]{1,0:T(1,128)}, s32[1,128]{1,0:T(1,128)})->(f32[4096]{0:T(1024)}, u32[]{:T(128)}, u32[4]{0:T(128)}, u32[]{:T(128)}, u32[4]{0:T(128)}, /*index=5*/u32[]{:T(128)}, u32[4]{0:T(128)}, u32[4]{0:T(128)}, u32[4,4]{1,0:T(4,128)}, u32[4]{0:T(128)}, /*index=10*/u32[4,4]{1,0:T(4,128)}, u32[4]{0:T(128)}, u32[4,4]{1,0:T(4,128)}, u32[4]{0:T(128)}, u32[4,4]{1,0:T(4,128)}, /*index=15*/u32[4]{0:T(128)}, u32[4,4]{1,0:T(4,128)}, u32[4]{0:T(128)}, u32[4,4]{1,0:T(4,128)}, f32[1024,4,14336]{2,1,0:T(4,128)}, /*index=20*/f32[1024,4,14336]{2,1,0:T(4,128)}, f32[14336,4,1024]{2,1,0:T(4,128)}, f32[4096,4]{0,1:T(4,128)}, f32[4096,4]{0,1:T(4,128)}, u32[4]{0:T(128)}, /*index=25*/u32[4,4]{1,0:T(4,128)}, u32[4]{0:T(128)}, u32[4,4]{1,0:T(4,128)}, u32[4]{0:T(128)}, u32[4,4]{1,0:T(4,128)}, /*index=30*/f32[1024,4,8,128]{3,2,1,0:T(8,128)}, f32[32,4,128,1024]{3,2,1,0:T(8,128)}, f32[1024,4,32,128]{3,2,1,0:T(8,128)}, f32[1024,4,8,128]{3,2,1,0:T(8,128)}, f32[1024,128256]{1,0:T(8,128)}, /*index=35*/u32[]{:T(128)}, u32[4]{0:T(128)}, u32[]{:T(128)}, u32[4]{0:T(128)}, u32[]{:T(128)}, /*index=40*/u32[4]{0:T(128)}, f32[128256,1024]{1,0:T(8,128)}, s32[]{:T(128)}, f32[4096]{0:T(1024)}, f32[1024,4,14336]{2,1,0:T(4,128)}, /*index=45*/f32[1024,4,14336]{2,1,0:T(4,128)}, f32[14336,4,1024]{2,1,0:T(4,128)}, f32[4096,4]{0,1:T(4,128)}, f32[4096,4]{0,1:T(4,128)}, f32[1024,4,8,128]{3,2,1,0:T(8,128)}, /*index=50*/f32[32,4,128,1024]{3,2,1,0:T(8,128)}, f32[1024,4,32,128]{3,2,1,0:T(8,128)}, f32[1024,4,8,128]{3,2,1,0:T(8,128)}, f32[1024,128256]{1,0:T(8,128)}, f32[128256,1024]{1,0:T(8,128)}, /*index=55*/f32[4096]{0:T(1024)}, f32[1024,4,14336]{2,1,0:T(4,128)}, f32[1024,4,14336]{2,1,0:T(4,128)}, f32[14336,4,1024]{2,1,0:T(4,128)}, f32[4096,4]{0,1:T(4,128)}, /*index=60*/f32[4096,4]{0,1:T(4,128)}, f32[1024,4,8,128]{3,2,1,0:T(8,128)}, f32[32,4,128,1024]{3,2,1,0:T(8,128)}, f32[1024,4,32,128]{3,2,1,0:T(8,128)}, f32[1024,4,8,128]{3,2,1,0:T(8,128)}, /*index=65*/f32[1024,128256]{1,0:T(8,128)}, f32[128256,1024]{1,0:T(8,128)}, s32[]{:T(128)}, u32[]{:T(128)}, f32[]{:T(128)}, /*index=70*/f32[]{:T(128)}, f32[]{:T(128)}, f32[]{:T(128)}, f32[]{:T(128)}, f32[]{:T(128)}, /*index=75*/f32[]{:T(128)}, f32[]{:T(128)}, f32[]{:T(128)}, s32[]{:T(128)}, f32[]{:T(128)})}, allow_spmd_sharding_propagation_to_parameters={false,false,false,false,false,false,false,false,false,false,false,false,false,false,false,false,false,false,false,false,false,false,false,false,false,false,false,false,false,false,false,false,false,false,false,false,false,false,false,false,false,false,false,false,false,false,false,false,false,false,false,false,false,false,false,false,false,false,false,false,false,false,false,false,false,false,false,false,false,false,false,false,false,false}, allow_spmd_sharding_propagation_to_output={false,false,false,false,false,false,false,false,false,false,false,false,false,false,false,false,false,false,false,false,false,false,false,false,false,false,false,false,false,false,false,false,false,false,false,false,false,false,false,false,false,false,false,false,false,false,false,false,false,false,false,false,false,false,false,false,false,false,false,false,false,false,false,false,false,false,false,false,false,true,true,true,true,true,true,true,true,true,true,true}, num_partitions=4

FileNames

FunctionNames

FileLocations

StackFrames


%region_0.1.clone (reduce_sum.416: s32[], reduce_sum.420: s32[]) -> s32[] {
  %reduce_sum.416 = s32[]{:T(128)} parameter(0), metadata={op_name="jit(train_step)/jvp()/reduce_sum"}
  %reduce_sum.420 = s32[]{:T(128)} parameter(1), metadata={op_name="jit(train_step)/jvp()/reduce_sum"}
  ROOT %reduce_sum.421 = s32[]{:T(128)} add(%reduce_sum.416, %reduce_sum.420), metadata={op_name="jit(train_step)/jvp()/reduce_sum" stack_frame_id=0}, backend_config={"flag_configs":[],"scoped_memory_configs":[],"used_scoped_memory_configs":[],"aliasing_operands":{"lists":[{"indices":["0","2"]}]}}
}

%region_8.11.clone (dot_general.243: bf16[], dot_general.244: bf16[]) -> bf16[] {
  %dot_general.243 = bf16[]{:T(256)} parameter(0), metadata={op_name="jit(train_step)/transpose(jvp(...k,k->...k))/dot_general"}
  %dot_general.244 = bf16[]{:T(256)} parameter(1), metadata={op_name="jit(train_step)/transpose(jvp(...k,k->...k))/dot_general"}
  ROOT %add.500 = bf16[]{:T(256)} add(%dot_general.243, %dot_general.244), metadata={op_name="add.51"}, backend_config={"flag_configs":[],"scoped_memory_configs":[],"used_scoped_memory_configs":[],"aliasing_operands":{"lists":[]}}
}

%fused_computation (param_0.2: bf16[128256,1024], param_1.7: s32[1024]) -> bf16[512,1024] {
  %param_0.2 = bf16[128256,1024]{1,0:T(8,128)(2,1)} parameter(0)
  %param_1.7 = s32[1024]{0:T(1024)S(1)} parameter(1)
  %custom-call.1 = s32[1024]{0:T(1024)} custom-call(%param_1.7), custom_call_target="AssumeGatherIndicesInBound", operand_layout_constraints={s32[1024]{0:T(1024)}}, metadata={op_name="jit(train_step)/jvp()/gather" stack_frame_id=0}
  %slice.34 = s32[512]{0:T(512)} slice(%custom-call.1), slice={[0:512]}, metadata={op_name="jit(train_step)/jvp()/gather" stack_frame_id=0}
  %reshape.661 = s32[4,128]{1,0:T(4,128)} reshape(%slice.34), metadata={op_name="jit(train_step)/jvp()/gather" stack_frame_id=0}
  %transpose.326 = s32[4,128]{1,0:T(4,128)} transpose(%reshape.661), dimensions={0,1}, metadata={op_name="jit(train_step)/jvp()/gather" stack_frame_id=0}
  %gather.4 = bf16[4,128,1024]{2,1,0:T(8,128)(2,1)} gather(%param_0.2, %transpose.326), offset_dims={2}, collapsed_slice_dims={0}, start_index_map={0}, index_vector_dim=2, slice_sizes={1,1024}, metadata={op_name="jit(train_step)/jvp()/gather" stack_frame_id=0}
  %transpose.325 = bf16[4,128,1024]{2,1,0:T(8,128)(2,1)} transpose(%gather.4), dimensions={0,1,2}, metadata={op_name="jit(train_step)/jvp()/gather" stack_frame_id=0}
  ROOT %reshape.660 = bf16[512,1024]{1,0:T(8,128)(2,1)S(1)} reshape(%transpose.325), metadata={op_name="jit(train_step)/jvp()/gather" stack_frame_id=0}
}

%region_30.35.clone (scatter-add.6: bf16[], scatter-add.7: bf16[]) -> bf16[] {
  %scatter-add.6 = bf16[]{:T(256)} parameter(0), metadata={op_name="jit(train_step)/transpose(jvp())/scatter-add"}
  %scatter-add.7 = bf16[]{:T(256)} parameter(1), metadata={op_name="jit(train_step)/transpose(jvp())/scatter-add"}
  ROOT %add.505 = bf16[]{:T(256)} add(%scatter-add.6, %scatter-add.7), metadata={op_name="jit(train_step)/transpose(jvp())/add" stack_frame_id=0}, backend_config={"flag_configs":[],"scoped_memory_configs":[],"used_scoped_memory_configs":[],"aliasing_operands":{"lists":[]}}
}

%fused_computation.1 (param_0.3: bf16[128256,1024], param_1.5: s32[512], param_2.4: bf16[512,1024]) -> bf16[128256,1024] {
  %param_0.3 = bf16[128256,1024]{1,0:T(8,128)(2,1)} parameter(0)
  %param_1.5 = s32[512]{0:T(512)S(1)} parameter(1)
  %reshape.668 = s32[4,128]{1,0:T(4,128)} reshape(%param_1.5), metadata={op_name="jit(train_step)/transpose(jvp())/scatter-add" stack_frame_id=0}
  %transpose.331 = s32[4,128]{1,0:T(4,128)} transpose(%reshape.668), dimensions={0,1}, metadata={op_name="jit(train_step)/transpose(jvp())/scatter-add" stack_frame_id=0}
  %param_2.4 = bf16[512,1024]{1,0:T(8,128)(2,1)S(1)} parameter(2)
  %reshape.669 = bf16[4,128,1024]{2,1,0:T(8,128)(2,1)} reshape(%param_2.4), metadata={op_name="jit(train_step)/transpose(jvp())/scatter-add" stack_frame_id=0}
  %transpose.332 = bf16[4,128,1024]{2,1,0:T(8,128)(2,1)} transpose(%reshape.669), dimensions={0,1,2}, metadata={op_name="jit(train_step)/transpose(jvp())/scatter-add" stack_frame_id=0}
  ROOT %scatter.2 = bf16[128256,1024]{1,0:T(8,128)(2,1)} scatter(%param_0.3, %transpose.331, %transpose.332), update_window_dims={2}, inserted_window_dims={0}, scatter_dims_to_operand_dims={0}, index_vector_dim=2, to_apply=%region_30.35.clone, metadata={op_name="jit(train_step)/transpose(jvp())/scatter-add" stack_frame_id=0}
}

%add.15.clone (x.31: bf16[], y.31: bf16[]) -> bf16[] {
  %x.31 = bf16[]{:T(256)} parameter(0)
  %y.31 = bf16[]{:T(256)} parameter(1)
  ROOT %add.504 = bf16[]{:T(256)} add(%x.31, %y.31), backend_config={"flag_configs":[],"scoped_memory_configs":[],"used_scoped_memory_configs":[],"aliasing_operands":{"lists":[]}}
}

%all-reduce-scatter.7 (input.7: bf16[4096,128256]) -> bf16[1024,128256] {
  %input.7 = bf16[4096,128256]{1,0:T(8,128)(2,1)} parameter(0)
  %all-reduce.56 = bf16[4096,128256]{1,0:T(8,128)(2,1)} all-reduce(%input.7), channel_id=62, replica_groups={{0,1,2,3}}, use_global_device_ids=true, to_apply=%add.15.clone, frontend_attributes={from-cross-replica-sharding="true"}, backend_config={"flag_configs":[],"barrier_config":{"barrier_type":"CUSTOM","id":"2"},"scoped_memory_configs":[],"used_scoped_memory_configs":[]}
  %partition-id.24 = u32[] partition-id()
  %constant.755 = u32[] constant(1024)
  %multiply.258 = u32[]{:T(128)} multiply(%partition-id.24, %constant.755)
  %constant.756 = u32[] constant(0)
  ROOT %dynamic-slice.95 = bf16[1024,128256]{1,0:T(8,128)(2,1)} dynamic-slice(%all-reduce.56, %multiply.258, %constant.756), dynamic_slice_sizes={1024,128256}, backend_config={"flag_configs":[],"scoped_memory_configs":[],"indices_config":{"index_known_bits":[{"zeroes":"4294964223","ones":"0","bitwidth":"32"},{"zeroes":"4294967295","ones":"0","bitwidth":"32"}],"is_index_aligned":[]},"used_scoped_memory_configs":[]}
}

%region_29.34 (reduce_sum.190: f32[], reduce_sum.191: f32[]) -> f32[] {
  %reduce_sum.190 = f32[]{:T(128)} parameter(0), metadata={op_name="jit(train_step)/reduce_sum"}
  %reduce_sum.191 = f32[]{:T(128)} parameter(1), metadata={op_name="jit(train_step)/reduce_sum"}
  ROOT %reduce_sum.192 = f32[]{:T(128)} add(%reduce_sum.190, %reduce_sum.191), metadata={op_name="jit(train_step)/reduce_sum" stack_frame_id=0}, backend_config={"flag_configs":[],"scoped_memory_configs":[],"used_scoped_memory_configs":[],"aliasing_operands":{"lists":[]}}
}

%fused_computation.258 (param_0.1282: bf16[1024,128256]) -> f32[] {
  %param_0.1282 = bf16[1024,128256]{1,0:T(8,128)(2,1)} parameter(0)
  %convert_element_type.845 = f32[1024,128256]{1,0:T(8,128)} convert(%param_0.1282), metadata={op_name="jit(train_step)/transpose(jvp())/convert_element_type" stack_frame_id=0}
  %square.158 = f32[1024,128256]{1,0:T(8,128)} multiply(%convert_element_type.845, %convert_element_type.845), metadata={op_name="jit(train_step)/square" stack_frame_id=0}
  %constant.1270 = f32[]{:T(128)} constant(0)
  ROOT %reduce.131 = f32[]{:T(128)} reduce(%square.158, %constant.1270), dimensions={0,1}, to_apply=%region_29.34, metadata={op_name="jit(train_step)/reduce_sum" stack_frame_id=0}
}

%region_31.36 (reduce_sum.196: f32[], reduce_sum.197: f32[]) -> f32[] {
  %reduce_sum.196 = f32[]{:T(128)} parameter(0), metadata={op_name="jit(train_step)/reduce_sum"}
  %reduce_sum.197 = f32[]{:T(128)} parameter(1), metadata={op_name="jit(train_step)/reduce_sum"}
  ROOT %reduce_sum.198 = f32[]{:T(128)} add(%reduce_sum.196, %reduce_sum.197), metadata={op_name="jit(train_step)/reduce_sum" stack_frame_id=0}, backend_config={"flag_configs":[],"scoped_memory_configs":[],"used_scoped_memory_configs":[],"aliasing_operands":{"lists":[]}}
}

%fused_computation.259 (param_0.1281: bf16[128256,1024]) -> f32[] {
  %param_0.1281 = bf16[128256,1024]{1,0:T(8,128)(2,1)} parameter(0)
  %convert_element_type.847 = f32[128256,1024]{1,0:T(8,128)} convert(%param_0.1281), metadata={op_name="jit(train_step)/transpose(jvp())/convert_element_type" stack_frame_id=0}
  %square.160 = f32[128256,1024]{1,0:T(8,128)} multiply(%convert_element_type.847, %convert_element_type.847), metadata={op_name="jit(train_step)/square" stack_frame_id=0}
  %constant.1269 = f32[]{:T(128)} constant(0)
  ROOT %reduce.132 = f32[]{:T(128)} reduce(%square.160, %constant.1269), dimensions={0,1}, to_apply=%region_31.36, metadata={op_name="jit(train_step)/reduce_sum" stack_frame_id=0}
}

%region_57.62 (reduce_sum.338: f32[], reduce_sum.339: f32[]) -> f32[] {
  %reduce_sum.338 = f32[]{:T(128)} parameter(0), metadata={op_name="jit(train_step)/reduce_sum"}
  %reduce_sum.339 = f32[]{:T(128)} parameter(1), metadata={op_name="jit(train_step)/reduce_sum"}
  ROOT %reduce_sum.329 = f32[]{:T(128)} add(%reduce_sum.338, %reduce_sum.339), metadata={op_name="jit(train_step)/reduce_sum" stack_frame_id=0}, backend_config={"flag_configs":[],"scoped_memory_configs":[],"used_scoped_memory_configs":[],"aliasing_operands":{"lists":[]}}
}

%region_43.48 (reduce_sum.259: f32[], reduce_sum.260: f32[]) -> f32[] {
  %reduce_sum.259 = f32[]{:T(128)} parameter(0), metadata={op_name="jit(train_step)/reduce_sum"}
  %reduce_sum.260 = f32[]{:T(128)} parameter(1), metadata={op_name="jit(train_step)/reduce_sum"}
  ROOT %reduce_sum.261 = f32[]{:T(128)} add(%reduce_sum.259, %reduce_sum.260), metadata={op_name="jit(train_step)/reduce_sum" stack_frame_id=0}, backend_config={"flag_configs":[],"scoped_memory_configs":[],"used_scoped_memory_configs":[],"aliasing_operands":{"lists":[]}}
}

%fused_computation.260 (param_0.1267: f32[128256,1024], param_1.1409: f32[], param_2.1093: f32[], param_3.735: f32[], param_4.452: f32[128256,1024], param_5.398: f32[], param_6.253: bf16[128256,1024], param_7.169: pred[], param_8.98: f32[128256,1024]) -> (f32[], f32[128256,1024], f32[128256,1024], f32[128256,1024], f32[]) {
  %param_0.1267 = f32[128256,1024]{1,0:T(8,128)} parameter(0)
  %param_3.735 = f32[]{:T(128)S(6)} parameter(3)
  %mul.1570.clone.1 = f32[128256,1024]{1,0:T(8,128)} broadcast(%param_3.735), dimensions={}, metadata={op_name="jit(train_step)/mul" stack_frame_id=0}
  %param_7.169 = pred[]{:T(512)S(6)} parameter(7)
  %select_n.254.clone.1 = pred[128256,1024]{1,0:T(8,128)(4,1)} broadcast(%param_7.169), dimensions={}, metadata={op_name="jit(train_step)/select_n" stack_frame_id=0}
  %param_6.253 = bf16[128256,1024]{1,0:T(8,128)(2,1)} parameter(6)
  %convert_element_type.954.clone.1 = f32[128256,1024]{1,0:T(8,128)} convert(%param_6.253), metadata={op_name="jit(train_step)/transpose(jvp())/convert_element_type" stack_frame_id=0}
  %param_5.398 = f32[]{:T(128)} parameter(5)
  %div.763.clone.1 = f32[128256,1024]{1,0:T(8,128)} broadcast(%param_5.398), dimensions={}, metadata={op_name="jit(train_step)/div" stack_frame_id=0}
  %div.762.clone.1 = f32[128256,1024]{1,0:T(8,128)} divide(%convert_element_type.954.clone.1, %div.763.clone.1), metadata={op_name="jit(train_step)/div" stack_frame_id=0}
  %select_n.253.clone.1 = f32[128256,1024]{1,0:T(8,128)} select(%select_n.254.clone.1, %convert_element_type.954.clone.1, %div.762.clone.1), metadata={op_name="jit(train_step)/select_n" stack_frame_id=0}
  %constant.1198.clone.1 = f32[]{:T(128)} constant(0.1)
  %broadcast.659.clone.1 = f32[128256,1024]{1,0:T(8,128)} broadcast(%constant.1198.clone.1), dimensions={}, metadata={op_name="broadcast.63"}
  %mul.1576.clone.1 = f32[128256,1024]{1,0:T(8,128)} multiply(%select_n.253.clone.1, %broadcast.659.clone.1), metadata={op_name="jit(train_step)/mul" stack_frame_id=0}
  %param_8.98 = f32[128256,1024]{1,0:T(8,128)} parameter(8)
  %constant.1202.clone.1 = f32[]{:T(128)} constant(0.9)
  %mul.1577.clone.1 = f32[128256,1024]{1,0:T(8,128)} broadcast(%constant.1202.clone.1), dimensions={}, metadata={op_name="jit(train_step)/mul" stack_frame_id=0}
  %mul.1575.clone.1 = f32[128256,1024]{1,0:T(8,128)} multiply(%param_8.98, %mul.1577.clone.1), metadata={op_name="jit(train_step)/mul" stack_frame_id=0}
  %add.820.clone.1 = f32[128256,1024]{1,0:T(8,128)} add(%mul.1576.clone.1, %mul.1575.clone.1), metadata={op_name="jit(train_step)/add" stack_frame_id=0}
  %param_2.1093 = f32[]{:T(128)S(6)} parameter(2)
  %div.759.clone.1 = f32[128256,1024]{1,0:T(8,128)} broadcast(%param_2.1093), dimensions={}, metadata={op_name="jit(train_step)/div" stack_frame_id=0}
  %integer_pow.63.clone.1 = f32[128256,1024]{1,0:T(8,128)} multiply(%select_n.253.clone.1, %select_n.253.clone.1), metadata={op_name="jit(train_step)/integer_pow" stack_frame_id=0}
  %constant.1201.clone.1 = f32[]{:T(128)} constant(0.05)
  %mul.1574.clone.1 = f32[128256,1024]{1,0:T(8,128)} broadcast(%constant.1201.clone.1), dimensions={}, metadata={op_name="jit(train_step)/mul" stack_frame_id=0}
  %mul.1572.clone.1 = f32[128256,1024]{1,0:T(8,128)} multiply(%integer_pow.63.clone.1, %mul.1574.clone.1), metadata={op_name="jit(train_step)/mul" stack_frame_id=0}
  %param_4.452 = f32[128256,1024]{1,0:T(8,128)} parameter(4)
  %constant.1200.clone.1 = f32[]{:T(128)} constant(0.95)
  %mul.1573.clone.1 = f32[128256,1024]{1,0:T(8,128)} broadcast(%constant.1200.clone.1), dimensions={}, metadata={op_name="jit(train_step)/mul" stack_frame_id=0}
  %mul.1571.clone.1 = f32[128256,1024]{1,0:T(8,128)} multiply(%param_4.452, %mul.1573.clone.1), metadata={op_name="jit(train_step)/mul" stack_frame_id=0}
  %add.819.clone.1 = f32[128256,1024]{1,0:T(8,128)} add(%mul.1572.clone.1, %mul.1571.clone.1), metadata={op_name="jit(train_step)/add" stack_frame_id=0}
  %param_1.1409 = f32[]{:T(128)S(6)} parameter(1)
  %div.758.clone.1 = f32[128256,1024]{1,0:T(8,128)} broadcast(%param_1.1409), dimensions={}, metadata={op_name="jit(train_step)/div" stack_frame_id=0}
  %div.757.clone.1 = f32[128256,1024]{1,0:T(8,128)} divide(%add.819.clone.1, %div.758.clone.1), metadata={op_name="jit(train_step)/div" stack_frame_id=0}
  %sqrt.61.clone.1 = f32[128256,1024]{1,0:T(8,128)} sqrt(%div.757.clone.1), metadata={op_name="jit(train_step)/sqrt" stack_frame_id=0}
  %constant.1199.clone.1 = f32[]{:T(128)} constant(1e-08)
  %add.818.clone.1 = f32[128256,1024]{1,0:T(8,128)} broadcast(%constant.1199.clone.1), dimensions={}, metadata={op_name="jit(train_step)/add" stack_frame_id=0}
  %add.817.clone.1 = f32[128256,1024]{1,0:T(8,128)} add(%sqrt.61.clone.1, %add.818.clone.1), metadata={op_name="jit(train_step)/add" stack_frame_id=0}
  %multiply.280.clone.1 = f32[128256,1024]{1,0:T(8,128)} multiply(%div.759.clone.1, %add.817.clone.1), metadata={op_name="multiply.41"}
  %div.756.clone.1 = f32[128256,1024]{1,0:T(8,128)} divide(%add.820.clone.1, %multiply.280.clone.1), metadata={op_name="jit(train_step)/div" stack_frame_id=0}
  %mul.1569.clone.1 = f32[128256,1024]{1,0:T(8,128)} multiply(%param_0.1267, %broadcast.659.clone.1), metadata={op_name="jit(train_step)/mul" stack_frame_id=0}
  %add.816.clone.1 = f32[128256,1024]{1,0:T(8,128)} add(%div.756.clone.1, %mul.1569.clone.1), metadata={op_name="jit(train_step)/add" stack_frame_id=0}
  %mul.1568.clone.1 = f32[128256,1024]{1,0:T(8,128)} multiply(%mul.1570.clone.1, %add.816.clone.1), metadata={op_name="jit(train_step)/mul" stack_frame_id=0}
  %add.815.clone.1 = f32[128256,1024]{1,0:T(8,128)} add(%param_0.1267, %mul.1568.clone.1), metadata={op_name="jit(train_step)/add" stack_frame_id=0}
  %square.161 = f32[128256,1024]{1,0:T(8,128)} multiply(%add.815.clone.1, %add.815.clone.1), metadata={op_name="jit(train_step)/square" stack_frame_id=0}
  %constant.1255 = f32[]{:T(128)} constant(0)
  %reduce.133 = f32[]{:T(128)} reduce(%square.161, %constant.1255), dimensions={0,1}, to_apply=%region_57.62, metadata={op_name="jit(train_step)/reduce_sum" stack_frame_id=0}
  %reduce.135.clone.1 = f32[]{:T(128)} reduce(%integer_pow.63.clone.1, %constant.1255), dimensions={0,1}, to_apply=%region_43.48, metadata={op_name="jit(train_step)/reduce_sum" stack_frame_id=0}
  ROOT %tuple.134 = (f32[]{:T(128)}, f32[128256,1024]{1,0:T(8,128)}, f32[128256,1024]{1,0:T(8,128)}, f32[128256,1024]{1,0:T(8,128)}, f32[]{:T(128)}) tuple(%reduce.133, %add.815.clone.1, %add.819.clone.1, %add.820.clone.1, %reduce.135.clone.1)
}

%region_56.61 (reduce_sum.331: f32[], reduce_sum.332: f32[]) -> f32[] {
  %reduce_sum.331 = f32[]{:T(128)} parameter(0), metadata={op_name="jit(train_step)/reduce_sum"}
  %reduce_sum.332 = f32[]{:T(128)} parameter(1), metadata={op_name="jit(train_step)/reduce_sum"}
  ROOT %reduce_sum.323 = f32[]{:T(128)} add(%reduce_sum.331, %reduce_sum.332), metadata={op_name="jit(train_step)/reduce_sum" stack_frame_id=0}, backend_config={"flag_configs":[],"scoped_memory_configs":[],"used_scoped_memory_configs":[],"aliasing_operands":{"lists":[]}}
}

%region_42.47 (reduce_sum.253: f32[], reduce_sum.254: f32[]) -> f32[] {
  %reduce_sum.253 = f32[]{:T(128)} parameter(0), metadata={op_name="jit(train_step)/reduce_sum"}
  %reduce_sum.254 = f32[]{:T(128)} parameter(1), metadata={op_name="jit(train_step)/reduce_sum"}
  ROOT %reduce_sum.255 = f32[]{:T(128)} add(%reduce_sum.253, %reduce_sum.254), metadata={op_name="jit(train_step)/reduce_sum" stack_frame_id=0}, backend_config={"flag_configs":[],"scoped_memory_configs":[],"used_scoped_memory_configs":[],"aliasing_operands":{"lists":[]}}
}

%fused_computation.261 (param_0.1268: f32[1024,128256], param_1.1410: f32[], param_2.1094: f32[], param_3.736: f32[], param_4.453: f32[1024,128256], param_5.399: f32[], param_6.254: bf16[1024,128256], param_7.170: pred[], param_8.99: f32[1024,128256]) -> (f32[], f32[1024,128256], f32[1024,128256], f32[1024,128256], f32[]) {
  %param_0.1268 = f32[1024,128256]{1,0:T(8,128)} parameter(0)
  %param_3.736 = f32[]{:T(128)S(6)} parameter(3)
  %mul.1580.clone.1 = f32[1024,128256]{1,0:T(8,128)} broadcast(%param_3.736), dimensions={}, metadata={op_name="jit(train_step)/mul" stack_frame_id=0}
  %param_7.170 = pred[]{:T(512)S(6)} parameter(7)
  %select_n.258.clone.1 = pred[1024,128256]{1,0:T(8,128)(4,1)} broadcast(%param_7.170), dimensions={}, metadata={op_name="jit(train_step)/select_n" stack_frame_id=0}
  %param_6.254 = bf16[1024,128256]{1,0:T(8,128)(2,1)} parameter(6)
  %convert_element_type.956.clone.1 = f32[1024,128256]{1,0:T(8,128)} convert(%param_6.254), metadata={op_name="jit(train_step)/transpose(jvp())/convert_element_type" stack_frame_id=0}
  %param_5.399 = f32[]{:T(128)} parameter(5)
  %div.771.clone.1 = f32[1024,128256]{1,0:T(8,128)} broadcast(%param_5.399), dimensions={}, metadata={op_name="jit(train_step)/div" stack_frame_id=0}
  %div.770.clone.1 = f32[1024,128256]{1,0:T(8,128)} divide(%convert_element_type.956.clone.1, %div.771.clone.1), metadata={op_name="jit(train_step)/div" stack_frame_id=0}
  %select_n.257.clone.1 = f32[1024,128256]{1,0:T(8,128)} select(%select_n.258.clone.1, %convert_element_type.956.clone.1, %div.770.clone.1), metadata={op_name="jit(train_step)/select_n" stack_frame_id=0}
  %constant.1204.clone.1 = f32[]{:T(128)} constant(0.1)
  %broadcast.661.clone.1 = f32[1024,128256]{1,0:T(8,128)} broadcast(%constant.1204.clone.1), dimensions={}, metadata={op_name="broadcast.64"}
  %mul.1586.clone.1 = f32[1024,128256]{1,0:T(8,128)} multiply(%select_n.257.clone.1, %broadcast.661.clone.1), metadata={op_name="jit(train_step)/mul" stack_frame_id=0}
  %param_8.99 = f32[1024,128256]{1,0:T(8,128)} parameter(8)
  %constant.1208.clone.1 = f32[]{:T(128)} constant(0.9)
  %mul.1587.clone.1 = f32[1024,128256]{1,0:T(8,128)} broadcast(%constant.1208.clone.1), dimensions={}, metadata={op_name="jit(train_step)/mul" stack_frame_id=0}
  %mul.1585.clone.1 = f32[1024,128256]{1,0:T(8,128)} multiply(%param_8.99, %mul.1587.clone.1), metadata={op_name="jit(train_step)/mul" stack_frame_id=0}
  %add.826.clone.1 = f32[1024,128256]{1,0:T(8,128)} add(%mul.1586.clone.1, %mul.1585.clone.1), metadata={op_name="jit(train_step)/add" stack_frame_id=0}
  %param_2.1094 = f32[]{:T(128)S(6)} parameter(2)
  %div.767.clone.1 = f32[1024,128256]{1,0:T(8,128)} broadcast(%param_2.1094), dimensions={}, metadata={op_name="jit(train_step)/div" stack_frame_id=0}
  %integer_pow.64.clone.1 = f32[1024,128256]{1,0:T(8,128)} multiply(%select_n.257.clone.1, %select_n.257.clone.1), metadata={op_name="jit(train_step)/integer_pow" stack_frame_id=0}
  %constant.1207.clone.1 = f32[]{:T(128)} constant(0.05)
  %mul.1584.clone.1 = f32[1024,128256]{1,0:T(8,128)} broadcast(%constant.1207.clone.1), dimensions={}, metadata={op_name="jit(train_step)/mul" stack_frame_id=0}
  %mul.1582.clone.1 = f32[1024,128256]{1,0:T(8,128)} multiply(%integer_pow.64.clone.1, %mul.1584.clone.1), metadata={op_name="jit(train_step)/mul" stack_frame_id=0}
  %param_4.453 = f32[1024,128256]{1,0:T(8,128)} parameter(4)
  %constant.1206.clone.1 = f32[]{:T(128)} constant(0.95)
  %mul.1583.clone.1 = f32[1024,128256]{1,0:T(8,128)} broadcast(%constant.1206.clone.1), dimensions={}, metadata={op_name="jit(train_step)/mul" stack_frame_id=0}
  %mul.1581.clone.1 = f32[1024,128256]{1,0:T(8,128)} multiply(%param_4.453, %mul.1583.clone.1), metadata={op_name="jit(train_step)/mul" stack_frame_id=0}
  %add.825.clone.1 = f32[1024,128256]{1,0:T(8,128)} add(%mul.1582.clone.1, %mul.1581.clone.1), metadata={op_name="jit(train_step)/add" stack_frame_id=0}
  %param_1.1410 = f32[]{:T(128)S(6)} parameter(1)
  %div.766.clone.1 = f32[1024,128256]{1,0:T(8,128)} broadcast(%param_1.1410), dimensions={}, metadata={op_name="jit(train_step)/div" stack_frame_id=0}
  %div.765.clone.1 = f32[1024,128256]{1,0:T(8,128)} divide(%add.825.clone.1, %div.766.clone.1), metadata={op_name="jit(train_step)/div" stack_frame_id=0}
  %sqrt.62.clone.1 = f32[1024,128256]{1,0:T(8,128)} sqrt(%div.765.clone.1), metadata={op_name="jit(train_step)/sqrt" stack_frame_id=0}
  %constant.1205.clone.1 = f32[]{:T(128)} constant(1e-08)
  %add.824.clone.1 = f32[1024,128256]{1,0:T(8,128)} broadcast(%constant.1205.clone.1), dimensions={}, metadata={op_name="jit(train_step)/add" stack_frame_id=0}
  %add.823.clone.1 = f32[1024,128256]{1,0:T(8,128)} add(%sqrt.62.clone.1, %add.824.clone.1), metadata={op_name="jit(train_step)/add" stack_frame_id=0}
  %multiply.281.clone.1 = f32[1024,128256]{1,0:T(8,128)} multiply(%div.767.clone.1, %add.823.clone.1), metadata={op_name="multiply.40"}
  %div.764.clone.1 = f32[1024,128256]{1,0:T(8,128)} divide(%add.826.clone.1, %multiply.281.clone.1), metadata={op_name="jit(train_step)/div" stack_frame_id=0}
  %mul.1579.clone.1 = f32[1024,128256]{1,0:T(8,128)} multiply(%param_0.1268, %broadcast.661.clone.1), metadata={op_name="jit(train_step)/mul" stack_frame_id=0}
  %add.822.clone.1 = f32[1024,128256]{1,0:T(8,128)} add(%div.764.clone.1, %mul.1579.clone.1), metadata={op_name="jit(train_step)/add" stack_frame_id=0}
  %mul.1578.clone.1 = f32[1024,128256]{1,0:T(8,128)} multiply(%mul.1580.clone.1, %add.822.clone.1), metadata={op_name="jit(train_step)/mul" stack_frame_id=0}
  %add.821.clone.1 = f32[1024,128256]{1,0:T(8,128)} add(%param_0.1268, %mul.1578.clone.1), metadata={op_name="jit(train_step)/add" stack_frame_id=0}
  %square.162 = f32[1024,128256]{1,0:T(8,128)} multiply(%add.821.clone.1, %add.821.clone.1), metadata={op_name="jit(train_step)/square" stack_frame_id=0}
  %constant.1256 = f32[]{:T(128)} constant(0)
  %reduce.134 = f32[]{:T(128)} reduce(%square.162, %constant.1256), dimensions={0,1}, to_apply=%region_56.61, metadata={op_name="jit(train_step)/reduce_sum" stack_frame_id=0}
  %reduce.136.clone.1 = f32[]{:T(128)} reduce(%integer_pow.64.clone.1, %constant.1256), dimensions={0,1}, to_apply=%region_42.47, metadata={op_name="jit(train_step)/reduce_sum" stack_frame_id=0}
  ROOT %tuple.135 = (f32[]{:T(128)}, f32[1024,128256]{1,0:T(8,128)}, f32[1024,128256]{1,0:T(8,128)}, f32[1024,128256]{1,0:T(8,128)}, f32[]{:T(128)}) tuple(%reduce.134, %add.821.clone.1, %add.825.clone.1, %add.826.clone.1, %reduce.136.clone.1)
}

%region_22.27 (reduce_sum.154: f32[], reduce_sum.155: f32[]) -> f32[] {
  %reduce_sum.154 = f32[]{:T(128)} parameter(0), metadata={op_name="jit(train_step)/reduce_sum"}
  %reduce_sum.155 = f32[]{:T(128)} parameter(1), metadata={op_name="jit(train_step)/reduce_sum"}
  ROOT %reduce_sum.156 = f32[]{:T(128)} add(%reduce_sum.154, %reduce_sum.155), metadata={op_name="jit(train_step)/reduce_sum" stack_frame_id=0}, backend_config={"flag_configs":[],"scoped_memory_configs":[],"used_scoped_memory_configs":[],"aliasing_operands":{"lists":[]}}
}

%fused_computation.274 (param_0.1286: f32[4,14336,1024]) -> f32[] {
  %param_0.1286 = f32[4,14336,1024]{2,0,1:T(4,128)} parameter(0)
  %bitcast.467 = f32[14336,4,1024]{2,1,0:T(4,128)} bitcast(%param_0.1286), metadata={op_name="jit(train_step)/transpose(jvp())/transpose" stack_frame_id=0}
  %square.165 = f32[14336,4,1024]{2,1,0:T(4,128)} multiply(%bitcast.467, %bitcast.467), metadata={op_name="jit(train_step)/square" stack_frame_id=0}
  %constant.1274 = f32[]{:T(128)} constant(0)
  ROOT %reduce.137 = f32[]{:T(128)} reduce(%square.165, %constant.1274), dimensions={0,1,2}, to_apply=%region_22.27, metadata={op_name="jit(train_step)/reduce_sum" stack_frame_id=0}
}

%region_21.26 (reduce_sum.148: f32[], reduce_sum.149: f32[]) -> f32[] {
  %reduce_sum.148 = f32[]{:T(128)} parameter(0), metadata={op_name="jit(train_step)/reduce_sum"}
  %reduce_sum.149 = f32[]{:T(128)} parameter(1), metadata={op_name="jit(train_step)/reduce_sum"}
  ROOT %reduce_sum.150 = f32[]{:T(128)} add(%reduce_sum.148, %reduce_sum.149), metadata={op_name="jit(train_step)/reduce_sum" stack_frame_id=0}, backend_config={"flag_configs":[],"scoped_memory_configs":[],"used_scoped_memory_configs":[],"aliasing_operands":{"lists":[]}}
}

%region_20.25 (reduce_sum.142: f32[], reduce_sum.143: f32[]) -> f32[] {
  %reduce_sum.142 = f32[]{:T(128)} parameter(0), metadata={op_name="jit(train_step)/reduce_sum"}
  %reduce_sum.143 = f32[]{:T(128)} parameter(1), metadata={op_name="jit(train_step)/reduce_sum"}
  ROOT %reduce_sum.147 = f32[]{:T(128)} add(%reduce_sum.142, %reduce_sum.143), metadata={op_name="jit(train_step)/reduce_sum" stack_frame_id=0}, backend_config={"flag_configs":[],"scoped_memory_configs":[],"used_scoped_memory_configs":[],"aliasing_operands":{"lists":[]}}
}

%fused_computation.276 (param_0.1287: f32[4,1024,14336], param_1.1422: f32[4,1024,14336]) -> (f32[], f32[]) {
  %param_0.1287 = f32[4,1024,14336]{2,0,1:T(4,128)} parameter(0)
  %bitcast.471 = f32[1024,4,14336]{2,1,0:T(4,128)} bitcast(%param_0.1287), metadata={op_name="jit(train_step)/transpose(jvp())/transpose" stack_frame_id=0}
  %square.168 = f32[1024,4,14336]{2,1,0:T(4,128)} multiply(%bitcast.471, %bitcast.471), metadata={op_name="jit(train_step)/square" stack_frame_id=0}
  %constant.1275 = f32[]{:T(128)} constant(0)
  %reduce.138 = f32[]{:T(128)} reduce(%square.168, %constant.1275), dimensions={0,1,2}, to_apply=%region_21.26, metadata={op_name="jit(train_step)/reduce_sum" stack_frame_id=0}
  %param_1.1422 = f32[4,1024,14336]{2,0,1:T(4,128)} parameter(1)
  %bitcast.475.clone.1 = f32[1024,4,14336]{2,1,0:T(4,128)} bitcast(%param_1.1422), metadata={op_name="jit(train_step)/transpose(jvp())/transpose" stack_frame_id=0}
  %square.171.clone.1 = f32[1024,4,14336]{2,1,0:T(4,128)} multiply(%bitcast.475.clone.1, %bitcast.475.clone.1), metadata={op_name="jit(train_step)/square" stack_frame_id=0}
  %reduce.139.clone.1 = f32[]{:T(128)} reduce(%square.171.clone.1, %constant.1275), dimensions={0,1,2}, to_apply=%region_20.25, metadata={op_name="jit(train_step)/reduce_sum" stack_frame_id=0}
  ROOT %tuple.154 = (f32[]{:T(128)}, f32[]{:T(128)}) tuple(%reduce.138, %reduce.139.clone.1)
}

%fused_computation.279 (param_0.807: f32[14336,4,1024]) -> bf16[4,14336,1024] {
  %param_0.807 = f32[14336,4,1024]{2,1,0:T(4,128)} parameter(0)
  %copy.235 = bf16[14336,4,1024]{2,0,1:T(8,128)(2,1)} copy(%param_0.807), sharding={devices=[1,1,4]<=[4]}, metadata={op_name="state[\'model\'][\'decoder\'][\'layers\'][\'mlp\'][\'wo\'][\'kernel\'].value"}
  ROOT %bitcast.476 = bf16[4,14336,1024]{2,1,0:T(8,128)(2,1)} bitcast(%copy.235), metadata={op_name="jit(train_step)/jvp()/transpose" stack_frame_id=0}
}

%fused_computation.280 (param_0.809: f32[1024,4,14336]) -> bf16[4,1024,14336] {
  %param_0.809 = f32[1024,4,14336]{2,1,0:T(4,128)} parameter(0)
  %copy.236 = bf16[1024,4,14336]{2,0,1:T(8,128)(2,1)} copy(%param_0.809), sharding={devices=[4,1,1]<=[4]}, metadata={op_name="state[\'model\'][\'decoder\'][\'layers\'][\'mlp\'][\'wi_1\'][\'kernel\'].value"}
  ROOT %bitcast.477 = bf16[4,1024,14336]{2,1,0:T(8,128)(2,1)} bitcast(%copy.236), metadata={op_name="jit(train_step)/jvp()/transpose" stack_frame_id=0}
}

%fused_computation.281 (param_0.811: f32[1024,4,14336]) -> bf16[4,1024,14336] {
  %param_0.811 = f32[1024,4,14336]{2,1,0:T(4,128)} parameter(0)
  %copy.237 = bf16[1024,4,14336]{2,0,1:T(8,128)(2,1)} copy(%param_0.811), sharding={devices=[4,1,1]<=[4]}, metadata={op_name="state[\'model\'][\'decoder\'][\'layers\'][\'mlp\'][\'wi_0\'][\'kernel\'].value"}
  ROOT %bitcast.478 = bf16[4,1024,14336]{2,1,0:T(8,128)(2,1)} bitcast(%copy.237), metadata={op_name="jit(train_step)/jvp()/transpose" stack_frame_id=0}
}

%region_49.54 (reduce_sum.289: f32[], reduce_sum.290: f32[]) -> f32[] {
  %reduce_sum.289 = f32[]{:T(128)} parameter(0), metadata={op_name="jit(train_step)/reduce_sum"}
  %reduce_sum.290 = f32[]{:T(128)} parameter(1), metadata={op_name="jit(train_step)/reduce_sum"}
  ROOT %reduce_sum.294 = f32[]{:T(128)} add(%reduce_sum.289, %reduce_sum.290), metadata={op_name="jit(train_step)/reduce_sum" stack_frame_id=0}, backend_config={"flag_configs":[],"scoped_memory_configs":[],"used_scoped_memory_configs":[],"aliasing_operands":{"lists":[]}}
}

%region_35.40 (reduce_sum.217: f32[], reduce_sum.218: f32[]) -> f32[] {
  %reduce_sum.217 = f32[]{:T(128)} parameter(0), metadata={op_name="jit(train_step)/reduce_sum"}
  %reduce_sum.218 = f32[]{:T(128)} parameter(1), metadata={op_name="jit(train_step)/reduce_sum"}
  ROOT %reduce_sum.219 = f32[]{:T(128)} add(%reduce_sum.217, %reduce_sum.218), metadata={op_name="jit(train_step)/reduce_sum" stack_frame_id=0}, backend_config={"flag_configs":[],"scoped_memory_configs":[],"used_scoped_memory_configs":[],"aliasing_operands":{"lists":[]}}
}

%fused_computation.282 (param_0.1275: f32[14336,4,1024], param_1.1417: f32[], param_2.1101: f32[], param_3.743: f32[], param_4.460: f32[14336,4,1024], param_5.406: f32[], param_6.261: f32[4,14336,1024], param_7.177: pred[], param_8.106: f32[14336,4,1024]) -> (f32[], f32[14336,4,1024], f32[14336,4,1024], f32[14336,4,1024], f32[]) {
  %param_0.1275 = f32[14336,4,1024]{2,1,0:T(4,128)} parameter(0)
  %param_3.743 = f32[]{:T(128)S(6)} parameter(3)
  %mul.1624.clone.1 = f32[14336,4,1024]{2,1,0:T(4,128)} broadcast(%param_3.743), dimensions={}, metadata={op_name="jit(train_step)/mul" stack_frame_id=0}
  %param_7.177 = pred[]{:T(512)S(6)} parameter(7)
  %select_n.278.clone.1 = pred[14336,4,1024]{2,1,0:T(4,128)(4,1)} broadcast(%param_7.177), dimensions={}, metadata={op_name="jit(train_step)/select_n" stack_frame_id=0}
  %param_6.261 = f32[4,14336,1024]{2,0,1:T(4,128)} parameter(6)
  %bitcast.623.clone.1 = f32[14336,4,1024]{2,1,0:T(4,128)} bitcast(%param_6.261), metadata={op_name="jit(train_step)/transpose(jvp())/transpose" stack_frame_id=0}
  %param_5.406 = f32[]{:T(128)} parameter(5)
  %div.811.clone.1 = f32[14336,4,1024]{2,1,0:T(4,128)} broadcast(%param_5.406), dimensions={}, metadata={op_name="jit(train_step)/div" stack_frame_id=0}
  %div.810.clone.1 = f32[14336,4,1024]{2,1,0:T(4,128)} divide(%bitcast.623.clone.1, %div.811.clone.1), metadata={op_name="jit(train_step)/div" stack_frame_id=0}
  %select_n.277.clone.1 = f32[14336,4,1024]{2,1,0:T(4,128)} select(%select_n.278.clone.1, %bitcast.623.clone.1, %div.810.clone.1), metadata={op_name="jit(train_step)/select_n" stack_frame_id=0}
  %constant.1234.clone.1 = f32[]{:T(128)} constant(0.1)
  %broadcast.679.clone.1 = f32[14336,4,1024]{2,1,0:T(4,128)} broadcast(%constant.1234.clone.1), dimensions={}, metadata={op_name="broadcast.71"}
  %mul.1630.clone.1 = f32[14336,4,1024]{2,1,0:T(4,128)} multiply(%select_n.277.clone.1, %broadcast.679.clone.1), metadata={op_name="jit(train_step)/mul" stack_frame_id=0}
  %param_8.106 = f32[14336,4,1024]{2,1,0:T(4,128)} parameter(8)
  %constant.1238.clone.1 = f32[]{:T(128)} constant(0.9)
  %mul.1631.clone.1 = f32[14336,4,1024]{2,1,0:T(4,128)} broadcast(%constant.1238.clone.1), dimensions={}, metadata={op_name="jit(train_step)/mul" stack_frame_id=0}
  %mul.1629.clone.1 = f32[14336,4,1024]{2,1,0:T(4,128)} multiply(%param_8.106, %mul.1631.clone.1), metadata={op_name="jit(train_step)/mul" stack_frame_id=0}
  %add.854.clone.1 = f32[14336,4,1024]{2,1,0:T(4,128)} add(%mul.1630.clone.1, %mul.1629.clone.1), metadata={op_name="jit(train_step)/add" stack_frame_id=0}
  %param_2.1101 = f32[]{:T(128)S(6)} parameter(2)
  %div.807.clone.1 = f32[14336,4,1024]{2,1,0:T(4,128)} broadcast(%param_2.1101), dimensions={}, metadata={op_name="jit(train_step)/div" stack_frame_id=0}
  %integer_pow.69.clone.1 = f32[14336,4,1024]{2,1,0:T(4,128)} multiply(%select_n.277.clone.1, %select_n.277.clone.1), metadata={op_name="jit(train_step)/integer_pow" stack_frame_id=0}
  %constant.1237.clone.1 = f32[]{:T(128)} constant(0.05)
  %mul.1628.clone.1 = f32[14336,4,1024]{2,1,0:T(4,128)} broadcast(%constant.1237.clone.1), dimensions={}, metadata={op_name="jit(train_step)/mul" stack_frame_id=0}
  %mul.1626.clone.1 = f32[14336,4,1024]{2,1,0:T(4,128)} multiply(%integer_pow.69.clone.1, %mul.1628.clone.1), metadata={op_name="jit(train_step)/mul" stack_frame_id=0}
  %param_4.460 = f32[14336,4,1024]{2,1,0:T(4,128)} parameter(4)
  %constant.1236.clone.1 = f32[]{:T(128)} constant(0.95)
  %mul.1627.clone.1 = f32[14336,4,1024]{2,1,0:T(4,128)} broadcast(%constant.1236.clone.1), dimensions={}, metadata={op_name="jit(train_step)/mul" stack_frame_id=0}
  %mul.1625.clone.1 = f32[14336,4,1024]{2,1,0:T(4,128)} multiply(%param_4.460, %mul.1627.clone.1), metadata={op_name="jit(train_step)/mul" stack_frame_id=0}
  %add.853.clone.1 = f32[14336,4,1024]{2,1,0:T(4,128)} add(%mul.1626.clone.1, %mul.1625.clone.1), metadata={op_name="jit(train_step)/add" stack_frame_id=0}
  %param_1.1417 = f32[]{:T(128)S(6)} parameter(1)
  %div.806.clone.1 = f32[14336,4,1024]{2,1,0:T(4,128)} broadcast(%param_1.1417), dimensions={}, metadata={op_name="jit(train_step)/div" stack_frame_id=0}
  %div.805.clone.1 = f32[14336,4,1024]{2,1,0:T(4,128)} divide(%add.853.clone.1, %div.806.clone.1), metadata={op_name="jit(train_step)/div" stack_frame_id=0}
  %sqrt.67.clone.1 = f32[14336,4,1024]{2,1,0:T(4,128)} sqrt(%div.805.clone.1), metadata={op_name="jit(train_step)/sqrt" stack_frame_id=0}
  %constant.1235.clone.1 = f32[]{:T(128)} constant(1e-08)
  %add.852.clone.1 = f32[14336,4,1024]{2,1,0:T(4,128)} broadcast(%constant.1235.clone.1), dimensions={}, metadata={op_name="jit(train_step)/add" stack_frame_id=0}
  %add.851.clone.1 = f32[14336,4,1024]{2,1,0:T(4,128)} add(%sqrt.67.clone.1, %add.852.clone.1), metadata={op_name="jit(train_step)/add" stack_frame_id=0}
  %multiply.286.clone.1 = f32[14336,4,1024]{2,1,0:T(4,128)} multiply(%div.807.clone.1, %add.851.clone.1), metadata={op_name="multiply.33"}
  %div.804.clone.1 = f32[14336,4,1024]{2,1,0:T(4,128)} divide(%add.854.clone.1, %multiply.286.clone.1), metadata={op_name="jit(train_step)/div" stack_frame_id=0}
  %mul.1623.clone.1 = f32[14336,4,1024]{2,1,0:T(4,128)} multiply(%param_0.1275, %broadcast.679.clone.1), metadata={op_name="jit(train_step)/mul" stack_frame_id=0}
  %add.850.clone.1 = f32[14336,4,1024]{2,1,0:T(4,128)} add(%div.804.clone.1, %mul.1623.clone.1), metadata={op_name="jit(train_step)/add" stack_frame_id=0}
  %mul.1622.clone.1 = f32[14336,4,1024]{2,1,0:T(4,128)} multiply(%mul.1624.clone.1, %add.850.clone.1), metadata={op_name="jit(train_step)/mul" stack_frame_id=0}
  %add.849.clone.1 = f32[14336,4,1024]{2,1,0:T(4,128)} add(%param_0.1275, %mul.1622.clone.1), metadata={op_name="jit(train_step)/add" stack_frame_id=0}
  %square.172 = f32[14336,4,1024]{2,1,0:T(4,128)} multiply(%add.849.clone.1, %add.849.clone.1), metadata={op_name="jit(train_step)/square" stack_frame_id=0}
  %constant.1263 = f32[]{:T(128)} constant(0)
  %reduce.140 = f32[]{:T(128)} reduce(%square.172, %constant.1263), dimensions={0,1,2}, to_apply=%region_49.54, metadata={op_name="jit(train_step)/reduce_sum" stack_frame_id=0}
  %reduce.143.clone.1 = f32[]{:T(128)} reduce(%integer_pow.69.clone.1, %constant.1263), dimensions={0,1,2}, to_apply=%region_35.40, metadata={op_name="jit(train_step)/reduce_sum" stack_frame_id=0}
  ROOT %tuple.136 = (f32[]{:T(128)}, f32[14336,4,1024]{2,1,0:T(4,128)}, f32[14336,4,1024]{2,1,0:T(4,128)}, f32[14336,4,1024]{2,1,0:T(4,128)}, f32[]{:T(128)}) tuple(%reduce.140, %add.849.clone.1, %add.853.clone.1, %add.854.clone.1, %reduce.143.clone.1)
}

%region_48.53 (reduce_sum.283: f32[], reduce_sum.287: f32[]) -> f32[] {
  %reduce_sum.283 = f32[]{:T(128)} parameter(0), metadata={op_name="jit(train_step)/reduce_sum"}
  %reduce_sum.287 = f32[]{:T(128)} parameter(1), metadata={op_name="jit(train_step)/reduce_sum"}
  ROOT %reduce_sum.288 = f32[]{:T(128)} add(%reduce_sum.283, %reduce_sum.287), metadata={op_name="jit(train_step)/reduce_sum" stack_frame_id=0}, backend_config={"flag_configs":[],"scoped_memory_configs":[],"used_scoped_memory_configs":[],"aliasing_operands":{"lists":[]}}
}

%region_34.39 (reduce_sum.211: f32[], reduce_sum.212: f32[]) -> f32[] {
  %reduce_sum.211 = f32[]{:T(128)} parameter(0), metadata={op_name="jit(train_step)/reduce_sum"}
  %reduce_sum.212 = f32[]{:T(128)} parameter(1), metadata={op_name="jit(train_step)/reduce_sum"}
  ROOT %reduce_sum.213 = f32[]{:T(128)} add(%reduce_sum.211, %reduce_sum.212), metadata={op_name="jit(train_step)/reduce_sum" stack_frame_id=0}, backend_config={"flag_configs":[],"scoped_memory_configs":[],"used_scoped_memory_configs":[],"aliasing_operands":{"lists":[]}}
}

%fused_computation.283 (param_0.1276: f32[1024,4,14336], param_1.1418: f32[], param_2.1102: f32[], param_3.744: f32[], param_4.461: f32[1024,4,14336], param_5.407: f32[], param_6.262: f32[4,1024,14336], param_7.178: pred[], param_8.107: f32[1024,4,14336]) -> (f32[], f32[1024,4,14336], f32[1024,4,14336], f32[1024,4,14336], f32[]) {
  %param_0.1276 = f32[1024,4,14336]{2,1,0:T(4,128)} parameter(0)
  %param_3.744 = f32[]{:T(128)S(6)} parameter(3)
  %mul.1634.clone.1 = f32[1024,4,14336]{2,1,0:T(4,128)} broadcast(%param_3.744), dimensions={}, metadata={op_name="jit(train_step)/mul" stack_frame_id=0}
  %param_7.178 = pred[]{:T(512)S(6)} parameter(7)
  %select_n.282.clone.1 = pred[1024,4,14336]{2,1,0:T(4,128)(4,1)} broadcast(%param_7.178), dimensions={}, metadata={op_name="jit(train_step)/select_n" stack_frame_id=0}
  %param_6.262 = f32[4,1024,14336]{2,0,1:T(4,128)} parameter(6)
  %bitcast.625.clone.1 = f32[1024,4,14336]{2,1,0:T(4,128)} bitcast(%param_6.262), metadata={op_name="jit(train_step)/transpose(jvp())/transpose" stack_frame_id=0}
  %param_5.407 = f32[]{:T(128)} parameter(5)
  %div.819.clone.1 = f32[1024,4,14336]{2,1,0:T(4,128)} broadcast(%param_5.407), dimensions={}, metadata={op_name="jit(train_step)/div" stack_frame_id=0}
  %div.818.clone.1 = f32[1024,4,14336]{2,1,0:T(4,128)} divide(%bitcast.625.clone.1, %div.819.clone.1), metadata={op_name="jit(train_step)/div" stack_frame_id=0}
  %select_n.281.clone.1 = f32[1024,4,14336]{2,1,0:T(4,128)} select(%select_n.282.clone.1, %bitcast.625.clone.1, %div.818.clone.1), metadata={op_name="jit(train_step)/select_n" stack_frame_id=0}
  %constant.1240.clone.1 = f32[]{:T(128)} constant(0.1)
  %broadcast.685.clone.1 = f32[1024,4,14336]{2,1,0:T(4,128)} broadcast(%constant.1240.clone.1), dimensions={}, metadata={op_name="broadcast.73"}
  %mul.1638.clone.1 = f32[1024,4,14336]{2,1,0:T(4,128)} multiply(%select_n.281.clone.1, %broadcast.685.clone.1), metadata={op_name="jit(train_step)/mul" stack_frame_id=0}
  %param_8.107 = f32[1024,4,14336]{2,1,0:T(4,128)} parameter(8)
  %constant.1244.clone.1 = f32[]{:T(128)} constant(0.9)
  %broadcast.684.clone.1 = f32[1024,4,14336]{2,1,0:T(4,128)} broadcast(%constant.1244.clone.1), dimensions={}, metadata={op_name="broadcast.72"}
  %mul.1637.clone.1 = f32[1024,4,14336]{2,1,0:T(4,128)} multiply(%param_8.107, %broadcast.684.clone.1), metadata={op_name="jit(train_step)/mul" stack_frame_id=0}
  %add.859.clone.1 = f32[1024,4,14336]{2,1,0:T(4,128)} add(%mul.1638.clone.1, %mul.1637.clone.1), metadata={op_name="jit(train_step)/add" stack_frame_id=0}
  %param_2.1102 = f32[]{:T(128)S(6)} parameter(2)
  %div.815.clone.1 = f32[1024,4,14336]{2,1,0:T(4,128)} broadcast(%param_2.1102), dimensions={}, metadata={op_name="jit(train_step)/div" stack_frame_id=0}
  %integer_pow.70.clone.1 = f32[1024,4,14336]{2,1,0:T(4,128)} multiply(%select_n.281.clone.1, %select_n.281.clone.1), metadata={op_name="jit(train_step)/integer_pow" stack_frame_id=0}
  %constant.1243.clone.1 = f32[]{:T(128)} constant(0.05)
  %broadcast.683.clone.1 = f32[1024,4,14336]{2,1,0:T(4,128)} broadcast(%constant.1243.clone.1), dimensions={}, metadata={op_name="broadcast.62"}
  %mul.1636.clone.1 = f32[1024,4,14336]{2,1,0:T(4,128)} multiply(%integer_pow.70.clone.1, %broadcast.683.clone.1), metadata={op_name="jit(train_step)/mul" stack_frame_id=0}
  %param_4.461 = f32[1024,4,14336]{2,1,0:T(4,128)} parameter(4)
  %constant.1242.clone.1 = f32[]{:T(128)} constant(0.95)
  %broadcast.682.clone.1 = f32[1024,4,14336]{2,1,0:T(4,128)} broadcast(%constant.1242.clone.1), dimensions={}, metadata={op_name="broadcast.61"}
  %mul.1635.clone.1 = f32[1024,4,14336]{2,1,0:T(4,128)} multiply(%param_4.461, %broadcast.682.clone.1), metadata={op_name="jit(train_step)/mul" stack_frame_id=0}
  %add.858.clone.1 = f32[1024,4,14336]{2,1,0:T(4,128)} add(%mul.1636.clone.1, %mul.1635.clone.1), metadata={op_name="jit(train_step)/add" stack_frame_id=0}
  %param_1.1418 = f32[]{:T(128)S(6)} parameter(1)
  %div.814.clone.1 = f32[1024,4,14336]{2,1,0:T(4,128)} broadcast(%param_1.1418), dimensions={}, metadata={op_name="jit(train_step)/div" stack_frame_id=0}
  %div.813.clone.1 = f32[1024,4,14336]{2,1,0:T(4,128)} divide(%add.858.clone.1, %div.814.clone.1), metadata={op_name="jit(train_step)/div" stack_frame_id=0}
  %sqrt.68.clone.1 = f32[1024,4,14336]{2,1,0:T(4,128)} sqrt(%div.813.clone.1), metadata={op_name="jit(train_step)/sqrt" stack_frame_id=0}
  %constant.1241.clone.1 = f32[]{:T(128)} constant(1e-08)
  %broadcast.680.clone.1 = f32[1024,4,14336]{2,1,0:T(4,128)} broadcast(%constant.1241.clone.1), dimensions={}, metadata={op_name="broadcast.56"}
  %add.857.clone.1 = f32[1024,4,14336]{2,1,0:T(4,128)} add(%sqrt.68.clone.1, %broadcast.680.clone.1), metadata={op_name="jit(train_step)/add" stack_frame_id=0}
  %multiply.287.clone.1 = f32[1024,4,14336]{2,1,0:T(4,128)} multiply(%div.815.clone.1, %add.857.clone.1), metadata={op_name="multiply.32"}
  %div.812.clone.1 = f32[1024,4,14336]{2,1,0:T(4,128)} divide(%add.859.clone.1, %multiply.287.clone.1), metadata={op_name="jit(train_step)/div" stack_frame_id=0}
  %mul.1633.clone.1 = f32[1024,4,14336]{2,1,0:T(4,128)} multiply(%param_0.1276, %broadcast.685.clone.1), metadata={op_name="jit(train_step)/mul" stack_frame_id=0}
  %add.856.clone.1 = f32[1024,4,14336]{2,1,0:T(4,128)} add(%div.812.clone.1, %mul.1633.clone.1), metadata={op_name="jit(train_step)/add" stack_frame_id=0}
  %mul.1632.clone.1 = f32[1024,4,14336]{2,1,0:T(4,128)} multiply(%mul.1634.clone.1, %add.856.clone.1), metadata={op_name="jit(train_step)/mul" stack_frame_id=0}
  %add.855.clone.1 = f32[1024,4,14336]{2,1,0:T(4,128)} add(%param_0.1276, %mul.1632.clone.1), metadata={op_name="jit(train_step)/add" stack_frame_id=0}
  %square.173 = f32[1024,4,14336]{2,1,0:T(4,128)} multiply(%add.855.clone.1, %add.855.clone.1), metadata={op_name="jit(train_step)/square" stack_frame_id=0}
  %constant.1264 = f32[]{:T(128)} constant(0)
  %reduce.141 = f32[]{:T(128)} reduce(%square.173, %constant.1264), dimensions={0,1,2}, to_apply=%region_48.53, metadata={op_name="jit(train_step)/reduce_sum" stack_frame_id=0}
  %reduce.144.clone.1 = f32[]{:T(128)} reduce(%integer_pow.70.clone.1, %constant.1264), dimensions={0,1,2}, to_apply=%region_34.39, metadata={op_name="jit(train_step)/reduce_sum" stack_frame_id=0}
  ROOT %tuple.137 = (f32[]{:T(128)}, f32[1024,4,14336]{2,1,0:T(4,128)}, f32[1024,4,14336]{2,1,0:T(4,128)}, f32[1024,4,14336]{2,1,0:T(4,128)}, f32[]{:T(128)}) tuple(%reduce.141, %add.855.clone.1, %add.858.clone.1, %add.859.clone.1, %reduce.144.clone.1)
}

%region_47.52 (reduce_sum.280: f32[], reduce_sum.281: f32[]) -> f32[] {
  %reduce_sum.280 = f32[]{:T(128)} parameter(0), metadata={op_name="jit(train_step)/reduce_sum"}
  %reduce_sum.281 = f32[]{:T(128)} parameter(1), metadata={op_name="jit(train_step)/reduce_sum"}
  ROOT %reduce_sum.282 = f32[]{:T(128)} add(%reduce_sum.280, %reduce_sum.281), metadata={op_name="jit(train_step)/reduce_sum" stack_frame_id=0}, backend_config={"flag_configs":[],"scoped_memory_configs":[],"used_scoped_memory_configs":[],"aliasing_operands":{"lists":[]}}
}

%region_33.38 (reduce_sum.205: f32[], reduce_sum.206: f32[]) -> f32[] {
  %reduce_sum.205 = f32[]{:T(128)} parameter(0), metadata={op_name="jit(train_step)/reduce_sum"}
  %reduce_sum.206 = f32[]{:T(128)} parameter(1), metadata={op_name="jit(train_step)/reduce_sum"}
  ROOT %reduce_sum.210 = f32[]{:T(128)} add(%reduce_sum.205, %reduce_sum.206), metadata={op_name="jit(train_step)/reduce_sum" stack_frame_id=0}, backend_config={"flag_configs":[],"scoped_memory_configs":[],"used_scoped_memory_configs":[],"aliasing_operands":{"lists":[]}}
}

%fused_computation.284 (param_0.1277: f32[1024,4,14336], param_1.1419: f32[], param_2.1103: f32[], param_3.745: f32[], param_4.462: f32[1024,4,14336], param_5.408: f32[], param_6.263: f32[4,1024,14336], param_7.179: pred[], param_8.108: f32[1024,4,14336]) -> (f32[], f32[1024,4,14336], f32[1024,4,14336], f32[1024,4,14336], f32[]) {
  %param_0.1277 = f32[1024,4,14336]{2,1,0:T(4,128)} parameter(0)
  %param_3.745 = f32[]{:T(128)S(6)} parameter(3)
  %mul.1641.clone.1 = f32[1024,4,14336]{2,1,0:T(4,128)} broadcast(%param_3.745), dimensions={}, metadata={op_name="jit(train_step)/mul" stack_frame_id=0}
  %param_7.179 = pred[]{:T(512)S(6)} parameter(7)
  %select_n.286.clone.1 = pred[1024,4,14336]{2,1,0:T(4,128)(4,1)} broadcast(%param_7.179), dimensions={}, metadata={op_name="jit(train_step)/select_n" stack_frame_id=0}
  %param_6.263 = f32[4,1024,14336]{2,0,1:T(4,128)} parameter(6)
  %bitcast.627.clone.1 = f32[1024,4,14336]{2,1,0:T(4,128)} bitcast(%param_6.263), metadata={op_name="jit(train_step)/transpose(jvp())/transpose" stack_frame_id=0}
  %param_5.408 = f32[]{:T(128)} parameter(5)
  %div.827.clone.1 = f32[1024,4,14336]{2,1,0:T(4,128)} broadcast(%param_5.408), dimensions={}, metadata={op_name="jit(train_step)/div" stack_frame_id=0}
  %div.826.clone.1 = f32[1024,4,14336]{2,1,0:T(4,128)} divide(%bitcast.627.clone.1, %div.827.clone.1), metadata={op_name="jit(train_step)/div" stack_frame_id=0}
  %select_n.285.clone.1 = f32[1024,4,14336]{2,1,0:T(4,128)} select(%select_n.286.clone.1, %bitcast.627.clone.1, %div.826.clone.1), metadata={op_name="jit(train_step)/select_n" stack_frame_id=0}
  %constant.1246.clone.1 = f32[]{:T(128)} constant(0.1)
  %broadcast.691.clone.1 = f32[1024,4,14336]{2,1,0:T(4,128)} broadcast(%constant.1246.clone.1), dimensions={}, metadata={op_name="broadcast.73"}
  %mul.1645.clone.1 = f32[1024,4,14336]{2,1,0:T(4,128)} multiply(%select_n.285.clone.1, %broadcast.691.clone.1), metadata={op_name="jit(train_step)/mul" stack_frame_id=0}
  %param_8.108 = f32[1024,4,14336]{2,1,0:T(4,128)} parameter(8)
  %constant.1250.clone.1 = f32[]{:T(128)} constant(0.9)
  %broadcast.690.clone.1 = f32[1024,4,14336]{2,1,0:T(4,128)} broadcast(%constant.1250.clone.1), dimensions={}, metadata={op_name="broadcast.72"}
  %mul.1644.clone.1 = f32[1024,4,14336]{2,1,0:T(4,128)} multiply(%param_8.108, %broadcast.690.clone.1), metadata={op_name="jit(train_step)/mul" stack_frame_id=0}
  %add.864.clone.1 = f32[1024,4,14336]{2,1,0:T(4,128)} add(%mul.1645.clone.1, %mul.1644.clone.1), metadata={op_name="jit(train_step)/add" stack_frame_id=0}
  %param_2.1103 = f32[]{:T(128)S(6)} parameter(2)
  %div.823.clone.1 = f32[1024,4,14336]{2,1,0:T(4,128)} broadcast(%param_2.1103), dimensions={}, metadata={op_name="jit(train_step)/div" stack_frame_id=0}
  %integer_pow.71.clone.1 = f32[1024,4,14336]{2,1,0:T(4,128)} multiply(%select_n.285.clone.1, %select_n.285.clone.1), metadata={op_name="jit(train_step)/integer_pow" stack_frame_id=0}
  %constant.1249.clone.1 = f32[]{:T(128)} constant(0.05)
  %broadcast.689.clone.1 = f32[1024,4,14336]{2,1,0:T(4,128)} broadcast(%constant.1249.clone.1), dimensions={}, metadata={op_name="broadcast.62"}
  %mul.1643.clone.1 = f32[1024,4,14336]{2,1,0:T(4,128)} multiply(%integer_pow.71.clone.1, %broadcast.689.clone.1), metadata={op_name="jit(train_step)/mul" stack_frame_id=0}
  %param_4.462 = f32[1024,4,14336]{2,1,0:T(4,128)} parameter(4)
  %constant.1248.clone.1 = f32[]{:T(128)} constant(0.95)
  %broadcast.688.clone.1 = f32[1024,4,14336]{2,1,0:T(4,128)} broadcast(%constant.1248.clone.1), dimensions={}, metadata={op_name="broadcast.61"}
  %mul.1642.clone.1 = f32[1024,4,14336]{2,1,0:T(4,128)} multiply(%param_4.462, %broadcast.688.clone.1), metadata={op_name="jit(train_step)/mul" stack_frame_id=0}
  %add.863.clone.1 = f32[1024,4,14336]{2,1,0:T(4,128)} add(%mul.1643.clone.1, %mul.1642.clone.1), metadata={op_name="jit(train_step)/add" stack_frame_id=0}
  %param_1.1419 = f32[]{:T(128)S(6)} parameter(1)
  %div.822.clone.1 = f32[1024,4,14336]{2,1,0:T(4,128)} broadcast(%param_1.1419), dimensions={}, metadata={op_name="jit(train_step)/div" stack_frame_id=0}
  %div.821.clone.1 = f32[1024,4,14336]{2,1,0:T(4,128)} divide(%add.863.clone.1, %div.822.clone.1), metadata={op_name="jit(train_step)/div" stack_frame_id=0}
  %sqrt.69.clone.1 = f32[1024,4,14336]{2,1,0:T(4,128)} sqrt(%div.821.clone.1), metadata={op_name="jit(train_step)/sqrt" stack_frame_id=0}
  %constant.1247.clone.1 = f32[]{:T(128)} constant(1e-08)
  %broadcast.686.clone.1 = f32[1024,4,14336]{2,1,0:T(4,128)} broadcast(%constant.1247.clone.1), dimensions={}, metadata={op_name="broadcast.56"}
  %add.862.clone.1 = f32[1024,4,14336]{2,1,0:T(4,128)} add(%sqrt.69.clone.1, %broadcast.686.clone.1), metadata={op_name="jit(train_step)/add" stack_frame_id=0}
  %multiply.288.clone.1 = f32[1024,4,14336]{2,1,0:T(4,128)} multiply(%div.823.clone.1, %add.862.clone.1), metadata={op_name="multiply.31"}
  %div.820.clone.1 = f32[1024,4,14336]{2,1,0:T(4,128)} divide(%add.864.clone.1, %multiply.288.clone.1), metadata={op_name="jit(train_step)/div" stack_frame_id=0}
  %mul.1640.clone.1 = f32[1024,4,14336]{2,1,0:T(4,128)} multiply(%param_0.1277, %broadcast.691.clone.1), metadata={op_name="jit(train_step)/mul" stack_frame_id=0}
  %add.861.clone.1 = f32[1024,4,14336]{2,1,0:T(4,128)} add(%div.820.clone.1, %mul.1640.clone.1), metadata={op_name="jit(train_step)/add" stack_frame_id=0}
  %mul.1639.clone.1 = f32[1024,4,14336]{2,1,0:T(4,128)} multiply(%mul.1641.clone.1, %add.861.clone.1), metadata={op_name="jit(train_step)/mul" stack_frame_id=0}
  %add.860.clone.1 = f32[1024,4,14336]{2,1,0:T(4,128)} add(%param_0.1277, %mul.1639.clone.1), metadata={op_name="jit(train_step)/add" stack_frame_id=0}
  %square.174 = f32[1024,4,14336]{2,1,0:T(4,128)} multiply(%add.860.clone.1, %add.860.clone.1), metadata={op_name="jit(train_step)/square" stack_frame_id=0}
  %constant.1265 = f32[]{:T(128)} constant(0)
  %reduce.142 = f32[]{:T(128)} reduce(%square.174, %constant.1265), dimensions={0,1,2}, to_apply=%region_47.52, metadata={op_name="jit(train_step)/reduce_sum" stack_frame_id=0}
  %reduce.145.clone.1 = f32[]{:T(128)} reduce(%integer_pow.71.clone.1, %constant.1265), dimensions={0,1,2}, to_apply=%region_33.38, metadata={op_name="jit(train_step)/reduce_sum" stack_frame_id=0}
  ROOT %tuple.138 = (f32[]{:T(128)}, f32[1024,4,14336]{2,1,0:T(4,128)}, f32[1024,4,14336]{2,1,0:T(4,128)}, f32[1024,4,14336]{2,1,0:T(4,128)}, f32[]{:T(128)}) tuple(%reduce.142, %add.860.clone.1, %add.863.clone.1, %add.864.clone.1, %reduce.145.clone.1)
}

%region_27.32 (reduce_sum.178: f32[], reduce_sum.182: f32[]) -> f32[] {
  %reduce_sum.178 = f32[]{:T(128)} parameter(0), metadata={op_name="jit(train_step)/reduce_sum"}
  %reduce_sum.182 = f32[]{:T(128)} parameter(1), metadata={op_name="jit(train_step)/reduce_sum"}
  ROOT %reduce_sum.183 = f32[]{:T(128)} add(%reduce_sum.178, %reduce_sum.182), metadata={op_name="jit(train_step)/reduce_sum" stack_frame_id=0}, backend_config={"flag_configs":[],"scoped_memory_configs":[],"used_scoped_memory_configs":[],"aliasing_operands":{"lists":[]}}
}

%fused_computation.300 (param_0.1283: f32[4,1024,32,128]) -> f32[] {
  %param_0.1283 = f32[4,1024,32,128]{3,2,0,1:T(8,128)} parameter(0)
  %bitcast.482 = f32[1024,4,32,128]{3,2,1,0:T(8,128)} bitcast(%param_0.1283), metadata={op_name="jit(train_step)/transpose(jvp())/transpose" stack_frame_id=0}
  %square.177 = f32[1024,4,32,128]{3,2,1,0:T(8,128)} multiply(%bitcast.482, %bitcast.482), metadata={op_name="jit(train_step)/square" stack_frame_id=0}
  %constant.1271 = f32[]{:T(128)} constant(0)
  ROOT %reduce.146 = f32[]{:T(128)} reduce(%square.177, %constant.1271), dimensions={0,1,2,3}, to_apply=%region_27.32, metadata={op_name="jit(train_step)/reduce_sum" stack_frame_id=0}
}

%region_26.31 (reduce_sum.175: f32[], reduce_sum.176: f32[]) -> f32[] {
  %reduce_sum.175 = f32[]{:T(128)} parameter(0), metadata={op_name="jit(train_step)/reduce_sum"}
  %reduce_sum.176 = f32[]{:T(128)} parameter(1), metadata={op_name="jit(train_step)/reduce_sum"}
  ROOT %reduce_sum.177 = f32[]{:T(128)} add(%reduce_sum.175, %reduce_sum.176), metadata={op_name="jit(train_step)/reduce_sum" stack_frame_id=0}, backend_config={"flag_configs":[],"scoped_memory_configs":[],"used_scoped_memory_configs":[],"aliasing_operands":{"lists":[]}}
}

%fused_computation.302 (param_0.1284: f32[4,32,128,1024]) -> f32[] {
  %param_0.1284 = f32[4,32,128,1024]{3,2,0,1:T(8,128)} parameter(0)
  %bitcast.486 = f32[32,4,128,1024]{3,2,1,0:T(8,128)} bitcast(%param_0.1284), metadata={op_name="jit(train_step)/transpose(jvp())/transpose" stack_frame_id=0}
  %square.180 = f32[32,4,128,1024]{3,2,1,0:T(8,128)} multiply(%bitcast.486, %bitcast.486), metadata={op_name="jit(train_step)/square" stack_frame_id=0}
  %constant.1272 = f32[]{:T(128)} constant(0)
  ROOT %reduce.147 = f32[]{:T(128)} reduce(%square.180, %constant.1272), dimensions={0,1,2,3}, to_apply=%region_26.31, metadata={op_name="jit(train_step)/reduce_sum" stack_frame_id=0}
}

%fused_computation.303 (param_0.855: f32[32,4,128,1024]) -> bf16[4,32,128,1024] {
  %param_0.855 = f32[32,4,128,1024]{3,2,1,0:T(8,128)} parameter(0)
  %copy.238 = bf16[32,4,128,1024]{3,2,0,1:T(8,128)(2,1)} copy(%param_0.855), sharding={devices=[1,1,1,4]<=[4]}, metadata={op_name="state[\'model\'][\'decoder\'][\'layers\'][\'self_attention\'][\'out\'][\'kernel\'].value"}
  ROOT %bitcast.487 = bf16[4,32,128,1024]{3,2,1,0:T(8,128)(2,1)} bitcast(%copy.238), metadata={op_name="jit(train_step)/jvp()/transpose" stack_frame_id=0}
}

%region_54.59 (reduce_sum.317: f32[], reduce_sum.318: f32[]) -> f32[] {
  %reduce_sum.317 = f32[]{:T(128)} parameter(0), metadata={op_name="jit(train_step)/reduce_sum"}
  %reduce_sum.318 = f32[]{:T(128)} parameter(1), metadata={op_name="jit(train_step)/reduce_sum"}
  ROOT %reduce_sum.316 = f32[]{:T(128)} add(%reduce_sum.317, %reduce_sum.318), metadata={op_name="jit(train_step)/reduce_sum" stack_frame_id=0}, backend_config={"flag_configs":[],"scoped_memory_configs":[],"used_scoped_memory_configs":[],"aliasing_operands":{"lists":[]}}
}

%region_40.45 (reduce_sum.241: f32[], reduce_sum.245: f32[]) -> f32[] {
  %reduce_sum.241 = f32[]{:T(128)} parameter(0), metadata={op_name="jit(train_step)/reduce_sum"}
  %reduce_sum.245 = f32[]{:T(128)} parameter(1), metadata={op_name="jit(train_step)/reduce_sum"}
  ROOT %reduce_sum.246 = f32[]{:T(128)} add(%reduce_sum.241, %reduce_sum.245), metadata={op_name="jit(train_step)/reduce_sum" stack_frame_id=0}, backend_config={"flag_configs":[],"scoped_memory_configs":[],"used_scoped_memory_configs":[],"aliasing_operands":{"lists":[]}}
}

%fused_computation.304 (param_0.1270: f32[1024,4,32,128], param_1.1412: f32[], param_2.1096: f32[], param_3.738: f32[], param_4.455: f32[1024,4,32,128], param_5.401: f32[], param_6.256: f32[4,1024,32,128], param_7.172: pred[], param_8.101: f32[1024,4,32,128]) -> (f32[], f32[1024,4,32,128], f32[1024,4,32,128], f32[1024,4,32,128], f32[]) {
  %param_0.1270 = f32[1024,4,32,128]{3,2,1,0:T(8,128)} parameter(0)
  %param_3.738 = f32[]{:T(128)S(6)} parameter(3)
  %mul.1597.clone.1 = f32[1024,4,32,128]{3,2,1,0:T(8,128)} broadcast(%param_3.738), dimensions={}, metadata={op_name="jit(train_step)/mul" stack_frame_id=0}
  %param_7.172 = pred[]{:T(512)S(6)} parameter(7)
  %select_n.266.clone.1 = pred[1024,4,32,128]{3,2,1,0:T(8,128)(4,1)} broadcast(%param_7.172), dimensions={}, metadata={op_name="jit(train_step)/select_n" stack_frame_id=0}
  %param_6.256 = f32[4,1024,32,128]{3,2,0,1:T(8,128)} parameter(6)
  %bitcast.617.clone.1 = f32[1024,4,32,128]{3,2,1,0:T(8,128)} bitcast(%param_6.256), metadata={op_name="jit(train_step)/transpose(jvp())/transpose" stack_frame_id=0}
  %param_5.401 = f32[]{:T(128)} parameter(5)
  %div.787.clone.1 = f32[1024,4,32,128]{3,2,1,0:T(8,128)} broadcast(%param_5.401), dimensions={}, metadata={op_name="jit(train_step)/div" stack_frame_id=0}
  %div.786.clone.1 = f32[1024,4,32,128]{3,2,1,0:T(8,128)} divide(%bitcast.617.clone.1, %div.787.clone.1), metadata={op_name="jit(train_step)/div" stack_frame_id=0}
  %select_n.265.clone.1 = f32[1024,4,32,128]{3,2,1,0:T(8,128)} select(%select_n.266.clone.1, %bitcast.617.clone.1, %div.786.clone.1), metadata={op_name="jit(train_step)/select_n" stack_frame_id=0}
  %constant.1216.clone.1 = f32[]{:T(128)} constant(0.1)
  %broadcast.669.clone.1 = f32[1024,4,32,128]{3,2,1,0:T(8,128)} broadcast(%constant.1216.clone.1), dimensions={}, metadata={op_name="broadcast.65"}
  %mul.1603.clone.1 = f32[1024,4,32,128]{3,2,1,0:T(8,128)} multiply(%select_n.265.clone.1, %broadcast.669.clone.1), metadata={op_name="jit(train_step)/mul" stack_frame_id=0}
  %param_8.101 = f32[1024,4,32,128]{3,2,1,0:T(8,128)} parameter(8)
  %constant.1220.clone.1 = f32[]{:T(128)} constant(0.9)
  %mul.1604.clone.1 = f32[1024,4,32,128]{3,2,1,0:T(8,128)} broadcast(%constant.1220.clone.1), dimensions={}, metadata={op_name="jit(train_step)/mul" stack_frame_id=0}
  %mul.1602.clone.1 = f32[1024,4,32,128]{3,2,1,0:T(8,128)} multiply(%param_8.101, %mul.1604.clone.1), metadata={op_name="jit(train_step)/mul" stack_frame_id=0}
  %add.837.clone.1 = f32[1024,4,32,128]{3,2,1,0:T(8,128)} add(%mul.1603.clone.1, %mul.1602.clone.1), metadata={op_name="jit(train_step)/add" stack_frame_id=0}
  %param_2.1096 = f32[]{:T(128)S(6)} parameter(2)
  %div.783.clone.1 = f32[1024,4,32,128]{3,2,1,0:T(8,128)} broadcast(%param_2.1096), dimensions={}, metadata={op_name="jit(train_step)/div" stack_frame_id=0}
  %integer_pow.66.clone.1 = f32[1024,4,32,128]{3,2,1,0:T(8,128)} multiply(%select_n.265.clone.1, %select_n.265.clone.1), metadata={op_name="jit(train_step)/integer_pow" stack_frame_id=0}
  %constant.1219.clone.1 = f32[]{:T(128)} constant(0.05)
  %mul.1601.clone.1 = f32[1024,4,32,128]{3,2,1,0:T(8,128)} broadcast(%constant.1219.clone.1), dimensions={}, metadata={op_name="jit(train_step)/mul" stack_frame_id=0}
  %mul.1599.clone.1 = f32[1024,4,32,128]{3,2,1,0:T(8,128)} multiply(%integer_pow.66.clone.1, %mul.1601.clone.1), metadata={op_name="jit(train_step)/mul" stack_frame_id=0}
  %param_4.455 = f32[1024,4,32,128]{3,2,1,0:T(8,128)} parameter(4)
  %constant.1218.clone.1 = f32[]{:T(128)} constant(0.95)
  %mul.1600.clone.1 = f32[1024,4,32,128]{3,2,1,0:T(8,128)} broadcast(%constant.1218.clone.1), dimensions={}, metadata={op_name="jit(train_step)/mul" stack_frame_id=0}
  %mul.1598.clone.1 = f32[1024,4,32,128]{3,2,1,0:T(8,128)} multiply(%param_4.455, %mul.1600.clone.1), metadata={op_name="jit(train_step)/mul" stack_frame_id=0}
  %add.836.clone.1 = f32[1024,4,32,128]{3,2,1,0:T(8,128)} add(%mul.1599.clone.1, %mul.1598.clone.1), metadata={op_name="jit(train_step)/add" stack_frame_id=0}
  %param_1.1412 = f32[]{:T(128)S(6)} parameter(1)
  %div.782.clone.1 = f32[1024,4,32,128]{3,2,1,0:T(8,128)} broadcast(%param_1.1412), dimensions={}, metadata={op_name="jit(train_step)/div" stack_frame_id=0}
  %div.781.clone.1 = f32[1024,4,32,128]{3,2,1,0:T(8,128)} divide(%add.836.clone.1, %div.782.clone.1), metadata={op_name="jit(train_step)/div" stack_frame_id=0}
  %sqrt.64.clone.1 = f32[1024,4,32,128]{3,2,1,0:T(8,128)} sqrt(%div.781.clone.1), metadata={op_name="jit(train_step)/sqrt" stack_frame_id=0}
  %constant.1217.clone.1 = f32[]{:T(128)} constant(1e-08)
  %add.835.clone.1 = f32[1024,4,32,128]{3,2,1,0:T(8,128)} broadcast(%constant.1217.clone.1), dimensions={}, metadata={op_name="jit(train_step)/add" stack_frame_id=0}
  %add.834.clone.1 = f32[1024,4,32,128]{3,2,1,0:T(8,128)} add(%sqrt.64.clone.1, %add.835.clone.1), metadata={op_name="jit(train_step)/add" stack_frame_id=0}
  %multiply.283.clone.1 = f32[1024,4,32,128]{3,2,1,0:T(8,128)} multiply(%div.783.clone.1, %add.834.clone.1), metadata={op_name="multiply.38"}
  %div.780.clone.1 = f32[1024,4,32,128]{3,2,1,0:T(8,128)} divide(%add.837.clone.1, %multiply.283.clone.1), metadata={op_name="jit(train_step)/div" stack_frame_id=0}
  %mul.1596.clone.1 = f32[1024,4,32,128]{3,2,1,0:T(8,128)} multiply(%param_0.1270, %broadcast.669.clone.1), metadata={op_name="jit(train_step)/mul" stack_frame_id=0}
  %add.833.clone.1 = f32[1024,4,32,128]{3,2,1,0:T(8,128)} add(%div.780.clone.1, %mul.1596.clone.1), metadata={op_name="jit(train_step)/add" stack_frame_id=0}
  %mul.1595.clone.1 = f32[1024,4,32,128]{3,2,1,0:T(8,128)} multiply(%mul.1597.clone.1, %add.833.clone.1), metadata={op_name="jit(train_step)/mul" stack_frame_id=0}
  %add.832.clone.1 = f32[1024,4,32,128]{3,2,1,0:T(8,128)} add(%param_0.1270, %mul.1595.clone.1), metadata={op_name="jit(train_step)/add" stack_frame_id=0}
  %square.181 = f32[1024,4,32,128]{3,2,1,0:T(8,128)} multiply(%add.832.clone.1, %add.832.clone.1), metadata={op_name="jit(train_step)/square" stack_frame_id=0}
  %constant.1258 = f32[]{:T(128)} constant(0)
  %reduce.148 = f32[]{:T(128)} reduce(%square.181, %constant.1258), dimensions={0,1,2,3}, to_apply=%region_54.59, metadata={op_name="jit(train_step)/reduce_sum" stack_frame_id=0}
  %reduce.152.clone.1 = f32[]{:T(128)} reduce(%integer_pow.66.clone.1, %constant.1258), dimensions={0,1,2,3}, to_apply=%region_40.45, metadata={op_name="jit(train_step)/reduce_sum" stack_frame_id=0}
  ROOT %tuple.139 = (f32[]{:T(128)}, f32[1024,4,32,128]{3,2,1,0:T(8,128)}, f32[1024,4,32,128]{3,2,1,0:T(8,128)}, f32[1024,4,32,128]{3,2,1,0:T(8,128)}, f32[]{:T(128)}) tuple(%reduce.148, %add.832.clone.1, %add.836.clone.1, %add.837.clone.1, %reduce.152.clone.1)
}

%region_53.58 (reduce_sum.310: f32[], reduce_sum.311: f32[]) -> f32[] {
  %reduce_sum.310 = f32[]{:T(128)} parameter(0), metadata={op_name="jit(train_step)/reduce_sum"}
  %reduce_sum.311 = f32[]{:T(128)} parameter(1), metadata={op_name="jit(train_step)/reduce_sum"}
  ROOT %reduce_sum.315 = f32[]{:T(128)} add(%reduce_sum.310, %reduce_sum.311), metadata={op_name="jit(train_step)/reduce_sum" stack_frame_id=0}, backend_config={"flag_configs":[],"scoped_memory_configs":[],"used_scoped_memory_configs":[],"aliasing_operands":{"lists":[]}}
}

%region_39.44 (reduce_sum.238: f32[], reduce_sum.239: f32[]) -> f32[] {
  %reduce_sum.238 = f32[]{:T(128)} parameter(0), metadata={op_name="jit(train_step)/reduce_sum"}
  %reduce_sum.239 = f32[]{:T(128)} parameter(1), metadata={op_name="jit(train_step)/reduce_sum"}
  ROOT %reduce_sum.240 = f32[]{:T(128)} add(%reduce_sum.238, %reduce_sum.239), metadata={op_name="jit(train_step)/reduce_sum" stack_frame_id=0}, backend_config={"flag_configs":[],"scoped_memory_configs":[],"used_scoped_memory_configs":[],"aliasing_operands":{"lists":[]}}
}

%fused_computation.305 (param_0.1271: f32[32,4,128,1024], param_1.1413: f32[], param_2.1097: f32[], param_3.739: f32[], param_4.456: f32[32,4,128,1024], param_5.402: f32[], param_6.257: f32[4,32,128,1024], param_7.173: pred[], param_8.102: f32[32,4,128,1024]) -> (f32[], f32[32,4,128,1024], f32[32,4,128,1024], f32[32,4,128,1024], f32[]) {
  %param_0.1271 = f32[32,4,128,1024]{3,2,1,0:T(8,128)} parameter(0)
  %param_3.739 = f32[]{:T(128)S(6)} parameter(3)
  %mul.1607.clone.1 = f32[32,4,128,1024]{3,2,1,0:T(8,128)} broadcast(%param_3.739), dimensions={}, metadata={op_name="jit(train_step)/mul" stack_frame_id=0}
  %param_7.173 = pred[]{:T(512)S(6)} parameter(7)
  %select_n.270.clone.1 = pred[32,4,128,1024]{3,2,1,0:T(8,128)(4,1)} broadcast(%param_7.173), dimensions={}, metadata={op_name="jit(train_step)/select_n" stack_frame_id=0}
  %param_6.257 = f32[4,32,128,1024]{3,2,0,1:T(8,128)} parameter(6)
  %bitcast.619.clone.1 = f32[32,4,128,1024]{3,2,1,0:T(8,128)} bitcast(%param_6.257), metadata={op_name="jit(train_step)/transpose(jvp())/transpose" stack_frame_id=0}
  %param_5.402 = f32[]{:T(128)} parameter(5)
  %div.795.clone.1 = f32[32,4,128,1024]{3,2,1,0:T(8,128)} broadcast(%param_5.402), dimensions={}, metadata={op_name="jit(train_step)/div" stack_frame_id=0}
  %div.794.clone.1 = f32[32,4,128,1024]{3,2,1,0:T(8,128)} divide(%bitcast.619.clone.1, %div.795.clone.1), metadata={op_name="jit(train_step)/div" stack_frame_id=0}
  %select_n.269.clone.1 = f32[32,4,128,1024]{3,2,1,0:T(8,128)} select(%select_n.270.clone.1, %bitcast.619.clone.1, %div.794.clone.1), metadata={op_name="jit(train_step)/select_n" stack_frame_id=0}
  %constant.1222.clone.1 = f32[]{:T(128)} constant(0.1)
  %broadcast.671.clone.1 = f32[32,4,128,1024]{3,2,1,0:T(8,128)} broadcast(%constant.1222.clone.1), dimensions={}, metadata={op_name="broadcast.66"}
  %mul.1613.clone.1 = f32[32,4,128,1024]{3,2,1,0:T(8,128)} multiply(%select_n.269.clone.1, %broadcast.671.clone.1), metadata={op_name="jit(train_step)/mul" stack_frame_id=0}
  %param_8.102 = f32[32,4,128,1024]{3,2,1,0:T(8,128)} parameter(8)
  %constant.1226.clone.1 = f32[]{:T(128)} constant(0.9)
  %mul.1614.clone.1 = f32[32,4,128,1024]{3,2,1,0:T(8,128)} broadcast(%constant.1226.clone.1), dimensions={}, metadata={op_name="jit(train_step)/mul" stack_frame_id=0}
  %mul.1612.clone.1 = f32[32,4,128,1024]{3,2,1,0:T(8,128)} multiply(%param_8.102, %mul.1614.clone.1), metadata={op_name="jit(train_step)/mul" stack_frame_id=0}
  %add.843.clone.1 = f32[32,4,128,1024]{3,2,1,0:T(8,128)} add(%mul.1613.clone.1, %mul.1612.clone.1), metadata={op_name="jit(train_step)/add" stack_frame_id=0}
  %param_2.1097 = f32[]{:T(128)S(6)} parameter(2)
  %div.791.clone.1 = f32[32,4,128,1024]{3,2,1,0:T(8,128)} broadcast(%param_2.1097), dimensions={}, metadata={op_name="jit(train_step)/div" stack_frame_id=0}
  %integer_pow.67.clone.1 = f32[32,4,128,1024]{3,2,1,0:T(8,128)} multiply(%select_n.269.clone.1, %select_n.269.clone.1), metadata={op_name="jit(train_step)/integer_pow" stack_frame_id=0}
  %constant.1225.clone.1 = f32[]{:T(128)} constant(0.05)
  %mul.1611.clone.1 = f32[32,4,128,1024]{3,2,1,0:T(8,128)} broadcast(%constant.1225.clone.1), dimensions={}, metadata={op_name="jit(train_step)/mul" stack_frame_id=0}
  %mul.1609.clone.1 = f32[32,4,128,1024]{3,2,1,0:T(8,128)} multiply(%integer_pow.67.clone.1, %mul.1611.clone.1), metadata={op_name="jit(train_step)/mul" stack_frame_id=0}
  %param_4.456 = f32[32,4,128,1024]{3,2,1,0:T(8,128)} parameter(4)
  %constant.1224.clone.1 = f32[]{:T(128)} constant(0.95)
  %mul.1610.clone.1 = f32[32,4,128,1024]{3,2,1,0:T(8,128)} broadcast(%constant.1224.clone.1), dimensions={}, metadata={op_name="jit(train_step)/mul" stack_frame_id=0}
  %mul.1608.clone.1 = f32[32,4,128,1024]{3,2,1,0:T(8,128)} multiply(%param_4.456, %mul.1610.clone.1), metadata={op_name="jit(train_step)/mul" stack_frame_id=0}
  %add.842.clone.1 = f32[32,4,128,1024]{3,2,1,0:T(8,128)} add(%mul.1609.clone.1, %mul.1608.clone.1), metadata={op_name="jit(train_step)/add" stack_frame_id=0}
  %param_1.1413 = f32[]{:T(128)S(6)} parameter(1)
  %div.790.clone.1 = f32[32,4,128,1024]{3,2,1,0:T(8,128)} broadcast(%param_1.1413), dimensions={}, metadata={op_name="jit(train_step)/div" stack_frame_id=0}
  %div.789.clone.1 = f32[32,4,128,1024]{3,2,1,0:T(8,128)} divide(%add.842.clone.1, %div.790.clone.1), metadata={op_name="jit(train_step)/div" stack_frame_id=0}
  %sqrt.65.clone.1 = f32[32,4,128,1024]{3,2,1,0:T(8,128)} sqrt(%div.789.clone.1), metadata={op_name="jit(train_step)/sqrt" stack_frame_id=0}
  %constant.1223.clone.1 = f32[]{:T(128)} constant(1e-08)
  %add.841.clone.1 = f32[32,4,128,1024]{3,2,1,0:T(8,128)} broadcast(%constant.1223.clone.1), dimensions={}, metadata={op_name="jit(train_step)/add" stack_frame_id=0}
  %add.840.clone.1 = f32[32,4,128,1024]{3,2,1,0:T(8,128)} add(%sqrt.65.clone.1, %add.841.clone.1), metadata={op_name="jit(train_step)/add" stack_frame_id=0}
  %multiply.284.clone.1 = f32[32,4,128,1024]{3,2,1,0:T(8,128)} multiply(%div.791.clone.1, %add.840.clone.1), metadata={op_name="multiply.37"}
  %div.788.clone.1 = f32[32,4,128,1024]{3,2,1,0:T(8,128)} divide(%add.843.clone.1, %multiply.284.clone.1), metadata={op_name="jit(train_step)/div" stack_frame_id=0}
  %mul.1606.clone.1 = f32[32,4,128,1024]{3,2,1,0:T(8,128)} multiply(%param_0.1271, %broadcast.671.clone.1), metadata={op_name="jit(train_step)/mul" stack_frame_id=0}
  %add.839.clone.1 = f32[32,4,128,1024]{3,2,1,0:T(8,128)} add(%div.788.clone.1, %mul.1606.clone.1), metadata={op_name="jit(train_step)/add" stack_frame_id=0}
  %mul.1605.clone.1 = f32[32,4,128,1024]{3,2,1,0:T(8,128)} multiply(%mul.1607.clone.1, %add.839.clone.1), metadata={op_name="jit(train_step)/mul" stack_frame_id=0}
  %add.838.clone.1 = f32[32,4,128,1024]{3,2,1,0:T(8,128)} add(%param_0.1271, %mul.1605.clone.1), metadata={op_name="jit(train_step)/add" stack_frame_id=0}
  %square.182 = f32[32,4,128,1024]{3,2,1,0:T(8,128)} multiply(%add.838.clone.1, %add.838.clone.1), metadata={op_name="jit(train_step)/square" stack_frame_id=0}
  %constant.1259 = f32[]{:T(128)} constant(0)
  %reduce.149 = f32[]{:T(128)} reduce(%square.182, %constant.1259), dimensions={0,1,2,3}, to_apply=%region_53.58, metadata={op_name="jit(train_step)/reduce_sum" stack_frame_id=0}
  %reduce.153.clone.1 = f32[]{:T(128)} reduce(%integer_pow.67.clone.1, %constant.1259), dimensions={0,1,2,3}, to_apply=%region_39.44, metadata={op_name="jit(train_step)/reduce_sum" stack_frame_id=0}
  ROOT %tuple.140 = (f32[]{:T(128)}, f32[32,4,128,1024]{3,2,1,0:T(8,128)}, f32[32,4,128,1024]{3,2,1,0:T(8,128)}, f32[32,4,128,1024]{3,2,1,0:T(8,128)}, f32[]{:T(128)}) tuple(%reduce.149, %add.838.clone.1, %add.842.clone.1, %add.843.clone.1, %reduce.153.clone.1)
}

%region_7.10 (reduce_sum.93: f32[], reduce_sum.94: f32[]) -> f32[] {
  %reduce_sum.93 = f32[]{:T(128)} parameter(0), metadata={op_name="jit(train_step)/jvp()/reduce_sum"}
  %reduce_sum.94 = f32[]{:T(128)} parameter(1), metadata={op_name="jit(train_step)/jvp()/reduce_sum"}
  ROOT %reduce_sum.95 = f32[]{:T(128)} add(%reduce_sum.93, %reduce_sum.94), metadata={op_name="jit(train_step)/jvp()/reduce_sum" stack_frame_id=0}, backend_config={"flag_configs":[],"scoped_memory_configs":[],"used_scoped_memory_configs":[],"aliasing_operands":{"lists":[]}}
}

%fused_computation.316 (param_0.1292: bf16[128,128256], param_1.1427: bf16[128]) -> f32[128] {
  %param_0.1292 = bf16[128,128256]{1,0:T(8,128)(2,1)S(1)} parameter(0)
  %convert_element_type.868 = f32[128,128256]{1,0:T(8,128)} convert(%param_0.1292), metadata={op_name="jit(train_step)/jvp()/convert_element_type" stack_frame_id=0}
  %bitcast.496 = f32[1,128,128256]{2,1,0:T(8,128)} bitcast(%convert_element_type.868), metadata={op_name="jit(train_step)/jvp()/convert_element_type" stack_frame_id=0}
  %param_1.1427 = bf16[128]{0:T(256)(128)(2,1)S(1)} parameter(1)
  %sub.100 = f32[1,128,128256]{2,1,0:T(8,128)} broadcast(%param_1.1427), dimensions={1}, metadata={op_name="jit(train_step)/jvp()/sub" stack_frame_id=0}
  %sub.71 = f32[1,128,128256]{2,1,0:T(8,128)} subtract(%bitcast.496, %sub.100), metadata={op_name="jit(train_step)/jvp()/sub" stack_frame_id=0}
  %exp.56 = f32[1,128,128256]{2,1,0:T(8,128)} exponential(%sub.71), metadata={op_name="jit(train_step)/jvp()/exp" stack_frame_id=0}
  %constant.1281 = f32[]{:T(128)} constant(0)
  ROOT %reduce.150 = f32[128]{0:T(128)S(1)} reduce(%exp.56, %constant.1281), dimensions={0,2}, to_apply=%region_7.10, metadata={op_name="jit(train_step)/jvp()/reduce_sum" stack_frame_id=0}
}

%region_44.49 (reduce_sum.262: f32[], reduce_sum.266: f32[]) -> f32[] {
  %reduce_sum.262 = f32[]{:T(128)} parameter(0), metadata={op_name="jit(train_step)/jvp()/reduce_sum"}
  %reduce_sum.266 = f32[]{:T(128)} parameter(1), metadata={op_name="jit(train_step)/jvp()/reduce_sum"}
  ROOT %reduce_sum.267 = f32[]{:T(128)} add(%reduce_sum.262, %reduce_sum.266), metadata={op_name="jit(train_step)/jvp()/reduce_sum" stack_frame_id=0}, backend_config={"flag_configs":[],"scoped_memory_configs":[],"used_scoped_memory_configs":[],"aliasing_operands":{"lists":[]}}
}

%fused_computation.322 (param_0.1291: bf16[128,128256], param_1.1425: f32[128], param_2.1107: bf16[128], param_3.748: s32[128]) -> f32[128] {
  %param_3.748 = s32[128]{0:T(128)S(1)} parameter(3)
  %eq.26 = s32[1,128,128256]{2,1,0:T(8,128)} broadcast(%param_3.748), dimensions={1}, metadata={op_name="jit(train_step)/jvp(jit(_one_hot))/eq" stack_frame_id=0}
  %iota.51 = s32[1,128,128256]{2,1,0:T(8,128)} iota(), iota_dimension=2, metadata={op_name="jit(train_step)/jvp(jit(_one_hot))/eq" stack_frame_id=0}
  %eq.21 = pred[1,128,128256]{2,1,0:T(8,128)(4,1)} compare(%eq.26, %iota.51), direction=EQ, metadata={op_name="jit(train_step)/jvp(jit(_one_hot))/eq" stack_frame_id=0}
  %param_0.1291 = bf16[128,128256]{1,0:T(8,128)(2,1)S(1)} parameter(0)
  %convert_element_type.881 = f32[128,128256]{1,0:T(8,128)} convert(%param_0.1291), metadata={op_name="jit(train_step)/jvp()/convert_element_type" stack_frame_id=0}
  %bitcast.508 = f32[1,128,128256]{2,1,0:T(8,128)} bitcast(%convert_element_type.881), metadata={op_name="jit(train_step)/jvp()/convert_element_type" stack_frame_id=0}
  %param_2.1107 = bf16[128]{0:T(256)(128)(2,1)S(1)} parameter(2)
  %sub.99 = f32[1,128,128256]{2,1,0:T(8,128)} broadcast(%param_2.1107), dimensions={1}, metadata={op_name="jit(train_step)/jvp()/sub" stack_frame_id=0}
  %sub.92 = f32[1,128,128256]{2,1,0:T(8,128)} subtract(%bitcast.508, %sub.99), metadata={op_name="jit(train_step)/jvp()/sub" stack_frame_id=0}
  %param_1.1425 = f32[128]{0:T(128)S(1)} parameter(1)
  %sub.97 = f32[1,128,128256]{2,1,0:T(8,128)} broadcast(%param_1.1425), dimensions={1}, metadata={op_name="jit(train_step)/jvp()/sub" stack_frame_id=0}
  %sub.91 = f32[1,128,128256]{2,1,0:T(8,128)} subtract(%sub.92, %sub.97), metadata={op_name="jit(train_step)/jvp()/sub" stack_frame_id=0}
  %constant.1279 = f32[]{:T(128)} constant(0)
  %broadcast.596 = f32[1,128,128256]{2,1,0:T(8,128)} broadcast(%constant.1279), dimensions={}, metadata={op_name="broadcast.104"}
  %mul.1423 = f32[1,128,128256]{2,1,0:T(8,128)} select(%eq.21, %sub.91, %broadcast.596), metadata={op_name="jit(train_step)/jvp()/mul" stack_frame_id=0}
  ROOT %reduce.151 = f32[128]{0:T(128)S(1)} reduce(%mul.1423, %constant.1279), dimensions={0,2}, to_apply=%region_44.49, metadata={op_name="jit(train_step)/jvp()/reduce_sum" stack_frame_id=0}
}

%region_28.33 (reduce_sum.184: f32[], reduce_sum.185: f32[]) -> f32[] {
  %reduce_sum.184 = f32[]{:T(128)} parameter(0), metadata={op_name="jit(train_step)/reduce_sum"}
  %reduce_sum.185 = f32[]{:T(128)} parameter(1), metadata={op_name="jit(train_step)/reduce_sum"}
  ROOT %reduce_sum.189 = f32[]{:T(128)} add(%reduce_sum.184, %reduce_sum.185), metadata={op_name="jit(train_step)/reduce_sum" stack_frame_id=0}, backend_config={"flag_configs":[],"scoped_memory_configs":[],"used_scoped_memory_configs":[],"aliasing_operands":{"lists":[]}}
}

%region_25.30 (reduce_sum.169: f32[], reduce_sum.170: f32[]) -> f32[] {
  %reduce_sum.169 = f32[]{:T(128)} parameter(0), metadata={op_name="jit(train_step)/reduce_sum"}
  %reduce_sum.170 = f32[]{:T(128)} parameter(1), metadata={op_name="jit(train_step)/reduce_sum"}
  ROOT %reduce_sum.171 = f32[]{:T(128)} add(%reduce_sum.169, %reduce_sum.170), metadata={op_name="jit(train_step)/reduce_sum" stack_frame_id=0}, backend_config={"flag_configs":[],"scoped_memory_configs":[],"used_scoped_memory_configs":[],"aliasing_operands":{"lists":[]}}
}

%fused_computation.330 (param_0.1285: f32[4,1024,8,128], param_1.1421: f32[4,1024,8,128]) -> (f32[], f32[]) {
  %param_0.1285 = f32[4,1024,8,128]{3,2,0,1:T(8,128)S(1)} parameter(0)
  %bitcast.527 = f32[1024,4,8,128]{3,2,1,0:T(8,128)} bitcast(%param_0.1285), metadata={op_name="jit(train_step)/transpose(jvp())/transpose" stack_frame_id=0}
  %square.185 = f32[1024,4,8,128]{3,2,1,0:T(8,128)} multiply(%bitcast.527, %bitcast.527), metadata={op_name="jit(train_step)/square" stack_frame_id=0}
  %constant.1273 = f32[]{:T(128)} constant(0)
  %reduce.154 = f32[]{:T(128)} reduce(%square.185, %constant.1273), dimensions={0,1,2,3}, to_apply=%region_28.33, metadata={op_name="jit(train_step)/reduce_sum" stack_frame_id=0}
  %param_1.1421 = f32[4,1024,8,128]{3,2,0,1:T(8,128)S(1)} parameter(1)
  %bitcast.531.clone.1 = f32[1024,4,8,128]{3,2,1,0:T(8,128)} bitcast(%param_1.1421), metadata={op_name="jit(train_step)/transpose(jvp())/transpose" stack_frame_id=0}
  %square.188.clone.1 = f32[1024,4,8,128]{3,2,1,0:T(8,128)} multiply(%bitcast.531.clone.1, %bitcast.531.clone.1), metadata={op_name="jit(train_step)/square" stack_frame_id=0}
  %reduce.155.clone.1 = f32[]{:T(128)} reduce(%square.188.clone.1, %constant.1273), dimensions={0,1,2,3}, to_apply=%region_25.30, metadata={op_name="jit(train_step)/reduce_sum" stack_frame_id=0}
  ROOT %tuple.155 = (f32[]{:T(128)}, f32[]{:T(128)}) tuple(%reduce.154, %reduce.155.clone.1)
}

%fused_computation.333 (param_0.933: f32[1024,4,8,128]) -> bf16[4,1024,8,128] {
  %param_0.933 = f32[1024,4,8,128]{3,2,1,0:T(8,128)S(1)} parameter(0)
  %copy.239 = bf16[1024,4,8,128]{3,0,2,1:T(8,128)(2,1)} copy(%param_0.933), sharding={devices=[4,1,1,1]<=[4]}, metadata={op_name="state[\'model\'][\'decoder\'][\'layers\'][\'self_attention\'][\'value\'][\'kernel\'].value"}
  ROOT %bitcast.532 = bf16[4,1024,8,128]{3,1,2,0:T(8,128)(2,1)} bitcast(%copy.239), metadata={op_name="jit(train_step)/jvp()/transpose" stack_frame_id=0}
}

%region_55.60 (reduce_sum.324: f32[], reduce_sum.325: f32[]) -> f32[] {
  %reduce_sum.324 = f32[]{:T(128)} parameter(0), metadata={op_name="jit(train_step)/reduce_sum"}
  %reduce_sum.325 = f32[]{:T(128)} parameter(1), metadata={op_name="jit(train_step)/reduce_sum"}
  ROOT %reduce_sum.322 = f32[]{:T(128)} add(%reduce_sum.324, %reduce_sum.325), metadata={op_name="jit(train_step)/reduce_sum" stack_frame_id=0}, backend_config={"flag_configs":[],"scoped_memory_configs":[],"used_scoped_memory_configs":[],"aliasing_operands":{"lists":[]}}
}

%region_41.46 (reduce_sum.247: f32[], reduce_sum.248: f32[]) -> f32[] {
  %reduce_sum.247 = f32[]{:T(128)} parameter(0), metadata={op_name="jit(train_step)/reduce_sum"}
  %reduce_sum.248 = f32[]{:T(128)} parameter(1), metadata={op_name="jit(train_step)/reduce_sum"}
  ROOT %reduce_sum.252 = f32[]{:T(128)} add(%reduce_sum.247, %reduce_sum.248), metadata={op_name="jit(train_step)/reduce_sum" stack_frame_id=0}, backend_config={"flag_configs":[],"scoped_memory_configs":[],"used_scoped_memory_configs":[],"aliasing_operands":{"lists":[]}}
}

%fused_computation.334 (param_0.1269: f32[1024,4,8,128], param_1.1411: f32[], param_2.1095: f32[], param_3.737: f32[], param_4.454: f32[1024,4,8,128], param_5.400: f32[], param_6.255: f32[4,1024,8,128], param_7.171: pred[], param_8.100: f32[1024,4,8,128]) -> (f32[], f32[1024,4,8,128], f32[1024,4,8,128], f32[1024,4,8,128], f32[]) {
  %param_0.1269 = f32[1024,4,8,128]{3,2,1,0:T(8,128)S(1)} parameter(0)
  %param_3.737 = f32[]{:T(128)S(6)} parameter(3)
  %mul.1590.clone.1 = f32[1024,4,8,128]{3,2,1,0:T(8,128)} broadcast(%param_3.737), dimensions={}, metadata={op_name="jit(train_step)/mul" stack_frame_id=0}
  %param_7.171 = pred[]{:T(512)S(6)} parameter(7)
  %select_n.262.clone.1 = pred[1024,4,8,128]{3,2,1,0:T(8,128)(4,1)} broadcast(%param_7.171), dimensions={}, metadata={op_name="jit(train_step)/select_n" stack_frame_id=0}
  %param_6.255 = f32[4,1024,8,128]{3,2,0,1:T(8,128)S(1)} parameter(6)
  %bitcast.615.clone.1 = f32[1024,4,8,128]{3,2,1,0:T(8,128)} bitcast(%param_6.255), metadata={op_name="jit(train_step)/transpose(jvp())/transpose" stack_frame_id=0}
  %param_5.400 = f32[]{:T(128)} parameter(5)
  %div.779.clone.1 = f32[1024,4,8,128]{3,2,1,0:T(8,128)} broadcast(%param_5.400), dimensions={}, metadata={op_name="jit(train_step)/div" stack_frame_id=0}
  %div.778.clone.1 = f32[1024,4,8,128]{3,2,1,0:T(8,128)} divide(%bitcast.615.clone.1, %div.779.clone.1), metadata={op_name="jit(train_step)/div" stack_frame_id=0}
  %select_n.261.clone.1 = f32[1024,4,8,128]{3,2,1,0:T(8,128)} select(%select_n.262.clone.1, %bitcast.615.clone.1, %div.778.clone.1), metadata={op_name="jit(train_step)/select_n" stack_frame_id=0}
  %constant.1210.clone.1 = f32[]{:T(128)} constant(0.1)
  %broadcast.667.clone.1 = f32[1024,4,8,128]{3,2,1,0:T(8,128)} broadcast(%constant.1210.clone.1), dimensions={}, metadata={op_name="broadcast.68"}
  %mul.1594.clone.1 = f32[1024,4,8,128]{3,2,1,0:T(8,128)} multiply(%select_n.261.clone.1, %broadcast.667.clone.1), metadata={op_name="jit(train_step)/mul" stack_frame_id=0}
  %param_8.100 = f32[1024,4,8,128]{3,2,1,0:T(8,128)} parameter(8)
  %constant.1214.clone.1 = f32[]{:T(128)} constant(0.9)
  %broadcast.666.clone.1 = f32[1024,4,8,128]{3,2,1,0:T(8,128)} broadcast(%constant.1214.clone.1), dimensions={}, metadata={op_name="broadcast.67"}
  %mul.1593.clone.1 = f32[1024,4,8,128]{3,2,1,0:T(8,128)} multiply(%param_8.100, %broadcast.666.clone.1), metadata={op_name="jit(train_step)/mul" stack_frame_id=0}
  %add.831.clone.1 = f32[1024,4,8,128]{3,2,1,0:T(8,128)} add(%mul.1594.clone.1, %mul.1593.clone.1), metadata={op_name="jit(train_step)/add" stack_frame_id=0}
  %param_2.1095 = f32[]{:T(128)S(6)} parameter(2)
  %div.775.clone.1 = f32[1024,4,8,128]{3,2,1,0:T(8,128)} broadcast(%param_2.1095), dimensions={}, metadata={op_name="jit(train_step)/div" stack_frame_id=0}
  %integer_pow.65.clone.1 = f32[1024,4,8,128]{3,2,1,0:T(8,128)} multiply(%select_n.261.clone.1, %select_n.261.clone.1), metadata={op_name="jit(train_step)/integer_pow" stack_frame_id=0}
  %constant.1213.clone.1 = f32[]{:T(128)} constant(0.05)
  %broadcast.665.clone.1 = f32[1024,4,8,128]{3,2,1,0:T(8,128)} broadcast(%constant.1213.clone.1), dimensions={}, metadata={op_name="broadcast.58"}
  %mul.1592.clone.1 = f32[1024,4,8,128]{3,2,1,0:T(8,128)} multiply(%integer_pow.65.clone.1, %broadcast.665.clone.1), metadata={op_name="jit(train_step)/mul" stack_frame_id=0}
  %param_4.454 = f32[1024,4,8,128]{3,2,1,0:T(8,128)S(1)} parameter(4)
  %constant.1212.clone.1 = f32[]{:T(128)} constant(0.95)
  %broadcast.664.clone.1 = f32[1024,4,8,128]{3,2,1,0:T(8,128)} broadcast(%constant.1212.clone.1), dimensions={}, metadata={op_name="broadcast.57"}
  %mul.1591.clone.1 = f32[1024,4,8,128]{3,2,1,0:T(8,128)} multiply(%param_4.454, %broadcast.664.clone.1), metadata={op_name="jit(train_step)/mul" stack_frame_id=0}
  %add.830.clone.1 = f32[1024,4,8,128]{3,2,1,0:T(8,128)S(1)} add(%mul.1592.clone.1, %mul.1591.clone.1), metadata={op_name="jit(train_step)/add" stack_frame_id=0}
  %param_1.1411 = f32[]{:T(128)S(6)} parameter(1)
  %div.774.clone.1 = f32[1024,4,8,128]{3,2,1,0:T(8,128)} broadcast(%param_1.1411), dimensions={}, metadata={op_name="jit(train_step)/div" stack_frame_id=0}
  %div.773.clone.1 = f32[1024,4,8,128]{3,2,1,0:T(8,128)} divide(%add.830.clone.1, %div.774.clone.1), metadata={op_name="jit(train_step)/div" stack_frame_id=0}
  %sqrt.63.clone.1 = f32[1024,4,8,128]{3,2,1,0:T(8,128)} sqrt(%div.773.clone.1), metadata={op_name="jit(train_step)/sqrt" stack_frame_id=0}
  %constant.1211.clone.1 = f32[]{:T(128)} constant(1e-08)
  %broadcast.662.clone.1 = f32[1024,4,8,128]{3,2,1,0:T(8,128)} broadcast(%constant.1211.clone.1), dimensions={}, metadata={op_name="broadcast.54"}
  %add.829.clone.1 = f32[1024,4,8,128]{3,2,1,0:T(8,128)} add(%sqrt.63.clone.1, %broadcast.662.clone.1), metadata={op_name="jit(train_step)/add" stack_frame_id=0}
  %multiply.282.clone.1 = f32[1024,4,8,128]{3,2,1,0:T(8,128)} multiply(%div.775.clone.1, %add.829.clone.1), metadata={op_name="multiply.39"}
  %div.772.clone.1 = f32[1024,4,8,128]{3,2,1,0:T(8,128)} divide(%add.831.clone.1, %multiply.282.clone.1), metadata={op_name="jit(train_step)/div" stack_frame_id=0}
  %mul.1589.clone.1 = f32[1024,4,8,128]{3,2,1,0:T(8,128)} multiply(%param_0.1269, %broadcast.667.clone.1), metadata={op_name="jit(train_step)/mul" stack_frame_id=0}
  %add.828.clone.1 = f32[1024,4,8,128]{3,2,1,0:T(8,128)} add(%div.772.clone.1, %mul.1589.clone.1), metadata={op_name="jit(train_step)/add" stack_frame_id=0}
  %mul.1588.clone.1 = f32[1024,4,8,128]{3,2,1,0:T(8,128)} multiply(%mul.1590.clone.1, %add.828.clone.1), metadata={op_name="jit(train_step)/mul" stack_frame_id=0}
  %add.827.clone.1 = f32[1024,4,8,128]{3,2,1,0:T(8,128)S(1)} add(%param_0.1269, %mul.1588.clone.1), metadata={op_name="jit(train_step)/add" stack_frame_id=0}
  %square.189 = f32[1024,4,8,128]{3,2,1,0:T(8,128)} multiply(%add.827.clone.1, %add.827.clone.1), metadata={op_name="jit(train_step)/square" stack_frame_id=0}
  %constant.1257 = f32[]{:T(128)} constant(0)
  %reduce.156 = f32[]{:T(128)} reduce(%square.189, %constant.1257), dimensions={0,1,2,3}, to_apply=%region_55.60, metadata={op_name="jit(train_step)/reduce_sum" stack_frame_id=0}
  %reduce.158.clone.1 = f32[]{:T(128)} reduce(%integer_pow.65.clone.1, %constant.1257), dimensions={0,1,2,3}, to_apply=%region_41.46, metadata={op_name="jit(train_step)/reduce_sum" stack_frame_id=0}
  ROOT %tuple.141 = (f32[]{:T(128)}, f32[1024,4,8,128]{3,2,1,0:T(8,128)S(1)}, f32[1024,4,8,128]{3,2,1,0:T(8,128)S(1)}, f32[1024,4,8,128]{3,2,1,0:T(8,128)}, f32[]{:T(128)}) tuple(%reduce.156, %add.827.clone.1, %add.830.clone.1, %add.831.clone.1, %reduce.158.clone.1)
}

%region_52.57 (reduce_sum.304: f32[], reduce_sum.308: f32[]) -> f32[] {
  %reduce_sum.304 = f32[]{:T(128)} parameter(0), metadata={op_name="jit(train_step)/reduce_sum"}
  %reduce_sum.308 = f32[]{:T(128)} parameter(1), metadata={op_name="jit(train_step)/reduce_sum"}
  ROOT %reduce_sum.309 = f32[]{:T(128)} add(%reduce_sum.304, %reduce_sum.308), metadata={op_name="jit(train_step)/reduce_sum" stack_frame_id=0}, backend_config={"flag_configs":[],"scoped_memory_configs":[],"used_scoped_memory_configs":[],"aliasing_operands":{"lists":[]}}
}

%region_38.43 (reduce_sum.232: f32[], reduce_sum.233: f32[]) -> f32[] {
  %reduce_sum.232 = f32[]{:T(128)} parameter(0), metadata={op_name="jit(train_step)/reduce_sum"}
  %reduce_sum.233 = f32[]{:T(128)} parameter(1), metadata={op_name="jit(train_step)/reduce_sum"}
  ROOT %reduce_sum.234 = f32[]{:T(128)} add(%reduce_sum.232, %reduce_sum.233), metadata={op_name="jit(train_step)/reduce_sum" stack_frame_id=0}, backend_config={"flag_configs":[],"scoped_memory_configs":[],"used_scoped_memory_configs":[],"aliasing_operands":{"lists":[]}}
}

%fused_computation.335 (param_0.1272: f32[1024,4,8,128], param_1.1414: f32[], param_2.1098: f32[], param_3.740: f32[], param_4.457: f32[1024,4,8,128], param_5.403: f32[], param_6.258: f32[4,1024,8,128], param_7.174: pred[], param_8.103: f32[1024,4,8,128]) -> (f32[], f32[1024,4,8,128], f32[1024,4,8,128], f32[1024,4,8,128], f32[]) {
  %param_0.1272 = f32[1024,4,8,128]{3,2,1,0:T(8,128)S(1)} parameter(0)
  %param_3.740 = f32[]{:T(128)S(6)} parameter(3)
  %mul.1617.clone.1 = f32[1024,4,8,128]{3,2,1,0:T(8,128)} broadcast(%param_3.740), dimensions={}, metadata={op_name="jit(train_step)/mul" stack_frame_id=0}
  %param_7.174 = pred[]{:T(512)S(6)} parameter(7)
  %select_n.274.clone.1 = pred[1024,4,8,128]{3,2,1,0:T(8,128)(4,1)} broadcast(%param_7.174), dimensions={}, metadata={op_name="jit(train_step)/select_n" stack_frame_id=0}
  %param_6.258 = f32[4,1024,8,128]{3,2,0,1:T(8,128)S(1)} parameter(6)
  %bitcast.621.clone.1 = f32[1024,4,8,128]{3,2,1,0:T(8,128)} bitcast(%param_6.258), metadata={op_name="jit(train_step)/transpose(jvp())/transpose" stack_frame_id=0}
  %param_5.403 = f32[]{:T(128)} parameter(5)
  %div.803.clone.1 = f32[1024,4,8,128]{3,2,1,0:T(8,128)} broadcast(%param_5.403), dimensions={}, metadata={op_name="jit(train_step)/div" stack_frame_id=0}
  %div.802.clone.1 = f32[1024,4,8,128]{3,2,1,0:T(8,128)} divide(%bitcast.621.clone.1, %div.803.clone.1), metadata={op_name="jit(train_step)/div" stack_frame_id=0}
  %select_n.273.clone.1 = f32[1024,4,8,128]{3,2,1,0:T(8,128)} select(%select_n.274.clone.1, %bitcast.621.clone.1, %div.802.clone.1), metadata={op_name="jit(train_step)/select_n" stack_frame_id=0}
  %constant.1228.clone.1 = f32[]{:T(128)} constant(0.1)
  %broadcast.677.clone.1 = f32[1024,4,8,128]{3,2,1,0:T(8,128)} broadcast(%constant.1228.clone.1), dimensions={}, metadata={op_name="broadcast.68"}
  %mul.1621.clone.1 = f32[1024,4,8,128]{3,2,1,0:T(8,128)} multiply(%select_n.273.clone.1, %broadcast.677.clone.1), metadata={op_name="jit(train_step)/mul" stack_frame_id=0}
  %param_8.103 = f32[1024,4,8,128]{3,2,1,0:T(8,128)} parameter(8)
  %constant.1232.clone.1 = f32[]{:T(128)} constant(0.9)
  %broadcast.676.clone.1 = f32[1024,4,8,128]{3,2,1,0:T(8,128)} broadcast(%constant.1232.clone.1), dimensions={}, metadata={op_name="broadcast.67"}
  %mul.1620.clone.1 = f32[1024,4,8,128]{3,2,1,0:T(8,128)} multiply(%param_8.103, %broadcast.676.clone.1), metadata={op_name="jit(train_step)/mul" stack_frame_id=0}
  %add.848.clone.1 = f32[1024,4,8,128]{3,2,1,0:T(8,128)} add(%mul.1621.clone.1, %mul.1620.clone.1), metadata={op_name="jit(train_step)/add" stack_frame_id=0}
  %param_2.1098 = f32[]{:T(128)S(6)} parameter(2)
  %div.799.clone.1 = f32[1024,4,8,128]{3,2,1,0:T(8,128)} broadcast(%param_2.1098), dimensions={}, metadata={op_name="jit(train_step)/div" stack_frame_id=0}
  %integer_pow.68.clone.1 = f32[1024,4,8,128]{3,2,1,0:T(8,128)} multiply(%select_n.273.clone.1, %select_n.273.clone.1), metadata={op_name="jit(train_step)/integer_pow" stack_frame_id=0}
  %constant.1231.clone.1 = f32[]{:T(128)} constant(0.05)
  %broadcast.675.clone.1 = f32[1024,4,8,128]{3,2,1,0:T(8,128)} broadcast(%constant.1231.clone.1), dimensions={}, metadata={op_name="broadcast.58"}
  %mul.1619.clone.1 = f32[1024,4,8,128]{3,2,1,0:T(8,128)} multiply(%integer_pow.68.clone.1, %broadcast.675.clone.1), metadata={op_name="jit(train_step)/mul" stack_frame_id=0}
  %param_4.457 = f32[1024,4,8,128]{3,2,1,0:T(8,128)S(1)} parameter(4)
  %constant.1230.clone.1 = f32[]{:T(128)} constant(0.95)
  %broadcast.674.clone.1 = f32[1024,4,8,128]{3,2,1,0:T(8,128)} broadcast(%constant.1230.clone.1), dimensions={}, metadata={op_name="broadcast.57"}
  %mul.1618.clone.1 = f32[1024,4,8,128]{3,2,1,0:T(8,128)} multiply(%param_4.457, %broadcast.674.clone.1), metadata={op_name="jit(train_step)/mul" stack_frame_id=0}
  %add.847.clone.1 = f32[1024,4,8,128]{3,2,1,0:T(8,128)S(1)} add(%mul.1619.clone.1, %mul.1618.clone.1), metadata={op_name="jit(train_step)/add" stack_frame_id=0}
  %param_1.1414 = f32[]{:T(128)S(6)} parameter(1)
  %div.798.clone.1 = f32[1024,4,8,128]{3,2,1,0:T(8,128)} broadcast(%param_1.1414), dimensions={}, metadata={op_name="jit(train_step)/div" stack_frame_id=0}
  %div.797.clone.1 = f32[1024,4,8,128]{3,2,1,0:T(8,128)} divide(%add.847.clone.1, %div.798.clone.1), metadata={op_name="jit(train_step)/div" stack_frame_id=0}
  %sqrt.66.clone.1 = f32[1024,4,8,128]{3,2,1,0:T(8,128)} sqrt(%div.797.clone.1), metadata={op_name="jit(train_step)/sqrt" stack_frame_id=0}
  %constant.1229.clone.1 = f32[]{:T(128)} constant(1e-08)
  %broadcast.672.clone.1 = f32[1024,4,8,128]{3,2,1,0:T(8,128)} broadcast(%constant.1229.clone.1), dimensions={}, metadata={op_name="broadcast.54"}
  %add.846.clone.1 = f32[1024,4,8,128]{3,2,1,0:T(8,128)} add(%sqrt.66.clone.1, %broadcast.672.clone.1), metadata={op_name="jit(train_step)/add" stack_frame_id=0}
  %multiply.285.clone.1 = f32[1024,4,8,128]{3,2,1,0:T(8,128)} multiply(%div.799.clone.1, %add.846.clone.1), metadata={op_name="multiply.36"}
  %div.796.clone.1 = f32[1024,4,8,128]{3,2,1,0:T(8,128)} divide(%add.848.clone.1, %multiply.285.clone.1), metadata={op_name="jit(train_step)/div" stack_frame_id=0}
  %mul.1616.clone.1 = f32[1024,4,8,128]{3,2,1,0:T(8,128)} multiply(%param_0.1272, %broadcast.677.clone.1), metadata={op_name="jit(train_step)/mul" stack_frame_id=0}
  %add.845.clone.1 = f32[1024,4,8,128]{3,2,1,0:T(8,128)} add(%div.796.clone.1, %mul.1616.clone.1), metadata={op_name="jit(train_step)/add" stack_frame_id=0}
  %mul.1615.clone.1 = f32[1024,4,8,128]{3,2,1,0:T(8,128)} multiply(%mul.1617.clone.1, %add.845.clone.1), metadata={op_name="jit(train_step)/mul" stack_frame_id=0}
  %add.844.clone.1 = f32[1024,4,8,128]{3,2,1,0:T(8,128)S(1)} add(%param_0.1272, %mul.1615.clone.1), metadata={op_name="jit(train_step)/add" stack_frame_id=0}
  %square.190 = f32[1024,4,8,128]{3,2,1,0:T(8,128)} multiply(%add.844.clone.1, %add.844.clone.1), metadata={op_name="jit(train_step)/square" stack_frame_id=0}
  %constant.1260 = f32[]{:T(128)} constant(0)
  %reduce.157 = f32[]{:T(128)} reduce(%square.190, %constant.1260), dimensions={0,1,2,3}, to_apply=%region_52.57, metadata={op_name="jit(train_step)/reduce_sum" stack_frame_id=0}
  %reduce.159.clone.1 = f32[]{:T(128)} reduce(%integer_pow.68.clone.1, %constant.1260), dimensions={0,1,2,3}, to_apply=%region_38.43, metadata={op_name="jit(train_step)/reduce_sum" stack_frame_id=0}
  ROOT %tuple.142 = (f32[]{:T(128)}, f32[1024,4,8,128]{3,2,1,0:T(8,128)S(1)}, f32[1024,4,8,128]{3,2,1,0:T(8,128)S(1)}, f32[1024,4,8,128]{3,2,1,0:T(8,128)}, f32[]{:T(128)}) tuple(%reduce.157, %add.844.clone.1, %add.847.clone.1, %add.848.clone.1, %reduce.159.clone.1)
}

%fused_computation.351 (param_0.1002: bf16[1,128,4096], param_1.1053: f32[128], param_2.700: f32[128], param_3.393: bf16[1,128,4096], param_4.231: bf16[4096]) -> bf16[1,128,4096] {
  %param_3.393 = bf16[1,128,4096]{2,1,0:T(8,128)(2,1)S(1)} parameter(3)
  %param_4.231 = bf16[4096]{0:T(1024)(128)(2,1)S(1)} parameter(4)
  %dot_general.398 = bf16[1,128,4096]{2,1,0:T(8,128)(2,1)} broadcast(%param_4.231), dimensions={2}, metadata={op_name="jit(train_step)/jvp(...k,k->...k)/dot_general" stack_frame_id=0}
  %dot_general.384 = bf16[1,128,4096]{2,1,0:T(8,128)(2,1)} multiply(%param_3.393, %dot_general.398), metadata={op_name="jit(train_step)/transpose(jvp(...k,k->...k))/dot_general" stack_frame_id=0}
  %convert_element_type.899 = f32[1,128,4096]{2,1,0:T(8,128)} convert(%dot_general.384), metadata={op_name="jit(train_step)/transpose(jvp())/convert_element_type" stack_frame_id=0}
  %param_2.700 = f32[128]{0:T(128)S(1)} parameter(2)
  %mul.1467 = f32[1,128,4096]{2,1,0:T(8,128)} broadcast(%param_2.700), dimensions={1}, metadata={op_name="jit(train_step)/jvp()/mul" stack_frame_id=0}
  %mul.1459 = f32[1,128,4096]{2,1,0:T(8,128)} multiply(%convert_element_type.899, %mul.1467), metadata={op_name="jit(train_step)/transpose(jvp())/mul" stack_frame_id=0}
  %param_0.1002 = bf16[1,128,4096]{2,1,0:T(8,128)(2,1)S(1)} parameter(0)
  %convert_element_type.910 = f32[1,128,4096]{2,1,0:T(8,128)} convert(%param_0.1002), metadata={op_name="jit(train_step)/jvp()/convert_element_type" stack_frame_id=0}
  %param_1.1053 = f32[128]{0:T(128)S(1)} parameter(1)
  %mul.1466 = f32[1,128,4096]{2,1,0:T(8,128)} broadcast(%param_1.1053), dimensions={1}, metadata={op_name="jit(train_step)/transpose(jvp())/mul" stack_frame_id=0}
  %mul.1465 = f32[1,128,4096]{2,1,0:T(8,128)} multiply(%convert_element_type.910, %mul.1466), metadata={op_name="jit(train_step)/transpose(jvp())/mul" stack_frame_id=0}
  %add_any.153 = f32[1,128,4096]{2,1,0:T(8,128)} add(%mul.1459, %mul.1465), metadata={op_name="jit(train_step)/transpose(jvp())/add_any" stack_frame_id=0}
  ROOT %convert_element_type.897 = bf16[1,128,4096]{2,1,0:T(8,128)(2,1)} convert(%add_any.153), metadata={op_name="jit(train_step)/transpose(jvp())/convert_element_type" stack_frame_id=0}
}

%region_5.8 (reduce_sum.87: f32[], reduce_sum.88: f32[]) -> f32[] {
  %reduce_sum.87 = f32[]{:T(128)} parameter(0), metadata={op_name="jit(train_step)/jvp()/reduce_sum"}
  %reduce_sum.88 = f32[]{:T(128)} parameter(1), metadata={op_name="jit(train_step)/jvp()/reduce_sum"}
  ROOT %reduce_sum.92 = f32[]{:T(128)} add(%reduce_sum.87, %reduce_sum.88), metadata={op_name="jit(train_step)/jvp()/reduce_sum" stack_frame_id=0}, backend_config={"flag_configs":[],"scoped_memory_configs":[],"used_scoped_memory_configs":[],"aliasing_operands":{"lists":[]}}
}

%fused_computation.352 (param_0.1293: bf16[1,128,4096]) -> f32[128] {
  %param_0.1293 = bf16[1,128,4096]{2,1,0:T(8,128)(2,1)} parameter(0)
  %convert_element_type.901 = f32[1,128,4096]{2,1,0:T(8,128)} convert(%param_0.1293), metadata={op_name="jit(train_step)/jvp()/convert_element_type" stack_frame_id=0}
  %square.193 = f32[1,128,4096]{2,1,0:T(8,128)} multiply(%convert_element_type.901, %convert_element_type.901), metadata={op_name="jit(train_step)/jvp()/square" stack_frame_id=0}
  %constant.1282 = f32[]{:T(128)} constant(0)
  ROOT %reduce.160 = f32[128]{0:T(128)S(1)} reduce(%square.193, %constant.1282), dimensions={0,2}, to_apply=%region_5.8, metadata={op_name="jit(train_step)/jvp()/reduce_sum" stack_frame_id=0}
}

%region_10.13 (reduce_sum.102: f32[], reduce_sum.106: f32[]) -> f32[] {
  %reduce_sum.102 = f32[]{:T(128)} parameter(0), metadata={op_name="jit(train_step)/transpose(jvp())/reduce_sum"}
  %reduce_sum.106 = f32[]{:T(128)} parameter(1), metadata={op_name="jit(train_step)/transpose(jvp())/reduce_sum"}
  ROOT %reduce_sum.107 = f32[]{:T(128)} add(%reduce_sum.102, %reduce_sum.106), metadata={op_name="jit(train_step)/transpose(jvp())/reduce_sum" stack_frame_id=0}, backend_config={"flag_configs":[],"scoped_memory_configs":[],"used_scoped_memory_configs":[],"aliasing_operands":{"lists":[]}}
}

%fused_computation.354 (param_0.1288: bf16[1,128,4096], param_1.1423: bf16[1,128,4096], param_2.1105: bf16[4096]) -> f32[128] {
  %param_0.1288 = bf16[1,128,4096]{2,1,0:T(8,128)(2,1)S(1)} parameter(0)
  %convert_element_type.908 = f32[1,128,4096]{2,1,0:T(8,128)} convert(%param_0.1288), metadata={op_name="jit(train_step)/jvp()/convert_element_type" stack_frame_id=0}
  %param_1.1423 = bf16[1,128,4096]{2,1,0:T(8,128)(2,1)S(1)} parameter(1)
  %param_2.1105 = bf16[4096]{0:T(1024)(128)(2,1)S(1)} parameter(2)
  %dot_general.397 = bf16[1,128,4096]{2,1,0:T(8,128)(2,1)} broadcast(%param_2.1105), dimensions={2}, metadata={op_name="jit(train_step)/jvp(...k,k->...k)/dot_general" stack_frame_id=0}
  %dot_general.383 = bf16[1,128,4096]{2,1,0:T(8,128)(2,1)} multiply(%param_1.1423, %dot_general.397), metadata={op_name="jit(train_step)/transpose(jvp(...k,k->...k))/dot_general" stack_frame_id=0}
  %convert_element_type.907 = f32[1,128,4096]{2,1,0:T(8,128)} convert(%dot_general.383), metadata={op_name="jit(train_step)/transpose(jvp())/convert_element_type" stack_frame_id=0}
  %mul.1463 = f32[1,128,4096]{2,1,0:T(8,128)} multiply(%convert_element_type.908, %convert_element_type.907), metadata={op_name="jit(train_step)/transpose(jvp())/mul" stack_frame_id=0}
  %constant.1276 = f32[]{:T(128)} constant(0)
  ROOT %reduce.161 = f32[128]{0:T(128)S(1)} reduce(%mul.1463, %constant.1276), dimensions={0,2}, to_apply=%region_10.13, metadata={op_name="jit(train_step)/transpose(jvp())/reduce_sum" stack_frame_id=0}
}

%fused_computation.356 (param_0.1017: bf16[4096], param_1.1071: f32[128], param_2.708: bf16[1,128,4096]) -> bf16[128,4096] {
  %param_0.1017 = bf16[4096]{0:T(1024)(128)(2,1)S(1)} parameter(0)
  %dot_general.396 = bf16[1,128,4096]{2,1,0:T(8,128)(2,1)} broadcast(%param_0.1017), dimensions={2}, metadata={op_name="jit(train_step)/jvp(...k,k->...k)/dot_general" stack_frame_id=0}
  %param_2.708 = bf16[1,128,4096]{2,1,0:T(8,128)(2,1)S(1)} parameter(2)
  %convert_element_type.916 = f32[1,128,4096]{2,1,0:T(8,128)} convert(%param_2.708), metadata={op_name="jit(train_step)/jvp()/convert_element_type" stack_frame_id=0}
  %param_1.1071 = f32[128]{0:T(128)S(1)} parameter(1)
  %mul.1474 = f32[1,128,4096]{2,1,0:T(8,128)} broadcast(%param_1.1071), dimensions={1}, metadata={op_name="jit(train_step)/jvp()/mul" stack_frame_id=0}
  %mul.1473 = f32[1,128,4096]{2,1,0:T(8,128)} multiply(%convert_element_type.916, %mul.1474), metadata={op_name="jit(train_step)/jvp()/mul" stack_frame_id=0}
  %convert_element_type.915 = bf16[1,128,4096]{2,1,0:T(8,128)(2,1)} convert(%mul.1473), metadata={op_name="jit(train_step)/jvp()/convert_element_type" stack_frame_id=0}
  %dot_general.388 = bf16[1,128,4096]{2,1,0:T(8,128)(2,1)} multiply(%dot_general.396, %convert_element_type.915), metadata={op_name="jit(train_step)/jvp(...k,k->...k)/dot_general" stack_frame_id=0}
  ROOT %bitcast.547 = bf16[128,4096]{1,0:T(8,128)(2,1)} bitcast(%dot_general.388)
}

%fused_computation.326.clone (param_0.1178: bf16[128,128256], param_1.1300: f32[128], param_2.923: f32[128], param_3.557: bf16[128], param_4.307: s32[128], param_5.257: f32[128]) -> bf16[128,128256] {
  %param_5.257 = f32[128]{0:T(128)S(1)} parameter(5)
  %mul.1539 = f32[1,128,128256]{2,1,0:T(8,128)} broadcast(%param_5.257), dimensions={1}, metadata={op_name="jit(train_step)/transpose(jvp())/mul" stack_frame_id=0}
  %param_1.1300 = f32[128]{0:T(128)S(1)} parameter(1)
  %mul.1538 = f32[1,128,128256]{2,1,0:T(8,128)} broadcast(%param_1.1300), dimensions={1}, metadata={op_name="jit(train_step)/transpose(jvp())/mul" stack_frame_id=0}
  %param_0.1178 = bf16[128,128256]{1,0:T(8,128)(2,1)S(1)} parameter(0)
  %convert_element_type.947 = f32[128,128256]{1,0:T(8,128)} convert(%param_0.1178), metadata={op_name="jit(train_step)/jvp()/convert_element_type" stack_frame_id=0}
  %bitcast.589 = f32[1,128,128256]{2,1,0:T(8,128)} bitcast(%convert_element_type.947), metadata={op_name="jit(train_step)/jvp()/convert_element_type" stack_frame_id=0}
  %param_3.557 = bf16[128]{0:T(256)(128)(2,1)S(1)} parameter(3)
  %sub.103 = f32[1,128,128256]{2,1,0:T(8,128)} broadcast(%param_3.557), dimensions={1}, metadata={op_name="jit(train_step)/jvp()/sub" stack_frame_id=0}
  %sub.102 = f32[1,128,128256]{2,1,0:T(8,128)} subtract(%bitcast.589, %sub.103), metadata={op_name="jit(train_step)/jvp()/sub" stack_frame_id=0}
  %exp.67 = f32[1,128,128256]{2,1,0:T(8,128)} exponential(%sub.102), metadata={op_name="jit(train_step)/jvp()/exp" stack_frame_id=0}
  %mul.1537 = f32[1,128,128256]{2,1,0:T(8,128)} multiply(%mul.1538, %exp.67), metadata={op_name="jit(train_step)/transpose(jvp())/mul" stack_frame_id=0}
  %param_2.923 = f32[128]{0:T(128)S(1)} parameter(2)
  %div.693 = f32[1,128,128256]{2,1,0:T(8,128)} broadcast(%param_2.923), dimensions={1}, metadata={op_name="jit(train_step)/transpose(jvp())/div" stack_frame_id=0}
  %div.692 = f32[1,128,128256]{2,1,0:T(8,128)} divide(%mul.1537, %div.693), metadata={op_name="jit(train_step)/transpose(jvp())/div" stack_frame_id=0}
  %param_4.307 = s32[128]{0:T(128)S(1)} parameter(4)
  %eq.29 = s32[1,128,128256]{2,1,0:T(8,128)} broadcast(%param_4.307), dimensions={1}, metadata={op_name="jit(train_step)/jvp(jit(_one_hot))/eq" stack_frame_id=0}
  %iota.57 = s32[1,128,128256]{2,1,0:T(8,128)} iota(), iota_dimension=2, metadata={op_name="jit(train_step)/jvp(jit(_one_hot))/eq" stack_frame_id=0}
  %eq.28 = pred[1,128,128256]{2,1,0:T(8,128)(4,1)} compare(%eq.29, %iota.57), direction=EQ, metadata={op_name="jit(train_step)/jvp(jit(_one_hot))/eq" stack_frame_id=0}
  %convert_element_type.946 = f32[1,128,128256]{2,1,0:T(8,128)} convert(%eq.28), metadata={op_name="jit(train_step)/jvp(jit(_one_hot))/convert_element_type" stack_frame_id=0}
  %sub.101 = f32[1,128,128256]{2,1,0:T(8,128)} subtract(%div.692, %convert_element_type.946), metadata={op_name="jit(train_step)/transpose(jvp())/sub" stack_frame_id=0}
  %mul.1536 = f32[1,128,128256]{2,1,0:T(8,128)} multiply(%mul.1539, %sub.101), metadata={op_name="jit(train_step)/transpose(jvp())/mul" stack_frame_id=0}
  %convert_element_type.945 = bf16[1,128,128256]{2,1,0:T(8,128)(2,1)} convert(%mul.1536), metadata={op_name="jit(train_step)/transpose(jvp())/convert_element_type" stack_frame_id=0}
  ROOT %bitcast.588 = bf16[128,128256]{1,0:T(8,128)(2,1)} bitcast(%convert_element_type.945)
}

%fused_computation.355 (param_0.1179: bf16[4096], param_1.1301: bf16[1,128,4096], param_2.924: f32[128], param_3.558: bf16[128,128256], param_4.308: f32[128], param_5.258: f32[128], param_6.118: bf16[128], param_7.74: s32[128], param_8: f32[128]) -> bf16[4096,128256] {
  %param_0.1179 = bf16[4096]{0:T(1024)(128)(2,1)S(1)} parameter(0)
  %param_2.924 = f32[128]{0:T(128)S(1)} parameter(2)
  %param_1.1301 = bf16[1,128,4096]{2,1,0:T(8,128)(2,1)S(1)} parameter(1)
  %fusion.298 = bf16[128,4096]{1,0:T(8,128)(2,1)} fusion(%param_0.1179, %param_2.924, %param_1.1301), kind=kLoop, calls=%fused_computation.356
  %param_3.558 = bf16[128,128256]{1,0:T(8,128)(2,1)S(1)} parameter(3)
  %param_4.308 = f32[128]{0:T(128)S(1)} parameter(4)
  %param_5.258 = f32[128]{0:T(128)S(1)} parameter(5)
  %param_6.118 = bf16[128]{0:T(256)(128)(2,1)S(1)} parameter(6)
  %param_7.74 = s32[128]{0:T(128)S(1)} parameter(7)
  %param_8 = f32[128]{0:T(128)S(1)} parameter(8)
  %fusion.319 = bf16[128,128256]{1,0:T(8,128)(2,1)} fusion(%param_3.558, %param_4.308, %param_5.258, %param_6.118, %param_7.74, /*index=5*/%param_8), kind=kLoop, calls=%fused_computation.326.clone
  ROOT %convolution.118 = bf16[4096,128256]{1,0:T(8,128)(2,1)} convolution(%fusion.298, %fusion.319), dim_labels=fb_io->bf, metadata={op_name="jit(train_step)/transpose(jvp())/dot_general" stack_frame_id=0}
}

%region_8.11 (dot_general.182: bf16[], dot_general.183: bf16[]) -> bf16[] {
  %dot_general.182 = bf16[]{:T(256)} parameter(0), metadata={op_name="jit(train_step)/transpose(jvp(...k,k->...k))/dot_general"}
  %dot_general.183 = bf16[]{:T(256)} parameter(1), metadata={op_name="jit(train_step)/transpose(jvp(...k,k->...k))/dot_general"}
  ROOT %add.165 = bf16[]{:T(256)} add(%dot_general.182, %dot_general.183), metadata={op_name="add.51"}, backend_config={"flag_configs":[],"scoped_memory_configs":[],"used_scoped_memory_configs":[],"aliasing_operands":{"lists":[]}}
}

%fused_computation.326.clone.1.clone.clone (param_0.1263: bf16[128,128256], param_1.1407: f32[128], param_2.1084: f32[128], param_3.732: bf16[128], param_4.450: s32[128], param_5.396: f32[128]) -> bf16[128,128256] {
  %param_5.396 = f32[128]{0:T(128)S(1)} parameter(5)
  %mul.1667 = f32[1,128,128256]{2,1,0:T(8,128)} broadcast(%param_5.396), dimensions={1}, metadata={op_name="jit(train_step)/transpose(jvp())/mul" stack_frame_id=0}
  %param_1.1407 = f32[128]{0:T(128)S(1)} parameter(1)
  %mul.1666 = f32[1,128,128256]{2,1,0:T(8,128)} broadcast(%param_1.1407), dimensions={1}, metadata={op_name="jit(train_step)/transpose(jvp())/mul" stack_frame_id=0}
  %param_0.1263 = bf16[128,128256]{1,0:T(8,128)(2,1)S(1)} parameter(0)
  %convert_element_type.966 = f32[128,128256]{1,0:T(8,128)} convert(%param_0.1263), metadata={op_name="jit(train_step)/jvp()/convert_element_type" stack_frame_id=0}
  %bitcast.653 = f32[1,128,128256]{2,1,0:T(8,128)} bitcast(%convert_element_type.966), metadata={op_name="jit(train_step)/jvp()/convert_element_type" stack_frame_id=0}
  %param_3.732 = bf16[128]{0:T(256)(128)(2,1)S(1)} parameter(3)
  %sub.114 = f32[1,128,128256]{2,1,0:T(8,128)} broadcast(%param_3.732), dimensions={1}, metadata={op_name="jit(train_step)/jvp()/sub" stack_frame_id=0}
  %sub.113 = f32[1,128,128256]{2,1,0:T(8,128)} subtract(%bitcast.653, %sub.114), metadata={op_name="jit(train_step)/jvp()/sub" stack_frame_id=0}
  %exp.72 = f32[1,128,128256]{2,1,0:T(8,128)} exponential(%sub.113), metadata={op_name="jit(train_step)/jvp()/exp" stack_frame_id=0}
  %mul.1665 = f32[1,128,128256]{2,1,0:T(8,128)} multiply(%mul.1666, %exp.72), metadata={op_name="jit(train_step)/transpose(jvp())/mul" stack_frame_id=0}
  %param_2.1084 = f32[128]{0:T(128)S(1)} parameter(2)
  %div.833 = f32[1,128,128256]{2,1,0:T(8,128)} broadcast(%param_2.1084), dimensions={1}, metadata={op_name="jit(train_step)/transpose(jvp())/div" stack_frame_id=0}
  %div.832 = f32[1,128,128256]{2,1,0:T(8,128)} divide(%mul.1665, %div.833), metadata={op_name="jit(train_step)/transpose(jvp())/div" stack_frame_id=0}
  %param_4.450 = s32[128]{0:T(128)S(1)} parameter(4)
  %eq.35 = s32[1,128,128256]{2,1,0:T(8,128)} broadcast(%param_4.450), dimensions={1}, metadata={op_name="jit(train_step)/jvp(jit(_one_hot))/eq" stack_frame_id=0}
  %iota.60 = s32[1,128,128256]{2,1,0:T(8,128)} iota(), iota_dimension=2, metadata={op_name="jit(train_step)/jvp(jit(_one_hot))/eq" stack_frame_id=0}
  %eq.34 = pred[1,128,128256]{2,1,0:T(8,128)(4,1)} compare(%eq.35, %iota.60), direction=EQ, metadata={op_name="jit(train_step)/jvp(jit(_one_hot))/eq" stack_frame_id=0}
  %convert_element_type.965 = f32[1,128,128256]{2,1,0:T(8,128)} convert(%eq.34), metadata={op_name="jit(train_step)/jvp(jit(_one_hot))/convert_element_type" stack_frame_id=0}
  %sub.112 = f32[1,128,128256]{2,1,0:T(8,128)} subtract(%div.832, %convert_element_type.965), metadata={op_name="jit(train_step)/transpose(jvp())/sub" stack_frame_id=0}
  %mul.1664 = f32[1,128,128256]{2,1,0:T(8,128)} multiply(%mul.1667, %sub.112), metadata={op_name="jit(train_step)/transpose(jvp())/mul" stack_frame_id=0}
  %convert_element_type.964 = bf16[1,128,128256]{2,1,0:T(8,128)(2,1)} convert(%mul.1664), metadata={op_name="jit(train_step)/transpose(jvp())/convert_element_type" stack_frame_id=0}
  ROOT %bitcast.652 = bf16[128,128256]{1,0:T(8,128)(2,1)} bitcast(%convert_element_type.964)
}

%bitcast_fusion.4 (bitcast_input.4: bf16[4096,128256]) -> bf16[4096,128256] {
  %bitcast_input.4 = bf16[4096,128256]{1,0:T(8,128)(2,1)} parameter(0)
  ROOT %bitcast.660 = bf16[4096,128256]{1,0:T(8,128)(2,1)} bitcast(%bitcast_input.4)
}

%fused_computation.359 (param_0.1262: f32[128], param_1.1406: bf16[1,128,4096], param_2.1085: bf16[4096,128256], param_3.733: bf16[128,128256], param_4.451: f32[128], param_5.397: f32[128], param_6.252: bf16[128], param_7.168: s32[128], param_8.97: f32[128]) -> (bf16[4096], bf16[1,128,4096]) {
  %param_3.733 = bf16[128,128256]{1,0:T(8,128)(2,1)S(1)} parameter(3)
  %param_4.451 = f32[128]{0:T(128)S(1)} parameter(4)
  %param_5.397 = f32[128]{0:T(128)S(1)} parameter(5)
  %param_6.252 = bf16[128]{0:T(256)(128)(2,1)S(1)} parameter(6)
  %param_7.168 = s32[128]{0:T(128)S(1)} parameter(7)
  %param_8.97 = f32[128]{0:T(128)S(1)} parameter(8)
  %fusion.320.clone.1 = bf16[128,128256]{1,0:T(8,128)(2,1)} fusion(%param_3.733, %param_4.451, %param_5.397, %param_6.252, %param_7.168, /*index=5*/%param_8.97), kind=kLoop, calls=%fused_computation.326.clone.1.clone.clone
  %param_2.1085 = bf16[4096,128256]{1,0:T(8,128)(2,1)} parameter(2)
  %fusion.332 = bf16[4096,128256]{1,0:T(8,128)(2,1)} fusion(%param_2.1085), kind=kLoop, calls=%bitcast_fusion.4
  %convolution.117.clone.1 = bf16[128,4096]{1,0:T(8,128)(2,1)} convolution(%fusion.320.clone.1, %fusion.332), dim_labels=bf_oi->bf, metadata={op_name="jit(train_step)/transpose(jvp())/dot_general" stack_frame_id=0}
  %bitcast.545.clone.1 = bf16[1,128,4096]{2,1,0:T(8,128)(2,1)S(1)} bitcast(%convolution.117.clone.1), metadata={op_name="jit(train_step)/transpose(jvp())/dot_general" stack_frame_id=0}
  %param_1.1406 = bf16[1,128,4096]{2,1,0:T(8,128)(2,1)S(1)} parameter(1)
  %convert_element_type.920 = f32[1,128,4096]{2,1,0:T(8,128)} convert(%param_1.1406), metadata={op_name="jit(train_step)/jvp()/convert_element_type" stack_frame_id=0}
  %param_0.1262 = f32[128]{0:T(128)S(1)} parameter(0)
  %mul.1478 = f32[1,128,4096]{2,1,0:T(8,128)} broadcast(%param_0.1262), dimensions={1}, metadata={op_name="jit(train_step)/jvp()/mul" stack_frame_id=0}
  %mul.1477 = f32[1,128,4096]{2,1,0:T(8,128)} multiply(%convert_element_type.920, %mul.1478), metadata={op_name="jit(train_step)/jvp()/mul" stack_frame_id=0}
  %convert_element_type.919 = bf16[1,128,4096]{2,1,0:T(8,128)(2,1)} convert(%mul.1477), metadata={op_name="jit(train_step)/jvp()/convert_element_type" stack_frame_id=0}
  %multiply.271 = bf16[1,128,4096]{2,1,0:T(8,128)(2,1)} multiply(%bitcast.545.clone.1, %convert_element_type.919), metadata={op_name="multiply.197"}
  %constant.1136 = bf16[]{:T(256)} constant(0)
  %reduce.162 = bf16[4096]{0:T(1024)(128)(2,1)S(1)} reduce(%multiply.271, %constant.1136), dimensions={0,1}, to_apply=%region_8.11, metadata={op_name="jit(train_step)/transpose(jvp(...k,k->...k))/dot_general" stack_frame_id=0}
  ROOT %tuple.153 = (bf16[4096]{0:T(1024)(128)(2,1)S(1)}, bf16[1,128,4096]{2,1,0:T(8,128)(2,1)S(1)}) tuple(%reduce.162, %bitcast.545.clone.1)
}

%fused_computation.369 (param_0.1070: f32[128], param_1.1137: f32[64]) -> (bf16[1,128,1,64], bf16[1,128,1,64]) {
  %param_0.1070 = f32[128]{0:T(128)S(1)} parameter(0)
  %div.631 = f32[1,128,1,64]{3,1,2,0:T(8,128)} broadcast(%param_0.1070), dimensions={1}, metadata={op_name="jit(train_step)/div" stack_frame_id=0}
  %param_1.1137 = f32[64]{0:T(128)S(1)} parameter(1)
  %div.639 = f32[1,128,1,64]{3,1,2,0:T(8,128)} broadcast(%param_1.1137), dimensions={3}, metadata={op_name="jit(train_step)/div" stack_frame_id=0}
  %div.626 = f32[1,128,1,64]{3,1,2,0:T(8,128)} divide(%div.631, %div.639), metadata={op_name="jit(train_step)/div" stack_frame_id=0}
  %sin.38 = f32[1,128,1,64]{3,1,2,0:T(8,128)} sine(%div.626), metadata={op_name="jit(train_step)/sin" stack_frame_id=0}
  %convert_element_type.928 = bf16[1,128,1,64]{3,1,2,0:T(8,128)(2,1)S(1)} convert(%sin.38), metadata={op_name="jit(train_step)/convert_element_type" stack_frame_id=0}
  %cos.41.clone.1 = f32[1,128,1,64]{3,1,2,0:T(8,128)} cosine(%div.626), metadata={op_name="jit(train_step)/cos" stack_frame_id=0}
  %convert_element_type.927.clone.1 = bf16[1,128,1,64]{3,1,2,0:T(8,128)(2,1)S(1)} convert(%cos.41.clone.1), metadata={op_name="jit(train_step)/convert_element_type" stack_frame_id=0}
  ROOT %tuple.148 = (bf16[1,128,1,64]{3,1,2,0:T(8,128)(2,1)S(1)}, bf16[1,128,1,64]{3,1,2,0:T(8,128)(2,1)S(1)}) tuple(%convert_element_type.928, %convert_element_type.927.clone.1)
}

%region_24.29 (reduce_sum.163: f32[], reduce_sum.164: f32[]) -> f32[] {
  %reduce_sum.163 = f32[]{:T(128)} parameter(0), metadata={op_name="jit(train_step)/reduce_sum"}
  %reduce_sum.164 = f32[]{:T(128)} parameter(1), metadata={op_name="jit(train_step)/reduce_sum"}
  ROOT %reduce_sum.168 = f32[]{:T(128)} add(%reduce_sum.163, %reduce_sum.164), metadata={op_name="jit(train_step)/reduce_sum" stack_frame_id=0}, backend_config={"flag_configs":[],"scoped_memory_configs":[],"used_scoped_memory_configs":[],"aliasing_operands":{"lists":[]}}
}

%fused_computation.371 (param_0.1279: f32[4,4096]) -> f32[] {
  %param_0.1279 = f32[4,4096]{1,0:T(4,128)S(1)} parameter(0)
  %bitcast.553 = f32[4096,4]{0,1:T(4,128)} bitcast(%param_0.1279), metadata={op_name="jit(train_step)/transpose(jvp())/transpose" stack_frame_id=0}
  %square.196 = f32[4096,4]{0,1:T(4,128)} multiply(%bitcast.553, %bitcast.553), metadata={op_name="jit(train_step)/square" stack_frame_id=0}
  %constant.1267 = f32[]{:T(128)} constant(0)
  ROOT %reduce.163 = f32[]{:T(128)} reduce(%square.196, %constant.1267), dimensions={0,1}, to_apply=%region_24.29, metadata={op_name="jit(train_step)/reduce_sum" stack_frame_id=0}
}

%region_23.28 (reduce_sum.157: f32[], reduce_sum.161: f32[]) -> f32[] {
  %reduce_sum.157 = f32[]{:T(128)} parameter(0), metadata={op_name="jit(train_step)/reduce_sum"}
  %reduce_sum.161 = f32[]{:T(128)} parameter(1), metadata={op_name="jit(train_step)/reduce_sum"}
  ROOT %reduce_sum.162 = f32[]{:T(128)} add(%reduce_sum.157, %reduce_sum.161), metadata={op_name="jit(train_step)/reduce_sum" stack_frame_id=0}, backend_config={"flag_configs":[],"scoped_memory_configs":[],"used_scoped_memory_configs":[],"aliasing_operands":{"lists":[]}}
}

%fused_computation.373 (param_0.1280: f32[4,4096]) -> f32[] {
  %param_0.1280 = f32[4,4096]{1,0:T(4,128)S(1)} parameter(0)
  %bitcast.557 = f32[4096,4]{0,1:T(4,128)} bitcast(%param_0.1280), metadata={op_name="jit(train_step)/transpose(jvp())/transpose" stack_frame_id=0}
  %square.199 = f32[4096,4]{0,1:T(4,128)} multiply(%bitcast.557, %bitcast.557), metadata={op_name="jit(train_step)/square" stack_frame_id=0}
  %constant.1268 = f32[]{:T(128)} constant(0)
  ROOT %reduce.164 = f32[]{:T(128)} reduce(%square.199, %constant.1268), dimensions={0,1}, to_apply=%region_23.28, metadata={op_name="jit(train_step)/reduce_sum" stack_frame_id=0}
}

%region_51.56 (reduce_sum.301: f32[], reduce_sum.302: f32[]) -> f32[] {
  %reduce_sum.301 = f32[]{:T(128)} parameter(0), metadata={op_name="jit(train_step)/reduce_sum"}
  %reduce_sum.302 = f32[]{:T(128)} parameter(1), metadata={op_name="jit(train_step)/reduce_sum"}
  ROOT %reduce_sum.303 = f32[]{:T(128)} add(%reduce_sum.301, %reduce_sum.302), metadata={op_name="jit(train_step)/reduce_sum" stack_frame_id=0}, backend_config={"flag_configs":[],"scoped_memory_configs":[],"used_scoped_memory_configs":[],"aliasing_operands":{"lists":[]}}
}

%region_37.42 (reduce_sum.226: f32[], reduce_sum.227: f32[]) -> f32[] {
  %reduce_sum.226 = f32[]{:T(128)} parameter(0), metadata={op_name="jit(train_step)/reduce_sum"}
  %reduce_sum.227 = f32[]{:T(128)} parameter(1), metadata={op_name="jit(train_step)/reduce_sum"}
  ROOT %reduce_sum.231 = f32[]{:T(128)} add(%reduce_sum.226, %reduce_sum.227), metadata={op_name="jit(train_step)/reduce_sum" stack_frame_id=0}, backend_config={"flag_configs":[],"scoped_memory_configs":[],"used_scoped_memory_configs":[],"aliasing_operands":{"lists":[]}}
}

%fused_computation.374 (param_0.1273: f32[4096,4], param_1.1415: f32[], param_2.1099: f32[], param_3.741: f32[], param_4.458: f32[4096,4], param_5.404: f32[], param_6.259: f32[4,4096], param_7.175: pred[], param_8.104: f32[4096,4]) -> (f32[], f32[4096,4], f32[4096,4], f32[4096,4], f32[]) {
  %param_0.1273 = f32[4096,4]{0,1:T(4,128)S(1)} parameter(0)
  %param_3.741 = f32[]{:T(128)S(6)} parameter(3)
  %mul.1546.clone.1 = f32[4096,4]{0,1:T(4,128)} broadcast(%param_3.741), dimensions={}, metadata={op_name="jit(train_step)/mul" stack_frame_id=0}
  %param_7.175 = pred[]{:T(512)S(6)} parameter(7)
  %select_n.242.clone.1 = pred[4096,4]{0,1:T(4,128)(4,1)} broadcast(%param_7.175), dimensions={}, metadata={op_name="jit(train_step)/select_n" stack_frame_id=0}
  %param_6.259 = f32[4,4096]{1,0:T(4,128)S(1)} parameter(6)
  %bitcast.611.clone.1 = f32[4096,4]{0,1:T(4,128)} bitcast(%param_6.259), metadata={op_name="jit(train_step)/transpose(jvp())/transpose" stack_frame_id=0}
  %param_5.404 = f32[]{:T(128)} parameter(5)
  %div.739.clone.1 = f32[4096,4]{0,1:T(4,128)} broadcast(%param_5.404), dimensions={}, metadata={op_name="jit(train_step)/div" stack_frame_id=0}
  %div.738.clone.1 = f32[4096,4]{0,1:T(4,128)} divide(%bitcast.611.clone.1, %div.739.clone.1), metadata={op_name="jit(train_step)/div" stack_frame_id=0}
  %select_n.241.clone.1 = f32[4096,4]{0,1:T(4,128)} select(%select_n.242.clone.1, %bitcast.611.clone.1, %div.738.clone.1), metadata={op_name="jit(train_step)/select_n" stack_frame_id=0}
  %constant.1180.clone.1 = f32[]{:T(128)} constant(0.1)
  %broadcast.649.clone.1 = f32[4096,4]{0,1:T(4,128)} broadcast(%constant.1180.clone.1), dimensions={}, metadata={op_name="broadcast.70"}
  %mul.1550.clone.1 = f32[4096,4]{0,1:T(4,128)} multiply(%select_n.241.clone.1, %broadcast.649.clone.1), metadata={op_name="jit(train_step)/mul" stack_frame_id=0}
  %param_8.104 = f32[4096,4]{0,1:T(4,128)S(1)} parameter(8)
  %constant.1184.clone.1 = f32[]{:T(128)} constant(0.9)
  %broadcast.648.clone.1 = f32[4096,4]{0,1:T(4,128)} broadcast(%constant.1184.clone.1), dimensions={}, metadata={op_name="broadcast.69"}
  %mul.1549.clone.1 = f32[4096,4]{0,1:T(4,128)} multiply(%param_8.104, %broadcast.648.clone.1), metadata={op_name="jit(train_step)/mul" stack_frame_id=0}
  %add.803.clone.1 = f32[4096,4]{0,1:T(4,128)S(1)} add(%mul.1550.clone.1, %mul.1549.clone.1), metadata={op_name="jit(train_step)/add" stack_frame_id=0}
  %param_2.1099 = f32[]{:T(128)S(6)} parameter(2)
  %div.735.clone.1 = f32[4096,4]{0,1:T(4,128)} broadcast(%param_2.1099), dimensions={}, metadata={op_name="jit(train_step)/div" stack_frame_id=0}
  %integer_pow.60.clone.1 = f32[4096,4]{0,1:T(4,128)} multiply(%select_n.241.clone.1, %select_n.241.clone.1), metadata={op_name="jit(train_step)/integer_pow" stack_frame_id=0}
  %constant.1183.clone.1 = f32[]{:T(128)} constant(0.05)
  %broadcast.647.clone.1 = f32[4096,4]{0,1:T(4,128)} broadcast(%constant.1183.clone.1), dimensions={}, metadata={op_name="broadcast.60"}
  %mul.1548.clone.1 = f32[4096,4]{0,1:T(4,128)} multiply(%integer_pow.60.clone.1, %broadcast.647.clone.1), metadata={op_name="jit(train_step)/mul" stack_frame_id=0}
  %param_4.458 = f32[4096,4]{0,1:T(4,128)S(1)} parameter(4)
  %constant.1182.clone.1 = f32[]{:T(128)} constant(0.95)
  %broadcast.646.clone.1 = f32[4096,4]{0,1:T(4,128)} broadcast(%constant.1182.clone.1), dimensions={}, metadata={op_name="broadcast.59"}
  %mul.1547.clone.1 = f32[4096,4]{0,1:T(4,128)} multiply(%param_4.458, %broadcast.646.clone.1), metadata={op_name="jit(train_step)/mul" stack_frame_id=0}
  %add.802.clone.1 = f32[4096,4]{0,1:T(4,128)S(1)} add(%mul.1548.clone.1, %mul.1547.clone.1), metadata={op_name="jit(train_step)/add" stack_frame_id=0}
  %param_1.1415 = f32[]{:T(128)S(6)} parameter(1)
  %div.734.clone.1 = f32[4096,4]{0,1:T(4,128)} broadcast(%param_1.1415), dimensions={}, metadata={op_name="jit(train_step)/div" stack_frame_id=0}
  %div.733.clone.1 = f32[4096,4]{0,1:T(4,128)} divide(%add.802.clone.1, %div.734.clone.1), metadata={op_name="jit(train_step)/div" stack_frame_id=0}
  %sqrt.58.clone.1 = f32[4096,4]{0,1:T(4,128)} sqrt(%div.733.clone.1), metadata={op_name="jit(train_step)/sqrt" stack_frame_id=0}
  %constant.1181.clone.1 = f32[]{:T(128)} constant(1e-08)
  %broadcast.644.clone.1 = f32[4096,4]{0,1:T(4,128)} broadcast(%constant.1181.clone.1), dimensions={}, metadata={op_name="broadcast.55"}
  %add.801.clone.1 = f32[4096,4]{0,1:T(4,128)} add(%sqrt.58.clone.1, %broadcast.644.clone.1), metadata={op_name="jit(train_step)/add" stack_frame_id=0}
  %multiply.277.clone.1 = f32[4096,4]{0,1:T(4,128)} multiply(%div.735.clone.1, %add.801.clone.1), metadata={op_name="multiply.35"}
  %div.732.clone.1 = f32[4096,4]{0,1:T(4,128)} divide(%add.803.clone.1, %multiply.277.clone.1), metadata={op_name="jit(train_step)/div" stack_frame_id=0}
  %mul.1545.clone.1 = f32[4096,4]{0,1:T(4,128)} multiply(%param_0.1273, %broadcast.649.clone.1), metadata={op_name="jit(train_step)/mul" stack_frame_id=0}
  %add.800.clone.1 = f32[4096,4]{0,1:T(4,128)} add(%div.732.clone.1, %mul.1545.clone.1), metadata={op_name="jit(train_step)/add" stack_frame_id=0}
  %mul.1544.clone.1 = f32[4096,4]{0,1:T(4,128)} multiply(%mul.1546.clone.1, %add.800.clone.1), metadata={op_name="jit(train_step)/mul" stack_frame_id=0}
  %add.799.clone.1 = f32[4096,4]{0,1:T(4,128)S(1)} add(%param_0.1273, %mul.1544.clone.1), metadata={op_name="jit(train_step)/add" stack_frame_id=0}
  %square.200 = f32[4096,4]{0,1:T(4,128)} multiply(%add.799.clone.1, %add.799.clone.1), metadata={op_name="jit(train_step)/square" stack_frame_id=0}
  %constant.1261 = f32[]{:T(128)} constant(0)
  %reduce.165 = f32[]{:T(128)} reduce(%square.200, %constant.1261), dimensions={0,1}, to_apply=%region_51.56, metadata={op_name="jit(train_step)/reduce_sum" stack_frame_id=0}
  %reduce.167.clone.1 = f32[]{:T(128)} reduce(%integer_pow.60.clone.1, %constant.1261), dimensions={0,1}, to_apply=%region_37.42, metadata={op_name="jit(train_step)/reduce_sum" stack_frame_id=0}
  ROOT %tuple.143 = (f32[]{:T(128)}, f32[4096,4]{0,1:T(4,128)S(1)}, f32[4096,4]{0,1:T(4,128)S(1)}, f32[4096,4]{0,1:T(4,128)S(1)}, f32[]{:T(128)}) tuple(%reduce.165, %add.799.clone.1, %add.802.clone.1, %add.803.clone.1, %reduce.167.clone.1)
}

%region_50.55 (reduce_sum.295: f32[], reduce_sum.296: f32[]) -> f32[] {
  %reduce_sum.295 = f32[]{:T(128)} parameter(0), metadata={op_name="jit(train_step)/reduce_sum"}
  %reduce_sum.296 = f32[]{:T(128)} parameter(1), metadata={op_name="jit(train_step)/reduce_sum"}
  ROOT %reduce_sum.297 = f32[]{:T(128)} add(%reduce_sum.295, %reduce_sum.296), metadata={op_name="jit(train_step)/reduce_sum" stack_frame_id=0}, backend_config={"flag_configs":[],"scoped_memory_configs":[],"used_scoped_memory_configs":[],"aliasing_operands":{"lists":[]}}
}

%region_36.41 (reduce_sum.220: f32[], reduce_sum.224: f32[]) -> f32[] {
  %reduce_sum.220 = f32[]{:T(128)} parameter(0), metadata={op_name="jit(train_step)/reduce_sum"}
  %reduce_sum.224 = f32[]{:T(128)} parameter(1), metadata={op_name="jit(train_step)/reduce_sum"}
  ROOT %reduce_sum.225 = f32[]{:T(128)} add(%reduce_sum.220, %reduce_sum.224), metadata={op_name="jit(train_step)/reduce_sum" stack_frame_id=0}, backend_config={"flag_configs":[],"scoped_memory_configs":[],"used_scoped_memory_configs":[],"aliasing_operands":{"lists":[]}}
}

%fused_computation.375 (param_0.1274: f32[4096,4], param_1.1416: f32[], param_2.1100: f32[], param_3.742: f32[], param_4.459: f32[4096,4], param_5.405: f32[], param_6.260: f32[4,4096], param_7.176: pred[], param_8.105: f32[4096,4]) -> (f32[], f32[4096,4], f32[4096,4], f32[4096,4], f32[]) {
  %param_0.1274 = f32[4096,4]{0,1:T(4,128)S(1)} parameter(0)
  %param_3.742 = f32[]{:T(128)S(6)} parameter(3)
  %mul.1553.clone.1 = f32[4096,4]{0,1:T(4,128)} broadcast(%param_3.742), dimensions={}, metadata={op_name="jit(train_step)/mul" stack_frame_id=0}
  %param_7.176 = pred[]{:T(512)S(6)} parameter(7)
  %select_n.246.clone.1 = pred[4096,4]{0,1:T(4,128)(4,1)} broadcast(%param_7.176), dimensions={}, metadata={op_name="jit(train_step)/select_n" stack_frame_id=0}
  %param_6.260 = f32[4,4096]{1,0:T(4,128)S(1)} parameter(6)
  %bitcast.613.clone.1 = f32[4096,4]{0,1:T(4,128)} bitcast(%param_6.260), metadata={op_name="jit(train_step)/transpose(jvp())/transpose" stack_frame_id=0}
  %param_5.405 = f32[]{:T(128)} parameter(5)
  %div.747.clone.1 = f32[4096,4]{0,1:T(4,128)} broadcast(%param_5.405), dimensions={}, metadata={op_name="jit(train_step)/div" stack_frame_id=0}
  %div.746.clone.1 = f32[4096,4]{0,1:T(4,128)} divide(%bitcast.613.clone.1, %div.747.clone.1), metadata={op_name="jit(train_step)/div" stack_frame_id=0}
  %select_n.245.clone.1 = f32[4096,4]{0,1:T(4,128)} select(%select_n.246.clone.1, %bitcast.613.clone.1, %div.746.clone.1), metadata={op_name="jit(train_step)/select_n" stack_frame_id=0}
  %constant.1186.clone.1 = f32[]{:T(128)} constant(0.1)
  %broadcast.655.clone.1 = f32[4096,4]{0,1:T(4,128)} broadcast(%constant.1186.clone.1), dimensions={}, metadata={op_name="broadcast.70"}
  %mul.1557.clone.1 = f32[4096,4]{0,1:T(4,128)} multiply(%select_n.245.clone.1, %broadcast.655.clone.1), metadata={op_name="jit(train_step)/mul" stack_frame_id=0}
  %param_8.105 = f32[4096,4]{0,1:T(4,128)S(1)} parameter(8)
  %constant.1190.clone.1 = f32[]{:T(128)} constant(0.9)
  %broadcast.654.clone.1 = f32[4096,4]{0,1:T(4,128)} broadcast(%constant.1190.clone.1), dimensions={}, metadata={op_name="broadcast.69"}
  %mul.1556.clone.1 = f32[4096,4]{0,1:T(4,128)} multiply(%param_8.105, %broadcast.654.clone.1), metadata={op_name="jit(train_step)/mul" stack_frame_id=0}
  %add.808.clone.1 = f32[4096,4]{0,1:T(4,128)S(1)} add(%mul.1557.clone.1, %mul.1556.clone.1), metadata={op_name="jit(train_step)/add" stack_frame_id=0}
  %param_2.1100 = f32[]{:T(128)S(6)} parameter(2)
  %div.743.clone.1 = f32[4096,4]{0,1:T(4,128)} broadcast(%param_2.1100), dimensions={}, metadata={op_name="jit(train_step)/div" stack_frame_id=0}
  %integer_pow.61.clone.1 = f32[4096,4]{0,1:T(4,128)} multiply(%select_n.245.clone.1, %select_n.245.clone.1), metadata={op_name="jit(train_step)/integer_pow" stack_frame_id=0}
  %constant.1189.clone.1 = f32[]{:T(128)} constant(0.05)
  %broadcast.653.clone.1 = f32[4096,4]{0,1:T(4,128)} broadcast(%constant.1189.clone.1), dimensions={}, metadata={op_name="broadcast.60"}
  %mul.1555.clone.1 = f32[4096,4]{0,1:T(4,128)} multiply(%integer_pow.61.clone.1, %broadcast.653.clone.1), metadata={op_name="jit(train_step)/mul" stack_frame_id=0}
  %param_4.459 = f32[4096,4]{0,1:T(4,128)S(1)} parameter(4)
  %constant.1188.clone.1 = f32[]{:T(128)} constant(0.95)
  %broadcast.652.clone.1 = f32[4096,4]{0,1:T(4,128)} broadcast(%constant.1188.clone.1), dimensions={}, metadata={op_name="broadcast.59"}
  %mul.1554.clone.1 = f32[4096,4]{0,1:T(4,128)} multiply(%param_4.459, %broadcast.652.clone.1), metadata={op_name="jit(train_step)/mul" stack_frame_id=0}
  %add.807.clone.1 = f32[4096,4]{0,1:T(4,128)S(1)} add(%mul.1555.clone.1, %mul.1554.clone.1), metadata={op_name="jit(train_step)/add" stack_frame_id=0}
  %param_1.1416 = f32[]{:T(128)S(6)} parameter(1)
  %div.742.clone.1 = f32[4096,4]{0,1:T(4,128)} broadcast(%param_1.1416), dimensions={}, metadata={op_name="jit(train_step)/div" stack_frame_id=0}
  %div.741.clone.1 = f32[4096,4]{0,1:T(4,128)} divide(%add.807.clone.1, %div.742.clone.1), metadata={op_name="jit(train_step)/div" stack_frame_id=0}
  %sqrt.59.clone.1 = f32[4096,4]{0,1:T(4,128)} sqrt(%div.741.clone.1), metadata={op_name="jit(train_step)/sqrt" stack_frame_id=0}
  %constant.1187.clone.1 = f32[]{:T(128)} constant(1e-08)
  %broadcast.650.clone.1 = f32[4096,4]{0,1:T(4,128)} broadcast(%constant.1187.clone.1), dimensions={}, metadata={op_name="broadcast.55"}
  %add.806.clone.1 = f32[4096,4]{0,1:T(4,128)} add(%sqrt.59.clone.1, %broadcast.650.clone.1), metadata={op_name="jit(train_step)/add" stack_frame_id=0}
  %multiply.278.clone.1 = f32[4096,4]{0,1:T(4,128)} multiply(%div.743.clone.1, %add.806.clone.1), metadata={op_name="multiply.34"}
  %div.740.clone.1 = f32[4096,4]{0,1:T(4,128)} divide(%add.808.clone.1, %multiply.278.clone.1), metadata={op_name="jit(train_step)/div" stack_frame_id=0}
  %mul.1552.clone.1 = f32[4096,4]{0,1:T(4,128)} multiply(%param_0.1274, %broadcast.655.clone.1), metadata={op_name="jit(train_step)/mul" stack_frame_id=0}
  %add.805.clone.1 = f32[4096,4]{0,1:T(4,128)} add(%div.740.clone.1, %mul.1552.clone.1), metadata={op_name="jit(train_step)/add" stack_frame_id=0}
  %mul.1551.clone.1 = f32[4096,4]{0,1:T(4,128)} multiply(%mul.1553.clone.1, %add.805.clone.1), metadata={op_name="jit(train_step)/mul" stack_frame_id=0}
  %add.804.clone.1 = f32[4096,4]{0,1:T(4,128)S(1)} add(%param_0.1274, %mul.1551.clone.1), metadata={op_name="jit(train_step)/add" stack_frame_id=0}
  %square.201 = f32[4096,4]{0,1:T(4,128)} multiply(%add.804.clone.1, %add.804.clone.1), metadata={op_name="jit(train_step)/square" stack_frame_id=0}
  %constant.1262 = f32[]{:T(128)} constant(0)
  %reduce.166 = f32[]{:T(128)} reduce(%square.201, %constant.1262), dimensions={0,1}, to_apply=%region_50.55, metadata={op_name="jit(train_step)/reduce_sum" stack_frame_id=0}
  %reduce.168.clone.1 = f32[]{:T(128)} reduce(%integer_pow.61.clone.1, %constant.1262), dimensions={0,1}, to_apply=%region_36.41, metadata={op_name="jit(train_step)/reduce_sum" stack_frame_id=0}
  ROOT %tuple.144 = (f32[]{:T(128)}, f32[4096,4]{0,1:T(4,128)S(1)}, f32[4096,4]{0,1:T(4,128)S(1)}, f32[4096,4]{0,1:T(4,128)S(1)}, f32[]{:T(128)}) tuple(%reduce.166, %add.804.clone.1, %add.807.clone.1, %add.808.clone.1, %reduce.168.clone.1)
}

%fused_computation.384 (param_0.1065: bf16[1,128,1,64]) -> bf16[1,128,1,128] {
  %param_0.1065 = bf16[1,128,1,64]{3,1,2,0:T(8,128)(2,1)S(1)} parameter(0)
  %constant.1128 = bf16[]{:T(256)} constant(-inf)
  %pad.38 = bf16[1,128,1,128]{3,1,2,0:T(8,128)(2,1)} pad(%param_0.1065, %constant.1128), padding=0_0x0_0x0_0x0_64, metadata={op_name="jit(train_step)/concatenate" stack_frame_id=0}
  %pad.37 = bf16[1,128,1,128]{3,1,2,0:T(8,128)(2,1)} pad(%param_0.1065, %constant.1128), padding=0_0x0_0x0_0x64_0, metadata={op_name="jit(train_step)/concatenate" stack_frame_id=0}
  ROOT %maximum.38 = bf16[1,128,1,128]{3,1,2,0:T(8,128)(2,1)} maximum(%pad.38, %pad.37), metadata={op_name="jit(train_step)/concatenate" stack_frame_id=0}
}

%fused_computation.385 (param_0.1067: bf16[1,128,1,64]) -> bf16[1,128,1,128] {
  %param_0.1067 = bf16[1,128,1,64]{3,1,2,0:T(8,128)(2,1)S(1)} parameter(0)
  %constant.1127 = bf16[]{:T(256)} constant(-inf)
  %pad.40 = bf16[1,128,1,128]{3,1,2,0:T(8,128)(2,1)} pad(%param_0.1067, %constant.1127), padding=0_0x0_0x0_0x0_64, metadata={op_name="jit(train_step)/concatenate" stack_frame_id=0}
  %pad.39 = bf16[1,128,1,128]{3,1,2,0:T(8,128)(2,1)} pad(%param_0.1067, %constant.1127), padding=0_0x0_0x0_0x64_0, metadata={op_name="jit(train_step)/concatenate" stack_frame_id=0}
  ROOT %maximum.39 = bf16[1,128,1,128]{3,1,2,0:T(8,128)(2,1)} maximum(%pad.40, %pad.39), metadata={op_name="jit(train_step)/concatenate" stack_frame_id=0}
}

%region_9.12 (reduce_sum.99: f32[], reduce_sum.100: f32[]) -> f32[] {
  %reduce_sum.99 = f32[]{:T(128)} parameter(0), metadata={op_name="jit(train_step)/reduce_sum"}
  %reduce_sum.100 = f32[]{:T(128)} parameter(1), metadata={op_name="jit(train_step)/reduce_sum"}
  ROOT %reduce_sum.101 = f32[]{:T(128)} add(%reduce_sum.99, %reduce_sum.100), metadata={op_name="jit(train_step)/reduce_sum" stack_frame_id=0}, backend_config={"flag_configs":[],"scoped_memory_configs":[],"used_scoped_memory_configs":[],"aliasing_operands":{"lists":[]}}
}

%fused_computation.388 (param_0.1289: bf16[4096]) -> f32[] {
  %param_0.1289 = bf16[4096]{0:T(1024)(128)(2,1)S(1)} parameter(0)
  %convert_element_type.932 = f32[4096]{0:T(1024)} convert(%param_0.1289), metadata={op_name="jit(train_step)/transpose(jvp())/convert_element_type" stack_frame_id=0}
  %square.204 = f32[4096]{0:T(1024)} multiply(%convert_element_type.932, %convert_element_type.932), metadata={op_name="jit(train_step)/square" stack_frame_id=0}
  %constant.1277 = f32[]{:T(128)} constant(0)
  ROOT %reduce.169 = f32[]{:T(128)} reduce(%square.204, %constant.1277), dimensions={0}, to_apply=%region_9.12, metadata={op_name="jit(train_step)/reduce_sum" stack_frame_id=0}
}

%region_46.51 (reduce_sum.274: f32[], reduce_sum.275: f32[]) -> f32[] {
  %reduce_sum.274 = f32[]{:T(128)} parameter(0), metadata={op_name="jit(train_step)/reduce_sum"}
  %reduce_sum.275 = f32[]{:T(128)} parameter(1), metadata={op_name="jit(train_step)/reduce_sum"}
  ROOT %reduce_sum.276 = f32[]{:T(128)} add(%reduce_sum.274, %reduce_sum.275), metadata={op_name="jit(train_step)/reduce_sum" stack_frame_id=0}, backend_config={"flag_configs":[],"scoped_memory_configs":[],"used_scoped_memory_configs":[],"aliasing_operands":{"lists":[]}}
}

%region_32.37 (reduce_sum.199: f32[], reduce_sum.203: f32[]) -> f32[] {
  %reduce_sum.199 = f32[]{:T(128)} parameter(0), metadata={op_name="jit(train_step)/reduce_sum"}
  %reduce_sum.203 = f32[]{:T(128)} parameter(1), metadata={op_name="jit(train_step)/reduce_sum"}
  ROOT %reduce_sum.204 = f32[]{:T(128)} add(%reduce_sum.199, %reduce_sum.203), metadata={op_name="jit(train_step)/reduce_sum" stack_frame_id=0}, backend_config={"flag_configs":[],"scoped_memory_configs":[],"used_scoped_memory_configs":[],"aliasing_operands":{"lists":[]}}
}

%fused_computation.389 (param_0.1278: f32[4096], param_1.1420: f32[], param_2.1104: f32[], param_3.746: f32[], param_4.463: f32[4096], param_5.409: f32[], param_6.264: bf16[4096], param_7.180: pred[], param_8.109: f32[4096]) -> (f32[], f32[4096], f32[4096], f32[4096], f32[]) {
  %param_0.1278 = f32[4096]{0:T(1024)S(1)} parameter(0)
  %param_3.746 = f32[]{:T(128)S(6)} parameter(3)
  %mul.1560.clone.1 = f32[4096]{0:T(1024)} broadcast(%param_3.746), dimensions={}, metadata={op_name="jit(train_step)/mul" stack_frame_id=0}
  %param_7.180 = pred[]{:T(512)S(6)} parameter(7)
  %select_n.250.clone.1 = pred[4096]{0:T(1024)(128)(4,1)} broadcast(%param_7.180), dimensions={}, metadata={op_name="jit(train_step)/select_n" stack_frame_id=0}
  %param_6.264 = bf16[4096]{0:T(1024)(128)(2,1)S(1)} parameter(6)
  %convert_element_type.952.clone.1 = f32[4096]{0:T(1024)} convert(%param_6.264), metadata={op_name="jit(train_step)/transpose(jvp())/convert_element_type" stack_frame_id=0}
  %param_5.409 = f32[]{:T(128)} parameter(5)
  %div.755.clone.1 = f32[4096]{0:T(1024)} broadcast(%param_5.409), dimensions={}, metadata={op_name="jit(train_step)/div" stack_frame_id=0}
  %div.754.clone.1 = f32[4096]{0:T(1024)} divide(%convert_element_type.952.clone.1, %div.755.clone.1), metadata={op_name="jit(train_step)/div" stack_frame_id=0}
  %select_n.249.clone.1 = f32[4096]{0:T(1024)} select(%select_n.250.clone.1, %convert_element_type.952.clone.1, %div.754.clone.1), metadata={op_name="jit(train_step)/select_n" stack_frame_id=0}
  %constant.1192.clone.1 = f32[]{:T(128)} constant(0.1)
  %broadcast.657.clone.1 = f32[4096]{0:T(1024)} broadcast(%constant.1192.clone.1), dimensions={}, metadata={op_name="broadcast.74"}
  %mul.1566.clone.1 = f32[4096]{0:T(1024)} multiply(%select_n.249.clone.1, %broadcast.657.clone.1), metadata={op_name="jit(train_step)/mul" stack_frame_id=0}
  %param_8.109 = f32[4096]{0:T(1024)S(1)} parameter(8)
  %constant.1196.clone.1 = f32[]{:T(128)} constant(0.9)
  %mul.1567.clone.1 = f32[4096]{0:T(1024)} broadcast(%constant.1196.clone.1), dimensions={}, metadata={op_name="jit(train_step)/mul" stack_frame_id=0}
  %mul.1565.clone.1 = f32[4096]{0:T(1024)} multiply(%param_8.109, %mul.1567.clone.1), metadata={op_name="jit(train_step)/mul" stack_frame_id=0}
  %add.814.clone.1 = f32[4096]{0:T(1024)S(1)} add(%mul.1566.clone.1, %mul.1565.clone.1), metadata={op_name="jit(train_step)/add" stack_frame_id=0}
  %param_2.1104 = f32[]{:T(128)S(6)} parameter(2)
  %div.751.clone.1 = f32[4096]{0:T(1024)} broadcast(%param_2.1104), dimensions={}, metadata={op_name="jit(train_step)/div" stack_frame_id=0}
  %integer_pow.62.clone.1 = f32[4096]{0:T(1024)} multiply(%select_n.249.clone.1, %select_n.249.clone.1), metadata={op_name="jit(train_step)/integer_pow" stack_frame_id=0}
  %constant.1195.clone.1 = f32[]{:T(128)} constant(0.05)
  %mul.1564.clone.1 = f32[4096]{0:T(1024)} broadcast(%constant.1195.clone.1), dimensions={}, metadata={op_name="jit(train_step)/mul" stack_frame_id=0}
  %mul.1562.clone.1 = f32[4096]{0:T(1024)} multiply(%integer_pow.62.clone.1, %mul.1564.clone.1), metadata={op_name="jit(train_step)/mul" stack_frame_id=0}
  %param_4.463 = f32[4096]{0:T(1024)S(1)} parameter(4)
  %constant.1194.clone.1 = f32[]{:T(128)} constant(0.95)
  %mul.1563.clone.1 = f32[4096]{0:T(1024)} broadcast(%constant.1194.clone.1), dimensions={}, metadata={op_name="jit(train_step)/mul" stack_frame_id=0}
  %mul.1561.clone.1 = f32[4096]{0:T(1024)} multiply(%param_4.463, %mul.1563.clone.1), metadata={op_name="jit(train_step)/mul" stack_frame_id=0}
  %add.813.clone.1 = f32[4096]{0:T(1024)S(1)} add(%mul.1562.clone.1, %mul.1561.clone.1), metadata={op_name="jit(train_step)/add" stack_frame_id=0}
  %param_1.1420 = f32[]{:T(128)S(6)} parameter(1)
  %div.750.clone.1 = f32[4096]{0:T(1024)} broadcast(%param_1.1420), dimensions={}, metadata={op_name="jit(train_step)/div" stack_frame_id=0}
  %div.749.clone.1 = f32[4096]{0:T(1024)} divide(%add.813.clone.1, %div.750.clone.1), metadata={op_name="jit(train_step)/div" stack_frame_id=0}
  %sqrt.60.clone.1 = f32[4096]{0:T(1024)} sqrt(%div.749.clone.1), metadata={op_name="jit(train_step)/sqrt" stack_frame_id=0}
  %constant.1193.clone.1 = f32[]{:T(128)} constant(1e-08)
  %add.812.clone.1 = f32[4096]{0:T(1024)} broadcast(%constant.1193.clone.1), dimensions={}, metadata={op_name="jit(train_step)/add" stack_frame_id=0}
  %add.811.clone.1 = f32[4096]{0:T(1024)} add(%sqrt.60.clone.1, %add.812.clone.1), metadata={op_name="jit(train_step)/add" stack_frame_id=0}
  %multiply.279.clone.1 = f32[4096]{0:T(1024)} multiply(%div.751.clone.1, %add.811.clone.1), metadata={op_name="multiply.30"}
  %div.748.clone.1 = f32[4096]{0:T(1024)} divide(%add.814.clone.1, %multiply.279.clone.1), metadata={op_name="jit(train_step)/div" stack_frame_id=0}
  %mul.1559.clone.1 = f32[4096]{0:T(1024)} multiply(%param_0.1278, %broadcast.657.clone.1), metadata={op_name="jit(train_step)/mul" stack_frame_id=0}
  %add.810.clone.1 = f32[4096]{0:T(1024)} add(%div.748.clone.1, %mul.1559.clone.1), metadata={op_name="jit(train_step)/add" stack_frame_id=0}
  %mul.1558.clone.1 = f32[4096]{0:T(1024)} multiply(%mul.1560.clone.1, %add.810.clone.1), metadata={op_name="jit(train_step)/mul" stack_frame_id=0}
  %add.809.clone.1 = f32[4096]{0:T(1024)S(1)} add(%param_0.1278, %mul.1558.clone.1), metadata={op_name="jit(train_step)/add" stack_frame_id=0}
  %square.205 = f32[4096]{0:T(1024)} multiply(%add.809.clone.1, %add.809.clone.1), metadata={op_name="jit(train_step)/square" stack_frame_id=0}
  %constant.1266 = f32[]{:T(128)} constant(0)
  %reduce.170 = f32[]{:T(128)} reduce(%square.205, %constant.1266), dimensions={0}, to_apply=%region_46.51, metadata={op_name="jit(train_step)/reduce_sum" stack_frame_id=0}
  %reduce.171.clone.1 = f32[]{:T(128)} reduce(%integer_pow.62.clone.1, %constant.1266), dimensions={0}, to_apply=%region_32.37, metadata={op_name="jit(train_step)/reduce_sum" stack_frame_id=0}
  ROOT %tuple.147 = (f32[]{:T(128)}, f32[4096]{0:T(1024)S(1)}, f32[4096]{0:T(1024)S(1)}, f32[4096]{0:T(1024)S(1)}, f32[]{:T(128)}) tuple(%reduce.170, %add.809.clone.1, %add.813.clone.1, %add.814.clone.1, %reduce.171.clone.1)
}

%fused_computation.394 (param_0.1095: s32[512]) -> s32[1024] {
  %constant.1063 = s32[] constant(0), metadata={op_name="jit(train_step)/jvp()/gather" stack_frame_id=0}
  %broadcast.624 = s32[1024]{0:T(1024)} broadcast(%constant.1063), dimensions={}, metadata={op_name="jit(train_step)/jvp()/gather" stack_frame_id=0}
  %param_0.1095 = s32[512]{0:T(512)S(1)} parameter(0)
  %constant.1064 = s32[] constant(2147483647), metadata={op_name="jit(train_step)/jvp()/gather" stack_frame_id=0}
  %pad.41 = s32[1024]{0:T(1024)} pad(%param_0.1095, %constant.1064), padding=0_512, metadata={op_name="jit(train_step)/jvp()/gather" stack_frame_id=0}
  %constant.1062 = s32[] constant(128255), metadata={op_name="jit(train_step)/jvp()/gather" stack_frame_id=0}
  %broadcast.623 = s32[1024]{0:T(1024)} broadcast(%constant.1062), dimensions={}, metadata={op_name="jit(train_step)/jvp()/gather" stack_frame_id=0}
  ROOT %clamp.3 = s32[1024]{0:T(1024)S(1)} clamp(%broadcast.624, %pad.41, %broadcast.623), metadata={op_name="jit(train_step)/jvp()/gather" stack_frame_id=0}
}

%fused_computation.397 (param_0.1158: f32[128]) -> f32[128] {
  %param_0.1158 = f32[128]{0:T(128)S(1)} parameter(0)
  %constant.1132 = f32[]{:T(128)} constant(0.000244140625)
  %broadcast.632 = f32[128]{0:T(128)} broadcast(%constant.1132), dimensions={}, metadata={op_name="broadcast.283"}
  %div.667 = f32[128]{0:T(128)} multiply(%param_0.1158, %broadcast.632), metadata={op_name="jit(train_step)/jvp()/div" stack_frame_id=0}
  %constant.1130 = f32[]{:T(128)} constant(1e-05)
  %broadcast.630 = f32[128]{0:T(128)} broadcast(%constant.1130), dimensions={}, metadata={op_name="jit(train_step)/jvp()/add" stack_frame_id=0}
  %add.791 = f32[128]{0:T(128)} add(%div.667, %broadcast.630), metadata={op_name="jit(train_step)/jvp()/add" stack_frame_id=0}
  %bitcast.568 = f32[1,128]{1,0:T(1,128)} bitcast(%add.791), metadata={op_name="jit(train_step)/jvp()/add" stack_frame_id=0}
  %rsqrt.101 = f32[1,128]{1,0:T(1,128)} rsqrt(%bitcast.568), metadata={op_name="jit(train_step)/jvp()/rsqrt" stack_frame_id=0}
  ROOT %bitcast.558 = f32[128]{0:T(128)} bitcast(%rsqrt.101), metadata={op_name="jit(train_step)/jvp()/rsqrt" stack_frame_id=0}
}

%region_0.1 (reduce_sum.67: s32[], reduce_sum.71: s32[]) -> s32[] {
…
  %neg.131 = bf16[1,128,8,64]{3,1,2,0:T(8,128)(2,1)S(1)} negate(%slice.73), metadata={op_name="jit(train_step)/transpose(jvp())/while/body/closed_call/checkpoint/rematted_computation/neg" stack_frame_id=0}
  %slice.74 = bf16[1,128,8,64]{3,1,2,0:T(8,128)(2,1)S(1)} slice(%param_0.1440), slice={[0:1], [0:128], [0:8], [0:64]}, metadata={op_name="jit(train_step)/transpose(jvp())/while/body/closed_call/checkpoint/rematted_computation/split" stack_frame_id=0}
  ROOT %tuple.185 = (bf16[1,128,8,64]{3,1,2,0:T(8,128)(2,1)S(1)}, bf16[1,128,8,64]{3,1,2,0:T(8,128)(2,1)S(1)}) tuple(%neg.131, %slice.74)
}

%fused_computation.224.clone.clone (param_0.1441: bf16[1,128,8,64], param_1.1520: bf16[1,128,8,64], param_2.1165: bf16[1,128,8,128], param_3.787: bf16[128,128], param_4.486: bf16[128,128]) -> bf16[8,128,128] {
  %param_2.1165 = bf16[1,128,8,128]{3,1,2,0:T(8,128)(2,1)S(1)} parameter(2)
  %param_4.486 = bf16[128,128]{1,0:T(8,128)(2,1)S(1)} parameter(4)
  %mul.1759 = bf16[1,128,8,128]{3,1,2,0:T(8,128)(2,1)} broadcast(%param_4.486), dimensions={1,3}, metadata={op_name="jit(train_step)/transpose(jvp())/while/body/closed_call/checkpoint/rematted_computation/mul" stack_frame_id=0}
  %mul.1757 = bf16[1,128,8,128]{3,1,2,0:T(8,128)(2,1)} multiply(%param_2.1165, %mul.1759), metadata={op_name="jit(train_step)/transpose(jvp())/while/body/closed_call/checkpoint/rematted_computation/mul" stack_frame_id=0}
  %param_1.1520 = bf16[1,128,8,64]{3,1,2,0:T(8,128)(2,1)S(1)} parameter(1)
  %constant.1403 = bf16[]{:T(256)} constant(-inf)
  %pad.63 = bf16[1,128,8,128]{3,1,2,0:T(8,128)(2,1)} pad(%param_1.1520, %constant.1403), padding=0_0x0_0x0_0x0_64, metadata={op_name="jit(train_step)/transpose(jvp())/while/body/closed_call/checkpoint/rematted_computation/concatenate" stack_frame_id=0}
  %param_0.1441 = bf16[1,128,8,64]{3,1,2,0:T(8,128)(2,1)S(1)} parameter(0)
  %pad.62 = bf16[1,128,8,128]{3,1,2,0:T(8,128)(2,1)} pad(%param_0.1441, %constant.1403), padding=0_0x0_0x0_0x64_0, metadata={op_name="jit(train_step)/transpose(jvp())/while/body/closed_call/checkpoint/rematted_computation/concatenate" stack_frame_id=0}
  %maximum.50 = bf16[1,128,8,128]{3,1,2,0:T(8,128)(2,1)} maximum(%pad.63, %pad.62), metadata={op_name="jit(train_step)/transpose(jvp())/while/body/closed_call/checkpoint/rematted_computation/concatenate" stack_frame_id=0}
  %param_3.787 = bf16[128,128]{1,0:T(8,128)(2,1)S(1)} parameter(3)
  %mul.1758 = bf16[1,128,8,128]{3,1,2,0:T(8,128)(2,1)} broadcast(%param_3.787), dimensions={1,3}, metadata={op_name="jit(train_step)/transpose(jvp())/while/body/closed_call/checkpoint/rematted_computation/mul" stack_frame_id=0}
  %mul.1756 = bf16[1,128,8,128]{3,1,2,0:T(8,128)(2,1)} multiply(%maximum.50, %mul.1758), metadata={op_name="jit(train_step)/transpose(jvp())/while/body/closed_call/checkpoint/rematted_computation/mul" stack_frame_id=0}
  %add.887 = bf16[1,128,8,128]{3,1,2,0:T(8,128)(2,1)} add(%mul.1757, %mul.1756), metadata={op_name="jit(train_step)/transpose(jvp())/while/body/closed_call/checkpoint/rematted_computation/add" stack_frame_id=0}
  ROOT %bitcast.797 = bf16[8,128,128]{2,1,0:T(8,128)(2,1)} bitcast(%add.887), metadata={op_name="jit(train_step)/transpose(jvp())/while/body/closed_call/checkpoint/rematted_computation/shard_map/vmap(jit(_splash_attention))/splash_mha_fwd_segmented_residuals/splash_mha_fwd_segmented_residuals/squeeze" stack_frame_id=0}
}

%fused_computation.116.clone.clone (param_0.1429: bf16[4,1024,8,128], param_1.1513: s32[]) -> bf16[1,1024,8,128] {
  %param_0.1429 = bf16[4,1024,8,128]{3,1,2,0:T(8,128)(2,1)} parameter(0)
  %param_1.1513 = s32[]{:T(128)S(6)} parameter(1)
  %constant.1394 = s32[]{:T(128)} constant(0)
  ROOT %dynamic-slice.168 = bf16[1,1024,8,128]{3,1,2,0:T(8,128)(2,1)S(1)} dynamic-slice(%param_0.1429, %param_1.1513, %constant.1394, %constant.1394, %constant.1394), dynamic_slice_sizes={1,1024,8,128}, metadata={op_name="jit(train_step)/transpose(jvp())/while/body/dynamic_slice" stack_frame_id=0}, backend_config={"flag_configs":[],"scoped_memory_configs":[],"indices_config":{"index_known_bits":[{"zeroes":"4294967292","ones":"0","bitwidth":"32"},{"zeroes":"4294967295","ones":"0","bitwidth":"32"},{"zeroes":"4294967295","ones":"0","bitwidth":"32"},{"zeroes":"4294967295","ones":"0","bitwidth":"32"}],"is_index_aligned":[]},"used_scoped_memory_configs":[]}
}

%fused_computation.253.clone.clone (param_0.1476: f32[1,32,128,128]) -> (f32[32,128], f32[1,32,128,1]) {
  %param_0.1476 = f32[1,32,128,128]{2,1,3,0:T(8,128)} parameter(0)
  %slice.77 = f32[1,32,128,1]{2,1,3,0:T(8,128)} slice(%param_0.1476), slice={[0:1], [0:32], [0:128], [0:1]}, metadata={op_name="jit(train_step)/transpose(jvp())/while/body/closed_call/checkpoint/rematted_computation/shard_map/vmap(jit(_splash_attention))/slice" stack_frame_id=0}
  %bitcast.827 = f32[32,128]{1,0:T(8,128)} bitcast(%slice.77), metadata={op_name="jit(train_step)/transpose(jvp())/while/body/closed_call/checkpoint/shard_map/vmap(jit(_splash_attention))/broadcast_in_dim" stack_frame_id=0}
  ROOT %tuple.191 = (f32[32,128]{1,0:T(8,128)}, f32[1,32,128,1]{2,1,3,0:T(8,128)}) tuple(%bitcast.827, %slice.77)
}

%fused_computation.98.clone.clone (param_0.1448: bf16[4,32,128,1024], param_1.1525: s32[]) -> bf16[1,32,128,1024] {
  %param_0.1448 = bf16[4,32,128,1024]{3,2,1,0:T(8,128)(2,1)} parameter(0)
  %param_1.1525 = s32[]{:T(128)S(6)} parameter(1)
  %constant.1407 = s32[]{:T(128)} constant(0)
  ROOT %dynamic-slice.174 = bf16[1,32,128,1024]{3,2,1,0:T(8,128)(2,1)S(1)} dynamic-slice(%param_0.1448, %param_1.1525, %constant.1407, %constant.1407, %constant.1407), dynamic_slice_sizes={1,32,128,1024}, metadata={op_name="jit(train_step)/transpose(jvp())/while/body/dynamic_slice" stack_frame_id=0}, backend_config={"flag_configs":[],"scoped_memory_configs":[],"indices_config":{"index_known_bits":[{"zeroes":"4294967292","ones":"0","bitwidth":"32"},{"zeroes":"4294967295","ones":"0","bitwidth":"32"},{"zeroes":"4294967295","ones":"0","bitwidth":"32"},{"zeroes":"4294967295","ones":"0","bitwidth":"32"}],"is_index_aligned":[]},"used_scoped_memory_configs":[]}
}

%convert_element_type.523.reduce_sub_computation (lhs: bf16[], rhs: bf16[]) -> bf16[] {
  %lhs = bf16[] parameter(0)
  %rhs = bf16[] parameter(1)
  ROOT %add.659 = bf16[] add(%lhs, %rhs), backend_config={"flag_configs":[],"scoped_memory_configs":[],"used_scoped_memory_configs":[],"aliasing_operands":{"lists":[]}}
}

%fused_computation.239.clone.clone (param_0.1427: bf16[4,4096], param_1.1511: s32[]) -> bf16[4096] {
  %param_0.1427 = bf16[4,4096]{1,0:T(4,128)(2,1)S(1)} parameter(0)
  %param_1.1511 = s32[]{:T(128)S(6)} parameter(1)
  %constant.1390 = s32[]{:T(128)} constant(0)
  %dynamic_slice.280 = bf16[1,4096]{1,0:T(2,128)(2,1)} dynamic-slice(%param_0.1427, %param_1.1511, %constant.1390), dynamic_slice_sizes={1,4096}, metadata={op_name="jit(train_step)/transpose(jvp())/while/body/dynamic_slice" stack_frame_id=0}, backend_config={"flag_configs":[],"scoped_memory_configs":[],"indices_config":{"index_known_bits":[{"zeroes":"4294967292","ones":"0","bitwidth":"32"},{"zeroes":"4294967295","ones":"0","bitwidth":"32"}],"is_index_aligned":[]},"used_scoped_memory_configs":[]}
  %constant.1391 = bf16[]{:T(256)} constant(-0), metadata={op_name="jit(train_step)/transpose(jvp())/while/body/closed_call/checkpoint/rematted_computation/convert_element_type" stack_frame_id=0}
  ROOT %reduce.188 = bf16[4096]{0:T(1024)(128)(2,1)} reduce(%dynamic_slice.280, %constant.1391), dimensions={0}, to_apply=%convert_element_type.523.reduce_sub_computation, metadata={op_name="jit(train_step)/transpose(jvp())/while/body/closed_call/checkpoint/rematted_computation/convert_element_type" stack_frame_id=0}
}

%fused_computation.84.clone.clone (param_0.1453: bf16[4,1024,14336], param_1.1527: s32[]) -> bf16[1,1024,14336] {
  %param_0.1453 = bf16[4,1024,14336]{2,1,0:T(8,128)(2,1)} parameter(0)
  %param_1.1527 = s32[]{:T(128)S(6)} parameter(1)
  %constant.1411 = s32[]{:T(128)} constant(0)
  ROOT %dynamic-slice.175 = bf16[1,1024,14336]{2,1,0:T(8,128)(2,1)S(1)} dynamic-slice(%param_0.1453, %param_1.1527, %constant.1411, %constant.1411), dynamic_slice_sizes={1,1024,14336}, metadata={op_name="jit(train_step)/transpose(jvp())/while/body/dynamic_slice" stack_frame_id=0}, backend_config={"flag_configs":[],"scoped_memory_configs":[],"indices_config":{"index_known_bits":[{"zeroes":"4294967292","ones":"0","bitwidth":"32"},{"zeroes":"4294967295","ones":"0","bitwidth":"32"},{"zeroes":"4294967295","ones":"0","bitwidth":"32"}],"is_index_aligned":[]},"used_scoped_memory_configs":[]}
}

%fused_computation.85.clone.clone (param_0.1457: bf16[4,14336,1024], param_1.1530: s32[]) -> bf16[1,14336,1024] {
  %param_0.1457 = bf16[4,14336,1024]{2,1,0:T(8,128)(2,1)} parameter(0)
  %param_1.1530 = s32[]{:T(128)S(6)} parameter(1)
  %constant.1412 = s32[]{:T(128)} constant(0)
  ROOT %dynamic-slice.176 = bf16[1,14336,1024]{2,1,0:T(8,128)(2,1)S(1)} dynamic-slice(%param_0.1457, %param_1.1530, %constant.1412, %constant.1412), dynamic_slice_sizes={1,14336,1024}, metadata={op_name="jit(train_step)/transpose(jvp())/while/body/dynamic_slice" stack_frame_id=0}, backend_config={"flag_configs":[],"scoped_memory_configs":[],"indices_config":{"index_known_bits":[{"zeroes":"4294967292","ones":"0","bitwidth":"32"},{"zeroes":"4294967295","ones":"0","bitwidth":"32"},{"zeroes":"4294967295","ones":"0","bitwidth":"32"}],"is_index_aligned":[]},"used_scoped_memory_configs":[]}
}

%fused_computation.76.clone.clone.clone.clone (param_0.1459: bf16[1,14336,4096]) -> bf16[14336,4096] {
  %param_0.1459 = bf16[1,14336,4096]{2,1,0:T(8,128)(2,1)} parameter(0)
  ROOT %bitcast.811 = bf16[14336,4096]{1,0:T(8,128)(2,1)} bitcast(%param_0.1459), metadata={op_name="jit(train_step)/transpose(jvp())/while/body/closed_call/checkpoint/dot_general" stack_frame_id=0}
}

%fused_computation.180.clone.clone (param_0.1458: bf16[1,128,4096]) -> bf16[128,4096] {
  %param_0.1458 = bf16[1,128,4096]{2,1,0:T(8,128)(2,1)S(1)} parameter(0)
  ROOT %bitcast.810 = bf16[128,4096]{1,0:T(8,128)(2,1)} bitcast(%param_0.1458)
}

%fused_computation.109.clone.clone (param_0.1460: bf16[1,14336,4096], param_1.1531: bf16[1,128,4096]) -> bf16[1,128,14336] {
  %param_0.1460 = bf16[1,14336,4096]{2,1,0:T(8,128)(2,1)} parameter(0)
  %fusion.429 = bf16[14336,4096]{1,0:T(8,128)(2,1)} fusion(%param_0.1460), kind=kLoop, calls=%fused_computation.76.clone.clone.clone.clone, metadata={op_name="jit(train_step)/transpose(jvp())/while/body/closed_call/checkpoint/dot_general" stack_frame_id=0}
  %param_1.1531 = bf16[1,128,4096]{2,1,0:T(8,128)(2,1)S(1)} parameter(1)
  %fusion.430 = bf16[128,4096]{1,0:T(8,128)(2,1)} fusion(%param_1.1531), kind=kLoop, calls=%fused_computation.180.clone.clone
  %convolution.146 = bf16[14336,128]{0,1:T(8,128)(2,1)} convolution(%fusion.429, %fusion.430), dim_labels=bf_oi->bf, metadata={op_name="jit(train_step)/transpose(jvp())/while/body/closed_call/checkpoint/dot_general" stack_frame_id=0}
  ROOT %bitcast.812 = bf16[1,128,14336]{2,1,0:T(8,128)(2,1)S(1)} bitcast(%convolution.146), metadata={op_name="jit(train_step)/transpose(jvp())/while/body/closed_call/checkpoint/dot_general" stack_frame_id=0}
}

%fused_computation.86.clone.clone (param_0.1461: bf16[4,1024,14336], param_1.1532: s32[]) -> bf16[1,1024,14336] {
  %param_0.1461 = bf16[4,1024,14336]{2,1,0:T(8,128)(2,1)} parameter(0)
  %param_1.1532 = s32[]{:T(128)S(6)} parameter(1)
  %constant.1413 = s32[]{:T(128)} constant(0)
  ROOT %dynamic-slice.177 = bf16[1,1024,14336]{2,1,0:T(8,128)(2,1)S(1)} dynamic-slice(%param_0.1461, %param_1.1532, %constant.1413, %constant.1413), dynamic_slice_sizes={1,1024,14336}, metadata={op_name="jit(train_step)/transpose(jvp())/while/body/dynamic_slice" stack_frame_id=0}, backend_config={"flag_configs":[],"scoped_memory_configs":[],"indices_config":{"index_known_bits":[{"zeroes":"4294967292","ones":"0","bitwidth":"32"},{"zeroes":"4294967295","ones":"0","bitwidth":"32"},{"zeroes":"4294967295","ones":"0","bitwidth":"32"}],"is_index_aligned":[]},"used_scoped_memory_configs":[]}
}

%fused_computation.241.clone.clone (param_0.1452: f32[128]) -> f32[128] {
  %param_0.1452 = f32[128]{0:T(128)S(1)} parameter(0)
  %constant.1410 = f32[]{:T(128)} constant(0.000244140625)
  %broadcast.711 = f32[128]{0:T(128)} broadcast(%constant.1410), dimensions={}, metadata={op_name="jit(train_step)/transpose(jvp())/while/body/closed_call" stack_frame_id=0}
  %div.857 = f32[128]{0:T(128)} multiply(%param_0.1452, %broadcast.711), metadata={op_name="jit(train_step)/transpose(jvp())/while/body/closed_call/checkpoint/rematted_computation/div" stack_frame_id=0}
  %constant.1409 = f32[]{:T(128)} constant(1e-05)
  %broadcast.710 = f32[128]{0:T(128)} broadcast(%constant.1409), dimensions={}, metadata={op_name="jit(train_step)/transpose(jvp())/while/body/closed_call" stack_frame_id=0}
  %add.889 = f32[128]{0:T(128)} add(%div.857, %broadcast.710), metadata={op_name="jit(train_step)/transpose(jvp())/while/body/closed_call/checkpoint/rematted_computation/add" stack_frame_id=0}
  %bitcast.806 = f32[1,128]{1,0:T(1,128)} bitcast(%add.889), metadata={op_name="jit(train_step)/transpose(jvp())/while/body/closed_call/checkpoint/rematted_computation/add" stack_frame_id=0}
  %rsqrt.115 = f32[1,128]{1,0:T(1,128)} rsqrt(%bitcast.806), metadata={op_name="jit(train_step)/transpose(jvp())/while/body/closed_call/checkpoint/rematted_computation/rsqrt" stack_frame_id=0}
  ROOT %bitcast.805 = f32[128]{0:T(128)S(1)} bitcast(%rsqrt.115), metadata={op_name="jit(train_step)/transpose(jvp())/while/body/closed_call/checkpoint/rematted_computation/rsqrt" stack_frame_id=0}
}

%fused_computation.74.clone.clone (param_0.1465: bf16[1,4096,14336]) -> bf16[4096,14336] {
  %param_0.1465 = bf16[1,4096,14336]{2,1,0:T(8,128)(2,1)} parameter(0)
  ROOT %bitcast.816 = bf16[4096,14336]{1,0:T(8,128)(2,1)} bitcast(%param_0.1465), metadata={op_name="jit(train_step)/transpose(jvp())/while/body/closed_call/checkpoint/dot_general" stack_frame_id=0}
}

%fused_computation.125.clone.clone (param_0.1466: bf16[1,128,14336], param_1.1535: bf16[1,128,14336]) -> bf16[128,14336] {
  %param_1.1535 = bf16[1,128,14336]{2,1,0:T(8,128)(2,1)S(1)} parameter(1)
  %constant.1414 = bf16[]{:T(256)} constant(1)
  %jit_silu_.42 = bf16[1,128,14336]{2,1,0:T(8,128)(2,1)} broadcast(%constant.1414), dimensions={}, metadata={op_name="jit(train_step)/transpose(jvp())/while/body/closed_call/checkpoint/rematted_computation/jit(silu)" stack_frame_id=0}
  %neg.133 = bf16[1,128,14336]{2,1,0:T(8,128)(2,1)} negate(%param_1.1535), metadata={op_name="jit(train_step)/transpose(jvp())/while/body/closed_call/checkpoint/rematted_computation/jit(silu)/neg" stack_frame_id=0}
  %exp.79 = bf16[1,128,14336]{2,1,0:T(8,128)(2,1)} exponential(%neg.133), metadata={op_name="jit(train_step)/transpose(jvp())/while/body/closed_call/checkpoint/rematted_computation/jit(silu)/exp" stack_frame_id=0}
  %add.890 = bf16[1,128,14336]{2,1,0:T(8,128)(2,1)} add(%exp.79, %jit_silu_.42), metadata={op_name="jit(train_step)/transpose(jvp())/while/body/closed_call/checkpoint/rematted_computation/jit(silu)/add" stack_frame_id=0}
  %div.858 = bf16[1,128,14336]{2,1,0:T(8,128)(2,1)} divide(%jit_silu_.42, %add.890), metadata={op_name="jit(train_step)/transpose(jvp())/while/body/closed_call/checkpoint/rematted_computation/jit(silu)/div" stack_frame_id=0}
  %mul.1771 = bf16[1,128,14336]{2,1,0:T(8,128)(2,1)} multiply(%param_1.1535, %div.858), metadata={op_name="jit(train_step)/transpose(jvp())/while/body/closed_call/checkpoint/rematted_computation/jit(silu)/mul" stack_frame_id=0}
  %param_0.1466 = bf16[1,128,14336]{2,1,0:T(8,128)(2,1)S(1)} parameter(0)
  %mul.1770 = bf16[1,128,14336]{2,1,0:T(8,128)(2,1)} multiply(%mul.1771, %param_0.1466), metadata={op_name="jit(train_step)/transpose(jvp())/while/body/closed_call/checkpoint/mul" stack_frame_id=0}
  ROOT %bitcast.817 = bf16[128,14336]{1,0:T(8,128)(2,1)} bitcast(%mul.1770)
}

%fused_computation.73.clone.clone (param_0.1467: bf16[1,4096,14336], param_1.1536: bf16[1,128,14336], param_2.1174: bf16[1,128,14336]) -> bf16[128,4096] {
  %param_1.1536 = bf16[1,128,14336]{2,1,0:T(8,128)(2,1)S(1)} parameter(1)
  %param_2.1174 = bf16[1,128,14336]{2,1,0:T(8,128)(2,1)S(1)} parameter(2)
  %fusion.434 = bf16[128,14336]{1,0:T(8,128)(2,1)} fusion(%param_1.1536, %param_2.1174), kind=kLoop, calls=%fused_computation.125.clone.clone
  %param_0.1467 = bf16[1,4096,14336]{2,1,0:T(8,128)(2,1)} parameter(0)
  %fusion.433 = bf16[4096,14336]{1,0:T(8,128)(2,1)} fusion(%param_0.1467), kind=kLoop, calls=%fused_computation.74.clone.clone, metadata={op_name="jit(train_step)/transpose(jvp())/while/body/closed_call/checkpoint/dot_general" stack_frame_id=0}
  ROOT %convolution.148 = bf16[128,4096]{1,0:T(8,128)(2,1)S(1)} convolution(%fusion.434, %fusion.433), dim_labels=bf_oi->bf, metadata={op_name="jit(train_step)/transpose(jvp())/while/body/closed_call/checkpoint/dot_general" stack_frame_id=0}
}

%region_14.17 (reduce_sum.126: f32[], reduce_sum.127: f32[]) -> f32[] {
  %reduce_sum.126 = f32[]{:T(128)} parameter(0), metadata={op_name="jit(train_step)/transpose(jvp())/while/body/closed_call/checkpoint/reduce_sum"}
  %reduce_sum.127 = f32[]{:T(128)} parameter(1), metadata={op_name="jit(train_step)/transpose(jvp())/while/body/closed_call/checkpoint/reduce_sum"}
  ROOT %reduce_sum.128 = f32[]{:T(128)} add(%reduce_sum.126, %reduce_sum.127), metadata={op_name="checkpoint/reduce_sum" stack_frame_id=0}, backend_config={"flag_configs":[],"scoped_memory_configs":[],"used_scoped_memory_configs":[],"aliasing_operands":{"lists":[]}}
}

%fused_computation.78.clone.clone.clone.clone.clone.clone.clone.clone (param_0.1468: bf16[1,4096,14336]) -> bf16[4096,14336] {
  %param_0.1468 = bf16[1,4096,14336]{2,1,0:T(8,128)(2,1)} parameter(0)
  ROOT %bitcast.818 = bf16[4096,14336]{1,0:T(8,128)(2,1)} bitcast(%param_0.1468), metadata={op_name="jit(train_step)/transpose(jvp())/while/body/closed_call/checkpoint/rematted_computation/dot_general" stack_frame_id=0}
}

%fused_computation.120.clone.1.clone.clone.clone.clone (param_0.1469: bf16[1,128,14336], param_1.1537: bf16[1,128,14336], param_2.1175: bf16[1,128,14336]) -> bf16[128,14336] {
  %param_1.1537 = bf16[1,128,14336]{2,1,0:T(8,128)(2,1)S(1)} parameter(1)
  %param_2.1175 = bf16[1,128,14336]{2,1,0:T(8,128)(2,1)S(1)} parameter(2)
  %mul.1776 = bf16[1,128,14336]{2,1,0:T(8,128)(2,1)} multiply(%param_1.1537, %param_2.1175), metadata={op_name="jit(train_step)/transpose(jvp())/while/body/closed_call/checkpoint/mul" stack_frame_id=0}
  %constant.1415 = bf16[]{:T(256)} constant(1)
  %jit_silu_.43 = bf16[1,128,14336]{2,1,0:T(8,128)(2,1)} broadcast(%constant.1415), dimensions={}, metadata={op_name="jit(train_step)/transpose(jvp())/while/body/closed_call/checkpoint/rematted_computation/jit(silu)" stack_frame_id=0}
  %param_0.1469 = bf16[1,128,14336]{2,1,0:T(8,128)(2,1)S(1)} parameter(0)
  %neg.134 = bf16[1,128,14336]{2,1,0:T(8,128)(2,1)} negate(%param_0.1469), metadata={op_name="jit(train_step)/transpose(jvp())/while/body/closed_call/checkpoint/rematted_computation/jit(silu)/neg" stack_frame_id=0}
  %exp.80 = bf16[1,128,14336]{2,1,0:T(8,128)(2,1)} exponential(%neg.134), metadata={op_name="jit(train_step)/transpose(jvp())/while/body/closed_call/checkpoint/rematted_computation/jit(silu)/exp" stack_frame_id=0}
  %add.891 = bf16[1,128,14336]{2,1,0:T(8,128)(2,1)} add(%exp.80, %jit_silu_.43), metadata={op_name="jit(train_step)/transpose(jvp())/while/body/closed_call/checkpoint/rematted_computation/jit(silu)/add" stack_frame_id=0}
  %div.859 = bf16[1,128,14336]{2,1,0:T(8,128)(2,1)} divide(%jit_silu_.43, %add.891), metadata={op_name="jit(train_step)/transpose(jvp())/while/body/closed_call/checkpoint/rematted_computation/jit(silu)/div" stack_frame_id=0}
  %mul.1775 = bf16[1,128,14336]{2,1,0:T(8,128)(2,1)} multiply(%mul.1776, %div.859), metadata={op_name="jit(train_step)/transpose(jvp())/while/body/closed_call/checkpoint/jit(silu)/mul" stack_frame_id=0}
  %mul.1774 = bf16[1,128,14336]{2,1,0:T(8,128)(2,1)} multiply(%param_0.1469, %mul.1776), metadata={op_name="jit(train_step)/transpose(jvp())/while/body/closed_call/checkpoint/jit(silu)/mul" stack_frame_id=0}
  %sub.118 = bf16[1,128,14336]{2,1,0:T(8,128)(2,1)} subtract(%jit_silu_.43, %div.859), metadata={op_name="jit(train_step)/transpose(jvp())/while/body/closed_call/checkpoint/rematted_computation/jit(silu)/sub" stack_frame_id=0}
  %mul.1773 = bf16[1,128,14336]{2,1,0:T(8,128)(2,1)} multiply(%div.859, %sub.118), metadata={op_name="jit(train_step)/transpose(jvp())/while/body/closed_call/checkpoint/rematted_computation/jit(silu)/mul" stack_frame_id=0}
  %mul.1772 = bf16[1,128,14336]{2,1,0:T(8,128)(2,1)} multiply(%mul.1774, %mul.1773), metadata={op_name="jit(train_step)/transpose(jvp())/while/body/closed_call/checkpoint/jit(silu)/mul" stack_frame_id=0}
  %add_any.160 = bf16[1,128,14336]{2,1,0:T(8,128)(2,1)} add(%mul.1775, %mul.1772), metadata={op_name="jit(train_step)/transpose(jvp())/while/body/closed_call/checkpoint/jit(silu)/add_any" stack_frame_id=0}
  ROOT %bitcast.819 = bf16[128,14336]{1,0:T(8,128)(2,1)} bitcast(%add_any.160)
}

%fused_computation.158.clone.clone (param_0.1470: bf16[1,128,4096], param_1.1538: bf16[4096], param_2.1176: bf16[128,4096], param_3.794: bf16[1,4096,14336], param_4.489: bf16[1,128,14336], param_5.416: bf16[1,128,14336], param_6.268: bf16[1,128,14336]) -> (f32[128], bf16[1,128,4096]) {
  %param_0.1470 = bf16[1,128,4096]{2,1,0:T(8,128)(2,1)S(1)} parameter(0)
  %convert_element_type.1030 = f32[1,128,4096]{2,1,0:T(8,128)} convert(%param_0.1470), metadata={op_name="jit(train_step)/transpose(jvp())/while/body/closed_call/checkpoint/rematted_computation/convert_element_type" stack_frame_id=0}
  %param_2.1176 = bf16[128,4096]{1,0:T(8,128)(2,1)S(1)} parameter(2)
  %param_4.489 = bf16[1,128,14336]{2,1,0:T(8,128)(2,1)S(1)} parameter(4)
  %param_5.416 = bf16[1,128,14336]{2,1,0:T(8,128)(2,1)S(1)} parameter(5)
  %param_6.268 = bf16[1,128,14336]{2,1,0:T(8,128)(2,1)S(1)} parameter(6)
  %fusion.271.clone.3 = bf16[128,14336]{1,0:T(8,128)(2,1)} fusion(%param_4.489, %param_5.416, %param_6.268), kind=kLoop, calls=%fused_computation.120.clone.1.clone.clone.clone.clone
  %param_3.794 = bf16[1,4096,14336]{2,1,0:T(8,128)(2,1)} parameter(3)
  %fusion.158.clone.3 = bf16[4096,14336]{1,0:T(8,128)(2,1)} fusion(%param_3.794), kind=kLoop, calls=%fused_computation.78.clone.clone.clone.clone.clone.clone.clone.clone, metadata={op_name="jit(train_step)/transpose(jvp())/while/body/closed_call/checkpoint/rematted_computation/dot_general" stack_frame_id=0}
  %convolution.97.clone.3 = bf16[128,4096]{1,0:T(8,128)(2,1)} convolution(%fusion.271.clone.3, %fusion.158.clone.3), dim_labels=bf_oi->bf, metadata={op_name="jit(train_step)/transpose(jvp())/while/body/closed_call/checkpoint/dot_general" stack_frame_id=0}
  %add_any.122.clone.3 = bf16[128,4096]{1,0:T(8,128)(2,1)} add(%param_2.1176, %convolution.97.clone.3), metadata={op_name="jit(train_step)/transpose(jvp())/while/body/closed_call/checkpoint/add_any" stack_frame_id=0}
  %bitcast.323.clone.3 = bf16[1,128,4096]{2,1,0:T(8,128)(2,1)S(1)} bitcast(%add_any.122.clone.3), metadata={op_name="jit(train_step)/transpose(jvp())/while/body/closed_call/checkpoint/add_any" stack_frame_id=0}
  %param_1.1538 = bf16[4096]{0:T(1024)(128)(2,1)S(1)} parameter(1)
  %dot_general.453 = bf16[1,128,4096]{2,1,0:T(8,128)(2,1)} broadcast(%param_1.1538), dimensions={2}, metadata={op_name="jit(train_step)/transpose(jvp())/while/body/closed_call/checkpoint/rematted_computation/...k,k->...k/dot_general" stack_frame_id=0}
  %dot_general.452 = bf16[1,128,4096]{2,1,0:T(8,128)(2,1)} multiply(%bitcast.323.clone.3, %dot_general.453), metadata={op_name="jit(train_step)/transpose(jvp())/while/body/closed_call/checkpoint/...k,k->...k/dot_general" stack_frame_id=0}
  %convert_element_type.1029 = f32[1,128,4096]{2,1,0:T(8,128)} convert(%dot_general.452), metadata={op_name="jit(train_step)/transpose(jvp())/while/body/closed_call/checkpoint/convert_element_type" stack_frame_id=0}
  %mul.1777 = f32[1,128,4096]{2,1,0:T(8,128)} multiply(%convert_element_type.1030, %convert_element_type.1029), metadata={op_name="jit(train_step)/transpose(jvp())/while/body/closed_call/checkpoint/mul" stack_frame_id=0}
  %constant.1416 = f32[]{:T(128)} constant(0)
  %reduce.191 = f32[128]{0:T(128)S(1)} reduce(%mul.1777, %constant.1416), dimensions={0,2}, to_apply=%region_14.17, metadata={op_name="jit(train_step)/transpose(jvp())/while/body/closed_call/checkpoint/reduce_sum" stack_frame_id=0}
  ROOT %tuple.188 = (f32[128]{0:T(128)S(1)}, bf16[1,128,4096]{2,1,0:T(8,128)(2,1)S(1)}) tuple(%reduce.191, %bitcast.323.clone.3)
}

%fused_computation.251.clone.clone (param_0.1471: f32[128], param_1.1539: f32[128]) -> f32[128] {
  %param_0.1471 = f32[128]{0:T(128)S(1)} parameter(0)
  %bitcast.822 = f32[1,128]{1,0:T(1,128)} bitcast(%param_0.1471), metadata={op_name="jit(train_step)/transpose(jvp())/while/body/closed_call/checkpoint/reduce_sum" stack_frame_id=0}
  %param_1.1539 = f32[128]{0:T(128)S(1)} parameter(1)
  %constant.1420 = f32[]{:T(128)} constant(0.000244140625)
  %broadcast.713 = f32[128]{0:T(128)} broadcast(%constant.1420), dimensions={}, metadata={op_name="jit(train_step)/transpose(jvp())/while/body/closed_call" stack_frame_id=0}
  %div.861 = f32[128]{0:T(128)} multiply(%param_1.1539, %broadcast.713), metadata={op_name="jit(train_step)/transpose(jvp())/while/body/closed_call/checkpoint/rematted_computation/div" stack_frame_id=0}
  %constant.1419 = f32[]{:T(128)} constant(1e-05)
  %broadcast.712 = f32[128]{0:T(128)} broadcast(%constant.1419), dimensions={}, metadata={op_name="jit(train_step)/transpose(jvp())/while/body/closed_call" stack_frame_id=0}
  %add.892 = f32[128]{0:T(128)} add(%div.861, %broadcast.712), metadata={op_name="jit(train_step)/transpose(jvp())/while/body/closed_call/checkpoint/rematted_computation/add" stack_frame_id=0}
  %bitcast.821 = f32[1,128]{1,0:T(1,128)} bitcast(%add.892), metadata={op_name="jit(train_step)/transpose(jvp())/while/body/closed_call/checkpoint/rematted_computation/add" stack_frame_id=0}
  %rsqrt.116 = f32[1,128]{1,0:T(1,128)} rsqrt(%bitcast.821), metadata={op_name="jit(train_step)/transpose(jvp())/while/body/closed_call/checkpoint/rematted_computation/rsqrt" stack_frame_id=0}
  %div.860 = f32[1,128]{1,0:T(1,128)} divide(%rsqrt.116, %bitcast.821), metadata={op_name="jit(train_step)/transpose(jvp())/while/body/closed_call/checkpoint/rematted_computation/div" stack_frame_id=0}
  %constant.1418 = f32[]{:T(128)} constant(-0.5)
  %closed_call.65 = f32[1,128]{1,0:T(1,128)} broadcast(%constant.1418), dimensions={}, metadata={op_name="jit(train_step)/transpose(jvp())/while/body/closed_call" stack_frame_id=0}
  %mul.1780 = f32[1,128]{1,0:T(1,128)} multiply(%div.860, %closed_call.65), metadata={op_name="jit(train_step)/transpose(jvp())/while/body/closed_call/checkpoint/rematted_computation/mul" stack_frame_id=0}
  %mul.1779 = f32[1,128]{1,0:T(1,128)} multiply(%bitcast.822, %mul.1780), metadata={op_name="jit(train_step)/transpose(jvp())/while/body/closed_call/checkpoint/mul" stack_frame_id=0}
  %constant.1417 = f32[]{:T(128)} constant(0.00048828125)
  %mul.1781 = f32[1,128]{1,0:T(1,128)} broadcast(%constant.1417), dimensions={}, metadata={op_name="jit(train_step)/transpose(jvp())/while/body/closed_call/checkpoint/mul" stack_frame_id=0}
  %mul.1778 = f32[1,128]{1,0:T(1,128)} multiply(%mul.1779, %mul.1781), metadata={op_name="jit(train_step)/transpose(jvp())/while/body/closed_call/checkpoint/mul" stack_frame_id=0}
  ROOT %bitcast.820 = f32[128]{0:T(128)S(1)} bitcast(%mul.1778), metadata={op_name="jit(train_step)/transpose(jvp())/while/body/closed_call/checkpoint/mul" stack_frame_id=0}
}

%region_17.21 (dot_general.187: bf16[], dot_general.188: bf16[]) -> bf16[] {
  %dot_general.187 = bf16[]{:T(256)} parameter(0), metadata={op_name="jit(train_step)/transpose(jvp())/while/body/closed_call/checkpoint/...k,k->...k/dot_general"}
  %dot_general.188 = bf16[]{:T(256)} parameter(1), metadata={op_name="jit(train_step)/transpose(jvp())/while/body/closed_call/checkpoint/...k,k->...k/dot_general"}
  ROOT %add.167 = bf16[]{:T(256)} add(%dot_general.187, %dot_general.188), metadata={op_name="add.44"}, backend_config={"flag_configs":[],"scoped_memory_configs":[],"used_scoped_memory_configs":[],"aliasing_operands":{"lists":[]}}
}

%fused_computation.196.clone.clone (param_0.1472: bf16[1,128,4096], param_1.1540: f32[128], param_2.1177: bf16[1,128,4096], param_3.795: bf16[1,128,4096], param_4.490: f32[128], param_5.417: bf16[4096]) -> (bf16[4096], bf16[1,128,4096]) {
  %param_0.1472 = bf16[1,128,4096]{2,1,0:T(8,128)(2,1)S(1)} parameter(0)
  %param_2.1177 = bf16[1,128,4096]{2,1,0:T(8,128)(2,1)S(1)} parameter(2)
  %convert_element_type.1032 = f32[1,128,4096]{2,1,0:T(8,128)} convert(%param_2.1177), metadata={op_name="jit(train_step)/transpose(jvp())/while/body/closed_call/checkpoint/rematted_computation/convert_element_type" stack_frame_id=0}
  %param_1.1540 = f32[128]{0:T(128)S(1)} parameter(1)
  %mul.1783 = f32[1,128,4096]{2,1,0:T(8,128)} broadcast(%param_1.1540), dimensions={1}, metadata={op_name="jit(train_step)/transpose(jvp())/while/body/closed_call/checkpoint/rematted_computation/mul" stack_frame_id=0}
  %mul.1782 = f32[1,128,4096]{2,1,0:T(8,128)} multiply(%convert_element_type.1032, %mul.1783), metadata={op_name="jit(train_step)/transpose(jvp())/while/body/closed_call/checkpoint/rematted_computation/mul" stack_frame_id=0}
  %convert_element_type.1031 = bf16[1,128,4096]{2,1,0:T(8,128)(2,1)} convert(%mul.1782), metadata={op_name="jit(train_step)/transpose(jvp())/while/body/closed_call/checkpoint/rematted_computation/convert_element_type" stack_frame_id=0}
  %multiply.298 = bf16[1,128,4096]{2,1,0:T(8,128)(2,1)} multiply(%param_0.1472, %convert_element_type.1031), metadata={op_name="multiply.195"}
  %constant.1421 = bf16[]{:T(256)} constant(0)
  %reduce.192 = bf16[4096]{0:T(1024)(128)(2,1)} reduce(%multiply.298, %constant.1421), dimensions={0,1}, to_apply=%region_17.21, metadata={op_name="jit(train_step)/transpose(jvp())/while/body/closed_call/checkpoint/...k,k->...k/dot_general" stack_frame_id=0}
  %param_3.795 = bf16[1,128,4096]{2,1,0:T(8,128)(2,1)S(1)} parameter(3)
  %param_5.417 = bf16[4096]{0:T(1024)(128)(2,1)S(1)} parameter(5)
  %dot_general.378.clone.3 = bf16[1,128,4096]{2,1,0:T(8,128)(2,1)} broadcast(%param_5.417), dimensions={2}, metadata={op_name="jit(train_step)/transpose(jvp())/while/body/closed_call/checkpoint/rematted_computation/...k,k->...k/dot_general" stack_frame_id=0}
  %dot_general.294.clone.3 = bf16[1,128,4096]{2,1,0:T(8,128)(2,1)} multiply(%param_0.1472, %dot_general.378.clone.3), metadata={op_name="jit(train_step)/transpose(jvp())/while/body/closed_call/checkpoint/...k,k->...k/dot_general" stack_frame_id=0}
  %convert_element_type.766.clone.3 = f32[1,128,4096]{2,1,0:T(8,128)} convert(%dot_general.294.clone.3), metadata={op_name="jit(train_step)/transpose(jvp())/while/body/closed_call/checkpoint/convert_element_type" stack_frame_id=0}
  %mul.1210.clone.3 = f32[1,128,4096]{2,1,0:T(8,128)} multiply(%convert_element_type.766.clone.3, %mul.1783), metadata={op_name="jit(train_step)/transpose(jvp())/while/body/closed_call/checkpoint/mul" stack_frame_id=0}
  %param_4.490 = f32[128]{0:T(128)S(1)} parameter(4)
  %mul.1223.clone.3 = f32[1,128,4096]{2,1,0:T(8,128)} broadcast(%param_4.490), dimensions={1}, metadata={op_name="jit(train_step)/transpose(jvp())/while/body/closed_call/checkpoint/mul" stack_frame_id=0}
  %mul.1209.clone.3 = f32[1,128,4096]{2,1,0:T(8,128)} multiply(%convert_element_type.1032, %mul.1223.clone.3), metadata={op_name="jit(train_step)/transpose(jvp())/while/body/closed_call/checkpoint/mul" stack_frame_id=0}
  %add_any.142.clone.3 = f32[1,128,4096]{2,1,0:T(8,128)} add(%mul.1210.clone.3, %mul.1209.clone.3), metadata={op_name="jit(train_step)/transpose(jvp())/while/body/closed_call/checkpoint/add_any" stack_frame_id=0}
  %convert_element_type.764.clone.3 = bf16[1,128,4096]{2,1,0:T(8,128)(2,1)} convert(%add_any.142.clone.3), metadata={op_name="jit(train_step)/transpose(jvp())/while/body/closed_call/checkpoint/convert_element_type" stack_frame_id=0}
  %add_any.140.clone.3 = bf16[1,128,4096]{2,1,0:T(8,128)(2,1)S(1)} add(%param_3.795, %convert_element_type.764.clone.3), metadata={op_name="jit(train_step)/transpose(jvp())/while/body/closed_call/checkpoint/add_any" stack_frame_id=0}
  ROOT %tuple.189 = (bf16[4096]{0:T(1024)(128)(2,1)}, bf16[1,128,4096]{2,1,0:T(8,128)(2,1)S(1)}) tuple(%reduce.192, %add_any.140.clone.3)
}

%region_15.18 (dot_general.184: f32[], dot_general.185: f32[]) -> f32[] {
  %dot_general.184 = f32[]{:T(128)} parameter(0), metadata={op_name="vmap(jit(_splash_attention))/hsd,hsd->hs/dot_general"}
  %dot_general.185 = f32[]{:T(128)} parameter(1), metadata={op_name="vmap(jit(_splash_attention))/hsd,hsd->hs/dot_general"}
  ROOT %add.166 = f32[]{:T(128)} add(%dot_general.184, %dot_general.185), metadata={op_name="add.31"}, backend_config={"flag_configs":[],"scoped_memory_configs":[],"used_scoped_memory_configs":[],"aliasing_operands":{"lists":[]}}
}

%fused_computation.88.clone.clone.clone.clone (param_0.1473: bf16[1,32,128,4096]) -> bf16[32,128,4096] {
  %param_0.1473 = bf16[1,32,128,4096]{3,2,1,0:T(8,128)(2,1)S(1)} parameter(0)
  ROOT %bitcast.823 = bf16[32,128,4096]{2,1,0:T(8,128)(2,1)} bitcast(%param_0.1473), metadata={op_name="jit(train_step)/transpose(jvp())/while/body/closed_call/checkpoint/rematted_computation/dot_general" stack_frame_id=0}
}

%fused_computation.178.clone.clone.clone.clone (param_0.1474: bf16[1,128,4096]) -> bf16[128,4096,1] {
  %param_0.1474 = bf16[1,128,4096]{2,1,0:T(8,128)(2,1)S(1)} parameter(0)
  ROOT %bitcast.824 = bf16[128,4096,1]{1,0,2:T(8,128)(2,1)} bitcast(%param_0.1474)
}

%fused_computation.159.clone.clone (param_0.1475: bf16[32,128,128], param_1.1541: bf16[1,32,128,4096], param_2.1178: bf16[1,128,4096]) -> (f32[32,128], bf16[128,32,128]) {
  %param_0.1475 = bf16[32,128,128]{2,1,0:T(8,128)(2,1)S(1)} parameter(0)
  %bitcast.826 = bf16[1,32,128,128]{3,2,1,0:T(8,128)(2,1)} bitcast(%param_0.1475), metadata={op_name="jit(train_step)/transpose(jvp())/while/body/closed_call/checkpoint/rematted_computation/shard_map/vmap(jit(_splash_attention))/splash_mha_fwd_segmented_residuals/splash_mha_fwd_segmented_residuals/broadcast_in_dim" stack_frame_id=0}
  %convert.125 = f32[1,32,128,128]{3,2,1,0:T(8,128)} convert(%bitcast.826), metadata={op_name="jit(train_step)/transpose(jvp())/while/body/closed_call/checkpoint/shard_map/convert" stack_frame_id=0}
  %param_2.1178 = bf16[1,128,4096]{2,1,0:T(8,128)(2,1)S(1)} parameter(2)
  %fusion.193.clone.3 = bf16[128,4096,1]{1,0,2:T(8,128)(2,1)} fusion(%param_2.1178), kind=kLoop, calls=%fused_computation.178.clone.clone.clone.clone
  %param_1.1541 = bf16[1,32,128,4096]{3,2,1,0:T(8,128)(2,1)S(1)} parameter(1)
  %fusion.107.clone.3 = bf16[32,128,4096]{2,1,0:T(8,128)(2,1)} fusion(%param_1.1541), kind=kLoop, calls=%fused_computation.88.clone.clone.clone.clone, metadata={op_name="jit(train_step)/transpose(jvp())/while/body/closed_call/checkpoint/rematted_computation/dot_general" stack_frame_id=0}
  %convolution.70.clone.3 = bf16[128,32,128]{2,0,1:T(8,128)(2,1)S(1)} convolution(%fusion.193.clone.3, %fusion.107.clone.3), window={size=32 pad=31_31 rhs_reversal=1}, dim_labels=bf0_0oi->b0f, metadata={op_name="jit(train_step)/transpose(jvp())/while/body/closed_call/checkpoint/dot_general" stack_frame_id=0}
  %bitcast.825 = bf16[1,32,128,128]{3,2,1,0:T(8,128)(2,1)} bitcast(%convolution.70.clone.3), metadata={op_name="jit(train_step)/transpose(jvp())/while/body/closed_call/checkpoint/transpose" stack_frame_id=0}
  %convert.124 = f32[1,32,128,128]{3,2,1,0:T(8,128)} convert(%bitcast.825), metadata={op_name="jit(train_step)/transpose(jvp())/while/body/closed_call/checkpoint/shard_map/convert.1" stack_frame_id=0}
  %multiply.299 = f32[1,32,128,128]{3,2,1,0:T(8,128)} multiply(%convert.125, %convert.124), metadata={op_name="jit(train_step)/transpose(jvp())/while/body/closed_call/checkpoint/shard_map/multiply" stack_frame_id=0}
  %constant.1422 = f32[]{:T(128)} constant(0)
  %dot_general.454 = f32[32,128]{1,0:T(8,128)S(1)} reduce(%multiply.299, %constant.1422), dimensions={0,3}, to_apply=%region_15.18, metadata={op_name="jit(train_step)/transpose(jvp())/while/body/closed_call/checkpoint/shard_map/vmap(jit(_splash_attention))/hsd,hsd->hs/dot_general" stack_frame_id=0}
  ROOT %tuple.190 = (f32[32,128]{1,0:T(8,128)S(1)}, bf16[128,32,128]{2,0,1:T(8,128)(2,1)S(1)}) tuple(%dot_general.454, %convolution.70.clone.3)
}

%fused_computation.176.clone.clone (param_0.1488: bf16[32,128,128], param_1.1549: bf16[128,128]) -> bf16[1,128,32,128] {
  %param_0.1488 = bf16[32,128,128]{2,1,0:T(8,128)(2,1)S(1)} parameter(0)
  %bitcast.842 = bf16[1,32,128,128]{3,2,1,0:T(8,128)(2,1)} bitcast(%param_0.1488), metadata={op_name="jit(train_step)/transpose(jvp())/while/body/closed_call/checkpoint/shard_map/vmap(jit(_splash_attention))/splash_mha_dq_segmented_no_residuals/splash_mha_dq_segmented_no_residuals/broadcast_in_dim" stack_frame_id=0}
  %param_1.1549 = bf16[128,128]{1,0:T(8,128)(2,1)S(1)} parameter(1)
  %broadcast.716 = bf16[1,32,128,128]{3,2,1,0:T(8,128)(2,1)} broadcast(%param_1.1549), dimensions={2,3}, metadata={op_name="jit(train_step)/transpose(jvp())/while/body/closed_call/checkpoint/rematted_computation/mul" stack_frame_id=0}
  %mul.1790 = bf16[1,32,128,128]{3,2,1,0:T(8,128)(2,1)} multiply(%bitcast.842, %broadcast.716), metadata={op_name="jit(train_step)/transpose(jvp())/while/body/closed_call/checkpoint/mul" stack_frame_id=0}
  ROOT %bitcast.841 = bf16[1,128,32,128]{3,1,2,0:T(8,128)(2,1)S(1)} bitcast(%mul.1790), metadata={op_name="jit(train_step)/transpose(jvp())/while/body/closed_call/checkpoint/mul" stack_frame_id=0}
}

%fused_computation.418.clone.clone (param_0.1489: bf16[1,128,32,128]) -> (bf16[1,128,32,64], bf16[1,128,32,64]) {
  %param_0.1489 = bf16[1,128,32,128]{3,1,2,0:T(8,128)(2,1)S(1)} parameter(0)
  %slice.79 = bf16[1,128,32,64]{3,1,2,0:T(8,128)(2,1)S(1)} slice(%param_0.1489), slice={[0:1], [0:128], [0:32], [64:128]}, metadata={op_name="jit(train_step)/transpose(jvp())/while/body/closed_call/checkpoint/split" stack_frame_id=0}
  %slice.50.clone.3 = bf16[1,128,32,64]{3,1,2,0:T(8,128)(2,1)} slice(%param_0.1489), slice={[0:1], [0:128], [0:32], [0:64]}, metadata={op_name="jit(train_step)/transpose(jvp())/while/body/closed_call/checkpoint/split" stack_frame_id=0}
  %neg.103.clone.3 = bf16[1,128,32,64]{3,1,2,0:T(8,128)(2,1)S(1)} negate(%slice.50.clone.3), metadata={op_name="jit(train_step)/transpose(jvp())/while/body/closed_call/checkpoint/neg" stack_frame_id=0}
  ROOT %tuple.195 = (bf16[1,128,32,64]{3,1,2,0:T(8,128)(2,1)S(1)}, bf16[1,128,32,64]{3,1,2,0:T(8,128)(2,1)S(1)}) tuple(%slice.79, %neg.103.clone.3)
}

%fused_computation.170.clone.clone (param_0.1490: bf16[1,128,32,64], param_1.1550: bf16[1,128,32,64], param_2.1185: bf16[32,128,128], param_3.802: bf16[128,128]) -> bf16[128,32,128] {
  %param_1.1550 = bf16[1,128,32,64]{3,1,2,0:T(8,128)(2,1)S(1)} parameter(1)
  %constant.1429 = bf16[]{:T(256)} constant(-inf)
  %pad.69 = bf16[1,128,32,128]{3,1,2,0:T(8,128)(2,1)} pad(%param_1.1550, %constant.1429), padding=0_0x0_0x0_0x0_64, metadata={op_name="jit(train_step)/transpose(jvp())/while/body/closed_call/checkpoint/concatenate" stack_frame_id=0}
  %param_0.1490 = bf16[1,128,32,64]{3,1,2,0:T(8,128)(2,1)S(1)} parameter(0)
  %pad.68 = bf16[1,128,32,128]{3,1,2,0:T(8,128)(2,1)} pad(%param_0.1490, %constant.1429), padding=0_0x0_0x0_0x64_0, metadata={op_name="jit(train_step)/transpose(jvp())/while/body/closed_call/checkpoint/concatenate" stack_frame_id=0}
  %maximum.53 = bf16[1,128,32,128]{3,1,2,0:T(8,128)(2,1)} maximum(%pad.69, %pad.68), metadata={op_name="jit(train_step)/transpose(jvp())/while/body/closed_call/checkpoint/concatenate" stack_frame_id=0}
  %param_2.1185 = bf16[32,128,128]{2,1,0:T(8,128)(2,1)S(1)} parameter(2)
  %bitcast.845 = bf16[1,32,128,128]{3,2,1,0:T(8,128)(2,1)} bitcast(%param_2.1185), metadata={op_name="jit(train_step)/transpose(jvp())/while/body/closed_call/checkpoint/shard_map/vmap(jit(_splash_attention))/splash_mha_dq_segmented_no_residuals/splash_mha_dq_segmented_no_residuals/broadcast_in_dim" stack_frame_id=0}
  %param_3.802 = bf16[128,128]{1,0:T(8,128)(2,1)S(1)} parameter(3)
  %broadcast.717 = bf16[1,32,128,128]{3,2,1,0:T(8,128)(2,1)} broadcast(%param_3.802), dimensions={2,3}, metadata={op_name="jit(train_step)/transpose(jvp())/while/body/closed_call/checkpoint/rematted_computation/mul" stack_frame_id=0}
  %mul.1791 = bf16[1,32,128,128]{3,2,1,0:T(8,128)(2,1)} multiply(%bitcast.845, %broadcast.717), metadata={op_name="jit(train_step)/transpose(jvp())/while/body/closed_call/checkpoint/mul" stack_frame_id=0}
  %bitcast.844 = bf16[1,128,32,128]{3,1,2,0:T(8,128)(2,1)} bitcast(%mul.1791), metadata={op_name="jit(train_step)/transpose(jvp())/while/body/closed_call/checkpoint/mul" stack_frame_id=0}
  %add_any.162 = bf16[1,128,32,128]{3,1,2,0:T(8,128)(2,1)} add(%maximum.53, %bitcast.844), metadata={op_name="jit(train_step)/transpose(jvp())/while/body/closed_call/checkpoint/add_any" stack_frame_id=0}
  ROOT %bitcast.843 = bf16[128,32,128]{2,0,1:T(8,128)(2,1)S(1)} bitcast(%add_any.162)
}

%fused_computation.92.clone.clone.clone.clone (param_0.1501: bf16[1,4096,32,128]) -> bf16[4096,32,128] {
  %param_0.1501 = bf16[1,4096,32,128]{1,3,2,0:T(8,128)(2,1)S(1)} parameter(0)
  ROOT %bitcast.856 = bf16[4096,32,128]{0,2,1:T(8,128)(2,1)} bitcast(%param_0.1501), metadata={op_name="jit(train_step)/transpose(jvp())/while/body/closed_call/checkpoint/rematted_computation/dot_general" stack_frame_id=0}
}

%bitcast_fusion.1.clone.clone (bitcast_input.13: bf16[128,32,128]) -> bf16[128,32,128] {
  %bitcast_input.13 = bf16[128,32,128]{2,0,1:T(8,128)(2,1)S(1)} parameter(0)
  ROOT %bitcast.857 = bf16[128,32,128]{2,0,1:T(8,128)(2,1)} bitcast(%bitcast_input.13)
}

%fused_computation.141.clone.clone (param_0.1502: bf16[128,32,128], param_1.1557: bf16[1,4096,32,128]) -> bf16[128,4096] {
  %param_0.1502 = bf16[128,32,128]{2,0,1:T(8,128)(2,1)S(1)} parameter(0)
  %fusion.446 = bf16[128,32,128]{2,0,1:T(8,128)(2,1)} fusion(%param_0.1502), kind=kLoop, calls=%bitcast_fusion.1.clone.clone
  %param_1.1557 = bf16[1,4096,32,128]{1,3,2,0:T(8,128)(2,1)S(1)} parameter(1)
  %fusion.445 = bf16[4096,32,128]{0,2,1:T(8,128)(2,1)} fusion(%param_1.1557), kind=kLoop, calls=%fused_computation.92.clone.clone.clone.clone, metadata={op_name="jit(train_step)/transpose(jvp())/while/body/closed_call/checkpoint/rematted_computation/dot_general" stack_frame_id=0}
  %convolution.154 = bf16[128,4096,1]{1,0,2:T(8,128)(2,1)} convolution(%fusion.446, %fusion.445), window={size=32}, dim_labels=b0f_o0i->bf0, metadata={op_name="jit(train_step)/transpose(jvp())/while/body/closed_call/checkpoint/dot_general" stack_frame_id=0}
  ROOT %bitcast.858 = bf16[128,4096]{1,0:T(8,128)(2,1)S(1)} bitcast(%convolution.154), metadata={op_name="jit(train_step)/transpose(jvp())/while/body/closed_call/checkpoint/dot_general" stack_frame_id=0}
}

%fused_computation.231.clone.clone (param_0.1480: bf16[8,128,128], param_1.1544: bf16[128,128]) -> bf16[1,128,8,128] {
  %param_0.1480 = bf16[8,128,128]{2,1,0:T(8,128)(2,1)S(1)} parameter(0)
  %bitcast.832 = bf16[1,8,128,128]{3,2,1,0:T(8,128)(2,1)} bitcast(%param_0.1480), metadata={op_name="jit(train_step)/transpose(jvp())/while/body/closed_call/checkpoint/shard_map/vmap(jit(_splash_attention))/splash_mha_dkv_segmented_no_residuals/splash_mha_dkv_segmented_no_residuals/broadcast_in_dim" stack_frame_id=0}
  %param_1.1544 = bf16[128,128]{1,0:T(8,128)(2,1)S(1)} parameter(1)
  %broadcast.714 = bf16[1,8,128,128]{3,2,1,0:T(8,128)(2,1)} broadcast(%param_1.1544), dimensions={2,3}, metadata={op_name="jit(train_step)/transpose(jvp())/while/body/closed_call/checkpoint/rematted_computation/mul" stack_frame_id=0}
  %mul.1786 = bf16[1,8,128,128]{3,2,1,0:T(8,128)(2,1)} multiply(%bitcast.832, %broadcast.714), metadata={op_name="jit(train_step)/transpose(jvp())/while/body/closed_call/checkpoint/mul" stack_frame_id=0}
  ROOT %bitcast.831 = bf16[1,128,8,128]{3,1,2,0:T(8,128)(2,1)S(1)} bitcast(%mul.1786), metadata={op_name="jit(train_step)/transpose(jvp())/while/body/closed_call/checkpoint/mul" stack_frame_id=0}
}

%fused_computation.419.clone.clone (param_0.1481: bf16[1,128,8,128]) -> (bf16[1,128,8,64], bf16[1,128,8,64]) {
  %param_0.1481 = bf16[1,128,8,128]{3,1,2,0:T(8,128)(2,1)S(1)} parameter(0)
  %slice.78 = bf16[1,128,8,64]{3,1,2,0:T(8,128)(2,1)S(1)} slice(%param_0.1481), slice={[0:1], [0:128], [0:8], [64:128]}, metadata={op_name="jit(train_step)/transpose(jvp())/while/body/closed_call/checkpoint/split" stack_frame_id=0}
  %slice.52.clone.3 = bf16[1,128,8,64]{3,1,2,0:T(8,128)(2,1)} slice(%param_0.1481), slice={[0:1], [0:128], [0:8], [0:64]}, metadata={op_name="jit(train_step)/transpose(jvp())/while/body/closed_call/checkpoint/split" stack_frame_id=0}
  %neg.105.clone.3 = bf16[1,128,8,64]{3,1,2,0:T(8,128)(2,1)S(1)} negate(%slice.52.clone.3), metadata={op_name="jit(train_step)/transpose(jvp())/while/body/closed_call/checkpoint/neg" stack_frame_id=0}
  ROOT %tuple.192 = (bf16[1,128,8,64]{3,1,2,0:T(8,128)(2,1)S(1)}, bf16[1,128,8,64]{3,1,2,0:T(8,128)(2,1)S(1)}) tuple(%slice.78, %neg.105.clone.3)
}

%fused_computation.226.clone.clone (param_0.1482: bf16[1,128,8,64], param_1.1545: bf16[1,128,8,64], param_2.1181: bf16[8,128,128], param_3.798: bf16[128,128]) -> bf16[128,8,128] {
  %param_1.1545 = bf16[1,128,8,64]{3,1,2,0:T(8,128)(2,1)S(1)} parameter(1)
  %constant.1424 = bf16[]{:T(256)} constant(-inf)
  %pad.67 = bf16[1,128,8,128]{3,1,2,0:T(8,128)(2,1)} pad(%param_1.1545, %constant.1424), padding=0_0x0_0x0_0x0_64, metadata={op_name="jit(train_step)/transpose(jvp())/while/body/closed_call/checkpoint/concatenate" stack_frame_id=0}
  %param_0.1482 = bf16[1,128,8,64]{3,1,2,0:T(8,128)(2,1)S(1)} parameter(0)
  %pad.66 = bf16[1,128,8,128]{3,1,2,0:T(8,128)(2,1)} pad(%param_0.1482, %constant.1424), padding=0_0x0_0x0_0x64_0, metadata={op_name="jit(train_step)/transpose(jvp())/while/body/closed_call/checkpoint/concatenate" stack_frame_id=0}
  %maximum.52 = bf16[1,128,8,128]{3,1,2,0:T(8,128)(2,1)} maximum(%pad.67, %pad.66), metadata={op_name="jit(train_step)/transpose(jvp())/while/body/closed_call/checkpoint/concatenate" stack_frame_id=0}
  %param_2.1181 = bf16[8,128,128]{2,1,0:T(8,128)(2,1)S(1)} parameter(2)
  %bitcast.835 = bf16[1,8,128,128]{3,2,1,0:T(8,128)(2,1)} bitcast(%param_2.1181), metadata={op_name="jit(train_step)/transpose(jvp())/while/body/closed_call/checkpoint/shard_map/vmap(jit(_splash_attention))/splash_mha_dkv_segmented_no_residuals/splash_mha_dkv_segmented_no_residuals/broadcast_in_dim" stack_frame_id=0}
  %param_3.798 = bf16[128,128]{1,0:T(8,128)(2,1)S(1)} parameter(3)
  %broadcast.715 = bf16[1,8,128,128]{3,2,1,0:T(8,128)(2,1)} broadcast(%param_3.798), dimensions={2,3}, metadata={op_name="jit(train_step)/transpose(jvp())/while/body/closed_call/checkpoint/rematted_computation/mul" stack_frame_id=0}
  %mul.1787 = bf16[1,8,128,128]{3,2,1,0:T(8,128)(2,1)} multiply(%bitcast.835, %broadcast.715), metadata={op_name="jit(train_step)/transpose(jvp())/while/body/closed_call/checkpoint/mul" stack_frame_id=0}
  %bitcast.834 = bf16[1,128,8,128]{3,1,2,0:T(8,128)(2,1)} bitcast(%mul.1787), metadata={op_name="jit(train_step)/transpose(jvp())/while/body/closed_call/checkpoint/mul" stack_frame_id=0}
  %add_any.161 = bf16[1,128,8,128]{3,1,2,0:T(8,128)(2,1)} add(%maximum.52, %bitcast.834), metadata={op_name="jit(train_step)/transpose(jvp())/while/body/closed_call/checkpoint/add_any" stack_frame_id=0}
  ROOT %bitcast.833 = bf16[128,8,128]{2,0,1:T(8,128)(2,1)S(1)} bitcast(%add_any.161)
}

%fused_computation.105.clone.clone.clone.clone (param_0.1499: bf16[1,4096,8,128]) -> bf16[4096,8,128] {
  %param_0.1499 = bf16[1,4096,8,128]{1,3,2,0:T(8,128)(2,1)S(1)} parameter(0)
  ROOT %bitcast.853 = bf16[4096,8,128]{0,2,1:T(8,128)(2,1)} bitcast(%param_0.1499), metadata={op_name="jit(train_step)/transpose(jvp())/while/body/closed_call/checkpoint/rematted_computation/dot_general" stack_frame_id=0}
}

%bitcast_fusion.clone.clone (bitcast_input.12: bf16[128,8,128]) -> bf16[128,8,128] {
  %bitcast_input.12 = bf16[128,8,128]{2,0,1:T(8,128)(2,1)S(1)} parameter(0)
  ROOT %bitcast.854 = bf16[128,8,128]{2,0,1:T(8,128)(2,1)} bitcast(%bitcast_input.12)
}

%fused_computation.139.clone.clone (param_0.1500: bf16[128,8,128], param_1.1556: bf16[1,4096,8,128]) -> bf16[128,4096] {
  %param_0.1500 = bf16[128,8,128]{2,0,1:T(8,128)(2,1)S(1)} parameter(0)
  %fusion.444 = bf16[128,8,128]{2,0,1:T(8,128)(2,1)} fusion(%param_0.1500), kind=kLoop, calls=%bitcast_fusion.clone.clone
  %param_1.1556 = bf16[1,4096,8,128]{1,3,2,0:T(8,128)(2,1)S(1)} parameter(1)
  %fusion.443 = bf16[4096,8,128]{0,2,1:T(8,128)(2,1)} fusion(%param_1.1556), kind=kLoop, calls=%fused_computation.105.clone.clone.clone.clone, metadata={op_name="jit(train_step)/transpose(jvp())/while/body/closed_call/checkpoint/rematted_computation/dot_general" stack_frame_id=0}
  %convolution.153 = bf16[128,4096,1]{1,0,2:T(8,128)(2,1)} convolution(%fusion.444, %fusion.443), window={size=8}, dim_labels=b0f_o0i->bf0, metadata={op_name="jit(train_step)/transpose(jvp())/while/body/closed_call/checkpoint/dot_general" stack_frame_id=0}
  ROOT %bitcast.855 = bf16[128,4096]{1,0:T(8,128)(2,1)S(1)} bitcast(%convolution.153), metadata={op_name="jit(train_step)/transpose(jvp())/while/body/closed_call/checkpoint/dot_general" stack_frame_id=0}
}

%region_16.20 (reduce_sum.129: f32[], reduce_sum.133: f32[]) -> f32[] {
  %reduce_sum.129 = f32[]{:T(128)} parameter(0), metadata={op_name="jit(train_step)/transpose(jvp())/while/body/closed_call/checkpoint/reduce_sum"}
  %reduce_sum.133 = f32[]{:T(128)} parameter(1), metadata={op_name="jit(train_step)/transpose(jvp())/while/body/closed_call/checkpoint/reduce_sum"}
  ROOT %reduce_sum.134 = f32[]{:T(128)} add(%reduce_sum.129, %reduce_sum.133), metadata={op_name="checkpoint/reduce_sum" stack_frame_id=0}, backend_config={"flag_configs":[],"scoped_memory_configs":[],"used_scoped_memory_configs":[],"aliasing_operands":{"lists":[]}}
}

