HloModule jit_train_step, is_scheduled=true, input_output_alias={ {0}: (0, {}, may-alias), {1}: (1, {}, may-alias), {2}: (2, {}, may-alias), {3}: (3, {}, may-alias), {4}: (4, {}, may-alias), {5}: (5, {}, may-alias), {6}: (6, {}, may-alias), {7}: (7, {}, may-alias), {8}: (8, {}, may-alias), {9}: (9, {}, may-alias), {10}: (10, {}, may-alias), {11}: (11, {}, may-alias), {12}: (12, {}, may-alias), {13}: (13, {}, may-alias), {14}: (14, {}, may-alias), {15}: (15, {}, may-alias), {16}: (16, {}, may-alias), {17}: (17, {}, may-alias), {18}: (18, {}, may-alias), {19}: (19, {}, may-alias), {20}: (20, {}, may-alias), {21}: (21, {}, may-alias), {22}: (22, {}, may-alias), {23}: (23, {}, may-alias), {24}: (24, {}, may-alias), {25}: (25, {}, may-alias), {26}: (26, {}, may-alias), {27}: (27, {}, may-alias), {28}: (28, {}, may-alias), {29}: (29, {}, may-alias), {30}: (30, {}, may-alias), {31}: (31, {}, may-alias), {32}: (32, {}, may-alias), {33}: (33, {}, may-alias), {34}: (34, {}, may-alias), {35}: (35, {}, may-alias), {36}: (36, {}, may-alias), {37}: (37, {}, may-alias), {38}: (38, {}, may-alias), {39}: (39, {}, may-alias), {40}: (40, {}, may-alias), {41}: (41, {}, may-alias) }, entry_computation_layout={(s32[]{:T(128)}, f32[2048]{0:T(1024)}, f32[2048,4,6144]{2,1,0:T(4,128)}, f32[2048,4,6144]{2,1,0:T(4,128)}, f32[6144,4,2048]{2,1,0:T(4,128)}, /*index=5*/f32[2048,4]{0,1:T(4,128)}, f32[2048,4]{0,1:T(4,128)}, f32[2048,4,8,128]{3,2,1,0:T(8,128)}, f32[128,4]{0,1:T(4,128)}, f32[16,4,128,2048]{3,2,1,0:T(8,128)}, /*index=10*/f32[2048,4,16,128]{3,2,1,0:T(8,128)}, f32[128,4]{0,1:T(4,128)}, f32[2048,4,8,128]{3,2,1,0:T(8,128)}, f32[151936,2048]{1,0:T(8,128)}, s32[]{:T(128)}, /*index=15*/f32[2048]{0:T(1024)}, f32[2048,4,6144]{2,1,0:T(4,128)}, f32[2048,4,6144]{2,1,0:T(4,128)}, f32[6144,4,2048]{2,1,0:T(4,128)}, f32[2048,4]{0,1:T(4,128)}, /*index=20*/f32[2048,4]{0,1:T(4,128)}, f32[2048,4,8,128]{3,2,1,0:T(8,128)}, f32[128,4]{0,1:T(4,128)}, f32[16,4,128,2048]{3,2,1,0:T(8,128)}, f32[2048,4,16,128]{3,2,1,0:T(8,128)}, /*index=25*/f32[128,4]{0,1:T(4,128)}, f32[2048,4,8,128]{3,2,1,0:T(8,128)}, f32[151936,2048]{1,0:T(8,128)}, f32[2048]{0:T(1024)}, f32[2048,4,6144]{2,1,0:T(4,128)}, /*index=30*/f32[2048,4,6144]{2,1,0:T(4,128)}, f32[6144,4,2048]{2,1,0:T(4,128)}, f32[2048,4]{0,1:T(4,128)}, f32[2048,4]{0,1:T(4,128)}, f32[2048,4,8,128]{3,2,1,0:T(8,128)}, /*index=35*/f32[128,4]{0,1:T(4,128)}, f32[16,4,128,2048]{3,2,1,0:T(8,128)}, f32[2048,4,16,128]{3,2,1,0:T(8,128)}, f32[128,4]{0,1:T(4,128)}, f32[2048,4,8,128]{3,2,1,0:T(8,128)}, /*index=40*/f32[151936,2048]{1,0:T(8,128)}, s32[]{:T(128)}, s32[4,128]{1,0:T(4,128)}, s32[4,128]{1,0:T(4,128)}, s32[4,128]{1,0:T(4,128)}, /*index=45*/s32[4,128]{1,0:T(4,128)}, s32[4,128]{1,0:T(4,128)})->(s32[]{:T(128)}, f32[2048]{0:T(1024)}, f32[2048,4,6144]{2,1,0:T(4,128)}, f32[2048,4,6144]{2,1,0:T(4,128)}, f32[6144,4,2048]{2,1,0:T(4,128)}, /*index=5*/f32[2048,4]{0,1:T(4,128)}, f32[2048,4]{0,1:T(4,128)}, f32[2048,4,8,128]{3,2,1,0:T(8,128)}, f32[128,4]{0,1:T(4,128)}, f32[16,4,128,2048]{3,2,1,0:T(8,128)}, /*index=10*/f32[2048,4,16,128]{3,2,1,0:T(8,128)}, f32[128,4]{0,1:T(4,128)}, f32[2048,4,8,128]{3,2,1,0:T(8,128)}, f32[151936,2048]{1,0:T(8,128)}, s32[]{:T(128)}, /*index=15*/f32[2048]{0:T(1024)}, f32[2048,4,6144]{2,1,0:T(4,128)}, f32[2048,4,6144]{2,1,0:T(4,128)}, f32[6144,4,2048]{2,1,0:T(4,128)}, f32[2048,4]{0,1:T(4,128)}, /*index=20*/f32[2048,4]{0,1:T(4,128)}, f32[2048,4,8,128]{3,2,1,0:T(8,128)}, f32[128,4]{0,1:T(4,128)}, f32[16,4,128,2048]{3,2,1,0:T(8,128)}, f32[2048,4,16,128]{3,2,1,0:T(8,128)}, /*index=25*/f32[128,4]{0,1:T(4,128)}, f32[2048,4,8,128]{3,2,1,0:T(8,128)}, f32[151936,2048]{1,0:T(8,128)}, f32[2048]{0:T(1024)}, f32[2048,4,6144]{2,1,0:T(4,128)}, /*index=30*/f32[2048,4,6144]{2,1,0:T(4,128)}, f32[6144,4,2048]{2,1,0:T(4,128)}, f32[2048,4]{0,1:T(4,128)}, f32[2048,4]{0,1:T(4,128)}, f32[2048,4,8,128]{3,2,1,0:T(8,128)}, /*index=35*/f32[128,4]{0,1:T(4,128)}, f32[16,4,128,2048]{3,2,1,0:T(8,128)}, f32[2048,4,16,128]{3,2,1,0:T(8,128)}, f32[128,4]{0,1:T(4,128)}, f32[2048,4,8,128]{3,2,1,0:T(8,128)}, /*index=40*/f32[151936,2048]{1,0:T(8,128)}, s32[]{:T(128)}, f32[]{:T(128)}, f32[]{:T(128)}, f32[]{:T(128)}, /*index=45*/f32[]{:T(128)}, f32[]{:T(128)}, f32[]{:T(128)}, f32[]{:T(128)}, f32[]{:T(128)}, /*index=50*/f32[]{:T(128)}, s32[]{:T(128)}, f32[]{:T(128)})}, allow_spmd_sharding_propagation_to_parameters={false,false,false,false,false,false,false,false,false,false,false,false,false,false,false,false,false,false,false,false,false,false,false,false,false,false,false,false,false,false,false,false,false,false,false,false,false,false,false,false,false,false,false,false,false,false,false}, allow_spmd_sharding_propagation_to_output={false,false,false,false,false,false,false,false,false,false,false,false,false,false,false,false,false,false,false,false,false,false,false,false,false,false,false,false,false,false,false,false,false,false,false,false,false,false,false,false,false,false,true,true,true,true,true,true,true,true,true,true,true}, num_partitions=4

FileNames

FunctionNames

FileLocations

StackFrames


%fused_computation (param_0.2: bf16[151936,2048], param_1.7: s32[1024]) -> bf16[512,2048] {
  %param_0.2 = bf16[151936,2048]{1,0:T(8,128)(2,1)} parameter(0)
  %param_1.7 = s32[1024]{0:T(1024)S(1)} parameter(1)
  %custom-call.1 = s32[1024]{0:T(1024)} custom-call(%param_1.7), custom_call_target="AssumeGatherIndicesInBound", operand_layout_constraints={s32[1024]{0:T(1024)}}, metadata={op_name="jit(train_step)/jvp(TransformerLinenPure.apply)/TransformerLinenPure/decoder/decoder._apply_embedding/token_embedder/gather" stack_frame_id=0}
  %slice.6 = s32[512]{0:T(512)} slice(%custom-call.1), slice={[0:512]}, metadata={op_name="jit(train_step)/jvp(TransformerLinenPure.apply)/TransformerLinenPure/decoder/decoder._apply_embedding/token_embedder/gather" stack_frame_id=0}
  %reshape.444 = s32[4,128]{1,0:T(4,128)} reshape(%slice.6), metadata={op_name="jit(train_step)/jvp(TransformerLinenPure.apply)/TransformerLinenPure/decoder/decoder._apply_embedding/token_embedder/broadcast_in_dim" stack_frame_id=0}
  %transpose.461 = s32[4,128]{1,0:T(4,128)} transpose(%reshape.444), dimensions={0,1}, metadata={op_name="jit(train_step)/jvp(TransformerLinenPure.apply)/TransformerLinenPure/decoder/decoder._apply_embedding/token_embedder/broadcast_in_dim" stack_frame_id=0}
  %gather.4 = bf16[4,128,2048]{2,1,0:T(8,128)(2,1)} gather(%param_0.2, %transpose.461), offset_dims={2}, collapsed_slice_dims={0}, start_index_map={0}, index_vector_dim=2, slice_sizes={1,2048}, metadata={op_name="jit(train_step)/jvp(TransformerLinenPure.apply)/TransformerLinenPure/decoder/decoder._apply_embedding/token_embedder/gather" stack_frame_id=0}
  %transpose.460 = bf16[4,128,2048]{2,1,0:T(8,128)(2,1)} transpose(%gather.4), dimensions={0,1,2}, metadata={op_name="jit(train_step)/jvp(TransformerLinenPure.apply)/TransformerLinenPure/decoder/decoder._apply_embedding/token_embedder/gather" stack_frame_id=0}
  ROOT %reshape.443 = bf16[512,2048]{1,0:T(8,128)(2,1)S(1)} reshape(%transpose.460), metadata={op_name="jit(train_step)/jvp(TransformerLinenPure.apply)/TransformerLinenPure/decoder/decoder._apply_embedding/token_embedder/gather" stack_frame_id=0}
}

%region_42.47.clone (scatter-add.6: bf16[], scatter-add.7: bf16[]) -> bf16[] {
  %scatter-add.7 = bf16[]{:T(256)} parameter(1), metadata={op_name="jit(train_step)/transpose(jvp(TransformerLinenPure.apply))/TransformerLinenPure/decoder/decoder._apply_embedding/token_embedder/scatter-add"}
  %scatter-add.6 = bf16[]{:T(256)} parameter(0), metadata={op_name="jit(train_step)/transpose(jvp(TransformerLinenPure.apply))/TransformerLinenPure/decoder/decoder._apply_embedding/token_embedder/scatter-add"}
  ROOT %add.584 = bf16[]{:T(256)} add(%scatter-add.6, %scatter-add.7), metadata={op_name="jit(train_step)/transpose(jvp(TransformerLinenPure.apply))/TransformerLinenPure/decoder/decoder._apply_embedding/token_embedder/add" stack_frame_id=0}, backend_config={"flag_configs":[],"scoped_memory_configs":[],"used_scoped_memory_configs":[],"aliasing_operands":{"lists":[]}}
}

%fused_computation.1 (param_0.3: bf16[151936,2048], param_1.5: s32[512], param_2.4: bf16[512,2048]) -> bf16[151936,2048] {
  %param_0.3 = bf16[151936,2048]{1,0:T(8,128)(2,1)} parameter(0)
  %param_1.5 = s32[512]{0:T(512)S(1)} parameter(1)
  %reshape.451 = s32[4,128]{1,0:T(4,128)} reshape(%param_1.5), metadata={op_name="jit(train_step)/jvp(TransformerLinenPure.apply)/TransformerLinenPure/decoder/decoder._apply_embedding/token_embedder/broadcast_in_dim" stack_frame_id=0}
  %transpose.466 = s32[4,128]{1,0:T(4,128)} transpose(%reshape.451), dimensions={0,1}, metadata={op_name="jit(train_step)/jvp(TransformerLinenPure.apply)/TransformerLinenPure/decoder/decoder._apply_embedding/token_embedder/broadcast_in_dim" stack_frame_id=0}
  %param_2.4 = bf16[512,2048]{1,0:T(8,128)(2,1)S(1)} parameter(2)
  %reshape.452 = bf16[4,128,2048]{2,1,0:T(8,128)(2,1)} reshape(%param_2.4), metadata={op_name="jit(train_step)/transpose(jvp(TransformerLinenPure.apply))/TransformerLinenPure/decoder/while" stack_frame_id=0}
  %transpose.467 = bf16[4,128,2048]{2,1,0:T(8,128)(2,1)} transpose(%reshape.452), dimensions={0,1,2}, metadata={op_name="jit(train_step)/transpose(jvp(TransformerLinenPure.apply))/TransformerLinenPure/decoder/while" stack_frame_id=0}
  ROOT %scatter.2 = bf16[151936,2048]{1,0:T(8,128)(2,1)} scatter(%param_0.3, %transpose.466, %transpose.467), update_window_dims={2}, inserted_window_dims={0}, scatter_dims_to_operand_dims={0}, index_vector_dim=2, to_apply=%region_42.47.clone, metadata={op_name="jit(train_step)/transpose(jvp(TransformerLinenPure.apply))/TransformerLinenPure/decoder/decoder._apply_embedding/token_embedder/scatter-add" stack_frame_id=0}
}

%region_71.76 (reduce_sum.464: f32[], reduce_sum.465: f32[]) -> f32[] {
  %reduce_sum.465 = f32[]{:T(128)} parameter(1), metadata={op_name="jit(train_step)/reduce_sum"}
  %reduce_sum.464 = f32[]{:T(128)} parameter(0), metadata={op_name="jit(train_step)/reduce_sum"}
  ROOT %reduce_sum.466 = f32[]{:T(128)} add(%reduce_sum.464, %reduce_sum.465), metadata={op_name="jit(train_step)/reduce_sum" stack_frame_id=0}, backend_config={"flag_configs":[],"scoped_memory_configs":[],"used_scoped_memory_configs":[],"aliasing_operands":{"lists":[]}}
}

%region_56.61 (reduce_sum.386: f32[], reduce_sum.387: f32[]) -> f32[] {
  %reduce_sum.387 = f32[]{:T(128)} parameter(1), metadata={op_name="jit(train_step)/reduce_sum"}
  %reduce_sum.386 = f32[]{:T(128)} parameter(0), metadata={op_name="jit(train_step)/reduce_sum"}
  ROOT %reduce_sum.388 = f32[]{:T(128)} add(%reduce_sum.386, %reduce_sum.387), metadata={op_name="jit(train_step)/reduce_sum" stack_frame_id=0}, backend_config={"flag_configs":[],"scoped_memory_configs":[],"used_scoped_memory_configs":[],"aliasing_operands":{"lists":[]}}
}

%fused_computation.277 (param_0.1368: f32[151936,2048], param_1.1556: f32[], param_2.1314: f32[], param_3.918: f32[], param_4.556: f32[151936,2048], param_5.468: f32[], param_6.358: bf16[151936,2048], param_7.201: bf16[151936,2048,1], param_8.118: pred[], param_9.97: f32[151936,2048]) -> (f32[], f32[151936,2048], f32[151936,2048], f32[151936,2048], f32[]) {
  %param_0.1368 = f32[151936,2048]{1,0:T(8,128)} parameter(0)
  %param_3.918 = f32[]{:T(128)S(6)} parameter(3)
  %mul.1926.clone.1 = f32[151936,2048]{1,0:T(8,128)} broadcast(%param_3.918), dimensions={}, metadata={op_name="jit(train_step)/mul" stack_frame_id=0}
  %param_8.118 = pred[]{:T(512)S(6)} parameter(8)
  %select_n.268.clone.1 = pred[151936,2048]{1,0:T(8,128)(4,1)} broadcast(%param_8.118), dimensions={}, metadata={op_name="jit(train_step)/select_n" stack_frame_id=0}
  %param_7.201 = bf16[151936,2048,1]{1,0,2:T(8,128)(2,1)} parameter(7)
  %bitcast.464.clone.1 = bf16[151936,2048]{1,0:T(8,128)(2,1)} bitcast(%param_7.201), metadata={op_name="jit(train_step)/transpose(jvp(TransformerLinenPure.apply))/TransformerLinenPure/decoder/decoder.apply_output_head/dot_general" stack_frame_id=0}
  %convert_element_type.1409.clone.1 = f32[151936,2048]{1,0:T(8,128)} convert(%bitcast.464.clone.1), metadata={op_name="jit(train_step)/transpose(jvp(TransformerLinenPure.apply))/TransformerLinenPure/decoder/decoder.apply_output_head/convert_element_type" stack_frame_id=0}
  %param_6.358 = bf16[151936,2048]{1,0:T(8,128)(2,1)} parameter(6)
  %convert_element_type.1408.clone.1 = f32[151936,2048]{1,0:T(8,128)} convert(%param_6.358), metadata={op_name="jit(train_step)/transpose(jvp(TransformerLinenPure.apply))/TransformerLinenPure/decoder/decoder._apply_embedding/token_embedder/convert_element_type" stack_frame_id=0}
  %add_any.197.clone.1 = f32[151936,2048]{1,0:T(8,128)} add(%convert_element_type.1409.clone.1, %convert_element_type.1408.clone.1), metadata={op_name="jit(train_step)/transpose(jvp(TransformerLinenPure.apply))/TransformerLinenPure/decoder/decoder._apply_embedding/token_embedder/add_any" stack_frame_id=0}
  %param_5.468 = f32[]{:T(128)} parameter(5)
  %div.860.clone.1 = f32[151936,2048]{1,0:T(8,128)} broadcast(%param_5.468), dimensions={}, metadata={op_name="jit(train_step)/div" stack_frame_id=0}
  %div.859.clone.1 = f32[151936,2048]{1,0:T(8,128)} divide(%add_any.197.clone.1, %div.860.clone.1), metadata={op_name="jit(train_step)/div" stack_frame_id=0}
  %select_n.267.clone.1 = f32[151936,2048]{1,0:T(8,128)} select(%select_n.268.clone.1, %add_any.197.clone.1, %div.859.clone.1), metadata={op_name="jit(train_step)/select_n" stack_frame_id=0}
  %constant.1092.clone.1 = f32[]{:T(128)} constant(0.1)
  %broadcast.844.clone.1 = f32[151936,2048]{1,0:T(8,128)} broadcast(%constant.1092.clone.1), dimensions={}, metadata={op_name="broadcast.74"}
  %mul.1932.clone.1 = f32[151936,2048]{1,0:T(8,128)} multiply(%select_n.267.clone.1, %broadcast.844.clone.1), metadata={op_name="jit(train_step)/mul" stack_frame_id=0}
  %param_9.97 = f32[151936,2048]{1,0:T(8,128)} parameter(9)
  %constant.1096.clone.1 = f32[]{:T(128)} constant(0.9)
  %mul.1933.clone.1 = f32[151936,2048]{1,0:T(8,128)} broadcast(%constant.1096.clone.1), dimensions={}, metadata={op_name="jit(train_step)/mul" stack_frame_id=0}
  %mul.1931.clone.1 = f32[151936,2048]{1,0:T(8,128)} multiply(%param_9.97, %mul.1933.clone.1), metadata={op_name="jit(train_step)/mul" stack_frame_id=0}
  %add.941.clone.1 = f32[151936,2048]{1,0:T(8,128)} add(%mul.1932.clone.1, %mul.1931.clone.1), metadata={op_name="jit(train_step)/add" stack_frame_id=0}
  %param_2.1314 = f32[]{:T(128)S(6)} parameter(2)
  %div.856.clone.1 = f32[151936,2048]{1,0:T(8,128)} broadcast(%param_2.1314), dimensions={}, metadata={op_name="jit(train_step)/div" stack_frame_id=0}
  %integer_pow.65.clone.1 = f32[151936,2048]{1,0:T(8,128)} multiply(%select_n.267.clone.1, %select_n.267.clone.1), metadata={op_name="jit(train_step)/integer_pow" stack_frame_id=0}
  %constant.1095.clone.1 = f32[]{:T(128)} constant(0.05)
  %mul.1930.clone.1 = f32[151936,2048]{1,0:T(8,128)} broadcast(%constant.1095.clone.1), dimensions={}, metadata={op_name="jit(train_step)/mul" stack_frame_id=0}
  %mul.1928.clone.1 = f32[151936,2048]{1,0:T(8,128)} multiply(%integer_pow.65.clone.1, %mul.1930.clone.1), metadata={op_name="jit(train_step)/mul" stack_frame_id=0}
  %param_4.556 = f32[151936,2048]{1,0:T(8,128)} parameter(4)
  %constant.1094.clone.1 = f32[]{:T(128)} constant(0.95)
  %mul.1929.clone.1 = f32[151936,2048]{1,0:T(8,128)} broadcast(%constant.1094.clone.1), dimensions={}, metadata={op_name="jit(train_step)/mul" stack_frame_id=0}
  %mul.1927.clone.1 = f32[151936,2048]{1,0:T(8,128)} multiply(%param_4.556, %mul.1929.clone.1), metadata={op_name="jit(train_step)/mul" stack_frame_id=0}
  %add.940.clone.1 = f32[151936,2048]{1,0:T(8,128)} add(%mul.1928.clone.1, %mul.1927.clone.1), metadata={op_name="jit(train_step)/add" stack_frame_id=0}
  %param_1.1556 = f32[]{:T(128)S(6)} parameter(1)
  %div.855.clone.1 = f32[151936,2048]{1,0:T(8,128)} broadcast(%param_1.1556), dimensions={}, metadata={op_name="jit(train_step)/div" stack_frame_id=0}
  %div.854.clone.1 = f32[151936,2048]{1,0:T(8,128)} divide(%add.940.clone.1, %div.855.clone.1), metadata={op_name="jit(train_step)/div" stack_frame_id=0}
  %sqrt.62.clone.1 = f32[151936,2048]{1,0:T(8,128)} sqrt(%div.854.clone.1), metadata={op_name="jit(train_step)/sqrt" stack_frame_id=0}
  %constant.1093.clone.1 = f32[]{:T(128)} constant(1e-08)
  %add.939.clone.1 = f32[151936,2048]{1,0:T(8,128)} broadcast(%constant.1093.clone.1), dimensions={}, metadata={op_name="jit(train_step)/add" stack_frame_id=0}
  %add.938.clone.1 = f32[151936,2048]{1,0:T(8,128)} add(%sqrt.62.clone.1, %add.939.clone.1), metadata={op_name="jit(train_step)/add" stack_frame_id=0}
  %multiply.426.clone.1 = f32[151936,2048]{1,0:T(8,128)} multiply(%div.856.clone.1, %add.938.clone.1), metadata={op_name="multiply.61"}
  %div.853.clone.1 = f32[151936,2048]{1,0:T(8,128)} divide(%add.941.clone.1, %multiply.426.clone.1), metadata={op_name="jit(train_step)/div" stack_frame_id=0}
  %mul.1925.clone.1 = f32[151936,2048]{1,0:T(8,128)} multiply(%param_0.1368, %broadcast.844.clone.1), metadata={op_name="jit(train_step)/mul" stack_frame_id=0}
  %add.937.clone.1 = f32[151936,2048]{1,0:T(8,128)} add(%div.853.clone.1, %mul.1925.clone.1), metadata={op_name="jit(train_step)/add" stack_frame_id=0}
  %mul.1924.clone.1 = f32[151936,2048]{1,0:T(8,128)} multiply(%mul.1926.clone.1, %add.937.clone.1), metadata={op_name="jit(train_step)/mul" stack_frame_id=0}
  %add.936.clone.1 = f32[151936,2048]{1,0:T(8,128)} add(%param_0.1368, %mul.1924.clone.1), metadata={op_name="jit(train_step)/add" stack_frame_id=0}
  %square.214 = f32[151936,2048]{1,0:T(8,128)} multiply(%add.936.clone.1, %add.936.clone.1), metadata={op_name="jit(train_step)/square" stack_frame_id=0}
  %constant.1200 = f32[]{:T(128)} constant(0)
  %reduce.176 = f32[]{:T(128)} reduce(%square.214, %constant.1200), dimensions={0,1}, to_apply=%region_71.76, metadata={op_name="jit(train_step)/reduce_sum" stack_frame_id=0}
  %reduce.178.clone.1 = f32[]{:T(128)} reduce(%integer_pow.65.clone.1, %constant.1200), dimensions={0,1}, to_apply=%region_56.61, metadata={op_name="jit(train_step)/reduce_sum" stack_frame_id=0}
  ROOT %tuple.144 = (f32[]{:T(128)}, f32[151936,2048]{1,0:T(8,128)}, f32[151936,2048]{1,0:T(8,128)}, f32[151936,2048]{1,0:T(8,128)}, f32[]{:T(128)}) tuple(%reduce.176, %add.936.clone.1, %add.940.clone.1, %add.941.clone.1, %reduce.178.clone.1)
}

%region_43.48 (reduce_sum.317: f32[], reduce_sum.318: f32[]) -> f32[] {
  %reduce_sum.318 = f32[]{:T(128)} parameter(1), metadata={op_name="jit(train_step)/reduce_sum"}
  %reduce_sum.317 = f32[]{:T(128)} parameter(0), metadata={op_name="jit(train_step)/reduce_sum"}
  ROOT %reduce_sum.319 = f32[]{:T(128)} add(%reduce_sum.317, %reduce_sum.318), metadata={op_name="jit(train_step)/reduce_sum" stack_frame_id=0}, backend_config={"flag_configs":[],"scoped_memory_configs":[],"used_scoped_memory_configs":[],"aliasing_operands":{"lists":[]}}
}

%fused_computation.367.clone.clone (param_0.1355: f32[4,128], param_1.1549: bf16[4,128,2048], param_2.1290: bf16[2048]) -> bf16[4,128,2048] {
  %param_2.1290 = bf16[2048]{0:T(1024)(128)(2,1)S(1)} parameter(2)
  %dot_general.480 = bf16[4,128,2048]{2,1,0:T(8,128)(2,1)} broadcast(%param_2.1290), dimensions={2}, metadata={op_name="jit(train_step)/jvp(TransformerLinenPure.apply)/TransformerLinenPure/decoder/decoder.apply_output_head/decoder_norm/...k,k->...k/dot_general" stack_frame_id=0}
  %param_1.1549 = bf16[4,128,2048]{2,1,0:T(8,128)(2,1)S(1)} parameter(1)
  %convert_element_type.1451 = f32[4,128,2048]{2,1,0:T(8,128)} convert(%param_1.1549), metadata={op_name="jit(train_step)/jvp(TransformerLinenPure.apply)/TransformerLinenPure/decoder/decoder.apply_output_head/decoder_norm/convert_element_type" stack_frame_id=0}
  %param_0.1355 = f32[4,128]{1,0:T(4,128)S(1)} parameter(0)
  %mul.2083 = f32[4,128,2048]{2,1,0:T(8,128)} broadcast(%param_0.1355), dimensions={0,1}, metadata={op_name="jit(train_step)/jvp(TransformerLinenPure.apply)/TransformerLinenPure/decoder/decoder.apply_output_head/decoder_norm/mul" stack_frame_id=0}
  %mul.2082 = f32[4,128,2048]{2,1,0:T(8,128)} multiply(%convert_element_type.1451, %mul.2083), metadata={op_name="jit(train_step)/jvp(TransformerLinenPure.apply)/TransformerLinenPure/decoder/decoder.apply_output_head/decoder_norm/mul" stack_frame_id=0}
  %convert_element_type.1450 = bf16[4,128,2048]{2,1,0:T(8,128)(2,1)} convert(%mul.2082), metadata={op_name="jit(train_step)/jvp(TransformerLinenPure.apply)/TransformerLinenPure/decoder/decoder.apply_output_head/decoder_norm/convert_element_type" stack_frame_id=0}
  ROOT %dot_general.479 = bf16[4,128,2048]{2,1,0:T(8,128)(2,1)} multiply(%dot_general.480, %convert_element_type.1450), metadata={op_name="jit(train_step)/jvp(TransformerLinenPure.apply)/TransformerLinenPure/decoder/decoder.apply_output_head/decoder_norm/...k,k->...k/dot_general" stack_frame_id=0}
}

%fused_computation.289.clone.clone.clone (param_0.1356: bf16[4,128,151936], param_1.1550: s32[4,128], param_2.1291: f32[4,128], param_3.911: f32[4,128], param_4.546: bf16[4,128], param_5.446: f32[4,128]) -> bf16[4,128,151936] {
  %param_5.446 = f32[4,128]{1,0:T(4,128)S(1)} parameter(5)
  %mul.2087 = f32[4,128,151936]{2,1,0:T(8,128)} broadcast(%param_5.446), dimensions={0,1}, metadata={op_name="jit(train_step)/transpose(jvp())/mul" stack_frame_id=0}
  %param_3.911 = f32[4,128]{1,0:T(4,128)S(1)} parameter(3)
  %mul.2086 = f32[4,128,151936]{2,1,0:T(8,128)} broadcast(%param_3.911), dimensions={0,1}, metadata={op_name="jit(train_step)/transpose(jvp())/mul" stack_frame_id=0}
  %param_0.1356 = bf16[4,128,151936]{2,1,0:T(8,128)(2,1)} parameter(0)
  %convert_element_type.1454 = f32[4,128,151936]{2,1,0:T(8,128)} convert(%param_0.1356), metadata={op_name="jit(train_step)/jvp(TransformerLinenPure.apply)/TransformerLinenPure/decoder/decoder.apply_output_head/convert_element_type" stack_frame_id=0}
  %param_4.546 = bf16[4,128]{1,0:T(4,128)(2,1)S(1)} parameter(4)
  %sub.94 = f32[4,128,151936]{2,1,0:T(8,128)} broadcast(%param_4.546), dimensions={0,1}, metadata={op_name="jit(train_step)/jvp()/sub" stack_frame_id=0}
  %sub.93 = f32[4,128,151936]{2,1,0:T(8,128)} subtract(%convert_element_type.1454, %sub.94), metadata={op_name="jit(train_step)/jvp()/sub" stack_frame_id=0}
  %exp.62 = f32[4,128,151936]{2,1,0:T(8,128)} exponential(%sub.93), metadata={op_name="jit(train_step)/jvp()/exp" stack_frame_id=0}
  %mul.2085 = f32[4,128,151936]{2,1,0:T(8,128)} multiply(%mul.2086, %exp.62), metadata={op_name="jit(train_step)/transpose(jvp())/mul" stack_frame_id=0}
  %param_2.1291 = f32[4,128]{1,0:T(4,128)S(1)} parameter(2)
  %div.966 = f32[4,128,151936]{2,1,0:T(8,128)} broadcast(%param_2.1291), dimensions={0,1}, metadata={op_name="jit(train_step)/transpose(jvp())/div" stack_frame_id=0}
  %div.965 = f32[4,128,151936]{2,1,0:T(8,128)} divide(%mul.2085, %div.966), metadata={op_name="jit(train_step)/transpose(jvp())/div" stack_frame_id=0}
  %param_1.1550 = s32[4,128]{1,0:T(4,128)S(1)} parameter(1)
  %eq.49 = s32[4,128,151936]{2,1,0:T(8,128)} broadcast(%param_1.1550), dimensions={0,1}, metadata={op_name="jit(train_step)/jvp(jit(_one_hot))/eq" stack_frame_id=0}
  %eq.48 = s32[4,128,151936]{2,1,0:T(8,128)} iota(), iota_dimension=2, metadata={op_name="jit(train_step)/jvp(jit(_one_hot))/eq" stack_frame_id=0}
  %eq.47 = pred[4,128,151936]{2,1,0:T(8,128)(4,1)} compare(%eq.49, %eq.48), direction=EQ, metadata={op_name="jit(train_step)/jvp(jit(_one_hot))/eq" stack_frame_id=0}
  %convert_element_type.1453 = f32[4,128,151936]{2,1,0:T(8,128)} convert(%eq.47), metadata={op_name="jit(train_step)/jvp(jit(_one_hot))/convert_element_type" stack_frame_id=0}
  %sub.92 = f32[4,128,151936]{2,1,0:T(8,128)} subtract(%div.965, %convert_element_type.1453), metadata={op_name="jit(train_step)/transpose(jvp())/sub" stack_frame_id=0}
  %mul.2084 = f32[4,128,151936]{2,1,0:T(8,128)} multiply(%mul.2087, %sub.92), metadata={op_name="jit(train_step)/transpose(jvp())/mul" stack_frame_id=0}
  ROOT %convert_element_type.1452 = bf16[4,128,151936]{2,1,0:T(8,128)(2,1)} convert(%mul.2084), metadata={op_name="jit(train_step)/transpose(jvp(TransformerLinenPure.apply))/TransformerLinenPure/decoder/decoder.apply_output_head/convert_element_type" stack_frame_id=0}
}

%fused_computation.281 (param_0.1381: bf16[151936,2048], param_1.1569: f32[4,128], param_2.1327: bf16[4,128,2048], param_3.931: bf16[2048], param_4.569: bf16[4,128,151936], param_5.481: s32[4,128], param_6.371: f32[4,128], param_7.214: f32[4,128], param_8.131: bf16[4,128], param_9.98: f32[4,128]) -> (f32[], bf16[151936,2048,1]) {
  %param_4.569 = bf16[4,128,151936]{2,1,0:T(8,128)(2,1)} parameter(4)
  %param_5.481 = s32[4,128]{1,0:T(4,128)S(1)} parameter(5)
  %param_6.371 = f32[4,128]{1,0:T(4,128)S(1)} parameter(6)
  %param_7.214 = f32[4,128]{1,0:T(4,128)S(1)} parameter(7)
  %param_8.131 = bf16[4,128]{1,0:T(4,128)(2,1)S(1)} parameter(8)
  %param_9.98 = f32[4,128]{1,0:T(4,128)S(1)} parameter(9)
  %multiply_convert_fusion.1.clone.1 = bf16[4,128,151936]{2,1,0:T(8,128)(2,1)} fusion(%param_4.569, %param_5.481, %param_6.371, %param_7.214, %param_8.131, /*index=5*/%param_9.98), kind=kLoop, calls=%fused_computation.289.clone.clone.clone, metadata={op_name="jit(train_step)/transpose(jvp(TransformerLinenPure.apply))/TransformerLinenPure/decoder/decoder.apply_output_head/convert_element_type" stack_frame_id=0}
  %param_1.1569 = f32[4,128]{1,0:T(4,128)S(1)} parameter(1)
  %param_2.1327 = bf16[4,128,2048]{2,1,0:T(8,128)(2,1)S(1)} parameter(2)
  %param_3.931 = bf16[2048]{0:T(1024)(128)(2,1)S(1)} parameter(3)
  %fusion.269.clone.1 = bf16[4,128,2048]{2,1,0:T(8,128)(2,1)} fusion(%param_1.1569, %param_2.1327, %param_3.931), kind=kLoop, calls=%fused_computation.367.clone.clone, metadata={op_name="jit(train_step)/jvp(TransformerLinenPure.apply)/TransformerLinenPure/decoder/decoder.apply_output_head/decoder_norm/...k,k->...k/dot_general" stack_frame_id=0}
  %convolution.86.clone.1 = bf16[151936,2048,1]{1,0,2:T(8,128)(2,1)} convolution(%multiply_convert_fusion.1.clone.1, %fusion.269.clone.1), window={size=4}, dim_labels=0fb_0io->bf0, metadata={op_name="jit(train_step)/transpose(jvp(TransformerLinenPure.apply))/TransformerLinenPure/decoder/decoder.apply_output_head/dot_general" stack_frame_id=0}
  %bitcast.333 = bf16[151936,2048]{1,0:T(8,128)(2,1)} bitcast(%convolution.86.clone.1), metadata={op_name="jit(train_step)/transpose(jvp(TransformerLinenPure.apply))/TransformerLinenPure/decoder/decoder.apply_output_head/dot_general" stack_frame_id=0}
  %convert_element_type.1323 = f32[151936,2048]{1,0:T(8,128)} convert(%bitcast.333), metadata={op_name="jit(train_step)/transpose(jvp(TransformerLinenPure.apply))/TransformerLinenPure/decoder/decoder.apply_output_head/convert_element_type" stack_frame_id=0}
  %param_0.1381 = bf16[151936,2048]{1,0:T(8,128)(2,1)} parameter(0)
  %convert_element_type.1322 = f32[151936,2048]{1,0:T(8,128)} convert(%param_0.1381), metadata={op_name="jit(train_step)/transpose(jvp(TransformerLinenPure.apply))/TransformerLinenPure/decoder/decoder._apply_embedding/token_embedder/convert_element_type" stack_frame_id=0}
  %add_any.184 = f32[151936,2048]{1,0:T(8,128)} add(%convert_element_type.1323, %convert_element_type.1322), metadata={op_name="jit(train_step)/transpose(jvp(TransformerLinenPure.apply))/TransformerLinenPure/decoder/decoder._apply_embedding/token_embedder/add_any" stack_frame_id=0}
  %square.215 = f32[151936,2048]{1,0:T(8,128)} multiply(%add_any.184, %add_any.184), metadata={op_name="jit(train_step)/square" stack_frame_id=0}
  %constant.1213 = f32[]{:T(128)} constant(0)
  %reduce.177 = f32[]{:T(128)} reduce(%square.215, %constant.1213), dimensions={0,1}, to_apply=%region_43.48, metadata={op_name="jit(train_step)/reduce_sum" stack_frame_id=0}
  ROOT %tuple.166 = (f32[]{:T(128)}, bf16[151936,2048,1]{1,0,2:T(8,128)(2,1)}) tuple(%reduce.177, %convolution.86.clone.1)
}

%region_57.62 (reduce_sum.389: f32[], reduce_sum.393: f32[]) -> f32[] {
  %reduce_sum.393 = f32[]{:T(128)} parameter(1), metadata={op_name="jit(train_step)/jvp()/reduce_sum"}
  %reduce_sum.389 = f32[]{:T(128)} parameter(0), metadata={op_name="jit(train_step)/jvp()/reduce_sum"}
  ROOT %reduce_sum.394 = f32[]{:T(128)} add(%reduce_sum.389, %reduce_sum.393), metadata={op_name="jit(train_step)/jvp()/reduce_sum" stack_frame_id=0}, backend_config={"flag_configs":[],"scoped_memory_configs":[],"used_scoped_memory_configs":[],"aliasing_operands":{"lists":[]}}
}

%fused_computation.288 (param_0.1392: bf16[4,128,151936], param_1.1577: f32[4,128], param_2.1330: s32[4,128], param_3.933: bf16[4,128]) -> f32[4,128] {
  %param_2.1330 = s32[4,128]{1,0:T(4,128)S(1)} parameter(2)
  %eq.30 = s32[4,128,151936]{2,1,0:T(8,128)} broadcast(%param_2.1330), dimensions={0,1}, metadata={op_name="jit(train_step)/jvp(jit(_one_hot))/eq" stack_frame_id=0}
  %eq.25 = s32[4,128,151936]{2,1,0:T(8,128)} iota(), iota_dimension=2, metadata={op_name="jit(train_step)/jvp(jit(_one_hot))/eq" stack_frame_id=0}
  %eq.24 = pred[4,128,151936]{2,1,0:T(8,128)(4,1)} compare(%eq.30, %eq.25), direction=EQ, metadata={op_name="jit(train_step)/jvp(jit(_one_hot))/eq" stack_frame_id=0}
  %param_0.1392 = bf16[4,128,151936]{2,1,0:T(8,128)(2,1)} parameter(0)
  %convert_element_type.1340 = f32[4,128,151936]{2,1,0:T(8,128)} convert(%param_0.1392), metadata={op_name="jit(train_step)/jvp(TransformerLinenPure.apply)/TransformerLinenPure/decoder/decoder.apply_output_head/convert_element_type" stack_frame_id=0}
  %param_3.933 = bf16[4,128]{1,0:T(4,128)(2,1)S(1)} parameter(3)
  %sub.73 = f32[4,128,151936]{2,1,0:T(8,128)} broadcast(%param_3.933), dimensions={0,1}, metadata={op_name="jit(train_step)/jvp()/sub" stack_frame_id=0}
  %sub.64 = f32[4,128,151936]{2,1,0:T(8,128)} subtract(%convert_element_type.1340, %sub.73), metadata={op_name="jit(train_step)/jvp()/sub" stack_frame_id=0}
  %param_1.1577 = f32[4,128]{1,0:T(4,128)S(1)} parameter(1)
  %sub.71 = f32[4,128,151936]{2,1,0:T(8,128)} broadcast(%param_1.1577), dimensions={0,1}, metadata={op_name="jit(train_step)/jvp()/sub" stack_frame_id=0}
  %sub.60 = f32[4,128,151936]{2,1,0:T(8,128)} subtract(%sub.64, %sub.71), metadata={op_name="jit(train_step)/jvp()/sub" stack_frame_id=0}
  %constant.1225 = f32[]{:T(128)} constant(0)
  %broadcast.769 = f32[4,128,151936]{2,1,0:T(8,128)} broadcast(%constant.1225), dimensions={}, metadata={op_name="broadcast.109"}
  %mul.1765 = f32[4,128,151936]{2,1,0:T(8,128)} select(%eq.24, %sub.60, %broadcast.769), metadata={op_name="jit(train_step)/jvp()/mul" stack_frame_id=0}
  ROOT %reduce.179 = f32[4,128]{1,0:T(4,128)S(1)} reduce(%mul.1765, %constant.1225), dimensions={2}, to_apply=%region_57.62, metadata={op_name="jit(train_step)/jvp()/reduce_sum" stack_frame_id=0}
}

%region_9.12 (reduce_sum.186: f32[], reduce_sum.190: f32[]) -> f32[] {
  %reduce_sum.190 = f32[]{:T(128)} parameter(1), metadata={op_name="jit(train_step)/jvp()/reduce_sum"}
  %reduce_sum.186 = f32[]{:T(128)} parameter(0), metadata={op_name="jit(train_step)/jvp()/reduce_sum"}
  ROOT %reduce_sum.191 = f32[]{:T(128)} add(%reduce_sum.186, %reduce_sum.190), metadata={op_name="jit(train_step)/jvp()/reduce_sum" stack_frame_id=0}, backend_config={"flag_configs":[],"scoped_memory_configs":[],"used_scoped_memory_configs":[],"aliasing_operands":{"lists":[]}}
}

%fused_computation.293 (param_0.1393: bf16[4,128,151936], param_1.1578: bf16[4,128]) -> f32[4,128] {
  %param_0.1393 = bf16[4,128,151936]{2,1,0:T(8,128)(2,1)} parameter(0)
  %convert_element_type.1346 = f32[4,128,151936]{2,1,0:T(8,128)} convert(%param_0.1393), metadata={op_name="jit(train_step)/jvp(TransformerLinenPure.apply)/TransformerLinenPure/decoder/decoder.apply_output_head/convert_element_type" stack_frame_id=0}
  %param_1.1578 = bf16[4,128]{1,0:T(4,128)(2,1)S(1)} parameter(1)
  %sub.74 = f32[4,128,151936]{2,1,0:T(8,128)} broadcast(%param_1.1578), dimensions={0,1}, metadata={op_name="jit(train_step)/jvp()/sub" stack_frame_id=0}
  %sub.70 = f32[4,128,151936]{2,1,0:T(8,128)} subtract(%convert_element_type.1346, %sub.74), metadata={op_name="jit(train_step)/jvp()/sub" stack_frame_id=0}
  %exp.54 = f32[4,128,151936]{2,1,0:T(8,128)} exponential(%sub.70), metadata={op_name="jit(train_step)/jvp()/exp" stack_frame_id=0}
  %constant.1226 = f32[]{:T(128)} constant(0)
  ROOT %reduce.180 = f32[4,128]{1,0:T(4,128)S(1)} reduce(%exp.54, %constant.1226), dimensions={2}, to_apply=%region_9.12, metadata={op_name="jit(train_step)/jvp()/reduce_sum" stack_frame_id=0}
}

%region_33.38 (reduce_sum.269: f32[], reduce_sum.270: f32[]) -> f32[] {
  %reduce_sum.270 = f32[]{:T(128)} parameter(1), metadata={op_name="jit(train_step)/reduce_sum"}
  %reduce_sum.269 = f32[]{:T(128)} parameter(0), metadata={op_name="jit(train_step)/reduce_sum"}
  ROOT %reduce_sum.274 = f32[]{:T(128)} add(%reduce_sum.269, %reduce_sum.270), metadata={op_name="jit(train_step)/reduce_sum" stack_frame_id=0}, backend_config={"flag_configs":[],"scoped_memory_configs":[],"used_scoped_memory_configs":[],"aliasing_operands":{"lists":[]}}
}

%fused_computation.298 (param_0.1387: f32[4,6144,2048]) -> f32[] {
  %param_0.1387 = f32[4,6144,2048]{2,0,1:T(4,128)} parameter(0)
  %bitcast.347 = f32[6144,4,2048]{2,1,0:T(4,128)} bitcast(%param_0.1387), metadata={op_name="jit(train_step)/transpose(jvp(TransformerLinenPure.apply))/TransformerLinenPure/decoder/transpose" stack_frame_id=0}
  %square.218 = f32[6144,4,2048]{2,1,0:T(4,128)} multiply(%bitcast.347, %bitcast.347), metadata={op_name="jit(train_step)/square" stack_frame_id=0}
  %constant.1219 = f32[]{:T(128)} constant(0)
  ROOT %reduce.181 = f32[]{:T(128)} reduce(%square.218, %constant.1219), dimensions={0,1,2}, to_apply=%region_33.38, metadata={op_name="jit(train_step)/reduce_sum" stack_frame_id=0}
}

%region_32.37 (reduce_sum.263: f32[], reduce_sum.267: f32[]) -> f32[] {
  %reduce_sum.267 = f32[]{:T(128)} parameter(1), metadata={op_name="jit(train_step)/reduce_sum"}
  %reduce_sum.263 = f32[]{:T(128)} parameter(0), metadata={op_name="jit(train_step)/reduce_sum"}
  ROOT %reduce_sum.268 = f32[]{:T(128)} add(%reduce_sum.263, %reduce_sum.267), metadata={op_name="jit(train_step)/reduce_sum" stack_frame_id=0}, backend_config={"flag_configs":[],"scoped_memory_configs":[],"used_scoped_memory_configs":[],"aliasing_operands":{"lists":[]}}
}

%region_31.36 (reduce_sum.260: f32[], reduce_sum.261: f32[]) -> f32[] {
  %reduce_sum.261 = f32[]{:T(128)} parameter(1), metadata={op_name="jit(train_step)/reduce_sum"}
  %reduce_sum.260 = f32[]{:T(128)} parameter(0), metadata={op_name="jit(train_step)/reduce_sum"}
  ROOT %reduce_sum.262 = f32[]{:T(128)} add(%reduce_sum.260, %reduce_sum.261), metadata={op_name="jit(train_step)/reduce_sum" stack_frame_id=0}, backend_config={"flag_configs":[],"scoped_memory_configs":[],"used_scoped_memory_configs":[],"aliasing_operands":{"lists":[]}}
}

%fused_computation.300 (param_0.1388: f32[4,2048,6144], param_1.1573: f32[4,2048,6144]) -> (f32[], f32[]) {
  %param_0.1388 = f32[4,2048,6144]{2,0,1:T(4,128)} parameter(0)
  %bitcast.351 = f32[2048,4,6144]{2,1,0:T(4,128)} bitcast(%param_0.1388), metadata={op_name="jit(train_step)/transpose(jvp(TransformerLinenPure.apply))/TransformerLinenPure/decoder/transpose" stack_frame_id=0}
  %square.221 = f32[2048,4,6144]{2,1,0:T(4,128)} multiply(%bitcast.351, %bitcast.351), metadata={op_name="jit(train_step)/square" stack_frame_id=0}
  %constant.1220 = f32[]{:T(128)} constant(0)
  %reduce.182 = f32[]{:T(128)} reduce(%square.221, %constant.1220), dimensions={0,1,2}, to_apply=%region_32.37, metadata={op_name="jit(train_step)/reduce_sum" stack_frame_id=0}
  %param_1.1573 = f32[4,2048,6144]{2,0,1:T(4,128)} parameter(1)
  %bitcast.355.clone.1 = f32[2048,4,6144]{2,1,0:T(4,128)} bitcast(%param_1.1573), metadata={op_name="jit(train_step)/transpose(jvp(TransformerLinenPure.apply))/TransformerLinenPure/decoder/transpose" stack_frame_id=0}
  %square.224.clone.1 = f32[2048,4,6144]{2,1,0:T(4,128)} multiply(%bitcast.355.clone.1, %bitcast.355.clone.1), metadata={op_name="jit(train_step)/square" stack_frame_id=0}
  %reduce.183.clone.1 = f32[]{:T(128)} reduce(%square.224.clone.1, %constant.1220), dimensions={0,1,2}, to_apply=%region_31.36, metadata={op_name="jit(train_step)/reduce_sum" stack_frame_id=0}
  ROOT %tuple.167 = (f32[]{:T(128)}, f32[]{:T(128)}) tuple(%reduce.182, %reduce.183.clone.1)
}

%fused_computation.303 (param_0.901: f32[6144,4,2048]) -> bf16[4,6144,2048] {
  %param_0.901 = f32[6144,4,2048]{2,1,0:T(4,128)} parameter(0)
  %copy.190 = bf16[6144,4,2048]{2,0,1:T(8,128)(2,1)} copy(%param_0.901), sharding={replicated}, metadata={op_name="state.params[\'params\'][\'decoder\'][\'layers\'][\'mlp\'][\'wo\'][\'kernel\']"}
  ROOT %bitcast.356 = bf16[4,6144,2048]{2,1,0:T(8,128)(2,1)} bitcast(%copy.190), metadata={op_name="jit(train_step)/jvp(TransformerLinenPure.apply)/TransformerLinenPure/decoder/transpose" stack_frame_id=0}
}

%fused_computation.304 (param_0.903: f32[2048,4,6144]) -> bf16[4,2048,6144] {
  %param_0.903 = f32[2048,4,6144]{2,1,0:T(4,128)} parameter(0)
  %copy.191 = bf16[2048,4,6144]{2,0,1:T(8,128)(2,1)} copy(%param_0.903), sharding={replicated}, metadata={op_name="state.params[\'params\'][\'decoder\'][\'layers\'][\'mlp\'][\'wi_1\'][\'kernel\']"}
  ROOT %bitcast.357 = bf16[4,2048,6144]{2,1,0:T(8,128)(2,1)} bitcast(%copy.191), metadata={op_name="jit(train_step)/jvp(TransformerLinenPure.apply)/TransformerLinenPure/decoder/transpose" stack_frame_id=0}
}

%fused_computation.305 (param_0.905: f32[2048,4,6144]) -> bf16[4,2048,6144] {
  %param_0.905 = f32[2048,4,6144]{2,1,0:T(4,128)} parameter(0)
  %copy.192 = bf16[2048,4,6144]{2,0,1:T(8,128)(2,1)} copy(%param_0.905), sharding={replicated}, metadata={op_name="state.params[\'params\'][\'decoder\'][\'layers\'][\'mlp\'][\'wi_0\'][\'kernel\']"}
  ROOT %bitcast.358 = bf16[4,2048,6144]{2,1,0:T(8,128)(2,1)} bitcast(%copy.192), metadata={op_name="jit(train_step)/jvp(TransformerLinenPure.apply)/TransformerLinenPure/decoder/transpose" stack_frame_id=0}
}

%region_62.67 (reduce_sum.416: f32[], reduce_sum.417: f32[]) -> f32[] {
  %reduce_sum.417 = f32[]{:T(128)} parameter(1), metadata={op_name="jit(train_step)/reduce_sum"}
  %reduce_sum.416 = f32[]{:T(128)} parameter(0), metadata={op_name="jit(train_step)/reduce_sum"}
  ROOT %reduce_sum.421 = f32[]{:T(128)} add(%reduce_sum.416, %reduce_sum.417), metadata={op_name="jit(train_step)/reduce_sum" stack_frame_id=0}, backend_config={"flag_configs":[],"scoped_memory_configs":[],"used_scoped_memory_configs":[],"aliasing_operands":{"lists":[]}}
}

%region_47.52 (reduce_sum.338: f32[], reduce_sum.339: f32[]) -> f32[] {
  %reduce_sum.339 = f32[]{:T(128)} parameter(1), metadata={op_name="jit(train_step)/reduce_sum"}
  %reduce_sum.338 = f32[]{:T(128)} parameter(0), metadata={op_name="jit(train_step)/reduce_sum"}
  ROOT %reduce_sum.340 = f32[]{:T(128)} add(%reduce_sum.338, %reduce_sum.339), metadata={op_name="jit(train_step)/reduce_sum" stack_frame_id=0}, backend_config={"flag_configs":[],"scoped_memory_configs":[],"used_scoped_memory_configs":[],"aliasing_operands":{"lists":[]}}
}

%fused_computation.306 (param_0.1377: f32[6144,4,2048], param_1.1565: f32[], param_2.1323: f32[], param_3.927: f32[], param_4.565: f32[6144,4,2048], param_5.477: f32[], param_6.367: f32[4,6144,2048], param_7.210: pred[], param_8.127: f32[6144,4,2048]) -> (f32[], f32[6144,4,2048], f32[6144,4,2048], f32[6144,4,2048], f32[]) {
  %param_0.1377 = f32[6144,4,2048]{2,1,0:T(4,128)} parameter(0)
  %param_3.927 = f32[]{:T(128)S(6)} parameter(3)
  %mul.1998.clone.1 = f32[6144,4,2048]{2,1,0:T(4,128)} broadcast(%param_3.927), dimensions={}, metadata={op_name="jit(train_step)/mul" stack_frame_id=0}
  %param_7.210 = pred[]{:T(512)S(6)} parameter(7)
  %select_n.304.clone.1 = pred[6144,4,2048]{2,1,0:T(4,128)(4,1)} broadcast(%param_7.210), dimensions={}, metadata={op_name="jit(train_step)/select_n" stack_frame_id=0}
  %param_6.367 = f32[4,6144,2048]{2,0,1:T(4,128)} parameter(6)
  %bitcast.482.clone.1 = f32[6144,4,2048]{2,1,0:T(4,128)} bitcast(%param_6.367), metadata={op_name="jit(train_step)/transpose(jvp(TransformerLinenPure.apply))/TransformerLinenPure/decoder/transpose" stack_frame_id=0}
  %param_5.477 = f32[]{:T(128)} parameter(5)
  %div.932.clone.1 = f32[6144,4,2048]{2,1,0:T(4,128)} broadcast(%param_5.477), dimensions={}, metadata={op_name="jit(train_step)/div" stack_frame_id=0}
  %div.931.clone.1 = f32[6144,4,2048]{2,1,0:T(4,128)} divide(%bitcast.482.clone.1, %div.932.clone.1), metadata={op_name="jit(train_step)/div" stack_frame_id=0}
  %select_n.303.clone.1 = f32[6144,4,2048]{2,1,0:T(4,128)} select(%select_n.304.clone.1, %bitcast.482.clone.1, %div.931.clone.1), metadata={op_name="jit(train_step)/select_n" stack_frame_id=0}
  %constant.1146.clone.1 = f32[]{:T(128)} constant(0.1)
  %broadcast.886.clone.1 = f32[6144,4,2048]{2,1,0:T(4,128)} broadcast(%constant.1146.clone.1), dimensions={}, metadata={op_name="broadcast.83"}
  %mul.2004.clone.1 = f32[6144,4,2048]{2,1,0:T(4,128)} multiply(%select_n.303.clone.1, %broadcast.886.clone.1), metadata={op_name="jit(train_step)/mul" stack_frame_id=0}
  %param_8.127 = f32[6144,4,2048]{2,1,0:T(4,128)} parameter(8)
  %constant.1150.clone.1 = f32[]{:T(128)} constant(0.9)
  %mul.2005.clone.1 = f32[6144,4,2048]{2,1,0:T(4,128)} broadcast(%constant.1150.clone.1), dimensions={}, metadata={op_name="jit(train_step)/mul" stack_frame_id=0}
  %mul.2003.clone.1 = f32[6144,4,2048]{2,1,0:T(4,128)} multiply(%param_8.127, %mul.2005.clone.1), metadata={op_name="jit(train_step)/mul" stack_frame_id=0}
  %add.989.clone.1 = f32[6144,4,2048]{2,1,0:T(4,128)} add(%mul.2004.clone.1, %mul.2003.clone.1), metadata={op_name="jit(train_step)/add" stack_frame_id=0}
  %param_2.1323 = f32[]{:T(128)S(6)} parameter(2)
  %div.928.clone.1 = f32[6144,4,2048]{2,1,0:T(4,128)} broadcast(%param_2.1323), dimensions={}, metadata={op_name="jit(train_step)/div" stack_frame_id=0}
  %integer_pow.74.clone.1 = f32[6144,4,2048]{2,1,0:T(4,128)} multiply(%select_n.303.clone.1, %select_n.303.clone.1), metadata={op_name="jit(train_step)/integer_pow" stack_frame_id=0}
  %constant.1149.clone.1 = f32[]{:T(128)} constant(0.05)
  %mul.2002.clone.1 = f32[6144,4,2048]{2,1,0:T(4,128)} broadcast(%constant.1149.clone.1), dimensions={}, metadata={op_name="jit(train_step)/mul" stack_frame_id=0}
  %mul.2000.clone.1 = f32[6144,4,2048]{2,1,0:T(4,128)} multiply(%integer_pow.74.clone.1, %mul.2002.clone.1), metadata={op_name="jit(train_step)/mul" stack_frame_id=0}
  %param_4.565 = f32[6144,4,2048]{2,1,0:T(4,128)} parameter(4)
  %constant.1148.clone.1 = f32[]{:T(128)} constant(0.95)
  %mul.2001.clone.1 = f32[6144,4,2048]{2,1,0:T(4,128)} broadcast(%constant.1148.clone.1), dimensions={}, metadata={op_name="jit(train_step)/mul" stack_frame_id=0}
  %mul.1999.clone.1 = f32[6144,4,2048]{2,1,0:T(4,128)} multiply(%param_4.565, %mul.2001.clone.1), metadata={op_name="jit(train_step)/mul" stack_frame_id=0}
  %add.988.clone.1 = f32[6144,4,2048]{2,1,0:T(4,128)} add(%mul.2000.clone.1, %mul.1999.clone.1), metadata={op_name="jit(train_step)/add" stack_frame_id=0}
  %param_1.1565 = f32[]{:T(128)S(6)} parameter(1)
  %div.927.clone.1 = f32[6144,4,2048]{2,1,0:T(4,128)} broadcast(%param_1.1565), dimensions={}, metadata={op_name="jit(train_step)/div" stack_frame_id=0}
  %div.926.clone.1 = f32[6144,4,2048]{2,1,0:T(4,128)} divide(%add.988.clone.1, %div.927.clone.1), metadata={op_name="jit(train_step)/div" stack_frame_id=0}
  %sqrt.71.clone.1 = f32[6144,4,2048]{2,1,0:T(4,128)} sqrt(%div.926.clone.1), metadata={op_name="jit(train_step)/sqrt" stack_frame_id=0}
  %constant.1147.clone.1 = f32[]{:T(128)} constant(1e-08)
  %add.987.clone.1 = f32[6144,4,2048]{2,1,0:T(4,128)} broadcast(%constant.1147.clone.1), dimensions={}, metadata={op_name="jit(train_step)/add" stack_frame_id=0}
  %add.986.clone.1 = f32[6144,4,2048]{2,1,0:T(4,128)} add(%sqrt.71.clone.1, %add.987.clone.1), metadata={op_name="jit(train_step)/add" stack_frame_id=0}
  %multiply.435.clone.1 = f32[6144,4,2048]{2,1,0:T(4,128)} multiply(%div.928.clone.1, %add.986.clone.1), metadata={op_name="multiply.52"}
  %div.925.clone.1 = f32[6144,4,2048]{2,1,0:T(4,128)} divide(%add.989.clone.1, %multiply.435.clone.1), metadata={op_name="jit(train_step)/div" stack_frame_id=0}
  %mul.1997.clone.1 = f32[6144,4,2048]{2,1,0:T(4,128)} multiply(%param_0.1377, %broadcast.886.clone.1), metadata={op_name="jit(train_step)/mul" stack_frame_id=0}
  %add.985.clone.1 = f32[6144,4,2048]{2,1,0:T(4,128)} add(%div.925.clone.1, %mul.1997.clone.1), metadata={op_name="jit(train_step)/add" stack_frame_id=0}
  %mul.1996.clone.1 = f32[6144,4,2048]{2,1,0:T(4,128)} multiply(%mul.1998.clone.1, %add.985.clone.1), metadata={op_name="jit(train_step)/mul" stack_frame_id=0}
  %add.984.clone.1 = f32[6144,4,2048]{2,1,0:T(4,128)} add(%param_0.1377, %mul.1996.clone.1), metadata={op_name="jit(train_step)/add" stack_frame_id=0}
  %square.225 = f32[6144,4,2048]{2,1,0:T(4,128)} multiply(%add.984.clone.1, %add.984.clone.1), metadata={op_name="jit(train_step)/square" stack_frame_id=0}
  %constant.1209 = f32[]{:T(128)} constant(0)
  %reduce.184 = f32[]{:T(128)} reduce(%square.225, %constant.1209), dimensions={0,1,2}, to_apply=%region_62.67, metadata={op_name="jit(train_step)/reduce_sum" stack_frame_id=0}
  %reduce.187.clone.1 = f32[]{:T(128)} reduce(%integer_pow.74.clone.1, %constant.1209), dimensions={0,1,2}, to_apply=%region_47.52, metadata={op_name="jit(train_step)/reduce_sum" stack_frame_id=0}
  ROOT %tuple.145 = (f32[]{:T(128)}, f32[6144,4,2048]{2,1,0:T(4,128)}, f32[6144,4,2048]{2,1,0:T(4,128)}, f32[6144,4,2048]{2,1,0:T(4,128)}, f32[]{:T(128)}) tuple(%reduce.184, %add.984.clone.1, %add.988.clone.1, %add.989.clone.1, %reduce.187.clone.1)
}

%region_61.66 (reduce_sum.410: f32[], reduce_sum.414: f32[]) -> f32[] {
  %reduce_sum.414 = f32[]{:T(128)} parameter(1), metadata={op_name="jit(train_step)/reduce_sum"}
  %reduce_sum.410 = f32[]{:T(128)} parameter(0), metadata={op_name="jit(train_step)/reduce_sum"}
  ROOT %reduce_sum.415 = f32[]{:T(128)} add(%reduce_sum.410, %reduce_sum.414), metadata={op_name="jit(train_step)/reduce_sum" stack_frame_id=0}, backend_config={"flag_configs":[],"scoped_memory_configs":[],"used_scoped_memory_configs":[],"aliasing_operands":{"lists":[]}}
}

%region_46.51 (reduce_sum.332: f32[], reduce_sum.333: f32[]) -> f32[] {
  %reduce_sum.333 = f32[]{:T(128)} parameter(1), metadata={op_name="jit(train_step)/reduce_sum"}
  %reduce_sum.332 = f32[]{:T(128)} parameter(0), metadata={op_name="jit(train_step)/reduce_sum"}
  ROOT %reduce_sum.337 = f32[]{:T(128)} add(%reduce_sum.332, %reduce_sum.333), metadata={op_name="jit(train_step)/reduce_sum" stack_frame_id=0}, backend_config={"flag_configs":[],"scoped_memory_configs":[],"used_scoped_memory_configs":[],"aliasing_operands":{"lists":[]}}
}

%fused_computation.307 (param_0.1378: f32[2048,4,6144], param_1.1566: f32[], param_2.1324: f32[], param_3.928: f32[], param_4.566: f32[2048,4,6144], param_5.478: f32[], param_6.368: f32[4,2048,6144], param_7.211: pred[], param_8.128: f32[2048,4,6144]) -> (f32[], f32[2048,4,6144], f32[2048,4,6144], f32[2048,4,6144], f32[]) {
  %param_0.1378 = f32[2048,4,6144]{2,1,0:T(4,128)} parameter(0)
  %param_3.928 = f32[]{:T(128)S(6)} parameter(3)
  %mul.2008.clone.1 = f32[2048,4,6144]{2,1,0:T(4,128)} broadcast(%param_3.928), dimensions={}, metadata={op_name="jit(train_step)/mul" stack_frame_id=0}
  %param_7.211 = pred[]{:T(512)S(6)} parameter(7)
  %select_n.308.clone.1 = pred[2048,4,6144]{2,1,0:T(4,128)(4,1)} broadcast(%param_7.211), dimensions={}, metadata={op_name="jit(train_step)/select_n" stack_frame_id=0}
  %param_6.368 = f32[4,2048,6144]{2,0,1:T(4,128)} parameter(6)
  %bitcast.484.clone.1 = f32[2048,4,6144]{2,1,0:T(4,128)} bitcast(%param_6.368), metadata={op_name="jit(train_step)/transpose(jvp(TransformerLinenPure.apply))/TransformerLinenPure/decoder/transpose" stack_frame_id=0}
  %param_5.478 = f32[]{:T(128)} parameter(5)
  %div.940.clone.1 = f32[2048,4,6144]{2,1,0:T(4,128)} broadcast(%param_5.478), dimensions={}, metadata={op_name="jit(train_step)/div" stack_frame_id=0}
  %div.939.clone.1 = f32[2048,4,6144]{2,1,0:T(4,128)} divide(%bitcast.484.clone.1, %div.940.clone.1), metadata={op_name="jit(train_step)/div" stack_frame_id=0}
  %select_n.307.clone.1 = f32[2048,4,6144]{2,1,0:T(4,128)} select(%select_n.308.clone.1, %bitcast.484.clone.1, %div.939.clone.1), metadata={op_name="jit(train_step)/select_n" stack_frame_id=0}
  %constant.1152.clone.1 = f32[]{:T(128)} constant(0.1)
  %broadcast.892.clone.1 = f32[2048,4,6144]{2,1,0:T(4,128)} broadcast(%constant.1152.clone.1), dimensions={}, metadata={op_name="broadcast.85"}
  %mul.2012.clone.1 = f32[2048,4,6144]{2,1,0:T(4,128)} multiply(%select_n.307.clone.1, %broadcast.892.clone.1), metadata={op_name="jit(train_step)/mul" stack_frame_id=0}
  %param_8.128 = f32[2048,4,6144]{2,1,0:T(4,128)} parameter(8)
  %constant.1156.clone.1 = f32[]{:T(128)} constant(0.9)
  %broadcast.891.clone.1 = f32[2048,4,6144]{2,1,0:T(4,128)} broadcast(%constant.1156.clone.1), dimensions={}, metadata={op_name="broadcast.84"}
  %mul.2011.clone.1 = f32[2048,4,6144]{2,1,0:T(4,128)} multiply(%param_8.128, %broadcast.891.clone.1), metadata={op_name="jit(train_step)/mul" stack_frame_id=0}
  %add.994.clone.1 = f32[2048,4,6144]{2,1,0:T(4,128)} add(%mul.2012.clone.1, %mul.2011.clone.1), metadata={op_name="jit(train_step)/add" stack_frame_id=0}
  %param_2.1324 = f32[]{:T(128)S(6)} parameter(2)
  %div.936.clone.1 = f32[2048,4,6144]{2,1,0:T(4,128)} broadcast(%param_2.1324), dimensions={}, metadata={op_name="jit(train_step)/div" stack_frame_id=0}
  %integer_pow.75.clone.1 = f32[2048,4,6144]{2,1,0:T(4,128)} multiply(%select_n.307.clone.1, %select_n.307.clone.1), metadata={op_name="jit(train_step)/integer_pow" stack_frame_id=0}
  %constant.1155.clone.1 = f32[]{:T(128)} constant(0.05)
  %broadcast.890.clone.1 = f32[2048,4,6144]{2,1,0:T(4,128)} broadcast(%constant.1155.clone.1), dimensions={}, metadata={op_name="broadcast.73"}
  %mul.2010.clone.1 = f32[2048,4,6144]{2,1,0:T(4,128)} multiply(%integer_pow.75.clone.1, %broadcast.890.clone.1), metadata={op_name="jit(train_step)/mul" stack_frame_id=0}
  %param_4.566 = f32[2048,4,6144]{2,1,0:T(4,128)} parameter(4)
  %constant.1154.clone.1 = f32[]{:T(128)} constant(0.95)
  %broadcast.889.clone.1 = f32[2048,4,6144]{2,1,0:T(4,128)} broadcast(%constant.1154.clone.1), dimensions={}, metadata={op_name="broadcast.72"}
  %mul.2009.clone.1 = f32[2048,4,6144]{2,1,0:T(4,128)} multiply(%param_4.566, %broadcast.889.clone.1), metadata={op_name="jit(train_step)/mul" stack_frame_id=0}
  %add.993.clone.1 = f32[2048,4,6144]{2,1,0:T(4,128)} add(%mul.2010.clone.1, %mul.2009.clone.1), metadata={op_name="jit(train_step)/add" stack_frame_id=0}
  %param_1.1566 = f32[]{:T(128)S(6)} parameter(1)
  %div.935.clone.1 = f32[2048,4,6144]{2,1,0:T(4,128)} broadcast(%param_1.1566), dimensions={}, metadata={op_name="jit(train_step)/div" stack_frame_id=0}
  %div.934.clone.1 = f32[2048,4,6144]{2,1,0:T(4,128)} divide(%add.993.clone.1, %div.935.clone.1), metadata={op_name="jit(train_step)/div" stack_frame_id=0}
  %sqrt.72.clone.1 = f32[2048,4,6144]{2,1,0:T(4,128)} sqrt(%div.934.clone.1), metadata={op_name="jit(train_step)/sqrt" stack_frame_id=0}
  %constant.1153.clone.1 = f32[]{:T(128)} constant(1e-08)
  %broadcast.887.clone.1 = f32[2048,4,6144]{2,1,0:T(4,128)} broadcast(%constant.1153.clone.1), dimensions={}, metadata={op_name="broadcast.65"}
  %add.992.clone.1 = f32[2048,4,6144]{2,1,0:T(4,128)} add(%sqrt.72.clone.1, %broadcast.887.clone.1), metadata={op_name="jit(train_step)/add" stack_frame_id=0}
  %multiply.436.clone.1 = f32[2048,4,6144]{2,1,0:T(4,128)} multiply(%div.936.clone.1, %add.992.clone.1), metadata={op_name="multiply.51"}
  %div.933.clone.1 = f32[2048,4,6144]{2,1,0:T(4,128)} divide(%add.994.clone.1, %multiply.436.clone.1), metadata={op_name="jit(train_step)/div" stack_frame_id=0}
  %mul.2007.clone.1 = f32[2048,4,6144]{2,1,0:T(4,128)} multiply(%param_0.1378, %broadcast.892.clone.1), metadata={op_name="jit(train_step)/mul" stack_frame_id=0}
  %add.991.clone.1 = f32[2048,4,6144]{2,1,0:T(4,128)} add(%div.933.clone.1, %mul.2007.clone.1), metadata={op_name="jit(train_step)/add" stack_frame_id=0}
  %mul.2006.clone.1 = f32[2048,4,6144]{2,1,0:T(4,128)} multiply(%mul.2008.clone.1, %add.991.clone.1), metadata={op_name="jit(train_step)/mul" stack_frame_id=0}
  %add.990.clone.1 = f32[2048,4,6144]{2,1,0:T(4,128)} add(%param_0.1378, %mul.2006.clone.1), metadata={op_name="jit(train_step)/add" stack_frame_id=0}
  %square.226 = f32[2048,4,6144]{2,1,0:T(4,128)} multiply(%add.990.clone.1, %add.990.clone.1), metadata={op_name="jit(train_step)/square" stack_frame_id=0}
  %constant.1210 = f32[]{:T(128)} constant(0)
  %reduce.185 = f32[]{:T(128)} reduce(%square.226, %constant.1210), dimensions={0,1,2}, to_apply=%region_61.66, metadata={op_name="jit(train_step)/reduce_sum" stack_frame_id=0}
  %reduce.188.clone.1 = f32[]{:T(128)} reduce(%integer_pow.75.clone.1, %constant.1210), dimensions={0,1,2}, to_apply=%region_46.51, metadata={op_name="jit(train_step)/reduce_sum" stack_frame_id=0}
  ROOT %tuple.146 = (f32[]{:T(128)}, f32[2048,4,6144]{2,1,0:T(4,128)}, f32[2048,4,6144]{2,1,0:T(4,128)}, f32[2048,4,6144]{2,1,0:T(4,128)}, f32[]{:T(128)}) tuple(%reduce.185, %add.990.clone.1, %add.993.clone.1, %add.994.clone.1, %reduce.188.clone.1)
}

%region_60.65 (reduce_sum.407: f32[], reduce_sum.408: f32[]) -> f32[] {
  %reduce_sum.408 = f32[]{:T(128)} parameter(1), metadata={op_name="jit(train_step)/reduce_sum"}
  %reduce_sum.407 = f32[]{:T(128)} parameter(0), metadata={op_name="jit(train_step)/reduce_sum"}
  ROOT %reduce_sum.409 = f32[]{:T(128)} add(%reduce_sum.407, %reduce_sum.408), metadata={op_name="jit(train_step)/reduce_sum" stack_frame_id=0}, backend_config={"flag_configs":[],"scoped_memory_configs":[],"used_scoped_memory_configs":[],"aliasing_operands":{"lists":[]}}
}

%region_45.50 (reduce_sum.326: f32[], reduce_sum.330: f32[]) -> f32[] {
  %reduce_sum.330 = f32[]{:T(128)} parameter(1), metadata={op_name="jit(train_step)/reduce_sum"}
  %reduce_sum.326 = f32[]{:T(128)} parameter(0), metadata={op_name="jit(train_step)/reduce_sum"}
  ROOT %reduce_sum.331 = f32[]{:T(128)} add(%reduce_sum.326, %reduce_sum.330), metadata={op_name="jit(train_step)/reduce_sum" stack_frame_id=0}, backend_config={"flag_configs":[],"scoped_memory_configs":[],"used_scoped_memory_configs":[],"aliasing_operands":{"lists":[]}}
}

%fused_computation.308 (param_0.1379: f32[2048,4,6144], param_1.1567: f32[], param_2.1325: f32[], param_3.929: f32[], param_4.567: f32[2048,4,6144], param_5.479: f32[], param_6.369: f32[4,2048,6144], param_7.212: pred[], param_8.129: f32[2048,4,6144]) -> (f32[], f32[2048,4,6144], f32[2048,4,6144], f32[2048,4,6144], f32[]) {
  %param_0.1379 = f32[2048,4,6144]{2,1,0:T(4,128)} parameter(0)
  %param_3.929 = f32[]{:T(128)S(6)} parameter(3)
  %mul.2015.clone.1 = f32[2048,4,6144]{2,1,0:T(4,128)} broadcast(%param_3.929), dimensions={}, metadata={op_name="jit(train_step)/mul" stack_frame_id=0}
  %param_7.212 = pred[]{:T(512)S(6)} parameter(7)
  %select_n.312.clone.1 = pred[2048,4,6144]{2,1,0:T(4,128)(4,1)} broadcast(%param_7.212), dimensions={}, metadata={op_name="jit(train_step)/select_n" stack_frame_id=0}
  %param_6.369 = f32[4,2048,6144]{2,0,1:T(4,128)} parameter(6)
  %bitcast.486.clone.1 = f32[2048,4,6144]{2,1,0:T(4,128)} bitcast(%param_6.369), metadata={op_name="jit(train_step)/transpose(jvp(TransformerLinenPure.apply))/TransformerLinenPure/decoder/transpose" stack_frame_id=0}
  %param_5.479 = f32[]{:T(128)} parameter(5)
  %div.948.clone.1 = f32[2048,4,6144]{2,1,0:T(4,128)} broadcast(%param_5.479), dimensions={}, metadata={op_name="jit(train_step)/div" stack_frame_id=0}
  %div.947.clone.1 = f32[2048,4,6144]{2,1,0:T(4,128)} divide(%bitcast.486.clone.1, %div.948.clone.1), metadata={op_name="jit(train_step)/div" stack_frame_id=0}
  %select_n.311.clone.1 = f32[2048,4,6144]{2,1,0:T(4,128)} select(%select_n.312.clone.1, %bitcast.486.clone.1, %div.947.clone.1), metadata={op_name="jit(train_step)/select_n" stack_frame_id=0}
  %constant.1158.clone.1 = f32[]{:T(128)} constant(0.1)
  %broadcast.898.clone.1 = f32[2048,4,6144]{2,1,0:T(4,128)} broadcast(%constant.1158.clone.1), dimensions={}, metadata={op_name="broadcast.85"}
  %mul.2019.clone.1 = f32[2048,4,6144]{2,1,0:T(4,128)} multiply(%select_n.311.clone.1, %broadcast.898.clone.1), metadata={op_name="jit(train_step)/mul" stack_frame_id=0}
  %param_8.129 = f32[2048,4,6144]{2,1,0:T(4,128)} parameter(8)
  %constant.1162.clone.1 = f32[]{:T(128)} constant(0.9)
  %broadcast.897.clone.1 = f32[2048,4,6144]{2,1,0:T(4,128)} broadcast(%constant.1162.clone.1), dimensions={}, metadata={op_name="broadcast.84"}
  %mul.2018.clone.1 = f32[2048,4,6144]{2,1,0:T(4,128)} multiply(%param_8.129, %broadcast.897.clone.1), metadata={op_name="jit(train_step)/mul" stack_frame_id=0}
  %add.999.clone.1 = f32[2048,4,6144]{2,1,0:T(4,128)} add(%mul.2019.clone.1, %mul.2018.clone.1), metadata={op_name="jit(train_step)/add" stack_frame_id=0}
  %param_2.1325 = f32[]{:T(128)S(6)} parameter(2)
  %div.944.clone.1 = f32[2048,4,6144]{2,1,0:T(4,128)} broadcast(%param_2.1325), dimensions={}, metadata={op_name="jit(train_step)/div" stack_frame_id=0}
  %integer_pow.76.clone.1 = f32[2048,4,6144]{2,1,0:T(4,128)} multiply(%select_n.311.clone.1, %select_n.311.clone.1), metadata={op_name="jit(train_step)/integer_pow" stack_frame_id=0}
  %constant.1161.clone.1 = f32[]{:T(128)} constant(0.05)
  %broadcast.896.clone.1 = f32[2048,4,6144]{2,1,0:T(4,128)} broadcast(%constant.1161.clone.1), dimensions={}, metadata={op_name="broadcast.73"}
  %mul.2017.clone.1 = f32[2048,4,6144]{2,1,0:T(4,128)} multiply(%integer_pow.76.clone.1, %broadcast.896.clone.1), metadata={op_name="jit(train_step)/mul" stack_frame_id=0}
  %param_4.567 = f32[2048,4,6144]{2,1,0:T(4,128)} parameter(4)
  %constant.1160.clone.1 = f32[]{:T(128)} constant(0.95)
  %broadcast.895.clone.1 = f32[2048,4,6144]{2,1,0:T(4,128)} broadcast(%constant.1160.clone.1), dimensions={}, metadata={op_name="broadcast.72"}
  %mul.2016.clone.1 = f32[2048,4,6144]{2,1,0:T(4,128)} multiply(%param_4.567, %broadcast.895.clone.1), metadata={op_name="jit(train_step)/mul" stack_frame_id=0}
  %add.998.clone.1 = f32[2048,4,6144]{2,1,0:T(4,128)} add(%mul.2017.clone.1, %mul.2016.clone.1), metadata={op_name="jit(train_step)/add" stack_frame_id=0}
  %param_1.1567 = f32[]{:T(128)S(6)} parameter(1)
  %div.943.clone.1 = f32[2048,4,6144]{2,1,0:T(4,128)} broadcast(%param_1.1567), dimensions={}, metadata={op_name="jit(train_step)/div" stack_frame_id=0}
  %div.942.clone.1 = f32[2048,4,6144]{2,1,0:T(4,128)} divide(%add.998.clone.1, %div.943.clone.1), metadata={op_name="jit(train_step)/div" stack_frame_id=0}
  %sqrt.73.clone.1 = f32[2048,4,6144]{2,1,0:T(4,128)} sqrt(%div.942.clone.1), metadata={op_name="jit(train_step)/sqrt" stack_frame_id=0}
  %constant.1159.clone.1 = f32[]{:T(128)} constant(1e-08)
  %broadcast.893.clone.1 = f32[2048,4,6144]{2,1,0:T(4,128)} broadcast(%constant.1159.clone.1), dimensions={}, metadata={op_name="broadcast.65"}
  %add.997.clone.1 = f32[2048,4,6144]{2,1,0:T(4,128)} add(%sqrt.73.clone.1, %broadcast.893.clone.1), metadata={op_name="jit(train_step)/add" stack_frame_id=0}
  %multiply.437.clone.1 = f32[2048,4,6144]{2,1,0:T(4,128)} multiply(%div.944.clone.1, %add.997.clone.1), metadata={op_name="multiply.50"}
  %div.941.clone.1 = f32[2048,4,6144]{2,1,0:T(4,128)} divide(%add.999.clone.1, %multiply.437.clone.1), metadata={op_name="jit(train_step)/div" stack_frame_id=0}
  %mul.2014.clone.1 = f32[2048,4,6144]{2,1,0:T(4,128)} multiply(%param_0.1379, %broadcast.898.clone.1), metadata={op_name="jit(train_step)/mul" stack_frame_id=0}
  %add.996.clone.1 = f32[2048,4,6144]{2,1,0:T(4,128)} add(%div.941.clone.1, %mul.2014.clone.1), metadata={op_name="jit(train_step)/add" stack_frame_id=0}
  %mul.2013.clone.1 = f32[2048,4,6144]{2,1,0:T(4,128)} multiply(%mul.2015.clone.1, %add.996.clone.1), metadata={op_name="jit(train_step)/mul" stack_frame_id=0}
  %add.995.clone.1 = f32[2048,4,6144]{2,1,0:T(4,128)} add(%param_0.1379, %mul.2013.clone.1), metadata={op_name="jit(train_step)/add" stack_frame_id=0}
  %square.227 = f32[2048,4,6144]{2,1,0:T(4,128)} multiply(%add.995.clone.1, %add.995.clone.1), metadata={op_name="jit(train_step)/square" stack_frame_id=0}
  %constant.1211 = f32[]{:T(128)} constant(0)
  %reduce.186 = f32[]{:T(128)} reduce(%square.227, %constant.1211), dimensions={0,1,2}, to_apply=%region_60.65, metadata={op_name="jit(train_step)/reduce_sum" stack_frame_id=0}
  %reduce.189.clone.1 = f32[]{:T(128)} reduce(%integer_pow.76.clone.1, %constant.1211), dimensions={0,1,2}, to_apply=%region_45.50, metadata={op_name="jit(train_step)/reduce_sum" stack_frame_id=0}
  ROOT %tuple.147 = (f32[]{:T(128)}, f32[2048,4,6144]{2,1,0:T(4,128)}, f32[2048,4,6144]{2,1,0:T(4,128)}, f32[2048,4,6144]{2,1,0:T(4,128)}, f32[]{:T(128)}) tuple(%reduce.186, %add.995.clone.1, %add.998.clone.1, %add.999.clone.1, %reduce.189.clone.1)
}

%region_39.44 (reduce_sum.302: f32[], reduce_sum.303: f32[]) -> f32[] {
  %reduce_sum.303 = f32[]{:T(128)} parameter(1), metadata={op_name="jit(train_step)/reduce_sum"}
  %reduce_sum.302 = f32[]{:T(128)} parameter(0), metadata={op_name="jit(train_step)/reduce_sum"}
  ROOT %reduce_sum.304 = f32[]{:T(128)} add(%reduce_sum.302, %reduce_sum.303), metadata={op_name="jit(train_step)/reduce_sum" stack_frame_id=0}, backend_config={"flag_configs":[],"scoped_memory_configs":[],"used_scoped_memory_configs":[],"aliasing_operands":{"lists":[]}}
}

%fused_computation.324 (param_0.1382: f32[4,2048,16,128]) -> f32[] {
  %param_0.1382 = f32[4,2048,16,128]{3,2,0,1:T(8,128)} parameter(0)
  %bitcast.362 = f32[2048,4,16,128]{3,2,1,0:T(8,128)} bitcast(%param_0.1382), metadata={op_name="jit(train_step)/transpose(jvp(TransformerLinenPure.apply))/TransformerLinenPure/decoder/transpose" stack_frame_id=0}
  %square.230 = f32[2048,4,16,128]{3,2,1,0:T(8,128)} multiply(%bitcast.362, %bitcast.362), metadata={op_name="jit(train_step)/square" stack_frame_id=0}
  %constant.1214 = f32[]{:T(128)} constant(0)
  ROOT %reduce.190 = f32[]{:T(128)} reduce(%square.230, %constant.1214), dimensions={0,1,2,3}, to_apply=%region_39.44, metadata={op_name="jit(train_step)/reduce_sum" stack_frame_id=0}
}

%region_38.43 (reduce_sum.296: f32[], reduce_sum.297: f32[]) -> f32[] {
  %reduce_sum.297 = f32[]{:T(128)} parameter(1), metadata={op_name="jit(train_step)/reduce_sum"}
  %reduce_sum.296 = f32[]{:T(128)} parameter(0), metadata={op_name="jit(train_step)/reduce_sum"}
  ROOT %reduce_sum.298 = f32[]{:T(128)} add(%reduce_sum.296, %reduce_sum.297), metadata={op_name="jit(train_step)/reduce_sum" stack_frame_id=0}, backend_config={"flag_configs":[],"scoped_memory_configs":[],"used_scoped_memory_configs":[],"aliasing_operands":{"lists":[]}}
}

%fused_computation.326 (param_0.1383: f32[4,16,128,2048]) -> f32[] {
  %param_0.1383 = f32[4,16,128,2048]{3,2,0,1:T(8,128)S(1)} parameter(0)
  %bitcast.366 = f32[16,4,128,2048]{3,2,1,0:T(8,128)} bitcast(%param_0.1383), metadata={op_name="jit(train_step)/transpose(jvp(TransformerLinenPure.apply))/TransformerLinenPure/decoder/transpose" stack_frame_id=0}
  %square.233 = f32[16,4,128,2048]{3,2,1,0:T(8,128)} multiply(%bitcast.366, %bitcast.366), metadata={op_name="jit(train_step)/square" stack_frame_id=0}
  %constant.1215 = f32[]{:T(128)} constant(0)
  ROOT %reduce.191 = f32[]{:T(128)} reduce(%square.233, %constant.1215), dimensions={0,1,2,3}, to_apply=%region_38.43, metadata={op_name="jit(train_step)/reduce_sum" stack_frame_id=0}
}

%fused_computation.327 (param_0.950: f32[16,4,128,2048]) -> bf16[4,16,128,2048] {
  %param_0.950 = f32[16,4,128,2048]{3,2,1,0:T(8,128)} parameter(0)
  %copy.193 = bf16[16,4,128,2048]{3,2,0,1:T(8,128)(2,1)} copy(%param_0.950), sharding={replicated}, metadata={op_name="state.params[\'params\'][\'decoder\'][\'layers\'][\'self_attention\'][\'out\'][\'kernel\']"}
  ROOT %bitcast.367 = bf16[4,16,128,2048]{3,2,1,0:T(8,128)(2,1)} bitcast(%copy.193), metadata={op_name="jit(train_step)/jvp(TransformerLinenPure.apply)/TransformerLinenPure/decoder/transpose" stack_frame_id=0}
}

%region_68.73 (reduce_sum.449: f32[], reduce_sum.450: f32[]) -> f32[] {
  %reduce_sum.450 = f32[]{:T(128)} parameter(1), metadata={op_name="jit(train_step)/reduce_sum"}
  %reduce_sum.449 = f32[]{:T(128)} parameter(0), metadata={op_name="jit(train_step)/reduce_sum"}
  ROOT %reduce_sum.451 = f32[]{:T(128)} add(%reduce_sum.449, %reduce_sum.450), metadata={op_name="jit(train_step)/reduce_sum" stack_frame_id=0}, backend_config={"flag_configs":[],"scoped_memory_configs":[],"used_scoped_memory_configs":[],"aliasing_operands":{"lists":[]}}
}

%region_53.58 (reduce_sum.368: f32[], reduce_sum.372: f32[]) -> f32[] {
  %reduce_sum.372 = f32[]{:T(128)} parameter(1), metadata={op_name="jit(train_step)/reduce_sum"}
  %reduce_sum.368 = f32[]{:T(128)} parameter(0), metadata={op_name="jit(train_step)/reduce_sum"}
  ROOT %reduce_sum.373 = f32[]{:T(128)} add(%reduce_sum.368, %reduce_sum.372), metadata={op_name="jit(train_step)/reduce_sum" stack_frame_id=0}, backend_config={"flag_configs":[],"scoped_memory_configs":[],"used_scoped_memory_configs":[],"aliasing_operands":{"lists":[]}}
}

%fused_computation.328 (param_0.1371: f32[2048,4,16,128], param_1.1559: f32[], param_2.1317: f32[], param_3.921: f32[], param_4.559: f32[2048,4,16,128], param_5.471: f32[], param_6.361: f32[4,2048,16,128], param_7.204: pred[], param_8.121: f32[2048,4,16,128]) -> (f32[], f32[2048,4,16,128], f32[2048,4,16,128], f32[2048,4,16,128], f32[]) {
  %param_0.1371 = f32[2048,4,16,128]{3,2,1,0:T(8,128)} parameter(0)
  %param_3.921 = f32[]{:T(128)S(6)} parameter(3)
  %mul.1950.clone.1 = f32[2048,4,16,128]{3,2,1,0:T(8,128)} broadcast(%param_3.921), dimensions={}, metadata={op_name="jit(train_step)/mul" stack_frame_id=0}
  %param_7.204 = pred[]{:T(512)S(6)} parameter(7)
  %select_n.280.clone.1 = pred[2048,4,16,128]{3,2,1,0:T(8,128)(4,1)} broadcast(%param_7.204), dimensions={}, metadata={op_name="jit(train_step)/select_n" stack_frame_id=0}
  %param_6.361 = f32[4,2048,16,128]{3,2,0,1:T(8,128)S(1)} parameter(6)
  %bitcast.470.clone.1 = f32[2048,4,16,128]{3,2,1,0:T(8,128)} bitcast(%param_6.361), metadata={op_name="jit(train_step)/transpose(jvp(TransformerLinenPure.apply))/TransformerLinenPure/decoder/transpose" stack_frame_id=0}
  %param_5.471 = f32[]{:T(128)} parameter(5)
  %div.884.clone.1 = f32[2048,4,16,128]{3,2,1,0:T(8,128)} broadcast(%param_5.471), dimensions={}, metadata={op_name="jit(train_step)/div" stack_frame_id=0}
  %div.883.clone.1 = f32[2048,4,16,128]{3,2,1,0:T(8,128)} divide(%bitcast.470.clone.1, %div.884.clone.1), metadata={op_name="jit(train_step)/div" stack_frame_id=0}
  %select_n.279.clone.1 = f32[2048,4,16,128]{3,2,1,0:T(8,128)} select(%select_n.280.clone.1, %bitcast.470.clone.1, %div.883.clone.1), metadata={op_name="jit(train_step)/select_n" stack_frame_id=0}
  %constant.1110.clone.1 = f32[]{:T(128)} constant(0.1)
  %broadcast.858.clone.1 = f32[2048,4,16,128]{3,2,1,0:T(8,128)} broadcast(%constant.1110.clone.1), dimensions={}, metadata={op_name="broadcast.75"}
  %mul.1956.clone.1 = f32[2048,4,16,128]{3,2,1,0:T(8,128)} multiply(%select_n.279.clone.1, %broadcast.858.clone.1), metadata={op_name="jit(train_step)/mul" stack_frame_id=0}
  %param_8.121 = f32[2048,4,16,128]{3,2,1,0:T(8,128)} parameter(8)
  %constant.1114.clone.1 = f32[]{:T(128)} constant(0.9)
  %mul.1957.clone.1 = f32[2048,4,16,128]{3,2,1,0:T(8,128)} broadcast(%constant.1114.clone.1), dimensions={}, metadata={op_name="jit(train_step)/mul" stack_frame_id=0}
  %mul.1955.clone.1 = f32[2048,4,16,128]{3,2,1,0:T(8,128)} multiply(%param_8.121, %mul.1957.clone.1), metadata={op_name="jit(train_step)/mul" stack_frame_id=0}
  %add.957.clone.1 = f32[2048,4,16,128]{3,2,1,0:T(8,128)} add(%mul.1956.clone.1, %mul.1955.clone.1), metadata={op_name="jit(train_step)/add" stack_frame_id=0}
  %param_2.1317 = f32[]{:T(128)S(6)} parameter(2)
  %div.880.clone.1 = f32[2048,4,16,128]{3,2,1,0:T(8,128)} broadcast(%param_2.1317), dimensions={}, metadata={op_name="jit(train_step)/div" stack_frame_id=0}
  %integer_pow.68.clone.1 = f32[2048,4,16,128]{3,2,1,0:T(8,128)} multiply(%select_n.279.clone.1, %select_n.279.clone.1), metadata={op_name="jit(train_step)/integer_pow" stack_frame_id=0}
  %constant.1113.clone.1 = f32[]{:T(128)} constant(0.05)
  %mul.1954.clone.1 = f32[2048,4,16,128]{3,2,1,0:T(8,128)} broadcast(%constant.1113.clone.1), dimensions={}, metadata={op_name="jit(train_step)/mul" stack_frame_id=0}
  %mul.1952.clone.1 = f32[2048,4,16,128]{3,2,1,0:T(8,128)} multiply(%integer_pow.68.clone.1, %mul.1954.clone.1), metadata={op_name="jit(train_step)/mul" stack_frame_id=0}
  %param_4.559 = f32[2048,4,16,128]{3,2,1,0:T(8,128)} parameter(4)
  %constant.1112.clone.1 = f32[]{:T(128)} constant(0.95)
  %mul.1953.clone.1 = f32[2048,4,16,128]{3,2,1,0:T(8,128)} broadcast(%constant.1112.clone.1), dimensions={}, metadata={op_name="jit(train_step)/mul" stack_frame_id=0}
  %mul.1951.clone.1 = f32[2048,4,16,128]{3,2,1,0:T(8,128)} multiply(%param_4.559, %mul.1953.clone.1), metadata={op_name="jit(train_step)/mul" stack_frame_id=0}
  %add.956.clone.1 = f32[2048,4,16,128]{3,2,1,0:T(8,128)} add(%mul.1952.clone.1, %mul.1951.clone.1), metadata={op_name="jit(train_step)/add" stack_frame_id=0}
  %param_1.1559 = f32[]{:T(128)S(6)} parameter(1)
  %div.879.clone.1 = f32[2048,4,16,128]{3,2,1,0:T(8,128)} broadcast(%param_1.1559), dimensions={}, metadata={op_name="jit(train_step)/div" stack_frame_id=0}
  %div.878.clone.1 = f32[2048,4,16,128]{3,2,1,0:T(8,128)} divide(%add.956.clone.1, %div.879.clone.1), metadata={op_name="jit(train_step)/div" stack_frame_id=0}
  %sqrt.65.clone.1 = f32[2048,4,16,128]{3,2,1,0:T(8,128)} sqrt(%div.878.clone.1), metadata={op_name="jit(train_step)/sqrt" stack_frame_id=0}
  %constant.1111.clone.1 = f32[]{:T(128)} constant(1e-08)
  %add.955.clone.1 = f32[2048,4,16,128]{3,2,1,0:T(8,128)} broadcast(%constant.1111.clone.1), dimensions={}, metadata={op_name="jit(train_step)/add" stack_frame_id=0}
  %add.954.clone.1 = f32[2048,4,16,128]{3,2,1,0:T(8,128)} add(%sqrt.65.clone.1, %add.955.clone.1), metadata={op_name="jit(train_step)/add" stack_frame_id=0}
  %multiply.429.clone.1 = f32[2048,4,16,128]{3,2,1,0:T(8,128)} multiply(%div.880.clone.1, %add.954.clone.1), metadata={op_name="multiply.58"}
  %div.877.clone.1 = f32[2048,4,16,128]{3,2,1,0:T(8,128)} divide(%add.957.clone.1, %multiply.429.clone.1), metadata={op_name="jit(train_step)/div" stack_frame_id=0}
  %mul.1949.clone.1 = f32[2048,4,16,128]{3,2,1,0:T(8,128)} multiply(%param_0.1371, %broadcast.858.clone.1), metadata={op_name="jit(train_step)/mul" stack_frame_id=0}
  %add.953.clone.1 = f32[2048,4,16,128]{3,2,1,0:T(8,128)} add(%div.877.clone.1, %mul.1949.clone.1), metadata={op_name="jit(train_step)/add" stack_frame_id=0}
  %mul.1948.clone.1 = f32[2048,4,16,128]{3,2,1,0:T(8,128)} multiply(%mul.1950.clone.1, %add.953.clone.1), metadata={op_name="jit(train_step)/mul" stack_frame_id=0}
  %add.952.clone.1 = f32[2048,4,16,128]{3,2,1,0:T(8,128)} add(%param_0.1371, %mul.1948.clone.1), metadata={op_name="jit(train_step)/add" stack_frame_id=0}
  %square.234 = f32[2048,4,16,128]{3,2,1,0:T(8,128)} multiply(%add.952.clone.1, %add.952.clone.1), metadata={op_name="jit(train_step)/square" stack_frame_id=0}
  %constant.1203 = f32[]{:T(128)} constant(0)
  %reduce.192 = f32[]{:T(128)} reduce(%square.234, %constant.1203), dimensions={0,1,2,3}, to_apply=%region_68.73, metadata={op_name="jit(train_step)/reduce_sum" stack_frame_id=0}
  %reduce.194.clone.1 = f32[]{:T(128)} reduce(%integer_pow.68.clone.1, %constant.1203), dimensions={0,1,2,3}, to_apply=%region_53.58, metadata={op_name="jit(train_step)/reduce_sum" stack_frame_id=0}
  ROOT %tuple.148 = (f32[]{:T(128)}, f32[2048,4,16,128]{3,2,1,0:T(8,128)}, f32[2048,4,16,128]{3,2,1,0:T(8,128)}, f32[2048,4,16,128]{3,2,1,0:T(8,128)}, f32[]{:T(128)}) tuple(%reduce.192, %add.952.clone.1, %add.956.clone.1, %add.957.clone.1, %reduce.194.clone.1)
}

%region_67.72 (reduce_sum.443: f32[], reduce_sum.444: f32[]) -> f32[] {
  %reduce_sum.444 = f32[]{:T(128)} parameter(1), metadata={op_name="jit(train_step)/reduce_sum"}
  %reduce_sum.443 = f32[]{:T(128)} parameter(0), metadata={op_name="jit(train_step)/reduce_sum"}
  ROOT %reduce_sum.445 = f32[]{:T(128)} add(%reduce_sum.443, %reduce_sum.444), metadata={op_name="jit(train_step)/reduce_sum" stack_frame_id=0}, backend_config={"flag_configs":[],"scoped_memory_configs":[],"used_scoped_memory_configs":[],"aliasing_operands":{"lists":[]}}
}

%region_52.57 (reduce_sum.365: f32[], reduce_sum.366: f32[]) -> f32[] {
  %reduce_sum.366 = f32[]{:T(128)} parameter(1), metadata={op_name="jit(train_step)/reduce_sum"}
  %reduce_sum.365 = f32[]{:T(128)} parameter(0), metadata={op_name="jit(train_step)/reduce_sum"}
  ROOT %reduce_sum.367 = f32[]{:T(128)} add(%reduce_sum.365, %reduce_sum.366), metadata={op_name="jit(train_step)/reduce_sum" stack_frame_id=0}, backend_config={"flag_configs":[],"scoped_memory_configs":[],"used_scoped_memory_configs":[],"aliasing_operands":{"lists":[]}}
}

%fused_computation.329 (param_0.1372: f32[16,4,128,2048], param_1.1560: f32[], param_2.1318: f32[], param_3.922: f32[], param_4.560: f32[16,4,128,2048], param_5.472: f32[], param_6.362: f32[4,16,128,2048], param_7.205: pred[], param_8.122: f32[16,4,128,2048]) -> (f32[], f32[16,4,128,2048], f32[16,4,128,2048], f32[16,4,128,2048], f32[]) {
  %param_0.1372 = f32[16,4,128,2048]{3,2,1,0:T(8,128)} parameter(0)
  %param_3.922 = f32[]{:T(128)S(6)} parameter(3)
  %mul.1960.clone.1 = f32[16,4,128,2048]{3,2,1,0:T(8,128)} broadcast(%param_3.922), dimensions={}, metadata={op_name="jit(train_step)/mul" stack_frame_id=0}
  %param_7.205 = pred[]{:T(512)S(6)} parameter(7)
  %select_n.284.clone.1 = pred[16,4,128,2048]{3,2,1,0:T(8,128)(4,1)} broadcast(%param_7.205), dimensions={}, metadata={op_name="jit(train_step)/select_n" stack_frame_id=0}
  %param_6.362 = f32[4,16,128,2048]{3,2,0,1:T(8,128)} parameter(6)
  %bitcast.472.clone.1 = f32[16,4,128,2048]{3,2,1,0:T(8,128)} bitcast(%param_6.362), metadata={op_name="jit(train_step)/transpose(jvp(TransformerLinenPure.apply))/TransformerLinenPure/decoder/transpose" stack_frame_id=0}
  %param_5.472 = f32[]{:T(128)} parameter(5)
  %div.892.clone.1 = f32[16,4,128,2048]{3,2,1,0:T(8,128)} broadcast(%param_5.472), dimensions={}, metadata={op_name="jit(train_step)/div" stack_frame_id=0}
  %div.891.clone.1 = f32[16,4,128,2048]{3,2,1,0:T(8,128)} divide(%bitcast.472.clone.1, %div.892.clone.1), metadata={op_name="jit(train_step)/div" stack_frame_id=0}
  %select_n.283.clone.1 = f32[16,4,128,2048]{3,2,1,0:T(8,128)} select(%select_n.284.clone.1, %bitcast.472.clone.1, %div.891.clone.1), metadata={op_name="jit(train_step)/select_n" stack_frame_id=0}
  %constant.1116.clone.1 = f32[]{:T(128)} constant(0.1)
  %broadcast.860.clone.1 = f32[16,4,128,2048]{3,2,1,0:T(8,128)} broadcast(%constant.1116.clone.1), dimensions={}, metadata={op_name="broadcast.76"}
  %mul.1966.clone.1 = f32[16,4,128,2048]{3,2,1,0:T(8,128)} multiply(%select_n.283.clone.1, %broadcast.860.clone.1), metadata={op_name="jit(train_step)/mul" stack_frame_id=0}
  %param_8.122 = f32[16,4,128,2048]{3,2,1,0:T(8,128)} parameter(8)
  %constant.1120.clone.1 = f32[]{:T(128)} constant(0.9)
  %mul.1967.clone.1 = f32[16,4,128,2048]{3,2,1,0:T(8,128)} broadcast(%constant.1120.clone.1), dimensions={}, metadata={op_name="jit(train_step)/mul" stack_frame_id=0}
  %mul.1965.clone.1 = f32[16,4,128,2048]{3,2,1,0:T(8,128)} multiply(%param_8.122, %mul.1967.clone.1), metadata={op_name="jit(train_step)/mul" stack_frame_id=0}
  %add.963.clone.1 = f32[16,4,128,2048]{3,2,1,0:T(8,128)} add(%mul.1966.clone.1, %mul.1965.clone.1), metadata={op_name="jit(train_step)/add" stack_frame_id=0}
  %param_2.1318 = f32[]{:T(128)S(6)} parameter(2)
  %div.888.clone.1 = f32[16,4,128,2048]{3,2,1,0:T(8,128)} broadcast(%param_2.1318), dimensions={}, metadata={op_name="jit(train_step)/div" stack_frame_id=0}
  %integer_pow.69.clone.1 = f32[16,4,128,2048]{3,2,1,0:T(8,128)} multiply(%select_n.283.clone.1, %select_n.283.clone.1), metadata={op_name="jit(train_step)/integer_pow" stack_frame_id=0}
  %constant.1119.clone.1 = f32[]{:T(128)} constant(0.05)
  %mul.1964.clone.1 = f32[16,4,128,2048]{3,2,1,0:T(8,128)} broadcast(%constant.1119.clone.1), dimensions={}, metadata={op_name="jit(train_step)/mul" stack_frame_id=0}
  %mul.1962.clone.1 = f32[16,4,128,2048]{3,2,1,0:T(8,128)} multiply(%integer_pow.69.clone.1, %mul.1964.clone.1), metadata={op_name="jit(train_step)/mul" stack_frame_id=0}
  %param_4.560 = f32[16,4,128,2048]{3,2,1,0:T(8,128)} parameter(4)
  %constant.1118.clone.1 = f32[]{:T(128)} constant(0.95)
  %mul.1963.clone.1 = f32[16,4,128,2048]{3,2,1,0:T(8,128)} broadcast(%constant.1118.clone.1), dimensions={}, metadata={op_name="jit(train_step)/mul" stack_frame_id=0}
  %mul.1961.clone.1 = f32[16,4,128,2048]{3,2,1,0:T(8,128)} multiply(%param_4.560, %mul.1963.clone.1), metadata={op_name="jit(train_step)/mul" stack_frame_id=0}
  %add.962.clone.1 = f32[16,4,128,2048]{3,2,1,0:T(8,128)} add(%mul.1962.clone.1, %mul.1961.clone.1), metadata={op_name="jit(train_step)/add" stack_frame_id=0}
  %param_1.1560 = f32[]{:T(128)S(6)} parameter(1)
  %div.887.clone.1 = f32[16,4,128,2048]{3,2,1,0:T(8,128)} broadcast(%param_1.1560), dimensions={}, metadata={op_name="jit(train_step)/div" stack_frame_id=0}
  %div.886.clone.1 = f32[16,4,128,2048]{3,2,1,0:T(8,128)} divide(%add.962.clone.1, %div.887.clone.1), metadata={op_name="jit(train_step)/div" stack_frame_id=0}
  %sqrt.66.clone.1 = f32[16,4,128,2048]{3,2,1,0:T(8,128)} sqrt(%div.886.clone.1), metadata={op_name="jit(train_step)/sqrt" stack_frame_id=0}
  %constant.1117.clone.1 = f32[]{:T(128)} constant(1e-08)
  %add.961.clone.1 = f32[16,4,128,2048]{3,2,1,0:T(8,128)} broadcast(%constant.1117.clone.1), dimensions={}, metadata={op_name="jit(train_step)/add" stack_frame_id=0}
  %add.960.clone.1 = f32[16,4,128,2048]{3,2,1,0:T(8,128)} add(%sqrt.66.clone.1, %add.961.clone.1), metadata={op_name="jit(train_step)/add" stack_frame_id=0}
  %multiply.430.clone.1 = f32[16,4,128,2048]{3,2,1,0:T(8,128)} multiply(%div.888.clone.1, %add.960.clone.1), metadata={op_name="multiply.57"}
  %div.885.clone.1 = f32[16,4,128,2048]{3,2,1,0:T(8,128)} divide(%add.963.clone.1, %multiply.430.clone.1), metadata={op_name="jit(train_step)/div" stack_frame_id=0}
  %mul.1959.clone.1 = f32[16,4,128,2048]{3,2,1,0:T(8,128)} multiply(%param_0.1372, %broadcast.860.clone.1), metadata={op_name="jit(train_step)/mul" stack_frame_id=0}
  %add.959.clone.1 = f32[16,4,128,2048]{3,2,1,0:T(8,128)} add(%div.885.clone.1, %mul.1959.clone.1), metadata={op_name="jit(train_step)/add" stack_frame_id=0}
  %mul.1958.clone.1 = f32[16,4,128,2048]{3,2,1,0:T(8,128)} multiply(%mul.1960.clone.1, %add.959.clone.1), metadata={op_name="jit(train_step)/mul" stack_frame_id=0}
  %add.958.clone.1 = f32[16,4,128,2048]{3,2,1,0:T(8,128)} add(%param_0.1372, %mul.1958.clone.1), metadata={op_name="jit(train_step)/add" stack_frame_id=0}
  %square.235 = f32[16,4,128,2048]{3,2,1,0:T(8,128)} multiply(%add.958.clone.1, %add.958.clone.1), metadata={op_name="jit(train_step)/square" stack_frame_id=0}
  %constant.1204 = f32[]{:T(128)} constant(0)
  %reduce.193 = f32[]{:T(128)} reduce(%square.235, %constant.1204), dimensions={0,1,2,3}, to_apply=%region_67.72, metadata={op_name="jit(train_step)/reduce_sum" stack_frame_id=0}
  %reduce.195.clone.1 = f32[]{:T(128)} reduce(%integer_pow.69.clone.1, %constant.1204), dimensions={0,1,2,3}, to_apply=%region_52.57, metadata={op_name="jit(train_step)/reduce_sum" stack_frame_id=0}
  ROOT %tuple.149 = (f32[]{:T(128)}, f32[16,4,128,2048]{3,2,1,0:T(8,128)}, f32[16,4,128,2048]{3,2,1,0:T(8,128)}, f32[16,4,128,2048]{3,2,1,0:T(8,128)}, f32[]{:T(128)}) tuple(%reduce.193, %add.958.clone.1, %add.962.clone.1, %add.963.clone.1, %reduce.195.clone.1)
}

%region_41.46 (reduce_sum.311: f32[], reduce_sum.312: f32[]) -> f32[] {
  %reduce_sum.312 = f32[]{:T(128)} parameter(1), metadata={op_name="jit(train_step)/reduce_sum"}
  %reduce_sum.311 = f32[]{:T(128)} parameter(0), metadata={op_name="jit(train_step)/reduce_sum"}
  ROOT %reduce_sum.316 = f32[]{:T(128)} add(%reduce_sum.311, %reduce_sum.312), metadata={op_name="jit(train_step)/reduce_sum" stack_frame_id=0}, backend_config={"flag_configs":[],"scoped_memory_configs":[],"used_scoped_memory_configs":[],"aliasing_operands":{"lists":[]}}
}

%region_36.41 (reduce_sum.284: f32[], reduce_sum.288: f32[]) -> f32[] {
  %reduce_sum.288 = f32[]{:T(128)} parameter(1), metadata={op_name="jit(train_step)/reduce_sum"}
  %reduce_sum.284 = f32[]{:T(128)} parameter(0), metadata={op_name="jit(train_step)/reduce_sum"}
  ROOT %reduce_sum.289 = f32[]{:T(128)} add(%reduce_sum.284, %reduce_sum.288), metadata={op_name="jit(train_step)/reduce_sum" stack_frame_id=0}, backend_config={"flag_configs":[],"scoped_memory_configs":[],"used_scoped_memory_configs":[],"aliasing_operands":{"lists":[]}}
}

%fused_computation.341 (param_0.1385: f32[4,2048,8,128], param_1.1571: f32[4,2048,8,128]) -> (f32[], f32[]) {
  %param_0.1385 = f32[4,2048,8,128]{3,2,0,1:T(8,128)S(1)} parameter(0)
  %bitcast.371 = f32[2048,4,8,128]{3,2,1,0:T(8,128)} bitcast(%param_0.1385), metadata={op_name="jit(train_step)/transpose(jvp(TransformerLinenPure.apply))/TransformerLinenPure/decoder/transpose" stack_frame_id=0}
  %square.238 = f32[2048,4,8,128]{3,2,1,0:T(8,128)} multiply(%bitcast.371, %bitcast.371), metadata={op_name="jit(train_step)/square" stack_frame_id=0}
  %constant.1217 = f32[]{:T(128)} constant(0)
  %reduce.196 = f32[]{:T(128)} reduce(%square.238, %constant.1217), dimensions={0,1,2,3}, to_apply=%region_41.46, metadata={op_name="jit(train_step)/reduce_sum" stack_frame_id=0}
  %param_1.1571 = f32[4,2048,8,128]{3,2,0,1:T(8,128)S(1)} parameter(1)
  %bitcast.375.clone.1 = f32[2048,4,8,128]{3,2,1,0:T(8,128)} bitcast(%param_1.1571), metadata={op_name="jit(train_step)/transpose(jvp(TransformerLinenPure.apply))/TransformerLinenPure/decoder/transpose" stack_frame_id=0}
  %square.241.clone.1 = f32[2048,4,8,128]{3,2,1,0:T(8,128)} multiply(%bitcast.375.clone.1, %bitcast.375.clone.1), metadata={op_name="jit(train_step)/square" stack_frame_id=0}
  %reduce.197.clone.1 = f32[]{:T(128)} reduce(%square.241.clone.1, %constant.1217), dimensions={0,1,2,3}, to_apply=%region_36.41, metadata={op_name="jit(train_step)/reduce_sum" stack_frame_id=0}
  ROOT %tuple.168 = (f32[]{:T(128)}, f32[]{:T(128)}) tuple(%reduce.196, %reduce.197.clone.1)
}

%fused_computation.344 (param_0.982: f32[2048,4,8,128]) -> bf16[4,2048,8,128] {
  %param_0.982 = f32[2048,4,8,128]{3,2,1,0:T(8,128)S(1)} parameter(0)
  %copy.194 = bf16[2048,4,8,128]{3,2,0,1:T(8,128)(2,1)} copy(%param_0.982), sharding={replicated}, metadata={op_name="state.params[\'params\'][\'decoder\'][\'layers\'][\'self_attention\'][\'value\'][\'kernel\']"}
  ROOT %bitcast.376 = bf16[4,2048,8,128]{3,2,1,0:T(8,128)(2,1)} bitcast(%copy.194), metadata={op_name="jit(train_step)/jvp(TransformerLinenPure.apply)/TransformerLinenPure/decoder/transpose" stack_frame_id=0}
}

%region_70.75 (reduce_sum.458: f32[], reduce_sum.459: f32[]) -> f32[] {
  %reduce_sum.459 = f32[]{:T(128)} parameter(1), metadata={op_name="jit(train_step)/reduce_sum"}
  %reduce_sum.458 = f32[]{:T(128)} parameter(0), metadata={op_name="jit(train_step)/reduce_sum"}
  ROOT %reduce_sum.463 = f32[]{:T(128)} add(%reduce_sum.458, %reduce_sum.459), metadata={op_name="jit(train_step)/reduce_sum" stack_frame_id=0}, backend_config={"flag_configs":[],"scoped_memory_configs":[],"used_scoped_memory_configs":[],"aliasing_operands":{"lists":[]}}
}

%region_55.60 (reduce_sum.380: f32[], reduce_sum.381: f32[]) -> f32[] {
  %reduce_sum.381 = f32[]{:T(128)} parameter(1), metadata={op_name="jit(train_step)/reduce_sum"}
  %reduce_sum.380 = f32[]{:T(128)} parameter(0), metadata={op_name="jit(train_step)/reduce_sum"}
  ROOT %reduce_sum.382 = f32[]{:T(128)} add(%reduce_sum.380, %reduce_sum.381), metadata={op_name="jit(train_step)/reduce_sum" stack_frame_id=0}, backend_config={"flag_configs":[],"scoped_memory_configs":[],"used_scoped_memory_configs":[],"aliasing_operands":{"lists":[]}}
}

%fused_computation.345 (param_0.1369: f32[2048,4,8,128], param_1.1557: f32[], param_2.1315: f32[], param_3.919: f32[], param_4.557: f32[2048,4,8,128], param_5.469: f32[], param_6.359: f32[4,2048,8,128], param_7.202: pred[], param_8.119: f32[2048,4,8,128]) -> (f32[], f32[2048,4,8,128], f32[2048,4,8,128], f32[2048,4,8,128], f32[]) {
  %param_0.1369 = f32[2048,4,8,128]{3,2,1,0:T(8,128)} parameter(0)
  %param_3.919 = f32[]{:T(128)S(6)} parameter(3)
  %mul.1936.clone.1 = f32[2048,4,8,128]{3,2,1,0:T(8,128)} broadcast(%param_3.919), dimensions={}, metadata={op_name="jit(train_step)/mul" stack_frame_id=0}
  %param_7.202 = pred[]{:T(512)S(6)} parameter(7)
  %select_n.272.clone.1 = pred[2048,4,8,128]{3,2,1,0:T(8,128)(4,1)} broadcast(%param_7.202), dimensions={}, metadata={op_name="jit(train_step)/select_n" stack_frame_id=0}
  %param_6.359 = f32[4,2048,8,128]{3,2,0,1:T(8,128)} parameter(6)
  %bitcast.466.clone.1 = f32[2048,4,8,128]{3,2,1,0:T(8,128)} bitcast(%param_6.359), metadata={op_name="jit(train_step)/transpose(jvp(TransformerLinenPure.apply))/TransformerLinenPure/decoder/transpose" stack_frame_id=0}
  %param_5.469 = f32[]{:T(128)} parameter(5)
  %div.868.clone.1 = f32[2048,4,8,128]{3,2,1,0:T(8,128)} broadcast(%param_5.469), dimensions={}, metadata={op_name="jit(train_step)/div" stack_frame_id=0}
  %div.867.clone.1 = f32[2048,4,8,128]{3,2,1,0:T(8,128)} divide(%bitcast.466.clone.1, %div.868.clone.1), metadata={op_name="jit(train_step)/div" stack_frame_id=0}
  %select_n.271.clone.1 = f32[2048,4,8,128]{3,2,1,0:T(8,128)} select(%select_n.272.clone.1, %bitcast.466.clone.1, %div.867.clone.1), metadata={op_name="jit(train_step)/select_n" stack_frame_id=0}
  %constant.1098.clone.1 = f32[]{:T(128)} constant(0.1)
  %broadcast.850.clone.1 = f32[2048,4,8,128]{3,2,1,0:T(8,128)} broadcast(%constant.1098.clone.1), dimensions={}, metadata={op_name="broadcast.80"}
  %mul.1940.clone.1 = f32[2048,4,8,128]{3,2,1,0:T(8,128)} multiply(%select_n.271.clone.1, %broadcast.850.clone.1), metadata={op_name="jit(train_step)/mul" stack_frame_id=0}
  %param_8.119 = f32[2048,4,8,128]{3,2,1,0:T(8,128)} parameter(8)
  %constant.1102.clone.1 = f32[]{:T(128)} constant(0.9)
  %broadcast.849.clone.1 = f32[2048,4,8,128]{3,2,1,0:T(8,128)} broadcast(%constant.1102.clone.1), dimensions={}, metadata={op_name="broadcast.79"}
  %mul.1939.clone.1 = f32[2048,4,8,128]{3,2,1,0:T(8,128)} multiply(%param_8.119, %broadcast.849.clone.1), metadata={op_name="jit(train_step)/mul" stack_frame_id=0}
  %add.946.clone.1 = f32[2048,4,8,128]{3,2,1,0:T(8,128)} add(%mul.1940.clone.1, %mul.1939.clone.1), metadata={op_name="jit(train_step)/add" stack_frame_id=0}
  %param_2.1315 = f32[]{:T(128)S(6)} parameter(2)
  %div.864.clone.1 = f32[2048,4,8,128]{3,2,1,0:T(8,128)} broadcast(%param_2.1315), dimensions={}, metadata={op_name="jit(train_step)/div" stack_frame_id=0}
  %integer_pow.66.clone.1 = f32[2048,4,8,128]{3,2,1,0:T(8,128)} multiply(%select_n.271.clone.1, %select_n.271.clone.1), metadata={op_name="jit(train_step)/integer_pow" stack_frame_id=0}
  %constant.1101.clone.1 = f32[]{:T(128)} constant(0.05)
  %broadcast.848.clone.1 = f32[2048,4,8,128]{3,2,1,0:T(8,128)} broadcast(%constant.1101.clone.1), dimensions={}, metadata={op_name="broadcast.69"}
  %mul.1938.clone.1 = f32[2048,4,8,128]{3,2,1,0:T(8,128)} multiply(%integer_pow.66.clone.1, %broadcast.848.clone.1), metadata={op_name="jit(train_step)/mul" stack_frame_id=0}
  %param_4.557 = f32[2048,4,8,128]{3,2,1,0:T(8,128)} parameter(4)
  %constant.1100.clone.1 = f32[]{:T(128)} constant(0.95)
  %broadcast.847.clone.1 = f32[2048,4,8,128]{3,2,1,0:T(8,128)} broadcast(%constant.1100.clone.1), dimensions={}, metadata={op_name="broadcast.68"}
  %mul.1937.clone.1 = f32[2048,4,8,128]{3,2,1,0:T(8,128)} multiply(%param_4.557, %broadcast.847.clone.1), metadata={op_name="jit(train_step)/mul" stack_frame_id=0}
  %add.945.clone.1 = f32[2048,4,8,128]{3,2,1,0:T(8,128)} add(%mul.1938.clone.1, %mul.1937.clone.1), metadata={op_name="jit(train_step)/add" stack_frame_id=0}
  %param_1.1557 = f32[]{:T(128)S(6)} parameter(1)
  %div.863.clone.1 = f32[2048,4,8,128]{3,2,1,0:T(8,128)} broadcast(%param_1.1557), dimensions={}, metadata={op_name="jit(train_step)/div" stack_frame_id=0}
  %div.862.clone.1 = f32[2048,4,8,128]{3,2,1,0:T(8,128)} divide(%add.945.clone.1, %div.863.clone.1), metadata={op_name="jit(train_step)/div" stack_frame_id=0}
  %sqrt.63.clone.1 = f32[2048,4,8,128]{3,2,1,0:T(8,128)} sqrt(%div.862.clone.1), metadata={op_name="jit(train_step)/sqrt" stack_frame_id=0}
  %constant.1099.clone.1 = f32[]{:T(128)} constant(1e-08)
  %broadcast.845.clone.1 = f32[2048,4,8,128]{3,2,1,0:T(8,128)} broadcast(%constant.1099.clone.1), dimensions={}, metadata={op_name="broadcast.63"}
  %add.944.clone.1 = f32[2048,4,8,128]{3,2,1,0:T(8,128)} add(%sqrt.63.clone.1, %broadcast.845.clone.1), metadata={op_name="jit(train_step)/add" stack_frame_id=0}
  %multiply.427.clone.1 = f32[2048,4,8,128]{3,2,1,0:T(8,128)} multiply(%div.864.clone.1, %add.944.clone.1), metadata={op_name="multiply.60"}
  %div.861.clone.1 = f32[2048,4,8,128]{3,2,1,0:T(8,128)} divide(%add.946.clone.1, %multiply.427.clone.1), metadata={op_name="jit(train_step)/div" stack_frame_id=0}
  %mul.1935.clone.1 = f32[2048,4,8,128]{3,2,1,0:T(8,128)} multiply(%param_0.1369, %broadcast.850.clone.1), metadata={op_name="jit(train_step)/mul" stack_frame_id=0}
  %add.943.clone.1 = f32[2048,4,8,128]{3,2,1,0:T(8,128)} add(%div.861.clone.1, %mul.1935.clone.1), metadata={op_name="jit(train_step)/add" stack_frame_id=0}
  %mul.1934.clone.1 = f32[2048,4,8,128]{3,2,1,0:T(8,128)} multiply(%mul.1936.clone.1, %add.943.clone.1), metadata={op_name="jit(train_step)/mul" stack_frame_id=0}
  %add.942.clone.1 = f32[2048,4,8,128]{3,2,1,0:T(8,128)} add(%param_0.1369, %mul.1934.clone.1), metadata={op_name="jit(train_step)/add" stack_frame_id=0}
  %square.242 = f32[2048,4,8,128]{3,2,1,0:T(8,128)} multiply(%add.942.clone.1, %add.942.clone.1), metadata={op_name="jit(train_step)/square" stack_frame_id=0}
  %constant.1201 = f32[]{:T(128)} constant(0)
  %reduce.198 = f32[]{:T(128)} reduce(%square.242, %constant.1201), dimensions={0,1,2,3}, to_apply=%region_70.75, metadata={op_name="jit(train_step)/reduce_sum" stack_frame_id=0}
  %reduce.200.clone.1 = f32[]{:T(128)} reduce(%integer_pow.66.clone.1, %constant.1201), dimensions={0,1,2,3}, to_apply=%region_55.60, metadata={op_name="jit(train_step)/reduce_sum" stack_frame_id=0}
  ROOT %tuple.150 = (f32[]{:T(128)}, f32[2048,4,8,128]{3,2,1,0:T(8,128)}, f32[2048,4,8,128]{3,2,1,0:T(8,128)}, f32[2048,4,8,128]{3,2,1,0:T(8,128)}, f32[]{:T(128)}) tuple(%reduce.198, %add.942.clone.1, %add.945.clone.1, %add.946.clone.1, %reduce.200.clone.1)
}

%region_65.70 (reduce_sum.431: f32[], reduce_sum.435: f32[]) -> f32[] {
  %reduce_sum.435 = f32[]{:T(128)} parameter(1), metadata={op_name="jit(train_step)/reduce_sum"}
  %reduce_sum.431 = f32[]{:T(128)} parameter(0), metadata={op_name="jit(train_step)/reduce_sum"}
  ROOT %reduce_sum.436 = f32[]{:T(128)} add(%reduce_sum.431, %reduce_sum.435), metadata={op_name="jit(train_step)/reduce_sum" stack_frame_id=0}, backend_config={"flag_configs":[],"scoped_memory_configs":[],"used_scoped_memory_configs":[],"aliasing_operands":{"lists":[]}}
}

%region_50.55 (reduce_sum.353: f32[], reduce_sum.354: f32[]) -> f32[] {
  %reduce_sum.354 = f32[]{:T(128)} parameter(1), metadata={op_name="jit(train_step)/reduce_sum"}
  %reduce_sum.353 = f32[]{:T(128)} parameter(0), metadata={op_name="jit(train_step)/reduce_sum"}
  ROOT %reduce_sum.358 = f32[]{:T(128)} add(%reduce_sum.353, %reduce_sum.354), metadata={op_name="jit(train_step)/reduce_sum" stack_frame_id=0}, backend_config={"flag_configs":[],"scoped_memory_configs":[],"used_scoped_memory_configs":[],"aliasing_operands":{"lists":[]}}
}

%fused_computation.346 (param_0.1374: f32[2048,4,8,128], param_1.1562: f32[], param_2.1320: f32[], param_3.924: f32[], param_4.562: f32[2048,4,8,128], param_5.474: f32[], param_6.364: f32[4,2048,8,128], param_7.207: pred[], param_8.124: f32[2048,4,8,128]) -> (f32[], f32[2048,4,8,128], f32[2048,4,8,128], f32[2048,4,8,128], f32[]) {
  %param_0.1374 = f32[2048,4,8,128]{3,2,1,0:T(8,128)S(1)} parameter(0)
  %param_3.924 = f32[]{:T(128)S(6)} parameter(3)
  %mul.1977.clone.1 = f32[2048,4,8,128]{3,2,1,0:T(8,128)} broadcast(%param_3.924), dimensions={}, metadata={op_name="jit(train_step)/mul" stack_frame_id=0}
  %param_7.207 = pred[]{:T(512)S(6)} parameter(7)
  %select_n.292.clone.1 = pred[2048,4,8,128]{3,2,1,0:T(8,128)(4,1)} broadcast(%param_7.207), dimensions={}, metadata={op_name="jit(train_step)/select_n" stack_frame_id=0}
  %param_6.364 = f32[4,2048,8,128]{3,2,0,1:T(8,128)S(1)} parameter(6)
  %bitcast.476.clone.1 = f32[2048,4,8,128]{3,2,1,0:T(8,128)} bitcast(%param_6.364), metadata={op_name="jit(train_step)/transpose(jvp(TransformerLinenPure.apply))/TransformerLinenPure/decoder/transpose" stack_frame_id=0}
  %param_5.474 = f32[]{:T(128)} parameter(5)
  %div.908.clone.1 = f32[2048,4,8,128]{3,2,1,0:T(8,128)} broadcast(%param_5.474), dimensions={}, metadata={op_name="jit(train_step)/div" stack_frame_id=0}
  %div.907.clone.1 = f32[2048,4,8,128]{3,2,1,0:T(8,128)} divide(%bitcast.476.clone.1, %div.908.clone.1), metadata={op_name="jit(train_step)/div" stack_frame_id=0}
  %select_n.291.clone.1 = f32[2048,4,8,128]{3,2,1,0:T(8,128)} select(%select_n.292.clone.1, %bitcast.476.clone.1, %div.907.clone.1), metadata={op_name="jit(train_step)/select_n" stack_frame_id=0}
  %constant.1128.clone.1 = f32[]{:T(128)} constant(0.1)
  %broadcast.872.clone.1 = f32[2048,4,8,128]{3,2,1,0:T(8,128)} broadcast(%constant.1128.clone.1), dimensions={}, metadata={op_name="broadcast.80"}
  %mul.1981.clone.1 = f32[2048,4,8,128]{3,2,1,0:T(8,128)} multiply(%select_n.291.clone.1, %broadcast.872.clone.1), metadata={op_name="jit(train_step)/mul" stack_frame_id=0}
  %param_8.124 = f32[2048,4,8,128]{3,2,1,0:T(8,128)} parameter(8)
  %constant.1132.clone.1 = f32[]{:T(128)} constant(0.9)
  %broadcast.871.clone.1 = f32[2048,4,8,128]{3,2,1,0:T(8,128)} broadcast(%constant.1132.clone.1), dimensions={}, metadata={op_name="broadcast.79"}
  %mul.1980.clone.1 = f32[2048,4,8,128]{3,2,1,0:T(8,128)} multiply(%param_8.124, %broadcast.871.clone.1), metadata={op_name="jit(train_step)/mul" stack_frame_id=0}
  %add.973.clone.1 = f32[2048,4,8,128]{3,2,1,0:T(8,128)} add(%mul.1981.clone.1, %mul.1980.clone.1), metadata={op_name="jit(train_step)/add" stack_frame_id=0}
  %param_2.1320 = f32[]{:T(128)S(6)} parameter(2)
  %div.904.clone.1 = f32[2048,4,8,128]{3,2,1,0:T(8,128)} broadcast(%param_2.1320), dimensions={}, metadata={op_name="jit(train_step)/div" stack_frame_id=0}
  %integer_pow.71.clone.1 = f32[2048,4,8,128]{3,2,1,0:T(8,128)} multiply(%select_n.291.clone.1, %select_n.291.clone.1), metadata={op_name="jit(train_step)/integer_pow" stack_frame_id=0}
  %constant.1131.clone.1 = f32[]{:T(128)} constant(0.05)
  %broadcast.870.clone.1 = f32[2048,4,8,128]{3,2,1,0:T(8,128)} broadcast(%constant.1131.clone.1), dimensions={}, metadata={op_name="broadcast.69"}
  %mul.1979.clone.1 = f32[2048,4,8,128]{3,2,1,0:T(8,128)} multiply(%integer_pow.71.clone.1, %broadcast.870.clone.1), metadata={op_name="jit(train_step)/mul" stack_frame_id=0}
  %param_4.562 = f32[2048,4,8,128]{3,2,1,0:T(8,128)} parameter(4)
  %constant.1130.clone.1 = f32[]{:T(128)} constant(0.95)
  %broadcast.869.clone.1 = f32[2048,4,8,128]{3,2,1,0:T(8,128)} broadcast(%constant.1130.clone.1), dimensions={}, metadata={op_name="broadcast.68"}
  %mul.1978.clone.1 = f32[2048,4,8,128]{3,2,1,0:T(8,128)} multiply(%param_4.562, %broadcast.869.clone.1), metadata={op_name="jit(train_step)/mul" stack_frame_id=0}
  %add.972.clone.1 = f32[2048,4,8,128]{3,2,1,0:T(8,128)} add(%mul.1979.clone.1, %mul.1978.clone.1), metadata={op_name="jit(train_step)/add" stack_frame_id=0}
  %param_1.1562 = f32[]{:T(128)S(6)} parameter(1)
  %div.903.clone.1 = f32[2048,4,8,128]{3,2,1,0:T(8,128)} broadcast(%param_1.1562), dimensions={}, metadata={op_name="jit(train_step)/div" stack_frame_id=0}
  %div.902.clone.1 = f32[2048,4,8,128]{3,2,1,0:T(8,128)} divide(%add.972.clone.1, %div.903.clone.1), metadata={op_name="jit(train_step)/div" stack_frame_id=0}
  %sqrt.68.clone.1 = f32[2048,4,8,128]{3,2,1,0:T(8,128)} sqrt(%div.902.clone.1), metadata={op_name="jit(train_step)/sqrt" stack_frame_id=0}
  %constant.1129.clone.1 = f32[]{:T(128)} constant(1e-08)
  %broadcast.867.clone.1 = f32[2048,4,8,128]{3,2,1,0:T(8,128)} broadcast(%constant.1129.clone.1), dimensions={}, metadata={op_name="broadcast.63"}
  %add.971.clone.1 = f32[2048,4,8,128]{3,2,1,0:T(8,128)} add(%sqrt.68.clone.1, %broadcast.867.clone.1), metadata={op_name="jit(train_step)/add" stack_frame_id=0}
  %multiply.432.clone.1 = f32[2048,4,8,128]{3,2,1,0:T(8,128)} multiply(%div.904.clone.1, %add.971.clone.1), metadata={op_name="multiply.55"}
  %div.901.clone.1 = f32[2048,4,8,128]{3,2,1,0:T(8,128)} divide(%add.973.clone.1, %multiply.432.clone.1), metadata={op_name="jit(train_step)/div" stack_frame_id=0}
  %mul.1976.clone.1 = f32[2048,4,8,128]{3,2,1,0:T(8,128)} multiply(%param_0.1374, %broadcast.872.clone.1), metadata={op_name="jit(train_step)/mul" stack_frame_id=0}
  %add.970.clone.1 = f32[2048,4,8,128]{3,2,1,0:T(8,128)} add(%div.901.clone.1, %mul.1976.clone.1), metadata={op_name="jit(train_step)/add" stack_frame_id=0}
  %mul.1975.clone.1 = f32[2048,4,8,128]{3,2,1,0:T(8,128)} multiply(%mul.1977.clone.1, %add.970.clone.1), metadata={op_name="jit(train_step)/mul" stack_frame_id=0}
  %add.969.clone.1 = f32[2048,4,8,128]{3,2,1,0:T(8,128)S(1)} add(%param_0.1374, %mul.1975.clone.1), metadata={op_name="jit(train_step)/add" stack_frame_id=0}
  %square.243 = f32[2048,4,8,128]{3,2,1,0:T(8,128)} multiply(%add.969.clone.1, %add.969.clone.1), metadata={op_name="jit(train_step)/square" stack_frame_id=0}
  %constant.1206 = f32[]{:T(128)} constant(0)
  %reduce.199 = f32[]{:T(128)} reduce(%square.243, %constant.1206), dimensions={0,1,2,3}, to_apply=%region_65.70, metadata={op_name="jit(train_step)/reduce_sum" stack_frame_id=0}
  %reduce.201.clone.1 = f32[]{:T(128)} reduce(%integer_pow.71.clone.1, %constant.1206), dimensions={0,1,2,3}, to_apply=%region_50.55, metadata={op_name="jit(train_step)/reduce_sum" stack_frame_id=0}
  ROOT %tuple.151 = (f32[]{:T(128)}, f32[2048,4,8,128]{3,2,1,0:T(8,128)S(1)}, f32[2048,4,8,128]{3,2,1,0:T(8,128)}, f32[2048,4,8,128]{3,2,1,0:T(8,128)}, f32[]{:T(128)}) tuple(%reduce.199, %add.969.clone.1, %add.972.clone.1, %add.973.clone.1, %reduce.201.clone.1)
}

%fused_computation.362 (param_0.1056: bf16[4,128,2048], param_1.1117: f32[4,128], param_2.830: f32[4,128], param_3.495: bf16[4,128,2048], param_4.296: bf16[2048]) -> bf16[4,128,2048] {
  %param_3.495 = bf16[4,128,2048]{2,1,0:T(8,128)(2,1)S(1)} parameter(3)
  %param_4.296 = bf16[2048]{0:T(1024)(128)(2,1)S(1)} parameter(4)
  %dot_general.448 = bf16[4,128,2048]{2,1,0:T(8,128)(2,1)} broadcast(%param_4.296), dimensions={2}, metadata={op_name="jit(train_step)/jvp(TransformerLinenPure.apply)/TransformerLinenPure/decoder/decoder.apply_output_head/decoder_norm/...k,k->...k/dot_general" stack_frame_id=0}
  %dot_general.438 = bf16[4,128,2048]{2,1,0:T(8,128)(2,1)} multiply(%param_3.495, %dot_general.448), metadata={op_name="jit(train_step)/transpose(jvp(TransformerLinenPure.apply))/TransformerLinenPure/decoder/decoder.apply_output_head/decoder_norm/...k,k->...k/dot_general" stack_frame_id=0}
  %convert_element_type.1363 = f32[4,128,2048]{2,1,0:T(8,128)} convert(%dot_general.438), metadata={op_name="jit(train_step)/transpose(jvp(TransformerLinenPure.apply))/TransformerLinenPure/decoder/decoder.apply_output_head/decoder_norm/convert_element_type" stack_frame_id=0}
  %param_2.830 = f32[4,128]{1,0:T(4,128)S(1)} parameter(2)
  %mul.1851 = f32[4,128,2048]{2,1,0:T(8,128)} broadcast(%param_2.830), dimensions={0,1}, metadata={op_name="jit(train_step)/jvp(TransformerLinenPure.apply)/TransformerLinenPure/decoder/decoder.apply_output_head/decoder_norm/mul" stack_frame_id=0}
  %mul.1843 = f32[4,128,2048]{2,1,0:T(8,128)} multiply(%convert_element_type.1363, %mul.1851), metadata={op_name="jit(train_step)/transpose(jvp(TransformerLinenPure.apply))/TransformerLinenPure/decoder/decoder.apply_output_head/decoder_norm/mul" stack_frame_id=0}
  %param_0.1056 = bf16[4,128,2048]{2,1,0:T(8,128)(2,1)S(1)} parameter(0)
  %convert_element_type.1374 = f32[4,128,2048]{2,1,0:T(8,128)} convert(%param_0.1056), metadata={op_name="jit(train_step)/jvp(TransformerLinenPure.apply)/TransformerLinenPure/decoder/decoder.apply_output_head/decoder_norm/convert_element_type" stack_frame_id=0}
  %param_1.1117 = f32[4,128]{1,0:T(4,128)S(1)} parameter(1)
  %mul.1850 = f32[4,128,2048]{2,1,0:T(8,128)} broadcast(%param_1.1117), dimensions={0,1}, metadata={op_name="jit(train_step)/transpose(jvp(TransformerLinenPure.apply))/TransformerLinenPure/decoder/decoder.apply_output_head/decoder_norm/mul" stack_frame_id=0}
  %mul.1849 = f32[4,128,2048]{2,1,0:T(8,128)} multiply(%convert_element_type.1374, %mul.1850), metadata={op_name="jit(train_step)/transpose(jvp(TransformerLinenPure.apply))/TransformerLinenPure/decoder/decoder.apply_output_head/decoder_norm/mul" stack_frame_id=0}
  %add_any.193 = f32[4,128,2048]{2,1,0:T(8,128)} add(%mul.1843, %mul.1849), metadata={op_name="jit(train_step)/transpose(jvp(TransformerLinenPure.apply))/TransformerLinenPure/decoder/decoder.apply_output_head/decoder_norm/add_any" stack_frame_id=0}
  ROOT %convert_element_type.1361 = bf16[4,128,2048]{2,1,0:T(8,128)(2,1)} convert(%add_any.193), metadata={op_name="jit(train_step)/transpose(jvp(TransformerLinenPure.apply))/TransformerLinenPure/decoder/decoder.apply_output_head/decoder_norm/convert_element_type" stack_frame_id=0}
}

%region_7.10 (reduce_sum.171: f32[], reduce_sum.184: f32[]) -> f32[] {
  %reduce_sum.184 = f32[]{:T(128)} parameter(1), metadata={op_name="jit(train_step)/jvp(TransformerLinenPure.apply)/TransformerLinenPure/decoder/decoder.apply_output_head/decoder_norm/reduce_sum"}
  %reduce_sum.171 = f32[]{:T(128)} parameter(0), metadata={op_name="jit(train_step)/jvp(TransformerLinenPure.apply)/TransformerLinenPure/decoder/decoder.apply_output_head/decoder_norm/reduce_sum"}
  ROOT %reduce_sum.185 = f32[]{:T(128)} add(%reduce_sum.171, %reduce_sum.184), metadata={op_name="jit(train_step)/jvp(TransformerLinenPure.apply)/TransformerLinenPure/decoder/decoder.apply_output_head/decoder_norm/reduce_sum" stack_frame_id=0}, backend_config={"flag_configs":[],"scoped_memory_configs":[],"used_scoped_memory_configs":[],"aliasing_operands":{"lists":[]}}
}

%fused_computation.363 (param_0.1394: bf16[4,128,2048]) -> f32[4,128] {
  %param_0.1394 = bf16[4,128,2048]{2,1,0:T(8,128)(2,1)S(1)} parameter(0)
  %convert_element_type.1365 = f32[4,128,2048]{2,1,0:T(8,128)} convert(%param_0.1394), metadata={op_name="jit(train_step)/jvp(TransformerLinenPure.apply)/TransformerLinenPure/decoder/decoder.apply_output_head/decoder_norm/convert_element_type" stack_frame_id=0}
  %square.246 = f32[4,128,2048]{2,1,0:T(8,128)} multiply(%convert_element_type.1365, %convert_element_type.1365), metadata={op_name="jit(train_step)/jvp(TransformerLinenPure.apply)/TransformerLinenPure/decoder/decoder.apply_output_head/decoder_norm/square" stack_frame_id=0}
  %constant.1227 = f32[]{:T(128)} constant(0)
  ROOT %reduce.202 = f32[4,128]{1,0:T(4,128)S(1)} reduce(%square.246, %constant.1227), dimensions={2}, to_apply=%region_7.10, metadata={op_name="jit(train_step)/jvp(TransformerLinenPure.apply)/TransformerLinenPure/decoder/decoder.apply_output_head/decoder_norm/reduce_sum" stack_frame_id=0}
}

%region_12.15 (reduce_sum.198: f32[], reduce_sum.199: f32[]) -> f32[] {
  %reduce_sum.199 = f32[]{:T(128)} parameter(1), metadata={op_name="jit(train_step)/transpose(jvp(TransformerLinenPure.apply))/TransformerLinenPure/decoder/decoder.apply_output_head/decoder_norm/reduce_sum"}
  %reduce_sum.198 = f32[]{:T(128)} parameter(0), metadata={op_name="jit(train_step)/transpose(jvp(TransformerLinenPure.apply))/TransformerLinenPure/decoder/decoder.apply_output_head/decoder_norm/reduce_sum"}
  ROOT %reduce_sum.200 = f32[]{:T(128)} add(%reduce_sum.198, %reduce_sum.199), metadata={op_name="jit(train_step)/transpose(jvp(TransformerLinenPure.apply))/TransformerLinenPure/decoder/decoder.apply_output_head/decoder_norm/reduce_sum" stack_frame_id=0}, backend_config={"flag_configs":[],"scoped_memory_configs":[],"used_scoped_memory_configs":[],"aliasing_operands":{"lists":[]}}
}

%fused_computation.365 (param_0.1389: bf16[4,128,2048], param_1.1574: bf16[4,128,2048], param_2.1328: bf16[2048]) -> f32[4,128] {
  %param_0.1389 = bf16[4,128,2048]{2,1,0:T(8,128)(2,1)S(1)} parameter(0)
  %convert_element_type.1372 = f32[4,128,2048]{2,1,0:T(8,128)} convert(%param_0.1389), metadata={op_name="jit(train_step)/jvp(TransformerLinenPure.apply)/TransformerLinenPure/decoder/decoder.apply_output_head/decoder_norm/convert_element_type" stack_frame_id=0}
  %param_1.1574 = bf16[4,128,2048]{2,1,0:T(8,128)(2,1)S(1)} parameter(1)
  %param_2.1328 = bf16[2048]{0:T(1024)(128)(2,1)S(1)} parameter(2)
  %dot_general.447 = bf16[4,128,2048]{2,1,0:T(8,128)(2,1)} broadcast(%param_2.1328), dimensions={2}, metadata={op_name="jit(train_step)/jvp(TransformerLinenPure.apply)/TransformerLinenPure/decoder/decoder.apply_output_head/decoder_norm/...k,k->...k/dot_general" stack_frame_id=0}
  %dot_general.437 = bf16[4,128,2048]{2,1,0:T(8,128)(2,1)} multiply(%param_1.1574, %dot_general.447), metadata={op_name="jit(train_step)/transpose(jvp(TransformerLinenPure.apply))/TransformerLinenPure/decoder/decoder.apply_output_head/decoder_norm/...k,k->...k/dot_general" stack_frame_id=0}
  %convert_element_type.1371 = f32[4,128,2048]{2,1,0:T(8,128)} convert(%dot_general.437), metadata={op_name="jit(train_step)/transpose(jvp(TransformerLinenPure.apply))/TransformerLinenPure/decoder/decoder.apply_output_head/decoder_norm/convert_element_type" stack_frame_id=0}
  %mul.1847 = f32[4,128,2048]{2,1,0:T(8,128)} multiply(%convert_element_type.1372, %convert_element_type.1371), metadata={op_name="jit(train_step)/transpose(jvp(TransformerLinenPure.apply))/TransformerLinenPure/decoder/decoder.apply_output_head/decoder_norm/mul" stack_frame_id=0}
  %constant.1221 = f32[]{:T(128)} constant(0)
  ROOT %reduce.203 = f32[4,128]{1,0:T(4,128)S(1)} reduce(%mul.1847, %constant.1221), dimensions={2}, to_apply=%region_12.15, metadata={op_name="jit(train_step)/transpose(jvp(TransformerLinenPure.apply))/TransformerLinenPure/decoder/decoder.apply_output_head/decoder_norm/reduce_sum" stack_frame_id=0}
}

%region_10.13 (dot_general.190: bf16[], dot_general.191: bf16[]) -> bf16[] {
  %dot_general.191 = bf16[]{:T(256)} parameter(1), metadata={op_name="jit(train_step)/transpose(jvp(TransformerLinenPure.apply))/TransformerLinenPure/decoder/decoder.apply_output_head/decoder_norm/...k,k->...k/dot_general"}
  %dot_general.190 = bf16[]{:T(256)} parameter(0), metadata={op_name="jit(train_step)/transpose(jvp(TransformerLinenPure.apply))/TransformerLinenPure/decoder/decoder.apply_output_head/decoder_norm/...k,k->...k/dot_general"}
  ROOT %add.419 = bf16[]{:T(256)} add(%dot_general.190, %dot_general.191), metadata={op_name="add.82"}, backend_config={"flag_configs":[],"scoped_memory_configs":[],"used_scoped_memory_configs":[],"aliasing_operands":{"lists":[]}}
}

%fused_computation.285.clone.clone (param_0.1351: bf16[151936,2048]) -> bf16[151936,2048,1] {
  %param_0.1351 = bf16[151936,2048]{1,0:T(8,128)(2,1)} parameter(0)
  ROOT %bitcast.528 = bf16[151936,2048,1]{1,0,2:T(8,128)(2,1)} bitcast(%param_0.1351), metadata={op_name="jit(train_step)/jvp(TransformerLinenPure.apply)/TransformerLinenPure/decoder/decoder._apply_embedding/token_embedder/convert_element_type" stack_frame_id=0}
}

%fused_computation.289.clone.1.clone.clone (param_0.1352: bf16[4,128,151936], param_1.1546: s32[4,128], param_2.1285: f32[4,128], param_3.906: f32[4,128], param_4.542: bf16[4,128], param_5.442: f32[4,128]) -> bf16[4,128,151936] {
  %param_5.442 = f32[4,128]{1,0:T(4,128)S(1)} parameter(5)
  %mul.2075 = f32[4,128,151936]{2,1,0:T(8,128)} broadcast(%param_5.442), dimensions={0,1}, metadata={op_name="jit(train_step)/transpose(jvp())/mul" stack_frame_id=0}
  %param_3.906 = f32[4,128]{1,0:T(4,128)S(1)} parameter(3)
  %mul.2074 = f32[4,128,151936]{2,1,0:T(8,128)} broadcast(%param_3.906), dimensions={0,1}, metadata={op_name="jit(train_step)/transpose(jvp())/mul" stack_frame_id=0}
  %param_0.1352 = bf16[4,128,151936]{2,1,0:T(8,128)(2,1)} parameter(0)
  %convert_element_type.1444 = f32[4,128,151936]{2,1,0:T(8,128)} convert(%param_0.1352), metadata={op_name="jit(train_step)/jvp(TransformerLinenPure.apply)/TransformerLinenPure/decoder/decoder.apply_output_head/convert_element_type" stack_frame_id=0}
  %param_4.542 = bf16[4,128]{1,0:T(4,128)(2,1)S(1)} parameter(4)
  %sub.88 = f32[4,128,151936]{2,1,0:T(8,128)} broadcast(%param_4.542), dimensions={0,1}, metadata={op_name="jit(train_step)/jvp()/sub" stack_frame_id=0}
  %sub.87 = f32[4,128,151936]{2,1,0:T(8,128)} subtract(%convert_element_type.1444, %sub.88), metadata={op_name="jit(train_step)/jvp()/sub" stack_frame_id=0}
  %exp.60 = f32[4,128,151936]{2,1,0:T(8,128)} exponential(%sub.87), metadata={op_name="jit(train_step)/jvp()/exp" stack_frame_id=0}
  %mul.2073 = f32[4,128,151936]{2,1,0:T(8,128)} multiply(%mul.2074, %exp.60), metadata={op_name="jit(train_step)/transpose(jvp())/mul" stack_frame_id=0}
  %param_2.1285 = f32[4,128]{1,0:T(4,128)S(1)} parameter(2)
  %div.962 = f32[4,128,151936]{2,1,0:T(8,128)} broadcast(%param_2.1285), dimensions={0,1}, metadata={op_name="jit(train_step)/transpose(jvp())/div" stack_frame_id=0}
  %div.961 = f32[4,128,151936]{2,1,0:T(8,128)} divide(%mul.2073, %div.962), metadata={op_name="jit(train_step)/transpose(jvp())/div" stack_frame_id=0}
  %param_1.1546 = s32[4,128]{1,0:T(4,128)S(1)} parameter(1)
  %eq.43 = s32[4,128,151936]{2,1,0:T(8,128)} broadcast(%param_1.1546), dimensions={0,1}, metadata={op_name="jit(train_step)/jvp(jit(_one_hot))/eq" stack_frame_id=0}
  %eq.42 = s32[4,128,151936]{2,1,0:T(8,128)} iota(), iota_dimension=2, metadata={op_name="jit(train_step)/jvp(jit(_one_hot))/eq" stack_frame_id=0}
  %eq.41 = pred[4,128,151936]{2,1,0:T(8,128)(4,1)} compare(%eq.43, %eq.42), direction=EQ, metadata={op_name="jit(train_step)/jvp(jit(_one_hot))/eq" stack_frame_id=0}
  %convert_element_type.1443 = f32[4,128,151936]{2,1,0:T(8,128)} convert(%eq.41), metadata={op_name="jit(train_step)/jvp(jit(_one_hot))/convert_element_type" stack_frame_id=0}
  %sub.86 = f32[4,128,151936]{2,1,0:T(8,128)} subtract(%div.961, %convert_element_type.1443), metadata={op_name="jit(train_step)/transpose(jvp())/sub" stack_frame_id=0}
  %mul.2072 = f32[4,128,151936]{2,1,0:T(8,128)} multiply(%mul.2075, %sub.86), metadata={op_name="jit(train_step)/transpose(jvp())/mul" stack_frame_id=0}
  ROOT %convert_element_type.1442 = bf16[4,128,151936]{2,1,0:T(8,128)(2,1)} convert(%mul.2072), metadata={op_name="jit(train_step)/transpose(jvp(TransformerLinenPure.apply))/TransformerLinenPure/decoder/decoder.apply_output_head/convert_element_type" stack_frame_id=0}
}

%fused_computation.366 (param_0.1350: f32[4,128], param_1.1545: bf16[4,128,2048], param_2.1286: bf16[151936,2048], param_3.907: bf16[4,128,151936], param_4.543: s32[4,128], param_5.443: f32[4,128], param_6.340: f32[4,128], param_7.199: bf16[4,128], param_8.116: f32[4,128]) -> (bf16[2048], bf16[4,128,2048]) {
  %param_3.907 = bf16[4,128,151936]{2,1,0:T(8,128)(2,1)} parameter(3)
  %param_4.543 = s32[4,128]{1,0:T(4,128)S(1)} parameter(4)
  %param_5.443 = f32[4,128]{1,0:T(4,128)S(1)} parameter(5)
  %param_6.340 = f32[4,128]{1,0:T(4,128)S(1)} parameter(6)
  %param_7.199 = bf16[4,128]{1,0:T(4,128)(2,1)S(1)} parameter(7)
  %param_8.116 = f32[4,128]{1,0:T(4,128)S(1)} parameter(8)
  %multiply_convert_fusion.2.clone.1 = bf16[4,128,151936]{2,1,0:T(8,128)(2,1)} fusion(%param_3.907, %param_4.543, %param_5.443, %param_6.340, %param_7.199, /*index=5*/%param_8.116), kind=kLoop, calls=%fused_computation.289.clone.1.clone.clone, metadata={op_name="jit(train_step)/transpose(jvp(TransformerLinenPure.apply))/TransformerLinenPure/decoder/decoder.apply_output_head/convert_element_type" stack_frame_id=0}
  %param_2.1286 = bf16[151936,2048]{1,0:T(8,128)(2,1)} parameter(2)
  %fusion.251.clone.1 = bf16[151936,2048,1]{1,0,2:T(8,128)(2,1)} fusion(%param_2.1286), kind=kLoop, calls=%fused_computation.285.clone.clone, metadata={op_name="jit(train_step)/jvp(TransformerLinenPure.apply)/TransformerLinenPure/decoder/decoder._apply_embedding/token_embedder/convert_element_type" stack_frame_id=0}
  %convolution.84.clone.1 = bf16[4,128,2048]{2,1,0:T(8,128)(2,1)S(1)} convolution(%multiply_convert_fusion.2.clone.1, %fusion.251.clone.1), window={size=1}, dim_labels=0bf_io0->0bf, metadata={op_name="jit(train_step)/transpose(jvp(TransformerLinenPure.apply))/TransformerLinenPure/decoder/decoder.apply_output_head/dot_general" stack_frame_id=0}
  %param_1.1545 = bf16[4,128,2048]{2,1,0:T(8,128)(2,1)S(1)} parameter(1)
  %convert_element_type.1384 = f32[4,128,2048]{2,1,0:T(8,128)} convert(%param_1.1545), metadata={op_name="jit(train_step)/jvp(TransformerLinenPure.apply)/TransformerLinenPure/decoder/decoder.apply_output_head/decoder_norm/convert_element_type" stack_frame_id=0}
  %param_0.1350 = f32[4,128]{1,0:T(4,128)S(1)} parameter(0)
  %mul.1862 = f32[4,128,2048]{2,1,0:T(8,128)} broadcast(%param_0.1350), dimensions={0,1}, metadata={op_name="jit(train_step)/jvp(TransformerLinenPure.apply)/TransformerLinenPure/decoder/decoder.apply_output_head/decoder_norm/mul" stack_frame_id=0}
  %mul.1861 = f32[4,128,2048]{2,1,0:T(8,128)} multiply(%convert_element_type.1384, %mul.1862), metadata={op_name="jit(train_step)/jvp(TransformerLinenPure.apply)/TransformerLinenPure/decoder/decoder.apply_output_head/decoder_norm/mul" stack_frame_id=0}
  %convert_element_type.1383 = bf16[4,128,2048]{2,1,0:T(8,128)(2,1)} convert(%mul.1861), metadata={op_name="jit(train_step)/jvp(TransformerLinenPure.apply)/TransformerLinenPure/decoder/decoder.apply_output_head/decoder_norm/convert_element_type" stack_frame_id=0}
  %multiply.420 = bf16[4,128,2048]{2,1,0:T(8,128)(2,1)} multiply(%convolution.84.clone.1, %convert_element_type.1383), metadata={op_name="multiply.362"}
  %constant.1050 = bf16[]{:T(256)} constant(0)
  %reduce.204 = bf16[2048]{0:T(1024)(128)(2,1)S(1)} reduce(%multiply.420, %constant.1050), dimensions={0,1}, to_apply=%region_10.13, metadata={op_name="jit(train_step)/transpose(jvp(TransformerLinenPure.apply))/TransformerLinenPure/decoder/decoder.apply_output_head/decoder_norm/...k,k->...k/dot_general" stack_frame_id=0}
  ROOT %tuple.165 = (bf16[2048]{0:T(1024)(128)(2,1)S(1)}, bf16[4,128,2048]{2,1,0:T(8,128)(2,1)S(1)}) tuple(%reduce.204, %convolution.84.clone.1)
}

%fused_computation.374 (param_0.1088: f32[64], param_1.1150: f32[4,128]) -> (bf16[4,128,1,64], bf16[4,128,1,64]) {
  %param_1.1150 = f32[4,128]{1,0:T(4,128)S(1)} parameter(1)
  %div.720 = f32[4,128,1,64]{3,1,0,2:T(8,128)} broadcast(%param_1.1150), dimensions={0,1}, metadata={op_name="jit(train_step)/layers/div" stack_frame_id=0}
  %param_0.1088 = f32[64]{0:T(128)S(1)} parameter(0)
  %div.718 = f32[4,128,1,64]{3,1,0,2:T(8,128)} broadcast(%param_0.1088), dimensions={3}, metadata={op_name="jit(train_step)/layers/div" stack_frame_id=0}
  %div.717 = f32[4,128,1,64]{3,1,0,2:T(8,128)} divide(%div.720, %div.718), metadata={op_name="jit(train_step)/layers/div" stack_frame_id=0}
  %sin.38 = f32[4,128,1,64]{3,1,0,2:T(8,128)} sine(%div.717), metadata={op_name="jit(train_step)/layers/sin" stack_frame_id=0}
  %convert_element_type.1392 = bf16[4,128,1,64]{3,1,0,2:T(8,128)(2,1)S(1)} convert(%sin.38), metadata={op_name="jit(train_step)/layers/convert_element_type" stack_frame_id=0}
  %cos.41.clone.1 = f32[4,128,1,64]{3,1,0,2:T(8,128)} cosine(%div.717), metadata={op_name="jit(train_step)/layers/cos" stack_frame_id=0}
  %convert_element_type.1391.clone.1 = bf16[4,128,1,64]{3,1,0,2:T(8,128)(2,1)S(1)} convert(%cos.41.clone.1), metadata={op_name="jit(train_step)/layers/convert_element_type" stack_frame_id=0}
  ROOT %tuple.158 = (bf16[4,128,1,64]{3,1,0,2:T(8,128)(2,1)S(1)}, bf16[4,128,1,64]{3,1,0,2:T(8,128)(2,1)S(1)}) tuple(%convert_element_type.1392, %convert_element_type.1391.clone.1)
}

%fused_computation.375 (param_0.1085: bf16[4,128,1,64]) -> bf16[4,128,1,128] {
  %param_0.1085 = bf16[4,128,1,64]{3,1,0,2:T(8,128)(2,1)S(1)} parameter(0)
  %constant.1042 = bf16[]{:T(256)} constant(-inf)
  %pad.46 = bf16[4,128,1,128]{3,1,0,2:T(8,128)(2,1)} pad(%param_0.1085, %constant.1042), padding=0_0x0_0x0_0x0_64, metadata={op_name="jit(train_step)/layers/concatenate" stack_frame_id=0}
  %pad.45 = bf16[4,128,1,128]{3,1,0,2:T(8,128)(2,1)} pad(%param_0.1085, %constant.1042), padding=0_0x0_0x0_0x64_0, metadata={op_name="jit(train_step)/layers/concatenate" stack_frame_id=0}
  ROOT %maximum.42 = bf16[4,128,1,128]{3,1,0,2:T(8,128)(2,1)} maximum(%pad.46, %pad.45), metadata={op_name="jit(train_step)/layers/concatenate" stack_frame_id=0}
}

%fused_computation.376 (param_0.1087: bf16[4,128,1,64]) -> bf16[4,128,1,128] {
  %param_0.1087 = bf16[4,128,1,64]{3,1,0,2:T(8,128)(2,1)S(1)} parameter(0)
  %constant.1041 = bf16[]{:T(256)} constant(-inf)
  %pad.48 = bf16[4,128,1,128]{3,1,0,2:T(8,128)(2,1)} pad(%param_0.1087, %constant.1041), padding=0_0x0_0x0_0x0_64, metadata={op_name="jit(train_step)/layers/concatenate" stack_frame_id=0}
  %pad.47 = bf16[4,128,1,128]{3,1,0,2:T(8,128)(2,1)} pad(%param_0.1087, %constant.1041), padding=0_0x0_0x0_0x64_0, metadata={op_name="jit(train_step)/layers/concatenate" stack_frame_id=0}
  ROOT %maximum.43 = bf16[4,128,1,128]{3,1,0,2:T(8,128)(2,1)} maximum(%pad.48, %pad.47), metadata={op_name="jit(train_step)/layers/concatenate" stack_frame_id=0}
}

%region_35.40 (reduce_sum.281: f32[], reduce_sum.282: f32[]) -> f32[] {
  %reduce_sum.282 = f32[]{:T(128)} parameter(1), metadata={op_name="jit(train_step)/reduce_sum"}
  %reduce_sum.281 = f32[]{:T(128)} parameter(0), metadata={op_name="jit(train_step)/reduce_sum"}
  ROOT %reduce_sum.283 = f32[]{:T(128)} add(%reduce_sum.281, %reduce_sum.282), metadata={op_name="jit(train_step)/reduce_sum" stack_frame_id=0}, backend_config={"flag_configs":[],"scoped_memory_configs":[],"used_scoped_memory_configs":[],"aliasing_operands":{"lists":[]}}
}

%region_34.39 (reduce_sum.275: f32[], reduce_sum.276: f32[]) -> f32[] {
  %reduce_sum.276 = f32[]{:T(128)} parameter(1), metadata={op_name="jit(train_step)/reduce_sum"}
  %reduce_sum.275 = f32[]{:T(128)} parameter(0), metadata={op_name="jit(train_step)/reduce_sum"}
  ROOT %reduce_sum.277 = f32[]{:T(128)} add(%reduce_sum.275, %reduce_sum.276), metadata={op_name="jit(train_step)/reduce_sum" stack_frame_id=0}, backend_config={"flag_configs":[],"scoped_memory_configs":[],"used_scoped_memory_configs":[],"aliasing_operands":{"lists":[]}}
}

%fused_computation.380 (param_0.1386: f32[4,2048], param_1.1572: f32[4,2048]) -> (f32[], f32[]) {
  %param_0.1386 = f32[4,2048]{1,0:T(4,128)S(1)} parameter(0)
  %bitcast.404 = f32[2048,4]{0,1:T(4,128)} bitcast(%param_0.1386), metadata={op_name="jit(train_step)/transpose(jvp(TransformerLinenPure.apply))/TransformerLinenPure/decoder/transpose" stack_frame_id=0}
  %square.249 = f32[2048,4]{0,1:T(4,128)} multiply(%bitcast.404, %bitcast.404), metadata={op_name="jit(train_step)/square" stack_frame_id=0}
  %constant.1218 = f32[]{:T(128)} constant(0)
  %reduce.205 = f32[]{:T(128)} reduce(%square.249, %constant.1218), dimensions={0,1}, to_apply=%region_35.40, metadata={op_name="jit(train_step)/reduce_sum" stack_frame_id=0}
  %param_1.1572 = f32[4,2048]{1,0:T(4,128)} parameter(1)
  %bitcast.408.clone.1 = f32[2048,4]{0,1:T(4,128)} bitcast(%param_1.1572), metadata={op_name="jit(train_step)/transpose(jvp(TransformerLinenPure.apply))/TransformerLinenPure/decoder/transpose" stack_frame_id=0}
  %square.252.clone.1 = f32[2048,4]{0,1:T(4,128)} multiply(%bitcast.408.clone.1, %bitcast.408.clone.1), metadata={op_name="jit(train_step)/square" stack_frame_id=0}
  %reduce.206.clone.1 = f32[]{:T(128)} reduce(%square.252.clone.1, %constant.1218), dimensions={0,1}, to_apply=%region_34.39, metadata={op_name="jit(train_step)/reduce_sum" stack_frame_id=0}
  ROOT %tuple.169 = (f32[]{:T(128)}, f32[]{:T(128)}) tuple(%reduce.205, %reduce.206.clone.1)
}

%region_64.69 (reduce_sum.428: f32[], reduce_sum.429: f32[]) -> f32[] {
  %reduce_sum.429 = f32[]{:T(128)} parameter(1), metadata={op_name="jit(train_step)/reduce_sum"}
  %reduce_sum.428 = f32[]{:T(128)} parameter(0), metadata={op_name="jit(train_step)/reduce_sum"}
  ROOT %reduce_sum.430 = f32[]{:T(128)} add(%reduce_sum.428, %reduce_sum.429), metadata={op_name="jit(train_step)/reduce_sum" stack_frame_id=0}, backend_config={"flag_configs":[],"scoped_memory_configs":[],"used_scoped_memory_configs":[],"aliasing_operands":{"lists":[]}}
}

%region_49.54 (reduce_sum.347: f32[], reduce_sum.351: f32[]) -> f32[] {
  %reduce_sum.351 = f32[]{:T(128)} parameter(1), metadata={op_name="jit(train_step)/reduce_sum"}
  %reduce_sum.347 = f32[]{:T(128)} parameter(0), metadata={op_name="jit(train_step)/reduce_sum"}
  ROOT %reduce_sum.352 = f32[]{:T(128)} add(%reduce_sum.347, %reduce_sum.351), metadata={op_name="jit(train_step)/reduce_sum" stack_frame_id=0}, backend_config={"flag_configs":[],"scoped_memory_configs":[],"used_scoped_memory_configs":[],"aliasing_operands":{"lists":[]}}
}

%fused_computation.383 (param_0.1375: f32[2048,4], param_1.1563: f32[], param_2.1321: f32[], param_3.925: f32[], param_4.563: f32[2048,4], param_5.475: f32[], param_6.365: f32[4,2048], param_7.208: pred[], param_8.125: f32[2048,4]) -> (f32[], f32[2048,4], f32[2048,4], f32[2048,4], f32[]) {
  %param_0.1375 = f32[2048,4]{0,1:T(4,128)S(1)} parameter(0)
  %param_3.925 = f32[]{:T(128)S(6)} parameter(3)
  %mul.1984.clone.1 = f32[2048,4]{0,1:T(4,128)} broadcast(%param_3.925), dimensions={}, metadata={op_name="jit(train_step)/mul" stack_frame_id=0}
  %param_7.208 = pred[]{:T(512)S(6)} parameter(7)
  %select_n.296.clone.1 = pred[2048,4]{0,1:T(4,128)(4,1)} broadcast(%param_7.208), dimensions={}, metadata={op_name="jit(train_step)/select_n" stack_frame_id=0}
  %param_6.365 = f32[4,2048]{1,0:T(4,128)S(1)} parameter(6)
  %bitcast.478.clone.1 = f32[2048,4]{0,1:T(4,128)} bitcast(%param_6.365), metadata={op_name="jit(train_step)/transpose(jvp(TransformerLinenPure.apply))/TransformerLinenPure/decoder/transpose" stack_frame_id=0}
  %param_5.475 = f32[]{:T(128)} parameter(5)
  %div.916.clone.1 = f32[2048,4]{0,1:T(4,128)} broadcast(%param_5.475), dimensions={}, metadata={op_name="jit(train_step)/div" stack_frame_id=0}
  %div.915.clone.1 = f32[2048,4]{0,1:T(4,128)} divide(%bitcast.478.clone.1, %div.916.clone.1), metadata={op_name="jit(train_step)/div" stack_frame_id=0}
  %select_n.295.clone.1 = f32[2048,4]{0,1:T(4,128)} select(%select_n.296.clone.1, %bitcast.478.clone.1, %div.915.clone.1), metadata={op_name="jit(train_step)/select_n" stack_frame_id=0}
  %constant.1134.clone.1 = f32[]{:T(128)} constant(0.1)
  %broadcast.878.clone.1 = f32[2048,4]{0,1:T(4,128)} broadcast(%constant.1134.clone.1), dimensions={}, metadata={op_name="broadcast.82"}
  %mul.1988.clone.1 = f32[2048,4]{0,1:T(4,128)} multiply(%select_n.295.clone.1, %broadcast.878.clone.1), metadata={op_name="jit(train_step)/mul" stack_frame_id=0}
  %param_8.125 = f32[2048,4]{0,1:T(4,128)S(1)} parameter(8)
  %constant.1138.clone.1 = f32[]{:T(128)} constant(0.9)
  %broadcast.877.clone.1 = f32[2048,4]{0,1:T(4,128)} broadcast(%constant.1138.clone.1), dimensions={}, metadata={op_name="broadcast.81"}
  %mul.1987.clone.1 = f32[2048,4]{0,1:T(4,128)} multiply(%param_8.125, %broadcast.877.clone.1), metadata={op_name="jit(train_step)/mul" stack_frame_id=0}
  %add.978.clone.1 = f32[2048,4]{0,1:T(4,128)S(1)} add(%mul.1988.clone.1, %mul.1987.clone.1), metadata={op_name="jit(train_step)/add" stack_frame_id=0}
  %param_2.1321 = f32[]{:T(128)S(6)} parameter(2)
  %div.912.clone.1 = f32[2048,4]{0,1:T(4,128)} broadcast(%param_2.1321), dimensions={}, metadata={op_name="jit(train_step)/div" stack_frame_id=0}
  %integer_pow.72.clone.1 = f32[2048,4]{0,1:T(4,128)} multiply(%select_n.295.clone.1, %select_n.295.clone.1), metadata={op_name="jit(train_step)/integer_pow" stack_frame_id=0}
  %constant.1137.clone.1 = f32[]{:T(128)} constant(0.05)
  %broadcast.876.clone.1 = f32[2048,4]{0,1:T(4,128)} broadcast(%constant.1137.clone.1), dimensions={}, metadata={op_name="broadcast.71"}
  %mul.1986.clone.1 = f32[2048,4]{0,1:T(4,128)} multiply(%integer_pow.72.clone.1, %broadcast.876.clone.1), metadata={op_name="jit(train_step)/mul" stack_frame_id=0}
  %param_4.563 = f32[2048,4]{0,1:T(4,128)S(1)} parameter(4)
  %constant.1136.clone.1 = f32[]{:T(128)} constant(0.95)
  %broadcast.875.clone.1 = f32[2048,4]{0,1:T(4,128)} broadcast(%constant.1136.clone.1), dimensions={}, metadata={op_name="broadcast.70"}
  %mul.1985.clone.1 = f32[2048,4]{0,1:T(4,128)} multiply(%param_4.563, %broadcast.875.clone.1), metadata={op_name="jit(train_step)/mul" stack_frame_id=0}
  %add.977.clone.1 = f32[2048,4]{0,1:T(4,128)S(1)} add(%mul.1986.clone.1, %mul.1985.clone.1), metadata={op_name="jit(train_step)/add" stack_frame_id=0}
  %param_1.1563 = f32[]{:T(128)S(6)} parameter(1)
  %div.911.clone.1 = f32[2048,4]{0,1:T(4,128)} broadcast(%param_1.1563), dimensions={}, metadata={op_name="jit(train_step)/div" stack_frame_id=0}
  %div.910.clone.1 = f32[2048,4]{0,1:T(4,128)} divide(%add.977.clone.1, %div.911.clone.1), metadata={op_name="jit(train_step)/div" stack_frame_id=0}
  %sqrt.69.clone.1 = f32[2048,4]{0,1:T(4,128)} sqrt(%div.910.clone.1), metadata={op_name="jit(train_step)/sqrt" stack_frame_id=0}
  %constant.1135.clone.1 = f32[]{:T(128)} constant(1e-08)
  %broadcast.873.clone.1 = f32[2048,4]{0,1:T(4,128)} broadcast(%constant.1135.clone.1), dimensions={}, metadata={op_name="broadcast.64"}
  %add.976.clone.1 = f32[2048,4]{0,1:T(4,128)} add(%sqrt.69.clone.1, %broadcast.873.clone.1), metadata={op_name="jit(train_step)/add" stack_frame_id=0}
  %multiply.433.clone.1 = f32[2048,4]{0,1:T(4,128)} multiply(%div.912.clone.1, %add.976.clone.1), metadata={op_name="multiply.54"}
  %div.909.clone.1 = f32[2048,4]{0,1:T(4,128)} divide(%add.978.clone.1, %multiply.433.clone.1), metadata={op_name="jit(train_step)/div" stack_frame_id=0}
  %mul.1983.clone.1 = f32[2048,4]{0,1:T(4,128)} multiply(%param_0.1375, %broadcast.878.clone.1), metadata={op_name="jit(train_step)/mul" stack_frame_id=0}
  %add.975.clone.1 = f32[2048,4]{0,1:T(4,128)} add(%div.909.clone.1, %mul.1983.clone.1), metadata={op_name="jit(train_step)/add" stack_frame_id=0}
  %mul.1982.clone.1 = f32[2048,4]{0,1:T(4,128)} multiply(%mul.1984.clone.1, %add.975.clone.1), metadata={op_name="jit(train_step)/mul" stack_frame_id=0}
  %add.974.clone.1 = f32[2048,4]{0,1:T(4,128)S(1)} add(%param_0.1375, %mul.1982.clone.1), metadata={op_name="jit(train_step)/add" stack_frame_id=0}
  %square.253 = f32[2048,4]{0,1:T(4,128)} multiply(%add.974.clone.1, %add.974.clone.1), metadata={op_name="jit(train_step)/square" stack_frame_id=0}
  %constant.1207 = f32[]{:T(128)} constant(0)
  %reduce.207 = f32[]{:T(128)} reduce(%square.253, %constant.1207), dimensions={0,1}, to_apply=%region_64.69, metadata={op_name="jit(train_step)/reduce_sum" stack_frame_id=0}
  %reduce.209.clone.1 = f32[]{:T(128)} reduce(%integer_pow.72.clone.1, %constant.1207), dimensions={0,1}, to_apply=%region_49.54, metadata={op_name="jit(train_step)/reduce_sum" stack_frame_id=0}
  ROOT %tuple.152 = (f32[]{:T(128)}, f32[2048,4]{0,1:T(4,128)S(1)}, f32[2048,4]{0,1:T(4,128)S(1)}, f32[2048,4]{0,1:T(4,128)S(1)}, f32[]{:T(128)}) tuple(%reduce.207, %add.974.clone.1, %add.977.clone.1, %add.978.clone.1, %reduce.209.clone.1)
}

%region_63.68 (reduce_sum.422: f32[], reduce_sum.423: f32[]) -> f32[] {
  %reduce_sum.423 = f32[]{:T(128)} parameter(1), metadata={op_name="jit(train_step)/reduce_sum"}
  %reduce_sum.422 = f32[]{:T(128)} parameter(0), metadata={op_name="jit(train_step)/reduce_sum"}
  ROOT %reduce_sum.424 = f32[]{:T(128)} add(%reduce_sum.422, %reduce_sum.423), metadata={op_name="jit(train_step)/reduce_sum" stack_frame_id=0}, backend_config={"flag_configs":[],"scoped_memory_configs":[],"used_scoped_memory_configs":[],"aliasing_operands":{"lists":[]}}
}

%region_48.53 (reduce_sum.344: f32[], reduce_sum.345: f32[]) -> f32[] {
  %reduce_sum.345 = f32[]{:T(128)} parameter(1), metadata={op_name="jit(train_step)/reduce_sum"}
  %reduce_sum.344 = f32[]{:T(128)} parameter(0), metadata={op_name="jit(train_step)/reduce_sum"}
  ROOT %reduce_sum.346 = f32[]{:T(128)} add(%reduce_sum.344, %reduce_sum.345), metadata={op_name="jit(train_step)/reduce_sum" stack_frame_id=0}, backend_config={"flag_configs":[],"scoped_memory_configs":[],"used_scoped_memory_configs":[],"aliasing_operands":{"lists":[]}}
}

%fused_computation.384 (param_0.1376: f32[2048,4], param_1.1564: f32[], param_2.1322: f32[], param_3.926: f32[], param_4.564: f32[2048,4], param_5.476: f32[], param_6.366: f32[4,2048], param_7.209: pred[], param_8.126: f32[2048,4]) -> (f32[], f32[2048,4], f32[2048,4], f32[2048,4], f32[]) {
  %param_0.1376 = f32[2048,4]{0,1:T(4,128)S(1)} parameter(0)
  %param_3.926 = f32[]{:T(128)S(6)} parameter(3)
  %mul.1991.clone.1 = f32[2048,4]{0,1:T(4,128)} broadcast(%param_3.926), dimensions={}, metadata={op_name="jit(train_step)/mul" stack_frame_id=0}
  %param_7.209 = pred[]{:T(512)S(6)} parameter(7)
  %select_n.300.clone.1 = pred[2048,4]{0,1:T(4,128)(4,1)} broadcast(%param_7.209), dimensions={}, metadata={op_name="jit(train_step)/select_n" stack_frame_id=0}
  %param_6.366 = f32[4,2048]{1,0:T(4,128)} parameter(6)
  %bitcast.480.clone.1 = f32[2048,4]{0,1:T(4,128)} bitcast(%param_6.366), metadata={op_name="jit(train_step)/transpose(jvp(TransformerLinenPure.apply))/TransformerLinenPure/decoder/transpose" stack_frame_id=0}
  %param_5.476 = f32[]{:T(128)} parameter(5)
  %div.924.clone.1 = f32[2048,4]{0,1:T(4,128)} broadcast(%param_5.476), dimensions={}, metadata={op_name="jit(train_step)/div" stack_frame_id=0}
  %div.923.clone.1 = f32[2048,4]{0,1:T(4,128)} divide(%bitcast.480.clone.1, %div.924.clone.1), metadata={op_name="jit(train_step)/div" stack_frame_id=0}
  %select_n.299.clone.1 = f32[2048,4]{0,1:T(4,128)} select(%select_n.300.clone.1, %bitcast.480.clone.1, %div.923.clone.1), metadata={op_name="jit(train_step)/select_n" stack_frame_id=0}
  %constant.1140.clone.1 = f32[]{:T(128)} constant(0.1)
  %broadcast.884.clone.1 = f32[2048,4]{0,1:T(4,128)} broadcast(%constant.1140.clone.1), dimensions={}, metadata={op_name="broadcast.82"}
  %mul.1995.clone.1 = f32[2048,4]{0,1:T(4,128)} multiply(%select_n.299.clone.1, %broadcast.884.clone.1), metadata={op_name="jit(train_step)/mul" stack_frame_id=0}
  %param_8.126 = f32[2048,4]{0,1:T(4,128)S(1)} parameter(8)
  %constant.1144.clone.1 = f32[]{:T(128)} constant(0.9)
  %broadcast.883.clone.1 = f32[2048,4]{0,1:T(4,128)} broadcast(%constant.1144.clone.1), dimensions={}, metadata={op_name="broadcast.81"}
  %mul.1994.clone.1 = f32[2048,4]{0,1:T(4,128)} multiply(%param_8.126, %broadcast.883.clone.1), metadata={op_name="jit(train_step)/mul" stack_frame_id=0}
  %add.983.clone.1 = f32[2048,4]{0,1:T(4,128)S(1)} add(%mul.1995.clone.1, %mul.1994.clone.1), metadata={op_name="jit(train_step)/add" stack_frame_id=0}
  %param_2.1322 = f32[]{:T(128)S(6)} parameter(2)
  %div.920.clone.1 = f32[2048,4]{0,1:T(4,128)} broadcast(%param_2.1322), dimensions={}, metadata={op_name="jit(train_step)/div" stack_frame_id=0}
  %integer_pow.73.clone.1 = f32[2048,4]{0,1:T(4,128)} multiply(%select_n.299.clone.1, %select_n.299.clone.1), metadata={op_name="jit(train_step)/integer_pow" stack_frame_id=0}
  %constant.1143.clone.1 = f32[]{:T(128)} constant(0.05)
  %broadcast.882.clone.1 = f32[2048,4]{0,1:T(4,128)} broadcast(%constant.1143.clone.1), dimensions={}, metadata={op_name="broadcast.71"}
  %mul.1993.clone.1 = f32[2048,4]{0,1:T(4,128)} multiply(%integer_pow.73.clone.1, %broadcast.882.clone.1), metadata={op_name="jit(train_step)/mul" stack_frame_id=0}
  %param_4.564 = f32[2048,4]{0,1:T(4,128)S(1)} parameter(4)
  %constant.1142.clone.1 = f32[]{:T(128)} constant(0.95)
  %broadcast.881.clone.1 = f32[2048,4]{0,1:T(4,128)} broadcast(%constant.1142.clone.1), dimensions={}, metadata={op_name="broadcast.70"}
  %mul.1992.clone.1 = f32[2048,4]{0,1:T(4,128)} multiply(%param_4.564, %broadcast.881.clone.1), metadata={op_name="jit(train_step)/mul" stack_frame_id=0}
  %add.982.clone.1 = f32[2048,4]{0,1:T(4,128)S(1)} add(%mul.1993.clone.1, %mul.1992.clone.1), metadata={op_name="jit(train_step)/add" stack_frame_id=0}
  %param_1.1564 = f32[]{:T(128)S(6)} parameter(1)
  %div.919.clone.1 = f32[2048,4]{0,1:T(4,128)} broadcast(%param_1.1564), dimensions={}, metadata={op_name="jit(train_step)/div" stack_frame_id=0}
  %div.918.clone.1 = f32[2048,4]{0,1:T(4,128)} divide(%add.982.clone.1, %div.919.clone.1), metadata={op_name="jit(train_step)/div" stack_frame_id=0}
  %sqrt.70.clone.1 = f32[2048,4]{0,1:T(4,128)} sqrt(%div.918.clone.1), metadata={op_name="jit(train_step)/sqrt" stack_frame_id=0}
  %constant.1141.clone.1 = f32[]{:T(128)} constant(1e-08)
  %broadcast.879.clone.1 = f32[2048,4]{0,1:T(4,128)} broadcast(%constant.1141.clone.1), dimensions={}, metadata={op_name="broadcast.64"}
  %add.981.clone.1 = f32[2048,4]{0,1:T(4,128)} add(%sqrt.70.clone.1, %broadcast.879.clone.1), metadata={op_name="jit(train_step)/add" stack_frame_id=0}
  %multiply.434.clone.1 = f32[2048,4]{0,1:T(4,128)} multiply(%div.920.clone.1, %add.981.clone.1), metadata={op_name="multiply.53"}
  %div.917.clone.1 = f32[2048,4]{0,1:T(4,128)} divide(%add.983.clone.1, %multiply.434.clone.1), metadata={op_name="jit(train_step)/div" stack_frame_id=0}
  %mul.1990.clone.1 = f32[2048,4]{0,1:T(4,128)} multiply(%param_0.1376, %broadcast.884.clone.1), metadata={op_name="jit(train_step)/mul" stack_frame_id=0}
  %add.980.clone.1 = f32[2048,4]{0,1:T(4,128)} add(%div.917.clone.1, %mul.1990.clone.1), metadata={op_name="jit(train_step)/add" stack_frame_id=0}
  %mul.1989.clone.1 = f32[2048,4]{0,1:T(4,128)} multiply(%mul.1991.clone.1, %add.980.clone.1), metadata={op_name="jit(train_step)/mul" stack_frame_id=0}
  %add.979.clone.1 = f32[2048,4]{0,1:T(4,128)S(1)} add(%param_0.1376, %mul.1989.clone.1), metadata={op_name="jit(train_step)/add" stack_frame_id=0}
  %square.254 = f32[2048,4]{0,1:T(4,128)} multiply(%add.979.clone.1, %add.979.clone.1), metadata={op_name="jit(train_step)/square" stack_frame_id=0}
  %constant.1208 = f32[]{:T(128)} constant(0)
  %reduce.208 = f32[]{:T(128)} reduce(%square.254, %constant.1208), dimensions={0,1}, to_apply=%region_63.68, metadata={op_name="jit(train_step)/reduce_sum" stack_frame_id=0}
  %reduce.210.clone.1 = f32[]{:T(128)} reduce(%integer_pow.73.clone.1, %constant.1208), dimensions={0,1}, to_apply=%region_48.53, metadata={op_name="jit(train_step)/reduce_sum" stack_frame_id=0}
  ROOT %tuple.153 = (f32[]{:T(128)}, f32[2048,4]{0,1:T(4,128)S(1)}, f32[2048,4]{0,1:T(4,128)S(1)}, f32[2048,4]{0,1:T(4,128)S(1)}, f32[]{:T(128)}) tuple(%reduce.208, %add.979.clone.1, %add.982.clone.1, %add.983.clone.1, %reduce.210.clone.1)
}

%region_11.14 (reduce_sum.192: f32[], reduce_sum.193: f32[]) -> f32[] {
  %reduce_sum.193 = f32[]{:T(128)} parameter(1), metadata={op_name="jit(train_step)/reduce_sum"}
  %reduce_sum.192 = f32[]{:T(128)} parameter(0), metadata={op_name="jit(train_step)/reduce_sum"}
  ROOT %reduce_sum.197 = f32[]{:T(128)} add(%reduce_sum.192, %reduce_sum.193), metadata={op_name="jit(train_step)/reduce_sum" stack_frame_id=0}, backend_config={"flag_configs":[],"scoped_memory_configs":[],"used_scoped_memory_configs":[],"aliasing_operands":{"lists":[]}}
}

%fused_computation.395 (param_0.1390: bf16[2048]) -> f32[] {
  %param_0.1390 = bf16[2048]{0:T(1024)(128)(2,1)S(1)} parameter(0)
  %convert_element_type.1396 = f32[2048]{0:T(1024)} convert(%param_0.1390), metadata={op_name="jit(train_step)/transpose(jvp(TransformerLinenPure.apply))/TransformerLinenPure/decoder/decoder.apply_output_head/decoder_norm/convert_element_type" stack_frame_id=0}
  %square.257 = f32[2048]{0:T(1024)} multiply(%convert_element_type.1396, %convert_element_type.1396), metadata={op_name="jit(train_step)/square" stack_frame_id=0}
  %constant.1222 = f32[]{:T(128)} constant(0)
  ROOT %reduce.211 = f32[]{:T(128)} reduce(%square.257, %constant.1222), dimensions={0}, to_apply=%region_11.14, metadata={op_name="jit(train_step)/reduce_sum" stack_frame_id=0}
}

%region_59.64 (reduce_sum.401: f32[], reduce_sum.402: f32[]) -> f32[] {
  %reduce_sum.402 = f32[]{:T(128)} parameter(1), metadata={op_name="jit(train_step)/reduce_sum"}
  %reduce_sum.401 = f32[]{:T(128)} parameter(0), metadata={op_name="jit(train_step)/reduce_sum"}
  ROOT %reduce_sum.403 = f32[]{:T(128)} add(%reduce_sum.401, %reduce_sum.402), metadata={op_name="jit(train_step)/reduce_sum" stack_frame_id=0}, backend_config={"flag_configs":[],"scoped_memory_configs":[],"used_scoped_memory_configs":[],"aliasing_operands":{"lists":[]}}
}

%region_44.49 (reduce_sum.323: f32[], reduce_sum.324: f32[]) -> f32[] {
  %reduce_sum.324 = f32[]{:T(128)} parameter(1), metadata={op_name="jit(train_step)/reduce_sum"}
  %reduce_sum.323 = f32[]{:T(128)} parameter(0), metadata={op_name="jit(train_step)/reduce_sum"}
  ROOT %reduce_sum.325 = f32[]{:T(128)} add(%reduce_sum.323, %reduce_sum.324), metadata={op_name="jit(train_step)/reduce_sum" stack_frame_id=0}, backend_config={"flag_configs":[],"scoped_memory_configs":[],"used_scoped_memory_configs":[],"aliasing_operands":{"lists":[]}}
}

%fused_computation.396 (param_0.1380: f32[2048], param_1.1568: f32[], param_2.1326: f32[], param_3.930: f32[], param_4.568: f32[2048], param_5.480: f32[], param_6.370: bf16[2048], param_7.213: pred[], param_8.130: f32[2048]) -> (f32[], f32[2048], f32[2048], f32[2048], f32[]) {
  %param_0.1380 = f32[2048]{0:T(1024)S(1)} parameter(0)
  %param_3.930 = f32[]{:T(128)S(6)} parameter(3)
  %mul.2022.clone.1 = f32[2048]{0:T(1024)} broadcast(%param_3.930), dimensions={}, metadata={op_name="jit(train_step)/mul" stack_frame_id=0}
  %param_7.213 = pred[]{:T(512)S(6)} parameter(7)
  %select_n.316.clone.1 = pred[2048]{0:T(1024)(128)(4,1)} broadcast(%param_7.213), dimensions={}, metadata={op_name="jit(train_step)/select_n" stack_frame_id=0}
  %param_6.370 = bf16[2048]{0:T(1024)(128)(2,1)S(1)} parameter(6)
  %convert_element_type.1411.clone.1 = f32[2048]{0:T(1024)} convert(%param_6.370), metadata={op_name="jit(train_step)/transpose(jvp(TransformerLinenPure.apply))/TransformerLinenPure/decoder/decoder.apply_output_head/decoder_norm/convert_element_type" stack_frame_id=0}
  %param_5.480 = f32[]{:T(128)} parameter(5)
  %div.956.clone.1 = f32[2048]{0:T(1024)} broadcast(%param_5.480), dimensions={}, metadata={op_name="jit(train_step)/div" stack_frame_id=0}
  %div.955.clone.1 = f32[2048]{0:T(1024)} divide(%convert_element_type.1411.clone.1, %div.956.clone.1), metadata={op_name="jit(train_step)/div" stack_frame_id=0}
  %select_n.315.clone.1 = f32[2048]{0:T(1024)} select(%select_n.316.clone.1, %convert_element_type.1411.clone.1, %div.955.clone.1), metadata={op_name="jit(train_step)/select_n" stack_frame_id=0}
  %constant.1164.clone.1 = f32[]{:T(128)} constant(0.1)
  %broadcast.900.clone.1 = f32[2048]{0:T(1024)} broadcast(%constant.1164.clone.1), dimensions={}, metadata={op_name="broadcast.86"}
  %mul.2028.clone.1 = f32[2048]{0:T(1024)} multiply(%select_n.315.clone.1, %broadcast.900.clone.1), metadata={op_name="jit(train_step)/mul" stack_frame_id=0}
  %param_8.130 = f32[2048]{0:T(1024)S(1)} parameter(8)
  %constant.1168.clone.1 = f32[]{:T(128)} constant(0.9)
  %mul.2029.clone.1 = f32[2048]{0:T(1024)} broadcast(%constant.1168.clone.1), dimensions={}, metadata={op_name="jit(train_step)/mul" stack_frame_id=0}
  %mul.2027.clone.1 = f32[2048]{0:T(1024)} multiply(%param_8.130, %mul.2029.clone.1), metadata={op_name="jit(train_step)/mul" stack_frame_id=0}
  %add.1005.clone.1 = f32[2048]{0:T(1024)S(1)} add(%mul.2028.clone.1, %mul.2027.clone.1), metadata={op_name="jit(train_step)/add" stack_frame_id=0}
  %param_2.1326 = f32[]{:T(128)S(6)} parameter(2)
  %div.952.clone.1 = f32[2048]{0:T(1024)} broadcast(%param_2.1326), dimensions={}, metadata={op_name="jit(train_step)/div" stack_frame_id=0}
  %integer_pow.77.clone.1 = f32[2048]{0:T(1024)} multiply(%select_n.315.clone.1, %select_n.315.clone.1), metadata={op_name="jit(train_step)/integer_pow" stack_frame_id=0}
  %constant.1167.clone.1 = f32[]{:T(128)} constant(0.05)
  %mul.2026.clone.1 = f32[2048]{0:T(1024)} broadcast(%constant.1167.clone.1), dimensions={}, metadata={op_name="jit(train_step)/mul" stack_frame_id=0}
  %mul.2024.clone.1 = f32[2048]{0:T(1024)} multiply(%integer_pow.77.clone.1, %mul.2026.clone.1), metadata={op_name="jit(train_step)/mul" stack_frame_id=0}
  %param_4.568 = f32[2048]{0:T(1024)S(1)} parameter(4)
  %constant.1166.clone.1 = f32[]{:T(128)} constant(0.95)
  %mul.2025.clone.1 = f32[2048]{0:T(1024)} broadcast(%constant.1166.clone.1), dimensions={}, metadata={op_name="jit(train_step)/mul" stack_frame_id=0}
  %mul.2023.clone.1 = f32[2048]{0:T(1024)} multiply(%param_4.568, %mul.2025.clone.1), metadata={op_name="jit(train_step)/mul" stack_frame_id=0}
  %add.1004.clone.1 = f32[2048]{0:T(1024)S(1)} add(%mul.2024.clone.1, %mul.2023.clone.1), metadata={op_name="jit(train_step)/add" stack_frame_id=0}
  %param_1.1568 = f32[]{:T(128)S(6)} parameter(1)
  %div.951.clone.1 = f32[2048]{0:T(1024)} broadcast(%param_1.1568), dimensions={}, metadata={op_name="jit(train_step)/div" stack_frame_id=0}
  %div.950.clone.1 = f32[2048]{0:T(1024)} divide(%add.1004.clone.1, %div.951.clone.1), metadata={op_name="jit(train_step)/div" stack_frame_id=0}
  %sqrt.74.clone.1 = f32[2048]{0:T(1024)} sqrt(%div.950.clone.1), metadata={op_name="jit(train_step)/sqrt" stack_frame_id=0}
  %constant.1165.clone.1 = f32[]{:T(128)} constant(1e-08)
  %add.1003.clone.1 = f32[2048]{0:T(1024)} broadcast(%constant.1165.clone.1), dimensions={}, metadata={op_name="jit(train_step)/add" stack_frame_id=0}
  %add.1002.clone.1 = f32[2048]{0:T(1024)} add(%sqrt.74.clone.1, %add.1003.clone.1), metadata={op_name="jit(train_step)/add" stack_frame_id=0}
  %multiply.438.clone.1 = f32[2048]{0:T(1024)} multiply(%div.952.clone.1, %add.1002.clone.1), metadata={op_name="multiply.49"}
  %div.949.clone.1 = f32[2048]{0:T(1024)} divide(%add.1005.clone.1, %multiply.438.clone.1), metadata={op_name="jit(train_step)/div" stack_frame_id=0}
  %mul.2021.clone.1 = f32[2048]{0:T(1024)} multiply(%param_0.1380, %broadcast.900.clone.1), metadata={op_name="jit(train_step)/mul" stack_frame_id=0}
  %add.1001.clone.1 = f32[2048]{0:T(1024)} add(%div.949.clone.1, %mul.2021.clone.1), metadata={op_name="jit(train_step)/add" stack_frame_id=0}
  %mul.2020.clone.1 = f32[2048]{0:T(1024)} multiply(%mul.2022.clone.1, %add.1001.clone.1), metadata={op_name="jit(train_step)/mul" stack_frame_id=0}
  %add.1000.clone.1 = f32[2048]{0:T(1024)S(1)} add(%param_0.1380, %mul.2020.clone.1), metadata={op_name="jit(train_step)/add" stack_frame_id=0}
  %square.258 = f32[2048]{0:T(1024)} multiply(%add.1000.clone.1, %add.1000.clone.1), metadata={op_name="jit(train_step)/square" stack_frame_id=0}
  %constant.1212 = f32[]{:T(128)} constant(0)
  %reduce.212 = f32[]{:T(128)} reduce(%square.258, %constant.1212), dimensions={0}, to_apply=%region_59.64, metadata={op_name="jit(train_step)/reduce_sum" stack_frame_id=0}
  %reduce.213.clone.1 = f32[]{:T(128)} reduce(%integer_pow.77.clone.1, %constant.1212), dimensions={0}, to_apply=%region_44.49, metadata={op_name="jit(train_step)/reduce_sum" stack_frame_id=0}
  ROOT %tuple.156 = (f32[]{:T(128)}, f32[2048]{0:T(1024)S(1)}, f32[2048]{0:T(1024)S(1)}, f32[2048]{0:T(1024)S(1)}, f32[]{:T(128)}) tuple(%reduce.212, %add.1000.clone.1, %add.1004.clone.1, %add.1005.clone.1, %reduce.213.clone.1)
}

%fused_computation.402 (param_0.1150: s32[512]) -> s32[1024] {
  %constant.972 = s32[] constant(0), metadata={op_name="jit(train_step)/jvp(TransformerLinenPure.apply)/TransformerLinenPure/decoder/decoder._apply_embedding/token_embedder/gather" stack_frame_id=0}
  %broadcast.815 = s32[1024]{0:T(1024)} broadcast(%constant.972), dimensions={}, metadata={op_name="jit(train_step)/jvp(TransformerLinenPure.apply)/TransformerLinenPure/decoder/decoder._apply_embedding/token_embedder/gather" stack_frame_id=0}
  %param_0.1150 = s32[512]{0:T(512)S(1)} parameter(0)
  %constant.973 = s32[] constant(2147483647), metadata={op_name="jit(train_step)/jvp(TransformerLinenPure.apply)/TransformerLinenPure/decoder/decoder._apply_embedding/token_embedder/gather" stack_frame_id=0}
  %pad.49 = s32[1024]{0:T(1024)} pad(%param_0.1150, %constant.973), padding=0_512, metadata={op_name="jit(train_step)/jvp(TransformerLinenPure.apply)/TransformerLinenPure/decoder/decoder._apply_embedding/token_embedder/gather" stack_frame_id=0}
  %constant.971 = s32[] constant(151935), metadata={op_name="jit(train_step)/jvp(TransformerLinenPure.apply)/TransformerLinenPure/decoder/decoder._apply_embedding/token_embedder/gather" stack_frame_id=0}
  %broadcast.814 = s32[1024]{0:T(1024)} broadcast(%constant.971), dimensions={}, metadata={op_name="jit(train_step)/jvp(TransformerLinenPure.apply)/TransformerLinenPure/decoder/decoder._apply_embedding/token_embedder/gather" stack_frame_id=0}
  ROOT %clamp.1 = s32[1024]{0:T(1024)} clamp(%broadcast.815, %pad.49, %broadcast.814), metadata={op_name="jit(train_step)/jvp(TransformerLinenPure.apply)/TransformerLinenPure/decoder/decoder._apply_embedding/token_embedder/gather" stack_frame_id=0}
}

%fused_computation.405 (param_0.1149: s32[4,128]) -> s32[512] {
  %param_0.1149 = s32[4,128]{1,0:T(4,128)} parameter(0)
  %constant.1065 = s32[]{:T(128)} constant(0)
  %broadcast.834 = s32[4,128]{1,0:T(4,128)} broadcast(%constant.1065), dimensions={}, metadata={op_name="broadcast.95"}
  %lt.32 = pred[4,128]{1,0:T(4,128)(4,1)} compare(%param_0.1149, %broadcast.834), direction=LT, metadata={op_name="jit(train_step)/jvp(TransformerLinenPure.apply)/TransformerLinenPure/decoder/decoder._apply_embedding/token_embedder/lt" stack_frame_id=0}
  %constant.1051 = s32[]{:T(128)} constant(151936)
  %add.925 = s32[4,128]{1,0:T(4,128)} broadcast(%constant.1051), dimensions={}, metadata={op_name="jit(train_step)/jvp(TransformerLinenPure.apply)/TransformerLinenPure/decoder/decoder._apply_embedding/token_embedder/add" stack_frame_id=0}
  %add.903 = s32[4,128]{1,0:T(4,128)} add(%param_0.1149, %add.925), metadata={op_name="jit(train_step)/jvp(TransformerLinenPure.apply)/TransformerLinenPure/decoder/decoder._apply_embedding/token_embedder/add" stack_frame_id=0}
  %select_n.178 = s32[4,128]{1,0:T(4,128)} select(%lt.32, %add.903, %param_0.1149), metadata={op_name="jit(train_step)/jvp(TransformerLinenPure.apply)/TransformerLinenPure/decoder/decoder._apply_embedding/token_embedder/select_n" stack_frame_id=0}
  ROOT %bitcast.409 = s32[512]{0:T(512)S(1)} bitcast(%select_n.178), metadata={op_name="jit(train_step)/jvp(TransformerLinenPure.apply)/TransformerLinenPure/decoder/decoder._apply_embedding/token_embedder/broadcast_in_dim" stack_frame_id=0}
}

%region_40.45 (reduce_sum.305: f32[], reduce_sum.309: f32[]) -> f32[] {
  %reduce_sum.309 = f32[]{:T(128)} parameter(1), metadata={op_name="jit(train_step)/reduce_sum"}
  %reduce_sum.305 = f32[]{:T(128)} parameter(0), metadata={op_name="jit(train_step)/reduce_sum"}
  ROOT %reduce_sum.310 = f32[]{:T(128)} add(%reduce_sum.305, %reduce_sum.309), metadata={op_name="jit(train_step)/reduce_sum" stack_frame_id=0}, backend_config={"flag_configs":[],"scoped_memory_configs":[],"used_scoped_memory_configs":[],"aliasing_operands":{"lists":[]}}
}

%region_37.42 (reduce_sum.290: f32[], reduce_sum.291: f32[]) -> f32[] {
  %reduce_sum.291 = f32[]{:T(128)} parameter(1), metadata={op_name="jit(train_step)/reduce_sum"}
  %reduce_sum.290 = f32[]{:T(128)} parameter(0), metadata={op_name="jit(train_step)/reduce_sum"}
  ROOT %reduce_sum.295 = f32[]{:T(128)} add(%reduce_sum.290, %reduce_sum.291), metadata={op_name="jit(train_step)/reduce_sum" stack_frame_id=0}, backend_config={"flag_configs":[],"scoped_memory_configs":[],"used_scoped_memory_configs":[],"aliasing_operands":{"lists":[]}}
}

%fused_computation.407 (param_0.1384: f32[4,128], param_1.1570: f32[4,128]) -> (f32[], f32[]) {
  %param_0.1384 = f32[4,128]{1,0:T(4,128)} parameter(0)
  %bitcast.413 = f32[128,4]{0,1:T(4,128)} bitcast(%param_0.1384), metadata={op_name="jit(train_step)/transpose(jvp(TransformerLinenPure.apply))/TransformerLinenPure/decoder/transpose" stack_frame_id=0}
  %square.261 = f32[128,4]{0,1:T(4,128)} multiply(%bitcast.413, %bitcast.413), metadata={op_name="jit(train_step)/square" stack_frame_id=0}
  %constant.1216 = f32[]{:T(128)} constant(0)
  %reduce.214 = f32[]{:T(128)} reduce(%square.261, %constant.1216), dimensions={0,1}, to_apply=%region_40.45, metadata={op_name="jit(train_step)/reduce_sum" stack_frame_id=0}
  %param_1.1570 = f32[4,128]{1,0:T(4,128)} parameter(1)
  %bitcast.417.clone.1 = f32[128,4]{0,1:T(4,128)} bitcast(%param_1.1570), metadata={op_name="jit(train_step)/transpose(jvp(TransformerLinenPure.apply))/TransformerLinenPure/decoder/transpose" stack_frame_id=0}
  %square.264.clone.1 = f32[128,4]{0,1:T(4,128)} multiply(%bitcast.417.clone.1, %bitcast.417.clone.1), metadata={op_name="jit(train_step)/square" stack_frame_id=0}
  %reduce.215.clone.1 = f32[]{:T(128)} reduce(%square.264.clone.1, %constant.1216), dimensions={0,1}, to_apply=%region_37.42, metadata={op_name="jit(train_step)/reduce_sum" stack_frame_id=0}
  ROOT %tuple.170 = (f32[]{:T(128)}, f32[]{:T(128)}) tuple(%reduce.214, %reduce.215.clone.1)
}

%region_72.77 (reduce_sum.470: f32[], reduce_sum.471: f32[]) -> f32[] {
  %reduce_sum.471 = f32[]{:T(128)} parameter(1), metadata={op_name="jit(train_step)/jvp()/reduce_sum"}
  %reduce_sum.470 = f32[]{:T(128)} parameter(0), metadata={op_name="jit(train_step)/jvp()/reduce_sum"}
  ROOT %reduce_sum.472 = f32[]{:T(128)} add(%reduce_sum.470, %reduce_sum.471), metadata={op_name="jit(train_step)/jvp()/reduce_sum" stack_frame_id=0}, backend_config={"flag_configs":[],"scoped_memory_configs":[],"used_scoped_memory_configs":[],"aliasing_operands":{"lists":[]}}
}

%region_58.63 (reduce_sum.395: f32[], reduce_sum.396: f32[]) -> f32[] {
  %reduce_sum.396 = f32[]{:T(128)} parameter(1), metadata={op_name="jit(train_step)/jvp()/reduce_sum"}
  %reduce_sum.395 = f32[]{:T(128)} parameter(0), metadata={op_name="jit(train_step)/jvp()/reduce_sum"}
…
  %closed_call.109 = bf16[4,128,16,128]{3,1,2,0:T(8,128)(2,1)} broadcast(%constant.1383), dimensions={}, metadata={op_name="jit(train_step)/transpose(jvp(TransformerLinenPure.apply))/TransformerLinenPure/decoder/while/body/closed_call" stack_frame_id=0}
  %mul.2259 = bf16[4,128,16,128]{3,1,2,0:T(8,128)(2,1)} multiply(%add.1045, %closed_call.109), metadata={op_name="jit(train_step)/transpose(jvp(TransformerLinenPure.apply))/TransformerLinenPure/decoder/while/body/closed_call/checkpoint/rematted_computation/layers/mul" stack_frame_id=0}
  ROOT %bitcast.647 = bf16[4,16,128,128]{3,2,1,0:T(8,128)(2,1)S(1)} bitcast(%mul.2259), metadata={op_name="jit(train_step)/transpose(jvp(TransformerLinenPure.apply))/TransformerLinenPure/decoder/while/body/closed_call/checkpoint/rematted_computation/layers/transpose" stack_frame_id=0}
}

%region_16.18 (reduce_sum.213: f32[], reduce_sum.214: f32[]) -> f32[] {
  %reduce_sum.214 = f32[]{:T(128)} parameter(1), metadata={op_name="jit(train_step)/transpose(jvp(TransformerLinenPure.apply))/TransformerLinenPure/decoder/while/body/closed_call/checkpoint/rematted_computation/layers/reduce_sum"}
  %reduce_sum.213 = f32[]{:T(128)} parameter(0), metadata={op_name="jit(train_step)/transpose(jvp(TransformerLinenPure.apply))/TransformerLinenPure/decoder/while/body/closed_call/checkpoint/rematted_computation/layers/reduce_sum"}
  ROOT %reduce_sum.218 = f32[]{:T(128)} add(%reduce_sum.213, %reduce_sum.214), metadata={op_name="checkpoint/rematted_computation/layers/reduce_sum" stack_frame_id=0}, backend_config={"flag_configs":[],"scoped_memory_configs":[],"used_scoped_memory_configs":[],"aliasing_operands":{"lists":[]}}
}

%fused_computation.69.clone.1.clone.clone.clone.clone (param_0.1541: bf16[4,2048,8,128], param_1.1692: s32[]) -> bf16[2048,8,128,1] {
  %param_0.1541 = bf16[4,2048,8,128]{1,3,2,0:T(8,128)(2,1)} parameter(0)
  %param_1.1692 = s32[]{:T(128)S(6)} parameter(1)
  %constant.1369 = s32[]{:T(128)} constant(0)
  %dynamic_slice.392 = bf16[1,2048,8,128]{1,3,2,0:T(8,128)(2,1)} dynamic-slice(%param_0.1541, %param_1.1692, %constant.1369, %constant.1369, %constant.1369), dynamic_slice_sizes={1,2048,8,128}, metadata={op_name="jit(train_step)/transpose(jvp(TransformerLinenPure.apply))/TransformerLinenPure/decoder/while/body/dynamic_slice" stack_frame_id=0}, backend_config={"flag_configs":[],"scoped_memory_configs":[],"indices_config":{"index_known_bits":[{"zeroes":"4294967292","ones":"0","bitwidth":"32"},{"zeroes":"4294967295","ones":"0","bitwidth":"32"},{"zeroes":"4294967295","ones":"0","bitwidth":"32"},{"zeroes":"4294967295","ones":"0","bitwidth":"32"}],"is_index_aligned":[]},"used_scoped_memory_configs":[]}
  ROOT %bitcast.638 = bf16[2048,8,128,1]{0,2,1,3:T(8,128)(2,1)} bitcast(%dynamic_slice.392), metadata={op_name="jit(train_step)/transpose(jvp(TransformerLinenPure.apply))/TransformerLinenPure/decoder/while/body/closed_call/checkpoint/rematted_computation/layers/convert_element_type" stack_frame_id=0}
}

%fused_computation.113.clone.clone.clone.clone (param_0.1542: f32[4,128], param_1.1693: bf16[4,4,128,2048], param_2.1401: s32[], param_3.979: bf16[2048]) -> bf16[4,128,2048,1] {
  %param_3.979 = bf16[2048]{0:T(1024)(128)(2,1)S(1)} parameter(3)
  %dot_general.565 = bf16[4,128,2048]{2,1,0:T(8,128)(2,1)} broadcast(%param_3.979), dimensions={2}, metadata={op_name="jit(train_step)/transpose(jvp(TransformerLinenPure.apply))/TransformerLinenPure/decoder/while/body/closed_call/checkpoint/rematted_computation/layers/...k,k->...k/dot_general" stack_frame_id=0}
  %param_1.1693 = bf16[4,4,128,2048]{3,2,1,0:T(8,128)(2,1)} parameter(1)
  %param_2.1401 = s32[]{:T(128)S(6)} parameter(2)
  %constant.1370 = s32[]{:T(128)} constant(0)
  %dynamic_slice.393 = bf16[1,4,128,2048]{3,2,1,0:T(8,128)(2,1)} dynamic-slice(%param_1.1693, %param_2.1401, %constant.1370, %constant.1370, %constant.1370), dynamic_slice_sizes={1,4,128,2048}, metadata={op_name="jit(train_step)/transpose(jvp(TransformerLinenPure.apply))/TransformerLinenPure/decoder/while/body/dynamic_slice" stack_frame_id=0}, backend_config={"flag_configs":[],"scoped_memory_configs":[],"indices_config":{"index_known_bits":[{"zeroes":"4294967292","ones":"0","bitwidth":"32"},{"zeroes":"4294967295","ones":"0","bitwidth":"32"},{"zeroes":"4294967295","ones":"0","bitwidth":"32"},{"zeroes":"4294967295","ones":"0","bitwidth":"32"}],"is_index_aligned":[]},"used_scoped_memory_configs":[]}
  %bitcast.640 = bf16[4,128,2048]{2,1,0:T(8,128)(2,1)} bitcast(%dynamic_slice.393), metadata={op_name="jit(train_step)/transpose(jvp(TransformerLinenPure.apply))/TransformerLinenPure/decoder/while/body/squeeze" stack_frame_id=0}
  %convert_element_type.1568 = f32[4,128,2048]{2,1,0:T(8,128)} convert(%bitcast.640), metadata={op_name="jit(train_step)/transpose(jvp(TransformerLinenPure.apply))/TransformerLinenPure/decoder/while/body/closed_call/checkpoint/rematted_computation/layers/convert_element_type" stack_frame_id=0}
  %param_0.1542 = f32[4,128]{1,0:T(4,128)S(1)} parameter(0)
  %mul.2246 = f32[4,128,2048]{2,1,0:T(8,128)} broadcast(%param_0.1542), dimensions={0,1}, metadata={op_name="jit(train_step)/transpose(jvp(TransformerLinenPure.apply))/TransformerLinenPure/decoder/while/body/closed_call/checkpoint/rematted_computation/layers/mul" stack_frame_id=0}
  %mul.2245 = f32[4,128,2048]{2,1,0:T(8,128)} multiply(%convert_element_type.1568, %mul.2246), metadata={op_name="jit(train_step)/transpose(jvp(TransformerLinenPure.apply))/TransformerLinenPure/decoder/while/body/closed_call/checkpoint/rematted_computation/layers/mul" stack_frame_id=0}
  %convert_element_type.1567 = bf16[4,128,2048]{2,1,0:T(8,128)(2,1)} convert(%mul.2245), metadata={op_name="jit(train_step)/transpose(jvp(TransformerLinenPure.apply))/TransformerLinenPure/decoder/while/body/closed_call/checkpoint/rematted_computation/layers/convert_element_type" stack_frame_id=0}
  %dot_general.564 = bf16[4,128,2048]{2,1,0:T(8,128)(2,1)} multiply(%dot_general.565, %convert_element_type.1567), metadata={op_name="jit(train_step)/transpose(jvp(TransformerLinenPure.apply))/TransformerLinenPure/decoder/while/body/closed_call/checkpoint/rematted_computation/layers/...k,k->...k/dot_general" stack_frame_id=0}
  ROOT %bitcast.639 = bf16[4,128,2048,1]{2,1,3,0:T(8,128)(2,1)} bitcast(%dot_general.564), metadata={op_name="jit(train_step)/transpose(jvp(TransformerLinenPure.apply))/TransformerLinenPure/decoder/while/body/closed_call/checkpoint/rematted_computation/layers/...k,k->...k/dot_general" stack_frame_id=0}
}

%fused_computation.84.clone.clone (param_0.1543: bf16[4,2048,8,128], param_1.1694: s32[], param_2.1402: f32[4,128], param_3.980: bf16[4,4,128,2048], param_4.602: bf16[2048]) -> (f32[4,128,8], bf16[4,128,8,128]) {
  %param_2.1402 = f32[4,128]{1,0:T(4,128)S(1)} parameter(2)
  %param_3.980 = bf16[4,4,128,2048]{3,2,1,0:T(8,128)(2,1)} parameter(3)
  %param_1.1694 = s32[]{:T(128)S(6)} parameter(1)
  %param_4.602 = bf16[2048]{0:T(1024)(128)(2,1)S(1)} parameter(4)
  %fusion.73.clone.3 = bf16[4,128,2048,1]{2,1,3,0:T(8,128)(2,1)} fusion(%param_2.1402, %param_3.980, %param_1.1694, %param_4.602), kind=kLoop, calls=%fused_computation.113.clone.clone.clone.clone, metadata={op_name="jit(train_step)/transpose(jvp(TransformerLinenPure.apply))/TransformerLinenPure/decoder/while/body/closed_call/checkpoint/rematted_computation/layers/...k,k->...k/dot_general" stack_frame_id=0}
  %param_0.1543 = bf16[4,2048,8,128]{1,3,2,0:T(8,128)(2,1)} parameter(0)
  %fusion.87.clone.3 = bf16[2048,8,128,1]{0,2,1,3:T(8,128)(2,1)} fusion(%param_0.1543, %param_1.1694), kind=kLoop, calls=%fused_computation.69.clone.1.clone.clone.clone.clone, metadata={op_name="jit(train_step)/transpose(jvp(TransformerLinenPure.apply))/TransformerLinenPure/decoder/while/body/closed_call/checkpoint/rematted_computation/layers/convert_element_type" stack_frame_id=0}
  %convolution.50.clone.3 = bf16[4,128,8,128]{3,1,2,0:T(8,128)(2,1)S(1)} convolution(%fusion.73.clone.3, %fusion.87.clone.3), window={size=1x8 pad=0_0x7_7 rhs_reversal=0x1}, dim_labels=0bf1_i1o0->0b1f, metadata={op_name="jit(train_step)/transpose(jvp(TransformerLinenPure.apply))/TransformerLinenPure/decoder/while/body/closed_call/checkpoint/rematted_computation/layers/dot_general" stack_frame_id=0}
  %convert_element_type.1569 = f32[4,128,8,128]{3,1,2,0:T(8,128)} convert(%convolution.50.clone.3), metadata={op_name="jit(train_step)/transpose(jvp(TransformerLinenPure.apply))/TransformerLinenPure/decoder/while/body/closed_call/checkpoint/rematted_computation/layers/convert_element_type" stack_frame_id=0}
  %square.281 = f32[4,128,8,128]{3,1,2,0:T(8,128)} multiply(%convert_element_type.1569, %convert_element_type.1569), metadata={op_name="jit(train_step)/transpose(jvp(TransformerLinenPure.apply))/TransformerLinenPure/decoder/while/body/closed_call/checkpoint/rematted_computation/layers/square" stack_frame_id=0}
  %constant.1371 = f32[]{:T(128)} constant(0)
  %reduce.246 = f32[4,128,8]{1,2,0:T(8,128)S(1)} reduce(%square.281, %constant.1371), dimensions={3}, to_apply=%region_16.18, metadata={op_name="jit(train_step)/transpose(jvp(TransformerLinenPure.apply))/TransformerLinenPure/decoder/while/body/closed_call/checkpoint/rematted_computation/layers/reduce_sum" stack_frame_id=0}
  ROOT %tuple.206 = (f32[4,128,8]{1,2,0:T(8,128)S(1)}, bf16[4,128,8,128]{3,1,2,0:T(8,128)(2,1)S(1)}) tuple(%reduce.246, %convolution.50.clone.3)
}

%fused_computation.154.clone.1.clone (param_0.1544: f32[4,128,8]) -> f32[4,128,8] {
  %param_0.1544 = f32[4,128,8]{1,2,0:T(8,128)S(1)} parameter(0)
  %constant.1372 = f32[]{:T(128)} constant(0.0078125)
  %closed_call.107 = f32[4,128,8]{1,2,0:T(8,128)} broadcast(%constant.1372), dimensions={}, metadata={op_name="jit(train_step)/transpose(jvp(TransformerLinenPure.apply))/TransformerLinenPure/decoder/while/body/closed_call" stack_frame_id=0}
  %div.1000 = f32[4,128,8]{1,2,0:T(8,128)} multiply(%param_0.1544, %closed_call.107), metadata={op_name="jit(train_step)/transpose(jvp(TransformerLinenPure.apply))/TransformerLinenPure/decoder/while/body/closed_call/checkpoint/rematted_computation/layers/div" stack_frame_id=0}
  %constant.1373 = f32[]{:T(128)} constant(1e-06)
  %add.1041 = f32[4,128,8]{1,2,0:T(8,128)} broadcast(%constant.1373), dimensions={}, metadata={op_name="jit(train_step)/transpose(jvp(TransformerLinenPure.apply))/TransformerLinenPure/decoder/while/body/closed_call/checkpoint/rematted_computation/layers/add" stack_frame_id=0}
  %add.1040 = f32[4,128,8]{1,2,0:T(8,128)} add(%div.1000, %add.1041), metadata={op_name="jit(train_step)/transpose(jvp(TransformerLinenPure.apply))/TransformerLinenPure/decoder/while/body/closed_call/checkpoint/rematted_computation/layers/add" stack_frame_id=0}
  ROOT %rsqrt.182 = f32[4,128,8]{1,2,0:T(8,128)S(1)} rsqrt(%add.1040), metadata={op_name="jit(train_step)/transpose(jvp(TransformerLinenPure.apply))/TransformerLinenPure/decoder/while/body/closed_call/checkpoint/rematted_computation/layers/rsqrt" stack_frame_id=0}
}

%fused_computation.184.clone.clone (param_0.1528: bf16[4,128], param_1.1682: s32[]) -> bf16[128] {
  %param_0.1528 = bf16[4,128]{1,0:T(4,128)(2,1)} parameter(0)
  %param_1.1682 = s32[]{:T(128)S(6)} parameter(1)
  %constant.1353 = s32[]{:T(128)} constant(0)
  %dynamic_slice.385 = bf16[1,128]{1,0:T(2,128)(2,1)} dynamic-slice(%param_0.1528, %param_1.1682, %constant.1353), dynamic_slice_sizes={1,128}, metadata={op_name="jit(train_step)/transpose(jvp(TransformerLinenPure.apply))/TransformerLinenPure/decoder/while/body/dynamic_slice" stack_frame_id=0}, backend_config={"flag_configs":[],"scoped_memory_configs":[],"indices_config":{"index_known_bits":[{"zeroes":"4294967292","ones":"0","bitwidth":"32"},{"zeroes":"4294967295","ones":"0","bitwidth":"32"}],"is_index_aligned":[]},"used_scoped_memory_configs":[]}
  ROOT %bitcast.629 = bf16[128]{0:T(256)(128)(2,1)S(1)} bitcast(%dynamic_slice.385), metadata={op_name="jit(train_step)/transpose(jvp(TransformerLinenPure.apply))/TransformerLinenPure/decoder/while/body/closed_call/checkpoint/rematted_computation/layers/convert_element_type" stack_frame_id=0}
}

%fused_computation.139.clone.1.clone (param_0.1546: f32[4,128,8], param_1.1695: bf16[4,128,8,128], param_2.1403: bf16[128]) -> bf16[4,128,8,128] {
  %param_2.1403 = bf16[128]{0:T(256)(128)(2,1)S(1)} parameter(2)
  %dot_general.567 = bf16[4,128,8,128]{3,1,2,0:T(8,128)(2,1)} broadcast(%param_2.1403), dimensions={3}, metadata={op_name="jit(train_step)/transpose(jvp(TransformerLinenPure.apply))/TransformerLinenPure/decoder/while/body/closed_call/checkpoint/rematted_computation/layers/...k,k->...k/dot_general" stack_frame_id=0}
  %param_1.1695 = bf16[4,128,8,128]{3,1,2,0:T(8,128)(2,1)S(1)} parameter(1)
  %convert_element_type.1571 = f32[4,128,8,128]{3,1,2,0:T(8,128)} convert(%param_1.1695), metadata={op_name="jit(train_step)/transpose(jvp(TransformerLinenPure.apply))/TransformerLinenPure/decoder/while/body/closed_call/checkpoint/rematted_computation/layers/convert_element_type" stack_frame_id=0}
  %param_0.1546 = f32[4,128,8]{1,2,0:T(8,128)S(1)} parameter(0)
  %mul.2248 = f32[4,128,8,128]{3,1,2,0:T(8,128)} broadcast(%param_0.1546), dimensions={0,1,2}, metadata={op_name="jit(train_step)/transpose(jvp(TransformerLinenPure.apply))/TransformerLinenPure/decoder/while/body/closed_call/checkpoint/rematted_computation/layers/mul" stack_frame_id=0}
  %mul.2247 = f32[4,128,8,128]{3,1,2,0:T(8,128)} multiply(%convert_element_type.1571, %mul.2248), metadata={op_name="jit(train_step)/transpose(jvp(TransformerLinenPure.apply))/TransformerLinenPure/decoder/while/body/closed_call/checkpoint/rematted_computation/layers/mul" stack_frame_id=0}
  %convert_element_type.1570 = bf16[4,128,8,128]{3,1,2,0:T(8,128)(2,1)} convert(%mul.2247), metadata={op_name="jit(train_step)/transpose(jvp(TransformerLinenPure.apply))/TransformerLinenPure/decoder/while/body/closed_call/checkpoint/rematted_computation/layers/convert_element_type" stack_frame_id=0}
  ROOT %dot_general.566 = bf16[4,128,8,128]{3,1,2,0:T(8,128)(2,1)S(1)} multiply(%dot_general.567, %convert_element_type.1570), metadata={op_name="jit(train_step)/transpose(jvp(TransformerLinenPure.apply))/TransformerLinenPure/decoder/while/body/closed_call/checkpoint/rematted_computation/layers/...k,k->...k/dot_general" stack_frame_id=0}
}

%fused_computation.126.clone.clone (param_0.1547: bf16[4,128,8,128]) -> (bf16[4,128,8,64], bf16[4,128,8,64]) {
  %param_0.1547 = bf16[4,128,8,128]{3,1,2,0:T(8,128)(2,1)S(1)} parameter(0)
  %split.158 = bf16[4,128,8,64]{3,1,2,0:T(8,128)(2,1)} slice(%param_0.1547), slice={[0:4], [0:128], [0:8], [64:128]}, metadata={op_name="jit(train_step)/transpose(jvp(TransformerLinenPure.apply))/TransformerLinenPure/decoder/while/body/closed_call/checkpoint/rematted_computation/layers/split" stack_frame_id=0}
  %neg.128 = bf16[4,128,8,64]{3,1,2,0:T(8,128)(2,1)S(1)} negate(%split.158), metadata={op_name="jit(train_step)/transpose(jvp(TransformerLinenPure.apply))/TransformerLinenPure/decoder/while/body/closed_call/checkpoint/rematted_computation/layers/neg" stack_frame_id=0}
  %split.159 = bf16[4,128,8,64]{3,1,2,0:T(8,128)(2,1)S(1)} slice(%param_0.1547), slice={[0:4], [0:128], [0:8], [0:64]}, metadata={op_name="jit(train_step)/transpose(jvp(TransformerLinenPure.apply))/TransformerLinenPure/decoder/while/body/closed_call/checkpoint/rematted_computation/layers/split" stack_frame_id=0}
  ROOT %tuple.207 = (bf16[4,128,8,64]{3,1,2,0:T(8,128)(2,1)S(1)}, bf16[4,128,8,64]{3,1,2,0:T(8,128)(2,1)S(1)}) tuple(%neg.128, %split.159)
}

%fused_computation.129.clone.clone (param_0.1548: bf16[4,128,8,64], param_1.1696: bf16[4,128,8,64], param_2.1404: bf16[4,128,128], param_3.981: bf16[4,128,128], param_4.603: f32[4,128,8], param_5.498: bf16[4,128,8,128], param_6.383: bf16[128]) -> bf16[4,8,128,128] {
  %param_6.383 = bf16[128]{0:T(256)(128)(2,1)S(1)} parameter(6)
  %dot_general.569 = bf16[4,128,8,128]{3,1,2,0:T(8,128)(2,1)} broadcast(%param_6.383), dimensions={3}, metadata={op_name="jit(train_step)/transpose(jvp(TransformerLinenPure.apply))/TransformerLinenPure/decoder/while/body/closed_call/checkpoint/rematted_computation/layers/...k,k->...k/dot_general" stack_frame_id=0}
  %param_5.498 = bf16[4,128,8,128]{3,1,2,0:T(8,128)(2,1)S(1)} parameter(5)
  %convert_element_type.1573 = f32[4,128,8,128]{3,1,2,0:T(8,128)} convert(%param_5.498), metadata={op_name="jit(train_step)/transpose(jvp(TransformerLinenPure.apply))/TransformerLinenPure/decoder/while/body/closed_call/checkpoint/rematted_computation/layers/convert_element_type" stack_frame_id=0}
  %param_4.603 = f32[4,128,8]{1,2,0:T(8,128)S(1)} parameter(4)
  %mul.2254 = f32[4,128,8,128]{3,1,2,0:T(8,128)} broadcast(%param_4.603), dimensions={0,1,2}, metadata={op_name="jit(train_step)/transpose(jvp(TransformerLinenPure.apply))/TransformerLinenPure/decoder/while/body/closed_call/checkpoint/rematted_computation/layers/mul" stack_frame_id=0}
  %mul.2253 = f32[4,128,8,128]{3,1,2,0:T(8,128)} multiply(%convert_element_type.1573, %mul.2254), metadata={op_name="jit(train_step)/transpose(jvp(TransformerLinenPure.apply))/TransformerLinenPure/decoder/while/body/closed_call/checkpoint/rematted_computation/layers/mul" stack_frame_id=0}
  %convert_element_type.1572 = bf16[4,128,8,128]{3,1,2,0:T(8,128)(2,1)} convert(%mul.2253), metadata={op_name="jit(train_step)/transpose(jvp(TransformerLinenPure.apply))/TransformerLinenPure/decoder/while/body/closed_call/checkpoint/rematted_computation/layers/convert_element_type" stack_frame_id=0}
  %dot_general.568 = bf16[4,128,8,128]{3,1,2,0:T(8,128)(2,1)} multiply(%dot_general.569, %convert_element_type.1572), metadata={op_name="jit(train_step)/transpose(jvp(TransformerLinenPure.apply))/TransformerLinenPure/decoder/while/body/closed_call/checkpoint/rematted_computation/layers/...k,k->...k/dot_general" stack_frame_id=0}
  %param_3.981 = bf16[4,128,128]{2,1,0:T(8,128)(2,1)S(1)} parameter(3)
  %mul.2252 = bf16[4,128,8,128]{3,1,2,0:T(8,128)(2,1)} broadcast(%param_3.981), dimensions={0,1,3}, metadata={op_name="jit(train_step)/transpose(jvp(TransformerLinenPure.apply))/TransformerLinenPure/decoder/while/body/closed_call/checkpoint/rematted_computation/layers/mul" stack_frame_id=0}
  %mul.2250 = bf16[4,128,8,128]{3,1,2,0:T(8,128)(2,1)} multiply(%dot_general.568, %mul.2252), metadata={op_name="jit(train_step)/transpose(jvp(TransformerLinenPure.apply))/TransformerLinenPure/decoder/while/body/closed_call/checkpoint/rematted_computation/layers/mul" stack_frame_id=0}
  %param_1.1696 = bf16[4,128,8,64]{3,1,2,0:T(8,128)(2,1)S(1)} parameter(1)
  %constant.1375 = bf16[]{:T(256)} constant(-inf)
  %pad.73 = bf16[4,128,8,128]{3,1,2,0:T(8,128)(2,1)} pad(%param_1.1696, %constant.1375), padding=0_0x0_0x0_0x0_64, metadata={op_name="jit(train_step)/transpose(jvp(TransformerLinenPure.apply))/TransformerLinenPure/decoder/while/body/closed_call/checkpoint/rematted_computation/layers/concatenate" stack_frame_id=0}
  %param_0.1548 = bf16[4,128,8,64]{3,1,2,0:T(8,128)(2,1)S(1)} parameter(0)
  %pad.72 = bf16[4,128,8,128]{3,1,2,0:T(8,128)(2,1)} pad(%param_0.1548, %constant.1375), padding=0_0x0_0x0_0x64_0, metadata={op_name="jit(train_step)/transpose(jvp(TransformerLinenPure.apply))/TransformerLinenPure/decoder/while/body/closed_call/checkpoint/rematted_computation/layers/concatenate" stack_frame_id=0}
  %maximum.55 = bf16[4,128,8,128]{3,1,2,0:T(8,128)(2,1)} maximum(%pad.73, %pad.72), metadata={op_name="jit(train_step)/transpose(jvp(TransformerLinenPure.apply))/TransformerLinenPure/decoder/while/body/closed_call/checkpoint/rematted_computation/layers/concatenate" stack_frame_id=0}
  %param_2.1404 = bf16[4,128,128]{2,1,0:T(8,128)(2,1)S(1)} parameter(2)
  %mul.2251 = bf16[4,128,8,128]{3,1,2,0:T(8,128)(2,1)} broadcast(%param_2.1404), dimensions={0,1,3}, metadata={op_name="jit(train_step)/transpose(jvp(TransformerLinenPure.apply))/TransformerLinenPure/decoder/while/body/closed_call/checkpoint/rematted_computation/layers/mul" stack_frame_id=0}
  %mul.2249 = bf16[4,128,8,128]{3,1,2,0:T(8,128)(2,1)} multiply(%maximum.55, %mul.2251), metadata={op_name="jit(train_step)/transpose(jvp(TransformerLinenPure.apply))/TransformerLinenPure/decoder/while/body/closed_call/checkpoint/rematted_computation/layers/mul" stack_frame_id=0}
  %add.1042 = bf16[4,128,8,128]{3,1,2,0:T(8,128)(2,1)} add(%mul.2250, %mul.2249), metadata={op_name="jit(train_step)/transpose(jvp(TransformerLinenPure.apply))/TransformerLinenPure/decoder/while/body/closed_call/checkpoint/rematted_computation/layers/add" stack_frame_id=0}
  ROOT %bitcast.642 = bf16[4,8,128,128]{3,2,1,0:T(8,128)(2,1)S(1)} bitcast(%add.1042), metadata={op_name="jit(train_step)/transpose(jvp(TransformerLinenPure.apply))/TransformerLinenPure/decoder/while/body/closed_call/checkpoint/rematted_computation/layers/transpose" stack_frame_id=0}
}

%fused_computation.169.clone.clone (param_0.1537: bf16[4,2048,8,128], param_1.1689: s32[]) -> bf16[1,2048,8,128] {
  %param_0.1537 = bf16[4,2048,8,128]{3,2,0,1:T(8,128)(2,1)} parameter(0)
  %param_1.1689 = s32[]{:T(128)S(6)} parameter(1)
  %constant.1367 = s32[]{:T(128)} constant(0)
  ROOT %dynamic_slice.390 = bf16[1,2048,8,128]{3,2,0,1:T(8,128)(2,1)S(1)} dynamic-slice(%param_0.1537, %param_1.1689, %constant.1367, %constant.1367, %constant.1367), dynamic_slice_sizes={1,2048,8,128}, metadata={op_name="jit(train_step)/transpose(jvp(TransformerLinenPure.apply))/TransformerLinenPure/decoder/while/body/dynamic_slice" stack_frame_id=0}, backend_config={"flag_configs":[],"scoped_memory_configs":[],"indices_config":{"index_known_bits":[{"zeroes":"4294967292","ones":"0","bitwidth":"32"},{"zeroes":"4294967295","ones":"0","bitwidth":"32"},{"zeroes":"4294967295","ones":"0","bitwidth":"32"},{"zeroes":"4294967295","ones":"0","bitwidth":"32"}],"is_index_aligned":[]},"used_scoped_memory_configs":[]}
}

%fused_computation.70.clone.1.clone.clone.clone.clone (param_0.1538: bf16[1,2048,8,128]) -> bf16[2048,8,128,1] {
  %param_0.1538 = bf16[1,2048,8,128]{3,2,0,1:T(8,128)(2,1)S(1)} parameter(0)
  %copy.204 = bf16[1,2048,8,128]{3,1,2,0:T(8,128)(2,1)} copy(%param_0.1538), metadata={op_name="jit(train_step)/transpose(jvp(TransformerLinenPure.apply))/TransformerLinenPure/decoder/while/body/dynamic_slice" stack_frame_id=0}
  ROOT %bitcast.634 = bf16[2048,8,128,1]{2,0,1,3:T(8,128)(2,1)} bitcast(%copy.204), metadata={op_name="jit(train_step)/transpose(jvp(TransformerLinenPure.apply))/TransformerLinenPure/decoder/while/body/closed_call/checkpoint/rematted_computation/layers/convert_element_type" stack_frame_id=0}
}

%fused_computation.111.clone.clone.clone.clone (param_0.1539: f32[4,128], param_1.1690: bf16[4,4,128,2048], param_2.1399: s32[], param_3.977: bf16[2048]) -> bf16[4,128,2048,1] {
  %param_3.977 = bf16[2048]{0:T(1024)(128)(2,1)S(1)} parameter(3)
  %dot_general.563 = bf16[4,128,2048]{2,1,0:T(8,128)(2,1)} broadcast(%param_3.977), dimensions={2}, metadata={op_name="jit(train_step)/transpose(jvp(TransformerLinenPure.apply))/TransformerLinenPure/decoder/while/body/closed_call/checkpoint/rematted_computation/layers/...k,k->...k/dot_general" stack_frame_id=0}
  %param_1.1690 = bf16[4,4,128,2048]{3,2,1,0:T(8,128)(2,1)} parameter(1)
  %param_2.1399 = s32[]{:T(128)S(6)} parameter(2)
  %constant.1368 = s32[]{:T(128)} constant(0)
  %dynamic_slice.391 = bf16[1,4,128,2048]{3,2,1,0:T(8,128)(2,1)} dynamic-slice(%param_1.1690, %param_2.1399, %constant.1368, %constant.1368, %constant.1368), dynamic_slice_sizes={1,4,128,2048}, metadata={op_name="jit(train_step)/transpose(jvp(TransformerLinenPure.apply))/TransformerLinenPure/decoder/while/body/dynamic_slice" stack_frame_id=0}, backend_config={"flag_configs":[],"scoped_memory_configs":[],"indices_config":{"index_known_bits":[{"zeroes":"4294967292","ones":"0","bitwidth":"32"},{"zeroes":"4294967295","ones":"0","bitwidth":"32"},{"zeroes":"4294967295","ones":"0","bitwidth":"32"},{"zeroes":"4294967295","ones":"0","bitwidth":"32"}],"is_index_aligned":[]},"used_scoped_memory_configs":[]}
  %bitcast.636 = bf16[4,128,2048]{2,1,0:T(8,128)(2,1)} bitcast(%dynamic_slice.391), metadata={op_name="jit(train_step)/transpose(jvp(TransformerLinenPure.apply))/TransformerLinenPure/decoder/while/body/squeeze" stack_frame_id=0}
  %convert_element_type.1566 = f32[4,128,2048]{2,1,0:T(8,128)} convert(%bitcast.636), metadata={op_name="jit(train_step)/transpose(jvp(TransformerLinenPure.apply))/TransformerLinenPure/decoder/while/body/closed_call/checkpoint/rematted_computation/layers/convert_element_type" stack_frame_id=0}
  %param_0.1539 = f32[4,128]{1,0:T(4,128)S(1)} parameter(0)
  %mul.2244 = f32[4,128,2048]{2,1,0:T(8,128)} broadcast(%param_0.1539), dimensions={0,1}, metadata={op_name="jit(train_step)/transpose(jvp(TransformerLinenPure.apply))/TransformerLinenPure/decoder/while/body/closed_call/checkpoint/rematted_computation/layers/mul" stack_frame_id=0}
  %mul.2243 = f32[4,128,2048]{2,1,0:T(8,128)} multiply(%convert_element_type.1566, %mul.2244), metadata={op_name="jit(train_step)/transpose(jvp(TransformerLinenPure.apply))/TransformerLinenPure/decoder/while/body/closed_call/checkpoint/rematted_computation/layers/mul" stack_frame_id=0}
  %convert_element_type.1565 = bf16[4,128,2048]{2,1,0:T(8,128)(2,1)} convert(%mul.2243), metadata={op_name="jit(train_step)/transpose(jvp(TransformerLinenPure.apply))/TransformerLinenPure/decoder/while/body/closed_call/checkpoint/rematted_computation/layers/convert_element_type" stack_frame_id=0}
  %dot_general.562 = bf16[4,128,2048]{2,1,0:T(8,128)(2,1)} multiply(%dot_general.563, %convert_element_type.1565), metadata={op_name="jit(train_step)/transpose(jvp(TransformerLinenPure.apply))/TransformerLinenPure/decoder/while/body/closed_call/checkpoint/rematted_computation/layers/...k,k->...k/dot_general" stack_frame_id=0}
  ROOT %bitcast.635 = bf16[4,128,2048,1]{2,1,3,0:T(8,128)(2,1)} bitcast(%dot_general.562), metadata={op_name="jit(train_step)/transpose(jvp(TransformerLinenPure.apply))/TransformerLinenPure/decoder/while/body/closed_call/checkpoint/rematted_computation/layers/...k,k->...k/dot_general" stack_frame_id=0}
}

%fused_computation.140.clone.clone (param_0.1540: bf16[1,2048,8,128], param_1.1691: f32[4,128], param_2.1400: bf16[4,4,128,2048], param_3.978: s32[], param_4.601: bf16[2048]) -> bf16[4,8,128,128] {
  %param_1.1691 = f32[4,128]{1,0:T(4,128)S(1)} parameter(1)
  %param_2.1400 = bf16[4,4,128,2048]{3,2,1,0:T(8,128)(2,1)} parameter(2)
  %param_3.978 = s32[]{:T(128)S(6)} parameter(3)
  %param_4.601 = bf16[2048]{0:T(1024)(128)(2,1)S(1)} parameter(4)
  %fusion.373 = bf16[4,128,2048,1]{2,1,3,0:T(8,128)(2,1)} fusion(%param_1.1691, %param_2.1400, %param_3.978, %param_4.601), kind=kLoop, calls=%fused_computation.111.clone.clone.clone.clone, metadata={op_name="jit(train_step)/transpose(jvp(TransformerLinenPure.apply))/TransformerLinenPure/decoder/while/body/closed_call/checkpoint/rematted_computation/layers/...k,k->...k/dot_general" stack_frame_id=0}
  %param_0.1540 = bf16[1,2048,8,128]{3,2,0,1:T(8,128)(2,1)S(1)} parameter(0)
  %fusion.372 = bf16[2048,8,128,1]{2,0,1,3:T(8,128)(2,1)} fusion(%param_0.1540), kind=kLoop, calls=%fused_computation.70.clone.1.clone.clone.clone.clone, metadata={op_name="jit(train_step)/transpose(jvp(TransformerLinenPure.apply))/TransformerLinenPure/decoder/while/body/closed_call/checkpoint/rematted_computation/layers/convert_element_type" stack_frame_id=0}
  %convolution.106 = bf16[4,128,8,128]{3,1,2,0:T(8,128)(2,1)} convolution(%fusion.373, %fusion.372), window={size=1x8 pad=0_0x7_7 rhs_reversal=0x1}, dim_labels=0bf1_i1o0->0b1f, metadata={op_name="jit(train_step)/transpose(jvp(TransformerLinenPure.apply))/TransformerLinenPure/decoder/while/body/closed_call/checkpoint/rematted_computation/layers/dot_general" stack_frame_id=0}
  ROOT %bitcast.637 = bf16[4,8,128,128]{3,2,1,0:T(8,128)(2,1)S(1)} bitcast(%convolution.106), metadata={op_name="jit(train_step)/transpose(jvp(TransformerLinenPure.apply))/TransformerLinenPure/decoder/while/body/closed_call/checkpoint/rematted_computation/layers/transpose" stack_frame_id=0}
}

%fused_computation.188.clone.clone (param_0.1578: f32[4,16,128,128]) -> (f32[4,16,128], f32[4,16,128,1]) {
  %param_0.1578 = f32[4,16,128,128]{2,1,0,3:T(8,128)S(1)} parameter(0)
  %slice.11 = f32[4,16,128,1]{2,1,0,3:T(8,128)S(1)} slice(%param_0.1578), slice={[0:4], [0:16], [0:128], [0:1]}, metadata={op_name="jit(train_step)/transpose(jvp(TransformerLinenPure.apply))/TransformerLinenPure/decoder/while/body/closed_call/checkpoint/rematted_computation/layers/shard_map/vmap(jit(_splash_attention))/slice" stack_frame_id=0}
  %bitcast.660 = f32[4,16,128]{2,1,0:T(8,128)S(1)} bitcast(%slice.11), metadata={op_name="jit(train_step)/transpose(jvp(TransformerLinenPure.apply))/TransformerLinenPure/decoder/while/body/closed_call/checkpoint/rematted_computation/layers/shard_map/vmap(jit(_splash_attention))/squeeze" stack_frame_id=0}
  ROOT %tuple.213 = (f32[4,16,128]{2,1,0:T(8,128)S(1)}, f32[4,16,128,1]{2,1,0,3:T(8,128)S(1)}) tuple(%bitcast.660, %slice.11)
}

%region_17.20 (reduce_sum.219: f32[], reduce_sum.220: f32[]) -> f32[] {
  %reduce_sum.220 = f32[]{:T(128)} parameter(1), metadata={op_name="jit(train_step)/transpose(jvp(TransformerLinenPure.apply))/TransformerLinenPure/decoder/while/body/closed_call/checkpoint/rematted_computation/layers/reduce_sum"}
  %reduce_sum.219 = f32[]{:T(128)} parameter(0), metadata={op_name="jit(train_step)/transpose(jvp(TransformerLinenPure.apply))/TransformerLinenPure/decoder/while/body/closed_call/checkpoint/rematted_computation/layers/reduce_sum"}
  ROOT %reduce_sum.221 = f32[]{:T(128)} add(%reduce_sum.219, %reduce_sum.220), metadata={op_name="checkpoint/rematted_computation/layers/reduce_sum" stack_frame_id=0}, backend_config={"flag_configs":[],"scoped_memory_configs":[],"used_scoped_memory_configs":[],"aliasing_operands":{"lists":[]}}
}

%fused_computation.26.clone.1.clone.clone.clone.clone.clone.clone (param_0.1557: bf16[4,16,128,2048], param_1.1703: s32[]) -> bf16[16,128,2048,1] {
  %param_0.1557 = bf16[4,16,128,2048]{3,2,1,0:T(8,128)(2,1)} parameter(0)
  %param_1.1703 = s32[]{:T(128)S(6)} parameter(1)
  %constant.1384 = s32[]{:T(128)} constant(0)
  %dynamic_slice.397 = bf16[1,16,128,2048]{3,2,1,0:T(8,128)(2,1)} dynamic-slice(%param_0.1557, %param_1.1703, %constant.1384, %constant.1384, %constant.1384), dynamic_slice_sizes={1,16,128,2048}, metadata={op_name="jit(train_step)/transpose(jvp(TransformerLinenPure.apply))/TransformerLinenPure/decoder/while/body/dynamic_slice" stack_frame_id=0}, backend_config={"flag_configs":[],"scoped_memory_configs":[],"indices_config":{"index_known_bits":[{"zeroes":"4294967292","ones":"0","bitwidth":"32"},{"zeroes":"4294967295","ones":"0","bitwidth":"32"},{"zeroes":"4294967295","ones":"0","bitwidth":"32"},{"zeroes":"4294967295","ones":"0","bitwidth":"32"}],"is_index_aligned":[]},"used_scoped_memory_configs":[]}
  ROOT %bitcast.648 = bf16[16,128,2048,1]{2,1,0,3:T(8,128)(2,1)} bitcast(%dynamic_slice.397), metadata={op_name="jit(train_step)/transpose(jvp(TransformerLinenPure.apply))/TransformerLinenPure/decoder/while/body/closed_call/checkpoint/rematted_computation/layers/convert_element_type" stack_frame_id=0}
}

%fused_computation.103.clone.clone.clone.clone.clone.clone (param_0.1558: bf16[4,16,128,128]) -> bf16[4,128,16,128] {
  %param_0.1558 = bf16[4,16,128,128]{3,2,1,0:T(8,128)(2,1)S(1)} parameter(0)
  ROOT %bitcast.649 = bf16[4,128,16,128]{3,1,2,0:T(8,128)(2,1)} bitcast(%param_0.1558), metadata={op_name="jit(train_step)/transpose(jvp(TransformerLinenPure.apply))/TransformerLinenPure/decoder/while/body/closed_call/checkpoint/rematted_computation/layers/transpose" stack_frame_id=0}
}

%fused_computation.64.clone.clone (param_0.1559: bf16[4,16,128,2048], param_1.1704: s32[], param_2.1409: bf16[4,16,128,128], param_3.985: bf16[4,4,128,2048]) -> (f32[4,128], bf16[4,128,2048]) {
  %param_3.985 = bf16[4,4,128,2048]{3,2,1,0:T(8,128)(2,1)} parameter(3)
  %param_1.1704 = s32[]{:T(128)S(6)} parameter(1)
  %constant.436.clone.1.clone.3 = s32[]{:T(128)} constant(0)
  %dynamic_slice.242.clone.3 = bf16[1,4,128,2048]{3,2,1,0:T(8,128)(2,1)} dynamic-slice(%param_3.985, %param_1.1704, %constant.436.clone.1.clone.3, %constant.436.clone.1.clone.3, %constant.436.clone.1.clone.3), dynamic_slice_sizes={1,4,128,2048}, metadata={op_name="jit(train_step)/transpose(jvp(TransformerLinenPure.apply))/TransformerLinenPure/decoder/while/body/dynamic_slice" stack_frame_id=0}, backend_config={"flag_configs":[],"scoped_memory_configs":[],"indices_config":{"index_known_bits":[{"zeroes":"4294967292","ones":"0","bitwidth":"32"},{"zeroes":"4294967295","ones":"0","bitwidth":"32"},{"zeroes":"4294967295","ones":"0","bitwidth":"32"},{"zeroes":"4294967295","ones":"0","bitwidth":"32"}],"is_index_aligned":[]},"used_scoped_memory_configs":[]}
  %bitcast.227.clone.3 = bf16[4,128,2048]{2,1,0:T(8,128)(2,1)} bitcast(%dynamic_slice.242.clone.3), metadata={op_name="jit(train_step)/transpose(jvp(TransformerLinenPure.apply))/TransformerLinenPure/decoder/while/body/squeeze" stack_frame_id=0}
  %param_2.1409 = bf16[4,16,128,128]{3,2,1,0:T(8,128)(2,1)S(1)} parameter(2)
  %fusion.96.clone.3 = bf16[4,128,16,128]{3,1,2,0:T(8,128)(2,1)} fusion(%param_2.1409), kind=kLoop, calls=%fused_computation.103.clone.clone.clone.clone.clone.clone, metadata={op_name="jit(train_step)/transpose(jvp(TransformerLinenPure.apply))/TransformerLinenPure/decoder/while/body/closed_call/checkpoint/rematted_computation/layers/transpose" stack_frame_id=0}
  %param_0.1559 = bf16[4,16,128,2048]{3,2,1,0:T(8,128)(2,1)} parameter(0)
  %fusion.95.clone.3 = bf16[16,128,2048,1]{2,1,0,3:T(8,128)(2,1)} fusion(%param_0.1559, %param_1.1704), kind=kLoop, calls=%fused_computation.26.clone.1.clone.clone.clone.clone.clone.clone, metadata={op_name="jit(train_step)/transpose(jvp(TransformerLinenPure.apply))/TransformerLinenPure/decoder/while/body/closed_call/checkpoint/rematted_computation/layers/convert_element_type" stack_frame_id=0}
  %convolution.62.clone.3 = bf16[4,128,2048,1]{2,1,3,0:T(8,128)(2,1)} convolution(%fusion.96.clone.3, %fusion.95.clone.3), window={size=1x16}, dim_labels=0b1f_1io0->0bf1, metadata={op_name="jit(train_step)/transpose(jvp(TransformerLinenPure.apply))/TransformerLinenPure/decoder/while/body/closed_call/checkpoint/rematted_computation/layers/dot_general" stack_frame_id=0}
  %bitcast.203.clone.3 = bf16[4,128,2048]{2,1,0:T(8,128)(2,1)} bitcast(%convolution.62.clone.3), metadata={op_name="jit(train_step)/transpose(jvp(TransformerLinenPure.apply))/TransformerLinenPure/decoder/while/body/closed_call/checkpoint/rematted_computation/layers/dot_general" stack_frame_id=0}
  %add.768.clone.3 = bf16[4,128,2048]{2,1,0:T(8,128)(2,1)S(1)} add(%bitcast.227.clone.3, %bitcast.203.clone.3), metadata={op_name="jit(train_step)/transpose(jvp(TransformerLinenPure.apply))/TransformerLinenPure/decoder/while/body/closed_call/checkpoint/rematted_computation/layers/add" stack_frame_id=0}
  %convert_element_type.1581 = f32[4,128,2048]{2,1,0:T(8,128)} convert(%add.768.clone.3), metadata={op_name="jit(train_step)/transpose(jvp(TransformerLinenPure.apply))/TransformerLinenPure/decoder/while/body/closed_call/checkpoint/rematted_computation/layers/convert_element_type" stack_frame_id=0}
  %square.283 = f32[4,128,2048]{2,1,0:T(8,128)} multiply(%convert_element_type.1581, %convert_element_type.1581), metadata={op_name="jit(train_step)/transpose(jvp(TransformerLinenPure.apply))/TransformerLinenPure/decoder/while/body/closed_call/checkpoint/rematted_computation/layers/square" stack_frame_id=0}
  %constant.1385 = f32[]{:T(128)} constant(0)
  %reduce.248 = f32[4,128]{1,0:T(4,128)S(1)} reduce(%square.283, %constant.1385), dimensions={2}, to_apply=%region_17.20, metadata={op_name="jit(train_step)/transpose(jvp(TransformerLinenPure.apply))/TransformerLinenPure/decoder/while/body/closed_call/checkpoint/rematted_computation/layers/reduce_sum" stack_frame_id=0}
  ROOT %tuple.210 = (f32[4,128]{1,0:T(4,128)S(1)}, bf16[4,128,2048]{2,1,0:T(8,128)(2,1)S(1)}) tuple(%reduce.248, %add.768.clone.3)
}

%convert_element_type.763.reduce_sub_computation (lhs: bf16[], rhs: bf16[]) -> bf16[] {
  %rhs = bf16[] parameter(1)
  %lhs = bf16[] parameter(0)
  ROOT %add.754 = bf16[] add(%lhs, %rhs), backend_config={"flag_configs":[],"scoped_memory_configs":[],"used_scoped_memory_configs":[],"aliasing_operands":{"lists":[]}}
}

%fused_computation.156.clone.clone (param_0.1531: bf16[4,2048], param_1.1684: s32[]) -> bf16[2048] {
  %param_0.1531 = bf16[4,2048]{1,0:T(4,128)(2,1)} parameter(0)
  %param_1.1684 = s32[]{:T(128)S(6)} parameter(1)
  %constant.1358 = s32[]{:T(128)} constant(0)
  %dynamic_slice.386 = bf16[1,2048]{1,0:T(2,128)(2,1)} dynamic-slice(%param_0.1531, %param_1.1684, %constant.1358), dynamic_slice_sizes={1,2048}, metadata={op_name="jit(train_step)/transpose(jvp(TransformerLinenPure.apply))/TransformerLinenPure/decoder/while/body/dynamic_slice" stack_frame_id=0}, backend_config={"flag_configs":[],"scoped_memory_configs":[],"indices_config":{"index_known_bits":[{"zeroes":"4294967292","ones":"0","bitwidth":"32"},{"zeroes":"4294967295","ones":"0","bitwidth":"32"}],"is_index_aligned":[]},"used_scoped_memory_configs":[]}
  %constant.1359 = bf16[]{:T(256)} constant(-0), metadata={op_name="jit(train_step)/transpose(jvp(TransformerLinenPure.apply))/TransformerLinenPure/decoder/while/body/closed_call/checkpoint/rematted_computation/layers/convert_element_type" stack_frame_id=0}
  ROOT %reduce.243 = bf16[2048]{0:T(1024)(128)(2,1)S(1)} reduce(%dynamic_slice.386, %constant.1359), dimensions={0}, to_apply=%convert_element_type.763.reduce_sub_computation, metadata={op_name="jit(train_step)/transpose(jvp(TransformerLinenPure.apply))/TransformerLinenPure/decoder/while/body/closed_call/checkpoint/rematted_computation/layers/convert_element_type" stack_frame_id=0}
}

%fused_computation.13.clone.clone.clone (param_0.1532: bf16[4,6144,2048], param_1.1685: s32[]) -> bf16[6144,2048,1] {
  %param_0.1532 = bf16[4,6144,2048]{2,1,0:T(8,128)(2,1)} parameter(0)
  %param_1.1685 = s32[]{:T(128)S(6)} parameter(1)
  %constant.1360 = s32[]{:T(128)} constant(0)
  %dynamic_slice.387 = bf16[1,6144,2048]{2,1,0:T(8,128)(2,1)} dynamic-slice(%param_0.1532, %param_1.1685, %constant.1360, %constant.1360), dynamic_slice_sizes={1,6144,2048}, metadata={op_name="jit(train_step)/transpose(jvp(TransformerLinenPure.apply))/TransformerLinenPure/decoder/while/body/dynamic_slice" stack_frame_id=0}, backend_config={"flag_configs":[],"scoped_memory_configs":[],"indices_config":{"index_known_bits":[{"zeroes":"4294967292","ones":"0","bitwidth":"32"},{"zeroes":"4294967295","ones":"0","bitwidth":"32"},{"zeroes":"4294967295","ones":"0","bitwidth":"32"}],"is_index_aligned":[]},"used_scoped_memory_configs":[]}
  ROOT %bitcast.632 = bf16[6144,2048,1]{1,0,2:T(8,128)(2,1)} bitcast(%dynamic_slice.387), metadata={op_name="jit(train_step)/transpose(jvp(TransformerLinenPure.apply))/TransformerLinenPure/decoder/while/body/closed_call/checkpoint/rematted_computation/layers/convert_element_type" stack_frame_id=0}
}

%bitcast_fusion.1.clone.clone (bitcast_input.4: bf16[4,128,2048]) -> bf16[4,128,2048] {
  %bitcast_input.4 = bf16[4,128,2048]{2,1,0:T(8,128)(2,1)S(1)} parameter(0)
  ROOT %bitcast.631 = bf16[4,128,2048]{2,1,0:T(8,128)(2,1)} bitcast(%bitcast_input.4)
}

%fused_computation.14.clone.clone (param_0.1533: bf16[4,128,2048], param_1.1686: bf16[4,6144,2048], param_2.1398: s32[]) -> bf16[6144,4,128] {
  %param_1.1686 = bf16[4,6144,2048]{2,1,0:T(8,128)(2,1)} parameter(1)
  %param_2.1398 = s32[]{:T(128)S(6)} parameter(2)
  %fusion.370 = bf16[6144,2048,1]{1,0,2:T(8,128)(2,1)} fusion(%param_1.1686, %param_2.1398), kind=kLoop, calls=%fused_computation.13.clone.clone.clone, metadata={op_name="jit(train_step)/transpose(jvp(TransformerLinenPure.apply))/TransformerLinenPure/decoder/while/body/closed_call/checkpoint/rematted_computation/layers/convert_element_type" stack_frame_id=0}
  %param_0.1533 = bf16[4,128,2048]{2,1,0:T(8,128)(2,1)S(1)} parameter(0)
  %fusion.371 = bf16[4,128,2048]{2,1,0:T(8,128)(2,1)} fusion(%param_0.1533), kind=kLoop, calls=%bitcast_fusion.1.clone.clone
  ROOT %convolution.105 = bf16[6144,4,128]{0,2,1:T(8,128)(2,1)S(1)} convolution(%fusion.370, %fusion.371), window={size=4 pad=3_3 rhs_reversal=1}, dim_labels=bf0_0oi->b0f, metadata={op_name="jit(train_step)/transpose(jvp(TransformerLinenPure.apply))/TransformerLinenPure/decoder/while/body/closed_call/checkpoint/layers/dot_general" stack_frame_id=0}
}

%fused_computation.180.clone.1.clone (param_0.1560: f32[4,128]) -> f32[4,128] {
  %param_0.1560 = f32[4,128]{1,0:T(4,128)S(1)} parameter(0)
  %constant.1387 = f32[]{:T(128)} constant(0.00048828125)
  %closed_call.111 = f32[4,128]{1,0:T(4,128)} broadcast(%constant.1387), dimensions={}, metadata={op_name="jit(train_step)/transpose(jvp(TransformerLinenPure.apply))/TransformerLinenPure/decoder/while/body/closed_call" stack_frame_id=0}
  %div.1002 = f32[4,128]{1,0:T(4,128)} multiply(%param_0.1560, %closed_call.111), metadata={op_name="jit(train_step)/transpose(jvp(TransformerLinenPure.apply))/TransformerLinenPure/decoder/while/body/closed_call/checkpoint/rematted_computation/layers/div" stack_frame_id=0}
  %constant.1386 = f32[]{:T(128)} constant(1e-06)
  %closed_call.110 = f32[4,128]{1,0:T(4,128)} broadcast(%constant.1386), dimensions={}, metadata={op_name="jit(train_step)/transpose(jvp(TransformerLinenPure.apply))/TransformerLinenPure/decoder/while/body/closed_call" stack_frame_id=0}
  %add.1046 = f32[4,128]{1,0:T(4,128)} add(%div.1002, %closed_call.110), metadata={op_name="jit(train_step)/transpose(jvp(TransformerLinenPure.apply))/TransformerLinenPure/decoder/while/body/closed_call/checkpoint/rematted_computation/layers/add" stack_frame_id=0}
  ROOT %rsqrt.184 = f32[4,128]{1,0:T(4,128)S(1)} rsqrt(%add.1046), metadata={op_name="jit(train_step)/transpose(jvp(TransformerLinenPure.apply))/TransformerLinenPure/decoder/while/body/closed_call/checkpoint/rematted_computation/layers/rsqrt" stack_frame_id=0}
}

%fused_computation.12.clone.1.clone.clone (param_0.1564: bf16[4,2048,6144], param_1.1708: s32[]) -> bf16[2048,6144,1] {
  %param_0.1564 = bf16[4,2048,6144]{2,1,0:T(8,128)(2,1)} parameter(0)
  %param_1.1708 = s32[]{:T(128)S(6)} parameter(1)
  %constant.1389 = s32[]{:T(128)} constant(0)
  %dynamic_slice.399 = bf16[1,2048,6144]{2,1,0:T(8,128)(2,1)} dynamic-slice(%param_0.1564, %param_1.1708, %constant.1389, %constant.1389), dynamic_slice_sizes={1,2048,6144}, metadata={op_name="jit(train_step)/transpose(jvp(TransformerLinenPure.apply))/TransformerLinenPure/decoder/while/body/dynamic_slice" stack_frame_id=0}, backend_config={"flag_configs":[],"scoped_memory_configs":[],"indices_config":{"index_known_bits":[{"zeroes":"4294967292","ones":"0","bitwidth":"32"},{"zeroes":"4294967295","ones":"0","bitwidth":"32"},{"zeroes":"4294967295","ones":"0","bitwidth":"32"}],"is_index_aligned":[]},"used_scoped_memory_configs":[]}
  ROOT %bitcast.651 = bf16[2048,6144,1]{1,0,2:T(8,128)(2,1)} bitcast(%dynamic_slice.399), metadata={op_name="jit(train_step)/transpose(jvp(TransformerLinenPure.apply))/TransformerLinenPure/decoder/while/body/closed_call/checkpoint/rematted_computation/layers/convert_element_type" stack_frame_id=0}
}

%fused_computation.119.clone.3.clone.clone (param_0.1565: f32[4,128], param_1.1709: bf16[4,128,2048], param_2.1412: bf16[2048]) -> bf16[4,128,2048] {
  %param_2.1412 = bf16[2048]{0:T(1024)(128)(2,1)S(1)} parameter(2)
  %dot_general.579 = bf16[4,128,2048]{2,1,0:T(8,128)(2,1)} broadcast(%param_2.1412), dimensions={2}, metadata={op_name="jit(train_step)/transpose(jvp(TransformerLinenPure.apply))/TransformerLinenPure/decoder/while/body/closed_call/checkpoint/rematted_computation/layers/...k,k->...k/dot_general" stack_frame_id=0}
  %param_1.1709 = bf16[4,128,2048]{2,1,0:T(8,128)(2,1)S(1)} parameter(1)
  %convert_element_type.1585 = f32[4,128,2048]{2,1,0:T(8,128)} convert(%param_1.1709), metadata={op_name="jit(train_step)/transpose(jvp(TransformerLinenPure.apply))/TransformerLinenPure/decoder/while/body/closed_call/checkpoint/rematted_computation/layers/convert_element_type" stack_frame_id=0}
  %param_0.1565 = f32[4,128]{1,0:T(4,128)S(1)} parameter(0)
  %mul.2269 = f32[4,128,2048]{2,1,0:T(8,128)} broadcast(%param_0.1565), dimensions={0,1}, metadata={op_name="jit(train_step)/transpose(jvp(TransformerLinenPure.apply))/TransformerLinenPure/decoder/while/body/closed_call/checkpoint/rematted_computation/layers/mul" stack_frame_id=0}
  %mul.2268 = f32[4,128,2048]{2,1,0:T(8,128)} multiply(%convert_element_type.1585, %mul.2269), metadata={op_name="jit(train_step)/transpose(jvp(TransformerLinenPure.apply))/TransformerLinenPure/decoder/while/body/closed_call/checkpoint/rematted_computation/layers/mul" stack_frame_id=0}
  %convert_element_type.1584 = bf16[4,128,2048]{2,1,0:T(8,128)(2,1)} convert(%mul.2268), metadata={op_name="jit(train_step)/transpose(jvp(TransformerLinenPure.apply))/TransformerLinenPure/decoder/while/body/closed_call/checkpoint/rematted_computation/layers/convert_element_type" stack_frame_id=0}
  ROOT %dot_general.578 = bf16[4,128,2048]{2,1,0:T(8,128)(2,1)} multiply(%dot_general.579, %convert_element_type.1584), metadata={op_name="jit(train_step)/transpose(jvp(TransformerLinenPure.apply))/TransformerLinenPure/decoder/while/body/closed_call/checkpoint/rematted_computation/layers/...k,k->...k/dot_general" stack_frame_id=0}
}

%fused_computation.21.clone.clone (param_0.1566: bf16[4,2048,6144], param_1.1710: s32[], param_2.1413: f32[4,128], param_3.987: bf16[4,128,2048], param_4.607: bf16[2048]) -> bf16[4,128,6144] {
  %param_2.1413 = f32[4,128]{1,0:T(4,128)S(1)} parameter(2)
  %param_3.987 = bf16[4,128,2048]{2,1,0:T(8,128)(2,1)S(1)} parameter(3)
  %param_4.607 = bf16[2048]{0:T(1024)(128)(2,1)S(1)} parameter(4)
  %fusion.377 = bf16[4,128,2048]{2,1,0:T(8,128)(2,1)} fusion(%param_2.1413, %param_3.987, %param_4.607), kind=kLoop, calls=%fused_computation.119.clone.3.clone.clone, metadata={op_name="jit(train_step)/transpose(jvp(TransformerLinenPure.apply))/TransformerLinenPure/decoder/while/body/closed_call/checkpoint/rematted_computation/layers/...k,k->...k/dot_general" stack_frame_id=0}
  %param_0.1566 = bf16[4,2048,6144]{2,1,0:T(8,128)(2,1)} parameter(0)
  %param_1.1710 = s32[]{:T(128)S(6)} parameter(1)
  %fusion.376 = bf16[2048,6144,1]{1,0,2:T(8,128)(2,1)} fusion(%param_0.1566, %param_1.1710), kind=kLoop, calls=%fused_computation.12.clone.1.clone.clone, metadata={op_name="jit(train_step)/transpose(jvp(TransformerLinenPure.apply))/TransformerLinenPure/decoder/while/body/closed_call/checkpoint/rematted_computation/layers/convert_element_type" stack_frame_id=0}
  ROOT %convolution.108 = bf16[4,128,6144]{2,1,0:T(8,128)(2,1)S(1)} convolution(%fusion.377, %fusion.376), window={size=1}, dim_labels=0bf_io0->0bf, metadata={op_name="jit(train_step)/transpose(jvp(TransformerLinenPure.apply))/TransformerLinenPure/decoder/while/body/closed_call/checkpoint/rematted_computation/layers/dot_general" stack_frame_id=0}
}

%fused_computation.11.clone.1.clone.clone (param_0.1568: bf16[4,2048,6144], param_1.1712: s32[]) -> bf16[2048,6144,1] {
  %param_0.1568 = bf16[4,2048,6144]{2,1,0:T(8,128)(2,1)} parameter(0)
  %param_1.1712 = s32[]{:T(128)S(6)} parameter(1)
  %constant.1391 = s32[]{:T(128)} constant(0)
  %dynamic_slice.400 = bf16[1,2048,6144]{2,1,0:T(8,128)(2,1)} dynamic-slice(%param_0.1568, %param_1.1712, %constant.1391, %constant.1391), dynamic_slice_sizes={1,2048,6144}, metadata={op_name="jit(train_step)/transpose(jvp(TransformerLinenPure.apply))/TransformerLinenPure/decoder/while/body/dynamic_slice" stack_frame_id=0}, backend_config={"flag_configs":[],"scoped_memory_configs":[],"indices_config":{"index_known_bits":[{"zeroes":"4294967292","ones":"0","bitwidth":"32"},{"zeroes":"4294967295","ones":"0","bitwidth":"32"},{"zeroes":"4294967295","ones":"0","bitwidth":"32"}],"is_index_aligned":[]},"used_scoped_memory_configs":[]}
  ROOT %bitcast.653 = bf16[2048,6144,1]{1,0,2:T(8,128)(2,1)} bitcast(%dynamic_slice.400), metadata={op_name="jit(train_step)/transpose(jvp(TransformerLinenPure.apply))/TransformerLinenPure/decoder/while/body/closed_call/checkpoint/rematted_computation/layers/convert_element_type" stack_frame_id=0}
}

%fused_computation.47.clone.1.clone.clone (param_0.1567: bf16[6144,4,128], param_1.1711: bf16[4,128,6144]) -> bf16[4,128,6144] {
  %param_1.1711 = bf16[4,128,6144]{2,1,0:T(8,128)(2,1)S(1)} parameter(1)
  %constant.1390 = bf16[]{:T(256)} constant(1)
  %jit_silu_.44 = bf16[4,128,6144]{2,1,0:T(8,128)(2,1)} broadcast(%constant.1390), dimensions={}, metadata={op_name="jit(train_step)/transpose(jvp(TransformerLinenPure.apply))/TransformerLinenPure/decoder/while/body/closed_call/checkpoint/rematted_computation/layers/jit(silu)" stack_frame_id=0}
  %neg.130 = bf16[4,128,6144]{2,1,0:T(8,128)(2,1)} negate(%param_1.1711), metadata={op_name="jit(train_step)/transpose(jvp(TransformerLinenPure.apply))/TransformerLinenPure/decoder/while/body/closed_call/checkpoint/rematted_computation/layers/jit(silu)/neg" stack_frame_id=0}
  %exp.69 = bf16[4,128,6144]{2,1,0:T(8,128)(2,1)} exponential(%neg.130), metadata={op_name="jit(train_step)/transpose(jvp(TransformerLinenPure.apply))/TransformerLinenPure/decoder/while/body/closed_call/checkpoint/rematted_computation/layers/jit(silu)/exp" stack_frame_id=0}
  %add.1047 = bf16[4,128,6144]{2,1,0:T(8,128)(2,1)} add(%exp.69, %jit_silu_.44), metadata={op_name="jit(train_step)/transpose(jvp(TransformerLinenPure.apply))/TransformerLinenPure/decoder/while/body/closed_call/checkpoint/rematted_computation/layers/jit(silu)/add" stack_frame_id=0}
  %div.1003 = bf16[4,128,6144]{2,1,0:T(8,128)(2,1)} divide(%jit_silu_.44, %add.1047), metadata={op_name="jit(train_step)/transpose(jvp(TransformerLinenPure.apply))/TransformerLinenPure/decoder/while/body/closed_call/checkpoint/rematted_computation/layers/jit(silu)/div" stack_frame_id=0}
  %mul.2271 = bf16[4,128,6144]{2,1,0:T(8,128)(2,1)} multiply(%param_1.1711, %div.1003), metadata={op_name="jit(train_step)/transpose(jvp(TransformerLinenPure.apply))/TransformerLinenPure/decoder/while/body/closed_call/checkpoint/rematted_computation/layers/jit(silu)/mul" stack_frame_id=0}
