HloModule jit_train_step, is_scheduled=true, input_output_alias={ {0}: (0, {}, may-alias), {1}: (1, {}, may-alias), {2}: (2, {}, may-alias), {3}: (3, {}, may-alias), {4}: (4, {}, may-alias), {5}: (5, {}, may-alias), {6}: (6, {}, may-alias), {7}: (7, {}, may-alias), {8}: (8, {}, may-alias), {9}: (9, {}, may-alias), {10}: (10, {}, may-alias), {11}: (11, {}, may-alias), {12}: (12, {}, may-alias), {13}: (13, {}, may-alias), {14}: (14, {}, may-alias), {15}: (15, {}, may-alias), {16}: (16, {}, may-alias), {17}: (17, {}, may-alias), {18}: (18, {}, may-alias), {19}: (19, {}, may-alias), {20}: (20, {}, may-alias), {21}: (21, {}, may-alias), {22}: (22, {}, may-alias), {23}: (23, {}, may-alias), {24}: (24, {}, may-alias), {25}: (25, {}, may-alias), {26}: (26, {}, may-alias), {27}: (27, {}, may-alias), {28}: (28, {}, may-alias), {29}: (29, {}, may-alias), {30}: (30, {}, may-alias), {31}: (31, {}, may-alias), {32}: (32, {}, may-alias), {33}: (33, {}, may-alias), {34}: (34, {}, may-alias), {35}: (35, {}, may-alias), {36}: (36, {}, may-alias), {37}: (37, {}, may-alias), {38}: (38, {}, may-alias), {39}: (39, {}, may-alias), {40}: (40, {}, may-alias), {41}: (41, {}, may-alias), {42}: (42, {}, may-alias), {43}: (43, {}, may-alias), {44}: (44, {}, may-alias), {45}: (45, {}, may-alias), {46}: (46, {}, may-alias), {47}: (47, {}, may-alias), {48}: (48, {}, may-alias), {49}: (49, {}, may-alias), {50}: (50, {}, may-alias), {51}: (51, {}, may-alias), {52}: (52, {}, may-alias), {53}: (53, {}, may-alias), {54}: (54, {}, may-alias), {55}: (55, {}, may-alias), {56}: (56, {}, may-alias), {57}: (57, {}, may-alias), {58}: (58, {}, may-alias), {59}: (59, {}, may-alias), {60}: (60, {}, may-alias), {61}: (61, {}, may-alias), {62}: (62, {}, may-alias), {63}: (63, {}, may-alias), {64}: (64, {}, may-alias), {65}: (65, {}, may-alias), {66}: (66, {}, may-alias), {67}: (67, {}, may-alias), {68}: (68, {}, may-alias), {69}: (69, {}, may-alias), {70}: (70, {}, may-alias), {71}: (71, {}, may-alias), {72}: (72, {}, may-alias), {73}: (73, {}, may-alias), {74}: (74, {}, may-alias), {75}: (75, {}, may-alias), {76}: (76, {}, may-alias), {77}: (77, {}, may-alias), {78}: (78, {}, may-alias), {79}: (79, {}, may-alias), {80}: (80, {}, may-alias), {81}: (81, {}, may-alias), {82}: (82, {}, may-alias), {83}: (83, {}, may-alias), {84}: (84, {}, may-alias), {85}: (85, {}, may-alias), {86}: (86, {}, may-alias), {87}: (87, {}, may-alias), {88}: (88, {}, may-alias), {89}: (89, {}, may-alias), {90}: (90, {}, may-alias), {91}: (91, {}, may-alias), {92}: (92, {}, may-alias), {93}: (93, {}, may-alias), {94}: (94, {}, may-alias), {95}: (95, {}, may-alias), {96}: (96, {}, may-alias), {97}: (97, {}, may-alias), {98}: (98, {}, may-alias), {99}: (99, {}, may-alias), {100}: (100, {}, may-alias), {101}: (101, {}, may-alias), {102}: (102, {}, may-alias), {103}: (103, {}, may-alias), {104}: (104, {}, may-alias), {105}: (105, {}, may-alias), {106}: (106, {}, may-alias), {107}: (107, {}, may-alias), {108}: (108, {}, may-alias), {109}: (109, {}, may-alias), {110}: (110, {}, may-alias), {111}: (111, {}, may-alias), {112}: (112, {}, may-alias), {113}: (113, {}, may-alias), {114}: (114, {}, may-alias), {115}: (115, {}, may-alias), {116}: (116, {}, may-alias), {117}: (117, {}, may-alias), {118}: (118, {}, may-alias), {119}: (119, {}, may-alias), {120}: (120, {}, may-alias), {121}: (121, {}, may-alias), {122}: (122, {}, may-alias), {123}: (123, {}, may-alias), {124}: (124, {}, may-alias), {125}: (125, {}, may-alias), {126}: (126, {}, may-alias), {127}: (127, {}, may-alias), {128}: (128, {}, may-alias), {129}: (129, {}, may-alias), {130}: (130, {}, may-alias), {131}: (131, {}, may-alias), {132}: (132, {}, may-alias), {133}: (133, {}, may-alias), {134}: (134, {}, may-alias), {135}: (135, {}, may-alias), {136}: (136, {}, may-alias), {137}: (137, {}, may-alias), {138}: (138, {}, may-alias), {139}: (139, {}, may-alias), {140}: (140, {}, may-alias), {141}: (141, {}, may-alias), {142}: (142, {}, may-alias), {143}: (143, {}, may-alias), {144}: (144, {}, may-alias), {145}: (145, {}, may-alias), {146}: (146, {}, may-alias) }, entry_computation_layout={(f32[512]{0:T(512)}, u32[3]{0:T(128)}, u32[3,4]{1,0:T(4,128)}, u32[3]{0:T(128)}, u32[3,4]{1,0:T(4,128)}, /*index=5*/u32[3]{0:T(128)}, u32[3,4]{1,0:T(4,128)}, u32[3]{0:T(128)}, u32[3,4]{1,0:T(4,128)}, u32[3]{0:T(128)}, /*index=10*/u32[3,4]{1,0:T(4,128)}, u32[3]{0:T(128)}, u32[3,4]{1,0:T(4,128)}, f32[128,3,18432]{2,0,1:T(8,128)}, f32[128,3,18432]{2,0,1:T(8,128)}, /*index=15*/f32[18432,3,128]{2,0,1:T(8,128)}, f32[512,3]{0,1:T(4,128)}, f32[512,3]{0,1:T(4,128)}, u32[3]{0:T(128)}, u32[3,4]{1,0:T(4,128)}, /*index=20*/u32[3]{0:T(128)}, u32[3,4]{1,0:T(4,128)}, u32[3]{0:T(128)}, u32[3,4]{1,0:T(4,128)}, f32[512,3]{0,1:T(4,128)}, /*index=25*/f32[128,3,128,128]{3,2,1,0:T(8,128)}, f32[1536,3]{0,1:T(4,128)}, f32[128,3,576]{0,2,1:T(8,128)}, f32[128,3,128,256]{3,2,1,0:T(8,128)}, f32[128,3,1536]{2,0,1:T(8,128)}, /*index=30*/f32[384,3,128,192]{2,3,1,0:T(8,128)}, u32[]{:T(128)}, u32[4]{0:T(128)}, u32[]{:T(128)}, u32[4]{0:T(128)}, /*index=35*/u32[]{:T(128)}, u32[4]{0:T(128)}, f32[128,129280]{1,0:T(8,128)}, f32[256,1]{0,1:T(1,128)}, f32[128,1,256]{2,1,0:T(1,128)}, /*index=40*/u32[1]{0:T(128)}, u32[1,4]{1,0:T(1,128)}, u32[1]{0:T(128)}, u32[1,4]{1,0:T(1,128)}, u32[1]{0:T(128)}, /*index=45*/u32[1,4]{1,0:T(1,128)}, f32[256,1,128,512]{3,2,1,0:T(8,128)}, f32[256,1,128,512]{3,2,1,0:T(8,128)}, f32[256,1,512,128]{3,2,1,0:T(8,128)}, u32[1]{0:T(128)}, /*index=50*/u32[1,4]{1,0:T(1,128)}, u32[1]{0:T(128)}, u32[1,4]{1,0:T(1,128)}, u32[1]{0:T(128)}, u32[1,4]{1,0:T(1,128)}, /*index=55*/f32[128,1,512]{2,1,0:T(1,128)}, f32[128,1,512]{2,1,0:T(1,128)}, f32[512,1,128]{2,1,0:T(1,128)}, u32[1]{0:T(128)}, u32[1,4]{1,0:T(1,128)}, /*index=60*/u32[1]{0:T(128)}, u32[1,4]{1,0:T(1,128)}, u32[1]{0:T(128)}, u32[1,4]{1,0:T(1,128)}, f32[512,1]{0,1:T(1,128)}, /*index=65*/f32[512,1]{0,1:T(1,128)}, f32[512,1]{0,1:T(1,128)}, f32[128,1,128,128]{3,2,1,0:T(8,128)}, f32[1536,1]{0,1:T(1,128)}, f32[128,1,576]{0,2,1:T(8,128)}, /*index=70*/f32[128,1,128,256]{3,2,1,0:T(8,128)}, f32[128,1,1536]{2,1,0:T(1,128)}, f32[384,1,128,192]{2,3,1,0:T(8,128)}, u32[]{:T(128)}, u32[4]{0:T(128)}, /*index=75*/u32[]{:T(128)}, u32[4]{0:T(128)}, u32[]{:T(128)}, u32[4]{0:T(128)}, f32[129280,128]{1,0:T(8,128)}, /*index=80*/s32[]{:T(128)}, f32[512]{0:T(512)}, f32[128,3,18432]{2,0,1:T(8,128)}, f32[128,3,18432]{2,0,1:T(8,128)}, f32[18432,3,128]{2,0,1:T(8,128)}, /*index=85*/f32[512,3]{0,1:T(4,128)}, f32[512,3]{0,1:T(4,128)}, f32[512,3]{0,1:T(4,128)}, f32[128,3,128,128]{3,2,1,0:T(8,128)}, f32[1536,3]{0,1:T(4,128)}, /*index=90*/f32[128,3,576]{0,2,1:T(8,128)}, f32[128,3,128,256]{3,2,1,0:T(8,128)}, f32[128,3,1536]{2,0,1:T(8,128)}, f32[384,3,128,192]{2,3,1,0:T(8,128)}, f32[128,129280]{1,0:T(8,128)}, /*index=95*/f32[256,1]{0,1:T(1,128)}, f32[128,1,256]{2,1,0:T(1,128)}, f32[256,1,128,512]{3,2,1,0:T(8,128)}, f32[256,1,128,512]{3,2,1,0:T(8,128)}, f32[256,1,512,128]{3,2,1,0:T(8,128)}, /*index=100*/f32[128,1,512]{2,1,0:T(1,128)}, f32[128,1,512]{2,1,0:T(1,128)}, f32[512,1,128]{2,1,0:T(1,128)}, f32[512,1]{0,1:T(1,128)}, f32[512,1]{0,1:T(1,128)}, /*index=105*/f32[512,1]{0,1:T(1,128)}, f32[128,1,128,128]{3,2,1,0:T(8,128)}, f32[1536,1]{0,1:T(1,128)}, f32[128,1,576]{0,2,1:T(8,128)}, f32[128,1,128,256]{3,2,1,0:T(8,128)}, /*index=110*/f32[128,1,1536]{2,1,0:T(1,128)}, f32[384,1,128,192]{2,3,1,0:T(8,128)}, f32[129280,128]{1,0:T(8,128)}, f32[512]{0:T(512)}, f32[128,3,18432]{2,0,1:T(8,128)}, /*index=115*/f32[128,3,18432]{2,0,1:T(8,128)}, f32[18432,3,128]{2,0,1:T(8,128)}, f32[512,3]{0,1:T(4,128)}, f32[512,3]{0,1:T(4,128)}, f32[512,3]{0,1:T(4,128)}, /*index=120*/f32[128,3,128,128]{3,2,1,0:T(8,128)}, f32[1536,3]{0,1:T(4,128)}, f32[128,3,576]{0,2,1:T(8,128)}, f32[128,3,128,256]{3,2,1,0:T(8,128)}, f32[128,3,1536]{2,0,1:T(8,128)}, /*index=125*/f32[384,3,128,192]{2,3,1,0:T(8,128)}, f32[128,129280]{1,0:T(8,128)}, f32[256,1]{0,1:T(1,128)}, f32[128,1,256]{2,1,0:T(1,128)}, f32[256,1,128,512]{3,2,1,0:T(8,128)}, /*index=130*/f32[256,1,128,512]{3,2,1,0:T(8,128)}, f32[256,1,512,128]{3,2,1,0:T(8,128)}, f32[128,1,512]{2,1,0:T(1,128)}, f32[128,1,512]{2,1,0:T(1,128)}, f32[512,1,128]{2,1,0:T(1,128)}, /*index=135*/f32[512,1]{0,1:T(1,128)}, f32[512,1]{0,1:T(1,128)}, f32[512,1]{0,1:T(1,128)}, f32[128,1,128,128]{3,2,1,0:T(8,128)}, f32[1536,1]{0,1:T(1,128)}, /*index=140*/f32[128,1,576]{0,2,1:T(8,128)}, f32[128,1,128,256]{3,2,1,0:T(8,128)}, f32[128,1,1536]{2,1,0:T(1,128)}, f32[384,1,128,192]{2,3,1,0:T(8,128)}, f32[129280,128]{1,0:T(8,128)}, /*index=145*/s32[]{:T(128)}, u32[]{:T(128)}, s32[1,128]{1,0:T(1,128)}, s32[1,128]{1,0:T(1,128)}, s32[1,128]{1,0:T(1,128)}, /*index=150*/s32[1,128]{1,0:T(1,128)}, s32[1,128]{1,0:T(1,128)})->(f32[512]{0:T(512)}, u32[3]{0:T(128)}, u32[3,4]{1,0:T(4,128)}, u32[3]{0:T(128)}, u32[3,4]{1,0:T(4,128)}, /*index=5*/u32[3]{0:T(128)}, u32[3,4]{1,0:T(4,128)}, u32[3]{0:T(128)}, u32[3,4]{1,0:T(4,128)}, u32[3]{0:T(128)}, /*index=10*/u32[3,4]{1,0:T(4,128)}, u32[3]{0:T(128)}, u32[3,4]{1,0:T(4,128)}, f32[128,3,18432]{2,0,1:T(8,128)}, f32[128,3,18432]{2,0,1:T(8,128)}, /*index=15*/f32[18432,3,128]{2,0,1:T(8,128)}, f32[512,3]{0,1:T(4,128)}, f32[512,3]{0,1:T(4,128)}, u32[3]{0:T(128)}, u32[3,4]{1,0:T(4,128)}, /*index=20*/u32[3]{0:T(128)}, u32[3,4]{1,0:T(4,128)}, u32[3]{0:T(128)}, u32[3,4]{1,0:T(4,128)}, f32[512,3]{0,1:T(4,128)}, /*index=25*/f32[128,3,128,128]{3,2,1,0:T(8,128)}, f32[1536,3]{0,1:T(4,128)}, f32[128,3,576]{0,2,1:T(8,128)}, f32[128,3,128,256]{3,2,1,0:T(8,128)}, f32[128,3,1536]{2,0,1:T(8,128)}, /*index=30*/f32[384,3,128,192]{2,3,1,0:T(8,128)}, u32[]{:T(128)}, u32[4]{0:T(128)}, u32[]{:T(128)}, u32[4]{0:T(128)}, /*index=35*/u32[]{:T(128)}, u32[4]{0:T(128)}, f32[128,129280]{1,0:T(8,128)}, f32[256,1]{0,1:T(1,128)}, f32[128,1,256]{2,1,0:T(1,128)}, /*index=40*/u32[1]{0:T(128)}, u32[1,4]{1,0:T(1,128)}, u32[1]{0:T(128)}, u32[1,4]{1,0:T(1,128)}, u32[1]{0:T(128)}, /*index=45*/u32[1,4]{1,0:T(1,128)}, f32[256,1,128,512]{3,2,1,0:T(8,128)}, f32[256,1,128,512]{3,2,1,0:T(8,128)}, f32[256,1,512,128]{3,2,1,0:T(8,128)}, u32[1]{0:T(128)}, /*index=50*/u32[1,4]{1,0:T(1,128)}, u32[1]{0:T(128)}, u32[1,4]{1,0:T(1,128)}, u32[1]{0:T(128)}, u32[1,4]{1,0:T(1,128)}, /*index=55*/f32[128,1,512]{2,1,0:T(1,128)}, f32[128,1,512]{2,1,0:T(1,128)}, f32[512,1,128]{2,1,0:T(1,128)}, u32[1]{0:T(128)}, u32[1,4]{1,0:T(1,128)}, /*index=60*/u32[1]{0:T(128)}, u32[1,4]{1,0:T(1,128)}, u32[1]{0:T(128)}, u32[1,4]{1,0:T(1,128)}, f32[512,1]{0,1:T(1,128)}, /*index=65*/f32[512,1]{0,1:T(1,128)}, f32[512,1]{0,1:T(1,128)}, f32[128,1,128,128]{3,2,1,0:T(8,128)}, f32[1536,1]{0,1:T(1,128)}, f32[128,1,576]{0,2,1:T(8,128)}, /*index=70*/f32[128,1,128,256]{3,2,1,0:T(8,128)}, f32[128,1,1536]{2,1,0:T(1,128)}, f32[384,1,128,192]{2,3,1,0:T(8,128)}, u32[]{:T(128)}, u32[4]{0:T(128)}, /*index=75*/u32[]{:T(128)}, u32[4]{0:T(128)}, u32[]{:T(128)}, u32[4]{0:T(128)}, f32[129280,128]{1,0:T(8,128)}, /*index=80*/s32[]{:T(128)}, f32[512]{0:T(512)}, f32[128,3,18432]{2,0,1:T(8,128)}, f32[128,3,18432]{2,0,1:T(8,128)}, f32[18432,3,128]{2,0,1:T(8,128)}, /*index=85*/f32[512,3]{0,1:T(4,128)}, f32[512,3]{0,1:T(4,128)}, f32[512,3]{0,1:T(4,128)}, f32[128,3,128,128]{3,2,1,0:T(8,128)}, f32[1536,3]{0,1:T(4,128)}, /*index=90*/f32[128,3,576]{0,2,1:T(8,128)}, f32[128,3,128,256]{3,2,1,0:T(8,128)}, f32[128,3,1536]{2,0,1:T(8,128)}, f32[384,3,128,192]{2,3,1,0:T(8,128)}, f32[128,129280]{1,0:T(8,128)}, /*index=95*/f32[256,1]{0,1:T(1,128)}, f32[128,1,256]{2,1,0:T(1,128)}, f32[256,1,128,512]{3,2,1,0:T(8,128)}, f32[256,1,128,512]{3,2,1,0:T(8,128)}, f32[256,1,512,128]{3,2,1,0:T(8,128)}, /*index=100*/f32[128,1,512]{2,1,0:T(1,128)}, f32[128,1,512]{2,1,0:T(1,128)}, f32[512,1,128]{2,1,0:T(1,128)}, f32[512,1]{0,1:T(1,128)}, f32[512,1]{0,1:T(1,128)}, /*index=105*/f32[512,1]{0,1:T(1,128)}, f32[128,1,128,128]{3,2,1,0:T(8,128)}, f32[1536,1]{0,1:T(1,128)}, f32[128,1,576]{0,2,1:T(8,128)}, f32[128,1,128,256]{3,2,1,0:T(8,128)}, /*index=110*/f32[128,1,1536]{2,1,0:T(1,128)}, f32[384,1,128,192]{2,3,1,0:T(8,128)}, f32[129280,128]{1,0:T(8,128)}, f32[512]{0:T(512)}, f32[128,3,18432]{2,0,1:T(8,128)}, /*index=115*/f32[128,3,18432]{2,0,1:T(8,128)}, f32[18432,3,128]{2,0,1:T(8,128)}, f32[512,3]{0,1:T(4,128)}, f32[512,3]{0,1:T(4,128)}, f32[512,3]{0,1:T(4,128)}, /*index=120*/f32[128,3,128,128]{3,2,1,0:T(8,128)}, f32[1536,3]{0,1:T(4,128)}, f32[128,3,576]{0,2,1:T(8,128)}, f32[128,3,128,256]{3,2,1,0:T(8,128)}, f32[128,3,1536]{2,0,1:T(8,128)}, /*index=125*/f32[384,3,128,192]{2,3,1,0:T(8,128)}, f32[128,129280]{1,0:T(8,128)}, f32[256,1]{0,1:T(1,128)}, f32[128,1,256]{2,1,0:T(1,128)}, f32[256,1,128,512]{3,2,1,0:T(8,128)}, /*index=130*/f32[256,1,128,512]{3,2,1,0:T(8,128)}, f32[256,1,512,128]{3,2,1,0:T(8,128)}, f32[128,1,512]{2,1,0:T(1,128)}, f32[128,1,512]{2,1,0:T(1,128)}, f32[512,1,128]{2,1,0:T(1,128)}, /*index=135*/f32[512,1]{0,1:T(1,128)}, f32[512,1]{0,1:T(1,128)}, f32[512,1]{0,1:T(1,128)}, f32[128,1,128,128]{3,2,1,0:T(8,128)}, f32[1536,1]{0,1:T(1,128)}, /*index=140*/f32[128,1,576]{0,2,1:T(8,128)}, f32[128,1,128,256]{3,2,1,0:T(8,128)}, f32[128,1,1536]{2,1,0:T(1,128)}, f32[384,1,128,192]{2,3,1,0:T(8,128)}, f32[129280,128]{1,0:T(8,128)}, /*index=145*/s32[]{:T(128)}, u32[]{:T(128)}, f32[]{:T(128)}, f32[]{:T(128)}, f32[]{:T(128)}, /*index=150*/f32[]{:T(128)}, f32[]{:T(128)}, f32[]{:T(128)}, f32[]{:T(128)}, f32[]{:T(128)}, /*index=155*/f32[]{:T(128)}, s32[]{:T(128)}, f32[]{:T(128)})}, allow_spmd_sharding_propagation_to_parameters={false,false,false,false,false,false,false,false,false,false,false,false,false,false,false,false,false,false,false,false,false,false,false,false,false,false,false,false,false,false,false,false,false,false,false,false,false,false,false,false,false,false,false,false,false,false,false,false,false,false,false,false,false,false,false,false,false,false,false,false,false,false,false,false,false,false,false,false,false,false,false,false,false,false,false,false,false,false,false,false,false,false,false,false,false,false,false,false,false,false,false,false,false,false,false,false,false,false,false,false,false,false,false,false,false,false,false,false,false,false,false,false,false,false,false,false,false,false,false,false,false,false,false,false,false,false,false,false,false,false,false,false,false,false,false,false,false,false,false,false,false,false,false,false,false,false,false,false,false,false,false,false}, allow_spmd_sharding_propagation_to_output={false,false,false,false,false,false,false,false,false,false,false,false,false,false,false,false,false,false,false,false,false,false,false,false,false,false,false,false,false,false,false,false,false,false,false,false,false,false,false,false,false,false,false,false,false,false,false,false,false,false,false,false,false,false,false,false,false,false,false,false,false,false,false,false,false,false,false,false,false,false,false,false,false,false,false,false,false,false,false,false,false,false,false,false,false,false,false,false,false,false,false,false,false,false,false,false,false,false,false,false,false,false,false,false,false,false,false,false,false,false,false,false,false,false,false,false,false,false,false,false,false,false,false,false,false,false,false,false,false,false,false,false,false,false,false,false,false,false,false,false,false,false,false,false,false,false,false,true,true,true,true,true,true,true,true,true,true,true}, num_partitions=4

FileNames

FunctionNames

FileLocations

StackFrames


%region_0.1.clone (reduce_sum.820: s32[], reduce_sum.821: s32[]) -> s32[] {
  %reduce_sum.820 = s32[]{:T(128)} parameter(0), metadata={op_name="jit(train_step)/jvp()/reduce_sum"}
  %reduce_sum.821 = s32[]{:T(128)} parameter(1), metadata={op_name="jit(train_step)/jvp()/reduce_sum"}
  ROOT %reduce_sum.826 = s32[]{:T(128)} add(%reduce_sum.820, %reduce_sum.821), metadata={op_name="jit(train_step)/jvp()/reduce_sum" stack_frame_id=0}, backend_config={"flag_configs":[],"scoped_memory_configs":[],"used_scoped_memory_configs":[],"aliasing_operands":{"lists":[{"indices":["0","2"]}]}}
}

%region_46.57 (top_k.23: bf16[], top_k.24: bf16[], top_k.25: s32[], top_k.26: s32[]) -> pred[] {
  %constant.1441 = s32[]{:T(128)} constant(0)
  %constant.1442 = s32[]{:T(128)} constant(2147483647)
  %top_k.23 = bf16[]{:T(256)} parameter(0), metadata={op_name="top_k"}
  %top_k.24 = bf16[]{:T(256)} parameter(1), metadata={op_name="top_k"}
  %top_k.25 = s32[]{:T(128)} parameter(2), metadata={op_name="top_k"}
  %top_k.26 = s32[]{:T(128)} parameter(3), metadata={op_name="top_k"}
  %convert.392 = f32[]{:T(128)S(6)} convert(%top_k.23), metadata={op_name="convert.18"}, backend_config={"flag_configs":[],"scoped_memory_configs":[],"used_scoped_memory_configs":[],"aliasing_operands":{"lists":[]}}
  %bitcast-convert.39 = s32[]{:T(128)S(6)} bitcast-convert(%convert.392), metadata={op_name="bitcast-convert.8"}, backend_config={"flag_configs":[],"scoped_memory_configs":[],"used_scoped_memory_configs":[],"aliasing_operands":{"lists":[]}}
  %compare.144 = pred[]{:T(512)S(6)} compare(%bitcast-convert.39, %constant.1441), direction=LT, metadata={op_name="compare.38"}, backend_config={"flag_configs":[],"scoped_memory_configs":[],"used_scoped_memory_configs":[],"aliasing_operands":{"lists":[]}}
  %xor.40 = s32[]{:T(128)S(6)} xor(%constant.1442, %bitcast-convert.39), metadata={op_name="xor.8"}, backend_config={"flag_configs":[],"scoped_memory_configs":[],"used_scoped_memory_configs":[],"aliasing_operands":{"lists":[]}}
  %select.127 = s32[]{:T(128)S(6)} select(%compare.144, %xor.40, %bitcast-convert.39), metadata={op_name="select.16"}, backend_config={"flag_configs":[],"scoped_memory_configs":[],"used_scoped_memory_configs":[],"aliasing_operands":{"lists":[{"indices":["1","3"]}]}}
  %convert.393 = f32[]{:T(128)S(6)} convert(%top_k.24), metadata={op_name="convert.19"}, backend_config={"flag_configs":[],"scoped_memory_configs":[],"used_scoped_memory_configs":[],"aliasing_operands":{"lists":[]}}
  %bitcast-convert.40 = s32[]{:T(128)S(6)} bitcast-convert(%convert.393), metadata={op_name="bitcast-convert.9"}, backend_config={"flag_configs":[],"scoped_memory_configs":[],"used_scoped_memory_configs":[],"aliasing_operands":{"lists":[]}}
  %compare.145 = pred[]{:T(512)S(6)} compare(%bitcast-convert.40, %constant.1441), direction=LT, metadata={op_name="compare.39"}, backend_config={"flag_configs":[],"scoped_memory_configs":[],"used_scoped_memory_configs":[],"aliasing_operands":{"lists":[]}}
  %xor.41 = s32[]{:T(128)S(6)} xor(%constant.1442, %bitcast-convert.40), metadata={op_name="xor.9"}, backend_config={"flag_configs":[],"scoped_memory_configs":[],"used_scoped_memory_configs":[],"aliasing_operands":{"lists":[]}}
  %select.128 = s32[]{:T(128)S(6)} select(%compare.145, %xor.41, %bitcast-convert.40), metadata={op_name="select.17"}, backend_config={"flag_configs":[],"scoped_memory_configs":[],"used_scoped_memory_configs":[],"aliasing_operands":{"lists":[{"indices":["1","3"]}]}}
  %compare.146 = pred[]{:T(512)S(6)} compare(%select.127, %select.128), direction=GT, metadata={op_name="compare.0"}, backend_config={"flag_configs":[],"scoped_memory_configs":[],"used_scoped_memory_configs":[],"aliasing_operands":{"lists":[]}}
  %compare.147 = pred[]{:T(512)S(6)} compare(%select.128, %select.127), direction=GT, metadata={op_name="compare.117"}, backend_config={"flag_configs":[],"scoped_memory_configs":[],"used_scoped_memory_configs":[],"aliasing_operands":{"lists":[]}}
  %compare.148 = pred[]{:T(512)S(6)} compare(%compare.146, %compare.147), direction=EQ, metadata={op_name="compare.118"}, backend_config={"flag_configs":[],"scoped_memory_configs":[],"used_scoped_memory_configs":[],"aliasing_operands":{"lists":[]}}
  %compare.149 = pred[]{:T(512)S(6)} compare(%top_k.25, %top_k.26), direction=LT, metadata={op_name="compare.119"}, backend_config={"flag_configs":[],"scoped_memory_configs":[],"used_scoped_memory_configs":[],"aliasing_operands":{"lists":[]}}
  ROOT %select.129 = pred[]{:T(512)} select(%compare.148, %compare.149, %compare.146), metadata={op_name="select.113"}, backend_config={"flag_configs":[],"scoped_memory_configs":[],"used_scoped_memory_configs":[],"aliasing_operands":{"lists":[]}}
}

%region_47.58 (sort.64: s32[], sort.65: s32[], sort.66: s32[], sort.67: s32[]) -> pred[] {
  %sort.64 = s32[]{:T(128)} parameter(0), metadata={op_name="jit(argsort)/sort"}
  %sort.65 = s32[]{:T(128)} parameter(1), metadata={op_name="jit(argsort)/sort"}
  %sort.66 = s32[]{:T(128)} parameter(2), metadata={op_name="jit(argsort)/sort"}
  %sort.67 = s32[]{:T(128)} parameter(3), metadata={op_name="jit(argsort)/sort"}
  %lt_to.32 = pred[]{:T(512)S(6)} compare(%sort.64, %sort.65), direction=LT, metadata={op_name="lt_to"}, backend_config={"flag_configs":[],"scoped_memory_configs":[],"used_scoped_memory_configs":[],"aliasing_operands":{"lists":[]}}
  %lt_to.33 = pred[]{:T(512)S(6)} compare(%sort.65, %sort.64), direction=LT, metadata={op_name="lt_to"}, backend_config={"flag_configs":[],"scoped_memory_configs":[],"used_scoped_memory_configs":[],"aliasing_operands":{"lists":[]}}
  %compare.150 = pred[]{:T(512)S(6)} compare(%lt_to.32, %lt_to.33), direction=EQ, metadata={op_name="compare.120"}, backend_config={"flag_configs":[],"scoped_memory_configs":[],"used_scoped_memory_configs":[],"aliasing_operands":{"lists":[]}}
  %compare.151 = pred[]{:T(512)S(6)} compare(%sort.66, %sort.67), direction=LT, metadata={op_name="compare.121"}, backend_config={"flag_configs":[],"scoped_memory_configs":[],"used_scoped_memory_configs":[],"aliasing_operands":{"lists":[]}}
  ROOT %select.130 = pred[]{:T(512)} select(%compare.150, %compare.151, %lt_to.32), metadata={op_name="select.114"}, backend_config={"flag_configs":[],"scoped_memory_configs":[],"used_scoped_memory_configs":[],"aliasing_operands":{"lists":[]}}
}

%region_48.59 (sort.68: s32[], sort.69: s32[], sort.70: s32[], sort.71: s32[]) -> pred[] {
  %sort.68 = s32[]{:T(128)} parameter(0), metadata={op_name="jit(argsort)/sort"}
  %sort.69 = s32[]{:T(128)} parameter(1), metadata={op_name="jit(argsort)/sort"}
  %sort.70 = s32[]{:T(128)} parameter(2), metadata={op_name="jit(argsort)/sort"}
  %sort.71 = s32[]{:T(128)} parameter(3), metadata={op_name="jit(argsort)/sort"}
  %lt_to.34 = pred[]{:T(512)S(6)} compare(%sort.68, %sort.69), direction=LT, metadata={op_name="lt_to"}, backend_config={"flag_configs":[],"scoped_memory_configs":[],"used_scoped_memory_configs":[],"aliasing_operands":{"lists":[]}}
  %lt_to.35 = pred[]{:T(512)S(6)} compare(%sort.69, %sort.68), direction=LT, metadata={op_name="lt_to"}, backend_config={"flag_configs":[],"scoped_memory_configs":[],"used_scoped_memory_configs":[],"aliasing_operands":{"lists":[]}}
  %compare.152 = pred[]{:T(512)S(6)} compare(%lt_to.34, %lt_to.35), direction=EQ, metadata={op_name="compare.122"}, backend_config={"flag_configs":[],"scoped_memory_configs":[],"used_scoped_memory_configs":[],"aliasing_operands":{"lists":[]}}
  %compare.153 = pred[]{:T(512)S(6)} compare(%sort.70, %sort.71), direction=LT, metadata={op_name="compare.123"}, backend_config={"flag_configs":[],"scoped_memory_configs":[],"used_scoped_memory_configs":[],"aliasing_operands":{"lists":[]}}
  ROOT %select.131 = pred[]{:T(512)} select(%compare.152, %compare.153, %lt_to.34), metadata={op_name="select.115"}, backend_config={"flag_configs":[],"scoped_memory_configs":[],"used_scoped_memory_configs":[],"aliasing_operands":{"lists":[]}}
}

%region_67.81 (sort.78: s32[], sort.79: s32[], sort.80: s32[], sort.81: s32[]) -> pred[] {
  %sort.78 = s32[]{:T(128)} parameter(0), metadata={op_name="sort_activations/jit(argsort)/sort"}
  %sort.79 = s32[]{:T(128)} parameter(1), metadata={op_name="sort_activations/jit(argsort)/sort"}
  %sort.80 = s32[]{:T(128)} parameter(2), metadata={op_name="sort_activations/jit(argsort)/sort"}
  %sort.81 = s32[]{:T(128)} parameter(3), metadata={op_name="sort_activations/jit(argsort)/sort"}
  %lt_to.37 = pred[]{:T(512)S(6)} compare(%sort.78, %sort.79), direction=LT, metadata={op_name="lt_to"}, backend_config={"flag_configs":[],"scoped_memory_configs":[],"used_scoped_memory_configs":[],"aliasing_operands":{"lists":[]}}
  %lt_to.38 = pred[]{:T(512)S(6)} compare(%sort.79, %sort.78), direction=LT, metadata={op_name="lt_to"}, backend_config={"flag_configs":[],"scoped_memory_configs":[],"used_scoped_memory_configs":[],"aliasing_operands":{"lists":[]}}
  %compare.156 = pred[]{:T(512)S(6)} compare(%lt_to.37, %lt_to.38), direction=EQ, metadata={op_name="compare.124"}, backend_config={"flag_configs":[],"scoped_memory_configs":[],"used_scoped_memory_configs":[],"aliasing_operands":{"lists":[]}}
  %compare.157 = pred[]{:T(512)S(6)} compare(%sort.80, %sort.81), direction=LT, metadata={op_name="compare.125"}, backend_config={"flag_configs":[],"scoped_memory_configs":[],"used_scoped_memory_configs":[],"aliasing_operands":{"lists":[]}}
  ROOT %select.134 = pred[]{:T(512)} select(%compare.156, %compare.157, %lt_to.37), metadata={op_name="select.116"}, backend_config={"flag_configs":[],"scoped_memory_configs":[],"used_scoped_memory_configs":[],"aliasing_operands":{"lists":[]}}
}

%region_107.127 (psum.6: bf16[], psum.9: bf16[]) -> bf16[] {
  %psum.6 = bf16[]{:T(256)} parameter(0), metadata={op_name="psum"}
  %psum.9 = bf16[]{:T(256)} parameter(1), metadata={op_name="psum"}
  ROOT %add.1450 = bf16[]{:T(256)} add(%psum.6, %psum.9), metadata={op_name="add" stack_frame_id=0}, backend_config={"flag_configs":[],"scoped_memory_configs":[],"used_scoped_memory_configs":[],"aliasing_operands":{"lists":[]}}
}

%region_62.74 (reduce-window.111: s32[], reduce-window.112: s32[]) -> s32[] {
  %reduce-window.111 = s32[]{:T(128)} parameter(0), metadata={op_name="reduce-window.35"}
  %reduce-window.112 = s32[]{:T(128)} parameter(1), metadata={op_name="reduce-window.35"}
  ROOT %reduce_window_sum.108 = s32[]{:T(128)} add(%reduce-window.111, %reduce-window.112), metadata={op_name="reduce_window_sum"}, backend_config={"flag_configs":[],"scoped_memory_configs":[],"used_scoped_memory_configs":[],"aliasing_operands":{"lists":[{"indices":["0","2"]}]}}
}

%region_64.76 (reduce-window.113: s32[], reduce-window.114: s32[]) -> s32[] {
  %reduce-window.113 = s32[]{:T(128)} parameter(0), metadata={op_name="reduce-window.36"}
  %reduce-window.114 = s32[]{:T(128)} parameter(1), metadata={op_name="reduce-window.36"}
  ROOT %reduce_window_sum.109 = s32[]{:T(128)} add(%reduce-window.113, %reduce-window.114), metadata={op_name="reduce_window_sum"}, backend_config={"flag_configs":[],"scoped_memory_configs":[],"used_scoped_memory_configs":[],"aliasing_operands":{"lists":[{"indices":["0","2"]}]}}
}

%region_65.77 (reduce-window.115: s32[], reduce-window.116: s32[]) -> s32[] {
  %reduce-window.115 = s32[]{:T(128)} parameter(0), metadata={op_name="reduce-window.63"}
  %reduce-window.116 = s32[]{:T(128)} parameter(1), metadata={op_name="reduce-window.63"}
  ROOT %reduce_window_sum.110 = s32[]{:T(128)} add(%reduce-window.115, %reduce-window.116), metadata={op_name="reduce_window_sum"}, backend_config={"flag_configs":[],"scoped_memory_configs":[],"used_scoped_memory_configs":[],"aliasing_operands":{"lists":[{"indices":["0","2"]}]}}
}

%region_68.82.clone (reduce-window.396: s32[], reduce-window.397: s32[]) -> s32[] {
  %reduce-window.396 = s32[]{:T(128)} parameter(0), metadata={op_name="reduce-window.38"}
  %reduce-window.397 = s32[]{:T(128)} parameter(1), metadata={op_name="reduce-window.38"}
  ROOT %reduce_window_sum.317 = s32[]{:T(128)} add(%reduce-window.396, %reduce-window.397), metadata={op_name="reduce_window_sum"}, backend_config={"flag_configs":[],"scoped_memory_configs":[],"used_scoped_memory_configs":[],"aliasing_operands":{"lists":[{"indices":["0","2"]}]}}
}

%region_69.83.clone (reduce-window.400: s32[], reduce-window.401: s32[]) -> s32[] {
  %reduce-window.400 = s32[]{:T(128)} parameter(0), metadata={op_name="reduce-window.64"}
  %reduce-window.401 = s32[]{:T(128)} parameter(1), metadata={op_name="reduce-window.64"}
  ROOT %reduce_window_sum.319 = s32[]{:T(128)} add(%reduce-window.400, %reduce-window.401), metadata={op_name="reduce_window_sum"}, backend_config={"flag_configs":[],"scoped_memory_configs":[],"used_scoped_memory_configs":[],"aliasing_operands":{"lists":[{"indices":["0","2"]}]}}
}

%region_71.85.clone (reduce-window.404: s32[], reduce-window.405: s32[]) -> s32[] {
  %reduce-window.404 = s32[]{:T(128)} parameter(0), metadata={op_name="reduce-window.40"}
  %reduce-window.405 = s32[]{:T(128)} parameter(1), metadata={op_name="reduce-window.40"}
  ROOT %reduce_window_sum.321 = s32[]{:T(128)} add(%reduce-window.404, %reduce-window.405), metadata={op_name="reduce_window_sum"}, backend_config={"flag_configs":[],"scoped_memory_configs":[],"used_scoped_memory_configs":[],"aliasing_operands":{"lists":[{"indices":["0","2"]}]}}
}

%region_72.86.clone (reduce-window.408: s32[], reduce-window.409: s32[]) -> s32[] {
  %reduce-window.408 = s32[]{:T(128)} parameter(0), metadata={op_name="reduce-window.65"}
  %reduce-window.409 = s32[]{:T(128)} parameter(1), metadata={op_name="reduce-window.65"}
  ROOT %reduce_window_sum.323 = s32[]{:T(128)} add(%reduce-window.408, %reduce-window.409), metadata={op_name="reduce_window_sum"}, backend_config={"flag_configs":[],"scoped_memory_configs":[],"used_scoped_memory_configs":[],"aliasing_operands":{"lists":[{"indices":["0","2"]}]}}
}

%region_74.88.clone (reduce-window.412: s32[], reduce-window.413: s32[]) -> s32[] {
  %reduce-window.412 = s32[]{:T(128)} parameter(0), metadata={op_name="reduce-window.42"}
  %reduce-window.413 = s32[]{:T(128)} parameter(1), metadata={op_name="reduce-window.42"}
  ROOT %reduce_window_sum.325 = s32[]{:T(128)} add(%reduce-window.412, %reduce-window.413), metadata={op_name="reduce_window_sum"}, backend_config={"flag_configs":[],"scoped_memory_configs":[],"used_scoped_memory_configs":[],"aliasing_operands":{"lists":[{"indices":["0","2"]}]}}
}

%region_75.89.clone (reduce-window.416: s32[], reduce-window.417: s32[]) -> s32[] {
  %reduce-window.416 = s32[]{:T(128)} parameter(0), metadata={op_name="reduce-window.66"}
  %reduce-window.417 = s32[]{:T(128)} parameter(1), metadata={op_name="reduce-window.66"}
  ROOT %reduce_window_sum.327 = s32[]{:T(128)} add(%reduce-window.416, %reduce-window.417), metadata={op_name="reduce_window_sum"}, backend_config={"flag_configs":[],"scoped_memory_configs":[],"used_scoped_memory_configs":[],"aliasing_operands":{"lists":[{"indices":["0","2"]}]}}
}

%region_80.97.clone (reduce-window.420: s32[], reduce-window.421: s32[]) -> s32[] {
  %reduce-window.420 = s32[]{:T(128)} parameter(0), metadata={op_name="reduce-window.44"}
  %reduce-window.421 = s32[]{:T(128)} parameter(1), metadata={op_name="reduce-window.44"}
  ROOT %reduce_window_sum.329 = s32[]{:T(128)} add(%reduce-window.420, %reduce-window.421), metadata={op_name="reduce_window_sum"}, backend_config={"flag_configs":[],"scoped_memory_configs":[],"used_scoped_memory_configs":[],"aliasing_operands":{"lists":[{"indices":["0","2"]}]}}
}

%region_82.99.clone (reduce-window.424: s32[], reduce-window.425: s32[]) -> s32[] {
  %reduce-window.424 = s32[]{:T(128)} parameter(0), metadata={op_name="reduce-window.45"}
  %reduce-window.425 = s32[]{:T(128)} parameter(1), metadata={op_name="reduce-window.45"}
  ROOT %reduce_window_sum.331 = s32[]{:T(128)} add(%reduce-window.424, %reduce-window.425), metadata={op_name="reduce_window_sum"}, backend_config={"flag_configs":[],"scoped_memory_configs":[],"used_scoped_memory_configs":[],"aliasing_operands":{"lists":[{"indices":["0","2"]}]}}
}

%region_83.100.clone (reduce-window.428: s32[], reduce-window.429: s32[]) -> s32[] {
  %reduce-window.428 = s32[]{:T(128)} parameter(0), metadata={op_name="reduce-window.67"}
  %reduce-window.429 = s32[]{:T(128)} parameter(1), metadata={op_name="reduce-window.67"}
  ROOT %reduce_window_sum.333 = s32[]{:T(128)} add(%reduce-window.428, %reduce-window.429), metadata={op_name="reduce_window_sum"}, backend_config={"flag_configs":[],"scoped_memory_configs":[],"used_scoped_memory_configs":[],"aliasing_operands":{"lists":[{"indices":["0","2"]}]}}
}

%region_92.111 (reduce-window.174: s32[], reduce-window.175: s32[]) -> s32[] {
  %reduce-window.174 = s32[]{:T(128)} parameter(0), metadata={op_name="reduce-window.49"}
  %reduce-window.175 = s32[]{:T(128)} parameter(1), metadata={op_name="reduce-window.49"}
  ROOT %reduce_window_sum.138 = s32[]{:T(128)} add(%reduce-window.174, %reduce-window.175), metadata={op_name="reduce_window_sum"}, backend_config={"flag_configs":[],"scoped_memory_configs":[],"used_scoped_memory_configs":[],"aliasing_operands":{"lists":[{"indices":["0","2"]}]}}
}

%region_93.112 (reduce-window.179: s32[], reduce-window.180: s32[]) -> s32[] {
  %reduce-window.179 = s32[]{:T(128)} parameter(0), metadata={op_name="reduce-window.69"}
  %reduce-window.180 = s32[]{:T(128)} parameter(1), metadata={op_name="reduce-window.69"}
  ROOT %reduce_window_sum.139 = s32[]{:T(128)} add(%reduce-window.179, %reduce-window.180), metadata={op_name="reduce_window_sum"}, backend_config={"flag_configs":[],"scoped_memory_configs":[],"used_scoped_memory_configs":[],"aliasing_operands":{"lists":[{"indices":["0","2"]}]}}
}

%region_95.114 (reduce-window.184: s32[], reduce-window.185: s32[]) -> s32[] {
  %reduce-window.184 = s32[]{:T(128)} parameter(0), metadata={op_name="reduce-window.51"}
  %reduce-window.185 = s32[]{:T(128)} parameter(1), metadata={op_name="reduce-window.51"}
  ROOT %reduce_window_sum.140 = s32[]{:T(128)} add(%reduce-window.184, %reduce-window.185), metadata={op_name="reduce_window_sum"}, backend_config={"flag_configs":[],"scoped_memory_configs":[],"used_scoped_memory_configs":[],"aliasing_operands":{"lists":[{"indices":["0","2"]}]}}
}

%region_96.115 (reduce-window.189: s32[], reduce-window.190: s32[]) -> s32[] {
  %reduce-window.189 = s32[]{:T(128)} parameter(0), metadata={op_name="reduce-window.70"}
  %reduce-window.190 = s32[]{:T(128)} parameter(1), metadata={op_name="reduce-window.70"}
  ROOT %reduce_window_sum.141 = s32[]{:T(128)} add(%reduce-window.189, %reduce-window.190), metadata={op_name="reduce_window_sum"}, backend_config={"flag_configs":[],"scoped_memory_configs":[],"used_scoped_memory_configs":[],"aliasing_operands":{"lists":[{"indices":["0","2"]}]}}
}

%region_101.120 (reduce-window.194: s32[], reduce-window.195: s32[]) -> s32[] {
  %reduce-window.194 = s32[]{:T(128)} parameter(0), metadata={op_name="reduce-window.53"}
  %reduce-window.195 = s32[]{:T(128)} parameter(1), metadata={op_name="reduce-window.53"}
  ROOT %reduce_window_sum.142 = s32[]{:T(128)} add(%reduce-window.194, %reduce-window.195), metadata={op_name="reduce_window_sum"}, backend_config={"flag_configs":[],"scoped_memory_configs":[],"used_scoped_memory_configs":[],"aliasing_operands":{"lists":[{"indices":["0","2"]}]}}
}

%region_103.122 (reduce-window.199: s32[], reduce-window.200: s32[]) -> s32[] {
  %reduce-window.199 = s32[]{:T(128)} parameter(0), metadata={op_name="reduce-window.54"}
  %reduce-window.200 = s32[]{:T(128)} parameter(1), metadata={op_name="reduce-window.54"}
  ROOT %reduce_window_sum.143 = s32[]{:T(128)} add(%reduce-window.199, %reduce-window.200), metadata={op_name="reduce_window_sum"}, backend_config={"flag_configs":[],"scoped_memory_configs":[],"used_scoped_memory_configs":[],"aliasing_operands":{"lists":[{"indices":["0","2"]}]}}
}

%region_104.123 (reduce-window.204: s32[], reduce-window.205: s32[]) -> s32[] {
  %reduce-window.204 = s32[]{:T(128)} parameter(0), metadata={op_name="reduce-window.71"}
  %reduce-window.205 = s32[]{:T(128)} parameter(1), metadata={op_name="reduce-window.71"}
  ROOT %reduce_window_sum.144 = s32[]{:T(128)} add(%reduce-window.204, %reduce-window.205), metadata={op_name="reduce_window_sum"}, backend_config={"flag_configs":[],"scoped_memory_configs":[],"used_scoped_memory_configs":[],"aliasing_operands":{"lists":[{"indices":["0","2"]}]}}
}

%fused_computation.6 (param_0.20: bf16[129280,128], param_1.121: s32[1024]) -> bf16[512,128] {
  %param_0.20 = bf16[129280,128]{1,0:T(8,128)(2,1)S(1)} parameter(0)
  %param_1.121 = s32[1024]{0:T(1024)S(1)} parameter(1)
  %custom-call.18 = s32[1024]{0:T(1024)} custom-call(%param_1.121), custom_call_target="AssumeGatherIndicesInBound", operand_layout_constraints={s32[1024]{0:T(1024)}}, metadata={op_name="jit(train_step)/jvp()/gather" stack_frame_id=0}
  %slice.916 = s32[512]{0:T(512)} slice(%custom-call.18), slice={[0:512]}, metadata={op_name="jit(train_step)/jvp()/gather" stack_frame_id=0}
  %reshape.4235 = s32[4,128]{1,0:T(4,128)} reshape(%slice.916), metadata={op_name="jit(train_step)/jvp()/gather" stack_frame_id=0}
  %transpose.889 = s32[4,128]{1,0:T(4,128)} transpose(%reshape.4235), dimensions={0,1}, metadata={op_name="jit(train_step)/jvp()/gather" stack_frame_id=0}
  %gather.200 = bf16[4,128,128]{2,1,0:T(8,128)(2,1)} gather(%param_0.20, %transpose.889), offset_dims={2}, collapsed_slice_dims={0}, start_index_map={0}, index_vector_dim=2, slice_sizes={1,128}, metadata={op_name="jit(train_step)/jvp()/gather" stack_frame_id=0}
  %transpose.888 = bf16[4,128,128]{2,1,0:T(8,128)(2,1)} transpose(%gather.200), dimensions={0,1,2}, metadata={op_name="jit(train_step)/jvp()/gather" stack_frame_id=0}
  ROOT %reshape.4234 = bf16[512,128]{1,0:T(8,128)(2,1)S(1)} reshape(%transpose.888), metadata={op_name="jit(train_step)/jvp()/gather" stack_frame_id=0}
}

%fused_computation.7 (param_0.23: f32[163840,32], param_1.123: s32[1024]) -> f32[128,32] {
  %param_0.23 = f32[163840,32]{1,0:T(8,128)} parameter(0)
  %param_1.123 = s32[1024]{0:T(1024)S(1)} parameter(1)
  %custom-call.20 = s32[1024]{0:T(1024)} custom-call(%param_1.123), custom_call_target="AssumeGatherIndicesInBound", operand_layout_constraints={s32[1024]{0:T(1024)}}, metadata={op_name="jit(train_step)/gather" stack_frame_id=0}
  %slice.918 = s32[128]{0:T(128)} slice(%custom-call.20), slice={[0:128]}, metadata={op_name="jit(train_step)/gather" stack_frame_id=0}
  %reshape.4243 = s32[128]{0:T(128)} reshape(%slice.918), metadata={op_name="jit(train_step)/broadcast_in_dim" stack_frame_id=0}
  %transpose.895 = s32[128]{0:T(128)} transpose(%reshape.4243), dimensions={0}, metadata={op_name="jit(train_step)/broadcast_in_dim" stack_frame_id=0}
  %gather.202 = f32[128,32]{1,0:T(8,128)} gather(%param_0.23, %transpose.895), offset_dims={1}, collapsed_slice_dims={0}, start_index_map={0}, index_vector_dim=1, slice_sizes={1,32}, metadata={op_name="jit(train_step)/gather" stack_frame_id=0}
  %transpose.894 = f32[128,32]{1,0:T(8,128)} transpose(%gather.202), dimensions={0,1}, metadata={op_name="jit(train_step)/gather" stack_frame_id=0}
  ROOT %reshape.4242 = f32[128,32]{1,0:T(8,128)S(1)} reshape(%transpose.894), metadata={op_name="jit(train_step)/gather" stack_frame_id=0}
}

%fused_computation.8 (param_0.26: f32[163840,32], param_1.125: s32[1024]) -> f32[128,32] {
  %param_0.26 = f32[163840,32]{1,0:T(8,128)} parameter(0)
  %param_1.125 = s32[1024]{0:T(1024)S(1)} parameter(1)
  %custom-call.22 = s32[1024]{0:T(1024)} custom-call(%param_1.125), custom_call_target="AssumeGatherIndicesInBound", operand_layout_constraints={s32[1024]{0:T(1024)}}, metadata={op_name="jit(train_step)/gather" stack_frame_id=0}
  %slice.920 = s32[128]{0:T(128)} slice(%custom-call.22), slice={[0:128]}, metadata={op_name="jit(train_step)/gather" stack_frame_id=0}
  %reshape.4251 = s32[128]{0:T(128)} reshape(%slice.920), metadata={op_name="jit(train_step)/broadcast_in_dim" stack_frame_id=0}
  %transpose.901 = s32[128]{0:T(128)} transpose(%reshape.4251), dimensions={0}, metadata={op_name="jit(train_step)/broadcast_in_dim" stack_frame_id=0}
  %gather.204 = f32[128,32]{1,0:T(8,128)} gather(%param_0.26, %transpose.901), offset_dims={1}, collapsed_slice_dims={0}, start_index_map={0}, index_vector_dim=1, slice_sizes={1,32}, metadata={op_name="jit(train_step)/gather" stack_frame_id=0}
  %transpose.900 = f32[128,32]{1,0:T(8,128)} transpose(%gather.204), dimensions={0,1}, metadata={op_name="jit(train_step)/gather" stack_frame_id=0}
  ROOT %reshape.4250 = f32[128,32]{1,0:T(8,128)S(1)} reshape(%transpose.900), metadata={op_name="jit(train_step)/gather" stack_frame_id=0}
}

%fused_computation.9 (param_0.29: f32[163840,32], param_1.133: s32[1024]) -> f32[128,32] {
  %param_0.29 = f32[163840,32]{1,0:T(8,128)} parameter(0)
  %param_1.133 = s32[1024]{0:T(1024)S(1)} parameter(1)
  %custom-call.30 = s32[1024]{0:T(1024)} custom-call(%param_1.133), custom_call_target="AssumeGatherIndicesInBound", operand_layout_constraints={s32[1024]{0:T(1024)}}, metadata={op_name="jit(train_step)/transpose(jvp())/while/body/closed_call/checkpoint/rematted_computation/gather" stack_frame_id=0}
  %slice.928 = s32[128]{0:T(128)} slice(%custom-call.30), slice={[0:128]}, metadata={op_name="jit(train_step)/transpose(jvp())/while/body/closed_call/checkpoint/rematted_computation/gather" stack_frame_id=0}
  %reshape.4259 = s32[128]{0:T(128)} reshape(%slice.928), metadata={op_name="jit(train_step)/transpose(jvp())/while/body/closed_call/checkpoint/rematted_computation/select_n" stack_frame_id=0}
  %transpose.907 = s32[128]{0:T(128)} transpose(%reshape.4259), dimensions={0}, metadata={op_name="jit(train_step)/transpose(jvp())/while/body/closed_call/checkpoint/rematted_computation/select_n" stack_frame_id=0}
  %gather.206 = f32[128,32]{1,0:T(8,128)} gather(%param_0.29, %transpose.907), offset_dims={1}, collapsed_slice_dims={0}, start_index_map={0}, index_vector_dim=1, slice_sizes={1,32}, metadata={op_name="jit(train_step)/transpose(jvp())/while/body/closed_call/checkpoint/rematted_computation/gather" stack_frame_id=0}
  %transpose.906 = f32[128,32]{1,0:T(8,128)} transpose(%gather.206), dimensions={0,1}, metadata={op_name="jit(train_step)/transpose(jvp())/while/body/closed_call/checkpoint/rematted_computation/gather" stack_frame_id=0}
  ROOT %reshape.4258 = f32[128,32]{1,0:T(8,128)} reshape(%transpose.906), metadata={op_name="jit(train_step)/transpose(jvp())/while/body/closed_call/checkpoint/rematted_computation/gather" stack_frame_id=0}
}

%fused_computation.10 (param_0.32: f32[163840,32], param_1.135: s32[1024]) -> f32[128,32] {
  %param_0.32 = f32[163840,32]{1,0:T(8,128)} parameter(0)
  %param_1.135 = s32[1024]{0:T(1024)S(1)} parameter(1)
  %custom-call.32 = s32[1024]{0:T(1024)} custom-call(%param_1.135), custom_call_target="AssumeGatherIndicesInBound", operand_layout_constraints={s32[1024]{0:T(1024)}}, metadata={op_name="jit(train_step)/transpose(jvp())/while/body/closed_call/checkpoint/rematted_computation/gather" stack_frame_id=0}
  %slice.930 = s32[128]{0:T(128)} slice(%custom-call.32), slice={[0:128]}, metadata={op_name="jit(train_step)/transpose(jvp())/while/body/closed_call/checkpoint/rematted_computation/gather" stack_frame_id=0}
  %reshape.4267 = s32[128]{0:T(128)} reshape(%slice.930), metadata={op_name="jit(train_step)/transpose(jvp())/while/body/closed_call/checkpoint/rematted_computation/select_n" stack_frame_id=0}
  %transpose.913 = s32[128]{0:T(128)} transpose(%reshape.4267), dimensions={0}, metadata={op_name="jit(train_step)/transpose(jvp())/while/body/closed_call/checkpoint/rematted_computation/select_n" stack_frame_id=0}
  %gather.208 = f32[128,32]{1,0:T(8,128)} gather(%param_0.32, %transpose.913), offset_dims={1}, collapsed_slice_dims={0}, start_index_map={0}, index_vector_dim=1, slice_sizes={1,32}, metadata={op_name="jit(train_step)/transpose(jvp())/while/body/closed_call/checkpoint/rematted_computation/gather" stack_frame_id=0}
  %transpose.912 = f32[128,32]{1,0:T(8,128)} transpose(%gather.208), dimensions={0,1}, metadata={op_name="jit(train_step)/transpose(jvp())/while/body/closed_call/checkpoint/rematted_computation/gather" stack_frame_id=0}
  ROOT %reshape.4266 = f32[128,32]{1,0:T(8,128)} reshape(%transpose.912), metadata={op_name="jit(train_step)/transpose(jvp())/while/body/closed_call/checkpoint/rematted_computation/gather" stack_frame_id=0}
}

%fused_computation.11 (param_0.35: bf16[1024,512], param_1.139: s32[1024]) -> bf16[1024,512] {
  %param_0.35 = bf16[1024,512]{1,0:T(8,128)(2,1)S(1)} parameter(0)
  %param_1.139 = s32[1024]{0:T(1024)S(1)} parameter(1)
  %custom-call.36 = s32[1024]{0:T(1024)} custom-call(%param_1.139), custom_call_target="AssumeGatherIndicesInBound", operand_layout_constraints={s32[1024]{0:T(1024)}}, metadata={op_name="jit(train_step)/transpose(jvp())/while/body/closed_call/checkpoint/rematted_computation/shard_map/sort_activations/gather" stack_frame_id=0}
  %slice.934 = s32[1024]{0:T(1024)} slice(%custom-call.36), slice={[0:1024]}, metadata={op_name="jit(train_step)/transpose(jvp())/while/body/closed_call/checkpoint/rematted_computation/shard_map/sort_activations/gather" stack_frame_id=0}
  %reshape.4275 = s32[1024]{0:T(1024)} reshape(%slice.934), metadata={op_name="jit(train_step)/transpose(jvp())/while/body/closed_call/checkpoint/rematted_computation/shard_map/sort_activations/broadcast_in_dim" stack_frame_id=0}
  %transpose.919 = s32[1024]{0:T(1024)} transpose(%reshape.4275), dimensions={0}, metadata={op_name="jit(train_step)/transpose(jvp())/while/body/closed_call/checkpoint/rematted_computation/shard_map/sort_activations/broadcast_in_dim" stack_frame_id=0}
  %gather.210 = bf16[1024,512]{1,0:T(8,128)(2,1)} gather(%param_0.35, %transpose.919), offset_dims={1}, collapsed_slice_dims={0}, start_index_map={0}, index_vector_dim=1, slice_sizes={1,512}, metadata={op_name="jit(train_step)/transpose(jvp())/while/body/closed_call/checkpoint/rematted_computation/shard_map/sort_activations/gather" stack_frame_id=0}
  %transpose.918 = bf16[1024,512]{1,0:T(8,128)(2,1)} transpose(%gather.210), dimensions={0,1}, metadata={op_name="jit(train_step)/transpose(jvp())/while/body/closed_call/checkpoint/rematted_computation/shard_map/sort_activations/gather" stack_frame_id=0}
  ROOT %reshape.4274 = bf16[1024,512]{1,0:T(8,128)(2,1)} reshape(%transpose.918), metadata={op_name="jit(train_step)/transpose(jvp())/while/body/closed_call/checkpoint/rematted_computation/shard_map/sort_activations/gather" stack_frame_id=0}
}

%fused_computation.12 (param_0.38: bf16[128,256], param_1.44: s32[1024]) -> bf16[1024] {
  %param_0.38 = bf16[128,256]{1,0:T(8,128)(2,1)S(1)} parameter(0)
  %constant.3895 = s32[]{:T(128)} constant(127), metadata={op_name="jit(train_step)/transpose(jvp())/while/body/closed_call/checkpoint/rematted_computation/shard_map/jit(take_along_axis)/gather" stack_frame_id=0}
  %broadcast.3457 = s32[128,8,1]{2,1,0:T(8,128)} broadcast(%constant.3895), dimensions={}, metadata={op_name="jit(train_step)/transpose(jvp())/while/body/closed_call/checkpoint/rematted_computation/shard_map/jit(take_along_axis)/gather" stack_frame_id=0}
  %param_1.44 = s32[1024]{0:T(1024)S(1)} parameter(1)
  %reshape.4283 = s32[128,8,1]{2,1,0:T(8,128)} reshape(%param_1.44), metadata={op_name="jit(train_step)/transpose(jvp())/while/body/closed_call/checkpoint/rematted_computation/shard_map/jit(take_along_axis)/gather" stack_frame_id=0}
  %transpose.925 = s32[128,8,1]{2,1,0:T(8,128)} transpose(%reshape.4283), dimensions={0,1,2}, metadata={op_name="jit(train_step)/transpose(jvp())/while/body/closed_call/checkpoint/rematted_computation/shard_map/jit(take_along_axis)/gather" stack_frame_id=0}
  %and.347 = s32[128,8,1]{2,1,0:T(8,128)} and(%broadcast.3457, %transpose.925), metadata={op_name="jit(train_step)/transpose(jvp())/while/body/closed_call/checkpoint/rematted_computation/shard_map/jit(take_along_axis)/gather" stack_frame_id=0}
  %constant.3894 = s32[]{:T(128)} constant(0), metadata={op_name="jit(train_step)/transpose(jvp())/while/body/closed_call/checkpoint/rematted_computation/shard_map/jit(take_along_axis)/gather" stack_frame_id=0}
  %broadcast.3456 = s32[128,8,1]{2,1,0:T(8,128)} broadcast(%constant.3894), dimensions={}, metadata={op_name="jit(train_step)/transpose(jvp())/while/body/closed_call/checkpoint/rematted_computation/shard_map/jit(take_along_axis)/gather" stack_frame_id=0}
  %shift-right-logical.22 = s32[128,8,1]{2,1,0:T(8,128)} shift-right-logical(%and.347, %broadcast.3456), metadata={op_name="jit(train_step)/transpose(jvp())/while/body/closed_call/checkpoint/rematted_computation/shard_map/jit(take_along_axis)/gather" stack_frame_id=0}
  %constant.3893 = s32[]{:T(128)} constant(32640), metadata={op_name="jit(train_step)/transpose(jvp())/while/body/closed_call/checkpoint/rematted_computation/shard_map/jit(take_along_axis)/gather" stack_frame_id=0}
  %broadcast.3455 = s32[128,8,1]{2,1,0:T(8,128)} broadcast(%constant.3893), dimensions={}, metadata={op_name="jit(train_step)/transpose(jvp())/while/body/closed_call/checkpoint/rematted_computation/shard_map/jit(take_along_axis)/gather" stack_frame_id=0}
  %and.346 = s32[128,8,1]{2,1,0:T(8,128)} and(%broadcast.3455, %transpose.925), metadata={op_name="jit(train_step)/transpose(jvp())/while/body/closed_call/checkpoint/rematted_computation/shard_map/jit(take_along_axis)/gather" stack_frame_id=0}
  %constant.3892 = s32[]{:T(128)} constant(7), metadata={op_name="jit(train_step)/transpose(jvp())/while/body/closed_call/checkpoint/rematted_computation/shard_map/jit(take_along_axis)/gather" stack_frame_id=0}
  %broadcast.3454 = s32[128,8,1]{2,1,0:T(8,128)} broadcast(%constant.3892), dimensions={}, metadata={op_name="jit(train_step)/transpose(jvp())/while/body/closed_call/checkpoint/rematted_computation/shard_map/jit(take_along_axis)/gather" stack_frame_id=0}
  %shift-right-logical.21 = s32[128,8,1]{2,1,0:T(8,128)} shift-right-logical(%and.346, %broadcast.3454), metadata={op_name="jit(train_step)/transpose(jvp())/while/body/closed_call/checkpoint/rematted_computation/shard_map/jit(take_along_axis)/gather" stack_frame_id=0}
  %concatenate.405 = s32[128,8,2]{2,1,0:T(8,128)} concatenate(%shift-right-logical.22, %shift-right-logical.21), dimensions={2}, metadata={op_name="jit(train_step)/transpose(jvp())/while/body/closed_call/checkpoint/rematted_computation/shard_map/jit(take_along_axis)/gather" stack_frame_id=0}
  %custom-call.3 = s32[128,8,2]{2,1,0:T(8,128)} custom-call(%concatenate.405), custom_call_target="GatherScatterIndicesBitpacked", metadata={op_name="jit(train_step)/transpose(jvp())/while/body/closed_call/checkpoint/rematted_computation/shard_map/jit(take_along_axis)/gather" stack_frame_id=0}
  %gather.212 = bf16[128,8]{1,0:T(8,128)(2,1)} gather(%param_0.38, %custom-call.3), offset_dims={}, collapsed_slice_dims={0,1}, start_index_map={0,1}, index_vector_dim=2, slice_sizes={1,1}, metadata={op_name="jit(train_step)/transpose(jvp())/while/body/closed_call/checkpoint/rematted_computation/shard_map/jit(take_along_axis)/gather" stack_frame_id=0}
  %transpose.924 = bf16[128,8]{1,0:T(8,128)(2,1)} transpose(%gather.212), dimensions={0,1}, metadata={op_name="jit(train_step)/transpose(jvp())/while/body/closed_call/checkpoint/rematted_computation/shard_map/jit(take_along_axis)/gather" stack_frame_id=0}
  ROOT %reshape.4282 = bf16[1024]{0:T(1024)(128)(2,1)S(1)} reshape(%transpose.924), metadata={op_name="jit(train_step)/transpose(jvp())/while/body/closed_call/checkpoint/rematted_computation/shard_map/jit(take_along_axis)/gather" stack_frame_id=0}
}

%fused_computation.13 (param_0.41: bf16[1024,512], param_1.141: s32[1024]) -> bf16[1024,512] {
  %param_0.41 = bf16[1024,512]{1,0:T(8,128)(2,1)S(1)} parameter(0)
  %param_1.141 = s32[1024]{0:T(1024)S(1)} parameter(1)
  %custom-call.38 = s32[1024]{0:T(1024)} custom-call(%param_1.141), custom_call_target="AssumeGatherIndicesInBound", operand_layout_constraints={s32[1024]{0:T(1024)}}, metadata={op_name="jit(train_step)/transpose(jvp())/while/body/closed_call/checkpoint/shard_map/sort_activations/gather" stack_frame_id=0}
  %slice.936 = s32[1024]{0:T(1024)} slice(%custom-call.38), slice={[0:1024]}, metadata={op_name="jit(train_step)/transpose(jvp())/while/body/closed_call/checkpoint/shard_map/sort_activations/gather" stack_frame_id=0}
  %reshape.4291 = s32[1024]{0:T(1024)} reshape(%slice.936), metadata={op_name="jit(train_step)/transpose(jvp())/while/body/closed_call/checkpoint/shard_map/sort_activations/broadcast_in_dim" stack_frame_id=0}
  %transpose.931 = s32[1024]{0:T(1024)} transpose(%reshape.4291), dimensions={0}, metadata={op_name="jit(train_step)/transpose(jvp())/while/body/closed_call/checkpoint/shard_map/sort_activations/broadcast_in_dim" stack_frame_id=0}
  %gather.214 = bf16[1024,512]{1,0:T(8,128)(2,1)} gather(%param_0.41, %transpose.931), offset_dims={1}, collapsed_slice_dims={0}, start_index_map={0}, index_vector_dim=1, slice_sizes={1,512}, metadata={op_name="jit(train_step)/transpose(jvp())/while/body/closed_call/checkpoint/shard_map/sort_activations/gather" stack_frame_id=0}
  %transpose.930 = bf16[1024,512]{1,0:T(8,128)(2,1)} transpose(%gather.214), dimensions={0,1}, metadata={op_name="jit(train_step)/transpose(jvp())/while/body/closed_call/checkpoint/shard_map/sort_activations/gather" stack_frame_id=0}
  ROOT %reshape.4290 = bf16[1024,512]{1,0:T(8,128)(2,1)S(1)} reshape(%transpose.930), metadata={op_name="jit(train_step)/transpose(jvp())/while/body/closed_call/checkpoint/shard_map/sort_activations/gather" stack_frame_id=0}
}

%fused_computation.14 (param_0.44: bf16[1024,512], param_1.143: s32[1024]) -> bf16[1024,512] {
  %param_0.44 = bf16[1024,512]{1,0:T(8,128)(2,1)S(1)} parameter(0)
  %param_1.143 = s32[1024]{0:T(1024)S(1)} parameter(1)
  %custom-call.40 = s32[1024]{0:T(1024)} custom-call(%param_1.143), custom_call_target="AssumeGatherIndicesInBound", operand_layout_constraints={s32[1024]{0:T(1024)}}, metadata={op_name="jit(train_step)/transpose(jvp())/while/body/closed_call/checkpoint/shard_map/sort_activations/gather" stack_frame_id=0}
  %slice.938 = s32[1024]{0:T(1024)} slice(%custom-call.40), slice={[0:1024]}, metadata={op_name="jit(train_step)/transpose(jvp())/while/body/closed_call/checkpoint/shard_map/sort_activations/gather" stack_frame_id=0}
  %reshape.4299 = s32[1024]{0:T(1024)} reshape(%slice.938), metadata={op_name="jit(train_step)/transpose(jvp())/while/body/closed_call/checkpoint/shard_map/sort_activations/broadcast_in_dim" stack_frame_id=0}
  %transpose.937 = s32[1024]{0:T(1024)} transpose(%reshape.4299), dimensions={0}, metadata={op_name="jit(train_step)/transpose(jvp())/while/body/closed_call/checkpoint/shard_map/sort_activations/broadcast_in_dim" stack_frame_id=0}
  %gather.216 = bf16[1024,512]{1,0:T(8,128)(2,1)} gather(%param_0.44, %transpose.937), offset_dims={1}, collapsed_slice_dims={0}, start_index_map={0}, index_vector_dim=1, slice_sizes={1,512}, metadata={op_name="jit(train_step)/transpose(jvp())/while/body/closed_call/checkpoint/shard_map/sort_activations/gather" stack_frame_id=0}
  %transpose.936 = bf16[1024,512]{1,0:T(8,128)(2,1)} transpose(%gather.216), dimensions={0,1}, metadata={op_name="jit(train_step)/transpose(jvp())/while/body/closed_call/checkpoint/shard_map/sort_activations/gather" stack_frame_id=0}
  ROOT %reshape.4298 = bf16[1024,512]{1,0:T(8,128)(2,1)S(1)} reshape(%transpose.936), metadata={op_name="jit(train_step)/transpose(jvp())/while/body/closed_call/checkpoint/shard_map/sort_activations/gather" stack_frame_id=0}
}

%fused_computation.15 (param_0.47: bf16[1024,512], param_1.145: s32[1024]) -> bf16[1024,512] {
  %param_0.47 = bf16[1024,512]{1,0:T(8,128)(2,1)S(1)} parameter(0)
  %param_1.145 = s32[1024]{0:T(1024)S(1)} parameter(1)
  %custom-call.42 = s32[1024]{0:T(1024)} custom-call(%param_1.145), custom_call_target="AssumeGatherIndicesInBound", operand_layout_constraints={s32[1024]{0:T(1024)}}, metadata={op_name="jit(train_step)/transpose(jvp())/while/body/closed_call/checkpoint/rematted_computation/shard_map/sort_activations/gather" stack_frame_id=0}
  %slice.940 = s32[1024]{0:T(1024)} slice(%custom-call.42), slice={[0:1024]}, metadata={op_name="jit(train_step)/transpose(jvp())/while/body/closed_call/checkpoint/rematted_computation/shard_map/sort_activations/gather" stack_frame_id=0}
  %reshape.4307 = s32[1024]{0:T(1024)} reshape(%slice.940), metadata={op_name="jit(train_step)/transpose(jvp())/while/body/closed_call/checkpoint/shard_map/sort_activations/broadcast_in_dim" stack_frame_id=0}
  %transpose.943 = s32[1024]{0:T(1024)} transpose(%reshape.4307), dimensions={0}, metadata={op_name="jit(train_step)/transpose(jvp())/while/body/closed_call/checkpoint/shard_map/sort_activations/broadcast_in_dim" stack_frame_id=0}
  %gather.218 = bf16[1024,512]{1,0:T(8,128)(2,1)} gather(%param_0.47, %transpose.943), offset_dims={1}, collapsed_slice_dims={0}, start_index_map={0}, index_vector_dim=1, slice_sizes={1,512}, metadata={op_name="jit(train_step)/transpose(jvp())/while/body/closed_call/checkpoint/rematted_computation/shard_map/sort_activations/gather" stack_frame_id=0}
  %transpose.942 = bf16[1024,512]{1,0:T(8,128)(2,1)} transpose(%gather.218), dimensions={0,1}, metadata={op_name="jit(train_step)/transpose(jvp())/while/body/closed_call/checkpoint/rematted_computation/shard_map/sort_activations/gather" stack_frame_id=0}
  ROOT %reshape.4306 = bf16[1024,512]{1,0:T(8,128)(2,1)S(1)} reshape(%transpose.942), metadata={op_name="jit(train_step)/transpose(jvp())/while/body/closed_call/checkpoint/rematted_computation/shard_map/sort_activations/gather" stack_frame_id=0}
}

%fused_computation.17 (param_0.53: s32[256], param_1.137: s32[1024]) -> s32[257] {
  %param_0.53 = s32[256]{0:T(256)S(1)} parameter(0)
  %param_1.137 = s32[1024]{0:T(1024)S(1)} parameter(1)
  %custom-call.34 = s32[1024]{0:T(1024)} custom-call(%param_1.137), custom_call_target="AssumeGatherIndicesInBound", operand_layout_constraints={s32[1024]{0:T(1024)}}, metadata={op_name="jit(train_step)/transpose(jvp())/while/body/closed_call/checkpoint/shard_map/jit(gmm)/jit(_take)/gather" stack_frame_id=0}
  %slice.932 = s32[257]{0:T(512)} slice(%custom-call.34), slice={[0:257]}, metadata={op_name="jit(train_step)/transpose(jvp())/while/body/closed_call/checkpoint/shard_map/jit(gmm)/jit(_take)/gather" stack_frame_id=0}
  %reshape.4332 = s32[257]{0:T(512)} reshape(%slice.932), metadata={op_name="jit(train_step)/transpose(jvp())/while/body/closed_call/checkpoint/shard_map/jit(gmm)/jit(_take)/broadcast_in_dim" stack_frame_id=0}
  %transpose.959 = s32[257]{0:T(512)} transpose(%reshape.4332), dimensions={0}, metadata={op_name="jit(train_step)/transpose(jvp())/while/body/closed_call/checkpoint/shard_map/jit(gmm)/jit(_take)/broadcast_in_dim" stack_frame_id=0}
  %gather.223 = s32[257]{0:T(512)} gather(%param_0.53, %transpose.959), offset_dims={}, collapsed_slice_dims={0}, start_index_map={0}, index_vector_dim=1, slice_sizes={1}, metadata={op_name="jit(train_step)/transpose(jvp())/while/body/closed_call/checkpoint/shard_map/jit(gmm)/jit(_take)/gather" stack_frame_id=0}
  %transpose.958 = s32[257]{0:T(512)} transpose(%gather.223), dimensions={0}, metadata={op_name="jit(train_step)/transpose(jvp())/while/body/closed_call/checkpoint/shard_map/jit(gmm)/jit(_take)/gather" stack_frame_id=0}
  ROOT %reshape.4331 = s32[257]{0:T(512)S(1)} reshape(%transpose.958), metadata={op_name="jit(train_step)/transpose(jvp())/while/body/closed_call/checkpoint/shard_map/jit(gmm)/jit(_take)/gather" stack_frame_id=0}
}

%fused_computation.18 (param_0.56: s32[256], param_1.147: s32[1024]) -> s32[257] {
  %param_0.56 = s32[256]{0:T(256)S(1)} parameter(0)
  %param_1.147 = s32[1024]{0:T(1024)S(1)} parameter(1)
  %custom-call.44 = s32[1024]{0:T(1024)} custom-call(%param_1.147), custom_call_target="AssumeGatherIndicesInBound", operand_layout_constraints={s32[1024]{0:T(1024)}}, metadata={op_name="jit(train_step)/transpose(jvp())/while/body/closed_call/checkpoint/shard_map/jit(tgmm)/jit(_take)/gather" stack_frame_id=0}
  %slice.942 = s32[257]{0:T(512)} slice(%custom-call.44), slice={[0:257]}, metadata={op_name="jit(train_step)/transpose(jvp())/while/body/closed_call/checkpoint/shard_map/jit(tgmm)/jit(_take)/gather" stack_frame_id=0}
  %reshape.4349 = s32[257]{0:T(512)} reshape(%slice.942), metadata={op_name="jit(train_step)/transpose(jvp())/while/body/closed_call/checkpoint/shard_map/jit(tgmm)/jit(_take)/broadcast_in_dim" stack_frame_id=0}
  %transpose.969 = s32[257]{0:T(512)} transpose(%reshape.4349), dimensions={0}, metadata={op_name="jit(train_step)/transpose(jvp())/while/body/closed_call/checkpoint/shard_map/jit(tgmm)/jit(_take)/broadcast_in_dim" stack_frame_id=0}
  %gather.226 = s32[257]{0:T(512)} gather(%param_0.56, %transpose.969), offset_dims={}, collapsed_slice_dims={0}, start_index_map={0}, index_vector_dim=1, slice_sizes={1}, metadata={op_name="jit(train_step)/transpose(jvp())/while/body/closed_call/checkpoint/shard_map/jit(tgmm)/jit(_take)/gather" stack_frame_id=0}
  %transpose.968 = s32[257]{0:T(512)} transpose(%gather.226), dimensions={0}, metadata={op_name="jit(train_step)/transpose(jvp())/while/body/closed_call/checkpoint/shard_map/jit(tgmm)/jit(_take)/gather" stack_frame_id=0}
  ROOT %reshape.4348 = s32[257]{0:T(512)S(1)} reshape(%transpose.968), metadata={op_name="jit(train_step)/transpose(jvp())/while/body/closed_call/checkpoint/shard_map/jit(tgmm)/jit(_take)/gather" stack_frame_id=0}
}

%region_163.189.clone (scatter-add.94: bf16[], scatter-add.96: bf16[]) -> bf16[] {
  %scatter-add.94 = bf16[]{:T(256)} parameter(0), metadata={op_name="jit(train_step)/transpose(jvp())/scatter-add"}
  %scatter-add.96 = bf16[]{:T(256)} parameter(1), metadata={op_name="jit(train_step)/transpose(jvp())/scatter-add"}
  ROOT %add.1991 = bf16[]{:T(256)} add(%scatter-add.94, %scatter-add.96), metadata={op_name="jit(train_step)/transpose(jvp())/add" stack_frame_id=0}, backend_config={"flag_configs":[],"scoped_memory_configs":[],"used_scoped_memory_configs":[],"aliasing_operands":{"lists":[]}}
}

%fused_computation.23 (param_0.61: bf16[129280,128], param_1.77: s32[512], param_2.38: bf16[512,128]) -> bf16[129280,128] {
  %param_0.61 = bf16[129280,128]{1,0:T(8,128)(2,1)S(1)} parameter(0)
  %param_1.77 = s32[512]{0:T(512)S(1)} parameter(1)
  %reshape.4397 = s32[4,128]{1,0:T(4,128)} reshape(%param_1.77), metadata={op_name="jit(train_step)/transpose(jvp())/scatter-add" stack_frame_id=0}
  %transpose.1002 = s32[4,128]{1,0:T(4,128)} transpose(%reshape.4397), dimensions={0,1}, metadata={op_name="jit(train_step)/transpose(jvp())/scatter-add" stack_frame_id=0}
  %param_2.38 = bf16[512,128]{1,0:T(8,128)(2,1)S(1)} parameter(2)
  %reshape.4398 = bf16[4,128,128]{2,1,0:T(8,128)(2,1)} reshape(%param_2.38), metadata={op_name="jit(train_step)/transpose(jvp())/scatter-add" stack_frame_id=0}
  %transpose.1003 = bf16[4,128,128]{2,1,0:T(8,128)(2,1)} transpose(%reshape.4398), dimensions={0,1,2}, metadata={op_name="jit(train_step)/transpose(jvp())/scatter-add" stack_frame_id=0}
  ROOT %scatter.73 = bf16[129280,128]{1,0:T(8,128)(2,1)S(1)} scatter(%param_0.61, %transpose.1002, %transpose.1003), update_window_dims={2}, inserted_window_dims={0}, scatter_dims_to_operand_dims={0}, index_vector_dim=2, to_apply=%region_163.189.clone, metadata={op_name="jit(train_step)/transpose(jvp())/scatter-add" stack_frame_id=0}
}

%region_12.18 (top_k.0: bf16[], top_k.6: bf16[], top_k.7: s32[], top_k.8: s32[]) -> pred[] {
  %constant.1399 = s32[]{:T(128)} constant(0)
  %constant.1400 = s32[]{:T(128)} constant(2147483647)
  %top_k.0 = bf16[]{:T(256)} parameter(0), metadata={op_name="top_k"}
  %top_k.6 = bf16[]{:T(256)} parameter(1), metadata={op_name="top_k"}
  %top_k.7 = s32[]{:T(128)} parameter(2), metadata={op_name="top_k"}
  %top_k.8 = s32[]{:T(128)} parameter(3), metadata={op_name="top_k"}
  %convert.384 = f32[]{:T(128)S(6)} convert(%top_k.0), metadata={op_name="convert.16"}, backend_config={"flag_configs":[],"scoped_memory_configs":[],"used_scoped_memory_configs":[],"aliasing_operands":{"lists":[]}}
  %bitcast-convert.35 = s32[]{:T(128)S(6)} bitcast-convert(%convert.384), metadata={op_name="bitcast-convert.6"}, backend_config={"flag_configs":[],"scoped_memory_configs":[],"used_scoped_memory_configs":[],"aliasing_operands":{"lists":[]}}
  %compare.128 = pred[]{:T(512)S(6)} compare(%bitcast-convert.35, %constant.1399), direction=LT, metadata={op_name="compare.35"}, backend_config={"flag_configs":[],"scoped_memory_configs":[],"used_scoped_memory_configs":[],"aliasing_operands":{"lists":[]}}
  %xor.36 = s32[]{:T(128)S(6)} xor(%constant.1400, %bitcast-convert.35), metadata={op_name="xor.6"}, backend_config={"flag_configs":[],"scoped_memory_configs":[],"used_scoped_memory_configs":[],"aliasing_operands":{"lists":[]}}
  %select.118 = s32[]{:T(128)S(6)} select(%compare.128, %xor.36, %bitcast-convert.35), metadata={op_name="select.14"}, backend_config={"flag_configs":[],"scoped_memory_configs":[],"used_scoped_memory_configs":[],"aliasing_operands":{"lists":[{"indices":["1","3"]}]}}
  %convert.385 = f32[]{:T(128)S(6)} convert(%top_k.6), metadata={op_name="convert.17"}, backend_config={"flag_configs":[],"scoped_memory_configs":[],"used_scoped_memory_configs":[],"aliasing_operands":{"lists":[]}}
  %bitcast-convert.36 = s32[]{:T(128)S(6)} bitcast-convert(%convert.385), metadata={op_name="bitcast-convert.7"}, backend_config={"flag_configs":[],"scoped_memory_configs":[],"used_scoped_memory_configs":[],"aliasing_operands":{"lists":[]}}
  %compare.129 = pred[]{:T(512)S(6)} compare(%bitcast-convert.36, %constant.1399), direction=LT, metadata={op_name="compare.36"}, backend_config={"flag_configs":[],"scoped_memory_configs":[],"used_scoped_memory_configs":[],"aliasing_operands":{"lists":[]}}
  %xor.37 = s32[]{:T(128)S(6)} xor(%constant.1400, %bitcast-convert.36), metadata={op_name="xor.7"}, backend_config={"flag_configs":[],"scoped_memory_configs":[],"used_scoped_memory_configs":[],"aliasing_operands":{"lists":[]}}
  %select.119 = s32[]{:T(128)S(6)} select(%compare.129, %xor.37, %bitcast-convert.36), metadata={op_name="select.15"}, backend_config={"flag_configs":[],"scoped_memory_configs":[],"used_scoped_memory_configs":[],"aliasing_operands":{"lists":[{"indices":["1","3"]}]}}
  %compare.130 = pred[]{:T(512)S(6)} compare(%select.118, %select.119), direction=GT, metadata={op_name="compare.1"}, backend_config={"flag_configs":[],"scoped_memory_configs":[],"used_scoped_memory_configs":[],"aliasing_operands":{"lists":[]}}
  %compare.131 = pred[]{:T(512)S(6)} compare(%select.119, %select.118), direction=GT, metadata={op_name="compare.108"}, backend_config={"flag_configs":[],"scoped_memory_configs":[],"used_scoped_memory_configs":[],"aliasing_operands":{"lists":[]}}
  %compare.132 = pred[]{:T(512)S(6)} compare(%compare.130, %compare.131), direction=EQ, metadata={op_name="compare.109"}, backend_config={"flag_configs":[],"scoped_memory_configs":[],"used_scoped_memory_configs":[],"aliasing_operands":{"lists":[]}}
  %compare.133 = pred[]{:T(512)S(6)} compare(%top_k.7, %top_k.8), direction=LT, metadata={op_name="compare.110"}, backend_config={"flag_configs":[],"scoped_memory_configs":[],"used_scoped_memory_configs":[],"aliasing_operands":{"lists":[]}}
  ROOT %select.120 = pred[]{:T(512)} select(%compare.132, %compare.133, %compare.130), metadata={op_name="select.108"}, backend_config={"flag_configs":[],"scoped_memory_configs":[],"used_scoped_memory_configs":[],"aliasing_operands":{"lists":[]}}
}

%region_15.21.clone.1 (reduce-window.326: s32[], reduce-window.327: s32[]) -> s32[] {
  %reduce-window.326 = s32[]{:T(128)} parameter(0), metadata={op_name="reduce-window.20"}
  %reduce-window.327 = s32[]{:T(128)} parameter(1), metadata={op_name="reduce-window.20"}
  ROOT %reduce_window_sum.282 = s32[]{:T(128)} add(%reduce-window.326, %reduce-window.327), metadata={op_name="reduce_window_sum"}, backend_config={"flag_configs":[],"scoped_memory_configs":[],"used_scoped_memory_configs":[],"aliasing_operands":{"lists":[{"indices":["0","2"]}]}}
}

%region_16.22.clone.1 (reduce-window.330: s32[], reduce-window.331: s32[]) -> s32[] {
  %reduce-window.330 = s32[]{:T(128)} parameter(0), metadata={op_name="reduce-window.56"}
  %reduce-window.331 = s32[]{:T(128)} parameter(1), metadata={op_name="reduce-window.56"}
  ROOT %reduce_window_sum.284 = s32[]{:T(128)} add(%reduce-window.330, %reduce-window.331), metadata={op_name="reduce_window_sum"}, backend_config={"flag_configs":[],"scoped_memory_configs":[],"used_scoped_memory_configs":[],"aliasing_operands":{"lists":[{"indices":["0","2"]}]}}
}

%region_18.24.clone.1 (reduce-window.334: s32[], reduce-window.335: s32[]) -> s32[] {
  %reduce-window.334 = s32[]{:T(128)} parameter(0), metadata={op_name="reduce-window.22"}
  %reduce-window.335 = s32[]{:T(128)} parameter(1), metadata={op_name="reduce-window.22"}
  ROOT %reduce_window_sum.286 = s32[]{:T(128)} add(%reduce-window.334, %reduce-window.335), metadata={op_name="reduce_window_sum"}, backend_config={"flag_configs":[],"scoped_memory_configs":[],"used_scoped_memory_configs":[],"aliasing_operands":{"lists":[{"indices":["0","2"]}]}}
}

%region_19.25.clone.1 (reduce-window.338: s32[], reduce-window.339: s32[]) -> s32[] {
  %reduce-window.338 = s32[]{:T(128)} parameter(0), metadata={op_name="reduce-window.57"}
  %reduce-window.339 = s32[]{:T(128)} parameter(1), metadata={op_name="reduce-window.57"}
  ROOT %reduce_window_sum.288 = s32[]{:T(128)} add(%reduce-window.338, %reduce-window.339), metadata={op_name="reduce_window_sum"}, backend_config={"flag_configs":[],"scoped_memory_configs":[],"used_scoped_memory_configs":[],"aliasing_operands":{"lists":[{"indices":["0","2"]}]}}
}

%region_21.27.clone.1 (reduce-window.342: s32[], reduce-window.343: s32[]) -> s32[] {
  %reduce-window.342 = s32[]{:T(128)} parameter(0), metadata={op_name="reduce-window.24"}
  %reduce-window.343 = s32[]{:T(128)} parameter(1), metadata={op_name="reduce-window.24"}
  ROOT %reduce_window_sum.290 = s32[]{:T(128)} add(%reduce-window.342, %reduce-window.343), metadata={op_name="reduce_window_sum"}, backend_config={"flag_configs":[],"scoped_memory_configs":[],"used_scoped_memory_configs":[],"aliasing_operands":{"lists":[{"indices":["0","2"]}]}}
}

%region_22.28.clone.1 (reduce-window.346: s32[], reduce-window.347: s32[]) -> s32[] {
  %reduce-window.346 = s32[]{:T(128)} parameter(0), metadata={op_name="reduce-window.58"}
  %reduce-window.347 = s32[]{:T(128)} parameter(1), metadata={op_name="reduce-window.58"}
  ROOT %reduce_window_sum.292 = s32[]{:T(128)} add(%reduce-window.346, %reduce-window.347), metadata={op_name="reduce_window_sum"}, backend_config={"flag_configs":[],"scoped_memory_configs":[],"used_scoped_memory_configs":[],"aliasing_operands":{"lists":[{"indices":["0","2"]}]}}
}

%fused_computation.5.clone (param_0.74: s32[256], param_1.127: s32[1024]) -> s32[257] {
  %param_0.74 = s32[256]{0:T(256)S(1)} parameter(0)
  %param_1.127 = s32[1024]{0:T(1024)S(1)} parameter(1)
  %custom-call.24 = s32[1024]{0:T(1024)} custom-call(%param_1.127), custom_call_target="AssumeGatherIndicesInBound", operand_layout_constraints={s32[1024]{0:T(1024)}}, metadata={op_name="jit(train_step)/jvp()/while/body/closed_call/shard_map/jit(gmm)/jit(_take)/gather" stack_frame_id=0}
  %slice.922 = s32[257]{0:T(512)} slice(%custom-call.24), slice={[0:257]}, metadata={op_name="jit(train_step)/jvp()/while/body/closed_call/shard_map/jit(gmm)/jit(_take)/gather" stack_frame_id=0}
  %reshape.4623 = s32[257]{0:T(512)} reshape(%slice.922), metadata={op_name="jit(train_step)/jvp()/while/body/closed_call/shard_map/jit(gmm)/jit(_take)/broadcast_in_dim" stack_frame_id=0}
  %transpose.1085 = s32[257]{0:T(512)} transpose(%reshape.4623), dimensions={0}, metadata={op_name="jit(train_step)/jvp()/while/body/closed_call/shard_map/jit(gmm)/jit(_take)/broadcast_in_dim" stack_frame_id=0}
  %gather.228 = s32[257]{0:T(512)} gather(%param_0.74, %transpose.1085), offset_dims={}, collapsed_slice_dims={0}, start_index_map={0}, index_vector_dim=1, slice_sizes={1}, metadata={op_name="jit(train_step)/jvp()/while/body/closed_call/shard_map/jit(gmm)/jit(_take)/gather" stack_frame_id=0}
  %transpose.1084 = s32[257]{0:T(512)} transpose(%gather.228), dimensions={0}, metadata={op_name="jit(train_step)/jvp()/while/body/closed_call/shard_map/jit(gmm)/jit(_take)/gather" stack_frame_id=0}
  ROOT %reshape.4622 = s32[257]{0:T(512)S(1)} reshape(%transpose.1084), metadata={op_name="jit(train_step)/jvp()/while/body/closed_call/shard_map/jit(gmm)/jit(_take)/gather" stack_frame_id=0}
}

%region_27.34.clone.1 (reduce-window.350: s32[], reduce-window.351: s32[]) -> s32[] {
  %reduce-window.350 = s32[]{:T(128)} parameter(0), metadata={op_name="reduce-window.26"}
  %reduce-window.351 = s32[]{:T(128)} parameter(1), metadata={op_name="reduce-window.26"}
  ROOT %reduce_window_sum.294 = s32[]{:T(128)} add(%reduce-window.350, %reduce-window.351), metadata={op_name="reduce_window_sum"}, backend_config={"flag_configs":[],"scoped_memory_configs":[],"used_scoped_memory_configs":[],"aliasing_operands":{"lists":[{"indices":["0","2"]}]}}
}

%region_29.36.clone.1 (reduce-window.354: s32[], reduce-window.355: s32[]) -> s32[] {
  %reduce-window.354 = s32[]{:T(128)} parameter(0), metadata={op_name="reduce-window.27"}
  %reduce-window.355 = s32[]{:T(128)} parameter(1), metadata={op_name="reduce-window.27"}
  ROOT %reduce_window_sum.296 = s32[]{:T(128)} add(%reduce-window.354, %reduce-window.355), metadata={op_name="reduce_window_sum"}, backend_config={"flag_configs":[],"scoped_memory_configs":[],"used_scoped_memory_configs":[],"aliasing_operands":{"lists":[{"indices":["0","2"]}]}}
}

%region_30.37.clone.1 (reduce-window.358: s32[], reduce-window.359: s32[]) -> s32[] {
  %reduce-window.358 = s32[]{:T(128)} parameter(0), metadata={op_name="reduce-window.59"}
  %reduce-window.359 = s32[]{:T(128)} parameter(1), metadata={op_name="reduce-window.59"}
  ROOT %reduce_window_sum.298 = s32[]{:T(128)} add(%reduce-window.358, %reduce-window.359), metadata={op_name="reduce_window_sum"}, backend_config={"flag_configs":[],"scoped_memory_configs":[],"used_scoped_memory_configs":[],"aliasing_operands":{"lists":[{"indices":["0","2"]}]}}
}

%region_13.19 (sort.44: s32[], sort.45: s32[], sort.46: s32[], sort.47: s32[], sort.48: s32[], sort.49: s32[]) -> pred[] {
  %sort.46 = s32[]{:T(128)} parameter(2), metadata={op_name="jit(argsort)/sort"}
  %sort.47 = s32[]{:T(128)} parameter(3), metadata={op_name="jit(argsort)/sort"}
  %sort.44 = s32[]{:T(128)} parameter(0), metadata={op_name="jit(argsort)/sort"}
  %sort.45 = s32[]{:T(128)} parameter(1), metadata={op_name="jit(argsort)/sort"}
  %sort.48 = s32[]{:T(128)} parameter(4), metadata={op_name="jit(argsort)/sort"}
  %sort.49 = s32[]{:T(128)} parameter(5), metadata={op_name="jit(argsort)/sort"}
  %lt_to.27 = pred[]{:T(512)S(6)} compare(%sort.44, %sort.45), direction=LT, metadata={op_name="lt_to"}, backend_config={"flag_configs":[],"scoped_memory_configs":[],"used_scoped_memory_configs":[],"aliasing_operands":{"lists":[]}}
  %lt_to.28 = pred[]{:T(512)S(6)} compare(%sort.45, %sort.44), direction=LT, metadata={op_name="lt_to"}, backend_config={"flag_configs":[],"scoped_memory_configs":[],"used_scoped_memory_configs":[],"aliasing_operands":{"lists":[]}}
  %compare.134 = pred[]{:T(512)S(6)} compare(%lt_to.27, %lt_to.28), direction=EQ, metadata={op_name="compare.111"}, backend_config={"flag_configs":[],"scoped_memory_configs":[],"used_scoped_memory_configs":[],"aliasing_operands":{"lists":[]}}
  %compare.135 = pred[]{:T(512)S(6)} compare(%sort.48, %sort.49), direction=LT, metadata={op_name="compare.112"}, backend_config={"flag_configs":[],"scoped_memory_configs":[],"used_scoped_memory_configs":[],"aliasing_operands":{"lists":[]}}
  ROOT %select.121 = pred[]{:T(512)} select(%compare.134, %compare.135, %lt_to.27), metadata={op_name="select.109"}, backend_config={"flag_configs":[],"scoped_memory_configs":[],"used_scoped_memory_configs":[],"aliasing_operands":{"lists":[]}}
}

%fused_computation.2.clone (param_0.77: bf16[1024,512], param_1.129: s32[1024]) -> bf16[1024,512] {
  %param_0.77 = bf16[1024,512]{1,0:T(8,128)(2,1)S(1)} parameter(0)
  %param_1.129 = s32[1024]{0:T(1024)S(1)} parameter(1)
  %custom-call.26 = s32[1024]{0:T(1024)} custom-call(%param_1.129), custom_call_target="AssumeGatherIndicesInBound", operand_layout_constraints={s32[1024]{0:T(1024)}}, metadata={op_name="jit(train_step)/jvp()/while/body/closed_call/shard_map/sort_activations/gather" stack_frame_id=0}
  %slice.924 = s32[1024]{0:T(1024)} slice(%custom-call.26), slice={[0:1024]}, metadata={op_name="jit(train_step)/jvp()/while/body/closed_call/shard_map/sort_activations/gather" stack_frame_id=0}
  %reshape.4639 = s32[1024]{0:T(1024)} reshape(%slice.924), metadata={op_name="jit(train_step)/jvp()/while/body/closed_call/shard_map/sort_activations/broadcast_in_dim" stack_frame_id=0}
  %transpose.1091 = s32[1024]{0:T(1024)} transpose(%reshape.4639), dimensions={0}, metadata={op_name="jit(train_step)/jvp()/while/body/closed_call/shard_map/sort_activations/broadcast_in_dim" stack_frame_id=0}
  %gather.229 = bf16[1024,512]{1,0:T(8,128)(2,1)} gather(%param_0.77, %transpose.1091), offset_dims={1}, collapsed_slice_dims={0}, start_index_map={0}, index_vector_dim=1, slice_sizes={1,512}, metadata={op_name="jit(train_step)/jvp()/while/body/closed_call/shard_map/sort_activations/gather" stack_frame_id=0}
  %transpose.1090 = bf16[1024,512]{1,0:T(8,128)(2,1)} transpose(%gather.229), dimensions={0,1}, metadata={op_name="jit(train_step)/jvp()/while/body/closed_call/shard_map/sort_activations/gather" stack_frame_id=0}
  ROOT %reshape.4638 = bf16[1024,512]{1,0:T(8,128)(2,1)} reshape(%transpose.1090), metadata={op_name="jit(train_step)/jvp()/while/body/closed_call/shard_map/sort_activations/gather" stack_frame_id=0}
}

%region_31.39 (sort.50: s32[], sort.51: s32[], sort.52: s32[], sort.53: s32[], sort.54: s32[], sort.55: s32[]) -> pred[] {
  %sort.52 = s32[]{:T(128)} parameter(2), metadata={op_name="jit(argsort)/sort"}
  %sort.53 = s32[]{:T(128)} parameter(3), metadata={op_name="jit(argsort)/sort"}
  %sort.50 = s32[]{:T(128)} parameter(0), metadata={op_name="jit(argsort)/sort"}
  %sort.51 = s32[]{:T(128)} parameter(1), metadata={op_name="jit(argsort)/sort"}
  %sort.54 = s32[]{:T(128)} parameter(4), metadata={op_name="jit(argsort)/sort"}
  %sort.55 = s32[]{:T(128)} parameter(5), metadata={op_name="jit(argsort)/sort"}
  %lt_to.30 = pred[]{:T(512)S(6)} compare(%sort.50, %sort.51), direction=LT, metadata={op_name="lt_to"}, backend_config={"flag_configs":[],"scoped_memory_configs":[],"used_scoped_memory_configs":[],"aliasing_operands":{"lists":[]}}
  %lt_to.31 = pred[]{:T(512)S(6)} compare(%sort.51, %sort.50), direction=LT, metadata={op_name="lt_to"}, backend_config={"flag_configs":[],"scoped_memory_configs":[],"used_scoped_memory_configs":[],"aliasing_operands":{"lists":[]}}
  %compare.142 = pred[]{:T(512)S(6)} compare(%lt_to.30, %lt_to.31), direction=EQ, metadata={op_name="compare.113"}, backend_config={"flag_configs":[],"scoped_memory_configs":[],"used_scoped_memory_configs":[],"aliasing_operands":{"lists":[]}}
  %compare.143 = pred[]{:T(512)S(6)} compare(%sort.54, %sort.55), direction=LT, metadata={op_name="compare.114"}, backend_config={"flag_configs":[],"scoped_memory_configs":[],"used_scoped_memory_configs":[],"aliasing_operands":{"lists":[]}}
  ROOT %select.126 = pred[]{:T(512)} select(%compare.142, %compare.143, %lt_to.30), metadata={op_name="select.110"}, backend_config={"flag_configs":[],"scoped_memory_configs":[],"used_scoped_memory_configs":[],"aliasing_operands":{"lists":[]}}
}

%fused_computation.3.clone (param_0.78: bf16[1024,512], param_1.131: s32[1024]) -> bf16[1024,512] {
  %param_0.78 = bf16[1024,512]{1,0:T(8,128)(2,1)S(1)} parameter(0)
  %param_1.131 = s32[1024]{0:T(1024)S(1)} parameter(1)
  %custom-call.28 = s32[1024]{0:T(1024)} custom-call(%param_1.131), custom_call_target="AssumeGatherIndicesInBound", operand_layout_constraints={s32[1024]{0:T(1024)}}, metadata={op_name="jit(train_step)/jvp()/while/body/closed_call/shard_map/sort_activations/gather" stack_frame_id=0}
  %slice.926 = s32[1024]{0:T(1024)} slice(%custom-call.28), slice={[0:1024]}, metadata={op_name="jit(train_step)/jvp()/while/body/closed_call/shard_map/sort_activations/gather" stack_frame_id=0}
  %reshape.4641 = s32[1024]{0:T(1024)} reshape(%slice.926), metadata={op_name="jit(train_step)/jvp()/while/body/closed_call/shard_map/sort_activations/broadcast_in_dim" stack_frame_id=0}
  %transpose.1093 = s32[1024]{0:T(1024)} transpose(%reshape.4641), dimensions={0}, metadata={op_name="jit(train_step)/jvp()/while/body/closed_call/shard_map/sort_activations/broadcast_in_dim" stack_frame_id=0}
  %gather.230 = bf16[1024,512]{1,0:T(8,128)(2,1)} gather(%param_0.78, %transpose.1093), offset_dims={1}, collapsed_slice_dims={0}, start_index_map={0}, index_vector_dim=1, slice_sizes={1,512}, metadata={op_name="jit(train_step)/jvp()/while/body/closed_call/shard_map/sort_activations/gather" stack_frame_id=0}
  %transpose.1092 = bf16[1024,512]{1,0:T(8,128)(2,1)} transpose(%gather.230), dimensions={0,1}, metadata={op_name="jit(train_step)/jvp()/while/body/closed_call/shard_map/sort_activations/gather" stack_frame_id=0}
  ROOT %reshape.4640 = bf16[1024,512]{1,0:T(8,128)(2,1)S(1)} reshape(%transpose.1092), metadata={op_name="jit(train_step)/jvp()/while/body/closed_call/shard_map/sort_activations/gather" stack_frame_id=0}
}

%fused_computation.4.clone (param_0.79: bf16[128,256], param_1.115: s32[1024]) -> bf16[1024] {
  %param_0.79 = bf16[128,256]{1,0:T(8,128)(2,1)S(1)} parameter(0)
  %constant.3938 = s32[]{:T(128)} constant(127), metadata={op_name="jit(train_step)/jvp()/while/body/closed_call/shard_map/jit(take_along_axis)/gather" stack_frame_id=0}
  %broadcast.3552 = s32[128,8,1]{2,1,0:T(8,128)} broadcast(%constant.3938), dimensions={}, metadata={op_name="jit(train_step)/jvp()/while/body/closed_call/shard_map/jit(take_along_axis)/gather" stack_frame_id=0}
  %param_1.115 = s32[1024]{0:T(1024)S(1)} parameter(1)
  %reshape.4646 = s32[128,8,1]{2,1,0:T(8,128)} reshape(%param_1.115), metadata={op_name="jit(train_step)/jvp()/while/body/closed_call/shard_map/jit(take_along_axis)/gather" stack_frame_id=0}
  %transpose.1095 = s32[128,8,1]{2,1,0:T(8,128)} transpose(%reshape.4646), dimensions={0,1,2}, metadata={op_name="jit(train_step)/jvp()/while/body/closed_call/shard_map/jit(take_along_axis)/gather" stack_frame_id=0}
  %and.360 = s32[128,8,1]{2,1,0:T(8,128)} and(%broadcast.3552, %transpose.1095), metadata={op_name="jit(train_step)/jvp()/while/body/closed_call/shard_map/jit(take_along_axis)/gather" stack_frame_id=0}
  %constant.3937 = s32[]{:T(128)} constant(0), metadata={op_name="jit(train_step)/jvp()/while/body/closed_call/shard_map/jit(take_along_axis)/gather" stack_frame_id=0}
  %broadcast.3551 = s32[128,8,1]{2,1,0:T(8,128)} broadcast(%constant.3937), dimensions={}, metadata={op_name="jit(train_step)/jvp()/while/body/closed_call/shard_map/jit(take_along_axis)/gather" stack_frame_id=0}
  %shift-right-logical.24 = s32[128,8,1]{2,1,0:T(8,128)} shift-right-logical(%and.360, %broadcast.3551), metadata={op_name="jit(train_step)/jvp()/while/body/closed_call/shard_map/jit(take_along_axis)/gather" stack_frame_id=0}
  %constant.3936 = s32[]{:T(128)} constant(32640), metadata={op_name="jit(train_step)/jvp()/while/body/closed_call/shard_map/jit(take_along_axis)/gather" stack_frame_id=0}
  %broadcast.3550 = s32[128,8,1]{2,1,0:T(8,128)} broadcast(%constant.3936), dimensions={}, metadata={op_name="jit(train_step)/jvp()/while/body/closed_call/shard_map/jit(take_along_axis)/gather" stack_frame_id=0}
  %and.359 = s32[128,8,1]{2,1,0:T(8,128)} and(%broadcast.3550, %transpose.1095), metadata={op_name="jit(train_step)/jvp()/while/body/closed_call/shard_map/jit(take_along_axis)/gather" stack_frame_id=0}
  %constant.3935 = s32[]{:T(128)} constant(7), metadata={op_name="jit(train_step)/jvp()/while/body/closed_call/shard_map/jit(take_along_axis)/gather" stack_frame_id=0}
  %broadcast.3549 = s32[128,8,1]{2,1,0:T(8,128)} broadcast(%constant.3935), dimensions={}, metadata={op_name="jit(train_step)/jvp()/while/body/closed_call/shard_map/jit(take_along_axis)/gather" stack_frame_id=0}
  %shift-right-logical.23 = s32[128,8,1]{2,1,0:T(8,128)} shift-right-logical(%and.359, %broadcast.3549), metadata={op_name="jit(train_step)/jvp()/while/body/closed_call/shard_map/jit(take_along_axis)/gather" stack_frame_id=0}
  %concatenate.415 = s32[128,8,2]{2,1,0:T(8,128)} concatenate(%shift-right-logical.24, %shift-right-logical.23), dimensions={2}, metadata={op_name="jit(train_step)/jvp()/while/body/closed_call/shard_map/jit(take_along_axis)/gather" stack_frame_id=0}
  %custom-call.4 = s32[128,8,2]{2,1,0:T(8,128)} custom-call(%concatenate.415), custom_call_target="GatherScatterIndicesBitpacked", metadata={op_name="jit(train_step)/jvp()/while/body/closed_call/shard_map/jit(take_along_axis)/gather" stack_frame_id=0}
  %gather.231 = bf16[128,8]{1,0:T(8,128)(2,1)} gather(%param_0.79, %custom-call.4), offset_dims={}, collapsed_slice_dims={0,1}, start_index_map={0,1}, index_vector_dim=2, slice_sizes={1,1}, metadata={op_name="jit(train_step)/jvp()/while/body/closed_call/shard_map/jit(take_along_axis)/gather" stack_frame_id=0}
  %transpose.1094 = bf16[128,8]{1,0:T(8,128)(2,1)} transpose(%gather.231), dimensions={0,1}, metadata={op_name="jit(train_step)/jvp()/while/body/closed_call/shard_map/jit(take_along_axis)/gather" stack_frame_id=0}
  ROOT %reshape.4645 = bf16[1024]{0:T(1024)(128)(2,1)S(1)} reshape(%transpose.1094), metadata={op_name="jit(train_step)/jvp()/while/body/closed_call/shard_map/jit(take_along_axis)/gather" stack_frame_id=0}
}

%compare (name: s32[], name.1: s32[], name.2: bf16[], name.3: bf16[]) -> pred[] {
  %name.2 = bf16[] parameter(2)
  %name.3 = bf16[] parameter(3)
  %name = s32[] parameter(0)
  %name.1 = s32[] parameter(1)
  ROOT %compare.293 = pred[] compare(%name, %name.1), direction=LT, backend_config={"flag_configs":[],"scoped_memory_configs":[],"used_scoped_memory_configs":[],"aliasing_operands":{"lists":[]}}
}

%add.39.clone (x.79: bf16[], y.79: bf16[]) -> bf16[] {
  %x.79 = bf16[]{:T(256)} parameter(0)
  %y.79 = bf16[]{:T(256)} parameter(1)
  ROOT %add.1990 = bf16[]{:T(256)} add(%x.79, %y.79), backend_config={"flag_configs":[],"scoped_memory_configs":[],"used_scoped_memory_configs":[],"aliasing_operands":{"lists":[]}}
}

%all-reduce-scatter.4 (input.4: bf16[512,129280]) -> bf16[128,129280] {
  %input.4 = bf16[512,129280]{1,0:T(8,128)(2,1)} parameter(0)
  %all-reduce.144 = bf16[512,129280]{1,0:T(8,128)(2,1)} all-reduce(%input.4), channel_id=171, replica_groups={{0,1,2,3}}, use_global_device_ids=true, to_apply=%add.39.clone, frontend_attributes={from-cross-replica-sharding="true"}, backend_config={"flag_configs":[],"barrier_config":{"barrier_type":"CUSTOM","id":"2"},"scoped_memory_configs":[],"used_scoped_memory_configs":[]}
  %partition-id.63 = u32[] partition-id()
  %constant.4159 = u32[] constant(128)
  %multiply.1330 = u32[]{:T(128)} multiply(%partition-id.63, %constant.4159)
  %constant.4160 = u32[] constant(0)
  ROOT %dynamic-slice.337 = bf16[128,129280]{1,0:T(8,128)(2,1)} dynamic-slice(%all-reduce.144, %multiply.1330, %constant.4160), dynamic_slice_sizes={128,129280}, backend_config={"flag_configs":[],"scoped_memory_configs":[],"indices_config":{"index_known_bits":[{"zeroes":"4294966911","ones":"0","bitwidth":"32"},{"zeroes":"4294967295","ones":"0","bitwidth":"32"}],"is_index_aligned":[]},"used_scoped_memory_configs":[]}
}

%region_105.125 (psum.0: bf16[], psum.1: bf16[]) -> bf16[] {
  %psum.0 = bf16[]{:T(256)} parameter(0), metadata={op_name="psum"}
  %psum.1 = bf16[]{:T(256)} parameter(1), metadata={op_name="psum"}
  ROOT %add.1448 = bf16[]{:T(256)} add(%psum.0, %psum.1), metadata={op_name="add" stack_frame_id=0}, backend_config={"flag_configs":[],"scoped_memory_configs":[],"used_scoped_memory_configs":[],"aliasing_operands":{"lists":[]}}
}

%all-reduce-scatter.6 (input.6: bf16[256,512,512]) -> bf16[256,128,512] {
  %input.6 = bf16[256,512,512]{2,1,0:T(8,128)(2,1)} parameter(0)
  %all-reduce.146 = bf16[256,512,512]{2,1,0:T(8,128)(2,1)} all-reduce(%input.6), channel_id=1, replica_groups={{0,1,2,3}}, use_global_device_ids=true, to_apply=%region_105.125, frontend_attributes={from-cross-replica-sharding="true"}, backend_config={"flag_configs":[],"barrier_config":{"barrier_type":"CUSTOM","id":"2"},"scoped_memory_configs":[],"used_scoped_memory_configs":[]}
  %constant.4163 = u32[] constant(0)
  %partition-id.65 = u32[] partition-id()
  %constant.4164 = u32[] constant(128)
  %multiply.1332 = u32[]{:T(128)} multiply(%partition-id.65, %constant.4164)
  ROOT %dynamic-slice.339 = bf16[256,128,512]{2,1,0:T(8,128)(2,1)} dynamic-slice(%all-reduce.146, %constant.4163, %multiply.1332, %constant.4163), dynamic_slice_sizes={256,128,512}, backend_config={"flag_configs":[],"scoped_memory_configs":[],"indices_config":{"index_known_bits":[{"zeroes":"4294967295","ones":"0","bitwidth":"32"},{"zeroes":"4294966911","ones":"0","bitwidth":"32"},{"zeroes":"4294967295","ones":"0","bitwidth":"32"}],"is_index_aligned":[]},"used_scoped_memory_configs":[]}
}

%region_106.126 (psum.4: bf16[], psum.5: bf16[]) -> bf16[] {
  %psum.4 = bf16[]{:T(256)} parameter(0), metadata={op_name="psum"}
  %psum.5 = bf16[]{:T(256)} parameter(1), metadata={op_name="psum"}
  ROOT %add.1449 = bf16[]{:T(256)} add(%psum.4, %psum.5), metadata={op_name="add" stack_frame_id=0}, backend_config={"flag_configs":[],"scoped_memory_configs":[],"used_scoped_memory_configs":[],"aliasing_operands":{"lists":[]}}
}

%all-reduce-scatter.7 (input.7: bf16[256,512,512]) -> bf16[256,128,512] {
  %input.7 = bf16[256,512,512]{2,1,0:T(8,128)(2,1)} parameter(0)
  %all-reduce.147 = bf16[256,512,512]{2,1,0:T(8,128)(2,1)} all-reduce(%input.7), channel_id=1, replica_groups={{0,1,2,3}}, use_global_device_ids=true, to_apply=%region_106.126, frontend_attributes={from-cross-replica-sharding="true"}, backend_config={"flag_configs":[],"barrier_config":{"barrier_type":"CUSTOM","id":"2"},"scoped_memory_configs":[],"used_scoped_memory_configs":[]}
  %constant.4166 = u32[] constant(0)
  %partition-id.66 = u32[] partition-id()
  %constant.4167 = u32[] constant(128)
  %multiply.1333 = u32[]{:T(128)} multiply(%partition-id.66, %constant.4167)
  ROOT %dynamic-slice.340 = bf16[256,128,512]{2,1,0:T(8,128)(2,1)} dynamic-slice(%all-reduce.147, %constant.4166, %multiply.1333, %constant.4166), dynamic_slice_sizes={256,128,512}, backend_config={"flag_configs":[],"scoped_memory_configs":[],"indices_config":{"index_known_bits":[{"zeroes":"4294967295","ones":"0","bitwidth":"32"},{"zeroes":"4294966911","ones":"0","bitwidth":"32"},{"zeroes":"4294967295","ones":"0","bitwidth":"32"}],"is_index_aligned":[]},"used_scoped_memory_configs":[]}
}

%add.21.clone (x.43: bf16[], y.43: bf16[]) -> bf16[] {
  %x.43 = bf16[]{:T(256)} parameter(0)
  %y.43 = bf16[]{:T(256)} parameter(1)
  ROOT %add.1924 = bf16[]{:T(256)} add(%x.43, %y.43), backend_config={"flag_configs":[],"scoped_memory_configs":[],"used_scoped_memory_configs":[],"aliasing_operands":{"lists":[]}}
}

%all-reduce-scatter.10 (input.10: bf16[512,128,256]) -> bf16[128,128,256] {
  %input.10 = bf16[512,128,256]{2,0,1:T(8,128)(2,1)S(1)} parameter(0)
  %all-reduce.150 = bf16[512,128,256]{2,0,1:T(8,128)(2,1)} all-reduce(%input.10), channel_id=95, replica_groups={{0,1,2,3}}, use_global_device_ids=true, to_apply=%add.21.clone, frontend_attributes={from-cross-replica-sharding="true"}, backend_config={"flag_configs":[],"barrier_config":{"barrier_type":"CUSTOM","id":"2"},"scoped_memory_configs":[],"used_scoped_memory_configs":[]}
  %partition-id.69 = u32[] partition-id()
  %constant.4173 = u32[] constant(128)
  %multiply.1336 = u32[]{:T(128)} multiply(%partition-id.69, %constant.4173)
  %constant.4174 = u32[] constant(0)
  ROOT %dynamic-slice.343 = bf16[128,128,256]{2,0,1:T(8,128)(2,1)} dynamic-slice(%all-reduce.150, %multiply.1336, %constant.4174, %constant.4174), dynamic_slice_sizes={128,128,256}, backend_config={"flag_configs":[],"scoped_memory_configs":[],"indices_config":{"index_known_bits":[{"zeroes":"4294966911","ones":"0","bitwidth":"32"},{"zeroes":"4294967295","ones":"0","bitwidth":"32"},{"zeroes":"4294967295","ones":"0","bitwidth":"32"}],"is_index_aligned":[]},"used_scoped_memory_configs":[]}
}

%add.23.clone (x.47: bf16[], y.47: bf16[]) -> bf16[] {
  %x.47 = bf16[]{:T(256)} parameter(0)
  %y.47 = bf16[]{:T(256)} parameter(1)
  ROOT %add.1928 = bf16[]{:T(256)} add(%x.47, %y.47), backend_config={"flag_configs":[],"scoped_memory_configs":[],"used_scoped_memory_configs":[],"aliasing_operands":{"lists":[]}}
}

%all-reduce-scatter.11 (input.11: bf16[1536,128,192]) -> bf16[384,128,192] {
  %input.11 = bf16[1536,128,192]{1,0,2:T(8,128)(2,1)} parameter(0)
  %all-reduce.151 = bf16[1536,128,192]{1,0,2:T(8,128)(2,1)} all-reduce(%input.11), channel_id=99, replica_groups={{0,1,2,3}}, use_global_device_ids=true, to_apply=%add.23.clone, frontend_attributes={from-cross-replica-sharding="true"}, backend_config={"flag_configs":[],"barrier_config":{"barrier_type":"CUSTOM","id":"2"},"scoped_memory_configs":[],"used_scoped_memory_configs":[]}
  %partition-id.70 = u32[] partition-id()
  %constant.4176 = u32[] constant(384)
  %multiply.1337 = u32[]{:T(128)} multiply(%partition-id.70, %constant.4176)
  %constant.4177 = u32[] constant(0)
  ROOT %dynamic-slice.344 = bf16[384,128,192]{1,0,2:T(8,128)(2,1)} dynamic-slice(%all-reduce.151, %multiply.1337, %constant.4177, %constant.4177), dynamic_slice_sizes={384,128,192}, backend_config={"flag_configs":[],"scoped_memory_configs":[],"indices_config":{"index_known_bits":[{"zeroes":"4294965375","ones":"0","bitwidth":"32"},{"zeroes":"4294967295","ones":"0","bitwidth":"32"},{"zeroes":"4294967295","ones":"0","bitwidth":"32"}],"is_index_aligned":[]},"used_scoped_memory_configs":[]}
}

%compare.1 (name.4: s32[], name.5: s32[], name.6: f32[], name.7: f32[]) -> pred[] {
  %name.6 = f32[] parameter(2)
  %name.7 = f32[] parameter(3)
  %name.4 = s32[] parameter(0)
  %name.5 = s32[] parameter(1)
  ROOT %compare.294 = pred[] compare(%name.4, %name.5), direction=LT, backend_config={"flag_configs":[],"scoped_memory_configs":[],"used_scoped_memory_configs":[],"aliasing_operands":{"lists":[]}}
}

%compare.2 (name.8: s32[], name.9: s32[], name.10: f32[], name.11: f32[]) -> pred[] {
  %name.10 = f32[] parameter(2)
  %name.11 = f32[] parameter(3)
  %name.8 = s32[] parameter(0)
  %name.9 = s32[] parameter(1)
  ROOT %compare.295 = pred[] compare(%name.8, %name.9), direction=LT, backend_config={"flag_configs":[],"scoped_memory_configs":[],"used_scoped_memory_configs":[],"aliasing_operands":{"lists":[]}}
}

%compare.3 (name.12: s32[], name.13: s32[], name.14: f32[], name.15: f32[]) -> pred[] {
  %name.14 = f32[] parameter(2)
  %name.15 = f32[] parameter(3)
  %name.12 = s32[] parameter(0)
  %name.13 = s32[] parameter(1)
  ROOT %compare.296 = pred[] compare(%name.12, %name.13), direction=LT, backend_config={"flag_configs":[],"scoped_memory_configs":[],"used_scoped_memory_configs":[],"aliasing_operands":{"lists":[]}}
}

%compare.4 (name.16: s32[], name.17: s32[], name.18: f32[], name.19: f32[]) -> pred[] {
  %name.18 = f32[] parameter(2)
  %name.19 = f32[] parameter(3)
  %name.16 = s32[] parameter(0)
  %name.17 = s32[] parameter(1)
  ROOT %compare.297 = pred[] compare(%name.16, %name.17), direction=LT, backend_config={"flag_configs":[],"scoped_memory_configs":[],"used_scoped_memory_configs":[],"aliasing_operands":{"lists":[]}}
}

%region_49.60 (scatter-add.14: s32[], scatter-add.15: s32[]) -> s32[] {
  %scatter-add.14 = s32[]{:T(128)S(7)} parameter(0), metadata={op_name="scatter-add"}
  %scatter-add.15 = s32[]{:T(128)S(7)} parameter(1), metadata={op_name="scatter-add"}
  ROOT %add.1387 = s32[]{:T(128)S(7)} add(%scatter-add.14, %scatter-add.15), metadata={op_name="add" stack_frame_id=0}, backend_config={"flag_configs":[],"window_config":{"kernel_window_bounds":[],"output_window_bounds":["128"],"input_window_bounds":[],"estimated_cycles":"1165","iteration_bounds":[],"scratchpad_allocation_size":"520","cost_model_type":"COST_MODEL_TYPE_INVALID","ml_estimated_microseconds":0,"is_mask":false,"pad_output_on_minor_dim":"0","pad_input_on_minor_dim":"0","estimated_vmem_bytes":"0","estimated_bundle_count":"0","estimated_scoped_vmem_bytes":"0"},"loop_config":{"loop_order":[],"unrolled_loops":[{"unroll_dimension":"0","unroll_factor":"4","pipeline_remainder":false,"fully_unroll_if_trip_count_is_at_most":"0"}],"vectorizing_shape":[]},"scoped_memory_configs":[],"used_scoped_memory_configs":[]}
}, execution_thread="sparsecore"

%fused_computation.24.clone.clone (param_0.4888: s32[256], param_1.5478: s32[1024], param_2.4317: s32[1024]) -> s32[256] {
  %param_0.4888 = s32[256]{0:T(256)} parameter(0)
  %param_1.5478 = s32[1024]{0:T(1024)} parameter(1)
  %reshape.4940 = s32[1024]{0:T(1024)} reshape(%param_1.5478), metadata={op_name="jit(train_step)/transpose(jvp())/while/body/closed_call/checkpoint/rematted_computation/shard_map/jit(clip)/max" stack_frame_id=0}
  %transpose.1150 = s32[1024]{0:T(1024)} transpose(%reshape.4940), dimensions={0}, metadata={op_name="jit(train_step)/transpose(jvp())/while/body/closed_call/checkpoint/rematted_computation/shard_map/jit(clip)/max" stack_frame_id=0}
  %param_2.4317 = s32[1024]{0:T(1024)} parameter(2)
  %reshape.4941 = s32[1024]{0:T(1024)} reshape(%param_2.4317), metadata={op_name="jit(train_step)/shard_map/broadcast_in_dim" stack_frame_id=0}
  %transpose.1151 = s32[1024]{0:T(1024)} transpose(%reshape.4941), dimensions={0}, metadata={op_name="jit(train_step)/shard_map/broadcast_in_dim" stack_frame_id=0}
  ROOT %scatter-add.231 = s32[256]{0:T(256)} scatter(%param_0.4888, %transpose.1150, %transpose.1151), update_window_dims={}, inserted_window_dims={0}, scatter_dims_to_operand_dims={0}, index_vector_dim=1, to_apply=%region_49.60, metadata={op_name="jit(train_step)/transpose(jvp())/while/body/closed_call/checkpoint/rematted_computation/shard_map/scatter-add" stack_frame_id=0}
}, execution_thread="sparsecore"

%called_computation.10 (param_0.4889: s32[256], param_1.5479: s32[1024], param_2.4318: s32[1024]) -> s32[256] {
  %param_0.4889 = s32[256]{0:T(256)} parameter(0)
  %param_1.5479 = s32[1024]{0:T(1024)} parameter(1)
  %param_2.4318 = s32[1024]{0:T(1024)} parameter(2)
  ROOT %scatter_offload_custom_fusion.27 = s32[256]{0:T(256)} fusion(%param_0.4889, %param_1.5479, %param_2.4318), kind=kCustom, calls=%fused_computation.24.clone.clone, metadata={op_name="jit(train_step)/transpose(jvp())/while/body/closed_call/checkpoint/rematted_computation/shard_map/scatter-add" stack_frame_id=0}, backend_config={"flag_configs":[],"window_config":{"kernel_window_bounds":[],"output_window_bounds":["64"],"input_window_bounds":[],"estimated_cycles":"9223372036854775807","iteration_bounds":[],"scratchpad_allocation_size":"1088","cost_model_type":"COST_MODEL_TYPE_INVALID","ml_estimated_microseconds":0,"is_mask":false,"pad_output_on_minor_dim":"0","pad_input_on_minor_dim":"0","estimated_vmem_bytes":"0","estimated_bundle_count":"0","estimated_scoped_vmem_bytes":"0"},"loop_config":{"loop_order":[],"unrolled_loops":[],"vectorizing_shape":[]},"scoped_memory_configs":[],"compute_type":"COMPUTE_TYPE_TILE","used_scoped_memory_configs":[]}
}, execution_thread="sparsecore"

%async_computation.10 (param_0.4890: s32[256], param_1.5480: s32[1024], param_2.4319: s32[1024]) -> s32[256] {
  %param_0.4890 = s32[256]{0:T(256)} parameter(0)
  %param_1.5480 = s32[1024]{0:T(1024)} parameter(1)
  %param_2.4319 = s32[1024]{0:T(1024)} parameter(2)
  ROOT %scatter_offload_custom_fusion.28.cloned.1 = s32[256]{0:T(256)} call(%param_0.4890, %param_1.5480, %param_2.4319), to_apply=%called_computation.10, metadata={op_name="jit(train_step)/transpose(jvp())/while/body/closed_call/checkpoint/rematted_computation/shard_map/scatter-add" stack_frame_id=0}
}, execution_thread="sparsecore"

%called_computation (param_0.91: s32[256], param_1.149: s32[1024], param_2.94: s32[1024], param_3.3117: token[]) -> s32[256] {
  %param_3.3117 = token[] parameter(3), backend_config={"flag_configs":[],"scoped_memory_configs":[],"implicit_sharding":{"type":"REPLICATED","tile_assignment_dimensions":[],"tile_assignment_devices":[],"tuple_shardings":[],"replicate_on_last_tile_dim":false,"metadata":[],"last_tile_dims":[],"iota_reshape_dims":[],"iota_transpose_perm":[],"is_shard_group":false,"shard_group_id":"0","shard_group_type":"AS"},"used_scoped_memory_configs":[]}
  %param_0.91 = s32[256]{0:T(256)} parameter(0), backend_config={"flag_configs":[],"scoped_memory_configs":[],"compute_type":"COMPUTE_TYPE_SCALAR","used_scoped_memory_configs":[]}
  %param_1.149 = s32[1024]{0:T(1024)} parameter(1), backend_config={"flag_configs":[],"scoped_memory_configs":[],"compute_type":"COMPUTE_TYPE_SCALAR","used_scoped_memory_configs":[]}
  %param_2.94 = s32[1024]{0:T(1024)} parameter(2), backend_config={"flag_configs":[],"scoped_memory_configs":[],"compute_type":"COMPUTE_TYPE_SCALAR","used_scoped_memory_configs":[]}
  %scatter_offload_custom_fusion.28.cloned.1.call-start = ((s32[256]{0:T(256)}, s32[1024]{0:T(1024)}, s32[1024]{0:T(1024)}), s32[256]{0:T(256)}, u32[]{:S(8)}) async-start(%param_0.91, %param_1.149, %param_2.94), async_execution_thread="sparsecore", calls=%async_computation.10, metadata={op_name="jit(train_step)/transpose(jvp())/while/body/closed_call/checkpoint/rematted_computation/shard_map/scatter-add" stack_frame_id=0}
  ROOT %scatter_offload_custom_fusion.28.cloned.1.call-done = s32[256]{0:T(256)} async-done(%scatter_offload_custom_fusion.28.cloned.1.call-start), metadata={op_name="jit(train_step)/transpose(jvp())/while/body/closed_call/checkpoint/rematted_computation/shard_map/scatter-add" stack_frame_id=0}
}, execution_thread="sparsecore"

%async_computation (param_0.92: s32[256], param_1.150: s32[1024], param_2.95: s32[1024], param_3.3116: token[]) -> s32[256] {
  %param_3.3116 = token[] parameter(3)
  %param_0.92 = s32[256]{0:T(256)} parameter(0)
  %param_1.150 = s32[1024]{0:T(1024)} parameter(1)
  %param_2.95 = s32[1024]{0:T(1024)} parameter(2)
  ROOT %scatter_offload_custom_fusion.2.cloned.1 = s32[256]{0:T(256)} call(%param_0.92, %param_1.150, %param_2.95, %param_3.3116), to_apply=%called_computation, metadata={op_name="jit(train_step)/transpose(jvp())/while/body/closed_call/checkpoint/rematted_computation/shard_map/scatter-add" stack_frame_id=0}
}, execution_thread="sparsecore"

%called_computation.11 (param_0.4891: f32[3]) -> f32[3] {
  %param_0.4891 = f32[3]{0:T(128)} parameter(0)
  ROOT %copy.2090 = f32[3]{0:T(128)} copy(%param_0.4891), backend_config={"flag_configs":[],"window_config":{"kernel_window_bounds":[],"output_window_bounds":["8"],"input_window_bounds":[],"estimated_cycles":"1131","iteration_bounds":[],"scratchpad_allocation_size":"128","cost_model_type":"COST_MODEL_TYPE_INVALID","ml_estimated_microseconds":0,"is_mask":false,"pad_output_on_minor_dim":"0","pad_input_on_minor_dim":"0","estimated_vmem_bytes":"0","estimated_bundle_count":"0","estimated_scoped_vmem_bytes":"0"},"loop_config":{"loop_order":[],"unrolled_loops":[{"unroll_dimension":"0","unroll_factor":"16","pipeline_remainder":false,"fully_unroll_if_trip_count_is_at_most":"0"}],"vectorizing_shape":[]},"scoped_memory_configs":[],"compute_type":"COMPUTE_TYPE_TILE","used_scoped_memory_configs":[]}
}, execution_thread="sparsecore"

%async_computation.11 (param_0.4892: f32[3]) -> f32[3] {
  %param_0.4892 = f32[3]{0:T(128)} parameter(0)
  ROOT %copy.2091.cloned.1 = f32[3]{0:T(128)} call(%param_0.4892), to_apply=%called_computation.11
}, execution_thread="sparsecore"

%region_61.73 (scatter-add.24: f32[], scatter-add.25: f32[]) -> f32[] {
  %scatter-add.24 = f32[]{:T(128)S(7)} parameter(0), metadata={op_name="scatter-add"}
  %scatter-add.25 = f32[]{:T(128)S(7)} parameter(1), metadata={op_name="scatter-add"}
  ROOT %add.1393 = f32[]{:T(128)S(7)} add(%scatter-add.24, %scatter-add.25), metadata={op_name="add" stack_frame_id=0}, backend_config={"flag_configs":[],"window_config":{"kernel_window_bounds":[],"output_window_bounds":["128"],"input_window_bounds":[],"estimated_cycles":"1165","iteration_bounds":[],"scratchpad_allocation_size":"520","cost_model_type":"COST_MODEL_TYPE_INVALID","ml_estimated_microseconds":0,"is_mask":false,"pad_output_on_minor_dim":"0","pad_input_on_minor_dim":"0","estimated_vmem_bytes":"0","estimated_bundle_count":"0","estimated_scoped_vmem_bytes":"0"},"loop_config":{"loop_order":[],"unrolled_loops":[{"unroll_dimension":"0","unroll_factor":"4","pipeline_remainder":false,"fully_unroll_if_trip_count_is_at_most":"0"}],"vectorizing_shape":[]},"scoped_memory_configs":[],"used_scoped_memory_configs":[]}
}, execution_thread="sparsecore"

%fused_computation.26.clone.clone (param_0.4893: f32[3], param_1.5481: s32[256], param_2.4320: f32[256]) -> f32[3] {
  %param_0.4893 = f32[3]{0:T(128)} parameter(0)
  %param_1.5481 = s32[256]{0:T(256)} parameter(1)
  %reshape.4942 = s32[256]{0:T(256)} reshape(%param_1.5481), metadata={op_name="jit(train_step)/transpose(jvp())/while/body/closed_call/checkpoint/rematted_computation/shard_map/jit(gmm)/broadcast_in_dim" stack_frame_id=0}
  %transpose.1152 = s32[256]{0:T(256)} transpose(%reshape.4942), dimensions={0}, metadata={op_name="jit(train_step)/transpose(jvp())/while/body/closed_call/checkpoint/rematted_computation/shard_map/jit(gmm)/broadcast_in_dim" stack_frame_id=0}
  %param_2.4320 = f32[256]{0:T(256)} parameter(2)
  %reshape.4943 = f32[256]{0:T(256)} reshape(%param_2.4320), metadata={op_name="jit(train_step)/shard_map/jit(gmm)/broadcast_in_dim" stack_frame_id=0}
  %transpose.1153 = f32[256]{0:T(256)} transpose(%reshape.4943), dimensions={0}, metadata={op_name="jit(train_step)/shard_map/jit(gmm)/broadcast_in_dim" stack_frame_id=0}
  ROOT %scatter-add.232 = f32[3]{0:T(128)} scatter(%param_0.4893, %transpose.1152, %transpose.1153), update_window_dims={}, inserted_window_dims={0}, scatter_dims_to_operand_dims={0}, index_vector_dim=1, indices_are_sorted=true, to_apply=%region_61.73, metadata={op_name="jit(train_step)/transpose(jvp())/while/body/closed_call/checkpoint/rematted_computation/shard_map/jit(gmm)/scatter-add" stack_frame_id=0}
}, execution_thread="sparsecore"

%called_computation.12 (param_0.4894: f32[3], param_1.5482: s32[256], param_2.4321: f32[256]) -> f32[3] {
  %param_0.4894 = f32[3]{0:T(128)} parameter(0)
  %param_1.5482 = s32[256]{0:T(256)} parameter(1)
  %param_2.4321 = f32[256]{0:T(256)} parameter(2)
  ROOT %scatter_offload_custom_fusion.29 = f32[3]{0:T(128)} fusion(%param_0.4894, %param_1.5482, %param_2.4321), kind=kCustom, calls=%fused_computation.26.clone.clone, metadata={op_name="jit(train_step)/transpose(jvp())/while/body/closed_call/checkpoint/rematted_computation/shard_map/jit(gmm)/scatter-add" stack_frame_id=0}, backend_config={"flag_configs":[],"window_config":{"kernel_window_bounds":[],"output_window_bounds":["16"],"input_window_bounds":[],"estimated_cycles":"9223372036854775807","iteration_bounds":[],"scratchpad_allocation_size":"1312","cost_model_type":"COST_MODEL_TYPE_INVALID","ml_estimated_microseconds":0,"is_mask":false,"pad_output_on_minor_dim":"0","pad_input_on_minor_dim":"0","estimated_vmem_bytes":"0","estimated_bundle_count":"0","estimated_scoped_vmem_bytes":"0"},"loop_config":{"loop_order":[],"unrolled_loops":[],"vectorizing_shape":[]},"scoped_memory_configs":[],"compute_type":"COMPUTE_TYPE_TILE","used_scoped_memory_configs":[]}
}, execution_thread="sparsecore"

%async_computation.12 (param_0.4895: f32[3], param_1.5483: s32[256], param_2.4322: f32[256]) -> f32[3] {
  %param_0.4895 = f32[3]{0:T(128)} parameter(0)
  %param_1.5483 = s32[256]{0:T(256)} parameter(1)
  %param_2.4322 = f32[256]{0:T(256)} parameter(2)
  ROOT %scatter_offload_custom_fusion.30.cloned.1 = f32[3]{0:T(128)} call(%param_0.4895, %param_1.5483, %param_2.4322), to_apply=%called_computation.12, metadata={op_name="jit(train_step)/transpose(jvp())/while/body/closed_call/checkpoint/rematted_computation/shard_map/jit(gmm)/scatter-add" stack_frame_id=0}
}, execution_thread="sparsecore"

%called_computation.1 (param_0.94: f32[3], param_1.152: s32[256], param_2.97: f32[256], param_3.3129: token[]) -> f32[3] {
  %param_3.3129 = token[] parameter(3), backend_config={"flag_configs":[],"scoped_memory_configs":[],"implicit_sharding":{"type":"REPLICATED","tile_assignment_dimensions":[],"tile_assignment_devices":[],"tuple_shardings":[],"replicate_on_last_tile_dim":false,"metadata":[],"last_tile_dims":[],"iota_reshape_dims":[],"iota_transpose_perm":[],"is_shard_group":false,"shard_group_id":"0","shard_group_type":"AS"},"used_scoped_memory_configs":[]}
  %param_0.94 = f32[3]{0:T(128)} parameter(0), backend_config={"flag_configs":[],"scoped_memory_configs":[],"compute_type":"COMPUTE_TYPE_SCALAR","used_scoped_memory_configs":[]}
  %param_1.152 = s32[256]{0:T(256)} parameter(1), backend_config={"flag_configs":[],"scoped_memory_configs":[],"compute_type":"COMPUTE_TYPE_SCALAR","used_scoped_memory_configs":[]}
  %param_2.97 = f32[256]{0:T(256)} parameter(2), backend_config={"flag_configs":[],"scoped_memory_configs":[],"compute_type":"COMPUTE_TYPE_SCALAR","used_scoped_memory_configs":[]}
  %copy.2091.cloned.1.call-start = ((f32[3]{0:T(128)}), f32[3]{0:T(128)}, u32[]{:S(8)}) async-start(%param_0.94), async_execution_thread="sparsecore", calls=%async_computation.11
  %copy.2091.cloned.1.call-done = f32[3]{0:T(128)} async-done(%copy.2091.cloned.1.call-start)
  %scatter_offload_custom_fusion.30.cloned.1.call-start = ((f32[3]{0:T(128)}, s32[256]{0:T(256)}, f32[256]{0:T(256)}), f32[3]{0:T(128)}, u32[]{:S(8)}) async-start(%copy.2091.cloned.1.call-done, %param_1.152, %param_2.97), async_execution_thread="sparsecore", calls=%async_computation.12, metadata={op_name="jit(train_step)/transpose(jvp())/while/body/closed_call/checkpoint/rematted_computation/shard_map/jit(gmm)/scatter-add" stack_frame_id=0}
  ROOT %scatter_offload_custom_fusion.30.cloned.1.call-done = f32[3]{0:T(128)} async-done(%scatter_offload_custom_fusion.30.cloned.1.call-start), metadata={op_name="jit(train_step)/transpose(jvp())/while/body/closed_call/checkpoint/rematted_computation/shard_map/jit(gmm)/scatter-add" stack_frame_id=0}
}, execution_thread="sparsecore"

%async_computation.1 (param_0.95: f32[3], param_1.153: s32[256], param_2.98: f32[256], param_3.3128: token[]) -> f32[3] {
  %param_3.3128 = token[] parameter(3)
  %param_0.95 = f32[3]{0:T(128)} parameter(0)
  %param_1.153 = s32[256]{0:T(256)} parameter(1)
  %param_2.98 = f32[256]{0:T(256)} parameter(2)
  ROOT %scatter_offload_custom_fusion.5.cloned.1 = f32[3]{0:T(128)} call(%param_0.95, %param_1.153, %param_2.98, %param_3.3128), to_apply=%called_computation.1, metadata={op_name="jit(train_step)/transpose(jvp())/while/body/closed_call/checkpoint/rematted_computation/shard_map/jit(gmm)/scatter-add" stack_frame_id=0}
}, execution_thread="sparsecore"

%called_computation.13 (param_0.4896: s32[257]) -> s32[257] {
  %param_0.4896 = s32[257]{0:T(512)} parameter(0)
  ROOT %copy.2092 = s32[257]{0:T(512)} copy(%param_0.4896), backend_config={"flag_configs":[],"window_config":{"kernel_window_bounds":[],"output_window_bounds":["32"],"input_window_bounds":[],"estimated_cycles":"1141","iteration_bounds":[],"scratchpad_allocation_size":"512","cost_model_type":"COST_MODEL_TYPE_INVALID","ml_estimated_microseconds":0,"is_mask":false,"pad_output_on_minor_dim":"0","pad_input_on_minor_dim":"0","estimated_vmem_bytes":"0","estimated_bundle_count":"0","estimated_scoped_vmem_bytes":"0"},"loop_config":{"loop_order":[],"unrolled_loops":[{"unroll_dimension":"0","unroll_factor":"16","pipeline_remainder":false,"fully_unroll_if_trip_count_is_at_most":"0"}],"vectorizing_shape":[]},"scoped_memory_configs":[],"compute_type":"COMPUTE_TYPE_TILE","used_scoped_memory_configs":[]}
}, execution_thread="sparsecore"

%async_computation.13 (param_0.4897: s32[257]) -> s32[257] {
  %param_0.4897 = s32[257]{0:T(512)} parameter(0)
  ROOT %copy.2093.cloned.1 = s32[257]{0:T(512)} call(%param_0.4897), to_apply=%called_computation.13
}, execution_thread="sparsecore"

%region_73.87.clone (scatter-add.163: s32[], scatter-add.164: s32[]) -> s32[] {
  %scatter-add.163 = s32[]{:T(128)S(7)} parameter(0), metadata={op_name="scatter-add"}
  %scatter-add.164 = s32[]{:T(128)S(7)} parameter(1), metadata={op_name="scatter-add"}
  ROOT %add.2618 = s32[]{:T(128)S(7)} add(%scatter-add.163, %scatter-add.164), metadata={op_name="add" stack_frame_id=0}, backend_config={"flag_configs":[],"window_config":{"kernel_window_bounds":[],"output_window_bounds":["128"],"input_window_bounds":[],"estimated_cycles":"1165","iteration_bounds":[],"scratchpad_allocation_size":"520","cost_model_type":"COST_MODEL_TYPE_INVALID","ml_estimated_microseconds":0,"is_mask":false,"pad_output_on_minor_dim":"0","pad_input_on_minor_dim":"0","estimated_vmem_bytes":"0","estimated_bundle_count":"0","estimated_scoped_vmem_bytes":"0"},"loop_config":{"loop_order":[],"unrolled_loops":[{"unroll_dimension":"0","unroll_factor":"4","pipeline_remainder":false,"fully_unroll_if_trip_count_is_at_most":"0"}],"vectorizing_shape":[]},"scoped_memory_configs":[],"used_scoped_memory_configs":[]}
}, execution_thread="sparsecore"

%fused_computation.28.clone.clone (param_0.4898: s32[257], param_1.5484: s32[256], param_2.4323: s32[256]) -> s32[257] {
  %param_0.4898 = s32[257]{0:T(512)} parameter(0)
  %param_1.5484 = s32[256]{0:T(256)} parameter(1)
  %reshape.4944 = s32[256]{0:T(256)} reshape(%param_1.5484), metadata={op_name="jit(train_step)/transpose(jvp())/while/body/closed_call/checkpoint/shard_map/jit(gmm)/select_n" stack_frame_id=0}
  %transpose.1154 = s32[256]{0:T(256)} transpose(%reshape.4944), dimensions={0}, metadata={op_name="jit(train_step)/transpose(jvp())/while/body/closed_call/checkpoint/shard_map/jit(gmm)/select_n" stack_frame_id=0}
  %param_2.4323 = s32[256]{0:T(256)} parameter(2)
  %reshape.4945 = s32[256]{0:T(256)} reshape(%param_2.4323), metadata={op_name="jit(train_step)/shard_map/jit(gmm)/broadcast_in_dim" stack_frame_id=0}
  %transpose.1155 = s32[256]{0:T(256)} transpose(%reshape.4945), dimensions={0}, metadata={op_name="jit(train_step)/shard_map/jit(gmm)/broadcast_in_dim" stack_frame_id=0}
  ROOT %scatter-add.233 = s32[257]{0:T(512)} scatter(%param_0.4898, %transpose.1154, %transpose.1155), update_window_dims={}, inserted_window_dims={0}, scatter_dims_to_operand_dims={0}, index_vector_dim=1, to_apply=%region_73.87.clone, metadata={op_name="jit(train_step)/transpose(jvp())/while/body/closed_call/checkpoint/shard_map/jit(gmm)/scatter-add" stack_frame_id=0}
}, execution_thread="sparsecore"

%called_computation.14 (param_0.4899: s32[257], param_1.5485: s32[256], param_2.4324: s32[256]) -> s32[257] {
  %param_0.4899 = s32[257]{0:T(512)} parameter(0)
  %param_1.5485 = s32[256]{0:T(256)} parameter(1)
  %param_2.4324 = s32[256]{0:T(256)} parameter(2)
  ROOT %scatter_offload_custom_fusion.31 = s32[257]{0:T(512)} fusion(%param_0.4899, %param_1.5485, %param_2.4324), kind=kCustom, calls=%fused_computation.28.clone.clone, metadata={op_name="jit(train_step)/transpose(jvp())/while/body/closed_call/checkpoint/shard_map/jit(gmm)/scatter-add" stack_frame_id=0}, backend_config={"flag_configs":[],"window_config":{"kernel_window_bounds":[],"output_window_bounds":["16"],"input_window_bounds":[],"estimated_cycles":"9223372036854775807","iteration_bounds":[],"scratchpad_allocation_size":"384","cost_model_type":"COST_MODEL_TYPE_INVALID","ml_estimated_microseconds":0,"is_mask":false,"pad_output_on_minor_dim":"0","pad_input_on_minor_dim":"0","estimated_vmem_bytes":"0","estimated_bundle_count":"0","estimated_scoped_vmem_bytes":"0"},"loop_config":{"loop_order":[],"unrolled_loops":[],"vectorizing_shape":[]},"scoped_memory_configs":[],"compute_type":"COMPUTE_TYPE_TILE","used_scoped_memory_configs":[]}
}, execution_thread="sparsecore"

%async_computation.14 (param_0.4900: s32[257], param_1.5486: s32[256], param_2.4325: s32[256]) -> s32[257] {
  %param_0.4900 = s32[257]{0:T(512)} parameter(0)
  %param_1.5486 = s32[256]{0:T(256)} parameter(1)
  %param_2.4325 = s32[256]{0:T(256)} parameter(2)
  ROOT %scatter_offload_custom_fusion.32.cloned.1 = s32[257]{0:T(512)} call(%param_0.4900, %param_1.5486, %param_2.4325), to_apply=%called_computation.14, metadata={op_name="jit(train_step)/transpose(jvp())/while/body/closed_call/checkpoint/shard_map/jit(gmm)/scatter-add" stack_frame_id=0}
}, execution_thread="sparsecore"

%called_computation.2 (param_0.97: s32[257], param_1.155: s32[256], param_2.100: s32[256], param_3.3121: token[]) -> s32[257] {
  %param_3.3121 = token[] parameter(3), backend_config={"flag_configs":[],"scoped_memory_configs":[],"implicit_sharding":{"type":"REPLICATED","tile_assignment_dimensions":[],"tile_assignment_devices":[],"tuple_shardings":[],"replicate_on_last_tile_dim":false,"metadata":[],"last_tile_dims":[],"iota_reshape_dims":[],"iota_transpose_perm":[],"is_shard_group":false,"shard_group_id":"0","shard_group_type":"AS"},"used_scoped_memory_configs":[]}
  %param_0.97 = s32[257]{0:T(512)} parameter(0), backend_config={"flag_configs":[],"scoped_memory_configs":[],"compute_type":"COMPUTE_TYPE_SCALAR","used_scoped_memory_configs":[]}
  %param_1.155 = s32[256]{0:T(256)} parameter(1), backend_config={"flag_configs":[],"scoped_memory_configs":[],"compute_type":"COMPUTE_TYPE_SCALAR","used_scoped_memory_configs":[]}
  %param_2.100 = s32[256]{0:T(256)} parameter(2), backend_config={"flag_configs":[],"scoped_memory_configs":[],"compute_type":"COMPUTE_TYPE_SCALAR","used_scoped_memory_configs":[]}
  %copy.2093.cloned.1.call-start = ((s32[257]{0:T(512)}), s32[257]{0:T(512)}, u32[]{:S(8)}) async-start(%param_0.97), async_execution_thread="sparsecore", calls=%async_computation.13
  %copy.2093.cloned.1.call-done = s32[257]{0:T(512)} async-done(%copy.2093.cloned.1.call-start)
  %scatter_offload_custom_fusion.32.cloned.1.call-start = ((s32[257]{0:T(512)}, s32[256]{0:T(256)}, s32[256]{0:T(256)}), s32[257]{0:T(512)}, u32[]{:S(8)}) async-start(%copy.2093.cloned.1.call-done, %param_1.155, %param_2.100), async_execution_thread="sparsecore", calls=%async_computation.14, metadata={op_name="jit(train_step)/transpose(jvp())/while/body/closed_call/checkpoint/shard_map/jit(gmm)/scatter-add" stack_frame_id=0}
  ROOT %scatter_offload_custom_fusion.32.cloned.1.call-done = s32[257]{0:T(512)} async-done(%scatter_offload_custom_fusion.32.cloned.1.call-start), metadata={op_name="jit(train_step)/transpose(jvp())/while/body/closed_call/checkpoint/shard_map/jit(gmm)/scatter-add" stack_frame_id=0}
}, execution_thread="sparsecore"

%async_computation.2 (param_0.98: s32[257], param_1.156: s32[256], param_2.101: s32[256], param_3.3120: token[]) -> s32[257] {
  %param_3.3120 = token[] parameter(3)
  %param_0.98 = s32[257]{0:T(512)} parameter(0)
  %param_1.156 = s32[256]{0:T(256)} parameter(1)
  %param_2.101 = s32[256]{0:T(256)} parameter(2)
  ROOT %scatter_offload_custom_fusion.8.cloned.1 = s32[257]{0:T(512)} call(%param_0.98, %param_1.156, %param_2.101, %param_3.3120), to_apply=%called_computation.2, metadata={op_name="jit(train_step)/transpose(jvp())/while/body/closed_call/checkpoint/shard_map/jit(gmm)/scatter-add" stack_frame_id=0}
}, execution_thread="sparsecore"

%called_computation.15 (param_0.4901: f32[3]) -> f32[3] {
  %param_0.4901 = f32[3]{0:T(128)} parameter(0)
  ROOT %copy.2094 = f32[3]{0:T(128)} copy(%param_0.4901), backend_config={"flag_configs":[],"window_config":{"kernel_window_bounds":[],"output_window_bounds":["8"],"input_window_bounds":[],"estimated_cycles":"1131","iteration_bounds":[],"scratchpad_allocation_size":"128","cost_model_type":"COST_MODEL_TYPE_INVALID","ml_estimated_microseconds":0,"is_mask":false,"pad_output_on_minor_dim":"0","pad_input_on_minor_dim":"0","estimated_vmem_bytes":"0","estimated_bundle_count":"0","estimated_scoped_vmem_bytes":"0"},"loop_config":{"loop_order":[],"unrolled_loops":[{"unroll_dimension":"0","unroll_factor":"16","pipeline_remainder":false,"fully_unroll_if_trip_count_is_at_most":"0"}],"vectorizing_shape":[]},"scoped_memory_configs":[],"compute_type":"COMPUTE_TYPE_TILE","used_scoped_memory_configs":[]}
}, execution_thread="sparsecore"

%async_computation.15 (param_0.4902: f32[3]) -> f32[3] {
  %param_0.4902 = f32[3]{0:T(128)} parameter(0)
  ROOT %copy.2095.cloned.1 = f32[3]{0:T(128)} call(%param_0.4902), to_apply=%called_computation.15
}, execution_thread="sparsecore"

%region_79.96.clone (scatter-add.167: f32[], scatter-add.168: f32[]) -> f32[] {
  %scatter-add.167 = f32[]{:T(128)S(7)} parameter(0), metadata={op_name="scatter-add"}
  %scatter-add.168 = f32[]{:T(128)S(7)} parameter(1), metadata={op_name="scatter-add"}
  ROOT %add.2620 = f32[]{:T(128)S(7)} add(%scatter-add.167, %scatter-add.168), metadata={op_name="add" stack_frame_id=0}, backend_config={"flag_configs":[],"window_config":{"kernel_window_bounds":[],"output_window_bounds":["128"],"input_window_bounds":[],"estimated_cycles":"1165","iteration_bounds":[],"scratchpad_allocation_size":"520","cost_model_type":"COST_MODEL_TYPE_INVALID","ml_estimated_microseconds":0,"is_mask":false,"pad_output_on_minor_dim":"0","pad_input_on_minor_dim":"0","estimated_vmem_bytes":"0","estimated_bundle_count":"0","estimated_scoped_vmem_bytes":"0"},"loop_config":{"loop_order":[],"unrolled_loops":[{"unroll_dimension":"0","unroll_factor":"4","pipeline_remainder":false,"fully_unroll_if_trip_count_is_at_most":"0"}],"vectorizing_shape":[]},"scoped_memory_configs":[],"used_scoped_memory_configs":[]}
}, execution_thread="sparsecore"

%fused_computation.29.clone.clone (param_0.4903: f32[3], param_1.5487: s32[256], param_2.4326: f32[256]) -> f32[3] {
  %param_0.4903 = f32[3]{0:T(128)} parameter(0)
  %param_1.5487 = s32[256]{0:T(256)} parameter(1)
  %reshape.4946 = s32[256]{0:T(256)} reshape(%param_1.5487), metadata={op_name="jit(train_step)/transpose(jvp())/while/body/closed_call/checkpoint/shard_map/jit(gmm)/broadcast_in_dim" stack_frame_id=0}
  %transpose.1156 = s32[256]{0:T(256)} transpose(%reshape.4946), dimensions={0}, metadata={op_name="jit(train_step)/transpose(jvp())/while/body/closed_call/checkpoint/shard_map/jit(gmm)/broadcast_in_dim" stack_frame_id=0}
  %param_2.4326 = f32[256]{0:T(256)} parameter(2)
  %reshape.4947 = f32[256]{0:T(256)} reshape(%param_2.4326), metadata={op_name="jit(train_step)/shard_map/jit(gmm)/broadcast_in_dim" stack_frame_id=0}
  %transpose.1157 = f32[256]{0:T(256)} transpose(%reshape.4947), dimensions={0}, metadata={op_name="jit(train_step)/shard_map/jit(gmm)/broadcast_in_dim" stack_frame_id=0}
  ROOT %scatter-add.234 = f32[3]{0:T(128)} scatter(%param_0.4903, %transpose.1156, %transpose.1157), update_window_dims={}, inserted_window_dims={0}, scatter_dims_to_operand_dims={0}, index_vector_dim=1, indices_are_sorted=true, to_apply=%region_79.96.clone, metadata={op_name="jit(train_step)/transpose(jvp())/while/body/closed_call/checkpoint/shard_map/jit(gmm)/scatter-add" stack_frame_id=0}
}, execution_thread="sparsecore"

%called_computation.16 (param_0.4904: f32[3], param_1.5488: s32[256], param_2.4327: f32[256]) -> f32[3] {
  %param_0.4904 = f32[3]{0:T(128)} parameter(0)
  %param_1.5488 = s32[256]{0:T(256)} parameter(1)
  %param_2.4327 = f32[256]{0:T(256)} parameter(2)
  ROOT %scatter_offload_custom_fusion.33 = f32[3]{0:T(128)} fusion(%param_0.4904, %param_1.5488, %param_2.4327), kind=kCustom, calls=%fused_computation.29.clone.clone, metadata={op_name="jit(train_step)/transpose(jvp())/while/body/closed_call/checkpoint/shard_map/jit(gmm)/scatter-add" stack_frame_id=0}, backend_config={"flag_configs":[],"window_config":{"kernel_window_bounds":[],"output_window_bounds":["16"],"input_window_bounds":[],"estimated_cycles":"9223372036854775807","iteration_bounds":[],"scratchpad_allocation_size":"1312","cost_model_type":"COST_MODEL_TYPE_INVALID","ml_estimated_microseconds":0,"is_mask":false,"pad_output_on_minor_dim":"0","pad_input_on_minor_dim":"0","estimated_vmem_bytes":"0","estimated_bundle_count":"0","estimated_scoped_vmem_bytes":"0"},"loop_config":{"loop_order":[],"unrolled_loops":[],"vectorizing_shape":[]},"scoped_memory_configs":[],"compute_type":"COMPUTE_TYPE_TILE","used_scoped_memory_configs":[]}
}, execution_thread="sparsecore"

%async_computation.16 (param_0.4905: f32[3], param_1.5489: s32[256], param_2.4328: f32[256]) -> f32[3] {
  %param_0.4905 = f32[3]{0:T(128)} parameter(0)
  %param_1.5489 = s32[256]{0:T(256)} parameter(1)
  %param_2.4328 = f32[256]{0:T(256)} parameter(2)
  ROOT %scatter_offload_custom_fusion.34.cloned.1 = f32[3]{0:T(128)} call(%param_0.4905, %param_1.5489, %param_2.4328), to_apply=%called_computation.16, metadata={op_name="jit(train_step)/transpose(jvp())/while/body/closed_call/checkpoint/shard_map/jit(gmm)/scatter-add" stack_frame_id=0}
}, execution_thread="sparsecore"

%called_computation.3 (param_0.100: f32[3], param_1.158: s32[256], param_2.103: f32[256], param_3.3127: token[]) -> f32[3] {
  %param_3.3127 = token[] parameter(3), backend_config={"flag_configs":[],"scoped_memory_configs":[],"implicit_sharding":{"type":"REPLICATED","tile_assignment_dimensions":[],"tile_assignment_devices":[],"tuple_shardings":[],"replicate_on_last_tile_dim":false,"metadata":[],"last_tile_dims":[],"iota_reshape_dims":[],"iota_transpose_perm":[],"is_shard_group":false,"shard_group_id":"0","shard_group_type":"AS"},"used_scoped_memory_configs":[]}
  %param_0.100 = f32[3]{0:T(128)} parameter(0), backend_config={"flag_configs":[],"scoped_memory_configs":[],"compute_type":"COMPUTE_TYPE_SCALAR","used_scoped_memory_configs":[]}
  %param_1.158 = s32[256]{0:T(256)} parameter(1), backend_config={"flag_configs":[],"scoped_memory_configs":[],"compute_type":"COMPUTE_TYPE_SCALAR","used_scoped_memory_configs":[]}
  %param_2.103 = f32[256]{0:T(256)} parameter(2), backend_config={"flag_configs":[],"scoped_memory_configs":[],"compute_type":"COMPUTE_TYPE_SCALAR","used_scoped_memory_configs":[]}
  %copy.2095.cloned.1.call-start = ((f32[3]{0:T(128)}), f32[3]{0:T(128)}, u32[]{:S(8)}) async-start(%param_0.100), async_execution_thread="sparsecore", calls=%async_computation.15
  %copy.2095.cloned.1.call-done = f32[3]{0:T(128)} async-done(%copy.2095.cloned.1.call-start)
  %scatter_offload_custom_fusion.34.cloned.1.call-start = ((f32[3]{0:T(128)}, s32[256]{0:T(256)}, f32[256]{0:T(256)}), f32[3]{0:T(128)}, u32[]{:S(8)}) async-start(%copy.2095.cloned.1.call-done, %param_1.158, %param_2.103), async_execution_thread="sparsecore", calls=%async_computation.16, metadata={op_name="jit(train_step)/transpose(jvp())/while/body/closed_call/checkpoint/shard_map/jit(gmm)/scatter-add" stack_frame_id=0}
  ROOT %scatter_offload_custom_fusion.34.cloned.1.call-done = f32[3]{0:T(128)} async-done(%scatter_offload_custom_fusion.34.cloned.1.call-start), metadata={op_name="jit(train_step)/transpose(jvp())/while/body/closed_call/checkpoint/shard_map/jit(gmm)/scatter-add" stack_frame_id=0}
}, execution_thread="sparsecore"

%async_computation.3 (param_0.101: f32[3], param_1.159: s32[256], param_2.104: f32[256], param_3.3126: token[]) -> f32[3] {
  %param_3.3126 = token[] parameter(3)
  %param_0.101 = f32[3]{0:T(128)} parameter(0)
  %param_1.159 = s32[256]{0:T(256)} parameter(1)
  %param_2.104 = f32[256]{0:T(256)} parameter(2)
  ROOT %scatter_offload_custom_fusion.11.cloned.1 = f32[3]{0:T(128)} call(%param_0.101, %param_1.159, %param_2.104, %param_3.3126), to_apply=%called_computation.3, metadata={op_name="jit(train_step)/transpose(jvp())/while/body/closed_call/checkpoint/shard_map/jit(gmm)/scatter-add" stack_frame_id=0}
}, execution_thread="sparsecore"

%region_94.113 (scatter-add.48: s32[], scatter-add.49: s32[]) -> s32[] {
  %scatter-add.48 = s32[]{:T(128)S(7)} parameter(0), metadata={op_name="scatter-add"}
  %scatter-add.49 = s32[]{:T(128)S(7)} parameter(1), metadata={op_name="scatter-add"}
  ROOT %add.1436 = s32[]{:T(128)S(7)} add(%scatter-add.48, %scatter-add.49), metadata={op_name="add" stack_frame_id=0}, backend_config={"flag_configs":[],"window_config":{"kernel_window_bounds":[],"output_window_bounds":["128"],"input_window_bounds":[],"estimated_cycles":"1165","iteration_bounds":[],"scratchpad_allocation_size":"520","cost_model_type":"COST_MODEL_TYPE_INVALID","ml_estimated_microseconds":0,"is_mask":false,"pad_output_on_minor_dim":"0","pad_input_on_minor_dim":"0","estimated_vmem_bytes":"0","estimated_bundle_count":"0","estimated_scoped_vmem_bytes":"0"},"loop_config":{"loop_order":[],"unrolled_loops":[{"unroll_dimension":"0","unroll_factor":"4","pipeline_remainder":false,"fully_unroll_if_trip_count_is_at_most":"0"}],"vectorizing_shape":[]},"scoped_memory_configs":[],"used_scoped_memory_configs":[]}
}, execution_thread="sparsecore"

%fused_computation.31.clone.clone (param_0.4908: s32[257], param_1.5490: s32[256], param_2.4329: s32[256]) -> s32[257] {
  %param_0.4908 = s32[257]{0:T(512)} parameter(0)
  %param_1.5490 = s32[256]{0:T(256)} parameter(1)
  %reshape.4948 = s32[256]{0:T(256)} reshape(%param_1.5490), metadata={op_name="jit(train_step)/transpose(jvp())/while/body/closed_call/checkpoint/shard_map/jit(tgmm)/select_n" stack_frame_id=0}
  %transpose.1158 = s32[256]{0:T(256)} transpose(%reshape.4948), dimensions={0}, metadata={op_name="jit(train_step)/transpose(jvp())/while/body/closed_call/checkpoint/shard_map/jit(tgmm)/select_n" stack_frame_id=0}
  %param_2.4329 = s32[256]{0:T(256)} parameter(2)
  %reshape.4949 = s32[256]{0:T(256)} reshape(%param_2.4329), metadata={op_name="jit(train_step)/shard_map/jit(gmm)/broadcast_in_dim" stack_frame_id=0}
  %transpose.1159 = s32[256]{0:T(256)} transpose(%reshape.4949), dimensions={0}, metadata={op_name="jit(train_step)/shard_map/jit(gmm)/broadcast_in_dim" stack_frame_id=0}
  ROOT %scatter-add.235 = s32[257]{0:T(512)} scatter(%param_0.4908, %transpose.1158, %transpose.1159), update_window_dims={}, inserted_window_dims={0}, scatter_dims_to_operand_dims={0}, index_vector_dim=1, to_apply=%region_94.113, metadata={op_name="jit(train_step)/transpose(jvp())/while/body/closed_call/checkpoint/shard_map/jit(tgmm)/scatter-add" stack_frame_id=0}
}, execution_thread="sparsecore"

%called_computation.18 (param_0.4909: s32[257], param_1.5491: s32[256], param_2.4330: s32[256]) -> s32[257] {
  %param_0.4909 = s32[257]{0:T(512)} parameter(0)
  %param_1.5491 = s32[256]{0:T(256)} parameter(1)
  %param_2.4330 = s32[256]{0:T(256)} parameter(2)
  ROOT %scatter_offload_custom_fusion.35 = s32[257]{0:T(512)} fusion(%param_0.4909, %param_1.5491, %param_2.4330), kind=kCustom, calls=%fused_computation.31.clone.clone, metadata={op_name="jit(train_step)/transpose(jvp())/while/body/closed_call/checkpoint/shard_map/jit(tgmm)/scatter-add" stack_frame_id=0}, backend_config={"flag_configs":[],"window_config":{"kernel_window_bounds":[],"output_window_bounds":["16"],"input_window_bounds":[],"estimated_cycles":"9223372036854775807","iteration_bounds":[],"scratchpad_allocation_size":"384","cost_model_type":"COST_MODEL_TYPE_INVALID","ml_estimated_microseconds":0,"is_mask":false,"pad_output_on_minor_dim":"0","pad_input_on_minor_dim":"0","estimated_vmem_bytes":"0","estimated_bundle_count":"0","estimated_scoped_vmem_bytes":"0"},"loop_config":{"loop_order":[],"unrolled_loops":[],"vectorizing_shape":[]},"scoped_memory_configs":[],"compute_type":"COMPUTE_TYPE_TILE","used_scoped_memory_configs":[]}
}, execution_thread="sparsecore"

%async_computation.18 (param_0.4910: s32[257], param_1.5492: s32[256], param_2.4331: s32[256]) -> s32[257] {
  %param_0.4910 = s32[257]{0:T(512)} parameter(0)
  %param_1.5492 = s32[256]{0:T(256)} parameter(1)
  %param_2.4331 = s32[256]{0:T(256)} parameter(2)
  ROOT %scatter_offload_custom_fusion.36.cloned.1 = s32[257]{0:T(512)} call(%param_0.4910, %param_1.5492, %param_2.4331), to_apply=%called_computation.18, metadata={op_name="jit(train_step)/transpose(jvp())/while/body/closed_call/checkpoint/shard_map/jit(tgmm)/scatter-add" stack_frame_id=0}
}, execution_thread="sparsecore"

%called_computation.4 (param_0.103: s32[257], param_1.161: s32[256], param_2.106: s32[256], param_3.3123: token[]) -> s32[257] {
  %param_3.3123 = token[] parameter(3), backend_config={"flag_configs":[],"scoped_memory_configs":[],"implicit_sharding":{"type":"REPLICATED","tile_assignment_dimensions":[],"tile_assignment_devices":[],"tuple_shardings":[],"replicate_on_last_tile_dim":false,"metadata":[],"last_tile_dims":[],"iota_reshape_dims":[],"iota_transpose_perm":[],"is_shard_group":false,"shard_group_id":"0","shard_group_type":"AS"},"used_scoped_memory_configs":[]}
  %param_0.103 = s32[257]{0:T(512)} parameter(0), backend_config={"flag_configs":[],"scoped_memory_configs":[],"compute_type":"COMPUTE_TYPE_SCALAR","used_scoped_memory_configs":[]}
  %param_1.161 = s32[256]{0:T(256)} parameter(1), backend_config={"flag_configs":[],"scoped_memory_configs":[],"compute_type":"COMPUTE_TYPE_SCALAR","used_scoped_memory_configs":[]}
  %param_2.106 = s32[256]{0:T(256)} parameter(2), backend_config={"flag_configs":[],"scoped_memory_configs":[],"compute_type":"COMPUTE_TYPE_SCALAR","used_scoped_memory_configs":[]}
  %scatter_offload_custom_fusion.36.cloned.1.call-start = ((s32[257]{0:T(512)}, s32[256]{0:T(256)}, s32[256]{0:T(256)}), s32[257]{0:T(512)}, u32[]{:S(8)}) async-start(%param_0.103, %param_1.161, %param_2.106), async_execution_thread="sparsecore", calls=%async_computation.18, metadata={op_name="jit(train_step)/transpose(jvp())/while/body/closed_call/checkpoint/shard_map/jit(tgmm)/scatter-add" stack_frame_id=0}
  ROOT %scatter_offload_custom_fusion.36.cloned.1.call-done = s32[257]{0:T(512)} async-done(%scatter_offload_custom_fusion.36.cloned.1.call-start), metadata={op_name="jit(train_step)/transpose(jvp())/while/body/closed_call/checkpoint/shard_map/jit(tgmm)/scatter-add" stack_frame_id=0}
}, execution_thread="sparsecore"

%async_computation.4 (param_0.104: s32[257], param_1.162: s32[256], param_2.107: s32[256], param_3.3122: token[]) -> s32[257] {
  %param_3.3122 = token[] parameter(3)
  %param_0.104 = s32[257]{0:T(512)} parameter(0)
  %param_1.162 = s32[256]{0:T(256)} parameter(1)
  %param_2.107 = s32[256]{0:T(256)} parameter(2)
  ROOT %scatter_offload_custom_fusion.14.cloned.1 = s32[257]{0:T(512)} call(%param_0.104, %param_1.162, %param_2.107, %param_3.3122), to_apply=%called_computation.4, metadata={op_name="jit(train_step)/transpose(jvp())/while/body/closed_call/checkpoint/shard_map/jit(tgmm)/scatter-add" stack_frame_id=0}
}, execution_thread="sparsecore"

%region_100.119 (scatter-add.52: f32[], scatter-add.53: f32[]) -> f32[] {
  %scatter-add.52 = f32[]{:T(128)S(7)} parameter(0), metadata={op_name="scatter-add"}
  %scatter-add.53 = f32[]{:T(128)S(7)} parameter(1), metadata={op_name="scatter-add"}
  ROOT %add.1439 = f32[]{:T(128)S(7)} add(%scatter-add.52, %scatter-add.53), metadata={op_name="add" stack_frame_id=0}, backend_config={"flag_configs":[],"window_config":{"kernel_window_bounds":[],"output_window_bounds":["128"],"input_window_bounds":[],"estimated_cycles":"1165","iteration_bounds":[],"scratchpad_allocation_size":"520","cost_model_type":"COST_MODEL_TYPE_INVALID","ml_estimated_microseconds":0,"is_mask":false,"pad_output_on_minor_dim":"0","pad_input_on_minor_dim":"0","estimated_vmem_bytes":"0","estimated_bundle_count":"0","estimated_scoped_vmem_bytes":"0"},"loop_config":{"loop_order":[],"unrolled_loops":[{"unroll_dimension":"0","unroll_factor":"4","pipeline_remainder":false,"fully_unroll_if_trip_count_is_at_most":"0"}],"vectorizing_shape":[]},"scoped_memory_configs":[],"used_scoped_memory_configs":[]}
}, execution_thread="sparsecore"

%fused_computation.32.clone.clone (param_0.4913: f32[3], param_1.5493: s32[256], param_2.4332: f32[256]) -> f32[3] {
  %param_0.4913 = f32[3]{0:T(128)} parameter(0)
  %param_1.5493 = s32[256]{0:T(256)} parameter(1)
  %reshape.4950 = s32[256]{0:T(256)} reshape(%param_1.5493), metadata={op_name="jit(train_step)/transpose(jvp())/while/body/closed_call/checkpoint/shard_map/jit(tgmm)/broadcast_in_dim" stack_frame_id=0}
  %transpose.1160 = s32[256]{0:T(256)} transpose(%reshape.4950), dimensions={0}, metadata={op_name="jit(train_step)/transpose(jvp())/while/body/closed_call/checkpoint/shard_map/jit(tgmm)/broadcast_in_dim" stack_frame_id=0}
  %param_2.4332 = f32[256]{0:T(256)} parameter(2)
  %reshape.4951 = f32[256]{0:T(256)} reshape(%param_2.4332), metadata={op_name="jit(train_step)/shard_map/jit(gmm)/broadcast_in_dim" stack_frame_id=0}
  %transpose.1161 = f32[256]{0:T(256)} transpose(%reshape.4951), dimensions={0}, metadata={op_name="jit(train_step)/shard_map/jit(gmm)/broadcast_in_dim" stack_frame_id=0}
  ROOT %scatter-add.236 = f32[3]{0:T(128)} scatter(%param_0.4913, %transpose.1160, %transpose.1161), update_window_dims={}, inserted_window_dims={0}, scatter_dims_to_operand_dims={0}, index_vector_dim=1, indices_are_sorted=true, to_apply=%region_100.119, metadata={op_name="jit(train_step)/transpose(jvp())/while/body/closed_call/checkpoint/shard_map/jit(tgmm)/scatter-add" stack_frame_id=0}
}, execution_thread="sparsecore"

%called_computation.20 (param_0.4914: f32[3], param_1.5494: s32[256], param_2.4333: f32[256]) -> f32[3] {
  %param_0.4914 = f32[3]{0:T(128)} parameter(0)
  %param_1.5494 = s32[256]{0:T(256)} parameter(1)
  %param_2.4333 = f32[256]{0:T(256)} parameter(2)
  ROOT %scatter_offload_custom_fusion.37 = f32[3]{0:T(128)} fusion(%param_0.4914, %param_1.5494, %param_2.4333), kind=kCustom, calls=%fused_computation.32.clone.clone, metadata={op_name="jit(train_step)/transpose(jvp())/while/body/closed_call/checkpoint/shard_map/jit(tgmm)/scatter-add" stack_frame_id=0}, backend_config={"flag_configs":[],"window_config":{"kernel_window_bounds":[],"output_window_bounds":["16"],"input_window_bounds":[],"estimated_cycles":"9223372036854775807","iteration_bounds":[],"scratchpad_allocation_size":"1312","cost_model_type":"COST_MODEL_TYPE_INVALID","ml_estimated_microseconds":0,"is_mask":false,"pad_output_on_minor_dim":"0","pad_input_on_minor_dim":"0","estimated_vmem_bytes":"0","estimated_bundle_count":"0","estimated_scoped_vmem_bytes":"0"},"loop_config":{"loop_order":[],"unrolled_loops":[],"vectorizing_shape":[]},"scoped_memory_configs":[],"compute_type":"COMPUTE_TYPE_TILE","used_scoped_memory_configs":[]}
}, execution_thread="sparsecore"

%async_computation.20 (param_0.4915: f32[3], param_1.5495: s32[256], param_2.4334: f32[256]) -> f32[3] {
  %param_0.4915 = f32[3]{0:T(128)} parameter(0)
  %param_1.5495 = s32[256]{0:T(256)} parameter(1)
  %param_2.4334 = f32[256]{0:T(256)} parameter(2)
  ROOT %scatter_offload_custom_fusion.38.cloned.1 = f32[3]{0:T(128)} call(%param_0.4915, %param_1.5495, %param_2.4334), to_apply=%called_computation.20, metadata={op_name="jit(train_step)/transpose(jvp())/while/body/closed_call/checkpoint/shard_map/jit(tgmm)/scatter-add" stack_frame_id=0}
}, execution_thread="sparsecore"

%called_computation.5 (param_0.106: f32[3], param_1.164: s32[256], param_2.109: f32[256], param_3.3131: token[]) -> f32[3] {
  %param_3.3131 = token[] parameter(3), backend_config={"flag_configs":[],"scoped_memory_configs":[],"implicit_sharding":{"type":"REPLICATED","tile_assignment_dimensions":[],"tile_assignment_devices":[],"tuple_shardings":[],"replicate_on_last_tile_dim":false,"metadata":[],"last_tile_dims":[],"iota_reshape_dims":[],"iota_transpose_perm":[],"is_shard_group":false,"shard_group_id":"0","shard_group_type":"AS"},"used_scoped_memory_configs":[]}
  %param_0.106 = f32[3]{0:T(128)} parameter(0), backend_config={"flag_configs":[],"scoped_memory_configs":[],"compute_type":"COMPUTE_TYPE_SCALAR","used_scoped_memory_configs":[]}
  %param_1.164 = s32[256]{0:T(256)} parameter(1), backend_config={"flag_configs":[],"scoped_memory_configs":[],"compute_type":"COMPUTE_TYPE_SCALAR","used_scoped_memory_configs":[]}
  %param_2.109 = f32[256]{0:T(256)} parameter(2), backend_config={"flag_configs":[],"scoped_memory_configs":[],"compute_type":"COMPUTE_TYPE_SCALAR","used_scoped_memory_configs":[]}
  %scatter_offload_custom_fusion.38.cloned.1.call-start = ((f32[3]{0:T(128)}, s32[256]{0:T(256)}, f32[256]{0:T(256)}), f32[3]{0:T(128)}, u32[]{:S(8)}) async-start(%param_0.106, %param_1.164, %param_2.109), async_execution_thread="sparsecore", calls=%async_computation.20, metadata={op_name="jit(train_step)/transpose(jvp())/while/body/closed_call/checkpoint/shard_map/jit(tgmm)/scatter-add" stack_frame_id=0}
  ROOT %scatter_offload_custom_fusion.38.cloned.1.call-done = f32[3]{0:T(128)} async-done(%scatter_offload_custom_fusion.38.cloned.1.call-start), metadata={op_name="jit(train_step)/transpose(jvp())/while/body/closed_call/checkpoint/shard_map/jit(tgmm)/scatter-add" stack_frame_id=0}
}, execution_thread="sparsecore"

%async_computation.5 (param_0.107: f32[3], param_1.165: s32[256], param_2.110: f32[256], param_3.3130: token[]) -> f32[3] {
  %param_3.3130 = token[] parameter(3)
  %param_0.107 = f32[3]{0:T(128)} parameter(0)
  %param_1.165 = s32[256]{0:T(256)} parameter(1)
  %param_2.110 = f32[256]{0:T(256)} parameter(2)
  ROOT %scatter_offload_custom_fusion.17.cloned.1 = f32[3]{0:T(128)} call(%param_0.107, %param_1.165, %param_2.110, %param_3.3130), to_apply=%called_computation.5, metadata={op_name="jit(train_step)/transpose(jvp())/while/body/closed_call/checkpoint/shard_map/jit(tgmm)/scatter-add" stack_frame_id=0}
}, execution_thread="sparsecore"

%called_computation.21 (param_0.4916: s32[256]) -> s32[256] {
  %param_0.4916 = s32[256]{0:T(256)} parameter(0)
  ROOT %copy.2100 = s32[256]{0:T(256)} copy(%param_0.4916), backend_config={"flag_configs":[],"window_config":{"kernel_window_bounds":[],"output_window_bounds":["16"],"input_window_bounds":[],"estimated_cycles":"1134","iteration_bounds":[],"scratchpad_allocation_size":"256","cost_model_type":"COST_MODEL_TYPE_INVALID","ml_estimated_microseconds":0,"is_mask":false,"pad_output_on_minor_dim":"0","pad_input_on_minor_dim":"0","estimated_vmem_bytes":"0","estimated_bundle_count":"0","estimated_scoped_vmem_bytes":"0"},"loop_config":{"loop_order":[],"unrolled_loops":[{"unroll_dimension":"0","unroll_factor":"16","pipeline_remainder":false,"fully_unroll_if_trip_count_is_at_most":"0"}],"vectorizing_shape":[]},"scoped_memory_configs":[],"compute_type":"COMPUTE_TYPE_TILE","used_scoped_memory_configs":[]}
}, execution_thread="sparsecore"

%async_computation.21 (param_0.4917: s32[256]) -> s32[256] {
  %param_0.4917 = s32[256]{0:T(256)} parameter(0)
  ROOT %copy.2101.cloned.1 = s32[256]{0:T(256)} call(%param_0.4917), to_apply=%called_computation.21
}, execution_thread="sparsecore"

%region_14.20 (scatter-add.0: s32[], scatter-add.1: s32[]) -> s32[] {
  %scatter-add.0 = s32[]{:T(128)S(7)} parameter(0), metadata={op_name="scatter-add"}
  %scatter-add.1 = s32[]{:T(128)S(7)} parameter(1), metadata={op_name="scatter-add"}
  ROOT %add.1343 = s32[]{:T(128)S(7)} add(%scatter-add.0, %scatter-add.1), metadata={op_name="add" stack_frame_id=0}, backend_config={"flag_configs":[],"window_config":{"kernel_window_bounds":[],"output_window_bounds":["128"],"input_window_bounds":[],"estimated_cycles":"1165","iteration_bounds":[],"scratchpad_allocation_size":"520","cost_model_type":"COST_MODEL_TYPE_INVALID","ml_estimated_microseconds":0,"is_mask":false,"pad_output_on_minor_dim":"0","pad_input_on_minor_dim":"0","estimated_vmem_bytes":"0","estimated_bundle_count":"0","estimated_scoped_vmem_bytes":"0"},"loop_config":{"loop_order":[],"unrolled_loops":[{"unroll_dimension":"0","unroll_factor":"4","pipeline_remainder":false,"fully_unroll_if_trip_count_is_at_most":"0"}],"vectorizing_shape":[]},"scoped_memory_configs":[],"used_scoped_memory_configs":[]}
}, execution_thread="sparsecore"

%fused_computation.19.clone.clone.clone (param_0.4918: s32[256], param_1.5496: s32[1024], param_2.4335: s32[1024]) -> s32[256] {
  %param_0.4918 = s32[256]{0:T(256)} parameter(0)
  %param_1.5496 = s32[1024]{0:T(1024)} parameter(1)
  %reshape.4952 = s32[1024]{0:T(1024)} reshape(%param_1.5496), metadata={op_name="jit(train_step)/jvp()/while/body/closed_call/shard_map/select_n" stack_frame_id=0}
  %transpose.1162 = s32[1024]{0:T(1024)} transpose(%reshape.4952), dimensions={0}, metadata={op_name="jit(train_step)/jvp()/while/body/closed_call/shard_map/select_n" stack_frame_id=0}
  %param_2.4335 = s32[1024]{0:T(1024)} parameter(2)
  %reshape.4953 = s32[1024]{0:T(1024)} reshape(%param_2.4335), metadata={op_name="jit(train_step)/shard_map/broadcast_in_dim" stack_frame_id=0}
  %transpose.1163 = s32[1024]{0:T(1024)} transpose(%reshape.4953), dimensions={0}, metadata={op_name="jit(train_step)/shard_map/broadcast_in_dim" stack_frame_id=0}
  ROOT %scatter-add.237 = s32[256]{0:T(256)} scatter(%param_0.4918, %transpose.1162, %transpose.1163), update_window_dims={}, inserted_window_dims={0}, scatter_dims_to_operand_dims={0}, index_vector_dim=1, to_apply=%region_14.20, metadata={op_name="jit(train_step)/jvp()/while/body/closed_call/shard_map/scatter-add" stack_frame_id=0}
}, execution_thread="sparsecore"

%called_computation.22 (param_0.4919: s32[256], param_1.5497: s32[1024], param_2.4336: s32[1024]) -> s32[256] {
  %param_0.4919 = s32[256]{0:T(256)} parameter(0)
  %param_1.5497 = s32[1024]{0:T(1024)} parameter(1)
  %param_2.4336 = s32[1024]{0:T(1024)} parameter(2)
  ROOT %scatter_offload_custom_fusion.39 = s32[256]{0:T(256)} fusion(%param_0.4919, %param_1.5497, %param_2.4336), kind=kCustom, calls=%fused_computation.19.clone.clone.clone, metadata={op_name="jit(train_step)/jvp()/while/body/closed_call/shard_map/scatter-add" stack_frame_id=0}, backend_config={"flag_configs":[],"window_config":{"kernel_window_bounds":[],"output_window_bounds":["64"],"input_window_bounds":[],"estimated_cycles":"9223372036854775807","iteration_bounds":[],"scratchpad_allocation_size":"1088","cost_model_type":"COST_MODEL_TYPE_INVALID","ml_estimated_microseconds":0,"is_mask":false,"pad_output_on_minor_dim":"0","pad_input_on_minor_dim":"0","estimated_vmem_bytes":"0","estimated_bundle_count":"0","estimated_scoped_vmem_bytes":"0"},"loop_config":{"loop_order":[],"unrolled_loops":[],"vectorizing_shape":[]},"scoped_memory_configs":[],"compute_type":"COMPUTE_TYPE_TILE","used_scoped_memory_configs":[]}
}, execution_thread="sparsecore"

%async_computation.22 (param_0.4920: s32[256], param_1.5498: s32[1024], param_2.4337: s32[1024]) -> s32[256] {
  %param_0.4920 = s32[256]{0:T(256)} parameter(0)
  %param_1.5498 = s32[1024]{0:T(1024)} parameter(1)
  %param_2.4337 = s32[1024]{0:T(1024)} parameter(2)
  ROOT %scatter_offload_custom_fusion.40.cloned.1 = s32[256]{0:T(256)} call(%param_0.4920, %param_1.5498, %param_2.4337), to_apply=%called_computation.22, metadata={op_name="jit(train_step)/jvp()/while/body/closed_call/shard_map/scatter-add" stack_frame_id=0}
}, execution_thread="sparsecore"

%called_computation.6 (param_0.109: s32[256], param_1.167: s32[1024], param_2.112: s32[1024], param_3.3115: token[]) -> s32[256] {
  %param_3.3115 = token[] parameter(3), backend_config={"flag_configs":[],"scoped_memory_configs":[],"implicit_sharding":{"type":"REPLICATED","tile_assignment_dimensions":[],"tile_assignment_devices":[],"tuple_shardings":[],"replicate_on_last_tile_dim":false,"metadata":[],"last_tile_dims":[],"iota_reshape_dims":[],"iota_transpose_perm":[],"is_shard_group":false,"shard_group_id":"0","shard_group_type":"AS"},"used_scoped_memory_configs":[]}
  %param_0.109 = s32[256]{0:T(256)} parameter(0), backend_config={"flag_configs":[],"scoped_memory_configs":[],"compute_type":"COMPUTE_TYPE_SCALAR","used_scoped_memory_configs":[]}
  %param_1.167 = s32[1024]{0:T(1024)} parameter(1), backend_config={"flag_configs":[],"scoped_memory_configs":[],"compute_type":"COMPUTE_TYPE_SCALAR","used_scoped_memory_configs":[]}
  %param_2.112 = s32[1024]{0:T(1024)} parameter(2), backend_config={"flag_configs":[],"scoped_memory_configs":[],"compute_type":"COMPUTE_TYPE_SCALAR","used_scoped_memory_configs":[]}
  %copy.2101.cloned.1.call-start = ((s32[256]{0:T(256)}), s32[256]{0:T(256)}, u32[]{:S(8)}) async-start(%param_0.109), async_execution_thread="sparsecore", calls=%async_computation.21
  %copy.2101.cloned.1.call-done = s32[256]{0:T(256)} async-done(%copy.2101.cloned.1.call-start)
  %scatter_offload_custom_fusion.40.cloned.1.call-start = ((s32[256]{0:T(256)}, s32[1024]{0:T(1024)}, s32[1024]{0:T(1024)}), s32[256]{0:T(256)}, u32[]{:S(8)}) async-start(%copy.2101.cloned.1.call-done, %param_1.167, %param_2.112), async_execution_thread="sparsecore", calls=%async_computation.22, metadata={op_name="jit(train_step)/jvp()/while/body/closed_call/shard_map/scatter-add" stack_frame_id=0}
  ROOT %scatter_offload_custom_fusion.40.cloned.1.call-done = s32[256]{0:T(256)} async-done(%scatter_offload_custom_fusion.40.cloned.1.call-start), metadata={op_name="jit(train_step)/jvp()/while/body/closed_call/shard_map/scatter-add" stack_frame_id=0}
}, execution_thread="sparsecore"

%async_computation.6 (param_0.110: s32[256], param_1.168: s32[1024], param_2.113: s32[1024], param_3.3114: token[]) -> s32[256] {
  %param_3.3114 = token[] parameter(3)
  %param_0.110 = s32[256]{0:T(256)} parameter(0)
  %param_1.168 = s32[1024]{0:T(1024)} parameter(1)
  %param_2.113 = s32[1024]{0:T(1024)} parameter(2)
  ROOT %scatter_offload_custom_fusion.20.cloned.1 = s32[256]{0:T(256)} call(%param_0.110, %param_1.168, %param_2.113, %param_3.3114), to_apply=%called_computation.6, metadata={op_name="jit(train_step)/jvp()/while/body/closed_call/shard_map/scatter-add" stack_frame_id=0}
}, execution_thread="sparsecore"

%called_computation.23 (param_0.4921: s32[257]) -> s32[257] {
  %param_0.4921 = s32[257]{0:T(512)} parameter(0)
  ROOT %copy.2102 = s32[257]{0:T(512)} copy(%param_0.4921), backend_config={"flag_configs":[],"window_config":{"kernel_window_bounds":[],"output_window_bounds":["32"],"input_window_bounds":[],"estimated_cycles":"1141","iteration_bounds":[],"scratchpad_allocation_size":"512","cost_model_type":"COST_MODEL_TYPE_INVALID","ml_estimated_microseconds":0,"is_mask":false,"pad_output_on_minor_dim":"0","pad_input_on_minor_dim":"0","estimated_vmem_bytes":"0","estimated_bundle_count":"0","estimated_scoped_vmem_bytes":"0"},"loop_config":{"loop_order":[],"unrolled_loops":[{"unroll_dimension":"0","unroll_factor":"16","pipeline_remainder":false,"fully_unroll_if_trip_count_is_at_most":"0"}],"vectorizing_shape":[]},"scoped_memory_configs":[],"compute_type":"COMPUTE_TYPE_TILE","used_scoped_memory_configs":[]}
}, execution_thread="sparsecore"

%async_computation.23 (param_0.4922: s32[257]) -> s32[257] {
  %param_0.4922 = s32[257]{0:T(512)} parameter(0)
  ROOT %copy.2103.cloned.1 = s32[257]{0:T(512)} call(%param_0.4922), to_apply=%called_computation.23
}, execution_thread="sparsecore"

%region_20.26.clone.1 (scatter-add.141: s32[], scatter-add.142: s32[]) -> s32[] {
  %scatter-add.141 = s32[]{:T(128)S(7)} parameter(0), metadata={op_name="scatter-add"}
…
  ROOT %reduce_sum.776 = f32[]{:T(128)} add(%reduce_sum.554, %reduce_sum.555), metadata={op_name="jit(train_step)/jvp()/reduce_sum" stack_frame_id=0}, backend_config={"flag_configs":[],"scoped_memory_configs":[],"used_scoped_memory_configs":[],"aliasing_operands":{"lists":[]}}
}

%fused_computation.551 (param_0.4483: bf16[128,129280], param_1.5214: f32[128], param_2.4183: bf16[128], param_3.2836: s32[128]) -> f32[128] {
  %param_3.2836 = s32[128]{0:T(128)S(1)} parameter(3)
  %eq.311 = s32[1,128,129280]{2,1,0:T(8,128)} broadcast(%param_3.2836), dimensions={1}, metadata={op_name="jit(train_step)/jvp(jit(_one_hot))/eq" stack_frame_id=0}
  %iota.289 = s32[1,128,129280]{2,1,0:T(8,128)} iota(), iota_dimension=2, metadata={op_name="jit(train_step)/jvp(jit(_one_hot))/eq" stack_frame_id=0}
  %eq.306 = pred[1,128,129280]{2,1,0:T(8,128)(4,1)} compare(%eq.311, %iota.289), direction=EQ, metadata={op_name="jit(train_step)/jvp(jit(_one_hot))/eq" stack_frame_id=0}
  %param_0.4483 = bf16[128,129280]{1,0:T(8,128)(2,1)S(1)} parameter(0)
  %convert_element_type.2498 = f32[128,129280]{1,0:T(8,128)} convert(%param_0.4483), metadata={op_name="jit(train_step)/jvp()/convert_element_type" stack_frame_id=0}
  %bitcast.1184 = f32[1,128,129280]{2,1,0:T(8,128)} bitcast(%convert_element_type.2498), metadata={op_name="jit(train_step)/jvp()/convert_element_type" stack_frame_id=0}
  %param_2.4183 = bf16[128]{0:T(256)(128)(2,1)S(1)} parameter(2)
  %sub.690 = f32[1,128,129280]{2,1,0:T(8,128)} broadcast(%param_2.4183), dimensions={1}, metadata={op_name="jit(train_step)/jvp()/sub" stack_frame_id=0}
  %sub.683 = f32[1,128,129280]{2,1,0:T(8,128)} subtract(%bitcast.1184, %sub.690), metadata={op_name="jit(train_step)/jvp()/sub" stack_frame_id=0}
  %param_1.5214 = f32[128]{0:T(128)S(1)} parameter(1)
  %sub.688 = f32[1,128,129280]{2,1,0:T(8,128)} broadcast(%param_1.5214), dimensions={1}, metadata={op_name="jit(train_step)/jvp()/sub" stack_frame_id=0}
  %sub.682 = f32[1,128,129280]{2,1,0:T(8,128)} subtract(%sub.683, %sub.688), metadata={op_name="jit(train_step)/jvp()/sub" stack_frame_id=0}
  %constant.6258 = f32[]{:T(128)} constant(0)
  %broadcast.3986 = f32[1,128,129280]{2,1,0:T(8,128)} broadcast(%constant.6258), dimensions={}, metadata={op_name="broadcast.563"}
  %mul.3626 = f32[1,128,129280]{2,1,0:T(8,128)} select(%eq.306, %sub.682, %broadcast.3986), metadata={op_name="jit(train_step)/jvp()/mul" stack_frame_id=0}
  ROOT %reduce.710 = f32[128]{0:T(128)S(1)} reduce(%mul.3626, %constant.6258), dimensions={0,2}, to_apply=%region_196.222, metadata={op_name="jit(train_step)/jvp()/reduce_sum" stack_frame_id=0}
}

%region_229.255 (reduce_sum.674: f32[], reduce_sum.679: f32[]) -> f32[] {
  %reduce_sum.674 = f32[]{:T(128)} parameter(0), metadata={op_name="jit(train_step)/reduce_sum"}
  %reduce_sum.679 = f32[]{:T(128)} parameter(1), metadata={op_name="jit(train_step)/reduce_sum"}
  ROOT %reduce_sum.1007 = f32[]{:T(128)} add(%reduce_sum.674, %reduce_sum.679), metadata={op_name="jit(train_step)/reduce_sum" stack_frame_id=0}, backend_config={"flag_configs":[],"scoped_memory_configs":[],"used_scoped_memory_configs":[],"aliasing_operands":{"lists":[]}}
}

%region_195.221 (reduce_sum.552: f32[], reduce_sum.553: f32[]) -> f32[] {
  %reduce_sum.552 = f32[]{:T(128)} parameter(0), metadata={op_name="jit(train_step)/reduce_sum"}
  %reduce_sum.553 = f32[]{:T(128)} parameter(1), metadata={op_name="jit(train_step)/reduce_sum"}
  ROOT %reduce_sum.769 = f32[]{:T(128)} add(%reduce_sum.552, %reduce_sum.553), metadata={op_name="jit(train_step)/reduce_sum" stack_frame_id=0}, backend_config={"flag_configs":[],"scoped_memory_configs":[],"used_scoped_memory_configs":[],"aliasing_operands":{"lists":[]}}
}

%fused_computation.552 (param_0.4416: f32[129280,128], param_1.5172: f32[], param_2.4148: f32[], param_3.2804: f32[], param_4.2151: f32[129280,128], param_5.1869: f32[], param_6.1255: bf16[129280,128], param_7.887: pred[], param_8.656: f32[129280,128]) -> (f32[], f32[129280,128], f32[129280,128], f32[129280,128], f32[]) {
  %param_0.4416 = f32[129280,128]{1,0:T(8,128)} parameter(0)
  %param_3.2804 = f32[]{:T(128)S(6)} parameter(3)
  %mul.4622.clone.1 = f32[129280,128]{1,0:T(8,128)} broadcast(%param_3.2804), dimensions={}, metadata={op_name="jit(train_step)/mul" stack_frame_id=0}
  %param_7.887 = pred[]{:T(512)S(6)} parameter(7)
  %select_n.2153.clone.1 = pred[129280,128]{1,0:T(8,128)(4,1)} broadcast(%param_7.887), dimensions={}, metadata={op_name="jit(train_step)/select_n" stack_frame_id=0}
  %param_6.1255 = bf16[129280,128]{1,0:T(8,128)(2,1)S(1)} parameter(6)
  %convert_element_type.2854.clone.1 = f32[129280,128]{1,0:T(8,128)} convert(%param_6.1255), metadata={op_name="jit(train_step)/transpose(jvp())/convert_element_type" stack_frame_id=0}
  %param_5.1869 = f32[]{:T(128)} parameter(5)
  %div.2510.clone.1 = f32[129280,128]{1,0:T(8,128)} broadcast(%param_5.1869), dimensions={}, metadata={op_name="jit(train_step)/div" stack_frame_id=0}
  %div.2509.clone.1 = f32[129280,128]{1,0:T(8,128)} divide(%convert_element_type.2854.clone.1, %div.2510.clone.1), metadata={op_name="jit(train_step)/div" stack_frame_id=0}
  %select_n.2152.clone.1 = f32[129280,128]{1,0:T(8,128)} select(%select_n.2153.clone.1, %convert_element_type.2854.clone.1, %div.2509.clone.1), metadata={op_name="jit(train_step)/select_n" stack_frame_id=0}
  %constant.5899.clone.1 = f32[]{:T(128)} constant(0.1)
  %broadcast.4387.clone.1 = f32[129280,128]{1,0:T(8,128)} broadcast(%constant.5899.clone.1), dimensions={}, metadata={op_name="broadcast.322"}
  %mul.4628.clone.1 = f32[129280,128]{1,0:T(8,128)} multiply(%select_n.2152.clone.1, %broadcast.4387.clone.1), metadata={op_name="jit(train_step)/mul" stack_frame_id=0}
  %param_8.656 = f32[129280,128]{1,0:T(8,128)} parameter(8)
  %constant.5903.clone.1 = f32[]{:T(128)} constant(0.9)
  %mul.4629.clone.1 = f32[129280,128]{1,0:T(8,128)} broadcast(%constant.5903.clone.1), dimensions={}, metadata={op_name="jit(train_step)/mul" stack_frame_id=0}
  %mul.4627.clone.1 = f32[129280,128]{1,0:T(8,128)} multiply(%param_8.656, %mul.4629.clone.1), metadata={op_name="jit(train_step)/mul" stack_frame_id=0}
  %add.3560.clone.1 = f32[129280,128]{1,0:T(8,128)} add(%mul.4628.clone.1, %mul.4627.clone.1), metadata={op_name="jit(train_step)/add" stack_frame_id=0}
  %param_2.4148 = f32[]{:T(128)S(6)} parameter(2)
  %div.2506.clone.1 = f32[129280,128]{1,0:T(8,128)} broadcast(%param_2.4148), dimensions={}, metadata={op_name="jit(train_step)/div" stack_frame_id=0}
  %integer_pow.373.clone.1 = f32[129280,128]{1,0:T(8,128)} multiply(%select_n.2152.clone.1, %select_n.2152.clone.1), metadata={op_name="jit(train_step)/integer_pow" stack_frame_id=0}
  %constant.5902.clone.1 = f32[]{:T(128)} constant(0.05)
  %mul.4626.clone.1 = f32[129280,128]{1,0:T(8,128)} broadcast(%constant.5902.clone.1), dimensions={}, metadata={op_name="jit(train_step)/mul" stack_frame_id=0}
  %mul.4624.clone.1 = f32[129280,128]{1,0:T(8,128)} multiply(%integer_pow.373.clone.1, %mul.4626.clone.1), metadata={op_name="jit(train_step)/mul" stack_frame_id=0}
  %param_4.2151 = f32[129280,128]{1,0:T(8,128)} parameter(4)
  %constant.5901.clone.1 = f32[]{:T(128)} constant(0.95)
  %mul.4625.clone.1 = f32[129280,128]{1,0:T(8,128)} broadcast(%constant.5901.clone.1), dimensions={}, metadata={op_name="jit(train_step)/mul" stack_frame_id=0}
  %mul.4623.clone.1 = f32[129280,128]{1,0:T(8,128)} multiply(%param_4.2151, %mul.4625.clone.1), metadata={op_name="jit(train_step)/mul" stack_frame_id=0}
  %add.3559.clone.1 = f32[129280,128]{1,0:T(8,128)} add(%mul.4624.clone.1, %mul.4623.clone.1), metadata={op_name="jit(train_step)/add" stack_frame_id=0}
  %param_1.5172 = f32[]{:T(128)S(6)} parameter(1)
  %div.2505.clone.1 = f32[129280,128]{1,0:T(8,128)} broadcast(%param_1.5172), dimensions={}, metadata={op_name="jit(train_step)/div" stack_frame_id=0}
  %div.2504.clone.1 = f32[129280,128]{1,0:T(8,128)} divide(%add.3559.clone.1, %div.2505.clone.1), metadata={op_name="jit(train_step)/div" stack_frame_id=0}
  %sqrt.145.clone.1 = f32[129280,128]{1,0:T(8,128)} sqrt(%div.2504.clone.1), metadata={op_name="jit(train_step)/sqrt" stack_frame_id=0}
  %constant.5900.clone.1 = f32[]{:T(128)} constant(1e-08)
  %add.3558.clone.1 = f32[129280,128]{1,0:T(8,128)} broadcast(%constant.5900.clone.1), dimensions={}, metadata={op_name="jit(train_step)/add" stack_frame_id=0}
  %add.3557.clone.1 = f32[129280,128]{1,0:T(8,128)} add(%sqrt.145.clone.1, %add.3558.clone.1), metadata={op_name="jit(train_step)/add" stack_frame_id=0}
  %multiply.1404.clone.1 = f32[129280,128]{1,0:T(8,128)} multiply(%div.2506.clone.1, %add.3557.clone.1), metadata={op_name="multiply.307"}
  %div.2503.clone.1 = f32[129280,128]{1,0:T(8,128)} divide(%add.3560.clone.1, %multiply.1404.clone.1), metadata={op_name="jit(train_step)/div" stack_frame_id=0}
  %mul.4621.clone.1 = f32[129280,128]{1,0:T(8,128)} multiply(%param_0.4416, %broadcast.4387.clone.1), metadata={op_name="jit(train_step)/mul" stack_frame_id=0}
  %add.3556.clone.1 = f32[129280,128]{1,0:T(8,128)} add(%div.2503.clone.1, %mul.4621.clone.1), metadata={op_name="jit(train_step)/add" stack_frame_id=0}
  %mul.4620.clone.1 = f32[129280,128]{1,0:T(8,128)} multiply(%mul.4622.clone.1, %add.3556.clone.1), metadata={op_name="jit(train_step)/mul" stack_frame_id=0}
  %add.3555.clone.1 = f32[129280,128]{1,0:T(8,128)} add(%param_0.4416, %mul.4620.clone.1), metadata={op_name="jit(train_step)/add" stack_frame_id=0}
  %square.567 = f32[129280,128]{1,0:T(8,128)} multiply(%add.3555.clone.1, %add.3555.clone.1), metadata={op_name="jit(train_step)/square" stack_frame_id=0}
  %constant.6189 = f32[]{:T(128)} constant(0)
  %reduce.711 = f32[]{:T(128)} reduce(%square.567, %constant.6189), dimensions={0,1}, to_apply=%region_229.255, metadata={op_name="jit(train_step)/reduce_sum" stack_frame_id=0}
  %reduce.716.clone.1 = f32[]{:T(128)} reduce(%integer_pow.373.clone.1, %constant.6189), dimensions={0,1}, to_apply=%region_195.221, metadata={op_name="jit(train_step)/reduce_sum" stack_frame_id=0}
  ROOT %tuple.643 = (f32[]{:T(128)}, f32[129280,128]{1,0:T(8,128)}, f32[129280,128]{1,0:T(8,128)}, f32[129280,128]{1,0:T(8,128)}, f32[]{:T(128)}) tuple(%reduce.711, %add.3555.clone.1, %add.3559.clone.1, %add.3560.clone.1, %reduce.716.clone.1)
}

%region_211.237 (reduce_sum.608: f32[], reduce_sum.609: f32[]) -> f32[] {
  %reduce_sum.608 = f32[]{:T(128)} parameter(0), metadata={op_name="jit(train_step)/reduce_sum"}
  %reduce_sum.609 = f32[]{:T(128)} parameter(1), metadata={op_name="jit(train_step)/reduce_sum"}
  ROOT %reduce_sum.881 = f32[]{:T(128)} add(%reduce_sum.608, %reduce_sum.609), metadata={op_name="jit(train_step)/reduce_sum" stack_frame_id=0}, backend_config={"flag_configs":[],"scoped_memory_configs":[],"used_scoped_memory_configs":[],"aliasing_operands":{"lists":[]}}
}

%region_178.204 (reduce_sum.490: f32[], reduce_sum.491: f32[]) -> f32[] {
  %reduce_sum.490 = f32[]{:T(128)} parameter(0), metadata={op_name="jit(train_step)/reduce_sum"}
  %reduce_sum.491 = f32[]{:T(128)} parameter(1), metadata={op_name="jit(train_step)/reduce_sum"}
  ROOT %reduce_sum.492 = f32[]{:T(128)} add(%reduce_sum.490, %reduce_sum.491), metadata={op_name="jit(train_step)/reduce_sum" stack_frame_id=0}, backend_config={"flag_configs":[],"scoped_memory_configs":[],"used_scoped_memory_configs":[],"aliasing_operands":{"lists":[]}}
}

%fused_computation.553 (param_0.4431: f32[128,129280], param_1.5187: f32[], param_2.4163: f32[], param_3.2819: f32[], param_4.2166: f32[128,129280], param_5.1884: f32[], param_6.1270: bf16[128,129280], param_7.902: pred[], param_8.670: f32[128,129280]) -> (f32[], f32[128,129280], f32[128,129280], f32[128,129280], f32[]) {
  %param_0.4431 = f32[128,129280]{1,0:T(8,128)} parameter(0)
  %param_3.2819 = f32[]{:T(128)S(6)} parameter(3)
  %mul.4744.clone.1 = f32[128,129280]{1,0:T(8,128)} broadcast(%param_3.2819), dimensions={}, metadata={op_name="jit(train_step)/mul" stack_frame_id=0}
  %param_7.902 = pred[]{:T(512)S(6)} parameter(7)
  %select_n.2201.clone.1 = pred[128,129280]{1,0:T(8,128)(4,1)} broadcast(%param_7.902), dimensions={}, metadata={op_name="jit(train_step)/select_n" stack_frame_id=0}
  %param_6.1270 = bf16[128,129280]{1,0:T(8,128)(2,1)} parameter(6)
  %convert_element_type.2856.clone.1 = f32[128,129280]{1,0:T(8,128)} convert(%param_6.1270), metadata={op_name="jit(train_step)/transpose(jvp())/convert_element_type" stack_frame_id=0}
  %param_5.1884 = f32[]{:T(128)} parameter(5)
  %div.2614.clone.1 = f32[128,129280]{1,0:T(8,128)} broadcast(%param_5.1884), dimensions={}, metadata={op_name="jit(train_step)/div" stack_frame_id=0}
  %div.2613.clone.1 = f32[128,129280]{1,0:T(8,128)} divide(%convert_element_type.2856.clone.1, %div.2614.clone.1), metadata={op_name="jit(train_step)/div" stack_frame_id=0}
  %select_n.2200.clone.1 = f32[128,129280]{1,0:T(8,128)} select(%select_n.2201.clone.1, %convert_element_type.2856.clone.1, %div.2613.clone.1), metadata={op_name="jit(train_step)/select_n" stack_frame_id=0}
  %constant.5988.clone.1 = f32[]{:T(128)} constant(0.1)
  %broadcast.4435.clone.1 = f32[128,129280]{1,0:T(8,128)} broadcast(%constant.5988.clone.1), dimensions={}, metadata={op_name="broadcast.337"}
  %mul.4750.clone.1 = f32[128,129280]{1,0:T(8,128)} multiply(%select_n.2200.clone.1, %broadcast.4435.clone.1), metadata={op_name="jit(train_step)/mul" stack_frame_id=0}
  %param_8.670 = f32[128,129280]{1,0:T(8,128)} parameter(8)
  %constant.5992.clone.1 = f32[]{:T(128)} constant(0.9)
  %mul.4751.clone.1 = f32[128,129280]{1,0:T(8,128)} broadcast(%constant.5992.clone.1), dimensions={}, metadata={op_name="jit(train_step)/mul" stack_frame_id=0}
  %mul.4749.clone.1 = f32[128,129280]{1,0:T(8,128)} multiply(%param_8.670, %mul.4751.clone.1), metadata={op_name="jit(train_step)/mul" stack_frame_id=0}
  %add.3638.clone.1 = f32[128,129280]{1,0:T(8,128)} add(%mul.4750.clone.1, %mul.4749.clone.1), metadata={op_name="jit(train_step)/add" stack_frame_id=0}
  %param_2.4163 = f32[]{:T(128)S(6)} parameter(2)
  %div.2610.clone.1 = f32[128,129280]{1,0:T(8,128)} broadcast(%param_2.4163), dimensions={}, metadata={op_name="jit(train_step)/div" stack_frame_id=0}
  %integer_pow.387.clone.1 = f32[128,129280]{1,0:T(8,128)} multiply(%select_n.2200.clone.1, %select_n.2200.clone.1), metadata={op_name="jit(train_step)/integer_pow" stack_frame_id=0}
  %constant.5991.clone.1 = f32[]{:T(128)} constant(0.05)
  %mul.4748.clone.1 = f32[128,129280]{1,0:T(8,128)} broadcast(%constant.5991.clone.1), dimensions={}, metadata={op_name="jit(train_step)/mul" stack_frame_id=0}
  %mul.4746.clone.1 = f32[128,129280]{1,0:T(8,128)} multiply(%integer_pow.387.clone.1, %mul.4748.clone.1), metadata={op_name="jit(train_step)/mul" stack_frame_id=0}
  %param_4.2166 = f32[128,129280]{1,0:T(8,128)} parameter(4)
  %constant.5990.clone.1 = f32[]{:T(128)} constant(0.95)
  %mul.4747.clone.1 = f32[128,129280]{1,0:T(8,128)} broadcast(%constant.5990.clone.1), dimensions={}, metadata={op_name="jit(train_step)/mul" stack_frame_id=0}
  %mul.4745.clone.1 = f32[128,129280]{1,0:T(8,128)} multiply(%param_4.2166, %mul.4747.clone.1), metadata={op_name="jit(train_step)/mul" stack_frame_id=0}
  %add.3637.clone.1 = f32[128,129280]{1,0:T(8,128)} add(%mul.4746.clone.1, %mul.4745.clone.1), metadata={op_name="jit(train_step)/add" stack_frame_id=0}
  %param_1.5187 = f32[]{:T(128)S(6)} parameter(1)
  %div.2609.clone.1 = f32[128,129280]{1,0:T(8,128)} broadcast(%param_1.5187), dimensions={}, metadata={op_name="jit(train_step)/div" stack_frame_id=0}
  %div.2608.clone.1 = f32[128,129280]{1,0:T(8,128)} divide(%add.3637.clone.1, %div.2609.clone.1), metadata={op_name="jit(train_step)/div" stack_frame_id=0}
  %sqrt.159.clone.1 = f32[128,129280]{1,0:T(8,128)} sqrt(%div.2608.clone.1), metadata={op_name="jit(train_step)/sqrt" stack_frame_id=0}
  %constant.5989.clone.1 = f32[]{:T(128)} constant(1e-08)
  %add.3636.clone.1 = f32[128,129280]{1,0:T(8,128)} broadcast(%constant.5989.clone.1), dimensions={}, metadata={op_name="jit(train_step)/add" stack_frame_id=0}
  %add.3635.clone.1 = f32[128,129280]{1,0:T(8,128)} add(%sqrt.159.clone.1, %add.3636.clone.1), metadata={op_name="jit(train_step)/add" stack_frame_id=0}
  %multiply.1418.clone.1 = f32[128,129280]{1,0:T(8,128)} multiply(%div.2610.clone.1, %add.3635.clone.1), metadata={op_name="multiply.289"}
  %div.2607.clone.1 = f32[128,129280]{1,0:T(8,128)} divide(%add.3638.clone.1, %multiply.1418.clone.1), metadata={op_name="jit(train_step)/div" stack_frame_id=0}
  %mul.4743.clone.1 = f32[128,129280]{1,0:T(8,128)} multiply(%param_0.4431, %broadcast.4435.clone.1), metadata={op_name="jit(train_step)/mul" stack_frame_id=0}
  %add.3634.clone.1 = f32[128,129280]{1,0:T(8,128)} add(%div.2607.clone.1, %mul.4743.clone.1), metadata={op_name="jit(train_step)/add" stack_frame_id=0}
  %mul.4742.clone.1 = f32[128,129280]{1,0:T(8,128)} multiply(%mul.4744.clone.1, %add.3634.clone.1), metadata={op_name="jit(train_step)/mul" stack_frame_id=0}
  %add.3633.clone.1 = f32[128,129280]{1,0:T(8,128)} add(%param_0.4431, %mul.4742.clone.1), metadata={op_name="jit(train_step)/add" stack_frame_id=0}
  %square.568 = f32[128,129280]{1,0:T(8,128)} multiply(%add.3633.clone.1, %add.3633.clone.1), metadata={op_name="jit(train_step)/square" stack_frame_id=0}
  %constant.6204 = f32[]{:T(128)} constant(0)
  %reduce.712 = f32[]{:T(128)} reduce(%square.568, %constant.6204), dimensions={0,1}, to_apply=%region_211.237, metadata={op_name="jit(train_step)/reduce_sum" stack_frame_id=0}
  %reduce.717.clone.1 = f32[]{:T(128)} reduce(%integer_pow.387.clone.1, %constant.6204), dimensions={0,1}, to_apply=%region_178.204, metadata={op_name="jit(train_step)/reduce_sum" stack_frame_id=0}
  ROOT %tuple.644 = (f32[]{:T(128)}, f32[128,129280]{1,0:T(8,128)}, f32[128,129280]{1,0:T(8,128)}, f32[128,129280]{1,0:T(8,128)}, f32[]{:T(128)}) tuple(%reduce.712, %add.3633.clone.1, %add.3637.clone.1, %add.3638.clone.1, %reduce.717.clone.1)
}

%region_143.169 (reduce_sum.282: f32[], reduce_sum.289: f32[]) -> f32[] {
  %reduce_sum.282 = f32[]{:T(128)} parameter(0), metadata={op_name="jit(train_step)/reduce_sum"}
  %reduce_sum.289 = f32[]{:T(128)} parameter(1), metadata={op_name="jit(train_step)/reduce_sum"}
  ROOT %reduce_sum.296 = f32[]{:T(128)} add(%reduce_sum.282, %reduce_sum.289), metadata={op_name="jit(train_step)/reduce_sum" stack_frame_id=0}, backend_config={"flag_configs":[],"scoped_memory_configs":[],"used_scoped_memory_configs":[],"aliasing_operands":{"lists":[]}}
}

%fused_computation.568 (param_0.4465: f32[3,128,128,256]) -> f32[] {
  %param_0.4465 = f32[3,128,128,256]{3,2,0,1:T(8,128)S(1)} parameter(0)
  %bitcast.1206 = f32[128,3,128,256]{3,2,1,0:T(8,128)} bitcast(%param_0.4465), metadata={op_name="jit(train_step)/transpose(jvp())/transpose" stack_frame_id=0}
  %square.571 = f32[128,3,128,256]{3,2,1,0:T(8,128)} multiply(%bitcast.1206, %bitcast.1206), metadata={op_name="jit(train_step)/square" stack_frame_id=0}
  %constant.6238 = f32[]{:T(128)} constant(0)
  ROOT %reduce.718 = f32[]{:T(128)} reduce(%square.571, %constant.6238), dimensions={0,1,2,3}, to_apply=%region_143.169, metadata={op_name="jit(train_step)/reduce_sum" stack_frame_id=0}
}

%fused_computation.569 (param_0.1678: f32[128,3,128,256]) -> bf16[3,128,128,256] {
  %param_0.1678 = f32[128,3,128,256]{3,2,1,0:T(8,128)S(1)} parameter(0)
  %copy.1446 = bf16[128,3,128,256]{3,0,2,1:T(8,128)(2,1)} copy(%param_0.1678), sharding={devices=[4,1,1,1]<=[4]}, metadata={op_name="state[\'model\'][\'decoder\'][\'dense_layers\'][\'self_attention\'][\'wkv_b\'][\'kernel\'].value"}
  ROOT %bitcast.1207 = bf16[3,128,128,256]{3,1,2,0:T(8,128)(2,1)} bitcast(%copy.1446), metadata={op_name="jit(train_step)/jvp()/transpose" stack_frame_id=0}
}

%region_208.234 (reduce_sum.596: f32[], reduce_sum.597: f32[]) -> f32[] {
  %reduce_sum.596 = f32[]{:T(128)} parameter(0), metadata={op_name="jit(train_step)/reduce_sum"}
  %reduce_sum.597 = f32[]{:T(128)} parameter(1), metadata={op_name="jit(train_step)/reduce_sum"}
  ROOT %reduce_sum.860 = f32[]{:T(128)} add(%reduce_sum.596, %reduce_sum.597), metadata={op_name="jit(train_step)/reduce_sum" stack_frame_id=0}, backend_config={"flag_configs":[],"scoped_memory_configs":[],"used_scoped_memory_configs":[],"aliasing_operands":{"lists":[]}}
}

%region_175.201 (reduce_sum.475: f32[], reduce_sum.476: f32[]) -> f32[] {
  %reduce_sum.475 = f32[]{:T(128)} parameter(0), metadata={op_name="jit(train_step)/reduce_sum"}
  %reduce_sum.476 = f32[]{:T(128)} parameter(1), metadata={op_name="jit(train_step)/reduce_sum"}
  ROOT %reduce_sum.477 = f32[]{:T(128)} add(%reduce_sum.475, %reduce_sum.476), metadata={op_name="jit(train_step)/reduce_sum" stack_frame_id=0}, backend_config={"flag_configs":[],"scoped_memory_configs":[],"used_scoped_memory_configs":[],"aliasing_operands":{"lists":[]}}
}

%fused_computation.570 (param_0.4434: f32[128,3,128,256], param_1.5190: f32[], param_2.4166: f32[], param_3.2822: f32[], param_4.2169: f32[128,3,128,256], param_5.1887: f32[], param_6.1273: f32[3,128,128,256], param_7.905: pred[], param_8.673: f32[128,3,128,256]) -> (f32[], f32[128,3,128,256], f32[128,3,128,256], f32[128,3,128,256], f32[]) {
  %param_0.4434 = f32[128,3,128,256]{3,2,1,0:T(8,128)} parameter(0)
  %param_3.2822 = f32[]{:T(128)S(6)} parameter(3)
  %mul.4774.clone.1 = f32[128,3,128,256]{3,2,1,0:T(8,128)} broadcast(%param_3.2822), dimensions={}, metadata={op_name="jit(train_step)/mul" stack_frame_id=0}
  %param_7.905 = pred[]{:T(512)S(6)} parameter(7)
  %select_n.2213.clone.1 = pred[128,3,128,256]{3,2,1,0:T(8,128)(4,1)} broadcast(%param_7.905), dimensions={}, metadata={op_name="jit(train_step)/select_n" stack_frame_id=0}
  %param_6.1273 = f32[3,128,128,256]{3,2,0,1:T(8,128)S(1)} parameter(6)
  %bitcast.2055.clone.1 = f32[128,3,128,256]{3,2,1,0:T(8,128)} bitcast(%param_6.1273), metadata={op_name="jit(train_step)/transpose(jvp())/transpose" stack_frame_id=0}
  %param_5.1887 = f32[]{:T(128)} parameter(5)
  %div.2638.clone.1 = f32[128,3,128,256]{3,2,1,0:T(8,128)} broadcast(%param_5.1887), dimensions={}, metadata={op_name="jit(train_step)/div" stack_frame_id=0}
  %div.2637.clone.1 = f32[128,3,128,256]{3,2,1,0:T(8,128)} divide(%bitcast.2055.clone.1, %div.2638.clone.1), metadata={op_name="jit(train_step)/div" stack_frame_id=0}
  %select_n.2212.clone.1 = f32[128,3,128,256]{3,2,1,0:T(8,128)} select(%select_n.2213.clone.1, %bitcast.2055.clone.1, %div.2637.clone.1), metadata={op_name="jit(train_step)/select_n" stack_frame_id=0}
  %constant.6006.clone.1 = f32[]{:T(128)} constant(0.1)
  %broadcast.4441.clone.1 = f32[128,3,128,256]{3,2,1,0:T(8,128)} broadcast(%constant.6006.clone.1), dimensions={}, metadata={op_name="broadcast.340"}
  %mul.4780.clone.1 = f32[128,3,128,256]{3,2,1,0:T(8,128)} multiply(%select_n.2212.clone.1, %broadcast.4441.clone.1), metadata={op_name="jit(train_step)/mul" stack_frame_id=0}
  %param_8.673 = f32[128,3,128,256]{3,2,1,0:T(8,128)} parameter(8)
  %constant.6010.clone.1 = f32[]{:T(128)} constant(0.9)
  %mul.4781.clone.1 = f32[128,3,128,256]{3,2,1,0:T(8,128)} broadcast(%constant.6010.clone.1), dimensions={}, metadata={op_name="jit(train_step)/mul" stack_frame_id=0}
  %mul.4779.clone.1 = f32[128,3,128,256]{3,2,1,0:T(8,128)} multiply(%param_8.673, %mul.4781.clone.1), metadata={op_name="jit(train_step)/mul" stack_frame_id=0}
  %add.3656.clone.1 = f32[128,3,128,256]{3,2,1,0:T(8,128)} add(%mul.4780.clone.1, %mul.4779.clone.1), metadata={op_name="jit(train_step)/add" stack_frame_id=0}
  %param_2.4166 = f32[]{:T(128)S(6)} parameter(2)
  %div.2634.clone.1 = f32[128,3,128,256]{3,2,1,0:T(8,128)} broadcast(%param_2.4166), dimensions={}, metadata={op_name="jit(train_step)/div" stack_frame_id=0}
  %integer_pow.390.clone.1 = f32[128,3,128,256]{3,2,1,0:T(8,128)} multiply(%select_n.2212.clone.1, %select_n.2212.clone.1), metadata={op_name="jit(train_step)/integer_pow" stack_frame_id=0}
  %constant.6009.clone.1 = f32[]{:T(128)} constant(0.05)
  %mul.4778.clone.1 = f32[128,3,128,256]{3,2,1,0:T(8,128)} broadcast(%constant.6009.clone.1), dimensions={}, metadata={op_name="jit(train_step)/mul" stack_frame_id=0}
  %mul.4776.clone.1 = f32[128,3,128,256]{3,2,1,0:T(8,128)} multiply(%integer_pow.390.clone.1, %mul.4778.clone.1), metadata={op_name="jit(train_step)/mul" stack_frame_id=0}
  %param_4.2169 = f32[128,3,128,256]{3,2,1,0:T(8,128)} parameter(4)
  %constant.6008.clone.1 = f32[]{:T(128)} constant(0.95)
  %mul.4777.clone.1 = f32[128,3,128,256]{3,2,1,0:T(8,128)} broadcast(%constant.6008.clone.1), dimensions={}, metadata={op_name="jit(train_step)/mul" stack_frame_id=0}
  %mul.4775.clone.1 = f32[128,3,128,256]{3,2,1,0:T(8,128)} multiply(%param_4.2169, %mul.4777.clone.1), metadata={op_name="jit(train_step)/mul" stack_frame_id=0}
  %add.3655.clone.1 = f32[128,3,128,256]{3,2,1,0:T(8,128)} add(%mul.4776.clone.1, %mul.4775.clone.1), metadata={op_name="jit(train_step)/add" stack_frame_id=0}
  %param_1.5190 = f32[]{:T(128)S(6)} parameter(1)
  %div.2633.clone.1 = f32[128,3,128,256]{3,2,1,0:T(8,128)} broadcast(%param_1.5190), dimensions={}, metadata={op_name="jit(train_step)/div" stack_frame_id=0}
  %div.2632.clone.1 = f32[128,3,128,256]{3,2,1,0:T(8,128)} divide(%add.3655.clone.1, %div.2633.clone.1), metadata={op_name="jit(train_step)/div" stack_frame_id=0}
  %sqrt.162.clone.1 = f32[128,3,128,256]{3,2,1,0:T(8,128)} sqrt(%div.2632.clone.1), metadata={op_name="jit(train_step)/sqrt" stack_frame_id=0}
  %constant.6007.clone.1 = f32[]{:T(128)} constant(1e-08)
  %add.3654.clone.1 = f32[128,3,128,256]{3,2,1,0:T(8,128)} broadcast(%constant.6007.clone.1), dimensions={}, metadata={op_name="jit(train_step)/add" stack_frame_id=0}
  %add.3653.clone.1 = f32[128,3,128,256]{3,2,1,0:T(8,128)} add(%sqrt.162.clone.1, %add.3654.clone.1), metadata={op_name="jit(train_step)/add" stack_frame_id=0}
  %multiply.1421.clone.1 = f32[128,3,128,256]{3,2,1,0:T(8,128)} multiply(%div.2634.clone.1, %add.3653.clone.1), metadata={op_name="multiply.286"}
  %div.2631.clone.1 = f32[128,3,128,256]{3,2,1,0:T(8,128)} divide(%add.3656.clone.1, %multiply.1421.clone.1), metadata={op_name="jit(train_step)/div" stack_frame_id=0}
  %mul.4773.clone.1 = f32[128,3,128,256]{3,2,1,0:T(8,128)} multiply(%param_0.4434, %broadcast.4441.clone.1), metadata={op_name="jit(train_step)/mul" stack_frame_id=0}
  %add.3652.clone.1 = f32[128,3,128,256]{3,2,1,0:T(8,128)} add(%div.2631.clone.1, %mul.4773.clone.1), metadata={op_name="jit(train_step)/add" stack_frame_id=0}
  %mul.4772.clone.1 = f32[128,3,128,256]{3,2,1,0:T(8,128)} multiply(%mul.4774.clone.1, %add.3652.clone.1), metadata={op_name="jit(train_step)/mul" stack_frame_id=0}
  %add.3651.clone.1 = f32[128,3,128,256]{3,2,1,0:T(8,128)} add(%param_0.4434, %mul.4772.clone.1), metadata={op_name="jit(train_step)/add" stack_frame_id=0}
  %square.572 = f32[128,3,128,256]{3,2,1,0:T(8,128)} multiply(%add.3651.clone.1, %add.3651.clone.1), metadata={op_name="jit(train_step)/square" stack_frame_id=0}
  %constant.6207 = f32[]{:T(128)} constant(0)
  %reduce.719 = f32[]{:T(128)} reduce(%square.572, %constant.6207), dimensions={0,1,2,3}, to_apply=%region_208.234, metadata={op_name="jit(train_step)/reduce_sum" stack_frame_id=0}
  %reduce.720.clone.1 = f32[]{:T(128)} reduce(%integer_pow.390.clone.1, %constant.6207), dimensions={0,1,2,3}, to_apply=%region_175.201, metadata={op_name="jit(train_step)/reduce_sum" stack_frame_id=0}
  ROOT %tuple.640 = (f32[]{:T(128)}, f32[128,3,128,256]{3,2,1,0:T(8,128)}, f32[128,3,128,256]{3,2,1,0:T(8,128)}, f32[128,3,128,256]{3,2,1,0:T(8,128)}, f32[]{:T(128)}) tuple(%reduce.719, %add.3651.clone.1, %add.3655.clone.1, %add.3656.clone.1, %reduce.720.clone.1)
}

%region_162.188 (reduce_sum.412: f32[], reduce_sum.413: f32[]) -> f32[] {
  %reduce_sum.412 = f32[]{:T(128)} parameter(0), metadata={op_name="jit(train_step)/reduce_sum"}
  %reduce_sum.413 = f32[]{:T(128)} parameter(1), metadata={op_name="jit(train_step)/reduce_sum"}
  ROOT %reduce_sum.414 = f32[]{:T(128)} add(%reduce_sum.412, %reduce_sum.413), metadata={op_name="jit(train_step)/reduce_sum" stack_frame_id=0}, backend_config={"flag_configs":[],"scoped_memory_configs":[],"used_scoped_memory_configs":[],"aliasing_operands":{"lists":[]}}
}

%fused_computation.579 (param_0.4449: bf16[384,128,192]) -> f32[] {
  %param_0.4449 = bf16[384,128,192]{1,0,2:T(8,128)(2,1)} parameter(0)
  %broadcast_in_dim.1323 = f32[384,128,192]{1,0,2:T(8,128)} convert(%param_0.4449), metadata={op_name="jit(train_step)/transpose(jvp())/while/body/broadcast_in_dim" stack_frame_id=0}
  %bitcast.1217 = f32[384,1,128,192]{2,0,3,1:T(8,128)} bitcast(%broadcast_in_dim.1323), metadata={op_name="jit(train_step)/transpose(jvp())/transpose" stack_frame_id=0}
  %square.575 = f32[384,1,128,192]{2,0,3,1:T(8,128)} multiply(%bitcast.1217, %bitcast.1217), metadata={op_name="jit(train_step)/square" stack_frame_id=0}
  %constant.6222 = f32[]{:T(128)} constant(0)
  ROOT %reduce.721 = f32[]{:T(128)} reduce(%square.575, %constant.6222), dimensions={0,1,2,3}, to_apply=%region_162.188, metadata={op_name="jit(train_step)/reduce_sum" stack_frame_id=0}
}

%region_228.254 (reduce_sum.672: f32[], reduce_sum.673: f32[]) -> f32[] {
  %reduce_sum.672 = f32[]{:T(128)} parameter(0), metadata={op_name="jit(train_step)/reduce_sum"}
  %reduce_sum.673 = f32[]{:T(128)} parameter(1), metadata={op_name="jit(train_step)/reduce_sum"}
  ROOT %reduce_sum.1000 = f32[]{:T(128)} add(%reduce_sum.672, %reduce_sum.673), metadata={op_name="jit(train_step)/reduce_sum" stack_frame_id=0}, backend_config={"flag_configs":[],"scoped_memory_configs":[],"used_scoped_memory_configs":[],"aliasing_operands":{"lists":[]}}
}

%region_194.220 (reduce_sum.547: f32[], reduce_sum.548: f32[]) -> f32[] {
  %reduce_sum.547 = f32[]{:T(128)} parameter(0), metadata={op_name="jit(train_step)/reduce_sum"}
  %reduce_sum.548 = f32[]{:T(128)} parameter(1), metadata={op_name="jit(train_step)/reduce_sum"}
  ROOT %reduce_sum.762 = f32[]{:T(128)} add(%reduce_sum.547, %reduce_sum.548), metadata={op_name="jit(train_step)/reduce_sum" stack_frame_id=0}, backend_config={"flag_configs":[],"scoped_memory_configs":[],"used_scoped_memory_configs":[],"aliasing_operands":{"lists":[]}}
}

%fused_computation.584 (param_0.4417: f32[], param_1.5173: f32[], param_2.4149: f32[], param_3.2805: f32[384,1,128,192], param_4.2152: f32[384,1,128,192], param_5.1870: f32[], param_6.1256: bf16[384,128,192], param_7.888: pred[], param_8.657: f32[384,1,128,192]) -> (f32[], f32[384,1,128,192], f32[384,1,128,192], f32[384,1,128,192], f32[]) {
  %param_3.2805 = f32[384,1,128,192]{2,3,1,0:T(8,128)} parameter(3)
  %copy.1517.clone.1 = f32[384,1,128,192]{2,0,3,1:T(8,128)} copy(%param_3.2805), sharding={devices=[4,1,1,1]<=[4]}, metadata={op_name="state[\'model\'][\'decoder\'][\'moe_layers\'][\'self_attention\'][\'wq_b\'][\'kernel\'].value"}
  %param_2.4149 = f32[]{:T(128)S(6)} parameter(2)
  %mul.4632.clone.1 = f32[384,1,128,192]{2,0,3,1:T(8,128)} broadcast(%param_2.4149), dimensions={}, metadata={op_name="jit(train_step)/mul" stack_frame_id=0}
  %param_7.888 = pred[]{:T(512)S(6)} parameter(7)
  %select_n.2157.clone.1 = pred[384,1,128,192]{2,0,3,1:T(8,128)(4,1)} broadcast(%param_7.888), dimensions={}, metadata={op_name="jit(train_step)/select_n" stack_frame_id=0}
  %param_6.1256 = bf16[384,128,192]{1,0,2:T(8,128)(2,1)S(1)} parameter(6)
  %broadcast_in_dim.1499.clone.1 = f32[384,128,192]{1,0,2:T(8,128)} convert(%param_6.1256), metadata={op_name="jit(train_step)/transpose(jvp())/while/body/broadcast_in_dim" stack_frame_id=0}
  %bitcast.2021.clone.1 = f32[384,1,128,192]{2,0,3,1:T(8,128)} bitcast(%broadcast_in_dim.1499.clone.1), metadata={op_name="jit(train_step)/transpose(jvp())/transpose" stack_frame_id=0}
  %param_5.1870 = f32[]{:T(128)} parameter(5)
  %div.2518.clone.1 = f32[384,1,128,192]{2,0,3,1:T(8,128)} broadcast(%param_5.1870), dimensions={}, metadata={op_name="jit(train_step)/div" stack_frame_id=0}
  %div.2517.clone.1 = f32[384,1,128,192]{2,0,3,1:T(8,128)} divide(%bitcast.2021.clone.1, %div.2518.clone.1), metadata={op_name="jit(train_step)/div" stack_frame_id=0}
  %select_n.2156.clone.1 = f32[384,1,128,192]{2,0,3,1:T(8,128)} select(%select_n.2157.clone.1, %bitcast.2021.clone.1, %div.2517.clone.1), metadata={op_name="jit(train_step)/select_n" stack_frame_id=0}
  %constant.5905.clone.1 = f32[]{:T(128)} constant(0.1)
  %broadcast.4389.clone.1 = f32[384,1,128,192]{2,0,3,1:T(8,128)} broadcast(%constant.5905.clone.1), dimensions={}, metadata={op_name="broadcast.2537"}
  %mul.4638.clone.1 = f32[384,1,128,192]{2,0,3,1:T(8,128)} multiply(%select_n.2156.clone.1, %broadcast.4389.clone.1), metadata={op_name="jit(train_step)/mul" stack_frame_id=0}
  %param_8.657 = f32[384,1,128,192]{2,3,1,0:T(8,128)} parameter(8)
  %copy.1519.clone.1 = f32[384,1,128,192]{2,0,3,1:T(8,128)} copy(%param_8.657), sharding={devices=[4,1,1,1]<=[4]}, metadata={op_name="state[\'optimizer\'][\'opt_state\'][0][\'mu\'][\'decoder\'][\'moe_layers\'][\'self_attention\'][\'wq_b\'][\'kernel\'].value"}
  %constant.5909.clone.1 = f32[]{:T(128)} constant(0.9)
  %mul.4639.clone.1 = f32[384,1,128,192]{2,0,3,1:T(8,128)} broadcast(%constant.5909.clone.1), dimensions={}, metadata={op_name="jit(train_step)/mul" stack_frame_id=0}
  %mul.4637.clone.1 = f32[384,1,128,192]{2,0,3,1:T(8,128)} multiply(%copy.1519.clone.1, %mul.4639.clone.1), metadata={op_name="jit(train_step)/mul" stack_frame_id=0}
  %add.3566.clone.1 = f32[384,1,128,192]{2,0,3,1:T(8,128)} add(%mul.4638.clone.1, %mul.4637.clone.1), metadata={op_name="jit(train_step)/add" stack_frame_id=0}
  %param_1.5173 = f32[]{:T(128)S(6)} parameter(1)
  %div.2514.clone.1 = f32[384,1,128,192]{2,0,3,1:T(8,128)} broadcast(%param_1.5173), dimensions={}, metadata={op_name="jit(train_step)/div" stack_frame_id=0}
  %integer_pow.374.clone.1 = f32[384,1,128,192]{2,0,3,1:T(8,128)} multiply(%select_n.2156.clone.1, %select_n.2156.clone.1), metadata={op_name="jit(train_step)/integer_pow" stack_frame_id=0}
  %constant.5908.clone.1 = f32[]{:T(128)} constant(0.05)
  %mul.4636.clone.1 = f32[384,1,128,192]{2,0,3,1:T(8,128)} broadcast(%constant.5908.clone.1), dimensions={}, metadata={op_name="jit(train_step)/mul" stack_frame_id=0}
  %mul.4634.clone.1 = f32[384,1,128,192]{2,0,3,1:T(8,128)} multiply(%integer_pow.374.clone.1, %mul.4636.clone.1), metadata={op_name="jit(train_step)/mul" stack_frame_id=0}
  %param_4.2152 = f32[384,1,128,192]{2,3,1,0:T(8,128)} parameter(4)
  %copy.1518.clone.1 = f32[384,1,128,192]{2,0,3,1:T(8,128)} copy(%param_4.2152), sharding={devices=[4,1,1,1]<=[4]}, metadata={op_name="state[\'optimizer\'][\'opt_state\'][0][\'nu\'][\'decoder\'][\'moe_layers\'][\'self_attention\'][\'wq_b\'][\'kernel\'].value"}
  %constant.5907.clone.1 = f32[]{:T(128)} constant(0.95)
  %mul.4635.clone.1 = f32[384,1,128,192]{2,0,3,1:T(8,128)} broadcast(%constant.5907.clone.1), dimensions={}, metadata={op_name="jit(train_step)/mul" stack_frame_id=0}
  %mul.4633.clone.1 = f32[384,1,128,192]{2,0,3,1:T(8,128)} multiply(%copy.1518.clone.1, %mul.4635.clone.1), metadata={op_name="jit(train_step)/mul" stack_frame_id=0}
  %add.3565.clone.1 = f32[384,1,128,192]{2,0,3,1:T(8,128)} add(%mul.4634.clone.1, %mul.4633.clone.1), metadata={op_name="jit(train_step)/add" stack_frame_id=0}
  %param_0.4417 = f32[]{:T(128)S(6)} parameter(0)
  %div.2513.clone.1 = f32[384,1,128,192]{2,0,3,1:T(8,128)} broadcast(%param_0.4417), dimensions={}, metadata={op_name="jit(train_step)/div" stack_frame_id=0}
  %div.2512.clone.1 = f32[384,1,128,192]{2,0,3,1:T(8,128)} divide(%add.3565.clone.1, %div.2513.clone.1), metadata={op_name="jit(train_step)/div" stack_frame_id=0}
  %sqrt.146.clone.1 = f32[384,1,128,192]{2,0,3,1:T(8,128)} sqrt(%div.2512.clone.1), metadata={op_name="jit(train_step)/sqrt" stack_frame_id=0}
  %constant.5906.clone.1 = f32[]{:T(128)} constant(1e-08)
  %add.3564.clone.1 = f32[384,1,128,192]{2,0,3,1:T(8,128)} broadcast(%constant.5906.clone.1), dimensions={}, metadata={op_name="jit(train_step)/add" stack_frame_id=0}
  %add.3563.clone.1 = f32[384,1,128,192]{2,0,3,1:T(8,128)} add(%sqrt.146.clone.1, %add.3564.clone.1), metadata={op_name="jit(train_step)/add" stack_frame_id=0}
  %multiply.1405.clone.1 = f32[384,1,128,192]{2,0,3,1:T(8,128)} multiply(%div.2514.clone.1, %add.3563.clone.1), metadata={op_name="multiply.306"}
  %div.2511.clone.1 = f32[384,1,128,192]{2,0,3,1:T(8,128)} divide(%add.3566.clone.1, %multiply.1405.clone.1), metadata={op_name="jit(train_step)/div" stack_frame_id=0}
  %mul.4631.clone.1 = f32[384,1,128,192]{2,0,3,1:T(8,128)} multiply(%copy.1517.clone.1, %broadcast.4389.clone.1), metadata={op_name="jit(train_step)/mul" stack_frame_id=0}
  %add.3562.clone.1 = f32[384,1,128,192]{2,0,3,1:T(8,128)} add(%div.2511.clone.1, %mul.4631.clone.1), metadata={op_name="jit(train_step)/add" stack_frame_id=0}
  %mul.4630.clone.1 = f32[384,1,128,192]{2,0,3,1:T(8,128)} multiply(%mul.4632.clone.1, %add.3562.clone.1), metadata={op_name="jit(train_step)/mul" stack_frame_id=0}
  %add.3561.clone.1 = f32[384,1,128,192]{2,0,3,1:T(8,128)} add(%copy.1517.clone.1, %mul.4630.clone.1), metadata={op_name="jit(train_step)/add" stack_frame_id=0}
  %square.576 = f32[384,1,128,192]{2,0,3,1:T(8,128)} multiply(%add.3561.clone.1, %add.3561.clone.1), metadata={op_name="jit(train_step)/square" stack_frame_id=0}
  %constant.6190 = f32[]{:T(128)} constant(0)
  %reduce.722 = f32[]{:T(128)} reduce(%square.576, %constant.6190), dimensions={0,1,2,3}, to_apply=%region_228.254, metadata={op_name="jit(train_step)/reduce_sum" stack_frame_id=0}
  %reduce.723.clone.1 = f32[]{:T(128)} reduce(%integer_pow.374.clone.1, %constant.6190), dimensions={0,1,2,3}, to_apply=%region_194.220, metadata={op_name="jit(train_step)/reduce_sum" stack_frame_id=0}
  ROOT %tuple.654 = (f32[]{:T(128)}, f32[384,1,128,192]{2,0,3,1:T(8,128)}, f32[384,1,128,192]{2,0,3,1:T(8,128)}, f32[384,1,128,192]{2,0,3,1:T(8,128)}, f32[]{:T(128)}) tuple(%reduce.722, %add.3561.clone.1, %add.3565.clone.1, %add.3566.clone.1, %reduce.723.clone.1)
}

%region_136.162 (reduce_sum.198: f32[], reduce_sum.204: f32[]) -> f32[] {
  %reduce_sum.198 = f32[]{:T(128)} parameter(0), metadata={op_name="jit(train_step)/reduce_sum"}
  %reduce_sum.204 = f32[]{:T(128)} parameter(1), metadata={op_name="jit(train_step)/reduce_sum"}
  ROOT %reduce_sum.205 = f32[]{:T(128)} add(%reduce_sum.198, %reduce_sum.204), metadata={op_name="jit(train_step)/reduce_sum" stack_frame_id=0}, backend_config={"flag_configs":[],"scoped_memory_configs":[],"used_scoped_memory_configs":[],"aliasing_operands":{"lists":[]}}
}

%fused_computation.597 (param_0.4470: f32[3,18432,128]) -> f32[] {
  %param_0.4470 = f32[3,18432,128]{2,1,0:T(8,128)} parameter(0)
  %bitcast.1236 = f32[18432,3,128]{2,0,1:T(8,128)} bitcast(%param_0.4470), metadata={op_name="jit(train_step)/transpose(jvp())/transpose" stack_frame_id=0}
  %square.579 = f32[18432,3,128]{2,0,1:T(8,128)} multiply(%bitcast.1236, %bitcast.1236), metadata={op_name="jit(train_step)/square" stack_frame_id=0}
  %constant.6243 = f32[]{:T(128)} constant(0)
  ROOT %reduce.724 = f32[]{:T(128)} reduce(%square.579, %constant.6243), dimensions={0,1,2}, to_apply=%region_136.162, metadata={op_name="jit(train_step)/reduce_sum" stack_frame_id=0}
}

%region_135.161 (reduce_sum.192: f32[], reduce_sum.193: f32[]) -> f32[] {
  %reduce_sum.192 = f32[]{:T(128)} parameter(0), metadata={op_name="jit(train_step)/reduce_sum"}
  %reduce_sum.193 = f32[]{:T(128)} parameter(1), metadata={op_name="jit(train_step)/reduce_sum"}
  ROOT %reduce_sum.197 = f32[]{:T(128)} add(%reduce_sum.192, %reduce_sum.193), metadata={op_name="jit(train_step)/reduce_sum" stack_frame_id=0}, backend_config={"flag_configs":[],"scoped_memory_configs":[],"used_scoped_memory_configs":[],"aliasing_operands":{"lists":[]}}
}

%fused_computation.599 (param_0.4471: f32[3,128,18432]) -> f32[] {
  %param_0.4471 = f32[3,128,18432]{2,1,0:T(8,128)S(1)} parameter(0)
  %bitcast.1240 = f32[128,3,18432]{2,0,1:T(8,128)} bitcast(%param_0.4471), metadata={op_name="jit(train_step)/transpose(jvp())/transpose" stack_frame_id=0}
  %square.582 = f32[128,3,18432]{2,0,1:T(8,128)} multiply(%bitcast.1240, %bitcast.1240), metadata={op_name="jit(train_step)/square" stack_frame_id=0}
  %constant.6244 = f32[]{:T(128)} constant(0)
  ROOT %reduce.725 = f32[]{:T(128)} reduce(%square.582, %constant.6244), dimensions={0,1,2}, to_apply=%region_135.161, metadata={op_name="jit(train_step)/reduce_sum" stack_frame_id=0}
}

%region_134.160 (reduce_sum.173: f32[], reduce_sum.181: f32[]) -> f32[] {
  %reduce_sum.173 = f32[]{:T(128)} parameter(0), metadata={op_name="jit(train_step)/reduce_sum"}
  %reduce_sum.181 = f32[]{:T(128)} parameter(1), metadata={op_name="jit(train_step)/reduce_sum"}
  ROOT %reduce_sum.188 = f32[]{:T(128)} add(%reduce_sum.173, %reduce_sum.181), metadata={op_name="jit(train_step)/reduce_sum" stack_frame_id=0}, backend_config={"flag_configs":[],"scoped_memory_configs":[],"used_scoped_memory_configs":[],"aliasing_operands":{"lists":[]}}
}

%fused_computation.601 (param_0.4472: f32[3,128,18432]) -> f32[] {
  %param_0.4472 = f32[3,128,18432]{2,1,0:T(8,128)} parameter(0)
  %bitcast.1244 = f32[128,3,18432]{2,0,1:T(8,128)} bitcast(%param_0.4472), metadata={op_name="jit(train_step)/transpose(jvp())/transpose" stack_frame_id=0}
  %square.585 = f32[128,3,18432]{2,0,1:T(8,128)} multiply(%bitcast.1244, %bitcast.1244), metadata={op_name="jit(train_step)/square" stack_frame_id=0}
  %constant.6245 = f32[]{:T(128)} constant(0)
  ROOT %reduce.726 = f32[]{:T(128)} reduce(%square.585, %constant.6245), dimensions={0,1,2}, to_apply=%region_134.160, metadata={op_name="jit(train_step)/reduce_sum" stack_frame_id=0}
}

%region_201.227 (reduce_sum.573: f32[], reduce_sum.574: f32[]) -> f32[] {
  %reduce_sum.573 = f32[]{:T(128)} parameter(0), metadata={op_name="jit(train_step)/reduce_sum"}
  %reduce_sum.574 = f32[]{:T(128)} parameter(1), metadata={op_name="jit(train_step)/reduce_sum"}
  ROOT %reduce_sum.811 = f32[]{:T(128)} add(%reduce_sum.573, %reduce_sum.574), metadata={op_name="jit(train_step)/reduce_sum" stack_frame_id=0}, backend_config={"flag_configs":[],"scoped_memory_configs":[],"used_scoped_memory_configs":[],"aliasing_operands":{"lists":[]}}
}

%region_168.194 (reduce_sum.436: f32[], reduce_sum.440: f32[]) -> f32[] {
  %reduce_sum.436 = f32[]{:T(128)} parameter(0), metadata={op_name="jit(train_step)/reduce_sum"}
  %reduce_sum.440 = f32[]{:T(128)} parameter(1), metadata={op_name="jit(train_step)/reduce_sum"}
  ROOT %reduce_sum.441 = f32[]{:T(128)} add(%reduce_sum.436, %reduce_sum.440), metadata={op_name="jit(train_step)/reduce_sum" stack_frame_id=0}, backend_config={"flag_configs":[],"scoped_memory_configs":[],"used_scoped_memory_configs":[],"aliasing_operands":{"lists":[]}}
}

%fused_computation.602 (param_0.4440: f32[18432,3,128], param_1.5196: f32[], param_2.4172: f32[], param_3.2828: f32[], param_4.2175: f32[18432,3,128], param_5.1893: f32[], param_6.1279: f32[3,18432,128], param_7.911: pred[], param_8.679: f32[18432,3,128]) -> (f32[], f32[18432,3,128], f32[18432,3,128], f32[18432,3,128], f32[]) {
  %param_0.4440 = f32[18432,3,128]{2,0,1:T(8,128)} parameter(0)
  %param_3.2828 = f32[]{:T(128)S(6)} parameter(3)
  %mul.4821.clone.1 = f32[18432,3,128]{2,0,1:T(8,128)} broadcast(%param_3.2828), dimensions={}, metadata={op_name="jit(train_step)/mul" stack_frame_id=0}
  %param_7.911 = pred[]{:T(512)S(6)} parameter(7)
  %select_n.2233.clone.1 = pred[18432,3,128]{2,0,1:T(8,128)(4,1)} broadcast(%param_7.911), dimensions={}, metadata={op_name="jit(train_step)/select_n" stack_frame_id=0}
  %param_6.1279 = f32[3,18432,128]{2,1,0:T(8,128)S(1)} parameter(6)
  %bitcast.2065.clone.1 = f32[18432,3,128]{2,0,1:T(8,128)} bitcast(%param_6.1279), metadata={op_name="jit(train_step)/transpose(jvp())/transpose" stack_frame_id=0}
  %param_5.1893 = f32[]{:T(128)} parameter(5)
  %div.2678.clone.1 = f32[18432,3,128]{2,0,1:T(8,128)} broadcast(%param_5.1893), dimensions={}, metadata={op_name="jit(train_step)/div" stack_frame_id=0}
  %div.2677.clone.1 = f32[18432,3,128]{2,0,1:T(8,128)} divide(%bitcast.2065.clone.1, %div.2678.clone.1), metadata={op_name="jit(train_step)/div" stack_frame_id=0}
  %select_n.2232.clone.1 = f32[18432,3,128]{2,0,1:T(8,128)} select(%select_n.2233.clone.1, %bitcast.2065.clone.1, %div.2677.clone.1), metadata={op_name="jit(train_step)/select_n" stack_frame_id=0}
  %constant.6042.clone.1 = f32[]{:T(128)} constant(0.1)
  %broadcast.4455.clone.1 = f32[18432,3,128]{2,0,1:T(8,128)} broadcast(%constant.6042.clone.1), dimensions={}, metadata={op_name="broadcast.346"}
  %mul.4827.clone.1 = f32[18432,3,128]{2,0,1:T(8,128)} multiply(%select_n.2232.clone.1, %broadcast.4455.clone.1), metadata={op_name="jit(train_step)/mul" stack_frame_id=0}
  %param_8.679 = f32[18432,3,128]{2,0,1:T(8,128)} parameter(8)
  %constant.6046.clone.1 = f32[]{:T(128)} constant(0.9)
  %mul.4828.clone.1 = f32[18432,3,128]{2,0,1:T(8,128)} broadcast(%constant.6046.clone.1), dimensions={}, metadata={op_name="jit(train_step)/mul" stack_frame_id=0}
  %mul.4826.clone.1 = f32[18432,3,128]{2,0,1:T(8,128)} multiply(%param_8.679, %mul.4828.clone.1), metadata={op_name="jit(train_step)/mul" stack_frame_id=0}
  %add.3685.clone.1 = f32[18432,3,128]{2,0,1:T(8,128)} add(%mul.4827.clone.1, %mul.4826.clone.1), metadata={op_name="jit(train_step)/add" stack_frame_id=0}
  %param_2.4172 = f32[]{:T(128)S(6)} parameter(2)
  %div.2674.clone.1 = f32[18432,3,128]{2,0,1:T(8,128)} broadcast(%param_2.4172), dimensions={}, metadata={op_name="jit(train_step)/div" stack_frame_id=0}
  %integer_pow.395.clone.1 = f32[18432,3,128]{2,0,1:T(8,128)} multiply(%select_n.2232.clone.1, %select_n.2232.clone.1), metadata={op_name="jit(train_step)/integer_pow" stack_frame_id=0}
  %constant.6045.clone.1 = f32[]{:T(128)} constant(0.05)
  %mul.4825.clone.1 = f32[18432,3,128]{2,0,1:T(8,128)} broadcast(%constant.6045.clone.1), dimensions={}, metadata={op_name="jit(train_step)/mul" stack_frame_id=0}
  %mul.4823.clone.1 = f32[18432,3,128]{2,0,1:T(8,128)} multiply(%integer_pow.395.clone.1, %mul.4825.clone.1), metadata={op_name="jit(train_step)/mul" stack_frame_id=0}
  %param_4.2175 = f32[18432,3,128]{2,0,1:T(8,128)} parameter(4)
  %constant.6044.clone.1 = f32[]{:T(128)} constant(0.95)
  %mul.4824.clone.1 = f32[18432,3,128]{2,0,1:T(8,128)} broadcast(%constant.6044.clone.1), dimensions={}, metadata={op_name="jit(train_step)/mul" stack_frame_id=0}
  %mul.4822.clone.1 = f32[18432,3,128]{2,0,1:T(8,128)} multiply(%param_4.2175, %mul.4824.clone.1), metadata={op_name="jit(train_step)/mul" stack_frame_id=0}
  %add.3684.clone.1 = f32[18432,3,128]{2,0,1:T(8,128)} add(%mul.4823.clone.1, %mul.4822.clone.1), metadata={op_name="jit(train_step)/add" stack_frame_id=0}
  %param_1.5196 = f32[]{:T(128)S(6)} parameter(1)
  %div.2673.clone.1 = f32[18432,3,128]{2,0,1:T(8,128)} broadcast(%param_1.5196), dimensions={}, metadata={op_name="jit(train_step)/div" stack_frame_id=0}
  %div.2672.clone.1 = f32[18432,3,128]{2,0,1:T(8,128)} divide(%add.3684.clone.1, %div.2673.clone.1), metadata={op_name="jit(train_step)/div" stack_frame_id=0}
  %sqrt.167.clone.1 = f32[18432,3,128]{2,0,1:T(8,128)} sqrt(%div.2672.clone.1), metadata={op_name="jit(train_step)/sqrt" stack_frame_id=0}
  %constant.6043.clone.1 = f32[]{:T(128)} constant(1e-08)
  %add.3683.clone.1 = f32[18432,3,128]{2,0,1:T(8,128)} broadcast(%constant.6043.clone.1), dimensions={}, metadata={op_name="jit(train_step)/add" stack_frame_id=0}
  %add.3682.clone.1 = f32[18432,3,128]{2,0,1:T(8,128)} add(%sqrt.167.clone.1, %add.3683.clone.1), metadata={op_name="jit(train_step)/add" stack_frame_id=0}
  %multiply.1426.clone.1 = f32[18432,3,128]{2,0,1:T(8,128)} multiply(%div.2674.clone.1, %add.3682.clone.1), metadata={op_name="multiply.279"}
  %div.2671.clone.1 = f32[18432,3,128]{2,0,1:T(8,128)} divide(%add.3685.clone.1, %multiply.1426.clone.1), metadata={op_name="jit(train_step)/div" stack_frame_id=0}
  %mul.4820.clone.1 = f32[18432,3,128]{2,0,1:T(8,128)} multiply(%param_0.4440, %broadcast.4455.clone.1), metadata={op_name="jit(train_step)/mul" stack_frame_id=0}
  %add.3681.clone.1 = f32[18432,3,128]{2,0,1:T(8,128)} add(%div.2671.clone.1, %mul.4820.clone.1), metadata={op_name="jit(train_step)/add" stack_frame_id=0}
  %mul.4819.clone.1 = f32[18432,3,128]{2,0,1:T(8,128)} multiply(%mul.4821.clone.1, %add.3681.clone.1), metadata={op_name="jit(train_step)/mul" stack_frame_id=0}
  %add.3680.clone.1 = f32[18432,3,128]{2,0,1:T(8,128)} add(%param_0.4440, %mul.4819.clone.1), metadata={op_name="jit(train_step)/add" stack_frame_id=0}
  %square.586 = f32[18432,3,128]{2,0,1:T(8,128)} multiply(%add.3680.clone.1, %add.3680.clone.1), metadata={op_name="jit(train_step)/square" stack_frame_id=0}
  %constant.6213 = f32[]{:T(128)} constant(0)
  %reduce.727 = f32[]{:T(128)} reduce(%square.586, %constant.6213), dimensions={0,1,2}, to_apply=%region_201.227, metadata={op_name="jit(train_step)/reduce_sum" stack_frame_id=0}
  %reduce.730.clone.1 = f32[]{:T(128)} reduce(%integer_pow.395.clone.1, %constant.6213), dimensions={0,1,2}, to_apply=%region_168.194, metadata={op_name="jit(train_step)/reduce_sum" stack_frame_id=0}
  ROOT %tuple.645 = (f32[]{:T(128)}, f32[18432,3,128]{2,0,1:T(8,128)}, f32[18432,3,128]{2,0,1:T(8,128)}, f32[18432,3,128]{2,0,1:T(8,128)}, f32[]{:T(128)}) tuple(%reduce.727, %add.3680.clone.1, %add.3684.clone.1, %add.3685.clone.1, %reduce.730.clone.1)
}

%region_200.226 (reduce_sum.568: f32[], reduce_sum.569: f32[]) -> f32[] {
  %reduce_sum.568 = f32[]{:T(128)} parameter(0), metadata={op_name="jit(train_step)/reduce_sum"}
  %reduce_sum.569 = f32[]{:T(128)} parameter(1), metadata={op_name="jit(train_step)/reduce_sum"}
  ROOT %reduce_sum.804 = f32[]{:T(128)} add(%reduce_sum.568, %reduce_sum.569), metadata={op_name="jit(train_step)/reduce_sum" stack_frame_id=0}, backend_config={"flag_configs":[],"scoped_memory_configs":[],"used_scoped_memory_configs":[],"aliasing_operands":{"lists":[]}}
}

%region_167.193 (reduce_sum.433: f32[], reduce_sum.434: f32[]) -> f32[] {
  %reduce_sum.433 = f32[]{:T(128)} parameter(0), metadata={op_name="jit(train_step)/reduce_sum"}
  %reduce_sum.434 = f32[]{:T(128)} parameter(1), metadata={op_name="jit(train_step)/reduce_sum"}
  ROOT %reduce_sum.435 = f32[]{:T(128)} add(%reduce_sum.433, %reduce_sum.434), metadata={op_name="jit(train_step)/reduce_sum" stack_frame_id=0}, backend_config={"flag_configs":[],"scoped_memory_configs":[],"used_scoped_memory_configs":[],"aliasing_operands":{"lists":[]}}
}

%region_166.192 (reduce_sum.427: f32[], reduce_sum.428: f32[]) -> f32[] {
