HloModule jit_train_step, is_scheduled=true, input_output_alias={ {0}: (0, {}, may-alias), {1}: (1, {}, may-alias), {2}: (2, {}, may-alias), {3}: (3, {}, may-alias), {4}: (4, {}, may-alias), {5}: (5, {}, may-alias), {6}: (6, {}, may-alias), {7}: (7, {}, may-alias), {8}: (8, {}, may-alias), {9}: (9, {}, may-alias), {10}: (10, {}, may-alias), {11}: (11, {}, may-alias), {12}: (12, {}, may-alias), {13}: (13, {}, may-alias), {14}: (14, {}, may-alias), {15}: (15, {}, may-alias), {16}: (16, {}, may-alias), {17}: (17, {}, may-alias), {18}: (18, {}, may-alias), {19}: (19, {}, may-alias), {20}: (20, {}, may-alias), {21}: (21, {}, may-alias), {22}: (22, {}, may-alias), {23}: (23, {}, may-alias), {24}: (24, {}, may-alias), {25}: (25, {}, may-alias), {26}: (26, {}, may-alias), {27}: (27, {}, may-alias), {28}: (28, {}, may-alias), {29}: (29, {}, may-alias), {30}: (30, {}, may-alias), {31}: (31, {}, may-alias), {32}: (32, {}, may-alias), {33}: (33, {}, may-alias), {34}: (34, {}, may-alias), {35}: (35, {}, may-alias), {36}: (36, {}, may-alias), {37}: (37, {}, may-alias), {38}: (38, {}, may-alias), {39}: (39, {}, may-alias), {40}: (40, {}, may-alias), {41}: (41, {}, may-alias), {42}: (42, {}, may-alias), {43}: (43, {}, may-alias), {44}: (44, {}, may-alias), {45}: (45, {}, may-alias), {46}: (46, {}, may-alias), {47}: (47, {}, may-alias), {48}: (48, {}, may-alias), {49}: (49, {}, may-alias), {50}: (50, {}, may-alias), {51}: (51, {}, may-alias), {52}: (52, {}, may-alias), {53}: (53, {}, may-alias), {54}: (54, {}, may-alias), {55}: (55, {}, may-alias), {56}: (56, {}, may-alias), {57}: (57, {}, may-alias), {58}: (58, {}, may-alias), {59}: (59, {}, may-alias), {60}: (60, {}, may-alias), {61}: (61, {}, may-alias), {62}: (62, {}, may-alias), {63}: (63, {}, may-alias), {64}: (64, {}, may-alias), {65}: (65, {}, may-alias), {66}: (66, {}, may-alias), {67}: (67, {}, may-alias), {68}: (68, {}, may-alias), {69}: (69, {}, may-alias), {70}: (70, {}, may-alias), {71}: (71, {}, may-alias), {72}: (72, {}, may-alias), {73}: (73, {}, may-alias), {74}: (74, {}, may-alias), {75}: (75, {}, may-alias), {76}: (76, {}, may-alias), {77}: (77, {}, may-alias), {78}: (78, {}, may-alias), {79}: (79, {}, may-alias), {80}: (80, {}, may-alias), {81}: (81, {}, may-alias), {82}: (82, {}, may-alias), {83}: (83, {}, may-alias), {84}: (84, {}, may-alias), {85}: (85, {}, may-alias), {86}: (86, {}, may-alias), {87}: (87, {}, may-alias), {88}: (88, {}, may-alias), {89}: (89, {}, may-alias), {90}: (90, {}, may-alias), {91}: (91, {}, may-alias), {92}: (92, {}, may-alias), {93}: (93, {}, may-alias), {94}: (94, {}, may-alias), {95}: (95, {}, may-alias), {96}: (96, {}, may-alias), {97}: (97, {}, may-alias), {98}: (98, {}, may-alias), {99}: (99, {}, may-alias), {100}: (100, {}, may-alias), {101}: (101, {}, may-alias), {102}: (102, {}, may-alias), {103}: (103, {}, may-alias), {104}: (104, {}, may-alias), {105}: (105, {}, may-alias), {106}: (106, {}, may-alias), {107}: (107, {}, may-alias), {108}: (108, {}, may-alias), {109}: (109, {}, may-alias), {110}: (110, {}, may-alias), {111}: (111, {}, may-alias), {112}: (112, {}, may-alias), {113}: (113, {}, may-alias), {114}: (114, {}, may-alias), {115}: (115, {}, may-alias), {116}: (116, {}, may-alias), {117}: (117, {}, may-alias), {118}: (118, {}, may-alias), {119}: (119, {}, may-alias), {120}: (120, {}, may-alias), {121}: (121, {}, may-alias), {122}: (122, {}, may-alias), {123}: (123, {}, may-alias), {124}: (124, {}, may-alias), {125}: (125, {}, may-alias), {126}: (126, {}, may-alias), {127}: (127, {}, may-alias), {128}: (128, {}, may-alias), {129}: (129, {}, may-alias), {130}: (130, {}, may-alias), {131}: (131, {}, may-alias), {132}: (132, {}, may-alias), {133}: (133, {}, may-alias), {134}: (134, {}, may-alias), {135}: (135, {}, may-alias), {136}: (136, {}, may-alias), {137}: (137, {}, may-alias), {138}: (138, {}, may-alias), {139}: (139, {}, may-alias), {140}: (140, {}, may-alias), {141}: (141, {}, may-alias), {142}: (142, {}, may-alias), {143}: (143, {}, may-alias), {144}: (144, {}, may-alias), {145}: (145, {}, may-alias), {146}: (146, {}, may-alias) }, entry_computation_layout={(f32[512]{0:T(512)}, u32[3]{0:T(128)}, u32[3,4]{1,0:T(4,128)}, u32[3]{0:T(128)}, u32[3,4]{1,0:T(4,128)}, /*index=5*/u32[3]{0:T(128)}, u32[3,4]{1,0:T(4,128)}, u32[3]{0:T(128)}, u32[3,4]{1,0:T(4,128)}, u32[3]{0:T(128)}, /*index=10*/u32[3,4]{1,0:T(4,128)}, u32[3]{0:T(128)}, u32[3,4]{1,0:T(4,128)}, f32[128,3,18432]{2,0,1:T(8,128)}, f32[128,3,18432]{2,0,1:T(8,128)}, /*index=15*/f32[18432,3,128]{2,0,1:T(8,128)}, f32[512,3]{0,1:T(4,128)}, f32[512,3]{0,1:T(4,128)}, u32[3]{0:T(128)}, u32[3,4]{1,0:T(4,128)}, /*index=20*/u32[3]{0:T(128)}, u32[3,4]{1,0:T(4,128)}, u32[3]{0:T(128)}, u32[3,4]{1,0:T(4,128)}, f32[512,3]{0,1:T(4,128)}, /*index=25*/f32[128,3,128,128]{3,2,1,0:T(8,128)}, f32[1536,3]{0,1:T(4,128)}, f32[128,3,576]{0,2,1:T(8,128)}, f32[128,3,128,256]{3,2,1,0:T(8,128)}, f32[128,3,1536]{2,0,1:T(8,128)}, /*index=30*/f32[384,3,128,192]{2,3,1,0:T(8,128)}, u32[]{:T(128)}, u32[4]{0:T(128)}, u32[]{:T(128)}, u32[4]{0:T(128)}, /*index=35*/u32[]{:T(128)}, u32[4]{0:T(128)}, f32[128,129280]{1,0:T(8,128)}, f32[256,1]{0,1:T(1,128)}, f32[128,1,256]{2,1,0:T(1,128)}, /*index=40*/u32[1]{0:T(128)}, u32[1,4]{1,0:T(1,128)}, u32[1]{0:T(128)}, u32[1,4]{1,0:T(1,128)}, u32[1]{0:T(128)}, /*index=45*/u32[1,4]{1,0:T(1,128)}, f32[256,1,128,512]{3,2,1,0:T(8,128)}, f32[256,1,128,512]{3,2,1,0:T(8,128)}, f32[256,1,512,128]{3,2,1,0:T(8,128)}, u32[1]{0:T(128)}, /*index=50*/u32[1,4]{1,0:T(1,128)}, u32[1]{0:T(128)}, u32[1,4]{1,0:T(1,128)}, u32[1]{0:T(128)}, u32[1,4]{1,0:T(1,128)}, /*index=55*/f32[128,1,512]{2,1,0:T(1,128)}, f32[128,1,512]{2,1,0:T(1,128)}, f32[512,1,128]{2,1,0:T(1,128)}, u32[1]{0:T(128)}, u32[1,4]{1,0:T(1,128)}, /*index=60*/u32[1]{0:T(128)}, u32[1,4]{1,0:T(1,128)}, u32[1]{0:T(128)}, u32[1,4]{1,0:T(1,128)}, f32[512,1]{0,1:T(1,128)}, /*index=65*/f32[512,1]{0,1:T(1,128)}, f32[512,1]{0,1:T(1,128)}, f32[128,1,128,128]{3,2,1,0:T(8,128)}, f32[1536,1]{0,1:T(1,128)}, f32[128,1,576]{0,2,1:T(8,128)}, /*index=70*/f32[128,1,128,256]{3,2,1,0:T(8,128)}, f32[128,1,1536]{2,1,0:T(1,128)}, f32[384,1,128,192]{2,3,1,0:T(8,128)}, u32[]{:T(128)}, u32[4]{0:T(128)}, /*index=75*/u32[]{:T(128)}, u32[4]{0:T(128)}, u32[]{:T(128)}, u32[4]{0:T(128)}, f32[129280,128]{1,0:T(8,128)}, /*index=80*/s32[]{:T(128)}, f32[512]{0:T(512)}, f32[128,3,18432]{2,0,1:T(8,128)}, f32[128,3,18432]{2,0,1:T(8,128)}, f32[18432,3,128]{2,0,1:T(8,128)}, /*index=85*/f32[512,3]{0,1:T(4,128)}, f32[512,3]{0,1:T(4,128)}, f32[512,3]{0,1:T(4,128)}, f32[128,3,128,128]{3,2,1,0:T(8,128)}, f32[1536,3]{0,1:T(4,128)}, /*index=90*/f32[128,3,576]{0,2,1:T(8,128)}, f32[128,3,128,256]{3,2,1,0:T(8,128)}, f32[128,3,1536]{2,0,1:T(8,128)}, f32[384,3,128,192]{2,3,1,0:T(8,128)}, f32[128,129280]{1,0:T(8,128)}, /*index=95*/f32[256,1]{0,1:T(1,128)}, f32[128,1,256]{2,1,0:T(1,128)}, f32[256,1,128,512]{3,2,1,0:T(8,128)}, f32[256,1,128,512]{3,2,1,0:T(8,128)}, f32[256,1,512,128]{3,2,1,0:T(8,128)}, /*index=100*/f32[128,1,512]{2,1,0:T(1,128)}, f32[128,1,512]{2,1,0:T(1,128)}, f32[512,1,128]{2,1,0:T(1,128)}, f32[512,1]{0,1:T(1,128)}, f32[512,1]{0,1:T(1,128)}, /*index=105*/f32[512,1]{0,1:T(1,128)}, f32[128,1,128,128]{3,2,1,0:T(8,128)}, f32[1536,1]{0,1:T(1,128)}, f32[128,1,576]{0,2,1:T(8,128)}, f32[128,1,128,256]{3,2,1,0:T(8,128)}, /*index=110*/f32[128,1,1536]{2,1,0:T(1,128)}, f32[384,1,128,192]{2,3,1,0:T(8,128)}, f32[129280,128]{1,0:T(8,128)}, f32[512]{0:T(512)}, f32[128,3,18432]{2,0,1:T(8,128)}, /*index=115*/f32[128,3,18432]{2,0,1:T(8,128)}, f32[18432,3,128]{2,0,1:T(8,128)}, f32[512,3]{0,1:T(4,128)}, f32[512,3]{0,1:T(4,128)}, f32[512,3]{0,1:T(4,128)}, /*index=120*/f32[128,3,128,128]{3,2,1,0:T(8,128)}, f32[1536,3]{0,1:T(4,128)}, f32[128,3,576]{0,2,1:T(8,128)}, f32[128,3,128,256]{3,2,1,0:T(8,128)}, f32[128,3,1536]{2,0,1:T(8,128)}, /*index=125*/f32[384,3,128,192]{2,3,1,0:T(8,128)}, f32[128,129280]{1,0:T(8,128)}, f32[256,1]{0,1:T(1,128)}, f32[128,1,256]{2,1,0:T(1,128)}, f32[256,1,128,512]{3,2,1,0:T(8,128)}, /*index=130*/f32[256,1,128,512]{3,2,1,0:T(8,128)}, f32[256,1,512,128]{3,2,1,0:T(8,128)}, f32[128,1,512]{2,1,0:T(1,128)}, f32[128,1,512]{2,1,0:T(1,128)}, f32[512,1,128]{2,1,0:T(1,128)}, /*index=135*/f32[512,1]{0,1:T(1,128)}, f32[512,1]{0,1:T(1,128)}, f32[512,1]{0,1:T(1,128)}, f32[128,1,128,128]{3,2,1,0:T(8,128)}, f32[1536,1]{0,1:T(1,128)}, /*index=140*/f32[128,1,576]{0,2,1:T(8,128)}, f32[128,1,128,256]{3,2,1,0:T(8,128)}, f32[128,1,1536]{2,1,0:T(1,128)}, f32[384,1,128,192]{2,3,1,0:T(8,128)}, f32[129280,128]{1,0:T(8,128)}, /*index=145*/s32[]{:T(128)}, u32[]{:T(128)}, s32[1,128]{1,0:T(1,128)}, s32[1,128]{1,0:T(1,128)}, s32[1,128]{1,0:T(1,128)}, /*index=150*/s32[1,128]{1,0:T(1,128)}, s32[1,128]{1,0:T(1,128)})->(f32[512]{0:T(512)}, u32[3]{0:T(128)}, u32[3,4]{1,0:T(4,128)}, u32[3]{0:T(128)}, u32[3,4]{1,0:T(4,128)}, /*index=5*/u32[3]{0:T(128)}, u32[3,4]{1,0:T(4,128)}, u32[3]{0:T(128)}, u32[3,4]{1,0:T(4,128)}, u32[3]{0:T(128)}, /*index=10*/u32[3,4]{1,0:T(4,128)}, u32[3]{0:T(128)}, u32[3,4]{1,0:T(4,128)}, f32[128,3,18432]{2,0,1:T(8,128)}, f32[128,3,18432]{2,0,1:T(8,128)}, /*index=15*/f32[18432,3,128]{2,0,1:T(8,128)}, f32[512,3]{0,1:T(4,128)}, f32[512,3]{0,1:T(4,128)}, u32[3]{0:T(128)}, u32[3,4]{1,0:T(4,128)}, /*index=20*/u32[3]{0:T(128)}, u32[3,4]{1,0:T(4,128)}, u32[3]{0:T(128)}, u32[3,4]{1,0:T(4,128)}, f32[512,3]{0,1:T(4,128)}, /*index=25*/f32[128,3,128,128]{3,2,1,0:T(8,128)}, f32[1536,3]{0,1:T(4,128)}, f32[128,3,576]{0,2,1:T(8,128)}, f32[128,3,128,256]{3,2,1,0:T(8,128)}, f32[128,3,1536]{2,0,1:T(8,128)}, /*index=30*/f32[384,3,128,192]{2,3,1,0:T(8,128)}, u32[]{:T(128)}, u32[4]{0:T(128)}, u32[]{:T(128)}, u32[4]{0:T(128)}, /*index=35*/u32[]{:T(128)}, u32[4]{0:T(128)}, f32[128,129280]{1,0:T(8,128)}, f32[256,1]{0,1:T(1,128)}, f32[128,1,256]{2,1,0:T(1,128)}, /*index=40*/u32[1]{0:T(128)}, u32[1,4]{1,0:T(1,128)}, u32[1]{0:T(128)}, u32[1,4]{1,0:T(1,128)}, u32[1]{0:T(128)}, /*index=45*/u32[1,4]{1,0:T(1,128)}, f32[256,1,128,512]{3,2,1,0:T(8,128)}, f32[256,1,128,512]{3,2,1,0:T(8,128)}, f32[256,1,512,128]{3,2,1,0:T(8,128)}, u32[1]{0:T(128)}, /*index=50*/u32[1,4]{1,0:T(1,128)}, u32[1]{0:T(128)}, u32[1,4]{1,0:T(1,128)}, u32[1]{0:T(128)}, u32[1,4]{1,0:T(1,128)}, /*index=55*/f32[128,1,512]{2,1,0:T(1,128)}, f32[128,1,512]{2,1,0:T(1,128)}, f32[512,1,128]{2,1,0:T(1,128)}, u32[1]{0:T(128)}, u32[1,4]{1,0:T(1,128)}, /*index=60*/u32[1]{0:T(128)}, u32[1,4]{1,0:T(1,128)}, u32[1]{0:T(128)}, u32[1,4]{1,0:T(1,128)}, f32[512,1]{0,1:T(1,128)}, /*index=65*/f32[512,1]{0,1:T(1,128)}, f32[512,1]{0,1:T(1,128)}, f32[128,1,128,128]{3,2,1,0:T(8,128)}, f32[1536,1]{0,1:T(1,128)}, f32[128,1,576]{0,2,1:T(8,128)}, /*index=70*/f32[128,1,128,256]{3,2,1,0:T(8,128)}, f32[128,1,1536]{2,1,0:T(1,128)}, f32[384,1,128,192]{2,3,1,0:T(8,128)}, u32[]{:T(128)}, u32[4]{0:T(128)}, /*index=75*/u32[]{:T(128)}, u32[4]{0:T(128)}, u32[]{:T(128)}, u32[4]{0:T(128)}, f32[129280,128]{1,0:T(8,128)}, /*index=80*/s32[]{:T(128)}, f32[512]{0:T(512)}, f32[128,3,18432]{2,0,1:T(8,128)}, f32[128,3,18432]{2,0,1:T(8,128)}, f32[18432,3,128]{2,0,1:T(8,128)}, /*index=85*/f32[512,3]{0,1:T(4,128)}, f32[512,3]{0,1:T(4,128)}, f32[512,3]{0,1:T(4,128)}, f32[128,3,128,128]{3,2,1,0:T(8,128)}, f32[1536,3]{0,1:T(4,128)}, /*index=90*/f32[128,3,576]{0,2,1:T(8,128)}, f32[128,3,128,256]{3,2,1,0:T(8,128)}, f32[128,3,1536]{2,0,1:T(8,128)}, f32[384,3,128,192]{2,3,1,0:T(8,128)}, f32[128,129280]{1,0:T(8,128)}, /*index=95*/f32[256,1]{0,1:T(1,128)}, f32[128,1,256]{2,1,0:T(1,128)}, f32[256,1,128,512]{3,2,1,0:T(8,128)}, f32[256,1,128,512]{3,2,1,0:T(8,128)}, f32[256,1,512,128]{3,2,1,0:T(8,128)}, /*index=100*/f32[128,1,512]{2,1,0:T(1,128)}, f32[128,1,512]{2,1,0:T(1,128)}, f32[512,1,128]{2,1,0:T(1,128)}, f32[512,1]{0,1:T(1,128)}, f32[512,1]{0,1:T(1,128)}, /*index=105*/f32[512,1]{0,1:T(1,128)}, f32[128,1,128,128]{3,2,1,0:T(8,128)}, f32[1536,1]{0,1:T(1,128)}, f32[128,1,576]{0,2,1:T(8,128)}, f32[128,1,128,256]{3,2,1,0:T(8,128)}, /*index=110*/f32[128,1,1536]{2,1,0:T(1,128)}, f32[384,1,128,192]{2,3,1,0:T(8,128)}, f32[129280,128]{1,0:T(8,128)}, f32[512]{0:T(512)}, f32[128,3,18432]{2,0,1:T(8,128)}, /*index=115*/f32[128,3,18432]{2,0,1:T(8,128)}, f32[18432,3,128]{2,0,1:T(8,128)}, f32[512,3]{0,1:T(4,128)}, f32[512,3]{0,1:T(4,128)}, f32[512,3]{0,1:T(4,128)}, /*index=120*/f32[128,3,128,128]{3,2,1,0:T(8,128)}, f32[1536,3]{0,1:T(4,128)}, f32[128,3,576]{0,2,1:T(8,128)}, f32[128,3,128,256]{3,2,1,0:T(8,128)}, f32[128,3,1536]{2,0,1:T(8,128)}, /*index=125*/f32[384,3,128,192]{2,3,1,0:T(8,128)}, f32[128,129280]{1,0:T(8,128)}, f32[256,1]{0,1:T(1,128)}, f32[128,1,256]{2,1,0:T(1,128)}, f32[256,1,128,512]{3,2,1,0:T(8,128)}, /*index=130*/f32[256,1,128,512]{3,2,1,0:T(8,128)}, f32[256,1,512,128]{3,2,1,0:T(8,128)}, f32[128,1,512]{2,1,0:T(1,128)}, f32[128,1,512]{2,1,0:T(1,128)}, f32[512,1,128]{2,1,0:T(1,128)}, /*index=135*/f32[512,1]{0,1:T(1,128)}, f32[512,1]{0,1:T(1,128)}, f32[512,1]{0,1:T(1,128)}, f32[128,1,128,128]{3,2,1,0:T(8,128)}, f32[1536,1]{0,1:T(1,128)}, /*index=140*/f32[128,1,576]{0,2,1:T(8,128)}, f32[128,1,128,256]{3,2,1,0:T(8,128)}, f32[128,1,1536]{2,1,0:T(1,128)}, f32[384,1,128,192]{2,3,1,0:T(8,128)}, f32[129280,128]{1,0:T(8,128)}, /*index=145*/s32[]{:T(128)}, u32[]{:T(128)}, f32[]{:T(128)}, f32[]{:T(128)}, f32[]{:T(128)}, /*index=150*/f32[]{:T(128)}, f32[]{:T(128)}, f32[]{:T(128)}, f32[]{:T(128)}, f32[]{:T(128)}, /*index=155*/f32[]{:T(128)}, s32[]{:T(128)}, f32[]{:T(128)})}, allow_spmd_sharding_propagation_to_parameters={false,false,false,false,false,false,false,false,false,false,false,false,false,false,false,false,false,false,false,false,false,false,false,false,false,false,false,false,false,false,false,false,false,false,false,false,false,false,false,false,false,false,false,false,false,false,false,false,false,false,false,false,false,false,false,false,false,false,false,false,false,false,false,false,false,false,false,false,false,false,false,false,false,false,false,false,false,false,false,false,false,false,false,false,false,false,false,false,false,false,false,false,false,false,false,false,false,false,false,false,false,false,false,false,false,false,false,false,false,false,false,false,false,false,false,false,false,false,false,false,false,false,false,false,false,false,false,false,false,false,false,false,false,false,false,false,false,false,false,false,false,false,false,false,false,false,false,false,false,false,false,false}, allow_spmd_sharding_propagation_to_output={false,false,false,false,false,false,false,false,false,false,false,false,false,false,false,false,false,false,false,false,false,false,false,false,false,false,false,false,false,false,false,false,false,false,false,false,false,false,false,false,false,false,false,false,false,false,false,false,false,false,false,false,false,false,false,false,false,false,false,false,false,false,false,false,false,false,false,false,false,false,false,false,false,false,false,false,false,false,false,false,false,false,false,false,false,false,false,false,false,false,false,false,false,false,false,false,false,false,false,false,false,false,false,false,false,false,false,false,false,false,false,false,false,false,false,false,false,false,false,false,false,false,false,false,false,false,false,false,false,false,false,false,false,false,false,false,false,false,false,false,false,false,false,false,false,false,false,true,true,true,true,true,true,true,true,true,true,true}, num_partitions=4, frontend_attributes={arg_layout_modes="default;default;default;default;default;default;default;default;default;default;default;default;default;default;default;default;default;default;default;default;default;default;default;default;default;default;default;default;default;default;default;default;default;default;default;default;default;default;default;default;default;default;default;default;default;default;default;default;default;default;default;default;default;default;default;default;default;default;default;default;default;default;default;default;default;default;default;default;default;default;default;default;default;default;default;default;default;default;default;default;default;default;default;default;default;default;default;default;default;default;default;default;default;default;default;default;default;default;default;default;default;default;default;default;default;default;default;default;default;default;default;default;default;default;default;default;default;default;default;default;default;default;default;default;default;default;default;default;default;default;default;default;default;default;default;default;default;default;default;default;default;default;default;default;default;default;default;default;default;default;default;default",arg_memory_spaces="0;0;0;0;0;0;0;0;0;0;0;0;0;0;0;0;0;0;0;0;0;0;0;0;0;0;0;0;0;0;0;0;0;0;0;0;0;0;0;0;0;0;0;0;0;0;0;0;0;0;0;0;0;0;0;0;0;0;0;0;0;0;0;0;0;0;0;0;0;0;0;0;0;0;0;0;0;0;0;0;0;0;0;0;0;0;0;0;0;0;0;0;0;0;0;0;0;0;0;0;0;0;0;0;0;0;0;0;0;0;0;0;0;0;0;0;0;0;0;0;0;0;0;0;0;0;0;0;0;0;0;0;0;0;0;0;0;0;0;0;0;0;0;0;0;0;0;0;0;0;0;0",out_layout_modes="default;default;default;default;default;default;default;default;default;default;default;default;default;default;default;default;default;default;default;default;default;default;default;default;default;default;default;default;default;default;default;default;default;default;default;default;default;default;default;default;default;default;default;default;default;default;default;default;default;default;default;default;default;default;default;default;default;default;default;default;default;default;default;default;default;default;default;default;default;default;default;default;default;default;default;default;default;default;default;default;default;default;default;default;default;default;default;default;default;default;default;default;default;default;default;default;default;default;default;default;default;default;default;default;default;default;default;default;default;default;default;default;default;default;default;default;default;default;default;default;default;default;default;default;default;default;default;default;default;default;default;default;default;default;default;default;default;default;default;default;default;default;default;default;default;default;default;default;default;default;default;default;default;default;default;default;default;default",out_memory_spaces="0;0;0;0;0;0;0;0;0;0;0;0;0;0;0;0;0;0;0;0;0;0;0;0;0;0;0;0;0;0;0;0;0;0;0;0;0;0;0;0;0;0;0;0;0;0;0;0;0;0;0;0;0;0;0;0;0;0;0;0;0;0;0;0;0;0;0;0;0;0;0;0;0;0;0;0;0;0;0;0;0;0;0;0;0;0;0;0;0;0;0;0;0;0;0;0;0;0;0;0;0;0;0;0;0;0;0;0;0;0;0;0;0;0;0;0;0;0;0;0;0;0;0;0;0;0;0;0;0;0;0;0;0;0;0;0;0;0;0;0;0;0;0;0;0;0;0;0;0;0;0;0;0;0;0;0;0;0"}

FileNames

FunctionNames

FileLocations

StackFrames


%fused_computation.1355 (param_0.3835: s32[1,128]) -> s32[1,1,128] {
  %param_0.3835 = s32[1,128]{1,0:T(1,128)S(1)} parameter(0)
  %constant.1719.clone.154 = s32[]{:T(128)} constant(0), metadata={op_name="jit(train_step)/shard_map/jit(gmm)" stack_frame_id=0}
  %broadcast.4423 = s32[1,128]{1,0:T(1,128)} broadcast(%constant.1719.clone.154), dimensions={}, metadata={op_name="broadcast.370"}
  %lt.832 = pred[1,128]{1,0:T(4,128)(4,1)} compare(%param_0.3835, %broadcast.4423), direction=LT, metadata={op_name="jit(train_step)/jvp()/lt" stack_frame_id=0}
  %constant.1731.clone.1 = s32[]{:T(128)} constant(129280)
  %add.3653 = s32[1,128]{1,0:T(1,128)} broadcast(%constant.1731.clone.1), dimensions={}, metadata={op_name="jit(train_step)/jvp()/add" stack_frame_id=0}
  %add.3589 = s32[1,128]{1,0:T(1,128)} add(%param_0.3835, %add.3653), metadata={op_name="jit(train_step)/jvp()/add" stack_frame_id=0}
  %select_n.2272 = s32[1,128]{1,0:T(1,128)} select(%lt.832, %add.3589, %param_0.3835), metadata={op_name="jit(train_step)/jvp()/select_n" stack_frame_id=0}
  ROOT %bitcast.1928 = s32[1,1,128]{2,1,0:T(1,128)S(1)} bitcast(%select_n.2272)
}

%fused_computation.1133 (param_0.3323: s32[512]) -> s32[1024] {
  %constant.4122 = s32[] constant(0), metadata={op_name="jit(train_step)/jvp()/gather" stack_frame_id=0}
  %broadcast.4269 = s32[1024]{0:T(1024)} broadcast(%constant.4122), dimensions={}, metadata={op_name="jit(train_step)/jvp()/gather" stack_frame_id=0}
  %param_0.3323 = s32[512]{0:T(512)S(1)} parameter(0)
  %constant.4128 = s32[] constant(2147483647), metadata={op_name="jit(train_step)/jvp()/gather" stack_frame_id=0}
  %pad.332 = s32[1024]{0:T(1024)} pad(%param_0.3323, %constant.4128), padding=0_512, metadata={op_name="jit(train_step)/jvp()/gather" stack_frame_id=0}
  %constant.4111 = s32[] constant(129279), metadata={op_name="jit(train_step)/jvp()/gather" stack_frame_id=0}
  %broadcast.4258 = s32[1024]{0:T(1024)} broadcast(%constant.4111), dimensions={}, metadata={op_name="jit(train_step)/jvp()/gather" stack_frame_id=0}
  ROOT %clamp.60 = s32[1024]{0:T(1024)S(1)} clamp(%broadcast.4269, %pad.332, %broadcast.4258), metadata={op_name="jit(train_step)/jvp()/gather" stack_frame_id=0}
}

%fused_computation.6 (param_0.20: bf16[129280,128], param_1.121: s32[1024]) -> bf16[512,128] {
  %param_0.20 = bf16[129280,128]{1,0:T(8,128)(2,1)S(1)} parameter(0)
  %param_1.121 = s32[1024]{0:T(1024)S(1)} parameter(1)
  %custom-call.18 = s32[1024]{0:T(1024)} custom-call(%param_1.121), custom_call_target="AssumeGatherIndicesInBound", operand_layout_constraints={s32[1024]{0:T(1024)}}, metadata={op_name="jit(train_step)/jvp()/gather" stack_frame_id=0}
  %slice.1057 = s32[512]{0:T(512)} slice(%custom-call.18), slice={[0:512]}, metadata={op_name="jit(train_step)/jvp()/gather" stack_frame_id=0}
  %reshape.4326 = s32[4,128]{1,0:T(4,128)} reshape(%slice.1057), metadata={op_name="jit(train_step)/jvp()/gather" stack_frame_id=0}
  %transpose.891 = s32[4,128]{1,0:T(4,128)} transpose(%reshape.4326), dimensions={0,1}, metadata={op_name="jit(train_step)/jvp()/gather" stack_frame_id=0}
  %gather.226 = bf16[4,128,128]{2,1,0:T(8,128)(2,1)} gather(%param_0.20, %transpose.891), offset_dims={2}, collapsed_slice_dims={0}, start_index_map={0}, index_vector_dim=2, slice_sizes={1,128}, metadata={op_name="jit(train_step)/jvp()/gather" stack_frame_id=0}
  %transpose.890 = bf16[4,128,128]{2,1,0:T(8,128)(2,1)} transpose(%gather.226), dimensions={0,1,2}, metadata={op_name="jit(train_step)/jvp()/gather" stack_frame_id=0}
  ROOT %reshape.4325 = bf16[512,128]{1,0:T(8,128)(2,1)S(1)} reshape(%transpose.890), metadata={op_name="jit(train_step)/jvp()/gather" stack_frame_id=0}
}

%fused_computation.1432 (param_0.4405: f32[512,3]) -> bf16[3,512] {
  %param_0.4405 = f32[512,3]{0,1:T(4,128)S(1)} parameter(0)
  %bitcast.2157 = f32[3,512]{1,0:T(4,128)} bitcast(%param_0.4405), metadata={op_name="jit(train_step)/jvp()/transpose" stack_frame_id=0}
  ROOT %convert.640 = bf16[3,512]{1,0:T(4,128)(2,1)} convert(%bitcast.2157)
}

%fused_computation.1122 (param_0.3211: f32[1536,3], param_1.3571: s32[]) -> bf16[3,384] {
  %param_0.3211 = f32[1536,3]{0,1:T(4,128)S(1)} parameter(0)
  %param_1.3571 = s32[]{:T(128)S(6)} parameter(1)
  %constant.1719.clone.47 = s32[]{:T(128)} constant(0), metadata={op_name="jit(train_step)/shard_map/jit(gmm)" stack_frame_id=0}
  %dynamic-slice.424 = bf16[384,3]{0,1:T(4,128)(2,1)} dynamic-slice(%param_0.3211, %param_1.3571, %constant.1719.clone.47), dynamic_slice_sizes={384,3}, metadata={op_name="jit(train_step)/jvp()/transpose" stack_frame_id=0}, backend_config={"flag_configs":[],"scoped_memory_configs":[],"indices_config":{"index_known_bits":[{"zeroes":"4294965375","ones":"0","bitwidth":"32"},{"zeroes":"4294967295","ones":"0","bitwidth":"32"}],"is_index_aligned":[]},"used_scoped_memory_configs":[]}
  ROOT %bitcast.1876 = bf16[3,384]{1,0:T(4,128)(2,1)} bitcast(%dynamic-slice.424), metadata={op_name="jit(train_step)/jvp()/transpose" stack_frame_id=0}
}

%fused_computation.1431 (param_0.4404: f32[512,3]) -> bf16[3,512] {
  %param_0.4404 = f32[512,3]{0,1:T(4,128)S(1)} parameter(0)
  %bitcast.2156 = f32[3,512]{1,0:T(4,128)} bitcast(%param_0.4404), metadata={op_name="jit(train_step)/jvp()/transpose" stack_frame_id=0}
  ROOT %convert.638 = bf16[3,512]{1,0:T(4,128)(2,1)} convert(%bitcast.2156)
}

%fused_computation.1425 (param_0.4386: f32[128,3,1536]) -> bf16[3,128,1536] {
  %param_0.4386 = f32[128,3,1536]{2,0,1:T(8,128)S(1)} parameter(0)
  %bitcast.2155 = f32[3,128,1536]{2,1,0:T(8,128)} bitcast(%param_0.4386), metadata={op_name="jit(train_step)/jvp()/transpose" stack_frame_id=0}
  ROOT %convert.636 = bf16[3,128,1536]{2,1,0:T(8,128)(2,1)} convert(%bitcast.2155)
}

%fused_computation.484 (param_0.1460: f32[384,3,128,192]) -> bf16[3,384,128,192] {
  %param_0.1460 = f32[384,3,128,192]{2,3,1,0:T(8,128)} parameter(0)
  %copy.1445 = bf16[384,3,128,192]{2,0,3,1:T(8,128)(2,1)} copy(%param_0.1460), sharding={devices=[4,1,1,1]<=[4]}, metadata={op_name="state[\'model\'][\'decoder\'][\'dense_layers\'][\'self_attention\'][\'wq_b\'][\'kernel\'].value"}
  ROOT %bitcast.1106 = bf16[3,384,128,192]{2,1,3,0:T(8,128)(2,1)} bitcast(%copy.1445), metadata={op_name="jit(train_step)/jvp()/transpose" stack_frame_id=0}
}

%fused_computation.1256 (param_0.3509: f32[512,3], param_1.3939: s32[]) -> bf16[3,128] {
  %param_0.3509 = f32[512,3]{0,1:T(4,128)S(1)} parameter(0)
  %param_1.3939 = s32[]{:T(128)S(6)} parameter(1)
  %constant.1719.clone.59 = s32[]{:T(128)} constant(0), metadata={op_name="jit(train_step)/shard_map/jit(gmm)" stack_frame_id=0}
  %dynamic-slice.442 = bf16[128,3]{0,1:T(4,128)(2,1)} dynamic-slice(%param_0.3509, %param_1.3939, %constant.1719.clone.59), dynamic_slice_sizes={128,3}, metadata={op_name="jit(train_step)/jvp()/transpose" stack_frame_id=0}, backend_config={"flag_configs":[],"scoped_memory_configs":[],"indices_config":{"index_known_bits":[{"zeroes":"4294966911","ones":"0","bitwidth":"32"},{"zeroes":"4294967295","ones":"0","bitwidth":"32"}],"is_index_aligned":[]},"used_scoped_memory_configs":[]}
  ROOT %bitcast.1907 = bf16[3,128]{1,0:T(4,128)(2,1)} bitcast(%dynamic-slice.442), metadata={op_name="jit(train_step)/jvp()/transpose" stack_frame_id=0}
}

%fused_computation.569 (param_0.1678: f32[128,3,128,256]) -> bf16[3,128,128,256] {
  %param_0.1678 = f32[128,3,128,256]{3,2,1,0:T(8,128)S(1)} parameter(0)
  %copy.1446 = bf16[128,3,128,256]{3,0,2,1:T(8,128)(2,1)} copy(%param_0.1678), sharding={devices=[4,1,1,1]<=[4]}, metadata={op_name="state[\'model\'][\'decoder\'][\'dense_layers\'][\'self_attention\'][\'wkv_b\'][\'kernel\'].value"}
  ROOT %bitcast.1207 = bf16[3,128,128,256]{3,1,2,0:T(8,128)(2,1)} bitcast(%copy.1446), metadata={op_name="jit(train_step)/jvp()/transpose" stack_frame_id=0}
}

%fused_computation.1395 () -> f32[32] {
  %constant.1736.clone.1 = f32[]{:T(128)} constant(10000)
  %broadcast.4415 = f32[32]{0:T(128)} broadcast(%constant.1736.clone.1), dimensions={}, metadata={op_name="broadcast.1660"}
  %iota.346 = f32[32]{0:T(128)} iota(), iota_dimension=0, metadata={op_name="jit(train_step)/iota" stack_frame_id=0}
  %constant.1737.clone.1 = f32[]{:T(128)} constant(0.03125)
  %div.2470 = f32[32]{0:T(128)} broadcast(%constant.1737.clone.1), dimensions={}, metadata={op_name="jit(train_step)/div" stack_frame_id=0}
  %div.2443 = f32[32]{0:T(128)} multiply(%iota.346, %div.2470), metadata={op_name="jit(train_step)/div" stack_frame_id=0}
  %pow.47 = f32[32]{0:T(128)} negate(%div.2443), metadata={op_name="jit(train_step)/pow" stack_frame_id=0}
  %pow.46 = f32[32]{0:T(128)} power(%broadcast.4415, %pow.47), metadata={op_name="jit(train_step)/pow" stack_frame_id=0}
  %constant.1738.clone.1 = f32[]{:T(128)} constant(0.025)
  %broadcast.4414 = f32[32]{0:T(128)} broadcast(%constant.1738.clone.1), dimensions={}, metadata={op_name="broadcast.1662"}
  %div.2442 = f32[32]{0:T(128)} multiply(%pow.46, %broadcast.4414), metadata={op_name="jit(train_step)/div" stack_frame_id=0}
  %constant.1718.clone.11 = f32[]{:T(128)} constant(1)
  %broadcast.4413 = f32[32]{0:T(128)} broadcast(%constant.1718.clone.11), dimensions={}, metadata={op_name="broadcast.1663"}
  %constant.1730.clone.96 = f32[]{:T(128)} constant(0)
  %max.96 = f32[32]{0:T(128)} broadcast(%constant.1730.clone.96), dimensions={}, metadata={op_name="jit(train_step)/jit(clip)/max" stack_frame_id=0}
  %iota.345 = f32[32]{0:T(128)} iota(), iota_dimension=0, metadata={op_name="jit(train_step)/iota" stack_frame_id=0}
  %constant.1739.clone.1 = f32[]{:T(128)} constant(-10)
  %broadcast.4412 = f32[32]{0:T(128)} broadcast(%constant.1739.clone.1), dimensions={}, metadata={op_name="broadcast.1666"}
  %sub.875 = f32[32]{0:T(128)} add(%iota.345, %broadcast.4412), metadata={op_name="jit(train_step)/sub" stack_frame_id=0}
  %constant.1740.clone.1 = f32[]{:T(128)} constant(0.0769230798)
  %broadcast.4411 = f32[32]{0:T(128)} broadcast(%constant.1740.clone.1), dimensions={}, metadata={op_name="broadcast.1667"}
  %div.2441 = f32[32]{0:T(128)} multiply(%sub.875, %broadcast.4411), metadata={op_name="jit(train_step)/div" stack_frame_id=0}
  %min.42 = f32[32]{0:T(128)} clamp(%max.96, %div.2441, %broadcast.4413), metadata={op_name="jit(train_step)/jit(clip)/min" stack_frame_id=0}
  %sub.874 = f32[32]{0:T(128)} subtract(%broadcast.4413, %min.42), metadata={op_name="jit(train_step)/sub" stack_frame_id=0}
  %sub.873 = f32[32]{0:T(128)} subtract(%broadcast.4413, %sub.874), metadata={op_name="jit(train_step)/sub" stack_frame_id=0}
  %mul.4547 = f32[32]{0:T(128)} multiply(%div.2442, %sub.873), metadata={op_name="jit(train_step)/mul" stack_frame_id=0}
  %mul.4546 = f32[32]{0:T(128)} multiply(%pow.46, %sub.874), metadata={op_name="jit(train_step)/mul" stack_frame_id=0}
  ROOT %add.3632 = f32[32]{0:T(128)S(1)} add(%mul.4547, %mul.4546), metadata={op_name="jit(train_step)/add" stack_frame_id=0}
}

%fused_computation.495 (param_0.4495: f32[32]) -> (f32[163840,32], f32[163840,32]) {
  %mul.3607 = f32[163840,32]{1,0:T(8,128)} iota(), iota_dimension=0, metadata={op_name="jit(train_step)/mul" stack_frame_id=0}
  %param_0.4495 = f32[32]{0:T(128)S(1)} parameter(0)
  %mul.3700 = f32[163840,32]{1,0:T(8,128)} broadcast(%param_0.4495), dimensions={1}, metadata={op_name="jit(train_step)/mul" stack_frame_id=0}
  %mul.3606 = f32[163840,32]{1,0:T(8,128)} multiply(%mul.3607, %mul.3700), metadata={op_name="jit(train_step)/mul" stack_frame_id=0}
  %constant.1730.clone.95 = f32[]{:T(128)} constant(0)
  %convert_element_type.2546 = f32[163840,32]{1,0:T(8,128)} broadcast(%constant.1730.clone.95), dimensions={}, metadata={op_name="jit(train_step)/convert_element_type" stack_frame_id=0}
  %exp.480 = pred[163840,32]{1,0:T(8,128)(4,1)} compare(%mul.3606, %convert_element_type.2546), direction=EQ, metadata={op_name="jit(train_step)/exp" stack_frame_id=0}
  %mul.3587 = f32[163840,32]{1,0:T(8,128)} multiply(%mul.3606, %convert_element_type.2546), metadata={op_name="jit(train_step)/mul" stack_frame_id=0}
  %exp.473 = f32[163840,32]{1,0:T(8,128)} exponential(%mul.3587), metadata={op_name="jit(train_step)/exp" stack_frame_id=0}
  %constant.1741.clone.1 = f32[]{:T(128)} constant(inf)
  %broadcast.4090 = f32[163840,32]{1,0:T(8,128)} broadcast(%constant.1741.clone.1), dimensions={}, metadata={op_name="broadcast.373"}
  %exp.472 = pred[163840,32]{1,0:T(8,128)(4,1)} compare(%exp.473, %broadcast.4090), direction=EQ, metadata={op_name="jit(train_step)/exp" stack_frame_id=0}
  %exp.460 = f32[163840,32]{1,0:T(8,128)} sine(%mul.3606), metadata={op_name="jit(train_step)/exp" stack_frame_id=0}
  %exp.459 = f32[163840,32]{1,0:T(8,128)} multiply(%exp.473, %exp.460), metadata={op_name="jit(train_step)/exp" stack_frame_id=0}
  %exp.458 = f32[163840,32]{1,0:T(8,128)} multiply(%exp.459, %exp.473), metadata={op_name="jit(train_step)/exp" stack_frame_id=0}
  %exp.457 = f32[163840,32]{1,0:T(8,128)} select(%exp.472, %exp.458, %exp.459), metadata={op_name="jit(train_step)/exp" stack_frame_id=0}
  %exp.453 = f32[163840,32]{1,0:T(8,128)} select(%exp.480, %convert_element_type.2546, %exp.457), metadata={op_name="jit(train_step)/exp" stack_frame_id=0}
  %exp.461.clone.1 = f32[163840,32]{1,0:T(8,128)} cosine(%mul.3606), metadata={op_name="jit(train_step)/exp" stack_frame_id=0}
  %exp.452.clone.1 = f32[163840,32]{1,0:T(8,128)} multiply(%exp.473, %exp.461.clone.1), metadata={op_name="jit(train_step)/exp" stack_frame_id=0}
  %exp.451.clone.1 = f32[163840,32]{1,0:T(8,128)} multiply(%exp.452.clone.1, %exp.473), metadata={op_name="jit(train_step)/exp" stack_frame_id=0}
  %exp.450.clone.1 = f32[163840,32]{1,0:T(8,128)} select(%exp.472, %exp.451.clone.1, %exp.452.clone.1), metadata={op_name="jit(train_step)/exp" stack_frame_id=0}
  ROOT %tuple.722 = (f32[163840,32]{1,0:T(8,128)}, f32[163840,32]{1,0:T(8,128)}) tuple(%exp.453, %exp.450.clone.1)
}

%fused_computation.1356 (param_0.3839: s32[1,128]) -> s32[128] {
  %param_0.3839 = s32[1,128]{1,0:T(1,128)S(1)} parameter(0)
  %constant.1719.clone.92 = s32[]{:T(128)} constant(0), metadata={op_name="jit(train_step)/shard_map/jit(gmm)" stack_frame_id=0}
  %broadcast.4422 = s32[1,128]{1,0:T(1,128)} broadcast(%constant.1719.clone.92), dimensions={}, metadata={op_name="broadcast.370"}
  %lt.834 = pred[1,128]{1,0:T(4,128)(4,1)} compare(%param_0.3839, %broadcast.4422), direction=LT, metadata={op_name="jit(train_step)/lt" stack_frame_id=0}
  %constant.1742.clone.2 = s32[]{:T(128)} constant(163840)
  %broadcast.4410 = s32[1,128]{1,0:T(1,128)} broadcast(%constant.1742.clone.2), dimensions={}, metadata={op_name="broadcast.361"}
  %add.3591 = s32[1,128]{1,0:T(1,128)} add(%param_0.3839, %broadcast.4410), metadata={op_name="jit(train_step)/add" stack_frame_id=0}
  %select_n.2274 = s32[1,128]{1,0:T(1,128)} select(%lt.834, %add.3591, %param_0.3839), metadata={op_name="jit(train_step)/select_n" stack_frame_id=0}
  ROOT %bitcast.1929 = s32[128]{0:T(128)S(1)} bitcast(%select_n.2274), metadata={op_name="jit(train_step)/broadcast_in_dim" stack_frame_id=0}
}

%fused_computation.1132 (param_0.3322: s32[128]) -> s32[1024] {
  %constant.4112 = s32[] constant(0), metadata={op_name="jit(train_step)/jvp()/gather" stack_frame_id=0}
  %broadcast.4268 = s32[1024]{0:T(1024)} broadcast(%constant.4112), dimensions={}, metadata={op_name="jit(train_step)/jvp()/gather" stack_frame_id=0}
  %param_0.3322 = s32[128]{0:T(128)S(1)} parameter(0)
  %constant.4127 = s32[] constant(2147483647), metadata={op_name="jit(train_step)/jvp()/gather" stack_frame_id=0}
  %pad.331 = s32[1024]{0:T(1024)} pad(%param_0.3322, %constant.4127), padding=0_896, metadata={op_name="jit(train_step)/gather" stack_frame_id=0}
  %constant.4110 = s32[] constant(163839), metadata={op_name="jit(train_step)/gather" stack_frame_id=0}
  %broadcast.4257 = s32[1024]{0:T(1024)} broadcast(%constant.4110), dimensions={}, metadata={op_name="jit(train_step)/gather" stack_frame_id=0}
  ROOT %clamp.59 = s32[1024]{0:T(1024)S(1)} clamp(%broadcast.4268, %pad.331, %broadcast.4257), metadata={op_name="jit(train_step)/gather" stack_frame_id=0}
}

%fused_computation.7 (param_0.23: f32[163840,32], param_1.123: s32[1024]) -> f32[128,32] {
  %param_0.23 = f32[163840,32]{1,0:T(8,128)} parameter(0)
  %param_1.123 = s32[1024]{0:T(1024)S(1)} parameter(1)
  %custom-call.20 = s32[1024]{0:T(1024)} custom-call(%param_1.123), custom_call_target="AssumeGatherIndicesInBound", operand_layout_constraints={s32[1024]{0:T(1024)}}, metadata={op_name="jit(train_step)/gather" stack_frame_id=0}
  %slice.1059 = s32[128]{0:T(128)} slice(%custom-call.20), slice={[0:128]}, metadata={op_name="jit(train_step)/gather" stack_frame_id=0}
  %reshape.4334 = s32[128]{0:T(128)} reshape(%slice.1059), metadata={op_name="jit(train_step)/broadcast_in_dim" stack_frame_id=0}
  %transpose.897 = s32[128]{0:T(128)} transpose(%reshape.4334), dimensions={0}, metadata={op_name="jit(train_step)/broadcast_in_dim" stack_frame_id=0}
  %gather.228 = f32[128,32]{1,0:T(8,128)} gather(%param_0.23, %transpose.897), offset_dims={1}, collapsed_slice_dims={0}, start_index_map={0}, index_vector_dim=1, slice_sizes={1,32}, metadata={op_name="jit(train_step)/gather" stack_frame_id=0}
  %transpose.896 = f32[128,32]{1,0:T(8,128)} transpose(%gather.228), dimensions={0,1}, metadata={op_name="jit(train_step)/gather" stack_frame_id=0}
  ROOT %reshape.4333 = f32[128,32]{1,0:T(8,128)S(1)} reshape(%transpose.896), metadata={op_name="jit(train_step)/gather" stack_frame_id=0}
}

%fused_computation.8 (param_0.26: f32[163840,32], param_1.125: s32[1024]) -> f32[128,32] {
  %param_0.26 = f32[163840,32]{1,0:T(8,128)} parameter(0)
  %param_1.125 = s32[1024]{0:T(1024)S(1)} parameter(1)
  %custom-call.22 = s32[1024]{0:T(1024)} custom-call(%param_1.125), custom_call_target="AssumeGatherIndicesInBound", operand_layout_constraints={s32[1024]{0:T(1024)}}, metadata={op_name="jit(train_step)/gather" stack_frame_id=0}
  %slice.1061 = s32[128]{0:T(128)} slice(%custom-call.22), slice={[0:128]}, metadata={op_name="jit(train_step)/gather" stack_frame_id=0}
  %reshape.4342 = s32[128]{0:T(128)} reshape(%slice.1061), metadata={op_name="jit(train_step)/broadcast_in_dim" stack_frame_id=0}
  %transpose.903 = s32[128]{0:T(128)} transpose(%reshape.4342), dimensions={0}, metadata={op_name="jit(train_step)/broadcast_in_dim" stack_frame_id=0}
  %gather.230 = f32[128,32]{1,0:T(8,128)} gather(%param_0.26, %transpose.903), offset_dims={1}, collapsed_slice_dims={0}, start_index_map={0}, index_vector_dim=1, slice_sizes={1,32}, metadata={op_name="jit(train_step)/gather" stack_frame_id=0}
  %transpose.902 = f32[128,32]{1,0:T(8,128)} transpose(%gather.230), dimensions={0,1}, metadata={op_name="jit(train_step)/gather" stack_frame_id=0}
  ROOT %reshape.4341 = f32[128,32]{1,0:T(8,128)S(1)} reshape(%transpose.902), metadata={op_name="jit(train_step)/gather" stack_frame_id=0}
}

%fused_computation.621 (param_0.1794: f32[128,3,128,128]) -> bf16[3,128,128,128] {
  %param_0.1794 = f32[128,3,128,128]{3,2,1,0:T(8,128)} parameter(0)
  %copy.1457 = bf16[128,3,128,128]{3,2,0,1:T(8,128)(2,1)} copy(%param_0.1794), sharding={devices=[1,1,1,4]<=[4]}, metadata={op_name="state[\'model\'][\'decoder\'][\'dense_layers\'][\'self_attention\'][\'out\'][\'kernel\'].value"}
  ROOT %bitcast.1249 = bf16[3,128,128,128]{3,2,1,0:T(8,128)(2,1)} bitcast(%copy.1457), metadata={op_name="jit(train_step)/jvp()/transpose" stack_frame_id=0}
}

%fused_computation.1423 (param_0.4385: f32[128,3,18432]) -> bf16[3,128,18432] {
  %param_0.4385 = f32[128,3,18432]{2,0,1:T(8,128)S(1)} parameter(0)
  %bitcast.2154 = f32[3,128,18432]{2,1,0:T(8,128)} bitcast(%param_0.4385), metadata={op_name="jit(train_step)/jvp()/transpose" stack_frame_id=0}
  ROOT %convert.634 = bf16[3,128,18432]{2,1,0:T(8,128)(2,1)} convert(%bitcast.2154)
}

%fused_computation.1421 (param_0.4384: f32[128,3,18432]) -> bf16[3,128,18432] {
  %param_0.4384 = f32[128,3,18432]{2,0,1:T(8,128)S(1)} parameter(0)
  %bitcast.2153 = f32[3,128,18432]{2,1,0:T(8,128)} bitcast(%param_0.4384), metadata={op_name="jit(train_step)/jvp()/transpose" stack_frame_id=0}
  ROOT %convert.630 = bf16[3,128,18432]{2,1,0:T(8,128)(2,1)} convert(%bitcast.2153)
}

%fused_computation.1422 (param_0.4383: f32[18432,3,128]) -> bf16[3,18432,128] {
  %param_0.4383 = f32[18432,3,128]{2,0,1:T(8,128)} parameter(0)
  %bitcast.2152 = f32[3,18432,128]{2,1,0:T(8,128)} bitcast(%param_0.4383), metadata={op_name="jit(train_step)/jvp()/transpose" stack_frame_id=0}
  ROOT %convert.632 = bf16[3,18432,128]{2,1,0:T(8,128)(2,1)} convert(%bitcast.2152)
}

%fused_computation.171.clone.1 (param_0.4838: bf16[3,1,128,512], param_1.5447: s32[], param_2.4298: bf16[1,128,512]) -> bf16[3,1,128,512] {
  %param_0.4838 = bf16[3,1,128,512]{3,2,1,0:T(8,128)(2,1)} parameter(0)
  %param_2.4298 = bf16[1,128,512]{2,1,0:T(8,128)(2,1)S(1)} parameter(2)
  %bitcast.2534 = bf16[1,1,128,512]{3,2,1,0:T(8,128)(2,1)} bitcast(%param_2.4298), metadata={op_name="jit(train_step)/jvp()/while/body/jit(dynamic_update_index_in_dim)/broadcast_in_dim" stack_frame_id=0}
  %param_1.5447 = s32[]{:T(128)S(6)} parameter(1)
  %constant.1492.clone.42 = s32[]{:T(128)} constant(0)
  ROOT %dynamic-update-slice.65 = bf16[3,1,128,512]{3,2,1,0:T(8,128)(2,1)} dynamic-update-slice(%param_0.4838, %bitcast.2534, %param_1.5447, %constant.1492.clone.42, %constant.1492.clone.42, /*index=5*/%constant.1492.clone.42), metadata={op_name="jit(train_step)/jvp()/while/body/jit(dynamic_update_index_in_dim)/dynamic_update_slice" stack_frame_id=0}, backend_config={"flag_configs":[],"scoped_memory_configs":[],"indices_config":{"index_known_bits":[{"zeroes":"4294967292","ones":"0","bitwidth":"32"},{"zeroes":"4294967295","ones":"0","bitwidth":"32"},{"zeroes":"4294967295","ones":"0","bitwidth":"32"},{"zeroes":"4294967295","ones":"0","bitwidth":"32"}],"is_index_aligned":[]},"used_scoped_memory_configs":[]}
}

%fused_computation.129.clone.1 (param_0.4870: bf16[3,128,128,128], param_1.5468: s32[]) -> bf16[1,128,128,128] {
  %param_0.4870 = bf16[3,128,128,128]{3,2,1,0:T(8,128)(2,1)} parameter(0)
  %param_1.5468 = s32[]{:T(128)S(6)} parameter(1)
  %constant.1492.clone.50 = s32[]{:T(128)} constant(0)
  ROOT %dynamic-slice.532 = bf16[1,128,128,128]{3,2,1,0:T(8,128)(2,1)S(1)} dynamic-slice(%param_0.4870, %param_1.5468, %constant.1492.clone.50, %constant.1492.clone.50, %constant.1492.clone.50), dynamic_slice_sizes={1,128,128,128}, metadata={op_name="jit(train_step)/jvp()/while/body/jit(dynamic_index_in_dim)/dynamic_slice" stack_frame_id=0}, backend_config={"flag_configs":[],"scoped_memory_configs":[],"indices_config":{"index_known_bits":[{"zeroes":"4294967292","ones":"0","bitwidth":"32"},{"zeroes":"4294967295","ones":"0","bitwidth":"32"},{"zeroes":"4294967295","ones":"0","bitwidth":"32"},{"zeroes":"4294967295","ones":"0","bitwidth":"32"}],"is_index_aligned":[]},"used_scoped_memory_configs":[]}
}

%fused_computation.99.clone.1 (param_0.4864: bf16[3,384,128,192], param_1.5463: s32[]) -> bf16[1,384,128,192] {
  %param_0.4864 = bf16[3,384,128,192]{2,1,3,0:T(8,128)(2,1)} parameter(0)
  %param_1.5463 = s32[]{:T(128)S(6)} parameter(1)
  %constant.1492.clone.49 = s32[]{:T(128)} constant(0)
  ROOT %dynamic-slice.531 = bf16[1,384,128,192]{2,1,3,0:T(8,128)(2,1)S(1)} dynamic-slice(%param_0.4864, %param_1.5463, %constant.1492.clone.49, %constant.1492.clone.49, %constant.1492.clone.49), dynamic_slice_sizes={1,384,128,192}, metadata={op_name="jit(train_step)/jvp()/while/body/jit(dynamic_index_in_dim)/dynamic_slice" stack_frame_id=0}, backend_config={"flag_configs":[],"scoped_memory_configs":[],"indices_config":{"index_known_bits":[{"zeroes":"4294967292","ones":"0","bitwidth":"32"},{"zeroes":"4294967295","ones":"0","bitwidth":"32"},{"zeroes":"4294967295","ones":"0","bitwidth":"32"},{"zeroes":"4294967295","ones":"0","bitwidth":"32"}],"is_index_aligned":[]},"used_scoped_memory_configs":[]}
}

%fused_computation.140.clone.1 (param_0.4859: bf16[3,128,1536], param_1.5460: s32[]) -> bf16[1,128,1536] {
  %param_0.4859 = bf16[3,128,1536]{2,1,0:T(8,128)(2,1)} parameter(0)
  %param_1.5460 = s32[]{:T(128)S(6)} parameter(1)
  %constant.1492.clone.48 = s32[]{:T(128)} constant(0)
  ROOT %dynamic-slice.530 = bf16[1,128,1536]{2,1,0:T(8,128)(2,1)S(1)} dynamic-slice(%param_0.4859, %param_1.5460, %constant.1492.clone.48, %constant.1492.clone.48), dynamic_slice_sizes={1,128,1536}, metadata={op_name="jit(train_step)/jvp()/while/body/jit(dynamic_index_in_dim)/dynamic_slice" stack_frame_id=0}, backend_config={"flag_configs":[],"scoped_memory_configs":[],"indices_config":{"index_known_bits":[{"zeroes":"4294967292","ones":"0","bitwidth":"32"},{"zeroes":"4294967295","ones":"0","bitwidth":"32"},{"zeroes":"4294967295","ones":"0","bitwidth":"32"}],"is_index_aligned":[]},"used_scoped_memory_configs":[]}
}

%region_2.3 (reduce_sum.9: f32[], reduce_sum.13: f32[]) -> f32[] {
  %reduce_sum.9 = f32[]{:T(128)} parameter(0), metadata={op_name="jit(train_step)/jvp()/while/body/closed_call/reduce_sum"}
  %reduce_sum.13 = f32[]{:T(128)} parameter(1), metadata={op_name="jit(train_step)/jvp()/while/body/closed_call/reduce_sum"}
  ROOT %reduce_sum.14 = f32[]{:T(128)} add(%reduce_sum.9, %reduce_sum.13), metadata={op_name="reduce_sum" stack_frame_id=0}, backend_config={"flag_configs":[],"scoped_memory_configs":[],"used_scoped_memory_configs":[],"aliasing_operands":{"lists":[]}}
}

%fused_computation.158.clone.1 (param_0.4841: bf16[1,128,512]) -> f32[128] {
  %param_0.4841 = bf16[1,128,512]{2,1,0:T(8,128)(2,1)S(1)} parameter(0)
  %convert_element_type.3009 = f32[1,128,512]{2,1,0:T(8,128)} convert(%param_0.4841), metadata={op_name="jit(train_step)/jvp()/while/body/closed_call/convert_element_type" stack_frame_id=0}
  %square.699 = f32[1,128,512]{2,1,0:T(8,128)} multiply(%convert_element_type.3009, %convert_element_type.3009), metadata={op_name="jit(train_step)/jvp()/while/body/closed_call/square" stack_frame_id=0}
  %constant.1493.clone.19 = f32[]{:T(128)} constant(0)
  ROOT %reduce.880 = f32[128]{0:T(128)S(1)} reduce(%square.699, %constant.1493.clone.19), dimensions={0,2}, to_apply=%region_2.3, metadata={op_name="jit(train_step)/jvp()/while/body/closed_call/reduce_sum" stack_frame_id=0}
}

%fused_computation.205.clone.1 (param_0.4842: f32[128]) -> f32[128] {
  %param_0.4842 = f32[128]{0:T(128)S(1)} parameter(0)
  %constant.1494.clone.11 = f32[]{:T(128)} constant(0.001953125)
  %broadcast.4707 = f32[128]{0:T(128)} broadcast(%constant.1494.clone.11), dimensions={}, metadata={op_name="jit(train_step)/jvp()/while/body/closed_call" stack_frame_id=0}
  %div.2870 = f32[128]{0:T(128)} multiply(%param_0.4842, %broadcast.4707), metadata={op_name="jit(train_step)/jvp()/while/body/closed_call/div" stack_frame_id=0}
  %constant.1495.clone.13 = f32[]{:T(128)} constant(1e-06)
  %broadcast.4706 = f32[128]{0:T(128)} broadcast(%constant.1495.clone.13), dimensions={}, metadata={op_name="jit(train_step)/jvp()/while/body/closed_call" stack_frame_id=0}
  %add.3967 = f32[128]{0:T(128)} add(%div.2870, %broadcast.4706), metadata={op_name="jit(train_step)/jvp()/while/body/closed_call/add" stack_frame_id=0}
  ROOT %rsqrt.366 = f32[128]{0:T(128)S(1)} rsqrt(%add.3967), metadata={op_name="jit(train_step)/jvp()/while/body/closed_call/rsqrt" stack_frame_id=0}
}

%convert_element_type.2195.reduce_sub_computation (lhs.15: bf16[], rhs.15: bf16[]) -> bf16[] {
  %lhs.15 = bf16[] parameter(0)
  %rhs.15 = bf16[] parameter(1)
  ROOT %add.3047 = bf16[] add(%lhs.15, %rhs.15), backend_config={"flag_configs":[],"scoped_memory_configs":[],"used_scoped_memory_configs":[],"aliasing_operands":{"lists":[]}}
}

%convert_element_type.2198.reduce_sub_computation (lhs.17: bf16[], rhs.17: bf16[]) -> bf16[] {
  %lhs.17 = bf16[] parameter(0)
  %rhs.17 = bf16[] parameter(1)
  ROOT %add.3049 = bf16[] add(%lhs.17, %rhs.17), backend_config={"flag_configs":[],"scoped_memory_configs":[],"used_scoped_memory_configs":[],"aliasing_operands":{"lists":[]}}
}

%fused_computation.197.clone.1 (param_0.4839: bf16[3,512], param_1.5448: s32[], param_2.4299: bf16[3,512]) -> (bf16[512], bf16[512]) {
  %param_0.4839 = bf16[3,512]{1,0:T(4,128)(2,1)} parameter(0)
  %param_1.5448 = s32[]{:T(128)S(6)} parameter(1)
  %constant.1492.clone.43 = s32[]{:T(128)} constant(0)
  %dynamic_slice.628 = bf16[1,512]{1,0:T(2,128)(2,1)} dynamic-slice(%param_0.4839, %param_1.5448, %constant.1492.clone.43), dynamic_slice_sizes={1,512}, metadata={op_name="jit(train_step)/jvp()/while/body/jit(dynamic_index_in_dim)/dynamic_slice" stack_frame_id=0}, backend_config={"flag_configs":[],"scoped_memory_configs":[],"indices_config":{"index_known_bits":[{"zeroes":"4294967292","ones":"0","bitwidth":"32"},{"zeroes":"4294967295","ones":"0","bitwidth":"32"}],"is_index_aligned":[]},"used_scoped_memory_configs":[]}
  %constant.4256 = bf16[]{:T(256)} constant(-0), metadata={op_name="jit(train_step)/jvp()/while/body/closed_call/convert_element_type" stack_frame_id=0}
  %reduce.879 = bf16[512]{0:T(512)(128)(2,1)S(1)} reduce(%dynamic_slice.628, %constant.4256), dimensions={0}, to_apply=%convert_element_type.2195.reduce_sub_computation, metadata={op_name="jit(train_step)/jvp()/while/body/closed_call/convert_element_type" stack_frame_id=0}
  %param_2.4299 = bf16[3,512]{1,0:T(4,128)(2,1)} parameter(2)
  %dynamic_slice.614.clone.3 = bf16[1,512]{1,0:T(2,128)(2,1)} dynamic-slice(%param_2.4299, %param_1.5448, %constant.1492.clone.43), dynamic_slice_sizes={1,512}, metadata={op_name="jit(train_step)/jvp()/while/body/jit(dynamic_index_in_dim)/dynamic_slice" stack_frame_id=0}, backend_config={"flag_configs":[],"scoped_memory_configs":[],"indices_config":{"index_known_bits":[{"zeroes":"4294967292","ones":"0","bitwidth":"32"},{"zeroes":"4294967295","ones":"0","bitwidth":"32"}],"is_index_aligned":[]},"used_scoped_memory_configs":[]}
  %reduce.682.clone.3 = bf16[512]{0:T(512)(128)(2,1)S(1)} reduce(%dynamic_slice.614.clone.3, %constant.4256), dimensions={0}, to_apply=%convert_element_type.2198.reduce_sub_computation, metadata={op_name="jit(train_step)/jvp()/while/body/closed_call/convert_element_type" stack_frame_id=0}
  ROOT %tuple.862 = (bf16[512]{0:T(512)(128)(2,1)S(1)}, bf16[512]{0:T(512)(128)(2,1)S(1)}) tuple(%reduce.879, %reduce.682.clone.3)
}

%fused_computation.170.clone.1.clone.clone.clone.1 (param_0.4861: bf16[1,128,512], param_1.5461: f32[128], param_2.4305: bf16[512]) -> bf16[128,512] {
  %param_2.4305 = bf16[512]{0:T(512)(128)(2,1)S(1)} parameter(2)
  %dot_general.918 = bf16[1,128,512]{2,1,0:T(8,128)(2,1)} broadcast(%param_2.4305), dimensions={2}, metadata={op_name="jit(train_step)/jvp()/while/body/closed_call/...k,k->...k/dot_general" stack_frame_id=0}
  %convert.1035 = f32[1,128,512]{2,1,0:T(8,128)} convert(%dot_general.918)
  %param_0.4861 = bf16[1,128,512]{2,1,0:T(8,128)(2,1)S(1)} parameter(0)
  %convert_element_type.3019 = f32[1,128,512]{2,1,0:T(8,128)} convert(%param_0.4861), metadata={op_name="jit(train_step)/jvp()/while/body/closed_call/convert_element_type" stack_frame_id=0}
  %param_1.5461 = f32[128]{0:T(128)S(1)} parameter(1)
  %mul.5148 = f32[1,128,512]{2,1,0:T(8,128)} broadcast(%param_1.5461), dimensions={1}, metadata={op_name="jit(train_step)/jvp()/while/body/closed_call/mul" stack_frame_id=0}
  %mul.5147 = f32[1,128,512]{2,1,0:T(8,128)} multiply(%convert_element_type.3019, %mul.5148), metadata={op_name="jit(train_step)/jvp()/while/body/closed_call/mul" stack_frame_id=0}
  %convert_element_type.3018 = bf16[1,128,512]{2,1,0:T(8,128)(2,1)} convert(%mul.5147), metadata={op_name="jit(train_step)/jvp()/while/body/closed_call/convert_element_type" stack_frame_id=0}
  %convert.1036 = f32[1,128,512]{2,1,0:T(8,128)} convert(%convert_element_type.3018)
  %dot_general.917 = f32[1,128,512]{2,1,0:T(8,128)} multiply(%convert.1035, %convert.1036), metadata={op_name="jit(train_step)/jvp()/while/body/closed_call/...k,k->...k/dot_general" stack_frame_id=0}, backend_config={"flag_configs":[],"scoped_memory_configs":[],"used_scoped_memory_configs":[],"float_type_correction_info":{"original_type":"BF16","original_shape":{"element_type":"BF16","dimensions":["1","128","512"],"tuple_shapes":[],"layout":{"minor_to_major":["2","1","0"],"tiles":[{"dimensions":["8","128"]},{"dimensions":["2","1"]}],"element_size_in_bits":"0","memory_space":"0","dim_level_types":[],"index_primitive_type":"PRIMITIVE_TYPE_INVALID","pointer_primitive_type":"PRIMITIVE_TYPE_INVALID","dim_unique":[],"dim_ordered":[],"dynamic_shape_metadata_prefix_bytes":"0","tail_padding_alignment_in_elements":"1","split_configs":[]},"is_dynamic_dimension":[false,false,false]}}}
  %convert.1037 = bf16[1,128,512]{2,1,0:T(8,128)(2,1)} convert(%dot_general.917)
  ROOT %bitcast.2549 = bf16[128,512]{1,0:T(8,128)(2,1)} bitcast(%convert.1037)
}

%fused_computation.135.clone.clone.clone.clone.clone.clone.clone.1 (param_0.4860: bf16[1,512,1536]) -> bf16[512,1536] {
  %param_0.4860 = bf16[1,512,1536]{2,1,0:T(8,128)(2,1)S(1)} parameter(0)
  ROOT %bitcast.2548 = bf16[512,1536]{1,0:T(8,128)(2,1)} bitcast(%param_0.4860), metadata={op_name="jit(train_step)/jvp()/while/body/closed_call/dot_general" stack_frame_id=0}
}

%region_3.4 (reduce_sum.15: f32[], reduce_sum.16: f32[]) -> f32[] {
  %reduce_sum.15 = f32[]{:T(128)} parameter(0), metadata={op_name="jit(train_step)/jvp()/while/body/closed_call/reduce_sum"}
  %reduce_sum.16 = f32[]{:T(128)} parameter(1), metadata={op_name="jit(train_step)/jvp()/while/body/closed_call/reduce_sum"}
  ROOT %reduce_sum.20 = f32[]{:T(128)} add(%reduce_sum.15, %reduce_sum.16), metadata={op_name="reduce_sum" stack_frame_id=0}, backend_config={"flag_configs":[],"scoped_memory_configs":[],"used_scoped_memory_configs":[],"aliasing_operands":{"lists":[]}}
}

%fused_computation.139.clone.1 (param_0.4862: bf16[1,512,1536], param_1.5462: bf16[1,128,512], param_2.4306: f32[128], param_3.2900: bf16[512]) -> (f32[128], f32[1,128,1536]) {
  %param_1.5462 = bf16[1,128,512]{2,1,0:T(8,128)(2,1)S(1)} parameter(1)
  %param_2.4306 = f32[128]{0:T(128)S(1)} parameter(2)
  %param_3.2900 = bf16[512]{0:T(512)(128)(2,1)S(1)} parameter(3)
  %fusion.140.clone.3 = bf16[128,512]{1,0:T(8,128)(2,1)} fusion(%param_1.5462, %param_2.4306, %param_3.2900), kind=kLoop, calls=%fused_computation.170.clone.1.clone.clone.clone.1
  %param_0.4862 = bf16[1,512,1536]{2,1,0:T(8,128)(2,1)S(1)} parameter(0)
  %fusion.85.clone.3 = bf16[512,1536]{1,0:T(8,128)(2,1)} fusion(%param_0.4862), kind=kLoop, calls=%fused_computation.135.clone.clone.clone.clone.clone.clone.clone.1, metadata={op_name="jit(train_step)/jvp()/while/body/closed_call/dot_general" stack_frame_id=0}
  %convolution.91.clone.3 = bf16[128,1536]{1,0:T(8,128)(2,1)} convolution(%fusion.140.clone.3, %fusion.85.clone.3), dim_labels=bf_io->bf, metadata={op_name="jit(train_step)/jvp()/while/body/closed_call/dot_general" stack_frame_id=0}
  %convert_element_type.2255.clone.3 = f32[128,1536]{1,0:T(8,128)} convert(%convolution.91.clone.3), metadata={op_name="jit(train_step)/jvp()/while/body/closed_call/convert_element_type" stack_frame_id=0}
  %bitcast.695.clone.3 = f32[1,128,1536]{2,1,0:T(8,128)S(1)} bitcast(%convert_element_type.2255.clone.3), metadata={op_name="jit(train_step)/jvp()/while/body/closed_call/convert_element_type" stack_frame_id=0}
  %square.701 = f32[1,128,1536]{2,1,0:T(8,128)} multiply(%bitcast.695.clone.3, %bitcast.695.clone.3), metadata={op_name="jit(train_step)/jvp()/while/body/closed_call/square" stack_frame_id=0}
  %constant.1493.clone.22 = f32[]{:T(128)} constant(0)
  %reduce.882 = f32[128]{0:T(128)S(1)} reduce(%square.701, %constant.1493.clone.22), dimensions={0,2}, to_apply=%region_3.4, metadata={op_name="jit(train_step)/jvp()/while/body/closed_call/reduce_sum" stack_frame_id=0}
  ROOT %tuple.866 = (f32[128]{0:T(128)S(1)}, f32[1,128,1536]{2,1,0:T(8,128)S(1)}) tuple(%reduce.882, %bitcast.695.clone.3)
}

%fused_computation.204.clone.1 (param_0.4863: f32[128]) -> f32[128] {
  %param_0.4863 = f32[128]{0:T(128)S(1)} parameter(0)
  %constant.1496.clone.7 = f32[]{:T(128)} constant(0.000651041686)
  %broadcast.4711 = f32[128]{0:T(128)} broadcast(%constant.1496.clone.7), dimensions={}, metadata={op_name="jit(train_step)/jvp()/while/body/closed_call/div" stack_frame_id=0}
  %div.2872 = f32[128]{0:T(128)} multiply(%param_0.4863, %broadcast.4711), metadata={op_name="jit(train_step)/jvp()/while/body/closed_call/div" stack_frame_id=0}
  %constant.1495.clone.15 = f32[]{:T(128)} constant(1e-06)
  %broadcast.4710 = f32[128]{0:T(128)} broadcast(%constant.1495.clone.15), dimensions={}, metadata={op_name="jit(train_step)/jvp()/while/body/closed_call" stack_frame_id=0}
  %add.3970 = f32[128]{0:T(128)} add(%div.2872, %broadcast.4710), metadata={op_name="jit(train_step)/jvp()/while/body/closed_call/add" stack_frame_id=0}
  ROOT %rsqrt.368 = f32[128]{0:T(128)S(1)} rsqrt(%add.3970), metadata={op_name="jit(train_step)/jvp()/while/body/closed_call/rsqrt" stack_frame_id=0}
}

%fused_computation.200.clone.1 (param_0.4858: bf16[3,384], param_1.5459: s32[]) -> bf16[1,384] {
  %param_0.4858 = bf16[3,384]{1,0:T(4,128)(2,1)} parameter(0)
  %param_1.5459 = s32[]{:T(128)S(6)} parameter(1)
  %constant.1492.clone.47 = s32[]{:T(128)} constant(0)
  ROOT %dynamic-slice.529 = bf16[1,384]{1,0:T(2,128)(2,1)S(1)} dynamic-slice(%param_0.4858, %param_1.5459, %constant.1492.clone.47), dynamic_slice_sizes={1,384}, metadata={op_name="jit(train_step)/jvp()/while/body/jit(dynamic_index_in_dim)/dynamic_slice" stack_frame_id=0}, backend_config={"flag_configs":[],"scoped_memory_configs":[],"indices_config":{"index_known_bits":[{"zeroes":"4294967292","ones":"0","bitwidth":"32"},{"zeroes":"4294967295","ones":"0","bitwidth":"32"}],"is_index_aligned":[]},"used_scoped_memory_configs":[]}
}

%all-gather.290.reduce_sub_computation (lhs.16: bf16[], rhs.16: bf16[]) -> bf16[] {
  %lhs.16 = bf16[] parameter(0)
  %rhs.16 = bf16[] parameter(1)
  ROOT %add.3048 = bf16[] add(%lhs.16, %rhs.16), backend_config={"flag_configs":[],"scoped_memory_configs":[],"used_scoped_memory_configs":[],"aliasing_operands":{"lists":[]}}
}

%fused_computation.149.clone.clone.1 (param_0.4865: f32[1,128,1536], param_1.5464: f32[128], param_2.4307: bf16[1536]) -> bf16[128,1536,1] {
  %param_2.4307 = bf16[1536]{0:T(1024)(128)(2,1)S(1)} parameter(2)
  %dot_general.920 = bf16[1,128,1536]{2,1,0:T(8,128)(2,1)} broadcast(%param_2.4307), dimensions={2}, metadata={op_name="jit(train_step)/jvp()/while/body/closed_call/...k,k->...k/dot_general" stack_frame_id=0}
  %convert.1038 = f32[1,128,1536]{2,1,0:T(8,128)} convert(%dot_general.920)
  %param_0.4865 = f32[1,128,1536]{2,1,0:T(8,128)S(1)} parameter(0)
  %param_1.5464 = f32[128]{0:T(128)S(1)} parameter(1)
  %mul.5150 = f32[1,128,1536]{2,1,0:T(8,128)} broadcast(%param_1.5464), dimensions={1}, metadata={op_name="jit(train_step)/jvp()/while/body/closed_call/mul" stack_frame_id=0}
  %mul.5149 = f32[1,128,1536]{2,1,0:T(8,128)} multiply(%param_0.4865, %mul.5150), metadata={op_name="jit(train_step)/jvp()/while/body/closed_call/mul" stack_frame_id=0}
  %convert_element_type.3020 = bf16[1,128,1536]{2,1,0:T(8,128)(2,1)} convert(%mul.5149), metadata={op_name="jit(train_step)/jvp()/while/body/closed_call/convert_element_type" stack_frame_id=0}
  %convert.1039 = f32[1,128,1536]{2,1,0:T(8,128)} convert(%convert_element_type.3020)
  %dot_general.919 = f32[1,128,1536]{2,1,0:T(8,128)} multiply(%convert.1038, %convert.1039), metadata={op_name="jit(train_step)/jvp()/while/body/closed_call/...k,k->...k/dot_general" stack_frame_id=0}, backend_config={"flag_configs":[],"scoped_memory_configs":[],"used_scoped_memory_configs":[],"float_type_correction_info":{"original_type":"BF16","original_shape":{"element_type":"BF16","dimensions":["1","128","1536"],"tuple_shapes":[],"layout":{"minor_to_major":["2","1","0"],"tiles":[{"dimensions":["8","128"]},{"dimensions":["2","1"]}],"element_size_in_bits":"0","memory_space":"0","dim_level_types":[],"index_primitive_type":"PRIMITIVE_TYPE_INVALID","pointer_primitive_type":"PRIMITIVE_TYPE_INVALID","dim_unique":[],"dim_ordered":[],"dynamic_shape_metadata_prefix_bytes":"0","tail_padding_alignment_in_elements":"1","split_configs":[]},"is_dynamic_dimension":[false,false,false]}}}
  %convert.1040 = bf16[1,128,1536]{2,1,0:T(8,128)(2,1)} convert(%dot_general.919)
  ROOT %bitcast.2551 = bf16[128,1536,1]{1,0,2:T(8,128)(2,1)} bitcast(%convert.1040)
}

%bitcast_fusion.17.clone.1 (bitcast_input.27: bf16[1536,128,192]) -> bf16[1536,128,192] {
  %bitcast_input.27 = bf16[1536,128,192]{0,2,1:T(8,128)(2,1)} parameter(0)
  ROOT %bitcast.2550 = bf16[1536,128,192]{0,2,1:T(8,128)(2,1)} bitcast(%bitcast_input.27)
}

%fused_computation.131.clone.1 (param_0.4866: bf16[1536,128,192], param_1.5465: f32[1,128,1536], param_2.4308: f32[128], param_3.2901: bf16[1536]) -> bf16[1,128,128,192] {
  %param_1.5465 = f32[1,128,1536]{2,1,0:T(8,128)S(1)} parameter(1)
  %param_2.4308 = f32[128]{0:T(128)S(1)} parameter(2)
  %param_3.2901 = bf16[1536]{0:T(1024)(128)(2,1)S(1)} parameter(3)
  %fusion.1120 = bf16[128,1536,1]{1,0,2:T(8,128)(2,1)} fusion(%param_1.5465, %param_2.4308, %param_3.2901), kind=kLoop, calls=%fused_computation.149.clone.clone.1
  %param_0.4866 = bf16[1536,128,192]{0,2,1:T(8,128)(2,1)} parameter(0)
  %fusion.1121 = bf16[1536,128,192]{0,2,1:T(8,128)(2,1)} fusion(%param_0.4866), kind=kLoop, calls=%bitcast_fusion.17.clone.1
  %convolution.334 = bf16[128,128,192]{2,0,1:T(8,128)(2,1)} convolution(%fusion.1120, %fusion.1121), window={size=128 pad=127_127 rhs_reversal=1}, dim_labels=bf0_i0o->b0f, metadata={op_name="jit(train_step)/jvp()/while/body/closed_call/dot_general" stack_frame_id=0}
  ROOT %bitcast.2552 = bf16[1,128,128,192]{3,1,2,0:T(8,128)(2,1)S(1)} bitcast(%convolution.334), metadata={op_name="jit(train_step)/jvp()/while/body/closed_call/dot_general" stack_frame_id=0}
}

%fused_computation.1415.clone.1 (param_0.4867: bf16[1,128,128,32,2]) -> (bf16[1,128,128,32,1], bf16[1,128,128,32,1]) {
  %param_0.4867 = bf16[1,128,128,32,2]{2,1,4,3,0:T(8,128)(2,1)S(1)} parameter(0)
  %slice.1442 = bf16[1,128,128,32,1]{2,1,4,3,0:T(8,128)(2,1)S(1)} slice(%param_0.4867), slice={[0:1], [0:128], [0:128], [0:32], [0:1]}, metadata={op_name="jit(train_step)/jvp()/while/body/closed_call/slice" stack_frame_id=0}
  %slice.1443 = bf16[1,128,128,32,1]{2,1,4,3,0:T(8,128)(2,1)S(1)} slice(%param_0.4867), slice={[0:1], [0:128], [0:128], [0:32], [1:2]}, metadata={op_name="jit(train_step)/jvp()/while/body/closed_call/slice" stack_frame_id=0}
  ROOT %tuple.867 = (bf16[1,128,128,32,1]{2,1,4,3,0:T(8,128)(2,1)S(1)}, bf16[1,128,128,32,1]{2,1,4,3,0:T(8,128)(2,1)S(1)}) tuple(%slice.1442, %slice.1443)
}

%fused_computation.126.clone.1 (param_0.4868: bf16[1,128,128,32,1], param_1.5466: bf16[1,128,128,32,1], param_2.4309: f32[128,32], param_3.2902: f32[128,32]) -> (bf16[1,128,128,32], bf16[1,128,128,32]) {
  %param_1.5466 = bf16[1,128,128,32,1]{3,1,2,4,0:T(8,128)(2,1)S(1)} parameter(1)
  %convert_element_type.3022 = f32[1,128,128,32,1]{3,1,2,4,0:T(8,128)} convert(%param_1.5466), metadata={op_name="jit(train_step)/jvp()/while/body/closed_call/convert_element_type" stack_frame_id=0}
  %bitcast.2554 = f32[1,128,128,32]{3,1,2,0:T(8,128)} bitcast(%convert_element_type.3022), metadata={op_name="jit(train_step)/jvp()/while/body/closed_call/convert_element_type" stack_frame_id=0}
  %param_0.4868 = bf16[1,128,128,32,1]{3,1,2,4,0:T(8,128)(2,1)S(1)} parameter(0)
  %convert_element_type.3021 = f32[1,128,128,32,1]{3,1,2,4,0:T(8,128)} convert(%param_0.4868), metadata={op_name="jit(train_step)/jvp()/while/body/closed_call/convert_element_type" stack_frame_id=0}
  %bitcast.2553 = f32[1,128,128,32]{3,1,2,0:T(8,128)} bitcast(%convert_element_type.3021), metadata={op_name="jit(train_step)/jvp()/while/body/closed_call/convert_element_type" stack_frame_id=0}
  %constant.1493.clone.23 = f32[]{:T(128)} constant(0)
  %convert_element_type.3023 = f32[1,128,128,32]{3,1,2,0:T(8,128)} broadcast(%constant.1493.clone.23), dimensions={}, metadata={op_name="jit(train_step)/jvp()/while/body/closed_call/convert_element_type" stack_frame_id=0}
  %mul.5154 = f32[1,128,128,32]{3,1,2,0:T(8,128)} multiply(%bitcast.2553, %convert_element_type.3023), metadata={op_name="jit(train_step)/jvp()/while/body/closed_call/mul" stack_frame_id=0}
  %add.3971 = f32[1,128,128,32]{3,1,2,0:T(8,128)} add(%bitcast.2554, %mul.5154), metadata={op_name="jit(train_step)/jvp()/while/body/closed_call/add" stack_frame_id=0}
  %param_3.2902 = f32[128,32]{1,0:T(8,128)S(1)} parameter(3)
  %broadcast_in_dim.1648 = f32[1,128,128,32]{3,1,2,0:T(8,128)} broadcast(%param_3.2902), dimensions={1,3}, metadata={op_name="jit(train_step)/broadcast_in_dim" stack_frame_id=0}
  %mul.5153 = f32[1,128,128,32]{3,1,2,0:T(8,128)} multiply(%add.3971, %broadcast_in_dim.1648), metadata={op_name="jit(train_step)/jvp()/while/body/closed_call/mul" stack_frame_id=0}
  %param_2.4309 = f32[128,32]{1,0:T(8,128)S(1)} parameter(2)
  %broadcast_in_dim.1647 = f32[1,128,128,32]{3,1,2,0:T(8,128)} broadcast(%param_2.4309), dimensions={1,3}, metadata={op_name="jit(train_step)/broadcast_in_dim" stack_frame_id=0}
  %mul.5152 = f32[1,128,128,32]{3,1,2,0:T(8,128)} multiply(%bitcast.2553, %broadcast_in_dim.1647), metadata={op_name="jit(train_step)/jvp()/while/body/closed_call/mul" stack_frame_id=0}
  %mul.5151 = f32[1,128,128,32]{3,1,2,0:T(8,128)} subtract(%mul.5153, %mul.5152), metadata={op_name="jit(train_step)/jvp()/while/body/closed_call/mul" stack_frame_id=0}
  %convert.675 = bf16[1,128,128,32]{3,1,2,0:T(8,128)(2,1)S(1)} convert(%mul.5151), metadata={op_name="convert.317"}
  %mul.3131.clone.3 = f32[1,128,128,32]{3,1,2,0:T(8,128)} multiply(%add.3971, %broadcast_in_dim.1647), metadata={op_name="jit(train_step)/jvp()/while/body/closed_call/mul" stack_frame_id=0}
  %mul.3130.clone.3 = f32[1,128,128,32]{3,1,2,0:T(8,128)} multiply(%bitcast.2553, %broadcast_in_dim.1648), metadata={op_name="jit(train_step)/jvp()/while/body/closed_call/mul" stack_frame_id=0}
  %mul.3129.clone.3 = f32[1,128,128,32]{3,1,2,0:T(8,128)} add(%mul.3131.clone.3, %mul.3130.clone.3), metadata={op_name="jit(train_step)/jvp()/while/body/closed_call/mul" stack_frame_id=0}
  %convert.518.clone.3 = bf16[1,128,128,32]{3,1,2,0:T(8,128)(2,1)S(1)} convert(%mul.3129.clone.3), metadata={op_name="convert.318"}
  ROOT %tuple.868 = (bf16[1,128,128,32]{3,1,2,0:T(8,128)(2,1)S(1)}, bf16[1,128,128,32]{3,1,2,0:T(8,128)(2,1)S(1)}) tuple(%convert.675, %convert.518.clone.3)
}

%fused_computation.119.clone.1 (param_0.4869: bf16[1,128,128,32], param_1.5467: bf16[1,128,128,32], param_2.4310: bf16[1,128,128,128]) -> bf16[128,128,192] {
  %param_2.4310 = bf16[1,128,128,128]{3,1,2,0:T(8,128)(2,1)S(1)} parameter(2)
  %constant.4259 = bf16[]{:T(256)} constant(-inf)
  %pad.463 = bf16[1,128,128,192]{3,1,2,0:T(8,128)(2,1)} pad(%param_2.4310, %constant.4259), padding=0_0x0_0x0_0x0_64, metadata={op_name="jit(train_step)/jvp()/while/body/closed_call/concatenate" stack_frame_id=0}
  %convert.1051 = f32[1,128,128,192]{3,1,2,0:T(8,128)} convert(%pad.463)
  %param_1.5467 = bf16[1,128,128,32]{3,1,2,0:T(8,128)(2,1)S(1)} parameter(1)
  %pad.462 = bf16[1,128,128,192]{3,1,2,0:T(8,128)(2,1)} pad(%param_1.5467, %constant.4259), padding=0_0x0_0x0_0x128_32, metadata={op_name="jit(train_step)/jvp()/while/body/closed_call/concatenate" stack_frame_id=0}
  %convert.1052 = f32[1,128,128,192]{3,1,2,0:T(8,128)} convert(%pad.462)
  %maximum.100 = f32[1,128,128,192]{3,1,2,0:T(8,128)} maximum(%convert.1051, %convert.1052), metadata={op_name="jit(train_step)/jvp()/while/body/closed_call/concatenate" stack_frame_id=0}, backend_config={"flag_configs":[],"scoped_memory_configs":[],"used_scoped_memory_configs":[],"float_type_correction_info":{"original_type":"BF16","original_shape":{"element_type":"BF16","dimensions":["1","128","128","192"],"tuple_shapes":[],"layout":{"minor_to_major":["3","1","2","0"],"tiles":[{"dimensions":["8","128"]},{"dimensions":["2","1"]}],"element_size_in_bits":"0","memory_space":"0","dim_level_types":[],"index_primitive_type":"PRIMITIVE_TYPE_INVALID","pointer_primitive_type":"PRIMITIVE_TYPE_INVALID","dim_unique":[],"dim_ordered":[],"dynamic_shape_metadata_prefix_bytes":"0","tail_padding_alignment_in_elements":"1","split_configs":[]},"is_dynamic_dimension":[false,false,false,false]}}}
  %param_0.4869 = bf16[1,128,128,32]{3,1,2,0:T(8,128)(2,1)S(1)} parameter(0)
  %pad.461 = bf16[1,128,128,192]{3,1,2,0:T(8,128)(2,1)} pad(%param_0.4869, %constant.4259), padding=0_0x0_0x0_0x160_0, metadata={op_name="jit(train_step)/jvp()/while/body/closed_call/concatenate" stack_frame_id=0}
  %convert.1053 = f32[1,128,128,192]{3,1,2,0:T(8,128)} convert(%pad.461)
  %maximum.99 = f32[1,128,128,192]{3,1,2,0:T(8,128)} maximum(%maximum.100, %convert.1053), metadata={op_name="jit(train_step)/jvp()/while/body/closed_call/concatenate" stack_frame_id=0}, backend_config={"flag_configs":[],"scoped_memory_configs":[],"used_scoped_memory_configs":[],"float_type_correction_info":{"original_type":"BF16","original_shape":{"element_type":"BF16","dimensions":["1","128","128","192"],"tuple_shapes":[],"layout":{"minor_to_major":["3","1","2","0"],"tiles":[{"dimensions":["8","128"]},{"dimensions":["2","1"]}],"element_size_in_bits":"0","memory_space":"0","dim_level_types":[],"index_primitive_type":"PRIMITIVE_TYPE_INVALID","pointer_primitive_type":"PRIMITIVE_TYPE_INVALID","dim_unique":[],"dim_ordered":[],"dynamic_shape_metadata_prefix_bytes":"0","tail_padding_alignment_in_elements":"1","split_configs":[]},"is_dynamic_dimension":[false,false,false,false]}}}
  %constant.1497.clone.7 = bf16[]{:T(256)} constant(0.1348)
  %mul.5156 = bf16[1,128,128,192]{3,1,2,0:T(8,128)(2,1)} broadcast(%constant.1497.clone.7), dimensions={}, metadata={op_name="jit(train_step)/jvp()/while/body/closed_call/mul" stack_frame_id=0}
  %convert.1054 = f32[1,128,128,192]{3,1,2,0:T(8,128)} convert(%mul.5156)
  %mul.5155 = f32[1,128,128,192]{3,1,2,0:T(8,128)} multiply(%maximum.99, %convert.1054), metadata={op_name="jit(train_step)/jvp()/while/body/closed_call/mul" stack_frame_id=0}, backend_config={"flag_configs":[],"scoped_memory_configs":[],"used_scoped_memory_configs":[],"float_type_correction_info":{"original_type":"BF16","original_shape":{"element_type":"BF16","dimensions":["1","128","128","192"],"tuple_shapes":[],"layout":{"minor_to_major":["3","1","2","0"],"tiles":[{"dimensions":["8","128"]},{"dimensions":["2","1"]}],"element_size_in_bits":"0","memory_space":"0","dim_level_types":[],"index_primitive_type":"PRIMITIVE_TYPE_INVALID","pointer_primitive_type":"PRIMITIVE_TYPE_INVALID","dim_unique":[],"dim_ordered":[],"dynamic_shape_metadata_prefix_bytes":"0","tail_padding_alignment_in_elements":"1","split_configs":[]},"is_dynamic_dimension":[false,false,false,false]}}}
  %convert.1055 = bf16[1,128,128,192]{3,1,2,0:T(8,128)(2,1)} convert(%mul.5155)
  ROOT %bitcast.2555 = bf16[128,128,192]{2,1,0:T(8,128)(2,1)S(1)} bitcast(%convert.1055), metadata={op_name="jit(train_step)/jvp()/while/body/closed_call/shard_map/vmap(static_sparsity_splash)/jit(_splash_attention)/splash_mha_fwd_segmented_residuals/splash_mha_fwd_segmented_residuals/squeeze" stack_frame_id=0}
}

%fused_computation.155.clone.1 (param_0.4843: bf16[3,128,576], param_1.5450: s32[]) -> bf16[1,128,576] {
  %param_0.4843 = bf16[3,128,576]{2,1,0:T(8,128)(2,1)S(1)} parameter(0)
  %param_1.5450 = s32[]{:T(128)S(6)} parameter(1)
  %constant.1492.clone.45 = s32[]{:T(128)} constant(0)
  ROOT %dynamic-slice.527 = bf16[1,128,576]{2,1,0:T(8,128)(2,1)S(1)} dynamic-slice(%param_0.4843, %param_1.5450, %constant.1492.clone.45, %constant.1492.clone.45), dynamic_slice_sizes={1,128,576}, metadata={op_name="jit(train_step)/jvp()/while/body/jit(dynamic_index_in_dim)/dynamic_slice" stack_frame_id=0}, backend_config={"flag_configs":[],"scoped_memory_configs":[],"indices_config":{"index_known_bits":[{"zeroes":"4294967292","ones":"0","bitwidth":"32"},{"zeroes":"4294967295","ones":"0","bitwidth":"32"},{"zeroes":"4294967295","ones":"0","bitwidth":"32"}],"is_index_aligned":[]},"used_scoped_memory_configs":[]}
}

%fused_computation.170.clone.clone.1 (param_0.4845: bf16[1,128,512], param_1.5451: f32[128], param_2.4300: bf16[512]) -> bf16[128,512] {
  %param_2.4300 = bf16[512]{0:T(512)(128)(2,1)S(1)} parameter(2)
  %dot_general.914 = bf16[1,128,512]{2,1,0:T(8,128)(2,1)} broadcast(%param_2.4300), dimensions={2}, metadata={op_name="jit(train_step)/jvp()/while/body/closed_call/...k,k->...k/dot_general" stack_frame_id=0}
  %convert.1029 = f32[1,128,512]{2,1,0:T(8,128)} convert(%dot_general.914)
  %param_0.4845 = bf16[1,128,512]{2,1,0:T(8,128)(2,1)S(1)} parameter(0)
  %convert_element_type.3011 = f32[1,128,512]{2,1,0:T(8,128)} convert(%param_0.4845), metadata={op_name="jit(train_step)/jvp()/while/body/closed_call/convert_element_type" stack_frame_id=0}
  %param_1.5451 = f32[128]{0:T(128)S(1)} parameter(1)
  %mul.5140 = f32[1,128,512]{2,1,0:T(8,128)} broadcast(%param_1.5451), dimensions={1}, metadata={op_name="jit(train_step)/jvp()/while/body/closed_call/mul" stack_frame_id=0}
  %mul.5139 = f32[1,128,512]{2,1,0:T(8,128)} multiply(%convert_element_type.3011, %mul.5140), metadata={op_name="jit(train_step)/jvp()/while/body/closed_call/mul" stack_frame_id=0}
  %convert_element_type.3010 = bf16[1,128,512]{2,1,0:T(8,128)(2,1)} convert(%mul.5139), metadata={op_name="jit(train_step)/jvp()/while/body/closed_call/convert_element_type" stack_frame_id=0}
  %convert.1030 = f32[1,128,512]{2,1,0:T(8,128)} convert(%convert_element_type.3010)
  %dot_general.913 = f32[1,128,512]{2,1,0:T(8,128)} multiply(%convert.1029, %convert.1030), metadata={op_name="jit(train_step)/jvp()/while/body/closed_call/...k,k->...k/dot_general" stack_frame_id=0}, backend_config={"flag_configs":[],"scoped_memory_configs":[],"used_scoped_memory_configs":[],"float_type_correction_info":{"original_type":"BF16","original_shape":{"element_type":"BF16","dimensions":["1","128","512"],"tuple_shapes":[],"layout":{"minor_to_major":["2","1","0"],"tiles":[{"dimensions":["8","128"]},{"dimensions":["2","1"]}],"element_size_in_bits":"0","memory_space":"0","dim_level_types":[],"index_primitive_type":"PRIMITIVE_TYPE_INVALID","pointer_primitive_type":"PRIMITIVE_TYPE_INVALID","dim_unique":[],"dim_ordered":[],"dynamic_shape_metadata_prefix_bytes":"0","tail_padding_alignment_in_elements":"1","split_configs":[]},"is_dynamic_dimension":[false,false,false]}}}
  %convert.1031 = bf16[1,128,512]{2,1,0:T(8,128)(2,1)} convert(%dot_general.913)
  ROOT %bitcast.2536 = bf16[128,512]{1,0:T(8,128)(2,1)} bitcast(%convert.1031)
}

%fused_computation.142.clone.clone.clone.1 (param_0.4844: bf16[1,512,576]) -> bf16[512,576] {
  %param_0.4844 = bf16[1,512,576]{2,1,0:T(8,128)(2,1)S(1)} parameter(0)
  ROOT %bitcast.2535 = bf16[512,576]{1,0:T(8,128)(2,1)} bitcast(%param_0.4844), metadata={op_name="jit(train_step)/jvp()/while/body/closed_call/dot_general" stack_frame_id=0}
}

%fused_computation.143.clone.1 (param_0.4846: bf16[1,512,576], param_1.5452: bf16[1,128,512], param_2.4301: f32[128], param_3.2897: bf16[512]) -> bf16[1,128,576] {
  %param_1.5452 = bf16[1,128,512]{2,1,0:T(8,128)(2,1)S(1)} parameter(1)
  %param_2.4301 = f32[128]{0:T(128)S(1)} parameter(2)
  %param_3.2897 = bf16[512]{0:T(512)(128)(2,1)S(1)} parameter(3)
  %fusion.1117 = bf16[128,512]{1,0:T(8,128)(2,1)} fusion(%param_1.5452, %param_2.4301, %param_3.2897), kind=kLoop, calls=%fused_computation.170.clone.clone.1
  %param_0.4846 = bf16[1,512,576]{2,1,0:T(8,128)(2,1)S(1)} parameter(0)
  %fusion.1116 = bf16[512,576]{1,0:T(8,128)(2,1)} fusion(%param_0.4846), kind=kLoop, calls=%fused_computation.142.clone.clone.clone.1, metadata={op_name="jit(train_step)/jvp()/while/body/closed_call/dot_general" stack_frame_id=0}
  %convolution.332 = bf16[128,576]{0,1:T(8,128)(2,1)} convolution(%fusion.1117, %fusion.1116), dim_labels=bf_io->bf, metadata={op_name="jit(train_step)/jvp()/while/body/closed_call/dot_general" stack_frame_id=0}
  ROOT %bitcast.2537 = bf16[1,128,576]{1,2,0:T(8,128)(2,1)S(1)} bitcast(%convolution.332), metadata={op_name="jit(train_step)/jvp()/while/body/closed_call/dot_general" stack_frame_id=0}
}

%fused_computation.1416.clone.1 (param_0.4854: bf16[1,128,1,32,2]) -> (bf16[1,128,1,32,1], bf16[1,128,1,32,1]) {
  %param_0.4854 = bf16[1,128,1,32,2]{1,4,3,2,0:T(2,128)(2,1)S(1)} parameter(0)
  %slice.1440 = bf16[1,128,1,32,1]{1,4,3,2,0:T(2,128)(2,1)S(1)} slice(%param_0.4854), slice={[0:1], [0:128], [0:1], [0:32], [0:1]}, metadata={op_name="jit(train_step)/jvp()/while/body/closed_call/slice" stack_frame_id=0}
  %slice.1441 = bf16[1,128,1,32,1]{1,4,3,2,0:T(2,128)(2,1)S(1)} slice(%param_0.4854), slice={[0:1], [0:128], [0:1], [0:32], [1:2]}, metadata={op_name="jit(train_step)/jvp()/while/body/closed_call/slice" stack_frame_id=0}
  ROOT %tuple.864 = (bf16[1,128,1,32,1]{1,4,3,2,0:T(2,128)(2,1)S(1)}, bf16[1,128,1,32,1]{1,4,3,2,0:T(2,128)(2,1)S(1)}) tuple(%slice.1440, %slice.1441)
}

%fused_computation.179.clone.1 (param_0.4855: f32[1,128,1,32], param_1.5456: f32[1,128,1,32], param_2.4304: bf16[1,128,1,32,1], param_3.2899: bf16[1,128,1,32,1]) -> (bf16[1,128,32], bf16[1,128,32]) {
  %param_3.2899 = bf16[1,128,1,32,1]{3,1,4,2,0:T(8,128)(2,1)S(1)} parameter(3)
  %convert_element_type.3016 = f32[1,128,1,32,1]{3,1,4,2,0:T(8,128)} convert(%param_3.2899), metadata={op_name="jit(train_step)/jvp()/while/body/closed_call/convert_element_type" stack_frame_id=0}
  %bitcast.2545 = f32[1,128,32]{2,1,0:T(8,128)} bitcast(%convert_element_type.3016), metadata={op_name="jit(train_step)/jvp()/while/body/closed_call/convert_element_type" stack_frame_id=0}
  %param_2.4304 = bf16[1,128,1,32,1]{3,1,4,2,0:T(8,128)(2,1)S(1)} parameter(2)
  %convert_element_type.3015 = f32[1,128,1,32,1]{3,1,4,2,0:T(8,128)} convert(%param_2.4304), metadata={op_name="jit(train_step)/jvp()/while/body/closed_call/convert_element_type" stack_frame_id=0}
  %bitcast.2544 = f32[1,128,32]{2,1,0:T(8,128)} bitcast(%convert_element_type.3015), metadata={op_name="jit(train_step)/jvp()/while/body/closed_call/convert_element_type" stack_frame_id=0}
  %constant.1493.clone.21 = f32[]{:T(128)} constant(0)
  %convert_element_type.3017 = f32[1,128,32]{2,1,0:T(8,128)} broadcast(%constant.1493.clone.21), dimensions={}, metadata={op_name="jit(train_step)/jvp()/while/body/closed_call/convert_element_type" stack_frame_id=0}
  %mul.5146 = f32[1,128,32]{2,1,0:T(8,128)} multiply(%bitcast.2544, %convert_element_type.3017), metadata={op_name="jit(train_step)/jvp()/while/body/closed_call/mul" stack_frame_id=0}
  %add.3969 = f32[1,128,32]{2,1,0:T(8,128)} add(%bitcast.2545, %mul.5146), metadata={op_name="jit(train_step)/jvp()/while/body/closed_call/add" stack_frame_id=0}
  %param_1.5456 = f32[1,128,1,32]{3,1,2,0:T(8,128)S(1)} parameter(1)
  %bitcast.2543 = f32[1,128,32]{2,1,0:T(8,128)} bitcast(%param_1.5456), metadata={op_name="jit(train_step)/jvp()/while/body/closed_call/mul" stack_frame_id=0}
  %mul.5145 = f32[1,128,32]{2,1,0:T(8,128)} multiply(%add.3969, %bitcast.2543), metadata={op_name="jit(train_step)/jvp()/while/body/closed_call/mul" stack_frame_id=0}
  %param_0.4855 = f32[1,128,1,32]{3,1,2,0:T(8,128)S(1)} parameter(0)
  %bitcast.2542 = f32[1,128,32]{2,1,0:T(8,128)} bitcast(%param_0.4855), metadata={op_name="jit(train_step)/jvp()/while/body/closed_call/mul" stack_frame_id=0}
  %mul.5144 = f32[1,128,32]{2,1,0:T(8,128)} multiply(%bitcast.2544, %bitcast.2542), metadata={op_name="jit(train_step)/jvp()/while/body/closed_call/mul" stack_frame_id=0}
  %mul.5143 = f32[1,128,32]{2,1,0:T(8,128)} subtract(%mul.5145, %mul.5144), metadata={op_name="jit(train_step)/jvp()/while/body/closed_call/mul" stack_frame_id=0}
  %convert.674 = bf16[1,128,32]{2,1,0:T(8,128)(2,1)S(1)} convert(%mul.5143), metadata={op_name="convert.315"}
  %mul.3219.clone.3 = f32[1,128,32]{2,1,0:T(8,128)} multiply(%add.3969, %bitcast.2542), metadata={op_name="jit(train_step)/jvp()/while/body/closed_call/mul" stack_frame_id=0}
  %mul.3225.clone.3 = f32[1,128,32]{2,1,0:T(8,128)} multiply(%bitcast.2544, %bitcast.2543), metadata={op_name="jit(train_step)/jvp()/while/body/closed_call/mul" stack_frame_id=0}
  %mul.3218.clone.3 = f32[1,128,32]{2,1,0:T(8,128)} add(%mul.3219.clone.3, %mul.3225.clone.3), metadata={op_name="jit(train_step)/jvp()/while/body/closed_call/mul" stack_frame_id=0}
  %convert.520.clone.3 = bf16[1,128,32]{2,1,0:T(8,128)(2,1)S(1)} convert(%mul.3218.clone.3), metadata={op_name="convert.316"}
  ROOT %tuple.865 = (bf16[1,128,32]{2,1,0:T(8,128)(2,1)S(1)}, bf16[1,128,32]{2,1,0:T(8,128)(2,1)S(1)}) tuple(%convert.674, %convert.520.clone.3)
}

%fused_computation.191.clone.1 (param_0.4856: bf16[1,128,32], param_1.5457: bf16[1,128,32]) -> bf16[128,64] {
  %param_1.5457 = bf16[1,128,32]{2,1,0:T(8,128)(2,1)S(1)} parameter(1)
  %constant.4257 = bf16[]{:T(256)} constant(-inf)
  %pad.458 = bf16[1,128,64]{2,1,0:T(8,128)(2,1)} pad(%param_1.5457, %constant.4257), padding=0_0x0_0x0_32, metadata={op_name="jit(train_step)/jvp()/while/body/closed_call/concatenate" stack_frame_id=0}
  %convert.1056 = f32[1,128,64]{2,1,0:T(8,128)} convert(%pad.458)
  %param_0.4856 = bf16[1,128,32]{2,1,0:T(8,128)(2,1)S(1)} parameter(0)
  %pad.457 = bf16[1,128,64]{2,1,0:T(8,128)(2,1)} pad(%param_0.4856, %constant.4257), padding=0_0x0_0x32_0, metadata={op_name="jit(train_step)/jvp()/while/body/closed_call/concatenate" stack_frame_id=0}
  %convert.1057 = f32[1,128,64]{2,1,0:T(8,128)} convert(%pad.457)
  %maximum.97 = f32[1,128,64]{2,1,0:T(8,128)} maximum(%convert.1056, %convert.1057), metadata={op_name="jit(train_step)/jvp()/while/body/closed_call/concatenate" stack_frame_id=0}, backend_config={"flag_configs":[],"scoped_memory_configs":[],"used_scoped_memory_configs":[],"float_type_correction_info":{"original_type":"BF16","original_shape":{"element_type":"BF16","dimensions":["1","128","64"],"tuple_shapes":[],"layout":{"minor_to_major":["2","1","0"],"tiles":[{"dimensions":["8","128"]},{"dimensions":["2","1"]}],"element_size_in_bits":"0","memory_space":"0","dim_level_types":[],"index_primitive_type":"PRIMITIVE_TYPE_INVALID","pointer_primitive_type":"PRIMITIVE_TYPE_INVALID","dim_unique":[],"dim_ordered":[],"dynamic_shape_metadata_prefix_bytes":"0","tail_padding_alignment_in_elements":"1","split_configs":[]},"is_dynamic_dimension":[false,false,false]}}}
  %convert.1058 = bf16[1,128,64]{2,1,0:T(8,128)(2,1)} convert(%maximum.97)
  ROOT %bitcast.2546 = bf16[128,64]{1,0:T(8,128)(2,1)S(1)} bitcast(%convert.1058), metadata={op_name="jit(train_step)/jvp()/while/body/closed_call/concatenate" stack_frame_id=0}
}

%fused_computation.110.clone.1 (param_0.4849: bf16[3,128,128,256], param_1.5453: s32[]) -> bf16[1,128,128,256] {
  %param_0.4849 = bf16[3,128,128,256]{3,1,2,0:T(8,128)(2,1)} parameter(0)
  %param_1.5453 = s32[]{:T(128)S(6)} parameter(1)
  %constant.1492.clone.46 = s32[]{:T(128)} constant(0)
  ROOT %dynamic-slice.528 = bf16[1,128,128,256]{3,1,2,0:T(8,128)(2,1)S(1)} dynamic-slice(%param_0.4849, %param_1.5453, %constant.1492.clone.46, %constant.1492.clone.46, %constant.1492.clone.46), dynamic_slice_sizes={1,128,128,256}, metadata={op_name="jit(train_step)/jvp()/while/body/jit(dynamic_index_in_dim)/dynamic_slice" stack_frame_id=0}, backend_config={"flag_configs":[],"scoped_memory_configs":[],"indices_config":{"index_known_bits":[{"zeroes":"4294967292","ones":"0","bitwidth":"32"},{"zeroes":"4294967295","ones":"0","bitwidth":"32"},{"zeroes":"4294967295","ones":"0","bitwidth":"32"},{"zeroes":"4294967295","ones":"0","bitwidth":"32"}],"is_index_aligned":[]},"used_scoped_memory_configs":[]}
}

%region_4.5 (reduce_sum.21: f32[], reduce_sum.22: f32[]) -> f32[] {
  %reduce_sum.21 = f32[]{:T(128)} parameter(0), metadata={op_name="jit(train_step)/jvp()/while/body/closed_call/reduce_sum"}
  %reduce_sum.22 = f32[]{:T(128)} parameter(1), metadata={op_name="jit(train_step)/jvp()/while/body/closed_call/reduce_sum"}
  ROOT %reduce_sum.23 = f32[]{:T(128)} add(%reduce_sum.21, %reduce_sum.22), metadata={op_name="reduce_sum" stack_frame_id=0}, backend_config={"flag_configs":[],"scoped_memory_configs":[],"used_scoped_memory_configs":[],"aliasing_operands":{"lists":[]}}
}

%fused_computation.160.clone.1 (param_0.4847: bf16[1,128,576]) -> f32[128] {
  %param_0.4847 = bf16[1,128,576]{1,2,0:T(8,128)(2,1)S(1)} parameter(0)
  %slice.1436 = bf16[1,128,512]{1,2,0:T(8,128)(2,1)} slice(%param_0.4847), slice={[0:1], [0:128], [0:512]}, metadata={op_name="jit(train_step)/jvp()/while/body/closed_call/split" stack_frame_id=0}
  %convert_element_type.3012 = f32[1,128,512]{1,2,0:T(8,128)} convert(%slice.1436), metadata={op_name="jit(train_step)/jvp()/while/body/closed_call/convert_element_type" stack_frame_id=0}
  %square.700 = f32[1,128,512]{1,2,0:T(8,128)} multiply(%convert_element_type.3012, %convert_element_type.3012), metadata={op_name="jit(train_step)/jvp()/while/body/closed_call/square" stack_frame_id=0}
  %constant.1493.clone.20 = f32[]{:T(128)} constant(0)
  ROOT %reduce.881 = f32[128]{0:T(128)S(1)} reduce(%square.700, %constant.1493.clone.20), dimensions={0,2}, to_apply=%region_4.5, metadata={op_name="jit(train_step)/jvp()/while/body/closed_call/reduce_sum" stack_frame_id=0}
}

%fused_computation.203.clone.1 (param_0.4848: f32[128]) -> f32[128] {
  %param_0.4848 = f32[128]{0:T(128)S(1)} parameter(0)
  %constant.1494.clone.12 = f32[]{:T(128)} constant(0.001953125)
  %broadcast.4709 = f32[128]{0:T(128)} broadcast(%constant.1494.clone.12), dimensions={}, metadata={op_name="jit(train_step)/jvp()/while/body/closed_call" stack_frame_id=0}
  %div.2871 = f32[128]{0:T(128)} multiply(%param_0.4848, %broadcast.4709), metadata={op_name="jit(train_step)/jvp()/while/body/closed_call/div" stack_frame_id=0}
  %constant.1495.clone.14 = f32[]{:T(128)} constant(1e-06)
  %broadcast.4708 = f32[128]{0:T(128)} broadcast(%constant.1495.clone.14), dimensions={}, metadata={op_name="jit(train_step)/jvp()/while/body/closed_call" stack_frame_id=0}
  %add.3968 = f32[128]{0:T(128)} add(%div.2871, %broadcast.4708), metadata={op_name="jit(train_step)/jvp()/while/body/closed_call/add" stack_frame_id=0}
  ROOT %rsqrt.367 = f32[128]{0:T(128)S(1)} rsqrt(%add.3968), metadata={op_name="jit(train_step)/jvp()/while/body/closed_call/rsqrt" stack_frame_id=0}
}

%fused_computation.201.clone.1 (param_0.4840: bf16[3,128], param_1.5449: s32[]) -> bf16[1,128] {
  %param_0.4840 = bf16[3,128]{1,0:T(4,128)(2,1)S(1)} parameter(0)
  %param_1.5449 = s32[]{:T(128)S(6)} parameter(1)
  %constant.1492.clone.44 = s32[]{:T(128)} constant(0)
  ROOT %dynamic-slice.526 = bf16[1,128]{1,0:T(2,128)(2,1)S(1)} dynamic-slice(%param_0.4840, %param_1.5449, %constant.1492.clone.44), dynamic_slice_sizes={1,128}, metadata={op_name="jit(train_step)/jvp()/while/body/jit(dynamic_index_in_dim)/dynamic_slice" stack_frame_id=0}, backend_config={"flag_configs":[],"scoped_memory_configs":[],"indices_config":{"index_known_bits":[{"zeroes":"4294967292","ones":"0","bitwidth":"32"},{"zeroes":"4294967295","ones":"0","bitwidth":"32"}],"is_index_aligned":[]},"used_scoped_memory_configs":[]}
}

%all-gather.293.reduce_sub_computation (lhs.18: bf16[], rhs.18: bf16[]) -> bf16[] {
  %lhs.18 = bf16[] parameter(0)
  %rhs.18 = bf16[] parameter(1)
  ROOT %add.3050 = bf16[] add(%lhs.18, %rhs.18), backend_config={"flag_configs":[],"scoped_memory_configs":[],"used_scoped_memory_configs":[],"aliasing_operands":{"lists":[]}}
}

%fused_computation.168.clone.clone.1 (param_0.4851: f32[128], param_1.5454: bf16[1,128,576], param_2.4302: bf16[512]) -> bf16[128,512,1] {
  %param_2.4302 = bf16[512]{0:T(512)(128)(2,1)S(1)} parameter(2)
  %dot_general.916 = bf16[1,128,512]{1,2,0:T(8,128)(2,1)} broadcast(%param_2.4302), dimensions={2}, metadata={op_name="jit(train_step)/jvp()/while/body/closed_call/...k,k->...k/dot_general" stack_frame_id=0}
  %convert.1032 = f32[1,128,512]{1,2,0:T(8,128)} convert(%dot_general.916)
  %param_1.5454 = bf16[1,128,576]{1,2,0:T(8,128)(2,1)S(1)} parameter(1)
  %slice.1437 = bf16[1,128,512]{1,2,0:T(8,128)(2,1)} slice(%param_1.5454), slice={[0:1], [0:128], [0:512]}, metadata={op_name="jit(train_step)/jvp()/while/body/closed_call/split" stack_frame_id=0}
  %convert_element_type.3014 = f32[1,128,512]{1,2,0:T(8,128)} convert(%slice.1437), metadata={op_name="jit(train_step)/jvp()/while/body/closed_call/convert_element_type" stack_frame_id=0}
  %param_0.4851 = f32[128]{0:T(128)S(1)} parameter(0)
  %mul.5142 = f32[1,128,512]{1,2,0:T(8,128)} broadcast(%param_0.4851), dimensions={1}, metadata={op_name="jit(train_step)/jvp()/while/body/closed_call/mul" stack_frame_id=0}
  %mul.5141 = f32[1,128,512]{1,2,0:T(8,128)} multiply(%convert_element_type.3014, %mul.5142), metadata={op_name="jit(train_step)/jvp()/while/body/closed_call/mul" stack_frame_id=0}
  %convert_element_type.3013 = bf16[1,128,512]{1,2,0:T(8,128)(2,1)} convert(%mul.5141), metadata={op_name="jit(train_step)/jvp()/while/body/closed_call/convert_element_type" stack_frame_id=0}
  %convert.1033 = f32[1,128,512]{1,2,0:T(8,128)} convert(%convert_element_type.3013)
  %dot_general.915 = f32[1,128,512]{1,2,0:T(8,128)} multiply(%convert.1032, %convert.1033), metadata={op_name="jit(train_step)/jvp()/while/body/closed_call/...k,k->...k/dot_general" stack_frame_id=0}, backend_config={"flag_configs":[],"scoped_memory_configs":[],"used_scoped_memory_configs":[],"float_type_correction_info":{"original_type":"BF16","original_shape":{"element_type":"BF16","dimensions":["1","128","512"],"tuple_shapes":[],"layout":{"minor_to_major":["1","2","0"],"tiles":[{"dimensions":["8","128"]},{"dimensions":["2","1"]}],"element_size_in_bits":"0","memory_space":"0","dim_level_types":[],"index_primitive_type":"PRIMITIVE_TYPE_INVALID","pointer_primitive_type":"PRIMITIVE_TYPE_INVALID","dim_unique":[],"dim_ordered":[],"dynamic_shape_metadata_prefix_bytes":"0","tail_padding_alignment_in_elements":"1","split_configs":[]},"is_dynamic_dimension":[false,false,false]}}}
  %convert.1034 = bf16[1,128,512]{1,2,0:T(8,128)(2,1)} convert(%dot_general.915)
  ROOT %bitcast.2539 = bf16[128,512,1]{0,1,2:T(8,128)(2,1)} bitcast(%convert.1034)
}

%fused_computation.101.clone.clone.clone.1 (param_0.4850: bf16[1,512,128,256]) -> bf16[512,128,256] {
  %param_0.4850 = bf16[1,512,128,256]{3,1,2,0:T(8,128)(2,1)S(1)} parameter(0)
  ROOT %bitcast.2538 = bf16[512,128,256]{2,0,1:T(8,128)(2,1)} bitcast(%param_0.4850), metadata={op_name="jit(train_step)/jvp()/while/body/closed_call/dot_general" stack_frame_id=0}
}

%fused_computation.130.clone.1 (param_0.4852: bf16[1,512,128,256], param_1.5455: f32[128], param_2.4303: bf16[1,128,576], param_3.2898: bf16[512]) -> bf16[1,128,128,256] {
  %param_1.5455 = f32[128]{0:T(128)S(1)} parameter(1)
  %param_2.4303 = bf16[1,128,576]{1,2,0:T(8,128)(2,1)S(1)} parameter(2)
  %param_3.2898 = bf16[512]{0:T(512)(128)(2,1)S(1)} parameter(3)
  %fusion.1119 = bf16[128,512,1]{0,1,2:T(8,128)(2,1)} fusion(%param_1.5455, %param_2.4303, %param_3.2898), kind=kLoop, calls=%fused_computation.168.clone.clone.1
  %param_0.4852 = bf16[1,512,128,256]{3,1,2,0:T(8,128)(2,1)S(1)} parameter(0)
  %fusion.1118 = bf16[512,128,256]{2,0,1:T(8,128)(2,1)} fusion(%param_0.4852), kind=kLoop, calls=%fused_computation.101.clone.clone.clone.1, metadata={op_name="jit(train_step)/jvp()/while/body/closed_call/dot_general" stack_frame_id=0}
  %convolution.333 = bf16[128,128,256]{2,0,1:T(8,128)(2,1)} convolution(%fusion.1119, %fusion.1118), window={size=128 pad=127_127 rhs_reversal=1}, dim_labels=bf0_i0o->b0f, metadata={op_name="jit(train_step)/jvp()/while/body/closed_call/dot_general" stack_frame_id=0}
  ROOT %bitcast.2540 = bf16[1,128,128,256]{3,1,2,0:T(8,128)(2,1)S(1)} bitcast(%convolution.333), metadata={op_name="jit(train_step)/jvp()/while/body/closed_call/dot_general" stack_frame_id=0}
}

%fused_computation.132.clone.1 (param_0.4853: bf16[1,128,128,256]) -> (bf16[128,128,128], bf16[1,128,128,128]) {
  %param_0.4853 = bf16[1,128,128,256]{3,1,2,0:T(8,128)(2,1)S(1)} parameter(0)
  %slice.1438 = bf16[1,128,128,128]{3,1,2,0:T(8,128)(2,1)} slice(%param_0.4853), slice={[0:1], [0:128], [0:128], [128:256]}, metadata={op_name="jit(train_step)/jvp()/while/body/closed_call/split" stack_frame_id=0}
  %bitcast.2541 = bf16[128,128,128]{2,1,0:T(8,128)(2,1)S(1)} bitcast(%slice.1438), metadata={op_name="jit(train_step)/jvp()/while/body/closed_call/shard_map/vmap(static_sparsity_splash)/jit(_splash_attention)/splash_mha_fwd_segmented_residuals/splash_mha_fwd_segmented_residuals/squeeze" stack_frame_id=0}
  %slice.1439 = bf16[1,128,128,128]{3,1,2,0:T(8,128)(2,1)S(1)} slice(%param_0.4853), slice={[0:1], [0:128], [0:128], [0:128]}, metadata={op_name="jit(train_step)/jvp()/while/body/closed_call/split" stack_frame_id=0}
  ROOT %tuple.863 = (bf16[128,128,128]{2,1,0:T(8,128)(2,1)S(1)}, bf16[1,128,128,128]{3,1,2,0:T(8,128)(2,1)S(1)}) tuple(%bitcast.2541, %slice.1439)
}

%fused_computation.120.clone.1 (param_0.4857: bf16[1,128,128,64], param_1.5458: bf16[1,128,128,128]) -> bf16[128,128,192] {
  %param_1.5458 = bf16[1,128,128,128]{3,1,2,0:T(8,128)(2,1)S(1)} parameter(1)
  %constant.4258 = bf16[]{:T(256)} constant(-inf)
  %pad.460 = bf16[1,128,128,192]{3,1,2,0:T(8,128)(2,1)} pad(%param_1.5458, %constant.4258), padding=0_0x0_0x0_0x0_64, metadata={op_name="jit(train_step)/jvp()/while/body/closed_call/concatenate" stack_frame_id=0}
  %convert.1059 = f32[1,128,128,192]{3,1,2,0:T(8,128)} convert(%pad.460)
  %param_0.4857 = bf16[1,128,128,64]{3,1,2,0:T(8,128)(2,1)S(1)} parameter(0)
  %pad.459 = bf16[1,128,128,192]{3,1,2,0:T(8,128)(2,1)} pad(%param_0.4857, %constant.4258), padding=0_0x0_0x0_0x128_0, metadata={op_name="jit(train_step)/jvp()/while/body/closed_call/concatenate" stack_frame_id=0}
  %convert.1060 = f32[1,128,128,192]{3,1,2,0:T(8,128)} convert(%pad.459)
  %maximum.98 = f32[1,128,128,192]{3,1,2,0:T(8,128)} maximum(%convert.1059, %convert.1060), metadata={op_name="jit(train_step)/jvp()/while/body/closed_call/concatenate" stack_frame_id=0}, backend_config={"flag_configs":[],"scoped_memory_configs":[],"used_scoped_memory_configs":[],"float_type_correction_info":{"original_type":"BF16","original_shape":{"element_type":"BF16","dimensions":["1","128","128","192"],"tuple_shapes":[],"layout":{"minor_to_major":["3","1","2","0"],"tiles":[{"dimensions":["8","128"]},{"dimensions":["2","1"]}],"element_size_in_bits":"0","memory_space":"0","dim_level_types":[],"index_primitive_type":"PRIMITIVE_TYPE_INVALID","pointer_primitive_type":"PRIMITIVE_TYPE_INVALID","dim_unique":[],"dim_ordered":[],"dynamic_shape_metadata_prefix_bytes":"0","tail_padding_alignment_in_elements":"1","split_configs":[]},"is_dynamic_dimension":[false,false,false,false]}}}
  %convert.1061 = bf16[1,128,128,192]{3,1,2,0:T(8,128)(2,1)} convert(%maximum.98)
  ROOT %bitcast.2547 = bf16[128,128,192]{2,1,0:T(8,128)(2,1)S(1)} bitcast(%convert.1061), metadata={op_name="jit(train_step)/jvp()/while/body/closed_call/shard_map/vmap(static_sparsity_splash)/jit(_splash_attention)/splash_mha_fwd_segmented_residuals/splash_mha_fwd_segmented_residuals/squeeze" stack_frame_id=0}
}

%fused_computation.133.clone.clone.clone.clone.clone.clone.clone.1 (param_0.4872: bf16[128,128,128]) -> bf16[128,128,128] {
  %param_0.4872 = bf16[128,128,128]{2,1,0:T(8,128)(2,1)S(1)} parameter(0)
  ROOT %bitcast.2557 = bf16[128,128,128]{2,0,1:T(8,128)(2,1)} bitcast(%param_0.4872)
}

%fused_computation.109.clone.clone.clone.clone.clone.clone.clone.1 (param_0.4871: bf16[1,128,128,512]) -> bf16[128,128,512] {
  %param_0.4871 = bf16[1,128,128,512]{3,2,1,0:T(8,128)(2,1)S(1)} parameter(0)
  ROOT %bitcast.2556 = bf16[128,128,512]{2,1,0:T(8,128)(2,1)} bitcast(%param_0.4871), metadata={op_name="jit(train_step)/jvp()/while/body/closed_call/dot_general" stack_frame_id=0}
}

%region_5.7 (reduce_sum.31: f32[], reduce_sum.32: f32[]) -> f32[] {
  %reduce_sum.31 = f32[]{:T(128)} parameter(0), metadata={op_name="jit(train_step)/jvp()/while/body/closed_call/reduce_sum"}
  %reduce_sum.32 = f32[]{:T(128)} parameter(1), metadata={op_name="jit(train_step)/jvp()/while/body/closed_call/reduce_sum"}
  ROOT %reduce_sum.33 = f32[]{:T(128)} add(%reduce_sum.31, %reduce_sum.32), metadata={op_name="reduce_sum" stack_frame_id=0}, backend_config={"flag_configs":[],"scoped_memory_configs":[],"used_scoped_memory_configs":[],"aliasing_operands":{"lists":[]}}
}

%fused_computation.162.clone.1 (param_0.4873: bf16[1,128,512], param_1.5469: bf16[1,128,128,512], param_2.4311: bf16[128,128,128]) -> (f32[128], bf16[1,128,512]) {
  %param_0.4873 = bf16[1,128,512]{2,1,0:T(8,128)(2,1)S(1)} parameter(0)
  %convert.1062 = f32[1,128,512]{2,1,0:T(8,128)} convert(%param_0.4873)
  %param_2.4311 = bf16[128,128,128]{2,1,0:T(8,128)(2,1)S(1)} parameter(2)
  %fusion.112.clone.3 = bf16[128,128,128]{2,0,1:T(8,128)(2,1)} fusion(%param_2.4311), kind=kLoop, calls=%fused_computation.133.clone.clone.clone.clone.clone.clone.clone.1
  %param_1.5469 = bf16[1,128,128,512]{3,2,1,0:T(8,128)(2,1)S(1)} parameter(1)
  %fusion.111.clone.3 = bf16[128,128,512]{2,1,0:T(8,128)(2,1)} fusion(%param_1.5469), kind=kLoop, calls=%fused_computation.109.clone.clone.clone.clone.clone.clone.clone.1, metadata={op_name="jit(train_step)/jvp()/while/body/closed_call/dot_general" stack_frame_id=0}
  %convolution.108.clone.3 = bf16[128,512,1]{1,0,2:T(8,128)(2,1)} convolution(%fusion.112.clone.3, %fusion.111.clone.3), window={size=128}, dim_labels=b0f_0io->bf0, metadata={op_name="jit(train_step)/jvp()/while/body/closed_call/dot_general" stack_frame_id=0}
  %bitcast.736.clone.3 = bf16[1,128,512]{2,1,0:T(8,128)(2,1)} bitcast(%convolution.108.clone.3), metadata={op_name="jit(train_step)/jvp()/while/body/closed_call/dot_general" stack_frame_id=0}
  %convert.1063 = f32[1,128,512]{2,1,0:T(8,128)} convert(%bitcast.736.clone.3)
  %add.3136.clone.3 = f32[1,128,512]{2,1,0:T(8,128)} add(%convert.1062, %convert.1063), metadata={op_name="jit(train_step)/jvp()/while/body/closed_call/add" stack_frame_id=0}, backend_config={"flag_configs":[],"scoped_memory_configs":[],"used_scoped_memory_configs":[],"float_type_correction_info":{"original_type":"BF16","original_shape":{"element_type":"BF16","dimensions":["1","128","512"],"tuple_shapes":[],"layout":{"minor_to_major":["2","1","0"],"tiles":[{"dimensions":["8","128"]},{"dimensions":["2","1"]}],"element_size_in_bits":"0","memory_space":"0","dim_level_types":[],"index_primitive_type":"PRIMITIVE_TYPE_INVALID","pointer_primitive_type":"PRIMITIVE_TYPE_INVALID","dim_unique":[],"dim_ordered":[],"dynamic_shape_metadata_prefix_bytes":"0","tail_padding_alignment_in_elements":"1","split_configs":[]},"is_dynamic_dimension":[false,false,false]}}}
  %convert_element_type.3024 = f32[1,128,512]{2,1,0:T(8,128)} convert(%add.3136.clone.3), metadata={op_name="jit(train_step)/jvp()/while/body/closed_call/convert_element_type" stack_frame_id=0}
  %square.702 = f32[1,128,512]{2,1,0:T(8,128)} multiply(%convert_element_type.3024, %convert_element_type.3024), metadata={op_name="jit(train_step)/jvp()/while/body/closed_call/square" stack_frame_id=0}
  %constant.1493.clone.24 = f32[]{:T(128)} constant(0)
  %reduce.883 = f32[128]{0:T(128)S(1)} reduce(%square.702, %constant.1493.clone.24), dimensions={0,2}, to_apply=%region_5.7, metadata={op_name="jit(train_step)/jvp()/while/body/closed_call/reduce_sum" stack_frame_id=0}
  %convert.1064 = bf16[1,128,512]{2,1,0:T(8,128)(2,1)S(1)} convert(%add.3136.clone.3)
  ROOT %tuple.869 = (f32[128]{0:T(128)S(1)}, bf16[1,128,512]{2,1,0:T(8,128)(2,1)S(1)}) tuple(%reduce.883, %convert.1064)
}

%fused_computation.115.clone.1 (param_0.4880: bf16[3,18432,128], param_1.5474: s32[]) -> bf16[1,18432,128] {
  %param_0.4880 = bf16[3,18432,128]{2,1,0:T(8,128)(2,1)} parameter(0)
  %param_1.5474 = s32[]{:T(128)S(6)} parameter(1)
  %constant.1492.clone.53 = s32[]{:T(128)} constant(0)
  ROOT %dynamic-slice.535 = bf16[1,18432,128]{2,1,0:T(8,128)(2,1)S(1)} dynamic-slice(%param_0.4880, %param_1.5474, %constant.1492.clone.53, %constant.1492.clone.53), dynamic_slice_sizes={1,18432,128}, metadata={op_name="jit(train_step)/jvp()/while/body/jit(dynamic_index_in_dim)/dynamic_slice" stack_frame_id=0}, backend_config={"flag_configs":[],"scoped_memory_configs":[],"indices_config":{"index_known_bits":[{"zeroes":"4294967292","ones":"0","bitwidth":"32"},{"zeroes":"4294967295","ones":"0","bitwidth":"32"},{"zeroes":"4294967295","ones":"0","bitwidth":"32"}],"is_index_aligned":[]},"used_scoped_memory_configs":[]}
}

%fused_computation.116.clone.1 (param_0.4879: bf16[3,128,18432], param_1.5473: s32[]) -> bf16[1,128,18432] {
  %param_0.4879 = bf16[3,128,18432]{2,1,0:T(8,128)(2,1)} parameter(0)
  %param_1.5473 = s32[]{:T(128)S(6)} parameter(1)
  %constant.1492.clone.52 = s32[]{:T(128)} constant(0)
  ROOT %dynamic-slice.534 = bf16[1,128,18432]{2,1,0:T(8,128)(2,1)S(1)} dynamic-slice(%param_0.4879, %param_1.5473, %constant.1492.clone.52, %constant.1492.clone.52), dynamic_slice_sizes={1,128,18432}, metadata={op_name="jit(train_step)/jvp()/while/body/jit(dynamic_index_in_dim)/dynamic_slice" stack_frame_id=0}, backend_config={"flag_configs":[],"scoped_memory_configs":[],"indices_config":{"index_known_bits":[{"zeroes":"4294967292","ones":"0","bitwidth":"32"},{"zeroes":"4294967295","ones":"0","bitwidth":"32"},{"zeroes":"4294967295","ones":"0","bitwidth":"32"}],"is_index_aligned":[]},"used_scoped_memory_configs":[]}
}

%fused_computation.117.clone.1 (param_0.4875: bf16[3,128,18432], param_1.5470: s32[]) -> bf16[1,128,18432] {
  %param_0.4875 = bf16[3,128,18432]{2,1,0:T(8,128)(2,1)} parameter(0)
  %param_1.5470 = s32[]{:T(128)S(6)} parameter(1)
  %constant.1492.clone.51 = s32[]{:T(128)} constant(0)
  ROOT %dynamic-slice.533 = bf16[1,128,18432]{2,1,0:T(8,128)(2,1)S(1)} dynamic-slice(%param_0.4875, %param_1.5470, %constant.1492.clone.51, %constant.1492.clone.51), dynamic_slice_sizes={1,128,18432}, metadata={op_name="jit(train_step)/jvp()/while/body/jit(dynamic_index_in_dim)/dynamic_slice" stack_frame_id=0}, backend_config={"flag_configs":[],"scoped_memory_configs":[],"indices_config":{"index_known_bits":[{"zeroes":"4294967292","ones":"0","bitwidth":"32"},{"zeroes":"4294967295","ones":"0","bitwidth":"32"},{"zeroes":"4294967295","ones":"0","bitwidth":"32"}],"is_index_aligned":[]},"used_scoped_memory_configs":[]}
}

%fused_computation.202.clone.1 (param_0.4874: f32[128]) -> f32[128] {
  %param_0.4874 = f32[128]{0:T(128)S(1)} parameter(0)
  %constant.1494.clone.13 = f32[]{:T(128)} constant(0.001953125)
  %broadcast.4713 = f32[128]{0:T(128)} broadcast(%constant.1494.clone.13), dimensions={}, metadata={op_name="jit(train_step)/jvp()/while/body/closed_call" stack_frame_id=0}
  %div.2873 = f32[128]{0:T(128)} multiply(%param_0.4874, %broadcast.4713), metadata={op_name="jit(train_step)/jvp()/while/body/closed_call/div" stack_frame_id=0}
  %constant.1495.clone.16 = f32[]{:T(128)} constant(1e-06)
  %broadcast.4712 = f32[128]{0:T(128)} broadcast(%constant.1495.clone.16), dimensions={}, metadata={op_name="jit(train_step)/jvp()/while/body/closed_call" stack_frame_id=0}
  %add.3972 = f32[128]{0:T(128)} add(%div.2873, %broadcast.4712), metadata={op_name="jit(train_step)/jvp()/while/body/closed_call/add" stack_frame_id=0}
  ROOT %rsqrt.369 = f32[128]{0:T(128)S(1)} rsqrt(%add.3972), metadata={op_name="jit(train_step)/jvp()/while/body/closed_call/rsqrt" stack_frame_id=0}
}

%fused_computation.166.clone.1.clone.1 (param_0.4877: bf16[1,128,512], param_1.5471: f32[128], param_2.4312: bf16[512]) -> bf16[128,512] {
  %param_2.4312 = bf16[512]{0:T(512)(128)(2,1)S(1)} parameter(2)
  %dot_general.922 = bf16[1,128,512]{2,1,0:T(8,128)(2,1)} broadcast(%param_2.4312), dimensions={2}, metadata={op_name="jit(train_step)/jvp()/while/body/closed_call/...k,k->...k/dot_general" stack_frame_id=0}
  %convert.1041 = f32[1,128,512]{2,1,0:T(8,128)} convert(%dot_general.922)
  %param_0.4877 = bf16[1,128,512]{2,1,0:T(8,128)(2,1)S(1)} parameter(0)
  %convert_element_type.3026 = f32[1,128,512]{2,1,0:T(8,128)} convert(%param_0.4877), metadata={op_name="jit(train_step)/jvp()/while/body/closed_call/convert_element_type" stack_frame_id=0}
  %param_1.5471 = f32[128]{0:T(128)S(1)} parameter(1)
  %mul.5158 = f32[1,128,512]{2,1,0:T(8,128)} broadcast(%param_1.5471), dimensions={1}, metadata={op_name="jit(train_step)/jvp()/while/body/closed_call/mul" stack_frame_id=0}
  %mul.5157 = f32[1,128,512]{2,1,0:T(8,128)} multiply(%convert_element_type.3026, %mul.5158), metadata={op_name="jit(train_step)/jvp()/while/body/closed_call/mul" stack_frame_id=0}
  %convert_element_type.3025 = bf16[1,128,512]{2,1,0:T(8,128)(2,1)} convert(%mul.5157), metadata={op_name="jit(train_step)/jvp()/while/body/closed_call/convert_element_type" stack_frame_id=0}
  %convert.1042 = f32[1,128,512]{2,1,0:T(8,128)} convert(%convert_element_type.3025)
  %dot_general.921 = f32[1,128,512]{2,1,0:T(8,128)} multiply(%convert.1041, %convert.1042), metadata={op_name="jit(train_step)/jvp()/while/body/closed_call/...k,k->...k/dot_general" stack_frame_id=0}, backend_config={"flag_configs":[],"scoped_memory_configs":[],"used_scoped_memory_configs":[],"float_type_correction_info":{"original_type":"BF16","original_shape":{"element_type":"BF16","dimensions":["1","128","512"],"tuple_shapes":[],"layout":{"minor_to_major":["2","1","0"],"tiles":[{"dimensions":["8","128"]},{"dimensions":["2","1"]}],"element_size_in_bits":"0","memory_space":"0","dim_level_types":[],"index_primitive_type":"PRIMITIVE_TYPE_INVALID","pointer_primitive_type":"PRIMITIVE_TYPE_INVALID","dim_unique":[],"dim_ordered":[],"dynamic_shape_metadata_prefix_bytes":"0","tail_padding_alignment_in_elements":"1","split_configs":[]},"is_dynamic_dimension":[false,false,false]}}}
  %convert.1043 = bf16[1,128,512]{2,1,0:T(8,128)(2,1)} convert(%dot_general.921)
  ROOT %bitcast.2559 = bf16[128,512]{1,0:T(8,128)(2,1)} bitcast(%convert.1043)
}

%fused_computation.107.clone.clone.clone.1 (param_0.4876: bf16[1,512,18432]) -> bf16[512,18432] {
  %param_0.4876 = bf16[1,512,18432]{2,1,0:T(8,128)(2,1)S(1)} parameter(0)
  ROOT %bitcast.2558 = bf16[512,18432]{1,0:T(8,128)(2,1)} bitcast(%param_0.4876), metadata={op_name="jit(train_step)/jvp()/while/body/closed_call/dot_general" stack_frame_id=0}
}

%fused_computation.111.clone.1 (param_0.4878: bf16[1,512,18432], param_1.5472: bf16[1,128,512], param_2.4313: f32[128], param_3.2903: bf16[512]) -> bf16[1,128,18432] {
  %param_1.5472 = bf16[1,128,512]{2,1,0:T(8,128)(2,1)S(1)} parameter(1)
  %param_2.4313 = f32[128]{0:T(128)S(1)} parameter(2)
  %param_3.2903 = bf16[512]{0:T(512)(128)(2,1)S(1)} parameter(3)
  %fusion.1123 = bf16[128,512]{1,0:T(8,128)(2,1)} fusion(%param_1.5472, %param_2.4313, %param_3.2903), kind=kLoop, calls=%fused_computation.166.clone.1.clone.1
  %param_0.4878 = bf16[1,512,18432]{2,1,0:T(8,128)(2,1)S(1)} parameter(0)
  %fusion.1122 = bf16[512,18432]{1,0:T(8,128)(2,1)} fusion(%param_0.4878), kind=kLoop, calls=%fused_computation.107.clone.clone.clone.1, metadata={op_name="jit(train_step)/jvp()/while/body/closed_call/dot_general" stack_frame_id=0}
  %convolution.335 = bf16[128,18432]{1,0:T(8,128)(2,1)} convolution(%fusion.1123, %fusion.1122), dim_labels=bf_io->bf, metadata={op_name="jit(train_step)/jvp()/while/body/closed_call/dot_general" stack_frame_id=0}
  ROOT %bitcast.2560 = bf16[1,128,18432]{2,1,0:T(8,128)(2,1)S(1)} bitcast(%convolution.335), metadata={op_name="jit(train_step)/jvp()/while/body/closed_call/dot_general" stack_frame_id=0}
}

%fused_computation.166.clone.clone.clone.1 (param_0.4883: bf16[1,128,512], param_1.5475: f32[128], param_2.4314: bf16[512]) -> bf16[128,512] {
  %param_2.4314 = bf16[512]{0:T(512)(128)(2,1)S(1)} parameter(2)
  %dot_general.924 = bf16[1,128,512]{2,1,0:T(8,128)(2,1)} broadcast(%param_2.4314), dimensions={2}, metadata={op_name="jit(train_step)/jvp()/while/body/closed_call/...k,k->...k/dot_general" stack_frame_id=0}
  %convert.1044 = f32[1,128,512]{2,1,0:T(8,128)} convert(%dot_general.924)
  %param_0.4883 = bf16[1,128,512]{2,1,0:T(8,128)(2,1)S(1)} parameter(0)
  %convert_element_type.3028 = f32[1,128,512]{2,1,0:T(8,128)} convert(%param_0.4883), metadata={op_name="jit(train_step)/jvp()/while/body/closed_call/convert_element_type" stack_frame_id=0}
  %param_1.5475 = f32[128]{0:T(128)S(1)} parameter(1)
  %mul.5160 = f32[1,128,512]{2,1,0:T(8,128)} broadcast(%param_1.5475), dimensions={1}, metadata={op_name="jit(train_step)/jvp()/while/body/closed_call/mul" stack_frame_id=0}
  %mul.5159 = f32[1,128,512]{2,1,0:T(8,128)} multiply(%convert_element_type.3028, %mul.5160), metadata={op_name="jit(train_step)/jvp()/while/body/closed_call/mul" stack_frame_id=0}
  %convert_element_type.3027 = bf16[1,128,512]{2,1,0:T(8,128)(2,1)} convert(%mul.5159), metadata={op_name="jit(train_step)/jvp()/while/body/closed_call/convert_element_type" stack_frame_id=0}
  %convert.1045 = f32[1,128,512]{2,1,0:T(8,128)} convert(%convert_element_type.3027)
  %dot_general.923 = f32[1,128,512]{2,1,0:T(8,128)} multiply(%convert.1044, %convert.1045), metadata={op_name="jit(train_step)/jvp()/while/body/closed_call/...k,k->...k/dot_general" stack_frame_id=0}, backend_config={"flag_configs":[],"scoped_memory_configs":[],"used_scoped_memory_configs":[],"float_type_correction_info":{"original_type":"BF16","original_shape":{"element_type":"BF16","dimensions":["1","128","512"],"tuple_shapes":[],"layout":{"minor_to_major":["2","1","0"],"tiles":[{"dimensions":["8","128"]},{"dimensions":["2","1"]}],"element_size_in_bits":"0","memory_space":"0","dim_level_types":[],"index_primitive_type":"PRIMITIVE_TYPE_INVALID","pointer_primitive_type":"PRIMITIVE_TYPE_INVALID","dim_unique":[],"dim_ordered":[],"dynamic_shape_metadata_prefix_bytes":"0","tail_padding_alignment_in_elements":"1","split_configs":[]},"is_dynamic_dimension":[false,false,false]}}}
  %convert.1046 = bf16[1,128,512]{2,1,0:T(8,128)(2,1)} convert(%dot_general.923)
  ROOT %bitcast.2563 = bf16[128,512]{1,0:T(8,128)(2,1)} bitcast(%convert.1046)
}

%fused_computation.105.clone.clone.clone.clone.clone.clone.clone.clone.clone.clone.clone.clone.clone.1 (param_0.4882: bf16[1,512,18432]) -> bf16[512,18432] {
  %param_0.4882 = bf16[1,512,18432]{2,1,0:T(8,128)(2,1)S(1)} parameter(0)
  ROOT %bitcast.2562 = bf16[512,18432]{1,0:T(8,128)(2,1)} bitcast(%param_0.4882), metadata={op_name="jit(train_step)/jvp()/while/body/closed_call/dot_general" stack_frame_id=0}
}

%fused_computation.114.clone.clone.clone.clone.clone.clone.clone.1 (param_0.4884: bf16[1,512,18432], param_1.5476: bf16[1,128,18432], param_2.4315: bf16[1,128,512], param_3.2904: f32[128], param_4.2205: bf16[512]) -> bf16[128,18432] {
  %param_1.5476 = bf16[1,128,18432]{2,1,0:T(8,128)(2,1)S(1)} parameter(1)
  %convert.1047 = f32[1,128,18432]{2,1,0:T(8,128)} convert(%param_1.5476)
  %constant.1498.clone.10 = bf16[]{:T(256)} constant(1)
  %jit_silu_.98 = bf16[1,128,18432]{2,1,0:T(8,128)(2,1)} broadcast(%constant.1498.clone.10), dimensions={}, metadata={op_name="jit(train_step)/jvp()/while/body/closed_call/jit(silu)" stack_frame_id=0}
  %convert.1048 = f32[1,128,18432]{2,1,0:T(8,128)} convert(%jit_silu_.98)
  %neg.274 = f32[1,128,18432]{2,1,0:T(8,128)} negate(%convert.1047), metadata={op_name="jit(train_step)/jvp()/while/body/closed_call/jit(silu)/neg" stack_frame_id=0}, backend_config={"flag_configs":[],"scoped_memory_configs":[],"used_scoped_memory_configs":[],"float_type_correction_info":{"original_type":"BF16","original_shape":{"element_type":"BF16","dimensions":["1","128","18432"],"tuple_shapes":[],"layout":{"minor_to_major":["2","1","0"],"tiles":[{"dimensions":["8","128"]},{"dimensions":["2","1"]}],"element_size_in_bits":"0","memory_space":"0","dim_level_types":[],"index_primitive_type":"PRIMITIVE_TYPE_INVALID","pointer_primitive_type":"PRIMITIVE_TYPE_INVALID","dim_unique":[],"dim_ordered":[],"dynamic_shape_metadata_prefix_bytes":"0","tail_padding_alignment_in_elements":"1","split_configs":[]},"is_dynamic_dimension":[false,false,false]}}}
  %exp.567 = f32[1,128,18432]{2,1,0:T(8,128)} exponential(%neg.274), metadata={op_name="jit(train_step)/jvp()/while/body/closed_call/jit(silu)/exp" stack_frame_id=0}, backend_config={"flag_configs":[],"scoped_memory_configs":[],"used_scoped_memory_configs":[],"float_type_correction_info":{"original_type":"BF16","original_shape":{"element_type":"BF16","dimensions":["1","128","18432"],"tuple_shapes":[],"layout":{"minor_to_major":["2","1","0"],"tiles":[{"dimensions":["8","128"]},{"dimensions":["2","1"]}],"element_size_in_bits":"0","memory_space":"0","dim_level_types":[],"index_primitive_type":"PRIMITIVE_TYPE_INVALID","pointer_primitive_type":"PRIMITIVE_TYPE_INVALID","dim_unique":[],"dim_ordered":[],"dynamic_shape_metadata_prefix_bytes":"0","tail_padding_alignment_in_elements":"1","split_configs":[]},"is_dynamic_dimension":[false,false,false]}}}
  %add.3973 = f32[1,128,18432]{2,1,0:T(8,128)} add(%exp.567, %convert.1048), metadata={op_name="jit(train_step)/jvp()/while/body/closed_call/jit(silu)/add" stack_frame_id=0}, backend_config={"flag_configs":[],"scoped_memory_configs":[],"used_scoped_memory_configs":[],"float_type_correction_info":{"original_type":"BF16","original_shape":{"element_type":"BF16","dimensions":["1","128","18432"],"tuple_shapes":[],"layout":{"minor_to_major":["2","1","0"],"tiles":[{"dimensions":["8","128"]},{"dimensions":["2","1"]}],"element_size_in_bits":"0","memory_space":"0","dim_level_types":[],"index_primitive_type":"PRIMITIVE_TYPE_INVALID","pointer_primitive_type":"PRIMITIVE_TYPE_INVALID","dim_unique":[],"dim_ordered":[],"dynamic_shape_metadata_prefix_bytes":"0","tail_padding_alignment_in_elements":"1","split_configs":[]},"is_dynamic_dimension":[false,false,false]}}}
  %div.2874 = f32[1,128,18432]{2,1,0:T(8,128)} divide(%convert.1048, %add.3973), metadata={op_name="jit(train_step)/jvp()/while/body/closed_call/jit(silu)/div" stack_frame_id=0}, backend_config={"flag_configs":[],"scoped_memory_configs":[],"used_scoped_memory_configs":[],"float_type_correction_info":{"original_type":"BF16","original_shape":{"element_type":"BF16","dimensions":["1","128","18432"],"tuple_shapes":[],"layout":{"minor_to_major":["2","1","0"],"tiles":[{"dimensions":["8","128"]},{"dimensions":["2","1"]}],"element_size_in_bits":"0","memory_space":"0","dim_level_types":[],"index_primitive_type":"PRIMITIVE_TYPE_INVALID","pointer_primitive_type":"PRIMITIVE_TYPE_INVALID","dim_unique":[],"dim_ordered":[],"dynamic_shape_metadata_prefix_bytes":"0","tail_padding_alignment_in_elements":"1","split_configs":[]},"is_dynamic_dimension":[false,false,false]}}}
  %mul.5162 = f32[1,128,18432]{2,1,0:T(8,128)} multiply(%convert.1047, %div.2874), metadata={op_name="jit(train_step)/jvp()/while/body/closed_call/jit(silu)/mul" stack_frame_id=0}, backend_config={"flag_configs":[],"scoped_memory_configs":[],"used_scoped_memory_configs":[],"float_type_correction_info":{"original_type":"BF16","original_shape":{"element_type":"BF16","dimensions":["1","128","18432"],"tuple_shapes":[],"layout":{"minor_to_major":["2","1","0"],"tiles":[{"dimensions":["8","128"]},{"dimensions":["2","1"]}],"element_size_in_bits":"0","memory_space":"0","dim_level_types":[],"index_primitive_type":"PRIMITIVE_TYPE_INVALID","pointer_primitive_type":"PRIMITIVE_TYPE_INVALID","dim_unique":[],"dim_ordered":[],"dynamic_shape_metadata_prefix_bytes":"0","tail_padding_alignment_in_elements":"1","split_configs":[]},"is_dynamic_dimension":[false,false,false]}}}
  %param_2.4315 = bf16[1,128,512]{2,1,0:T(8,128)(2,1)S(1)} parameter(2)
  %param_3.2904 = f32[128]{0:T(128)S(1)} parameter(3)
  %param_4.2205 = bf16[512]{0:T(512)(128)(2,1)S(1)} parameter(4)
  %fusion.1125 = bf16[128,512]{1,0:T(8,128)(2,1)} fusion(%param_2.4315, %param_3.2904, %param_4.2205), kind=kLoop, calls=%fused_computation.166.clone.clone.clone.1
  %param_0.4884 = bf16[1,512,18432]{2,1,0:T(8,128)(2,1)S(1)} parameter(0)
  %fusion.1124 = bf16[512,18432]{1,0:T(8,128)(2,1)} fusion(%param_0.4884), kind=kLoop, calls=%fused_computation.105.clone.clone.clone.clone.clone.clone.clone.clone.clone.clone.clone.clone.clone.1, metadata={op_name="jit(train_step)/jvp()/while/body/closed_call/dot_general" stack_frame_id=0}
  %convolution.336 = bf16[128,18432]{1,0:T(8,128)(2,1)} convolution(%fusion.1125, %fusion.1124), dim_labels=bf_io->bf, metadata={op_name="jit(train_step)/jvp()/while/body/closed_call/dot_general" stack_frame_id=0}
  %bitcast.2565 = bf16[1,128,18432]{2,1,0:T(8,128)(2,1)} bitcast(%convolution.336), metadata={op_name="jit(train_step)/jvp()/while/body/closed_call/dot_general" stack_frame_id=0}
  %convert.1049 = f32[1,128,18432]{2,1,0:T(8,128)} convert(%bitcast.2565)
  %mul.5161 = f32[1,128,18432]{2,1,0:T(8,128)} multiply(%mul.5162, %convert.1049), metadata={op_name="jit(train_step)/jvp()/while/body/closed_call/mul" stack_frame_id=0}, backend_config={"flag_configs":[],"scoped_memory_configs":[],"used_scoped_memory_configs":[],"float_type_correction_info":{"original_type":"BF16","original_shape":{"element_type":"BF16","dimensions":["1","128","18432"],"tuple_shapes":[],"layout":{"minor_to_major":["2","1","0"],"tiles":[{"dimensions":["8","128"]},{"dimensions":["2","1"]}],"element_size_in_bits":"0","memory_space":"0","dim_level_types":[],"index_primitive_type":"PRIMITIVE_TYPE_INVALID","pointer_primitive_type":"PRIMITIVE_TYPE_INVALID","dim_unique":[],"dim_ordered":[],"dynamic_shape_metadata_prefix_bytes":"0","tail_padding_alignment_in_elements":"1","split_configs":[]},"is_dynamic_dimension":[false,false,false]}}}
  %convert.1050 = bf16[1,128,18432]{2,1,0:T(8,128)(2,1)} convert(%mul.5161)
  ROOT %bitcast.2564 = bf16[128,18432]{1,0:T(8,128)(2,1)} bitcast(%convert.1050)
}

%fused_computation.103.clone.clone.clone.clone.clone.1 (param_0.4881: bf16[1,18432,512]) -> bf16[18432,512] {
  %param_0.4881 = bf16[1,18432,512]{2,1,0:T(8,128)(2,1)S(1)} parameter(0)
  ROOT %bitcast.2561 = bf16[18432,512]{1,0:T(8,128)(2,1)} bitcast(%param_0.4881), metadata={op_name="jit(train_step)/jvp()/while/body/closed_call/dot_general" stack_frame_id=0}
}

%fused_computation.146.clone.1 (param_0.4885: bf16[1,128,512], param_1.5477: bf16[1,18432,512], param_2.4316: bf16[1,512,18432], param_3.2905: bf16[1,128,18432], param_4.2206: f32[128], param_5.1916: bf16[512]) -> bf16[1,128,512] {
  %param_2.4316 = bf16[1,512,18432]{2,1,0:T(8,128)(2,1)S(1)} parameter(2)
  %param_3.2905 = bf16[1,128,18432]{2,1,0:T(8,128)(2,1)S(1)} parameter(3)
  %param_0.4885 = bf16[1,128,512]{2,1,0:T(8,128)(2,1)S(1)} parameter(0)
  %param_4.2206 = f32[128]{0:T(128)S(1)} parameter(4)
  %param_5.1916 = bf16[512]{0:T(512)(128)(2,1)S(1)} parameter(5)
  %fusion.65.clone.7 = bf16[128,18432]{1,0:T(8,128)(2,1)} fusion(%param_2.4316, %param_3.2905, %param_0.4885, %param_4.2206, %param_5.1916), kind=kOutput, calls=%fused_computation.114.clone.clone.clone.clone.clone.clone.clone.1, metadata={op_name="jit(train_step)/jvp()/while/body/closed_call/dot_general" stack_frame_id=0}
  %param_1.5477 = bf16[1,18432,512]{2,1,0:T(8,128)(2,1)S(1)} parameter(1)
  %fusion.1126 = bf16[18432,512]{1,0:T(8,128)(2,1)} fusion(%param_1.5477), kind=kLoop, calls=%fused_computation.103.clone.clone.clone.clone.clone.1, metadata={op_name="jit(train_step)/jvp()/while/body/closed_call/dot_general" stack_frame_id=0}
  %convolution.337 = bf16[128,512]{1,0:T(8,128)(2,1)} convolution(%fusion.65.clone.7, %fusion.1126), dim_labels=bf_io->bf, metadata={op_name="jit(train_step)/jvp()/while/body/closed_call/dot_general" stack_frame_id=0}
  %bitcast.2566 = bf16[1,128,512]{2,1,0:T(8,128)(2,1)} bitcast(%convolution.337), metadata={op_name="jit(train_step)/jvp()/while/body/closed_call/dot_general" stack_frame_id=0}
  %convert.1065 = f32[1,128,512]{2,1,0:T(8,128)} convert(%bitcast.2566)
  %convert.1066 = f32[1,128,512]{2,1,0:T(8,128)} convert(%param_0.4885)
  %add.3974 = f32[1,128,512]{2,1,0:T(8,128)} add(%convert.1065, %convert.1066), metadata={op_name="jit(train_step)/jvp()/while/body/closed_call/add" stack_frame_id=0}, backend_config={"flag_configs":[],"scoped_memory_configs":[],"used_scoped_memory_configs":[],"float_type_correction_info":{"original_type":"BF16","original_shape":{"element_type":"BF16","dimensions":["1","128","512"],"tuple_shapes":[],"layout":{"minor_to_major":["2","1","0"],"tiles":[{"dimensions":["8","128"]},{"dimensions":["2","1"]}],"element_size_in_bits":"0","memory_space":"0","dim_level_types":[],"index_primitive_type":"PRIMITIVE_TYPE_INVALID","pointer_primitive_type":"PRIMITIVE_TYPE_INVALID","dim_unique":[],"dim_ordered":[],"dynamic_shape_metadata_prefix_bytes":"0","tail_padding_alignment_in_elements":"1","split_configs":[]},"is_dynamic_dimension":[false,false,false]}}}
  ROOT %convert.1067 = bf16[1,128,512]{2,1,0:T(8,128)(2,1)S(1)} convert(%add.3974)
}

%async_computation.48 (param_0.4952: s8[16777216]) -> s8[4194304] {
  %param_0.4952 = s8[16777216]{0:T(1024)(128)(4,1)} parameter(0)
  ROOT %slice.1490 = s8[4194304]{0:T(1024)(128)(4,1)S(1)} slice(%param_0.4952), slice={[0:4194304]}, backend_config={"flag_configs":[],"scoped_memory_configs":[],"used_scoped_memory_configs":[],"aliasing_operands":{"lists":[]}}
}

%async_computation.49 (param_0.4953: s8[16777216]) -> s8[4194304] {
  %param_0.4953 = s8[16777216]{0:T(1024)(128)(4,1)} parameter(0)
  ROOT %slice.1492 = s8[4194304]{0:T(1024)(128)(4,1)S(1)} slice(%param_0.4953), slice={[4194304:8388608]}, backend_config={"flag_configs":[],"scoped_memory_configs":[],"used_scoped_memory_configs":[],"aliasing_operands":{"lists":[]}}
}

%async_computation.50 (param_0.4954: s8[16777216]) -> s8[4194304] {
  %param_0.4954 = s8[16777216]{0:T(1024)(128)(4,1)} parameter(0)
  ROOT %slice.1494 = s8[4194304]{0:T(1024)(128)(4,1)S(1)} slice(%param_0.4954), slice={[8388608:12582912]}, backend_config={"flag_configs":[],"scoped_memory_configs":[],"used_scoped_memory_configs":[],"aliasing_operands":{"lists":[]}}
}

%async_computation.51 (param_0.4955: s8[16777216]) -> s8[4194304] {
  %param_0.4955 = s8[16777216]{0:T(1024)(128)(4,1)} parameter(0)
  ROOT %slice.1496 = s8[4194304]{0:T(1024)(128)(4,1)S(1)} slice(%param_0.4955), slice={[12582912:16777216]}, backend_config={"flag_configs":[],"scoped_memory_configs":[],"used_scoped_memory_configs":[],"aliasing_operands":{"lists":[]}}
}

%wide.region_1.8_spmd.sunk.clone.clone.clone.sunk (wide.param.5: (s32[], bf16[1,128,512], u32[3], u32[3,4], u32[3], /*index=5*/u32[3,4], u32[3], u32[3,4], u32[3], u32[3,4], /*index=10*/u32[3], u32[3,4], u32[3], u32[3,4], u32[3], /*index=15*/u32[3,4], u32[3], u32[3,4], u32[3], u32[3,4], /*index=20*/bf16[3,1,128,512], bf16[3,512], bf16[3,384], bf16[3,512], bf16[3,128,1536], /*index=25*/bf16[3,384,128,192], bf16[3,128], bf16[3,128,576], bf16[3,128,128,256], f32[1,128,1,32], /*index=30*/f32[1,128,1,32], bf16[3,128,128,128], bf16[3,128,18432], bf16[3,128,18432], bf16[3,18432,128], /*index=35*/u32[3], u32[3,4], u32[3], u32[3,4], u32[3], /*index=40*/u32[3,4], u32[3], u32[3,4], u32[3], u32[3,4], /*index=45*/u32[3], u32[3,4], u32[3], u32[3,4], u32[3], /*index=50*/u32[3,4], u32[3], u32[3,4], f32[128,32], f32[128,32], /*index=55*/s32[128], s32[], s8[1,1,1], s8[1,1,1], bf16[])) -> (s32[], bf16[1,128,512], u32[3], u32[3,4], u32[3], /*index=5*/u32[3,4], u32[3], u32[3,4], u32[3], u32[3,4], /*index=10*/u32[3], u32[3,4], u32[3], u32[3,4], u32[3], /*index=15*/u32[3,4], u32[3], u32[3,4], u32[3], u32[3,4], /*index=20*/bf16[3,1,128,512], bf16[3,512], bf16[3,384], bf16[3,512], bf16[3,128,1536], /*index=25*/bf16[3,384,128,192], bf16[3,128], bf16[3,128,576], bf16[3,128,128,256], f32[1,128,1,32], /*index=30*/f32[1,128,1,32], bf16[3,128,128,128], bf16[3,128,18432], bf16[3,128,18432], bf16[3,18432,128], /*index=35*/u32[3], u32[3,4], u32[3], u32[3,4], u32[3], /*index=40*/u32[3,4], u32[3], u32[3,4], u32[3], u32[3,4], /*index=45*/u32[3], u32[3,4], u32[3], u32[3,4], u32[3], /*index=50*/u32[3,4], u32[3], u32[3,4], f32[128,32], f32[128,32], /*index=55*/s32[128], s32[], s8[1,1,1], s8[1,1,1], bf16[]) {
  %constant.1752.clone..sunk.7 = s32[]{:T(128)} constant(1)
  %constant.4192..sunk.1 = bf16[]{:T(256)} constant(-0), metadata={op_name="jit(train_step)/transpose(jvp())/while/body/closed_call/checkpoint/rematted_computation/convert_element_type" stack_frame_id=0}
  %wide.param.5 = (s32[]{:T(128)}, bf16[1,128,512]{2,1,0:T(8,128)(2,1)S(1)}, u32[3]{0:T(128)}, u32[3,4]{1,0:T(4,128)}, u32[3]{0:T(128)}, /*index=5*/u32[3,4]{1,0:T(4,128)}, u32[3]{0:T(128)}, u32[3,4]{1,0:T(4,128)}, u32[3]{0:T(128)}, u32[3,4]{1,0:T(4,128)}, /*index=10*/u32[3]{0:T(128)}, u32[3,4]{1,0:T(4,128)}, u32[3]{0:T(128)}, u32[3,4]{1,0:T(4,128)}, u32[3]{0:T(128)}, /*index=15*/u32[3,4]{1,0:T(4,128)}, u32[3]{0:T(128)}, u32[3,4]{1,0:T(4,128)}, u32[3]{0:T(128)}, u32[3,4]{1,0:T(4,128)}, /*index=20*/bf16[3,1,128,512]{3,2,1,0:T(8,128)(2,1)}, bf16[3,512]{1,0:T(4,128)(2,1)}, bf16[3,384]{1,0:T(4,128)(2,1)}, bf16[3,512]{1,0:T(4,128)(2,1)}, bf16[3,128,1536]{2,1,0:T(8,128)(2,1)}, /*index=25*/bf16[3,384,128,192]{2,1,3,0:T(8,128)(2,1)}, bf16[3,128]{1,0:T(4,128)(2,1)}, bf16[3,128,576]{2,1,0:T(8,128)(2,1)S(1)}, bf16[3,128,128,256]{3,1,2,0:T(8,128)(2,1)}, f32[1,128,1,32]{3,1,2,0:T(8,128)S(1)}, /*index=30*/f32[1,128,1,32]{3,1,2,0:T(8,128)S(1)}, bf16[3,128,128,128]{3,2,1,0:T(8,128)(2,1)}, bf16[3,128,18432]{2,1,0:T(8,128)(2,1)}, bf16[3,128,18432]{2,1,0:T(8,128)(2,1)}, bf16[3,18432,128]{2,1,0:T(8,128)(2,1)}, /*index=35*/u32[3]{0:T(128)}, u32[3,4]{1,0:T(4,128)}, u32[3]{0:T(128)}, u32[3,4]{1,0:T(4,128)}, u32[3]{0:T(128)}, /*index=40*/u32[3,4]{1,0:T(4,128)}, u32[3]{0:T(128)}, u32[3,4]{1,0:T(4,128)}, u32[3]{0:T(128)}, u32[3,4]{1,0:T(4,128)}, /*index=45*/u32[3]{0:T(128)}, u32[3,4]{1,0:T(4,128)}, u32[3]{0:T(128)}, u32[3,4]{1,0:T(4,128)}, u32[3]{0:T(128)}, /*index=50*/u32[3,4]{1,0:T(4,128)}, u32[3]{0:T(128)}, u32[3,4]{1,0:T(4,128)}, f32[128,32]{1,0:T(8,128)S(1)}, f32[128,32]{1,0:T(8,128)S(1)}, /*index=55*/s32[128]{0:T(128)}, s32[]{:T(128)}, s8[1,1,1]{2,1,0:T(4,128)(4,1)}, s8[1,1,1]{2,1,0:T(4,128)(4,1)}, bf16[]{:T(256)}) parameter(0)
  %get-tuple-element.8821 = s32[]{:T(128)} get-tuple-element(%wide.param.5), index=0
  %copy.1644 = s32[]{:T(128)S(6)} copy(%get-tuple-element.8821), backend_config={"flag_configs":[],"scoped_memory_configs":[],"used_scoped_memory_configs":[],"aliasing_operands":{"lists":[]}}
  %add.3975 = s32[]{:T(128)} add(%copy.1644, %constant.1752.clone..sunk.7), metadata={op_name="jit(train_step)/jvp()/while/body/add" stack_frame_id=0}, backend_config={"flag_configs":[],"scoped_memory_configs":[],"used_scoped_memory_configs":[],"aliasing_operands":{"lists":[]}}
  %get-tuple-element.8841 = bf16[3,1,128,512]{3,2,1,0:T(8,128)(2,1)} get-tuple-element(%wide.param.5), index=20
  %get-tuple-element.8822 = bf16[1,128,512]{2,1,0:T(8,128)(2,1)S(1)} get-tuple-element(%wide.param.5), index=1
  %bitcast_dynamic-update-slice_fusion.17 = bf16[3,1,128,512]{3,2,1,0:T(8,128)(2,1)} fusion(%get-tuple-element.8841, %copy.1644, %get-tuple-element.8822), kind=kLoop, calls=%fused_computation.171.clone.1, metadata={op_name="jit(train_step)/jvp()/while/body/jit(dynamic_update_index_in_dim)/dynamic_update_slice" stack_frame_id=0}, backend_config={"flag_configs":[],"scoped_memory_configs":[],"used_scoped_memory_configs":[],"aliasing_operands":{"lists":[{"indices":["0","3"]}]}}
  %get-tuple-element.8912 = bf16[3,128,128,128]{3,2,1,0:T(8,128)(2,1)} get-tuple-element(%wide.param.5), index=31
  %dynamic-slice_convert_fusion.40 = bf16[1,128,128,128]{3,2,1,0:T(8,128)(2,1)S(1)} fusion(%get-tuple-element.8912, %copy.1644), kind=kLoop, calls=%fused_computation.129.clone.1, metadata={op_name="jit(train_step)/jvp()/while/body/closed_call/convert_element_type" stack_frame_id=0}, backend_config={"flag_configs":[],"scoped_memory_configs":[],"used_scoped_memory_configs":[],"aliasing_operands":{"lists":[]}}
  %all-gather.340 = bf16[1,128,128,512]{3,2,1,0:T(8,128)(2,1)} all-gather(%dynamic-slice_convert_fusion.40), channel_id=288, replica_groups=mesh['axis_0'=1,'axis_1'=1,'axis_2'=4] {'axis_2'}, dimensions={3}, use_global_device_ids=true, metadata={op_name="jit(train_step)/jvp()/while/body/closed_call/dot_general" stack_frame_id=0}, backend_config={"flag_configs":[],"barrier_config":{"barrier_type":"CUSTOM","id":"0"},"scoped_memory_configs":[],"used_scoped_memory_configs":[],"aliasing_operands":{"lists":[]}}
  %get-tuple-element.8938 = s8[1,1,1]{2,1,0:T(4,128)(4,1)} get-tuple-element(%wide.param.5), index=57, metadata={op_name="jit(train_step)/sharding_constraint" stack_frame_id=0}
  %get-tuple-element.8939 = s8[1,1,1]{2,1,0:T(4,128)(4,1)} get-tuple-element(%wide.param.5), index=58, metadata={op_name="jit(train_step)/sharding_constraint" stack_frame_id=0}
  %get-tuple-element.8906 = bf16[3,384,128,192]{2,1,3,0:T(8,128)(2,1)} get-tuple-element(%wide.param.5), index=25
  %dynamic-slice_convert_fusion.41 = bf16[1,384,128,192]{2,1,3,0:T(8,128)(2,1)S(1)} fusion(%get-tuple-element.8906, %copy.1644), kind=kLoop, calls=%fused_computation.99.clone.1, metadata={op_name="jit(train_step)/jvp()/while/body/closed_call/convert_element_type" stack_frame_id=0}, backend_config={"flag_configs":[],"scoped_memory_configs":[],"used_scoped_memory_configs":[],"aliasing_operands":{"lists":[]}}
  %all-gather.341 = bf16[1,1536,128,192]{2,1,3,0:T(8,128)(2,1)} all-gather(%dynamic-slice_convert_fusion.41), channel_id=284, replica_groups=mesh['axis_0'=4,'axis_1'=1,'axis_2'=1] {'axis_0'}, dimensions={1}, use_global_device_ids=true, metadata={op_name="jit(train_step)/jvp()/while/body/closed_call/dot_general" stack_frame_id=0}, backend_config={"flag_configs":[],"barrier_config":{"barrier_type":"CUSTOM","id":"0"},"scoped_memory_configs":[],"used_scoped_memory_configs":[],"aliasing_operands":{"lists":[]}}
  %bitcast.2567 = bf16[1536,128,192]{1,0,2:T(8,128)(2,1)} bitcast(%all-gather.341), metadata={op_name="jit(train_step)/jvp()/while/body/closed_call/dot_general" stack_frame_id=0}
  %copy.1595 = bf16[1536,128,192]{0,2,1:T(8,128)(2,1)} copy(%bitcast.2567), metadata={op_name="jit(train_step)/jvp()/while/body/closed_call/dot_general" stack_frame_id=0}, backend_config={"flag_configs":[],"scoped_memory_configs":[],"used_scoped_memory_configs":[],"aliasing_operands":{"lists":[]}}
  %get-tuple-element.8905 = bf16[3,128,1536]{2,1,0:T(8,128)(2,1)} get-tuple-element(%wide.param.5), index=24
  %dynamic-slice_convert_fusion.42 = bf16[1,128,1536]{2,1,0:T(8,128)(2,1)S(1)} fusion(%get-tuple-element.8905, %copy.1644), kind=kLoop, calls=%fused_computation.140.clone.1, metadata={op_name="jit(train_step)/jvp()/while/body/closed_call/convert_element_type" stack_frame_id=0}, backend_config={"flag_configs":[],"scoped_memory_configs":[],"used_scoped_memory_configs":[],"aliasing_operands":{"lists":[]}}
  %all-gather.342 = bf16[1,512,1536]{2,1,0:T(8,128)(2,1)S(1)} all-gather(%dynamic-slice_convert_fusion.42), channel_id=283, replica_groups=mesh['axis_0'=4,'axis_1'=1] {'axis_0'}, dimensions={1}, use_global_device_ids=true, metadata={op_name="jit(train_step)/jvp()/while/body/closed_call/dot_general" stack_frame_id=0}, backend_config={"flag_configs":[],"barrier_config":{"barrier_type":"CUSTOM","id":"0"},"scoped_memory_configs":[],"used_scoped_memory_configs":[],"aliasing_operands":{"lists":[]}}
  %fusion.1127 = f32[128]{0:T(128)S(1)} fusion(%get-tuple-element.8822), kind=kLoop, calls=%fused_computation.158.clone.1, metadata={op_name="jit(train_step)/jvp()/while/body/closed_call/reduce_sum" stack_frame_id=0}, backend_config={"flag_configs":[],"scoped_memory_configs":[],"used_scoped_memory_configs":[],"aliasing_operands":{"lists":[]}}
  %add_rsqrt_fusion.11 = f32[128]{0:T(128)S(1)} fusion(%fusion.1127), kind=kLoop, calls=%fused_computation.205.clone.1, metadata={op_name="jit(train_step)/jvp()/while/body/closed_call/rsqrt" stack_frame_id=0}, backend_config={"flag_configs":[],"scoped_memory_configs":[],"used_scoped_memory_configs":[],"aliasing_operands":{"lists":[]}}
  %get-tuple-element.8902 = bf16[3,512]{1,0:T(4,128)(2,1)} get-tuple-element(%wide.param.5), index=21
  %get-tuple-element.8904 = bf16[3,512]{1,0:T(4,128)(2,1)} get-tuple-element(%wide.param.5), index=23
  %fusion.1128 = (bf16[512]{0:T(512)(128)(2,1)S(1)}, bf16[512]{0:T(512)(128)(2,1)S(1)}) fusion(%get-tuple-element.8902, %copy.1644, %get-tuple-element.8904), kind=kLoop, calls=%fused_computation.197.clone.1, metadata={op_name="jit(train_step)/jvp()/while/body/closed_call/convert_element_type" stack_frame_id=0}, backend_config={"flag_configs":[],"scoped_memory_configs":[],"used_scoped_memory_configs":[],"fusion_formation_source":{"fusion_creating_compiler_pass":"TpuAdvancedMOF","fusion_id":"42"},"aliasing_operands":{"lists":[]}}
  %get-tuple-element.8744 = bf16[512]{0:T(512)(128)(2,1)S(1)} get-tuple-element(%fusion.1128), index=1, metadata={op_name="jit(train_step)/jvp()/while/body/closed_call/convert_element_type" stack_frame_id=0}
  %multiply_reduce_fusion.96 = (f32[128]{0:T(128)S(1)}, f32[1,128,1536]{2,1,0:T(8,128)S(1)}) fusion(%all-gather.342, %get-tuple-element.8822, %add_rsqrt_fusion.11, %get-tuple-element.8744), kind=kOutput, calls=%fused_computation.139.clone.1, metadata={op_name="jit(train_step)/jvp()/while/body/closed_call/dot_general" stack_frame_id=0}, backend_config={"flag_configs":[],"scoped_memory_configs":[],"used_scoped_memory_configs":[],"aliasing_operands":{"lists":[]}}
  %get-tuple-element.8745 = f32[1,128,1536]{2,1,0:T(8,128)S(1)} get-tuple-element(%multiply_reduce_fusion.96), index=1, metadata={op_name="jit(train_step)/jvp()/while/body/closed_call/reduce_sum" stack_frame_id=0}
  %get-tuple-element.8746 = f32[128]{0:T(128)S(1)} get-tuple-element(%multiply_reduce_fusion.96), index=0, metadata={op_name="jit(train_step)/jvp()/while/body/closed_call/reduce_sum" stack_frame_id=0}
  %add_rsqrt_fusion.12 = f32[128]{0:T(128)S(1)} fusion(%get-tuple-element.8746), kind=kLoop, calls=%fused_computation.204.clone.1, metadata={op_name="jit(train_step)/jvp()/while/body/closed_call/rsqrt" stack_frame_id=0}, backend_config={"flag_configs":[],"scoped_memory_configs":[],"used_scoped_memory_configs":[],"aliasing_operands":{"lists":[]}}
  %get-tuple-element.8903 = bf16[3,384]{1,0:T(4,128)(2,1)} get-tuple-element(%wide.param.5), index=22
  %fusion.1129 = bf16[1,384]{1,0:T(2,128)(2,1)S(1)} fusion(%get-tuple-element.8903, %copy.1644), kind=kLoop, calls=%fused_computation.200.clone.1, metadata={op_name="jit(train_step)/jvp()/while/body/closed_call/convert_element_type" stack_frame_id=0}, backend_config={"flag_configs":[],"scoped_memory_configs":[],"used_scoped_memory_configs":[],"aliasing_operands":{"lists":[]}}
  %all-gather.343 = bf16[1,1536]{1,0:T(2,128)(2,1)S(1)} all-gather(%fusion.1129), channel_id=282, replica_groups=mesh['axis_0'=4] {'axis_0'}, dimensions={1}, use_global_device_ids=true, metadata={op_name="jit(train_step)/jvp()/while/body/closed_call/...k,k->...k/dot_general" stack_frame_id=0}, backend_config={"flag_configs":[],"barrier_config":{"barrier_type":"CUSTOM","id":"0"},"scoped_memory_configs":[],"used_scoped_memory_configs":[],"aliasing_operands":{"lists":[]}}
  %reduce.884 = bf16[1536]{0:T(1024)(128)(2,1)S(1)} reduce(%all-gather.343, %constant.4192..sunk.1), dimensions={0}, to_apply=%all-gather.290.reduce_sub_computation, metadata={op_name="jit(train_step)/jvp()/while/body/closed_call/...k,k->...k/dot_general" stack_frame_id=0}, backend_config={"flag_configs":[],"scoped_memory_configs":[],"used_scoped_memory_configs":[],"aliasing_operands":{"lists":[]}}
  %convolution_bitcast_fusion.10 = bf16[1,128,128,192]{3,1,2,0:T(8,128)(2,1)S(1)} fusion(%copy.1595, %get-tuple-element.8745, %add_rsqrt_fusion.12, %reduce.884), kind=kOutput, calls=%fused_computation.131.clone.1, metadata={op_name="jit(train_step)/jvp()/while/body/closed_call/dot_general" stack_frame_id=0}, backend_config={"flag_configs":[],"scoped_memory_configs":[],"used_scoped_memory_configs":[],"aliasing_operands":{"lists":[]}}
  %slice.1444 = bf16[1,128,128,64]{3,1,2,0:T(8,128)(2,1)S(1)} slice(%convolution_bitcast_fusion.10), slice={[0:1], [0:128], [0:128], [128:192]}, metadata={op_name="jit(train_step)/jvp()/while/body/closed_call/split" stack_frame_id=0}, backend_config={"flag_configs":[],"scoped_memory_configs":[],"used_scoped_memory_configs":[],"aliasing_operands":{"lists":[]}}
  %copy.1596 = bf16[1,128,128,64]{2,1,3,0:T(8,128)(2,1)S(1)} copy(%slice.1444), metadata={op_name="jit(train_step)/jvp()/while/body/closed_call/split" stack_frame_id=0}, backend_config={"flag_configs":[],"scoped_memory_configs":[],"used_scoped_memory_configs":[],"aliasing_operands":{"lists":[]}}
  %bitcast.2611 = bf16[1,128,128,32,2]{2,1,4,3,0:T(8,128)(2,1)S(1)} bitcast(%copy.1596)
  %fusion.1130 = (bf16[1,128,128,32,1]{2,1,4,3,0:T(8,128)(2,1)S(1)}, bf16[1,128,128,32,1]{2,1,4,3,0:T(8,128)(2,1)S(1)}) fusion(%bitcast.2611), kind=kLoop, calls=%fused_computation.1415.clone.1, metadata={op_name="jit(train_step)/jvp()/while/body/closed_call/slice" stack_frame_id=0}, backend_config={"flag_configs":[],"scoped_memory_configs":[],"used_scoped_memory_configs":[],"aliasing_operands":{"lists":[]}}
  %get-tuple-element.8747 = bf16[1,128,128,32,1]{2,1,4,3,0:T(8,128)(2,1)S(1)} get-tuple-element(%fusion.1130), index=1, metadata={op_name="jit(train_step)/jvp()/while/body/closed_call/slice" stack_frame_id=0}
  %copy.1597 = bf16[1,128,128,32,1]{3,1,2,4,0:T(8,128)(2,1)S(1)} copy(%get-tuple-element.8747), backend_config={"flag_configs":[],"scoped_memory_configs":[],"used_scoped_memory_configs":[],"aliasing_operands":{"lists":[]}}
  %get-tuple-element.8748 = bf16[1,128,128,32,1]{2,1,4,3,0:T(8,128)(2,1)S(1)} get-tuple-element(%fusion.1130), index=0, metadata={op_name="jit(train_step)/jvp()/while/body/closed_call/slice" stack_frame_id=0}
  %copy.1598 = bf16[1,128,128,32,1]{3,1,2,4,0:T(8,128)(2,1)S(1)} copy(%get-tuple-element.8748), backend_config={"flag_configs":[],"scoped_memory_configs":[],"used_scoped_memory_configs":[],"aliasing_operands":{"lists":[]}}
  %get-tuple-element.8935 = f32[128,32]{1,0:T(8,128)S(1)} get-tuple-element(%wide.param.5), index=54
  %get-tuple-element.8934 = f32[128,32]{1,0:T(8,128)S(1)} get-tuple-element(%wide.param.5), index=53
  %fusion.1131 = (bf16[1,128,128,32]{3,1,2,0:T(8,128)(2,1)S(1)}, bf16[1,128,128,32]{3,1,2,0:T(8,128)(2,1)S(1)}) fusion(%copy.1597, %copy.1598, %get-tuple-element.8935, %get-tuple-element.8934), kind=kLoop, calls=%fused_computation.126.clone.1, metadata={op_name="convert.317"}, backend_config={"flag_configs":[],"scoped_memory_configs":[],"used_scoped_memory_configs":[],"aliasing_operands":{"lists":[]}}
  %get-tuple-element.8749 = bf16[1,128,128,32]{3,1,2,0:T(8,128)(2,1)S(1)} get-tuple-element(%fusion.1131), index=1, metadata={op_name="convert.317"}
  %get-tuple-element.8750 = bf16[1,128,128,32]{3,1,2,0:T(8,128)(2,1)S(1)} get-tuple-element(%fusion.1131), index=0, metadata={op_name="convert.317"}
  %slice.1445 = bf16[1,128,128,128]{3,1,2,0:T(8,128)(2,1)S(1)} slice(%convolution_bitcast_fusion.10), slice={[0:1], [0:128], [0:128], [0:128]}, metadata={op_name="jit(train_step)/jvp()/while/body/closed_call/split" stack_frame_id=0}, backend_config={"flag_configs":[],"scoped_memory_configs":[],"used_scoped_memory_configs":[],"aliasing_operands":{"lists":[]}}
  %fusion.1132 = bf16[128,128,192]{2,1,0:T(8,128)(2,1)S(1)} fusion(%get-tuple-element.8749, %get-tuple-element.8750, %slice.1445), kind=kLoop, calls=%fused_computation.119.clone.1, metadata={op_name="jit(train_step)/jvp()/while/body/closed_call/shard_map/vmap(static_sparsity_splash)/jit(_splash_attention)/splash_mha_fwd_segmented_residuals/splash_mha_fwd_segmented_residuals/squeeze" stack_frame_id=0}, backend_config={"flag_configs":[],"scoped_memory_configs":[],"used_scoped_memory_configs":[],"aliasing_operands":{"lists":[]}}
  %get-tuple-element.8908 = bf16[3,128,576]{2,1,0:T(8,128)(2,1)S(1)} get-tuple-element(%wide.param.5), index=27
  %dynamic-slice_convert_fusion.43 = bf16[1,128,576]{2,1,0:T(8,128)(2,1)S(1)} fusion(%get-tuple-element.8908, %copy.1644), kind=kLoop, calls=%fused_computation.155.clone.1, metadata={op_name="jit(train_step)/jvp()/while/body/closed_call/convert_element_type" stack_frame_id=0}, backend_config={"flag_configs":[],"scoped_memory_configs":[],"used_scoped_memory_configs":[],"aliasing_operands":{"lists":[]}}
  %all-gather.344 = bf16[1,512,576]{2,1,0:T(8,128)(2,1)S(1)} all-gather(%dynamic-slice_convert_fusion.43), channel_id=286, replica_groups=mesh['axis_0'=4,'axis_1'=1] {'axis_0'}, dimensions={1}, use_global_device_ids=true, metadata={op_name="jit(train_step)/jvp()/while/body/closed_call/dot_general" stack_frame_id=0}, backend_config={"flag_configs":[],"barrier_config":{"barrier_type":"CUSTOM","id":"0"},"scoped_memory_configs":[],"used_scoped_memory_configs":[],"aliasing_operands":{"lists":[]}}
  %fusion.1133 = bf16[1,128,576]{1,2,0:T(8,128)(2,1)S(1)} fusion(%all-gather.344, %get-tuple-element.8822, %add_rsqrt_fusion.11, %get-tuple-element.8744), kind=kOutput, calls=%fused_computation.143.clone.1, metadata={op_name="jit(train_step)/jvp()/while/body/closed_call/dot_general" stack_frame_id=0}, backend_config={"flag_configs":[],"scoped_memory_configs":[],"used_scoped_memory_configs":[],"aliasing_operands":{"lists":[]}}
  %slice.1446 = bf16[1,128,64]{1,2,0:T(8,128)(2,1)S(1)} slice(%fusion.1133), slice={[0:1], [0:128], [512:576]}, metadata={op_name="jit(train_step)/jvp()/while/body/closed_call/split" stack_frame_id=0}, backend_config={"flag_configs":[],"scoped_memory_configs":[],"used_scoped_memory_configs":[],"aliasing_operands":{"lists":[]}}
  %bitcast.2682 = bf16[1,128,1,32,2]{1,4,3,2,0:T(2,128)(2,1)S(1)} bitcast(%slice.1446)
  %fusion.1134 = (bf16[1,128,1,32,1]{1,4,3,2,0:T(2,128)(2,1)S(1)}, bf16[1,128,1,32,1]{1,4,3,2,0:T(2,128)(2,1)S(1)}) fusion(%bitcast.2682), kind=kLoop, calls=%fused_computation.1416.clone.1, metadata={op_name="jit(train_step)/jvp()/while/body/closed_call/slice" stack_frame_id=0}, backend_config={"flag_configs":[],"scoped_memory_configs":[],"used_scoped_memory_configs":[],"aliasing_operands":{"lists":[]}}
  %get-tuple-element.8751 = bf16[1,128,1,32,1]{1,4,3,2,0:T(2,128)(2,1)S(1)} get-tuple-element(%fusion.1134), index=1, metadata={op_name="jit(train_step)/jvp()/while/body/closed_call/slice" stack_frame_id=0}
  %copy.1599 = bf16[1,128,1,32,1]{3,1,4,2,0:T(8,128)(2,1)S(1)} copy(%get-tuple-element.8751), backend_config={"flag_configs":[],"scoped_memory_configs":[],"used_scoped_memory_configs":[],"aliasing_operands":{"lists":[]}}
  %get-tuple-element.8752 = bf16[1,128,1,32,1]{1,4,3,2,0:T(2,128)(2,1)S(1)} get-tuple-element(%fusion.1134), index=0, metadata={op_name="jit(train_step)/jvp()/while/body/closed_call/slice" stack_frame_id=0}
  %copy.1600 = bf16[1,128,1,32,1]{3,1,4,2,0:T(8,128)(2,1)S(1)} copy(%get-tuple-element.8752), backend_config={"flag_configs":[],"scoped_memory_configs":[],"used_scoped_memory_configs":[],"aliasing_operands":{"lists":[]}}
  %bitcast.2669 = f32[1,128,1,32]{3,1,2,0:T(8,128)S(1)} bitcast(%get-tuple-element.8935)
  %bitcast.2666 = f32[1,128,1,32]{3,1,2,0:T(8,128)S(1)} bitcast(%get-tuple-element.8934)
  %fusion.1135 = (bf16[1,128,32]{2,1,0:T(8,128)(2,1)S(1)}, bf16[1,128,32]{2,1,0:T(8,128)(2,1)S(1)}) fusion(%bitcast.2669, %bitcast.2666, %copy.1599, %copy.1600), kind=kLoop, calls=%fused_computation.179.clone.1, metadata={op_name="convert.315"}, backend_config={"flag_configs":[],"scoped_memory_configs":[],"used_scoped_memory_configs":[],"aliasing_operands":{"lists":[]}}
  %get-tuple-element.8753 = bf16[1,128,32]{2,1,0:T(8,128)(2,1)S(1)} get-tuple-element(%fusion.1135), index=1, metadata={op_name="convert.315"}
  %get-tuple-element.8754 = bf16[1,128,32]{2,1,0:T(8,128)(2,1)S(1)} get-tuple-element(%fusion.1135), index=0, metadata={op_name="convert.315"}
  %maximum_bitcast_fusion.27 = bf16[128,64]{1,0:T(8,128)(2,1)S(1)} fusion(%get-tuple-element.8753, %get-tuple-element.8754), kind=kLoop, calls=%fused_computation.191.clone.1, metadata={op_name="jit(train_step)/jvp()/while/body/closed_call/concatenate" stack_frame_id=0}, backend_config={"flag_configs":[],"scoped_memory_configs":[],"used_scoped_memory_configs":[],"aliasing_operands":{"lists":[]}}
  %broadcast_in_dim.1649 = bf16[1,128,128,64]{3,1,2,0:T(8,128)(2,1)S(1)} broadcast(%maximum_bitcast_fusion.27), dimensions={1,3}, metadata={op_name="jit(train_step)/jvp()/while/body/closed_call/broadcast_in_dim" stack_frame_id=0}, backend_config={"flag_configs":[],"scoped_memory_configs":[],"used_scoped_memory_configs":[],"output_chunk_bound_config":{"output_chunk_bound":["8","128"]},"aliasing_operands":{"lists":[]}}
  %get-tuple-element.8909 = bf16[3,128,128,256]{3,1,2,0:T(8,128)(2,1)} get-tuple-element(%wide.param.5), index=28
  %dynamic-slice_convert_fusion.44 = bf16[1,128,128,256]{3,1,2,0:T(8,128)(2,1)S(1)} fusion(%get-tuple-element.8909, %copy.1644), kind=kLoop, calls=%fused_computation.110.clone.1, metadata={op_name="jit(train_step)/jvp()/while/body/closed_call/convert_element_type" stack_frame_id=0}, backend_config={"flag_configs":[],"scoped_memory_configs":[],"used_scoped_memory_configs":[],"aliasing_operands":{"lists":[]}}
  %get-tuple-element.8907 = bf16[3,128]{1,0:T(4,128)(2,1)} get-tuple-element(%wide.param.5), index=26
  %copy-start.242 = (bf16[3,128]{1,0:T(4,128)(2,1)S(1)}, bf16[3,128]{1,0:T(4,128)(2,1)}, u32[]{:S(2)}) copy-start(%get-tuple-element.8907)
  %all-gather.345 = bf16[1,512,128,256]{3,1,2,0:T(8,128)(2,1)S(1)} all-gather(%dynamic-slice_convert_fusion.44), channel_id=287, replica_groups=mesh['axis_0'=4,'axis_1'=1,'axis_2'=1] {'axis_0'}, dimensions={1}, use_global_device_ids=true, metadata={op_name="jit(train_step)/jvp()/while/body/closed_call/dot_general" stack_frame_id=0}, backend_config={"flag_configs":[],"barrier_config":{"barrier_type":"CUSTOM","id":"0"},"scoped_memory_configs":[],"used_scoped_memory_configs":[],"aliasing_operands":{"lists":[]}}
  %fusion.1136 = f32[128]{0:T(128)S(1)} fusion(%fusion.1133), kind=kLoop, calls=%fused_computation.160.clone.1, metadata={op_name="jit(train_step)/jvp()/while/body/closed_call/reduce_sum" stack_frame_id=0}, backend_config={"flag_configs":[],"scoped_memory_configs":[],"used_scoped_memory_configs":[],"aliasing_operands":{"lists":[]}}
  %add_rsqrt_fusion.13 = f32[128]{0:T(128)S(1)} fusion(%fusion.1136), kind=kLoop, calls=%fused_computation.203.clone.1, metadata={op_name="jit(train_step)/jvp()/while/body/closed_call/rsqrt" stack_frame_id=0}, backend_config={"flag_configs":[],"scoped_memory_configs":[],"used_scoped_memory_configs":[],"aliasing_operands":{"lists":[]}}
  %copy-done.242 = bf16[3,128]{1,0:T(4,128)(2,1)S(1)} copy-done(%copy-start.242)
  %fusion.1137 = bf16[1,128]{1,0:T(2,128)(2,1)S(1)} fusion(%copy-done.242, %copy.1644), kind=kLoop, calls=%fused_computation.201.clone.1, metadata={op_name="jit(train_step)/jvp()/while/body/closed_call/convert_element_type" stack_frame_id=0}, backend_config={"flag_configs":[],"scoped_memory_configs":[],"used_scoped_memory_configs":[],"aliasing_operands":{"lists":[]}}
  %all-gather.346 = bf16[1,512]{1,0:T(2,128)(2,1)S(1)} all-gather(%fusion.1137), channel_id=285, replica_groups=mesh['axis_0'=4] {'axis_0'}, dimensions={1}, use_global_device_ids=true, metadata={op_name="jit(train_step)/jvp()/while/body/closed_call/...k,k->...k/dot_general" stack_frame_id=0}, backend_config={"flag_configs":[],"barrier_config":{"barrier_type":"CUSTOM","id":"0"},"scoped_memory_configs":[],"used_scoped_memory_configs":[],"aliasing_operands":{"lists":[]}}
  %reduce.885 = bf16[512]{0:T(512)(128)(2,1)S(1)} reduce(%all-gather.346, %constant.4192..sunk.1), dimensions={0}, to_apply=%all-gather.293.reduce_sub_computation, metadata={op_name="jit(train_step)/jvp()/while/body/closed_call/...k,k->...k/dot_general" stack_frame_id=0}, backend_config={"flag_configs":[],"scoped_memory_configs":[],"used_scoped_memory_configs":[],"aliasing_operands":{"lists":[]}}
  %fusion.1138 = bf16[1,128,128,256]{3,1,2,0:T(8,128)(2,1)S(1)} fusion(%all-gather.345, %add_rsqrt_fusion.13, %fusion.1133, %reduce.885), kind=kOutput, calls=%fused_computation.130.clone.1, metadata={op_name="jit(train_step)/jvp()/while/body/closed_call/dot_general" stack_frame_id=0}, backend_config={"flag_configs":[],"scoped_memory_configs":[],"used_scoped_memory_configs":[],"aliasing_operands":{"lists":[]}}
  %get-tuple-element.8936 = s32[128]{0:T(128)} get-tuple-element(%wide.param.5), index=55
  %copy-start.216 = (s32[128]{0:T(128)S(1)}, s32[128]{0:T(128)}, u32[]{:S(2)}) copy-start(%get-tuple-element.8936)
  %slice_bitcast_fusion.11 = (bf16[128,128,128]{2,1,0:T(8,128)(2,1)S(1)}, bf16[1,128,128,128]{3,1,2,0:T(8,128)(2,1)S(1)}) fusion(%fusion.1138), kind=kLoop, calls=%fused_computation.132.clone.1, metadata={op_name="jit(train_step)/jvp()/while/body/closed_call/shard_map/vmap(static_sparsity_splash)/jit(_splash_attention)/splash_mha_fwd_segmented_residuals/splash_mha_fwd_segmented_residuals/squeeze" stack_frame_id=0}, backend_config={"flag_configs":[],"scoped_memory_configs":[],"used_scoped_memory_configs":[],"aliasing_operands":{"lists":[]}}
  %get-tuple-element.8755 = bf16[1,128,128,128]{3,1,2,0:T(8,128)(2,1)S(1)} get-tuple-element(%slice_bitcast_fusion.11), index=1, metadata={op_name="jit(train_step)/jvp()/while/body/closed_call/shard_map/vmap(static_sparsity_splash)/jit(_splash_attention)/splash_mha_fwd_segmented_residuals/splash_mha_fwd_segmented_residuals/squeeze" stack_frame_id=0}
  %bitcast.2582 = s8[16777216]{0:T(1024)(128)(4,1)} bitcast(%all-gather.340)
  %slice-start.21 = ((s8[16777216]{0:T(1024)(128)(4,1)}), s8[4194304]{0:T(1024)(128)(4,1)S(1)}, s32[]{:S(2)}) async-start(%bitcast.2582), calls=%async_computation.48
  %slice-start.22 = ((s8[16777216]{0:T(1024)(128)(4,1)}), s8[4194304]{0:T(1024)(128)(4,1)S(1)}, s32[]{:S(2)}) async-start(%bitcast.2582), calls=%async_computation.49
  %maximum_bitcast_fusion.28 = bf16[128,128,192]{2,1,0:T(8,128)(2,1)S(1)} fusion(%broadcast_in_dim.1649, %get-tuple-element.8755), kind=kLoop, calls=%fused_computation.120.clone.1, metadata={op_name="jit(train_step)/jvp()/while/body/closed_call/shard_map/vmap(static_sparsity_splash)/jit(_splash_attention)/splash_mha_fwd_segmented_residuals/splash_mha_fwd_segmented_residuals/squeeze" stack_frame_id=0}, backend_config={"flag_configs":[],"scoped_memory_configs":[],"used_scoped_memory_configs":[],"aliasing_operands":{"lists":[]}}
  %get-tuple-element.8756 = bf16[128,128,128]{2,1,0:T(8,128)(2,1)S(1)} get-tuple-element(%slice_bitcast_fusion.11), index=0, metadata={op_name="jit(train_step)/jvp()/while/body/closed_call/shard_map/vmap(static_sparsity_splash)/jit(_splash_attention)/splash_mha_fwd_segmented_residuals/splash_mha_fwd_segmented_residuals/squeeze" stack_frame_id=0}
  %copy-done.216 = s32[128]{0:T(128)S(1)} copy-done(%copy-start.216)
  %squeeze.946 = s32[128,128]{1,0:T(8,128)S(1)} broadcast(%copy-done.216), dimensions={0}, metadata={op_name="jit(train_step)/shard_map/vmap(static_sparsity_splash)/jit(_splash_attention)/splash_mha_fwd_segmented_residuals/splash_mha_fwd_segmented_residuals/squeeze" stack_frame_id=0}, backend_config={"flag_configs":[],"scoped_memory_configs":[],"used_scoped_memory_configs":[],"output_chunk_bound_config":{"output_chunk_bound":["8"]},"aliasing_operands":{"lists":[]}}
  %squeeze.947 = s32[8,128]{1,0:T(8,128)S(1)} broadcast(%copy-done.216), dimensions={1}, metadata={op_name="jit(train_step)/shard_map/vmap(static_sparsity_splash)/jit(_splash_attention)/splash_mha_fwd_segmented_residuals/splash_mha_fwd_segmented_residuals/squeeze" stack_frame_id=0}, backend_config={"flag_configs":[],"scoped_memory_configs":[],"used_scoped_memory_configs":[],"output_chunk_bound_config":{"output_chunk_bound":["128"]},"aliasing_operands":{"lists":[]}}
  %iota.360 = s32[128,128]{1,0:T(8,128)S(1)} iota(), iota_dimension=0, metadata={op_name="jit(train_step)/shard_map/vmap(static_sparsity_splash)/jit(_splash_attention)/broadcast_in_dim" stack_frame_id=0}, backend_config={"flag_configs":[],"scoped_memory_configs":[],"used_scoped_memory_configs":[],"aliasing_operands":{"lists":[]}}
  %slice-start.23 = ((s8[16777216]{0:T(1024)(128)(4,1)}), s8[4194304]{0:T(1024)(128)(4,1)S(1)}, s32[]{:S(2)}) async-start(%bitcast.2582), calls=%async_computation.50
  %slice-start.24 = ((s8[16777216]{0:T(1024)(128)(4,1)}), s8[4194304]{0:T(1024)(128)(4,1)S(1)}, s32[]{:S(2)}) async-start(%bitcast.2582), calls=%async_computation.51
…
  %mul.3850 = f32[1,128,128,32]{3,1,2,0:T(8,128)} subtract(%mul.3916, %mul.3851), metadata={op_name="jit(train_step)/transpose(jvp())/while/body/closed_call/checkpoint/rematted_computation/mul" stack_frame_id=0}
  %convert.527 = bf16[1,128,128,32]{3,1,2,0:T(8,128)(2,1)} convert(%mul.3850), metadata={op_name="convert.378" stack_frame_id=0}
  %mul.3915.clone.1 = f32[1,128,128,32]{3,1,2,0:T(8,128)} multiply(%add.3326, %broadcast_in_dim.1466), metadata={op_name="jit(train_step)/transpose(jvp())/while/body/closed_call/checkpoint/rematted_computation/mul" stack_frame_id=0}
  %mul.3858.clone.1 = f32[1,128,128,32]{3,1,2,0:T(8,128)} multiply(%bitcast.1419, %broadcast_in_dim.1470), metadata={op_name="jit(train_step)/transpose(jvp())/while/body/closed_call/checkpoint/rematted_computation/mul" stack_frame_id=0}
  %mul.3857.clone.1 = f32[1,128,128,32]{3,1,2,0:T(8,128)} add(%mul.3915.clone.1, %mul.3858.clone.1), metadata={op_name="jit(train_step)/transpose(jvp())/while/body/closed_call/checkpoint/rematted_computation/mul" stack_frame_id=0}
  %convert.528.clone.1 = bf16[1,128,128,32]{3,1,2,0:T(8,128)(2,1)} convert(%mul.3857.clone.1), metadata={op_name="convert.379" stack_frame_id=0}
  ROOT %tuple.667 = (bf16[1,128,128,32]{3,1,2,0:T(8,128)(2,1)}, bf16[1,128,128,32]{3,1,2,0:T(8,128)(2,1)}) tuple(%convert.527, %convert.528.clone.1)
}

%fused_computation.657 (param_0.2067: bf16[1,128,128,32], param_1.4743: bf16[1,128,128,32], param_2.3579: bf16[1,128,128,128]) -> bf16[128,128,192] {
  %param_2.3579 = bf16[1,128,128,128]{3,1,2,0:T(8,128)(2,1)S(1)} parameter(2)
  %constant.1746.clone.23 = bf16[]{:T(256)} constant(-inf)
  %pad.288 = bf16[1,128,128,192]{3,1,2,0:T(8,128)(2,1)} pad(%param_2.3579, %constant.1746.clone.23), padding=0_0x0_0x0_0x0_64, metadata={op_name="jit(train_step)/transpose(jvp())/while/body/closed_call/checkpoint/rematted_computation/concatenate" stack_frame_id=0}
  %convert.684 = f32[1,128,128,192]{3,1,2,0:T(8,128)} convert(%pad.288)
  %param_1.4743 = bf16[1,128,128,32]{3,1,2,0:T(8,128)(2,1)} parameter(1)
  %pad.287 = bf16[1,128,128,192]{3,1,2,0:T(8,128)(2,1)} pad(%param_1.4743, %constant.1746.clone.23), padding=0_0x0_0x0_0x128_32, metadata={op_name="jit(train_step)/transpose(jvp())/while/body/closed_call/checkpoint/rematted_computation/concatenate" stack_frame_id=0}
  %convert.685 = f32[1,128,128,192]{3,1,2,0:T(8,128)} convert(%pad.287)
  %maximum.53 = f32[1,128,128,192]{3,1,2,0:T(8,128)} maximum(%convert.684, %convert.685), metadata={op_name="jit(train_step)/transpose(jvp())/while/body/closed_call/checkpoint/rematted_computation/concatenate" stack_frame_id=0}, backend_config={"flag_configs":[],"scoped_memory_configs":[],"used_scoped_memory_configs":[],"float_type_correction_info":{"original_type":"BF16","original_shape":{"element_type":"BF16","dimensions":["1","128","128","192"],"tuple_shapes":[],"layout":{"minor_to_major":["3","1","2","0"],"tiles":[{"dimensions":["8","128"]},{"dimensions":["2","1"]}],"element_size_in_bits":"0","memory_space":"0","dim_level_types":[],"index_primitive_type":"PRIMITIVE_TYPE_INVALID","pointer_primitive_type":"PRIMITIVE_TYPE_INVALID","dim_unique":[],"dim_ordered":[],"dynamic_shape_metadata_prefix_bytes":"0","tail_padding_alignment_in_elements":"1","split_configs":[]},"is_dynamic_dimension":[false,false,false,false]}}}
  %param_0.2067 = bf16[1,128,128,32]{3,1,2,0:T(8,128)(2,1)} parameter(0)
  %pad.286 = bf16[1,128,128,192]{3,1,2,0:T(8,128)(2,1)} pad(%param_0.2067, %constant.1746.clone.23), padding=0_0x0_0x0_0x160_0, metadata={op_name="jit(train_step)/transpose(jvp())/while/body/closed_call/checkpoint/rematted_computation/concatenate" stack_frame_id=0}
  %convert.686 = f32[1,128,128,192]{3,1,2,0:T(8,128)} convert(%pad.286)
  %maximum.52 = f32[1,128,128,192]{3,1,2,0:T(8,128)} maximum(%maximum.53, %convert.686), metadata={op_name="jit(train_step)/transpose(jvp())/while/body/closed_call/checkpoint/rematted_computation/concatenate" stack_frame_id=0}, backend_config={"flag_configs":[],"scoped_memory_configs":[],"used_scoped_memory_configs":[],"float_type_correction_info":{"original_type":"BF16","original_shape":{"element_type":"BF16","dimensions":["1","128","128","192"],"tuple_shapes":[],"layout":{"minor_to_major":["3","1","2","0"],"tiles":[{"dimensions":["8","128"]},{"dimensions":["2","1"]}],"element_size_in_bits":"0","memory_space":"0","dim_level_types":[],"index_primitive_type":"PRIMITIVE_TYPE_INVALID","pointer_primitive_type":"PRIMITIVE_TYPE_INVALID","dim_unique":[],"dim_ordered":[],"dynamic_shape_metadata_prefix_bytes":"0","tail_padding_alignment_in_elements":"1","split_configs":[]},"is_dynamic_dimension":[false,false,false,false]}}}
  %constant.1684.clone.2 = bf16[]{:T(256)} constant(0.1348), metadata={stack_frame_id=0}
  %mul.3949 = bf16[1,128,128,192]{3,1,2,0:T(8,128)(2,1)} broadcast(%constant.1684.clone.2), dimensions={}, metadata={op_name="jit(train_step)/jvp()/while/body/closed_call/mul" stack_frame_id=0}
  %convert.687 = f32[1,128,128,192]{3,1,2,0:T(8,128)} convert(%mul.3949)
  %mul.3833 = f32[1,128,128,192]{3,1,2,0:T(8,128)} multiply(%maximum.52, %convert.687), metadata={op_name="jit(train_step)/transpose(jvp())/while/body/closed_call/checkpoint/rematted_computation/mul" stack_frame_id=0}, backend_config={"flag_configs":[],"scoped_memory_configs":[],"used_scoped_memory_configs":[],"float_type_correction_info":{"original_type":"BF16","original_shape":{"element_type":"BF16","dimensions":["1","128","128","192"],"tuple_shapes":[],"layout":{"minor_to_major":["3","1","2","0"],"tiles":[{"dimensions":["8","128"]},{"dimensions":["2","1"]}],"element_size_in_bits":"0","memory_space":"0","dim_level_types":[],"index_primitive_type":"PRIMITIVE_TYPE_INVALID","pointer_primitive_type":"PRIMITIVE_TYPE_INVALID","dim_unique":[],"dim_ordered":[],"dynamic_shape_metadata_prefix_bytes":"0","tail_padding_alignment_in_elements":"1","split_configs":[]},"is_dynamic_dimension":[false,false,false,false]}}}
  %convert.688 = bf16[1,128,128,192]{3,1,2,0:T(8,128)(2,1)} convert(%mul.3833)
  ROOT %bitcast.1354 = bf16[128,128,192]{2,1,0:T(8,128)(2,1)S(1)} bitcast(%convert.688), metadata={op_name="jit(train_step)/transpose(jvp())/while/body/closed_call/checkpoint/rematted_computation/shard_map/vmap(static_sparsity_splash)/jit(_splash_attention)/splash_mha_fwd_segmented_residuals/splash_mha_fwd_segmented_residuals/squeeze" stack_frame_id=0}
}

%fused_computation.973 (param_0.2787: bf16[1,128,512]) -> bf16[128,512] {
  %param_0.2787 = bf16[1,128,512]{2,1,0:T(8,128)(2,1)S(1)} parameter(0)
  ROOT %bitcast.1737 = bf16[128,512]{1,0:T(8,128)(2,1)} bitcast(%param_0.2787), metadata={stack_frame_id=0}
}

%fused_computation.778.clone.clone (param_0.2260: bf16[512,1,576]) -> bf16[512,576] {
  %param_0.2260 = bf16[512,1,576]{0,2,1:T(8,128)(2,1)S(1)} parameter(0)
  ROOT %bitcast.1529 = bf16[512,576]{0,1:T(8,128)(2,1)} bitcast(%param_0.2260), metadata={op_name="jit(train_step)/jvp()/while/body/closed_call/dot_general" stack_frame_id=0}
}

%fused_computation.783 (param_0.2786: bf16[512,1,576], param_1.3050: bf16[1,128,512]) -> bf16[1,128,576] {
  %param_1.3050 = bf16[1,128,512]{2,1,0:T(8,128)(2,1)S(1)} parameter(1)
  %fusion.690 = bf16[128,512]{1,0:T(8,128)(2,1)} fusion(%param_1.3050), kind=kLoop, calls=%fused_computation.973, metadata={stack_frame_id=0}
  %param_0.2786 = bf16[512,1,576]{0,2,1:T(8,128)(2,1)S(1)} parameter(0)
  %fusion.515 = bf16[512,576]{0,1:T(8,128)(2,1)} fusion(%param_0.2786), kind=kLoop, calls=%fused_computation.778.clone.clone, metadata={op_name="jit(train_step)/jvp()/while/body/closed_call/dot_general" stack_frame_id=0}
  %convolution.209 = bf16[128,576]{0,1:T(8,128)(2,1)} convolution(%fusion.690, %fusion.515), dim_labels=bf_io->bf, metadata={op_name="jit(train_step)/transpose(jvp())/while/body/closed_call/checkpoint/rematted_computation/dot_general" stack_frame_id=0}
  ROOT %bitcast.1527 = bf16[1,128,576]{1,2,0:T(8,128)(2,1)S(1)} bitcast(%convolution.209), metadata={op_name="jit(train_step)/transpose(jvp())/while/body/closed_call/checkpoint/rematted_computation/dot_general" stack_frame_id=0}
}

%fused_computation.1429 (param_0.4320: bf16[1,128,1,32,2]) -> (bf16[1,128,1,32,1], bf16[1,128,1,32,1]) {
  %param_0.4320 = bf16[1,128,1,32,2]{1,4,3,2,0:T(2,128)(2,1)S(1)} parameter(0)
  %slice.1339 = bf16[1,128,1,32,1]{1,4,3,2,0:T(2,128)(2,1)S(1)} slice(%param_0.4320), slice={[0:1], [0:128], [0:1], [0:32], [0:1]}, metadata={op_name="jit(train_step)/transpose(jvp())/while/body/closed_call/checkpoint/rematted_computation/slice" stack_frame_id=0}
  %slice.1340 = bf16[1,128,1,32,1]{1,4,3,2,0:T(2,128)(2,1)S(1)} slice(%param_0.4320), slice={[0:1], [0:128], [0:1], [0:32], [1:2]}, metadata={op_name="jit(train_step)/transpose(jvp())/while/body/closed_call/checkpoint/rematted_computation/slice" stack_frame_id=0}
  ROOT %tuple.696 = (bf16[1,128,1,32,1]{1,4,3,2,0:T(2,128)(2,1)S(1)}, bf16[1,128,1,32,1]{1,4,3,2,0:T(2,128)(2,1)S(1)}) tuple(%slice.1339, %slice.1340)
}

%fused_computation.1027 (param_0.2945: f32[128,32], param_1.3280: f32[128,32], param_2.2308: bf16[1,128,1,32,1], param_3.1432: bf16[1,128,1,32,1]) -> (bf16[1,128,32], bf16[1,128,32]) {
  %param_3.1432 = bf16[1,128,1,32,1]{3,1,4,2,0:T(8,128)(2,1)S(1)} parameter(3)
  %convert_element_type.2801 = f32[1,128,1,32,1]{3,1,4,2,0:T(8,128)} convert(%param_3.1432), metadata={op_name="jit(train_step)/transpose(jvp())/while/body/closed_call/checkpoint/rematted_computation/convert_element_type" stack_frame_id=0}
  %bitcast.1800 = f32[1,128,32]{2,1,0:T(8,128)} bitcast(%convert_element_type.2801), metadata={op_name="jit(train_step)/transpose(jvp())/while/body/closed_call/checkpoint/rematted_computation/convert_element_type" stack_frame_id=0}
  %param_2.2308 = bf16[1,128,1,32,1]{3,1,4,2,0:T(8,128)(2,1)S(1)} parameter(2)
  %convert_element_type.2799 = f32[1,128,1,32,1]{3,1,4,2,0:T(8,128)} convert(%param_2.2308), metadata={op_name="jit(train_step)/transpose(jvp())/while/body/closed_call/checkpoint/rematted_computation/convert_element_type" stack_frame_id=0}
  %bitcast.1798 = f32[1,128,32]{2,1,0:T(8,128)} bitcast(%convert_element_type.2799), metadata={op_name="jit(train_step)/transpose(jvp())/while/body/closed_call/checkpoint/rematted_computation/convert_element_type" stack_frame_id=0}
  %constant.1730.clone.86 = f32[]{:T(128)} constant(0)
  %convert_element_type.2819 = f32[1,128,32]{2,1,0:T(8,128)} broadcast(%constant.1730.clone.86), dimensions={}, metadata={op_name="jit(train_step)/jvp()/while/body/closed_call/convert_element_type" stack_frame_id=0}
  %mul.4320 = f32[1,128,32]{2,1,0:T(8,128)} multiply(%bitcast.1798, %convert_element_type.2819), metadata={op_name="jit(train_step)/transpose(jvp())/while/body/closed_call/checkpoint/rematted_computation/mul" stack_frame_id=0}
  %add.3426 = f32[1,128,32]{2,1,0:T(8,128)} add(%bitcast.1800, %mul.4320), metadata={op_name="jit(train_step)/transpose(jvp())/while/body/closed_call/checkpoint/rematted_computation/add" stack_frame_id=0}
  %param_1.3280 = f32[128,32]{1,0:T(8,128)S(1)} parameter(1)
  %bitcast.1789 = f32[1,128,32]{2,1,0:T(8,128)} bitcast(%param_1.3280), metadata={op_name="jit(train_step)/transpose(jvp())/while/body/closed_call/checkpoint/rematted_computation/gather" stack_frame_id=0}
  %mul.4313 = f32[1,128,32]{2,1,0:T(8,128)} multiply(%add.3426, %bitcast.1789), metadata={op_name="jit(train_step)/transpose(jvp())/while/body/closed_call/checkpoint/rematted_computation/mul" stack_frame_id=0}
  %param_0.2945 = f32[128,32]{1,0:T(8,128)S(1)} parameter(0)
  %bitcast.1783 = f32[1,128,32]{2,1,0:T(8,128)} bitcast(%param_0.2945), metadata={op_name="jit(train_step)/transpose(jvp())/while/body/closed_call/checkpoint/rematted_computation/gather" stack_frame_id=0}
  %mul.4307 = f32[1,128,32]{2,1,0:T(8,128)} multiply(%bitcast.1798, %bitcast.1783), metadata={op_name="jit(train_step)/transpose(jvp())/while/body/closed_call/checkpoint/rematted_computation/mul" stack_frame_id=0}
  %mul.4306 = f32[1,128,32]{2,1,0:T(8,128)} subtract(%mul.4313, %mul.4307), metadata={op_name="jit(train_step)/transpose(jvp())/while/body/closed_call/checkpoint/rematted_computation/mul" stack_frame_id=0}
  %convert.536 = bf16[1,128,32]{2,1,0:T(8,128)(2,1)S(1)} convert(%mul.4306), metadata={op_name="convert.376" stack_frame_id=0}
  %mul.4300.clone.1 = f32[1,128,32]{2,1,0:T(8,128)} multiply(%add.3426, %bitcast.1783), metadata={op_name="jit(train_step)/transpose(jvp())/while/body/closed_call/checkpoint/rematted_computation/mul" stack_frame_id=0}
  %mul.4311.clone.1 = f32[1,128,32]{2,1,0:T(8,128)} multiply(%bitcast.1798, %bitcast.1789), metadata={op_name="jit(train_step)/transpose(jvp())/while/body/closed_call/checkpoint/rematted_computation/mul" stack_frame_id=0}
  %mul.4299.clone.1 = f32[1,128,32]{2,1,0:T(8,128)} add(%mul.4300.clone.1, %mul.4311.clone.1), metadata={op_name="jit(train_step)/transpose(jvp())/while/body/closed_call/checkpoint/rematted_computation/mul" stack_frame_id=0}
  %convert.535.clone.1 = bf16[1,128,32]{2,1,0:T(8,128)(2,1)S(1)} convert(%mul.4299.clone.1), metadata={op_name="convert.377" stack_frame_id=0}
  ROOT %tuple.688 = (bf16[1,128,32]{2,1,0:T(8,128)(2,1)S(1)}, bf16[1,128,32]{2,1,0:T(8,128)(2,1)S(1)}) tuple(%convert.536, %convert.535.clone.1)
}

%fused_computation.1065 (param_0.3062: bf16[1,128,32], param_1.4733: bf16[1,128,32]) -> bf16[128,64] {
  %param_1.4733 = bf16[1,128,32]{2,1,0:T(8,128)(2,1)S(1)} parameter(1)
  %constant.1746.clone.5 = bf16[]{:T(256)} constant(-inf)
  %pad.316 = bf16[1,128,64]{2,1,0:T(8,128)(2,1)} pad(%param_1.4733, %constant.1746.clone.5), padding=0_0x0_0x0_32, metadata={op_name="jit(train_step)/transpose(jvp())/while/body/closed_call/checkpoint/rematted_computation/concatenate" stack_frame_id=0}
  %convert.798 = f32[1,128,64]{2,1,0:T(8,128)} convert(%pad.316)
  %param_0.3062 = bf16[1,128,32]{2,1,0:T(8,128)(2,1)S(1)} parameter(0)
  %pad.315 = bf16[1,128,64]{2,1,0:T(8,128)(2,1)} pad(%param_0.3062, %constant.1746.clone.5), padding=0_0x0_0x32_0, metadata={op_name="jit(train_step)/transpose(jvp())/while/body/closed_call/checkpoint/rematted_computation/concatenate" stack_frame_id=0}
  %convert.799 = f32[1,128,64]{2,1,0:T(8,128)} convert(%pad.315)
  %maximum.65 = f32[1,128,64]{2,1,0:T(8,128)} maximum(%convert.798, %convert.799), metadata={op_name="jit(train_step)/transpose(jvp())/while/body/closed_call/checkpoint/rematted_computation/concatenate" stack_frame_id=0}, backend_config={"flag_configs":[],"scoped_memory_configs":[],"used_scoped_memory_configs":[],"float_type_correction_info":{"original_type":"BF16","original_shape":{"element_type":"BF16","dimensions":["1","128","64"],"tuple_shapes":[],"layout":{"minor_to_major":["2","1","0"],"tiles":[{"dimensions":["8","128"]},{"dimensions":["2","1"]}],"element_size_in_bits":"0","memory_space":"0","dim_level_types":[],"index_primitive_type":"PRIMITIVE_TYPE_INVALID","pointer_primitive_type":"PRIMITIVE_TYPE_INVALID","dim_unique":[],"dim_ordered":[],"dynamic_shape_metadata_prefix_bytes":"0","tail_padding_alignment_in_elements":"1","split_configs":[]},"is_dynamic_dimension":[false,false,false]}}}
  %convert.800 = bf16[1,128,64]{2,1,0:T(8,128)(2,1)} convert(%maximum.65)
  ROOT %bitcast.1840 = bf16[128,64]{1,0:T(8,128)(2,1)S(1)} bitcast(%convert.800), metadata={op_name="jit(train_step)/transpose(jvp())/while/body/closed_call/checkpoint/rematted_computation/concatenate" stack_frame_id=0}
}

%region_44.53 (reduce_sum.110: f32[], reduce_sum.111: f32[]) -> f32[] {
  %reduce_sum.110 = f32[]{:T(128)} parameter(0), metadata={op_name="jit(train_step)/transpose(jvp())/while/body/closed_call/checkpoint/rematted_computation/reduce_sum"}
  %reduce_sum.111 = f32[]{:T(128)} parameter(1), metadata={op_name="jit(train_step)/transpose(jvp())/while/body/closed_call/checkpoint/rematted_computation/reduce_sum"}
  ROOT %reduce_sum.115 = f32[]{:T(128)} add(%reduce_sum.110, %reduce_sum.111), metadata={op_name="checkpoint/rematted_computation/reduce_sum" stack_frame_id=0}, backend_config={"flag_configs":[],"scoped_memory_configs":[],"used_scoped_memory_configs":[],"aliasing_operands":{"lists":[]}}
}

%fused_computation.892 (param_0.4489: bf16[1,128,576]) -> f32[128] {
  %param_0.4489 = bf16[1,128,576]{1,2,0:T(8,128)(2,1)S(1)} parameter(0)
  %slice.1225 = bf16[1,128,512]{1,2,0:T(8,128)(2,1)} slice(%param_0.4489), slice={[0:1], [0:128], [0:512]}, metadata={op_name="jit(train_step)/transpose(jvp())/while/body/closed_call/checkpoint/rematted_computation/split" stack_frame_id=0}
  %convert_element_type.2696 = f32[1,128,512]{1,2,0:T(8,128)} convert(%slice.1225), metadata={op_name="jit(train_step)/transpose(jvp())/while/body/closed_call/checkpoint/rematted_computation/convert_element_type" stack_frame_id=0}
  %square.626 = f32[1,128,512]{1,2,0:T(8,128)} multiply(%convert_element_type.2696, %convert_element_type.2696), metadata={op_name="jit(train_step)/transpose(jvp())/while/body/closed_call/checkpoint/rematted_computation/square" stack_frame_id=0}
  %constant.1730.clone.85 = f32[]{:T(128)} constant(0)
  ROOT %reduce.763 = f32[128]{0:T(128)S(1)} reduce(%square.626, %constant.1730.clone.85), dimensions={0,2}, to_apply=%region_44.53, metadata={op_name="jit(train_step)/transpose(jvp())/while/body/closed_call/checkpoint/rematted_computation/reduce_sum" stack_frame_id=0}
}

%fused_computation.1330 (param_0.3991: f32[128]) -> f32[128] {
  %param_0.3991 = f32[128]{0:T(128)S(1)} parameter(0)
  %constant.1744.clone.7 = f32[]{:T(128)} constant(0.001953125)
  %broadcast.4398 = f32[128]{0:T(128)} broadcast(%constant.1744.clone.7), dimensions={}, metadata={op_name="jit(train_step)/jvp()/while/body/closed_call" stack_frame_id=0}
  %div.2465 = f32[128]{0:T(128)} multiply(%param_0.3991, %broadcast.4398), metadata={op_name="jit(train_step)/transpose(jvp())/while/body/closed_call/checkpoint/rematted_computation/div" stack_frame_id=0}
  %constant.1745.clone.9 = f32[]{:T(128)} constant(1e-06)
  %broadcast.4387 = f32[128]{0:T(128)} broadcast(%constant.1745.clone.9), dimensions={}, metadata={op_name="jit(train_step)/jvp()/while/body/closed_call" stack_frame_id=0}
  %add.3644 = f32[128]{0:T(128)} add(%div.2465, %broadcast.4387), metadata={op_name="jit(train_step)/transpose(jvp())/while/body/closed_call/checkpoint/rematted_computation/add" stack_frame_id=0}
  %bitcast.1951 = f32[1,128]{1,0:T(1,128)} bitcast(%add.3644), metadata={op_name="jit(train_step)/transpose(jvp())/while/body/closed_call/checkpoint/rematted_computation/add" stack_frame_id=0}
  %rsqrt.305 = f32[1,128]{1,0:T(1,128)} rsqrt(%bitcast.1951), metadata={op_name="jit(train_step)/transpose(jvp())/while/body/closed_call/checkpoint/rematted_computation/rsqrt" stack_frame_id=0}
  ROOT %bitcast.1923 = f32[128]{0:T(128)S(1)} bitcast(%rsqrt.305), metadata={op_name="jit(train_step)/transpose(jvp())/while/body/closed_call/checkpoint/rematted_computation/rsqrt" stack_frame_id=0}
}

%fused_computation.958 (param_0.3001: f32[128], param_1.3336: bf16[1,128,576], param_2.2341: bf16[512]) -> bf16[128,512,1] {
  %param_2.2341 = bf16[512]{0:T(512)(128)(2,1)S(1)} parameter(2)
  %dot_general.791 = bf16[1,128,512]{1,2,0:T(8,128)(2,1)} broadcast(%param_2.2341), dimensions={2}, metadata={op_name="jit(train_step)/jvp()/while/body/closed_call/...k,k->...k/dot_general" stack_frame_id=0}
  %convert.831 = f32[1,128,512]{1,2,0:T(8,128)} convert(%dot_general.791)
  %param_1.3336 = bf16[1,128,576]{1,2,0:T(8,128)(2,1)S(1)} parameter(1)
  %slice.1222 = bf16[1,128,512]{1,2,0:T(8,128)(2,1)} slice(%param_1.3336), slice={[0:1], [0:128], [0:512]}, metadata={op_name="jit(train_step)/transpose(jvp())/while/body/closed_call/checkpoint/rematted_computation/split" stack_frame_id=0}
  %convert_element_type.2777 = f32[1,128,512]{1,2,0:T(8,128)} convert(%slice.1222), metadata={op_name="jit(train_step)/transpose(jvp())/while/body/closed_call/checkpoint/rematted_computation/convert_element_type" stack_frame_id=0}
  %param_0.3001 = f32[128]{0:T(128)S(1)} parameter(0)
  %mul.4246 = f32[1,128,512]{1,2,0:T(8,128)} broadcast(%param_0.3001), dimensions={1}, metadata={op_name="jit(train_step)/transpose(jvp())/while/body/closed_call/checkpoint/rematted_computation/mul" stack_frame_id=0}
  %mul.4245 = f32[1,128,512]{1,2,0:T(8,128)} multiply(%convert_element_type.2777, %mul.4246), metadata={op_name="jit(train_step)/transpose(jvp())/while/body/closed_call/checkpoint/rematted_computation/mul" stack_frame_id=0}
  %convert_element_type.2776 = bf16[1,128,512]{1,2,0:T(8,128)(2,1)} convert(%mul.4245), metadata={op_name="jit(train_step)/transpose(jvp())/while/body/closed_call/checkpoint/rematted_computation/convert_element_type" stack_frame_id=0}
  %convert.832 = f32[1,128,512]{1,2,0:T(8,128)} convert(%convert_element_type.2776)
  %dot_general.768 = f32[1,128,512]{1,2,0:T(8,128)} multiply(%convert.831, %convert.832), metadata={op_name="jit(train_step)/transpose(jvp())/while/body/closed_call/checkpoint/rematted_computation/...k,k->...k/dot_general" stack_frame_id=0}, backend_config={"flag_configs":[],"scoped_memory_configs":[],"used_scoped_memory_configs":[],"float_type_correction_info":{"original_type":"BF16","original_shape":{"element_type":"BF16","dimensions":["1","128","512"],"tuple_shapes":[],"layout":{"minor_to_major":["1","2","0"],"tiles":[{"dimensions":["8","128"]},{"dimensions":["2","1"]}],"element_size_in_bits":"0","memory_space":"0","dim_level_types":[],"index_primitive_type":"PRIMITIVE_TYPE_INVALID","pointer_primitive_type":"PRIMITIVE_TYPE_INVALID","dim_unique":[],"dim_ordered":[],"dynamic_shape_metadata_prefix_bytes":"0","tail_padding_alignment_in_elements":"1","split_configs":[]},"is_dynamic_dimension":[false,false,false]}}}
  %convert.833 = bf16[1,128,512]{1,2,0:T(8,128)(2,1)} convert(%dot_general.768)
  ROOT %bitcast.1714 = bf16[128,512,1]{0,1,2:T(8,128)(2,1)} bitcast(%convert.833)
}

%fused_computation.592.clone.clone (param_0.2036: bf16[512,1,128,256]) -> bf16[512,128,256] {
  %param_0.2036 = bf16[512,1,128,256]{3,0,2,1:T(8,128)(2,1)S(1)} parameter(0)
  ROOT %bitcast.1434 = bf16[512,128,256]{2,0,1:T(8,128)(2,1)} bitcast(%param_0.2036), metadata={op_name="jit(train_step)/jvp()/while/body/closed_call/dot_general" stack_frame_id=0}
}

%fused_computation.698 (param_0.2759: bf16[512,1,128,256], param_1.3335: f32[128], param_2.2340: bf16[1,128,576], param_3.1371: bf16[512]) -> bf16[1,128,128,256] {
  %param_1.3335 = f32[128]{0:T(128)S(1)} parameter(1)
  %param_2.2340 = bf16[1,128,576]{1,2,0:T(8,128)(2,1)S(1)} parameter(2)
  %param_3.1371 = bf16[512]{0:T(512)(128)(2,1)S(1)} parameter(3)
  %fusion.677 = bf16[128,512,1]{0,1,2:T(8,128)(2,1)} fusion(%param_1.3335, %param_2.2340, %param_3.1371), kind=kLoop, calls=%fused_computation.958
  %param_0.2759 = bf16[512,1,128,256]{3,0,2,1:T(8,128)(2,1)S(1)} parameter(0)
  %fusion.458 = bf16[512,128,256]{2,0,1:T(8,128)(2,1)} fusion(%param_0.2759), kind=kLoop, calls=%fused_computation.592.clone.clone, metadata={op_name="jit(train_step)/jvp()/while/body/closed_call/dot_general" stack_frame_id=0}
  %convolution.181 = bf16[128,128,256]{2,0,1:T(8,128)(2,1)} convolution(%fusion.677, %fusion.458), window={size=128 pad=127_127 rhs_reversal=1}, dim_labels=bf0_i0o->b0f, metadata={op_name="jit(train_step)/transpose(jvp())/while/body/closed_call/checkpoint/rematted_computation/dot_general" stack_frame_id=0}
  ROOT %bitcast.1432 = bf16[1,128,128,256]{3,1,2,0:T(8,128)(2,1)} bitcast(%convolution.181), metadata={op_name="jit(train_step)/transpose(jvp())/while/body/closed_call/checkpoint/rematted_computation/dot_general" stack_frame_id=0}
}

%fused_computation.705 (param_0.2057: bf16[1,128,128,256]) -> (bf16[128,128,128], bf16[1,128,128,128]) {
  %param_0.2057 = bf16[1,128,128,256]{3,1,2,0:T(8,128)(2,1)} parameter(0)
  %slice.1207 = bf16[1,128,128,128]{3,1,2,0:T(8,128)(2,1)} slice(%param_0.2057), slice={[0:1], [0:128], [0:128], [128:256]}, metadata={op_name="jit(train_step)/transpose(jvp())/while/body/closed_call/checkpoint/rematted_computation/split" stack_frame_id=0}
  %bitcast.1439 = bf16[128,128,128]{2,1,0:T(8,128)(2,1)S(1)} bitcast(%slice.1207), metadata={op_name="jit(train_step)/transpose(jvp())/while/body/closed_call/checkpoint/rematted_computation/shard_map/vmap(static_sparsity_splash)/jit(_splash_attention)/splash_mha_fwd_segmented_residuals/splash_mha_fwd_segmented_residuals/squeeze" stack_frame_id=0}
  %slice.1333 = bf16[1,128,128,128]{3,1,2,0:T(8,128)(2,1)S(1)} slice(%param_0.2057), slice={[0:1], [0:128], [0:128], [0:128]}, metadata={op_name="jit(train_step)/transpose(jvp())/while/body/closed_call/checkpoint/rematted_computation/split" stack_frame_id=0}
  ROOT %tuple.672 = (bf16[128,128,128]{2,1,0:T(8,128)(2,1)S(1)}, bf16[1,128,128,128]{3,1,2,0:T(8,128)(2,1)S(1)}) tuple(%bitcast.1439, %slice.1333)
}

%fused_computation.658 (param_0.1913: bf16[1,128,128,64], param_1.4735: bf16[1,128,128,128]) -> bf16[128,128,192] {
  %param_1.4735 = bf16[1,128,128,128]{3,1,2,0:T(8,128)(2,1)S(1)} parameter(1)
  %constant.1746.clone.7 = bf16[]{:T(256)} constant(-inf)
  %pad.290 = bf16[1,128,128,192]{3,1,2,0:T(8,128)(2,1)} pad(%param_1.4735, %constant.1746.clone.7), padding=0_0x0_0x0_0x0_64, metadata={op_name="jit(train_step)/transpose(jvp())/while/body/closed_call/checkpoint/rematted_computation/concatenate" stack_frame_id=0}
  %convert.689 = f32[1,128,128,192]{3,1,2,0:T(8,128)} convert(%pad.290)
  %param_0.1913 = bf16[1,128,128,64]{3,1,2,0:T(8,128)(2,1)S(1)} parameter(0)
  %pad.289 = bf16[1,128,128,192]{3,1,2,0:T(8,128)(2,1)} pad(%param_0.1913, %constant.1746.clone.7), padding=0_0x0_0x0_0x128_0, metadata={op_name="jit(train_step)/transpose(jvp())/while/body/closed_call/checkpoint/rematted_computation/concatenate" stack_frame_id=0}
  %convert.690 = f32[1,128,128,192]{3,1,2,0:T(8,128)} convert(%pad.289)
  %maximum.54 = f32[1,128,128,192]{3,1,2,0:T(8,128)} maximum(%convert.689, %convert.690), metadata={op_name="jit(train_step)/transpose(jvp())/while/body/closed_call/checkpoint/rematted_computation/concatenate" stack_frame_id=0}, backend_config={"flag_configs":[],"scoped_memory_configs":[],"used_scoped_memory_configs":[],"float_type_correction_info":{"original_type":"BF16","original_shape":{"element_type":"BF16","dimensions":["1","128","128","192"],"tuple_shapes":[],"layout":{"minor_to_major":["3","1","2","0"],"tiles":[{"dimensions":["8","128"]},{"dimensions":["2","1"]}],"element_size_in_bits":"0","memory_space":"0","dim_level_types":[],"index_primitive_type":"PRIMITIVE_TYPE_INVALID","pointer_primitive_type":"PRIMITIVE_TYPE_INVALID","dim_unique":[],"dim_ordered":[],"dynamic_shape_metadata_prefix_bytes":"0","tail_padding_alignment_in_elements":"1","split_configs":[]},"is_dynamic_dimension":[false,false,false,false]}}}
  %convert.691 = bf16[1,128,128,192]{3,1,2,0:T(8,128)(2,1)} convert(%maximum.54)
  ROOT %bitcast.1355 = bf16[128,128,192]{2,1,0:T(8,128)(2,1)S(1)} bitcast(%convert.691), metadata={op_name="jit(train_step)/transpose(jvp())/while/body/closed_call/checkpoint/rematted_computation/shard_map/vmap(static_sparsity_splash)/jit(_splash_attention)/splash_mha_fwd_segmented_residuals/splash_mha_fwd_segmented_residuals/squeeze" stack_frame_id=0}
}

%fused_computation.710.clone.clone.clone.clone.clone.clone.clone.clone (param_0.4337: bf16[128,128,128]) -> bf16[128,128,128] {
  %param_0.4337 = bf16[128,128,128]{2,1,0:T(8,128)(2,1)S(1)} parameter(0)
  ROOT %bitcast.2105 = bf16[128,128,128]{2,0,1:T(8,128)(2,1)} bitcast(%param_0.4337)
}

%fused_computation.640.clone.clone.clone.clone.clone.clone.clone.clone (param_0.4336: bf16[128,1,128,512]) -> bf16[128,128,512] {
  %param_0.4336 = bf16[128,1,128,512]{3,2,0,1:T(8,128)(2,1)S(1)} parameter(0)
  ROOT %bitcast.2104 = bf16[128,128,512]{2,1,0:T(8,128)(2,1)} bitcast(%param_0.4336), metadata={op_name="jit(train_step)/jvp()/while/body/closed_call/dot_general" stack_frame_id=0}
}

%region_45.56 (reduce_sum.116: f32[], reduce_sum.117: f32[]) -> f32[] {
  %reduce_sum.116 = f32[]{:T(128)} parameter(0), metadata={op_name="jit(train_step)/transpose(jvp())/while/body/closed_call/checkpoint/rematted_computation/reduce_sum"}
  %reduce_sum.117 = f32[]{:T(128)} parameter(1), metadata={op_name="jit(train_step)/transpose(jvp())/while/body/closed_call/checkpoint/rematted_computation/reduce_sum"}
  ROOT %reduce_sum.118 = f32[]{:T(128)} add(%reduce_sum.116, %reduce_sum.117), metadata={op_name="checkpoint/rematted_computation/reduce_sum" stack_frame_id=0}, backend_config={"flag_configs":[],"scoped_memory_configs":[],"used_scoped_memory_configs":[],"aliasing_operands":{"lists":[]}}
}

%fused_computation.917 (param_0.4488: bf16[1,128,512], param_1.5220: bf16[128,1,128,512], param_2.4186: bf16[128,128,128]) -> (f32[128], f32[1,128,512]) {
  %param_0.4488 = bf16[1,128,512]{2,1,0:T(8,128)(2,1)S(1)} parameter(0)
  %convert.734 = f32[1,128,512]{2,1,0:T(8,128)} convert(%param_0.4488)
  %param_2.4186 = bf16[128,128,128]{2,1,0:T(8,128)(2,1)S(1)} parameter(2)
  %fusion.600.clone.1 = bf16[128,128,128]{2,0,1:T(8,128)(2,1)} fusion(%param_2.4186), kind=kLoop, calls=%fused_computation.710.clone.clone.clone.clone.clone.clone.clone.clone
  %param_1.5220 = bf16[128,1,128,512]{3,2,0,1:T(8,128)(2,1)S(1)} parameter(1)
  %fusion.599.clone.1 = bf16[128,128,512]{2,1,0:T(8,128)(2,1)} fusion(%param_1.5220), kind=kLoop, calls=%fused_computation.640.clone.clone.clone.clone.clone.clone.clone.clone, metadata={op_name="jit(train_step)/jvp()/while/body/closed_call/dot_general" stack_frame_id=0}
  %convolution.261.clone.1 = bf16[128,512,1]{1,0,2:T(8,128)(2,1)} convolution(%fusion.600.clone.1, %fusion.599.clone.1), window={size=128}, dim_labels=b0f_0io->bf0, metadata={op_name="jit(train_step)/transpose(jvp())/while/body/closed_call/checkpoint/rematted_computation/dot_general" stack_frame_id=0}
  %bitcast.1620.clone.1 = bf16[1,128,512]{2,1,0:T(8,128)(2,1)} bitcast(%convolution.261.clone.1), metadata={op_name="jit(train_step)/transpose(jvp())/while/body/closed_call/checkpoint/rematted_computation/dot_general" stack_frame_id=0}
  %convert.735 = f32[1,128,512]{2,1,0:T(8,128)} convert(%bitcast.1620.clone.1)
  %add.3370.clone.1 = f32[1,128,512]{2,1,0:T(8,128)} add(%convert.734, %convert.735), metadata={op_name="jit(train_step)/transpose(jvp())/while/body/closed_call/checkpoint/rematted_computation/add" stack_frame_id=0}, backend_config={"flag_configs":[],"scoped_memory_configs":[],"used_scoped_memory_configs":[],"float_type_correction_info":{"original_type":"BF16","original_shape":{"element_type":"BF16","dimensions":["1","128","512"],"tuple_shapes":[],"layout":{"minor_to_major":["2","1","0"],"tiles":[{"dimensions":["8","128"]},{"dimensions":["2","1"]}],"element_size_in_bits":"0","memory_space":"0","dim_level_types":[],"index_primitive_type":"PRIMITIVE_TYPE_INVALID","pointer_primitive_type":"PRIMITIVE_TYPE_INVALID","dim_unique":[],"dim_ordered":[],"dynamic_shape_metadata_prefix_bytes":"0","tail_padding_alignment_in_elements":"1","split_configs":[]},"is_dynamic_dimension":[false,false,false]}}}
  %convert_element_type.2639.clone.1 = f32[1,128,512]{2,1,0:T(8,128)S(1)} convert(%add.3370.clone.1), metadata={op_name="jit(train_step)/transpose(jvp())/while/body/closed_call/checkpoint/rematted_computation/convert_element_type" stack_frame_id=0}
  %square.638 = f32[1,128,512]{2,1,0:T(8,128)} multiply(%convert_element_type.2639.clone.1, %convert_element_type.2639.clone.1), metadata={op_name="jit(train_step)/transpose(jvp())/while/body/closed_call/checkpoint/rematted_computation/square" stack_frame_id=0}
  %constant.1730.clone.84 = f32[]{:T(128)} constant(0)
  %reduce.770 = f32[128]{0:T(128)S(1)} reduce(%square.638, %constant.1730.clone.84), dimensions={0,2}, to_apply=%region_45.56, metadata={op_name="jit(train_step)/transpose(jvp())/while/body/closed_call/checkpoint/rematted_computation/reduce_sum" stack_frame_id=0}
  ROOT %tuple.724 = (f32[128]{0:T(128)S(1)}, f32[1,128,512]{2,1,0:T(8,128)S(1)}) tuple(%reduce.770, %convert_element_type.2639.clone.1)
}

%fused_computation.1328 (param_0.3993: f32[128]) -> f32[128] {
  %param_0.3993 = f32[128]{0:T(128)S(1)} parameter(0)
  %constant.1744.clone.6 = f32[]{:T(128)} constant(0.001953125)
  %broadcast.4399 = f32[128]{0:T(128)} broadcast(%constant.1744.clone.6), dimensions={}, metadata={op_name="jit(train_step)/jvp()/while/body/closed_call" stack_frame_id=0}
  %div.2469 = f32[128]{0:T(128)} multiply(%param_0.3993, %broadcast.4399), metadata={op_name="jit(train_step)/transpose(jvp())/while/body/closed_call/checkpoint/rematted_computation/div" stack_frame_id=0}
  %constant.1745.clone.7 = f32[]{:T(128)} constant(1e-06)
  %broadcast.4389 = f32[128]{0:T(128)} broadcast(%constant.1745.clone.7), dimensions={}, metadata={op_name="jit(train_step)/jvp()/while/body/closed_call" stack_frame_id=0}
  %add.3648 = f32[128]{0:T(128)} add(%div.2469, %broadcast.4389), metadata={op_name="jit(train_step)/transpose(jvp())/while/body/closed_call/checkpoint/rematted_computation/add" stack_frame_id=0}
  %bitcast.1949 = f32[1,128]{1,0:T(1,128)} bitcast(%add.3648), metadata={op_name="jit(train_step)/transpose(jvp())/while/body/closed_call/checkpoint/rematted_computation/add" stack_frame_id=0}
  %rsqrt.303 = f32[1,128]{1,0:T(1,128)} rsqrt(%bitcast.1949), metadata={op_name="jit(train_step)/transpose(jvp())/while/body/closed_call/checkpoint/rematted_computation/rsqrt" stack_frame_id=0}
  ROOT %bitcast.1922 = f32[128]{0:T(128)S(1)} bitcast(%rsqrt.303), metadata={op_name="jit(train_step)/transpose(jvp())/while/body/closed_call/checkpoint/rematted_computation/rsqrt" stack_frame_id=0}
}

%fused_computation.995 (param_0.3102: bf16[512], param_1.3443: f32[1,128,512], param_2.2438: f32[128], param_3.2756: f32[128], param_4.2113: bf16[1,128,512]) -> (bf16[128,512], bf16[128,512]) {
  %param_0.3102 = bf16[512]{0:T(512)(128)(2,1)S(1)} parameter(0)
  %dot_general.809 = bf16[1,128,512]{2,1,0:T(8,128)(2,1)} broadcast(%param_0.3102), dimensions={2}, metadata={op_name="jit(train_step)/jvp()/while/body/closed_call/...k,k->...k/dot_general" stack_frame_id=0}
  %convert.767 = f32[1,128,512]{2,1,0:T(8,128)} convert(%dot_general.809)
  %param_1.3443 = f32[1,128,512]{2,1,0:T(8,128)S(1)} parameter(1)
  %param_2.2438 = f32[128]{0:T(128)S(1)} parameter(2)
  %mul.4395 = f32[1,128,512]{2,1,0:T(8,128)} broadcast(%param_2.2438), dimensions={1}, metadata={op_name="jit(train_step)/transpose(jvp())/while/body/closed_call/checkpoint/rematted_computation/mul" stack_frame_id=0}
  %mul.4394 = f32[1,128,512]{2,1,0:T(8,128)} multiply(%param_1.3443, %mul.4395), metadata={op_name="jit(train_step)/transpose(jvp())/while/body/closed_call/checkpoint/rematted_computation/mul" stack_frame_id=0}
  %convert_element_type.2826 = bf16[1,128,512]{2,1,0:T(8,128)(2,1)} convert(%mul.4394), metadata={op_name="jit(train_step)/transpose(jvp())/while/body/closed_call/checkpoint/rematted_computation/convert_element_type" stack_frame_id=0}
  %convert.768 = f32[1,128,512]{2,1,0:T(8,128)} convert(%convert_element_type.2826)
  %dot_general.754 = f32[1,128,512]{2,1,0:T(8,128)} multiply(%convert.767, %convert.768), metadata={op_name="jit(train_step)/transpose(jvp())/while/body/closed_call/checkpoint/rematted_computation/...k,k->...k/dot_general" stack_frame_id=0}, backend_config={"flag_configs":[],"scoped_memory_configs":[],"used_scoped_memory_configs":[],"float_type_correction_info":{"original_type":"BF16","original_shape":{"element_type":"BF16","dimensions":["1","128","512"],"tuple_shapes":[],"layout":{"minor_to_major":["2","1","0"],"tiles":[{"dimensions":["8","128"]},{"dimensions":["2","1"]}],"element_size_in_bits":"0","memory_space":"0","dim_level_types":[],"index_primitive_type":"PRIMITIVE_TYPE_INVALID","pointer_primitive_type":"PRIMITIVE_TYPE_INVALID","dim_unique":[],"dim_ordered":[],"dynamic_shape_metadata_prefix_bytes":"0","tail_padding_alignment_in_elements":"1","split_configs":[]},"is_dynamic_dimension":[false,false,false]}}}
  %convert.769 = bf16[1,128,512]{2,1,0:T(8,128)(2,1)} convert(%dot_general.754)
  %bitcast.1744 = bf16[128,512]{1,0:T(8,128)(2,1)S(1)} bitcast(%convert.769), metadata={stack_frame_id=0}
  %param_4.2113 = bf16[1,128,512]{2,1,0:T(8,128)(2,1)S(1)} parameter(4)
  %convert_element_type.2739.clone.1 = f32[1,128,512]{2,1,0:T(8,128)} convert(%param_4.2113), metadata={op_name="jit(train_step)/jvp()/while/body/closed_call/convert_element_type" stack_frame_id=0}
  %param_3.2756 = f32[128]{0:T(128)S(1)} parameter(3)
  %mul.4198.clone.1 = f32[1,128,512]{2,1,0:T(8,128)} broadcast(%param_3.2756), dimensions={1}, metadata={op_name="jit(train_step)/jvp()/while/body/closed_call/mul" stack_frame_id=0}
  %mul.4174.clone.1 = f32[1,128,512]{2,1,0:T(8,128)} multiply(%convert_element_type.2739.clone.1, %mul.4198.clone.1), metadata={op_name="jit(train_step)/jvp()/while/body/closed_call/mul" stack_frame_id=0}
  %convert_element_type.2738.clone.1 = bf16[1,128,512]{2,1,0:T(8,128)(2,1)} convert(%mul.4174.clone.1), metadata={op_name="jit(train_step)/jvp()/while/body/closed_call/convert_element_type" stack_frame_id=0}
  %convert.770 = f32[1,128,512]{2,1,0:T(8,128)} convert(%convert_element_type.2738.clone.1)
  %dot_general.749.clone.1 = f32[1,128,512]{2,1,0:T(8,128)} multiply(%convert.767, %convert.770), metadata={op_name="jit(train_step)/jvp()/while/body/closed_call/...k,k->...k/dot_general" stack_frame_id=0}, backend_config={"flag_configs":[],"scoped_memory_configs":[],"used_scoped_memory_configs":[],"float_type_correction_info":{"original_type":"BF16","original_shape":{"element_type":"BF16","dimensions":["1","128","512"],"tuple_shapes":[],"layout":{"minor_to_major":["2","1","0"],"tiles":[{"dimensions":["8","128"]},{"dimensions":["2","1"]}],"element_size_in_bits":"0","memory_space":"0","dim_level_types":[],"index_primitive_type":"PRIMITIVE_TYPE_INVALID","pointer_primitive_type":"PRIMITIVE_TYPE_INVALID","dim_unique":[],"dim_ordered":[],"dynamic_shape_metadata_prefix_bytes":"0","tail_padding_alignment_in_elements":"1","split_configs":[]},"is_dynamic_dimension":[false,false,false]}}}
  %convert.771 = bf16[1,128,512]{2,1,0:T(8,128)(2,1)} convert(%dot_general.749.clone.1)
  %bitcast.1706.clone.1 = bf16[128,512]{1,0:T(8,128)(2,1)S(1)} bitcast(%convert.771), metadata={op_name="jit(train_step)/jvp()/while/body/closed_call/shard_map/reshape" stack_frame_id=0}
  ROOT %tuple.707 = (bf16[128,512]{1,0:T(8,128)(2,1)S(1)}, bf16[128,512]{1,0:T(8,128)(2,1)S(1)}) tuple(%bitcast.1744, %bitcast.1706.clone.1)
}

%bitcast_fusion.5 (bitcast_input.5: bf16[128,512]) -> bf16[128,512] {
  %bitcast_input.5 = bf16[128,512]{1,0:T(8,128)(2,1)S(1)} parameter(0)
  ROOT %bitcast.2163 = bf16[128,512]{1,0:T(8,128)(2,1)} bitcast(%bitcast_input.5)
}

%fused_computation.906.clone.clone (param_0.4348: bf16[512,1,256]) -> bf16[512,256] {
  %param_0.4348 = bf16[512,1,256]{2,0,1:T(8,128)(2,1)S(1)} parameter(0)
  ROOT %bitcast.2115 = bf16[512,256]{1,0:T(8,128)(2,1)} bitcast(%param_0.4348), metadata={op_name="jit(train_step)/jvp()/while/body/closed_call/dot_general" stack_frame_id=0}
}

%fused_computation.1021 (param_0.4347: bf16[256], param_1.5120: bf16[128,256], param_2.4120: bf16[128,512], param_3.2779: bf16[512,1,256]) -> (bf16[1,128,256], bf16[1,128,256], bf16[128,256]) {
  %constant.1687.clone.6.clone.1 = bf16[]{:T(256)} constant(1), metadata={stack_frame_id=0}
  %broadcast.4227.clone.1 = bf16[128,256]{1,0:T(8,128)(2,1)} broadcast(%constant.1687.clone.6.clone.1), dimensions={}, metadata={op_name="jit(train_step)/jvp()/while/body/closed_call" stack_frame_id=0}
  %convert.779 = f32[128,256]{1,0:T(8,128)} convert(%broadcast.4227.clone.1)
  %param_2.4120 = bf16[128,512]{1,0:T(8,128)(2,1)S(1)} parameter(2)
  %fusion.896 = bf16[128,512]{1,0:T(8,128)(2,1)} fusion(%param_2.4120), kind=kLoop, calls=%bitcast_fusion.5
  %param_3.2779 = bf16[512,1,256]{2,0,1:T(8,128)(2,1)S(1)} parameter(3)
  %fusion.650.clone.1 = bf16[512,256]{1,0:T(8,128)(2,1)} fusion(%param_3.2779), kind=kLoop, calls=%fused_computation.906.clone.clone, metadata={op_name="jit(train_step)/jvp()/while/body/closed_call/dot_general" stack_frame_id=0}
  %convolution.270.clone.1 = bf16[128,256]{1,0:T(8,128)(2,1)} convolution(%fusion.896, %fusion.650.clone.1), dim_labels=bf_io->bf, metadata={op_name="jit(train_step)/transpose(jvp())/while/body/closed_call/checkpoint/rematted_computation/dot_general" stack_frame_id=0}
  %convert.778 = f32[128,256]{1,0:T(8,128)} convert(%convolution.270.clone.1)
  %neg.211.clone.1 = f32[128,256]{1,0:T(8,128)} negate(%convert.778), metadata={op_name="jit(train_step)/transpose(jvp())/while/body/closed_call/checkpoint/rematted_computation/neg" stack_frame_id=0}, backend_config={"flag_configs":[],"scoped_memory_configs":[],"used_scoped_memory_configs":[],"float_type_correction_info":{"original_type":"BF16","original_shape":{"element_type":"BF16","dimensions":["128","256"],"tuple_shapes":[],"layout":{"minor_to_major":["1","0"],"tiles":[{"dimensions":["8","128"]},{"dimensions":["2","1"]}],"element_size_in_bits":"0","memory_space":"0","dim_level_types":[],"index_primitive_type":"PRIMITIVE_TYPE_INVALID","pointer_primitive_type":"PRIMITIVE_TYPE_INVALID","dim_unique":[],"dim_ordered":[],"dynamic_shape_metadata_prefix_bytes":"0","tail_padding_alignment_in_elements":"1","split_configs":[]},"is_dynamic_dimension":[false,false]}}}
  %exp.506.clone.1 = f32[128,256]{1,0:T(8,128)} exponential(%neg.211.clone.1), metadata={op_name="jit(train_step)/transpose(jvp())/while/body/closed_call/checkpoint/rematted_computation/exp" stack_frame_id=0}, backend_config={"flag_configs":[],"scoped_memory_configs":[],"used_scoped_memory_configs":[],"float_type_correction_info":{"original_type":"BF16","original_shape":{"element_type":"BF16","dimensions":["128","256"],"tuple_shapes":[],"layout":{"minor_to_major":["1","0"],"tiles":[{"dimensions":["8","128"]},{"dimensions":["2","1"]}],"element_size_in_bits":"0","memory_space":"0","dim_level_types":[],"index_primitive_type":"PRIMITIVE_TYPE_INVALID","pointer_primitive_type":"PRIMITIVE_TYPE_INVALID","dim_unique":[],"dim_ordered":[],"dynamic_shape_metadata_prefix_bytes":"0","tail_padding_alignment_in_elements":"1","split_configs":[]},"is_dynamic_dimension":[false,false]}}}
  %add.3374.clone.1 = f32[128,256]{1,0:T(8,128)} add(%exp.506.clone.1, %convert.779), metadata={op_name="jit(train_step)/transpose(jvp())/while/body/closed_call/checkpoint/rematted_computation/add" stack_frame_id=0}, backend_config={"flag_configs":[],"scoped_memory_configs":[],"used_scoped_memory_configs":[],"float_type_correction_info":{"original_type":"BF16","original_shape":{"element_type":"BF16","dimensions":["128","256"],"tuple_shapes":[],"layout":{"minor_to_major":["1","0"],"tiles":[{"dimensions":["8","128"]},{"dimensions":["2","1"]}],"element_size_in_bits":"0","memory_space":"0","dim_level_types":[],"index_primitive_type":"PRIMITIVE_TYPE_INVALID","pointer_primitive_type":"PRIMITIVE_TYPE_INVALID","dim_unique":[],"dim_ordered":[],"dynamic_shape_metadata_prefix_bytes":"0","tail_padding_alignment_in_elements":"1","split_configs":[]},"is_dynamic_dimension":[false,false]}}}
  %div.2161.clone.1 = f32[128,256]{1,0:T(8,128)} divide(%convert.779, %add.3374.clone.1), metadata={op_name="jit(train_step)/transpose(jvp())/while/body/closed_call/checkpoint/rematted_computation/div" stack_frame_id=0}, backend_config={"flag_configs":[],"scoped_memory_configs":[],"used_scoped_memory_configs":[],"float_type_correction_info":{"original_type":"BF16","original_shape":{"element_type":"BF16","dimensions":["128","256"],"tuple_shapes":[],"layout":{"minor_to_major":["1","0"],"tiles":[{"dimensions":["8","128"]},{"dimensions":["2","1"]}],"element_size_in_bits":"0","memory_space":"0","dim_level_types":[],"index_primitive_type":"PRIMITIVE_TYPE_INVALID","pointer_primitive_type":"PRIMITIVE_TYPE_INVALID","dim_unique":[],"dim_ordered":[],"dynamic_shape_metadata_prefix_bytes":"0","tail_padding_alignment_in_elements":"1","split_configs":[]},"is_dynamic_dimension":[false,false]}}}
  %convert.780 = bf16[128,256]{1,0:T(8,128)(2,1)} convert(%div.2161.clone.1)
  %bitcast.1773 = bf16[1,128,256]{2,1,0:T(8,128)(2,1)} bitcast(%convert.780), metadata={op_name="jit(train_step)/transpose(jvp())/while/body/closed_call/checkpoint/rematted_computation/div" stack_frame_id=0}
  %convert.781 = f32[1,128,256]{2,1,0:T(8,128)} convert(%bitcast.1773)
  %param_0.4347 = bf16[256]{0:T(256)(128)(2,1)S(1)} parameter(0)
  %add.3446 = bf16[1,128,256]{2,1,0:T(8,128)(2,1)} broadcast(%param_0.4347), dimensions={2}, metadata={op_name="jit(train_step)/jvp()/while/body/closed_call/add" stack_frame_id=0}
  %convert.782 = f32[1,128,256]{2,1,0:T(8,128)} convert(%add.3446)
  %add.3421 = f32[1,128,256]{2,1,0:T(8,128)} add(%convert.781, %convert.782), metadata={op_name="jit(train_step)/transpose(jvp())/while/body/closed_call/checkpoint/rematted_computation/add" stack_frame_id=0}, backend_config={"flag_configs":[],"scoped_memory_configs":[],"used_scoped_memory_configs":[],"float_type_correction_info":{"original_type":"BF16","original_shape":{"element_type":"BF16","dimensions":["1","128","256"],"tuple_shapes":[],"layout":{"minor_to_major":["2","1","0"],"tiles":[{"dimensions":["8","128"]},{"dimensions":["2","1"]}],"element_size_in_bits":"0","memory_space":"0","dim_level_types":[],"index_primitive_type":"PRIMITIVE_TYPE_INVALID","pointer_primitive_type":"PRIMITIVE_TYPE_INVALID","dim_unique":[],"dim_ordered":[],"dynamic_shape_metadata_prefix_bytes":"0","tail_padding_alignment_in_elements":"1","split_configs":[]},"is_dynamic_dimension":[false,false,false]}}}
  %convert.784 = bf16[1,128,256]{2,1,0:T(8,128)(2,1)} convert(%add.3421)
  %param_1.5120 = bf16[128,256]{1,0:T(8,128)(2,1)S(1)} parameter(1)
  %bitcast.1802.clone.1 = bf16[1,128,256]{2,1,0:T(8,128)(2,1)} bitcast(%param_1.5120), metadata={op_name="jit(train_step)/jvp()/while/body/closed_call/div" stack_frame_id=0}
  %convert.783 = f32[1,128,256]{2,1,0:T(8,128)} convert(%bitcast.1802.clone.1)
  %add.3427.clone.1 = f32[1,128,256]{2,1,0:T(8,128)} add(%convert.783, %convert.782), metadata={op_name="jit(train_step)/jvp()/while/body/closed_call/add" stack_frame_id=0}, backend_config={"flag_configs":[],"scoped_memory_configs":[],"used_scoped_memory_configs":[],"float_type_correction_info":{"original_type":"BF16","original_shape":{"element_type":"BF16","dimensions":["1","128","256"],"tuple_shapes":[],"layout":{"minor_to_major":["2","1","0"],"tiles":[{"dimensions":["8","128"]},{"dimensions":["2","1"]}],"element_size_in_bits":"0","memory_space":"0","dim_level_types":[],"index_primitive_type":"PRIMITIVE_TYPE_INVALID","pointer_primitive_type":"PRIMITIVE_TYPE_INVALID","dim_unique":[],"dim_ordered":[],"dynamic_shape_metadata_prefix_bytes":"0","tail_padding_alignment_in_elements":"1","split_configs":[]},"is_dynamic_dimension":[false,false,false]}}}
  %convert.785 = bf16[1,128,256]{2,1,0:T(8,128)(2,1)S(1)} convert(%add.3427.clone.1)
  ROOT %tuple.727 = (bf16[1,128,256]{2,1,0:T(8,128)(2,1)}, bf16[1,128,256]{2,1,0:T(8,128)(2,1)S(1)}, bf16[128,256]{1,0:T(8,128)(2,1)}) tuple(%convert.784, %convert.785, %convert.780)
}

%region_12.18 (top_k.0: bf16[], top_k.6: bf16[], top_k.7: s32[], top_k.8: s32[]) -> pred[] {
  %constant.1521 = s32[]{:T(128)} constant(0)
  %constant.1522 = s32[]{:T(128)} constant(2147483647)
  %top_k.0 = bf16[]{:T(256)} parameter(0), metadata={op_name="top_k"}
  %top_k.6 = bf16[]{:T(256)} parameter(1), metadata={op_name="top_k"}
  %top_k.7 = s32[]{:T(128)} parameter(2), metadata={op_name="top_k"}
  %top_k.8 = s32[]{:T(128)} parameter(3), metadata={op_name="top_k"}
  %convert.384 = f32[]{:T(128)S(6)} convert(%top_k.0), metadata={op_name="convert.16"}, backend_config={"flag_configs":[],"scoped_memory_configs":[],"used_scoped_memory_configs":[],"aliasing_operands":{"lists":[]}}
  %bitcast-convert.35 = s32[]{:T(128)S(6)} bitcast-convert(%convert.384), metadata={op_name="bitcast-convert.6"}, backend_config={"flag_configs":[],"scoped_memory_configs":[],"used_scoped_memory_configs":[],"aliasing_operands":{"lists":[]}}
  %compare.128 = pred[]{:T(512)S(6)} compare(%bitcast-convert.35, %constant.1521), direction=LT, metadata={op_name="compare.35"}, backend_config={"flag_configs":[],"scoped_memory_configs":[],"used_scoped_memory_configs":[],"aliasing_operands":{"lists":[]}}
  %xor.36 = s32[]{:T(128)S(6)} xor(%constant.1522, %bitcast-convert.35), metadata={op_name="xor.6"}, backend_config={"flag_configs":[],"scoped_memory_configs":[],"used_scoped_memory_configs":[],"aliasing_operands":{"lists":[]}}
  %select.118 = s32[]{:T(128)S(6)} select(%compare.128, %xor.36, %bitcast-convert.35), metadata={op_name="select.14"}, backend_config={"flag_configs":[],"scoped_memory_configs":[],"used_scoped_memory_configs":[],"aliasing_operands":{"lists":[{"indices":["1","3"]}]}}
  %convert.385 = f32[]{:T(128)S(6)} convert(%top_k.6), metadata={op_name="convert.17"}, backend_config={"flag_configs":[],"scoped_memory_configs":[],"used_scoped_memory_configs":[],"aliasing_operands":{"lists":[]}}
  %bitcast-convert.36 = s32[]{:T(128)S(6)} bitcast-convert(%convert.385), metadata={op_name="bitcast-convert.7"}, backend_config={"flag_configs":[],"scoped_memory_configs":[],"used_scoped_memory_configs":[],"aliasing_operands":{"lists":[]}}
  %compare.129 = pred[]{:T(512)S(6)} compare(%bitcast-convert.36, %constant.1521), direction=LT, metadata={op_name="compare.36"}, backend_config={"flag_configs":[],"scoped_memory_configs":[],"used_scoped_memory_configs":[],"aliasing_operands":{"lists":[]}}
  %xor.37 = s32[]{:T(128)S(6)} xor(%constant.1522, %bitcast-convert.36), metadata={op_name="xor.7"}, backend_config={"flag_configs":[],"scoped_memory_configs":[],"used_scoped_memory_configs":[],"aliasing_operands":{"lists":[]}}
  %select.119 = s32[]{:T(128)S(6)} select(%compare.129, %xor.37, %bitcast-convert.36), metadata={op_name="select.15"}, backend_config={"flag_configs":[],"scoped_memory_configs":[],"used_scoped_memory_configs":[],"aliasing_operands":{"lists":[{"indices":["1","3"]}]}}
  %compare.130 = pred[]{:T(512)S(6)} compare(%select.118, %select.119), direction=GT, metadata={op_name="compare.1"}, backend_config={"flag_configs":[],"scoped_memory_configs":[],"used_scoped_memory_configs":[],"aliasing_operands":{"lists":[]}}
  %compare.131 = pred[]{:T(512)S(6)} compare(%select.119, %select.118), direction=GT, metadata={op_name="compare.108"}, backend_config={"flag_configs":[],"scoped_memory_configs":[],"used_scoped_memory_configs":[],"aliasing_operands":{"lists":[]}}
