HloModule jit_train_step, is_scheduled=true, input_output_alias={ {0}: (0, {}, may-alias), {1}: (1, {}, may-alias), {2}: (2, {}, may-alias), {3}: (3, {}, may-alias), {4}: (4, {}, may-alias), {5}: (5, {}, may-alias), {6}: (6, {}, may-alias), {7}: (7, {}, may-alias), {8}: (8, {}, may-alias), {9}: (9, {}, may-alias), {10}: (10, {}, may-alias), {11}: (11, {}, may-alias), {12}: (12, {}, may-alias), {13}: (13, {}, may-alias), {14}: (14, {}, may-alias), {15}: (15, {}, may-alias), {16}: (16, {}, may-alias), {17}: (17, {}, may-alias), {18}: (18, {}, may-alias), {19}: (19, {}, may-alias), {20}: (20, {}, may-alias), {21}: (21, {}, may-alias), {22}: (22, {}, may-alias), {23}: (23, {}, may-alias), {24}: (24, {}, may-alias), {25}: (25, {}, may-alias), {26}: (26, {}, may-alias), {27}: (27, {}, may-alias), {28}: (28, {}, may-alias), {29}: (29, {}, may-alias), {30}: (30, {}, may-alias), {31}: (31, {}, may-alias), {32}: (32, {}, may-alias), {33}: (33, {}, may-alias), {34}: (34, {}, may-alias), {35}: (35, {}, may-alias), {36}: (36, {}, may-alias), {37}: (37, {}, may-alias), {38}: (38, {}, may-alias), {39}: (39, {}, may-alias), {40}: (40, {}, may-alias), {41}: (41, {}, may-alias), {42}: (42, {}, may-alias), {43}: (43, {}, may-alias), {44}: (44, {}, may-alias), {45}: (45, {}, may-alias), {46}: (46, {}, may-alias), {47}: (47, {}, may-alias), {48}: (48, {}, may-alias), {49}: (49, {}, may-alias), {50}: (50, {}, may-alias), {51}: (51, {}, may-alias), {52}: (52, {}, may-alias), {53}: (53, {}, may-alias), {54}: (54, {}, may-alias), {55}: (55, {}, may-alias), {56}: (56, {}, may-alias), {57}: (57, {}, may-alias), {58}: (58, {}, may-alias), {59}: (59, {}, may-alias), {60}: (60, {}, may-alias), {61}: (61, {}, may-alias), {62}: (62, {}, may-alias), {63}: (63, {}, may-alias), {64}: (64, {}, may-alias), {65}: (65, {}, may-alias), {66}: (66, {}, may-alias), {67}: (67, {}, may-alias), {68}: (68, {}, may-alias), {69}: (69, {}, may-alias), {70}: (70, {}, may-alias), {71}: (71, {}, may-alias), {72}: (72, {}, may-alias), {73}: (73, {}, may-alias), {74}: (74, {}, may-alias), {75}: (75, {}, may-alias), {76}: (76, {}, may-alias), {77}: (77, {}, may-alias), {78}: (78, {}, may-alias), {79}: (79, {}, may-alias), {80}: (80, {}, may-alias), {81}: (81, {}, may-alias), {82}: (82, {}, may-alias), {83}: (83, {}, may-alias), {84}: (84, {}, may-alias), {85}: (85, {}, may-alias), {86}: (86, {}, may-alias), {87}: (87, {}, may-alias), {88}: (88, {}, may-alias), {89}: (89, {}, may-alias), {90}: (90, {}, may-alias), {91}: (91, {}, may-alias), {92}: (92, {}, may-alias), {93}: (93, {}, may-alias), {94}: (94, {}, may-alias), {95}: (95, {}, may-alias), {96}: (96, {}, may-alias), {97}: (97, {}, may-alias), {98}: (98, {}, may-alias), {99}: (99, {}, may-alias), {100}: (100, {}, may-alias), {101}: (101, {}, may-alias), {102}: (102, {}, may-alias), {103}: (103, {}, may-alias), {104}: (104, {}, may-alias), {105}: (105, {}, may-alias), {106}: (106, {}, may-alias), {107}: (107, {}, may-alias), {108}: (108, {}, may-alias), {109}: (109, {}, may-alias), {110}: (110, {}, may-alias), {111}: (111, {}, may-alias), {112}: (112, {}, may-alias), {113}: (113, {}, may-alias), {114}: (114, {}, may-alias), {115}: (115, {}, may-alias), {116}: (116, {}, may-alias), {117}: (117, {}, may-alias), {118}: (118, {}, may-alias), {119}: (119, {}, may-alias), {120}: (120, {}, may-alias), {121}: (121, {}, may-alias), {122}: (122, {}, may-alias), {123}: (123, {}, may-alias), {124}: (124, {}, may-alias), {125}: (125, {}, may-alias), {126}: (126, {}, may-alias), {127}: (127, {}, may-alias), {128}: (128, {}, may-alias), {129}: (129, {}, may-alias), {130}: (130, {}, may-alias), {131}: (131, {}, may-alias), {132}: (132, {}, may-alias), {133}: (133, {}, may-alias), {134}: (134, {}, may-alias), {135}: (135, {}, may-alias), {136}: (136, {}, may-alias), {137}: (137, {}, may-alias), {138}: (138, {}, may-alias), {139}: (139, {}, may-alias), {140}: (140, {}, may-alias), {141}: (141, {}, may-alias), {142}: (142, {}, may-alias), {143}: (143, {}, may-alias), {144}: (144, {}, may-alias), {145}: (145, {}, may-alias), {146}: (146, {}, may-alias) }, entry_computation_layout={(f32[512]{0:T(512)}, u32[3]{0:T(128)}, u32[3,4]{1,0:T(4,128)}, u32[3]{0:T(128)}, u32[3,4]{1,0:T(4,128)}, /*index=5*/u32[3]{0:T(128)}, u32[3,4]{1,0:T(4,128)}, u32[3]{0:T(128)}, u32[3,4]{1,0:T(4,128)}, u32[3]{0:T(128)}, /*index=10*/u32[3,4]{1,0:T(4,128)}, u32[3]{0:T(128)}, u32[3,4]{1,0:T(4,128)}, f32[128,3,18432]{2,0,1:T(8,128)}, f32[128,3,18432]{2,0,1:T(8,128)}, /*index=15*/f32[18432,3,128]{2,0,1:T(8,128)}, f32[512,3]{0,1:T(4,128)}, f32[512,3]{0,1:T(4,128)}, u32[3]{0:T(128)}, u32[3,4]{1,0:T(4,128)}, /*index=20*/u32[3]{0:T(128)}, u32[3,4]{1,0:T(4,128)}, u32[3]{0:T(128)}, u32[3,4]{1,0:T(4,128)}, f32[512,3]{0,1:T(4,128)}, /*index=25*/f32[128,3,128,128]{3,2,1,0:T(8,128)}, f32[1536,3]{0,1:T(4,128)}, f32[128,3,576]{0,2,1:T(8,128)}, f32[128,3,128,256]{3,2,1,0:T(8,128)}, f32[128,3,1536]{2,0,1:T(8,128)}, /*index=30*/f32[384,3,128,192]{2,3,1,0:T(8,128)}, u32[]{:T(128)}, u32[4]{0:T(128)}, u32[]{:T(128)}, u32[4]{0:T(128)}, /*index=35*/u32[]{:T(128)}, u32[4]{0:T(128)}, f32[128,129280]{1,0:T(8,128)}, f32[256,1]{0,1:T(1,128)}, f32[128,1,256]{2,1,0:T(1,128)}, /*index=40*/u32[1]{0:T(128)}, u32[1,4]{1,0:T(1,128)}, u32[1]{0:T(128)}, u32[1,4]{1,0:T(1,128)}, u32[1]{0:T(128)}, /*index=45*/u32[1,4]{1,0:T(1,128)}, f32[256,1,128,512]{3,2,1,0:T(8,128)}, f32[256,1,128,512]{3,2,1,0:T(8,128)}, f32[256,1,512,128]{3,2,1,0:T(8,128)}, u32[1]{0:T(128)}, /*index=50*/u32[1,4]{1,0:T(1,128)}, u32[1]{0:T(128)}, u32[1,4]{1,0:T(1,128)}, u32[1]{0:T(128)}, u32[1,4]{1,0:T(1,128)}, /*index=55*/f32[128,1,512]{2,1,0:T(1,128)}, f32[128,1,512]{2,1,0:T(1,128)}, f32[512,1,128]{2,1,0:T(1,128)}, u32[1]{0:T(128)}, u32[1,4]{1,0:T(1,128)}, /*index=60*/u32[1]{0:T(128)}, u32[1,4]{1,0:T(1,128)}, u32[1]{0:T(128)}, u32[1,4]{1,0:T(1,128)}, f32[512,1]{0,1:T(1,128)}, /*index=65*/f32[512,1]{0,1:T(1,128)}, f32[512,1]{0,1:T(1,128)}, f32[128,1,128,128]{3,2,1,0:T(8,128)}, f32[1536,1]{0,1:T(1,128)}, f32[128,1,576]{0,2,1:T(8,128)}, /*index=70*/f32[128,1,128,256]{3,2,1,0:T(8,128)}, f32[128,1,1536]{2,1,0:T(1,128)}, f32[384,1,128,192]{2,3,1,0:T(8,128)}, u32[]{:T(128)}, u32[4]{0:T(128)}, /*index=75*/u32[]{:T(128)}, u32[4]{0:T(128)}, u32[]{:T(128)}, u32[4]{0:T(128)}, f32[129280,128]{1,0:T(8,128)}, /*index=80*/s32[]{:T(128)}, f32[512]{0:T(512)}, f32[128,3,18432]{2,0,1:T(8,128)}, f32[128,3,18432]{2,0,1:T(8,128)}, f32[18432,3,128]{2,0,1:T(8,128)}, /*index=85*/f32[512,3]{0,1:T(4,128)}, f32[512,3]{0,1:T(4,128)}, f32[512,3]{0,1:T(4,128)}, f32[128,3,128,128]{3,2,1,0:T(8,128)}, f32[1536,3]{0,1:T(4,128)}, /*index=90*/f32[128,3,576]{0,2,1:T(8,128)}, f32[128,3,128,256]{3,2,1,0:T(8,128)}, f32[128,3,1536]{2,0,1:T(8,128)}, f32[384,3,128,192]{2,3,1,0:T(8,128)}, f32[128,129280]{1,0:T(8,128)}, /*index=95*/f32[256,1]{0,1:T(1,128)}, f32[128,1,256]{2,1,0:T(1,128)}, f32[256,1,128,512]{3,2,1,0:T(8,128)}, f32[256,1,128,512]{3,2,1,0:T(8,128)}, f32[256,1,512,128]{3,2,1,0:T(8,128)}, /*index=100*/f32[128,1,512]{2,1,0:T(1,128)}, f32[128,1,512]{2,1,0:T(1,128)}, f32[512,1,128]{2,1,0:T(1,128)}, f32[512,1]{0,1:T(1,128)}, f32[512,1]{0,1:T(1,128)}, /*index=105*/f32[512,1]{0,1:T(1,128)}, f32[128,1,128,128]{3,2,1,0:T(8,128)}, f32[1536,1]{0,1:T(1,128)}, f32[128,1,576]{0,2,1:T(8,128)}, f32[128,1,128,256]{3,2,1,0:T(8,128)}, /*index=110*/f32[128,1,1536]{2,1,0:T(1,128)}, f32[384,1,128,192]{2,3,1,0:T(8,128)}, f32[129280,128]{1,0:T(8,128)}, f32[512]{0:T(512)}, f32[128,3,18432]{2,0,1:T(8,128)}, /*index=115*/f32[128,3,18432]{2,0,1:T(8,128)}, f32[18432,3,128]{2,0,1:T(8,128)}, f32[512,3]{0,1:T(4,128)}, f32[512,3]{0,1:T(4,128)}, f32[512,3]{0,1:T(4,128)}, /*index=120*/f32[128,3,128,128]{3,2,1,0:T(8,128)}, f32[1536,3]{0,1:T(4,128)}, f32[128,3,576]{0,2,1:T(8,128)}, f32[128,3,128,256]{3,2,1,0:T(8,128)}, f32[128,3,1536]{2,0,1:T(8,128)}, /*index=125*/f32[384,3,128,192]{2,3,1,0:T(8,128)}, f32[128,129280]{1,0:T(8,128)}, f32[256,1]{0,1:T(1,128)}, f32[128,1,256]{2,1,0:T(1,128)}, f32[256,1,128,512]{3,2,1,0:T(8,128)}, /*index=130*/f32[256,1,128,512]{3,2,1,0:T(8,128)}, f32[256,1,512,128]{3,2,1,0:T(8,128)}, f32[128,1,512]{2,1,0:T(1,128)}, f32[128,1,512]{2,1,0:T(1,128)}, f32[512,1,128]{2,1,0:T(1,128)}, /*index=135*/f32[512,1]{0,1:T(1,128)}, f32[512,1]{0,1:T(1,128)}, f32[512,1]{0,1:T(1,128)}, f32[128,1,128,128]{3,2,1,0:T(8,128)}, f32[1536,1]{0,1:T(1,128)}, /*index=140*/f32[128,1,576]{0,2,1:T(8,128)}, f32[128,1,128,256]{3,2,1,0:T(8,128)}, f32[128,1,1536]{2,1,0:T(1,128)}, f32[384,1,128,192]{2,3,1,0:T(8,128)}, f32[129280,128]{1,0:T(8,128)}, /*index=145*/s32[]{:T(128)}, u32[]{:T(128)}, s32[1,128]{1,0:T(1,128)}, s32[1,128]{1,0:T(1,128)}, s32[1,128]{1,0:T(1,128)}, /*index=150*/s32[1,128]{1,0:T(1,128)}, s32[1,128]{1,0:T(1,128)})->(f32[512]{0:T(512)}, u32[3]{0:T(128)}, u32[3,4]{1,0:T(4,128)}, u32[3]{0:T(128)}, u32[3,4]{1,0:T(4,128)}, /*index=5*/u32[3]{0:T(128)}, u32[3,4]{1,0:T(4,128)}, u32[3]{0:T(128)}, u32[3,4]{1,0:T(4,128)}, u32[3]{0:T(128)}, /*index=10*/u32[3,4]{1,0:T(4,128)}, u32[3]{0:T(128)}, u32[3,4]{1,0:T(4,128)}, f32[128,3,18432]{2,0,1:T(8,128)}, f32[128,3,18432]{2,0,1:T(8,128)}, /*index=15*/f32[18432,3,128]{2,0,1:T(8,128)}, f32[512,3]{0,1:T(4,128)}, f32[512,3]{0,1:T(4,128)}, u32[3]{0:T(128)}, u32[3,4]{1,0:T(4,128)}, /*index=20*/u32[3]{0:T(128)}, u32[3,4]{1,0:T(4,128)}, u32[3]{0:T(128)}, u32[3,4]{1,0:T(4,128)}, f32[512,3]{0,1:T(4,128)}, /*index=25*/f32[128,3,128,128]{3,2,1,0:T(8,128)}, f32[1536,3]{0,1:T(4,128)}, f32[128,3,576]{0,2,1:T(8,128)}, f32[128,3,128,256]{3,2,1,0:T(8,128)}, f32[128,3,1536]{2,0,1:T(8,128)}, /*index=30*/f32[384,3,128,192]{2,3,1,0:T(8,128)}, u32[]{:T(128)}, u32[4]{0:T(128)}, u32[]{:T(128)}, u32[4]{0:T(128)}, /*index=35*/u32[]{:T(128)}, u32[4]{0:T(128)}, f32[128,129280]{1,0:T(8,128)}, f32[256,1]{0,1:T(1,128)}, f32[128,1,256]{2,1,0:T(1,128)}, /*index=40*/u32[1]{0:T(128)}, u32[1,4]{1,0:T(1,128)}, u32[1]{0:T(128)}, u32[1,4]{1,0:T(1,128)}, u32[1]{0:T(128)}, /*index=45*/u32[1,4]{1,0:T(1,128)}, f32[256,1,128,512]{3,2,1,0:T(8,128)}, f32[256,1,128,512]{3,2,1,0:T(8,128)}, f32[256,1,512,128]{3,2,1,0:T(8,128)}, u32[1]{0:T(128)}, /*index=50*/u32[1,4]{1,0:T(1,128)}, u32[1]{0:T(128)}, u32[1,4]{1,0:T(1,128)}, u32[1]{0:T(128)}, u32[1,4]{1,0:T(1,128)}, /*index=55*/f32[128,1,512]{2,1,0:T(1,128)}, f32[128,1,512]{2,1,0:T(1,128)}, f32[512,1,128]{2,1,0:T(1,128)}, u32[1]{0:T(128)}, u32[1,4]{1,0:T(1,128)}, /*index=60*/u32[1]{0:T(128)}, u32[1,4]{1,0:T(1,128)}, u32[1]{0:T(128)}, u32[1,4]{1,0:T(1,128)}, f32[512,1]{0,1:T(1,128)}, /*index=65*/f32[512,1]{0,1:T(1,128)}, f32[512,1]{0,1:T(1,128)}, f32[128,1,128,128]{3,2,1,0:T(8,128)}, f32[1536,1]{0,1:T(1,128)}, f32[128,1,576]{0,2,1:T(8,128)}, /*index=70*/f32[128,1,128,256]{3,2,1,0:T(8,128)}, f32[128,1,1536]{2,1,0:T(1,128)}, f32[384,1,128,192]{2,3,1,0:T(8,128)}, u32[]{:T(128)}, u32[4]{0:T(128)}, /*index=75*/u32[]{:T(128)}, u32[4]{0:T(128)}, u32[]{:T(128)}, u32[4]{0:T(128)}, f32[129280,128]{1,0:T(8,128)}, /*index=80*/s32[]{:T(128)}, f32[512]{0:T(512)}, f32[128,3,18432]{2,0,1:T(8,128)}, f32[128,3,18432]{2,0,1:T(8,128)}, f32[18432,3,128]{2,0,1:T(8,128)}, /*index=85*/f32[512,3]{0,1:T(4,128)}, f32[512,3]{0,1:T(4,128)}, f32[512,3]{0,1:T(4,128)}, f32[128,3,128,128]{3,2,1,0:T(8,128)}, f32[1536,3]{0,1:T(4,128)}, /*index=90*/f32[128,3,576]{0,2,1:T(8,128)}, f32[128,3,128,256]{3,2,1,0:T(8,128)}, f32[128,3,1536]{2,0,1:T(8,128)}, f32[384,3,128,192]{2,3,1,0:T(8,128)}, f32[128,129280]{1,0:T(8,128)}, /*index=95*/f32[256,1]{0,1:T(1,128)}, f32[128,1,256]{2,1,0:T(1,128)}, f32[256,1,128,512]{3,2,1,0:T(8,128)}, f32[256,1,128,512]{3,2,1,0:T(8,128)}, f32[256,1,512,128]{3,2,1,0:T(8,128)}, /*index=100*/f32[128,1,512]{2,1,0:T(1,128)}, f32[128,1,512]{2,1,0:T(1,128)}, f32[512,1,128]{2,1,0:T(1,128)}, f32[512,1]{0,1:T(1,128)}, f32[512,1]{0,1:T(1,128)}, /*index=105*/f32[512,1]{0,1:T(1,128)}, f32[128,1,128,128]{3,2,1,0:T(8,128)}, f32[1536,1]{0,1:T(1,128)}, f32[128,1,576]{0,2,1:T(8,128)}, f32[128,1,128,256]{3,2,1,0:T(8,128)}, /*index=110*/f32[128,1,1536]{2,1,0:T(1,128)}, f32[384,1,128,192]{2,3,1,0:T(8,128)}, f32[129280,128]{1,0:T(8,128)}, f32[512]{0:T(512)}, f32[128,3,18432]{2,0,1:T(8,128)}, /*index=115*/f32[128,3,18432]{2,0,1:T(8,128)}, f32[18432,3,128]{2,0,1:T(8,128)}, f32[512,3]{0,1:T(4,128)}, f32[512,3]{0,1:T(4,128)}, f32[512,3]{0,1:T(4,128)}, /*index=120*/f32[128,3,128,128]{3,2,1,0:T(8,128)}, f32[1536,3]{0,1:T(4,128)}, f32[128,3,576]{0,2,1:T(8,128)}, f32[128,3,128,256]{3,2,1,0:T(8,128)}, f32[128,3,1536]{2,0,1:T(8,128)}, /*index=125*/f32[384,3,128,192]{2,3,1,0:T(8,128)}, f32[128,129280]{1,0:T(8,128)}, f32[256,1]{0,1:T(1,128)}, f32[128,1,256]{2,1,0:T(1,128)}, f32[256,1,128,512]{3,2,1,0:T(8,128)}, /*index=130*/f32[256,1,128,512]{3,2,1,0:T(8,128)}, f32[256,1,512,128]{3,2,1,0:T(8,128)}, f32[128,1,512]{2,1,0:T(1,128)}, f32[128,1,512]{2,1,0:T(1,128)}, f32[512,1,128]{2,1,0:T(1,128)}, /*index=135*/f32[512,1]{0,1:T(1,128)}, f32[512,1]{0,1:T(1,128)}, f32[512,1]{0,1:T(1,128)}, f32[128,1,128,128]{3,2,1,0:T(8,128)}, f32[1536,1]{0,1:T(1,128)}, /*index=140*/f32[128,1,576]{0,2,1:T(8,128)}, f32[128,1,128,256]{3,2,1,0:T(8,128)}, f32[128,1,1536]{2,1,0:T(1,128)}, f32[384,1,128,192]{2,3,1,0:T(8,128)}, f32[129280,128]{1,0:T(8,128)}, /*index=145*/s32[]{:T(128)}, u32[]{:T(128)}, f32[]{:T(128)}, f32[]{:T(128)}, f32[]{:T(128)}, /*index=150*/f32[]{:T(128)}, f32[]{:T(128)}, f32[]{:T(128)}, f32[]{:T(128)}, f32[]{:T(128)}, /*index=155*/f32[]{:T(128)}, s32[]{:T(128)}, f32[]{:T(128)})}, allow_spmd_sharding_propagation_to_parameters={false,false,false,false,false,false,false,false,false,false,false,false,false,false,false,false,false,false,false,false,false,false,false,false,false,false,false,false,false,false,false,false,false,false,false,false,false,false,false,false,false,false,false,false,false,false,false,false,false,false,false,false,false,false,false,false,false,false,false,false,false,false,false,false,false,false,false,false,false,false,false,false,false,false,false,false,false,false,false,false,false,false,false,false,false,false,false,false,false,false,false,false,false,false,false,false,false,false,false,false,false,false,false,false,false,false,false,false,false,false,false,false,false,false,false,false,false,false,false,false,false,false,false,false,false,false,false,false,false,false,false,false,false,false,false,false,false,false,false,false,false,false,false,false,false,false,false,false,false,false,false,false}, allow_spmd_sharding_propagation_to_output={false,false,false,false,false,false,false,false,false,false,false,false,false,false,false,false,false,false,false,false,false,false,false,false,false,false,false,false,false,false,false,false,false,false,false,false,false,false,false,false,false,false,false,false,false,false,false,false,false,false,false,false,false,false,false,false,false,false,false,false,false,false,false,false,false,false,false,false,false,false,false,false,false,false,false,false,false,false,false,false,false,false,false,false,false,false,false,false,false,false,false,false,false,false,false,false,false,false,false,false,false,false,false,false,false,false,false,false,false,false,false,false,false,false,false,false,false,false,false,false,false,false,false,false,false,false,false,false,false,false,false,false,false,false,false,false,false,false,false,false,false,false,false,false,false,false,false,true,true,true,true,true,true,true,true,true,true,true}, num_partitions=4, frontend_attributes={arg_layout_modes="default;default;default;default;default;default;default;default;default;default;default;default;default;default;default;default;default;default;default;default;default;default;default;default;default;default;default;default;default;default;default;default;default;default;default;default;default;default;default;default;default;default;default;default;default;default;default;default;default;default;default;default;default;default;default;default;default;default;default;default;default;default;default;default;default;default;default;default;default;default;default;default;default;default;default;default;default;default;default;default;default;default;default;default;default;default;default;default;default;default;default;default;default;default;default;default;default;default;default;default;default;default;default;default;default;default;default;default;default;default;default;default;default;default;default;default;default;default;default;default;default;default;default;default;default;default;default;default;default;default;default;default;default;default;default;default;default;default;default;default;default;default;default;default;default;default;default;default;default;default;default;default",arg_memory_spaces="0;0;0;0;0;0;0;0;0;0;0;0;0;0;0;0;0;0;0;0;0;0;0;0;0;0;0;0;0;0;0;0;0;0;0;0;0;0;0;0;0;0;0;0;0;0;0;0;0;0;0;0;0;0;0;0;0;0;0;0;0;0;0;0;0;0;0;0;0;0;0;0;0;0;0;0;0;0;0;0;0;0;0;0;0;0;0;0;0;0;0;0;0;0;0;0;0;0;0;0;0;0;0;0;0;0;0;0;0;0;0;0;0;0;0;0;0;0;0;0;0;0;0;0;0;0;0;0;0;0;0;0;0;0;0;0;0;0;0;0;0;0;0;0;0;0;0;0;0;0;0;0",out_layout_modes="default;default;default;default;default;default;default;default;default;default;default;default;default;default;default;default;default;default;default;default;default;default;default;default;default;default;default;default;default;default;default;default;default;default;default;default;default;default;default;default;default;default;default;default;default;default;default;default;default;default;default;default;default;default;default;default;default;default;default;default;default;default;default;default;default;default;default;default;default;default;default;default;default;default;default;default;default;default;default;default;default;default;default;default;default;default;default;default;default;default;default;default;default;default;default;default;default;default;default;default;default;default;default;default;default;default;default;default;default;default;default;default;default;default;default;default;default;default;default;default;default;default;default;default;default;default;default;default;default;default;default;default;default;default;default;default;default;default;default;default;default;default;default;default;default;default;default;default;default;default;default;default;default;default;default;default;default;default",out_memory_spaces="0;0;0;0;0;0;0;0;0;0;0;0;0;0;0;0;0;0;0;0;0;0;0;0;0;0;0;0;0;0;0;0;0;0;0;0;0;0;0;0;0;0;0;0;0;0;0;0;0;0;0;0;0;0;0;0;0;0;0;0;0;0;0;0;0;0;0;0;0;0;0;0;0;0;0;0;0;0;0;0;0;0;0;0;0;0;0;0;0;0;0;0;0;0;0;0;0;0;0;0;0;0;0;0;0;0;0;0;0;0;0;0;0;0;0;0;0;0;0;0;0;0;0;0;0;0;0;0;0;0;0;0;0;0;0;0;0;0;0;0;0;0;0;0;0;0;0;0;0;0;0;0;0;0;0;0;0;0"}

FileNames

FunctionNames

FileLocations

StackFrames


%fused_computation.1336 (param_0.3806: s32[1,128]) -> s32[1,1,128] {
  %param_0.3806 = s32[1,128]{1,0:T(1,128)S(1)} parameter(0)
  %constant.1668.clone.116 = s32[]{:T(128)} constant(0), metadata={op_name="jit(train_step)/shard_map/jit(gmm)" stack_frame_id=0}
  %broadcast.4270 = s32[1,128]{1,0:T(1,128)} broadcast(%constant.1668.clone.116), dimensions={}, metadata={op_name="broadcast.370"}
  %lt.832 = pred[1,128]{1,0:T(4,128)(4,1)} compare(%param_0.3806, %broadcast.4270), direction=LT, metadata={op_name="jit(train_step)/jvp()/lt" stack_frame_id=0}
  %constant.1678.clone.1 = s32[]{:T(128)} constant(129280)
  %add.3602 = s32[1,128]{1,0:T(1,128)} broadcast(%constant.1678.clone.1), dimensions={}, metadata={op_name="jit(train_step)/jvp()/add" stack_frame_id=0}
  %add.3538 = s32[1,128]{1,0:T(1,128)} add(%param_0.3806, %add.3602), metadata={op_name="jit(train_step)/jvp()/add" stack_frame_id=0}
  %select_n.2294 = s32[1,128]{1,0:T(1,128)} select(%lt.832, %add.3538, %param_0.3806), metadata={op_name="jit(train_step)/jvp()/select_n" stack_frame_id=0}
  ROOT %bitcast.1888 = s32[1,1,128]{2,1,0:T(1,128)S(1)} bitcast(%select_n.2294)
}

%fused_computation.1140 (param_0.3323: s32[512]) -> s32[1024] {
  %constant.3992 = s32[] constant(0), metadata={op_name="jit(train_step)/jvp()/gather" stack_frame_id=0}
  %broadcast.4123 = s32[1024]{0:T(1024)} broadcast(%constant.3992), dimensions={}, metadata={op_name="jit(train_step)/jvp()/gather" stack_frame_id=0}
  %param_0.3323 = s32[512]{0:T(512)S(1)} parameter(0)
  %constant.3998 = s32[] constant(2147483647), metadata={op_name="jit(train_step)/jvp()/gather" stack_frame_id=0}
  %pad.334 = s32[1024]{0:T(1024)} pad(%param_0.3323, %constant.3998), padding=0_512, metadata={op_name="jit(train_step)/jvp()/gather" stack_frame_id=0}
  %constant.3981 = s32[] constant(129279), metadata={op_name="jit(train_step)/jvp()/gather" stack_frame_id=0}
  %broadcast.4112 = s32[1024]{0:T(1024)} broadcast(%constant.3981), dimensions={}, metadata={op_name="jit(train_step)/jvp()/gather" stack_frame_id=0}
  ROOT %clamp.59 = s32[1024]{0:T(1024)S(1)} clamp(%broadcast.4123, %pad.334, %broadcast.4112), metadata={op_name="jit(train_step)/jvp()/gather" stack_frame_id=0}
}

%fused_computation.6 (param_0.20: bf16[129280,128], param_1.121: s32[1024]) -> bf16[512,128] {
  %param_0.20 = bf16[129280,128]{1,0:T(8,128)(2,1)S(1)} parameter(0)
  %param_1.121 = s32[1024]{0:T(1024)S(1)} parameter(1)
  %custom-call.18 = s32[1024]{0:T(1024)} custom-call(%param_1.121), custom_call_target="AssumeGatherIndicesInBound", operand_layout_constraints={s32[1024]{0:T(1024)}}, metadata={op_name="jit(train_step)/jvp()/gather" stack_frame_id=0}
  %slice.1057 = s32[512]{0:T(512)} slice(%custom-call.18), slice={[0:512]}, metadata={op_name="jit(train_step)/jvp()/gather" stack_frame_id=0}
  %reshape.4425 = s32[4,128]{1,0:T(4,128)} reshape(%slice.1057), metadata={op_name="jit(train_step)/jvp()/gather" stack_frame_id=0}
  %transpose.652 = s32[4,128]{1,0:T(4,128)} transpose(%reshape.4425), dimensions={0,1}, metadata={op_name="jit(train_step)/jvp()/gather" stack_frame_id=0}
  %gather.226 = bf16[4,128,128]{2,1,0:T(8,128)(2,1)} gather(%param_0.20, %transpose.652), offset_dims={2}, collapsed_slice_dims={0}, start_index_map={0}, index_vector_dim=2, slice_sizes={1,128}, metadata={op_name="jit(train_step)/jvp()/gather" stack_frame_id=0}
  %transpose.651 = bf16[4,128,128]{2,1,0:T(8,128)(2,1)} transpose(%gather.226), dimensions={0,1,2}, metadata={op_name="jit(train_step)/jvp()/gather" stack_frame_id=0}
  ROOT %reshape.4424 = bf16[512,128]{1,0:T(8,128)(2,1)S(1)} reshape(%transpose.651), metadata={op_name="jit(train_step)/jvp()/gather" stack_frame_id=0}
}

%fused_computation.1414 (param_0.4368: f32[512,3]) -> bf16[3,512] {
  %param_0.4368 = f32[512,3]{0,1:T(4,128)} parameter(0)
  %bitcast.2112 = f32[3,512]{1,0:T(4,128)} bitcast(%param_0.4368), metadata={op_name="jit(train_step)/jvp()/transpose" stack_frame_id=0}
  ROOT %convert.554 = bf16[3,512]{1,0:T(4,128)(2,1)} convert(%bitcast.2112)
}

%fused_computation.1405 (param_0.4354: f32[128,3,1536]) -> bf16[3,128,1536] {
  %param_0.4354 = f32[128,3,1536]{2,0,1:T(8,128)S(1)} parameter(0)
  %bitcast.2108 = f32[3,128,1536]{2,1,0:T(8,128)} bitcast(%param_0.4354), metadata={op_name="jit(train_step)/jvp()/transpose" stack_frame_id=0}
  ROOT %convert.546 = bf16[3,128,1536]{2,1,0:T(8,128)(2,1)} convert(%bitcast.2108)
}

%fused_computation.1409 (param_0.4355: f32[1536,3]) -> bf16[3,1536] {
  %param_0.4355 = f32[1536,3]{0,1:T(4,128)S(1)} parameter(0)
  %bitcast.2109 = f32[3,1536]{1,0:T(4,128)} bitcast(%param_0.4355), metadata={op_name="jit(train_step)/jvp()/transpose" stack_frame_id=0}
  ROOT %convert.548 = bf16[3,1536]{1,0:T(4,128)(2,1)} convert(%bitcast.2109)
}

%fused_computation.479 (param_0.1455: f32[384,3,128,192]) -> bf16[3,384,128,192] {
  %param_0.1455 = f32[384,3,128,192]{2,3,1,0:T(8,128)} parameter(0)
  %copy.1416 = bf16[384,3,128,192]{2,0,3,1:T(8,128)(2,1)} copy(%param_0.1455), sharding={devices=[4,1,1,1]<=[4]}, metadata={op_name="state[\'model\'][\'decoder\'][\'dense_layers\'][\'self_attention\'][\'wq_b\'][\'kernel\'].value"}
  ROOT %bitcast.1054 = bf16[3,384,128,192]{2,1,3,0:T(8,128)(2,1)} bitcast(%copy.1416), metadata={op_name="jit(train_step)/jvp()/transpose" stack_frame_id=0}
}

%fused_computation.1413 (param_0.4367: f32[512,3]) -> bf16[3,512] {
  %param_0.4367 = f32[512,3]{0,1:T(4,128)} parameter(0)
  %bitcast.2111 = f32[3,512]{1,0:T(4,128)} bitcast(%param_0.4367), metadata={op_name="jit(train_step)/jvp()/transpose" stack_frame_id=0}
  ROOT %convert.552 = bf16[3,512]{1,0:T(4,128)(2,1)} convert(%bitcast.2111)
}

%fused_computation.564 (param_0.1673: f32[128,3,128,256]) -> bf16[3,128,128,256] {
  %param_0.1673 = f32[128,3,128,256]{3,2,1,0:T(8,128)S(1)} parameter(0)
  %copy.1417 = bf16[128,3,128,256]{3,0,2,1:T(8,128)(2,1)} copy(%param_0.1673), sharding={devices=[4,1,1,1]<=[4]}, metadata={op_name="state[\'model\'][\'decoder\'][\'dense_layers\'][\'self_attention\'][\'wkv_b\'][\'kernel\'].value"}
  ROOT %bitcast.1155 = bf16[3,128,128,256]{3,1,2,0:T(8,128)(2,1)} bitcast(%copy.1417), metadata={op_name="jit(train_step)/jvp()/transpose" stack_frame_id=0}
}

%fused_computation.1376 () -> f32[32] {
  %constant.1683.clone.1 = f32[]{:T(128)} constant(10000)
  %broadcast.4264 = f32[32]{0:T(128)} broadcast(%constant.1683.clone.1), dimensions={}, metadata={op_name="broadcast.1584"}
  %iota.345 = f32[32]{0:T(128)} iota(), iota_dimension=0, metadata={op_name="jit(train_step)/iota" stack_frame_id=0}
  %constant.1684.clone.1 = f32[]{:T(128)} constant(0.03125)
  %div.2488 = f32[32]{0:T(128)} broadcast(%constant.1684.clone.1), dimensions={}, metadata={op_name="jit(train_step)/div" stack_frame_id=0}
  %div.2461 = f32[32]{0:T(128)} multiply(%iota.345, %div.2488), metadata={op_name="jit(train_step)/div" stack_frame_id=0}
  %pow.47 = f32[32]{0:T(128)} negate(%div.2461), metadata={op_name="jit(train_step)/pow" stack_frame_id=0}
  %pow.46 = f32[32]{0:T(128)} power(%broadcast.4264, %pow.47), metadata={op_name="jit(train_step)/pow" stack_frame_id=0}
  %constant.1685.clone.1 = f32[]{:T(128)} constant(0.025)
  %broadcast.4263 = f32[32]{0:T(128)} broadcast(%constant.1685.clone.1), dimensions={}, metadata={op_name="broadcast.1586"}
  %div.2460 = f32[32]{0:T(128)} multiply(%pow.46, %broadcast.4263), metadata={op_name="jit(train_step)/div" stack_frame_id=0}
  %constant.1667.clone.11 = f32[]{:T(128)} constant(1)
  %broadcast.4262 = f32[32]{0:T(128)} broadcast(%constant.1667.clone.11), dimensions={}, metadata={op_name="broadcast.1587"}
  %constant.1686.clone.97 = f32[]{:T(128)} constant(0)
  %max.96 = f32[32]{0:T(128)} broadcast(%constant.1686.clone.97), dimensions={}, metadata={op_name="jit(train_step)/jit(clip)/max" stack_frame_id=0}
  %iota.344 = f32[32]{0:T(128)} iota(), iota_dimension=0, metadata={op_name="jit(train_step)/iota" stack_frame_id=0}
  %constant.1687.clone.1 = f32[]{:T(128)} constant(-10)
  %broadcast.4261 = f32[32]{0:T(128)} broadcast(%constant.1687.clone.1), dimensions={}, metadata={op_name="broadcast.1590"}
  %sub.875 = f32[32]{0:T(128)} add(%iota.344, %broadcast.4261), metadata={op_name="jit(train_step)/sub" stack_frame_id=0}
  %constant.1688.clone.1 = f32[]{:T(128)} constant(0.0769230798)
  %broadcast.4260 = f32[32]{0:T(128)} broadcast(%constant.1688.clone.1), dimensions={}, metadata={op_name="broadcast.1591"}
  %div.2459 = f32[32]{0:T(128)} multiply(%sub.875, %broadcast.4260), metadata={op_name="jit(train_step)/div" stack_frame_id=0}
  %min.42 = f32[32]{0:T(128)} clamp(%max.96, %div.2459, %broadcast.4262), metadata={op_name="jit(train_step)/jit(clip)/min" stack_frame_id=0}
  %sub.874 = f32[32]{0:T(128)} subtract(%broadcast.4262, %min.42), metadata={op_name="jit(train_step)/sub" stack_frame_id=0}
  %sub.873 = f32[32]{0:T(128)} subtract(%broadcast.4262, %sub.874), metadata={op_name="jit(train_step)/sub" stack_frame_id=0}
  %mul.5274 = f32[32]{0:T(128)} multiply(%div.2460, %sub.873), metadata={op_name="jit(train_step)/mul" stack_frame_id=0}
  %mul.5273 = f32[32]{0:T(128)} multiply(%pow.46, %sub.874), metadata={op_name="jit(train_step)/mul" stack_frame_id=0}
  ROOT %add.3581 = f32[32]{0:T(128)S(1)} add(%mul.5274, %mul.5273), metadata={op_name="jit(train_step)/add" stack_frame_id=0}
}

%fused_computation.490 (param_0.4461: f32[32]) -> (f32[163840,32], f32[163840,32]) {
  %mul.4231 = f32[163840,32]{1,0:T(8,128)} iota(), iota_dimension=0, metadata={op_name="jit(train_step)/mul" stack_frame_id=0}
  %param_0.4461 = f32[32]{0:T(128)S(1)} parameter(0)
  %mul.4324 = f32[163840,32]{1,0:T(8,128)} broadcast(%param_0.4461), dimensions={1}, metadata={op_name="jit(train_step)/mul" stack_frame_id=0}
  %mul.4230 = f32[163840,32]{1,0:T(8,128)} multiply(%mul.4231, %mul.4324), metadata={op_name="jit(train_step)/mul" stack_frame_id=0}
  %constant.1686.clone.96 = f32[]{:T(128)} constant(0)
  %convert_element_type.2570 = f32[163840,32]{1,0:T(8,128)} broadcast(%constant.1686.clone.96), dimensions={}, metadata={op_name="jit(train_step)/convert_element_type" stack_frame_id=0}
  %exp.480 = pred[163840,32]{1,0:T(8,128)(4,1)} compare(%mul.4230, %convert_element_type.2570), direction=EQ, metadata={op_name="jit(train_step)/exp" stack_frame_id=0}
  %mul.4211 = f32[163840,32]{1,0:T(8,128)} multiply(%mul.4230, %convert_element_type.2570), metadata={op_name="jit(train_step)/mul" stack_frame_id=0}
  %exp.473 = f32[163840,32]{1,0:T(8,128)} exponential(%mul.4211), metadata={op_name="jit(train_step)/exp" stack_frame_id=0}
  %constant.1689.clone.1 = f32[]{:T(128)} constant(inf)
  %broadcast.3936 = f32[163840,32]{1,0:T(8,128)} broadcast(%constant.1689.clone.1), dimensions={}, metadata={op_name="broadcast.373"}
  %exp.472 = pred[163840,32]{1,0:T(8,128)(4,1)} compare(%exp.473, %broadcast.3936), direction=EQ, metadata={op_name="jit(train_step)/exp" stack_frame_id=0}
  %exp.460 = f32[163840,32]{1,0:T(8,128)} sine(%mul.4230), metadata={op_name="jit(train_step)/exp" stack_frame_id=0}
  %exp.459 = f32[163840,32]{1,0:T(8,128)} multiply(%exp.473, %exp.460), metadata={op_name="jit(train_step)/exp" stack_frame_id=0}
  %exp.458 = f32[163840,32]{1,0:T(8,128)} multiply(%exp.459, %exp.473), metadata={op_name="jit(train_step)/exp" stack_frame_id=0}
  %exp.457 = f32[163840,32]{1,0:T(8,128)} select(%exp.472, %exp.458, %exp.459), metadata={op_name="jit(train_step)/exp" stack_frame_id=0}
  %exp.453 = f32[163840,32]{1,0:T(8,128)} select(%exp.480, %convert_element_type.2570, %exp.457), metadata={op_name="jit(train_step)/exp" stack_frame_id=0}
  %exp.461.clone.1 = f32[163840,32]{1,0:T(8,128)} cosine(%mul.4230), metadata={op_name="jit(train_step)/exp" stack_frame_id=0}
  %exp.452.clone.1 = f32[163840,32]{1,0:T(8,128)} multiply(%exp.473, %exp.461.clone.1), metadata={op_name="jit(train_step)/exp" stack_frame_id=0}
  %exp.451.clone.1 = f32[163840,32]{1,0:T(8,128)} multiply(%exp.452.clone.1, %exp.473), metadata={op_name="jit(train_step)/exp" stack_frame_id=0}
  %exp.450.clone.1 = f32[163840,32]{1,0:T(8,128)} select(%exp.472, %exp.451.clone.1, %exp.452.clone.1), metadata={op_name="jit(train_step)/exp" stack_frame_id=0}
  ROOT %tuple.721 = (f32[163840,32]{1,0:T(8,128)}, f32[163840,32]{1,0:T(8,128)}) tuple(%exp.453, %exp.450.clone.1)
}

%fused_computation.1337 (param_0.3810: s32[1,128]) -> s32[128] {
  %param_0.3810 = s32[1,128]{1,0:T(1,128)S(1)} parameter(0)
  %constant.1668.clone.76 = s32[]{:T(128)} constant(0), metadata={op_name="jit(train_step)/shard_map/jit(gmm)" stack_frame_id=0}
  %broadcast.4269 = s32[1,128]{1,0:T(1,128)} broadcast(%constant.1668.clone.76), dimensions={}, metadata={op_name="broadcast.370"}
  %lt.834 = pred[1,128]{1,0:T(4,128)(4,1)} compare(%param_0.3810, %broadcast.4269), direction=LT, metadata={op_name="jit(train_step)/lt" stack_frame_id=0}
  %constant.1690.clone.2 = s32[]{:T(128)} constant(163840)
  %broadcast.4259 = s32[1,128]{1,0:T(1,128)} broadcast(%constant.1690.clone.2), dimensions={}, metadata={op_name="broadcast.361"}
  %add.3540 = s32[1,128]{1,0:T(1,128)} add(%param_0.3810, %broadcast.4259), metadata={op_name="jit(train_step)/add" stack_frame_id=0}
  %select_n.2296 = s32[1,128]{1,0:T(1,128)} select(%lt.834, %add.3540, %param_0.3810), metadata={op_name="jit(train_step)/select_n" stack_frame_id=0}
  ROOT %bitcast.1889 = s32[128]{0:T(128)S(1)} bitcast(%select_n.2296), metadata={op_name="jit(train_step)/broadcast_in_dim" stack_frame_id=0}
}

%fused_computation.1139 (param_0.3322: s32[128]) -> s32[1024] {
  %constant.3982 = s32[] constant(0), metadata={op_name="jit(train_step)/jvp()/gather" stack_frame_id=0}
  %broadcast.4122 = s32[1024]{0:T(1024)} broadcast(%constant.3982), dimensions={}, metadata={op_name="jit(train_step)/jvp()/gather" stack_frame_id=0}
  %param_0.3322 = s32[128]{0:T(128)S(1)} parameter(0)
  %constant.3997 = s32[] constant(2147483647), metadata={op_name="jit(train_step)/jvp()/gather" stack_frame_id=0}
  %pad.333 = s32[1024]{0:T(1024)} pad(%param_0.3322, %constant.3997), padding=0_896, metadata={op_name="jit(train_step)/gather" stack_frame_id=0}
  %constant.3980 = s32[] constant(163839), metadata={op_name="jit(train_step)/gather" stack_frame_id=0}
  %broadcast.4111 = s32[1024]{0:T(1024)} broadcast(%constant.3980), dimensions={}, metadata={op_name="jit(train_step)/gather" stack_frame_id=0}
  ROOT %clamp.58 = s32[1024]{0:T(1024)S(1)} clamp(%broadcast.4122, %pad.333, %broadcast.4111), metadata={op_name="jit(train_step)/gather" stack_frame_id=0}
}

%fused_computation.7 (param_0.23: f32[163840,32], param_1.123: s32[1024]) -> f32[128,32] {
  %param_0.23 = f32[163840,32]{1,0:T(8,128)} parameter(0)
  %param_1.123 = s32[1024]{0:T(1024)S(1)} parameter(1)
  %custom-call.20 = s32[1024]{0:T(1024)} custom-call(%param_1.123), custom_call_target="AssumeGatherIndicesInBound", operand_layout_constraints={s32[1024]{0:T(1024)}}, metadata={op_name="jit(train_step)/gather" stack_frame_id=0}
  %slice.1059 = s32[128]{0:T(128)} slice(%custom-call.20), slice={[0:128]}, metadata={op_name="jit(train_step)/gather" stack_frame_id=0}
  %reshape.4433 = s32[128]{0:T(128)} reshape(%slice.1059), metadata={op_name="jit(train_step)/broadcast_in_dim" stack_frame_id=0}
  %transpose.658 = s32[128]{0:T(128)} transpose(%reshape.4433), dimensions={0}, metadata={op_name="jit(train_step)/broadcast_in_dim" stack_frame_id=0}
  %gather.228 = f32[128,32]{1,0:T(8,128)} gather(%param_0.23, %transpose.658), offset_dims={1}, collapsed_slice_dims={0}, start_index_map={0}, index_vector_dim=1, slice_sizes={1,32}, metadata={op_name="jit(train_step)/gather" stack_frame_id=0}
  %transpose.657 = f32[128,32]{1,0:T(8,128)} transpose(%gather.228), dimensions={0,1}, metadata={op_name="jit(train_step)/gather" stack_frame_id=0}
  ROOT %reshape.4432 = f32[128,32]{1,0:T(8,128)S(1)} reshape(%transpose.657), metadata={op_name="jit(train_step)/gather" stack_frame_id=0}
}

%fused_computation.8 (param_0.26: f32[163840,32], param_1.125: s32[1024]) -> f32[128,32] {
  %param_0.26 = f32[163840,32]{1,0:T(8,128)} parameter(0)
  %param_1.125 = s32[1024]{0:T(1024)S(1)} parameter(1)
  %custom-call.22 = s32[1024]{0:T(1024)} custom-call(%param_1.125), custom_call_target="AssumeGatherIndicesInBound", operand_layout_constraints={s32[1024]{0:T(1024)}}, metadata={op_name="jit(train_step)/gather" stack_frame_id=0}
  %slice.1061 = s32[128]{0:T(128)} slice(%custom-call.22), slice={[0:128]}, metadata={op_name="jit(train_step)/gather" stack_frame_id=0}
  %reshape.4441 = s32[128]{0:T(128)} reshape(%slice.1061), metadata={op_name="jit(train_step)/broadcast_in_dim" stack_frame_id=0}
  %transpose.664 = s32[128]{0:T(128)} transpose(%reshape.4441), dimensions={0}, metadata={op_name="jit(train_step)/broadcast_in_dim" stack_frame_id=0}
  %gather.230 = f32[128,32]{1,0:T(8,128)} gather(%param_0.26, %transpose.664), offset_dims={1}, collapsed_slice_dims={0}, start_index_map={0}, index_vector_dim=1, slice_sizes={1,32}, metadata={op_name="jit(train_step)/gather" stack_frame_id=0}
  %transpose.663 = f32[128,32]{1,0:T(8,128)} transpose(%gather.230), dimensions={0,1}, metadata={op_name="jit(train_step)/gather" stack_frame_id=0}
  ROOT %reshape.4440 = f32[128,32]{1,0:T(8,128)S(1)} reshape(%transpose.663), metadata={op_name="jit(train_step)/gather" stack_frame_id=0}
}

%fused_computation.616 (param_0.1789: f32[128,3,128,128]) -> bf16[3,128,128,128] {
  %param_0.1789 = f32[128,3,128,128]{3,2,1,0:T(8,128)} parameter(0)
  %copy.1428 = bf16[128,3,128,128]{3,2,0,1:T(8,128)(2,1)} copy(%param_0.1789), sharding={devices=[1,1,1,4]<=[4]}, metadata={op_name="state[\'model\'][\'decoder\'][\'dense_layers\'][\'self_attention\'][\'out\'][\'kernel\'].value"}
  ROOT %bitcast.1197 = bf16[3,128,128,128]{3,2,1,0:T(8,128)(2,1)} bitcast(%copy.1428), metadata={op_name="jit(train_step)/jvp()/transpose" stack_frame_id=0}
}

%fused_computation.1412 (param_0.4366: f32[512,3]) -> bf16[3,512] {
  %param_0.4366 = f32[512,3]{0,1:T(4,128)S(1)} parameter(0)
  %bitcast.2110 = f32[3,512]{1,0:T(4,128)} bitcast(%param_0.4366), metadata={op_name="jit(train_step)/jvp()/transpose" stack_frame_id=0}
  ROOT %convert.550 = bf16[3,512]{1,0:T(4,128)(2,1)} convert(%bitcast.2110)
}

%fused_computation.1403 (param_0.4353: f32[128,3,18432]) -> bf16[3,128,18432] {
  %param_0.4353 = f32[128,3,18432]{2,0,1:T(8,128)S(1)} parameter(0)
  %bitcast.2107 = f32[3,128,18432]{2,1,0:T(8,128)} bitcast(%param_0.4353), metadata={op_name="jit(train_step)/jvp()/transpose" stack_frame_id=0}
  ROOT %convert.544 = bf16[3,128,18432]{2,1,0:T(8,128)(2,1)} convert(%bitcast.2107)
}

%fused_computation.1401 (param_0.4352: f32[128,3,18432]) -> bf16[3,128,18432] {
  %param_0.4352 = f32[128,3,18432]{2,0,1:T(8,128)S(1)} parameter(0)
  %bitcast.2106 = f32[3,128,18432]{2,1,0:T(8,128)} bitcast(%param_0.4352), metadata={op_name="jit(train_step)/jvp()/transpose" stack_frame_id=0}
  ROOT %convert.540 = bf16[3,128,18432]{2,1,0:T(8,128)(2,1)} convert(%bitcast.2106)
}

%fused_computation.1402 (param_0.4351: f32[18432,3,128]) -> bf16[3,18432,128] {
  %param_0.4351 = f32[18432,3,128]{2,0,1:T(8,128)} parameter(0)
  %bitcast.2105 = f32[3,18432,128]{2,1,0:T(8,128)} bitcast(%param_0.4351), metadata={op_name="jit(train_step)/jvp()/transpose" stack_frame_id=0}
  ROOT %convert.542 = bf16[3,18432,128]{2,1,0:T(8,128)(2,1)} convert(%bitcast.2105)
}

%fused_computation.171.clone.1 (param_0.4804: bf16[3,1,128,512], param_1.5433: s32[], param_2.4299: bf16[1,128,512]) -> bf16[3,1,128,512] {
  %param_0.4804 = bf16[3,1,128,512]{3,2,1,0:T(8,128)(2,1)} parameter(0)
  %param_2.4299 = bf16[1,128,512]{2,1,0:T(8,128)(2,1)S(1)} parameter(2)
  %bitcast.2476 = bf16[1,1,128,512]{3,2,1,0:T(8,128)(2,1)} bitcast(%param_2.4299), metadata={op_name="jit(train_step)/jvp()/while/body/jit(dynamic_update_index_in_dim)/broadcast_in_dim" stack_frame_id=0}
  %param_1.5433 = s32[]{:T(128)S(6)} parameter(1)
  %constant.1444.clone.42 = s32[]{:T(128)} constant(0)
  ROOT %dynamic-update-slice.59 = bf16[3,1,128,512]{3,2,1,0:T(8,128)(2,1)} dynamic-update-slice(%param_0.4804, %bitcast.2476, %param_1.5433, %constant.1444.clone.42, %constant.1444.clone.42, /*index=5*/%constant.1444.clone.42), metadata={op_name="jit(train_step)/jvp()/while/body/jit(dynamic_update_index_in_dim)/dynamic_update_slice" stack_frame_id=0}, backend_config={"flag_configs":[],"scoped_memory_configs":[],"indices_config":{"index_known_bits":[{"zeroes":"4294967292","ones":"0","bitwidth":"32"},{"zeroes":"4294967295","ones":"0","bitwidth":"32"},{"zeroes":"4294967295","ones":"0","bitwidth":"32"},{"zeroes":"4294967295","ones":"0","bitwidth":"32"}],"is_index_aligned":[]},"used_scoped_memory_configs":[]}
}

%fused_computation.129.clone.1 (param_0.4836: bf16[3,128,128,128], param_1.5454: s32[]) -> bf16[1,128,128,128] {
  %param_0.4836 = bf16[3,128,128,128]{3,2,1,0:T(8,128)(2,1)} parameter(0)
  %param_1.5454 = s32[]{:T(128)S(6)} parameter(1)
  %constant.1444.clone.50 = s32[]{:T(128)} constant(0)
  ROOT %dynamic-slice.430 = bf16[1,128,128,128]{3,2,1,0:T(8,128)(2,1)S(1)} dynamic-slice(%param_0.4836, %param_1.5454, %constant.1444.clone.50, %constant.1444.clone.50, %constant.1444.clone.50), dynamic_slice_sizes={1,128,128,128}, metadata={op_name="jit(train_step)/jvp()/while/body/jit(dynamic_index_in_dim)/dynamic_slice" stack_frame_id=0}, backend_config={"flag_configs":[],"scoped_memory_configs":[],"indices_config":{"index_known_bits":[{"zeroes":"4294967292","ones":"0","bitwidth":"32"},{"zeroes":"4294967295","ones":"0","bitwidth":"32"},{"zeroes":"4294967295","ones":"0","bitwidth":"32"},{"zeroes":"4294967295","ones":"0","bitwidth":"32"}],"is_index_aligned":[]},"used_scoped_memory_configs":[]}
}

%fused_computation.99.clone.1 (param_0.4830: bf16[3,384,128,192], param_1.5449: s32[]) -> bf16[1,384,128,192] {
  %param_0.4830 = bf16[3,384,128,192]{2,1,3,0:T(8,128)(2,1)} parameter(0)
  %param_1.5449 = s32[]{:T(128)S(6)} parameter(1)
  %constant.1444.clone.49 = s32[]{:T(128)} constant(0)
  ROOT %dynamic-slice.429 = bf16[1,384,128,192]{2,1,3,0:T(8,128)(2,1)S(1)} dynamic-slice(%param_0.4830, %param_1.5449, %constant.1444.clone.49, %constant.1444.clone.49, %constant.1444.clone.49), dynamic_slice_sizes={1,384,128,192}, metadata={op_name="jit(train_step)/jvp()/while/body/jit(dynamic_index_in_dim)/dynamic_slice" stack_frame_id=0}, backend_config={"flag_configs":[],"scoped_memory_configs":[],"indices_config":{"index_known_bits":[{"zeroes":"4294967292","ones":"0","bitwidth":"32"},{"zeroes":"4294967295","ones":"0","bitwidth":"32"},{"zeroes":"4294967295","ones":"0","bitwidth":"32"},{"zeroes":"4294967295","ones":"0","bitwidth":"32"}],"is_index_aligned":[]},"used_scoped_memory_configs":[]}
}

%fused_computation.140.clone.1 (param_0.4825: bf16[3,128,1536], param_1.5446: s32[]) -> bf16[1,128,1536] {
  %param_0.4825 = bf16[3,128,1536]{2,1,0:T(8,128)(2,1)} parameter(0)
  %param_1.5446 = s32[]{:T(128)S(6)} parameter(1)
  %constant.1444.clone.48 = s32[]{:T(128)} constant(0)
  ROOT %dynamic-slice.428 = bf16[1,128,1536]{2,1,0:T(8,128)(2,1)S(1)} dynamic-slice(%param_0.4825, %param_1.5446, %constant.1444.clone.48, %constant.1444.clone.48), dynamic_slice_sizes={1,128,1536}, metadata={op_name="jit(train_step)/jvp()/while/body/jit(dynamic_index_in_dim)/dynamic_slice" stack_frame_id=0}, backend_config={"flag_configs":[],"scoped_memory_configs":[],"indices_config":{"index_known_bits":[{"zeroes":"4294967292","ones":"0","bitwidth":"32"},{"zeroes":"4294967295","ones":"0","bitwidth":"32"},{"zeroes":"4294967295","ones":"0","bitwidth":"32"}],"is_index_aligned":[]},"used_scoped_memory_configs":[]}
}

%region_1.2 (reduce_sum.6: f32[], reduce_sum.7: f32[]) -> f32[] {
  %reduce_sum.6 = f32[]{:T(128)} parameter(0), metadata={op_name="jit(train_step)/jvp()/while/body/closed_call/reduce_sum"}
  %reduce_sum.7 = f32[]{:T(128)} parameter(1), metadata={op_name="jit(train_step)/jvp()/while/body/closed_call/reduce_sum"}
  ROOT %reduce_sum.8 = f32[]{:T(128)} add(%reduce_sum.6, %reduce_sum.7), metadata={op_name="reduce_sum" stack_frame_id=0}, backend_config={"flag_configs":[],"scoped_memory_configs":[],"used_scoped_memory_configs":[],"aliasing_operands":{"lists":[]}}
}

%fused_computation.158.clone.1 (param_0.4807: bf16[1,128,512]) -> f32[128] {
  %param_0.4807 = bf16[1,128,512]{2,1,0:T(8,128)(2,1)S(1)} parameter(0)
  %convert_element_type.3068 = f32[1,128,512]{2,1,0:T(8,128)} convert(%param_0.4807), metadata={op_name="jit(train_step)/jvp()/while/body/closed_call/convert_element_type" stack_frame_id=0}
  %square.701 = f32[1,128,512]{2,1,0:T(8,128)} multiply(%convert_element_type.3068, %convert_element_type.3068), metadata={op_name="jit(train_step)/jvp()/while/body/closed_call/square" stack_frame_id=0}
  %constant.1441.clone.19 = f32[]{:T(128)} constant(0)
  ROOT %reduce.822 = f32[128]{0:T(128)S(1)} reduce(%square.701, %constant.1441.clone.19), dimensions={0,2}, to_apply=%region_1.2, metadata={op_name="jit(train_step)/jvp()/while/body/closed_call/reduce_sum" stack_frame_id=0}
}

%fused_computation.205.clone.1 (param_0.4808: f32[128]) -> f32[128] {
  %param_0.4808 = f32[128]{0:T(128)S(1)} parameter(0)
  %constant.1442.clone.11 = f32[]{:T(128)} constant(0.001953125)
  %broadcast.4551 = f32[128]{0:T(128)} broadcast(%constant.1442.clone.11), dimensions={}, metadata={op_name="jit(train_step)/jvp()/while/body/closed_call" stack_frame_id=0}
  %div.2850 = f32[128]{0:T(128)} multiply(%param_0.4808, %broadcast.4551), metadata={op_name="jit(train_step)/jvp()/while/body/closed_call/div" stack_frame_id=0}
  %constant.1443.clone.13 = f32[]{:T(128)} constant(1e-06)
  %broadcast.4550 = f32[128]{0:T(128)} broadcast(%constant.1443.clone.13), dimensions={}, metadata={op_name="jit(train_step)/jvp()/while/body/closed_call" stack_frame_id=0}
  %add.3916 = f32[128]{0:T(128)} add(%div.2850, %broadcast.4550), metadata={op_name="jit(train_step)/jvp()/while/body/closed_call/add" stack_frame_id=0}
  ROOT %rsqrt.366 = f32[128]{0:T(128)S(1)} rsqrt(%add.3916), metadata={op_name="jit(train_step)/jvp()/while/body/closed_call/rsqrt" stack_frame_id=0}
}

%convert_element_type.2204.reduce_sub_computation (lhs.14: bf16[], rhs.14: bf16[]) -> bf16[] {
  %lhs.14 = bf16[] parameter(0)
  %rhs.14 = bf16[] parameter(1)
  ROOT %add.2996 = bf16[] add(%lhs.14, %rhs.14), backend_config={"flag_configs":[],"scoped_memory_configs":[],"used_scoped_memory_configs":[],"aliasing_operands":{"lists":[]}}
}

%convert_element_type.2215.reduce_sub_computation (lhs.16: bf16[], rhs.16: bf16[]) -> bf16[] {
  %lhs.16 = bf16[] parameter(0)
  %rhs.16 = bf16[] parameter(1)
  ROOT %add.2998 = bf16[] add(%lhs.16, %rhs.16), backend_config={"flag_configs":[],"scoped_memory_configs":[],"used_scoped_memory_configs":[],"aliasing_operands":{"lists":[]}}
}

%fused_computation.197.clone.1 (param_0.4806: bf16[3,512], param_1.5435: s32[], param_2.4300: bf16[3,512]) -> (bf16[512], bf16[512]) {
  %param_0.4806 = bf16[3,512]{1,0:T(4,128)(2,1)} parameter(0)
  %param_1.5435 = s32[]{:T(128)S(6)} parameter(1)
  %constant.1444.clone.44 = s32[]{:T(128)} constant(0)
  %dynamic_slice.659 = bf16[1,512]{1,0:T(2,128)(2,1)} dynamic-slice(%param_0.4806, %param_1.5435, %constant.1444.clone.44), dynamic_slice_sizes={1,512}, metadata={op_name="jit(train_step)/jvp()/while/body/jit(dynamic_index_in_dim)/dynamic_slice" stack_frame_id=0}, backend_config={"flag_configs":[],"scoped_memory_configs":[],"indices_config":{"index_known_bits":[{"zeroes":"4294967292","ones":"0","bitwidth":"32"},{"zeroes":"4294967295","ones":"0","bitwidth":"32"}],"is_index_aligned":[]},"used_scoped_memory_configs":[]}
  %constant.4124 = bf16[]{:T(256)} constant(-0), metadata={op_name="jit(train_step)/jvp()/while/body/closed_call/convert_element_type" stack_frame_id=0}
  %reduce.821 = bf16[512]{0:T(512)(128)(2,1)S(1)} reduce(%dynamic_slice.659, %constant.4124), dimensions={0}, to_apply=%convert_element_type.2204.reduce_sub_computation, metadata={op_name="jit(train_step)/jvp()/while/body/closed_call/convert_element_type" stack_frame_id=0}
  %param_2.4300 = bf16[3,512]{1,0:T(4,128)(2,1)} parameter(2)
  %dynamic_slice.628.clone.3 = bf16[1,512]{1,0:T(2,128)(2,1)} dynamic-slice(%param_2.4300, %param_1.5435, %constant.1444.clone.44), dynamic_slice_sizes={1,512}, metadata={op_name="jit(train_step)/jvp()/while/body/jit(dynamic_index_in_dim)/dynamic_slice" stack_frame_id=0}, backend_config={"flag_configs":[],"scoped_memory_configs":[],"indices_config":{"index_known_bits":[{"zeroes":"4294967292","ones":"0","bitwidth":"32"},{"zeroes":"4294967295","ones":"0","bitwidth":"32"}],"is_index_aligned":[]},"used_scoped_memory_configs":[]}
  %reduce.623.clone.3 = bf16[512]{0:T(512)(128)(2,1)S(1)} reduce(%dynamic_slice.628.clone.3, %constant.4124), dimensions={0}, to_apply=%convert_element_type.2215.reduce_sub_computation, metadata={op_name="jit(train_step)/jvp()/while/body/closed_call/convert_element_type" stack_frame_id=0}
  ROOT %tuple.857 = (bf16[512]{0:T(512)(128)(2,1)S(1)}, bf16[512]{0:T(512)(128)(2,1)S(1)}) tuple(%reduce.821, %reduce.623.clone.3)
}

%fused_computation.170.clone.1.clone.clone.clone.1 (param_0.4827: bf16[1,128,512], param_1.5447: f32[128], param_2.4306: bf16[512]) -> bf16[128,512] {
  %param_0.4827 = bf16[1,128,512]{2,1,0:T(8,128)(2,1)S(1)} parameter(0)
  %convert_element_type.3078 = f32[1,128,512]{2,1,0:T(8,128)} convert(%param_0.4827), metadata={op_name="jit(train_step)/jvp()/while/body/closed_call/convert_element_type" stack_frame_id=0}
  %param_1.5447 = f32[128]{0:T(128)S(1)} parameter(1)
  %mul.6034 = f32[1,128,512]{2,1,0:T(8,128)} broadcast(%param_1.5447), dimensions={1}, metadata={op_name="jit(train_step)/jvp()/while/body/closed_call/mul" stack_frame_id=0}
  %mul.6033 = f32[1,128,512]{2,1,0:T(8,128)} multiply(%convert_element_type.3078, %mul.6034), metadata={op_name="jit(train_step)/jvp()/while/body/closed_call/mul" stack_frame_id=0}
  %convert_element_type.3077 = bf16[1,128,512]{2,1,0:T(8,128)(2,1)} convert(%mul.6033), metadata={op_name="jit(train_step)/jvp()/while/body/closed_call/convert_element_type" stack_frame_id=0}
  %convert.950 = f32[1,128,512]{2,1,0:T(8,128)} convert(%convert_element_type.3077)
  %param_2.4306 = bf16[512]{0:T(512)(128)(2,1)S(1)} parameter(2)
  %mul.6035 = bf16[1,128,512]{2,1,0:T(8,128)(2,1)} broadcast(%param_2.4306), dimensions={2}, metadata={op_name="jit(train_step)/jvp()/while/body/closed_call/mul" stack_frame_id=0}
  %convert.951 = f32[1,128,512]{2,1,0:T(8,128)} convert(%mul.6035)
  %mul.6032 = f32[1,128,512]{2,1,0:T(8,128)} multiply(%convert.950, %convert.951), metadata={op_name="jit(train_step)/jvp()/while/body/closed_call/mul" stack_frame_id=0}, backend_config={"flag_configs":[],"scoped_memory_configs":[],"used_scoped_memory_configs":[],"float_type_correction_info":{"original_type":"BF16","original_shape":{"element_type":"BF16","dimensions":["1","128","512"],"tuple_shapes":[],"layout":{"minor_to_major":["2","1","0"],"tiles":[{"dimensions":["8","128"]},{"dimensions":["2","1"]}],"element_size_in_bits":"0","memory_space":"0","dim_level_types":[],"index_primitive_type":"PRIMITIVE_TYPE_INVALID","pointer_primitive_type":"PRIMITIVE_TYPE_INVALID","dim_unique":[],"dim_ordered":[],"dynamic_shape_metadata_prefix_bytes":"0","tail_padding_alignment_in_elements":"1","split_configs":[]},"is_dynamic_dimension":[false,false,false]}}}
  %convert.952 = bf16[1,128,512]{2,1,0:T(8,128)(2,1)} convert(%mul.6032)
  ROOT %bitcast.2491 = bf16[128,512]{1,0:T(8,128)(2,1)} bitcast(%convert.952)
}

%fused_computation.135.clone.clone.clone.clone.clone.clone.clone.1 (param_0.4826: bf16[1,512,1536]) -> bf16[512,1536] {
  %param_0.4826 = bf16[1,512,1536]{2,1,0:T(8,128)(2,1)S(1)} parameter(0)
  ROOT %bitcast.2490 = bf16[512,1536]{1,0:T(8,128)(2,1)} bitcast(%param_0.4826), metadata={op_name="jit(train_step)/jvp()/while/body/closed_call/dot_general" stack_frame_id=0}
}

%region_2.3 (reduce_sum.9: f32[], reduce_sum.13: f32[]) -> f32[] {
  %reduce_sum.9 = f32[]{:T(128)} parameter(0), metadata={op_name="jit(train_step)/jvp()/while/body/closed_call/reduce_sum"}
  %reduce_sum.13 = f32[]{:T(128)} parameter(1), metadata={op_name="jit(train_step)/jvp()/while/body/closed_call/reduce_sum"}
  ROOT %reduce_sum.14 = f32[]{:T(128)} add(%reduce_sum.9, %reduce_sum.13), metadata={op_name="reduce_sum" stack_frame_id=0}, backend_config={"flag_configs":[],"scoped_memory_configs":[],"used_scoped_memory_configs":[],"aliasing_operands":{"lists":[]}}
}

%fused_computation.139.clone.1 (param_0.4828: bf16[1,512,1536], param_1.5448: bf16[1,128,512], param_2.4307: f32[128], param_3.2912: bf16[512]) -> (f32[128], f32[1,128,1536]) {
  %param_1.5448 = bf16[1,128,512]{2,1,0:T(8,128)(2,1)S(1)} parameter(1)
  %param_2.4307 = f32[128]{0:T(128)S(1)} parameter(2)
  %param_3.2912 = bf16[512]{0:T(512)(128)(2,1)S(1)} parameter(3)
  %fusion.140.clone.3 = bf16[128,512]{1,0:T(8,128)(2,1)} fusion(%param_1.5448, %param_2.4307, %param_3.2912), kind=kLoop, calls=%fused_computation.170.clone.1.clone.clone.clone.1
  %param_0.4828 = bf16[1,512,1536]{2,1,0:T(8,128)(2,1)S(1)} parameter(0)
  %fusion.85.clone.3 = bf16[512,1536]{1,0:T(8,128)(2,1)} fusion(%param_0.4828), kind=kLoop, calls=%fused_computation.135.clone.clone.clone.clone.clone.clone.clone.1, metadata={op_name="jit(train_step)/jvp()/while/body/closed_call/dot_general" stack_frame_id=0}
  %convolution.91.clone.3 = bf16[128,1536]{1,0:T(8,128)(2,1)} convolution(%fusion.140.clone.3, %fusion.85.clone.3), dim_labels=bf_io->bf, metadata={op_name="jit(train_step)/jvp()/while/body/closed_call/dot_general" stack_frame_id=0}
  %convert_element_type.2264.clone.3 = f32[128,1536]{1,0:T(8,128)} convert(%convolution.91.clone.3), metadata={op_name="jit(train_step)/jvp()/while/body/closed_call/convert_element_type" stack_frame_id=0}
  %bitcast.664.clone.3 = f32[1,128,1536]{2,1,0:T(8,128)S(1)} bitcast(%convert_element_type.2264.clone.3), metadata={op_name="jit(train_step)/jvp()/while/body/closed_call/convert_element_type" stack_frame_id=0}
  %square.703 = f32[1,128,1536]{2,1,0:T(8,128)} multiply(%bitcast.664.clone.3, %bitcast.664.clone.3), metadata={op_name="jit(train_step)/jvp()/while/body/closed_call/square" stack_frame_id=0}
  %constant.1441.clone.22 = f32[]{:T(128)} constant(0)
  %reduce.825 = f32[128]{0:T(128)S(1)} reduce(%square.703, %constant.1441.clone.22), dimensions={0,2}, to_apply=%region_2.3, metadata={op_name="jit(train_step)/jvp()/while/body/closed_call/reduce_sum" stack_frame_id=0}
  ROOT %tuple.861 = (f32[128]{0:T(128)S(1)}, f32[1,128,1536]{2,1,0:T(8,128)S(1)}) tuple(%reduce.825, %bitcast.664.clone.3)
}

%fused_computation.204.clone.1 (param_0.4829: f32[128]) -> f32[128] {
  %param_0.4829 = f32[128]{0:T(128)S(1)} parameter(0)
  %constant.1445.clone.7 = f32[]{:T(128)} constant(0.000651041686)
  %broadcast.4555 = f32[128]{0:T(128)} broadcast(%constant.1445.clone.7), dimensions={}, metadata={op_name="jit(train_step)/jvp()/while/body/closed_call/div" stack_frame_id=0}
  %div.2852 = f32[128]{0:T(128)} multiply(%param_0.4829, %broadcast.4555), metadata={op_name="jit(train_step)/jvp()/while/body/closed_call/div" stack_frame_id=0}
  %constant.1443.clone.15 = f32[]{:T(128)} constant(1e-06)
  %broadcast.4554 = f32[128]{0:T(128)} broadcast(%constant.1443.clone.15), dimensions={}, metadata={op_name="jit(train_step)/jvp()/while/body/closed_call" stack_frame_id=0}
  %add.3919 = f32[128]{0:T(128)} add(%div.2852, %broadcast.4554), metadata={op_name="jit(train_step)/jvp()/while/body/closed_call/add" stack_frame_id=0}
  ROOT %rsqrt.368 = f32[128]{0:T(128)S(1)} rsqrt(%add.3919), metadata={op_name="jit(train_step)/jvp()/while/body/closed_call/rsqrt" stack_frame_id=0}
}

%convert_element_type.2208.reduce_sub_computation (lhs.15: bf16[], rhs.15: bf16[]) -> bf16[] {
  %lhs.15 = bf16[] parameter(0)
  %rhs.15 = bf16[] parameter(1)
  ROOT %add.2997 = bf16[] add(%lhs.15, %rhs.15), backend_config={"flag_configs":[],"scoped_memory_configs":[],"used_scoped_memory_configs":[],"aliasing_operands":{"lists":[]}}
}

%fused_computation.192.clone.1 (param_0.4824: bf16[3,1536], param_1.5445: s32[]) -> bf16[1536] {
  %param_0.4824 = bf16[3,1536]{1,0:T(4,128)(2,1)} parameter(0)
  %param_1.5445 = s32[]{:T(128)S(6)} parameter(1)
  %constant.1444.clone.47 = s32[]{:T(128)} constant(0)
  %dynamic_slice.660 = bf16[1,1536]{1,0:T(2,128)(2,1)} dynamic-slice(%param_0.4824, %param_1.5445, %constant.1444.clone.47), dynamic_slice_sizes={1,1536}, metadata={op_name="jit(train_step)/jvp()/while/body/jit(dynamic_index_in_dim)/dynamic_slice" stack_frame_id=0}, backend_config={"flag_configs":[],"scoped_memory_configs":[],"indices_config":{"index_known_bits":[{"zeroes":"4294967292","ones":"0","bitwidth":"32"},{"zeroes":"4294967295","ones":"0","bitwidth":"32"}],"is_index_aligned":[]},"used_scoped_memory_configs":[]}
  %constant.4127 = bf16[]{:T(256)} constant(-0), metadata={op_name="jit(train_step)/jvp()/while/body/closed_call/convert_element_type" stack_frame_id=0}
  ROOT %reduce.824 = bf16[1536]{0:T(1024)(128)(2,1)S(1)} reduce(%dynamic_slice.660, %constant.4127), dimensions={0}, to_apply=%convert_element_type.2208.reduce_sub_computation, metadata={op_name="jit(train_step)/jvp()/while/body/closed_call/convert_element_type" stack_frame_id=0}
}

%fused_computation.149.clone.clone.1 (param_0.4831: f32[1,128,1536], param_1.5450: f32[128], param_2.4308: bf16[1536]) -> bf16[128,1536,1] {
  %param_0.4831 = f32[1,128,1536]{2,1,0:T(8,128)S(1)} parameter(0)
  %param_1.5450 = f32[128]{0:T(128)S(1)} parameter(1)
  %mul.6038 = f32[1,128,1536]{2,1,0:T(8,128)} broadcast(%param_1.5450), dimensions={1}, metadata={op_name="jit(train_step)/jvp()/while/body/closed_call/mul" stack_frame_id=0}
  %mul.6037 = f32[1,128,1536]{2,1,0:T(8,128)} multiply(%param_0.4831, %mul.6038), metadata={op_name="jit(train_step)/jvp()/while/body/closed_call/mul" stack_frame_id=0}
  %convert_element_type.3079 = bf16[1,128,1536]{2,1,0:T(8,128)(2,1)} convert(%mul.6037), metadata={op_name="jit(train_step)/jvp()/while/body/closed_call/convert_element_type" stack_frame_id=0}
  %convert.953 = f32[1,128,1536]{2,1,0:T(8,128)} convert(%convert_element_type.3079)
  %param_2.4308 = bf16[1536]{0:T(1024)(128)(2,1)S(1)} parameter(2)
  %mul.6039 = bf16[1,128,1536]{2,1,0:T(8,128)(2,1)} broadcast(%param_2.4308), dimensions={2}, metadata={op_name="jit(train_step)/jvp()/while/body/closed_call/mul" stack_frame_id=0}
  %convert.954 = f32[1,128,1536]{2,1,0:T(8,128)} convert(%mul.6039)
  %mul.6036 = f32[1,128,1536]{2,1,0:T(8,128)} multiply(%convert.953, %convert.954), metadata={op_name="jit(train_step)/jvp()/while/body/closed_call/mul" stack_frame_id=0}, backend_config={"flag_configs":[],"scoped_memory_configs":[],"used_scoped_memory_configs":[],"float_type_correction_info":{"original_type":"BF16","original_shape":{"element_type":"BF16","dimensions":["1","128","1536"],"tuple_shapes":[],"layout":{"minor_to_major":["2","1","0"],"tiles":[{"dimensions":["8","128"]},{"dimensions":["2","1"]}],"element_size_in_bits":"0","memory_space":"0","dim_level_types":[],"index_primitive_type":"PRIMITIVE_TYPE_INVALID","pointer_primitive_type":"PRIMITIVE_TYPE_INVALID","dim_unique":[],"dim_ordered":[],"dynamic_shape_metadata_prefix_bytes":"0","tail_padding_alignment_in_elements":"1","split_configs":[]},"is_dynamic_dimension":[false,false,false]}}}
  %convert.955 = bf16[1,128,1536]{2,1,0:T(8,128)(2,1)} convert(%mul.6036)
  ROOT %bitcast.2493 = bf16[128,1536,1]{1,0,2:T(8,128)(2,1)} bitcast(%convert.955)
}

%bitcast_fusion.17.clone.1 (bitcast_input.27: bf16[1536,128,192]) -> bf16[1536,128,192] {
  %bitcast_input.27 = bf16[1536,128,192]{0,2,1:T(8,128)(2,1)} parameter(0)
  ROOT %bitcast.2492 = bf16[1536,128,192]{0,2,1:T(8,128)(2,1)} bitcast(%bitcast_input.27)
}

%fused_computation.131.clone.1 (param_0.4832: bf16[1536,128,192], param_1.5451: f32[1,128,1536], param_2.4309: f32[128], param_3.2913: bf16[1536]) -> bf16[1,128,128,192] {
  %param_1.5451 = f32[1,128,1536]{2,1,0:T(8,128)S(1)} parameter(1)
  %param_2.4309 = f32[128]{0:T(128)S(1)} parameter(2)
  %param_3.2913 = bf16[1536]{0:T(1024)(128)(2,1)S(1)} parameter(3)
  %fusion.1074 = bf16[128,1536,1]{1,0,2:T(8,128)(2,1)} fusion(%param_1.5451, %param_2.4309, %param_3.2913), kind=kLoop, calls=%fused_computation.149.clone.clone.1
  %param_0.4832 = bf16[1536,128,192]{0,2,1:T(8,128)(2,1)} parameter(0)
  %fusion.1075 = bf16[1536,128,192]{0,2,1:T(8,128)(2,1)} fusion(%param_0.4832), kind=kLoop, calls=%bitcast_fusion.17.clone.1
  %convolution.328 = bf16[128,128,192]{2,0,1:T(8,128)(2,1)} convolution(%fusion.1074, %fusion.1075), window={size=128 pad=127_127 rhs_reversal=1}, dim_labels=bf0_i0o->b0f, metadata={op_name="jit(train_step)/jvp()/while/body/closed_call/dot_general" stack_frame_id=0}
  ROOT %bitcast.2494 = bf16[1,128,128,192]{3,1,2,0:T(8,128)(2,1)S(1)} bitcast(%convolution.328), metadata={op_name="jit(train_step)/jvp()/while/body/closed_call/dot_general" stack_frame_id=0}
}

%fused_computation.1395.clone.1 (param_0.4833: bf16[1,128,128,32,2]) -> (bf16[1,128,128,32,1], bf16[1,128,128,32,1]) {
  %param_0.4833 = bf16[1,128,128,32,2]{2,1,4,3,0:T(8,128)(2,1)S(1)} parameter(0)
  %slice.1454 = bf16[1,128,128,32,1]{2,1,4,3,0:T(8,128)(2,1)S(1)} slice(%param_0.4833), slice={[0:1], [0:128], [0:128], [0:32], [0:1]}, metadata={op_name="jit(train_step)/jvp()/while/body/closed_call/slice" stack_frame_id=0}
  %slice.1455 = bf16[1,128,128,32,1]{2,1,4,3,0:T(8,128)(2,1)S(1)} slice(%param_0.4833), slice={[0:1], [0:128], [0:128], [0:32], [1:2]}, metadata={op_name="jit(train_step)/jvp()/while/body/closed_call/slice" stack_frame_id=0}
  ROOT %tuple.862 = (bf16[1,128,128,32,1]{2,1,4,3,0:T(8,128)(2,1)S(1)}, bf16[1,128,128,32,1]{2,1,4,3,0:T(8,128)(2,1)S(1)}) tuple(%slice.1454, %slice.1455)
}

%fused_computation.126.clone.1 (param_0.4834: bf16[1,128,128,32,1], param_1.5452: bf16[1,128,128,32,1], param_2.4310: f32[128,32], param_3.2914: f32[128,32]) -> (bf16[1,128,128,32], bf16[1,128,128,32]) {
  %param_1.5452 = bf16[1,128,128,32,1]{3,1,2,4,0:T(8,128)(2,1)S(1)} parameter(1)
  %convert_element_type.3081 = f32[1,128,128,32,1]{3,1,2,4,0:T(8,128)} convert(%param_1.5452), metadata={op_name="jit(train_step)/jvp()/while/body/closed_call/convert_element_type" stack_frame_id=0}
  %bitcast.2496 = f32[1,128,128,32]{3,1,2,0:T(8,128)} bitcast(%convert_element_type.3081), metadata={op_name="jit(train_step)/jvp()/while/body/closed_call/convert_element_type" stack_frame_id=0}
  %param_0.4834 = bf16[1,128,128,32,1]{3,1,2,4,0:T(8,128)(2,1)S(1)} parameter(0)
  %convert_element_type.3080 = f32[1,128,128,32,1]{3,1,2,4,0:T(8,128)} convert(%param_0.4834), metadata={op_name="jit(train_step)/jvp()/while/body/closed_call/convert_element_type" stack_frame_id=0}
  %bitcast.2495 = f32[1,128,128,32]{3,1,2,0:T(8,128)} bitcast(%convert_element_type.3080), metadata={op_name="jit(train_step)/jvp()/while/body/closed_call/convert_element_type" stack_frame_id=0}
  %constant.1441.clone.23 = f32[]{:T(128)} constant(0)
  %convert_element_type.3082 = f32[1,128,128,32]{3,1,2,0:T(8,128)} broadcast(%constant.1441.clone.23), dimensions={}, metadata={op_name="jit(train_step)/jvp()/while/body/closed_call/convert_element_type" stack_frame_id=0}
  %mul.6043 = f32[1,128,128,32]{3,1,2,0:T(8,128)} multiply(%bitcast.2495, %convert_element_type.3082), metadata={op_name="jit(train_step)/jvp()/while/body/closed_call/mul" stack_frame_id=0}
  %add.3920 = f32[1,128,128,32]{3,1,2,0:T(8,128)} add(%bitcast.2496, %mul.6043), metadata={op_name="jit(train_step)/jvp()/while/body/closed_call/add" stack_frame_id=0}
  %param_3.2914 = f32[128,32]{1,0:T(8,128)S(1)} parameter(3)
  %broadcast_in_dim.1673 = f32[1,128,128,32]{3,1,2,0:T(8,128)} broadcast(%param_3.2914), dimensions={1,3}, metadata={op_name="jit(train_step)/broadcast_in_dim" stack_frame_id=0}
  %mul.6042 = f32[1,128,128,32]{3,1,2,0:T(8,128)} multiply(%add.3920, %broadcast_in_dim.1673), metadata={op_name="jit(train_step)/jvp()/while/body/closed_call/mul" stack_frame_id=0}
  %param_2.4310 = f32[128,32]{1,0:T(8,128)S(1)} parameter(2)
  %broadcast_in_dim.1672 = f32[1,128,128,32]{3,1,2,0:T(8,128)} broadcast(%param_2.4310), dimensions={1,3}, metadata={op_name="jit(train_step)/broadcast_in_dim" stack_frame_id=0}
  %mul.6041 = f32[1,128,128,32]{3,1,2,0:T(8,128)} multiply(%bitcast.2495, %broadcast_in_dim.1672), metadata={op_name="jit(train_step)/jvp()/while/body/closed_call/mul" stack_frame_id=0}
  %mul.6040 = f32[1,128,128,32]{3,1,2,0:T(8,128)} subtract(%mul.6042, %mul.6041), metadata={op_name="jit(train_step)/jvp()/while/body/closed_call/mul" stack_frame_id=0}
  %convert.587 = bf16[1,128,128,32]{3,1,2,0:T(8,128)(2,1)S(1)} convert(%mul.6040), metadata={op_name="convert.204"}
  %mul.3607.clone.3 = f32[1,128,128,32]{3,1,2,0:T(8,128)} multiply(%add.3920, %broadcast_in_dim.1672), metadata={op_name="jit(train_step)/jvp()/while/body/closed_call/mul" stack_frame_id=0}
  %mul.3606.clone.3 = f32[1,128,128,32]{3,1,2,0:T(8,128)} multiply(%bitcast.2495, %broadcast_in_dim.1673), metadata={op_name="jit(train_step)/jvp()/while/body/closed_call/mul" stack_frame_id=0}
  %mul.3605.clone.3 = f32[1,128,128,32]{3,1,2,0:T(8,128)} add(%mul.3607.clone.3, %mul.3606.clone.3), metadata={op_name="jit(train_step)/jvp()/while/body/closed_call/mul" stack_frame_id=0}
  %convert.406.clone.3 = bf16[1,128,128,32]{3,1,2,0:T(8,128)(2,1)S(1)} convert(%mul.3605.clone.3), metadata={op_name="convert.205"}
  ROOT %tuple.863 = (bf16[1,128,128,32]{3,1,2,0:T(8,128)(2,1)S(1)}, bf16[1,128,128,32]{3,1,2,0:T(8,128)(2,1)S(1)}) tuple(%convert.587, %convert.406.clone.3)
}

%fused_computation.119.clone.1 (param_0.4835: bf16[1,128,128,32], param_1.5453: bf16[1,128,128,32], param_2.4311: bf16[1,128,128,128]) -> bf16[128,128,192] {
  %param_2.4311 = bf16[1,128,128,128]{3,1,2,0:T(8,128)(2,1)S(1)} parameter(2)
  %constant.4128 = bf16[]{:T(256)} constant(-inf)
  %pad.469 = bf16[1,128,128,192]{3,1,2,0:T(8,128)(2,1)} pad(%param_2.4311, %constant.4128), padding=0_0x0_0x0_0x0_64, metadata={op_name="jit(train_step)/jvp()/while/body/closed_call/concatenate" stack_frame_id=0}
  %convert.966 = f32[1,128,128,192]{3,1,2,0:T(8,128)} convert(%pad.469)
  %param_1.5453 = bf16[1,128,128,32]{3,1,2,0:T(8,128)(2,1)S(1)} parameter(1)
  %pad.468 = bf16[1,128,128,192]{3,1,2,0:T(8,128)(2,1)} pad(%param_1.5453, %constant.4128), padding=0_0x0_0x0_0x128_32, metadata={op_name="jit(train_step)/jvp()/while/body/closed_call/concatenate" stack_frame_id=0}
  %convert.967 = f32[1,128,128,192]{3,1,2,0:T(8,128)} convert(%pad.468)
  %maximum.103 = f32[1,128,128,192]{3,1,2,0:T(8,128)} maximum(%convert.966, %convert.967), metadata={op_name="jit(train_step)/jvp()/while/body/closed_call/concatenate" stack_frame_id=0}, backend_config={"flag_configs":[],"scoped_memory_configs":[],"used_scoped_memory_configs":[],"float_type_correction_info":{"original_type":"BF16","original_shape":{"element_type":"BF16","dimensions":["1","128","128","192"],"tuple_shapes":[],"layout":{"minor_to_major":["3","1","2","0"],"tiles":[{"dimensions":["8","128"]},{"dimensions":["2","1"]}],"element_size_in_bits":"0","memory_space":"0","dim_level_types":[],"index_primitive_type":"PRIMITIVE_TYPE_INVALID","pointer_primitive_type":"PRIMITIVE_TYPE_INVALID","dim_unique":[],"dim_ordered":[],"dynamic_shape_metadata_prefix_bytes":"0","tail_padding_alignment_in_elements":"1","split_configs":[]},"is_dynamic_dimension":[false,false,false,false]}}}
  %param_0.4835 = bf16[1,128,128,32]{3,1,2,0:T(8,128)(2,1)S(1)} parameter(0)
  %pad.467 = bf16[1,128,128,192]{3,1,2,0:T(8,128)(2,1)} pad(%param_0.4835, %constant.4128), padding=0_0x0_0x0_0x160_0, metadata={op_name="jit(train_step)/jvp()/while/body/closed_call/concatenate" stack_frame_id=0}
  %convert.968 = f32[1,128,128,192]{3,1,2,0:T(8,128)} convert(%pad.467)
  %maximum.102 = f32[1,128,128,192]{3,1,2,0:T(8,128)} maximum(%maximum.103, %convert.968), metadata={op_name="jit(train_step)/jvp()/while/body/closed_call/concatenate" stack_frame_id=0}, backend_config={"flag_configs":[],"scoped_memory_configs":[],"used_scoped_memory_configs":[],"float_type_correction_info":{"original_type":"BF16","original_shape":{"element_type":"BF16","dimensions":["1","128","128","192"],"tuple_shapes":[],"layout":{"minor_to_major":["3","1","2","0"],"tiles":[{"dimensions":["8","128"]},{"dimensions":["2","1"]}],"element_size_in_bits":"0","memory_space":"0","dim_level_types":[],"index_primitive_type":"PRIMITIVE_TYPE_INVALID","pointer_primitive_type":"PRIMITIVE_TYPE_INVALID","dim_unique":[],"dim_ordered":[],"dynamic_shape_metadata_prefix_bytes":"0","tail_padding_alignment_in_elements":"1","split_configs":[]},"is_dynamic_dimension":[false,false,false,false]}}}
  %constant.1446.clone.7 = bf16[]{:T(256)} constant(0.1348)
  %mul.6045 = bf16[1,128,128,192]{3,1,2,0:T(8,128)(2,1)} broadcast(%constant.1446.clone.7), dimensions={}, metadata={op_name="jit(train_step)/jvp()/while/body/closed_call/mul" stack_frame_id=0}
  %convert.969 = f32[1,128,128,192]{3,1,2,0:T(8,128)} convert(%mul.6045)
  %mul.6044 = f32[1,128,128,192]{3,1,2,0:T(8,128)} multiply(%maximum.102, %convert.969), metadata={op_name="jit(train_step)/jvp()/while/body/closed_call/mul" stack_frame_id=0}, backend_config={"flag_configs":[],"scoped_memory_configs":[],"used_scoped_memory_configs":[],"float_type_correction_info":{"original_type":"BF16","original_shape":{"element_type":"BF16","dimensions":["1","128","128","192"],"tuple_shapes":[],"layout":{"minor_to_major":["3","1","2","0"],"tiles":[{"dimensions":["8","128"]},{"dimensions":["2","1"]}],"element_size_in_bits":"0","memory_space":"0","dim_level_types":[],"index_primitive_type":"PRIMITIVE_TYPE_INVALID","pointer_primitive_type":"PRIMITIVE_TYPE_INVALID","dim_unique":[],"dim_ordered":[],"dynamic_shape_metadata_prefix_bytes":"0","tail_padding_alignment_in_elements":"1","split_configs":[]},"is_dynamic_dimension":[false,false,false,false]}}}
  %convert.970 = bf16[1,128,128,192]{3,1,2,0:T(8,128)(2,1)} convert(%mul.6044)
  ROOT %bitcast.2497 = bf16[128,128,192]{2,1,0:T(8,128)(2,1)S(1)} bitcast(%convert.970), metadata={op_name="jit(train_step)/jvp()/while/body/closed_call/shard_map/vmap(static_sparsity_splash)/jit(_splash_attention)/splash_mha_fwd_segmented_residuals/splash_mha_fwd_segmented_residuals/squeeze" stack_frame_id=0}
}

%fused_computation.155.clone.1 (param_0.4809: bf16[3,128,576], param_1.5436: s32[]) -> bf16[1,128,576] {
  %param_0.4809 = bf16[3,128,576]{2,1,0:T(8,128)(2,1)S(1)} parameter(0)
  %param_1.5436 = s32[]{:T(128)S(6)} parameter(1)
  %constant.1444.clone.45 = s32[]{:T(128)} constant(0)
  ROOT %dynamic-slice.426 = bf16[1,128,576]{2,1,0:T(8,128)(2,1)S(1)} dynamic-slice(%param_0.4809, %param_1.5436, %constant.1444.clone.45, %constant.1444.clone.45), dynamic_slice_sizes={1,128,576}, metadata={op_name="jit(train_step)/jvp()/while/body/jit(dynamic_index_in_dim)/dynamic_slice" stack_frame_id=0}, backend_config={"flag_configs":[],"scoped_memory_configs":[],"indices_config":{"index_known_bits":[{"zeroes":"4294967292","ones":"0","bitwidth":"32"},{"zeroes":"4294967295","ones":"0","bitwidth":"32"},{"zeroes":"4294967295","ones":"0","bitwidth":"32"}],"is_index_aligned":[]},"used_scoped_memory_configs":[]}
}

%fused_computation.170.clone.clone.1 (param_0.4811: bf16[1,128,512], param_1.5437: f32[128], param_2.4301: bf16[512]) -> bf16[128,512] {
  %param_0.4811 = bf16[1,128,512]{2,1,0:T(8,128)(2,1)S(1)} parameter(0)
  %convert_element_type.3070 = f32[1,128,512]{2,1,0:T(8,128)} convert(%param_0.4811), metadata={op_name="jit(train_step)/jvp()/while/body/closed_call/convert_element_type" stack_frame_id=0}
  %param_1.5437 = f32[128]{0:T(128)S(1)} parameter(1)
  %mul.6022 = f32[1,128,512]{2,1,0:T(8,128)} broadcast(%param_1.5437), dimensions={1}, metadata={op_name="jit(train_step)/jvp()/while/body/closed_call/mul" stack_frame_id=0}
  %mul.6021 = f32[1,128,512]{2,1,0:T(8,128)} multiply(%convert_element_type.3070, %mul.6022), metadata={op_name="jit(train_step)/jvp()/while/body/closed_call/mul" stack_frame_id=0}
  %convert_element_type.3069 = bf16[1,128,512]{2,1,0:T(8,128)(2,1)} convert(%mul.6021), metadata={op_name="jit(train_step)/jvp()/while/body/closed_call/convert_element_type" stack_frame_id=0}
  %convert.944 = f32[1,128,512]{2,1,0:T(8,128)} convert(%convert_element_type.3069)
  %param_2.4301 = bf16[512]{0:T(512)(128)(2,1)S(1)} parameter(2)
  %mul.6023 = bf16[1,128,512]{2,1,0:T(8,128)(2,1)} broadcast(%param_2.4301), dimensions={2}, metadata={op_name="jit(train_step)/jvp()/while/body/closed_call/mul" stack_frame_id=0}
  %convert.945 = f32[1,128,512]{2,1,0:T(8,128)} convert(%mul.6023)
  %mul.6020 = f32[1,128,512]{2,1,0:T(8,128)} multiply(%convert.944, %convert.945), metadata={op_name="jit(train_step)/jvp()/while/body/closed_call/mul" stack_frame_id=0}, backend_config={"flag_configs":[],"scoped_memory_configs":[],"used_scoped_memory_configs":[],"float_type_correction_info":{"original_type":"BF16","original_shape":{"element_type":"BF16","dimensions":["1","128","512"],"tuple_shapes":[],"layout":{"minor_to_major":["2","1","0"],"tiles":[{"dimensions":["8","128"]},{"dimensions":["2","1"]}],"element_size_in_bits":"0","memory_space":"0","dim_level_types":[],"index_primitive_type":"PRIMITIVE_TYPE_INVALID","pointer_primitive_type":"PRIMITIVE_TYPE_INVALID","dim_unique":[],"dim_ordered":[],"dynamic_shape_metadata_prefix_bytes":"0","tail_padding_alignment_in_elements":"1","split_configs":[]},"is_dynamic_dimension":[false,false,false]}}}
  %convert.946 = bf16[1,128,512]{2,1,0:T(8,128)(2,1)} convert(%mul.6020)
  ROOT %bitcast.2478 = bf16[128,512]{1,0:T(8,128)(2,1)} bitcast(%convert.946)
}

%fused_computation.142.clone.clone.clone.1 (param_0.4810: bf16[1,512,576]) -> bf16[512,576] {
  %param_0.4810 = bf16[1,512,576]{2,1,0:T(8,128)(2,1)S(1)} parameter(0)
  ROOT %bitcast.2477 = bf16[512,576]{1,0:T(8,128)(2,1)} bitcast(%param_0.4810), metadata={op_name="jit(train_step)/jvp()/while/body/closed_call/dot_general" stack_frame_id=0}
}

%fused_computation.143.clone.1 (param_0.4812: bf16[1,512,576], param_1.5438: bf16[1,128,512], param_2.4302: f32[128], param_3.2909: bf16[512]) -> bf16[1,128,576] {
  %param_1.5438 = bf16[1,128,512]{2,1,0:T(8,128)(2,1)S(1)} parameter(1)
  %param_2.4302 = f32[128]{0:T(128)S(1)} parameter(2)
  %param_3.2909 = bf16[512]{0:T(512)(128)(2,1)S(1)} parameter(3)
  %fusion.1071 = bf16[128,512]{1,0:T(8,128)(2,1)} fusion(%param_1.5438, %param_2.4302, %param_3.2909), kind=kLoop, calls=%fused_computation.170.clone.clone.1
  %param_0.4812 = bf16[1,512,576]{2,1,0:T(8,128)(2,1)S(1)} parameter(0)
  %fusion.1070 = bf16[512,576]{1,0:T(8,128)(2,1)} fusion(%param_0.4812), kind=kLoop, calls=%fused_computation.142.clone.clone.clone.1, metadata={op_name="jit(train_step)/jvp()/while/body/closed_call/dot_general" stack_frame_id=0}
  %convolution.326 = bf16[128,576]{0,1:T(8,128)(2,1)} convolution(%fusion.1071, %fusion.1070), dim_labels=bf_io->bf, metadata={op_name="jit(train_step)/jvp()/while/body/closed_call/dot_general" stack_frame_id=0}
  ROOT %bitcast.2479 = bf16[1,128,576]{1,2,0:T(8,128)(2,1)S(1)} bitcast(%convolution.326), metadata={op_name="jit(train_step)/jvp()/while/body/closed_call/dot_general" stack_frame_id=0}
}

%fused_computation.1396.clone.1 (param_0.4820: bf16[1,128,1,32,2]) -> (bf16[1,128,1,32,1], bf16[1,128,1,32,1]) {
  %param_0.4820 = bf16[1,128,1,32,2]{1,4,3,2,0:T(2,128)(2,1)S(1)} parameter(0)
  %slice.1452 = bf16[1,128,1,32,1]{1,4,3,2,0:T(2,128)(2,1)S(1)} slice(%param_0.4820), slice={[0:1], [0:128], [0:1], [0:32], [0:1]}, metadata={op_name="jit(train_step)/jvp()/while/body/closed_call/slice" stack_frame_id=0}
  %slice.1453 = bf16[1,128,1,32,1]{1,4,3,2,0:T(2,128)(2,1)S(1)} slice(%param_0.4820), slice={[0:1], [0:128], [0:1], [0:32], [1:2]}, metadata={op_name="jit(train_step)/jvp()/while/body/closed_call/slice" stack_frame_id=0}
  ROOT %tuple.859 = (bf16[1,128,1,32,1]{1,4,3,2,0:T(2,128)(2,1)S(1)}, bf16[1,128,1,32,1]{1,4,3,2,0:T(2,128)(2,1)S(1)}) tuple(%slice.1452, %slice.1453)
}

%fused_computation.179.clone.1 (param_0.4821: f32[1,128,1,32], param_1.5442: f32[1,128,1,32], param_2.4305: bf16[1,128,1,32,1], param_3.2911: bf16[1,128,1,32,1]) -> (bf16[1,128,32], bf16[1,128,32]) {
  %param_3.2911 = bf16[1,128,1,32,1]{3,1,4,2,0:T(8,128)(2,1)S(1)} parameter(3)
  %convert_element_type.3075 = f32[1,128,1,32,1]{3,1,4,2,0:T(8,128)} convert(%param_3.2911), metadata={op_name="jit(train_step)/jvp()/while/body/closed_call/convert_element_type" stack_frame_id=0}
  %bitcast.2487 = f32[1,128,32]{2,1,0:T(8,128)} bitcast(%convert_element_type.3075), metadata={op_name="jit(train_step)/jvp()/while/body/closed_call/convert_element_type" stack_frame_id=0}
  %param_2.4305 = bf16[1,128,1,32,1]{3,1,4,2,0:T(8,128)(2,1)S(1)} parameter(2)
  %convert_element_type.3074 = f32[1,128,1,32,1]{3,1,4,2,0:T(8,128)} convert(%param_2.4305), metadata={op_name="jit(train_step)/jvp()/while/body/closed_call/convert_element_type" stack_frame_id=0}
  %bitcast.2486 = f32[1,128,32]{2,1,0:T(8,128)} bitcast(%convert_element_type.3074), metadata={op_name="jit(train_step)/jvp()/while/body/closed_call/convert_element_type" stack_frame_id=0}
  %constant.1441.clone.21 = f32[]{:T(128)} constant(0)
  %convert_element_type.3076 = f32[1,128,32]{2,1,0:T(8,128)} broadcast(%constant.1441.clone.21), dimensions={}, metadata={op_name="jit(train_step)/jvp()/while/body/closed_call/convert_element_type" stack_frame_id=0}
  %mul.6031 = f32[1,128,32]{2,1,0:T(8,128)} multiply(%bitcast.2486, %convert_element_type.3076), metadata={op_name="jit(train_step)/jvp()/while/body/closed_call/mul" stack_frame_id=0}
  %add.3918 = f32[1,128,32]{2,1,0:T(8,128)} add(%bitcast.2487, %mul.6031), metadata={op_name="jit(train_step)/jvp()/while/body/closed_call/add" stack_frame_id=0}
  %param_1.5442 = f32[1,128,1,32]{3,1,2,0:T(8,128)S(1)} parameter(1)
  %bitcast.2485 = f32[1,128,32]{2,1,0:T(8,128)} bitcast(%param_1.5442), metadata={op_name="jit(train_step)/jvp()/while/body/closed_call/mul" stack_frame_id=0}
  %mul.6030 = f32[1,128,32]{2,1,0:T(8,128)} multiply(%add.3918, %bitcast.2485), metadata={op_name="jit(train_step)/jvp()/while/body/closed_call/mul" stack_frame_id=0}
  %param_0.4821 = f32[1,128,1,32]{3,1,2,0:T(8,128)S(1)} parameter(0)
  %bitcast.2484 = f32[1,128,32]{2,1,0:T(8,128)} bitcast(%param_0.4821), metadata={op_name="jit(train_step)/jvp()/while/body/closed_call/mul" stack_frame_id=0}
  %mul.6029 = f32[1,128,32]{2,1,0:T(8,128)} multiply(%bitcast.2486, %bitcast.2484), metadata={op_name="jit(train_step)/jvp()/while/body/closed_call/mul" stack_frame_id=0}
  %mul.6028 = f32[1,128,32]{2,1,0:T(8,128)} subtract(%mul.6030, %mul.6029), metadata={op_name="jit(train_step)/jvp()/while/body/closed_call/mul" stack_frame_id=0}
  %convert.586 = bf16[1,128,32]{2,1,0:T(8,128)(2,1)S(1)} convert(%mul.6028), metadata={op_name="convert.202"}
  %mul.3718.clone.3 = f32[1,128,32]{2,1,0:T(8,128)} multiply(%add.3918, %bitcast.2484), metadata={op_name="jit(train_step)/jvp()/while/body/closed_call/mul" stack_frame_id=0}
  %mul.3724.clone.3 = f32[1,128,32]{2,1,0:T(8,128)} multiply(%bitcast.2486, %bitcast.2485), metadata={op_name="jit(train_step)/jvp()/while/body/closed_call/mul" stack_frame_id=0}
  %mul.3717.clone.3 = f32[1,128,32]{2,1,0:T(8,128)} add(%mul.3718.clone.3, %mul.3724.clone.3), metadata={op_name="jit(train_step)/jvp()/while/body/closed_call/mul" stack_frame_id=0}
  %convert.408.clone.3 = bf16[1,128,32]{2,1,0:T(8,128)(2,1)S(1)} convert(%mul.3717.clone.3), metadata={op_name="convert.203"}
  ROOT %tuple.860 = (bf16[1,128,32]{2,1,0:T(8,128)(2,1)S(1)}, bf16[1,128,32]{2,1,0:T(8,128)(2,1)S(1)}) tuple(%convert.586, %convert.408.clone.3)
}

%fused_computation.191.clone.1 (param_0.4822: bf16[1,128,32], param_1.5443: bf16[1,128,32]) -> bf16[128,64] {
  %param_1.5443 = bf16[1,128,32]{2,1,0:T(8,128)(2,1)S(1)} parameter(1)
  %constant.4125 = bf16[]{:T(256)} constant(-inf)
  %pad.464 = bf16[1,128,64]{2,1,0:T(8,128)(2,1)} pad(%param_1.5443, %constant.4125), padding=0_0x0_0x0_32, metadata={op_name="jit(train_step)/jvp()/while/body/closed_call/concatenate" stack_frame_id=0}
  %convert.971 = f32[1,128,64]{2,1,0:T(8,128)} convert(%pad.464)
  %param_0.4822 = bf16[1,128,32]{2,1,0:T(8,128)(2,1)S(1)} parameter(0)
  %pad.463 = bf16[1,128,64]{2,1,0:T(8,128)(2,1)} pad(%param_0.4822, %constant.4125), padding=0_0x0_0x32_0, metadata={op_name="jit(train_step)/jvp()/while/body/closed_call/concatenate" stack_frame_id=0}
  %convert.972 = f32[1,128,64]{2,1,0:T(8,128)} convert(%pad.463)
  %maximum.100 = f32[1,128,64]{2,1,0:T(8,128)} maximum(%convert.971, %convert.972), metadata={op_name="jit(train_step)/jvp()/while/body/closed_call/concatenate" stack_frame_id=0}, backend_config={"flag_configs":[],"scoped_memory_configs":[],"used_scoped_memory_configs":[],"float_type_correction_info":{"original_type":"BF16","original_shape":{"element_type":"BF16","dimensions":["1","128","64"],"tuple_shapes":[],"layout":{"minor_to_major":["2","1","0"],"tiles":[{"dimensions":["8","128"]},{"dimensions":["2","1"]}],"element_size_in_bits":"0","memory_space":"0","dim_level_types":[],"index_primitive_type":"PRIMITIVE_TYPE_INVALID","pointer_primitive_type":"PRIMITIVE_TYPE_INVALID","dim_unique":[],"dim_ordered":[],"dynamic_shape_metadata_prefix_bytes":"0","tail_padding_alignment_in_elements":"1","split_configs":[]},"is_dynamic_dimension":[false,false,false]}}}
  %convert.973 = bf16[1,128,64]{2,1,0:T(8,128)(2,1)} convert(%maximum.100)
  ROOT %bitcast.2488 = bf16[128,64]{1,0:T(8,128)(2,1)S(1)} bitcast(%convert.973), metadata={op_name="jit(train_step)/jvp()/while/body/closed_call/concatenate" stack_frame_id=0}
}

%fused_computation.110.clone.1 (param_0.4815: bf16[3,128,128,256], param_1.5439: s32[]) -> bf16[1,128,128,256] {
  %param_0.4815 = bf16[3,128,128,256]{3,1,2,0:T(8,128)(2,1)} parameter(0)
  %param_1.5439 = s32[]{:T(128)S(6)} parameter(1)
  %constant.1444.clone.46 = s32[]{:T(128)} constant(0)
  ROOT %dynamic-slice.427 = bf16[1,128,128,256]{3,1,2,0:T(8,128)(2,1)S(1)} dynamic-slice(%param_0.4815, %param_1.5439, %constant.1444.clone.46, %constant.1444.clone.46, %constant.1444.clone.46), dynamic_slice_sizes={1,128,128,256}, metadata={op_name="jit(train_step)/jvp()/while/body/jit(dynamic_index_in_dim)/dynamic_slice" stack_frame_id=0}, backend_config={"flag_configs":[],"scoped_memory_configs":[],"indices_config":{"index_known_bits":[{"zeroes":"4294967292","ones":"0","bitwidth":"32"},{"zeroes":"4294967295","ones":"0","bitwidth":"32"},{"zeroes":"4294967295","ones":"0","bitwidth":"32"},{"zeroes":"4294967295","ones":"0","bitwidth":"32"}],"is_index_aligned":[]},"used_scoped_memory_configs":[]}
}

%region_3.4 (reduce_sum.15: f32[], reduce_sum.16: f32[]) -> f32[] {
  %reduce_sum.15 = f32[]{:T(128)} parameter(0), metadata={op_name="jit(train_step)/jvp()/while/body/closed_call/reduce_sum"}
  %reduce_sum.16 = f32[]{:T(128)} parameter(1), metadata={op_name="jit(train_step)/jvp()/while/body/closed_call/reduce_sum"}
  ROOT %reduce_sum.20 = f32[]{:T(128)} add(%reduce_sum.15, %reduce_sum.16), metadata={op_name="reduce_sum" stack_frame_id=0}, backend_config={"flag_configs":[],"scoped_memory_configs":[],"used_scoped_memory_configs":[],"aliasing_operands":{"lists":[]}}
}

%fused_computation.160.clone.1 (param_0.4813: bf16[1,128,576]) -> f32[128] {
  %param_0.4813 = bf16[1,128,576]{1,2,0:T(8,128)(2,1)S(1)} parameter(0)
  %slice.1448 = bf16[1,128,512]{1,2,0:T(8,128)(2,1)} slice(%param_0.4813), slice={[0:1], [0:128], [0:512]}, metadata={op_name="jit(train_step)/jvp()/while/body/closed_call/split" stack_frame_id=0}
  %convert_element_type.3071 = f32[1,128,512]{1,2,0:T(8,128)} convert(%slice.1448), metadata={op_name="jit(train_step)/jvp()/while/body/closed_call/convert_element_type" stack_frame_id=0}
  %square.702 = f32[1,128,512]{1,2,0:T(8,128)} multiply(%convert_element_type.3071, %convert_element_type.3071), metadata={op_name="jit(train_step)/jvp()/while/body/closed_call/square" stack_frame_id=0}
  %constant.1441.clone.20 = f32[]{:T(128)} constant(0)
  ROOT %reduce.823 = f32[128]{0:T(128)S(1)} reduce(%square.702, %constant.1441.clone.20), dimensions={0,2}, to_apply=%region_3.4, metadata={op_name="jit(train_step)/jvp()/while/body/closed_call/reduce_sum" stack_frame_id=0}
}

%fused_computation.203.clone.1 (param_0.4814: f32[128]) -> f32[128] {
  %param_0.4814 = f32[128]{0:T(128)S(1)} parameter(0)
  %constant.1442.clone.12 = f32[]{:T(128)} constant(0.001953125)
  %broadcast.4553 = f32[128]{0:T(128)} broadcast(%constant.1442.clone.12), dimensions={}, metadata={op_name="jit(train_step)/jvp()/while/body/closed_call" stack_frame_id=0}
  %div.2851 = f32[128]{0:T(128)} multiply(%param_0.4814, %broadcast.4553), metadata={op_name="jit(train_step)/jvp()/while/body/closed_call/div" stack_frame_id=0}
  %constant.1443.clone.14 = f32[]{:T(128)} constant(1e-06)
  %broadcast.4552 = f32[128]{0:T(128)} broadcast(%constant.1443.clone.14), dimensions={}, metadata={op_name="jit(train_step)/jvp()/while/body/closed_call" stack_frame_id=0}
  %add.3917 = f32[128]{0:T(128)} add(%div.2851, %broadcast.4552), metadata={op_name="jit(train_step)/jvp()/while/body/closed_call/add" stack_frame_id=0}
  ROOT %rsqrt.367 = f32[128]{0:T(128)S(1)} rsqrt(%add.3917), metadata={op_name="jit(train_step)/jvp()/while/body/closed_call/rsqrt" stack_frame_id=0}
}

%fused_computation.168.clone.clone.1 (param_0.4817: f32[128], param_1.5440: bf16[1,128,576], param_2.4303: bf16[512]) -> bf16[128,512,1] {
  %param_1.5440 = bf16[1,128,576]{1,2,0:T(8,128)(2,1)S(1)} parameter(1)
  %slice.1449 = bf16[1,128,512]{1,2,0:T(8,128)(2,1)} slice(%param_1.5440), slice={[0:1], [0:128], [0:512]}, metadata={op_name="jit(train_step)/jvp()/while/body/closed_call/split" stack_frame_id=0}
  %convert_element_type.3073 = f32[1,128,512]{1,2,0:T(8,128)} convert(%slice.1449), metadata={op_name="jit(train_step)/jvp()/while/body/closed_call/convert_element_type" stack_frame_id=0}
  %param_0.4817 = f32[128]{0:T(128)S(1)} parameter(0)
  %mul.6026 = f32[1,128,512]{1,2,0:T(8,128)} broadcast(%param_0.4817), dimensions={1}, metadata={op_name="jit(train_step)/jvp()/while/body/closed_call/mul" stack_frame_id=0}
  %mul.6025 = f32[1,128,512]{1,2,0:T(8,128)} multiply(%convert_element_type.3073, %mul.6026), metadata={op_name="jit(train_step)/jvp()/while/body/closed_call/mul" stack_frame_id=0}
  %convert_element_type.3072 = bf16[1,128,512]{1,2,0:T(8,128)(2,1)} convert(%mul.6025), metadata={op_name="jit(train_step)/jvp()/while/body/closed_call/convert_element_type" stack_frame_id=0}
  %convert.947 = f32[1,128,512]{1,2,0:T(8,128)} convert(%convert_element_type.3072)
  %param_2.4303 = bf16[512]{0:T(512)(128)(2,1)S(1)} parameter(2)
  %mul.6027 = bf16[1,128,512]{1,2,0:T(8,128)(2,1)} broadcast(%param_2.4303), dimensions={2}, metadata={op_name="jit(train_step)/jvp()/while/body/closed_call/mul" stack_frame_id=0}
  %convert.948 = f32[1,128,512]{1,2,0:T(8,128)} convert(%mul.6027)
  %mul.6024 = f32[1,128,512]{1,2,0:T(8,128)} multiply(%convert.947, %convert.948), metadata={op_name="jit(train_step)/jvp()/while/body/closed_call/mul" stack_frame_id=0}, backend_config={"flag_configs":[],"scoped_memory_configs":[],"used_scoped_memory_configs":[],"float_type_correction_info":{"original_type":"BF16","original_shape":{"element_type":"BF16","dimensions":["1","128","512"],"tuple_shapes":[],"layout":{"minor_to_major":["1","2","0"],"tiles":[{"dimensions":["8","128"]},{"dimensions":["2","1"]}],"element_size_in_bits":"0","memory_space":"0","dim_level_types":[],"index_primitive_type":"PRIMITIVE_TYPE_INVALID","pointer_primitive_type":"PRIMITIVE_TYPE_INVALID","dim_unique":[],"dim_ordered":[],"dynamic_shape_metadata_prefix_bytes":"0","tail_padding_alignment_in_elements":"1","split_configs":[]},"is_dynamic_dimension":[false,false,false]}}}
  %convert.949 = bf16[1,128,512]{1,2,0:T(8,128)(2,1)} convert(%mul.6024)
  ROOT %bitcast.2481 = bf16[128,512,1]{0,1,2:T(8,128)(2,1)} bitcast(%convert.949)
}

%fused_computation.101.clone.clone.clone.1 (param_0.4816: bf16[1,512,128,256]) -> bf16[512,128,256] {
  %param_0.4816 = bf16[1,512,128,256]{3,1,2,0:T(8,128)(2,1)S(1)} parameter(0)
  ROOT %bitcast.2480 = bf16[512,128,256]{2,0,1:T(8,128)(2,1)} bitcast(%param_0.4816), metadata={op_name="jit(train_step)/jvp()/while/body/closed_call/dot_general" stack_frame_id=0}
}

%fused_computation.130.clone.1 (param_0.4818: bf16[1,512,128,256], param_1.5441: f32[128], param_2.4304: bf16[1,128,576], param_3.2910: bf16[512]) -> bf16[1,128,128,256] {
  %param_1.5441 = f32[128]{0:T(128)S(1)} parameter(1)
  %param_2.4304 = bf16[1,128,576]{1,2,0:T(8,128)(2,1)S(1)} parameter(2)
  %param_3.2910 = bf16[512]{0:T(512)(128)(2,1)S(1)} parameter(3)
  %fusion.1073 = bf16[128,512,1]{0,1,2:T(8,128)(2,1)} fusion(%param_1.5441, %param_2.4304, %param_3.2910), kind=kLoop, calls=%fused_computation.168.clone.clone.1
  %param_0.4818 = bf16[1,512,128,256]{3,1,2,0:T(8,128)(2,1)S(1)} parameter(0)
  %fusion.1072 = bf16[512,128,256]{2,0,1:T(8,128)(2,1)} fusion(%param_0.4818), kind=kLoop, calls=%fused_computation.101.clone.clone.clone.1, metadata={op_name="jit(train_step)/jvp()/while/body/closed_call/dot_general" stack_frame_id=0}
  %convolution.327 = bf16[128,128,256]{2,0,1:T(8,128)(2,1)} convolution(%fusion.1073, %fusion.1072), window={size=128 pad=127_127 rhs_reversal=1}, dim_labels=bf0_i0o->b0f, metadata={op_name="jit(train_step)/jvp()/while/body/closed_call/dot_general" stack_frame_id=0}
  ROOT %bitcast.2482 = bf16[1,128,128,256]{3,1,2,0:T(8,128)(2,1)S(1)} bitcast(%convolution.327), metadata={op_name="jit(train_step)/jvp()/while/body/closed_call/dot_general" stack_frame_id=0}
}

%fused_computation.132.clone.1 (param_0.4819: bf16[1,128,128,256]) -> (bf16[128,128,128], bf16[1,128,128,128]) {
  %param_0.4819 = bf16[1,128,128,256]{3,1,2,0:T(8,128)(2,1)S(1)} parameter(0)
  %slice.1450 = bf16[1,128,128,128]{3,1,2,0:T(8,128)(2,1)} slice(%param_0.4819), slice={[0:1], [0:128], [0:128], [128:256]}, metadata={op_name="jit(train_step)/jvp()/while/body/closed_call/split" stack_frame_id=0}
  %bitcast.2483 = bf16[128,128,128]{2,1,0:T(8,128)(2,1)S(1)} bitcast(%slice.1450), metadata={op_name="jit(train_step)/jvp()/while/body/closed_call/shard_map/vmap(static_sparsity_splash)/jit(_splash_attention)/splash_mha_fwd_segmented_residuals/splash_mha_fwd_segmented_residuals/squeeze" stack_frame_id=0}
  %slice.1451 = bf16[1,128,128,128]{3,1,2,0:T(8,128)(2,1)S(1)} slice(%param_0.4819), slice={[0:1], [0:128], [0:128], [0:128]}, metadata={op_name="jit(train_step)/jvp()/while/body/closed_call/split" stack_frame_id=0}
  ROOT %tuple.858 = (bf16[128,128,128]{2,1,0:T(8,128)(2,1)S(1)}, bf16[1,128,128,128]{3,1,2,0:T(8,128)(2,1)S(1)}) tuple(%bitcast.2483, %slice.1451)
}

%fused_computation.120.clone.1 (param_0.4823: bf16[1,128,128,64], param_1.5444: bf16[1,128,128,128]) -> bf16[128,128,192] {
  %param_1.5444 = bf16[1,128,128,128]{3,1,2,0:T(8,128)(2,1)S(1)} parameter(1)
  %constant.4126 = bf16[]{:T(256)} constant(-inf)
  %pad.466 = bf16[1,128,128,192]{3,1,2,0:T(8,128)(2,1)} pad(%param_1.5444, %constant.4126), padding=0_0x0_0x0_0x0_64, metadata={op_name="jit(train_step)/jvp()/while/body/closed_call/concatenate" stack_frame_id=0}
  %convert.974 = f32[1,128,128,192]{3,1,2,0:T(8,128)} convert(%pad.466)
  %param_0.4823 = bf16[1,128,128,64]{3,1,2,0:T(8,128)(2,1)S(1)} parameter(0)
  %pad.465 = bf16[1,128,128,192]{3,1,2,0:T(8,128)(2,1)} pad(%param_0.4823, %constant.4126), padding=0_0x0_0x0_0x128_0, metadata={op_name="jit(train_step)/jvp()/while/body/closed_call/concatenate" stack_frame_id=0}
  %convert.975 = f32[1,128,128,192]{3,1,2,0:T(8,128)} convert(%pad.465)
  %maximum.101 = f32[1,128,128,192]{3,1,2,0:T(8,128)} maximum(%convert.974, %convert.975), metadata={op_name="jit(train_step)/jvp()/while/body/closed_call/concatenate" stack_frame_id=0}, backend_config={"flag_configs":[],"scoped_memory_configs":[],"used_scoped_memory_configs":[],"float_type_correction_info":{"original_type":"BF16","original_shape":{"element_type":"BF16","dimensions":["1","128","128","192"],"tuple_shapes":[],"layout":{"minor_to_major":["3","1","2","0"],"tiles":[{"dimensions":["8","128"]},{"dimensions":["2","1"]}],"element_size_in_bits":"0","memory_space":"0","dim_level_types":[],"index_primitive_type":"PRIMITIVE_TYPE_INVALID","pointer_primitive_type":"PRIMITIVE_TYPE_INVALID","dim_unique":[],"dim_ordered":[],"dynamic_shape_metadata_prefix_bytes":"0","tail_padding_alignment_in_elements":"1","split_configs":[]},"is_dynamic_dimension":[false,false,false,false]}}}
  %convert.976 = bf16[1,128,128,192]{3,1,2,0:T(8,128)(2,1)} convert(%maximum.101)
  ROOT %bitcast.2489 = bf16[128,128,192]{2,1,0:T(8,128)(2,1)S(1)} bitcast(%convert.976), metadata={op_name="jit(train_step)/jvp()/while/body/closed_call/shard_map/vmap(static_sparsity_splash)/jit(_splash_attention)/splash_mha_fwd_segmented_residuals/splash_mha_fwd_segmented_residuals/squeeze" stack_frame_id=0}
}

%fused_computation.133.clone.clone.clone.clone.clone.clone.clone.1 (param_0.4838: bf16[128,128,128]) -> bf16[128,128,128] {
  %param_0.4838 = bf16[128,128,128]{2,1,0:T(8,128)(2,1)S(1)} parameter(0)
  ROOT %bitcast.2499 = bf16[128,128,128]{2,0,1:T(8,128)(2,1)} bitcast(%param_0.4838)
}

%fused_computation.109.clone.clone.clone.clone.clone.clone.clone.1 (param_0.4837: bf16[1,128,128,512]) -> bf16[128,128,512] {
  %param_0.4837 = bf16[1,128,128,512]{3,2,1,0:T(8,128)(2,1)S(1)} parameter(0)
  ROOT %bitcast.2498 = bf16[128,128,512]{2,1,0:T(8,128)(2,1)} bitcast(%param_0.4837), metadata={op_name="jit(train_step)/jvp()/while/body/closed_call/dot_general" stack_frame_id=0}
}

%region_4.6 (reduce_sum.21: f32[], reduce_sum.22: f32[]) -> f32[] {
  %reduce_sum.21 = f32[]{:T(128)} parameter(0), metadata={op_name="jit(train_step)/jvp()/while/body/closed_call/reduce_sum"}
  %reduce_sum.22 = f32[]{:T(128)} parameter(1), metadata={op_name="jit(train_step)/jvp()/while/body/closed_call/reduce_sum"}
  ROOT %reduce_sum.23 = f32[]{:T(128)} add(%reduce_sum.21, %reduce_sum.22), metadata={op_name="reduce_sum" stack_frame_id=0}, backend_config={"flag_configs":[],"scoped_memory_configs":[],"used_scoped_memory_configs":[],"aliasing_operands":{"lists":[]}}
}

%fused_computation.162.clone.1 (param_0.4839: bf16[1,128,512], param_1.5455: bf16[1,128,128,512], param_2.4312: bf16[128,128,128]) -> (f32[128], bf16[1,128,512]) {
  %param_0.4839 = bf16[1,128,512]{2,1,0:T(8,128)(2,1)S(1)} parameter(0)
  %convert.977 = f32[1,128,512]{2,1,0:T(8,128)} convert(%param_0.4839)
  %param_2.4312 = bf16[128,128,128]{2,1,0:T(8,128)(2,1)S(1)} parameter(2)
  %fusion.112.clone.3 = bf16[128,128,128]{2,0,1:T(8,128)(2,1)} fusion(%param_2.4312), kind=kLoop, calls=%fused_computation.133.clone.clone.clone.clone.clone.clone.clone.1
  %param_1.5455 = bf16[1,128,128,512]{3,2,1,0:T(8,128)(2,1)S(1)} parameter(1)
  %fusion.111.clone.3 = bf16[128,128,512]{2,1,0:T(8,128)(2,1)} fusion(%param_1.5455), kind=kLoop, calls=%fused_computation.109.clone.clone.clone.clone.clone.clone.clone.1, metadata={op_name="jit(train_step)/jvp()/while/body/closed_call/dot_general" stack_frame_id=0}
  %convolution.108.clone.3 = bf16[128,512,1]{1,0,2:T(8,128)(2,1)} convolution(%fusion.112.clone.3, %fusion.111.clone.3), window={size=128}, dim_labels=b0f_0io->bf0, metadata={op_name="jit(train_step)/jvp()/while/body/closed_call/dot_general" stack_frame_id=0}
  %bitcast.705.clone.3 = bf16[1,128,512]{2,1,0:T(8,128)(2,1)} bitcast(%convolution.108.clone.3), metadata={op_name="jit(train_step)/jvp()/while/body/closed_call/dot_general" stack_frame_id=0}
  %convert.978 = f32[1,128,512]{2,1,0:T(8,128)} convert(%bitcast.705.clone.3)
  %add.3085.clone.3 = f32[1,128,512]{2,1,0:T(8,128)} add(%convert.977, %convert.978), metadata={op_name="jit(train_step)/jvp()/while/body/closed_call/add" stack_frame_id=0}, backend_config={"flag_configs":[],"scoped_memory_configs":[],"used_scoped_memory_configs":[],"float_type_correction_info":{"original_type":"BF16","original_shape":{"element_type":"BF16","dimensions":["1","128","512"],"tuple_shapes":[],"layout":{"minor_to_major":["2","1","0"],"tiles":[{"dimensions":["8","128"]},{"dimensions":["2","1"]}],"element_size_in_bits":"0","memory_space":"0","dim_level_types":[],"index_primitive_type":"PRIMITIVE_TYPE_INVALID","pointer_primitive_type":"PRIMITIVE_TYPE_INVALID","dim_unique":[],"dim_ordered":[],"dynamic_shape_metadata_prefix_bytes":"0","tail_padding_alignment_in_elements":"1","split_configs":[]},"is_dynamic_dimension":[false,false,false]}}}
  %convert_element_type.3083 = f32[1,128,512]{2,1,0:T(8,128)} convert(%add.3085.clone.3), metadata={op_name="jit(train_step)/jvp()/while/body/closed_call/convert_element_type" stack_frame_id=0}
  %square.704 = f32[1,128,512]{2,1,0:T(8,128)} multiply(%convert_element_type.3083, %convert_element_type.3083), metadata={op_name="jit(train_step)/jvp()/while/body/closed_call/square" stack_frame_id=0}
  %constant.1441.clone.24 = f32[]{:T(128)} constant(0)
  %reduce.826 = f32[128]{0:T(128)S(1)} reduce(%square.704, %constant.1441.clone.24), dimensions={0,2}, to_apply=%region_4.6, metadata={op_name="jit(train_step)/jvp()/while/body/closed_call/reduce_sum" stack_frame_id=0}
  %convert.979 = bf16[1,128,512]{2,1,0:T(8,128)(2,1)S(1)} convert(%add.3085.clone.3)
  ROOT %tuple.864 = (f32[128]{0:T(128)S(1)}, bf16[1,128,512]{2,1,0:T(8,128)(2,1)S(1)}) tuple(%reduce.826, %convert.979)
}

%fused_computation.115.clone.1 (param_0.4846: bf16[3,18432,128], param_1.5460: s32[]) -> bf16[1,18432,128] {
  %param_0.4846 = bf16[3,18432,128]{2,1,0:T(8,128)(2,1)} parameter(0)
  %param_1.5460 = s32[]{:T(128)S(6)} parameter(1)
  %constant.1444.clone.53 = s32[]{:T(128)} constant(0)
  ROOT %dynamic-slice.433 = bf16[1,18432,128]{2,1,0:T(8,128)(2,1)S(1)} dynamic-slice(%param_0.4846, %param_1.5460, %constant.1444.clone.53, %constant.1444.clone.53), dynamic_slice_sizes={1,18432,128}, metadata={op_name="jit(train_step)/jvp()/while/body/jit(dynamic_index_in_dim)/dynamic_slice" stack_frame_id=0}, backend_config={"flag_configs":[],"scoped_memory_configs":[],"indices_config":{"index_known_bits":[{"zeroes":"4294967292","ones":"0","bitwidth":"32"},{"zeroes":"4294967295","ones":"0","bitwidth":"32"},{"zeroes":"4294967295","ones":"0","bitwidth":"32"}],"is_index_aligned":[]},"used_scoped_memory_configs":[]}
}

%fused_computation.116.clone.1 (param_0.4845: bf16[3,128,18432], param_1.5459: s32[]) -> bf16[1,128,18432] {
  %param_0.4845 = bf16[3,128,18432]{2,1,0:T(8,128)(2,1)} parameter(0)
  %param_1.5459 = s32[]{:T(128)S(6)} parameter(1)
  %constant.1444.clone.52 = s32[]{:T(128)} constant(0)
  ROOT %dynamic-slice.432 = bf16[1,128,18432]{2,1,0:T(8,128)(2,1)S(1)} dynamic-slice(%param_0.4845, %param_1.5459, %constant.1444.clone.52, %constant.1444.clone.52), dynamic_slice_sizes={1,128,18432}, metadata={op_name="jit(train_step)/jvp()/while/body/jit(dynamic_index_in_dim)/dynamic_slice" stack_frame_id=0}, backend_config={"flag_configs":[],"scoped_memory_configs":[],"indices_config":{"index_known_bits":[{"zeroes":"4294967292","ones":"0","bitwidth":"32"},{"zeroes":"4294967295","ones":"0","bitwidth":"32"},{"zeroes":"4294967295","ones":"0","bitwidth":"32"}],"is_index_aligned":[]},"used_scoped_memory_configs":[]}
}

%fused_computation.117.clone.1 (param_0.4841: bf16[3,128,18432], param_1.5456: s32[]) -> bf16[1,128,18432] {
  %param_0.4841 = bf16[3,128,18432]{2,1,0:T(8,128)(2,1)} parameter(0)
  %param_1.5456 = s32[]{:T(128)S(6)} parameter(1)
  %constant.1444.clone.51 = s32[]{:T(128)} constant(0)
  ROOT %dynamic-slice.431 = bf16[1,128,18432]{2,1,0:T(8,128)(2,1)S(1)} dynamic-slice(%param_0.4841, %param_1.5456, %constant.1444.clone.51, %constant.1444.clone.51), dynamic_slice_sizes={1,128,18432}, metadata={op_name="jit(train_step)/jvp()/while/body/jit(dynamic_index_in_dim)/dynamic_slice" stack_frame_id=0}, backend_config={"flag_configs":[],"scoped_memory_configs":[],"indices_config":{"index_known_bits":[{"zeroes":"4294967292","ones":"0","bitwidth":"32"},{"zeroes":"4294967295","ones":"0","bitwidth":"32"},{"zeroes":"4294967295","ones":"0","bitwidth":"32"}],"is_index_aligned":[]},"used_scoped_memory_configs":[]}
}

%fused_computation.202.clone.1 (param_0.4840: f32[128]) -> f32[128] {
  %param_0.4840 = f32[128]{0:T(128)S(1)} parameter(0)
  %constant.1442.clone.13 = f32[]{:T(128)} constant(0.001953125)
  %broadcast.4557 = f32[128]{0:T(128)} broadcast(%constant.1442.clone.13), dimensions={}, metadata={op_name="jit(train_step)/jvp()/while/body/closed_call" stack_frame_id=0}
  %div.2853 = f32[128]{0:T(128)} multiply(%param_0.4840, %broadcast.4557), metadata={op_name="jit(train_step)/jvp()/while/body/closed_call/div" stack_frame_id=0}
  %constant.1443.clone.16 = f32[]{:T(128)} constant(1e-06)
  %broadcast.4556 = f32[128]{0:T(128)} broadcast(%constant.1443.clone.16), dimensions={}, metadata={op_name="jit(train_step)/jvp()/while/body/closed_call" stack_frame_id=0}
  %add.3921 = f32[128]{0:T(128)} add(%div.2853, %broadcast.4556), metadata={op_name="jit(train_step)/jvp()/while/body/closed_call/add" stack_frame_id=0}
  ROOT %rsqrt.369 = f32[128]{0:T(128)S(1)} rsqrt(%add.3921), metadata={op_name="jit(train_step)/jvp()/while/body/closed_call/rsqrt" stack_frame_id=0}
}

%convert_element_type.2222.reduce_sub_computation (lhs.17: bf16[], rhs.17: bf16[]) -> bf16[] {
  %lhs.17 = bf16[] parameter(0)
  %rhs.17 = bf16[] parameter(1)
  ROOT %add.2999 = bf16[] add(%lhs.17, %rhs.17), backend_config={"flag_configs":[],"scoped_memory_configs":[],"used_scoped_memory_configs":[],"aliasing_operands":{"lists":[]}}
}

%fused_computation.201.clone.1 (param_0.4805: bf16[3,512], param_1.5434: s32[]) -> bf16[512] {
  %param_0.4805 = bf16[3,512]{1,0:T(4,128)(2,1)S(1)} parameter(0)
  %param_1.5434 = s32[]{:T(128)S(6)} parameter(1)
  %constant.1444.clone.43 = s32[]{:T(128)} constant(0)
  %dynamic_slice.658 = bf16[1,512]{1,0:T(2,128)(2,1)} dynamic-slice(%param_0.4805, %param_1.5434, %constant.1444.clone.43), dynamic_slice_sizes={1,512}, metadata={op_name="jit(train_step)/jvp()/while/body/jit(dynamic_index_in_dim)/dynamic_slice" stack_frame_id=0}, backend_config={"flag_configs":[],"scoped_memory_configs":[],"indices_config":{"index_known_bits":[{"zeroes":"4294967292","ones":"0","bitwidth":"32"},{"zeroes":"4294967295","ones":"0","bitwidth":"32"}],"is_index_aligned":[]},"used_scoped_memory_configs":[]}
  %constant.4123 = bf16[]{:T(256)} constant(-0), metadata={op_name="jit(train_step)/jvp()/while/body/closed_call/convert_element_type" stack_frame_id=0}
  ROOT %reduce.820 = bf16[512]{0:T(512)(128)(2,1)S(1)} reduce(%dynamic_slice.658, %constant.4123), dimensions={0}, to_apply=%convert_element_type.2222.reduce_sub_computation, metadata={op_name="jit(train_step)/jvp()/while/body/closed_call/convert_element_type" stack_frame_id=0}
}

%fused_computation.166.clone.1.clone.1 (param_0.4843: bf16[1,128,512], param_1.5457: f32[128], param_2.4313: bf16[512]) -> bf16[128,512] {
  %param_0.4843 = bf16[1,128,512]{2,1,0:T(8,128)(2,1)S(1)} parameter(0)
  %convert_element_type.3085 = f32[1,128,512]{2,1,0:T(8,128)} convert(%param_0.4843), metadata={op_name="jit(train_step)/jvp()/while/body/closed_call/convert_element_type" stack_frame_id=0}
  %param_1.5457 = f32[128]{0:T(128)S(1)} parameter(1)
  %mul.6048 = f32[1,128,512]{2,1,0:T(8,128)} broadcast(%param_1.5457), dimensions={1}, metadata={op_name="jit(train_step)/jvp()/while/body/closed_call/mul" stack_frame_id=0}
  %mul.6047 = f32[1,128,512]{2,1,0:T(8,128)} multiply(%convert_element_type.3085, %mul.6048), metadata={op_name="jit(train_step)/jvp()/while/body/closed_call/mul" stack_frame_id=0}
  %convert_element_type.3084 = bf16[1,128,512]{2,1,0:T(8,128)(2,1)} convert(%mul.6047), metadata={op_name="jit(train_step)/jvp()/while/body/closed_call/convert_element_type" stack_frame_id=0}
  %convert.956 = f32[1,128,512]{2,1,0:T(8,128)} convert(%convert_element_type.3084)
  %param_2.4313 = bf16[512]{0:T(512)(128)(2,1)S(1)} parameter(2)
  %mul.6049 = bf16[1,128,512]{2,1,0:T(8,128)(2,1)} broadcast(%param_2.4313), dimensions={2}, metadata={op_name="jit(train_step)/jvp()/while/body/closed_call/mul" stack_frame_id=0}
  %convert.957 = f32[1,128,512]{2,1,0:T(8,128)} convert(%mul.6049)
  %mul.6046 = f32[1,128,512]{2,1,0:T(8,128)} multiply(%convert.956, %convert.957), metadata={op_name="jit(train_step)/jvp()/while/body/closed_call/mul" stack_frame_id=0}, backend_config={"flag_configs":[],"scoped_memory_configs":[],"used_scoped_memory_configs":[],"float_type_correction_info":{"original_type":"BF16","original_shape":{"element_type":"BF16","dimensions":["1","128","512"],"tuple_shapes":[],"layout":{"minor_to_major":["2","1","0"],"tiles":[{"dimensions":["8","128"]},{"dimensions":["2","1"]}],"element_size_in_bits":"0","memory_space":"0","dim_level_types":[],"index_primitive_type":"PRIMITIVE_TYPE_INVALID","pointer_primitive_type":"PRIMITIVE_TYPE_INVALID","dim_unique":[],"dim_ordered":[],"dynamic_shape_metadata_prefix_bytes":"0","tail_padding_alignment_in_elements":"1","split_configs":[]},"is_dynamic_dimension":[false,false,false]}}}
  %convert.958 = bf16[1,128,512]{2,1,0:T(8,128)(2,1)} convert(%mul.6046)
  ROOT %bitcast.2501 = bf16[128,512]{1,0:T(8,128)(2,1)} bitcast(%convert.958)
}

%fused_computation.107.clone.clone.clone.1 (param_0.4842: bf16[1,512,18432]) -> bf16[512,18432] {
  %param_0.4842 = bf16[1,512,18432]{2,1,0:T(8,128)(2,1)S(1)} parameter(0)
  ROOT %bitcast.2500 = bf16[512,18432]{1,0:T(8,128)(2,1)} bitcast(%param_0.4842), metadata={op_name="jit(train_step)/jvp()/while/body/closed_call/dot_general" stack_frame_id=0}
}

%fused_computation.111.clone.1 (param_0.4844: bf16[1,512,18432], param_1.5458: bf16[1,128,512], param_2.4314: f32[128], param_3.2915: bf16[512]) -> bf16[1,128,18432] {
  %param_1.5458 = bf16[1,128,512]{2,1,0:T(8,128)(2,1)S(1)} parameter(1)
  %param_2.4314 = f32[128]{0:T(128)S(1)} parameter(2)
  %param_3.2915 = bf16[512]{0:T(512)(128)(2,1)S(1)} parameter(3)
  %fusion.1077 = bf16[128,512]{1,0:T(8,128)(2,1)} fusion(%param_1.5458, %param_2.4314, %param_3.2915), kind=kLoop, calls=%fused_computation.166.clone.1.clone.1
  %param_0.4844 = bf16[1,512,18432]{2,1,0:T(8,128)(2,1)S(1)} parameter(0)
  %fusion.1076 = bf16[512,18432]{1,0:T(8,128)(2,1)} fusion(%param_0.4844), kind=kLoop, calls=%fused_computation.107.clone.clone.clone.1, metadata={op_name="jit(train_step)/jvp()/while/body/closed_call/dot_general" stack_frame_id=0}
  %convolution.329 = bf16[128,18432]{1,0:T(8,128)(2,1)} convolution(%fusion.1077, %fusion.1076), dim_labels=bf_io->bf, metadata={op_name="jit(train_step)/jvp()/while/body/closed_call/dot_general" stack_frame_id=0}
  ROOT %bitcast.2502 = bf16[1,128,18432]{2,1,0:T(8,128)(2,1)S(1)} bitcast(%convolution.329), metadata={op_name="jit(train_step)/jvp()/while/body/closed_call/dot_general" stack_frame_id=0}
}

%fused_computation.166.clone.clone.clone.1 (param_0.4849: bf16[1,128,512], param_1.5461: f32[128], param_2.4315: bf16[512]) -> bf16[128,512] {
  %param_0.4849 = bf16[1,128,512]{2,1,0:T(8,128)(2,1)S(1)} parameter(0)
  %convert_element_type.3087 = f32[1,128,512]{2,1,0:T(8,128)} convert(%param_0.4849), metadata={op_name="jit(train_step)/jvp()/while/body/closed_call/convert_element_type" stack_frame_id=0}
  %param_1.5461 = f32[128]{0:T(128)S(1)} parameter(1)
  %mul.6052 = f32[1,128,512]{2,1,0:T(8,128)} broadcast(%param_1.5461), dimensions={1}, metadata={op_name="jit(train_step)/jvp()/while/body/closed_call/mul" stack_frame_id=0}
  %mul.6051 = f32[1,128,512]{2,1,0:T(8,128)} multiply(%convert_element_type.3087, %mul.6052), metadata={op_name="jit(train_step)/jvp()/while/body/closed_call/mul" stack_frame_id=0}
  %convert_element_type.3086 = bf16[1,128,512]{2,1,0:T(8,128)(2,1)} convert(%mul.6051), metadata={op_name="jit(train_step)/jvp()/while/body/closed_call/convert_element_type" stack_frame_id=0}
  %convert.959 = f32[1,128,512]{2,1,0:T(8,128)} convert(%convert_element_type.3086)
  %param_2.4315 = bf16[512]{0:T(512)(128)(2,1)S(1)} parameter(2)
  %mul.6053 = bf16[1,128,512]{2,1,0:T(8,128)(2,1)} broadcast(%param_2.4315), dimensions={2}, metadata={op_name="jit(train_step)/jvp()/while/body/closed_call/mul" stack_frame_id=0}
  %convert.960 = f32[1,128,512]{2,1,0:T(8,128)} convert(%mul.6053)
  %mul.6050 = f32[1,128,512]{2,1,0:T(8,128)} multiply(%convert.959, %convert.960), metadata={op_name="jit(train_step)/jvp()/while/body/closed_call/mul" stack_frame_id=0}, backend_config={"flag_configs":[],"scoped_memory_configs":[],"used_scoped_memory_configs":[],"float_type_correction_info":{"original_type":"BF16","original_shape":{"element_type":"BF16","dimensions":["1","128","512"],"tuple_shapes":[],"layout":{"minor_to_major":["2","1","0"],"tiles":[{"dimensions":["8","128"]},{"dimensions":["2","1"]}],"element_size_in_bits":"0","memory_space":"0","dim_level_types":[],"index_primitive_type":"PRIMITIVE_TYPE_INVALID","pointer_primitive_type":"PRIMITIVE_TYPE_INVALID","dim_unique":[],"dim_ordered":[],"dynamic_shape_metadata_prefix_bytes":"0","tail_padding_alignment_in_elements":"1","split_configs":[]},"is_dynamic_dimension":[false,false,false]}}}
  %convert.961 = bf16[1,128,512]{2,1,0:T(8,128)(2,1)} convert(%mul.6050)
  ROOT %bitcast.2505 = bf16[128,512]{1,0:T(8,128)(2,1)} bitcast(%convert.961)
}

%fused_computation.105.clone.clone.clone.clone.clone.clone.clone.clone.clone.clone.clone.clone.clone.1 (param_0.4848: bf16[1,512,18432]) -> bf16[512,18432] {
  %param_0.4848 = bf16[1,512,18432]{2,1,0:T(8,128)(2,1)S(1)} parameter(0)
  ROOT %bitcast.2504 = bf16[512,18432]{1,0:T(8,128)(2,1)} bitcast(%param_0.4848), metadata={op_name="jit(train_step)/jvp()/while/body/closed_call/dot_general" stack_frame_id=0}
}

%fused_computation.114.clone.clone.clone.clone.clone.clone.clone.1 (param_0.4850: bf16[1,512,18432], param_1.5462: bf16[1,128,18432], param_2.4316: bf16[1,128,512], param_3.2916: f32[128], param_4.2164: bf16[512]) -> bf16[128,18432] {
  %param_1.5462 = bf16[1,128,18432]{2,1,0:T(8,128)(2,1)S(1)} parameter(1)
  %convert.962 = f32[1,128,18432]{2,1,0:T(8,128)} convert(%param_1.5462)
  %constant.1447.clone.10 = bf16[]{:T(256)} constant(1)
  %jit_silu_.98 = bf16[1,128,18432]{2,1,0:T(8,128)(2,1)} broadcast(%constant.1447.clone.10), dimensions={}, metadata={op_name="jit(train_step)/jvp()/while/body/closed_call/jit(silu)" stack_frame_id=0}
  %convert.963 = f32[1,128,18432]{2,1,0:T(8,128)} convert(%jit_silu_.98)
  %neg.274 = f32[1,128,18432]{2,1,0:T(8,128)} negate(%convert.962), metadata={op_name="jit(train_step)/jvp()/while/body/closed_call/jit(silu)/neg" stack_frame_id=0}, backend_config={"flag_configs":[],"scoped_memory_configs":[],"used_scoped_memory_configs":[],"float_type_correction_info":{"original_type":"BF16","original_shape":{"element_type":"BF16","dimensions":["1","128","18432"],"tuple_shapes":[],"layout":{"minor_to_major":["2","1","0"],"tiles":[{"dimensions":["8","128"]},{"dimensions":["2","1"]}],"element_size_in_bits":"0","memory_space":"0","dim_level_types":[],"index_primitive_type":"PRIMITIVE_TYPE_INVALID","pointer_primitive_type":"PRIMITIVE_TYPE_INVALID","dim_unique":[],"dim_ordered":[],"dynamic_shape_metadata_prefix_bytes":"0","tail_padding_alignment_in_elements":"1","split_configs":[]},"is_dynamic_dimension":[false,false,false]}}}
  %exp.567 = f32[1,128,18432]{2,1,0:T(8,128)} exponential(%neg.274), metadata={op_name="jit(train_step)/jvp()/while/body/closed_call/jit(silu)/exp" stack_frame_id=0}, backend_config={"flag_configs":[],"scoped_memory_configs":[],"used_scoped_memory_configs":[],"float_type_correction_info":{"original_type":"BF16","original_shape":{"element_type":"BF16","dimensions":["1","128","18432"],"tuple_shapes":[],"layout":{"minor_to_major":["2","1","0"],"tiles":[{"dimensions":["8","128"]},{"dimensions":["2","1"]}],"element_size_in_bits":"0","memory_space":"0","dim_level_types":[],"index_primitive_type":"PRIMITIVE_TYPE_INVALID","pointer_primitive_type":"PRIMITIVE_TYPE_INVALID","dim_unique":[],"dim_ordered":[],"dynamic_shape_metadata_prefix_bytes":"0","tail_padding_alignment_in_elements":"1","split_configs":[]},"is_dynamic_dimension":[false,false,false]}}}
  %add.3922 = f32[1,128,18432]{2,1,0:T(8,128)} add(%exp.567, %convert.963), metadata={op_name="jit(train_step)/jvp()/while/body/closed_call/jit(silu)/add" stack_frame_id=0}, backend_config={"flag_configs":[],"scoped_memory_configs":[],"used_scoped_memory_configs":[],"float_type_correction_info":{"original_type":"BF16","original_shape":{"element_type":"BF16","dimensions":["1","128","18432"],"tuple_shapes":[],"layout":{"minor_to_major":["2","1","0"],"tiles":[{"dimensions":["8","128"]},{"dimensions":["2","1"]}],"element_size_in_bits":"0","memory_space":"0","dim_level_types":[],"index_primitive_type":"PRIMITIVE_TYPE_INVALID","pointer_primitive_type":"PRIMITIVE_TYPE_INVALID","dim_unique":[],"dim_ordered":[],"dynamic_shape_metadata_prefix_bytes":"0","tail_padding_alignment_in_elements":"1","split_configs":[]},"is_dynamic_dimension":[false,false,false]}}}
  %div.2854 = f32[1,128,18432]{2,1,0:T(8,128)} divide(%convert.963, %add.3922), metadata={op_name="jit(train_step)/jvp()/while/body/closed_call/jit(silu)/div" stack_frame_id=0}, backend_config={"flag_configs":[],"scoped_memory_configs":[],"used_scoped_memory_configs":[],"float_type_correction_info":{"original_type":"BF16","original_shape":{"element_type":"BF16","dimensions":["1","128","18432"],"tuple_shapes":[],"layout":{"minor_to_major":["2","1","0"],"tiles":[{"dimensions":["8","128"]},{"dimensions":["2","1"]}],"element_size_in_bits":"0","memory_space":"0","dim_level_types":[],"index_primitive_type":"PRIMITIVE_TYPE_INVALID","pointer_primitive_type":"PRIMITIVE_TYPE_INVALID","dim_unique":[],"dim_ordered":[],"dynamic_shape_metadata_prefix_bytes":"0","tail_padding_alignment_in_elements":"1","split_configs":[]},"is_dynamic_dimension":[false,false,false]}}}
  %mul.6055 = f32[1,128,18432]{2,1,0:T(8,128)} multiply(%convert.962, %div.2854), metadata={op_name="jit(train_step)/jvp()/while/body/closed_call/jit(silu)/mul" stack_frame_id=0}, backend_config={"flag_configs":[],"scoped_memory_configs":[],"used_scoped_memory_configs":[],"float_type_correction_info":{"original_type":"BF16","original_shape":{"element_type":"BF16","dimensions":["1","128","18432"],"tuple_shapes":[],"layout":{"minor_to_major":["2","1","0"],"tiles":[{"dimensions":["8","128"]},{"dimensions":["2","1"]}],"element_size_in_bits":"0","memory_space":"0","dim_level_types":[],"index_primitive_type":"PRIMITIVE_TYPE_INVALID","pointer_primitive_type":"PRIMITIVE_TYPE_INVALID","dim_unique":[],"dim_ordered":[],"dynamic_shape_metadata_prefix_bytes":"0","tail_padding_alignment_in_elements":"1","split_configs":[]},"is_dynamic_dimension":[false,false,false]}}}
  %param_2.4316 = bf16[1,128,512]{2,1,0:T(8,128)(2,1)S(1)} parameter(2)
  %param_3.2916 = f32[128]{0:T(128)S(1)} parameter(3)
  %param_4.2164 = bf16[512]{0:T(512)(128)(2,1)S(1)} parameter(4)
  %fusion.1079 = bf16[128,512]{1,0:T(8,128)(2,1)} fusion(%param_2.4316, %param_3.2916, %param_4.2164), kind=kLoop, calls=%fused_computation.166.clone.clone.clone.1
  %param_0.4850 = bf16[1,512,18432]{2,1,0:T(8,128)(2,1)S(1)} parameter(0)
  %fusion.1078 = bf16[512,18432]{1,0:T(8,128)(2,1)} fusion(%param_0.4850), kind=kLoop, calls=%fused_computation.105.clone.clone.clone.clone.clone.clone.clone.clone.clone.clone.clone.clone.clone.1, metadata={op_name="jit(train_step)/jvp()/while/body/closed_call/dot_general" stack_frame_id=0}
  %convolution.330 = bf16[128,18432]{1,0:T(8,128)(2,1)} convolution(%fusion.1079, %fusion.1078), dim_labels=bf_io->bf, metadata={op_name="jit(train_step)/jvp()/while/body/closed_call/dot_general" stack_frame_id=0}
  %bitcast.2507 = bf16[1,128,18432]{2,1,0:T(8,128)(2,1)} bitcast(%convolution.330), metadata={op_name="jit(train_step)/jvp()/while/body/closed_call/dot_general" stack_frame_id=0}
  %convert.964 = f32[1,128,18432]{2,1,0:T(8,128)} convert(%bitcast.2507)
  %mul.6054 = f32[1,128,18432]{2,1,0:T(8,128)} multiply(%mul.6055, %convert.964), metadata={op_name="jit(train_step)/jvp()/while/body/closed_call/mul" stack_frame_id=0}, backend_config={"flag_configs":[],"scoped_memory_configs":[],"used_scoped_memory_configs":[],"float_type_correction_info":{"original_type":"BF16","original_shape":{"element_type":"BF16","dimensions":["1","128","18432"],"tuple_shapes":[],"layout":{"minor_to_major":["2","1","0"],"tiles":[{"dimensions":["8","128"]},{"dimensions":["2","1"]}],"element_size_in_bits":"0","memory_space":"0","dim_level_types":[],"index_primitive_type":"PRIMITIVE_TYPE_INVALID","pointer_primitive_type":"PRIMITIVE_TYPE_INVALID","dim_unique":[],"dim_ordered":[],"dynamic_shape_metadata_prefix_bytes":"0","tail_padding_alignment_in_elements":"1","split_configs":[]},"is_dynamic_dimension":[false,false,false]}}}
  %convert.965 = bf16[1,128,18432]{2,1,0:T(8,128)(2,1)} convert(%mul.6054)
  ROOT %bitcast.2506 = bf16[128,18432]{1,0:T(8,128)(2,1)} bitcast(%convert.965)
}

%fused_computation.103.clone.clone.clone.clone.clone.1 (param_0.4847: bf16[1,18432,512]) -> bf16[18432,512] {
  %param_0.4847 = bf16[1,18432,512]{2,1,0:T(8,128)(2,1)S(1)} parameter(0)
  ROOT %bitcast.2503 = bf16[18432,512]{1,0:T(8,128)(2,1)} bitcast(%param_0.4847), metadata={op_name="jit(train_step)/jvp()/while/body/closed_call/dot_general" stack_frame_id=0}
}

%fused_computation.146.clone.1 (param_0.4851: bf16[1,128,512], param_1.5463: bf16[1,18432,512], param_2.4317: bf16[1,512,18432], param_3.2917: bf16[1,128,18432], param_4.2165: f32[128], param_5.1931: bf16[512]) -> bf16[1,128,512] {
  %param_2.4317 = bf16[1,512,18432]{2,1,0:T(8,128)(2,1)S(1)} parameter(2)
  %param_3.2917 = bf16[1,128,18432]{2,1,0:T(8,128)(2,1)S(1)} parameter(3)
  %param_0.4851 = bf16[1,128,512]{2,1,0:T(8,128)(2,1)S(1)} parameter(0)
  %param_4.2165 = f32[128]{0:T(128)S(1)} parameter(4)
  %param_5.1931 = bf16[512]{0:T(512)(128)(2,1)S(1)} parameter(5)
  %fusion.65.clone.7 = bf16[128,18432]{1,0:T(8,128)(2,1)} fusion(%param_2.4317, %param_3.2917, %param_0.4851, %param_4.2165, %param_5.1931), kind=kOutput, calls=%fused_computation.114.clone.clone.clone.clone.clone.clone.clone.1, metadata={op_name="jit(train_step)/jvp()/while/body/closed_call/dot_general" stack_frame_id=0}
  %param_1.5463 = bf16[1,18432,512]{2,1,0:T(8,128)(2,1)S(1)} parameter(1)
  %fusion.1080 = bf16[18432,512]{1,0:T(8,128)(2,1)} fusion(%param_1.5463), kind=kLoop, calls=%fused_computation.103.clone.clone.clone.clone.clone.1, metadata={op_name="jit(train_step)/jvp()/while/body/closed_call/dot_general" stack_frame_id=0}
  %convolution.331 = bf16[128,512]{1,0:T(8,128)(2,1)} convolution(%fusion.65.clone.7, %fusion.1080), dim_labels=bf_io->bf, metadata={op_name="jit(train_step)/jvp()/while/body/closed_call/dot_general" stack_frame_id=0}
  %bitcast.2508 = bf16[1,128,512]{2,1,0:T(8,128)(2,1)} bitcast(%convolution.331), metadata={op_name="jit(train_step)/jvp()/while/body/closed_call/dot_general" stack_frame_id=0}
  %convert.980 = f32[1,128,512]{2,1,0:T(8,128)} convert(%bitcast.2508)
  %convert.981 = f32[1,128,512]{2,1,0:T(8,128)} convert(%param_0.4851)
  %add.3923 = f32[1,128,512]{2,1,0:T(8,128)} add(%convert.980, %convert.981), metadata={op_name="jit(train_step)/jvp()/while/body/closed_call/add" stack_frame_id=0}, backend_config={"flag_configs":[],"scoped_memory_configs":[],"used_scoped_memory_configs":[],"float_type_correction_info":{"original_type":"BF16","original_shape":{"element_type":"BF16","dimensions":["1","128","512"],"tuple_shapes":[],"layout":{"minor_to_major":["2","1","0"],"tiles":[{"dimensions":["8","128"]},{"dimensions":["2","1"]}],"element_size_in_bits":"0","memory_space":"0","dim_level_types":[],"index_primitive_type":"PRIMITIVE_TYPE_INVALID","pointer_primitive_type":"PRIMITIVE_TYPE_INVALID","dim_unique":[],"dim_ordered":[],"dynamic_shape_metadata_prefix_bytes":"0","tail_padding_alignment_in_elements":"1","split_configs":[]},"is_dynamic_dimension":[false,false,false]}}}
  ROOT %convert.982 = bf16[1,128,512]{2,1,0:T(8,128)(2,1)S(1)} convert(%add.3923)
}

%async_computation.48 (param_0.4918: s8[16777216]) -> s8[4194304] {
  %param_0.4918 = s8[16777216]{0:T(1024)(128)(4,1)} parameter(0)
  ROOT %slice.1502 = s8[4194304]{0:T(1024)(128)(4,1)S(1)} slice(%param_0.4918), slice={[0:4194304]}, backend_config={"flag_configs":[],"scoped_memory_configs":[],"used_scoped_memory_configs":[],"aliasing_operands":{"lists":[]}}
}

%async_computation.49 (param_0.4919: s8[16777216]) -> s8[4194304] {
  %param_0.4919 = s8[16777216]{0:T(1024)(128)(4,1)} parameter(0)
  ROOT %slice.1504 = s8[4194304]{0:T(1024)(128)(4,1)S(1)} slice(%param_0.4919), slice={[4194304:8388608]}, backend_config={"flag_configs":[],"scoped_memory_configs":[],"used_scoped_memory_configs":[],"aliasing_operands":{"lists":[]}}
}

%async_computation.50 (param_0.4920: s8[16777216]) -> s8[4194304] {
  %param_0.4920 = s8[16777216]{0:T(1024)(128)(4,1)} parameter(0)
  ROOT %slice.1506 = s8[4194304]{0:T(1024)(128)(4,1)S(1)} slice(%param_0.4920), slice={[8388608:12582912]}, backend_config={"flag_configs":[],"scoped_memory_configs":[],"used_scoped_memory_configs":[],"aliasing_operands":{"lists":[]}}
}

%async_computation.51 (param_0.4921: s8[16777216]) -> s8[4194304] {
  %param_0.4921 = s8[16777216]{0:T(1024)(128)(4,1)} parameter(0)
  ROOT %slice.1508 = s8[4194304]{0:T(1024)(128)(4,1)S(1)} slice(%param_0.4921), slice={[12582912:16777216]}, backend_config={"flag_configs":[],"scoped_memory_configs":[],"used_scoped_memory_configs":[],"aliasing_operands":{"lists":[]}}
}

%wide.region_0.7_spmd.sunk.clone.clone.clone.sunk (wide.param.5: (s32[], bf16[1,128,512], u32[3], u32[3,4], u32[3], /*index=5*/u32[3,4], u32[3], u32[3,4], u32[3], u32[3,4], /*index=10*/u32[3], u32[3,4], u32[3], u32[3,4], u32[3], /*index=15*/u32[3,4], u32[3], u32[3,4], u32[3], u32[3,4], /*index=20*/bf16[3,1,128,512], bf16[3,512], bf16[3,128,1536], bf16[3,1536], bf16[3,384,128,192], /*index=25*/bf16[3,128,576], bf16[3,512], bf16[3,128,128,256], f32[1,128,1,32], f32[1,128,1,32], /*index=30*/bf16[3,128,128,128], bf16[3,512], bf16[3,128,18432], bf16[3,128,18432], bf16[3,18432,128], /*index=35*/u32[3], u32[3,4], u32[3], u32[3,4], u32[3], /*index=40*/u32[3,4], u32[3], u32[3,4], u32[3], u32[3,4], /*index=45*/u32[3], u32[3,4], u32[3], u32[3,4], u32[3], /*index=50*/u32[3,4], u32[3], u32[3,4], f32[128,32], f32[128,32], /*index=55*/s32[128], s32[], s8[1,1,1], s8[1,1,1])) -> (s32[], bf16[1,128,512], u32[3], u32[3,4], u32[3], /*index=5*/u32[3,4], u32[3], u32[3,4], u32[3], u32[3,4], /*index=10*/u32[3], u32[3,4], u32[3], u32[3,4], u32[3], /*index=15*/u32[3,4], u32[3], u32[3,4], u32[3], u32[3,4], /*index=20*/bf16[3,1,128,512], bf16[3,512], bf16[3,128,1536], bf16[3,1536], bf16[3,384,128,192], /*index=25*/bf16[3,128,576], bf16[3,512], bf16[3,128,128,256], f32[1,128,1,32], f32[1,128,1,32], /*index=30*/bf16[3,128,128,128], bf16[3,512], bf16[3,128,18432], bf16[3,128,18432], bf16[3,18432,128], /*index=35*/u32[3], u32[3,4], u32[3], u32[3,4], u32[3], /*index=40*/u32[3,4], u32[3], u32[3,4], u32[3], u32[3,4], /*index=45*/u32[3], u32[3,4], u32[3], u32[3,4], u32[3], /*index=50*/u32[3,4], u32[3], u32[3,4], f32[128,32], f32[128,32], /*index=55*/s32[128], s32[], s8[1,1,1], s8[1,1,1]) {
  %constant.1701.clone..sunk.7 = s32[]{:T(128)} constant(1)
  %wide.param.5 = (s32[]{:T(128)}, bf16[1,128,512]{2,1,0:T(8,128)(2,1)S(1)}, u32[3]{0:T(128)}, u32[3,4]{1,0:T(4,128)}, u32[3]{0:T(128)}, /*index=5*/u32[3,4]{1,0:T(4,128)}, u32[3]{0:T(128)}, u32[3,4]{1,0:T(4,128)}, u32[3]{0:T(128)}, u32[3,4]{1,0:T(4,128)}, /*index=10*/u32[3]{0:T(128)}, u32[3,4]{1,0:T(4,128)}, u32[3]{0:T(128)}, u32[3,4]{1,0:T(4,128)}, u32[3]{0:T(128)}, /*index=15*/u32[3,4]{1,0:T(4,128)}, u32[3]{0:T(128)}, u32[3,4]{1,0:T(4,128)}, u32[3]{0:T(128)}, u32[3,4]{1,0:T(4,128)}, /*index=20*/bf16[3,1,128,512]{3,2,1,0:T(8,128)(2,1)}, bf16[3,512]{1,0:T(4,128)(2,1)}, bf16[3,128,1536]{2,1,0:T(8,128)(2,1)}, bf16[3,1536]{1,0:T(4,128)(2,1)}, bf16[3,384,128,192]{2,1,3,0:T(8,128)(2,1)}, /*index=25*/bf16[3,128,576]{2,1,0:T(8,128)(2,1)S(1)}, bf16[3,512]{1,0:T(4,128)(2,1)}, bf16[3,128,128,256]{3,1,2,0:T(8,128)(2,1)}, f32[1,128,1,32]{3,1,2,0:T(8,128)S(1)}, f32[1,128,1,32]{3,1,2,0:T(8,128)S(1)}, /*index=30*/bf16[3,128,128,128]{3,2,1,0:T(8,128)(2,1)}, bf16[3,512]{1,0:T(4,128)(2,1)}, bf16[3,128,18432]{2,1,0:T(8,128)(2,1)}, bf16[3,128,18432]{2,1,0:T(8,128)(2,1)}, bf16[3,18432,128]{2,1,0:T(8,128)(2,1)}, /*index=35*/u32[3]{0:T(128)}, u32[3,4]{1,0:T(4,128)}, u32[3]{0:T(128)}, u32[3,4]{1,0:T(4,128)}, u32[3]{0:T(128)}, /*index=40*/u32[3,4]{1,0:T(4,128)}, u32[3]{0:T(128)}, u32[3,4]{1,0:T(4,128)}, u32[3]{0:T(128)}, u32[3,4]{1,0:T(4,128)}, /*index=45*/u32[3]{0:T(128)}, u32[3,4]{1,0:T(4,128)}, u32[3]{0:T(128)}, u32[3,4]{1,0:T(4,128)}, u32[3]{0:T(128)}, /*index=50*/u32[3,4]{1,0:T(4,128)}, u32[3]{0:T(128)}, u32[3,4]{1,0:T(4,128)}, f32[128,32]{1,0:T(8,128)S(1)}, f32[128,32]{1,0:T(8,128)S(1)}, /*index=55*/s32[128]{0:T(128)}, s32[]{:T(128)}, s8[1,1,1]{2,1,0:T(4,128)(4,1)}, s8[1,1,1]{2,1,0:T(4,128)(4,1)}) parameter(0)
  %get-tuple-element.8796 = s32[]{:T(128)} get-tuple-element(%wide.param.5), index=0
  %copy.1602 = s32[]{:T(128)S(6)} copy(%get-tuple-element.8796), backend_config={"flag_configs":[],"scoped_memory_configs":[],"used_scoped_memory_configs":[],"aliasing_operands":{"lists":[]}}
  %add.3924 = s32[]{:T(128)} add(%copy.1602, %constant.1701.clone..sunk.7), metadata={op_name="jit(train_step)/jvp()/while/body/add" stack_frame_id=0}, backend_config={"flag_configs":[],"scoped_memory_configs":[],"used_scoped_memory_configs":[],"aliasing_operands":{"lists":[]}}
  %get-tuple-element.8816 = bf16[3,1,128,512]{3,2,1,0:T(8,128)(2,1)} get-tuple-element(%wide.param.5), index=20
  %get-tuple-element.8797 = bf16[1,128,512]{2,1,0:T(8,128)(2,1)S(1)} get-tuple-element(%wide.param.5), index=1
  %bitcast_dynamic-update-slice_fusion.17 = bf16[3,1,128,512]{3,2,1,0:T(8,128)(2,1)} fusion(%get-tuple-element.8816, %copy.1602, %get-tuple-element.8797), kind=kLoop, calls=%fused_computation.171.clone.1, metadata={op_name="jit(train_step)/jvp()/while/body/jit(dynamic_update_index_in_dim)/dynamic_update_slice" stack_frame_id=0}, backend_config={"flag_configs":[],"scoped_memory_configs":[],"used_scoped_memory_configs":[],"aliasing_operands":{"lists":[{"indices":["0","3"]}]}}
  %get-tuple-element.8885 = bf16[3,128,128,128]{3,2,1,0:T(8,128)(2,1)} get-tuple-element(%wide.param.5), index=30
  %dynamic-slice_convert_fusion.40 = bf16[1,128,128,128]{3,2,1,0:T(8,128)(2,1)S(1)} fusion(%get-tuple-element.8885, %copy.1602), kind=kLoop, calls=%fused_computation.129.clone.1, metadata={op_name="jit(train_step)/jvp()/while/body/closed_call/convert_element_type" stack_frame_id=0}, backend_config={"flag_configs":[],"scoped_memory_configs":[],"used_scoped_memory_configs":[],"aliasing_operands":{"lists":[]}}
  %all-gather.308 = bf16[1,128,128,512]{3,2,1,0:T(8,128)(2,1)} all-gather(%dynamic-slice_convert_fusion.40), channel_id=260, replica_groups=mesh['axis_0'=1,'axis_1'=1,'axis_2'=4] {'axis_2'}, dimensions={3}, use_global_device_ids=true, metadata={op_name="jit(train_step)/jvp()/while/body/closed_call/dot_general" stack_frame_id=0}, backend_config={"flag_configs":[],"barrier_config":{"barrier_type":"CUSTOM","id":"0"},"scoped_memory_configs":[],"used_scoped_memory_configs":[],"aliasing_operands":{"lists":[]}}
  %get-tuple-element.8912 = s8[1,1,1]{2,1,0:T(4,128)(4,1)} get-tuple-element(%wide.param.5), index=57, metadata={op_name="jit(train_step)/sharding_constraint" stack_frame_id=0}
  %get-tuple-element.8913 = s8[1,1,1]{2,1,0:T(4,128)(4,1)} get-tuple-element(%wide.param.5), index=58, metadata={op_name="jit(train_step)/sharding_constraint" stack_frame_id=0}
  %get-tuple-element.8879 = bf16[3,384,128,192]{2,1,3,0:T(8,128)(2,1)} get-tuple-element(%wide.param.5), index=24
  %dynamic-slice_convert_fusion.41 = bf16[1,384,128,192]{2,1,3,0:T(8,128)(2,1)S(1)} fusion(%get-tuple-element.8879, %copy.1602), kind=kLoop, calls=%fused_computation.99.clone.1, metadata={op_name="jit(train_step)/jvp()/while/body/closed_call/convert_element_type" stack_frame_id=0}, backend_config={"flag_configs":[],"scoped_memory_configs":[],"used_scoped_memory_configs":[],"aliasing_operands":{"lists":[]}}
  %all-gather.309 = bf16[1,1536,128,192]{2,1,3,0:T(8,128)(2,1)} all-gather(%dynamic-slice_convert_fusion.41), channel_id=257, replica_groups=mesh['axis_0'=4,'axis_1'=1,'axis_2'=1] {'axis_0'}, dimensions={1}, use_global_device_ids=true, metadata={op_name="jit(train_step)/jvp()/while/body/closed_call/dot_general" stack_frame_id=0}, backend_config={"flag_configs":[],"barrier_config":{"barrier_type":"CUSTOM","id":"0"},"scoped_memory_configs":[],"used_scoped_memory_configs":[],"aliasing_operands":{"lists":[]}}
  %bitcast.2509 = bf16[1536,128,192]{1,0,2:T(8,128)(2,1)} bitcast(%all-gather.309), metadata={op_name="jit(train_step)/jvp()/while/body/closed_call/dot_general" stack_frame_id=0}
  %copy.1553 = bf16[1536,128,192]{0,2,1:T(8,128)(2,1)} copy(%bitcast.2509), metadata={op_name="jit(train_step)/jvp()/while/body/closed_call/dot_general" stack_frame_id=0}, backend_config={"flag_configs":[],"scoped_memory_configs":[],"used_scoped_memory_configs":[],"aliasing_operands":{"lists":[]}}
  %get-tuple-element.8877 = bf16[3,128,1536]{2,1,0:T(8,128)(2,1)} get-tuple-element(%wide.param.5), index=22
  %dynamic-slice_convert_fusion.42 = bf16[1,128,1536]{2,1,0:T(8,128)(2,1)S(1)} fusion(%get-tuple-element.8877, %copy.1602), kind=kLoop, calls=%fused_computation.140.clone.1, metadata={op_name="jit(train_step)/jvp()/while/body/closed_call/convert_element_type" stack_frame_id=0}, backend_config={"flag_configs":[],"scoped_memory_configs":[],"used_scoped_memory_configs":[],"aliasing_operands":{"lists":[]}}
  %all-gather.310 = bf16[1,512,1536]{2,1,0:T(8,128)(2,1)S(1)} all-gather(%dynamic-slice_convert_fusion.42), channel_id=256, replica_groups=mesh['axis_0'=4,'axis_1'=1] {'axis_0'}, dimensions={1}, use_global_device_ids=true, metadata={op_name="jit(train_step)/jvp()/while/body/closed_call/dot_general" stack_frame_id=0}, backend_config={"flag_configs":[],"barrier_config":{"barrier_type":"CUSTOM","id":"0"},"scoped_memory_configs":[],"used_scoped_memory_configs":[],"aliasing_operands":{"lists":[]}}
  %fusion.1081 = f32[128]{0:T(128)S(1)} fusion(%get-tuple-element.8797), kind=kLoop, calls=%fused_computation.158.clone.1, metadata={op_name="jit(train_step)/jvp()/while/body/closed_call/reduce_sum" stack_frame_id=0}, backend_config={"flag_configs":[],"scoped_memory_configs":[],"used_scoped_memory_configs":[],"aliasing_operands":{"lists":[]}}
  %add_rsqrt_fusion.11 = f32[128]{0:T(128)S(1)} fusion(%fusion.1081), kind=kLoop, calls=%fused_computation.205.clone.1, metadata={op_name="jit(train_step)/jvp()/while/body/closed_call/rsqrt" stack_frame_id=0}, backend_config={"flag_configs":[],"scoped_memory_configs":[],"used_scoped_memory_configs":[],"aliasing_operands":{"lists":[]}}
  %get-tuple-element.8876 = bf16[3,512]{1,0:T(4,128)(2,1)} get-tuple-element(%wide.param.5), index=21
  %get-tuple-element.8881 = bf16[3,512]{1,0:T(4,128)(2,1)} get-tuple-element(%wide.param.5), index=26
  %fusion.1082 = (bf16[512]{0:T(512)(128)(2,1)S(1)}, bf16[512]{0:T(512)(128)(2,1)S(1)}) fusion(%get-tuple-element.8876, %copy.1602, %get-tuple-element.8881), kind=kLoop, calls=%fused_computation.197.clone.1, metadata={op_name="jit(train_step)/jvp()/while/body/closed_call/convert_element_type" stack_frame_id=0}, backend_config={"flag_configs":[],"scoped_memory_configs":[],"used_scoped_memory_configs":[],"fusion_formation_source":{"fusion_creating_compiler_pass":"TpuAdvancedMOF","fusion_id":"42"},"aliasing_operands":{"lists":[]}}
  %get-tuple-element.8720 = bf16[512]{0:T(512)(128)(2,1)S(1)} get-tuple-element(%fusion.1082), index=0, metadata={op_name="jit(train_step)/jvp()/while/body/closed_call/convert_element_type" stack_frame_id=0}
  %multiply_reduce_fusion.102 = (f32[128]{0:T(128)S(1)}, f32[1,128,1536]{2,1,0:T(8,128)S(1)}) fusion(%all-gather.310, %get-tuple-element.8797, %add_rsqrt_fusion.11, %get-tuple-element.8720), kind=kOutput, calls=%fused_computation.139.clone.1, metadata={op_name="jit(train_step)/jvp()/while/body/closed_call/dot_general" stack_frame_id=0}, backend_config={"flag_configs":[],"scoped_memory_configs":[],"used_scoped_memory_configs":[],"aliasing_operands":{"lists":[]}}
  %get-tuple-element.8721 = f32[1,128,1536]{2,1,0:T(8,128)S(1)} get-tuple-element(%multiply_reduce_fusion.102), index=1, metadata={op_name="jit(train_step)/jvp()/while/body/closed_call/reduce_sum" stack_frame_id=0}
  %get-tuple-element.8722 = f32[128]{0:T(128)S(1)} get-tuple-element(%multiply_reduce_fusion.102), index=0, metadata={op_name="jit(train_step)/jvp()/while/body/closed_call/reduce_sum" stack_frame_id=0}
  %add_rsqrt_fusion.12 = f32[128]{0:T(128)S(1)} fusion(%get-tuple-element.8722), kind=kLoop, calls=%fused_computation.204.clone.1, metadata={op_name="jit(train_step)/jvp()/while/body/closed_call/rsqrt" stack_frame_id=0}, backend_config={"flag_configs":[],"scoped_memory_configs":[],"used_scoped_memory_configs":[],"aliasing_operands":{"lists":[]}}
  %get-tuple-element.8878 = bf16[3,1536]{1,0:T(4,128)(2,1)} get-tuple-element(%wide.param.5), index=23
  %convert_reduce_fusion.13 = bf16[1536]{0:T(1024)(128)(2,1)S(1)} fusion(%get-tuple-element.8878, %copy.1602), kind=kLoop, calls=%fused_computation.192.clone.1, metadata={op_name="jit(train_step)/jvp()/while/body/closed_call/convert_element_type" stack_frame_id=0}, backend_config={"flag_configs":[],"scoped_memory_configs":[],"used_scoped_memory_configs":[],"aliasing_operands":{"lists":[]}}
  %convolution_bitcast_fusion.10 = bf16[1,128,128,192]{3,1,2,0:T(8,128)(2,1)S(1)} fusion(%copy.1553, %get-tuple-element.8721, %add_rsqrt_fusion.12, %convert_reduce_fusion.13), kind=kOutput, calls=%fused_computation.131.clone.1, metadata={op_name="jit(train_step)/jvp()/while/body/closed_call/dot_general" stack_frame_id=0}, backend_config={"flag_configs":[],"scoped_memory_configs":[],"used_scoped_memory_configs":[],"aliasing_operands":{"lists":[]}}
  %slice.1456 = bf16[1,128,128,64]{3,1,2,0:T(8,128)(2,1)S(1)} slice(%convolution_bitcast_fusion.10), slice={[0:1], [0:128], [0:128], [128:192]}, metadata={op_name="jit(train_step)/jvp()/while/body/closed_call/split" stack_frame_id=0}, backend_config={"flag_configs":[],"scoped_memory_configs":[],"used_scoped_memory_configs":[],"aliasing_operands":{"lists":[]}}
  %copy.1554 = bf16[1,128,128,64]{2,1,3,0:T(8,128)(2,1)S(1)} copy(%slice.1456), metadata={op_name="jit(train_step)/jvp()/while/body/closed_call/split" stack_frame_id=0}, backend_config={"flag_configs":[],"scoped_memory_configs":[],"used_scoped_memory_configs":[],"aliasing_operands":{"lists":[]}}
  %bitcast.2553 = bf16[1,128,128,32,2]{2,1,4,3,0:T(8,128)(2,1)S(1)} bitcast(%copy.1554)
  %fusion.1083 = (bf16[1,128,128,32,1]{2,1,4,3,0:T(8,128)(2,1)S(1)}, bf16[1,128,128,32,1]{2,1,4,3,0:T(8,128)(2,1)S(1)}) fusion(%bitcast.2553), kind=kLoop, calls=%fused_computation.1395.clone.1, metadata={op_name="jit(train_step)/jvp()/while/body/closed_call/slice" stack_frame_id=0}, backend_config={"flag_configs":[],"scoped_memory_configs":[],"used_scoped_memory_configs":[],"aliasing_operands":{"lists":[]}}
  %get-tuple-element.8723 = bf16[1,128,128,32,1]{2,1,4,3,0:T(8,128)(2,1)S(1)} get-tuple-element(%fusion.1083), index=1, metadata={op_name="jit(train_step)/jvp()/while/body/closed_call/slice" stack_frame_id=0}
  %copy.1555 = bf16[1,128,128,32,1]{3,1,2,4,0:T(8,128)(2,1)S(1)} copy(%get-tuple-element.8723), backend_config={"flag_configs":[],"scoped_memory_configs":[],"used_scoped_memory_configs":[],"aliasing_operands":{"lists":[]}}
  %get-tuple-element.8724 = bf16[1,128,128,32,1]{2,1,4,3,0:T(8,128)(2,1)S(1)} get-tuple-element(%fusion.1083), index=0, metadata={op_name="jit(train_step)/jvp()/while/body/closed_call/slice" stack_frame_id=0}
  %copy.1556 = bf16[1,128,128,32,1]{3,1,2,4,0:T(8,128)(2,1)S(1)} copy(%get-tuple-element.8724), backend_config={"flag_configs":[],"scoped_memory_configs":[],"used_scoped_memory_configs":[],"aliasing_operands":{"lists":[]}}
  %get-tuple-element.8909 = f32[128,32]{1,0:T(8,128)S(1)} get-tuple-element(%wide.param.5), index=54
  %get-tuple-element.8908 = f32[128,32]{1,0:T(8,128)S(1)} get-tuple-element(%wide.param.5), index=53
  %fusion.1084 = (bf16[1,128,128,32]{3,1,2,0:T(8,128)(2,1)S(1)}, bf16[1,128,128,32]{3,1,2,0:T(8,128)(2,1)S(1)}) fusion(%copy.1555, %copy.1556, %get-tuple-element.8909, %get-tuple-element.8908), kind=kLoop, calls=%fused_computation.126.clone.1, metadata={op_name="convert.204"}, backend_config={"flag_configs":[],"scoped_memory_configs":[],"used_scoped_memory_configs":[],"aliasing_operands":{"lists":[]}}
  %get-tuple-element.8725 = bf16[1,128,128,32]{3,1,2,0:T(8,128)(2,1)S(1)} get-tuple-element(%fusion.1084), index=1, metadata={op_name="convert.204"}
  %get-tuple-element.8726 = bf16[1,128,128,32]{3,1,2,0:T(8,128)(2,1)S(1)} get-tuple-element(%fusion.1084), index=0, metadata={op_name="convert.204"}
  %slice.1457 = bf16[1,128,128,128]{3,1,2,0:T(8,128)(2,1)S(1)} slice(%convolution_bitcast_fusion.10), slice={[0:1], [0:128], [0:128], [0:128]}, metadata={op_name="jit(train_step)/jvp()/while/body/closed_call/split" stack_frame_id=0}, backend_config={"flag_configs":[],"scoped_memory_configs":[],"used_scoped_memory_configs":[],"aliasing_operands":{"lists":[]}}
  %fusion.1085 = bf16[128,128,192]{2,1,0:T(8,128)(2,1)S(1)} fusion(%get-tuple-element.8725, %get-tuple-element.8726, %slice.1457), kind=kLoop, calls=%fused_computation.119.clone.1, metadata={op_name="jit(train_step)/jvp()/while/body/closed_call/shard_map/vmap(static_sparsity_splash)/jit(_splash_attention)/splash_mha_fwd_segmented_residuals/splash_mha_fwd_segmented_residuals/squeeze" stack_frame_id=0}, backend_config={"flag_configs":[],"scoped_memory_configs":[],"used_scoped_memory_configs":[],"aliasing_operands":{"lists":[]}}
  %get-tuple-element.8880 = bf16[3,128,576]{2,1,0:T(8,128)(2,1)S(1)} get-tuple-element(%wide.param.5), index=25
  %dynamic-slice_convert_fusion.43 = bf16[1,128,576]{2,1,0:T(8,128)(2,1)S(1)} fusion(%get-tuple-element.8880, %copy.1602), kind=kLoop, calls=%fused_computation.155.clone.1, metadata={op_name="jit(train_step)/jvp()/while/body/closed_call/convert_element_type" stack_frame_id=0}, backend_config={"flag_configs":[],"scoped_memory_configs":[],"used_scoped_memory_configs":[],"aliasing_operands":{"lists":[]}}
  %all-gather.311 = bf16[1,512,576]{2,1,0:T(8,128)(2,1)S(1)} all-gather(%dynamic-slice_convert_fusion.43), channel_id=258, replica_groups=mesh['axis_0'=4,'axis_1'=1] {'axis_0'}, dimensions={1}, use_global_device_ids=true, metadata={op_name="jit(train_step)/jvp()/while/body/closed_call/dot_general" stack_frame_id=0}, backend_config={"flag_configs":[],"barrier_config":{"barrier_type":"CUSTOM","id":"0"},"scoped_memory_configs":[],"used_scoped_memory_configs":[],"aliasing_operands":{"lists":[]}}
  %fusion.1086 = bf16[1,128,576]{1,2,0:T(8,128)(2,1)S(1)} fusion(%all-gather.311, %get-tuple-element.8797, %add_rsqrt_fusion.11, %get-tuple-element.8720), kind=kOutput, calls=%fused_computation.143.clone.1, metadata={op_name="jit(train_step)/jvp()/while/body/closed_call/dot_general" stack_frame_id=0}, backend_config={"flag_configs":[],"scoped_memory_configs":[],"used_scoped_memory_configs":[],"aliasing_operands":{"lists":[]}}
  %slice.1458 = bf16[1,128,64]{1,2,0:T(8,128)(2,1)S(1)} slice(%fusion.1086), slice={[0:1], [0:128], [512:576]}, metadata={op_name="jit(train_step)/jvp()/while/body/closed_call/split" stack_frame_id=0}, backend_config={"flag_configs":[],"scoped_memory_configs":[],"used_scoped_memory_configs":[],"aliasing_operands":{"lists":[]}}
  %bitcast.2621 = bf16[1,128,1,32,2]{1,4,3,2,0:T(2,128)(2,1)S(1)} bitcast(%slice.1458)
  %fusion.1087 = (bf16[1,128,1,32,1]{1,4,3,2,0:T(2,128)(2,1)S(1)}, bf16[1,128,1,32,1]{1,4,3,2,0:T(2,128)(2,1)S(1)}) fusion(%bitcast.2621), kind=kLoop, calls=%fused_computation.1396.clone.1, metadata={op_name="jit(train_step)/jvp()/while/body/closed_call/slice" stack_frame_id=0}, backend_config={"flag_configs":[],"scoped_memory_configs":[],"used_scoped_memory_configs":[],"aliasing_operands":{"lists":[]}}
  %get-tuple-element.8727 = bf16[1,128,1,32,1]{1,4,3,2,0:T(2,128)(2,1)S(1)} get-tuple-element(%fusion.1087), index=1, metadata={op_name="jit(train_step)/jvp()/while/body/closed_call/slice" stack_frame_id=0}
  %copy.1557 = bf16[1,128,1,32,1]{3,1,4,2,0:T(8,128)(2,1)S(1)} copy(%get-tuple-element.8727), backend_config={"flag_configs":[],"scoped_memory_configs":[],"used_scoped_memory_configs":[],"aliasing_operands":{"lists":[]}}
  %get-tuple-element.8728 = bf16[1,128,1,32,1]{1,4,3,2,0:T(2,128)(2,1)S(1)} get-tuple-element(%fusion.1087), index=0, metadata={op_name="jit(train_step)/jvp()/while/body/closed_call/slice" stack_frame_id=0}
  %copy.1558 = bf16[1,128,1,32,1]{3,1,4,2,0:T(8,128)(2,1)S(1)} copy(%get-tuple-element.8728), backend_config={"flag_configs":[],"scoped_memory_configs":[],"used_scoped_memory_configs":[],"aliasing_operands":{"lists":[]}}
  %bitcast.2608 = f32[1,128,1,32]{3,1,2,0:T(8,128)S(1)} bitcast(%get-tuple-element.8909)
  %bitcast.2605 = f32[1,128,1,32]{3,1,2,0:T(8,128)S(1)} bitcast(%get-tuple-element.8908)
  %fusion.1088 = (bf16[1,128,32]{2,1,0:T(8,128)(2,1)S(1)}, bf16[1,128,32]{2,1,0:T(8,128)(2,1)S(1)}) fusion(%bitcast.2608, %bitcast.2605, %copy.1557, %copy.1558), kind=kLoop, calls=%fused_computation.179.clone.1, metadata={op_name="convert.202"}, backend_config={"flag_configs":[],"scoped_memory_configs":[],"used_scoped_memory_configs":[],"aliasing_operands":{"lists":[]}}
  %get-tuple-element.8729 = bf16[1,128,32]{2,1,0:T(8,128)(2,1)S(1)} get-tuple-element(%fusion.1088), index=1, metadata={op_name="convert.202"}
  %get-tuple-element.8730 = bf16[1,128,32]{2,1,0:T(8,128)(2,1)S(1)} get-tuple-element(%fusion.1088), index=0, metadata={op_name="convert.202"}
  %maximum_bitcast_fusion.34 = bf16[128,64]{1,0:T(8,128)(2,1)S(1)} fusion(%get-tuple-element.8729, %get-tuple-element.8730), kind=kLoop, calls=%fused_computation.191.clone.1, metadata={op_name="jit(train_step)/jvp()/while/body/closed_call/concatenate" stack_frame_id=0}, backend_config={"flag_configs":[],"scoped_memory_configs":[],"used_scoped_memory_configs":[],"aliasing_operands":{"lists":[]}}
  %broadcast_in_dim.1674 = bf16[1,128,128,64]{3,1,2,0:T(8,128)(2,1)S(1)} broadcast(%maximum_bitcast_fusion.34), dimensions={1,3}, metadata={op_name="jit(train_step)/jvp()/while/body/closed_call/broadcast_in_dim" stack_frame_id=0}, backend_config={"flag_configs":[],"scoped_memory_configs":[],"used_scoped_memory_configs":[],"output_chunk_bound_config":{"output_chunk_bound":["8","128"]},"aliasing_operands":{"lists":[]}}
  %get-tuple-element.8882 = bf16[3,128,128,256]{3,1,2,0:T(8,128)(2,1)} get-tuple-element(%wide.param.5), index=27
  %dynamic-slice_convert_fusion.44 = bf16[1,128,128,256]{3,1,2,0:T(8,128)(2,1)S(1)} fusion(%get-tuple-element.8882, %copy.1602), kind=kLoop, calls=%fused_computation.110.clone.1, metadata={op_name="jit(train_step)/jvp()/while/body/closed_call/convert_element_type" stack_frame_id=0}, backend_config={"flag_configs":[],"scoped_memory_configs":[],"used_scoped_memory_configs":[],"aliasing_operands":{"lists":[]}}
  %all-gather.312 = bf16[1,512,128,256]{3,1,2,0:T(8,128)(2,1)S(1)} all-gather(%dynamic-slice_convert_fusion.44), channel_id=259, replica_groups=mesh['axis_0'=4,'axis_1'=1,'axis_2'=1] {'axis_0'}, dimensions={1}, use_global_device_ids=true, metadata={op_name="jit(train_step)/jvp()/while/body/closed_call/dot_general" stack_frame_id=0}, backend_config={"flag_configs":[],"barrier_config":{"barrier_type":"CUSTOM","id":"0"},"scoped_memory_configs":[],"used_scoped_memory_configs":[],"aliasing_operands":{"lists":[]}}
  %fusion.1089 = f32[128]{0:T(128)S(1)} fusion(%fusion.1086), kind=kLoop, calls=%fused_computation.160.clone.1, metadata={op_name="jit(train_step)/jvp()/while/body/closed_call/reduce_sum" stack_frame_id=0}, backend_config={"flag_configs":[],"scoped_memory_configs":[],"used_scoped_memory_configs":[],"aliasing_operands":{"lists":[]}}
  %add_rsqrt_fusion.13 = f32[128]{0:T(128)S(1)} fusion(%fusion.1089), kind=kLoop, calls=%fused_computation.203.clone.1, metadata={op_name="jit(train_step)/jvp()/while/body/closed_call/rsqrt" stack_frame_id=0}, backend_config={"flag_configs":[],"scoped_memory_configs":[],"used_scoped_memory_configs":[],"aliasing_operands":{"lists":[]}}
  %get-tuple-element.8731 = bf16[512]{0:T(512)(128)(2,1)S(1)} get-tuple-element(%fusion.1082), index=1, metadata={op_name="jit(train_step)/jvp()/while/body/closed_call/convert_element_type" stack_frame_id=0}
  %fusion.1090 = bf16[1,128,128,256]{3,1,2,0:T(8,128)(2,1)S(1)} fusion(%all-gather.312, %add_rsqrt_fusion.13, %fusion.1086, %get-tuple-element.8731), kind=kOutput, calls=%fused_computation.130.clone.1, metadata={op_name="jit(train_step)/jvp()/while/body/closed_call/dot_general" stack_frame_id=0}, backend_config={"flag_configs":[],"scoped_memory_configs":[],"used_scoped_memory_configs":[],"aliasing_operands":{"lists":[]}}
  %get-tuple-element.8910 = s32[128]{0:T(128)} get-tuple-element(%wide.param.5), index=55
  %copy-start.219 = (s32[128]{0:T(128)S(1)}, s32[128]{0:T(128)}, u32[]{:S(2)}) copy-start(%get-tuple-element.8910)
  %slice_bitcast_fusion.11 = (bf16[128,128,128]{2,1,0:T(8,128)(2,1)S(1)}, bf16[1,128,128,128]{3,1,2,0:T(8,128)(2,1)S(1)}) fusion(%fusion.1090), kind=kLoop, calls=%fused_computation.132.clone.1, metadata={op_name="jit(train_step)/jvp()/while/body/closed_call/shard_map/vmap(static_sparsity_splash)/jit(_splash_attention)/splash_mha_fwd_segmented_residuals/splash_mha_fwd_segmented_residuals/squeeze" stack_frame_id=0}, backend_config={"flag_configs":[],"scoped_memory_configs":[],"used_scoped_memory_configs":[],"aliasing_operands":{"lists":[]}}
  %get-tuple-element.8732 = bf16[1,128,128,128]{3,1,2,0:T(8,128)(2,1)S(1)} get-tuple-element(%slice_bitcast_fusion.11), index=1, metadata={op_name="jit(train_step)/jvp()/while/body/closed_call/shard_map/vmap(static_sparsity_splash)/jit(_splash_attention)/splash_mha_fwd_segmented_residuals/splash_mha_fwd_segmented_residuals/squeeze" stack_frame_id=0}
  %bitcast.2524 = s8[16777216]{0:T(1024)(128)(4,1)} bitcast(%all-gather.308)
  %slice-start.21 = ((s8[16777216]{0:T(1024)(128)(4,1)}), s8[4194304]{0:T(1024)(128)(4,1)S(1)}, s32[]{:S(2)}) async-start(%bitcast.2524), calls=%async_computation.48
  %slice-start.22 = ((s8[16777216]{0:T(1024)(128)(4,1)}), s8[4194304]{0:T(1024)(128)(4,1)S(1)}, s32[]{:S(2)}) async-start(%bitcast.2524), calls=%async_computation.49
  %maximum_bitcast_fusion.35 = bf16[128,128,192]{2,1,0:T(8,128)(2,1)S(1)} fusion(%broadcast_in_dim.1674, %get-tuple-element.8732), kind=kLoop, calls=%fused_computation.120.clone.1, metadata={op_name="jit(train_step)/jvp()/while/body/closed_call/shard_map/vmap(static_sparsity_splash)/jit(_splash_attention)/splash_mha_fwd_segmented_residuals/splash_mha_fwd_segmented_residuals/squeeze" stack_frame_id=0}, backend_config={"flag_configs":[],"scoped_memory_configs":[],"used_scoped_memory_configs":[],"aliasing_operands":{"lists":[]}}
  %get-tuple-element.8733 = bf16[128,128,128]{2,1,0:T(8,128)(2,1)S(1)} get-tuple-element(%slice_bitcast_fusion.11), index=0, metadata={op_name="jit(train_step)/jvp()/while/body/closed_call/shard_map/vmap(static_sparsity_splash)/jit(_splash_attention)/splash_mha_fwd_segmented_residuals/splash_mha_fwd_segmented_residuals/squeeze" stack_frame_id=0}
  %copy-done.219 = s32[128]{0:T(128)S(1)} copy-done(%copy-start.219)
  %squeeze.902 = s32[128,128]{1,0:T(8,128)S(1)} broadcast(%copy-done.219), dimensions={0}, metadata={op_name="jit(train_step)/shard_map/vmap(static_sparsity_splash)/jit(_splash_attention)/splash_mha_fwd_segmented_residuals/splash_mha_fwd_segmented_residuals/squeeze" stack_frame_id=0}, backend_config={"flag_configs":[],"scoped_memory_configs":[],"used_scoped_memory_configs":[],"output_chunk_bound_config":{"output_chunk_bound":["8"]},"aliasing_operands":{"lists":[]}}
  %squeeze.903 = s32[8,128]{1,0:T(8,128)S(1)} broadcast(%copy-done.219), dimensions={1}, metadata={op_name="jit(train_step)/shard_map/vmap(static_sparsity_splash)/jit(_splash_attention)/splash_mha_fwd_segmented_residuals/splash_mha_fwd_segmented_residuals/squeeze" stack_frame_id=0}, backend_config={"flag_configs":[],"scoped_memory_configs":[],"used_scoped_memory_configs":[],"output_chunk_bound_config":{"output_chunk_bound":["128"]},"aliasing_operands":{"lists":[]}}
  %iota.359 = s32[128,128]{1,0:T(8,128)S(1)} iota(), iota_dimension=0, metadata={op_name="jit(train_step)/shard_map/vmap(static_sparsity_splash)/jit(_splash_attention)/broadcast_in_dim" stack_frame_id=0}, backend_config={"flag_configs":[],"scoped_memory_configs":[],"used_scoped_memory_configs":[],"aliasing_operands":{"lists":[]}}
  %slice-start.23 = ((s8[16777216]{0:T(1024)(128)(4,1)}), s8[4194304]{0:T(1024)(128)(4,1)S(1)}, s32[]{:S(2)}) async-start(%bitcast.2524), calls=%async_computation.50
  %slice-start.24 = ((s8[16777216]{0:T(1024)(128)(4,1)}), s8[4194304]{0:T(1024)(128)(4,1)S(1)}, s32[]{:S(2)}) async-start(%bitcast.2524), calls=%async_computation.51
  %splash_mha_fwd_segmented_residuals.6 = (f32[128,128]{1,0:T(8,128)}, f32[128,128]{1,0:T(8,128)}, f32[128,128]{1,0:T(8,128)}, bf16[128,128,128]{2,1,0:T(8,128)(2,1)S(1)}, f32[128,128,128]{2,1,0:T(8,128)}) custom-call(%get-tuple-element.8912, %get-tuple-element.8913, %fusion.1085, %maximum_bitcast_fusion.35, %get-tuple-element.8733, /*index=5*/%squeeze.902, %squeeze.903, %iota.359), custom_call_target="tpu_custom_call", operand_layout_constraints={s8[1,1,1]{2,1,0}, s8[1,1,1]{2,1,0}, bf16[128,128,192]{2,1,0}, bf16[128,128,192]{2,1,0}, bf16[128,128,128]{2,1,0}, s32[128,128]{1,0}, s32[8,128]{1,0}, s32[128,128]{1,0}}, frontend_attributes={kernel_metadata={
"xprof_metadata":"{\"block_q\": 128, \"block_kv\": 128, \"block_kv_compute\": 128, \"block_q_dkv\": 128, \"block_kv_dkv\": 128, \"block_kv_dkv_compute\": 128, \"block_q_dq\": 128, \"block_kv_dq\": 128, \"use_fused_bwd_kernel\": false, \"q_layout\": 1, \"k_layout\": 1, \"v_layout\": 1}"
}}, metadata={op_name="jit(train_step)/jvp()/while/body/closed_call/shard_map/vmap(static_sparsity_splash)/jit(_splash_attention)/splash_mha_fwd_segmented_residuals/splash_mha_fwd_segmented_residuals/pallas_call" stack_frame_id=0}, backend_config={"flag_configs":[],"scoped_memory_configs":[],"custom_call_config":{"body":"…","needs_layout_passes":true,"allow_input_fusion":[],"serialization_format":"1","output_memory_colors":[],"output_memory_space_colors":[],"input_memory_space_colors":[]},"used_scoped_memory_configs":[],"aliasing_operands":{"lists":[]}}
  %get-tuple-element.8734 = bf16[128,128,128]{2,1,0:T(8,128)(2,1)S(1)} get-tuple-element(%splash_mha_fwd_segmented_residuals.6), index=3, frontend_attributes={kernel_metadata={
"xprof_metadata":"{\"block_q\": 128, \"block_kv\": 128, \"block_kv_compute\": 128, \"block_q_dkv\": 128, \"block_kv_dkv\": 128, \"block_kv_dkv_compute\": 128, \"block_q_dq\": 128, \"block_kv_dq\": 128, \"use_fused_bwd_kernel\": false, \"q_layout\": 1, \"k_layout\": 1, \"v_layout\": 1}"
}}, metadata={op_name="jit(train_step)/jvp()/while/body/closed_call/shard_map/vmap(static_sparsity_splash)/jit(_splash_attention)/splash_mha_fwd_segmented_residuals/splash_mha_fwd_segmented_residuals/pallas_call" stack_frame_id=0}
  %slice-done.21 = s8[4194304]{0:T(1024)(128)(4,1)S(1)} async-done(%slice-start.21)
  %slice-done.22 = s8[4194304]{0:T(1024)(128)(4,1)S(1)} async-done(%slice-start.22)
  %slice-done.23 = s8[4194304]{0:T(1024)(128)(4,1)S(1)} async-done(%slice-start.23)
  %slice-done.24 = s8[4194304]{0:T(1024)(128)(4,1)S(1)} async-done(%slice-start.24)
  %custom-call.91 = bf16[1,128,128,512]{3,2,1,0:T(8,128)(2,1)S(1)} custom-call(%slice-done.21, %slice-done.22, %slice-done.23, %slice-done.24), custom_call_target="ConcatBitcast", backend_config={"flag_configs":[],"scoped_memory_configs":[],"used_scoped_memory_configs":[],"aliasing_operands":{"lists":[]}}
  %bitcast.2525 = bf16[1,128,128,512]{3,2,1,0:T(8,128)(2,1)S(1)} bitcast(%custom-call.91)
  %fusion.1091 = (f32[128]{0:T(128)S(1)}, bf16[1,128,512]{2,1,0:T(8,128)(2,1)S(1)}) fusion(%get-tuple-element.8797, %bitcast.2525, %get-tuple-element.8734), kind=kOutput, calls=%fused_computation.162.clone.1, metadata={op_name="jit(train_step)/jvp()/while/body/closed_call/dot_general" stack_frame_id=0}, backend_config={"flag_configs":[],"scoped_memory_configs":[],"used_scoped_memory_configs":[],"aliasing_operands":{"lists":[]}}
…
  %convert.416.clone.1 = bf16[1,128,128,32]{3,1,2,0:T(8,128)(2,1)} convert(%mul.4481.clone.1), metadata={op_name="convert.264" stack_frame_id=0}
  ROOT %tuple.666 = (bf16[1,128,128,32]{3,1,2,0:T(8,128)(2,1)}, bf16[1,128,128,32]{3,1,2,0:T(8,128)(2,1)}) tuple(%convert.415, %convert.416.clone.1)
}

%fused_computation.652 (param_0.2062: bf16[1,128,128,32], param_1.4736: bf16[1,128,128,32], param_2.3602: bf16[1,128,128,128]) -> bf16[128,128,192] {
  %param_2.3602 = bf16[1,128,128,128]{3,1,2,0:T(8,128)(2,1)S(1)} parameter(2)
  %constant.1695.clone.23 = bf16[]{:T(256)} constant(-inf)
  %pad.290 = bf16[1,128,128,192]{3,1,2,0:T(8,128)(2,1)} pad(%param_2.3602, %constant.1695.clone.23), padding=0_0x0_0x0_0x0_64, metadata={op_name="jit(train_step)/transpose(jvp())/while/body/closed_call/checkpoint/rematted_computation/concatenate" stack_frame_id=0}
  %convert.596 = f32[1,128,128,192]{3,1,2,0:T(8,128)} convert(%pad.290)
  %param_1.4736 = bf16[1,128,128,32]{3,1,2,0:T(8,128)(2,1)} parameter(1)
  %pad.289 = bf16[1,128,128,192]{3,1,2,0:T(8,128)(2,1)} pad(%param_1.4736, %constant.1695.clone.23), padding=0_0x0_0x0_0x128_32, metadata={op_name="jit(train_step)/transpose(jvp())/while/body/closed_call/checkpoint/rematted_computation/concatenate" stack_frame_id=0}
  %convert.597 = f32[1,128,128,192]{3,1,2,0:T(8,128)} convert(%pad.289)
  %maximum.54 = f32[1,128,128,192]{3,1,2,0:T(8,128)} maximum(%convert.596, %convert.597), metadata={op_name="jit(train_step)/transpose(jvp())/while/body/closed_call/checkpoint/rematted_computation/concatenate" stack_frame_id=0}, backend_config={"flag_configs":[],"scoped_memory_configs":[],"used_scoped_memory_configs":[],"float_type_correction_info":{"original_type":"BF16","original_shape":{"element_type":"BF16","dimensions":["1","128","128","192"],"tuple_shapes":[],"layout":{"minor_to_major":["3","1","2","0"],"tiles":[{"dimensions":["8","128"]},{"dimensions":["2","1"]}],"element_size_in_bits":"0","memory_space":"0","dim_level_types":[],"index_primitive_type":"PRIMITIVE_TYPE_INVALID","pointer_primitive_type":"PRIMITIVE_TYPE_INVALID","dim_unique":[],"dim_ordered":[],"dynamic_shape_metadata_prefix_bytes":"0","tail_padding_alignment_in_elements":"1","split_configs":[]},"is_dynamic_dimension":[false,false,false,false]}}}
  %param_0.2062 = bf16[1,128,128,32]{3,1,2,0:T(8,128)(2,1)} parameter(0)
  %pad.288 = bf16[1,128,128,192]{3,1,2,0:T(8,128)(2,1)} pad(%param_0.2062, %constant.1695.clone.23), padding=0_0x0_0x0_0x160_0, metadata={op_name="jit(train_step)/transpose(jvp())/while/body/closed_call/checkpoint/rematted_computation/concatenate" stack_frame_id=0}
  %convert.598 = f32[1,128,128,192]{3,1,2,0:T(8,128)} convert(%pad.288)
  %maximum.53 = f32[1,128,128,192]{3,1,2,0:T(8,128)} maximum(%maximum.54, %convert.598), metadata={op_name="jit(train_step)/transpose(jvp())/while/body/closed_call/checkpoint/rematted_computation/concatenate" stack_frame_id=0}, backend_config={"flag_configs":[],"scoped_memory_configs":[],"used_scoped_memory_configs":[],"float_type_correction_info":{"original_type":"BF16","original_shape":{"element_type":"BF16","dimensions":["1","128","128","192"],"tuple_shapes":[],"layout":{"minor_to_major":["3","1","2","0"],"tiles":[{"dimensions":["8","128"]},{"dimensions":["2","1"]}],"element_size_in_bits":"0","memory_space":"0","dim_level_types":[],"index_primitive_type":"PRIMITIVE_TYPE_INVALID","pointer_primitive_type":"PRIMITIVE_TYPE_INVALID","dim_unique":[],"dim_ordered":[],"dynamic_shape_metadata_prefix_bytes":"0","tail_padding_alignment_in_elements":"1","split_configs":[]},"is_dynamic_dimension":[false,false,false,false]}}}
  %constant.1633.clone.2 = bf16[]{:T(256)} constant(0.1348), metadata={stack_frame_id=0}
  %mul.4573 = bf16[1,128,128,192]{3,1,2,0:T(8,128)(2,1)} broadcast(%constant.1633.clone.2), dimensions={}, metadata={op_name="jit(train_step)/jvp()/while/body/closed_call/mul" stack_frame_id=0}
  %convert.599 = f32[1,128,128,192]{3,1,2,0:T(8,128)} convert(%mul.4573)
  %mul.4457 = f32[1,128,128,192]{3,1,2,0:T(8,128)} multiply(%maximum.53, %convert.599), metadata={op_name="jit(train_step)/transpose(jvp())/while/body/closed_call/checkpoint/rematted_computation/mul" stack_frame_id=0}, backend_config={"flag_configs":[],"scoped_memory_configs":[],"used_scoped_memory_configs":[],"float_type_correction_info":{"original_type":"BF16","original_shape":{"element_type":"BF16","dimensions":["1","128","128","192"],"tuple_shapes":[],"layout":{"minor_to_major":["3","1","2","0"],"tiles":[{"dimensions":["8","128"]},{"dimensions":["2","1"]}],"element_size_in_bits":"0","memory_space":"0","dim_level_types":[],"index_primitive_type":"PRIMITIVE_TYPE_INVALID","pointer_primitive_type":"PRIMITIVE_TYPE_INVALID","dim_unique":[],"dim_ordered":[],"dynamic_shape_metadata_prefix_bytes":"0","tail_padding_alignment_in_elements":"1","split_configs":[]},"is_dynamic_dimension":[false,false,false,false]}}}
  %convert.600 = bf16[1,128,128,192]{3,1,2,0:T(8,128)(2,1)} convert(%mul.4457)
  ROOT %bitcast.1302 = bf16[128,128,192]{2,1,0:T(8,128)(2,1)S(1)} bitcast(%convert.600), metadata={op_name="jit(train_step)/transpose(jvp())/while/body/closed_call/checkpoint/rematted_computation/shard_map/vmap(static_sparsity_splash)/jit(_splash_attention)/splash_mha_fwd_segmented_residuals/splash_mha_fwd_segmented_residuals/squeeze" stack_frame_id=0}
}

%fused_computation.965 (param_0.2778: bf16[1,128,512]) -> bf16[128,512] {
  %param_0.2778 = bf16[1,128,512]{2,1,0:T(8,128)(2,1)S(1)} parameter(0)
  ROOT %bitcast.1683 = bf16[128,512]{1,0:T(8,128)(2,1)} bitcast(%param_0.2778), metadata={stack_frame_id=0}
}

%fused_computation.773.clone.clone (param_0.2247: bf16[512,1,576]) -> bf16[512,576] {
  %param_0.2247 = bf16[512,1,576]{0,2,1:T(8,128)(2,1)S(1)} parameter(0)
  ROOT %bitcast.1474 = bf16[512,576]{0,1:T(8,128)(2,1)} bitcast(%param_0.2247), metadata={op_name="jit(train_step)/jvp()/while/body/closed_call/dot_general" stack_frame_id=0}
}

%fused_computation.777 (param_0.2777: bf16[512,1,576], param_1.3051: bf16[1,128,512]) -> bf16[1,128,576] {
  %param_1.3051 = bf16[1,128,512]{2,1,0:T(8,128)(2,1)S(1)} parameter(1)
  %fusion.676 = bf16[128,512]{1,0:T(8,128)(2,1)} fusion(%param_1.3051), kind=kLoop, calls=%fused_computation.965, metadata={stack_frame_id=0}
  %param_0.2777 = bf16[512,1,576]{0,2,1:T(8,128)(2,1)S(1)} parameter(0)
  %fusion.502 = bf16[512,576]{0,1:T(8,128)(2,1)} fusion(%param_0.2777), kind=kLoop, calls=%fused_computation.773.clone.clone, metadata={op_name="jit(train_step)/jvp()/while/body/closed_call/dot_general" stack_frame_id=0}
  %convolution.205 = bf16[128,576]{0,1:T(8,128)(2,1)} convolution(%fusion.676, %fusion.502), dim_labels=bf_io->bf, metadata={op_name="jit(train_step)/transpose(jvp())/while/body/closed_call/checkpoint/rematted_computation/dot_general" stack_frame_id=0}
  ROOT %bitcast.1472 = bf16[1,128,576]{1,2,0:T(8,128)(2,1)S(1)} bitcast(%convolution.205), metadata={op_name="jit(train_step)/transpose(jvp())/while/body/closed_call/checkpoint/rematted_computation/dot_general" stack_frame_id=0}
}

%fused_computation.1410 (param_0.4289: bf16[1,128,1,32,2]) -> (bf16[1,128,1,32,1], bf16[1,128,1,32,1]) {
  %param_0.4289 = bf16[1,128,1,32,2]{1,4,3,2,0:T(2,128)(2,1)S(1)} parameter(0)
  %slice.1347 = bf16[1,128,1,32,1]{1,4,3,2,0:T(2,128)(2,1)S(1)} slice(%param_0.4289), slice={[0:1], [0:128], [0:1], [0:32], [0:1]}, metadata={op_name="jit(train_step)/transpose(jvp())/while/body/closed_call/checkpoint/rematted_computation/slice" stack_frame_id=0}
  %slice.1348 = bf16[1,128,1,32,1]{1,4,3,2,0:T(2,128)(2,1)S(1)} slice(%param_0.4289), slice={[0:1], [0:128], [0:1], [0:32], [1:2]}, metadata={op_name="jit(train_step)/transpose(jvp())/while/body/closed_call/checkpoint/rematted_computation/slice" stack_frame_id=0}
  ROOT %tuple.695 = (bf16[1,128,1,32,1]{1,4,3,2,0:T(2,128)(2,1)S(1)}, bf16[1,128,1,32,1]{1,4,3,2,0:T(2,128)(2,1)S(1)}) tuple(%slice.1347, %slice.1348)
}

%fused_computation.1019 (param_0.2939: f32[128,32], param_1.3284: f32[128,32], param_2.2326: bf16[1,128,1,32,1], param_3.1462: bf16[1,128,1,32,1]) -> (bf16[1,128,32], bf16[1,128,32]) {
  %param_3.1462 = bf16[1,128,1,32,1]{3,1,4,2,0:T(8,128)(2,1)S(1)} parameter(3)
  %convert_element_type.2825 = f32[1,128,1,32,1]{3,1,4,2,0:T(8,128)} convert(%param_3.1462), metadata={op_name="jit(train_step)/transpose(jvp())/while/body/closed_call/checkpoint/rematted_computation/convert_element_type" stack_frame_id=0}
  %bitcast.1746 = f32[1,128,32]{2,1,0:T(8,128)} bitcast(%convert_element_type.2825), metadata={op_name="jit(train_step)/transpose(jvp())/while/body/closed_call/checkpoint/rematted_computation/convert_element_type" stack_frame_id=0}
  %param_2.2326 = bf16[1,128,1,32,1]{3,1,4,2,0:T(8,128)(2,1)S(1)} parameter(2)
  %convert_element_type.2823 = f32[1,128,1,32,1]{3,1,4,2,0:T(8,128)} convert(%param_2.2326), metadata={op_name="jit(train_step)/transpose(jvp())/while/body/closed_call/checkpoint/rematted_computation/convert_element_type" stack_frame_id=0}
  %bitcast.1744 = f32[1,128,32]{2,1,0:T(8,128)} bitcast(%convert_element_type.2823), metadata={op_name="jit(train_step)/transpose(jvp())/while/body/closed_call/checkpoint/rematted_computation/convert_element_type" stack_frame_id=0}
  %constant.1686.clone.87 = f32[]{:T(128)} constant(0)
  %convert_element_type.2843 = f32[1,128,32]{2,1,0:T(8,128)} broadcast(%constant.1686.clone.87), dimensions={}, metadata={op_name="jit(train_step)/jvp()/while/body/closed_call/convert_element_type" stack_frame_id=0}
  %mul.5016 = f32[1,128,32]{2,1,0:T(8,128)} multiply(%bitcast.1744, %convert_element_type.2843), metadata={op_name="jit(train_step)/transpose(jvp())/while/body/closed_call/checkpoint/rematted_computation/mul" stack_frame_id=0}
  %add.3375 = f32[1,128,32]{2,1,0:T(8,128)} add(%bitcast.1746, %mul.5016), metadata={op_name="jit(train_step)/transpose(jvp())/while/body/closed_call/checkpoint/rematted_computation/add" stack_frame_id=0}
  %param_1.3284 = f32[128,32]{1,0:T(8,128)S(1)} parameter(1)
  %bitcast.1735 = f32[1,128,32]{2,1,0:T(8,128)} bitcast(%param_1.3284), metadata={op_name="jit(train_step)/transpose(jvp())/while/body/closed_call/checkpoint/rematted_computation/gather" stack_frame_id=0}
  %mul.5009 = f32[1,128,32]{2,1,0:T(8,128)} multiply(%add.3375, %bitcast.1735), metadata={op_name="jit(train_step)/transpose(jvp())/while/body/closed_call/checkpoint/rematted_computation/mul" stack_frame_id=0}
  %param_0.2939 = f32[128,32]{1,0:T(8,128)S(1)} parameter(0)
  %bitcast.1729 = f32[1,128,32]{2,1,0:T(8,128)} bitcast(%param_0.2939), metadata={op_name="jit(train_step)/transpose(jvp())/while/body/closed_call/checkpoint/rematted_computation/gather" stack_frame_id=0}
  %mul.5003 = f32[1,128,32]{2,1,0:T(8,128)} multiply(%bitcast.1744, %bitcast.1729), metadata={op_name="jit(train_step)/transpose(jvp())/while/body/closed_call/checkpoint/rematted_computation/mul" stack_frame_id=0}
  %mul.5002 = f32[1,128,32]{2,1,0:T(8,128)} subtract(%mul.5009, %mul.5003), metadata={op_name="jit(train_step)/transpose(jvp())/while/body/closed_call/checkpoint/rematted_computation/mul" stack_frame_id=0}
  %convert.424 = bf16[1,128,32]{2,1,0:T(8,128)(2,1)S(1)} convert(%mul.5002), metadata={op_name="convert.261" stack_frame_id=0}
  %mul.4996.clone.1 = f32[1,128,32]{2,1,0:T(8,128)} multiply(%add.3375, %bitcast.1729), metadata={op_name="jit(train_step)/transpose(jvp())/while/body/closed_call/checkpoint/rematted_computation/mul" stack_frame_id=0}
  %mul.5007.clone.1 = f32[1,128,32]{2,1,0:T(8,128)} multiply(%bitcast.1744, %bitcast.1735), metadata={op_name="jit(train_step)/transpose(jvp())/while/body/closed_call/checkpoint/rematted_computation/mul" stack_frame_id=0}
  %mul.4995.clone.1 = f32[1,128,32]{2,1,0:T(8,128)} add(%mul.4996.clone.1, %mul.5007.clone.1), metadata={op_name="jit(train_step)/transpose(jvp())/while/body/closed_call/checkpoint/rematted_computation/mul" stack_frame_id=0}
  %convert.423.clone.1 = bf16[1,128,32]{2,1,0:T(8,128)(2,1)S(1)} convert(%mul.4995.clone.1), metadata={op_name="convert.262" stack_frame_id=0}
  ROOT %tuple.686 = (bf16[1,128,32]{2,1,0:T(8,128)(2,1)S(1)}, bf16[1,128,32]{2,1,0:T(8,128)(2,1)S(1)}) tuple(%convert.424, %convert.423.clone.1)
}

%fused_computation.1058 (param_0.3054: bf16[1,128,32], param_1.4726: bf16[1,128,32]) -> bf16[128,64] {
  %param_1.4726 = bf16[1,128,32]{2,1,0:T(8,128)(2,1)S(1)} parameter(1)
  %constant.1695.clone.5 = bf16[]{:T(256)} constant(-inf)
  %pad.318 = bf16[1,128,64]{2,1,0:T(8,128)(2,1)} pad(%param_1.4726, %constant.1695.clone.5), padding=0_0x0_0x0_32, metadata={op_name="jit(train_step)/transpose(jvp())/while/body/closed_call/checkpoint/rematted_computation/concatenate" stack_frame_id=0}
  %convert.711 = f32[1,128,64]{2,1,0:T(8,128)} convert(%pad.318)
  %param_0.3054 = bf16[1,128,32]{2,1,0:T(8,128)(2,1)S(1)} parameter(0)
  %pad.317 = bf16[1,128,64]{2,1,0:T(8,128)(2,1)} pad(%param_0.3054, %constant.1695.clone.5), padding=0_0x0_0x32_0, metadata={op_name="jit(train_step)/transpose(jvp())/while/body/closed_call/checkpoint/rematted_computation/concatenate" stack_frame_id=0}
  %convert.712 = f32[1,128,64]{2,1,0:T(8,128)} convert(%pad.317)
  %maximum.66 = f32[1,128,64]{2,1,0:T(8,128)} maximum(%convert.711, %convert.712), metadata={op_name="jit(train_step)/transpose(jvp())/while/body/closed_call/checkpoint/rematted_computation/concatenate" stack_frame_id=0}, backend_config={"flag_configs":[],"scoped_memory_configs":[],"used_scoped_memory_configs":[],"float_type_correction_info":{"original_type":"BF16","original_shape":{"element_type":"BF16","dimensions":["1","128","64"],"tuple_shapes":[],"layout":{"minor_to_major":["2","1","0"],"tiles":[{"dimensions":["8","128"]},{"dimensions":["2","1"]}],"element_size_in_bits":"0","memory_space":"0","dim_level_types":[],"index_primitive_type":"PRIMITIVE_TYPE_INVALID","pointer_primitive_type":"PRIMITIVE_TYPE_INVALID","dim_unique":[],"dim_ordered":[],"dynamic_shape_metadata_prefix_bytes":"0","tail_padding_alignment_in_elements":"1","split_configs":[]},"is_dynamic_dimension":[false,false,false]}}}
  %convert.713 = bf16[1,128,64]{2,1,0:T(8,128)(2,1)} convert(%maximum.66)
  ROOT %bitcast.1786 = bf16[128,64]{1,0:T(8,128)(2,1)S(1)} bitcast(%convert.713), metadata={op_name="jit(train_step)/transpose(jvp())/while/body/closed_call/checkpoint/rematted_computation/concatenate" stack_frame_id=0}
}

%region_44.53 (reduce_sum.116: f32[], reduce_sum.117: f32[]) -> f32[] {
  %reduce_sum.116 = f32[]{:T(128)} parameter(0), metadata={op_name="jit(train_step)/transpose(jvp())/while/body/closed_call/checkpoint/rematted_computation/reduce_sum"}
  %reduce_sum.117 = f32[]{:T(128)} parameter(1), metadata={op_name="jit(train_step)/transpose(jvp())/while/body/closed_call/checkpoint/rematted_computation/reduce_sum"}
  ROOT %reduce_sum.118 = f32[]{:T(128)} add(%reduce_sum.116, %reduce_sum.117), metadata={op_name="checkpoint/rematted_computation/reduce_sum" stack_frame_id=0}, backend_config={"flag_configs":[],"scoped_memory_configs":[],"used_scoped_memory_configs":[],"aliasing_operands":{"lists":[]}}
}

%fused_computation.884 (param_0.4455: bf16[1,128,576]) -> f32[128] {
  %param_0.4455 = bf16[1,128,576]{1,2,0:T(8,128)(2,1)S(1)} parameter(0)
  %slice.1233 = bf16[1,128,512]{1,2,0:T(8,128)(2,1)} slice(%param_0.4455), slice={[0:1], [0:128], [0:512]}, metadata={op_name="jit(train_step)/transpose(jvp())/while/body/closed_call/checkpoint/rematted_computation/split" stack_frame_id=0}
  %convert_element_type.2720 = f32[1,128,512]{1,2,0:T(8,128)} convert(%slice.1233), metadata={op_name="jit(train_step)/transpose(jvp())/while/body/closed_call/checkpoint/rematted_computation/convert_element_type" stack_frame_id=0}
  %square.626 = f32[1,128,512]{1,2,0:T(8,128)} multiply(%convert_element_type.2720, %convert_element_type.2720), metadata={op_name="jit(train_step)/transpose(jvp())/while/body/closed_call/checkpoint/rematted_computation/square" stack_frame_id=0}
  %constant.1686.clone.86 = f32[]{:T(128)} constant(0)
  ROOT %reduce.707 = f32[128]{0:T(128)S(1)} reduce(%square.626, %constant.1686.clone.86), dimensions={0,2}, to_apply=%region_44.53, metadata={op_name="jit(train_step)/transpose(jvp())/while/body/closed_call/checkpoint/rematted_computation/reduce_sum" stack_frame_id=0}
}

%fused_computation.1311 (param_0.3962: f32[128]) -> f32[128] {
  %param_0.3962 = f32[128]{0:T(128)S(1)} parameter(0)
  %constant.1692.clone.7 = f32[]{:T(128)} constant(0.001953125)
  %broadcast.4244 = f32[128]{0:T(128)} broadcast(%constant.1692.clone.7), dimensions={}, metadata={op_name="jit(train_step)/jvp()/while/body/closed_call" stack_frame_id=0}
  %div.2483 = f32[128]{0:T(128)} multiply(%param_0.3962, %broadcast.4244), metadata={op_name="jit(train_step)/transpose(jvp())/while/body/closed_call/checkpoint/rematted_computation/div" stack_frame_id=0}
  %constant.1693.clone.9 = f32[]{:T(128)} constant(1e-06)
  %broadcast.4233 = f32[128]{0:T(128)} broadcast(%constant.1693.clone.9), dimensions={}, metadata={op_name="jit(train_step)/jvp()/while/body/closed_call" stack_frame_id=0}
  %add.3593 = f32[128]{0:T(128)} add(%div.2483, %broadcast.4233), metadata={op_name="jit(train_step)/transpose(jvp())/while/body/closed_call/checkpoint/rematted_computation/add" stack_frame_id=0}
  %bitcast.1911 = f32[1,128]{1,0:T(1,128)} bitcast(%add.3593), metadata={op_name="jit(train_step)/transpose(jvp())/while/body/closed_call/checkpoint/rematted_computation/add" stack_frame_id=0}
  %rsqrt.305 = f32[1,128]{1,0:T(1,128)} rsqrt(%bitcast.1911), metadata={op_name="jit(train_step)/transpose(jvp())/while/body/closed_call/checkpoint/rematted_computation/rsqrt" stack_frame_id=0}
  ROOT %bitcast.1883 = f32[128]{0:T(128)S(1)} bitcast(%rsqrt.305), metadata={op_name="jit(train_step)/transpose(jvp())/while/body/closed_call/checkpoint/rematted_computation/rsqrt" stack_frame_id=0}
}

%fused_computation.950 (param_0.2996: f32[128], param_1.3342: bf16[1,128,576], param_2.2360: bf16[512]) -> bf16[128,512,1] {
  %param_1.3342 = bf16[1,128,576]{1,2,0:T(8,128)(2,1)S(1)} parameter(1)
  %slice.1230 = bf16[1,128,512]{1,2,0:T(8,128)(2,1)} slice(%param_1.3342), slice={[0:1], [0:128], [0:512]}, metadata={op_name="jit(train_step)/transpose(jvp())/while/body/closed_call/checkpoint/rematted_computation/split" stack_frame_id=0}
  %convert_element_type.2801 = f32[1,128,512]{1,2,0:T(8,128)} convert(%slice.1230), metadata={op_name="jit(train_step)/transpose(jvp())/while/body/closed_call/checkpoint/rematted_computation/convert_element_type" stack_frame_id=0}
  %param_0.2996 = f32[128]{0:T(128)S(1)} parameter(0)
  %mul.4939 = f32[1,128,512]{1,2,0:T(8,128)} broadcast(%param_0.2996), dimensions={1}, metadata={op_name="jit(train_step)/transpose(jvp())/while/body/closed_call/checkpoint/rematted_computation/mul" stack_frame_id=0}
  %mul.4938 = f32[1,128,512]{1,2,0:T(8,128)} multiply(%convert_element_type.2801, %mul.4939), metadata={op_name="jit(train_step)/transpose(jvp())/while/body/closed_call/checkpoint/rematted_computation/mul" stack_frame_id=0}
  %convert_element_type.2800 = bf16[1,128,512]{1,2,0:T(8,128)(2,1)} convert(%mul.4938), metadata={op_name="jit(train_step)/transpose(jvp())/while/body/closed_call/checkpoint/rematted_computation/convert_element_type" stack_frame_id=0}
  %convert.744 = f32[1,128,512]{1,2,0:T(8,128)} convert(%convert_element_type.2800)
  %param_2.2360 = bf16[512]{0:T(512)(128)(2,1)S(1)} parameter(2)
  %mul.5059 = bf16[1,128,512]{1,2,0:T(8,128)(2,1)} broadcast(%param_2.2360), dimensions={2}, metadata={op_name="jit(train_step)/jvp()/while/body/closed_call/mul" stack_frame_id=0}
  %convert.745 = f32[1,128,512]{1,2,0:T(8,128)} convert(%mul.5059)
  %mul.4913 = f32[1,128,512]{1,2,0:T(8,128)} multiply(%convert.744, %convert.745), metadata={op_name="jit(train_step)/transpose(jvp())/while/body/closed_call/checkpoint/rematted_computation/mul" stack_frame_id=0}, backend_config={"flag_configs":[],"scoped_memory_configs":[],"used_scoped_memory_configs":[],"float_type_correction_info":{"original_type":"BF16","original_shape":{"element_type":"BF16","dimensions":["1","128","512"],"tuple_shapes":[],"layout":{"minor_to_major":["1","2","0"],"tiles":[{"dimensions":["8","128"]},{"dimensions":["2","1"]}],"element_size_in_bits":"0","memory_space":"0","dim_level_types":[],"index_primitive_type":"PRIMITIVE_TYPE_INVALID","pointer_primitive_type":"PRIMITIVE_TYPE_INVALID","dim_unique":[],"dim_ordered":[],"dynamic_shape_metadata_prefix_bytes":"0","tail_padding_alignment_in_elements":"1","split_configs":[]},"is_dynamic_dimension":[false,false,false]}}}
  %convert.746 = bf16[1,128,512]{1,2,0:T(8,128)(2,1)} convert(%mul.4913)
  ROOT %bitcast.1660 = bf16[128,512,1]{0,1,2:T(8,128)(2,1)} bitcast(%convert.746)
}

%fused_computation.587.clone.clone (param_0.2031: bf16[512,1,128,256]) -> bf16[512,128,256] {
  %param_0.2031 = bf16[512,1,128,256]{3,0,2,1:T(8,128)(2,1)S(1)} parameter(0)
  ROOT %bitcast.1382 = bf16[512,128,256]{2,0,1:T(8,128)(2,1)} bitcast(%param_0.2031), metadata={op_name="jit(train_step)/jvp()/while/body/closed_call/dot_general" stack_frame_id=0}
}

%fused_computation.693 (param_0.2750: bf16[512,1,128,256], param_1.3341: f32[128], param_2.2359: bf16[1,128,576], param_3.1402: bf16[512]) -> bf16[1,128,128,256] {
  %param_1.3341 = f32[128]{0:T(128)S(1)} parameter(1)
  %param_2.2359 = bf16[1,128,576]{1,2,0:T(8,128)(2,1)S(1)} parameter(2)
  %param_3.1402 = bf16[512]{0:T(512)(128)(2,1)S(1)} parameter(3)
  %fusion.663 = bf16[128,512,1]{0,1,2:T(8,128)(2,1)} fusion(%param_1.3341, %param_2.2359, %param_3.1402), kind=kLoop, calls=%fused_computation.950
  %param_0.2750 = bf16[512,1,128,256]{3,0,2,1:T(8,128)(2,1)S(1)} parameter(0)
  %fusion.450 = bf16[512,128,256]{2,0,1:T(8,128)(2,1)} fusion(%param_0.2750), kind=kLoop, calls=%fused_computation.587.clone.clone, metadata={op_name="jit(train_step)/jvp()/while/body/closed_call/dot_general" stack_frame_id=0}
  %convolution.179 = bf16[128,128,256]{2,0,1:T(8,128)(2,1)} convolution(%fusion.663, %fusion.450), window={size=128 pad=127_127 rhs_reversal=1}, dim_labels=bf0_i0o->b0f, metadata={op_name="jit(train_step)/transpose(jvp())/while/body/closed_call/checkpoint/rematted_computation/dot_general" stack_frame_id=0}
  ROOT %bitcast.1380 = bf16[1,128,128,256]{3,1,2,0:T(8,128)(2,1)} bitcast(%convolution.179), metadata={op_name="jit(train_step)/transpose(jvp())/while/body/closed_call/checkpoint/rematted_computation/dot_general" stack_frame_id=0}
}

%fused_computation.700 (param_0.2052: bf16[1,128,128,256]) -> (bf16[128,128,128], bf16[1,128,128,128]) {
  %param_0.2052 = bf16[1,128,128,256]{3,1,2,0:T(8,128)(2,1)} parameter(0)
  %slice.1215 = bf16[1,128,128,128]{3,1,2,0:T(8,128)(2,1)} slice(%param_0.2052), slice={[0:1], [0:128], [0:128], [128:256]}, metadata={op_name="jit(train_step)/transpose(jvp())/while/body/closed_call/checkpoint/rematted_computation/split" stack_frame_id=0}
  %bitcast.1387 = bf16[128,128,128]{2,1,0:T(8,128)(2,1)S(1)} bitcast(%slice.1215), metadata={op_name="jit(train_step)/transpose(jvp())/while/body/closed_call/checkpoint/rematted_computation/shard_map/vmap(static_sparsity_splash)/jit(_splash_attention)/splash_mha_fwd_segmented_residuals/splash_mha_fwd_segmented_residuals/squeeze" stack_frame_id=0}
  %slice.1341 = bf16[1,128,128,128]{3,1,2,0:T(8,128)(2,1)S(1)} slice(%param_0.2052), slice={[0:1], [0:128], [0:128], [0:128]}, metadata={op_name="jit(train_step)/transpose(jvp())/while/body/closed_call/checkpoint/rematted_computation/split" stack_frame_id=0}
  ROOT %tuple.671 = (bf16[128,128,128]{2,1,0:T(8,128)(2,1)S(1)}, bf16[1,128,128,128]{3,1,2,0:T(8,128)(2,1)S(1)}) tuple(%bitcast.1387, %slice.1341)
}

%fused_computation.653 (param_0.1908: bf16[1,128,128,64], param_1.4728: bf16[1,128,128,128]) -> bf16[128,128,192] {
  %param_1.4728 = bf16[1,128,128,128]{3,1,2,0:T(8,128)(2,1)S(1)} parameter(1)
  %constant.1695.clone.7 = bf16[]{:T(256)} constant(-inf)
  %pad.292 = bf16[1,128,128,192]{3,1,2,0:T(8,128)(2,1)} pad(%param_1.4728, %constant.1695.clone.7), padding=0_0x0_0x0_0x0_64, metadata={op_name="jit(train_step)/transpose(jvp())/while/body/closed_call/checkpoint/rematted_computation/concatenate" stack_frame_id=0}
  %convert.601 = f32[1,128,128,192]{3,1,2,0:T(8,128)} convert(%pad.292)
  %param_0.1908 = bf16[1,128,128,64]{3,1,2,0:T(8,128)(2,1)S(1)} parameter(0)
  %pad.291 = bf16[1,128,128,192]{3,1,2,0:T(8,128)(2,1)} pad(%param_0.1908, %constant.1695.clone.7), padding=0_0x0_0x0_0x128_0, metadata={op_name="jit(train_step)/transpose(jvp())/while/body/closed_call/checkpoint/rematted_computation/concatenate" stack_frame_id=0}
  %convert.602 = f32[1,128,128,192]{3,1,2,0:T(8,128)} convert(%pad.291)
  %maximum.55 = f32[1,128,128,192]{3,1,2,0:T(8,128)} maximum(%convert.601, %convert.602), metadata={op_name="jit(train_step)/transpose(jvp())/while/body/closed_call/checkpoint/rematted_computation/concatenate" stack_frame_id=0}, backend_config={"flag_configs":[],"scoped_memory_configs":[],"used_scoped_memory_configs":[],"float_type_correction_info":{"original_type":"BF16","original_shape":{"element_type":"BF16","dimensions":["1","128","128","192"],"tuple_shapes":[],"layout":{"minor_to_major":["3","1","2","0"],"tiles":[{"dimensions":["8","128"]},{"dimensions":["2","1"]}],"element_size_in_bits":"0","memory_space":"0","dim_level_types":[],"index_primitive_type":"PRIMITIVE_TYPE_INVALID","pointer_primitive_type":"PRIMITIVE_TYPE_INVALID","dim_unique":[],"dim_ordered":[],"dynamic_shape_metadata_prefix_bytes":"0","tail_padding_alignment_in_elements":"1","split_configs":[]},"is_dynamic_dimension":[false,false,false,false]}}}
  %convert.603 = bf16[1,128,128,192]{3,1,2,0:T(8,128)(2,1)} convert(%maximum.55)
  ROOT %bitcast.1303 = bf16[128,128,192]{2,1,0:T(8,128)(2,1)S(1)} bitcast(%convert.603), metadata={op_name="jit(train_step)/transpose(jvp())/while/body/closed_call/checkpoint/rematted_computation/shard_map/vmap(static_sparsity_splash)/jit(_splash_attention)/splash_mha_fwd_segmented_residuals/splash_mha_fwd_segmented_residuals/squeeze" stack_frame_id=0}
}

%fused_computation.705.clone.clone.clone.clone.clone.clone.clone.clone (param_0.4307: bf16[128,128,128]) -> bf16[128,128,128] {
  %param_0.4307 = bf16[128,128,128]{2,1,0:T(8,128)(2,1)S(1)} parameter(0)
  ROOT %bitcast.2058 = bf16[128,128,128]{2,0,1:T(8,128)(2,1)} bitcast(%param_0.4307)
}

%fused_computation.635.clone.clone.clone.clone.clone.clone.clone.clone (param_0.4306: bf16[128,1,128,512]) -> bf16[128,128,512] {
  %param_0.4306 = bf16[128,1,128,512]{3,2,0,1:T(8,128)(2,1)S(1)} parameter(0)
  ROOT %bitcast.2057 = bf16[128,128,512]{2,1,0:T(8,128)(2,1)} bitcast(%param_0.4306), metadata={op_name="jit(train_step)/jvp()/while/body/closed_call/dot_general" stack_frame_id=0}
}

%region_45.56 (reduce_sum.122: f32[], reduce_sum.123: f32[]) -> f32[] {
  %reduce_sum.122 = f32[]{:T(128)} parameter(0), metadata={op_name="jit(train_step)/transpose(jvp())/while/body/closed_call/checkpoint/rematted_computation/reduce_sum"}
  %reduce_sum.123 = f32[]{:T(128)} parameter(1), metadata={op_name="jit(train_step)/transpose(jvp())/while/body/closed_call/checkpoint/rematted_computation/reduce_sum"}
  ROOT %reduce_sum.124 = f32[]{:T(128)} add(%reduce_sum.122, %reduce_sum.123), metadata={op_name="checkpoint/rematted_computation/reduce_sum" stack_frame_id=0}, backend_config={"flag_configs":[],"scoped_memory_configs":[],"used_scoped_memory_configs":[],"aliasing_operands":{"lists":[]}}
}

%fused_computation.909 (param_0.4454: bf16[1,128,512], param_1.5194: bf16[128,1,128,512], param_2.4165: bf16[128,128,128]) -> (f32[128], f32[1,128,512]) {
  %param_0.4454 = bf16[1,128,512]{2,1,0:T(8,128)(2,1)S(1)} parameter(0)
  %convert.647 = f32[1,128,512]{2,1,0:T(8,128)} convert(%param_0.4454)
  %param_2.4165 = bf16[128,128,128]{2,1,0:T(8,128)(2,1)S(1)} parameter(2)
  %fusion.587.clone.1 = bf16[128,128,128]{2,0,1:T(8,128)(2,1)} fusion(%param_2.4165), kind=kLoop, calls=%fused_computation.705.clone.clone.clone.clone.clone.clone.clone.clone
  %param_1.5194 = bf16[128,1,128,512]{3,2,0,1:T(8,128)(2,1)S(1)} parameter(1)
  %fusion.586.clone.1 = bf16[128,128,512]{2,1,0:T(8,128)(2,1)} fusion(%param_1.5194), kind=kLoop, calls=%fused_computation.635.clone.clone.clone.clone.clone.clone.clone.clone, metadata={op_name="jit(train_step)/jvp()/while/body/closed_call/dot_general" stack_frame_id=0}
  %convolution.257.clone.1 = bf16[128,512,1]{1,0,2:T(8,128)(2,1)} convolution(%fusion.587.clone.1, %fusion.586.clone.1), window={size=128}, dim_labels=b0f_0io->bf0, metadata={op_name="jit(train_step)/transpose(jvp())/while/body/closed_call/checkpoint/rematted_computation/dot_general" stack_frame_id=0}
  %bitcast.1565.clone.1 = bf16[1,128,512]{2,1,0:T(8,128)(2,1)} bitcast(%convolution.257.clone.1), metadata={op_name="jit(train_step)/transpose(jvp())/while/body/closed_call/checkpoint/rematted_computation/dot_general" stack_frame_id=0}
  %convert.648 = f32[1,128,512]{2,1,0:T(8,128)} convert(%bitcast.1565.clone.1)
  %add.3319.clone.1 = f32[1,128,512]{2,1,0:T(8,128)} add(%convert.647, %convert.648), metadata={op_name="jit(train_step)/transpose(jvp())/while/body/closed_call/checkpoint/rematted_computation/add" stack_frame_id=0}, backend_config={"flag_configs":[],"scoped_memory_configs":[],"used_scoped_memory_configs":[],"float_type_correction_info":{"original_type":"BF16","original_shape":{"element_type":"BF16","dimensions":["1","128","512"],"tuple_shapes":[],"layout":{"minor_to_major":["2","1","0"],"tiles":[{"dimensions":["8","128"]},{"dimensions":["2","1"]}],"element_size_in_bits":"0","memory_space":"0","dim_level_types":[],"index_primitive_type":"PRIMITIVE_TYPE_INVALID","pointer_primitive_type":"PRIMITIVE_TYPE_INVALID","dim_unique":[],"dim_ordered":[],"dynamic_shape_metadata_prefix_bytes":"0","tail_padding_alignment_in_elements":"1","split_configs":[]},"is_dynamic_dimension":[false,false,false]}}}
  %convert_element_type.2663.clone.1 = f32[1,128,512]{2,1,0:T(8,128)S(1)} convert(%add.3319.clone.1), metadata={op_name="jit(train_step)/transpose(jvp())/while/body/closed_call/checkpoint/rematted_computation/convert_element_type" stack_frame_id=0}
  %square.638 = f32[1,128,512]{2,1,0:T(8,128)} multiply(%convert_element_type.2663.clone.1, %convert_element_type.2663.clone.1), metadata={op_name="jit(train_step)/transpose(jvp())/while/body/closed_call/checkpoint/rematted_computation/square" stack_frame_id=0}
  %constant.1686.clone.85 = f32[]{:T(128)} constant(0)
  %reduce.714 = f32[128]{0:T(128)S(1)} reduce(%square.638, %constant.1686.clone.85), dimensions={0,2}, to_apply=%region_45.56, metadata={op_name="jit(train_step)/transpose(jvp())/while/body/closed_call/checkpoint/rematted_computation/reduce_sum" stack_frame_id=0}
  ROOT %tuple.723 = (f32[128]{0:T(128)S(1)}, f32[1,128,512]{2,1,0:T(8,128)S(1)}) tuple(%reduce.714, %convert_element_type.2663.clone.1)
}

%fused_computation.1309 (param_0.3964: f32[128]) -> f32[128] {
  %param_0.3964 = f32[128]{0:T(128)S(1)} parameter(0)
  %constant.1692.clone.6 = f32[]{:T(128)} constant(0.001953125)
  %broadcast.4245 = f32[128]{0:T(128)} broadcast(%constant.1692.clone.6), dimensions={}, metadata={op_name="jit(train_step)/jvp()/while/body/closed_call" stack_frame_id=0}
  %div.2487 = f32[128]{0:T(128)} multiply(%param_0.3964, %broadcast.4245), metadata={op_name="jit(train_step)/transpose(jvp())/while/body/closed_call/checkpoint/rematted_computation/div" stack_frame_id=0}
  %constant.1693.clone.7 = f32[]{:T(128)} constant(1e-06)
  %broadcast.4235 = f32[128]{0:T(128)} broadcast(%constant.1693.clone.7), dimensions={}, metadata={op_name="jit(train_step)/jvp()/while/body/closed_call" stack_frame_id=0}
  %add.3597 = f32[128]{0:T(128)} add(%div.2487, %broadcast.4235), metadata={op_name="jit(train_step)/transpose(jvp())/while/body/closed_call/checkpoint/rematted_computation/add" stack_frame_id=0}
  %bitcast.1909 = f32[1,128]{1,0:T(1,128)} bitcast(%add.3597), metadata={op_name="jit(train_step)/transpose(jvp())/while/body/closed_call/checkpoint/rematted_computation/add" stack_frame_id=0}
  %rsqrt.303 = f32[1,128]{1,0:T(1,128)} rsqrt(%bitcast.1909), metadata={op_name="jit(train_step)/transpose(jvp())/while/body/closed_call/checkpoint/rematted_computation/rsqrt" stack_frame_id=0}
  ROOT %bitcast.1882 = f32[128]{0:T(128)S(1)} bitcast(%rsqrt.303), metadata={op_name="jit(train_step)/transpose(jvp())/while/body/closed_call/checkpoint/rematted_computation/rsqrt" stack_frame_id=0}
}

%fused_computation.987 (param_0.3094: bf16[512], param_1.3447: f32[1,128,512], param_2.2458: f32[128], param_3.2756: f32[128], param_4.2066: bf16[1,128,512]) -> (bf16[128,512], bf16[128,512]) {
  %param_1.3447 = f32[1,128,512]{2,1,0:T(8,128)S(1)} parameter(1)
  %param_2.2458 = f32[128]{0:T(128)S(1)} parameter(2)
  %mul.5130 = f32[1,128,512]{2,1,0:T(8,128)} broadcast(%param_2.2458), dimensions={1}, metadata={op_name="jit(train_step)/transpose(jvp())/while/body/closed_call/checkpoint/rematted_computation/mul" stack_frame_id=0}
  %mul.5129 = f32[1,128,512]{2,1,0:T(8,128)} multiply(%param_1.3447, %mul.5130), metadata={op_name="jit(train_step)/transpose(jvp())/while/body/closed_call/checkpoint/rematted_computation/mul" stack_frame_id=0}
  %convert_element_type.2850 = bf16[1,128,512]{2,1,0:T(8,128)(2,1)} convert(%mul.5129), metadata={op_name="jit(train_step)/transpose(jvp())/while/body/closed_call/checkpoint/rematted_computation/convert_element_type" stack_frame_id=0}
  %convert.680 = f32[1,128,512]{2,1,0:T(8,128)} convert(%convert_element_type.2850)
  %param_0.3094 = bf16[512]{0:T(512)(128)(2,1)S(1)} parameter(0)
  %mul.5048 = bf16[1,128,512]{2,1,0:T(8,128)(2,1)} broadcast(%param_0.3094), dimensions={2}, metadata={op_name="jit(train_step)/jvp()/while/body/closed_call/mul" stack_frame_id=0}
  %convert.681 = f32[1,128,512]{2,1,0:T(8,128)} convert(%mul.5048)
  %mul.4882 = f32[1,128,512]{2,1,0:T(8,128)} multiply(%convert.680, %convert.681), metadata={op_name="jit(train_step)/transpose(jvp())/while/body/closed_call/checkpoint/rematted_computation/mul" stack_frame_id=0}, backend_config={"flag_configs":[],"scoped_memory_configs":[],"used_scoped_memory_configs":[],"float_type_correction_info":{"original_type":"BF16","original_shape":{"element_type":"BF16","dimensions":["1","128","512"],"tuple_shapes":[],"layout":{"minor_to_major":["2","1","0"],"tiles":[{"dimensions":["8","128"]},{"dimensions":["2","1"]}],"element_size_in_bits":"0","memory_space":"0","dim_level_types":[],"index_primitive_type":"PRIMITIVE_TYPE_INVALID","pointer_primitive_type":"PRIMITIVE_TYPE_INVALID","dim_unique":[],"dim_ordered":[],"dynamic_shape_metadata_prefix_bytes":"0","tail_padding_alignment_in_elements":"1","split_configs":[]},"is_dynamic_dimension":[false,false,false]}}}
  %convert.682 = bf16[1,128,512]{2,1,0:T(8,128)(2,1)} convert(%mul.4882)
  %bitcast.1690 = bf16[128,512]{1,0:T(8,128)(2,1)S(1)} bitcast(%convert.682), metadata={stack_frame_id=0}
  %param_4.2066 = bf16[1,128,512]{2,1,0:T(8,128)(2,1)S(1)} parameter(4)
  %convert_element_type.2763.clone.1 = f32[1,128,512]{2,1,0:T(8,128)} convert(%param_4.2066), metadata={op_name="jit(train_step)/jvp()/while/body/closed_call/convert_element_type" stack_frame_id=0}
  %param_3.2756 = f32[128]{0:T(128)S(1)} parameter(3)
  %mul.4862.clone.1 = f32[1,128,512]{2,1,0:T(8,128)} broadcast(%param_3.2756), dimensions={1}, metadata={op_name="jit(train_step)/jvp()/while/body/closed_call/mul" stack_frame_id=0}
  %mul.4834.clone.1 = f32[1,128,512]{2,1,0:T(8,128)} multiply(%convert_element_type.2763.clone.1, %mul.4862.clone.1), metadata={op_name="jit(train_step)/jvp()/while/body/closed_call/mul" stack_frame_id=0}
  %convert_element_type.2762.clone.1 = bf16[1,128,512]{2,1,0:T(8,128)(2,1)} convert(%mul.4834.clone.1), metadata={op_name="jit(train_step)/jvp()/while/body/closed_call/convert_element_type" stack_frame_id=0}
  %convert.683 = f32[1,128,512]{2,1,0:T(8,128)} convert(%convert_element_type.2762.clone.1)
  %mul.4833.clone.1 = f32[1,128,512]{2,1,0:T(8,128)} multiply(%convert.683, %convert.681), metadata={op_name="jit(train_step)/jvp()/while/body/closed_call/mul" stack_frame_id=0}, backend_config={"flag_configs":[],"scoped_memory_configs":[],"used_scoped_memory_configs":[],"float_type_correction_info":{"original_type":"BF16","original_shape":{"element_type":"BF16","dimensions":["1","128","512"],"tuple_shapes":[],"layout":{"minor_to_major":["2","1","0"],"tiles":[{"dimensions":["8","128"]},{"dimensions":["2","1"]}],"element_size_in_bits":"0","memory_space":"0","dim_level_types":[],"index_primitive_type":"PRIMITIVE_TYPE_INVALID","pointer_primitive_type":"PRIMITIVE_TYPE_INVALID","dim_unique":[],"dim_ordered":[],"dynamic_shape_metadata_prefix_bytes":"0","tail_padding_alignment_in_elements":"1","split_configs":[]},"is_dynamic_dimension":[false,false,false]}}}
  %convert.684 = bf16[1,128,512]{2,1,0:T(8,128)(2,1)} convert(%mul.4833.clone.1)
  %bitcast.1652.clone.1 = bf16[128,512]{1,0:T(8,128)(2,1)S(1)} bitcast(%convert.684), metadata={op_name="jit(train_step)/jvp()/while/body/closed_call/shard_map/reshape" stack_frame_id=0}
  ROOT %tuple.706 = (bf16[128,512]{1,0:T(8,128)(2,1)S(1)}, bf16[128,512]{1,0:T(8,128)(2,1)S(1)}) tuple(%bitcast.1690, %bitcast.1652.clone.1)
}

%bitcast_fusion.5 (bitcast_input.5: bf16[128,512]) -> bf16[128,512] {
  %bitcast_input.5 = bf16[128,512]{1,0:T(8,128)(2,1)S(1)} parameter(0)
  ROOT %bitcast.2118 = bf16[128,512]{1,0:T(8,128)(2,1)} bitcast(%bitcast_input.5)
}

%fused_computation.898.clone.clone (param_0.4318: bf16[512,1,256]) -> bf16[512,256] {
  %param_0.4318 = bf16[512,1,256]{2,0,1:T(8,128)(2,1)S(1)} parameter(0)
  ROOT %bitcast.2068 = bf16[512,256]{1,0:T(8,128)(2,1)} bitcast(%param_0.4318), metadata={op_name="jit(train_step)/jvp()/while/body/closed_call/dot_general" stack_frame_id=0}
}

%fused_computation.1013 (param_0.4317: bf16[256], param_1.5093: bf16[128,256], param_2.4096: bf16[128,512], param_3.2779: bf16[512,1,256]) -> (bf16[1,128,256], bf16[1,128,256], bf16[128,256]) {
  %constant.1636.clone.6.clone.1 = bf16[]{:T(256)} constant(1), metadata={stack_frame_id=0}
  %broadcast.4073.clone.1 = bf16[128,256]{1,0:T(8,128)(2,1)} broadcast(%constant.1636.clone.6.clone.1), dimensions={}, metadata={op_name="jit(train_step)/jvp()/while/body/closed_call" stack_frame_id=0}
  %convert.692 = f32[128,256]{1,0:T(8,128)} convert(%broadcast.4073.clone.1)
  %param_2.4096 = bf16[128,512]{1,0:T(8,128)(2,1)S(1)} parameter(2)
  %fusion.870 = bf16[128,512]{1,0:T(8,128)(2,1)} fusion(%param_2.4096), kind=kLoop, calls=%bitcast_fusion.5
  %param_3.2779 = bf16[512,1,256]{2,0,1:T(8,128)(2,1)S(1)} parameter(3)
  %fusion.636.clone.1 = bf16[512,256]{1,0:T(8,128)(2,1)} fusion(%param_3.2779), kind=kLoop, calls=%fused_computation.898.clone.clone, metadata={op_name="jit(train_step)/jvp()/while/body/closed_call/dot_general" stack_frame_id=0}
  %convolution.266.clone.1 = bf16[128,256]{1,0:T(8,128)(2,1)} convolution(%fusion.870, %fusion.636.clone.1), dim_labels=bf_io->bf, metadata={op_name="jit(train_step)/transpose(jvp())/while/body/closed_call/checkpoint/rematted_computation/dot_general" stack_frame_id=0}
  %convert.691 = f32[128,256]{1,0:T(8,128)} convert(%convolution.266.clone.1)
  %neg.211.clone.1 = f32[128,256]{1,0:T(8,128)} negate(%convert.691), metadata={op_name="jit(train_step)/transpose(jvp())/while/body/closed_call/checkpoint/rematted_computation/neg" stack_frame_id=0}, backend_config={"flag_configs":[],"scoped_memory_configs":[],"used_scoped_memory_configs":[],"float_type_correction_info":{"original_type":"BF16","original_shape":{"element_type":"BF16","dimensions":["128","256"],"tuple_shapes":[],"layout":{"minor_to_major":["1","0"],"tiles":[{"dimensions":["8","128"]},{"dimensions":["2","1"]}],"element_size_in_bits":"0","memory_space":"0","dim_level_types":[],"index_primitive_type":"PRIMITIVE_TYPE_INVALID","pointer_primitive_type":"PRIMITIVE_TYPE_INVALID","dim_unique":[],"dim_ordered":[],"dynamic_shape_metadata_prefix_bytes":"0","tail_padding_alignment_in_elements":"1","split_configs":[]},"is_dynamic_dimension":[false,false]}}}
  %exp.506.clone.1 = f32[128,256]{1,0:T(8,128)} exponential(%neg.211.clone.1), metadata={op_name="jit(train_step)/transpose(jvp())/while/body/closed_call/checkpoint/rematted_computation/exp" stack_frame_id=0}, backend_config={"flag_configs":[],"scoped_memory_configs":[],"used_scoped_memory_configs":[],"float_type_correction_info":{"original_type":"BF16","original_shape":{"element_type":"BF16","dimensions":["128","256"],"tuple_shapes":[],"layout":{"minor_to_major":["1","0"],"tiles":[{"dimensions":["8","128"]},{"dimensions":["2","1"]}],"element_size_in_bits":"0","memory_space":"0","dim_level_types":[],"index_primitive_type":"PRIMITIVE_TYPE_INVALID","pointer_primitive_type":"PRIMITIVE_TYPE_INVALID","dim_unique":[],"dim_ordered":[],"dynamic_shape_metadata_prefix_bytes":"0","tail_padding_alignment_in_elements":"1","split_configs":[]},"is_dynamic_dimension":[false,false]}}}
  %add.3323.clone.1 = f32[128,256]{1,0:T(8,128)} add(%exp.506.clone.1, %convert.692), metadata={op_name="jit(train_step)/transpose(jvp())/while/body/closed_call/checkpoint/rematted_computation/add" stack_frame_id=0}, backend_config={"flag_configs":[],"scoped_memory_configs":[],"used_scoped_memory_configs":[],"float_type_correction_info":{"original_type":"BF16","original_shape":{"element_type":"BF16","dimensions":["128","256"],"tuple_shapes":[],"layout":{"minor_to_major":["1","0"],"tiles":[{"dimensions":["8","128"]},{"dimensions":["2","1"]}],"element_size_in_bits":"0","memory_space":"0","dim_level_types":[],"index_primitive_type":"PRIMITIVE_TYPE_INVALID","pointer_primitive_type":"PRIMITIVE_TYPE_INVALID","dim_unique":[],"dim_ordered":[],"dynamic_shape_metadata_prefix_bytes":"0","tail_padding_alignment_in_elements":"1","split_configs":[]},"is_dynamic_dimension":[false,false]}}}
  %div.2155.clone.1 = f32[128,256]{1,0:T(8,128)} divide(%convert.692, %add.3323.clone.1), metadata={op_name="jit(train_step)/transpose(jvp())/while/body/closed_call/checkpoint/rematted_computation/div" stack_frame_id=0}, backend_config={"flag_configs":[],"scoped_memory_configs":[],"used_scoped_memory_configs":[],"float_type_correction_info":{"original_type":"BF16","original_shape":{"element_type":"BF16","dimensions":["128","256"],"tuple_shapes":[],"layout":{"minor_to_major":["1","0"],"tiles":[{"dimensions":["8","128"]},{"dimensions":["2","1"]}],"element_size_in_bits":"0","memory_space":"0","dim_level_types":[],"index_primitive_type":"PRIMITIVE_TYPE_INVALID","pointer_primitive_type":"PRIMITIVE_TYPE_INVALID","dim_unique":[],"dim_ordered":[],"dynamic_shape_metadata_prefix_bytes":"0","tail_padding_alignment_in_elements":"1","split_configs":[]},"is_dynamic_dimension":[false,false]}}}
  %convert.693 = bf16[128,256]{1,0:T(8,128)(2,1)} convert(%div.2155.clone.1)
  %bitcast.1719 = bf16[1,128,256]{2,1,0:T(8,128)(2,1)} bitcast(%convert.693), metadata={op_name="jit(train_step)/transpose(jvp())/while/body/closed_call/checkpoint/rematted_computation/div" stack_frame_id=0}
  %convert.694 = f32[1,128,256]{2,1,0:T(8,128)} convert(%bitcast.1719)
  %param_0.4317 = bf16[256]{0:T(256)(128)(2,1)S(1)} parameter(0)
  %add.3395 = bf16[1,128,256]{2,1,0:T(8,128)(2,1)} broadcast(%param_0.4317), dimensions={2}, metadata={op_name="jit(train_step)/jvp()/while/body/closed_call/add" stack_frame_id=0}
  %convert.695 = f32[1,128,256]{2,1,0:T(8,128)} convert(%add.3395)
  %add.3370 = f32[1,128,256]{2,1,0:T(8,128)} add(%convert.694, %convert.695), metadata={op_name="jit(train_step)/transpose(jvp())/while/body/closed_call/checkpoint/rematted_computation/add" stack_frame_id=0}, backend_config={"flag_configs":[],"scoped_memory_configs":[],"used_scoped_memory_configs":[],"float_type_correction_info":{"original_type":"BF16","original_shape":{"element_type":"BF16","dimensions":["1","128","256"],"tuple_shapes":[],"layout":{"minor_to_major":["2","1","0"],"tiles":[{"dimensions":["8","128"]},{"dimensions":["2","1"]}],"element_size_in_bits":"0","memory_space":"0","dim_level_types":[],"index_primitive_type":"PRIMITIVE_TYPE_INVALID","pointer_primitive_type":"PRIMITIVE_TYPE_INVALID","dim_unique":[],"dim_ordered":[],"dynamic_shape_metadata_prefix_bytes":"0","tail_padding_alignment_in_elements":"1","split_configs":[]},"is_dynamic_dimension":[false,false,false]}}}
  %convert.697 = bf16[1,128,256]{2,1,0:T(8,128)(2,1)} convert(%add.3370)
  %param_1.5093 = bf16[128,256]{1,0:T(8,128)(2,1)S(1)} parameter(1)
  %bitcast.1748.clone.1 = bf16[1,128,256]{2,1,0:T(8,128)(2,1)} bitcast(%param_1.5093), metadata={op_name="jit(train_step)/jvp()/while/body/closed_call/div" stack_frame_id=0}
  %convert.696 = f32[1,128,256]{2,1,0:T(8,128)} convert(%bitcast.1748.clone.1)
  %add.3376.clone.1 = f32[1,128,256]{2,1,0:T(8,128)} add(%convert.696, %convert.695), metadata={op_name="jit(train_step)/jvp()/while/body/closed_call/add" stack_frame_id=0}, backend_config={"flag_configs":[],"scoped_memory_configs":[],"used_scoped_memory_configs":[],"float_type_correction_info":{"original_type":"BF16","original_shape":{"element_type":"BF16","dimensions":["1","128","256"],"tuple_shapes":[],"layout":{"minor_to_major":["2","1","0"],"tiles":[{"dimensions":["8","128"]},{"dimensions":["2","1"]}],"element_size_in_bits":"0","memory_space":"0","dim_level_types":[],"index_primitive_type":"PRIMITIVE_TYPE_INVALID","pointer_primitive_type":"PRIMITIVE_TYPE_INVALID","dim_unique":[],"dim_ordered":[],"dynamic_shape_metadata_prefix_bytes":"0","tail_padding_alignment_in_elements":"1","split_configs":[]},"is_dynamic_dimension":[false,false,false]}}}
  %convert.698 = bf16[1,128,256]{2,1,0:T(8,128)(2,1)S(1)} convert(%add.3376.clone.1)
  ROOT %tuple.726 = (bf16[1,128,256]{2,1,0:T(8,128)(2,1)}, bf16[1,128,256]{2,1,0:T(8,128)(2,1)S(1)}, bf16[128,256]{1,0:T(8,128)(2,1)}) tuple(%convert.697, %convert.698, %convert.693)
}

%region_11.17 (top_k.0: bf16[], top_k.6: bf16[], top_k.7: s32[], top_k.8: s32[]) -> pred[] {
  %constant.1470 = s32[]{:T(128)} constant(0)
  %constant.1471 = s32[]{:T(128)} constant(2147483647)
  %top_k.0 = bf16[]{:T(256)} parameter(0), metadata={op_name="top_k"}
  %top_k.6 = bf16[]{:T(256)} parameter(1), metadata={op_name="top_k"}
  %top_k.7 = s32[]{:T(128)} parameter(2), metadata={op_name="top_k"}
  %top_k.8 = s32[]{:T(128)} parameter(3), metadata={op_name="top_k"}
  %convert.269 = f32[]{:T(128)S(6)} convert(%top_k.0), metadata={op_name="convert.16"}, backend_config={"flag_configs":[],"scoped_memory_configs":[],"used_scoped_memory_configs":[],"aliasing_operands":{"lists":[]}}
  %bitcast-convert.35 = s32[]{:T(128)S(6)} bitcast-convert(%convert.269), metadata={op_name="bitcast-convert.6"}, backend_config={"flag_configs":[],"scoped_memory_configs":[],"used_scoped_memory_configs":[],"aliasing_operands":{"lists":[]}}
  %compare.128 = pred[]{:T(512)S(6)} compare(%bitcast-convert.35, %constant.1470), direction=LT, metadata={op_name="compare.35"}, backend_config={"flag_configs":[],"scoped_memory_configs":[],"used_scoped_memory_configs":[],"aliasing_operands":{"lists":[]}}
  %xor.36 = s32[]{:T(128)S(6)} xor(%constant.1471, %bitcast-convert.35), metadata={op_name="xor.6"}, backend_config={"flag_configs":[],"scoped_memory_configs":[],"used_scoped_memory_configs":[],"aliasing_operands":{"lists":[]}}
  %select.118 = s32[]{:T(128)S(6)} select(%compare.128, %xor.36, %bitcast-convert.35), metadata={op_name="select.14"}, backend_config={"flag_configs":[],"scoped_memory_configs":[],"used_scoped_memory_configs":[],"aliasing_operands":{"lists":[{"indices":["1","3"]}]}}
  %convert.270 = f32[]{:T(128)S(6)} convert(%top_k.6), metadata={op_name="convert.17"}, backend_config={"flag_configs":[],"scoped_memory_configs":[],"used_scoped_memory_configs":[],"aliasing_operands":{"lists":[]}}
  %bitcast-convert.36 = s32[]{:T(128)S(6)} bitcast-convert(%convert.270), metadata={op_name="bitcast-convert.7"}, backend_config={"flag_configs":[],"scoped_memory_configs":[],"used_scoped_memory_configs":[],"aliasing_operands":{"lists":[]}}
  %compare.129 = pred[]{:T(512)S(6)} compare(%bitcast-convert.36, %constant.1470), direction=LT, metadata={op_name="compare.36"}, backend_config={"flag_configs":[],"scoped_memory_configs":[],"used_scoped_memory_configs":[],"aliasing_operands":{"lists":[]}}
  %xor.37 = s32[]{:T(128)S(6)} xor(%constant.1471, %bitcast-convert.36), metadata={op_name="xor.7"}, backend_config={"flag_configs":[],"scoped_memory_configs":[],"used_scoped_memory_configs":[],"aliasing_operands":{"lists":[]}}
  %select.119 = s32[]{:T(128)S(6)} select(%compare.129, %xor.37, %bitcast-convert.36), metadata={op_name="select.15"}, backend_config={"flag_configs":[],"scoped_memory_configs":[],"used_scoped_memory_configs":[],"aliasing_operands":{"lists":[{"indices":["1","3"]}]}}
  %compare.130 = pred[]{:T(512)S(6)} compare(%select.118, %select.119), direction=GT, metadata={op_name="compare.1"}, backend_config={"flag_configs":[],"scoped_memory_configs":[],"used_scoped_memory_configs":[],"aliasing_operands":{"lists":[]}}
  %compare.131 = pred[]{:T(512)S(6)} compare(%select.119, %select.118), direction=GT, metadata={op_name="compare.108"}, backend_config={"flag_configs":[],"scoped_memory_configs":[],"used_scoped_memory_configs":[],"aliasing_operands":{"lists":[]}}
  %compare.132 = pred[]{:T(512)S(6)} compare(%compare.130, %compare.131), direction=EQ, metadata={op_name="compare.109"}, backend_config={"flag_configs":[],"scoped_memory_configs":[],"used_scoped_memory_configs":[],"aliasing_operands":{"lists":[]}}
  %compare.133 = pred[]{:T(512)S(6)} compare(%top_k.7, %top_k.8), direction=LT, metadata={op_name="compare.110"}, backend_config={"flag_configs":[],"scoped_memory_configs":[],"used_scoped_memory_configs":[],"aliasing_operands":{"lists":[]}}
  ROOT %select.120 = pred[]{:T(512)} select(%compare.132, %compare.133, %compare.130), metadata={op_name="select.108"}, backend_config={"flag_configs":[],"scoped_memory_configs":[],"used_scoped_memory_configs":[],"aliasing_operands":{"lists":[]}}
}

%fused_computation.1408 (param_0.4287: s32[1,128,256]) -> (s32[1,128,8], s32[1,128,8]) {
  %param_0.4287 = s32[1,128,256]{2,1,0:T(8,128)S(1)} parameter(0)
  %top_k.65 = s32[1,128,8]{2,1,0:T(8,128)S(1)} slice(%param_0.4287), slice={[0:1], [0:128], [0:8]}, metadata={op_name="jit(train_step)/jvp()/while/body/closed_call/shard_map/top_k" stack_frame_id=0}
  %constant.1668.clone.39.clone.1 = s32[]{:T(128)} constant(0), metadata={op_name="jit(train_step)/shard_map/jit(gmm)" stack_frame_id=0}
