HloModule jit_train_step, is_scheduled=true, input_output_alias={ {0}: (0, {}, may-alias), {1}: (1, {}, may-alias), {2}: (2, {}, may-alias), {3}: (3, {}, may-alias), {4}: (4, {}, may-alias), {5}: (5, {}, may-alias), {6}: (6, {}, may-alias), {7}: (7, {}, may-alias), {8}: (8, {}, may-alias), {9}: (9, {}, may-alias), {10}: (10, {}, may-alias), {11}: (11, {}, may-alias), {12}: (12, {}, may-alias), {13}: (13, {}, may-alias), {14}: (14, {}, may-alias), {15}: (15, {}, may-alias), {16}: (16, {}, may-alias), {17}: (17, {}, may-alias), {18}: (18, {}, may-alias), {19}: (19, {}, may-alias), {20}: (20, {}, may-alias), {21}: (21, {}, may-alias), {22}: (22, {}, may-alias), {23}: (23, {}, may-alias), {24}: (24, {}, may-alias), {25}: (25, {}, may-alias), {26}: (26, {}, may-alias), {27}: (27, {}, may-alias), {28}: (28, {}, may-alias), {29}: (29, {}, may-alias), {30}: (30, {}, may-alias), {31}: (31, {}, may-alias), {32}: (32, {}, may-alias), {33}: (33, {}, may-alias), {34}: (34, {}, may-alias), {35}: (35, {}, may-alias), {36}: (36, {}, may-alias), {37}: (37, {}, may-alias), {38}: (38, {}, may-alias), {39}: (39, {}, may-alias), {40}: (40, {}, may-alias), {41}: (41, {}, may-alias), {42}: (42, {}, may-alias), {43}: (43, {}, may-alias), {44}: (44, {}, may-alias), {45}: (45, {}, may-alias), {46}: (46, {}, may-alias), {47}: (47, {}, may-alias), {48}: (48, {}, may-alias), {49}: (49, {}, may-alias), {50}: (50, {}, may-alias), {51}: (51, {}, may-alias), {52}: (52, {}, may-alias), {53}: (53, {}, may-alias), {54}: (54, {}, may-alias), {55}: (55, {}, may-alias), {56}: (56, {}, may-alias), {57}: (57, {}, may-alias), {58}: (58, {}, may-alias), {59}: (59, {}, may-alias), {60}: (60, {}, may-alias), {61}: (61, {}, may-alias), {62}: (62, {}, may-alias), {63}: (63, {}, may-alias), {64}: (64, {}, may-alias), {65}: (65, {}, may-alias), {66}: (66, {}, may-alias), {67}: (67, {}, may-alias), {68}: (68, {}, may-alias), {69}: (69, {}, may-alias), {70}: (70, {}, may-alias), {71}: (71, {}, may-alias), {72}: (72, {}, may-alias), {73}: (73, {}, may-alias), {74}: (74, {}, may-alias), {75}: (75, {}, may-alias), {76}: (76, {}, may-alias), {77}: (77, {}, may-alias), {78}: (78, {}, may-alias), {79}: (79, {}, may-alias), {80}: (80, {}, may-alias), {81}: (81, {}, may-alias), {82}: (82, {}, may-alias), {83}: (83, {}, may-alias), {84}: (84, {}, may-alias), {85}: (85, {}, may-alias), {86}: (86, {}, may-alias), {87}: (87, {}, may-alias), {88}: (88, {}, may-alias), {89}: (89, {}, may-alias), {90}: (90, {}, may-alias), {91}: (91, {}, may-alias), {92}: (92, {}, may-alias), {93}: (93, {}, may-alias), {94}: (94, {}, may-alias), {95}: (95, {}, may-alias), {96}: (96, {}, may-alias), {97}: (97, {}, may-alias), {98}: (98, {}, may-alias) }, entry_computation_layout={(s32[]{:T(128)}, f32[512]{0:T(512)}, f32[512,3,18432]{2,0,1:T(8,128)}, f32[512,3,18432]{2,0,1:T(8,128)}, f32[18432,3,512]{2,0,1:T(8,128)}, /*index=5*/f32[512,3]{0,1:T(4,128)}, f32[512,3]{0,1:T(4,128)}, f32[512,3]{0,1:T(4,128)}, f32[128,3,128,512]{3,2,1,0:T(8,128)}, f32[1536,3]{0,1:T(4,128)}, /*index=10*/f32[512,3,576]{0,2,1:T(8,128)}, f32[512,3,128,256]{3,2,1,0:T(8,128)}, f32[512,3,1536]{2,0,1:T(8,128)}, f32[1536,3,128,192]{2,3,1,0:T(8,128)}, f32[512,129280]{1,0:T(8,128)}, /*index=15*/f32[256,1]{0,1:T(1,128)}, f32[512,1,256]{2,1,0:T(1,128)}, f32[256,1,512,512]{3,2,1,0:T(8,128)}, f32[256,1,512,512]{3,2,1,0:T(8,128)}, f32[256,1,512,512]{3,2,1,0:T(8,128)}, /*index=20*/f32[512,1,512]{2,1,0:T(1,128)}, f32[512,1,512]{2,1,0:T(1,128)}, f32[512,1,512]{2,1,0:T(1,128)}, f32[512,1]{0,1:T(1,128)}, f32[512,1]{0,1:T(1,128)}, /*index=25*/f32[512,1]{0,1:T(1,128)}, f32[128,1,128,512]{3,2,1,0:T(8,128)}, f32[1536,1]{0,1:T(1,128)}, f32[512,1,576]{0,2,1:T(8,128)}, f32[512,1,128,256]{3,2,1,0:T(8,128)}, /*index=30*/f32[512,1,1536]{2,1,0:T(1,128)}, f32[1536,1,128,192]{2,3,1,0:T(8,128)}, f32[129280,512]{1,0:T(8,128)}, s32[]{:T(128)}, f32[512]{0:T(512)}, /*index=35*/f32[512,3,18432]{2,0,1:T(8,128)}, f32[512,3,18432]{2,0,1:T(8,128)}, f32[18432,3,512]{2,0,1:T(8,128)}, f32[512,3]{0,1:T(4,128)}, f32[512,3]{0,1:T(4,128)}, /*index=40*/f32[512,3]{0,1:T(4,128)}, f32[128,3,128,512]{3,2,1,0:T(8,128)}, f32[1536,3]{0,1:T(4,128)}, f32[512,3,576]{0,2,1:T(8,128)}, f32[512,3,128,256]{3,2,1,0:T(8,128)}, /*index=45*/f32[512,3,1536]{2,0,1:T(8,128)}, f32[1536,3,128,192]{2,3,1,0:T(8,128)}, f32[512,129280]{1,0:T(8,128)}, f32[256,1]{0,1:T(1,128)}, f32[512,1,256]{2,1,0:T(1,128)}, /*index=50*/f32[256,1,512,512]{3,2,1,0:T(8,128)}, f32[256,1,512,512]{3,2,1,0:T(8,128)}, f32[256,1,512,512]{3,2,1,0:T(8,128)}, f32[512,1,512]{2,1,0:T(1,128)}, f32[512,1,512]{2,1,0:T(1,128)}, /*index=55*/f32[512,1,512]{2,1,0:T(1,128)}, f32[512,1]{0,1:T(1,128)}, f32[512,1]{0,1:T(1,128)}, f32[512,1]{0,1:T(1,128)}, f32[128,1,128,512]{3,2,1,0:T(8,128)}, /*index=60*/f32[1536,1]{0,1:T(1,128)}, f32[512,1,576]{0,2,1:T(8,128)}, f32[512,1,128,256]{3,2,1,0:T(8,128)}, f32[512,1,1536]{2,1,0:T(1,128)}, f32[1536,1,128,192]{2,3,1,0:T(8,128)}, /*index=65*/f32[129280,512]{1,0:T(8,128)}, f32[512]{0:T(512)}, f32[512,3,18432]{2,0,1:T(8,128)}, f32[512,3,18432]{2,0,1:T(8,128)}, f32[18432,3,512]{2,0,1:T(8,128)}, /*index=70*/f32[512,3]{0,1:T(4,128)}, f32[512,3]{0,1:T(4,128)}, f32[512,3]{0,1:T(4,128)}, f32[128,3,128,512]{3,2,1,0:T(8,128)}, f32[1536,3]{0,1:T(4,128)}, /*index=75*/f32[512,3,576]{0,2,1:T(8,128)}, f32[512,3,128,256]{3,2,1,0:T(8,128)}, f32[512,3,1536]{2,0,1:T(8,128)}, f32[1536,3,128,192]{2,3,1,0:T(8,128)}, f32[512,129280]{1,0:T(8,128)}, /*index=80*/f32[256,1]{0,1:T(1,128)}, f32[512,1,256]{2,1,0:T(1,128)}, f32[256,1,512,512]{3,2,1,0:T(8,128)}, f32[256,1,512,512]{3,2,1,0:T(8,128)}, f32[256,1,512,512]{3,2,1,0:T(8,128)}, /*index=85*/f32[512,1,512]{2,1,0:T(1,128)}, f32[512,1,512]{2,1,0:T(1,128)}, f32[512,1,512]{2,1,0:T(1,128)}, f32[512,1]{0,1:T(1,128)}, f32[512,1]{0,1:T(1,128)}, /*index=90*/f32[512,1]{0,1:T(1,128)}, f32[128,1,128,512]{3,2,1,0:T(8,128)}, f32[1536,1]{0,1:T(1,128)}, f32[512,1,576]{0,2,1:T(8,128)}, f32[512,1,128,256]{3,2,1,0:T(8,128)}, /*index=95*/f32[512,1,1536]{2,1,0:T(1,128)}, f32[1536,1,128,192]{2,3,1,0:T(8,128)}, f32[129280,512]{1,0:T(8,128)}, s32[]{:T(128)}, s32[4,128]{1,0:T(4,128)}, /*index=100*/s32[4,128]{1,0:T(4,128)}, s32[4,128]{1,0:T(4,128)}, s32[4,128]{1,0:T(4,128)}, s32[4,128]{1,0:T(4,128)})->(s32[]{:T(128)}, f32[512]{0:T(512)}, f32[512,3,18432]{2,0,1:T(8,128)}, f32[512,3,18432]{2,0,1:T(8,128)}, f32[18432,3,512]{2,0,1:T(8,128)}, /*index=5*/f32[512,3]{0,1:T(4,128)}, f32[512,3]{0,1:T(4,128)}, f32[512,3]{0,1:T(4,128)}, f32[128,3,128,512]{3,2,1,0:T(8,128)}, f32[1536,3]{0,1:T(4,128)}, /*index=10*/f32[512,3,576]{0,2,1:T(8,128)}, f32[512,3,128,256]{3,2,1,0:T(8,128)}, f32[512,3,1536]{2,0,1:T(8,128)}, f32[1536,3,128,192]{2,3,1,0:T(8,128)}, f32[512,129280]{1,0:T(8,128)}, /*index=15*/f32[256,1]{0,1:T(1,128)}, f32[512,1,256]{2,1,0:T(1,128)}, f32[256,1,512,512]{3,2,1,0:T(8,128)}, f32[256,1,512,512]{3,2,1,0:T(8,128)}, f32[256,1,512,512]{3,2,1,0:T(8,128)}, /*index=20*/f32[512,1,512]{2,1,0:T(1,128)}, f32[512,1,512]{2,1,0:T(1,128)}, f32[512,1,512]{2,1,0:T(1,128)}, f32[512,1]{0,1:T(1,128)}, f32[512,1]{0,1:T(1,128)}, /*index=25*/f32[512,1]{0,1:T(1,128)}, f32[128,1,128,512]{3,2,1,0:T(8,128)}, f32[1536,1]{0,1:T(1,128)}, f32[512,1,576]{0,2,1:T(8,128)}, f32[512,1,128,256]{3,2,1,0:T(8,128)}, /*index=30*/f32[512,1,1536]{2,1,0:T(1,128)}, f32[1536,1,128,192]{2,3,1,0:T(8,128)}, f32[129280,512]{1,0:T(8,128)}, s32[]{:T(128)}, f32[512]{0:T(512)}, /*index=35*/f32[512,3,18432]{2,0,1:T(8,128)}, f32[512,3,18432]{2,0,1:T(8,128)}, f32[18432,3,512]{2,0,1:T(8,128)}, f32[512,3]{0,1:T(4,128)}, f32[512,3]{0,1:T(4,128)}, /*index=40*/f32[512,3]{0,1:T(4,128)}, f32[128,3,128,512]{3,2,1,0:T(8,128)}, f32[1536,3]{0,1:T(4,128)}, f32[512,3,576]{0,2,1:T(8,128)}, f32[512,3,128,256]{3,2,1,0:T(8,128)}, /*index=45*/f32[512,3,1536]{2,0,1:T(8,128)}, f32[1536,3,128,192]{2,3,1,0:T(8,128)}, f32[512,129280]{1,0:T(8,128)}, f32[256,1]{0,1:T(1,128)}, f32[512,1,256]{2,1,0:T(1,128)}, /*index=50*/f32[256,1,512,512]{3,2,1,0:T(8,128)}, f32[256,1,512,512]{3,2,1,0:T(8,128)}, f32[256,1,512,512]{3,2,1,0:T(8,128)}, f32[512,1,512]{2,1,0:T(1,128)}, f32[512,1,512]{2,1,0:T(1,128)}, /*index=55*/f32[512,1,512]{2,1,0:T(1,128)}, f32[512,1]{0,1:T(1,128)}, f32[512,1]{0,1:T(1,128)}, f32[512,1]{0,1:T(1,128)}, f32[128,1,128,512]{3,2,1,0:T(8,128)}, /*index=60*/f32[1536,1]{0,1:T(1,128)}, f32[512,1,576]{0,2,1:T(8,128)}, f32[512,1,128,256]{3,2,1,0:T(8,128)}, f32[512,1,1536]{2,1,0:T(1,128)}, f32[1536,1,128,192]{2,3,1,0:T(8,128)}, /*index=65*/f32[129280,512]{1,0:T(8,128)}, f32[512]{0:T(512)}, f32[512,3,18432]{2,0,1:T(8,128)}, f32[512,3,18432]{2,0,1:T(8,128)}, f32[18432,3,512]{2,0,1:T(8,128)}, /*index=70*/f32[512,3]{0,1:T(4,128)}, f32[512,3]{0,1:T(4,128)}, f32[512,3]{0,1:T(4,128)}, f32[128,3,128,512]{3,2,1,0:T(8,128)}, f32[1536,3]{0,1:T(4,128)}, /*index=75*/f32[512,3,576]{0,2,1:T(8,128)}, f32[512,3,128,256]{3,2,1,0:T(8,128)}, f32[512,3,1536]{2,0,1:T(8,128)}, f32[1536,3,128,192]{2,3,1,0:T(8,128)}, f32[512,129280]{1,0:T(8,128)}, /*index=80*/f32[256,1]{0,1:T(1,128)}, f32[512,1,256]{2,1,0:T(1,128)}, f32[256,1,512,512]{3,2,1,0:T(8,128)}, f32[256,1,512,512]{3,2,1,0:T(8,128)}, f32[256,1,512,512]{3,2,1,0:T(8,128)}, /*index=85*/f32[512,1,512]{2,1,0:T(1,128)}, f32[512,1,512]{2,1,0:T(1,128)}, f32[512,1,512]{2,1,0:T(1,128)}, f32[512,1]{0,1:T(1,128)}, f32[512,1]{0,1:T(1,128)}, /*index=90*/f32[512,1]{0,1:T(1,128)}, f32[128,1,128,512]{3,2,1,0:T(8,128)}, f32[1536,1]{0,1:T(1,128)}, f32[512,1,576]{0,2,1:T(8,128)}, f32[512,1,128,256]{3,2,1,0:T(8,128)}, /*index=95*/f32[512,1,1536]{2,1,0:T(1,128)}, f32[1536,1,128,192]{2,3,1,0:T(8,128)}, f32[129280,512]{1,0:T(8,128)}, s32[]{:T(128)}, f32[]{:T(128)}, /*index=100*/f32[]{:T(128)}, f32[]{:T(128)}, f32[]{:T(128)}, f32[]{:T(128)}, f32[]{:T(128)}, /*index=105*/f32[]{:T(128)}, f32[]{:T(128)}, f32[]{:T(128)}, s32[]{:T(128)}, f32[]{:T(128)})}, allow_spmd_sharding_propagation_to_parameters={false,false,false,false,false,false,false,false,false,false,false,false,false,false,false,false,false,false,false,false,false,false,false,false,false,false,false,false,false,false,false,false,false,false,false,false,false,false,false,false,false,false,false,false,false,false,false,false,false,false,false,false,false,false,false,false,false,false,false,false,false,false,false,false,false,false,false,false,false,false,false,false,false,false,false,false,false,false,false,false,false,false,false,false,false,false,false,false,false,false,false,false,false,false,false,false,false,false,false,false,false,false,false,false}, allow_spmd_sharding_propagation_to_output={false,false,false,false,false,false,false,false,false,false,false,false,false,false,false,false,false,false,false,false,false,false,false,false,false,false,false,false,false,false,false,false,false,false,false,false,false,false,false,false,false,false,false,false,false,false,false,false,false,false,false,false,false,false,false,false,false,false,false,false,false,false,false,false,false,false,false,false,false,false,false,false,false,false,false,false,false,false,false,false,false,false,false,false,false,false,false,false,false,false,false,false,false,false,false,false,false,false,false,true,true,true,true,true,true,true,true,true,true,true}, num_partitions=4

FileNames

FunctionNames

FileLocations

StackFrames


%region_46.56 (top_k.25: bf16[], top_k.26: bf16[], top_k.27: s32[], top_k.28: s32[]) -> pred[] {
  %constant.1408 = s32[]{:T(128)} constant(0)
  %constant.1409 = s32[]{:T(128)} constant(2147483647)
  %top_k.25 = bf16[]{:T(256)} parameter(0), metadata={op_name="top_k"}
  %top_k.26 = bf16[]{:T(256)} parameter(1), metadata={op_name="top_k"}
  %top_k.27 = s32[]{:T(128)} parameter(2), metadata={op_name="top_k"}
  %top_k.28 = s32[]{:T(128)} parameter(3), metadata={op_name="top_k"}
  %convert.393 = f32[]{:T(128)S(6)} convert(%top_k.25), metadata={op_name="convert.18"}, backend_config={"flag_configs":[],"scoped_memory_configs":[],"used_scoped_memory_configs":[],"aliasing_operands":{"lists":[]}}
  %bitcast-convert.39 = s32[]{:T(128)S(6)} bitcast-convert(%convert.393), metadata={op_name="bitcast-convert.8"}, backend_config={"flag_configs":[],"scoped_memory_configs":[],"used_scoped_memory_configs":[],"aliasing_operands":{"lists":[]}}
  %compare.144 = pred[]{:T(512)S(6)} compare(%bitcast-convert.39, %constant.1408), direction=LT, metadata={op_name="compare.38"}, backend_config={"flag_configs":[],"scoped_memory_configs":[],"used_scoped_memory_configs":[],"aliasing_operands":{"lists":[]}}
  %xor.40 = s32[]{:T(128)S(6)} xor(%constant.1409, %bitcast-convert.39), metadata={op_name="xor.8"}, backend_config={"flag_configs":[],"scoped_memory_configs":[],"used_scoped_memory_configs":[],"aliasing_operands":{"lists":[]}}
  %select.127 = s32[]{:T(128)S(6)} select(%compare.144, %xor.40, %bitcast-convert.39), metadata={op_name="select.16"}, backend_config={"flag_configs":[],"scoped_memory_configs":[],"used_scoped_memory_configs":[],"aliasing_operands":{"lists":[{"indices":["1","3"]}]}}
  %convert.394 = f32[]{:T(128)S(6)} convert(%top_k.26), metadata={op_name="convert.19"}, backend_config={"flag_configs":[],"scoped_memory_configs":[],"used_scoped_memory_configs":[],"aliasing_operands":{"lists":[]}}
  %bitcast-convert.40 = s32[]{:T(128)S(6)} bitcast-convert(%convert.394), metadata={op_name="bitcast-convert.9"}, backend_config={"flag_configs":[],"scoped_memory_configs":[],"used_scoped_memory_configs":[],"aliasing_operands":{"lists":[]}}
  %compare.145 = pred[]{:T(512)S(6)} compare(%bitcast-convert.40, %constant.1408), direction=LT, metadata={op_name="compare.39"}, backend_config={"flag_configs":[],"scoped_memory_configs":[],"used_scoped_memory_configs":[],"aliasing_operands":{"lists":[]}}
  %xor.41 = s32[]{:T(128)S(6)} xor(%constant.1409, %bitcast-convert.40), metadata={op_name="xor.9"}, backend_config={"flag_configs":[],"scoped_memory_configs":[],"used_scoped_memory_configs":[],"aliasing_operands":{"lists":[]}}
  %select.128 = s32[]{:T(128)S(6)} select(%compare.145, %xor.41, %bitcast-convert.40), metadata={op_name="select.17"}, backend_config={"flag_configs":[],"scoped_memory_configs":[],"used_scoped_memory_configs":[],"aliasing_operands":{"lists":[{"indices":["1","3"]}]}}
  %compare.146 = pred[]{:T(512)S(6)} compare(%select.127, %select.128), direction=GT, metadata={op_name="compare.0"}, backend_config={"flag_configs":[],"scoped_memory_configs":[],"used_scoped_memory_configs":[],"aliasing_operands":{"lists":[]}}
  %compare.147 = pred[]{:T(512)S(6)} compare(%select.128, %select.127), direction=GT, metadata={op_name="compare.117"}, backend_config={"flag_configs":[],"scoped_memory_configs":[],"used_scoped_memory_configs":[],"aliasing_operands":{"lists":[]}}
  %compare.148 = pred[]{:T(512)S(6)} compare(%compare.146, %compare.147), direction=EQ, metadata={op_name="compare.118"}, backend_config={"flag_configs":[],"scoped_memory_configs":[],"used_scoped_memory_configs":[],"aliasing_operands":{"lists":[]}}
  %compare.149 = pred[]{:T(512)S(6)} compare(%top_k.27, %top_k.28), direction=LT, metadata={op_name="compare.119"}, backend_config={"flag_configs":[],"scoped_memory_configs":[],"used_scoped_memory_configs":[],"aliasing_operands":{"lists":[]}}
  ROOT %select.129 = pred[]{:T(512)} select(%compare.148, %compare.149, %compare.146), metadata={op_name="select.113"}, backend_config={"flag_configs":[],"scoped_memory_configs":[],"used_scoped_memory_configs":[],"aliasing_operands":{"lists":[]}}
}

%region_47.57 (sort.64: s32[], sort.65: s32[], sort.66: s32[], sort.67: s32[]) -> pred[] {
  %sort.64 = s32[]{:T(128)} parameter(0), metadata={op_name="jit(argsort)/sort"}
  %sort.65 = s32[]{:T(128)} parameter(1), metadata={op_name="jit(argsort)/sort"}
  %sort.66 = s32[]{:T(128)} parameter(2), metadata={op_name="jit(argsort)/sort"}
  %sort.67 = s32[]{:T(128)} parameter(3), metadata={op_name="jit(argsort)/sort"}
  %lt_to.32 = pred[]{:T(512)S(6)} compare(%sort.64, %sort.65), direction=LT, metadata={op_name="lt_to"}, backend_config={"flag_configs":[],"scoped_memory_configs":[],"used_scoped_memory_configs":[],"aliasing_operands":{"lists":[]}}
  %lt_to.33 = pred[]{:T(512)S(6)} compare(%sort.65, %sort.64), direction=LT, metadata={op_name="lt_to"}, backend_config={"flag_configs":[],"scoped_memory_configs":[],"used_scoped_memory_configs":[],"aliasing_operands":{"lists":[]}}
  %compare.150 = pred[]{:T(512)S(6)} compare(%lt_to.32, %lt_to.33), direction=EQ, metadata={op_name="compare.120"}, backend_config={"flag_configs":[],"scoped_memory_configs":[],"used_scoped_memory_configs":[],"aliasing_operands":{"lists":[]}}
  %compare.151 = pred[]{:T(512)S(6)} compare(%sort.66, %sort.67), direction=LT, metadata={op_name="compare.121"}, backend_config={"flag_configs":[],"scoped_memory_configs":[],"used_scoped_memory_configs":[],"aliasing_operands":{"lists":[]}}
  ROOT %select.130 = pred[]{:T(512)} select(%compare.150, %compare.151, %lt_to.32), metadata={op_name="select.114"}, backend_config={"flag_configs":[],"scoped_memory_configs":[],"used_scoped_memory_configs":[],"aliasing_operands":{"lists":[]}}
}

%region_48.58 (sort.68: s32[], sort.69: s32[], sort.70: s32[], sort.71: s32[]) -> pred[] {
  %sort.68 = s32[]{:T(128)} parameter(0), metadata={op_name="jit(argsort)/sort"}
  %sort.69 = s32[]{:T(128)} parameter(1), metadata={op_name="jit(argsort)/sort"}
  %sort.70 = s32[]{:T(128)} parameter(2), metadata={op_name="jit(argsort)/sort"}
  %sort.71 = s32[]{:T(128)} parameter(3), metadata={op_name="jit(argsort)/sort"}
  %lt_to.34 = pred[]{:T(512)S(6)} compare(%sort.68, %sort.69), direction=LT, metadata={op_name="lt_to"}, backend_config={"flag_configs":[],"scoped_memory_configs":[],"used_scoped_memory_configs":[],"aliasing_operands":{"lists":[]}}
  %lt_to.35 = pred[]{:T(512)S(6)} compare(%sort.69, %sort.68), direction=LT, metadata={op_name="lt_to"}, backend_config={"flag_configs":[],"scoped_memory_configs":[],"used_scoped_memory_configs":[],"aliasing_operands":{"lists":[]}}
  %compare.152 = pred[]{:T(512)S(6)} compare(%lt_to.34, %lt_to.35), direction=EQ, metadata={op_name="compare.122"}, backend_config={"flag_configs":[],"scoped_memory_configs":[],"used_scoped_memory_configs":[],"aliasing_operands":{"lists":[]}}
  %compare.153 = pred[]{:T(512)S(6)} compare(%sort.70, %sort.71), direction=LT, metadata={op_name="compare.123"}, backend_config={"flag_configs":[],"scoped_memory_configs":[],"used_scoped_memory_configs":[],"aliasing_operands":{"lists":[]}}
  ROOT %select.131 = pred[]{:T(512)} select(%compare.152, %compare.153, %lt_to.34), metadata={op_name="select.115"}, backend_config={"flag_configs":[],"scoped_memory_configs":[],"used_scoped_memory_configs":[],"aliasing_operands":{"lists":[]}}
}

%region_67.80 (sort.78: s32[], sort.79: s32[], sort.80: s32[], sort.81: s32[]) -> pred[] {
  %sort.78 = s32[]{:T(128)} parameter(0), metadata={op_name="sort_activations/jit(argsort)/sort"}
  %sort.79 = s32[]{:T(128)} parameter(1), metadata={op_name="sort_activations/jit(argsort)/sort"}
  %sort.80 = s32[]{:T(128)} parameter(2), metadata={op_name="sort_activations/jit(argsort)/sort"}
  %sort.81 = s32[]{:T(128)} parameter(3), metadata={op_name="sort_activations/jit(argsort)/sort"}
  %lt_to.37 = pred[]{:T(512)S(6)} compare(%sort.78, %sort.79), direction=LT, metadata={op_name="lt_to"}, backend_config={"flag_configs":[],"scoped_memory_configs":[],"used_scoped_memory_configs":[],"aliasing_operands":{"lists":[]}}
  %lt_to.38 = pred[]{:T(512)S(6)} compare(%sort.79, %sort.78), direction=LT, metadata={op_name="lt_to"}, backend_config={"flag_configs":[],"scoped_memory_configs":[],"used_scoped_memory_configs":[],"aliasing_operands":{"lists":[]}}
  %compare.156 = pred[]{:T(512)S(6)} compare(%lt_to.37, %lt_to.38), direction=EQ, metadata={op_name="compare.124"}, backend_config={"flag_configs":[],"scoped_memory_configs":[],"used_scoped_memory_configs":[],"aliasing_operands":{"lists":[]}}
  %compare.157 = pred[]{:T(512)S(6)} compare(%sort.80, %sort.81), direction=LT, metadata={op_name="compare.125"}, backend_config={"flag_configs":[],"scoped_memory_configs":[],"used_scoped_memory_configs":[],"aliasing_operands":{"lists":[]}}
  ROOT %select.134 = pred[]{:T(512)} select(%compare.156, %compare.157, %lt_to.37), metadata={op_name="select.116"}, backend_config={"flag_configs":[],"scoped_memory_configs":[],"used_scoped_memory_configs":[],"aliasing_operands":{"lists":[]}}
}

%region_119.141 (reduce_sum.157: bf16[], reduce_sum.158: bf16[]) -> bf16[] {
  %reduce_sum.157 = bf16[]{:T(256)} parameter(0), metadata={op_name="jit(train_step)/transpose(jvp(TransformerLinenPure.apply))/TransformerLinenPure/decoder/moe_layers.wrapped_fn/while/body/closed_call/checkpoint/moe_layers/reduce_sum"}
  %reduce_sum.158 = bf16[]{:T(256)} parameter(1), metadata={op_name="jit(train_step)/transpose(jvp(TransformerLinenPure.apply))/TransformerLinenPure/decoder/moe_layers.wrapped_fn/while/body/closed_call/checkpoint/moe_layers/reduce_sum"}
  ROOT %reduce_sum.159 = bf16[]{:T(256)} add(%reduce_sum.157, %reduce_sum.158), metadata={op_name="checkpoint/moe_layers/reduce_sum" stack_frame_id=0}, backend_config={"flag_configs":[],"scoped_memory_configs":[],"used_scoped_memory_configs":[],"aliasing_operands":{"lists":[]}}
}

%region_107.126 (psum.6: bf16[], psum.9: bf16[]) -> bf16[] {
  %psum.6 = bf16[]{:T(256)} parameter(0), metadata={op_name="psum"}
  %psum.9 = bf16[]{:T(256)} parameter(1), metadata={op_name="psum"}
  ROOT %add.1407 = bf16[]{:T(256)} add(%psum.6, %psum.9), metadata={op_name="add" stack_frame_id=0}, backend_config={"flag_configs":[],"scoped_memory_configs":[],"used_scoped_memory_configs":[],"aliasing_operands":{"lists":[]}}
}

%region_108.127 (psum.10: bf16[], psum.11: bf16[]) -> bf16[] {
  %psum.10 = bf16[]{:T(256)} parameter(0), metadata={op_name="psum"}
  %psum.11 = bf16[]{:T(256)} parameter(1), metadata={op_name="psum"}
  ROOT %add.1408 = bf16[]{:T(256)} add(%psum.10, %psum.11), metadata={op_name="add" stack_frame_id=0}, backend_config={"flag_configs":[],"scoped_memory_configs":[],"used_scoped_memory_configs":[],"aliasing_operands":{"lists":[]}}
}

%region_109.128 (psum.14: bf16[], psum.15: bf16[]) -> bf16[] {
  %psum.14 = bf16[]{:T(256)} parameter(0), metadata={op_name="psum"}
  %psum.15 = bf16[]{:T(256)} parameter(1), metadata={op_name="psum"}
  ROOT %add.1409 = bf16[]{:T(256)} add(%psum.14, %psum.15), metadata={op_name="add" stack_frame_id=0}, backend_config={"flag_configs":[],"scoped_memory_configs":[],"used_scoped_memory_configs":[],"aliasing_operands":{"lists":[]}}
}

%region_62.73 (reduce-window.111: s32[], reduce-window.112: s32[]) -> s32[] {
  %reduce-window.111 = s32[]{:T(128)} parameter(0), metadata={op_name="reduce-window.35"}
  %reduce-window.112 = s32[]{:T(128)} parameter(1), metadata={op_name="reduce-window.35"}
  ROOT %reduce_window_sum.108 = s32[]{:T(128)} add(%reduce-window.111, %reduce-window.112), metadata={op_name="reduce_window_sum"}, backend_config={"flag_configs":[],"scoped_memory_configs":[],"used_scoped_memory_configs":[],"aliasing_operands":{"lists":[]}}
}

%region_64.75 (reduce-window.113: s32[], reduce-window.114: s32[]) -> s32[] {
  %reduce-window.113 = s32[]{:T(128)} parameter(0), metadata={op_name="reduce-window.36"}
  %reduce-window.114 = s32[]{:T(128)} parameter(1), metadata={op_name="reduce-window.36"}
  ROOT %reduce_window_sum.109 = s32[]{:T(128)} add(%reduce-window.113, %reduce-window.114), metadata={op_name="reduce_window_sum"}, backend_config={"flag_configs":[],"scoped_memory_configs":[],"used_scoped_memory_configs":[],"aliasing_operands":{"lists":[]}}
}

%region_65.76 (reduce-window.115: s32[], reduce-window.116: s32[]) -> s32[] {
  %reduce-window.115 = s32[]{:T(128)} parameter(0), metadata={op_name="reduce-window.63"}
  %reduce-window.116 = s32[]{:T(128)} parameter(1), metadata={op_name="reduce-window.63"}
  ROOT %reduce_window_sum.110 = s32[]{:T(128)} add(%reduce-window.115, %reduce-window.116), metadata={op_name="reduce_window_sum"}, backend_config={"flag_configs":[],"scoped_memory_configs":[],"used_scoped_memory_configs":[],"aliasing_operands":{"lists":[]}}
}

%region_68.81.clone (reduce-window.396: s32[], reduce-window.397: s32[]) -> s32[] {
  %reduce-window.396 = s32[]{:T(128)} parameter(0), metadata={op_name="reduce-window.38"}
  %reduce-window.397 = s32[]{:T(128)} parameter(1), metadata={op_name="reduce-window.38"}
  ROOT %reduce_window_sum.317 = s32[]{:T(128)} add(%reduce-window.396, %reduce-window.397), metadata={op_name="reduce_window_sum"}, backend_config={"flag_configs":[],"scoped_memory_configs":[],"used_scoped_memory_configs":[],"aliasing_operands":{"lists":[]}}
}

%region_69.82.clone (reduce-window.400: s32[], reduce-window.401: s32[]) -> s32[] {
  %reduce-window.400 = s32[]{:T(128)} parameter(0), metadata={op_name="reduce-window.64"}
  %reduce-window.401 = s32[]{:T(128)} parameter(1), metadata={op_name="reduce-window.64"}
  ROOT %reduce_window_sum.319 = s32[]{:T(128)} add(%reduce-window.400, %reduce-window.401), metadata={op_name="reduce_window_sum"}, backend_config={"flag_configs":[],"scoped_memory_configs":[],"used_scoped_memory_configs":[],"aliasing_operands":{"lists":[]}}
}

%region_71.84.clone (reduce-window.404: s32[], reduce-window.405: s32[]) -> s32[] {
  %reduce-window.404 = s32[]{:T(128)} parameter(0), metadata={op_name="reduce-window.40"}
  %reduce-window.405 = s32[]{:T(128)} parameter(1), metadata={op_name="reduce-window.40"}
  ROOT %reduce_window_sum.321 = s32[]{:T(128)} add(%reduce-window.404, %reduce-window.405), metadata={op_name="reduce_window_sum"}, backend_config={"flag_configs":[],"scoped_memory_configs":[],"used_scoped_memory_configs":[],"aliasing_operands":{"lists":[]}}
}

%region_72.85.clone (reduce-window.408: s32[], reduce-window.409: s32[]) -> s32[] {
  %reduce-window.408 = s32[]{:T(128)} parameter(0), metadata={op_name="reduce-window.65"}
  %reduce-window.409 = s32[]{:T(128)} parameter(1), metadata={op_name="reduce-window.65"}
  ROOT %reduce_window_sum.323 = s32[]{:T(128)} add(%reduce-window.408, %reduce-window.409), metadata={op_name="reduce_window_sum"}, backend_config={"flag_configs":[],"scoped_memory_configs":[],"used_scoped_memory_configs":[],"aliasing_operands":{"lists":[]}}
}

%region_74.87.clone (reduce-window.412: s32[], reduce-window.413: s32[]) -> s32[] {
  %reduce-window.412 = s32[]{:T(128)} parameter(0), metadata={op_name="reduce-window.42"}
  %reduce-window.413 = s32[]{:T(128)} parameter(1), metadata={op_name="reduce-window.42"}
  ROOT %reduce_window_sum.325 = s32[]{:T(128)} add(%reduce-window.412, %reduce-window.413), metadata={op_name="reduce_window_sum"}, backend_config={"flag_configs":[],"scoped_memory_configs":[],"used_scoped_memory_configs":[],"aliasing_operands":{"lists":[]}}
}

%region_75.88.clone (reduce-window.416: s32[], reduce-window.417: s32[]) -> s32[] {
  %reduce-window.416 = s32[]{:T(128)} parameter(0), metadata={op_name="reduce-window.66"}
  %reduce-window.417 = s32[]{:T(128)} parameter(1), metadata={op_name="reduce-window.66"}
  ROOT %reduce_window_sum.327 = s32[]{:T(128)} add(%reduce-window.416, %reduce-window.417), metadata={op_name="reduce_window_sum"}, backend_config={"flag_configs":[],"scoped_memory_configs":[],"used_scoped_memory_configs":[],"aliasing_operands":{"lists":[]}}
}

%region_80.96.clone (reduce-window.420: s32[], reduce-window.421: s32[]) -> s32[] {
  %reduce-window.420 = s32[]{:T(128)} parameter(0), metadata={op_name="reduce-window.44"}
  %reduce-window.421 = s32[]{:T(128)} parameter(1), metadata={op_name="reduce-window.44"}
  ROOT %reduce_window_sum.329 = s32[]{:T(128)} add(%reduce-window.420, %reduce-window.421), metadata={op_name="reduce_window_sum"}, backend_config={"flag_configs":[],"scoped_memory_configs":[],"used_scoped_memory_configs":[],"aliasing_operands":{"lists":[]}}
}

%region_82.98.clone (reduce-window.424: s32[], reduce-window.425: s32[]) -> s32[] {
  %reduce-window.424 = s32[]{:T(128)} parameter(0), metadata={op_name="reduce-window.45"}
  %reduce-window.425 = s32[]{:T(128)} parameter(1), metadata={op_name="reduce-window.45"}
  ROOT %reduce_window_sum.331 = s32[]{:T(128)} add(%reduce-window.424, %reduce-window.425), metadata={op_name="reduce_window_sum"}, backend_config={"flag_configs":[],"scoped_memory_configs":[],"used_scoped_memory_configs":[],"aliasing_operands":{"lists":[]}}
}

%region_83.99.clone (reduce-window.428: s32[], reduce-window.429: s32[]) -> s32[] {
  %reduce-window.428 = s32[]{:T(128)} parameter(0), metadata={op_name="reduce-window.67"}
  %reduce-window.429 = s32[]{:T(128)} parameter(1), metadata={op_name="reduce-window.67"}
  ROOT %reduce_window_sum.333 = s32[]{:T(128)} add(%reduce-window.428, %reduce-window.429), metadata={op_name="reduce_window_sum"}, backend_config={"flag_configs":[],"scoped_memory_configs":[],"used_scoped_memory_configs":[],"aliasing_operands":{"lists":[]}}
}

%region_94.112 (reduce-window.174: s32[], reduce-window.175: s32[]) -> s32[] {
  %reduce-window.174 = s32[]{:T(128)} parameter(0), metadata={op_name="reduce-window.49"}
  %reduce-window.175 = s32[]{:T(128)} parameter(1), metadata={op_name="reduce-window.49"}
  ROOT %reduce_window_sum.138 = s32[]{:T(128)} add(%reduce-window.174, %reduce-window.175), metadata={op_name="reduce_window_sum"}, backend_config={"flag_configs":[],"scoped_memory_configs":[],"used_scoped_memory_configs":[],"aliasing_operands":{"lists":[]}}
}

%region_95.113 (reduce-window.179: s32[], reduce-window.180: s32[]) -> s32[] {
  %reduce-window.179 = s32[]{:T(128)} parameter(0), metadata={op_name="reduce-window.69"}
  %reduce-window.180 = s32[]{:T(128)} parameter(1), metadata={op_name="reduce-window.69"}
  ROOT %reduce_window_sum.139 = s32[]{:T(128)} add(%reduce-window.179, %reduce-window.180), metadata={op_name="reduce_window_sum"}, backend_config={"flag_configs":[],"scoped_memory_configs":[],"used_scoped_memory_configs":[],"aliasing_operands":{"lists":[]}}
}

%region_97.115 (reduce-window.184: s32[], reduce-window.185: s32[]) -> s32[] {
  %reduce-window.184 = s32[]{:T(128)} parameter(0), metadata={op_name="reduce-window.51"}
  %reduce-window.185 = s32[]{:T(128)} parameter(1), metadata={op_name="reduce-window.51"}
  ROOT %reduce_window_sum.140 = s32[]{:T(128)} add(%reduce-window.184, %reduce-window.185), metadata={op_name="reduce_window_sum"}, backend_config={"flag_configs":[],"scoped_memory_configs":[],"used_scoped_memory_configs":[],"aliasing_operands":{"lists":[]}}
}

%region_98.116 (reduce-window.189: s32[], reduce-window.190: s32[]) -> s32[] {
  %reduce-window.189 = s32[]{:T(128)} parameter(0), metadata={op_name="reduce-window.70"}
  %reduce-window.190 = s32[]{:T(128)} parameter(1), metadata={op_name="reduce-window.70"}
  ROOT %reduce_window_sum.141 = s32[]{:T(128)} add(%reduce-window.189, %reduce-window.190), metadata={op_name="reduce_window_sum"}, backend_config={"flag_configs":[],"scoped_memory_configs":[],"used_scoped_memory_configs":[],"aliasing_operands":{"lists":[]}}
}

%region_103.121 (reduce-window.194: s32[], reduce-window.195: s32[]) -> s32[] {
  %reduce-window.194 = s32[]{:T(128)} parameter(0), metadata={op_name="reduce-window.53"}
  %reduce-window.195 = s32[]{:T(128)} parameter(1), metadata={op_name="reduce-window.53"}
  ROOT %reduce_window_sum.142 = s32[]{:T(128)} add(%reduce-window.194, %reduce-window.195), metadata={op_name="reduce_window_sum"}, backend_config={"flag_configs":[],"scoped_memory_configs":[],"used_scoped_memory_configs":[],"aliasing_operands":{"lists":[]}}
}

%region_105.123 (reduce-window.199: s32[], reduce-window.200: s32[]) -> s32[] {
  %reduce-window.199 = s32[]{:T(128)} parameter(0), metadata={op_name="reduce-window.54"}
  %reduce-window.200 = s32[]{:T(128)} parameter(1), metadata={op_name="reduce-window.54"}
  ROOT %reduce_window_sum.143 = s32[]{:T(128)} add(%reduce-window.199, %reduce-window.200), metadata={op_name="reduce_window_sum"}, backend_config={"flag_configs":[],"scoped_memory_configs":[],"used_scoped_memory_configs":[],"aliasing_operands":{"lists":[]}}
}

%region_106.124 (reduce-window.204: s32[], reduce-window.205: s32[]) -> s32[] {
  %reduce-window.204 = s32[]{:T(128)} parameter(0), metadata={op_name="reduce-window.71"}
  %reduce-window.205 = s32[]{:T(128)} parameter(1), metadata={op_name="reduce-window.71"}
  ROOT %reduce_window_sum.144 = s32[]{:T(128)} add(%reduce-window.204, %reduce-window.205), metadata={op_name="reduce_window_sum"}, backend_config={"flag_configs":[],"scoped_memory_configs":[],"used_scoped_memory_configs":[],"aliasing_operands":{"lists":[]}}
}

%fused_computation.5 (param_0.17: bf16[129280,512], param_1.108: s32[1024]) -> bf16[512,512] {
  %param_0.17 = bf16[129280,512]{1,0:T(8,128)(2,1)} parameter(0)
  %param_1.108 = s32[1024]{0:T(1024)S(1)} parameter(1)
  %custom-call.13 = s32[1024]{0:T(1024)} custom-call(%param_1.108), custom_call_target="AssumeGatherIndicesInBound", operand_layout_constraints={s32[1024]{0:T(1024)}}, metadata={op_name="jit(train_step)/jvp(TransformerLinenPure.apply)/TransformerLinenPure/decoder/decoder._apply_embedding/token_embedder/gather" stack_frame_id=0}
  %slice.920 = s32[512]{0:T(512)} slice(%custom-call.13), slice={[0:512]}, metadata={op_name="jit(train_step)/jvp(TransformerLinenPure.apply)/TransformerLinenPure/decoder/decoder._apply_embedding/token_embedder/gather" stack_frame_id=0}
  %reshape.3318 = s32[4,128]{1,0:T(4,128)} reshape(%slice.920), metadata={op_name="jit(train_step)/jvp(TransformerLinenPure.apply)/TransformerLinenPure/decoder/decoder._apply_embedding/token_embedder/broadcast_in_dim" stack_frame_id=0}
  %transpose.847 = s32[4,128]{1,0:T(4,128)} transpose(%reshape.3318), dimensions={0,1}, metadata={op_name="jit(train_step)/jvp(TransformerLinenPure.apply)/TransformerLinenPure/decoder/decoder._apply_embedding/token_embedder/broadcast_in_dim" stack_frame_id=0}
  %gather.187 = bf16[4,128,512]{2,1,0:T(8,128)(2,1)} gather(%param_0.17, %transpose.847), offset_dims={2}, collapsed_slice_dims={0}, start_index_map={0}, index_vector_dim=2, slice_sizes={1,512}, metadata={op_name="jit(train_step)/jvp(TransformerLinenPure.apply)/TransformerLinenPure/decoder/decoder._apply_embedding/token_embedder/gather" stack_frame_id=0}
  %transpose.846 = bf16[4,128,512]{2,1,0:T(8,128)(2,1)} transpose(%gather.187), dimensions={0,1,2}, metadata={op_name="jit(train_step)/jvp(TransformerLinenPure.apply)/TransformerLinenPure/decoder/decoder._apply_embedding/token_embedder/gather" stack_frame_id=0}
  ROOT %reshape.3317 = bf16[512,512]{1,0:T(8,128)(2,1)S(1)} reshape(%transpose.846), metadata={op_name="jit(train_step)/jvp(TransformerLinenPure.apply)/TransformerLinenPure/decoder/decoder._apply_embedding/token_embedder/gather" stack_frame_id=0}
}

%fused_computation.6 (param_0.20: f32[163840,32], param_1.110: s32[1024]) -> f32[512,32] {
  %param_0.20 = f32[163840,32]{1,0:T(8,128)} parameter(0)
  %param_1.110 = s32[1024]{0:T(1024)S(1)} parameter(1)
  %custom-call.15 = s32[1024]{0:T(1024)} custom-call(%param_1.110), custom_call_target="AssumeGatherIndicesInBound", operand_layout_constraints={s32[1024]{0:T(1024)}}, metadata={op_name="jit(train_step)/dense_layers/gather" stack_frame_id=0}
  %slice.922 = s32[512]{0:T(512)} slice(%custom-call.15), slice={[0:512]}, metadata={op_name="jit(train_step)/dense_layers/gather" stack_frame_id=0}
  %reshape.3326 = s32[4,128]{1,0:T(4,128)} reshape(%slice.922), metadata={op_name="jit(train_step)/dense_layers/broadcast_in_dim" stack_frame_id=0}
  %transpose.853 = s32[4,128]{1,0:T(4,128)} transpose(%reshape.3326), dimensions={0,1}, metadata={op_name="jit(train_step)/dense_layers/broadcast_in_dim" stack_frame_id=0}
  %gather.189 = f32[4,128,32]{2,1,0:T(8,128)} gather(%param_0.20, %transpose.853), offset_dims={2}, collapsed_slice_dims={0}, start_index_map={0}, index_vector_dim=2, slice_sizes={1,32}, metadata={op_name="jit(train_step)/dense_layers/gather" stack_frame_id=0}
  %transpose.852 = f32[4,128,32]{2,1,0:T(8,128)} transpose(%gather.189), dimensions={0,1,2}, metadata={op_name="jit(train_step)/dense_layers/gather" stack_frame_id=0}
  ROOT %reshape.3325 = f32[512,32]{1,0:T(8,128)} reshape(%transpose.852), metadata={op_name="jit(train_step)/dense_layers/gather" stack_frame_id=0}
}

%fused_computation.7 (param_0.23: f32[163840,32], param_1.112: s32[1024]) -> f32[512,32] {
  %param_0.23 = f32[163840,32]{1,0:T(8,128)} parameter(0)
  %param_1.112 = s32[1024]{0:T(1024)S(1)} parameter(1)
  %custom-call.17 = s32[1024]{0:T(1024)} custom-call(%param_1.112), custom_call_target="AssumeGatherIndicesInBound", operand_layout_constraints={s32[1024]{0:T(1024)}}, metadata={op_name="jit(train_step)/dense_layers/gather" stack_frame_id=0}
  %slice.924 = s32[512]{0:T(512)} slice(%custom-call.17), slice={[0:512]}, metadata={op_name="jit(train_step)/dense_layers/gather" stack_frame_id=0}
  %reshape.3334 = s32[4,128]{1,0:T(4,128)} reshape(%slice.924), metadata={op_name="jit(train_step)/dense_layers/broadcast_in_dim" stack_frame_id=0}
  %transpose.859 = s32[4,128]{1,0:T(4,128)} transpose(%reshape.3334), dimensions={0,1}, metadata={op_name="jit(train_step)/dense_layers/broadcast_in_dim" stack_frame_id=0}
  %gather.191 = f32[4,128,32]{2,1,0:T(8,128)} gather(%param_0.23, %transpose.859), offset_dims={2}, collapsed_slice_dims={0}, start_index_map={0}, index_vector_dim=2, slice_sizes={1,32}, metadata={op_name="jit(train_step)/dense_layers/gather" stack_frame_id=0}
  %transpose.858 = f32[4,128,32]{2,1,0:T(8,128)} transpose(%gather.191), dimensions={0,1,2}, metadata={op_name="jit(train_step)/dense_layers/gather" stack_frame_id=0}
  ROOT %reshape.3333 = f32[512,32]{1,0:T(8,128)} reshape(%transpose.858), metadata={op_name="jit(train_step)/dense_layers/gather" stack_frame_id=0}
}

%fused_computation.8 (param_0.26: f32[163840,32], param_1.120: s32[1024]) -> f32[512,32] {
  %param_0.26 = f32[163840,32]{1,0:T(8,128)} parameter(0)
  %param_1.120 = s32[1024]{0:T(1024)S(1)} parameter(1)
  %custom-call.25 = s32[1024]{0:T(1024)} custom-call(%param_1.120), custom_call_target="AssumeGatherIndicesInBound", operand_layout_constraints={s32[1024]{0:T(1024)}}, metadata={op_name="jit(train_step)/transpose(jvp(TransformerLinenPure.apply))/TransformerLinenPure/decoder/moe_layers.wrapped_fn/while/body/closed_call/checkpoint/rematted_computation/moe_layers/gather" stack_frame_id=0}
  %slice.932 = s32[512]{0:T(512)} slice(%custom-call.25), slice={[0:512]}, metadata={op_name="jit(train_step)/transpose(jvp(TransformerLinenPure.apply))/TransformerLinenPure/decoder/moe_layers.wrapped_fn/while/body/closed_call/checkpoint/rematted_computation/moe_layers/gather" stack_frame_id=0}
  %reshape.3342 = s32[4,128]{1,0:T(4,128)} reshape(%slice.932), metadata={op_name="jit(train_step)/transpose(jvp(TransformerLinenPure.apply))/TransformerLinenPure/decoder/moe_layers.wrapped_fn/while/body/closed_call/checkpoint/rematted_computation/moe_layers/select_n" stack_frame_id=0}
  %transpose.865 = s32[4,128]{1,0:T(4,128)} transpose(%reshape.3342), dimensions={0,1}, metadata={op_name="jit(train_step)/transpose(jvp(TransformerLinenPure.apply))/TransformerLinenPure/decoder/moe_layers.wrapped_fn/while/body/closed_call/checkpoint/rematted_computation/moe_layers/select_n" stack_frame_id=0}
  %gather.193 = f32[4,128,32]{2,1,0:T(8,128)} gather(%param_0.26, %transpose.865), offset_dims={2}, collapsed_slice_dims={0}, start_index_map={0}, index_vector_dim=2, slice_sizes={1,32}, metadata={op_name="jit(train_step)/transpose(jvp(TransformerLinenPure.apply))/TransformerLinenPure/decoder/moe_layers.wrapped_fn/while/body/closed_call/checkpoint/rematted_computation/moe_layers/gather" stack_frame_id=0}
  %transpose.864 = f32[4,128,32]{2,1,0:T(8,128)} transpose(%gather.193), dimensions={0,1,2}, metadata={op_name="jit(train_step)/transpose(jvp(TransformerLinenPure.apply))/TransformerLinenPure/decoder/moe_layers.wrapped_fn/while/body/closed_call/checkpoint/rematted_computation/moe_layers/gather" stack_frame_id=0}
  ROOT %reshape.3341 = f32[512,32]{1,0:T(8,128)S(1)} reshape(%transpose.864), metadata={op_name="jit(train_step)/transpose(jvp(TransformerLinenPure.apply))/TransformerLinenPure/decoder/moe_layers.wrapped_fn/while/body/closed_call/checkpoint/rematted_computation/moe_layers/gather" stack_frame_id=0}
}

%fused_computation.9 (param_0.29: f32[163840,32], param_1.122: s32[1024]) -> f32[512,32] {
  %param_0.29 = f32[163840,32]{1,0:T(8,128)} parameter(0)
  %param_1.122 = s32[1024]{0:T(1024)S(1)} parameter(1)
  %custom-call.27 = s32[1024]{0:T(1024)} custom-call(%param_1.122), custom_call_target="AssumeGatherIndicesInBound", operand_layout_constraints={s32[1024]{0:T(1024)}}, metadata={op_name="jit(train_step)/transpose(jvp(TransformerLinenPure.apply))/TransformerLinenPure/decoder/moe_layers.wrapped_fn/while/body/closed_call/checkpoint/rematted_computation/moe_layers/gather" stack_frame_id=0}
  %slice.934 = s32[512]{0:T(512)} slice(%custom-call.27), slice={[0:512]}, metadata={op_name="jit(train_step)/transpose(jvp(TransformerLinenPure.apply))/TransformerLinenPure/decoder/moe_layers.wrapped_fn/while/body/closed_call/checkpoint/rematted_computation/moe_layers/gather" stack_frame_id=0}
  %reshape.3350 = s32[4,128]{1,0:T(4,128)} reshape(%slice.934), metadata={op_name="jit(train_step)/transpose(jvp(TransformerLinenPure.apply))/TransformerLinenPure/decoder/moe_layers.wrapped_fn/while/body/closed_call/checkpoint/rematted_computation/moe_layers/select_n" stack_frame_id=0}
  %transpose.871 = s32[4,128]{1,0:T(4,128)} transpose(%reshape.3350), dimensions={0,1}, metadata={op_name="jit(train_step)/transpose(jvp(TransformerLinenPure.apply))/TransformerLinenPure/decoder/moe_layers.wrapped_fn/while/body/closed_call/checkpoint/rematted_computation/moe_layers/select_n" stack_frame_id=0}
  %gather.195 = f32[4,128,32]{2,1,0:T(8,128)} gather(%param_0.29, %transpose.871), offset_dims={2}, collapsed_slice_dims={0}, start_index_map={0}, index_vector_dim=2, slice_sizes={1,32}, metadata={op_name="jit(train_step)/transpose(jvp(TransformerLinenPure.apply))/TransformerLinenPure/decoder/moe_layers.wrapped_fn/while/body/closed_call/checkpoint/rematted_computation/moe_layers/gather" stack_frame_id=0}
  %transpose.870 = f32[4,128,32]{2,1,0:T(8,128)} transpose(%gather.195), dimensions={0,1,2}, metadata={op_name="jit(train_step)/transpose(jvp(TransformerLinenPure.apply))/TransformerLinenPure/decoder/moe_layers.wrapped_fn/while/body/closed_call/checkpoint/rematted_computation/moe_layers/gather" stack_frame_id=0}
  ROOT %reshape.3349 = f32[512,32]{1,0:T(8,128)S(1)} reshape(%transpose.870), metadata={op_name="jit(train_step)/transpose(jvp(TransformerLinenPure.apply))/TransformerLinenPure/decoder/moe_layers.wrapped_fn/while/body/closed_call/checkpoint/rematted_computation/moe_layers/gather" stack_frame_id=0}
}

%fused_computation.10 (param_0.32: bf16[4096,512], param_1.126: s32[4096]) -> bf16[4096,512] {
  %param_0.32 = bf16[4096,512]{1,0:T(8,128)(2,1)S(1)} parameter(0)
  %param_1.126 = s32[4096]{0:T(1024)S(1)} parameter(1)
  %custom-call.31 = s32[4096]{0:T(1024)} custom-call(%param_1.126), custom_call_target="AssumeGatherIndicesInBound", operand_layout_constraints={s32[4096]{0:T(1024)}}, metadata={op_name="jit(train_step)/transpose(jvp(TransformerLinenPure.apply))/TransformerLinenPure/decoder/moe_layers.wrapped_fn/while/body/closed_call/checkpoint/rematted_computation/moe_layers/shard_map/sort_activations/gather" stack_frame_id=0}
  %slice.938 = s32[4096]{0:T(1024)} slice(%custom-call.31), slice={[0:4096]}, metadata={op_name="jit(train_step)/transpose(jvp(TransformerLinenPure.apply))/TransformerLinenPure/decoder/moe_layers.wrapped_fn/while/body/closed_call/checkpoint/rematted_computation/moe_layers/shard_map/sort_activations/gather" stack_frame_id=0}
  %reshape.3358 = s32[4096]{0:T(1024)} reshape(%slice.938), metadata={op_name="jit(train_step)/transpose(jvp(TransformerLinenPure.apply))/TransformerLinenPure/decoder/moe_layers.wrapped_fn/while/body/closed_call/checkpoint/rematted_computation/moe_layers/shard_map/sort_activations/broadcast_in_dim" stack_frame_id=0}
  %transpose.877 = s32[4096]{0:T(1024)} transpose(%reshape.3358), dimensions={0}, metadata={op_name="jit(train_step)/transpose(jvp(TransformerLinenPure.apply))/TransformerLinenPure/decoder/moe_layers.wrapped_fn/while/body/closed_call/checkpoint/rematted_computation/moe_layers/shard_map/sort_activations/broadcast_in_dim" stack_frame_id=0}
  %gather.197 = bf16[4096,512]{1,0:T(8,128)(2,1)} gather(%param_0.32, %transpose.877), offset_dims={1}, collapsed_slice_dims={0}, start_index_map={0}, index_vector_dim=1, slice_sizes={1,512}, metadata={op_name="jit(train_step)/transpose(jvp(TransformerLinenPure.apply))/TransformerLinenPure/decoder/moe_layers.wrapped_fn/while/body/closed_call/checkpoint/rematted_computation/moe_layers/shard_map/sort_activations/gather" stack_frame_id=0}
  %transpose.876 = bf16[4096,512]{1,0:T(8,128)(2,1)} transpose(%gather.197), dimensions={0,1}, metadata={op_name="jit(train_step)/transpose(jvp(TransformerLinenPure.apply))/TransformerLinenPure/decoder/moe_layers.wrapped_fn/while/body/closed_call/checkpoint/rematted_computation/moe_layers/shard_map/sort_activations/gather" stack_frame_id=0}
  ROOT %reshape.3357 = bf16[4096,512]{1,0:T(8,128)(2,1)} reshape(%transpose.876), metadata={op_name="jit(train_step)/transpose(jvp(TransformerLinenPure.apply))/TransformerLinenPure/decoder/moe_layers.wrapped_fn/while/body/closed_call/checkpoint/rematted_computation/moe_layers/shard_map/sort_activations/gather" stack_frame_id=0}
}

%fused_computation.11 (param_0.35: bf16[4096,512], param_1.128: s32[4096]) -> bf16[4096,512] {
  %param_0.35 = bf16[4096,512]{1,0:T(8,128)(2,1)S(1)} parameter(0)
  %param_1.128 = s32[4096]{0:T(1024)S(1)} parameter(1)
  %custom-call.33 = s32[4096]{0:T(1024)} custom-call(%param_1.128), custom_call_target="AssumeGatherIndicesInBound", operand_layout_constraints={s32[4096]{0:T(1024)}}, metadata={op_name="jit(train_step)/transpose(jvp(TransformerLinenPure.apply))/TransformerLinenPure/decoder/moe_layers.wrapped_fn/while/body/closed_call/checkpoint/moe_layers/shard_map/sort_activations/gather" stack_frame_id=0}
  %slice.940 = s32[4096]{0:T(1024)} slice(%custom-call.33), slice={[0:4096]}, metadata={op_name="jit(train_step)/transpose(jvp(TransformerLinenPure.apply))/TransformerLinenPure/decoder/moe_layers.wrapped_fn/while/body/closed_call/checkpoint/moe_layers/shard_map/sort_activations/gather" stack_frame_id=0}
  %reshape.3366 = s32[4096]{0:T(1024)} reshape(%slice.940), metadata={op_name="jit(train_step)/transpose(jvp(TransformerLinenPure.apply))/TransformerLinenPure/decoder/moe_layers.wrapped_fn/while/body/closed_call/checkpoint/moe_layers/shard_map/sort_activations/broadcast_in_dim" stack_frame_id=0}
  %transpose.883 = s32[4096]{0:T(1024)} transpose(%reshape.3366), dimensions={0}, metadata={op_name="jit(train_step)/transpose(jvp(TransformerLinenPure.apply))/TransformerLinenPure/decoder/moe_layers.wrapped_fn/while/body/closed_call/checkpoint/moe_layers/shard_map/sort_activations/broadcast_in_dim" stack_frame_id=0}
  %gather.199 = bf16[4096,512]{1,0:T(8,128)(2,1)} gather(%param_0.35, %transpose.883), offset_dims={1}, collapsed_slice_dims={0}, start_index_map={0}, index_vector_dim=1, slice_sizes={1,512}, metadata={op_name="jit(train_step)/transpose(jvp(TransformerLinenPure.apply))/TransformerLinenPure/decoder/moe_layers.wrapped_fn/while/body/closed_call/checkpoint/moe_layers/shard_map/sort_activations/gather" stack_frame_id=0}
  %transpose.882 = bf16[4096,512]{1,0:T(8,128)(2,1)} transpose(%gather.199), dimensions={0,1}, metadata={op_name="jit(train_step)/transpose(jvp(TransformerLinenPure.apply))/TransformerLinenPure/decoder/moe_layers.wrapped_fn/while/body/closed_call/checkpoint/moe_layers/shard_map/sort_activations/gather" stack_frame_id=0}
  ROOT %reshape.3365 = bf16[4096,512]{1,0:T(8,128)(2,1)S(1)} reshape(%transpose.882), metadata={op_name="jit(train_step)/transpose(jvp(TransformerLinenPure.apply))/TransformerLinenPure/decoder/moe_layers.wrapped_fn/while/body/closed_call/checkpoint/moe_layers/shard_map/sort_activations/gather" stack_frame_id=0}
}

%fused_computation.12 (param_0.38: bf16[4096,512], param_1.130: s32[4096]) -> bf16[4096,512] {
  %param_0.38 = bf16[4096,512]{1,0:T(8,128)(2,1)S(1)} parameter(0)
  %param_1.130 = s32[4096]{0:T(1024)S(1)} parameter(1)
  %custom-call.35 = s32[4096]{0:T(1024)} custom-call(%param_1.130), custom_call_target="AssumeGatherIndicesInBound", operand_layout_constraints={s32[4096]{0:T(1024)}}, metadata={op_name="jit(train_step)/transpose(jvp(TransformerLinenPure.apply))/TransformerLinenPure/decoder/moe_layers.wrapped_fn/while/body/closed_call/checkpoint/moe_layers/shard_map/sort_activations/gather" stack_frame_id=0}
  %slice.942 = s32[4096]{0:T(1024)} slice(%custom-call.35), slice={[0:4096]}, metadata={op_name="jit(train_step)/transpose(jvp(TransformerLinenPure.apply))/TransformerLinenPure/decoder/moe_layers.wrapped_fn/while/body/closed_call/checkpoint/moe_layers/shard_map/sort_activations/gather" stack_frame_id=0}
  %reshape.3374 = s32[4096]{0:T(1024)} reshape(%slice.942), metadata={op_name="jit(train_step)/transpose(jvp(TransformerLinenPure.apply))/TransformerLinenPure/decoder/moe_layers.wrapped_fn/while/body/closed_call/checkpoint/moe_layers/shard_map/sort_activations/broadcast_in_dim" stack_frame_id=0}
  %transpose.889 = s32[4096]{0:T(1024)} transpose(%reshape.3374), dimensions={0}, metadata={op_name="jit(train_step)/transpose(jvp(TransformerLinenPure.apply))/TransformerLinenPure/decoder/moe_layers.wrapped_fn/while/body/closed_call/checkpoint/moe_layers/shard_map/sort_activations/broadcast_in_dim" stack_frame_id=0}
  %gather.201 = bf16[4096,512]{1,0:T(8,128)(2,1)} gather(%param_0.38, %transpose.889), offset_dims={1}, collapsed_slice_dims={0}, start_index_map={0}, index_vector_dim=1, slice_sizes={1,512}, metadata={op_name="jit(train_step)/transpose(jvp(TransformerLinenPure.apply))/TransformerLinenPure/decoder/moe_layers.wrapped_fn/while/body/closed_call/checkpoint/moe_layers/shard_map/sort_activations/gather" stack_frame_id=0}
  %transpose.888 = bf16[4096,512]{1,0:T(8,128)(2,1)} transpose(%gather.201), dimensions={0,1}, metadata={op_name="jit(train_step)/transpose(jvp(TransformerLinenPure.apply))/TransformerLinenPure/decoder/moe_layers.wrapped_fn/while/body/closed_call/checkpoint/moe_layers/shard_map/sort_activations/gather" stack_frame_id=0}
  ROOT %reshape.3373 = bf16[4096,512]{1,0:T(8,128)(2,1)S(1)} reshape(%transpose.888), metadata={op_name="jit(train_step)/transpose(jvp(TransformerLinenPure.apply))/TransformerLinenPure/decoder/moe_layers.wrapped_fn/while/body/closed_call/checkpoint/moe_layers/shard_map/sort_activations/gather" stack_frame_id=0}
}

%fused_computation.13 (param_0.41: bf16[4096,512], param_1.132: s32[4096]) -> bf16[4096,512] {
  %param_0.41 = bf16[4096,512]{1,0:T(8,128)(2,1)S(1)} parameter(0)
  %param_1.132 = s32[4096]{0:T(1024)S(1)} parameter(1)
  %custom-call.37 = s32[4096]{0:T(1024)} custom-call(%param_1.132), custom_call_target="AssumeGatherIndicesInBound", operand_layout_constraints={s32[4096]{0:T(1024)}}, metadata={op_name="jit(train_step)/transpose(jvp(TransformerLinenPure.apply))/TransformerLinenPure/decoder/moe_layers.wrapped_fn/while/body/closed_call/checkpoint/rematted_computation/moe_layers/shard_map/sort_activations/gather" stack_frame_id=0}
  %slice.944 = s32[4096]{0:T(1024)} slice(%custom-call.37), slice={[0:4096]}, metadata={op_name="jit(train_step)/transpose(jvp(TransformerLinenPure.apply))/TransformerLinenPure/decoder/moe_layers.wrapped_fn/while/body/closed_call/checkpoint/rematted_computation/moe_layers/shard_map/sort_activations/gather" stack_frame_id=0}
  %reshape.3382 = s32[4096]{0:T(1024)} reshape(%slice.944), metadata={op_name="jit(train_step)/transpose(jvp(TransformerLinenPure.apply))/TransformerLinenPure/decoder/moe_layers.wrapped_fn/while/body/closed_call/checkpoint/moe_layers/shard_map/sort_activations/broadcast_in_dim" stack_frame_id=0}
  %transpose.895 = s32[4096]{0:T(1024)} transpose(%reshape.3382), dimensions={0}, metadata={op_name="jit(train_step)/transpose(jvp(TransformerLinenPure.apply))/TransformerLinenPure/decoder/moe_layers.wrapped_fn/while/body/closed_call/checkpoint/moe_layers/shard_map/sort_activations/broadcast_in_dim" stack_frame_id=0}
  %gather.203 = bf16[4096,512]{1,0:T(8,128)(2,1)} gather(%param_0.41, %transpose.895), offset_dims={1}, collapsed_slice_dims={0}, start_index_map={0}, index_vector_dim=1, slice_sizes={1,512}, metadata={op_name="jit(train_step)/transpose(jvp(TransformerLinenPure.apply))/TransformerLinenPure/decoder/moe_layers.wrapped_fn/while/body/closed_call/checkpoint/rematted_computation/moe_layers/shard_map/sort_activations/gather" stack_frame_id=0}
  %transpose.894 = bf16[4096,512]{1,0:T(8,128)(2,1)} transpose(%gather.203), dimensions={0,1}, metadata={op_name="jit(train_step)/transpose(jvp(TransformerLinenPure.apply))/TransformerLinenPure/decoder/moe_layers.wrapped_fn/while/body/closed_call/checkpoint/rematted_computation/moe_layers/shard_map/sort_activations/gather" stack_frame_id=0}
  ROOT %reshape.3381 = bf16[4096,512]{1,0:T(8,128)(2,1)S(1)} reshape(%transpose.894), metadata={op_name="jit(train_step)/transpose(jvp(TransformerLinenPure.apply))/TransformerLinenPure/decoder/moe_layers.wrapped_fn/while/body/closed_call/checkpoint/rematted_computation/moe_layers/shard_map/sort_activations/gather" stack_frame_id=0}
}

%fused_computation.15 (param_0.47: s32[256], param_1.124: s32[1024]) -> s32[263] {
  %param_0.47 = s32[256]{0:T(256)S(1)} parameter(0)
  %param_1.124 = s32[1024]{0:T(1024)S(1)} parameter(1)
  %custom-call.29 = s32[1024]{0:T(1024)} custom-call(%param_1.124), custom_call_target="AssumeGatherIndicesInBound", operand_layout_constraints={s32[1024]{0:T(1024)}}, metadata={op_name="jit(train_step)/transpose(jvp(TransformerLinenPure.apply))/TransformerLinenPure/decoder/moe_layers.wrapped_fn/while/body/closed_call/checkpoint/moe_layers/shard_map/jit(gmm)/jit(_take)/gather" stack_frame_id=0}
  %slice.936 = s32[263]{0:T(512)} slice(%custom-call.29), slice={[0:263]}, metadata={op_name="jit(train_step)/transpose(jvp(TransformerLinenPure.apply))/TransformerLinenPure/decoder/moe_layers.wrapped_fn/while/body/closed_call/checkpoint/moe_layers/shard_map/jit(gmm)/jit(_take)/gather" stack_frame_id=0}
  %reshape.3413 = s32[263]{0:T(512)} reshape(%slice.936), metadata={op_name="jit(train_step)/transpose(jvp(TransformerLinenPure.apply))/TransformerLinenPure/decoder/moe_layers.wrapped_fn/while/body/closed_call/checkpoint/moe_layers/shard_map/jit(gmm)/jit(_take)/broadcast_in_dim" stack_frame_id=0}
  %transpose.911 = s32[263]{0:T(512)} transpose(%reshape.3413), dimensions={0}, metadata={op_name="jit(train_step)/transpose(jvp(TransformerLinenPure.apply))/TransformerLinenPure/decoder/moe_layers.wrapped_fn/while/body/closed_call/checkpoint/moe_layers/shard_map/jit(gmm)/jit(_take)/broadcast_in_dim" stack_frame_id=0}
  %gather.208 = s32[263]{0:T(512)} gather(%param_0.47, %transpose.911), offset_dims={}, collapsed_slice_dims={0}, start_index_map={0}, index_vector_dim=1, slice_sizes={1}, metadata={op_name="jit(train_step)/transpose(jvp(TransformerLinenPure.apply))/TransformerLinenPure/decoder/moe_layers.wrapped_fn/while/body/closed_call/checkpoint/moe_layers/shard_map/jit(gmm)/jit(_take)/gather" stack_frame_id=0}
  %transpose.910 = s32[263]{0:T(512)} transpose(%gather.208), dimensions={0}, metadata={op_name="jit(train_step)/transpose(jvp(TransformerLinenPure.apply))/TransformerLinenPure/decoder/moe_layers.wrapped_fn/while/body/closed_call/checkpoint/moe_layers/shard_map/jit(gmm)/jit(_take)/gather" stack_frame_id=0}
  ROOT %reshape.3412 = s32[263]{0:T(512)S(1)} reshape(%transpose.910), metadata={op_name="jit(train_step)/transpose(jvp(TransformerLinenPure.apply))/TransformerLinenPure/decoder/moe_layers.wrapped_fn/while/body/closed_call/checkpoint/moe_layers/shard_map/jit(gmm)/jit(_take)/gather" stack_frame_id=0}
}

%fused_computation.16 (param_0.50: s32[256], param_1.134: s32[1024]) -> s32[263] {
  %param_0.50 = s32[256]{0:T(256)S(1)} parameter(0)
  %param_1.134 = s32[1024]{0:T(1024)S(1)} parameter(1)
  %custom-call.39 = s32[1024]{0:T(1024)} custom-call(%param_1.134), custom_call_target="AssumeGatherIndicesInBound", operand_layout_constraints={s32[1024]{0:T(1024)}}, metadata={op_name="jit(train_step)/transpose(jvp(TransformerLinenPure.apply))/TransformerLinenPure/decoder/moe_layers.wrapped_fn/while/body/closed_call/checkpoint/moe_layers/shard_map/jit(tgmm)/jit(_take)/gather" stack_frame_id=0}
  %slice.946 = s32[263]{0:T(512)} slice(%custom-call.39), slice={[0:263]}, metadata={op_name="jit(train_step)/transpose(jvp(TransformerLinenPure.apply))/TransformerLinenPure/decoder/moe_layers.wrapped_fn/while/body/closed_call/checkpoint/moe_layers/shard_map/jit(tgmm)/jit(_take)/gather" stack_frame_id=0}
  %reshape.3436 = s32[263]{0:T(512)} reshape(%slice.946), metadata={op_name="jit(train_step)/transpose(jvp(TransformerLinenPure.apply))/TransformerLinenPure/decoder/moe_layers.wrapped_fn/while/body/closed_call/checkpoint/moe_layers/shard_map/jit(tgmm)/jit(_take)/broadcast_in_dim" stack_frame_id=0}
  %transpose.921 = s32[263]{0:T(512)} transpose(%reshape.3436), dimensions={0}, metadata={op_name="jit(train_step)/transpose(jvp(TransformerLinenPure.apply))/TransformerLinenPure/decoder/moe_layers.wrapped_fn/while/body/closed_call/checkpoint/moe_layers/shard_map/jit(tgmm)/jit(_take)/broadcast_in_dim" stack_frame_id=0}
  %gather.211 = s32[263]{0:T(512)} gather(%param_0.50, %transpose.921), offset_dims={}, collapsed_slice_dims={0}, start_index_map={0}, index_vector_dim=1, slice_sizes={1}, metadata={op_name="jit(train_step)/transpose(jvp(TransformerLinenPure.apply))/TransformerLinenPure/decoder/moe_layers.wrapped_fn/while/body/closed_call/checkpoint/moe_layers/shard_map/jit(tgmm)/jit(_take)/gather" stack_frame_id=0}
  %transpose.920 = s32[263]{0:T(512)} transpose(%gather.211), dimensions={0}, metadata={op_name="jit(train_step)/transpose(jvp(TransformerLinenPure.apply))/TransformerLinenPure/decoder/moe_layers.wrapped_fn/while/body/closed_call/checkpoint/moe_layers/shard_map/jit(tgmm)/jit(_take)/gather" stack_frame_id=0}
  ROOT %reshape.3435 = s32[263]{0:T(512)S(1)} reshape(%transpose.920), metadata={op_name="jit(train_step)/transpose(jvp(TransformerLinenPure.apply))/TransformerLinenPure/decoder/moe_layers.wrapped_fn/while/body/closed_call/checkpoint/moe_layers/shard_map/jit(tgmm)/jit(_take)/gather" stack_frame_id=0}
}

%region_173.198.clone (scatter-add.94: bf16[], scatter-add.96: bf16[]) -> bf16[] {
  %scatter-add.94 = bf16[]{:T(256)} parameter(0), metadata={op_name="jit(train_step)/transpose(jvp(TransformerLinenPure.apply))/TransformerLinenPure/decoder/decoder._apply_embedding/token_embedder/scatter-add"}
  %scatter-add.96 = bf16[]{:T(256)} parameter(1), metadata={op_name="jit(train_step)/transpose(jvp(TransformerLinenPure.apply))/TransformerLinenPure/decoder/decoder._apply_embedding/token_embedder/scatter-add"}
  ROOT %add.1875 = bf16[]{:T(256)} add(%scatter-add.94, %scatter-add.96), metadata={op_name="jit(train_step)/transpose(jvp(TransformerLinenPure.apply))/TransformerLinenPure/decoder/decoder._apply_embedding/token_embedder/add" stack_frame_id=0}, backend_config={"flag_configs":[],"scoped_memory_configs":[],"used_scoped_memory_configs":[],"aliasing_operands":{"lists":[]}}
}

%fused_computation.21 (param_0.55: bf16[129280,512], param_1.65: s32[512], param_2.24: bf16[512,512]) -> bf16[129280,512] {
  %param_0.55 = bf16[129280,512]{1,0:T(8,128)(2,1)} parameter(0)
  %param_1.65 = s32[512]{0:T(512)S(1)} parameter(1)
  %reshape.3490 = s32[4,128]{1,0:T(4,128)} reshape(%param_1.65), metadata={op_name="jit(train_step)/jvp(TransformerLinenPure.apply)/TransformerLinenPure/decoder/decoder._apply_embedding/token_embedder/broadcast_in_dim" stack_frame_id=0}
  %transpose.954 = s32[4,128]{1,0:T(4,128)} transpose(%reshape.3490), dimensions={0,1}, metadata={op_name="jit(train_step)/jvp(TransformerLinenPure.apply)/TransformerLinenPure/decoder/decoder._apply_embedding/token_embedder/broadcast_in_dim" stack_frame_id=0}
  %param_2.24 = bf16[512,512]{1,0:T(8,128)(2,1)S(1)} parameter(2)
  %reshape.3491 = bf16[4,128,512]{2,1,0:T(8,128)(2,1)} reshape(%param_2.24), metadata={op_name="jit(train_step)/transpose(jvp(TransformerLinenPure.apply))/TransformerLinenPure/decoder/dense_layers.wrapped_fn/while" stack_frame_id=0}
  %transpose.955 = bf16[4,128,512]{2,1,0:T(8,128)(2,1)} transpose(%reshape.3491), dimensions={0,1,2}, metadata={op_name="jit(train_step)/transpose(jvp(TransformerLinenPure.apply))/TransformerLinenPure/decoder/dense_layers.wrapped_fn/while" stack_frame_id=0}
  ROOT %scatter.77 = bf16[129280,512]{1,0:T(8,128)(2,1)} scatter(%param_0.55, %transpose.954, %transpose.955), update_window_dims={2}, inserted_window_dims={0}, scatter_dims_to_operand_dims={0}, index_vector_dim=2, to_apply=%region_173.198.clone, metadata={op_name="jit(train_step)/transpose(jvp(TransformerLinenPure.apply))/TransformerLinenPure/decoder/decoder._apply_embedding/token_embedder/scatter-add" stack_frame_id=0}
}

%region_12.18 (top_k.0: bf16[], top_k.6: bf16[], top_k.7: s32[], top_k.8: s32[]) -> pred[] {
  %constant.1369 = s32[]{:T(128)} constant(0)
  %constant.1370 = s32[]{:T(128)} constant(2147483647)
  %top_k.0 = bf16[]{:T(256)} parameter(0), metadata={op_name="top_k"}
  %top_k.6 = bf16[]{:T(256)} parameter(1), metadata={op_name="top_k"}
  %top_k.7 = s32[]{:T(128)} parameter(2), metadata={op_name="top_k"}
  %top_k.8 = s32[]{:T(128)} parameter(3), metadata={op_name="top_k"}
  %convert.385 = f32[]{:T(128)S(6)} convert(%top_k.0), metadata={op_name="convert.16"}, backend_config={"flag_configs":[],"scoped_memory_configs":[],"used_scoped_memory_configs":[],"aliasing_operands":{"lists":[]}}
  %bitcast-convert.35 = s32[]{:T(128)S(6)} bitcast-convert(%convert.385), metadata={op_name="bitcast-convert.6"}, backend_config={"flag_configs":[],"scoped_memory_configs":[],"used_scoped_memory_configs":[],"aliasing_operands":{"lists":[]}}
  %compare.128 = pred[]{:T(512)S(6)} compare(%bitcast-convert.35, %constant.1369), direction=LT, metadata={op_name="compare.35"}, backend_config={"flag_configs":[],"scoped_memory_configs":[],"used_scoped_memory_configs":[],"aliasing_operands":{"lists":[]}}
  %xor.36 = s32[]{:T(128)S(6)} xor(%constant.1370, %bitcast-convert.35), metadata={op_name="xor.6"}, backend_config={"flag_configs":[],"scoped_memory_configs":[],"used_scoped_memory_configs":[],"aliasing_operands":{"lists":[]}}
  %select.118 = s32[]{:T(128)S(6)} select(%compare.128, %xor.36, %bitcast-convert.35), metadata={op_name="select.14"}, backend_config={"flag_configs":[],"scoped_memory_configs":[],"used_scoped_memory_configs":[],"aliasing_operands":{"lists":[{"indices":["1","3"]}]}}
  %convert.386 = f32[]{:T(128)S(6)} convert(%top_k.6), metadata={op_name="convert.17"}, backend_config={"flag_configs":[],"scoped_memory_configs":[],"used_scoped_memory_configs":[],"aliasing_operands":{"lists":[]}}
  %bitcast-convert.36 = s32[]{:T(128)S(6)} bitcast-convert(%convert.386), metadata={op_name="bitcast-convert.7"}, backend_config={"flag_configs":[],"scoped_memory_configs":[],"used_scoped_memory_configs":[],"aliasing_operands":{"lists":[]}}
  %compare.129 = pred[]{:T(512)S(6)} compare(%bitcast-convert.36, %constant.1369), direction=LT, metadata={op_name="compare.36"}, backend_config={"flag_configs":[],"scoped_memory_configs":[],"used_scoped_memory_configs":[],"aliasing_operands":{"lists":[]}}
  %xor.37 = s32[]{:T(128)S(6)} xor(%constant.1370, %bitcast-convert.36), metadata={op_name="xor.7"}, backend_config={"flag_configs":[],"scoped_memory_configs":[],"used_scoped_memory_configs":[],"aliasing_operands":{"lists":[]}}
  %select.119 = s32[]{:T(128)S(6)} select(%compare.129, %xor.37, %bitcast-convert.36), metadata={op_name="select.15"}, backend_config={"flag_configs":[],"scoped_memory_configs":[],"used_scoped_memory_configs":[],"aliasing_operands":{"lists":[{"indices":["1","3"]}]}}
  %compare.130 = pred[]{:T(512)S(6)} compare(%select.118, %select.119), direction=GT, metadata={op_name="compare.1"}, backend_config={"flag_configs":[],"scoped_memory_configs":[],"used_scoped_memory_configs":[],"aliasing_operands":{"lists":[]}}
  %compare.131 = pred[]{:T(512)S(6)} compare(%select.119, %select.118), direction=GT, metadata={op_name="compare.108"}, backend_config={"flag_configs":[],"scoped_memory_configs":[],"used_scoped_memory_configs":[],"aliasing_operands":{"lists":[]}}
  %compare.132 = pred[]{:T(512)S(6)} compare(%compare.130, %compare.131), direction=EQ, metadata={op_name="compare.109"}, backend_config={"flag_configs":[],"scoped_memory_configs":[],"used_scoped_memory_configs":[],"aliasing_operands":{"lists":[]}}
  %compare.133 = pred[]{:T(512)S(6)} compare(%top_k.7, %top_k.8), direction=LT, metadata={op_name="compare.110"}, backend_config={"flag_configs":[],"scoped_memory_configs":[],"used_scoped_memory_configs":[],"aliasing_operands":{"lists":[]}}
  ROOT %select.120 = pred[]{:T(512)} select(%compare.132, %compare.133, %compare.130), metadata={op_name="select.108"}, backend_config={"flag_configs":[],"scoped_memory_configs":[],"used_scoped_memory_configs":[],"aliasing_operands":{"lists":[]}}
}

%region_15.21.clone.1 (reduce-window.326: s32[], reduce-window.327: s32[]) -> s32[] {
  %reduce-window.326 = s32[]{:T(128)} parameter(0), metadata={op_name="reduce-window.20"}
  %reduce-window.327 = s32[]{:T(128)} parameter(1), metadata={op_name="reduce-window.20"}
  ROOT %reduce_window_sum.282 = s32[]{:T(128)} add(%reduce-window.326, %reduce-window.327), metadata={op_name="reduce_window_sum"}, backend_config={"flag_configs":[],"scoped_memory_configs":[],"used_scoped_memory_configs":[],"aliasing_operands":{"lists":[]}}
}

%region_16.22.clone.1 (reduce-window.330: s32[], reduce-window.331: s32[]) -> s32[] {
  %reduce-window.330 = s32[]{:T(128)} parameter(0), metadata={op_name="reduce-window.56"}
  %reduce-window.331 = s32[]{:T(128)} parameter(1), metadata={op_name="reduce-window.56"}
  ROOT %reduce_window_sum.284 = s32[]{:T(128)} add(%reduce-window.330, %reduce-window.331), metadata={op_name="reduce_window_sum"}, backend_config={"flag_configs":[],"scoped_memory_configs":[],"used_scoped_memory_configs":[],"aliasing_operands":{"lists":[]}}
}

%region_18.24.clone.1 (reduce-window.334: s32[], reduce-window.335: s32[]) -> s32[] {
  %reduce-window.334 = s32[]{:T(128)} parameter(0), metadata={op_name="reduce-window.22"}
  %reduce-window.335 = s32[]{:T(128)} parameter(1), metadata={op_name="reduce-window.22"}
  ROOT %reduce_window_sum.286 = s32[]{:T(128)} add(%reduce-window.334, %reduce-window.335), metadata={op_name="reduce_window_sum"}, backend_config={"flag_configs":[],"scoped_memory_configs":[],"used_scoped_memory_configs":[],"aliasing_operands":{"lists":[]}}
}

%region_19.25.clone.1 (reduce-window.338: s32[], reduce-window.339: s32[]) -> s32[] {
  %reduce-window.338 = s32[]{:T(128)} parameter(0), metadata={op_name="reduce-window.57"}
  %reduce-window.339 = s32[]{:T(128)} parameter(1), metadata={op_name="reduce-window.57"}
  ROOT %reduce_window_sum.288 = s32[]{:T(128)} add(%reduce-window.338, %reduce-window.339), metadata={op_name="reduce_window_sum"}, backend_config={"flag_configs":[],"scoped_memory_configs":[],"used_scoped_memory_configs":[],"aliasing_operands":{"lists":[]}}
}

%region_21.27.clone.1 (reduce-window.342: s32[], reduce-window.343: s32[]) -> s32[] {
  %reduce-window.342 = s32[]{:T(128)} parameter(0), metadata={op_name="reduce-window.24"}
  %reduce-window.343 = s32[]{:T(128)} parameter(1), metadata={op_name="reduce-window.24"}
  ROOT %reduce_window_sum.290 = s32[]{:T(128)} add(%reduce-window.342, %reduce-window.343), metadata={op_name="reduce_window_sum"}, backend_config={"flag_configs":[],"scoped_memory_configs":[],"used_scoped_memory_configs":[],"aliasing_operands":{"lists":[]}}
}

%region_22.28.clone.1 (reduce-window.346: s32[], reduce-window.347: s32[]) -> s32[] {
  %reduce-window.346 = s32[]{:T(128)} parameter(0), metadata={op_name="reduce-window.58"}
  %reduce-window.347 = s32[]{:T(128)} parameter(1), metadata={op_name="reduce-window.58"}
  ROOT %reduce_window_sum.292 = s32[]{:T(128)} add(%reduce-window.346, %reduce-window.347), metadata={op_name="reduce_window_sum"}, backend_config={"flag_configs":[],"scoped_memory_configs":[],"used_scoped_memory_configs":[],"aliasing_operands":{"lists":[]}}
}

%fused_computation.4.clone (param_0.68: s32[256], param_1.114: s32[1024]) -> s32[263] {
  %param_0.68 = s32[256]{0:T(256)S(1)} parameter(0)
  %param_1.114 = s32[1024]{0:T(1024)S(1)} parameter(1)
  %custom-call.19 = s32[1024]{0:T(1024)} custom-call(%param_1.114), custom_call_target="AssumeGatherIndicesInBound", operand_layout_constraints={s32[1024]{0:T(1024)}}, metadata={op_name="jit(train_step)/jvp(TransformerLinenPure.apply)/TransformerLinenPure/decoder/moe_layers.wrapped_fn/while/body/closed_call/moe_layers/shard_map/jit(gmm)/jit(_take)/gather" stack_frame_id=0}
  %slice.926 = s32[263]{0:T(512)} slice(%custom-call.19), slice={[0:263]}, metadata={op_name="jit(train_step)/jvp(TransformerLinenPure.apply)/TransformerLinenPure/decoder/moe_layers.wrapped_fn/while/body/closed_call/moe_layers/shard_map/jit(gmm)/jit(_take)/gather" stack_frame_id=0}
  %reshape.3634 = s32[263]{0:T(512)} reshape(%slice.926), metadata={op_name="jit(train_step)/jvp(TransformerLinenPure.apply)/TransformerLinenPure/decoder/moe_layers.wrapped_fn/while/body/closed_call/moe_layers/shard_map/jit(gmm)/jit(_take)/broadcast_in_dim" stack_frame_id=0}
  %transpose.1037 = s32[263]{0:T(512)} transpose(%reshape.3634), dimensions={0}, metadata={op_name="jit(train_step)/jvp(TransformerLinenPure.apply)/TransformerLinenPure/decoder/moe_layers.wrapped_fn/while/body/closed_call/moe_layers/shard_map/jit(gmm)/jit(_take)/broadcast_in_dim" stack_frame_id=0}
  %gather.213 = s32[263]{0:T(512)} gather(%param_0.68, %transpose.1037), offset_dims={}, collapsed_slice_dims={0}, start_index_map={0}, index_vector_dim=1, slice_sizes={1}, metadata={op_name="jit(train_step)/jvp(TransformerLinenPure.apply)/TransformerLinenPure/decoder/moe_layers.wrapped_fn/while/body/closed_call/moe_layers/shard_map/jit(gmm)/jit(_take)/gather" stack_frame_id=0}
  %transpose.1036 = s32[263]{0:T(512)} transpose(%gather.213), dimensions={0}, metadata={op_name="jit(train_step)/jvp(TransformerLinenPure.apply)/TransformerLinenPure/decoder/moe_layers.wrapped_fn/while/body/closed_call/moe_layers/shard_map/jit(gmm)/jit(_take)/gather" stack_frame_id=0}
  ROOT %reshape.3633 = s32[263]{0:T(512)S(1)} reshape(%transpose.1036), metadata={op_name="jit(train_step)/jvp(TransformerLinenPure.apply)/TransformerLinenPure/decoder/moe_layers.wrapped_fn/while/body/closed_call/moe_layers/shard_map/jit(gmm)/jit(_take)/gather" stack_frame_id=0}
}

%region_27.34.clone.1 (reduce-window.350: s32[], reduce-window.351: s32[]) -> s32[] {
  %reduce-window.350 = s32[]{:T(128)} parameter(0), metadata={op_name="reduce-window.26"}
  %reduce-window.351 = s32[]{:T(128)} parameter(1), metadata={op_name="reduce-window.26"}
  ROOT %reduce_window_sum.294 = s32[]{:T(128)} add(%reduce-window.350, %reduce-window.351), metadata={op_name="reduce_window_sum"}, backend_config={"flag_configs":[],"scoped_memory_configs":[],"used_scoped_memory_configs":[],"aliasing_operands":{"lists":[]}}
}

%region_29.36.clone.1 (reduce-window.354: s32[], reduce-window.355: s32[]) -> s32[] {
  %reduce-window.354 = s32[]{:T(128)} parameter(0), metadata={op_name="reduce-window.27"}
  %reduce-window.355 = s32[]{:T(128)} parameter(1), metadata={op_name="reduce-window.27"}
  ROOT %reduce_window_sum.296 = s32[]{:T(128)} add(%reduce-window.354, %reduce-window.355), metadata={op_name="reduce_window_sum"}, backend_config={"flag_configs":[],"scoped_memory_configs":[],"used_scoped_memory_configs":[],"aliasing_operands":{"lists":[]}}
}

%region_30.37.clone.1 (reduce-window.358: s32[], reduce-window.359: s32[]) -> s32[] {
  %reduce-window.358 = s32[]{:T(128)} parameter(0), metadata={op_name="reduce-window.59"}
  %reduce-window.359 = s32[]{:T(128)} parameter(1), metadata={op_name="reduce-window.59"}
  ROOT %reduce_window_sum.298 = s32[]{:T(128)} add(%reduce-window.358, %reduce-window.359), metadata={op_name="reduce_window_sum"}, backend_config={"flag_configs":[],"scoped_memory_configs":[],"used_scoped_memory_configs":[],"aliasing_operands":{"lists":[]}}
}

%region_13.19 (sort.44: s32[], sort.45: s32[], sort.46: s32[], sort.47: s32[], sort.48: s32[], sort.49: s32[]) -> pred[] {
  %sort.46 = s32[]{:T(128)} parameter(2), metadata={op_name="jit(argsort)/sort"}
  %sort.47 = s32[]{:T(128)} parameter(3), metadata={op_name="jit(argsort)/sort"}
  %sort.44 = s32[]{:T(128)} parameter(0), metadata={op_name="jit(argsort)/sort"}
  %sort.45 = s32[]{:T(128)} parameter(1), metadata={op_name="jit(argsort)/sort"}
  %sort.48 = s32[]{:T(128)} parameter(4), metadata={op_name="jit(argsort)/sort"}
  %sort.49 = s32[]{:T(128)} parameter(5), metadata={op_name="jit(argsort)/sort"}
  %lt_to.27 = pred[]{:T(512)S(6)} compare(%sort.44, %sort.45), direction=LT, metadata={op_name="lt_to"}, backend_config={"flag_configs":[],"scoped_memory_configs":[],"used_scoped_memory_configs":[],"aliasing_operands":{"lists":[]}}
  %lt_to.28 = pred[]{:T(512)S(6)} compare(%sort.45, %sort.44), direction=LT, metadata={op_name="lt_to"}, backend_config={"flag_configs":[],"scoped_memory_configs":[],"used_scoped_memory_configs":[],"aliasing_operands":{"lists":[]}}
  %compare.134 = pred[]{:T(512)S(6)} compare(%lt_to.27, %lt_to.28), direction=EQ, metadata={op_name="compare.111"}, backend_config={"flag_configs":[],"scoped_memory_configs":[],"used_scoped_memory_configs":[],"aliasing_operands":{"lists":[]}}
  %compare.135 = pred[]{:T(512)S(6)} compare(%sort.48, %sort.49), direction=LT, metadata={op_name="compare.112"}, backend_config={"flag_configs":[],"scoped_memory_configs":[],"used_scoped_memory_configs":[],"aliasing_operands":{"lists":[]}}
  ROOT %select.121 = pred[]{:T(512)} select(%compare.134, %compare.135, %lt_to.27), metadata={op_name="select.109"}, backend_config={"flag_configs":[],"scoped_memory_configs":[],"used_scoped_memory_configs":[],"aliasing_operands":{"lists":[]}}
}

%fused_computation.2.clone (param_0.71: bf16[4096,512], param_1.116: s32[4096]) -> bf16[4096,512] {
  %param_0.71 = bf16[4096,512]{1,0:T(8,128)(2,1)S(1)} parameter(0)
  %param_1.116 = s32[4096]{0:T(1024)S(1)} parameter(1)
  %custom-call.21 = s32[4096]{0:T(1024)} custom-call(%param_1.116), custom_call_target="AssumeGatherIndicesInBound", operand_layout_constraints={s32[4096]{0:T(1024)}}, metadata={op_name="jit(train_step)/jvp(TransformerLinenPure.apply)/TransformerLinenPure/decoder/moe_layers.wrapped_fn/while/body/closed_call/moe_layers/shard_map/sort_activations/gather" stack_frame_id=0}
  %slice.928 = s32[4096]{0:T(1024)} slice(%custom-call.21), slice={[0:4096]}, metadata={op_name="jit(train_step)/jvp(TransformerLinenPure.apply)/TransformerLinenPure/decoder/moe_layers.wrapped_fn/while/body/closed_call/moe_layers/shard_map/sort_activations/gather" stack_frame_id=0}
  %reshape.3657 = s32[4096]{0:T(1024)} reshape(%slice.928), metadata={op_name="jit(train_step)/jvp(TransformerLinenPure.apply)/TransformerLinenPure/decoder/moe_layers.wrapped_fn/while/body/closed_call/moe_layers/shard_map/sort_activations/broadcast_in_dim" stack_frame_id=0}
  %transpose.1043 = s32[4096]{0:T(1024)} transpose(%reshape.3657), dimensions={0}, metadata={op_name="jit(train_step)/jvp(TransformerLinenPure.apply)/TransformerLinenPure/decoder/moe_layers.wrapped_fn/while/body/closed_call/moe_layers/shard_map/sort_activations/broadcast_in_dim" stack_frame_id=0}
  %gather.214 = bf16[4096,512]{1,0:T(8,128)(2,1)} gather(%param_0.71, %transpose.1043), offset_dims={1}, collapsed_slice_dims={0}, start_index_map={0}, index_vector_dim=1, slice_sizes={1,512}, metadata={op_name="jit(train_step)/jvp(TransformerLinenPure.apply)/TransformerLinenPure/decoder/moe_layers.wrapped_fn/while/body/closed_call/moe_layers/shard_map/sort_activations/gather" stack_frame_id=0}
  %transpose.1042 = bf16[4096,512]{1,0:T(8,128)(2,1)} transpose(%gather.214), dimensions={0,1}, metadata={op_name="jit(train_step)/jvp(TransformerLinenPure.apply)/TransformerLinenPure/decoder/moe_layers.wrapped_fn/while/body/closed_call/moe_layers/shard_map/sort_activations/gather" stack_frame_id=0}
  ROOT %reshape.3656 = bf16[4096,512]{1,0:T(8,128)(2,1)S(1)} reshape(%transpose.1042), metadata={op_name="jit(train_step)/jvp(TransformerLinenPure.apply)/TransformerLinenPure/decoder/moe_layers.wrapped_fn/while/body/closed_call/moe_layers/shard_map/sort_activations/gather" stack_frame_id=0}
}

%region_31.39 (sort.50: s32[], sort.51: s32[], sort.52: s32[], sort.53: s32[], sort.54: s32[], sort.55: s32[]) -> pred[] {
  %sort.52 = s32[]{:T(128)} parameter(2), metadata={op_name="jit(argsort)/sort"}
  %sort.53 = s32[]{:T(128)} parameter(3), metadata={op_name="jit(argsort)/sort"}
  %sort.50 = s32[]{:T(128)} parameter(0), metadata={op_name="jit(argsort)/sort"}
  %sort.51 = s32[]{:T(128)} parameter(1), metadata={op_name="jit(argsort)/sort"}
  %sort.54 = s32[]{:T(128)} parameter(4), metadata={op_name="jit(argsort)/sort"}
  %sort.55 = s32[]{:T(128)} parameter(5), metadata={op_name="jit(argsort)/sort"}
  %lt_to.30 = pred[]{:T(512)S(6)} compare(%sort.50, %sort.51), direction=LT, metadata={op_name="lt_to"}, backend_config={"flag_configs":[],"scoped_memory_configs":[],"used_scoped_memory_configs":[],"aliasing_operands":{"lists":[]}}
  %lt_to.31 = pred[]{:T(512)S(6)} compare(%sort.51, %sort.50), direction=LT, metadata={op_name="lt_to"}, backend_config={"flag_configs":[],"scoped_memory_configs":[],"used_scoped_memory_configs":[],"aliasing_operands":{"lists":[]}}
  %compare.142 = pred[]{:T(512)S(6)} compare(%lt_to.30, %lt_to.31), direction=EQ, metadata={op_name="compare.113"}, backend_config={"flag_configs":[],"scoped_memory_configs":[],"used_scoped_memory_configs":[],"aliasing_operands":{"lists":[]}}
  %compare.143 = pred[]{:T(512)S(6)} compare(%sort.54, %sort.55), direction=LT, metadata={op_name="compare.114"}, backend_config={"flag_configs":[],"scoped_memory_configs":[],"used_scoped_memory_configs":[],"aliasing_operands":{"lists":[]}}
  ROOT %select.126 = pred[]{:T(512)} select(%compare.142, %compare.143, %lt_to.30), metadata={op_name="select.110"}, backend_config={"flag_configs":[],"scoped_memory_configs":[],"used_scoped_memory_configs":[],"aliasing_operands":{"lists":[]}}
}

%fused_computation.3.clone (param_0.72: bf16[4096,512], param_1.118: s32[4096]) -> bf16[4096,512] {
  %param_0.72 = bf16[4096,512]{1,0:T(8,128)(2,1)S(1)} parameter(0)
  %param_1.118 = s32[4096]{0:T(1024)S(1)} parameter(1)
  %custom-call.23 = s32[4096]{0:T(1024)} custom-call(%param_1.118), custom_call_target="AssumeGatherIndicesInBound", operand_layout_constraints={s32[4096]{0:T(1024)}}, metadata={op_name="jit(train_step)/jvp(TransformerLinenPure.apply)/TransformerLinenPure/decoder/moe_layers.wrapped_fn/while/body/closed_call/moe_layers/shard_map/sort_activations/gather" stack_frame_id=0}
  %slice.930 = s32[4096]{0:T(1024)} slice(%custom-call.23), slice={[0:4096]}, metadata={op_name="jit(train_step)/jvp(TransformerLinenPure.apply)/TransformerLinenPure/decoder/moe_layers.wrapped_fn/while/body/closed_call/moe_layers/shard_map/sort_activations/gather" stack_frame_id=0}
  %reshape.3659 = s32[4096]{0:T(1024)} reshape(%slice.930), metadata={op_name="jit(train_step)/jvp(TransformerLinenPure.apply)/TransformerLinenPure/decoder/moe_layers.wrapped_fn/while/body/closed_call/moe_layers/shard_map/sort_activations/broadcast_in_dim" stack_frame_id=0}
  %transpose.1045 = s32[4096]{0:T(1024)} transpose(%reshape.3659), dimensions={0}, metadata={op_name="jit(train_step)/jvp(TransformerLinenPure.apply)/TransformerLinenPure/decoder/moe_layers.wrapped_fn/while/body/closed_call/moe_layers/shard_map/sort_activations/broadcast_in_dim" stack_frame_id=0}
  %gather.215 = bf16[4096,512]{1,0:T(8,128)(2,1)} gather(%param_0.72, %transpose.1045), offset_dims={1}, collapsed_slice_dims={0}, start_index_map={0}, index_vector_dim=1, slice_sizes={1,512}, metadata={op_name="jit(train_step)/jvp(TransformerLinenPure.apply)/TransformerLinenPure/decoder/moe_layers.wrapped_fn/while/body/closed_call/moe_layers/shard_map/sort_activations/gather" stack_frame_id=0}
  %transpose.1044 = bf16[4096,512]{1,0:T(8,128)(2,1)} transpose(%gather.215), dimensions={0,1}, metadata={op_name="jit(train_step)/jvp(TransformerLinenPure.apply)/TransformerLinenPure/decoder/moe_layers.wrapped_fn/while/body/closed_call/moe_layers/shard_map/sort_activations/gather" stack_frame_id=0}
  ROOT %reshape.3658 = bf16[4096,512]{1,0:T(8,128)(2,1)S(1)} reshape(%transpose.1044), metadata={op_name="jit(train_step)/jvp(TransformerLinenPure.apply)/TransformerLinenPure/decoder/moe_layers.wrapped_fn/while/body/closed_call/moe_layers/shard_map/sort_activations/gather" stack_frame_id=0}
}

%compare (name: s32[], name.1: s32[], name.2: bf16[], name.3: bf16[]) -> pred[] {
  %name.2 = bf16[] parameter(2)
  %name.3 = bf16[] parameter(3)
  %name = s32[] parameter(0)
  %name.1 = s32[] parameter(1)
  ROOT %compare.385 = pred[] compare(%name, %name.1), direction=LT, backend_config={"flag_configs":[],"scoped_memory_configs":[],"used_scoped_memory_configs":[],"aliasing_operands":{"lists":[]}}
}

%compare.1 (name.4: s32[], name.5: s32[], name.6: f32[], name.7: f32[]) -> pred[] {
  %name.6 = f32[] parameter(2)
  %name.7 = f32[] parameter(3)
  %name.4 = s32[] parameter(0)
  %name.5 = s32[] parameter(1)
  ROOT %compare.386 = pred[] compare(%name.4, %name.5), direction=LT, backend_config={"flag_configs":[],"scoped_memory_configs":[],"used_scoped_memory_configs":[],"aliasing_operands":{"lists":[]}}
}

%compare.2 (name.8: s32[], name.9: s32[], name.10: f32[], name.11: f32[]) -> pred[] {
  %name.10 = f32[] parameter(2)
  %name.11 = f32[] parameter(3)
  %name.8 = s32[] parameter(0)
  %name.9 = s32[] parameter(1)
  ROOT %compare.387 = pred[] compare(%name.8, %name.9), direction=LT, backend_config={"flag_configs":[],"scoped_memory_configs":[],"used_scoped_memory_configs":[],"aliasing_operands":{"lists":[]}}
}

%compare.3 (name.12: s32[], name.13: s32[], name.14: f32[], name.15: f32[]) -> pred[] {
  %name.14 = f32[] parameter(2)
  %name.15 = f32[] parameter(3)
  %name.12 = s32[] parameter(0)
  %name.13 = s32[] parameter(1)
  ROOT %compare.388 = pred[] compare(%name.12, %name.13), direction=LT, backend_config={"flag_configs":[],"scoped_memory_configs":[],"used_scoped_memory_configs":[],"aliasing_operands":{"lists":[]}}
}

%compare.4 (name.16: s32[], name.17: s32[], name.18: f32[], name.19: f32[]) -> pred[] {
  %name.18 = f32[] parameter(2)
  %name.19 = f32[] parameter(3)
  %name.16 = s32[] parameter(0)
  %name.17 = s32[] parameter(1)
  ROOT %compare.389 = pred[] compare(%name.16, %name.17), direction=LT, backend_config={"flag_configs":[],"scoped_memory_configs":[],"used_scoped_memory_configs":[],"aliasing_operands":{"lists":[]}}
}

%called_computation.13 (param_0.4523: s32[256]) -> s32[256] {
  %param_0.4523 = s32[256]{0:T(256)} parameter(0)
  ROOT %copy.2073 = s32[256]{0:T(256)} copy(%param_0.4523), backend_config={"flag_configs":[],"window_config":{"kernel_window_bounds":[],"output_window_bounds":["16"],"input_window_bounds":[],"estimated_cycles":"1134","iteration_bounds":[],"scratchpad_allocation_size":"256","cost_model_type":"COST_MODEL_TYPE_INVALID","ml_estimated_microseconds":0,"is_mask":false,"pad_output_on_minor_dim":"0","pad_input_on_minor_dim":"0","estimated_vmem_bytes":"0","estimated_bundle_count":"0","estimated_scoped_vmem_bytes":"0"},"loop_config":{"loop_order":[],"unrolled_loops":[{"unroll_dimension":"0","unroll_factor":"16","pipeline_remainder":false,"fully_unroll_if_trip_count_is_at_most":"0"}],"vectorizing_shape":[]},"scoped_memory_configs":[],"compute_type":"COMPUTE_TYPE_TILE","used_scoped_memory_configs":[]}
}, execution_thread="sparsecore"

%async_computation.13 (param_0.4524: s32[256]) -> s32[256] {
  %param_0.4524 = s32[256]{0:T(256)} parameter(0)
  ROOT %copy.2074.cloned.1 = s32[256]{0:T(256)} call(%param_0.4524), to_apply=%called_computation.13
}, execution_thread="sparsecore"

%region_49.59 (scatter-add.14: s32[], scatter-add.15: s32[]) -> s32[] {
  %scatter-add.14 = s32[]{:T(128)S(7)} parameter(0), metadata={op_name="scatter-add"}
  %scatter-add.15 = s32[]{:T(128)S(7)} parameter(1), metadata={op_name="scatter-add"}
  ROOT %add.1352 = s32[]{:T(128)S(7)} add(%scatter-add.14, %scatter-add.15), metadata={op_name="add" stack_frame_id=0}, backend_config={"flag_configs":[],"window_config":{"kernel_window_bounds":[],"output_window_bounds":["128"],"input_window_bounds":[],"estimated_cycles":"1165","iteration_bounds":[],"scratchpad_allocation_size":"520","cost_model_type":"COST_MODEL_TYPE_INVALID","ml_estimated_microseconds":0,"is_mask":false,"pad_output_on_minor_dim":"0","pad_input_on_minor_dim":"0","estimated_vmem_bytes":"0","estimated_bundle_count":"0","estimated_scoped_vmem_bytes":"0"},"loop_config":{"loop_order":[],"unrolled_loops":[{"unroll_dimension":"0","unroll_factor":"4","pipeline_remainder":false,"fully_unroll_if_trip_count_is_at_most":"0"}],"vectorizing_shape":[]},"scoped_memory_configs":[],"used_scoped_memory_configs":[]}
}, execution_thread="sparsecore"

%fused_computation.22.clone.clone (param_0.4525: s32[256], param_1.5325: s32[4096], param_2.4494: s32[4096]) -> s32[256] {
  %param_0.4525 = s32[256]{0:T(256)} parameter(0)
  %param_1.5325 = s32[4096]{0:T(1024)} parameter(1)
  %reshape.3923 = s32[4096]{0:T(1024)} reshape(%param_1.5325), metadata={op_name="jit(train_step)/transpose(jvp(TransformerLinenPure.apply))/TransformerLinenPure/decoder/moe_layers.wrapped_fn/while/body/closed_call/checkpoint/rematted_computation/moe_layers/shard_map/jit(clip)/max" stack_frame_id=0}
  %transpose.1100 = s32[4096]{0:T(1024)} transpose(%reshape.3923), dimensions={0}, metadata={op_name="jit(train_step)/transpose(jvp(TransformerLinenPure.apply))/TransformerLinenPure/decoder/moe_layers.wrapped_fn/while/body/closed_call/checkpoint/rematted_computation/moe_layers/shard_map/jit(clip)/max" stack_frame_id=0}
  %param_2.4494 = s32[4096]{0:T(1024)} parameter(2)
  %reshape.3924 = s32[4096]{0:T(1024)} reshape(%param_2.4494), metadata={op_name="jit(train_step)/moe_layers/shard_map/broadcast_in_dim" stack_frame_id=0}
  %transpose.1101 = s32[4096]{0:T(1024)} transpose(%reshape.3924), dimensions={0}, metadata={op_name="jit(train_step)/moe_layers/shard_map/broadcast_in_dim" stack_frame_id=0}
  ROOT %scatter-add.237 = s32[256]{0:T(256)} scatter(%param_0.4525, %transpose.1100, %transpose.1101), update_window_dims={}, inserted_window_dims={0}, scatter_dims_to_operand_dims={0}, index_vector_dim=1, to_apply=%region_49.59, metadata={op_name="jit(train_step)/transpose(jvp(TransformerLinenPure.apply))/TransformerLinenPure/decoder/moe_layers.wrapped_fn/while/body/closed_call/checkpoint/rematted_computation/moe_layers/shard_map/scatter-add" stack_frame_id=0}
}, execution_thread="sparsecore"

%called_computation.14 (param_0.4526: s32[256], param_1.5326: s32[4096], param_2.4495: s32[4096]) -> s32[256] {
  %param_0.4526 = s32[256]{0:T(256)} parameter(0)
  %param_1.5326 = s32[4096]{0:T(1024)} parameter(1)
  %param_2.4495 = s32[4096]{0:T(1024)} parameter(2)
  ROOT %scatter_offload_custom_fusion.39 = s32[256]{0:T(256)} fusion(%param_0.4526, %param_1.5326, %param_2.4495), kind=kCustom, calls=%fused_computation.22.clone.clone, metadata={op_name="jit(train_step)/transpose(jvp(TransformerLinenPure.apply))/TransformerLinenPure/decoder/moe_layers.wrapped_fn/while/body/closed_call/checkpoint/rematted_computation/moe_layers/shard_map/scatter-add" stack_frame_id=0}, backend_config={"flag_configs":[],"window_config":{"kernel_window_bounds":[],"output_window_bounds":["256"],"input_window_bounds":[],"estimated_cycles":"9223372036854775807","iteration_bounds":[],"scratchpad_allocation_size":"4160","cost_model_type":"COST_MODEL_TYPE_INVALID","ml_estimated_microseconds":0,"is_mask":false,"pad_output_on_minor_dim":"0","pad_input_on_minor_dim":"0","estimated_vmem_bytes":"0","estimated_bundle_count":"0","estimated_scoped_vmem_bytes":"0"},"loop_config":{"loop_order":[],"unrolled_loops":[],"vectorizing_shape":[]},"scoped_memory_configs":[],"compute_type":"COMPUTE_TYPE_TILE","used_scoped_memory_configs":[]}
}, execution_thread="sparsecore"

%async_computation.14 (param_0.4527: s32[256], param_1.5327: s32[4096], param_2.4496: s32[4096]) -> s32[256] {
  %param_0.4527 = s32[256]{0:T(256)} parameter(0)
  %param_1.5327 = s32[4096]{0:T(1024)} parameter(1)
  %param_2.4496 = s32[4096]{0:T(1024)} parameter(2)
  ROOT %scatter_offload_custom_fusion.40.cloned.1 = s32[256]{0:T(256)} call(%param_0.4527, %param_1.5327, %param_2.4496), to_apply=%called_computation.14, metadata={op_name="jit(train_step)/transpose(jvp(TransformerLinenPure.apply))/TransformerLinenPure/decoder/moe_layers.wrapped_fn/while/body/closed_call/checkpoint/rematted_computation/moe_layers/shard_map/scatter-add" stack_frame_id=0}
}, execution_thread="sparsecore"

%called_computation (param_0.84: s32[256], param_1.136: s32[4096], param_2.80: s32[4096], param_3.3085: token[]) -> s32[256] {
  %param_3.3085 = token[] parameter(3), backend_config={"flag_configs":[],"scoped_memory_configs":[],"implicit_sharding":{"type":"REPLICATED","tile_assignment_dimensions":[],"tile_assignment_devices":[],"tuple_shardings":[],"replicate_on_last_tile_dim":false,"metadata":[],"last_tile_dims":[],"iota_reshape_dims":[],"iota_transpose_perm":[],"is_shard_group":false,"shard_group_id":"0","shard_group_type":"AS"},"used_scoped_memory_configs":[]}
  %param_0.84 = s32[256]{0:T(256)} parameter(0), backend_config={"flag_configs":[],"scoped_memory_configs":[],"compute_type":"COMPUTE_TYPE_SCALAR","used_scoped_memory_configs":[]}
  %param_1.136 = s32[4096]{0:T(1024)} parameter(1), backend_config={"flag_configs":[],"scoped_memory_configs":[],"compute_type":"COMPUTE_TYPE_SCALAR","used_scoped_memory_configs":[]}
  %param_2.80 = s32[4096]{0:T(1024)} parameter(2), backend_config={"flag_configs":[],"scoped_memory_configs":[],"compute_type":"COMPUTE_TYPE_SCALAR","used_scoped_memory_configs":[]}
  %copy.2074.cloned.1.call-start = ((s32[256]{0:T(256)}), s32[256]{0:T(256)}, u32[]{:S(8)}) async-start(%param_0.84), async_execution_thread="sparsecore", calls=%async_computation.13
  %copy.2074.cloned.1.call-done = s32[256]{0:T(256)} async-done(%copy.2074.cloned.1.call-start)
  %scatter_offload_custom_fusion.40.cloned.1.call-start = ((s32[256]{0:T(256)}, s32[4096]{0:T(1024)}, s32[4096]{0:T(1024)}), s32[256]{0:T(256)}, u32[]{:S(8)}) async-start(%copy.2074.cloned.1.call-done, %param_1.136, %param_2.80), async_execution_thread="sparsecore", calls=%async_computation.14, metadata={op_name="jit(train_step)/transpose(jvp(TransformerLinenPure.apply))/TransformerLinenPure/decoder/moe_layers.wrapped_fn/while/body/closed_call/checkpoint/rematted_computation/moe_layers/shard_map/scatter-add" stack_frame_id=0}
  ROOT %scatter_offload_custom_fusion.40.cloned.1.call-done = s32[256]{0:T(256)} async-done(%scatter_offload_custom_fusion.40.cloned.1.call-start), metadata={op_name="jit(train_step)/transpose(jvp(TransformerLinenPure.apply))/TransformerLinenPure/decoder/moe_layers.wrapped_fn/while/body/closed_call/checkpoint/rematted_computation/moe_layers/shard_map/scatter-add" stack_frame_id=0}
}, execution_thread="sparsecore"

%async_computation (param_0.85: s32[256], param_1.137: s32[4096], param_2.81: s32[4096], param_3.3084: token[]) -> s32[256] {
  %param_3.3084 = token[] parameter(3)
  %param_0.85 = s32[256]{0:T(256)} parameter(0)
  %param_1.137 = s32[4096]{0:T(1024)} parameter(1)
  %param_2.81 = s32[4096]{0:T(1024)} parameter(2)
  ROOT %scatter_offload_custom_fusion.2.cloned.1 = s32[256]{0:T(256)} call(%param_0.85, %param_1.137, %param_2.81, %param_3.3084), to_apply=%called_computation, metadata={op_name="jit(train_step)/transpose(jvp(TransformerLinenPure.apply))/TransformerLinenPure/decoder/moe_layers.wrapped_fn/while/body/closed_call/checkpoint/rematted_computation/moe_layers/shard_map/scatter-add" stack_frame_id=0}
}, execution_thread="sparsecore"

%called_computation.15 (param_0.4528: f32[9]) -> f32[9] {
  %param_0.4528 = f32[9]{0:T(128)} parameter(0)
  ROOT %copy.2075 = f32[9]{0:T(128)} copy(%param_0.4528), backend_config={"flag_configs":[],"window_config":{"kernel_window_bounds":[],"output_window_bounds":["8"],"input_window_bounds":[],"estimated_cycles":"1131","iteration_bounds":[],"scratchpad_allocation_size":"128","cost_model_type":"COST_MODEL_TYPE_INVALID","ml_estimated_microseconds":0,"is_mask":false,"pad_output_on_minor_dim":"0","pad_input_on_minor_dim":"0","estimated_vmem_bytes":"0","estimated_bundle_count":"0","estimated_scoped_vmem_bytes":"0"},"loop_config":{"loop_order":[],"unrolled_loops":[{"unroll_dimension":"0","unroll_factor":"16","pipeline_remainder":false,"fully_unroll_if_trip_count_is_at_most":"0"}],"vectorizing_shape":[]},"scoped_memory_configs":[],"compute_type":"COMPUTE_TYPE_TILE","used_scoped_memory_configs":[]}
}, execution_thread="sparsecore"

%async_computation.15 (param_0.4529: f32[9]) -> f32[9] {
  %param_0.4529 = f32[9]{0:T(128)} parameter(0)
  ROOT %copy.2076.cloned.1 = f32[9]{0:T(128)} call(%param_0.4529), to_apply=%called_computation.15
}, execution_thread="sparsecore"

%region_61.72 (scatter-add.24: f32[], scatter-add.25: f32[]) -> f32[] {
  %scatter-add.24 = f32[]{:T(128)S(7)} parameter(0), metadata={op_name="scatter-add"}
  %scatter-add.25 = f32[]{:T(128)S(7)} parameter(1), metadata={op_name="scatter-add"}
  ROOT %add.1358 = f32[]{:T(128)S(7)} add(%scatter-add.24, %scatter-add.25), metadata={op_name="add" stack_frame_id=0}, backend_config={"flag_configs":[],"window_config":{"kernel_window_bounds":[],"output_window_bounds":["128"],"input_window_bounds":[],"estimated_cycles":"1165","iteration_bounds":[],"scratchpad_allocation_size":"520","cost_model_type":"COST_MODEL_TYPE_INVALID","ml_estimated_microseconds":0,"is_mask":false,"pad_output_on_minor_dim":"0","pad_input_on_minor_dim":"0","estimated_vmem_bytes":"0","estimated_bundle_count":"0","estimated_scoped_vmem_bytes":"0"},"loop_config":{"loop_order":[],"unrolled_loops":[{"unroll_dimension":"0","unroll_factor":"4","pipeline_remainder":false,"fully_unroll_if_trip_count_is_at_most":"0"}],"vectorizing_shape":[]},"scoped_memory_configs":[],"used_scoped_memory_configs":[]}
}, execution_thread="sparsecore"

%fused_computation.24.clone.clone (param_0.4530: f32[9], param_1.5328: s32[256], param_2.4497: f32[256]) -> f32[9] {
  %param_0.4530 = f32[9]{0:T(128)} parameter(0)
  %param_1.5328 = s32[256]{0:T(256)} parameter(1)
  %reshape.3925 = s32[256]{0:T(256)} reshape(%param_1.5328), metadata={op_name="jit(train_step)/transpose(jvp(TransformerLinenPure.apply))/TransformerLinenPure/decoder/moe_layers.wrapped_fn/while/body/closed_call/checkpoint/rematted_computation/moe_layers/shard_map/jit(gmm)/broadcast_in_dim" stack_frame_id=0}
  %transpose.1102 = s32[256]{0:T(256)} transpose(%reshape.3925), dimensions={0}, metadata={op_name="jit(train_step)/transpose(jvp(TransformerLinenPure.apply))/TransformerLinenPure/decoder/moe_layers.wrapped_fn/while/body/closed_call/checkpoint/rematted_computation/moe_layers/shard_map/jit(gmm)/broadcast_in_dim" stack_frame_id=0}
  %param_2.4497 = f32[256]{0:T(256)} parameter(2)
  %reshape.3926 = f32[256]{0:T(256)} reshape(%param_2.4497), metadata={op_name="jit(train_step)/moe_layers/shard_map/jit(gmm)/broadcast_in_dim" stack_frame_id=0}
  %transpose.1103 = f32[256]{0:T(256)} transpose(%reshape.3926), dimensions={0}, metadata={op_name="jit(train_step)/moe_layers/shard_map/jit(gmm)/broadcast_in_dim" stack_frame_id=0}
  ROOT %scatter-add.238 = f32[9]{0:T(128)} scatter(%param_0.4530, %transpose.1102, %transpose.1103), update_window_dims={}, inserted_window_dims={0}, scatter_dims_to_operand_dims={0}, index_vector_dim=1, indices_are_sorted=true, to_apply=%region_61.72, metadata={op_name="jit(train_step)/transpose(jvp(TransformerLinenPure.apply))/TransformerLinenPure/decoder/moe_layers.wrapped_fn/while/body/closed_call/checkpoint/rematted_computation/moe_layers/shard_map/jit(gmm)/scatter-add" stack_frame_id=0}
}, execution_thread="sparsecore"

%called_computation.16 (param_0.4531: f32[9], param_1.5329: s32[256], param_2.4498: f32[256]) -> f32[9] {
  %param_0.4531 = f32[9]{0:T(128)} parameter(0)
  %param_1.5329 = s32[256]{0:T(256)} parameter(1)
  %param_2.4498 = f32[256]{0:T(256)} parameter(2)
  ROOT %scatter_offload_custom_fusion.41 = f32[9]{0:T(128)} fusion(%param_0.4531, %param_1.5329, %param_2.4498), kind=kCustom, calls=%fused_computation.24.clone.clone, metadata={op_name="jit(train_step)/transpose(jvp(TransformerLinenPure.apply))/TransformerLinenPure/decoder/moe_layers.wrapped_fn/while/body/closed_call/checkpoint/rematted_computation/moe_layers/shard_map/jit(gmm)/scatter-add" stack_frame_id=0}, backend_config={"flag_configs":[],"window_config":{"kernel_window_bounds":[],"output_window_bounds":["16"],"input_window_bounds":[],"estimated_cycles":"9223372036854775807","iteration_bounds":[],"scratchpad_allocation_size":"1312","cost_model_type":"COST_MODEL_TYPE_INVALID","ml_estimated_microseconds":0,"is_mask":false,"pad_output_on_minor_dim":"0","pad_input_on_minor_dim":"0","estimated_vmem_bytes":"0","estimated_bundle_count":"0","estimated_scoped_vmem_bytes":"0"},"loop_config":{"loop_order":[],"unrolled_loops":[],"vectorizing_shape":[]},"scoped_memory_configs":[],"compute_type":"COMPUTE_TYPE_TILE","used_scoped_memory_configs":[]}
}, execution_thread="sparsecore"

%async_computation.16 (param_0.4532: f32[9], param_1.5330: s32[256], param_2.4499: f32[256]) -> f32[9] {
  %param_0.4532 = f32[9]{0:T(128)} parameter(0)
  %param_1.5330 = s32[256]{0:T(256)} parameter(1)
  %param_2.4499 = f32[256]{0:T(256)} parameter(2)
  ROOT %scatter_offload_custom_fusion.42.cloned.1 = f32[9]{0:T(128)} call(%param_0.4532, %param_1.5330, %param_2.4499), to_apply=%called_computation.16, metadata={op_name="jit(train_step)/transpose(jvp(TransformerLinenPure.apply))/TransformerLinenPure/decoder/moe_layers.wrapped_fn/while/body/closed_call/checkpoint/rematted_computation/moe_layers/shard_map/jit(gmm)/scatter-add" stack_frame_id=0}
}, execution_thread="sparsecore"

%called_computation.1 (param_0.87: f32[9], param_1.139: s32[256], param_2.83: f32[256], param_3.3099: token[]) -> f32[9] {
  %param_3.3099 = token[] parameter(3), backend_config={"flag_configs":[],"scoped_memory_configs":[],"implicit_sharding":{"type":"REPLICATED","tile_assignment_dimensions":[],"tile_assignment_devices":[],"tuple_shardings":[],"replicate_on_last_tile_dim":false,"metadata":[],"last_tile_dims":[],"iota_reshape_dims":[],"iota_transpose_perm":[],"is_shard_group":false,"shard_group_id":"0","shard_group_type":"AS"},"used_scoped_memory_configs":[]}
  %param_0.87 = f32[9]{0:T(128)} parameter(0), backend_config={"flag_configs":[],"scoped_memory_configs":[],"compute_type":"COMPUTE_TYPE_SCALAR","used_scoped_memory_configs":[]}
  %param_1.139 = s32[256]{0:T(256)} parameter(1), backend_config={"flag_configs":[],"scoped_memory_configs":[],"compute_type":"COMPUTE_TYPE_SCALAR","used_scoped_memory_configs":[]}
  %param_2.83 = f32[256]{0:T(256)} parameter(2), backend_config={"flag_configs":[],"scoped_memory_configs":[],"compute_type":"COMPUTE_TYPE_SCALAR","used_scoped_memory_configs":[]}
  %copy.2076.cloned.1.call-start = ((f32[9]{0:T(128)}), f32[9]{0:T(128)}, u32[]{:S(8)}) async-start(%param_0.87), async_execution_thread="sparsecore", calls=%async_computation.15
  %copy.2076.cloned.1.call-done = f32[9]{0:T(128)} async-done(%copy.2076.cloned.1.call-start)
  %scatter_offload_custom_fusion.42.cloned.1.call-start = ((f32[9]{0:T(128)}, s32[256]{0:T(256)}, f32[256]{0:T(256)}), f32[9]{0:T(128)}, u32[]{:S(8)}) async-start(%copy.2076.cloned.1.call-done, %param_1.139, %param_2.83), async_execution_thread="sparsecore", calls=%async_computation.16, metadata={op_name="jit(train_step)/transpose(jvp(TransformerLinenPure.apply))/TransformerLinenPure/decoder/moe_layers.wrapped_fn/while/body/closed_call/checkpoint/rematted_computation/moe_layers/shard_map/jit(gmm)/scatter-add" stack_frame_id=0}
  ROOT %scatter_offload_custom_fusion.42.cloned.1.call-done = f32[9]{0:T(128)} async-done(%scatter_offload_custom_fusion.42.cloned.1.call-start), metadata={op_name="jit(train_step)/transpose(jvp(TransformerLinenPure.apply))/TransformerLinenPure/decoder/moe_layers.wrapped_fn/while/body/closed_call/checkpoint/rematted_computation/moe_layers/shard_map/jit(gmm)/scatter-add" stack_frame_id=0}
}, execution_thread="sparsecore"

%async_computation.1 (param_0.88: f32[9], param_1.140: s32[256], param_2.84: f32[256], param_3.3098: token[]) -> f32[9] {
  %param_3.3098 = token[] parameter(3)
  %param_0.88 = f32[9]{0:T(128)} parameter(0)
  %param_1.140 = s32[256]{0:T(256)} parameter(1)
  %param_2.84 = f32[256]{0:T(256)} parameter(2)
  ROOT %scatter_offload_custom_fusion.5.cloned.1 = f32[9]{0:T(128)} call(%param_0.88, %param_1.140, %param_2.84, %param_3.3098), to_apply=%called_computation.1, metadata={op_name="jit(train_step)/transpose(jvp(TransformerLinenPure.apply))/TransformerLinenPure/decoder/moe_layers.wrapped_fn/while/body/closed_call/checkpoint/rematted_computation/moe_layers/shard_map/jit(gmm)/scatter-add" stack_frame_id=0}
}, execution_thread="sparsecore"

%called_computation.17 (param_0.4533: s32[263]) -> s32[263] {
  %param_0.4533 = s32[263]{0:T(512)} parameter(0)
  ROOT %copy.2077 = s32[263]{0:T(512)} copy(%param_0.4533), backend_config={"flag_configs":[],"window_config":{"kernel_window_bounds":[],"output_window_bounds":["32"],"input_window_bounds":[],"estimated_cycles":"1141","iteration_bounds":[],"scratchpad_allocation_size":"512","cost_model_type":"COST_MODEL_TYPE_INVALID","ml_estimated_microseconds":0,"is_mask":false,"pad_output_on_minor_dim":"0","pad_input_on_minor_dim":"0","estimated_vmem_bytes":"0","estimated_bundle_count":"0","estimated_scoped_vmem_bytes":"0"},"loop_config":{"loop_order":[],"unrolled_loops":[{"unroll_dimension":"0","unroll_factor":"16","pipeline_remainder":false,"fully_unroll_if_trip_count_is_at_most":"0"}],"vectorizing_shape":[]},"scoped_memory_configs":[],"compute_type":"COMPUTE_TYPE_TILE","used_scoped_memory_configs":[]}
}, execution_thread="sparsecore"

%async_computation.17 (param_0.4534: s32[263]) -> s32[263] {
  %param_0.4534 = s32[263]{0:T(512)} parameter(0)
  ROOT %copy.2078.cloned.1 = s32[263]{0:T(512)} call(%param_0.4534), to_apply=%called_computation.17
}, execution_thread="sparsecore"

%region_63.74 (scatter-add.28: s32[], scatter-add.29: s32[]) -> s32[] {
  %scatter-add.28 = s32[]{:T(128)S(7)} parameter(0), metadata={op_name="scatter-add"}
  %scatter-add.29 = s32[]{:T(128)S(7)} parameter(1), metadata={op_name="scatter-add"}
  ROOT %add.1359 = s32[]{:T(128)S(7)} add(%scatter-add.28, %scatter-add.29), metadata={op_name="add" stack_frame_id=0}, backend_config={"flag_configs":[],"window_config":{"kernel_window_bounds":[],"output_window_bounds":["128"],"input_window_bounds":[],"estimated_cycles":"1165","iteration_bounds":[],"scratchpad_allocation_size":"520","cost_model_type":"COST_MODEL_TYPE_INVALID","ml_estimated_microseconds":0,"is_mask":false,"pad_output_on_minor_dim":"0","pad_input_on_minor_dim":"0","estimated_vmem_bytes":"0","estimated_bundle_count":"0","estimated_scoped_vmem_bytes":"0"},"loop_config":{"loop_order":[],"unrolled_loops":[{"unroll_dimension":"0","unroll_factor":"4","pipeline_remainder":false,"fully_unroll_if_trip_count_is_at_most":"0"}],"vectorizing_shape":[]},"scoped_memory_configs":[],"used_scoped_memory_configs":[]}
}, execution_thread="sparsecore"

%fused_computation.25.clone.clone (param_0.4535: s32[263], param_1.5331: s32[8], param_2.4500: s32[8]) -> s32[263] {
  %param_0.4535 = s32[263]{0:T(512)} parameter(0)
  %param_1.5331 = s32[8]{0:T(128)} parameter(1)
  %reshape.3927 = s32[8]{0:T(128)} reshape(%param_1.5331), metadata={op_name="jit(train_step)/transpose(jvp(TransformerLinenPure.apply))/TransformerLinenPure/decoder/moe_layers.wrapped_fn/while/body/closed_call/checkpoint/rematted_computation/moe_layers/shard_map/jit(gmm)/select_n" stack_frame_id=0}
  %transpose.1104 = s32[8]{0:T(128)} transpose(%reshape.3927), dimensions={0}, metadata={op_name="jit(train_step)/transpose(jvp(TransformerLinenPure.apply))/TransformerLinenPure/decoder/moe_layers.wrapped_fn/while/body/closed_call/checkpoint/rematted_computation/moe_layers/shard_map/jit(gmm)/select_n" stack_frame_id=0}
  %param_2.4500 = s32[8]{0:T(128)} parameter(2)
  %reshape.3928 = s32[8]{0:T(128)} reshape(%param_2.4500), metadata={op_name="jit(train_step)/moe_layers/shard_map/jit(gmm)/broadcast.80" stack_frame_id=0}
  %transpose.1105 = s32[8]{0:T(128)} transpose(%reshape.3928), dimensions={0}, metadata={op_name="jit(train_step)/moe_layers/shard_map/jit(gmm)/broadcast.80" stack_frame_id=0}
  ROOT %scatter-add.239 = s32[263]{0:T(512)} scatter(%param_0.4535, %transpose.1104, %transpose.1105), update_window_dims={}, inserted_window_dims={0}, scatter_dims_to_operand_dims={0}, index_vector_dim=1, to_apply=%region_63.74, metadata={op_name="jit(train_step)/transpose(jvp(TransformerLinenPure.apply))/TransformerLinenPure/decoder/moe_layers.wrapped_fn/while/body/closed_call/checkpoint/rematted_computation/moe_layers/shard_map/jit(gmm)/scatter-add" stack_frame_id=0}
}, execution_thread="sparsecore"

%called_computation.18 (param_0.4536: s32[263], param_1.5332: s32[8], param_2.4501: s32[8]) -> s32[263] {
  %param_0.4536 = s32[263]{0:T(512)} parameter(0)
  %param_1.5332 = s32[8]{0:T(128)} parameter(1)
  %param_2.4501 = s32[8]{0:T(128)} parameter(2)
  ROOT %scatter_offload_custom_fusion.43 = s32[263]{0:T(512)} fusion(%param_0.4536, %param_1.5332, %param_2.4501), kind=kCustom, calls=%fused_computation.25.clone.clone, metadata={op_name="jit(train_step)/transpose(jvp(TransformerLinenPure.apply))/TransformerLinenPure/decoder/moe_layers.wrapped_fn/while/body/closed_call/checkpoint/rematted_computation/moe_layers/shard_map/jit(gmm)/scatter-add" stack_frame_id=0}, backend_config={"flag_configs":[],"window_config":{"kernel_window_bounds":[],"output_window_bounds":["8"],"input_window_bounds":[],"estimated_cycles":"9223372036854775807","iteration_bounds":[],"scratchpad_allocation_size":"256","cost_model_type":"COST_MODEL_TYPE_INVALID","ml_estimated_microseconds":0,"is_mask":false,"pad_output_on_minor_dim":"0","pad_input_on_minor_dim":"0","estimated_vmem_bytes":"0","estimated_bundle_count":"0","estimated_scoped_vmem_bytes":"0"},"loop_config":{"loop_order":[],"unrolled_loops":[],"vectorizing_shape":[]},"scoped_memory_configs":[],"compute_type":"COMPUTE_TYPE_TILE","used_scoped_memory_configs":[]}
}, execution_thread="sparsecore"

%async_computation.18 (param_0.4537: s32[263], param_1.5333: s32[8], param_2.4502: s32[8]) -> s32[263] {
  %param_0.4537 = s32[263]{0:T(512)} parameter(0)
  %param_1.5333 = s32[8]{0:T(128)} parameter(1)
  %param_2.4502 = s32[8]{0:T(128)} parameter(2)
  ROOT %scatter_offload_custom_fusion.44.cloned.1 = s32[263]{0:T(512)} call(%param_0.4537, %param_1.5333, %param_2.4502), to_apply=%called_computation.18, metadata={op_name="jit(train_step)/transpose(jvp(TransformerLinenPure.apply))/TransformerLinenPure/decoder/moe_layers.wrapped_fn/while/body/closed_call/checkpoint/rematted_computation/moe_layers/shard_map/jit(gmm)/scatter-add" stack_frame_id=0}
}, execution_thread="sparsecore"

%called_computation.2 (param_0.90: s32[263], param_1.142: s32[8], param_2.86: s32[8], param_3.3105: token[]) -> s32[263] {
  %param_3.3105 = token[] parameter(3), backend_config={"flag_configs":[],"scoped_memory_configs":[],"implicit_sharding":{"type":"REPLICATED","tile_assignment_dimensions":[],"tile_assignment_devices":[],"tuple_shardings":[],"replicate_on_last_tile_dim":false,"metadata":[],"last_tile_dims":[],"iota_reshape_dims":[],"iota_transpose_perm":[],"is_shard_group":false,"shard_group_id":"0","shard_group_type":"AS"},"used_scoped_memory_configs":[]}
  %param_0.90 = s32[263]{0:T(512)} parameter(0), backend_config={"flag_configs":[],"scoped_memory_configs":[],"compute_type":"COMPUTE_TYPE_SCALAR","used_scoped_memory_configs":[]}
  %param_1.142 = s32[8]{0:T(128)} parameter(1), backend_config={"flag_configs":[],"scoped_memory_configs":[],"compute_type":"COMPUTE_TYPE_SCALAR","used_scoped_memory_configs":[]}
  %param_2.86 = s32[8]{0:T(128)} parameter(2), backend_config={"flag_configs":[],"scoped_memory_configs":[],"compute_type":"COMPUTE_TYPE_SCALAR","used_scoped_memory_configs":[]}
  %copy.2078.cloned.1.call-start = ((s32[263]{0:T(512)}), s32[263]{0:T(512)}, u32[]{:S(8)}) async-start(%param_0.90), async_execution_thread="sparsecore", calls=%async_computation.17
  %copy.2078.cloned.1.call-done = s32[263]{0:T(512)} async-done(%copy.2078.cloned.1.call-start)
  %scatter_offload_custom_fusion.44.cloned.1.call-start = ((s32[263]{0:T(512)}, s32[8]{0:T(128)}, s32[8]{0:T(128)}), s32[263]{0:T(512)}, u32[]{:S(8)}) async-start(%copy.2078.cloned.1.call-done, %param_1.142, %param_2.86), async_execution_thread="sparsecore", calls=%async_computation.18, metadata={op_name="jit(train_step)/transpose(jvp(TransformerLinenPure.apply))/TransformerLinenPure/decoder/moe_layers.wrapped_fn/while/body/closed_call/checkpoint/rematted_computation/moe_layers/shard_map/jit(gmm)/scatter-add" stack_frame_id=0}
  ROOT %scatter_offload_custom_fusion.44.cloned.1.call-done = s32[263]{0:T(512)} async-done(%scatter_offload_custom_fusion.44.cloned.1.call-start), metadata={op_name="jit(train_step)/transpose(jvp(TransformerLinenPure.apply))/TransformerLinenPure/decoder/moe_layers.wrapped_fn/while/body/closed_call/checkpoint/rematted_computation/moe_layers/shard_map/jit(gmm)/scatter-add" stack_frame_id=0}
}, execution_thread="sparsecore"

%async_computation.2 (param_0.91: s32[263], param_1.143: s32[8], param_2.87: s32[8], param_3.3104: token[]) -> s32[263] {
  %param_3.3104 = token[] parameter(3)
  %param_0.91 = s32[263]{0:T(512)} parameter(0)
  %param_1.143 = s32[8]{0:T(128)} parameter(1)
  %param_2.87 = s32[8]{0:T(128)} parameter(2)
  ROOT %scatter_offload_custom_fusion.8.cloned.1 = s32[263]{0:T(512)} call(%param_0.91, %param_1.143, %param_2.87, %param_3.3104), to_apply=%called_computation.2, metadata={op_name="jit(train_step)/transpose(jvp(TransformerLinenPure.apply))/TransformerLinenPure/decoder/moe_layers.wrapped_fn/while/body/closed_call/checkpoint/rematted_computation/moe_layers/shard_map/jit(gmm)/scatter-add" stack_frame_id=0}
}, execution_thread="sparsecore"

%called_computation.19 (param_0.4538: s32[263]) -> s32[263] {
  %param_0.4538 = s32[263]{0:T(512)} parameter(0)
  ROOT %copy.2079 = s32[263]{0:T(512)} copy(%param_0.4538), backend_config={"flag_configs":[],"window_config":{"kernel_window_bounds":[],"output_window_bounds":["32"],"input_window_bounds":[],"estimated_cycles":"1141","iteration_bounds":[],"scratchpad_allocation_size":"512","cost_model_type":"COST_MODEL_TYPE_INVALID","ml_estimated_microseconds":0,"is_mask":false,"pad_output_on_minor_dim":"0","pad_input_on_minor_dim":"0","estimated_vmem_bytes":"0","estimated_bundle_count":"0","estimated_scoped_vmem_bytes":"0"},"loop_config":{"loop_order":[],"unrolled_loops":[{"unroll_dimension":"0","unroll_factor":"16","pipeline_remainder":false,"fully_unroll_if_trip_count_is_at_most":"0"}],"vectorizing_shape":[]},"scoped_memory_configs":[],"compute_type":"COMPUTE_TYPE_TILE","used_scoped_memory_configs":[]}
}, execution_thread="sparsecore"

%async_computation.19 (param_0.4539: s32[263]) -> s32[263] {
  %param_0.4539 = s32[263]{0:T(512)} parameter(0)
  ROOT %copy.2080.cloned.1 = s32[263]{0:T(512)} call(%param_0.4539), to_apply=%called_computation.19
}, execution_thread="sparsecore"

%region_73.86.clone (scatter-add.163: s32[], scatter-add.164: s32[]) -> s32[] {
  %scatter-add.163 = s32[]{:T(128)S(7)} parameter(0), metadata={op_name="scatter-add"}
  %scatter-add.164 = s32[]{:T(128)S(7)} parameter(1), metadata={op_name="scatter-add"}
  ROOT %add.2474 = s32[]{:T(128)S(7)} add(%scatter-add.163, %scatter-add.164), metadata={op_name="add" stack_frame_id=0}, backend_config={"flag_configs":[],"window_config":{"kernel_window_bounds":[],"output_window_bounds":["128"],"input_window_bounds":[],"estimated_cycles":"1165","iteration_bounds":[],"scratchpad_allocation_size":"520","cost_model_type":"COST_MODEL_TYPE_INVALID","ml_estimated_microseconds":0,"is_mask":false,"pad_output_on_minor_dim":"0","pad_input_on_minor_dim":"0","estimated_vmem_bytes":"0","estimated_bundle_count":"0","estimated_scoped_vmem_bytes":"0"},"loop_config":{"loop_order":[],"unrolled_loops":[{"unroll_dimension":"0","unroll_factor":"4","pipeline_remainder":false,"fully_unroll_if_trip_count_is_at_most":"0"}],"vectorizing_shape":[]},"scoped_memory_configs":[],"used_scoped_memory_configs":[]}
}, execution_thread="sparsecore"

%fused_computation.26.clone.clone (param_0.4540: s32[263], param_1.5334: s32[256], param_2.4503: s32[256]) -> s32[263] {
  %param_0.4540 = s32[263]{0:T(512)} parameter(0)
  %param_1.5334 = s32[256]{0:T(256)} parameter(1)
  %reshape.3929 = s32[256]{0:T(256)} reshape(%param_1.5334), metadata={op_name="jit(train_step)/transpose(jvp(TransformerLinenPure.apply))/TransformerLinenPure/decoder/moe_layers.wrapped_fn/while/body/closed_call/checkpoint/moe_layers/shard_map/jit(gmm)/select_n" stack_frame_id=0}
  %transpose.1106 = s32[256]{0:T(256)} transpose(%reshape.3929), dimensions={0}, metadata={op_name="jit(train_step)/transpose(jvp(TransformerLinenPure.apply))/TransformerLinenPure/decoder/moe_layers.wrapped_fn/while/body/closed_call/checkpoint/moe_layers/shard_map/jit(gmm)/select_n" stack_frame_id=0}
  %param_2.4503 = s32[256]{0:T(256)} parameter(2)
  %reshape.3930 = s32[256]{0:T(256)} reshape(%param_2.4503), metadata={op_name="jit(train_step)/moe_layers/shard_map/jit(gmm)/broadcast_in_dim" stack_frame_id=0}
  %transpose.1107 = s32[256]{0:T(256)} transpose(%reshape.3930), dimensions={0}, metadata={op_name="jit(train_step)/moe_layers/shard_map/jit(gmm)/broadcast_in_dim" stack_frame_id=0}
  ROOT %scatter-add.240 = s32[263]{0:T(512)} scatter(%param_0.4540, %transpose.1106, %transpose.1107), update_window_dims={}, inserted_window_dims={0}, scatter_dims_to_operand_dims={0}, index_vector_dim=1, to_apply=%region_73.86.clone, metadata={op_name="jit(train_step)/transpose(jvp(TransformerLinenPure.apply))/TransformerLinenPure/decoder/moe_layers.wrapped_fn/while/body/closed_call/checkpoint/moe_layers/shard_map/jit(gmm)/scatter-add" stack_frame_id=0}
}, execution_thread="sparsecore"

%called_computation.20 (param_0.4541: s32[263], param_1.5335: s32[256], param_2.4504: s32[256]) -> s32[263] {
  %param_0.4541 = s32[263]{0:T(512)} parameter(0)
  %param_1.5335 = s32[256]{0:T(256)} parameter(1)
  %param_2.4504 = s32[256]{0:T(256)} parameter(2)
  ROOT %scatter_offload_custom_fusion.45 = s32[263]{0:T(512)} fusion(%param_0.4541, %param_1.5335, %param_2.4504), kind=kCustom, calls=%fused_computation.26.clone.clone, metadata={op_name="jit(train_step)/transpose(jvp(TransformerLinenPure.apply))/TransformerLinenPure/decoder/moe_layers.wrapped_fn/while/body/closed_call/checkpoint/moe_layers/shard_map/jit(gmm)/scatter-add" stack_frame_id=0}, backend_config={"flag_configs":[],"window_config":{"kernel_window_bounds":[],"output_window_bounds":["16"],"input_window_bounds":[],"estimated_cycles":"9223372036854775807","iteration_bounds":[],"scratchpad_allocation_size":"384","cost_model_type":"COST_MODEL_TYPE_INVALID","ml_estimated_microseconds":0,"is_mask":false,"pad_output_on_minor_dim":"0","pad_input_on_minor_dim":"0","estimated_vmem_bytes":"0","estimated_bundle_count":"0","estimated_scoped_vmem_bytes":"0"},"loop_config":{"loop_order":[],"unrolled_loops":[],"vectorizing_shape":[]},"scoped_memory_configs":[],"compute_type":"COMPUTE_TYPE_TILE","used_scoped_memory_configs":[]}
}, execution_thread="sparsecore"

%async_computation.20 (param_0.4542: s32[263], param_1.5336: s32[256], param_2.4505: s32[256]) -> s32[263] {
  %param_0.4542 = s32[263]{0:T(512)} parameter(0)
  %param_1.5336 = s32[256]{0:T(256)} parameter(1)
  %param_2.4505 = s32[256]{0:T(256)} parameter(2)
  ROOT %scatter_offload_custom_fusion.46.cloned.1 = s32[263]{0:T(512)} call(%param_0.4542, %param_1.5336, %param_2.4505), to_apply=%called_computation.20, metadata={op_name="jit(train_step)/transpose(jvp(TransformerLinenPure.apply))/TransformerLinenPure/decoder/moe_layers.wrapped_fn/while/body/closed_call/checkpoint/moe_layers/shard_map/jit(gmm)/scatter-add" stack_frame_id=0}
}, execution_thread="sparsecore"

%called_computation.3 (param_0.93: s32[263], param_1.145: s32[256], param_2.89: s32[256], param_3.3091: token[]) -> s32[263] {
  %param_3.3091 = token[] parameter(3), backend_config={"flag_configs":[],"scoped_memory_configs":[],"implicit_sharding":{"type":"REPLICATED","tile_assignment_dimensions":[],"tile_assignment_devices":[],"tuple_shardings":[],"replicate_on_last_tile_dim":false,"metadata":[],"last_tile_dims":[],"iota_reshape_dims":[],"iota_transpose_perm":[],"is_shard_group":false,"shard_group_id":"0","shard_group_type":"AS"},"used_scoped_memory_configs":[]}
  %param_0.93 = s32[263]{0:T(512)} parameter(0), backend_config={"flag_configs":[],"scoped_memory_configs":[],"compute_type":"COMPUTE_TYPE_SCALAR","used_scoped_memory_configs":[]}
  %param_1.145 = s32[256]{0:T(256)} parameter(1), backend_config={"flag_configs":[],"scoped_memory_configs":[],"compute_type":"COMPUTE_TYPE_SCALAR","used_scoped_memory_configs":[]}
  %param_2.89 = s32[256]{0:T(256)} parameter(2), backend_config={"flag_configs":[],"scoped_memory_configs":[],"compute_type":"COMPUTE_TYPE_SCALAR","used_scoped_memory_configs":[]}
  %copy.2080.cloned.1.call-start = ((s32[263]{0:T(512)}), s32[263]{0:T(512)}, u32[]{:S(8)}) async-start(%param_0.93), async_execution_thread="sparsecore", calls=%async_computation.19
  %copy.2080.cloned.1.call-done = s32[263]{0:T(512)} async-done(%copy.2080.cloned.1.call-start)
  %scatter_offload_custom_fusion.46.cloned.1.call-start = ((s32[263]{0:T(512)}, s32[256]{0:T(256)}, s32[256]{0:T(256)}), s32[263]{0:T(512)}, u32[]{:S(8)}) async-start(%copy.2080.cloned.1.call-done, %param_1.145, %param_2.89), async_execution_thread="sparsecore", calls=%async_computation.20, metadata={op_name="jit(train_step)/transpose(jvp(TransformerLinenPure.apply))/TransformerLinenPure/decoder/moe_layers.wrapped_fn/while/body/closed_call/checkpoint/moe_layers/shard_map/jit(gmm)/scatter-add" stack_frame_id=0}
  ROOT %scatter_offload_custom_fusion.46.cloned.1.call-done = s32[263]{0:T(512)} async-done(%scatter_offload_custom_fusion.46.cloned.1.call-start), metadata={op_name="jit(train_step)/transpose(jvp(TransformerLinenPure.apply))/TransformerLinenPure/decoder/moe_layers.wrapped_fn/while/body/closed_call/checkpoint/moe_layers/shard_map/jit(gmm)/scatter-add" stack_frame_id=0}
}, execution_thread="sparsecore"

%async_computation.3 (param_0.94: s32[263], param_1.146: s32[256], param_2.90: s32[256], param_3.3090: token[]) -> s32[263] {
  %param_3.3090 = token[] parameter(3)
  %param_0.94 = s32[263]{0:T(512)} parameter(0)
  %param_1.146 = s32[256]{0:T(256)} parameter(1)
  %param_2.90 = s32[256]{0:T(256)} parameter(2)
  ROOT %scatter_offload_custom_fusion.11.cloned.1 = s32[263]{0:T(512)} call(%param_0.94, %param_1.146, %param_2.90, %param_3.3090), to_apply=%called_computation.3, metadata={op_name="jit(train_step)/transpose(jvp(TransformerLinenPure.apply))/TransformerLinenPure/decoder/moe_layers.wrapped_fn/while/body/closed_call/checkpoint/moe_layers/shard_map/jit(gmm)/scatter-add" stack_frame_id=0}
}, execution_thread="sparsecore"

%called_computation.21 (param_0.4543: f32[9]) -> f32[9] {
  %param_0.4543 = f32[9]{0:T(128)} parameter(0)
  ROOT %copy.2081 = f32[9]{0:T(128)} copy(%param_0.4543), backend_config={"flag_configs":[],"window_config":{"kernel_window_bounds":[],"output_window_bounds":["8"],"input_window_bounds":[],"estimated_cycles":"1131","iteration_bounds":[],"scratchpad_allocation_size":"128","cost_model_type":"COST_MODEL_TYPE_INVALID","ml_estimated_microseconds":0,"is_mask":false,"pad_output_on_minor_dim":"0","pad_input_on_minor_dim":"0","estimated_vmem_bytes":"0","estimated_bundle_count":"0","estimated_scoped_vmem_bytes":"0"},"loop_config":{"loop_order":[],"unrolled_loops":[{"unroll_dimension":"0","unroll_factor":"16","pipeline_remainder":false,"fully_unroll_if_trip_count_is_at_most":"0"}],"vectorizing_shape":[]},"scoped_memory_configs":[],"compute_type":"COMPUTE_TYPE_TILE","used_scoped_memory_configs":[]}
}, execution_thread="sparsecore"

%async_computation.21 (param_0.4544: f32[9]) -> f32[9] {
  %param_0.4544 = f32[9]{0:T(128)} parameter(0)
  ROOT %copy.2082.cloned.1 = f32[9]{0:T(128)} call(%param_0.4544), to_apply=%called_computation.21
}, execution_thread="sparsecore"

%region_79.95.clone (scatter-add.167: f32[], scatter-add.168: f32[]) -> f32[] {
  %scatter-add.167 = f32[]{:T(128)S(7)} parameter(0), metadata={op_name="scatter-add"}
  %scatter-add.168 = f32[]{:T(128)S(7)} parameter(1), metadata={op_name="scatter-add"}
  ROOT %add.2476 = f32[]{:T(128)S(7)} add(%scatter-add.167, %scatter-add.168), metadata={op_name="add" stack_frame_id=0}, backend_config={"flag_configs":[],"window_config":{"kernel_window_bounds":[],"output_window_bounds":["128"],"input_window_bounds":[],"estimated_cycles":"1165","iteration_bounds":[],"scratchpad_allocation_size":"520","cost_model_type":"COST_MODEL_TYPE_INVALID","ml_estimated_microseconds":0,"is_mask":false,"pad_output_on_minor_dim":"0","pad_input_on_minor_dim":"0","estimated_vmem_bytes":"0","estimated_bundle_count":"0","estimated_scoped_vmem_bytes":"0"},"loop_config":{"loop_order":[],"unrolled_loops":[{"unroll_dimension":"0","unroll_factor":"4","pipeline_remainder":false,"fully_unroll_if_trip_count_is_at_most":"0"}],"vectorizing_shape":[]},"scoped_memory_configs":[],"used_scoped_memory_configs":[]}
}, execution_thread="sparsecore"

%fused_computation.27.clone.clone (param_0.4545: f32[9], param_1.5337: s32[256], param_2.4506: f32[256]) -> f32[9] {
  %param_0.4545 = f32[9]{0:T(128)} parameter(0)
  %param_1.5337 = s32[256]{0:T(256)} parameter(1)
  %reshape.3931 = s32[256]{0:T(256)} reshape(%param_1.5337), metadata={op_name="jit(train_step)/transpose(jvp(TransformerLinenPure.apply))/TransformerLinenPure/decoder/moe_layers.wrapped_fn/while/body/closed_call/checkpoint/moe_layers/shard_map/jit(gmm)/broadcast_in_dim" stack_frame_id=0}
  %transpose.1108 = s32[256]{0:T(256)} transpose(%reshape.3931), dimensions={0}, metadata={op_name="jit(train_step)/transpose(jvp(TransformerLinenPure.apply))/TransformerLinenPure/decoder/moe_layers.wrapped_fn/while/body/closed_call/checkpoint/moe_layers/shard_map/jit(gmm)/broadcast_in_dim" stack_frame_id=0}
  %param_2.4506 = f32[256]{0:T(256)} parameter(2)
  %reshape.3932 = f32[256]{0:T(256)} reshape(%param_2.4506), metadata={op_name="jit(train_step)/moe_layers/shard_map/jit(gmm)/broadcast_in_dim" stack_frame_id=0}
  %transpose.1109 = f32[256]{0:T(256)} transpose(%reshape.3932), dimensions={0}, metadata={op_name="jit(train_step)/moe_layers/shard_map/jit(gmm)/broadcast_in_dim" stack_frame_id=0}
  ROOT %scatter-add.241 = f32[9]{0:T(128)} scatter(%param_0.4545, %transpose.1108, %transpose.1109), update_window_dims={}, inserted_window_dims={0}, scatter_dims_to_operand_dims={0}, index_vector_dim=1, indices_are_sorted=true, to_apply=%region_79.95.clone, metadata={op_name="jit(train_step)/transpose(jvp(TransformerLinenPure.apply))/TransformerLinenPure/decoder/moe_layers.wrapped_fn/while/body/closed_call/checkpoint/moe_layers/shard_map/jit(gmm)/scatter-add" stack_frame_id=0}
}, execution_thread="sparsecore"

%called_computation.22 (param_0.4546: f32[9], param_1.5338: s32[256], param_2.4507: f32[256]) -> f32[9] {
  %param_0.4546 = f32[9]{0:T(128)} parameter(0)
  %param_1.5338 = s32[256]{0:T(256)} parameter(1)
  %param_2.4507 = f32[256]{0:T(256)} parameter(2)
  ROOT %scatter_offload_custom_fusion.47 = f32[9]{0:T(128)} fusion(%param_0.4546, %param_1.5338, %param_2.4507), kind=kCustom, calls=%fused_computation.27.clone.clone, metadata={op_name="jit(train_step)/transpose(jvp(TransformerLinenPure.apply))/TransformerLinenPure/decoder/moe_layers.wrapped_fn/while/body/closed_call/checkpoint/moe_layers/shard_map/jit(gmm)/scatter-add" stack_frame_id=0}, backend_config={"flag_configs":[],"window_config":{"kernel_window_bounds":[],"output_window_bounds":["16"],"input_window_bounds":[],"estimated_cycles":"9223372036854775807","iteration_bounds":[],"scratchpad_allocation_size":"1312","cost_model_type":"COST_MODEL_TYPE_INVALID","ml_estimated_microseconds":0,"is_mask":false,"pad_output_on_minor_dim":"0","pad_input_on_minor_dim":"0","estimated_vmem_bytes":"0","estimated_bundle_count":"0","estimated_scoped_vmem_bytes":"0"},"loop_config":{"loop_order":[],"unrolled_loops":[],"vectorizing_shape":[]},"scoped_memory_configs":[],"compute_type":"COMPUTE_TYPE_TILE","used_scoped_memory_configs":[]}
}, execution_thread="sparsecore"

%async_computation.22 (param_0.4547: f32[9], param_1.5339: s32[256], param_2.4508: f32[256]) -> f32[9] {
  %param_0.4547 = f32[9]{0:T(128)} parameter(0)
  %param_1.5339 = s32[256]{0:T(256)} parameter(1)
  %param_2.4508 = f32[256]{0:T(256)} parameter(2)
  ROOT %scatter_offload_custom_fusion.48.cloned.1 = f32[9]{0:T(128)} call(%param_0.4547, %param_1.5339, %param_2.4508), to_apply=%called_computation.22, metadata={op_name="jit(train_step)/transpose(jvp(TransformerLinenPure.apply))/TransformerLinenPure/decoder/moe_layers.wrapped_fn/while/body/closed_call/checkpoint/moe_layers/shard_map/jit(gmm)/scatter-add" stack_frame_id=0}
}, execution_thread="sparsecore"

%called_computation.4 (param_0.96: f32[9], param_1.148: s32[256], param_2.92: f32[256], param_3.3097: token[]) -> f32[9] {
  %param_3.3097 = token[] parameter(3), backend_config={"flag_configs":[],"scoped_memory_configs":[],"implicit_sharding":{"type":"REPLICATED","tile_assignment_dimensions":[],"tile_assignment_devices":[],"tuple_shardings":[],"replicate_on_last_tile_dim":false,"metadata":[],"last_tile_dims":[],"iota_reshape_dims":[],"iota_transpose_perm":[],"is_shard_group":false,"shard_group_id":"0","shard_group_type":"AS"},"used_scoped_memory_configs":[]}
  %param_0.96 = f32[9]{0:T(128)} parameter(0), backend_config={"flag_configs":[],"scoped_memory_configs":[],"compute_type":"COMPUTE_TYPE_SCALAR","used_scoped_memory_configs":[]}
  %param_1.148 = s32[256]{0:T(256)} parameter(1), backend_config={"flag_configs":[],"scoped_memory_configs":[],"compute_type":"COMPUTE_TYPE_SCALAR","used_scoped_memory_configs":[]}
  %param_2.92 = f32[256]{0:T(256)} parameter(2), backend_config={"flag_configs":[],"scoped_memory_configs":[],"compute_type":"COMPUTE_TYPE_SCALAR","used_scoped_memory_configs":[]}
  %copy.2082.cloned.1.call-start = ((f32[9]{0:T(128)}), f32[9]{0:T(128)}, u32[]{:S(8)}) async-start(%param_0.96), async_execution_thread="sparsecore", calls=%async_computation.21
  %copy.2082.cloned.1.call-done = f32[9]{0:T(128)} async-done(%copy.2082.cloned.1.call-start)
  %scatter_offload_custom_fusion.48.cloned.1.call-start = ((f32[9]{0:T(128)}, s32[256]{0:T(256)}, f32[256]{0:T(256)}), f32[9]{0:T(128)}, u32[]{:S(8)}) async-start(%copy.2082.cloned.1.call-done, %param_1.148, %param_2.92), async_execution_thread="sparsecore", calls=%async_computation.22, metadata={op_name="jit(train_step)/transpose(jvp(TransformerLinenPure.apply))/TransformerLinenPure/decoder/moe_layers.wrapped_fn/while/body/closed_call/checkpoint/moe_layers/shard_map/jit(gmm)/scatter-add" stack_frame_id=0}
  ROOT %scatter_offload_custom_fusion.48.cloned.1.call-done = f32[9]{0:T(128)} async-done(%scatter_offload_custom_fusion.48.cloned.1.call-start), metadata={op_name="jit(train_step)/transpose(jvp(TransformerLinenPure.apply))/TransformerLinenPure/decoder/moe_layers.wrapped_fn/while/body/closed_call/checkpoint/moe_layers/shard_map/jit(gmm)/scatter-add" stack_frame_id=0}
}, execution_thread="sparsecore"

%async_computation.4 (param_0.97: f32[9], param_1.149: s32[256], param_2.93: f32[256], param_3.3096: token[]) -> f32[9] {
  %param_3.3096 = token[] parameter(3)
  %param_0.97 = f32[9]{0:T(128)} parameter(0)
  %param_1.149 = s32[256]{0:T(256)} parameter(1)
  %param_2.93 = f32[256]{0:T(256)} parameter(2)
  ROOT %scatter_offload_custom_fusion.14.cloned.1 = f32[9]{0:T(128)} call(%param_0.97, %param_1.149, %param_2.93, %param_3.3096), to_apply=%called_computation.4, metadata={op_name="jit(train_step)/transpose(jvp(TransformerLinenPure.apply))/TransformerLinenPure/decoder/moe_layers.wrapped_fn/while/body/closed_call/checkpoint/moe_layers/shard_map/jit(gmm)/scatter-add" stack_frame_id=0}
}, execution_thread="sparsecore"

%called_computation.23 (param_0.4548: s32[263]) -> s32[263] {
  %param_0.4548 = s32[263]{0:T(512)} parameter(0)
  ROOT %copy.2083 = s32[263]{0:T(512)} copy(%param_0.4548), backend_config={"flag_configs":[],"window_config":{"kernel_window_bounds":[],"output_window_bounds":["32"],"input_window_bounds":[],"estimated_cycles":"1141","iteration_bounds":[],"scratchpad_allocation_size":"512","cost_model_type":"COST_MODEL_TYPE_INVALID","ml_estimated_microseconds":0,"is_mask":false,"pad_output_on_minor_dim":"0","pad_input_on_minor_dim":"0","estimated_vmem_bytes":"0","estimated_bundle_count":"0","estimated_scoped_vmem_bytes":"0"},"loop_config":{"loop_order":[],"unrolled_loops":[{"unroll_dimension":"0","unroll_factor":"16","pipeline_remainder":false,"fully_unroll_if_trip_count_is_at_most":"0"}],"vectorizing_shape":[]},"scoped_memory_configs":[],"compute_type":"COMPUTE_TYPE_TILE","used_scoped_memory_configs":[]}
}, execution_thread="sparsecore"

%async_computation.23 (param_0.4549: s32[263]) -> s32[263] {
  %param_0.4549 = s32[263]{0:T(512)} parameter(0)
  ROOT %copy.2084.cloned.1 = s32[263]{0:T(512)} call(%param_0.4549), to_apply=%called_computation.23
}, execution_thread="sparsecore"

%region_81.97.clone (scatter-add.171: s32[], scatter-add.172: s32[]) -> s32[] {
  %scatter-add.171 = s32[]{:T(128)S(7)} parameter(0), metadata={op_name="scatter-add"}
  %scatter-add.172 = s32[]{:T(128)S(7)} parameter(1), metadata={op_name="scatter-add"}
  ROOT %add.2478 = s32[]{:T(128)S(7)} add(%scatter-add.171, %scatter-add.172), metadata={op_name="add" stack_frame_id=0}, backend_config={"flag_configs":[],"window_config":{"kernel_window_bounds":[],"output_window_bounds":["128"],"input_window_bounds":[],"estimated_cycles":"1165","iteration_bounds":[],"scratchpad_allocation_size":"520","cost_model_type":"COST_MODEL_TYPE_INVALID","ml_estimated_microseconds":0,"is_mask":false,"pad_output_on_minor_dim":"0","pad_input_on_minor_dim":"0","estimated_vmem_bytes":"0","estimated_bundle_count":"0","estimated_scoped_vmem_bytes":"0"},"loop_config":{"loop_order":[],"unrolled_loops":[{"unroll_dimension":"0","unroll_factor":"4","pipeline_remainder":false,"fully_unroll_if_trip_count_is_at_most":"0"}],"vectorizing_shape":[]},"scoped_memory_configs":[],"used_scoped_memory_configs":[]}
}, execution_thread="sparsecore"

%fused_computation.28.clone.clone (param_0.4550: s32[263], param_1.5340: s32[8], param_2.4509: s32[8]) -> s32[263] {
  %param_0.4550 = s32[263]{0:T(512)} parameter(0)
  %param_1.5340 = s32[8]{0:T(128)} parameter(1)
  %reshape.3933 = s32[8]{0:T(128)} reshape(%param_1.5340), metadata={op_name="jit(train_step)/transpose(jvp(TransformerLinenPure.apply))/TransformerLinenPure/decoder/moe_layers.wrapped_fn/while/body/closed_call/checkpoint/moe_layers/shard_map/jit(gmm)/select_n" stack_frame_id=0}
  %transpose.1110 = s32[8]{0:T(128)} transpose(%reshape.3933), dimensions={0}, metadata={op_name="jit(train_step)/transpose(jvp(TransformerLinenPure.apply))/TransformerLinenPure/decoder/moe_layers.wrapped_fn/while/body/closed_call/checkpoint/moe_layers/shard_map/jit(gmm)/select_n" stack_frame_id=0}
  %param_2.4509 = s32[8]{0:T(128)} parameter(2)
  %reshape.3934 = s32[8]{0:T(128)} reshape(%param_2.4509), metadata={op_name="jit(train_step)/moe_layers/shard_map/jit(gmm)/broadcast.80" stack_frame_id=0}
  %transpose.1111 = s32[8]{0:T(128)} transpose(%reshape.3934), dimensions={0}, metadata={op_name="jit(train_step)/moe_layers/shard_map/jit(gmm)/broadcast.80" stack_frame_id=0}
  ROOT %scatter-add.242 = s32[263]{0:T(512)} scatter(%param_0.4550, %transpose.1110, %transpose.1111), update_window_dims={}, inserted_window_dims={0}, scatter_dims_to_operand_dims={0}, index_vector_dim=1, to_apply=%region_81.97.clone, metadata={op_name="jit(train_step)/transpose(jvp(TransformerLinenPure.apply))/TransformerLinenPure/decoder/moe_layers.wrapped_fn/while/body/closed_call/checkpoint/moe_layers/shard_map/jit(gmm)/scatter-add" stack_frame_id=0}
}, execution_thread="sparsecore"

%called_computation.24 (param_0.4551: s32[263], param_1.5341: s32[8], param_2.4510: s32[8]) -> s32[263] {
  %param_0.4551 = s32[263]{0:T(512)} parameter(0)
  %param_1.5341 = s32[8]{0:T(128)} parameter(1)
  %param_2.4510 = s32[8]{0:T(128)} parameter(2)
  ROOT %scatter_offload_custom_fusion.49 = s32[263]{0:T(512)} fusion(%param_0.4551, %param_1.5341, %param_2.4510), kind=kCustom, calls=%fused_computation.28.clone.clone, metadata={op_name="jit(train_step)/transpose(jvp(TransformerLinenPure.apply))/TransformerLinenPure/decoder/moe_layers.wrapped_fn/while/body/closed_call/checkpoint/moe_layers/shard_map/jit(gmm)/scatter-add" stack_frame_id=0}, backend_config={"flag_configs":[],"window_config":{"kernel_window_bounds":[],"output_window_bounds":["8"],"input_window_bounds":[],"estimated_cycles":"9223372036854775807","iteration_bounds":[],"scratchpad_allocation_size":"256","cost_model_type":"COST_MODEL_TYPE_INVALID","ml_estimated_microseconds":0,"is_mask":false,"pad_output_on_minor_dim":"0","pad_input_on_minor_dim":"0","estimated_vmem_bytes":"0","estimated_bundle_count":"0","estimated_scoped_vmem_bytes":"0"},"loop_config":{"loop_order":[],"unrolled_loops":[],"vectorizing_shape":[]},"scoped_memory_configs":[],"compute_type":"COMPUTE_TYPE_TILE","used_scoped_memory_configs":[]}
}, execution_thread="sparsecore"

%async_computation.24 (param_0.4552: s32[263], param_1.5342: s32[8], param_2.4511: s32[8]) -> s32[263] {
  %param_0.4552 = s32[263]{0:T(512)} parameter(0)
  %param_1.5342 = s32[8]{0:T(128)} parameter(1)
  %param_2.4511 = s32[8]{0:T(128)} parameter(2)
  ROOT %scatter_offload_custom_fusion.50.cloned.1 = s32[263]{0:T(512)} call(%param_0.4552, %param_1.5342, %param_2.4511), to_apply=%called_computation.24, metadata={op_name="jit(train_step)/transpose(jvp(TransformerLinenPure.apply))/TransformerLinenPure/decoder/moe_layers.wrapped_fn/while/body/closed_call/checkpoint/moe_layers/shard_map/jit(gmm)/scatter-add" stack_frame_id=0}
}, execution_thread="sparsecore"

%called_computation.5 (param_0.99: s32[263], param_1.151: s32[8], param_2.95: s32[8], param_3.3107: token[]) -> s32[263] {
  %param_3.3107 = token[] parameter(3), backend_config={"flag_configs":[],"scoped_memory_configs":[],"implicit_sharding":{"type":"REPLICATED","tile_assignment_dimensions":[],"tile_assignment_devices":[],"tuple_shardings":[],"replicate_on_last_tile_dim":false,"metadata":[],"last_tile_dims":[],"iota_reshape_dims":[],"iota_transpose_perm":[],"is_shard_group":false,"shard_group_id":"0","shard_group_type":"AS"},"used_scoped_memory_configs":[]}
  %param_0.99 = s32[263]{0:T(512)} parameter(0), backend_config={"flag_configs":[],"scoped_memory_configs":[],"compute_type":"COMPUTE_TYPE_SCALAR","used_scoped_memory_configs":[]}
  %param_1.151 = s32[8]{0:T(128)} parameter(1), backend_config={"flag_configs":[],"scoped_memory_configs":[],"compute_type":"COMPUTE_TYPE_SCALAR","used_scoped_memory_configs":[]}
  %param_2.95 = s32[8]{0:T(128)} parameter(2), backend_config={"flag_configs":[],"scoped_memory_configs":[],"compute_type":"COMPUTE_TYPE_SCALAR","used_scoped_memory_configs":[]}
  %copy.2084.cloned.1.call-start = ((s32[263]{0:T(512)}), s32[263]{0:T(512)}, u32[]{:S(8)}) async-start(%param_0.99), async_execution_thread="sparsecore", calls=%async_computation.23
  %copy.2084.cloned.1.call-done = s32[263]{0:T(512)} async-done(%copy.2084.cloned.1.call-start)
  %scatter_offload_custom_fusion.50.cloned.1.call-start = ((s32[263]{0:T(512)}, s32[8]{0:T(128)}, s32[8]{0:T(128)}), s32[263]{0:T(512)}, u32[]{:S(8)}) async-start(%copy.2084.cloned.1.call-done, %param_1.151, %param_2.95), async_execution_thread="sparsecore", calls=%async_computation.24, metadata={op_name="jit(train_step)/transpose(jvp(TransformerLinenPure.apply))/TransformerLinenPure/decoder/moe_layers.wrapped_fn/while/body/closed_call/checkpoint/moe_layers/shard_map/jit(gmm)/scatter-add" stack_frame_id=0}
  ROOT %scatter_offload_custom_fusion.50.cloned.1.call-done = s32[263]{0:T(512)} async-done(%scatter_offload_custom_fusion.50.cloned.1.call-start), metadata={op_name="jit(train_step)/transpose(jvp(TransformerLinenPure.apply))/TransformerLinenPure/decoder/moe_layers.wrapped_fn/while/body/closed_call/checkpoint/moe_layers/shard_map/jit(gmm)/scatter-add" stack_frame_id=0}
}, execution_thread="sparsecore"

%async_computation.5 (param_0.100: s32[263], param_1.152: s32[8], param_2.96: s32[8], param_3.3106: token[]) -> s32[263] {
  %param_3.3106 = token[] parameter(3)
  %param_0.100 = s32[263]{0:T(512)} parameter(0)
  %param_1.152 = s32[8]{0:T(128)} parameter(1)
  %param_2.96 = s32[8]{0:T(128)} parameter(2)
  ROOT %scatter_offload_custom_fusion.17.cloned.1 = s32[263]{0:T(512)} call(%param_0.100, %param_1.152, %param_2.96, %param_3.3106), to_apply=%called_computation.5, metadata={op_name="jit(train_step)/transpose(jvp(TransformerLinenPure.apply))/TransformerLinenPure/decoder/moe_layers.wrapped_fn/while/body/closed_call/checkpoint/moe_layers/shard_map/jit(gmm)/scatter-add" stack_frame_id=0}
}, execution_thread="sparsecore"

%called_computation.25 (param_0.4553: s32[263]) -> s32[263] {
  %param_0.4553 = s32[263]{0:T(512)} parameter(0)
  ROOT %copy.2085 = s32[263]{0:T(512)} copy(%param_0.4553), backend_config={"flag_configs":[],"window_config":{"kernel_window_bounds":[],"output_window_bounds":["32"],"input_window_bounds":[],"estimated_cycles":"1141","iteration_bounds":[],"scratchpad_allocation_size":"512","cost_model_type":"COST_MODEL_TYPE_INVALID","ml_estimated_microseconds":0,"is_mask":false,"pad_output_on_minor_dim":"0","pad_input_on_minor_dim":"0","estimated_vmem_bytes":"0","estimated_bundle_count":"0","estimated_scoped_vmem_bytes":"0"},"loop_config":{"loop_order":[],"unrolled_loops":[{"unroll_dimension":"0","unroll_factor":"16","pipeline_remainder":false,"fully_unroll_if_trip_count_is_at_most":"0"}],"vectorizing_shape":[]},"scoped_memory_configs":[],"compute_type":"COMPUTE_TYPE_TILE","used_scoped_memory_configs":[]}
}, execution_thread="sparsecore"

%async_computation.25 (param_0.4554: s32[263]) -> s32[263] {
  %param_0.4554 = s32[263]{0:T(512)} parameter(0)
  ROOT %copy.2086.cloned.1 = s32[263]{0:T(512)} call(%param_0.4554), to_apply=%called_computation.25
}, execution_thread="sparsecore"

%region_96.114 (scatter-add.48: s32[], scatter-add.49: s32[]) -> s32[] {
  %scatter-add.48 = s32[]{:T(128)S(7)} parameter(0), metadata={op_name="scatter-add"}
  %scatter-add.49 = s32[]{:T(128)S(7)} parameter(1), metadata={op_name="scatter-add"}
  ROOT %add.1396 = s32[]{:T(128)S(7)} add(%scatter-add.48, %scatter-add.49), metadata={op_name="add" stack_frame_id=0}, backend_config={"flag_configs":[],"window_config":{"kernel_window_bounds":[],"output_window_bounds":["128"],"input_window_bounds":[],"estimated_cycles":"1165","iteration_bounds":[],"scratchpad_allocation_size":"520","cost_model_type":"COST_MODEL_TYPE_INVALID","ml_estimated_microseconds":0,"is_mask":false,"pad_output_on_minor_dim":"0","pad_input_on_minor_dim":"0","estimated_vmem_bytes":"0","estimated_bundle_count":"0","estimated_scoped_vmem_bytes":"0"},"loop_config":{"loop_order":[],"unrolled_loops":[{"unroll_dimension":"0","unroll_factor":"4","pipeline_remainder":false,"fully_unroll_if_trip_count_is_at_most":"0"}],"vectorizing_shape":[]},"scoped_memory_configs":[],"used_scoped_memory_configs":[]}
}, execution_thread="sparsecore"

%fused_computation.29.clone.clone (param_0.4555: s32[263], param_1.5343: s32[256], param_2.4512: s32[256]) -> s32[263] {
  %param_0.4555 = s32[263]{0:T(512)} parameter(0)
  %param_1.5343 = s32[256]{0:T(256)} parameter(1)
  %reshape.3935 = s32[256]{0:T(256)} reshape(%param_1.5343), metadata={op_name="jit(train_step)/transpose(jvp(TransformerLinenPure.apply))/TransformerLinenPure/decoder/moe_layers.wrapped_fn/while/body/closed_call/checkpoint/moe_layers/shard_map/jit(tgmm)/select_n" stack_frame_id=0}
  %transpose.1112 = s32[256]{0:T(256)} transpose(%reshape.3935), dimensions={0}, metadata={op_name="jit(train_step)/transpose(jvp(TransformerLinenPure.apply))/TransformerLinenPure/decoder/moe_layers.wrapped_fn/while/body/closed_call/checkpoint/moe_layers/shard_map/jit(tgmm)/select_n" stack_frame_id=0}
  %param_2.4512 = s32[256]{0:T(256)} parameter(2)
  %reshape.3936 = s32[256]{0:T(256)} reshape(%param_2.4512), metadata={op_name="jit(train_step)/moe_layers/shard_map/jit(gmm)/broadcast_in_dim" stack_frame_id=0}
  %transpose.1113 = s32[256]{0:T(256)} transpose(%reshape.3936), dimensions={0}, metadata={op_name="jit(train_step)/moe_layers/shard_map/jit(gmm)/broadcast_in_dim" stack_frame_id=0}
  ROOT %scatter-add.243 = s32[263]{0:T(512)} scatter(%param_0.4555, %transpose.1112, %transpose.1113), update_window_dims={}, inserted_window_dims={0}, scatter_dims_to_operand_dims={0}, index_vector_dim=1, to_apply=%region_96.114, metadata={op_name="jit(train_step)/transpose(jvp(TransformerLinenPure.apply))/TransformerLinenPure/decoder/moe_layers.wrapped_fn/while/body/closed_call/checkpoint/moe_layers/shard_map/jit(tgmm)/scatter-add" stack_frame_id=0}
}, execution_thread="sparsecore"

%called_computation.26 (param_0.4556: s32[263], param_1.5344: s32[256], param_2.4513: s32[256]) -> s32[263] {
  %param_0.4556 = s32[263]{0:T(512)} parameter(0)
  %param_1.5344 = s32[256]{0:T(256)} parameter(1)
  %param_2.4513 = s32[256]{0:T(256)} parameter(2)
  ROOT %scatter_offload_custom_fusion.51 = s32[263]{0:T(512)} fusion(%param_0.4556, %param_1.5344, %param_2.4513), kind=kCustom, calls=%fused_computation.29.clone.clone, metadata={op_name="jit(train_step)/transpose(jvp(TransformerLinenPure.apply))/TransformerLinenPure/decoder/moe_layers.wrapped_fn/while/body/closed_call/checkpoint/moe_layers/shard_map/jit(tgmm)/scatter-add" stack_frame_id=0}, backend_config={"flag_configs":[],"window_config":{"kernel_window_bounds":[],"output_window_bounds":["16"],"input_window_bounds":[],"estimated_cycles":"9223372036854775807","iteration_bounds":[],"scratchpad_allocation_size":"384","cost_model_type":"COST_MODEL_TYPE_INVALID","ml_estimated_microseconds":0,"is_mask":false,"pad_output_on_minor_dim":"0","pad_input_on_minor_dim":"0","estimated_vmem_bytes":"0","estimated_bundle_count":"0","estimated_scoped_vmem_bytes":"0"},"loop_config":{"loop_order":[],"unrolled_loops":[],"vectorizing_shape":[]},"scoped_memory_configs":[],"compute_type":"COMPUTE_TYPE_TILE","used_scoped_memory_configs":[]}
}, execution_thread="sparsecore"

%async_computation.26 (param_0.4557: s32[263], param_1.5345: s32[256], param_2.4514: s32[256]) -> s32[263] {
  %param_0.4557 = s32[263]{0:T(512)} parameter(0)
  %param_1.5345 = s32[256]{0:T(256)} parameter(1)
  %param_2.4514 = s32[256]{0:T(256)} parameter(2)
  ROOT %scatter_offload_custom_fusion.52.cloned.1 = s32[263]{0:T(512)} call(%param_0.4557, %param_1.5345, %param_2.4514), to_apply=%called_computation.26, metadata={op_name="jit(train_step)/transpose(jvp(TransformerLinenPure.apply))/TransformerLinenPure/decoder/moe_layers.wrapped_fn/while/body/closed_call/checkpoint/moe_layers/shard_map/jit(tgmm)/scatter-add" stack_frame_id=0}
}, execution_thread="sparsecore"

%called_computation.6 (param_0.102: s32[263], param_1.154: s32[256], param_2.98: s32[256], param_3.3093: token[]) -> s32[263] {
  %param_3.3093 = token[] parameter(3), backend_config={"flag_configs":[],"scoped_memory_configs":[],"implicit_sharding":{"type":"REPLICATED","tile_assignment_dimensions":[],"tile_assignment_devices":[],"tuple_shardings":[],"replicate_on_last_tile_dim":false,"metadata":[],"last_tile_dims":[],"iota_reshape_dims":[],"iota_transpose_perm":[],"is_shard_group":false,"shard_group_id":"0","shard_group_type":"AS"},"used_scoped_memory_configs":[]}
  %param_0.102 = s32[263]{0:T(512)} parameter(0), backend_config={"flag_configs":[],"scoped_memory_configs":[],"compute_type":"COMPUTE_TYPE_SCALAR","used_scoped_memory_configs":[]}
  %param_1.154 = s32[256]{0:T(256)} parameter(1), backend_config={"flag_configs":[],"scoped_memory_configs":[],"compute_type":"COMPUTE_TYPE_SCALAR","used_scoped_memory_configs":[]}
  %param_2.98 = s32[256]{0:T(256)} parameter(2), backend_config={"flag_configs":[],"scoped_memory_configs":[],"compute_type":"COMPUTE_TYPE_SCALAR","used_scoped_memory_configs":[]}
  %copy.2086.cloned.1.call-start = ((s32[263]{0:T(512)}), s32[263]{0:T(512)}, u32[]{:S(8)}) async-start(%param_0.102), async_execution_thread="sparsecore", calls=%async_computation.25
  %copy.2086.cloned.1.call-done = s32[263]{0:T(512)} async-done(%copy.2086.cloned.1.call-start)
  %scatter_offload_custom_fusion.52.cloned.1.call-start = ((s32[263]{0:T(512)}, s32[256]{0:T(256)}, s32[256]{0:T(256)}), s32[263]{0:T(512)}, u32[]{:S(8)}) async-start(%copy.2086.cloned.1.call-done, %param_1.154, %param_2.98), async_execution_thread="sparsecore", calls=%async_computation.26, metadata={op_name="jit(train_step)/transpose(jvp(TransformerLinenPure.apply))/TransformerLinenPure/decoder/moe_layers.wrapped_fn/while/body/closed_call/checkpoint/moe_layers/shard_map/jit(tgmm)/scatter-add" stack_frame_id=0}
  ROOT %scatter_offload_custom_fusion.52.cloned.1.call-done = s32[263]{0:T(512)} async-done(%scatter_offload_custom_fusion.52.cloned.1.call-start), metadata={op_name="jit(train_step)/transpose(jvp(TransformerLinenPure.apply))/TransformerLinenPure/decoder/moe_layers.wrapped_fn/while/body/closed_call/checkpoint/moe_layers/shard_map/jit(tgmm)/scatter-add" stack_frame_id=0}
}, execution_thread="sparsecore"

%async_computation.6 (param_0.103: s32[263], param_1.155: s32[256], param_2.99: s32[256], param_3.3092: token[]) -> s32[263] {
  %param_3.3092 = token[] parameter(3)
  %param_0.103 = s32[263]{0:T(512)} parameter(0)
  %param_1.155 = s32[256]{0:T(256)} parameter(1)
  %param_2.99 = s32[256]{0:T(256)} parameter(2)
  ROOT %scatter_offload_custom_fusion.20.cloned.1 = s32[263]{0:T(512)} call(%param_0.103, %param_1.155, %param_2.99, %param_3.3092), to_apply=%called_computation.6, metadata={op_name="jit(train_step)/transpose(jvp(TransformerLinenPure.apply))/TransformerLinenPure/decoder/moe_layers.wrapped_fn/while/body/closed_call/checkpoint/moe_layers/shard_map/jit(tgmm)/scatter-add" stack_frame_id=0}
}, execution_thread="sparsecore"

%region_102.120 (scatter-add.52: f32[], scatter-add.53: f32[]) -> f32[] {
  %scatter-add.52 = f32[]{:T(128)S(7)} parameter(0), metadata={op_name="scatter-add"}
  %scatter-add.53 = f32[]{:T(128)S(7)} parameter(1), metadata={op_name="scatter-add"}
  ROOT %add.1399 = f32[]{:T(128)S(7)} add(%scatter-add.52, %scatter-add.53), metadata={op_name="add" stack_frame_id=0}, backend_config={"flag_configs":[],"window_config":{"kernel_window_bounds":[],"output_window_bounds":["128"],"input_window_bounds":[],"estimated_cycles":"1165","iteration_bounds":[],"scratchpad_allocation_size":"520","cost_model_type":"COST_MODEL_TYPE_INVALID","ml_estimated_microseconds":0,"is_mask":false,"pad_output_on_minor_dim":"0","pad_input_on_minor_dim":"0","estimated_vmem_bytes":"0","estimated_bundle_count":"0","estimated_scoped_vmem_bytes":"0"},"loop_config":{"loop_order":[],"unrolled_loops":[{"unroll_dimension":"0","unroll_factor":"4","pipeline_remainder":false,"fully_unroll_if_trip_count_is_at_most":"0"}],"vectorizing_shape":[]},"scoped_memory_configs":[],"used_scoped_memory_configs":[]}
}, execution_thread="sparsecore"

%fused_computation.30.clone.clone (param_0.4560: f32[9], param_1.5346: s32[256], param_2.4515: f32[256]) -> f32[9] {
  %param_0.4560 = f32[9]{0:T(128)} parameter(0)
  %param_1.5346 = s32[256]{0:T(256)} parameter(1)
  %reshape.3937 = s32[256]{0:T(256)} reshape(%param_1.5346), metadata={op_name="jit(train_step)/transpose(jvp(TransformerLinenPure.apply))/TransformerLinenPure/decoder/moe_layers.wrapped_fn/while/body/closed_call/checkpoint/moe_layers/shard_map/jit(tgmm)/broadcast_in_dim" stack_frame_id=0}
  %transpose.1114 = s32[256]{0:T(256)} transpose(%reshape.3937), dimensions={0}, metadata={op_name="jit(train_step)/transpose(jvp(TransformerLinenPure.apply))/TransformerLinenPure/decoder/moe_layers.wrapped_fn/while/body/closed_call/checkpoint/moe_layers/shard_map/jit(tgmm)/broadcast_in_dim" stack_frame_id=0}
  %param_2.4515 = f32[256]{0:T(256)} parameter(2)
  %reshape.3938 = f32[256]{0:T(256)} reshape(%param_2.4515), metadata={op_name="jit(train_step)/moe_layers/shard_map/jit(gmm)/broadcast_in_dim" stack_frame_id=0}
  %transpose.1115 = f32[256]{0:T(256)} transpose(%reshape.3938), dimensions={0}, metadata={op_name="jit(train_step)/moe_layers/shard_map/jit(gmm)/broadcast_in_dim" stack_frame_id=0}
  ROOT %scatter-add.244 = f32[9]{0:T(128)} scatter(%param_0.4560, %transpose.1114, %transpose.1115), update_window_dims={}, inserted_window_dims={0}, scatter_dims_to_operand_dims={0}, index_vector_dim=1, indices_are_sorted=true, to_apply=%region_102.120, metadata={op_name="jit(train_step)/transpose(jvp(TransformerLinenPure.apply))/TransformerLinenPure/decoder/moe_layers.wrapped_fn/while/body/closed_call/checkpoint/moe_layers/shard_map/jit(tgmm)/scatter-add" stack_frame_id=0}
}, execution_thread="sparsecore"

%called_computation.28 (param_0.4561: f32[9], param_1.5347: s32[256], param_2.4516: f32[256]) -> f32[9] {
  %param_0.4561 = f32[9]{0:T(128)} parameter(0)
  %param_1.5347 = s32[256]{0:T(256)} parameter(1)
  %param_2.4516 = f32[256]{0:T(256)} parameter(2)
  ROOT %scatter_offload_custom_fusion.53 = f32[9]{0:T(128)} fusion(%param_0.4561, %param_1.5347, %param_2.4516), kind=kCustom, calls=%fused_computation.30.clone.clone, metadata={op_name="jit(train_step)/transpose(jvp(TransformerLinenPure.apply))/TransformerLinenPure/decoder/moe_layers.wrapped_fn/while/body/closed_call/checkpoint/moe_layers/shard_map/jit(tgmm)/scatter-add" stack_frame_id=0}, backend_config={"flag_configs":[],"window_config":{"kernel_window_bounds":[],"output_window_bounds":["16"],"input_window_bounds":[],"estimated_cycles":"9223372036854775807","iteration_bounds":[],"scratchpad_allocation_size":"1312","cost_model_type":"COST_MODEL_TYPE_INVALID","ml_estimated_microseconds":0,"is_mask":false,"pad_output_on_minor_dim":"0","pad_input_on_minor_dim":"0","estimated_vmem_bytes…
  %broadcast.4267.clone.1 = f32[256,1,512,512]{3,2,0,1:T(8,128)} broadcast(%constant.4845.clone.1), dimensions={}, metadata={op_name="broadcast.305"}
  %add.3417.clone.1 = f32[256,1,512,512]{3,2,0,1:T(8,128)} add(%sqrt.153.clone.1, %broadcast.4267.clone.1), metadata={op_name="jit(train_step)/add" stack_frame_id=0}
  %multiply.1289.clone.1 = f32[256,1,512,512]{3,2,0,1:T(8,128)} multiply(%div.2543.clone.1, %add.3417.clone.1), metadata={op_name="multiply.294"}
  %div.2540.clone.1 = f32[256,1,512,512]{3,2,0,1:T(8,128)} divide(%add.3418.clone.1, %multiply.1289.clone.1), metadata={op_name="jit(train_step)/div" stack_frame_id=0}
  %mul.4689.clone.1 = f32[256,1,512,512]{3,2,0,1:T(8,128)} multiply(%bitcast.1367.clone.1, %broadcast.4269.clone.1), metadata={op_name="jit(train_step)/mul" stack_frame_id=0}
  %add.3416.clone.1 = f32[256,1,512,512]{3,2,0,1:T(8,128)} add(%div.2540.clone.1, %mul.4689.clone.1), metadata={op_name="jit(train_step)/add" stack_frame_id=0}
  %mul.4688.clone.1 = f32[256,1,512,512]{3,2,0,1:T(8,128)} multiply(%mul.4690.clone.1, %add.3416.clone.1), metadata={op_name="jit(train_step)/mul" stack_frame_id=0}
  %add.3415.clone.1 = f32[256,1,512,512]{3,2,0,1:T(8,128)} add(%bitcast.1367.clone.1, %mul.4688.clone.1), metadata={op_name="jit(train_step)/add" stack_frame_id=0}
  %square.579 = f32[256,1,512,512]{3,2,0,1:T(8,128)} multiply(%add.3415.clone.1, %add.3415.clone.1), metadata={op_name="jit(train_step)/square" stack_frame_id=0}
  %constant.5071 = f32[]{:T(128)} constant(0)
  %reduce.677 = f32[]{:T(128)} reduce(%square.579, %constant.5071), dimensions={0,1,2,3}, to_apply=%region_225.250, metadata={op_name="jit(train_step)/reduce_sum" stack_frame_id=0}
  %bitcast.831.clone.1 = f32[256,1,512,512]{3,2,1,0:T(8,128)} bitcast(%add.3419.clone.1)
  %bitcast.804.clone.1 = f32[256,1,512,512]{3,2,1,0:T(8,128)} bitcast(%add.3418.clone.1)
  %reduce.686.clone.1 = f32[]{:T(128)} reduce(%integer_pow.395.clone.1, %constant.5071), dimensions={0,1,2,3}, to_apply=%region_191.216, metadata={op_name="jit(train_step)/reduce_sum" stack_frame_id=0}
  ROOT %tuple.668 = (f32[]{:T(128)}, f32[256,1,512,512]{3,2,0,1:T(8,128)}, f32[256,1,512,512]{3,2,1,0:T(8,128)}, f32[256,1,512,512]{3,2,1,0:T(8,128)}, f32[]{:T(128)}) tuple(%reduce.677, %add.3415.clone.1, %bitcast.831.clone.1, %bitcast.804.clone.1, %reduce.686.clone.1)
}

%region_155.180 (reduce_sum.438: f32[], reduce_sum.259: f32[]) -> f32[] {
  %reduce_sum.438 = f32[]{:T(128)} parameter(0), metadata={op_name="jit(train_step)/reduce_sum"}
  %reduce_sum.259 = f32[]{:T(128)} parameter(1), metadata={op_name="jit(train_step)/reduce_sum"}
  ROOT %reduce_sum.260 = f32[]{:T(128)} add(%reduce_sum.438, %reduce_sum.259), metadata={op_name="jit(train_step)/reduce_sum" stack_frame_id=0}, backend_config={"flag_configs":[],"scoped_memory_configs":[],"used_scoped_memory_configs":[],"aliasing_operands":{"lists":[]}}
}

%fused_computation.529.clone.clone.clone (param_0.4079: bf16[4,128,129280], param_1.4953: s32[4,128], param_2.4225: f32[4,128], param_3.2913: f32[4,128], param_4.2170: bf16[4,128], param_5.1978: f32[4,128]) -> bf16[4,128,129280] {
  %param_5.1978 = f32[4,128]{1,0:T(4,128)S(1)} parameter(5)
  %mul.4903 = f32[4,128,129280]{2,1,0:T(8,128)} broadcast(%param_5.1978), dimensions={0,1}, metadata={op_name="jit(train_step)/transpose(jvp())/mul" stack_frame_id=0}
  %param_3.2913 = f32[4,128]{1,0:T(4,128)S(1)} parameter(3)
  %mul.4902 = f32[4,128,129280]{2,1,0:T(8,128)} broadcast(%param_3.2913), dimensions={0,1}, metadata={op_name="jit(train_step)/transpose(jvp())/mul" stack_frame_id=0}
  %param_0.4079 = bf16[4,128,129280]{2,1,0:T(8,128)(2,1)} parameter(0)
  %convert_element_type.3163 = f32[4,128,129280]{2,1,0:T(8,128)} convert(%param_0.4079), metadata={op_name="jit(train_step)/jvp(TransformerLinenPure.apply)/TransformerLinenPure/decoder/decoder.apply_output_head/convert_element_type" stack_frame_id=0}
  %param_4.2170 = bf16[4,128]{1,0:T(4,128)(2,1)S(1)} parameter(4)
  %sub.804 = f32[4,128,129280]{2,1,0:T(8,128)} broadcast(%param_4.2170), dimensions={0,1}, metadata={op_name="jit(train_step)/jvp()/sub" stack_frame_id=0}
  %sub.803 = f32[4,128,129280]{2,1,0:T(8,128)} subtract(%convert_element_type.3163, %sub.804), metadata={op_name="jit(train_step)/jvp()/sub" stack_frame_id=0}
  %exp.534 = f32[4,128,129280]{2,1,0:T(8,128)} exponential(%sub.803), metadata={op_name="jit(train_step)/jvp()/exp" stack_frame_id=0}
  %mul.4901 = f32[4,128,129280]{2,1,0:T(8,128)} multiply(%mul.4902, %exp.534), metadata={op_name="jit(train_step)/transpose(jvp())/mul" stack_frame_id=0}
  %param_2.4225 = f32[4,128]{1,0:T(4,128)S(1)} parameter(2)
  %div.2698 = f32[4,128,129280]{2,1,0:T(8,128)} broadcast(%param_2.4225), dimensions={0,1}, metadata={op_name="jit(train_step)/transpose(jvp())/div" stack_frame_id=0}
  %div.2697 = f32[4,128,129280]{2,1,0:T(8,128)} divide(%mul.4901, %div.2698), metadata={op_name="jit(train_step)/transpose(jvp())/div" stack_frame_id=0}
  %param_1.4953 = s32[4,128]{1,0:T(4,128)S(1)} parameter(1)
  %eq.371 = s32[4,128,129280]{2,1,0:T(8,128)} broadcast(%param_1.4953), dimensions={0,1}, metadata={op_name="jit(train_step)/jvp(jit(_one_hot))/eq" stack_frame_id=0}
  %eq.370 = s32[4,128,129280]{2,1,0:T(8,128)} iota(), iota_dimension=2, metadata={op_name="jit(train_step)/jvp(jit(_one_hot))/eq" stack_frame_id=0}
  %eq.369 = pred[4,128,129280]{2,1,0:T(8,128)(4,1)} compare(%eq.371, %eq.370), direction=EQ, metadata={op_name="jit(train_step)/jvp(jit(_one_hot))/eq" stack_frame_id=0}
  %convert_element_type.3162 = f32[4,128,129280]{2,1,0:T(8,128)} convert(%eq.369), metadata={op_name="jit(train_step)/jvp(jit(_one_hot))/convert_element_type" stack_frame_id=0}
  %sub.802 = f32[4,128,129280]{2,1,0:T(8,128)} subtract(%div.2697, %convert_element_type.3162), metadata={op_name="jit(train_step)/transpose(jvp())/sub" stack_frame_id=0}
  %mul.4900 = f32[4,128,129280]{2,1,0:T(8,128)} multiply(%mul.4903, %sub.802), metadata={op_name="jit(train_step)/transpose(jvp())/mul" stack_frame_id=0}
  ROOT %convert_element_type.3161 = bf16[4,128,129280]{2,1,0:T(8,128)(2,1)} convert(%mul.4900), metadata={op_name="jit(train_step)/transpose(jvp(TransformerLinenPure.apply))/TransformerLinenPure/decoder/decoder.apply_output_head/convert_element_type" stack_frame_id=0}
}

%fused_computation.939.clone.clone (param_0.4080: f32[4,128], param_1.4954: bf16[4,128,512], param_2.4227: bf16[512]) -> bf16[4,128,512] {
  %param_2.4227 = bf16[512]{0:T(512)(128)(2,1)S(1)} parameter(2)
  %dot_general.831 = bf16[4,128,512]{2,1,0:T(8,128)(2,1)} broadcast(%param_2.4227), dimensions={2}, metadata={op_name="jit(train_step)/jvp(TransformerLinenPure.apply)/TransformerLinenPure/decoder/decoder.apply_output_head/decoder_norm/...k,k->...k/dot_general" stack_frame_id=0}
  %param_1.4954 = bf16[4,128,512]{2,1,0:T(8,128)(2,1)S(1)} parameter(1)
  %convert_element_type.3165 = f32[4,128,512]{2,1,0:T(8,128)} convert(%param_1.4954), metadata={op_name="jit(train_step)/jvp(TransformerLinenPure.apply)/TransformerLinenPure/decoder/decoder.apply_output_head/decoder_norm/convert_element_type" stack_frame_id=0}
  %param_0.4080 = f32[4,128]{1,0:T(4,128)S(1)} parameter(0)
  %mul.4905 = f32[4,128,512]{2,1,0:T(8,128)} broadcast(%param_0.4080), dimensions={0,1}, metadata={op_name="jit(train_step)/jvp(TransformerLinenPure.apply)/TransformerLinenPure/decoder/decoder.apply_output_head/decoder_norm/mul" stack_frame_id=0}
  %mul.4904 = f32[4,128,512]{2,1,0:T(8,128)} multiply(%convert_element_type.3165, %mul.4905), metadata={op_name="jit(train_step)/jvp(TransformerLinenPure.apply)/TransformerLinenPure/decoder/decoder.apply_output_head/decoder_norm/mul" stack_frame_id=0}
  %convert_element_type.3164 = bf16[4,128,512]{2,1,0:T(8,128)(2,1)} convert(%mul.4904), metadata={op_name="jit(train_step)/jvp(TransformerLinenPure.apply)/TransformerLinenPure/decoder/decoder.apply_output_head/decoder_norm/convert_element_type" stack_frame_id=0}
  ROOT %dot_general.830 = bf16[4,128,512]{2,1,0:T(8,128)(2,1)} multiply(%dot_general.831, %convert_element_type.3164), metadata={op_name="jit(train_step)/jvp(TransformerLinenPure.apply)/TransformerLinenPure/decoder/decoder.apply_output_head/decoder_norm/...k,k->...k/dot_general" stack_frame_id=0}
}

%fused_computation.518 (param_0.4169: bf16[4,128,129280], param_1.5049: s32[4,128], param_2.4319: f32[4,128], param_3.2969: f32[4,128], param_4.2219: bf16[4,128], param_5.2020: f32[4,128], param_6.1457: f32[4,128], param_7.1138: bf16[4,128,512], param_8.902: bf16[512]) -> (f32[], bf16[512,129280,1]) {
  %param_6.1457 = f32[4,128]{1,0:T(4,128)S(1)} parameter(6)
  %param_7.1138 = bf16[4,128,512]{2,1,0:T(8,128)(2,1)S(1)} parameter(7)
  %param_8.902 = bf16[512]{0:T(512)(128)(2,1)S(1)} parameter(8)
  %fusion.577.clone.1 = bf16[4,128,512]{2,1,0:T(8,128)(2,1)} fusion(%param_6.1457, %param_7.1138, %param_8.902), kind=kLoop, calls=%fused_computation.939.clone.clone, metadata={op_name="jit(train_step)/jvp(TransformerLinenPure.apply)/TransformerLinenPure/decoder/decoder.apply_output_head/decoder_norm/...k,k->...k/dot_general" stack_frame_id=0}
  %param_0.4169 = bf16[4,128,129280]{2,1,0:T(8,128)(2,1)} parameter(0)
  %param_1.5049 = s32[4,128]{1,0:T(4,128)S(1)} parameter(1)
  %param_2.4319 = f32[4,128]{1,0:T(4,128)S(1)} parameter(2)
  %param_3.2969 = f32[4,128]{1,0:T(4,128)S(1)} parameter(3)
  %param_4.2219 = bf16[4,128]{1,0:T(4,128)(2,1)S(1)} parameter(4)
  %param_5.2020 = f32[4,128]{1,0:T(4,128)S(1)} parameter(5)
  %multiply_convert_fusion.1.clone.1 = bf16[4,128,129280]{2,1,0:T(8,128)(2,1)} fusion(%param_0.4169, %param_1.5049, %param_2.4319, %param_3.2969, %param_4.2219, /*index=5*/%param_5.2020), kind=kLoop, calls=%fused_computation.529.clone.clone.clone, metadata={op_name="jit(train_step)/transpose(jvp(TransformerLinenPure.apply))/TransformerLinenPure/decoder/decoder.apply_output_head/convert_element_type" stack_frame_id=0}
  %convolution.141.clone.1 = bf16[512,129280,1]{1,0,2:T(8,128)(2,1)} convolution(%fusion.577.clone.1, %multiply_convert_fusion.1.clone.1), window={size=4}, dim_labels=0fb_0io->bf0, metadata={op_name="jit(train_step)/transpose(jvp(TransformerLinenPure.apply))/TransformerLinenPure/decoder/decoder.apply_output_head/logits_dense/dot_general" stack_frame_id=0}
  %bitcast.776 = bf16[512,129280]{1,0:T(8,128)(2,1)} bitcast(%convolution.141.clone.1), metadata={op_name="jit(train_step)/transpose(jvp(TransformerLinenPure.apply))/TransformerLinenPure/decoder/decoder.apply_output_head/logits_dense/dot_general" stack_frame_id=0}
  %convert_element_type.2665 = f32[512,129280]{1,0:T(8,128)} convert(%bitcast.776), metadata={op_name="jit(train_step)/transpose(jvp(TransformerLinenPure.apply))/TransformerLinenPure/decoder/decoder.apply_output_head/logits_dense/convert_element_type" stack_frame_id=0}
  %square.581 = f32[512,129280]{1,0:T(8,128)} multiply(%convert_element_type.2665, %convert_element_type.2665), metadata={op_name="jit(train_step)/square" stack_frame_id=0}
  %constant.5104 = f32[]{:T(128)} constant(0)
  %reduce.678 = f32[]{:T(128)} reduce(%square.581, %constant.5104), dimensions={0,1}, to_apply=%region_155.180, metadata={op_name="jit(train_step)/reduce_sum" stack_frame_id=0}
  ROOT %tuple.757 = (f32[]{:T(128)}, bf16[512,129280,1]{1,0,2:T(8,128)(2,1)}) tuple(%reduce.678, %convolution.141.clone.1)
}

%region_174.199 (reduce_sum.564: f32[], reduce_sum.387: f32[]) -> f32[] {
  %reduce_sum.564 = f32[]{:T(128)} parameter(0), metadata={op_name="jit(train_step)/reduce_sum"}
  %reduce_sum.387 = f32[]{:T(128)} parameter(1), metadata={op_name="jit(train_step)/reduce_sum"}
  ROOT %reduce_sum.388 = f32[]{:T(128)} add(%reduce_sum.564, %reduce_sum.387), metadata={op_name="jit(train_step)/reduce_sum" stack_frame_id=0}, backend_config={"flag_configs":[],"scoped_memory_configs":[],"used_scoped_memory_configs":[],"aliasing_operands":{"lists":[]}}
}

%fused_computation.519 (param_0.4153: bf16[129280,512]) -> f32[] {
  %param_0.4153 = bf16[129280,512]{1,0:T(8,128)(2,1)} parameter(0)
  %convert_element_type.2667 = f32[129280,512]{1,0:T(8,128)} convert(%param_0.4153), metadata={op_name="jit(train_step)/transpose(jvp(TransformerLinenPure.apply))/TransformerLinenPure/decoder/decoder._apply_embedding/token_embedder/convert_element_type" stack_frame_id=0}
  %square.583 = f32[129280,512]{1,0:T(8,128)} multiply(%convert_element_type.2667, %convert_element_type.2667), metadata={op_name="jit(train_step)/square" stack_frame_id=0}
  %constant.5088 = f32[]{:T(128)} constant(0)
  ROOT %reduce.679 = f32[]{:T(128)} reduce(%square.583, %constant.5088), dimensions={0,1}, to_apply=%region_174.199, metadata={op_name="jit(train_step)/reduce_sum" stack_frame_id=0}
}

%region_240.265 (reduce_sum.1026: f32[], reduce_sum.689: f32[]) -> f32[] {
  %reduce_sum.1026 = f32[]{:T(128)} parameter(0), metadata={op_name="jit(train_step)/reduce_sum"}
  %reduce_sum.689 = f32[]{:T(128)} parameter(1), metadata={op_name="jit(train_step)/reduce_sum"}
  ROOT %reduce_sum.694 = f32[]{:T(128)} add(%reduce_sum.1026, %reduce_sum.689), metadata={op_name="jit(train_step)/reduce_sum" stack_frame_id=0}, backend_config={"flag_configs":[],"scoped_memory_configs":[],"used_scoped_memory_configs":[],"aliasing_operands":{"lists":[]}}
}

%region_206.231 (reduce_sum.788: f32[], reduce_sum.533: f32[]) -> f32[] {
  %reduce_sum.788 = f32[]{:T(128)} parameter(0), metadata={op_name="jit(train_step)/reduce_sum"}
  %reduce_sum.533 = f32[]{:T(128)} parameter(1), metadata={op_name="jit(train_step)/reduce_sum"}
  ROOT %reduce_sum.534 = f32[]{:T(128)} add(%reduce_sum.788, %reduce_sum.533), metadata={op_name="jit(train_step)/reduce_sum" stack_frame_id=0}, backend_config={"flag_configs":[],"scoped_memory_configs":[],"used_scoped_memory_configs":[],"aliasing_operands":{"lists":[]}}
}

%fused_computation.520 (param_0.4121: f32[129280,512], param_1.5006: f32[], param_2.4279: f32[], param_3.2932: f32[], param_4.2184: f32[129280,512], param_5.1987: f32[], param_6.1424: bf16[129280,512], param_7.1105: pred[], param_8.870: f32[129280,512]) -> (f32[], f32[129280,512], f32[129280,512], f32[129280,512], f32[]) {
  %param_0.4121 = f32[129280,512]{1,0:T(8,128)} parameter(0)
  %param_3.2932 = f32[]{:T(128)S(6)} parameter(3)
  %mul.4564.clone.1 = f32[129280,512]{1,0:T(8,128)} broadcast(%param_3.2932), dimensions={}, metadata={op_name="jit(train_step)/mul" stack_frame_id=0}
  %param_7.1105 = pred[]{:T(512)S(6)} parameter(7)
  %select_n.2105.clone.1 = pred[129280,512]{1,0:T(8,128)(4,1)} broadcast(%param_7.1105), dimensions={}, metadata={op_name="jit(train_step)/select_n" stack_frame_id=0}
  %param_6.1424 = bf16[129280,512]{1,0:T(8,128)(2,1)} parameter(6)
  %convert_element_type.3106.clone.1 = f32[129280,512]{1,0:T(8,128)} convert(%param_6.1424), metadata={op_name="jit(train_step)/transpose(jvp(TransformerLinenPure.apply))/TransformerLinenPure/decoder/decoder._apply_embedding/token_embedder/convert_element_type" stack_frame_id=0}
  %param_5.1987 = f32[]{:T(128)} parameter(5)
  %div.2439.clone.1 = f32[129280,512]{1,0:T(8,128)} broadcast(%param_5.1987), dimensions={}, metadata={op_name="jit(train_step)/div" stack_frame_id=0}
  %div.2438.clone.1 = f32[129280,512]{1,0:T(8,128)} divide(%convert_element_type.3106.clone.1, %div.2439.clone.1), metadata={op_name="jit(train_step)/div" stack_frame_id=0}
  %select_n.2104.clone.1 = f32[129280,512]{1,0:T(8,128)} select(%select_n.2105.clone.1, %convert_element_type.3106.clone.1, %div.2438.clone.1), metadata={op_name="jit(train_step)/select_n" stack_frame_id=0}
  %constant.4754.clone.1 = f32[]{:T(128)} constant(0.1)
  %broadcast.4209.clone.1 = f32[129280,512]{1,0:T(8,128)} broadcast(%constant.4754.clone.1), dimensions={}, metadata={op_name="broadcast.318"}
  %mul.4570.clone.1 = f32[129280,512]{1,0:T(8,128)} multiply(%select_n.2104.clone.1, %broadcast.4209.clone.1), metadata={op_name="jit(train_step)/mul" stack_frame_id=0}
  %param_8.870 = f32[129280,512]{1,0:T(8,128)} parameter(8)
  %constant.4758.clone.1 = f32[]{:T(128)} constant(0.9)
  %mul.4571.clone.1 = f32[129280,512]{1,0:T(8,128)} broadcast(%constant.4758.clone.1), dimensions={}, metadata={op_name="jit(train_step)/mul" stack_frame_id=0}
  %mul.4569.clone.1 = f32[129280,512]{1,0:T(8,128)} multiply(%param_8.870, %mul.4571.clone.1), metadata={op_name="jit(train_step)/mul" stack_frame_id=0}
  %add.3338.clone.1 = f32[129280,512]{1,0:T(8,128)} add(%mul.4570.clone.1, %mul.4569.clone.1), metadata={op_name="jit(train_step)/add" stack_frame_id=0}
  %param_2.4279 = f32[]{:T(128)S(6)} parameter(2)
  %div.2435.clone.1 = f32[129280,512]{1,0:T(8,128)} broadcast(%param_2.4279), dimensions={}, metadata={op_name="jit(train_step)/div" stack_frame_id=0}
  %integer_pow.380.clone.1 = f32[129280,512]{1,0:T(8,128)} multiply(%select_n.2104.clone.1, %select_n.2104.clone.1), metadata={op_name="jit(train_step)/integer_pow" stack_frame_id=0}
  %constant.4757.clone.1 = f32[]{:T(128)} constant(0.05)
  %mul.4568.clone.1 = f32[129280,512]{1,0:T(8,128)} broadcast(%constant.4757.clone.1), dimensions={}, metadata={op_name="jit(train_step)/mul" stack_frame_id=0}
  %mul.4566.clone.1 = f32[129280,512]{1,0:T(8,128)} multiply(%integer_pow.380.clone.1, %mul.4568.clone.1), metadata={op_name="jit(train_step)/mul" stack_frame_id=0}
  %param_4.2184 = f32[129280,512]{1,0:T(8,128)} parameter(4)
  %constant.4756.clone.1 = f32[]{:T(128)} constant(0.95)
  %mul.4567.clone.1 = f32[129280,512]{1,0:T(8,128)} broadcast(%constant.4756.clone.1), dimensions={}, metadata={op_name="jit(train_step)/mul" stack_frame_id=0}
  %mul.4565.clone.1 = f32[129280,512]{1,0:T(8,128)} multiply(%param_4.2184, %mul.4567.clone.1), metadata={op_name="jit(train_step)/mul" stack_frame_id=0}
  %add.3337.clone.1 = f32[129280,512]{1,0:T(8,128)} add(%mul.4566.clone.1, %mul.4565.clone.1), metadata={op_name="jit(train_step)/add" stack_frame_id=0}
  %param_1.5006 = f32[]{:T(128)S(6)} parameter(1)
  %div.2434.clone.1 = f32[129280,512]{1,0:T(8,128)} broadcast(%param_1.5006), dimensions={}, metadata={op_name="jit(train_step)/div" stack_frame_id=0}
  %div.2433.clone.1 = f32[129280,512]{1,0:T(8,128)} divide(%add.3337.clone.1, %div.2434.clone.1), metadata={op_name="jit(train_step)/div" stack_frame_id=0}
  %sqrt.138.clone.1 = f32[129280,512]{1,0:T(8,128)} sqrt(%div.2433.clone.1), metadata={op_name="jit(train_step)/sqrt" stack_frame_id=0}
  %constant.4755.clone.1 = f32[]{:T(128)} constant(1e-08)
  %add.3336.clone.1 = f32[129280,512]{1,0:T(8,128)} broadcast(%constant.4755.clone.1), dimensions={}, metadata={op_name="jit(train_step)/add" stack_frame_id=0}
  %add.3335.clone.1 = f32[129280,512]{1,0:T(8,128)} add(%sqrt.138.clone.1, %add.3336.clone.1), metadata={op_name="jit(train_step)/add" stack_frame_id=0}
  %multiply.1274.clone.1 = f32[129280,512]{1,0:T(8,128)} multiply(%div.2435.clone.1, %add.3335.clone.1), metadata={op_name="multiply.309"}
  %div.2432.clone.1 = f32[129280,512]{1,0:T(8,128)} divide(%add.3338.clone.1, %multiply.1274.clone.1), metadata={op_name="jit(train_step)/div" stack_frame_id=0}
  %mul.4563.clone.1 = f32[129280,512]{1,0:T(8,128)} multiply(%param_0.4121, %broadcast.4209.clone.1), metadata={op_name="jit(train_step)/mul" stack_frame_id=0}
  %add.3334.clone.1 = f32[129280,512]{1,0:T(8,128)} add(%div.2432.clone.1, %mul.4563.clone.1), metadata={op_name="jit(train_step)/add" stack_frame_id=0}
  %mul.4562.clone.1 = f32[129280,512]{1,0:T(8,128)} multiply(%mul.4564.clone.1, %add.3334.clone.1), metadata={op_name="jit(train_step)/mul" stack_frame_id=0}
  %add.3333.clone.1 = f32[129280,512]{1,0:T(8,128)} add(%param_0.4121, %mul.4562.clone.1), metadata={op_name="jit(train_step)/add" stack_frame_id=0}
  %square.584 = f32[129280,512]{1,0:T(8,128)} multiply(%add.3333.clone.1, %add.3333.clone.1), metadata={op_name="jit(train_step)/square" stack_frame_id=0}
  %constant.5056 = f32[]{:T(128)} constant(0)
  %reduce.680 = f32[]{:T(128)} reduce(%square.584, %constant.5056), dimensions={0,1}, to_apply=%region_240.265, metadata={op_name="jit(train_step)/reduce_sum" stack_frame_id=0}
  %reduce.687.clone.1 = f32[]{:T(128)} reduce(%integer_pow.380.clone.1, %constant.5056), dimensions={0,1}, to_apply=%region_206.231, metadata={op_name="jit(train_step)/reduce_sum" stack_frame_id=0}
  ROOT %tuple.671 = (f32[]{:T(128)}, f32[129280,512]{1,0:T(8,128)}, f32[129280,512]{1,0:T(8,128)}, f32[129280,512]{1,0:T(8,128)}, f32[]{:T(128)}) tuple(%reduce.680, %add.3333.clone.1, %add.3337.clone.1, %add.3338.clone.1, %reduce.687.clone.1)
}

%region_222.247 (reduce_sum.900: f32[], reduce_sum.605: f32[]) -> f32[] {
  %reduce_sum.900 = f32[]{:T(128)} parameter(0), metadata={op_name="jit(train_step)/reduce_sum"}
  %reduce_sum.605 = f32[]{:T(128)} parameter(1), metadata={op_name="jit(train_step)/reduce_sum"}
  ROOT %reduce_sum.610 = f32[]{:T(128)} add(%reduce_sum.900, %reduce_sum.605), metadata={op_name="jit(train_step)/reduce_sum" stack_frame_id=0}, backend_config={"flag_configs":[],"scoped_memory_configs":[],"used_scoped_memory_configs":[],"aliasing_operands":{"lists":[]}}
}

%region_188.213 (reduce_sum.662: f32[], reduce_sum.451: f32[]) -> f32[] {
  %reduce_sum.662 = f32[]{:T(128)} parameter(0), metadata={op_name="jit(train_step)/reduce_sum"}
  %reduce_sum.451 = f32[]{:T(128)} parameter(1), metadata={op_name="jit(train_step)/reduce_sum"}
  ROOT %reduce_sum.455 = f32[]{:T(128)} add(%reduce_sum.662, %reduce_sum.451), metadata={op_name="jit(train_step)/reduce_sum" stack_frame_id=0}, backend_config={"flag_configs":[],"scoped_memory_configs":[],"used_scoped_memory_configs":[],"aliasing_operands":{"lists":[]}}
}

%fused_computation.521 (param_0.4139: f32[512,129280], param_1.5024: f32[], param_2.4297: f32[], param_3.2950: f32[], param_4.2202: f32[512,129280], param_5.2005: f32[], param_6.1442: bf16[512,129280,1], param_7.1123: pred[], param_8.888: f32[512,129280]) -> (f32[], f32[512,129280], f32[512,129280], f32[512,129280], f32[]) {
  %param_0.4139 = f32[512,129280]{1,0:T(8,128)} parameter(0)
  %param_3.2950 = f32[]{:T(128)S(6)} parameter(3)
  %mul.4717.clone.1 = f32[512,129280]{1,0:T(8,128)} broadcast(%param_3.2950), dimensions={}, metadata={op_name="jit(train_step)/mul" stack_frame_id=0}
  %param_7.1123 = pred[]{:T(512)S(6)} parameter(7)
  %select_n.2161.clone.1 = pred[512,129280]{1,0:T(8,128)(4,1)} broadcast(%param_7.1123), dimensions={}, metadata={op_name="jit(train_step)/select_n" stack_frame_id=0}
  %param_6.1442 = bf16[512,129280,1]{1,0,2:T(8,128)(2,1)} parameter(6)
  %bitcast.1372.clone.1 = bf16[512,129280]{1,0:T(8,128)(2,1)} bitcast(%param_6.1442), metadata={op_name="jit(train_step)/transpose(jvp(TransformerLinenPure.apply))/TransformerLinenPure/decoder/decoder.apply_output_head/logits_dense/dot_general" stack_frame_id=0}
  %convert_element_type.3108.clone.1 = f32[512,129280]{1,0:T(8,128)} convert(%bitcast.1372.clone.1), metadata={op_name="jit(train_step)/transpose(jvp(TransformerLinenPure.apply))/TransformerLinenPure/decoder/decoder.apply_output_head/logits_dense/convert_element_type" stack_frame_id=0}
  %param_5.2005 = f32[]{:T(128)} parameter(5)
  %div.2567.clone.1 = f32[512,129280]{1,0:T(8,128)} broadcast(%param_5.2005), dimensions={}, metadata={op_name="jit(train_step)/div" stack_frame_id=0}
  %div.2566.clone.1 = f32[512,129280]{1,0:T(8,128)} divide(%convert_element_type.3108.clone.1, %div.2567.clone.1), metadata={op_name="jit(train_step)/div" stack_frame_id=0}
  %select_n.2160.clone.1 = f32[512,129280]{1,0:T(8,128)} select(%select_n.2161.clone.1, %convert_element_type.3108.clone.1, %div.2566.clone.1), metadata={op_name="jit(train_step)/select_n" stack_frame_id=0}
  %constant.4858.clone.1 = f32[]{:T(128)} constant(0.1)
  %broadcast.4277.clone.1 = f32[512,129280]{1,0:T(8,128)} broadcast(%constant.4858.clone.1), dimensions={}, metadata={op_name="broadcast.333"}
  %mul.4723.clone.1 = f32[512,129280]{1,0:T(8,128)} multiply(%select_n.2160.clone.1, %broadcast.4277.clone.1), metadata={op_name="jit(train_step)/mul" stack_frame_id=0}
  %param_8.888 = f32[512,129280]{1,0:T(8,128)} parameter(8)
  %constant.4862.clone.1 = f32[]{:T(128)} constant(0.9)
  %mul.4724.clone.1 = f32[512,129280]{1,0:T(8,128)} broadcast(%constant.4862.clone.1), dimensions={}, metadata={op_name="jit(train_step)/mul" stack_frame_id=0}
  %mul.4722.clone.1 = f32[512,129280]{1,0:T(8,128)} multiply(%param_8.888, %mul.4724.clone.1), metadata={op_name="jit(train_step)/mul" stack_frame_id=0}
  %add.3437.clone.1 = f32[512,129280]{1,0:T(8,128)} add(%mul.4723.clone.1, %mul.4722.clone.1), metadata={op_name="jit(train_step)/add" stack_frame_id=0}
  %param_2.4297 = f32[]{:T(128)S(6)} parameter(2)
  %div.2563.clone.1 = f32[512,129280]{1,0:T(8,128)} broadcast(%param_2.4297), dimensions={}, metadata={op_name="jit(train_step)/div" stack_frame_id=0}
  %integer_pow.398.clone.1 = f32[512,129280]{1,0:T(8,128)} multiply(%select_n.2160.clone.1, %select_n.2160.clone.1), metadata={op_name="jit(train_step)/integer_pow" stack_frame_id=0}
  %constant.4861.clone.1 = f32[]{:T(128)} constant(0.05)
  %mul.4721.clone.1 = f32[512,129280]{1,0:T(8,128)} broadcast(%constant.4861.clone.1), dimensions={}, metadata={op_name="jit(train_step)/mul" stack_frame_id=0}
  %mul.4719.clone.1 = f32[512,129280]{1,0:T(8,128)} multiply(%integer_pow.398.clone.1, %mul.4721.clone.1), metadata={op_name="jit(train_step)/mul" stack_frame_id=0}
  %param_4.2202 = f32[512,129280]{1,0:T(8,128)} parameter(4)
  %constant.4860.clone.1 = f32[]{:T(128)} constant(0.95)
  %mul.4720.clone.1 = f32[512,129280]{1,0:T(8,128)} broadcast(%constant.4860.clone.1), dimensions={}, metadata={op_name="jit(train_step)/mul" stack_frame_id=0}
  %mul.4718.clone.1 = f32[512,129280]{1,0:T(8,128)} multiply(%param_4.2202, %mul.4720.clone.1), metadata={op_name="jit(train_step)/mul" stack_frame_id=0}
  %add.3436.clone.1 = f32[512,129280]{1,0:T(8,128)} add(%mul.4719.clone.1, %mul.4718.clone.1), metadata={op_name="jit(train_step)/add" stack_frame_id=0}
  %param_1.5024 = f32[]{:T(128)S(6)} parameter(1)
  %div.2562.clone.1 = f32[512,129280]{1,0:T(8,128)} broadcast(%param_1.5024), dimensions={}, metadata={op_name="jit(train_step)/div" stack_frame_id=0}
  %div.2561.clone.1 = f32[512,129280]{1,0:T(8,128)} divide(%add.3436.clone.1, %div.2562.clone.1), metadata={op_name="jit(train_step)/div" stack_frame_id=0}
  %sqrt.156.clone.1 = f32[512,129280]{1,0:T(8,128)} sqrt(%div.2561.clone.1), metadata={op_name="jit(train_step)/sqrt" stack_frame_id=0}
  %constant.4859.clone.1 = f32[]{:T(128)} constant(1e-08)
  %add.3435.clone.1 = f32[512,129280]{1,0:T(8,128)} broadcast(%constant.4859.clone.1), dimensions={}, metadata={op_name="jit(train_step)/add" stack_frame_id=0}
  %add.3434.clone.1 = f32[512,129280]{1,0:T(8,128)} add(%sqrt.156.clone.1, %add.3435.clone.1), metadata={op_name="jit(train_step)/add" stack_frame_id=0}
  %multiply.1292.clone.1 = f32[512,129280]{1,0:T(8,128)} multiply(%div.2563.clone.1, %add.3434.clone.1), metadata={op_name="multiply.291"}
  %div.2560.clone.1 = f32[512,129280]{1,0:T(8,128)} divide(%add.3437.clone.1, %multiply.1292.clone.1), metadata={op_name="jit(train_step)/div" stack_frame_id=0}
  %mul.4716.clone.1 = f32[512,129280]{1,0:T(8,128)} multiply(%param_0.4139, %broadcast.4277.clone.1), metadata={op_name="jit(train_step)/mul" stack_frame_id=0}
  %add.3433.clone.1 = f32[512,129280]{1,0:T(8,128)} add(%div.2560.clone.1, %mul.4716.clone.1), metadata={op_name="jit(train_step)/add" stack_frame_id=0}
  %mul.4715.clone.1 = f32[512,129280]{1,0:T(8,128)} multiply(%mul.4717.clone.1, %add.3433.clone.1), metadata={op_name="jit(train_step)/mul" stack_frame_id=0}
  %add.3432.clone.1 = f32[512,129280]{1,0:T(8,128)} add(%param_0.4139, %mul.4715.clone.1), metadata={op_name="jit(train_step)/add" stack_frame_id=0}
  %square.585 = f32[512,129280]{1,0:T(8,128)} multiply(%add.3432.clone.1, %add.3432.clone.1), metadata={op_name="jit(train_step)/square" stack_frame_id=0}
  %constant.5074 = f32[]{:T(128)} constant(0)
  %reduce.681 = f32[]{:T(128)} reduce(%square.585, %constant.5074), dimensions={0,1}, to_apply=%region_222.247, metadata={op_name="jit(train_step)/reduce_sum" stack_frame_id=0}
  %reduce.688.clone.1 = f32[]{:T(128)} reduce(%integer_pow.398.clone.1, %constant.5074), dimensions={0,1}, to_apply=%region_188.213, metadata={op_name="jit(train_step)/reduce_sum" stack_frame_id=0}
  ROOT %tuple.672 = (f32[]{:T(128)}, f32[512,129280]{1,0:T(8,128)}, f32[512,129280]{1,0:T(8,128)}, f32[512,129280]{1,0:T(8,128)}, f32[]{:T(128)}) tuple(%reduce.681, %add.3432.clone.1, %add.3436.clone.1, %add.3437.clone.1, %reduce.688.clone.1)
}

%region_207.232 (reduce_sum.795: f32[], reduce_sum.535: f32[]) -> f32[] {
  %reduce_sum.795 = f32[]{:T(128)} parameter(0), metadata={op_name="jit(train_step)/jvp()/reduce_sum"}
  %reduce_sum.535 = f32[]{:T(128)} parameter(1), metadata={op_name="jit(train_step)/jvp()/reduce_sum"}
  ROOT %reduce_sum.540 = f32[]{:T(128)} add(%reduce_sum.795, %reduce_sum.535), metadata={op_name="jit(train_step)/jvp()/reduce_sum" stack_frame_id=0}, backend_config={"flag_configs":[],"scoped_memory_configs":[],"used_scoped_memory_configs":[],"aliasing_operands":{"lists":[]}}
}

%fused_computation.522 (param_0.4190: bf16[4,128,129280], param_1.5063: f32[4,128], param_2.4329: s32[4,128], param_3.2977: bf16[4,128]) -> f32[4,128] {
  %param_2.4329 = s32[4,128]{1,0:T(4,128)S(1)} parameter(2)
  %eq.307 = s32[4,128,129280]{2,1,0:T(8,128)} broadcast(%param_2.4329), dimensions={0,1}, metadata={op_name="jit(train_step)/jvp(jit(_one_hot))/eq" stack_frame_id=0}
  %eq.302 = s32[4,128,129280]{2,1,0:T(8,128)} iota(), iota_dimension=2, metadata={op_name="jit(train_step)/jvp(jit(_one_hot))/eq" stack_frame_id=0}
  %eq.301 = pred[4,128,129280]{2,1,0:T(8,128)(4,1)} compare(%eq.307, %eq.302), direction=EQ, metadata={op_name="jit(train_step)/jvp(jit(_one_hot))/eq" stack_frame_id=0}
  %param_0.4190 = bf16[4,128,129280]{2,1,0:T(8,128)(2,1)} parameter(0)
  %convert_element_type.2672 = f32[4,128,129280]{2,1,0:T(8,128)} convert(%param_0.4190), metadata={op_name="jit(train_step)/jvp(TransformerLinenPure.apply)/TransformerLinenPure/decoder/decoder.apply_output_head/convert_element_type" stack_frame_id=0}
  %param_3.2977 = bf16[4,128]{1,0:T(4,128)(2,1)S(1)} parameter(3)
  %sub.665 = f32[4,128,129280]{2,1,0:T(8,128)} broadcast(%param_3.2977), dimensions={0,1}, metadata={op_name="jit(train_step)/jvp()/sub" stack_frame_id=0}
  %sub.656 = f32[4,128,129280]{2,1,0:T(8,128)} subtract(%convert_element_type.2672, %sub.665), metadata={op_name="jit(train_step)/jvp()/sub" stack_frame_id=0}
  %param_1.5063 = f32[4,128]{1,0:T(4,128)S(1)} parameter(1)
  %sub.663 = f32[4,128,129280]{2,1,0:T(8,128)} broadcast(%param_1.5063), dimensions={0,1}, metadata={op_name="jit(train_step)/jvp()/sub" stack_frame_id=0}
  %sub.652 = f32[4,128,129280]{2,1,0:T(8,128)} subtract(%sub.656, %sub.663), metadata={op_name="jit(train_step)/jvp()/sub" stack_frame_id=0}
  %constant.5128 = f32[]{:T(128)} constant(0)
  %broadcast.3784 = f32[4,128,129280]{2,1,0:T(8,128)} broadcast(%constant.5128), dimensions={}, metadata={op_name="broadcast.518"}
  %mul.3624 = f32[4,128,129280]{2,1,0:T(8,128)} select(%eq.301, %sub.652, %broadcast.3784), metadata={op_name="jit(train_step)/jvp()/mul" stack_frame_id=0}
  ROOT %reduce.682 = f32[4,128]{1,0:T(4,128)S(1)} reduce(%mul.3624, %constant.5128), dimensions={2}, to_apply=%region_207.232, metadata={op_name="jit(train_step)/jvp()/reduce_sum" stack_frame_id=0}
}

%region_37.47 (reduce_sum.76: f32[], reduce_sum.80: f32[]) -> f32[] {
  %reduce_sum.76 = f32[]{:T(128)} parameter(0), metadata={op_name="jit(train_step)/jvp()/reduce_sum"}
  %reduce_sum.80 = f32[]{:T(128)} parameter(1), metadata={op_name="jit(train_step)/jvp()/reduce_sum"}
  ROOT %reduce_sum.83 = f32[]{:T(128)} add(%reduce_sum.76, %reduce_sum.80), metadata={op_name="jit(train_step)/jvp()/reduce_sum" stack_frame_id=0}, backend_config={"flag_configs":[],"scoped_memory_configs":[],"used_scoped_memory_configs":[],"aliasing_operands":{"lists":[]}}
}

%fused_computation.533 (param_0.4191: bf16[4,128,129280], param_1.5064: bf16[4,128]) -> f32[4,128] {
  %param_0.4191 = bf16[4,128,129280]{2,1,0:T(8,128)(2,1)} parameter(0)
  %convert_element_type.2678 = f32[4,128,129280]{2,1,0:T(8,128)} convert(%param_0.4191), metadata={op_name="jit(train_step)/jvp(TransformerLinenPure.apply)/TransformerLinenPure/decoder/decoder.apply_output_head/convert_element_type" stack_frame_id=0}
  %param_1.5064 = bf16[4,128]{1,0:T(4,128)(2,1)S(1)} parameter(1)
  %sub.666 = f32[4,128,129280]{2,1,0:T(8,128)} broadcast(%param_1.5064), dimensions={0,1}, metadata={op_name="jit(train_step)/jvp()/sub" stack_frame_id=0}
  %sub.662 = f32[4,128,129280]{2,1,0:T(8,128)} subtract(%convert_element_type.2678, %sub.666), metadata={op_name="jit(train_step)/jvp()/sub" stack_frame_id=0}
  %exp.448 = f32[4,128,129280]{2,1,0:T(8,128)} exponential(%sub.662), metadata={op_name="jit(train_step)/jvp()/exp" stack_frame_id=0}
  %constant.5129 = f32[]{:T(128)} constant(0)
  ROOT %reduce.683 = f32[4,128]{1,0:T(4,128)S(1)} reduce(%exp.448, %constant.5129), dimensions={2}, to_apply=%region_37.47, metadata={op_name="jit(train_step)/jvp()/reduce_sum" stack_frame_id=0}
}

%region_152.177 (reduce_sum.417: f32[], reduce_sum.244: f32[]) -> f32[] {
  %reduce_sum.417 = f32[]{:T(128)} parameter(0), metadata={op_name="jit(train_step)/reduce_sum"}
  %reduce_sum.244 = f32[]{:T(128)} parameter(1), metadata={op_name="jit(train_step)/reduce_sum"}
  ROOT %reduce_sum.251 = f32[]{:T(128)} add(%reduce_sum.417, %reduce_sum.244), metadata={op_name="jit(train_step)/reduce_sum" stack_frame_id=0}, backend_config={"flag_configs":[],"scoped_memory_configs":[],"used_scoped_memory_configs":[],"aliasing_operands":{"lists":[]}}
}

%fused_computation.541 (param_0.4172: f32[3,512,128,256]) -> f32[] {
  %param_0.4172 = f32[3,512,128,256]{3,2,0,1:T(8,128)} parameter(0)
  %bitcast.752 = f32[512,3,128,256]{3,2,1,0:T(8,128)} bitcast(%param_0.4172), metadata={op_name="jit(train_step)/transpose(jvp(TransformerLinenPure.apply))/TransformerLinenPure/decoder/dense_layers.wrapped_fn/transpose" stack_frame_id=0}
  %square.588 = f32[512,3,128,256]{3,2,1,0:T(8,128)} multiply(%bitcast.752, %bitcast.752), metadata={op_name="jit(train_step)/square" stack_frame_id=0}
  %constant.5107 = f32[]{:T(128)} constant(0)
  ROOT %reduce.689 = f32[]{:T(128)} reduce(%square.588, %constant.5107), dimensions={0,1,2,3}, to_apply=%region_152.177, metadata={op_name="jit(train_step)/reduce_sum" stack_frame_id=0}
}

%fused_computation.542 (param_0.1602: f32[512,3,128,256]) -> bf16[3,512,128,256] {
  %param_0.1602 = f32[512,3,128,256]{3,2,1,0:T(8,128)} parameter(0)
  %copy.1551 = bf16[512,3,128,256]{3,0,2,1:T(8,128)(2,1)} copy(%param_0.1602), sharding={replicated}, metadata={op_name="state.params[\'params\'][\'decoder\'][\'dense_layers\'][\'self_attention\'][\'wkv_b\'][\'kernel\']"}
  ROOT %bitcast.753 = bf16[3,512,128,256]{3,1,2,0:T(8,128)(2,1)} bitcast(%copy.1551), metadata={op_name="jit(train_step)/jvp(TransformerLinenPure.apply)/TransformerLinenPure/decoder/dense_layers.wrapped_fn/transpose" stack_frame_id=0}
}

%region_219.244 (reduce_sum.879: f32[], reduce_sum.591: f32[]) -> f32[] {
  %reduce_sum.879 = f32[]{:T(128)} parameter(0), metadata={op_name="jit(train_step)/reduce_sum"}
  %reduce_sum.591 = f32[]{:T(128)} parameter(1), metadata={op_name="jit(train_step)/reduce_sum"}
  ROOT %reduce_sum.596 = f32[]{:T(128)} add(%reduce_sum.879, %reduce_sum.591), metadata={op_name="jit(train_step)/reduce_sum" stack_frame_id=0}, backend_config={"flag_configs":[],"scoped_memory_configs":[],"used_scoped_memory_configs":[],"aliasing_operands":{"lists":[]}}
}

%region_185.210 (reduce_sum.641: f32[], reduce_sum.437: f32[]) -> f32[] {
  %reduce_sum.641 = f32[]{:T(128)} parameter(0), metadata={op_name="jit(train_step)/reduce_sum"}
  %reduce_sum.437 = f32[]{:T(128)} parameter(1), metadata={op_name="jit(train_step)/reduce_sum"}
  ROOT %reduce_sum.442 = f32[]{:T(128)} add(%reduce_sum.641, %reduce_sum.437), metadata={op_name="jit(train_step)/reduce_sum" stack_frame_id=0}, backend_config={"flag_configs":[],"scoped_memory_configs":[],"used_scoped_memory_configs":[],"aliasing_operands":{"lists":[]}}
}

%fused_computation.543 (param_0.4142: f32[512,3,128,256], param_1.5027: f32[], param_2.4300: f32[], param_3.2953: f32[], param_4.2205: f32[512,3,128,256], param_5.2008: f32[], param_6.1445: f32[3,512,128,256], param_7.1126: pred[], param_8.891: f32[512,3,128,256]) -> (f32[], f32[512,3,128,256], f32[512,3,128,256], f32[512,3,128,256], f32[]) {
  %param_0.4142 = f32[512,3,128,256]{3,2,1,0:T(8,128)} parameter(0)
  %param_3.2953 = f32[]{:T(128)S(6)} parameter(3)
  %mul.4747.clone.1 = f32[512,3,128,256]{3,2,1,0:T(8,128)} broadcast(%param_3.2953), dimensions={}, metadata={op_name="jit(train_step)/mul" stack_frame_id=0}
  %param_7.1126 = pred[]{:T(512)S(6)} parameter(7)
  %select_n.2173.clone.1 = pred[512,3,128,256]{3,2,1,0:T(8,128)(4,1)} broadcast(%param_7.1126), dimensions={}, metadata={op_name="jit(train_step)/select_n" stack_frame_id=0}
  %param_6.1445 = f32[3,512,128,256]{3,2,0,1:T(8,128)} parameter(6)
  %bitcast.1378.clone.1 = f32[512,3,128,256]{3,2,1,0:T(8,128)} bitcast(%param_6.1445), metadata={op_name="jit(train_step)/transpose(jvp(TransformerLinenPure.apply))/TransformerLinenPure/decoder/dense_layers.wrapped_fn/transpose" stack_frame_id=0}
  %param_5.2008 = f32[]{:T(128)} parameter(5)
  %div.2591.clone.1 = f32[512,3,128,256]{3,2,1,0:T(8,128)} broadcast(%param_5.2008), dimensions={}, metadata={op_name="jit(train_step)/div" stack_frame_id=0}
  %div.2590.clone.1 = f32[512,3,128,256]{3,2,1,0:T(8,128)} divide(%bitcast.1378.clone.1, %div.2591.clone.1), metadata={op_name="jit(train_step)/div" stack_frame_id=0}
  %select_n.2172.clone.1 = f32[512,3,128,256]{3,2,1,0:T(8,128)} select(%select_n.2173.clone.1, %bitcast.1378.clone.1, %div.2590.clone.1), metadata={op_name="jit(train_step)/select_n" stack_frame_id=0}
  %constant.4876.clone.1 = f32[]{:T(128)} constant(0.1)
  %broadcast.4283.clone.1 = f32[512,3,128,256]{3,2,1,0:T(8,128)} broadcast(%constant.4876.clone.1), dimensions={}, metadata={op_name="broadcast.336"}
  %mul.4753.clone.1 = f32[512,3,128,256]{3,2,1,0:T(8,128)} multiply(%select_n.2172.clone.1, %broadcast.4283.clone.1), metadata={op_name="jit(train_step)/mul" stack_frame_id=0}
  %param_8.891 = f32[512,3,128,256]{3,2,1,0:T(8,128)} parameter(8)
  %constant.4880.clone.1 = f32[]{:T(128)} constant(0.9)
  %mul.4754.clone.1 = f32[512,3,128,256]{3,2,1,0:T(8,128)} broadcast(%constant.4880.clone.1), dimensions={}, metadata={op_name="jit(train_step)/mul" stack_frame_id=0}
  %mul.4752.clone.1 = f32[512,3,128,256]{3,2,1,0:T(8,128)} multiply(%param_8.891, %mul.4754.clone.1), metadata={op_name="jit(train_step)/mul" stack_frame_id=0}
  %add.3455.clone.1 = f32[512,3,128,256]{3,2,1,0:T(8,128)} add(%mul.4753.clone.1, %mul.4752.clone.1), metadata={op_name="jit(train_step)/add" stack_frame_id=0}
  %param_2.4300 = f32[]{:T(128)S(6)} parameter(2)
  %div.2587.clone.1 = f32[512,3,128,256]{3,2,1,0:T(8,128)} broadcast(%param_2.4300), dimensions={}, metadata={op_name="jit(train_step)/div" stack_frame_id=0}
  %integer_pow.401.clone.1 = f32[512,3,128,256]{3,2,1,0:T(8,128)} multiply(%select_n.2172.clone.1, %select_n.2172.clone.1), metadata={op_name="jit(train_step)/integer_pow" stack_frame_id=0}
  %constant.4879.clone.1 = f32[]{:T(128)} constant(0.05)
  %mul.4751.clone.1 = f32[512,3,128,256]{3,2,1,0:T(8,128)} broadcast(%constant.4879.clone.1), dimensions={}, metadata={op_name="jit(train_step)/mul" stack_frame_id=0}
  %mul.4749.clone.1 = f32[512,3,128,256]{3,2,1,0:T(8,128)} multiply(%integer_pow.401.clone.1, %mul.4751.clone.1), metadata={op_name="jit(train_step)/mul" stack_frame_id=0}
  %param_4.2205 = f32[512,3,128,256]{3,2,1,0:T(8,128)} parameter(4)
  %constant.4878.clone.1 = f32[]{:T(128)} constant(0.95)
  %mul.4750.clone.1 = f32[512,3,128,256]{3,2,1,0:T(8,128)} broadcast(%constant.4878.clone.1), dimensions={}, metadata={op_name="jit(train_step)/mul" stack_frame_id=0}
  %mul.4748.clone.1 = f32[512,3,128,256]{3,2,1,0:T(8,128)} multiply(%param_4.2205, %mul.4750.clone.1), metadata={op_name="jit(train_step)/mul" stack_frame_id=0}
  %add.3454.clone.1 = f32[512,3,128,256]{3,2,1,0:T(8,128)} add(%mul.4749.clone.1, %mul.4748.clone.1), metadata={op_name="jit(train_step)/add" stack_frame_id=0}
  %param_1.5027 = f32[]{:T(128)S(6)} parameter(1)
  %div.2586.clone.1 = f32[512,3,128,256]{3,2,1,0:T(8,128)} broadcast(%param_1.5027), dimensions={}, metadata={op_name="jit(train_step)/div" stack_frame_id=0}
  %div.2585.clone.1 = f32[512,3,128,256]{3,2,1,0:T(8,128)} divide(%add.3454.clone.1, %div.2586.clone.1), metadata={op_name="jit(train_step)/div" stack_frame_id=0}
  %sqrt.159.clone.1 = f32[512,3,128,256]{3,2,1,0:T(8,128)} sqrt(%div.2585.clone.1), metadata={op_name="jit(train_step)/sqrt" stack_frame_id=0}
  %constant.4877.clone.1 = f32[]{:T(128)} constant(1e-08)
  %add.3453.clone.1 = f32[512,3,128,256]{3,2,1,0:T(8,128)} broadcast(%constant.4877.clone.1), dimensions={}, metadata={op_name="jit(train_step)/add" stack_frame_id=0}
  %add.3452.clone.1 = f32[512,3,128,256]{3,2,1,0:T(8,128)} add(%sqrt.159.clone.1, %add.3453.clone.1), metadata={op_name="jit(train_step)/add" stack_frame_id=0}
  %multiply.1295.clone.1 = f32[512,3,128,256]{3,2,1,0:T(8,128)} multiply(%div.2587.clone.1, %add.3452.clone.1), metadata={op_name="multiply.288"}
  %div.2584.clone.1 = f32[512,3,128,256]{3,2,1,0:T(8,128)} divide(%add.3455.clone.1, %multiply.1295.clone.1), metadata={op_name="jit(train_step)/div" stack_frame_id=0}
  %mul.4746.clone.1 = f32[512,3,128,256]{3,2,1,0:T(8,128)} multiply(%param_0.4142, %broadcast.4283.clone.1), metadata={op_name="jit(train_step)/mul" stack_frame_id=0}
  %add.3451.clone.1 = f32[512,3,128,256]{3,2,1,0:T(8,128)} add(%div.2584.clone.1, %mul.4746.clone.1), metadata={op_name="jit(train_step)/add" stack_frame_id=0}
  %mul.4745.clone.1 = f32[512,3,128,256]{3,2,1,0:T(8,128)} multiply(%mul.4747.clone.1, %add.3451.clone.1), metadata={op_name="jit(train_step)/mul" stack_frame_id=0}
  %add.3450.clone.1 = f32[512,3,128,256]{3,2,1,0:T(8,128)} add(%param_0.4142, %mul.4745.clone.1), metadata={op_name="jit(train_step)/add" stack_frame_id=0}
  %square.589 = f32[512,3,128,256]{3,2,1,0:T(8,128)} multiply(%add.3450.clone.1, %add.3450.clone.1), metadata={op_name="jit(train_step)/square" stack_frame_id=0}
  %constant.5077 = f32[]{:T(128)} constant(0)
  %reduce.690 = f32[]{:T(128)} reduce(%square.589, %constant.5077), dimensions={0,1,2,3}, to_apply=%region_219.244, metadata={op_name="jit(train_step)/reduce_sum" stack_frame_id=0}
  %reduce.691.clone.1 = f32[]{:T(128)} reduce(%integer_pow.401.clone.1, %constant.5077), dimensions={0,1,2,3}, to_apply=%region_185.210, metadata={op_name="jit(train_step)/reduce_sum" stack_frame_id=0}
  ROOT %tuple.667 = (f32[]{:T(128)}, f32[512,3,128,256]{3,2,1,0:T(8,128)}, f32[512,3,128,256]{3,2,1,0:T(8,128)}, f32[512,3,128,256]{3,2,1,0:T(8,128)}, f32[]{:T(128)}) tuple(%reduce.690, %add.3450.clone.1, %add.3454.clone.1, %add.3455.clone.1, %reduce.691.clone.1)
}

%region_172.197 (reduce_sum.557: f32[], reduce_sum.381: f32[]) -> f32[] {
  %reduce_sum.557 = f32[]{:T(128)} parameter(0), metadata={op_name="jit(train_step)/reduce_sum"}
  %reduce_sum.381 = f32[]{:T(128)} parameter(1), metadata={op_name="jit(train_step)/reduce_sum"}
  ROOT %reduce_sum.386 = f32[]{:T(128)} add(%reduce_sum.557, %reduce_sum.381), metadata={op_name="jit(train_step)/reduce_sum" stack_frame_id=0}, backend_config={"flag_configs":[],"scoped_memory_configs":[],"used_scoped_memory_configs":[],"aliasing_operands":{"lists":[]}}
}

%fused_computation.783.clone.clone (param_0.4106: f32[4,128], param_1.4998: bf16[4,128,1536], param_2.4261: bf16[1536]) -> bf16[4,128,1536,1] {
  %param_2.4261 = bf16[1536]{0:T(1024)(128)(2,1)S(1)} parameter(2)
  %dot_general.851 = bf16[4,128,1536]{2,1,0:T(8,128)(2,1)} broadcast(%param_2.4261), dimensions={2}, metadata={op_name="jit(train_step)/jvp(TransformerLinenPure.apply)/TransformerLinenPure/decoder/moe_layers.wrapped_fn/while/body/closed_call/moe_layers/...k,k->...k/dot_general" stack_frame_id=0}
  %param_1.4998 = bf16[4,128,1536]{2,1,0:T(8,128)(2,1)S(1)} parameter(1)
  %convert_element_type.3187 = f32[4,128,1536]{2,1,0:T(8,128)} convert(%param_1.4998), metadata={op_name="jit(train_step)/jvp(TransformerLinenPure.apply)/TransformerLinenPure/decoder/moe_layers.wrapped_fn/while/body/closed_call/moe_layers/convert_element_type" stack_frame_id=0}
  %param_0.4106 = f32[4,128]{1,0:T(4,128)S(1)} parameter(0)
  %mul.4951 = f32[4,128,1536]{2,1,0:T(8,128)} broadcast(%param_0.4106), dimensions={0,1}, metadata={op_name="jit(train_step)/jvp(TransformerLinenPure.apply)/TransformerLinenPure/decoder/moe_layers.wrapped_fn/while/body/closed_call/moe_layers/mul" stack_frame_id=0}
  %mul.4950 = f32[4,128,1536]{2,1,0:T(8,128)} multiply(%convert_element_type.3187, %mul.4951), metadata={op_name="jit(train_step)/jvp(TransformerLinenPure.apply)/TransformerLinenPure/decoder/moe_layers.wrapped_fn/while/body/closed_call/moe_layers/mul" stack_frame_id=0}
  %convert_element_type.3186 = bf16[4,128,1536]{2,1,0:T(8,128)(2,1)} convert(%mul.4950), metadata={op_name="jit(train_step)/jvp(TransformerLinenPure.apply)/TransformerLinenPure/decoder/moe_layers.wrapped_fn/while/body/closed_call/moe_layers/convert_element_type" stack_frame_id=0}
  %dot_general.850 = bf16[4,128,1536]{2,1,0:T(8,128)(2,1)} multiply(%dot_general.851, %convert_element_type.3186), metadata={op_name="jit(train_step)/jvp(TransformerLinenPure.apply)/TransformerLinenPure/decoder/moe_layers.wrapped_fn/while/body/closed_call/moe_layers/...k,k->...k/dot_general" stack_frame_id=0}
  ROOT %bitcast.1466 = bf16[4,128,1536,1]{2,1,0,3:T(8,128)(2,1)} bitcast(%dot_general.850), metadata={op_name="jit(train_step)/jvp(TransformerLinenPure.apply)/TransformerLinenPure/decoder/moe_layers.wrapped_fn/while/body/closed_call/moe_layers/...k,k->...k/dot_general" stack_frame_id=0}
}

%bitcast_fusion.12 (bitcast_input.12: bf16[4,128,128,192]) -> bf16[4,128,128,192] {
  %bitcast_input.12 = bf16[4,128,128,192]{2,1,0,3:T(8,128)(2,1)S(1)} parameter(0)
  ROOT %bitcast.1488 = bf16[4,128,128,192]{2,1,0,3:T(8,128)(2,1)} bitcast(%bitcast_input.12)
}

%fused_computation.552 (param_0.4154: bf16[4,128,128,192], param_1.5038: f32[4,128], param_2.4311: bf16[4,128,1536], param_3.2964: bf16[1536]) -> (f32[], bf16[1536,128,192,1]) {
  %param_1.5038 = f32[4,128]{1,0:T(4,128)S(1)} parameter(1)
  %param_2.4311 = bf16[4,128,1536]{2,1,0:T(8,128)(2,1)S(1)} parameter(2)
  %param_3.2964 = bf16[1536]{0:T(1024)(128)(2,1)S(1)} parameter(3)
  %fusion.460.clone.1 = bf16[4,128,1536,1]{2,1,0,3:T(8,128)(2,1)} fusion(%param_1.5038, %param_2.4311, %param_3.2964), kind=kLoop, calls=%fused_computation.783.clone.clone, metadata={op_name="jit(train_step)/jvp(TransformerLinenPure.apply)/TransformerLinenPure/decoder/moe_layers.wrapped_fn/while/body/closed_call/moe_layers/...k,k->...k/dot_general" stack_frame_id=0}
  %param_0.4154 = bf16[4,128,128,192]{2,1,0,3:T(8,128)(2,1)S(1)} parameter(0)
  %fusion.751 = bf16[4,128,128,192]{2,1,0,3:T(8,128)(2,1)} fusion(%param_0.4154), kind=kLoop, calls=%bitcast_fusion.12
  %convolution.146.clone.1 = bf16[1536,128,192,1]{1,0,3,2:T(8,128)(2,1)} convolution(%fusion.460.clone.1, %fusion.751), window={size=192x4 pad=191_191x0_0 rhs_reversal=1x0}, dim_labels=1fb0_1io0->bf01, metadata={op_name="jit(train_step)/transpose(jvp(TransformerLinenPure.apply))/TransformerLinenPure/decoder/moe_layers.wrapped_fn/while/body/closed_call/checkpoint/moe_layers/dot_general" stack_frame_id=0}
  %bitcast.861 = bf16[1536,128,192]{1,0,2:T(8,128)(2,1)} bitcast(%convolution.146.clone.1), metadata={op_name="jit(train_step)/transpose(jvp(TransformerLinenPure.apply))/TransformerLinenPure/decoder/moe_layers.wrapped_fn/while/body/closed_call/checkpoint/moe_layers/dot_general" stack_frame_id=0}
  %broadcast_in_dim.1388 = f32[1536,128,192]{1,0,2:T(8,128)} convert(%bitcast.861), metadata={op_name="jit(train_step)/transpose(jvp(TransformerLinenPure.apply))/TransformerLinenPure/decoder/moe_layers.wrapped_fn/while/body/broadcast_in_dim" stack_frame_id=0}
  %bitcast.763 = f32[1536,1,128,192]{2,0,3,1:T(8,128)} bitcast(%broadcast_in_dim.1388), metadata={op_name="jit(train_step)/transpose(jvp(TransformerLinenPure.apply))/TransformerLinenPure/decoder/moe_layers.wrapped_fn/transpose" stack_frame_id=0}
  %square.592 = f32[1536,1,128,192]{2,0,3,1:T(8,128)} multiply(%bitcast.763, %bitcast.763), metadata={op_name="jit(train_step)/square" stack_frame_id=0}
  %constant.5089 = f32[]{:T(128)} constant(0)
  %reduce.692 = f32[]{:T(128)} reduce(%square.592, %constant.5089), dimensions={0,1,2,3}, to_apply=%region_172.197, metadata={op_name="jit(train_step)/reduce_sum" stack_frame_id=0}
  ROOT %tuple.766 = (f32[]{:T(128)}, bf16[1536,128,192,1]{1,0,3,2:T(8,128)(2,1)}) tuple(%reduce.692, %convolution.146.clone.1)
}

%region_239.264 (reduce_sum.1019: f32[], reduce_sum.687: f32[]) -> f32[] {
  %reduce_sum.1019 = f32[]{:T(128)} parameter(0), metadata={op_name="jit(train_step)/reduce_sum"}
  %reduce_sum.687 = f32[]{:T(128)} parameter(1), metadata={op_name="jit(train_step)/reduce_sum"}
  ROOT %reduce_sum.688 = f32[]{:T(128)} add(%reduce_sum.1019, %reduce_sum.687), metadata={op_name="jit(train_step)/reduce_sum" stack_frame_id=0}, backend_config={"flag_configs":[],"scoped_memory_configs":[],"used_scoped_memory_configs":[],"aliasing_operands":{"lists":[]}}
}

%region_205.230 (reduce_sum.781: f32[], reduce_sum.527: f32[]) -> f32[] {
  %reduce_sum.781 = f32[]{:T(128)} parameter(0), metadata={op_name="jit(train_step)/reduce_sum"}
  %reduce_sum.527 = f32[]{:T(128)} parameter(1), metadata={op_name="jit(train_step)/reduce_sum"}
  ROOT %reduce_sum.528 = f32[]{:T(128)} add(%reduce_sum.781, %reduce_sum.527), metadata={op_name="jit(train_step)/reduce_sum" stack_frame_id=0}, backend_config={"flag_configs":[],"scoped_memory_configs":[],"used_scoped_memory_configs":[],"aliasing_operands":{"lists":[]}}
}

%fused_computation.557 (param_0.4122: f32[], param_1.5007: f32[], param_2.4280: f32[], param_3.2933: f32[1536,1,128,192], param_4.2185: f32[1536,1,128,192], param_5.1988: f32[], param_6.1425: bf16[1536,128,192,1], param_7.1106: pred[], param_8.871: f32[1536,1,128,192]) -> (f32[], f32[1536,1,128,192], f32[1536,1,128,192], f32[1536,1,128,192], f32[]) {
