HloModule jit_train_step, is_scheduled=true, input_output_alias={ {0}: (0, {}, may-alias), {1}: (1, {}, may-alias), {2}: (2, {}, may-alias), {3}: (3, {}, may-alias), {4}: (4, {}, may-alias), {5}: (5, {}, may-alias), {6}: (6, {}, may-alias), {7}: (7, {}, may-alias), {8}: (8, {}, may-alias), {9}: (9, {}, may-alias), {10}: (10, {}, may-alias), {11}: (11, {}, may-alias), {12}: (12, {}, may-alias), {13}: (13, {}, may-alias), {14}: (14, {}, may-alias), {15}: (15, {}, may-alias), {16}: (16, {}, may-alias), {17}: (17, {}, may-alias), {18}: (18, {}, may-alias), {19}: (19, {}, may-alias), {20}: (20, {}, may-alias), {21}: (21, {}, may-alias), {22}: (22, {}, may-alias), {23}: (23, {}, may-alias), {24}: (24, {}, may-alias), {25}: (25, {}, may-alias), {26}: (26, {}, may-alias), {27}: (27, {}, may-alias), {28}: (28, {}, may-alias), {29}: (29, {}, may-alias), {30}: (30, {}, may-alias), {31}: (31, {}, may-alias), {32}: (32, {}, may-alias), {33}: (33, {}, may-alias), {34}: (34, {}, may-alias), {35}: (35, {}, may-alias), {36}: (36, {}, may-alias), {37}: (37, {}, may-alias), {38}: (38, {}, may-alias), {39}: (39, {}, may-alias), {40}: (40, {}, may-alias), {41}: (41, {}, may-alias), {42}: (42, {}, may-alias), {43}: (43, {}, may-alias), {44}: (44, {}, may-alias), {45}: (45, {}, may-alias), {46}: (46, {}, may-alias), {47}: (47, {}, may-alias), {48}: (48, {}, may-alias), {49}: (49, {}, may-alias), {50}: (50, {}, may-alias), {51}: (51, {}, may-alias), {52}: (52, {}, may-alias), {53}: (53, {}, may-alias), {54}: (54, {}, may-alias), {55}: (55, {}, may-alias), {56}: (56, {}, may-alias), {57}: (57, {}, may-alias), {58}: (58, {}, may-alias), {59}: (59, {}, may-alias), {60}: (60, {}, may-alias), {61}: (61, {}, may-alias), {62}: (62, {}, may-alias), {63}: (63, {}, may-alias), {64}: (64, {}, may-alias), {65}: (65, {}, may-alias) }, entry_computation_layout={(f32[2048]{0:T(1024)}, u32[]{:T(128)}, u32[4]{0:T(128)}, u32[]{:T(128)}, u32[4]{0:T(128)}, /*index=5*/u32[]{:T(128)}, u32[4]{0:T(128)}, u32[4]{0:T(128)}, u32[4,4]{1,0:T(4,128)}, u32[4]{0:T(128)}, /*index=10*/u32[4,4]{1,0:T(4,128)}, u32[4]{0:T(128)}, u32[4,4]{1,0:T(4,128)}, f32[512,4,6144]{2,1,0:T(4,128)}, f32[512,4,6144]{2,1,0:T(4,128)}, /*index=15*/f32[6144,4,512]{2,1,0:T(4,128)}, f32[2048,4]{0,1:T(4,128)}, f32[2048,4]{0,1:T(4,128)}, u32[4]{0:T(128)}, u32[4,4]{1,0:T(4,128)}, /*index=20*/u32[4]{0:T(128)}, u32[4,4]{1,0:T(4,128)}, u32[4]{0:T(128)}, u32[4,4]{1,0:T(4,128)}, f32[512,4,8,128]{3,2,1,0:T(8,128)}, /*index=25*/f32[128,4]{0,1:T(4,128)}, f32[16,4,128,512]{3,2,1,0:T(8,128)}, f32[512,4,16,128]{3,2,1,0:T(8,128)}, f32[128,4]{0,1:T(4,128)}, f32[512,4,8,128]{3,2,1,0:T(8,128)}, /*index=30*/u32[]{:T(128)}, u32[4]{0:T(128)}, u32[]{:T(128)}, u32[4]{0:T(128)}, u32[]{:T(128)}, /*index=35*/u32[4]{0:T(128)}, f32[151936,512]{1,0:T(8,128)}, s32[]{:T(128)}, f32[2048]{0:T(1024)}, f32[512,4,6144]{2,1,0:T(4,128)}, /*index=40*/f32[512,4,6144]{2,1,0:T(4,128)}, f32[6144,4,512]{2,1,0:T(4,128)}, f32[2048,4]{0,1:T(4,128)}, f32[2048,4]{0,1:T(4,128)}, f32[512,4,8,128]{3,2,1,0:T(8,128)}, /*index=45*/f32[128,4]{0,1:T(4,128)}, f32[16,4,128,512]{3,2,1,0:T(8,128)}, f32[512,4,16,128]{3,2,1,0:T(8,128)}, f32[128,4]{0,1:T(4,128)}, f32[512,4,8,128]{3,2,1,0:T(8,128)}, /*index=50*/f32[151936,512]{1,0:T(8,128)}, f32[2048]{0:T(1024)}, f32[512,4,6144]{2,1,0:T(4,128)}, f32[512,4,6144]{2,1,0:T(4,128)}, f32[6144,4,512]{2,1,0:T(4,128)}, /*index=55*/f32[2048,4]{0,1:T(4,128)}, f32[2048,4]{0,1:T(4,128)}, f32[512,4,8,128]{3,2,1,0:T(8,128)}, f32[128,4]{0,1:T(4,128)}, f32[16,4,128,512]{3,2,1,0:T(8,128)}, /*index=60*/f32[512,4,16,128]{3,2,1,0:T(8,128)}, f32[128,4]{0,1:T(4,128)}, f32[512,4,8,128]{3,2,1,0:T(8,128)}, f32[151936,512]{1,0:T(8,128)}, s32[]{:T(128)}, /*index=65*/u32[]{:T(128)}, s32[1,128]{1,0:T(1,128)}, s32[1,128]{1,0:T(1,128)}, s32[1,128]{1,0:T(1,128)}, s32[1,128]{1,0:T(1,128)}, /*index=70*/s32[1,128]{1,0:T(1,128)})->(f32[2048]{0:T(1024)}, u32[]{:T(128)}, u32[4]{0:T(128)}, u32[]{:T(128)}, u32[4]{0:T(128)}, /*index=5*/u32[]{:T(128)}, u32[4]{0:T(128)}, u32[4]{0:T(128)}, u32[4,4]{1,0:T(4,128)}, u32[4]{0:T(128)}, /*index=10*/u32[4,4]{1,0:T(4,128)}, u32[4]{0:T(128)}, u32[4,4]{1,0:T(4,128)}, f32[512,4,6144]{2,1,0:T(4,128)}, f32[512,4,6144]{2,1,0:T(4,128)}, /*index=15*/f32[6144,4,512]{2,1,0:T(4,128)}, f32[2048,4]{0,1:T(4,128)}, f32[2048,4]{0,1:T(4,128)}, u32[4]{0:T(128)}, u32[4,4]{1,0:T(4,128)}, /*index=20*/u32[4]{0:T(128)}, u32[4,4]{1,0:T(4,128)}, u32[4]{0:T(128)}, u32[4,4]{1,0:T(4,128)}, f32[512,4,8,128]{3,2,1,0:T(8,128)}, /*index=25*/f32[128,4]{0,1:T(4,128)}, f32[16,4,128,512]{3,2,1,0:T(8,128)}, f32[512,4,16,128]{3,2,1,0:T(8,128)}, f32[128,4]{0,1:T(4,128)}, f32[512,4,8,128]{3,2,1,0:T(8,128)}, /*index=30*/u32[]{:T(128)}, u32[4]{0:T(128)}, u32[]{:T(128)}, u32[4]{0:T(128)}, u32[]{:T(128)}, /*index=35*/u32[4]{0:T(128)}, f32[151936,512]{1,0:T(8,128)}, s32[]{:T(128)}, f32[2048]{0:T(1024)}, f32[512,4,6144]{2,1,0:T(4,128)}, /*index=40*/f32[512,4,6144]{2,1,0:T(4,128)}, f32[6144,4,512]{2,1,0:T(4,128)}, f32[2048,4]{0,1:T(4,128)}, f32[2048,4]{0,1:T(4,128)}, f32[512,4,8,128]{3,2,1,0:T(8,128)}, /*index=45*/f32[128,4]{0,1:T(4,128)}, f32[16,4,128,512]{3,2,1,0:T(8,128)}, f32[512,4,16,128]{3,2,1,0:T(8,128)}, f32[128,4]{0,1:T(4,128)}, f32[512,4,8,128]{3,2,1,0:T(8,128)}, /*index=50*/f32[151936,512]{1,0:T(8,128)}, f32[2048]{0:T(1024)}, f32[512,4,6144]{2,1,0:T(4,128)}, f32[512,4,6144]{2,1,0:T(4,128)}, f32[6144,4,512]{2,1,0:T(4,128)}, /*index=55*/f32[2048,4]{0,1:T(4,128)}, f32[2048,4]{0,1:T(4,128)}, f32[512,4,8,128]{3,2,1,0:T(8,128)}, f32[128,4]{0,1:T(4,128)}, f32[16,4,128,512]{3,2,1,0:T(8,128)}, /*index=60*/f32[512,4,16,128]{3,2,1,0:T(8,128)}, f32[128,4]{0,1:T(4,128)}, f32[512,4,8,128]{3,2,1,0:T(8,128)}, f32[151936,512]{1,0:T(8,128)}, s32[]{:T(128)}, /*index=65*/u32[]{:T(128)}, f32[]{:T(128)}, f32[]{:T(128)}, f32[]{:T(128)}, f32[]{:T(128)}, /*index=70*/f32[]{:T(128)}, f32[]{:T(128)}, f32[]{:T(128)}, f32[]{:T(128)}, f32[]{:T(128)}, /*index=75*/s32[]{:T(128)}, f32[]{:T(128)})}, allow_spmd_sharding_propagation_to_parameters={false,false,false,false,false,false,false,false,false,false,false,false,false,false,false,false,false,false,false,false,false,false,false,false,false,false,false,false,false,false,false,false,false,false,false,false,false,false,false,false,false,false,false,false,false,false,false,false,false,false,false,false,false,false,false,false,false,false,false,false,false,false,false,false,false,false,false,false,false,false,false}, allow_spmd_sharding_propagation_to_output={false,false,false,false,false,false,false,false,false,false,false,false,false,false,false,false,false,false,false,false,false,false,false,false,false,false,false,false,false,false,false,false,false,false,false,false,false,false,false,false,false,false,false,false,false,false,false,false,false,false,false,false,false,false,false,false,false,false,false,false,false,false,false,false,false,false,true,true,true,true,true,true,true,true,true,true,true}, num_partitions=4, frontend_attributes={arg_layout_modes="default;default;default;default;default;default;default;default;default;default;default;default;default;default;default;default;default;default;default;default;default;default;default;default;default;default;default;default;default;default;default;default;default;default;default;default;default;default;default;default;default;default;default;default;default;default;default;default;default;default;default;default;default;default;default;default;default;default;default;default;default;default;default;default;default;default;default;default;default;default;default",arg_memory_spaces="0;0;0;0;0;0;0;0;0;0;0;0;0;0;0;0;0;0;0;0;0;0;0;0;0;0;0;0;0;0;0;0;0;0;0;0;0;0;0;0;0;0;0;0;0;0;0;0;0;0;0;0;0;0;0;0;0;0;0;0;0;0;0;0;0;0;0;0;0;0;0",out_layout_modes="default;default;default;default;default;default;default;default;default;default;default;default;default;default;default;default;default;default;default;default;default;default;default;default;default;default;default;default;default;default;default;default;default;default;default;default;default;default;default;default;default;default;default;default;default;default;default;default;default;default;default;default;default;default;default;default;default;default;default;default;default;default;default;default;default;default;default;default;default;default;default;default;default;default;default;default;default",out_memory_spaces="0;0;0;0;0;0;0;0;0;0;0;0;0;0;0;0;0;0;0;0;0;0;0;0;0;0;0;0;0;0;0;0;0;0;0;0;0;0;0;0;0;0;0;0;0;0;0;0;0;0;0;0;0;0;0;0;0;0;0;0;0;0;0;0;0;0;0;0;0;0;0;0;0;0;0;0;0"}

FileNames

FunctionNames

FileLocations

StackFrames


%fused_computation.478 (param_0.1331: s32[1,128]) -> s32[1,1,128] {
  %param_0.1331 = s32[1,128]{1,0:T(1,128)S(1)} parameter(0)
  %constant.427.clone.9 = s32[]{:T(128)} constant(0)
  %broadcast.876 = s32[1,128]{1,0:T(1,128)} broadcast(%constant.427.clone.9), dimensions={}, metadata={op_name="broadcast.99"}
  %lt.32 = pred[1,128]{1,0:T(4,128)(4,1)} compare(%param_0.1331, %broadcast.876), direction=LT, metadata={op_name="jit(train_step)/jvp()/lt" stack_frame_id=0}
  %constant.437.clone.1 = s32[]{:T(128)} constant(151936)
  %add.912 = s32[1,128]{1,0:T(1,128)} broadcast(%constant.437.clone.1), dimensions={}, metadata={op_name="jit(train_step)/jvp()/add" stack_frame_id=0}
  %add.901 = s32[1,128]{1,0:T(1,128)} add(%param_0.1331, %add.912), metadata={op_name="jit(train_step)/jvp()/add" stack_frame_id=0}
  %select_n.180 = s32[1,128]{1,0:T(1,128)} select(%lt.32, %add.901, %param_0.1331), metadata={op_name="jit(train_step)/jvp()/select_n" stack_frame_id=0}
  ROOT %bitcast.616 = s32[1,1,128]{2,1,0:T(1,128)S(1)} bitcast(%select_n.180)
}

%fused_computation.448 (param_0.1264: s32[512]) -> s32[1024] {
  %constant.1033 = s32[] constant(0), metadata={op_name="jit(train_step)/jvp()/gather" stack_frame_id=0}
  %broadcast.845 = s32[1024]{0:T(1024)} broadcast(%constant.1033), dimensions={}, metadata={op_name="jit(train_step)/jvp()/gather" stack_frame_id=0}
  %param_0.1264 = s32[512]{0:T(512)S(1)} parameter(0)
  %constant.1034 = s32[] constant(2147483647), metadata={op_name="jit(train_step)/jvp()/gather" stack_frame_id=0}
  %pad.57 = s32[1024]{0:T(1024)} pad(%param_0.1264, %constant.1034), padding=0_512, metadata={op_name="jit(train_step)/jvp()/gather" stack_frame_id=0}
  %constant.1032 = s32[] constant(151935), metadata={op_name="jit(train_step)/jvp()/gather" stack_frame_id=0}
  %broadcast.844 = s32[1024]{0:T(1024)} broadcast(%constant.1032), dimensions={}, metadata={op_name="jit(train_step)/jvp()/gather" stack_frame_id=0}
  ROOT %clamp.3 = s32[1024]{0:T(1024)S(1)} clamp(%broadcast.845, %pad.57, %broadcast.844), metadata={op_name="jit(train_step)/jvp()/gather" stack_frame_id=0}
}

%fused_computation (param_0.2: bf16[151936,512], param_1.7: s32[1024]) -> bf16[512,512] {
  %param_0.2 = bf16[151936,512]{1,0:T(8,128)(2,1)} parameter(0)
  %param_1.7 = s32[1024]{0:T(1024)S(1)} parameter(1)
  %custom-call.1 = s32[1024]{0:T(1024)} custom-call(%param_1.7), custom_call_target="AssumeGatherIndicesInBound", operand_layout_constraints={s32[1024]{0:T(1024)}}, metadata={op_name="jit(train_step)/jvp()/gather" stack_frame_id=0}
  %slice.34 = s32[512]{0:T(512)} slice(%custom-call.1), slice={[0:512]}, metadata={op_name="jit(train_step)/jvp()/gather" stack_frame_id=0}
  %reshape.867 = s32[4,128]{1,0:T(4,128)} reshape(%slice.34), metadata={op_name="jit(train_step)/jvp()/gather" stack_frame_id=0}
  %transpose.265 = s32[4,128]{1,0:T(4,128)} transpose(%reshape.867), dimensions={0,1}, metadata={op_name="jit(train_step)/jvp()/gather" stack_frame_id=0}
  %gather.4 = bf16[4,128,512]{2,1,0:T(8,128)(2,1)} gather(%param_0.2, %transpose.265), offset_dims={2}, collapsed_slice_dims={0}, start_index_map={0}, index_vector_dim=2, slice_sizes={1,512}, metadata={op_name="jit(train_step)/jvp()/gather" stack_frame_id=0}
  %transpose.264 = bf16[4,128,512]{2,1,0:T(8,128)(2,1)} transpose(%gather.4), dimensions={0,1,2}, metadata={op_name="jit(train_step)/jvp()/gather" stack_frame_id=0}
  ROOT %reshape.866 = bf16[512,512]{1,0:T(8,128)(2,1)S(1)} reshape(%transpose.264), metadata={op_name="jit(train_step)/jvp()/gather" stack_frame_id=0}
}

%fused_computation.492 (param_0.1510: f32[2048,4]) -> bf16[4,2048] {
  %param_0.1510 = f32[2048,4]{0,1:T(4,128)S(1)} parameter(0)
  %bitcast.755 = f32[4,2048]{1,0:T(4,128)} bitcast(%param_0.1510), metadata={op_name="jit(train_step)/jvp()/transpose" stack_frame_id=0}
  ROOT %convert.109 = bf16[4,2048]{1,0:T(4,128)(2,1)S(1)} convert(%bitcast.755)
}

%fused_computation.494 (param_0.1512: f32[128,4]) -> bf16[4,128] {
  %param_0.1512 = f32[128,4]{0,1:T(4,128)S(1)} parameter(0)
  %bitcast.757 = f32[4,128]{1,0:T(4,128)} bitcast(%param_0.1512), metadata={op_name="jit(train_step)/jvp()/transpose" stack_frame_id=0}
  ROOT %convert.113 = bf16[4,128]{1,0:T(4,128)(2,1)S(1)} convert(%bitcast.757)
}

%fused_computation.486 (param_0.1347: s32[1,128]) -> (f32[1,128,1,1], f32[128]) {
  %param_0.1347 = s32[1,128]{1,0:T(1,128)S(1)} parameter(0)
  %convert_element_type.1299 = f32[1,128]{1,0:T(1,128)} convert(%param_0.1347), metadata={op_name="jit(train_step)/convert_element_type" stack_frame_id=0}
  %bitcast.626 = f32[1,128,1,1]{1,3,2,0:T(1,128)} bitcast(%convert_element_type.1299), metadata={op_name="jit(train_step)/transpose(jvp())/while/body/closed_call/checkpoint/rematted_computation/convert_element_type" stack_frame_id=0}
  %bitcast.627.clone.1 = f32[128]{0:T(128)S(1)} bitcast(%convert_element_type.1299), metadata={op_name="jit(train_step)/convert_element_type" stack_frame_id=0}
  ROOT %tuple.170 = (f32[1,128,1,1]{1,3,2,0:T(1,128)}, f32[128]{0:T(128)S(1)}) tuple(%bitcast.626, %bitcast.627.clone.1)
}

%fused_computation.485 () -> f32[64] {
  %constant.442.clone.1 = f32[]{:T(128)} constant(1e+06)
  %broadcast.871 = f32[64]{0:T(128)} broadcast(%constant.442.clone.1), dimensions={}, metadata={op_name="broadcast.360"}
  %iota.56 = s32[64]{0:T(128)} iota(), iota_dimension=0, metadata={op_name="jit(train_step)/iota" stack_frame_id=0}
  %constant.443.clone.1 = s32[]{:T(128)} constant(2)
  %broadcast.870 = s32[64]{0:T(128)} broadcast(%constant.443.clone.1), dimensions={}, metadata={op_name="broadcast.361"}
  %mul.2433 = s32[64]{0:T(128)} multiply(%iota.56, %broadcast.870), metadata={op_name="jit(train_step)/mul" stack_frame_id=0}
  %convert_element_type.1298 = f32[64]{0:T(128)} convert(%mul.2433), metadata={op_name="jit(train_step)/convert_element_type" stack_frame_id=0}
  %constant.444.clone.1 = f32[]{:T(128)} constant(0.0078125)
  %broadcast.869 = f32[64]{0:T(128)} broadcast(%constant.444.clone.1), dimensions={}, metadata={op_name="broadcast.362"}
  %div.778 = f32[64]{0:T(128)} multiply(%convert_element_type.1298, %broadcast.869), metadata={op_name="jit(train_step)/div" stack_frame_id=0}
  ROOT %pow.36 = f32[64]{0:T(128)S(1)} power(%broadcast.871, %div.778), metadata={op_name="jit(train_step)/pow" stack_frame_id=0}
}

%fused_computation.421 (param_0.1233: f32[128], param_1.1301: f32[64]) -> (bf16[1,128,1,64], bf16[1,128,1,64]) {
  %param_0.1233 = f32[128]{0:T(128)S(1)} parameter(0)
  %div.732 = f32[1,128,1,64]{3,1,2,0:T(8,128)} broadcast(%param_0.1233), dimensions={1}, metadata={op_name="jit(train_step)/div" stack_frame_id=0}
  %param_1.1301 = f32[64]{0:T(128)S(1)} parameter(1)
  %div.738 = f32[1,128,1,64]{3,1,2,0:T(8,128)} broadcast(%param_1.1301), dimensions={3}, metadata={op_name="jit(train_step)/div" stack_frame_id=0}
  %div.729 = f32[1,128,1,64]{3,1,2,0:T(8,128)} divide(%div.732, %div.738), metadata={op_name="jit(train_step)/div" stack_frame_id=0}
  %sin.38 = f32[1,128,1,64]{3,1,2,0:T(8,128)} sine(%div.729), metadata={op_name="jit(train_step)/sin" stack_frame_id=0}
  %convert_element_type.1284 = bf16[1,128,1,64]{3,1,2,0:T(8,128)(2,1)S(1)} convert(%sin.38), metadata={op_name="jit(train_step)/convert_element_type" stack_frame_id=0}
  %cos.41.clone.1 = f32[1,128,1,64]{3,1,2,0:T(8,128)} cosine(%div.729), metadata={op_name="jit(train_step)/cos" stack_frame_id=0}
  %convert_element_type.1283.clone.1 = bf16[1,128,1,64]{3,1,2,0:T(8,128)(2,1)S(1)} convert(%cos.41.clone.1), metadata={op_name="jit(train_step)/convert_element_type" stack_frame_id=0}
  ROOT %tuple.167 = (bf16[1,128,1,64]{3,1,2,0:T(8,128)(2,1)S(1)}, bf16[1,128,1,64]{3,1,2,0:T(8,128)(2,1)S(1)}) tuple(%convert_element_type.1284, %convert_element_type.1283.clone.1)
}

%fused_computation.424 (param_0.1204: bf16[1,128,1,64]) -> bf16[1,128,1,128] {
  %param_0.1204 = bf16[1,128,1,64]{3,1,2,0:T(8,128)(2,1)S(1)} parameter(0)
  %constant.449.clone.2 = bf16[]{:T(256)} constant(-inf)
  %pad.54 = bf16[1,128,1,128]{3,1,2,0:T(8,128)(2,1)} pad(%param_0.1204, %constant.449.clone.2), padding=0_0x0_0x0_0x0_64, metadata={op_name="jit(train_step)/concatenate" stack_frame_id=0}
  %convert.136 = f32[1,128,1,128]{3,1,2,0:T(8,128)} convert(%pad.54)
  %pad.53 = bf16[1,128,1,128]{3,1,2,0:T(8,128)(2,1)} pad(%param_0.1204, %constant.449.clone.2), padding=0_0x0_0x0_0x64_0, metadata={op_name="jit(train_step)/concatenate" stack_frame_id=0}
  %convert.137 = f32[1,128,1,128]{3,1,2,0:T(8,128)} convert(%pad.53)
  %maximum.46 = f32[1,128,1,128]{3,1,2,0:T(8,128)} maximum(%convert.136, %convert.137), metadata={op_name="jit(train_step)/concatenate" stack_frame_id=0}, backend_config={"flag_configs":[],"scoped_memory_configs":[],"used_scoped_memory_configs":[],"float_type_correction_info":{"original_type":"BF16","original_shape":{"element_type":"BF16","dimensions":["1","128","1","128"],"tuple_shapes":[],"layout":{"minor_to_major":["3","1","2","0"],"tiles":[{"dimensions":["8","128"]},{"dimensions":["2","1"]}],"element_size_in_bits":"0","memory_space":"0","dim_level_types":[],"index_primitive_type":"PRIMITIVE_TYPE_INVALID","pointer_primitive_type":"PRIMITIVE_TYPE_INVALID","dim_unique":[],"dim_ordered":[],"dynamic_shape_metadata_prefix_bytes":"0","tail_padding_alignment_in_elements":"1","split_configs":[]},"is_dynamic_dimension":[false,false,false,false]}}}
  ROOT %convert.138 = bf16[1,128,1,128]{3,1,2,0:T(8,128)(2,1)S(1)} convert(%maximum.46)
}

%fused_computation.425 (param_0.1206: bf16[1,128,1,64]) -> bf16[1,128,1,128] {
  %param_0.1206 = bf16[1,128,1,64]{3,1,2,0:T(8,128)(2,1)S(1)} parameter(0)
  %constant.449.clone.1 = bf16[]{:T(256)} constant(-inf)
  %pad.56 = bf16[1,128,1,128]{3,1,2,0:T(8,128)(2,1)} pad(%param_0.1206, %constant.449.clone.1), padding=0_0x0_0x0_0x0_64, metadata={op_name="jit(train_step)/concatenate" stack_frame_id=0}
  %convert.139 = f32[1,128,1,128]{3,1,2,0:T(8,128)} convert(%pad.56)
  %pad.55 = bf16[1,128,1,128]{3,1,2,0:T(8,128)(2,1)} pad(%param_0.1206, %constant.449.clone.1), padding=0_0x0_0x0_0x64_0, metadata={op_name="jit(train_step)/concatenate" stack_frame_id=0}
  %convert.140 = f32[1,128,1,128]{3,1,2,0:T(8,128)} convert(%pad.55)
  %maximum.47 = f32[1,128,1,128]{3,1,2,0:T(8,128)} maximum(%convert.139, %convert.140), metadata={op_name="jit(train_step)/concatenate" stack_frame_id=0}, backend_config={"flag_configs":[],"scoped_memory_configs":[],"used_scoped_memory_configs":[],"float_type_correction_info":{"original_type":"BF16","original_shape":{"element_type":"BF16","dimensions":["1","128","1","128"],"tuple_shapes":[],"layout":{"minor_to_major":["3","1","2","0"],"tiles":[{"dimensions":["8","128"]},{"dimensions":["2","1"]}],"element_size_in_bits":"0","memory_space":"0","dim_level_types":[],"index_primitive_type":"PRIMITIVE_TYPE_INVALID","pointer_primitive_type":"PRIMITIVE_TYPE_INVALID","dim_unique":[],"dim_ordered":[],"dynamic_shape_metadata_prefix_bytes":"0","tail_padding_alignment_in_elements":"1","split_configs":[]},"is_dynamic_dimension":[false,false,false,false]}}}
  ROOT %convert.141 = bf16[1,128,1,128]{3,1,2,0:T(8,128)(2,1)S(1)} convert(%maximum.47)
}

%fused_computation.493 (param_0.1511: f32[128,4]) -> bf16[4,128] {
  %param_0.1511 = f32[128,4]{0,1:T(4,128)S(1)} parameter(0)
  %bitcast.756 = f32[4,128]{1,0:T(4,128)} bitcast(%param_0.1511), metadata={op_name="jit(train_step)/jvp()/transpose" stack_frame_id=0}
  ROOT %convert.111 = bf16[4,128]{1,0:T(4,128)(2,1)S(1)} convert(%bitcast.756)
}

%fused_computation.387 (param_0.1095: f32[512,4,8,128]) -> bf16[4,512,8,128] {
  %param_0.1095 = f32[512,4,8,128]{3,2,1,0:T(8,128)S(1)} parameter(0)
  %copy.213 = bf16[512,4,8,128]{3,0,2,1:T(8,128)(2,1)} copy(%param_0.1095), sharding={devices=[4,1,1,1]<=[4]}, metadata={op_name="state[\'model\'][\'decoder\'][\'layers\'][\'self_attention\'][\'value\'][\'kernel\'].value"}
  ROOT %bitcast.568 = bf16[4,512,8,128]{3,1,2,0:T(8,128)(2,1)} bitcast(%copy.213), metadata={op_name="jit(train_step)/jvp()/transpose" stack_frame_id=0}
}

%fused_computation.370 (param_0.1063: f32[16,4,128,512]) -> bf16[4,16,128,512] {
  %param_0.1063 = f32[16,4,128,512]{3,2,1,0:T(8,128)S(1)} parameter(0)
  %copy.212 = bf16[16,4,128,512]{3,2,0,1:T(8,128)(2,1)} copy(%param_0.1063), sharding={devices=[1,1,1,4]<=[4]}, metadata={op_name="state[\'model\'][\'decoder\'][\'layers\'][\'self_attention\'][\'out\'][\'kernel\'].value"}
  ROOT %bitcast.559 = bf16[4,16,128,512]{3,2,1,0:T(8,128)(2,1)} bitcast(%copy.212), metadata={op_name="jit(train_step)/jvp()/transpose" stack_frame_id=0}
}

%fused_computation.491 (param_0.1509: f32[2048,4]) -> bf16[4,2048] {
  %param_0.1509 = f32[2048,4]{0,1:T(4,128)S(1)} parameter(0)
  %bitcast.754 = f32[4,2048]{1,0:T(4,128)} bitcast(%param_0.1509), metadata={op_name="jit(train_step)/jvp()/transpose" stack_frame_id=0}
  ROOT %convert.107 = bf16[4,2048]{1,0:T(4,128)(2,1)S(1)} convert(%bitcast.754)
}

%fused_computation.347 (param_0.1014: f32[512,4,6144]) -> bf16[4,512,6144] {
  %param_0.1014 = f32[512,4,6144]{2,1,0:T(4,128)} parameter(0)
  %copy.211 = bf16[512,4,6144]{2,0,1:T(8,128)(2,1)} copy(%param_0.1014), sharding={devices=[4,1,1]<=[4]}, metadata={op_name="state[\'model\'][\'decoder\'][\'layers\'][\'mlp\'][\'wi_0\'][\'kernel\'].value"}
  ROOT %bitcast.547 = bf16[4,512,6144]{2,1,0:T(8,128)(2,1)} bitcast(%copy.211), metadata={op_name="jit(train_step)/jvp()/transpose" stack_frame_id=0}
}

%fused_computation.346 (param_0.1012: f32[512,4,6144]) -> bf16[4,512,6144] {
  %param_0.1012 = f32[512,4,6144]{2,1,0:T(4,128)} parameter(0)
  %copy.210 = bf16[512,4,6144]{2,0,1:T(8,128)(2,1)} copy(%param_0.1012), sharding={devices=[4,1,1]<=[4]}, metadata={op_name="state[\'model\'][\'decoder\'][\'layers\'][\'mlp\'][\'wi_1\'][\'kernel\'].value"}
  ROOT %bitcast.546 = bf16[4,512,6144]{2,1,0:T(8,128)(2,1)} bitcast(%copy.210), metadata={op_name="jit(train_step)/jvp()/transpose" stack_frame_id=0}
}

%fused_computation.345 (param_0.1010: f32[6144,4,512]) -> bf16[4,6144,512] {
  %param_0.1010 = f32[6144,4,512]{2,1,0:T(4,128)S(1)} parameter(0)
  %copy.209 = bf16[6144,4,512]{2,0,1:T(8,128)(2,1)} copy(%param_0.1010), sharding={devices=[1,1,4]<=[4]}, metadata={op_name="state[\'model\'][\'decoder\'][\'layers\'][\'mlp\'][\'wo\'][\'kernel\'].value"}
  ROOT %bitcast.545 = bf16[4,6144,512]{2,1,0:T(8,128)(2,1)} bitcast(%copy.209), metadata={op_name="jit(train_step)/jvp()/transpose" stack_frame_id=0}
}

%fused_computation.60.clone.1 (param_0.1801: bf16[4,1,128,2048], param_1.1883: s32[], param_2.1441: bf16[1,128,2048]) -> bf16[4,1,128,2048] {
  %param_0.1801 = bf16[4,1,128,2048]{3,2,1,0:T(8,128)(2,1)} parameter(0)
  %param_2.1441 = bf16[1,128,2048]{2,1,0:T(8,128)(2,1)S(1)} parameter(2)
  %bitcast.1011 = bf16[1,1,128,2048]{3,2,1,0:T(8,128)(2,1)} bitcast(%param_2.1441), metadata={op_name="jit(train_step)/jvp()/while/body/jit(dynamic_update_index_in_dim)/broadcast_in_dim" stack_frame_id=0}
  %param_1.1883 = s32[]{:T(128)S(6)} parameter(1)
  %constant.401.clone.35 = s32[]{:T(128)} constant(0)
  ROOT %dynamic-update-slice.32 = bf16[4,1,128,2048]{3,2,1,0:T(8,128)(2,1)} dynamic-update-slice(%param_0.1801, %bitcast.1011, %param_1.1883, %constant.401.clone.35, %constant.401.clone.35, /*index=5*/%constant.401.clone.35), metadata={op_name="jit(train_step)/jvp()/while/body/jit(dynamic_update_index_in_dim)/dynamic_update_slice" stack_frame_id=0}, backend_config={"flag_configs":[],"scoped_memory_configs":[],"indices_config":{"index_known_bits":[{"zeroes":"4294967292","ones":"0","bitwidth":"32"},{"zeroes":"4294967295","ones":"0","bitwidth":"32"},{"zeroes":"4294967295","ones":"0","bitwidth":"32"},{"zeroes":"4294967295","ones":"0","bitwidth":"32"}],"is_index_aligned":[]},"used_scoped_memory_configs":[]}
}

%fused_computation.22.clone.1 (param_0.1826: bf16[4,16,128,512], param_1.1899: s32[]) -> bf16[1,16,128,512] {
  %param_0.1826 = bf16[4,16,128,512]{3,2,1,0:T(8,128)(2,1)} parameter(0)
  %param_1.1899 = s32[]{:T(128)S(6)} parameter(1)
  %constant.401.clone.41 = s32[]{:T(128)} constant(0)
  ROOT %dynamic-slice.210 = bf16[1,16,128,512]{3,2,1,0:T(8,128)(2,1)S(1)} dynamic-slice(%param_0.1826, %param_1.1899, %constant.401.clone.41, %constant.401.clone.41, %constant.401.clone.41), dynamic_slice_sizes={1,16,128,512}, metadata={op_name="jit(train_step)/jvp()/while/body/jit(dynamic_index_in_dim)/dynamic_slice" stack_frame_id=0}, backend_config={"flag_configs":[],"scoped_memory_configs":[],"indices_config":{"index_known_bits":[{"zeroes":"4294967292","ones":"0","bitwidth":"32"},{"zeroes":"4294967295","ones":"0","bitwidth":"32"},{"zeroes":"4294967295","ones":"0","bitwidth":"32"},{"zeroes":"4294967295","ones":"0","bitwidth":"32"}],"is_index_aligned":[]},"used_scoped_memory_configs":[]}
}

%fused_computation.23.clone.1 (param_0.1818: bf16[4,512,16,128], param_1.1894: s32[]) -> bf16[1,512,16,128] {
  %param_0.1818 = bf16[4,512,16,128]{1,3,2,0:T(8,128)(2,1)S(1)} parameter(0)
  %param_1.1894 = s32[]{:T(128)S(6)} parameter(1)
  %constant.401.clone.40 = s32[]{:T(128)} constant(0)
  ROOT %dynamic-slice.209 = bf16[1,512,16,128]{1,3,2,0:T(8,128)(2,1)S(1)} dynamic-slice(%param_0.1818, %param_1.1894, %constant.401.clone.40, %constant.401.clone.40, %constant.401.clone.40), dynamic_slice_sizes={1,512,16,128}, metadata={op_name="jit(train_step)/jvp()/while/body/jit(dynamic_index_in_dim)/dynamic_slice" stack_frame_id=0}, backend_config={"flag_configs":[],"scoped_memory_configs":[],"indices_config":{"index_known_bits":[{"zeroes":"4294967292","ones":"0","bitwidth":"32"},{"zeroes":"4294967295","ones":"0","bitwidth":"32"},{"zeroes":"4294967295","ones":"0","bitwidth":"32"},{"zeroes":"4294967295","ones":"0","bitwidth":"32"}],"is_index_aligned":[]},"used_scoped_memory_configs":[]}
}

%region_1.2 (reduce_sum.200: f32[], reduce_sum.201: f32[]) -> f32[] {
  %reduce_sum.200 = f32[]{:T(128)} parameter(0), metadata={op_name="jit(train_step)/jvp()/while/body/closed_call/reduce_sum"}
  %reduce_sum.201 = f32[]{:T(128)} parameter(1), metadata={op_name="jit(train_step)/jvp()/while/body/closed_call/reduce_sum"}
  ROOT %reduce_sum.202 = f32[]{:T(128)} add(%reduce_sum.200, %reduce_sum.201), metadata={op_name="reduce_sum" stack_frame_id=0}, backend_config={"flag_configs":[],"scoped_memory_configs":[],"used_scoped_memory_configs":[],"aliasing_operands":{"lists":[]}}
}

%fused_computation.38.clone.1 (param_0.1803: bf16[1,128,2048]) -> f32[128] {
  %param_0.1803 = bf16[1,128,2048]{2,1,0:T(8,128)(2,1)S(1)} parameter(0)
  %convert_element_type.1490 = f32[1,128,2048]{2,1,0:T(8,128)} convert(%param_0.1803), metadata={op_name="jit(train_step)/jvp()/while/body/closed_call/convert_element_type" stack_frame_id=0}
  %square.281 = f32[1,128,2048]{2,1,0:T(8,128)} multiply(%convert_element_type.1490, %convert_element_type.1490), metadata={op_name="jit(train_step)/jvp()/while/body/closed_call/square" stack_frame_id=0}
  %constant.398.clone.13 = f32[]{:T(128)} constant(0)
  ROOT %reduce.205 = f32[128]{0:T(128)S(1)} reduce(%square.281, %constant.398.clone.13), dimensions={0,2}, to_apply=%region_1.2, metadata={op_name="jit(train_step)/jvp()/while/body/closed_call/reduce_sum" stack_frame_id=0}
}

%fused_computation.83.clone.1 (param_0.1804: f32[128]) -> f32[128] {
  %param_0.1804 = f32[128]{0:T(128)S(1)} parameter(0)
  %constant.399.clone.9 = f32[]{:T(128)} constant(0.00048828125)
  %broadcast.986 = f32[128]{0:T(128)} broadcast(%constant.399.clone.9), dimensions={}, metadata={op_name="jit(train_step)/jvp()/while/body/closed_call" stack_frame_id=0}
  %div.1030 = f32[128]{0:T(128)} multiply(%param_0.1804, %broadcast.986), metadata={op_name="jit(train_step)/jvp()/while/body/closed_call/div" stack_frame_id=0}
  %constant.400.clone.13 = f32[]{:T(128)} constant(1e-06)
  %broadcast.985 = f32[128]{0:T(128)} broadcast(%constant.400.clone.13), dimensions={}, metadata={op_name="jit(train_step)/jvp()/while/body/closed_call" stack_frame_id=0}
  %add.1032 = f32[128]{0:T(128)} add(%div.1030, %broadcast.985), metadata={op_name="jit(train_step)/jvp()/while/body/closed_call/add" stack_frame_id=0}
  ROOT %rsqrt.222 = f32[128]{0:T(128)S(1)} rsqrt(%add.1032), metadata={op_name="jit(train_step)/jvp()/while/body/closed_call/rsqrt" stack_frame_id=0}
}

%convert_element_type.908.reduce_sub_computation (lhs.3: bf16[], rhs.3: bf16[]) -> bf16[] {
  %lhs.3 = bf16[] parameter(0)
  %rhs.3 = bf16[] parameter(1)
  ROOT %add.766 = bf16[] add(%lhs.3, %rhs.3), backend_config={"flag_configs":[],"scoped_memory_configs":[],"used_scoped_memory_configs":[],"aliasing_operands":{"lists":[]}}
}

%convert_element_type.894.reduce_sub_computation (lhs.2: bf16[], rhs.2: bf16[]) -> bf16[] {
  %lhs.2 = bf16[] parameter(0)
  %rhs.2 = bf16[] parameter(1)
  ROOT %add.765 = bf16[] add(%lhs.2, %rhs.2), backend_config={"flag_configs":[],"scoped_memory_configs":[],"used_scoped_memory_configs":[],"aliasing_operands":{"lists":[]}}
}

%fused_computation.73.clone.1 (param_0.1802: bf16[4,2048], param_1.1884: s32[], param_2.1442: bf16[4,2048]) -> (bf16[2048], bf16[2048]) {
  %param_0.1802 = bf16[4,2048]{1,0:T(4,128)(2,1)S(1)} parameter(0)
  %param_1.1884 = s32[]{:T(128)S(6)} parameter(1)
  %constant.401.clone.36 = s32[]{:T(128)} constant(0)
  %dynamic_slice.301 = bf16[1,2048]{1,0:T(2,128)(2,1)} dynamic-slice(%param_0.1802, %param_1.1884, %constant.401.clone.36), dynamic_slice_sizes={1,2048}, metadata={op_name="jit(train_step)/jvp()/while/body/jit(dynamic_index_in_dim)/dynamic_slice" stack_frame_id=0}, backend_config={"flag_configs":[],"scoped_memory_configs":[],"indices_config":{"index_known_bits":[{"zeroes":"4294967292","ones":"0","bitwidth":"32"},{"zeroes":"4294967295","ones":"0","bitwidth":"32"}],"is_index_aligned":[]},"used_scoped_memory_configs":[]}
  %constant.1112 = bf16[]{:T(256)} constant(-0), metadata={op_name="jit(train_step)/jvp()/while/body/closed_call/convert_element_type" stack_frame_id=0}
  %reduce.204 = bf16[2048]{0:T(1024)(128)(2,1)S(1)} reduce(%dynamic_slice.301, %constant.1112), dimensions={0}, to_apply=%convert_element_type.908.reduce_sub_computation, metadata={op_name="jit(train_step)/jvp()/while/body/closed_call/convert_element_type" stack_frame_id=0}
  %param_2.1442 = bf16[4,2048]{1,0:T(4,128)(2,1)S(1)} parameter(2)
  %dynamic_slice.272.clone.3 = bf16[1,2048]{1,0:T(2,128)(2,1)} dynamic-slice(%param_2.1442, %param_1.1884, %constant.401.clone.36), dynamic_slice_sizes={1,2048}, metadata={op_name="jit(train_step)/jvp()/while/body/jit(dynamic_index_in_dim)/dynamic_slice" stack_frame_id=0}, backend_config={"flag_configs":[],"scoped_memory_configs":[],"indices_config":{"index_known_bits":[{"zeroes":"4294967292","ones":"0","bitwidth":"32"},{"zeroes":"4294967295","ones":"0","bitwidth":"32"}],"is_index_aligned":[]},"used_scoped_memory_configs":[]}
  %reduce.110.clone.3 = bf16[2048]{0:T(1024)(128)(2,1)S(1)} reduce(%dynamic_slice.272.clone.3, %constant.1112), dimensions={0}, to_apply=%convert_element_type.894.reduce_sub_computation, metadata={op_name="jit(train_step)/jvp()/while/body/closed_call/convert_element_type" stack_frame_id=0}
  ROOT %tuple.240 = (bf16[2048]{0:T(1024)(128)(2,1)S(1)}, bf16[2048]{0:T(1024)(128)(2,1)S(1)}) tuple(%reduce.204, %reduce.110.clone.3)
}

%fused_computation.53.clone.2.clone.clone.clone.1 (param_0.1820: bf16[1,128,2048], param_1.1895: f32[128], param_2.1450: bf16[2048]) -> bf16[128,2048,1] {
  %param_0.1820 = bf16[1,128,2048]{2,1,0:T(8,128)(2,1)S(1)} parameter(0)
  %convert_element_type.1498 = f32[1,128,2048]{2,1,0:T(8,128)} convert(%param_0.1820), metadata={op_name="jit(train_step)/jvp()/while/body/closed_call/convert_element_type" stack_frame_id=0}
  %param_1.1895 = f32[128]{0:T(128)S(1)} parameter(1)
  %mul.3024 = f32[1,128,2048]{2,1,0:T(8,128)} broadcast(%param_1.1895), dimensions={1}, metadata={op_name="jit(train_step)/jvp()/while/body/closed_call/mul" stack_frame_id=0}
  %mul.3023 = f32[1,128,2048]{2,1,0:T(8,128)} multiply(%convert_element_type.1498, %mul.3024), metadata={op_name="jit(train_step)/jvp()/while/body/closed_call/mul" stack_frame_id=0}
  %convert_element_type.1497 = bf16[1,128,2048]{2,1,0:T(8,128)(2,1)} convert(%mul.3023), metadata={op_name="jit(train_step)/jvp()/while/body/closed_call/convert_element_type" stack_frame_id=0}
  %convert.309 = f32[1,128,2048]{2,1,0:T(8,128)} convert(%convert_element_type.1497)
  %param_2.1450 = bf16[2048]{0:T(1024)(128)(2,1)S(1)} parameter(2)
  %mul.3025 = bf16[1,128,2048]{2,1,0:T(8,128)(2,1)} broadcast(%param_2.1450), dimensions={2}, metadata={op_name="jit(train_step)/jvp()/while/body/closed_call/mul" stack_frame_id=0}
  %convert.310 = f32[1,128,2048]{2,1,0:T(8,128)} convert(%mul.3025)
  %mul.3022 = f32[1,128,2048]{2,1,0:T(8,128)} multiply(%convert.309, %convert.310), metadata={op_name="jit(train_step)/jvp()/while/body/closed_call/mul" stack_frame_id=0}, backend_config={"flag_configs":[],"scoped_memory_configs":[],"used_scoped_memory_configs":[],"float_type_correction_info":{"original_type":"BF16","original_shape":{"element_type":"BF16","dimensions":["1","128","2048"],"tuple_shapes":[],"layout":{"minor_to_major":["2","1","0"],"tiles":[{"dimensions":["8","128"]},{"dimensions":["2","1"]}],"element_size_in_bits":"0","memory_space":"0","dim_level_types":[],"index_primitive_type":"PRIMITIVE_TYPE_INVALID","pointer_primitive_type":"PRIMITIVE_TYPE_INVALID","dim_unique":[],"dim_ordered":[],"dynamic_shape_metadata_prefix_bytes":"0","tail_padding_alignment_in_elements":"1","split_configs":[]},"is_dynamic_dimension":[false,false,false]}}}
  %convert.311 = bf16[1,128,2048]{2,1,0:T(8,128)(2,1)} convert(%mul.3022)
  ROOT %bitcast.1020 = bf16[128,2048,1]{1,0,2:T(8,128)(2,1)} bitcast(%convert.311)
}

%fused_computation.17.clone.clone.clone.1 (param_0.1819: bf16[1,2048,16,128]) -> bf16[2048,16,128] {
  %param_0.1819 = bf16[1,2048,16,128]{1,3,2,0:T(8,128)(2,1)S(1)} parameter(0)
  ROOT %bitcast.1019 = bf16[2048,16,128]{0,2,1:T(8,128)(2,1)} bitcast(%param_0.1819), metadata={op_name="jit(train_step)/jvp()/while/body/closed_call/dot_general" stack_frame_id=0}
}

%region_2.3 (reduce_sum.206: f32[], reduce_sum.207: f32[]) -> f32[] {
  %reduce_sum.206 = f32[]{:T(128)} parameter(0), metadata={op_name="jit(train_step)/jvp()/while/body/closed_call/reduce_sum"}
  %reduce_sum.207 = f32[]{:T(128)} parameter(1), metadata={op_name="jit(train_step)/jvp()/while/body/closed_call/reduce_sum"}
  ROOT %reduce_sum.208 = f32[]{:T(128)} add(%reduce_sum.206, %reduce_sum.207), metadata={op_name="reduce_sum" stack_frame_id=0}, backend_config={"flag_configs":[],"scoped_memory_configs":[],"used_scoped_memory_configs":[],"aliasing_operands":{"lists":[]}}
}

%fused_computation.44.clone.1 (param_0.1821: bf16[1,2048,16,128], param_1.1896: bf16[1,128,2048], param_2.1451: f32[128], param_3.954: bf16[2048]) -> (f32[128,16], bf16[128,16,128]) {
  %param_1.1896 = bf16[1,128,2048]{2,1,0:T(8,128)(2,1)S(1)} parameter(1)
  %param_2.1451 = f32[128]{0:T(128)S(1)} parameter(2)
  %param_3.954 = bf16[2048]{0:T(1024)(128)(2,1)S(1)} parameter(3)
  %fusion.91.clone.3 = bf16[128,2048,1]{1,0,2:T(8,128)(2,1)} fusion(%param_1.1896, %param_2.1451, %param_3.954), kind=kLoop, calls=%fused_computation.53.clone.2.clone.clone.clone.1
  %param_0.1821 = bf16[1,2048,16,128]{1,3,2,0:T(8,128)(2,1)S(1)} parameter(0)
  %fusion.22.clone.3 = bf16[2048,16,128]{0,2,1:T(8,128)(2,1)} fusion(%param_0.1821), kind=kLoop, calls=%fused_computation.17.clone.clone.clone.1, metadata={op_name="jit(train_step)/jvp()/while/body/closed_call/dot_general" stack_frame_id=0}
  %convolution.34.clone.3 = bf16[128,16,128]{2,0,1:T(8,128)(2,1)S(1)} convolution(%fusion.91.clone.3, %fusion.22.clone.3), window={size=16 pad=15_15 rhs_reversal=1}, dim_labels=bf0_i0o->b0f, metadata={op_name="jit(train_step)/jvp()/while/body/closed_call/dot_general" stack_frame_id=0}
  %convert_element_type.1499 = f32[128,16,128]{2,0,1:T(8,128)} convert(%convolution.34.clone.3), metadata={op_name="jit(train_step)/jvp()/while/body/closed_call/convert_element_type" stack_frame_id=0}
  %bitcast.1021 = f32[1,128,16,128]{3,1,2,0:T(8,128)} bitcast(%convert_element_type.1499), metadata={op_name="jit(train_step)/jvp()/while/body/closed_call/convert_element_type" stack_frame_id=0}
  %square.283 = f32[1,128,16,128]{3,1,2,0:T(8,128)} multiply(%bitcast.1021, %bitcast.1021), metadata={op_name="jit(train_step)/jvp()/while/body/closed_call/square" stack_frame_id=0}
  %constant.398.clone.15 = f32[]{:T(128)} constant(0)
  %reduce.207 = f32[128,16]{0,1:T(8,128)S(1)} reduce(%square.283, %constant.398.clone.15), dimensions={0,3}, to_apply=%region_2.3, metadata={op_name="jit(train_step)/jvp()/while/body/closed_call/reduce_sum" stack_frame_id=0}
  ROOT %tuple.244 = (f32[128,16]{0,1:T(8,128)S(1)}, bf16[128,16,128]{2,0,1:T(8,128)(2,1)S(1)}) tuple(%reduce.207, %convolution.34.clone.3)
}

%fused_computation.72.clone.1 (param_0.1822: f32[128,16]) -> f32[128,16] {
  %param_0.1822 = f32[128,16]{0,1:T(8,128)S(1)} parameter(0)
  %constant.402.clone.10 = f32[]{:T(128)} constant(0.0078125)
  %broadcast.990 = f32[128,16]{0,1:T(8,128)} broadcast(%constant.402.clone.10), dimensions={}, metadata={op_name="jit(train_step)/jvp()/while/body/closed_call/div" stack_frame_id=0}
  %div.1032 = f32[128,16]{0,1:T(8,128)} multiply(%param_0.1822, %broadcast.990), metadata={op_name="jit(train_step)/jvp()/while/body/closed_call/div" stack_frame_id=0}
  %constant.400.clone.15 = f32[]{:T(128)} constant(1e-06)
  %broadcast.989 = f32[128,16]{0,1:T(8,128)} broadcast(%constant.400.clone.15), dimensions={}, metadata={op_name="jit(train_step)/jvp()/while/body/closed_call/add" stack_frame_id=0}
  %add.1035 = f32[128,16]{0,1:T(8,128)} add(%div.1032, %broadcast.989), metadata={op_name="jit(train_step)/jvp()/while/body/closed_call/add" stack_frame_id=0}
  ROOT %rsqrt.224 = f32[128,16]{0,1:T(8,128)S(1)} rsqrt(%add.1035), metadata={op_name="jit(train_step)/jvp()/while/body/closed_call/rsqrt" stack_frame_id=0}
}

%fused_computation.79.clone.1 (param_0.1814: bf16[4,128], param_1.1891: s32[], param_2.1447: bf16[4,128]) -> (bf16[128], bf16[128]) {
  %param_0.1814 = bf16[4,128]{1,0:T(4,128)(2,1)S(1)} parameter(0)
  %param_1.1891 = s32[]{:T(128)S(6)} parameter(1)
  %constant.401.clone.39 = s32[]{:T(128)} constant(0)
  %dynamic_slice.302 = bf16[1,128]{1,0:T(2,128)(2,1)} dynamic-slice(%param_0.1814, %param_1.1891, %constant.401.clone.39), dynamic_slice_sizes={1,128}, metadata={op_name="jit(train_step)/jvp()/while/body/jit(dynamic_index_in_dim)/dynamic_slice" stack_frame_id=0}, backend_config={"flag_configs":[],"scoped_memory_configs":[],"indices_config":{"index_known_bits":[{"zeroes":"4294967292","ones":"0","bitwidth":"32"},{"zeroes":"4294967295","ones":"0","bitwidth":"32"}],"is_index_aligned":[]},"used_scoped_memory_configs":[]}
  %bitcast.1017 = bf16[128]{0:T(256)(128)(2,1)S(1)} bitcast(%dynamic_slice.302), metadata={op_name="jit(train_step)/jvp()/while/body/closed_call/convert_element_type" stack_frame_id=0}
  %param_2.1447 = bf16[4,128]{1,0:T(4,128)(2,1)S(1)} parameter(2)
  %dynamic_slice.282.clone.3 = bf16[1,128]{1,0:T(2,128)(2,1)} dynamic-slice(%param_2.1447, %param_1.1891, %constant.401.clone.39), dynamic_slice_sizes={1,128}, metadata={op_name="jit(train_step)/jvp()/while/body/jit(dynamic_index_in_dim)/dynamic_slice" stack_frame_id=0}, backend_config={"flag_configs":[],"scoped_memory_configs":[],"indices_config":{"index_known_bits":[{"zeroes":"4294967292","ones":"0","bitwidth":"32"},{"zeroes":"4294967295","ones":"0","bitwidth":"32"}],"is_index_aligned":[]},"used_scoped_memory_configs":[]}
  %bitcast.278.clone.3 = bf16[128]{0:T(256)(128)(2,1)S(1)} bitcast(%dynamic_slice.282.clone.3), metadata={op_name="jit(train_step)/jvp()/while/body/closed_call/convert_element_type" stack_frame_id=0}
  ROOT %tuple.242 = (bf16[128]{0:T(256)(128)(2,1)S(1)}, bf16[128]{0:T(256)(128)(2,1)S(1)}) tuple(%bitcast.1017, %bitcast.278.clone.3)
}

%fused_computation.49.clone.2 (param_0.1823: bf16[128,16,128], param_1.1897: f32[128,16], param_2.1452: bf16[128]) -> bf16[1,128,16,128] {
  %param_0.1823 = bf16[128,16,128]{2,0,1:T(8,128)(2,1)S(1)} parameter(0)
  %convert_element_type.1501 = f32[128,16,128]{2,0,1:T(8,128)} convert(%param_0.1823), metadata={op_name="jit(train_step)/jvp()/while/body/closed_call/convert_element_type" stack_frame_id=0}
  %bitcast.1022 = f32[1,128,16,128]{3,1,2,0:T(8,128)} bitcast(%convert_element_type.1501), metadata={op_name="jit(train_step)/jvp()/while/body/closed_call/convert_element_type" stack_frame_id=0}
  %param_1.1897 = f32[128,16]{0,1:T(8,128)S(1)} parameter(1)
  %mul.3028 = f32[1,128,16,128]{3,1,2,0:T(8,128)} broadcast(%param_1.1897), dimensions={1,2}, metadata={op_name="jit(train_step)/jvp()/while/body/closed_call/mul" stack_frame_id=0}
  %mul.3027 = f32[1,128,16,128]{3,1,2,0:T(8,128)} multiply(%bitcast.1022, %mul.3028), metadata={op_name="jit(train_step)/jvp()/while/body/closed_call/mul" stack_frame_id=0}
  %convert_element_type.1500 = bf16[1,128,16,128]{3,1,2,0:T(8,128)(2,1)} convert(%mul.3027), metadata={op_name="jit(train_step)/jvp()/while/body/closed_call/convert_element_type" stack_frame_id=0}
  %convert.322 = f32[1,128,16,128]{3,1,2,0:T(8,128)} convert(%convert_element_type.1500)
  %param_2.1452 = bf16[128]{0:T(256)(128)(2,1)S(1)} parameter(2)
  %mul.3029 = bf16[1,128,16,128]{3,1,2,0:T(8,128)(2,1)} broadcast(%param_2.1452), dimensions={3}, metadata={op_name="jit(train_step)/jvp()/while/body/closed_call/mul" stack_frame_id=0}
  %convert.323 = f32[1,128,16,128]{3,1,2,0:T(8,128)} convert(%mul.3029)
  %mul.3026 = f32[1,128,16,128]{3,1,2,0:T(8,128)} multiply(%convert.322, %convert.323), metadata={op_name="jit(train_step)/jvp()/while/body/closed_call/mul" stack_frame_id=0}, backend_config={"flag_configs":[],"scoped_memory_configs":[],"used_scoped_memory_configs":[],"float_type_correction_info":{"original_type":"BF16","original_shape":{"element_type":"BF16","dimensions":["1","128","16","128"],"tuple_shapes":[],"layout":{"minor_to_major":["3","1","2","0"],"tiles":[{"dimensions":["8","128"]},{"dimensions":["2","1"]}],"element_size_in_bits":"0","memory_space":"0","dim_level_types":[],"index_primitive_type":"PRIMITIVE_TYPE_INVALID","pointer_primitive_type":"PRIMITIVE_TYPE_INVALID","dim_unique":[],"dim_ordered":[],"dynamic_shape_metadata_prefix_bytes":"0","tail_padding_alignment_in_elements":"1","split_configs":[]},"is_dynamic_dimension":[false,false,false,false]}}}
  ROOT %convert.324 = bf16[1,128,16,128]{3,1,2,0:T(8,128)(2,1)S(1)} convert(%mul.3026)
}

%fused_computation.54.clone.1 (param_0.1824: bf16[1,128,16,128]) -> (bf16[1,128,16,64], bf16[1,128,16,64]) {
  %param_0.1824 = bf16[1,128,16,128]{3,1,2,0:T(8,128)(2,1)S(1)} parameter(0)
  %slice.82 = bf16[1,128,16,64]{3,1,2,0:T(8,128)(2,1)} slice(%param_0.1824), slice={[0:1], [0:128], [0:16], [64:128]}, metadata={op_name="jit(train_step)/jvp()/while/body/closed_call/split" stack_frame_id=0}
  %convert.325 = f32[1,128,16,64]{3,1,2,0:T(8,128)} convert(%slice.82)
  %neg.134 = f32[1,128,16,64]{3,1,2,0:T(8,128)} negate(%convert.325), metadata={op_name="jit(train_step)/jvp()/while/body/closed_call/neg" stack_frame_id=0}, backend_config={"flag_configs":[],"scoped_memory_configs":[],"used_scoped_memory_configs":[],"float_type_correction_info":{"original_type":"BF16","original_shape":{"element_type":"BF16","dimensions":["1","128","16","64"],"tuple_shapes":[],"layout":{"minor_to_major":["3","1","2","0"],"tiles":[{"dimensions":["8","128"]},{"dimensions":["2","1"]}],"element_size_in_bits":"0","memory_space":"0","dim_level_types":[],"index_primitive_type":"PRIMITIVE_TYPE_INVALID","pointer_primitive_type":"PRIMITIVE_TYPE_INVALID","dim_unique":[],"dim_ordered":[],"dynamic_shape_metadata_prefix_bytes":"0","tail_padding_alignment_in_elements":"1","split_configs":[]},"is_dynamic_dimension":[false,false,false,false]}}}
  %convert.326 = bf16[1,128,16,64]{3,1,2,0:T(8,128)(2,1)S(1)} convert(%neg.134)
  %slice.83 = bf16[1,128,16,64]{3,1,2,0:T(8,128)(2,1)S(1)} slice(%param_0.1824), slice={[0:1], [0:128], [0:16], [0:64]}, metadata={op_name="jit(train_step)/jvp()/while/body/closed_call/split" stack_frame_id=0}
  ROOT %tuple.245 = (bf16[1,128,16,64]{3,1,2,0:T(8,128)(2,1)S(1)}, bf16[1,128,16,64]{3,1,2,0:T(8,128)(2,1)S(1)}) tuple(%convert.326, %slice.83)
}

%fused_computation.58.clone.1 (param_0.1825: bf16[1,128,16,64], param_1.1898: bf16[1,128,16,64], param_2.1453: bf16[128,128], param_3.955: bf16[128,128], param_4.567: bf16[128], param_5.491: f32[128,16], param_6.340: bf16[128,16,128]) -> bf16[16,128,128] {
  %param_6.340 = bf16[128,16,128]{2,0,1:T(8,128)(2,1)S(1)} parameter(6)
  %convert_element_type.1503 = f32[128,16,128]{2,0,1:T(8,128)} convert(%param_6.340), metadata={op_name="jit(train_step)/jvp()/while/body/closed_call/convert_element_type" stack_frame_id=0}
  %bitcast.1024 = f32[1,128,16,128]{3,1,2,0:T(8,128)} bitcast(%convert_element_type.1503), metadata={op_name="jit(train_step)/jvp()/while/body/closed_call/convert_element_type" stack_frame_id=0}
  %param_5.491 = f32[128,16]{0,1:T(8,128)S(1)} parameter(5)
  %mul.3039 = f32[1,128,16,128]{3,1,2,0:T(8,128)} broadcast(%param_5.491), dimensions={1,2}, metadata={op_name="jit(train_step)/jvp()/while/body/closed_call/mul" stack_frame_id=0}
  %mul.3038 = f32[1,128,16,128]{3,1,2,0:T(8,128)} multiply(%bitcast.1024, %mul.3039), metadata={op_name="jit(train_step)/jvp()/while/body/closed_call/mul" stack_frame_id=0}
  %convert_element_type.1502 = bf16[1,128,16,128]{3,1,2,0:T(8,128)(2,1)} convert(%mul.3038), metadata={op_name="jit(train_step)/jvp()/while/body/closed_call/convert_element_type" stack_frame_id=0}
  %convert.327 = f32[1,128,16,128]{3,1,2,0:T(8,128)} convert(%convert_element_type.1502)
  %param_4.567 = bf16[128]{0:T(256)(128)(2,1)S(1)} parameter(4)
  %mul.3037 = bf16[1,128,16,128]{3,1,2,0:T(8,128)(2,1)} broadcast(%param_4.567), dimensions={3}, metadata={op_name="jit(train_step)/jvp()/while/body/closed_call/mul" stack_frame_id=0}
  %convert.328 = f32[1,128,16,128]{3,1,2,0:T(8,128)} convert(%mul.3037)
  %mul.3036 = f32[1,128,16,128]{3,1,2,0:T(8,128)} multiply(%convert.327, %convert.328), metadata={op_name="jit(train_step)/jvp()/while/body/closed_call/mul" stack_frame_id=0}, backend_config={"flag_configs":[],"scoped_memory_configs":[],"used_scoped_memory_configs":[],"float_type_correction_info":{"original_type":"BF16","original_shape":{"element_type":"BF16","dimensions":["1","128","16","128"],"tuple_shapes":[],"layout":{"minor_to_major":["3","1","2","0"],"tiles":[{"dimensions":["8","128"]},{"dimensions":["2","1"]}],"element_size_in_bits":"0","memory_space":"0","dim_level_types":[],"index_primitive_type":"PRIMITIVE_TYPE_INVALID","pointer_primitive_type":"PRIMITIVE_TYPE_INVALID","dim_unique":[],"dim_ordered":[],"dynamic_shape_metadata_prefix_bytes":"0","tail_padding_alignment_in_elements":"1","split_configs":[]},"is_dynamic_dimension":[false,false,false,false]}}}
  %param_3.955 = bf16[128,128]{1,0:T(8,128)(2,1)S(1)} parameter(3)
  %mul.3034 = bf16[1,128,16,128]{3,1,2,0:T(8,128)(2,1)} broadcast(%param_3.955), dimensions={1,3}, metadata={op_name="jit(train_step)/jvp()/while/body/closed_call/mul" stack_frame_id=0}
  %convert.329 = f32[1,128,16,128]{3,1,2,0:T(8,128)} convert(%mul.3034)
  %mul.3032 = f32[1,128,16,128]{3,1,2,0:T(8,128)} multiply(%mul.3036, %convert.329), metadata={op_name="jit(train_step)/jvp()/while/body/closed_call/mul" stack_frame_id=0}, backend_config={"flag_configs":[],"scoped_memory_configs":[],"used_scoped_memory_configs":[],"float_type_correction_info":{"original_type":"BF16","original_shape":{"element_type":"BF16","dimensions":["1","128","16","128"],"tuple_shapes":[],"layout":{"minor_to_major":["3","1","2","0"],"tiles":[{"dimensions":["8","128"]},{"dimensions":["2","1"]}],"element_size_in_bits":"0","memory_space":"0","dim_level_types":[],"index_primitive_type":"PRIMITIVE_TYPE_INVALID","pointer_primitive_type":"PRIMITIVE_TYPE_INVALID","dim_unique":[],"dim_ordered":[],"dynamic_shape_metadata_prefix_bytes":"0","tail_padding_alignment_in_elements":"1","split_configs":[]},"is_dynamic_dimension":[false,false,false,false]}}}
  %param_1.1898 = bf16[1,128,16,64]{3,1,2,0:T(8,128)(2,1)S(1)} parameter(1)
  %constant.1114 = bf16[]{:T(256)} constant(-inf)
  %pad.85 = bf16[1,128,16,128]{3,1,2,0:T(8,128)(2,1)} pad(%param_1.1898, %constant.1114), padding=0_0x0_0x0_0x0_64, metadata={op_name="jit(train_step)/jvp()/while/body/closed_call/concatenate" stack_frame_id=0}
  %convert.330 = f32[1,128,16,128]{3,1,2,0:T(8,128)} convert(%pad.85)
  %param_0.1825 = bf16[1,128,16,64]{3,1,2,0:T(8,128)(2,1)S(1)} parameter(0)
  %pad.84 = bf16[1,128,16,128]{3,1,2,0:T(8,128)(2,1)} pad(%param_0.1825, %constant.1114), padding=0_0x0_0x0_0x64_0, metadata={op_name="jit(train_step)/jvp()/while/body/closed_call/concatenate" stack_frame_id=0}
  %convert.331 = f32[1,128,16,128]{3,1,2,0:T(8,128)} convert(%pad.84)
  %maximum.61 = f32[1,128,16,128]{3,1,2,0:T(8,128)} maximum(%convert.330, %convert.331), metadata={op_name="jit(train_step)/jvp()/while/body/closed_call/concatenate" stack_frame_id=0}, backend_config={"flag_configs":[],"scoped_memory_configs":[],"used_scoped_memory_configs":[],"float_type_correction_info":{"original_type":"BF16","original_shape":{"element_type":"BF16","dimensions":["1","128","16","128"],"tuple_shapes":[],"layout":{"minor_to_major":["3","1","2","0"],"tiles":[{"dimensions":["8","128"]},{"dimensions":["2","1"]}],"element_size_in_bits":"0","memory_space":"0","dim_level_types":[],"index_primitive_type":"PRIMITIVE_TYPE_INVALID","pointer_primitive_type":"PRIMITIVE_TYPE_INVALID","dim_unique":[],"dim_ordered":[],"dynamic_shape_metadata_prefix_bytes":"0","tail_padding_alignment_in_elements":"1","split_configs":[]},"is_dynamic_dimension":[false,false,false,false]}}}
  %param_2.1453 = bf16[128,128]{1,0:T(8,128)(2,1)S(1)} parameter(2)
  %mul.3033 = bf16[1,128,16,128]{3,1,2,0:T(8,128)(2,1)} broadcast(%param_2.1453), dimensions={1,3}, metadata={op_name="jit(train_step)/jvp()/while/body/closed_call/mul" stack_frame_id=0}
  %convert.332 = f32[1,128,16,128]{3,1,2,0:T(8,128)} convert(%mul.3033)
  %mul.3031 = f32[1,128,16,128]{3,1,2,0:T(8,128)} multiply(%maximum.61, %convert.332), metadata={op_name="jit(train_step)/jvp()/while/body/closed_call/mul" stack_frame_id=0}, backend_config={"flag_configs":[],"scoped_memory_configs":[],"used_scoped_memory_configs":[],"float_type_correction_info":{"original_type":"BF16","original_shape":{"element_type":"BF16","dimensions":["1","128","16","128"],"tuple_shapes":[],"layout":{"minor_to_major":["3","1","2","0"],"tiles":[{"dimensions":["8","128"]},{"dimensions":["2","1"]}],"element_size_in_bits":"0","memory_space":"0","dim_level_types":[],"index_primitive_type":"PRIMITIVE_TYPE_INVALID","pointer_primitive_type":"PRIMITIVE_TYPE_INVALID","dim_unique":[],"dim_ordered":[],"dynamic_shape_metadata_prefix_bytes":"0","tail_padding_alignment_in_elements":"1","split_configs":[]},"is_dynamic_dimension":[false,false,false,false]}}}
  %add.1036 = f32[1,128,16,128]{3,1,2,0:T(8,128)} add(%mul.3032, %mul.3031), metadata={op_name="jit(train_step)/jvp()/while/body/closed_call/add" stack_frame_id=0}, backend_config={"flag_configs":[],"scoped_memory_configs":[],"used_scoped_memory_configs":[],"float_type_correction_info":{"original_type":"BF16","original_shape":{"element_type":"BF16","dimensions":["1","128","16","128"],"tuple_shapes":[],"layout":{"minor_to_major":["3","1","2","0"],"tiles":[{"dimensions":["8","128"]},{"dimensions":["2","1"]}],"element_size_in_bits":"0","memory_space":"0","dim_level_types":[],"index_primitive_type":"PRIMITIVE_TYPE_INVALID","pointer_primitive_type":"PRIMITIVE_TYPE_INVALID","dim_unique":[],"dim_ordered":[],"dynamic_shape_metadata_prefix_bytes":"0","tail_padding_alignment_in_elements":"1","split_configs":[]},"is_dynamic_dimension":[false,false,false,false]}}}
  %constant.403.clone.7 = bf16[]{:T(256)} constant(0.08838)
  %mul.3035 = bf16[1,128,16,128]{3,1,2,0:T(8,128)(2,1)} broadcast(%constant.403.clone.7), dimensions={}, metadata={op_name="jit(train_step)/jvp()/while/body/closed_call/mul" stack_frame_id=0}
  %convert.333 = f32[1,128,16,128]{3,1,2,0:T(8,128)} convert(%mul.3035)
  %mul.3030 = f32[1,128,16,128]{3,1,2,0:T(8,128)} multiply(%add.1036, %convert.333), metadata={op_name="jit(train_step)/jvp()/while/body/closed_call/mul" stack_frame_id=0}, backend_config={"flag_configs":[],"scoped_memory_configs":[],"used_scoped_memory_configs":[],"float_type_correction_info":{"original_type":"BF16","original_shape":{"element_type":"BF16","dimensions":["1","128","16","128"],"tuple_shapes":[],"layout":{"minor_to_major":["3","1","2","0"],"tiles":[{"dimensions":["8","128"]},{"dimensions":["2","1"]}],"element_size_in_bits":"0","memory_space":"0","dim_level_types":[],"index_primitive_type":"PRIMITIVE_TYPE_INVALID","pointer_primitive_type":"PRIMITIVE_TYPE_INVALID","dim_unique":[],"dim_ordered":[],"dynamic_shape_metadata_prefix_bytes":"0","tail_padding_alignment_in_elements":"1","split_configs":[]},"is_dynamic_dimension":[false,false,false,false]}}}
  %convert.334 = bf16[1,128,16,128]{3,1,2,0:T(8,128)(2,1)} convert(%mul.3030)
  ROOT %bitcast.1023 = bf16[16,128,128]{2,1,0:T(8,128)(2,1)S(1)} bitcast(%convert.334), metadata={op_name="jit(train_step)/jvp()/while/body/closed_call/shard_map/vmap(static_sparsity_splash)/jit(_splash_attention)/splash_mha_fwd_segmented_residuals/splash_mha_fwd_segmented_residuals/squeeze" stack_frame_id=0}
}

%fused_computation.29.clone.1 (param_0.1809: bf16[4,512,8,128], param_1.1888: s32[]) -> bf16[1,512,8,128] {
  %param_0.1809 = bf16[4,512,8,128]{1,3,2,0:T(8,128)(2,1)} parameter(0)
  %param_1.1888 = s32[]{:T(128)S(6)} parameter(1)
  %constant.401.clone.38 = s32[]{:T(128)} constant(0)
  ROOT %dynamic-slice.208 = bf16[1,512,8,128]{1,3,2,0:T(8,128)(2,1)S(1)} dynamic-slice(%param_0.1809, %param_1.1888, %constant.401.clone.38, %constant.401.clone.38, %constant.401.clone.38), dynamic_slice_sizes={1,512,8,128}, metadata={op_name="jit(train_step)/jvp()/while/body/jit(dynamic_index_in_dim)/dynamic_slice" stack_frame_id=0}, backend_config={"flag_configs":[],"scoped_memory_configs":[],"indices_config":{"index_known_bits":[{"zeroes":"4294967292","ones":"0","bitwidth":"32"},{"zeroes":"4294967295","ones":"0","bitwidth":"32"},{"zeroes":"4294967295","ones":"0","bitwidth":"32"},{"zeroes":"4294967295","ones":"0","bitwidth":"32"}],"is_index_aligned":[]},"used_scoped_memory_configs":[]}
}

%fused_computation.53.clone.1.clone.clone.clone.1 (param_0.1811: bf16[1,128,2048], param_1.1889: f32[128], param_2.1445: bf16[2048]) -> bf16[128,2048,1] {
  %param_0.1811 = bf16[1,128,2048]{2,1,0:T(8,128)(2,1)S(1)} parameter(0)
  %convert_element_type.1494 = f32[1,128,2048]{2,1,0:T(8,128)} convert(%param_0.1811), metadata={op_name="jit(train_step)/jvp()/while/body/closed_call/convert_element_type" stack_frame_id=0}
  %param_1.1889 = f32[128]{0:T(128)S(1)} parameter(1)
  %mul.3008 = f32[1,128,2048]{2,1,0:T(8,128)} broadcast(%param_1.1889), dimensions={1}, metadata={op_name="jit(train_step)/jvp()/while/body/closed_call/mul" stack_frame_id=0}
  %mul.3007 = f32[1,128,2048]{2,1,0:T(8,128)} multiply(%convert_element_type.1494, %mul.3008), metadata={op_name="jit(train_step)/jvp()/while/body/closed_call/mul" stack_frame_id=0}
  %convert_element_type.1493 = bf16[1,128,2048]{2,1,0:T(8,128)(2,1)} convert(%mul.3007), metadata={op_name="jit(train_step)/jvp()/while/body/closed_call/convert_element_type" stack_frame_id=0}
  %convert.306 = f32[1,128,2048]{2,1,0:T(8,128)} convert(%convert_element_type.1493)
  %param_2.1445 = bf16[2048]{0:T(1024)(128)(2,1)S(1)} parameter(2)
  %mul.3009 = bf16[1,128,2048]{2,1,0:T(8,128)(2,1)} broadcast(%param_2.1445), dimensions={2}, metadata={op_name="jit(train_step)/jvp()/while/body/closed_call/mul" stack_frame_id=0}
  %convert.307 = f32[1,128,2048]{2,1,0:T(8,128)} convert(%mul.3009)
  %mul.3006 = f32[1,128,2048]{2,1,0:T(8,128)} multiply(%convert.306, %convert.307), metadata={op_name="jit(train_step)/jvp()/while/body/closed_call/mul" stack_frame_id=0}, backend_config={"flag_configs":[],"scoped_memory_configs":[],"used_scoped_memory_configs":[],"float_type_correction_info":{"original_type":"BF16","original_shape":{"element_type":"BF16","dimensions":["1","128","2048"],"tuple_shapes":[],"layout":{"minor_to_major":["2","1","0"],"tiles":[{"dimensions":["8","128"]},{"dimensions":["2","1"]}],"element_size_in_bits":"0","memory_space":"0","dim_level_types":[],"index_primitive_type":"PRIMITIVE_TYPE_INVALID","pointer_primitive_type":"PRIMITIVE_TYPE_INVALID","dim_unique":[],"dim_ordered":[],"dynamic_shape_metadata_prefix_bytes":"0","tail_padding_alignment_in_elements":"1","split_configs":[]},"is_dynamic_dimension":[false,false,false]}}}
  %convert.308 = bf16[1,128,2048]{2,1,0:T(8,128)(2,1)} convert(%mul.3006)
  ROOT %bitcast.1016 = bf16[128,2048,1]{1,0,2:T(8,128)(2,1)} bitcast(%convert.308)
}

%fused_computation.21.clone.clone.clone.clone.clone.clone.clone.1 (param_0.1810: bf16[1,2048,8,128]) -> bf16[2048,8,128] {
  %param_0.1810 = bf16[1,2048,8,128]{1,3,2,0:T(8,128)(2,1)S(1)} parameter(0)
  ROOT %bitcast.1015 = bf16[2048,8,128]{0,2,1:T(8,128)(2,1)} bitcast(%param_0.1810), metadata={op_name="jit(train_step)/jvp()/while/body/closed_call/dot_general" stack_frame_id=0}
}

%region_3.4 (reduce_sum.209: f32[], reduce_sum.213: f32[]) -> f32[] {
  %reduce_sum.209 = f32[]{:T(128)} parameter(0), metadata={op_name="jit(train_step)/jvp()/while/body/closed_call/reduce_sum"}
  %reduce_sum.213 = f32[]{:T(128)} parameter(1), metadata={op_name="jit(train_step)/jvp()/while/body/closed_call/reduce_sum"}
  ROOT %reduce_sum.214 = f32[]{:T(128)} add(%reduce_sum.209, %reduce_sum.213), metadata={op_name="reduce_sum" stack_frame_id=0}, backend_config={"flag_configs":[],"scoped_memory_configs":[],"used_scoped_memory_configs":[],"aliasing_operands":{"lists":[]}}
}

%fused_computation.64.clone.1 (param_0.1812: bf16[1,2048,8,128], param_1.1890: bf16[1,128,2048], param_2.1446: f32[128], param_3.952: bf16[2048]) -> (f32[128,8], f32[1,128,8,128]) {
  %param_1.1890 = bf16[1,128,2048]{2,1,0:T(8,128)(2,1)S(1)} parameter(1)
  %param_2.1446 = f32[128]{0:T(128)S(1)} parameter(2)
  %param_3.952 = bf16[2048]{0:T(1024)(128)(2,1)S(1)} parameter(3)
  %fusion.90.clone.3 = bf16[128,2048,1]{1,0,2:T(8,128)(2,1)} fusion(%param_1.1890, %param_2.1446, %param_3.952), kind=kLoop, calls=%fused_computation.53.clone.1.clone.clone.clone.1
  %param_0.1812 = bf16[1,2048,8,128]{1,3,2,0:T(8,128)(2,1)S(1)} parameter(0)
  %fusion.64.clone.3 = bf16[2048,8,128]{0,2,1:T(8,128)(2,1)} fusion(%param_0.1812), kind=kLoop, calls=%fused_computation.21.clone.clone.clone.clone.clone.clone.clone.1, metadata={op_name="jit(train_step)/jvp()/while/body/closed_call/dot_general" stack_frame_id=0}
  %convolution.58.clone.3 = bf16[128,8,128]{2,0,1:T(8,128)(2,1)} convolution(%fusion.90.clone.3, %fusion.64.clone.3), window={size=8 pad=7_7 rhs_reversal=1}, dim_labels=bf0_i0o->b0f, metadata={op_name="jit(train_step)/jvp()/while/body/closed_call/dot_general" stack_frame_id=0}
  %convert_element_type.945.clone.3 = f32[128,8,128]{2,0,1:T(8,128)} convert(%convolution.58.clone.3), metadata={op_name="jit(train_step)/jvp()/while/body/closed_call/convert_element_type" stack_frame_id=0}
  %bitcast.256.clone.3 = f32[1,128,8,128]{3,1,2,0:T(8,128)S(1)} bitcast(%convert_element_type.945.clone.3), metadata={op_name="jit(train_step)/jvp()/while/body/closed_call/convert_element_type" stack_frame_id=0}
  %square.282 = f32[1,128,8,128]{3,1,2,0:T(8,128)} multiply(%bitcast.256.clone.3, %bitcast.256.clone.3), metadata={op_name="jit(train_step)/jvp()/while/body/closed_call/square" stack_frame_id=0}
  %constant.398.clone.14 = f32[]{:T(128)} constant(0)
  %reduce.206 = f32[128,8]{0,1:T(8,128)S(1)} reduce(%square.282, %constant.398.clone.14), dimensions={0,3}, to_apply=%region_3.4, metadata={op_name="jit(train_step)/jvp()/while/body/closed_call/reduce_sum" stack_frame_id=0}
  ROOT %tuple.241 = (f32[128,8]{0,1:T(8,128)S(1)}, f32[1,128,8,128]{3,1,2,0:T(8,128)S(1)}) tuple(%reduce.206, %bitcast.256.clone.3)
}

%fused_computation.75.clone.1 (param_0.1813: f32[128,8]) -> f32[128,8] {
  %param_0.1813 = f32[128,8]{0,1:T(8,128)S(1)} parameter(0)
  %constant.402.clone.9 = f32[]{:T(128)} constant(0.0078125)
  %broadcast.988 = f32[128,8]{0,1:T(8,128)} broadcast(%constant.402.clone.9), dimensions={}, metadata={op_name="jit(train_step)/jvp()/while/body/closed_call/div" stack_frame_id=0}
  %div.1031 = f32[128,8]{0,1:T(8,128)} multiply(%param_0.1813, %broadcast.988), metadata={op_name="jit(train_step)/jvp()/while/body/closed_call/div" stack_frame_id=0}
  %constant.400.clone.14 = f32[]{:T(128)} constant(1e-06)
  %broadcast.987 = f32[128,8]{0,1:T(8,128)} broadcast(%constant.400.clone.14), dimensions={}, metadata={op_name="jit(train_step)/jvp()/while/body/closed_call/add" stack_frame_id=0}
  %add.1033 = f32[128,8]{0,1:T(8,128)} add(%div.1031, %broadcast.987), metadata={op_name="jit(train_step)/jvp()/while/body/closed_call/add" stack_frame_id=0}
  ROOT %rsqrt.223 = f32[128,8]{0,1:T(8,128)S(1)} rsqrt(%add.1033), metadata={op_name="jit(train_step)/jvp()/while/body/closed_call/rsqrt" stack_frame_id=0}
}

%fused_computation.65.clone.2 (param_0.1815: f32[1,128,8,128], param_1.1892: f32[128,8], param_2.1448: bf16[128]) -> bf16[1,128,8,128] {
  %param_0.1815 = f32[1,128,8,128]{3,1,2,0:T(8,128)S(1)} parameter(0)
  %param_1.1892 = f32[128,8]{0,1:T(8,128)S(1)} parameter(1)
  %mul.3012 = f32[1,128,8,128]{3,1,2,0:T(8,128)} broadcast(%param_1.1892), dimensions={1,2}, metadata={op_name="jit(train_step)/jvp()/while/body/closed_call/mul" stack_frame_id=0}
  %mul.3011 = f32[1,128,8,128]{3,1,2,0:T(8,128)} multiply(%param_0.1815, %mul.3012), metadata={op_name="jit(train_step)/jvp()/while/body/closed_call/mul" stack_frame_id=0}
  %convert_element_type.1495 = bf16[1,128,8,128]{3,1,2,0:T(8,128)(2,1)} convert(%mul.3011), metadata={op_name="jit(train_step)/jvp()/while/body/closed_call/convert_element_type" stack_frame_id=0}
  %convert.335 = f32[1,128,8,128]{3,1,2,0:T(8,128)} convert(%convert_element_type.1495)
  %param_2.1448 = bf16[128]{0:T(256)(128)(2,1)S(1)} parameter(2)
  %mul.3013 = bf16[1,128,8,128]{3,1,2,0:T(8,128)(2,1)} broadcast(%param_2.1448), dimensions={3}, metadata={op_name="jit(train_step)/jvp()/while/body/closed_call/mul" stack_frame_id=0}
  %convert.336 = f32[1,128,8,128]{3,1,2,0:T(8,128)} convert(%mul.3013)
  %mul.3010 = f32[1,128,8,128]{3,1,2,0:T(8,128)} multiply(%convert.335, %convert.336), metadata={op_name="jit(train_step)/jvp()/while/body/closed_call/mul" stack_frame_id=0}, backend_config={"flag_configs":[],"scoped_memory_configs":[],"used_scoped_memory_configs":[],"float_type_correction_info":{"original_type":"BF16","original_shape":{"element_type":"BF16","dimensions":["1","128","8","128"],"tuple_shapes":[],"layout":{"minor_to_major":["3","1","2","0"],"tiles":[{"dimensions":["8","128"]},{"dimensions":["2","1"]}],"element_size_in_bits":"0","memory_space":"0","dim_level_types":[],"index_primitive_type":"PRIMITIVE_TYPE_INVALID","pointer_primitive_type":"PRIMITIVE_TYPE_INVALID","dim_unique":[],"dim_ordered":[],"dynamic_shape_metadata_prefix_bytes":"0","tail_padding_alignment_in_elements":"1","split_configs":[]},"is_dynamic_dimension":[false,false,false,false]}}}
  ROOT %convert.337 = bf16[1,128,8,128]{3,1,2,0:T(8,128)(2,1)S(1)} convert(%mul.3010)
}

%fused_computation.66.clone.1 (param_0.1816: bf16[1,128,8,128]) -> (bf16[1,128,8,64], bf16[1,128,8,64]) {
  %param_0.1816 = bf16[1,128,8,128]{3,1,2,0:T(8,128)(2,1)S(1)} parameter(0)
  %slice.80 = bf16[1,128,8,64]{3,1,2,0:T(8,128)(2,1)} slice(%param_0.1816), slice={[0:1], [0:128], [0:8], [64:128]}, metadata={op_name="jit(train_step)/jvp()/while/body/closed_call/split" stack_frame_id=0}
  %convert.338 = f32[1,128,8,64]{3,1,2,0:T(8,128)} convert(%slice.80)
  %neg.133 = f32[1,128,8,64]{3,1,2,0:T(8,128)} negate(%convert.338), metadata={op_name="jit(train_step)/jvp()/while/body/closed_call/neg" stack_frame_id=0}, backend_config={"flag_configs":[],"scoped_memory_configs":[],"used_scoped_memory_configs":[],"float_type_correction_info":{"original_type":"BF16","original_shape":{"element_type":"BF16","dimensions":["1","128","8","64"],"tuple_shapes":[],"layout":{"minor_to_major":["3","1","2","0"],"tiles":[{"dimensions":["8","128"]},{"dimensions":["2","1"]}],"element_size_in_bits":"0","memory_space":"0","dim_level_types":[],"index_primitive_type":"PRIMITIVE_TYPE_INVALID","pointer_primitive_type":"PRIMITIVE_TYPE_INVALID","dim_unique":[],"dim_ordered":[],"dynamic_shape_metadata_prefix_bytes":"0","tail_padding_alignment_in_elements":"1","split_configs":[]},"is_dynamic_dimension":[false,false,false,false]}}}
  %convert.339 = bf16[1,128,8,64]{3,1,2,0:T(8,128)(2,1)S(1)} convert(%neg.133)
  %slice.81 = bf16[1,128,8,64]{3,1,2,0:T(8,128)(2,1)S(1)} slice(%param_0.1816), slice={[0:1], [0:128], [0:8], [0:64]}, metadata={op_name="jit(train_step)/jvp()/while/body/closed_call/split" stack_frame_id=0}
  ROOT %tuple.243 = (bf16[1,128,8,64]{3,1,2,0:T(8,128)(2,1)S(1)}, bf16[1,128,8,64]{3,1,2,0:T(8,128)(2,1)S(1)}) tuple(%convert.339, %slice.81)
}

%fused_computation.69.clone.1 (param_0.1817: bf16[1,128,8,64], param_1.1893: bf16[1,128,8,64], param_2.1449: bf16[128,128], param_3.953: bf16[128,128], param_4.566: bf16[128], param_5.490: f32[1,128,8,128], param_6.339: f32[128,8]) -> bf16[8,128,128] {
  %param_5.490 = f32[1,128,8,128]{3,1,2,0:T(8,128)S(1)} parameter(5)
  %param_6.339 = f32[128,8]{0,1:T(8,128)S(1)} parameter(6)
  %mul.3021 = f32[1,128,8,128]{3,1,2,0:T(8,128)} broadcast(%param_6.339), dimensions={1,2}, metadata={op_name="jit(train_step)/jvp()/while/body/closed_call/mul" stack_frame_id=0}
  %mul.3020 = f32[1,128,8,128]{3,1,2,0:T(8,128)} multiply(%param_5.490, %mul.3021), metadata={op_name="jit(train_step)/jvp()/while/body/closed_call/mul" stack_frame_id=0}
  %convert_element_type.1496 = bf16[1,128,8,128]{3,1,2,0:T(8,128)(2,1)} convert(%mul.3020), metadata={op_name="jit(train_step)/jvp()/while/body/closed_call/convert_element_type" stack_frame_id=0}
  %convert.340 = f32[1,128,8,128]{3,1,2,0:T(8,128)} convert(%convert_element_type.1496)
  %param_4.566 = bf16[128]{0:T(256)(128)(2,1)S(1)} parameter(4)
  %mul.3019 = bf16[1,128,8,128]{3,1,2,0:T(8,128)(2,1)} broadcast(%param_4.566), dimensions={3}, metadata={op_name="jit(train_step)/jvp()/while/body/closed_call/mul" stack_frame_id=0}
  %convert.341 = f32[1,128,8,128]{3,1,2,0:T(8,128)} convert(%mul.3019)
  %mul.3018 = f32[1,128,8,128]{3,1,2,0:T(8,128)} multiply(%convert.340, %convert.341), metadata={op_name="jit(train_step)/jvp()/while/body/closed_call/mul" stack_frame_id=0}, backend_config={"flag_configs":[],"scoped_memory_configs":[],"used_scoped_memory_configs":[],"float_type_correction_info":{"original_type":"BF16","original_shape":{"element_type":"BF16","dimensions":["1","128","8","128"],"tuple_shapes":[],"layout":{"minor_to_major":["3","1","2","0"],"tiles":[{"dimensions":["8","128"]},{"dimensions":["2","1"]}],"element_size_in_bits":"0","memory_space":"0","dim_level_types":[],"index_primitive_type":"PRIMITIVE_TYPE_INVALID","pointer_primitive_type":"PRIMITIVE_TYPE_INVALID","dim_unique":[],"dim_ordered":[],"dynamic_shape_metadata_prefix_bytes":"0","tail_padding_alignment_in_elements":"1","split_configs":[]},"is_dynamic_dimension":[false,false,false,false]}}}
  %param_3.953 = bf16[128,128]{1,0:T(8,128)(2,1)S(1)} parameter(3)
  %mul.3017 = bf16[1,128,8,128]{3,1,2,0:T(8,128)(2,1)} broadcast(%param_3.953), dimensions={1,3}, metadata={op_name="jit(train_step)/jvp()/while/body/closed_call/mul" stack_frame_id=0}
  %convert.342 = f32[1,128,8,128]{3,1,2,0:T(8,128)} convert(%mul.3017)
  %mul.3015 = f32[1,128,8,128]{3,1,2,0:T(8,128)} multiply(%mul.3018, %convert.342), metadata={op_name="jit(train_step)/jvp()/while/body/closed_call/mul" stack_frame_id=0}, backend_config={"flag_configs":[],"scoped_memory_configs":[],"used_scoped_memory_configs":[],"float_type_correction_info":{"original_type":"BF16","original_shape":{"element_type":"BF16","dimensions":["1","128","8","128"],"tuple_shapes":[],"layout":{"minor_to_major":["3","1","2","0"],"tiles":[{"dimensions":["8","128"]},{"dimensions":["2","1"]}],"element_size_in_bits":"0","memory_space":"0","dim_level_types":[],"index_primitive_type":"PRIMITIVE_TYPE_INVALID","pointer_primitive_type":"PRIMITIVE_TYPE_INVALID","dim_unique":[],"dim_ordered":[],"dynamic_shape_metadata_prefix_bytes":"0","tail_padding_alignment_in_elements":"1","split_configs":[]},"is_dynamic_dimension":[false,false,false,false]}}}
  %param_1.1893 = bf16[1,128,8,64]{3,1,2,0:T(8,128)(2,1)S(1)} parameter(1)
  %constant.1113 = bf16[]{:T(256)} constant(-inf)
  %pad.83 = bf16[1,128,8,128]{3,1,2,0:T(8,128)(2,1)} pad(%param_1.1893, %constant.1113), padding=0_0x0_0x0_0x0_64, metadata={op_name="jit(train_step)/jvp()/while/body/closed_call/concatenate" stack_frame_id=0}
  %convert.343 = f32[1,128,8,128]{3,1,2,0:T(8,128)} convert(%pad.83)
  %param_0.1817 = bf16[1,128,8,64]{3,1,2,0:T(8,128)(2,1)S(1)} parameter(0)
  %pad.82 = bf16[1,128,8,128]{3,1,2,0:T(8,128)(2,1)} pad(%param_0.1817, %constant.1113), padding=0_0x0_0x0_0x64_0, metadata={op_name="jit(train_step)/jvp()/while/body/closed_call/concatenate" stack_frame_id=0}
  %convert.344 = f32[1,128,8,128]{3,1,2,0:T(8,128)} convert(%pad.82)
  %maximum.60 = f32[1,128,8,128]{3,1,2,0:T(8,128)} maximum(%convert.343, %convert.344), metadata={op_name="jit(train_step)/jvp()/while/body/closed_call/concatenate" stack_frame_id=0}, backend_config={"flag_configs":[],"scoped_memory_configs":[],"used_scoped_memory_configs":[],"float_type_correction_info":{"original_type":"BF16","original_shape":{"element_type":"BF16","dimensions":["1","128","8","128"],"tuple_shapes":[],"layout":{"minor_to_major":["3","1","2","0"],"tiles":[{"dimensions":["8","128"]},{"dimensions":["2","1"]}],"element_size_in_bits":"0","memory_space":"0","dim_level_types":[],"index_primitive_type":"PRIMITIVE_TYPE_INVALID","pointer_primitive_type":"PRIMITIVE_TYPE_INVALID","dim_unique":[],"dim_ordered":[],"dynamic_shape_metadata_prefix_bytes":"0","tail_padding_alignment_in_elements":"1","split_configs":[]},"is_dynamic_dimension":[false,false,false,false]}}}
  %param_2.1449 = bf16[128,128]{1,0:T(8,128)(2,1)S(1)} parameter(2)
  %mul.3016 = bf16[1,128,8,128]{3,1,2,0:T(8,128)(2,1)} broadcast(%param_2.1449), dimensions={1,3}, metadata={op_name="jit(train_step)/jvp()/while/body/closed_call/mul" stack_frame_id=0}
  %convert.345 = f32[1,128,8,128]{3,1,2,0:T(8,128)} convert(%mul.3016)
  %mul.3014 = f32[1,128,8,128]{3,1,2,0:T(8,128)} multiply(%maximum.60, %convert.345), metadata={op_name="jit(train_step)/jvp()/while/body/closed_call/mul" stack_frame_id=0}, backend_config={"flag_configs":[],"scoped_memory_configs":[],"used_scoped_memory_configs":[],"float_type_correction_info":{"original_type":"BF16","original_shape":{"element_type":"BF16","dimensions":["1","128","8","128"],"tuple_shapes":[],"layout":{"minor_to_major":["3","1","2","0"],"tiles":[{"dimensions":["8","128"]},{"dimensions":["2","1"]}],"element_size_in_bits":"0","memory_space":"0","dim_level_types":[],"index_primitive_type":"PRIMITIVE_TYPE_INVALID","pointer_primitive_type":"PRIMITIVE_TYPE_INVALID","dim_unique":[],"dim_ordered":[],"dynamic_shape_metadata_prefix_bytes":"0","tail_padding_alignment_in_elements":"1","split_configs":[]},"is_dynamic_dimension":[false,false,false,false]}}}
  %add.1034 = f32[1,128,8,128]{3,1,2,0:T(8,128)} add(%mul.3015, %mul.3014), metadata={op_name="jit(train_step)/jvp()/while/body/closed_call/add" stack_frame_id=0}, backend_config={"flag_configs":[],"scoped_memory_configs":[],"used_scoped_memory_configs":[],"float_type_correction_info":{"original_type":"BF16","original_shape":{"element_type":"BF16","dimensions":["1","128","8","128"],"tuple_shapes":[],"layout":{"minor_to_major":["3","1","2","0"],"tiles":[{"dimensions":["8","128"]},{"dimensions":["2","1"]}],"element_size_in_bits":"0","memory_space":"0","dim_level_types":[],"index_primitive_type":"PRIMITIVE_TYPE_INVALID","pointer_primitive_type":"PRIMITIVE_TYPE_INVALID","dim_unique":[],"dim_ordered":[],"dynamic_shape_metadata_prefix_bytes":"0","tail_padding_alignment_in_elements":"1","split_configs":[]},"is_dynamic_dimension":[false,false,false,false]}}}
  %convert.346 = bf16[1,128,8,128]{3,1,2,0:T(8,128)(2,1)} convert(%add.1034)
  ROOT %bitcast.1018 = bf16[8,128,128]{2,1,0:T(8,128)(2,1)S(1)} bitcast(%convert.346), metadata={op_name="jit(train_step)/jvp()/while/body/closed_call/shard_map/vmap(static_sparsity_splash)/jit(_splash_attention)/splash_mha_fwd_segmented_residuals/splash_mha_fwd_segmented_residuals/squeeze" stack_frame_id=0}
}

%fused_computation.28.clone.1 (param_0.1805: bf16[4,512,8,128], param_1.1885: s32[]) -> bf16[1,512,8,128] {
  %param_0.1805 = bf16[4,512,8,128]{3,1,2,0:T(8,128)(2,1)} parameter(0)
  %param_1.1885 = s32[]{:T(128)S(6)} parameter(1)
  %constant.401.clone.37 = s32[]{:T(128)} constant(0)
  ROOT %dynamic-slice.207 = bf16[1,512,8,128]{3,1,2,0:T(8,128)(2,1)S(1)} dynamic-slice(%param_0.1805, %param_1.1885, %constant.401.clone.37, %constant.401.clone.37, %constant.401.clone.37), dynamic_slice_sizes={1,512,8,128}, metadata={op_name="jit(train_step)/jvp()/while/body/jit(dynamic_index_in_dim)/dynamic_slice" stack_frame_id=0}, backend_config={"flag_configs":[],"scoped_memory_configs":[],"indices_config":{"index_known_bits":[{"zeroes":"4294967292","ones":"0","bitwidth":"32"},{"zeroes":"4294967295","ones":"0","bitwidth":"32"},{"zeroes":"4294967295","ones":"0","bitwidth":"32"},{"zeroes":"4294967295","ones":"0","bitwidth":"32"}],"is_index_aligned":[]},"used_scoped_memory_configs":[]}
}

%fused_computation.53.clone.clone.1 (param_0.1807: bf16[1,128,2048], param_1.1886: f32[128], param_2.1443: bf16[2048]) -> bf16[128,2048,1] {
  %param_0.1807 = bf16[1,128,2048]{2,1,0:T(8,128)(2,1)S(1)} parameter(0)
  %convert_element_type.1492 = f32[1,128,2048]{2,1,0:T(8,128)} convert(%param_0.1807), metadata={op_name="jit(train_step)/jvp()/while/body/closed_call/convert_element_type" stack_frame_id=0}
  %param_1.1886 = f32[128]{0:T(128)S(1)} parameter(1)
  %mul.3004 = f32[1,128,2048]{2,1,0:T(8,128)} broadcast(%param_1.1886), dimensions={1}, metadata={op_name="jit(train_step)/jvp()/while/body/closed_call/mul" stack_frame_id=0}
  %mul.3003 = f32[1,128,2048]{2,1,0:T(8,128)} multiply(%convert_element_type.1492, %mul.3004), metadata={op_name="jit(train_step)/jvp()/while/body/closed_call/mul" stack_frame_id=0}
  %convert_element_type.1491 = bf16[1,128,2048]{2,1,0:T(8,128)(2,1)} convert(%mul.3003), metadata={op_name="jit(train_step)/jvp()/while/body/closed_call/convert_element_type" stack_frame_id=0}
  %convert.303 = f32[1,128,2048]{2,1,0:T(8,128)} convert(%convert_element_type.1491)
  %param_2.1443 = bf16[2048]{0:T(1024)(128)(2,1)S(1)} parameter(2)
  %mul.3005 = bf16[1,128,2048]{2,1,0:T(8,128)(2,1)} broadcast(%param_2.1443), dimensions={2}, metadata={op_name="jit(train_step)/jvp()/while/body/closed_call/mul" stack_frame_id=0}
  %convert.304 = f32[1,128,2048]{2,1,0:T(8,128)} convert(%mul.3005)
  %mul.3002 = f32[1,128,2048]{2,1,0:T(8,128)} multiply(%convert.303, %convert.304), metadata={op_name="jit(train_step)/jvp()/while/body/closed_call/mul" stack_frame_id=0}, backend_config={"flag_configs":[],"scoped_memory_configs":[],"used_scoped_memory_configs":[],"float_type_correction_info":{"original_type":"BF16","original_shape":{"element_type":"BF16","dimensions":["1","128","2048"],"tuple_shapes":[],"layout":{"minor_to_major":["2","1","0"],"tiles":[{"dimensions":["8","128"]},{"dimensions":["2","1"]}],"element_size_in_bits":"0","memory_space":"0","dim_level_types":[],"index_primitive_type":"PRIMITIVE_TYPE_INVALID","pointer_primitive_type":"PRIMITIVE_TYPE_INVALID","dim_unique":[],"dim_ordered":[],"dynamic_shape_metadata_prefix_bytes":"0","tail_padding_alignment_in_elements":"1","split_configs":[]},"is_dynamic_dimension":[false,false,false]}}}
  %convert.305 = bf16[1,128,2048]{2,1,0:T(8,128)(2,1)} convert(%mul.3002)
  ROOT %bitcast.1013 = bf16[128,2048,1]{1,0,2:T(8,128)(2,1)} bitcast(%convert.305)
}

%fused_computation.19.clone.clone.clone.1 (param_0.1806: bf16[1,2048,8,128]) -> bf16[2048,8,128] {
  %param_0.1806 = bf16[1,2048,8,128]{3,1,2,0:T(8,128)(2,1)S(1)} parameter(0)
  ROOT %bitcast.1012 = bf16[2048,8,128]{2,0,1:T(8,128)(2,1)} bitcast(%param_0.1806), metadata={op_name="jit(train_step)/jvp()/while/body/closed_call/dot_general" stack_frame_id=0}
}

%fused_computation.48.clone.1 (param_0.1808: bf16[1,2048,8,128], param_1.1887: bf16[1,128,2048], param_2.1444: f32[128], param_3.951: bf16[2048]) -> bf16[8,128,128] {
  %param_1.1887 = bf16[1,128,2048]{2,1,0:T(8,128)(2,1)S(1)} parameter(1)
  %param_2.1444 = f32[128]{0:T(128)S(1)} parameter(2)
  %param_3.951 = bf16[2048]{0:T(1024)(128)(2,1)S(1)} parameter(3)
  %fusion.509 = bf16[128,2048,1]{1,0,2:T(8,128)(2,1)} fusion(%param_1.1887, %param_2.1444, %param_3.951), kind=kLoop, calls=%fused_computation.53.clone.clone.1
  %param_0.1808 = bf16[1,2048,8,128]{3,1,2,0:T(8,128)(2,1)S(1)} parameter(0)
  %fusion.508 = bf16[2048,8,128]{2,0,1:T(8,128)(2,1)} fusion(%param_0.1808), kind=kLoop, calls=%fused_computation.19.clone.clone.clone.1, metadata={op_name="jit(train_step)/jvp()/while/body/closed_call/dot_general" stack_frame_id=0}
  %convolution.148 = bf16[128,8,128]{2,0,1:T(8,128)(2,1)} convolution(%fusion.509, %fusion.508), window={size=8 pad=7_7 rhs_reversal=1}, dim_labels=bf0_i0o->b0f, metadata={op_name="jit(train_step)/jvp()/while/body/closed_call/dot_general" stack_frame_id=0}
  ROOT %bitcast.1014 = bf16[8,128,128]{2,1,0:T(8,128)(2,1)S(1)} bitcast(%convolution.148), metadata={op_name="jit(train_step)/jvp()/while/body/closed_call/shard_map/vmap(static_sparsity_splash)/jit(_splash_attention)/splash_mha_fwd_segmented_residuals/splash_mha_fwd_segmented_residuals/squeeze" stack_frame_id=0}
}

%fused_computation.59.clone.clone.clone.1 (param_0.1828: bf16[16,128,128]) -> bf16[128,16,128] {
  %param_0.1828 = bf16[16,128,128]{2,1,0:T(8,128)(2,1)S(1)} parameter(0)
  ROOT %bitcast.1026 = bf16[128,16,128]{2,0,1:T(8,128)(2,1)} bitcast(%param_0.1828)
}

%fused_computation.15.clone.clone.clone.clone.clone.clone.clone.1 (param_0.1827: bf16[1,16,128,2048]) -> bf16[16,128,2048] {
  %param_0.1827 = bf16[1,16,128,2048]{3,2,1,0:T(8,128)(2,1)S(1)} parameter(0)
  ROOT %bitcast.1025 = bf16[16,128,2048]{2,1,0:T(8,128)(2,1)} bitcast(%param_0.1827), metadata={op_name="jit(train_step)/jvp()/while/body/closed_call/dot_general" stack_frame_id=0}
}

%region_4.6 (reduce_sum.215: f32[], reduce_sum.216: f32[]) -> f32[] {
  %reduce_sum.215 = f32[]{:T(128)} parameter(0), metadata={op_name="jit(train_step)/jvp()/while/body/closed_call/reduce_sum"}
  %reduce_sum.216 = f32[]{:T(128)} parameter(1), metadata={op_name="jit(train_step)/jvp()/while/body/closed_call/reduce_sum"}
  ROOT %reduce_sum.220 = f32[]{:T(128)} add(%reduce_sum.215, %reduce_sum.216), metadata={op_name="reduce_sum" stack_frame_id=0}, backend_config={"flag_configs":[],"scoped_memory_configs":[],"used_scoped_memory_configs":[],"aliasing_operands":{"lists":[]}}
}

%fused_computation.40.clone.1 (param_0.1829: bf16[1,128,2048], param_1.1900: bf16[1,16,128,2048], param_2.1454: bf16[16,128,128]) -> (f32[128], bf16[1,128,2048]) {
  %param_0.1829 = bf16[1,128,2048]{2,1,0:T(8,128)(2,1)S(1)} parameter(0)
  %convert.347 = f32[1,128,2048]{2,1,0:T(8,128)} convert(%param_0.1829)
  %param_2.1454 = bf16[16,128,128]{2,1,0:T(8,128)(2,1)S(1)} parameter(2)
  %fusion.79.clone.3 = bf16[128,16,128]{2,0,1:T(8,128)(2,1)} fusion(%param_2.1454), kind=kLoop, calls=%fused_computation.59.clone.clone.clone.1
  %param_1.1900 = bf16[1,16,128,2048]{3,2,1,0:T(8,128)(2,1)S(1)} parameter(1)
  %fusion.47.clone.3 = bf16[16,128,2048]{2,1,0:T(8,128)(2,1)} fusion(%param_1.1900), kind=kLoop, calls=%fused_computation.15.clone.clone.clone.clone.clone.clone.clone.1, metadata={op_name="jit(train_step)/jvp()/while/body/closed_call/dot_general" stack_frame_id=0}
  %convolution.50.clone.3 = bf16[128,2048,1]{1,0,2:T(8,128)(2,1)} convolution(%fusion.79.clone.3, %fusion.47.clone.3), window={size=16}, dim_labels=b0f_0io->bf0, metadata={op_name="jit(train_step)/jvp()/while/body/closed_call/dot_general" stack_frame_id=0}
  %bitcast.236.clone.3 = bf16[1,128,2048]{2,1,0:T(8,128)(2,1)} bitcast(%convolution.50.clone.3), metadata={op_name="jit(train_step)/jvp()/while/body/closed_call/dot_general" stack_frame_id=0}
  %convert.348 = f32[1,128,2048]{2,1,0:T(8,128)} convert(%bitcast.236.clone.3)
  %add.768.clone.3 = f32[1,128,2048]{2,1,0:T(8,128)} add(%convert.347, %convert.348), metadata={op_name="jit(train_step)/jvp()/while/body/closed_call/add" stack_frame_id=0}, backend_config={"flag_configs":[],"scoped_memory_configs":[],"used_scoped_memory_configs":[],"float_type_correction_info":{"original_type":"BF16","original_shape":{"element_type":"BF16","dimensions":["1","128","2048"],"tuple_shapes":[],"layout":{"minor_to_major":["2","1","0"],"tiles":[{"dimensions":["8","128"]},{"dimensions":["2","1"]}],"element_size_in_bits":"0","memory_space":"0","dim_level_types":[],"index_primitive_type":"PRIMITIVE_TYPE_INVALID","pointer_primitive_type":"PRIMITIVE_TYPE_INVALID","dim_unique":[],"dim_ordered":[],"dynamic_shape_metadata_prefix_bytes":"0","tail_padding_alignment_in_elements":"1","split_configs":[]},"is_dynamic_dimension":[false,false,false]}}}
  %convert_element_type.1504 = f32[1,128,2048]{2,1,0:T(8,128)} convert(%add.768.clone.3), metadata={op_name="jit(train_step)/jvp()/while/body/closed_call/convert_element_type" stack_frame_id=0}
  %square.284 = f32[1,128,2048]{2,1,0:T(8,128)} multiply(%convert_element_type.1504, %convert_element_type.1504), metadata={op_name="jit(train_step)/jvp()/while/body/closed_call/square" stack_frame_id=0}
  %constant.398.clone.16 = f32[]{:T(128)} constant(0)
  %reduce.208 = f32[128]{0:T(128)S(1)} reduce(%square.284, %constant.398.clone.16), dimensions={0,2}, to_apply=%region_4.6, metadata={op_name="jit(train_step)/jvp()/while/body/closed_call/reduce_sum" stack_frame_id=0}
  %convert.349 = bf16[1,128,2048]{2,1,0:T(8,128)(2,1)S(1)} convert(%add.768.clone.3)
  ROOT %tuple.246 = (f32[128]{0:T(128)S(1)}, bf16[1,128,2048]{2,1,0:T(8,128)(2,1)S(1)}) tuple(%reduce.208, %convert.349)
}

%fused_computation.11.clone.1 (param_0.1836: bf16[4,6144,512], param_1.1905: s32[]) -> bf16[1,6144,512] {
  %param_0.1836 = bf16[4,6144,512]{2,1,0:T(8,128)(2,1)} parameter(0)
  %param_1.1905 = s32[]{:T(128)S(6)} parameter(1)
  %constant.401.clone.44 = s32[]{:T(128)} constant(0)
  ROOT %dynamic-slice.213 = bf16[1,6144,512]{2,1,0:T(8,128)(2,1)S(1)} dynamic-slice(%param_0.1836, %param_1.1905, %constant.401.clone.44, %constant.401.clone.44), dynamic_slice_sizes={1,6144,512}, metadata={op_name="jit(train_step)/jvp()/while/body/jit(dynamic_index_in_dim)/dynamic_slice" stack_frame_id=0}, backend_config={"flag_configs":[],"scoped_memory_configs":[],"indices_config":{"index_known_bits":[{"zeroes":"4294967292","ones":"0","bitwidth":"32"},{"zeroes":"4294967295","ones":"0","bitwidth":"32"},{"zeroes":"4294967295","ones":"0","bitwidth":"32"}],"is_index_aligned":[]},"used_scoped_memory_configs":[]}
}

%fused_computation.12.clone.1 (param_0.1835: bf16[4,512,6144], param_1.1904: s32[]) -> bf16[1,512,6144] {
  %param_0.1835 = bf16[4,512,6144]{2,1,0:T(8,128)(2,1)} parameter(0)
  %param_1.1904 = s32[]{:T(128)S(6)} parameter(1)
  %constant.401.clone.43 = s32[]{:T(128)} constant(0)
  ROOT %dynamic-slice.212 = bf16[1,512,6144]{2,1,0:T(8,128)(2,1)S(1)} dynamic-slice(%param_0.1835, %param_1.1904, %constant.401.clone.43, %constant.401.clone.43), dynamic_slice_sizes={1,512,6144}, metadata={op_name="jit(train_step)/jvp()/while/body/jit(dynamic_index_in_dim)/dynamic_slice" stack_frame_id=0}, backend_config={"flag_configs":[],"scoped_memory_configs":[],"indices_config":{"index_known_bits":[{"zeroes":"4294967292","ones":"0","bitwidth":"32"},{"zeroes":"4294967295","ones":"0","bitwidth":"32"},{"zeroes":"4294967295","ones":"0","bitwidth":"32"}],"is_index_aligned":[]},"used_scoped_memory_configs":[]}
}

%fused_computation.13.clone.1 (param_0.1831: bf16[4,512,6144], param_1.1901: s32[]) -> bf16[1,512,6144] {
  %param_0.1831 = bf16[4,512,6144]{2,1,0:T(8,128)(2,1)} parameter(0)
  %param_1.1901 = s32[]{:T(128)S(6)} parameter(1)
  %constant.401.clone.42 = s32[]{:T(128)} constant(0)
  ROOT %dynamic-slice.211 = bf16[1,512,6144]{2,1,0:T(8,128)(2,1)S(1)} dynamic-slice(%param_0.1831, %param_1.1901, %constant.401.clone.42, %constant.401.clone.42), dynamic_slice_sizes={1,512,6144}, metadata={op_name="jit(train_step)/jvp()/while/body/jit(dynamic_index_in_dim)/dynamic_slice" stack_frame_id=0}, backend_config={"flag_configs":[],"scoped_memory_configs":[],"indices_config":{"index_known_bits":[{"zeroes":"4294967292","ones":"0","bitwidth":"32"},{"zeroes":"4294967295","ones":"0","bitwidth":"32"},{"zeroes":"4294967295","ones":"0","bitwidth":"32"}],"is_index_aligned":[]},"used_scoped_memory_configs":[]}
}

%fused_computation.82.clone.1 (param_0.1830: f32[128]) -> f32[128] {
  %param_0.1830 = f32[128]{0:T(128)S(1)} parameter(0)
  %constant.399.clone.10 = f32[]{:T(128)} constant(0.00048828125)
  %broadcast.992 = f32[128]{0:T(128)} broadcast(%constant.399.clone.10), dimensions={}, metadata={op_name="jit(train_step)/jvp()/while/body/closed_call" stack_frame_id=0}
  %div.1033 = f32[128]{0:T(128)} multiply(%param_0.1830, %broadcast.992), metadata={op_name="jit(train_step)/jvp()/while/body/closed_call/div" stack_frame_id=0}
  %constant.400.clone.16 = f32[]{:T(128)} constant(1e-06)
  %broadcast.991 = f32[128]{0:T(128)} broadcast(%constant.400.clone.16), dimensions={}, metadata={op_name="jit(train_step)/jvp()/while/body/closed_call" stack_frame_id=0}
  %add.1037 = f32[128]{0:T(128)} add(%div.1033, %broadcast.991), metadata={op_name="jit(train_step)/jvp()/while/body/closed_call/add" stack_frame_id=0}
  ROOT %rsqrt.225 = f32[128]{0:T(128)S(1)} rsqrt(%add.1037), metadata={op_name="jit(train_step)/jvp()/while/body/closed_call/rsqrt" stack_frame_id=0}
}

%fused_computation.51.clone.1.clone.1 (param_0.1833: bf16[1,128,2048], param_1.1902: f32[128], param_2.1455: bf16[2048]) -> bf16[128,2048] {
  %param_0.1833 = bf16[1,128,2048]{2,1,0:T(8,128)(2,1)S(1)} parameter(0)
  %convert_element_type.1506 = f32[1,128,2048]{2,1,0:T(8,128)} convert(%param_0.1833), metadata={op_name="jit(train_step)/jvp()/while/body/closed_call/convert_element_type" stack_frame_id=0}
  %param_1.1902 = f32[128]{0:T(128)S(1)} parameter(1)
  %mul.3042 = f32[1,128,2048]{2,1,0:T(8,128)} broadcast(%param_1.1902), dimensions={1}, metadata={op_name="jit(train_step)/jvp()/while/body/closed_call/mul" stack_frame_id=0}
  %mul.3041 = f32[1,128,2048]{2,1,0:T(8,128)} multiply(%convert_element_type.1506, %mul.3042), metadata={op_name="jit(train_step)/jvp()/while/body/closed_call/mul" stack_frame_id=0}
  %convert_element_type.1505 = bf16[1,128,2048]{2,1,0:T(8,128)(2,1)} convert(%mul.3041), metadata={op_name="jit(train_step)/jvp()/while/body/closed_call/convert_element_type" stack_frame_id=0}
  %convert.312 = f32[1,128,2048]{2,1,0:T(8,128)} convert(%convert_element_type.1505)
  %param_2.1455 = bf16[2048]{0:T(1024)(128)(2,1)S(1)} parameter(2)
  %mul.3043 = bf16[1,128,2048]{2,1,0:T(8,128)(2,1)} broadcast(%param_2.1455), dimensions={2}, metadata={op_name="jit(train_step)/jvp()/while/body/closed_call/mul" stack_frame_id=0}
  %convert.313 = f32[1,128,2048]{2,1,0:T(8,128)} convert(%mul.3043)
  %mul.3040 = f32[1,128,2048]{2,1,0:T(8,128)} multiply(%convert.312, %convert.313), metadata={op_name="jit(train_step)/jvp()/while/body/closed_call/mul" stack_frame_id=0}, backend_config={"flag_configs":[],"scoped_memory_configs":[],"used_scoped_memory_configs":[],"float_type_correction_info":{"original_type":"BF16","original_shape":{"element_type":"BF16","dimensions":["1","128","2048"],"tuple_shapes":[],"layout":{"minor_to_major":["2","1","0"],"tiles":[{"dimensions":["8","128"]},{"dimensions":["2","1"]}],"element_size_in_bits":"0","memory_space":"0","dim_level_types":[],"index_primitive_type":"PRIMITIVE_TYPE_INVALID","pointer_primitive_type":"PRIMITIVE_TYPE_INVALID","dim_unique":[],"dim_ordered":[],"dynamic_shape_metadata_prefix_bytes":"0","tail_padding_alignment_in_elements":"1","split_configs":[]},"is_dynamic_dimension":[false,false,false]}}}
  %convert.314 = bf16[1,128,2048]{2,1,0:T(8,128)(2,1)} convert(%mul.3040)
  ROOT %bitcast.1028 = bf16[128,2048]{1,0:T(8,128)(2,1)} bitcast(%convert.314)
}

%fused_computation.10.clone.clone.clone.1 (param_0.1832: bf16[1,2048,6144]) -> bf16[2048,6144] {
  %param_0.1832 = bf16[1,2048,6144]{2,1,0:T(8,128)(2,1)S(1)} parameter(0)
  ROOT %bitcast.1027 = bf16[2048,6144]{1,0:T(8,128)(2,1)} bitcast(%param_0.1832), metadata={op_name="jit(train_step)/jvp()/while/body/closed_call/dot_general" stack_frame_id=0}
}

%fused_computation.24.clone.1 (param_0.1834: bf16[1,2048,6144], param_1.1903: bf16[1,128,2048], param_2.1456: f32[128], param_3.956: bf16[2048]) -> bf16[1,128,6144] {
  %param_1.1903 = bf16[1,128,2048]{2,1,0:T(8,128)(2,1)S(1)} parameter(1)
  %param_2.1456 = f32[128]{0:T(128)S(1)} parameter(2)
  %param_3.956 = bf16[2048]{0:T(1024)(128)(2,1)S(1)} parameter(3)
  %fusion.511 = bf16[128,2048]{1,0:T(8,128)(2,1)} fusion(%param_1.1903, %param_2.1456, %param_3.956), kind=kLoop, calls=%fused_computation.51.clone.1.clone.1
  %param_0.1834 = bf16[1,2048,6144]{2,1,0:T(8,128)(2,1)S(1)} parameter(0)
  %fusion.510 = bf16[2048,6144]{1,0:T(8,128)(2,1)} fusion(%param_0.1834), kind=kLoop, calls=%fused_computation.10.clone.clone.clone.1, metadata={op_name="jit(train_step)/jvp()/while/body/closed_call/dot_general" stack_frame_id=0}
  %convolution.149 = bf16[128,6144]{1,0:T(8,128)(2,1)} convolution(%fusion.511, %fusion.510), dim_labels=bf_io->bf, metadata={op_name="jit(train_step)/jvp()/while/body/closed_call/dot_general" stack_frame_id=0}
  ROOT %bitcast.1029 = bf16[1,128,6144]{2,1,0:T(8,128)(2,1)S(1)} bitcast(%convolution.149), metadata={op_name="jit(train_step)/jvp()/while/body/closed_call/dot_general" stack_frame_id=0}
}

%fused_computation.51.clone.clone.clone.1 (param_0.1839: bf16[1,128,2048], param_1.1906: f32[128], param_2.1457: bf16[2048]) -> bf16[128,2048] {
  %param_0.1839 = bf16[1,128,2048]{2,1,0:T(8,128)(2,1)S(1)} parameter(0)
  %convert_element_type.1508 = f32[1,128,2048]{2,1,0:T(8,128)} convert(%param_0.1839), metadata={op_name="jit(train_step)/jvp()/while/body/closed_call/convert_element_type" stack_frame_id=0}
  %param_1.1906 = f32[128]{0:T(128)S(1)} parameter(1)
  %mul.3046 = f32[1,128,2048]{2,1,0:T(8,128)} broadcast(%param_1.1906), dimensions={1}, metadata={op_name="jit(train_step)/jvp()/while/body/closed_call/mul" stack_frame_id=0}
  %mul.3045 = f32[1,128,2048]{2,1,0:T(8,128)} multiply(%convert_element_type.1508, %mul.3046), metadata={op_name="jit(train_step)/jvp()/while/body/closed_call/mul" stack_frame_id=0}
  %convert_element_type.1507 = bf16[1,128,2048]{2,1,0:T(8,128)(2,1)} convert(%mul.3045), metadata={op_name="jit(train_step)/jvp()/while/body/closed_call/convert_element_type" stack_frame_id=0}
  %convert.315 = f32[1,128,2048]{2,1,0:T(8,128)} convert(%convert_element_type.1507)
  %param_2.1457 = bf16[2048]{0:T(1024)(128)(2,1)S(1)} parameter(2)
  %mul.3047 = bf16[1,128,2048]{2,1,0:T(8,128)(2,1)} broadcast(%param_2.1457), dimensions={2}, metadata={op_name="jit(train_step)/jvp()/while/body/closed_call/mul" stack_frame_id=0}
  %convert.316 = f32[1,128,2048]{2,1,0:T(8,128)} convert(%mul.3047)
  %mul.3044 = f32[1,128,2048]{2,1,0:T(8,128)} multiply(%convert.315, %convert.316), metadata={op_name="jit(train_step)/jvp()/while/body/closed_call/mul" stack_frame_id=0}, backend_config={"flag_configs":[],"scoped_memory_configs":[],"used_scoped_memory_configs":[],"float_type_correction_info":{"original_type":"BF16","original_shape":{"element_type":"BF16","dimensions":["1","128","2048"],"tuple_shapes":[],"layout":{"minor_to_major":["2","1","0"],"tiles":[{"dimensions":["8","128"]},{"dimensions":["2","1"]}],"element_size_in_bits":"0","memory_space":"0","dim_level_types":[],"index_primitive_type":"PRIMITIVE_TYPE_INVALID","pointer_primitive_type":"PRIMITIVE_TYPE_INVALID","dim_unique":[],"dim_ordered":[],"dynamic_shape_metadata_prefix_bytes":"0","tail_padding_alignment_in_elements":"1","split_configs":[]},"is_dynamic_dimension":[false,false,false]}}}
  %convert.317 = bf16[1,128,2048]{2,1,0:T(8,128)(2,1)} convert(%mul.3044)
  ROOT %bitcast.1032 = bf16[128,2048]{1,0:T(8,128)(2,1)} bitcast(%convert.317)
}

%fused_computation.8.clone.clone.clone.clone.clone.clone.clone.clone.clone.1 (param_0.1838: bf16[1,2048,6144]) -> bf16[2048,6144] {
  %param_0.1838 = bf16[1,2048,6144]{2,1,0:T(8,128)(2,1)} parameter(0)
  ROOT %bitcast.1031 = bf16[2048,6144]{1,0:T(8,128)(2,1)} bitcast(%param_0.1838), metadata={op_name="jit(train_step)/jvp()/while/body/closed_call/dot_general" stack_frame_id=0}
}

%fused_computation.27.clone.clone.clone.1 (param_0.1840: bf16[1,2048,6144], param_1.1907: bf16[1,128,6144], param_2.1458: bf16[1,128,2048], param_3.957: f32[128], param_4.568: bf16[2048]) -> bf16[128,6144] {
  %param_1.1907 = bf16[1,128,6144]{2,1,0:T(8,128)(2,1)S(1)} parameter(1)
  %convert.318 = f32[1,128,6144]{2,1,0:T(8,128)} convert(%param_1.1907)
  %constant.404.clone.10 = bf16[]{:T(256)} constant(1)
  %jit_silu_.46 = bf16[1,128,6144]{2,1,0:T(8,128)(2,1)} broadcast(%constant.404.clone.10), dimensions={}, metadata={op_name="jit(train_step)/jvp()/while/body/closed_call/jit(silu)" stack_frame_id=0}
  %convert.319 = f32[1,128,6144]{2,1,0:T(8,128)} convert(%jit_silu_.46)
  %neg.135 = f32[1,128,6144]{2,1,0:T(8,128)} negate(%convert.318), metadata={op_name="jit(train_step)/jvp()/while/body/closed_call/jit(silu)/neg" stack_frame_id=0}, backend_config={"flag_configs":[],"scoped_memory_configs":[],"used_scoped_memory_configs":[],"float_type_correction_info":{"original_type":"BF16","original_shape":{"element_type":"BF16","dimensions":["1","128","6144"],"tuple_shapes":[],"layout":{"minor_to_major":["2","1","0"],"tiles":[{"dimensions":["8","128"]},{"dimensions":["2","1"]}],"element_size_in_bits":"0","memory_space":"0","dim_level_types":[],"index_primitive_type":"PRIMITIVE_TYPE_INVALID","pointer_primitive_type":"PRIMITIVE_TYPE_INVALID","dim_unique":[],"dim_ordered":[],"dynamic_shape_metadata_prefix_bytes":"0","tail_padding_alignment_in_elements":"1","split_configs":[]},"is_dynamic_dimension":[false,false,false]}}}
  %exp.79 = f32[1,128,6144]{2,1,0:T(8,128)} exponential(%neg.135), metadata={op_name="jit(train_step)/jvp()/while/body/closed_call/jit(silu)/exp" stack_frame_id=0}, backend_config={"flag_configs":[],"scoped_memory_configs":[],"used_scoped_memory_configs":[],"float_type_correction_info":{"original_type":"BF16","original_shape":{"element_type":"BF16","dimensions":["1","128","6144"],"tuple_shapes":[],"layout":{"minor_to_major":["2","1","0"],"tiles":[{"dimensions":["8","128"]},{"dimensions":["2","1"]}],"element_size_in_bits":"0","memory_space":"0","dim_level_types":[],"index_primitive_type":"PRIMITIVE_TYPE_INVALID","pointer_primitive_type":"PRIMITIVE_TYPE_INVALID","dim_unique":[],"dim_ordered":[],"dynamic_shape_metadata_prefix_bytes":"0","tail_padding_alignment_in_elements":"1","split_configs":[]},"is_dynamic_dimension":[false,false,false]}}}
  %add.1038 = f32[1,128,6144]{2,1,0:T(8,128)} add(%exp.79, %convert.319), metadata={op_name="jit(train_step)/jvp()/while/body/closed_call/jit(silu)/add" stack_frame_id=0}, backend_config={"flag_configs":[],"scoped_memory_configs":[],"used_scoped_memory_configs":[],"float_type_correction_info":{"original_type":"BF16","original_shape":{"element_type":"BF16","dimensions":["1","128","6144"],"tuple_shapes":[],"layout":{"minor_to_major":["2","1","0"],"tiles":[{"dimensions":["8","128"]},{"dimensions":["2","1"]}],"element_size_in_bits":"0","memory_space":"0","dim_level_types":[],"index_primitive_type":"PRIMITIVE_TYPE_INVALID","pointer_primitive_type":"PRIMITIVE_TYPE_INVALID","dim_unique":[],"dim_ordered":[],"dynamic_shape_metadata_prefix_bytes":"0","tail_padding_alignment_in_elements":"1","split_configs":[]},"is_dynamic_dimension":[false,false,false]}}}
  %div.1034 = f32[1,128,6144]{2,1,0:T(8,128)} divide(%convert.319, %add.1038), metadata={op_name="jit(train_step)/jvp()/while/body/closed_call/jit(silu)/div" stack_frame_id=0}, backend_config={"flag_configs":[],"scoped_memory_configs":[],"used_scoped_memory_configs":[],"float_type_correction_info":{"original_type":"BF16","original_shape":{"element_type":"BF16","dimensions":["1","128","6144"],"tuple_shapes":[],"layout":{"minor_to_major":["2","1","0"],"tiles":[{"dimensions":["8","128"]},{"dimensions":["2","1"]}],"element_size_in_bits":"0","memory_space":"0","dim_level_types":[],"index_primitive_type":"PRIMITIVE_TYPE_INVALID","pointer_primitive_type":"PRIMITIVE_TYPE_INVALID","dim_unique":[],"dim_ordered":[],"dynamic_shape_metadata_prefix_bytes":"0","tail_padding_alignment_in_elements":"1","split_configs":[]},"is_dynamic_dimension":[false,false,false]}}}
  %mul.3049 = f32[1,128,6144]{2,1,0:T(8,128)} multiply(%convert.318, %div.1034), metadata={op_name="jit(train_step)/jvp()/while/body/closed_call/jit(silu)/mul" stack_frame_id=0}, backend_config={"flag_configs":[],"scoped_memory_configs":[],"used_scoped_memory_configs":[],"float_type_correction_info":{"original_type":"BF16","original_shape":{"element_type":"BF16","dimensions":["1","128","6144"],"tuple_shapes":[],"layout":{"minor_to_major":["2","1","0"],"tiles":[{"dimensions":["8","128"]},{"dimensions":["2","1"]}],"element_size_in_bits":"0","memory_space":"0","dim_level_types":[],"index_primitive_type":"PRIMITIVE_TYPE_INVALID","pointer_primitive_type":"PRIMITIVE_TYPE_INVALID","dim_unique":[],"dim_ordered":[],"dynamic_shape_metadata_prefix_bytes":"0","tail_padding_alignment_in_elements":"1","split_configs":[]},"is_dynamic_dimension":[false,false,false]}}}
  %param_2.1458 = bf16[1,128,2048]{2,1,0:T(8,128)(2,1)S(1)} parameter(2)
  %param_3.957 = f32[128]{0:T(128)S(1)} parameter(3)
  %param_4.568 = bf16[2048]{0:T(1024)(128)(2,1)S(1)} parameter(4)
  %fusion.513 = bf16[128,2048]{1,0:T(8,128)(2,1)} fusion(%param_2.1458, %param_3.957, %param_4.568), kind=kLoop, calls=%fused_computation.51.clone.clone.clone.1
  %param_0.1840 = bf16[1,2048,6144]{2,1,0:T(8,128)(2,1)} parameter(0)
  %fusion.512 = bf16[2048,6144]{1,0:T(8,128)(2,1)} fusion(%param_0.1840), kind=kLoop, calls=%fused_computation.8.clone.clone.clone.clone.clone.clone.clone.clone.clone.1, metadata={op_name="jit(train_step)/jvp()/while/body/closed_call/dot_general" stack_frame_id=0}
  %convolution.150 = bf16[128,6144]{1,0:T(8,128)(2,1)} convolution(%fusion.513, %fusion.512), dim_labels=bf_io->bf, metadata={op_name="jit(train_step)/jvp()/while/body/closed_call/dot_general" stack_frame_id=0}
  %bitcast.1034 = bf16[1,128,6144]{2,1,0:T(8,128)(2,1)} bitcast(%convolution.150), metadata={op_name="jit(train_step)/jvp()/while/body/closed_call/dot_general" stack_frame_id=0}
  %convert.320 = f32[1,128,6144]{2,1,0:T(8,128)} convert(%bitcast.1034)
  %mul.3048 = f32[1,128,6144]{2,1,0:T(8,128)} multiply(%mul.3049, %convert.320), metadata={op_name="jit(train_step)/jvp()/while/body/closed_call/mul" stack_frame_id=0}, backend_config={"flag_configs":[],"scoped_memory_configs":[],"used_scoped_memory_configs":[],"float_type_correction_info":{"original_type":"BF16","original_shape":{"element_type":"BF16","dimensions":["1","128","6144"],"tuple_shapes":[],"layout":{"minor_to_major":["2","1","0"],"tiles":[{"dimensions":["8","128"]},{"dimensions":["2","1"]}],"element_size_in_bits":"0","memory_space":"0","dim_level_types":[],"index_primitive_type":"PRIMITIVE_TYPE_INVALID","pointer_primitive_type":"PRIMITIVE_TYPE_INVALID","dim_unique":[],"dim_ordered":[],"dynamic_shape_metadata_prefix_bytes":"0","tail_padding_alignment_in_elements":"1","split_configs":[]},"is_dynamic_dimension":[false,false,false]}}}
  %convert.321 = bf16[1,128,6144]{2,1,0:T(8,128)(2,1)} convert(%mul.3048)
  ROOT %bitcast.1033 = bf16[128,6144]{1,0:T(8,128)(2,1)} bitcast(%convert.321)
}

%fused_computation.6.clone.clone.clone.clone.clone.1 (param_0.1837: bf16[1,6144,2048]) -> bf16[6144,2048] {
  %param_0.1837 = bf16[1,6144,2048]{2,1,0:T(8,128)(2,1)S(1)} parameter(0)
  ROOT %bitcast.1030 = bf16[6144,2048]{1,0:T(8,128)(2,1)} bitcast(%param_0.1837), metadata={op_name="jit(train_step)/jvp()/while/body/closed_call/dot_general" stack_frame_id=0}
}

%fused_computation.37.clone.1 (param_0.1841: bf16[1,128,2048], param_1.1908: bf16[1,6144,2048], param_2.1459: bf16[1,2048,6144], param_3.958: bf16[1,128,6144], param_4.569: f32[128], param_5.492: bf16[2048]) -> bf16[1,128,2048] {
  %param_0.1841 = bf16[1,128,2048]{2,1,0:T(8,128)(2,1)S(1)} parameter(0)
  %convert.350 = f32[1,128,2048]{2,1,0:T(8,128)} convert(%param_0.1841)
  %param_2.1459 = bf16[1,2048,6144]{2,1,0:T(8,128)(2,1)} parameter(2)
  %param_3.958 = bf16[1,128,6144]{2,1,0:T(8,128)(2,1)S(1)} parameter(3)
  %param_4.569 = f32[128]{0:T(128)S(1)} parameter(4)
  %param_5.492 = bf16[2048]{0:T(1024)(128)(2,1)S(1)} parameter(5)
  %fusion.36.clone.3 = bf16[128,6144]{1,0:T(8,128)(2,1)} fusion(%param_2.1459, %param_3.958, %param_0.1841, %param_4.569, %param_5.492), kind=kOutput, calls=%fused_computation.27.clone.clone.clone.1, metadata={op_name="jit(train_step)/jvp()/while/body/closed_call/dot_general" stack_frame_id=0}
  %param_1.1908 = bf16[1,6144,2048]{2,1,0:T(8,128)(2,1)S(1)} parameter(1)
  %fusion.514 = bf16[6144,2048]{1,0:T(8,128)(2,1)} fusion(%param_1.1908), kind=kLoop, calls=%fused_computation.6.clone.clone.clone.clone.clone.1, metadata={op_name="jit(train_step)/jvp()/while/body/closed_call/dot_general" stack_frame_id=0}
  %convolution.151 = bf16[128,2048]{1,0:T(8,128)(2,1)} convolution(%fusion.36.clone.3, %fusion.514), dim_labels=bf_io->bf, metadata={op_name="jit(train_step)/jvp()/while/body/closed_call/dot_general" stack_frame_id=0}
  %bitcast.1035 = bf16[1,128,2048]{2,1,0:T(8,128)(2,1)} bitcast(%convolution.151), metadata={op_name="jit(train_step)/jvp()/while/body/closed_call/dot_general" stack_frame_id=0}
  %convert.351 = f32[1,128,2048]{2,1,0:T(8,128)} convert(%bitcast.1035)
  %add.1039 = f32[1,128,2048]{2,1,0:T(8,128)} add(%convert.350, %convert.351), metadata={op_name="jit(train_step)/jvp()/while/body/closed_call/add" stack_frame_id=0}, backend_config={"flag_configs":[],"scoped_memory_configs":[],"used_scoped_memory_configs":[],"float_type_correction_info":{"original_type":"BF16","original_shape":{"element_type":"BF16","dimensions":["1","128","2048"],"tuple_shapes":[],"layout":{"minor_to_major":["2","1","0"],"tiles":[{"dimensions":["8","128"]},{"dimensions":["2","1"]}],"element_size_in_bits":"0","memory_space":"0","dim_level_types":[],"index_primitive_type":"PRIMITIVE_TYPE_INVALID","pointer_primitive_type":"PRIMITIVE_TYPE_INVALID","dim_unique":[],"dim_ordered":[],"dynamic_shape_metadata_prefix_bytes":"0","tail_padding_alignment_in_elements":"1","split_configs":[]},"is_dynamic_dimension":[false,false,false]}}}
  ROOT %convert.352 = bf16[1,128,2048]{2,1,0:T(8,128)(2,1)S(1)} convert(%add.1039)
}

%wide.region_0.7_spmd.sunk.clone.clone.clone.sunk (wide.param.1: (s32[], bf16[1,128,2048], u32[4], u32[4,4], u32[4], /*index=5*/u32[4,4], u32[4], u32[4,4], u32[4], u32[4,4], /*index=10*/u32[4], u32[4,4], u32[4], u32[4,4], bf16[4,1,128,2048], /*index=15*/bf16[4,2048], bf16[4,512,16,128], bf16[4,128], bf16[1,128,1,128], bf16[1,128,1,128], /*index=20*/bf16[4,512,8,128], bf16[4,128], bf16[4,512,8,128], bf16[4,16,128,512], bf16[4,2048], /*index=25*/bf16[4,512,6144], bf16[4,512,6144], bf16[4,6144,512], u32[4], u32[4,4], /*index=30*/u32[4], u32[4,4], u32[4], u32[4,4], u32[4], /*index=35*/u32[4,4], u32[4], u32[4,4], u32[4], u32[4,4], /*index=40*/s32[128], s32[], s8[1,1,1], s8[1,1,1])) -> (s32[], bf16[1,128,2048], u32[4], u32[4,4], u32[4], /*index=5*/u32[4,4], u32[4], u32[4,4], u32[4], u32[4,4], /*index=10*/u32[4], u32[4,4], u32[4], u32[4,4], bf16[4,1,128,2048], /*index=15*/bf16[4,2048], bf16[4,512,16,128], bf16[4,128], bf16[1,128,1,128], bf16[1,128,1,128], /*index=20*/bf16[4,512,8,128], bf16[4,128], bf16[4,512,8,128], bf16[4,16,128,512], bf16[4,2048], /*index=25*/bf16[4,512,6144], bf16[4,512,6144], bf16[4,6144,512], u32[4], u32[4,4], /*index=30*/u32[4], u32[4,4], u32[4], u32[4,4], u32[4], /*index=35*/u32[4,4], u32[4], u32[4,4], u32[4], u32[4,4], /*index=40*/s32[128], s32[], s8[1,1,1], s8[1,1,1]) {
  %constant.455.clone..sunk.1 = s32[]{:T(128)} constant(1)
  %wide.param.1 = (s32[]{:T(128)}, bf16[1,128,2048]{2,1,0:T(8,128)(2,1)S(1)}, u32[4]{0:T(128)}, u32[4,4]{1,0:T(4,128)}, u32[4]{0:T(128)}, /*index=5*/u32[4,4]{1,0:T(4,128)}, u32[4]{0:T(128)}, u32[4,4]{1,0:T(4,128)}, u32[4]{0:T(128)}, u32[4,4]{1,0:T(4,128)}, /*index=10*/u32[4]{0:T(128)}, u32[4,4]{1,0:T(4,128)}, u32[4]{0:T(128)}, u32[4,4]{1,0:T(4,128)}, bf16[4,1,128,2048]{3,2,1,0:T(8,128)(2,1)}, /*index=15*/bf16[4,2048]{1,0:T(4,128)(2,1)S(1)}, bf16[4,512,16,128]{1,3,2,0:T(8,128)(2,1)S(1)}, bf16[4,128]{1,0:T(4,128)(2,1)S(1)}, bf16[1,128,1,128]{3,1,2,0:T(8,128)(2,1)S(1)}, bf16[1,128,1,128]{3,1,2,0:T(8,128)(2,1)S(1)}, /*index=20*/bf16[4,512,8,128]{1,3,2,0:T(8,128)(2,1)}, bf16[4,128]{1,0:T(4,128)(2,1)S(1)}, bf16[4,512,8,128]{3,1,2,0:T(8,128)(2,1)}, bf16[4,16,128,512]{3,2,1,0:T(8,128)(2,1)}, bf16[4,2048]{1,0:T(4,128)(2,1)S(1)}, /*index=25*/bf16[4,512,6144]{2,1,0:T(8,128)(2,1)}, bf16[4,512,6144]{2,1,0:T(8,128)(2,1)}, bf16[4,6144,512]{2,1,0:T(8,128)(2,1)}, u32[4]{0:T(128)S(1)}, u32[4,4]{1,0:T(4,128)S(1)}, /*index=30*/u32[4]{0:T(128)S(1)}, u32[4,4]{1,0:T(4,128)S(1)}, u32[4]{0:T(128)S(1)}, u32[4,4]{1,0:T(4,128)S(1)}, u32[4]{0:T(128)S(1)}, /*index=35*/u32[4,4]{1,0:T(4,128)S(1)}, u32[4]{0:T(128)S(1)}, u32[4,4]{1,0:T(4,128)S(1)}, u32[4]{0:T(128)S(1)}, u32[4,4]{1,0:T(4,128)S(1)}, /*index=40*/s32[128]{0:T(128)S(1)}, s32[]{:T(128)}, s8[1,1,1]{2,1,0:T(4,128)(4,1)}, s8[1,1,1]{2,1,0:T(4,128)(4,1)}) parameter(0)
  %get-tuple-element.2254 = s32[]{:T(128)} get-tuple-element(%wide.param.1), index=0
  %copy.255 = s32[]{:T(128)S(6)} copy(%get-tuple-element.2254), backend_config={"flag_configs":[],"scoped_memory_configs":[],"used_scoped_memory_configs":[],"aliasing_operands":{"lists":[]}}
  %add.1040 = s32[]{:T(128)} add(%copy.255, %constant.455.clone..sunk.1), metadata={op_name="jit(train_step)/jvp()/while/body/add" stack_frame_id=0}, backend_config={"flag_configs":[],"scoped_memory_configs":[],"used_scoped_memory_configs":[],"aliasing_operands":{"lists":[]}}
  %get-tuple-element.2268 = bf16[4,1,128,2048]{3,2,1,0:T(8,128)(2,1)} get-tuple-element(%wide.param.1), index=14
  %get-tuple-element.2255 = bf16[1,128,2048]{2,1,0:T(8,128)(2,1)S(1)} get-tuple-element(%wide.param.1), index=1
  %bitcast_dynamic-update-slice_fusion.5 = bf16[4,1,128,2048]{3,2,1,0:T(8,128)(2,1)} fusion(%get-tuple-element.2268, %copy.255, %get-tuple-element.2255), kind=kLoop, calls=%fused_computation.60.clone.1, metadata={op_name="jit(train_step)/jvp()/while/body/jit(dynamic_update_index_in_dim)/dynamic_update_slice" stack_frame_id=0}, backend_config={"flag_configs":[],"scoped_memory_configs":[],"used_scoped_memory_configs":[],"aliasing_operands":{"lists":[{"indices":["0","3"]}]}}
  %get-tuple-element.2321 = bf16[4,16,128,512]{3,2,1,0:T(8,128)(2,1)} get-tuple-element(%wide.param.1), index=23
  %dynamic-slice_convert_fusion.35 = bf16[1,16,128,512]{3,2,1,0:T(8,128)(2,1)S(1)} fusion(%get-tuple-element.2321, %copy.255), kind=kLoop, calls=%fused_computation.22.clone.1, metadata={op_name="jit(train_step)/jvp()/while/body/closed_call/convert_element_type" stack_frame_id=0}, backend_config={"flag_configs":[],"scoped_memory_configs":[],"used_scoped_memory_configs":[],"aliasing_operands":{"lists":[]}}
  %all-gather.108 = bf16[1,16,128,2048]{3,2,1,0:T(8,128)(2,1)S(1)} all-gather(%dynamic-slice_convert_fusion.35), channel_id=105, replica_groups=mesh['axis_0'=1,'axis_1'=1,'axis_2'=4] {'axis_2'}, dimensions={3}, use_global_device_ids=true, metadata={op_name="jit(train_step)/jvp()/while/body/closed_call/dot_general" stack_frame_id=0}, backend_config={"flag_configs":[],"barrier_config":{"barrier_type":"CUSTOM","id":"0"},"scoped_memory_configs":[],"used_scoped_memory_configs":[],"aliasing_operands":{"lists":[]}}
  %get-tuple-element.2340 = s8[1,1,1]{2,1,0:T(4,128)(4,1)} get-tuple-element(%wide.param.1), index=42, metadata={op_name="jit(train_step)/sharding_constraint" stack_frame_id=0}
  %get-tuple-element.2341 = s8[1,1,1]{2,1,0:T(4,128)(4,1)} get-tuple-element(%wide.param.1), index=43, metadata={op_name="jit(train_step)/sharding_constraint" stack_frame_id=0}
  %get-tuple-element.2314 = bf16[4,512,16,128]{1,3,2,0:T(8,128)(2,1)S(1)} get-tuple-element(%wide.param.1), index=16
  %dynamic-slice_convert_fusion.36 = bf16[1,512,16,128]{1,3,2,0:T(8,128)(2,1)S(1)} fusion(%get-tuple-element.2314, %copy.255), kind=kLoop, calls=%fused_computation.23.clone.1, metadata={op_name="jit(train_step)/jvp()/while/body/closed_call/convert_element_type" stack_frame_id=0}, backend_config={"flag_configs":[],"scoped_memory_configs":[],"used_scoped_memory_configs":[],"aliasing_operands":{"lists":[]}}
  %all-gather.109 = bf16[1,2048,16,128]{1,3,2,0:T(8,128)(2,1)S(1)} all-gather(%dynamic-slice_convert_fusion.36), channel_id=102, replica_groups=mesh['axis_0'=4,'axis_1'=1,'axis_2'=1] {'axis_0'}, dimensions={1}, use_global_device_ids=true, metadata={op_name="jit(train_step)/jvp()/while/body/closed_call/dot_general" stack_frame_id=0}, backend_config={"flag_configs":[],"barrier_config":{"barrier_type":"CUSTOM","id":"0"},"scoped_memory_configs":[],"used_scoped_memory_configs":[],"aliasing_operands":{"lists":[]}}
  %fusion.515 = f32[128]{0:T(128)S(1)} fusion(%get-tuple-element.2255), kind=kLoop, calls=%fused_computation.38.clone.1, metadata={op_name="jit(train_step)/jvp()/while/body/closed_call/reduce_sum" stack_frame_id=0}, backend_config={"flag_configs":[],"scoped_memory_configs":[],"used_scoped_memory_configs":[],"aliasing_operands":{"lists":[]}}
  %add_rsqrt_fusion.8 = f32[128]{0:T(128)S(1)} fusion(%fusion.515), kind=kLoop, calls=%fused_computation.83.clone.1, metadata={op_name="jit(train_step)/jvp()/while/body/closed_call/rsqrt" stack_frame_id=0}, backend_config={"flag_configs":[],"scoped_memory_configs":[],"used_scoped_memory_configs":[],"aliasing_operands":{"lists":[]}}
  %get-tuple-element.2322 = bf16[4,2048]{1,0:T(4,128)(2,1)S(1)} get-tuple-element(%wide.param.1), index=24
  %get-tuple-element.2313 = bf16[4,2048]{1,0:T(4,128)(2,1)S(1)} get-tuple-element(%wide.param.1), index=15
  %convert_reduce_fusion.7 = (bf16[2048]{0:T(1024)(128)(2,1)S(1)}, bf16[2048]{0:T(1024)(128)(2,1)S(1)}) fusion(%get-tuple-element.2322, %copy.255, %get-tuple-element.2313), kind=kLoop, calls=%fused_computation.73.clone.1, metadata={op_name="jit(train_step)/jvp()/while/body/closed_call/convert_element_type" stack_frame_id=0}, backend_config={"flag_configs":[],"scoped_memory_configs":[],"used_scoped_memory_configs":[],"fusion_formation_source":{"fusion_creating_compiler_pass":"TpuAdvancedMOF","fusion_id":"42"},"aliasing_operands":{"lists":[]}}
  %get-tuple-element.2195 = bf16[2048]{0:T(1024)(128)(2,1)S(1)} get-tuple-element(%convert_reduce_fusion.7), index=1, metadata={op_name="jit(train_step)/jvp()/while/body/closed_call/convert_element_type" stack_frame_id=0}
  %fusion.516 = (f32[128,16]{0,1:T(8,128)S(1)}, bf16[128,16,128]{2,0,1:T(8,128)(2,1)S(1)}) fusion(%all-gather.109, %get-tuple-element.2255, %add_rsqrt_fusion.8, %get-tuple-element.2195), kind=kOutput, calls=%fused_computation.44.clone.1, metadata={op_name="jit(train_step)/jvp()/while/body/closed_call/dot_general" stack_frame_id=0}, backend_config={"flag_configs":[],"scoped_memory_configs":[],"used_scoped_memory_configs":[],"aliasing_operands":{"lists":[]}}
  %get-tuple-element.2196 = bf16[128,16,128]{2,0,1:T(8,128)(2,1)S(1)} get-tuple-element(%fusion.516), index=1, metadata={op_name="jit(train_step)/jvp()/while/body/closed_call/reduce_sum" stack_frame_id=0}
  %get-tuple-element.2197 = f32[128,16]{0,1:T(8,128)S(1)} get-tuple-element(%fusion.516), index=0, metadata={op_name="jit(train_step)/jvp()/while/body/closed_call/reduce_sum" stack_frame_id=0}
  %add_rsqrt_fusion.9 = f32[128,16]{0,1:T(8,128)S(1)} fusion(%get-tuple-element.2197), kind=kLoop, calls=%fused_computation.72.clone.1, metadata={op_name="jit(train_step)/jvp()/while/body/closed_call/rsqrt" stack_frame_id=0}, backend_config={"flag_configs":[],"scoped_memory_configs":[],"used_scoped_memory_configs":[],"aliasing_operands":{"lists":[]}}
  %get-tuple-element.2315 = bf16[4,128]{1,0:T(4,128)(2,1)S(1)} get-tuple-element(%wide.param.1), index=17
  %get-tuple-element.2319 = bf16[4,128]{1,0:T(4,128)(2,1)S(1)} get-tuple-element(%wide.param.1), index=21
  %fusion.517 = (bf16[128]{0:T(256)(128)(2,1)S(1)}, bf16[128]{0:T(256)(128)(2,1)S(1)}) fusion(%get-tuple-element.2315, %copy.255, %get-tuple-element.2319), kind=kLoop, calls=%fused_computation.79.clone.1, metadata={op_name="jit(train_step)/jvp()/while/body/closed_call/convert_element_type" stack_frame_id=0}, backend_config={"flag_configs":[],"scoped_memory_configs":[],"used_scoped_memory_configs":[],"fusion_formation_source":{"fusion_creating_compiler_pass":"TpuAdvancedMOF","fusion_id":"42"},"aliasing_operands":{"lists":[]}}
  %get-tuple-element.2198 = bf16[128]{0:T(256)(128)(2,1)S(1)} get-tuple-element(%fusion.517), index=0, metadata={op_name="jit(train_step)/jvp()/while/body/closed_call/convert_element_type" stack_frame_id=0}
  %fusion.518 = bf16[1,128,16,128]{3,1,2,0:T(8,128)(2,1)S(1)} fusion(%get-tuple-element.2196, %add_rsqrt_fusion.9, %get-tuple-element.2198), kind=kLoop, calls=%fused_computation.49.clone.2, metadata={op_name="jit(train_step)/jvp()/while/body/closed_call/mul" stack_frame_id=0}, backend_config={"flag_configs":[],"scoped_memory_configs":[],"used_scoped_memory_configs":[],"aliasing_operands":{"lists":[]}}
  %slice_negate_fusion.12 = (bf16[1,128,16,64]{3,1,2,0:T(8,128)(2,1)S(1)}, bf16[1,128,16,64]{3,1,2,0:T(8,128)(2,1)S(1)}) fusion(%fusion.518), kind=kLoop, calls=%fused_computation.54.clone.1, metadata={op_name="jit(train_step)/jvp()/while/body/closed_call/neg" stack_frame_id=0}, backend_config={"flag_configs":[],"scoped_memory_configs":[],"used_scoped_memory_configs":[],"aliasing_operands":{"lists":[]}}
  %get-tuple-element.2199 = bf16[1,128,16,64]{3,1,2,0:T(8,128)(2,1)S(1)} get-tuple-element(%slice_negate_fusion.12), index=1, metadata={op_name="jit(train_step)/jvp()/while/body/closed_call/neg" stack_frame_id=0}
  %get-tuple-element.2200 = bf16[1,128,16,64]{3,1,2,0:T(8,128)(2,1)S(1)} get-tuple-element(%slice_negate_fusion.12), index=0, metadata={op_name="jit(train_step)/jvp()/while/body/closed_call/neg" stack_frame_id=0}
  %get-tuple-element.2317 = bf16[1,128,1,128]{3,1,2,0:T(8,128)(2,1)S(1)} get-tuple-element(%wide.param.1), index=19
  %get-tuple-element.2316 = bf16[1,128,1,128]{3,1,2,0:T(8,128)(2,1)S(1)} get-tuple-element(%wide.param.1), index=18
  %bitcast.1070 = bf16[128,128]{1,0:T(8,128)(2,1)S(1)} bitcast(%get-tuple-element.2317)
  %bitcast.1068 = bf16[128,128]{1,0:T(8,128)(2,1)S(1)} bitcast(%get-tuple-element.2316)
  %fusion.519 = bf16[16,128,128]{2,1,0:T(8,128)(2,1)S(1)} fusion(%get-tuple-element.2199, %get-tuple-element.2200, %bitcast.1070, %bitcast.1068, %get-tuple-element.2198, /*index=5*/%add_rsqrt_fusion.9, %get-tuple-element.2196), kind=kLoop, calls=%fused_computation.58.clone.1, metadata={op_name="jit(train_step)/jvp()/while/body/closed_call/shard_map/vmap(static_sparsity_splash)/jit(_splash_attention)/splash_mha_fwd_segmented_residuals/splash_mha_fwd_segmented_residuals/squeeze" stack_frame_id=0}, backend_config={"flag_configs":[],"scoped_memory_configs":[],"used_scoped_memory_configs":[],"aliasing_operands":{"lists":[]}}
  %get-tuple-element.2318 = bf16[4,512,8,128]{1,3,2,0:T(8,128)(2,1)} get-tuple-element(%wide.param.1), index=20
  %dynamic-slice_convert_fusion.37 = bf16[1,512,8,128]{1,3,2,0:T(8,128)(2,1)S(1)} fusion(%get-tuple-element.2318, %copy.255), kind=kLoop, calls=%fused_computation.29.clone.1, metadata={op_name="jit(train_step)/jvp()/while/body/closed_call/convert_element_type" stack_frame_id=0}, backend_config={"flag_configs":[],"scoped_memory_configs":[],"used_scoped_memory_configs":[],"aliasing_operands":{"lists":[]}}
  %all-gather.110 = bf16[1,2048,8,128]{1,3,2,0:T(8,128)(2,1)S(1)} all-gather(%dynamic-slice_convert_fusion.37), channel_id=103, replica_groups=mesh['axis_0'=4,'axis_1'=1,'axis_2'=1] {'axis_0'}, dimensions={1}, use_global_device_ids=true, metadata={op_name="jit(train_step)/jvp()/while/body/closed_call/dot_general" stack_frame_id=0}, backend_config={"flag_configs":[],"barrier_config":{"barrier_type":"CUSTOM","id":"0"},"scoped_memory_configs":[],"used_scoped_memory_configs":[],"aliasing_operands":{"lists":[]}}
  %multiply_reduce_fusion.48 = (f32[128,8]{0,1:T(8,128)S(1)}, f32[1,128,8,128]{3,1,2,0:T(8,128)S(1)}) fusion(%all-gather.110, %get-tuple-element.2255, %add_rsqrt_fusion.8, %get-tuple-element.2195), kind=kOutput, calls=%fused_computation.64.clone.1, metadata={op_name="jit(train_step)/jvp()/while/body/closed_call/dot_general" stack_frame_id=0}, backend_config={"flag_configs":[],"scoped_memory_configs":[],"used_scoped_memory_configs":[],"aliasing_operands":{"lists":[]}}
  %get-tuple-element.2201 = f32[1,128,8,128]{3,1,2,0:T(8,128)S(1)} get-tuple-element(%multiply_reduce_fusion.48), index=1, metadata={op_name="jit(train_step)/jvp()/while/body/closed_call/reduce_sum" stack_frame_id=0}
  %get-tuple-element.2202 = f32[128,8]{0,1:T(8,128)S(1)} get-tuple-element(%multiply_reduce_fusion.48), index=0, metadata={op_name="jit(train_step)/jvp()/while/body/closed_call/reduce_sum" stack_frame_id=0}
  %add_rsqrt_fusion.10 = f32[128,8]{0,1:T(8,128)S(1)} fusion(%get-tuple-element.2202), kind=kLoop, calls=%fused_computation.75.clone.1, metadata={op_name="jit(train_step)/jvp()/while/body/closed_call/rsqrt" stack_frame_id=0}, backend_config={"flag_configs":[],"scoped_memory_configs":[],"used_scoped_memory_configs":[],"aliasing_operands":{"lists":[]}}
  %get-tuple-element.2203 = bf16[128]{0:T(256)(128)(2,1)S(1)} get-tuple-element(%fusion.517), index=1, metadata={op_name="jit(train_step)/jvp()/while/body/closed_call/convert_element_type" stack_frame_id=0}
  %fusion.520 = bf16[1,128,8,128]{3,1,2,0:T(8,128)(2,1)S(1)} fusion(%get-tuple-element.2201, %add_rsqrt_fusion.10, %get-tuple-element.2203), kind=kLoop, calls=%fused_computation.65.clone.2, metadata={op_name="jit(train_step)/jvp()/while/body/closed_call/mul" stack_frame_id=0}, backend_config={"flag_configs":[],"scoped_memory_configs":[],"used_scoped_memory_configs":[],"aliasing_operands":{"lists":[]}}
  %slice_negate_fusion.13 = (bf16[1,128,8,64]{3,1,2,0:T(8,128)(2,1)S(1)}, bf16[1,128,8,64]{3,1,2,0:T(8,128)(2,1)S(1)}) fusion(%fusion.520), kind=kLoop, calls=%fused_computation.66.clone.1, metadata={op_name="jit(train_step)/jvp()/while/body/closed_call/neg" stack_frame_id=0}, backend_config={"flag_configs":[],"scoped_memory_configs":[],"used_scoped_memory_configs":[],"aliasing_operands":{"lists":[]}}
  %get-tuple-element.2204 = bf16[1,128,8,64]{3,1,2,0:T(8,128)(2,1)S(1)} get-tuple-element(%slice_negate_fusion.13), index=1, metadata={op_name="jit(train_step)/jvp()/while/body/closed_call/neg" stack_frame_id=0}
  %get-tuple-element.2205 = bf16[1,128,8,64]{3,1,2,0:T(8,128)(2,1)S(1)} get-tuple-element(%slice_negate_fusion.13), index=0, metadata={op_name="jit(train_step)/jvp()/while/body/closed_call/neg" stack_frame_id=0}
  %bitcast.1071 = bf16[128,128]{1,0:T(8,128)(2,1)S(1)} bitcast(%get-tuple-element.2317)
  %bitcast.1069 = bf16[128,128]{1,0:T(8,128)(2,1)S(1)} bitcast(%get-tuple-element.2316)
  %fusion.521 = bf16[8,128,128]{2,1,0:T(8,128)(2,1)S(1)} fusion(%get-tuple-element.2204, %get-tuple-element.2205, %bitcast.1071, %bitcast.1069, %get-tuple-element.2203, /*index=5*/%get-tuple-element.2201, %add_rsqrt_fusion.10), kind=kLoop, calls=%fused_computation.69.clone.1, metadata={op_name="jit(train_step)/jvp()/while/body/closed_call/shard_map/vmap(static_sparsity_splash)/jit(_splash_attention)/splash_mha_fwd_segmented_residuals/splash_mha_fwd_segmented_residuals/squeeze" stack_frame_id=0}, backend_config={"flag_configs":[],"scoped_memory_configs":[],"used_scoped_memory_configs":[],"aliasing_operands":{"lists":[]}}
  %get-tuple-element.2320 = bf16[4,512,8,128]{3,1,2,0:T(8,128)(2,1)} get-tuple-element(%wide.param.1), index=22
  %dynamic-slice_convert_fusion.38 = bf16[1,512,8,128]{3,1,2,0:T(8,128)(2,1)S(1)} fusion(%get-tuple-element.2320, %copy.255), kind=kLoop, calls=%fused_computation.28.clone.1, metadata={op_name="jit(train_step)/jvp()/while/body/closed_call/convert_element_type" stack_frame_id=0}, backend_config={"flag_configs":[],"scoped_memory_configs":[],"used_scoped_memory_configs":[],"aliasing_operands":{"lists":[]}}
  %all-gather.111 = bf16[1,2048,8,128]{3,1,2,0:T(8,128)(2,1)S(1)} all-gather(%dynamic-slice_convert_fusion.38), channel_id=104, replica_groups=mesh['axis_0'=4,'axis_1'=1,'axis_2'=1] {'axis_0'}, dimensions={1}, use_global_device_ids=true, metadata={op_name="jit(train_step)/jvp()/while/body/closed_call/dot_general" stack_frame_id=0}, backend_config={"flag_configs":[],"barrier_config":{"barrier_type":"CUSTOM","id":"0"},"scoped_memory_configs":[],"used_scoped_memory_configs":[],"aliasing_operands":{"lists":[]}}
  %fusion.522 = bf16[8,128,128]{2,1,0:T(8,128)(2,1)S(1)} fusion(%all-gather.111, %get-tuple-element.2255, %add_rsqrt_fusion.8, %get-tuple-element.2195), kind=kOutput, calls=%fused_computation.48.clone.1, metadata={op_name="jit(train_step)/jvp()/while/body/closed_call/dot_general" stack_frame_id=0}, backend_config={"flag_configs":[],"scoped_memory_configs":[],"used_scoped_memory_configs":[],"aliasing_operands":{"lists":[]}}
  %get-tuple-element.2338 = s32[128]{0:T(128)S(1)} get-tuple-element(%wide.param.1), index=40
  %squeeze.272 = s32[128,128]{1,0:T(8,128)S(1)} broadcast(%get-tuple-element.2338), dimensions={0}, metadata={op_name="jit(train_step)/shard_map/vmap(static_sparsity_splash)/jit(_splash_attention)/splash_mha_fwd_segmented_residuals/splash_mha_fwd_segmented_residuals/squeeze" stack_frame_id=0}, backend_config={"flag_configs":[],"scoped_memory_configs":[],"used_scoped_memory_configs":[],"output_chunk_bound_config":{"output_chunk_bound":["8"]},"aliasing_operands":{"lists":[]}}
  %squeeze.273 = s32[8,128]{1,0:T(8,128)S(1)} broadcast(%get-tuple-element.2338), dimensions={1}, metadata={op_name="jit(train_step)/shard_map/vmap(static_sparsity_splash)/jit(_splash_attention)/splash_mha_fwd_segmented_residuals/splash_mha_fwd_segmented_residuals/squeeze" stack_frame_id=0}, backend_config={"flag_configs":[],"scoped_memory_configs":[],"used_scoped_memory_configs":[],"output_chunk_bound_config":{"output_chunk_bound":["128"]},"aliasing_operands":{"lists":[]}}
  %iota.68 = s32[128,128]{1,0:T(8,128)S(1)} iota(), iota_dimension=0, metadata={op_name="jit(train_step)/shard_map/vmap(static_sparsity_splash)/jit(_splash_attention)/broadcast_in_dim" stack_frame_id=0}, backend_config={"flag_configs":[],"scoped_memory_configs":[],"used_scoped_memory_configs":[],"aliasing_operands":{"lists":[]}}
  %splash_mha_fwd_segmented_residuals.3 = (f32[128,128]{1,0:T(8,128)}, f32[128,128]{1,0:T(8,128)}, f32[128,128]{1,0:T(8,128)}, bf16[16,128,128]{2,1,0:T(8,128)(2,1)S(1)}, f32[16,128,128]{2,1,0:T(8,128)}) custom-call(%get-tuple-element.2340, %get-tuple-element.2341, %fusion.519, %fusion.521, %fusion.522, /*index=5*/%squeeze.272, %squeeze.273, %iota.68), custom_call_target="tpu_custom_call", operand_layout_constraints={s8[1,1,1]{2,1,0}, s8[1,1,1]{2,1,0}, bf16[16,128,128]{2,1,0}, bf16[8,128,128]{2,1,0}, bf16[8,128,128]{2,1,0}, s32[128,128]{1,0}, s32[8,128]{1,0}, s32[128,128]{1,0}}, frontend_attributes={kernel_metadata={
"xprof_metadata":"{\"block_q\": 128, \"block_kv\": 128, \"block_kv_compute\": 128, \"block_q_dkv\": 128, \"block_kv_dkv\": 128, \"block_kv_dkv_compute\": 128, \"block_q_dq\": 128, \"block_kv_dq\": 128, \"use_fused_bwd_kernel\": false, \"q_layout\": 1, \"k_layout\": 1, \"v_layout\": 1}"
}}, metadata={op_name="jit(train_step)/jvp()/while/body/closed_call/shard_map/vmap(static_sparsity_splash)/jit(_splash_attention)/splash_mha_fwd_segmented_residuals/splash_mha_fwd_segmented_residuals/pallas_call" stack_frame_id=0}, backend_config={"flag_configs":[],"scoped_memory_configs":[],"custom_call_config":{"body":"…","needs_layout_passes":true,"allow_input_fusion":[],"serialization_format":"1","output_memory_colors":[],"output_memory_space_colors":[],"input_memory_space_colors":[]},"used_scoped_memory_configs":[],"aliasing_operands":{"lists":[]}}
  %get-tuple-element.2206 = bf16[16,128,128]{2,1,0:T(8,128)(2,1)S(1)} get-tuple-element(%splash_mha_fwd_segmented_residuals.3), index=3, frontend_attributes={kernel_metadata={
"xprof_metadata":"{\"block_q\": 128, \"block_kv\": 128, \"block_kv_compute\": 128, \"block_q_dkv\": 128, \"block_kv_dkv\": 128, \"block_kv_dkv_compute\": 128, \"block_q_dq\": 128, \"block_kv_dq\": 128, \"use_fused_bwd_kernel\": false, \"q_layout\": 1, \"k_layout\": 1, \"v_layout\": 1}"
}}, metadata={op_name="jit(train_step)/jvp()/while/body/closed_call/shard_map/vmap(static_sparsity_splash)/jit(_splash_attention)/splash_mha_fwd_segmented_residuals/splash_mha_fwd_segmented_residuals/pallas_call" stack_frame_id=0}
  %fusion.523 = (f32[128]{0:T(128)S(1)}, bf16[1,128,2048]{2,1,0:T(8,128)(2,1)S(1)}) fusion(%get-tuple-element.2255, %all-gather.108, %get-tuple-element.2206), kind=kOutput, calls=%fused_computation.40.clone.1, metadata={op_name="jit(train_step)/jvp()/while/body/closed_call/dot_general" stack_frame_id=0}, backend_config={"flag_configs":[],"scoped_memory_configs":[],"used_scoped_memory_configs":[],"aliasing_operands":{"lists":[]}}
  %get-tuple-element.2207 = bf16[1,128,2048]{2,1,0:T(8,128)(2,1)S(1)} get-tuple-element(%fusion.523), index=1, metadata={op_name="jit(train_step)/jvp()/while/body/closed_call/reduce_sum" stack_frame_id=0}
  %get-tuple-element.2325 = bf16[4,6144,512]{2,1,0:T(8,128)(2,1)} get-tuple-element(%wide.param.1), index=27
  %dynamic-slice_convert_fusion.39 = bf16[1,6144,512]{2,1,0:T(8,128)(2,1)S(1)} fusion(%get-tuple-element.2325, %copy.255), kind=kLoop, calls=%fused_computation.11.clone.1, metadata={op_name="jit(train_step)/jvp()/while/body/closed_call/convert_element_type" stack_frame_id=0}, backend_config={"flag_configs":[],"scoped_memory_configs":[],"used_scoped_memory_configs":[],"aliasing_operands":{"lists":[]}}
  %all-gather.112 = bf16[1,6144,2048]{2,1,0:T(8,128)(2,1)S(1)} all-gather(%dynamic-slice_convert_fusion.39), channel_id=108, replica_groups=mesh['axis_0'=1,'axis_1'=4] {'axis_1'}, dimensions={2}, use_global_device_ids=true, metadata={op_name="jit(train_step)/jvp()/while/body/closed_call/dot_general" stack_frame_id=0}, backend_config={"flag_configs":[],"barrier_config":{"barrier_type":"CUSTOM","id":"0"},"scoped_memory_configs":[],"used_scoped_memory_configs":[],"aliasing_operands":{"lists":[]}}
  %get-tuple-element.2324 = bf16[4,512,6144]{2,1,0:T(8,128)(2,1)} get-tuple-element(%wide.param.1), index=26
  %dynamic-slice_convert_fusion.40 = bf16[1,512,6144]{2,1,0:T(8,128)(2,1)S(1)} fusion(%get-tuple-element.2324, %copy.255), kind=kLoop, calls=%fused_computation.12.clone.1, metadata={op_name="jit(train_step)/jvp()/while/body/closed_call/convert_element_type" stack_frame_id=0}, backend_config={"flag_configs":[],"scoped_memory_configs":[],"used_scoped_memory_configs":[],"aliasing_operands":{"lists":[]}}
  %all-gather.113 = bf16[1,2048,6144]{2,1,0:T(8,128)(2,1)} all-gather(%dynamic-slice_convert_fusion.40), channel_id=107, replica_groups=mesh['axis_0'=4,'axis_1'=1] {'axis_0'}, dimensions={1}, use_global_device_ids=true, metadata={op_name="jit(train_step)/jvp()/while/body/closed_call/dot_general" stack_frame_id=0}, backend_config={"flag_configs":[],"barrier_config":{"barrier_type":"CUSTOM","id":"0"},"scoped_memory_configs":[],"used_scoped_memory_configs":[],"aliasing_operands":{"lists":[]}}
  %get-tuple-element.2323 = bf16[4,512,6144]{2,1,0:T(8,128)(2,1)} get-tuple-element(%wide.param.1), index=25
  %dynamic-slice_convert_fusion.41 = bf16[1,512,6144]{2,1,0:T(8,128)(2,1)S(1)} fusion(%get-tuple-element.2323, %copy.255), kind=kLoop, calls=%fused_computation.13.clone.1, metadata={op_name="jit(train_step)/jvp()/while/body/closed_call/convert_element_type" stack_frame_id=0}, backend_config={"flag_configs":[],"scoped_memory_configs":[],"used_scoped_memory_configs":[],"aliasing_operands":{"lists":[]}}
  %all-gather.114 = bf16[1,2048,6144]{2,1,0:T(8,128)(2,1)S(1)} all-gather(%dynamic-slice_convert_fusion.41), channel_id=106, replica_groups=mesh['axis_0'=4,'axis_1'=1] {'axis_0'}, dimensions={1}, use_global_device_ids=true, metadata={op_name="jit(train_step)/jvp()/while/body/closed_call/dot_general" stack_frame_id=0}, backend_config={"flag_configs":[],"barrier_config":{"barrier_type":"CUSTOM","id":"0"},"scoped_memory_configs":[],"used_scoped_memory_configs":[],"aliasing_operands":{"lists":[]}}
  %get-tuple-element.2208 = f32[128]{0:T(128)S(1)} get-tuple-element(%fusion.523), index=0, metadata={op_name="jit(train_step)/jvp()/while/body/closed_call/reduce_sum" stack_frame_id=0}
  %add_rsqrt_fusion.11 = f32[128]{0:T(128)S(1)} fusion(%get-tuple-element.2208), kind=kLoop, calls=%fused_computation.82.clone.1, metadata={op_name="jit(train_step)/jvp()/while/body/closed_call/rsqrt" stack_frame_id=0}, backend_config={"flag_configs":[],"scoped_memory_configs":[],"used_scoped_memory_configs":[],"aliasing_operands":{"lists":[]}}
  %get-tuple-element.2209 = bf16[2048]{0:T(1024)(128)(2,1)S(1)} get-tuple-element(%convert_reduce_fusion.7), index=0, metadata={op_name="jit(train_step)/jvp()/while/body/closed_call/convert_element_type" stack_frame_id=0}
  %fusion.524 = bf16[1,128,6144]{2,1,0:T(8,128)(2,1)S(1)} fusion(%all-gather.114, %get-tuple-element.2207, %add_rsqrt_fusion.11, %get-tuple-element.2209), kind=kOutput, calls=%fused_computation.24.clone.1, metadata={op_name="jit(train_step)/jvp()/while/body/closed_call/dot_general" stack_frame_id=0}, backend_config={"flag_configs":[],"scoped_memory_configs":[],"used_scoped_memory_configs":[],"aliasing_operands":{"lists":[]}}
  %fusion.525 = bf16[1,128,2048]{2,1,0:T(8,128)(2,1)S(1)} fusion(%get-tuple-element.2207, %all-gather.112, %all-gather.113, %fusion.524, %add_rsqrt_fusion.11, /*index=5*/%get-tuple-element.2209), kind=kOutput, calls=%fused_computation.37.clone.1, metadata={op_name="jit(train_step)/jvp()/while/body/closed_call/dot_general" stack_frame_id=0}, backend_config={"flag_configs":[],"scoped_memory_configs":[],"used_scoped_memory_configs":[],"aliasing_operands":{"lists":[]}}
  %get-tuple-element.2326 = u32[4]{0:T(128)S(1)} get-tuple-element(%wide.param.1), index=28, metadata={op_name="jit(train_step)/jvp()/while/body/jit(dynamic_update_index_in_dim)/dynamic_update_slice" stack_frame_id=0}
  %copy.272 = u32[4]{0:T(128)} copy(%get-tuple-element.2326), backend_config={"flag_configs":[],"scoped_memory_configs":[],"used_scoped_memory_configs":[],"aliasing_operands":{"lists":[]}}
  %get-tuple-element.2327 = u32[4,4]{1,0:T(4,128)S(1)} get-tuple-element(%wide.param.1), index=29, metadata={op_name="jit(train_step)/jvp()/while/body/jit(dynamic_update_index_in_dim)/dynamic_update_slice" stack_frame_id=0}
  %copy.273 = u32[4,4]{1,0:T(4,128)} copy(%get-tuple-element.2327), backend_config={"flag_configs":[],"scoped_memory_configs":[],"used_scoped_memory_configs":[],"aliasing_operands":{"lists":[]}}
  %get-tuple-element.2328 = u32[4]{0:T(128)S(1)} get-tuple-element(%wide.param.1), index=30, metadata={op_name="jit(train_step)/jvp()/while/body/jit(dynamic_update_index_in_dim)/dynamic_update_slice" stack_frame_id=0}
  %copy.274 = u32[4]{0:T(128)} copy(%get-tuple-element.2328), backend_config={"flag_configs":[],"scoped_memory_configs":[],"used_scoped_memory_configs":[],"aliasing_operands":{"lists":[]}}
  %get-tuple-element.2329 = u32[4,4]{1,0:T(4,128)S(1)} get-tuple-element(%wide.param.1), index=31, metadata={op_name="jit(train_step)/jvp()/while/body/jit(dynamic_update_index_in_dim)/dynamic_update_slice" stack_frame_id=0}
  %copy.275 = u32[4,4]{1,0:T(4,128)} copy(%get-tuple-element.2329), backend_config={"flag_configs":[],"scoped_memory_configs":[],"used_scoped_memory_configs":[],"aliasing_operands":{"lists":[]}}
  %get-tuple-element.2330 = u32[4]{0:T(128)S(1)} get-tuple-element(%wide.param.1), index=32, metadata={op_name="jit(train_step)/jvp()/while/body/jit(dynamic_update_index_in_dim)/dynamic_update_slice" stack_frame_id=0}
  %copy.276 = u32[4]{0:T(128)} copy(%get-tuple-element.2330), backend_config={"flag_configs":[],"scoped_memory_configs":[],"used_scoped_memory_configs":[],"aliasing_operands":{"lists":[]}}
  %get-tuple-element.2331 = u32[4,4]{1,0:T(4,128)S(1)} get-tuple-element(%wide.param.1), index=33, metadata={op_name="jit(train_step)/jvp()/while/body/jit(dynamic_update_index_in_dim)/dynamic_update_slice" stack_frame_id=0}
  %copy.277 = u32[4,4]{1,0:T(4,128)} copy(%get-tuple-element.2331), backend_config={"flag_configs":[],"scoped_memory_configs":[],"used_scoped_memory_configs":[],"aliasing_operands":{"lists":[]}}
  %get-tuple-element.2332 = u32[4]{0:T(128)S(1)} get-tuple-element(%wide.param.1), index=34, metadata={op_name="jit(train_step)/jvp()/while/body/jit(dynamic_update_index_in_dim)/dynamic_update_slice" stack_frame_id=0}
  %copy.278 = u32[4]{0:T(128)} copy(%get-tuple-element.2332), backend_config={"flag_configs":[],"scoped_memory_configs":[],"used_scoped_memory_configs":[],"aliasing_operands":{"lists":[]}}
  %get-tuple-element.2333 = u32[4,4]{1,0:T(4,128)S(1)} get-tuple-element(%wide.param.1), index=35, metadata={op_name="jit(train_step)/jvp()/while/body/jit(dynamic_update_index_in_dim)/dynamic_update_slice" stack_frame_id=0}
  %copy.279 = u32[4,4]{1,0:T(4,128)} copy(%get-tuple-element.2333), backend_config={"flag_configs":[],"scoped_memory_configs":[],"used_scoped_memory_configs":[],"aliasing_operands":{"lists":[]}}
  %get-tuple-element.2334 = u32[4]{0:T(128)S(1)} get-tuple-element(%wide.param.1), index=36, metadata={op_name="jit(train_step)/jvp()/while/body/jit(dynamic_update_index_in_dim)/dynamic_update_slice" stack_frame_id=0}
  %copy.280 = u32[4]{0:T(128)} copy(%get-tuple-element.2334), backend_config={"flag_configs":[],"scoped_memory_configs":[],"used_scoped_memory_configs":[],"aliasing_operands":{"lists":[]}}
  %get-tuple-element.2335 = u32[4,4]{1,0:T(4,128)S(1)} get-tuple-element(%wide.param.1), index=37, metadata={op_name="jit(train_step)/jvp()/while/body/jit(dynamic_update_index_in_dim)/dynamic_update_slice" stack_frame_id=0}
  %copy.281 = u32[4,4]{1,0:T(4,128)} copy(%get-tuple-element.2335), backend_config={"flag_configs":[],"scoped_memory_configs":[],"used_scoped_memory_configs":[],"aliasing_operands":{"lists":[]}}
  %get-tuple-element.2336 = u32[4]{0:T(128)S(1)} get-tuple-element(%wide.param.1), index=38, metadata={op_name="jit(train_step)/jvp()/while/body/jit(dynamic_update_index_in_dim)/dynamic_update_slice" stack_frame_id=0}
  %copy.282 = u32[4]{0:T(128)} copy(%get-tuple-element.2336), backend_config={"flag_configs":[],"scoped_memory_configs":[],"used_scoped_memory_configs":[],"aliasing_operands":{"lists":[]}}
  %get-tuple-element.2337 = u32[4,4]{1,0:T(4,128)S(1)} get-tuple-element(%wide.param.1), index=39, metadata={op_name="jit(train_step)/jvp()/while/body/jit(dynamic_update_index_in_dim)/dynamic_update_slice" stack_frame_id=0}
  %copy.283 = u32[4,4]{1,0:T(4,128)} copy(%get-tuple-element.2337), backend_config={"flag_configs":[],"scoped_memory_configs":[],"used_scoped_memory_configs":[],"aliasing_operands":{"lists":[]}}
  %get-tuple-element.2339 = s32[]{:T(128)} get-tuple-element(%wide.param.1), index=41
  ROOT %tuple.250 = (s32[]{:T(128)}, bf16[1,128,2048]{2,1,0:T(8,128)(2,1)S(1)}, u32[4]{0:T(128)}, u32[4,4]{1,0:T(4,128)}, u32[4]{0:T(128)}, /*index=5*/u32[4,4]{1,0:T(4,128)}, u32[4]{0:T(128)}, u32[4,4]{1,0:T(4,128)}, u32[4]{0:T(128)}, u32[4,4]{1,0:T(4,128)}, /*index=10*/u32[4]{0:T(128)}, u32[4,4]{1,0:T(4,128)}, u32[4]{0:T(128)}, u32[4,4]{1,0:T(4,128)}, bf16[4,1,128,2048]{3,2,1,0:T(8,128)(2,1)}, /*index=15*/bf16[4,2048]{1,0:T(4,128)(2,1)S(1)}, bf16[4,512,16,128]{1,3,2,0:T(8,128)(2,1)S(1)}, bf16[4,128]{1,0:T(4,128)(2,1)S(1)}, bf16[1,128,1,128]{3,1,2,0:T(8,128)(2,1)S(1)}, bf16[1,128,1,128]{3,1,2,0:T(8,128)(2,1)S(1)}, /*index=20*/bf16[4,512,8,128]{1,3,2,0:T(8,128)(2,1)}, bf16[4,128]{1,0:T(4,128)(2,1)S(1)}, bf16[4,512,8,128]{3,1,2,0:T(8,128)(2,1)}, bf16[4,16,128,512]{3,2,1,0:T(8,128)(2,1)}, bf16[4,2048]{1,0:T(4,128)(2,1)S(1)}, /*index=25*/bf16[4,512,6144]{2,1,0:T(8,128)(2,1)}, bf16[4,512,6144]{2,1,0:T(8,128)(2,1)}, bf16[4,6144,512]{2,1,0:T(8,128)(2,1)}, u32[4]{0:T(128)S(1)}, u32[4,4]{1,0:T(4,128)S(1)}, /*index=30*/u32[4]{0:T(128)S(1)}, u32[4,4]{1,0:T(4,128)S(1)}, u32[4]{0:T(128)S(1)}, u32[4,4]{1,0:T(4,128)S(1)}, u32[4]{0:T(128)S(1)}, /*index=35*/u32[4,4]{1,0:T(4,128)S(1)}, u32[4]{0:T(128)S(1)}, u32[4,4]{1,0:T(4,128)S(1)}, u32[4]{0:T(128)S(1)}, u32[4,4]{1,0:T(4,128)S(1)}, /*index=40*/s32[128]{0:T(128)S(1)}, s32[]{:T(128)}, s8[1,1,1]{2,1,0:T(4,128)(4,1)}, s8[1,1,1]{2,1,0:T(4,128)(4,1)}) tuple(%add.1040, %fusion.525, %copy.272, %copy.273, %copy.274, /*index=5*/%copy.275, %copy.276, %copy.277, %copy.278, %copy.279, /*index=10*/%copy.280, %copy.281, %copy.282, %copy.283, %bitcast_dynamic-update-slice_fusion.5, /*index=15*/%get-tuple-element.2313, %get-tuple-element.2314, %get-tuple-element.2315, %get-tuple-element.2316, %get-tuple-element.2317, /*index=20*/%get-tuple-element.2318, %get-tuple-element.2319, %get-tuple-element.2320, %get-tuple-element.2321, %get-tuple-element.2322, /*index=25*/%get-tuple-element.2323, %get-tuple-element.2324, %get-tuple-element.2325, %get-tuple-element.2326, %get-tuple-element.2327, /*index=30*/%get-tuple-element.2328, %get-tuple-element.2329, %get-tuple-element.2330, %get-tuple-element.2331, %get-tuple-element.2332, /*index=35*/%get-tuple-element.2333, %get-tuple-element.2334, %get-tuple-element.2335, %get-tuple-element.2336, %get-tuple-element.2337, /*index=40*/%get-tuple-element.2338, %get-tuple-element.2339, %get-tuple-element.2340, %get-tuple-element.2341)
}

%wide.region_5.8_spmd.clone.clone.clone (wide.param.113: (s32[], bf16[1,128,2048], u32[4], u32[4,4], u32[4], /*index=5*/u32[4,4], u32[4], u32[4,4], u32[4], u32[4,4], /*index=10*/u32[4], u32[4,4], u32[4], u32[4,4], bf16[4,1,128,2048], /*index=15*/bf16[4,2048], bf16[4,512,16,128], bf16[4,128], bf16[1,128,1,128], bf16[1,128,1,128], /*index=20*/bf16[4,512,8,128], bf16[4,128], bf16[4,512,8,128], bf16[4,16,128,512], bf16[4,2048], /*index=25*/bf16[4,512,6144], bf16[4,512,6144], bf16[4,6144,512], u32[4], u32[4,4], /*index=30*/u32[4], u32[4,4], u32[4], u32[4,4], u32[4], /*index=35*/u32[4,4], u32[4], u32[4,4], u32[4], u32[4,4], /*index=40*/s32[128], s32[], s8[1,1,1], s8[1,1,1])) -> pred[] {
  %constant.405.clone.4 = s32[]{:T(128)} constant(4)
  %wide.param.113 = (s32[]{:T(128)}, bf16[1,128,2048]{2,1,0:T(8,128)(2,1)S(1)}, u32[4]{0:T(128)}, u32[4,4]{1,0:T(4,128)}, u32[4]{0:T(128)}, /*index=5*/u32[4,4]{1,0:T(4,128)}, u32[4]{0:T(128)}, u32[4,4]{1,0:T(4,128)}, u32[4]{0:T(128)}, u32[4,4]{1,0:T(4,128)}, /*index=10*/u32[4]{0:T(128)}, u32[4,4]{1,0:T(4,128)}, u32[4]{0:T(128)}, u32[4,4]{1,0:T(4,128)}, bf16[4,1,128,2048]{3,2,1,0:T(8,128)(2,1)}, /*index=15*/bf16[4,2048]{1,0:T(4,128)(2,1)S(1)}, bf16[4,512,16,128]{1,3,2,0:T(8,128)(2,1)S(1)}, bf16[4,128]{1,0:T(4,128)(2,1)S(1)}, bf16[1,128,1,128]{3,1,2,0:T(8,128)(2,1)S(1)}, bf16[1,128,1,128]{3,1,2,0:T(8,128)(2,1)S(1)}, /*index=20*/bf16[4,512,8,128]{1,3,2,0:T(8,128)(2,1)}, bf16[4,128]{1,0:T(4,128)(2,1)S(1)}, bf16[4,512,8,128]{3,1,2,0:T(8,128)(2,1)}, bf16[4,16,128,512]{3,2,1,0:T(8,128)(2,1)}, bf16[4,2048]{1,0:T(4,128)(2,1)S(1)}, /*index=25*/bf16[4,512,6144]{2,1,0:T(8,128)(2,1)}, bf16[4,512,6144]{2,1,0:T(8,128)(2,1)}, bf16[4,6144,512]{2,1,0:T(8,128)(2,1)}, u32[4]{0:T(128)S(1)}, u32[4,4]{1,0:T(4,128)S(1)}, /*index=30*/u32[4]{0:T(128)S(1)}, u32[4,4]{1,0:T(4,128)S(1)}, u32[4]{0:T(128)S(1)}, u32[4,4]{1,0:T(4,128)S(1)}, u32[4]{0:T(128)S(1)}, /*index=35*/u32[4,4]{1,0:T(4,128)S(1)}, u32[4]{0:T(128)S(1)}, u32[4,4]{1,0:T(4,128)S(1)}, u32[4]{0:T(128)S(1)}, u32[4,4]{1,0:T(4,128)S(1)}, /*index=40*/s32[128]{0:T(128)S(1)}, s32[]{:T(128)}, s8[1,1,1]{2,1,0:T(4,128)(4,1)}, s8[1,1,1]{2,1,0:T(4,128)(4,1)}) parameter(0)
  %get-tuple-element.1912 = s32[]{:T(128)} get-tuple-element(%wide.param.113), index=0
  ROOT %lt.34 = pred[]{:T(512)} compare(%get-tuple-element.1912, %constant.405.clone.4), direction=LT, metadata={op_name="jit(train_step)/jvp()/while/cond/lt" stack_frame_id=0}, backend_config={"flag_configs":[],"scoped_memory_configs":[],"used_scoped_memory_configs":[],"aliasing_operands":{"lists":[]}}
}

%region_6.9 (reduce_sum.228: f32[], reduce_sum.229: f32[]) -> f32[] {
  %reduce_sum.228 = f32[]{:T(128)} parameter(0), metadata={op_name="jit(train_step)/jvp()/reduce_sum"}
  %reduce_sum.229 = f32[]{:T(128)} parameter(1), metadata={op_name="jit(train_step)/jvp()/reduce_sum"}
  ROOT %reduce_sum.230 = f32[]{:T(128)} add(%reduce_sum.228, %reduce_sum.229), metadata={op_name="jit(train_step)/jvp()/reduce_sum" stack_frame_id=0}, backend_config={"flag_configs":[],"scoped_memory_configs":[],"used_scoped_memory_configs":[],"aliasing_operands":{"lists":[]}}
}

%fused_computation.406 (param_0.1545: bf16[1,128,2048]) -> f32[128] {
  %param_0.1545 = bf16[1,128,2048]{2,1,0:T(8,128)(2,1)S(1)} parameter(0)
  %convert_element_type.1257 = f32[1,128,2048]{2,1,0:T(8,128)} convert(%param_0.1545), metadata={op_name="jit(train_step)/jvp()/convert_element_type" stack_frame_id=0}
  %square.243 = f32[1,128,2048]{2,1,0:T(8,128)} multiply(%convert_element_type.1257, %convert_element_type.1257), metadata={op_name="jit(train_step)/jvp()/square" stack_frame_id=0}
  %constant.445.clone.29 = f32[]{:T(128)} constant(0)
  ROOT %reduce.151 = f32[128]{0:T(128)S(1)} reduce(%square.243, %constant.445.clone.29), dimensions={0,2}, to_apply=%region_6.9, metadata={op_name="jit(train_step)/jvp()/reduce_sum" stack_frame_id=0}
}

%fused_computation.467 (param_0.1359: f32[128]) -> f32[128] {
  %param_0.1359 = f32[128]{0:T(128)S(1)} parameter(0)
  %constant.446.clone.2 = f32[]{:T(128)} constant(0.00048828125)
  %broadcast.865 = f32[128]{0:T(128)} broadcast(%constant.446.clone.2), dimensions={}, metadata={op_name="broadcast.369"}
  %div.784 = f32[128]{0:T(128)} multiply(%param_0.1359, %broadcast.865), metadata={op_name="jit(train_step)/jvp()/div" stack_frame_id=0}
  %constant.447.clone.2 = f32[]{:T(128)} constant(1e-06)
  %broadcast.863 = f32[128]{0:T(128)} broadcast(%constant.447.clone.2), dimensions={}, metadata={op_name="jit(train_step)/jvp()/add" stack_frame_id=0}
  %add.911 = f32[128]{0:T(128)} add(%div.784, %broadcast.863), metadata={op_name="jit(train_step)/jvp()/add" stack_frame_id=0}
  %bitcast.624 = f32[1,128]{1,0:T(1,128)} bitcast(%add.911), metadata={op_name="jit(train_step)/jvp()/add" stack_frame_id=0}
  %rsqrt.195 = f32[1,128]{1,0:T(1,128)} rsqrt(%bitcast.624), metadata={op_name="jit(train_step)/jvp()/rsqrt" stack_frame_id=0}
  ROOT %bitcast.614 = f32[128]{0:T(128)} bitcast(%rsqrt.195), metadata={op_name="jit(train_step)/jvp()/rsqrt" stack_frame_id=0}
}

%fused_computation.412.clone.clone (param_0.1505: bf16[2048], param_1.1687: f32[128], param_2.1283: bf16[1,128,2048]) -> bf16[128,2048] {
  %param_2.1283 = bf16[1,128,2048]{2,1,0:T(8,128)(2,1)} parameter(2)
  %convert_element_type.1338 = f32[1,128,2048]{2,1,0:T(8,128)} convert(%param_2.1283), metadata={op_name="jit(train_step)/jvp()/convert_element_type" stack_frame_id=0}
  %param_1.1687 = f32[128]{0:T(128)S(1)} parameter(1)
  %mul.2621 = f32[1,128,2048]{2,1,0:T(8,128)} broadcast(%param_1.1687), dimensions={1}, metadata={op_name="jit(train_step)/jvp()/mul" stack_frame_id=0}
  %mul.2620 = f32[1,128,2048]{2,1,0:T(8,128)} multiply(%convert_element_type.1338, %mul.2621), metadata={op_name="jit(train_step)/jvp()/mul" stack_frame_id=0}
  %convert_element_type.1337 = bf16[1,128,2048]{2,1,0:T(8,128)(2,1)} convert(%mul.2620), metadata={op_name="jit(train_step)/jvp()/convert_element_type" stack_frame_id=0}
  %convert.145 = f32[1,128,2048]{2,1,0:T(8,128)} convert(%convert_element_type.1337)
  %param_0.1505 = bf16[2048]{0:T(1024)(128)(2,1)S(1)} parameter(0)
  %mul.2619 = bf16[1,128,2048]{2,1,0:T(8,128)(2,1)} broadcast(%param_0.1505), dimensions={2}, metadata={op_name="jit(train_step)/jvp()/mul" stack_frame_id=0}
  %convert.146 = f32[1,128,2048]{2,1,0:T(8,128)} convert(%mul.2619)
  %mul.2618 = f32[1,128,2048]{2,1,0:T(8,128)} multiply(%convert.145, %convert.146), metadata={op_name="jit(train_step)/jvp()/mul" stack_frame_id=0}, backend_config={"flag_configs":[],"scoped_memory_configs":[],"used_scoped_memory_configs":[],"float_type_correction_info":{"original_type":"BF16","original_shape":{"element_type":"BF16","dimensions":["1","128","2048"],"tuple_shapes":[],"layout":{"minor_to_major":["2","1","0"],"tiles":[{"dimensions":["8","128"]},{"dimensions":["2","1"]}],"element_size_in_bits":"0","memory_space":"0","dim_level_types":[],"index_primitive_type":"PRIMITIVE_TYPE_INVALID","pointer_primitive_type":"PRIMITIVE_TYPE_INVALID","dim_unique":[],"dim_ordered":[],"dynamic_shape_metadata_prefix_bytes":"0","tail_padding_alignment_in_elements":"1","split_configs":[]},"is_dynamic_dimension":[false,false,false]}}}
  %convert.147 = bf16[1,128,2048]{2,1,0:T(8,128)(2,1)} convert(%mul.2618)
  ROOT %bitcast.749 = bf16[128,2048]{1,0:T(8,128)(2,1)} bitcast(%convert.147)
}

%bitcast_fusion.3 (bitcast_input.3: bf16[151936,2048]) -> bf16[151936,2048] {
  %bitcast_input.3 = bf16[151936,2048]{1,0:T(8,128)(2,1)} parameter(0)
  ROOT %bitcast.761 = bf16[151936,2048]{1,0:T(8,128)(2,1)} bitcast(%bitcast_input.3)
}

%region_8.11 (reduce_max.6: bf16[], reduce_max.8: bf16[]) -> bf16[] {
  %reduce_max.6 = bf16[]{:T(256)} parameter(0), metadata={op_name="jit(train_step)/jvp()/reduce_max"}
  %reduce_max.8 = bf16[]{:T(256)} parameter(1), metadata={op_name="jit(train_step)/jvp()/reduce_max"}
  ROOT %reduce_max.9 = bf16[]{:T(256)} maximum(%reduce_max.6, %reduce_max.8), metadata={op_name="jit(train_step)/jvp()/reduce_max" stack_frame_id=0}, backend_config={"flag_configs":[],"scoped_memory_configs":[],"used_scoped_memory_configs":[],"aliasing_operands":{"lists":[]}}
}

%fused_computation.496 (param_0.1513: bf16[151936,2048], param_1.1692: bf16[2048], param_2.1300: f32[128], param_3.867: bf16[1,128,2048]) -> (bf16[128], bf16[128,151936]) {
  %param_1.1692 = bf16[2048]{0:T(1024)(128)(2,1)S(1)} parameter(1)
  %param_2.1300 = f32[128]{0:T(128)S(1)} parameter(2)
  %param_3.867 = bf16[1,128,2048]{2,1,0:T(8,128)(2,1)} parameter(3)
  %fusion.319.clone.1 = bf16[128,2048]{1,0:T(8,128)(2,1)} fusion(%param_1.1692, %param_2.1300, %param_3.867), kind=kLoop, calls=%fused_computation.412.clone.clone
  %param_0.1513 = bf16[151936,2048]{1,0:T(8,128)(2,1)} parameter(0)
  %fusion.357 = bf16[151936,2048]{1,0:T(8,128)(2,1)} fusion(%param_0.1513), kind=kLoop, calls=%bitcast_fusion.3
  %convolution.115.clone.1 = bf16[128,151936]{1,0:T(8,128)(2,1)S(1)} convolution(%fusion.319.clone.1, %fusion.357), dim_labels=bf_oi->bf, metadata={op_name="jit(train_step)/jvp()/dot_general" stack_frame_id=0}
  %constant.449.clone.3 = bf16[]{:T(256)} constant(-inf)
  %reduce.172 = bf16[128]{0:T(256)(128)(2,1)S(1)} reduce(%convolution.115.clone.1, %constant.449.clone.3), dimensions={1}, to_apply=%region_8.11, metadata={op_name="jit(train_step)/jvp()/reduce_max" stack_frame_id=0}
  ROOT %tuple.171 = (bf16[128]{0:T(256)(128)(2,1)S(1)}, bf16[128,151936]{1,0:T(8,128)(2,1)S(1)}) tuple(%reduce.172, %convolution.115.clone.1)
}

%region_9.12 (reduce_sum.237: f32[], reduce_sum.241: f32[]) -> f32[] {
  %reduce_sum.237 = f32[]{:T(128)} parameter(0), metadata={op_name="jit(train_step)/jvp()/reduce_sum"}
  %reduce_sum.241 = f32[]{:T(128)} parameter(1), metadata={op_name="jit(train_step)/jvp()/reduce_sum"}
  ROOT %reduce_sum.262 = f32[]{:T(128)} add(%reduce_sum.237, %reduce_sum.241), metadata={op_name="jit(train_step)/jvp()/reduce_sum" stack_frame_id=0}, backend_config={"flag_configs":[],"scoped_memory_configs":[],"used_scoped_memory_configs":[],"aliasing_operands":{"lists":[]}}
}

%fused_computation.328 (param_0.1544: bf16[128,151936], param_1.1718: bf16[128]) -> f32[128] {
  %param_0.1544 = bf16[128,151936]{1,0:T(8,128)(2,1)S(1)} parameter(0)
  %convert_element_type.1224 = f32[128,151936]{1,0:T(8,128)} convert(%param_0.1544), metadata={op_name="jit(train_step)/jvp()/convert_element_type" stack_frame_id=0}
  %bitcast.520 = f32[1,128,151936]{2,1,0:T(8,128)} bitcast(%convert_element_type.1224), metadata={op_name="jit(train_step)/jvp()/convert_element_type" stack_frame_id=0}
  %param_1.1718 = bf16[128]{0:T(256)(128)(2,1)S(1)} parameter(1)
  %sub.100 = f32[1,128,151936]{2,1,0:T(8,128)} broadcast(%param_1.1718), dimensions={1}, metadata={op_name="jit(train_step)/jvp()/sub" stack_frame_id=0}
  %sub.71 = f32[1,128,151936]{2,1,0:T(8,128)} subtract(%bitcast.520, %sub.100), metadata={op_name="jit(train_step)/jvp()/sub" stack_frame_id=0}
  %exp.51 = f32[1,128,151936]{2,1,0:T(8,128)} exponential(%sub.71), metadata={op_name="jit(train_step)/jvp()/exp" stack_frame_id=0}
  %constant.445.clone.28 = f32[]{:T(128)} constant(0)
  ROOT %reduce.128 = f32[128]{0:T(128)S(1)} reduce(%exp.51, %constant.445.clone.28), dimensions={0,2}, to_apply=%region_9.12, metadata={op_name="jit(train_step)/jvp()/reduce_sum" stack_frame_id=0}
}

%fused_computation.495 (param_0.1501: f32[128], param_1.1717: bf16[128]) -> (f32[128], f32[128]) {
  %param_0.1501 = f32[128]{0:T(128)S(1)} parameter(0)
  %log.23 = f32[128]{0:T(128)S(1)} log(%param_0.1501), metadata={op_name="jit(train_step)/jvp()/log" stack_frame_id=0}
  %param_1.1717 = bf16[128]{0:T(256)(128)(2,1)S(1)} parameter(1)
  %reduce_max.18.clone.1 = f32[128]{0:T(128)} convert(%param_1.1717), metadata={op_name="jit(train_step)/jvp()/reduce_max" stack_frame_id=0}
  %add.916.clone.1 = f32[128]{0:T(128)} add(%log.23, %reduce_max.18.clone.1), metadata={op_name="jit(train_step)/jvp()/add" stack_frame_id=0}
  %constant.445.clone.27 = f32[]{:T(128)} constant(0)
  %broadcast.861.clone.1 = f32[128]{0:T(128)} broadcast(%constant.445.clone.27), dimensions={}, metadata={op_name="broadcast.116"}
…
%fused_computation.488.clone.1 (param_0.1749: f32[1,16,128,128]) -> (f32[1,16,128,1], f32[16,128]) {
  %param_0.1749 = f32[1,16,128,128]{2,1,3,0:T(8,128)S(1)} parameter(0)
  %slice.77 = f32[1,16,128,1]{2,1,3,0:T(8,128)} slice(%param_0.1749), slice={[0:1], [0:16], [0:128], [0:1]}, metadata={op_name="jit(train_step)/transpose(jvp())/while/body/closed_call/checkpoint/rematted_computation/shard_map/vmap(static_sparsity_splash)/jit(_splash_attention)/slice" stack_frame_id=0}
  %bitcast.489.clone.3 = f32[16,128]{1,0:T(8,128)S(1)} bitcast(%slice.77), metadata={op_name="jit(train_step)/transpose(jvp())/while/body/closed_call/checkpoint/shard_map/vmap(static_sparsity_splash)/jit(_splash_attention)/broadcast_in_dim" stack_frame_id=0}
  ROOT %tuple.229 = (f32[1,16,128,1]{2,1,3,0:T(8,128)}, f32[16,128]{1,0:T(8,128)S(1)}) tuple(%slice.77, %bitcast.489.clone.3)
}

%fused_computation.99.clone.1 (param_0.1730: bf16[4,6144,512], param_1.1836: s32[]) -> bf16[1,6144,512] {
  %param_0.1730 = bf16[4,6144,512]{2,1,0:T(8,128)(2,1)} parameter(0)
  %param_1.1836 = s32[]{:T(128)S(6)} parameter(1)
  %constant.409.clone.88 = s32[]{:T(128)} constant(0)
  ROOT %dynamic-slice.193 = bf16[1,6144,512]{2,1,0:T(8,128)(2,1)} dynamic-slice(%param_0.1730, %param_1.1836, %constant.409.clone.88, %constant.409.clone.88), dynamic_slice_sizes={1,6144,512}, metadata={op_name="jit(train_step)/transpose(jvp())/while/body/jit(dynamic_index_in_dim)/dynamic_slice" stack_frame_id=0}, backend_config={"flag_configs":[],"scoped_memory_configs":[],"indices_config":{"index_known_bits":[{"zeroes":"4294967292","ones":"0","bitwidth":"32"},{"zeroes":"4294967295","ones":"0","bitwidth":"32"},{"zeroes":"4294967295","ones":"0","bitwidth":"32"}],"is_index_aligned":[]},"used_scoped_memory_configs":[]}
}

%fused_computation.90.clone.clone.clone.1 (param_0.1732: bf16[1,6144,2048]) -> bf16[6144,2048] {
  %param_0.1732 = bf16[1,6144,2048]{2,1,0:T(8,128)(2,1)} parameter(0)
  ROOT %bitcast.935 = bf16[6144,2048]{1,0:T(8,128)(2,1)} bitcast(%param_0.1732), metadata={op_name="jit(train_step)/transpose(jvp())/while/body/closed_call/checkpoint/dot_general" stack_frame_id=0}
}

%fused_computation.213.clone.1 (param_0.1731: bf16[1,128,2048]) -> bf16[128,2048] {
  %param_0.1731 = bf16[1,128,2048]{2,1,0:T(8,128)(2,1)} parameter(0)
  ROOT %bitcast.934 = bf16[128,2048]{1,0:T(8,128)(2,1)} bitcast(%param_0.1731)
}

%fused_computation.122.clone.1 (param_0.1733: bf16[1,6144,2048], param_1.1837: bf16[1,128,2048]) -> bf16[1,128,6144] {
  %param_0.1733 = bf16[1,6144,2048]{2,1,0:T(8,128)(2,1)} parameter(0)
  %fusion.446 = bf16[6144,2048]{1,0:T(8,128)(2,1)} fusion(%param_0.1733), kind=kLoop, calls=%fused_computation.90.clone.clone.clone.1, metadata={op_name="jit(train_step)/transpose(jvp())/while/body/closed_call/checkpoint/dot_general" stack_frame_id=0}
  %param_1.1837 = bf16[1,128,2048]{2,1,0:T(8,128)(2,1)} parameter(1)
  %fusion.447 = bf16[128,2048]{1,0:T(8,128)(2,1)} fusion(%param_1.1837), kind=kLoop, calls=%fused_computation.213.clone.1
  %convolution.136 = bf16[6144,128]{0,1:T(8,128)(2,1)} convolution(%fusion.446, %fusion.447), dim_labels=bf_oi->bf, metadata={op_name="jit(train_step)/transpose(jvp())/while/body/closed_call/checkpoint/dot_general" stack_frame_id=0}
  ROOT %bitcast.936 = bf16[1,128,6144]{2,1,0:T(8,128)(2,1)S(1)} bitcast(%convolution.136), metadata={op_name="jit(train_step)/transpose(jvp())/while/body/closed_call/checkpoint/dot_general" stack_frame_id=0}
}

%fused_computation.147.clone.1 (param_0.1739: bf16[1,128,6144], param_1.1841: bf16[1,128,6144]) -> bf16[128,6144] {
  %param_1.1841 = bf16[1,128,6144]{2,1,0:T(8,128)(2,1)S(1)} parameter(1)
  %convert.163 = f32[1,128,6144]{2,1,0:T(8,128)} convert(%param_1.1841)
  %constant.419.clone.21 = bf16[]{:T(256)} constant(1)
  %jit_silu_.41 = bf16[1,128,6144]{2,1,0:T(8,128)(2,1)} broadcast(%constant.419.clone.21), dimensions={}, metadata={op_name="jit(train_step)/transpose(jvp())/while/body/closed_call/checkpoint/rematted_computation/jit(silu)" stack_frame_id=0}
  %convert.164 = f32[1,128,6144]{2,1,0:T(8,128)} convert(%jit_silu_.41)
  %neg.128 = f32[1,128,6144]{2,1,0:T(8,128)} negate(%convert.163), metadata={op_name="jit(train_step)/transpose(jvp())/while/body/closed_call/checkpoint/rematted_computation/jit(silu)/neg" stack_frame_id=0}, backend_config={"flag_configs":[],"scoped_memory_configs":[],"used_scoped_memory_configs":[],"float_type_correction_info":{"original_type":"BF16","original_shape":{"element_type":"BF16","dimensions":["1","128","6144"],"tuple_shapes":[],"layout":{"minor_to_major":["2","1","0"],"tiles":[{"dimensions":["8","128"]},{"dimensions":["2","1"]}],"element_size_in_bits":"0","memory_space":"0","dim_level_types":[],"index_primitive_type":"PRIMITIVE_TYPE_INVALID","pointer_primitive_type":"PRIMITIVE_TYPE_INVALID","dim_unique":[],"dim_ordered":[],"dynamic_shape_metadata_prefix_bytes":"0","tail_padding_alignment_in_elements":"1","split_configs":[]},"is_dynamic_dimension":[false,false,false]}}}
  %exp.74 = f32[1,128,6144]{2,1,0:T(8,128)} exponential(%neg.128), metadata={op_name="jit(train_step)/transpose(jvp())/while/body/closed_call/checkpoint/rematted_computation/jit(silu)/exp" stack_frame_id=0}, backend_config={"flag_configs":[],"scoped_memory_configs":[],"used_scoped_memory_configs":[],"float_type_correction_info":{"original_type":"BF16","original_shape":{"element_type":"BF16","dimensions":["1","128","6144"],"tuple_shapes":[],"layout":{"minor_to_major":["2","1","0"],"tiles":[{"dimensions":["8","128"]},{"dimensions":["2","1"]}],"element_size_in_bits":"0","memory_space":"0","dim_level_types":[],"index_primitive_type":"PRIMITIVE_TYPE_INVALID","pointer_primitive_type":"PRIMITIVE_TYPE_INVALID","dim_unique":[],"dim_ordered":[],"dynamic_shape_metadata_prefix_bytes":"0","tail_padding_alignment_in_elements":"1","split_configs":[]},"is_dynamic_dimension":[false,false,false]}}}
  %add.1022 = f32[1,128,6144]{2,1,0:T(8,128)} add(%exp.74, %convert.164), metadata={op_name="jit(train_step)/transpose(jvp())/while/body/closed_call/checkpoint/rematted_computation/jit(silu)/add" stack_frame_id=0}, backend_config={"flag_configs":[],"scoped_memory_configs":[],"used_scoped_memory_configs":[],"float_type_correction_info":{"original_type":"BF16","original_shape":{"element_type":"BF16","dimensions":["1","128","6144"],"tuple_shapes":[],"layout":{"minor_to_major":["2","1","0"],"tiles":[{"dimensions":["8","128"]},{"dimensions":["2","1"]}],"element_size_in_bits":"0","memory_space":"0","dim_level_types":[],"index_primitive_type":"PRIMITIVE_TYPE_INVALID","pointer_primitive_type":"PRIMITIVE_TYPE_INVALID","dim_unique":[],"dim_ordered":[],"dynamic_shape_metadata_prefix_bytes":"0","tail_padding_alignment_in_elements":"1","split_configs":[]},"is_dynamic_dimension":[false,false,false]}}}
  %div.1017 = f32[1,128,6144]{2,1,0:T(8,128)} divide(%convert.164, %add.1022), metadata={op_name="jit(train_step)/transpose(jvp())/while/body/closed_call/checkpoint/rematted_computation/jit(silu)/div" stack_frame_id=0}, backend_config={"flag_configs":[],"scoped_memory_configs":[],"used_scoped_memory_configs":[],"float_type_correction_info":{"original_type":"BF16","original_shape":{"element_type":"BF16","dimensions":["1","128","6144"],"tuple_shapes":[],"layout":{"minor_to_major":["2","1","0"],"tiles":[{"dimensions":["8","128"]},{"dimensions":["2","1"]}],"element_size_in_bits":"0","memory_space":"0","dim_level_types":[],"index_primitive_type":"PRIMITIVE_TYPE_INVALID","pointer_primitive_type":"PRIMITIVE_TYPE_INVALID","dim_unique":[],"dim_ordered":[],"dynamic_shape_metadata_prefix_bytes":"0","tail_padding_alignment_in_elements":"1","split_configs":[]},"is_dynamic_dimension":[false,false,false]}}}
  %mul.2905 = f32[1,128,6144]{2,1,0:T(8,128)} multiply(%convert.163, %div.1017), metadata={op_name="jit(train_step)/transpose(jvp())/while/body/closed_call/checkpoint/rematted_computation/jit(silu)/mul" stack_frame_id=0}, backend_config={"flag_configs":[],"scoped_memory_configs":[],"used_scoped_memory_configs":[],"float_type_correction_info":{"original_type":"BF16","original_shape":{"element_type":"BF16","dimensions":["1","128","6144"],"tuple_shapes":[],"layout":{"minor_to_major":["2","1","0"],"tiles":[{"dimensions":["8","128"]},{"dimensions":["2","1"]}],"element_size_in_bits":"0","memory_space":"0","dim_level_types":[],"index_primitive_type":"PRIMITIVE_TYPE_INVALID","pointer_primitive_type":"PRIMITIVE_TYPE_INVALID","dim_unique":[],"dim_ordered":[],"dynamic_shape_metadata_prefix_bytes":"0","tail_padding_alignment_in_elements":"1","split_configs":[]},"is_dynamic_dimension":[false,false,false]}}}
  %param_0.1739 = bf16[1,128,6144]{2,1,0:T(8,128)(2,1)S(1)} parameter(0)
  %convert.165 = f32[1,128,6144]{2,1,0:T(8,128)} convert(%param_0.1739)
  %mul.2904 = f32[1,128,6144]{2,1,0:T(8,128)} multiply(%mul.2905, %convert.165), metadata={op_name="jit(train_step)/transpose(jvp())/while/body/closed_call/checkpoint/mul" stack_frame_id=0}, backend_config={"flag_configs":[],"scoped_memory_configs":[],"used_scoped_memory_configs":[],"float_type_correction_info":{"original_type":"BF16","original_shape":{"element_type":"BF16","dimensions":["1","128","6144"],"tuple_shapes":[],"layout":{"minor_to_major":["2","1","0"],"tiles":[{"dimensions":["8","128"]},{"dimensions":["2","1"]}],"element_size_in_bits":"0","memory_space":"0","dim_level_types":[],"index_primitive_type":"PRIMITIVE_TYPE_INVALID","pointer_primitive_type":"PRIMITIVE_TYPE_INVALID","dim_unique":[],"dim_ordered":[],"dynamic_shape_metadata_prefix_bytes":"0","tail_padding_alignment_in_elements":"1","split_configs":[]},"is_dynamic_dimension":[false,false,false]}}}
  %convert.166 = bf16[1,128,6144]{2,1,0:T(8,128)(2,1)} convert(%mul.2904)
  ROOT %bitcast.941 = bf16[128,6144]{1,0:T(8,128)(2,1)} bitcast(%convert.166)
}

%fused_computation.88.clone.1 (param_0.1738: bf16[1,2048,6144]) -> bf16[2048,6144] {
  %param_0.1738 = bf16[1,2048,6144]{2,1,0:T(8,128)(2,1)S(1)} parameter(0)
  ROOT %bitcast.940 = bf16[2048,6144]{1,0:T(8,128)(2,1)} bitcast(%param_0.1738), metadata={op_name="jit(train_step)/transpose(jvp())/while/body/closed_call/checkpoint/dot_general" stack_frame_id=0}
}

%fused_computation.87.clone.1 (param_0.1740: bf16[1,2048,6144], param_1.1842: bf16[1,128,6144], param_2.1410: bf16[1,128,6144]) -> bf16[128,2048] {
  %param_1.1842 = bf16[1,128,6144]{2,1,0:T(8,128)(2,1)S(1)} parameter(1)
  %param_2.1410 = bf16[1,128,6144]{2,1,0:T(8,128)(2,1)S(1)} parameter(2)
  %fusion.451 = bf16[128,6144]{1,0:T(8,128)(2,1)} fusion(%param_1.1842, %param_2.1410), kind=kLoop, calls=%fused_computation.147.clone.1
  %param_0.1740 = bf16[1,2048,6144]{2,1,0:T(8,128)(2,1)S(1)} parameter(0)
  %fusion.450 = bf16[2048,6144]{1,0:T(8,128)(2,1)} fusion(%param_0.1740), kind=kLoop, calls=%fused_computation.88.clone.1, metadata={op_name="jit(train_step)/transpose(jvp())/while/body/closed_call/checkpoint/dot_general" stack_frame_id=0}
  ROOT %convolution.138 = bf16[128,2048]{1,0:T(8,128)(2,1)} convolution(%fusion.451, %fusion.450), dim_labels=bf_oi->bf, metadata={op_name="jit(train_step)/transpose(jvp())/while/body/closed_call/checkpoint/dot_general" stack_frame_id=0}
}

%fused_computation.142.clone.1.clone.clone.clone.1 (param_0.1742: bf16[1,128,6144], param_1.1843: bf16[1,128,6144], param_2.1411: bf16[1,128,6144]) -> bf16[128,6144] {
  %param_1.1843 = bf16[1,128,6144]{2,1,0:T(8,128)(2,1)S(1)} parameter(1)
  %convert.167 = f32[1,128,6144]{2,1,0:T(8,128)} convert(%param_1.1843)
  %param_2.1411 = bf16[1,128,6144]{2,1,0:T(8,128)(2,1)S(1)} parameter(2)
  %convert.168 = f32[1,128,6144]{2,1,0:T(8,128)} convert(%param_2.1411)
  %mul.2910 = f32[1,128,6144]{2,1,0:T(8,128)} multiply(%convert.167, %convert.168), metadata={op_name="jit(train_step)/transpose(jvp())/while/body/closed_call/checkpoint/mul" stack_frame_id=0}, backend_config={"flag_configs":[],"scoped_memory_configs":[],"used_scoped_memory_configs":[],"float_type_correction_info":{"original_type":"BF16","original_shape":{"element_type":"BF16","dimensions":["1","128","6144"],"tuple_shapes":[],"layout":{"minor_to_major":["2","1","0"],"tiles":[{"dimensions":["8","128"]},{"dimensions":["2","1"]}],"element_size_in_bits":"0","memory_space":"0","dim_level_types":[],"index_primitive_type":"PRIMITIVE_TYPE_INVALID","pointer_primitive_type":"PRIMITIVE_TYPE_INVALID","dim_unique":[],"dim_ordered":[],"dynamic_shape_metadata_prefix_bytes":"0","tail_padding_alignment_in_elements":"1","split_configs":[]},"is_dynamic_dimension":[false,false,false]}}}
  %constant.419.clone.22 = bf16[]{:T(256)} constant(1)
  %jit_silu_.42 = bf16[1,128,6144]{2,1,0:T(8,128)(2,1)} broadcast(%constant.419.clone.22), dimensions={}, metadata={op_name="jit(train_step)/transpose(jvp())/while/body/closed_call/checkpoint/rematted_computation/jit(silu)" stack_frame_id=0}
  %convert.170 = f32[1,128,6144]{2,1,0:T(8,128)} convert(%jit_silu_.42)
  %param_0.1742 = bf16[1,128,6144]{2,1,0:T(8,128)(2,1)S(1)} parameter(0)
  %convert.169 = f32[1,128,6144]{2,1,0:T(8,128)} convert(%param_0.1742)
  %neg.129 = f32[1,128,6144]{2,1,0:T(8,128)} negate(%convert.169), metadata={op_name="jit(train_step)/transpose(jvp())/while/body/closed_call/checkpoint/rematted_computation/jit(silu)/neg" stack_frame_id=0}, backend_config={"flag_configs":[],"scoped_memory_configs":[],"used_scoped_memory_configs":[],"float_type_correction_info":{"original_type":"BF16","original_shape":{"element_type":"BF16","dimensions":["1","128","6144"],"tuple_shapes":[],"layout":{"minor_to_major":["2","1","0"],"tiles":[{"dimensions":["8","128"]},{"dimensions":["2","1"]}],"element_size_in_bits":"0","memory_space":"0","dim_level_types":[],"index_primitive_type":"PRIMITIVE_TYPE_INVALID","pointer_primitive_type":"PRIMITIVE_TYPE_INVALID","dim_unique":[],"dim_ordered":[],"dynamic_shape_metadata_prefix_bytes":"0","tail_padding_alignment_in_elements":"1","split_configs":[]},"is_dynamic_dimension":[false,false,false]}}}
  %exp.75 = f32[1,128,6144]{2,1,0:T(8,128)} exponential(%neg.129), metadata={op_name="jit(train_step)/transpose(jvp())/while/body/closed_call/checkpoint/rematted_computation/jit(silu)/exp" stack_frame_id=0}, backend_config={"flag_configs":[],"scoped_memory_configs":[],"used_scoped_memory_configs":[],"float_type_correction_info":{"original_type":"BF16","original_shape":{"element_type":"BF16","dimensions":["1","128","6144"],"tuple_shapes":[],"layout":{"minor_to_major":["2","1","0"],"tiles":[{"dimensions":["8","128"]},{"dimensions":["2","1"]}],"element_size_in_bits":"0","memory_space":"0","dim_level_types":[],"index_primitive_type":"PRIMITIVE_TYPE_INVALID","pointer_primitive_type":"PRIMITIVE_TYPE_INVALID","dim_unique":[],"dim_ordered":[],"dynamic_shape_metadata_prefix_bytes":"0","tail_padding_alignment_in_elements":"1","split_configs":[]},"is_dynamic_dimension":[false,false,false]}}}
  %add.1023 = f32[1,128,6144]{2,1,0:T(8,128)} add(%exp.75, %convert.170), metadata={op_name="jit(train_step)/transpose(jvp())/while/body/closed_call/checkpoint/rematted_computation/jit(silu)/add" stack_frame_id=0}, backend_config={"flag_configs":[],"scoped_memory_configs":[],"used_scoped_memory_configs":[],"float_type_correction_info":{"original_type":"BF16","original_shape":{"element_type":"BF16","dimensions":["1","128","6144"],"tuple_shapes":[],"layout":{"minor_to_major":["2","1","0"],"tiles":[{"dimensions":["8","128"]},{"dimensions":["2","1"]}],"element_size_in_bits":"0","memory_space":"0","dim_level_types":[],"index_primitive_type":"PRIMITIVE_TYPE_INVALID","pointer_primitive_type":"PRIMITIVE_TYPE_INVALID","dim_unique":[],"dim_ordered":[],"dynamic_shape_metadata_prefix_bytes":"0","tail_padding_alignment_in_elements":"1","split_configs":[]},"is_dynamic_dimension":[false,false,false]}}}
  %div.1018 = f32[1,128,6144]{2,1,0:T(8,128)} divide(%convert.170, %add.1023), metadata={op_name="jit(train_step)/transpose(jvp())/while/body/closed_call/checkpoint/rematted_computation/jit(silu)/div" stack_frame_id=0}, backend_config={"flag_configs":[],"scoped_memory_configs":[],"used_scoped_memory_configs":[],"float_type_correction_info":{"original_type":"BF16","original_shape":{"element_type":"BF16","dimensions":["1","128","6144"],"tuple_shapes":[],"layout":{"minor_to_major":["2","1","0"],"tiles":[{"dimensions":["8","128"]},{"dimensions":["2","1"]}],"element_size_in_bits":"0","memory_space":"0","dim_level_types":[],"index_primitive_type":"PRIMITIVE_TYPE_INVALID","pointer_primitive_type":"PRIMITIVE_TYPE_INVALID","dim_unique":[],"dim_ordered":[],"dynamic_shape_metadata_prefix_bytes":"0","tail_padding_alignment_in_elements":"1","split_configs":[]},"is_dynamic_dimension":[false,false,false]}}}
  %mul.2909 = f32[1,128,6144]{2,1,0:T(8,128)} multiply(%mul.2910, %div.1018), metadata={op_name="jit(train_step)/transpose(jvp())/while/body/closed_call/checkpoint/jit(silu)/mul" stack_frame_id=0}, backend_config={"flag_configs":[],"scoped_memory_configs":[],"used_scoped_memory_configs":[],"float_type_correction_info":{"original_type":"BF16","original_shape":{"element_type":"BF16","dimensions":["1","128","6144"],"tuple_shapes":[],"layout":{"minor_to_major":["2","1","0"],"tiles":[{"dimensions":["8","128"]},{"dimensions":["2","1"]}],"element_size_in_bits":"0","memory_space":"0","dim_level_types":[],"index_primitive_type":"PRIMITIVE_TYPE_INVALID","pointer_primitive_type":"PRIMITIVE_TYPE_INVALID","dim_unique":[],"dim_ordered":[],"dynamic_shape_metadata_prefix_bytes":"0","tail_padding_alignment_in_elements":"1","split_configs":[]},"is_dynamic_dimension":[false,false,false]}}}
  %mul.2908 = f32[1,128,6144]{2,1,0:T(8,128)} multiply(%convert.169, %mul.2910), metadata={op_name="jit(train_step)/transpose(jvp())/while/body/closed_call/checkpoint/jit(silu)/mul" stack_frame_id=0}, backend_config={"flag_configs":[],"scoped_memory_configs":[],"used_scoped_memory_configs":[],"float_type_correction_info":{"original_type":"BF16","original_shape":{"element_type":"BF16","dimensions":["1","128","6144"],"tuple_shapes":[],"layout":{"minor_to_major":["2","1","0"],"tiles":[{"dimensions":["8","128"]},{"dimensions":["2","1"]}],"element_size_in_bits":"0","memory_space":"0","dim_level_types":[],"index_primitive_type":"PRIMITIVE_TYPE_INVALID","pointer_primitive_type":"PRIMITIVE_TYPE_INVALID","dim_unique":[],"dim_ordered":[],"dynamic_shape_metadata_prefix_bytes":"0","tail_padding_alignment_in_elements":"1","split_configs":[]},"is_dynamic_dimension":[false,false,false]}}}
  %sub.118 = f32[1,128,6144]{2,1,0:T(8,128)} subtract(%convert.170, %div.1018), metadata={op_name="jit(train_step)/transpose(jvp())/while/body/closed_call/checkpoint/rematted_computation/jit(silu)/sub" stack_frame_id=0}, backend_config={"flag_configs":[],"scoped_memory_configs":[],"used_scoped_memory_configs":[],"float_type_correction_info":{"original_type":"BF16","original_shape":{"element_type":"BF16","dimensions":["1","128","6144"],"tuple_shapes":[],"layout":{"minor_to_major":["2","1","0"],"tiles":[{"dimensions":["8","128"]},{"dimensions":["2","1"]}],"element_size_in_bits":"0","memory_space":"0","dim_level_types":[],"index_primitive_type":"PRIMITIVE_TYPE_INVALID","pointer_primitive_type":"PRIMITIVE_TYPE_INVALID","dim_unique":[],"dim_ordered":[],"dynamic_shape_metadata_prefix_bytes":"0","tail_padding_alignment_in_elements":"1","split_configs":[]},"is_dynamic_dimension":[false,false,false]}}}
  %mul.2907 = f32[1,128,6144]{2,1,0:T(8,128)} multiply(%div.1018, %sub.118), metadata={op_name="jit(train_step)/transpose(jvp())/while/body/closed_call/checkpoint/rematted_computation/jit(silu)/mul" stack_frame_id=0}, backend_config={"flag_configs":[],"scoped_memory_configs":[],"used_scoped_memory_configs":[],"float_type_correction_info":{"original_type":"BF16","original_shape":{"element_type":"BF16","dimensions":["1","128","6144"],"tuple_shapes":[],"layout":{"minor_to_major":["2","1","0"],"tiles":[{"dimensions":["8","128"]},{"dimensions":["2","1"]}],"element_size_in_bits":"0","memory_space":"0","dim_level_types":[],"index_primitive_type":"PRIMITIVE_TYPE_INVALID","pointer_primitive_type":"PRIMITIVE_TYPE_INVALID","dim_unique":[],"dim_ordered":[],"dynamic_shape_metadata_prefix_bytes":"0","tail_padding_alignment_in_elements":"1","split_configs":[]},"is_dynamic_dimension":[false,false,false]}}}
  %mul.2906 = f32[1,128,6144]{2,1,0:T(8,128)} multiply(%mul.2908, %mul.2907), metadata={op_name="jit(train_step)/transpose(jvp())/while/body/closed_call/checkpoint/jit(silu)/mul" stack_frame_id=0}, backend_config={"flag_configs":[],"scoped_memory_configs":[],"used_scoped_memory_configs":[],"float_type_correction_info":{"original_type":"BF16","original_shape":{"element_type":"BF16","dimensions":["1","128","6144"],"tuple_shapes":[],"layout":{"minor_to_major":["2","1","0"],"tiles":[{"dimensions":["8","128"]},{"dimensions":["2","1"]}],"element_size_in_bits":"0","memory_space":"0","dim_level_types":[],"index_primitive_type":"PRIMITIVE_TYPE_INVALID","pointer_primitive_type":"PRIMITIVE_TYPE_INVALID","dim_unique":[],"dim_ordered":[],"dynamic_shape_metadata_prefix_bytes":"0","tail_padding_alignment_in_elements":"1","split_configs":[]},"is_dynamic_dimension":[false,false,false]}}}
  %add_any.208 = f32[1,128,6144]{2,1,0:T(8,128)} add(%mul.2909, %mul.2906), metadata={op_name="jit(train_step)/transpose(jvp())/while/body/closed_call/checkpoint/jit(silu)/add_any" stack_frame_id=0}, backend_config={"flag_configs":[],"scoped_memory_configs":[],"used_scoped_memory_configs":[],"float_type_correction_info":{"original_type":"BF16","original_shape":{"element_type":"BF16","dimensions":["1","128","6144"],"tuple_shapes":[],"layout":{"minor_to_major":["2","1","0"],"tiles":[{"dimensions":["8","128"]},{"dimensions":["2","1"]}],"element_size_in_bits":"0","memory_space":"0","dim_level_types":[],"index_primitive_type":"PRIMITIVE_TYPE_INVALID","pointer_primitive_type":"PRIMITIVE_TYPE_INVALID","dim_unique":[],"dim_ordered":[],"dynamic_shape_metadata_prefix_bytes":"0","tail_padding_alignment_in_elements":"1","split_configs":[]},"is_dynamic_dimension":[false,false,false]}}}
  %convert.171 = bf16[1,128,6144]{2,1,0:T(8,128)(2,1)} convert(%add_any.208)
  ROOT %bitcast.943 = bf16[128,6144]{1,0:T(8,128)(2,1)} bitcast(%convert.171)
}

%fused_computation.92.clone.clone.clone.clone.clone.clone.clone.1 (param_0.1741: bf16[1,2048,6144]) -> bf16[2048,6144] {
  %param_0.1741 = bf16[1,2048,6144]{2,1,0:T(8,128)(2,1)S(1)} parameter(0)
  ROOT %bitcast.942 = bf16[2048,6144]{1,0:T(8,128)(2,1)} bitcast(%param_0.1741), metadata={op_name="jit(train_step)/transpose(jvp())/while/body/closed_call/checkpoint/rematted_computation/dot_general" stack_frame_id=0}
}

%region_18.21 (reduce_sum.299: f32[], reduce_sum.303: f32[]) -> f32[] {
  %reduce_sum.299 = f32[]{:T(128)} parameter(0), metadata={op_name="jit(train_step)/transpose(jvp())/while/body/closed_call/checkpoint/reduce_sum"}
  %reduce_sum.303 = f32[]{:T(128)} parameter(1), metadata={op_name="jit(train_step)/transpose(jvp())/while/body/closed_call/checkpoint/reduce_sum"}
  ROOT %reduce_sum.304 = f32[]{:T(128)} add(%reduce_sum.299, %reduce_sum.303), metadata={op_name="checkpoint/reduce_sum" stack_frame_id=0}, backend_config={"flag_configs":[],"scoped_memory_configs":[],"used_scoped_memory_configs":[],"aliasing_operands":{"lists":[]}}
}

%fused_computation.177.clone.1 (param_0.1743: bf16[1,128,2048], param_1.1844: bf16[2048], param_2.1412: bf16[128,2048], param_3.934: bf16[1,2048,6144], param_4.552: bf16[1,128,6144], param_5.482: bf16[1,128,6144], param_6.335: bf16[1,128,6144]) -> (f32[128], bf16[1,128,2048]) {
  %param_0.1743 = bf16[1,128,2048]{2,1,0:T(8,128)(2,1)S(1)} parameter(0)
  %convert_element_type.1455 = f32[1,128,2048]{2,1,0:T(8,128)} convert(%param_0.1743), metadata={op_name="jit(train_step)/transpose(jvp())/while/body/closed_call/checkpoint/rematted_computation/convert_element_type" stack_frame_id=0}
  %param_2.1412 = bf16[128,2048]{1,0:T(8,128)(2,1)} parameter(2)
  %convert.242 = f32[128,2048]{1,0:T(8,128)} convert(%param_2.1412)
  %param_4.552 = bf16[1,128,6144]{2,1,0:T(8,128)(2,1)S(1)} parameter(4)
  %param_5.482 = bf16[1,128,6144]{2,1,0:T(8,128)(2,1)S(1)} parameter(5)
  %param_6.335 = bf16[1,128,6144]{2,1,0:T(8,128)(2,1)S(1)} parameter(6)
  %fusion.292.clone.3 = bf16[128,6144]{1,0:T(8,128)(2,1)} fusion(%param_4.552, %param_5.482, %param_6.335), kind=kLoop, calls=%fused_computation.142.clone.1.clone.clone.clone.1
  %param_3.934 = bf16[1,2048,6144]{2,1,0:T(8,128)(2,1)S(1)} parameter(3)
  %fusion.171.clone.3 = bf16[2048,6144]{1,0:T(8,128)(2,1)} fusion(%param_3.934), kind=kLoop, calls=%fused_computation.92.clone.clone.clone.clone.clone.clone.clone.1, metadata={op_name="jit(train_step)/transpose(jvp())/while/body/closed_call/checkpoint/rematted_computation/dot_general" stack_frame_id=0}
  %convolution.101.clone.3 = bf16[128,2048]{1,0:T(8,128)(2,1)} convolution(%fusion.292.clone.3, %fusion.171.clone.3), dim_labels=bf_oi->bf, metadata={op_name="jit(train_step)/transpose(jvp())/while/body/closed_call/checkpoint/dot_general" stack_frame_id=0}
  %convert.243 = f32[128,2048]{1,0:T(8,128)} convert(%convolution.101.clone.3)
  %add_any.151.clone.3 = f32[128,2048]{1,0:T(8,128)} add(%convert.242, %convert.243), metadata={op_name="jit(train_step)/transpose(jvp())/while/body/closed_call/checkpoint/add_any" stack_frame_id=0}, backend_config={"flag_configs":[],"scoped_memory_configs":[],"used_scoped_memory_configs":[],"float_type_correction_info":{"original_type":"BF16","original_shape":{"element_type":"BF16","dimensions":["128","2048"],"tuple_shapes":[],"layout":{"minor_to_major":["1","0"],"tiles":[{"dimensions":["8","128"]},{"dimensions":["2","1"]}],"element_size_in_bits":"0","memory_space":"0","dim_level_types":[],"index_primitive_type":"PRIMITIVE_TYPE_INVALID","pointer_primitive_type":"PRIMITIVE_TYPE_INVALID","dim_unique":[],"dim_ordered":[],"dynamic_shape_metadata_prefix_bytes":"0","tail_padding_alignment_in_elements":"1","split_configs":[]},"is_dynamic_dimension":[false,false]}}}
  %convert.244 = bf16[128,2048]{1,0:T(8,128)(2,1)} convert(%add_any.151.clone.3)
  %bitcast.359.clone.3 = bf16[1,128,2048]{2,1,0:T(8,128)(2,1)S(1)} bitcast(%convert.244), metadata={op_name="jit(train_step)/transpose(jvp())/while/body/closed_call/checkpoint/add_any" stack_frame_id=0}
  %convert.245 = f32[1,128,2048]{2,1,0:T(8,128)} convert(%bitcast.359.clone.3)
  %param_1.1844 = bf16[2048]{0:T(1024)(128)(2,1)S(1)} parameter(1)
  %mul.2913 = bf16[1,128,2048]{2,1,0:T(8,128)(2,1)} broadcast(%param_1.1844), dimensions={2}, metadata={op_name="jit(train_step)/transpose(jvp())/while/body/closed_call/checkpoint/rematted_computation/mul" stack_frame_id=0}
  %convert.246 = f32[1,128,2048]{2,1,0:T(8,128)} convert(%mul.2913)
  %mul.2912 = f32[1,128,2048]{2,1,0:T(8,128)} multiply(%convert.245, %convert.246), metadata={op_name="jit(train_step)/transpose(jvp())/while/body/closed_call/checkpoint/mul" stack_frame_id=0}, backend_config={"flag_configs":[],"scoped_memory_configs":[],"used_scoped_memory_configs":[],"float_type_correction_info":{"original_type":"BF16","original_shape":{"element_type":"BF16","dimensions":["1","128","2048"],"tuple_shapes":[],"layout":{"minor_to_major":["2","1","0"],"tiles":[{"dimensions":["8","128"]},{"dimensions":["2","1"]}],"element_size_in_bits":"0","memory_space":"0","dim_level_types":[],"index_primitive_type":"PRIMITIVE_TYPE_INVALID","pointer_primitive_type":"PRIMITIVE_TYPE_INVALID","dim_unique":[],"dim_ordered":[],"dynamic_shape_metadata_prefix_bytes":"0","tail_padding_alignment_in_elements":"1","split_configs":[]},"is_dynamic_dimension":[false,false,false]}}}
  %convert_element_type.1454 = f32[1,128,2048]{2,1,0:T(8,128)} convert(%mul.2912), metadata={op_name="jit(train_step)/transpose(jvp())/while/body/closed_call/checkpoint/convert_element_type" stack_frame_id=0}
  %mul.2911 = f32[1,128,2048]{2,1,0:T(8,128)} multiply(%convert_element_type.1455, %convert_element_type.1454), metadata={op_name="jit(train_step)/transpose(jvp())/while/body/closed_call/checkpoint/mul" stack_frame_id=0}
  %constant.410.clone.23 = f32[]{:T(128)} constant(0)
  %reduce.196 = f32[128]{0:T(128)S(1)} reduce(%mul.2911, %constant.410.clone.23), dimensions={0,2}, to_apply=%region_18.21, metadata={op_name="jit(train_step)/transpose(jvp())/while/body/closed_call/checkpoint/reduce_sum" stack_frame_id=0}
  ROOT %tuple.226 = (f32[128]{0:T(128)S(1)}, bf16[1,128,2048]{2,1,0:T(8,128)(2,1)S(1)}) tuple(%reduce.196, %bitcast.359.clone.3)
}

%fused_computation.313.clone.1 (param_0.1744: f32[128], param_1.1845: f32[128]) -> f32[128] {
  %param_0.1744 = f32[128]{0:T(128)S(1)} parameter(0)
  %bitcast.946 = f32[1,128]{1,0:T(1,128)} bitcast(%param_0.1744), metadata={op_name="jit(train_step)/transpose(jvp())/while/body/closed_call/checkpoint/reduce_sum" stack_frame_id=0}
  %param_1.1845 = f32[128]{0:T(128)S(1)} parameter(1)
  %constant.411.clone.11 = f32[]{:T(128)} constant(0.00048828125)
  %broadcast.976 = f32[128]{0:T(128)} broadcast(%constant.411.clone.11), dimensions={}, metadata={op_name="jit(train_step)/transpose(jvp())/while/body/closed_call" stack_frame_id=0}
  %div.1020 = f32[128]{0:T(128)} multiply(%param_1.1845, %broadcast.976), metadata={op_name="jit(train_step)/transpose(jvp())/while/body/closed_call/checkpoint/rematted_computation/div" stack_frame_id=0}
  %constant.412.clone.21 = f32[]{:T(128)} constant(1e-06)
  %broadcast.975 = f32[128]{0:T(128)} broadcast(%constant.412.clone.21), dimensions={}, metadata={op_name="jit(train_step)/transpose(jvp())/while/body/closed_call" stack_frame_id=0}
  %add.1024 = f32[128]{0:T(128)} add(%div.1020, %broadcast.975), metadata={op_name="jit(train_step)/transpose(jvp())/while/body/closed_call/checkpoint/rematted_computation/add" stack_frame_id=0}
  %bitcast.945 = f32[1,128]{1,0:T(1,128)} bitcast(%add.1024), metadata={op_name="jit(train_step)/transpose(jvp())/while/body/closed_call/checkpoint/rematted_computation/add" stack_frame_id=0}
  %rsqrt.218 = f32[1,128]{1,0:T(1,128)} rsqrt(%bitcast.945), metadata={op_name="jit(train_step)/transpose(jvp())/while/body/closed_call/checkpoint/rematted_computation/rsqrt" stack_frame_id=0}
  %div.1019 = f32[1,128]{1,0:T(1,128)} divide(%rsqrt.218, %bitcast.945), metadata={op_name="jit(train_step)/transpose(jvp())/while/body/closed_call/checkpoint/rematted_computation/div" stack_frame_id=0}
  %constant.420.clone.9 = f32[]{:T(128)} constant(-0.5)
  %closed_call.70 = f32[1,128]{1,0:T(1,128)} broadcast(%constant.420.clone.9), dimensions={}, metadata={op_name="jit(train_step)/transpose(jvp())/while/body/closed_call" stack_frame_id=0}
  %mul.2916 = f32[1,128]{1,0:T(1,128)} multiply(%div.1019, %closed_call.70), metadata={op_name="jit(train_step)/transpose(jvp())/while/body/closed_call/checkpoint/rematted_computation/mul" stack_frame_id=0}
  %mul.2915 = f32[1,128]{1,0:T(1,128)} multiply(%bitcast.946, %mul.2916), metadata={op_name="jit(train_step)/transpose(jvp())/while/body/closed_call/checkpoint/mul" stack_frame_id=0}
  %constant.421.clone.5 = f32[]{:T(128)} constant(0.0009765625)
  %mul.2917 = f32[1,128]{1,0:T(1,128)} broadcast(%constant.421.clone.5), dimensions={}, metadata={op_name="jit(train_step)/transpose(jvp())/while/body/closed_call/checkpoint/mul" stack_frame_id=0}
  %mul.2914 = f32[1,128]{1,0:T(1,128)} multiply(%mul.2915, %mul.2917), metadata={op_name="jit(train_step)/transpose(jvp())/while/body/closed_call/checkpoint/mul" stack_frame_id=0}
  ROOT %bitcast.944 = f32[128]{0:T(128)S(1)} bitcast(%mul.2914), metadata={op_name="jit(train_step)/transpose(jvp())/while/body/closed_call/checkpoint/mul" stack_frame_id=0}
}

%region_23.27 (reduce_sum.320: bf16[], reduce_sum.324: bf16[]) -> bf16[] {
  %reduce_sum.320 = bf16[]{:T(256)} parameter(0), metadata={op_name="jit(train_step)/transpose(jvp())/while/body/closed_call/checkpoint/reduce_sum"}
  %reduce_sum.324 = bf16[]{:T(256)} parameter(1), metadata={op_name="jit(train_step)/transpose(jvp())/while/body/closed_call/checkpoint/reduce_sum"}
  ROOT %reduce_sum.325 = bf16[]{:T(256)} add(%reduce_sum.320, %reduce_sum.324), metadata={op_name="checkpoint/reduce_sum" stack_frame_id=0}, backend_config={"flag_configs":[],"scoped_memory_configs":[],"used_scoped_memory_configs":[],"aliasing_operands":{"lists":[]}}
}

%fused_computation.230.clone.1 (param_0.1745: bf16[1,128,2048], param_1.1846: f32[128], param_2.1413: bf16[1,128,2048], param_3.935: bf16[1,128,2048], param_4.553: f32[128], param_5.483: bf16[2048]) -> (bf16[2048], bf16[1,128,2048]) {
  %param_2.1413 = bf16[1,128,2048]{2,1,0:T(8,128)(2,1)S(1)} parameter(2)
  %convert_element_type.1457 = f32[1,128,2048]{2,1,0:T(8,128)} convert(%param_2.1413), metadata={op_name="jit(train_step)/transpose(jvp())/while/body/closed_call/checkpoint/rematted_computation/convert_element_type" stack_frame_id=0}
  %param_1.1846 = f32[128]{0:T(128)S(1)} parameter(1)
  %mul.2920 = f32[1,128,2048]{2,1,0:T(8,128)} broadcast(%param_1.1846), dimensions={1}, metadata={op_name="jit(train_step)/transpose(jvp())/while/body/closed_call/checkpoint/rematted_computation/mul" stack_frame_id=0}
  %mul.2919 = f32[1,128,2048]{2,1,0:T(8,128)} multiply(%convert_element_type.1457, %mul.2920), metadata={op_name="jit(train_step)/transpose(jvp())/while/body/closed_call/checkpoint/rematted_computation/mul" stack_frame_id=0}
  %convert_element_type.1456 = bf16[1,128,2048]{2,1,0:T(8,128)(2,1)} convert(%mul.2919), metadata={op_name="jit(train_step)/transpose(jvp())/while/body/closed_call/checkpoint/rematted_computation/convert_element_type" stack_frame_id=0}
  %convert.247 = f32[1,128,2048]{2,1,0:T(8,128)} convert(%convert_element_type.1456)
  %param_0.1745 = bf16[1,128,2048]{2,1,0:T(8,128)(2,1)S(1)} parameter(0)
  %convert.248 = f32[1,128,2048]{2,1,0:T(8,128)} convert(%param_0.1745)
  %mul.2918 = f32[1,128,2048]{2,1,0:T(8,128)} multiply(%convert.247, %convert.248), metadata={op_name="jit(train_step)/transpose(jvp())/while/body/closed_call/checkpoint/mul" stack_frame_id=0}, backend_config={"flag_configs":[],"scoped_memory_configs":[],"used_scoped_memory_configs":[],"float_type_correction_info":{"original_type":"BF16","original_shape":{"element_type":"BF16","dimensions":["1","128","2048"],"tuple_shapes":[],"layout":{"minor_to_major":["2","1","0"],"tiles":[{"dimensions":["8","128"]},{"dimensions":["2","1"]}],"element_size_in_bits":"0","memory_space":"0","dim_level_types":[],"index_primitive_type":"PRIMITIVE_TYPE_INVALID","pointer_primitive_type":"PRIMITIVE_TYPE_INVALID","dim_unique":[],"dim_ordered":[],"dynamic_shape_metadata_prefix_bytes":"0","tail_padding_alignment_in_elements":"1","split_configs":[]},"is_dynamic_dimension":[false,false,false]}}}
  %convert.249 = bf16[1,128,2048]{2,1,0:T(8,128)(2,1)} convert(%mul.2918)
  %constant.423.clone.9 = bf16[]{:T(256)} constant(0)
  %reduce.197 = bf16[2048]{0:T(1024)(128)(2,1)S(1)} reduce(%convert.249, %constant.423.clone.9), dimensions={0,1}, to_apply=%region_23.27, metadata={op_name="jit(train_step)/transpose(jvp())/while/body/closed_call/checkpoint/reduce_sum" stack_frame_id=0}
  %param_3.935 = bf16[1,128,2048]{2,1,0:T(8,128)(2,1)S(1)} parameter(3)
  %convert.251 = f32[1,128,2048]{2,1,0:T(8,128)} convert(%param_3.935)
  %param_5.483 = bf16[2048]{0:T(1024)(128)(2,1)S(1)} parameter(5)
  %mul.2029.clone.3 = bf16[1,128,2048]{2,1,0:T(8,128)(2,1)} broadcast(%param_5.483), dimensions={2}, metadata={op_name="jit(train_step)/transpose(jvp())/while/body/closed_call/checkpoint/rematted_computation/mul" stack_frame_id=0}
  %convert.250 = f32[1,128,2048]{2,1,0:T(8,128)} convert(%mul.2029.clone.3)
  %mul.1945.clone.3 = f32[1,128,2048]{2,1,0:T(8,128)} multiply(%convert.248, %convert.250), metadata={op_name="jit(train_step)/transpose(jvp())/while/body/closed_call/checkpoint/mul" stack_frame_id=0}, backend_config={"flag_configs":[],"scoped_memory_configs":[],"used_scoped_memory_configs":[],"float_type_correction_info":{"original_type":"BF16","original_shape":{"element_type":"BF16","dimensions":["1","128","2048"],"tuple_shapes":[],"layout":{"minor_to_major":["2","1","0"],"tiles":[{"dimensions":["8","128"]},{"dimensions":["2","1"]}],"element_size_in_bits":"0","memory_space":"0","dim_level_types":[],"index_primitive_type":"PRIMITIVE_TYPE_INVALID","pointer_primitive_type":"PRIMITIVE_TYPE_INVALID","dim_unique":[],"dim_ordered":[],"dynamic_shape_metadata_prefix_bytes":"0","tail_padding_alignment_in_elements":"1","split_configs":[]},"is_dynamic_dimension":[false,false,false]}}}
  %convert_element_type.1089.clone.3 = f32[1,128,2048]{2,1,0:T(8,128)} convert(%mul.1945.clone.3), metadata={op_name="jit(train_step)/transpose(jvp())/while/body/closed_call/checkpoint/convert_element_type" stack_frame_id=0}
  %mul.1908.clone.3 = f32[1,128,2048]{2,1,0:T(8,128)} multiply(%convert_element_type.1089.clone.3, %mul.2920), metadata={op_name="jit(train_step)/transpose(jvp())/while/body/closed_call/checkpoint/mul" stack_frame_id=0}
  %param_4.553 = f32[128]{0:T(128)S(1)} parameter(4)
  %mul.1927.clone.3 = f32[1,128,2048]{2,1,0:T(8,128)} broadcast(%param_4.553), dimensions={1}, metadata={op_name="jit(train_step)/transpose(jvp())/while/body/closed_call/checkpoint/mul" stack_frame_id=0}
  %mul.1907.clone.3 = f32[1,128,2048]{2,1,0:T(8,128)} multiply(%convert_element_type.1457, %mul.1927.clone.3), metadata={op_name="jit(train_step)/transpose(jvp())/while/body/closed_call/checkpoint/mul" stack_frame_id=0}
  %add_any.171.clone.3 = f32[1,128,2048]{2,1,0:T(8,128)} add(%mul.1908.clone.3, %mul.1907.clone.3), metadata={op_name="jit(train_step)/transpose(jvp())/while/body/closed_call/checkpoint/add_any" stack_frame_id=0}
  %convert_element_type.1087.clone.3 = bf16[1,128,2048]{2,1,0:T(8,128)(2,1)} convert(%add_any.171.clone.3), metadata={op_name="jit(train_step)/transpose(jvp())/while/body/closed_call/checkpoint/convert_element_type" stack_frame_id=0}
  %convert.252 = f32[1,128,2048]{2,1,0:T(8,128)} convert(%convert_element_type.1087.clone.3)
  %add_any.169.clone.3 = f32[1,128,2048]{2,1,0:T(8,128)} add(%convert.251, %convert.252), metadata={op_name="jit(train_step)/transpose(jvp())/while/body/closed_call/checkpoint/add_any" stack_frame_id=0}, backend_config={"flag_configs":[],"scoped_memory_configs":[],"used_scoped_memory_configs":[],"float_type_correction_info":{"original_type":"BF16","original_shape":{"element_type":"BF16","dimensions":["1","128","2048"],"tuple_shapes":[],"layout":{"minor_to_major":["2","1","0"],"tiles":[{"dimensions":["8","128"]},{"dimensions":["2","1"]}],"element_size_in_bits":"0","memory_space":"0","dim_level_types":[],"index_primitive_type":"PRIMITIVE_TYPE_INVALID","pointer_primitive_type":"PRIMITIVE_TYPE_INVALID","dim_unique":[],"dim_ordered":[],"dynamic_shape_metadata_prefix_bytes":"0","tail_padding_alignment_in_elements":"1","split_configs":[]},"is_dynamic_dimension":[false,false,false]}}}
  %convert.253 = bf16[1,128,2048]{2,1,0:T(8,128)(2,1)S(1)} convert(%add_any.169.clone.3)
  ROOT %tuple.227 = (bf16[2048]{0:T(1024)(128)(2,1)S(1)}, bf16[1,128,2048]{2,1,0:T(8,128)(2,1)S(1)}) tuple(%reduce.197, %convert.253)
}

%fused_computation.211.clone.clone.clone.1 (param_0.1747: bf16[1,128,2048]) -> bf16[128,2048,1] {
  %param_0.1747 = bf16[1,128,2048]{2,1,0:T(8,128)(2,1)S(1)} parameter(0)
  ROOT %bitcast.948 = bf16[128,2048,1]{1,0,2:T(8,128)(2,1)} bitcast(%param_0.1747)
}

%fused_computation.104.clone.clone.clone.1 (param_0.1746: bf16[1,16,128,2048]) -> bf16[16,128,2048] {
  %param_0.1746 = bf16[1,16,128,2048]{3,2,1,0:T(8,128)(2,1)S(1)} parameter(0)
  ROOT %bitcast.947 = bf16[16,128,2048]{2,1,0:T(8,128)(2,1)} bitcast(%param_0.1746), metadata={op_name="jit(train_step)/transpose(jvp())/while/body/closed_call/checkpoint/rematted_computation/dot_general" stack_frame_id=0}
}

%region_19.22 (dot_general.157: f32[], dot_general.158: f32[]) -> f32[] {
  %dot_general.157 = f32[]{:T(128)} parameter(0), metadata={op_name="vmap(static_sparsity_splash)/jit(_splash_attention)/hsd,hsd->hs/dot_general"}
  %dot_general.158 = f32[]{:T(128)} parameter(1), metadata={op_name="vmap(static_sparsity_splash)/jit(_splash_attention)/hsd,hsd->hs/dot_general"}
  ROOT %add.222 = f32[]{:T(128)} add(%dot_general.157, %dot_general.158), metadata={op_name="add.47"}, backend_config={"flag_configs":[],"scoped_memory_configs":[],"used_scoped_memory_configs":[],"aliasing_operands":{"lists":[]}}
}

%fused_computation.183.clone.1 (param_0.1748: bf16[16,128,128], param_1.1847: bf16[1,16,128,2048], param_2.1414: bf16[1,128,2048]) -> (f32[16,128], bf16[128,16,128]) {
  %param_0.1748 = bf16[16,128,128]{2,1,0:T(8,128)(2,1)S(1)} parameter(0)
  %bitcast.950 = bf16[1,16,128,128]{3,2,1,0:T(8,128)(2,1)} bitcast(%param_0.1748), metadata={op_name="jit(train_step)/transpose(jvp())/while/body/closed_call/checkpoint/rematted_computation/shard_map/vmap(static_sparsity_splash)/jit(_splash_attention)/splash_mha_fwd_segmented_residuals/splash_mha_fwd_segmented_residuals/broadcast_in_dim" stack_frame_id=0}
  %convert.128 = f32[1,16,128,128]{3,2,1,0:T(8,128)} convert(%bitcast.950), metadata={op_name="jit(train_step)/transpose(jvp())/while/body/closed_call/checkpoint/shard_map/convert" stack_frame_id=0}
  %param_2.1414 = bf16[1,128,2048]{2,1,0:T(8,128)(2,1)S(1)} parameter(2)
  %fusion.212.clone.3 = bf16[128,2048,1]{1,0,2:T(8,128)(2,1)} fusion(%param_2.1414), kind=kLoop, calls=%fused_computation.211.clone.clone.clone.1
  %param_1.1847 = bf16[1,16,128,2048]{3,2,1,0:T(8,128)(2,1)S(1)} parameter(1)
  %fusion.110.clone.3 = bf16[16,128,2048]{2,1,0:T(8,128)(2,1)} fusion(%param_1.1847), kind=kLoop, calls=%fused_computation.104.clone.clone.clone.1, metadata={op_name="jit(train_step)/transpose(jvp())/while/body/closed_call/checkpoint/rematted_computation/dot_general" stack_frame_id=0}
  %convolution.67.clone.3 = bf16[128,16,128]{2,0,1:T(8,128)(2,1)S(1)} convolution(%fusion.212.clone.3, %fusion.110.clone.3), window={size=16 pad=15_15 rhs_reversal=1}, dim_labels=bf0_0oi->b0f, metadata={op_name="jit(train_step)/transpose(jvp())/while/body/closed_call/checkpoint/dot_general" stack_frame_id=0}
  %bitcast.949 = bf16[1,16,128,128]{3,2,1,0:T(8,128)(2,1)} bitcast(%convolution.67.clone.3), metadata={op_name="jit(train_step)/transpose(jvp())/while/body/closed_call/checkpoint/transpose" stack_frame_id=0}
  %convert.127 = f32[1,16,128,128]{3,2,1,0:T(8,128)} convert(%bitcast.949), metadata={op_name="jit(train_step)/transpose(jvp())/while/body/closed_call/checkpoint/shard_map/convert.1" stack_frame_id=0}
  %multiply.329 = f32[1,16,128,128]{3,2,1,0:T(8,128)} multiply(%convert.128, %convert.127), metadata={op_name="jit(train_step)/transpose(jvp())/while/body/closed_call/checkpoint/shard_map/multiply" stack_frame_id=0}
  %constant.410.clone.24 = f32[]{:T(128)} constant(0)
  %dot_general.189 = f32[16,128]{1,0:T(8,128)S(1)} reduce(%multiply.329, %constant.410.clone.24), dimensions={0,3}, to_apply=%region_19.22, metadata={op_name="jit(train_step)/transpose(jvp())/while/body/closed_call/checkpoint/shard_map/vmap(static_sparsity_splash)/jit(_splash_attention)/hsd,hsd->hs/dot_general" stack_frame_id=0}
  ROOT %tuple.228 = (f32[16,128]{1,0:T(8,128)S(1)}, bf16[128,16,128]{2,0,1:T(8,128)(2,1)S(1)}) tuple(%dot_general.189, %convolution.67.clone.3)
}

%fused_computation.252.clone.1 (param_0.1786: bf16[8,128,128]) -> bf16[128,8,128] {
  %param_0.1786 = bf16[8,128,128]{2,1,0:T(8,128)(2,1)S(1)} parameter(0)
  ROOT %bitcast.985 = bf16[128,8,128]{2,0,1:T(8,128)(2,1)} bitcast(%param_0.1786)
}

%fused_computation.114.clone.clone.clone.1 (param_0.1785: bf16[1,2048,8,128]) -> bf16[2048,8,128] {
  %param_0.1785 = bf16[1,2048,8,128]{3,1,2,0:T(8,128)(2,1)S(1)} parameter(0)
  ROOT %bitcast.984 = bf16[2048,8,128]{2,0,1:T(8,128)(2,1)} bitcast(%param_0.1785), metadata={op_name="jit(train_step)/transpose(jvp())/while/body/closed_call/checkpoint/dot_general" stack_frame_id=0}
}

%fused_computation.155.clone.1 (param_0.1787: bf16[1,2048,8,128], param_1.1875: bf16[8,128,128]) -> bf16[128,2048] {
  %param_1.1875 = bf16[8,128,128]{2,1,0:T(8,128)(2,1)S(1)} parameter(1)
  %fusion.465 = bf16[128,8,128]{2,0,1:T(8,128)(2,1)} fusion(%param_1.1875), kind=kLoop, calls=%fused_computation.252.clone.1
  %param_0.1787 = bf16[1,2048,8,128]{3,1,2,0:T(8,128)(2,1)S(1)} parameter(0)
  %fusion.464 = bf16[2048,8,128]{2,0,1:T(8,128)(2,1)} fusion(%param_0.1787), kind=kLoop, calls=%fused_computation.114.clone.clone.clone.1, metadata={op_name="jit(train_step)/transpose(jvp())/while/body/closed_call/checkpoint/dot_general" stack_frame_id=0}
  %convolution.145 = bf16[128,2048,1]{1,0,2:T(8,128)(2,1)} convolution(%fusion.465, %fusion.464), window={size=8}, dim_labels=b0f_o0i->bf0, metadata={op_name="jit(train_step)/transpose(jvp())/while/body/closed_call/checkpoint/dot_general" stack_frame_id=0}
  ROOT %bitcast.986 = bf16[128,2048]{1,0:T(8,128)(2,1)S(1)} bitcast(%convolution.145), metadata={op_name="jit(train_step)/transpose(jvp())/while/body/closed_call/checkpoint/dot_general" stack_frame_id=0}
}

%fused_computation.255.clone.1 (param_0.1772: bf16[8,128,128], param_1.1864: bf16[128,128]) -> bf16[1,128,8,128] {
  %param_0.1772 = bf16[8,128,128]{2,1,0:T(8,128)(2,1)S(1)} parameter(0)
  %bitcast.973 = bf16[1,8,128,128]{3,2,1,0:T(8,128)(2,1)} bitcast(%param_0.1772), metadata={op_name="jit(train_step)/transpose(jvp())/while/body/closed_call/checkpoint/shard_map/vmap(static_sparsity_splash)/jit(_splash_attention)/splash_mha_dkv_segmented_no_residuals/splash_mha_dkv_segmented_no_residuals/broadcast_in_dim" stack_frame_id=0}
  %convert.254 = f32[1,8,128,128]{3,2,1,0:T(8,128)} convert(%bitcast.973)
  %param_1.1864 = bf16[128,128]{1,0:T(8,128)(2,1)S(1)} parameter(1)
  %broadcast.980 = bf16[1,8,128,128]{3,2,1,0:T(8,128)(2,1)} broadcast(%param_1.1864), dimensions={2,3}, metadata={op_name="jit(train_step)/transpose(jvp())/while/body/closed_call/checkpoint/rematted_computation/mul" stack_frame_id=0}
  %convert.255 = f32[1,8,128,128]{3,2,1,0:T(8,128)} convert(%broadcast.980)
  %mul.2953 = f32[1,8,128,128]{3,2,1,0:T(8,128)} multiply(%convert.254, %convert.255), metadata={op_name="jit(train_step)/transpose(jvp())/while/body/closed_call/checkpoint/mul" stack_frame_id=0}, backend_config={"flag_configs":[],"scoped_memory_configs":[],"used_scoped_memory_configs":[],"float_type_correction_info":{"original_type":"BF16","original_shape":{"element_type":"BF16","dimensions":["1","8","128","128"],"tuple_shapes":[],"layout":{"minor_to_major":["3","2","1","0"],"tiles":[{"dimensions":["8","128"]},{"dimensions":["2","1"]}],"element_size_in_bits":"0","memory_space":"0","dim_level_types":[],"index_primitive_type":"PRIMITIVE_TYPE_INVALID","pointer_primitive_type":"PRIMITIVE_TYPE_INVALID","dim_unique":[],"dim_ordered":[],"dynamic_shape_metadata_prefix_bytes":"0","tail_padding_alignment_in_elements":"1","split_configs":[]},"is_dynamic_dimension":[false,false,false,false]}}}
  %convert.256 = bf16[1,8,128,128]{3,2,1,0:T(8,128)(2,1)} convert(%mul.2953)
  ROOT %bitcast.972 = bf16[1,128,8,128]{3,1,2,0:T(8,128)(2,1)S(1)} bitcast(%convert.256), metadata={op_name="jit(train_step)/transpose(jvp())/while/body/closed_call/checkpoint/mul" stack_frame_id=0}
}

%fused_computation.490.clone.1 (param_0.1773: bf16[1,128,8,128]) -> (bf16[1,128,8,64], bf16[1,128,8,64]) {
  %param_0.1773 = bf16[1,128,8,128]{3,1,2,0:T(8,128)(2,1)S(1)} parameter(0)
  %slice.79 = bf16[1,128,8,64]{3,1,2,0:T(8,128)(2,1)S(1)} slice(%param_0.1773), slice={[0:1], [0:128], [0:8], [64:128]}, metadata={op_name="jit(train_step)/transpose(jvp())/while/body/closed_call/checkpoint/split" stack_frame_id=0}
  %slice.52.clone.3 = bf16[1,128,8,64]{3,1,2,0:T(8,128)(2,1)} slice(%param_0.1773), slice={[0:1], [0:128], [0:8], [0:64]}, metadata={op_name="jit(train_step)/transpose(jvp())/while/body/closed_call/checkpoint/split" stack_frame_id=0}
  %convert.257 = f32[1,128,8,64]{3,1,2,0:T(8,128)} convert(%slice.52.clone.3)
  %neg.100.clone.3 = f32[1,128,8,64]{3,1,2,0:T(8,128)} negate(%convert.257), metadata={op_name="jit(train_step)/transpose(jvp())/while/body/closed_call/checkpoint/neg" stack_frame_id=0}, backend_config={"flag_configs":[],"scoped_memory_configs":[],"used_scoped_memory_configs":[],"float_type_correction_info":{"original_type":"BF16","original_shape":{"element_type":"BF16","dimensions":["1","128","8","64"],"tuple_shapes":[],"layout":{"minor_to_major":["3","1","2","0"],"tiles":[{"dimensions":["8","128"]},{"dimensions":["2","1"]}],"element_size_in_bits":"0","memory_space":"0","dim_level_types":[],"index_primitive_type":"PRIMITIVE_TYPE_INVALID","pointer_primitive_type":"PRIMITIVE_TYPE_INVALID","dim_unique":[],"dim_ordered":[],"dynamic_shape_metadata_prefix_bytes":"0","tail_padding_alignment_in_elements":"1","split_configs":[]},"is_dynamic_dimension":[false,false,false,false]}}}
  %convert.258 = bf16[1,128,8,64]{3,1,2,0:T(8,128)(2,1)S(1)} convert(%neg.100.clone.3)
  ROOT %tuple.234 = (bf16[1,128,8,64]{3,1,2,0:T(8,128)(2,1)S(1)}, bf16[1,128,8,64]{3,1,2,0:T(8,128)(2,1)S(1)}) tuple(%slice.79, %convert.258)
}

%region_25.29 (reduce_sum.332: bf16[], reduce_sum.333: bf16[]) -> bf16[] {
  %reduce_sum.332 = bf16[]{:T(256)} parameter(0), metadata={op_name="jit(train_step)/transpose(jvp())/while/body/closed_call/checkpoint/reduce_sum"}
  %reduce_sum.333 = bf16[]{:T(256)} parameter(1), metadata={op_name="jit(train_step)/transpose(jvp())/while/body/closed_call/checkpoint/reduce_sum"}
  ROOT %reduce_sum.334 = bf16[]{:T(256)} add(%reduce_sum.332, %reduce_sum.333), metadata={op_name="checkpoint/reduce_sum" stack_frame_id=0}, backend_config={"flag_configs":[],"scoped_memory_configs":[],"used_scoped_memory_configs":[],"aliasing_operands":{"lists":[]}}
}

%fused_computation.256.clone.1 (param_0.1774: f32[1,128,8,128], param_1.1865: f32[128,8], param_2.1427: bf16[128,128], param_3.943: bf16[8,128,128], param_4.559: bf16[1,128,8,64], param_5.486: bf16[1,128,8,64]) -> (bf16[128], bf16[1,128,8,128]) {
  %param_0.1774 = f32[1,128,8,128]{3,1,2,0:T(8,128)S(1)} parameter(0)
  %param_1.1865 = f32[128,8]{0,1:T(8,128)S(1)} parameter(1)
  %mul.2956 = f32[1,128,8,128]{3,1,2,0:T(8,128)} broadcast(%param_1.1865), dimensions={1,2}, metadata={op_name="jit(train_step)/transpose(jvp())/while/body/closed_call/checkpoint/rematted_computation/mul" stack_frame_id=0}
  %mul.2955 = f32[1,128,8,128]{3,1,2,0:T(8,128)} multiply(%param_0.1774, %mul.2956), metadata={op_name="jit(train_step)/transpose(jvp())/while/body/closed_call/checkpoint/rematted_computation/mul" stack_frame_id=0}
