HloModule jit_train_step, is_scheduled=true, input_output_alias={ {0}: (0, {}, may-alias), {1}: (1, {}, may-alias), {2}: (2, {}, may-alias), {3}: (3, {}, may-alias), {4}: (4, {}, may-alias), {5}: (5, {}, may-alias), {6}: (6, {}, may-alias), {7}: (7, {}, may-alias), {8}: (8, {}, may-alias), {9}: (9, {}, may-alias), {10}: (10, {}, may-alias), {11}: (11, {}, may-alias), {12}: (12, {}, may-alias), {13}: (13, {}, may-alias), {14}: (14, {}, may-alias), {15}: (15, {}, may-alias), {16}: (16, {}, may-alias), {17}: (17, {}, may-alias), {18}: (18, {}, may-alias), {19}: (19, {}, may-alias), {20}: (20, {}, may-alias), {21}: (21, {}, may-alias), {22}: (22, {}, may-alias), {23}: (23, {}, may-alias), {24}: (24, {}, may-alias), {25}: (25, {}, may-alias), {26}: (26, {}, may-alias), {27}: (27, {}, may-alias), {28}: (28, {}, may-alias), {29}: (29, {}, may-alias), {30}: (30, {}, may-alias), {31}: (31, {}, may-alias), {32}: (32, {}, may-alias), {33}: (33, {}, may-alias), {34}: (34, {}, may-alias), {35}: (35, {}, may-alias), {36}: (36, {}, may-alias), {37}: (37, {}, may-alias), {38}: (38, {}, may-alias), {39}: (39, {}, may-alias), {40}: (40, {}, may-alias), {41}: (41, {}, may-alias), {42}: (42, {}, may-alias), {43}: (43, {}, may-alias), {44}: (44, {}, may-alias), {45}: (45, {}, may-alias), {46}: (46, {}, may-alias), {47}: (47, {}, may-alias), {48}: (48, {}, may-alias), {49}: (49, {}, may-alias), {50}: (50, {}, may-alias), {51}: (51, {}, may-alias), {52}: (52, {}, may-alias), {53}: (53, {}, may-alias), {54}: (54, {}, may-alias), {55}: (55, {}, may-alias), {56}: (56, {}, may-alias), {57}: (57, {}, may-alias), {58}: (58, {}, may-alias), {59}: (59, {}, may-alias), {60}: (60, {}, may-alias), {61}: (61, {}, may-alias), {62}: (62, {}, may-alias), {63}: (63, {}, may-alias), {64}: (64, {}, may-alias), {65}: (65, {}, may-alias), {66}: (66, {}, may-alias), {67}: (67, {}, may-alias), {68}: (68, {}, may-alias), {69}: (69, {}, may-alias), {70}: (70, {}, may-alias), {71}: (71, {}, may-alias), {72}: (72, {}, may-alias), {73}: (73, {}, may-alias), {74}: (74, {}, may-alias), {75}: (75, {}, may-alias), {76}: (76, {}, may-alias), {77}: (77, {}, may-alias), {78}: (78, {}, may-alias), {79}: (79, {}, may-alias), {80}: (80, {}, may-alias), {81}: (81, {}, may-alias), {82}: (82, {}, may-alias), {83}: (83, {}, may-alias), {84}: (84, {}, may-alias), {85}: (85, {}, may-alias), {86}: (86, {}, may-alias), {87}: (87, {}, may-alias), {88}: (88, {}, may-alias), {89}: (89, {}, may-alias), {90}: (90, {}, may-alias), {91}: (91, {}, may-alias), {92}: (92, {}, may-alias), {93}: (93, {}, may-alias), {94}: (94, {}, may-alias), {95}: (95, {}, may-alias), {96}: (96, {}, may-alias), {97}: (97, {}, may-alias), {98}: (98, {}, may-alias) }, entry_computation_layout={(s32[]{:T(128)}, f32[512]{0:T(512)}, f32[512,3,18432]{2,0,1:T(8,128)}, f32[512,3,18432]{2,0,1:T(8,128)}, f32[18432,3,512]{2,0,1:T(8,128)}, /*index=5*/f32[512,3]{0,1:T(4,128)}, f32[512,3]{0,1:T(4,128)}, f32[512,3]{0,1:T(4,128)}, f32[128,3,128,512]{3,2,1,0:T(8,128)}, f32[1536,3]{0,1:T(4,128)}, /*index=10*/f32[512,3,576]{0,2,1:T(8,128)}, f32[512,3,128,256]{3,2,1,0:T(8,128)}, f32[512,3,1536]{2,0,1:T(8,128)}, f32[1536,3,128,192]{2,3,1,0:T(8,128)}, f32[512,129280]{1,0:T(8,128)}, /*index=15*/f32[256,1]{0,1:T(1,128)}, f32[512,1,256]{2,1,0:T(1,128)}, f32[256,1,512,512]{3,2,1,0:T(8,128)}, f32[256,1,512,512]{3,2,1,0:T(8,128)}, f32[256,1,512,512]{3,2,1,0:T(8,128)}, /*index=20*/f32[512,1,512]{2,1,0:T(1,128)}, f32[512,1,512]{2,1,0:T(1,128)}, f32[512,1,512]{2,1,0:T(1,128)}, f32[512,1]{0,1:T(1,128)}, f32[512,1]{0,1:T(1,128)}, /*index=25*/f32[512,1]{0,1:T(1,128)}, f32[128,1,128,512]{3,2,1,0:T(8,128)}, f32[1536,1]{0,1:T(1,128)}, f32[512,1,576]{0,2,1:T(8,128)}, f32[512,1,128,256]{3,2,1,0:T(8,128)}, /*index=30*/f32[512,1,1536]{2,1,0:T(1,128)}, f32[1536,1,128,192]{2,3,1,0:T(8,128)}, f32[129280,512]{1,0:T(8,128)}, s32[]{:T(128)}, f32[512]{0:T(512)}, /*index=35*/f32[512,3,18432]{2,0,1:T(8,128)}, f32[512,3,18432]{2,0,1:T(8,128)}, f32[18432,3,512]{2,0,1:T(8,128)}, f32[512,3]{0,1:T(4,128)}, f32[512,3]{0,1:T(4,128)}, /*index=40*/f32[512,3]{0,1:T(4,128)}, f32[128,3,128,512]{3,2,1,0:T(8,128)}, f32[1536,3]{0,1:T(4,128)}, f32[512,3,576]{0,2,1:T(8,128)}, f32[512,3,128,256]{3,2,1,0:T(8,128)}, /*index=45*/f32[512,3,1536]{2,0,1:T(8,128)}, f32[1536,3,128,192]{2,3,1,0:T(8,128)}, f32[512,129280]{1,0:T(8,128)}, f32[256,1]{0,1:T(1,128)}, f32[512,1,256]{2,1,0:T(1,128)}, /*index=50*/f32[256,1,512,512]{3,2,1,0:T(8,128)}, f32[256,1,512,512]{3,2,1,0:T(8,128)}, f32[256,1,512,512]{3,2,1,0:T(8,128)}, f32[512,1,512]{2,1,0:T(1,128)}, f32[512,1,512]{2,1,0:T(1,128)}, /*index=55*/f32[512,1,512]{2,1,0:T(1,128)}, f32[512,1]{0,1:T(1,128)}, f32[512,1]{0,1:T(1,128)}, f32[512,1]{0,1:T(1,128)}, f32[128,1,128,512]{3,2,1,0:T(8,128)}, /*index=60*/f32[1536,1]{0,1:T(1,128)}, f32[512,1,576]{0,2,1:T(8,128)}, f32[512,1,128,256]{3,2,1,0:T(8,128)}, f32[512,1,1536]{2,1,0:T(1,128)}, f32[1536,1,128,192]{2,3,1,0:T(8,128)}, /*index=65*/f32[129280,512]{1,0:T(8,128)}, f32[512]{0:T(512)}, f32[512,3,18432]{2,0,1:T(8,128)}, f32[512,3,18432]{2,0,1:T(8,128)}, f32[18432,3,512]{2,0,1:T(8,128)}, /*index=70*/f32[512,3]{0,1:T(4,128)}, f32[512,3]{0,1:T(4,128)}, f32[512,3]{0,1:T(4,128)}, f32[128,3,128,512]{3,2,1,0:T(8,128)}, f32[1536,3]{0,1:T(4,128)}, /*index=75*/f32[512,3,576]{0,2,1:T(8,128)}, f32[512,3,128,256]{3,2,1,0:T(8,128)}, f32[512,3,1536]{2,0,1:T(8,128)}, f32[1536,3,128,192]{2,3,1,0:T(8,128)}, f32[512,129280]{1,0:T(8,128)}, /*index=80*/f32[256,1]{0,1:T(1,128)}, f32[512,1,256]{2,1,0:T(1,128)}, f32[256,1,512,512]{3,2,1,0:T(8,128)}, f32[256,1,512,512]{3,2,1,0:T(8,128)}, f32[256,1,512,512]{3,2,1,0:T(8,128)}, /*index=85*/f32[512,1,512]{2,1,0:T(1,128)}, f32[512,1,512]{2,1,0:T(1,128)}, f32[512,1,512]{2,1,0:T(1,128)}, f32[512,1]{0,1:T(1,128)}, f32[512,1]{0,1:T(1,128)}, /*index=90*/f32[512,1]{0,1:T(1,128)}, f32[128,1,128,512]{3,2,1,0:T(8,128)}, f32[1536,1]{0,1:T(1,128)}, f32[512,1,576]{0,2,1:T(8,128)}, f32[512,1,128,256]{3,2,1,0:T(8,128)}, /*index=95*/f32[512,1,1536]{2,1,0:T(1,128)}, f32[1536,1,128,192]{2,3,1,0:T(8,128)}, f32[129280,512]{1,0:T(8,128)}, s32[]{:T(128)}, s32[4,128]{1,0:T(4,128)}, /*index=100*/s32[4,128]{1,0:T(4,128)}, s32[4,128]{1,0:T(4,128)}, s32[4,128]{1,0:T(4,128)}, s32[4,128]{1,0:T(4,128)})->(s32[]{:T(128)}, f32[512]{0:T(512)}, f32[512,3,18432]{2,0,1:T(8,128)}, f32[512,3,18432]{2,0,1:T(8,128)}, f32[18432,3,512]{2,0,1:T(8,128)}, /*index=5*/f32[512,3]{0,1:T(4,128)}, f32[512,3]{0,1:T(4,128)}, f32[512,3]{0,1:T(4,128)}, f32[128,3,128,512]{3,2,1,0:T(8,128)}, f32[1536,3]{0,1:T(4,128)}, /*index=10*/f32[512,3,576]{0,2,1:T(8,128)}, f32[512,3,128,256]{3,2,1,0:T(8,128)}, f32[512,3,1536]{2,0,1:T(8,128)}, f32[1536,3,128,192]{2,3,1,0:T(8,128)}, f32[512,129280]{1,0:T(8,128)}, /*index=15*/f32[256,1]{0,1:T(1,128)}, f32[512,1,256]{2,1,0:T(1,128)}, f32[256,1,512,512]{3,2,1,0:T(8,128)}, f32[256,1,512,512]{3,2,1,0:T(8,128)}, f32[256,1,512,512]{3,2,1,0:T(8,128)}, /*index=20*/f32[512,1,512]{2,1,0:T(1,128)}, f32[512,1,512]{2,1,0:T(1,128)}, f32[512,1,512]{2,1,0:T(1,128)}, f32[512,1]{0,1:T(1,128)}, f32[512,1]{0,1:T(1,128)}, /*index=25*/f32[512,1]{0,1:T(1,128)}, f32[128,1,128,512]{3,2,1,0:T(8,128)}, f32[1536,1]{0,1:T(1,128)}, f32[512,1,576]{0,2,1:T(8,128)}, f32[512,1,128,256]{3,2,1,0:T(8,128)}, /*index=30*/f32[512,1,1536]{2,1,0:T(1,128)}, f32[1536,1,128,192]{2,3,1,0:T(8,128)}, f32[129280,512]{1,0:T(8,128)}, s32[]{:T(128)}, f32[512]{0:T(512)}, /*index=35*/f32[512,3,18432]{2,0,1:T(8,128)}, f32[512,3,18432]{2,0,1:T(8,128)}, f32[18432,3,512]{2,0,1:T(8,128)}, f32[512,3]{0,1:T(4,128)}, f32[512,3]{0,1:T(4,128)}, /*index=40*/f32[512,3]{0,1:T(4,128)}, f32[128,3,128,512]{3,2,1,0:T(8,128)}, f32[1536,3]{0,1:T(4,128)}, f32[512,3,576]{0,2,1:T(8,128)}, f32[512,3,128,256]{3,2,1,0:T(8,128)}, /*index=45*/f32[512,3,1536]{2,0,1:T(8,128)}, f32[1536,3,128,192]{2,3,1,0:T(8,128)}, f32[512,129280]{1,0:T(8,128)}, f32[256,1]{0,1:T(1,128)}, f32[512,1,256]{2,1,0:T(1,128)}, /*index=50*/f32[256,1,512,512]{3,2,1,0:T(8,128)}, f32[256,1,512,512]{3,2,1,0:T(8,128)}, f32[256,1,512,512]{3,2,1,0:T(8,128)}, f32[512,1,512]{2,1,0:T(1,128)}, f32[512,1,512]{2,1,0:T(1,128)}, /*index=55*/f32[512,1,512]{2,1,0:T(1,128)}, f32[512,1]{0,1:T(1,128)}, f32[512,1]{0,1:T(1,128)}, f32[512,1]{0,1:T(1,128)}, f32[128,1,128,512]{3,2,1,0:T(8,128)}, /*index=60*/f32[1536,1]{0,1:T(1,128)}, f32[512,1,576]{0,2,1:T(8,128)}, f32[512,1,128,256]{3,2,1,0:T(8,128)}, f32[512,1,1536]{2,1,0:T(1,128)}, f32[1536,1,128,192]{2,3,1,0:T(8,128)}, /*index=65*/f32[129280,512]{1,0:T(8,128)}, f32[512]{0:T(512)}, f32[512,3,18432]{2,0,1:T(8,128)}, f32[512,3,18432]{2,0,1:T(8,128)}, f32[18432,3,512]{2,0,1:T(8,128)}, /*index=70*/f32[512,3]{0,1:T(4,128)}, f32[512,3]{0,1:T(4,128)}, f32[512,3]{0,1:T(4,128)}, f32[128,3,128,512]{3,2,1,0:T(8,128)}, f32[1536,3]{0,1:T(4,128)}, /*index=75*/f32[512,3,576]{0,2,1:T(8,128)}, f32[512,3,128,256]{3,2,1,0:T(8,128)}, f32[512,3,1536]{2,0,1:T(8,128)}, f32[1536,3,128,192]{2,3,1,0:T(8,128)}, f32[512,129280]{1,0:T(8,128)}, /*index=80*/f32[256,1]{0,1:T(1,128)}, f32[512,1,256]{2,1,0:T(1,128)}, f32[256,1,512,512]{3,2,1,0:T(8,128)}, f32[256,1,512,512]{3,2,1,0:T(8,128)}, f32[256,1,512,512]{3,2,1,0:T(8,128)}, /*index=85*/f32[512,1,512]{2,1,0:T(1,128)}, f32[512,1,512]{2,1,0:T(1,128)}, f32[512,1,512]{2,1,0:T(1,128)}, f32[512,1]{0,1:T(1,128)}, f32[512,1]{0,1:T(1,128)}, /*index=90*/f32[512,1]{0,1:T(1,128)}, f32[128,1,128,512]{3,2,1,0:T(8,128)}, f32[1536,1]{0,1:T(1,128)}, f32[512,1,576]{0,2,1:T(8,128)}, f32[512,1,128,256]{3,2,1,0:T(8,128)}, /*index=95*/f32[512,1,1536]{2,1,0:T(1,128)}, f32[1536,1,128,192]{2,3,1,0:T(8,128)}, f32[129280,512]{1,0:T(8,128)}, s32[]{:T(128)}, f32[]{:T(128)}, /*index=100*/f32[]{:T(128)}, f32[]{:T(128)}, f32[]{:T(128)}, f32[]{:T(128)}, f32[]{:T(128)}, /*index=105*/f32[]{:T(128)}, f32[]{:T(128)}, f32[]{:T(128)}, s32[]{:T(128)}, f32[]{:T(128)})}, allow_spmd_sharding_propagation_to_parameters={false,false,false,false,false,false,false,false,false,false,false,false,false,false,false,false,false,false,false,false,false,false,false,false,false,false,false,false,false,false,false,false,false,false,false,false,false,false,false,false,false,false,false,false,false,false,false,false,false,false,false,false,false,false,false,false,false,false,false,false,false,false,false,false,false,false,false,false,false,false,false,false,false,false,false,false,false,false,false,false,false,false,false,false,false,false,false,false,false,false,false,false,false,false,false,false,false,false,false,false,false,false,false,false}, allow_spmd_sharding_propagation_to_output={false,false,false,false,false,false,false,false,false,false,false,false,false,false,false,false,false,false,false,false,false,false,false,false,false,false,false,false,false,false,false,false,false,false,false,false,false,false,false,false,false,false,false,false,false,false,false,false,false,false,false,false,false,false,false,false,false,false,false,false,false,false,false,false,false,false,false,false,false,false,false,false,false,false,false,false,false,false,false,false,false,false,false,false,false,false,false,false,false,false,false,false,false,false,false,false,false,false,false,true,true,true,true,true,true,true,true,true,true,true}, num_partitions=4

FileNames

FunctionNames

FileLocations

StackFrames


%region_46.56 (top_k.25: bf16[], top_k.26: bf16[], top_k.27: s32[], top_k.28: s32[]) -> pred[] {
  %constant.1408 = s32[]{:T(128)} constant(0)
  %constant.1409 = s32[]{:T(128)} constant(2147483647)
  %top_k.25 = bf16[]{:T(256)} parameter(0), metadata={op_name="top_k"}
  %top_k.26 = bf16[]{:T(256)} parameter(1), metadata={op_name="top_k"}
  %top_k.27 = s32[]{:T(128)} parameter(2), metadata={op_name="top_k"}
  %top_k.28 = s32[]{:T(128)} parameter(3), metadata={op_name="top_k"}
  %convert.393 = f32[]{:T(128)S(6)} convert(%top_k.25), metadata={op_name="convert.18"}, backend_config={"flag_configs":[],"scoped_memory_configs":[],"used_scoped_memory_configs":[],"aliasing_operands":{"lists":[]}}
  %bitcast-convert.39 = s32[]{:T(128)S(6)} bitcast-convert(%convert.393), metadata={op_name="bitcast-convert.8"}, backend_config={"flag_configs":[],"scoped_memory_configs":[],"used_scoped_memory_configs":[],"aliasing_operands":{"lists":[]}}
  %compare.144 = pred[]{:T(512)S(6)} compare(%bitcast-convert.39, %constant.1408), direction=LT, metadata={op_name="compare.38"}, backend_config={"flag_configs":[],"scoped_memory_configs":[],"used_scoped_memory_configs":[],"aliasing_operands":{"lists":[]}}
  %xor.40 = s32[]{:T(128)S(6)} xor(%constant.1409, %bitcast-convert.39), metadata={op_name="xor.8"}, backend_config={"flag_configs":[],"scoped_memory_configs":[],"used_scoped_memory_configs":[],"aliasing_operands":{"lists":[]}}
  %select.127 = s32[]{:T(128)S(6)} select(%compare.144, %xor.40, %bitcast-convert.39), metadata={op_name="select.16"}, backend_config={"flag_configs":[],"scoped_memory_configs":[],"used_scoped_memory_configs":[],"aliasing_operands":{"lists":[{"indices":["1","3"]}]}}
  %convert.394 = f32[]{:T(128)S(6)} convert(%top_k.26), metadata={op_name="convert.19"}, backend_config={"flag_configs":[],"scoped_memory_configs":[],"used_scoped_memory_configs":[],"aliasing_operands":{"lists":[]}}
  %bitcast-convert.40 = s32[]{:T(128)S(6)} bitcast-convert(%convert.394), metadata={op_name="bitcast-convert.9"}, backend_config={"flag_configs":[],"scoped_memory_configs":[],"used_scoped_memory_configs":[],"aliasing_operands":{"lists":[]}}
  %compare.145 = pred[]{:T(512)S(6)} compare(%bitcast-convert.40, %constant.1408), direction=LT, metadata={op_name="compare.39"}, backend_config={"flag_configs":[],"scoped_memory_configs":[],"used_scoped_memory_configs":[],"aliasing_operands":{"lists":[]}}
  %xor.41 = s32[]{:T(128)S(6)} xor(%constant.1409, %bitcast-convert.40), metadata={op_name="xor.9"}, backend_config={"flag_configs":[],"scoped_memory_configs":[],"used_scoped_memory_configs":[],"aliasing_operands":{"lists":[]}}
  %select.128 = s32[]{:T(128)S(6)} select(%compare.145, %xor.41, %bitcast-convert.40), metadata={op_name="select.17"}, backend_config={"flag_configs":[],"scoped_memory_configs":[],"used_scoped_memory_configs":[],"aliasing_operands":{"lists":[{"indices":["1","3"]}]}}
  %compare.146 = pred[]{:T(512)S(6)} compare(%select.127, %select.128), direction=GT, metadata={op_name="compare.0"}, backend_config={"flag_configs":[],"scoped_memory_configs":[],"used_scoped_memory_configs":[],"aliasing_operands":{"lists":[]}}
  %compare.147 = pred[]{:T(512)S(6)} compare(%select.128, %select.127), direction=GT, metadata={op_name="compare.117"}, backend_config={"flag_configs":[],"scoped_memory_configs":[],"used_scoped_memory_configs":[],"aliasing_operands":{"lists":[]}}
  %compare.148 = pred[]{:T(512)S(6)} compare(%compare.146, %compare.147), direction=EQ, metadata={op_name="compare.118"}, backend_config={"flag_configs":[],"scoped_memory_configs":[],"used_scoped_memory_configs":[],"aliasing_operands":{"lists":[]}}
  %compare.149 = pred[]{:T(512)S(6)} compare(%top_k.27, %top_k.28), direction=LT, metadata={op_name="compare.119"}, backend_config={"flag_configs":[],"scoped_memory_configs":[],"used_scoped_memory_configs":[],"aliasing_operands":{"lists":[]}}
  ROOT %select.129 = pred[]{:T(512)} select(%compare.148, %compare.149, %compare.146), metadata={op_name="select.113"}, backend_config={"flag_configs":[],"scoped_memory_configs":[],"used_scoped_memory_configs":[],"aliasing_operands":{"lists":[]}}
}

%region_47.57 (sort.64: s32[], sort.65: s32[], sort.66: s32[], sort.67: s32[]) -> pred[] {
  %sort.64 = s32[]{:T(128)} parameter(0), metadata={op_name="jit(argsort)/sort"}
  %sort.65 = s32[]{:T(128)} parameter(1), metadata={op_name="jit(argsort)/sort"}
  %sort.66 = s32[]{:T(128)} parameter(2), metadata={op_name="jit(argsort)/sort"}
  %sort.67 = s32[]{:T(128)} parameter(3), metadata={op_name="jit(argsort)/sort"}
  %lt_to.32 = pred[]{:T(512)S(6)} compare(%sort.64, %sort.65), direction=LT, metadata={op_name="lt_to"}, backend_config={"flag_configs":[],"scoped_memory_configs":[],"used_scoped_memory_configs":[],"aliasing_operands":{"lists":[]}}
  %lt_to.33 = pred[]{:T(512)S(6)} compare(%sort.65, %sort.64), direction=LT, metadata={op_name="lt_to"}, backend_config={"flag_configs":[],"scoped_memory_configs":[],"used_scoped_memory_configs":[],"aliasing_operands":{"lists":[]}}
  %compare.150 = pred[]{:T(512)S(6)} compare(%lt_to.32, %lt_to.33), direction=EQ, metadata={op_name="compare.120"}, backend_config={"flag_configs":[],"scoped_memory_configs":[],"used_scoped_memory_configs":[],"aliasing_operands":{"lists":[]}}
  %compare.151 = pred[]{:T(512)S(6)} compare(%sort.66, %sort.67), direction=LT, metadata={op_name="compare.121"}, backend_config={"flag_configs":[],"scoped_memory_configs":[],"used_scoped_memory_configs":[],"aliasing_operands":{"lists":[]}}
  ROOT %select.130 = pred[]{:T(512)} select(%compare.150, %compare.151, %lt_to.32), metadata={op_name="select.114"}, backend_config={"flag_configs":[],"scoped_memory_configs":[],"used_scoped_memory_configs":[],"aliasing_operands":{"lists":[]}}
}

%region_48.58 (sort.68: s32[], sort.69: s32[], sort.70: s32[], sort.71: s32[]) -> pred[] {
  %sort.68 = s32[]{:T(128)} parameter(0), metadata={op_name="jit(argsort)/sort"}
  %sort.69 = s32[]{:T(128)} parameter(1), metadata={op_name="jit(argsort)/sort"}
  %sort.70 = s32[]{:T(128)} parameter(2), metadata={op_name="jit(argsort)/sort"}
  %sort.71 = s32[]{:T(128)} parameter(3), metadata={op_name="jit(argsort)/sort"}
  %lt_to.34 = pred[]{:T(512)S(6)} compare(%sort.68, %sort.69), direction=LT, metadata={op_name="lt_to"}, backend_config={"flag_configs":[],"scoped_memory_configs":[],"used_scoped_memory_configs":[],"aliasing_operands":{"lists":[]}}
  %lt_to.35 = pred[]{:T(512)S(6)} compare(%sort.69, %sort.68), direction=LT, metadata={op_name="lt_to"}, backend_config={"flag_configs":[],"scoped_memory_configs":[],"used_scoped_memory_configs":[],"aliasing_operands":{"lists":[]}}
  %compare.152 = pred[]{:T(512)S(6)} compare(%lt_to.34, %lt_to.35), direction=EQ, metadata={op_name="compare.122"}, backend_config={"flag_configs":[],"scoped_memory_configs":[],"used_scoped_memory_configs":[],"aliasing_operands":{"lists":[]}}
  %compare.153 = pred[]{:T(512)S(6)} compare(%sort.70, %sort.71), direction=LT, metadata={op_name="compare.123"}, backend_config={"flag_configs":[],"scoped_memory_configs":[],"used_scoped_memory_configs":[],"aliasing_operands":{"lists":[]}}
  ROOT %select.131 = pred[]{:T(512)} select(%compare.152, %compare.153, %lt_to.34), metadata={op_name="select.115"}, backend_config={"flag_configs":[],"scoped_memory_configs":[],"used_scoped_memory_configs":[],"aliasing_operands":{"lists":[]}}
}

%region_67.80 (sort.78: s32[], sort.79: s32[], sort.80: s32[], sort.81: s32[]) -> pred[] {
  %sort.78 = s32[]{:T(128)} parameter(0), metadata={op_name="sort_activations/jit(argsort)/sort"}
  %sort.79 = s32[]{:T(128)} parameter(1), metadata={op_name="sort_activations/jit(argsort)/sort"}
  %sort.80 = s32[]{:T(128)} parameter(2), metadata={op_name="sort_activations/jit(argsort)/sort"}
  %sort.81 = s32[]{:T(128)} parameter(3), metadata={op_name="sort_activations/jit(argsort)/sort"}
  %lt_to.37 = pred[]{:T(512)S(6)} compare(%sort.78, %sort.79), direction=LT, metadata={op_name="lt_to"}, backend_config={"flag_configs":[],"scoped_memory_configs":[],"used_scoped_memory_configs":[],"aliasing_operands":{"lists":[]}}
  %lt_to.38 = pred[]{:T(512)S(6)} compare(%sort.79, %sort.78), direction=LT, metadata={op_name="lt_to"}, backend_config={"flag_configs":[],"scoped_memory_configs":[],"used_scoped_memory_configs":[],"aliasing_operands":{"lists":[]}}
  %compare.156 = pred[]{:T(512)S(6)} compare(%lt_to.37, %lt_to.38), direction=EQ, metadata={op_name="compare.124"}, backend_config={"flag_configs":[],"scoped_memory_configs":[],"used_scoped_memory_configs":[],"aliasing_operands":{"lists":[]}}
  %compare.157 = pred[]{:T(512)S(6)} compare(%sort.80, %sort.81), direction=LT, metadata={op_name="compare.125"}, backend_config={"flag_configs":[],"scoped_memory_configs":[],"used_scoped_memory_configs":[],"aliasing_operands":{"lists":[]}}
  ROOT %select.134 = pred[]{:T(512)} select(%compare.156, %compare.157, %lt_to.37), metadata={op_name="select.116"}, backend_config={"flag_configs":[],"scoped_memory_configs":[],"used_scoped_memory_configs":[],"aliasing_operands":{"lists":[]}}
}

%region_119.141 (reduce_sum.157: bf16[], reduce_sum.158: bf16[]) -> bf16[] {
  %reduce_sum.157 = bf16[]{:T(256)} parameter(0), metadata={op_name="jit(train_step)/transpose(jvp(TransformerLinenPure.apply))/TransformerLinenPure/decoder/moe_layers.wrapped_fn/while/body/closed_call/checkpoint/moe_layers/reduce_sum"}
  %reduce_sum.158 = bf16[]{:T(256)} parameter(1), metadata={op_name="jit(train_step)/transpose(jvp(TransformerLinenPure.apply))/TransformerLinenPure/decoder/moe_layers.wrapped_fn/while/body/closed_call/checkpoint/moe_layers/reduce_sum"}
  ROOT %reduce_sum.159 = bf16[]{:T(256)} add(%reduce_sum.157, %reduce_sum.158), metadata={op_name="checkpoint/moe_layers/reduce_sum" stack_frame_id=1244}, backend_config={"flag_configs":[],"scoped_memory_configs":[],"used_scoped_memory_configs":[],"aliasing_operands":{"lists":[]}}
}

%region_107.126 (psum.6: bf16[], psum.9: bf16[]) -> bf16[] {
  %psum.6 = bf16[]{:T(256)} parameter(0), metadata={op_name="psum"}
  %psum.9 = bf16[]{:T(256)} parameter(1), metadata={op_name="psum"}
  ROOT %add.1407 = bf16[]{:T(256)} add(%psum.6, %psum.9), metadata={op_name="add" stack_frame_id=1207}, backend_config={"flag_configs":[],"scoped_memory_configs":[],"used_scoped_memory_configs":[],"aliasing_operands":{"lists":[]}}
}

%region_108.127 (psum.10: bf16[], psum.11: bf16[]) -> bf16[] {
  %psum.10 = bf16[]{:T(256)} parameter(0), metadata={op_name="psum"}
  %psum.11 = bf16[]{:T(256)} parameter(1), metadata={op_name="psum"}
  ROOT %add.1408 = bf16[]{:T(256)} add(%psum.10, %psum.11), metadata={op_name="add" stack_frame_id=1207}, backend_config={"flag_configs":[],"scoped_memory_configs":[],"used_scoped_memory_configs":[],"aliasing_operands":{"lists":[]}}
}

%region_109.128 (psum.14: bf16[], psum.15: bf16[]) -> bf16[] {
  %psum.14 = bf16[]{:T(256)} parameter(0), metadata={op_name="psum"}
  %psum.15 = bf16[]{:T(256)} parameter(1), metadata={op_name="psum"}
  ROOT %add.1409 = bf16[]{:T(256)} add(%psum.14, %psum.15), metadata={op_name="add" stack_frame_id=1207}, backend_config={"flag_configs":[],"scoped_memory_configs":[],"used_scoped_memory_configs":[],"aliasing_operands":{"lists":[]}}
}

%region_62.73 (reduce-window.111: s32[], reduce-window.112: s32[]) -> s32[] {
  %reduce-window.111 = s32[]{:T(128)} parameter(0), metadata={op_name="reduce-window.35"}
  %reduce-window.112 = s32[]{:T(128)} parameter(1), metadata={op_name="reduce-window.35"}
  ROOT %reduce_window_sum.108 = s32[]{:T(128)} add(%reduce-window.111, %reduce-window.112), metadata={op_name="reduce_window_sum"}, backend_config={"flag_configs":[],"scoped_memory_configs":[],"used_scoped_memory_configs":[],"aliasing_operands":{"lists":[]}}
}

%region_64.75 (reduce-window.113: s32[], reduce-window.114: s32[]) -> s32[] {
  %reduce-window.113 = s32[]{:T(128)} parameter(0), metadata={op_name="reduce-window.36"}
  %reduce-window.114 = s32[]{:T(128)} parameter(1), metadata={op_name="reduce-window.36"}
  ROOT %reduce_window_sum.109 = s32[]{:T(128)} add(%reduce-window.113, %reduce-window.114), metadata={op_name="reduce_window_sum"}, backend_config={"flag_configs":[],"scoped_memory_configs":[],"used_scoped_memory_configs":[],"aliasing_operands":{"lists":[]}}
}

%region_65.76 (reduce-window.115: s32[], reduce-window.116: s32[]) -> s32[] {
  %reduce-window.115 = s32[]{:T(128)} parameter(0), metadata={op_name="reduce-window.63"}
  %reduce-window.116 = s32[]{:T(128)} parameter(1), metadata={op_name="reduce-window.63"}
  ROOT %reduce_window_sum.110 = s32[]{:T(128)} add(%reduce-window.115, %reduce-window.116), metadata={op_name="reduce_window_sum"}, backend_config={"flag_configs":[],"scoped_memory_configs":[],"used_scoped_memory_configs":[],"aliasing_operands":{"lists":[]}}
}

%region_68.81.clone (reduce-window.333: s32[], reduce-window.334: s32[]) -> s32[] {
  %reduce-window.333 = s32[]{:T(128)} parameter(0), metadata={op_name="reduce-window.38"}
  %reduce-window.334 = s32[]{:T(128)} parameter(1), metadata={op_name="reduce-window.38"}
  ROOT %reduce_window_sum.261 = s32[]{:T(128)} add(%reduce-window.333, %reduce-window.334), metadata={op_name="reduce_window_sum"}, backend_config={"flag_configs":[],"scoped_memory_configs":[],"used_scoped_memory_configs":[],"aliasing_operands":{"lists":[]}}
}

%region_69.82.clone (reduce-window.335: s32[], reduce-window.336: s32[]) -> s32[] {
  %reduce-window.335 = s32[]{:T(128)} parameter(0), metadata={op_name="reduce-window.64"}
  %reduce-window.336 = s32[]{:T(128)} parameter(1), metadata={op_name="reduce-window.64"}
  ROOT %reduce_window_sum.262 = s32[]{:T(128)} add(%reduce-window.335, %reduce-window.336), metadata={op_name="reduce_window_sum"}, backend_config={"flag_configs":[],"scoped_memory_configs":[],"used_scoped_memory_configs":[],"aliasing_operands":{"lists":[]}}
}

%region_71.84.clone (reduce-window.337: s32[], reduce-window.338: s32[]) -> s32[] {
  %reduce-window.337 = s32[]{:T(128)} parameter(0), metadata={op_name="reduce-window.40"}
  %reduce-window.338 = s32[]{:T(128)} parameter(1), metadata={op_name="reduce-window.40"}
  ROOT %reduce_window_sum.263 = s32[]{:T(128)} add(%reduce-window.337, %reduce-window.338), metadata={op_name="reduce_window_sum"}, backend_config={"flag_configs":[],"scoped_memory_configs":[],"used_scoped_memory_configs":[],"aliasing_operands":{"lists":[]}}
}

%region_72.85.clone (reduce-window.339: s32[], reduce-window.340: s32[]) -> s32[] {
  %reduce-window.339 = s32[]{:T(128)} parameter(0), metadata={op_name="reduce-window.65"}
  %reduce-window.340 = s32[]{:T(128)} parameter(1), metadata={op_name="reduce-window.65"}
  ROOT %reduce_window_sum.264 = s32[]{:T(128)} add(%reduce-window.339, %reduce-window.340), metadata={op_name="reduce_window_sum"}, backend_config={"flag_configs":[],"scoped_memory_configs":[],"used_scoped_memory_configs":[],"aliasing_operands":{"lists":[]}}
}

%region_74.87.clone (reduce-window.341: s32[], reduce-window.342: s32[]) -> s32[] {
  %reduce-window.341 = s32[]{:T(128)} parameter(0), metadata={op_name="reduce-window.42"}
  %reduce-window.342 = s32[]{:T(128)} parameter(1), metadata={op_name="reduce-window.42"}
  ROOT %reduce_window_sum.265 = s32[]{:T(128)} add(%reduce-window.341, %reduce-window.342), metadata={op_name="reduce_window_sum"}, backend_config={"flag_configs":[],"scoped_memory_configs":[],"used_scoped_memory_configs":[],"aliasing_operands":{"lists":[]}}
}

%region_75.88.clone (reduce-window.343: s32[], reduce-window.344: s32[]) -> s32[] {
  %reduce-window.343 = s32[]{:T(128)} parameter(0), metadata={op_name="reduce-window.66"}
  %reduce-window.344 = s32[]{:T(128)} parameter(1), metadata={op_name="reduce-window.66"}
  ROOT %reduce_window_sum.266 = s32[]{:T(128)} add(%reduce-window.343, %reduce-window.344), metadata={op_name="reduce_window_sum"}, backend_config={"flag_configs":[],"scoped_memory_configs":[],"used_scoped_memory_configs":[],"aliasing_operands":{"lists":[]}}
}

%region_80.96.clone (reduce-window.345: s32[], reduce-window.346: s32[]) -> s32[] {
  %reduce-window.345 = s32[]{:T(128)} parameter(0), metadata={op_name="reduce-window.44"}
  %reduce-window.346 = s32[]{:T(128)} parameter(1), metadata={op_name="reduce-window.44"}
  ROOT %reduce_window_sum.267 = s32[]{:T(128)} add(%reduce-window.345, %reduce-window.346), metadata={op_name="reduce_window_sum"}, backend_config={"flag_configs":[],"scoped_memory_configs":[],"used_scoped_memory_configs":[],"aliasing_operands":{"lists":[]}}
}

%region_82.98.clone (reduce-window.347: s32[], reduce-window.348: s32[]) -> s32[] {
  %reduce-window.347 = s32[]{:T(128)} parameter(0), metadata={op_name="reduce-window.45"}
  %reduce-window.348 = s32[]{:T(128)} parameter(1), metadata={op_name="reduce-window.45"}
  ROOT %reduce_window_sum.268 = s32[]{:T(128)} add(%reduce-window.347, %reduce-window.348), metadata={op_name="reduce_window_sum"}, backend_config={"flag_configs":[],"scoped_memory_configs":[],"used_scoped_memory_configs":[],"aliasing_operands":{"lists":[]}}
}

%region_83.99.clone (reduce-window.349: s32[], reduce-window.350: s32[]) -> s32[] {
  %reduce-window.349 = s32[]{:T(128)} parameter(0), metadata={op_name="reduce-window.67"}
  %reduce-window.350 = s32[]{:T(128)} parameter(1), metadata={op_name="reduce-window.67"}
  ROOT %reduce_window_sum.269 = s32[]{:T(128)} add(%reduce-window.349, %reduce-window.350), metadata={op_name="reduce_window_sum"}, backend_config={"flag_configs":[],"scoped_memory_configs":[],"used_scoped_memory_configs":[],"aliasing_operands":{"lists":[]}}
}

%region_94.112 (reduce-window.174: s32[], reduce-window.175: s32[]) -> s32[] {
  %reduce-window.174 = s32[]{:T(128)} parameter(0), metadata={op_name="reduce-window.49"}
  %reduce-window.175 = s32[]{:T(128)} parameter(1), metadata={op_name="reduce-window.49"}
  ROOT %reduce_window_sum.138 = s32[]{:T(128)} add(%reduce-window.174, %reduce-window.175), metadata={op_name="reduce_window_sum"}, backend_config={"flag_configs":[],"scoped_memory_configs":[],"used_scoped_memory_configs":[],"aliasing_operands":{"lists":[]}}
}

%region_95.113 (reduce-window.179: s32[], reduce-window.180: s32[]) -> s32[] {
  %reduce-window.179 = s32[]{:T(128)} parameter(0), metadata={op_name="reduce-window.69"}
  %reduce-window.180 = s32[]{:T(128)} parameter(1), metadata={op_name="reduce-window.69"}
  ROOT %reduce_window_sum.139 = s32[]{:T(128)} add(%reduce-window.179, %reduce-window.180), metadata={op_name="reduce_window_sum"}, backend_config={"flag_configs":[],"scoped_memory_configs":[],"used_scoped_memory_configs":[],"aliasing_operands":{"lists":[]}}
}

%region_97.115 (reduce-window.184: s32[], reduce-window.185: s32[]) -> s32[] {
  %reduce-window.184 = s32[]{:T(128)} parameter(0), metadata={op_name="reduce-window.51"}
  %reduce-window.185 = s32[]{:T(128)} parameter(1), metadata={op_name="reduce-window.51"}
  ROOT %reduce_window_sum.140 = s32[]{:T(128)} add(%reduce-window.184, %reduce-window.185), metadata={op_name="reduce_window_sum"}, backend_config={"flag_configs":[],"scoped_memory_configs":[],"used_scoped_memory_configs":[],"aliasing_operands":{"lists":[]}}
}

%region_98.116 (reduce-window.189: s32[], reduce-window.190: s32[]) -> s32[] {
  %reduce-window.189 = s32[]{:T(128)} parameter(0), metadata={op_name="reduce-window.70"}
  %reduce-window.190 = s32[]{:T(128)} parameter(1), metadata={op_name="reduce-window.70"}
  ROOT %reduce_window_sum.141 = s32[]{:T(128)} add(%reduce-window.189, %reduce-window.190), metadata={op_name="reduce_window_sum"}, backend_config={"flag_configs":[],"scoped_memory_configs":[],"used_scoped_memory_configs":[],"aliasing_operands":{"lists":[]}}
}

%region_103.121 (reduce-window.194: s32[], reduce-window.195: s32[]) -> s32[] {
  %reduce-window.194 = s32[]{:T(128)} parameter(0), metadata={op_name="reduce-window.53"}
  %reduce-window.195 = s32[]{:T(128)} parameter(1), metadata={op_name="reduce-window.53"}
  ROOT %reduce_window_sum.142 = s32[]{:T(128)} add(%reduce-window.194, %reduce-window.195), metadata={op_name="reduce_window_sum"}, backend_config={"flag_configs":[],"scoped_memory_configs":[],"used_scoped_memory_configs":[],"aliasing_operands":{"lists":[]}}
}

%region_105.123 (reduce-window.199: s32[], reduce-window.200: s32[]) -> s32[] {
  %reduce-window.199 = s32[]{:T(128)} parameter(0), metadata={op_name="reduce-window.54"}
  %reduce-window.200 = s32[]{:T(128)} parameter(1), metadata={op_name="reduce-window.54"}
  ROOT %reduce_window_sum.143 = s32[]{:T(128)} add(%reduce-window.199, %reduce-window.200), metadata={op_name="reduce_window_sum"}, backend_config={"flag_configs":[],"scoped_memory_configs":[],"used_scoped_memory_configs":[],"aliasing_operands":{"lists":[]}}
}

%region_106.124 (reduce-window.204: s32[], reduce-window.205: s32[]) -> s32[] {
  %reduce-window.204 = s32[]{:T(128)} parameter(0), metadata={op_name="reduce-window.71"}
  %reduce-window.205 = s32[]{:T(128)} parameter(1), metadata={op_name="reduce-window.71"}
  ROOT %reduce_window_sum.144 = s32[]{:T(128)} add(%reduce-window.204, %reduce-window.205), metadata={op_name="reduce_window_sum"}, backend_config={"flag_configs":[],"scoped_memory_configs":[],"used_scoped_memory_configs":[],"aliasing_operands":{"lists":[]}}
}

%fused_computation.5 (param_0.17: bf16[129280,512], param_1.108: s32[1024]) -> bf16[512,512] {
  %param_0.17 = bf16[129280,512]{1,0:T(8,128)(2,1)} parameter(0)
  %param_1.108 = s32[1024]{0:T(1024)S(1)} parameter(1)
  %custom-call.13 = s32[1024]{0:T(1024)} custom-call(%param_1.108), custom_call_target="AssumeGatherIndicesInBound", operand_layout_constraints={s32[1024]{0:T(1024)}}, metadata={op_name="jit(train_step)/jvp(TransformerLinenPure.apply)/TransformerLinenPure/decoder/decoder._apply_embedding/token_embedder/gather" stack_frame_id=104}
  %slice.1060 = s32[512]{0:T(512)} slice(%custom-call.13), slice={[0:512]}, metadata={op_name="jit(train_step)/jvp(TransformerLinenPure.apply)/TransformerLinenPure/decoder/decoder._apply_embedding/token_embedder/gather" stack_frame_id=104}
  %reshape.3405 = s32[4,128]{1,0:T(4,128)} reshape(%slice.1060), metadata={op_name="jit(train_step)/jvp(TransformerLinenPure.apply)/TransformerLinenPure/decoder/decoder._apply_embedding/token_embedder/broadcast_in_dim" stack_frame_id=104}
  %transpose.849 = s32[4,128]{1,0:T(4,128)} transpose(%reshape.3405), dimensions={0,1}, metadata={op_name="jit(train_step)/jvp(TransformerLinenPure.apply)/TransformerLinenPure/decoder/decoder._apply_embedding/token_embedder/broadcast_in_dim" stack_frame_id=104}
  %gather.213 = bf16[4,128,512]{2,1,0:T(8,128)(2,1)} gather(%param_0.17, %transpose.849), offset_dims={2}, collapsed_slice_dims={0}, start_index_map={0}, index_vector_dim=2, slice_sizes={1,512}, metadata={op_name="jit(train_step)/jvp(TransformerLinenPure.apply)/TransformerLinenPure/decoder/decoder._apply_embedding/token_embedder/gather" stack_frame_id=104}
  %transpose.848 = bf16[4,128,512]{2,1,0:T(8,128)(2,1)} transpose(%gather.213), dimensions={0,1,2}, metadata={op_name="jit(train_step)/jvp(TransformerLinenPure.apply)/TransformerLinenPure/decoder/decoder._apply_embedding/token_embedder/gather" stack_frame_id=104}
  ROOT %reshape.3404 = bf16[512,512]{1,0:T(8,128)(2,1)} reshape(%transpose.848), metadata={op_name="jit(train_step)/jvp(TransformerLinenPure.apply)/TransformerLinenPure/decoder/decoder._apply_embedding/token_embedder/gather" stack_frame_id=104}
}

%fused_computation.6 (param_0.20: f32[163840,32], param_1.110: s32[1024]) -> f32[512,32] {
  %param_0.20 = f32[163840,32]{1,0:T(8,128)} parameter(0)
  %param_1.110 = s32[1024]{0:T(1024)S(1)} parameter(1)
  %custom-call.15 = s32[1024]{0:T(1024)} custom-call(%param_1.110), custom_call_target="AssumeGatherIndicesInBound", operand_layout_constraints={s32[1024]{0:T(1024)}}, metadata={op_name="jit(train_step)/dense_layers/gather" stack_frame_id=180}
  %slice.1062 = s32[512]{0:T(512)} slice(%custom-call.15), slice={[0:512]}, metadata={op_name="jit(train_step)/dense_layers/gather" stack_frame_id=180}
  %reshape.3413 = s32[4,128]{1,0:T(4,128)} reshape(%slice.1062), metadata={op_name="jit(train_step)/dense_layers/broadcast_in_dim" stack_frame_id=180}
  %transpose.855 = s32[4,128]{1,0:T(4,128)} transpose(%reshape.3413), dimensions={0,1}, metadata={op_name="jit(train_step)/dense_layers/broadcast_in_dim" stack_frame_id=180}
  %gather.215 = f32[4,128,32]{2,1,0:T(8,128)} gather(%param_0.20, %transpose.855), offset_dims={2}, collapsed_slice_dims={0}, start_index_map={0}, index_vector_dim=2, slice_sizes={1,32}, metadata={op_name="jit(train_step)/dense_layers/gather" stack_frame_id=180}
  %transpose.854 = f32[4,128,32]{2,1,0:T(8,128)} transpose(%gather.215), dimensions={0,1,2}, metadata={op_name="jit(train_step)/dense_layers/gather" stack_frame_id=180}
  ROOT %reshape.3412 = f32[512,32]{1,0:T(8,128)} reshape(%transpose.854), metadata={op_name="jit(train_step)/dense_layers/gather" stack_frame_id=180}
}

%fused_computation.7 (param_0.23: f32[163840,32], param_1.112: s32[1024]) -> f32[512,32] {
  %param_0.23 = f32[163840,32]{1,0:T(8,128)} parameter(0)
  %param_1.112 = s32[1024]{0:T(1024)S(1)} parameter(1)
  %custom-call.17 = s32[1024]{0:T(1024)} custom-call(%param_1.112), custom_call_target="AssumeGatherIndicesInBound", operand_layout_constraints={s32[1024]{0:T(1024)}}, metadata={op_name="jit(train_step)/dense_layers/gather" stack_frame_id=180}
  %slice.1064 = s32[512]{0:T(512)} slice(%custom-call.17), slice={[0:512]}, metadata={op_name="jit(train_step)/dense_layers/gather" stack_frame_id=180}
  %reshape.3421 = s32[4,128]{1,0:T(4,128)} reshape(%slice.1064), metadata={op_name="jit(train_step)/dense_layers/broadcast_in_dim" stack_frame_id=180}
  %transpose.861 = s32[4,128]{1,0:T(4,128)} transpose(%reshape.3421), dimensions={0,1}, metadata={op_name="jit(train_step)/dense_layers/broadcast_in_dim" stack_frame_id=180}
  %gather.217 = f32[4,128,32]{2,1,0:T(8,128)} gather(%param_0.23, %transpose.861), offset_dims={2}, collapsed_slice_dims={0}, start_index_map={0}, index_vector_dim=2, slice_sizes={1,32}, metadata={op_name="jit(train_step)/dense_layers/gather" stack_frame_id=180}
  %transpose.860 = f32[4,128,32]{2,1,0:T(8,128)} transpose(%gather.217), dimensions={0,1,2}, metadata={op_name="jit(train_step)/dense_layers/gather" stack_frame_id=180}
  ROOT %reshape.3420 = f32[512,32]{1,0:T(8,128)} reshape(%transpose.860), metadata={op_name="jit(train_step)/dense_layers/gather" stack_frame_id=180}
}

%fused_computation.8 (param_0.26: f32[163840,32], param_1.120: s32[1024]) -> f32[512,32] {
  %param_0.26 = f32[163840,32]{1,0:T(8,128)} parameter(0)
  %param_1.120 = s32[1024]{0:T(1024)S(1)} parameter(1)
  %custom-call.25 = s32[1024]{0:T(1024)} custom-call(%param_1.120), custom_call_target="AssumeGatherIndicesInBound", operand_layout_constraints={s32[1024]{0:T(1024)}}, metadata={op_name="jit(train_step)/transpose(jvp(TransformerLinenPure.apply))/TransformerLinenPure/decoder/moe_layers.wrapped_fn/while/body/closed_call/checkpoint/rematted_computation/moe_layers/gather" stack_frame_id=981}
  %slice.1072 = s32[512]{0:T(512)} slice(%custom-call.25), slice={[0:512]}, metadata={op_name="jit(train_step)/transpose(jvp(TransformerLinenPure.apply))/TransformerLinenPure/decoder/moe_layers.wrapped_fn/while/body/closed_call/checkpoint/rematted_computation/moe_layers/gather" stack_frame_id=981}
  %reshape.3429 = s32[4,128]{1,0:T(4,128)} reshape(%slice.1072), metadata={op_name="jit(train_step)/transpose(jvp(TransformerLinenPure.apply))/TransformerLinenPure/decoder/moe_layers.wrapped_fn/while/body/closed_call/checkpoint/rematted_computation/moe_layers/select_n" stack_frame_id=981}
  %transpose.867 = s32[4,128]{1,0:T(4,128)} transpose(%reshape.3429), dimensions={0,1}, metadata={op_name="jit(train_step)/transpose(jvp(TransformerLinenPure.apply))/TransformerLinenPure/decoder/moe_layers.wrapped_fn/while/body/closed_call/checkpoint/rematted_computation/moe_layers/select_n" stack_frame_id=981}
  %gather.219 = f32[4,128,32]{2,1,0:T(8,128)} gather(%param_0.26, %transpose.867), offset_dims={2}, collapsed_slice_dims={0}, start_index_map={0}, index_vector_dim=2, slice_sizes={1,32}, metadata={op_name="jit(train_step)/transpose(jvp(TransformerLinenPure.apply))/TransformerLinenPure/decoder/moe_layers.wrapped_fn/while/body/closed_call/checkpoint/rematted_computation/moe_layers/gather" stack_frame_id=981}
  %transpose.866 = f32[4,128,32]{2,1,0:T(8,128)} transpose(%gather.219), dimensions={0,1,2}, metadata={op_name="jit(train_step)/transpose(jvp(TransformerLinenPure.apply))/TransformerLinenPure/decoder/moe_layers.wrapped_fn/while/body/closed_call/checkpoint/rematted_computation/moe_layers/gather" stack_frame_id=981}
  ROOT %reshape.3428 = f32[512,32]{1,0:T(8,128)} reshape(%transpose.866), metadata={op_name="jit(train_step)/transpose(jvp(TransformerLinenPure.apply))/TransformerLinenPure/decoder/moe_layers.wrapped_fn/while/body/closed_call/checkpoint/rematted_computation/moe_layers/gather" stack_frame_id=981}
}

%fused_computation.9 (param_0.29: f32[163840,32], param_1.122: s32[1024]) -> f32[512,32] {
  %param_0.29 = f32[163840,32]{1,0:T(8,128)} parameter(0)
  %param_1.122 = s32[1024]{0:T(1024)S(1)} parameter(1)
  %custom-call.27 = s32[1024]{0:T(1024)} custom-call(%param_1.122), custom_call_target="AssumeGatherIndicesInBound", operand_layout_constraints={s32[1024]{0:T(1024)}}, metadata={op_name="jit(train_step)/transpose(jvp(TransformerLinenPure.apply))/TransformerLinenPure/decoder/moe_layers.wrapped_fn/while/body/closed_call/checkpoint/rematted_computation/moe_layers/gather" stack_frame_id=981}
  %slice.1074 = s32[512]{0:T(512)} slice(%custom-call.27), slice={[0:512]}, metadata={op_name="jit(train_step)/transpose(jvp(TransformerLinenPure.apply))/TransformerLinenPure/decoder/moe_layers.wrapped_fn/while/body/closed_call/checkpoint/rematted_computation/moe_layers/gather" stack_frame_id=981}
  %reshape.3437 = s32[4,128]{1,0:T(4,128)} reshape(%slice.1074), metadata={op_name="jit(train_step)/transpose(jvp(TransformerLinenPure.apply))/TransformerLinenPure/decoder/moe_layers.wrapped_fn/while/body/closed_call/checkpoint/rematted_computation/moe_layers/select_n" stack_frame_id=981}
  %transpose.873 = s32[4,128]{1,0:T(4,128)} transpose(%reshape.3437), dimensions={0,1}, metadata={op_name="jit(train_step)/transpose(jvp(TransformerLinenPure.apply))/TransformerLinenPure/decoder/moe_layers.wrapped_fn/while/body/closed_call/checkpoint/rematted_computation/moe_layers/select_n" stack_frame_id=981}
  %gather.221 = f32[4,128,32]{2,1,0:T(8,128)} gather(%param_0.29, %transpose.873), offset_dims={2}, collapsed_slice_dims={0}, start_index_map={0}, index_vector_dim=2, slice_sizes={1,32}, metadata={op_name="jit(train_step)/transpose(jvp(TransformerLinenPure.apply))/TransformerLinenPure/decoder/moe_layers.wrapped_fn/while/body/closed_call/checkpoint/rematted_computation/moe_layers/gather" stack_frame_id=981}
  %transpose.872 = f32[4,128,32]{2,1,0:T(8,128)} transpose(%gather.221), dimensions={0,1,2}, metadata={op_name="jit(train_step)/transpose(jvp(TransformerLinenPure.apply))/TransformerLinenPure/decoder/moe_layers.wrapped_fn/while/body/closed_call/checkpoint/rematted_computation/moe_layers/gather" stack_frame_id=981}
  ROOT %reshape.3436 = f32[512,32]{1,0:T(8,128)} reshape(%transpose.872), metadata={op_name="jit(train_step)/transpose(jvp(TransformerLinenPure.apply))/TransformerLinenPure/decoder/moe_layers.wrapped_fn/while/body/closed_call/checkpoint/rematted_computation/moe_layers/gather" stack_frame_id=981}
}

%fused_computation.10 (param_0.32: bf16[4096,512], param_1.126: s32[4096]) -> bf16[4096,512] {
  %param_0.32 = bf16[4096,512]{1,0:T(8,128)(2,1)S(1)} parameter(0)
  %param_1.126 = s32[4096]{0:T(1024)S(1)} parameter(1)
  %custom-call.31 = s32[4096]{0:T(1024)} custom-call(%param_1.126), custom_call_target="AssumeGatherIndicesInBound", operand_layout_constraints={s32[4096]{0:T(1024)}}, metadata={op_name="jit(train_step)/transpose(jvp(TransformerLinenPure.apply))/TransformerLinenPure/decoder/moe_layers.wrapped_fn/while/body/closed_call/checkpoint/rematted_computation/moe_layers/shard_map/sort_activations/gather" stack_frame_id=1708}
  %slice.1078 = s32[4096]{0:T(1024)} slice(%custom-call.31), slice={[0:4096]}, metadata={op_name="jit(train_step)/transpose(jvp(TransformerLinenPure.apply))/TransformerLinenPure/decoder/moe_layers.wrapped_fn/while/body/closed_call/checkpoint/rematted_computation/moe_layers/shard_map/sort_activations/gather" stack_frame_id=1708}
  %reshape.3445 = s32[4096]{0:T(1024)} reshape(%slice.1078), metadata={op_name="jit(train_step)/transpose(jvp(TransformerLinenPure.apply))/TransformerLinenPure/decoder/moe_layers.wrapped_fn/while/body/closed_call/checkpoint/rematted_computation/moe_layers/shard_map/sort_activations/broadcast_in_dim" stack_frame_id=1708}
  %transpose.879 = s32[4096]{0:T(1024)} transpose(%reshape.3445), dimensions={0}, metadata={op_name="jit(train_step)/transpose(jvp(TransformerLinenPure.apply))/TransformerLinenPure/decoder/moe_layers.wrapped_fn/while/body/closed_call/checkpoint/rematted_computation/moe_layers/shard_map/sort_activations/broadcast_in_dim" stack_frame_id=1708}
  %gather.223 = bf16[4096,512]{1,0:T(8,128)(2,1)} gather(%param_0.32, %transpose.879), offset_dims={1}, collapsed_slice_dims={0}, start_index_map={0}, index_vector_dim=1, slice_sizes={1,512}, metadata={op_name="jit(train_step)/transpose(jvp(TransformerLinenPure.apply))/TransformerLinenPure/decoder/moe_layers.wrapped_fn/while/body/closed_call/checkpoint/rematted_computation/moe_layers/shard_map/sort_activations/gather" stack_frame_id=1708}
  %transpose.878 = bf16[4096,512]{1,0:T(8,128)(2,1)} transpose(%gather.223), dimensions={0,1}, metadata={op_name="jit(train_step)/transpose(jvp(TransformerLinenPure.apply))/TransformerLinenPure/decoder/moe_layers.wrapped_fn/while/body/closed_call/checkpoint/rematted_computation/moe_layers/shard_map/sort_activations/gather" stack_frame_id=1708}
  ROOT %reshape.3444 = bf16[4096,512]{1,0:T(8,128)(2,1)S(1)} reshape(%transpose.878), metadata={op_name="jit(train_step)/transpose(jvp(TransformerLinenPure.apply))/TransformerLinenPure/decoder/moe_layers.wrapped_fn/while/body/closed_call/checkpoint/rematted_computation/moe_layers/shard_map/sort_activations/gather" stack_frame_id=1708}
}

%fused_computation.11 (param_0.35: bf16[4096,512], param_1.128: s32[4096]) -> bf16[4096,512] {
  %param_0.35 = bf16[4096,512]{1,0:T(8,128)(2,1)S(1)} parameter(0)
  %param_1.128 = s32[4096]{0:T(1024)S(1)} parameter(1)
  %custom-call.33 = s32[4096]{0:T(1024)} custom-call(%param_1.128), custom_call_target="AssumeGatherIndicesInBound", operand_layout_constraints={s32[4096]{0:T(1024)}}, metadata={op_name="jit(train_step)/transpose(jvp(TransformerLinenPure.apply))/TransformerLinenPure/decoder/moe_layers.wrapped_fn/while/body/closed_call/checkpoint/moe_layers/shard_map/sort_activations/gather" stack_frame_id=1731}
  %slice.1080 = s32[4096]{0:T(1024)} slice(%custom-call.33), slice={[0:4096]}, metadata={op_name="jit(train_step)/transpose(jvp(TransformerLinenPure.apply))/TransformerLinenPure/decoder/moe_layers.wrapped_fn/while/body/closed_call/checkpoint/moe_layers/shard_map/sort_activations/gather" stack_frame_id=1731}
  %reshape.3453 = s32[4096]{0:T(1024)} reshape(%slice.1080), metadata={op_name="jit(train_step)/transpose(jvp(TransformerLinenPure.apply))/TransformerLinenPure/decoder/moe_layers.wrapped_fn/while/body/closed_call/checkpoint/moe_layers/shard_map/sort_activations/broadcast_in_dim" stack_frame_id=1731}
  %transpose.885 = s32[4096]{0:T(1024)} transpose(%reshape.3453), dimensions={0}, metadata={op_name="jit(train_step)/transpose(jvp(TransformerLinenPure.apply))/TransformerLinenPure/decoder/moe_layers.wrapped_fn/while/body/closed_call/checkpoint/moe_layers/shard_map/sort_activations/broadcast_in_dim" stack_frame_id=1731}
  %gather.225 = bf16[4096,512]{1,0:T(8,128)(2,1)} gather(%param_0.35, %transpose.885), offset_dims={1}, collapsed_slice_dims={0}, start_index_map={0}, index_vector_dim=1, slice_sizes={1,512}, metadata={op_name="jit(train_step)/transpose(jvp(TransformerLinenPure.apply))/TransformerLinenPure/decoder/moe_layers.wrapped_fn/while/body/closed_call/checkpoint/moe_layers/shard_map/sort_activations/gather" stack_frame_id=1731}
  %transpose.884 = bf16[4096,512]{1,0:T(8,128)(2,1)} transpose(%gather.225), dimensions={0,1}, metadata={op_name="jit(train_step)/transpose(jvp(TransformerLinenPure.apply))/TransformerLinenPure/decoder/moe_layers.wrapped_fn/while/body/closed_call/checkpoint/moe_layers/shard_map/sort_activations/gather" stack_frame_id=1731}
  ROOT %reshape.3452 = bf16[4096,512]{1,0:T(8,128)(2,1)S(1)} reshape(%transpose.884), metadata={op_name="jit(train_step)/transpose(jvp(TransformerLinenPure.apply))/TransformerLinenPure/decoder/moe_layers.wrapped_fn/while/body/closed_call/checkpoint/moe_layers/shard_map/sort_activations/gather" stack_frame_id=1731}
}

%fused_computation.12 (param_0.38: bf16[4096,512], param_1.130: s32[4096]) -> bf16[4096,512] {
  %param_0.38 = bf16[4096,512]{1,0:T(8,128)(2,1)S(1)} parameter(0)
  %param_1.130 = s32[4096]{0:T(1024)S(1)} parameter(1)
  %custom-call.35 = s32[4096]{0:T(1024)} custom-call(%param_1.130), custom_call_target="AssumeGatherIndicesInBound", operand_layout_constraints={s32[4096]{0:T(1024)}}, metadata={op_name="jit(train_step)/transpose(jvp(TransformerLinenPure.apply))/TransformerLinenPure/decoder/moe_layers.wrapped_fn/while/body/closed_call/checkpoint/moe_layers/shard_map/sort_activations/gather" stack_frame_id=1708}
  %slice.1082 = s32[4096]{0:T(1024)} slice(%custom-call.35), slice={[0:4096]}, metadata={op_name="jit(train_step)/transpose(jvp(TransformerLinenPure.apply))/TransformerLinenPure/decoder/moe_layers.wrapped_fn/while/body/closed_call/checkpoint/moe_layers/shard_map/sort_activations/gather" stack_frame_id=1708}
  %reshape.3461 = s32[4096]{0:T(1024)} reshape(%slice.1082), metadata={op_name="jit(train_step)/transpose(jvp(TransformerLinenPure.apply))/TransformerLinenPure/decoder/moe_layers.wrapped_fn/while/body/closed_call/checkpoint/moe_layers/shard_map/sort_activations/broadcast_in_dim" stack_frame_id=1708}
  %transpose.891 = s32[4096]{0:T(1024)} transpose(%reshape.3461), dimensions={0}, metadata={op_name="jit(train_step)/transpose(jvp(TransformerLinenPure.apply))/TransformerLinenPure/decoder/moe_layers.wrapped_fn/while/body/closed_call/checkpoint/moe_layers/shard_map/sort_activations/broadcast_in_dim" stack_frame_id=1708}
  %gather.227 = bf16[4096,512]{1,0:T(8,128)(2,1)} gather(%param_0.38, %transpose.891), offset_dims={1}, collapsed_slice_dims={0}, start_index_map={0}, index_vector_dim=1, slice_sizes={1,512}, metadata={op_name="jit(train_step)/transpose(jvp(TransformerLinenPure.apply))/TransformerLinenPure/decoder/moe_layers.wrapped_fn/while/body/closed_call/checkpoint/moe_layers/shard_map/sort_activations/gather" stack_frame_id=1708}
  %transpose.890 = bf16[4096,512]{1,0:T(8,128)(2,1)} transpose(%gather.227), dimensions={0,1}, metadata={op_name="jit(train_step)/transpose(jvp(TransformerLinenPure.apply))/TransformerLinenPure/decoder/moe_layers.wrapped_fn/while/body/closed_call/checkpoint/moe_layers/shard_map/sort_activations/gather" stack_frame_id=1708}
  ROOT %reshape.3460 = bf16[4096,512]{1,0:T(8,128)(2,1)S(1)} reshape(%transpose.890), metadata={op_name="jit(train_step)/transpose(jvp(TransformerLinenPure.apply))/TransformerLinenPure/decoder/moe_layers.wrapped_fn/while/body/closed_call/checkpoint/moe_layers/shard_map/sort_activations/gather" stack_frame_id=1708}
}

%fused_computation.13 (param_0.41: bf16[4096,512], param_1.132: s32[4096]) -> bf16[4096,512] {
  %param_0.41 = bf16[4096,512]{1,0:T(8,128)(2,1)S(1)} parameter(0)
  %param_1.132 = s32[4096]{0:T(1024)S(1)} parameter(1)
  %custom-call.37 = s32[4096]{0:T(1024)} custom-call(%param_1.132), custom_call_target="AssumeGatherIndicesInBound", operand_layout_constraints={s32[4096]{0:T(1024)}}, metadata={op_name="jit(train_step)/transpose(jvp(TransformerLinenPure.apply))/TransformerLinenPure/decoder/moe_layers.wrapped_fn/while/body/closed_call/checkpoint/rematted_computation/moe_layers/shard_map/sort_activations/gather" stack_frame_id=1731}
  %slice.1084 = s32[4096]{0:T(1024)} slice(%custom-call.37), slice={[0:4096]}, metadata={op_name="jit(train_step)/transpose(jvp(TransformerLinenPure.apply))/TransformerLinenPure/decoder/moe_layers.wrapped_fn/while/body/closed_call/checkpoint/rematted_computation/moe_layers/shard_map/sort_activations/gather" stack_frame_id=1731}
  %reshape.3469 = s32[4096]{0:T(1024)} reshape(%slice.1084), metadata={op_name="jit(train_step)/transpose(jvp(TransformerLinenPure.apply))/TransformerLinenPure/decoder/moe_layers.wrapped_fn/while/body/closed_call/checkpoint/moe_layers/shard_map/sort_activations/broadcast_in_dim" stack_frame_id=1708}
  %transpose.897 = s32[4096]{0:T(1024)} transpose(%reshape.3469), dimensions={0}, metadata={op_name="jit(train_step)/transpose(jvp(TransformerLinenPure.apply))/TransformerLinenPure/decoder/moe_layers.wrapped_fn/while/body/closed_call/checkpoint/moe_layers/shard_map/sort_activations/broadcast_in_dim" stack_frame_id=1708}
  %gather.229 = bf16[4096,512]{1,0:T(8,128)(2,1)} gather(%param_0.41, %transpose.897), offset_dims={1}, collapsed_slice_dims={0}, start_index_map={0}, index_vector_dim=1, slice_sizes={1,512}, metadata={op_name="jit(train_step)/transpose(jvp(TransformerLinenPure.apply))/TransformerLinenPure/decoder/moe_layers.wrapped_fn/while/body/closed_call/checkpoint/rematted_computation/moe_layers/shard_map/sort_activations/gather" stack_frame_id=1731}
  %transpose.896 = bf16[4096,512]{1,0:T(8,128)(2,1)} transpose(%gather.229), dimensions={0,1}, metadata={op_name="jit(train_step)/transpose(jvp(TransformerLinenPure.apply))/TransformerLinenPure/decoder/moe_layers.wrapped_fn/while/body/closed_call/checkpoint/rematted_computation/moe_layers/shard_map/sort_activations/gather" stack_frame_id=1731}
  ROOT %reshape.3468 = bf16[4096,512]{1,0:T(8,128)(2,1)S(1)} reshape(%transpose.896), metadata={op_name="jit(train_step)/transpose(jvp(TransformerLinenPure.apply))/TransformerLinenPure/decoder/moe_layers.wrapped_fn/while/body/closed_call/checkpoint/rematted_computation/moe_layers/shard_map/sort_activations/gather" stack_frame_id=1731}
}

%fused_computation.15 (param_0.47: s32[256], param_1.124: s32[1024]) -> s32[263] {
  %param_0.47 = s32[256]{0:T(256)S(1)} parameter(0)
  %param_1.124 = s32[1024]{0:T(1024)S(1)} parameter(1)
  %custom-call.29 = s32[1024]{0:T(1024)} custom-call(%param_1.124), custom_call_target="AssumeGatherIndicesInBound", operand_layout_constraints={s32[1024]{0:T(1024)}}, metadata={op_name="jit(train_step)/transpose(jvp(TransformerLinenPure.apply))/TransformerLinenPure/decoder/moe_layers.wrapped_fn/while/body/closed_call/checkpoint/moe_layers/shard_map/jit(gmm)/jit(_take)/gather" stack_frame_id=1954}
  %slice.1076 = s32[263]{0:T(512)} slice(%custom-call.29), slice={[0:263]}, metadata={op_name="jit(train_step)/transpose(jvp(TransformerLinenPure.apply))/TransformerLinenPure/decoder/moe_layers.wrapped_fn/while/body/closed_call/checkpoint/moe_layers/shard_map/jit(gmm)/jit(_take)/gather" stack_frame_id=1954}
  %reshape.3500 = s32[263]{0:T(512)} reshape(%slice.1076), metadata={op_name="jit(train_step)/transpose(jvp(TransformerLinenPure.apply))/TransformerLinenPure/decoder/moe_layers.wrapped_fn/while/body/closed_call/checkpoint/moe_layers/shard_map/jit(gmm)/jit(_take)/broadcast_in_dim" stack_frame_id=1954}
  %transpose.913 = s32[263]{0:T(512)} transpose(%reshape.3500), dimensions={0}, metadata={op_name="jit(train_step)/transpose(jvp(TransformerLinenPure.apply))/TransformerLinenPure/decoder/moe_layers.wrapped_fn/while/body/closed_call/checkpoint/moe_layers/shard_map/jit(gmm)/jit(_take)/broadcast_in_dim" stack_frame_id=1954}
  %gather.234 = s32[263]{0:T(512)} gather(%param_0.47, %transpose.913), offset_dims={}, collapsed_slice_dims={0}, start_index_map={0}, index_vector_dim=1, slice_sizes={1}, metadata={op_name="jit(train_step)/transpose(jvp(TransformerLinenPure.apply))/TransformerLinenPure/decoder/moe_layers.wrapped_fn/while/body/closed_call/checkpoint/moe_layers/shard_map/jit(gmm)/jit(_take)/gather" stack_frame_id=1954}
  %transpose.912 = s32[263]{0:T(512)} transpose(%gather.234), dimensions={0}, metadata={op_name="jit(train_step)/transpose(jvp(TransformerLinenPure.apply))/TransformerLinenPure/decoder/moe_layers.wrapped_fn/while/body/closed_call/checkpoint/moe_layers/shard_map/jit(gmm)/jit(_take)/gather" stack_frame_id=1954}
  ROOT %reshape.3499 = s32[263]{0:T(512)S(1)} reshape(%transpose.912), metadata={op_name="jit(train_step)/transpose(jvp(TransformerLinenPure.apply))/TransformerLinenPure/decoder/moe_layers.wrapped_fn/while/body/closed_call/checkpoint/moe_layers/shard_map/jit(gmm)/jit(_take)/gather" stack_frame_id=1954}
}

%fused_computation.16 (param_0.50: s32[256], param_1.134: s32[1024]) -> s32[263] {
  %param_0.50 = s32[256]{0:T(256)S(1)} parameter(0)
  %param_1.134 = s32[1024]{0:T(1024)S(1)} parameter(1)
  %custom-call.39 = s32[1024]{0:T(1024)} custom-call(%param_1.134), custom_call_target="AssumeGatherIndicesInBound", operand_layout_constraints={s32[1024]{0:T(1024)}}, metadata={op_name="jit(train_step)/transpose(jvp(TransformerLinenPure.apply))/TransformerLinenPure/decoder/moe_layers.wrapped_fn/while/body/closed_call/checkpoint/moe_layers/shard_map/jit(tgmm)/jit(_take)/gather" stack_frame_id=1990}
  %slice.1086 = s32[263]{0:T(512)} slice(%custom-call.39), slice={[0:263]}, metadata={op_name="jit(train_step)/transpose(jvp(TransformerLinenPure.apply))/TransformerLinenPure/decoder/moe_layers.wrapped_fn/while/body/closed_call/checkpoint/moe_layers/shard_map/jit(tgmm)/jit(_take)/gather" stack_frame_id=1990}
  %reshape.3523 = s32[263]{0:T(512)} reshape(%slice.1086), metadata={op_name="jit(train_step)/transpose(jvp(TransformerLinenPure.apply))/TransformerLinenPure/decoder/moe_layers.wrapped_fn/while/body/closed_call/checkpoint/moe_layers/shard_map/jit(tgmm)/jit(_take)/broadcast_in_dim" stack_frame_id=1990}
  %transpose.923 = s32[263]{0:T(512)} transpose(%reshape.3523), dimensions={0}, metadata={op_name="jit(train_step)/transpose(jvp(TransformerLinenPure.apply))/TransformerLinenPure/decoder/moe_layers.wrapped_fn/while/body/closed_call/checkpoint/moe_layers/shard_map/jit(tgmm)/jit(_take)/broadcast_in_dim" stack_frame_id=1990}
  %gather.237 = s32[263]{0:T(512)} gather(%param_0.50, %transpose.923), offset_dims={}, collapsed_slice_dims={0}, start_index_map={0}, index_vector_dim=1, slice_sizes={1}, metadata={op_name="jit(train_step)/transpose(jvp(TransformerLinenPure.apply))/TransformerLinenPure/decoder/moe_layers.wrapped_fn/while/body/closed_call/checkpoint/moe_layers/shard_map/jit(tgmm)/jit(_take)/gather" stack_frame_id=1990}
  %transpose.922 = s32[263]{0:T(512)} transpose(%gather.237), dimensions={0}, metadata={op_name="jit(train_step)/transpose(jvp(TransformerLinenPure.apply))/TransformerLinenPure/decoder/moe_layers.wrapped_fn/while/body/closed_call/checkpoint/moe_layers/shard_map/jit(tgmm)/jit(_take)/gather" stack_frame_id=1990}
  ROOT %reshape.3522 = s32[263]{0:T(512)S(1)} reshape(%transpose.922), metadata={op_name="jit(train_step)/transpose(jvp(TransformerLinenPure.apply))/TransformerLinenPure/decoder/moe_layers.wrapped_fn/while/body/closed_call/checkpoint/moe_layers/shard_map/jit(tgmm)/jit(_take)/gather" stack_frame_id=1990}
}

%region_173.198.clone (scatter-add.94: bf16[], scatter-add.96: bf16[]) -> bf16[] {
  %scatter-add.94 = bf16[]{:T(256)} parameter(0), metadata={op_name="jit(train_step)/transpose(jvp(TransformerLinenPure.apply))/TransformerLinenPure/decoder/decoder._apply_embedding/token_embedder/scatter-add"}
  %scatter-add.96 = bf16[]{:T(256)} parameter(1), metadata={op_name="jit(train_step)/transpose(jvp(TransformerLinenPure.apply))/TransformerLinenPure/decoder/decoder._apply_embedding/token_embedder/scatter-add"}
  ROOT %add.1875 = bf16[]{:T(256)} add(%scatter-add.94, %scatter-add.96), metadata={op_name="jit(train_step)/transpose(jvp(TransformerLinenPure.apply))/TransformerLinenPure/decoder/decoder._apply_embedding/token_embedder/add" stack_frame_id=1554}, backend_config={"flag_configs":[],"scoped_memory_configs":[],"used_scoped_memory_configs":[],"aliasing_operands":{"lists":[]}}
}

%fused_computation.21 (param_0.55: bf16[129280,512], param_1.65: s32[512], param_2.24: bf16[512,512]) -> bf16[129280,512] {
  %param_0.55 = bf16[129280,512]{1,0:T(8,128)(2,1)} parameter(0)
  %param_1.65 = s32[512]{0:T(512)S(1)} parameter(1)
  %reshape.3577 = s32[4,128]{1,0:T(4,128)} reshape(%param_1.65), metadata={op_name="jit(train_step)/jvp(TransformerLinenPure.apply)/TransformerLinenPure/decoder/decoder._apply_embedding/token_embedder/broadcast_in_dim" stack_frame_id=104}
  %transpose.956 = s32[4,128]{1,0:T(4,128)} transpose(%reshape.3577), dimensions={0,1}, metadata={op_name="jit(train_step)/jvp(TransformerLinenPure.apply)/TransformerLinenPure/decoder/decoder._apply_embedding/token_embedder/broadcast_in_dim" stack_frame_id=104}
  %param_2.24 = bf16[512,512]{1,0:T(8,128)(2,1)S(1)} parameter(2)
  %reshape.3578 = bf16[4,128,512]{2,1,0:T(8,128)(2,1)} reshape(%param_2.24), metadata={op_name="jit(train_step)/transpose(jvp(TransformerLinenPure.apply))/TransformerLinenPure/decoder/dense_layers.wrapped_fn/while" stack_frame_id=116}
  %transpose.957 = bf16[4,128,512]{2,1,0:T(8,128)(2,1)} transpose(%reshape.3578), dimensions={0,1,2}, metadata={op_name="jit(train_step)/transpose(jvp(TransformerLinenPure.apply))/TransformerLinenPure/decoder/dense_layers.wrapped_fn/while" stack_frame_id=116}
  ROOT %scatter.93 = bf16[129280,512]{1,0:T(8,128)(2,1)} scatter(%param_0.55, %transpose.956, %transpose.957), update_window_dims={2}, inserted_window_dims={0}, scatter_dims_to_operand_dims={0}, index_vector_dim=2, to_apply=%region_173.198.clone, metadata={op_name="jit(train_step)/transpose(jvp(TransformerLinenPure.apply))/TransformerLinenPure/decoder/decoder._apply_embedding/token_embedder/scatter-add" stack_frame_id=104}
}

%region_12.18 (top_k.0: bf16[], top_k.6: bf16[], top_k.7: s32[], top_k.8: s32[]) -> pred[] {
  %constant.1369 = s32[]{:T(128)} constant(0)
  %constant.1370 = s32[]{:T(128)} constant(2147483647)
  %top_k.0 = bf16[]{:T(256)} parameter(0), metadata={op_name="top_k"}
  %top_k.6 = bf16[]{:T(256)} parameter(1), metadata={op_name="top_k"}
  %top_k.7 = s32[]{:T(128)} parameter(2), metadata={op_name="top_k"}
  %top_k.8 = s32[]{:T(128)} parameter(3), metadata={op_name="top_k"}
  %convert.385 = f32[]{:T(128)S(6)} convert(%top_k.0), metadata={op_name="convert.16"}, backend_config={"flag_configs":[],"scoped_memory_configs":[],"used_scoped_memory_configs":[],"aliasing_operands":{"lists":[]}}
  %bitcast-convert.35 = s32[]{:T(128)S(6)} bitcast-convert(%convert.385), metadata={op_name="bitcast-convert.6"}, backend_config={"flag_configs":[],"scoped_memory_configs":[],"used_scoped_memory_configs":[],"aliasing_operands":{"lists":[]}}
  %compare.128 = pred[]{:T(512)S(6)} compare(%bitcast-convert.35, %constant.1369), direction=LT, metadata={op_name="compare.35"}, backend_config={"flag_configs":[],"scoped_memory_configs":[],"used_scoped_memory_configs":[],"aliasing_operands":{"lists":[]}}
  %xor.36 = s32[]{:T(128)S(6)} xor(%constant.1370, %bitcast-convert.35), metadata={op_name="xor.6"}, backend_config={"flag_configs":[],"scoped_memory_configs":[],"used_scoped_memory_configs":[],"aliasing_operands":{"lists":[]}}
  %select.118 = s32[]{:T(128)S(6)} select(%compare.128, %xor.36, %bitcast-convert.35), metadata={op_name="select.14"}, backend_config={"flag_configs":[],"scoped_memory_configs":[],"used_scoped_memory_configs":[],"aliasing_operands":{"lists":[{"indices":["1","3"]}]}}
  %convert.386 = f32[]{:T(128)S(6)} convert(%top_k.6), metadata={op_name="convert.17"}, backend_config={"flag_configs":[],"scoped_memory_configs":[],"used_scoped_memory_configs":[],"aliasing_operands":{"lists":[]}}
  %bitcast-convert.36 = s32[]{:T(128)S(6)} bitcast-convert(%convert.386), metadata={op_name="bitcast-convert.7"}, backend_config={"flag_configs":[],"scoped_memory_configs":[],"used_scoped_memory_configs":[],"aliasing_operands":{"lists":[]}}
  %compare.129 = pred[]{:T(512)S(6)} compare(%bitcast-convert.36, %constant.1369), direction=LT, metadata={op_name="compare.36"}, backend_config={"flag_configs":[],"scoped_memory_configs":[],"used_scoped_memory_configs":[],"aliasing_operands":{"lists":[]}}
  %xor.37 = s32[]{:T(128)S(6)} xor(%constant.1370, %bitcast-convert.36), metadata={op_name="xor.7"}, backend_config={"flag_configs":[],"scoped_memory_configs":[],"used_scoped_memory_configs":[],"aliasing_operands":{"lists":[]}}
  %select.119 = s32[]{:T(128)S(6)} select(%compare.129, %xor.37, %bitcast-convert.36), metadata={op_name="select.15"}, backend_config={"flag_configs":[],"scoped_memory_configs":[],"used_scoped_memory_configs":[],"aliasing_operands":{"lists":[{"indices":["1","3"]}]}}
  %compare.130 = pred[]{:T(512)S(6)} compare(%select.118, %select.119), direction=GT, metadata={op_name="compare.1"}, backend_config={"flag_configs":[],"scoped_memory_configs":[],"used_scoped_memory_configs":[],"aliasing_operands":{"lists":[]}}
  %compare.131 = pred[]{:T(512)S(6)} compare(%select.119, %select.118), direction=GT, metadata={op_name="compare.108"}, backend_config={"flag_configs":[],"scoped_memory_configs":[],"used_scoped_memory_configs":[],"aliasing_operands":{"lists":[]}}
  %compare.132 = pred[]{:T(512)S(6)} compare(%compare.130, %compare.131), direction=EQ, metadata={op_name="compare.109"}, backend_config={"flag_configs":[],"scoped_memory_configs":[],"used_scoped_memory_configs":[],"aliasing_operands":{"lists":[]}}
  %compare.133 = pred[]{:T(512)S(6)} compare(%top_k.7, %top_k.8), direction=LT, metadata={op_name="compare.110"}, backend_config={"flag_configs":[],"scoped_memory_configs":[],"used_scoped_memory_configs":[],"aliasing_operands":{"lists":[]}}
  ROOT %select.120 = pred[]{:T(512)} select(%compare.132, %compare.133, %compare.130), metadata={op_name="select.108"}, backend_config={"flag_configs":[],"scoped_memory_configs":[],"used_scoped_memory_configs":[],"aliasing_operands":{"lists":[]}}
}

%region_15.21.clone.1 (reduce-window.252: s32[], reduce-window.253: s32[]) -> s32[] {
  %reduce-window.252 = s32[]{:T(128)} parameter(0), metadata={op_name="reduce-window.20"}
  %reduce-window.253 = s32[]{:T(128)} parameter(1), metadata={op_name="reduce-window.20"}
  ROOT %reduce_window_sum.210 = s32[]{:T(128)} add(%reduce-window.252, %reduce-window.253), metadata={op_name="reduce_window_sum"}, backend_config={"flag_configs":[],"scoped_memory_configs":[],"used_scoped_memory_configs":[],"aliasing_operands":{"lists":[]}}
}

%region_16.22.clone.1 (reduce-window.254: s32[], reduce-window.255: s32[]) -> s32[] {
  %reduce-window.254 = s32[]{:T(128)} parameter(0), metadata={op_name="reduce-window.56"}
  %reduce-window.255 = s32[]{:T(128)} parameter(1), metadata={op_name="reduce-window.56"}
  ROOT %reduce_window_sum.211 = s32[]{:T(128)} add(%reduce-window.254, %reduce-window.255), metadata={op_name="reduce_window_sum"}, backend_config={"flag_configs":[],"scoped_memory_configs":[],"used_scoped_memory_configs":[],"aliasing_operands":{"lists":[]}}
}

%region_18.24.clone.1 (reduce-window.256: s32[], reduce-window.257: s32[]) -> s32[] {
  %reduce-window.256 = s32[]{:T(128)} parameter(0), metadata={op_name="reduce-window.22"}
  %reduce-window.257 = s32[]{:T(128)} parameter(1), metadata={op_name="reduce-window.22"}
  ROOT %reduce_window_sum.212 = s32[]{:T(128)} add(%reduce-window.256, %reduce-window.257), metadata={op_name="reduce_window_sum"}, backend_config={"flag_configs":[],"scoped_memory_configs":[],"used_scoped_memory_configs":[],"aliasing_operands":{"lists":[]}}
}

%region_19.25.clone.1 (reduce-window.258: s32[], reduce-window.259: s32[]) -> s32[] {
  %reduce-window.258 = s32[]{:T(128)} parameter(0), metadata={op_name="reduce-window.57"}
  %reduce-window.259 = s32[]{:T(128)} parameter(1), metadata={op_name="reduce-window.57"}
  ROOT %reduce_window_sum.213 = s32[]{:T(128)} add(%reduce-window.258, %reduce-window.259), metadata={op_name="reduce_window_sum"}, backend_config={"flag_configs":[],"scoped_memory_configs":[],"used_scoped_memory_configs":[],"aliasing_operands":{"lists":[]}}
}

%region_21.27.clone.1 (reduce-window.260: s32[], reduce-window.261: s32[]) -> s32[] {
  %reduce-window.260 = s32[]{:T(128)} parameter(0), metadata={op_name="reduce-window.24"}
  %reduce-window.261 = s32[]{:T(128)} parameter(1), metadata={op_name="reduce-window.24"}
  ROOT %reduce_window_sum.214 = s32[]{:T(128)} add(%reduce-window.260, %reduce-window.261), metadata={op_name="reduce_window_sum"}, backend_config={"flag_configs":[],"scoped_memory_configs":[],"used_scoped_memory_configs":[],"aliasing_operands":{"lists":[]}}
}

%region_22.28.clone.1 (reduce-window.262: s32[], reduce-window.263: s32[]) -> s32[] {
  %reduce-window.262 = s32[]{:T(128)} parameter(0), metadata={op_name="reduce-window.58"}
  %reduce-window.263 = s32[]{:T(128)} parameter(1), metadata={op_name="reduce-window.58"}
  ROOT %reduce_window_sum.215 = s32[]{:T(128)} add(%reduce-window.262, %reduce-window.263), metadata={op_name="reduce_window_sum"}, backend_config={"flag_configs":[],"scoped_memory_configs":[],"used_scoped_memory_configs":[],"aliasing_operands":{"lists":[]}}
}

%fused_computation.4.clone (param_0.68: s32[256], param_1.114: s32[1024]) -> s32[263] {
  %param_0.68 = s32[256]{0:T(256)S(1)} parameter(0)
  %param_1.114 = s32[1024]{0:T(1024)S(1)} parameter(1)
  %custom-call.19 = s32[1024]{0:T(1024)} custom-call(%param_1.114), custom_call_target="AssumeGatherIndicesInBound", operand_layout_constraints={s32[1024]{0:T(1024)}}, metadata={op_name="jit(train_step)/jvp(TransformerLinenPure.apply)/TransformerLinenPure/decoder/moe_layers.wrapped_fn/while/body/closed_call/moe_layers/shard_map/jit(gmm)/jit(_take)/gather" stack_frame_id=1870}
  %slice.1066 = s32[263]{0:T(512)} slice(%custom-call.19), slice={[0:263]}, metadata={op_name="jit(train_step)/jvp(TransformerLinenPure.apply)/TransformerLinenPure/decoder/moe_layers.wrapped_fn/while/body/closed_call/moe_layers/shard_map/jit(gmm)/jit(_take)/gather" stack_frame_id=1870}
  %reshape.3721 = s32[263]{0:T(512)} reshape(%slice.1066), metadata={op_name="jit(train_step)/jvp(TransformerLinenPure.apply)/TransformerLinenPure/decoder/moe_layers.wrapped_fn/while/body/closed_call/moe_layers/shard_map/jit(gmm)/jit(_take)/broadcast_in_dim" stack_frame_id=1870}
  %transpose.1039 = s32[263]{0:T(512)} transpose(%reshape.3721), dimensions={0}, metadata={op_name="jit(train_step)/jvp(TransformerLinenPure.apply)/TransformerLinenPure/decoder/moe_layers.wrapped_fn/while/body/closed_call/moe_layers/shard_map/jit(gmm)/jit(_take)/broadcast_in_dim" stack_frame_id=1870}
  %gather.239 = s32[263]{0:T(512)} gather(%param_0.68, %transpose.1039), offset_dims={}, collapsed_slice_dims={0}, start_index_map={0}, index_vector_dim=1, slice_sizes={1}, metadata={op_name="jit(train_step)/jvp(TransformerLinenPure.apply)/TransformerLinenPure/decoder/moe_layers.wrapped_fn/while/body/closed_call/moe_layers/shard_map/jit(gmm)/jit(_take)/gather" stack_frame_id=1870}
  %transpose.1038 = s32[263]{0:T(512)} transpose(%gather.239), dimensions={0}, metadata={op_name="jit(train_step)/jvp(TransformerLinenPure.apply)/TransformerLinenPure/decoder/moe_layers.wrapped_fn/while/body/closed_call/moe_layers/shard_map/jit(gmm)/jit(_take)/gather" stack_frame_id=1870}
  ROOT %reshape.3720 = s32[263]{0:T(512)S(1)} reshape(%transpose.1038), metadata={op_name="jit(train_step)/jvp(TransformerLinenPure.apply)/TransformerLinenPure/decoder/moe_layers.wrapped_fn/while/body/closed_call/moe_layers/shard_map/jit(gmm)/jit(_take)/gather" stack_frame_id=1870}
}

%region_27.34.clone.1 (reduce-window.264: s32[], reduce-window.265: s32[]) -> s32[] {
  %reduce-window.264 = s32[]{:T(128)} parameter(0), metadata={op_name="reduce-window.26"}
  %reduce-window.265 = s32[]{:T(128)} parameter(1), metadata={op_name="reduce-window.26"}
  ROOT %reduce_window_sum.216 = s32[]{:T(128)} add(%reduce-window.264, %reduce-window.265), metadata={op_name="reduce_window_sum"}, backend_config={"flag_configs":[],"scoped_memory_configs":[],"used_scoped_memory_configs":[],"aliasing_operands":{"lists":[]}}
}

%region_29.36.clone.1 (reduce-window.266: s32[], reduce-window.267: s32[]) -> s32[] {
  %reduce-window.266 = s32[]{:T(128)} parameter(0), metadata={op_name="reduce-window.27"}
  %reduce-window.267 = s32[]{:T(128)} parameter(1), metadata={op_name="reduce-window.27"}
  ROOT %reduce_window_sum.217 = s32[]{:T(128)} add(%reduce-window.266, %reduce-window.267), metadata={op_name="reduce_window_sum"}, backend_config={"flag_configs":[],"scoped_memory_configs":[],"used_scoped_memory_configs":[],"aliasing_operands":{"lists":[]}}
}

%region_30.37.clone.1 (reduce-window.268: s32[], reduce-window.269: s32[]) -> s32[] {
  %reduce-window.268 = s32[]{:T(128)} parameter(0), metadata={op_name="reduce-window.59"}
  %reduce-window.269 = s32[]{:T(128)} parameter(1), metadata={op_name="reduce-window.59"}
  ROOT %reduce_window_sum.218 = s32[]{:T(128)} add(%reduce-window.268, %reduce-window.269), metadata={op_name="reduce_window_sum"}, backend_config={"flag_configs":[],"scoped_memory_configs":[],"used_scoped_memory_configs":[],"aliasing_operands":{"lists":[]}}
}

%region_13.19 (sort.44: s32[], sort.45: s32[], sort.46: s32[], sort.47: s32[], sort.48: s32[], sort.49: s32[]) -> pred[] {
  %sort.46 = s32[]{:T(128)} parameter(2), metadata={op_name="jit(argsort)/sort"}
  %sort.47 = s32[]{:T(128)} parameter(3), metadata={op_name="jit(argsort)/sort"}
  %sort.44 = s32[]{:T(128)} parameter(0), metadata={op_name="jit(argsort)/sort"}
  %sort.45 = s32[]{:T(128)} parameter(1), metadata={op_name="jit(argsort)/sort"}
  %sort.48 = s32[]{:T(128)} parameter(4), metadata={op_name="jit(argsort)/sort"}
  %sort.49 = s32[]{:T(128)} parameter(5), metadata={op_name="jit(argsort)/sort"}
  %lt_to.27 = pred[]{:T(512)S(6)} compare(%sort.44, %sort.45), direction=LT, metadata={op_name="lt_to"}, backend_config={"flag_configs":[],"scoped_memory_configs":[],"used_scoped_memory_configs":[],"aliasing_operands":{"lists":[]}}
  %lt_to.28 = pred[]{:T(512)S(6)} compare(%sort.45, %sort.44), direction=LT, metadata={op_name="lt_to"}, backend_config={"flag_configs":[],"scoped_memory_configs":[],"used_scoped_memory_configs":[],"aliasing_operands":{"lists":[]}}
  %compare.134 = pred[]{:T(512)S(6)} compare(%lt_to.27, %lt_to.28), direction=EQ, metadata={op_name="compare.111"}, backend_config={"flag_configs":[],"scoped_memory_configs":[],"used_scoped_memory_configs":[],"aliasing_operands":{"lists":[]}}
  %compare.135 = pred[]{:T(512)S(6)} compare(%sort.48, %sort.49), direction=LT, metadata={op_name="compare.112"}, backend_config={"flag_configs":[],"scoped_memory_configs":[],"used_scoped_memory_configs":[],"aliasing_operands":{"lists":[]}}
  ROOT %select.121 = pred[]{:T(512)} select(%compare.134, %compare.135, %lt_to.27), metadata={op_name="select.109"}, backend_config={"flag_configs":[],"scoped_memory_configs":[],"used_scoped_memory_configs":[],"aliasing_operands":{"lists":[]}}
}

%fused_computation.2.clone (param_0.71: bf16[4096,512], param_1.116: s32[4096]) -> bf16[4096,512] {
  %param_0.71 = bf16[4096,512]{1,0:T(8,128)(2,1)S(1)} parameter(0)
  %param_1.116 = s32[4096]{0:T(1024)S(1)} parameter(1)
  %custom-call.21 = s32[4096]{0:T(1024)} custom-call(%param_1.116), custom_call_target="AssumeGatherIndicesInBound", operand_layout_constraints={s32[4096]{0:T(1024)}}, metadata={op_name="jit(train_step)/jvp(TransformerLinenPure.apply)/TransformerLinenPure/decoder/moe_layers.wrapped_fn/while/body/closed_call/moe_layers/shard_map/sort_activations/gather" stack_frame_id=1657}
  %slice.1068 = s32[4096]{0:T(1024)} slice(%custom-call.21), slice={[0:4096]}, metadata={op_name="jit(train_step)/jvp(TransformerLinenPure.apply)/TransformerLinenPure/decoder/moe_layers.wrapped_fn/while/body/closed_call/moe_layers/shard_map/sort_activations/gather" stack_frame_id=1657}
  %reshape.3744 = s32[4096]{0:T(1024)} reshape(%slice.1068), metadata={op_name="jit(train_step)/jvp(TransformerLinenPure.apply)/TransformerLinenPure/decoder/moe_layers.wrapped_fn/while/body/closed_call/moe_layers/shard_map/sort_activations/broadcast_in_dim" stack_frame_id=1657}
  %transpose.1045 = s32[4096]{0:T(1024)} transpose(%reshape.3744), dimensions={0}, metadata={op_name="jit(train_step)/jvp(TransformerLinenPure.apply)/TransformerLinenPure/decoder/moe_layers.wrapped_fn/while/body/closed_call/moe_layers/shard_map/sort_activations/broadcast_in_dim" stack_frame_id=1657}
  %gather.240 = bf16[4096,512]{1,0:T(8,128)(2,1)} gather(%param_0.71, %transpose.1045), offset_dims={1}, collapsed_slice_dims={0}, start_index_map={0}, index_vector_dim=1, slice_sizes={1,512}, metadata={op_name="jit(train_step)/jvp(TransformerLinenPure.apply)/TransformerLinenPure/decoder/moe_layers.wrapped_fn/while/body/closed_call/moe_layers/shard_map/sort_activations/gather" stack_frame_id=1657}
  %transpose.1044 = bf16[4096,512]{1,0:T(8,128)(2,1)} transpose(%gather.240), dimensions={0,1}, metadata={op_name="jit(train_step)/jvp(TransformerLinenPure.apply)/TransformerLinenPure/decoder/moe_layers.wrapped_fn/while/body/closed_call/moe_layers/shard_map/sort_activations/gather" stack_frame_id=1657}
  ROOT %reshape.3743 = bf16[4096,512]{1,0:T(8,128)(2,1)S(1)} reshape(%transpose.1044), metadata={op_name="jit(train_step)/jvp(TransformerLinenPure.apply)/TransformerLinenPure/decoder/moe_layers.wrapped_fn/while/body/closed_call/moe_layers/shard_map/sort_activations/gather" stack_frame_id=1657}
}

%region_31.39 (sort.50: s32[], sort.51: s32[], sort.52: s32[], sort.53: s32[], sort.54: s32[], sort.55: s32[]) -> pred[] {
  %sort.52 = s32[]{:T(128)} parameter(2), metadata={op_name="jit(argsort)/sort"}
  %sort.53 = s32[]{:T(128)} parameter(3), metadata={op_name="jit(argsort)/sort"}
  %sort.50 = s32[]{:T(128)} parameter(0), metadata={op_name="jit(argsort)/sort"}
  %sort.51 = s32[]{:T(128)} parameter(1), metadata={op_name="jit(argsort)/sort"}
  %sort.54 = s32[]{:T(128)} parameter(4), metadata={op_name="jit(argsort)/sort"}
  %sort.55 = s32[]{:T(128)} parameter(5), metadata={op_name="jit(argsort)/sort"}
  %lt_to.30 = pred[]{:T(512)S(6)} compare(%sort.50, %sort.51), direction=LT, metadata={op_name="lt_to"}, backend_config={"flag_configs":[],"scoped_memory_configs":[],"used_scoped_memory_configs":[],"aliasing_operands":{"lists":[]}}
  %lt_to.31 = pred[]{:T(512)S(6)} compare(%sort.51, %sort.50), direction=LT, metadata={op_name="lt_to"}, backend_config={"flag_configs":[],"scoped_memory_configs":[],"used_scoped_memory_configs":[],"aliasing_operands":{"lists":[]}}
  %compare.142 = pred[]{:T(512)S(6)} compare(%lt_to.30, %lt_to.31), direction=EQ, metadata={op_name="compare.113"}, backend_config={"flag_configs":[],"scoped_memory_configs":[],"used_scoped_memory_configs":[],"aliasing_operands":{"lists":[]}}
  %compare.143 = pred[]{:T(512)S(6)} compare(%sort.54, %sort.55), direction=LT, metadata={op_name="compare.114"}, backend_config={"flag_configs":[],"scoped_memory_configs":[],"used_scoped_memory_configs":[],"aliasing_operands":{"lists":[]}}
  ROOT %select.126 = pred[]{:T(512)} select(%compare.142, %compare.143, %lt_to.30), metadata={op_name="select.110"}, backend_config={"flag_configs":[],"scoped_memory_configs":[],"used_scoped_memory_configs":[],"aliasing_operands":{"lists":[]}}
}

%fused_computation.3.clone (param_0.72: bf16[4096,512], param_1.118: s32[4096]) -> bf16[4096,512] {
  %param_0.72 = bf16[4096,512]{1,0:T(8,128)(2,1)S(1)} parameter(0)
  %param_1.118 = s32[4096]{0:T(1024)S(1)} parameter(1)
  %custom-call.23 = s32[4096]{0:T(1024)} custom-call(%param_1.118), custom_call_target="AssumeGatherIndicesInBound", operand_layout_constraints={s32[4096]{0:T(1024)}}, metadata={op_name="jit(train_step)/jvp(TransformerLinenPure.apply)/TransformerLinenPure/decoder/moe_layers.wrapped_fn/while/body/closed_call/moe_layers/shard_map/sort_activations/gather" stack_frame_id=1685}
  %slice.1070 = s32[4096]{0:T(1024)} slice(%custom-call.23), slice={[0:4096]}, metadata={op_name="jit(train_step)/jvp(TransformerLinenPure.apply)/TransformerLinenPure/decoder/moe_layers.wrapped_fn/while/body/closed_call/moe_layers/shard_map/sort_activations/gather" stack_frame_id=1685}
  %reshape.3746 = s32[4096]{0:T(1024)} reshape(%slice.1070), metadata={op_name="jit(train_step)/jvp(TransformerLinenPure.apply)/TransformerLinenPure/decoder/moe_layers.wrapped_fn/while/body/closed_call/moe_layers/shard_map/sort_activations/broadcast_in_dim" stack_frame_id=1685}
  %transpose.1047 = s32[4096]{0:T(1024)} transpose(%reshape.3746), dimensions={0}, metadata={op_name="jit(train_step)/jvp(TransformerLinenPure.apply)/TransformerLinenPure/decoder/moe_layers.wrapped_fn/while/body/closed_call/moe_layers/shard_map/sort_activations/broadcast_in_dim" stack_frame_id=1685}
  %gather.241 = bf16[4096,512]{1,0:T(8,128)(2,1)} gather(%param_0.72, %transpose.1047), offset_dims={1}, collapsed_slice_dims={0}, start_index_map={0}, index_vector_dim=1, slice_sizes={1,512}, metadata={op_name="jit(train_step)/jvp(TransformerLinenPure.apply)/TransformerLinenPure/decoder/moe_layers.wrapped_fn/while/body/closed_call/moe_layers/shard_map/sort_activations/gather" stack_frame_id=1685}
  %transpose.1046 = bf16[4096,512]{1,0:T(8,128)(2,1)} transpose(%gather.241), dimensions={0,1}, metadata={op_name="jit(train_step)/jvp(TransformerLinenPure.apply)/TransformerLinenPure/decoder/moe_layers.wrapped_fn/while/body/closed_call/moe_layers/shard_map/sort_activations/gather" stack_frame_id=1685}
  ROOT %reshape.3745 = bf16[4096,512]{1,0:T(8,128)(2,1)S(1)} reshape(%transpose.1046), metadata={op_name="jit(train_step)/jvp(TransformerLinenPure.apply)/TransformerLinenPure/decoder/moe_layers.wrapped_fn/while/body/closed_call/moe_layers/shard_map/sort_activations/gather" stack_frame_id=1685}
}

%compare (name: s32[], name.1: s32[], name.2: bf16[], name.3: bf16[]) -> pred[] {
  %name.2 = bf16[] parameter(2)
  %name.3 = bf16[] parameter(3)
  %name = s32[] parameter(0)
  %name.1 = s32[] parameter(1)
  ROOT %compare.393 = pred[] compare(%name, %name.1), direction=LT, backend_config={"flag_configs":[],"scoped_memory_configs":[],"used_scoped_memory_configs":[],"aliasing_operands":{"lists":[]}}
}

%region_154.179 (reduce_sum.431: f32[], reduce_sum.254: f32[]) -> f32[] {
  %reduce_sum.431 = f32[]{:T(128)} parameter(0), metadata={op_name="jit(train_step)/reduce_sum"}
  %reduce_sum.254 = f32[]{:T(128)} parameter(1), metadata={op_name="jit(train_step)/reduce_sum"}
  ROOT %reduce_sum.258 = f32[]{:T(128)} add(%reduce_sum.431, %reduce_sum.254), metadata={op_name="jit(train_step)/reduce_sum" stack_frame_id=862}, backend_config={"flag_configs":[],"scoped_memory_configs":[],"used_scoped_memory_configs":[],"aliasing_operands":{"lists":[]}}
}

%fused_computation.467 (param_0.4183: f32[3,1536,128,192]) -> f32[] {
  %param_0.4183 = f32[3,1536,128,192]{2,3,0,1:T(8,128)} parameter(0)
  %bitcast.672 = f32[1536,3,128,192]{2,3,1,0:T(8,128)} bitcast(%param_0.4183), metadata={op_name="jit(train_step)/transpose(jvp(TransformerLinenPure.apply))/TransformerLinenPure/decoder/dense_layers.wrapped_fn/transpose" stack_frame_id=120}
  %square.564 = f32[1536,3,128,192]{2,3,1,0:T(8,128)} multiply(%bitcast.672, %bitcast.672), metadata={op_name="jit(train_step)/square" stack_frame_id=860}
  %constant.5479 = f32[]{:T(128)} constant(0)
  ROOT %reduce.669 = f32[]{:T(128)} reduce(%square.564, %constant.5479), dimensions={0,1,2,3}, to_apply=%region_154.179, metadata={op_name="jit(train_step)/reduce_sum" stack_frame_id=862}
}

%fused_computation.468 (param_0.1382: f32[1536,3,128,192]) -> bf16[3,1536,128,192] {
  %param_0.1382 = f32[1536,3,128,192]{2,3,1,0:T(8,128)} parameter(0)
  %copy.1550 = bf16[1536,3,128,192]{2,0,3,1:T(8,128)(2,1)} copy(%param_0.1382), sharding={replicated}, metadata={op_name="state.params[\'params\'][\'decoder\'][\'dense_layers\'][\'self_attention\'][\'wq_b\'][\'kernel\']"}
  ROOT %bitcast.673 = bf16[3,1536,128,192]{2,1,3,0:T(8,128)(2,1)} bitcast(%copy.1550), metadata={op_name="jit(train_step)/jvp(TransformerLinenPure.apply)/TransformerLinenPure/decoder/dense_layers.wrapped_fn/transpose" stack_frame_id=120}
}

%region_221.246 (reduce_sum.893: f32[], reduce_sum.603: f32[]) -> f32[] {
  %reduce_sum.893 = f32[]{:T(128)} parameter(0), metadata={op_name="jit(train_step)/reduce_sum"}
  %reduce_sum.603 = f32[]{:T(128)} parameter(1), metadata={op_name="jit(train_step)/reduce_sum"}
  ROOT %reduce_sum.604 = f32[]{:T(128)} add(%reduce_sum.893, %reduce_sum.603), metadata={op_name="jit(train_step)/reduce_sum" stack_frame_id=1629}, backend_config={"flag_configs":[],"scoped_memory_configs":[],"used_scoped_memory_configs":[],"aliasing_operands":{"lists":[]}}
}

%region_187.212 (reduce_sum.655: f32[], reduce_sum.449: f32[]) -> f32[] {
  %reduce_sum.655 = f32[]{:T(128)} parameter(0), metadata={op_name="jit(train_step)/reduce_sum"}
  %reduce_sum.449 = f32[]{:T(128)} parameter(1), metadata={op_name="jit(train_step)/reduce_sum"}
  ROOT %reduce_sum.450 = f32[]{:T(128)} add(%reduce_sum.655, %reduce_sum.449), metadata={op_name="jit(train_step)/reduce_sum" stack_frame_id=1605}, backend_config={"flag_configs":[],"scoped_memory_configs":[],"used_scoped_memory_configs":[],"aliasing_operands":{"lists":[]}}
}

%fused_computation.469 (param_0.4153: f32[1536,3,128,192], param_1.5025: f32[], param_2.4298: f32[], param_3.2951: f32[], param_4.2203: f32[1536,3,128,192], param_5.2006: f32[], param_6.1443: f32[3,1536,128,192], param_7.1124: pred[], param_8.889: f32[1536,3,128,192]) -> (f32[], f32[1536,3,128,192], f32[1536,3,128,192], f32[1536,3,128,192], f32[]) {
  %param_0.4153 = f32[1536,3,128,192]{2,3,1,0:T(8,128)} parameter(0)
  %param_3.2951 = f32[]{:T(128)S(6)} parameter(3)
  %mul.4804.clone.1 = f32[1536,3,128,192]{2,3,1,0:T(8,128)} broadcast(%param_3.2951), dimensions={}, metadata={op_name="jit(train_step)/mul" stack_frame_id=62}
  %param_7.1124 = pred[]{:T(512)S(6)} parameter(7)
  %select_n.2399.clone.1 = pred[1536,3,128,192]{2,3,1,0:T(8,128)(4,1)} broadcast(%param_7.1124), dimensions={}, metadata={op_name="jit(train_step)/select_n" stack_frame_id=1563}
  %param_6.1443 = f32[3,1536,128,192]{2,3,0,1:T(8,128)} parameter(6)
  %bitcast.1374.clone.1 = f32[1536,3,128,192]{2,3,1,0:T(8,128)} bitcast(%param_6.1443), metadata={op_name="jit(train_step)/transpose(jvp(TransformerLinenPure.apply))/TransformerLinenPure/decoder/dense_layers.wrapped_fn/transpose" stack_frame_id=120}
  %param_5.2006 = f32[]{:T(128)} parameter(5)
  %div.2674.clone.1 = f32[1536,3,128,192]{2,3,1,0:T(8,128)} broadcast(%param_5.2006), dimensions={}, metadata={op_name="jit(train_step)/div" stack_frame_id=1564}
  %div.2673.clone.1 = f32[1536,3,128,192]{2,3,1,0:T(8,128)} divide(%bitcast.1374.clone.1, %div.2674.clone.1), metadata={op_name="jit(train_step)/div" stack_frame_id=1564}
  %select_n.2398.clone.1 = f32[1536,3,128,192]{2,3,1,0:T(8,128)} select(%select_n.2399.clone.1, %bitcast.1374.clone.1, %div.2673.clone.1), metadata={op_name="jit(train_step)/select_n" stack_frame_id=1563}
  %constant.5238.clone.1 = f32[]{:T(128)} constant(0.1)
  %broadcast.4437.clone.1 = f32[1536,3,128,192]{2,3,1,0:T(8,128)} broadcast(%constant.5238.clone.1), dimensions={}, metadata={op_name="broadcast.334"}
  %mul.4810.clone.1 = f32[1536,3,128,192]{2,3,1,0:T(8,128)} multiply(%select_n.2398.clone.1, %broadcast.4437.clone.1), metadata={op_name="jit(train_step)/mul" stack_frame_id=1567}
  %param_8.889 = f32[1536,3,128,192]{2,3,1,0:T(8,128)} parameter(8)
  %constant.5242.clone.1 = f32[]{:T(128)} constant(0.9)
  %mul.4811.clone.1 = f32[1536,3,128,192]{2,3,1,0:T(8,128)} broadcast(%constant.5242.clone.1), dimensions={}, metadata={op_name="jit(train_step)/mul" stack_frame_id=1568}
  %mul.4809.clone.1 = f32[1536,3,128,192]{2,3,1,0:T(8,128)} multiply(%param_8.889, %mul.4811.clone.1), metadata={op_name="jit(train_step)/mul" stack_frame_id=1568}
  %add.3632.clone.1 = f32[1536,3,128,192]{2,3,1,0:T(8,128)} add(%mul.4810.clone.1, %mul.4809.clone.1), metadata={op_name="jit(train_step)/add" stack_frame_id=1567}
  %param_2.4298 = f32[]{:T(128)S(6)} parameter(2)
  %div.2670.clone.1 = f32[1536,3,128,192]{2,3,1,0:T(8,128)} broadcast(%param_2.4298), dimensions={}, metadata={op_name="jit(train_step)/div" stack_frame_id=1578}
  %integer_pow.399.clone.1 = f32[1536,3,128,192]{2,3,1,0:T(8,128)} multiply(%select_n.2398.clone.1, %select_n.2398.clone.1), metadata={op_name="jit(train_step)/integer_pow" stack_frame_id=1582}
  %constant.5241.clone.1 = f32[]{:T(128)} constant(0.05)
  %mul.4808.clone.1 = f32[1536,3,128,192]{2,3,1,0:T(8,128)} broadcast(%constant.5241.clone.1), dimensions={}, metadata={op_name="jit(train_step)/mul" stack_frame_id=1585}
  %mul.4806.clone.1 = f32[1536,3,128,192]{2,3,1,0:T(8,128)} multiply(%integer_pow.399.clone.1, %mul.4808.clone.1), metadata={op_name="jit(train_step)/mul" stack_frame_id=1585}
  %param_4.2203 = f32[1536,3,128,192]{2,3,1,0:T(8,128)} parameter(4)
  %constant.5240.clone.1 = f32[]{:T(128)} constant(0.95)
  %mul.4807.clone.1 = f32[1536,3,128,192]{2,3,1,0:T(8,128)} broadcast(%constant.5240.clone.1), dimensions={}, metadata={op_name="jit(train_step)/mul" stack_frame_id=1586}
  %mul.4805.clone.1 = f32[1536,3,128,192]{2,3,1,0:T(8,128)} multiply(%param_4.2203, %mul.4807.clone.1), metadata={op_name="jit(train_step)/mul" stack_frame_id=1586}
  %add.3631.clone.1 = f32[1536,3,128,192]{2,3,1,0:T(8,128)} add(%mul.4806.clone.1, %mul.4805.clone.1), metadata={op_name="jit(train_step)/add" stack_frame_id=1585}
  %param_1.5025 = f32[]{:T(128)S(6)} parameter(1)
  %div.2669.clone.1 = f32[1536,3,128,192]{2,3,1,0:T(8,128)} broadcast(%param_1.5025), dimensions={}, metadata={op_name="jit(train_step)/div" stack_frame_id=1587}
  %div.2668.clone.1 = f32[1536,3,128,192]{2,3,1,0:T(8,128)} divide(%add.3631.clone.1, %div.2669.clone.1), metadata={op_name="jit(train_step)/div" stack_frame_id=1587}
  %sqrt.157.clone.1 = f32[1536,3,128,192]{2,3,1,0:T(8,128)} sqrt(%div.2668.clone.1), metadata={op_name="jit(train_step)/sqrt" stack_frame_id=1589}
  %constant.5239.clone.1 = f32[]{:T(128)} constant(1e-08)
  %add.3630.clone.1 = f32[1536,3,128,192]{2,3,1,0:T(8,128)} broadcast(%constant.5239.clone.1), dimensions={}, metadata={op_name="jit(train_step)/add" stack_frame_id=1589}
  %add.3629.clone.1 = f32[1536,3,128,192]{2,3,1,0:T(8,128)} add(%sqrt.157.clone.1, %add.3630.clone.1), metadata={op_name="jit(train_step)/add" stack_frame_id=1589}
  %multiply.1294.clone.1 = f32[1536,3,128,192]{2,3,1,0:T(8,128)} multiply(%div.2670.clone.1, %add.3629.clone.1), metadata={op_name="multiply.290"}
  %div.2667.clone.1 = f32[1536,3,128,192]{2,3,1,0:T(8,128)} divide(%add.3632.clone.1, %multiply.1294.clone.1), metadata={op_name="jit(train_step)/div" stack_frame_id=1590}
  %mul.4803.clone.1 = f32[1536,3,128,192]{2,3,1,0:T(8,128)} multiply(%param_0.4153, %broadcast.4437.clone.1), metadata={op_name="jit(train_step)/mul" stack_frame_id=1592}
  %add.3628.clone.1 = f32[1536,3,128,192]{2,3,1,0:T(8,128)} add(%div.2667.clone.1, %mul.4803.clone.1), metadata={op_name="jit(train_step)/add" stack_frame_id=1593}
  %mul.4802.clone.1 = f32[1536,3,128,192]{2,3,1,0:T(8,128)} multiply(%mul.4804.clone.1, %add.3628.clone.1), metadata={op_name="jit(train_step)/mul" stack_frame_id=62}
  %add.3627.clone.1 = f32[1536,3,128,192]{2,3,1,0:T(8,128)} add(%param_0.4153, %mul.4802.clone.1), metadata={op_name="jit(train_step)/add" stack_frame_id=1597}
  %square.565 = f32[1536,3,128,192]{2,3,1,0:T(8,128)} multiply(%add.3627.clone.1, %add.3627.clone.1), metadata={op_name="jit(train_step)/square" stack_frame_id=1628}
  %constant.5449 = f32[]{:T(128)} constant(0)
  %reduce.670 = f32[]{:T(128)} reduce(%square.565, %constant.5449), dimensions={0,1,2,3}, to_apply=%region_221.246, metadata={op_name="jit(train_step)/reduce_sum" stack_frame_id=1629}
  %reduce.671.clone.1 = f32[]{:T(128)} reduce(%integer_pow.399.clone.1, %constant.5449), dimensions={0,1,2,3}, to_apply=%region_187.212, metadata={op_name="jit(train_step)/reduce_sum" stack_frame_id=1605}
  ROOT %tuple.671 = (f32[]{:T(128)}, f32[1536,3,128,192]{2,3,1,0:T(8,128)}, f32[1536,3,128,192]{2,3,1,0:T(8,128)}, f32[1536,3,128,192]{2,3,1,0:T(8,128)}, f32[]{:T(128)}) tuple(%reduce.670, %add.3627.clone.1, %add.3631.clone.1, %add.3632.clone.1, %reduce.671.clone.1)
}

%region_160.185 (reduce_sum.473: f32[], reduce_sum.293: f32[]) -> f32[] {
  %reduce_sum.473 = f32[]{:T(128)} parameter(0), metadata={op_name="jit(train_step)/reduce_sum"}
  %reduce_sum.293 = f32[]{:T(128)} parameter(1), metadata={op_name="jit(train_step)/reduce_sum"}
  ROOT %reduce_sum.300 = f32[]{:T(128)} add(%reduce_sum.473, %reduce_sum.293), metadata={op_name="jit(train_step)/reduce_sum" stack_frame_id=862}, backend_config={"flag_configs":[],"scoped_memory_configs":[],"used_scoped_memory_configs":[],"aliasing_operands":{"lists":[]}}
}

%region_158.183 (reduce_sum.459: f32[], reduce_sum.460: f32[]) -> f32[] {
  %reduce_sum.459 = f32[]{:T(128)} parameter(0), metadata={op_name="jit(train_step)/reduce_sum"}
  %reduce_sum.460 = f32[]{:T(128)} parameter(1), metadata={op_name="jit(train_step)/reduce_sum"}
  ROOT %reduce_sum.461 = f32[]{:T(128)} add(%reduce_sum.459, %reduce_sum.460), metadata={op_name="jit(train_step)/reduce_sum" stack_frame_id=862}, backend_config={"flag_configs":[],"scoped_memory_configs":[],"used_scoped_memory_configs":[],"aliasing_operands":{"lists":[]}}
}

%fused_computation.495 (param_0.4179: bf16[256,512,512], param_1.5047: bf16[256,512,512]) -> (f32[], f32[]) {
  %param_0.4179 = bf16[256,512,512]{2,1,0:T(8,128)(2,1)} parameter(0)
  %broadcast_in_dim.1462 = f32[256,512,512]{2,1,0:T(8,128)} convert(%param_0.4179), metadata={op_name="jit(train_step)/transpose(jvp(TransformerLinenPure.apply))/TransformerLinenPure/decoder/moe_layers.wrapped_fn/while/body/broadcast_in_dim" stack_frame_id=480}
  %bitcast.695 = f32[256,1,512,512]{3,2,0,1:T(8,128)} bitcast(%broadcast_in_dim.1462), metadata={op_name="jit(train_step)/transpose(jvp(TransformerLinenPure.apply))/TransformerLinenPure/decoder/moe_layers.wrapped_fn/transpose" stack_frame_id=427}
  %square.570 = f32[256,1,512,512]{3,2,0,1:T(8,128)} multiply(%bitcast.695, %bitcast.695), metadata={op_name="jit(train_step)/square" stack_frame_id=860}
  %constant.5475 = f32[]{:T(128)} constant(0)
  %reduce.672 = f32[]{:T(128)} reduce(%square.570, %constant.5475), dimensions={0,1,2,3}, to_apply=%region_160.185, metadata={op_name="jit(train_step)/reduce_sum" stack_frame_id=862}
  %param_1.5047 = bf16[256,512,512]{2,1,0:T(8,128)(2,1)} parameter(1)
  %broadcast_in_dim.1470.clone.1 = f32[256,512,512]{2,1,0:T(8,128)} convert(%param_1.5047), metadata={op_name="jit(train_step)/transpose(jvp(TransformerLinenPure.apply))/TransformerLinenPure/decoder/moe_layers.wrapped_fn/while/body/broadcast_in_dim" stack_frame_id=480}
  %bitcast.703.clone.1 = f32[256,1,512,512]{3,2,0,1:T(8,128)} bitcast(%broadcast_in_dim.1470.clone.1), metadata={op_name="jit(train_step)/transpose(jvp(TransformerLinenPure.apply))/TransformerLinenPure/decoder/moe_layers.wrapped_fn/transpose" stack_frame_id=427}
  %square.576.clone.1 = f32[256,1,512,512]{3,2,0,1:T(8,128)} multiply(%bitcast.703.clone.1, %bitcast.703.clone.1), metadata={op_name="jit(train_step)/square" stack_frame_id=860}
  %reduce.674.clone.1 = f32[]{:T(128)} reduce(%square.576.clone.1, %constant.5475), dimensions={0,1,2,3}, to_apply=%region_158.183, metadata={op_name="jit(train_step)/reduce_sum" stack_frame_id=862}
  ROOT %tuple.778 = (f32[]{:T(128)}, f32[]{:T(128)}) tuple(%reduce.672, %reduce.674.clone.1)
}

%region_159.184 (reduce_sum.466: f32[], reduce_sum.279: f32[]) -> f32[] {
  %reduce_sum.466 = f32[]{:T(128)} parameter(0), metadata={op_name="jit(train_step)/reduce_sum"}
  %reduce_sum.279 = f32[]{:T(128)} parameter(1), metadata={op_name="jit(train_step)/reduce_sum"}
  ROOT %reduce_sum.286 = f32[]{:T(128)} add(%reduce_sum.466, %reduce_sum.279), metadata={op_name="jit(train_step)/reduce_sum" stack_frame_id=862}, backend_config={"flag_configs":[],"scoped_memory_configs":[],"used_scoped_memory_configs":[],"aliasing_operands":{"lists":[]}}
}

%fused_computation.497 (param_0.4178: bf16[256,512,512]) -> f32[] {
  %param_0.4178 = bf16[256,512,512]{2,1,0:T(8,128)(2,1)} parameter(0)
  %broadcast_in_dim.1466 = f32[256,512,512]{2,1,0:T(8,128)} convert(%param_0.4178), metadata={op_name="jit(train_step)/transpose(jvp(TransformerLinenPure.apply))/TransformerLinenPure/decoder/moe_layers.wrapped_fn/while/body/broadcast_in_dim" stack_frame_id=480}
  %bitcast.699 = f32[256,1,512,512]{3,2,0,1:T(8,128)} bitcast(%broadcast_in_dim.1466), metadata={op_name="jit(train_step)/transpose(jvp(TransformerLinenPure.apply))/TransformerLinenPure/decoder/moe_layers.wrapped_fn/transpose" stack_frame_id=427}
  %square.573 = f32[256,1,512,512]{3,2,0,1:T(8,128)} multiply(%bitcast.699, %bitcast.699), metadata={op_name="jit(train_step)/square" stack_frame_id=860}
  %constant.5474 = f32[]{:T(128)} constant(0)
  ROOT %reduce.673 = f32[]{:T(128)} reduce(%square.573, %constant.5474), dimensions={0,1,2,3}, to_apply=%region_159.184, metadata={op_name="jit(train_step)/reduce_sum" stack_frame_id=862}
}

%region_227.252 (reduce_sum.935: f32[], reduce_sum.631: f32[]) -> f32[] {
  %reduce_sum.935 = f32[]{:T(128)} parameter(0), metadata={op_name="jit(train_step)/reduce_sum"}
  %reduce_sum.631 = f32[]{:T(128)} parameter(1), metadata={op_name="jit(train_step)/reduce_sum"}
  ROOT %reduce_sum.632 = f32[]{:T(128)} add(%reduce_sum.935, %reduce_sum.631), metadata={op_name="jit(train_step)/reduce_sum" stack_frame_id=1629}, backend_config={"flag_configs":[],"scoped_memory_configs":[],"used_scoped_memory_configs":[],"aliasing_operands":{"lists":[]}}
}

%region_193.218 (reduce_sum.697: f32[], reduce_sum.471: f32[]) -> f32[] {
  %reduce_sum.697 = f32[]{:T(128)} parameter(0), metadata={op_name="jit(train_step)/reduce_sum"}
  %reduce_sum.471 = f32[]{:T(128)} parameter(1), metadata={op_name="jit(train_step)/reduce_sum"}
  ROOT %reduce_sum.472 = f32[]{:T(128)} add(%reduce_sum.697, %reduce_sum.471), metadata={op_name="jit(train_step)/reduce_sum" stack_frame_id=1605}, backend_config={"flag_configs":[],"scoped_memory_configs":[],"used_scoped_memory_configs":[],"aliasing_operands":{"lists":[]}}
}

%fused_computation.515 (param_0.4147: f32[], param_1.5019: f32[256,1,512,512], param_2.4292: f32[], param_3.2945: f32[256,1,512,512], param_4.2197: f32[], param_5.2000: bf16[256,512,512], param_6.1437: pred[], param_7.1118: f32[], param_8.883: f32[256,1,512,512]) -> (f32[], f32[256,1,512,512], f32[256,1,512,512], f32[256,1,512,512], f32[]) {
  %param_8.883 = f32[256,1,512,512]{3,2,1,0:T(8,128)} parameter(8)
  %bitcast.1359.clone.1 = f32[256,1,512,512]{3,2,0,1:T(8,128)} bitcast(%param_8.883), sharding={replicated}, metadata={op_name="state.params[\'params\'][\'decoder\'][\'moe_layers\'][\'DeepSeekMoeBlock_0\'][\'MoeBlock_0\'][\'wo\']"}
  %param_7.1118 = f32[]{:T(128)S(6)} parameter(7)
  %mul.4753.clone.1 = f32[256,1,512,512]{3,2,0,1:T(8,128)} broadcast(%param_7.1118), dimensions={}, metadata={op_name="jit(train_step)/mul" stack_frame_id=62}
  %param_6.1437 = pred[]{:T(512)S(6)} parameter(6)
  %select_n.2381.clone.1 = pred[256,1,512,512]{3,2,0,1:T(8,128)(4,1)} broadcast(%param_6.1437), dimensions={}, metadata={op_name="jit(train_step)/select_n" stack_frame_id=1563}
  %param_5.2000 = bf16[256,512,512]{2,1,0:T(8,128)(2,1)} parameter(5)
  %broadcast_in_dim.1680.clone.1 = f32[256,512,512]{2,1,0:T(8,128)} convert(%param_5.2000), metadata={op_name="jit(train_step)/transpose(jvp(TransformerLinenPure.apply))/TransformerLinenPure/decoder/moe_layers.wrapped_fn/while/body/broadcast_in_dim" stack_frame_id=480}
  %bitcast.1361.clone.1 = f32[256,1,512,512]{3,2,0,1:T(8,128)} bitcast(%broadcast_in_dim.1680.clone.1), metadata={op_name="jit(train_step)/transpose(jvp(TransformerLinenPure.apply))/TransformerLinenPure/decoder/moe_layers.wrapped_fn/transpose" stack_frame_id=427}
  %param_4.2197 = f32[]{:T(128)} parameter(4)
  %div.2632.clone.1 = f32[256,1,512,512]{3,2,0,1:T(8,128)} broadcast(%param_4.2197), dimensions={}, metadata={op_name="jit(train_step)/div" stack_frame_id=1564}
  %div.2631.clone.1 = f32[256,1,512,512]{3,2,0,1:T(8,128)} divide(%bitcast.1361.clone.1, %div.2632.clone.1), metadata={op_name="jit(train_step)/div" stack_frame_id=1564}
  %select_n.2380.clone.1 = f32[256,1,512,512]{3,2,0,1:T(8,128)} select(%select_n.2381.clone.1, %bitcast.1361.clone.1, %div.2631.clone.1), metadata={op_name="jit(train_step)/select_n" stack_frame_id=1563}
  %constant.5208.clone.1 = f32[]{:T(128)} constant(0.1)
  %broadcast.4417.clone.1 = f32[256,1,512,512]{3,2,0,1:T(8,128)} broadcast(%constant.5208.clone.1), dimensions={}, metadata={op_name="broadcast.2345"}
  %mul.4755.clone.1 = f32[256,1,512,512]{3,2,0,1:T(8,128)} multiply(%select_n.2380.clone.1, %broadcast.4417.clone.1), metadata={op_name="jit(train_step)/mul" stack_frame_id=1567}
  %param_3.2945 = f32[256,1,512,512]{3,2,1,0:T(8,128)} parameter(3)
  %bitcast.1360.clone.1 = f32[256,1,512,512]{3,2,0,1:T(8,128)} bitcast(%param_3.2945), sharding={replicated}, metadata={op_name="state.opt_state[0].mu[\'params\'][\'decoder\'][\'moe_layers\'][\'DeepSeekMoeBlock_0\'][\'MoeBlock_0\'][\'wo\']"}
  %constant.5207.clone.1 = f32[]{:T(128)} constant(0.9)
  %broadcast.4416.clone.1 = f32[256,1,512,512]{3,2,0,1:T(8,128)} broadcast(%constant.5207.clone.1), dimensions={}, metadata={op_name="broadcast.329"}
  %mul.4754.clone.1 = f32[256,1,512,512]{3,2,0,1:T(8,128)} multiply(%bitcast.1360.clone.1, %broadcast.4416.clone.1), metadata={op_name="jit(train_step)/mul" stack_frame_id=1568}
  %add.3597.clone.1 = f32[256,1,512,512]{3,2,0,1:T(8,128)} add(%mul.4755.clone.1, %mul.4754.clone.1), metadata={op_name="jit(train_step)/add" stack_frame_id=1567}
  %param_2.4292 = f32[]{:T(128)S(6)} parameter(2)
  %div.2630.clone.1 = f32[256,1,512,512]{3,2,0,1:T(8,128)} broadcast(%param_2.4292), dimensions={}, metadata={op_name="jit(train_step)/div" stack_frame_id=1578}
  %integer_pow.393.clone.1 = f32[256,1,512,512]{3,2,0,1:T(8,128)} multiply(%select_n.2380.clone.1, %select_n.2380.clone.1), metadata={op_name="jit(train_step)/integer_pow" stack_frame_id=1582}
  %constant.5206.clone.1 = f32[]{:T(128)} constant(0.05)
  %broadcast.4419.clone.1 = f32[256,1,512,512]{3,2,0,1:T(8,128)} broadcast(%constant.5206.clone.1), dimensions={}, metadata={op_name="broadcast.2348"}
  %mul.4757.clone.1 = f32[256,1,512,512]{3,2,0,1:T(8,128)} multiply(%integer_pow.393.clone.1, %broadcast.4419.clone.1), metadata={op_name="jit(train_step)/mul" stack_frame_id=1585}
  %param_1.5019 = f32[256,1,512,512]{3,2,1,0:T(8,128)} parameter(1)
  %bitcast.1362.clone.1 = f32[256,1,512,512]{3,2,0,1:T(8,128)} bitcast(%param_1.5019), sharding={replicated}, metadata={op_name="state.opt_state[0].nu[\'params\'][\'decoder\'][\'moe_layers\'][\'DeepSeekMoeBlock_0\'][\'MoeBlock_0\'][\'wo\']"}
  %constant.5205.clone.1 = f32[]{:T(128)} constant(0.95)
  %broadcast.4418.clone.1 = f32[256,1,512,512]{3,2,0,1:T(8,128)} broadcast(%constant.5205.clone.1), dimensions={}, metadata={op_name="broadcast.312"}
  %mul.4756.clone.1 = f32[256,1,512,512]{3,2,0,1:T(8,128)} multiply(%bitcast.1362.clone.1, %broadcast.4418.clone.1), metadata={op_name="jit(train_step)/mul" stack_frame_id=1586}
  %add.3598.clone.1 = f32[256,1,512,512]{3,2,0,1:T(8,128)} add(%mul.4757.clone.1, %mul.4756.clone.1), metadata={op_name="jit(train_step)/add" stack_frame_id=1585}
  %param_0.4147 = f32[]{:T(128)S(6)} parameter(0)
  %div.2629.clone.1 = f32[256,1,512,512]{3,2,0,1:T(8,128)} broadcast(%param_0.4147), dimensions={}, metadata={op_name="jit(train_step)/div" stack_frame_id=1587}
  %div.2628.clone.1 = f32[256,1,512,512]{3,2,0,1:T(8,128)} divide(%add.3598.clone.1, %div.2629.clone.1), metadata={op_name="jit(train_step)/div" stack_frame_id=1587}
  %sqrt.151.clone.1 = f32[256,1,512,512]{3,2,0,1:T(8,128)} sqrt(%div.2628.clone.1), metadata={op_name="jit(train_step)/sqrt" stack_frame_id=1589}
  %constant.5209.clone.1 = f32[]{:T(128)} constant(1e-08)
  %broadcast.4415.clone.1 = f32[256,1,512,512]{3,2,0,1:T(8,128)} broadcast(%constant.5209.clone.1), dimensions={}, metadata={op_name="broadcast.305"}
  %add.3596.clone.1 = f32[256,1,512,512]{3,2,0,1:T(8,128)} add(%sqrt.151.clone.1, %broadcast.4415.clone.1), metadata={op_name="jit(train_step)/add" stack_frame_id=1589}
  %multiply.1288.clone.1 = f32[256,1,512,512]{3,2,0,1:T(8,128)} multiply(%div.2630.clone.1, %add.3596.clone.1), metadata={op_name="multiply.296"}
  %div.2627.clone.1 = f32[256,1,512,512]{3,2,0,1:T(8,128)} divide(%add.3597.clone.1, %multiply.1288.clone.1), metadata={op_name="jit(train_step)/div" stack_frame_id=1590}
  %mul.4752.clone.1 = f32[256,1,512,512]{3,2,0,1:T(8,128)} multiply(%bitcast.1359.clone.1, %broadcast.4417.clone.1), metadata={op_name="jit(train_step)/mul" stack_frame_id=1592}
  %add.3595.clone.1 = f32[256,1,512,512]{3,2,0,1:T(8,128)} add(%div.2627.clone.1, %mul.4752.clone.1), metadata={op_name="jit(train_step)/add" stack_frame_id=1593}
  %mul.4751.clone.1 = f32[256,1,512,512]{3,2,0,1:T(8,128)} multiply(%mul.4753.clone.1, %add.3595.clone.1), metadata={op_name="jit(train_step)/mul" stack_frame_id=62}
  %add.3594.clone.1 = f32[256,1,512,512]{3,2,0,1:T(8,128)} add(%bitcast.1359.clone.1, %mul.4751.clone.1), metadata={op_name="jit(train_step)/add" stack_frame_id=1597}
  %square.577 = f32[256,1,512,512]{3,2,0,1:T(8,128)} multiply(%add.3594.clone.1, %add.3594.clone.1), metadata={op_name="jit(train_step)/square" stack_frame_id=1628}
  %constant.5443 = f32[]{:T(128)} constant(0)
  %reduce.675 = f32[]{:T(128)} reduce(%square.577, %constant.5443), dimensions={0,1,2,3}, to_apply=%region_227.252, metadata={op_name="jit(train_step)/reduce_sum" stack_frame_id=1629}
  %bitcast.849.clone.1 = f32[256,1,512,512]{3,2,1,0:T(8,128)} bitcast(%add.3598.clone.1)
  %bitcast.822.clone.1 = f32[256,1,512,512]{3,2,1,0:T(8,128)} bitcast(%add.3597.clone.1)
  %reduce.684.clone.1 = f32[]{:T(128)} reduce(%integer_pow.393.clone.1, %constant.5443), dimensions={0,1,2,3}, to_apply=%region_193.218, metadata={op_name="jit(train_step)/reduce_sum" stack_frame_id=1605}
  ROOT %tuple.681 = (f32[]{:T(128)}, f32[256,1,512,512]{3,2,0,1:T(8,128)}, f32[256,1,512,512]{3,2,1,0:T(8,128)}, f32[256,1,512,512]{3,2,1,0:T(8,128)}, f32[]{:T(128)}) tuple(%reduce.675, %add.3594.clone.1, %bitcast.849.clone.1, %bitcast.822.clone.1, %reduce.684.clone.1)
}

%region_226.251 (reduce_sum.928: f32[], reduce_sum.625: f32[]) -> f32[] {
  %reduce_sum.928 = f32[]{:T(128)} parameter(0), metadata={op_name="jit(train_step)/reduce_sum"}
  %reduce_sum.625 = f32[]{:T(128)} parameter(1), metadata={op_name="jit(train_step)/reduce_sum"}
  ROOT %reduce_sum.626 = f32[]{:T(128)} add(%reduce_sum.928, %reduce_sum.625), metadata={op_name="jit(train_step)/reduce_sum" stack_frame_id=1629}, backend_config={"flag_configs":[],"scoped_memory_configs":[],"used_scoped_memory_configs":[],"aliasing_operands":{"lists":[]}}
}

%region_192.217 (reduce_sum.690: f32[], reduce_sum.465: f32[]) -> f32[] {
  %reduce_sum.690 = f32[]{:T(128)} parameter(0), metadata={op_name="jit(train_step)/reduce_sum"}
  %reduce_sum.465 = f32[]{:T(128)} parameter(1), metadata={op_name="jit(train_step)/reduce_sum"}
  ROOT %reduce_sum.470 = f32[]{:T(128)} add(%reduce_sum.690, %reduce_sum.465), metadata={op_name="jit(train_step)/reduce_sum" stack_frame_id=1605}, backend_config={"flag_configs":[],"scoped_memory_configs":[],"used_scoped_memory_configs":[],"aliasing_operands":{"lists":[]}}
}

%fused_computation.516 (param_0.4148: f32[], param_1.5020: f32[256,1,512,512], param_2.4293: f32[], param_3.2946: f32[256,1,512,512], param_4.2198: f32[], param_5.2001: bf16[256,512,512], param_6.1438: pred[], param_7.1119: f32[], param_8.884: f32[256,1,512,512]) -> (f32[], f32[256,1,512,512], f32[256,1,512,512], f32[256,1,512,512], f32[]) {
  %param_8.884 = f32[256,1,512,512]{3,2,1,0:T(8,128)} parameter(8)
  %bitcast.1363.clone.1 = f32[256,1,512,512]{3,2,0,1:T(8,128)} bitcast(%param_8.884), sharding={replicated}, metadata={op_name="state.params[\'params\'][\'decoder\'][\'moe_layers\'][\'DeepSeekMoeBlock_0\'][\'MoeBlock_0\'][\'wi_1\']"}
  %param_7.1119 = f32[]{:T(128)S(6)} parameter(7)
  %mul.4760.clone.1 = f32[256,1,512,512]{3,2,0,1:T(8,128)} broadcast(%param_7.1119), dimensions={}, metadata={op_name="jit(train_step)/mul" stack_frame_id=62}
  %param_6.1438 = pred[]{:T(512)S(6)} parameter(6)
  %select_n.2383.clone.1 = pred[256,1,512,512]{3,2,0,1:T(8,128)(4,1)} broadcast(%param_6.1438), dimensions={}, metadata={op_name="jit(train_step)/select_n" stack_frame_id=1563}
  %param_5.2001 = bf16[256,512,512]{2,1,0:T(8,128)(2,1)} parameter(5)
  %broadcast_in_dim.1681.clone.1 = f32[256,512,512]{2,1,0:T(8,128)} convert(%param_5.2001), metadata={op_name="jit(train_step)/transpose(jvp(TransformerLinenPure.apply))/TransformerLinenPure/decoder/moe_layers.wrapped_fn/while/body/broadcast_in_dim" stack_frame_id=480}
  %bitcast.1365.clone.1 = f32[256,1,512,512]{3,2,0,1:T(8,128)} bitcast(%broadcast_in_dim.1681.clone.1), metadata={op_name="jit(train_step)/transpose(jvp(TransformerLinenPure.apply))/TransformerLinenPure/decoder/moe_layers.wrapped_fn/transpose" stack_frame_id=427}
  %param_4.2198 = f32[]{:T(128)} parameter(4)
  %div.2638.clone.1 = f32[256,1,512,512]{3,2,0,1:T(8,128)} broadcast(%param_4.2198), dimensions={}, metadata={op_name="jit(train_step)/div" stack_frame_id=1564}
  %div.2637.clone.1 = f32[256,1,512,512]{3,2,0,1:T(8,128)} divide(%bitcast.1365.clone.1, %div.2638.clone.1), metadata={op_name="jit(train_step)/div" stack_frame_id=1564}
  %select_n.2382.clone.1 = f32[256,1,512,512]{3,2,0,1:T(8,128)} select(%select_n.2383.clone.1, %bitcast.1365.clone.1, %div.2637.clone.1), metadata={op_name="jit(train_step)/select_n" stack_frame_id=1563}
  %constant.5213.clone.1 = f32[]{:T(128)} constant(0.1)
  %broadcast.4422.clone.1 = f32[256,1,512,512]{3,2,0,1:T(8,128)} broadcast(%constant.5213.clone.1), dimensions={}, metadata={op_name="broadcast.2345"}
  %mul.4762.clone.1 = f32[256,1,512,512]{3,2,0,1:T(8,128)} multiply(%select_n.2382.clone.1, %broadcast.4422.clone.1), metadata={op_name="jit(train_step)/mul" stack_frame_id=1567}
  %param_3.2946 = f32[256,1,512,512]{3,2,1,0:T(8,128)} parameter(3)
  %bitcast.1364.clone.1 = f32[256,1,512,512]{3,2,0,1:T(8,128)} bitcast(%param_3.2946), sharding={replicated}, metadata={op_name="state.opt_state[0].mu[\'params\'][\'decoder\'][\'moe_layers\'][\'DeepSeekMoeBlock_0\'][\'MoeBlock_0\'][\'wi_1\']"}
  %constant.5212.clone.1 = f32[]{:T(128)} constant(0.9)
  %broadcast.4421.clone.1 = f32[256,1,512,512]{3,2,0,1:T(8,128)} broadcast(%constant.5212.clone.1), dimensions={}, metadata={op_name="broadcast.329"}
  %mul.4761.clone.1 = f32[256,1,512,512]{3,2,0,1:T(8,128)} multiply(%bitcast.1364.clone.1, %broadcast.4421.clone.1), metadata={op_name="jit(train_step)/mul" stack_frame_id=1568}
  %add.3602.clone.1 = f32[256,1,512,512]{3,2,0,1:T(8,128)} add(%mul.4762.clone.1, %mul.4761.clone.1), metadata={op_name="jit(train_step)/add" stack_frame_id=1567}
  %param_2.4293 = f32[]{:T(128)S(6)} parameter(2)
  %div.2636.clone.1 = f32[256,1,512,512]{3,2,0,1:T(8,128)} broadcast(%param_2.4293), dimensions={}, metadata={op_name="jit(train_step)/div" stack_frame_id=1578}
  %integer_pow.394.clone.1 = f32[256,1,512,512]{3,2,0,1:T(8,128)} multiply(%select_n.2382.clone.1, %select_n.2382.clone.1), metadata={op_name="jit(train_step)/integer_pow" stack_frame_id=1582}
  %constant.5211.clone.1 = f32[]{:T(128)} constant(0.05)
  %broadcast.4424.clone.1 = f32[256,1,512,512]{3,2,0,1:T(8,128)} broadcast(%constant.5211.clone.1), dimensions={}, metadata={op_name="broadcast.2348"}
  %mul.4764.clone.1 = f32[256,1,512,512]{3,2,0,1:T(8,128)} multiply(%integer_pow.394.clone.1, %broadcast.4424.clone.1), metadata={op_name="jit(train_step)/mul" stack_frame_id=1585}
  %param_1.5020 = f32[256,1,512,512]{3,2,1,0:T(8,128)} parameter(1)
  %bitcast.1366.clone.1 = f32[256,1,512,512]{3,2,0,1:T(8,128)} bitcast(%param_1.5020), sharding={replicated}, metadata={op_name="state.opt_state[0].nu[\'params\'][\'decoder\'][\'moe_layers\'][\'DeepSeekMoeBlock_0\'][\'MoeBlock_0\'][\'wi_1\']"}
  %constant.5210.clone.1 = f32[]{:T(128)} constant(0.95)
  %broadcast.4423.clone.1 = f32[256,1,512,512]{3,2,0,1:T(8,128)} broadcast(%constant.5210.clone.1), dimensions={}, metadata={op_name="broadcast.312"}
  %mul.4763.clone.1 = f32[256,1,512,512]{3,2,0,1:T(8,128)} multiply(%bitcast.1366.clone.1, %broadcast.4423.clone.1), metadata={op_name="jit(train_step)/mul" stack_frame_id=1586}
  %add.3603.clone.1 = f32[256,1,512,512]{3,2,0,1:T(8,128)} add(%mul.4764.clone.1, %mul.4763.clone.1), metadata={op_name="jit(train_step)/add" stack_frame_id=1585}
  %param_0.4148 = f32[]{:T(128)S(6)} parameter(0)
  %div.2635.clone.1 = f32[256,1,512,512]{3,2,0,1:T(8,128)} broadcast(%param_0.4148), dimensions={}, metadata={op_name="jit(train_step)/div" stack_frame_id=1587}
  %div.2634.clone.1 = f32[256,1,512,512]{3,2,0,1:T(8,128)} divide(%add.3603.clone.1, %div.2635.clone.1), metadata={op_name="jit(train_step)/div" stack_frame_id=1587}
  %sqrt.152.clone.1 = f32[256,1,512,512]{3,2,0,1:T(8,128)} sqrt(%div.2634.clone.1), metadata={op_name="jit(train_step)/sqrt" stack_frame_id=1589}
  %constant.5214.clone.1 = f32[]{:T(128)} constant(1e-08)
  %broadcast.4420.clone.1 = f32[256,1,512,512]{3,2,0,1:T(8,128)} broadcast(%constant.5214.clone.1), dimensions={}, metadata={op_name="broadcast.305"}
  %add.3601.clone.1 = f32[256,1,512,512]{3,2,0,1:T(8,128)} add(%sqrt.152.clone.1, %broadcast.4420.clone.1), metadata={op_name="jit(train_step)/add" stack_frame_id=1589}
  %multiply.1289.clone.1 = f32[256,1,512,512]{3,2,0,1:T(8,128)} multiply(%div.2636.clone.1, %add.3601.clone.1), metadata={op_name="multiply.295"}
  %div.2633.clone.1 = f32[256,1,512,512]{3,2,0,1:T(8,128)} divide(%add.3602.clone.1, %multiply.1289.clone.1), metadata={op_name="jit(train_step)/div" stack_frame_id=1590}
  %mul.4759.clone.1 = f32[256,1,512,512]{3,2,0,1:T(8,128)} multiply(%bitcast.1363.clone.1, %broadcast.4422.clone.1), metadata={op_name="jit(train_step)/mul" stack_frame_id=1592}
  %add.3600.clone.1 = f32[256,1,512,512]{3,2,0,1:T(8,128)} add(%div.2633.clone.1, %mul.4759.clone.1), metadata={op_name="jit(train_step)/add" stack_frame_id=1593}
  %mul.4758.clone.1 = f32[256,1,512,512]{3,2,0,1:T(8,128)} multiply(%mul.4760.clone.1, %add.3600.clone.1), metadata={op_name="jit(train_step)/mul" stack_frame_id=62}
  %add.3599.clone.1 = f32[256,1,512,512]{3,2,0,1:T(8,128)} add(%bitcast.1363.clone.1, %mul.4758.clone.1), metadata={op_name="jit(train_step)/add" stack_frame_id=1597}
  %square.578 = f32[256,1,512,512]{3,2,0,1:T(8,128)} multiply(%add.3599.clone.1, %add.3599.clone.1), metadata={op_name="jit(train_step)/square" stack_frame_id=1628}
  %constant.5444 = f32[]{:T(128)} constant(0)
  %reduce.676 = f32[]{:T(128)} reduce(%square.578, %constant.5444), dimensions={0,1,2,3}, to_apply=%region_226.251, metadata={op_name="jit(train_step)/reduce_sum" stack_frame_id=1629}
  %bitcast.840.clone.1 = f32[256,1,512,512]{3,2,1,0:T(8,128)} bitcast(%add.3603.clone.1)
  %bitcast.813.clone.1 = f32[256,1,512,512]{3,2,1,0:T(8,128)} bitcast(%add.3602.clone.1)
  %reduce.685.clone.1 = f32[]{:T(128)} reduce(%integer_pow.394.clone.1, %constant.5444), dimensions={0,1,2,3}, to_apply=%region_192.217, metadata={op_name="jit(train_step)/reduce_sum" stack_frame_id=1605}
  ROOT %tuple.680 = (f32[]{:T(128)}, f32[256,1,512,512]{3,2,0,1:T(8,128)}, f32[256,1,512,512]{3,2,1,0:T(8,128)}, f32[256,1,512,512]{3,2,1,0:T(8,128)}, f32[]{:T(128)}) tuple(%reduce.676, %add.3599.clone.1, %bitcast.840.clone.1, %bitcast.813.clone.1, %reduce.685.clone.1)
}

%region_225.250 (reduce_sum.921: f32[], reduce_sum.619: f32[]) -> f32[] {
  %reduce_sum.921 = f32[]{:T(128)} parameter(0), metadata={op_name="jit(train_step)/reduce_sum"}
  %reduce_sum.619 = f32[]{:T(128)} parameter(1), metadata={op_name="jit(train_step)/reduce_sum"}
  ROOT %reduce_sum.624 = f32[]{:T(128)} add(%reduce_sum.921, %reduce_sum.619), metadata={op_name="jit(train_step)/reduce_sum" stack_frame_id=1629}, backend_config={"flag_configs":[],"scoped_memory_configs":[],"used_scoped_memory_configs":[],"aliasing_operands":{"lists":[]}}
}

%region_191.216 (reduce_sum.683: f32[], reduce_sum.463: f32[]) -> f32[] {
  %reduce_sum.683 = f32[]{:T(128)} parameter(0), metadata={op_name="jit(train_step)/reduce_sum"}
  %reduce_sum.463 = f32[]{:T(128)} parameter(1), metadata={op_name="jit(train_step)/reduce_sum"}
  ROOT %reduce_sum.464 = f32[]{:T(128)} add(%reduce_sum.683, %reduce_sum.463), metadata={op_name="jit(train_step)/reduce_sum" stack_frame_id=1605}, backend_config={"flag_configs":[],"scoped_memory_configs":[],"used_scoped_memory_configs":[],"aliasing_operands":{"lists":[]}}
}

%fused_computation.517 (param_0.4149: f32[], param_1.5021: f32[256,1,512,512], param_2.4294: f32[], param_3.2947: f32[256,1,512,512], param_4.2199: f32[], param_5.2002: bf16[256,512,512], param_6.1439: pred[], param_7.1120: f32[], param_8.885: f32[256,1,512,512]) -> (f32[], f32[256,1,512,512], f32[256,1,512,512], f32[256,1,512,512], f32[]) {
  %param_8.885 = f32[256,1,512,512]{3,2,1,0:T(8,128)} parameter(8)
  %bitcast.1367.clone.1 = f32[256,1,512,512]{3,2,0,1:T(8,128)} bitcast(%param_8.885), sharding={replicated}, metadata={op_name="state.params[\'params\'][\'decoder\'][\'moe_layers\'][\'DeepSeekMoeBlock_0\'][\'MoeBlock_0\'][\'wi_0\']"}
  %param_7.1120 = f32[]{:T(128)S(6)} parameter(7)
  %mul.4767.clone.1 = f32[256,1,512,512]{3,2,0,1:T(8,128)} broadcast(%param_7.1120), dimensions={}, metadata={op_name="jit(train_step)/mul" stack_frame_id=62}
  %param_6.1439 = pred[]{:T(512)S(6)} parameter(6)
  %select_n.2385.clone.1 = pred[256,1,512,512]{3,2,0,1:T(8,128)(4,1)} broadcast(%param_6.1439), dimensions={}, metadata={op_name="jit(train_step)/select_n" stack_frame_id=1563}
  %param_5.2002 = bf16[256,512,512]{2,1,0:T(8,128)(2,1)} parameter(5)
  %broadcast_in_dim.1682.clone.1 = f32[256,512,512]{2,1,0:T(8,128)} convert(%param_5.2002), metadata={op_name="jit(train_step)/transpose(jvp(TransformerLinenPure.apply))/TransformerLinenPure/decoder/moe_layers.wrapped_fn/while/body/broadcast_in_dim" stack_frame_id=480}
  %bitcast.1369.clone.1 = f32[256,1,512,512]{3,2,0,1:T(8,128)} bitcast(%broadcast_in_dim.1682.clone.1), metadata={op_name="jit(train_step)/transpose(jvp(TransformerLinenPure.apply))/TransformerLinenPure/decoder/moe_layers.wrapped_fn/transpose" stack_frame_id=427}
  %param_4.2199 = f32[]{:T(128)} parameter(4)
  %div.2644.clone.1 = f32[256,1,512,512]{3,2,0,1:T(8,128)} broadcast(%param_4.2199), dimensions={}, metadata={op_name="jit(train_step)/div" stack_frame_id=1564}
  %div.2643.clone.1 = f32[256,1,512,512]{3,2,0,1:T(8,128)} divide(%bitcast.1369.clone.1, %div.2644.clone.1), metadata={op_name="jit(train_step)/div" stack_frame_id=1564}
  %select_n.2384.clone.1 = f32[256,1,512,512]{3,2,0,1:T(8,128)} select(%select_n.2385.clone.1, %bitcast.1369.clone.1, %div.2643.clone.1), metadata={op_name="jit(train_step)/select_n" stack_frame_id=1563}
  %constant.5218.clone.1 = f32[]{:T(128)} constant(0.1)
  %broadcast.4427.clone.1 = f32[256,1,512,512]{3,2,0,1:T(8,128)} broadcast(%constant.5218.clone.1), dimensions={}, metadata={op_name="broadcast.2345"}
  %mul.4769.clone.1 = f32[256,1,512,512]{3,2,0,1:T(8,128)} multiply(%select_n.2384.clone.1, %broadcast.4427.clone.1), metadata={op_name="jit(train_step)/mul" stack_frame_id=1567}
  %param_3.2947 = f32[256,1,512,512]{3,2,1,0:T(8,128)} parameter(3)
  %bitcast.1368.clone.1 = f32[256,1,512,512]{3,2,0,1:T(8,128)} bitcast(%param_3.2947), sharding={replicated}, metadata={op_name="state.opt_state[0].mu[\'params\'][\'decoder\'][\'moe_layers\'][\'DeepSeekMoeBlock_0\'][\'MoeBlock_0\'][\'wi_0\']"}
  %constant.5217.clone.1 = f32[]{:T(128)} constant(0.9)
  %broadcast.4426.clone.1 = f32[256,1,512,512]{3,2,0,1:T(8,128)} broadcast(%constant.5217.clone.1), dimensions={}, metadata={op_name="broadcast.329"}
  %mul.4768.clone.1 = f32[256,1,512,512]{3,2,0,1:T(8,128)} multiply(%bitcast.1368.clone.1, %broadcast.4426.clone.1), metadata={op_name="jit(train_step)/mul" stack_frame_id=1568}
  %add.3607.clone.1 = f32[256,1,512,512]{3,2,0,1:T(8,128)} add(%mul.4769.clone.1, %mul.4768.clone.1), metadata={op_name="jit(train_step)/add" stack_frame_id=1567}
  %param_2.4294 = f32[]{:T(128)S(6)} parameter(2)
  %div.2642.clone.1 = f32[256,1,512,512]{3,2,0,1:T(8,128)} broadcast(%param_2.4294), dimensions={}, metadata={op_name="jit(train_step)/div" stack_frame_id=1578}
  %integer_pow.395.clone.1 = f32[256,1,512,512]{3,2,0,1:T(8,128)} multiply(%select_n.2384.clone.1, %select_n.2384.clone.1), metadata={op_name="jit(train_step)/integer_pow" stack_frame_id=1582}
  %constant.5216.clone.1 = f32[]{:T(128)} constant(0.05)
  %broadcast.4429.clone.1 = f32[256,1,512,512]{3,2,0,1:T(8,128)} broadcast(%constant.5216.clone.1), dimensions={}, metadata={op_name="broadcast.2348"}
  %mul.4771.clone.1 = f32[256,1,512,512]{3,2,0,1:T(8,128)} multiply(%integer_pow.395.clone.1, %broadcast.4429.clone.1), metadata={op_name="jit(train_step)/mul" stack_frame_id=1585}
  %param_1.5021 = f32[256,1,512,512]{3,2,1,0:T(8,128)} parameter(1)
  %bitcast.1370.clone.1 = f32[256,1,512,512]{3,2,0,1:T(8,128)} bitcast(%param_1.5021), sharding={replicated}, metadata={op_name="state.opt_state[0].nu[\'params\'][\'decoder\'][\'moe_layers\'][\'DeepSeekMoeBlock_0\'][\'MoeBlock_0\'][\'wi_0\']"}
  %constant.5215.clone.1 = f32[]{:T(128)} constant(0.95)
  %broadcast.4428.clone.1 = f32[256,1,512,512]{3,2,0,1:T(8,128)} broadcast(%constant.5215.clone.1), dimensions={}, metadata={op_name="broadcast.312"}
  %mul.4770.clone.1 = f32[256,1,512,512]{3,2,0,1:T(8,128)} multiply(%bitcast.1370.clone.1, %broadcast.4428.clone.1), metadata={op_name="jit(train_step)/mul" stack_frame_id=1586}
  %add.3608.clone.1 = f32[256,1,512,512]{3,2,0,1:T(8,128)} add(%mul.4771.clone.1, %mul.4770.clone.1), metadata={op_name="jit(train_step)/add" stack_frame_id=1585}
  %param_0.4149 = f32[]{:T(128)S(6)} parameter(0)
  %div.2641.clone.1 = f32[256,1,512,512]{3,2,0,1:T(8,128)} broadcast(%param_0.4149), dimensions={}, metadata={op_name="jit(train_step)/div" stack_frame_id=1587}
  %div.2640.clone.1 = f32[256,1,512,512]{3,2,0,1:T(8,128)} divide(%add.3608.clone.1, %div.2641.clone.1), metadata={op_name="jit(train_step)/div" stack_frame_id=1587}
  %sqrt.153.clone.1 = f32[256,1,512,512]{3,2,0,1:T(8,128)} sqrt(%div.2640.clone.1), metadata={op_name="jit(train_step)/sqrt" stack_frame_id=1589}
  %constant.5219.clone.1 = f32[]{:T(128)} constant(1e-08)
  %broadcast.4425.clone.1 = f32[256,1,512,512]{3,2,0,1:T(8,128)} broadcast(%constant.5219.clone.1), dimensions={}, metadata={op_name="broadcast.305"}
  %add.3606.clone.1 = f32[256,1,512,512]{3,2,0,1:T(8,128)} add(%sqrt.153.clone.1, %broadcast.4425.clone.1), metadata={op_name="jit(train_step)/add" stack_frame_id=1589}
  %multiply.1290.clone.1 = f32[256,1,512,512]{3,2,0,1:T(8,128)} multiply(%div.2642.clone.1, %add.3606.clone.1), metadata={op_name="multiply.294"}
  %div.2639.clone.1 = f32[256,1,512,512]{3,2,0,1:T(8,128)} divide(%add.3607.clone.1, %multiply.1290.clone.1), metadata={op_name="jit(train_step)/div" stack_frame_id=1590}
  %mul.4766.clone.1 = f32[256,1,512,512]{3,2,0,1:T(8,128)} multiply(%bitcast.1367.clone.1, %broadcast.4427.clone.1), metadata={op_name="jit(train_step)/mul" stack_frame_id=1592}
  %add.3605.clone.1 = f32[256,1,512,512]{3,2,0,1:T(8,128)} add(%div.2639.clone.1, %mul.4766.clone.1), metadata={op_name="jit(train_step)/add" stack_frame_id=1593}
  %mul.4765.clone.1 = f32[256,1,512,512]{3,2,0,1:T(8,128)} multiply(%mul.4767.clone.1, %add.3605.clone.1), metadata={op_name="jit(train_step)/mul" stack_frame_id=62}
  %add.3604.clone.1 = f32[256,1,512,512]{3,2,0,1:T(8,128)} add(%bitcast.1367.clone.1, %mul.4765.clone.1), metadata={op_name="jit(train_step)/add" stack_frame_id=1597}
  %square.579 = f32[256,1,512,512]{3,2,0,1:T(8,128)} multiply(%add.3604.clone.1, %add.3604.clone.1), metadata={op_name="jit(train_step)/square" stack_frame_id=1628}
  %constant.5445 = f32[]{:T(128)} constant(0)
  %reduce.677 = f32[]{:T(128)} reduce(%square.579, %constant.5445), dimensions={0,1,2,3}, to_apply=%region_225.250, metadata={op_name="jit(train_step)/reduce_sum" stack_frame_id=1629}
  %bitcast.831.clone.1 = f32[256,1,512,512]{3,2,1,0:T(8,128)} bitcast(%add.3608.clone.1)
  %bitcast.804.clone.1 = f32[256,1,512,512]{3,2,1,0:T(8,128)} bitcast(%add.3607.clone.1)
  %reduce.686.clone.1 = f32[]{:T(128)} reduce(%integer_pow.395.clone.1, %constant.5445), dimensions={0,1,2,3}, to_apply=%region_191.216, metadata={op_name="jit(train_step)/reduce_sum" stack_frame_id=1605}
  ROOT %tuple.679 = (f32[]{:T(128)}, f32[256,1,512,512]{3,2,0,1:T(8,128)}, f32[256,1,512,512]{3,2,1,0:T(8,128)}, f32[256,1,512,512]{3,2,1,0:T(8,128)}, f32[]{:T(128)}) tuple(%reduce.677, %add.3604.clone.1, %bitcast.831.clone.1, %bitcast.804.clone.1, %reduce.686.clone.1)
}

%region_155.180 (reduce_sum.438: f32[], reduce_sum.259: f32[]) -> f32[] {
  %reduce_sum.438 = f32[]{:T(128)} parameter(0), metadata={op_name="jit(train_step)/reduce_sum"}
  %reduce_sum.259 = f32[]{:T(128)} parameter(1), metadata={op_name="jit(train_step)/reduce_sum"}
  ROOT %reduce_sum.260 = f32[]{:T(128)} add(%reduce_sum.438, %reduce_sum.259), metadata={op_name="jit(train_step)/reduce_sum" stack_frame_id=862}, backend_config={"flag_configs":[],"scoped_memory_configs":[],"used_scoped_memory_configs":[],"aliasing_operands":{"lists":[]}}
}

%fused_computation.529.clone.clone.clone (param_0.4092: bf16[4,128,129280], param_1.4953: s32[4,128], param_2.4225: f32[4,128], param_3.2913: f32[4,128], param_4.2170: bf16[4,128], param_5.1978: f32[4,128]) -> bf16[4,128,129280] {
  %param_5.1978 = f32[4,128]{1,0:T(4,128)S(1)} parameter(5)
  %mul.4980 = f32[4,128,129280]{2,1,0:T(8,128)} broadcast(%param_5.1978), dimensions={0,1}, metadata={op_name="jit(train_step)/transpose(jvp())/mul" stack_frame_id=90}
  %param_3.2913 = f32[4,128]{1,0:T(4,128)S(1)} parameter(3)
  %mul.4979 = f32[4,128,129280]{2,1,0:T(8,128)} broadcast(%param_3.2913), dimensions={0,1}, metadata={op_name="jit(train_step)/transpose(jvp())/mul" stack_frame_id=90}
  %param_0.4092 = bf16[4,128,129280]{2,1,0:T(8,128)(2,1)} parameter(0)
  %convert_element_type.3197 = f32[4,128,129280]{2,1,0:T(8,128)} convert(%param_0.4092), metadata={op_name="jit(train_step)/jvp(TransformerLinenPure.apply)/TransformerLinenPure/decoder/decoder.apply_output_head/convert_element_type" stack_frame_id=834}
  %param_4.2170 = bf16[4,128]{1,0:T(4,128)(2,1)S(1)} parameter(4)
  %sub.926 = f32[4,128,129280]{2,1,0:T(8,128)} broadcast(%param_4.2170), dimensions={0,1}, metadata={op_name="jit(train_step)/jvp()/sub" stack_frame_id=845}
  %sub.925 = f32[4,128,129280]{2,1,0:T(8,128)} subtract(%convert_element_type.3197, %sub.926), metadata={op_name="jit(train_step)/jvp()/sub" stack_frame_id=845}
  %exp.534 = f32[4,128,129280]{2,1,0:T(8,128)} exponential(%sub.925), metadata={op_name="jit(train_step)/jvp()/exp" stack_frame_id=846}
  %mul.4978 = f32[4,128,129280]{2,1,0:T(8,128)} multiply(%mul.4979, %exp.534), metadata={op_name="jit(train_step)/transpose(jvp())/mul" stack_frame_id=90}
  %param_2.4225 = f32[4,128]{1,0:T(4,128)S(1)} parameter(2)
  %div.2797 = f32[4,128,129280]{2,1,0:T(8,128)} broadcast(%param_2.4225), dimensions={0,1}, metadata={op_name="jit(train_step)/transpose(jvp())/div" stack_frame_id=90}
  %div.2796 = f32[4,128,129280]{2,1,0:T(8,128)} divide(%mul.4978, %div.2797), metadata={op_name="jit(train_step)/transpose(jvp())/div" stack_frame_id=90}
  %param_1.4953 = s32[4,128]{1,0:T(4,128)S(1)} parameter(1)
  %eq.409 = s32[4,128,129280]{2,1,0:T(8,128)} broadcast(%param_1.4953), dimensions={0,1}, metadata={op_name="jit(train_step)/jvp(jit(_one_hot))/eq" stack_frame_id=850}
  %eq.408 = s32[4,128,129280]{2,1,0:T(8,128)} iota(), iota_dimension=2, metadata={op_name="jit(train_step)/jvp(jit(_one_hot))/eq" stack_frame_id=850}
  %eq.407 = pred[4,128,129280]{2,1,0:T(8,128)(4,1)} compare(%eq.409, %eq.408), direction=EQ, metadata={op_name="jit(train_step)/jvp(jit(_one_hot))/eq" stack_frame_id=850}
  %convert_element_type.3196 = f32[4,128,129280]{2,1,0:T(8,128)} convert(%eq.407), metadata={op_name="jit(train_step)/jvp(jit(_one_hot))/convert_element_type" stack_frame_id=850}
  %sub.924 = f32[4,128,129280]{2,1,0:T(8,128)} subtract(%div.2796, %convert_element_type.3196), metadata={op_name="jit(train_step)/transpose(jvp())/sub" stack_frame_id=90}
  %mul.4977 = f32[4,128,129280]{2,1,0:T(8,128)} multiply(%mul.4980, %sub.924), metadata={op_name="jit(train_step)/transpose(jvp())/mul" stack_frame_id=90}
  ROOT %convert_element_type.3195 = bf16[4,128,129280]{2,1,0:T(8,128)(2,1)} convert(%mul.4977), metadata={op_name="jit(train_step)/transpose(jvp(TransformerLinenPure.apply))/TransformerLinenPure/decoder/decoder.apply_output_head/convert_element_type" stack_frame_id=834}
}

%fused_computation.939.clone.clone (param_0.4093: f32[4,128], param_1.4954: bf16[4,128,512], param_2.4227: bf16[512]) -> bf16[4,128,512] {
  %param_2.4227 = bf16[512]{0:T(512)(128)(2,1)S(1)} parameter(2)
  %dot_general.832 = bf16[4,128,512]{2,1,0:T(8,128)(2,1)} broadcast(%param_2.4227), dimensions={2}, metadata={op_name="jit(train_step)/jvp(TransformerLinenPure.apply)/TransformerLinenPure/decoder/decoder.apply_output_head/decoder_norm/...k,k->...k/dot_general" stack_frame_id=99}
  %param_1.4954 = bf16[4,128,512]{2,1,0:T(8,128)(2,1)S(1)} parameter(1)
  %convert_element_type.3199 = f32[4,128,512]{2,1,0:T(8,128)} convert(%param_1.4954), metadata={op_name="jit(train_step)/jvp(TransformerLinenPure.apply)/TransformerLinenPure/decoder/decoder.apply_output_head/decoder_norm/convert_element_type" stack_frame_id=813}
  %param_0.4093 = f32[4,128]{1,0:T(4,128)S(1)} parameter(0)
  %mul.4982 = f32[4,128,512]{2,1,0:T(8,128)} broadcast(%param_0.4093), dimensions={0,1}, metadata={op_name="jit(train_step)/jvp(TransformerLinenPure.apply)/TransformerLinenPure/decoder/decoder.apply_output_head/decoder_norm/mul" stack_frame_id=818}
  %mul.4981 = f32[4,128,512]{2,1,0:T(8,128)} multiply(%convert_element_type.3199, %mul.4982), metadata={op_name="jit(train_step)/jvp(TransformerLinenPure.apply)/TransformerLinenPure/decoder/decoder.apply_output_head/decoder_norm/mul" stack_frame_id=818}
  %convert_element_type.3198 = bf16[4,128,512]{2,1,0:T(8,128)(2,1)} convert(%mul.4981), metadata={op_name="jit(train_step)/jvp(TransformerLinenPure.apply)/TransformerLinenPure/decoder/decoder.apply_output_head/decoder_norm/convert_element_type" stack_frame_id=819}
  ROOT %dot_general.831 = bf16[4,128,512]{2,1,0:T(8,128)(2,1)} multiply(%dot_general.832, %convert_element_type.3198), metadata={op_name="jit(train_step)/jvp(TransformerLinenPure.apply)/TransformerLinenPure/decoder/decoder.apply_output_head/decoder_norm/...k,k->...k/dot_general" stack_frame_id=99}
}

%fused_computation.518 (param_0.4182: bf16[4,128,129280], param_1.5049: s32[4,128], param_2.4319: f32[4,128], param_3.2969: f32[4,128], param_4.2219: bf16[4,128], param_5.2020: f32[4,128], param_6.1457: f32[4,128], param_7.1138: bf16[4,128,512], param_8.902: bf16[512]) -> (f32[], bf16[512,129280,1]) {
  %param_6.1457 = f32[4,128]{1,0:T(4,128)S(1)} parameter(6)
  %param_7.1138 = bf16[4,128,512]{2,1,0:T(8,128)(2,1)S(1)} parameter(7)
  %param_8.902 = bf16[512]{0:T(512)(128)(2,1)S(1)} parameter(8)
  %fusion.577.clone.1 = bf16[4,128,512]{2,1,0:T(8,128)(2,1)} fusion(%param_6.1457, %param_7.1138, %param_8.902), kind=kLoop, calls=%fused_computation.939.clone.clone, metadata={op_name="jit(train_step)/jvp(TransformerLinenPure.apply)/TransformerLinenPure/decoder/decoder.apply_output_head/decoder_norm/...k,k->...k/dot_general" stack_frame_id=99}
  %param_0.4182 = bf16[4,128,129280]{2,1,0:T(8,128)(2,1)} parameter(0)
  %param_1.5049 = s32[4,128]{1,0:T(4,128)S(1)} parameter(1)
  %param_2.4319 = f32[4,128]{1,0:T(4,128)S(1)} parameter(2)
  %param_3.2969 = f32[4,128]{1,0:T(4,128)S(1)} parameter(3)
  %param_4.2219 = bf16[4,128]{1,0:T(4,128)(2,1)S(1)} parameter(4)
  %param_5.2020 = f32[4,128]{1,0:T(4,128)S(1)} parameter(5)
  %multiply_convert_fusion.1.clone.1 = bf16[4,128,129280]{2,1,0:T(8,128)(2,1)} fusion(%param_0.4182, %param_1.5049, %param_2.4319, %param_3.2969, %param_4.2219, /*index=5*/%param_5.2020), kind=kLoop, calls=%fused_computation.529.clone.clone.clone, metadata={op_name="jit(train_step)/transpose(jvp(TransformerLinenPure.apply))/TransformerLinenPure/decoder/decoder.apply_output_head/convert_element_type" stack_frame_id=834}
  %convolution.141.clone.1 = bf16[512,129280,1]{1,0,2:T(8,128)(2,1)} convolution(%fusion.577.clone.1, %multiply_convert_fusion.1.clone.1), window={size=4}, dim_labels=0fb_0io->bf0, metadata={op_name="jit(train_step)/transpose(jvp(TransformerLinenPure.apply))/TransformerLinenPure/decoder/decoder.apply_output_head/logits_dense/dot_general" stack_frame_id=832}
  %bitcast.776 = bf16[512,129280]{1,0:T(8,128)(2,1)} bitcast(%convolution.141.clone.1), metadata={op_name="jit(train_step)/transpose(jvp(TransformerLinenPure.apply))/TransformerLinenPure/decoder/decoder.apply_output_head/logits_dense/dot_general" stack_frame_id=832}
  %convert_element_type.2699 = f32[512,129280]{1,0:T(8,128)} convert(%bitcast.776), metadata={op_name="jit(train_step)/transpose(jvp(TransformerLinenPure.apply))/TransformerLinenPure/decoder/decoder.apply_output_head/logits_dense/convert_element_type" stack_frame_id=822}
  %square.581 = f32[512,129280]{1,0:T(8,128)} multiply(%convert_element_type.2699, %convert_element_type.2699), metadata={op_name="jit(train_step)/square" stack_frame_id=860}
  %constant.5478 = f32[]{:T(128)} constant(0)
  %reduce.678 = f32[]{:T(128)} reduce(%square.581, %constant.5478), dimensions={0,1}, to_apply=%region_155.180, metadata={op_name="jit(train_step)/reduce_sum" stack_frame_id=862}
  ROOT %tuple.768 = (f32[]{:T(128)}, bf16[512,129280,1]{1,0,2:T(8,128)(2,1)}) tuple(%reduce.678, %convolution.141.clone.1)
}

%region_174.199 (reduce_sum.564: f32[], reduce_sum.387: f32[]) -> f32[] {
  %reduce_sum.564 = f32[]{:T(128)} parameter(0), metadata={op_name="jit(train_step)/reduce_sum"}
  %reduce_sum.387 = f32[]{:T(128)} parameter(1), metadata={op_name="jit(train_step)/reduce_sum"}
  ROOT %reduce_sum.388 = f32[]{:T(128)} add(%reduce_sum.564, %reduce_sum.387), metadata={op_name="jit(train_step)/reduce_sum" stack_frame_id=862}, backend_config={"flag_configs":[],"scoped_memory_configs":[],"used_scoped_memory_configs":[],"aliasing_operands":{"lists":[]}}
}

%fused_computation.519 (param_0.4166: bf16[129280,512]) -> f32[] {
  %param_0.4166 = bf16[129280,512]{1,0:T(8,128)(2,1)} parameter(0)
  %convert_element_type.2701 = f32[129280,512]{1,0:T(8,128)} convert(%param_0.4166), metadata={op_name="jit(train_step)/transpose(jvp(TransformerLinenPure.apply))/TransformerLinenPure/decoder/decoder._apply_embedding/token_embedder/convert_element_type" stack_frame_id=103}
  %square.583 = f32[129280,512]{1,0:T(8,128)} multiply(%convert_element_type.2701, %convert_element_type.2701), metadata={op_name="jit(train_step)/square" stack_frame_id=860}
  %constant.5462 = f32[]{:T(128)} constant(0)
  ROOT %reduce.679 = f32[]{:T(128)} reduce(%square.583, %constant.5462), dimensions={0,1}, to_apply=%region_174.199, metadata={op_name="jit(train_step)/reduce_sum" stack_frame_id=862}
}

%region_240.265 (reduce_sum.1026: f32[], reduce_sum.689: f32[]) -> f32[] {
  %reduce_sum.1026 = f32[]{:T(128)} parameter(0), metadata={op_name="jit(train_step)/reduce_sum"}
  %reduce_sum.689 = f32[]{:T(128)} parameter(1), metadata={op_name="jit(train_step)/reduce_sum"}
  ROOT %reduce_sum.694 = f32[]{:T(128)} add(%reduce_sum.1026, %reduce_sum.689), metadata={op_name="jit(train_step)/reduce_sum" stack_frame_id=1629}, backend_config={"flag_configs":[],"scoped_memory_configs":[],"used_scoped_memory_configs":[],"aliasing_operands":{"lists":[]}}
}

%region_206.231 (reduce_sum.788: f32[], reduce_sum.533: f32[]) -> f32[] {
  %reduce_sum.788 = f32[]{:T(128)} parameter(0), metadata={op_name="jit(train_step)/reduce_sum"}
  %reduce_sum.533 = f32[]{:T(128)} parameter(1), metadata={op_name="jit(train_step)/reduce_sum"}
  ROOT %reduce_sum.534 = f32[]{:T(128)} add(%reduce_sum.788, %reduce_sum.533), metadata={op_name="jit(train_step)/reduce_sum" stack_frame_id=1605}, backend_config={"flag_configs":[],"scoped_memory_configs":[],"used_scoped_memory_configs":[],"aliasing_operands":{"lists":[]}}
}

%fused_computation.520 (param_0.4134: f32[129280,512], param_1.5006: f32[], param_2.4279: f32[], param_3.2932: f32[], param_4.2184: f32[129280,512], param_5.1987: f32[], param_6.1424: bf16[129280,512], param_7.1105: pred[], param_8.870: f32[129280,512]) -> (f32[], f32[129280,512], f32[129280,512], f32[129280,512], f32[]) {
  %param_0.4134 = f32[129280,512]{1,0:T(8,128)} parameter(0)
  %param_3.2932 = f32[]{:T(128)S(6)} parameter(3)
  %mul.4641.clone.1 = f32[129280,512]{1,0:T(8,128)} broadcast(%param_3.2932), dimensions={}, metadata={op_name="jit(train_step)/mul" stack_frame_id=62}
  %param_7.1105 = pred[]{:T(512)S(6)} parameter(7)
  %select_n.2339.clone.1 = pred[129280,512]{1,0:T(8,128)(4,1)} broadcast(%param_7.1105), dimensions={}, metadata={op_name="jit(train_step)/select_n" stack_frame_id=1563}
  %param_6.1424 = bf16[129280,512]{1,0:T(8,128)(2,1)} parameter(6)
  %convert_element_type.3140.clone.1 = f32[129280,512]{1,0:T(8,128)} convert(%param_6.1424), metadata={op_name="jit(train_step)/transpose(jvp(TransformerLinenPure.apply))/TransformerLinenPure/decoder/decoder._apply_embedding/token_embedder/convert_element_type" stack_frame_id=103}
  %param_5.1987 = f32[]{:T(128)} parameter(5)
  %div.2538.clone.1 = f32[129280,512]{1,0:T(8,128)} broadcast(%param_5.1987), dimensions={}, metadata={op_name="jit(train_step)/div" stack_frame_id=1564}
  %div.2537.clone.1 = f32[129280,512]{1,0:T(8,128)} divide(%convert_element_type.3140.clone.1, %div.2538.clone.1), metadata={op_name="jit(train_step)/div" stack_frame_id=1564}
  %select_n.2338.clone.1 = f32[129280,512]{1,0:T(8,128)} select(%select_n.2339.clone.1, %convert_element_type.3140.clone.1, %div.2537.clone.1), metadata={op_name="jit(train_step)/select_n" stack_frame_id=1563}
  %constant.5128.clone.1 = f32[]{:T(128)} constant(0.1)
  %broadcast.4367.clone.1 = f32[129280,512]{1,0:T(8,128)} broadcast(%constant.5128.clone.1), dimensions={}, metadata={op_name="broadcast.318"}
  %mul.4647.clone.1 = f32[129280,512]{1,0:T(8,128)} multiply(%select_n.2338.clone.1, %broadcast.4367.clone.1), metadata={op_name="jit(train_step)/mul" stack_frame_id=1567}
  %param_8.870 = f32[129280,512]{1,0:T(8,128)} parameter(8)
  %constant.5132.clone.1 = f32[]{:T(128)} constant(0.9)
  %mul.4648.clone.1 = f32[129280,512]{1,0:T(8,128)} broadcast(%constant.5132.clone.1), dimensions={}, metadata={op_name="jit(train_step)/mul" stack_frame_id=1568}
  %mul.4646.clone.1 = f32[129280,512]{1,0:T(8,128)} multiply(%param_8.870, %mul.4648.clone.1), metadata={op_name="jit(train_step)/mul" stack_frame_id=1568}
  %add.3527.clone.1 = f32[129280,512]{1,0:T(8,128)} add(%mul.4647.clone.1, %mul.4646.clone.1), metadata={op_name="jit(train_step)/add" stack_frame_id=1567}
  %param_2.4279 = f32[]{:T(128)S(6)} parameter(2)
  %div.2534.clone.1 = f32[129280,512]{1,0:T(8,128)} broadcast(%param_2.4279), dimensions={}, metadata={op_name="jit(train_step)/div" stack_frame_id=1578}
  %integer_pow.380.clone.1 = f32[129280,512]{1,0:T(8,128)} multiply(%select_n.2338.clone.1, %select_n.2338.clone.1), metadata={op_name="jit(train_step)/integer_pow" stack_frame_id=1582}
  %constant.5131.clone.1 = f32[]{:T(128)} constant(0.05)
  %mul.4645.clone.1 = f32[129280,512]{1,0:T(8,128)} broadcast(%constant.5131.clone.1), dimensions={}, metadata={op_name="jit(train_step)/mul" stack_frame_id=1585}
  %mul.4643.clone.1 = f32[129280,512]{1,0:T(8,128)} multiply(%integer_pow.380.clone.1, %mul.4645.clone.1), metadata={op_name="jit(train_step)/mul" stack_frame_id=1585}
  %param_4.2184 = f32[129280,512]{1,0:T(8,128)} parameter(4)
  %constant.5130.clone.1 = f32[]{:T(128)} constant(0.95)
  %mul.4644.clone.1 = f32[129280,512]{1,0:T(8,128)} broadcast(%constant.5130.clone.1), dimensions={}, metadata={op_name="jit(train_step)/mul" stack_frame_id=1586}
  %mul.4642.clone.1 = f32[129280,512]{1,0:T(8,128)} multiply(%param_4.2184, %mul.4644.clone.1), metadata={op_name="jit(train_step)/mul" stack_frame_id=1586}
  %add.3526.clone.1 = f32[129280,512]{1,0:T(8,128)} add(%mul.4643.clone.1, %mul.4642.clone.1), metadata={op_name="jit(train_step)/add" stack_frame_id=1585}
  %param_1.5006 = f32[]{:T(128)S(6)} parameter(1)
  %div.2533.clone.1 = f32[129280,512]{1,0:T(8,128)} broadcast(%param_1.5006), dimensions={}, metadata={op_name="jit(train_step)/div" stack_frame_id=1587}
  %div.2532.clone.1 = f32[129280,512]{1,0:T(8,128)} divide(%add.3526.clone.1, %div.2533.clone.1), metadata={op_name="jit(train_step)/div" stack_frame_id=1587}
  %sqrt.138.clone.1 = f32[129280,512]{1,0:T(8,128)} sqrt(%div.2532.clone.1), metadata={op_name="jit(train_step)/sqrt" stack_frame_id=1589}
  %constant.5129.clone.1 = f32[]{:T(128)} constant(1e-08)
  %add.3525.clone.1 = f32[129280,512]{1,0:T(8,128)} broadcast(%constant.5129.clone.1), dimensions={}, metadata={op_name="jit(train_step)/add" stack_frame_id=1589}
  %add.3524.clone.1 = f32[129280,512]{1,0:T(8,128)} add(%sqrt.138.clone.1, %add.3525.clone.1), metadata={op_name="jit(train_step)/add" stack_frame_id=1589}
  %multiply.1275.clone.1 = f32[129280,512]{1,0:T(8,128)} multiply(%div.2534.clone.1, %add.3524.clone.1), metadata={op_name="multiply.309"}
  %div.2531.clone.1 = f32[129280,512]{1,0:T(8,128)} divide(%add.3527.clone.1, %multiply.1275.clone.1), metadata={op_name="jit(train_step)/div" stack_frame_id=1590}
  %mul.4640.clone.1 = f32[129280,512]{1,0:T(8,128)} multiply(%param_0.4134, %broadcast.4367.clone.1), metadata={op_name="jit(train_step)/mul" stack_frame_id=1592}
  %add.3523.clone.1 = f32[129280,512]{1,0:T(8,128)} add(%div.2531.clone.1, %mul.4640.clone.1), metadata={op_name="jit(train_step)/add" stack_frame_id=1593}
  %mul.4639.clone.1 = f32[129280,512]{1,0:T(8,128)} multiply(%mul.4641.clone.1, %add.3523.clone.1), metadata={op_name="jit(train_step)/mul" stack_frame_id=62}
  %add.3522.clone.1 = f32[129280,512]{1,0:T(8,128)} add(%param_0.4134, %mul.4639.clone.1), metadata={op_name="jit(train_step)/add" stack_frame_id=1597}
  %square.584 = f32[129280,512]{1,0:T(8,128)} multiply(%add.3522.clone.1, %add.3522.clone.1), metadata={op_name="jit(train_step)/square" stack_frame_id=1628}
  %constant.5430 = f32[]{:T(128)} constant(0)
  %reduce.680 = f32[]{:T(128)} reduce(%square.584, %constant.5430), dimensions={0,1}, to_apply=%region_240.265, metadata={op_name="jit(train_step)/reduce_sum" stack_frame_id=1629}
  %reduce.687.clone.1 = f32[]{:T(128)} reduce(%integer_pow.380.clone.1, %constant.5430), dimensions={0,1}, to_apply=%region_206.231, metadata={op_name="jit(train_step)/reduce_sum" stack_frame_id=1605}
  ROOT %tuple.682 = (f32[]{:T(128)}, f32[129280,512]{1,0:T(8,128)}, f32[129280,512]{1,0:T(8,128)}, f32[129280,512]{1,0:T(8,128)}, f32[]{:T(128)}) tuple(%reduce.680, %add.3522.clone.1, %add.3526.clone.1, %add.3527.clone.1, %reduce.687.clone.1)
}

%region_222.247 (reduce_sum.900: f32[], reduce_sum.605: f32[]) -> f32[] {
  %reduce_sum.900 = f32[]{:T(128)} parameter(0), metadata={op_name="jit(train_step)/reduce_sum"}
  %reduce_sum.605 = f32[]{:T(128)} parameter(1), metadata={op_name="jit(train_step)/reduce_sum"}
  ROOT %reduce_sum.610 = f32[]{:T(128)} add(%reduce_sum.900, %reduce_sum.605), metadata={op_name="jit(train_step)/reduce_sum" stack_frame_id=1629}, backend_config={"flag_configs":[],"scoped_memory_configs":[],"used_scoped_memory_configs":[],"aliasing_operands":{"lists":[]}}
}

%region_188.213 (reduce_sum.662: f32[], reduce_sum.451: f32[]) -> f32[] {
  %reduce_sum.662 = f32[]{:T(128)} parameter(0), metadata={op_name="jit(train_step)/reduce_sum"}
  %reduce_sum.451 = f32[]{:T(128)} parameter(1), metadata={op_name="jit(train_step)/reduce_sum"}
  ROOT %reduce_sum.455 = f32[]{:T(128)} add(%reduce_sum.662, %reduce_sum.451), metadata={op_name="jit(train_step)/reduce_sum" stack_frame_id=1605}, backend_config={"flag_configs":[],"scoped_memory_configs":[],"used_scoped_memory_configs":[],"aliasing_operands":{"lists":[]}}
}

%fused_computation.521 (param_0.4152: f32[512,129280], param_1.5024: f32[], param_2.4297: f32[], param_3.2950: f32[], param_4.2202: f32[512,129280], param_5.2005: f32[], param_6.1442: bf16[512,129280,1], param_7.1123: pred[], param_8.888: f32[512,129280]) -> (f32[], f32[512,129280], f32[512,129280], f32[512,129280], f32[]) {
  %param_0.4152 = f32[512,129280]{1,0:T(8,128)} parameter(0)
  %param_3.2950 = f32[]{:T(128)S(6)} parameter(3)
  %mul.4794.clone.1 = f32[512,129280]{1,0:T(8,128)} broadcast(%param_3.2950), dimensions={}, metadata={op_name="jit(train_step)/mul" stack_frame_id=62}
  %param_7.1123 = pred[]{:T(512)S(6)} parameter(7)
  %select_n.2395.clone.1 = pred[512,129280]{1,0:T(8,128)(4,1)} broadcast(%param_7.1123), dimensions={}, metadata={op_name="jit(train_step)/select_n" stack_frame_id=1563}
  %param_6.1442 = bf16[512,129280,1]{1,0,2:T(8,128)(2,1)} parameter(6)
  %bitcast.1372.clone.1 = bf16[512,129280]{1,0:T(8,128)(2,1)} bitcast(%param_6.1442), metadata={op_name="jit(train_step)/transpose(jvp(TransformerLinenPure.apply))/TransformerLinenPure/decoder/decoder.apply_output_head/logits_dense/dot_general" stack_frame_id=832}
  %convert_element_type.3142.clone.1 = f32[512,129280]{1,0:T(8,128)} convert(%bitcast.1372.clone.1), metadata={op_name="jit(train_step)/transpose(jvp(TransformerLinenPure.apply))/TransformerLinenPure/decoder/decoder.apply_output_head/logits_dense/convert_element_type" stack_frame_id=822}
  %param_5.2005 = f32[]{:T(128)} parameter(5)
  %div.2666.clone.1 = f32[512,129280]{1,0:T(8,128)} broadcast(%param_5.2005), dimensions={}, metadata={op_name="jit(train_step)/div" stack_frame_id=1564}
  %div.2665.clone.1 = f32[512,129280]{1,0:T(8,128)} divide(%convert_element_type.3142.clone.1, %div.2666.clone.1), metadata={op_name="jit(train_step)/div" stack_frame_id=1564}
  %select_n.2394.clone.1 = f32[512,129280]{1,0:T(8,128)} select(%select_n.2395.clone.1, %convert_element_type.3142.clone.1, %div.2665.clone.1), metadata={op_name="jit(train_step)/select_n" stack_frame_id=1563}
  %constant.5232.clone.1 = f32[]{:T(128)} constant(0.1)
  %broadcast.4435.clone.1 = f32[512,129280]{1,0:T(8,128)} broadcast(%constant.5232.clone.1), dimensions={}, metadata={op_name="broadcast.333"}
  %mul.4800.clone.1 = f32[512,129280]{1,0:T(8,128)} multiply(%select_n.2394.clone.1, %broadcast.4435.clone.1), metadata={op_name="jit(train_step)/mul" stack_frame_id=1567}
  %param_8.888 = f32[512,129280]{1,0:T(8,128)} parameter(8)
  %constant.5236.clone.1 = f32[]{:T(128)} constant(0.9)
  %mul.4801.clone.1 = f32[512,129280]{1,0:T(8,128)} broadcast(%constant.5236.clone.1), dimensions={}, metadata={op_name="jit(train_step)/mul" stack_frame_id=1568}
  %mul.4799.clone.1 = f32[512,129280]{1,0:T(8,128)} multiply(%param_8.888, %mul.4801.clone.1), metadata={op_name="jit(train_step)/mul" stack_frame_id=1568}
  %add.3626.clone.1 = f32[512,129280]{1,0:T(8,128)} add(%mul.4800.clone.1, %mul.4799.clone.1), metadata={op_name="jit(train_step)/add" stack_frame_id=1567}
  %param_2.4297 = f32[]{:T(128)S(6)} parameter(2)
  %div.2662.clone.1 = f32[512,129280]{1,0:T(8,128)} broadcast(%param_2.4297), dimensions={}, metadata={op_name="jit(train_step)/div" stack_frame_id=1578}
  %integer_pow.398.clone.1 = f32[512,129280]{1,0:T(8,128)} multiply(%select_n.2394.clone.1, %select_n.2394.clone.1), metadata={op_name="jit(train_step)/integer_pow" stack_frame_id=1582}
  %constant.5235.clone.1 = f32[]{:T(128)} constant(0.05)
  %mul.4798.clone.1 = f32[512,129280]{1,0:T(8,128)} broadcast(%constant.5235.clone.1), dimensions={}, metadata={op_name="jit(train_step)/mul" stack_frame_id=1585}
  %mul.4796.clone.1 = f32[512,129280]{1,0:T(8,128)} multiply(%integer_pow.398.clone.1, %mul.4798.clone.1), metadata={op_name="jit(train_step)/mul" stack_frame_id=1585}
  %param_4.2202 = f32[512,129280]{1,0:T(8,128)} parameter(4)
  %constant.5234.clone.1 = f32[]{:T(128)} constant(0.95)
  %mul.4797.clone.1 = f32[512,129280]{1,0:T(8,128)} broadcast(%constant.5234.clone.1), dimensions={}, metadata={op_name="jit(train_step)/mul" stack_frame_id=1586}
  %mul.4795.clone.1 = f32[512,129280]{1,0:T(8,128)} multiply(%param_4.2202, %mul.4797.clone.1), metadata={op_name="jit(train_step)/mul" stack_frame_id=1586}
  %add.3625.clone.1 = f32[512,129280]{1,0:T(8,128)} add(%mul.4796.clone.1, %mul.4795.clone.1), metadata={op_name="jit(train_step)/add" stack_frame_id=1585}
  %param_1.5024 = f32[]{:T(128)S(6)} parameter(1)
  %div.2661.clone.1 = f32[512,129280]{1,0:T(8,128)} broadcast(%param_1.5024), dimensions={}, metadata={op_name="jit(train_step)/div" stack_frame_id=1587}
  %div.2660.clone.1 = f32[512,129280]{1,0:T(8,128)} divide(%add.3625.clone.1, %div.2661.clone.1), metadata={op_name="jit(train_step)/div" stack_frame_id=1587}
  %sqrt.156.clone.1 = f32[512,129280]{1,0:T(8,128)} sqrt(%div.2660.clone.1), metadata={op_name="jit(train_step)/sqrt" stack_frame_id=1589}
  %constant.5233.clone.1 = f32[]{:T(128)} constant(1e-08)
  %add.3624.clone.1 = f32[512,129280]{1,0:T(8,128)} broadcast(%constant.5233.clone.1), dimensions={}, metadata={op_name="jit(train_step)/add" stack_frame_id=1589}
  %add.3623.clone.1 = f32[512,129280]{1,0:T(8,128)} add(%sqrt.156.clone.1, %add.3624.clone.1), metadata={op_name="jit(train_step)/add" stack_frame_id=1589}
  %multiply.1293.clone.1 = f32[512,129280]{1,0:T(8,128)} multiply(%div.2662.clone.1, %add.3623.clone.1), metadata={op_name="multiply.291"}
  %div.2659.clone.1 = f32[512,129280]{1,0:T(8,128)} divide(%add.3626.clone.1, %multiply.1293.clone.1), metadata={op_name="jit(train_step)/div" stack_frame_id=1590}
  %mul.4793.clone.1 = f32[512,129280]{1,0:T(8,128)} multiply(%param_0.4152, %broadcast.4435.clone.1), metadata={op_name="jit(train_step)/mul" stack_frame_id=1592}
  %add.3622.clone.1 = f32[512,129280]{1,0:T(8,128)} add(%div.2659.clone.1, %mul.4793.clone.1), metadata={op_name="jit(train_step)/add" stack_frame_id=1593}
  %mul.4792.clone.1 = f32[512,129280]{1,0:T(8,128)} multiply(%mul.4794.clone.1, %add.3622.clone.1), metadata={op_name="jit(train_step)/mul" stack_frame_id=62}
  %add.3621.clone.1 = f32[512,129280]{1,0:T(8,128)} add(%param_0.4152, %mul.4792.clone.1), metadata={op_name="jit(train_step)/add" stack_frame_id=1597}
  %square.585 = f32[512,129280]{1,0:T(8,128)} multiply(%add.3621.clone.1, %add.3621.clone.1), metadata={op_name="jit(train_step)/square" stack_frame_id=1628}
  %constant.5448 = f32[]{:T(128)} constant(0)
  %reduce.681 = f32[]{:T(128)} reduce(%square.585, %constant.5448), dimensions={0,1}, to_apply=%region_222.247, metadata={op_name="jit(train_step)/reduce_sum" stack_frame_id=1629}
  %reduce.688.clone.1 = f32[]{:T(128)} reduce(%integer_pow.398.clone.1, %constant.5448), dimensions={0,1}, to_apply=%region_188.213, metadata={op_name="jit(train_step)/reduce_sum" stack_frame_id=1605}
  ROOT %tuple.683 = (f32[]{:T(128)}, f32[512,129280]{1,0:T(8,128)}, f32[512,129280]{1,0:T(8,128)}, f32[512,129280]{1,0:T(8,128)}, f32[]{:T(128)}) tuple(%reduce.681, %add.3621.clone.1, %add.3625.clone.1, %add.3626.clone.1, %reduce.688.clone.1)
}

%region_207.232 (reduce_sum.795: f32[], reduce_sum.535: f32[]) -> f32[] {
…
  %mul.5012 = f32[4,128,512]{1,2,0:T(8,128)} broadcast(%param_0.4113), dimensions={0,1}, metadata={op_name="jit(train_step)/jvp(TransformerLinenPure.apply)/TransformerLinenPure/decoder/moe_layers.wrapped_fn/while/body/closed_call/moe_layers/mul" stack_frame_id=600}
  %mul.5011 = f32[4,128,512]{1,2,0:T(8,128)} multiply(%convert_element_type.3207, %mul.5012), metadata={op_name="jit(train_step)/jvp(TransformerLinenPure.apply)/TransformerLinenPure/decoder/moe_layers.wrapped_fn/while/body/closed_call/moe_layers/mul" stack_frame_id=600}
  %convert_element_type.3206 = bf16[4,128,512]{1,2,0:T(8,128)(2,1)} convert(%mul.5011), metadata={op_name="jit(train_step)/jvp(TransformerLinenPure.apply)/TransformerLinenPure/decoder/moe_layers.wrapped_fn/while/body/closed_call/moe_layers/convert_element_type" stack_frame_id=601}
  %dot_general.839 = bf16[4,128,512]{1,2,0:T(8,128)(2,1)} multiply(%dot_general.840, %convert_element_type.3206), metadata={op_name="jit(train_step)/jvp(TransformerLinenPure.apply)/TransformerLinenPure/decoder/moe_layers.wrapped_fn/while/body/closed_call/moe_layers/...k,k->...k/dot_general" stack_frame_id=584}
  ROOT %bitcast.1462 = bf16[4,128,512,1]{1,2,3,0:T(8,128)(2,1)} bitcast(%dot_general.839), metadata={op_name="jit(train_step)/jvp(TransformerLinenPure.apply)/TransformerLinenPure/decoder/moe_layers.wrapped_fn/while/body/closed_call/moe_layers/...k,k->...k/dot_general" stack_frame_id=584}
}

%fused_computation.619 (param_0.4169: bf16[4,128,128,128], param_1.5040: bf16[4,128,128,128], param_2.4313: f32[4,128], param_3.2966: bf16[4,128,576], param_4.2217: bf16[512]) -> (f32[], bf16[512,128,256,1]) {
  %param_2.4313 = f32[4,128]{1,0:T(4,128)S(1)} parameter(2)
  %param_3.2966 = bf16[4,128,576]{1,2,0:T(8,128)(2,1)S(1)} parameter(3)
  %param_4.2217 = bf16[512]{0:T(512)(128)(2,1)S(1)} parameter(4)
  %fusion.560.clone.1 = bf16[4,128,512,1]{1,2,3,0:T(8,128)(2,1)} fusion(%param_2.4313, %param_3.2966, %param_4.2217), kind=kLoop, calls=%fused_computation.910.clone.clone, metadata={op_name="jit(train_step)/jvp(TransformerLinenPure.apply)/TransformerLinenPure/decoder/moe_layers.wrapped_fn/while/body/closed_call/moe_layers/...k,k->...k/dot_general" stack_frame_id=584}
  %param_0.4169 = bf16[4,128,128,128]{3,1,2,0:T(8,128)(2,1)} parameter(0)
  %param_1.5040 = bf16[4,128,128,128]{3,1,2,0:T(8,128)(2,1)S(1)} parameter(1)
  %pad_maximum_fusion.19.clone.1 = bf16[4,128,128,256]{3,1,2,0:T(8,128)(2,1)} fusion(%param_0.4169, %param_1.5040), kind=kLoop, calls=%fused_computation.643.clone.clone.clone, metadata={op_name="jit(train_step)/transpose(jvp(TransformerLinenPure.apply))/TransformerLinenPure/decoder/moe_layers.wrapped_fn/while/body/closed_call/checkpoint/moe_layers/concatenate" stack_frame_id=1039}
  %convolution.136.clone.1 = bf16[512,128,256,1]{2,0,1,3:T(8,128)(2,1)} convolution(%fusion.560.clone.1, %pad_maximum_fusion.19.clone.1), window={size=128x4 pad=127_127x0_0 rhs_reversal=1x0}, dim_labels=1fb0_1i0o->b0f1, metadata={op_name="jit(train_step)/transpose(jvp(TransformerLinenPure.apply))/TransformerLinenPure/decoder/moe_layers.wrapped_fn/while/body/closed_call/checkpoint/moe_layers/dot_general" stack_frame_id=1038}
  %bitcast.914 = bf16[512,128,256]{2,0,1:T(8,128)(2,1)} bitcast(%convolution.136.clone.1), metadata={op_name="jit(train_step)/transpose(jvp(TransformerLinenPure.apply))/TransformerLinenPure/decoder/moe_layers.wrapped_fn/while/body/closed_call/checkpoint/moe_layers/dot_general" stack_frame_id=1038}
  %broadcast_in_dim.1526 = f32[512,128,256]{2,0,1:T(8,128)} convert(%bitcast.914), metadata={op_name="jit(train_step)/transpose(jvp(TransformerLinenPure.apply))/TransformerLinenPure/decoder/moe_layers.wrapped_fn/while/body/broadcast_in_dim" stack_frame_id=480}
  %bitcast.876 = f32[512,1,128,256]{3,0,2,1:T(8,128)} bitcast(%broadcast_in_dim.1526), metadata={op_name="jit(train_step)/transpose(jvp(TransformerLinenPure.apply))/TransformerLinenPure/decoder/moe_layers.wrapped_fn/transpose" stack_frame_id=427}
  %square.612 = f32[512,1,128,256]{3,0,2,1:T(8,128)} multiply(%bitcast.876, %bitcast.876), metadata={op_name="jit(train_step)/square" stack_frame_id=860}
  %constant.5465 = f32[]{:T(128)} constant(0)
  %reduce.707 = f32[]{:T(128)} reduce(%square.612, %constant.5465), dimensions={0,1,2,3}, to_apply=%region_170.195, metadata={op_name="jit(train_step)/reduce_sum" stack_frame_id=862}
  ROOT %tuple.775 = (f32[]{:T(128)}, bf16[512,128,256,1]{2,0,1,3:T(8,128)(2,1)}) tuple(%reduce.707, %convolution.136.clone.1)
}

%region_237.262 (reduce_sum.1005: f32[], reduce_sum.675: f32[]) -> f32[] {
  %reduce_sum.1005 = f32[]{:T(128)} parameter(0), metadata={op_name="jit(train_step)/reduce_sum"}
  %reduce_sum.675 = f32[]{:T(128)} parameter(1), metadata={op_name="jit(train_step)/reduce_sum"}
  ROOT %reduce_sum.680 = f32[]{:T(128)} add(%reduce_sum.1005, %reduce_sum.675), metadata={op_name="jit(train_step)/reduce_sum" stack_frame_id=1629}, backend_config={"flag_configs":[],"scoped_memory_configs":[],"used_scoped_memory_configs":[],"aliasing_operands":{"lists":[]}}
}

%region_203.228 (reduce_sum.767: f32[], reduce_sum.519: f32[]) -> f32[] {
  %reduce_sum.767 = f32[]{:T(128)} parameter(0), metadata={op_name="jit(train_step)/reduce_sum"}
  %reduce_sum.519 = f32[]{:T(128)} parameter(1), metadata={op_name="jit(train_step)/reduce_sum"}
  ROOT %reduce_sum.520 = f32[]{:T(128)} add(%reduce_sum.767, %reduce_sum.519), metadata={op_name="jit(train_step)/reduce_sum" stack_frame_id=1605}, backend_config={"flag_configs":[],"scoped_memory_configs":[],"used_scoped_memory_configs":[],"aliasing_operands":{"lists":[]}}
}

%fused_computation.624 (param_0.4137: f32[], param_1.5009: f32[], param_2.4282: f32[], param_3.2935: f32[512,1,128,256], param_4.2187: f32[512,1,128,256], param_5.1990: f32[], param_6.1427: bf16[512,128,256,1], param_7.1108: pred[], param_8.873: f32[512,1,128,256]) -> (f32[], f32[512,1,128,256], f32[512,1,128,256], f32[512,1,128,256], f32[]) {
  %param_3.2935 = f32[512,1,128,256]{3,2,1,0:T(8,128)S(1)} parameter(3)
  %copy.1679.clone.1 = f32[512,1,128,256]{3,0,2,1:T(8,128)} copy(%param_3.2935), sharding={replicated}, metadata={op_name="state.params[\'params\'][\'decoder\'][\'moe_layers\'][\'self_attention\'][\'wkv_b\'][\'kernel\']"}
  %param_2.4282 = f32[]{:T(128)S(6)} parameter(2)
  %mul.4671.clone.1 = f32[512,1,128,256]{3,0,2,1:T(8,128)} broadcast(%param_2.4282), dimensions={}, metadata={op_name="jit(train_step)/mul" stack_frame_id=62}
  %param_7.1108 = pred[]{:T(512)S(6)} parameter(7)
  %select_n.2351.clone.1 = pred[512,1,128,256]{3,0,2,1:T(8,128)(4,1)} broadcast(%param_7.1108), dimensions={}, metadata={op_name="jit(train_step)/select_n" stack_frame_id=1563}
  %param_6.1427 = bf16[512,128,256,1]{2,0,1,3:T(8,128)(2,1)} parameter(6)
  %bitcast.1345.clone.1 = bf16[512,128,256]{2,0,1:T(8,128)(2,1)} bitcast(%param_6.1427), metadata={op_name="jit(train_step)/transpose(jvp(TransformerLinenPure.apply))/TransformerLinenPure/decoder/moe_layers.wrapped_fn/while/body/closed_call/checkpoint/moe_layers/dot_general" stack_frame_id=1038}
  %broadcast_in_dim.1670.clone.1 = f32[512,128,256]{2,0,1:T(8,128)} convert(%bitcast.1345.clone.1), metadata={op_name="jit(train_step)/transpose(jvp(TransformerLinenPure.apply))/TransformerLinenPure/decoder/moe_layers.wrapped_fn/while/body/broadcast_in_dim" stack_frame_id=480}
  %bitcast.1344.clone.1 = f32[512,1,128,256]{3,0,2,1:T(8,128)} bitcast(%broadcast_in_dim.1670.clone.1), metadata={op_name="jit(train_step)/transpose(jvp(TransformerLinenPure.apply))/TransformerLinenPure/decoder/moe_layers.wrapped_fn/transpose" stack_frame_id=427}
  %param_5.1990 = f32[]{:T(128)} parameter(5)
  %div.2562.clone.1 = f32[512,1,128,256]{3,0,2,1:T(8,128)} broadcast(%param_5.1990), dimensions={}, metadata={op_name="jit(train_step)/div" stack_frame_id=1564}
  %div.2561.clone.1 = f32[512,1,128,256]{3,0,2,1:T(8,128)} divide(%bitcast.1344.clone.1, %div.2562.clone.1), metadata={op_name="jit(train_step)/div" stack_frame_id=1564}
  %select_n.2350.clone.1 = f32[512,1,128,256]{3,0,2,1:T(8,128)} select(%select_n.2351.clone.1, %bitcast.1344.clone.1, %div.2561.clone.1), metadata={op_name="jit(train_step)/select_n" stack_frame_id=1563}
  %constant.5146.clone.1 = f32[]{:T(128)} constant(0.1)
  %broadcast.4373.clone.1 = f32[512,1,128,256]{3,0,2,1:T(8,128)} broadcast(%constant.5146.clone.1), dimensions={}, metadata={op_name="broadcast.2417"}
  %mul.4677.clone.1 = f32[512,1,128,256]{3,0,2,1:T(8,128)} multiply(%select_n.2350.clone.1, %broadcast.4373.clone.1), metadata={op_name="jit(train_step)/mul" stack_frame_id=1567}
  %param_8.873 = f32[512,1,128,256]{3,2,1,0:T(8,128)} parameter(8)
  %copy.1681.clone.1 = f32[512,1,128,256]{3,0,2,1:T(8,128)} copy(%param_8.873), sharding={replicated}, metadata={op_name="state.opt_state[0].mu[\'params\'][\'decoder\'][\'moe_layers\'][\'self_attention\'][\'wkv_b\'][\'kernel\']"}
  %constant.5150.clone.1 = f32[]{:T(128)} constant(0.9)
  %mul.4678.clone.1 = f32[512,1,128,256]{3,0,2,1:T(8,128)} broadcast(%constant.5150.clone.1), dimensions={}, metadata={op_name="jit(train_step)/mul" stack_frame_id=1568}
  %mul.4676.clone.1 = f32[512,1,128,256]{3,0,2,1:T(8,128)} multiply(%copy.1681.clone.1, %mul.4678.clone.1), metadata={op_name="jit(train_step)/mul" stack_frame_id=1568}
  %add.3545.clone.1 = f32[512,1,128,256]{3,0,2,1:T(8,128)} add(%mul.4677.clone.1, %mul.4676.clone.1), metadata={op_name="jit(train_step)/add" stack_frame_id=1567}
  %param_1.5009 = f32[]{:T(128)S(6)} parameter(1)
  %div.2558.clone.1 = f32[512,1,128,256]{3,0,2,1:T(8,128)} broadcast(%param_1.5009), dimensions={}, metadata={op_name="jit(train_step)/div" stack_frame_id=1578}
  %integer_pow.383.clone.1 = f32[512,1,128,256]{3,0,2,1:T(8,128)} multiply(%select_n.2350.clone.1, %select_n.2350.clone.1), metadata={op_name="jit(train_step)/integer_pow" stack_frame_id=1582}
  %constant.5149.clone.1 = f32[]{:T(128)} constant(0.05)
  %mul.4675.clone.1 = f32[512,1,128,256]{3,0,2,1:T(8,128)} broadcast(%constant.5149.clone.1), dimensions={}, metadata={op_name="jit(train_step)/mul" stack_frame_id=1585}
  %mul.4673.clone.1 = f32[512,1,128,256]{3,0,2,1:T(8,128)} multiply(%integer_pow.383.clone.1, %mul.4675.clone.1), metadata={op_name="jit(train_step)/mul" stack_frame_id=1585}
  %param_4.2187 = f32[512,1,128,256]{3,2,1,0:T(8,128)} parameter(4)
  %copy.1680.clone.1 = f32[512,1,128,256]{3,0,2,1:T(8,128)} copy(%param_4.2187), sharding={replicated}, metadata={op_name="state.opt_state[0].nu[\'params\'][\'decoder\'][\'moe_layers\'][\'self_attention\'][\'wkv_b\'][\'kernel\']"}
  %constant.5148.clone.1 = f32[]{:T(128)} constant(0.95)
  %mul.4674.clone.1 = f32[512,1,128,256]{3,0,2,1:T(8,128)} broadcast(%constant.5148.clone.1), dimensions={}, metadata={op_name="jit(train_step)/mul" stack_frame_id=1586}
  %mul.4672.clone.1 = f32[512,1,128,256]{3,0,2,1:T(8,128)} multiply(%copy.1680.clone.1, %mul.4674.clone.1), metadata={op_name="jit(train_step)/mul" stack_frame_id=1586}
  %add.3544.clone.1 = f32[512,1,128,256]{3,0,2,1:T(8,128)} add(%mul.4673.clone.1, %mul.4672.clone.1), metadata={op_name="jit(train_step)/add" stack_frame_id=1585}
  %param_0.4137 = f32[]{:T(128)S(6)} parameter(0)
  %div.2557.clone.1 = f32[512,1,128,256]{3,0,2,1:T(8,128)} broadcast(%param_0.4137), dimensions={}, metadata={op_name="jit(train_step)/div" stack_frame_id=1587}
  %div.2556.clone.1 = f32[512,1,128,256]{3,0,2,1:T(8,128)} divide(%add.3544.clone.1, %div.2557.clone.1), metadata={op_name="jit(train_step)/div" stack_frame_id=1587}
  %sqrt.141.clone.1 = f32[512,1,128,256]{3,0,2,1:T(8,128)} sqrt(%div.2556.clone.1), metadata={op_name="jit(train_step)/sqrt" stack_frame_id=1589}
  %constant.5147.clone.1 = f32[]{:T(128)} constant(1e-08)
  %add.3543.clone.1 = f32[512,1,128,256]{3,0,2,1:T(8,128)} broadcast(%constant.5147.clone.1), dimensions={}, metadata={op_name="jit(train_step)/add" stack_frame_id=1589}
  %add.3542.clone.1 = f32[512,1,128,256]{3,0,2,1:T(8,128)} add(%sqrt.141.clone.1, %add.3543.clone.1), metadata={op_name="jit(train_step)/add" stack_frame_id=1589}
  %multiply.1278.clone.1 = f32[512,1,128,256]{3,0,2,1:T(8,128)} multiply(%div.2558.clone.1, %add.3542.clone.1), metadata={op_name="multiply.306"}
  %div.2555.clone.1 = f32[512,1,128,256]{3,0,2,1:T(8,128)} divide(%add.3545.clone.1, %multiply.1278.clone.1), metadata={op_name="jit(train_step)/div" stack_frame_id=1590}
  %mul.4670.clone.1 = f32[512,1,128,256]{3,0,2,1:T(8,128)} multiply(%copy.1679.clone.1, %broadcast.4373.clone.1), metadata={op_name="jit(train_step)/mul" stack_frame_id=1592}
  %add.3541.clone.1 = f32[512,1,128,256]{3,0,2,1:T(8,128)} add(%div.2555.clone.1, %mul.4670.clone.1), metadata={op_name="jit(train_step)/add" stack_frame_id=1593}
  %mul.4669.clone.1 = f32[512,1,128,256]{3,0,2,1:T(8,128)} multiply(%mul.4671.clone.1, %add.3541.clone.1), metadata={op_name="jit(train_step)/mul" stack_frame_id=62}
  %add.3540.clone.1 = f32[512,1,128,256]{3,0,2,1:T(8,128)} add(%copy.1679.clone.1, %mul.4669.clone.1), metadata={op_name="jit(train_step)/add" stack_frame_id=1597}
  %square.613 = f32[512,1,128,256]{3,0,2,1:T(8,128)} multiply(%add.3540.clone.1, %add.3540.clone.1), metadata={op_name="jit(train_step)/square" stack_frame_id=1628}
  %constant.5433 = f32[]{:T(128)} constant(0)
  %reduce.708 = f32[]{:T(128)} reduce(%square.613, %constant.5433), dimensions={0,1,2,3}, to_apply=%region_237.262, metadata={op_name="jit(train_step)/reduce_sum" stack_frame_id=1629}
  %reduce.709.clone.1 = f32[]{:T(128)} reduce(%integer_pow.383.clone.1, %constant.5433), dimensions={0,1,2,3}, to_apply=%region_203.228, metadata={op_name="jit(train_step)/reduce_sum" stack_frame_id=1605}
  ROOT %tuple.697 = (f32[]{:T(128)}, f32[512,1,128,256]{3,0,2,1:T(8,128)}, f32[512,1,128,256]{3,0,2,1:T(8,128)}, f32[512,1,128,256]{3,0,2,1:T(8,128)}, f32[]{:T(128)}) tuple(%reduce.708, %add.3540.clone.1, %add.3544.clone.1, %add.3545.clone.1, %reduce.709.clone.1)
}

%fused_computation.635 (param_0.1851: bf16[4,128,128,128], param_1.4520: bf16[4,128,128,64], param_2.4169: bf16[4,128,128,64]) -> (bf16[4,128,128,192], bf16[4,128,128,192]) {
  %param_0.1851 = bf16[4,128,128,128]{3,1,2,0:T(8,128)(2,1)} parameter(0)
  %constant.4879 = bf16[]{:T(256)} constant(-inf)
  %pad.295 = bf16[4,128,128,192]{3,1,2,0:T(8,128)(2,1)} pad(%param_0.1851, %constant.4879), padding=0_0x0_0x0_0x0_64, metadata={op_name="jit(train_step)/jvp(TransformerLinenPure.apply)/TransformerLinenPure/decoder/moe_layers.wrapped_fn/while/body/closed_call/moe_layers/concatenate" stack_frame_id=633}
  %param_1.4520 = bf16[4,128,128,64]{3,1,2,0:T(8,128)(2,1)} parameter(1)
  %pad.313 = bf16[4,128,128,192]{3,1,2,0:T(8,128)(2,1)} pad(%param_1.4520, %constant.4879), padding=0_0x0_0x0_0x128_0, metadata={op_name="jit(train_step)/transpose(jvp(TransformerLinenPure.apply))/TransformerLinenPure/decoder/moe_layers.wrapped_fn/while/body/closed_call/checkpoint/rematted_computation/moe_layers/concatenate" stack_frame_id=1056}
  %maximum.53 = bf16[4,128,128,192]{3,1,2,0:T(8,128)(2,1)} maximum(%pad.295, %pad.313), metadata={op_name="jit(train_step)/transpose(jvp(TransformerLinenPure.apply))/TransformerLinenPure/decoder/moe_layers.wrapped_fn/while/body/closed_call/checkpoint/rematted_computation/moe_layers/concatenate" stack_frame_id=1056}
  %bitcast.908 = bf16[4,128,128,192]{3,2,1,0:T(8,128)(2,1)} bitcast(%maximum.53), metadata={op_name="jit(train_step)/transpose(jvp(TransformerLinenPure.apply))/TransformerLinenPure/decoder/moe_layers.wrapped_fn/while/body/closed_call/checkpoint/rematted_computation/moe_layers/transpose" stack_frame_id=1060}
  %param_2.4169 = bf16[4,128,128,64]{3,1,2,0:T(8,128)(2,1)} parameter(2)
  %pad.310.clone.1 = bf16[4,128,128,192]{3,1,2,0:T(8,128)(2,1)} pad(%param_2.4169, %constant.4879), padding=0_0x0_0x0_0x128_0, metadata={op_name="jit(train_step)/jvp(TransformerLinenPure.apply)/TransformerLinenPure/decoder/moe_layers.wrapped_fn/while/body/closed_call/moe_layers/concatenate" stack_frame_id=633}
  %maximum.51.clone.1 = bf16[4,128,128,192]{3,1,2,0:T(8,128)(2,1)} maximum(%pad.295, %pad.310.clone.1), metadata={op_name="jit(train_step)/jvp(TransformerLinenPure.apply)/TransformerLinenPure/decoder/moe_layers.wrapped_fn/while/body/closed_call/moe_layers/concatenate" stack_frame_id=633}
  %bitcast.907.clone.1 = bf16[4,128,128,192]{3,2,1,0:T(8,128)(2,1)} bitcast(%maximum.51.clone.1), metadata={op_name="jit(train_step)/jvp(TransformerLinenPure.apply)/TransformerLinenPure/decoder/moe_layers.wrapped_fn/while/body/closed_call/moe_layers/transpose" stack_frame_id=637}
  ROOT %tuple.703 = (bf16[4,128,128,192]{3,2,1,0:T(8,128)(2,1)}, bf16[4,128,128,192]{3,2,1,0:T(8,128)(2,1)}) tuple(%bitcast.908, %bitcast.907.clone.1)
}

%fused_computation.641 (param_0.2006: bf16[4,128,128,128], param_1.4525: bf16[4,128,128,32], param_2.3661: bf16[4,128,128,32], param_3.2854: bf16[4,128,128,32], param_4.2097: bf16[4,128,128,32]) -> (bf16[4,128,128,192], bf16[4,128,128,192]) {
  %param_0.2006 = bf16[4,128,128,128]{3,1,2,0:T(8,128)(2,1)S(1)} parameter(0)
  %constant.4887 = bf16[]{:T(256)} constant(-inf)
  %pad.307 = bf16[4,128,128,192]{3,1,2,0:T(8,128)(2,1)} pad(%param_0.2006, %constant.4887), padding=0_0x0_0x0_0x0_64, metadata={op_name="jit(train_step)/jvp(TransformerLinenPure.apply)/TransformerLinenPure/decoder/moe_layers.wrapped_fn/while/body/closed_call/moe_layers/concatenate" stack_frame_id=561}
  %param_2.3661 = bf16[4,128,128,32]{3,1,2,0:T(8,128)(2,1)} parameter(2)
  %pad.312 = bf16[4,128,128,192]{3,1,2,0:T(8,128)(2,1)} pad(%param_2.3661, %constant.4887), padding=0_0x0_0x0_0x128_32, metadata={op_name="jit(train_step)/transpose(jvp(TransformerLinenPure.apply))/TransformerLinenPure/decoder/moe_layers.wrapped_fn/while/body/closed_call/checkpoint/rematted_computation/moe_layers/concatenate" stack_frame_id=988}
  %maximum.75 = bf16[4,128,128,192]{3,1,2,0:T(8,128)(2,1)} maximum(%pad.307, %pad.312), metadata={op_name="jit(train_step)/transpose(jvp(TransformerLinenPure.apply))/TransformerLinenPure/decoder/moe_layers.wrapped_fn/while/body/closed_call/checkpoint/rematted_computation/moe_layers/concatenate" stack_frame_id=988}
  %param_1.4525 = bf16[4,128,128,32]{3,1,2,0:T(8,128)(2,1)S(1)} parameter(1)
  %pad.311 = bf16[4,128,128,192]{3,1,2,0:T(8,128)(2,1)} pad(%param_1.4525, %constant.4887), padding=0_0x0_0x0_0x160_0, metadata={op_name="jit(train_step)/transpose(jvp(TransformerLinenPure.apply))/TransformerLinenPure/decoder/moe_layers.wrapped_fn/while/body/closed_call/checkpoint/rematted_computation/moe_layers/concatenate" stack_frame_id=988}
  %maximum.74 = bf16[4,128,128,192]{3,1,2,0:T(8,128)(2,1)} maximum(%maximum.75, %pad.311), metadata={op_name="jit(train_step)/transpose(jvp(TransformerLinenPure.apply))/TransformerLinenPure/decoder/moe_layers.wrapped_fn/while/body/closed_call/checkpoint/rematted_computation/moe_layers/concatenate" stack_frame_id=988}
  %constant.4693 = bf16[]{:T(256)} constant(0.1348), metadata={stack_frame_id=423}
  %mul.4007 = bf16[4,128,128,192]{3,1,2,0:T(8,128)(2,1)} broadcast(%constant.4693), dimensions={}, metadata={op_name="jit(train_step)/jvp(TransformerLinenPure.apply)/TransformerLinenPure/decoder/moe_layers.wrapped_fn/while/body/closed_call/moe_layers/mul" stack_frame_id=561}
  %mul.3885 = bf16[4,128,128,192]{3,1,2,0:T(8,128)(2,1)} multiply(%maximum.74, %mul.4007), metadata={op_name="jit(train_step)/transpose(jvp(TransformerLinenPure.apply))/TransformerLinenPure/decoder/moe_layers.wrapped_fn/while/body/closed_call/checkpoint/rematted_computation/moe_layers/mul" stack_frame_id=988}
  %bitcast.910 = bf16[4,128,128,192]{3,2,1,0:T(8,128)(2,1)} bitcast(%mul.3885), metadata={op_name="jit(train_step)/transpose(jvp(TransformerLinenPure.apply))/TransformerLinenPure/decoder/moe_layers.wrapped_fn/while/body/closed_call/checkpoint/rematted_computation/moe_layers/transpose" stack_frame_id=996}
  %param_4.2097 = bf16[4,128,128,32]{3,1,2,0:T(8,128)(2,1)} parameter(4)
  %pad.309.clone.1 = bf16[4,128,128,192]{3,1,2,0:T(8,128)(2,1)} pad(%param_4.2097, %constant.4887), padding=0_0x0_0x0_0x128_32, metadata={op_name="jit(train_step)/jvp(TransformerLinenPure.apply)/TransformerLinenPure/decoder/moe_layers.wrapped_fn/while/body/closed_call/moe_layers/concatenate" stack_frame_id=561}
  %maximum.64.clone.1 = bf16[4,128,128,192]{3,1,2,0:T(8,128)(2,1)} maximum(%pad.307, %pad.309.clone.1), metadata={op_name="jit(train_step)/jvp(TransformerLinenPure.apply)/TransformerLinenPure/decoder/moe_layers.wrapped_fn/while/body/closed_call/moe_layers/concatenate" stack_frame_id=561}
  %param_3.2854 = bf16[4,128,128,32]{3,1,2,0:T(8,128)(2,1)S(1)} parameter(3)
  %pad.308.clone.1 = bf16[4,128,128,192]{3,1,2,0:T(8,128)(2,1)} pad(%param_3.2854, %constant.4887), padding=0_0x0_0x0_0x160_0, metadata={op_name="jit(train_step)/jvp(TransformerLinenPure.apply)/TransformerLinenPure/decoder/moe_layers.wrapped_fn/while/body/closed_call/moe_layers/concatenate" stack_frame_id=561}
  %maximum.63.clone.1 = bf16[4,128,128,192]{3,1,2,0:T(8,128)(2,1)} maximum(%maximum.64.clone.1, %pad.308.clone.1), metadata={op_name="jit(train_step)/jvp(TransformerLinenPure.apply)/TransformerLinenPure/decoder/moe_layers.wrapped_fn/while/body/closed_call/moe_layers/concatenate" stack_frame_id=561}
  %mul.3882.clone.1 = bf16[4,128,128,192]{3,1,2,0:T(8,128)(2,1)} multiply(%maximum.63.clone.1, %mul.4007), metadata={op_name="jit(train_step)/jvp(TransformerLinenPure.apply)/TransformerLinenPure/decoder/moe_layers.wrapped_fn/while/body/closed_call/moe_layers/mul" stack_frame_id=561}
  %bitcast.909.clone.1 = bf16[4,128,128,192]{3,2,1,0:T(8,128)(2,1)} bitcast(%mul.3882.clone.1), metadata={op_name="jit(train_step)/jvp(TransformerLinenPure.apply)/TransformerLinenPure/decoder/moe_layers.wrapped_fn/while/body/closed_call/moe_layers/transpose" stack_frame_id=569}
  ROOT %tuple.704 = (bf16[4,128,128,192]{3,2,1,0:T(8,128)(2,1)}, bf16[4,128,128,192]{3,2,1,0:T(8,128)(2,1)}) tuple(%bitcast.910, %bitcast.909.clone.1)
}

%fused_computation.644 (param_0.1855: bf16[4,128,128,64], param_1.4531: bf16[4,128,128,128]) -> bf16[4,128,128,192] {
  %param_1.4531 = bf16[4,128,128,128]{3,2,1,0:T(8,128)(2,1)} parameter(1)
  %constant.4904 = bf16[]{:T(256)} constant(-inf)
  %pad.317 = bf16[4,128,128,192]{3,2,1,0:T(8,128)(2,1)} pad(%param_1.4531, %constant.4904), padding=0_0x0_0x0_0x0_64, metadata={op_name="jit(train_step)/transpose(jvp(TransformerLinenPure.apply))/TransformerLinenPure/decoder/moe_layers.wrapped_fn/while/body/closed_call/checkpoint/moe_layers/concatenate" stack_frame_id=938}
  %param_0.1855 = bf16[4,128,128,64]{3,2,1,0:T(8,128)(2,1)} parameter(0)
  %pad.316 = bf16[4,128,128,192]{3,2,1,0:T(8,128)(2,1)} pad(%param_0.1855, %constant.4904), padding=0_0x0_0x0_0x128_0, metadata={op_name="jit(train_step)/transpose(jvp(TransformerLinenPure.apply))/TransformerLinenPure/decoder/moe_layers.wrapped_fn/while/body/closed_call/checkpoint/moe_layers/concatenate" stack_frame_id=938}
  ROOT %maximum.77 = bf16[4,128,128,192]{3,2,1,0:T(8,128)(2,1)S(1)} maximum(%pad.317, %pad.316), metadata={op_name="jit(train_step)/transpose(jvp(TransformerLinenPure.apply))/TransformerLinenPure/decoder/moe_layers.wrapped_fn/while/body/closed_call/checkpoint/moe_layers/concatenate" stack_frame_id=938}
}

%region_167.192 (reduce_sum.522: f32[], reduce_sum.359: f32[]) -> f32[] {
  %reduce_sum.522 = f32[]{:T(128)} parameter(0), metadata={op_name="jit(train_step)/reduce_sum"}
  %reduce_sum.359 = f32[]{:T(128)} parameter(1), metadata={op_name="jit(train_step)/reduce_sum"}
  ROOT %reduce_sum.360 = f32[]{:T(128)} add(%reduce_sum.522, %reduce_sum.359), metadata={op_name="jit(train_step)/reduce_sum" stack_frame_id=862}, backend_config={"flag_configs":[],"scoped_memory_configs":[],"used_scoped_memory_configs":[],"aliasing_operands":{"lists":[]}}
}

%fused_computation.912.clone.clone (param_0.4104: bf16[4,128,512]) -> bf16[4,128,512,1] {
  %param_0.4104 = bf16[4,128,512]{2,1,0:T(8,128)(2,1)S(1)} parameter(0)
  ROOT %bitcast.1459 = bf16[4,128,512,1]{2,1,3,0:T(8,128)(2,1)} bitcast(%param_0.4104), metadata={op_name="jit(train_step)/transpose(jvp(TransformerLinenPure.apply))/TransformerLinenPure/decoder/moe_layers.wrapped_fn/while/body/closed_call/checkpoint/moe_layers/add_any" stack_frame_id=1104}
}

%fused_computation.693.clone.clone (param_0.4105: bf16[4,128,128,128]) -> bf16[4,128,128,128] {
  %param_0.4105 = bf16[4,128,128,128]{3,2,1,0:T(8,128)(2,1)S(1)} parameter(0)
  ROOT %bitcast.1460 = bf16[4,128,128,128]{3,1,2,0:T(8,128)(2,1)} bitcast(%param_0.4105), metadata={op_name="jit(train_step)/transpose(jvp(TransformerLinenPure.apply))/TransformerLinenPure/decoder/moe_layers.wrapped_fn/while/body/closed_call/checkpoint/rematted_computation/moe_layers/transpose" stack_frame_id=1089}
}

%fused_computation.654 (param_0.4172: bf16[4,128,512], param_1.5042: bf16[4,128,128,128]) -> (f32[], bf16[128,128,512,1]) {
  %param_1.5042 = bf16[4,128,128,128]{3,2,1,0:T(8,128)(2,1)S(1)} parameter(1)
  %fusion.423.clone.1 = bf16[4,128,128,128]{3,1,2,0:T(8,128)(2,1)} fusion(%param_1.5042), kind=kLoop, calls=%fused_computation.693.clone.clone, metadata={op_name="jit(train_step)/transpose(jvp(TransformerLinenPure.apply))/TransformerLinenPure/decoder/moe_layers.wrapped_fn/while/body/closed_call/checkpoint/rematted_computation/moe_layers/transpose" stack_frame_id=1089}
  %param_0.4172 = bf16[4,128,512]{2,1,0:T(8,128)(2,1)S(1)} parameter(0)
  %fusion.562.clone.1 = bf16[4,128,512,1]{2,1,3,0:T(8,128)(2,1)} fusion(%param_0.4172), kind=kLoop, calls=%fused_computation.912.clone.clone, metadata={op_name="jit(train_step)/transpose(jvp(TransformerLinenPure.apply))/TransformerLinenPure/decoder/moe_layers.wrapped_fn/while/body/closed_call/checkpoint/moe_layers/add_any" stack_frame_id=1104}
  %convolution.137.clone.1 = bf16[128,128,512,1]{2,1,0,3:T(8,128)(2,1)} convolution(%fusion.423.clone.1, %fusion.562.clone.1), window={size=4x1}, dim_labels=0f1b_0io1->1bf0, metadata={op_name="jit(train_step)/transpose(jvp(TransformerLinenPure.apply))/TransformerLinenPure/decoder/moe_layers.wrapped_fn/while/body/closed_call/checkpoint/moe_layers/dot_general" stack_frame_id=1098}
  %bitcast.999 = bf16[128,128,512]{2,1,0:T(8,128)(2,1)} bitcast(%convolution.137.clone.1), metadata={op_name="jit(train_step)/transpose(jvp(TransformerLinenPure.apply))/TransformerLinenPure/decoder/moe_layers.wrapped_fn/while/body/closed_call/checkpoint/moe_layers/dot_general" stack_frame_id=1098}
  %broadcast_in_dim.1536 = f32[128,128,512]{2,1,0:T(8,128)} convert(%bitcast.999), metadata={op_name="jit(train_step)/transpose(jvp(TransformerLinenPure.apply))/TransformerLinenPure/decoder/moe_layers.wrapped_fn/while/body/broadcast_in_dim" stack_frame_id=480}
  %bitcast.932 = f32[128,1,128,512]{3,2,0,1:T(8,128)} bitcast(%broadcast_in_dim.1536), metadata={op_name="jit(train_step)/transpose(jvp(TransformerLinenPure.apply))/TransformerLinenPure/decoder/moe_layers.wrapped_fn/transpose" stack_frame_id=427}
  %square.616 = f32[128,1,128,512]{3,2,0,1:T(8,128)} multiply(%bitcast.932, %bitcast.932), metadata={op_name="jit(train_step)/square" stack_frame_id=860}
  %constant.5468 = f32[]{:T(128)} constant(0)
  %reduce.710 = f32[]{:T(128)} reduce(%square.616, %constant.5468), dimensions={0,1,2,3}, to_apply=%region_167.192, metadata={op_name="jit(train_step)/reduce_sum" stack_frame_id=862}
  ROOT %tuple.773 = (f32[]{:T(128)}, bf16[128,128,512,1]{2,1,0,3:T(8,128)(2,1)}) tuple(%reduce.710, %convolution.137.clone.1)
}

%fused_computation.658 (param_0.1967: bf16[512,128,256]) -> bf16[512,128,256,1] {
  %param_0.1967 = bf16[512,128,256]{2,1,0:T(8,128)(2,1)} parameter(0)
  %copy.1582 = bf16[512,128,256]{2,0,1:T(8,128)(2,1)} copy(%param_0.1967), metadata={op_name="jit(train_step)/jvp(TransformerLinenPure.apply)/TransformerLinenPure/decoder/moe_layers.wrapped_fn/while/body/closed_call/moe_layers/convert_element_type" stack_frame_id=605}
  ROOT %bitcast.936 = bf16[512,128,256,1]{2,0,1,3:T(8,128)(2,1)} bitcast(%copy.1582), metadata={op_name="jit(train_step)/jvp(TransformerLinenPure.apply)/TransformerLinenPure/decoder/moe_layers.wrapped_fn/while/body/closed_call/moe_layers/convert_element_type" stack_frame_id=605}
}

%fused_computation.911 (param_0.2768: f32[4,128], param_1.3253: bf16[4,128,576], param_2.2506: bf16[512]) -> bf16[4,128,512,1] {
  %param_2.2506 = bf16[512]{0:T(512)(128)(2,1)S(1)} parameter(2)
  %dot_general.766 = bf16[4,128,512]{1,2,0:T(8,128)(2,1)} broadcast(%param_2.2506), dimensions={2}, metadata={op_name="jit(train_step)/jvp(TransformerLinenPure.apply)/TransformerLinenPure/decoder/moe_layers.wrapped_fn/while/body/closed_call/moe_layers/...k,k->...k/dot_general" stack_frame_id=584}
  %param_1.3253 = bf16[4,128,576]{1,2,0:T(8,128)(2,1)S(1)} parameter(1)
  %split.433 = bf16[4,128,512]{1,2,0:T(8,128)(2,1)} slice(%param_1.3253), slice={[0:4], [0:128], [0:512]}, metadata={op_name="jit(train_step)/jvp(TransformerLinenPure.apply)/TransformerLinenPure/decoder/moe_layers.wrapped_fn/while/body/closed_call/moe_layers/split" stack_frame_id=590}
  %convert_element_type.2988 = f32[4,128,512]{1,2,0:T(8,128)} convert(%split.433), metadata={op_name="jit(train_step)/jvp(TransformerLinenPure.apply)/TransformerLinenPure/decoder/moe_layers.wrapped_fn/while/body/closed_call/moe_layers/convert_element_type" stack_frame_id=591}
  %param_0.2768 = f32[4,128]{1,0:T(4,128)S(1)} parameter(0)
  %mul.4326 = f32[4,128,512]{1,2,0:T(8,128)} broadcast(%param_0.2768), dimensions={0,1}, metadata={op_name="jit(train_step)/jvp(TransformerLinenPure.apply)/TransformerLinenPure/decoder/moe_layers.wrapped_fn/while/body/closed_call/moe_layers/mul" stack_frame_id=600}
  %mul.4325 = f32[4,128,512]{1,2,0:T(8,128)} multiply(%convert_element_type.2988, %mul.4326), metadata={op_name="jit(train_step)/jvp(TransformerLinenPure.apply)/TransformerLinenPure/decoder/moe_layers.wrapped_fn/while/body/closed_call/moe_layers/mul" stack_frame_id=600}
  %convert_element_type.2987 = bf16[4,128,512]{1,2,0:T(8,128)(2,1)} convert(%mul.4325), metadata={op_name="jit(train_step)/jvp(TransformerLinenPure.apply)/TransformerLinenPure/decoder/moe_layers.wrapped_fn/while/body/closed_call/moe_layers/convert_element_type" stack_frame_id=601}
  %dot_general.734 = bf16[4,128,512]{1,2,0:T(8,128)(2,1)} multiply(%dot_general.766, %convert_element_type.2987), metadata={op_name="jit(train_step)/jvp(TransformerLinenPure.apply)/TransformerLinenPure/decoder/moe_layers.wrapped_fn/while/body/closed_call/moe_layers/...k,k->...k/dot_general" stack_frame_id=584}
  ROOT %bitcast.1200 = bf16[4,128,512,1]{1,2,3,0:T(8,128)(2,1)} bitcast(%dot_general.734), metadata={op_name="jit(train_step)/jvp(TransformerLinenPure.apply)/TransformerLinenPure/decoder/moe_layers.wrapped_fn/while/body/closed_call/moe_layers/...k,k->...k/dot_general" stack_frame_id=584}
}

%fused_computation.657 (param_0.2576: bf16[512,128,256], param_1.3252: f32[4,128], param_2.2505: bf16[4,128,576], param_3.1554: bf16[512]) -> bf16[4,128,128,256] {
  %param_1.3252 = f32[4,128]{1,0:T(4,128)S(1)} parameter(1)
  %param_2.2505 = bf16[4,128,576]{1,2,0:T(8,128)(2,1)S(1)} parameter(2)
  %param_3.1554 = bf16[512]{0:T(512)(128)(2,1)S(1)} parameter(3)
  %fusion.561 = bf16[4,128,512,1]{1,2,3,0:T(8,128)(2,1)} fusion(%param_1.3252, %param_2.2505, %param_3.1554), kind=kLoop, calls=%fused_computation.911, metadata={op_name="jit(train_step)/jvp(TransformerLinenPure.apply)/TransformerLinenPure/decoder/moe_layers.wrapped_fn/while/body/closed_call/moe_layers/...k,k->...k/dot_general" stack_frame_id=584}
  %param_0.2576 = bf16[512,128,256]{2,1,0:T(8,128)(2,1)} parameter(0)
  %fusion.404 = bf16[512,128,256,1]{2,0,1,3:T(8,128)(2,1)} fusion(%param_0.2576), kind=kLoop, calls=%fused_computation.658, metadata={op_name="jit(train_step)/jvp(TransformerLinenPure.apply)/TransformerLinenPure/decoder/moe_layers.wrapped_fn/while/body/closed_call/moe_layers/convert_element_type" stack_frame_id=605}
  ROOT %convolution.135 = bf16[4,128,128,256]{3,1,2,0:T(8,128)(2,1)S(1)} convolution(%fusion.561, %fusion.404), window={size=1x128 pad=0_0x127_127 rhs_reversal=0x1}, dim_labels=0bf1_i1o0->0b1f, metadata={op_name="jit(train_step)/jvp(TransformerLinenPure.apply)/TransformerLinenPure/decoder/moe_layers.wrapped_fn/while/body/closed_call/moe_layers/dot_general" stack_frame_id=615}
}

%fused_computation.672 (param_0.2011: bf16[4,128,128,32,1], param_1.2367: bf16[4,128,128,32,1], param_2.4334: f32[4,128,32], param_3.2980: f32[4,128,32], param_4.2228: f32[4,128,32], param_5.2026: f32[4,128,32]) -> (bf16[4,128,128,32], bf16[4,128,128,32], bf16[4,128,128,32], bf16[4,128,128,32]) {
  %param_1.2367 = bf16[4,128,128,32,1]{3,2,1,0,4:T(8,128)(2,1)S(1)} parameter(1)
  %convert_element_type.2786 = f32[4,128,128,32,1]{3,2,1,0,4:T(8,128)} convert(%param_1.2367), metadata={op_name="jit(train_step)/jvp(TransformerLinenPure.apply)/TransformerLinenPure/decoder/moe_layers.wrapped_fn/while/body/closed_call/moe_layers/convert_element_type" stack_frame_id=553}
  %bitcast.981 = f32[4,128,128,32]{3,2,1,0:T(8,128)} bitcast(%convert_element_type.2786), metadata={op_name="jit(train_step)/jvp(TransformerLinenPure.apply)/TransformerLinenPure/decoder/moe_layers.wrapped_fn/while/body/closed_call/moe_layers/convert_element_type" stack_frame_id=553}
  %param_0.2011 = bf16[4,128,128,32,1]{3,2,1,0,4:T(8,128)(2,1)S(1)} parameter(0)
  %convert_element_type.2785 = f32[4,128,128,32,1]{3,2,1,0,4:T(8,128)} convert(%param_0.2011), metadata={op_name="jit(train_step)/jvp(TransformerLinenPure.apply)/TransformerLinenPure/decoder/moe_layers.wrapped_fn/while/body/closed_call/moe_layers/convert_element_type" stack_frame_id=555}
  %bitcast.980 = f32[4,128,128,32]{3,2,1,0:T(8,128)} bitcast(%convert_element_type.2785), metadata={op_name="jit(train_step)/jvp(TransformerLinenPure.apply)/TransformerLinenPure/decoder/moe_layers.wrapped_fn/while/body/closed_call/moe_layers/convert_element_type" stack_frame_id=555}
  %constant.5512 = f32[]{:T(128)} constant(0)
  %convert_element_type.2098.clone.2 = f32[4,128,128,32]{3,2,1,0:T(8,128)} broadcast(%constant.5512), dimensions={}, metadata={op_name="jit(train_step)/jvp(TransformerLinenPure.apply)/TransformerLinenPure/decoder/moe_layers.wrapped_fn/while/body/closed_call/moe_layers/convert_element_type" stack_frame_id=553}
  %mul.3952 = f32[4,128,128,32]{3,2,1,0:T(8,128)} multiply(%bitcast.980, %convert_element_type.2098.clone.2), metadata={op_name="jit(train_step)/jvp(TransformerLinenPure.apply)/TransformerLinenPure/decoder/moe_layers.wrapped_fn/while/body/closed_call/moe_layers/mul" stack_frame_id=555}
  %add.3162 = f32[4,128,128,32]{3,2,1,0:T(8,128)} add(%bitcast.981, %mul.3952), metadata={op_name="jit(train_step)/jvp(TransformerLinenPure.apply)/TransformerLinenPure/decoder/moe_layers.wrapped_fn/while/body/closed_call/moe_layers/add" stack_frame_id=553}
  %param_3.2980 = f32[4,128,32]{2,1,0:T(8,128)} parameter(3)
  %broadcast_in_dim.1550 = f32[4,128,128,32]{3,2,1,0:T(8,128)} broadcast(%param_3.2980), dimensions={0,1,3}, metadata={op_name="jit(train_step)/transpose(jvp(TransformerLinenPure.apply))/TransformerLinenPure/decoder/moe_layers.wrapped_fn/while/body/closed_call/checkpoint/rematted_computation/moe_layers/broadcast_in_dim" stack_frame_id=982}
  %mul.3951 = f32[4,128,128,32]{3,2,1,0:T(8,128)} multiply(%add.3162, %broadcast_in_dim.1550), metadata={op_name="jit(train_step)/transpose(jvp(TransformerLinenPure.apply))/TransformerLinenPure/decoder/moe_layers.wrapped_fn/while/body/closed_call/checkpoint/rematted_computation/moe_layers/mul" stack_frame_id=983}
  %param_2.4334 = f32[4,128,32]{2,1,0:T(8,128)} parameter(2)
  %broadcast_in_dim.1546 = f32[4,128,128,32]{3,2,1,0:T(8,128)} broadcast(%param_2.4334), dimensions={0,1,3}, metadata={op_name="jit(train_step)/transpose(jvp(TransformerLinenPure.apply))/TransformerLinenPure/decoder/moe_layers.wrapped_fn/while/body/closed_call/checkpoint/rematted_computation/moe_layers/broadcast_in_dim" stack_frame_id=982}
  %mul.3936 = f32[4,128,128,32]{3,2,1,0:T(8,128)} multiply(%bitcast.980, %broadcast_in_dim.1546), metadata={op_name="jit(train_step)/transpose(jvp(TransformerLinenPure.apply))/TransformerLinenPure/decoder/moe_layers.wrapped_fn/while/body/closed_call/checkpoint/rematted_computation/moe_layers/mul" stack_frame_id=983}
  %mul.3935 = f32[4,128,128,32]{3,2,1,0:T(8,128)} subtract(%mul.3951, %mul.3936), metadata={op_name="jit(train_step)/transpose(jvp(TransformerLinenPure.apply))/TransformerLinenPure/decoder/moe_layers.wrapped_fn/while/body/closed_call/checkpoint/rematted_computation/moe_layers/mul" stack_frame_id=983}
  %convert.520 = bf16[4,128,128,32]{3,2,1,0:T(8,128)(2,1)} convert(%mul.3935), metadata={op_name="convert.379" stack_frame_id=423}
  %mul.3955.clone.1 = f32[4,128,128,32]{3,2,1,0:T(8,128)} multiply(%add.3162, %broadcast_in_dim.1546), metadata={op_name="jit(train_step)/transpose(jvp(TransformerLinenPure.apply))/TransformerLinenPure/decoder/moe_layers.wrapped_fn/while/body/closed_call/checkpoint/rematted_computation/moe_layers/mul" stack_frame_id=983}
  %mul.3929.clone.1 = f32[4,128,128,32]{3,2,1,0:T(8,128)} multiply(%bitcast.980, %broadcast_in_dim.1550), metadata={op_name="jit(train_step)/transpose(jvp(TransformerLinenPure.apply))/TransformerLinenPure/decoder/moe_layers.wrapped_fn/while/body/closed_call/checkpoint/rematted_computation/moe_layers/mul" stack_frame_id=983}
  %mul.3928.clone.1 = f32[4,128,128,32]{3,2,1,0:T(8,128)} add(%mul.3955.clone.1, %mul.3929.clone.1), metadata={op_name="jit(train_step)/transpose(jvp(TransformerLinenPure.apply))/TransformerLinenPure/decoder/moe_layers.wrapped_fn/while/body/closed_call/checkpoint/rematted_computation/moe_layers/mul" stack_frame_id=983}
  %convert.519.clone.1 = bf16[4,128,128,32]{3,2,1,0:T(8,128)(2,1)} convert(%mul.3928.clone.1), metadata={op_name="convert.380" stack_frame_id=423}
  %param_5.2026 = f32[4,128,32]{2,1,0:T(8,128)} parameter(5)
  %broadcast_in_dim.1552.clone.1.clone.1 = f32[4,128,128,32]{3,2,1,0:T(8,128)} broadcast(%param_5.2026), dimensions={0,1,3}, metadata={op_name="jit(train_step)/dense_layers/broadcast_in_dim" stack_frame_id=181}
  %mul.3937.clone.1.clone.1 = f32[4,128,128,32]{3,2,1,0:T(8,128)} multiply(%add.3162, %broadcast_in_dim.1552.clone.1.clone.1), metadata={op_name="jit(train_step)/jvp(TransformerLinenPure.apply)/TransformerLinenPure/decoder/moe_layers.wrapped_fn/while/body/closed_call/moe_layers/mul" stack_frame_id=556}
  %param_4.2228 = f32[4,128,32]{2,1,0:T(8,128)} parameter(4)
  %broadcast_in_dim.1554.clone.1.clone.1 = f32[4,128,128,32]{3,2,1,0:T(8,128)} broadcast(%param_4.2228), dimensions={0,1,3}, metadata={op_name="jit(train_step)/dense_layers/broadcast_in_dim" stack_frame_id=181}
  %mul.3922.clone.1.clone.1 = f32[4,128,128,32]{3,2,1,0:T(8,128)} multiply(%bitcast.980, %broadcast_in_dim.1554.clone.1.clone.1), metadata={op_name="jit(train_step)/jvp(TransformerLinenPure.apply)/TransformerLinenPure/decoder/moe_layers.wrapped_fn/while/body/closed_call/moe_layers/mul" stack_frame_id=556}
  %mul.3921.clone.1.clone.1 = f32[4,128,128,32]{3,2,1,0:T(8,128)} add(%mul.3937.clone.1.clone.1, %mul.3922.clone.1.clone.1), metadata={op_name="jit(train_step)/jvp(TransformerLinenPure.apply)/TransformerLinenPure/decoder/moe_layers.wrapped_fn/while/body/closed_call/moe_layers/mul" stack_frame_id=556}
  %convert.518.clone.1.clone.1 = bf16[4,128,128,32]{3,2,1,0:T(8,128)(2,1)S(1)} convert(%mul.3921.clone.1.clone.1), metadata={op_name="convert.351" stack_frame_id=423}
  %mul.3938.clone.1 = f32[4,128,128,32]{3,2,1,0:T(8,128)} multiply(%add.3162, %broadcast_in_dim.1554.clone.1.clone.1), metadata={op_name="jit(train_step)/jvp(TransformerLinenPure.apply)/TransformerLinenPure/decoder/moe_layers.wrapped_fn/while/body/closed_call/moe_layers/mul" stack_frame_id=556}
  %mul.3915.clone.1 = f32[4,128,128,32]{3,2,1,0:T(8,128)} multiply(%bitcast.980, %broadcast_in_dim.1552.clone.1.clone.1), metadata={op_name="jit(train_step)/jvp(TransformerLinenPure.apply)/TransformerLinenPure/decoder/moe_layers.wrapped_fn/while/body/closed_call/moe_layers/mul" stack_frame_id=556}
  %mul.3914.clone.1 = f32[4,128,128,32]{3,2,1,0:T(8,128)} subtract(%mul.3938.clone.1, %mul.3915.clone.1), metadata={op_name="jit(train_step)/jvp(TransformerLinenPure.apply)/TransformerLinenPure/decoder/moe_layers.wrapped_fn/while/body/closed_call/moe_layers/mul" stack_frame_id=556}
  %convert.517.clone.1 = bf16[4,128,128,32]{3,2,1,0:T(8,128)(2,1)S(1)} convert(%mul.3914.clone.1), metadata={op_name="convert.350" stack_frame_id=423}
  ROOT %tuple.700 = (bf16[4,128,128,32]{3,2,1,0:T(8,128)(2,1)}, bf16[4,128,128,32]{3,2,1,0:T(8,128)(2,1)}, bf16[4,128,128,32]{3,2,1,0:T(8,128)(2,1)S(1)}, bf16[4,128,128,32]{3,2,1,0:T(8,128)(2,1)S(1)}) tuple(%convert.520, %convert.519.clone.1, %convert.518.clone.1.clone.1, %convert.517.clone.1)
}

%fused_computation.673 (param_0.1918: f32[512,1,128,256]) -> bf16[512,128,256] {
  %param_0.1918 = f32[512,1,128,256]{3,2,1,0:T(8,128)} parameter(0)
  %convert_element_type.2765 = bf16[512,1,128,256]{3,2,1,0:T(8,128)(2,1)} convert(%param_0.1918), metadata={op_name="jit(train_step)/jvp(TransformerLinenPure.apply)/TransformerLinenPure/decoder/moe_layers.wrapped_fn/while/body/closed_call/moe_layers/convert_element_type" stack_frame_id=605}
  ROOT %bitcast.961 = bf16[512,128,256]{2,1,0:T(8,128)(2,1)} bitcast(%convert_element_type.2765), metadata={op_name="jit(train_step)/jvp(TransformerLinenPure.apply)/TransformerLinenPure/decoder/moe_layers.wrapped_fn/while/body/closed_call/moe_layers/convert_element_type" stack_frame_id=605}
}

%fused_computation.676 (param_0.1934: bf16[4,128,128,192]) -> bf16[4,128,128,192] {
  %param_0.1934 = bf16[4,128,128,192]{3,1,2,0:T(8,128)(2,1)S(1)} parameter(0)
  %constant.4694 = bf16[]{:T(256)} constant(0.1348), metadata={stack_frame_id=423}
  %mul.4006 = bf16[4,128,128,192]{3,1,2,0:T(8,128)(2,1)} broadcast(%constant.4694), dimensions={}, metadata={op_name="jit(train_step)/jvp(TransformerLinenPure.apply)/TransformerLinenPure/decoder/moe_layers.wrapped_fn/while/body/closed_call/moe_layers/mul" stack_frame_id=561}
  %mul.3957 = bf16[4,128,128,192]{3,1,2,0:T(8,128)(2,1)} multiply(%param_0.1934, %mul.4006), metadata={op_name="jit(train_step)/transpose(jvp(TransformerLinenPure.apply))/TransformerLinenPure/decoder/moe_layers.wrapped_fn/while/body/closed_call/checkpoint/moe_layers/mul" stack_frame_id=988}
  ROOT %bitcast.986 = bf16[4,128,128,192]{3,2,1,0:T(8,128)(2,1)S(1)} bitcast(%mul.3957), metadata={op_name="jit(train_step)/transpose(jvp(TransformerLinenPure.apply))/TransformerLinenPure/decoder/moe_layers.wrapped_fn/while/body/closed_call/checkpoint/moe_layers/mul" stack_frame_id=988}
}

%region_111.131.clone (dot_general.516: f32[], dot_general.517: f32[]) -> f32[] {
  %dot_general.516 = f32[]{:T(128)} parameter(0), metadata={op_name="hsd,hsd->hs/dot_general"}
  %dot_general.517 = f32[]{:T(128)} parameter(1), metadata={op_name="hsd,hsd->hs/dot_general"}
  ROOT %add.2430 = f32[]{:T(128)} add(%dot_general.516, %dot_general.517), metadata={op_name="add.221"}, backend_config={"flag_configs":[],"scoped_memory_configs":[],"used_scoped_memory_configs":[],"aliasing_operands":{"lists":[]}}
}

%fused_computation.697.clone.clone.clone.clone (param_0.4078: f32[128,1,128,512]) -> bf16[128,128,512,1] {
  %param_0.4078 = f32[128,1,128,512]{3,2,1,0:T(8,128)S(1)} parameter(0)
  %convert_element_type.3187 = bf16[128,1,128,512]{3,2,1,0:T(8,128)(2,1)} convert(%param_0.4078), metadata={op_name="jit(train_step)/jvp(TransformerLinenPure.apply)/TransformerLinenPure/decoder/moe_layers.wrapped_fn/while/body/closed_call/moe_layers/convert_element_type" stack_frame_id=658}
  ROOT %bitcast.1449 = bf16[128,128,512,1]{2,1,0,3:T(8,128)(2,1)} bitcast(%convert_element_type.3187), metadata={op_name="jit(train_step)/jvp(TransformerLinenPure.apply)/TransformerLinenPure/decoder/moe_layers.wrapped_fn/while/body/closed_call/moe_layers/convert_element_type" stack_frame_id=658}
}

%fused_computation.913.clone.clone (param_0.4079: bf16[4,128,512]) -> bf16[4,128,512,1] {
  %param_0.4079 = bf16[4,128,512]{2,1,0:T(8,128)(2,1)} parameter(0)
  ROOT %bitcast.1450 = bf16[4,128,512,1]{2,1,3,0:T(8,128)(2,1)} bitcast(%param_0.4079), metadata={op_name="jit(train_step)/transpose(jvp(TransformerLinenPure.apply))/TransformerLinenPure/decoder/moe_layers.wrapped_fn/while/body/closed_call/checkpoint/moe_layers/add_any" stack_frame_id=1104}
}

%fused_computation.677 (param_0.4196: bf16[4,128,128,128], param_1.5056: f32[128,1,128,512], param_2.4324: bf16[4,128,512]) -> (f32[4,128,128], bf16[4,128,128,128]) {
  %param_0.4196 = bf16[4,128,128,128]{3,2,1,0:T(8,128)(2,1)} parameter(0)
  %convert.522 = f32[4,128,128,128]{3,2,1,0:T(8,128)} convert(%param_0.4196), metadata={op_name="jit(train_step)/transpose(jvp(TransformerLinenPure.apply))/TransformerLinenPure/decoder/moe_layers.wrapped_fn/while/body/closed_call/checkpoint/moe_layers/shard_map/vmap(jit(_splash_attention))/convert.28" stack_frame_id=1693}
  %param_2.4324 = bf16[4,128,512]{2,1,0:T(8,128)(2,1)} parameter(2)
  %fusion.563.clone.1 = bf16[4,128,512,1]{2,1,3,0:T(8,128)(2,1)} fusion(%param_2.4324), kind=kLoop, calls=%fused_computation.913.clone.clone, metadata={op_name="jit(train_step)/transpose(jvp(TransformerLinenPure.apply))/TransformerLinenPure/decoder/moe_layers.wrapped_fn/while/body/closed_call/checkpoint/moe_layers/add_any" stack_frame_id=1104}
  %param_1.5056 = f32[128,1,128,512]{3,2,1,0:T(8,128)S(1)} parameter(1)
  %fusion.439.clone.1 = bf16[128,128,512,1]{2,1,0,3:T(8,128)(2,1)} fusion(%param_1.5056), kind=kLoop, calls=%fused_computation.697.clone.clone.clone.clone, metadata={op_name="jit(train_step)/jvp(TransformerLinenPure.apply)/TransformerLinenPure/decoder/moe_layers.wrapped_fn/while/body/closed_call/moe_layers/convert_element_type" stack_frame_id=658}
  %convolution.143.clone.1 = bf16[4,128,128,128]{3,1,2,0:T(8,128)(2,1)} convolution(%fusion.563.clone.1, %fusion.439.clone.1), window={size=1x128 pad=0_0x127_127 rhs_reversal=0x1}, dim_labels=0bf1_1oi0->0b1f, metadata={op_name="jit(train_step)/transpose(jvp(TransformerLinenPure.apply))/TransformerLinenPure/decoder/moe_layers.wrapped_fn/while/body/closed_call/checkpoint/moe_layers/dot_general" stack_frame_id=1098}
  %constant.4658.clone.1 = bf16[]{:T(256)} constant(0.25), metadata={stack_frame_id=423}
  %div.2119.clone.1 = bf16[4,128,128,128]{3,1,2,0:T(8,128)(2,1)} broadcast(%constant.4658.clone.1), dimensions={}, metadata={op_name="jit(train_step)/transpose(jvp(TransformerLinenPure.apply))/TransformerLinenPure/decoder/moe_layers.wrapped_fn/while/body/closed_call/checkpoint/moe_layers/div" stack_frame_id=1088}
  %div.2090.clone.1 = bf16[4,128,128,128]{3,1,2,0:T(8,128)(2,1)} multiply(%convolution.143.clone.1, %div.2119.clone.1), metadata={op_name="jit(train_step)/transpose(jvp(TransformerLinenPure.apply))/TransformerLinenPure/decoder/moe_layers.wrapped_fn/while/body/closed_call/checkpoint/moe_layers/div" stack_frame_id=1088}
  %bitcast.1012.clone.1 = bf16[4,128,128,128]{3,2,1,0:T(8,128)(2,1)} bitcast(%div.2090.clone.1), metadata={op_name="jit(train_step)/transpose(jvp(TransformerLinenPure.apply))/TransformerLinenPure/decoder/moe_layers.wrapped_fn/while/body/closed_call/checkpoint/moe_layers/div" stack_frame_id=1088}
  %convert.521 = f32[4,128,128,128]{3,2,1,0:T(8,128)} convert(%bitcast.1012.clone.1), metadata={op_name="jit(train_step)/transpose(jvp(TransformerLinenPure.apply))/TransformerLinenPure/decoder/moe_layers.wrapped_fn/while/body/closed_call/checkpoint/moe_layers/shard_map/vmap(jit(_splash_attention))/convert.29" stack_frame_id=1693}
  %multiply.1241 = f32[4,128,128,128]{3,2,1,0:T(8,128)} multiply(%convert.522, %convert.521), metadata={op_name="jit(train_step)/transpose(jvp(TransformerLinenPure.apply))/TransformerLinenPure/decoder/moe_layers.wrapped_fn/while/body/closed_call/checkpoint/moe_layers/shard_map/vmap(jit(_splash_attention))/multiply.166" stack_frame_id=1693}
  %constant.5494 = f32[]{:T(128)} constant(0)
  %dot_general.693 = f32[4,128,128]{2,1,0:T(8,128)} reduce(%multiply.1241, %constant.5494), dimensions={3}, to_apply=%region_111.131.clone, metadata={op_name="jit(train_step)/transpose(jvp(TransformerLinenPure.apply))/TransformerLinenPure/decoder/moe_layers.wrapped_fn/while/body/closed_call/checkpoint/moe_layers/shard_map/vmap(jit(_splash_attention))/hsd,hsd->hs/dot_general" stack_frame_id=1694}
  ROOT %tuple.764 = (f32[4,128,128]{2,1,0:T(8,128)}, bf16[4,128,128,128]{3,2,1,0:T(8,128)(2,1)}) tuple(%dot_general.693, %bitcast.1012.clone.1)
}

%fused_computation.678 (param_0.1938: bf16[4,128,128,32,1], param_1.4428: bf16[4,128,128,32,1]) -> bf16[4,128,128,32,2] {
  %param_1.4428 = bf16[4,128,128,32,1]{3,2,1,0,4:T(8,128)(2,1)} parameter(1)
  %constant.4518 = bf16[]{:T(256)} constant(0)
  %pad.319 = bf16[4,128,128,32,2]{3,2,1,0,4:T(8,128)(2,1)} pad(%param_1.4428, %constant.4518), padding=0_0x0_0x0_0x0_0x1_0, metadata={op_name="jit(train_step)/transpose(jvp(TransformerLinenPure.apply))/TransformerLinenPure/decoder/moe_layers.wrapped_fn/while/body/closed_call/checkpoint/moe_layers/pad" stack_frame_id=948}
  %param_0.1938 = bf16[4,128,128,32,1]{3,2,1,0,4:T(8,128)(2,1)} parameter(0)
  %pad.318 = bf16[4,128,128,32,2]{3,2,1,0,4:T(8,128)(2,1)} pad(%param_0.1938, %constant.4518), padding=0_0x0_0x0_0x0_0x0_1, metadata={op_name="jit(train_step)/transpose(jvp(TransformerLinenPure.apply))/TransformerLinenPure/decoder/moe_layers.wrapped_fn/while/body/closed_call/checkpoint/moe_layers/pad" stack_frame_id=946}
  ROOT %add_any.207 = bf16[4,128,128,32,2]{3,2,1,0,4:T(8,128)(2,1)S(1)} add(%pad.319, %pad.318), metadata={op_name="jit(train_step)/transpose(jvp(TransformerLinenPure.apply))/TransformerLinenPure/decoder/moe_layers.wrapped_fn/while/body/closed_call/checkpoint/moe_layers/add_any" stack_frame_id=946}
}

%region_234.259 (reduce_sum.984: f32[], reduce_sum.661: f32[]) -> f32[] {
  %reduce_sum.984 = f32[]{:T(128)} parameter(0), metadata={op_name="jit(train_step)/reduce_sum"}
  %reduce_sum.661 = f32[]{:T(128)} parameter(1), metadata={op_name="jit(train_step)/reduce_sum"}
  ROOT %reduce_sum.666 = f32[]{:T(128)} add(%reduce_sum.984, %reduce_sum.661), metadata={op_name="jit(train_step)/reduce_sum" stack_frame_id=1629}, backend_config={"flag_configs":[],"scoped_memory_configs":[],"used_scoped_memory_configs":[],"aliasing_operands":{"lists":[]}}
}

%region_200.225 (reduce_sum.746: f32[], reduce_sum.505: f32[]) -> f32[] {
