HloModule jit_train_step, is_scheduled=true, input_output_alias={ {0}: (0, {}, may-alias), {1}: (1, {}, may-alias), {2}: (2, {}, may-alias), {3}: (3, {}, may-alias), {4}: (4, {}, may-alias), {5}: (5, {}, may-alias), {6}: (6, {}, may-alias), {7}: (7, {}, may-alias), {8}: (8, {}, may-alias), {9}: (9, {}, may-alias), {10}: (10, {}, may-alias), {11}: (11, {}, may-alias), {12}: (12, {}, may-alias), {13}: (13, {}, may-alias), {14}: (14, {}, may-alias), {15}: (15, {}, may-alias), {16}: (16, {}, may-alias), {17}: (17, {}, may-alias), {18}: (18, {}, may-alias), {19}: (19, {}, may-alias), {20}: (20, {}, may-alias), {21}: (21, {}, may-alias), {22}: (22, {}, may-alias), {23}: (23, {}, may-alias), {24}: (24, {}, may-alias), {25}: (25, {}, may-alias), {26}: (26, {}, may-alias), {27}: (27, {}, may-alias), {28}: (28, {}, may-alias), {29}: (29, {}, may-alias), {30}: (30, {}, may-alias), {31}: (31, {}, may-alias), {32}: (32, {}, may-alias), {33}: (33, {}, may-alias), {34}: (34, {}, may-alias), {35}: (35, {}, may-alias), {36}: (36, {}, may-alias), {37}: (37, {}, may-alias), {38}: (38, {}, may-alias), {39}: (39, {}, may-alias), {40}: (40, {}, may-alias), {41}: (41, {}, may-alias) }, entry_computation_layout={(s32[]{:T(128)}, f32[2048]{0:T(1024)}, f32[2048,4,6144]{2,1,0:T(4,128)}, f32[2048,4,6144]{2,1,0:T(4,128)}, f32[6144,4,2048]{2,1,0:T(4,128)}, /*index=5*/f32[2048,4]{0,1:T(4,128)}, f32[2048,4]{0,1:T(4,128)}, f32[2048,4,8,128]{3,2,1,0:T(8,128)}, f32[128,4]{0,1:T(4,128)}, f32[16,4,128,2048]{3,2,1,0:T(8,128)}, /*index=10*/f32[2048,4,16,128]{3,2,1,0:T(8,128)}, f32[128,4]{0,1:T(4,128)}, f32[2048,4,8,128]{3,2,1,0:T(8,128)}, f32[151936,2048]{1,0:T(8,128)}, s32[]{:T(128)}, /*index=15*/f32[2048]{0:T(1024)}, f32[2048,4,6144]{2,1,0:T(4,128)}, f32[2048,4,6144]{2,1,0:T(4,128)}, f32[6144,4,2048]{2,1,0:T(4,128)}, f32[2048,4]{0,1:T(4,128)}, /*index=20*/f32[2048,4]{0,1:T(4,128)}, f32[2048,4,8,128]{3,2,1,0:T(8,128)}, f32[128,4]{0,1:T(4,128)}, f32[16,4,128,2048]{3,2,1,0:T(8,128)}, f32[2048,4,16,128]{3,2,1,0:T(8,128)}, /*index=25*/f32[128,4]{0,1:T(4,128)}, f32[2048,4,8,128]{3,2,1,0:T(8,128)}, f32[151936,2048]{1,0:T(8,128)}, f32[2048]{0:T(1024)}, f32[2048,4,6144]{2,1,0:T(4,128)}, /*index=30*/f32[2048,4,6144]{2,1,0:T(4,128)}, f32[6144,4,2048]{2,1,0:T(4,128)}, f32[2048,4]{0,1:T(4,128)}, f32[2048,4]{0,1:T(4,128)}, f32[2048,4,8,128]{3,2,1,0:T(8,128)}, /*index=35*/f32[128,4]{0,1:T(4,128)}, f32[16,4,128,2048]{3,2,1,0:T(8,128)}, f32[2048,4,16,128]{3,2,1,0:T(8,128)}, f32[128,4]{0,1:T(4,128)}, f32[2048,4,8,128]{3,2,1,0:T(8,128)}, /*index=40*/f32[151936,2048]{1,0:T(8,128)}, s32[]{:T(128)}, s32[4,128]{1,0:T(4,128)}, s32[4,128]{1,0:T(4,128)}, s32[4,128]{1,0:T(4,128)}, /*index=45*/s32[4,128]{1,0:T(4,128)}, s32[4,128]{1,0:T(4,128)})->(s32[]{:T(128)}, f32[2048]{0:T(1024)}, f32[2048,4,6144]{2,1,0:T(4,128)}, f32[2048,4,6144]{2,1,0:T(4,128)}, f32[6144,4,2048]{2,1,0:T(4,128)}, /*index=5*/f32[2048,4]{0,1:T(4,128)}, f32[2048,4]{0,1:T(4,128)}, f32[2048,4,8,128]{3,2,1,0:T(8,128)}, f32[128,4]{0,1:T(4,128)}, f32[16,4,128,2048]{3,2,1,0:T(8,128)}, /*index=10*/f32[2048,4,16,128]{3,2,1,0:T(8,128)}, f32[128,4]{0,1:T(4,128)}, f32[2048,4,8,128]{3,2,1,0:T(8,128)}, f32[151936,2048]{1,0:T(8,128)}, s32[]{:T(128)}, /*index=15*/f32[2048]{0:T(1024)}, f32[2048,4,6144]{2,1,0:T(4,128)}, f32[2048,4,6144]{2,1,0:T(4,128)}, f32[6144,4,2048]{2,1,0:T(4,128)}, f32[2048,4]{0,1:T(4,128)}, /*index=20*/f32[2048,4]{0,1:T(4,128)}, f32[2048,4,8,128]{3,2,1,0:T(8,128)}, f32[128,4]{0,1:T(4,128)}, f32[16,4,128,2048]{3,2,1,0:T(8,128)}, f32[2048,4,16,128]{3,2,1,0:T(8,128)}, /*index=25*/f32[128,4]{0,1:T(4,128)}, f32[2048,4,8,128]{3,2,1,0:T(8,128)}, f32[151936,2048]{1,0:T(8,128)}, f32[2048]{0:T(1024)}, f32[2048,4,6144]{2,1,0:T(4,128)}, /*index=30*/f32[2048,4,6144]{2,1,0:T(4,128)}, f32[6144,4,2048]{2,1,0:T(4,128)}, f32[2048,4]{0,1:T(4,128)}, f32[2048,4]{0,1:T(4,128)}, f32[2048,4,8,128]{3,2,1,0:T(8,128)}, /*index=35*/f32[128,4]{0,1:T(4,128)}, f32[16,4,128,2048]{3,2,1,0:T(8,128)}, f32[2048,4,16,128]{3,2,1,0:T(8,128)}, f32[128,4]{0,1:T(4,128)}, f32[2048,4,8,128]{3,2,1,0:T(8,128)}, /*index=40*/f32[151936,2048]{1,0:T(8,128)}, s32[]{:T(128)}, f32[]{:T(128)}, f32[]{:T(128)}, f32[]{:T(128)}, /*index=45*/f32[]{:T(128)}, f32[]{:T(128)}, f32[]{:T(128)}, f32[]{:T(128)}, f32[]{:T(128)}, /*index=50*/f32[]{:T(128)}, s32[]{:T(128)}, f32[]{:T(128)})}, allow_spmd_sharding_propagation_to_parameters={false,false,false,false,false,false,false,false,false,false,false,false,false,false,false,false,false,false,false,false,false,false,false,false,false,false,false,false,false,false,false,false,false,false,false,false,false,false,false,false,false,false,false,false,false,false,false}, allow_spmd_sharding_propagation_to_output={false,false,false,false,false,false,false,false,false,false,false,false,false,false,false,false,false,false,false,false,false,false,false,false,false,false,false,false,false,false,false,false,false,false,false,false,false,false,false,false,false,false,true,true,true,true,true,true,true,true,true,true,true}, num_partitions=4

FileNames

FunctionNames

FileLocations

StackFrames


%fused_computation (param_0.2: bf16[151936,2048], param_1.7: s32[1024]) -> bf16[512,2048] {
  %param_0.2 = bf16[151936,2048]{1,0:T(8,128)(2,1)} parameter(0)
  %param_1.7 = s32[1024]{0:T(1024)S(1)} parameter(1)
  %custom-call.1 = s32[1024]{0:T(1024)} custom-call(%param_1.7), custom_call_target="AssumeGatherIndicesInBound", operand_layout_constraints={s32[1024]{0:T(1024)}}, metadata={op_name="jit(train_step)/jvp(TransformerLinenPure.apply)/TransformerLinenPure/decoder/decoder._apply_embedding/token_embedder/gather" stack_frame_id=0}
  %slice.6 = s32[512]{0:T(512)} slice(%custom-call.1), slice={[0:512]}, metadata={op_name="jit(train_step)/jvp(TransformerLinenPure.apply)/TransformerLinenPure/decoder/decoder._apply_embedding/token_embedder/gather" stack_frame_id=0}
  %reshape.554 = s32[4,128]{1,0:T(4,128)} reshape(%slice.6), metadata={op_name="jit(train_step)/jvp(TransformerLinenPure.apply)/TransformerLinenPure/decoder/decoder._apply_embedding/token_embedder/broadcast_in_dim" stack_frame_id=0}
  %transpose.261 = s32[4,128]{1,0:T(4,128)} transpose(%reshape.554), dimensions={0,1}, metadata={op_name="jit(train_step)/jvp(TransformerLinenPure.apply)/TransformerLinenPure/decoder/decoder._apply_embedding/token_embedder/broadcast_in_dim" stack_frame_id=0}
  %gather.4 = bf16[4,128,2048]{2,1,0:T(8,128)(2,1)} gather(%param_0.2, %transpose.261), offset_dims={2}, collapsed_slice_dims={0}, start_index_map={0}, index_vector_dim=2, slice_sizes={1,2048}, metadata={op_name="jit(train_step)/jvp(TransformerLinenPure.apply)/TransformerLinenPure/decoder/decoder._apply_embedding/token_embedder/gather" stack_frame_id=0}
  %transpose.260 = bf16[4,128,2048]{2,1,0:T(8,128)(2,1)} transpose(%gather.4), dimensions={0,1,2}, metadata={op_name="jit(train_step)/jvp(TransformerLinenPure.apply)/TransformerLinenPure/decoder/decoder._apply_embedding/token_embedder/gather" stack_frame_id=0}
  ROOT %reshape.553 = bf16[512,2048]{1,0:T(8,128)(2,1)S(1)} reshape(%transpose.260), metadata={op_name="jit(train_step)/jvp(TransformerLinenPure.apply)/TransformerLinenPure/decoder/decoder._apply_embedding/token_embedder/gather" stack_frame_id=0}
}

%region_42.47.clone (scatter-add.6: bf16[], scatter-add.7: bf16[]) -> bf16[] {
  %scatter-add.7 = bf16[]{:T(256)} parameter(1), metadata={op_name="jit(train_step)/transpose(jvp(TransformerLinenPure.apply))/TransformerLinenPure/decoder/decoder._apply_embedding/token_embedder/scatter-add"}
  %scatter-add.6 = bf16[]{:T(256)} parameter(0), metadata={op_name="jit(train_step)/transpose(jvp(TransformerLinenPure.apply))/TransformerLinenPure/decoder/decoder._apply_embedding/token_embedder/scatter-add"}
  ROOT %add.560 = bf16[]{:T(256)} add(%scatter-add.6, %scatter-add.7), metadata={op_name="jit(train_step)/transpose(jvp(TransformerLinenPure.apply))/TransformerLinenPure/decoder/decoder._apply_embedding/token_embedder/add" stack_frame_id=0}, backend_config={"flag_configs":[],"scoped_memory_configs":[],"used_scoped_memory_configs":[],"aliasing_operands":{"lists":[]}}
}

%fused_computation.1 (param_0.3: bf16[151936,2048], param_1.5: s32[512], param_2.4: bf16[512,2048]) -> bf16[151936,2048] {
  %param_0.3 = bf16[151936,2048]{1,0:T(8,128)(2,1)} parameter(0)
  %param_1.5 = s32[512]{0:T(512)S(1)} parameter(1)
  %reshape.561 = s32[4,128]{1,0:T(4,128)} reshape(%param_1.5), metadata={op_name="jit(train_step)/jvp(TransformerLinenPure.apply)/TransformerLinenPure/decoder/decoder._apply_embedding/token_embedder/broadcast_in_dim" stack_frame_id=0}
  %transpose.266 = s32[4,128]{1,0:T(4,128)} transpose(%reshape.561), dimensions={0,1}, metadata={op_name="jit(train_step)/jvp(TransformerLinenPure.apply)/TransformerLinenPure/decoder/decoder._apply_embedding/token_embedder/broadcast_in_dim" stack_frame_id=0}
  %param_2.4 = bf16[512,2048]{1,0:T(8,128)(2,1)} parameter(2)
  %reshape.562 = bf16[4,128,2048]{2,1,0:T(8,128)(2,1)} reshape(%param_2.4), metadata={op_name="jit(train_step)/transpose(jvp(TransformerLinenPure.apply))/TransformerLinenPure/decoder/while" stack_frame_id=0}
  %transpose.267 = bf16[4,128,2048]{2,1,0:T(8,128)(2,1)} transpose(%reshape.562), dimensions={0,1,2}, metadata={op_name="jit(train_step)/transpose(jvp(TransformerLinenPure.apply))/TransformerLinenPure/decoder/while" stack_frame_id=0}
  ROOT %scatter.2 = bf16[151936,2048]{1,0:T(8,128)(2,1)} scatter(%param_0.3, %transpose.266, %transpose.267), update_window_dims={2}, inserted_window_dims={0}, scatter_dims_to_operand_dims={0}, index_vector_dim=2, to_apply=%region_42.47.clone, metadata={op_name="jit(train_step)/transpose(jvp(TransformerLinenPure.apply))/TransformerLinenPure/decoder/decoder._apply_embedding/token_embedder/scatter-add" stack_frame_id=0}
}

%region_71.76 (reduce_sum.569: f32[], reduce_sum.570: f32[]) -> f32[] {
  %reduce_sum.570 = f32[]{:T(128)} parameter(1), metadata={op_name="jit(train_step)/reduce_sum"}
  %reduce_sum.569 = f32[]{:T(128)} parameter(0), metadata={op_name="jit(train_step)/reduce_sum"}
  ROOT %reduce_sum.571 = f32[]{:T(128)} add(%reduce_sum.569, %reduce_sum.570), metadata={op_name="jit(train_step)/reduce_sum" stack_frame_id=0}, backend_config={"flag_configs":[],"scoped_memory_configs":[],"used_scoped_memory_configs":[],"aliasing_operands":{"lists":[]}}
}

%region_56.61 (reduce_sum.488: f32[], reduce_sum.492: f32[]) -> f32[] {
  %reduce_sum.492 = f32[]{:T(128)} parameter(1), metadata={op_name="jit(train_step)/reduce_sum"}
  %reduce_sum.488 = f32[]{:T(128)} parameter(0), metadata={op_name="jit(train_step)/reduce_sum"}
  ROOT %reduce_sum.493 = f32[]{:T(128)} add(%reduce_sum.488, %reduce_sum.492), metadata={op_name="jit(train_step)/reduce_sum" stack_frame_id=0}, backend_config={"flag_configs":[],"scoped_memory_configs":[],"used_scoped_memory_configs":[],"aliasing_operands":{"lists":[]}}
}

%fused_computation.288 (param_0.1409: f32[151936,2048], param_1.1583: f32[], param_2.1325: f32[], param_3.908: f32[], param_4.547: f32[151936,2048], param_5.481: f32[], param_6.356: bf16[151936,2048], param_7.200: bf16[151936,2048,1], param_8.118: pred[], param_9.97: f32[151936,2048]) -> (f32[], f32[151936,2048], f32[151936,2048], f32[151936,2048], f32[]) {
  %param_0.1409 = f32[151936,2048]{1,0:T(8,128)} parameter(0)
  %param_3.908 = f32[]{:T(128)S(6)} parameter(3)
  %mul.2449.clone.1 = f32[151936,2048]{1,0:T(8,128)} broadcast(%param_3.908), dimensions={}, metadata={op_name="jit(train_step)/mul" stack_frame_id=0}
  %param_8.118 = pred[]{:T(512)S(6)} parameter(8)
  %select_n.268.clone.1 = pred[151936,2048]{1,0:T(8,128)(4,1)} broadcast(%param_8.118), dimensions={}, metadata={op_name="jit(train_step)/select_n" stack_frame_id=0}
  %param_7.200 = bf16[151936,2048,1]{1,0,2:T(8,128)(2,1)} parameter(7)
  %bitcast.445.clone.1 = bf16[151936,2048]{1,0:T(8,128)(2,1)} bitcast(%param_7.200), metadata={op_name="jit(train_step)/transpose(jvp(TransformerLinenPure.apply))/TransformerLinenPure/decoder/decoder.apply_output_head/dot_general" stack_frame_id=0}
  %convert_element_type.1433.clone.1 = f32[151936,2048]{1,0:T(8,128)} convert(%bitcast.445.clone.1), metadata={op_name="jit(train_step)/transpose(jvp(TransformerLinenPure.apply))/TransformerLinenPure/decoder/decoder.apply_output_head/convert_element_type" stack_frame_id=0}
  %param_6.356 = bf16[151936,2048]{1,0:T(8,128)(2,1)} parameter(6)
  %convert_element_type.1432.clone.1 = f32[151936,2048]{1,0:T(8,128)} convert(%param_6.356), metadata={op_name="jit(train_step)/transpose(jvp(TransformerLinenPure.apply))/TransformerLinenPure/decoder/decoder._apply_embedding/token_embedder/convert_element_type" stack_frame_id=0}
  %add_any.188.clone.1 = f32[151936,2048]{1,0:T(8,128)} add(%convert_element_type.1433.clone.1, %convert_element_type.1432.clone.1), metadata={op_name="jit(train_step)/transpose(jvp(TransformerLinenPure.apply))/TransformerLinenPure/decoder/decoder._apply_embedding/token_embedder/add_any" stack_frame_id=0}
  %param_5.481 = f32[]{:T(128)} parameter(5)
  %div.860.clone.1 = f32[151936,2048]{1,0:T(8,128)} broadcast(%param_5.481), dimensions={}, metadata={op_name="jit(train_step)/div" stack_frame_id=0}
  %div.859.clone.1 = f32[151936,2048]{1,0:T(8,128)} divide(%add_any.188.clone.1, %div.860.clone.1), metadata={op_name="jit(train_step)/div" stack_frame_id=0}
  %select_n.267.clone.1 = f32[151936,2048]{1,0:T(8,128)} select(%select_n.268.clone.1, %add_any.188.clone.1, %div.859.clone.1), metadata={op_name="jit(train_step)/select_n" stack_frame_id=0}
  %constant.1080.clone.1 = f32[]{:T(128)} constant(0.1)
  %broadcast.754.clone.1 = f32[151936,2048]{1,0:T(8,128)} broadcast(%constant.1080.clone.1), dimensions={}, metadata={op_name="broadcast.74"}
  %mul.2455.clone.1 = f32[151936,2048]{1,0:T(8,128)} multiply(%select_n.267.clone.1, %broadcast.754.clone.1), metadata={op_name="jit(train_step)/mul" stack_frame_id=0}
  %param_9.97 = f32[151936,2048]{1,0:T(8,128)} parameter(9)
  %constant.1084.clone.1 = f32[]{:T(128)} constant(0.9)
  %mul.2456.clone.1 = f32[151936,2048]{1,0:T(8,128)} broadcast(%constant.1084.clone.1), dimensions={}, metadata={op_name="jit(train_step)/mul" stack_frame_id=0}
  %mul.2454.clone.1 = f32[151936,2048]{1,0:T(8,128)} multiply(%param_9.97, %mul.2456.clone.1), metadata={op_name="jit(train_step)/mul" stack_frame_id=0}
  %add.917.clone.1 = f32[151936,2048]{1,0:T(8,128)} add(%mul.2455.clone.1, %mul.2454.clone.1), metadata={op_name="jit(train_step)/add" stack_frame_id=0}
  %param_2.1325 = f32[]{:T(128)S(6)} parameter(2)
  %div.856.clone.1 = f32[151936,2048]{1,0:T(8,128)} broadcast(%param_2.1325), dimensions={}, metadata={op_name="jit(train_step)/div" stack_frame_id=0}
  %integer_pow.65.clone.1 = f32[151936,2048]{1,0:T(8,128)} multiply(%select_n.267.clone.1, %select_n.267.clone.1), metadata={op_name="jit(train_step)/integer_pow" stack_frame_id=0}
  %constant.1083.clone.1 = f32[]{:T(128)} constant(0.05)
  %mul.2453.clone.1 = f32[151936,2048]{1,0:T(8,128)} broadcast(%constant.1083.clone.1), dimensions={}, metadata={op_name="jit(train_step)/mul" stack_frame_id=0}
  %mul.2451.clone.1 = f32[151936,2048]{1,0:T(8,128)} multiply(%integer_pow.65.clone.1, %mul.2453.clone.1), metadata={op_name="jit(train_step)/mul" stack_frame_id=0}
  %param_4.547 = f32[151936,2048]{1,0:T(8,128)} parameter(4)
  %constant.1082.clone.1 = f32[]{:T(128)} constant(0.95)
  %mul.2452.clone.1 = f32[151936,2048]{1,0:T(8,128)} broadcast(%constant.1082.clone.1), dimensions={}, metadata={op_name="jit(train_step)/mul" stack_frame_id=0}
  %mul.2450.clone.1 = f32[151936,2048]{1,0:T(8,128)} multiply(%param_4.547, %mul.2452.clone.1), metadata={op_name="jit(train_step)/mul" stack_frame_id=0}
  %add.916.clone.1 = f32[151936,2048]{1,0:T(8,128)} add(%mul.2451.clone.1, %mul.2450.clone.1), metadata={op_name="jit(train_step)/add" stack_frame_id=0}
  %param_1.1583 = f32[]{:T(128)S(6)} parameter(1)
  %div.855.clone.1 = f32[151936,2048]{1,0:T(8,128)} broadcast(%param_1.1583), dimensions={}, metadata={op_name="jit(train_step)/div" stack_frame_id=0}
  %div.854.clone.1 = f32[151936,2048]{1,0:T(8,128)} divide(%add.916.clone.1, %div.855.clone.1), metadata={op_name="jit(train_step)/div" stack_frame_id=0}
  %sqrt.62.clone.1 = f32[151936,2048]{1,0:T(8,128)} sqrt(%div.854.clone.1), metadata={op_name="jit(train_step)/sqrt" stack_frame_id=0}
  %constant.1081.clone.1 = f32[]{:T(128)} constant(1e-08)
  %add.915.clone.1 = f32[151936,2048]{1,0:T(8,128)} broadcast(%constant.1081.clone.1), dimensions={}, metadata={op_name="jit(train_step)/add" stack_frame_id=0}
  %add.914.clone.1 = f32[151936,2048]{1,0:T(8,128)} add(%sqrt.62.clone.1, %add.915.clone.1), metadata={op_name="jit(train_step)/add" stack_frame_id=0}
  %multiply.287.clone.1 = f32[151936,2048]{1,0:T(8,128)} multiply(%div.856.clone.1, %add.914.clone.1), metadata={op_name="multiply.46"}
  %div.853.clone.1 = f32[151936,2048]{1,0:T(8,128)} divide(%add.917.clone.1, %multiply.287.clone.1), metadata={op_name="jit(train_step)/div" stack_frame_id=0}
  %mul.2448.clone.1 = f32[151936,2048]{1,0:T(8,128)} multiply(%param_0.1409, %broadcast.754.clone.1), metadata={op_name="jit(train_step)/mul" stack_frame_id=0}
  %add.913.clone.1 = f32[151936,2048]{1,0:T(8,128)} add(%div.853.clone.1, %mul.2448.clone.1), metadata={op_name="jit(train_step)/add" stack_frame_id=0}
  %mul.2447.clone.1 = f32[151936,2048]{1,0:T(8,128)} multiply(%mul.2449.clone.1, %add.913.clone.1), metadata={op_name="jit(train_step)/mul" stack_frame_id=0}
  %add.912.clone.1 = f32[151936,2048]{1,0:T(8,128)} add(%param_0.1409, %mul.2447.clone.1), metadata={op_name="jit(train_step)/add" stack_frame_id=0}
  %square.214 = f32[151936,2048]{1,0:T(8,128)} multiply(%add.912.clone.1, %add.912.clone.1), metadata={op_name="jit(train_step)/square" stack_frame_id=0}
  %constant.1188 = f32[]{:T(128)} constant(0)
  %reduce.106 = f32[]{:T(128)} reduce(%square.214, %constant.1188), dimensions={0,1}, to_apply=%region_71.76, metadata={op_name="jit(train_step)/reduce_sum" stack_frame_id=0}
  %reduce.108.clone.1 = f32[]{:T(128)} reduce(%integer_pow.65.clone.1, %constant.1188), dimensions={0,1}, to_apply=%region_56.61, metadata={op_name="jit(train_step)/reduce_sum" stack_frame_id=0}
  ROOT %tuple.145 = (f32[]{:T(128)}, f32[151936,2048]{1,0:T(8,128)}, f32[151936,2048]{1,0:T(8,128)}, f32[151936,2048]{1,0:T(8,128)}, f32[]{:T(128)}) tuple(%reduce.106, %add.912.clone.1, %add.916.clone.1, %add.917.clone.1, %reduce.108.clone.1)
}

%region_43.48 (reduce_sum.422: f32[], reduce_sum.423: f32[]) -> f32[] {
  %reduce_sum.423 = f32[]{:T(128)} parameter(1), metadata={op_name="jit(train_step)/reduce_sum"}
  %reduce_sum.422 = f32[]{:T(128)} parameter(0), metadata={op_name="jit(train_step)/reduce_sum"}
  ROOT %reduce_sum.424 = f32[]{:T(128)} add(%reduce_sum.422, %reduce_sum.423), metadata={op_name="jit(train_step)/reduce_sum" stack_frame_id=0}, backend_config={"flag_configs":[],"scoped_memory_configs":[],"used_scoped_memory_configs":[],"aliasing_operands":{"lists":[]}}
}

%fused_computation.378.clone.clone (param_0.1396: f32[4,128], param_1.1576: bf16[4,128,2048], param_2.1301: bf16[2048]) -> bf16[4,128,2048] {
  %param_1.1576 = bf16[4,128,2048]{2,1,0:T(8,128)(2,1)S(1)} parameter(1)
  %convert_element_type.1475 = f32[4,128,2048]{2,1,0:T(8,128)} convert(%param_1.1576), metadata={op_name="jit(train_step)/jvp(TransformerLinenPure.apply)/TransformerLinenPure/decoder/decoder.apply_output_head/decoder_norm/convert_element_type" stack_frame_id=0}
  %param_0.1396 = f32[4,128]{1,0:T(4,128)S(1)} parameter(0)
  %mul.2627 = f32[4,128,2048]{2,1,0:T(8,128)} broadcast(%param_0.1396), dimensions={0,1}, metadata={op_name="jit(train_step)/jvp(TransformerLinenPure.apply)/TransformerLinenPure/decoder/decoder.apply_output_head/decoder_norm/mul" stack_frame_id=0}
  %mul.2626 = f32[4,128,2048]{2,1,0:T(8,128)} multiply(%convert_element_type.1475, %mul.2627), metadata={op_name="jit(train_step)/jvp(TransformerLinenPure.apply)/TransformerLinenPure/decoder/decoder.apply_output_head/decoder_norm/mul" stack_frame_id=0}
  %convert_element_type.1474 = bf16[4,128,2048]{2,1,0:T(8,128)(2,1)} convert(%mul.2626), metadata={op_name="jit(train_step)/jvp(TransformerLinenPure.apply)/TransformerLinenPure/decoder/decoder.apply_output_head/decoder_norm/convert_element_type" stack_frame_id=0}
  %param_2.1301 = bf16[2048]{0:T(1024)(128)(2,1)S(1)} parameter(2)
  %mul.2628 = bf16[4,128,2048]{2,1,0:T(8,128)(2,1)} broadcast(%param_2.1301), dimensions={2}, metadata={op_name="jit(train_step)/jvp(TransformerLinenPure.apply)/TransformerLinenPure/decoder/decoder.apply_output_head/decoder_norm/mul" stack_frame_id=0}
  ROOT %mul.2625 = bf16[4,128,2048]{2,1,0:T(8,128)(2,1)} multiply(%convert_element_type.1474, %mul.2628), metadata={op_name="jit(train_step)/jvp(TransformerLinenPure.apply)/TransformerLinenPure/decoder/decoder.apply_output_head/decoder_norm/mul" stack_frame_id=0}
}

%fused_computation.300.clone.clone.clone (param_0.1397: bf16[4,128,151936], param_1.1577: s32[4,128], param_2.1302: f32[4,128], param_3.901: f32[4,128], param_4.537: bf16[4,128], param_5.459: f32[4,128]) -> bf16[4,128,151936] {
  %param_5.459 = f32[4,128]{1,0:T(4,128)S(1)} parameter(5)
  %mul.2632 = f32[4,128,151936]{2,1,0:T(8,128)} broadcast(%param_5.459), dimensions={0,1}, metadata={op_name="jit(train_step)/transpose(jvp())/mul" stack_frame_id=0}
  %param_3.901 = f32[4,128]{1,0:T(4,128)S(1)} parameter(3)
  %mul.2631 = f32[4,128,151936]{2,1,0:T(8,128)} broadcast(%param_3.901), dimensions={0,1}, metadata={op_name="jit(train_step)/transpose(jvp())/mul" stack_frame_id=0}
  %param_0.1397 = bf16[4,128,151936]{2,1,0:T(8,128)(2,1)} parameter(0)
  %convert_element_type.1478 = f32[4,128,151936]{2,1,0:T(8,128)} convert(%param_0.1397), metadata={op_name="jit(train_step)/jvp(TransformerLinenPure.apply)/TransformerLinenPure/decoder/decoder.apply_output_head/convert_element_type" stack_frame_id=0}
  %param_4.537 = bf16[4,128]{1,0:T(4,128)(2,1)S(1)} parameter(4)
  %sub.92 = f32[4,128,151936]{2,1,0:T(8,128)} broadcast(%param_4.537), dimensions={0,1}, metadata={op_name="jit(train_step)/jvp()/sub" stack_frame_id=0}
  %sub.91 = f32[4,128,151936]{2,1,0:T(8,128)} subtract(%convert_element_type.1478, %sub.92), metadata={op_name="jit(train_step)/jvp()/sub" stack_frame_id=0}
  %exp.62 = f32[4,128,151936]{2,1,0:T(8,128)} exponential(%sub.91), metadata={op_name="jit(train_step)/jvp()/exp" stack_frame_id=0}
  %mul.2630 = f32[4,128,151936]{2,1,0:T(8,128)} multiply(%mul.2631, %exp.62), metadata={op_name="jit(train_step)/transpose(jvp())/mul" stack_frame_id=0}
  %param_2.1302 = f32[4,128]{1,0:T(4,128)S(1)} parameter(2)
  %div.966 = f32[4,128,151936]{2,1,0:T(8,128)} broadcast(%param_2.1302), dimensions={0,1}, metadata={op_name="jit(train_step)/transpose(jvp())/div" stack_frame_id=0}
  %div.965 = f32[4,128,151936]{2,1,0:T(8,128)} divide(%mul.2630, %div.966), metadata={op_name="jit(train_step)/transpose(jvp())/div" stack_frame_id=0}
  %param_1.1577 = s32[4,128]{1,0:T(4,128)S(1)} parameter(1)
  %eq.49 = s32[4,128,151936]{2,1,0:T(8,128)} broadcast(%param_1.1577), dimensions={0,1}, metadata={op_name="jit(train_step)/jvp(jit(_one_hot))/eq" stack_frame_id=0}
  %eq.48 = s32[4,128,151936]{2,1,0:T(8,128)} iota(), iota_dimension=2, metadata={op_name="jit(train_step)/jvp(jit(_one_hot))/eq" stack_frame_id=0}
  %eq.47 = pred[4,128,151936]{2,1,0:T(8,128)(4,1)} compare(%eq.49, %eq.48), direction=EQ, metadata={op_name="jit(train_step)/jvp(jit(_one_hot))/eq" stack_frame_id=0}
  %convert_element_type.1477 = f32[4,128,151936]{2,1,0:T(8,128)} convert(%eq.47), metadata={op_name="jit(train_step)/jvp(jit(_one_hot))/convert_element_type" stack_frame_id=0}
  %sub.90 = f32[4,128,151936]{2,1,0:T(8,128)} subtract(%div.965, %convert_element_type.1477), metadata={op_name="jit(train_step)/transpose(jvp())/sub" stack_frame_id=0}
  %mul.2629 = f32[4,128,151936]{2,1,0:T(8,128)} multiply(%mul.2632, %sub.90), metadata={op_name="jit(train_step)/transpose(jvp())/mul" stack_frame_id=0}
  ROOT %convert_element_type.1476 = bf16[4,128,151936]{2,1,0:T(8,128)(2,1)} convert(%mul.2629), metadata={op_name="jit(train_step)/transpose(jvp(TransformerLinenPure.apply))/TransformerLinenPure/decoder/decoder.apply_output_head/convert_element_type" stack_frame_id=0}
}

%fused_computation.292 (param_0.1422: bf16[151936,2048], param_1.1596: f32[4,128], param_2.1338: bf16[4,128,2048], param_3.921: bf16[2048], param_4.560: bf16[4,128,151936], param_5.494: s32[4,128], param_6.369: f32[4,128], param_7.213: f32[4,128], param_8.131: bf16[4,128], param_9.98: f32[4,128]) -> (f32[], bf16[151936,2048,1]) {
  %param_4.560 = bf16[4,128,151936]{2,1,0:T(8,128)(2,1)} parameter(4)
  %param_5.494 = s32[4,128]{1,0:T(4,128)S(1)} parameter(5)
  %param_6.369 = f32[4,128]{1,0:T(4,128)S(1)} parameter(6)
  %param_7.213 = f32[4,128]{1,0:T(4,128)S(1)} parameter(7)
  %param_8.131 = bf16[4,128]{1,0:T(4,128)(2,1)S(1)} parameter(8)
  %param_9.98 = f32[4,128]{1,0:T(4,128)S(1)} parameter(9)
  %multiply_convert_fusion.2.clone.1 = bf16[4,128,151936]{2,1,0:T(8,128)(2,1)} fusion(%param_4.560, %param_5.494, %param_6.369, %param_7.213, %param_8.131, /*index=5*/%param_9.98), kind=kLoop, calls=%fused_computation.300.clone.clone.clone, metadata={op_name="jit(train_step)/transpose(jvp(TransformerLinenPure.apply))/TransformerLinenPure/decoder/decoder.apply_output_head/convert_element_type" stack_frame_id=0}
  %param_1.1596 = f32[4,128]{1,0:T(4,128)S(1)} parameter(1)
  %param_2.1338 = bf16[4,128,2048]{2,1,0:T(8,128)(2,1)S(1)} parameter(2)
  %param_3.921 = bf16[2048]{0:T(1024)(128)(2,1)S(1)} parameter(3)
  %fusion.279.clone.1 = bf16[4,128,2048]{2,1,0:T(8,128)(2,1)} fusion(%param_1.1596, %param_2.1338, %param_3.921), kind=kLoop, calls=%fused_computation.378.clone.clone, metadata={op_name="jit(train_step)/jvp(TransformerLinenPure.apply)/TransformerLinenPure/decoder/decoder.apply_output_head/decoder_norm/mul" stack_frame_id=0}
  %convolution.86.clone.1 = bf16[151936,2048,1]{1,0,2:T(8,128)(2,1)} convolution(%multiply_convert_fusion.2.clone.1, %fusion.279.clone.1), window={size=4}, dim_labels=0fb_0io->bf0, metadata={op_name="jit(train_step)/transpose(jvp(TransformerLinenPure.apply))/TransformerLinenPure/decoder/decoder.apply_output_head/dot_general" stack_frame_id=0}
  %bitcast.314 = bf16[151936,2048]{1,0:T(8,128)(2,1)} bitcast(%convolution.86.clone.1), metadata={op_name="jit(train_step)/transpose(jvp(TransformerLinenPure.apply))/TransformerLinenPure/decoder/decoder.apply_output_head/dot_general" stack_frame_id=0}
  %convert_element_type.1347 = f32[151936,2048]{1,0:T(8,128)} convert(%bitcast.314), metadata={op_name="jit(train_step)/transpose(jvp(TransformerLinenPure.apply))/TransformerLinenPure/decoder/decoder.apply_output_head/convert_element_type" stack_frame_id=0}
  %param_0.1422 = bf16[151936,2048]{1,0:T(8,128)(2,1)} parameter(0)
  %convert_element_type.1346 = f32[151936,2048]{1,0:T(8,128)} convert(%param_0.1422), metadata={op_name="jit(train_step)/transpose(jvp(TransformerLinenPure.apply))/TransformerLinenPure/decoder/decoder._apply_embedding/token_embedder/convert_element_type" stack_frame_id=0}
  %add_any.175 = f32[151936,2048]{1,0:T(8,128)} add(%convert_element_type.1347, %convert_element_type.1346), metadata={op_name="jit(train_step)/transpose(jvp(TransformerLinenPure.apply))/TransformerLinenPure/decoder/decoder._apply_embedding/token_embedder/add_any" stack_frame_id=0}
  %square.215 = f32[151936,2048]{1,0:T(8,128)} multiply(%add_any.175, %add_any.175), metadata={op_name="jit(train_step)/square" stack_frame_id=0}
  %constant.1201 = f32[]{:T(128)} constant(0)
  %reduce.107 = f32[]{:T(128)} reduce(%square.215, %constant.1201), dimensions={0,1}, to_apply=%region_43.48, metadata={op_name="jit(train_step)/reduce_sum" stack_frame_id=0}
  ROOT %tuple.167 = (f32[]{:T(128)}, bf16[151936,2048,1]{1,0,2:T(8,128)(2,1)}) tuple(%reduce.107, %convolution.86.clone.1)
}

%region_57.62 (reduce_sum.494: f32[], reduce_sum.495: f32[]) -> f32[] {
  %reduce_sum.495 = f32[]{:T(128)} parameter(1), metadata={op_name="jit(train_step)/jvp()/reduce_sum"}
  %reduce_sum.494 = f32[]{:T(128)} parameter(0), metadata={op_name="jit(train_step)/jvp()/reduce_sum"}
  ROOT %reduce_sum.499 = f32[]{:T(128)} add(%reduce_sum.494, %reduce_sum.495), metadata={op_name="jit(train_step)/jvp()/reduce_sum" stack_frame_id=0}, backend_config={"flag_configs":[],"scoped_memory_configs":[],"used_scoped_memory_configs":[],"aliasing_operands":{"lists":[]}}
}

%fused_computation.299 (param_0.1433: bf16[4,128,151936], param_1.1604: f32[4,128], param_2.1341: s32[4,128], param_3.923: bf16[4,128]) -> f32[4,128] {
  %param_2.1341 = s32[4,128]{1,0:T(4,128)S(1)} parameter(2)
  %eq.30 = s32[4,128,151936]{2,1,0:T(8,128)} broadcast(%param_2.1341), dimensions={0,1}, metadata={op_name="jit(train_step)/jvp(jit(_one_hot))/eq" stack_frame_id=0}
  %eq.25 = s32[4,128,151936]{2,1,0:T(8,128)} iota(), iota_dimension=2, metadata={op_name="jit(train_step)/jvp(jit(_one_hot))/eq" stack_frame_id=0}
  %eq.24 = pred[4,128,151936]{2,1,0:T(8,128)(4,1)} compare(%eq.30, %eq.25), direction=EQ, metadata={op_name="jit(train_step)/jvp(jit(_one_hot))/eq" stack_frame_id=0}
  %param_0.1433 = bf16[4,128,151936]{2,1,0:T(8,128)(2,1)} parameter(0)
  %convert_element_type.1364 = f32[4,128,151936]{2,1,0:T(8,128)} convert(%param_0.1433), metadata={op_name="jit(train_step)/jvp(TransformerLinenPure.apply)/TransformerLinenPure/decoder/decoder.apply_output_head/convert_element_type" stack_frame_id=0}
  %param_3.923 = bf16[4,128]{1,0:T(4,128)(2,1)S(1)} parameter(3)
  %sub.73 = f32[4,128,151936]{2,1,0:T(8,128)} broadcast(%param_3.923), dimensions={0,1}, metadata={op_name="jit(train_step)/jvp()/sub" stack_frame_id=0}
  %sub.64 = f32[4,128,151936]{2,1,0:T(8,128)} subtract(%convert_element_type.1364, %sub.73), metadata={op_name="jit(train_step)/jvp()/sub" stack_frame_id=0}
  %param_1.1604 = f32[4,128]{1,0:T(4,128)S(1)} parameter(1)
  %sub.71 = f32[4,128,151936]{2,1,0:T(8,128)} broadcast(%param_1.1604), dimensions={0,1}, metadata={op_name="jit(train_step)/jvp()/sub" stack_frame_id=0}
  %sub.60 = f32[4,128,151936]{2,1,0:T(8,128)} subtract(%sub.64, %sub.71), metadata={op_name="jit(train_step)/jvp()/sub" stack_frame_id=0}
  %constant.1213 = f32[]{:T(128)} constant(0)
  %broadcast.681 = f32[4,128,151936]{2,1,0:T(8,128)} broadcast(%constant.1213), dimensions={}, metadata={op_name="broadcast.99"}
  %mul.2269 = f32[4,128,151936]{2,1,0:T(8,128)} select(%eq.24, %sub.60, %broadcast.681), metadata={op_name="jit(train_step)/jvp()/mul" stack_frame_id=0}
  ROOT %reduce.109 = f32[4,128]{1,0:T(4,128)S(1)} reduce(%mul.2269, %constant.1213), dimensions={2}, to_apply=%region_57.62, metadata={op_name="jit(train_step)/jvp()/reduce_sum" stack_frame_id=0}
}

%region_9.12 (reduce_sum.237: f32[], reduce_sum.241: f32[]) -> f32[] {
  %reduce_sum.241 = f32[]{:T(128)} parameter(1), metadata={op_name="jit(train_step)/jvp()/reduce_sum"}
  %reduce_sum.237 = f32[]{:T(128)} parameter(0), metadata={op_name="jit(train_step)/jvp()/reduce_sum"}
  ROOT %reduce_sum.262 = f32[]{:T(128)} add(%reduce_sum.237, %reduce_sum.241), metadata={op_name="jit(train_step)/jvp()/reduce_sum" stack_frame_id=0}, backend_config={"flag_configs":[],"scoped_memory_configs":[],"used_scoped_memory_configs":[],"aliasing_operands":{"lists":[]}}
}

%fused_computation.304 (param_0.1434: bf16[4,128,151936], param_1.1605: bf16[4,128]) -> f32[4,128] {
  %param_0.1434 = bf16[4,128,151936]{2,1,0:T(8,128)(2,1)} parameter(0)
  %convert_element_type.1370 = f32[4,128,151936]{2,1,0:T(8,128)} convert(%param_0.1434), metadata={op_name="jit(train_step)/jvp(TransformerLinenPure.apply)/TransformerLinenPure/decoder/decoder.apply_output_head/convert_element_type" stack_frame_id=0}
  %param_1.1605 = bf16[4,128]{1,0:T(4,128)(2,1)S(1)} parameter(1)
  %sub.74 = f32[4,128,151936]{2,1,0:T(8,128)} broadcast(%param_1.1605), dimensions={0,1}, metadata={op_name="jit(train_step)/jvp()/sub" stack_frame_id=0}
  %sub.70 = f32[4,128,151936]{2,1,0:T(8,128)} subtract(%convert_element_type.1370, %sub.74), metadata={op_name="jit(train_step)/jvp()/sub" stack_frame_id=0}
  %exp.54 = f32[4,128,151936]{2,1,0:T(8,128)} exponential(%sub.70), metadata={op_name="jit(train_step)/jvp()/exp" stack_frame_id=0}
  %constant.1214 = f32[]{:T(128)} constant(0)
  ROOT %reduce.110 = f32[4,128]{1,0:T(4,128)S(1)} reduce(%exp.54, %constant.1214), dimensions={2}, to_apply=%region_9.12, metadata={op_name="jit(train_step)/jvp()/reduce_sum" stack_frame_id=0}
}

%region_33.38 (reduce_sum.374: f32[], reduce_sum.375: f32[]) -> f32[] {
  %reduce_sum.375 = f32[]{:T(128)} parameter(1), metadata={op_name="jit(train_step)/reduce_sum"}
  %reduce_sum.374 = f32[]{:T(128)} parameter(0), metadata={op_name="jit(train_step)/reduce_sum"}
  ROOT %reduce_sum.376 = f32[]{:T(128)} add(%reduce_sum.374, %reduce_sum.375), metadata={op_name="jit(train_step)/reduce_sum" stack_frame_id=0}, backend_config={"flag_configs":[],"scoped_memory_configs":[],"used_scoped_memory_configs":[],"aliasing_operands":{"lists":[]}}
}

%fused_computation.309 (param_0.1428: f32[4,6144,2048]) -> f32[] {
  %param_0.1428 = f32[4,6144,2048]{2,0,1:T(4,128)} parameter(0)
  %bitcast.328 = f32[6144,4,2048]{2,1,0:T(4,128)} bitcast(%param_0.1428), metadata={op_name="jit(train_step)/transpose(jvp(TransformerLinenPure.apply))/TransformerLinenPure/decoder/transpose" stack_frame_id=0}
  %square.218 = f32[6144,4,2048]{2,1,0:T(4,128)} multiply(%bitcast.328, %bitcast.328), metadata={op_name="jit(train_step)/square" stack_frame_id=0}
  %constant.1207 = f32[]{:T(128)} constant(0)
  ROOT %reduce.111 = f32[]{:T(128)} reduce(%square.218, %constant.1207), dimensions={0,1,2}, to_apply=%region_33.38, metadata={op_name="jit(train_step)/reduce_sum" stack_frame_id=0}
}

%region_32.37 (reduce_sum.368: f32[], reduce_sum.369: f32[]) -> f32[] {
  %reduce_sum.369 = f32[]{:T(128)} parameter(1), metadata={op_name="jit(train_step)/reduce_sum"}
  %reduce_sum.368 = f32[]{:T(128)} parameter(0), metadata={op_name="jit(train_step)/reduce_sum"}
  ROOT %reduce_sum.373 = f32[]{:T(128)} add(%reduce_sum.368, %reduce_sum.369), metadata={op_name="jit(train_step)/reduce_sum" stack_frame_id=0}, backend_config={"flag_configs":[],"scoped_memory_configs":[],"used_scoped_memory_configs":[],"aliasing_operands":{"lists":[]}}
}

%region_31.36 (reduce_sum.362: f32[], reduce_sum.366: f32[]) -> f32[] {
  %reduce_sum.366 = f32[]{:T(128)} parameter(1), metadata={op_name="jit(train_step)/reduce_sum"}
  %reduce_sum.362 = f32[]{:T(128)} parameter(0), metadata={op_name="jit(train_step)/reduce_sum"}
  ROOT %reduce_sum.367 = f32[]{:T(128)} add(%reduce_sum.362, %reduce_sum.366), metadata={op_name="jit(train_step)/reduce_sum" stack_frame_id=0}, backend_config={"flag_configs":[],"scoped_memory_configs":[],"used_scoped_memory_configs":[],"aliasing_operands":{"lists":[]}}
}

%fused_computation.311 (param_0.1429: f32[4,2048,6144], param_1.1600: f32[4,2048,6144]) -> (f32[], f32[]) {
  %param_0.1429 = f32[4,2048,6144]{2,0,1:T(4,128)} parameter(0)
  %bitcast.332 = f32[2048,4,6144]{2,1,0:T(4,128)} bitcast(%param_0.1429), metadata={op_name="jit(train_step)/transpose(jvp(TransformerLinenPure.apply))/TransformerLinenPure/decoder/transpose" stack_frame_id=0}
  %square.221 = f32[2048,4,6144]{2,1,0:T(4,128)} multiply(%bitcast.332, %bitcast.332), metadata={op_name="jit(train_step)/square" stack_frame_id=0}
  %constant.1208 = f32[]{:T(128)} constant(0)
  %reduce.112 = f32[]{:T(128)} reduce(%square.221, %constant.1208), dimensions={0,1,2}, to_apply=%region_32.37, metadata={op_name="jit(train_step)/reduce_sum" stack_frame_id=0}
  %param_1.1600 = f32[4,2048,6144]{2,0,1:T(4,128)} parameter(1)
  %bitcast.336.clone.1 = f32[2048,4,6144]{2,1,0:T(4,128)} bitcast(%param_1.1600), metadata={op_name="jit(train_step)/transpose(jvp(TransformerLinenPure.apply))/TransformerLinenPure/decoder/transpose" stack_frame_id=0}
  %square.224.clone.1 = f32[2048,4,6144]{2,1,0:T(4,128)} multiply(%bitcast.336.clone.1, %bitcast.336.clone.1), metadata={op_name="jit(train_step)/square" stack_frame_id=0}
  %reduce.113.clone.1 = f32[]{:T(128)} reduce(%square.224.clone.1, %constant.1208), dimensions={0,1,2}, to_apply=%region_31.36, metadata={op_name="jit(train_step)/reduce_sum" stack_frame_id=0}
  ROOT %tuple.168 = (f32[]{:T(128)}, f32[]{:T(128)}) tuple(%reduce.112, %reduce.113.clone.1)
}

%fused_computation.314 (param_0.940: f32[6144,4,2048]) -> bf16[4,6144,2048] {
  %param_0.940 = f32[6144,4,2048]{2,1,0:T(4,128)} parameter(0)
  %copy.186 = bf16[6144,4,2048]{2,0,1:T(8,128)(2,1)} copy(%param_0.940), sharding={replicated}, metadata={op_name="state.params[\'params\'][\'decoder\'][\'layers\'][\'mlp\'][\'wo\'][\'kernel\']"}
  ROOT %bitcast.337 = bf16[4,6144,2048]{2,1,0:T(8,128)(2,1)} bitcast(%copy.186), metadata={op_name="jit(train_step)/jvp(TransformerLinenPure.apply)/TransformerLinenPure/decoder/transpose" stack_frame_id=0}
}

%fused_computation.315 (param_0.942: f32[2048,4,6144]) -> bf16[4,2048,6144] {
  %param_0.942 = f32[2048,4,6144]{2,1,0:T(4,128)} parameter(0)
  %copy.187 = bf16[2048,4,6144]{2,0,1:T(8,128)(2,1)} copy(%param_0.942), sharding={replicated}, metadata={op_name="state.params[\'params\'][\'decoder\'][\'layers\'][\'mlp\'][\'wi_1\'][\'kernel\']"}
  ROOT %bitcast.338 = bf16[4,2048,6144]{2,1,0:T(8,128)(2,1)} bitcast(%copy.187), metadata={op_name="jit(train_step)/jvp(TransformerLinenPure.apply)/TransformerLinenPure/decoder/transpose" stack_frame_id=0}
}

%fused_computation.316 (param_0.944: f32[2048,4,6144]) -> bf16[4,2048,6144] {
  %param_0.944 = f32[2048,4,6144]{2,1,0:T(4,128)} parameter(0)
  %copy.188 = bf16[2048,4,6144]{2,0,1:T(8,128)(2,1)} copy(%param_0.944), sharding={replicated}, metadata={op_name="state.params[\'params\'][\'decoder\'][\'layers\'][\'mlp\'][\'wi_0\'][\'kernel\']"}
  ROOT %bitcast.339 = bf16[4,2048,6144]{2,1,0:T(8,128)(2,1)} bitcast(%copy.188), metadata={op_name="jit(train_step)/jvp(TransformerLinenPure.apply)/TransformerLinenPure/decoder/transpose" stack_frame_id=0}
}

%region_62.67 (reduce_sum.521: f32[], reduce_sum.522: f32[]) -> f32[] {
  %reduce_sum.522 = f32[]{:T(128)} parameter(1), metadata={op_name="jit(train_step)/reduce_sum"}
  %reduce_sum.521 = f32[]{:T(128)} parameter(0), metadata={op_name="jit(train_step)/reduce_sum"}
  ROOT %reduce_sum.523 = f32[]{:T(128)} add(%reduce_sum.521, %reduce_sum.522), metadata={op_name="jit(train_step)/reduce_sum" stack_frame_id=0}, backend_config={"flag_configs":[],"scoped_memory_configs":[],"used_scoped_memory_configs":[],"aliasing_operands":{"lists":[]}}
}

%region_47.52 (reduce_sum.443: f32[], reduce_sum.444: f32[]) -> f32[] {
  %reduce_sum.444 = f32[]{:T(128)} parameter(1), metadata={op_name="jit(train_step)/reduce_sum"}
  %reduce_sum.443 = f32[]{:T(128)} parameter(0), metadata={op_name="jit(train_step)/reduce_sum"}
  ROOT %reduce_sum.445 = f32[]{:T(128)} add(%reduce_sum.443, %reduce_sum.444), metadata={op_name="jit(train_step)/reduce_sum" stack_frame_id=0}, backend_config={"flag_configs":[],"scoped_memory_configs":[],"used_scoped_memory_configs":[],"aliasing_operands":{"lists":[]}}
}

%fused_computation.317 (param_0.1418: f32[6144,4,2048], param_1.1592: f32[], param_2.1334: f32[], param_3.917: f32[], param_4.556: f32[6144,4,2048], param_5.490: f32[], param_6.365: f32[4,6144,2048], param_7.209: pred[], param_8.127: f32[6144,4,2048]) -> (f32[], f32[6144,4,2048], f32[6144,4,2048], f32[6144,4,2048], f32[]) {
  %param_0.1418 = f32[6144,4,2048]{2,1,0:T(4,128)} parameter(0)
  %param_3.917 = f32[]{:T(128)S(6)} parameter(3)
  %mul.2521.clone.1 = f32[6144,4,2048]{2,1,0:T(4,128)} broadcast(%param_3.917), dimensions={}, metadata={op_name="jit(train_step)/mul" stack_frame_id=0}
  %param_7.209 = pred[]{:T(512)S(6)} parameter(7)
  %select_n.304.clone.1 = pred[6144,4,2048]{2,1,0:T(4,128)(4,1)} broadcast(%param_7.209), dimensions={}, metadata={op_name="jit(train_step)/select_n" stack_frame_id=0}
  %param_6.365 = f32[4,6144,2048]{2,0,1:T(4,128)} parameter(6)
  %bitcast.463.clone.1 = f32[6144,4,2048]{2,1,0:T(4,128)} bitcast(%param_6.365), metadata={op_name="jit(train_step)/transpose(jvp(TransformerLinenPure.apply))/TransformerLinenPure/decoder/transpose" stack_frame_id=0}
  %param_5.490 = f32[]{:T(128)} parameter(5)
  %div.932.clone.1 = f32[6144,4,2048]{2,1,0:T(4,128)} broadcast(%param_5.490), dimensions={}, metadata={op_name="jit(train_step)/div" stack_frame_id=0}
  %div.931.clone.1 = f32[6144,4,2048]{2,1,0:T(4,128)} divide(%bitcast.463.clone.1, %div.932.clone.1), metadata={op_name="jit(train_step)/div" stack_frame_id=0}
  %select_n.303.clone.1 = f32[6144,4,2048]{2,1,0:T(4,128)} select(%select_n.304.clone.1, %bitcast.463.clone.1, %div.931.clone.1), metadata={op_name="jit(train_step)/select_n" stack_frame_id=0}
  %constant.1134.clone.1 = f32[]{:T(128)} constant(0.1)
  %broadcast.796.clone.1 = f32[6144,4,2048]{2,1,0:T(4,128)} broadcast(%constant.1134.clone.1), dimensions={}, metadata={op_name="broadcast.83"}
  %mul.2527.clone.1 = f32[6144,4,2048]{2,1,0:T(4,128)} multiply(%select_n.303.clone.1, %broadcast.796.clone.1), metadata={op_name="jit(train_step)/mul" stack_frame_id=0}
  %param_8.127 = f32[6144,4,2048]{2,1,0:T(4,128)} parameter(8)
  %constant.1138.clone.1 = f32[]{:T(128)} constant(0.9)
  %mul.2528.clone.1 = f32[6144,4,2048]{2,1,0:T(4,128)} broadcast(%constant.1138.clone.1), dimensions={}, metadata={op_name="jit(train_step)/mul" stack_frame_id=0}
  %mul.2526.clone.1 = f32[6144,4,2048]{2,1,0:T(4,128)} multiply(%param_8.127, %mul.2528.clone.1), metadata={op_name="jit(train_step)/mul" stack_frame_id=0}
  %add.965.clone.1 = f32[6144,4,2048]{2,1,0:T(4,128)} add(%mul.2527.clone.1, %mul.2526.clone.1), metadata={op_name="jit(train_step)/add" stack_frame_id=0}
  %param_2.1334 = f32[]{:T(128)S(6)} parameter(2)
  %div.928.clone.1 = f32[6144,4,2048]{2,1,0:T(4,128)} broadcast(%param_2.1334), dimensions={}, metadata={op_name="jit(train_step)/div" stack_frame_id=0}
  %integer_pow.74.clone.1 = f32[6144,4,2048]{2,1,0:T(4,128)} multiply(%select_n.303.clone.1, %select_n.303.clone.1), metadata={op_name="jit(train_step)/integer_pow" stack_frame_id=0}
  %constant.1137.clone.1 = f32[]{:T(128)} constant(0.05)
  %mul.2525.clone.1 = f32[6144,4,2048]{2,1,0:T(4,128)} broadcast(%constant.1137.clone.1), dimensions={}, metadata={op_name="jit(train_step)/mul" stack_frame_id=0}
  %mul.2523.clone.1 = f32[6144,4,2048]{2,1,0:T(4,128)} multiply(%integer_pow.74.clone.1, %mul.2525.clone.1), metadata={op_name="jit(train_step)/mul" stack_frame_id=0}
  %param_4.556 = f32[6144,4,2048]{2,1,0:T(4,128)} parameter(4)
  %constant.1136.clone.1 = f32[]{:T(128)} constant(0.95)
  %mul.2524.clone.1 = f32[6144,4,2048]{2,1,0:T(4,128)} broadcast(%constant.1136.clone.1), dimensions={}, metadata={op_name="jit(train_step)/mul" stack_frame_id=0}
  %mul.2522.clone.1 = f32[6144,4,2048]{2,1,0:T(4,128)} multiply(%param_4.556, %mul.2524.clone.1), metadata={op_name="jit(train_step)/mul" stack_frame_id=0}
  %add.964.clone.1 = f32[6144,4,2048]{2,1,0:T(4,128)} add(%mul.2523.clone.1, %mul.2522.clone.1), metadata={op_name="jit(train_step)/add" stack_frame_id=0}
  %param_1.1592 = f32[]{:T(128)S(6)} parameter(1)
  %div.927.clone.1 = f32[6144,4,2048]{2,1,0:T(4,128)} broadcast(%param_1.1592), dimensions={}, metadata={op_name="jit(train_step)/div" stack_frame_id=0}
  %div.926.clone.1 = f32[6144,4,2048]{2,1,0:T(4,128)} divide(%add.964.clone.1, %div.927.clone.1), metadata={op_name="jit(train_step)/div" stack_frame_id=0}
  %sqrt.71.clone.1 = f32[6144,4,2048]{2,1,0:T(4,128)} sqrt(%div.926.clone.1), metadata={op_name="jit(train_step)/sqrt" stack_frame_id=0}
  %constant.1135.clone.1 = f32[]{:T(128)} constant(1e-08)
  %add.963.clone.1 = f32[6144,4,2048]{2,1,0:T(4,128)} broadcast(%constant.1135.clone.1), dimensions={}, metadata={op_name="jit(train_step)/add" stack_frame_id=0}
  %add.962.clone.1 = f32[6144,4,2048]{2,1,0:T(4,128)} add(%sqrt.71.clone.1, %add.963.clone.1), metadata={op_name="jit(train_step)/add" stack_frame_id=0}
  %multiply.296.clone.1 = f32[6144,4,2048]{2,1,0:T(4,128)} multiply(%div.928.clone.1, %add.962.clone.1), metadata={op_name="multiply.37"}
  %div.925.clone.1 = f32[6144,4,2048]{2,1,0:T(4,128)} divide(%add.965.clone.1, %multiply.296.clone.1), metadata={op_name="jit(train_step)/div" stack_frame_id=0}
  %mul.2520.clone.1 = f32[6144,4,2048]{2,1,0:T(4,128)} multiply(%param_0.1418, %broadcast.796.clone.1), metadata={op_name="jit(train_step)/mul" stack_frame_id=0}
  %add.961.clone.1 = f32[6144,4,2048]{2,1,0:T(4,128)} add(%div.925.clone.1, %mul.2520.clone.1), metadata={op_name="jit(train_step)/add" stack_frame_id=0}
  %mul.2519.clone.1 = f32[6144,4,2048]{2,1,0:T(4,128)} multiply(%mul.2521.clone.1, %add.961.clone.1), metadata={op_name="jit(train_step)/mul" stack_frame_id=0}
  %add.960.clone.1 = f32[6144,4,2048]{2,1,0:T(4,128)} add(%param_0.1418, %mul.2519.clone.1), metadata={op_name="jit(train_step)/add" stack_frame_id=0}
  %square.225 = f32[6144,4,2048]{2,1,0:T(4,128)} multiply(%add.960.clone.1, %add.960.clone.1), metadata={op_name="jit(train_step)/square" stack_frame_id=0}
  %constant.1197 = f32[]{:T(128)} constant(0)
  %reduce.114 = f32[]{:T(128)} reduce(%square.225, %constant.1197), dimensions={0,1,2}, to_apply=%region_62.67, metadata={op_name="jit(train_step)/reduce_sum" stack_frame_id=0}
  %reduce.117.clone.1 = f32[]{:T(128)} reduce(%integer_pow.74.clone.1, %constant.1197), dimensions={0,1,2}, to_apply=%region_47.52, metadata={op_name="jit(train_step)/reduce_sum" stack_frame_id=0}
  ROOT %tuple.146 = (f32[]{:T(128)}, f32[6144,4,2048]{2,1,0:T(4,128)}, f32[6144,4,2048]{2,1,0:T(4,128)}, f32[6144,4,2048]{2,1,0:T(4,128)}, f32[]{:T(128)}) tuple(%reduce.114, %add.960.clone.1, %add.964.clone.1, %add.965.clone.1, %reduce.117.clone.1)
}

%region_61.66 (reduce_sum.515: f32[], reduce_sum.516: f32[]) -> f32[] {
  %reduce_sum.516 = f32[]{:T(128)} parameter(1), metadata={op_name="jit(train_step)/reduce_sum"}
  %reduce_sum.515 = f32[]{:T(128)} parameter(0), metadata={op_name="jit(train_step)/reduce_sum"}
  ROOT %reduce_sum.520 = f32[]{:T(128)} add(%reduce_sum.515, %reduce_sum.516), metadata={op_name="jit(train_step)/reduce_sum" stack_frame_id=0}, backend_config={"flag_configs":[],"scoped_memory_configs":[],"used_scoped_memory_configs":[],"aliasing_operands":{"lists":[]}}
}

%region_46.51 (reduce_sum.437: f32[], reduce_sum.438: f32[]) -> f32[] {
  %reduce_sum.438 = f32[]{:T(128)} parameter(1), metadata={op_name="jit(train_step)/reduce_sum"}
  %reduce_sum.437 = f32[]{:T(128)} parameter(0), metadata={op_name="jit(train_step)/reduce_sum"}
  ROOT %reduce_sum.439 = f32[]{:T(128)} add(%reduce_sum.437, %reduce_sum.438), metadata={op_name="jit(train_step)/reduce_sum" stack_frame_id=0}, backend_config={"flag_configs":[],"scoped_memory_configs":[],"used_scoped_memory_configs":[],"aliasing_operands":{"lists":[]}}
}

%fused_computation.318 (param_0.1419: f32[2048,4,6144], param_1.1593: f32[], param_2.1335: f32[], param_3.918: f32[], param_4.557: f32[2048,4,6144], param_5.491: f32[], param_6.366: f32[4,2048,6144], param_7.210: pred[], param_8.128: f32[2048,4,6144]) -> (f32[], f32[2048,4,6144], f32[2048,4,6144], f32[2048,4,6144], f32[]) {
  %param_0.1419 = f32[2048,4,6144]{2,1,0:T(4,128)} parameter(0)
  %param_3.918 = f32[]{:T(128)S(6)} parameter(3)
  %mul.2531.clone.1 = f32[2048,4,6144]{2,1,0:T(4,128)} broadcast(%param_3.918), dimensions={}, metadata={op_name="jit(train_step)/mul" stack_frame_id=0}
  %param_7.210 = pred[]{:T(512)S(6)} parameter(7)
  %select_n.308.clone.1 = pred[2048,4,6144]{2,1,0:T(4,128)(4,1)} broadcast(%param_7.210), dimensions={}, metadata={op_name="jit(train_step)/select_n" stack_frame_id=0}
  %param_6.366 = f32[4,2048,6144]{2,0,1:T(4,128)} parameter(6)
  %bitcast.465.clone.1 = f32[2048,4,6144]{2,1,0:T(4,128)} bitcast(%param_6.366), metadata={op_name="jit(train_step)/transpose(jvp(TransformerLinenPure.apply))/TransformerLinenPure/decoder/transpose" stack_frame_id=0}
  %param_5.491 = f32[]{:T(128)} parameter(5)
  %div.940.clone.1 = f32[2048,4,6144]{2,1,0:T(4,128)} broadcast(%param_5.491), dimensions={}, metadata={op_name="jit(train_step)/div" stack_frame_id=0}
  %div.939.clone.1 = f32[2048,4,6144]{2,1,0:T(4,128)} divide(%bitcast.465.clone.1, %div.940.clone.1), metadata={op_name="jit(train_step)/div" stack_frame_id=0}
  %select_n.307.clone.1 = f32[2048,4,6144]{2,1,0:T(4,128)} select(%select_n.308.clone.1, %bitcast.465.clone.1, %div.939.clone.1), metadata={op_name="jit(train_step)/select_n" stack_frame_id=0}
  %constant.1140.clone.1 = f32[]{:T(128)} constant(0.1)
  %broadcast.802.clone.1 = f32[2048,4,6144]{2,1,0:T(4,128)} broadcast(%constant.1140.clone.1), dimensions={}, metadata={op_name="broadcast.85"}
  %mul.2535.clone.1 = f32[2048,4,6144]{2,1,0:T(4,128)} multiply(%select_n.307.clone.1, %broadcast.802.clone.1), metadata={op_name="jit(train_step)/mul" stack_frame_id=0}
  %param_8.128 = f32[2048,4,6144]{2,1,0:T(4,128)} parameter(8)
  %constant.1144.clone.1 = f32[]{:T(128)} constant(0.9)
  %broadcast.801.clone.1 = f32[2048,4,6144]{2,1,0:T(4,128)} broadcast(%constant.1144.clone.1), dimensions={}, metadata={op_name="broadcast.84"}
  %mul.2534.clone.1 = f32[2048,4,6144]{2,1,0:T(4,128)} multiply(%param_8.128, %broadcast.801.clone.1), metadata={op_name="jit(train_step)/mul" stack_frame_id=0}
  %add.970.clone.1 = f32[2048,4,6144]{2,1,0:T(4,128)} add(%mul.2535.clone.1, %mul.2534.clone.1), metadata={op_name="jit(train_step)/add" stack_frame_id=0}
  %param_2.1335 = f32[]{:T(128)S(6)} parameter(2)
  %div.936.clone.1 = f32[2048,4,6144]{2,1,0:T(4,128)} broadcast(%param_2.1335), dimensions={}, metadata={op_name="jit(train_step)/div" stack_frame_id=0}
  %integer_pow.75.clone.1 = f32[2048,4,6144]{2,1,0:T(4,128)} multiply(%select_n.307.clone.1, %select_n.307.clone.1), metadata={op_name="jit(train_step)/integer_pow" stack_frame_id=0}
  %constant.1143.clone.1 = f32[]{:T(128)} constant(0.05)
  %broadcast.800.clone.1 = f32[2048,4,6144]{2,1,0:T(4,128)} broadcast(%constant.1143.clone.1), dimensions={}, metadata={op_name="broadcast.73"}
  %mul.2533.clone.1 = f32[2048,4,6144]{2,1,0:T(4,128)} multiply(%integer_pow.75.clone.1, %broadcast.800.clone.1), metadata={op_name="jit(train_step)/mul" stack_frame_id=0}
  %param_4.557 = f32[2048,4,6144]{2,1,0:T(4,128)} parameter(4)
  %constant.1142.clone.1 = f32[]{:T(128)} constant(0.95)
  %broadcast.799.clone.1 = f32[2048,4,6144]{2,1,0:T(4,128)} broadcast(%constant.1142.clone.1), dimensions={}, metadata={op_name="broadcast.72"}
  %mul.2532.clone.1 = f32[2048,4,6144]{2,1,0:T(4,128)} multiply(%param_4.557, %broadcast.799.clone.1), metadata={op_name="jit(train_step)/mul" stack_frame_id=0}
  %add.969.clone.1 = f32[2048,4,6144]{2,1,0:T(4,128)} add(%mul.2533.clone.1, %mul.2532.clone.1), metadata={op_name="jit(train_step)/add" stack_frame_id=0}
  %param_1.1593 = f32[]{:T(128)S(6)} parameter(1)
  %div.935.clone.1 = f32[2048,4,6144]{2,1,0:T(4,128)} broadcast(%param_1.1593), dimensions={}, metadata={op_name="jit(train_step)/div" stack_frame_id=0}
  %div.934.clone.1 = f32[2048,4,6144]{2,1,0:T(4,128)} divide(%add.969.clone.1, %div.935.clone.1), metadata={op_name="jit(train_step)/div" stack_frame_id=0}
  %sqrt.72.clone.1 = f32[2048,4,6144]{2,1,0:T(4,128)} sqrt(%div.934.clone.1), metadata={op_name="jit(train_step)/sqrt" stack_frame_id=0}
  %constant.1141.clone.1 = f32[]{:T(128)} constant(1e-08)
  %broadcast.797.clone.1 = f32[2048,4,6144]{2,1,0:T(4,128)} broadcast(%constant.1141.clone.1), dimensions={}, metadata={op_name="broadcast.65"}
  %add.968.clone.1 = f32[2048,4,6144]{2,1,0:T(4,128)} add(%sqrt.72.clone.1, %broadcast.797.clone.1), metadata={op_name="jit(train_step)/add" stack_frame_id=0}
  %multiply.297.clone.1 = f32[2048,4,6144]{2,1,0:T(4,128)} multiply(%div.936.clone.1, %add.968.clone.1), metadata={op_name="multiply.36"}
  %div.933.clone.1 = f32[2048,4,6144]{2,1,0:T(4,128)} divide(%add.970.clone.1, %multiply.297.clone.1), metadata={op_name="jit(train_step)/div" stack_frame_id=0}
  %mul.2530.clone.1 = f32[2048,4,6144]{2,1,0:T(4,128)} multiply(%param_0.1419, %broadcast.802.clone.1), metadata={op_name="jit(train_step)/mul" stack_frame_id=0}
  %add.967.clone.1 = f32[2048,4,6144]{2,1,0:T(4,128)} add(%div.933.clone.1, %mul.2530.clone.1), metadata={op_name="jit(train_step)/add" stack_frame_id=0}
  %mul.2529.clone.1 = f32[2048,4,6144]{2,1,0:T(4,128)} multiply(%mul.2531.clone.1, %add.967.clone.1), metadata={op_name="jit(train_step)/mul" stack_frame_id=0}
  %add.966.clone.1 = f32[2048,4,6144]{2,1,0:T(4,128)} add(%param_0.1419, %mul.2529.clone.1), metadata={op_name="jit(train_step)/add" stack_frame_id=0}
  %square.226 = f32[2048,4,6144]{2,1,0:T(4,128)} multiply(%add.966.clone.1, %add.966.clone.1), metadata={op_name="jit(train_step)/square" stack_frame_id=0}
  %constant.1198 = f32[]{:T(128)} constant(0)
  %reduce.115 = f32[]{:T(128)} reduce(%square.226, %constant.1198), dimensions={0,1,2}, to_apply=%region_61.66, metadata={op_name="jit(train_step)/reduce_sum" stack_frame_id=0}
  %reduce.118.clone.1 = f32[]{:T(128)} reduce(%integer_pow.75.clone.1, %constant.1198), dimensions={0,1,2}, to_apply=%region_46.51, metadata={op_name="jit(train_step)/reduce_sum" stack_frame_id=0}
  ROOT %tuple.147 = (f32[]{:T(128)}, f32[2048,4,6144]{2,1,0:T(4,128)}, f32[2048,4,6144]{2,1,0:T(4,128)}, f32[2048,4,6144]{2,1,0:T(4,128)}, f32[]{:T(128)}) tuple(%reduce.115, %add.966.clone.1, %add.969.clone.1, %add.970.clone.1, %reduce.118.clone.1)
}

%region_60.65 (reduce_sum.509: f32[], reduce_sum.513: f32[]) -> f32[] {
  %reduce_sum.513 = f32[]{:T(128)} parameter(1), metadata={op_name="jit(train_step)/reduce_sum"}
  %reduce_sum.509 = f32[]{:T(128)} parameter(0), metadata={op_name="jit(train_step)/reduce_sum"}
  ROOT %reduce_sum.514 = f32[]{:T(128)} add(%reduce_sum.509, %reduce_sum.513), metadata={op_name="jit(train_step)/reduce_sum" stack_frame_id=0}, backend_config={"flag_configs":[],"scoped_memory_configs":[],"used_scoped_memory_configs":[],"aliasing_operands":{"lists":[]}}
}

%region_45.50 (reduce_sum.431: f32[], reduce_sum.432: f32[]) -> f32[] {
  %reduce_sum.432 = f32[]{:T(128)} parameter(1), metadata={op_name="jit(train_step)/reduce_sum"}
  %reduce_sum.431 = f32[]{:T(128)} parameter(0), metadata={op_name="jit(train_step)/reduce_sum"}
  ROOT %reduce_sum.436 = f32[]{:T(128)} add(%reduce_sum.431, %reduce_sum.432), metadata={op_name="jit(train_step)/reduce_sum" stack_frame_id=0}, backend_config={"flag_configs":[],"scoped_memory_configs":[],"used_scoped_memory_configs":[],"aliasing_operands":{"lists":[]}}
}

%fused_computation.319 (param_0.1420: f32[2048,4,6144], param_1.1594: f32[], param_2.1336: f32[], param_3.919: f32[], param_4.558: f32[2048,4,6144], param_5.492: f32[], param_6.367: f32[4,2048,6144], param_7.211: pred[], param_8.129: f32[2048,4,6144]) -> (f32[], f32[2048,4,6144], f32[2048,4,6144], f32[2048,4,6144], f32[]) {
  %param_0.1420 = f32[2048,4,6144]{2,1,0:T(4,128)} parameter(0)
  %param_3.919 = f32[]{:T(128)S(6)} parameter(3)
  %mul.2538.clone.1 = f32[2048,4,6144]{2,1,0:T(4,128)} broadcast(%param_3.919), dimensions={}, metadata={op_name="jit(train_step)/mul" stack_frame_id=0}
  %param_7.211 = pred[]{:T(512)S(6)} parameter(7)
  %select_n.312.clone.1 = pred[2048,4,6144]{2,1,0:T(4,128)(4,1)} broadcast(%param_7.211), dimensions={}, metadata={op_name="jit(train_step)/select_n" stack_frame_id=0}
  %param_6.367 = f32[4,2048,6144]{2,0,1:T(4,128)} parameter(6)
  %bitcast.467.clone.1 = f32[2048,4,6144]{2,1,0:T(4,128)} bitcast(%param_6.367), metadata={op_name="jit(train_step)/transpose(jvp(TransformerLinenPure.apply))/TransformerLinenPure/decoder/transpose" stack_frame_id=0}
  %param_5.492 = f32[]{:T(128)} parameter(5)
  %div.948.clone.1 = f32[2048,4,6144]{2,1,0:T(4,128)} broadcast(%param_5.492), dimensions={}, metadata={op_name="jit(train_step)/div" stack_frame_id=0}
  %div.947.clone.1 = f32[2048,4,6144]{2,1,0:T(4,128)} divide(%bitcast.467.clone.1, %div.948.clone.1), metadata={op_name="jit(train_step)/div" stack_frame_id=0}
  %select_n.311.clone.1 = f32[2048,4,6144]{2,1,0:T(4,128)} select(%select_n.312.clone.1, %bitcast.467.clone.1, %div.947.clone.1), metadata={op_name="jit(train_step)/select_n" stack_frame_id=0}
  %constant.1146.clone.1 = f32[]{:T(128)} constant(0.1)
  %broadcast.808.clone.1 = f32[2048,4,6144]{2,1,0:T(4,128)} broadcast(%constant.1146.clone.1), dimensions={}, metadata={op_name="broadcast.85"}
  %mul.2542.clone.1 = f32[2048,4,6144]{2,1,0:T(4,128)} multiply(%select_n.311.clone.1, %broadcast.808.clone.1), metadata={op_name="jit(train_step)/mul" stack_frame_id=0}
  %param_8.129 = f32[2048,4,6144]{2,1,0:T(4,128)} parameter(8)
  %constant.1150.clone.1 = f32[]{:T(128)} constant(0.9)
  %broadcast.807.clone.1 = f32[2048,4,6144]{2,1,0:T(4,128)} broadcast(%constant.1150.clone.1), dimensions={}, metadata={op_name="broadcast.84"}
  %mul.2541.clone.1 = f32[2048,4,6144]{2,1,0:T(4,128)} multiply(%param_8.129, %broadcast.807.clone.1), metadata={op_name="jit(train_step)/mul" stack_frame_id=0}
  %add.975.clone.1 = f32[2048,4,6144]{2,1,0:T(4,128)} add(%mul.2542.clone.1, %mul.2541.clone.1), metadata={op_name="jit(train_step)/add" stack_frame_id=0}
  %param_2.1336 = f32[]{:T(128)S(6)} parameter(2)
  %div.944.clone.1 = f32[2048,4,6144]{2,1,0:T(4,128)} broadcast(%param_2.1336), dimensions={}, metadata={op_name="jit(train_step)/div" stack_frame_id=0}
  %integer_pow.76.clone.1 = f32[2048,4,6144]{2,1,0:T(4,128)} multiply(%select_n.311.clone.1, %select_n.311.clone.1), metadata={op_name="jit(train_step)/integer_pow" stack_frame_id=0}
  %constant.1149.clone.1 = f32[]{:T(128)} constant(0.05)
  %broadcast.806.clone.1 = f32[2048,4,6144]{2,1,0:T(4,128)} broadcast(%constant.1149.clone.1), dimensions={}, metadata={op_name="broadcast.73"}
  %mul.2540.clone.1 = f32[2048,4,6144]{2,1,0:T(4,128)} multiply(%integer_pow.76.clone.1, %broadcast.806.clone.1), metadata={op_name="jit(train_step)/mul" stack_frame_id=0}
  %param_4.558 = f32[2048,4,6144]{2,1,0:T(4,128)} parameter(4)
  %constant.1148.clone.1 = f32[]{:T(128)} constant(0.95)
  %broadcast.805.clone.1 = f32[2048,4,6144]{2,1,0:T(4,128)} broadcast(%constant.1148.clone.1), dimensions={}, metadata={op_name="broadcast.72"}
  %mul.2539.clone.1 = f32[2048,4,6144]{2,1,0:T(4,128)} multiply(%param_4.558, %broadcast.805.clone.1), metadata={op_name="jit(train_step)/mul" stack_frame_id=0}
  %add.974.clone.1 = f32[2048,4,6144]{2,1,0:T(4,128)} add(%mul.2540.clone.1, %mul.2539.clone.1), metadata={op_name="jit(train_step)/add" stack_frame_id=0}
  %param_1.1594 = f32[]{:T(128)S(6)} parameter(1)
  %div.943.clone.1 = f32[2048,4,6144]{2,1,0:T(4,128)} broadcast(%param_1.1594), dimensions={}, metadata={op_name="jit(train_step)/div" stack_frame_id=0}
  %div.942.clone.1 = f32[2048,4,6144]{2,1,0:T(4,128)} divide(%add.974.clone.1, %div.943.clone.1), metadata={op_name="jit(train_step)/div" stack_frame_id=0}
  %sqrt.73.clone.1 = f32[2048,4,6144]{2,1,0:T(4,128)} sqrt(%div.942.clone.1), metadata={op_name="jit(train_step)/sqrt" stack_frame_id=0}
  %constant.1147.clone.1 = f32[]{:T(128)} constant(1e-08)
  %broadcast.803.clone.1 = f32[2048,4,6144]{2,1,0:T(4,128)} broadcast(%constant.1147.clone.1), dimensions={}, metadata={op_name="broadcast.65"}
  %add.973.clone.1 = f32[2048,4,6144]{2,1,0:T(4,128)} add(%sqrt.73.clone.1, %broadcast.803.clone.1), metadata={op_name="jit(train_step)/add" stack_frame_id=0}
  %multiply.298.clone.1 = f32[2048,4,6144]{2,1,0:T(4,128)} multiply(%div.944.clone.1, %add.973.clone.1), metadata={op_name="multiply.35"}
  %div.941.clone.1 = f32[2048,4,6144]{2,1,0:T(4,128)} divide(%add.975.clone.1, %multiply.298.clone.1), metadata={op_name="jit(train_step)/div" stack_frame_id=0}
  %mul.2537.clone.1 = f32[2048,4,6144]{2,1,0:T(4,128)} multiply(%param_0.1420, %broadcast.808.clone.1), metadata={op_name="jit(train_step)/mul" stack_frame_id=0}
  %add.972.clone.1 = f32[2048,4,6144]{2,1,0:T(4,128)} add(%div.941.clone.1, %mul.2537.clone.1), metadata={op_name="jit(train_step)/add" stack_frame_id=0}
  %mul.2536.clone.1 = f32[2048,4,6144]{2,1,0:T(4,128)} multiply(%mul.2538.clone.1, %add.972.clone.1), metadata={op_name="jit(train_step)/mul" stack_frame_id=0}
  %add.971.clone.1 = f32[2048,4,6144]{2,1,0:T(4,128)} add(%param_0.1420, %mul.2536.clone.1), metadata={op_name="jit(train_step)/add" stack_frame_id=0}
  %square.227 = f32[2048,4,6144]{2,1,0:T(4,128)} multiply(%add.971.clone.1, %add.971.clone.1), metadata={op_name="jit(train_step)/square" stack_frame_id=0}
  %constant.1199 = f32[]{:T(128)} constant(0)
  %reduce.116 = f32[]{:T(128)} reduce(%square.227, %constant.1199), dimensions={0,1,2}, to_apply=%region_60.65, metadata={op_name="jit(train_step)/reduce_sum" stack_frame_id=0}
  %reduce.119.clone.1 = f32[]{:T(128)} reduce(%integer_pow.76.clone.1, %constant.1199), dimensions={0,1,2}, to_apply=%region_45.50, metadata={op_name="jit(train_step)/reduce_sum" stack_frame_id=0}
  ROOT %tuple.148 = (f32[]{:T(128)}, f32[2048,4,6144]{2,1,0:T(4,128)}, f32[2048,4,6144]{2,1,0:T(4,128)}, f32[2048,4,6144]{2,1,0:T(4,128)}, f32[]{:T(128)}) tuple(%reduce.116, %add.971.clone.1, %add.974.clone.1, %add.975.clone.1, %reduce.119.clone.1)
}

%region_39.44 (reduce_sum.404: f32[], reduce_sum.408: f32[]) -> f32[] {
  %reduce_sum.408 = f32[]{:T(128)} parameter(1), metadata={op_name="jit(train_step)/reduce_sum"}
  %reduce_sum.404 = f32[]{:T(128)} parameter(0), metadata={op_name="jit(train_step)/reduce_sum"}
  ROOT %reduce_sum.409 = f32[]{:T(128)} add(%reduce_sum.404, %reduce_sum.408), metadata={op_name="jit(train_step)/reduce_sum" stack_frame_id=0}, backend_config={"flag_configs":[],"scoped_memory_configs":[],"used_scoped_memory_configs":[],"aliasing_operands":{"lists":[]}}
}

%fused_computation.335 (param_0.1423: f32[4,2048,16,128]) -> f32[] {
  %param_0.1423 = f32[4,2048,16,128]{3,2,0,1:T(8,128)} parameter(0)
  %bitcast.343 = f32[2048,4,16,128]{3,2,1,0:T(8,128)} bitcast(%param_0.1423), metadata={op_name="jit(train_step)/transpose(jvp(TransformerLinenPure.apply))/TransformerLinenPure/decoder/transpose" stack_frame_id=0}
  %square.230 = f32[2048,4,16,128]{3,2,1,0:T(8,128)} multiply(%bitcast.343, %bitcast.343), metadata={op_name="jit(train_step)/square" stack_frame_id=0}
  %constant.1202 = f32[]{:T(128)} constant(0)
  ROOT %reduce.120 = f32[]{:T(128)} reduce(%square.230, %constant.1202), dimensions={0,1,2,3}, to_apply=%region_39.44, metadata={op_name="jit(train_step)/reduce_sum" stack_frame_id=0}
}

%region_38.43 (reduce_sum.401: f32[], reduce_sum.402: f32[]) -> f32[] {
  %reduce_sum.402 = f32[]{:T(128)} parameter(1), metadata={op_name="jit(train_step)/reduce_sum"}
  %reduce_sum.401 = f32[]{:T(128)} parameter(0), metadata={op_name="jit(train_step)/reduce_sum"}
  ROOT %reduce_sum.403 = f32[]{:T(128)} add(%reduce_sum.401, %reduce_sum.402), metadata={op_name="jit(train_step)/reduce_sum" stack_frame_id=0}, backend_config={"flag_configs":[],"scoped_memory_configs":[],"used_scoped_memory_configs":[],"aliasing_operands":{"lists":[]}}
}

%fused_computation.337 (param_0.1424: f32[4,16,128,2048]) -> f32[] {
  %param_0.1424 = f32[4,16,128,2048]{3,2,0,1:T(8,128)} parameter(0)
  %bitcast.347 = f32[16,4,128,2048]{3,2,1,0:T(8,128)} bitcast(%param_0.1424), metadata={op_name="jit(train_step)/transpose(jvp(TransformerLinenPure.apply))/TransformerLinenPure/decoder/transpose" stack_frame_id=0}
  %square.233 = f32[16,4,128,2048]{3,2,1,0:T(8,128)} multiply(%bitcast.347, %bitcast.347), metadata={op_name="jit(train_step)/square" stack_frame_id=0}
  %constant.1203 = f32[]{:T(128)} constant(0)
  ROOT %reduce.121 = f32[]{:T(128)} reduce(%square.233, %constant.1203), dimensions={0,1,2,3}, to_apply=%region_38.43, metadata={op_name="jit(train_step)/reduce_sum" stack_frame_id=0}
}

%fused_computation.338 (param_0.989: f32[16,4,128,2048]) -> bf16[4,16,128,2048] {
  %param_0.989 = f32[16,4,128,2048]{3,2,1,0:T(8,128)} parameter(0)
  %copy.189 = bf16[16,4,128,2048]{3,2,0,1:T(8,128)(2,1)} copy(%param_0.989), sharding={replicated}, metadata={op_name="state.params[\'params\'][\'decoder\'][\'layers\'][\'self_attention\'][\'out\'][\'kernel\']"}
  ROOT %bitcast.348 = bf16[4,16,128,2048]{3,2,1,0:T(8,128)(2,1)} bitcast(%copy.189), metadata={op_name="jit(train_step)/jvp(TransformerLinenPure.apply)/TransformerLinenPure/decoder/transpose" stack_frame_id=0}
}

%region_68.73 (reduce_sum.551: f32[], reduce_sum.555: f32[]) -> f32[] {
  %reduce_sum.555 = f32[]{:T(128)} parameter(1), metadata={op_name="jit(train_step)/reduce_sum"}
  %reduce_sum.551 = f32[]{:T(128)} parameter(0), metadata={op_name="jit(train_step)/reduce_sum"}
  ROOT %reduce_sum.556 = f32[]{:T(128)} add(%reduce_sum.551, %reduce_sum.555), metadata={op_name="jit(train_step)/reduce_sum" stack_frame_id=0}, backend_config={"flag_configs":[],"scoped_memory_configs":[],"used_scoped_memory_configs":[],"aliasing_operands":{"lists":[]}}
}

%region_53.58 (reduce_sum.473: f32[], reduce_sum.474: f32[]) -> f32[] {
  %reduce_sum.474 = f32[]{:T(128)} parameter(1), metadata={op_name="jit(train_step)/reduce_sum"}
  %reduce_sum.473 = f32[]{:T(128)} parameter(0), metadata={op_name="jit(train_step)/reduce_sum"}
  ROOT %reduce_sum.478 = f32[]{:T(128)} add(%reduce_sum.473, %reduce_sum.474), metadata={op_name="jit(train_step)/reduce_sum" stack_frame_id=0}, backend_config={"flag_configs":[],"scoped_memory_configs":[],"used_scoped_memory_configs":[],"aliasing_operands":{"lists":[]}}
}

%fused_computation.339 (param_0.1412: f32[2048,4,16,128], param_1.1586: f32[], param_2.1328: f32[], param_3.911: f32[], param_4.550: f32[2048,4,16,128], param_5.484: f32[], param_6.359: f32[4,2048,16,128], param_7.203: pred[], param_8.121: f32[2048,4,16,128]) -> (f32[], f32[2048,4,16,128], f32[2048,4,16,128], f32[2048,4,16,128], f32[]) {
  %param_0.1412 = f32[2048,4,16,128]{3,2,1,0:T(8,128)} parameter(0)
  %param_3.911 = f32[]{:T(128)S(6)} parameter(3)
  %mul.2473.clone.1 = f32[2048,4,16,128]{3,2,1,0:T(8,128)} broadcast(%param_3.911), dimensions={}, metadata={op_name="jit(train_step)/mul" stack_frame_id=0}
  %param_7.203 = pred[]{:T(512)S(6)} parameter(7)
  %select_n.280.clone.1 = pred[2048,4,16,128]{3,2,1,0:T(8,128)(4,1)} broadcast(%param_7.203), dimensions={}, metadata={op_name="jit(train_step)/select_n" stack_frame_id=0}
  %param_6.359 = f32[4,2048,16,128]{3,2,0,1:T(8,128)} parameter(6)
  %bitcast.451.clone.1 = f32[2048,4,16,128]{3,2,1,0:T(8,128)} bitcast(%param_6.359), metadata={op_name="jit(train_step)/transpose(jvp(TransformerLinenPure.apply))/TransformerLinenPure/decoder/transpose" stack_frame_id=0}
  %param_5.484 = f32[]{:T(128)} parameter(5)
  %div.884.clone.1 = f32[2048,4,16,128]{3,2,1,0:T(8,128)} broadcast(%param_5.484), dimensions={}, metadata={op_name="jit(train_step)/div" stack_frame_id=0}
  %div.883.clone.1 = f32[2048,4,16,128]{3,2,1,0:T(8,128)} divide(%bitcast.451.clone.1, %div.884.clone.1), metadata={op_name="jit(train_step)/div" stack_frame_id=0}
  %select_n.279.clone.1 = f32[2048,4,16,128]{3,2,1,0:T(8,128)} select(%select_n.280.clone.1, %bitcast.451.clone.1, %div.883.clone.1), metadata={op_name="jit(train_step)/select_n" stack_frame_id=0}
  %constant.1098.clone.1 = f32[]{:T(128)} constant(0.1)
  %broadcast.768.clone.1 = f32[2048,4,16,128]{3,2,1,0:T(8,128)} broadcast(%constant.1098.clone.1), dimensions={}, metadata={op_name="broadcast.75"}
  %mul.2479.clone.1 = f32[2048,4,16,128]{3,2,1,0:T(8,128)} multiply(%select_n.279.clone.1, %broadcast.768.clone.1), metadata={op_name="jit(train_step)/mul" stack_frame_id=0}
  %param_8.121 = f32[2048,4,16,128]{3,2,1,0:T(8,128)} parameter(8)
  %constant.1102.clone.1 = f32[]{:T(128)} constant(0.9)
  %mul.2480.clone.1 = f32[2048,4,16,128]{3,2,1,0:T(8,128)} broadcast(%constant.1102.clone.1), dimensions={}, metadata={op_name="jit(train_step)/mul" stack_frame_id=0}
  %mul.2478.clone.1 = f32[2048,4,16,128]{3,2,1,0:T(8,128)} multiply(%param_8.121, %mul.2480.clone.1), metadata={op_name="jit(train_step)/mul" stack_frame_id=0}
  %add.933.clone.1 = f32[2048,4,16,128]{3,2,1,0:T(8,128)} add(%mul.2479.clone.1, %mul.2478.clone.1), metadata={op_name="jit(train_step)/add" stack_frame_id=0}
  %param_2.1328 = f32[]{:T(128)S(6)} parameter(2)
  %div.880.clone.1 = f32[2048,4,16,128]{3,2,1,0:T(8,128)} broadcast(%param_2.1328), dimensions={}, metadata={op_name="jit(train_step)/div" stack_frame_id=0}
  %integer_pow.68.clone.1 = f32[2048,4,16,128]{3,2,1,0:T(8,128)} multiply(%select_n.279.clone.1, %select_n.279.clone.1), metadata={op_name="jit(train_step)/integer_pow" stack_frame_id=0}
  %constant.1101.clone.1 = f32[]{:T(128)} constant(0.05)
  %mul.2477.clone.1 = f32[2048,4,16,128]{3,2,1,0:T(8,128)} broadcast(%constant.1101.clone.1), dimensions={}, metadata={op_name="jit(train_step)/mul" stack_frame_id=0}
  %mul.2475.clone.1 = f32[2048,4,16,128]{3,2,1,0:T(8,128)} multiply(%integer_pow.68.clone.1, %mul.2477.clone.1), metadata={op_name="jit(train_step)/mul" stack_frame_id=0}
  %param_4.550 = f32[2048,4,16,128]{3,2,1,0:T(8,128)} parameter(4)
  %constant.1100.clone.1 = f32[]{:T(128)} constant(0.95)
  %mul.2476.clone.1 = f32[2048,4,16,128]{3,2,1,0:T(8,128)} broadcast(%constant.1100.clone.1), dimensions={}, metadata={op_name="jit(train_step)/mul" stack_frame_id=0}
  %mul.2474.clone.1 = f32[2048,4,16,128]{3,2,1,0:T(8,128)} multiply(%param_4.550, %mul.2476.clone.1), metadata={op_name="jit(train_step)/mul" stack_frame_id=0}
  %add.932.clone.1 = f32[2048,4,16,128]{3,2,1,0:T(8,128)} add(%mul.2475.clone.1, %mul.2474.clone.1), metadata={op_name="jit(train_step)/add" stack_frame_id=0}
  %param_1.1586 = f32[]{:T(128)S(6)} parameter(1)
  %div.879.clone.1 = f32[2048,4,16,128]{3,2,1,0:T(8,128)} broadcast(%param_1.1586), dimensions={}, metadata={op_name="jit(train_step)/div" stack_frame_id=0}
  %div.878.clone.1 = f32[2048,4,16,128]{3,2,1,0:T(8,128)} divide(%add.932.clone.1, %div.879.clone.1), metadata={op_name="jit(train_step)/div" stack_frame_id=0}
  %sqrt.65.clone.1 = f32[2048,4,16,128]{3,2,1,0:T(8,128)} sqrt(%div.878.clone.1), metadata={op_name="jit(train_step)/sqrt" stack_frame_id=0}
  %constant.1099.clone.1 = f32[]{:T(128)} constant(1e-08)
  %add.931.clone.1 = f32[2048,4,16,128]{3,2,1,0:T(8,128)} broadcast(%constant.1099.clone.1), dimensions={}, metadata={op_name="jit(train_step)/add" stack_frame_id=0}
  %add.930.clone.1 = f32[2048,4,16,128]{3,2,1,0:T(8,128)} add(%sqrt.65.clone.1, %add.931.clone.1), metadata={op_name="jit(train_step)/add" stack_frame_id=0}
  %multiply.290.clone.1 = f32[2048,4,16,128]{3,2,1,0:T(8,128)} multiply(%div.880.clone.1, %add.930.clone.1), metadata={op_name="multiply.43"}
  %div.877.clone.1 = f32[2048,4,16,128]{3,2,1,0:T(8,128)} divide(%add.933.clone.1, %multiply.290.clone.1), metadata={op_name="jit(train_step)/div" stack_frame_id=0}
  %mul.2472.clone.1 = f32[2048,4,16,128]{3,2,1,0:T(8,128)} multiply(%param_0.1412, %broadcast.768.clone.1), metadata={op_name="jit(train_step)/mul" stack_frame_id=0}
  %add.929.clone.1 = f32[2048,4,16,128]{3,2,1,0:T(8,128)} add(%div.877.clone.1, %mul.2472.clone.1), metadata={op_name="jit(train_step)/add" stack_frame_id=0}
  %mul.2471.clone.1 = f32[2048,4,16,128]{3,2,1,0:T(8,128)} multiply(%mul.2473.clone.1, %add.929.clone.1), metadata={op_name="jit(train_step)/mul" stack_frame_id=0}
  %add.928.clone.1 = f32[2048,4,16,128]{3,2,1,0:T(8,128)} add(%param_0.1412, %mul.2471.clone.1), metadata={op_name="jit(train_step)/add" stack_frame_id=0}
  %square.234 = f32[2048,4,16,128]{3,2,1,0:T(8,128)} multiply(%add.928.clone.1, %add.928.clone.1), metadata={op_name="jit(train_step)/square" stack_frame_id=0}
  %constant.1191 = f32[]{:T(128)} constant(0)
  %reduce.122 = f32[]{:T(128)} reduce(%square.234, %constant.1191), dimensions={0,1,2,3}, to_apply=%region_68.73, metadata={op_name="jit(train_step)/reduce_sum" stack_frame_id=0}
  %reduce.124.clone.1 = f32[]{:T(128)} reduce(%integer_pow.68.clone.1, %constant.1191), dimensions={0,1,2,3}, to_apply=%region_53.58, metadata={op_name="jit(train_step)/reduce_sum" stack_frame_id=0}
  ROOT %tuple.149 = (f32[]{:T(128)}, f32[2048,4,16,128]{3,2,1,0:T(8,128)}, f32[2048,4,16,128]{3,2,1,0:T(8,128)}, f32[2048,4,16,128]{3,2,1,0:T(8,128)}, f32[]{:T(128)}) tuple(%reduce.122, %add.928.clone.1, %add.932.clone.1, %add.933.clone.1, %reduce.124.clone.1)
}

%region_67.72 (reduce_sum.548: f32[], reduce_sum.549: f32[]) -> f32[] {
  %reduce_sum.549 = f32[]{:T(128)} parameter(1), metadata={op_name="jit(train_step)/reduce_sum"}
  %reduce_sum.548 = f32[]{:T(128)} parameter(0), metadata={op_name="jit(train_step)/reduce_sum"}
  ROOT %reduce_sum.550 = f32[]{:T(128)} add(%reduce_sum.548, %reduce_sum.549), metadata={op_name="jit(train_step)/reduce_sum" stack_frame_id=0}, backend_config={"flag_configs":[],"scoped_memory_configs":[],"used_scoped_memory_configs":[],"aliasing_operands":{"lists":[]}}
}

%region_52.57 (reduce_sum.467: f32[], reduce_sum.471: f32[]) -> f32[] {
  %reduce_sum.471 = f32[]{:T(128)} parameter(1), metadata={op_name="jit(train_step)/reduce_sum"}
  %reduce_sum.467 = f32[]{:T(128)} parameter(0), metadata={op_name="jit(train_step)/reduce_sum"}
  ROOT %reduce_sum.472 = f32[]{:T(128)} add(%reduce_sum.467, %reduce_sum.471), metadata={op_name="jit(train_step)/reduce_sum" stack_frame_id=0}, backend_config={"flag_configs":[],"scoped_memory_configs":[],"used_scoped_memory_configs":[],"aliasing_operands":{"lists":[]}}
}

%fused_computation.340 (param_0.1413: f32[16,4,128,2048], param_1.1587: f32[], param_2.1329: f32[], param_3.912: f32[], param_4.551: f32[16,4,128,2048], param_5.485: f32[], param_6.360: f32[4,16,128,2048], param_7.204: pred[], param_8.122: f32[16,4,128,2048]) -> (f32[], f32[16,4,128,2048], f32[16,4,128,2048], f32[16,4,128,2048], f32[]) {
  %param_0.1413 = f32[16,4,128,2048]{3,2,1,0:T(8,128)} parameter(0)
  %param_3.912 = f32[]{:T(128)S(6)} parameter(3)
  %mul.2483.clone.1 = f32[16,4,128,2048]{3,2,1,0:T(8,128)} broadcast(%param_3.912), dimensions={}, metadata={op_name="jit(train_step)/mul" stack_frame_id=0}
  %param_7.204 = pred[]{:T(512)S(6)} parameter(7)
  %select_n.284.clone.1 = pred[16,4,128,2048]{3,2,1,0:T(8,128)(4,1)} broadcast(%param_7.204), dimensions={}, metadata={op_name="jit(train_step)/select_n" stack_frame_id=0}
  %param_6.360 = f32[4,16,128,2048]{3,2,0,1:T(8,128)} parameter(6)
  %bitcast.453.clone.1 = f32[16,4,128,2048]{3,2,1,0:T(8,128)} bitcast(%param_6.360), metadata={op_name="jit(train_step)/transpose(jvp(TransformerLinenPure.apply))/TransformerLinenPure/decoder/transpose" stack_frame_id=0}
  %param_5.485 = f32[]{:T(128)} parameter(5)
  %div.892.clone.1 = f32[16,4,128,2048]{3,2,1,0:T(8,128)} broadcast(%param_5.485), dimensions={}, metadata={op_name="jit(train_step)/div" stack_frame_id=0}
  %div.891.clone.1 = f32[16,4,128,2048]{3,2,1,0:T(8,128)} divide(%bitcast.453.clone.1, %div.892.clone.1), metadata={op_name="jit(train_step)/div" stack_frame_id=0}
  %select_n.283.clone.1 = f32[16,4,128,2048]{3,2,1,0:T(8,128)} select(%select_n.284.clone.1, %bitcast.453.clone.1, %div.891.clone.1), metadata={op_name="jit(train_step)/select_n" stack_frame_id=0}
  %constant.1104.clone.1 = f32[]{:T(128)} constant(0.1)
  %broadcast.770.clone.1 = f32[16,4,128,2048]{3,2,1,0:T(8,128)} broadcast(%constant.1104.clone.1), dimensions={}, metadata={op_name="broadcast.76"}
  %mul.2489.clone.1 = f32[16,4,128,2048]{3,2,1,0:T(8,128)} multiply(%select_n.283.clone.1, %broadcast.770.clone.1), metadata={op_name="jit(train_step)/mul" stack_frame_id=0}
  %param_8.122 = f32[16,4,128,2048]{3,2,1,0:T(8,128)} parameter(8)
  %constant.1108.clone.1 = f32[]{:T(128)} constant(0.9)
  %mul.2490.clone.1 = f32[16,4,128,2048]{3,2,1,0:T(8,128)} broadcast(%constant.1108.clone.1), dimensions={}, metadata={op_name="jit(train_step)/mul" stack_frame_id=0}
  %mul.2488.clone.1 = f32[16,4,128,2048]{3,2,1,0:T(8,128)} multiply(%param_8.122, %mul.2490.clone.1), metadata={op_name="jit(train_step)/mul" stack_frame_id=0}
  %add.939.clone.1 = f32[16,4,128,2048]{3,2,1,0:T(8,128)} add(%mul.2489.clone.1, %mul.2488.clone.1), metadata={op_name="jit(train_step)/add" stack_frame_id=0}
  %param_2.1329 = f32[]{:T(128)S(6)} parameter(2)
  %div.888.clone.1 = f32[16,4,128,2048]{3,2,1,0:T(8,128)} broadcast(%param_2.1329), dimensions={}, metadata={op_name="jit(train_step)/div" stack_frame_id=0}
  %integer_pow.69.clone.1 = f32[16,4,128,2048]{3,2,1,0:T(8,128)} multiply(%select_n.283.clone.1, %select_n.283.clone.1), metadata={op_name="jit(train_step)/integer_pow" stack_frame_id=0}
  %constant.1107.clone.1 = f32[]{:T(128)} constant(0.05)
  %mul.2487.clone.1 = f32[16,4,128,2048]{3,2,1,0:T(8,128)} broadcast(%constant.1107.clone.1), dimensions={}, metadata={op_name="jit(train_step)/mul" stack_frame_id=0}
  %mul.2485.clone.1 = f32[16,4,128,2048]{3,2,1,0:T(8,128)} multiply(%integer_pow.69.clone.1, %mul.2487.clone.1), metadata={op_name="jit(train_step)/mul" stack_frame_id=0}
  %param_4.551 = f32[16,4,128,2048]{3,2,1,0:T(8,128)} parameter(4)
  %constant.1106.clone.1 = f32[]{:T(128)} constant(0.95)
  %mul.2486.clone.1 = f32[16,4,128,2048]{3,2,1,0:T(8,128)} broadcast(%constant.1106.clone.1), dimensions={}, metadata={op_name="jit(train_step)/mul" stack_frame_id=0}
  %mul.2484.clone.1 = f32[16,4,128,2048]{3,2,1,0:T(8,128)} multiply(%param_4.551, %mul.2486.clone.1), metadata={op_name="jit(train_step)/mul" stack_frame_id=0}
  %add.938.clone.1 = f32[16,4,128,2048]{3,2,1,0:T(8,128)} add(%mul.2485.clone.1, %mul.2484.clone.1), metadata={op_name="jit(train_step)/add" stack_frame_id=0}
  %param_1.1587 = f32[]{:T(128)S(6)} parameter(1)
  %div.887.clone.1 = f32[16,4,128,2048]{3,2,1,0:T(8,128)} broadcast(%param_1.1587), dimensions={}, metadata={op_name="jit(train_step)/div" stack_frame_id=0}
  %div.886.clone.1 = f32[16,4,128,2048]{3,2,1,0:T(8,128)} divide(%add.938.clone.1, %div.887.clone.1), metadata={op_name="jit(train_step)/div" stack_frame_id=0}
  %sqrt.66.clone.1 = f32[16,4,128,2048]{3,2,1,0:T(8,128)} sqrt(%div.886.clone.1), metadata={op_name="jit(train_step)/sqrt" stack_frame_id=0}
  %constant.1105.clone.1 = f32[]{:T(128)} constant(1e-08)
  %add.937.clone.1 = f32[16,4,128,2048]{3,2,1,0:T(8,128)} broadcast(%constant.1105.clone.1), dimensions={}, metadata={op_name="jit(train_step)/add" stack_frame_id=0}
  %add.936.clone.1 = f32[16,4,128,2048]{3,2,1,0:T(8,128)} add(%sqrt.66.clone.1, %add.937.clone.1), metadata={op_name="jit(train_step)/add" stack_frame_id=0}
  %multiply.291.clone.1 = f32[16,4,128,2048]{3,2,1,0:T(8,128)} multiply(%div.888.clone.1, %add.936.clone.1), metadata={op_name="multiply.42"}
  %div.885.clone.1 = f32[16,4,128,2048]{3,2,1,0:T(8,128)} divide(%add.939.clone.1, %multiply.291.clone.1), metadata={op_name="jit(train_step)/div" stack_frame_id=0}
  %mul.2482.clone.1 = f32[16,4,128,2048]{3,2,1,0:T(8,128)} multiply(%param_0.1413, %broadcast.770.clone.1), metadata={op_name="jit(train_step)/mul" stack_frame_id=0}
  %add.935.clone.1 = f32[16,4,128,2048]{3,2,1,0:T(8,128)} add(%div.885.clone.1, %mul.2482.clone.1), metadata={op_name="jit(train_step)/add" stack_frame_id=0}
  %mul.2481.clone.1 = f32[16,4,128,2048]{3,2,1,0:T(8,128)} multiply(%mul.2483.clone.1, %add.935.clone.1), metadata={op_name="jit(train_step)/mul" stack_frame_id=0}
  %add.934.clone.1 = f32[16,4,128,2048]{3,2,1,0:T(8,128)} add(%param_0.1413, %mul.2481.clone.1), metadata={op_name="jit(train_step)/add" stack_frame_id=0}
  %square.235 = f32[16,4,128,2048]{3,2,1,0:T(8,128)} multiply(%add.934.clone.1, %add.934.clone.1), metadata={op_name="jit(train_step)/square" stack_frame_id=0}
  %constant.1192 = f32[]{:T(128)} constant(0)
  %reduce.123 = f32[]{:T(128)} reduce(%square.235, %constant.1192), dimensions={0,1,2,3}, to_apply=%region_67.72, metadata={op_name="jit(train_step)/reduce_sum" stack_frame_id=0}
  %reduce.125.clone.1 = f32[]{:T(128)} reduce(%integer_pow.69.clone.1, %constant.1192), dimensions={0,1,2,3}, to_apply=%region_52.57, metadata={op_name="jit(train_step)/reduce_sum" stack_frame_id=0}
  ROOT %tuple.150 = (f32[]{:T(128)}, f32[16,4,128,2048]{3,2,1,0:T(8,128)}, f32[16,4,128,2048]{3,2,1,0:T(8,128)}, f32[16,4,128,2048]{3,2,1,0:T(8,128)}, f32[]{:T(128)}) tuple(%reduce.123, %add.934.clone.1, %add.938.clone.1, %add.939.clone.1, %reduce.125.clone.1)
}

%region_41.46 (reduce_sum.416: f32[], reduce_sum.417: f32[]) -> f32[] {
  %reduce_sum.417 = f32[]{:T(128)} parameter(1), metadata={op_name="jit(train_step)/reduce_sum"}
  %reduce_sum.416 = f32[]{:T(128)} parameter(0), metadata={op_name="jit(train_step)/reduce_sum"}
  ROOT %reduce_sum.418 = f32[]{:T(128)} add(%reduce_sum.416, %reduce_sum.417), metadata={op_name="jit(train_step)/reduce_sum" stack_frame_id=0}, backend_config={"flag_configs":[],"scoped_memory_configs":[],"used_scoped_memory_configs":[],"aliasing_operands":{"lists":[]}}
}

%region_36.41 (reduce_sum.389: f32[], reduce_sum.390: f32[]) -> f32[] {
  %reduce_sum.390 = f32[]{:T(128)} parameter(1), metadata={op_name="jit(train_step)/reduce_sum"}
  %reduce_sum.389 = f32[]{:T(128)} parameter(0), metadata={op_name="jit(train_step)/reduce_sum"}
  ROOT %reduce_sum.394 = f32[]{:T(128)} add(%reduce_sum.389, %reduce_sum.390), metadata={op_name="jit(train_step)/reduce_sum" stack_frame_id=0}, backend_config={"flag_configs":[],"scoped_memory_configs":[],"used_scoped_memory_configs":[],"aliasing_operands":{"lists":[]}}
}

%fused_computation.352 (param_0.1426: f32[4,2048,8,128], param_1.1598: f32[4,2048,8,128]) -> (f32[], f32[]) {
  %param_0.1426 = f32[4,2048,8,128]{3,2,0,1:T(8,128)S(1)} parameter(0)
  %bitcast.352 = f32[2048,4,8,128]{3,2,1,0:T(8,128)} bitcast(%param_0.1426), metadata={op_name="jit(train_step)/transpose(jvp(TransformerLinenPure.apply))/TransformerLinenPure/decoder/transpose" stack_frame_id=0}
  %square.238 = f32[2048,4,8,128]{3,2,1,0:T(8,128)} multiply(%bitcast.352, %bitcast.352), metadata={op_name="jit(train_step)/square" stack_frame_id=0}
  %constant.1205 = f32[]{:T(128)} constant(0)
  %reduce.126 = f32[]{:T(128)} reduce(%square.238, %constant.1205), dimensions={0,1,2,3}, to_apply=%region_41.46, metadata={op_name="jit(train_step)/reduce_sum" stack_frame_id=0}
  %param_1.1598 = f32[4,2048,8,128]{3,2,0,1:T(8,128)} parameter(1)
  %bitcast.356.clone.1 = f32[2048,4,8,128]{3,2,1,0:T(8,128)} bitcast(%param_1.1598), metadata={op_name="jit(train_step)/transpose(jvp(TransformerLinenPure.apply))/TransformerLinenPure/decoder/transpose" stack_frame_id=0}
  %square.241.clone.1 = f32[2048,4,8,128]{3,2,1,0:T(8,128)} multiply(%bitcast.356.clone.1, %bitcast.356.clone.1), metadata={op_name="jit(train_step)/square" stack_frame_id=0}
  %reduce.127.clone.1 = f32[]{:T(128)} reduce(%square.241.clone.1, %constant.1205), dimensions={0,1,2,3}, to_apply=%region_36.41, metadata={op_name="jit(train_step)/reduce_sum" stack_frame_id=0}
  ROOT %tuple.169 = (f32[]{:T(128)}, f32[]{:T(128)}) tuple(%reduce.126, %reduce.127.clone.1)
}

%fused_computation.355 (param_0.1021: f32[2048,4,8,128]) -> bf16[4,2048,8,128] {
  %param_0.1021 = f32[2048,4,8,128]{3,2,1,0:T(8,128)S(1)} parameter(0)
  %copy.190 = bf16[2048,4,8,128]{3,2,0,1:T(8,128)(2,1)} copy(%param_0.1021), sharding={replicated}, metadata={op_name="state.params[\'params\'][\'decoder\'][\'layers\'][\'self_attention\'][\'value\'][\'kernel\']"}
  ROOT %bitcast.357 = bf16[4,2048,8,128]{3,2,1,0:T(8,128)(2,1)} bitcast(%copy.190), metadata={op_name="jit(train_step)/jvp(TransformerLinenPure.apply)/TransformerLinenPure/decoder/transpose" stack_frame_id=0}
}

%region_70.75 (reduce_sum.563: f32[], reduce_sum.564: f32[]) -> f32[] {
  %reduce_sum.564 = f32[]{:T(128)} parameter(1), metadata={op_name="jit(train_step)/reduce_sum"}
  %reduce_sum.563 = f32[]{:T(128)} parameter(0), metadata={op_name="jit(train_step)/reduce_sum"}
  ROOT %reduce_sum.565 = f32[]{:T(128)} add(%reduce_sum.563, %reduce_sum.564), metadata={op_name="jit(train_step)/reduce_sum" stack_frame_id=0}, backend_config={"flag_configs":[],"scoped_memory_configs":[],"used_scoped_memory_configs":[],"aliasing_operands":{"lists":[]}}
}

%region_55.60 (reduce_sum.485: f32[], reduce_sum.486: f32[]) -> f32[] {
  %reduce_sum.486 = f32[]{:T(128)} parameter(1), metadata={op_name="jit(train_step)/reduce_sum"}
  %reduce_sum.485 = f32[]{:T(128)} parameter(0), metadata={op_name="jit(train_step)/reduce_sum"}
  ROOT %reduce_sum.487 = f32[]{:T(128)} add(%reduce_sum.485, %reduce_sum.486), metadata={op_name="jit(train_step)/reduce_sum" stack_frame_id=0}, backend_config={"flag_configs":[],"scoped_memory_configs":[],"used_scoped_memory_configs":[],"aliasing_operands":{"lists":[]}}
}

%fused_computation.356 (param_0.1410: f32[2048,4,8,128], param_1.1584: f32[], param_2.1326: f32[], param_3.909: f32[], param_4.548: f32[2048,4,8,128], param_5.482: f32[], param_6.357: f32[4,2048,8,128], param_7.201: pred[], param_8.119: f32[2048,4,8,128]) -> (f32[], f32[2048,4,8,128], f32[2048,4,8,128], f32[2048,4,8,128], f32[]) {
  %param_0.1410 = f32[2048,4,8,128]{3,2,1,0:T(8,128)} parameter(0)
  %param_3.909 = f32[]{:T(128)S(6)} parameter(3)
  %mul.2459.clone.1 = f32[2048,4,8,128]{3,2,1,0:T(8,128)} broadcast(%param_3.909), dimensions={}, metadata={op_name="jit(train_step)/mul" stack_frame_id=0}
  %param_7.201 = pred[]{:T(512)S(6)} parameter(7)
  %select_n.272.clone.1 = pred[2048,4,8,128]{3,2,1,0:T(8,128)(4,1)} broadcast(%param_7.201), dimensions={}, metadata={op_name="jit(train_step)/select_n" stack_frame_id=0}
  %param_6.357 = f32[4,2048,8,128]{3,2,0,1:T(8,128)} parameter(6)
  %bitcast.447.clone.1 = f32[2048,4,8,128]{3,2,1,0:T(8,128)} bitcast(%param_6.357), metadata={op_name="jit(train_step)/transpose(jvp(TransformerLinenPure.apply))/TransformerLinenPure/decoder/transpose" stack_frame_id=0}
  %param_5.482 = f32[]{:T(128)} parameter(5)
  %div.868.clone.1 = f32[2048,4,8,128]{3,2,1,0:T(8,128)} broadcast(%param_5.482), dimensions={}, metadata={op_name="jit(train_step)/div" stack_frame_id=0}
  %div.867.clone.1 = f32[2048,4,8,128]{3,2,1,0:T(8,128)} divide(%bitcast.447.clone.1, %div.868.clone.1), metadata={op_name="jit(train_step)/div" stack_frame_id=0}
  %select_n.271.clone.1 = f32[2048,4,8,128]{3,2,1,0:T(8,128)} select(%select_n.272.clone.1, %bitcast.447.clone.1, %div.867.clone.1), metadata={op_name="jit(train_step)/select_n" stack_frame_id=0}
  %constant.1086.clone.1 = f32[]{:T(128)} constant(0.1)
  %broadcast.760.clone.1 = f32[2048,4,8,128]{3,2,1,0:T(8,128)} broadcast(%constant.1086.clone.1), dimensions={}, metadata={op_name="broadcast.80"}
  %mul.2463.clone.1 = f32[2048,4,8,128]{3,2,1,0:T(8,128)} multiply(%select_n.271.clone.1, %broadcast.760.clone.1), metadata={op_name="jit(train_step)/mul" stack_frame_id=0}
  %param_8.119 = f32[2048,4,8,128]{3,2,1,0:T(8,128)} parameter(8)
  %constant.1090.clone.1 = f32[]{:T(128)} constant(0.9)
  %broadcast.759.clone.1 = f32[2048,4,8,128]{3,2,1,0:T(8,128)} broadcast(%constant.1090.clone.1), dimensions={}, metadata={op_name="broadcast.79"}
  %mul.2462.clone.1 = f32[2048,4,8,128]{3,2,1,0:T(8,128)} multiply(%param_8.119, %broadcast.759.clone.1), metadata={op_name="jit(train_step)/mul" stack_frame_id=0}
  %add.922.clone.1 = f32[2048,4,8,128]{3,2,1,0:T(8,128)} add(%mul.2463.clone.1, %mul.2462.clone.1), metadata={op_name="jit(train_step)/add" stack_frame_id=0}
  %param_2.1326 = f32[]{:T(128)S(6)} parameter(2)
  %div.864.clone.1 = f32[2048,4,8,128]{3,2,1,0:T(8,128)} broadcast(%param_2.1326), dimensions={}, metadata={op_name="jit(train_step)/div" stack_frame_id=0}
  %integer_pow.66.clone.1 = f32[2048,4,8,128]{3,2,1,0:T(8,128)} multiply(%select_n.271.clone.1, %select_n.271.clone.1), metadata={op_name="jit(train_step)/integer_pow" stack_frame_id=0}
  %constant.1089.clone.1 = f32[]{:T(128)} constant(0.05)
  %broadcast.758.clone.1 = f32[2048,4,8,128]{3,2,1,0:T(8,128)} broadcast(%constant.1089.clone.1), dimensions={}, metadata={op_name="broadcast.69"}
  %mul.2461.clone.1 = f32[2048,4,8,128]{3,2,1,0:T(8,128)} multiply(%integer_pow.66.clone.1, %broadcast.758.clone.1), metadata={op_name="jit(train_step)/mul" stack_frame_id=0}
  %param_4.548 = f32[2048,4,8,128]{3,2,1,0:T(8,128)} parameter(4)
  %constant.1088.clone.1 = f32[]{:T(128)} constant(0.95)
  %broadcast.757.clone.1 = f32[2048,4,8,128]{3,2,1,0:T(8,128)} broadcast(%constant.1088.clone.1), dimensions={}, metadata={op_name="broadcast.68"}
  %mul.2460.clone.1 = f32[2048,4,8,128]{3,2,1,0:T(8,128)} multiply(%param_4.548, %broadcast.757.clone.1), metadata={op_name="jit(train_step)/mul" stack_frame_id=0}
  %add.921.clone.1 = f32[2048,4,8,128]{3,2,1,0:T(8,128)} add(%mul.2461.clone.1, %mul.2460.clone.1), metadata={op_name="jit(train_step)/add" stack_frame_id=0}
  %param_1.1584 = f32[]{:T(128)S(6)} parameter(1)
  %div.863.clone.1 = f32[2048,4,8,128]{3,2,1,0:T(8,128)} broadcast(%param_1.1584), dimensions={}, metadata={op_name="jit(train_step)/div" stack_frame_id=0}
  %div.862.clone.1 = f32[2048,4,8,128]{3,2,1,0:T(8,128)} divide(%add.921.clone.1, %div.863.clone.1), metadata={op_name="jit(train_step)/div" stack_frame_id=0}
  %sqrt.63.clone.1 = f32[2048,4,8,128]{3,2,1,0:T(8,128)} sqrt(%div.862.clone.1), metadata={op_name="jit(train_step)/sqrt" stack_frame_id=0}
  %constant.1087.clone.1 = f32[]{:T(128)} constant(1e-08)
  %broadcast.755.clone.1 = f32[2048,4,8,128]{3,2,1,0:T(8,128)} broadcast(%constant.1087.clone.1), dimensions={}, metadata={op_name="broadcast.63"}
  %add.920.clone.1 = f32[2048,4,8,128]{3,2,1,0:T(8,128)} add(%sqrt.63.clone.1, %broadcast.755.clone.1), metadata={op_name="jit(train_step)/add" stack_frame_id=0}
  %multiply.288.clone.1 = f32[2048,4,8,128]{3,2,1,0:T(8,128)} multiply(%div.864.clone.1, %add.920.clone.1), metadata={op_name="multiply.45"}
  %div.861.clone.1 = f32[2048,4,8,128]{3,2,1,0:T(8,128)} divide(%add.922.clone.1, %multiply.288.clone.1), metadata={op_name="jit(train_step)/div" stack_frame_id=0}
  %mul.2458.clone.1 = f32[2048,4,8,128]{3,2,1,0:T(8,128)} multiply(%param_0.1410, %broadcast.760.clone.1), metadata={op_name="jit(train_step)/mul" stack_frame_id=0}
  %add.919.clone.1 = f32[2048,4,8,128]{3,2,1,0:T(8,128)} add(%div.861.clone.1, %mul.2458.clone.1), metadata={op_name="jit(train_step)/add" stack_frame_id=0}
  %mul.2457.clone.1 = f32[2048,4,8,128]{3,2,1,0:T(8,128)} multiply(%mul.2459.clone.1, %add.919.clone.1), metadata={op_name="jit(train_step)/mul" stack_frame_id=0}
  %add.918.clone.1 = f32[2048,4,8,128]{3,2,1,0:T(8,128)} add(%param_0.1410, %mul.2457.clone.1), metadata={op_name="jit(train_step)/add" stack_frame_id=0}
  %square.242 = f32[2048,4,8,128]{3,2,1,0:T(8,128)} multiply(%add.918.clone.1, %add.918.clone.1), metadata={op_name="jit(train_step)/square" stack_frame_id=0}
  %constant.1189 = f32[]{:T(128)} constant(0)
  %reduce.128 = f32[]{:T(128)} reduce(%square.242, %constant.1189), dimensions={0,1,2,3}, to_apply=%region_70.75, metadata={op_name="jit(train_step)/reduce_sum" stack_frame_id=0}
  %reduce.130.clone.1 = f32[]{:T(128)} reduce(%integer_pow.66.clone.1, %constant.1189), dimensions={0,1,2,3}, to_apply=%region_55.60, metadata={op_name="jit(train_step)/reduce_sum" stack_frame_id=0}
  ROOT %tuple.151 = (f32[]{:T(128)}, f32[2048,4,8,128]{3,2,1,0:T(8,128)}, f32[2048,4,8,128]{3,2,1,0:T(8,128)}, f32[2048,4,8,128]{3,2,1,0:T(8,128)}, f32[]{:T(128)}) tuple(%reduce.128, %add.918.clone.1, %add.921.clone.1, %add.922.clone.1, %reduce.130.clone.1)
}

%region_65.70 (reduce_sum.536: f32[], reduce_sum.537: f32[]) -> f32[] {
  %reduce_sum.537 = f32[]{:T(128)} parameter(1), metadata={op_name="jit(train_step)/reduce_sum"}
  %reduce_sum.536 = f32[]{:T(128)} parameter(0), metadata={op_name="jit(train_step)/reduce_sum"}
  ROOT %reduce_sum.541 = f32[]{:T(128)} add(%reduce_sum.536, %reduce_sum.537), metadata={op_name="jit(train_step)/reduce_sum" stack_frame_id=0}, backend_config={"flag_configs":[],"scoped_memory_configs":[],"used_scoped_memory_configs":[],"aliasing_operands":{"lists":[]}}
}

%region_50.55 (reduce_sum.458: f32[], reduce_sum.459: f32[]) -> f32[] {
  %reduce_sum.459 = f32[]{:T(128)} parameter(1), metadata={op_name="jit(train_step)/reduce_sum"}
  %reduce_sum.458 = f32[]{:T(128)} parameter(0), metadata={op_name="jit(train_step)/reduce_sum"}
  ROOT %reduce_sum.460 = f32[]{:T(128)} add(%reduce_sum.458, %reduce_sum.459), metadata={op_name="jit(train_step)/reduce_sum" stack_frame_id=0}, backend_config={"flag_configs":[],"scoped_memory_configs":[],"used_scoped_memory_configs":[],"aliasing_operands":{"lists":[]}}
}

%fused_computation.357 (param_0.1415: f32[2048,4,8,128], param_1.1589: f32[], param_2.1331: f32[], param_3.914: f32[], param_4.553: f32[2048,4,8,128], param_5.487: f32[], param_6.362: f32[4,2048,8,128], param_7.206: pred[], param_8.124: f32[2048,4,8,128]) -> (f32[], f32[2048,4,8,128], f32[2048,4,8,128], f32[2048,4,8,128], f32[]) {
  %param_0.1415 = f32[2048,4,8,128]{3,2,1,0:T(8,128)} parameter(0)
  %param_3.914 = f32[]{:T(128)S(6)} parameter(3)
  %mul.2500.clone.1 = f32[2048,4,8,128]{3,2,1,0:T(8,128)} broadcast(%param_3.914), dimensions={}, metadata={op_name="jit(train_step)/mul" stack_frame_id=0}
  %param_7.206 = pred[]{:T(512)S(6)} parameter(7)
  %select_n.292.clone.1 = pred[2048,4,8,128]{3,2,1,0:T(8,128)(4,1)} broadcast(%param_7.206), dimensions={}, metadata={op_name="jit(train_step)/select_n" stack_frame_id=0}
  %param_6.362 = f32[4,2048,8,128]{3,2,0,1:T(8,128)S(1)} parameter(6)
  %bitcast.457.clone.1 = f32[2048,4,8,128]{3,2,1,0:T(8,128)} bitcast(%param_6.362), metadata={op_name="jit(train_step)/transpose(jvp(TransformerLinenPure.apply))/TransformerLinenPure/decoder/transpose" stack_frame_id=0}
  %param_5.487 = f32[]{:T(128)} parameter(5)
  %div.908.clone.1 = f32[2048,4,8,128]{3,2,1,0:T(8,128)} broadcast(%param_5.487), dimensions={}, metadata={op_name="jit(train_step)/div" stack_frame_id=0}
  %div.907.clone.1 = f32[2048,4,8,128]{3,2,1,0:T(8,128)} divide(%bitcast.457.clone.1, %div.908.clone.1), metadata={op_name="jit(train_step)/div" stack_frame_id=0}
  %select_n.291.clone.1 = f32[2048,4,8,128]{3,2,1,0:T(8,128)} select(%select_n.292.clone.1, %bitcast.457.clone.1, %div.907.clone.1), metadata={op_name="jit(train_step)/select_n" stack_frame_id=0}
  %constant.1116.clone.1 = f32[]{:T(128)} constant(0.1)
  %broadcast.782.clone.1 = f32[2048,4,8,128]{3,2,1,0:T(8,128)} broadcast(%constant.1116.clone.1), dimensions={}, metadata={op_name="broadcast.80"}
  %mul.2504.clone.1 = f32[2048,4,8,128]{3,2,1,0:T(8,128)} multiply(%select_n.291.clone.1, %broadcast.782.clone.1), metadata={op_name="jit(train_step)/mul" stack_frame_id=0}
  %param_8.124 = f32[2048,4,8,128]{3,2,1,0:T(8,128)} parameter(8)
  %constant.1120.clone.1 = f32[]{:T(128)} constant(0.9)
  %broadcast.781.clone.1 = f32[2048,4,8,128]{3,2,1,0:T(8,128)} broadcast(%constant.1120.clone.1), dimensions={}, metadata={op_name="broadcast.79"}
  %mul.2503.clone.1 = f32[2048,4,8,128]{3,2,1,0:T(8,128)} multiply(%param_8.124, %broadcast.781.clone.1), metadata={op_name="jit(train_step)/mul" stack_frame_id=0}
  %add.949.clone.1 = f32[2048,4,8,128]{3,2,1,0:T(8,128)} add(%mul.2504.clone.1, %mul.2503.clone.1), metadata={op_name="jit(train_step)/add" stack_frame_id=0}
  %param_2.1331 = f32[]{:T(128)S(6)} parameter(2)
  %div.904.clone.1 = f32[2048,4,8,128]{3,2,1,0:T(8,128)} broadcast(%param_2.1331), dimensions={}, metadata={op_name="jit(train_step)/div" stack_frame_id=0}
  %integer_pow.71.clone.1 = f32[2048,4,8,128]{3,2,1,0:T(8,128)} multiply(%select_n.291.clone.1, %select_n.291.clone.1), metadata={op_name="jit(train_step)/integer_pow" stack_frame_id=0}
  %constant.1119.clone.1 = f32[]{:T(128)} constant(0.05)
  %broadcast.780.clone.1 = f32[2048,4,8,128]{3,2,1,0:T(8,128)} broadcast(%constant.1119.clone.1), dimensions={}, metadata={op_name="broadcast.69"}
  %mul.2502.clone.1 = f32[2048,4,8,128]{3,2,1,0:T(8,128)} multiply(%integer_pow.71.clone.1, %broadcast.780.clone.1), metadata={op_name="jit(train_step)/mul" stack_frame_id=0}
  %param_4.553 = f32[2048,4,8,128]{3,2,1,0:T(8,128)} parameter(4)
  %constant.1118.clone.1 = f32[]{:T(128)} constant(0.95)
  %broadcast.779.clone.1 = f32[2048,4,8,128]{3,2,1,0:T(8,128)} broadcast(%constant.1118.clone.1), dimensions={}, metadata={op_name="broadcast.68"}
  %mul.2501.clone.1 = f32[2048,4,8,128]{3,2,1,0:T(8,128)} multiply(%param_4.553, %broadcast.779.clone.1), metadata={op_name="jit(train_step)/mul" stack_frame_id=0}
  %add.948.clone.1 = f32[2048,4,8,128]{3,2,1,0:T(8,128)} add(%mul.2502.clone.1, %mul.2501.clone.1), metadata={op_name="jit(train_step)/add" stack_frame_id=0}
  %param_1.1589 = f32[]{:T(128)S(6)} parameter(1)
  %div.903.clone.1 = f32[2048,4,8,128]{3,2,1,0:T(8,128)} broadcast(%param_1.1589), dimensions={}, metadata={op_name="jit(train_step)/div" stack_frame_id=0}
  %div.902.clone.1 = f32[2048,4,8,128]{3,2,1,0:T(8,128)} divide(%add.948.clone.1, %div.903.clone.1), metadata={op_name="jit(train_step)/div" stack_frame_id=0}
  %sqrt.68.clone.1 = f32[2048,4,8,128]{3,2,1,0:T(8,128)} sqrt(%div.902.clone.1), metadata={op_name="jit(train_step)/sqrt" stack_frame_id=0}
  %constant.1117.clone.1 = f32[]{:T(128)} constant(1e-08)
  %broadcast.777.clone.1 = f32[2048,4,8,128]{3,2,1,0:T(8,128)} broadcast(%constant.1117.clone.1), dimensions={}, metadata={op_name="broadcast.63"}
  %add.947.clone.1 = f32[2048,4,8,128]{3,2,1,0:T(8,128)} add(%sqrt.68.clone.1, %broadcast.777.clone.1), metadata={op_name="jit(train_step)/add" stack_frame_id=0}
  %multiply.293.clone.1 = f32[2048,4,8,128]{3,2,1,0:T(8,128)} multiply(%div.904.clone.1, %add.947.clone.1), metadata={op_name="multiply.40"}
  %div.901.clone.1 = f32[2048,4,8,128]{3,2,1,0:T(8,128)} divide(%add.949.clone.1, %multiply.293.clone.1), metadata={op_name="jit(train_step)/div" stack_frame_id=0}
  %mul.2499.clone.1 = f32[2048,4,8,128]{3,2,1,0:T(8,128)} multiply(%param_0.1415, %broadcast.782.clone.1), metadata={op_name="jit(train_step)/mul" stack_frame_id=0}
  %add.946.clone.1 = f32[2048,4,8,128]{3,2,1,0:T(8,128)} add(%div.901.clone.1, %mul.2499.clone.1), metadata={op_name="jit(train_step)/add" stack_frame_id=0}
  %mul.2498.clone.1 = f32[2048,4,8,128]{3,2,1,0:T(8,128)} multiply(%mul.2500.clone.1, %add.946.clone.1), metadata={op_name="jit(train_step)/mul" stack_frame_id=0}
  %add.945.clone.1 = f32[2048,4,8,128]{3,2,1,0:T(8,128)} add(%param_0.1415, %mul.2498.clone.1), metadata={op_name="jit(train_step)/add" stack_frame_id=0}
  %square.243 = f32[2048,4,8,128]{3,2,1,0:T(8,128)} multiply(%add.945.clone.1, %add.945.clone.1), metadata={op_name="jit(train_step)/square" stack_frame_id=0}
  %constant.1194 = f32[]{:T(128)} constant(0)
  %reduce.129 = f32[]{:T(128)} reduce(%square.243, %constant.1194), dimensions={0,1,2,3}, to_apply=%region_65.70, metadata={op_name="jit(train_step)/reduce_sum" stack_frame_id=0}
  %reduce.131.clone.1 = f32[]{:T(128)} reduce(%integer_pow.71.clone.1, %constant.1194), dimensions={0,1,2,3}, to_apply=%region_50.55, metadata={op_name="jit(train_step)/reduce_sum" stack_frame_id=0}
  ROOT %tuple.152 = (f32[]{:T(128)}, f32[2048,4,8,128]{3,2,1,0:T(8,128)}, f32[2048,4,8,128]{3,2,1,0:T(8,128)}, f32[2048,4,8,128]{3,2,1,0:T(8,128)}, f32[]{:T(128)}) tuple(%reduce.129, %add.945.clone.1, %add.948.clone.1, %add.949.clone.1, %reduce.131.clone.1)
}

%fused_computation.373 (param_0.1095: bf16[4,128,2048], param_1.1142: f32[4,128], param_2.842: f32[4,128], param_3.484: bf16[4,128,2048], param_4.283: bf16[2048]) -> bf16[4,128,2048] {
  %param_3.484 = bf16[4,128,2048]{2,1,0:T(8,128)(2,1)S(1)} parameter(3)
  %param_4.283 = bf16[2048]{0:T(1024)(128)(2,1)S(1)} parameter(4)
  %mul.2385 = bf16[4,128,2048]{2,1,0:T(8,128)(2,1)} broadcast(%param_4.283), dimensions={2}, metadata={op_name="jit(train_step)/jvp(TransformerLinenPure.apply)/TransformerLinenPure/decoder/decoder.apply_output_head/decoder_norm/mul" stack_frame_id=0}
  %mul.2359 = bf16[4,128,2048]{2,1,0:T(8,128)(2,1)} multiply(%param_3.484, %mul.2385), metadata={op_name="jit(train_step)/transpose(jvp(TransformerLinenPure.apply))/TransformerLinenPure/decoder/decoder.apply_output_head/decoder_norm/mul" stack_frame_id=0}
  %convert_element_type.1387 = f32[4,128,2048]{2,1,0:T(8,128)} convert(%mul.2359), metadata={op_name="jit(train_step)/transpose(jvp(TransformerLinenPure.apply))/TransformerLinenPure/decoder/decoder.apply_output_head/decoder_norm/convert_element_type" stack_frame_id=0}
  %param_2.842 = f32[4,128]{1,0:T(4,128)S(1)} parameter(2)
  %mul.2356 = f32[4,128,2048]{2,1,0:T(8,128)} broadcast(%param_2.842), dimensions={0,1}, metadata={op_name="jit(train_step)/jvp(TransformerLinenPure.apply)/TransformerLinenPure/decoder/decoder.apply_output_head/decoder_norm/mul" stack_frame_id=0}
  %mul.2347 = f32[4,128,2048]{2,1,0:T(8,128)} multiply(%convert_element_type.1387, %mul.2356), metadata={op_name="jit(train_step)/transpose(jvp(TransformerLinenPure.apply))/TransformerLinenPure/decoder/decoder.apply_output_head/decoder_norm/mul" stack_frame_id=0}
  %param_0.1095 = bf16[4,128,2048]{2,1,0:T(8,128)(2,1)S(1)} parameter(0)
  %convert_element_type.1398 = f32[4,128,2048]{2,1,0:T(8,128)} convert(%param_0.1095), metadata={op_name="jit(train_step)/jvp(TransformerLinenPure.apply)/TransformerLinenPure/decoder/decoder.apply_output_head/decoder_norm/convert_element_type" stack_frame_id=0}
  %param_1.1142 = f32[4,128]{1,0:T(4,128)S(1)} parameter(1)
  %mul.2354 = f32[4,128,2048]{2,1,0:T(8,128)} broadcast(%param_1.1142), dimensions={0,1}, metadata={op_name="jit(train_step)/transpose(jvp(TransformerLinenPure.apply))/TransformerLinenPure/decoder/decoder.apply_output_head/decoder_norm/mul" stack_frame_id=0}
  %mul.2353 = f32[4,128,2048]{2,1,0:T(8,128)} multiply(%convert_element_type.1398, %mul.2354), metadata={op_name="jit(train_step)/transpose(jvp(TransformerLinenPure.apply))/TransformerLinenPure/decoder/decoder.apply_output_head/decoder_norm/mul" stack_frame_id=0}
  %add_any.184 = f32[4,128,2048]{2,1,0:T(8,128)} add(%mul.2347, %mul.2353), metadata={op_name="jit(train_step)/transpose(jvp(TransformerLinenPure.apply))/TransformerLinenPure/decoder/decoder.apply_output_head/decoder_norm/add_any" stack_frame_id=0}
  ROOT %convert_element_type.1385 = bf16[4,128,2048]{2,1,0:T(8,128)(2,1)} convert(%add_any.184), metadata={op_name="jit(train_step)/transpose(jvp(TransformerLinenPure.apply))/TransformerLinenPure/decoder/decoder.apply_output_head/decoder_norm/convert_element_type" stack_frame_id=0}
}

%region_6.9 (reduce_sum.228: f32[], reduce_sum.229: f32[]) -> f32[] {
  %reduce_sum.229 = f32[]{:T(128)} parameter(1), metadata={op_name="jit(train_step)/jvp(TransformerLinenPure.apply)/TransformerLinenPure/decoder/decoder.apply_output_head/decoder_norm/reduce_sum"}
  %reduce_sum.228 = f32[]{:T(128)} parameter(0), metadata={op_name="jit(train_step)/jvp(TransformerLinenPure.apply)/TransformerLinenPure/decoder/decoder.apply_output_head/decoder_norm/reduce_sum"}
  ROOT %reduce_sum.230 = f32[]{:T(128)} add(%reduce_sum.228, %reduce_sum.229), metadata={op_name="jit(train_step)/jvp(TransformerLinenPure.apply)/TransformerLinenPure/decoder/decoder.apply_output_head/decoder_norm/reduce_sum" stack_frame_id=0}, backend_config={"flag_configs":[],"scoped_memory_configs":[],"used_scoped_memory_configs":[],"aliasing_operands":{"lists":[]}}
}

%fused_computation.374 (param_0.1435: bf16[4,128,2048]) -> f32[4,128] {
  %param_0.1435 = bf16[4,128,2048]{2,1,0:T(8,128)(2,1)S(1)} parameter(0)
  %convert_element_type.1389 = f32[4,128,2048]{2,1,0:T(8,128)} convert(%param_0.1435), metadata={op_name="jit(train_step)/jvp(TransformerLinenPure.apply)/TransformerLinenPure/decoder/decoder.apply_output_head/decoder_norm/convert_element_type" stack_frame_id=0}
  %square.246 = f32[4,128,2048]{2,1,0:T(8,128)} multiply(%convert_element_type.1389, %convert_element_type.1389), metadata={op_name="jit(train_step)/jvp(TransformerLinenPure.apply)/TransformerLinenPure/decoder/decoder.apply_output_head/decoder_norm/square" stack_frame_id=0}
  %constant.1215 = f32[]{:T(128)} constant(0)
  ROOT %reduce.132 = f32[4,128]{1,0:T(4,128)S(1)} reduce(%square.246, %constant.1215), dimensions={2}, to_apply=%region_6.9, metadata={op_name="jit(train_step)/jvp(TransformerLinenPure.apply)/TransformerLinenPure/decoder/decoder.apply_output_head/decoder_norm/reduce_sum" stack_frame_id=0}
}

%region_12.15 (reduce_sum.275: f32[], reduce_sum.276: f32[]) -> f32[] {
  %reduce_sum.276 = f32[]{:T(128)} parameter(1), metadata={op_name="jit(train_step)/transpose(jvp(TransformerLinenPure.apply))/TransformerLinenPure/decoder/decoder.apply_output_head/decoder_norm/reduce_sum"}
  %reduce_sum.275 = f32[]{:T(128)} parameter(0), metadata={op_name="jit(train_step)/transpose(jvp(TransformerLinenPure.apply))/TransformerLinenPure/decoder/decoder.apply_output_head/decoder_norm/reduce_sum"}
  ROOT %reduce_sum.277 = f32[]{:T(128)} add(%reduce_sum.275, %reduce_sum.276), metadata={op_name="jit(train_step)/transpose(jvp(TransformerLinenPure.apply))/TransformerLinenPure/decoder/decoder.apply_output_head/decoder_norm/reduce_sum" stack_frame_id=0}, backend_config={"flag_configs":[],"scoped_memory_configs":[],"used_scoped_memory_configs":[],"aliasing_operands":{"lists":[]}}
}

%fused_computation.376 (param_0.1430: bf16[4,128,2048], param_1.1601: bf16[4,128,2048], param_2.1339: bf16[2048]) -> f32[4,128] {
  %param_0.1430 = bf16[4,128,2048]{2,1,0:T(8,128)(2,1)S(1)} parameter(0)
  %convert_element_type.1396 = f32[4,128,2048]{2,1,0:T(8,128)} convert(%param_0.1430), metadata={op_name="jit(train_step)/jvp(TransformerLinenPure.apply)/TransformerLinenPure/decoder/decoder.apply_output_head/decoder_norm/convert_element_type" stack_frame_id=0}
  %param_1.1601 = bf16[4,128,2048]{2,1,0:T(8,128)(2,1)S(1)} parameter(1)
  %param_2.1339 = bf16[2048]{0:T(1024)(128)(2,1)S(1)} parameter(2)
  %mul.2384 = bf16[4,128,2048]{2,1,0:T(8,128)(2,1)} broadcast(%param_2.1339), dimensions={2}, metadata={op_name="jit(train_step)/jvp(TransformerLinenPure.apply)/TransformerLinenPure/decoder/decoder.apply_output_head/decoder_norm/mul" stack_frame_id=0}
  %mul.2358 = bf16[4,128,2048]{2,1,0:T(8,128)(2,1)} multiply(%param_1.1601, %mul.2384), metadata={op_name="jit(train_step)/transpose(jvp(TransformerLinenPure.apply))/TransformerLinenPure/decoder/decoder.apply_output_head/decoder_norm/mul" stack_frame_id=0}
  %convert_element_type.1395 = f32[4,128,2048]{2,1,0:T(8,128)} convert(%mul.2358), metadata={op_name="jit(train_step)/transpose(jvp(TransformerLinenPure.apply))/TransformerLinenPure/decoder/decoder.apply_output_head/decoder_norm/convert_element_type" stack_frame_id=0}
  %mul.2351 = f32[4,128,2048]{2,1,0:T(8,128)} multiply(%convert_element_type.1396, %convert_element_type.1395), metadata={op_name="jit(train_step)/transpose(jvp(TransformerLinenPure.apply))/TransformerLinenPure/decoder/decoder.apply_output_head/decoder_norm/mul" stack_frame_id=0}
  %constant.1209 = f32[]{:T(128)} constant(0)
  ROOT %reduce.133 = f32[4,128]{1,0:T(4,128)S(1)} reduce(%mul.2351, %constant.1209), dimensions={2}, to_apply=%region_12.15, metadata={op_name="jit(train_step)/transpose(jvp(TransformerLinenPure.apply))/TransformerLinenPure/decoder/decoder.apply_output_head/decoder_norm/reduce_sum" stack_frame_id=0}
}

%region_10.13 (reduce_sum.263: bf16[], reduce_sum.264: bf16[]) -> bf16[] {
  %reduce_sum.264 = bf16[]{:T(256)} parameter(1), metadata={op_name="jit(train_step)/transpose(jvp(TransformerLinenPure.apply))/TransformerLinenPure/decoder/decoder.apply_output_head/decoder_norm/reduce_sum"}
  %reduce_sum.263 = bf16[]{:T(256)} parameter(0), metadata={op_name="jit(train_step)/transpose(jvp(TransformerLinenPure.apply))/TransformerLinenPure/decoder/decoder.apply_output_head/decoder_norm/reduce_sum"}
  ROOT %reduce_sum.268 = bf16[]{:T(256)} add(%reduce_sum.263, %reduce_sum.264), metadata={op_name="jit(train_step)/transpose(jvp(TransformerLinenPure.apply))/TransformerLinenPure/decoder/decoder.apply_output_head/decoder_norm/reduce_sum" stack_frame_id=0}, backend_config={"flag_configs":[],"scoped_memory_configs":[],"used_scoped_memory_configs":[],"aliasing_operands":{"lists":[]}}
}

%fused_computation.296.clone.clone (param_0.1392: bf16[151936,2048]) -> bf16[151936,2048,1] {
  %param_0.1392 = bf16[151936,2048]{1,0:T(8,128)(2,1)} parameter(0)
  ROOT %bitcast.505 = bf16[151936,2048,1]{1,0,2:T(8,128)(2,1)} bitcast(%param_0.1392), metadata={op_name="jit(train_step)/jvp(TransformerLinenPure.apply)/TransformerLinenPure/decoder/decoder._apply_embedding/token_embedder/convert_element_type" stack_frame_id=0}
}

%fused_computation.300.clone.1.clone.clone (param_0.1393: bf16[4,128,151936], param_1.1573: s32[4,128], param_2.1296: f32[4,128], param_3.896: f32[4,128], param_4.533: bf16[4,128], param_5.455: f32[4,128]) -> bf16[4,128,151936] {
  %param_5.455 = f32[4,128]{1,0:T(4,128)S(1)} parameter(5)
  %mul.2616 = f32[4,128,151936]{2,1,0:T(8,128)} broadcast(%param_5.455), dimensions={0,1}, metadata={op_name="jit(train_step)/transpose(jvp())/mul" stack_frame_id=0}
  %param_3.896 = f32[4,128]{1,0:T(4,128)S(1)} parameter(3)
  %mul.2615 = f32[4,128,151936]{2,1,0:T(8,128)} broadcast(%param_3.896), dimensions={0,1}, metadata={op_name="jit(train_step)/transpose(jvp())/mul" stack_frame_id=0}
  %param_0.1393 = bf16[4,128,151936]{2,1,0:T(8,128)(2,1)} parameter(0)
  %convert_element_type.1468 = f32[4,128,151936]{2,1,0:T(8,128)} convert(%param_0.1393), metadata={op_name="jit(train_step)/jvp(TransformerLinenPure.apply)/TransformerLinenPure/decoder/decoder.apply_output_head/convert_element_type" stack_frame_id=0}
  %param_4.533 = bf16[4,128]{1,0:T(4,128)(2,1)S(1)} parameter(4)
  %sub.86 = f32[4,128,151936]{2,1,0:T(8,128)} broadcast(%param_4.533), dimensions={0,1}, metadata={op_name="jit(train_step)/jvp()/sub" stack_frame_id=0}
  %sub.85 = f32[4,128,151936]{2,1,0:T(8,128)} subtract(%convert_element_type.1468, %sub.86), metadata={op_name="jit(train_step)/jvp()/sub" stack_frame_id=0}
  %exp.60 = f32[4,128,151936]{2,1,0:T(8,128)} exponential(%sub.85), metadata={op_name="jit(train_step)/jvp()/exp" stack_frame_id=0}
  %mul.2614 = f32[4,128,151936]{2,1,0:T(8,128)} multiply(%mul.2615, %exp.60), metadata={op_name="jit(train_step)/transpose(jvp())/mul" stack_frame_id=0}
  %param_2.1296 = f32[4,128]{1,0:T(4,128)S(1)} parameter(2)
  %div.962 = f32[4,128,151936]{2,1,0:T(8,128)} broadcast(%param_2.1296), dimensions={0,1}, metadata={op_name="jit(train_step)/transpose(jvp())/div" stack_frame_id=0}
  %div.961 = f32[4,128,151936]{2,1,0:T(8,128)} divide(%mul.2614, %div.962), metadata={op_name="jit(train_step)/transpose(jvp())/div" stack_frame_id=0}
  %param_1.1573 = s32[4,128]{1,0:T(4,128)S(1)} parameter(1)
  %eq.43 = s32[4,128,151936]{2,1,0:T(8,128)} broadcast(%param_1.1573), dimensions={0,1}, metadata={op_name="jit(train_step)/jvp(jit(_one_hot))/eq" stack_frame_id=0}
  %eq.42 = s32[4,128,151936]{2,1,0:T(8,128)} iota(), iota_dimension=2, metadata={op_name="jit(train_step)/jvp(jit(_one_hot))/eq" stack_frame_id=0}
  %eq.41 = pred[4,128,151936]{2,1,0:T(8,128)(4,1)} compare(%eq.43, %eq.42), direction=EQ, metadata={op_name="jit(train_step)/jvp(jit(_one_hot))/eq" stack_frame_id=0}
  %convert_element_type.1467 = f32[4,128,151936]{2,1,0:T(8,128)} convert(%eq.41), metadata={op_name="jit(train_step)/jvp(jit(_one_hot))/convert_element_type" stack_frame_id=0}
  %sub.84 = f32[4,128,151936]{2,1,0:T(8,128)} subtract(%div.961, %convert_element_type.1467), metadata={op_name="jit(train_step)/transpose(jvp())/sub" stack_frame_id=0}
  %mul.2613 = f32[4,128,151936]{2,1,0:T(8,128)} multiply(%mul.2616, %sub.84), metadata={op_name="jit(train_step)/transpose(jvp())/mul" stack_frame_id=0}
  ROOT %convert_element_type.1466 = bf16[4,128,151936]{2,1,0:T(8,128)(2,1)} convert(%mul.2613), metadata={op_name="jit(train_step)/transpose(jvp(TransformerLinenPure.apply))/TransformerLinenPure/decoder/decoder.apply_output_head/convert_element_type" stack_frame_id=0}
}

%fused_computation.377 (param_0.1391: f32[4,128], param_1.1572: bf16[4,128,2048], param_2.1297: bf16[151936,2048], param_3.897: bf16[4,128,151936], param_4.534: s32[4,128], param_5.456: f32[4,128], param_6.342: f32[4,128], param_7.198: bf16[4,128], param_8.116: f32[4,128]) -> (bf16[2048], bf16[4,128,2048]) {
  %param_1.1572 = bf16[4,128,2048]{2,1,0:T(8,128)(2,1)S(1)} parameter(1)
  %convert_element_type.1408 = f32[4,128,2048]{2,1,0:T(8,128)} convert(%param_1.1572), metadata={op_name="jit(train_step)/jvp(TransformerLinenPure.apply)/TransformerLinenPure/decoder/decoder.apply_output_head/decoder_norm/convert_element_type" stack_frame_id=0}
  %param_0.1391 = f32[4,128]{1,0:T(4,128)S(1)} parameter(0)
  %mul.2373 = f32[4,128,2048]{2,1,0:T(8,128)} broadcast(%param_0.1391), dimensions={0,1}, metadata={op_name="jit(train_step)/jvp(TransformerLinenPure.apply)/TransformerLinenPure/decoder/decoder.apply_output_head/decoder_norm/mul" stack_frame_id=0}
  %mul.2372 = f32[4,128,2048]{2,1,0:T(8,128)} multiply(%convert_element_type.1408, %mul.2373), metadata={op_name="jit(train_step)/jvp(TransformerLinenPure.apply)/TransformerLinenPure/decoder/decoder.apply_output_head/decoder_norm/mul" stack_frame_id=0}
  %convert_element_type.1407 = bf16[4,128,2048]{2,1,0:T(8,128)(2,1)} convert(%mul.2372), metadata={op_name="jit(train_step)/jvp(TransformerLinenPure.apply)/TransformerLinenPure/decoder/decoder.apply_output_head/decoder_norm/convert_element_type" stack_frame_id=0}
  %param_3.897 = bf16[4,128,151936]{2,1,0:T(8,128)(2,1)} parameter(3)
  %param_4.534 = s32[4,128]{1,0:T(4,128)S(1)} parameter(4)
  %param_5.456 = f32[4,128]{1,0:T(4,128)S(1)} parameter(5)
  %param_6.342 = f32[4,128]{1,0:T(4,128)S(1)} parameter(6)
  %param_7.198 = bf16[4,128]{1,0:T(4,128)(2,1)S(1)} parameter(7)
  %param_8.116 = f32[4,128]{1,0:T(4,128)S(1)} parameter(8)
  %multiply_convert_fusion.3.clone.1 = bf16[4,128,151936]{2,1,0:T(8,128)(2,1)} fusion(%param_3.897, %param_4.534, %param_5.456, %param_6.342, %param_7.198, /*index=5*/%param_8.116), kind=kLoop, calls=%fused_computation.300.clone.1.clone.clone, metadata={op_name="jit(train_step)/transpose(jvp(TransformerLinenPure.apply))/TransformerLinenPure/decoder/decoder.apply_output_head/convert_element_type" stack_frame_id=0}
  %param_2.1297 = bf16[151936,2048]{1,0:T(8,128)(2,1)} parameter(2)
  %fusion.261.clone.1 = bf16[151936,2048,1]{1,0,2:T(8,128)(2,1)} fusion(%param_2.1297), kind=kLoop, calls=%fused_computation.296.clone.clone, metadata={op_name="jit(train_step)/jvp(TransformerLinenPure.apply)/TransformerLinenPure/decoder/decoder._apply_embedding/token_embedder/convert_element_type" stack_frame_id=0}
  %convolution.84.clone.1 = bf16[4,128,2048]{2,1,0:T(8,128)(2,1)S(1)} convolution(%multiply_convert_fusion.3.clone.1, %fusion.261.clone.1), window={size=1}, dim_labels=0bf_io0->0bf, metadata={op_name="jit(train_step)/transpose(jvp(TransformerLinenPure.apply))/TransformerLinenPure/decoder/decoder.apply_output_head/dot_general" stack_frame_id=0}
  %mul.2355 = bf16[4,128,2048]{2,1,0:T(8,128)(2,1)} multiply(%convert_element_type.1407, %convolution.84.clone.1), metadata={op_name="jit(train_step)/transpose(jvp(TransformerLinenPure.apply))/TransformerLinenPure/decoder/decoder.apply_output_head/decoder_norm/mul" stack_frame_id=0}
  %constant.1051 = bf16[]{:T(256)} constant(0)
  %reduce.134 = bf16[2048]{0:T(1024)(128)(2,1)S(1)} reduce(%mul.2355, %constant.1051), dimensions={0,1}, to_apply=%region_10.13, metadata={op_name="jit(train_step)/transpose(jvp(TransformerLinenPure.apply))/TransformerLinenPure/decoder/decoder.apply_output_head/decoder_norm/reduce_sum" stack_frame_id=0}
  ROOT %tuple.166 = (bf16[2048]{0:T(1024)(128)(2,1)S(1)}, bf16[4,128,2048]{2,1,0:T(8,128)(2,1)S(1)}) tuple(%reduce.134, %convolution.84.clone.1)
}

%fused_computation.385 (param_0.1129: f32[64], param_1.1177: f32[4,128]) -> (bf16[4,128,1,64], bf16[4,128,1,64]) {
  %param_1.1177 = f32[4,128]{1,0:T(4,128)S(1)} parameter(1)
  %div.720 = f32[4,128,1,64]{3,1,0,2:T(8,128)} broadcast(%param_1.1177), dimensions={0,1}, metadata={op_name="jit(train_step)/layers/div" stack_frame_id=0}
  %param_0.1129 = f32[64]{0:T(128)S(1)} parameter(0)
  %div.718 = f32[4,128,1,64]{3,1,0,2:T(8,128)} broadcast(%param_0.1129), dimensions={3}, metadata={op_name="jit(train_step)/layers/div" stack_frame_id=0}
  %div.717 = f32[4,128,1,64]{3,1,0,2:T(8,128)} divide(%div.720, %div.718), metadata={op_name="jit(train_step)/layers/div" stack_frame_id=0}
  %sin.38 = f32[4,128,1,64]{3,1,0,2:T(8,128)} sine(%div.717), metadata={op_name="jit(train_step)/layers/sin" stack_frame_id=0}
  %convert_element_type.1416 = bf16[4,128,1,64]{3,1,0,2:T(8,128)(2,1)S(1)} convert(%sin.38), metadata={op_name="jit(train_step)/layers/convert_element_type" stack_frame_id=0}
  %cos.41.clone.1 = f32[4,128,1,64]{3,1,0,2:T(8,128)} cosine(%div.717), metadata={op_name="jit(train_step)/layers/cos" stack_frame_id=0}
  %convert_element_type.1415.clone.1 = bf16[4,128,1,64]{3,1,0,2:T(8,128)(2,1)S(1)} convert(%cos.41.clone.1), metadata={op_name="jit(train_step)/layers/convert_element_type" stack_frame_id=0}
  ROOT %tuple.159 = (bf16[4,128,1,64]{3,1,0,2:T(8,128)(2,1)S(1)}, bf16[4,128,1,64]{3,1,0,2:T(8,128)(2,1)S(1)}) tuple(%convert_element_type.1416, %convert_element_type.1415.clone.1)
}

%fused_computation.386 (param_0.1126: bf16[4,128,1,64]) -> bf16[4,128,1,128] {
  %param_0.1126 = bf16[4,128,1,64]{3,1,0,2:T(8,128)(2,1)S(1)} parameter(0)
  %constant.1030 = bf16[]{:T(256)} constant(-inf)
  %pad.46 = bf16[4,128,1,128]{3,1,0,2:T(8,128)(2,1)} pad(%param_0.1126, %constant.1030), padding=0_0x0_0x0_0x0_64, metadata={op_name="jit(train_step)/layers/concatenate" stack_frame_id=0}
  %pad.45 = bf16[4,128,1,128]{3,1,0,2:T(8,128)(2,1)} pad(%param_0.1126, %constant.1030), padding=0_0x0_0x0_0x64_0, metadata={op_name="jit(train_step)/layers/concatenate" stack_frame_id=0}
  ROOT %maximum.42 = bf16[4,128,1,128]{3,1,0,2:T(8,128)(2,1)} maximum(%pad.46, %pad.45), metadata={op_name="jit(train_step)/layers/concatenate" stack_frame_id=0}
}

%fused_computation.387 (param_0.1128: bf16[4,128,1,64]) -> bf16[4,128,1,128] {
  %param_0.1128 = bf16[4,128,1,64]{3,1,0,2:T(8,128)(2,1)S(1)} parameter(0)
  %constant.1029 = bf16[]{:T(256)} constant(-inf)
  %pad.48 = bf16[4,128,1,128]{3,1,0,2:T(8,128)(2,1)} pad(%param_0.1128, %constant.1029), padding=0_0x0_0x0_0x0_64, metadata={op_name="jit(train_step)/layers/concatenate" stack_frame_id=0}
  %pad.47 = bf16[4,128,1,128]{3,1,0,2:T(8,128)(2,1)} pad(%param_0.1128, %constant.1029), padding=0_0x0_0x0_0x64_0, metadata={op_name="jit(train_step)/layers/concatenate" stack_frame_id=0}
  ROOT %maximum.43 = bf16[4,128,1,128]{3,1,0,2:T(8,128)(2,1)} maximum(%pad.48, %pad.47), metadata={op_name="jit(train_step)/layers/concatenate" stack_frame_id=0}
}

%region_35.40 (reduce_sum.383: f32[], reduce_sum.387: f32[]) -> f32[] {
  %reduce_sum.387 = f32[]{:T(128)} parameter(1), metadata={op_name="jit(train_step)/reduce_sum"}
  %reduce_sum.383 = f32[]{:T(128)} parameter(0), metadata={op_name="jit(train_step)/reduce_sum"}
  ROOT %reduce_sum.388 = f32[]{:T(128)} add(%reduce_sum.383, %reduce_sum.387), metadata={op_name="jit(train_step)/reduce_sum" stack_frame_id=0}, backend_config={"flag_configs":[],"scoped_memory_configs":[],"used_scoped_memory_configs":[],"aliasing_operands":{"lists":[]}}
}

%region_34.39 (reduce_sum.380: f32[], reduce_sum.381: f32[]) -> f32[] {
  %reduce_sum.381 = f32[]{:T(128)} parameter(1), metadata={op_name="jit(train_step)/reduce_sum"}
  %reduce_sum.380 = f32[]{:T(128)} parameter(0), metadata={op_name="jit(train_step)/reduce_sum"}
  ROOT %reduce_sum.382 = f32[]{:T(128)} add(%reduce_sum.380, %reduce_sum.381), metadata={op_name="jit(train_step)/reduce_sum" stack_frame_id=0}, backend_config={"flag_configs":[],"scoped_memory_configs":[],"used_scoped_memory_configs":[],"aliasing_operands":{"lists":[]}}
}

%fused_computation.391 (param_0.1427: f32[4,2048], param_1.1599: f32[4,2048]) -> (f32[], f32[]) {
  %param_0.1427 = f32[4,2048]{1,0:T(4,128)S(1)} parameter(0)
  %bitcast.385 = f32[2048,4]{0,1:T(4,128)} bitcast(%param_0.1427), metadata={op_name="jit(train_step)/transpose(jvp(TransformerLinenPure.apply))/TransformerLinenPure/decoder/transpose" stack_frame_id=0}
  %square.249 = f32[2048,4]{0,1:T(4,128)} multiply(%bitcast.385, %bitcast.385), metadata={op_name="jit(train_step)/square" stack_frame_id=0}
  %constant.1206 = f32[]{:T(128)} constant(0)
  %reduce.135 = f32[]{:T(128)} reduce(%square.249, %constant.1206), dimensions={0,1}, to_apply=%region_35.40, metadata={op_name="jit(train_step)/reduce_sum" stack_frame_id=0}
  %param_1.1599 = f32[4,2048]{1,0:T(4,128)} parameter(1)
  %bitcast.389.clone.1 = f32[2048,4]{0,1:T(4,128)} bitcast(%param_1.1599), metadata={op_name="jit(train_step)/transpose(jvp(TransformerLinenPure.apply))/TransformerLinenPure/decoder/transpose" stack_frame_id=0}
  %square.252.clone.1 = f32[2048,4]{0,1:T(4,128)} multiply(%bitcast.389.clone.1, %bitcast.389.clone.1), metadata={op_name="jit(train_step)/square" stack_frame_id=0}
  %reduce.136.clone.1 = f32[]{:T(128)} reduce(%square.252.clone.1, %constant.1206), dimensions={0,1}, to_apply=%region_34.39, metadata={op_name="jit(train_step)/reduce_sum" stack_frame_id=0}
  ROOT %tuple.170 = (f32[]{:T(128)}, f32[]{:T(128)}) tuple(%reduce.135, %reduce.136.clone.1)
}

%region_64.69 (reduce_sum.530: f32[], reduce_sum.534: f32[]) -> f32[] {
  %reduce_sum.534 = f32[]{:T(128)} parameter(1), metadata={op_name="jit(train_step)/reduce_sum"}
  %reduce_sum.530 = f32[]{:T(128)} parameter(0), metadata={op_name="jit(train_step)/reduce_sum"}
  ROOT %reduce_sum.535 = f32[]{:T(128)} add(%reduce_sum.530, %reduce_sum.534), metadata={op_name="jit(train_step)/reduce_sum" stack_frame_id=0}, backend_config={"flag_configs":[],"scoped_memory_configs":[],"used_scoped_memory_configs":[],"aliasing_operands":{"lists":[]}}
}

%region_49.54 (reduce_sum.452: f32[], reduce_sum.453: f32[]) -> f32[] {
  %reduce_sum.453 = f32[]{:T(128)} parameter(1), metadata={op_name="jit(train_step)/reduce_sum"}
  %reduce_sum.452 = f32[]{:T(128)} parameter(0), metadata={op_name="jit(train_step)/reduce_sum"}
  ROOT %reduce_sum.457 = f32[]{:T(128)} add(%reduce_sum.452, %reduce_sum.453), metadata={op_name="jit(train_step)/reduce_sum" stack_frame_id=0}, backend_config={"flag_configs":[],"scoped_memory_configs":[],"used_scoped_memory_configs":[],"aliasing_operands":{"lists":[]}}
}

%fused_computation.394 (param_0.1416: f32[2048,4], param_1.1590: f32[], param_2.1332: f32[], param_3.915: f32[], param_4.554: f32[2048,4], param_5.488: f32[], param_6.363: f32[4,2048], param_7.207: pred[], param_8.125: f32[2048,4]) -> (f32[], f32[2048,4], f32[2048,4], f32[2048,4], f32[]) {
  %param_0.1416 = f32[2048,4]{0,1:T(4,128)S(1)} parameter(0)
  %param_3.915 = f32[]{:T(128)S(6)} parameter(3)
  %mul.2507.clone.1 = f32[2048,4]{0,1:T(4,128)} broadcast(%param_3.915), dimensions={}, metadata={op_name="jit(train_step)/mul" stack_frame_id=0}
  %param_7.207 = pred[]{:T(512)S(6)} parameter(7)
  %select_n.296.clone.1 = pred[2048,4]{0,1:T(4,128)(4,1)} broadcast(%param_7.207), dimensions={}, metadata={op_name="jit(train_step)/select_n" stack_frame_id=0}
  %param_6.363 = f32[4,2048]{1,0:T(4,128)S(1)} parameter(6)
  %bitcast.459.clone.1 = f32[2048,4]{0,1:T(4,128)} bitcast(%param_6.363), metadata={op_name="jit(train_step)/transpose(jvp(TransformerLinenPure.apply))/TransformerLinenPure/decoder/transpose" stack_frame_id=0}
  %param_5.488 = f32[]{:T(128)} parameter(5)
  %div.916.clone.1 = f32[2048,4]{0,1:T(4,128)} broadcast(%param_5.488), dimensions={}, metadata={op_name="jit(train_step)/div" stack_frame_id=0}
  %div.915.clone.1 = f32[2048,4]{0,1:T(4,128)} divide(%bitcast.459.clone.1, %div.916.clone.1), metadata={op_name="jit(train_step)/div" stack_frame_id=0}
  %select_n.295.clone.1 = f32[2048,4]{0,1:T(4,128)} select(%select_n.296.clone.1, %bitcast.459.clone.1, %div.915.clone.1), metadata={op_name="jit(train_step)/select_n" stack_frame_id=0}
  %constant.1122.clone.1 = f32[]{:T(128)} constant(0.1)
  %broadcast.788.clone.1 = f32[2048,4]{0,1:T(4,128)} broadcast(%constant.1122.clone.1), dimensions={}, metadata={op_name="broadcast.82"}
  %mul.2511.clone.1 = f32[2048,4]{0,1:T(4,128)} multiply(%select_n.295.clone.1, %broadcast.788.clone.1), metadata={op_name="jit(train_step)/mul" stack_frame_id=0}
  %param_8.125 = f32[2048,4]{0,1:T(4,128)S(1)} parameter(8)
  %constant.1126.clone.1 = f32[]{:T(128)} constant(0.9)
  %broadcast.787.clone.1 = f32[2048,4]{0,1:T(4,128)} broadcast(%constant.1126.clone.1), dimensions={}, metadata={op_name="broadcast.81"}
  %mul.2510.clone.1 = f32[2048,4]{0,1:T(4,128)} multiply(%param_8.125, %broadcast.787.clone.1), metadata={op_name="jit(train_step)/mul" stack_frame_id=0}
  %add.954.clone.1 = f32[2048,4]{0,1:T(4,128)S(1)} add(%mul.2511.clone.1, %mul.2510.clone.1), metadata={op_name="jit(train_step)/add" stack_frame_id=0}
  %param_2.1332 = f32[]{:T(128)S(6)} parameter(2)
  %div.912.clone.1 = f32[2048,4]{0,1:T(4,128)} broadcast(%param_2.1332), dimensions={}, metadata={op_name="jit(train_step)/div" stack_frame_id=0}
  %integer_pow.72.clone.1 = f32[2048,4]{0,1:T(4,128)} multiply(%select_n.295.clone.1, %select_n.295.clone.1), metadata={op_name="jit(train_step)/integer_pow" stack_frame_id=0}
  %constant.1125.clone.1 = f32[]{:T(128)} constant(0.05)
  %broadcast.786.clone.1 = f32[2048,4]{0,1:T(4,128)} broadcast(%constant.1125.clone.1), dimensions={}, metadata={op_name="broadcast.71"}
  %mul.2509.clone.1 = f32[2048,4]{0,1:T(4,128)} multiply(%integer_pow.72.clone.1, %broadcast.786.clone.1), metadata={op_name="jit(train_step)/mul" stack_frame_id=0}
  %param_4.554 = f32[2048,4]{0,1:T(4,128)S(1)} parameter(4)
  %constant.1124.clone.1 = f32[]{:T(128)} constant(0.95)
  %broadcast.785.clone.1 = f32[2048,4]{0,1:T(4,128)} broadcast(%constant.1124.clone.1), dimensions={}, metadata={op_name="broadcast.70"}
  %mul.2508.clone.1 = f32[2048,4]{0,1:T(4,128)} multiply(%param_4.554, %broadcast.785.clone.1), metadata={op_name="jit(train_step)/mul" stack_frame_id=0}
  %add.953.clone.1 = f32[2048,4]{0,1:T(4,128)S(1)} add(%mul.2509.clone.1, %mul.2508.clone.1), metadata={op_name="jit(train_step)/add" stack_frame_id=0}
  %param_1.1590 = f32[]{:T(128)S(6)} parameter(1)
  %div.911.clone.1 = f32[2048,4]{0,1:T(4,128)} broadcast(%param_1.1590), dimensions={}, metadata={op_name="jit(train_step)/div" stack_frame_id=0}
  %div.910.clone.1 = f32[2048,4]{0,1:T(4,128)} divide(%add.953.clone.1, %div.911.clone.1), metadata={op_name="jit(train_step)/div" stack_frame_id=0}
  %sqrt.69.clone.1 = f32[2048,4]{0,1:T(4,128)} sqrt(%div.910.clone.1), metadata={op_name="jit(train_step)/sqrt" stack_frame_id=0}
  %constant.1123.clone.1 = f32[]{:T(128)} constant(1e-08)
  %broadcast.783.clone.1 = f32[2048,4]{0,1:T(4,128)} broadcast(%constant.1123.clone.1), dimensions={}, metadata={op_name="broadcast.64"}
  %add.952.clone.1 = f32[2048,4]{0,1:T(4,128)} add(%sqrt.69.clone.1, %broadcast.783.clone.1), metadata={op_name="jit(train_step)/add" stack_frame_id=0}
  %multiply.294.clone.1 = f32[2048,4]{0,1:T(4,128)} multiply(%div.912.clone.1, %add.952.clone.1), metadata={op_name="multiply.39"}
  %div.909.clone.1 = f32[2048,4]{0,1:T(4,128)} divide(%add.954.clone.1, %multiply.294.clone.1), metadata={op_name="jit(train_step)/div" stack_frame_id=0}
  %mul.2506.clone.1 = f32[2048,4]{0,1:T(4,128)} multiply(%param_0.1416, %broadcast.788.clone.1), metadata={op_name="jit(train_step)/mul" stack_frame_id=0}
  %add.951.clone.1 = f32[2048,4]{0,1:T(4,128)} add(%div.909.clone.1, %mul.2506.clone.1), metadata={op_name="jit(train_step)/add" stack_frame_id=0}
  %mul.2505.clone.1 = f32[2048,4]{0,1:T(4,128)} multiply(%mul.2507.clone.1, %add.951.clone.1), metadata={op_name="jit(train_step)/mul" stack_frame_id=0}
  %add.950.clone.1 = f32[2048,4]{0,1:T(4,128)S(1)} add(%param_0.1416, %mul.2505.clone.1), metadata={op_name="jit(train_step)/add" stack_frame_id=0}
  %square.253 = f32[2048,4]{0,1:T(4,128)} multiply(%add.950.clone.1, %add.950.clone.1), metadata={op_name="jit(train_step)/square" stack_frame_id=0}
  %constant.1195 = f32[]{:T(128)} constant(0)
  %reduce.137 = f32[]{:T(128)} reduce(%square.253, %constant.1195), dimensions={0,1}, to_apply=%region_64.69, metadata={op_name="jit(train_step)/reduce_sum" stack_frame_id=0}
  %reduce.139.clone.1 = f32[]{:T(128)} reduce(%integer_pow.72.clone.1, %constant.1195), dimensions={0,1}, to_apply=%region_49.54, metadata={op_name="jit(train_step)/reduce_sum" stack_frame_id=0}
  ROOT %tuple.153 = (f32[]{:T(128)}, f32[2048,4]{0,1:T(4,128)S(1)}, f32[2048,4]{0,1:T(4,128)S(1)}, f32[2048,4]{0,1:T(4,128)S(1)}, f32[]{:T(128)}) tuple(%reduce.137, %add.950.clone.1, %add.953.clone.1, %add.954.clone.1, %reduce.139.clone.1)
}

%region_63.68 (reduce_sum.527: f32[], reduce_sum.528: f32[]) -> f32[] {
  %reduce_sum.528 = f32[]{:T(128)} parameter(1), metadata={op_name="jit(train_step)/reduce_sum"}
  %reduce_sum.527 = f32[]{:T(128)} parameter(0), metadata={op_name="jit(train_step)/reduce_sum"}
  ROOT %reduce_sum.529 = f32[]{:T(128)} add(%reduce_sum.527, %reduce_sum.528), metadata={op_name="jit(train_step)/reduce_sum" stack_frame_id=0}, backend_config={"flag_configs":[],"scoped_memory_configs":[],"used_scoped_memory_configs":[],"aliasing_operands":{"lists":[]}}
}

%region_48.53 (reduce_sum.446: f32[], reduce_sum.450: f32[]) -> f32[] {
  %reduce_sum.450 = f32[]{:T(128)} parameter(1), metadata={op_name="jit(train_step)/reduce_sum"}
  %reduce_sum.446 = f32[]{:T(128)} parameter(0), metadata={op_name="jit(train_step)/reduce_sum"}
  ROOT %reduce_sum.451 = f32[]{:T(128)} add(%reduce_sum.446, %reduce_sum.450), metadata={op_name="jit(train_step)/reduce_sum" stack_frame_id=0}, backend_config={"flag_configs":[],"scoped_memory_configs":[],"used_scoped_memory_configs":[],"aliasing_operands":{"lists":[]}}
}

%fused_computation.395 (param_0.1417: f32[2048,4], param_1.1591: f32[], param_2.1333: f32[], param_3.916: f32[], param_4.555: f32[2048,4], param_5.489: f32[], param_6.364: f32[4,2048], param_7.208: pred[], param_8.126: f32[2048,4]) -> (f32[], f32[2048,4], f32[2048,4], f32[2048,4], f32[]) {
  %param_0.1417 = f32[2048,4]{0,1:T(4,128)S(1)} parameter(0)
  %param_3.916 = f32[]{:T(128)S(6)} parameter(3)
  %mul.2514.clone.1 = f32[2048,4]{0,1:T(4,128)} broadcast(%param_3.916), dimensions={}, metadata={op_name="jit(train_step)/mul" stack_frame_id=0}
  %param_7.208 = pred[]{:T(512)S(6)} parameter(7)
  %select_n.300.clone.1 = pred[2048,4]{0,1:T(4,128)(4,1)} broadcast(%param_7.208), dimensions={}, metadata={op_name="jit(train_step)/select_n" stack_frame_id=0}
  %param_6.364 = f32[4,2048]{1,0:T(4,128)} parameter(6)
  %bitcast.461.clone.1 = f32[2048,4]{0,1:T(4,128)} bitcast(%param_6.364), metadata={op_name="jit(train_step)/transpose(jvp(TransformerLinenPure.apply))/TransformerLinenPure/decoder/transpose" stack_frame_id=0}
  %param_5.489 = f32[]{:T(128)} parameter(5)
  %div.924.clone.1 = f32[2048,4]{0,1:T(4,128)} broadcast(%param_5.489), dimensions={}, metadata={op_name="jit(train_step)/div" stack_frame_id=0}
  %div.923.clone.1 = f32[2048,4]{0,1:T(4,128)} divide(%bitcast.461.clone.1, %div.924.clone.1), metadata={op_name="jit(train_step)/div" stack_frame_id=0}
  %select_n.299.clone.1 = f32[2048,4]{0,1:T(4,128)} select(%select_n.300.clone.1, %bitcast.461.clone.1, %div.923.clone.1), metadata={op_name="jit(train_step)/select_n" stack_frame_id=0}
  %constant.1128.clone.1 = f32[]{:T(128)} constant(0.1)
  %broadcast.794.clone.1 = f32[2048,4]{0,1:T(4,128)} broadcast(%constant.1128.clone.1), dimensions={}, metadata={op_name="broadcast.82"}
  %mul.2518.clone.1 = f32[2048,4]{0,1:T(4,128)} multiply(%select_n.299.clone.1, %broadcast.794.clone.1), metadata={op_name="jit(train_step)/mul" stack_frame_id=0}
  %param_8.126 = f32[2048,4]{0,1:T(4,128)S(1)} parameter(8)
  %constant.1132.clone.1 = f32[]{:T(128)} constant(0.9)
  %broadcast.793.clone.1 = f32[2048,4]{0,1:T(4,128)} broadcast(%constant.1132.clone.1), dimensions={}, metadata={op_name="broadcast.81"}
  %mul.2517.clone.1 = f32[2048,4]{0,1:T(4,128)} multiply(%param_8.126, %broadcast.793.clone.1), metadata={op_name="jit(train_step)/mul" stack_frame_id=0}
  %add.959.clone.1 = f32[2048,4]{0,1:T(4,128)S(1)} add(%mul.2518.clone.1, %mul.2517.clone.1), metadata={op_name="jit(train_step)/add" stack_frame_id=0}
  %param_2.1333 = f32[]{:T(128)S(6)} parameter(2)
  %div.920.clone.1 = f32[2048,4]{0,1:T(4,128)} broadcast(%param_2.1333), dimensions={}, metadata={op_name="jit(train_step)/div" stack_frame_id=0}
  %integer_pow.73.clone.1 = f32[2048,4]{0,1:T(4,128)} multiply(%select_n.299.clone.1, %select_n.299.clone.1), metadata={op_name="jit(train_step)/integer_pow" stack_frame_id=0}
  %constant.1131.clone.1 = f32[]{:T(128)} constant(0.05)
  %broadcast.792.clone.1 = f32[2048,4]{0,1:T(4,128)} broadcast(%constant.1131.clone.1), dimensions={}, metadata={op_name="broadcast.71"}
  %mul.2516.clone.1 = f32[2048,4]{0,1:T(4,128)} multiply(%integer_pow.73.clone.1, %broadcast.792.clone.1), metadata={op_name="jit(train_step)/mul" stack_frame_id=0}
  %param_4.555 = f32[2048,4]{0,1:T(4,128)S(1)} parameter(4)
  %constant.1130.clone.1 = f32[]{:T(128)} constant(0.95)
  %broadcast.791.clone.1 = f32[2048,4]{0,1:T(4,128)} broadcast(%constant.1130.clone.1), dimensions={}, metadata={op_name="broadcast.70"}
  %mul.2515.clone.1 = f32[2048,4]{0,1:T(4,128)} multiply(%param_4.555, %broadcast.791.clone.1), metadata={op_name="jit(train_step)/mul" stack_frame_id=0}
  %add.958.clone.1 = f32[2048,4]{0,1:T(4,128)S(1)} add(%mul.2516.clone.1, %mul.2515.clone.1), metadata={op_name="jit(train_step)/add" stack_frame_id=0}
  %param_1.1591 = f32[]{:T(128)S(6)} parameter(1)
  %div.919.clone.1 = f32[2048,4]{0,1:T(4,128)} broadcast(%param_1.1591), dimensions={}, metadata={op_name="jit(train_step)/div" stack_frame_id=0}
  %div.918.clone.1 = f32[2048,4]{0,1:T(4,128)} divide(%add.958.clone.1, %div.919.clone.1), metadata={op_name="jit(train_step)/div" stack_frame_id=0}
  %sqrt.70.clone.1 = f32[2048,4]{0,1:T(4,128)} sqrt(%div.918.clone.1), metadata={op_name="jit(train_step)/sqrt" stack_frame_id=0}
  %constant.1129.clone.1 = f32[]{:T(128)} constant(1e-08)
  %broadcast.789.clone.1 = f32[2048,4]{0,1:T(4,128)} broadcast(%constant.1129.clone.1), dimensions={}, metadata={op_name="broadcast.64"}
  %add.957.clone.1 = f32[2048,4]{0,1:T(4,128)} add(%sqrt.70.clone.1, %broadcast.789.clone.1), metadata={op_name="jit(train_step)/add" stack_frame_id=0}
  %multiply.295.clone.1 = f32[2048,4]{0,1:T(4,128)} multiply(%div.920.clone.1, %add.957.clone.1), metadata={op_name="multiply.38"}
  %div.917.clone.1 = f32[2048,4]{0,1:T(4,128)} divide(%add.959.clone.1, %multiply.295.clone.1), metadata={op_name="jit(train_step)/div" stack_frame_id=0}
  %mul.2513.clone.1 = f32[2048,4]{0,1:T(4,128)} multiply(%param_0.1417, %broadcast.794.clone.1), metadata={op_name="jit(train_step)/mul" stack_frame_id=0}
  %add.956.clone.1 = f32[2048,4]{0,1:T(4,128)} add(%div.917.clone.1, %mul.2513.clone.1), metadata={op_name="jit(train_step)/add" stack_frame_id=0}
  %mul.2512.clone.1 = f32[2048,4]{0,1:T(4,128)} multiply(%mul.2514.clone.1, %add.956.clone.1), metadata={op_name="jit(train_step)/mul" stack_frame_id=0}
  %add.955.clone.1 = f32[2048,4]{0,1:T(4,128)S(1)} add(%param_0.1417, %mul.2512.clone.1), metadata={op_name="jit(train_step)/add" stack_frame_id=0}
  %square.254 = f32[2048,4]{0,1:T(4,128)} multiply(%add.955.clone.1, %add.955.clone.1), metadata={op_name="jit(train_step)/square" stack_frame_id=0}
  %constant.1196 = f32[]{:T(128)} constant(0)
  %reduce.138 = f32[]{:T(128)} reduce(%square.254, %constant.1196), dimensions={0,1}, to_apply=%region_63.68, metadata={op_name="jit(train_step)/reduce_sum" stack_frame_id=0}
  %reduce.140.clone.1 = f32[]{:T(128)} reduce(%integer_pow.73.clone.1, %constant.1196), dimensions={0,1}, to_apply=%region_48.53, metadata={op_name="jit(train_step)/reduce_sum" stack_frame_id=0}
  ROOT %tuple.154 = (f32[]{:T(128)}, f32[2048,4]{0,1:T(4,128)S(1)}, f32[2048,4]{0,1:T(4,128)S(1)}, f32[2048,4]{0,1:T(4,128)S(1)}, f32[]{:T(128)}) tuple(%reduce.138, %add.955.clone.1, %add.958.clone.1, %add.959.clone.1, %reduce.140.clone.1)
}

%region_11.14 (reduce_sum.269: f32[], reduce_sum.270: f32[]) -> f32[] {
  %reduce_sum.270 = f32[]{:T(128)} parameter(1), metadata={op_name="jit(train_step)/reduce_sum"}
  %reduce_sum.269 = f32[]{:T(128)} parameter(0), metadata={op_name="jit(train_step)/reduce_sum"}
  ROOT %reduce_sum.271 = f32[]{:T(128)} add(%reduce_sum.269, %reduce_sum.270), metadata={op_name="jit(train_step)/reduce_sum" stack_frame_id=0}, backend_config={"flag_configs":[],"scoped_memory_configs":[],"used_scoped_memory_configs":[],"aliasing_operands":{"lists":[]}}
}

%fused_computation.406 (param_0.1431: bf16[2048]) -> f32[] {
  %param_0.1431 = bf16[2048]{0:T(1024)(128)(2,1)S(1)} parameter(0)
  %convert_element_type.1420 = f32[2048]{0:T(1024)} convert(%param_0.1431), metadata={op_name="jit(train_step)/transpose(jvp(TransformerLinenPure.apply))/TransformerLinenPure/decoder/decoder.apply_output_head/decoder_norm/convert_element_type" stack_frame_id=0}
  %square.257 = f32[2048]{0:T(1024)} multiply(%convert_element_type.1420, %convert_element_type.1420), metadata={op_name="jit(train_step)/square" stack_frame_id=0}
  %constant.1210 = f32[]{:T(128)} constant(0)
  ROOT %reduce.141 = f32[]{:T(128)} reduce(%square.257, %constant.1210), dimensions={0}, to_apply=%region_11.14, metadata={op_name="jit(train_step)/reduce_sum" stack_frame_id=0}
}

%region_59.64 (reduce_sum.506: f32[], reduce_sum.507: f32[]) -> f32[] {
  %reduce_sum.507 = f32[]{:T(128)} parameter(1), metadata={op_name="jit(train_step)/reduce_sum"}
  %reduce_sum.506 = f32[]{:T(128)} parameter(0), metadata={op_name="jit(train_step)/reduce_sum"}
  ROOT %reduce_sum.508 = f32[]{:T(128)} add(%reduce_sum.506, %reduce_sum.507), metadata={op_name="jit(train_step)/reduce_sum" stack_frame_id=0}, backend_config={"flag_configs":[],"scoped_memory_configs":[],"used_scoped_memory_configs":[],"aliasing_operands":{"lists":[]}}
}

%region_44.49 (reduce_sum.425: f32[], reduce_sum.429: f32[]) -> f32[] {
  %reduce_sum.429 = f32[]{:T(128)} parameter(1), metadata={op_name="jit(train_step)/reduce_sum"}
  %reduce_sum.425 = f32[]{:T(128)} parameter(0), metadata={op_name="jit(train_step)/reduce_sum"}
  ROOT %reduce_sum.430 = f32[]{:T(128)} add(%reduce_sum.425, %reduce_sum.429), metadata={op_name="jit(train_step)/reduce_sum" stack_frame_id=0}, backend_config={"flag_configs":[],"scoped_memory_configs":[],"used_scoped_memory_configs":[],"aliasing_operands":{"lists":[]}}
}

%fused_computation.407 (param_0.1421: f32[2048], param_1.1595: f32[], param_2.1337: f32[], param_3.920: f32[], param_4.559: f32[2048], param_5.493: f32[], param_6.368: bf16[2048], param_7.212: pred[], param_8.130: f32[2048]) -> (f32[], f32[2048], f32[2048], f32[2048], f32[]) {
  %param_0.1421 = f32[2048]{0:T(1024)S(1)} parameter(0)
  %param_3.920 = f32[]{:T(128)S(6)} parameter(3)
  %mul.2545.clone.1 = f32[2048]{0:T(1024)} broadcast(%param_3.920), dimensions={}, metadata={op_name="jit(train_step)/mul" stack_frame_id=0}
  %param_7.212 = pred[]{:T(512)S(6)} parameter(7)
  %select_n.316.clone.1 = pred[2048]{0:T(1024)(128)(4,1)} broadcast(%param_7.212), dimensions={}, metadata={op_name="jit(train_step)/select_n" stack_frame_id=0}
  %param_6.368 = bf16[2048]{0:T(1024)(128)(2,1)S(1)} parameter(6)
  %convert_element_type.1435.clone.1 = f32[2048]{0:T(1024)} convert(%param_6.368), metadata={op_name="jit(train_step)/transpose(jvp(TransformerLinenPure.apply))/TransformerLinenPure/decoder/decoder.apply_output_head/decoder_norm/convert_element_type" stack_frame_id=0}
  %param_5.493 = f32[]{:T(128)} parameter(5)
  %div.956.clone.1 = f32[2048]{0:T(1024)} broadcast(%param_5.493), dimensions={}, metadata={op_name="jit(train_step)/div" stack_frame_id=0}
  %div.955.clone.1 = f32[2048]{0:T(1024)} divide(%convert_element_type.1435.clone.1, %div.956.clone.1), metadata={op_name="jit(train_step)/div" stack_frame_id=0}
  %select_n.315.clone.1 = f32[2048]{0:T(1024)} select(%select_n.316.clone.1, %convert_element_type.1435.clone.1, %div.955.clone.1), metadata={op_name="jit(train_step)/select_n" stack_frame_id=0}
  %constant.1152.clone.1 = f32[]{:T(128)} constant(0.1)
  %broadcast.810.clone.1 = f32[2048]{0:T(1024)} broadcast(%constant.1152.clone.1), dimensions={}, metadata={op_name="broadcast.86"}
  %mul.2551.clone.1 = f32[2048]{0:T(1024)} multiply(%select_n.315.clone.1, %broadcast.810.clone.1), metadata={op_name="jit(train_step)/mul" stack_frame_id=0}
  %param_8.130 = f32[2048]{0:T(1024)S(1)} parameter(8)
  %constant.1156.clone.1 = f32[]{:T(128)} constant(0.9)
  %mul.2552.clone.1 = f32[2048]{0:T(1024)} broadcast(%constant.1156.clone.1), dimensions={}, metadata={op_name="jit(train_step)/mul" stack_frame_id=0}
  %mul.2550.clone.1 = f32[2048]{0:T(1024)} multiply(%param_8.130, %mul.2552.clone.1), metadata={op_name="jit(train_step)/mul" stack_frame_id=0}
  %add.981.clone.1 = f32[2048]{0:T(1024)S(1)} add(%mul.2551.clone.1, %mul.2550.clone.1), metadata={op_name="jit(train_step)/add" stack_frame_id=0}
  %param_2.1337 = f32[]{:T(128)S(6)} parameter(2)
  %div.952.clone.1 = f32[2048]{0:T(1024)} broadcast(%param_2.1337), dimensions={}, metadata={op_name="jit(train_step)/div" stack_frame_id=0}
  %integer_pow.77.clone.1 = f32[2048]{0:T(1024)} multiply(%select_n.315.clone.1, %select_n.315.clone.1), metadata={op_name="jit(train_step)/integer_pow" stack_frame_id=0}
  %constant.1155.clone.1 = f32[]{:T(128)} constant(0.05)
  %mul.2549.clone.1 = f32[2048]{0:T(1024)} broadcast(%constant.1155.clone.1), dimensions={}, metadata={op_name="jit(train_step)/mul" stack_frame_id=0}
  %mul.2547.clone.1 = f32[2048]{0:T(1024)} multiply(%integer_pow.77.clone.1, %mul.2549.clone.1), metadata={op_name="jit(train_step)/mul" stack_frame_id=0}
  %param_4.559 = f32[2048]{0:T(1024)S(1)} parameter(4)
  %constant.1154.clone.1 = f32[]{:T(128)} constant(0.95)
  %mul.2548.clone.1 = f32[2048]{0:T(1024)} broadcast(%constant.1154.clone.1), dimensions={}, metadata={op_name="jit(train_step)/mul" stack_frame_id=0}
  %mul.2546.clone.1 = f32[2048]{0:T(1024)} multiply(%param_4.559, %mul.2548.clone.1), metadata={op_name="jit(train_step)/mul" stack_frame_id=0}
  %add.980.clone.1 = f32[2048]{0:T(1024)S(1)} add(%mul.2547.clone.1, %mul.2546.clone.1), metadata={op_name="jit(train_step)/add" stack_frame_id=0}
  %param_1.1595 = f32[]{:T(128)S(6)} parameter(1)
  %div.951.clone.1 = f32[2048]{0:T(1024)} broadcast(%param_1.1595), dimensions={}, metadata={op_name="jit(train_step)/div" stack_frame_id=0}
  %div.950.clone.1 = f32[2048]{0:T(1024)} divide(%add.980.clone.1, %div.951.clone.1), metadata={op_name="jit(train_step)/div" stack_frame_id=0}
  %sqrt.74.clone.1 = f32[2048]{0:T(1024)} sqrt(%div.950.clone.1), metadata={op_name="jit(train_step)/sqrt" stack_frame_id=0}
  %constant.1153.clone.1 = f32[]{:T(128)} constant(1e-08)
  %add.979.clone.1 = f32[2048]{0:T(1024)} broadcast(%constant.1153.clone.1), dimensions={}, metadata={op_name="jit(train_step)/add" stack_frame_id=0}
  %add.978.clone.1 = f32[2048]{0:T(1024)} add(%sqrt.74.clone.1, %add.979.clone.1), metadata={op_name="jit(train_step)/add" stack_frame_id=0}
  %multiply.299.clone.1 = f32[2048]{0:T(1024)} multiply(%div.952.clone.1, %add.978.clone.1), metadata={op_name="multiply.34"}
  %div.949.clone.1 = f32[2048]{0:T(1024)} divide(%add.981.clone.1, %multiply.299.clone.1), metadata={op_name="jit(train_step)/div" stack_frame_id=0}
  %mul.2544.clone.1 = f32[2048]{0:T(1024)} multiply(%param_0.1421, %broadcast.810.clone.1), metadata={op_name="jit(train_step)/mul" stack_frame_id=0}
  %add.977.clone.1 = f32[2048]{0:T(1024)} add(%div.949.clone.1, %mul.2544.clone.1), metadata={op_name="jit(train_step)/add" stack_frame_id=0}
  %mul.2543.clone.1 = f32[2048]{0:T(1024)} multiply(%mul.2545.clone.1, %add.977.clone.1), metadata={op_name="jit(train_step)/mul" stack_frame_id=0}
  %add.976.clone.1 = f32[2048]{0:T(1024)S(1)} add(%param_0.1421, %mul.2543.clone.1), metadata={op_name="jit(train_step)/add" stack_frame_id=0}
  %square.258 = f32[2048]{0:T(1024)} multiply(%add.976.clone.1, %add.976.clone.1), metadata={op_name="jit(train_step)/square" stack_frame_id=0}
  %constant.1200 = f32[]{:T(128)} constant(0)
  %reduce.142 = f32[]{:T(128)} reduce(%square.258, %constant.1200), dimensions={0}, to_apply=%region_59.64, metadata={op_name="jit(train_step)/reduce_sum" stack_frame_id=0}
  %reduce.143.clone.1 = f32[]{:T(128)} reduce(%integer_pow.77.clone.1, %constant.1200), dimensions={0}, to_apply=%region_44.49, metadata={op_name="jit(train_step)/reduce_sum" stack_frame_id=0}
  ROOT %tuple.157 = (f32[]{:T(128)}, f32[2048]{0:T(1024)S(1)}, f32[2048]{0:T(1024)S(1)}, f32[2048]{0:T(1024)S(1)}, f32[]{:T(128)}) tuple(%reduce.142, %add.976.clone.1, %add.980.clone.1, %add.981.clone.1, %reduce.143.clone.1)
}

%fused_computation.413 (param_0.1191: s32[512]) -> s32[1024] {
  %constant.960 = s32[] constant(0), metadata={op_name="jit(train_step)/jvp(TransformerLinenPure.apply)/TransformerLinenPure/decoder/decoder._apply_embedding/token_embedder/gather" stack_frame_id=0}
  %broadcast.727 = s32[1024]{0:T(1024)} broadcast(%constant.960), dimensions={}, metadata={op_name="jit(train_step)/jvp(TransformerLinenPure.apply)/TransformerLinenPure/decoder/decoder._apply_embedding/token_embedder/gather" stack_frame_id=0}
  %param_0.1191 = s32[512]{0:T(512)S(1)} parameter(0)
  %constant.961 = s32[] constant(2147483647), metadata={op_name="jit(train_step)/jvp(TransformerLinenPure.apply)/TransformerLinenPure/decoder/decoder._apply_embedding/token_embedder/gather" stack_frame_id=0}
  %pad.49 = s32[1024]{0:T(1024)} pad(%param_0.1191, %constant.961), padding=0_512, metadata={op_name="jit(train_step)/jvp(TransformerLinenPure.apply)/TransformerLinenPure/decoder/decoder._apply_embedding/token_embedder/gather" stack_frame_id=0}
  %constant.959 = s32[] constant(151935), metadata={op_name="jit(train_step)/jvp(TransformerLinenPure.apply)/TransformerLinenPure/decoder/decoder._apply_embedding/token_embedder/gather" stack_frame_id=0}
  %broadcast.726 = s32[1024]{0:T(1024)} broadcast(%constant.959), dimensions={}, metadata={op_name="jit(train_step)/jvp(TransformerLinenPure.apply)/TransformerLinenPure/decoder/decoder._apply_embedding/token_embedder/gather" stack_frame_id=0}
  ROOT %clamp.1 = s32[1024]{0:T(1024)} clamp(%broadcast.727, %pad.49, %broadcast.726), metadata={op_name="jit(train_step)/jvp(TransformerLinenPure.apply)/TransformerLinenPure/decoder/decoder._apply_embedding/token_embedder/gather" stack_frame_id=0}
}

%fused_computation.416 (param_0.1190: s32[4,128]) -> s32[512] {
  %param_0.1190 = s32[4,128]{1,0:T(4,128)} parameter(0)
  %constant.1055 = s32[]{:T(128)} constant(0)
  %broadcast.747 = s32[4,128]{1,0:T(4,128)} broadcast(%constant.1055), dimensions={}, metadata={op_name="broadcast.95"}
  %lt.32 = pred[4,128]{1,0:T(4,128)(4,1)} compare(%param_0.1190, %broadcast.747), direction=LT, metadata={op_name="jit(train_step)/jvp(TransformerLinenPure.apply)/TransformerLinenPure/decoder/decoder._apply_embedding/token_embedder/lt" stack_frame_id=0}
  %constant.1052 = s32[]{:T(128)} constant(151936)
  %add.901 = s32[4,128]{1,0:T(4,128)} broadcast(%constant.1052), dimensions={}, metadata={op_name="jit(train_step)/jvp(TransformerLinenPure.apply)/TransformerLinenPure/decoder/decoder._apply_embedding/token_embedder/add" stack_frame_id=0}
  %add.879 = s32[4,128]{1,0:T(4,128)} add(%param_0.1190, %add.901), metadata={op_name="jit(train_step)/jvp(TransformerLinenPure.apply)/TransformerLinenPure/decoder/decoder._apply_embedding/token_embedder/add" stack_frame_id=0}
  %select_n.178 = s32[4,128]{1,0:T(4,128)} select(%lt.32, %add.879, %param_0.1190), metadata={op_name="jit(train_step)/jvp(TransformerLinenPure.apply)/TransformerLinenPure/decoder/decoder._apply_embedding/token_embedder/select_n" stack_frame_id=0}
  ROOT %bitcast.390 = s32[512]{0:T(512)S(1)} bitcast(%select_n.178), metadata={op_name="jit(train_step)/jvp(TransformerLinenPure.apply)/TransformerLinenPure/decoder/decoder._apply_embedding/token_embedder/broadcast_in_dim" stack_frame_id=0}
}

%region_40.45 (reduce_sum.410: f32[], reduce_sum.411: f32[]) -> f32[] {
  %reduce_sum.411 = f32[]{:T(128)} parameter(1), metadata={op_name="jit(train_step)/reduce_sum"}
  %reduce_sum.410 = f32[]{:T(128)} parameter(0), metadata={op_name="jit(train_step)/reduce_sum"}
  ROOT %reduce_sum.415 = f32[]{:T(128)} add(%reduce_sum.410, %reduce_sum.411), metadata={op_name="jit(train_step)/reduce_sum" stack_frame_id=0}, backend_config={"flag_configs":[],"scoped_memory_configs":[],"used_scoped_memory_configs":[],"aliasing_operands":{"lists":[]}}
}

%region_37.42 (reduce_sum.395: f32[], reduce_sum.396: f32[]) -> f32[] {
  %reduce_sum.396 = f32[]{:T(128)} parameter(1), metadata={op_name="jit(train_step)/reduce_sum"}
  %reduce_sum.395 = f32[]{:T(128)} parameter(0), metadata={op_name="jit(train_step)/reduce_sum"}
  ROOT %reduce_sum.397 = f32[]{:T(128)} add(%reduce_sum.395, %reduce_sum.396), metadata={op_name="jit(train_step)/reduce_sum" stack_frame_id=0}, backend_config={"flag_configs":[],"scoped_memory_configs":[],"used_scoped_memory_configs":[],"aliasing_operands":{"lists":[]}}
}

%fused_computation.418 (param_0.1425: f32[4,128], param_1.1597: f32[4,128]) -> (f32[], f32[]) {
  %param_0.1425 = f32[4,128]{1,0:T(4,128)} parameter(0)
  %bitcast.394 = f32[128,4]{0,1:T(4,128)} bitcast(%param_0.1425), metadata={op_name="jit(train_step)/transpose(jvp(TransformerLinenPure.apply))/TransformerLinenPure/decoder/transpose" stack_frame_id=0}
  %square.261 = f32[128,4]{0,1:T(4,128)} multiply(%bitcast.394, %bitcast.394), metadata={op_name="jit(train_step)/square" stack_frame_id=0}
  %constant.1204 = f32[]{:T(128)} constant(0)
  %reduce.144 = f32[]{:T(128)} reduce(%square.261, %constant.1204), dimensions={0,1}, to_apply=%region_40.45, metadata={op_name="jit(train_step)/reduce_sum" stack_frame_id=0}
  %param_1.1597 = f32[4,128]{1,0:T(4,128)} parameter(1)
  %bitcast.398.clone.1 = f32[128,4]{0,1:T(4,128)} bitcast(%param_1.1597), metadata={op_name="jit(train_step)/transpose(jvp(TransformerLinenPure.apply))/TransformerLinenPure/decoder/transpose" stack_frame_id=0}
  %square.264.clone.1 = f32[128,4]{0,1:T(4,128)} multiply(%bitcast.398.clone.1, %bitcast.398.clone.1), metadata={op_name="jit(train_step)/square" stack_frame_id=0}
  %reduce.145.clone.1 = f32[]{:T(128)} reduce(%square.264.clone.1, %constant.1204), dimensions={0,1}, to_apply=%region_37.42, metadata={op_name="jit(train_step)/reduce_sum" stack_frame_id=0}
  ROOT %tuple.171 = (f32[]{:T(128)}, f32[]{:T(128)}) tuple(%reduce.144, %reduce.145.clone.1)
}

%region_72.77 (reduce_sum.572: f32[], reduce_sum.576: f32[]) -> f32[] {
  %reduce_sum.576 = f32[]{:T(128)} parameter(1), metadata={op_name="jit(train_step)/jvp()/reduce_sum"}
  %reduce_sum.572 = f32[]{:T(128)} parameter(0), metadata={op_name="jit(train_step)/jvp()/reduce_sum"}
  ROOT %reduce_sum.577 = f32[]{:T(128)} add(%reduce_sum.572, %reduce_sum.576), metadata={op_name="jit(train_step)/jvp()/reduce_sum" stack_frame_id=0}, backend_config={"flag_configs":[],"scoped_memory_configs":[],"used_scoped_memory_configs":[],"aliasing_operands":{"lists":[]}}
}

%region_58.63 (reduce_sum.500: f32[], reduce_sum.501: f32[]) -> f32[] {
  %reduce_sum.501 = f32[]{:T(128)} parameter(1), metadata={op_name="jit(train_step)/jvp()/reduce_sum"}
  %reduce_sum.500 = f32[]{:T(128)} parameter(0), metadata={op_name="jit(train_step)/jvp()/reduce_sum"}
…
  %add.1021 = bf16[4,128,16,128]{3,1,2,0:T(8,128)(2,1)} add(%mul.2898, %mul.2897), metadata={op_name="jit(train_step)/transpose(jvp(TransformerLinenPure.apply))/TransformerLinenPure/decoder/while/body/closed_call/checkpoint/rematted_computation/layers/add" stack_frame_id=0}
  %constant.1370 = bf16[]{:T(256)} constant(0.08838)
  %closed_call.109 = bf16[4,128,16,128]{3,1,2,0:T(8,128)(2,1)} broadcast(%constant.1370), dimensions={}, metadata={op_name="jit(train_step)/transpose(jvp(TransformerLinenPure.apply))/TransformerLinenPure/decoder/while/body/closed_call" stack_frame_id=0}
  %mul.2896 = bf16[4,128,16,128]{3,1,2,0:T(8,128)(2,1)} multiply(%add.1021, %closed_call.109), metadata={op_name="jit(train_step)/transpose(jvp(TransformerLinenPure.apply))/TransformerLinenPure/decoder/while/body/closed_call/checkpoint/rematted_computation/layers/mul" stack_frame_id=0}
  ROOT %bitcast.613 = bf16[4,16,128,128]{3,2,1,0:T(8,128)(2,1)S(1)} bitcast(%mul.2896), metadata={op_name="jit(train_step)/transpose(jvp(TransformerLinenPure.apply))/TransformerLinenPure/decoder/while/body/closed_call/checkpoint/rematted_computation/layers/transpose" stack_frame_id=0}
}

%region_16.18 (reduce_sum.290: f32[], reduce_sum.291: f32[]) -> f32[] {
  %reduce_sum.291 = f32[]{:T(128)} parameter(1), metadata={op_name="jit(train_step)/transpose(jvp(TransformerLinenPure.apply))/TransformerLinenPure/decoder/while/body/closed_call/checkpoint/rematted_computation/layers/reduce_sum"}
  %reduce_sum.290 = f32[]{:T(128)} parameter(0), metadata={op_name="jit(train_step)/transpose(jvp(TransformerLinenPure.apply))/TransformerLinenPure/decoder/while/body/closed_call/checkpoint/rematted_computation/layers/reduce_sum"}
  ROOT %reduce_sum.292 = f32[]{:T(128)} add(%reduce_sum.290, %reduce_sum.291), metadata={op_name="checkpoint/rematted_computation/layers/reduce_sum" stack_frame_id=0}, backend_config={"flag_configs":[],"scoped_memory_configs":[],"used_scoped_memory_configs":[],"aliasing_operands":{"lists":[]}}
}

%fused_computation.70.clone.1.clone.clone.clone.clone (param_0.1579: bf16[4,2048,8,128], param_1.1716: s32[]) -> bf16[2048,8,128,1] {
  %param_0.1579 = bf16[4,2048,8,128]{1,3,2,0:T(8,128)(2,1)} parameter(0)
  %param_1.1716 = s32[]{:T(128)S(6)} parameter(1)
  %constant.1356 = s32[]{:T(128)} constant(0)
  %dynamic_slice.398 = bf16[1,2048,8,128]{1,3,2,0:T(8,128)(2,1)} dynamic-slice(%param_0.1579, %param_1.1716, %constant.1356, %constant.1356, %constant.1356), dynamic_slice_sizes={1,2048,8,128}, metadata={op_name="jit(train_step)/transpose(jvp(TransformerLinenPure.apply))/TransformerLinenPure/decoder/while/body/dynamic_slice" stack_frame_id=0}, backend_config={"flag_configs":[],"scoped_memory_configs":[],"indices_config":{"index_known_bits":[{"zeroes":"4294967292","ones":"0","bitwidth":"32"},{"zeroes":"4294967295","ones":"0","bitwidth":"32"},{"zeroes":"4294967295","ones":"0","bitwidth":"32"},{"zeroes":"4294967295","ones":"0","bitwidth":"32"}],"is_index_aligned":[]},"used_scoped_memory_configs":[]}
  ROOT %bitcast.606 = bf16[2048,8,128,1]{0,2,1,3:T(8,128)(2,1)} bitcast(%dynamic_slice.398), metadata={op_name="jit(train_step)/transpose(jvp(TransformerLinenPure.apply))/TransformerLinenPure/decoder/while/body/closed_call/checkpoint/rematted_computation/layers/convert_element_type" stack_frame_id=0}
}

%fused_computation.89.clone.1.clone.clone.clone.clone (param_0.1580: f32[4,128], param_1.1717: bf16[2048], param_2.1410: bf16[4,4,128,2048], param_3.969: s32[]) -> bf16[4,128,2048,1] {
  %param_2.1410 = bf16[4,4,128,2048]{3,2,1,0:T(8,128)(2,1)} parameter(2)
  %param_3.969 = s32[]{:T(128)S(6)} parameter(3)
  %constant.1357 = s32[]{:T(128)} constant(0)
  %dynamic_slice.399 = bf16[1,4,128,2048]{3,2,1,0:T(8,128)(2,1)} dynamic-slice(%param_2.1410, %param_3.969, %constant.1357, %constant.1357, %constant.1357), dynamic_slice_sizes={1,4,128,2048}, metadata={op_name="jit(train_step)/transpose(jvp(TransformerLinenPure.apply))/TransformerLinenPure/decoder/while/body/dynamic_slice" stack_frame_id=0}, backend_config={"flag_configs":[],"scoped_memory_configs":[],"indices_config":{"index_known_bits":[{"zeroes":"4294967292","ones":"0","bitwidth":"32"},{"zeroes":"4294967295","ones":"0","bitwidth":"32"},{"zeroes":"4294967295","ones":"0","bitwidth":"32"},{"zeroes":"4294967295","ones":"0","bitwidth":"32"}],"is_index_aligned":[]},"used_scoped_memory_configs":[]}
  %convert_element_type.1589 = f32[1,4,128,2048]{3,2,1,0:T(8,128)} convert(%dynamic_slice.399), metadata={op_name="jit(train_step)/transpose(jvp(TransformerLinenPure.apply))/TransformerLinenPure/decoder/while/body/closed_call/checkpoint/rematted_computation/layers/convert_element_type" stack_frame_id=0}
  %param_0.1580 = f32[4,128]{1,0:T(4,128)S(1)} parameter(0)
  %mul.2874 = f32[1,4,128,2048]{3,2,1,0:T(8,128)} broadcast(%param_0.1580), dimensions={1,2}, metadata={op_name="jit(train_step)/transpose(jvp(TransformerLinenPure.apply))/TransformerLinenPure/decoder/while/body/closed_call/checkpoint/rematted_computation/layers/mul" stack_frame_id=0}
  %mul.2873 = f32[1,4,128,2048]{3,2,1,0:T(8,128)} multiply(%convert_element_type.1589, %mul.2874), metadata={op_name="jit(train_step)/transpose(jvp(TransformerLinenPure.apply))/TransformerLinenPure/decoder/while/body/closed_call/checkpoint/rematted_computation/layers/mul" stack_frame_id=0}
  %convert_element_type.1588 = bf16[1,4,128,2048]{3,2,1,0:T(8,128)(2,1)} convert(%mul.2873), metadata={op_name="jit(train_step)/transpose(jvp(TransformerLinenPure.apply))/TransformerLinenPure/decoder/while/body/closed_call/checkpoint/rematted_computation/layers/convert_element_type" stack_frame_id=0}
  %param_1.1717 = bf16[2048]{0:T(1024)(128)(2,1)S(1)} parameter(1)
  %mul.2875 = bf16[1,4,128,2048]{3,2,1,0:T(8,128)(2,1)} broadcast(%param_1.1717), dimensions={3}, metadata={op_name="jit(train_step)/transpose(jvp(TransformerLinenPure.apply))/TransformerLinenPure/decoder/while/body/closed_call/checkpoint/rematted_computation/layers/mul" stack_frame_id=0}
  %mul.2872 = bf16[1,4,128,2048]{3,2,1,0:T(8,128)(2,1)} multiply(%convert_element_type.1588, %mul.2875), metadata={op_name="jit(train_step)/transpose(jvp(TransformerLinenPure.apply))/TransformerLinenPure/decoder/while/body/closed_call/checkpoint/rematted_computation/layers/mul" stack_frame_id=0}
  ROOT %bitcast.607 = bf16[4,128,2048,1]{2,1,3,0:T(8,128)(2,1)} bitcast(%mul.2872), metadata={op_name="jit(train_step)/transpose(jvp(TransformerLinenPure.apply))/TransformerLinenPure/decoder/while/body/closed_call/checkpoint/rematted_computation/layers/mul" stack_frame_id=0}
}

%fused_computation.85.clone.clone (param_0.1581: bf16[4,2048,8,128], param_1.1718: s32[], param_2.1411: f32[4,128], param_3.970: bf16[2048], param_4.594: bf16[4,4,128,2048]) -> (f32[4,128,8], bf16[4,128,8,128]) {
  %param_2.1411 = f32[4,128]{1,0:T(4,128)S(1)} parameter(2)
  %param_3.970 = bf16[2048]{0:T(1024)(128)(2,1)S(1)} parameter(3)
  %param_4.594 = bf16[4,4,128,2048]{3,2,1,0:T(8,128)(2,1)} parameter(4)
  %param_1.1718 = s32[]{:T(128)S(6)} parameter(1)
  %fusion.90.clone.3 = bf16[4,128,2048,1]{2,1,3,0:T(8,128)(2,1)} fusion(%param_2.1411, %param_3.970, %param_4.594, %param_1.1718), kind=kLoop, calls=%fused_computation.89.clone.1.clone.clone.clone.clone, metadata={op_name="jit(train_step)/transpose(jvp(TransformerLinenPure.apply))/TransformerLinenPure/decoder/while/body/closed_call/checkpoint/rematted_computation/layers/mul" stack_frame_id=0}
  %param_0.1581 = bf16[4,2048,8,128]{1,3,2,0:T(8,128)(2,1)} parameter(0)
  %fusion.85.clone.3 = bf16[2048,8,128,1]{0,2,1,3:T(8,128)(2,1)} fusion(%param_0.1581, %param_1.1718), kind=kLoop, calls=%fused_computation.70.clone.1.clone.clone.clone.clone, metadata={op_name="jit(train_step)/transpose(jvp(TransformerLinenPure.apply))/TransformerLinenPure/decoder/while/body/closed_call/checkpoint/rematted_computation/layers/convert_element_type" stack_frame_id=0}
  %convolution.56.clone.3 = bf16[4,128,8,128]{3,1,2,0:T(8,128)(2,1)S(1)} convolution(%fusion.90.clone.3, %fusion.85.clone.3), window={size=1x8 pad=0_0x7_7 rhs_reversal=0x1}, dim_labels=0bf1_i1o0->0b1f, metadata={op_name="jit(train_step)/transpose(jvp(TransformerLinenPure.apply))/TransformerLinenPure/decoder/while/body/closed_call/checkpoint/rematted_computation/layers/dot_general" stack_frame_id=0}
  %convert_element_type.1590 = f32[4,128,8,128]{3,1,2,0:T(8,128)} convert(%convolution.56.clone.3), metadata={op_name="jit(train_step)/transpose(jvp(TransformerLinenPure.apply))/TransformerLinenPure/decoder/while/body/closed_call/checkpoint/rematted_computation/layers/convert_element_type" stack_frame_id=0}
  %square.281 = f32[4,128,8,128]{3,1,2,0:T(8,128)} multiply(%convert_element_type.1590, %convert_element_type.1590), metadata={op_name="jit(train_step)/transpose(jvp(TransformerLinenPure.apply))/TransformerLinenPure/decoder/while/body/closed_call/checkpoint/rematted_computation/layers/square" stack_frame_id=0}
  %constant.1358 = f32[]{:T(128)} constant(0)
  %reduce.176 = f32[4,128,8]{1,2,0:T(8,128)S(1)} reduce(%square.281, %constant.1358), dimensions={3}, to_apply=%region_16.18, metadata={op_name="jit(train_step)/transpose(jvp(TransformerLinenPure.apply))/TransformerLinenPure/decoder/while/body/closed_call/checkpoint/rematted_computation/layers/reduce_sum" stack_frame_id=0}
  ROOT %tuple.208 = (f32[4,128,8]{1,2,0:T(8,128)S(1)}, bf16[4,128,8,128]{3,1,2,0:T(8,128)(2,1)S(1)}) tuple(%reduce.176, %convolution.56.clone.3)
}

%fused_computation.165.clone.1.clone (param_0.1582: f32[4,128,8]) -> f32[4,128,8] {
  %param_0.1582 = f32[4,128,8]{1,2,0:T(8,128)S(1)} parameter(0)
  %constant.1359 = f32[]{:T(128)} constant(0.0078125)
  %closed_call.107 = f32[4,128,8]{1,2,0:T(8,128)} broadcast(%constant.1359), dimensions={}, metadata={op_name="jit(train_step)/transpose(jvp(TransformerLinenPure.apply))/TransformerLinenPure/decoder/while/body/closed_call" stack_frame_id=0}
  %div.1000 = f32[4,128,8]{1,2,0:T(8,128)} multiply(%param_0.1582, %closed_call.107), metadata={op_name="jit(train_step)/transpose(jvp(TransformerLinenPure.apply))/TransformerLinenPure/decoder/while/body/closed_call/checkpoint/rematted_computation/layers/div" stack_frame_id=0}
  %constant.1360 = f32[]{:T(128)} constant(1e-06)
  %add.1017 = f32[4,128,8]{1,2,0:T(8,128)} broadcast(%constant.1360), dimensions={}, metadata={op_name="jit(train_step)/transpose(jvp(TransformerLinenPure.apply))/TransformerLinenPure/decoder/while/body/closed_call/checkpoint/rematted_computation/layers/add" stack_frame_id=0}
  %add.1016 = f32[4,128,8]{1,2,0:T(8,128)} add(%div.1000, %add.1017), metadata={op_name="jit(train_step)/transpose(jvp(TransformerLinenPure.apply))/TransformerLinenPure/decoder/while/body/closed_call/checkpoint/rematted_computation/layers/add" stack_frame_id=0}
  ROOT %rsqrt.182 = f32[4,128,8]{1,2,0:T(8,128)S(1)} rsqrt(%add.1016), metadata={op_name="jit(train_step)/transpose(jvp(TransformerLinenPure.apply))/TransformerLinenPure/decoder/while/body/closed_call/checkpoint/rematted_computation/layers/rsqrt" stack_frame_id=0}
}

%fused_computation.195.clone.clone (param_0.1568: bf16[4,128], param_1.1708: s32[]) -> bf16[128] {
  %param_0.1568 = bf16[4,128]{1,0:T(4,128)(2,1)} parameter(0)
  %param_1.1708 = s32[]{:T(128)S(6)} parameter(1)
  %constant.1341 = s32[]{:T(128)} constant(0)
  %dynamic_slice.392 = bf16[1,128]{1,0:T(2,128)(2,1)} dynamic-slice(%param_0.1568, %param_1.1708, %constant.1341), dynamic_slice_sizes={1,128}, metadata={op_name="jit(train_step)/transpose(jvp(TransformerLinenPure.apply))/TransformerLinenPure/decoder/while/body/dynamic_slice" stack_frame_id=0}, backend_config={"flag_configs":[],"scoped_memory_configs":[],"indices_config":{"index_known_bits":[{"zeroes":"4294967292","ones":"0","bitwidth":"32"},{"zeroes":"4294967295","ones":"0","bitwidth":"32"}],"is_index_aligned":[]},"used_scoped_memory_configs":[]}
  ROOT %bitcast.600 = bf16[128]{0:T(256)(128)(2,1)S(1)} bitcast(%dynamic_slice.392), metadata={op_name="jit(train_step)/transpose(jvp(TransformerLinenPure.apply))/TransformerLinenPure/decoder/while/body/closed_call/checkpoint/rematted_computation/layers/convert_element_type" stack_frame_id=0}
}

%fused_computation.144.clone.1.clone (param_0.1584: f32[4,128,8], param_1.1719: bf16[4,128,8,128], param_2.1412: bf16[128]) -> bf16[4,128,8,128] {
  %param_1.1719 = bf16[4,128,8,128]{3,1,2,0:T(8,128)(2,1)S(1)} parameter(1)
  %convert_element_type.1592 = f32[4,128,8,128]{3,1,2,0:T(8,128)} convert(%param_1.1719), metadata={op_name="jit(train_step)/transpose(jvp(TransformerLinenPure.apply))/TransformerLinenPure/decoder/while/body/closed_call/checkpoint/rematted_computation/layers/convert_element_type" stack_frame_id=0}
  %param_0.1584 = f32[4,128,8]{1,2,0:T(8,128)S(1)} parameter(0)
  %mul.2878 = f32[4,128,8,128]{3,1,2,0:T(8,128)} broadcast(%param_0.1584), dimensions={0,1,2}, metadata={op_name="jit(train_step)/transpose(jvp(TransformerLinenPure.apply))/TransformerLinenPure/decoder/while/body/closed_call/checkpoint/rematted_computation/layers/mul" stack_frame_id=0}
  %mul.2877 = f32[4,128,8,128]{3,1,2,0:T(8,128)} multiply(%convert_element_type.1592, %mul.2878), metadata={op_name="jit(train_step)/transpose(jvp(TransformerLinenPure.apply))/TransformerLinenPure/decoder/while/body/closed_call/checkpoint/rematted_computation/layers/mul" stack_frame_id=0}
  %convert_element_type.1591 = bf16[4,128,8,128]{3,1,2,0:T(8,128)(2,1)} convert(%mul.2877), metadata={op_name="jit(train_step)/transpose(jvp(TransformerLinenPure.apply))/TransformerLinenPure/decoder/while/body/closed_call/checkpoint/rematted_computation/layers/convert_element_type" stack_frame_id=0}
  %param_2.1412 = bf16[128]{0:T(256)(128)(2,1)S(1)} parameter(2)
  %mul.2879 = bf16[4,128,8,128]{3,1,2,0:T(8,128)(2,1)} broadcast(%param_2.1412), dimensions={3}, metadata={op_name="jit(train_step)/transpose(jvp(TransformerLinenPure.apply))/TransformerLinenPure/decoder/while/body/closed_call/checkpoint/rematted_computation/layers/mul" stack_frame_id=0}
  ROOT %mul.2876 = bf16[4,128,8,128]{3,1,2,0:T(8,128)(2,1)S(1)} multiply(%convert_element_type.1591, %mul.2879), metadata={op_name="jit(train_step)/transpose(jvp(TransformerLinenPure.apply))/TransformerLinenPure/decoder/while/body/closed_call/checkpoint/rematted_computation/layers/mul" stack_frame_id=0}
}

%fused_computation.125.clone.clone (param_0.1585: bf16[4,128,8,128]) -> (bf16[4,128,8,64], bf16[4,128,8,64]) {
  %param_0.1585 = bf16[4,128,8,128]{3,1,2,0:T(8,128)(2,1)S(1)} parameter(0)
  %split.158 = bf16[4,128,8,64]{3,1,2,0:T(8,128)(2,1)} slice(%param_0.1585), slice={[0:4], [0:128], [0:8], [64:128]}, metadata={op_name="jit(train_step)/transpose(jvp(TransformerLinenPure.apply))/TransformerLinenPure/decoder/while/body/closed_call/checkpoint/rematted_computation/layers/split" stack_frame_id=0}
  %neg.128 = bf16[4,128,8,64]{3,1,2,0:T(8,128)(2,1)S(1)} negate(%split.158), metadata={op_name="jit(train_step)/transpose(jvp(TransformerLinenPure.apply))/TransformerLinenPure/decoder/while/body/closed_call/checkpoint/rematted_computation/layers/neg" stack_frame_id=0}
  %split.159 = bf16[4,128,8,64]{3,1,2,0:T(8,128)(2,1)S(1)} slice(%param_0.1585), slice={[0:4], [0:128], [0:8], [0:64]}, metadata={op_name="jit(train_step)/transpose(jvp(TransformerLinenPure.apply))/TransformerLinenPure/decoder/while/body/closed_call/checkpoint/rematted_computation/layers/split" stack_frame_id=0}
  ROOT %tuple.209 = (bf16[4,128,8,64]{3,1,2,0:T(8,128)(2,1)S(1)}, bf16[4,128,8,64]{3,1,2,0:T(8,128)(2,1)S(1)}) tuple(%neg.128, %split.159)
}

%fused_computation.128.clone.clone (param_0.1586: bf16[4,128,8,64], param_1.1720: bf16[4,128,8,64], param_2.1413: bf16[4,128,128], param_3.971: bf16[4,128,128], param_4.595: bf16[128], param_5.511: f32[4,128,8], param_6.381: bf16[4,128,8,128]) -> bf16[4,8,128,128] {
  %param_6.381 = bf16[4,128,8,128]{3,1,2,0:T(8,128)(2,1)S(1)} parameter(6)
  %convert_element_type.1594 = f32[4,128,8,128]{3,1,2,0:T(8,128)} convert(%param_6.381), metadata={op_name="jit(train_step)/transpose(jvp(TransformerLinenPure.apply))/TransformerLinenPure/decoder/while/body/closed_call/checkpoint/rematted_computation/layers/convert_element_type" stack_frame_id=0}
  %param_5.511 = f32[4,128,8]{1,2,0:T(8,128)S(1)} parameter(5)
  %mul.2887 = f32[4,128,8,128]{3,1,2,0:T(8,128)} broadcast(%param_5.511), dimensions={0,1,2}, metadata={op_name="jit(train_step)/transpose(jvp(TransformerLinenPure.apply))/TransformerLinenPure/decoder/while/body/closed_call/checkpoint/rematted_computation/layers/mul" stack_frame_id=0}
  %mul.2886 = f32[4,128,8,128]{3,1,2,0:T(8,128)} multiply(%convert_element_type.1594, %mul.2887), metadata={op_name="jit(train_step)/transpose(jvp(TransformerLinenPure.apply))/TransformerLinenPure/decoder/while/body/closed_call/checkpoint/rematted_computation/layers/mul" stack_frame_id=0}
  %convert_element_type.1593 = bf16[4,128,8,128]{3,1,2,0:T(8,128)(2,1)} convert(%mul.2886), metadata={op_name="jit(train_step)/transpose(jvp(TransformerLinenPure.apply))/TransformerLinenPure/decoder/while/body/closed_call/checkpoint/rematted_computation/layers/convert_element_type" stack_frame_id=0}
  %param_4.595 = bf16[128]{0:T(256)(128)(2,1)S(1)} parameter(4)
  %mul.2885 = bf16[4,128,8,128]{3,1,2,0:T(8,128)(2,1)} broadcast(%param_4.595), dimensions={3}, metadata={op_name="jit(train_step)/transpose(jvp(TransformerLinenPure.apply))/TransformerLinenPure/decoder/while/body/closed_call/checkpoint/rematted_computation/layers/mul" stack_frame_id=0}
  %mul.2884 = bf16[4,128,8,128]{3,1,2,0:T(8,128)(2,1)} multiply(%convert_element_type.1593, %mul.2885), metadata={op_name="jit(train_step)/transpose(jvp(TransformerLinenPure.apply))/TransformerLinenPure/decoder/while/body/closed_call/checkpoint/rematted_computation/layers/mul" stack_frame_id=0}
  %param_3.971 = bf16[4,128,128]{2,1,0:T(8,128)(2,1)S(1)} parameter(3)
  %mul.2883 = bf16[4,128,8,128]{3,1,2,0:T(8,128)(2,1)} broadcast(%param_3.971), dimensions={0,1,3}, metadata={op_name="jit(train_step)/transpose(jvp(TransformerLinenPure.apply))/TransformerLinenPure/decoder/while/body/closed_call/checkpoint/rematted_computation/layers/mul" stack_frame_id=0}
  %mul.2881 = bf16[4,128,8,128]{3,1,2,0:T(8,128)(2,1)} multiply(%mul.2884, %mul.2883), metadata={op_name="jit(train_step)/transpose(jvp(TransformerLinenPure.apply))/TransformerLinenPure/decoder/while/body/closed_call/checkpoint/rematted_computation/layers/mul" stack_frame_id=0}
  %param_1.1720 = bf16[4,128,8,64]{3,1,2,0:T(8,128)(2,1)S(1)} parameter(1)
  %constant.1362 = bf16[]{:T(256)} constant(-inf)
  %pad.73 = bf16[4,128,8,128]{3,1,2,0:T(8,128)(2,1)} pad(%param_1.1720, %constant.1362), padding=0_0x0_0x0_0x0_64, metadata={op_name="jit(train_step)/transpose(jvp(TransformerLinenPure.apply))/TransformerLinenPure/decoder/while/body/closed_call/checkpoint/rematted_computation/layers/concatenate" stack_frame_id=0}
  %param_0.1586 = bf16[4,128,8,64]{3,1,2,0:T(8,128)(2,1)S(1)} parameter(0)
  %pad.72 = bf16[4,128,8,128]{3,1,2,0:T(8,128)(2,1)} pad(%param_0.1586, %constant.1362), padding=0_0x0_0x0_0x64_0, metadata={op_name="jit(train_step)/transpose(jvp(TransformerLinenPure.apply))/TransformerLinenPure/decoder/while/body/closed_call/checkpoint/rematted_computation/layers/concatenate" stack_frame_id=0}
  %maximum.55 = bf16[4,128,8,128]{3,1,2,0:T(8,128)(2,1)} maximum(%pad.73, %pad.72), metadata={op_name="jit(train_step)/transpose(jvp(TransformerLinenPure.apply))/TransformerLinenPure/decoder/while/body/closed_call/checkpoint/rematted_computation/layers/concatenate" stack_frame_id=0}
  %param_2.1413 = bf16[4,128,128]{2,1,0:T(8,128)(2,1)S(1)} parameter(2)
  %mul.2882 = bf16[4,128,8,128]{3,1,2,0:T(8,128)(2,1)} broadcast(%param_2.1413), dimensions={0,1,3}, metadata={op_name="jit(train_step)/transpose(jvp(TransformerLinenPure.apply))/TransformerLinenPure/decoder/while/body/closed_call/checkpoint/rematted_computation/layers/mul" stack_frame_id=0}
  %mul.2880 = bf16[4,128,8,128]{3,1,2,0:T(8,128)(2,1)} multiply(%maximum.55, %mul.2882), metadata={op_name="jit(train_step)/transpose(jvp(TransformerLinenPure.apply))/TransformerLinenPure/decoder/while/body/closed_call/checkpoint/rematted_computation/layers/mul" stack_frame_id=0}
  %add.1018 = bf16[4,128,8,128]{3,1,2,0:T(8,128)(2,1)} add(%mul.2881, %mul.2880), metadata={op_name="jit(train_step)/transpose(jvp(TransformerLinenPure.apply))/TransformerLinenPure/decoder/while/body/closed_call/checkpoint/rematted_computation/layers/add" stack_frame_id=0}
  ROOT %bitcast.609 = bf16[4,8,128,128]{3,2,1,0:T(8,128)(2,1)S(1)} bitcast(%add.1018), metadata={op_name="jit(train_step)/transpose(jvp(TransformerLinenPure.apply))/TransformerLinenPure/decoder/while/body/closed_call/checkpoint/rematted_computation/layers/transpose" stack_frame_id=0}
}

%fused_computation.181.clone.clone (param_0.1575: bf16[4,2048,8,128], param_1.1713: s32[]) -> bf16[1,2048,8,128] {
  %param_0.1575 = bf16[4,2048,8,128]{3,2,0,1:T(8,128)(2,1)} parameter(0)
  %param_1.1713 = s32[]{:T(128)S(6)} parameter(1)
  %constant.1354 = s32[]{:T(128)} constant(0)
  ROOT %dynamic_slice.396 = bf16[1,2048,8,128]{3,2,0,1:T(8,128)(2,1)S(1)} dynamic-slice(%param_0.1575, %param_1.1713, %constant.1354, %constant.1354, %constant.1354), dynamic_slice_sizes={1,2048,8,128}, metadata={op_name="jit(train_step)/transpose(jvp(TransformerLinenPure.apply))/TransformerLinenPure/decoder/while/body/dynamic_slice" stack_frame_id=0}, backend_config={"flag_configs":[],"scoped_memory_configs":[],"indices_config":{"index_known_bits":[{"zeroes":"4294967292","ones":"0","bitwidth":"32"},{"zeroes":"4294967295","ones":"0","bitwidth":"32"},{"zeroes":"4294967295","ones":"0","bitwidth":"32"},{"zeroes":"4294967295","ones":"0","bitwidth":"32"}],"is_index_aligned":[]},"used_scoped_memory_configs":[]}
}

%fused_computation.71.clone.1.clone.clone.clone.clone (param_0.1576: bf16[1,2048,8,128]) -> bf16[2048,8,128,1] {
  %param_0.1576 = bf16[1,2048,8,128]{3,2,0,1:T(8,128)(2,1)S(1)} parameter(0)
  %copy.200 = bf16[1,2048,8,128]{3,1,2,0:T(8,128)(2,1)} copy(%param_0.1576), metadata={op_name="jit(train_step)/transpose(jvp(TransformerLinenPure.apply))/TransformerLinenPure/decoder/while/body/dynamic_slice" stack_frame_id=0}
  ROOT %bitcast.603 = bf16[2048,8,128,1]{2,0,1,3:T(8,128)(2,1)} bitcast(%copy.200), metadata={op_name="jit(train_step)/transpose(jvp(TransformerLinenPure.apply))/TransformerLinenPure/decoder/while/body/closed_call/checkpoint/rematted_computation/layers/convert_element_type" stack_frame_id=0}
}

%fused_computation.89.clone.clone.clone.clone.clone (param_0.1577: f32[4,128], param_1.1714: bf16[2048], param_2.1408: bf16[4,4,128,2048], param_3.967: s32[]) -> bf16[4,128,2048,1] {
  %param_2.1408 = bf16[4,4,128,2048]{3,2,1,0:T(8,128)(2,1)} parameter(2)
  %param_3.967 = s32[]{:T(128)S(6)} parameter(3)
  %constant.1355 = s32[]{:T(128)} constant(0)
  %dynamic_slice.397 = bf16[1,4,128,2048]{3,2,1,0:T(8,128)(2,1)} dynamic-slice(%param_2.1408, %param_3.967, %constant.1355, %constant.1355, %constant.1355), dynamic_slice_sizes={1,4,128,2048}, metadata={op_name="jit(train_step)/transpose(jvp(TransformerLinenPure.apply))/TransformerLinenPure/decoder/while/body/dynamic_slice" stack_frame_id=0}, backend_config={"flag_configs":[],"scoped_memory_configs":[],"indices_config":{"index_known_bits":[{"zeroes":"4294967292","ones":"0","bitwidth":"32"},{"zeroes":"4294967295","ones":"0","bitwidth":"32"},{"zeroes":"4294967295","ones":"0","bitwidth":"32"},{"zeroes":"4294967295","ones":"0","bitwidth":"32"}],"is_index_aligned":[]},"used_scoped_memory_configs":[]}
  %convert_element_type.1587 = f32[1,4,128,2048]{3,2,1,0:T(8,128)} convert(%dynamic_slice.397), metadata={op_name="jit(train_step)/transpose(jvp(TransformerLinenPure.apply))/TransformerLinenPure/decoder/while/body/closed_call/checkpoint/rematted_computation/layers/convert_element_type" stack_frame_id=0}
  %param_0.1577 = f32[4,128]{1,0:T(4,128)S(1)} parameter(0)
  %mul.2870 = f32[1,4,128,2048]{3,2,1,0:T(8,128)} broadcast(%param_0.1577), dimensions={1,2}, metadata={op_name="jit(train_step)/transpose(jvp(TransformerLinenPure.apply))/TransformerLinenPure/decoder/while/body/closed_call/checkpoint/rematted_computation/layers/mul" stack_frame_id=0}
  %mul.2869 = f32[1,4,128,2048]{3,2,1,0:T(8,128)} multiply(%convert_element_type.1587, %mul.2870), metadata={op_name="jit(train_step)/transpose(jvp(TransformerLinenPure.apply))/TransformerLinenPure/decoder/while/body/closed_call/checkpoint/rematted_computation/layers/mul" stack_frame_id=0}
  %convert_element_type.1586 = bf16[1,4,128,2048]{3,2,1,0:T(8,128)(2,1)} convert(%mul.2869), metadata={op_name="jit(train_step)/transpose(jvp(TransformerLinenPure.apply))/TransformerLinenPure/decoder/while/body/closed_call/checkpoint/rematted_computation/layers/convert_element_type" stack_frame_id=0}
  %param_1.1714 = bf16[2048]{0:T(1024)(128)(2,1)S(1)} parameter(1)
  %mul.2871 = bf16[1,4,128,2048]{3,2,1,0:T(8,128)(2,1)} broadcast(%param_1.1714), dimensions={3}, metadata={op_name="jit(train_step)/transpose(jvp(TransformerLinenPure.apply))/TransformerLinenPure/decoder/while/body/closed_call/checkpoint/rematted_computation/layers/mul" stack_frame_id=0}
  %mul.2868 = bf16[1,4,128,2048]{3,2,1,0:T(8,128)(2,1)} multiply(%convert_element_type.1586, %mul.2871), metadata={op_name="jit(train_step)/transpose(jvp(TransformerLinenPure.apply))/TransformerLinenPure/decoder/while/body/closed_call/checkpoint/rematted_computation/layers/mul" stack_frame_id=0}
  ROOT %bitcast.604 = bf16[4,128,2048,1]{2,1,3,0:T(8,128)(2,1)} bitcast(%mul.2868), metadata={op_name="jit(train_step)/transpose(jvp(TransformerLinenPure.apply))/TransformerLinenPure/decoder/while/body/closed_call/checkpoint/rematted_computation/layers/mul" stack_frame_id=0}
}

%fused_computation.151.clone.clone (param_0.1578: bf16[1,2048,8,128], param_1.1715: f32[4,128], param_2.1409: bf16[2048], param_3.968: bf16[4,4,128,2048], param_4.593: s32[]) -> bf16[4,8,128,128] {
  %param_1.1715 = f32[4,128]{1,0:T(4,128)S(1)} parameter(1)
  %param_2.1409 = bf16[2048]{0:T(1024)(128)(2,1)S(1)} parameter(2)
  %param_3.968 = bf16[4,4,128,2048]{3,2,1,0:T(8,128)(2,1)} parameter(3)
  %param_4.593 = s32[]{:T(128)S(6)} parameter(4)
  %fusion.380 = bf16[4,128,2048,1]{2,1,3,0:T(8,128)(2,1)} fusion(%param_1.1715, %param_2.1409, %param_3.968, %param_4.593), kind=kLoop, calls=%fused_computation.89.clone.clone.clone.clone.clone, metadata={op_name="jit(train_step)/transpose(jvp(TransformerLinenPure.apply))/TransformerLinenPure/decoder/while/body/closed_call/checkpoint/rematted_computation/layers/mul" stack_frame_id=0}
  %param_0.1578 = bf16[1,2048,8,128]{3,2,0,1:T(8,128)(2,1)S(1)} parameter(0)
  %fusion.379 = bf16[2048,8,128,1]{2,0,1,3:T(8,128)(2,1)} fusion(%param_0.1578), kind=kLoop, calls=%fused_computation.71.clone.1.clone.clone.clone.clone, metadata={op_name="jit(train_step)/transpose(jvp(TransformerLinenPure.apply))/TransformerLinenPure/decoder/while/body/closed_call/checkpoint/rematted_computation/layers/convert_element_type" stack_frame_id=0}
  %convolution.105 = bf16[4,128,8,128]{3,1,2,0:T(8,128)(2,1)} convolution(%fusion.380, %fusion.379), window={size=1x8 pad=0_0x7_7 rhs_reversal=0x1}, dim_labels=0bf1_i1o0->0b1f, metadata={op_name="jit(train_step)/transpose(jvp(TransformerLinenPure.apply))/TransformerLinenPure/decoder/while/body/closed_call/checkpoint/rematted_computation/layers/dot_general" stack_frame_id=0}
  ROOT %bitcast.605 = bf16[4,8,128,128]{3,2,1,0:T(8,128)(2,1)S(1)} bitcast(%convolution.105), metadata={op_name="jit(train_step)/transpose(jvp(TransformerLinenPure.apply))/TransformerLinenPure/decoder/while/body/closed_call/checkpoint/rematted_computation/layers/transpose" stack_frame_id=0}
}

%fused_computation.199.clone.clone (param_0.1618: f32[4,16,128,128]) -> (f32[4,16,128], f32[4,16,128,1]) {
  %param_0.1618 = f32[4,16,128,128]{2,1,0,3:T(8,128)S(1)} parameter(0)
  %slice.11 = f32[4,16,128,1]{2,1,0,3:T(8,128)S(1)} slice(%param_0.1618), slice={[0:4], [0:16], [0:128], [0:1]}, metadata={op_name="jit(train_step)/transpose(jvp(TransformerLinenPure.apply))/TransformerLinenPure/decoder/while/body/closed_call/checkpoint/rematted_computation/layers/shard_map/vmap(jit(_splash_attention))/slice" stack_frame_id=0}
  %bitcast.626 = f32[4,16,128]{2,1,0:T(8,128)S(1)} bitcast(%slice.11), metadata={op_name="jit(train_step)/transpose(jvp(TransformerLinenPure.apply))/TransformerLinenPure/decoder/while/body/closed_call/checkpoint/rematted_computation/layers/shard_map/vmap(jit(_splash_attention))/squeeze" stack_frame_id=0}
  ROOT %tuple.216 = (f32[4,16,128]{2,1,0:T(8,128)S(1)}, f32[4,16,128,1]{2,1,0,3:T(8,128)S(1)}) tuple(%bitcast.626, %slice.11)
}

%region_17.20 (reduce_sum.296: f32[], reduce_sum.297: f32[]) -> f32[] {
  %reduce_sum.297 = f32[]{:T(128)} parameter(1), metadata={op_name="jit(train_step)/transpose(jvp(TransformerLinenPure.apply))/TransformerLinenPure/decoder/while/body/closed_call/checkpoint/rematted_computation/layers/reduce_sum"}
  %reduce_sum.296 = f32[]{:T(128)} parameter(0), metadata={op_name="jit(train_step)/transpose(jvp(TransformerLinenPure.apply))/TransformerLinenPure/decoder/while/body/closed_call/checkpoint/rematted_computation/layers/reduce_sum"}
  ROOT %reduce_sum.298 = f32[]{:T(128)} add(%reduce_sum.296, %reduce_sum.297), metadata={op_name="checkpoint/rematted_computation/layers/reduce_sum" stack_frame_id=0}, backend_config={"flag_configs":[],"scoped_memory_configs":[],"used_scoped_memory_configs":[],"aliasing_operands":{"lists":[]}}
}

%fused_computation.26.clone.1.clone.clone.clone.clone.clone.clone (param_0.1595: bf16[4,16,128,2048], param_1.1727: s32[]) -> bf16[16,128,2048,1] {
  %param_0.1595 = bf16[4,16,128,2048]{3,2,1,0:T(8,128)(2,1)} parameter(0)
  %param_1.1727 = s32[]{:T(128)S(6)} parameter(1)
  %constant.1371 = s32[]{:T(128)} constant(0)
  %dynamic_slice.403 = bf16[1,16,128,2048]{3,2,1,0:T(8,128)(2,1)} dynamic-slice(%param_0.1595, %param_1.1727, %constant.1371, %constant.1371, %constant.1371), dynamic_slice_sizes={1,16,128,2048}, metadata={op_name="jit(train_step)/transpose(jvp(TransformerLinenPure.apply))/TransformerLinenPure/decoder/while/body/dynamic_slice" stack_frame_id=0}, backend_config={"flag_configs":[],"scoped_memory_configs":[],"indices_config":{"index_known_bits":[{"zeroes":"4294967292","ones":"0","bitwidth":"32"},{"zeroes":"4294967295","ones":"0","bitwidth":"32"},{"zeroes":"4294967295","ones":"0","bitwidth":"32"},{"zeroes":"4294967295","ones":"0","bitwidth":"32"}],"is_index_aligned":[]},"used_scoped_memory_configs":[]}
  ROOT %bitcast.614 = bf16[16,128,2048,1]{2,1,0,3:T(8,128)(2,1)} bitcast(%dynamic_slice.403), metadata={op_name="jit(train_step)/transpose(jvp(TransformerLinenPure.apply))/TransformerLinenPure/decoder/while/body/closed_call/checkpoint/rematted_computation/layers/convert_element_type" stack_frame_id=0}
}

%fused_computation.110.clone.clone.clone.clone.clone.clone (param_0.1596: bf16[4,16,128,128]) -> bf16[4,128,16,128] {
  %param_0.1596 = bf16[4,16,128,128]{3,2,1,0:T(8,128)(2,1)S(1)} parameter(0)
  ROOT %bitcast.615 = bf16[4,128,16,128]{3,1,2,0:T(8,128)(2,1)} bitcast(%param_0.1596), metadata={op_name="jit(train_step)/transpose(jvp(TransformerLinenPure.apply))/TransformerLinenPure/decoder/while/body/closed_call/checkpoint/rematted_computation/layers/transpose" stack_frame_id=0}
}

%fused_computation.67.clone.clone (param_0.1597: bf16[4,16,128,2048], param_1.1728: s32[], param_2.1418: bf16[4,16,128,128], param_3.975: bf16[4,4,128,2048]) -> (f32[4,128], bf16[4,128,2048]) {
  %param_3.975 = bf16[4,4,128,2048]{3,2,1,0:T(8,128)(2,1)} parameter(3)
  %param_1.1728 = s32[]{:T(128)S(6)} parameter(1)
  %constant.414.clone.1.clone.3 = s32[]{:T(128)} constant(0)
  %dynamic_slice.265.clone.3 = bf16[1,4,128,2048]{3,2,1,0:T(8,128)(2,1)} dynamic-slice(%param_3.975, %param_1.1728, %constant.414.clone.1.clone.3, %constant.414.clone.1.clone.3, %constant.414.clone.1.clone.3), dynamic_slice_sizes={1,4,128,2048}, metadata={op_name="jit(train_step)/transpose(jvp(TransformerLinenPure.apply))/TransformerLinenPure/decoder/while/body/dynamic_slice" stack_frame_id=0}, backend_config={"flag_configs":[],"scoped_memory_configs":[],"indices_config":{"index_known_bits":[{"zeroes":"4294967292","ones":"0","bitwidth":"32"},{"zeroes":"4294967295","ones":"0","bitwidth":"32"},{"zeroes":"4294967295","ones":"0","bitwidth":"32"},{"zeroes":"4294967295","ones":"0","bitwidth":"32"}],"is_index_aligned":[]},"used_scoped_memory_configs":[]}
  %bitcast.212.clone.3 = bf16[4,128,2048]{2,1,0:T(8,128)(2,1)} bitcast(%dynamic_slice.265.clone.3), metadata={op_name="jit(train_step)/transpose(jvp(TransformerLinenPure.apply))/TransformerLinenPure/decoder/while/body/squeeze" stack_frame_id=0}
  %param_2.1418 = bf16[4,16,128,128]{3,2,1,0:T(8,128)(2,1)S(1)} parameter(2)
  %fusion.100.clone.3 = bf16[4,128,16,128]{3,1,2,0:T(8,128)(2,1)} fusion(%param_2.1418), kind=kLoop, calls=%fused_computation.110.clone.clone.clone.clone.clone.clone, metadata={op_name="jit(train_step)/transpose(jvp(TransformerLinenPure.apply))/TransformerLinenPure/decoder/while/body/closed_call/checkpoint/rematted_computation/layers/transpose" stack_frame_id=0}
  %param_0.1597 = bf16[4,16,128,2048]{3,2,1,0:T(8,128)(2,1)} parameter(0)
  %fusion.99.clone.3 = bf16[16,128,2048,1]{2,1,0,3:T(8,128)(2,1)} fusion(%param_0.1597, %param_1.1728), kind=kLoop, calls=%fused_computation.26.clone.1.clone.clone.clone.clone.clone.clone, metadata={op_name="jit(train_step)/transpose(jvp(TransformerLinenPure.apply))/TransformerLinenPure/decoder/while/body/closed_call/checkpoint/rematted_computation/layers/convert_element_type" stack_frame_id=0}
  %convolution.62.clone.3 = bf16[4,128,2048,1]{2,1,3,0:T(8,128)(2,1)} convolution(%fusion.100.clone.3, %fusion.99.clone.3), window={size=1x16}, dim_labels=0b1f_1io0->0bf1, metadata={op_name="jit(train_step)/transpose(jvp(TransformerLinenPure.apply))/TransformerLinenPure/decoder/while/body/closed_call/checkpoint/rematted_computation/layers/dot_general" stack_frame_id=0}
  %bitcast.204.clone.3 = bf16[4,128,2048]{2,1,0:T(8,128)(2,1)} bitcast(%convolution.62.clone.3), metadata={op_name="jit(train_step)/transpose(jvp(TransformerLinenPure.apply))/TransformerLinenPure/decoder/while/body/closed_call/checkpoint/rematted_computation/layers/dot_general" stack_frame_id=0}
  %add.744.clone.3 = bf16[4,128,2048]{2,1,0:T(8,128)(2,1)S(1)} add(%bitcast.212.clone.3, %bitcast.204.clone.3), metadata={op_name="jit(train_step)/transpose(jvp(TransformerLinenPure.apply))/TransformerLinenPure/decoder/while/body/closed_call/checkpoint/rematted_computation/layers/add" stack_frame_id=0}
  %convert_element_type.1602 = f32[4,128,2048]{2,1,0:T(8,128)} convert(%add.744.clone.3), metadata={op_name="jit(train_step)/transpose(jvp(TransformerLinenPure.apply))/TransformerLinenPure/decoder/while/body/closed_call/checkpoint/rematted_computation/layers/convert_element_type" stack_frame_id=0}
  %square.283 = f32[4,128,2048]{2,1,0:T(8,128)} multiply(%convert_element_type.1602, %convert_element_type.1602), metadata={op_name="jit(train_step)/transpose(jvp(TransformerLinenPure.apply))/TransformerLinenPure/decoder/while/body/closed_call/checkpoint/rematted_computation/layers/square" stack_frame_id=0}
  %constant.1372 = f32[]{:T(128)} constant(0)
  %reduce.178 = f32[4,128]{1,0:T(4,128)S(1)} reduce(%square.283, %constant.1372), dimensions={2}, to_apply=%region_17.20, metadata={op_name="jit(train_step)/transpose(jvp(TransformerLinenPure.apply))/TransformerLinenPure/decoder/while/body/closed_call/checkpoint/rematted_computation/layers/reduce_sum" stack_frame_id=0}
  ROOT %tuple.212 = (f32[4,128]{1,0:T(4,128)S(1)}, bf16[4,128,2048]{2,1,0:T(8,128)(2,1)S(1)}) tuple(%reduce.178, %add.744.clone.3)
}

%convert_element_type.808.reduce_sub_computation (lhs.1: bf16[], rhs.1: bf16[]) -> bf16[] {
  %rhs.1 = bf16[] parameter(1)
  %lhs.1 = bf16[] parameter(0)
  ROOT %add.731 = bf16[] add(%lhs.1, %rhs.1), backend_config={"flag_configs":[],"scoped_memory_configs":[],"used_scoped_memory_configs":[],"aliasing_operands":{"lists":[]}}
}

%fused_computation.166.clone.clone (param_0.1571: bf16[4,2048], param_1.1710: s32[]) -> bf16[2048] {
  %param_0.1571 = bf16[4,2048]{1,0:T(4,128)(2,1)} parameter(0)
  %param_1.1710 = s32[]{:T(128)S(6)} parameter(1)
  %constant.1346 = s32[]{:T(128)} constant(0)
  %dynamic_slice.393 = bf16[1,2048]{1,0:T(2,128)(2,1)} dynamic-slice(%param_0.1571, %param_1.1710, %constant.1346), dynamic_slice_sizes={1,2048}, metadata={op_name="jit(train_step)/transpose(jvp(TransformerLinenPure.apply))/TransformerLinenPure/decoder/while/body/dynamic_slice" stack_frame_id=0}, backend_config={"flag_configs":[],"scoped_memory_configs":[],"indices_config":{"index_known_bits":[{"zeroes":"4294967292","ones":"0","bitwidth":"32"},{"zeroes":"4294967295","ones":"0","bitwidth":"32"}],"is_index_aligned":[]},"used_scoped_memory_configs":[]}
  %constant.1347 = bf16[]{:T(256)} constant(-0), metadata={op_name="jit(train_step)/transpose(jvp(TransformerLinenPure.apply))/TransformerLinenPure/decoder/while/body/closed_call/checkpoint/rematted_computation/layers/convert_element_type" stack_frame_id=0}
  ROOT %reduce.173 = bf16[2048]{0:T(1024)(128)(2,1)S(1)} reduce(%dynamic_slice.393, %constant.1347), dimensions={0}, to_apply=%convert_element_type.808.reduce_sub_computation, metadata={op_name="jit(train_step)/transpose(jvp(TransformerLinenPure.apply))/TransformerLinenPure/decoder/while/body/closed_call/checkpoint/rematted_computation/layers/convert_element_type" stack_frame_id=0}
}

%fused_computation.191.clone.1.clone (param_0.1598: f32[4,128]) -> f32[4,128] {
  %param_0.1598 = f32[4,128]{1,0:T(4,128)S(1)} parameter(0)
  %constant.1374 = f32[]{:T(128)} constant(0.00048828125)
  %closed_call.111 = f32[4,128]{1,0:T(4,128)} broadcast(%constant.1374), dimensions={}, metadata={op_name="jit(train_step)/transpose(jvp(TransformerLinenPure.apply))/TransformerLinenPure/decoder/while/body/closed_call" stack_frame_id=0}
  %div.1002 = f32[4,128]{1,0:T(4,128)} multiply(%param_0.1598, %closed_call.111), metadata={op_name="jit(train_step)/transpose(jvp(TransformerLinenPure.apply))/TransformerLinenPure/decoder/while/body/closed_call/checkpoint/rematted_computation/layers/div" stack_frame_id=0}
  %constant.1373 = f32[]{:T(128)} constant(1e-06)
  %closed_call.110 = f32[4,128]{1,0:T(4,128)} broadcast(%constant.1373), dimensions={}, metadata={op_name="jit(train_step)/transpose(jvp(TransformerLinenPure.apply))/TransformerLinenPure/decoder/while/body/closed_call" stack_frame_id=0}
  %add.1022 = f32[4,128]{1,0:T(4,128)} add(%div.1002, %closed_call.110), metadata={op_name="jit(train_step)/transpose(jvp(TransformerLinenPure.apply))/TransformerLinenPure/decoder/while/body/closed_call/checkpoint/rematted_computation/layers/add" stack_frame_id=0}
  ROOT %rsqrt.184 = f32[4,128]{1,0:T(4,128)S(1)} rsqrt(%add.1022), metadata={op_name="jit(train_step)/transpose(jvp(TransformerLinenPure.apply))/TransformerLinenPure/decoder/while/body/closed_call/checkpoint/rematted_computation/layers/rsqrt" stack_frame_id=0}
}

%fused_computation.11.clone.1.clone.clone (param_0.1599: bf16[4,2048,6144], param_1.1729: s32[]) -> bf16[2048,6144,1] {
  %param_0.1599 = bf16[4,2048,6144]{2,1,0:T(8,128)(2,1)} parameter(0)
  %param_1.1729 = s32[]{:T(128)S(6)} parameter(1)
  %constant.1375 = s32[]{:T(128)} constant(0)
  %dynamic_slice.404 = bf16[1,2048,6144]{2,1,0:T(8,128)(2,1)} dynamic-slice(%param_0.1599, %param_1.1729, %constant.1375, %constant.1375), dynamic_slice_sizes={1,2048,6144}, metadata={op_name="jit(train_step)/transpose(jvp(TransformerLinenPure.apply))/TransformerLinenPure/decoder/while/body/dynamic_slice" stack_frame_id=0}, backend_config={"flag_configs":[],"scoped_memory_configs":[],"indices_config":{"index_known_bits":[{"zeroes":"4294967292","ones":"0","bitwidth":"32"},{"zeroes":"4294967295","ones":"0","bitwidth":"32"},{"zeroes":"4294967295","ones":"0","bitwidth":"32"}],"is_index_aligned":[]},"used_scoped_memory_configs":[]}
  ROOT %bitcast.616 = bf16[2048,6144,1]{1,0,2:T(8,128)(2,1)} bitcast(%dynamic_slice.404), metadata={op_name="jit(train_step)/transpose(jvp(TransformerLinenPure.apply))/TransformerLinenPure/decoder/while/body/closed_call/checkpoint/rematted_computation/layers/convert_element_type" stack_frame_id=0}
}

%fused_computation.116.clone.3.clone.clone (param_0.1600: f32[4,128], param_1.1730: bf16[4,128,2048], param_2.1419: bf16[2048]) -> bf16[4,128,2048] {
  %param_1.1730 = bf16[4,128,2048]{2,1,0:T(8,128)(2,1)S(1)} parameter(1)
  %convert_element_type.1604 = f32[4,128,2048]{2,1,0:T(8,128)} convert(%param_1.1730), metadata={op_name="jit(train_step)/transpose(jvp(TransformerLinenPure.apply))/TransformerLinenPure/decoder/while/body/closed_call/checkpoint/rematted_computation/layers/convert_element_type" stack_frame_id=0}
  %param_0.1600 = f32[4,128]{1,0:T(4,128)S(1)} parameter(0)
  %mul.2907 = f32[4,128,2048]{2,1,0:T(8,128)} broadcast(%param_0.1600), dimensions={0,1}, metadata={op_name="jit(train_step)/transpose(jvp(TransformerLinenPure.apply))/TransformerLinenPure/decoder/while/body/closed_call/checkpoint/rematted_computation/layers/mul" stack_frame_id=0}
  %mul.2906 = f32[4,128,2048]{2,1,0:T(8,128)} multiply(%convert_element_type.1604, %mul.2907), metadata={op_name="jit(train_step)/transpose(jvp(TransformerLinenPure.apply))/TransformerLinenPure/decoder/while/body/closed_call/checkpoint/rematted_computation/layers/mul" stack_frame_id=0}
  %convert_element_type.1603 = bf16[4,128,2048]{2,1,0:T(8,128)(2,1)} convert(%mul.2906), metadata={op_name="jit(train_step)/transpose(jvp(TransformerLinenPure.apply))/TransformerLinenPure/decoder/while/body/closed_call/checkpoint/rematted_computation/layers/convert_element_type" stack_frame_id=0}
  %param_2.1419 = bf16[2048]{0:T(1024)(128)(2,1)S(1)} parameter(2)
  %mul.2908 = bf16[4,128,2048]{2,1,0:T(8,128)(2,1)} broadcast(%param_2.1419), dimensions={2}, metadata={op_name="jit(train_step)/transpose(jvp(TransformerLinenPure.apply))/TransformerLinenPure/decoder/while/body/closed_call/checkpoint/rematted_computation/layers/mul" stack_frame_id=0}
  ROOT %mul.2905 = bf16[4,128,2048]{2,1,0:T(8,128)(2,1)} multiply(%convert_element_type.1603, %mul.2908), metadata={op_name="jit(train_step)/transpose(jvp(TransformerLinenPure.apply))/TransformerLinenPure/decoder/while/body/closed_call/checkpoint/rematted_computation/layers/mul" stack_frame_id=0}
}

%fused_computation.23.clone.clone (param_0.1601: bf16[4,2048,6144], param_1.1731: s32[], param_2.1420: f32[4,128], param_3.976: bf16[4,128,2048], param_4.598: bf16[2048]) -> bf16[4,128,6144] {
  %param_2.1420 = f32[4,128]{1,0:T(4,128)S(1)} parameter(2)
  %param_3.976 = bf16[4,128,2048]{2,1,0:T(8,128)(2,1)S(1)} parameter(3)
  %param_4.598 = bf16[2048]{0:T(1024)(128)(2,1)S(1)} parameter(4)
  %fusion.382 = bf16[4,128,2048]{2,1,0:T(8,128)(2,1)} fusion(%param_2.1420, %param_3.976, %param_4.598), kind=kLoop, calls=%fused_computation.116.clone.3.clone.clone, metadata={op_name="jit(train_step)/transpose(jvp(TransformerLinenPure.apply))/TransformerLinenPure/decoder/while/body/closed_call/checkpoint/rematted_computation/layers/mul" stack_frame_id=0}
  %param_0.1601 = bf16[4,2048,6144]{2,1,0:T(8,128)(2,1)} parameter(0)
  %param_1.1731 = s32[]{:T(128)S(6)} parameter(1)
  %fusion.381 = bf16[2048,6144,1]{1,0,2:T(8,128)(2,1)} fusion(%param_0.1601, %param_1.1731), kind=kLoop, calls=%fused_computation.11.clone.1.clone.clone, metadata={op_name="jit(train_step)/transpose(jvp(TransformerLinenPure.apply))/TransformerLinenPure/decoder/while/body/closed_call/checkpoint/rematted_computation/layers/convert_element_type" stack_frame_id=0}
  ROOT %convolution.106 = bf16[4,128,6144]{2,1,0:T(8,128)(2,1)S(1)} convolution(%fusion.382, %fusion.381), window={size=1}, dim_labels=0bf_io0->0bf, metadata={op_name="jit(train_step)/transpose(jvp(TransformerLinenPure.apply))/TransformerLinenPure/decoder/while/body/closed_call/checkpoint/rematted_computation/layers/dot_general" stack_frame_id=0}
}

%fused_computation.14.clone.clone.clone (param_0.1604: bf16[4,2048,6144], param_1.1734: s32[]) -> bf16[2048,6144,1] {
  %param_0.1604 = bf16[4,2048,6144]{2,1,0:T(8,128)(2,1)} parameter(0)
  %param_1.1734 = s32[]{:T(128)S(6)} parameter(1)
  %constant.1377 = s32[]{:T(128)} constant(0)
  %dynamic_slice.406 = bf16[1,2048,6144]{2,1,0:T(8,128)(2,1)} dynamic-slice(%param_0.1604, %param_1.1734, %constant.1377, %constant.1377), dynamic_slice_sizes={1,2048,6144}, metadata={op_name="jit(train_step)/transpose(jvp(TransformerLinenPure.apply))/TransformerLinenPure/decoder/while/body/dynamic_slice" stack_frame_id=0}, backend_config={"flag_configs":[],"scoped_memory_configs":[],"indices_config":{"index_known_bits":[{"zeroes":"4294967292","ones":"0","bitwidth":"32"},{"zeroes":"4294967295","ones":"0","bitwidth":"32"},{"zeroes":"4294967295","ones":"0","bitwidth":"32"}],"is_index_aligned":[]},"used_scoped_memory_configs":[]}
  ROOT %bitcast.619 = bf16[2048,6144,1]{1,0,2:T(8,128)(2,1)} bitcast(%dynamic_slice.406), metadata={op_name="jit(train_step)/transpose(jvp(TransformerLinenPure.apply))/TransformerLinenPure/decoder/while/body/closed_call/checkpoint/rematted_computation/layers/convert_element_type" stack_frame_id=0}
}

%fused_computation.116.clone.2.clone.clone (param_0.1605: f32[4,128], param_1.1735: bf16[4,128,2048], param_2.1422: bf16[2048]) -> bf16[4,128,2048] {
  %param_1.1735 = bf16[4,128,2048]{2,1,0:T(8,128)(2,1)S(1)} parameter(1)
  %convert_element_type.1606 = f32[4,128,2048]{2,1,0:T(8,128)} convert(%param_1.1735), metadata={op_name="jit(train_step)/transpose(jvp(TransformerLinenPure.apply))/TransformerLinenPure/decoder/while/body/closed_call/checkpoint/rematted_computation/layers/convert_element_type" stack_frame_id=0}
  %param_0.1605 = f32[4,128]{1,0:T(4,128)S(1)} parameter(0)
  %mul.2911 = f32[4,128,2048]{2,1,0:T(8,128)} broadcast(%param_0.1605), dimensions={0,1}, metadata={op_name="jit(train_step)/transpose(jvp(TransformerLinenPure.apply))/TransformerLinenPure/decoder/while/body/closed_call/checkpoint/rematted_computation/layers/mul" stack_frame_id=0}
  %mul.2910 = f32[4,128,2048]{2,1,0:T(8,128)} multiply(%convert_element_type.1606, %mul.2911), metadata={op_name="jit(train_step)/transpose(jvp(TransformerLinenPure.apply))/TransformerLinenPure/decoder/while/body/closed_call/checkpoint/rematted_computation/layers/mul" stack_frame_id=0}
  %convert_element_type.1605 = bf16[4,128,2048]{2,1,0:T(8,128)(2,1)} convert(%mul.2910), metadata={op_name="jit(train_step)/transpose(jvp(TransformerLinenPure.apply))/TransformerLinenPure/decoder/while/body/closed_call/checkpoint/rematted_computation/layers/convert_element_type" stack_frame_id=0}
  %param_2.1422 = bf16[2048]{0:T(1024)(128)(2,1)S(1)} parameter(2)
  %mul.2912 = bf16[4,128,2048]{2,1,0:T(8,128)(2,1)} broadcast(%param_2.1422), dimensions={2}, metadata={op_name="jit(train_step)/transpose(jvp(TransformerLinenPure.apply))/TransformerLinenPure/decoder/while/body/closed_call/checkpoint/rematted_computation/layers/mul" stack_frame_id=0}
  ROOT %mul.2909 = bf16[4,128,2048]{2,1,0:T(8,128)(2,1)} multiply(%convert_element_type.1605, %mul.2912), metadata={op_name="jit(train_step)/transpose(jvp(TransformerLinenPure.apply))/TransformerLinenPure/decoder/while/body/closed_call/checkpoint/rematted_computation/layers/mul" stack_frame_id=0}
}

%fused_computation.20.clone.clone (param_0.1606: bf16[4,2048,6144], param_1.1736: s32[], param_2.1423: f32[4,128], param_3.977: bf16[4,128,2048], param_4.599: bf16[2048]) -> bf16[4,128,6144] {
  %param_2.1423 = f32[4,128]{1,0:T(4,128)S(1)} parameter(2)
  %param_3.977 = bf16[4,128,2048]{2,1,0:T(8,128)(2,1)S(1)} parameter(3)
  %param_4.599 = bf16[2048]{0:T(1024)(128)(2,1)S(1)} parameter(4)
  %fusion.386 = bf16[4,128,2048]{2,1,0:T(8,128)(2,1)} fusion(%param_2.1423, %param_3.977, %param_4.599), kind=kLoop, calls=%fused_computation.116.clone.2.clone.clone, metadata={op_name="jit(train_step)/transpose(jvp(TransformerLinenPure.apply))/TransformerLinenPure/decoder/while/body/closed_call/checkpoint/rematted_computation/layers/mul" stack_frame_id=0}
  %param_0.1606 = bf16[4,2048,6144]{2,1,0:T(8,128)(2,1)} parameter(0)
  %param_1.1736 = s32[]{:T(128)S(6)} parameter(1)
  %fusion.385 = bf16[2048,6144,1]{1,0,2:T(8,128)(2,1)} fusion(%param_0.1606, %param_1.1736), kind=kLoop, calls=%fused_computation.14.clone.clone.clone, metadata={op_name="jit(train_step)/transpose(jvp(TransformerLinenPure.apply))/TransformerLinenPure/decoder/while/body/closed_call/checkpoint/rematted_computation/layers/convert_element_type" stack_frame_id=0}
  ROOT %convolution.108 = bf16[4,128,6144]{2,1,0:T(8,128)(2,1)S(1)} convolution(%fusion.386, %fusion.385), window={size=1}, dim_labels=0bf_io0->0bf, metadata={op_name="jit(train_step)/transpose(jvp(TransformerLinenPure.apply))/TransformerLinenPure/decoder/while/body/closed_call/checkpoint/rematted_computation/layers/dot_general" stack_frame_id=0}
}

%fused_computation.12.clone.clone.clone (param_0.1602: bf16[4,6144,2048], param_1.1732: s32[]) -> bf16[6144,2048,1] {
  %param_0.1602 = bf16[4,6144,2048]{2,1,0:T(8,128)(2,1)} parameter(0)
  %param_1.1732 = s32[]{:T(128)S(6)} parameter(1)
  %constant.1376 = s32[]{:T(128)} constant(0)
  %dynamic_slice.405 = bf16[1,6144,2048]{2,1,0:T(8,128)(2,1)} dynamic-slice(%param_0.1602, %param_1.1732, %constant.1376, %constant.1376), dynamic_slice_sizes={1,6144,2048}, metadata={op_name="jit(train_step)/transpose(jvp(TransformerLinenPure.apply))/TransformerLinenPure/decoder/while/body/dynamic_slice" stack_frame_id=0}, backend_config={"flag_configs":[],"scoped_memory_configs":[],"indices_config":{"index_known_bits":[{"zeroes":"4294967292","ones":"0","bitwidth":"32"},{"zeroes":"4294967295","ones":"0","bitwidth":"32"},{"zeroes":"4294967295","ones":"0","bitwidth":"32"}],"is_index_aligned":[]},"used_scoped_memory_configs":[]}
  ROOT %bitcast.618 = bf16[6144,2048,1]{1,0,2:T(8,128)(2,1)} bitcast(%dynamic_slice.405), metadata={op_name="jit(train_step)/transpose(jvp(TransformerLinenPure.apply))/TransformerLinenPure/decoder/while/body/closed_call/checkpoint/rematted_computation/layers/convert_element_type" stack_frame_id=0}
}

%bitcast_fusion.1.clone.clone (bitcast_input.4: bf16[4,128,2048]) -> bf16[4,128,2048] {
  %bitcast_input.4 = bf16[4,128,2048]{2,1,0:T(8,128)(2,1)} parameter(0)
  ROOT %bitcast.617 = bf16[4,128,2048]{2,1,0:T(8,128)(2,1)} bitcast(%bitcast_input.4)
