HloModule jit_train_step, is_scheduled=true, input_output_alias={ {0}: (0, {}, may-alias), {1}: (1, {}, may-alias), {2}: (2, {}, may-alias), {3}: (3, {}, may-alias), {4}: (4, {}, may-alias), {5}: (5, {}, may-alias), {6}: (6, {}, may-alias), {7}: (7, {}, may-alias), {8}: (8, {}, may-alias), {9}: (9, {}, may-alias), {10}: (10, {}, may-alias), {11}: (11, {}, may-alias), {12}: (12, {}, may-alias), {13}: (13, {}, may-alias), {14}: (14, {}, may-alias), {15}: (15, {}, may-alias), {16}: (16, {}, may-alias), {17}: (17, {}, may-alias), {18}: (18, {}, may-alias), {19}: (19, {}, may-alias), {20}: (20, {}, may-alias), {21}: (21, {}, may-alias), {22}: (22, {}, may-alias), {23}: (23, {}, may-alias), {24}: (24, {}, may-alias), {25}: (25, {}, may-alias), {26}: (26, {}, may-alias), {27}: (27, {}, may-alias), {28}: (28, {}, may-alias), {29}: (29, {}, may-alias), {30}: (30, {}, may-alias), {31}: (31, {}, may-alias), {32}: (32, {}, may-alias), {33}: (33, {}, may-alias), {34}: (34, {}, may-alias), {35}: (35, {}, may-alias), {36}: (36, {}, may-alias), {37}: (37, {}, may-alias), {38}: (38, {}, may-alias), {39}: (39, {}, may-alias), {40}: (40, {}, may-alias), {41}: (41, {}, may-alias), {42}: (42, {}, may-alias), {43}: (43, {}, may-alias), {44}: (44, {}, may-alias), {45}: (45, {}, may-alias), {46}: (46, {}, may-alias), {47}: (47, {}, may-alias), {48}: (48, {}, may-alias), {49}: (49, {}, may-alias), {50}: (50, {}, may-alias), {51}: (51, {}, may-alias), {52}: (52, {}, may-alias), {53}: (53, {}, may-alias), {54}: (54, {}, may-alias), {55}: (55, {}, may-alias), {56}: (56, {}, may-alias), {57}: (57, {}, may-alias), {58}: (58, {}, may-alias), {59}: (59, {}, may-alias), {60}: (60, {}, may-alias), {61}: (61, {}, may-alias), {62}: (62, {}, may-alias), {63}: (63, {}, may-alias), {64}: (64, {}, may-alias), {65}: (65, {}, may-alias) }, entry_computation_layout={(f32[2048]{0:T(1024)}, u32[]{:T(128)}, u32[4]{0:T(128)}, u32[]{:T(128)}, u32[4]{0:T(128)}, /*index=5*/u32[]{:T(128)}, u32[4]{0:T(128)}, u32[4]{0:T(128)}, u32[4,4]{1,0:T(4,128)}, u32[4]{0:T(128)}, /*index=10*/u32[4,4]{1,0:T(4,128)}, u32[4]{0:T(128)}, u32[4,4]{1,0:T(4,128)}, f32[512,4,6144]{2,1,0:T(4,128)}, f32[512,4,6144]{2,1,0:T(4,128)}, /*index=15*/f32[6144,4,512]{2,1,0:T(4,128)}, f32[2048,4]{0,1:T(4,128)}, f32[2048,4]{0,1:T(4,128)}, u32[4]{0:T(128)}, u32[4,4]{1,0:T(4,128)}, /*index=20*/u32[4]{0:T(128)}, u32[4,4]{1,0:T(4,128)}, u32[4]{0:T(128)}, u32[4,4]{1,0:T(4,128)}, f32[512,4,8,128]{3,2,1,0:T(8,128)}, /*index=25*/f32[128,4]{0,1:T(4,128)}, f32[16,4,128,512]{3,2,1,0:T(8,128)}, f32[512,4,16,128]{3,2,1,0:T(8,128)}, f32[128,4]{0,1:T(4,128)}, f32[512,4,8,128]{3,2,1,0:T(8,128)}, /*index=30*/u32[]{:T(128)}, u32[4]{0:T(128)}, u32[]{:T(128)}, u32[4]{0:T(128)}, u32[]{:T(128)}, /*index=35*/u32[4]{0:T(128)}, f32[151936,512]{1,0:T(8,128)}, s32[]{:T(128)}, f32[2048]{0:T(1024)}, f32[512,4,6144]{2,1,0:T(4,128)}, /*index=40*/f32[512,4,6144]{2,1,0:T(4,128)}, f32[6144,4,512]{2,1,0:T(4,128)}, f32[2048,4]{0,1:T(4,128)}, f32[2048,4]{0,1:T(4,128)}, f32[512,4,8,128]{3,2,1,0:T(8,128)}, /*index=45*/f32[128,4]{0,1:T(4,128)}, f32[16,4,128,512]{3,2,1,0:T(8,128)}, f32[512,4,16,128]{3,2,1,0:T(8,128)}, f32[128,4]{0,1:T(4,128)}, f32[512,4,8,128]{3,2,1,0:T(8,128)}, /*index=50*/f32[151936,512]{1,0:T(8,128)}, f32[2048]{0:T(1024)}, f32[512,4,6144]{2,1,0:T(4,128)}, f32[512,4,6144]{2,1,0:T(4,128)}, f32[6144,4,512]{2,1,0:T(4,128)}, /*index=55*/f32[2048,4]{0,1:T(4,128)}, f32[2048,4]{0,1:T(4,128)}, f32[512,4,8,128]{3,2,1,0:T(8,128)}, f32[128,4]{0,1:T(4,128)}, f32[16,4,128,512]{3,2,1,0:T(8,128)}, /*index=60*/f32[512,4,16,128]{3,2,1,0:T(8,128)}, f32[128,4]{0,1:T(4,128)}, f32[512,4,8,128]{3,2,1,0:T(8,128)}, f32[151936,512]{1,0:T(8,128)}, s32[]{:T(128)}, /*index=65*/u32[]{:T(128)}, s32[1,128]{1,0:T(1,128)}, s32[1,128]{1,0:T(1,128)}, s32[1,128]{1,0:T(1,128)}, s32[1,128]{1,0:T(1,128)}, /*index=70*/s32[1,128]{1,0:T(1,128)})->(f32[2048]{0:T(1024)}, u32[]{:T(128)}, u32[4]{0:T(128)}, u32[]{:T(128)}, u32[4]{0:T(128)}, /*index=5*/u32[]{:T(128)}, u32[4]{0:T(128)}, u32[4]{0:T(128)}, u32[4,4]{1,0:T(4,128)}, u32[4]{0:T(128)}, /*index=10*/u32[4,4]{1,0:T(4,128)}, u32[4]{0:T(128)}, u32[4,4]{1,0:T(4,128)}, f32[512,4,6144]{2,1,0:T(4,128)}, f32[512,4,6144]{2,1,0:T(4,128)}, /*index=15*/f32[6144,4,512]{2,1,0:T(4,128)}, f32[2048,4]{0,1:T(4,128)}, f32[2048,4]{0,1:T(4,128)}, u32[4]{0:T(128)}, u32[4,4]{1,0:T(4,128)}, /*index=20*/u32[4]{0:T(128)}, u32[4,4]{1,0:T(4,128)}, u32[4]{0:T(128)}, u32[4,4]{1,0:T(4,128)}, f32[512,4,8,128]{3,2,1,0:T(8,128)}, /*index=25*/f32[128,4]{0,1:T(4,128)}, f32[16,4,128,512]{3,2,1,0:T(8,128)}, f32[512,4,16,128]{3,2,1,0:T(8,128)}, f32[128,4]{0,1:T(4,128)}, f32[512,4,8,128]{3,2,1,0:T(8,128)}, /*index=30*/u32[]{:T(128)}, u32[4]{0:T(128)}, u32[]{:T(128)}, u32[4]{0:T(128)}, u32[]{:T(128)}, /*index=35*/u32[4]{0:T(128)}, f32[151936,512]{1,0:T(8,128)}, s32[]{:T(128)}, f32[2048]{0:T(1024)}, f32[512,4,6144]{2,1,0:T(4,128)}, /*index=40*/f32[512,4,6144]{2,1,0:T(4,128)}, f32[6144,4,512]{2,1,0:T(4,128)}, f32[2048,4]{0,1:T(4,128)}, f32[2048,4]{0,1:T(4,128)}, f32[512,4,8,128]{3,2,1,0:T(8,128)}, /*index=45*/f32[128,4]{0,1:T(4,128)}, f32[16,4,128,512]{3,2,1,0:T(8,128)}, f32[512,4,16,128]{3,2,1,0:T(8,128)}, f32[128,4]{0,1:T(4,128)}, f32[512,4,8,128]{3,2,1,0:T(8,128)}, /*index=50*/f32[151936,512]{1,0:T(8,128)}, f32[2048]{0:T(1024)}, f32[512,4,6144]{2,1,0:T(4,128)}, f32[512,4,6144]{2,1,0:T(4,128)}, f32[6144,4,512]{2,1,0:T(4,128)}, /*index=55*/f32[2048,4]{0,1:T(4,128)}, f32[2048,4]{0,1:T(4,128)}, f32[512,4,8,128]{3,2,1,0:T(8,128)}, f32[128,4]{0,1:T(4,128)}, f32[16,4,128,512]{3,2,1,0:T(8,128)}, /*index=60*/f32[512,4,16,128]{3,2,1,0:T(8,128)}, f32[128,4]{0,1:T(4,128)}, f32[512,4,8,128]{3,2,1,0:T(8,128)}, f32[151936,512]{1,0:T(8,128)}, s32[]{:T(128)}, /*index=65*/u32[]{:T(128)}, f32[]{:T(128)}, f32[]{:T(128)}, f32[]{:T(128)}, f32[]{:T(128)}, /*index=70*/f32[]{:T(128)}, f32[]{:T(128)}, f32[]{:T(128)}, f32[]{:T(128)}, f32[]{:T(128)}, /*index=75*/s32[]{:T(128)}, f32[]{:T(128)})}, allow_spmd_sharding_propagation_to_parameters={false,false,false,false,false,false,false,false,false,false,false,false,false,false,false,false,false,false,false,false,false,false,false,false,false,false,false,false,false,false,false,false,false,false,false,false,false,false,false,false,false,false,false,false,false,false,false,false,false,false,false,false,false,false,false,false,false,false,false,false,false,false,false,false,false,false,false,false,false,false,false}, allow_spmd_sharding_propagation_to_output={false,false,false,false,false,false,false,false,false,false,false,false,false,false,false,false,false,false,false,false,false,false,false,false,false,false,false,false,false,false,false,false,false,false,false,false,false,false,false,false,false,false,false,false,false,false,false,false,false,false,false,false,false,false,false,false,false,false,false,false,false,false,false,false,false,false,true,true,true,true,true,true,true,true,true,true,true}, num_partitions=4, frontend_attributes={arg_layout_modes="default;default;default;default;default;default;default;default;default;default;default;default;default;default;default;default;default;default;default;default;default;default;default;default;default;default;default;default;default;default;default;default;default;default;default;default;default;default;default;default;default;default;default;default;default;default;default;default;default;default;default;default;default;default;default;default;default;default;default;default;default;default;default;default;default;default;default;default;default;default;default",arg_memory_spaces="0;0;0;0;0;0;0;0;0;0;0;0;0;0;0;0;0;0;0;0;0;0;0;0;0;0;0;0;0;0;0;0;0;0;0;0;0;0;0;0;0;0;0;0;0;0;0;0;0;0;0;0;0;0;0;0;0;0;0;0;0;0;0;0;0;0;0;0;0;0;0",out_layout_modes="default;default;default;default;default;default;default;default;default;default;default;default;default;default;default;default;default;default;default;default;default;default;default;default;default;default;default;default;default;default;default;default;default;default;default;default;default;default;default;default;default;default;default;default;default;default;default;default;default;default;default;default;default;default;default;default;default;default;default;default;default;default;default;default;default;default;default;default;default;default;default;default;default;default;default;default;default",out_memory_spaces="0;0;0;0;0;0;0;0;0;0;0;0;0;0;0;0;0;0;0;0;0;0;0;0;0;0;0;0;0;0;0;0;0;0;0;0;0;0;0;0;0;0;0;0;0;0;0;0;0;0;0;0;0;0;0;0;0;0;0;0;0;0;0;0;0;0;0;0;0;0;0;0;0;0;0;0;0"}

FileNames

FunctionNames

FileLocations

StackFrames


%fused_computation.478 (param_0.1336: s32[1,128]) -> s32[1,1,128] {
  %param_0.1336 = s32[1,128]{1,0:T(1,128)S(1)} parameter(0)
  %constant.449.clone.9 = s32[]{:T(128)} constant(0)
  %broadcast.982 = s32[1,128]{1,0:T(1,128)} broadcast(%constant.449.clone.9), dimensions={}, metadata={op_name="broadcast.99"}
  %lt.32 = pred[1,128]{1,0:T(4,128)(4,1)} compare(%param_0.1336, %broadcast.982), direction=LT, metadata={op_name="jit(train_step)/jvp()/lt" stack_frame_id=0}
  %constant.461.clone.1 = s32[]{:T(128)} constant(151936)
  %add.941 = s32[1,128]{1,0:T(1,128)} broadcast(%constant.461.clone.1), dimensions={}, metadata={op_name="jit(train_step)/jvp()/add" stack_frame_id=0}
  %add.930 = s32[1,128]{1,0:T(1,128)} add(%param_0.1336, %add.941), metadata={op_name="jit(train_step)/jvp()/add" stack_frame_id=0}
  %select_n.180 = s32[1,128]{1,0:T(1,128)} select(%lt.32, %add.930, %param_0.1336), metadata={op_name="jit(train_step)/jvp()/select_n" stack_frame_id=0}
  ROOT %bitcast.616 = s32[1,1,128]{2,1,0:T(1,128)S(1)} bitcast(%select_n.180)
}

%fused_computation.448 (param_0.1269: s32[512]) -> s32[1024] {
  %constant.1055 = s32[] constant(0), metadata={op_name="jit(train_step)/jvp()/gather" stack_frame_id=0}
  %broadcast.952 = s32[1024]{0:T(1024)} broadcast(%constant.1055), dimensions={}, metadata={op_name="jit(train_step)/jvp()/gather" stack_frame_id=0}
  %param_0.1269 = s32[512]{0:T(512)S(1)} parameter(0)
  %constant.1056 = s32[] constant(2147483647), metadata={op_name="jit(train_step)/jvp()/gather" stack_frame_id=0}
  %pad.57 = s32[1024]{0:T(1024)} pad(%param_0.1269, %constant.1056), padding=0_512, metadata={op_name="jit(train_step)/jvp()/gather" stack_frame_id=0}
  %constant.1054 = s32[] constant(151935), metadata={op_name="jit(train_step)/jvp()/gather" stack_frame_id=0}
  %broadcast.951 = s32[1024]{0:T(1024)} broadcast(%constant.1054), dimensions={}, metadata={op_name="jit(train_step)/jvp()/gather" stack_frame_id=0}
  ROOT %clamp.3 = s32[1024]{0:T(1024)S(1)} clamp(%broadcast.952, %pad.57, %broadcast.951), metadata={op_name="jit(train_step)/jvp()/gather" stack_frame_id=0}
}

%fused_computation (param_0.2: bf16[151936,512], param_1.7: s32[1024]) -> bf16[512,512] {
  %param_0.2 = bf16[151936,512]{1,0:T(8,128)(2,1)} parameter(0)
  %param_1.7 = s32[1024]{0:T(1024)S(1)} parameter(1)
  %custom-call.1 = s32[1024]{0:T(1024)} custom-call(%param_1.7), custom_call_target="AssumeGatherIndicesInBound", operand_layout_constraints={s32[1024]{0:T(1024)}}, metadata={op_name="jit(train_step)/jvp()/gather" stack_frame_id=0}
  %slice.34 = s32[512]{0:T(512)} slice(%custom-call.1), slice={[0:512]}, metadata={op_name="jit(train_step)/jvp()/gather" stack_frame_id=0}
  %reshape.793 = s32[4,128]{1,0:T(4,128)} reshape(%slice.34), metadata={op_name="jit(train_step)/jvp()/gather" stack_frame_id=0}
  %transpose.442 = s32[4,128]{1,0:T(4,128)} transpose(%reshape.793), dimensions={0,1}, metadata={op_name="jit(train_step)/jvp()/gather" stack_frame_id=0}
  %gather.4 = bf16[4,128,512]{2,1,0:T(8,128)(2,1)} gather(%param_0.2, %transpose.442), offset_dims={2}, collapsed_slice_dims={0}, start_index_map={0}, index_vector_dim=2, slice_sizes={1,512}, metadata={op_name="jit(train_step)/jvp()/gather" stack_frame_id=0}
  %transpose.441 = bf16[4,128,512]{2,1,0:T(8,128)(2,1)} transpose(%gather.4), dimensions={0,1,2}, metadata={op_name="jit(train_step)/jvp()/gather" stack_frame_id=0}
  ROOT %reshape.792 = bf16[512,512]{1,0:T(8,128)(2,1)S(1)} reshape(%transpose.441), metadata={op_name="jit(train_step)/jvp()/gather" stack_frame_id=0}
}

%fused_computation.494 (param_0.1517: f32[128,4]) -> bf16[4,128] {
  %param_0.1517 = f32[128,4]{0,1:T(4,128)S(1)} parameter(0)
  %bitcast.757 = f32[4,128]{1,0:T(4,128)} bitcast(%param_0.1517), metadata={op_name="jit(train_step)/jvp()/transpose" stack_frame_id=0}
  ROOT %convert.178 = bf16[4,128]{1,0:T(4,128)(2,1)S(1)} convert(%bitcast.757)
}

%fused_computation.491 (param_0.1515: f32[2048,4]) -> bf16[4,2048] {
  %param_0.1515 = f32[2048,4]{0,1:T(4,128)S(1)} parameter(0)
  %bitcast.755 = f32[4,2048]{1,0:T(4,128)} bitcast(%param_0.1515), metadata={op_name="jit(train_step)/jvp()/transpose" stack_frame_id=0}
  ROOT %convert.172 = bf16[4,2048]{1,0:T(4,128)(2,1)S(1)} convert(%bitcast.755)
}

%fused_computation.486 (param_0.1352: s32[1,128]) -> (f32[1,128,1,1], f32[128]) {
  %param_0.1352 = s32[1,128]{1,0:T(1,128)S(1)} parameter(0)
  %convert_element_type.1325 = f32[1,128]{1,0:T(1,128)} convert(%param_0.1352), metadata={op_name="jit(train_step)/convert_element_type" stack_frame_id=0}
  %bitcast.626 = f32[1,128,1,1]{1,3,2,0:T(1,128)} bitcast(%convert_element_type.1325), metadata={op_name="jit(train_step)/transpose(jvp())/while/body/closed_call/checkpoint/rematted_computation/convert_element_type" stack_frame_id=0}
  %bitcast.627.clone.1 = f32[128]{0:T(128)S(1)} bitcast(%convert_element_type.1325), metadata={op_name="jit(train_step)/convert_element_type" stack_frame_id=0}
  ROOT %tuple.170 = (f32[1,128,1,1]{1,3,2,0:T(1,128)}, f32[128]{0:T(128)S(1)}) tuple(%bitcast.626, %bitcast.627.clone.1)
}

%fused_computation.485 () -> f32[64] {
  %constant.466.clone.1 = f32[]{:T(128)} constant(1e+06)
  %broadcast.975 = f32[64]{0:T(128)} broadcast(%constant.466.clone.1), dimensions={}, metadata={op_name="broadcast.409"}
  %iota.56 = s32[64]{0:T(128)} iota(), iota_dimension=0, metadata={op_name="jit(train_step)/iota" stack_frame_id=0}
  %constant.467.clone.1 = s32[]{:T(128)} constant(2)
  %broadcast.974 = s32[64]{0:T(128)} broadcast(%constant.467.clone.1), dimensions={}, metadata={op_name="broadcast.410"}
  %mul.1960 = s32[64]{0:T(128)} multiply(%iota.56, %broadcast.974), metadata={op_name="jit(train_step)/mul" stack_frame_id=0}
  %convert_element_type.1324 = f32[64]{0:T(128)} convert(%mul.1960), metadata={op_name="jit(train_step)/convert_element_type" stack_frame_id=0}
  %constant.468.clone.1 = f32[]{:T(128)} constant(0.0078125)
  %broadcast.973 = f32[64]{0:T(128)} broadcast(%constant.468.clone.1), dimensions={}, metadata={op_name="broadcast.411"}
  %div.778 = f32[64]{0:T(128)} multiply(%convert_element_type.1324, %broadcast.973), metadata={op_name="jit(train_step)/div" stack_frame_id=0}
  ROOT %pow.36 = f32[64]{0:T(128)S(1)} power(%broadcast.975, %div.778), metadata={op_name="jit(train_step)/pow" stack_frame_id=0}
}

%fused_computation.421 (param_0.1238: f32[128], param_1.1308: f32[64]) -> (bf16[1,128,1,64], bf16[1,128,1,64]) {
  %param_0.1238 = f32[128]{0:T(128)S(1)} parameter(0)
  %div.732 = f32[1,128,1,64]{3,1,2,0:T(8,128)} broadcast(%param_0.1238), dimensions={1}, metadata={op_name="jit(train_step)/div" stack_frame_id=0}
  %param_1.1308 = f32[64]{0:T(128)S(1)} parameter(1)
  %div.738 = f32[1,128,1,64]{3,1,2,0:T(8,128)} broadcast(%param_1.1308), dimensions={3}, metadata={op_name="jit(train_step)/div" stack_frame_id=0}
  %div.729 = f32[1,128,1,64]{3,1,2,0:T(8,128)} divide(%div.732, %div.738), metadata={op_name="jit(train_step)/div" stack_frame_id=0}
  %sin.38 = f32[1,128,1,64]{3,1,2,0:T(8,128)} sine(%div.729), metadata={op_name="jit(train_step)/sin" stack_frame_id=0}
  %convert_element_type.1310 = bf16[1,128,1,64]{3,1,2,0:T(8,128)(2,1)S(1)} convert(%sin.38), metadata={op_name="jit(train_step)/convert_element_type" stack_frame_id=0}
  %cos.41.clone.1 = f32[1,128,1,64]{3,1,2,0:T(8,128)} cosine(%div.729), metadata={op_name="jit(train_step)/cos" stack_frame_id=0}
  %convert_element_type.1309.clone.1 = bf16[1,128,1,64]{3,1,2,0:T(8,128)(2,1)S(1)} convert(%cos.41.clone.1), metadata={op_name="jit(train_step)/convert_element_type" stack_frame_id=0}
  ROOT %tuple.167 = (bf16[1,128,1,64]{3,1,2,0:T(8,128)(2,1)S(1)}, bf16[1,128,1,64]{3,1,2,0:T(8,128)(2,1)S(1)}) tuple(%convert_element_type.1310, %convert_element_type.1309.clone.1)
}

%fused_computation.424 (param_0.1209: bf16[1,128,1,64]) -> bf16[1,128,1,128] {
  %param_0.1209 = bf16[1,128,1,64]{3,1,2,0:T(8,128)(2,1)S(1)} parameter(0)
  %constant.471.clone.2 = bf16[]{:T(256)} constant(-inf)
  %pad.54 = bf16[1,128,1,128]{3,1,2,0:T(8,128)(2,1)} pad(%param_0.1209, %constant.471.clone.2), padding=0_0x0_0x0_0x0_64, metadata={op_name="jit(train_step)/concatenate" stack_frame_id=0}
  %convert.201 = f32[1,128,1,128]{3,1,2,0:T(8,128)} convert(%pad.54)
  %pad.53 = bf16[1,128,1,128]{3,1,2,0:T(8,128)(2,1)} pad(%param_0.1209, %constant.471.clone.2), padding=0_0x0_0x0_0x64_0, metadata={op_name="jit(train_step)/concatenate" stack_frame_id=0}
  %convert.202 = f32[1,128,1,128]{3,1,2,0:T(8,128)} convert(%pad.53)
  %maximum.46 = f32[1,128,1,128]{3,1,2,0:T(8,128)} maximum(%convert.201, %convert.202), metadata={op_name="jit(train_step)/concatenate" stack_frame_id=0}, backend_config={"flag_configs":[],"scoped_memory_configs":[],"used_scoped_memory_configs":[],"float_type_correction_info":{"original_type":"BF16","original_shape":{"element_type":"BF16","dimensions":["1","128","1","128"],"tuple_shapes":[],"layout":{"minor_to_major":["3","1","2","0"],"tiles":[{"dimensions":["8","128"]},{"dimensions":["2","1"]}],"element_size_in_bits":"0","memory_space":"0","dim_level_types":[],"index_primitive_type":"PRIMITIVE_TYPE_INVALID","pointer_primitive_type":"PRIMITIVE_TYPE_INVALID","dim_unique":[],"dim_ordered":[],"dynamic_shape_metadata_prefix_bytes":"0","tail_padding_alignment_in_elements":"1","split_configs":[]},"is_dynamic_dimension":[false,false,false,false]}}}
  ROOT %convert.203 = bf16[1,128,1,128]{3,1,2,0:T(8,128)(2,1)S(1)} convert(%maximum.46)
}

%fused_computation.425 (param_0.1211: bf16[1,128,1,64]) -> bf16[1,128,1,128] {
  %param_0.1211 = bf16[1,128,1,64]{3,1,2,0:T(8,128)(2,1)S(1)} parameter(0)
  %constant.471.clone.1 = bf16[]{:T(256)} constant(-inf)
  %pad.56 = bf16[1,128,1,128]{3,1,2,0:T(8,128)(2,1)} pad(%param_0.1211, %constant.471.clone.1), padding=0_0x0_0x0_0x0_64, metadata={op_name="jit(train_step)/concatenate" stack_frame_id=0}
  %convert.204 = f32[1,128,1,128]{3,1,2,0:T(8,128)} convert(%pad.56)
  %pad.55 = bf16[1,128,1,128]{3,1,2,0:T(8,128)(2,1)} pad(%param_0.1211, %constant.471.clone.1), padding=0_0x0_0x0_0x64_0, metadata={op_name="jit(train_step)/concatenate" stack_frame_id=0}
  %convert.205 = f32[1,128,1,128]{3,1,2,0:T(8,128)} convert(%pad.55)
  %maximum.47 = f32[1,128,1,128]{3,1,2,0:T(8,128)} maximum(%convert.204, %convert.205), metadata={op_name="jit(train_step)/concatenate" stack_frame_id=0}, backend_config={"flag_configs":[],"scoped_memory_configs":[],"used_scoped_memory_configs":[],"float_type_correction_info":{"original_type":"BF16","original_shape":{"element_type":"BF16","dimensions":["1","128","1","128"],"tuple_shapes":[],"layout":{"minor_to_major":["3","1","2","0"],"tiles":[{"dimensions":["8","128"]},{"dimensions":["2","1"]}],"element_size_in_bits":"0","memory_space":"0","dim_level_types":[],"index_primitive_type":"PRIMITIVE_TYPE_INVALID","pointer_primitive_type":"PRIMITIVE_TYPE_INVALID","dim_unique":[],"dim_ordered":[],"dynamic_shape_metadata_prefix_bytes":"0","tail_padding_alignment_in_elements":"1","split_configs":[]},"is_dynamic_dimension":[false,false,false,false]}}}
  ROOT %convert.206 = bf16[1,128,1,128]{3,1,2,0:T(8,128)(2,1)S(1)} convert(%maximum.47)
}

%fused_computation.493 (param_0.1516: f32[128,4]) -> bf16[4,128] {
  %param_0.1516 = f32[128,4]{0,1:T(4,128)S(1)} parameter(0)
  %bitcast.756 = f32[4,128]{1,0:T(4,128)} bitcast(%param_0.1516), metadata={op_name="jit(train_step)/jvp()/transpose" stack_frame_id=0}
  ROOT %convert.176 = bf16[4,128]{1,0:T(4,128)(2,1)S(1)} convert(%bitcast.756)
}

%fused_computation.387 (param_0.1098: f32[512,4,8,128]) -> bf16[4,512,8,128] {
  %param_0.1098 = f32[512,4,8,128]{3,2,1,0:T(8,128)S(1)} parameter(0)
  %copy.213 = bf16[512,4,8,128]{3,0,2,1:T(8,128)(2,1)} copy(%param_0.1098), sharding={devices=[4,1,1,1]<=[4]}, metadata={op_name="state[\'model\'][\'decoder\'][\'layers\'][\'self_attention\'][\'value\'][\'kernel\'].value"}
  ROOT %bitcast.568 = bf16[4,512,8,128]{3,1,2,0:T(8,128)(2,1)} bitcast(%copy.213), metadata={op_name="jit(train_step)/jvp()/transpose" stack_frame_id=0}
}

%fused_computation.370 (param_0.1066: f32[16,4,128,512]) -> bf16[4,16,128,512] {
  %param_0.1066 = f32[16,4,128,512]{3,2,1,0:T(8,128)S(1)} parameter(0)
  %copy.212 = bf16[16,4,128,512]{3,2,0,1:T(8,128)(2,1)} copy(%param_0.1066), sharding={devices=[1,1,1,4]<=[4]}, metadata={op_name="state[\'model\'][\'decoder\'][\'layers\'][\'self_attention\'][\'out\'][\'kernel\'].value"}
  ROOT %bitcast.559 = bf16[4,16,128,512]{3,2,1,0:T(8,128)(2,1)} bitcast(%copy.212), metadata={op_name="jit(train_step)/jvp()/transpose" stack_frame_id=0}
}

%fused_computation.492 (param_0.1514: f32[2048,4]) -> bf16[4,2048] {
  %param_0.1514 = f32[2048,4]{0,1:T(4,128)S(1)} parameter(0)
  %bitcast.754 = f32[4,2048]{1,0:T(4,128)} bitcast(%param_0.1514), metadata={op_name="jit(train_step)/jvp()/transpose" stack_frame_id=0}
  ROOT %convert.174 = bf16[4,2048]{1,0:T(4,128)(2,1)S(1)} convert(%bitcast.754)
}

%fused_computation.347 (param_0.1017: f32[512,4,6144]) -> bf16[4,512,6144] {
  %param_0.1017 = f32[512,4,6144]{2,1,0:T(4,128)} parameter(0)
  %copy.211 = bf16[512,4,6144]{2,0,1:T(8,128)(2,1)} copy(%param_0.1017), sharding={devices=[4,1,1]<=[4]}, metadata={op_name="state[\'model\'][\'decoder\'][\'layers\'][\'mlp\'][\'wi_0\'][\'kernel\'].value"}
  ROOT %bitcast.547 = bf16[4,512,6144]{2,1,0:T(8,128)(2,1)} bitcast(%copy.211), metadata={op_name="jit(train_step)/jvp()/transpose" stack_frame_id=0}
}

%fused_computation.346 (param_0.1015: f32[512,4,6144]) -> bf16[4,512,6144] {
  %param_0.1015 = f32[512,4,6144]{2,1,0:T(4,128)} parameter(0)
  %copy.210 = bf16[512,4,6144]{2,0,1:T(8,128)(2,1)} copy(%param_0.1015), sharding={devices=[4,1,1]<=[4]}, metadata={op_name="state[\'model\'][\'decoder\'][\'layers\'][\'mlp\'][\'wi_1\'][\'kernel\'].value"}
  ROOT %bitcast.546 = bf16[4,512,6144]{2,1,0:T(8,128)(2,1)} bitcast(%copy.210), metadata={op_name="jit(train_step)/jvp()/transpose" stack_frame_id=0}
}

%fused_computation.345 (param_0.1013: f32[6144,4,512]) -> bf16[4,6144,512] {
  %param_0.1013 = f32[6144,4,512]{2,1,0:T(4,128)S(1)} parameter(0)
  %copy.209 = bf16[6144,4,512]{2,0,1:T(8,128)(2,1)} copy(%param_0.1013), sharding={devices=[1,1,4]<=[4]}, metadata={op_name="state[\'model\'][\'decoder\'][\'layers\'][\'mlp\'][\'wo\'][\'kernel\'].value"}
  ROOT %bitcast.545 = bf16[4,6144,512]{2,1,0:T(8,128)(2,1)} bitcast(%copy.209), metadata={op_name="jit(train_step)/jvp()/transpose" stack_frame_id=0}
}

%fused_computation.60.clone.1 (param_0.1806: bf16[4,1,128,2048], param_1.1890: s32[], param_2.1442: bf16[1,128,2048]) -> bf16[4,1,128,2048] {
  %param_0.1806 = bf16[4,1,128,2048]{3,2,1,0:T(8,128)(2,1)} parameter(0)
  %param_2.1442 = bf16[1,128,2048]{2,1,0:T(8,128)(2,1)S(1)} parameter(2)
  %bitcast.1011 = bf16[1,1,128,2048]{3,2,1,0:T(8,128)(2,1)} bitcast(%param_2.1442), metadata={op_name="jit(train_step)/jvp()/while/body/jit(dynamic_update_index_in_dim)/broadcast_in_dim" stack_frame_id=0}
  %param_1.1890 = s32[]{:T(128)S(6)} parameter(1)
  %constant.420.clone.35 = s32[]{:T(128)} constant(0)
  ROOT %dynamic-update-slice.32 = bf16[4,1,128,2048]{3,2,1,0:T(8,128)(2,1)} dynamic-update-slice(%param_0.1806, %bitcast.1011, %param_1.1890, %constant.420.clone.35, %constant.420.clone.35, /*index=5*/%constant.420.clone.35), metadata={op_name="jit(train_step)/jvp()/while/body/jit(dynamic_update_index_in_dim)/dynamic_update_slice" stack_frame_id=0}, backend_config={"flag_configs":[],"scoped_memory_configs":[],"indices_config":{"index_known_bits":[{"zeroes":"4294967292","ones":"0","bitwidth":"32"},{"zeroes":"4294967295","ones":"0","bitwidth":"32"},{"zeroes":"4294967295","ones":"0","bitwidth":"32"},{"zeroes":"4294967295","ones":"0","bitwidth":"32"}],"is_index_aligned":[]},"used_scoped_memory_configs":[]}
}

%fused_computation.22.clone.1 (param_0.1831: bf16[4,16,128,512], param_1.1906: s32[]) -> bf16[1,16,128,512] {
  %param_0.1831 = bf16[4,16,128,512]{3,2,1,0:T(8,128)(2,1)} parameter(0)
  %param_1.1906 = s32[]{:T(128)S(6)} parameter(1)
  %constant.420.clone.41 = s32[]{:T(128)} constant(0)
  ROOT %dynamic-slice.210 = bf16[1,16,128,512]{3,2,1,0:T(8,128)(2,1)S(1)} dynamic-slice(%param_0.1831, %param_1.1906, %constant.420.clone.41, %constant.420.clone.41, %constant.420.clone.41), dynamic_slice_sizes={1,16,128,512}, metadata={op_name="jit(train_step)/jvp()/while/body/jit(dynamic_index_in_dim)/dynamic_slice" stack_frame_id=0}, backend_config={"flag_configs":[],"scoped_memory_configs":[],"indices_config":{"index_known_bits":[{"zeroes":"4294967292","ones":"0","bitwidth":"32"},{"zeroes":"4294967295","ones":"0","bitwidth":"32"},{"zeroes":"4294967295","ones":"0","bitwidth":"32"},{"zeroes":"4294967295","ones":"0","bitwidth":"32"}],"is_index_aligned":[]},"used_scoped_memory_configs":[]}
}

%fused_computation.23.clone.1 (param_0.1823: bf16[4,512,16,128], param_1.1901: s32[]) -> bf16[1,512,16,128] {
  %param_0.1823 = bf16[4,512,16,128]{1,3,2,0:T(8,128)(2,1)S(1)} parameter(0)
  %param_1.1901 = s32[]{:T(128)S(6)} parameter(1)
  %constant.420.clone.40 = s32[]{:T(128)} constant(0)
  ROOT %dynamic-slice.209 = bf16[1,512,16,128]{1,3,2,0:T(8,128)(2,1)S(1)} dynamic-slice(%param_0.1823, %param_1.1901, %constant.420.clone.40, %constant.420.clone.40, %constant.420.clone.40), dynamic_slice_sizes={1,512,16,128}, metadata={op_name="jit(train_step)/jvp()/while/body/jit(dynamic_index_in_dim)/dynamic_slice" stack_frame_id=0}, backend_config={"flag_configs":[],"scoped_memory_configs":[],"indices_config":{"index_known_bits":[{"zeroes":"4294967292","ones":"0","bitwidth":"32"},{"zeroes":"4294967295","ones":"0","bitwidth":"32"},{"zeroes":"4294967295","ones":"0","bitwidth":"32"},{"zeroes":"4294967295","ones":"0","bitwidth":"32"}],"is_index_aligned":[]},"used_scoped_memory_configs":[]}
}

%region_2.3 (reduce_sum.143: f32[], reduce_sum.144: f32[]) -> f32[] {
  %reduce_sum.143 = f32[]{:T(128)} parameter(0), metadata={op_name="jit(train_step)/jvp()/while/body/closed_call/reduce_sum"}
  %reduce_sum.144 = f32[]{:T(128)} parameter(1), metadata={op_name="jit(train_step)/jvp()/while/body/closed_call/reduce_sum"}
  ROOT %reduce_sum.145 = f32[]{:T(128)} add(%reduce_sum.143, %reduce_sum.144), metadata={op_name="reduce_sum" stack_frame_id=0}, backend_config={"flag_configs":[],"scoped_memory_configs":[],"used_scoped_memory_configs":[],"aliasing_operands":{"lists":[]}}
}

%fused_computation.38.clone.1 (param_0.1808: bf16[1,128,2048]) -> f32[128] {
  %param_0.1808 = bf16[1,128,2048]{2,1,0:T(8,128)(2,1)S(1)} parameter(0)
  %convert_element_type.1516 = f32[1,128,2048]{2,1,0:T(8,128)} convert(%param_0.1808), metadata={op_name="jit(train_step)/jvp()/while/body/closed_call/convert_element_type" stack_frame_id=0}
  %square.281 = f32[1,128,2048]{2,1,0:T(8,128)} multiply(%convert_element_type.1516, %convert_element_type.1516), metadata={op_name="jit(train_step)/jvp()/while/body/closed_call/square" stack_frame_id=0}
  %constant.421.clone.13 = f32[]{:T(128)} constant(0)
  ROOT %reduce.276 = f32[128]{0:T(128)S(1)} reduce(%square.281, %constant.421.clone.13), dimensions={0,2}, to_apply=%region_2.3, metadata={op_name="jit(train_step)/jvp()/while/body/closed_call/reduce_sum" stack_frame_id=0}
}

%fused_computation.83.clone.1 (param_0.1809: f32[128]) -> f32[128] {
  %param_0.1809 = f32[128]{0:T(128)S(1)} parameter(0)
  %constant.422.clone.9 = f32[]{:T(128)} constant(0.00048828125)
  %broadcast.1093 = f32[128]{0:T(128)} broadcast(%constant.422.clone.9), dimensions={}, metadata={op_name="jit(train_step)/jvp()/while/body/closed_call" stack_frame_id=0}
  %div.1030 = f32[128]{0:T(128)} multiply(%param_0.1809, %broadcast.1093), metadata={op_name="jit(train_step)/jvp()/while/body/closed_call/div" stack_frame_id=0}
  %constant.423.clone.13 = f32[]{:T(128)} constant(1e-06)
  %broadcast.1092 = f32[128]{0:T(128)} broadcast(%constant.423.clone.13), dimensions={}, metadata={op_name="jit(train_step)/jvp()/while/body/closed_call" stack_frame_id=0}
  %add.1061 = f32[128]{0:T(128)} add(%div.1030, %broadcast.1092), metadata={op_name="jit(train_step)/jvp()/while/body/closed_call/add" stack_frame_id=0}
  ROOT %rsqrt.222 = f32[128]{0:T(128)S(1)} rsqrt(%add.1061), metadata={op_name="jit(train_step)/jvp()/while/body/closed_call/rsqrt" stack_frame_id=0}
}

%convert_element_type.932.reduce_sub_computation (lhs.3: bf16[], rhs.3: bf16[]) -> bf16[] {
  %lhs.3 = bf16[] parameter(0)
  %rhs.3 = bf16[] parameter(1)
  ROOT %add.795 = bf16[] add(%lhs.3, %rhs.3), backend_config={"flag_configs":[],"scoped_memory_configs":[],"used_scoped_memory_configs":[],"aliasing_operands":{"lists":[]}}
}

%convert_element_type.920.reduce_sub_computation (lhs.2: bf16[], rhs.2: bf16[]) -> bf16[] {
  %lhs.2 = bf16[] parameter(0)
  %rhs.2 = bf16[] parameter(1)
  ROOT %add.794 = bf16[] add(%lhs.2, %rhs.2), backend_config={"flag_configs":[],"scoped_memory_configs":[],"used_scoped_memory_configs":[],"aliasing_operands":{"lists":[]}}
}

%fused_computation.73.clone.1 (param_0.1807: bf16[4,2048], param_1.1891: s32[], param_2.1443: bf16[4,2048]) -> (bf16[2048], bf16[2048]) {
  %param_0.1807 = bf16[4,2048]{1,0:T(4,128)(2,1)S(1)} parameter(0)
  %param_1.1891 = s32[]{:T(128)S(6)} parameter(1)
  %constant.420.clone.36 = s32[]{:T(128)} constant(0)
  %dynamic_slice.301 = bf16[1,2048]{1,0:T(2,128)(2,1)} dynamic-slice(%param_0.1807, %param_1.1891, %constant.420.clone.36), dynamic_slice_sizes={1,2048}, metadata={op_name="jit(train_step)/jvp()/while/body/jit(dynamic_index_in_dim)/dynamic_slice" stack_frame_id=0}, backend_config={"flag_configs":[],"scoped_memory_configs":[],"indices_config":{"index_known_bits":[{"zeroes":"4294967292","ones":"0","bitwidth":"32"},{"zeroes":"4294967295","ones":"0","bitwidth":"32"}],"is_index_aligned":[]},"used_scoped_memory_configs":[]}
  %constant.1134 = bf16[]{:T(256)} constant(-0), metadata={op_name="jit(train_step)/jvp()/while/body/closed_call/convert_element_type" stack_frame_id=0}
  %reduce.275 = bf16[2048]{0:T(1024)(128)(2,1)S(1)} reduce(%dynamic_slice.301, %constant.1134), dimensions={0}, to_apply=%convert_element_type.932.reduce_sub_computation, metadata={op_name="jit(train_step)/jvp()/while/body/closed_call/convert_element_type" stack_frame_id=0}
  %param_2.1443 = bf16[4,2048]{1,0:T(4,128)(2,1)S(1)} parameter(2)
  %dynamic_slice.272.clone.3 = bf16[1,2048]{1,0:T(2,128)(2,1)} dynamic-slice(%param_2.1443, %param_1.1891, %constant.420.clone.36), dynamic_slice_sizes={1,2048}, metadata={op_name="jit(train_step)/jvp()/while/body/jit(dynamic_index_in_dim)/dynamic_slice" stack_frame_id=0}, backend_config={"flag_configs":[],"scoped_memory_configs":[],"indices_config":{"index_known_bits":[{"zeroes":"4294967292","ones":"0","bitwidth":"32"},{"zeroes":"4294967295","ones":"0","bitwidth":"32"}],"is_index_aligned":[]},"used_scoped_memory_configs":[]}
  %reduce.181.clone.3 = bf16[2048]{0:T(1024)(128)(2,1)S(1)} reduce(%dynamic_slice.272.clone.3, %constant.1134), dimensions={0}, to_apply=%convert_element_type.920.reduce_sub_computation, metadata={op_name="jit(train_step)/jvp()/while/body/closed_call/convert_element_type" stack_frame_id=0}
  ROOT %tuple.240 = (bf16[2048]{0:T(1024)(128)(2,1)S(1)}, bf16[2048]{0:T(1024)(128)(2,1)S(1)}) tuple(%reduce.275, %reduce.181.clone.3)
}

%fused_computation.53.clone.2.clone.clone.clone.1 (param_0.1825: bf16[1,128,2048], param_1.1902: f32[128], param_2.1451: bf16[2048]) -> bf16[128,2048,1] {
  %param_2.1451 = bf16[2048]{0:T(1024)(128)(2,1)S(1)} parameter(2)
  %dot_general.636 = bf16[1,128,2048]{2,1,0:T(8,128)(2,1)} broadcast(%param_2.1451), dimensions={2}, metadata={op_name="jit(train_step)/jvp()/while/body/closed_call/...k,k->...k/dot_general" stack_frame_id=0}
  %convert.374 = f32[1,128,2048]{2,1,0:T(8,128)} convert(%dot_general.636)
  %param_0.1825 = bf16[1,128,2048]{2,1,0:T(8,128)(2,1)S(1)} parameter(0)
  %convert_element_type.1524 = f32[1,128,2048]{2,1,0:T(8,128)} convert(%param_0.1825), metadata={op_name="jit(train_step)/jvp()/while/body/closed_call/convert_element_type" stack_frame_id=0}
  %param_1.1902 = f32[128]{0:T(128)S(1)} parameter(1)
  %mul.2392 = f32[1,128,2048]{2,1,0:T(8,128)} broadcast(%param_1.1902), dimensions={1}, metadata={op_name="jit(train_step)/jvp()/while/body/closed_call/mul" stack_frame_id=0}
  %mul.2391 = f32[1,128,2048]{2,1,0:T(8,128)} multiply(%convert_element_type.1524, %mul.2392), metadata={op_name="jit(train_step)/jvp()/while/body/closed_call/mul" stack_frame_id=0}
  %convert_element_type.1523 = bf16[1,128,2048]{2,1,0:T(8,128)(2,1)} convert(%mul.2391), metadata={op_name="jit(train_step)/jvp()/while/body/closed_call/convert_element_type" stack_frame_id=0}
  %convert.375 = f32[1,128,2048]{2,1,0:T(8,128)} convert(%convert_element_type.1523)
  %dot_general.635 = f32[1,128,2048]{2,1,0:T(8,128)} multiply(%convert.374, %convert.375), metadata={op_name="jit(train_step)/jvp()/while/body/closed_call/...k,k->...k/dot_general" stack_frame_id=0}, backend_config={"flag_configs":[],"scoped_memory_configs":[],"used_scoped_memory_configs":[],"float_type_correction_info":{"original_type":"BF16","original_shape":{"element_type":"BF16","dimensions":["1","128","2048"],"tuple_shapes":[],"layout":{"minor_to_major":["2","1","0"],"tiles":[{"dimensions":["8","128"]},{"dimensions":["2","1"]}],"element_size_in_bits":"0","memory_space":"0","dim_level_types":[],"index_primitive_type":"PRIMITIVE_TYPE_INVALID","pointer_primitive_type":"PRIMITIVE_TYPE_INVALID","dim_unique":[],"dim_ordered":[],"dynamic_shape_metadata_prefix_bytes":"0","tail_padding_alignment_in_elements":"1","split_configs":[]},"is_dynamic_dimension":[false,false,false]}}}
  %convert.376 = bf16[1,128,2048]{2,1,0:T(8,128)(2,1)} convert(%dot_general.635)
  ROOT %bitcast.1020 = bf16[128,2048,1]{1,0,2:T(8,128)(2,1)} bitcast(%convert.376)
}

%fused_computation.17.clone.clone.clone.1 (param_0.1824: bf16[1,2048,16,128]) -> bf16[2048,16,128] {
  %param_0.1824 = bf16[1,2048,16,128]{1,3,2,0:T(8,128)(2,1)S(1)} parameter(0)
  ROOT %bitcast.1019 = bf16[2048,16,128]{0,2,1:T(8,128)(2,1)} bitcast(%param_0.1824), metadata={op_name="jit(train_step)/jvp()/while/body/closed_call/dot_general" stack_frame_id=0}
}

%region_3.4 (reduce_sum.146: f32[], reduce_sum.150: f32[]) -> f32[] {
  %reduce_sum.146 = f32[]{:T(128)} parameter(0), metadata={op_name="jit(train_step)/jvp()/while/body/closed_call/reduce_sum"}
  %reduce_sum.150 = f32[]{:T(128)} parameter(1), metadata={op_name="jit(train_step)/jvp()/while/body/closed_call/reduce_sum"}
  ROOT %reduce_sum.151 = f32[]{:T(128)} add(%reduce_sum.146, %reduce_sum.150), metadata={op_name="reduce_sum" stack_frame_id=0}, backend_config={"flag_configs":[],"scoped_memory_configs":[],"used_scoped_memory_configs":[],"aliasing_operands":{"lists":[]}}
}

%fused_computation.44.clone.1 (param_0.1826: bf16[1,2048,16,128], param_1.1903: bf16[1,128,2048], param_2.1452: f32[128], param_3.954: bf16[2048]) -> (f32[128,16], bf16[128,16,128]) {
  %param_1.1903 = bf16[1,128,2048]{2,1,0:T(8,128)(2,1)S(1)} parameter(1)
  %param_2.1452 = f32[128]{0:T(128)S(1)} parameter(2)
  %param_3.954 = bf16[2048]{0:T(1024)(128)(2,1)S(1)} parameter(3)
  %fusion.91.clone.3 = bf16[128,2048,1]{1,0,2:T(8,128)(2,1)} fusion(%param_1.1903, %param_2.1452, %param_3.954), kind=kLoop, calls=%fused_computation.53.clone.2.clone.clone.clone.1
  %param_0.1826 = bf16[1,2048,16,128]{1,3,2,0:T(8,128)(2,1)S(1)} parameter(0)
  %fusion.22.clone.3 = bf16[2048,16,128]{0,2,1:T(8,128)(2,1)} fusion(%param_0.1826), kind=kLoop, calls=%fused_computation.17.clone.clone.clone.1, metadata={op_name="jit(train_step)/jvp()/while/body/closed_call/dot_general" stack_frame_id=0}
  %convolution.34.clone.3 = bf16[128,16,128]{2,0,1:T(8,128)(2,1)S(1)} convolution(%fusion.91.clone.3, %fusion.22.clone.3), window={size=16 pad=15_15 rhs_reversal=1}, dim_labels=bf0_i0o->b0f, metadata={op_name="jit(train_step)/jvp()/while/body/closed_call/dot_general" stack_frame_id=0}
  %convert_element_type.1525 = f32[128,16,128]{2,0,1:T(8,128)} convert(%convolution.34.clone.3), metadata={op_name="jit(train_step)/jvp()/while/body/closed_call/convert_element_type" stack_frame_id=0}
  %bitcast.1021 = f32[1,128,16,128]{3,1,2,0:T(8,128)} bitcast(%convert_element_type.1525), metadata={op_name="jit(train_step)/jvp()/while/body/closed_call/convert_element_type" stack_frame_id=0}
  %square.283 = f32[1,128,16,128]{3,1,2,0:T(8,128)} multiply(%bitcast.1021, %bitcast.1021), metadata={op_name="jit(train_step)/jvp()/while/body/closed_call/square" stack_frame_id=0}
  %constant.421.clone.15 = f32[]{:T(128)} constant(0)
  %reduce.278 = f32[128,16]{0,1:T(8,128)S(1)} reduce(%square.283, %constant.421.clone.15), dimensions={0,3}, to_apply=%region_3.4, metadata={op_name="jit(train_step)/jvp()/while/body/closed_call/reduce_sum" stack_frame_id=0}
  ROOT %tuple.244 = (f32[128,16]{0,1:T(8,128)S(1)}, bf16[128,16,128]{2,0,1:T(8,128)(2,1)S(1)}) tuple(%reduce.278, %convolution.34.clone.3)
}

%fused_computation.72.clone.1 (param_0.1827: f32[128,16]) -> f32[128,16] {
  %param_0.1827 = f32[128,16]{0,1:T(8,128)S(1)} parameter(0)
  %constant.424.clone.10 = f32[]{:T(128)} constant(0.0078125)
  %broadcast.1097 = f32[128,16]{0,1:T(8,128)} broadcast(%constant.424.clone.10), dimensions={}, metadata={op_name="jit(train_step)/jvp()/while/body/closed_call/div" stack_frame_id=0}
  %div.1032 = f32[128,16]{0,1:T(8,128)} multiply(%param_0.1827, %broadcast.1097), metadata={op_name="jit(train_step)/jvp()/while/body/closed_call/div" stack_frame_id=0}
  %constant.423.clone.15 = f32[]{:T(128)} constant(1e-06)
  %broadcast.1096 = f32[128,16]{0,1:T(8,128)} broadcast(%constant.423.clone.15), dimensions={}, metadata={op_name="jit(train_step)/jvp()/while/body/closed_call/add" stack_frame_id=0}
  %add.1064 = f32[128,16]{0,1:T(8,128)} add(%div.1032, %broadcast.1096), metadata={op_name="jit(train_step)/jvp()/while/body/closed_call/add" stack_frame_id=0}
  ROOT %rsqrt.224 = f32[128,16]{0,1:T(8,128)S(1)} rsqrt(%add.1064), metadata={op_name="jit(train_step)/jvp()/while/body/closed_call/rsqrt" stack_frame_id=0}
}

%fused_computation.79.clone.1 (param_0.1814: bf16[4,128], param_1.1895: s32[], param_2.1446: bf16[4,128]) -> (bf16[128], bf16[128]) {
  %param_0.1814 = bf16[4,128]{1,0:T(4,128)(2,1)S(1)} parameter(0)
  %param_1.1895 = s32[]{:T(128)S(6)} parameter(1)
  %constant.420.clone.38 = s32[]{:T(128)} constant(0)
  %dynamic_slice.302 = bf16[1,128]{1,0:T(2,128)(2,1)} dynamic-slice(%param_0.1814, %param_1.1895, %constant.420.clone.38), dynamic_slice_sizes={1,128}, metadata={op_name="jit(train_step)/jvp()/while/body/jit(dynamic_index_in_dim)/dynamic_slice" stack_frame_id=0}, backend_config={"flag_configs":[],"scoped_memory_configs":[],"indices_config":{"index_known_bits":[{"zeroes":"4294967292","ones":"0","bitwidth":"32"},{"zeroes":"4294967295","ones":"0","bitwidth":"32"}],"is_index_aligned":[]},"used_scoped_memory_configs":[]}
  %bitcast.1015 = bf16[128]{0:T(256)(128)(2,1)S(1)} bitcast(%dynamic_slice.302), metadata={op_name="jit(train_step)/jvp()/while/body/closed_call/convert_element_type" stack_frame_id=0}
  %param_2.1446 = bf16[4,128]{1,0:T(4,128)(2,1)S(1)} parameter(2)
  %dynamic_slice.282.clone.3 = bf16[1,128]{1,0:T(2,128)(2,1)} dynamic-slice(%param_2.1446, %param_1.1895, %constant.420.clone.38), dynamic_slice_sizes={1,128}, metadata={op_name="jit(train_step)/jvp()/while/body/jit(dynamic_index_in_dim)/dynamic_slice" stack_frame_id=0}, backend_config={"flag_configs":[],"scoped_memory_configs":[],"indices_config":{"index_known_bits":[{"zeroes":"4294967292","ones":"0","bitwidth":"32"},{"zeroes":"4294967295","ones":"0","bitwidth":"32"}],"is_index_aligned":[]},"used_scoped_memory_configs":[]}
  %bitcast.278.clone.3 = bf16[128]{0:T(256)(128)(2,1)S(1)} bitcast(%dynamic_slice.282.clone.3), metadata={op_name="jit(train_step)/jvp()/while/body/closed_call/convert_element_type" stack_frame_id=0}
  ROOT %tuple.241 = (bf16[128]{0:T(256)(128)(2,1)S(1)}, bf16[128]{0:T(256)(128)(2,1)S(1)}) tuple(%bitcast.1015, %bitcast.278.clone.3)
}

%fused_computation.49.clone.2 (param_0.1828: bf16[128,16,128], param_1.1904: f32[128,16], param_2.1453: bf16[128]) -> bf16[1,128,16,128] {
  %param_2.1453 = bf16[128]{0:T(256)(128)(2,1)S(1)} parameter(2)
  %dot_general.638 = bf16[1,128,16,128]{3,1,2,0:T(8,128)(2,1)} broadcast(%param_2.1453), dimensions={3}, metadata={op_name="jit(train_step)/jvp()/while/body/closed_call/...k,k->...k/dot_general" stack_frame_id=0}
  %convert.387 = f32[1,128,16,128]{3,1,2,0:T(8,128)} convert(%dot_general.638)
  %param_0.1828 = bf16[128,16,128]{2,0,1:T(8,128)(2,1)S(1)} parameter(0)
  %convert_element_type.1527 = f32[128,16,128]{2,0,1:T(8,128)} convert(%param_0.1828), metadata={op_name="jit(train_step)/jvp()/while/body/closed_call/convert_element_type" stack_frame_id=0}
  %bitcast.1022 = f32[1,128,16,128]{3,1,2,0:T(8,128)} bitcast(%convert_element_type.1527), metadata={op_name="jit(train_step)/jvp()/while/body/closed_call/convert_element_type" stack_frame_id=0}
  %param_1.1904 = f32[128,16]{0,1:T(8,128)S(1)} parameter(1)
  %mul.2394 = f32[1,128,16,128]{3,1,2,0:T(8,128)} broadcast(%param_1.1904), dimensions={1,2}, metadata={op_name="jit(train_step)/jvp()/while/body/closed_call/mul" stack_frame_id=0}
  %mul.2393 = f32[1,128,16,128]{3,1,2,0:T(8,128)} multiply(%bitcast.1022, %mul.2394), metadata={op_name="jit(train_step)/jvp()/while/body/closed_call/mul" stack_frame_id=0}
  %convert_element_type.1526 = bf16[1,128,16,128]{3,1,2,0:T(8,128)(2,1)} convert(%mul.2393), metadata={op_name="jit(train_step)/jvp()/while/body/closed_call/convert_element_type" stack_frame_id=0}
  %convert.388 = f32[1,128,16,128]{3,1,2,0:T(8,128)} convert(%convert_element_type.1526)
  %dot_general.637 = f32[1,128,16,128]{3,1,2,0:T(8,128)} multiply(%convert.387, %convert.388), metadata={op_name="jit(train_step)/jvp()/while/body/closed_call/...k,k->...k/dot_general" stack_frame_id=0}, backend_config={"flag_configs":[],"scoped_memory_configs":[],"used_scoped_memory_configs":[],"float_type_correction_info":{"original_type":"BF16","original_shape":{"element_type":"BF16","dimensions":["1","128","16","128"],"tuple_shapes":[],"layout":{"minor_to_major":["3","1","2","0"],"tiles":[{"dimensions":["8","128"]},{"dimensions":["2","1"]}],"element_size_in_bits":"0","memory_space":"0","dim_level_types":[],"index_primitive_type":"PRIMITIVE_TYPE_INVALID","pointer_primitive_type":"PRIMITIVE_TYPE_INVALID","dim_unique":[],"dim_ordered":[],"dynamic_shape_metadata_prefix_bytes":"0","tail_padding_alignment_in_elements":"1","split_configs":[]},"is_dynamic_dimension":[false,false,false,false]}}}
  ROOT %convert.389 = bf16[1,128,16,128]{3,1,2,0:T(8,128)(2,1)S(1)} convert(%dot_general.637)
}

%fused_computation.54.clone.1 (param_0.1829: bf16[1,128,16,128]) -> (bf16[1,128,16,64], bf16[1,128,16,64]) {
  %param_0.1829 = bf16[1,128,16,128]{3,1,2,0:T(8,128)(2,1)S(1)} parameter(0)
  %slice.82 = bf16[1,128,16,64]{3,1,2,0:T(8,128)(2,1)} slice(%param_0.1829), slice={[0:1], [0:128], [0:16], [64:128]}, metadata={op_name="jit(train_step)/jvp()/while/body/closed_call/split" stack_frame_id=0}
  %convert.390 = f32[1,128,16,64]{3,1,2,0:T(8,128)} convert(%slice.82)
  %neg.134 = f32[1,128,16,64]{3,1,2,0:T(8,128)} negate(%convert.390), metadata={op_name="jit(train_step)/jvp()/while/body/closed_call/neg" stack_frame_id=0}, backend_config={"flag_configs":[],"scoped_memory_configs":[],"used_scoped_memory_configs":[],"float_type_correction_info":{"original_type":"BF16","original_shape":{"element_type":"BF16","dimensions":["1","128","16","64"],"tuple_shapes":[],"layout":{"minor_to_major":["3","1","2","0"],"tiles":[{"dimensions":["8","128"]},{"dimensions":["2","1"]}],"element_size_in_bits":"0","memory_space":"0","dim_level_types":[],"index_primitive_type":"PRIMITIVE_TYPE_INVALID","pointer_primitive_type":"PRIMITIVE_TYPE_INVALID","dim_unique":[],"dim_ordered":[],"dynamic_shape_metadata_prefix_bytes":"0","tail_padding_alignment_in_elements":"1","split_configs":[]},"is_dynamic_dimension":[false,false,false,false]}}}
  %convert.391 = bf16[1,128,16,64]{3,1,2,0:T(8,128)(2,1)S(1)} convert(%neg.134)
  %slice.83 = bf16[1,128,16,64]{3,1,2,0:T(8,128)(2,1)S(1)} slice(%param_0.1829), slice={[0:1], [0:128], [0:16], [0:64]}, metadata={op_name="jit(train_step)/jvp()/while/body/closed_call/split" stack_frame_id=0}
  ROOT %tuple.245 = (bf16[1,128,16,64]{3,1,2,0:T(8,128)(2,1)S(1)}, bf16[1,128,16,64]{3,1,2,0:T(8,128)(2,1)S(1)}) tuple(%convert.391, %slice.83)
}

%fused_computation.58.clone.1 (param_0.1830: bf16[1,128,16,64], param_1.1905: bf16[1,128,16,64], param_2.1454: bf16[128,128], param_3.955: bf16[128,128], param_4.567: f32[128,16], param_5.491: bf16[128,16,128], param_6.344: bf16[128]) -> bf16[16,128,128] {
  %param_6.344 = bf16[128]{0:T(256)(128)(2,1)S(1)} parameter(6)
  %dot_general.640 = bf16[1,128,16,128]{3,1,2,0:T(8,128)(2,1)} broadcast(%param_6.344), dimensions={3}, metadata={op_name="jit(train_step)/jvp()/while/body/closed_call/...k,k->...k/dot_general" stack_frame_id=0}
  %convert.392 = f32[1,128,16,128]{3,1,2,0:T(8,128)} convert(%dot_general.640)
  %param_5.491 = bf16[128,16,128]{2,0,1:T(8,128)(2,1)S(1)} parameter(5)
  %convert_element_type.1529 = f32[128,16,128]{2,0,1:T(8,128)} convert(%param_5.491), metadata={op_name="jit(train_step)/jvp()/while/body/closed_call/convert_element_type" stack_frame_id=0}
  %bitcast.1024 = f32[1,128,16,128]{3,1,2,0:T(8,128)} bitcast(%convert_element_type.1529), metadata={op_name="jit(train_step)/jvp()/while/body/closed_call/convert_element_type" stack_frame_id=0}
  %param_4.567 = f32[128,16]{0,1:T(8,128)S(1)} parameter(4)
  %mul.2402 = f32[1,128,16,128]{3,1,2,0:T(8,128)} broadcast(%param_4.567), dimensions={1,2}, metadata={op_name="jit(train_step)/jvp()/while/body/closed_call/mul" stack_frame_id=0}
  %mul.2401 = f32[1,128,16,128]{3,1,2,0:T(8,128)} multiply(%bitcast.1024, %mul.2402), metadata={op_name="jit(train_step)/jvp()/while/body/closed_call/mul" stack_frame_id=0}
  %convert_element_type.1528 = bf16[1,128,16,128]{3,1,2,0:T(8,128)(2,1)} convert(%mul.2401), metadata={op_name="jit(train_step)/jvp()/while/body/closed_call/convert_element_type" stack_frame_id=0}
  %convert.393 = f32[1,128,16,128]{3,1,2,0:T(8,128)} convert(%convert_element_type.1528)
  %dot_general.639 = f32[1,128,16,128]{3,1,2,0:T(8,128)} multiply(%convert.392, %convert.393), metadata={op_name="jit(train_step)/jvp()/while/body/closed_call/...k,k->...k/dot_general" stack_frame_id=0}, backend_config={"flag_configs":[],"scoped_memory_configs":[],"used_scoped_memory_configs":[],"float_type_correction_info":{"original_type":"BF16","original_shape":{"element_type":"BF16","dimensions":["1","128","16","128"],"tuple_shapes":[],"layout":{"minor_to_major":["3","1","2","0"],"tiles":[{"dimensions":["8","128"]},{"dimensions":["2","1"]}],"element_size_in_bits":"0","memory_space":"0","dim_level_types":[],"index_primitive_type":"PRIMITIVE_TYPE_INVALID","pointer_primitive_type":"PRIMITIVE_TYPE_INVALID","dim_unique":[],"dim_ordered":[],"dynamic_shape_metadata_prefix_bytes":"0","tail_padding_alignment_in_elements":"1","split_configs":[]},"is_dynamic_dimension":[false,false,false,false]}}}
  %param_3.955 = bf16[128,128]{1,0:T(8,128)(2,1)S(1)} parameter(3)
  %mul.2399 = bf16[1,128,16,128]{3,1,2,0:T(8,128)(2,1)} broadcast(%param_3.955), dimensions={1,3}, metadata={op_name="jit(train_step)/jvp()/while/body/closed_call/mul" stack_frame_id=0}
  %convert.394 = f32[1,128,16,128]{3,1,2,0:T(8,128)} convert(%mul.2399)
  %mul.2397 = f32[1,128,16,128]{3,1,2,0:T(8,128)} multiply(%dot_general.639, %convert.394), metadata={op_name="jit(train_step)/jvp()/while/body/closed_call/mul" stack_frame_id=0}, backend_config={"flag_configs":[],"scoped_memory_configs":[],"used_scoped_memory_configs":[],"float_type_correction_info":{"original_type":"BF16","original_shape":{"element_type":"BF16","dimensions":["1","128","16","128"],"tuple_shapes":[],"layout":{"minor_to_major":["3","1","2","0"],"tiles":[{"dimensions":["8","128"]},{"dimensions":["2","1"]}],"element_size_in_bits":"0","memory_space":"0","dim_level_types":[],"index_primitive_type":"PRIMITIVE_TYPE_INVALID","pointer_primitive_type":"PRIMITIVE_TYPE_INVALID","dim_unique":[],"dim_ordered":[],"dynamic_shape_metadata_prefix_bytes":"0","tail_padding_alignment_in_elements":"1","split_configs":[]},"is_dynamic_dimension":[false,false,false,false]}}}
  %param_1.1905 = bf16[1,128,16,64]{3,1,2,0:T(8,128)(2,1)S(1)} parameter(1)
  %constant.1136 = bf16[]{:T(256)} constant(-inf)
  %pad.85 = bf16[1,128,16,128]{3,1,2,0:T(8,128)(2,1)} pad(%param_1.1905, %constant.1136), padding=0_0x0_0x0_0x0_64, metadata={op_name="jit(train_step)/jvp()/while/body/closed_call/concatenate" stack_frame_id=0}
  %convert.395 = f32[1,128,16,128]{3,1,2,0:T(8,128)} convert(%pad.85)
  %param_0.1830 = bf16[1,128,16,64]{3,1,2,0:T(8,128)(2,1)S(1)} parameter(0)
  %pad.84 = bf16[1,128,16,128]{3,1,2,0:T(8,128)(2,1)} pad(%param_0.1830, %constant.1136), padding=0_0x0_0x0_0x64_0, metadata={op_name="jit(train_step)/jvp()/while/body/closed_call/concatenate" stack_frame_id=0}
  %convert.396 = f32[1,128,16,128]{3,1,2,0:T(8,128)} convert(%pad.84)
  %maximum.61 = f32[1,128,16,128]{3,1,2,0:T(8,128)} maximum(%convert.395, %convert.396), metadata={op_name="jit(train_step)/jvp()/while/body/closed_call/concatenate" stack_frame_id=0}, backend_config={"flag_configs":[],"scoped_memory_configs":[],"used_scoped_memory_configs":[],"float_type_correction_info":{"original_type":"BF16","original_shape":{"element_type":"BF16","dimensions":["1","128","16","128"],"tuple_shapes":[],"layout":{"minor_to_major":["3","1","2","0"],"tiles":[{"dimensions":["8","128"]},{"dimensions":["2","1"]}],"element_size_in_bits":"0","memory_space":"0","dim_level_types":[],"index_primitive_type":"PRIMITIVE_TYPE_INVALID","pointer_primitive_type":"PRIMITIVE_TYPE_INVALID","dim_unique":[],"dim_ordered":[],"dynamic_shape_metadata_prefix_bytes":"0","tail_padding_alignment_in_elements":"1","split_configs":[]},"is_dynamic_dimension":[false,false,false,false]}}}
  %param_2.1454 = bf16[128,128]{1,0:T(8,128)(2,1)S(1)} parameter(2)
  %mul.2398 = bf16[1,128,16,128]{3,1,2,0:T(8,128)(2,1)} broadcast(%param_2.1454), dimensions={1,3}, metadata={op_name="jit(train_step)/jvp()/while/body/closed_call/mul" stack_frame_id=0}
  %convert.397 = f32[1,128,16,128]{3,1,2,0:T(8,128)} convert(%mul.2398)
  %mul.2396 = f32[1,128,16,128]{3,1,2,0:T(8,128)} multiply(%maximum.61, %convert.397), metadata={op_name="jit(train_step)/jvp()/while/body/closed_call/mul" stack_frame_id=0}, backend_config={"flag_configs":[],"scoped_memory_configs":[],"used_scoped_memory_configs":[],"float_type_correction_info":{"original_type":"BF16","original_shape":{"element_type":"BF16","dimensions":["1","128","16","128"],"tuple_shapes":[],"layout":{"minor_to_major":["3","1","2","0"],"tiles":[{"dimensions":["8","128"]},{"dimensions":["2","1"]}],"element_size_in_bits":"0","memory_space":"0","dim_level_types":[],"index_primitive_type":"PRIMITIVE_TYPE_INVALID","pointer_primitive_type":"PRIMITIVE_TYPE_INVALID","dim_unique":[],"dim_ordered":[],"dynamic_shape_metadata_prefix_bytes":"0","tail_padding_alignment_in_elements":"1","split_configs":[]},"is_dynamic_dimension":[false,false,false,false]}}}
  %add.1065 = f32[1,128,16,128]{3,1,2,0:T(8,128)} add(%mul.2397, %mul.2396), metadata={op_name="jit(train_step)/jvp()/while/body/closed_call/add" stack_frame_id=0}, backend_config={"flag_configs":[],"scoped_memory_configs":[],"used_scoped_memory_configs":[],"float_type_correction_info":{"original_type":"BF16","original_shape":{"element_type":"BF16","dimensions":["1","128","16","128"],"tuple_shapes":[],"layout":{"minor_to_major":["3","1","2","0"],"tiles":[{"dimensions":["8","128"]},{"dimensions":["2","1"]}],"element_size_in_bits":"0","memory_space":"0","dim_level_types":[],"index_primitive_type":"PRIMITIVE_TYPE_INVALID","pointer_primitive_type":"PRIMITIVE_TYPE_INVALID","dim_unique":[],"dim_ordered":[],"dynamic_shape_metadata_prefix_bytes":"0","tail_padding_alignment_in_elements":"1","split_configs":[]},"is_dynamic_dimension":[false,false,false,false]}}}
  %constant.425.clone.7 = bf16[]{:T(256)} constant(0.08838)
  %mul.2400 = bf16[1,128,16,128]{3,1,2,0:T(8,128)(2,1)} broadcast(%constant.425.clone.7), dimensions={}, metadata={op_name="jit(train_step)/jvp()/while/body/closed_call/mul" stack_frame_id=0}
  %convert.398 = f32[1,128,16,128]{3,1,2,0:T(8,128)} convert(%mul.2400)
  %mul.2395 = f32[1,128,16,128]{3,1,2,0:T(8,128)} multiply(%add.1065, %convert.398), metadata={op_name="jit(train_step)/jvp()/while/body/closed_call/mul" stack_frame_id=0}, backend_config={"flag_configs":[],"scoped_memory_configs":[],"used_scoped_memory_configs":[],"float_type_correction_info":{"original_type":"BF16","original_shape":{"element_type":"BF16","dimensions":["1","128","16","128"],"tuple_shapes":[],"layout":{"minor_to_major":["3","1","2","0"],"tiles":[{"dimensions":["8","128"]},{"dimensions":["2","1"]}],"element_size_in_bits":"0","memory_space":"0","dim_level_types":[],"index_primitive_type":"PRIMITIVE_TYPE_INVALID","pointer_primitive_type":"PRIMITIVE_TYPE_INVALID","dim_unique":[],"dim_ordered":[],"dynamic_shape_metadata_prefix_bytes":"0","tail_padding_alignment_in_elements":"1","split_configs":[]},"is_dynamic_dimension":[false,false,false,false]}}}
  %convert.399 = bf16[1,128,16,128]{3,1,2,0:T(8,128)(2,1)} convert(%mul.2395)
  ROOT %bitcast.1023 = bf16[16,128,128]{2,1,0:T(8,128)(2,1)S(1)} bitcast(%convert.399), metadata={op_name="jit(train_step)/jvp()/while/body/closed_call/shard_map/vmap(static_sparsity_splash)/jit(_splash_attention)/splash_mha_fwd_segmented_residuals/splash_mha_fwd_segmented_residuals/squeeze" stack_frame_id=0}
}

%fused_computation.29.clone.1 (param_0.1815: bf16[4,512,8,128], param_1.1896: s32[]) -> bf16[1,512,8,128] {
  %param_0.1815 = bf16[4,512,8,128]{1,3,2,0:T(8,128)(2,1)} parameter(0)
  %param_1.1896 = s32[]{:T(128)S(6)} parameter(1)
  %constant.420.clone.39 = s32[]{:T(128)} constant(0)
  ROOT %dynamic-slice.208 = bf16[1,512,8,128]{1,3,2,0:T(8,128)(2,1)S(1)} dynamic-slice(%param_0.1815, %param_1.1896, %constant.420.clone.39, %constant.420.clone.39, %constant.420.clone.39), dynamic_slice_sizes={1,512,8,128}, metadata={op_name="jit(train_step)/jvp()/while/body/jit(dynamic_index_in_dim)/dynamic_slice" stack_frame_id=0}, backend_config={"flag_configs":[],"scoped_memory_configs":[],"indices_config":{"index_known_bits":[{"zeroes":"4294967292","ones":"0","bitwidth":"32"},{"zeroes":"4294967295","ones":"0","bitwidth":"32"},{"zeroes":"4294967295","ones":"0","bitwidth":"32"},{"zeroes":"4294967295","ones":"0","bitwidth":"32"}],"is_index_aligned":[]},"used_scoped_memory_configs":[]}
}

%fused_computation.53.clone.1.clone.clone.clone.1 (param_0.1817: bf16[1,128,2048], param_1.1897: f32[128], param_2.1447: bf16[2048]) -> bf16[128,2048,1] {
  %param_2.1447 = bf16[2048]{0:T(1024)(128)(2,1)S(1)} parameter(2)
  %dot_general.630 = bf16[1,128,2048]{2,1,0:T(8,128)(2,1)} broadcast(%param_2.1447), dimensions={2}, metadata={op_name="jit(train_step)/jvp()/while/body/closed_call/...k,k->...k/dot_general" stack_frame_id=0}
  %convert.371 = f32[1,128,2048]{2,1,0:T(8,128)} convert(%dot_general.630)
  %param_0.1817 = bf16[1,128,2048]{2,1,0:T(8,128)(2,1)S(1)} parameter(0)
  %convert_element_type.1520 = f32[1,128,2048]{2,1,0:T(8,128)} convert(%param_0.1817), metadata={op_name="jit(train_step)/jvp()/while/body/closed_call/convert_element_type" stack_frame_id=0}
  %param_1.1897 = f32[128]{0:T(128)S(1)} parameter(1)
  %mul.2382 = f32[1,128,2048]{2,1,0:T(8,128)} broadcast(%param_1.1897), dimensions={1}, metadata={op_name="jit(train_step)/jvp()/while/body/closed_call/mul" stack_frame_id=0}
  %mul.2381 = f32[1,128,2048]{2,1,0:T(8,128)} multiply(%convert_element_type.1520, %mul.2382), metadata={op_name="jit(train_step)/jvp()/while/body/closed_call/mul" stack_frame_id=0}
  %convert_element_type.1519 = bf16[1,128,2048]{2,1,0:T(8,128)(2,1)} convert(%mul.2381), metadata={op_name="jit(train_step)/jvp()/while/body/closed_call/convert_element_type" stack_frame_id=0}
  %convert.372 = f32[1,128,2048]{2,1,0:T(8,128)} convert(%convert_element_type.1519)
  %dot_general.629 = f32[1,128,2048]{2,1,0:T(8,128)} multiply(%convert.371, %convert.372), metadata={op_name="jit(train_step)/jvp()/while/body/closed_call/...k,k->...k/dot_general" stack_frame_id=0}, backend_config={"flag_configs":[],"scoped_memory_configs":[],"used_scoped_memory_configs":[],"float_type_correction_info":{"original_type":"BF16","original_shape":{"element_type":"BF16","dimensions":["1","128","2048"],"tuple_shapes":[],"layout":{"minor_to_major":["2","1","0"],"tiles":[{"dimensions":["8","128"]},{"dimensions":["2","1"]}],"element_size_in_bits":"0","memory_space":"0","dim_level_types":[],"index_primitive_type":"PRIMITIVE_TYPE_INVALID","pointer_primitive_type":"PRIMITIVE_TYPE_INVALID","dim_unique":[],"dim_ordered":[],"dynamic_shape_metadata_prefix_bytes":"0","tail_padding_alignment_in_elements":"1","split_configs":[]},"is_dynamic_dimension":[false,false,false]}}}
  %convert.373 = bf16[1,128,2048]{2,1,0:T(8,128)(2,1)} convert(%dot_general.629)
  ROOT %bitcast.1017 = bf16[128,2048,1]{1,0,2:T(8,128)(2,1)} bitcast(%convert.373)
}

%fused_computation.21.clone.clone.clone.clone.clone.clone.clone.1 (param_0.1816: bf16[1,2048,8,128]) -> bf16[2048,8,128] {
  %param_0.1816 = bf16[1,2048,8,128]{1,3,2,0:T(8,128)(2,1)S(1)} parameter(0)
  ROOT %bitcast.1016 = bf16[2048,8,128]{0,2,1:T(8,128)(2,1)} bitcast(%param_0.1816), metadata={op_name="jit(train_step)/jvp()/while/body/closed_call/dot_general" stack_frame_id=0}
}

%region_4.5 (reduce_sum.152: f32[], reduce_sum.153: f32[]) -> f32[] {
  %reduce_sum.152 = f32[]{:T(128)} parameter(0), metadata={op_name="jit(train_step)/jvp()/while/body/closed_call/reduce_sum"}
  %reduce_sum.153 = f32[]{:T(128)} parameter(1), metadata={op_name="jit(train_step)/jvp()/while/body/closed_call/reduce_sum"}
  ROOT %reduce_sum.157 = f32[]{:T(128)} add(%reduce_sum.152, %reduce_sum.153), metadata={op_name="reduce_sum" stack_frame_id=0}, backend_config={"flag_configs":[],"scoped_memory_configs":[],"used_scoped_memory_configs":[],"aliasing_operands":{"lists":[]}}
}

%fused_computation.64.clone.1 (param_0.1818: bf16[1,2048,8,128], param_1.1898: bf16[1,128,2048], param_2.1448: f32[128], param_3.952: bf16[2048]) -> (f32[128,8], f32[1,128,8,128]) {
  %param_1.1898 = bf16[1,128,2048]{2,1,0:T(8,128)(2,1)S(1)} parameter(1)
  %param_2.1448 = f32[128]{0:T(128)S(1)} parameter(2)
  %param_3.952 = bf16[2048]{0:T(1024)(128)(2,1)S(1)} parameter(3)
  %fusion.90.clone.3 = bf16[128,2048,1]{1,0,2:T(8,128)(2,1)} fusion(%param_1.1898, %param_2.1448, %param_3.952), kind=kLoop, calls=%fused_computation.53.clone.1.clone.clone.clone.1
  %param_0.1818 = bf16[1,2048,8,128]{1,3,2,0:T(8,128)(2,1)S(1)} parameter(0)
  %fusion.64.clone.3 = bf16[2048,8,128]{0,2,1:T(8,128)(2,1)} fusion(%param_0.1818), kind=kLoop, calls=%fused_computation.21.clone.clone.clone.clone.clone.clone.clone.1, metadata={op_name="jit(train_step)/jvp()/while/body/closed_call/dot_general" stack_frame_id=0}
  %convolution.58.clone.3 = bf16[128,8,128]{2,0,1:T(8,128)(2,1)} convolution(%fusion.90.clone.3, %fusion.64.clone.3), window={size=8 pad=7_7 rhs_reversal=1}, dim_labels=bf0_i0o->b0f, metadata={op_name="jit(train_step)/jvp()/while/body/closed_call/dot_general" stack_frame_id=0}
  %convert_element_type.971.clone.3 = f32[128,8,128]{2,0,1:T(8,128)} convert(%convolution.58.clone.3), metadata={op_name="jit(train_step)/jvp()/while/body/closed_call/convert_element_type" stack_frame_id=0}
  %bitcast.256.clone.3 = f32[1,128,8,128]{3,1,2,0:T(8,128)S(1)} bitcast(%convert_element_type.971.clone.3), metadata={op_name="jit(train_step)/jvp()/while/body/closed_call/convert_element_type" stack_frame_id=0}
  %square.282 = f32[1,128,8,128]{3,1,2,0:T(8,128)} multiply(%bitcast.256.clone.3, %bitcast.256.clone.3), metadata={op_name="jit(train_step)/jvp()/while/body/closed_call/square" stack_frame_id=0}
  %constant.421.clone.14 = f32[]{:T(128)} constant(0)
  %reduce.277 = f32[128,8]{0,1:T(8,128)S(1)} reduce(%square.282, %constant.421.clone.14), dimensions={0,3}, to_apply=%region_4.5, metadata={op_name="jit(train_step)/jvp()/while/body/closed_call/reduce_sum" stack_frame_id=0}
  ROOT %tuple.242 = (f32[128,8]{0,1:T(8,128)S(1)}, f32[1,128,8,128]{3,1,2,0:T(8,128)S(1)}) tuple(%reduce.277, %bitcast.256.clone.3)
}

%fused_computation.75.clone.1 (param_0.1819: f32[128,8]) -> f32[128,8] {
  %param_0.1819 = f32[128,8]{0,1:T(8,128)S(1)} parameter(0)
  %constant.424.clone.9 = f32[]{:T(128)} constant(0.0078125)
  %broadcast.1095 = f32[128,8]{0,1:T(8,128)} broadcast(%constant.424.clone.9), dimensions={}, metadata={op_name="jit(train_step)/jvp()/while/body/closed_call/div" stack_frame_id=0}
  %div.1031 = f32[128,8]{0,1:T(8,128)} multiply(%param_0.1819, %broadcast.1095), metadata={op_name="jit(train_step)/jvp()/while/body/closed_call/div" stack_frame_id=0}
  %constant.423.clone.14 = f32[]{:T(128)} constant(1e-06)
  %broadcast.1094 = f32[128,8]{0,1:T(8,128)} broadcast(%constant.423.clone.14), dimensions={}, metadata={op_name="jit(train_step)/jvp()/while/body/closed_call/add" stack_frame_id=0}
  %add.1062 = f32[128,8]{0,1:T(8,128)} add(%div.1031, %broadcast.1094), metadata={op_name="jit(train_step)/jvp()/while/body/closed_call/add" stack_frame_id=0}
  ROOT %rsqrt.223 = f32[128,8]{0,1:T(8,128)S(1)} rsqrt(%add.1062), metadata={op_name="jit(train_step)/jvp()/while/body/closed_call/rsqrt" stack_frame_id=0}
}

%fused_computation.65.clone.2 (param_0.1820: f32[1,128,8,128], param_1.1899: f32[128,8], param_2.1449: bf16[128]) -> bf16[1,128,8,128] {
  %param_2.1449 = bf16[128]{0:T(256)(128)(2,1)S(1)} parameter(2)
  %dot_general.632 = bf16[1,128,8,128]{3,1,2,0:T(8,128)(2,1)} broadcast(%param_2.1449), dimensions={3}, metadata={op_name="jit(train_step)/jvp()/while/body/closed_call/...k,k->...k/dot_general" stack_frame_id=0}
  %convert.400 = f32[1,128,8,128]{3,1,2,0:T(8,128)} convert(%dot_general.632)
  %param_0.1820 = f32[1,128,8,128]{3,1,2,0:T(8,128)S(1)} parameter(0)
  %param_1.1899 = f32[128,8]{0,1:T(8,128)S(1)} parameter(1)
  %mul.2384 = f32[1,128,8,128]{3,1,2,0:T(8,128)} broadcast(%param_1.1899), dimensions={1,2}, metadata={op_name="jit(train_step)/jvp()/while/body/closed_call/mul" stack_frame_id=0}
  %mul.2383 = f32[1,128,8,128]{3,1,2,0:T(8,128)} multiply(%param_0.1820, %mul.2384), metadata={op_name="jit(train_step)/jvp()/while/body/closed_call/mul" stack_frame_id=0}
  %convert_element_type.1521 = bf16[1,128,8,128]{3,1,2,0:T(8,128)(2,1)} convert(%mul.2383), metadata={op_name="jit(train_step)/jvp()/while/body/closed_call/convert_element_type" stack_frame_id=0}
  %convert.401 = f32[1,128,8,128]{3,1,2,0:T(8,128)} convert(%convert_element_type.1521)
  %dot_general.631 = f32[1,128,8,128]{3,1,2,0:T(8,128)} multiply(%convert.400, %convert.401), metadata={op_name="jit(train_step)/jvp()/while/body/closed_call/...k,k->...k/dot_general" stack_frame_id=0}, backend_config={"flag_configs":[],"scoped_memory_configs":[],"used_scoped_memory_configs":[],"float_type_correction_info":{"original_type":"BF16","original_shape":{"element_type":"BF16","dimensions":["1","128","8","128"],"tuple_shapes":[],"layout":{"minor_to_major":["3","1","2","0"],"tiles":[{"dimensions":["8","128"]},{"dimensions":["2","1"]}],"element_size_in_bits":"0","memory_space":"0","dim_level_types":[],"index_primitive_type":"PRIMITIVE_TYPE_INVALID","pointer_primitive_type":"PRIMITIVE_TYPE_INVALID","dim_unique":[],"dim_ordered":[],"dynamic_shape_metadata_prefix_bytes":"0","tail_padding_alignment_in_elements":"1","split_configs":[]},"is_dynamic_dimension":[false,false,false,false]}}}
  ROOT %convert.402 = bf16[1,128,8,128]{3,1,2,0:T(8,128)(2,1)S(1)} convert(%dot_general.631)
}

%fused_computation.66.clone.1 (param_0.1821: bf16[1,128,8,128]) -> (bf16[1,128,8,64], bf16[1,128,8,64]) {
  %param_0.1821 = bf16[1,128,8,128]{3,1,2,0:T(8,128)(2,1)S(1)} parameter(0)
  %slice.80 = bf16[1,128,8,64]{3,1,2,0:T(8,128)(2,1)} slice(%param_0.1821), slice={[0:1], [0:128], [0:8], [64:128]}, metadata={op_name="jit(train_step)/jvp()/while/body/closed_call/split" stack_frame_id=0}
  %convert.403 = f32[1,128,8,64]{3,1,2,0:T(8,128)} convert(%slice.80)
  %neg.133 = f32[1,128,8,64]{3,1,2,0:T(8,128)} negate(%convert.403), metadata={op_name="jit(train_step)/jvp()/while/body/closed_call/neg" stack_frame_id=0}, backend_config={"flag_configs":[],"scoped_memory_configs":[],"used_scoped_memory_configs":[],"float_type_correction_info":{"original_type":"BF16","original_shape":{"element_type":"BF16","dimensions":["1","128","8","64"],"tuple_shapes":[],"layout":{"minor_to_major":["3","1","2","0"],"tiles":[{"dimensions":["8","128"]},{"dimensions":["2","1"]}],"element_size_in_bits":"0","memory_space":"0","dim_level_types":[],"index_primitive_type":"PRIMITIVE_TYPE_INVALID","pointer_primitive_type":"PRIMITIVE_TYPE_INVALID","dim_unique":[],"dim_ordered":[],"dynamic_shape_metadata_prefix_bytes":"0","tail_padding_alignment_in_elements":"1","split_configs":[]},"is_dynamic_dimension":[false,false,false,false]}}}
  %convert.404 = bf16[1,128,8,64]{3,1,2,0:T(8,128)(2,1)S(1)} convert(%neg.133)
  %slice.81 = bf16[1,128,8,64]{3,1,2,0:T(8,128)(2,1)S(1)} slice(%param_0.1821), slice={[0:1], [0:128], [0:8], [0:64]}, metadata={op_name="jit(train_step)/jvp()/while/body/closed_call/split" stack_frame_id=0}
  ROOT %tuple.243 = (bf16[1,128,8,64]{3,1,2,0:T(8,128)(2,1)S(1)}, bf16[1,128,8,64]{3,1,2,0:T(8,128)(2,1)S(1)}) tuple(%convert.404, %slice.81)
}

%fused_computation.69.clone.1 (param_0.1822: bf16[1,128,8,64], param_1.1900: bf16[1,128,8,64], param_2.1450: bf16[128,128], param_3.953: bf16[128,128], param_4.566: f32[1,128,8,128], param_5.490: f32[128,8], param_6.343: bf16[128]) -> bf16[8,128,128] {
  %param_6.343 = bf16[128]{0:T(256)(128)(2,1)S(1)} parameter(6)
  %dot_general.634 = bf16[1,128,8,128]{3,1,2,0:T(8,128)(2,1)} broadcast(%param_6.343), dimensions={3}, metadata={op_name="jit(train_step)/jvp()/while/body/closed_call/...k,k->...k/dot_general" stack_frame_id=0}
  %convert.405 = f32[1,128,8,128]{3,1,2,0:T(8,128)} convert(%dot_general.634)
  %param_4.566 = f32[1,128,8,128]{3,1,2,0:T(8,128)S(1)} parameter(4)
  %param_5.490 = f32[128,8]{0,1:T(8,128)S(1)} parameter(5)
  %mul.2390 = f32[1,128,8,128]{3,1,2,0:T(8,128)} broadcast(%param_5.490), dimensions={1,2}, metadata={op_name="jit(train_step)/jvp()/while/body/closed_call/mul" stack_frame_id=0}
  %mul.2389 = f32[1,128,8,128]{3,1,2,0:T(8,128)} multiply(%param_4.566, %mul.2390), metadata={op_name="jit(train_step)/jvp()/while/body/closed_call/mul" stack_frame_id=0}
  %convert_element_type.1522 = bf16[1,128,8,128]{3,1,2,0:T(8,128)(2,1)} convert(%mul.2389), metadata={op_name="jit(train_step)/jvp()/while/body/closed_call/convert_element_type" stack_frame_id=0}
  %convert.406 = f32[1,128,8,128]{3,1,2,0:T(8,128)} convert(%convert_element_type.1522)
  %dot_general.633 = f32[1,128,8,128]{3,1,2,0:T(8,128)} multiply(%convert.405, %convert.406), metadata={op_name="jit(train_step)/jvp()/while/body/closed_call/...k,k->...k/dot_general" stack_frame_id=0}, backend_config={"flag_configs":[],"scoped_memory_configs":[],"used_scoped_memory_configs":[],"float_type_correction_info":{"original_type":"BF16","original_shape":{"element_type":"BF16","dimensions":["1","128","8","128"],"tuple_shapes":[],"layout":{"minor_to_major":["3","1","2","0"],"tiles":[{"dimensions":["8","128"]},{"dimensions":["2","1"]}],"element_size_in_bits":"0","memory_space":"0","dim_level_types":[],"index_primitive_type":"PRIMITIVE_TYPE_INVALID","pointer_primitive_type":"PRIMITIVE_TYPE_INVALID","dim_unique":[],"dim_ordered":[],"dynamic_shape_metadata_prefix_bytes":"0","tail_padding_alignment_in_elements":"1","split_configs":[]},"is_dynamic_dimension":[false,false,false,false]}}}
  %param_3.953 = bf16[128,128]{1,0:T(8,128)(2,1)S(1)} parameter(3)
  %mul.2388 = bf16[1,128,8,128]{3,1,2,0:T(8,128)(2,1)} broadcast(%param_3.953), dimensions={1,3}, metadata={op_name="jit(train_step)/jvp()/while/body/closed_call/mul" stack_frame_id=0}
  %convert.407 = f32[1,128,8,128]{3,1,2,0:T(8,128)} convert(%mul.2388)
  %mul.2386 = f32[1,128,8,128]{3,1,2,0:T(8,128)} multiply(%dot_general.633, %convert.407), metadata={op_name="jit(train_step)/jvp()/while/body/closed_call/mul" stack_frame_id=0}, backend_config={"flag_configs":[],"scoped_memory_configs":[],"used_scoped_memory_configs":[],"float_type_correction_info":{"original_type":"BF16","original_shape":{"element_type":"BF16","dimensions":["1","128","8","128"],"tuple_shapes":[],"layout":{"minor_to_major":["3","1","2","0"],"tiles":[{"dimensions":["8","128"]},{"dimensions":["2","1"]}],"element_size_in_bits":"0","memory_space":"0","dim_level_types":[],"index_primitive_type":"PRIMITIVE_TYPE_INVALID","pointer_primitive_type":"PRIMITIVE_TYPE_INVALID","dim_unique":[],"dim_ordered":[],"dynamic_shape_metadata_prefix_bytes":"0","tail_padding_alignment_in_elements":"1","split_configs":[]},"is_dynamic_dimension":[false,false,false,false]}}}
  %param_1.1900 = bf16[1,128,8,64]{3,1,2,0:T(8,128)(2,1)S(1)} parameter(1)
  %constant.1135 = bf16[]{:T(256)} constant(-inf)
  %pad.83 = bf16[1,128,8,128]{3,1,2,0:T(8,128)(2,1)} pad(%param_1.1900, %constant.1135), padding=0_0x0_0x0_0x0_64, metadata={op_name="jit(train_step)/jvp()/while/body/closed_call/concatenate" stack_frame_id=0}
  %convert.408 = f32[1,128,8,128]{3,1,2,0:T(8,128)} convert(%pad.83)
  %param_0.1822 = bf16[1,128,8,64]{3,1,2,0:T(8,128)(2,1)S(1)} parameter(0)
  %pad.82 = bf16[1,128,8,128]{3,1,2,0:T(8,128)(2,1)} pad(%param_0.1822, %constant.1135), padding=0_0x0_0x0_0x64_0, metadata={op_name="jit(train_step)/jvp()/while/body/closed_call/concatenate" stack_frame_id=0}
  %convert.409 = f32[1,128,8,128]{3,1,2,0:T(8,128)} convert(%pad.82)
  %maximum.60 = f32[1,128,8,128]{3,1,2,0:T(8,128)} maximum(%convert.408, %convert.409), metadata={op_name="jit(train_step)/jvp()/while/body/closed_call/concatenate" stack_frame_id=0}, backend_config={"flag_configs":[],"scoped_memory_configs":[],"used_scoped_memory_configs":[],"float_type_correction_info":{"original_type":"BF16","original_shape":{"element_type":"BF16","dimensions":["1","128","8","128"],"tuple_shapes":[],"layout":{"minor_to_major":["3","1","2","0"],"tiles":[{"dimensions":["8","128"]},{"dimensions":["2","1"]}],"element_size_in_bits":"0","memory_space":"0","dim_level_types":[],"index_primitive_type":"PRIMITIVE_TYPE_INVALID","pointer_primitive_type":"PRIMITIVE_TYPE_INVALID","dim_unique":[],"dim_ordered":[],"dynamic_shape_metadata_prefix_bytes":"0","tail_padding_alignment_in_elements":"1","split_configs":[]},"is_dynamic_dimension":[false,false,false,false]}}}
  %param_2.1450 = bf16[128,128]{1,0:T(8,128)(2,1)S(1)} parameter(2)
  %mul.2387 = bf16[1,128,8,128]{3,1,2,0:T(8,128)(2,1)} broadcast(%param_2.1450), dimensions={1,3}, metadata={op_name="jit(train_step)/jvp()/while/body/closed_call/mul" stack_frame_id=0}
  %convert.410 = f32[1,128,8,128]{3,1,2,0:T(8,128)} convert(%mul.2387)
  %mul.2385 = f32[1,128,8,128]{3,1,2,0:T(8,128)} multiply(%maximum.60, %convert.410), metadata={op_name="jit(train_step)/jvp()/while/body/closed_call/mul" stack_frame_id=0}, backend_config={"flag_configs":[],"scoped_memory_configs":[],"used_scoped_memory_configs":[],"float_type_correction_info":{"original_type":"BF16","original_shape":{"element_type":"BF16","dimensions":["1","128","8","128"],"tuple_shapes":[],"layout":{"minor_to_major":["3","1","2","0"],"tiles":[{"dimensions":["8","128"]},{"dimensions":["2","1"]}],"element_size_in_bits":"0","memory_space":"0","dim_level_types":[],"index_primitive_type":"PRIMITIVE_TYPE_INVALID","pointer_primitive_type":"PRIMITIVE_TYPE_INVALID","dim_unique":[],"dim_ordered":[],"dynamic_shape_metadata_prefix_bytes":"0","tail_padding_alignment_in_elements":"1","split_configs":[]},"is_dynamic_dimension":[false,false,false,false]}}}
  %add.1063 = f32[1,128,8,128]{3,1,2,0:T(8,128)} add(%mul.2386, %mul.2385), metadata={op_name="jit(train_step)/jvp()/while/body/closed_call/add" stack_frame_id=0}, backend_config={"flag_configs":[],"scoped_memory_configs":[],"used_scoped_memory_configs":[],"float_type_correction_info":{"original_type":"BF16","original_shape":{"element_type":"BF16","dimensions":["1","128","8","128"],"tuple_shapes":[],"layout":{"minor_to_major":["3","1","2","0"],"tiles":[{"dimensions":["8","128"]},{"dimensions":["2","1"]}],"element_size_in_bits":"0","memory_space":"0","dim_level_types":[],"index_primitive_type":"PRIMITIVE_TYPE_INVALID","pointer_primitive_type":"PRIMITIVE_TYPE_INVALID","dim_unique":[],"dim_ordered":[],"dynamic_shape_metadata_prefix_bytes":"0","tail_padding_alignment_in_elements":"1","split_configs":[]},"is_dynamic_dimension":[false,false,false,false]}}}
  %convert.411 = bf16[1,128,8,128]{3,1,2,0:T(8,128)(2,1)} convert(%add.1063)
  ROOT %bitcast.1018 = bf16[8,128,128]{2,1,0:T(8,128)(2,1)S(1)} bitcast(%convert.411), metadata={op_name="jit(train_step)/jvp()/while/body/closed_call/shard_map/vmap(static_sparsity_splash)/jit(_splash_attention)/splash_mha_fwd_segmented_residuals/splash_mha_fwd_segmented_residuals/squeeze" stack_frame_id=0}
}

%fused_computation.28.clone.1 (param_0.1810: bf16[4,512,8,128], param_1.1892: s32[]) -> bf16[1,512,8,128] {
  %param_0.1810 = bf16[4,512,8,128]{3,1,2,0:T(8,128)(2,1)} parameter(0)
  %param_1.1892 = s32[]{:T(128)S(6)} parameter(1)
  %constant.420.clone.37 = s32[]{:T(128)} constant(0)
  ROOT %dynamic-slice.207 = bf16[1,512,8,128]{3,1,2,0:T(8,128)(2,1)S(1)} dynamic-slice(%param_0.1810, %param_1.1892, %constant.420.clone.37, %constant.420.clone.37, %constant.420.clone.37), dynamic_slice_sizes={1,512,8,128}, metadata={op_name="jit(train_step)/jvp()/while/body/jit(dynamic_index_in_dim)/dynamic_slice" stack_frame_id=0}, backend_config={"flag_configs":[],"scoped_memory_configs":[],"indices_config":{"index_known_bits":[{"zeroes":"4294967292","ones":"0","bitwidth":"32"},{"zeroes":"4294967295","ones":"0","bitwidth":"32"},{"zeroes":"4294967295","ones":"0","bitwidth":"32"},{"zeroes":"4294967295","ones":"0","bitwidth":"32"}],"is_index_aligned":[]},"used_scoped_memory_configs":[]}
}

%fused_computation.53.clone.clone.1 (param_0.1812: bf16[1,128,2048], param_1.1893: f32[128], param_2.1444: bf16[2048]) -> bf16[128,2048,1] {
  %param_2.1444 = bf16[2048]{0:T(1024)(128)(2,1)S(1)} parameter(2)
  %dot_general.628 = bf16[1,128,2048]{2,1,0:T(8,128)(2,1)} broadcast(%param_2.1444), dimensions={2}, metadata={op_name="jit(train_step)/jvp()/while/body/closed_call/...k,k->...k/dot_general" stack_frame_id=0}
  %convert.368 = f32[1,128,2048]{2,1,0:T(8,128)} convert(%dot_general.628)
  %param_0.1812 = bf16[1,128,2048]{2,1,0:T(8,128)(2,1)S(1)} parameter(0)
  %convert_element_type.1518 = f32[1,128,2048]{2,1,0:T(8,128)} convert(%param_0.1812), metadata={op_name="jit(train_step)/jvp()/while/body/closed_call/convert_element_type" stack_frame_id=0}
  %param_1.1893 = f32[128]{0:T(128)S(1)} parameter(1)
  %mul.2380 = f32[1,128,2048]{2,1,0:T(8,128)} broadcast(%param_1.1893), dimensions={1}, metadata={op_name="jit(train_step)/jvp()/while/body/closed_call/mul" stack_frame_id=0}
  %mul.2379 = f32[1,128,2048]{2,1,0:T(8,128)} multiply(%convert_element_type.1518, %mul.2380), metadata={op_name="jit(train_step)/jvp()/while/body/closed_call/mul" stack_frame_id=0}
  %convert_element_type.1517 = bf16[1,128,2048]{2,1,0:T(8,128)(2,1)} convert(%mul.2379), metadata={op_name="jit(train_step)/jvp()/while/body/closed_call/convert_element_type" stack_frame_id=0}
  %convert.369 = f32[1,128,2048]{2,1,0:T(8,128)} convert(%convert_element_type.1517)
  %dot_general.627 = f32[1,128,2048]{2,1,0:T(8,128)} multiply(%convert.368, %convert.369), metadata={op_name="jit(train_step)/jvp()/while/body/closed_call/...k,k->...k/dot_general" stack_frame_id=0}, backend_config={"flag_configs":[],"scoped_memory_configs":[],"used_scoped_memory_configs":[],"float_type_correction_info":{"original_type":"BF16","original_shape":{"element_type":"BF16","dimensions":["1","128","2048"],"tuple_shapes":[],"layout":{"minor_to_major":["2","1","0"],"tiles":[{"dimensions":["8","128"]},{"dimensions":["2","1"]}],"element_size_in_bits":"0","memory_space":"0","dim_level_types":[],"index_primitive_type":"PRIMITIVE_TYPE_INVALID","pointer_primitive_type":"PRIMITIVE_TYPE_INVALID","dim_unique":[],"dim_ordered":[],"dynamic_shape_metadata_prefix_bytes":"0","tail_padding_alignment_in_elements":"1","split_configs":[]},"is_dynamic_dimension":[false,false,false]}}}
  %convert.370 = bf16[1,128,2048]{2,1,0:T(8,128)(2,1)} convert(%dot_general.627)
  ROOT %bitcast.1013 = bf16[128,2048,1]{1,0,2:T(8,128)(2,1)} bitcast(%convert.370)
}

%fused_computation.19.clone.clone.clone.1 (param_0.1811: bf16[1,2048,8,128]) -> bf16[2048,8,128] {
  %param_0.1811 = bf16[1,2048,8,128]{3,1,2,0:T(8,128)(2,1)S(1)} parameter(0)
  ROOT %bitcast.1012 = bf16[2048,8,128]{2,0,1:T(8,128)(2,1)} bitcast(%param_0.1811), metadata={op_name="jit(train_step)/jvp()/while/body/closed_call/dot_general" stack_frame_id=0}
}

%fused_computation.48.clone.1 (param_0.1813: bf16[1,2048,8,128], param_1.1894: bf16[1,128,2048], param_2.1445: f32[128], param_3.951: bf16[2048]) -> bf16[8,128,128] {
  %param_1.1894 = bf16[1,128,2048]{2,1,0:T(8,128)(2,1)S(1)} parameter(1)
  %param_2.1445 = f32[128]{0:T(128)S(1)} parameter(2)
  %param_3.951 = bf16[2048]{0:T(1024)(128)(2,1)S(1)} parameter(3)
  %fusion.509 = bf16[128,2048,1]{1,0,2:T(8,128)(2,1)} fusion(%param_1.1894, %param_2.1445, %param_3.951), kind=kLoop, calls=%fused_computation.53.clone.clone.1
  %param_0.1813 = bf16[1,2048,8,128]{3,1,2,0:T(8,128)(2,1)S(1)} parameter(0)
  %fusion.508 = bf16[2048,8,128]{2,0,1:T(8,128)(2,1)} fusion(%param_0.1813), kind=kLoop, calls=%fused_computation.19.clone.clone.clone.1, metadata={op_name="jit(train_step)/jvp()/while/body/closed_call/dot_general" stack_frame_id=0}
  %convolution.148 = bf16[128,8,128]{2,0,1:T(8,128)(2,1)} convolution(%fusion.509, %fusion.508), window={size=8 pad=7_7 rhs_reversal=1}, dim_labels=bf0_i0o->b0f, metadata={op_name="jit(train_step)/jvp()/while/body/closed_call/dot_general" stack_frame_id=0}
  ROOT %bitcast.1014 = bf16[8,128,128]{2,1,0:T(8,128)(2,1)S(1)} bitcast(%convolution.148), metadata={op_name="jit(train_step)/jvp()/while/body/closed_call/shard_map/vmap(static_sparsity_splash)/jit(_splash_attention)/splash_mha_fwd_segmented_residuals/splash_mha_fwd_segmented_residuals/squeeze" stack_frame_id=0}
}

%fused_computation.59.clone.clone.clone.1 (param_0.1833: bf16[16,128,128]) -> bf16[128,16,128] {
  %param_0.1833 = bf16[16,128,128]{2,1,0:T(8,128)(2,1)S(1)} parameter(0)
  ROOT %bitcast.1026 = bf16[128,16,128]{2,0,1:T(8,128)(2,1)} bitcast(%param_0.1833)
}

%fused_computation.15.clone.clone.clone.clone.clone.clone.clone.1 (param_0.1832: bf16[1,16,128,2048]) -> bf16[16,128,2048] {
  %param_0.1832 = bf16[1,16,128,2048]{3,2,1,0:T(8,128)(2,1)S(1)} parameter(0)
  ROOT %bitcast.1025 = bf16[16,128,2048]{2,1,0:T(8,128)(2,1)} bitcast(%param_0.1832), metadata={op_name="jit(train_step)/jvp()/while/body/closed_call/dot_general" stack_frame_id=0}
}

%region_5.7 (reduce_sum.158: f32[], reduce_sum.159: f32[]) -> f32[] {
  %reduce_sum.158 = f32[]{:T(128)} parameter(0), metadata={op_name="jit(train_step)/jvp()/while/body/closed_call/reduce_sum"}
  %reduce_sum.159 = f32[]{:T(128)} parameter(1), metadata={op_name="jit(train_step)/jvp()/while/body/closed_call/reduce_sum"}
  ROOT %reduce_sum.160 = f32[]{:T(128)} add(%reduce_sum.158, %reduce_sum.159), metadata={op_name="reduce_sum" stack_frame_id=0}, backend_config={"flag_configs":[],"scoped_memory_configs":[],"used_scoped_memory_configs":[],"aliasing_operands":{"lists":[]}}
}

%fused_computation.40.clone.1 (param_0.1834: bf16[1,128,2048], param_1.1907: bf16[1,16,128,2048], param_2.1455: bf16[16,128,128]) -> (f32[128], bf16[1,128,2048]) {
  %param_0.1834 = bf16[1,128,2048]{2,1,0:T(8,128)(2,1)S(1)} parameter(0)
  %convert.412 = f32[1,128,2048]{2,1,0:T(8,128)} convert(%param_0.1834)
  %param_2.1455 = bf16[16,128,128]{2,1,0:T(8,128)(2,1)S(1)} parameter(2)
  %fusion.79.clone.3 = bf16[128,16,128]{2,0,1:T(8,128)(2,1)} fusion(%param_2.1455), kind=kLoop, calls=%fused_computation.59.clone.clone.clone.1
  %param_1.1907 = bf16[1,16,128,2048]{3,2,1,0:T(8,128)(2,1)S(1)} parameter(1)
  %fusion.47.clone.3 = bf16[16,128,2048]{2,1,0:T(8,128)(2,1)} fusion(%param_1.1907), kind=kLoop, calls=%fused_computation.15.clone.clone.clone.clone.clone.clone.clone.1, metadata={op_name="jit(train_step)/jvp()/while/body/closed_call/dot_general" stack_frame_id=0}
  %convolution.50.clone.3 = bf16[128,2048,1]{1,0,2:T(8,128)(2,1)} convolution(%fusion.79.clone.3, %fusion.47.clone.3), window={size=16}, dim_labels=b0f_0io->bf0, metadata={op_name="jit(train_step)/jvp()/while/body/closed_call/dot_general" stack_frame_id=0}
  %bitcast.236.clone.3 = bf16[1,128,2048]{2,1,0:T(8,128)(2,1)} bitcast(%convolution.50.clone.3), metadata={op_name="jit(train_step)/jvp()/while/body/closed_call/dot_general" stack_frame_id=0}
  %convert.413 = f32[1,128,2048]{2,1,0:T(8,128)} convert(%bitcast.236.clone.3)
  %add.797.clone.3 = f32[1,128,2048]{2,1,0:T(8,128)} add(%convert.412, %convert.413), metadata={op_name="jit(train_step)/jvp()/while/body/closed_call/add" stack_frame_id=0}, backend_config={"flag_configs":[],"scoped_memory_configs":[],"used_scoped_memory_configs":[],"float_type_correction_info":{"original_type":"BF16","original_shape":{"element_type":"BF16","dimensions":["1","128","2048"],"tuple_shapes":[],"layout":{"minor_to_major":["2","1","0"],"tiles":[{"dimensions":["8","128"]},{"dimensions":["2","1"]}],"element_size_in_bits":"0","memory_space":"0","dim_level_types":[],"index_primitive_type":"PRIMITIVE_TYPE_INVALID","pointer_primitive_type":"PRIMITIVE_TYPE_INVALID","dim_unique":[],"dim_ordered":[],"dynamic_shape_metadata_prefix_bytes":"0","tail_padding_alignment_in_elements":"1","split_configs":[]},"is_dynamic_dimension":[false,false,false]}}}
  %convert_element_type.1530 = f32[1,128,2048]{2,1,0:T(8,128)} convert(%add.797.clone.3), metadata={op_name="jit(train_step)/jvp()/while/body/closed_call/convert_element_type" stack_frame_id=0}
  %square.284 = f32[1,128,2048]{2,1,0:T(8,128)} multiply(%convert_element_type.1530, %convert_element_type.1530), metadata={op_name="jit(train_step)/jvp()/while/body/closed_call/square" stack_frame_id=0}
  %constant.421.clone.16 = f32[]{:T(128)} constant(0)
  %reduce.279 = f32[128]{0:T(128)S(1)} reduce(%square.284, %constant.421.clone.16), dimensions={0,2}, to_apply=%region_5.7, metadata={op_name="jit(train_step)/jvp()/while/body/closed_call/reduce_sum" stack_frame_id=0}
  %convert.414 = bf16[1,128,2048]{2,1,0:T(8,128)(2,1)S(1)} convert(%add.797.clone.3)
  ROOT %tuple.246 = (f32[128]{0:T(128)S(1)}, bf16[1,128,2048]{2,1,0:T(8,128)(2,1)S(1)}) tuple(%reduce.279, %convert.414)
}

%fused_computation.11.clone.1 (param_0.1841: bf16[4,6144,512], param_1.1912: s32[]) -> bf16[1,6144,512] {
  %param_0.1841 = bf16[4,6144,512]{2,1,0:T(8,128)(2,1)} parameter(0)
  %param_1.1912 = s32[]{:T(128)S(6)} parameter(1)
  %constant.420.clone.44 = s32[]{:T(128)} constant(0)
  ROOT %dynamic-slice.213 = bf16[1,6144,512]{2,1,0:T(8,128)(2,1)S(1)} dynamic-slice(%param_0.1841, %param_1.1912, %constant.420.clone.44, %constant.420.clone.44), dynamic_slice_sizes={1,6144,512}, metadata={op_name="jit(train_step)/jvp()/while/body/jit(dynamic_index_in_dim)/dynamic_slice" stack_frame_id=0}, backend_config={"flag_configs":[],"scoped_memory_configs":[],"indices_config":{"index_known_bits":[{"zeroes":"4294967292","ones":"0","bitwidth":"32"},{"zeroes":"4294967295","ones":"0","bitwidth":"32"},{"zeroes":"4294967295","ones":"0","bitwidth":"32"}],"is_index_aligned":[]},"used_scoped_memory_configs":[]}
}

%fused_computation.12.clone.1 (param_0.1840: bf16[4,512,6144], param_1.1911: s32[]) -> bf16[1,512,6144] {
  %param_0.1840 = bf16[4,512,6144]{2,1,0:T(8,128)(2,1)} parameter(0)
  %param_1.1911 = s32[]{:T(128)S(6)} parameter(1)
  %constant.420.clone.43 = s32[]{:T(128)} constant(0)
  ROOT %dynamic-slice.212 = bf16[1,512,6144]{2,1,0:T(8,128)(2,1)S(1)} dynamic-slice(%param_0.1840, %param_1.1911, %constant.420.clone.43, %constant.420.clone.43), dynamic_slice_sizes={1,512,6144}, metadata={op_name="jit(train_step)/jvp()/while/body/jit(dynamic_index_in_dim)/dynamic_slice" stack_frame_id=0}, backend_config={"flag_configs":[],"scoped_memory_configs":[],"indices_config":{"index_known_bits":[{"zeroes":"4294967292","ones":"0","bitwidth":"32"},{"zeroes":"4294967295","ones":"0","bitwidth":"32"},{"zeroes":"4294967295","ones":"0","bitwidth":"32"}],"is_index_aligned":[]},"used_scoped_memory_configs":[]}
}

%fused_computation.13.clone.1 (param_0.1836: bf16[4,512,6144], param_1.1908: s32[]) -> bf16[1,512,6144] {
  %param_0.1836 = bf16[4,512,6144]{2,1,0:T(8,128)(2,1)} parameter(0)
  %param_1.1908 = s32[]{:T(128)S(6)} parameter(1)
  %constant.420.clone.42 = s32[]{:T(128)} constant(0)
  ROOT %dynamic-slice.211 = bf16[1,512,6144]{2,1,0:T(8,128)(2,1)S(1)} dynamic-slice(%param_0.1836, %param_1.1908, %constant.420.clone.42, %constant.420.clone.42), dynamic_slice_sizes={1,512,6144}, metadata={op_name="jit(train_step)/jvp()/while/body/jit(dynamic_index_in_dim)/dynamic_slice" stack_frame_id=0}, backend_config={"flag_configs":[],"scoped_memory_configs":[],"indices_config":{"index_known_bits":[{"zeroes":"4294967292","ones":"0","bitwidth":"32"},{"zeroes":"4294967295","ones":"0","bitwidth":"32"},{"zeroes":"4294967295","ones":"0","bitwidth":"32"}],"is_index_aligned":[]},"used_scoped_memory_configs":[]}
}

%fused_computation.82.clone.1 (param_0.1835: f32[128]) -> f32[128] {
  %param_0.1835 = f32[128]{0:T(128)S(1)} parameter(0)
  %constant.422.clone.10 = f32[]{:T(128)} constant(0.00048828125)
  %broadcast.1099 = f32[128]{0:T(128)} broadcast(%constant.422.clone.10), dimensions={}, metadata={op_name="jit(train_step)/jvp()/while/body/closed_call" stack_frame_id=0}
  %div.1033 = f32[128]{0:T(128)} multiply(%param_0.1835, %broadcast.1099), metadata={op_name="jit(train_step)/jvp()/while/body/closed_call/div" stack_frame_id=0}
  %constant.423.clone.16 = f32[]{:T(128)} constant(1e-06)
  %broadcast.1098 = f32[128]{0:T(128)} broadcast(%constant.423.clone.16), dimensions={}, metadata={op_name="jit(train_step)/jvp()/while/body/closed_call" stack_frame_id=0}
  %add.1066 = f32[128]{0:T(128)} add(%div.1033, %broadcast.1098), metadata={op_name="jit(train_step)/jvp()/while/body/closed_call/add" stack_frame_id=0}
  ROOT %rsqrt.225 = f32[128]{0:T(128)S(1)} rsqrt(%add.1066), metadata={op_name="jit(train_step)/jvp()/while/body/closed_call/rsqrt" stack_frame_id=0}
}

%fused_computation.51.clone.1.clone.1 (param_0.1838: bf16[1,128,2048], param_1.1909: f32[128], param_2.1456: bf16[2048]) -> bf16[128,2048] {
  %param_2.1456 = bf16[2048]{0:T(1024)(128)(2,1)S(1)} parameter(2)
  %dot_general.642 = bf16[1,128,2048]{2,1,0:T(8,128)(2,1)} broadcast(%param_2.1456), dimensions={2}, metadata={op_name="jit(train_step)/jvp()/while/body/closed_call/...k,k->...k/dot_general" stack_frame_id=0}
  %convert.377 = f32[1,128,2048]{2,1,0:T(8,128)} convert(%dot_general.642)
  %param_0.1838 = bf16[1,128,2048]{2,1,0:T(8,128)(2,1)S(1)} parameter(0)
  %convert_element_type.1532 = f32[1,128,2048]{2,1,0:T(8,128)} convert(%param_0.1838), metadata={op_name="jit(train_step)/jvp()/while/body/closed_call/convert_element_type" stack_frame_id=0}
  %param_1.1909 = f32[128]{0:T(128)S(1)} parameter(1)
  %mul.2404 = f32[1,128,2048]{2,1,0:T(8,128)} broadcast(%param_1.1909), dimensions={1}, metadata={op_name="jit(train_step)/jvp()/while/body/closed_call/mul" stack_frame_id=0}
  %mul.2403 = f32[1,128,2048]{2,1,0:T(8,128)} multiply(%convert_element_type.1532, %mul.2404), metadata={op_name="jit(train_step)/jvp()/while/body/closed_call/mul" stack_frame_id=0}
  %convert_element_type.1531 = bf16[1,128,2048]{2,1,0:T(8,128)(2,1)} convert(%mul.2403), metadata={op_name="jit(train_step)/jvp()/while/body/closed_call/convert_element_type" stack_frame_id=0}
  %convert.378 = f32[1,128,2048]{2,1,0:T(8,128)} convert(%convert_element_type.1531)
  %dot_general.641 = f32[1,128,2048]{2,1,0:T(8,128)} multiply(%convert.377, %convert.378), metadata={op_name="jit(train_step)/jvp()/while/body/closed_call/...k,k->...k/dot_general" stack_frame_id=0}, backend_config={"flag_configs":[],"scoped_memory_configs":[],"used_scoped_memory_configs":[],"float_type_correction_info":{"original_type":"BF16","original_shape":{"element_type":"BF16","dimensions":["1","128","2048"],"tuple_shapes":[],"layout":{"minor_to_major":["2","1","0"],"tiles":[{"dimensions":["8","128"]},{"dimensions":["2","1"]}],"element_size_in_bits":"0","memory_space":"0","dim_level_types":[],"index_primitive_type":"PRIMITIVE_TYPE_INVALID","pointer_primitive_type":"PRIMITIVE_TYPE_INVALID","dim_unique":[],"dim_ordered":[],"dynamic_shape_metadata_prefix_bytes":"0","tail_padding_alignment_in_elements":"1","split_configs":[]},"is_dynamic_dimension":[false,false,false]}}}
  %convert.379 = bf16[1,128,2048]{2,1,0:T(8,128)(2,1)} convert(%dot_general.641)
  ROOT %bitcast.1028 = bf16[128,2048]{1,0:T(8,128)(2,1)} bitcast(%convert.379)
}

%fused_computation.10.clone.clone.clone.1 (param_0.1837: bf16[1,2048,6144]) -> bf16[2048,6144] {
  %param_0.1837 = bf16[1,2048,6144]{2,1,0:T(8,128)(2,1)S(1)} parameter(0)
  ROOT %bitcast.1027 = bf16[2048,6144]{1,0:T(8,128)(2,1)} bitcast(%param_0.1837), metadata={op_name="jit(train_step)/jvp()/while/body/closed_call/dot_general" stack_frame_id=0}
}

%fused_computation.24.clone.1 (param_0.1839: bf16[1,2048,6144], param_1.1910: bf16[1,128,2048], param_2.1457: f32[128], param_3.956: bf16[2048]) -> bf16[1,128,6144] {
  %param_1.1910 = bf16[1,128,2048]{2,1,0:T(8,128)(2,1)S(1)} parameter(1)
  %param_2.1457 = f32[128]{0:T(128)S(1)} parameter(2)
  %param_3.956 = bf16[2048]{0:T(1024)(128)(2,1)S(1)} parameter(3)
  %fusion.511 = bf16[128,2048]{1,0:T(8,128)(2,1)} fusion(%param_1.1910, %param_2.1457, %param_3.956), kind=kLoop, calls=%fused_computation.51.clone.1.clone.1
  %param_0.1839 = bf16[1,2048,6144]{2,1,0:T(8,128)(2,1)S(1)} parameter(0)
  %fusion.510 = bf16[2048,6144]{1,0:T(8,128)(2,1)} fusion(%param_0.1839), kind=kLoop, calls=%fused_computation.10.clone.clone.clone.1, metadata={op_name="jit(train_step)/jvp()/while/body/closed_call/dot_general" stack_frame_id=0}
  %convolution.149 = bf16[128,6144]{1,0:T(8,128)(2,1)} convolution(%fusion.511, %fusion.510), dim_labels=bf_io->bf, metadata={op_name="jit(train_step)/jvp()/while/body/closed_call/dot_general" stack_frame_id=0}
  ROOT %bitcast.1029 = bf16[1,128,6144]{2,1,0:T(8,128)(2,1)S(1)} bitcast(%convolution.149), metadata={op_name="jit(train_step)/jvp()/while/body/closed_call/dot_general" stack_frame_id=0}
}

%fused_computation.51.clone.clone.clone.1 (param_0.1844: bf16[1,128,2048], param_1.1913: f32[128], param_2.1458: bf16[2048]) -> bf16[128,2048] {
  %param_2.1458 = bf16[2048]{0:T(1024)(128)(2,1)S(1)} parameter(2)
  %dot_general.644 = bf16[1,128,2048]{2,1,0:T(8,128)(2,1)} broadcast(%param_2.1458), dimensions={2}, metadata={op_name="jit(train_step)/jvp()/while/body/closed_call/...k,k->...k/dot_general" stack_frame_id=0}
  %convert.380 = f32[1,128,2048]{2,1,0:T(8,128)} convert(%dot_general.644)
  %param_0.1844 = bf16[1,128,2048]{2,1,0:T(8,128)(2,1)S(1)} parameter(0)
  %convert_element_type.1534 = f32[1,128,2048]{2,1,0:T(8,128)} convert(%param_0.1844), metadata={op_name="jit(train_step)/jvp()/while/body/closed_call/convert_element_type" stack_frame_id=0}
  %param_1.1913 = f32[128]{0:T(128)S(1)} parameter(1)
  %mul.2406 = f32[1,128,2048]{2,1,0:T(8,128)} broadcast(%param_1.1913), dimensions={1}, metadata={op_name="jit(train_step)/jvp()/while/body/closed_call/mul" stack_frame_id=0}
  %mul.2405 = f32[1,128,2048]{2,1,0:T(8,128)} multiply(%convert_element_type.1534, %mul.2406), metadata={op_name="jit(train_step)/jvp()/while/body/closed_call/mul" stack_frame_id=0}
  %convert_element_type.1533 = bf16[1,128,2048]{2,1,0:T(8,128)(2,1)} convert(%mul.2405), metadata={op_name="jit(train_step)/jvp()/while/body/closed_call/convert_element_type" stack_frame_id=0}
  %convert.381 = f32[1,128,2048]{2,1,0:T(8,128)} convert(%convert_element_type.1533)
  %dot_general.643 = f32[1,128,2048]{2,1,0:T(8,128)} multiply(%convert.380, %convert.381), metadata={op_name="jit(train_step)/jvp()/while/body/closed_call/...k,k->...k/dot_general" stack_frame_id=0}, backend_config={"flag_configs":[],"scoped_memory_configs":[],"used_scoped_memory_configs":[],"float_type_correction_info":{"original_type":"BF16","original_shape":{"element_type":"BF16","dimensions":["1","128","2048"],"tuple_shapes":[],"layout":{"minor_to_major":["2","1","0"],"tiles":[{"dimensions":["8","128"]},{"dimensions":["2","1"]}],"element_size_in_bits":"0","memory_space":"0","dim_level_types":[],"index_primitive_type":"PRIMITIVE_TYPE_INVALID","pointer_primitive_type":"PRIMITIVE_TYPE_INVALID","dim_unique":[],"dim_ordered":[],"dynamic_shape_metadata_prefix_bytes":"0","tail_padding_alignment_in_elements":"1","split_configs":[]},"is_dynamic_dimension":[false,false,false]}}}
  %convert.382 = bf16[1,128,2048]{2,1,0:T(8,128)(2,1)} convert(%dot_general.643)
  ROOT %bitcast.1032 = bf16[128,2048]{1,0:T(8,128)(2,1)} bitcast(%convert.382)
}

%fused_computation.8.clone.clone.clone.clone.clone.clone.clone.clone.clone.1 (param_0.1843: bf16[1,2048,6144]) -> bf16[2048,6144] {
  %param_0.1843 = bf16[1,2048,6144]{2,1,0:T(8,128)(2,1)} parameter(0)
  ROOT %bitcast.1031 = bf16[2048,6144]{1,0:T(8,128)(2,1)} bitcast(%param_0.1843), metadata={op_name="jit(train_step)/jvp()/while/body/closed_call/dot_general" stack_frame_id=0}
}

%fused_computation.27.clone.clone.clone.1 (param_0.1845: bf16[1,2048,6144], param_1.1914: bf16[1,128,6144], param_2.1459: bf16[1,128,2048], param_3.957: f32[128], param_4.568: bf16[2048]) -> bf16[128,6144] {
  %param_1.1914 = bf16[1,128,6144]{2,1,0:T(8,128)(2,1)S(1)} parameter(1)
  %convert.383 = f32[1,128,6144]{2,1,0:T(8,128)} convert(%param_1.1914)
  %constant.426.clone.10 = bf16[]{:T(256)} constant(1)
  %jit_silu_.46 = bf16[1,128,6144]{2,1,0:T(8,128)(2,1)} broadcast(%constant.426.clone.10), dimensions={}, metadata={op_name="jit(train_step)/jvp()/while/body/closed_call/jit(silu)" stack_frame_id=0}
  %convert.384 = f32[1,128,6144]{2,1,0:T(8,128)} convert(%jit_silu_.46)
  %neg.135 = f32[1,128,6144]{2,1,0:T(8,128)} negate(%convert.383), metadata={op_name="jit(train_step)/jvp()/while/body/closed_call/jit(silu)/neg" stack_frame_id=0}, backend_config={"flag_configs":[],"scoped_memory_configs":[],"used_scoped_memory_configs":[],"float_type_correction_info":{"original_type":"BF16","original_shape":{"element_type":"BF16","dimensions":["1","128","6144"],"tuple_shapes":[],"layout":{"minor_to_major":["2","1","0"],"tiles":[{"dimensions":["8","128"]},{"dimensions":["2","1"]}],"element_size_in_bits":"0","memory_space":"0","dim_level_types":[],"index_primitive_type":"PRIMITIVE_TYPE_INVALID","pointer_primitive_type":"PRIMITIVE_TYPE_INVALID","dim_unique":[],"dim_ordered":[],"dynamic_shape_metadata_prefix_bytes":"0","tail_padding_alignment_in_elements":"1","split_configs":[]},"is_dynamic_dimension":[false,false,false]}}}
  %exp.79 = f32[1,128,6144]{2,1,0:T(8,128)} exponential(%neg.135), metadata={op_name="jit(train_step)/jvp()/while/body/closed_call/jit(silu)/exp" stack_frame_id=0}, backend_config={"flag_configs":[],"scoped_memory_configs":[],"used_scoped_memory_configs":[],"float_type_correction_info":{"original_type":"BF16","original_shape":{"element_type":"BF16","dimensions":["1","128","6144"],"tuple_shapes":[],"layout":{"minor_to_major":["2","1","0"],"tiles":[{"dimensions":["8","128"]},{"dimensions":["2","1"]}],"element_size_in_bits":"0","memory_space":"0","dim_level_types":[],"index_primitive_type":"PRIMITIVE_TYPE_INVALID","pointer_primitive_type":"PRIMITIVE_TYPE_INVALID","dim_unique":[],"dim_ordered":[],"dynamic_shape_metadata_prefix_bytes":"0","tail_padding_alignment_in_elements":"1","split_configs":[]},"is_dynamic_dimension":[false,false,false]}}}
  %add.1067 = f32[1,128,6144]{2,1,0:T(8,128)} add(%exp.79, %convert.384), metadata={op_name="jit(train_step)/jvp()/while/body/closed_call/jit(silu)/add" stack_frame_id=0}, backend_config={"flag_configs":[],"scoped_memory_configs":[],"used_scoped_memory_configs":[],"float_type_correction_info":{"original_type":"BF16","original_shape":{"element_type":"BF16","dimensions":["1","128","6144"],"tuple_shapes":[],"layout":{"minor_to_major":["2","1","0"],"tiles":[{"dimensions":["8","128"]},{"dimensions":["2","1"]}],"element_size_in_bits":"0","memory_space":"0","dim_level_types":[],"index_primitive_type":"PRIMITIVE_TYPE_INVALID","pointer_primitive_type":"PRIMITIVE_TYPE_INVALID","dim_unique":[],"dim_ordered":[],"dynamic_shape_metadata_prefix_bytes":"0","tail_padding_alignment_in_elements":"1","split_configs":[]},"is_dynamic_dimension":[false,false,false]}}}
  %div.1034 = f32[1,128,6144]{2,1,0:T(8,128)} divide(%convert.384, %add.1067), metadata={op_name="jit(train_step)/jvp()/while/body/closed_call/jit(silu)/div" stack_frame_id=0}, backend_config={"flag_configs":[],"scoped_memory_configs":[],"used_scoped_memory_configs":[],"float_type_correction_info":{"original_type":"BF16","original_shape":{"element_type":"BF16","dimensions":["1","128","6144"],"tuple_shapes":[],"layout":{"minor_to_major":["2","1","0"],"tiles":[{"dimensions":["8","128"]},{"dimensions":["2","1"]}],"element_size_in_bits":"0","memory_space":"0","dim_level_types":[],"index_primitive_type":"PRIMITIVE_TYPE_INVALID","pointer_primitive_type":"PRIMITIVE_TYPE_INVALID","dim_unique":[],"dim_ordered":[],"dynamic_shape_metadata_prefix_bytes":"0","tail_padding_alignment_in_elements":"1","split_configs":[]},"is_dynamic_dimension":[false,false,false]}}}
  %mul.2408 = f32[1,128,6144]{2,1,0:T(8,128)} multiply(%convert.383, %div.1034), metadata={op_name="jit(train_step)/jvp()/while/body/closed_call/jit(silu)/mul" stack_frame_id=0}, backend_config={"flag_configs":[],"scoped_memory_configs":[],"used_scoped_memory_configs":[],"float_type_correction_info":{"original_type":"BF16","original_shape":{"element_type":"BF16","dimensions":["1","128","6144"],"tuple_shapes":[],"layout":{"minor_to_major":["2","1","0"],"tiles":[{"dimensions":["8","128"]},{"dimensions":["2","1"]}],"element_size_in_bits":"0","memory_space":"0","dim_level_types":[],"index_primitive_type":"PRIMITIVE_TYPE_INVALID","pointer_primitive_type":"PRIMITIVE_TYPE_INVALID","dim_unique":[],"dim_ordered":[],"dynamic_shape_metadata_prefix_bytes":"0","tail_padding_alignment_in_elements":"1","split_configs":[]},"is_dynamic_dimension":[false,false,false]}}}
  %param_2.1459 = bf16[1,128,2048]{2,1,0:T(8,128)(2,1)S(1)} parameter(2)
  %param_3.957 = f32[128]{0:T(128)S(1)} parameter(3)
  %param_4.568 = bf16[2048]{0:T(1024)(128)(2,1)S(1)} parameter(4)
  %fusion.513 = bf16[128,2048]{1,0:T(8,128)(2,1)} fusion(%param_2.1459, %param_3.957, %param_4.568), kind=kLoop, calls=%fused_computation.51.clone.clone.clone.1
  %param_0.1845 = bf16[1,2048,6144]{2,1,0:T(8,128)(2,1)} parameter(0)
  %fusion.512 = bf16[2048,6144]{1,0:T(8,128)(2,1)} fusion(%param_0.1845), kind=kLoop, calls=%fused_computation.8.clone.clone.clone.clone.clone.clone.clone.clone.clone.1, metadata={op_name="jit(train_step)/jvp()/while/body/closed_call/dot_general" stack_frame_id=0}
  %convolution.150 = bf16[128,6144]{1,0:T(8,128)(2,1)} convolution(%fusion.513, %fusion.512), dim_labels=bf_io->bf, metadata={op_name="jit(train_step)/jvp()/while/body/closed_call/dot_general" stack_frame_id=0}
  %bitcast.1034 = bf16[1,128,6144]{2,1,0:T(8,128)(2,1)} bitcast(%convolution.150), metadata={op_name="jit(train_step)/jvp()/while/body/closed_call/dot_general" stack_frame_id=0}
  %convert.385 = f32[1,128,6144]{2,1,0:T(8,128)} convert(%bitcast.1034)
  %mul.2407 = f32[1,128,6144]{2,1,0:T(8,128)} multiply(%mul.2408, %convert.385), metadata={op_name="jit(train_step)/jvp()/while/body/closed_call/mul" stack_frame_id=0}, backend_config={"flag_configs":[],"scoped_memory_configs":[],"used_scoped_memory_configs":[],"float_type_correction_info":{"original_type":"BF16","original_shape":{"element_type":"BF16","dimensions":["1","128","6144"],"tuple_shapes":[],"layout":{"minor_to_major":["2","1","0"],"tiles":[{"dimensions":["8","128"]},{"dimensions":["2","1"]}],"element_size_in_bits":"0","memory_space":"0","dim_level_types":[],"index_primitive_type":"PRIMITIVE_TYPE_INVALID","pointer_primitive_type":"PRIMITIVE_TYPE_INVALID","dim_unique":[],"dim_ordered":[],"dynamic_shape_metadata_prefix_bytes":"0","tail_padding_alignment_in_elements":"1","split_configs":[]},"is_dynamic_dimension":[false,false,false]}}}
  %convert.386 = bf16[1,128,6144]{2,1,0:T(8,128)(2,1)} convert(%mul.2407)
  ROOT %bitcast.1033 = bf16[128,6144]{1,0:T(8,128)(2,1)} bitcast(%convert.386)
}

%fused_computation.6.clone.clone.clone.clone.clone.1 (param_0.1842: bf16[1,6144,2048]) -> bf16[6144,2048] {
  %param_0.1842 = bf16[1,6144,2048]{2,1,0:T(8,128)(2,1)S(1)} parameter(0)
  ROOT %bitcast.1030 = bf16[6144,2048]{1,0:T(8,128)(2,1)} bitcast(%param_0.1842), metadata={op_name="jit(train_step)/jvp()/while/body/closed_call/dot_general" stack_frame_id=0}
}

%fused_computation.37.clone.1 (param_0.1846: bf16[1,128,2048], param_1.1915: bf16[1,6144,2048], param_2.1460: bf16[1,2048,6144], param_3.958: bf16[1,128,6144], param_4.569: f32[128], param_5.492: bf16[2048]) -> bf16[1,128,2048] {
  %param_0.1846 = bf16[1,128,2048]{2,1,0:T(8,128)(2,1)S(1)} parameter(0)
  %convert.415 = f32[1,128,2048]{2,1,0:T(8,128)} convert(%param_0.1846)
  %param_2.1460 = bf16[1,2048,6144]{2,1,0:T(8,128)(2,1)} parameter(2)
  %param_3.958 = bf16[1,128,6144]{2,1,0:T(8,128)(2,1)S(1)} parameter(3)
  %param_4.569 = f32[128]{0:T(128)S(1)} parameter(4)
  %param_5.492 = bf16[2048]{0:T(1024)(128)(2,1)S(1)} parameter(5)
  %fusion.36.clone.3 = bf16[128,6144]{1,0:T(8,128)(2,1)} fusion(%param_2.1460, %param_3.958, %param_0.1846, %param_4.569, %param_5.492), kind=kOutput, calls=%fused_computation.27.clone.clone.clone.1, metadata={op_name="jit(train_step)/jvp()/while/body/closed_call/dot_general" stack_frame_id=0}
  %param_1.1915 = bf16[1,6144,2048]{2,1,0:T(8,128)(2,1)S(1)} parameter(1)
  %fusion.514 = bf16[6144,2048]{1,0:T(8,128)(2,1)} fusion(%param_1.1915), kind=kLoop, calls=%fused_computation.6.clone.clone.clone.clone.clone.1, metadata={op_name="jit(train_step)/jvp()/while/body/closed_call/dot_general" stack_frame_id=0}
  %convolution.151 = bf16[128,2048]{1,0:T(8,128)(2,1)} convolution(%fusion.36.clone.3, %fusion.514), dim_labels=bf_io->bf, metadata={op_name="jit(train_step)/jvp()/while/body/closed_call/dot_general" stack_frame_id=0}
  %bitcast.1035 = bf16[1,128,2048]{2,1,0:T(8,128)(2,1)} bitcast(%convolution.151), metadata={op_name="jit(train_step)/jvp()/while/body/closed_call/dot_general" stack_frame_id=0}
  %convert.416 = f32[1,128,2048]{2,1,0:T(8,128)} convert(%bitcast.1035)
  %add.1068 = f32[1,128,2048]{2,1,0:T(8,128)} add(%convert.415, %convert.416), metadata={op_name="jit(train_step)/jvp()/while/body/closed_call/add" stack_frame_id=0}, backend_config={"flag_configs":[],"scoped_memory_configs":[],"used_scoped_memory_configs":[],"float_type_correction_info":{"original_type":"BF16","original_shape":{"element_type":"BF16","dimensions":["1","128","2048"],"tuple_shapes":[],"layout":{"minor_to_major":["2","1","0"],"tiles":[{"dimensions":["8","128"]},{"dimensions":["2","1"]}],"element_size_in_bits":"0","memory_space":"0","dim_level_types":[],"index_primitive_type":"PRIMITIVE_TYPE_INVALID","pointer_primitive_type":"PRIMITIVE_TYPE_INVALID","dim_unique":[],"dim_ordered":[],"dynamic_shape_metadata_prefix_bytes":"0","tail_padding_alignment_in_elements":"1","split_configs":[]},"is_dynamic_dimension":[false,false,false]}}}
  ROOT %convert.417 = bf16[1,128,2048]{2,1,0:T(8,128)(2,1)S(1)} convert(%add.1068)
}

%wide.region_1.8_spmd.sunk.clone.clone.clone.sunk (wide.param.1: (s32[], bf16[1,128,2048], u32[4], u32[4,4], u32[4], /*index=5*/u32[4,4], u32[4], u32[4,4], u32[4], u32[4,4], /*index=10*/u32[4], u32[4,4], u32[4], u32[4,4], bf16[4,1,128,2048], /*index=15*/bf16[4,128], bf16[4,2048], bf16[4,512,16,128], bf16[1,128,1,128], bf16[1,128,1,128], /*index=20*/bf16[4,128], bf16[4,512,8,128], bf16[4,512,8,128], bf16[4,16,128,512], bf16[4,2048], /*index=25*/bf16[4,512,6144], bf16[4,512,6144], bf16[4,6144,512], u32[4], u32[4,4], /*index=30*/u32[4], u32[4,4], u32[4], u32[4,4], u32[4], /*index=35*/u32[4,4], u32[4], u32[4,4], u32[4], u32[4,4], /*index=40*/s32[128], s32[], s8[1,1,1], s8[1,1,1])) -> (s32[], bf16[1,128,2048], u32[4], u32[4,4], u32[4], /*index=5*/u32[4,4], u32[4], u32[4,4], u32[4], u32[4,4], /*index=10*/u32[4], u32[4,4], u32[4], u32[4,4], bf16[4,1,128,2048], /*index=15*/bf16[4,128], bf16[4,2048], bf16[4,512,16,128], bf16[1,128,1,128], bf16[1,128,1,128], /*index=20*/bf16[4,128], bf16[4,512,8,128], bf16[4,512,8,128], bf16[4,16,128,512], bf16[4,2048], /*index=25*/bf16[4,512,6144], bf16[4,512,6144], bf16[4,6144,512], u32[4], u32[4,4], /*index=30*/u32[4], u32[4,4], u32[4], u32[4,4], u32[4], /*index=35*/u32[4,4], u32[4], u32[4,4], u32[4], u32[4,4], /*index=40*/s32[128], s32[], s8[1,1,1], s8[1,1,1]) {
  %constant.477.clone..sunk.1 = s32[]{:T(128)} constant(1)
  %wide.param.1 = (s32[]{:T(128)}, bf16[1,128,2048]{2,1,0:T(8,128)(2,1)S(1)}, u32[4]{0:T(128)}, u32[4,4]{1,0:T(4,128)}, u32[4]{0:T(128)}, /*index=5*/u32[4,4]{1,0:T(4,128)}, u32[4]{0:T(128)}, u32[4,4]{1,0:T(4,128)}, u32[4]{0:T(128)}, u32[4,4]{1,0:T(4,128)}, /*index=10*/u32[4]{0:T(128)}, u32[4,4]{1,0:T(4,128)}, u32[4]{0:T(128)}, u32[4,4]{1,0:T(4,128)}, bf16[4,1,128,2048]{3,2,1,0:T(8,128)(2,1)}, /*index=15*/bf16[4,128]{1,0:T(4,128)(2,1)S(1)}, bf16[4,2048]{1,0:T(4,128)(2,1)S(1)}, bf16[4,512,16,128]{1,3,2,0:T(8,128)(2,1)S(1)}, bf16[1,128,1,128]{3,1,2,0:T(8,128)(2,1)S(1)}, bf16[1,128,1,128]{3,1,2,0:T(8,128)(2,1)S(1)}, /*index=20*/bf16[4,128]{1,0:T(4,128)(2,1)S(1)}, bf16[4,512,8,128]{1,3,2,0:T(8,128)(2,1)}, bf16[4,512,8,128]{3,1,2,0:T(8,128)(2,1)}, bf16[4,16,128,512]{3,2,1,0:T(8,128)(2,1)}, bf16[4,2048]{1,0:T(4,128)(2,1)S(1)}, /*index=25*/bf16[4,512,6144]{2,1,0:T(8,128)(2,1)}, bf16[4,512,6144]{2,1,0:T(8,128)(2,1)}, bf16[4,6144,512]{2,1,0:T(8,128)(2,1)}, u32[4]{0:T(128)S(1)}, u32[4,4]{1,0:T(4,128)S(1)}, /*index=30*/u32[4]{0:T(128)S(1)}, u32[4,4]{1,0:T(4,128)S(1)}, u32[4]{0:T(128)S(1)}, u32[4,4]{1,0:T(4,128)S(1)}, u32[4]{0:T(128)S(1)}, /*index=35*/u32[4,4]{1,0:T(4,128)S(1)}, u32[4]{0:T(128)S(1)}, u32[4,4]{1,0:T(4,128)S(1)}, u32[4]{0:T(128)S(1)}, u32[4,4]{1,0:T(4,128)S(1)}, /*index=40*/s32[128]{0:T(128)S(1)}, s32[]{:T(128)}, s8[1,1,1]{2,1,0:T(4,128)(4,1)}, s8[1,1,1]{2,1,0:T(4,128)(4,1)}) parameter(0)
  %get-tuple-element.2262 = s32[]{:T(128)} get-tuple-element(%wide.param.1), index=0
  %copy.255 = s32[]{:T(128)S(6)} copy(%get-tuple-element.2262), backend_config={"flag_configs":[],"scoped_memory_configs":[],"used_scoped_memory_configs":[],"aliasing_operands":{"lists":[]}}
  %add.1069 = s32[]{:T(128)} add(%copy.255, %constant.477.clone..sunk.1), metadata={op_name="jit(train_step)/jvp()/while/body/add" stack_frame_id=0}, backend_config={"flag_configs":[],"scoped_memory_configs":[],"used_scoped_memory_configs":[],"aliasing_operands":{"lists":[]}}
  %get-tuple-element.2276 = bf16[4,1,128,2048]{3,2,1,0:T(8,128)(2,1)} get-tuple-element(%wide.param.1), index=14
  %get-tuple-element.2263 = bf16[1,128,2048]{2,1,0:T(8,128)(2,1)S(1)} get-tuple-element(%wide.param.1), index=1
  %bitcast_dynamic-update-slice_fusion.5 = bf16[4,1,128,2048]{3,2,1,0:T(8,128)(2,1)} fusion(%get-tuple-element.2276, %copy.255, %get-tuple-element.2263), kind=kLoop, calls=%fused_computation.60.clone.1, metadata={op_name="jit(train_step)/jvp()/while/body/jit(dynamic_update_index_in_dim)/dynamic_update_slice" stack_frame_id=0}, backend_config={"flag_configs":[],"scoped_memory_configs":[],"used_scoped_memory_configs":[],"aliasing_operands":{"lists":[{"indices":["0","3"]}]}}
  %get-tuple-element.2329 = bf16[4,16,128,512]{3,2,1,0:T(8,128)(2,1)} get-tuple-element(%wide.param.1), index=23
  %dynamic-slice_convert_fusion.35 = bf16[1,16,128,512]{3,2,1,0:T(8,128)(2,1)S(1)} fusion(%get-tuple-element.2329, %copy.255), kind=kLoop, calls=%fused_computation.22.clone.1, metadata={op_name="jit(train_step)/jvp()/while/body/closed_call/convert_element_type" stack_frame_id=0}, backend_config={"flag_configs":[],"scoped_memory_configs":[],"used_scoped_memory_configs":[],"aliasing_operands":{"lists":[]}}
  %all-gather.108 = bf16[1,16,128,2048]{3,2,1,0:T(8,128)(2,1)S(1)} all-gather(%dynamic-slice_convert_fusion.35), channel_id=105, replica_groups=mesh['axis_0'=1,'axis_1'=1,'axis_2'=4] {'axis_2'}, dimensions={3}, use_global_device_ids=true, metadata={op_name="jit(train_step)/jvp()/while/body/closed_call/dot_general" stack_frame_id=0}, backend_config={"flag_configs":[],"barrier_config":{"barrier_type":"CUSTOM","id":"0"},"scoped_memory_configs":[],"used_scoped_memory_configs":[],"aliasing_operands":{"lists":[]}}
  %get-tuple-element.2348 = s8[1,1,1]{2,1,0:T(4,128)(4,1)} get-tuple-element(%wide.param.1), index=42, metadata={op_name="jit(train_step)/sharding_constraint" stack_frame_id=0}
  %get-tuple-element.2349 = s8[1,1,1]{2,1,0:T(4,128)(4,1)} get-tuple-element(%wide.param.1), index=43, metadata={op_name="jit(train_step)/sharding_constraint" stack_frame_id=0}
  %get-tuple-element.2323 = bf16[4,512,16,128]{1,3,2,0:T(8,128)(2,1)S(1)} get-tuple-element(%wide.param.1), index=17
  %dynamic-slice_convert_fusion.36 = bf16[1,512,16,128]{1,3,2,0:T(8,128)(2,1)S(1)} fusion(%get-tuple-element.2323, %copy.255), kind=kLoop, calls=%fused_computation.23.clone.1, metadata={op_name="jit(train_step)/jvp()/while/body/closed_call/convert_element_type" stack_frame_id=0}, backend_config={"flag_configs":[],"scoped_memory_configs":[],"used_scoped_memory_configs":[],"aliasing_operands":{"lists":[]}}
  %all-gather.109 = bf16[1,2048,16,128]{1,3,2,0:T(8,128)(2,1)S(1)} all-gather(%dynamic-slice_convert_fusion.36), channel_id=102, replica_groups=mesh['axis_0'=4,'axis_1'=1,'axis_2'=1] {'axis_0'}, dimensions={1}, use_global_device_ids=true, metadata={op_name="jit(train_step)/jvp()/while/body/closed_call/dot_general" stack_frame_id=0}, backend_config={"flag_configs":[],"barrier_config":{"barrier_type":"CUSTOM","id":"0"},"scoped_memory_configs":[],"used_scoped_memory_configs":[],"aliasing_operands":{"lists":[]}}
  %fusion.515 = f32[128]{0:T(128)S(1)} fusion(%get-tuple-element.2263), kind=kLoop, calls=%fused_computation.38.clone.1, metadata={op_name="jit(train_step)/jvp()/while/body/closed_call/reduce_sum" stack_frame_id=0}, backend_config={"flag_configs":[],"scoped_memory_configs":[],"used_scoped_memory_configs":[],"aliasing_operands":{"lists":[]}}
  %add_rsqrt_fusion.8 = f32[128]{0:T(128)S(1)} fusion(%fusion.515), kind=kLoop, calls=%fused_computation.83.clone.1, metadata={op_name="jit(train_step)/jvp()/while/body/closed_call/rsqrt" stack_frame_id=0}, backend_config={"flag_configs":[],"scoped_memory_configs":[],"used_scoped_memory_configs":[],"aliasing_operands":{"lists":[]}}
  %get-tuple-element.2330 = bf16[4,2048]{1,0:T(4,128)(2,1)S(1)} get-tuple-element(%wide.param.1), index=24
  %get-tuple-element.2322 = bf16[4,2048]{1,0:T(4,128)(2,1)S(1)} get-tuple-element(%wide.param.1), index=16
  %convert_reduce_fusion.7 = (bf16[2048]{0:T(1024)(128)(2,1)S(1)}, bf16[2048]{0:T(1024)(128)(2,1)S(1)}) fusion(%get-tuple-element.2330, %copy.255, %get-tuple-element.2322), kind=kLoop, calls=%fused_computation.73.clone.1, metadata={op_name="jit(train_step)/jvp()/while/body/closed_call/convert_element_type" stack_frame_id=0}, backend_config={"flag_configs":[],"scoped_memory_configs":[],"used_scoped_memory_configs":[],"fusion_formation_source":{"fusion_creating_compiler_pass":"TpuAdvancedMOF","fusion_id":"42"},"aliasing_operands":{"lists":[]}}
  %get-tuple-element.2203 = bf16[2048]{0:T(1024)(128)(2,1)S(1)} get-tuple-element(%convert_reduce_fusion.7), index=1, metadata={op_name="jit(train_step)/jvp()/while/body/closed_call/convert_element_type" stack_frame_id=0}
  %fusion.516 = (f32[128,16]{0,1:T(8,128)S(1)}, bf16[128,16,128]{2,0,1:T(8,128)(2,1)S(1)}) fusion(%all-gather.109, %get-tuple-element.2263, %add_rsqrt_fusion.8, %get-tuple-element.2203), kind=kOutput, calls=%fused_computation.44.clone.1, metadata={op_name="jit(train_step)/jvp()/while/body/closed_call/dot_general" stack_frame_id=0}, backend_config={"flag_configs":[],"scoped_memory_configs":[],"used_scoped_memory_configs":[],"aliasing_operands":{"lists":[]}}
  %get-tuple-element.2204 = bf16[128,16,128]{2,0,1:T(8,128)(2,1)S(1)} get-tuple-element(%fusion.516), index=1, metadata={op_name="jit(train_step)/jvp()/while/body/closed_call/reduce_sum" stack_frame_id=0}
  %get-tuple-element.2205 = f32[128,16]{0,1:T(8,128)S(1)} get-tuple-element(%fusion.516), index=0, metadata={op_name="jit(train_step)/jvp()/while/body/closed_call/reduce_sum" stack_frame_id=0}
  %add_rsqrt_fusion.9 = f32[128,16]{0,1:T(8,128)S(1)} fusion(%get-tuple-element.2205), kind=kLoop, calls=%fused_computation.72.clone.1, metadata={op_name="jit(train_step)/jvp()/while/body/closed_call/rsqrt" stack_frame_id=0}, backend_config={"flag_configs":[],"scoped_memory_configs":[],"used_scoped_memory_configs":[],"aliasing_operands":{"lists":[]}}
  %get-tuple-element.2321 = bf16[4,128]{1,0:T(4,128)(2,1)S(1)} get-tuple-element(%wide.param.1), index=15
  %get-tuple-element.2326 = bf16[4,128]{1,0:T(4,128)(2,1)S(1)} get-tuple-element(%wide.param.1), index=20
  %fusion.517 = (bf16[128]{0:T(256)(128)(2,1)S(1)}, bf16[128]{0:T(256)(128)(2,1)S(1)}) fusion(%get-tuple-element.2321, %copy.255, %get-tuple-element.2326), kind=kLoop, calls=%fused_computation.79.clone.1, metadata={op_name="jit(train_step)/jvp()/while/body/closed_call/convert_element_type" stack_frame_id=0}, backend_config={"flag_configs":[],"scoped_memory_configs":[],"used_scoped_memory_configs":[],"fusion_formation_source":{"fusion_creating_compiler_pass":"TpuAdvancedMOF","fusion_id":"42"},"aliasing_operands":{"lists":[]}}
  %get-tuple-element.2206 = bf16[128]{0:T(256)(128)(2,1)S(1)} get-tuple-element(%fusion.517), index=0, metadata={op_name="jit(train_step)/jvp()/while/body/closed_call/convert_element_type" stack_frame_id=0}
  %fusion.518 = bf16[1,128,16,128]{3,1,2,0:T(8,128)(2,1)S(1)} fusion(%get-tuple-element.2204, %add_rsqrt_fusion.9, %get-tuple-element.2206), kind=kLoop, calls=%fused_computation.49.clone.2, metadata={op_name="jit(train_step)/jvp()/while/body/closed_call/...k,k->...k/dot_general" stack_frame_id=0}, backend_config={"flag_configs":[],"scoped_memory_configs":[],"used_scoped_memory_configs":[],"aliasing_operands":{"lists":[]}}
  %slice_negate_fusion.12 = (bf16[1,128,16,64]{3,1,2,0:T(8,128)(2,1)S(1)}, bf16[1,128,16,64]{3,1,2,0:T(8,128)(2,1)S(1)}) fusion(%fusion.518), kind=kLoop, calls=%fused_computation.54.clone.1, metadata={op_name="jit(train_step)/jvp()/while/body/closed_call/neg" stack_frame_id=0}, backend_config={"flag_configs":[],"scoped_memory_configs":[],"used_scoped_memory_configs":[],"aliasing_operands":{"lists":[]}}
  %get-tuple-element.2207 = bf16[1,128,16,64]{3,1,2,0:T(8,128)(2,1)S(1)} get-tuple-element(%slice_negate_fusion.12), index=1, metadata={op_name="jit(train_step)/jvp()/while/body/closed_call/neg" stack_frame_id=0}
  %get-tuple-element.2208 = bf16[1,128,16,64]{3,1,2,0:T(8,128)(2,1)S(1)} get-tuple-element(%slice_negate_fusion.12), index=0, metadata={op_name="jit(train_step)/jvp()/while/body/closed_call/neg" stack_frame_id=0}
  %get-tuple-element.2325 = bf16[1,128,1,128]{3,1,2,0:T(8,128)(2,1)S(1)} get-tuple-element(%wide.param.1), index=19
  %get-tuple-element.2324 = bf16[1,128,1,128]{3,1,2,0:T(8,128)(2,1)S(1)} get-tuple-element(%wide.param.1), index=18
  %bitcast.1070 = bf16[128,128]{1,0:T(8,128)(2,1)S(1)} bitcast(%get-tuple-element.2325)
  %bitcast.1068 = bf16[128,128]{1,0:T(8,128)(2,1)S(1)} bitcast(%get-tuple-element.2324)
  %fusion.519 = bf16[16,128,128]{2,1,0:T(8,128)(2,1)S(1)} fusion(%get-tuple-element.2207, %get-tuple-element.2208, %bitcast.1070, %bitcast.1068, %add_rsqrt_fusion.9, /*index=5*/%get-tuple-element.2204, %get-tuple-element.2206), kind=kLoop, calls=%fused_computation.58.clone.1, metadata={op_name="jit(train_step)/jvp()/while/body/closed_call/shard_map/vmap(static_sparsity_splash)/jit(_splash_attention)/splash_mha_fwd_segmented_residuals/splash_mha_fwd_segmented_residuals/squeeze" stack_frame_id=0}, backend_config={"flag_configs":[],"scoped_memory_configs":[],"used_scoped_memory_configs":[],"aliasing_operands":{"lists":[]}}
  %get-tuple-element.2327 = bf16[4,512,8,128]{1,3,2,0:T(8,128)(2,1)} get-tuple-element(%wide.param.1), index=21
  %dynamic-slice_convert_fusion.37 = bf16[1,512,8,128]{1,3,2,0:T(8,128)(2,1)S(1)} fusion(%get-tuple-element.2327, %copy.255), kind=kLoop, calls=%fused_computation.29.clone.1, metadata={op_name="jit(train_step)/jvp()/while/body/closed_call/convert_element_type" stack_frame_id=0}, backend_config={"flag_configs":[],"scoped_memory_configs":[],"used_scoped_memory_configs":[],"aliasing_operands":{"lists":[]}}
  %all-gather.110 = bf16[1,2048,8,128]{1,3,2,0:T(8,128)(2,1)S(1)} all-gather(%dynamic-slice_convert_fusion.37), channel_id=103, replica_groups=mesh['axis_0'=4,'axis_1'=1,'axis_2'=1] {'axis_0'}, dimensions={1}, use_global_device_ids=true, metadata={op_name="jit(train_step)/jvp()/while/body/closed_call/dot_general" stack_frame_id=0}, backend_config={"flag_configs":[],"barrier_config":{"barrier_type":"CUSTOM","id":"0"},"scoped_memory_configs":[],"used_scoped_memory_configs":[],"aliasing_operands":{"lists":[]}}
  %multiply_reduce_fusion.48 = (f32[128,8]{0,1:T(8,128)S(1)}, f32[1,128,8,128]{3,1,2,0:T(8,128)S(1)}) fusion(%all-gather.110, %get-tuple-element.2263, %add_rsqrt_fusion.8, %get-tuple-element.2203), kind=kOutput, calls=%fused_computation.64.clone.1, metadata={op_name="jit(train_step)/jvp()/while/body/closed_call/dot_general" stack_frame_id=0}, backend_config={"flag_configs":[],"scoped_memory_configs":[],"used_scoped_memory_configs":[],"aliasing_operands":{"lists":[]}}
  %get-tuple-element.2209 = f32[1,128,8,128]{3,1,2,0:T(8,128)S(1)} get-tuple-element(%multiply_reduce_fusion.48), index=1, metadata={op_name="jit(train_step)/jvp()/while/body/closed_call/reduce_sum" stack_frame_id=0}
  %get-tuple-element.2210 = f32[128,8]{0,1:T(8,128)S(1)} get-tuple-element(%multiply_reduce_fusion.48), index=0, metadata={op_name="jit(train_step)/jvp()/while/body/closed_call/reduce_sum" stack_frame_id=0}
  %add_rsqrt_fusion.10 = f32[128,8]{0,1:T(8,128)S(1)} fusion(%get-tuple-element.2210), kind=kLoop, calls=%fused_computation.75.clone.1, metadata={op_name="jit(train_step)/jvp()/while/body/closed_call/rsqrt" stack_frame_id=0}, backend_config={"flag_configs":[],"scoped_memory_configs":[],"used_scoped_memory_configs":[],"aliasing_operands":{"lists":[]}}
  %get-tuple-element.2211 = bf16[128]{0:T(256)(128)(2,1)S(1)} get-tuple-element(%fusion.517), index=1, metadata={op_name="jit(train_step)/jvp()/while/body/closed_call/convert_element_type" stack_frame_id=0}
  %fusion.520 = bf16[1,128,8,128]{3,1,2,0:T(8,128)(2,1)S(1)} fusion(%get-tuple-element.2209, %add_rsqrt_fusion.10, %get-tuple-element.2211), kind=kLoop, calls=%fused_computation.65.clone.2, metadata={op_name="jit(train_step)/jvp()/while/body/closed_call/...k,k->...k/dot_general" stack_frame_id=0}, backend_config={"flag_configs":[],"scoped_memory_configs":[],"used_scoped_memory_configs":[],"aliasing_operands":{"lists":[]}}
  %slice_negate_fusion.13 = (bf16[1,128,8,64]{3,1,2,0:T(8,128)(2,1)S(1)}, bf16[1,128,8,64]{3,1,2,0:T(8,128)(2,1)S(1)}) fusion(%fusion.520), kind=kLoop, calls=%fused_computation.66.clone.1, metadata={op_name="jit(train_step)/jvp()/while/body/closed_call/neg" stack_frame_id=0}, backend_config={"flag_configs":[],"scoped_memory_configs":[],"used_scoped_memory_configs":[],"aliasing_operands":{"lists":[]}}
  %get-tuple-element.2212 = bf16[1,128,8,64]{3,1,2,0:T(8,128)(2,1)S(1)} get-tuple-element(%slice_negate_fusion.13), index=1, metadata={op_name="jit(train_step)/jvp()/while/body/closed_call/neg" stack_frame_id=0}
  %get-tuple-element.2213 = bf16[1,128,8,64]{3,1,2,0:T(8,128)(2,1)S(1)} get-tuple-element(%slice_negate_fusion.13), index=0, metadata={op_name="jit(train_step)/jvp()/while/body/closed_call/neg" stack_frame_id=0}
  %bitcast.1071 = bf16[128,128]{1,0:T(8,128)(2,1)S(1)} bitcast(%get-tuple-element.2325)
  %bitcast.1069 = bf16[128,128]{1,0:T(8,128)(2,1)S(1)} bitcast(%get-tuple-element.2324)
  %fusion.521 = bf16[8,128,128]{2,1,0:T(8,128)(2,1)S(1)} fusion(%get-tuple-element.2212, %get-tuple-element.2213, %bitcast.1071, %bitcast.1069, %get-tuple-element.2209, /*index=5*/%add_rsqrt_fusion.10, %get-tuple-element.2211), kind=kLoop, calls=%fused_computation.69.clone.1, metadata={op_name="jit(train_step)/jvp()/while/body/closed_call/shard_map/vmap(static_sparsity_splash)/jit(_splash_attention)/splash_mha_fwd_segmented_residuals/splash_mha_fwd_segmented_residuals/squeeze" stack_frame_id=0}, backend_config={"flag_configs":[],"scoped_memory_configs":[],"used_scoped_memory_configs":[],"aliasing_operands":{"lists":[]}}
  %get-tuple-element.2328 = bf16[4,512,8,128]{3,1,2,0:T(8,128)(2,1)} get-tuple-element(%wide.param.1), index=22
  %dynamic-slice_convert_fusion.38 = bf16[1,512,8,128]{3,1,2,0:T(8,128)(2,1)S(1)} fusion(%get-tuple-element.2328, %copy.255), kind=kLoop, calls=%fused_computation.28.clone.1, metadata={op_name="jit(train_step)/jvp()/while/body/closed_call/convert_element_type" stack_frame_id=0}, backend_config={"flag_configs":[],"scoped_memory_configs":[],"used_scoped_memory_configs":[],"aliasing_operands":{"lists":[]}}
  %all-gather.111 = bf16[1,2048,8,128]{3,1,2,0:T(8,128)(2,1)S(1)} all-gather(%dynamic-slice_convert_fusion.38), channel_id=104, replica_groups=mesh['axis_0'=4,'axis_1'=1,'axis_2'=1] {'axis_0'}, dimensions={1}, use_global_device_ids=true, metadata={op_name="jit(train_step)/jvp()/while/body/closed_call/dot_general" stack_frame_id=0}, backend_config={"flag_configs":[],"barrier_config":{"barrier_type":"CUSTOM","id":"0"},"scoped_memory_configs":[],"used_scoped_memory_configs":[],"aliasing_operands":{"lists":[]}}
  %fusion.522 = bf16[8,128,128]{2,1,0:T(8,128)(2,1)S(1)} fusion(%all-gather.111, %get-tuple-element.2263, %add_rsqrt_fusion.8, %get-tuple-element.2203), kind=kOutput, calls=%fused_computation.48.clone.1, metadata={op_name="jit(train_step)/jvp()/while/body/closed_call/dot_general" stack_frame_id=0}, backend_config={"flag_configs":[],"scoped_memory_configs":[],"used_scoped_memory_configs":[],"aliasing_operands":{"lists":[]}}
  %get-tuple-element.2346 = s32[128]{0:T(128)S(1)} get-tuple-element(%wide.param.1), index=40
  %squeeze.300 = s32[128,128]{1,0:T(8,128)S(1)} broadcast(%get-tuple-element.2346), dimensions={0}, metadata={op_name="jit(train_step)/shard_map/vmap(static_sparsity_splash)/jit(_splash_attention)/splash_mha_fwd_segmented_residuals/splash_mha_fwd_segmented_residuals/squeeze" stack_frame_id=0}, backend_config={"flag_configs":[],"scoped_memory_configs":[],"used_scoped_memory_configs":[],"output_chunk_bound_config":{"output_chunk_bound":["8"]},"aliasing_operands":{"lists":[]}}
  %squeeze.301 = s32[8,128]{1,0:T(8,128)S(1)} broadcast(%get-tuple-element.2346), dimensions={1}, metadata={op_name="jit(train_step)/shard_map/vmap(static_sparsity_splash)/jit(_splash_attention)/splash_mha_fwd_segmented_residuals/splash_mha_fwd_segmented_residuals/squeeze" stack_frame_id=0}, backend_config={"flag_configs":[],"scoped_memory_configs":[],"used_scoped_memory_configs":[],"output_chunk_bound_config":{"output_chunk_bound":["128"]},"aliasing_operands":{"lists":[]}}
  %iota.68 = s32[128,128]{1,0:T(8,128)S(1)} iota(), iota_dimension=0, metadata={op_name="jit(train_step)/shard_map/vmap(static_sparsity_splash)/jit(_splash_attention)/broadcast_in_dim" stack_frame_id=0}, backend_config={"flag_configs":[],"scoped_memory_configs":[],"used_scoped_memory_configs":[],"aliasing_operands":{"lists":[]}}
  %splash_mha_fwd_segmented_residuals.3 = (f32[128,128]{1,0:T(8,128)}, f32[128,128]{1,0:T(8,128)}, f32[128,128]{1,0:T(8,128)}, bf16[16,128,128]{2,1,0:T(8,128)(2,1)S(1)}, f32[16,128,128]{2,1,0:T(8,128)}) custom-call(%get-tuple-element.2348, %get-tuple-element.2349, %fusion.519, %fusion.521, %fusion.522, /*index=5*/%squeeze.300, %squeeze.301, %iota.68), custom_call_target="tpu_custom_call", operand_layout_constraints={s8[1,1,1]{2,1,0}, s8[1,1,1]{2,1,0}, bf16[16,128,128]{2,1,0}, bf16[8,128,128]{2,1,0}, bf16[8,128,128]{2,1,0}, s32[128,128]{1,0}, s32[8,128]{1,0}, s32[128,128]{1,0}}, frontend_attributes={kernel_metadata={
"xprof_metadata":"{\"block_q\": 128, \"block_kv\": 128, \"block_kv_compute\": 128, \"block_q_dkv\": 128, \"block_kv_dkv\": 128, \"block_kv_dkv_compute\": 128, \"block_q_dq\": 128, \"block_kv_dq\": 128, \"use_fused_bwd_kernel\": false, \"q_layout\": 1, \"k_layout\": 1, \"v_layout\": 1}"
}}, metadata={op_name="jit(train_step)/jvp()/while/body/closed_call/shard_map/vmap(static_sparsity_splash)/jit(_splash_attention)/splash_mha_fwd_segmented_residuals/splash_mha_fwd_segmented_residuals/pallas_call" stack_frame_id=0}, backend_config={"flag_configs":[],"scoped_memory_configs":[],"custom_call_config":{"body":"…","needs_layout_passes":true,"allow_input_fusion":[],"serialization_format":"1","output_memory_colors":[],"output_memory_space_colors":[],"input_memory_space_colors":[]},"used_scoped_memory_configs":[],"aliasing_operands":{"lists":[]}}
  %get-tuple-element.2214 = bf16[16,128,128]{2,1,0:T(8,128)(2,1)S(1)} get-tuple-element(%splash_mha_fwd_segmented_residuals.3), index=3, frontend_attributes={kernel_metadata={
"xprof_metadata":"{\"block_q\": 128, \"block_kv\": 128, \"block_kv_compute\": 128, \"block_q_dkv\": 128, \"block_kv_dkv\": 128, \"block_kv_dkv_compute\": 128, \"block_q_dq\": 128, \"block_kv_dq\": 128, \"use_fused_bwd_kernel\": false, \"q_layout\": 1, \"k_layout\": 1, \"v_layout\": 1}"
}}, metadata={op_name="jit(train_step)/jvp()/while/body/closed_call/shard_map/vmap(static_sparsity_splash)/jit(_splash_attention)/splash_mha_fwd_segmented_residuals/splash_mha_fwd_segmented_residuals/pallas_call" stack_frame_id=0}
  %fusion.523 = (f32[128]{0:T(128)S(1)}, bf16[1,128,2048]{2,1,0:T(8,128)(2,1)S(1)}) fusion(%get-tuple-element.2263, %all-gather.108, %get-tuple-element.2214), kind=kOutput, calls=%fused_computation.40.clone.1, metadata={op_name="jit(train_step)/jvp()/while/body/closed_call/dot_general" stack_frame_id=0}, backend_config={"flag_configs":[],"scoped_memory_configs":[],"used_scoped_memory_configs":[],"aliasing_operands":{"lists":[]}}
  %get-tuple-element.2215 = bf16[1,128,2048]{2,1,0:T(8,128)(2,1)S(1)} get-tuple-element(%fusion.523), index=1, metadata={op_name="jit(train_step)/jvp()/while/body/closed_call/reduce_sum" stack_frame_id=0}
  %get-tuple-element.2333 = bf16[4,6144,512]{2,1,0:T(8,128)(2,1)} get-tuple-element(%wide.param.1), index=27
  %dynamic-slice_convert_fusion.39 = bf16[1,6144,512]{2,1,0:T(8,128)(2,1)S(1)} fusion(%get-tuple-element.2333, %copy.255), kind=kLoop, calls=%fused_computation.11.clone.1, metadata={op_name="jit(train_step)/jvp()/while/body/closed_call/convert_element_type" stack_frame_id=0}, backend_config={"flag_configs":[],"scoped_memory_configs":[],"used_scoped_memory_configs":[],"aliasing_operands":{"lists":[]}}
  %all-gather.112 = bf16[1,6144,2048]{2,1,0:T(8,128)(2,1)S(1)} all-gather(%dynamic-slice_convert_fusion.39), channel_id=108, replica_groups=mesh['axis_0'=1,'axis_1'=4] {'axis_1'}, dimensions={2}, use_global_device_ids=true, metadata={op_name="jit(train_step)/jvp()/while/body/closed_call/dot_general" stack_frame_id=0}, backend_config={"flag_configs":[],"barrier_config":{"barrier_type":"CUSTOM","id":"0"},"scoped_memory_configs":[],"used_scoped_memory_configs":[],"aliasing_operands":{"lists":[]}}
  %get-tuple-element.2332 = bf16[4,512,6144]{2,1,0:T(8,128)(2,1)} get-tuple-element(%wide.param.1), index=26
  %dynamic-slice_convert_fusion.40 = bf16[1,512,6144]{2,1,0:T(8,128)(2,1)S(1)} fusion(%get-tuple-element.2332, %copy.255), kind=kLoop, calls=%fused_computation.12.clone.1, metadata={op_name="jit(train_step)/jvp()/while/body/closed_call/convert_element_type" stack_frame_id=0}, backend_config={"flag_configs":[],"scoped_memory_configs":[],"used_scoped_memory_configs":[],"aliasing_operands":{"lists":[]}}
  %all-gather.113 = bf16[1,2048,6144]{2,1,0:T(8,128)(2,1)} all-gather(%dynamic-slice_convert_fusion.40), channel_id=107, replica_groups=mesh['axis_0'=4,'axis_1'=1] {'axis_0'}, dimensions={1}, use_global_device_ids=true, metadata={op_name="jit(train_step)/jvp()/while/body/closed_call/dot_general" stack_frame_id=0}, backend_config={"flag_configs":[],"barrier_config":{"barrier_type":"CUSTOM","id":"0"},"scoped_memory_configs":[],"used_scoped_memory_configs":[],"aliasing_operands":{"lists":[]}}
  %get-tuple-element.2331 = bf16[4,512,6144]{2,1,0:T(8,128)(2,1)} get-tuple-element(%wide.param.1), index=25
  %dynamic-slice_convert_fusion.41 = bf16[1,512,6144]{2,1,0:T(8,128)(2,1)S(1)} fusion(%get-tuple-element.2331, %copy.255), kind=kLoop, calls=%fused_computation.13.clone.1, metadata={op_name="jit(train_step)/jvp()/while/body/closed_call/convert_element_type" stack_frame_id=0}, backend_config={"flag_configs":[],"scoped_memory_configs":[],"used_scoped_memory_configs":[],"aliasing_operands":{"lists":[]}}
  %all-gather.114 = bf16[1,2048,6144]{2,1,0:T(8,128)(2,1)S(1)} all-gather(%dynamic-slice_convert_fusion.41), channel_id=106, replica_groups=mesh['axis_0'=4,'axis_1'=1] {'axis_0'}, dimensions={1}, use_global_device_ids=true, metadata={op_name="jit(train_step)/jvp()/while/body/closed_call/dot_general" stack_frame_id=0}, backend_config={"flag_configs":[],"barrier_config":{"barrier_type":"CUSTOM","id":"0"},"scoped_memory_configs":[],"used_scoped_memory_configs":[],"aliasing_operands":{"lists":[]}}
  %get-tuple-element.2216 = f32[128]{0:T(128)S(1)} get-tuple-element(%fusion.523), index=0, metadata={op_name="jit(train_step)/jvp()/while/body/closed_call/reduce_sum" stack_frame_id=0}
  %add_rsqrt_fusion.11 = f32[128]{0:T(128)S(1)} fusion(%get-tuple-element.2216), kind=kLoop, calls=%fused_computation.82.clone.1, metadata={op_name="jit(train_step)/jvp()/while/body/closed_call/rsqrt" stack_frame_id=0}, backend_config={"flag_configs":[],"scoped_memory_configs":[],"used_scoped_memory_configs":[],"aliasing_operands":{"lists":[]}}
  %get-tuple-element.2217 = bf16[2048]{0:T(1024)(128)(2,1)S(1)} get-tuple-element(%convert_reduce_fusion.7), index=0, metadata={op_name="jit(train_step)/jvp()/while/body/closed_call/convert_element_type" stack_frame_id=0}
  %fusion.524 = bf16[1,128,6144]{2,1,0:T(8,128)(2,1)S(1)} fusion(%all-gather.114, %get-tuple-element.2215, %add_rsqrt_fusion.11, %get-tuple-element.2217), kind=kOutput, calls=%fused_computation.24.clone.1, metadata={op_name="jit(train_step)/jvp()/while/body/closed_call/dot_general" stack_frame_id=0}, backend_config={"flag_configs":[],"scoped_memory_configs":[],"used_scoped_memory_configs":[],"aliasing_operands":{"lists":[]}}
  %fusion.525 = bf16[1,128,2048]{2,1,0:T(8,128)(2,1)S(1)} fusion(%get-tuple-element.2215, %all-gather.112, %all-gather.113, %fusion.524, %add_rsqrt_fusion.11, /*index=5*/%get-tuple-element.2217), kind=kOutput, calls=%fused_computation.37.clone.1, metadata={op_name="jit(train_step)/jvp()/while/body/closed_call/dot_general" stack_frame_id=0}, backend_config={"flag_configs":[],"scoped_memory_configs":[],"used_scoped_memory_configs":[],"aliasing_operands":{"lists":[]}}
  %get-tuple-element.2334 = u32[4]{0:T(128)S(1)} get-tuple-element(%wide.param.1), index=28, metadata={op_name="jit(train_step)/jvp()/while/body/jit(dynamic_update_index_in_dim)/dynamic_update_slice" stack_frame_id=0}
  %copy.272 = u32[4]{0:T(128)} copy(%get-tuple-element.2334), backend_config={"flag_configs":[],"scoped_memory_configs":[],"used_scoped_memory_configs":[],"aliasing_operands":{"lists":[]}}
  %get-tuple-element.2335 = u32[4,4]{1,0:T(4,128)S(1)} get-tuple-element(%wide.param.1), index=29, metadata={op_name="jit(train_step)/jvp()/while/body/jit(dynamic_update_index_in_dim)/dynamic_update_slice" stack_frame_id=0}
  %copy.273 = u32[4,4]{1,0:T(4,128)} copy(%get-tuple-element.2335), backend_config={"flag_configs":[],"scoped_memory_configs":[],"used_scoped_memory_configs":[],"aliasing_operands":{"lists":[]}}
  %get-tuple-element.2336 = u32[4]{0:T(128)S(1)} get-tuple-element(%wide.param.1), index=30, metadata={op_name="jit(train_step)/jvp()/while/body/jit(dynamic_update_index_in_dim)/dynamic_update_slice" stack_frame_id=0}
  %copy.274 = u32[4]{0:T(128)} copy(%get-tuple-element.2336), backend_config={"flag_configs":[],"scoped_memory_configs":[],"used_scoped_memory_configs":[],"aliasing_operands":{"lists":[]}}
  %get-tuple-element.2337 = u32[4,4]{1,0:T(4,128)S(1)} get-tuple-element(%wide.param.1), index=31, metadata={op_name="jit(train_step)/jvp()/while/body/jit(dynamic_update_index_in_dim)/dynamic_update_slice" stack_frame_id=0}
  %copy.275 = u32[4,4]{1,0:T(4,128)} copy(%get-tuple-element.2337), backend_config={"flag_configs":[],"scoped_memory_configs":[],"used_scoped_memory_configs":[],"aliasing_operands":{"lists":[]}}
  %get-tuple-element.2338 = u32[4]{0:T(128)S(1)} get-tuple-element(%wide.param.1), index=32, metadata={op_name="jit(train_step)/jvp()/while/body/jit(dynamic_update_index_in_dim)/dynamic_update_slice" stack_frame_id=0}
  %copy.276 = u32[4]{0:T(128)} copy(%get-tuple-element.2338), backend_config={"flag_configs":[],"scoped_memory_configs":[],"used_scoped_memory_configs":[],"aliasing_operands":{"lists":[]}}
  %get-tuple-element.2339 = u32[4,4]{1,0:T(4,128)S(1)} get-tuple-element(%wide.param.1), index=33, metadata={op_name="jit(train_step)/jvp()/while/body/jit(dynamic_update_index_in_dim)/dynamic_update_slice" stack_frame_id=0}
  %copy.277 = u32[4,4]{1,0:T(4,128)} copy(%get-tuple-element.2339), backend_config={"flag_configs":[],"scoped_memory_configs":[],"used_scoped_memory_configs":[],"aliasing_operands":{"lists":[]}}
  %get-tuple-element.2340 = u32[4]{0:T(128)S(1)} get-tuple-element(%wide.param.1), index=34, metadata={op_name="jit(train_step)/jvp()/while/body/jit(dynamic_update_index_in_dim)/dynamic_update_slice" stack_frame_id=0}
  %copy.278 = u32[4]{0:T(128)} copy(%get-tuple-element.2340), backend_config={"flag_configs":[],"scoped_memory_configs":[],"used_scoped_memory_configs":[],"aliasing_operands":{"lists":[]}}
  %get-tuple-element.2341 = u32[4,4]{1,0:T(4,128)S(1)} get-tuple-element(%wide.param.1), index=35, metadata={op_name="jit(train_step)/jvp()/while/body/jit(dynamic_update_index_in_dim)/dynamic_update_slice" stack_frame_id=0}
  %copy.279 = u32[4,4]{1,0:T(4,128)} copy(%get-tuple-element.2341), backend_config={"flag_configs":[],"scoped_memory_configs":[],"used_scoped_memory_configs":[],"aliasing_operands":{"lists":[]}}
  %get-tuple-element.2342 = u32[4]{0:T(128)S(1)} get-tuple-element(%wide.param.1), index=36, metadata={op_name="jit(train_step)/jvp()/while/body/jit(dynamic_update_index_in_dim)/dynamic_update_slice" stack_frame_id=0}
  %copy.280 = u32[4]{0:T(128)} copy(%get-tuple-element.2342), backend_config={"flag_configs":[],"scoped_memory_configs":[],"used_scoped_memory_configs":[],"aliasing_operands":{"lists":[]}}
  %get-tuple-element.2343 = u32[4,4]{1,0:T(4,128)S(1)} get-tuple-element(%wide.param.1), index=37, metadata={op_name="jit(train_step)/jvp()/while/body/jit(dynamic_update_index_in_dim)/dynamic_update_slice" stack_frame_id=0}
  %copy.281 = u32[4,4]{1,0:T(4,128)} copy(%get-tuple-element.2343), backend_config={"flag_configs":[],"scoped_memory_configs":[],"used_scoped_memory_configs":[],"aliasing_operands":{"lists":[]}}
  %get-tuple-element.2344 = u32[4]{0:T(128)S(1)} get-tuple-element(%wide.param.1), index=38, metadata={op_name="jit(train_step)/jvp()/while/body/jit(dynamic_update_index_in_dim)/dynamic_update_slice" stack_frame_id=0}
  %copy.282 = u32[4]{0:T(128)} copy(%get-tuple-element.2344), backend_config={"flag_configs":[],"scoped_memory_configs":[],"used_scoped_memory_configs":[],"aliasing_operands":{"lists":[]}}
  %get-tuple-element.2345 = u32[4,4]{1,0:T(4,128)S(1)} get-tuple-element(%wide.param.1), index=39, metadata={op_name="jit(train_step)/jvp()/while/body/jit(dynamic_update_index_in_dim)/dynamic_update_slice" stack_frame_id=0}
  %copy.283 = u32[4,4]{1,0:T(4,128)} copy(%get-tuple-element.2345), backend_config={"flag_configs":[],"scoped_memory_configs":[],"used_scoped_memory_configs":[],"aliasing_operands":{"lists":[]}}
  %get-tuple-element.2347 = s32[]{:T(128)} get-tuple-element(%wide.param.1), index=41
  ROOT %tuple.250 = (s32[]{:T(128)}, bf16[1,128,2048]{2,1,0:T(8,128)(2,1)S(1)}, u32[4]{0:T(128)}, u32[4,4]{1,0:T(4,128)}, u32[4]{0:T(128)}, /*index=5*/u32[4,4]{1,0:T(4,128)}, u32[4]{0:T(128)}, u32[4,4]{1,0:T(4,128)}, u32[4]{0:T(128)}, u32[4,4]{1,0:T(4,128)}, /*index=10*/u32[4]{0:T(128)}, u32[4,4]{1,0:T(4,128)}, u32[4]{0:T(128)}, u32[4,4]{1,0:T(4,128)}, bf16[4,1,128,2048]{3,2,1,0:T(8,128)(2,1)}, /*index=15*/bf16[4,128]{1,0:T(4,128)(2,1)S(1)}, bf16[4,2048]{1,0:T(4,128)(2,1)S(1)}, bf16[4,512,16,128]{1,3,2,0:T(8,128)(2,1)S(1)}, bf16[1,128,1,128]{3,1,2,0:T(8,128)(2,1)S(1)}, bf16[1,128,1,128]{3,1,2,0:T(8,128)(2,1)S(1)}, /*index=20*/bf16[4,128]{1,0:T(4,128)(2,1)S(1)}, bf16[4,512,8,128]{1,3,2,0:T(8,128)(2,1)}, bf16[4,512,8,128]{3,1,2,0:T(8,128)(2,1)}, bf16[4,16,128,512]{3,2,1,0:T(8,128)(2,1)}, bf16[4,2048]{1,0:T(4,128)(2,1)S(1)}, /*index=25*/bf16[4,512,6144]{2,1,0:T(8,128)(2,1)}, bf16[4,512,6144]{2,1,0:T(8,128)(2,1)}, bf16[4,6144,512]{2,1,0:T(8,128)(2,1)}, u32[4]{0:T(128)S(1)}, u32[4,4]{1,0:T(4,128)S(1)}, /*index=30*/u32[4]{0:T(128)S(1)}, u32[4,4]{1,0:T(4,128)S(1)}, u32[4]{0:T(128)S(1)}, u32[4,4]{1,0:T(4,128)S(1)}, u32[4]{0:T(128)S(1)}, /*index=35*/u32[4,4]{1,0:T(4,128)S(1)}, u32[4]{0:T(128)S(1)}, u32[4,4]{1,0:T(4,128)S(1)}, u32[4]{0:T(128)S(1)}, u32[4,4]{1,0:T(4,128)S(1)}, /*index=40*/s32[128]{0:T(128)S(1)}, s32[]{:T(128)}, s8[1,1,1]{2,1,0:T(4,128)(4,1)}, s8[1,1,1]{2,1,0:T(4,128)(4,1)}) tuple(%add.1069, %fusion.525, %copy.272, %copy.273, %copy.274, /*index=5*/%copy.275, %copy.276, %copy.277, %copy.278, %copy.279, /*index=10*/%copy.280, %copy.281, %copy.282, %copy.283, %bitcast_dynamic-update-slice_fusion.5, /*index=15*/%get-tuple-element.2321, %get-tuple-element.2322, %get-tuple-element.2323, %get-tuple-element.2324, %get-tuple-element.2325, /*index=20*/%get-tuple-element.2326, %get-tuple-element.2327, %get-tuple-element.2328, %get-tuple-element.2329, %get-tuple-element.2330, /*index=25*/%get-tuple-element.2331, %get-tuple-element.2332, %get-tuple-element.2333, %get-tuple-element.2334, %get-tuple-element.2335, /*index=30*/%get-tuple-element.2336, %get-tuple-element.2337, %get-tuple-element.2338, %get-tuple-element.2339, %get-tuple-element.2340, /*index=35*/%get-tuple-element.2341, %get-tuple-element.2342, %get-tuple-element.2343, %get-tuple-element.2344, %get-tuple-element.2345, /*index=40*/%get-tuple-element.2346, %get-tuple-element.2347, %get-tuple-element.2348, %get-tuple-element.2349)
}

%wide.region_6.9_spmd.clone.clone.clone (wide.param.113: (s32[], bf16[1,128,2048], u32[4], u32[4,4], u32[4], /*index=5*/u32[4,4], u32[4], u32[4,4], u32[4], u32[4,4], /*index=10*/u32[4], u32[4,4], u32[4], u32[4,4], bf16[4,1,128,2048], /*index=15*/bf16[4,128], bf16[4,2048], bf16[4,512,16,128], bf16[1,128,1,128], bf16[1,128,1,128], /*index=20*/bf16[4,128], bf16[4,512,8,128], bf16[4,512,8,128], bf16[4,16,128,512], bf16[4,2048], /*index=25*/bf16[4,512,6144], bf16[4,512,6144], bf16[4,6144,512], u32[4], u32[4,4], /*index=30*/u32[4], u32[4,4], u32[4], u32[4,4], u32[4], /*index=35*/u32[4,4], u32[4], u32[4,4], u32[4], u32[4,4], /*index=40*/s32[128], s32[], s8[1,1,1], s8[1,1,1])) -> pred[] {
  %constant.427.clone.4 = s32[]{:T(128)} constant(4)
  %wide.param.113 = (s32[]{:T(128)}, bf16[1,128,2048]{2,1,0:T(8,128)(2,1)S(1)}, u32[4]{0:T(128)}, u32[4,4]{1,0:T(4,128)}, u32[4]{0:T(128)}, /*index=5*/u32[4,4]{1,0:T(4,128)}, u32[4]{0:T(128)}, u32[4,4]{1,0:T(4,128)}, u32[4]{0:T(128)}, u32[4,4]{1,0:T(4,128)}, /*index=10*/u32[4]{0:T(128)}, u32[4,4]{1,0:T(4,128)}, u32[4]{0:T(128)}, u32[4,4]{1,0:T(4,128)}, bf16[4,1,128,2048]{3,2,1,0:T(8,128)(2,1)}, /*index=15*/bf16[4,128]{1,0:T(4,128)(2,1)S(1)}, bf16[4,2048]{1,0:T(4,128)(2,1)S(1)}, bf16[4,512,16,128]{1,3,2,0:T(8,128)(2,1)S(1)}, bf16[1,128,1,128]{3,1,2,0:T(8,128)(2,1)S(1)}, bf16[1,128,1,128]{3,1,2,0:T(8,128)(2,1)S(1)}, /*index=20*/bf16[4,128]{1,0:T(4,128)(2,1)S(1)}, bf16[4,512,8,128]{1,3,2,0:T(8,128)(2,1)}, bf16[4,512,8,128]{3,1,2,0:T(8,128)(2,1)}, bf16[4,16,128,512]{3,2,1,0:T(8,128)(2,1)}, bf16[4,2048]{1,0:T(4,128)(2,1)S(1)}, /*index=25*/bf16[4,512,6144]{2,1,0:T(8,128)(2,1)}, bf16[4,512,6144]{2,1,0:T(8,128)(2,1)}, bf16[4,6144,512]{2,1,0:T(8,128)(2,1)}, u32[4]{0:T(128)S(1)}, u32[4,4]{1,0:T(4,128)S(1)}, /*index=30*/u32[4]{0:T(128)S(1)}, u32[4,4]{1,0:T(4,128)S(1)}, u32[4]{0:T(128)S(1)}, u32[4,4]{1,0:T(4,128)S(1)}, u32[4]{0:T(128)S(1)}, /*index=35*/u32[4,4]{1,0:T(4,128)S(1)}, u32[4]{0:T(128)S(1)}, u32[4,4]{1,0:T(4,128)S(1)}, u32[4]{0:T(128)S(1)}, u32[4,4]{1,0:T(4,128)S(1)}, /*index=40*/s32[128]{0:T(128)S(1)}, s32[]{:T(128)}, s8[1,1,1]{2,1,0:T(4,128)(4,1)}, s8[1,1,1]{2,1,0:T(4,128)(4,1)}) parameter(0)
  %get-tuple-element.1920 = s32[]{:T(128)} get-tuple-element(%wide.param.113), index=0
  ROOT %lt.34 = pred[]{:T(512)} compare(%get-tuple-element.1920, %constant.427.clone.4), direction=LT, metadata={op_name="jit(train_step)/jvp()/while/cond/lt" stack_frame_id=0}, backend_config={"flag_configs":[],"scoped_memory_configs":[],"used_scoped_memory_configs":[],"aliasing_operands":{"lists":[]}}
}

%region_7.10 (reduce_sum.171: f32[], reduce_sum.184: f32[]) -> f32[] {
  %reduce_sum.171 = f32[]{:T(128)} parameter(0), metadata={op_name="jit(train_step)/jvp()/reduce_sum"}
  %reduce_sum.184 = f32[]{:T(128)} parameter(1), metadata={op_name="jit(train_step)/jvp()/reduce_sum"}
  ROOT %reduce_sum.185 = f32[]{:T(128)} add(%reduce_sum.171, %reduce_sum.184), metadata={op_name="jit(train_step)/jvp()/reduce_sum" stack_frame_id=0}, backend_config={"flag_configs":[],"scoped_memory_configs":[],"used_scoped_memory_configs":[],"aliasing_operands":{"lists":[]}}
}

%fused_computation.406 (param_0.1550: bf16[1,128,2048]) -> f32[128] {
  %param_0.1550 = bf16[1,128,2048]{2,1,0:T(8,128)(2,1)S(1)} parameter(0)
  %convert_element_type.1283 = f32[1,128,2048]{2,1,0:T(8,128)} convert(%param_0.1550), metadata={op_name="jit(train_step)/jvp()/convert_element_type" stack_frame_id=0}
  %square.243 = f32[1,128,2048]{2,1,0:T(8,128)} multiply(%convert_element_type.1283, %convert_element_type.1283), metadata={op_name="jit(train_step)/jvp()/square" stack_frame_id=0}
  %constant.460.clone.29 = f32[]{:T(128)} constant(0)
  ROOT %reduce.222 = f32[128]{0:T(128)S(1)} reduce(%square.243, %constant.460.clone.29), dimensions={0,2}, to_apply=%region_7.10, metadata={op_name="jit(train_step)/jvp()/reduce_sum" stack_frame_id=0}
}

%fused_computation.467 (param_0.1364: f32[128]) -> f32[128] {
  %param_0.1364 = f32[128]{0:T(128)S(1)} parameter(0)
  %constant.469.clone.2 = f32[]{:T(128)} constant(0.00048828125)
  %broadcast.972 = f32[128]{0:T(128)} broadcast(%constant.469.clone.2), dimensions={}, metadata={op_name="broadcast.418"}
  %div.784 = f32[128]{0:T(128)} multiply(%param_0.1364, %broadcast.972), metadata={op_name="jit(train_step)/jvp()/div" stack_frame_id=0}
  %constant.470.clone.2 = f32[]{:T(128)} constant(1e-06)
  %broadcast.970 = f32[128]{0:T(128)} broadcast(%constant.470.clone.2), dimensions={}, metadata={op_name="jit(train_step)/jvp()/add" stack_frame_id=0}
  %add.940 = f32[128]{0:T(128)} add(%div.784, %broadcast.970), metadata={op_name="jit(train_step)/jvp()/add" stack_frame_id=0}
  %bitcast.624 = f32[1,128]{1,0:T(1,128)} bitcast(%add.940), metadata={op_name="jit(train_step)/jvp()/add" stack_frame_id=0}
  %rsqrt.195 = f32[1,128]{1,0:T(1,128)} rsqrt(%bitcast.624), metadata={op_name="jit(train_step)/jvp()/rsqrt" stack_frame_id=0}
  ROOT %bitcast.614 = f32[128]{0:T(128)} bitcast(%rsqrt.195), metadata={op_name="jit(train_step)/jvp()/rsqrt" stack_frame_id=0}
}

%fused_computation.412.clone.clone (param_0.1510: bf16[2048], param_1.1694: f32[128], param_2.1284: bf16[1,128,2048]) -> bf16[128,2048] {
  %param_0.1510 = bf16[2048]{0:T(1024)(128)(2,1)S(1)} parameter(0)
  %dot_general.506 = bf16[1,128,2048]{2,1,0:T(8,128)(2,1)} broadcast(%param_0.1510), dimensions={2}, metadata={op_name="jit(train_step)/jvp(...k,k->...k)/dot_general" stack_frame_id=0}
  %convert.210 = f32[1,128,2048]{2,1,0:T(8,128)} convert(%dot_general.506)
  %param_2.1284 = bf16[1,128,2048]{2,1,0:T(8,128)(2,1)} parameter(2)
  %convert_element_type.1364 = f32[1,128,2048]{2,1,0:T(8,128)} convert(%param_2.1284), metadata={op_name="jit(train_step)/jvp()/convert_element_type" stack_frame_id=0}
  %param_1.1694 = f32[128]{0:T(128)S(1)} parameter(1)
  %mul.2124 = f32[1,128,2048]{2,1,0:T(8,128)} broadcast(%param_1.1694), dimensions={1}, metadata={op_name="jit(train_step)/jvp()/mul" stack_frame_id=0}
  %mul.2123 = f32[1,128,2048]{2,1,0:T(8,128)} multiply(%convert_element_type.1364, %mul.2124), metadata={op_name="jit(train_step)/jvp()/mul" stack_frame_id=0}
  %convert_element_type.1363 = bf16[1,128,2048]{2,1,0:T(8,128)(2,1)} convert(%mul.2123), metadata={op_name="jit(train_step)/jvp()/convert_element_type" stack_frame_id=0}
  %convert.211 = f32[1,128,2048]{2,1,0:T(8,128)} convert(%convert_element_type.1363)
  %dot_general.505 = f32[1,128,2048]{2,1,0:T(8,128)} multiply(%convert.210, %convert.211), metadata={op_name="jit(train_step)/jvp(...k,k->...k)/dot_general" stack_frame_id=0}, backend_config={"flag_configs":[],"scoped_memory_configs":[],"used_scoped_memory_configs":[],"float_type_correction_info":{"original_type":"BF16","original_shape":{"element_type":"BF16","dimensions":["1","128","2048"],"tuple_shapes":[],"layout":{"minor_to_major":["2","1","0"],"tiles":[{"dimensions":["8","128"]},{"dimensions":["2","1"]}],"element_size_in_bits":"0","memory_space":"0","dim_level_types":[],"index_primitive_type":"PRIMITIVE_TYPE_INVALID","pointer_primitive_type":"PRIMITIVE_TYPE_INVALID","dim_unique":[],"dim_ordered":[],"dynamic_shape_metadata_prefix_bytes":"0","tail_padding_alignment_in_elements":"1","split_configs":[]},"is_dynamic_dimension":[false,false,false]}}}
  %convert.212 = bf16[1,128,2048]{2,1,0:T(8,128)(2,1)} convert(%dot_general.505)
  ROOT %bitcast.749 = bf16[128,2048]{1,0:T(8,128)(2,1)} bitcast(%convert.212)
}

%bitcast_fusion.3 (bitcast_input.3: bf16[151936,2048]) -> bf16[151936,2048] {
  %bitcast_input.3 = bf16[151936,2048]{1,0:T(8,128)(2,1)} parameter(0)
  ROOT %bitcast.761 = bf16[151936,2048]{1,0:T(8,128)(2,1)} bitcast(%bitcast_input.3)
}

%region_8.11 (reduce_max.6: bf16[], reduce_max.8: bf16[]) -> bf16[] {
  %reduce_max.6 = bf16[]{:T(256)} parameter(0), metadata={op_name="jit(train_step)/jvp()/reduce_max"}
  %reduce_max.8 = bf16[]{:T(256)} parameter(1), metadata={op_name="jit(train_step)/jvp()/reduce_max"}
  ROOT %reduce_max.9 = bf16[]{:T(256)} maximum(%reduce_max.6, %reduce_max.8), metadata={op_name="jit(train_step)/jvp()/reduce_max" stack_frame_id=0}, backend_config={"flag_configs":[],"scoped_memory_configs":[],"used_scoped_memory_configs":[],"aliasing_operands":{"lists":[]}}
}

%fused_computation.496 (param_0.1518: bf16[151936,2048], param_1.1699: bf16[2048], param_2.1301: f32[128], param_3.867: bf16[1,128,2048]) -> (bf16[128], bf16[128,151936]) {
  %param_1.1699 = bf16[2048]{0:T(1024)(128)(2,1)S(1)} parameter(1)
  %param_2.1301 = f32[128]{0:T(128)S(1)} parameter(2)
  %param_3.867 = bf16[1,128,2048]{2,1,0:T(8,128)(2,1)} parameter(3)
  %fusion.319.clone.1 = bf16[128,2048]{1,0:T(8,128)(2,1)} fusion(%param_1.1699, %param_2.1301, %param_3.867), kind=kLoop, calls=%fused_computation.412.clone.clone
  %param_0.1518 = bf16[151936,2048]{1,0:T(8,128)(2,1)} parameter(0)
  %fusion.357 = bf16[151936,2048]{1,0:T(8,128)(2,1)} fusion(%param_0.1518), kind=kLoop, calls=%bitcast_fusion.3
  %convolution.115.clone.1 = bf16[128,151936]{1,0:T(8,128)(2,1)S(1)} convolution(%fusion.319.clone.1, %fusion.357), dim_labels=bf_oi->bf, metadata={op_name="jit(train_step)/jvp()/dot_general" stack_frame_id=0}
  %constant.471.clone.3 = bf16[]{:T(256)} constant(-inf)
  %reduce.243 = bf16[128]{0:T(256)(128)(2,1)S(1)} reduce(%convolution.115.clone.1, %constant.471.clone.3), dimensions={1}, to_apply=%region_8.11, metadata={op_name="jit(train_step)/jvp()/reduce_max" stack_frame_id=0}
  ROOT %tuple.171 = (bf16[128]{0:T(256)(128)(2,1)S(1)}, bf16[128,151936]{1,0:T(8,128)(2,1)S(1)}) tuple(%reduce.243, %convolution.115.clone.1)
}

%region_9.12 (reduce_sum.186: f32[], reduce_sum.190: f32[]) -> f32[] {
  %reduce_sum.186 = f32[]{:T(128)} parameter(0), metadata={op_name="jit(train_step)/jvp()/reduce_sum"}
  %reduce_sum.190 = f32[]{:T(128)} parameter(1), metadata={op_name="jit(train_step)/jvp()/reduce_sum"}
  ROOT %reduce_sum.191 = f32[]{:T(128)} add(%reduce_sum.186, %reduce_sum.190), metadata={op_name="jit(train_step)/jvp()/reduce_sum" stack_frame_id=0}, backend_config={"flag_configs":[],"scoped_memory_configs":[],"used_scoped_memory_configs":[],"aliasing_operands":{"lists":[]}}
}

%fused_computation.328 (param_0.1549: bf16[128,151936], param_1.1725: bf16[128]) -> f32[128] {
  %param_0.1549 = bf16[128,151936]{1,0:T(8,128)(2,1)S(1)} parameter(0)
  %convert_element_type.1250 = f32[128,151936]{1,0:T(8,128)} convert(%param_0.1549), metadata={op_name="jit(train_step)/jvp()/convert_element_type" stack_frame_id=0}
  %bitcast.520 = f32[1,128,151936]{2,1,0:T(8,128)} bitcast(%convert_element_type.1250), metadata={op_name="jit(train_step)/jvp()/convert_element_type" stack_frame_id=0}
  %param_1.1725 = bf16[128]{0:T(256)(128)(2,1)S(1)} parameter(1)
  %sub.100 = f32[1,128,151936]{2,1,0:T(8,128)} broadcast(%param_1.1725), dimensions={1}, metadata={op_name="jit(train_step)/jvp()/sub" stack_frame_id=0}
  %sub.71 = f32[1,128,151936]{2,1,0:T(8,128)} subtract(%bitcast.520, %sub.100), metadata={op_name="jit(train_step)/jvp()/sub" stack_frame_id=0}
  %exp.51 = f32[1,128,151936]{2,1,0:T(8,128)} exponential(%sub.71), metadata={op_name="jit(train_step)/jvp()/exp" stack_frame_id=0}
  %constant.460.clone.28 = f32[]{:T(128)} constant(0)
  ROOT %reduce.199 = f32[128]{0:T(128)S(1)} reduce(%exp.51, %constant.460.clone.28), dimensions={0,2}, to_apply=%region_9.12, metadata={op_name="jit(train_step)/jvp()/reduce_sum" stack_frame_id=0}
}

%fused_computation.495 (param_0.1506: f32[128], param_1.1724: bf16[128]) -> (f32[128], f32[128]) {
…
%fused_computation.488.clone.1 (param_0.1754: f32[1,16,128,128]) -> (f32[1,16,128,1], f32[16,128]) {
  %param_0.1754 = f32[1,16,128,128]{2,1,3,0:T(8,128)S(1)} parameter(0)
  %slice.77 = f32[1,16,128,1]{2,1,3,0:T(8,128)} slice(%param_0.1754), slice={[0:1], [0:16], [0:128], [0:1]}, metadata={op_name="jit(train_step)/transpose(jvp())/while/body/closed_call/checkpoint/rematted_computation/shard_map/vmap(static_sparsity_splash)/jit(_splash_attention)/slice" stack_frame_id=0}
  %bitcast.489.clone.3 = f32[16,128]{1,0:T(8,128)S(1)} bitcast(%slice.77), metadata={op_name="jit(train_step)/transpose(jvp())/while/body/closed_call/checkpoint/shard_map/vmap(static_sparsity_splash)/jit(_splash_attention)/broadcast_in_dim" stack_frame_id=0}
  ROOT %tuple.229 = (f32[1,16,128,1]{2,1,3,0:T(8,128)}, f32[16,128]{1,0:T(8,128)S(1)}) tuple(%slice.77, %bitcast.489.clone.3)
}

%fused_computation.99.clone.1 (param_0.1735: bf16[4,6144,512], param_1.1843: s32[]) -> bf16[1,6144,512] {
  %param_0.1735 = bf16[4,6144,512]{2,1,0:T(8,128)(2,1)} parameter(0)
  %param_1.1843 = s32[]{:T(128)S(6)} parameter(1)
  %constant.431.clone.88 = s32[]{:T(128)} constant(0)
  ROOT %dynamic-slice.193 = bf16[1,6144,512]{2,1,0:T(8,128)(2,1)} dynamic-slice(%param_0.1735, %param_1.1843, %constant.431.clone.88, %constant.431.clone.88), dynamic_slice_sizes={1,6144,512}, metadata={op_name="jit(train_step)/transpose(jvp())/while/body/jit(dynamic_index_in_dim)/dynamic_slice" stack_frame_id=0}, backend_config={"flag_configs":[],"scoped_memory_configs":[],"indices_config":{"index_known_bits":[{"zeroes":"4294967292","ones":"0","bitwidth":"32"},{"zeroes":"4294967295","ones":"0","bitwidth":"32"},{"zeroes":"4294967295","ones":"0","bitwidth":"32"}],"is_index_aligned":[]},"used_scoped_memory_configs":[]}
}

%fused_computation.90.clone.clone.clone.1 (param_0.1737: bf16[1,6144,2048]) -> bf16[6144,2048] {
  %param_0.1737 = bf16[1,6144,2048]{2,1,0:T(8,128)(2,1)} parameter(0)
  ROOT %bitcast.935 = bf16[6144,2048]{1,0:T(8,128)(2,1)} bitcast(%param_0.1737), metadata={op_name="jit(train_step)/transpose(jvp())/while/body/closed_call/checkpoint/dot_general" stack_frame_id=0}
}

%fused_computation.213.clone.1 (param_0.1736: bf16[1,128,2048]) -> bf16[128,2048] {
  %param_0.1736 = bf16[1,128,2048]{2,1,0:T(8,128)(2,1)} parameter(0)
  ROOT %bitcast.934 = bf16[128,2048]{1,0:T(8,128)(2,1)} bitcast(%param_0.1736)
}

%fused_computation.122.clone.1 (param_0.1738: bf16[1,6144,2048], param_1.1844: bf16[1,128,2048]) -> bf16[1,128,6144] {
  %param_0.1738 = bf16[1,6144,2048]{2,1,0:T(8,128)(2,1)} parameter(0)
  %fusion.446 = bf16[6144,2048]{1,0:T(8,128)(2,1)} fusion(%param_0.1738), kind=kLoop, calls=%fused_computation.90.clone.clone.clone.1, metadata={op_name="jit(train_step)/transpose(jvp())/while/body/closed_call/checkpoint/dot_general" stack_frame_id=0}
  %param_1.1844 = bf16[1,128,2048]{2,1,0:T(8,128)(2,1)} parameter(1)
  %fusion.447 = bf16[128,2048]{1,0:T(8,128)(2,1)} fusion(%param_1.1844), kind=kLoop, calls=%fused_computation.213.clone.1
  %convolution.136 = bf16[6144,128]{0,1:T(8,128)(2,1)} convolution(%fusion.446, %fusion.447), dim_labels=bf_oi->bf, metadata={op_name="jit(train_step)/transpose(jvp())/while/body/closed_call/checkpoint/dot_general" stack_frame_id=0}
  ROOT %bitcast.936 = bf16[1,128,6144]{2,1,0:T(8,128)(2,1)S(1)} bitcast(%convolution.136), metadata={op_name="jit(train_step)/transpose(jvp())/while/body/closed_call/checkpoint/dot_general" stack_frame_id=0}
}

%fused_computation.147.clone.1 (param_0.1744: bf16[1,128,6144], param_1.1848: bf16[1,128,6144]) -> bf16[128,6144] {
  %param_1.1848 = bf16[1,128,6144]{2,1,0:T(8,128)(2,1)S(1)} parameter(1)
  %convert.228 = f32[1,128,6144]{2,1,0:T(8,128)} convert(%param_1.1848)
  %constant.441.clone.21 = bf16[]{:T(256)} constant(1)
  %jit_silu_.41 = bf16[1,128,6144]{2,1,0:T(8,128)(2,1)} broadcast(%constant.441.clone.21), dimensions={}, metadata={op_name="jit(train_step)/transpose(jvp())/while/body/closed_call/checkpoint/rematted_computation/jit(silu)" stack_frame_id=0}
  %convert.229 = f32[1,128,6144]{2,1,0:T(8,128)} convert(%jit_silu_.41)
  %neg.128 = f32[1,128,6144]{2,1,0:T(8,128)} negate(%convert.228), metadata={op_name="jit(train_step)/transpose(jvp())/while/body/closed_call/checkpoint/rematted_computation/jit(silu)/neg" stack_frame_id=0}, backend_config={"flag_configs":[],"scoped_memory_configs":[],"used_scoped_memory_configs":[],"float_type_correction_info":{"original_type":"BF16","original_shape":{"element_type":"BF16","dimensions":["1","128","6144"],"tuple_shapes":[],"layout":{"minor_to_major":["2","1","0"],"tiles":[{"dimensions":["8","128"]},{"dimensions":["2","1"]}],"element_size_in_bits":"0","memory_space":"0","dim_level_types":[],"index_primitive_type":"PRIMITIVE_TYPE_INVALID","pointer_primitive_type":"PRIMITIVE_TYPE_INVALID","dim_unique":[],"dim_ordered":[],"dynamic_shape_metadata_prefix_bytes":"0","tail_padding_alignment_in_elements":"1","split_configs":[]},"is_dynamic_dimension":[false,false,false]}}}
  %exp.74 = f32[1,128,6144]{2,1,0:T(8,128)} exponential(%neg.128), metadata={op_name="jit(train_step)/transpose(jvp())/while/body/closed_call/checkpoint/rematted_computation/jit(silu)/exp" stack_frame_id=0}, backend_config={"flag_configs":[],"scoped_memory_configs":[],"used_scoped_memory_configs":[],"float_type_correction_info":{"original_type":"BF16","original_shape":{"element_type":"BF16","dimensions":["1","128","6144"],"tuple_shapes":[],"layout":{"minor_to_major":["2","1","0"],"tiles":[{"dimensions":["8","128"]},{"dimensions":["2","1"]}],"element_size_in_bits":"0","memory_space":"0","dim_level_types":[],"index_primitive_type":"PRIMITIVE_TYPE_INVALID","pointer_primitive_type":"PRIMITIVE_TYPE_INVALID","dim_unique":[],"dim_ordered":[],"dynamic_shape_metadata_prefix_bytes":"0","tail_padding_alignment_in_elements":"1","split_configs":[]},"is_dynamic_dimension":[false,false,false]}}}
  %add.1051 = f32[1,128,6144]{2,1,0:T(8,128)} add(%exp.74, %convert.229), metadata={op_name="jit(train_step)/transpose(jvp())/while/body/closed_call/checkpoint/rematted_computation/jit(silu)/add" stack_frame_id=0}, backend_config={"flag_configs":[],"scoped_memory_configs":[],"used_scoped_memory_configs":[],"float_type_correction_info":{"original_type":"BF16","original_shape":{"element_type":"BF16","dimensions":["1","128","6144"],"tuple_shapes":[],"layout":{"minor_to_major":["2","1","0"],"tiles":[{"dimensions":["8","128"]},{"dimensions":["2","1"]}],"element_size_in_bits":"0","memory_space":"0","dim_level_types":[],"index_primitive_type":"PRIMITIVE_TYPE_INVALID","pointer_primitive_type":"PRIMITIVE_TYPE_INVALID","dim_unique":[],"dim_ordered":[],"dynamic_shape_metadata_prefix_bytes":"0","tail_padding_alignment_in_elements":"1","split_configs":[]},"is_dynamic_dimension":[false,false,false]}}}
  %div.1017 = f32[1,128,6144]{2,1,0:T(8,128)} divide(%convert.229, %add.1051), metadata={op_name="jit(train_step)/transpose(jvp())/while/body/closed_call/checkpoint/rematted_computation/jit(silu)/div" stack_frame_id=0}, backend_config={"flag_configs":[],"scoped_memory_configs":[],"used_scoped_memory_configs":[],"float_type_correction_info":{"original_type":"BF16","original_shape":{"element_type":"BF16","dimensions":["1","128","6144"],"tuple_shapes":[],"layout":{"minor_to_major":["2","1","0"],"tiles":[{"dimensions":["8","128"]},{"dimensions":["2","1"]}],"element_size_in_bits":"0","memory_space":"0","dim_level_types":[],"index_primitive_type":"PRIMITIVE_TYPE_INVALID","pointer_primitive_type":"PRIMITIVE_TYPE_INVALID","dim_unique":[],"dim_ordered":[],"dynamic_shape_metadata_prefix_bytes":"0","tail_padding_alignment_in_elements":"1","split_configs":[]},"is_dynamic_dimension":[false,false,false]}}}
  %mul.2310 = f32[1,128,6144]{2,1,0:T(8,128)} multiply(%convert.228, %div.1017), metadata={op_name="jit(train_step)/transpose(jvp())/while/body/closed_call/checkpoint/rematted_computation/jit(silu)/mul" stack_frame_id=0}, backend_config={"flag_configs":[],"scoped_memory_configs":[],"used_scoped_memory_configs":[],"float_type_correction_info":{"original_type":"BF16","original_shape":{"element_type":"BF16","dimensions":["1","128","6144"],"tuple_shapes":[],"layout":{"minor_to_major":["2","1","0"],"tiles":[{"dimensions":["8","128"]},{"dimensions":["2","1"]}],"element_size_in_bits":"0","memory_space":"0","dim_level_types":[],"index_primitive_type":"PRIMITIVE_TYPE_INVALID","pointer_primitive_type":"PRIMITIVE_TYPE_INVALID","dim_unique":[],"dim_ordered":[],"dynamic_shape_metadata_prefix_bytes":"0","tail_padding_alignment_in_elements":"1","split_configs":[]},"is_dynamic_dimension":[false,false,false]}}}
  %param_0.1744 = bf16[1,128,6144]{2,1,0:T(8,128)(2,1)S(1)} parameter(0)
  %convert.230 = f32[1,128,6144]{2,1,0:T(8,128)} convert(%param_0.1744)
  %mul.2309 = f32[1,128,6144]{2,1,0:T(8,128)} multiply(%mul.2310, %convert.230), metadata={op_name="jit(train_step)/transpose(jvp())/while/body/closed_call/checkpoint/mul" stack_frame_id=0}, backend_config={"flag_configs":[],"scoped_memory_configs":[],"used_scoped_memory_configs":[],"float_type_correction_info":{"original_type":"BF16","original_shape":{"element_type":"BF16","dimensions":["1","128","6144"],"tuple_shapes":[],"layout":{"minor_to_major":["2","1","0"],"tiles":[{"dimensions":["8","128"]},{"dimensions":["2","1"]}],"element_size_in_bits":"0","memory_space":"0","dim_level_types":[],"index_primitive_type":"PRIMITIVE_TYPE_INVALID","pointer_primitive_type":"PRIMITIVE_TYPE_INVALID","dim_unique":[],"dim_ordered":[],"dynamic_shape_metadata_prefix_bytes":"0","tail_padding_alignment_in_elements":"1","split_configs":[]},"is_dynamic_dimension":[false,false,false]}}}
  %convert.231 = bf16[1,128,6144]{2,1,0:T(8,128)(2,1)} convert(%mul.2309)
  ROOT %bitcast.941 = bf16[128,6144]{1,0:T(8,128)(2,1)} bitcast(%convert.231)
}

%fused_computation.88.clone.1 (param_0.1743: bf16[1,2048,6144]) -> bf16[2048,6144] {
  %param_0.1743 = bf16[1,2048,6144]{2,1,0:T(8,128)(2,1)S(1)} parameter(0)
  ROOT %bitcast.940 = bf16[2048,6144]{1,0:T(8,128)(2,1)} bitcast(%param_0.1743), metadata={op_name="jit(train_step)/transpose(jvp())/while/body/closed_call/checkpoint/dot_general" stack_frame_id=0}
}

%fused_computation.87.clone.1 (param_0.1745: bf16[1,2048,6144], param_1.1849: bf16[1,128,6144], param_2.1411: bf16[1,128,6144]) -> bf16[128,2048] {
  %param_1.1849 = bf16[1,128,6144]{2,1,0:T(8,128)(2,1)S(1)} parameter(1)
  %param_2.1411 = bf16[1,128,6144]{2,1,0:T(8,128)(2,1)S(1)} parameter(2)
  %fusion.451 = bf16[128,6144]{1,0:T(8,128)(2,1)} fusion(%param_1.1849, %param_2.1411), kind=kLoop, calls=%fused_computation.147.clone.1
  %param_0.1745 = bf16[1,2048,6144]{2,1,0:T(8,128)(2,1)S(1)} parameter(0)
  %fusion.450 = bf16[2048,6144]{1,0:T(8,128)(2,1)} fusion(%param_0.1745), kind=kLoop, calls=%fused_computation.88.clone.1, metadata={op_name="jit(train_step)/transpose(jvp())/while/body/closed_call/checkpoint/dot_general" stack_frame_id=0}
  ROOT %convolution.138 = bf16[128,2048]{1,0:T(8,128)(2,1)} convolution(%fusion.451, %fusion.450), dim_labels=bf_oi->bf, metadata={op_name="jit(train_step)/transpose(jvp())/while/body/closed_call/checkpoint/dot_general" stack_frame_id=0}
}

%fused_computation.142.clone.1.clone.clone.clone.1 (param_0.1747: bf16[1,128,6144], param_1.1850: bf16[1,128,6144], param_2.1412: bf16[1,128,6144]) -> bf16[128,6144] {
  %param_1.1850 = bf16[1,128,6144]{2,1,0:T(8,128)(2,1)S(1)} parameter(1)
  %convert.232 = f32[1,128,6144]{2,1,0:T(8,128)} convert(%param_1.1850)
  %param_2.1412 = bf16[1,128,6144]{2,1,0:T(8,128)(2,1)S(1)} parameter(2)
  %convert.233 = f32[1,128,6144]{2,1,0:T(8,128)} convert(%param_2.1412)
  %mul.2315 = f32[1,128,6144]{2,1,0:T(8,128)} multiply(%convert.232, %convert.233), metadata={op_name="jit(train_step)/transpose(jvp())/while/body/closed_call/checkpoint/mul" stack_frame_id=0}, backend_config={"flag_configs":[],"scoped_memory_configs":[],"used_scoped_memory_configs":[],"float_type_correction_info":{"original_type":"BF16","original_shape":{"element_type":"BF16","dimensions":["1","128","6144"],"tuple_shapes":[],"layout":{"minor_to_major":["2","1","0"],"tiles":[{"dimensions":["8","128"]},{"dimensions":["2","1"]}],"element_size_in_bits":"0","memory_space":"0","dim_level_types":[],"index_primitive_type":"PRIMITIVE_TYPE_INVALID","pointer_primitive_type":"PRIMITIVE_TYPE_INVALID","dim_unique":[],"dim_ordered":[],"dynamic_shape_metadata_prefix_bytes":"0","tail_padding_alignment_in_elements":"1","split_configs":[]},"is_dynamic_dimension":[false,false,false]}}}
  %constant.441.clone.22 = bf16[]{:T(256)} constant(1)
  %jit_silu_.42 = bf16[1,128,6144]{2,1,0:T(8,128)(2,1)} broadcast(%constant.441.clone.22), dimensions={}, metadata={op_name="jit(train_step)/transpose(jvp())/while/body/closed_call/checkpoint/rematted_computation/jit(silu)" stack_frame_id=0}
  %convert.235 = f32[1,128,6144]{2,1,0:T(8,128)} convert(%jit_silu_.42)
  %param_0.1747 = bf16[1,128,6144]{2,1,0:T(8,128)(2,1)S(1)} parameter(0)
  %convert.234 = f32[1,128,6144]{2,1,0:T(8,128)} convert(%param_0.1747)
  %neg.129 = f32[1,128,6144]{2,1,0:T(8,128)} negate(%convert.234), metadata={op_name="jit(train_step)/transpose(jvp())/while/body/closed_call/checkpoint/rematted_computation/jit(silu)/neg" stack_frame_id=0}, backend_config={"flag_configs":[],"scoped_memory_configs":[],"used_scoped_memory_configs":[],"float_type_correction_info":{"original_type":"BF16","original_shape":{"element_type":"BF16","dimensions":["1","128","6144"],"tuple_shapes":[],"layout":{"minor_to_major":["2","1","0"],"tiles":[{"dimensions":["8","128"]},{"dimensions":["2","1"]}],"element_size_in_bits":"0","memory_space":"0","dim_level_types":[],"index_primitive_type":"PRIMITIVE_TYPE_INVALID","pointer_primitive_type":"PRIMITIVE_TYPE_INVALID","dim_unique":[],"dim_ordered":[],"dynamic_shape_metadata_prefix_bytes":"0","tail_padding_alignment_in_elements":"1","split_configs":[]},"is_dynamic_dimension":[false,false,false]}}}
  %exp.75 = f32[1,128,6144]{2,1,0:T(8,128)} exponential(%neg.129), metadata={op_name="jit(train_step)/transpose(jvp())/while/body/closed_call/checkpoint/rematted_computation/jit(silu)/exp" stack_frame_id=0}, backend_config={"flag_configs":[],"scoped_memory_configs":[],"used_scoped_memory_configs":[],"float_type_correction_info":{"original_type":"BF16","original_shape":{"element_type":"BF16","dimensions":["1","128","6144"],"tuple_shapes":[],"layout":{"minor_to_major":["2","1","0"],"tiles":[{"dimensions":["8","128"]},{"dimensions":["2","1"]}],"element_size_in_bits":"0","memory_space":"0","dim_level_types":[],"index_primitive_type":"PRIMITIVE_TYPE_INVALID","pointer_primitive_type":"PRIMITIVE_TYPE_INVALID","dim_unique":[],"dim_ordered":[],"dynamic_shape_metadata_prefix_bytes":"0","tail_padding_alignment_in_elements":"1","split_configs":[]},"is_dynamic_dimension":[false,false,false]}}}
  %add.1052 = f32[1,128,6144]{2,1,0:T(8,128)} add(%exp.75, %convert.235), metadata={op_name="jit(train_step)/transpose(jvp())/while/body/closed_call/checkpoint/rematted_computation/jit(silu)/add" stack_frame_id=0}, backend_config={"flag_configs":[],"scoped_memory_configs":[],"used_scoped_memory_configs":[],"float_type_correction_info":{"original_type":"BF16","original_shape":{"element_type":"BF16","dimensions":["1","128","6144"],"tuple_shapes":[],"layout":{"minor_to_major":["2","1","0"],"tiles":[{"dimensions":["8","128"]},{"dimensions":["2","1"]}],"element_size_in_bits":"0","memory_space":"0","dim_level_types":[],"index_primitive_type":"PRIMITIVE_TYPE_INVALID","pointer_primitive_type":"PRIMITIVE_TYPE_INVALID","dim_unique":[],"dim_ordered":[],"dynamic_shape_metadata_prefix_bytes":"0","tail_padding_alignment_in_elements":"1","split_configs":[]},"is_dynamic_dimension":[false,false,false]}}}
  %div.1018 = f32[1,128,6144]{2,1,0:T(8,128)} divide(%convert.235, %add.1052), metadata={op_name="jit(train_step)/transpose(jvp())/while/body/closed_call/checkpoint/rematted_computation/jit(silu)/div" stack_frame_id=0}, backend_config={"flag_configs":[],"scoped_memory_configs":[],"used_scoped_memory_configs":[],"float_type_correction_info":{"original_type":"BF16","original_shape":{"element_type":"BF16","dimensions":["1","128","6144"],"tuple_shapes":[],"layout":{"minor_to_major":["2","1","0"],"tiles":[{"dimensions":["8","128"]},{"dimensions":["2","1"]}],"element_size_in_bits":"0","memory_space":"0","dim_level_types":[],"index_primitive_type":"PRIMITIVE_TYPE_INVALID","pointer_primitive_type":"PRIMITIVE_TYPE_INVALID","dim_unique":[],"dim_ordered":[],"dynamic_shape_metadata_prefix_bytes":"0","tail_padding_alignment_in_elements":"1","split_configs":[]},"is_dynamic_dimension":[false,false,false]}}}
  %mul.2314 = f32[1,128,6144]{2,1,0:T(8,128)} multiply(%mul.2315, %div.1018), metadata={op_name="jit(train_step)/transpose(jvp())/while/body/closed_call/checkpoint/jit(silu)/mul" stack_frame_id=0}, backend_config={"flag_configs":[],"scoped_memory_configs":[],"used_scoped_memory_configs":[],"float_type_correction_info":{"original_type":"BF16","original_shape":{"element_type":"BF16","dimensions":["1","128","6144"],"tuple_shapes":[],"layout":{"minor_to_major":["2","1","0"],"tiles":[{"dimensions":["8","128"]},{"dimensions":["2","1"]}],"element_size_in_bits":"0","memory_space":"0","dim_level_types":[],"index_primitive_type":"PRIMITIVE_TYPE_INVALID","pointer_primitive_type":"PRIMITIVE_TYPE_INVALID","dim_unique":[],"dim_ordered":[],"dynamic_shape_metadata_prefix_bytes":"0","tail_padding_alignment_in_elements":"1","split_configs":[]},"is_dynamic_dimension":[false,false,false]}}}
  %mul.2313 = f32[1,128,6144]{2,1,0:T(8,128)} multiply(%convert.234, %mul.2315), metadata={op_name="jit(train_step)/transpose(jvp())/while/body/closed_call/checkpoint/jit(silu)/mul" stack_frame_id=0}, backend_config={"flag_configs":[],"scoped_memory_configs":[],"used_scoped_memory_configs":[],"float_type_correction_info":{"original_type":"BF16","original_shape":{"element_type":"BF16","dimensions":["1","128","6144"],"tuple_shapes":[],"layout":{"minor_to_major":["2","1","0"],"tiles":[{"dimensions":["8","128"]},{"dimensions":["2","1"]}],"element_size_in_bits":"0","memory_space":"0","dim_level_types":[],"index_primitive_type":"PRIMITIVE_TYPE_INVALID","pointer_primitive_type":"PRIMITIVE_TYPE_INVALID","dim_unique":[],"dim_ordered":[],"dynamic_shape_metadata_prefix_bytes":"0","tail_padding_alignment_in_elements":"1","split_configs":[]},"is_dynamic_dimension":[false,false,false]}}}
  %sub.118 = f32[1,128,6144]{2,1,0:T(8,128)} subtract(%convert.235, %div.1018), metadata={op_name="jit(train_step)/transpose(jvp())/while/body/closed_call/checkpoint/rematted_computation/jit(silu)/sub" stack_frame_id=0}, backend_config={"flag_configs":[],"scoped_memory_configs":[],"used_scoped_memory_configs":[],"float_type_correction_info":{"original_type":"BF16","original_shape":{"element_type":"BF16","dimensions":["1","128","6144"],"tuple_shapes":[],"layout":{"minor_to_major":["2","1","0"],"tiles":[{"dimensions":["8","128"]},{"dimensions":["2","1"]}],"element_size_in_bits":"0","memory_space":"0","dim_level_types":[],"index_primitive_type":"PRIMITIVE_TYPE_INVALID","pointer_primitive_type":"PRIMITIVE_TYPE_INVALID","dim_unique":[],"dim_ordered":[],"dynamic_shape_metadata_prefix_bytes":"0","tail_padding_alignment_in_elements":"1","split_configs":[]},"is_dynamic_dimension":[false,false,false]}}}
  %mul.2312 = f32[1,128,6144]{2,1,0:T(8,128)} multiply(%div.1018, %sub.118), metadata={op_name="jit(train_step)/transpose(jvp())/while/body/closed_call/checkpoint/rematted_computation/jit(silu)/mul" stack_frame_id=0}, backend_config={"flag_configs":[],"scoped_memory_configs":[],"used_scoped_memory_configs":[],"float_type_correction_info":{"original_type":"BF16","original_shape":{"element_type":"BF16","dimensions":["1","128","6144"],"tuple_shapes":[],"layout":{"minor_to_major":["2","1","0"],"tiles":[{"dimensions":["8","128"]},{"dimensions":["2","1"]}],"element_size_in_bits":"0","memory_space":"0","dim_level_types":[],"index_primitive_type":"PRIMITIVE_TYPE_INVALID","pointer_primitive_type":"PRIMITIVE_TYPE_INVALID","dim_unique":[],"dim_ordered":[],"dynamic_shape_metadata_prefix_bytes":"0","tail_padding_alignment_in_elements":"1","split_configs":[]},"is_dynamic_dimension":[false,false,false]}}}
  %mul.2311 = f32[1,128,6144]{2,1,0:T(8,128)} multiply(%mul.2313, %mul.2312), metadata={op_name="jit(train_step)/transpose(jvp())/while/body/closed_call/checkpoint/jit(silu)/mul" stack_frame_id=0}, backend_config={"flag_configs":[],"scoped_memory_configs":[],"used_scoped_memory_configs":[],"float_type_correction_info":{"original_type":"BF16","original_shape":{"element_type":"BF16","dimensions":["1","128","6144"],"tuple_shapes":[],"layout":{"minor_to_major":["2","1","0"],"tiles":[{"dimensions":["8","128"]},{"dimensions":["2","1"]}],"element_size_in_bits":"0","memory_space":"0","dim_level_types":[],"index_primitive_type":"PRIMITIVE_TYPE_INVALID","pointer_primitive_type":"PRIMITIVE_TYPE_INVALID","dim_unique":[],"dim_ordered":[],"dynamic_shape_metadata_prefix_bytes":"0","tail_padding_alignment_in_elements":"1","split_configs":[]},"is_dynamic_dimension":[false,false,false]}}}
  %add_any.208 = f32[1,128,6144]{2,1,0:T(8,128)} add(%mul.2314, %mul.2311), metadata={op_name="jit(train_step)/transpose(jvp())/while/body/closed_call/checkpoint/jit(silu)/add_any" stack_frame_id=0}, backend_config={"flag_configs":[],"scoped_memory_configs":[],"used_scoped_memory_configs":[],"float_type_correction_info":{"original_type":"BF16","original_shape":{"element_type":"BF16","dimensions":["1","128","6144"],"tuple_shapes":[],"layout":{"minor_to_major":["2","1","0"],"tiles":[{"dimensions":["8","128"]},{"dimensions":["2","1"]}],"element_size_in_bits":"0","memory_space":"0","dim_level_types":[],"index_primitive_type":"PRIMITIVE_TYPE_INVALID","pointer_primitive_type":"PRIMITIVE_TYPE_INVALID","dim_unique":[],"dim_ordered":[],"dynamic_shape_metadata_prefix_bytes":"0","tail_padding_alignment_in_elements":"1","split_configs":[]},"is_dynamic_dimension":[false,false,false]}}}
  %convert.236 = bf16[1,128,6144]{2,1,0:T(8,128)(2,1)} convert(%add_any.208)
  ROOT %bitcast.943 = bf16[128,6144]{1,0:T(8,128)(2,1)} bitcast(%convert.236)
}

%fused_computation.92.clone.clone.clone.clone.clone.clone.clone.1 (param_0.1746: bf16[1,2048,6144]) -> bf16[2048,6144] {
  %param_0.1746 = bf16[1,2048,6144]{2,1,0:T(8,128)(2,1)S(1)} parameter(0)
  ROOT %bitcast.942 = bf16[2048,6144]{1,0:T(8,128)(2,1)} bitcast(%param_0.1746), metadata={op_name="jit(train_step)/transpose(jvp())/while/body/closed_call/checkpoint/rematted_computation/dot_general" stack_frame_id=0}
}

%region_18.21 (reduce_sum.225: f32[], reduce_sum.226: f32[]) -> f32[] {
  %reduce_sum.225 = f32[]{:T(128)} parameter(0), metadata={op_name="jit(train_step)/transpose(jvp())/while/body/closed_call/checkpoint/reduce_sum"}
  %reduce_sum.226 = f32[]{:T(128)} parameter(1), metadata={op_name="jit(train_step)/transpose(jvp())/while/body/closed_call/checkpoint/reduce_sum"}
  ROOT %reduce_sum.227 = f32[]{:T(128)} add(%reduce_sum.225, %reduce_sum.226), metadata={op_name="checkpoint/reduce_sum" stack_frame_id=0}, backend_config={"flag_configs":[],"scoped_memory_configs":[],"used_scoped_memory_configs":[],"aliasing_operands":{"lists":[]}}
}

%fused_computation.177.clone.1 (param_0.1748: bf16[1,128,2048], param_1.1851: bf16[2048], param_2.1413: bf16[128,2048], param_3.934: bf16[1,2048,6144], param_4.552: bf16[1,128,6144], param_5.482: bf16[1,128,6144], param_6.339: bf16[1,128,6144]) -> (f32[128], bf16[1,128,2048]) {
  %param_0.1748 = bf16[1,128,2048]{2,1,0:T(8,128)(2,1)S(1)} parameter(0)
  %convert_element_type.1481 = f32[1,128,2048]{2,1,0:T(8,128)} convert(%param_0.1748), metadata={op_name="jit(train_step)/transpose(jvp())/while/body/closed_call/checkpoint/rematted_computation/convert_element_type" stack_frame_id=0}
  %param_2.1413 = bf16[128,2048]{1,0:T(8,128)(2,1)} parameter(2)
  %convert.307 = f32[128,2048]{1,0:T(8,128)} convert(%param_2.1413)
  %param_4.552 = bf16[1,128,6144]{2,1,0:T(8,128)(2,1)S(1)} parameter(4)
  %param_5.482 = bf16[1,128,6144]{2,1,0:T(8,128)(2,1)S(1)} parameter(5)
  %param_6.339 = bf16[1,128,6144]{2,1,0:T(8,128)(2,1)S(1)} parameter(6)
  %fusion.292.clone.3 = bf16[128,6144]{1,0:T(8,128)(2,1)} fusion(%param_4.552, %param_5.482, %param_6.339), kind=kLoop, calls=%fused_computation.142.clone.1.clone.clone.clone.1
  %param_3.934 = bf16[1,2048,6144]{2,1,0:T(8,128)(2,1)S(1)} parameter(3)
  %fusion.171.clone.3 = bf16[2048,6144]{1,0:T(8,128)(2,1)} fusion(%param_3.934), kind=kLoop, calls=%fused_computation.92.clone.clone.clone.clone.clone.clone.clone.1, metadata={op_name="jit(train_step)/transpose(jvp())/while/body/closed_call/checkpoint/rematted_computation/dot_general" stack_frame_id=0}
  %convolution.101.clone.3 = bf16[128,2048]{1,0:T(8,128)(2,1)} convolution(%fusion.292.clone.3, %fusion.171.clone.3), dim_labels=bf_oi->bf, metadata={op_name="jit(train_step)/transpose(jvp())/while/body/closed_call/checkpoint/dot_general" stack_frame_id=0}
  %convert.308 = f32[128,2048]{1,0:T(8,128)} convert(%convolution.101.clone.3)
  %add_any.151.clone.3 = f32[128,2048]{1,0:T(8,128)} add(%convert.307, %convert.308), metadata={op_name="jit(train_step)/transpose(jvp())/while/body/closed_call/checkpoint/add_any" stack_frame_id=0}, backend_config={"flag_configs":[],"scoped_memory_configs":[],"used_scoped_memory_configs":[],"float_type_correction_info":{"original_type":"BF16","original_shape":{"element_type":"BF16","dimensions":["128","2048"],"tuple_shapes":[],"layout":{"minor_to_major":["1","0"],"tiles":[{"dimensions":["8","128"]},{"dimensions":["2","1"]}],"element_size_in_bits":"0","memory_space":"0","dim_level_types":[],"index_primitive_type":"PRIMITIVE_TYPE_INVALID","pointer_primitive_type":"PRIMITIVE_TYPE_INVALID","dim_unique":[],"dim_ordered":[],"dynamic_shape_metadata_prefix_bytes":"0","tail_padding_alignment_in_elements":"1","split_configs":[]},"is_dynamic_dimension":[false,false]}}}
  %convert.309 = bf16[128,2048]{1,0:T(8,128)(2,1)} convert(%add_any.151.clone.3)
  %bitcast.359.clone.3 = bf16[1,128,2048]{2,1,0:T(8,128)(2,1)S(1)} bitcast(%convert.309), metadata={op_name="jit(train_step)/transpose(jvp())/while/body/closed_call/checkpoint/add_any" stack_frame_id=0}
  %convert.310 = f32[1,128,2048]{2,1,0:T(8,128)} convert(%bitcast.359.clone.3)
  %param_1.1851 = bf16[2048]{0:T(1024)(128)(2,1)S(1)} parameter(1)
  %dot_general.603 = bf16[1,128,2048]{2,1,0:T(8,128)(2,1)} broadcast(%param_1.1851), dimensions={2}, metadata={op_name="jit(train_step)/transpose(jvp())/while/body/closed_call/checkpoint/rematted_computation/...k,k->...k/dot_general" stack_frame_id=0}
  %convert.311 = f32[1,128,2048]{2,1,0:T(8,128)} convert(%dot_general.603)
  %dot_general.602 = f32[1,128,2048]{2,1,0:T(8,128)} multiply(%convert.310, %convert.311), metadata={op_name="jit(train_step)/transpose(jvp())/while/body/closed_call/checkpoint/...k,k->...k/dot_general" stack_frame_id=0}, backend_config={"flag_configs":[],"scoped_memory_configs":[],"used_scoped_memory_configs":[],"float_type_correction_info":{"original_type":"BF16","original_shape":{"element_type":"BF16","dimensions":["1","128","2048"],"tuple_shapes":[],"layout":{"minor_to_major":["2","1","0"],"tiles":[{"dimensions":["8","128"]},{"dimensions":["2","1"]}],"element_size_in_bits":"0","memory_space":"0","dim_level_types":[],"index_primitive_type":"PRIMITIVE_TYPE_INVALID","pointer_primitive_type":"PRIMITIVE_TYPE_INVALID","dim_unique":[],"dim_ordered":[],"dynamic_shape_metadata_prefix_bytes":"0","tail_padding_alignment_in_elements":"1","split_configs":[]},"is_dynamic_dimension":[false,false,false]}}}
  %convert_element_type.1480 = f32[1,128,2048]{2,1,0:T(8,128)} convert(%dot_general.602), metadata={op_name="jit(train_step)/transpose(jvp())/while/body/closed_call/checkpoint/convert_element_type" stack_frame_id=0}
  %mul.2316 = f32[1,128,2048]{2,1,0:T(8,128)} multiply(%convert_element_type.1481, %convert_element_type.1480), metadata={op_name="jit(train_step)/transpose(jvp())/while/body/closed_call/checkpoint/mul" stack_frame_id=0}
  %constant.432.clone.23 = f32[]{:T(128)} constant(0)
  %reduce.267 = f32[128]{0:T(128)S(1)} reduce(%mul.2316, %constant.432.clone.23), dimensions={0,2}, to_apply=%region_18.21, metadata={op_name="jit(train_step)/transpose(jvp())/while/body/closed_call/checkpoint/reduce_sum" stack_frame_id=0}
  ROOT %tuple.226 = (f32[128]{0:T(128)S(1)}, bf16[1,128,2048]{2,1,0:T(8,128)(2,1)S(1)}) tuple(%reduce.267, %bitcast.359.clone.3)
}

%fused_computation.313.clone.1 (param_0.1749: f32[128], param_1.1852: f32[128]) -> f32[128] {
  %param_0.1749 = f32[128]{0:T(128)S(1)} parameter(0)
  %bitcast.946 = f32[1,128]{1,0:T(1,128)} bitcast(%param_0.1749), metadata={op_name="jit(train_step)/transpose(jvp())/while/body/closed_call/checkpoint/reduce_sum" stack_frame_id=0}
  %param_1.1852 = f32[128]{0:T(128)S(1)} parameter(1)
  %constant.433.clone.11 = f32[]{:T(128)} constant(0.00048828125)
  %broadcast.1083 = f32[128]{0:T(128)} broadcast(%constant.433.clone.11), dimensions={}, metadata={op_name="jit(train_step)/transpose(jvp())/while/body/closed_call" stack_frame_id=0}
  %div.1020 = f32[128]{0:T(128)} multiply(%param_1.1852, %broadcast.1083), metadata={op_name="jit(train_step)/transpose(jvp())/while/body/closed_call/checkpoint/rematted_computation/div" stack_frame_id=0}
  %constant.434.clone.21 = f32[]{:T(128)} constant(1e-06)
  %broadcast.1082 = f32[128]{0:T(128)} broadcast(%constant.434.clone.21), dimensions={}, metadata={op_name="jit(train_step)/transpose(jvp())/while/body/closed_call" stack_frame_id=0}
  %add.1053 = f32[128]{0:T(128)} add(%div.1020, %broadcast.1082), metadata={op_name="jit(train_step)/transpose(jvp())/while/body/closed_call/checkpoint/rematted_computation/add" stack_frame_id=0}
  %bitcast.945 = f32[1,128]{1,0:T(1,128)} bitcast(%add.1053), metadata={op_name="jit(train_step)/transpose(jvp())/while/body/closed_call/checkpoint/rematted_computation/add" stack_frame_id=0}
  %rsqrt.218 = f32[1,128]{1,0:T(1,128)} rsqrt(%bitcast.945), metadata={op_name="jit(train_step)/transpose(jvp())/while/body/closed_call/checkpoint/rematted_computation/rsqrt" stack_frame_id=0}
  %div.1019 = f32[1,128]{1,0:T(1,128)} divide(%rsqrt.218, %bitcast.945), metadata={op_name="jit(train_step)/transpose(jvp())/while/body/closed_call/checkpoint/rematted_computation/div" stack_frame_id=0}
  %constant.442.clone.9 = f32[]{:T(128)} constant(-0.5)
  %closed_call.70 = f32[1,128]{1,0:T(1,128)} broadcast(%constant.442.clone.9), dimensions={}, metadata={op_name="jit(train_step)/transpose(jvp())/while/body/closed_call" stack_frame_id=0}
  %mul.2319 = f32[1,128]{1,0:T(1,128)} multiply(%div.1019, %closed_call.70), metadata={op_name="jit(train_step)/transpose(jvp())/while/body/closed_call/checkpoint/rematted_computation/mul" stack_frame_id=0}
  %mul.2318 = f32[1,128]{1,0:T(1,128)} multiply(%bitcast.946, %mul.2319), metadata={op_name="jit(train_step)/transpose(jvp())/while/body/closed_call/checkpoint/mul" stack_frame_id=0}
  %constant.443.clone.5 = f32[]{:T(128)} constant(0.0009765625)
  %mul.2320 = f32[1,128]{1,0:T(1,128)} broadcast(%constant.443.clone.5), dimensions={}, metadata={op_name="jit(train_step)/transpose(jvp())/while/body/closed_call/checkpoint/mul" stack_frame_id=0}
  %mul.2317 = f32[1,128]{1,0:T(1,128)} multiply(%mul.2318, %mul.2320), metadata={op_name="jit(train_step)/transpose(jvp())/while/body/closed_call/checkpoint/mul" stack_frame_id=0}
  ROOT %bitcast.944 = f32[128]{0:T(128)S(1)} bitcast(%mul.2317), metadata={op_name="jit(train_step)/transpose(jvp())/while/body/closed_call/checkpoint/mul" stack_frame_id=0}
}

%region_23.27 (dot_general.209: bf16[], dot_general.210: bf16[]) -> bf16[] {
  %dot_general.209 = bf16[]{:T(256)} parameter(0), metadata={op_name="jit(train_step)/transpose(jvp())/while/body/closed_call/checkpoint/...k,k->...k/dot_general"}
  %dot_general.210 = bf16[]{:T(256)} parameter(1), metadata={op_name="jit(train_step)/transpose(jvp())/while/body/closed_call/checkpoint/...k,k->...k/dot_general"}
  ROOT %add.418 = bf16[]{:T(256)} add(%dot_general.209, %dot_general.210), metadata={op_name="add.70"}, backend_config={"flag_configs":[],"scoped_memory_configs":[],"used_scoped_memory_configs":[],"aliasing_operands":{"lists":[]}}
}

%fused_computation.230.clone.1 (param_0.1750: bf16[1,128,2048], param_1.1853: f32[128], param_2.1414: bf16[1,128,2048], param_3.935: bf16[1,128,2048], param_4.553: f32[128], param_5.483: bf16[2048]) -> (bf16[2048], bf16[1,128,2048]) {
  %param_0.1750 = bf16[1,128,2048]{2,1,0:T(8,128)(2,1)S(1)} parameter(0)
  %convert.312 = f32[1,128,2048]{2,1,0:T(8,128)} convert(%param_0.1750)
  %param_2.1414 = bf16[1,128,2048]{2,1,0:T(8,128)(2,1)S(1)} parameter(2)
  %convert_element_type.1483 = f32[1,128,2048]{2,1,0:T(8,128)} convert(%param_2.1414), metadata={op_name="jit(train_step)/transpose(jvp())/while/body/closed_call/checkpoint/rematted_computation/convert_element_type" stack_frame_id=0}
  %param_1.1853 = f32[128]{0:T(128)S(1)} parameter(1)
  %mul.2322 = f32[1,128,2048]{2,1,0:T(8,128)} broadcast(%param_1.1853), dimensions={1}, metadata={op_name="jit(train_step)/transpose(jvp())/while/body/closed_call/checkpoint/rematted_computation/mul" stack_frame_id=0}
  %mul.2321 = f32[1,128,2048]{2,1,0:T(8,128)} multiply(%convert_element_type.1483, %mul.2322), metadata={op_name="jit(train_step)/transpose(jvp())/while/body/closed_call/checkpoint/rematted_computation/mul" stack_frame_id=0}
  %convert_element_type.1482 = bf16[1,128,2048]{2,1,0:T(8,128)(2,1)} convert(%mul.2321), metadata={op_name="jit(train_step)/transpose(jvp())/while/body/closed_call/checkpoint/rematted_computation/convert_element_type" stack_frame_id=0}
  %convert.313 = f32[1,128,2048]{2,1,0:T(8,128)} convert(%convert_element_type.1482)
  %multiply.470 = f32[1,128,2048]{2,1,0:T(8,128)} multiply(%convert.312, %convert.313), metadata={op_name="multiply.352"}, backend_config={"flag_configs":[],"scoped_memory_configs":[],"used_scoped_memory_configs":[],"float_type_correction_info":{"original_type":"BF16","original_shape":{"element_type":"BF16","dimensions":["1","128","2048"],"tuple_shapes":[],"layout":{"minor_to_major":["2","1","0"],"tiles":[{"dimensions":["8","128"]},{"dimensions":["2","1"]}],"element_size_in_bits":"0","memory_space":"0","dim_level_types":[],"index_primitive_type":"PRIMITIVE_TYPE_INVALID","pointer_primitive_type":"PRIMITIVE_TYPE_INVALID","dim_unique":[],"dim_ordered":[],"dynamic_shape_metadata_prefix_bytes":"0","tail_padding_alignment_in_elements":"1","split_configs":[]},"is_dynamic_dimension":[false,false,false]}}}
  %convert.314 = bf16[1,128,2048]{2,1,0:T(8,128)(2,1)} convert(%multiply.470)
  %constant.445.clone.9 = bf16[]{:T(256)} constant(0)
  %reduce.268 = bf16[2048]{0:T(1024)(128)(2,1)S(1)} reduce(%convert.314, %constant.445.clone.9), dimensions={0,1}, to_apply=%region_23.27, metadata={op_name="jit(train_step)/transpose(jvp())/while/body/closed_call/checkpoint/...k,k->...k/dot_general" stack_frame_id=0}
  %param_3.935 = bf16[1,128,2048]{2,1,0:T(8,128)(2,1)S(1)} parameter(3)
  %convert.316 = f32[1,128,2048]{2,1,0:T(8,128)} convert(%param_3.935)
  %param_5.483 = bf16[2048]{0:T(1024)(128)(2,1)S(1)} parameter(5)
  %dot_general.448.clone.3 = bf16[1,128,2048]{2,1,0:T(8,128)(2,1)} broadcast(%param_5.483), dimensions={2}, metadata={op_name="jit(train_step)/transpose(jvp())/while/body/closed_call/checkpoint/rematted_computation/...k,k->...k/dot_general" stack_frame_id=0}
  %convert.315 = f32[1,128,2048]{2,1,0:T(8,128)} convert(%dot_general.448.clone.3)
  %dot_general.364.clone.3 = f32[1,128,2048]{2,1,0:T(8,128)} multiply(%convert.312, %convert.315), metadata={op_name="jit(train_step)/transpose(jvp())/while/body/closed_call/checkpoint/...k,k->...k/dot_general" stack_frame_id=0}, backend_config={"flag_configs":[],"scoped_memory_configs":[],"used_scoped_memory_configs":[],"float_type_correction_info":{"original_type":"BF16","original_shape":{"element_type":"BF16","dimensions":["1","128","2048"],"tuple_shapes":[],"layout":{"minor_to_major":["2","1","0"],"tiles":[{"dimensions":["8","128"]},{"dimensions":["2","1"]}],"element_size_in_bits":"0","memory_space":"0","dim_level_types":[],"index_primitive_type":"PRIMITIVE_TYPE_INVALID","pointer_primitive_type":"PRIMITIVE_TYPE_INVALID","dim_unique":[],"dim_ordered":[],"dynamic_shape_metadata_prefix_bytes":"0","tail_padding_alignment_in_elements":"1","split_configs":[]},"is_dynamic_dimension":[false,false,false]}}}
  %convert_element_type.1115.clone.3 = f32[1,128,2048]{2,1,0:T(8,128)} convert(%dot_general.364.clone.3), metadata={op_name="jit(train_step)/transpose(jvp())/while/body/closed_call/checkpoint/convert_element_type" stack_frame_id=0}
  %mul.1564.clone.3 = f32[1,128,2048]{2,1,0:T(8,128)} multiply(%convert_element_type.1115.clone.3, %mul.2322), metadata={op_name="jit(train_step)/transpose(jvp())/while/body/closed_call/checkpoint/mul" stack_frame_id=0}
  %param_4.553 = f32[128]{0:T(128)S(1)} parameter(4)
  %mul.1583.clone.3 = f32[1,128,2048]{2,1,0:T(8,128)} broadcast(%param_4.553), dimensions={1}, metadata={op_name="jit(train_step)/transpose(jvp())/while/body/closed_call/checkpoint/mul" stack_frame_id=0}
  %mul.1563.clone.3 = f32[1,128,2048]{2,1,0:T(8,128)} multiply(%convert_element_type.1483, %mul.1583.clone.3), metadata={op_name="jit(train_step)/transpose(jvp())/while/body/closed_call/checkpoint/mul" stack_frame_id=0}
  %add_any.171.clone.3 = f32[1,128,2048]{2,1,0:T(8,128)} add(%mul.1564.clone.3, %mul.1563.clone.3), metadata={op_name="jit(train_step)/transpose(jvp())/while/body/closed_call/checkpoint/add_any" stack_frame_id=0}
  %convert_element_type.1113.clone.3 = bf16[1,128,2048]{2,1,0:T(8,128)(2,1)} convert(%add_any.171.clone.3), metadata={op_name="jit(train_step)/transpose(jvp())/while/body/closed_call/checkpoint/convert_element_type" stack_frame_id=0}
  %convert.317 = f32[1,128,2048]{2,1,0:T(8,128)} convert(%convert_element_type.1113.clone.3)
  %add_any.169.clone.3 = f32[1,128,2048]{2,1,0:T(8,128)} add(%convert.316, %convert.317), metadata={op_name="jit(train_step)/transpose(jvp())/while/body/closed_call/checkpoint/add_any" stack_frame_id=0}, backend_config={"flag_configs":[],"scoped_memory_configs":[],"used_scoped_memory_configs":[],"float_type_correction_info":{"original_type":"BF16","original_shape":{"element_type":"BF16","dimensions":["1","128","2048"],"tuple_shapes":[],"layout":{"minor_to_major":["2","1","0"],"tiles":[{"dimensions":["8","128"]},{"dimensions":["2","1"]}],"element_size_in_bits":"0","memory_space":"0","dim_level_types":[],"index_primitive_type":"PRIMITIVE_TYPE_INVALID","pointer_primitive_type":"PRIMITIVE_TYPE_INVALID","dim_unique":[],"dim_ordered":[],"dynamic_shape_metadata_prefix_bytes":"0","tail_padding_alignment_in_elements":"1","split_configs":[]},"is_dynamic_dimension":[false,false,false]}}}
  %convert.318 = bf16[1,128,2048]{2,1,0:T(8,128)(2,1)S(1)} convert(%add_any.169.clone.3)
  ROOT %tuple.227 = (bf16[2048]{0:T(1024)(128)(2,1)S(1)}, bf16[1,128,2048]{2,1,0:T(8,128)(2,1)S(1)}) tuple(%reduce.268, %convert.318)
}

%fused_computation.211.clone.clone.clone.1 (param_0.1752: bf16[1,128,2048]) -> bf16[128,2048,1] {
  %param_0.1752 = bf16[1,128,2048]{2,1,0:T(8,128)(2,1)S(1)} parameter(0)
  ROOT %bitcast.948 = bf16[128,2048,1]{1,0,2:T(8,128)(2,1)} bitcast(%param_0.1752)
}

%fused_computation.104.clone.clone.clone.1 (param_0.1751: bf16[1,16,128,2048]) -> bf16[16,128,2048] {
  %param_0.1751 = bf16[1,16,128,2048]{3,2,1,0:T(8,128)(2,1)S(1)} parameter(0)
  ROOT %bitcast.947 = bf16[16,128,2048]{2,1,0:T(8,128)(2,1)} bitcast(%param_0.1751), metadata={op_name="jit(train_step)/transpose(jvp())/while/body/closed_call/checkpoint/rematted_computation/dot_general" stack_frame_id=0}
}

%region_19.22 (dot_general.206: f32[], dot_general.207: f32[]) -> f32[] {
  %dot_general.206 = f32[]{:T(128)} parameter(0), metadata={op_name="vmap(static_sparsity_splash)/jit(_splash_attention)/hsd,hsd->hs/dot_general"}
  %dot_general.207 = f32[]{:T(128)} parameter(1), metadata={op_name="vmap(static_sparsity_splash)/jit(_splash_attention)/hsd,hsd->hs/dot_general"}
  ROOT %add.417 = f32[]{:T(128)} add(%dot_general.206, %dot_general.207), metadata={op_name="add.47"}, backend_config={"flag_configs":[],"scoped_memory_configs":[],"used_scoped_memory_configs":[],"aliasing_operands":{"lists":[]}}
}

%fused_computation.183.clone.1 (param_0.1753: bf16[16,128,128], param_1.1854: bf16[1,16,128,2048], param_2.1415: bf16[1,128,2048]) -> (f32[16,128], bf16[128,16,128]) {
  %param_0.1753 = bf16[16,128,128]{2,1,0:T(8,128)(2,1)S(1)} parameter(0)
  %bitcast.950 = bf16[1,16,128,128]{3,2,1,0:T(8,128)(2,1)} bitcast(%param_0.1753), metadata={op_name="jit(train_step)/transpose(jvp())/while/body/closed_call/checkpoint/rematted_computation/shard_map/vmap(static_sparsity_splash)/jit(_splash_attention)/splash_mha_fwd_segmented_residuals/splash_mha_fwd_segmented_residuals/broadcast_in_dim" stack_frame_id=0}
  %convert.193 = f32[1,16,128,128]{3,2,1,0:T(8,128)} convert(%bitcast.950), metadata={op_name="jit(train_step)/transpose(jvp())/while/body/closed_call/checkpoint/shard_map/convert" stack_frame_id=0}
  %param_2.1415 = bf16[1,128,2048]{2,1,0:T(8,128)(2,1)S(1)} parameter(2)
  %fusion.212.clone.3 = bf16[128,2048,1]{1,0,2:T(8,128)(2,1)} fusion(%param_2.1415), kind=kLoop, calls=%fused_computation.211.clone.clone.clone.1
  %param_1.1854 = bf16[1,16,128,2048]{3,2,1,0:T(8,128)(2,1)S(1)} parameter(1)
  %fusion.110.clone.3 = bf16[16,128,2048]{2,1,0:T(8,128)(2,1)} fusion(%param_1.1854), kind=kLoop, calls=%fused_computation.104.clone.clone.clone.1, metadata={op_name="jit(train_step)/transpose(jvp())/while/body/closed_call/checkpoint/rematted_computation/dot_general" stack_frame_id=0}
  %convolution.67.clone.3 = bf16[128,16,128]{2,0,1:T(8,128)(2,1)S(1)} convolution(%fusion.212.clone.3, %fusion.110.clone.3), window={size=16 pad=15_15 rhs_reversal=1}, dim_labels=bf0_0oi->b0f, metadata={op_name="jit(train_step)/transpose(jvp())/while/body/closed_call/checkpoint/dot_general" stack_frame_id=0}
  %bitcast.949 = bf16[1,16,128,128]{3,2,1,0:T(8,128)(2,1)} bitcast(%convolution.67.clone.3), metadata={op_name="jit(train_step)/transpose(jvp())/while/body/closed_call/checkpoint/transpose" stack_frame_id=0}
  %convert.192 = f32[1,16,128,128]{3,2,1,0:T(8,128)} convert(%bitcast.949), metadata={op_name="jit(train_step)/transpose(jvp())/while/body/closed_call/checkpoint/shard_map/convert.1" stack_frame_id=0}
  %multiply.471 = f32[1,16,128,128]{3,2,1,0:T(8,128)} multiply(%convert.193, %convert.192), metadata={op_name="jit(train_step)/transpose(jvp())/while/body/closed_call/checkpoint/shard_map/multiply" stack_frame_id=0}
  %constant.432.clone.24 = f32[]{:T(128)} constant(0)
  %dot_general.604 = f32[16,128]{1,0:T(8,128)S(1)} reduce(%multiply.471, %constant.432.clone.24), dimensions={0,3}, to_apply=%region_19.22, metadata={op_name="jit(train_step)/transpose(jvp())/while/body/closed_call/checkpoint/shard_map/vmap(static_sparsity_splash)/jit(_splash_attention)/hsd,hsd->hs/dot_general" stack_frame_id=0}
  ROOT %tuple.228 = (f32[16,128]{1,0:T(8,128)S(1)}, bf16[128,16,128]{2,0,1:T(8,128)(2,1)S(1)}) tuple(%dot_general.604, %convolution.67.clone.3)
}

%fused_computation.252.clone.1 (param_0.1791: bf16[8,128,128]) -> bf16[128,8,128] {
  %param_0.1791 = bf16[8,128,128]{2,1,0:T(8,128)(2,1)S(1)} parameter(0)
  ROOT %bitcast.985 = bf16[128,8,128]{2,0,1:T(8,128)(2,1)} bitcast(%param_0.1791)
}

%fused_computation.114.clone.clone.clone.1 (param_0.1790: bf16[1,2048,8,128]) -> bf16[2048,8,128] {
  %param_0.1790 = bf16[1,2048,8,128]{3,1,2,0:T(8,128)(2,1)S(1)} parameter(0)
  ROOT %bitcast.984 = bf16[2048,8,128]{2,0,1:T(8,128)(2,1)} bitcast(%param_0.1790), metadata={op_name="jit(train_step)/transpose(jvp())/while/body/closed_call/checkpoint/dot_general" stack_frame_id=0}
}

%fused_computation.155.clone.1 (param_0.1792: bf16[1,2048,8,128], param_1.1882: bf16[8,128,128]) -> bf16[128,2048] {
  %param_1.1882 = bf16[8,128,128]{2,1,0:T(8,128)(2,1)S(1)} parameter(1)
  %fusion.465 = bf16[128,8,128]{2,0,1:T(8,128)(2,1)} fusion(%param_1.1882), kind=kLoop, calls=%fused_computation.252.clone.1
  %param_0.1792 = bf16[1,2048,8,128]{3,1,2,0:T(8,128)(2,1)S(1)} parameter(0)
  %fusion.464 = bf16[2048,8,128]{2,0,1:T(8,128)(2,1)} fusion(%param_0.1792), kind=kLoop, calls=%fused_computation.114.clone.clone.clone.1, metadata={op_name="jit(train_step)/transpose(jvp())/while/body/closed_call/checkpoint/dot_general" stack_frame_id=0}
  %convolution.145 = bf16[128,2048,1]{1,0,2:T(8,128)(2,1)} convolution(%fusion.465, %fusion.464), window={size=8}, dim_labels=b0f_o0i->bf0, metadata={op_name="jit(train_step)/transpose(jvp())/while/body/closed_call/checkpoint/dot_general" stack_frame_id=0}
  ROOT %bitcast.986 = bf16[128,2048]{1,0:T(8,128)(2,1)S(1)} bitcast(%convolution.145), metadata={op_name="jit(train_step)/transpose(jvp())/while/body/closed_call/checkpoint/dot_general" stack_frame_id=0}
}

%fused_computation.255.clone.1 (param_0.1777: bf16[8,128,128], param_1.1871: bf16[128,128]) -> bf16[1,128,8,128] {
  %param_0.1777 = bf16[8,128,128]{2,1,0:T(8,128)(2,1)S(1)} parameter(0)
  %bitcast.973 = bf16[1,8,128,128]{3,2,1,0:T(8,128)(2,1)} bitcast(%param_0.1777), metadata={op_name="jit(train_step)/transpose(jvp())/while/body/closed_call/checkpoint/shard_map/vmap(static_sparsity_splash)/jit(_splash_attention)/splash_mha_dkv_segmented_no_residuals/splash_mha_dkv_segmented_no_residuals/broadcast_in_dim" stack_frame_id=0}
  %convert.319 = f32[1,8,128,128]{3,2,1,0:T(8,128)} convert(%bitcast.973)
  %param_1.1871 = bf16[128,128]{1,0:T(8,128)(2,1)S(1)} parameter(1)
  %broadcast.1087 = bf16[1,8,128,128]{3,2,1,0:T(8,128)(2,1)} broadcast(%param_1.1871), dimensions={2,3}, metadata={op_name="jit(train_step)/transpose(jvp())/while/body/closed_call/checkpoint/rematted_computation/mul" stack_frame_id=0}
  %convert.320 = f32[1,8,128,128]{3,2,1,0:T(8,128)} convert(%broadcast.1087)
  %mul.2344 = f32[1,8,128,128]{3,2,1,0:T(8,128)} multiply(%convert.319, %convert.320), metadata={op_name="jit(train_step)/transpose(jvp())/while/body/closed_call/checkpoint/mul" stack_frame_id=0}, backend_config={"flag_configs":[],"scoped_memory_configs":[],"used_scoped_memory_configs":[],"float_type_correction_info":{"original_type":"BF16","original_shape":{"element_type":"BF16","dimensions":["1","8","128","128"],"tuple_shapes":[],"layout":{"minor_to_major":["3","2","1","0"],"tiles":[{"dimensions":["8","128"]},{"dimensions":["2","1"]}],"element_size_in_bits":"0","memory_space":"0","dim_level_types":[],"index_primitive_type":"PRIMITIVE_TYPE_INVALID","pointer_primitive_type":"PRIMITIVE_TYPE_INVALID","dim_unique":[],"dim_ordered":[],"dynamic_shape_metadata_prefix_bytes":"0","tail_padding_alignment_in_elements":"1","split_configs":[]},"is_dynamic_dimension":[false,false,false,false]}}}
  %convert.321 = bf16[1,8,128,128]{3,2,1,0:T(8,128)(2,1)} convert(%mul.2344)
  ROOT %bitcast.972 = bf16[1,128,8,128]{3,1,2,0:T(8,128)(2,1)S(1)} bitcast(%convert.321), metadata={op_name="jit(train_step)/transpose(jvp())/while/body/closed_call/checkpoint/mul" stack_frame_id=0}
}

%fused_computation.490.clone.1 (param_0.1778: bf16[1,128,8,128]) -> (bf16[1,128,8,64], bf16[1,128,8,64]) {
  %param_0.1778 = bf16[1,128,8,128]{3,1,2,0:T(8,128)(2,1)S(1)} parameter(0)
  %slice.79 = bf16[1,128,8,64]{3,1,2,0:T(8,128)(2,1)S(1)} slice(%param_0.1778), slice={[0:1], [0:128], [0:8], [64:128]}, metadata={op_name="jit(train_step)/transpose(jvp())/while/body/closed_call/checkpoint/split" stack_frame_id=0}
  %slice.52.clone.3 = bf16[1,128,8,64]{3,1,2,0:T(8,128)(2,1)} slice(%param_0.1778), slice={[0:1], [0:128], [0:8], [0:64]}, metadata={op_name="jit(train_step)/transpose(jvp())/while/body/closed_call/checkpoint/split" stack_frame_id=0}
  %convert.322 = f32[1,128,8,64]{3,1,2,0:T(8,128)} convert(%slice.52.clone.3)
  %neg.100.clone.3 = f32[1,128,8,64]{3,1,2,0:T(8,128)} negate(%convert.322), metadata={op_name="jit(train_step)/transpose(jvp())/while/body/closed_call/checkpoint/neg" stack_frame_id=0}, backend_config={"flag_configs":[],"scoped_memory_configs":[],"used_scoped_memory_configs":[],"float_type_correction_info":{"original_type":"BF16","original_shape":{"element_type":"BF16","dimensions":["1","128","8","64"],"tuple_shapes":[],"layout":{"minor_to_major":["3","1","2","0"],"tiles":[{"dimensions":["8","128"]},{"dimensions":["2","1"]}],"element_size_in_bits":"0","memory_space":"0","dim_level_types":[],"index_primitive_type":"PRIMITIVE_TYPE_INVALID","pointer_primitive_type":"PRIMITIVE_TYPE_INVALID","dim_unique":[],"dim_ordered":[],"dynamic_shape_metadata_prefix_bytes":"0","tail_padding_alignment_in_elements":"1","split_configs":[]},"is_dynamic_dimension":[false,false,false,false]}}}
  %convert.323 = bf16[1,128,8,64]{3,1,2,0:T(8,128)(2,1)S(1)} convert(%neg.100.clone.3)
  ROOT %tuple.234 = (bf16[1,128,8,64]{3,1,2,0:T(8,128)(2,1)S(1)}, bf16[1,128,8,64]{3,1,2,0:T(8,128)(2,1)S(1)}) tuple(%slice.79, %convert.323)
}

%region_25.29 (dot_general.213: bf16[], dot_general.214: bf16[]) -> bf16[] {
  %dot_general.213 = bf16[]{:T(256)} parameter(0), metadata={op_name="jit(train_step)/transpose(jvp())/while/body/closed_call/checkpoint/...k,k->...k/dot_general"}
  %dot_general.214 = bf16[]{:T(256)} parameter(1), metadata={op_name="jit(train_step)/transpose(jvp())/while/body/closed_call/checkpoint/...k,k->...k/dot_general"}
  ROOT %add.420 = bf16[]{:T(256)} add(%dot_general.213, %dot_general.214), metadata={op_name="add.72"}, backend_config={"flag_configs":[],"scoped_memory_configs":[],"used_scoped_memory_configs":[],"aliasing_operands":{"lists":[]}}
}

%fused_computation.256.clone.1 (param_0.1779: f32[1,128,8,128], param_1.1872: f32[128,8], param_2.1428: bf16[128,128], param_3.943: bf16[8,128,128], param_4.559: bf16[1,128,8,64], param_5.486: bf16[1,128,8,64]) -> (bf16[128], bf16[1,128,8,128]) {
  %param_5.486 = bf16[1,128,8,64]{3,1,2,0:T(8,128)(2,1)S(1)} parameter(5)
  %constant.1098.clone.3 = bf16[]{:T(256)} constant(-inf)
  %pad.61.clone.3 = bf16[1,128,8,128]{3,1,2,0:T(8,128)(2,1)} pad(%param_5.486, %constant.1098.clone.3), padding=0_0x0_0x0_0x0_64, metadata={op_name="jit(train_step)/transpose(jvp())/while/body/closed_call/checkpoint/concatenate" stack_frame_id=0}
  %convert.324 = f32[1,128,8,128]{3,1,2,0:T(8,128)} convert(%pad.61.clone.3)
