HloModule jit_train_step, is_scheduled=true, input_output_alias={ {0}: (0, {}, may-alias), {1}: (1, {}, may-alias), {2}: (2, {}, may-alias), {3}: (3, {}, may-alias), {4}: (4, {}, may-alias), {5}: (5, {}, may-alias), {6}: (6, {}, may-alias), {7}: (7, {}, may-alias), {8}: (8, {}, may-alias), {9}: (9, {}, may-alias), {10}: (10, {}, may-alias), {11}: (11, {}, may-alias), {12}: (12, {}, may-alias), {13}: (13, {}, may-alias), {14}: (14, {}, may-alias), {15}: (15, {}, may-alias), {16}: (16, {}, may-alias), {17}: (17, {}, may-alias), {18}: (18, {}, may-alias), {19}: (19, {}, may-alias), {20}: (20, {}, may-alias), {21}: (21, {}, may-alias), {22}: (22, {}, may-alias), {23}: (23, {}, may-alias), {24}: (24, {}, may-alias), {25}: (25, {}, may-alias), {26}: (26, {}, may-alias), {27}: (27, {}, may-alias), {28}: (28, {}, may-alias), {29}: (29, {}, may-alias), {30}: (30, {}, may-alias), {31}: (31, {}, may-alias), {32}: (32, {}, may-alias), {33}: (33, {}, may-alias), {34}: (34, {}, may-alias), {35}: (35, {}, may-alias), {36}: (36, {}, may-alias), {37}: (37, {}, may-alias), {38}: (38, {}, may-alias), {39}: (39, {}, may-alias), {40}: (40, {}, may-alias), {41}: (41, {}, may-alias), {42}: (42, {}, may-alias), {43}: (43, {}, may-alias), {44}: (44, {}, may-alias), {45}: (45, {}, may-alias), {46}: (46, {}, may-alias), {47}: (47, {}, may-alias), {48}: (48, {}, may-alias), {49}: (49, {}, may-alias), {50}: (50, {}, may-alias), {51}: (51, {}, may-alias), {52}: (52, {}, may-alias), {53}: (53, {}, may-alias), {54}: (54, {}, may-alias), {55}: (55, {}, may-alias), {56}: (56, {}, may-alias), {57}: (57, {}, may-alias), {58}: (58, {}, may-alias), {59}: (59, {}, may-alias), {60}: (60, {}, may-alias), {61}: (61, {}, may-alias), {62}: (62, {}, may-alias), {63}: (63, {}, may-alias), {64}: (64, {}, may-alias), {65}: (65, {}, may-alias), {66}: (66, {}, may-alias), {67}: (67, {}, may-alias), {68}: (68, {}, may-alias) }, entry_computation_layout={(f32[4096]{0:T(1024)}, u32[]{:T(128)}, u32[4]{0:T(128)}, u32[]{:T(128)}, u32[4]{0:T(128)}, /*index=5*/u32[]{:T(128)}, u32[4]{0:T(128)}, u32[4]{0:T(128)}, u32[4,4]{1,0:T(4,128)}, u32[4]{0:T(128)}, /*index=10*/u32[4,4]{1,0:T(4,128)}, u32[4]{0:T(128)}, u32[4,4]{1,0:T(4,128)}, u32[4]{0:T(128)}, u32[4,4]{1,0:T(4,128)}, /*index=15*/u32[4]{0:T(128)}, u32[4,4]{1,0:T(4,128)}, u32[4]{0:T(128)}, u32[4,4]{1,0:T(4,128)}, f32[1024,4,14336]{2,1,0:T(4,128)}, /*index=20*/f32[1024,4,14336]{2,1,0:T(4,128)}, f32[14336,4,1024]{2,1,0:T(4,128)}, f32[4096,4]{0,1:T(4,128)}, f32[4096,4]{0,1:T(4,128)}, u32[4]{0:T(128)}, /*index=25*/u32[4,4]{1,0:T(4,128)}, u32[4]{0:T(128)}, u32[4,4]{1,0:T(4,128)}, u32[4]{0:T(128)}, u32[4,4]{1,0:T(4,128)}, /*index=30*/f32[1024,4,8,128]{3,2,1,0:T(8,128)}, f32[32,4,128,1024]{3,2,1,0:T(8,128)}, f32[1024,4,32,128]{3,2,1,0:T(8,128)}, f32[1024,4,8,128]{3,2,1,0:T(8,128)}, f32[1024,128256]{1,0:T(8,128)}, /*index=35*/u32[]{:T(128)}, u32[4]{0:T(128)}, u32[]{:T(128)}, u32[4]{0:T(128)}, u32[]{:T(128)}, /*index=40*/u32[4]{0:T(128)}, f32[128256,1024]{1,0:T(8,128)}, s32[]{:T(128)}, f32[4096]{0:T(1024)}, f32[1024,4,14336]{2,1,0:T(4,128)}, /*index=45*/f32[1024,4,14336]{2,1,0:T(4,128)}, f32[14336,4,1024]{2,1,0:T(4,128)}, f32[4096,4]{0,1:T(4,128)}, f32[4096,4]{0,1:T(4,128)}, f32[1024,4,8,128]{3,2,1,0:T(8,128)}, /*index=50*/f32[32,4,128,1024]{3,2,1,0:T(8,128)}, f32[1024,4,32,128]{3,2,1,0:T(8,128)}, f32[1024,4,8,128]{3,2,1,0:T(8,128)}, f32[1024,128256]{1,0:T(8,128)}, f32[128256,1024]{1,0:T(8,128)}, /*index=55*/f32[4096]{0:T(1024)}, f32[1024,4,14336]{2,1,0:T(4,128)}, f32[1024,4,14336]{2,1,0:T(4,128)}, f32[14336,4,1024]{2,1,0:T(4,128)}, f32[4096,4]{0,1:T(4,128)}, /*index=60*/f32[4096,4]{0,1:T(4,128)}, f32[1024,4,8,128]{3,2,1,0:T(8,128)}, f32[32,4,128,1024]{3,2,1,0:T(8,128)}, f32[1024,4,32,128]{3,2,1,0:T(8,128)}, f32[1024,4,8,128]{3,2,1,0:T(8,128)}, /*index=65*/f32[1024,128256]{1,0:T(8,128)}, f32[128256,1024]{1,0:T(8,128)}, s32[]{:T(128)}, u32[]{:T(128)}, s32[1,128]{1,0:T(1,128)}, /*index=70*/s32[1,128]{1,0:T(1,128)}, s32[1,128]{1,0:T(1,128)}, s32[1,128]{1,0:T(1,128)}, s32[1,128]{1,0:T(1,128)})->(f32[4096]{0:T(1024)}, u32[]{:T(128)}, u32[4]{0:T(128)}, u32[]{:T(128)}, u32[4]{0:T(128)}, /*index=5*/u32[]{:T(128)}, u32[4]{0:T(128)}, u32[4]{0:T(128)}, u32[4,4]{1,0:T(4,128)}, u32[4]{0:T(128)}, /*index=10*/u32[4,4]{1,0:T(4,128)}, u32[4]{0:T(128)}, u32[4,4]{1,0:T(4,128)}, u32[4]{0:T(128)}, u32[4,4]{1,0:T(4,128)}, /*index=15*/u32[4]{0:T(128)}, u32[4,4]{1,0:T(4,128)}, u32[4]{0:T(128)}, u32[4,4]{1,0:T(4,128)}, f32[1024,4,14336]{2,1,0:T(4,128)}, /*index=20*/f32[1024,4,14336]{2,1,0:T(4,128)}, f32[14336,4,1024]{2,1,0:T(4,128)}, f32[4096,4]{0,1:T(4,128)}, f32[4096,4]{0,1:T(4,128)}, u32[4]{0:T(128)}, /*index=25*/u32[4,4]{1,0:T(4,128)}, u32[4]{0:T(128)}, u32[4,4]{1,0:T(4,128)}, u32[4]{0:T(128)}, u32[4,4]{1,0:T(4,128)}, /*index=30*/f32[1024,4,8,128]{3,2,1,0:T(8,128)}, f32[32,4,128,1024]{3,2,1,0:T(8,128)}, f32[1024,4,32,128]{3,2,1,0:T(8,128)}, f32[1024,4,8,128]{3,2,1,0:T(8,128)}, f32[1024,128256]{1,0:T(8,128)}, /*index=35*/u32[]{:T(128)}, u32[4]{0:T(128)}, u32[]{:T(128)}, u32[4]{0:T(128)}, u32[]{:T(128)}, /*index=40*/u32[4]{0:T(128)}, f32[128256,1024]{1,0:T(8,128)}, s32[]{:T(128)}, f32[4096]{0:T(1024)}, f32[1024,4,14336]{2,1,0:T(4,128)}, /*index=45*/f32[1024,4,14336]{2,1,0:T(4,128)}, f32[14336,4,1024]{2,1,0:T(4,128)}, f32[4096,4]{0,1:T(4,128)}, f32[4096,4]{0,1:T(4,128)}, f32[1024,4,8,128]{3,2,1,0:T(8,128)}, /*index=50*/f32[32,4,128,1024]{3,2,1,0:T(8,128)}, f32[1024,4,32,128]{3,2,1,0:T(8,128)}, f32[1024,4,8,128]{3,2,1,0:T(8,128)}, f32[1024,128256]{1,0:T(8,128)}, f32[128256,1024]{1,0:T(8,128)}, /*index=55*/f32[4096]{0:T(1024)}, f32[1024,4,14336]{2,1,0:T(4,128)}, f32[1024,4,14336]{2,1,0:T(4,128)}, f32[14336,4,1024]{2,1,0:T(4,128)}, f32[4096,4]{0,1:T(4,128)}, /*index=60*/f32[4096,4]{0,1:T(4,128)}, f32[1024,4,8,128]{3,2,1,0:T(8,128)}, f32[32,4,128,1024]{3,2,1,0:T(8,128)}, f32[1024,4,32,128]{3,2,1,0:T(8,128)}, f32[1024,4,8,128]{3,2,1,0:T(8,128)}, /*index=65*/f32[1024,128256]{1,0:T(8,128)}, f32[128256,1024]{1,0:T(8,128)}, s32[]{:T(128)}, u32[]{:T(128)}, f32[]{:T(128)}, /*index=70*/f32[]{:T(128)}, f32[]{:T(128)}, f32[]{:T(128)}, f32[]{:T(128)}, f32[]{:T(128)}, /*index=75*/f32[]{:T(128)}, f32[]{:T(128)}, f32[]{:T(128)}, s32[]{:T(128)}, f32[]{:T(128)})}, allow_spmd_sharding_propagation_to_parameters={false,false,false,false,false,false,false,false,false,false,false,false,false,false,false,false,false,false,false,false,false,false,false,false,false,false,false,false,false,false,false,false,false,false,false,false,false,false,false,false,false,false,false,false,false,false,false,false,false,false,false,false,false,false,false,false,false,false,false,false,false,false,false,false,false,false,false,false,false,false,false,false,false,false}, allow_spmd_sharding_propagation_to_output={false,false,false,false,false,false,false,false,false,false,false,false,false,false,false,false,false,false,false,false,false,false,false,false,false,false,false,false,false,false,false,false,false,false,false,false,false,false,false,false,false,false,false,false,false,false,false,false,false,false,false,false,false,false,false,false,false,false,false,false,false,false,false,false,false,false,false,false,false,true,true,true,true,true,true,true,true,true,true,true}, num_partitions=4, frontend_attributes={arg_layout_modes="default;default;default;default;default;default;default;default;default;default;default;default;default;default;default;default;default;default;default;default;default;default;default;default;default;default;default;default;default;default;default;default;default;default;default;default;default;default;default;default;default;default;default;default;default;default;default;default;default;default;default;default;default;default;default;default;default;default;default;default;default;default;default;default;default;default;default;default;default;default;default;default;default;default",arg_memory_spaces="0;0;0;0;0;0;0;0;0;0;0;0;0;0;0;0;0;0;0;0;0;0;0;0;0;0;0;0;0;0;0;0;0;0;0;0;0;0;0;0;0;0;0;0;0;0;0;0;0;0;0;0;0;0;0;0;0;0;0;0;0;0;0;0;0;0;0;0;0;0;0;0;0;0",out_layout_modes="default;default;default;default;default;default;default;default;default;default;default;default;default;default;default;default;default;default;default;default;default;default;default;default;default;default;default;default;default;default;default;default;default;default;default;default;default;default;default;default;default;default;default;default;default;default;default;default;default;default;default;default;default;default;default;default;default;default;default;default;default;default;default;default;default;default;default;default;default;default;default;default;default;default;default;default;default;default;default;default",out_memory_spaces="0;0;0;0;0;0;0;0;0;0;0;0;0;0;0;0;0;0;0;0;0;0;0;0;0;0;0;0;0;0;0;0;0;0;0;0;0;0;0;0;0;0;0;0;0;0;0;0;0;0;0;0;0;0;0;0;0;0;0;0;0;0;0;0;0;0;0;0;0;0;0;0;0;0;0;0;0;0;0;0"}

FileNames

FunctionNames

FileLocations

StackFrames


%fused_computation.408 (param_0.1124: s32[1,128]) -> s32[1,1,128] {
  %param_0.1124 = s32[1,128]{1,0:T(1,128)S(1)} parameter(0)
  %constant.370.clone.5 = s32[]{:T(128)} constant(0)
  %broadcast.608 = s32[1,128]{1,0:T(1,128)} broadcast(%constant.370.clone.5), dimensions={}, metadata={op_name="broadcast.85"}
  %lt.32 = pred[1,128]{1,0:T(4,128)(4,1)} compare(%param_0.1124, %broadcast.608), direction=LT, metadata={op_name="jit(train_step)/jvp()/lt" stack_frame_id=0}
  %constant.380.clone.1 = s32[]{:T(128)} constant(128256)
  %add.775 = s32[1,128]{1,0:T(1,128)} broadcast(%constant.380.clone.1), dimensions={}, metadata={op_name="jit(train_step)/jvp()/add" stack_frame_id=0}
  %add.764 = s32[1,128]{1,0:T(1,128)} add(%param_0.1124, %add.775), metadata={op_name="jit(train_step)/jvp()/add" stack_frame_id=0}
  %select_n.178 = s32[1,128]{1,0:T(1,128)} select(%lt.32, %add.764, %param_0.1124), metadata={op_name="jit(train_step)/jvp()/select_n" stack_frame_id=0}
  ROOT %bitcast.560 = s32[1,1,128]{2,1,0:T(1,128)S(1)} bitcast(%select_n.178)
}

%fused_computation.394 (param_0.1089: s32[512]) -> s32[1024] {
  %constant.937 = s32[] constant(0), metadata={op_name="jit(train_step)/jvp()/gather" stack_frame_id=0}
  %broadcast.589 = s32[1024]{0:T(1024)} broadcast(%constant.937), dimensions={}, metadata={op_name="jit(train_step)/jvp()/gather" stack_frame_id=0}
  %param_0.1089 = s32[512]{0:T(512)S(1)} parameter(0)
  %constant.938 = s32[] constant(2147483647), metadata={op_name="jit(train_step)/jvp()/gather" stack_frame_id=0}
  %pad.41 = s32[1024]{0:T(1024)} pad(%param_0.1089, %constant.938), padding=0_512, metadata={op_name="jit(train_step)/jvp()/gather" stack_frame_id=0}
  %constant.936 = s32[] constant(128255), metadata={op_name="jit(train_step)/jvp()/gather" stack_frame_id=0}
  %broadcast.588 = s32[1024]{0:T(1024)} broadcast(%constant.936), dimensions={}, metadata={op_name="jit(train_step)/jvp()/gather" stack_frame_id=0}
  ROOT %clamp.3 = s32[1024]{0:T(1024)S(1)} clamp(%broadcast.589, %pad.41, %broadcast.588), metadata={op_name="jit(train_step)/jvp()/gather" stack_frame_id=0}
}

%fused_computation (param_0.2: bf16[128256,1024], param_1.7: s32[1024]) -> bf16[512,1024] {
  %param_0.2 = bf16[128256,1024]{1,0:T(8,128)(2,1)} parameter(0)
  %param_1.7 = s32[1024]{0:T(1024)S(1)} parameter(1)
  %custom-call.1 = s32[1024]{0:T(1024)} custom-call(%param_1.7), custom_call_target="AssumeGatherIndicesInBound", operand_layout_constraints={s32[1024]{0:T(1024)}}, metadata={op_name="jit(train_step)/jvp()/gather" stack_frame_id=0}
  %slice.34 = s32[512]{0:T(512)} slice(%custom-call.1), slice={[0:512]}, metadata={op_name="jit(train_step)/jvp()/gather" stack_frame_id=0}
  %reshape.699 = s32[4,128]{1,0:T(4,128)} reshape(%slice.34), metadata={op_name="jit(train_step)/jvp()/gather" stack_frame_id=0}
  %transpose.245 = s32[4,128]{1,0:T(4,128)} transpose(%reshape.699), dimensions={0,1}, metadata={op_name="jit(train_step)/jvp()/gather" stack_frame_id=0}
  %gather.4 = bf16[4,128,1024]{2,1,0:T(8,128)(2,1)} gather(%param_0.2, %transpose.245), offset_dims={2}, collapsed_slice_dims={0}, start_index_map={0}, index_vector_dim=2, slice_sizes={1,1024}, metadata={op_name="jit(train_step)/jvp()/gather" stack_frame_id=0}
  %transpose.244 = bf16[4,128,1024]{2,1,0:T(8,128)(2,1)} transpose(%gather.4), dimensions={0,1,2}, metadata={op_name="jit(train_step)/jvp()/gather" stack_frame_id=0}
  ROOT %reshape.698 = bf16[512,1024]{1,0:T(8,128)(2,1)S(1)} reshape(%transpose.244), metadata={op_name="jit(train_step)/jvp()/gather" stack_frame_id=0}
}

%fused_computation.421 (param_0.1259: f32[4096,4]) -> bf16[4,4096] {
  %param_0.1259 = f32[4096,4]{0,1:T(4,128)S(1)} parameter(0)
  %bitcast.655 = f32[4,4096]{1,0:T(4,128)} bitcast(%param_0.1259), metadata={op_name="jit(train_step)/jvp()/transpose" stack_frame_id=0}
  ROOT %convert.73 = bf16[4,4096]{1,0:T(4,128)(2,1)} convert(%bitcast.655)
}

%fused_computation.416 (param_0.1140: s32[1,128]) -> (f32[1,128,1,1], f32[128]) {
  %param_0.1140 = s32[1,128]{1,0:T(1,128)S(1)} parameter(0)
  %convert_element_type.959 = f32[1,128]{1,0:T(1,128)} convert(%param_0.1140), metadata={op_name="jit(train_step)/convert_element_type" stack_frame_id=0}
  %bitcast.570 = f32[1,128,1,1]{1,3,2,0:T(1,128)} bitcast(%convert_element_type.959), metadata={op_name="jit(train_step)/transpose(jvp())/while/body/closed_call/checkpoint/rematted_computation/convert_element_type" stack_frame_id=0}
  %bitcast.571.clone.1 = f32[128]{0:T(128)S(1)} bitcast(%convert_element_type.959), metadata={op_name="jit(train_step)/convert_element_type" stack_frame_id=0}
  ROOT %tuple.151 = (f32[1,128,1,1]{1,3,2,0:T(1,128)}, f32[128]{0:T(128)S(1)}) tuple(%bitcast.570, %bitcast.571.clone.1)
}

%fused_computation.415 () -> f32[64] {
  %constant.385.clone.1 = f32[]{:T(128)} constant(500000)
  %broadcast.603 = f32[64]{0:T(128)} broadcast(%constant.385.clone.1), dimensions={}, metadata={op_name="broadcast.255"}
  %iota.56 = s32[64]{0:T(128)} iota(), iota_dimension=0, metadata={op_name="jit(train_step)/iota" stack_frame_id=0}
  %constant.386.clone.1 = s32[]{:T(128)} constant(2)
  %broadcast.602 = s32[64]{0:T(128)} broadcast(%constant.386.clone.1), dimensions={}, metadata={op_name="broadcast.256"}
  %mul.1825 = s32[64]{0:T(128)} multiply(%iota.56, %broadcast.602), metadata={op_name="jit(train_step)/mul" stack_frame_id=0}
  %convert_element_type.958 = f32[64]{0:T(128)} convert(%mul.1825), metadata={op_name="jit(train_step)/convert_element_type" stack_frame_id=0}
  %constant.387.clone.1 = f32[]{:T(128)} constant(0.0078125)
  %broadcast.601 = f32[64]{0:T(128)} broadcast(%constant.387.clone.1), dimensions={}, metadata={op_name="broadcast.257"}
  %div.661 = f32[64]{0:T(128)} multiply(%convert_element_type.958, %broadcast.601), metadata={op_name="jit(train_step)/div" stack_frame_id=0}
  ROOT %pow.36 = f32[64]{0:T(128)S(1)} power(%broadcast.603, %div.661), metadata={op_name="jit(train_step)/pow" stack_frame_id=0}
}

%fused_computation.369 (param_0.1064: f32[128], param_1.1127: f32[64]) -> (bf16[1,128,1,64], bf16[1,128,1,64]) {
  %param_0.1064 = f32[128]{0:T(128)S(1)} parameter(0)
  %div.631 = f32[1,128,1,64]{3,1,2,0:T(8,128)} broadcast(%param_0.1064), dimensions={1}, metadata={op_name="jit(train_step)/div" stack_frame_id=0}
  %param_1.1127 = f32[64]{0:T(128)S(1)} parameter(1)
  %div.639 = f32[1,128,1,64]{3,1,2,0:T(8,128)} broadcast(%param_1.1127), dimensions={3}, metadata={op_name="jit(train_step)/div" stack_frame_id=0}
  %div.626 = f32[1,128,1,64]{3,1,2,0:T(8,128)} divide(%div.631, %div.639), metadata={op_name="jit(train_step)/div" stack_frame_id=0}
  %sin.38 = f32[1,128,1,64]{3,1,2,0:T(8,128)} sine(%div.626), metadata={op_name="jit(train_step)/sin" stack_frame_id=0}
  %convert_element_type.944 = bf16[1,128,1,64]{3,1,2,0:T(8,128)(2,1)S(1)} convert(%sin.38), metadata={op_name="jit(train_step)/convert_element_type" stack_frame_id=0}
  %cos.41.clone.1 = f32[1,128,1,64]{3,1,2,0:T(8,128)} cosine(%div.626), metadata={op_name="jit(train_step)/cos" stack_frame_id=0}
  %convert_element_type.943.clone.1 = bf16[1,128,1,64]{3,1,2,0:T(8,128)(2,1)S(1)} convert(%cos.41.clone.1), metadata={op_name="jit(train_step)/convert_element_type" stack_frame_id=0}
  ROOT %tuple.148 = (bf16[1,128,1,64]{3,1,2,0:T(8,128)(2,1)S(1)}, bf16[1,128,1,64]{3,1,2,0:T(8,128)(2,1)S(1)}) tuple(%convert_element_type.944, %convert_element_type.943.clone.1)
}

%fused_computation.384 (param_0.1059: bf16[1,128,1,64]) -> bf16[1,128,1,128] {
  %param_0.1059 = bf16[1,128,1,64]{3,1,2,0:T(8,128)(2,1)S(1)} parameter(0)
  %constant.392.clone.2 = bf16[]{:T(256)} constant(-inf)
  %pad.38 = bf16[1,128,1,128]{3,1,2,0:T(8,128)(2,1)} pad(%param_0.1059, %constant.392.clone.2), padding=0_0x0_0x0_0x0_64, metadata={op_name="jit(train_step)/concatenate" stack_frame_id=0}
  %convert.96 = f32[1,128,1,128]{3,1,2,0:T(8,128)} convert(%pad.38)
  %pad.37 = bf16[1,128,1,128]{3,1,2,0:T(8,128)(2,1)} pad(%param_0.1059, %constant.392.clone.2), padding=0_0x0_0x0_0x64_0, metadata={op_name="jit(train_step)/concatenate" stack_frame_id=0}
  %convert.97 = f32[1,128,1,128]{3,1,2,0:T(8,128)} convert(%pad.37)
  %maximum.38 = f32[1,128,1,128]{3,1,2,0:T(8,128)} maximum(%convert.96, %convert.97), metadata={op_name="jit(train_step)/concatenate" stack_frame_id=0}, backend_config={"flag_configs":[],"scoped_memory_configs":[],"used_scoped_memory_configs":[],"float_type_correction_info":{"original_type":"BF16","original_shape":{"element_type":"BF16","dimensions":["1","128","1","128"],"tuple_shapes":[],"layout":{"minor_to_major":["3","1","2","0"],"tiles":[{"dimensions":["8","128"]},{"dimensions":["2","1"]}],"element_size_in_bits":"0","memory_space":"0","dim_level_types":[],"index_primitive_type":"PRIMITIVE_TYPE_INVALID","pointer_primitive_type":"PRIMITIVE_TYPE_INVALID","dim_unique":[],"dim_ordered":[],"dynamic_shape_metadata_prefix_bytes":"0","tail_padding_alignment_in_elements":"1","split_configs":[]},"is_dynamic_dimension":[false,false,false,false]}}}
  ROOT %convert.98 = bf16[1,128,1,128]{3,1,2,0:T(8,128)(2,1)} convert(%maximum.38)
}

%fused_computation.385 (param_0.1061: bf16[1,128,1,64]) -> bf16[1,128,1,128] {
  %param_0.1061 = bf16[1,128,1,64]{3,1,2,0:T(8,128)(2,1)S(1)} parameter(0)
  %constant.392.clone.1 = bf16[]{:T(256)} constant(-inf)
  %pad.40 = bf16[1,128,1,128]{3,1,2,0:T(8,128)(2,1)} pad(%param_0.1061, %constant.392.clone.1), padding=0_0x0_0x0_0x0_64, metadata={op_name="jit(train_step)/concatenate" stack_frame_id=0}
  %convert.99 = f32[1,128,1,128]{3,1,2,0:T(8,128)} convert(%pad.40)
  %pad.39 = bf16[1,128,1,128]{3,1,2,0:T(8,128)(2,1)} pad(%param_0.1061, %constant.392.clone.1), padding=0_0x0_0x0_0x64_0, metadata={op_name="jit(train_step)/concatenate" stack_frame_id=0}
  %convert.100 = f32[1,128,1,128]{3,1,2,0:T(8,128)} convert(%pad.39)
  %maximum.39 = f32[1,128,1,128]{3,1,2,0:T(8,128)} maximum(%convert.99, %convert.100), metadata={op_name="jit(train_step)/concatenate" stack_frame_id=0}, backend_config={"flag_configs":[],"scoped_memory_configs":[],"used_scoped_memory_configs":[],"float_type_correction_info":{"original_type":"BF16","original_shape":{"element_type":"BF16","dimensions":["1","128","1","128"],"tuple_shapes":[],"layout":{"minor_to_major":["3","1","2","0"],"tiles":[{"dimensions":["8","128"]},{"dimensions":["2","1"]}],"element_size_in_bits":"0","memory_space":"0","dim_level_types":[],"index_primitive_type":"PRIMITIVE_TYPE_INVALID","pointer_primitive_type":"PRIMITIVE_TYPE_INVALID","dim_unique":[],"dim_ordered":[],"dynamic_shape_metadata_prefix_bytes":"0","tail_padding_alignment_in_elements":"1","split_configs":[]},"is_dynamic_dimension":[false,false,false,false]}}}
  ROOT %convert.101 = bf16[1,128,1,128]{3,1,2,0:T(8,128)(2,1)} convert(%maximum.39)
}

%fused_computation.333 (param_0.929: f32[1024,4,8,128]) -> bf16[4,1024,8,128] {
  %param_0.929 = f32[1024,4,8,128]{3,2,1,0:T(8,128)S(1)} parameter(0)
  %copy.239 = bf16[1024,4,8,128]{3,0,2,1:T(8,128)(2,1)} copy(%param_0.929), sharding={devices=[4,1,1,1]<=[4]}, metadata={op_name="state[\'model\'][\'decoder\'][\'layers\'][\'self_attention\'][\'value\'][\'kernel\'].value"}
  ROOT %bitcast.532 = bf16[4,1024,8,128]{3,1,2,0:T(8,128)(2,1)} bitcast(%copy.239), metadata={op_name="jit(train_step)/jvp()/transpose" stack_frame_id=0}
}

%fused_computation.303 (param_0.851: f32[32,4,128,1024]) -> bf16[4,32,128,1024] {
  %param_0.851 = f32[32,4,128,1024]{3,2,1,0:T(8,128)} parameter(0)
  %copy.238 = bf16[32,4,128,1024]{3,2,0,1:T(8,128)(2,1)} copy(%param_0.851), sharding={devices=[1,1,1,4]<=[4]}, metadata={op_name="state[\'model\'][\'decoder\'][\'layers\'][\'self_attention\'][\'out\'][\'kernel\'].value"}
  ROOT %bitcast.487 = bf16[4,32,128,1024]{3,2,1,0:T(8,128)(2,1)} bitcast(%copy.238), metadata={op_name="jit(train_step)/jvp()/transpose" stack_frame_id=0}
}

%fused_computation.420 (param_0.1258: f32[4096,4]) -> bf16[4,4096] {
  %param_0.1258 = f32[4096,4]{0,1:T(4,128)S(1)} parameter(0)
  %bitcast.654 = f32[4,4096]{1,0:T(4,128)} bitcast(%param_0.1258), metadata={op_name="jit(train_step)/jvp()/transpose" stack_frame_id=0}
  ROOT %convert.71 = bf16[4,4096]{1,0:T(4,128)(2,1)} convert(%bitcast.654)
}

%fused_computation.281 (param_0.807: f32[1024,4,14336]) -> bf16[4,1024,14336] {
  %param_0.807 = f32[1024,4,14336]{2,1,0:T(4,128)} parameter(0)
  %copy.237 = bf16[1024,4,14336]{2,0,1:T(8,128)(2,1)} copy(%param_0.807), sharding={devices=[4,1,1]<=[4]}, metadata={op_name="state[\'model\'][\'decoder\'][\'layers\'][\'mlp\'][\'wi_0\'][\'kernel\'].value"}
  ROOT %bitcast.478 = bf16[4,1024,14336]{2,1,0:T(8,128)(2,1)} bitcast(%copy.237), metadata={op_name="jit(train_step)/jvp()/transpose" stack_frame_id=0}
}

%fused_computation.280 (param_0.805: f32[1024,4,14336]) -> bf16[4,1024,14336] {
  %param_0.805 = f32[1024,4,14336]{2,1,0:T(4,128)} parameter(0)
  %copy.236 = bf16[1024,4,14336]{2,0,1:T(8,128)(2,1)} copy(%param_0.805), sharding={devices=[4,1,1]<=[4]}, metadata={op_name="state[\'model\'][\'decoder\'][\'layers\'][\'mlp\'][\'wi_1\'][\'kernel\'].value"}
  ROOT %bitcast.477 = bf16[4,1024,14336]{2,1,0:T(8,128)(2,1)} bitcast(%copy.236), metadata={op_name="jit(train_step)/jvp()/transpose" stack_frame_id=0}
}

%fused_computation.279 (param_0.803: f32[14336,4,1024]) -> bf16[4,14336,1024] {
  %param_0.803 = f32[14336,4,1024]{2,1,0:T(4,128)} parameter(0)
  %copy.235 = bf16[14336,4,1024]{2,0,1:T(8,128)(2,1)} copy(%param_0.803), sharding={devices=[1,1,4]<=[4]}, metadata={op_name="state[\'model\'][\'decoder\'][\'layers\'][\'mlp\'][\'wo\'][\'kernel\'].value"}
  ROOT %bitcast.476 = bf16[4,14336,1024]{2,1,0:T(8,128)(2,1)} bitcast(%copy.235), metadata={op_name="jit(train_step)/jvp()/transpose" stack_frame_id=0}
}

%fused_computation.54.clone.1 (param_0.1514: bf16[4,1,128,4096], param_1.1559: s32[], param_2.1197: bf16[1,128,4096]) -> bf16[4,1,128,4096] {
  %param_0.1514 = bf16[4,1,128,4096]{3,2,1,0:T(8,128)(2,1)} parameter(0)
  %param_2.1197 = bf16[1,128,4096]{2,1,0:T(8,128)(2,1)S(1)} parameter(2)
  %bitcast.881 = bf16[1,1,128,4096]{3,2,1,0:T(8,128)(2,1)} bitcast(%param_2.1197), metadata={op_name="jit(train_step)/jvp()/while/body/jit(dynamic_update_index_in_dim)/broadcast_in_dim" stack_frame_id=0}
  %param_1.1559 = s32[]{:T(128)S(6)} parameter(1)
  %constant.348.clone.24 = s32[]{:T(128)} constant(0)
  ROOT %dynamic-update-slice.30 = bf16[4,1,128,4096]{3,2,1,0:T(8,128)(2,1)} dynamic-update-slice(%param_0.1514, %bitcast.881, %param_1.1559, %constant.348.clone.24, %constant.348.clone.24, /*index=5*/%constant.348.clone.24), metadata={op_name="jit(train_step)/jvp()/while/body/jit(dynamic_update_index_in_dim)/dynamic_update_slice" stack_frame_id=0}, backend_config={"flag_configs":[],"scoped_memory_configs":[],"indices_config":{"index_known_bits":[{"zeroes":"4294967292","ones":"0","bitwidth":"32"},{"zeroes":"4294967295","ones":"0","bitwidth":"32"},{"zeroes":"4294967295","ones":"0","bitwidth":"32"},{"zeroes":"4294967295","ones":"0","bitwidth":"32"}],"is_index_aligned":[]},"used_scoped_memory_configs":[]}
}

%fused_computation.18.clone.1 (param_0.1534: bf16[4,32,128,1024], param_1.1572: s32[]) -> bf16[1,32,128,1024] {
  %param_0.1534 = bf16[4,32,128,1024]{3,2,1,0:T(8,128)(2,1)} parameter(0)
  %param_1.1572 = s32[]{:T(128)S(6)} parameter(1)
  %constant.348.clone.29 = s32[]{:T(128)} constant(0)
  ROOT %dynamic-slice.193 = bf16[1,32,128,1024]{3,2,1,0:T(8,128)(2,1)S(1)} dynamic-slice(%param_0.1534, %param_1.1572, %constant.348.clone.29, %constant.348.clone.29, %constant.348.clone.29), dynamic_slice_sizes={1,32,128,1024}, metadata={op_name="jit(train_step)/jvp()/while/body/jit(dynamic_index_in_dim)/dynamic_slice" stack_frame_id=0}, backend_config={"flag_configs":[],"scoped_memory_configs":[],"indices_config":{"index_known_bits":[{"zeroes":"4294967292","ones":"0","bitwidth":"32"},{"zeroes":"4294967295","ones":"0","bitwidth":"32"},{"zeroes":"4294967295","ones":"0","bitwidth":"32"},{"zeroes":"4294967295","ones":"0","bitwidth":"32"}],"is_index_aligned":[]},"used_scoped_memory_configs":[]}
}

%fused_computation.19.clone.1 (param_0.1528: bf16[4,1024,32,128], param_1.1568: s32[]) -> bf16[1,1024,32,128] {
  %param_0.1528 = bf16[4,1024,32,128]{1,3,2,0:T(8,128)(2,1)} parameter(0)
  %param_1.1568 = s32[]{:T(128)S(6)} parameter(1)
  %constant.348.clone.28 = s32[]{:T(128)} constant(0)
  ROOT %dynamic-slice.192 = bf16[1,1024,32,128]{1,3,2,0:T(8,128)(2,1)S(1)} dynamic-slice(%param_0.1528, %param_1.1568, %constant.348.clone.28, %constant.348.clone.28, %constant.348.clone.28), dynamic_slice_sizes={1,1024,32,128}, metadata={op_name="jit(train_step)/jvp()/while/body/jit(dynamic_index_in_dim)/dynamic_slice" stack_frame_id=0}, backend_config={"flag_configs":[],"scoped_memory_configs":[],"indices_config":{"index_known_bits":[{"zeroes":"4294967292","ones":"0","bitwidth":"32"},{"zeroes":"4294967295","ones":"0","bitwidth":"32"},{"zeroes":"4294967295","ones":"0","bitwidth":"32"},{"zeroes":"4294967295","ones":"0","bitwidth":"32"}],"is_index_aligned":[]},"used_scoped_memory_configs":[]}
}

%region_1.2 (reduce_sum.100: f32[], reduce_sum.101: f32[]) -> f32[] {
  %reduce_sum.100 = f32[]{:T(128)} parameter(0), metadata={op_name="jit(train_step)/jvp()/while/body/closed_call/reduce_sum"}
  %reduce_sum.101 = f32[]{:T(128)} parameter(1), metadata={op_name="jit(train_step)/jvp()/while/body/closed_call/reduce_sum"}
  ROOT %reduce_sum.102 = f32[]{:T(128)} add(%reduce_sum.100, %reduce_sum.101), metadata={op_name="reduce_sum" stack_frame_id=0}, backend_config={"flag_configs":[],"scoped_memory_configs":[],"used_scoped_memory_configs":[],"aliasing_operands":{"lists":[]}}
}

%fused_computation.40.clone.1 (param_0.1516: bf16[1,128,4096]) -> f32[128] {
  %param_0.1516 = bf16[1,128,4096]{2,1,0:T(8,128)(2,1)S(1)} parameter(0)
  %convert_element_type.1067 = f32[1,128,4096]{2,1,0:T(8,128)} convert(%param_0.1516), metadata={op_name="jit(train_step)/jvp()/while/body/closed_call/convert_element_type" stack_frame_id=0}
  %square.217 = f32[1,128,4096]{2,1,0:T(8,128)} multiply(%convert_element_type.1067, %convert_element_type.1067), metadata={op_name="jit(train_step)/jvp()/while/body/closed_call/square" stack_frame_id=0}
  %constant.345.clone.9 = f32[]{:T(128)} constant(0)
  ROOT %reduce.157 = f32[128]{0:T(128)S(1)} reduce(%square.217, %constant.345.clone.9), dimensions={0,2}, to_apply=%region_1.2, metadata={op_name="jit(train_step)/jvp()/while/body/closed_call/reduce_sum" stack_frame_id=0}
}

%fused_computation.69.clone.1 (param_0.1517: f32[128]) -> f32[128] {
  %param_0.1517 = f32[128]{0:T(128)S(1)} parameter(0)
  %constant.346.clone.9 = f32[]{:T(128)} constant(0.000244140625)
  %broadcast.686 = f32[128]{0:T(128)} broadcast(%constant.346.clone.9), dimensions={}, metadata={op_name="jit(train_step)/jvp()/while/body/closed_call" stack_frame_id=0}
  %div.867 = f32[128]{0:T(128)} multiply(%param_0.1517, %broadcast.686), metadata={op_name="jit(train_step)/jvp()/while/body/closed_call/div" stack_frame_id=0}
  %constant.347.clone.9 = f32[]{:T(128)} constant(1e-05)
  %broadcast.685 = f32[128]{0:T(128)} broadcast(%constant.347.clone.9), dimensions={}, metadata={op_name="jit(train_step)/jvp()/while/body/closed_call" stack_frame_id=0}
  %add.881 = f32[128]{0:T(128)} add(%div.867, %broadcast.685), metadata={op_name="jit(train_step)/jvp()/while/body/closed_call/add" stack_frame_id=0}
  ROOT %rsqrt.118 = f32[128]{0:T(128)S(1)} rsqrt(%add.881), metadata={op_name="jit(train_step)/jvp()/while/body/closed_call/rsqrt" stack_frame_id=0}
}

%convert_element_type.664.reduce_sub_computation (lhs.3: bf16[], rhs.3: bf16[]) -> bf16[] {
  %lhs.3 = bf16[] parameter(0)
  %rhs.3 = bf16[] parameter(1)
  ROOT %add.645 = bf16[] add(%lhs.3, %rhs.3), backend_config={"flag_configs":[],"scoped_memory_configs":[],"used_scoped_memory_configs":[],"aliasing_operands":{"lists":[]}}
}

%convert_element_type.656.reduce_sub_computation (lhs.2: bf16[], rhs.2: bf16[]) -> bf16[] {
  %lhs.2 = bf16[] parameter(0)
  %rhs.2 = bf16[] parameter(1)
  ROOT %add.644 = bf16[] add(%lhs.2, %rhs.2), backend_config={"flag_configs":[],"scoped_memory_configs":[],"used_scoped_memory_configs":[],"aliasing_operands":{"lists":[]}}
}

%fused_computation.66.clone.1 (param_0.1515: bf16[4,4096], param_1.1560: s32[], param_2.1198: bf16[4,4096]) -> (bf16[4096], bf16[4096]) {
  %param_0.1515 = bf16[4,4096]{1,0:T(4,128)(2,1)} parameter(0)
  %param_1.1560 = s32[]{:T(128)S(6)} parameter(1)
  %constant.348.clone.25 = s32[]{:T(128)} constant(0)
  %dynamic_slice.291 = bf16[1,4096]{1,0:T(2,128)(2,1)} dynamic-slice(%param_0.1515, %param_1.1560, %constant.348.clone.25), dynamic_slice_sizes={1,4096}, metadata={op_name="jit(train_step)/jvp()/while/body/jit(dynamic_index_in_dim)/dynamic_slice" stack_frame_id=0}, backend_config={"flag_configs":[],"scoped_memory_configs":[],"indices_config":{"index_known_bits":[{"zeroes":"4294967292","ones":"0","bitwidth":"32"},{"zeroes":"4294967295","ones":"0","bitwidth":"32"}],"is_index_aligned":[]},"used_scoped_memory_configs":[]}
  %constant.1008 = bf16[]{:T(256)} constant(-0), metadata={op_name="jit(train_step)/jvp()/while/body/closed_call/convert_element_type" stack_frame_id=0}
  %reduce.156 = bf16[4096]{0:T(1024)(128)(2,1)} reduce(%dynamic_slice.291, %constant.1008), dimensions={0}, to_apply=%convert_element_type.664.reduce_sub_computation, metadata={op_name="jit(train_step)/jvp()/while/body/closed_call/convert_element_type" stack_frame_id=0}
  %param_2.1198 = bf16[4,4096]{1,0:T(4,128)(2,1)} parameter(2)
  %dynamic_slice.283.clone.3 = bf16[1,4096]{1,0:T(2,128)(2,1)} dynamic-slice(%param_2.1198, %param_1.1560, %constant.348.clone.25), dynamic_slice_sizes={1,4096}, metadata={op_name="jit(train_step)/jvp()/while/body/jit(dynamic_index_in_dim)/dynamic_slice" stack_frame_id=0}, backend_config={"flag_configs":[],"scoped_memory_configs":[],"indices_config":{"index_known_bits":[{"zeroes":"4294967292","ones":"0","bitwidth":"32"},{"zeroes":"4294967295","ones":"0","bitwidth":"32"}],"is_index_aligned":[]},"used_scoped_memory_configs":[]}
  %reduce.83.clone.3 = bf16[4096]{0:T(1024)(128)(2,1)S(1)} reduce(%dynamic_slice.283.clone.3, %constant.1008), dimensions={0}, to_apply=%convert_element_type.656.reduce_sub_computation, metadata={op_name="jit(train_step)/jvp()/while/body/closed_call/convert_element_type" stack_frame_id=0}
  ROOT %tuple.199 = (bf16[4096]{0:T(1024)(128)(2,1)}, bf16[4096]{0:T(1024)(128)(2,1)S(1)}) tuple(%reduce.156, %reduce.83.clone.3)
}

%fused_computation.48.clone.2.clone.1 (param_0.1530: bf16[1,128,4096], param_1.1569: f32[128], param_2.1204: bf16[4096]) -> bf16[128,4096,1] {
  %param_0.1530 = bf16[1,128,4096]{2,1,0:T(8,128)(2,1)S(1)} parameter(0)
  %convert_element_type.1073 = f32[1,128,4096]{2,1,0:T(8,128)} convert(%param_0.1530), metadata={op_name="jit(train_step)/jvp()/while/body/closed_call/convert_element_type" stack_frame_id=0}
  %param_1.1569 = f32[128]{0:T(128)S(1)} parameter(1)
  %mul.2194 = f32[1,128,4096]{2,1,0:T(8,128)} broadcast(%param_1.1569), dimensions={1}, metadata={op_name="jit(train_step)/jvp()/while/body/closed_call/mul" stack_frame_id=0}
  %mul.2193 = f32[1,128,4096]{2,1,0:T(8,128)} multiply(%convert_element_type.1073, %mul.2194), metadata={op_name="jit(train_step)/jvp()/while/body/closed_call/mul" stack_frame_id=0}
  %convert_element_type.1072 = bf16[1,128,4096]{2,1,0:T(8,128)(2,1)} convert(%mul.2193), metadata={op_name="jit(train_step)/jvp()/while/body/closed_call/convert_element_type" stack_frame_id=0}
  %convert.240 = f32[1,128,4096]{2,1,0:T(8,128)} convert(%convert_element_type.1072)
  %param_2.1204 = bf16[4096]{0:T(1024)(128)(2,1)S(1)} parameter(2)
  %mul.2195 = bf16[1,128,4096]{2,1,0:T(8,128)(2,1)} broadcast(%param_2.1204), dimensions={2}, metadata={op_name="jit(train_step)/jvp()/while/body/closed_call/mul" stack_frame_id=0}
  %convert.241 = f32[1,128,4096]{2,1,0:T(8,128)} convert(%mul.2195)
  %mul.2192 = f32[1,128,4096]{2,1,0:T(8,128)} multiply(%convert.240, %convert.241), metadata={op_name="jit(train_step)/jvp()/while/body/closed_call/mul" stack_frame_id=0}, backend_config={"flag_configs":[],"scoped_memory_configs":[],"used_scoped_memory_configs":[],"float_type_correction_info":{"original_type":"BF16","original_shape":{"element_type":"BF16","dimensions":["1","128","4096"],"tuple_shapes":[],"layout":{"minor_to_major":["2","1","0"],"tiles":[{"dimensions":["8","128"]},{"dimensions":["2","1"]}],"element_size_in_bits":"0","memory_space":"0","dim_level_types":[],"index_primitive_type":"PRIMITIVE_TYPE_INVALID","pointer_primitive_type":"PRIMITIVE_TYPE_INVALID","dim_unique":[],"dim_ordered":[],"dynamic_shape_metadata_prefix_bytes":"0","tail_padding_alignment_in_elements":"1","split_configs":[]},"is_dynamic_dimension":[false,false,false]}}}
  %convert.242 = bf16[1,128,4096]{2,1,0:T(8,128)(2,1)} convert(%mul.2192)
  ROOT %bitcast.890 = bf16[128,4096,1]{1,0,2:T(8,128)(2,1)} bitcast(%convert.242)
}

%fused_computation.17.clone.clone.clone.1 (param_0.1529: bf16[1,4096,32,128]) -> bf16[4096,32,128] {
  %param_0.1529 = bf16[1,4096,32,128]{1,3,2,0:T(8,128)(2,1)S(1)} parameter(0)
  ROOT %bitcast.889 = bf16[4096,32,128]{0,2,1:T(8,128)(2,1)} bitcast(%param_0.1529), metadata={op_name="jit(train_step)/jvp()/while/body/closed_call/dot_general" stack_frame_id=0}
}

%fused_computation.57.clone.1 (param_0.1531: bf16[1,4096,32,128], param_1.1570: bf16[1,128,4096], param_2.1205: f32[128], param_3.812: bf16[4096]) -> bf16[1,128,32,128] {
  %param_1.1570 = bf16[1,128,4096]{2,1,0:T(8,128)(2,1)S(1)} parameter(1)
  %param_2.1205 = f32[128]{0:T(128)S(1)} parameter(2)
  %param_3.812 = bf16[4096]{0:T(1024)(128)(2,1)S(1)} parameter(3)
  %fusion.493 = bf16[128,4096,1]{1,0,2:T(8,128)(2,1)} fusion(%param_1.1570, %param_2.1205, %param_3.812), kind=kLoop, calls=%fused_computation.48.clone.2.clone.1
  %param_0.1531 = bf16[1,4096,32,128]{1,3,2,0:T(8,128)(2,1)S(1)} parameter(0)
  %fusion.492 = bf16[4096,32,128]{0,2,1:T(8,128)(2,1)} fusion(%param_0.1531), kind=kLoop, calls=%fused_computation.17.clone.clone.clone.1, metadata={op_name="jit(train_step)/jvp()/while/body/closed_call/dot_general" stack_frame_id=0}
  %convolution.160 = bf16[128,32,128]{2,0,1:T(8,128)(2,1)} convolution(%fusion.493, %fusion.492), window={size=32 pad=31_31 rhs_reversal=1}, dim_labels=bf0_i0o->b0f, metadata={op_name="jit(train_step)/jvp()/while/body/closed_call/dot_general" stack_frame_id=0}
  ROOT %bitcast.891 = bf16[1,128,32,128]{3,1,2,0:T(8,128)(2,1)S(1)} bitcast(%convolution.160), metadata={op_name="jit(train_step)/jvp()/while/body/closed_call/dot_general" stack_frame_id=0}
}

%fused_computation.49.clone.1 (param_0.1532: bf16[1,128,32,128]) -> (bf16[1,128,32,64], bf16[1,128,32,64]) {
  %param_0.1532 = bf16[1,128,32,128]{3,1,2,0:T(8,128)(2,1)S(1)} parameter(0)
  %slice.82 = bf16[1,128,32,64]{3,1,2,0:T(8,128)(2,1)} slice(%param_0.1532), slice={[0:1], [0:128], [0:32], [64:128]}, metadata={op_name="jit(train_step)/jvp()/while/body/closed_call/split" stack_frame_id=0}
  %convert.253 = f32[1,128,32,64]{3,1,2,0:T(8,128)} convert(%slice.82)
  %neg.139 = f32[1,128,32,64]{3,1,2,0:T(8,128)} negate(%convert.253), metadata={op_name="jit(train_step)/jvp()/while/body/closed_call/neg" stack_frame_id=0}, backend_config={"flag_configs":[],"scoped_memory_configs":[],"used_scoped_memory_configs":[],"float_type_correction_info":{"original_type":"BF16","original_shape":{"element_type":"BF16","dimensions":["1","128","32","64"],"tuple_shapes":[],"layout":{"minor_to_major":["3","1","2","0"],"tiles":[{"dimensions":["8","128"]},{"dimensions":["2","1"]}],"element_size_in_bits":"0","memory_space":"0","dim_level_types":[],"index_primitive_type":"PRIMITIVE_TYPE_INVALID","pointer_primitive_type":"PRIMITIVE_TYPE_INVALID","dim_unique":[],"dim_ordered":[],"dynamic_shape_metadata_prefix_bytes":"0","tail_padding_alignment_in_elements":"1","split_configs":[]},"is_dynamic_dimension":[false,false,false,false]}}}
  %convert.254 = bf16[1,128,32,64]{3,1,2,0:T(8,128)(2,1)S(1)} convert(%neg.139)
  %slice.83 = bf16[1,128,32,64]{3,1,2,0:T(8,128)(2,1)S(1)} slice(%param_0.1532), slice={[0:1], [0:128], [0:32], [0:64]}, metadata={op_name="jit(train_step)/jvp()/while/body/closed_call/split" stack_frame_id=0}
  ROOT %tuple.201 = (bf16[1,128,32,64]{3,1,2,0:T(8,128)(2,1)S(1)}, bf16[1,128,32,64]{3,1,2,0:T(8,128)(2,1)S(1)}) tuple(%convert.254, %slice.83)
}

%fused_computation.52.clone.1 (param_0.1533: bf16[1,128,32,64], param_1.1571: bf16[1,128,32,64], param_2.1206: bf16[1,128,32,128], param_3.813: bf16[128,128], param_4.500: bf16[128,128]) -> bf16[32,128,128] {
  %param_2.1206 = bf16[1,128,32,128]{3,1,2,0:T(8,128)(2,1)S(1)} parameter(2)
  %convert.255 = f32[1,128,32,128]{3,1,2,0:T(8,128)} convert(%param_2.1206)
  %param_4.500 = bf16[128,128]{1,0:T(8,128)(2,1)S(1)} parameter(4)
  %mul.2199 = bf16[1,128,32,128]{3,1,2,0:T(8,128)(2,1)} broadcast(%param_4.500), dimensions={1,3}, metadata={op_name="jit(train_step)/jvp()/while/body/closed_call/mul" stack_frame_id=0}
  %convert.256 = f32[1,128,32,128]{3,1,2,0:T(8,128)} convert(%mul.2199)
  %mul.2197 = f32[1,128,32,128]{3,1,2,0:T(8,128)} multiply(%convert.255, %convert.256), metadata={op_name="jit(train_step)/jvp()/while/body/closed_call/mul" stack_frame_id=0}, backend_config={"flag_configs":[],"scoped_memory_configs":[],"used_scoped_memory_configs":[],"float_type_correction_info":{"original_type":"BF16","original_shape":{"element_type":"BF16","dimensions":["1","128","32","128"],"tuple_shapes":[],"layout":{"minor_to_major":["3","1","2","0"],"tiles":[{"dimensions":["8","128"]},{"dimensions":["2","1"]}],"element_size_in_bits":"0","memory_space":"0","dim_level_types":[],"index_primitive_type":"PRIMITIVE_TYPE_INVALID","pointer_primitive_type":"PRIMITIVE_TYPE_INVALID","dim_unique":[],"dim_ordered":[],"dynamic_shape_metadata_prefix_bytes":"0","tail_padding_alignment_in_elements":"1","split_configs":[]},"is_dynamic_dimension":[false,false,false,false]}}}
  %param_1.1571 = bf16[1,128,32,64]{3,1,2,0:T(8,128)(2,1)S(1)} parameter(1)
  %constant.1010 = bf16[]{:T(256)} constant(-inf)
  %pad.73 = bf16[1,128,32,128]{3,1,2,0:T(8,128)(2,1)} pad(%param_1.1571, %constant.1010), padding=0_0x0_0x0_0x0_64, metadata={op_name="jit(train_step)/jvp()/while/body/closed_call/concatenate" stack_frame_id=0}
  %convert.257 = f32[1,128,32,128]{3,1,2,0:T(8,128)} convert(%pad.73)
  %param_0.1533 = bf16[1,128,32,64]{3,1,2,0:T(8,128)(2,1)S(1)} parameter(0)
  %pad.72 = bf16[1,128,32,128]{3,1,2,0:T(8,128)(2,1)} pad(%param_0.1533, %constant.1010), padding=0_0x0_0x0_0x64_0, metadata={op_name="jit(train_step)/jvp()/while/body/closed_call/concatenate" stack_frame_id=0}
  %convert.258 = f32[1,128,32,128]{3,1,2,0:T(8,128)} convert(%pad.72)
  %maximum.55 = f32[1,128,32,128]{3,1,2,0:T(8,128)} maximum(%convert.257, %convert.258), metadata={op_name="jit(train_step)/jvp()/while/body/closed_call/concatenate" stack_frame_id=0}, backend_config={"flag_configs":[],"scoped_memory_configs":[],"used_scoped_memory_configs":[],"float_type_correction_info":{"original_type":"BF16","original_shape":{"element_type":"BF16","dimensions":["1","128","32","128"],"tuple_shapes":[],"layout":{"minor_to_major":["3","1","2","0"],"tiles":[{"dimensions":["8","128"]},{"dimensions":["2","1"]}],"element_size_in_bits":"0","memory_space":"0","dim_level_types":[],"index_primitive_type":"PRIMITIVE_TYPE_INVALID","pointer_primitive_type":"PRIMITIVE_TYPE_INVALID","dim_unique":[],"dim_ordered":[],"dynamic_shape_metadata_prefix_bytes":"0","tail_padding_alignment_in_elements":"1","split_configs":[]},"is_dynamic_dimension":[false,false,false,false]}}}
  %param_3.813 = bf16[128,128]{1,0:T(8,128)(2,1)S(1)} parameter(3)
  %mul.2198 = bf16[1,128,32,128]{3,1,2,0:T(8,128)(2,1)} broadcast(%param_3.813), dimensions={1,3}, metadata={op_name="jit(train_step)/jvp()/while/body/closed_call/mul" stack_frame_id=0}
  %convert.259 = f32[1,128,32,128]{3,1,2,0:T(8,128)} convert(%mul.2198)
  %mul.2196 = f32[1,128,32,128]{3,1,2,0:T(8,128)} multiply(%maximum.55, %convert.259), metadata={op_name="jit(train_step)/jvp()/while/body/closed_call/mul" stack_frame_id=0}, backend_config={"flag_configs":[],"scoped_memory_configs":[],"used_scoped_memory_configs":[],"float_type_correction_info":{"original_type":"BF16","original_shape":{"element_type":"BF16","dimensions":["1","128","32","128"],"tuple_shapes":[],"layout":{"minor_to_major":["3","1","2","0"],"tiles":[{"dimensions":["8","128"]},{"dimensions":["2","1"]}],"element_size_in_bits":"0","memory_space":"0","dim_level_types":[],"index_primitive_type":"PRIMITIVE_TYPE_INVALID","pointer_primitive_type":"PRIMITIVE_TYPE_INVALID","dim_unique":[],"dim_ordered":[],"dynamic_shape_metadata_prefix_bytes":"0","tail_padding_alignment_in_elements":"1","split_configs":[]},"is_dynamic_dimension":[false,false,false,false]}}}
  %add.883 = f32[1,128,32,128]{3,1,2,0:T(8,128)} add(%mul.2197, %mul.2196), metadata={op_name="jit(train_step)/jvp()/while/body/closed_call/add" stack_frame_id=0}, backend_config={"flag_configs":[],"scoped_memory_configs":[],"used_scoped_memory_configs":[],"float_type_correction_info":{"original_type":"BF16","original_shape":{"element_type":"BF16","dimensions":["1","128","32","128"],"tuple_shapes":[],"layout":{"minor_to_major":["3","1","2","0"],"tiles":[{"dimensions":["8","128"]},{"dimensions":["2","1"]}],"element_size_in_bits":"0","memory_space":"0","dim_level_types":[],"index_primitive_type":"PRIMITIVE_TYPE_INVALID","pointer_primitive_type":"PRIMITIVE_TYPE_INVALID","dim_unique":[],"dim_ordered":[],"dynamic_shape_metadata_prefix_bytes":"0","tail_padding_alignment_in_elements":"1","split_configs":[]},"is_dynamic_dimension":[false,false,false,false]}}}
  %convert.260 = bf16[1,128,32,128]{3,1,2,0:T(8,128)(2,1)} convert(%add.883)
  ROOT %bitcast.892 = bf16[32,128,128]{2,1,0:T(8,128)(2,1)S(1)} bitcast(%convert.260), metadata={op_name="jit(train_step)/jvp()/while/body/closed_call/shard_map/vmap(static_sparsity_splash)/jit(_splash_attention)/splash_mha_fwd_segmented_residuals/splash_mha_fwd_segmented_residuals/squeeze" stack_frame_id=0}
}

%fused_computation.29.clone.1 (param_0.1522: bf16[4,1024,8,128], param_1.1564: s32[]) -> bf16[1,1024,8,128] {
  %param_0.1522 = bf16[4,1024,8,128]{1,3,2,0:T(8,128)(2,1)} parameter(0)
  %param_1.1564 = s32[]{:T(128)S(6)} parameter(1)
  %constant.348.clone.27 = s32[]{:T(128)} constant(0)
  ROOT %dynamic-slice.191 = bf16[1,1024,8,128]{1,3,2,0:T(8,128)(2,1)S(1)} dynamic-slice(%param_0.1522, %param_1.1564, %constant.348.clone.27, %constant.348.clone.27, %constant.348.clone.27), dynamic_slice_sizes={1,1024,8,128}, metadata={op_name="jit(train_step)/jvp()/while/body/jit(dynamic_index_in_dim)/dynamic_slice" stack_frame_id=0}, backend_config={"flag_configs":[],"scoped_memory_configs":[],"indices_config":{"index_known_bits":[{"zeroes":"4294967292","ones":"0","bitwidth":"32"},{"zeroes":"4294967295","ones":"0","bitwidth":"32"},{"zeroes":"4294967295","ones":"0","bitwidth":"32"},{"zeroes":"4294967295","ones":"0","bitwidth":"32"}],"is_index_aligned":[]},"used_scoped_memory_configs":[]}
}

%fused_computation.48.clone.1.clone.1 (param_0.1524: bf16[1,128,4096], param_1.1565: f32[128], param_2.1201: bf16[4096]) -> bf16[128,4096,1] {
  %param_0.1524 = bf16[1,128,4096]{2,1,0:T(8,128)(2,1)S(1)} parameter(0)
  %convert_element_type.1071 = f32[1,128,4096]{2,1,0:T(8,128)} convert(%param_0.1524), metadata={op_name="jit(train_step)/jvp()/while/body/closed_call/convert_element_type" stack_frame_id=0}
  %param_1.1565 = f32[128]{0:T(128)S(1)} parameter(1)
  %mul.2186 = f32[1,128,4096]{2,1,0:T(8,128)} broadcast(%param_1.1565), dimensions={1}, metadata={op_name="jit(train_step)/jvp()/while/body/closed_call/mul" stack_frame_id=0}
  %mul.2185 = f32[1,128,4096]{2,1,0:T(8,128)} multiply(%convert_element_type.1071, %mul.2186), metadata={op_name="jit(train_step)/jvp()/while/body/closed_call/mul" stack_frame_id=0}
  %convert_element_type.1070 = bf16[1,128,4096]{2,1,0:T(8,128)(2,1)} convert(%mul.2185), metadata={op_name="jit(train_step)/jvp()/while/body/closed_call/convert_element_type" stack_frame_id=0}
  %convert.237 = f32[1,128,4096]{2,1,0:T(8,128)} convert(%convert_element_type.1070)
  %param_2.1201 = bf16[4096]{0:T(1024)(128)(2,1)S(1)} parameter(2)
  %mul.2187 = bf16[1,128,4096]{2,1,0:T(8,128)(2,1)} broadcast(%param_2.1201), dimensions={2}, metadata={op_name="jit(train_step)/jvp()/while/body/closed_call/mul" stack_frame_id=0}
  %convert.238 = f32[1,128,4096]{2,1,0:T(8,128)} convert(%mul.2187)
  %mul.2184 = f32[1,128,4096]{2,1,0:T(8,128)} multiply(%convert.237, %convert.238), metadata={op_name="jit(train_step)/jvp()/while/body/closed_call/mul" stack_frame_id=0}, backend_config={"flag_configs":[],"scoped_memory_configs":[],"used_scoped_memory_configs":[],"float_type_correction_info":{"original_type":"BF16","original_shape":{"element_type":"BF16","dimensions":["1","128","4096"],"tuple_shapes":[],"layout":{"minor_to_major":["2","1","0"],"tiles":[{"dimensions":["8","128"]},{"dimensions":["2","1"]}],"element_size_in_bits":"0","memory_space":"0","dim_level_types":[],"index_primitive_type":"PRIMITIVE_TYPE_INVALID","pointer_primitive_type":"PRIMITIVE_TYPE_INVALID","dim_unique":[],"dim_ordered":[],"dynamic_shape_metadata_prefix_bytes":"0","tail_padding_alignment_in_elements":"1","split_configs":[]},"is_dynamic_dimension":[false,false,false]}}}
  %convert.239 = bf16[1,128,4096]{2,1,0:T(8,128)(2,1)} convert(%mul.2184)
  ROOT %bitcast.886 = bf16[128,4096,1]{1,0,2:T(8,128)(2,1)} bitcast(%convert.239)
}

%fused_computation.23.clone.clone.clone.1 (param_0.1523: bf16[1,4096,8,128]) -> bf16[4096,8,128] {
  %param_0.1523 = bf16[1,4096,8,128]{1,3,2,0:T(8,128)(2,1)S(1)} parameter(0)
  ROOT %bitcast.885 = bf16[4096,8,128]{0,2,1:T(8,128)(2,1)} bitcast(%param_0.1523), metadata={op_name="jit(train_step)/jvp()/while/body/closed_call/dot_general" stack_frame_id=0}
}

%fused_computation.58.clone.1 (param_0.1525: bf16[1,4096,8,128], param_1.1566: bf16[1,128,4096], param_2.1202: f32[128], param_3.810: bf16[4096]) -> bf16[1,128,8,128] {
  %param_1.1566 = bf16[1,128,4096]{2,1,0:T(8,128)(2,1)S(1)} parameter(1)
  %param_2.1202 = f32[128]{0:T(128)S(1)} parameter(2)
  %param_3.810 = bf16[4096]{0:T(1024)(128)(2,1)S(1)} parameter(3)
  %fusion.491 = bf16[128,4096,1]{1,0,2:T(8,128)(2,1)} fusion(%param_1.1566, %param_2.1202, %param_3.810), kind=kLoop, calls=%fused_computation.48.clone.1.clone.1
  %param_0.1525 = bf16[1,4096,8,128]{1,3,2,0:T(8,128)(2,1)S(1)} parameter(0)
  %fusion.490 = bf16[4096,8,128]{0,2,1:T(8,128)(2,1)} fusion(%param_0.1525), kind=kLoop, calls=%fused_computation.23.clone.clone.clone.1, metadata={op_name="jit(train_step)/jvp()/while/body/closed_call/dot_general" stack_frame_id=0}
  %convolution.159 = bf16[128,8,128]{2,0,1:T(8,128)(2,1)} convolution(%fusion.491, %fusion.490), window={size=8 pad=7_7 rhs_reversal=1}, dim_labels=bf0_i0o->b0f, metadata={op_name="jit(train_step)/jvp()/while/body/closed_call/dot_general" stack_frame_id=0}
  ROOT %bitcast.887 = bf16[1,128,8,128]{3,1,2,0:T(8,128)(2,1)S(1)} bitcast(%convolution.159), metadata={op_name="jit(train_step)/jvp()/while/body/closed_call/dot_general" stack_frame_id=0}
}

%fused_computation.62.clone.1 (param_0.1526: bf16[1,128,8,128]) -> (bf16[1,128,8,64], bf16[1,128,8,64]) {
  %param_0.1526 = bf16[1,128,8,128]{3,1,2,0:T(8,128)(2,1)S(1)} parameter(0)
  %slice.80 = bf16[1,128,8,64]{3,1,2,0:T(8,128)(2,1)} slice(%param_0.1526), slice={[0:1], [0:128], [0:8], [64:128]}, metadata={op_name="jit(train_step)/jvp()/while/body/closed_call/split" stack_frame_id=0}
  %convert.261 = f32[1,128,8,64]{3,1,2,0:T(8,128)} convert(%slice.80)
  %neg.138 = f32[1,128,8,64]{3,1,2,0:T(8,128)} negate(%convert.261), metadata={op_name="jit(train_step)/jvp()/while/body/closed_call/neg" stack_frame_id=0}, backend_config={"flag_configs":[],"scoped_memory_configs":[],"used_scoped_memory_configs":[],"float_type_correction_info":{"original_type":"BF16","original_shape":{"element_type":"BF16","dimensions":["1","128","8","64"],"tuple_shapes":[],"layout":{"minor_to_major":["3","1","2","0"],"tiles":[{"dimensions":["8","128"]},{"dimensions":["2","1"]}],"element_size_in_bits":"0","memory_space":"0","dim_level_types":[],"index_primitive_type":"PRIMITIVE_TYPE_INVALID","pointer_primitive_type":"PRIMITIVE_TYPE_INVALID","dim_unique":[],"dim_ordered":[],"dynamic_shape_metadata_prefix_bytes":"0","tail_padding_alignment_in_elements":"1","split_configs":[]},"is_dynamic_dimension":[false,false,false,false]}}}
  %convert.262 = bf16[1,128,8,64]{3,1,2,0:T(8,128)(2,1)S(1)} convert(%neg.138)
  %slice.81 = bf16[1,128,8,64]{3,1,2,0:T(8,128)(2,1)S(1)} slice(%param_0.1526), slice={[0:1], [0:128], [0:8], [0:64]}, metadata={op_name="jit(train_step)/jvp()/while/body/closed_call/split" stack_frame_id=0}
  ROOT %tuple.200 = (bf16[1,128,8,64]{3,1,2,0:T(8,128)(2,1)S(1)}, bf16[1,128,8,64]{3,1,2,0:T(8,128)(2,1)S(1)}) tuple(%convert.262, %slice.81)
}

%fused_computation.65.clone.1 (param_0.1527: bf16[1,128,8,64], param_1.1567: bf16[1,128,8,64], param_2.1203: bf16[1,128,8,128], param_3.811: bf16[128,128], param_4.499: bf16[128,128]) -> bf16[8,128,128] {
  %param_2.1203 = bf16[1,128,8,128]{3,1,2,0:T(8,128)(2,1)S(1)} parameter(2)
  %convert.263 = f32[1,128,8,128]{3,1,2,0:T(8,128)} convert(%param_2.1203)
  %param_4.499 = bf16[128,128]{1,0:T(8,128)(2,1)S(1)} parameter(4)
  %mul.2191 = bf16[1,128,8,128]{3,1,2,0:T(8,128)(2,1)} broadcast(%param_4.499), dimensions={1,3}, metadata={op_name="jit(train_step)/jvp()/while/body/closed_call/mul" stack_frame_id=0}
  %convert.264 = f32[1,128,8,128]{3,1,2,0:T(8,128)} convert(%mul.2191)
  %mul.2189 = f32[1,128,8,128]{3,1,2,0:T(8,128)} multiply(%convert.263, %convert.264), metadata={op_name="jit(train_step)/jvp()/while/body/closed_call/mul" stack_frame_id=0}, backend_config={"flag_configs":[],"scoped_memory_configs":[],"used_scoped_memory_configs":[],"float_type_correction_info":{"original_type":"BF16","original_shape":{"element_type":"BF16","dimensions":["1","128","8","128"],"tuple_shapes":[],"layout":{"minor_to_major":["3","1","2","0"],"tiles":[{"dimensions":["8","128"]},{"dimensions":["2","1"]}],"element_size_in_bits":"0","memory_space":"0","dim_level_types":[],"index_primitive_type":"PRIMITIVE_TYPE_INVALID","pointer_primitive_type":"PRIMITIVE_TYPE_INVALID","dim_unique":[],"dim_ordered":[],"dynamic_shape_metadata_prefix_bytes":"0","tail_padding_alignment_in_elements":"1","split_configs":[]},"is_dynamic_dimension":[false,false,false,false]}}}
  %param_1.1567 = bf16[1,128,8,64]{3,1,2,0:T(8,128)(2,1)S(1)} parameter(1)
  %constant.1009 = bf16[]{:T(256)} constant(-inf)
  %pad.71 = bf16[1,128,8,128]{3,1,2,0:T(8,128)(2,1)} pad(%param_1.1567, %constant.1009), padding=0_0x0_0x0_0x0_64, metadata={op_name="jit(train_step)/jvp()/while/body/closed_call/concatenate" stack_frame_id=0}
  %convert.265 = f32[1,128,8,128]{3,1,2,0:T(8,128)} convert(%pad.71)
  %param_0.1527 = bf16[1,128,8,64]{3,1,2,0:T(8,128)(2,1)S(1)} parameter(0)
  %pad.70 = bf16[1,128,8,128]{3,1,2,0:T(8,128)(2,1)} pad(%param_0.1527, %constant.1009), padding=0_0x0_0x0_0x64_0, metadata={op_name="jit(train_step)/jvp()/while/body/closed_call/concatenate" stack_frame_id=0}
  %convert.266 = f32[1,128,8,128]{3,1,2,0:T(8,128)} convert(%pad.70)
  %maximum.54 = f32[1,128,8,128]{3,1,2,0:T(8,128)} maximum(%convert.265, %convert.266), metadata={op_name="jit(train_step)/jvp()/while/body/closed_call/concatenate" stack_frame_id=0}, backend_config={"flag_configs":[],"scoped_memory_configs":[],"used_scoped_memory_configs":[],"float_type_correction_info":{"original_type":"BF16","original_shape":{"element_type":"BF16","dimensions":["1","128","8","128"],"tuple_shapes":[],"layout":{"minor_to_major":["3","1","2","0"],"tiles":[{"dimensions":["8","128"]},{"dimensions":["2","1"]}],"element_size_in_bits":"0","memory_space":"0","dim_level_types":[],"index_primitive_type":"PRIMITIVE_TYPE_INVALID","pointer_primitive_type":"PRIMITIVE_TYPE_INVALID","dim_unique":[],"dim_ordered":[],"dynamic_shape_metadata_prefix_bytes":"0","tail_padding_alignment_in_elements":"1","split_configs":[]},"is_dynamic_dimension":[false,false,false,false]}}}
  %param_3.811 = bf16[128,128]{1,0:T(8,128)(2,1)S(1)} parameter(3)
  %mul.2190 = bf16[1,128,8,128]{3,1,2,0:T(8,128)(2,1)} broadcast(%param_3.811), dimensions={1,3}, metadata={op_name="jit(train_step)/jvp()/while/body/closed_call/mul" stack_frame_id=0}
  %convert.267 = f32[1,128,8,128]{3,1,2,0:T(8,128)} convert(%mul.2190)
  %mul.2188 = f32[1,128,8,128]{3,1,2,0:T(8,128)} multiply(%maximum.54, %convert.267), metadata={op_name="jit(train_step)/jvp()/while/body/closed_call/mul" stack_frame_id=0}, backend_config={"flag_configs":[],"scoped_memory_configs":[],"used_scoped_memory_configs":[],"float_type_correction_info":{"original_type":"BF16","original_shape":{"element_type":"BF16","dimensions":["1","128","8","128"],"tuple_shapes":[],"layout":{"minor_to_major":["3","1","2","0"],"tiles":[{"dimensions":["8","128"]},{"dimensions":["2","1"]}],"element_size_in_bits":"0","memory_space":"0","dim_level_types":[],"index_primitive_type":"PRIMITIVE_TYPE_INVALID","pointer_primitive_type":"PRIMITIVE_TYPE_INVALID","dim_unique":[],"dim_ordered":[],"dynamic_shape_metadata_prefix_bytes":"0","tail_padding_alignment_in_elements":"1","split_configs":[]},"is_dynamic_dimension":[false,false,false,false]}}}
  %add.882 = f32[1,128,8,128]{3,1,2,0:T(8,128)} add(%mul.2189, %mul.2188), metadata={op_name="jit(train_step)/jvp()/while/body/closed_call/add" stack_frame_id=0}, backend_config={"flag_configs":[],"scoped_memory_configs":[],"used_scoped_memory_configs":[],"float_type_correction_info":{"original_type":"BF16","original_shape":{"element_type":"BF16","dimensions":["1","128","8","128"],"tuple_shapes":[],"layout":{"minor_to_major":["3","1","2","0"],"tiles":[{"dimensions":["8","128"]},{"dimensions":["2","1"]}],"element_size_in_bits":"0","memory_space":"0","dim_level_types":[],"index_primitive_type":"PRIMITIVE_TYPE_INVALID","pointer_primitive_type":"PRIMITIVE_TYPE_INVALID","dim_unique":[],"dim_ordered":[],"dynamic_shape_metadata_prefix_bytes":"0","tail_padding_alignment_in_elements":"1","split_configs":[]},"is_dynamic_dimension":[false,false,false,false]}}}
  %convert.268 = bf16[1,128,8,128]{3,1,2,0:T(8,128)(2,1)} convert(%add.882)
  ROOT %bitcast.888 = bf16[8,128,128]{2,1,0:T(8,128)(2,1)S(1)} bitcast(%convert.268), metadata={op_name="jit(train_step)/jvp()/while/body/closed_call/shard_map/vmap(static_sparsity_splash)/jit(_splash_attention)/splash_mha_fwd_segmented_residuals/splash_mha_fwd_segmented_residuals/squeeze" stack_frame_id=0}
}

%fused_computation.28.clone.1 (param_0.1518: bf16[4,1024,8,128], param_1.1561: s32[]) -> bf16[1,1024,8,128] {
  %param_0.1518 = bf16[4,1024,8,128]{3,1,2,0:T(8,128)(2,1)} parameter(0)
  %param_1.1561 = s32[]{:T(128)S(6)} parameter(1)
  %constant.348.clone.26 = s32[]{:T(128)} constant(0)
  ROOT %dynamic-slice.190 = bf16[1,1024,8,128]{3,1,2,0:T(8,128)(2,1)S(1)} dynamic-slice(%param_0.1518, %param_1.1561, %constant.348.clone.26, %constant.348.clone.26, %constant.348.clone.26), dynamic_slice_sizes={1,1024,8,128}, metadata={op_name="jit(train_step)/jvp()/while/body/jit(dynamic_index_in_dim)/dynamic_slice" stack_frame_id=0}, backend_config={"flag_configs":[],"scoped_memory_configs":[],"indices_config":{"index_known_bits":[{"zeroes":"4294967292","ones":"0","bitwidth":"32"},{"zeroes":"4294967295","ones":"0","bitwidth":"32"},{"zeroes":"4294967295","ones":"0","bitwidth":"32"},{"zeroes":"4294967295","ones":"0","bitwidth":"32"}],"is_index_aligned":[]},"used_scoped_memory_configs":[]}
}

%fused_computation.48.clone.clone.1 (param_0.1520: bf16[1,128,4096], param_1.1562: f32[128], param_2.1199: bf16[4096]) -> bf16[128,4096,1] {
  %param_0.1520 = bf16[1,128,4096]{2,1,0:T(8,128)(2,1)S(1)} parameter(0)
  %convert_element_type.1069 = f32[1,128,4096]{2,1,0:T(8,128)} convert(%param_0.1520), metadata={op_name="jit(train_step)/jvp()/while/body/closed_call/convert_element_type" stack_frame_id=0}
  %param_1.1562 = f32[128]{0:T(128)S(1)} parameter(1)
  %mul.2182 = f32[1,128,4096]{2,1,0:T(8,128)} broadcast(%param_1.1562), dimensions={1}, metadata={op_name="jit(train_step)/jvp()/while/body/closed_call/mul" stack_frame_id=0}
  %mul.2181 = f32[1,128,4096]{2,1,0:T(8,128)} multiply(%convert_element_type.1069, %mul.2182), metadata={op_name="jit(train_step)/jvp()/while/body/closed_call/mul" stack_frame_id=0}
  %convert_element_type.1068 = bf16[1,128,4096]{2,1,0:T(8,128)(2,1)} convert(%mul.2181), metadata={op_name="jit(train_step)/jvp()/while/body/closed_call/convert_element_type" stack_frame_id=0}
  %convert.234 = f32[1,128,4096]{2,1,0:T(8,128)} convert(%convert_element_type.1068)
  %param_2.1199 = bf16[4096]{0:T(1024)(128)(2,1)S(1)} parameter(2)
  %mul.2183 = bf16[1,128,4096]{2,1,0:T(8,128)(2,1)} broadcast(%param_2.1199), dimensions={2}, metadata={op_name="jit(train_step)/jvp()/while/body/closed_call/mul" stack_frame_id=0}
  %convert.235 = f32[1,128,4096]{2,1,0:T(8,128)} convert(%mul.2183)
  %mul.2180 = f32[1,128,4096]{2,1,0:T(8,128)} multiply(%convert.234, %convert.235), metadata={op_name="jit(train_step)/jvp()/while/body/closed_call/mul" stack_frame_id=0}, backend_config={"flag_configs":[],"scoped_memory_configs":[],"used_scoped_memory_configs":[],"float_type_correction_info":{"original_type":"BF16","original_shape":{"element_type":"BF16","dimensions":["1","128","4096"],"tuple_shapes":[],"layout":{"minor_to_major":["2","1","0"],"tiles":[{"dimensions":["8","128"]},{"dimensions":["2","1"]}],"element_size_in_bits":"0","memory_space":"0","dim_level_types":[],"index_primitive_type":"PRIMITIVE_TYPE_INVALID","pointer_primitive_type":"PRIMITIVE_TYPE_INVALID","dim_unique":[],"dim_ordered":[],"dynamic_shape_metadata_prefix_bytes":"0","tail_padding_alignment_in_elements":"1","split_configs":[]},"is_dynamic_dimension":[false,false,false]}}}
  %convert.236 = bf16[1,128,4096]{2,1,0:T(8,128)(2,1)} convert(%mul.2180)
  ROOT %bitcast.883 = bf16[128,4096,1]{1,0,2:T(8,128)(2,1)} bitcast(%convert.236)
}

%fused_computation.21.clone.clone.clone.1 (param_0.1519: bf16[1,4096,8,128]) -> bf16[4096,8,128] {
  %param_0.1519 = bf16[1,4096,8,128]{3,1,2,0:T(8,128)(2,1)S(1)} parameter(0)
  ROOT %bitcast.882 = bf16[4096,8,128]{2,0,1:T(8,128)(2,1)} bitcast(%param_0.1519), metadata={op_name="jit(train_step)/jvp()/while/body/closed_call/dot_general" stack_frame_id=0}
}

%fused_computation.59.clone.1 (param_0.1521: bf16[1,4096,8,128], param_1.1563: bf16[1,128,4096], param_2.1200: f32[128], param_3.809: bf16[4096]) -> bf16[8,128,128] {
  %param_1.1563 = bf16[1,128,4096]{2,1,0:T(8,128)(2,1)S(1)} parameter(1)
  %param_2.1200 = f32[128]{0:T(128)S(1)} parameter(2)
  %param_3.809 = bf16[4096]{0:T(1024)(128)(2,1)S(1)} parameter(3)
  %fusion.489 = bf16[128,4096,1]{1,0,2:T(8,128)(2,1)} fusion(%param_1.1563, %param_2.1200, %param_3.809), kind=kLoop, calls=%fused_computation.48.clone.clone.1
  %param_0.1521 = bf16[1,4096,8,128]{3,1,2,0:T(8,128)(2,1)S(1)} parameter(0)
  %fusion.488 = bf16[4096,8,128]{2,0,1:T(8,128)(2,1)} fusion(%param_0.1521), kind=kLoop, calls=%fused_computation.21.clone.clone.clone.1, metadata={op_name="jit(train_step)/jvp()/while/body/closed_call/dot_general" stack_frame_id=0}
  %convolution.158 = bf16[128,8,128]{2,0,1:T(8,128)(2,1)} convolution(%fusion.489, %fusion.488), window={size=8 pad=7_7 rhs_reversal=1}, dim_labels=bf0_i0o->b0f, metadata={op_name="jit(train_step)/jvp()/while/body/closed_call/dot_general" stack_frame_id=0}
  ROOT %bitcast.884 = bf16[8,128,128]{2,1,0:T(8,128)(2,1)S(1)} bitcast(%convolution.158), metadata={op_name="jit(train_step)/jvp()/while/body/closed_call/shard_map/vmap(static_sparsity_splash)/jit(_splash_attention)/splash_mha_fwd_segmented_residuals/splash_mha_fwd_segmented_residuals/squeeze" stack_frame_id=0}
}

%fused_computation.53.clone.clone.clone.1 (param_0.1536: bf16[32,128,128]) -> bf16[128,32,128] {
  %param_0.1536 = bf16[32,128,128]{2,1,0:T(8,128)(2,1)S(1)} parameter(0)
  ROOT %bitcast.894 = bf16[128,32,128]{2,0,1:T(8,128)(2,1)} bitcast(%param_0.1536)
}

%fused_computation.15.clone.clone.clone.clone.clone.clone.clone.1 (param_0.1535: bf16[1,32,128,4096]) -> bf16[32,128,4096] {
  %param_0.1535 = bf16[1,32,128,4096]{3,2,1,0:T(8,128)(2,1)S(1)} parameter(0)
  ROOT %bitcast.893 = bf16[32,128,4096]{2,1,0:T(8,128)(2,1)} bitcast(%param_0.1535), metadata={op_name="jit(train_step)/jvp()/while/body/closed_call/dot_general" stack_frame_id=0}
}

%region_2.4 (reduce_sum.106: f32[], reduce_sum.107: f32[]) -> f32[] {
  %reduce_sum.106 = f32[]{:T(128)} parameter(0), metadata={op_name="jit(train_step)/jvp()/while/body/closed_call/reduce_sum"}
  %reduce_sum.107 = f32[]{:T(128)} parameter(1), metadata={op_name="jit(train_step)/jvp()/while/body/closed_call/reduce_sum"}
  ROOT %reduce_sum.108 = f32[]{:T(128)} add(%reduce_sum.106, %reduce_sum.107), metadata={op_name="reduce_sum" stack_frame_id=0}, backend_config={"flag_configs":[],"scoped_memory_configs":[],"used_scoped_memory_configs":[],"aliasing_operands":{"lists":[]}}
}

%fused_computation.42.clone.1 (param_0.1537: bf16[1,128,4096], param_1.1573: bf16[1,32,128,4096], param_2.1207: bf16[32,128,128]) -> (f32[128], bf16[1,128,4096]) {
  %param_0.1537 = bf16[1,128,4096]{2,1,0:T(8,128)(2,1)S(1)} parameter(0)
  %convert.269 = f32[1,128,4096]{2,1,0:T(8,128)} convert(%param_0.1537)
  %param_2.1207 = bf16[32,128,128]{2,1,0:T(8,128)(2,1)S(1)} parameter(2)
  %fusion.74.clone.3 = bf16[128,32,128]{2,0,1:T(8,128)(2,1)} fusion(%param_2.1207), kind=kLoop, calls=%fused_computation.53.clone.clone.clone.1
  %param_1.1573 = bf16[1,32,128,4096]{3,2,1,0:T(8,128)(2,1)S(1)} parameter(1)
  %fusion.59.clone.3 = bf16[32,128,4096]{2,1,0:T(8,128)(2,1)} fusion(%param_1.1573), kind=kLoop, calls=%fused_computation.15.clone.clone.clone.clone.clone.clone.clone.1, metadata={op_name="jit(train_step)/jvp()/while/body/closed_call/dot_general" stack_frame_id=0}
  %convolution.58.clone.3 = bf16[128,4096,1]{1,0,2:T(8,128)(2,1)} convolution(%fusion.74.clone.3, %fusion.59.clone.3), window={size=32}, dim_labels=b0f_0io->bf0, metadata={op_name="jit(train_step)/jvp()/while/body/closed_call/dot_general" stack_frame_id=0}
  %bitcast.236.clone.3 = bf16[1,128,4096]{2,1,0:T(8,128)(2,1)} bitcast(%convolution.58.clone.3), metadata={op_name="jit(train_step)/jvp()/while/body/closed_call/dot_general" stack_frame_id=0}
  %convert.270 = f32[1,128,4096]{2,1,0:T(8,128)} convert(%bitcast.236.clone.3)
  %add.654.clone.3 = f32[1,128,4096]{2,1,0:T(8,128)} add(%convert.269, %convert.270), metadata={op_name="jit(train_step)/jvp()/while/body/closed_call/add" stack_frame_id=0}, backend_config={"flag_configs":[],"scoped_memory_configs":[],"used_scoped_memory_configs":[],"float_type_correction_info":{"original_type":"BF16","original_shape":{"element_type":"BF16","dimensions":["1","128","4096"],"tuple_shapes":[],"layout":{"minor_to_major":["2","1","0"],"tiles":[{"dimensions":["8","128"]},{"dimensions":["2","1"]}],"element_size_in_bits":"0","memory_space":"0","dim_level_types":[],"index_primitive_type":"PRIMITIVE_TYPE_INVALID","pointer_primitive_type":"PRIMITIVE_TYPE_INVALID","dim_unique":[],"dim_ordered":[],"dynamic_shape_metadata_prefix_bytes":"0","tail_padding_alignment_in_elements":"1","split_configs":[]},"is_dynamic_dimension":[false,false,false]}}}
  %convert_element_type.1074 = f32[1,128,4096]{2,1,0:T(8,128)} convert(%add.654.clone.3), metadata={op_name="jit(train_step)/jvp()/while/body/closed_call/convert_element_type" stack_frame_id=0}
  %square.218 = f32[1,128,4096]{2,1,0:T(8,128)} multiply(%convert_element_type.1074, %convert_element_type.1074), metadata={op_name="jit(train_step)/jvp()/while/body/closed_call/square" stack_frame_id=0}
  %constant.345.clone.10 = f32[]{:T(128)} constant(0)
  %reduce.158 = f32[128]{0:T(128)} reduce(%square.218, %constant.345.clone.10), dimensions={0,2}, to_apply=%region_2.4, metadata={op_name="jit(train_step)/jvp()/while/body/closed_call/reduce_sum" stack_frame_id=0}
  %convert.271 = bf16[1,128,4096]{2,1,0:T(8,128)(2,1)} convert(%add.654.clone.3)
  ROOT %tuple.202 = (f32[128]{0:T(128)}, bf16[1,128,4096]{2,1,0:T(8,128)(2,1)}) tuple(%reduce.158, %convert.271)
}

%fused_computation.11.clone.1 (param_0.1544: bf16[4,14336,1024], param_1.1578: s32[]) -> bf16[1,14336,1024] {
  %param_0.1544 = bf16[4,14336,1024]{2,1,0:T(8,128)(2,1)} parameter(0)
  %param_1.1578 = s32[]{:T(128)S(6)} parameter(1)
  %constant.348.clone.32 = s32[]{:T(128)} constant(0)
  ROOT %dynamic-slice.196 = bf16[1,14336,1024]{2,1,0:T(8,128)(2,1)S(1)} dynamic-slice(%param_0.1544, %param_1.1578, %constant.348.clone.32, %constant.348.clone.32), dynamic_slice_sizes={1,14336,1024}, metadata={op_name="jit(train_step)/jvp()/while/body/jit(dynamic_index_in_dim)/dynamic_slice" stack_frame_id=0}, backend_config={"flag_configs":[],"scoped_memory_configs":[],"indices_config":{"index_known_bits":[{"zeroes":"4294967292","ones":"0","bitwidth":"32"},{"zeroes":"4294967295","ones":"0","bitwidth":"32"},{"zeroes":"4294967295","ones":"0","bitwidth":"32"}],"is_index_aligned":[]},"used_scoped_memory_configs":[]}
}

%fused_computation.12.clone.1 (param_0.1543: bf16[4,1024,14336], param_1.1577: s32[]) -> bf16[1,1024,14336] {
  %param_0.1543 = bf16[4,1024,14336]{2,1,0:T(8,128)(2,1)} parameter(0)
  %param_1.1577 = s32[]{:T(128)S(6)} parameter(1)
  %constant.348.clone.31 = s32[]{:T(128)} constant(0)
  ROOT %dynamic-slice.195 = bf16[1,1024,14336]{2,1,0:T(8,128)(2,1)S(1)} dynamic-slice(%param_0.1543, %param_1.1577, %constant.348.clone.31, %constant.348.clone.31), dynamic_slice_sizes={1,1024,14336}, metadata={op_name="jit(train_step)/jvp()/while/body/jit(dynamic_index_in_dim)/dynamic_slice" stack_frame_id=0}, backend_config={"flag_configs":[],"scoped_memory_configs":[],"indices_config":{"index_known_bits":[{"zeroes":"4294967292","ones":"0","bitwidth":"32"},{"zeroes":"4294967295","ones":"0","bitwidth":"32"},{"zeroes":"4294967295","ones":"0","bitwidth":"32"}],"is_index_aligned":[]},"used_scoped_memory_configs":[]}
}

%fused_computation.13.clone.1 (param_0.1539: bf16[4,1024,14336], param_1.1574: s32[]) -> bf16[1,1024,14336] {
  %param_0.1539 = bf16[4,1024,14336]{2,1,0:T(8,128)(2,1)} parameter(0)
  %param_1.1574 = s32[]{:T(128)S(6)} parameter(1)
  %constant.348.clone.30 = s32[]{:T(128)} constant(0)
  ROOT %dynamic-slice.194 = bf16[1,1024,14336]{2,1,0:T(8,128)(2,1)S(1)} dynamic-slice(%param_0.1539, %param_1.1574, %constant.348.clone.30, %constant.348.clone.30), dynamic_slice_sizes={1,1024,14336}, metadata={op_name="jit(train_step)/jvp()/while/body/jit(dynamic_index_in_dim)/dynamic_slice" stack_frame_id=0}, backend_config={"flag_configs":[],"scoped_memory_configs":[],"indices_config":{"index_known_bits":[{"zeroes":"4294967292","ones":"0","bitwidth":"32"},{"zeroes":"4294967295","ones":"0","bitwidth":"32"},{"zeroes":"4294967295","ones":"0","bitwidth":"32"}],"is_index_aligned":[]},"used_scoped_memory_configs":[]}
}

%fused_computation.68.clone.1 (param_0.1538: f32[128]) -> f32[128] {
  %param_0.1538 = f32[128]{0:T(128)S(1)} parameter(0)
  %constant.346.clone.10 = f32[]{:T(128)} constant(0.000244140625)
  %broadcast.688 = f32[128]{0:T(128)} broadcast(%constant.346.clone.10), dimensions={}, metadata={op_name="jit(train_step)/jvp()/while/body/closed_call" stack_frame_id=0}
  %div.868 = f32[128]{0:T(128)} multiply(%param_0.1538, %broadcast.688), metadata={op_name="jit(train_step)/jvp()/while/body/closed_call/div" stack_frame_id=0}
  %constant.347.clone.10 = f32[]{:T(128)} constant(1e-05)
  %broadcast.687 = f32[128]{0:T(128)} broadcast(%constant.347.clone.10), dimensions={}, metadata={op_name="jit(train_step)/jvp()/while/body/closed_call" stack_frame_id=0}
  %add.884 = f32[128]{0:T(128)} add(%div.868, %broadcast.687), metadata={op_name="jit(train_step)/jvp()/while/body/closed_call/add" stack_frame_id=0}
  ROOT %rsqrt.119 = f32[128]{0:T(128)S(1)} rsqrt(%add.884), metadata={op_name="jit(train_step)/jvp()/while/body/closed_call/rsqrt" stack_frame_id=0}
}

%fused_computation.46.clone.1.clone.1 (param_0.1541: bf16[1,128,4096], param_1.1575: f32[128], param_2.1208: bf16[4096]) -> bf16[128,4096] {
  %param_0.1541 = bf16[1,128,4096]{2,1,0:T(8,128)(2,1)S(1)} parameter(0)
  %convert_element_type.1076 = f32[1,128,4096]{2,1,0:T(8,128)} convert(%param_0.1541), metadata={op_name="jit(train_step)/jvp()/while/body/closed_call/convert_element_type" stack_frame_id=0}
  %param_1.1575 = f32[128]{0:T(128)S(1)} parameter(1)
  %mul.2202 = f32[1,128,4096]{2,1,0:T(8,128)} broadcast(%param_1.1575), dimensions={1}, metadata={op_name="jit(train_step)/jvp()/while/body/closed_call/mul" stack_frame_id=0}
  %mul.2201 = f32[1,128,4096]{2,1,0:T(8,128)} multiply(%convert_element_type.1076, %mul.2202), metadata={op_name="jit(train_step)/jvp()/while/body/closed_call/mul" stack_frame_id=0}
  %convert_element_type.1075 = bf16[1,128,4096]{2,1,0:T(8,128)(2,1)} convert(%mul.2201), metadata={op_name="jit(train_step)/jvp()/while/body/closed_call/convert_element_type" stack_frame_id=0}
  %convert.243 = f32[1,128,4096]{2,1,0:T(8,128)} convert(%convert_element_type.1075)
  %param_2.1208 = bf16[4096]{0:T(1024)(128)(2,1)S(1)} parameter(2)
  %mul.2203 = bf16[1,128,4096]{2,1,0:T(8,128)(2,1)} broadcast(%param_2.1208), dimensions={2}, metadata={op_name="jit(train_step)/jvp()/while/body/closed_call/mul" stack_frame_id=0}
  %convert.244 = f32[1,128,4096]{2,1,0:T(8,128)} convert(%mul.2203)
  %mul.2200 = f32[1,128,4096]{2,1,0:T(8,128)} multiply(%convert.243, %convert.244), metadata={op_name="jit(train_step)/jvp()/while/body/closed_call/mul" stack_frame_id=0}, backend_config={"flag_configs":[],"scoped_memory_configs":[],"used_scoped_memory_configs":[],"float_type_correction_info":{"original_type":"BF16","original_shape":{"element_type":"BF16","dimensions":["1","128","4096"],"tuple_shapes":[],"layout":{"minor_to_major":["2","1","0"],"tiles":[{"dimensions":["8","128"]},{"dimensions":["2","1"]}],"element_size_in_bits":"0","memory_space":"0","dim_level_types":[],"index_primitive_type":"PRIMITIVE_TYPE_INVALID","pointer_primitive_type":"PRIMITIVE_TYPE_INVALID","dim_unique":[],"dim_ordered":[],"dynamic_shape_metadata_prefix_bytes":"0","tail_padding_alignment_in_elements":"1","split_configs":[]},"is_dynamic_dimension":[false,false,false]}}}
  %convert.245 = bf16[1,128,4096]{2,1,0:T(8,128)(2,1)} convert(%mul.2200)
  ROOT %bitcast.896 = bf16[128,4096]{1,0:T(8,128)(2,1)} bitcast(%convert.245)
}

%fused_computation.10.clone.clone.clone.1 (param_0.1540: bf16[1,4096,14336]) -> bf16[4096,14336] {
  %param_0.1540 = bf16[1,4096,14336]{2,1,0:T(8,128)(2,1)} parameter(0)
  ROOT %bitcast.895 = bf16[4096,14336]{1,0:T(8,128)(2,1)} bitcast(%param_0.1540), metadata={op_name="jit(train_step)/jvp()/while/body/closed_call/dot_general" stack_frame_id=0}
}

%fused_computation.24.clone.1 (param_0.1542: bf16[1,4096,14336], param_1.1576: bf16[1,128,4096], param_2.1209: f32[128], param_3.814: bf16[4096]) -> bf16[1,128,14336] {
  %param_1.1576 = bf16[1,128,4096]{2,1,0:T(8,128)(2,1)S(1)} parameter(1)
  %param_2.1209 = f32[128]{0:T(128)S(1)} parameter(2)
  %param_3.814 = bf16[4096]{0:T(1024)(128)(2,1)S(1)} parameter(3)
  %fusion.495 = bf16[128,4096]{1,0:T(8,128)(2,1)} fusion(%param_1.1576, %param_2.1209, %param_3.814), kind=kLoop, calls=%fused_computation.46.clone.1.clone.1
  %param_0.1542 = bf16[1,4096,14336]{2,1,0:T(8,128)(2,1)} parameter(0)
  %fusion.494 = bf16[4096,14336]{1,0:T(8,128)(2,1)} fusion(%param_0.1542), kind=kLoop, calls=%fused_computation.10.clone.clone.clone.1, metadata={op_name="jit(train_step)/jvp()/while/body/closed_call/dot_general" stack_frame_id=0}
  %convolution.161 = bf16[128,14336]{1,0:T(8,128)(2,1)} convolution(%fusion.495, %fusion.494), dim_labels=bf_io->bf, metadata={op_name="jit(train_step)/jvp()/while/body/closed_call/dot_general" stack_frame_id=0}
  ROOT %bitcast.897 = bf16[1,128,14336]{2,1,0:T(8,128)(2,1)S(1)} bitcast(%convolution.161), metadata={op_name="jit(train_step)/jvp()/while/body/closed_call/dot_general" stack_frame_id=0}
}

%fused_computation.46.clone.clone.clone.1 (param_0.1547: bf16[1,128,4096], param_1.1579: f32[128], param_2.1210: bf16[4096]) -> bf16[128,4096] {
  %param_0.1547 = bf16[1,128,4096]{2,1,0:T(8,128)(2,1)S(1)} parameter(0)
  %convert_element_type.1078 = f32[1,128,4096]{2,1,0:T(8,128)} convert(%param_0.1547), metadata={op_name="jit(train_step)/jvp()/while/body/closed_call/convert_element_type" stack_frame_id=0}
  %param_1.1579 = f32[128]{0:T(128)S(1)} parameter(1)
  %mul.2206 = f32[1,128,4096]{2,1,0:T(8,128)} broadcast(%param_1.1579), dimensions={1}, metadata={op_name="jit(train_step)/jvp()/while/body/closed_call/mul" stack_frame_id=0}
  %mul.2205 = f32[1,128,4096]{2,1,0:T(8,128)} multiply(%convert_element_type.1078, %mul.2206), metadata={op_name="jit(train_step)/jvp()/while/body/closed_call/mul" stack_frame_id=0}
  %convert_element_type.1077 = bf16[1,128,4096]{2,1,0:T(8,128)(2,1)} convert(%mul.2205), metadata={op_name="jit(train_step)/jvp()/while/body/closed_call/convert_element_type" stack_frame_id=0}
  %convert.246 = f32[1,128,4096]{2,1,0:T(8,128)} convert(%convert_element_type.1077)
  %param_2.1210 = bf16[4096]{0:T(1024)(128)(2,1)S(1)} parameter(2)
  %mul.2207 = bf16[1,128,4096]{2,1,0:T(8,128)(2,1)} broadcast(%param_2.1210), dimensions={2}, metadata={op_name="jit(train_step)/jvp()/while/body/closed_call/mul" stack_frame_id=0}
  %convert.247 = f32[1,128,4096]{2,1,0:T(8,128)} convert(%mul.2207)
  %mul.2204 = f32[1,128,4096]{2,1,0:T(8,128)} multiply(%convert.246, %convert.247), metadata={op_name="jit(train_step)/jvp()/while/body/closed_call/mul" stack_frame_id=0}, backend_config={"flag_configs":[],"scoped_memory_configs":[],"used_scoped_memory_configs":[],"float_type_correction_info":{"original_type":"BF16","original_shape":{"element_type":"BF16","dimensions":["1","128","4096"],"tuple_shapes":[],"layout":{"minor_to_major":["2","1","0"],"tiles":[{"dimensions":["8","128"]},{"dimensions":["2","1"]}],"element_size_in_bits":"0","memory_space":"0","dim_level_types":[],"index_primitive_type":"PRIMITIVE_TYPE_INVALID","pointer_primitive_type":"PRIMITIVE_TYPE_INVALID","dim_unique":[],"dim_ordered":[],"dynamic_shape_metadata_prefix_bytes":"0","tail_padding_alignment_in_elements":"1","split_configs":[]},"is_dynamic_dimension":[false,false,false]}}}
  %convert.248 = bf16[1,128,4096]{2,1,0:T(8,128)(2,1)} convert(%mul.2204)
  ROOT %bitcast.900 = bf16[128,4096]{1,0:T(8,128)(2,1)} bitcast(%convert.248)
}

%fused_computation.8.clone.clone.clone.clone.clone.clone.clone.clone.clone.clone.clone.clone.clone.1 (param_0.1546: bf16[1,4096,14336]) -> bf16[4096,14336] {
  %param_0.1546 = bf16[1,4096,14336]{2,1,0:T(8,128)(2,1)} parameter(0)
  ROOT %bitcast.899 = bf16[4096,14336]{1,0:T(8,128)(2,1)} bitcast(%param_0.1546), metadata={op_name="jit(train_step)/jvp()/while/body/closed_call/dot_general" stack_frame_id=0}
}

%fused_computation.27.clone.clone.clone.clone.clone.clone.clone.1 (param_0.1548: bf16[1,4096,14336], param_1.1580: bf16[1,128,14336], param_2.1211: bf16[1,128,4096], param_3.815: f32[128], param_4.501: bf16[4096]) -> bf16[128,14336] {
  %param_1.1580 = bf16[1,128,14336]{2,1,0:T(8,128)(2,1)S(1)} parameter(1)
  %convert.249 = f32[1,128,14336]{2,1,0:T(8,128)} convert(%param_1.1580)
  %constant.349.clone.10 = bf16[]{:T(256)} constant(1)
  %jit_silu_.47 = bf16[1,128,14336]{2,1,0:T(8,128)(2,1)} broadcast(%constant.349.clone.10), dimensions={}, metadata={op_name="jit(train_step)/jvp()/while/body/closed_call/jit(silu)" stack_frame_id=0}
  %convert.250 = f32[1,128,14336]{2,1,0:T(8,128)} convert(%jit_silu_.47)
  %neg.140 = f32[1,128,14336]{2,1,0:T(8,128)} negate(%convert.249), metadata={op_name="jit(train_step)/jvp()/while/body/closed_call/jit(silu)/neg" stack_frame_id=0}, backend_config={"flag_configs":[],"scoped_memory_configs":[],"used_scoped_memory_configs":[],"float_type_correction_info":{"original_type":"BF16","original_shape":{"element_type":"BF16","dimensions":["1","128","14336"],"tuple_shapes":[],"layout":{"minor_to_major":["2","1","0"],"tiles":[{"dimensions":["8","128"]},{"dimensions":["2","1"]}],"element_size_in_bits":"0","memory_space":"0","dim_level_types":[],"index_primitive_type":"PRIMITIVE_TYPE_INVALID","pointer_primitive_type":"PRIMITIVE_TYPE_INVALID","dim_unique":[],"dim_ordered":[],"dynamic_shape_metadata_prefix_bytes":"0","tail_padding_alignment_in_elements":"1","split_configs":[]},"is_dynamic_dimension":[false,false,false]}}}
  %exp.84 = f32[1,128,14336]{2,1,0:T(8,128)} exponential(%neg.140), metadata={op_name="jit(train_step)/jvp()/while/body/closed_call/jit(silu)/exp" stack_frame_id=0}, backend_config={"flag_configs":[],"scoped_memory_configs":[],"used_scoped_memory_configs":[],"float_type_correction_info":{"original_type":"BF16","original_shape":{"element_type":"BF16","dimensions":["1","128","14336"],"tuple_shapes":[],"layout":{"minor_to_major":["2","1","0"],"tiles":[{"dimensions":["8","128"]},{"dimensions":["2","1"]}],"element_size_in_bits":"0","memory_space":"0","dim_level_types":[],"index_primitive_type":"PRIMITIVE_TYPE_INVALID","pointer_primitive_type":"PRIMITIVE_TYPE_INVALID","dim_unique":[],"dim_ordered":[],"dynamic_shape_metadata_prefix_bytes":"0","tail_padding_alignment_in_elements":"1","split_configs":[]},"is_dynamic_dimension":[false,false,false]}}}
  %add.885 = f32[1,128,14336]{2,1,0:T(8,128)} add(%exp.84, %convert.250), metadata={op_name="jit(train_step)/jvp()/while/body/closed_call/jit(silu)/add" stack_frame_id=0}, backend_config={"flag_configs":[],"scoped_memory_configs":[],"used_scoped_memory_configs":[],"float_type_correction_info":{"original_type":"BF16","original_shape":{"element_type":"BF16","dimensions":["1","128","14336"],"tuple_shapes":[],"layout":{"minor_to_major":["2","1","0"],"tiles":[{"dimensions":["8","128"]},{"dimensions":["2","1"]}],"element_size_in_bits":"0","memory_space":"0","dim_level_types":[],"index_primitive_type":"PRIMITIVE_TYPE_INVALID","pointer_primitive_type":"PRIMITIVE_TYPE_INVALID","dim_unique":[],"dim_ordered":[],"dynamic_shape_metadata_prefix_bytes":"0","tail_padding_alignment_in_elements":"1","split_configs":[]},"is_dynamic_dimension":[false,false,false]}}}
  %div.869 = f32[1,128,14336]{2,1,0:T(8,128)} divide(%convert.250, %add.885), metadata={op_name="jit(train_step)/jvp()/while/body/closed_call/jit(silu)/div" stack_frame_id=0}, backend_config={"flag_configs":[],"scoped_memory_configs":[],"used_scoped_memory_configs":[],"float_type_correction_info":{"original_type":"BF16","original_shape":{"element_type":"BF16","dimensions":["1","128","14336"],"tuple_shapes":[],"layout":{"minor_to_major":["2","1","0"],"tiles":[{"dimensions":["8","128"]},{"dimensions":["2","1"]}],"element_size_in_bits":"0","memory_space":"0","dim_level_types":[],"index_primitive_type":"PRIMITIVE_TYPE_INVALID","pointer_primitive_type":"PRIMITIVE_TYPE_INVALID","dim_unique":[],"dim_ordered":[],"dynamic_shape_metadata_prefix_bytes":"0","tail_padding_alignment_in_elements":"1","split_configs":[]},"is_dynamic_dimension":[false,false,false]}}}
  %mul.2209 = f32[1,128,14336]{2,1,0:T(8,128)} multiply(%convert.249, %div.869), metadata={op_name="jit(train_step)/jvp()/while/body/closed_call/jit(silu)/mul" stack_frame_id=0}, backend_config={"flag_configs":[],"scoped_memory_configs":[],"used_scoped_memory_configs":[],"float_type_correction_info":{"original_type":"BF16","original_shape":{"element_type":"BF16","dimensions":["1","128","14336"],"tuple_shapes":[],"layout":{"minor_to_major":["2","1","0"],"tiles":[{"dimensions":["8","128"]},{"dimensions":["2","1"]}],"element_size_in_bits":"0","memory_space":"0","dim_level_types":[],"index_primitive_type":"PRIMITIVE_TYPE_INVALID","pointer_primitive_type":"PRIMITIVE_TYPE_INVALID","dim_unique":[],"dim_ordered":[],"dynamic_shape_metadata_prefix_bytes":"0","tail_padding_alignment_in_elements":"1","split_configs":[]},"is_dynamic_dimension":[false,false,false]}}}
  %param_2.1211 = bf16[1,128,4096]{2,1,0:T(8,128)(2,1)S(1)} parameter(2)
  %param_3.815 = f32[128]{0:T(128)S(1)} parameter(3)
  %param_4.501 = bf16[4096]{0:T(1024)(128)(2,1)S(1)} parameter(4)
  %fusion.497 = bf16[128,4096]{1,0:T(8,128)(2,1)} fusion(%param_2.1211, %param_3.815, %param_4.501), kind=kLoop, calls=%fused_computation.46.clone.clone.clone.1
  %param_0.1548 = bf16[1,4096,14336]{2,1,0:T(8,128)(2,1)} parameter(0)
  %fusion.496 = bf16[4096,14336]{1,0:T(8,128)(2,1)} fusion(%param_0.1548), kind=kLoop, calls=%fused_computation.8.clone.clone.clone.clone.clone.clone.clone.clone.clone.clone.clone.clone.clone.1, metadata={op_name="jit(train_step)/jvp()/while/body/closed_call/dot_general" stack_frame_id=0}
  %convolution.162 = bf16[128,14336]{1,0:T(8,128)(2,1)} convolution(%fusion.497, %fusion.496), dim_labels=bf_io->bf, metadata={op_name="jit(train_step)/jvp()/while/body/closed_call/dot_general" stack_frame_id=0}
  %bitcast.902 = bf16[1,128,14336]{2,1,0:T(8,128)(2,1)} bitcast(%convolution.162), metadata={op_name="jit(train_step)/jvp()/while/body/closed_call/dot_general" stack_frame_id=0}
  %convert.251 = f32[1,128,14336]{2,1,0:T(8,128)} convert(%bitcast.902)
  %mul.2208 = f32[1,128,14336]{2,1,0:T(8,128)} multiply(%mul.2209, %convert.251), metadata={op_name="jit(train_step)/jvp()/while/body/closed_call/mul" stack_frame_id=0}, backend_config={"flag_configs":[],"scoped_memory_configs":[],"used_scoped_memory_configs":[],"float_type_correction_info":{"original_type":"BF16","original_shape":{"element_type":"BF16","dimensions":["1","128","14336"],"tuple_shapes":[],"layout":{"minor_to_major":["2","1","0"],"tiles":[{"dimensions":["8","128"]},{"dimensions":["2","1"]}],"element_size_in_bits":"0","memory_space":"0","dim_level_types":[],"index_primitive_type":"PRIMITIVE_TYPE_INVALID","pointer_primitive_type":"PRIMITIVE_TYPE_INVALID","dim_unique":[],"dim_ordered":[],"dynamic_shape_metadata_prefix_bytes":"0","tail_padding_alignment_in_elements":"1","split_configs":[]},"is_dynamic_dimension":[false,false,false]}}}
  %convert.252 = bf16[1,128,14336]{2,1,0:T(8,128)(2,1)} convert(%mul.2208)
  ROOT %bitcast.901 = bf16[128,14336]{1,0:T(8,128)(2,1)} bitcast(%convert.252)
}

%fused_computation.6.clone.clone.clone.clone.clone.1 (param_0.1545: bf16[1,14336,4096]) -> bf16[14336,4096] {
  %param_0.1545 = bf16[1,14336,4096]{2,1,0:T(8,128)(2,1)} parameter(0)
  ROOT %bitcast.898 = bf16[14336,4096]{1,0:T(8,128)(2,1)} bitcast(%param_0.1545), metadata={op_name="jit(train_step)/jvp()/while/body/closed_call/dot_general" stack_frame_id=0}
}

%fused_computation.38.clone.1 (param_0.1549: bf16[1,128,4096], param_1.1581: bf16[1,14336,4096], param_2.1212: bf16[1,4096,14336], param_3.816: bf16[1,128,14336], param_4.502: f32[128], param_5.421: bf16[4096]) -> bf16[1,128,4096] {
  %param_2.1212 = bf16[1,4096,14336]{2,1,0:T(8,128)(2,1)} parameter(2)
  %param_3.816 = bf16[1,128,14336]{2,1,0:T(8,128)(2,1)S(1)} parameter(3)
  %param_0.1549 = bf16[1,128,4096]{2,1,0:T(8,128)(2,1)S(1)} parameter(0)
  %param_4.502 = f32[128]{0:T(128)S(1)} parameter(4)
  %param_5.421 = bf16[4096]{0:T(1024)(128)(2,1)S(1)} parameter(5)
  %fusion.37.clone.7 = bf16[128,14336]{1,0:T(8,128)(2,1)} fusion(%param_2.1212, %param_3.816, %param_0.1549, %param_4.502, %param_5.421), kind=kOutput, calls=%fused_computation.27.clone.clone.clone.clone.clone.clone.clone.1, metadata={op_name="jit(train_step)/jvp()/while/body/closed_call/dot_general" stack_frame_id=0}
  %param_1.1581 = bf16[1,14336,4096]{2,1,0:T(8,128)(2,1)} parameter(1)
  %fusion.498 = bf16[14336,4096]{1,0:T(8,128)(2,1)} fusion(%param_1.1581), kind=kLoop, calls=%fused_computation.6.clone.clone.clone.clone.clone.1, metadata={op_name="jit(train_step)/jvp()/while/body/closed_call/dot_general" stack_frame_id=0}
  %convolution.163 = bf16[128,4096]{1,0:T(8,128)(2,1)} convolution(%fusion.37.clone.7, %fusion.498), dim_labels=bf_io->bf, metadata={op_name="jit(train_step)/jvp()/while/body/closed_call/dot_general" stack_frame_id=0}
  %bitcast.903 = bf16[1,128,4096]{2,1,0:T(8,128)(2,1)} bitcast(%convolution.163), metadata={op_name="jit(train_step)/jvp()/while/body/closed_call/dot_general" stack_frame_id=0}
  %convert.272 = f32[1,128,4096]{2,1,0:T(8,128)} convert(%bitcast.903)
  %convert.273 = f32[1,128,4096]{2,1,0:T(8,128)} convert(%param_0.1549)
  %add.886 = f32[1,128,4096]{2,1,0:T(8,128)} add(%convert.272, %convert.273), metadata={op_name="jit(train_step)/jvp()/while/body/closed_call/add" stack_frame_id=0}, backend_config={"flag_configs":[],"scoped_memory_configs":[],"used_scoped_memory_configs":[],"float_type_correction_info":{"original_type":"BF16","original_shape":{"element_type":"BF16","dimensions":["1","128","4096"],"tuple_shapes":[],"layout":{"minor_to_major":["2","1","0"],"tiles":[{"dimensions":["8","128"]},{"dimensions":["2","1"]}],"element_size_in_bits":"0","memory_space":"0","dim_level_types":[],"index_primitive_type":"PRIMITIVE_TYPE_INVALID","pointer_primitive_type":"PRIMITIVE_TYPE_INVALID","dim_unique":[],"dim_ordered":[],"dynamic_shape_metadata_prefix_bytes":"0","tail_padding_alignment_in_elements":"1","split_configs":[]},"is_dynamic_dimension":[false,false,false]}}}
  ROOT %convert.274 = bf16[1,128,4096]{2,1,0:T(8,128)(2,1)S(1)} convert(%add.886)
}

%async_computation.24 (param_0.1574: s8[33554432]) -> s8[4194304] {
  %param_0.1574 = s8[33554432]{0:T(1024)(128)(4,1)} parameter(0)
  ROOT %slice.133 = s8[4194304]{0:T(1024)(128)(4,1)S(1)} slice(%param_0.1574), slice={[0:4194304]}, backend_config={"flag_configs":[],"scoped_memory_configs":[],"used_scoped_memory_configs":[],"aliasing_operands":{"lists":[]}}
}

%async_computation.25 (param_0.1575: s8[33554432]) -> s8[4194304] {
  %param_0.1575 = s8[33554432]{0:T(1024)(128)(4,1)} parameter(0)
  ROOT %slice.135 = s8[4194304]{0:T(1024)(128)(4,1)S(1)} slice(%param_0.1575), slice={[4194304:8388608]}, backend_config={"flag_configs":[],"scoped_memory_configs":[],"used_scoped_memory_configs":[],"aliasing_operands":{"lists":[]}}
}

%async_computation.26 (param_0.1576: s8[33554432]) -> s8[4194304] {
  %param_0.1576 = s8[33554432]{0:T(1024)(128)(4,1)} parameter(0)
  ROOT %slice.137 = s8[4194304]{0:T(1024)(128)(4,1)S(1)} slice(%param_0.1576), slice={[8388608:12582912]}, backend_config={"flag_configs":[],"scoped_memory_configs":[],"used_scoped_memory_configs":[],"aliasing_operands":{"lists":[]}}
}

%async_computation.27 (param_0.1577: s8[33554432]) -> s8[4194304] {
  %param_0.1577 = s8[33554432]{0:T(1024)(128)(4,1)} parameter(0)
  ROOT %slice.139 = s8[4194304]{0:T(1024)(128)(4,1)S(1)} slice(%param_0.1577), slice={[12582912:16777216]}, backend_config={"flag_configs":[],"scoped_memory_configs":[],"used_scoped_memory_configs":[],"aliasing_operands":{"lists":[]}}
}

%async_computation.28 (param_0.1578: s8[33554432]) -> s8[4194304] {
  %param_0.1578 = s8[33554432]{0:T(1024)(128)(4,1)} parameter(0)
  ROOT %slice.141 = s8[4194304]{0:T(1024)(128)(4,1)S(1)} slice(%param_0.1578), slice={[16777216:20971520]}, backend_config={"flag_configs":[],"scoped_memory_configs":[],"used_scoped_memory_configs":[],"aliasing_operands":{"lists":[]}}
}

%async_computation.29 (param_0.1579: s8[33554432]) -> s8[4194304] {
  %param_0.1579 = s8[33554432]{0:T(1024)(128)(4,1)} parameter(0)
  ROOT %slice.143 = s8[4194304]{0:T(1024)(128)(4,1)S(1)} slice(%param_0.1579), slice={[20971520:25165824]}, backend_config={"flag_configs":[],"scoped_memory_configs":[],"used_scoped_memory_configs":[],"aliasing_operands":{"lists":[]}}
}

%async_computation.30 (param_0.1580: s8[33554432]) -> s8[4194304] {
  %param_0.1580 = s8[33554432]{0:T(1024)(128)(4,1)} parameter(0)
  ROOT %slice.145 = s8[4194304]{0:T(1024)(128)(4,1)S(1)} slice(%param_0.1580), slice={[25165824:29360128]}, backend_config={"flag_configs":[],"scoped_memory_configs":[],"used_scoped_memory_configs":[],"aliasing_operands":{"lists":[]}}
}

%async_computation.31 (param_0.1581: s8[33554432]) -> s8[4194304] {
  %param_0.1581 = s8[33554432]{0:T(1024)(128)(4,1)} parameter(0)
  ROOT %slice.147 = s8[4194304]{0:T(1024)(128)(4,1)S(1)} slice(%param_0.1581), slice={[29360128:33554432]}, backend_config={"flag_configs":[],"scoped_memory_configs":[],"used_scoped_memory_configs":[],"aliasing_operands":{"lists":[]}}
}

%wide.region_0.5_spmd.sunk.clone.clone.clone.sunk (wide.param.1: (s32[], bf16[1,128,4096], u32[4], u32[4,4], u32[4], /*index=5*/u32[4,4], u32[4], u32[4,4], u32[4], u32[4,4], /*index=10*/u32[4], u32[4,4], u32[4], u32[4,4], u32[4], /*index=15*/u32[4,4], u32[4], u32[4,4], u32[4], u32[4,4], /*index=20*/bf16[4,1,128,4096], bf16[4,4096], bf16[4,1024,32,128], bf16[1,128,1,128], bf16[1,128,1,128], /*index=25*/bf16[4,1024,8,128], bf16[4,1024,8,128], bf16[4,32,128,1024], bf16[4,4096], bf16[4,1024,14336], /*index=30*/bf16[4,1024,14336], bf16[4,14336,1024], u32[4], u32[4,4], u32[4], /*index=35*/u32[4,4], u32[4], u32[4,4], u32[4], u32[4,4], /*index=40*/u32[4], u32[4,4], u32[4], u32[4,4], u32[4], /*index=45*/u32[4,4], u32[4], u32[4,4], u32[4], u32[4,4], /*index=50*/s32[128], s32[], s8[1,1,1], s8[1,1,1], bf16[1,128,1,128], /*index=55*/bf16[1,128,1,128], s32[1,128])) -> (s32[], bf16[1,128,4096], u32[4], u32[4,4], u32[4], /*index=5*/u32[4,4], u32[4], u32[4,4], u32[4], u32[4,4], /*index=10*/u32[4], u32[4,4], u32[4], u32[4,4], u32[4], /*index=15*/u32[4,4], u32[4], u32[4,4], u32[4], u32[4,4], /*index=20*/bf16[4,1,128,4096], bf16[4,4096], bf16[4,1024,32,128], bf16[1,128,1,128], bf16[1,128,1,128], /*index=25*/bf16[4,1024,8,128], bf16[4,1024,8,128], bf16[4,32,128,1024], bf16[4,4096], bf16[4,1024,14336], /*index=30*/bf16[4,1024,14336], bf16[4,14336,1024], u32[4], u32[4,4], u32[4], /*index=35*/u32[4,4], u32[4], u32[4,4], u32[4], u32[4,4], /*index=40*/u32[4], u32[4,4], u32[4], u32[4,4], u32[4], /*index=45*/u32[4,4], u32[4], u32[4,4], u32[4], u32[4,4], /*index=50*/s32[128], s32[], s8[1,1,1], s8[1,1,1], bf16[1,128,1,128], /*index=55*/bf16[1,128,1,128], s32[1,128]) {
  %constant.398.clone..sunk.1 = s32[]{:T(128)} constant(1)
  %wide.param.1 = (s32[]{:T(128)}, bf16[1,128,4096]{2,1,0:T(8,128)(2,1)S(1)}, u32[4]{0:T(128)}, u32[4,4]{1,0:T(4,128)}, u32[4]{0:T(128)}, /*index=5*/u32[4,4]{1,0:T(4,128)}, u32[4]{0:T(128)}, u32[4,4]{1,0:T(4,128)}, u32[4]{0:T(128)}, u32[4,4]{1,0:T(4,128)}, /*index=10*/u32[4]{0:T(128)}, u32[4,4]{1,0:T(4,128)}, u32[4]{0:T(128)}, u32[4,4]{1,0:T(4,128)}, u32[4]{0:T(128)}, /*index=15*/u32[4,4]{1,0:T(4,128)}, u32[4]{0:T(128)}, u32[4,4]{1,0:T(4,128)}, u32[4]{0:T(128)}, u32[4,4]{1,0:T(4,128)}, /*index=20*/bf16[4,1,128,4096]{3,2,1,0:T(8,128)(2,1)}, bf16[4,4096]{1,0:T(4,128)(2,1)}, bf16[4,1024,32,128]{1,3,2,0:T(8,128)(2,1)}, bf16[1,128,1,128]{3,1,2,0:T(8,128)(2,1)S(1)}, bf16[1,128,1,128]{3,1,2,0:T(8,128)(2,1)S(1)}, /*index=25*/bf16[4,1024,8,128]{1,3,2,0:T(8,128)(2,1)}, bf16[4,1024,8,128]{3,1,2,0:T(8,128)(2,1)}, bf16[4,32,128,1024]{3,2,1,0:T(8,128)(2,1)}, bf16[4,4096]{1,0:T(4,128)(2,1)}, bf16[4,1024,14336]{2,1,0:T(8,128)(2,1)}, /*index=30*/bf16[4,1024,14336]{2,1,0:T(8,128)(2,1)}, bf16[4,14336,1024]{2,1,0:T(8,128)(2,1)}, u32[4]{0:T(128)}, u32[4,4]{1,0:T(4,128)}, u32[4]{0:T(128)}, /*index=35*/u32[4,4]{1,0:T(4,128)}, u32[4]{0:T(128)}, u32[4,4]{1,0:T(4,128)}, u32[4]{0:T(128)}, u32[4,4]{1,0:T(4,128)}, /*index=40*/u32[4]{0:T(128)}, u32[4,4]{1,0:T(4,128)}, u32[4]{0:T(128)}, u32[4,4]{1,0:T(4,128)}, u32[4]{0:T(128)}, /*index=45*/u32[4,4]{1,0:T(4,128)}, u32[4]{0:T(128)}, u32[4,4]{1,0:T(4,128)}, u32[4]{0:T(128)}, u32[4,4]{1,0:T(4,128)}, /*index=50*/s32[128]{0:T(128)S(1)}, s32[]{:T(128)}, s8[1,1,1]{2,1,0:T(4,128)(4,1)}, s8[1,1,1]{2,1,0:T(4,128)(4,1)}, bf16[1,128,1,128]{3,1,2,0:T(8,128)(2,1)}, /*index=55*/bf16[1,128,1,128]{3,1,2,0:T(8,128)(2,1)}, s32[1,128]{1,0:T(1,128)}) parameter(0)
  %get-tuple-element.2242 = s32[]{:T(128)} get-tuple-element(%wide.param.1), index=0
  %copy.283 = s32[]{:T(128)S(6)} copy(%get-tuple-element.2242), backend_config={"flag_configs":[],"scoped_memory_configs":[],"used_scoped_memory_configs":[],"aliasing_operands":{"lists":[]}}
  %add.887 = s32[]{:T(128)} add(%copy.283, %constant.398.clone..sunk.1), metadata={op_name="jit(train_step)/jvp()/while/body/add" stack_frame_id=0}, backend_config={"flag_configs":[],"scoped_memory_configs":[],"used_scoped_memory_configs":[],"aliasing_operands":{"lists":[]}}
  %get-tuple-element.2262 = bf16[4,1,128,4096]{3,2,1,0:T(8,128)(2,1)} get-tuple-element(%wide.param.1), index=20
  %get-tuple-element.2243 = bf16[1,128,4096]{2,1,0:T(8,128)(2,1)S(1)} get-tuple-element(%wide.param.1), index=1
  %bitcast_dynamic-update-slice_fusion.5 = bf16[4,1,128,4096]{3,2,1,0:T(8,128)(2,1)} fusion(%get-tuple-element.2262, %copy.283, %get-tuple-element.2243), kind=kLoop, calls=%fused_computation.54.clone.1, metadata={op_name="jit(train_step)/jvp()/while/body/jit(dynamic_update_index_in_dim)/dynamic_update_slice" stack_frame_id=0}, backend_config={"flag_configs":[],"scoped_memory_configs":[],"used_scoped_memory_configs":[],"aliasing_operands":{"lists":[{"indices":["0","3"]}]}}
  %get-tuple-element.2323 = bf16[4,32,128,1024]{3,2,1,0:T(8,128)(2,1)} get-tuple-element(%wide.param.1), index=27
  %dynamic-slice_convert_fusion.35 = bf16[1,32,128,1024]{3,2,1,0:T(8,128)(2,1)S(1)} fusion(%get-tuple-element.2323, %copy.283), kind=kLoop, calls=%fused_computation.18.clone.1, metadata={op_name="jit(train_step)/jvp()/while/body/closed_call/convert_element_type" stack_frame_id=0}, backend_config={"flag_configs":[],"scoped_memory_configs":[],"used_scoped_memory_configs":[],"aliasing_operands":{"lists":[]}}
  %all-gather.99 = bf16[1,32,128,4096]{3,2,1,0:T(8,128)(2,1)} all-gather(%dynamic-slice_convert_fusion.35), channel_id=103, replica_groups=mesh['axis_0'=1,'axis_1'=1,'axis_2'=4] {'axis_2'}, dimensions={3}, use_global_device_ids=true, metadata={op_name="jit(train_step)/jvp()/while/body/closed_call/dot_general" stack_frame_id=0}, backend_config={"flag_configs":[],"barrier_config":{"barrier_type":"CUSTOM","id":"0"},"scoped_memory_configs":[],"used_scoped_memory_configs":[],"aliasing_operands":{"lists":[]}}
  %get-tuple-element.2348 = s8[1,1,1]{2,1,0:T(4,128)(4,1)} get-tuple-element(%wide.param.1), index=52, metadata={op_name="jit(train_step)/sharding_constraint" stack_frame_id=0}
  %get-tuple-element.2349 = s8[1,1,1]{2,1,0:T(4,128)(4,1)} get-tuple-element(%wide.param.1), index=53, metadata={op_name="jit(train_step)/sharding_constraint" stack_frame_id=0}
  %get-tuple-element.2318 = bf16[4,1024,32,128]{1,3,2,0:T(8,128)(2,1)} get-tuple-element(%wide.param.1), index=22
  %dynamic-slice_convert_fusion.36 = bf16[1,1024,32,128]{1,3,2,0:T(8,128)(2,1)S(1)} fusion(%get-tuple-element.2318, %copy.283), kind=kLoop, calls=%fused_computation.19.clone.1, metadata={op_name="jit(train_step)/jvp()/while/body/closed_call/convert_element_type" stack_frame_id=0}, backend_config={"flag_configs":[],"scoped_memory_configs":[],"used_scoped_memory_configs":[],"aliasing_operands":{"lists":[]}}
  %all-gather.100 = bf16[1,4096,32,128]{1,3,2,0:T(8,128)(2,1)S(1)} all-gather(%dynamic-slice_convert_fusion.36), channel_id=100, replica_groups=mesh['axis_0'=4,'axis_1'=1,'axis_2'=1] {'axis_0'}, dimensions={1}, use_global_device_ids=true, metadata={op_name="jit(train_step)/jvp()/while/body/closed_call/dot_general" stack_frame_id=0}, backend_config={"flag_configs":[],"barrier_config":{"barrier_type":"CUSTOM","id":"0"},"scoped_memory_configs":[],"used_scoped_memory_configs":[],"aliasing_operands":{"lists":[]}}
  %fusion.499 = f32[128]{0:T(128)S(1)} fusion(%get-tuple-element.2243), kind=kLoop, calls=%fused_computation.40.clone.1, metadata={op_name="jit(train_step)/jvp()/while/body/closed_call/reduce_sum" stack_frame_id=0}, backend_config={"flag_configs":[],"scoped_memory_configs":[],"used_scoped_memory_configs":[],"aliasing_operands":{"lists":[]}}
  %add_rsqrt_fusion.4 = f32[128]{0:T(128)S(1)} fusion(%fusion.499), kind=kLoop, calls=%fused_computation.69.clone.1, metadata={op_name="jit(train_step)/jvp()/while/body/closed_call/rsqrt" stack_frame_id=0}, backend_config={"flag_configs":[],"scoped_memory_configs":[],"used_scoped_memory_configs":[],"aliasing_operands":{"lists":[]}}
  %get-tuple-element.2324 = bf16[4,4096]{1,0:T(4,128)(2,1)} get-tuple-element(%wide.param.1), index=28
  %get-tuple-element.2317 = bf16[4,4096]{1,0:T(4,128)(2,1)} get-tuple-element(%wide.param.1), index=21
  %convert_reduce_fusion.9 = (bf16[4096]{0:T(1024)(128)(2,1)}, bf16[4096]{0:T(1024)(128)(2,1)S(1)}) fusion(%get-tuple-element.2324, %copy.283, %get-tuple-element.2317), kind=kLoop, calls=%fused_computation.66.clone.1, metadata={op_name="jit(train_step)/jvp()/while/body/closed_call/convert_element_type" stack_frame_id=0}, backend_config={"flag_configs":[],"scoped_memory_configs":[],"used_scoped_memory_configs":[],"fusion_formation_source":{"fusion_creating_compiler_pass":"TpuAdvancedMOF","fusion_id":"42"},"aliasing_operands":{"lists":[]}}
  %get-tuple-element.2179 = bf16[4096]{0:T(1024)(128)(2,1)S(1)} get-tuple-element(%convert_reduce_fusion.9), index=1, metadata={op_name="jit(train_step)/jvp()/while/body/closed_call/convert_element_type" stack_frame_id=0}
  %fusion.500 = bf16[1,128,32,128]{3,1,2,0:T(8,128)(2,1)S(1)} fusion(%all-gather.100, %get-tuple-element.2243, %add_rsqrt_fusion.4, %get-tuple-element.2179), kind=kOutput, calls=%fused_computation.57.clone.1, metadata={op_name="jit(train_step)/jvp()/while/body/closed_call/dot_general" stack_frame_id=0}, backend_config={"flag_configs":[],"scoped_memory_configs":[],"used_scoped_memory_configs":[],"aliasing_operands":{"lists":[]}}
  %bitcast.912 = s8[33554432]{0:T(1024)(128)(4,1)} bitcast(%all-gather.99)
  %slice-start.24 = ((s8[33554432]{0:T(1024)(128)(4,1)}), s8[4194304]{0:T(1024)(128)(4,1)S(1)}, s32[]{:S(2)}) async-start(%bitcast.912), calls=%async_computation.24
  %slice_negate_fusion.12 = (bf16[1,128,32,64]{3,1,2,0:T(8,128)(2,1)S(1)}, bf16[1,128,32,64]{3,1,2,0:T(8,128)(2,1)S(1)}) fusion(%fusion.500), kind=kLoop, calls=%fused_computation.49.clone.1, metadata={op_name="jit(train_step)/jvp()/while/body/closed_call/neg" stack_frame_id=0}, backend_config={"flag_configs":[],"scoped_memory_configs":[],"used_scoped_memory_configs":[],"aliasing_operands":{"lists":[]}}
  %get-tuple-element.2180 = bf16[1,128,32,64]{3,1,2,0:T(8,128)(2,1)S(1)} get-tuple-element(%slice_negate_fusion.12), index=1, metadata={op_name="jit(train_step)/jvp()/while/body/closed_call/neg" stack_frame_id=0}
  %get-tuple-element.2181 = bf16[1,128,32,64]{3,1,2,0:T(8,128)(2,1)S(1)} get-tuple-element(%slice_negate_fusion.12), index=0, metadata={op_name="jit(train_step)/jvp()/while/body/closed_call/neg" stack_frame_id=0}
  %get-tuple-element.2320 = bf16[1,128,1,128]{3,1,2,0:T(8,128)(2,1)S(1)} get-tuple-element(%wide.param.1), index=24
  %get-tuple-element.2319 = bf16[1,128,1,128]{3,1,2,0:T(8,128)(2,1)S(1)} get-tuple-element(%wide.param.1), index=23
  %slice-start.25 = ((s8[33554432]{0:T(1024)(128)(4,1)}), s8[4194304]{0:T(1024)(128)(4,1)S(1)}, s32[]{:S(2)}) async-start(%bitcast.912), calls=%async_computation.25
  %bitcast.935 = bf16[128,128]{1,0:T(8,128)(2,1)S(1)} bitcast(%get-tuple-element.2320)
  %bitcast.933 = bf16[128,128]{1,0:T(8,128)(2,1)S(1)} bitcast(%get-tuple-element.2319)
  %fusion.501 = bf16[32,128,128]{2,1,0:T(8,128)(2,1)S(1)} fusion(%get-tuple-element.2180, %get-tuple-element.2181, %fusion.500, %bitcast.935, %bitcast.933), kind=kLoop, calls=%fused_computation.52.clone.1, metadata={op_name="jit(train_step)/jvp()/while/body/closed_call/shard_map/vmap(static_sparsity_splash)/jit(_splash_attention)/splash_mha_fwd_segmented_residuals/splash_mha_fwd_segmented_residuals/squeeze" stack_frame_id=0}, backend_config={"flag_configs":[],"scoped_memory_configs":[],"used_scoped_memory_configs":[],"aliasing_operands":{"lists":[]}}
  %get-tuple-element.2321 = bf16[4,1024,8,128]{1,3,2,0:T(8,128)(2,1)} get-tuple-element(%wide.param.1), index=25
  %dynamic-slice_convert_fusion.37 = bf16[1,1024,8,128]{1,3,2,0:T(8,128)(2,1)S(1)} fusion(%get-tuple-element.2321, %copy.283), kind=kLoop, calls=%fused_computation.29.clone.1, metadata={op_name="jit(train_step)/jvp()/while/body/closed_call/convert_element_type" stack_frame_id=0}, backend_config={"flag_configs":[],"scoped_memory_configs":[],"used_scoped_memory_configs":[],"aliasing_operands":{"lists":[]}}
  %slice-start.26 = ((s8[33554432]{0:T(1024)(128)(4,1)}), s8[4194304]{0:T(1024)(128)(4,1)S(1)}, s32[]{:S(2)}) async-start(%bitcast.912), calls=%async_computation.26
  %slice-start.27 = ((s8[33554432]{0:T(1024)(128)(4,1)}), s8[4194304]{0:T(1024)(128)(4,1)S(1)}, s32[]{:S(2)}) async-start(%bitcast.912), calls=%async_computation.27
  %all-gather.101 = bf16[1,4096,8,128]{1,3,2,0:T(8,128)(2,1)S(1)} all-gather(%dynamic-slice_convert_fusion.37), channel_id=101, replica_groups=mesh['axis_0'=4,'axis_1'=1,'axis_2'=1] {'axis_0'}, dimensions={1}, use_global_device_ids=true, metadata={op_name="jit(train_step)/jvp()/while/body/closed_call/dot_general" stack_frame_id=0}, backend_config={"flag_configs":[],"barrier_config":{"barrier_type":"CUSTOM","id":"0"},"scoped_memory_configs":[],"used_scoped_memory_configs":[],"aliasing_operands":{"lists":[]}}
  %slice-start.28 = ((s8[33554432]{0:T(1024)(128)(4,1)}), s8[4194304]{0:T(1024)(128)(4,1)S(1)}, s32[]{:S(2)}) async-start(%bitcast.912), calls=%async_computation.28
  %fusion.502 = bf16[1,128,8,128]{3,1,2,0:T(8,128)(2,1)S(1)} fusion(%all-gather.101, %get-tuple-element.2243, %add_rsqrt_fusion.4, %get-tuple-element.2179), kind=kOutput, calls=%fused_computation.58.clone.1, metadata={op_name="jit(train_step)/jvp()/while/body/closed_call/dot_general" stack_frame_id=0}, backend_config={"flag_configs":[],"scoped_memory_configs":[],"used_scoped_memory_configs":[],"aliasing_operands":{"lists":[]}}
  %slice_negate_fusion.13 = (bf16[1,128,8,64]{3,1,2,0:T(8,128)(2,1)S(1)}, bf16[1,128,8,64]{3,1,2,0:T(8,128)(2,1)S(1)}) fusion(%fusion.502), kind=kLoop, calls=%fused_computation.62.clone.1, metadata={op_name="jit(train_step)/jvp()/while/body/closed_call/neg" stack_frame_id=0}, backend_config={"flag_configs":[],"scoped_memory_configs":[],"used_scoped_memory_configs":[],"aliasing_operands":{"lists":[]}}
  %get-tuple-element.2182 = bf16[1,128,8,64]{3,1,2,0:T(8,128)(2,1)S(1)} get-tuple-element(%slice_negate_fusion.13), index=1, metadata={op_name="jit(train_step)/jvp()/while/body/closed_call/neg" stack_frame_id=0}
  %get-tuple-element.2183 = bf16[1,128,8,64]{3,1,2,0:T(8,128)(2,1)S(1)} get-tuple-element(%slice_negate_fusion.13), index=0, metadata={op_name="jit(train_step)/jvp()/while/body/closed_call/neg" stack_frame_id=0}
  %bitcast.936 = bf16[128,128]{1,0:T(8,128)(2,1)S(1)} bitcast(%get-tuple-element.2320)
  %bitcast.934 = bf16[128,128]{1,0:T(8,128)(2,1)S(1)} bitcast(%get-tuple-element.2319)
  %fusion.503 = bf16[8,128,128]{2,1,0:T(8,128)(2,1)S(1)} fusion(%get-tuple-element.2182, %get-tuple-element.2183, %fusion.502, %bitcast.936, %bitcast.934), kind=kLoop, calls=%fused_computation.65.clone.1, metadata={op_name="jit(train_step)/jvp()/while/body/closed_call/shard_map/vmap(static_sparsity_splash)/jit(_splash_attention)/splash_mha_fwd_segmented_residuals/splash_mha_fwd_segmented_residuals/squeeze" stack_frame_id=0}, backend_config={"flag_configs":[],"scoped_memory_configs":[],"used_scoped_memory_configs":[],"aliasing_operands":{"lists":[]}}
  %get-tuple-element.2322 = bf16[4,1024,8,128]{3,1,2,0:T(8,128)(2,1)} get-tuple-element(%wide.param.1), index=26
  %slice-start.29 = ((s8[33554432]{0:T(1024)(128)(4,1)}), s8[4194304]{0:T(1024)(128)(4,1)S(1)}, s32[]{:S(2)}) async-start(%bitcast.912), calls=%async_computation.29
  %dynamic-slice_convert_fusion.38 = bf16[1,1024,8,128]{3,1,2,0:T(8,128)(2,1)S(1)} fusion(%get-tuple-element.2322, %copy.283), kind=kLoop, calls=%fused_computation.28.clone.1, metadata={op_name="jit(train_step)/jvp()/while/body/closed_call/convert_element_type" stack_frame_id=0}, backend_config={"flag_configs":[],"scoped_memory_configs":[],"used_scoped_memory_configs":[],"aliasing_operands":{"lists":[]}}
  %slice-start.30 = ((s8[33554432]{0:T(1024)(128)(4,1)}), s8[4194304]{0:T(1024)(128)(4,1)S(1)}, s32[]{:S(2)}) async-start(%bitcast.912), calls=%async_computation.30
  %all-gather.102 = bf16[1,4096,8,128]{3,1,2,0:T(8,128)(2,1)S(1)} all-gather(%dynamic-slice_convert_fusion.38), channel_id=102, replica_groups=mesh['axis_0'=4,'axis_1'=1,'axis_2'=1] {'axis_0'}, dimensions={1}, use_global_device_ids=true, metadata={op_name="jit(train_step)/jvp()/while/body/closed_call/dot_general" stack_frame_id=0}, backend_config={"flag_configs":[],"barrier_config":{"barrier_type":"CUSTOM","id":"0"},"scoped_memory_configs":[],"used_scoped_memory_configs":[],"aliasing_operands":{"lists":[]}}
  %slice-start.31 = ((s8[33554432]{0:T(1024)(128)(4,1)}), s8[4194304]{0:T(1024)(128)(4,1)S(1)}, s32[]{:S(2)}) async-start(%bitcast.912), calls=%async_computation.31
  %fusion.504 = bf16[8,128,128]{2,1,0:T(8,128)(2,1)S(1)} fusion(%all-gather.102, %get-tuple-element.2243, %add_rsqrt_fusion.4, %get-tuple-element.2179), kind=kOutput, calls=%fused_computation.59.clone.1, metadata={op_name="jit(train_step)/jvp()/while/body/closed_call/dot_general" stack_frame_id=0}, backend_config={"flag_configs":[],"scoped_memory_configs":[],"used_scoped_memory_configs":[],"aliasing_operands":{"lists":[]}}
  %get-tuple-element.2346 = s32[128]{0:T(128)S(1)} get-tuple-element(%wide.param.1), index=50
  %squeeze.277 = s32[128,128]{1,0:T(8,128)S(1)} broadcast(%get-tuple-element.2346), dimensions={0}, metadata={op_name="jit(train_step)/shard_map/vmap(static_sparsity_splash)/jit(_splash_attention)/splash_mha_fwd_segmented_residuals/splash_mha_fwd_segmented_residuals/squeeze" stack_frame_id=0}, backend_config={"flag_configs":[],"scoped_memory_configs":[],"used_scoped_memory_configs":[],"output_chunk_bound_config":{"output_chunk_bound":["8"]},"aliasing_operands":{"lists":[]}}
  %squeeze.278 = s32[8,128]{1,0:T(8,128)S(1)} broadcast(%get-tuple-element.2346), dimensions={1}, metadata={op_name="jit(train_step)/shard_map/vmap(static_sparsity_splash)/jit(_splash_attention)/splash_mha_fwd_segmented_residuals/splash_mha_fwd_segmented_residuals/squeeze" stack_frame_id=0}, backend_config={"flag_configs":[],"scoped_memory_configs":[],"used_scoped_memory_configs":[],"output_chunk_bound_config":{"output_chunk_bound":["128"]},"aliasing_operands":{"lists":[]}}
  %iota.68 = s32[128,128]{1,0:T(8,128)S(1)} iota(), iota_dimension=0, metadata={op_name="jit(train_step)/shard_map/vmap(static_sparsity_splash)/jit(_splash_attention)/broadcast_in_dim" stack_frame_id=0}, backend_config={"flag_configs":[],"scoped_memory_configs":[],"used_scoped_memory_configs":[],"aliasing_operands":{"lists":[]}}
  %splash_mha_fwd_segmented_residuals.3 = (f32[128,128]{1,0:T(8,128)}, f32[128,128]{1,0:T(8,128)}, f32[128,128]{1,0:T(8,128)}, bf16[32,128,128]{2,1,0:T(8,128)(2,1)S(1)}, f32[32,128,128]{2,1,0:T(8,128)}) custom-call(%get-tuple-element.2348, %get-tuple-element.2349, %fusion.501, %fusion.503, %fusion.504, /*index=5*/%squeeze.277, %squeeze.278, %iota.68), custom_call_target="tpu_custom_call", operand_layout_constraints={s8[1,1,1]{2,1,0}, s8[1,1,1]{2,1,0}, bf16[32,128,128]{2,1,0}, bf16[8,128,128]{2,1,0}, bf16[8,128,128]{2,1,0}, s32[128,128]{1,0}, s32[8,128]{1,0}, s32[128,128]{1,0}}, frontend_attributes={kernel_metadata={
"xprof_metadata":"{\"block_q\": 128, \"block_kv\": 128, \"block_kv_compute\": 128, \"block_q_dkv\": 128, \"block_kv_dkv\": 128, \"block_kv_dkv_compute\": 128, \"block_q_dq\": 128, \"block_kv_dq\": 128, \"use_fused_bwd_kernel\": false, \"q_layout\": 1, \"k_layout\": 1, \"v_layout\": 1}"
}}, metadata={op_name="jit(train_step)/jvp()/while/body/closed_call/shard_map/vmap(static_sparsity_splash)/jit(_splash_attention)/splash_mha_fwd_segmented_residuals/splash_mha_fwd_segmented_residuals/pallas_call" stack_frame_id=0}, backend_config={"flag_configs":[],"scoped_memory_configs":[],"custom_call_config":{"body":"…","needs_layout_passes":true,"allow_input_fusion":[],"serialization_format":"1","output_memory_colors":[],"output_memory_space_colors":[],"input_memory_space_colors":[]},"used_scoped_memory_configs":[],"aliasing_operands":{"lists":[]}}
  %get-tuple-element.2184 = bf16[32,128,128]{2,1,0:T(8,128)(2,1)S(1)} get-tuple-element(%splash_mha_fwd_segmented_residuals.3), index=3, frontend_attributes={kernel_metadata={
"xprof_metadata":"{\"block_q\": 128, \"block_kv\": 128, \"block_kv_compute\": 128, \"block_q_dkv\": 128, \"block_kv_dkv\": 128, \"block_kv_dkv_compute\": 128, \"block_q_dq\": 128, \"block_kv_dq\": 128, \"use_fused_bwd_kernel\": false, \"q_layout\": 1, \"k_layout\": 1, \"v_layout\": 1}"
}}, metadata={op_name="jit(train_step)/jvp()/while/body/closed_call/shard_map/vmap(static_sparsity_splash)/jit(_splash_attention)/splash_mha_fwd_segmented_residuals/splash_mha_fwd_segmented_residuals/pallas_call" stack_frame_id=0}
  %slice-done.24 = s8[4194304]{0:T(1024)(128)(4,1)S(1)} async-done(%slice-start.24)
  %slice-done.25 = s8[4194304]{0:T(1024)(128)(4,1)S(1)} async-done(%slice-start.25)
  %slice-done.26 = s8[4194304]{0:T(1024)(128)(4,1)S(1)} async-done(%slice-start.26)
  %slice-done.27 = s8[4194304]{0:T(1024)(128)(4,1)S(1)} async-done(%slice-start.27)
  %slice-done.28 = s8[4194304]{0:T(1024)(128)(4,1)S(1)} async-done(%slice-start.28)
  %slice-done.29 = s8[4194304]{0:T(1024)(128)(4,1)S(1)} async-done(%slice-start.29)
  %slice-done.30 = s8[4194304]{0:T(1024)(128)(4,1)S(1)} async-done(%slice-start.30)
  %slice-done.31 = s8[4194304]{0:T(1024)(128)(4,1)S(1)} async-done(%slice-start.31)
  %custom-call.24 = bf16[1,32,128,4096]{3,2,1,0:T(8,128)(2,1)S(1)} custom-call(%slice-done.24, %slice-done.25, %slice-done.26, %slice-done.27, %slice-done.28, /*index=5*/%slice-done.29, %slice-done.30, %slice-done.31), custom_call_target="ConcatBitcast", backend_config={"flag_configs":[],"scoped_memory_configs":[],"used_scoped_memory_configs":[],"aliasing_operands":{"lists":[]}}
  %bitcast.913 = bf16[1,32,128,4096]{3,2,1,0:T(8,128)(2,1)S(1)} bitcast(%custom-call.24)
  %fusion.505 = (f32[128]{0:T(128)}, bf16[1,128,4096]{2,1,0:T(8,128)(2,1)}) fusion(%get-tuple-element.2243, %bitcast.913, %get-tuple-element.2184), kind=kOutput, calls=%fused_computation.42.clone.1, metadata={op_name="jit(train_step)/jvp()/while/body/closed_call/dot_general" stack_frame_id=0}, backend_config={"flag_configs":[],"scoped_memory_configs":[],"used_scoped_memory_configs":[],"aliasing_operands":{"lists":[]}}
  %get-tuple-element.2185 = bf16[1,128,4096]{2,1,0:T(8,128)(2,1)} get-tuple-element(%fusion.505), index=1, metadata={op_name="jit(train_step)/jvp()/while/body/closed_call/reduce_sum" stack_frame_id=0}
  %get-tuple-element.2327 = bf16[4,14336,1024]{2,1,0:T(8,128)(2,1)} get-tuple-element(%wide.param.1), index=31
  %dynamic-slice_convert_fusion.39 = bf16[1,14336,1024]{2,1,0:T(8,128)(2,1)S(1)} fusion(%get-tuple-element.2327, %copy.283), kind=kLoop, calls=%fused_computation.11.clone.1, metadata={op_name="jit(train_step)/jvp()/while/body/closed_call/convert_element_type" stack_frame_id=0}, backend_config={"flag_configs":[],"scoped_memory_configs":[],"used_scoped_memory_configs":[],"aliasing_operands":{"lists":[]}}
  %all-gather.103 = bf16[1,14336,4096]{2,1,0:T(8,128)(2,1)} all-gather(%dynamic-slice_convert_fusion.39), channel_id=106, replica_groups=mesh['axis_0'=1,'axis_1'=4] {'axis_1'}, dimensions={2}, use_global_device_ids=true, metadata={op_name="jit(train_step)/jvp()/while/body/closed_call/dot_general" stack_frame_id=0}, backend_config={"flag_configs":[],"barrier_config":{"barrier_type":"CUSTOM","id":"0"},"scoped_memory_configs":[],"used_scoped_memory_configs":[],"aliasing_operands":{"lists":[]}}
  %get-tuple-element.2326 = bf16[4,1024,14336]{2,1,0:T(8,128)(2,1)} get-tuple-element(%wide.param.1), index=30
  %dynamic-slice_convert_fusion.40 = bf16[1,1024,14336]{2,1,0:T(8,128)(2,1)S(1)} fusion(%get-tuple-element.2326, %copy.283), kind=kLoop, calls=%fused_computation.12.clone.1, metadata={op_name="jit(train_step)/jvp()/while/body/closed_call/convert_element_type" stack_frame_id=0}, backend_config={"flag_configs":[],"scoped_memory_configs":[],"used_scoped_memory_configs":[],"aliasing_operands":{"lists":[]}}
  %all-gather.104 = bf16[1,4096,14336]{2,1,0:T(8,128)(2,1)} all-gather(%dynamic-slice_convert_fusion.40), channel_id=105, replica_groups=mesh['axis_0'=4,'axis_1'=1] {'axis_0'}, dimensions={1}, use_global_device_ids=true, metadata={op_name="jit(train_step)/jvp()/while/body/closed_call/dot_general" stack_frame_id=0}, backend_config={"flag_configs":[],"barrier_config":{"barrier_type":"CUSTOM","id":"0"},"scoped_memory_configs":[],"used_scoped_memory_configs":[],"aliasing_operands":{"lists":[]}}
  %get-tuple-element.2325 = bf16[4,1024,14336]{2,1,0:T(8,128)(2,1)} get-tuple-element(%wide.param.1), index=29
  %dynamic-slice_convert_fusion.41 = bf16[1,1024,14336]{2,1,0:T(8,128)(2,1)S(1)} fusion(%get-tuple-element.2325, %copy.283), kind=kLoop, calls=%fused_computation.13.clone.1, metadata={op_name="jit(train_step)/jvp()/while/body/closed_call/convert_element_type" stack_frame_id=0}, backend_config={"flag_configs":[],"scoped_memory_configs":[],"used_scoped_memory_configs":[],"aliasing_operands":{"lists":[]}}
  %get-tuple-element.2186 = f32[128]{0:T(128)} get-tuple-element(%fusion.505), index=0, metadata={op_name="jit(train_step)/jvp()/while/body/closed_call/reduce_sum" stack_frame_id=0}
  %copy-start.127 = (f32[128]{0:T(128)S(1)}, f32[128]{0:T(128)}, u32[]{:S(2)}) copy-start(%get-tuple-element.2186)
  %copy-start.3 = (bf16[1,128,4096]{2,1,0:T(8,128)(2,1)S(1)}, bf16[1,128,4096]{2,1,0:T(8,128)(2,1)}, u32[]{:S(2)}) copy-start(%get-tuple-element.2185)
  %get-tuple-element.2187 = bf16[4096]{0:T(1024)(128)(2,1)} get-tuple-element(%convert_reduce_fusion.9), index=0, metadata={op_name="jit(train_step)/jvp()/while/body/closed_call/convert_element_type" stack_frame_id=0}
  %copy-start.50 = (bf16[4096]{0:T(1024)(128)(2,1)S(1)}, bf16[4096]{0:T(1024)(128)(2,1)}, u32[]{:S(2)}) copy-start(%get-tuple-element.2187)
  %all-gather.105 = bf16[1,4096,14336]{2,1,0:T(8,128)(2,1)} all-gather(%dynamic-slice_convert_fusion.41), channel_id=104, replica_groups=mesh['axis_0'=4,'axis_1'=1] {'axis_0'}, dimensions={1}, use_global_device_ids=true, metadata={op_name="jit(train_step)/jvp()/while/body/closed_call/dot_general" stack_frame_id=0}, backend_config={"flag_configs":[],"barrier_config":{"barrier_type":"CUSTOM","id":"0"},"scoped_memory_configs":[],"used_scoped_memory_configs":[],"aliasing_operands":{"lists":[]}}
  %copy-done.127 = f32[128]{0:T(128)S(1)} copy-done(%copy-start.127)
  %add_rsqrt_fusion.5 = f32[128]{0:T(128)S(1)} fusion(%copy-done.127), kind=kLoop, calls=%fused_computation.68.clone.1, metadata={op_name="jit(train_step)/jvp()/while/body/closed_call/rsqrt" stack_frame_id=0}, backend_config={"flag_configs":[],"scoped_memory_configs":[],"used_scoped_memory_configs":[],"aliasing_operands":{"lists":[]}}
  %copy-done.3 = bf16[1,128,4096]{2,1,0:T(8,128)(2,1)S(1)} copy-done(%copy-start.3)
  %copy-done.50 = bf16[4096]{0:T(1024)(128)(2,1)S(1)} copy-done(%copy-start.50)
  %get-tuple-element.2328 = u32[4]{0:T(128)} get-tuple-element(%wide.param.1), index=32, metadata={op_name="jit(train_step)/jvp()/while/body/jit(dynamic_update_index_in_dim)/dynamic_update_slice" stack_frame_id=0}
  %copy-start.143 = (u32[4]{0:T(128)S(1)}, u32[4]{0:T(128)}, u32[]{:S(2)}) copy-start(%get-tuple-element.2328)
  %fusion.506 = bf16[1,128,14336]{2,1,0:T(8,128)(2,1)S(1)} fusion(%all-gather.105, %copy-done.3, %add_rsqrt_fusion.5, %copy-done.50), kind=kOutput, calls=%fused_computation.24.clone.1, metadata={op_name="jit(train_step)/jvp()/while/body/closed_call/dot_general" stack_frame_id=0}, backend_config={"flag_configs":[],"scoped_memory_configs":[],"used_scoped_memory_configs":[],"aliasing_operands":{"lists":[]}}
  %get-tuple-element.2329 = u32[4,4]{1,0:T(4,128)} get-tuple-element(%wide.param.1), index=33, metadata={op_name="jit(train_step)/jvp()/while/body/jit(dynamic_update_index_in_dim)/dynamic_update_slice" stack_frame_id=0}
  %copy-start.128 = (u32[4,4]{1,0:T(4,128)S(1)}, u32[4,4]{1,0:T(4,128)}, u32[]{:S(2)}) copy-start(%get-tuple-element.2329)
  %get-tuple-element.2330 = u32[4]{0:T(128)} get-tuple-element(%wide.param.1), index=34, metadata={op_name="jit(train_step)/jvp()/while/body/jit(dynamic_update_index_in_dim)/dynamic_update_slice" stack_frame_id=0}
  %copy-start.144 = (u32[4]{0:T(128)S(1)}, u32[4]{0:T(128)}, u32[]{:S(2)}) copy-start(%get-tuple-element.2330)
  %get-tuple-element.2331 = u32[4,4]{1,0:T(4,128)} get-tuple-element(%wide.param.1), index=35, metadata={op_name="jit(train_step)/jvp()/while/body/jit(dynamic_update_index_in_dim)/dynamic_update_slice" stack_frame_id=0}
  %copy-start.129 = (u32[4,4]{1,0:T(4,128)S(1)}, u32[4,4]{1,0:T(4,128)}, u32[]{:S(2)}) copy-start(%get-tuple-element.2331)
  %get-tuple-element.2332 = u32[4]{0:T(128)} get-tuple-element(%wide.param.1), index=36, metadata={op_name="jit(train_step)/jvp()/while/body/jit(dynamic_update_index_in_dim)/dynamic_update_slice" stack_frame_id=0}
  %copy-start.145 = (u32[4]{0:T(128)S(1)}, u32[4]{0:T(128)}, u32[]{:S(2)}) copy-start(%get-tuple-element.2332)
  %get-tuple-element.2333 = u32[4,4]{1,0:T(4,128)} get-tuple-element(%wide.param.1), index=37, metadata={op_name="jit(train_step)/jvp()/while/body/jit(dynamic_update_index_in_dim)/dynamic_update_slice" stack_frame_id=0}
  %copy-start.130 = (u32[4,4]{1,0:T(4,128)S(1)}, u32[4,4]{1,0:T(4,128)}, u32[]{:S(2)}) copy-start(%get-tuple-element.2333)
  %get-tuple-element.2334 = u32[4]{0:T(128)} get-tuple-element(%wide.param.1), index=38, metadata={op_name="jit(train_step)/jvp()/while/body/jit(dynamic_update_index_in_dim)/dynamic_update_slice" stack_frame_id=0}
  %copy-start.146 = (u32[4]{0:T(128)S(1)}, u32[4]{0:T(128)}, u32[]{:S(2)}) copy-start(%get-tuple-element.2334)
  %get-tuple-element.2335 = u32[4,4]{1,0:T(4,128)} get-tuple-element(%wide.param.1), index=39, metadata={op_name="jit(train_step)/jvp()/while/body/jit(dynamic_update_index_in_dim)/dynamic_update_slice" stack_frame_id=0}
  %copy-start.131 = (u32[4,4]{1,0:T(4,128)S(1)}, u32[4,4]{1,0:T(4,128)}, u32[]{:S(2)}) copy-start(%get-tuple-element.2335)
  %get-tuple-element.2336 = u32[4]{0:T(128)} get-tuple-element(%wide.param.1), index=40, metadata={op_name="jit(train_step)/jvp()/while/body/jit(dynamic_update_index_in_dim)/dynamic_update_slice" stack_frame_id=0}
  %copy-start.147 = (u32[4]{0:T(128)S(1)}, u32[4]{0:T(128)}, u32[]{:S(2)}) copy-start(%get-tuple-element.2336)
  %get-tuple-element.2337 = u32[4,4]{1,0:T(4,128)} get-tuple-element(%wide.param.1), index=41, metadata={op_name="jit(train_step)/jvp()/while/body/jit(dynamic_update_index_in_dim)/dynamic_update_slice" stack_frame_id=0}
  %copy-start.132 = (u32[4,4]{1,0:T(4,128)S(1)}, u32[4,4]{1,0:T(4,128)}, u32[]{:S(2)}) copy-start(%get-tuple-element.2337)
  %get-tuple-element.2338 = u32[4]{0:T(128)} get-tuple-element(%wide.param.1), index=42, metadata={op_name="jit(train_step)/jvp()/while/body/jit(dynamic_update_index_in_dim)/dynamic_update_slice" stack_frame_id=0}
  %copy-start.148 = (u32[4]{0:T(128)S(1)}, u32[4]{0:T(128)}, u32[]{:S(2)}) copy-start(%get-tuple-element.2338)
  %get-tuple-element.2339 = u32[4,4]{1,0:T(4,128)} get-tuple-element(%wide.param.1), index=43, metadata={op_name="jit(train_step)/jvp()/while/body/jit(dynamic_update_index_in_dim)/dynamic_update_slice" stack_frame_id=0}
  %copy-start.133 = (u32[4,4]{1,0:T(4,128)S(1)}, u32[4,4]{1,0:T(4,128)}, u32[]{:S(2)}) copy-start(%get-tuple-element.2339)
  %get-tuple-element.2340 = u32[4]{0:T(128)} get-tuple-element(%wide.param.1), index=44, metadata={op_name="jit(train_step)/jvp()/while/body/jit(dynamic_update_index_in_dim)/dynamic_update_slice" stack_frame_id=0}
  %copy-start.149 = (u32[4]{0:T(128)S(1)}, u32[4]{0:T(128)}, u32[]{:S(2)}) copy-start(%get-tuple-element.2340)
  %get-tuple-element.2341 = u32[4,4]{1,0:T(4,128)} get-tuple-element(%wide.param.1), index=45, metadata={op_name="jit(train_step)/jvp()/while/body/jit(dynamic_update_index_in_dim)/dynamic_update_slice" stack_frame_id=0}
  %copy-start.134 = (u32[4,4]{1,0:T(4,128)S(1)}, u32[4,4]{1,0:T(4,128)}, u32[]{:S(2)}) copy-start(%get-tuple-element.2341)
  %get-tuple-element.2342 = u32[4]{0:T(128)} get-tuple-element(%wide.param.1), index=46, metadata={op_name="jit(train_step)/jvp()/while/body/jit(dynamic_update_index_in_dim)/dynamic_update_slice" stack_frame_id=0}
  %copy-start.150 = (u32[4]{0:T(128)S(1)}, u32[4]{0:T(128)}, u32[]{:S(2)}) copy-start(%get-tuple-element.2342)
  %get-tuple-element.2343 = u32[4,4]{1,0:T(4,128)} get-tuple-element(%wide.param.1), index=47, metadata={op_name="jit(train_step)/jvp()/while/body/jit(dynamic_update_index_in_dim)/dynamic_update_slice" stack_frame_id=0}
  %copy-start.135 = (u32[4,4]{1,0:T(4,128)S(1)}, u32[4,4]{1,0:T(4,128)}, u32[]{:S(2)}) copy-start(%get-tuple-element.2343)
  %get-tuple-element.2344 = u32[4]{0:T(128)} get-tuple-element(%wide.param.1), index=48, metadata={op_name="jit(train_step)/jvp()/while/body/jit(dynamic_update_index_in_dim)/dynamic_update_slice" stack_frame_id=0}
  %copy-start.151 = (u32[4]{0:T(128)S(1)}, u32[4]{0:T(128)}, u32[]{:S(2)}) copy-start(%get-tuple-element.2344)
  %get-tuple-element.2345 = u32[4,4]{1,0:T(4,128)} get-tuple-element(%wide.param.1), index=49, metadata={op_name="jit(train_step)/jvp()/while/body/jit(dynamic_update_index_in_dim)/dynamic_update_slice" stack_frame_id=0}
  %copy-start.136 = (u32[4,4]{1,0:T(4,128)S(1)}, u32[4,4]{1,0:T(4,128)}, u32[]{:S(2)}) copy-start(%get-tuple-element.2345)
  %get-tuple-element.2761 = bf16[1,128,1,128]{3,1,2,0:T(8,128)(2,1)} get-tuple-element(%wide.param.1), index=54
  %copy-start.75 = (bf16[1,128,1,128]{3,1,2,0:T(8,128)(2,1)S(1)}, bf16[1,128,1,128]{3,1,2,0:T(8,128)(2,1)}, u32[]{:S(2)}) copy-start(%get-tuple-element.2761)
  %get-tuple-element.2817 = bf16[1,128,1,128]{3,1,2,0:T(8,128)(2,1)} get-tuple-element(%wide.param.1), index=55
  %copy-start.77 = (bf16[1,128,1,128]{3,1,2,0:T(8,128)(2,1)S(1)}, bf16[1,128,1,128]{3,1,2,0:T(8,128)(2,1)}, u32[]{:S(2)}) copy-start(%get-tuple-element.2817)
  %get-tuple-element.2874 = s32[1,128]{1,0:T(1,128)} get-tuple-element(%wide.param.1), index=56
  %copy-start.106 = (s32[1,128]{1,0:T(1,128)S(1)}, s32[1,128]{1,0:T(1,128)}, u32[]{:S(2)}) copy-start(%get-tuple-element.2874)
  %fusion.507 = bf16[1,128,4096]{2,1,0:T(8,128)(2,1)S(1)} fusion(%copy-done.3, %all-gather.103, %all-gather.104, %fusion.506, %add_rsqrt_fusion.5, /*index=5*/%copy-done.50), kind=kOutput, calls=%fused_computation.38.clone.1, metadata={op_name="jit(train_step)/jvp()/while/body/closed_call/dot_general" stack_frame_id=0}, backend_config={"flag_configs":[],"scoped_memory_configs":[],"used_scoped_memory_configs":[],"aliasing_operands":{"lists":[]}}
  %copy-done.143 = u32[4]{0:T(128)S(1)} copy-done(%copy-start.143)
  %copy.306 = u32[4]{0:T(128)} copy(%copy-done.143), backend_config={"flag_configs":[],"scoped_memory_configs":[],"used_scoped_memory_configs":[],"aliasing_operands":{"lists":[]}}
  %copy-done.128 = u32[4,4]{1,0:T(4,128)S(1)} copy-done(%copy-start.128)
  %copy.307 = u32[4,4]{1,0:T(4,128)} copy(%copy-done.128), backend_config={"flag_configs":[],"scoped_memory_configs":[],"used_scoped_memory_configs":[],"aliasing_operands":{"lists":[]}}
  %copy-done.144 = u32[4]{0:T(128)S(1)} copy-done(%copy-start.144)
  %copy.308 = u32[4]{0:T(128)} copy(%copy-done.144), backend_config={"flag_configs":[],"scoped_memory_configs":[],"used_scoped_memory_configs":[],"aliasing_operands":{"lists":[]}}
  %copy-done.129 = u32[4,4]{1,0:T(4,128)S(1)} copy-done(%copy-start.129)
  %copy.309 = u32[4,4]{1,0:T(4,128)} copy(%copy-done.129), backend_config={"flag_configs":[],"scoped_memory_configs":[],"used_scoped_memory_configs":[],"aliasing_operands":{"lists":[]}}
  %copy-done.145 = u32[4]{0:T(128)S(1)} copy-done(%copy-start.145)
  %copy.310 = u32[4]{0:T(128)} copy(%copy-done.145), backend_config={"flag_configs":[],"scoped_memory_configs":[],"used_scoped_memory_configs":[],"aliasing_operands":{"lists":[]}}
  %copy-done.130 = u32[4,4]{1,0:T(4,128)S(1)} copy-done(%copy-start.130)
  %copy.311 = u32[4,4]{1,0:T(4,128)} copy(%copy-done.130), backend_config={"flag_configs":[],"scoped_memory_configs":[],"used_scoped_memory_configs":[],"aliasing_operands":{"lists":[]}}
  %copy-done.146 = u32[4]{0:T(128)S(1)} copy-done(%copy-start.146)
  %copy.312 = u32[4]{0:T(128)} copy(%copy-done.146), backend_config={"flag_configs":[],"scoped_memory_configs":[],"used_scoped_memory_configs":[],"aliasing_operands":{"lists":[]}}
  %copy-done.131 = u32[4,4]{1,0:T(4,128)S(1)} copy-done(%copy-start.131)
  %copy.313 = u32[4,4]{1,0:T(4,128)} copy(%copy-done.131), backend_config={"flag_configs":[],"scoped_memory_configs":[],"used_scoped_memory_configs":[],"aliasing_operands":{"lists":[]}}
  %copy-done.147 = u32[4]{0:T(128)S(1)} copy-done(%copy-start.147)
  %copy.314 = u32[4]{0:T(128)} copy(%copy-done.147), backend_config={"flag_configs":[],"scoped_memory_configs":[],"used_scoped_memory_configs":[],"aliasing_operands":{"lists":[]}}
  %copy-done.132 = u32[4,4]{1,0:T(4,128)S(1)} copy-done(%copy-start.132)
  %copy.315 = u32[4,4]{1,0:T(4,128)} copy(%copy-done.132), backend_config={"flag_configs":[],"scoped_memory_configs":[],"used_scoped_memory_configs":[],"aliasing_operands":{"lists":[]}}
  %copy-done.148 = u32[4]{0:T(128)S(1)} copy-done(%copy-start.148)
  %copy.316 = u32[4]{0:T(128)} copy(%copy-done.148), backend_config={"flag_configs":[],"scoped_memory_configs":[],"used_scoped_memory_configs":[],"aliasing_operands":{"lists":[]}}
  %copy-done.133 = u32[4,4]{1,0:T(4,128)S(1)} copy-done(%copy-start.133)
  %copy.317 = u32[4,4]{1,0:T(4,128)} copy(%copy-done.133), backend_config={"flag_configs":[],"scoped_memory_configs":[],"used_scoped_memory_configs":[],"aliasing_operands":{"lists":[]}}
  %copy-done.149 = u32[4]{0:T(128)S(1)} copy-done(%copy-start.149)
  %copy.318 = u32[4]{0:T(128)} copy(%copy-done.149), backend_config={"flag_configs":[],"scoped_memory_configs":[],"used_scoped_memory_configs":[],"aliasing_operands":{"lists":[]}}
  %copy-done.134 = u32[4,4]{1,0:T(4,128)S(1)} copy-done(%copy-start.134)
  %copy.319 = u32[4,4]{1,0:T(4,128)} copy(%copy-done.134), backend_config={"flag_configs":[],"scoped_memory_configs":[],"used_scoped_memory_configs":[],"aliasing_operands":{"lists":[]}}
  %copy-done.150 = u32[4]{0:T(128)S(1)} copy-done(%copy-start.150)
  %copy.320 = u32[4]{0:T(128)} copy(%copy-done.150), backend_config={"flag_configs":[],"scoped_memory_configs":[],"used_scoped_memory_configs":[],"aliasing_operands":{"lists":[]}}
  %copy-done.135 = u32[4,4]{1,0:T(4,128)S(1)} copy-done(%copy-start.135)
  %copy.321 = u32[4,4]{1,0:T(4,128)} copy(%copy-done.135), backend_config={"flag_configs":[],"scoped_memory_configs":[],"used_scoped_memory_configs":[],"aliasing_operands":{"lists":[]}}
  %copy-done.151 = u32[4]{0:T(128)S(1)} copy-done(%copy-start.151)
  %copy.322 = u32[4]{0:T(128)} copy(%copy-done.151), backend_config={"flag_configs":[],"scoped_memory_configs":[],"used_scoped_memory_configs":[],"aliasing_operands":{"lists":[]}}
  %copy-done.136 = u32[4,4]{1,0:T(4,128)S(1)} copy-done(%copy-start.136)
  %copy.323 = u32[4,4]{1,0:T(4,128)} copy(%copy-done.136), backend_config={"flag_configs":[],"scoped_memory_configs":[],"used_scoped_memory_configs":[],"aliasing_operands":{"lists":[]}}
  %get-tuple-element.2347 = s32[]{:T(128)} get-tuple-element(%wide.param.1), index=51
  %copy-done.75 = bf16[1,128,1,128]{3,1,2,0:T(8,128)(2,1)S(1)} copy-done(%copy-start.75)
  %copy-done.77 = bf16[1,128,1,128]{3,1,2,0:T(8,128)(2,1)S(1)} copy-done(%copy-start.77)
  %copy-done.106 = s32[1,128]{1,0:T(1,128)S(1)} copy-done(%copy-start.106)
  %bitcast.943 = s32[128]{0:T(128)S(1)} bitcast(%copy-done.106)
  ROOT %tuple.241 = (s32[]{:T(128)}, bf16[1,128,4096]{2,1,0:T(8,128)(2,1)S(1)}, u32[4]{0:T(128)}, u32[4,4]{1,0:T(4,128)}, u32[4]{0:T(128)}, /*index=5*/u32[4,4]{1,0:T(4,128)}, u32[4]{0:T(128)}, u32[4,4]{1,0:T(4,128)}, u32[4]{0:T(128)}, u32[4,4]{1,0:T(4,128)}, /*index=10*/u32[4]{0:T(128)}, u32[4,4]{1,0:T(4,128)}, u32[4]{0:T(128)}, u32[4,4]{1,0:T(4,128)}, u32[4]{0:T(128)}, /*index=15*/u32[4,4]{1,0:T(4,128)}, u32[4]{0:T(128)}, u32[4,4]{1,0:T(4,128)}, u32[4]{0:T(128)}, u32[4,4]{1,0:T(4,128)}, /*index=20*/bf16[4,1,128,4096]{3,2,1,0:T(8,128)(2,1)}, bf16[4,4096]{1,0:T(4,128)(2,1)}, bf16[4,1024,32,128]{1,3,2,0:T(8,128)(2,1)}, bf16[1,128,1,128]{3,1,2,0:T(8,128)(2,1)S(1)}, bf16[1,128,1,128]{3,1,2,0:T(8,128)(2,1)S(1)}, /*index=25*/bf16[4,1024,8,128]{1,3,2,0:T(8,128)(2,1)}, bf16[4,1024,8,128]{3,1,2,0:T(8,128)(2,1)}, bf16[4,32,128,1024]{3,2,1,0:T(8,128)(2,1)}, bf16[4,4096]{1,0:T(4,128)(2,1)}, bf16[4,1024,14336]{2,1,0:T(8,128)(2,1)}, /*index=30*/bf16[4,1024,14336]{2,1,0:T(8,128)(2,1)}, bf16[4,14336,1024]{2,1,0:T(8,128)(2,1)}, u32[4]{0:T(128)}, u32[4,4]{1,0:T(4,128)}, u32[4]{0:T(128)}, /*index=35*/u32[4,4]{1,0:T(4,128)}, u32[4]{0:T(128)}, u32[4,4]{1,0:T(4,128)}, u32[4]{0:T(128)}, u32[4,4]{1,0:T(4,128)}, /*index=40*/u32[4]{0:T(128)}, u32[4,4]{1,0:T(4,128)}, u32[4]{0:T(128)}, u32[4,4]{1,0:T(4,128)}, u32[4]{0:T(128)}, /*index=45*/u32[4,4]{1,0:T(4,128)}, u32[4]{0:T(128)}, u32[4,4]{1,0:T(4,128)}, u32[4]{0:T(128)}, u32[4,4]{1,0:T(4,128)}, /*index=50*/s32[128]{0:T(128)S(1)}, s32[]{:T(128)}, s8[1,1,1]{2,1,0:T(4,128)(4,1)}, s8[1,1,1]{2,1,0:T(4,128)(4,1)}, bf16[1,128,1,128]{3,1,2,0:T(8,128)(2,1)}, /*index=55*/bf16[1,128,1,128]{3,1,2,0:T(8,128)(2,1)}, s32[1,128]{1,0:T(1,128)}) tuple(%add.887, %fusion.507, %copy.306, %copy.307, %copy.308, /*index=5*/%copy.309, %copy.310, %copy.311, %copy.312, %copy.313, /*index=10*/%copy.314, %copy.315, %copy.316, %copy.317, %copy.318, /*index=15*/%copy.319, %copy.320, %copy.321, %copy.322, %copy.323, /*index=20*/%bitcast_dynamic-update-slice_fusion.5, %get-tuple-element.2317, %get-tuple-element.2318, %copy-done.75, %copy-done.77, /*index=25*/%get-tuple-element.2321, %get-tuple-element.2322, %get-tuple-element.2323, %get-tuple-element.2324, %get-tuple-element.2325, /*index=30*/%get-tuple-element.2326, %get-tuple-element.2327, %get-tuple-element.2328, %get-tuple-element.2329, %get-tuple-element.2330, /*index=35*/%get-tuple-element.2331, %get-tuple-element.2332, %get-tuple-element.2333, %get-tuple-element.2334, %get-tuple-element.2335, /*index=40*/%get-tuple-element.2336, %get-tuple-element.2337, %get-tuple-element.2338, %get-tuple-element.2339, %get-tuple-element.2340, /*index=45*/%get-tuple-element.2341, %get-tuple-element.2342, %get-tuple-element.2343, %get-tuple-element.2344, %get-tuple-element.2345, /*index=50*/%bitcast.943, %get-tuple-element.2347, %get-tuple-element.2348, %get-tuple-element.2349, %get-tuple-element.2761, /*index=55*/%get-tuple-element.2817, %get-tuple-element.2874)
}

%wide.region_3.6_spmd.clone.clone.clone (wide.param.116: (s32[], bf16[1,128,4096], u32[4], u32[4,4], u32[4], /*index=5*/u32[4,4], u32[4], u32[4,4], u32[4], u32[4,4], /*index=10*/u32[4], u32[4,4], u32[4], u32[4,4], u32[4], /*index=15*/u32[4,4], u32[4], u32[4,4], u32[4], u32[4,4], /*index=20*/bf16[4,1,128,4096], bf16[4,4096], bf16[4,1024,32,128], bf16[1,128,1,128], bf16[1,128,1,128], /*index=25*/bf16[4,1024,8,128], bf16[4,1024,8,128], bf16[4,32,128,1024], bf16[4,4096], bf16[4,1024,14336], /*index=30*/bf16[4,1024,14336], bf16[4,14336,1024], u32[4], u32[4,4], u32[4], /*index=35*/u32[4,4], u32[4], u32[4,4], u32[4], u32[4,4], /*index=40*/u32[4], u32[4,4], u32[4], u32[4,4], u32[4], /*index=45*/u32[4,4], u32[4], u32[4,4], u32[4], u32[4,4], /*index=50*/s32[128], s32[], s8[1,1,1], s8[1,1,1], bf16[1,128,1,128], /*index=55*/bf16[1,128,1,128], s32[1,128])) -> pred[] {
  %constant.350.clone.4 = s32[]{:T(128)} constant(4)
  %wide.param.116 = (s32[]{:T(128)}, bf16[1,128,4096]{2,1,0:T(8,128)(2,1)S(1)}, u32[4]{0:T(128)}, u32[4,4]{1,0:T(4,128)}, u32[4]{0:T(128)}, /*index=5*/u32[4,4]{1,0:T(4,128)}, u32[4]{0:T(128)}, u32[4,4]{1,0:T(4,128)}, u32[4]{0:T(128)}, u32[4,4]{1,0:T(4,128)}, /*index=10*/u32[4]{0:T(128)}, u32[4,4]{1,0:T(4,128)}, u32[4]{0:T(128)}, u32[4,4]{1,0:T(4,128)}, u32[4]{0:T(128)}, /*index=15*/u32[4,4]{1,0:T(4,128)}, u32[4]{0:T(128)}, u32[4,4]{1,0:T(4,128)}, u32[4]{0:T(128)}, u32[4,4]{1,0:T(4,128)}, /*index=20*/bf16[4,1,128,4096]{3,2,1,0:T(8,128)(2,1)}, bf16[4,4096]{1,0:T(4,128)(2,1)}, bf16[4,1024,32,128]{1,3,2,0:T(8,128)(2,1)}, bf16[1,128,1,128]{3,1,2,0:T(8,128)(2,1)S(1)}, bf16[1,128,1,128]{3,1,2,0:T(8,128)(2,1)S(1)}, /*index=25*/bf16[4,1024,8,128]{1,3,2,0:T(8,128)(2,1)}, bf16[4,1024,8,128]{3,1,2,0:T(8,128)(2,1)}, bf16[4,32,128,1024]{3,2,1,0:T(8,128)(2,1)}, bf16[4,4096]{1,0:T(4,128)(2,1)}, bf16[4,1024,14336]{2,1,0:T(8,128)(2,1)}, /*index=30*/bf16[4,1024,14336]{2,1,0:T(8,128)(2,1)}, bf16[4,14336,1024]{2,1,0:T(8,128)(2,1)}, u32[4]{0:T(128)}, u32[4,4]{1,0:T(4,128)}, u32[4]{0:T(128)}, /*index=35*/u32[4,4]{1,0:T(4,128)}, u32[4]{0:T(128)}, u32[4,4]{1,0:T(4,128)}, u32[4]{0:T(128)}, u32[4,4]{1,0:T(4,128)}, /*index=40*/u32[4]{0:T(128)}, u32[4,4]{1,0:T(4,128)}, u32[4]{0:T(128)}, u32[4,4]{1,0:T(4,128)}, u32[4]{0:T(128)}, /*index=45*/u32[4,4]{1,0:T(4,128)}, u32[4]{0:T(128)}, u32[4,4]{1,0:T(4,128)}, u32[4]{0:T(128)}, u32[4,4]{1,0:T(4,128)}, /*index=50*/s32[128]{0:T(128)S(1)}, s32[]{:T(128)}, s8[1,1,1]{2,1,0:T(4,128)(4,1)}, s8[1,1,1]{2,1,0:T(4,128)(4,1)}, bf16[1,128,1,128]{3,1,2,0:T(8,128)(2,1)}, /*index=55*/bf16[1,128,1,128]{3,1,2,0:T(8,128)(2,1)}, s32[1,128]{1,0:T(1,128)}) parameter(0)
  %get-tuple-element.1890 = s32[]{:T(128)} get-tuple-element(%wide.param.116), index=0
  ROOT %lt.34 = pred[]{:T(512)} compare(%get-tuple-element.1890, %constant.350.clone.4), direction=LT, metadata={op_name="jit(train_step)/jvp()/while/cond/lt" stack_frame_id=0}, backend_config={"flag_configs":[],"scoped_memory_configs":[],"used_scoped_memory_configs":[],"aliasing_operands":{"lists":[]}}
}

%region_4.7 (reduce_sum.114: f32[], reduce_sum.115: f32[]) -> f32[] {
  %reduce_sum.114 = f32[]{:T(128)} parameter(0), metadata={op_name="jit(train_step)/jvp()/reduce_sum"}
  %reduce_sum.115 = f32[]{:T(128)} parameter(1), metadata={op_name="jit(train_step)/jvp()/reduce_sum"}
  ROOT %reduce_sum.116 = f32[]{:T(128)} add(%reduce_sum.114, %reduce_sum.115), metadata={op_name="jit(train_step)/jvp()/reduce_sum" stack_frame_id=0}, backend_config={"flag_configs":[],"scoped_memory_configs":[],"used_scoped_memory_configs":[],"aliasing_operands":{"lists":[]}}
}

%fused_computation.352 (param_0.1287: bf16[1,128,4096]) -> f32[128] {
  %param_0.1287 = bf16[1,128,4096]{2,1,0:T(8,128)(2,1)S(1)} parameter(0)
  %convert_element_type.917 = f32[1,128,4096]{2,1,0:T(8,128)} convert(%param_0.1287), metadata={op_name="jit(train_step)/jvp()/convert_element_type" stack_frame_id=0}
  %square.193 = f32[1,128,4096]{2,1,0:T(8,128)} multiply(%convert_element_type.917, %convert_element_type.917), metadata={op_name="jit(train_step)/jvp()/square" stack_frame_id=0}
  %constant.388.clone.28 = f32[]{:T(128)} constant(0)
  ROOT %reduce.121 = f32[128]{0:T(128)S(1)} reduce(%square.193, %constant.388.clone.28), dimensions={0,2}, to_apply=%region_4.7, metadata={op_name="jit(train_step)/jvp()/reduce_sum" stack_frame_id=0}
}

%fused_computation.397 (param_0.1152: f32[128]) -> f32[128] {
  %param_0.1152 = f32[128]{0:T(128)S(1)} parameter(0)
  %constant.389.clone.2 = f32[]{:T(128)} constant(0.000244140625)
  %broadcast.597 = f32[128]{0:T(128)} broadcast(%constant.389.clone.2), dimensions={}, metadata={op_name="broadcast.264"}
  %div.667 = f32[128]{0:T(128)} multiply(%param_0.1152, %broadcast.597), metadata={op_name="jit(train_step)/jvp()/div" stack_frame_id=0}
  %constant.390.clone.2 = f32[]{:T(128)} constant(1e-05)
  %broadcast.595 = f32[128]{0:T(128)} broadcast(%constant.390.clone.2), dimensions={}, metadata={op_name="jit(train_step)/jvp()/add" stack_frame_id=0}
  %add.774 = f32[128]{0:T(128)} add(%div.667, %broadcast.595), metadata={op_name="jit(train_step)/jvp()/add" stack_frame_id=0}
  %bitcast.568 = f32[1,128]{1,0:T(1,128)} bitcast(%add.774), metadata={op_name="jit(train_step)/jvp()/add" stack_frame_id=0}
  %rsqrt.101 = f32[1,128]{1,0:T(1,128)} rsqrt(%bitcast.568), metadata={op_name="jit(train_step)/jvp()/rsqrt" stack_frame_id=0}
  ROOT %bitcast.558 = f32[128]{0:T(128)} bitcast(%rsqrt.101), metadata={op_name="jit(train_step)/jvp()/rsqrt" stack_frame_id=0}
}

%fused_computation.358.clone.clone (param_0.1254: bf16[4096], param_1.1393: f32[128], param_2.1078: bf16[1,128,4096]) -> bf16[128,4096] {
  %param_2.1078 = bf16[1,128,4096]{2,1,0:T(8,128)(2,1)} parameter(2)
  %convert_element_type.976 = f32[1,128,4096]{2,1,0:T(8,128)} convert(%param_2.1078), metadata={op_name="jit(train_step)/jvp()/convert_element_type" stack_frame_id=0}
  %param_1.1393 = f32[128]{0:T(128)S(1)} parameter(1)
  %mul.1963 = f32[1,128,4096]{2,1,0:T(8,128)} broadcast(%param_1.1393), dimensions={1}, metadata={op_name="jit(train_step)/jvp()/mul" stack_frame_id=0}
  %mul.1962 = f32[1,128,4096]{2,1,0:T(8,128)} multiply(%convert_element_type.976, %mul.1963), metadata={op_name="jit(train_step)/jvp()/mul" stack_frame_id=0}
  %convert_element_type.975 = bf16[1,128,4096]{2,1,0:T(8,128)(2,1)} convert(%mul.1962), metadata={op_name="jit(train_step)/jvp()/convert_element_type" stack_frame_id=0}
  %convert.105 = f32[1,128,4096]{2,1,0:T(8,128)} convert(%convert_element_type.975)
  %param_0.1254 = bf16[4096]{0:T(1024)(128)(2,1)S(1)} parameter(0)
  %mul.1961 = bf16[1,128,4096]{2,1,0:T(8,128)(2,1)} broadcast(%param_0.1254), dimensions={2}, metadata={op_name="jit(train_step)/jvp()/mul" stack_frame_id=0}
  %convert.106 = f32[1,128,4096]{2,1,0:T(8,128)} convert(%mul.1961)
  %mul.1960 = f32[1,128,4096]{2,1,0:T(8,128)} multiply(%convert.105, %convert.106), metadata={op_name="jit(train_step)/jvp()/mul" stack_frame_id=0}, backend_config={"flag_configs":[],"scoped_memory_configs":[],"used_scoped_memory_configs":[],"float_type_correction_info":{"original_type":"BF16","original_shape":{"element_type":"BF16","dimensions":["1","128","4096"],"tuple_shapes":[],"layout":{"minor_to_major":["2","1","0"],"tiles":[{"dimensions":["8","128"]},{"dimensions":["2","1"]}],"element_size_in_bits":"0","memory_space":"0","dim_level_types":[],"index_primitive_type":"PRIMITIVE_TYPE_INVALID","pointer_primitive_type":"PRIMITIVE_TYPE_INVALID","dim_unique":[],"dim_ordered":[],"dynamic_shape_metadata_prefix_bytes":"0","tail_padding_alignment_in_elements":"1","split_configs":[]},"is_dynamic_dimension":[false,false,false]}}}
  %convert.107 = bf16[1,128,4096]{2,1,0:T(8,128)(2,1)} convert(%mul.1960)
  ROOT %bitcast.649 = bf16[128,4096]{1,0:T(8,128)(2,1)} bitcast(%convert.107)
}

%bitcast_fusion.5 (bitcast_input.5: bf16[4096,128256]) -> bf16[4096,128256] {
  %bitcast_input.5 = bf16[4096,128256]{1,0:T(8,128)(2,1)} parameter(0)
  ROOT %bitcast.661 = bf16[4096,128256]{1,0:T(8,128)(2,1)} bitcast(%bitcast_input.5)
}

%region_6.9 (reduce_max.6: bf16[], reduce_max.8: bf16[]) -> bf16[] {
  %reduce_max.6 = bf16[]{:T(256)} parameter(0), metadata={op_name="jit(train_step)/jvp()/reduce_max"}
  %reduce_max.8 = bf16[]{:T(256)} parameter(1), metadata={op_name="jit(train_step)/jvp()/reduce_max"}
  ROOT %reduce_max.9 = bf16[]{:T(256)} maximum(%reduce_max.6, %reduce_max.8), metadata={op_name="jit(train_step)/jvp()/reduce_max" stack_frame_id=0}, backend_config={"flag_configs":[],"scoped_memory_configs":[],"used_scoped_memory_configs":[],"aliasing_operands":{"lists":[]}}
}

%fused_computation.423 (param_0.1260: bf16[4096,128256], param_1.1398: bf16[4096], param_2.1091: f32[128], param_3.734: bf16[1,128,4096]) -> (bf16[128], bf16[128,128256]) {
  %param_1.1398 = bf16[4096]{0:T(1024)(128)(2,1)S(1)} parameter(1)
  %param_2.1091 = f32[128]{0:T(128)S(1)} parameter(2)
  %param_3.734 = bf16[1,128,4096]{2,1,0:T(8,128)(2,1)} parameter(3)
  %fusion.300.clone.1 = bf16[128,4096]{1,0:T(8,128)(2,1)} fusion(%param_1.1398, %param_2.1091, %param_3.734), kind=kLoop, calls=%fused_computation.358.clone.clone
  %param_0.1260 = bf16[4096,128256]{1,0:T(8,128)(2,1)} parameter(0)
  %fusion.333 = bf16[4096,128256]{1,0:T(8,128)(2,1)} fusion(%param_0.1260), kind=kLoop, calls=%bitcast_fusion.5
  %convolution.119.clone.1 = bf16[128,128256]{1,0:T(8,128)(2,1)S(1)} convolution(%fusion.300.clone.1, %fusion.333), dim_labels=bf_io->bf, metadata={op_name="jit(train_step)/jvp()/dot_general" stack_frame_id=0}
  %constant.392.clone.3 = bf16[]{:T(256)} constant(-inf)
  %reduce.136 = bf16[128]{0:T(256)(128)(2,1)S(1)} reduce(%convolution.119.clone.1, %constant.392.clone.3), dimensions={1}, to_apply=%region_6.9, metadata={op_name="jit(train_step)/jvp()/reduce_max" stack_frame_id=0}
  ROOT %tuple.152 = (bf16[128]{0:T(256)(128)(2,1)S(1)}, bf16[128,128256]{1,0:T(8,128)(2,1)S(1)}) tuple(%reduce.136, %convolution.119.clone.1)
}

%region_7.10 (reduce_sum.123: f32[], reduce_sum.127: f32[]) -> f32[] {
  %reduce_sum.123 = f32[]{:T(128)} parameter(0), metadata={op_name="jit(train_step)/jvp()/reduce_sum"}
  %reduce_sum.127 = f32[]{:T(128)} parameter(1), metadata={op_name="jit(train_step)/jvp()/reduce_sum"}
  ROOT %reduce_sum.128 = f32[]{:T(128)} add(%reduce_sum.123, %reduce_sum.127), metadata={op_name="jit(train_step)/jvp()/reduce_sum" stack_frame_id=0}, backend_config={"flag_configs":[],"scoped_memory_configs":[],"used_scoped_memory_configs":[],"aliasing_operands":{"lists":[]}}
}

%fused_computation.316 (param_0.1286: bf16[128,128256], param_1.1417: bf16[128]) -> f32[128] {
  %param_0.1286 = bf16[128,128256]{1,0:T(8,128)(2,1)S(1)} parameter(0)
  %convert_element_type.884 = f32[128,128256]{1,0:T(8,128)} convert(%param_0.1286), metadata={op_name="jit(train_step)/jvp()/convert_element_type" stack_frame_id=0}
  %bitcast.496 = f32[1,128,128256]{2,1,0:T(8,128)} bitcast(%convert_element_type.884), metadata={op_name="jit(train_step)/jvp()/convert_element_type" stack_frame_id=0}
  %param_1.1417 = bf16[128]{0:T(256)(128)(2,1)S(1)} parameter(1)
  %sub.100 = f32[1,128,128256]{2,1,0:T(8,128)} broadcast(%param_1.1417), dimensions={1}, metadata={op_name="jit(train_step)/jvp()/sub" stack_frame_id=0}
  %sub.71 = f32[1,128,128256]{2,1,0:T(8,128)} subtract(%bitcast.496, %sub.100), metadata={op_name="jit(train_step)/jvp()/sub" stack_frame_id=0}
  %exp.56 = f32[1,128,128256]{2,1,0:T(8,128)} exponential(%sub.71), metadata={op_name="jit(train_step)/jvp()/exp" stack_frame_id=0}
  %constant.388.clone.27 = f32[]{:T(128)} constant(0)
  ROOT %reduce.111 = f32[128]{0:T(128)S(1)} reduce(%exp.56, %constant.388.clone.27), dimensions={0,2}, to_apply=%region_7.10, metadata={op_name="jit(train_step)/jvp()/reduce_sum" stack_frame_id=0}
}

%fused_computation.422 (param_0.1250: f32[128], param_1.1416: bf16[128]) -> (f32[128], f32[128]) {
  %param_0.1250 = f32[128]{0:T(128)S(1)} parameter(0)
  %log.23 = f32[128]{0:T(128)S(1)} log(%param_0.1250), metadata={op_name="jit(train_step)/jvp()/log" stack_frame_id=0}
  %param_1.1416 = bf16[128]{0:T(256)(128)(2,1)S(1)} parameter(1)
  %reduce_max.18.clone.1 = f32[128]{0:T(128)} convert(%param_1.1416), metadata={op_name="jit(train_step)/jvp()/reduce_max" stack_frame_id=0}
  %add.779.clone.1 = f32[128]{0:T(128)} add(%log.23, %reduce_max.18.clone.1), metadata={op_name="jit(train_step)/jvp()/add" stack_frame_id=0}
  %constant.388.clone.26 = f32[]{:T(128)} constant(0)
  %broadcast.593.clone.1 = f32[128]{0:T(128)} broadcast(%constant.388.clone.26), dimensions={}, metadata={op_name="broadcast.94"}
  %mul.1823.clone.1 = f32[128]{0:T(128)} multiply(%add.779.clone.1, %broadcast.593.clone.1), metadata={op_name="jit(train_step)/transpose(jvp())/mul" stack_frame_id=0}
  %constant.369.clone.1.clone.1 = f32[]{:T(128)} constant(1)
  %broadcast.590.clone.1 = f32[128]{0:T(128)} broadcast(%constant.369.clone.1.clone.1), dimensions={}, metadata={op_name="jit(train_step)/transpose(jvp())/add" stack_frame_id=0}
  %add.768.clone.1 = f32[128]{0:T(128)S(1)} add(%mul.1823.clone.1, %broadcast.590.clone.1), metadata={op_name="jit(train_step)/transpose(jvp())/add" stack_frame_id=0}
  ROOT %tuple.150 = (f32[128]{0:T(128)S(1)}, f32[128]{0:T(128)S(1)}) tuple(%log.23, %add.768.clone.1)
}

%region_44.49 (reduce_sum.319: f32[], reduce_sum.320: f32[]) -> f32[] {
  %reduce_sum.319 = f32[]{:T(128)} parameter(0), metadata={op_name="jit(train_step)/jvp()/reduce_sum"}
  %reduce_sum.320 = f32[]{:T(128)} parameter(1), metadata={op_name="jit(train_step)/jvp()/reduce_sum"}
  ROOT %reduce_sum.321 = f32[]{:T(128)} add(%reduce_sum.319, %reduce_sum.320), metadata={op_name="jit(train_step)/jvp()/reduce_sum" stack_frame_id=0}, backend_config={"flag_configs":[],"scoped_memory_configs":[],"used_scoped_memory_configs":[],"aliasing_operands":{"lists":[]}}
}

%fused_computation.322 (param_0.1285: bf16[128,128256], param_1.1415: f32[128], param_2.1106: bf16[128], param_3.748: s32[128]) -> f32[128] {
  %param_3.748 = s32[128]{0:T(128)S(1)} parameter(3)
  %eq.26 = s32[1,128,128256]{2,1,0:T(8,128)} broadcast(%param_3.748), dimensions={1}, metadata={op_name="jit(train_step)/jvp(jit(_one_hot))/eq" stack_frame_id=0}
  %iota.51 = s32[1,128,128256]{2,1,0:T(8,128)} iota(), iota_dimension=2, metadata={op_name="jit(train_step)/jvp(jit(_one_hot))/eq" stack_frame_id=0}
  %eq.21 = pred[1,128,128256]{2,1,0:T(8,128)(4,1)} compare(%eq.26, %iota.51), direction=EQ, metadata={op_name="jit(train_step)/jvp(jit(_one_hot))/eq" stack_frame_id=0}
  %param_0.1285 = bf16[128,128256]{1,0:T(8,128)(2,1)S(1)} parameter(0)
  %convert_element_type.897 = f32[128,128256]{1,0:T(8,128)} convert(%param_0.1285), metadata={op_name="jit(train_step)/jvp()/convert_element_type" stack_frame_id=0}
  %bitcast.508 = f32[1,128,128256]{2,1,0:T(8,128)} bitcast(%convert_element_type.897), metadata={op_name="jit(train_step)/jvp()/convert_element_type" stack_frame_id=0}
  %param_2.1106 = bf16[128]{0:T(256)(128)(2,1)S(1)} parameter(2)
  %sub.99 = f32[1,128,128256]{2,1,0:T(8,128)} broadcast(%param_2.1106), dimensions={1}, metadata={op_name="jit(train_step)/jvp()/sub" stack_frame_id=0}
  %sub.92 = f32[1,128,128256]{2,1,0:T(8,128)} subtract(%bitcast.508, %sub.99), metadata={op_name="jit(train_step)/jvp()/sub" stack_frame_id=0}
  %param_1.1415 = f32[128]{0:T(128)S(1)} parameter(1)
  %sub.97 = f32[1,128,128256]{2,1,0:T(8,128)} broadcast(%param_1.1415), dimensions={1}, metadata={op_name="jit(train_step)/jvp()/sub" stack_frame_id=0}
  %sub.91 = f32[1,128,128256]{2,1,0:T(8,128)} subtract(%sub.92, %sub.97), metadata={op_name="jit(train_step)/jvp()/sub" stack_frame_id=0}
  %constant.388.clone.25 = f32[]{:T(128)} constant(0)
  %broadcast.561 = f32[1,128,128256]{2,1,0:T(8,128)} broadcast(%constant.388.clone.25), dimensions={}, metadata={op_name="broadcast.98"}
  %mul.1702 = f32[1,128,128256]{2,1,0:T(8,128)} select(%eq.21, %sub.91, %broadcast.561), metadata={op_name="jit(train_step)/jvp()/mul" stack_frame_id=0}
  ROOT %reduce.112 = f32[128]{0:T(128)S(1)} reduce(%mul.1702, %constant.388.clone.25), dimensions={0,2}, to_apply=%region_44.49, metadata={op_name="jit(train_step)/jvp()/reduce_sum" stack_frame_id=0}
}

%region_5.8 (reduce_sum.120: s32[], reduce_sum.121: s32[]) -> s32[] {
  %reduce_sum.120 = s32[]{:T(128)} parameter(0), metadata={op_name="jit(train_step)/jvp()/reduce_sum"}
  %reduce_sum.121 = s32[]{:T(128)} parameter(1), metadata={op_name="jit(train_step)/jvp()/reduce_sum"}
  ROOT %reduce_sum.122 = s32[]{:T(128)} add(%reduce_sum.120, %reduce_sum.121), metadata={op_name="jit(train_step)/jvp()/reduce_sum" stack_frame_id=0}, backend_config={"flag_configs":[],"scoped_memory_configs":[],"used_scoped_memory_configs":[],"aliasing_operands":{"lists":[]}}
}

%fused_computation.402 (param_0.1160: s32[1,128]) -> s32[] {
  %param_0.1160 = s32[1,128]{1,0:T(1,128)S(1)} parameter(0)
  %constant.370.clone.4 = s32[]{:T(128)} constant(0)
  %broadcast.607 = s32[1,128]{1,0:T(1,128)} broadcast(%constant.370.clone.4), dimensions={}, metadata={op_name="broadcast.85"}
  %ne.10 = pred[1,128]{1,0:T(4,128)(4,1)} compare(%param_0.1160, %broadcast.607), direction=NE, metadata={op_name="jit(train_step)/jvp()/ne" stack_frame_id=0}
  %convert_element_type.957 = s32[1,128]{1,0:T(1,128)} convert(%ne.10), metadata={op_name="jit(train_step)/jvp()/convert_element_type" stack_frame_id=0}
  ROOT %reduce.133 = s32[]{:T(128)} reduce(%convert_element_type.957, %constant.370.clone.4), dimensions={0,1}, to_apply=%region_5.8, metadata={op_name="jit(train_step)/jvp()/reduce_sum" stack_frame_id=0}
}

%region_5.8.clone (reduce_sum.483: s32[], reduce_sum.487: s32[]) -> s32[] {
  %reduce_sum.483 = s32[]{:T(128)} parameter(0), metadata={op_name="jit(train_step)/jvp()/reduce_sum"}
  %reduce_sum.487 = s32[]{:T(128)} parameter(1), metadata={op_name="jit(train_step)/jvp()/reduce_sum"}
  ROOT %reduce_sum.488 = s32[]{:T(128)} add(%reduce_sum.483, %reduce_sum.487), metadata={op_name="jit(train_step)/jvp()/reduce_sum" stack_frame_id=0}, backend_config={"flag_configs":[],"scoped_memory_configs":[],"used_scoped_memory_configs":[],"aliasing_operands":{"lists":[]}}
}

%region_58.63 (reduce_sum.391: f32[], reduce_sum.392: f32[]) -> f32[] {
  %reduce_sum.391 = f32[]{:T(128)} parameter(0), metadata={op_name="jit(train_step)/jvp()/reduce_sum"}
  %reduce_sum.392 = f32[]{:T(128)} parameter(1), metadata={op_name="jit(train_step)/jvp()/reduce_sum"}
  ROOT %reduce_sum.396 = f32[]{:T(128)} add(%reduce_sum.391, %reduce_sum.392), metadata={op_name="jit(train_step)/jvp()/reduce_sum" stack_frame_id=0}, backend_config={"flag_configs":[],"scoped_memory_configs":[],"used_scoped_memory_configs":[],"aliasing_operands":{"lists":[]}}
}

%region_45.50 (reduce_sum.322: f32[], reduce_sum.326: f32[]) -> f32[] {
  %reduce_sum.322 = f32[]{:T(128)} parameter(0), metadata={op_name="jit(train_step)/jvp()/reduce_sum"}
  %reduce_sum.326 = f32[]{:T(128)} parameter(1), metadata={op_name="jit(train_step)/jvp()/reduce_sum"}
  ROOT %reduce_sum.327 = f32[]{:T(128)} add(%reduce_sum.322, %reduce_sum.326), metadata={op_name="jit(train_step)/jvp()/reduce_sum" stack_frame_id=0}, backend_config={"flag_configs":[],"scoped_memory_configs":[],"used_scoped_memory_configs":[],"aliasing_operands":{"lists":[]}}
}

%fused_computation.405 (param_0.1284: s32[1,128], param_1.1414: bf16[128], param_2.1105: f32[128], param_3.747: f32[128], param_4.464: f32[]) -> (f32[], f32[], f32[128]) {
  %param_0.1284 = s32[1,128]{1,0:T(1,128)S(1)} parameter(0)
…
uple_shapes":[],"layout":{"minor_to_major":["2","1","0"],"tiles":[{"dimensions":["8","128"]},{"dimensions":["2","1"]}],"element_size_in_bits":"0","memory_space":"0","dim_level_types":[],"index_primitive_type":"PRIMITIVE_TYPE_INVALID","pointer_primitive_type":"PRIMITIVE_TYPE_INVALID","dim_unique":[],"dim_ordered":[],"dynamic_shape_metadata_prefix_bytes":"0","tail_padding_alignment_in_elements":"1","split_configs":[]},"is_dynamic_dimension":[false,false,false]}}}
  %mul.2122 = f32[1,128,14336]{2,1,0:T(8,128)} multiply(%mul.2124, %mul.2123), metadata={op_name="jit(train_step)/transpose(jvp())/while/body/closed_call/checkpoint/jit(silu)/mul" stack_frame_id=0}, backend_config={"flag_configs":[],"scoped_memory_configs":[],"used_scoped_memory_configs":[],"float_type_correction_info":{"original_type":"BF16","original_shape":{"element_type":"BF16","dimensions":["1","128","14336"],"tuple_shapes":[],"layout":{"minor_to_major":["2","1","0"],"tiles":[{"dimensions":["8","128"]},{"dimensions":["2","1"]}],"element_size_in_bits":"0","memory_space":"0","dim_level_types":[],"index_primitive_type":"PRIMITIVE_TYPE_INVALID","pointer_primitive_type":"PRIMITIVE_TYPE_INVALID","dim_unique":[],"dim_ordered":[],"dynamic_shape_metadata_prefix_bytes":"0","tail_padding_alignment_in_elements":"1","split_configs":[]},"is_dynamic_dimension":[false,false,false]}}}
  %add_any.160 = f32[1,128,14336]{2,1,0:T(8,128)} add(%mul.2125, %mul.2122), metadata={op_name="jit(train_step)/transpose(jvp())/while/body/closed_call/checkpoint/jit(silu)/add_any" stack_frame_id=0}, backend_config={"flag_configs":[],"scoped_memory_configs":[],"used_scoped_memory_configs":[],"float_type_correction_info":{"original_type":"BF16","original_shape":{"element_type":"BF16","dimensions":["1","128","14336"],"tuple_shapes":[],"layout":{"minor_to_major":["2","1","0"],"tiles":[{"dimensions":["8","128"]},{"dimensions":["2","1"]}],"element_size_in_bits":"0","memory_space":"0","dim_level_types":[],"index_primitive_type":"PRIMITIVE_TYPE_INVALID","pointer_primitive_type":"PRIMITIVE_TYPE_INVALID","dim_unique":[],"dim_ordered":[],"dynamic_shape_metadata_prefix_bytes":"0","tail_padding_alignment_in_elements":"1","split_configs":[]},"is_dynamic_dimension":[false,false,false]}}}
  %convert.131 = bf16[1,128,14336]{2,1,0:T(8,128)(2,1)} convert(%add_any.160)
  ROOT %bitcast.819 = bf16[128,14336]{1,0:T(8,128)(2,1)} bitcast(%convert.131)
}

%fused_computation.78.clone.clone.clone.clone.clone.clone.clone.1 (param_0.1462: bf16[1,4096,14336]) -> bf16[4096,14336] {
  %param_0.1462 = bf16[1,4096,14336]{2,1,0:T(8,128)(2,1)} parameter(0)
  ROOT %bitcast.818 = bf16[4096,14336]{1,0:T(8,128)(2,1)} bitcast(%param_0.1462), metadata={op_name="jit(train_step)/transpose(jvp())/while/body/closed_call/checkpoint/rematted_computation/dot_general" stack_frame_id=0}
}

%region_14.17 (reduce_sum.166: f32[], reduce_sum.167: f32[]) -> f32[] {
  %reduce_sum.166 = f32[]{:T(128)} parameter(0), metadata={op_name="jit(train_step)/transpose(jvp())/while/body/closed_call/checkpoint/reduce_sum"}
  %reduce_sum.167 = f32[]{:T(128)} parameter(1), metadata={op_name="jit(train_step)/transpose(jvp())/while/body/closed_call/checkpoint/reduce_sum"}
  ROOT %reduce_sum.168 = f32[]{:T(128)} add(%reduce_sum.166, %reduce_sum.167), metadata={op_name="checkpoint/reduce_sum" stack_frame_id=0}, backend_config={"flag_configs":[],"scoped_memory_configs":[],"used_scoped_memory_configs":[],"aliasing_operands":{"lists":[]}}
}

%fused_computation.158.clone.1 (param_0.1464: bf16[1,128,4096], param_1.1528: bf16[4096], param_2.1175: bf16[128,4096], param_3.794: bf16[1,4096,14336], param_4.489: bf16[1,128,14336], param_5.416: bf16[1,128,14336], param_6.268: bf16[1,128,14336]) -> (f32[128], bf16[1,128,4096]) {
  %param_0.1464 = bf16[1,128,4096]{2,1,0:T(8,128)(2,1)S(1)} parameter(0)
  %convert_element_type.1046 = f32[1,128,4096]{2,1,0:T(8,128)} convert(%param_0.1464), metadata={op_name="jit(train_step)/transpose(jvp())/while/body/closed_call/checkpoint/rematted_computation/convert_element_type" stack_frame_id=0}
  %param_2.1175 = bf16[128,4096]{1,0:T(8,128)(2,1)S(1)} parameter(2)
  %convert.185 = f32[128,4096]{1,0:T(8,128)} convert(%param_2.1175)
  %param_4.489 = bf16[1,128,14336]{2,1,0:T(8,128)(2,1)S(1)} parameter(4)
  %param_5.416 = bf16[1,128,14336]{2,1,0:T(8,128)(2,1)S(1)} parameter(5)
  %param_6.268 = bf16[1,128,14336]{2,1,0:T(8,128)(2,1)S(1)} parameter(6)
  %fusion.271.clone.3 = bf16[128,14336]{1,0:T(8,128)(2,1)} fusion(%param_4.489, %param_5.416, %param_6.268), kind=kLoop, calls=%fused_computation.120.clone.1.clone.clone.clone.1
  %param_3.794 = bf16[1,4096,14336]{2,1,0:T(8,128)(2,1)} parameter(3)
  %fusion.158.clone.3 = bf16[4096,14336]{1,0:T(8,128)(2,1)} fusion(%param_3.794), kind=kLoop, calls=%fused_computation.78.clone.clone.clone.clone.clone.clone.clone.1, metadata={op_name="jit(train_step)/transpose(jvp())/while/body/closed_call/checkpoint/rematted_computation/dot_general" stack_frame_id=0}
  %convolution.97.clone.3 = bf16[128,4096]{1,0:T(8,128)(2,1)} convolution(%fusion.271.clone.3, %fusion.158.clone.3), dim_labels=bf_oi->bf, metadata={op_name="jit(train_step)/transpose(jvp())/while/body/closed_call/checkpoint/dot_general" stack_frame_id=0}
  %convert.186 = f32[128,4096]{1,0:T(8,128)} convert(%convolution.97.clone.3)
  %add_any.122.clone.3 = f32[128,4096]{1,0:T(8,128)} add(%convert.185, %convert.186), metadata={op_name="jit(train_step)/transpose(jvp())/while/body/closed_call/checkpoint/add_any" stack_frame_id=0}, backend_config={"flag_configs":[],"scoped_memory_configs":[],"used_scoped_memory_configs":[],"float_type_correction_info":{"original_type":"BF16","original_shape":{"element_type":"BF16","dimensions":["128","4096"],"tuple_shapes":[],"layout":{"minor_to_major":["1","0"],"tiles":[{"dimensions":["8","128"]},{"dimensions":["2","1"]}],"element_size_in_bits":"0","memory_space":"0","dim_level_types":[],"index_primitive_type":"PRIMITIVE_TYPE_INVALID","pointer_primitive_type":"PRIMITIVE_TYPE_INVALID","dim_unique":[],"dim_ordered":[],"dynamic_shape_metadata_prefix_bytes":"0","tail_padding_alignment_in_elements":"1","split_configs":[]},"is_dynamic_dimension":[false,false]}}}
  %convert.187 = bf16[128,4096]{1,0:T(8,128)(2,1)} convert(%add_any.122.clone.3)
  %bitcast.323.clone.3 = bf16[1,128,4096]{2,1,0:T(8,128)(2,1)S(1)} bitcast(%convert.187), metadata={op_name="jit(train_step)/transpose(jvp())/while/body/closed_call/checkpoint/add_any" stack_frame_id=0}
  %convert.188 = f32[1,128,4096]{2,1,0:T(8,128)} convert(%bitcast.323.clone.3)
  %param_1.1528 = bf16[4096]{0:T(1024)(128)(2,1)S(1)} parameter(1)
  %mul.2129 = bf16[1,128,4096]{2,1,0:T(8,128)(2,1)} broadcast(%param_1.1528), dimensions={2}, metadata={op_name="jit(train_step)/transpose(jvp())/while/body/closed_call/checkpoint/rematted_computation/mul" stack_frame_id=0}
  %convert.189 = f32[1,128,4096]{2,1,0:T(8,128)} convert(%mul.2129)
  %mul.2128 = f32[1,128,4096]{2,1,0:T(8,128)} multiply(%convert.188, %convert.189), metadata={op_name="jit(train_step)/transpose(jvp())/while/body/closed_call/checkpoint/mul" stack_frame_id=0}, backend_config={"flag_configs":[],"scoped_memory_configs":[],"used_scoped_memory_configs":[],"float_type_correction_info":{"original_type":"BF16","original_shape":{"element_type":"BF16","dimensions":["1","128","4096"],"tuple_shapes":[],"layout":{"minor_to_major":["2","1","0"],"tiles":[{"dimensions":["8","128"]},{"dimensions":["2","1"]}],"element_size_in_bits":"0","memory_space":"0","dim_level_types":[],"index_primitive_type":"PRIMITIVE_TYPE_INVALID","pointer_primitive_type":"PRIMITIVE_TYPE_INVALID","dim_unique":[],"dim_ordered":[],"dynamic_shape_metadata_prefix_bytes":"0","tail_padding_alignment_in_elements":"1","split_configs":[]},"is_dynamic_dimension":[false,false,false]}}}
  %convert_element_type.1045 = f32[1,128,4096]{2,1,0:T(8,128)} convert(%mul.2128), metadata={op_name="jit(train_step)/transpose(jvp())/while/body/closed_call/checkpoint/convert_element_type" stack_frame_id=0}
  %mul.2127 = f32[1,128,4096]{2,1,0:T(8,128)} multiply(%convert_element_type.1046, %convert_element_type.1045), metadata={op_name="jit(train_step)/transpose(jvp())/while/body/closed_call/checkpoint/mul" stack_frame_id=0}
  %constant.355.clone.13 = f32[]{:T(128)} constant(0)
  %reduce.152 = f32[128]{0:T(128)S(1)} reduce(%mul.2127, %constant.355.clone.13), dimensions={0,2}, to_apply=%region_14.17, metadata={op_name="jit(train_step)/transpose(jvp())/while/body/closed_call/checkpoint/reduce_sum" stack_frame_id=0}
  ROOT %tuple.188 = (f32[128]{0:T(128)S(1)}, bf16[1,128,4096]{2,1,0:T(8,128)(2,1)S(1)}) tuple(%reduce.152, %bitcast.323.clone.3)
}

%fused_computation.251.clone.1 (param_0.1465: f32[128], param_1.1529: f32[128]) -> f32[128] {
  %param_0.1465 = f32[128]{0:T(128)S(1)} parameter(0)
  %bitcast.822 = f32[1,128]{1,0:T(1,128)} bitcast(%param_0.1465), metadata={op_name="jit(train_step)/transpose(jvp())/while/body/closed_call/checkpoint/reduce_sum" stack_frame_id=0}
  %param_1.1529 = f32[128]{0:T(128)S(1)} parameter(1)
  %constant.356.clone.11 = f32[]{:T(128)} constant(0.000244140625)
  %broadcast.678 = f32[128]{0:T(128)} broadcast(%constant.356.clone.11), dimensions={}, metadata={op_name="jit(train_step)/transpose(jvp())/while/body/closed_call" stack_frame_id=0}
  %div.861 = f32[128]{0:T(128)} multiply(%param_1.1529, %broadcast.678), metadata={op_name="jit(train_step)/transpose(jvp())/while/body/closed_call/checkpoint/rematted_computation/div" stack_frame_id=0}
  %constant.357.clone.11 = f32[]{:T(128)} constant(1e-05)
  %broadcast.677 = f32[128]{0:T(128)} broadcast(%constant.357.clone.11), dimensions={}, metadata={op_name="jit(train_step)/transpose(jvp())/while/body/closed_call" stack_frame_id=0}
  %add.875 = f32[128]{0:T(128)} add(%div.861, %broadcast.677), metadata={op_name="jit(train_step)/transpose(jvp())/while/body/closed_call/checkpoint/rematted_computation/add" stack_frame_id=0}
  %bitcast.821 = f32[1,128]{1,0:T(1,128)} bitcast(%add.875), metadata={op_name="jit(train_step)/transpose(jvp())/while/body/closed_call/checkpoint/rematted_computation/add" stack_frame_id=0}
  %rsqrt.116 = f32[1,128]{1,0:T(1,128)} rsqrt(%bitcast.821), metadata={op_name="jit(train_step)/transpose(jvp())/while/body/closed_call/checkpoint/rematted_computation/rsqrt" stack_frame_id=0}
  %div.860 = f32[1,128]{1,0:T(1,128)} divide(%rsqrt.116, %bitcast.821), metadata={op_name="jit(train_step)/transpose(jvp())/while/body/closed_call/checkpoint/rematted_computation/div" stack_frame_id=0}
  %constant.364.clone.5 = f32[]{:T(128)} constant(-0.5)
  %closed_call.65 = f32[1,128]{1,0:T(1,128)} broadcast(%constant.364.clone.5), dimensions={}, metadata={op_name="jit(train_step)/transpose(jvp())/while/body/closed_call" stack_frame_id=0}
  %mul.2132 = f32[1,128]{1,0:T(1,128)} multiply(%div.860, %closed_call.65), metadata={op_name="jit(train_step)/transpose(jvp())/while/body/closed_call/checkpoint/rematted_computation/mul" stack_frame_id=0}
  %mul.2131 = f32[1,128]{1,0:T(1,128)} multiply(%bitcast.822, %mul.2132), metadata={op_name="jit(train_step)/transpose(jvp())/while/body/closed_call/checkpoint/mul" stack_frame_id=0}
  %constant.365.clone.5 = f32[]{:T(128)} constant(0.00048828125)
  %mul.2133 = f32[1,128]{1,0:T(1,128)} broadcast(%constant.365.clone.5), dimensions={}, metadata={op_name="jit(train_step)/transpose(jvp())/while/body/closed_call/checkpoint/mul" stack_frame_id=0}
  %mul.2130 = f32[1,128]{1,0:T(1,128)} multiply(%mul.2131, %mul.2133), metadata={op_name="jit(train_step)/transpose(jvp())/while/body/closed_call/checkpoint/mul" stack_frame_id=0}
  ROOT %bitcast.820 = f32[128]{0:T(128)S(1)} bitcast(%mul.2130), metadata={op_name="jit(train_step)/transpose(jvp())/while/body/closed_call/checkpoint/mul" stack_frame_id=0}
}

%region_17.21 (reduce_sum.175: bf16[], reduce_sum.179: bf16[]) -> bf16[] {
  %reduce_sum.175 = bf16[]{:T(256)} parameter(0), metadata={op_name="jit(train_step)/transpose(jvp())/while/body/closed_call/checkpoint/reduce_sum"}
  %reduce_sum.179 = bf16[]{:T(256)} parameter(1), metadata={op_name="jit(train_step)/transpose(jvp())/while/body/closed_call/checkpoint/reduce_sum"}
  ROOT %reduce_sum.180 = bf16[]{:T(256)} add(%reduce_sum.175, %reduce_sum.179), metadata={op_name="checkpoint/reduce_sum" stack_frame_id=0}, backend_config={"flag_configs":[],"scoped_memory_configs":[],"used_scoped_memory_configs":[],"aliasing_operands":{"lists":[]}}
}

%fused_computation.196.clone.1 (param_0.1466: bf16[1,128,4096], param_1.1530: f32[128], param_2.1176: bf16[1,128,4096], param_3.795: bf16[1,128,4096], param_4.490: f32[128], param_5.417: bf16[4096]) -> (bf16[4096], bf16[1,128,4096]) {
  %param_2.1176 = bf16[1,128,4096]{2,1,0:T(8,128)(2,1)S(1)} parameter(2)
  %convert_element_type.1048 = f32[1,128,4096]{2,1,0:T(8,128)} convert(%param_2.1176), metadata={op_name="jit(train_step)/transpose(jvp())/while/body/closed_call/checkpoint/rematted_computation/convert_element_type" stack_frame_id=0}
  %param_1.1530 = f32[128]{0:T(128)S(1)} parameter(1)
  %mul.2136 = f32[1,128,4096]{2,1,0:T(8,128)} broadcast(%param_1.1530), dimensions={1}, metadata={op_name="jit(train_step)/transpose(jvp())/while/body/closed_call/checkpoint/rematted_computation/mul" stack_frame_id=0}
  %mul.2135 = f32[1,128,4096]{2,1,0:T(8,128)} multiply(%convert_element_type.1048, %mul.2136), metadata={op_name="jit(train_step)/transpose(jvp())/while/body/closed_call/checkpoint/rematted_computation/mul" stack_frame_id=0}
  %convert_element_type.1047 = bf16[1,128,4096]{2,1,0:T(8,128)(2,1)} convert(%mul.2135), metadata={op_name="jit(train_step)/transpose(jvp())/while/body/closed_call/checkpoint/rematted_computation/convert_element_type" stack_frame_id=0}
  %convert.190 = f32[1,128,4096]{2,1,0:T(8,128)} convert(%convert_element_type.1047)
  %param_0.1466 = bf16[1,128,4096]{2,1,0:T(8,128)(2,1)S(1)} parameter(0)
  %convert.191 = f32[1,128,4096]{2,1,0:T(8,128)} convert(%param_0.1466)
  %mul.2134 = f32[1,128,4096]{2,1,0:T(8,128)} multiply(%convert.190, %convert.191), metadata={op_name="jit(train_step)/transpose(jvp())/while/body/closed_call/checkpoint/mul" stack_frame_id=0}, backend_config={"flag_configs":[],"scoped_memory_configs":[],"used_scoped_memory_configs":[],"float_type_correction_info":{"original_type":"BF16","original_shape":{"element_type":"BF16","dimensions":["1","128","4096"],"tuple_shapes":[],"layout":{"minor_to_major":["2","1","0"],"tiles":[{"dimensions":["8","128"]},{"dimensions":["2","1"]}],"element_size_in_bits":"0","memory_space":"0","dim_level_types":[],"index_primitive_type":"PRIMITIVE_TYPE_INVALID","pointer_primitive_type":"PRIMITIVE_TYPE_INVALID","dim_unique":[],"dim_ordered":[],"dynamic_shape_metadata_prefix_bytes":"0","tail_padding_alignment_in_elements":"1","split_configs":[]},"is_dynamic_dimension":[false,false,false]}}}
  %convert.192 = bf16[1,128,4096]{2,1,0:T(8,128)(2,1)} convert(%mul.2134)
  %constant.366.clone.5 = bf16[]{:T(256)} constant(0)
  %reduce.153 = bf16[4096]{0:T(1024)(128)(2,1)} reduce(%convert.192, %constant.366.clone.5), dimensions={0,1}, to_apply=%region_17.21, metadata={op_name="jit(train_step)/transpose(jvp())/while/body/closed_call/checkpoint/reduce_sum" stack_frame_id=0}
  %param_3.795 = bf16[1,128,4096]{2,1,0:T(8,128)(2,1)S(1)} parameter(3)
  %convert.194 = f32[1,128,4096]{2,1,0:T(8,128)} convert(%param_3.795)
  %param_5.417 = bf16[4096]{0:T(1024)(128)(2,1)S(1)} parameter(5)
  %mul.1479.clone.3 = bf16[1,128,4096]{2,1,0:T(8,128)(2,1)} broadcast(%param_5.417), dimensions={2}, metadata={op_name="jit(train_step)/transpose(jvp())/while/body/closed_call/checkpoint/rematted_computation/mul" stack_frame_id=0}
  %convert.193 = f32[1,128,4096]{2,1,0:T(8,128)} convert(%mul.1479.clone.3)
  %mul.1419.clone.3 = f32[1,128,4096]{2,1,0:T(8,128)} multiply(%convert.191, %convert.193), metadata={op_name="jit(train_step)/transpose(jvp())/while/body/closed_call/checkpoint/mul" stack_frame_id=0}, backend_config={"flag_configs":[],"scoped_memory_configs":[],"used_scoped_memory_configs":[],"float_type_correction_info":{"original_type":"BF16","original_shape":{"element_type":"BF16","dimensions":["1","128","4096"],"tuple_shapes":[],"layout":{"minor_to_major":["2","1","0"],"tiles":[{"dimensions":["8","128"]},{"dimensions":["2","1"]}],"element_size_in_bits":"0","memory_space":"0","dim_level_types":[],"index_primitive_type":"PRIMITIVE_TYPE_INVALID","pointer_primitive_type":"PRIMITIVE_TYPE_INVALID","dim_unique":[],"dim_ordered":[],"dynamic_shape_metadata_prefix_bytes":"0","tail_padding_alignment_in_elements":"1","split_configs":[]},"is_dynamic_dimension":[false,false,false]}}}
  %convert_element_type.782.clone.3 = f32[1,128,4096]{2,1,0:T(8,128)} convert(%mul.1419.clone.3), metadata={op_name="jit(train_step)/transpose(jvp())/while/body/closed_call/checkpoint/convert_element_type" stack_frame_id=0}
  %mul.1395.clone.3 = f32[1,128,4096]{2,1,0:T(8,128)} multiply(%convert_element_type.782.clone.3, %mul.2136), metadata={op_name="jit(train_step)/transpose(jvp())/while/body/closed_call/checkpoint/mul" stack_frame_id=0}
  %param_4.490 = f32[128]{0:T(128)S(1)} parameter(4)
  %mul.1408.clone.3 = f32[1,128,4096]{2,1,0:T(8,128)} broadcast(%param_4.490), dimensions={1}, metadata={op_name="jit(train_step)/transpose(jvp())/while/body/closed_call/checkpoint/mul" stack_frame_id=0}
  %mul.1394.clone.3 = f32[1,128,4096]{2,1,0:T(8,128)} multiply(%convert_element_type.1048, %mul.1408.clone.3), metadata={op_name="jit(train_step)/transpose(jvp())/while/body/closed_call/checkpoint/mul" stack_frame_id=0}
  %add_any.142.clone.3 = f32[1,128,4096]{2,1,0:T(8,128)} add(%mul.1395.clone.3, %mul.1394.clone.3), metadata={op_name="jit(train_step)/transpose(jvp())/while/body/closed_call/checkpoint/add_any" stack_frame_id=0}
  %convert_element_type.780.clone.3 = bf16[1,128,4096]{2,1,0:T(8,128)(2,1)} convert(%add_any.142.clone.3), metadata={op_name="jit(train_step)/transpose(jvp())/while/body/closed_call/checkpoint/convert_element_type" stack_frame_id=0}
  %convert.195 = f32[1,128,4096]{2,1,0:T(8,128)} convert(%convert_element_type.780.clone.3)
  %add_any.140.clone.3 = f32[1,128,4096]{2,1,0:T(8,128)} add(%convert.194, %convert.195), metadata={op_name="jit(train_step)/transpose(jvp())/while/body/closed_call/checkpoint/add_any" stack_frame_id=0}, backend_config={"flag_configs":[],"scoped_memory_configs":[],"used_scoped_memory_configs":[],"float_type_correction_info":{"original_type":"BF16","original_shape":{"element_type":"BF16","dimensions":["1","128","4096"],"tuple_shapes":[],"layout":{"minor_to_major":["2","1","0"],"tiles":[{"dimensions":["8","128"]},{"dimensions":["2","1"]}],"element_size_in_bits":"0","memory_space":"0","dim_level_types":[],"index_primitive_type":"PRIMITIVE_TYPE_INVALID","pointer_primitive_type":"PRIMITIVE_TYPE_INVALID","dim_unique":[],"dim_ordered":[],"dynamic_shape_metadata_prefix_bytes":"0","tail_padding_alignment_in_elements":"1","split_configs":[]},"is_dynamic_dimension":[false,false,false]}}}
  %convert.196 = bf16[1,128,4096]{2,1,0:T(8,128)(2,1)} convert(%add_any.140.clone.3)
  ROOT %tuple.189 = (bf16[4096]{0:T(1024)(128)(2,1)}, bf16[1,128,4096]{2,1,0:T(8,128)(2,1)}) tuple(%reduce.153, %convert.196)
}

%fused_computation.178.clone.clone.clone.1 (param_0.1468: bf16[1,128,4096]) -> bf16[128,4096,1] {
  %param_0.1468 = bf16[1,128,4096]{2,1,0:T(8,128)(2,1)} parameter(0)
  ROOT %bitcast.824 = bf16[128,4096,1]{1,0,2:T(8,128)(2,1)} bitcast(%param_0.1468)
}

%fused_computation.88.clone.clone.clone.1 (param_0.1467: bf16[1,32,128,4096]) -> bf16[32,128,4096] {
  %param_0.1467 = bf16[1,32,128,4096]{3,2,1,0:T(8,128)(2,1)S(1)} parameter(0)
  ROOT %bitcast.823 = bf16[32,128,4096]{2,1,0:T(8,128)(2,1)} bitcast(%param_0.1467), metadata={op_name="jit(train_step)/transpose(jvp())/while/body/closed_call/checkpoint/rematted_computation/dot_general" stack_frame_id=0}
}

%region_15.18 (dot_general.157: f32[], dot_general.158: f32[]) -> f32[] {
  %dot_general.157 = f32[]{:T(128)} parameter(0), metadata={op_name="vmap(static_sparsity_splash)/jit(_splash_attention)/hsd,hsd->hs/dot_general"}
  %dot_general.158 = f32[]{:T(128)} parameter(1), metadata={op_name="vmap(static_sparsity_splash)/jit(_splash_attention)/hsd,hsd->hs/dot_general"}
  ROOT %add.154 = f32[]{:T(128)} add(%dot_general.157, %dot_general.158), metadata={op_name="add.31"}, backend_config={"flag_configs":[],"scoped_memory_configs":[],"used_scoped_memory_configs":[],"aliasing_operands":{"lists":[]}}
}

%fused_computation.159.clone.1 (param_0.1469: bf16[32,128,128], param_1.1531: bf16[1,32,128,4096], param_2.1177: bf16[1,128,4096]) -> (f32[32,128], bf16[128,32,128]) {
  %param_0.1469 = bf16[32,128,128]{2,1,0:T(8,128)(2,1)} parameter(0)
  %bitcast.826 = bf16[1,32,128,128]{3,2,1,0:T(8,128)(2,1)} bitcast(%param_0.1469), metadata={op_name="jit(train_step)/transpose(jvp())/while/body/closed_call/checkpoint/rematted_computation/shard_map/vmap(static_sparsity_splash)/jit(_splash_attention)/splash_mha_fwd_segmented_residuals/splash_mha_fwd_segmented_residuals/broadcast_in_dim" stack_frame_id=0}
  %convert.88 = f32[1,32,128,128]{3,2,1,0:T(8,128)} convert(%bitcast.826), metadata={op_name="jit(train_step)/transpose(jvp())/while/body/closed_call/checkpoint/shard_map/convert" stack_frame_id=0}
  %param_2.1177 = bf16[1,128,4096]{2,1,0:T(8,128)(2,1)} parameter(2)
  %fusion.193.clone.3 = bf16[128,4096,1]{1,0,2:T(8,128)(2,1)} fusion(%param_2.1177), kind=kLoop, calls=%fused_computation.178.clone.clone.clone.1
  %param_1.1531 = bf16[1,32,128,4096]{3,2,1,0:T(8,128)(2,1)S(1)} parameter(1)
  %fusion.107.clone.3 = bf16[32,128,4096]{2,1,0:T(8,128)(2,1)} fusion(%param_1.1531), kind=kLoop, calls=%fused_computation.88.clone.clone.clone.1, metadata={op_name="jit(train_step)/transpose(jvp())/while/body/closed_call/checkpoint/rematted_computation/dot_general" stack_frame_id=0}
  %convolution.70.clone.3 = bf16[128,32,128]{2,0,1:T(8,128)(2,1)} convolution(%fusion.193.clone.3, %fusion.107.clone.3), window={size=32 pad=31_31 rhs_reversal=1}, dim_labels=bf0_0oi->b0f, metadata={op_name="jit(train_step)/transpose(jvp())/while/body/closed_call/checkpoint/dot_general" stack_frame_id=0}
  %bitcast.825 = bf16[1,32,128,128]{3,2,1,0:T(8,128)(2,1)} bitcast(%convolution.70.clone.3), metadata={op_name="jit(train_step)/transpose(jvp())/while/body/closed_call/checkpoint/transpose" stack_frame_id=0}
  %convert.87 = f32[1,32,128,128]{3,2,1,0:T(8,128)} convert(%bitcast.825), metadata={op_name="jit(train_step)/transpose(jvp())/while/body/closed_call/checkpoint/shard_map/convert.1" stack_frame_id=0}
  %multiply.223 = f32[1,32,128,128]{3,2,1,0:T(8,128)} multiply(%convert.88, %convert.87), metadata={op_name="jit(train_step)/transpose(jvp())/while/body/closed_call/checkpoint/shard_map/multiply" stack_frame_id=0}
  %constant.355.clone.14 = f32[]{:T(128)} constant(0)
  %dot_general.189 = f32[32,128]{1,0:T(8,128)S(1)} reduce(%multiply.223, %constant.355.clone.14), dimensions={0,3}, to_apply=%region_15.18, metadata={op_name="jit(train_step)/transpose(jvp())/while/body/closed_call/checkpoint/shard_map/vmap(static_sparsity_splash)/jit(_splash_attention)/hsd,hsd->hs/dot_general" stack_frame_id=0}
  ROOT %tuple.190 = (f32[32,128]{1,0:T(8,128)S(1)}, bf16[128,32,128]{2,0,1:T(8,128)(2,1)}) tuple(%dot_general.189, %convolution.70.clone.3)
}

%fused_computation.176.clone.1 (param_0.1482: bf16[32,128,128], param_1.1539: bf16[128,128]) -> bf16[1,128,32,128] {
  %param_0.1482 = bf16[32,128,128]{2,1,0:T(8,128)(2,1)S(1)} parameter(0)
  %bitcast.842 = bf16[1,32,128,128]{3,2,1,0:T(8,128)(2,1)} bitcast(%param_0.1482), metadata={op_name="jit(train_step)/transpose(jvp())/while/body/closed_call/checkpoint/shard_map/vmap(static_sparsity_splash)/jit(_splash_attention)/splash_mha_dq_segmented_no_residuals/splash_mha_dq_segmented_no_residuals/broadcast_in_dim" stack_frame_id=0}
  %convert.197 = f32[1,32,128,128]{3,2,1,0:T(8,128)} convert(%bitcast.842)
  %param_1.1539 = bf16[128,128]{1,0:T(8,128)(2,1)S(1)} parameter(1)
  %broadcast.681 = bf16[1,32,128,128]{3,2,1,0:T(8,128)(2,1)} broadcast(%param_1.1539), dimensions={2,3}, metadata={op_name="jit(train_step)/transpose(jvp())/while/body/closed_call/checkpoint/rematted_computation/mul" stack_frame_id=0}
  %convert.198 = f32[1,32,128,128]{3,2,1,0:T(8,128)} convert(%broadcast.681)
  %mul.2147 = f32[1,32,128,128]{3,2,1,0:T(8,128)} multiply(%convert.197, %convert.198), metadata={op_name="jit(train_step)/transpose(jvp())/while/body/closed_call/checkpoint/mul" stack_frame_id=0}, backend_config={"flag_configs":[],"scoped_memory_configs":[],"used_scoped_memory_configs":[],"float_type_correction_info":{"original_type":"BF16","original_shape":{"element_type":"BF16","dimensions":["1","32","128","128"],"tuple_shapes":[],"layout":{"minor_to_major":["3","2","1","0"],"tiles":[{"dimensions":["8","128"]},{"dimensions":["2","1"]}],"element_size_in_bits":"0","memory_space":"0","dim_level_types":[],"index_primitive_type":"PRIMITIVE_TYPE_INVALID","pointer_primitive_type":"PRIMITIVE_TYPE_INVALID","dim_unique":[],"dim_ordered":[],"dynamic_shape_metadata_prefix_bytes":"0","tail_padding_alignment_in_elements":"1","split_configs":[]},"is_dynamic_dimension":[false,false,false,false]}}}
  %convert.199 = bf16[1,32,128,128]{3,2,1,0:T(8,128)(2,1)} convert(%mul.2147)
  ROOT %bitcast.841 = bf16[1,128,32,128]{3,1,2,0:T(8,128)(2,1)S(1)} bitcast(%convert.199), metadata={op_name="jit(train_step)/transpose(jvp())/while/body/closed_call/checkpoint/mul" stack_frame_id=0}
}

%fused_computation.418.clone.1 (param_0.1483: bf16[1,128,32,128]) -> (bf16[1,128,32,64], bf16[1,128,32,64]) {
  %param_0.1483 = bf16[1,128,32,128]{3,1,2,0:T(8,128)(2,1)S(1)} parameter(0)
  %slice.79 = bf16[1,128,32,64]{3,1,2,0:T(8,128)(2,1)S(1)} slice(%param_0.1483), slice={[0:1], [0:128], [0:32], [64:128]}, metadata={op_name="jit(train_step)/transpose(jvp())/while/body/closed_call/checkpoint/split" stack_frame_id=0}
  %slice.50.clone.3 = bf16[1,128,32,64]{3,1,2,0:T(8,128)(2,1)} slice(%param_0.1483), slice={[0:1], [0:128], [0:32], [0:64]}, metadata={op_name="jit(train_step)/transpose(jvp())/while/body/closed_call/checkpoint/split" stack_frame_id=0}
  %convert.200 = f32[1,128,32,64]{3,1,2,0:T(8,128)} convert(%slice.50.clone.3)
  %neg.103.clone.3 = f32[1,128,32,64]{3,1,2,0:T(8,128)} negate(%convert.200), metadata={op_name="jit(train_step)/transpose(jvp())/while/body/closed_call/checkpoint/neg" stack_frame_id=0}, backend_config={"flag_configs":[],"scoped_memory_configs":[],"used_scoped_memory_configs":[],"float_type_correction_info":{"original_type":"BF16","original_shape":{"element_type":"BF16","dimensions":["1","128","32","64"],"tuple_shapes":[],"layout":{"minor_to_major":["3","1","2","0"],"tiles":[{"dimensions":["8","128"]},{"dimensions":["2","1"]}],"element_size_in_bits":"0","memory_space":"0","dim_level_types":[],"index_primitive_type":"PRIMITIVE_TYPE_INVALID","pointer_primitive_type":"PRIMITIVE_TYPE_INVALID","dim_unique":[],"dim_ordered":[],"dynamic_shape_metadata_prefix_bytes":"0","tail_padding_alignment_in_elements":"1","split_configs":[]},"is_dynamic_dimension":[false,false,false,false]}}}
  %convert.201 = bf16[1,128,32,64]{3,1,2,0:T(8,128)(2,1)S(1)} convert(%neg.103.clone.3)
  ROOT %tuple.195 = (bf16[1,128,32,64]{3,1,2,0:T(8,128)(2,1)S(1)}, bf16[1,128,32,64]{3,1,2,0:T(8,128)(2,1)S(1)}) tuple(%slice.79, %convert.201)
}

%fused_computation.170.clone.1 (param_0.1484: bf16[1,128,32,64], param_1.1540: bf16[1,128,32,64], param_2.1184: bf16[32,128,128], param_3.802: bf16[128,128]) -> bf16[128,32,128] {
  %param_1.1540 = bf16[1,128,32,64]{3,1,2,0:T(8,128)(2,1)S(1)} parameter(1)
  %constant.997 = bf16[]{:T(256)} constant(-inf)
  %pad.69 = bf16[1,128,32,128]{3,1,2,0:T(8,128)(2,1)} pad(%param_1.1540, %constant.997), padding=0_0x0_0x0_0x0_64, metadata={op_name="jit(train_step)/transpose(jvp())/while/body/closed_call/checkpoint/concatenate" stack_frame_id=0}
  %convert.202 = f32[1,128,32,128]{3,1,2,0:T(8,128)} convert(%pad.69)
  %param_0.1484 = bf16[1,128,32,64]{3,1,2,0:T(8,128)(2,1)S(1)} parameter(0)
  %pad.68 = bf16[1,128,32,128]{3,1,2,0:T(8,128)(2,1)} pad(%param_0.1484, %constant.997), padding=0_0x0_0x0_0x64_0, metadata={op_name="jit(train_step)/transpose(jvp())/while/body/closed_call/checkpoint/concatenate" stack_frame_id=0}
  %convert.203 = f32[1,128,32,128]{3,1,2,0:T(8,128)} convert(%pad.68)
  %maximum.53 = f32[1,128,32,128]{3,1,2,0:T(8,128)} maximum(%convert.202, %convert.203), metadata={op_name="jit(train_step)/transpose(jvp())/while/body/closed_call/checkpoint/concatenate" stack_frame_id=0}, backend_config={"flag_configs":[],"scoped_memory_configs":[],"used_scoped_memory_configs":[],"float_type_correction_info":{"original_type":"BF16","original_shape":{"element_type":"BF16","dimensions":["1","128","32","128"],"tuple_shapes":[],"layout":{"minor_to_major":["3","1","2","0"],"tiles":[{"dimensions":["8","128"]},{"dimensions":["2","1"]}],"element_size_in_bits":"0","memory_space":"0","dim_level_types":[],"index_primitive_type":"PRIMITIVE_TYPE_INVALID","pointer_primitive_type":"PRIMITIVE_TYPE_INVALID","dim_unique":[],"dim_ordered":[],"dynamic_shape_metadata_prefix_bytes":"0","tail_padding_alignment_in_elements":"1","split_configs":[]},"is_dynamic_dimension":[false,false,false,false]}}}
  %param_2.1184 = bf16[32,128,128]{2,1,0:T(8,128)(2,1)S(1)} parameter(2)
  %bitcast.845 = bf16[1,32,128,128]{3,2,1,0:T(8,128)(2,1)} bitcast(%param_2.1184), metadata={op_name="jit(train_step)/transpose(jvp())/while/body/closed_call/checkpoint/shard_map/vmap(static_sparsity_splash)/jit(_splash_attention)/splash_mha_dq_segmented_no_residuals/splash_mha_dq_segmented_no_residuals/broadcast_in_dim" stack_frame_id=0}
  %convert.204 = f32[1,32,128,128]{3,2,1,0:T(8,128)} convert(%bitcast.845)
  %param_3.802 = bf16[128,128]{1,0:T(8,128)(2,1)S(1)} parameter(3)
  %broadcast.682 = bf16[1,32,128,128]{3,2,1,0:T(8,128)(2,1)} broadcast(%param_3.802), dimensions={2,3}, metadata={op_name="jit(train_step)/transpose(jvp())/while/body/closed_call/checkpoint/rematted_computation/mul" stack_frame_id=0}
  %convert.205 = f32[1,32,128,128]{3,2,1,0:T(8,128)} convert(%broadcast.682)
  %mul.2148 = f32[1,32,128,128]{3,2,1,0:T(8,128)} multiply(%convert.204, %convert.205), metadata={op_name="jit(train_step)/transpose(jvp())/while/body/closed_call/checkpoint/mul" stack_frame_id=0}, backend_config={"flag_configs":[],"scoped_memory_configs":[],"used_scoped_memory_configs":[],"float_type_correction_info":{"original_type":"BF16","original_shape":{"element_type":"BF16","dimensions":["1","32","128","128"],"tuple_shapes":[],"layout":{"minor_to_major":["3","2","1","0"],"tiles":[{"dimensions":["8","128"]},{"dimensions":["2","1"]}],"element_size_in_bits":"0","memory_space":"0","dim_level_types":[],"index_primitive_type":"PRIMITIVE_TYPE_INVALID","pointer_primitive_type":"PRIMITIVE_TYPE_INVALID","dim_unique":[],"dim_ordered":[],"dynamic_shape_metadata_prefix_bytes":"0","tail_padding_alignment_in_elements":"1","split_configs":[]},"is_dynamic_dimension":[false,false,false,false]}}}
  %convert.206 = bf16[1,32,128,128]{3,2,1,0:T(8,128)(2,1)} convert(%mul.2148)
  %bitcast.844 = bf16[1,128,32,128]{3,1,2,0:T(8,128)(2,1)} bitcast(%convert.206), metadata={op_name="jit(train_step)/transpose(jvp())/while/body/closed_call/checkpoint/mul" stack_frame_id=0}
  %convert.207 = f32[1,128,32,128]{3,1,2,0:T(8,128)} convert(%bitcast.844)
  %add_any.162 = f32[1,128,32,128]{3,1,2,0:T(8,128)} add(%maximum.53, %convert.207), metadata={op_name="jit(train_step)/transpose(jvp())/while/body/closed_call/checkpoint/add_any" stack_frame_id=0}, backend_config={"flag_configs":[],"scoped_memory_configs":[],"used_scoped_memory_configs":[],"float_type_correction_info":{"original_type":"BF16","original_shape":{"element_type":"BF16","dimensions":["1","128","32","128"],"tuple_shapes":[],"layout":{"minor_to_major":["3","1","2","0"],"tiles":[{"dimensions":["8","128"]},{"dimensions":["2","1"]}],"element_size_in_bits":"0","memory_space":"0","dim_level_types":[],"index_primitive_type":"PRIMITIVE_TYPE_INVALID","pointer_primitive_type":"PRIMITIVE_TYPE_INVALID","dim_unique":[],"dim_ordered":[],"dynamic_shape_metadata_prefix_bytes":"0","tail_padding_alignment_in_elements":"1","split_configs":[]},"is_dynamic_dimension":[false,false,false,false]}}}
  %convert.208 = bf16[1,128,32,128]{3,1,2,0:T(8,128)(2,1)} convert(%add_any.162)
  ROOT %bitcast.843 = bf16[128,32,128]{2,0,1:T(8,128)(2,1)S(1)} bitcast(%convert.208)
}

%bitcast_fusion.1.clone.1 (bitcast_input.13: bf16[128,32,128]) -> bf16[128,32,128] {
  %bitcast_input.13 = bf16[128,32,128]{2,0,1:T(8,128)(2,1)S(1)} parameter(0)
  ROOT %bitcast.857 = bf16[128,32,128]{2,0,1:T(8,128)(2,1)} bitcast(%bitcast_input.13)
}

%fused_computation.92.clone.clone.clone.1 (param_0.1495: bf16[1,4096,32,128]) -> bf16[4096,32,128] {
  %param_0.1495 = bf16[1,4096,32,128]{1,3,2,0:T(8,128)(2,1)S(1)} parameter(0)
  ROOT %bitcast.856 = bf16[4096,32,128]{0,2,1:T(8,128)(2,1)} bitcast(%param_0.1495), metadata={op_name="jit(train_step)/transpose(jvp())/while/body/closed_call/checkpoint/rematted_computation/dot_general" stack_frame_id=0}
}

%fused_computation.141.clone.1 (param_0.1496: bf16[128,32,128], param_1.1547: bf16[1,4096,32,128]) -> bf16[128,4096] {
  %param_0.1496 = bf16[128,32,128]{2,0,1:T(8,128)(2,1)S(1)} parameter(0)
  %fusion.446 = bf16[128,32,128]{2,0,1:T(8,128)(2,1)} fusion(%param_0.1496), kind=kLoop, calls=%bitcast_fusion.1.clone.1
  %param_1.1547 = bf16[1,4096,32,128]{1,3,2,0:T(8,128)(2,1)S(1)} parameter(1)
  %fusion.445 = bf16[4096,32,128]{0,2,1:T(8,128)(2,1)} fusion(%param_1.1547), kind=kLoop, calls=%fused_computation.92.clone.clone.clone.1, metadata={op_name="jit(train_step)/transpose(jvp())/while/body/closed_call/checkpoint/rematted_computation/dot_general" stack_frame_id=0}
  %convolution.154 = bf16[128,4096,1]{1,0,2:T(8,128)(2,1)} convolution(%fusion.446, %fusion.445), window={size=32}, dim_labels=b0f_o0i->bf0, metadata={op_name="jit(train_step)/transpose(jvp())/while/body/closed_call/checkpoint/dot_general" stack_frame_id=0}
  ROOT %bitcast.858 = bf16[128,4096]{1,0:T(8,128)(2,1)} bitcast(%convolution.154), metadata={op_name="jit(train_step)/transpose(jvp())/while/body/closed_call/checkpoint/dot_general" stack_frame_id=0}
}

%fused_computation.231.clone.1 (param_0.1474: bf16[8,128,128], param_1.1534: bf16[128,128]) -> bf16[1,128,8,128] {
  %param_0.1474 = bf16[8,128,128]{2,1,0:T(8,128)(2,1)S(1)} parameter(0)
  %bitcast.832 = bf16[1,8,128,128]{3,2,1,0:T(8,128)(2,1)} bitcast(%param_0.1474), metadata={op_name="jit(train_step)/transpose(jvp())/while/body/closed_call/checkpoint/shard_map/vmap(static_sparsity_splash)/jit(_splash_attention)/splash_mha_dkv_segmented_no_residuals/splash_mha_dkv_segmented_no_residuals/broadcast_in_dim" stack_frame_id=0}
  %convert.209 = f32[1,8,128,128]{3,2,1,0:T(8,128)} convert(%bitcast.832)
  %param_1.1534 = bf16[128,128]{1,0:T(8,128)(2,1)S(1)} parameter(1)
  %broadcast.679 = bf16[1,8,128,128]{3,2,1,0:T(8,128)(2,1)} broadcast(%param_1.1534), dimensions={2,3}, metadata={op_name="jit(train_step)/transpose(jvp())/while/body/closed_call/checkpoint/rematted_computation/mul" stack_frame_id=0}
  %convert.210 = f32[1,8,128,128]{3,2,1,0:T(8,128)} convert(%broadcast.679)
  %mul.2141 = f32[1,8,128,128]{3,2,1,0:T(8,128)} multiply(%convert.209, %convert.210), metadata={op_name="jit(train_step)/transpose(jvp())/while/body/closed_call/checkpoint/mul" stack_frame_id=0}, backend_config={"flag_configs":[],"scoped_memory_configs":[],"used_scoped_memory_configs":[],"float_type_correction_info":{"original_type":"BF16","original_shape":{"element_type":"BF16","dimensions":["1","8","128","128"],"tuple_shapes":[],"layout":{"minor_to_major":["3","2","1","0"],"tiles":[{"dimensions":["8","128"]},{"dimensions":["2","1"]}],"element_size_in_bits":"0","memory_space":"0","dim_level_types":[],"index_primitive_type":"PRIMITIVE_TYPE_INVALID","pointer_primitive_type":"PRIMITIVE_TYPE_INVALID","dim_unique":[],"dim_ordered":[],"dynamic_shape_metadata_prefix_bytes":"0","tail_padding_alignment_in_elements":"1","split_configs":[]},"is_dynamic_dimension":[false,false,false,false]}}}
  %convert.211 = bf16[1,8,128,128]{3,2,1,0:T(8,128)(2,1)} convert(%mul.2141)
  ROOT %bitcast.831 = bf16[1,128,8,128]{3,1,2,0:T(8,128)(2,1)S(1)} bitcast(%convert.211), metadata={op_name="jit(train_step)/transpose(jvp())/while/body/closed_call/checkpoint/mul" stack_frame_id=0}
}

%fused_computation.419.clone.1 (param_0.1475: bf16[1,128,8,128]) -> (bf16[1,128,8,64], bf16[1,128,8,64]) {
  %param_0.1475 = bf16[1,128,8,128]{3,1,2,0:T(8,128)(2,1)S(1)} parameter(0)
  %slice.78 = bf16[1,128,8,64]{3,1,2,0:T(8,128)(2,1)S(1)} slice(%param_0.1475), slice={[0:1], [0:128], [0:8], [64:128]}, metadata={op_name="jit(train_step)/transpose(jvp())/while/body/closed_call/checkpoint/split" stack_frame_id=0}
  %slice.52.clone.3 = bf16[1,128,8,64]{3,1,2,0:T(8,128)(2,1)} slice(%param_0.1475), slice={[0:1], [0:128], [0:8], [0:64]}, metadata={op_name="jit(train_step)/transpose(jvp())/while/body/closed_call/checkpoint/split" stack_frame_id=0}
  %convert.212 = f32[1,128,8,64]{3,1,2,0:T(8,128)} convert(%slice.52.clone.3)
  %neg.105.clone.3 = f32[1,128,8,64]{3,1,2,0:T(8,128)} negate(%convert.212), metadata={op_name="jit(train_step)/transpose(jvp())/while/body/closed_call/checkpoint/neg" stack_frame_id=0}, backend_config={"flag_configs":[],"scoped_memory_configs":[],"used_scoped_memory_configs":[],"float_type_correction_info":{"original_type":"BF16","original_shape":{"element_type":"BF16","dimensions":["1","128","8","64"],"tuple_shapes":[],"layout":{"minor_to_major":["3","1","2","0"],"tiles":[{"dimensions":["8","128"]},{"dimensions":["2","1"]}],"element_size_in_bits":"0","memory_space":"0","dim_level_types":[],"index_primitive_type":"PRIMITIVE_TYPE_INVALID","pointer_primitive_type":"PRIMITIVE_TYPE_INVALID","dim_unique":[],"dim_ordered":[],"dynamic_shape_metadata_prefix_bytes":"0","tail_padding_alignment_in_elements":"1","split_configs":[]},"is_dynamic_dimension":[false,false,false,false]}}}
  %convert.213 = bf16[1,128,8,64]{3,1,2,0:T(8,128)(2,1)S(1)} convert(%neg.105.clone.3)
  ROOT %tuple.192 = (bf16[1,128,8,64]{3,1,2,0:T(8,128)(2,1)S(1)}, bf16[1,128,8,64]{3,1,2,0:T(8,128)(2,1)S(1)}) tuple(%slice.78, %convert.213)
}

%fused_computation.226.clone.1 (param_0.1476: bf16[1,128,8,64], param_1.1535: bf16[1,128,8,64], param_2.1180: bf16[8,128,128], param_3.798: bf16[128,128]) -> bf16[128,8,128] {
  %param_1.1535 = bf16[1,128,8,64]{3,1,2,0:T(8,128)(2,1)S(1)} parameter(1)
  %constant.994 = bf16[]{:T(256)} constant(-inf)
  %pad.67 = bf16[1,128,8,128]{3,1,2,0:T(8,128)(2,1)} pad(%param_1.1535, %constant.994), padding=0_0x0_0x0_0x0_64, metadata={op_name="jit(train_step)/transpose(jvp())/while/body/closed_call/checkpoint/concatenate" stack_frame_id=0}
  %convert.214 = f32[1,128,8,128]{3,1,2,0:T(8,128)} convert(%pad.67)
  %param_0.1476 = bf16[1,128,8,64]{3,1,2,0:T(8,128)(2,1)S(1)} parameter(0)
  %pad.66 = bf16[1,128,8,128]{3,1,2,0:T(8,128)(2,1)} pad(%param_0.1476, %constant.994), padding=0_0x0_0x0_0x64_0, metadata={op_name="jit(train_step)/transpose(jvp())/while/body/closed_call/checkpoint/concatenate" stack_frame_id=0}
  %convert.215 = f32[1,128,8,128]{3,1,2,0:T(8,128)} convert(%pad.66)
  %maximum.52 = f32[1,128,8,128]{3,1,2,0:T(8,128)} maximum(%convert.214, %convert.215), metadata={op_name="jit(train_step)/transpose(jvp())/while/body/closed_call/checkpoint/concatenate" stack_frame_id=0}, backend_config={"flag_configs":[],"scoped_memory_configs":[],"used_scoped_memory_configs":[],"float_type_correction_info":{"original_type":"BF16","original_shape":{"element_type":"BF16","dimensions":["1","128","8","128"],"tuple_shapes":[],"layout":{"minor_to_major":["3","1","2","0"],"tiles":[{"dimensions":["8","128"]},{"dimensions":["2","1"]}],"element_size_in_bits":"0","memory_space":"0","dim_level_types":[],"index_primitive_type":"PRIMITIVE_TYPE_INVALID","pointer_primitive_type":"PRIMITIVE_TYPE_INVALID","dim_unique":[],"dim_ordered":[],"dynamic_shape_metadata_prefix_bytes":"0","tail_padding_alignment_in_elements":"1","split_configs":[]},"is_dynamic_dimension":[false,false,false,false]}}}
  %param_2.1180 = bf16[8,128,128]{2,1,0:T(8,128)(2,1)S(1)} parameter(2)
  %bitcast.835 = bf16[1,8,128,128]{3,2,1,0:T(8,128)(2,1)} bitcast(%param_2.1180), metadata={op_name="jit(train_step)/transpose(jvp())/while/body/closed_call/checkpoint/shard_map/vmap(static_sparsity_splash)/jit(_splash_attention)/splash_mha_dkv_segmented_no_residuals/splash_mha_dkv_segmented_no_residuals/broadcast_in_dim" stack_frame_id=0}
  %convert.216 = f32[1,8,128,128]{3,2,1,0:T(8,128)} convert(%bitcast.835)
  %param_3.798 = bf16[128,128]{1,0:T(8,128)(2,1)S(1)} parameter(3)
  %broadcast.680 = bf16[1,8,128,128]{3,2,1,0:T(8,128)(2,1)} broadcast(%param_3.798), dimensions={2,3}, metadata={op_name="jit(train_step)/transpose(jvp())/while/body/closed_call/checkpoint/rematted_computation/mul" stack_frame_id=0}
  %convert.217 = f32[1,8,128,128]{3,2,1,0:T(8,128)} convert(%broadcast.680)
  %mul.2142 = f32[1,8,128,128]{3,2,1,0:T(8,128)} multiply(%convert.216, %convert.217), metadata={op_name="jit(train_step)/transpose(jvp())/while/body/closed_call/checkpoint/mul" stack_frame_id=0}, backend_config={"flag_configs":[],"scoped_memory_configs":[],"used_scoped_memory_configs":[],"float_type_correction_info":{"original_type":"BF16","original_shape":{"element_type":"BF16","dimensions":["1","8","128","128"],"tuple_shapes":[],"layout":{"minor_to_major":["3","2","1","0"],"tiles":[{"dimensions":["8","128"]},{"dimensions":["2","1"]}],"element_size_in_bits":"0","memory_space":"0","dim_level_types":[],"index_primitive_type":"PRIMITIVE_TYPE_INVALID","pointer_primitive_type":"PRIMITIVE_TYPE_INVALID","dim_unique":[],"dim_ordered":[],"dynamic_shape_metadata_prefix_bytes":"0","tail_padding_alignment_in_elements":"1","split_configs":[]},"is_dynamic_dimension":[false,false,false,false]}}}
  %convert.218 = bf16[1,8,128,128]{3,2,1,0:T(8,128)(2,1)} convert(%mul.2142)
  %bitcast.834 = bf16[1,128,8,128]{3,1,2,0:T(8,128)(2,1)} bitcast(%convert.218), metadata={op_name="jit(train_step)/transpose(jvp())/while/body/closed_call/checkpoint/mul" stack_frame_id=0}
  %convert.219 = f32[1,128,8,128]{3,1,2,0:T(8,128)} convert(%bitcast.834)
  %add_any.161 = f32[1,128,8,128]{3,1,2,0:T(8,128)} add(%maximum.52, %convert.219), metadata={op_name="jit(train_step)/transpose(jvp())/while/body/closed_call/checkpoint/add_any" stack_frame_id=0}, backend_config={"flag_configs":[],"scoped_memory_configs":[],"used_scoped_memory_configs":[],"float_type_correction_info":{"original_type":"BF16","original_shape":{"element_type":"BF16","dimensions":["1","128","8","128"],"tuple_shapes":[],"layout":{"minor_to_major":["3","1","2","0"],"tiles":[{"dimensions":["8","128"]},{"dimensions":["2","1"]}],"element_size_in_bits":"0","memory_space":"0","dim_level_types":[],"index_primitive_type":"PRIMITIVE_TYPE_INVALID","pointer_primitive_type":"PRIMITIVE_TYPE_INVALID","dim_unique":[],"dim_ordered":[],"dynamic_shape_metadata_prefix_bytes":"0","tail_padding_alignment_in_elements":"1","split_configs":[]},"is_dynamic_dimension":[false,false,false,false]}}}
  %convert.220 = bf16[1,128,8,128]{3,1,2,0:T(8,128)(2,1)} convert(%add_any.161)
  ROOT %bitcast.833 = bf16[128,8,128]{2,0,1:T(8,128)(2,1)S(1)} bitcast(%convert.220)
}

%bitcast_fusion.clone.1 (bitcast_input.12: bf16[128,8,128]) -> bf16[128,8,128] {
  %bitcast_input.12 = bf16[128,8,128]{2,0,1:T(8,128)(2,1)S(1)} parameter(0)
  ROOT %bitcast.854 = bf16[128,8,128]{2,0,1:T(8,128)(2,1)} bitcast(%bitcast_input.12)
}

%fused_computation.105.clone.clone.clone.1 (param_0.1493: bf16[1,4096,8,128]) -> bf16[4096,8,128] {
  %param_0.1493 = bf16[1,4096,8,128]{1,3,2,0:T(8,128)(2,1)S(1)} parameter(0)
  ROOT %bitcast.853 = bf16[4096,8,128]{0,2,1:T(8,128)(2,1)} bitcast(%param_0.1493), metadata={op_name="jit(train_step)/transpose(jvp())/while/body/closed_call/checkpoint/rematted_computation/dot_general" stack_frame_id=0}
}

%fused_computation.139.clone.1 (param_0.1494: bf16[128,8,128], param_1.1546: bf16[1,4096,8,128]) -> bf16[128,4096] {
  %param_0.1494 = bf16[128,8,128]{2,0,1:T(8,128)(2,1)S(1)} parameter(0)
  %fusion.444 = bf16[128,8,128]{2,0,1:T(8,128)(2,1)} fusion(%param_0.1494), kind=kLoop, calls=%bitcast_fusion.clone.1
  %param_1.1546 = bf16[1,4096,8,128]{1,3,2,0:T(8,128)(2,1)S(1)} parameter(1)
  %fusion.443 = bf16[4096,8,128]{0,2,1:T(8,128)(2,1)} fusion(%param_1.1546), kind=kLoop, calls=%fused_computation.105.clone.clone.clone.1, metadata={op_name="jit(train_step)/transpose(jvp())/while/body/closed_call/checkpoint/rematted_computation/dot_general" stack_frame_id=0}
  %convolution.153 = bf16[128,4096,1]{1,0,2:T(8,128)(2,1)} convolution(%fusion.444, %fusion.443), window={size=8}, dim_labels=b0f_o0i->bf0, metadata={op_name="jit(train_step)/transpose(jvp())/while/body/closed_call/checkpoint/dot_general" stack_frame_id=0}
  ROOT %bitcast.855 = bf16[128,4096]{1,0:T(8,128)(2,1)S(1)} bitcast(%convolution.153), metadata={op_name="jit(train_step)/transpose(jvp())/while/body/closed_call/checkpoint/dot_general" stack_frame_id=0}
}

%fused_computation.228.clone.clone.clone.1 (param_0.1498: bf16[8,128,128]) -> bf16[128,8,128] {
  %param_0.1498 = bf16[8,128,128]{2,1,0:T(8,128)(2,1)S(1)} parameter(0)
  ROOT %bitcast.860 = bf16[128,8,128]{2,0,1:T(8,128)(2,1)} bitcast(%param_0.1498)
}

%fused_computation.101.clone.clone.clone.clone.clone.clone.clone.clone.clone.clone.clone.1 (param_0.1497: bf16[1,4096,8,128]) -> bf16[4096,8,128] {
  %param_0.1497 = bf16[1,4096,8,128]{3,1,2,0:T(8,128)(2,1)S(1)} parameter(0)
  ROOT %bitcast.859 = bf16[4096,8,128]{2,0,1:T(8,128)(2,1)} bitcast(%param_0.1497), metadata={op_name="jit(train_step)/transpose(jvp())/while/body/closed_call/checkpoint/rematted_computation/dot_general" stack_frame_id=0}
}

%region_16.20 (reduce_sum.172: f32[], reduce_sum.173: f32[]) -> f32[] {
  %reduce_sum.172 = f32[]{:T(128)} parameter(0), metadata={op_name="jit(train_step)/transpose(jvp())/while/body/closed_call/checkpoint/reduce_sum"}
  %reduce_sum.173 = f32[]{:T(128)} parameter(1), metadata={op_name="jit(train_step)/transpose(jvp())/while/body/closed_call/checkpoint/reduce_sum"}
  ROOT %reduce_sum.174 = f32[]{:T(128)} add(%reduce_sum.172, %reduce_sum.173), metadata={op_name="checkpoint/reduce_sum" stack_frame_id=0}, backend_config={"flag_configs":[],"scoped_memory_configs":[],"used_scoped_memory_configs":[],"aliasing_operands":{"lists":[]}}
}

%fused_computation.155.clone.1 (param_0.1499: bf16[4,1,128,4096], param_1.1548: s32[], param_2.1189: bf16[4096], param_3.805: bf16[128,4096], param_4.495: bf16[128,4096], param_5.418: bf16[1,4096,8,128], param_6.269: bf16[8,128,128]) -> (f32[128], bf16[1,128,4096]) {
  %param_0.1499 = bf16[4,1,128,4096]{3,2,1,0:T(8,128)(2,1)} parameter(0)
  %param_1.1548 = s32[]{:T(128)S(6)} parameter(1)
  %constant.354.clone.81 = s32[]{:T(128)} constant(0)
  %dynamic-slice.185 = bf16[1,1,128,4096]{3,2,1,0:T(8,128)(2,1)} dynamic-slice(%param_0.1499, %param_1.1548, %constant.354.clone.81, %constant.354.clone.81, %constant.354.clone.81), dynamic_slice_sizes={1,1,128,4096}, metadata={op_name="jit(train_step)/transpose(jvp())/while/body/jit(dynamic_index_in_dim)/dynamic_slice" stack_frame_id=0}, backend_config={"flag_configs":[],"scoped_memory_configs":[],"indices_config":{"index_known_bits":[{"zeroes":"4294967292","ones":"0","bitwidth":"32"},{"zeroes":"4294967295","ones":"0","bitwidth":"32"},{"zeroes":"4294967295","ones":"0","bitwidth":"32"},{"zeroes":"4294967295","ones":"0","bitwidth":"32"}],"is_index_aligned":[]},"used_scoped_memory_configs":[]}
  %bitcast.861 = bf16[1,128,4096]{2,1,0:T(8,128)(2,1)} bitcast(%dynamic-slice.185), metadata={op_name="jit(train_step)/transpose(jvp())/while/body/jit(dynamic_index_in_dim)/squeeze" stack_frame_id=0}
  %convert_element_type.1056 = f32[1,128,4096]{2,1,0:T(8,128)} convert(%bitcast.861), metadata={op_name="jit(train_step)/transpose(jvp())/while/body/closed_call/checkpoint/rematted_computation/convert_element_type" stack_frame_id=0}
  %param_6.269 = bf16[8,128,128]{2,1,0:T(8,128)(2,1)S(1)} parameter(6)
  %fusion.249.clone.3 = bf16[128,8,128]{2,0,1:T(8,128)(2,1)} fusion(%param_6.269), kind=kLoop, calls=%fused_computation.228.clone.clone.clone.1
  %param_5.418 = bf16[1,4096,8,128]{3,1,2,0:T(8,128)(2,1)S(1)} parameter(5)
  %fusion.167.clone.3 = bf16[4096,8,128]{2,0,1:T(8,128)(2,1)} fusion(%param_5.418), kind=kLoop, calls=%fused_computation.101.clone.clone.clone.clone.clone.clone.clone.clone.clone.clone.clone.1, metadata={op_name="jit(train_step)/transpose(jvp())/while/body/closed_call/checkpoint/rematted_computation/dot_general" stack_frame_id=0}
  %convolution.103.clone.3 = bf16[128,4096,1]{1,0,2:T(8,128)(2,1)} convolution(%fusion.249.clone.3, %fusion.167.clone.3), window={size=8}, dim_labels=b0f_o0i->bf0, metadata={op_name="jit(train_step)/transpose(jvp())/while/body/closed_call/checkpoint/dot_general" stack_frame_id=0}
  %bitcast.337.clone.3 = bf16[128,4096]{1,0:T(8,128)(2,1)} bitcast(%convolution.103.clone.3), metadata={op_name="jit(train_step)/transpose(jvp())/while/body/closed_call/checkpoint/dot_general" stack_frame_id=0}
  %convert.221 = f32[128,4096]{1,0:T(8,128)} convert(%bitcast.337.clone.3)
  %param_4.495 = bf16[128,4096]{1,0:T(8,128)(2,1)S(1)} parameter(4)
  %convert.222 = f32[128,4096]{1,0:T(8,128)} convert(%param_4.495)
  %add_any.130.clone.3 = f32[128,4096]{1,0:T(8,128)} add(%convert.221, %convert.222), metadata={op_name="jit(train_step)/transpose(jvp())/while/body/closed_call/checkpoint/add_any" stack_frame_id=0}, backend_config={"flag_configs":[],"scoped_memory_configs":[],"used_scoped_memory_configs":[],"float_type_correction_info":{"original_type":"BF16","original_shape":{"element_type":"BF16","dimensions":["128","4096"],"tuple_shapes":[],"layout":{"minor_to_major":["1","0"],"tiles":[{"dimensions":["8","128"]},{"dimensions":["2","1"]}],"element_size_in_bits":"0","memory_space":"0","dim_level_types":[],"index_primitive_type":"PRIMITIVE_TYPE_INVALID","pointer_primitive_type":"PRIMITIVE_TYPE_INVALID","dim_unique":[],"dim_ordered":[],"dynamic_shape_metadata_prefix_bytes":"0","tail_padding_alignment_in_elements":"1","split_configs":[]},"is_dynamic_dimension":[false,false]}}}
