HloModule jit_train_step, is_scheduled=true, input_output_alias={ {0}: (0, {}, may-alias), {1}: (1, {}, may-alias), {2}: (2, {}, may-alias), {3}: (3, {}, may-alias), {4}: (4, {}, may-alias), {5}: (5, {}, may-alias), {6}: (6, {}, may-alias), {7}: (7, {}, may-alias), {8}: (8, {}, may-alias), {9}: (9, {}, may-alias), {10}: (10, {}, may-alias), {11}: (11, {}, may-alias), {12}: (12, {}, may-alias), {13}: (13, {}, may-alias), {14}: (14, {}, may-alias), {15}: (15, {}, may-alias), {16}: (16, {}, may-alias), {17}: (17, {}, may-alias), {18}: (18, {}, may-alias), {19}: (19, {}, may-alias), {20}: (20, {}, may-alias), {21}: (21, {}, may-alias), {22}: (22, {}, may-alias), {23}: (23, {}, may-alias), {24}: (24, {}, may-alias), {25}: (25, {}, may-alias), {26}: (26, {}, may-alias), {27}: (27, {}, may-alias), {28}: (28, {}, may-alias), {29}: (29, {}, may-alias), {30}: (30, {}, may-alias), {31}: (31, {}, may-alias), {32}: (32, {}, may-alias), {33}: (33, {}, may-alias), {34}: (34, {}, may-alias), {35}: (35, {}, may-alias), {36}: (36, {}, may-alias), {37}: (37, {}, may-alias), {38}: (38, {}, may-alias), {39}: (39, {}, may-alias), {40}: (40, {}, may-alias), {41}: (41, {}, may-alias), {42}: (42, {}, may-alias), {43}: (43, {}, may-alias), {44}: (44, {}, may-alias), {45}: (45, {}, may-alias), {46}: (46, {}, may-alias), {47}: (47, {}, may-alias), {48}: (48, {}, may-alias), {49}: (49, {}, may-alias), {50}: (50, {}, may-alias), {51}: (51, {}, may-alias), {52}: (52, {}, may-alias), {53}: (53, {}, may-alias), {54}: (54, {}, may-alias), {55}: (55, {}, may-alias), {56}: (56, {}, may-alias), {57}: (57, {}, may-alias), {58}: (58, {}, may-alias), {59}: (59, {}, may-alias), {60}: (60, {}, may-alias), {61}: (61, {}, may-alias), {62}: (62, {}, may-alias), {63}: (63, {}, may-alias), {64}: (64, {}, may-alias), {65}: (65, {}, may-alias) }, entry_computation_layout={(f32[2048]{0:T(1024)}, u32[]{:T(128)}, u32[4]{0:T(128)}, u32[]{:T(128)}, u32[4]{0:T(128)}, /*index=5*/u32[]{:T(128)}, u32[4]{0:T(128)}, u32[4]{0:T(128)}, u32[4,4]{1,0:T(4,128)}, u32[4]{0:T(128)}, /*index=10*/u32[4,4]{1,0:T(4,128)}, u32[4]{0:T(128)}, u32[4,4]{1,0:T(4,128)}, f32[512,4,6144]{2,1,0:T(4,128)}, f32[512,4,6144]{2,1,0:T(4,128)}, /*index=15*/f32[6144,4,512]{2,1,0:T(4,128)}, f32[2048,4]{0,1:T(4,128)}, f32[2048,4]{0,1:T(4,128)}, u32[4]{0:T(128)}, u32[4,4]{1,0:T(4,128)}, /*index=20*/u32[4]{0:T(128)}, u32[4,4]{1,0:T(4,128)}, u32[4]{0:T(128)}, u32[4,4]{1,0:T(4,128)}, f32[512,4,8,128]{3,2,1,0:T(8,128)}, /*index=25*/f32[128,4]{0,1:T(4,128)}, f32[16,4,128,512]{3,2,1,0:T(8,128)}, f32[512,4,16,128]{3,2,1,0:T(8,128)}, f32[128,4]{0,1:T(4,128)}, f32[512,4,8,128]{3,2,1,0:T(8,128)}, /*index=30*/u32[]{:T(128)}, u32[4]{0:T(128)}, u32[]{:T(128)}, u32[4]{0:T(128)}, u32[]{:T(128)}, /*index=35*/u32[4]{0:T(128)}, f32[151936,512]{1,0:T(8,128)}, s32[]{:T(128)}, f32[2048]{0:T(1024)}, f32[512,4,6144]{2,1,0:T(4,128)}, /*index=40*/f32[512,4,6144]{2,1,0:T(4,128)}, f32[6144,4,512]{2,1,0:T(4,128)}, f32[2048,4]{0,1:T(4,128)}, f32[2048,4]{0,1:T(4,128)}, f32[512,4,8,128]{3,2,1,0:T(8,128)}, /*index=45*/f32[128,4]{0,1:T(4,128)}, f32[16,4,128,512]{3,2,1,0:T(8,128)}, f32[512,4,16,128]{3,2,1,0:T(8,128)}, f32[128,4]{0,1:T(4,128)}, f32[512,4,8,128]{3,2,1,0:T(8,128)}, /*index=50*/f32[151936,512]{1,0:T(8,128)}, f32[2048]{0:T(1024)}, f32[512,4,6144]{2,1,0:T(4,128)}, f32[512,4,6144]{2,1,0:T(4,128)}, f32[6144,4,512]{2,1,0:T(4,128)}, /*index=55*/f32[2048,4]{0,1:T(4,128)}, f32[2048,4]{0,1:T(4,128)}, f32[512,4,8,128]{3,2,1,0:T(8,128)}, f32[128,4]{0,1:T(4,128)}, f32[16,4,128,512]{3,2,1,0:T(8,128)}, /*index=60*/f32[512,4,16,128]{3,2,1,0:T(8,128)}, f32[128,4]{0,1:T(4,128)}, f32[512,4,8,128]{3,2,1,0:T(8,128)}, f32[151936,512]{1,0:T(8,128)}, s32[]{:T(128)}, /*index=65*/u32[]{:T(128)}, s32[1,128]{1,0:T(1,128)}, s32[1,128]{1,0:T(1,128)}, s32[1,128]{1,0:T(1,128)}, s32[1,128]{1,0:T(1,128)}, /*index=70*/s32[1,128]{1,0:T(1,128)})->(f32[2048]{0:T(1024)}, u32[]{:T(128)}, u32[4]{0:T(128)}, u32[]{:T(128)}, u32[4]{0:T(128)}, /*index=5*/u32[]{:T(128)}, u32[4]{0:T(128)}, u32[4]{0:T(128)}, u32[4,4]{1,0:T(4,128)}, u32[4]{0:T(128)}, /*index=10*/u32[4,4]{1,0:T(4,128)}, u32[4]{0:T(128)}, u32[4,4]{1,0:T(4,128)}, f32[512,4,6144]{2,1,0:T(4,128)}, f32[512,4,6144]{2,1,0:T(4,128)}, /*index=15*/f32[6144,4,512]{2,1,0:T(4,128)}, f32[2048,4]{0,1:T(4,128)}, f32[2048,4]{0,1:T(4,128)}, u32[4]{0:T(128)}, u32[4,4]{1,0:T(4,128)}, /*index=20*/u32[4]{0:T(128)}, u32[4,4]{1,0:T(4,128)}, u32[4]{0:T(128)}, u32[4,4]{1,0:T(4,128)}, f32[512,4,8,128]{3,2,1,0:T(8,128)}, /*index=25*/f32[128,4]{0,1:T(4,128)}, f32[16,4,128,512]{3,2,1,0:T(8,128)}, f32[512,4,16,128]{3,2,1,0:T(8,128)}, f32[128,4]{0,1:T(4,128)}, f32[512,4,8,128]{3,2,1,0:T(8,128)}, /*index=30*/u32[]{:T(128)}, u32[4]{0:T(128)}, u32[]{:T(128)}, u32[4]{0:T(128)}, u32[]{:T(128)}, /*index=35*/u32[4]{0:T(128)}, f32[151936,512]{1,0:T(8,128)}, s32[]{:T(128)}, f32[2048]{0:T(1024)}, f32[512,4,6144]{2,1,0:T(4,128)}, /*index=40*/f32[512,4,6144]{2,1,0:T(4,128)}, f32[6144,4,512]{2,1,0:T(4,128)}, f32[2048,4]{0,1:T(4,128)}, f32[2048,4]{0,1:T(4,128)}, f32[512,4,8,128]{3,2,1,0:T(8,128)}, /*index=45*/f32[128,4]{0,1:T(4,128)}, f32[16,4,128,512]{3,2,1,0:T(8,128)}, f32[512,4,16,128]{3,2,1,0:T(8,128)}, f32[128,4]{0,1:T(4,128)}, f32[512,4,8,128]{3,2,1,0:T(8,128)}, /*index=50*/f32[151936,512]{1,0:T(8,128)}, f32[2048]{0:T(1024)}, f32[512,4,6144]{2,1,0:T(4,128)}, f32[512,4,6144]{2,1,0:T(4,128)}, f32[6144,4,512]{2,1,0:T(4,128)}, /*index=55*/f32[2048,4]{0,1:T(4,128)}, f32[2048,4]{0,1:T(4,128)}, f32[512,4,8,128]{3,2,1,0:T(8,128)}, f32[128,4]{0,1:T(4,128)}, f32[16,4,128,512]{3,2,1,0:T(8,128)}, /*index=60*/f32[512,4,16,128]{3,2,1,0:T(8,128)}, f32[128,4]{0,1:T(4,128)}, f32[512,4,8,128]{3,2,1,0:T(8,128)}, f32[151936,512]{1,0:T(8,128)}, s32[]{:T(128)}, /*index=65*/u32[]{:T(128)}, f32[]{:T(128)}, f32[]{:T(128)}, f32[]{:T(128)}, f32[]{:T(128)}, /*index=70*/f32[]{:T(128)}, f32[]{:T(128)}, f32[]{:T(128)}, f32[]{:T(128)}, f32[]{:T(128)}, /*index=75*/s32[]{:T(128)}, f32[]{:T(128)})}, allow_spmd_sharding_propagation_to_parameters={false,false,false,false,false,false,false,false,false,false,false,false,false,false,false,false,false,false,false,false,false,false,false,false,false,false,false,false,false,false,false,false,false,false,false,false,false,false,false,false,false,false,false,false,false,false,false,false,false,false,false,false,false,false,false,false,false,false,false,false,false,false,false,false,false,false,false,false,false,false,false}, allow_spmd_sharding_propagation_to_output={false,false,false,false,false,false,false,false,false,false,false,false,false,false,false,false,false,false,false,false,false,false,false,false,false,false,false,false,false,false,false,false,false,false,false,false,false,false,false,false,false,false,false,false,false,false,false,false,false,false,false,false,false,false,false,false,false,false,false,false,false,false,false,false,false,false,true,true,true,true,true,true,true,true,true,true,true}, num_partitions=4

FileNames

FunctionNames

FileLocations

StackFrames


%region_0.1.clone (reduce_sum.612: s32[], reduce_sum.613: s32[]) -> s32[] {
  %reduce_sum.612 = s32[]{:T(128)} parameter(0), metadata={op_name="jit(train_step)/jvp()/reduce_sum"}
  %reduce_sum.613 = s32[]{:T(128)} parameter(1), metadata={op_name="jit(train_step)/jvp()/reduce_sum"}
  ROOT %reduce_sum.614 = s32[]{:T(128)} add(%reduce_sum.612, %reduce_sum.613), metadata={op_name="jit(train_step)/jvp()/reduce_sum" stack_frame_id=0}, backend_config={"flag_configs":[],"scoped_memory_configs":[],"used_scoped_memory_configs":[],"aliasing_operands":{"lists":[{"indices":["0","2"]}]}}
}

%add.15.clone (x.31: bf16[], y.31: bf16[]) -> bf16[] {
  %x.31 = bf16[]{:T(256)} parameter(0)
  %y.31 = bf16[]{:T(256)} parameter(1)
  ROOT %add.614 = bf16[]{:T(256)} add(%x.31, %y.31), backend_config={"flag_configs":[],"scoped_memory_configs":[],"used_scoped_memory_configs":[],"aliasing_operands":{"lists":[]}}
}

%fused_computation (param_0.2: bf16[151936,512], param_1.7: s32[1024]) -> bf16[512,512] {
  %param_0.2 = bf16[151936,512]{1,0:T(8,128)(2,1)} parameter(0)
  %param_1.7 = s32[1024]{0:T(1024)S(1)} parameter(1)
  %custom-call.1 = s32[1024]{0:T(1024)} custom-call(%param_1.7), custom_call_target="AssumeGatherIndicesInBound", operand_layout_constraints={s32[1024]{0:T(1024)}}, metadata={op_name="jit(train_step)/jvp()/gather" stack_frame_id=0}
  %slice.34 = s32[512]{0:T(512)} slice(%custom-call.1), slice={[0:512]}, metadata={op_name="jit(train_step)/jvp()/gather" stack_frame_id=0}
  %reshape.793 = s32[4,128]{1,0:T(4,128)} reshape(%slice.34), metadata={op_name="jit(train_step)/jvp()/gather" stack_frame_id=0}
  %transpose.442 = s32[4,128]{1,0:T(4,128)} transpose(%reshape.793), dimensions={0,1}, metadata={op_name="jit(train_step)/jvp()/gather" stack_frame_id=0}
  %gather.4 = bf16[4,128,512]{2,1,0:T(8,128)(2,1)} gather(%param_0.2, %transpose.442), offset_dims={2}, collapsed_slice_dims={0}, start_index_map={0}, index_vector_dim=2, slice_sizes={1,512}, metadata={op_name="jit(train_step)/jvp()/gather" stack_frame_id=0}
  %transpose.441 = bf16[4,128,512]{2,1,0:T(8,128)(2,1)} transpose(%gather.4), dimensions={0,1,2}, metadata={op_name="jit(train_step)/jvp()/gather" stack_frame_id=0}
  ROOT %reshape.792 = bf16[512,512]{1,0:T(8,128)(2,1)S(1)} reshape(%transpose.441), metadata={op_name="jit(train_step)/jvp()/gather" stack_frame_id=0}
}

%region_39.44.clone (scatter-add.6: bf16[], scatter-add.7: bf16[]) -> bf16[] {
  %scatter-add.6 = bf16[]{:T(256)} parameter(0), metadata={op_name="jit(train_step)/transpose(jvp())/scatter-add"}
  %scatter-add.7 = bf16[]{:T(256)} parameter(1), metadata={op_name="jit(train_step)/transpose(jvp())/scatter-add"}
  ROOT %add.615 = bf16[]{:T(256)} add(%scatter-add.6, %scatter-add.7), metadata={op_name="jit(train_step)/transpose(jvp())/add" stack_frame_id=0}, backend_config={"flag_configs":[],"scoped_memory_configs":[],"used_scoped_memory_configs":[],"aliasing_operands":{"lists":[]}}
}

%fused_computation.1 (param_0.3: bf16[151936,512], param_1.5: s32[512], param_2.4: bf16[512,512]) -> bf16[151936,512] {
  %param_0.3 = bf16[151936,512]{1,0:T(8,128)(2,1)} parameter(0)
  %param_1.5 = s32[512]{0:T(512)S(1)} parameter(1)
  %reshape.800 = s32[4,128]{1,0:T(4,128)} reshape(%param_1.5), metadata={op_name="jit(train_step)/transpose(jvp())/scatter-add" stack_frame_id=0}
  %transpose.447 = s32[4,128]{1,0:T(4,128)} transpose(%reshape.800), dimensions={0,1}, metadata={op_name="jit(train_step)/transpose(jvp())/scatter-add" stack_frame_id=0}
  %param_2.4 = bf16[512,512]{1,0:T(8,128)(2,1)S(1)} parameter(2)
  %reshape.801 = bf16[4,128,512]{2,1,0:T(8,128)(2,1)} reshape(%param_2.4), metadata={op_name="jit(train_step)/transpose(jvp())/scatter-add" stack_frame_id=0}
  %transpose.448 = bf16[4,128,512]{2,1,0:T(8,128)(2,1)} transpose(%reshape.801), dimensions={0,1,2}, metadata={op_name="jit(train_step)/transpose(jvp())/scatter-add" stack_frame_id=0}
  ROOT %scatter.2 = bf16[151936,512]{1,0:T(8,128)(2,1)} scatter(%param_0.3, %transpose.447, %transpose.448), update_window_dims={2}, inserted_window_dims={0}, scatter_dims_to_operand_dims={0}, index_vector_dim=2, to_apply=%region_39.44.clone, metadata={op_name="jit(train_step)/transpose(jvp())/scatter-add" stack_frame_id=0}
}

%region_68.73 (reduce_sum.464: f32[], reduce_sum.465: f32[]) -> f32[] {
  %reduce_sum.464 = f32[]{:T(128)} parameter(0), metadata={op_name="jit(train_step)/reduce_sum"}
  %reduce_sum.465 = f32[]{:T(128)} parameter(1), metadata={op_name="jit(train_step)/reduce_sum"}
  ROOT %reduce_sum.466 = f32[]{:T(128)} add(%reduce_sum.464, %reduce_sum.465), metadata={op_name="jit(train_step)/reduce_sum" stack_frame_id=0}, backend_config={"flag_configs":[],"scoped_memory_configs":[],"used_scoped_memory_configs":[],"aliasing_operands":{"lists":[]}}
}

%region_53.58 (reduce_sum.386: f32[], reduce_sum.387: f32[]) -> f32[] {
  %reduce_sum.386 = f32[]{:T(128)} parameter(0), metadata={op_name="jit(train_step)/reduce_sum"}
  %reduce_sum.387 = f32[]{:T(128)} parameter(1), metadata={op_name="jit(train_step)/reduce_sum"}
  ROOT %reduce_sum.388 = f32[]{:T(128)} add(%reduce_sum.386, %reduce_sum.387), metadata={op_name="jit(train_step)/reduce_sum" stack_frame_id=0}, backend_config={"flag_configs":[],"scoped_memory_configs":[],"used_scoped_memory_configs":[],"aliasing_operands":{"lists":[]}}
}

%fused_computation.317 (param_0.1523: f32[151936,512], param_1.1704: f32[], param_2.1310: f32[], param_3.872: f32[], param_4.510: f32[151936,512], param_5.454: f32[], param_6.316: bf16[151936,512], param_7.190: bf16[151936,2048], param_8.112: s32[], param_9.94: pred[], param_10.90: f32[151936,512]) -> (f32[], f32[151936,512], f32[151936,512], f32[151936,512], f32[]) {
  %param_0.1523 = f32[151936,512]{1,0:T(8,128)} parameter(0)
  %param_3.872 = f32[]{:T(128)S(6)} parameter(3)
  %mul.2036.clone.1 = f32[151936,512]{1,0:T(8,128)} broadcast(%param_3.872), dimensions={}, metadata={op_name="jit(train_step)/mul" stack_frame_id=0}
  %param_9.94 = pred[]{:T(512)S(6)} parameter(9)
  %select_n.288.clone.1 = pred[151936,512]{1,0:T(8,128)(4,1)} broadcast(%param_9.94), dimensions={}, metadata={op_name="jit(train_step)/select_n" stack_frame_id=0}
  %param_7.190 = bf16[151936,2048]{1,0:T(8,128)(2,1)} parameter(7)
  %constant.1408.clone.1 = s32[]{:T(128)} constant(0)
  %param_8.112 = s32[]{:T(128)S(6)} parameter(8)
  %dynamic-slice.149.clone.1 = bf16[151936,512]{1,0:T(8,128)(2,1)} dynamic-slice(%param_7.190, %constant.1408.clone.1, %param_8.112), dynamic_slice_sizes={151936,512}, metadata={op_name="jit(train_step)/transpose(jvp())/dot_general" stack_frame_id=0}, backend_config={"flag_configs":[],"scoped_memory_configs":[],"indices_config":{"index_known_bits":[{"zeroes":"4294967295","ones":"0","bitwidth":"32"},{"zeroes":"4294965759","ones":"0","bitwidth":"32"}],"is_index_aligned":[]},"used_scoped_memory_configs":[]}
  %convert_element_type.1338.clone.1 = f32[151936,512]{1,0:T(8,128)} convert(%dynamic-slice.149.clone.1), metadata={op_name="jit(train_step)/transpose(jvp())/convert_element_type" stack_frame_id=0}
  %param_6.316 = bf16[151936,512]{1,0:T(8,128)(2,1)} parameter(6)
  %convert_element_type.1337.clone.1 = f32[151936,512]{1,0:T(8,128)} convert(%param_6.316), metadata={op_name="jit(train_step)/transpose(jvp())/convert_element_type" stack_frame_id=0}
  %add_any.197.clone.1 = f32[151936,512]{1,0:T(8,128)} add(%convert_element_type.1338.clone.1, %convert_element_type.1337.clone.1), metadata={op_name="jit(train_step)/transpose(jvp())/add_any" stack_frame_id=0}
  %param_5.454 = f32[]{:T(128)} parameter(5)
  %div.920.clone.1 = f32[151936,512]{1,0:T(8,128)} broadcast(%param_5.454), dimensions={}, metadata={op_name="jit(train_step)/div" stack_frame_id=0}
  %div.919.clone.1 = f32[151936,512]{1,0:T(8,128)} divide(%add_any.197.clone.1, %div.920.clone.1), metadata={op_name="jit(train_step)/div" stack_frame_id=0}
  %select_n.287.clone.1 = f32[151936,512]{1,0:T(8,128)} select(%select_n.288.clone.1, %add_any.197.clone.1, %div.919.clone.1), metadata={op_name="jit(train_step)/select_n" stack_frame_id=0}
  %constant.1406.clone.1 = f32[]{:T(128)} constant(0.1)
  %broadcast.1013.clone.1 = f32[151936,512]{1,0:T(8,128)} broadcast(%constant.1406.clone.1), dimensions={}, metadata={op_name="broadcast.76"}
  %mul.2042.clone.1 = f32[151936,512]{1,0:T(8,128)} multiply(%select_n.287.clone.1, %broadcast.1013.clone.1), metadata={op_name="jit(train_step)/mul" stack_frame_id=0}
  %param_10.90 = f32[151936,512]{1,0:T(8,128)} parameter(10)
  %constant.1412.clone.1 = f32[]{:T(128)} constant(0.9)
  %mul.2043.clone.1 = f32[151936,512]{1,0:T(8,128)} broadcast(%constant.1412.clone.1), dimensions={}, metadata={op_name="jit(train_step)/mul" stack_frame_id=0}
  %mul.2041.clone.1 = f32[151936,512]{1,0:T(8,128)} multiply(%param_10.90, %mul.2043.clone.1), metadata={op_name="jit(train_step)/mul" stack_frame_id=0}
  %add.979.clone.1 = f32[151936,512]{1,0:T(8,128)} add(%mul.2042.clone.1, %mul.2041.clone.1), metadata={op_name="jit(train_step)/add" stack_frame_id=0}
  %param_2.1310 = f32[]{:T(128)S(6)} parameter(2)
  %div.916.clone.1 = f32[151936,512]{1,0:T(8,128)} broadcast(%param_2.1310), dimensions={}, metadata={op_name="jit(train_step)/div" stack_frame_id=0}
  %integer_pow.70.clone.1 = f32[151936,512]{1,0:T(8,128)} multiply(%select_n.287.clone.1, %select_n.287.clone.1), metadata={op_name="jit(train_step)/integer_pow" stack_frame_id=0}
  %constant.1410.clone.1 = f32[]{:T(128)} constant(0.05)
  %mul.2040.clone.1 = f32[151936,512]{1,0:T(8,128)} broadcast(%constant.1410.clone.1), dimensions={}, metadata={op_name="jit(train_step)/mul" stack_frame_id=0}
  %mul.2038.clone.1 = f32[151936,512]{1,0:T(8,128)} multiply(%integer_pow.70.clone.1, %mul.2040.clone.1), metadata={op_name="jit(train_step)/mul" stack_frame_id=0}
  %param_4.510 = f32[151936,512]{1,0:T(8,128)} parameter(4)
  %constant.1409.clone.1 = f32[]{:T(128)} constant(0.95)
  %mul.2039.clone.1 = f32[151936,512]{1,0:T(8,128)} broadcast(%constant.1409.clone.1), dimensions={}, metadata={op_name="jit(train_step)/mul" stack_frame_id=0}
  %mul.2037.clone.1 = f32[151936,512]{1,0:T(8,128)} multiply(%param_4.510, %mul.2039.clone.1), metadata={op_name="jit(train_step)/mul" stack_frame_id=0}
  %add.978.clone.1 = f32[151936,512]{1,0:T(8,128)} add(%mul.2038.clone.1, %mul.2037.clone.1), metadata={op_name="jit(train_step)/add" stack_frame_id=0}
  %param_1.1704 = f32[]{:T(128)S(6)} parameter(1)
  %div.915.clone.1 = f32[151936,512]{1,0:T(8,128)} broadcast(%param_1.1704), dimensions={}, metadata={op_name="jit(train_step)/div" stack_frame_id=0}
  %div.914.clone.1 = f32[151936,512]{1,0:T(8,128)} divide(%add.978.clone.1, %div.915.clone.1), metadata={op_name="jit(train_step)/div" stack_frame_id=0}
  %sqrt.67.clone.1 = f32[151936,512]{1,0:T(8,128)} sqrt(%div.914.clone.1), metadata={op_name="jit(train_step)/sqrt" stack_frame_id=0}
  %constant.1407.clone.1 = f32[]{:T(128)} constant(1e-08)
  %add.977.clone.1 = f32[151936,512]{1,0:T(8,128)} broadcast(%constant.1407.clone.1), dimensions={}, metadata={op_name="jit(train_step)/add" stack_frame_id=0}
  %add.976.clone.1 = f32[151936,512]{1,0:T(8,128)} add(%sqrt.67.clone.1, %add.977.clone.1), metadata={op_name="jit(train_step)/add" stack_frame_id=0}
  %multiply.453.clone.1 = f32[151936,512]{1,0:T(8,128)} multiply(%div.916.clone.1, %add.976.clone.1), metadata={op_name="multiply.60"}
  %div.913.clone.1 = f32[151936,512]{1,0:T(8,128)} divide(%add.979.clone.1, %multiply.453.clone.1), metadata={op_name="jit(train_step)/div" stack_frame_id=0}
  %mul.2035.clone.1 = f32[151936,512]{1,0:T(8,128)} multiply(%param_0.1523, %broadcast.1013.clone.1), metadata={op_name="jit(train_step)/mul" stack_frame_id=0}
  %add.975.clone.1 = f32[151936,512]{1,0:T(8,128)} add(%div.913.clone.1, %mul.2035.clone.1), metadata={op_name="jit(train_step)/add" stack_frame_id=0}
  %mul.2034.clone.1 = f32[151936,512]{1,0:T(8,128)} multiply(%mul.2036.clone.1, %add.975.clone.1), metadata={op_name="jit(train_step)/mul" stack_frame_id=0}
  %add.974.clone.1 = f32[151936,512]{1,0:T(8,128)} add(%param_0.1523, %mul.2034.clone.1), metadata={op_name="jit(train_step)/add" stack_frame_id=0}
  %square.211 = f32[151936,512]{1,0:T(8,128)} multiply(%add.974.clone.1, %add.974.clone.1), metadata={op_name="jit(train_step)/square" stack_frame_id=0}
  %constant.1467 = f32[]{:T(128)} constant(0)
  %reduce.196 = f32[]{:T(128)} reduce(%square.211, %constant.1467), dimensions={0,1}, to_apply=%region_68.73, metadata={op_name="jit(train_step)/reduce_sum" stack_frame_id=0}
  %reduce.198.clone.1 = f32[]{:T(128)} reduce(%integer_pow.70.clone.1, %constant.1467), dimensions={0,1}, to_apply=%region_53.58, metadata={op_name="jit(train_step)/reduce_sum" stack_frame_id=0}
  ROOT %tuple.150 = (f32[]{:T(128)}, f32[151936,512]{1,0:T(8,128)}, f32[151936,512]{1,0:T(8,128)}, f32[151936,512]{1,0:T(8,128)}, f32[]{:T(128)}) tuple(%reduce.196, %add.974.clone.1, %add.978.clone.1, %add.979.clone.1, %reduce.198.clone.1)
}

%region_40.45 (reduce_sum.317: f32[], reduce_sum.318: f32[]) -> f32[] {
  %reduce_sum.317 = f32[]{:T(128)} parameter(0), metadata={op_name="jit(train_step)/reduce_sum"}
  %reduce_sum.318 = f32[]{:T(128)} parameter(1), metadata={op_name="jit(train_step)/reduce_sum"}
  ROOT %reduce_sum.319 = f32[]{:T(128)} add(%reduce_sum.317, %reduce_sum.318), metadata={op_name="jit(train_step)/reduce_sum" stack_frame_id=0}, backend_config={"flag_configs":[],"scoped_memory_configs":[],"used_scoped_memory_configs":[],"aliasing_operands":{"lists":[]}}
}

%fused_computation.321 (param_0.1539: bf16[151936,512], param_1.1718: bf16[151936,2048], param_2.1323: s32[]) -> f32[] {
  %param_1.1718 = bf16[151936,2048]{1,0:T(8,128)(2,1)} parameter(1)
  %constant.1236 = s32[]{:T(128)} constant(0)
  %param_2.1323 = s32[]{:T(128)S(6)} parameter(2)
  %dynamic-slice.135 = bf16[151936,512]{1,0:T(8,128)(2,1)} dynamic-slice(%param_1.1718, %constant.1236, %param_2.1323), dynamic_slice_sizes={151936,512}, metadata={op_name="jit(train_step)/transpose(jvp())/dot_general" stack_frame_id=0}, backend_config={"flag_configs":[],"scoped_memory_configs":[],"indices_config":{"index_known_bits":[{"zeroes":"4294967295","ones":"0","bitwidth":"32"},{"zeroes":"4294965759","ones":"0","bitwidth":"32"}],"is_index_aligned":[]},"used_scoped_memory_configs":[]}
  %convert_element_type.1229 = f32[151936,512]{1,0:T(8,128)} convert(%dynamic-slice.135), metadata={op_name="jit(train_step)/transpose(jvp())/convert_element_type" stack_frame_id=0}
  %param_0.1539 = bf16[151936,512]{1,0:T(8,128)(2,1)} parameter(0)
  %convert_element_type.1228 = f32[151936,512]{1,0:T(8,128)} convert(%param_0.1539), metadata={op_name="jit(train_step)/transpose(jvp())/convert_element_type" stack_frame_id=0}
  %add_any.184 = f32[151936,512]{1,0:T(8,128)} add(%convert_element_type.1229, %convert_element_type.1228), metadata={op_name="jit(train_step)/transpose(jvp())/add_any" stack_frame_id=0}
  %square.212 = f32[151936,512]{1,0:T(8,128)} multiply(%add_any.184, %add_any.184), metadata={op_name="jit(train_step)/square" stack_frame_id=0}
  %constant.1483 = f32[]{:T(128)} constant(0)
  ROOT %reduce.197 = f32[]{:T(128)} reduce(%square.212, %constant.1483), dimensions={0,1}, to_apply=%region_40.45, metadata={op_name="jit(train_step)/reduce_sum" stack_frame_id=0}
}

%region_9.12 (reduce_sum.186: f32[], reduce_sum.190: f32[]) -> f32[] {
  %reduce_sum.186 = f32[]{:T(128)} parameter(0), metadata={op_name="jit(train_step)/jvp()/reduce_sum"}
  %reduce_sum.190 = f32[]{:T(128)} parameter(1), metadata={op_name="jit(train_step)/jvp()/reduce_sum"}
  ROOT %reduce_sum.191 = f32[]{:T(128)} add(%reduce_sum.186, %reduce_sum.190), metadata={op_name="jit(train_step)/jvp()/reduce_sum" stack_frame_id=0}, backend_config={"flag_configs":[],"scoped_memory_configs":[],"used_scoped_memory_configs":[],"aliasing_operands":{"lists":[]}}
}

%fused_computation.328 (param_0.1549: bf16[128,151936], param_1.1725: bf16[128]) -> f32[128] {
  %param_0.1549 = bf16[128,151936]{1,0:T(8,128)(2,1)S(1)} parameter(0)
  %convert_element_type.1250 = f32[128,151936]{1,0:T(8,128)} convert(%param_0.1549), metadata={op_name="jit(train_step)/jvp()/convert_element_type" stack_frame_id=0}
  %bitcast.520 = f32[1,128,151936]{2,1,0:T(8,128)} bitcast(%convert_element_type.1250), metadata={op_name="jit(train_step)/jvp()/convert_element_type" stack_frame_id=0}
  %param_1.1725 = bf16[128]{0:T(256)(128)(2,1)S(1)} parameter(1)
  %sub.100 = f32[1,128,151936]{2,1,0:T(8,128)} broadcast(%param_1.1725), dimensions={1}, metadata={op_name="jit(train_step)/jvp()/sub" stack_frame_id=0}
  %sub.71 = f32[1,128,151936]{2,1,0:T(8,128)} subtract(%bitcast.520, %sub.100), metadata={op_name="jit(train_step)/jvp()/sub" stack_frame_id=0}
  %exp.51 = f32[1,128,151936]{2,1,0:T(8,128)} exponential(%sub.71), metadata={op_name="jit(train_step)/jvp()/exp" stack_frame_id=0}
  %constant.1494 = f32[]{:T(128)} constant(0)
  ROOT %reduce.199 = f32[128]{0:T(128)S(1)} reduce(%exp.51, %constant.1494), dimensions={0,2}, to_apply=%region_9.12, metadata={op_name="jit(train_step)/jvp()/reduce_sum" stack_frame_id=0}
}

%region_54.59 (reduce_sum.389: f32[], reduce_sum.393: f32[]) -> f32[] {
  %reduce_sum.389 = f32[]{:T(128)} parameter(0), metadata={op_name="jit(train_step)/jvp()/reduce_sum"}
  %reduce_sum.393 = f32[]{:T(128)} parameter(1), metadata={op_name="jit(train_step)/jvp()/reduce_sum"}
  ROOT %reduce_sum.394 = f32[]{:T(128)} add(%reduce_sum.389, %reduce_sum.393), metadata={op_name="jit(train_step)/jvp()/reduce_sum" stack_frame_id=0}, backend_config={"flag_configs":[],"scoped_memory_configs":[],"used_scoped_memory_configs":[],"aliasing_operands":{"lists":[]}}
}

%fused_computation.334 (param_0.1548: bf16[128,151936], param_1.1723: f32[128], param_2.1326: bf16[128], param_3.886: s32[128]) -> f32[128] {
  %param_3.886 = s32[128]{0:T(128)S(1)} parameter(3)
  %eq.26 = s32[1,128,151936]{2,1,0:T(8,128)} broadcast(%param_3.886), dimensions={1}, metadata={op_name="jit(train_step)/jvp(jit(_one_hot))/eq" stack_frame_id=0}
  %iota.51 = s32[1,128,151936]{2,1,0:T(8,128)} iota(), iota_dimension=2, metadata={op_name="jit(train_step)/jvp(jit(_one_hot))/eq" stack_frame_id=0}
  %eq.21 = pred[1,128,151936]{2,1,0:T(8,128)(4,1)} compare(%eq.26, %iota.51), direction=EQ, metadata={op_name="jit(train_step)/jvp(jit(_one_hot))/eq" stack_frame_id=0}
  %param_0.1548 = bf16[128,151936]{1,0:T(8,128)(2,1)S(1)} parameter(0)
  %convert_element_type.1263 = f32[128,151936]{1,0:T(8,128)} convert(%param_0.1548), metadata={op_name="jit(train_step)/jvp()/convert_element_type" stack_frame_id=0}
  %bitcast.532 = f32[1,128,151936]{2,1,0:T(8,128)} bitcast(%convert_element_type.1263), metadata={op_name="jit(train_step)/jvp()/convert_element_type" stack_frame_id=0}
  %param_2.1326 = bf16[128]{0:T(256)(128)(2,1)S(1)} parameter(2)
  %sub.99 = f32[1,128,151936]{2,1,0:T(8,128)} broadcast(%param_2.1326), dimensions={1}, metadata={op_name="jit(train_step)/jvp()/sub" stack_frame_id=0}
  %sub.92 = f32[1,128,151936]{2,1,0:T(8,128)} subtract(%bitcast.532, %sub.99), metadata={op_name="jit(train_step)/jvp()/sub" stack_frame_id=0}
  %param_1.1723 = f32[128]{0:T(128)S(1)} parameter(1)
  %sub.97 = f32[1,128,151936]{2,1,0:T(8,128)} broadcast(%param_1.1723), dimensions={1}, metadata={op_name="jit(train_step)/jvp()/sub" stack_frame_id=0}
  %sub.91 = f32[1,128,151936]{2,1,0:T(8,128)} subtract(%sub.92, %sub.97), metadata={op_name="jit(train_step)/jvp()/sub" stack_frame_id=0}
  %constant.1492 = f32[]{:T(128)} constant(0)
  %broadcast.906 = f32[1,128,151936]{2,1,0:T(8,128)} broadcast(%constant.1492), dimensions={}, metadata={op_name="broadcast.130"}
  %mul.1823 = f32[1,128,151936]{2,1,0:T(8,128)} select(%eq.21, %sub.91, %broadcast.906), metadata={op_name="jit(train_step)/jvp()/mul" stack_frame_id=0}
  ROOT %reduce.200 = f32[128]{0:T(128)S(1)} reduce(%mul.1823, %constant.1492), dimensions={0,2}, to_apply=%region_54.59, metadata={op_name="jit(train_step)/jvp()/reduce_sum" stack_frame_id=0}
}

%region_30.35 (reduce_sum.269: f32[], reduce_sum.270: f32[]) -> f32[] {
  %reduce_sum.269 = f32[]{:T(128)} parameter(0), metadata={op_name="jit(train_step)/reduce_sum"}
  %reduce_sum.270 = f32[]{:T(128)} parameter(1), metadata={op_name="jit(train_step)/reduce_sum"}
  ROOT %reduce_sum.274 = f32[]{:T(128)} add(%reduce_sum.269, %reduce_sum.270), metadata={op_name="jit(train_step)/reduce_sum" stack_frame_id=0}, backend_config={"flag_configs":[],"scoped_memory_configs":[],"used_scoped_memory_configs":[],"aliasing_operands":{"lists":[]}}
}

%fused_computation.340 (param_0.1543: f32[4,6144,512]) -> f32[] {
  %param_0.1543 = f32[4,6144,512]{2,0,1:T(4,128)} parameter(0)
  %bitcast.536 = f32[6144,4,512]{2,1,0:T(4,128)} bitcast(%param_0.1543), metadata={op_name="jit(train_step)/transpose(jvp())/transpose" stack_frame_id=0}
  %square.215 = f32[6144,4,512]{2,1,0:T(4,128)} multiply(%bitcast.536, %bitcast.536), metadata={op_name="jit(train_step)/square" stack_frame_id=0}
  %constant.1487 = f32[]{:T(128)} constant(0)
  ROOT %reduce.201 = f32[]{:T(128)} reduce(%square.215, %constant.1487), dimensions={0,1,2}, to_apply=%region_30.35, metadata={op_name="jit(train_step)/reduce_sum" stack_frame_id=0}
}

%region_29.34 (reduce_sum.263: f32[], reduce_sum.267: f32[]) -> f32[] {
  %reduce_sum.263 = f32[]{:T(128)} parameter(0), metadata={op_name="jit(train_step)/reduce_sum"}
  %reduce_sum.267 = f32[]{:T(128)} parameter(1), metadata={op_name="jit(train_step)/reduce_sum"}
  ROOT %reduce_sum.268 = f32[]{:T(128)} add(%reduce_sum.263, %reduce_sum.267), metadata={op_name="jit(train_step)/reduce_sum" stack_frame_id=0}, backend_config={"flag_configs":[],"scoped_memory_configs":[],"used_scoped_memory_configs":[],"aliasing_operands":{"lists":[]}}
}

%region_28.33 (reduce_sum.260: f32[], reduce_sum.261: f32[]) -> f32[] {
  %reduce_sum.260 = f32[]{:T(128)} parameter(0), metadata={op_name="jit(train_step)/reduce_sum"}
  %reduce_sum.261 = f32[]{:T(128)} parameter(1), metadata={op_name="jit(train_step)/reduce_sum"}
  ROOT %reduce_sum.262 = f32[]{:T(128)} add(%reduce_sum.260, %reduce_sum.261), metadata={op_name="jit(train_step)/reduce_sum" stack_frame_id=0}, backend_config={"flag_configs":[],"scoped_memory_configs":[],"used_scoped_memory_configs":[],"aliasing_operands":{"lists":[]}}
}

%fused_computation.342 (param_0.1544: f32[4,512,6144], param_1.1720: f32[4,512,6144]) -> (f32[], f32[]) {
  %param_0.1544 = f32[4,512,6144]{2,0,1:T(4,128)} parameter(0)
  %bitcast.540 = f32[512,4,6144]{2,1,0:T(4,128)} bitcast(%param_0.1544), metadata={op_name="jit(train_step)/transpose(jvp())/transpose" stack_frame_id=0}
  %square.218 = f32[512,4,6144]{2,1,0:T(4,128)} multiply(%bitcast.540, %bitcast.540), metadata={op_name="jit(train_step)/square" stack_frame_id=0}
  %constant.1488 = f32[]{:T(128)} constant(0)
  %reduce.202 = f32[]{:T(128)} reduce(%square.218, %constant.1488), dimensions={0,1,2}, to_apply=%region_29.34, metadata={op_name="jit(train_step)/reduce_sum" stack_frame_id=0}
  %param_1.1720 = f32[4,512,6144]{2,0,1:T(4,128)} parameter(1)
  %bitcast.544.clone.1 = f32[512,4,6144]{2,1,0:T(4,128)} bitcast(%param_1.1720), metadata={op_name="jit(train_step)/transpose(jvp())/transpose" stack_frame_id=0}
  %square.221.clone.1 = f32[512,4,6144]{2,1,0:T(4,128)} multiply(%bitcast.544.clone.1, %bitcast.544.clone.1), metadata={op_name="jit(train_step)/square" stack_frame_id=0}
  %reduce.203.clone.1 = f32[]{:T(128)} reduce(%square.221.clone.1, %constant.1488), dimensions={0,1,2}, to_apply=%region_28.33, metadata={op_name="jit(train_step)/reduce_sum" stack_frame_id=0}
  ROOT %tuple.173 = (f32[]{:T(128)}, f32[]{:T(128)}) tuple(%reduce.202, %reduce.203.clone.1)
}

%fused_computation.345 (param_0.1013: f32[6144,4,512]) -> bf16[4,6144,512] {
  %param_0.1013 = f32[6144,4,512]{2,1,0:T(4,128)S(1)} parameter(0)
  %copy.209 = bf16[6144,4,512]{2,0,1:T(8,128)(2,1)} copy(%param_0.1013), sharding={devices=[1,1,4]<=[4]}, metadata={op_name="state[\'model\'][\'decoder\'][\'layers\'][\'mlp\'][\'wo\'][\'kernel\'].value"}
  ROOT %bitcast.545 = bf16[4,6144,512]{2,1,0:T(8,128)(2,1)} bitcast(%copy.209), metadata={op_name="jit(train_step)/jvp()/transpose" stack_frame_id=0}
}

%fused_computation.346 (param_0.1015: f32[512,4,6144]) -> bf16[4,512,6144] {
  %param_0.1015 = f32[512,4,6144]{2,1,0:T(4,128)} parameter(0)
  %copy.210 = bf16[512,4,6144]{2,0,1:T(8,128)(2,1)} copy(%param_0.1015), sharding={devices=[4,1,1]<=[4]}, metadata={op_name="state[\'model\'][\'decoder\'][\'layers\'][\'mlp\'][\'wi_1\'][\'kernel\'].value"}
  ROOT %bitcast.546 = bf16[4,512,6144]{2,1,0:T(8,128)(2,1)} bitcast(%copy.210), metadata={op_name="jit(train_step)/jvp()/transpose" stack_frame_id=0}
}

%fused_computation.347 (param_0.1017: f32[512,4,6144]) -> bf16[4,512,6144] {
  %param_0.1017 = f32[512,4,6144]{2,1,0:T(4,128)} parameter(0)
  %copy.211 = bf16[512,4,6144]{2,0,1:T(8,128)(2,1)} copy(%param_0.1017), sharding={devices=[4,1,1]<=[4]}, metadata={op_name="state[\'model\'][\'decoder\'][\'layers\'][\'mlp\'][\'wi_0\'][\'kernel\'].value"}
  ROOT %bitcast.547 = bf16[4,512,6144]{2,1,0:T(8,128)(2,1)} bitcast(%copy.211), metadata={op_name="jit(train_step)/jvp()/transpose" stack_frame_id=0}
}

%region_59.64 (reduce_sum.416: f32[], reduce_sum.417: f32[]) -> f32[] {
  %reduce_sum.416 = f32[]{:T(128)} parameter(0), metadata={op_name="jit(train_step)/reduce_sum"}
  %reduce_sum.417 = f32[]{:T(128)} parameter(1), metadata={op_name="jit(train_step)/reduce_sum"}
  ROOT %reduce_sum.421 = f32[]{:T(128)} add(%reduce_sum.416, %reduce_sum.417), metadata={op_name="jit(train_step)/reduce_sum" stack_frame_id=0}, backend_config={"flag_configs":[],"scoped_memory_configs":[],"used_scoped_memory_configs":[],"aliasing_operands":{"lists":[]}}
}

%region_44.49 (reduce_sum.338: f32[], reduce_sum.339: f32[]) -> f32[] {
  %reduce_sum.338 = f32[]{:T(128)} parameter(0), metadata={op_name="jit(train_step)/reduce_sum"}
  %reduce_sum.339 = f32[]{:T(128)} parameter(1), metadata={op_name="jit(train_step)/reduce_sum"}
  ROOT %reduce_sum.340 = f32[]{:T(128)} add(%reduce_sum.338, %reduce_sum.339), metadata={op_name="jit(train_step)/reduce_sum" stack_frame_id=0}, backend_config={"flag_configs":[],"scoped_memory_configs":[],"used_scoped_memory_configs":[],"aliasing_operands":{"lists":[]}}
}

%fused_computation.348 (param_0.1532: f32[6144,4,512], param_1.1713: f32[], param_2.1319: f32[], param_3.881: f32[], param_4.519: f32[6144,4,512], param_5.463: f32[], param_6.325: f32[4,6144,512], param_7.199: pred[], param_8.121: f32[6144,4,512]) -> (f32[], f32[6144,4,512], f32[6144,4,512], f32[6144,4,512], f32[]) {
  %param_0.1532 = f32[6144,4,512]{2,1,0:T(4,128)} parameter(0)
  %param_3.881 = f32[]{:T(128)S(6)} parameter(3)
  %mul.2080.clone.1 = f32[6144,4,512]{2,1,0:T(4,128)} broadcast(%param_3.881), dimensions={}, metadata={op_name="jit(train_step)/mul" stack_frame_id=0}
  %param_7.199 = pred[]{:T(512)S(6)} parameter(7)
  %select_n.308.clone.1 = pred[6144,4,512]{2,1,0:T(4,128)(4,1)} broadcast(%param_7.199), dimensions={}, metadata={op_name="jit(train_step)/select_n" stack_frame_id=0}
  %param_6.325 = f32[4,6144,512]{2,0,1:T(4,128)S(1)} parameter(6)
  %bitcast.701.clone.1 = f32[6144,4,512]{2,1,0:T(4,128)} bitcast(%param_6.325), metadata={op_name="jit(train_step)/transpose(jvp())/transpose" stack_frame_id=0}
  %param_5.463 = f32[]{:T(128)} parameter(5)
  %div.960.clone.1 = f32[6144,4,512]{2,1,0:T(4,128)} broadcast(%param_5.463), dimensions={}, metadata={op_name="jit(train_step)/div" stack_frame_id=0}
  %div.959.clone.1 = f32[6144,4,512]{2,1,0:T(4,128)} divide(%bitcast.701.clone.1, %div.960.clone.1), metadata={op_name="jit(train_step)/div" stack_frame_id=0}
  %select_n.307.clone.1 = f32[6144,4,512]{2,1,0:T(4,128)} select(%select_n.308.clone.1, %bitcast.701.clone.1, %div.959.clone.1), metadata={op_name="jit(train_step)/select_n" stack_frame_id=0}
  %constant.1438.clone.1 = f32[]{:T(128)} constant(0.1)
  %broadcast.1031.clone.1 = f32[6144,4,512]{2,1,0:T(4,128)} broadcast(%constant.1438.clone.1), dimensions={}, metadata={op_name="broadcast.85"}
  %mul.2086.clone.1 = f32[6144,4,512]{2,1,0:T(4,128)} multiply(%select_n.307.clone.1, %broadcast.1031.clone.1), metadata={op_name="jit(train_step)/mul" stack_frame_id=0}
  %param_8.121 = f32[6144,4,512]{2,1,0:T(4,128)} parameter(8)
  %constant.1442.clone.1 = f32[]{:T(128)} constant(0.9)
  %mul.2087.clone.1 = f32[6144,4,512]{2,1,0:T(4,128)} broadcast(%constant.1442.clone.1), dimensions={}, metadata={op_name="jit(train_step)/mul" stack_frame_id=0}
  %mul.2085.clone.1 = f32[6144,4,512]{2,1,0:T(4,128)} multiply(%param_8.121, %mul.2087.clone.1), metadata={op_name="jit(train_step)/mul" stack_frame_id=0}
  %add.1007.clone.1 = f32[6144,4,512]{2,1,0:T(4,128)} add(%mul.2086.clone.1, %mul.2085.clone.1), metadata={op_name="jit(train_step)/add" stack_frame_id=0}
  %param_2.1319 = f32[]{:T(128)S(6)} parameter(2)
  %div.956.clone.1 = f32[6144,4,512]{2,1,0:T(4,128)} broadcast(%param_2.1319), dimensions={}, metadata={op_name="jit(train_step)/div" stack_frame_id=0}
  %integer_pow.75.clone.1 = f32[6144,4,512]{2,1,0:T(4,128)} multiply(%select_n.307.clone.1, %select_n.307.clone.1), metadata={op_name="jit(train_step)/integer_pow" stack_frame_id=0}
  %constant.1441.clone.1 = f32[]{:T(128)} constant(0.05)
  %mul.2084.clone.1 = f32[6144,4,512]{2,1,0:T(4,128)} broadcast(%constant.1441.clone.1), dimensions={}, metadata={op_name="jit(train_step)/mul" stack_frame_id=0}
  %mul.2082.clone.1 = f32[6144,4,512]{2,1,0:T(4,128)} multiply(%integer_pow.75.clone.1, %mul.2084.clone.1), metadata={op_name="jit(train_step)/mul" stack_frame_id=0}
  %param_4.519 = f32[6144,4,512]{2,1,0:T(4,128)} parameter(4)
  %constant.1440.clone.1 = f32[]{:T(128)} constant(0.95)
  %mul.2083.clone.1 = f32[6144,4,512]{2,1,0:T(4,128)} broadcast(%constant.1440.clone.1), dimensions={}, metadata={op_name="jit(train_step)/mul" stack_frame_id=0}
  %mul.2081.clone.1 = f32[6144,4,512]{2,1,0:T(4,128)} multiply(%param_4.519, %mul.2083.clone.1), metadata={op_name="jit(train_step)/mul" stack_frame_id=0}
  %add.1006.clone.1 = f32[6144,4,512]{2,1,0:T(4,128)} add(%mul.2082.clone.1, %mul.2081.clone.1), metadata={op_name="jit(train_step)/add" stack_frame_id=0}
  %param_1.1713 = f32[]{:T(128)S(6)} parameter(1)
  %div.955.clone.1 = f32[6144,4,512]{2,1,0:T(4,128)} broadcast(%param_1.1713), dimensions={}, metadata={op_name="jit(train_step)/div" stack_frame_id=0}
  %div.954.clone.1 = f32[6144,4,512]{2,1,0:T(4,128)} divide(%add.1006.clone.1, %div.955.clone.1), metadata={op_name="jit(train_step)/div" stack_frame_id=0}
  %sqrt.72.clone.1 = f32[6144,4,512]{2,1,0:T(4,128)} sqrt(%div.954.clone.1), metadata={op_name="jit(train_step)/sqrt" stack_frame_id=0}
  %constant.1439.clone.1 = f32[]{:T(128)} constant(1e-08)
  %add.1005.clone.1 = f32[6144,4,512]{2,1,0:T(4,128)} broadcast(%constant.1439.clone.1), dimensions={}, metadata={op_name="jit(train_step)/add" stack_frame_id=0}
  %add.1004.clone.1 = f32[6144,4,512]{2,1,0:T(4,128)} add(%sqrt.72.clone.1, %add.1005.clone.1), metadata={op_name="jit(train_step)/add" stack_frame_id=0}
  %multiply.458.clone.1 = f32[6144,4,512]{2,1,0:T(4,128)} multiply(%div.956.clone.1, %add.1004.clone.1), metadata={op_name="multiply.51"}
  %div.953.clone.1 = f32[6144,4,512]{2,1,0:T(4,128)} divide(%add.1007.clone.1, %multiply.458.clone.1), metadata={op_name="jit(train_step)/div" stack_frame_id=0}
  %mul.2079.clone.1 = f32[6144,4,512]{2,1,0:T(4,128)} multiply(%param_0.1532, %broadcast.1031.clone.1), metadata={op_name="jit(train_step)/mul" stack_frame_id=0}
  %add.1003.clone.1 = f32[6144,4,512]{2,1,0:T(4,128)} add(%div.953.clone.1, %mul.2079.clone.1), metadata={op_name="jit(train_step)/add" stack_frame_id=0}
  %mul.2078.clone.1 = f32[6144,4,512]{2,1,0:T(4,128)} multiply(%mul.2080.clone.1, %add.1003.clone.1), metadata={op_name="jit(train_step)/mul" stack_frame_id=0}
  %add.1002.clone.1 = f32[6144,4,512]{2,1,0:T(4,128)} add(%param_0.1532, %mul.2078.clone.1), metadata={op_name="jit(train_step)/add" stack_frame_id=0}
  %square.222 = f32[6144,4,512]{2,1,0:T(4,128)} multiply(%add.1002.clone.1, %add.1002.clone.1), metadata={op_name="jit(train_step)/square" stack_frame_id=0}
  %constant.1476 = f32[]{:T(128)} constant(0)
  %reduce.204 = f32[]{:T(128)} reduce(%square.222, %constant.1476), dimensions={0,1,2}, to_apply=%region_59.64, metadata={op_name="jit(train_step)/reduce_sum" stack_frame_id=0}
  %reduce.207.clone.1 = f32[]{:T(128)} reduce(%integer_pow.75.clone.1, %constant.1476), dimensions={0,1,2}, to_apply=%region_44.49, metadata={op_name="jit(train_step)/reduce_sum" stack_frame_id=0}
  ROOT %tuple.151 = (f32[]{:T(128)}, f32[6144,4,512]{2,1,0:T(4,128)}, f32[6144,4,512]{2,1,0:T(4,128)}, f32[6144,4,512]{2,1,0:T(4,128)}, f32[]{:T(128)}) tuple(%reduce.204, %add.1002.clone.1, %add.1006.clone.1, %add.1007.clone.1, %reduce.207.clone.1)
}

%region_58.63 (reduce_sum.410: f32[], reduce_sum.414: f32[]) -> f32[] {
  %reduce_sum.410 = f32[]{:T(128)} parameter(0), metadata={op_name="jit(train_step)/reduce_sum"}
  %reduce_sum.414 = f32[]{:T(128)} parameter(1), metadata={op_name="jit(train_step)/reduce_sum"}
  ROOT %reduce_sum.415 = f32[]{:T(128)} add(%reduce_sum.410, %reduce_sum.414), metadata={op_name="jit(train_step)/reduce_sum" stack_frame_id=0}, backend_config={"flag_configs":[],"scoped_memory_configs":[],"used_scoped_memory_configs":[],"aliasing_operands":{"lists":[]}}
}

%region_43.48 (reduce_sum.332: f32[], reduce_sum.333: f32[]) -> f32[] {
  %reduce_sum.332 = f32[]{:T(128)} parameter(0), metadata={op_name="jit(train_step)/reduce_sum"}
  %reduce_sum.333 = f32[]{:T(128)} parameter(1), metadata={op_name="jit(train_step)/reduce_sum"}
  ROOT %reduce_sum.337 = f32[]{:T(128)} add(%reduce_sum.332, %reduce_sum.333), metadata={op_name="jit(train_step)/reduce_sum" stack_frame_id=0}, backend_config={"flag_configs":[],"scoped_memory_configs":[],"used_scoped_memory_configs":[],"aliasing_operands":{"lists":[]}}
}

%fused_computation.349 (param_0.1533: f32[512,4,6144], param_1.1714: f32[], param_2.1320: f32[], param_3.882: f32[], param_4.520: f32[512,4,6144], param_5.464: f32[], param_6.326: f32[4,512,6144], param_7.200: pred[], param_8.122: f32[512,4,6144]) -> (f32[], f32[512,4,6144], f32[512,4,6144], f32[512,4,6144], f32[]) {
  %param_0.1533 = f32[512,4,6144]{2,1,0:T(4,128)} parameter(0)
  %param_3.882 = f32[]{:T(128)S(6)} parameter(3)
  %mul.2090.clone.1 = f32[512,4,6144]{2,1,0:T(4,128)} broadcast(%param_3.882), dimensions={}, metadata={op_name="jit(train_step)/mul" stack_frame_id=0}
  %param_7.200 = pred[]{:T(512)S(6)} parameter(7)
  %select_n.312.clone.1 = pred[512,4,6144]{2,1,0:T(4,128)(4,1)} broadcast(%param_7.200), dimensions={}, metadata={op_name="jit(train_step)/select_n" stack_frame_id=0}
  %param_6.326 = f32[4,512,6144]{2,0,1:T(4,128)} parameter(6)
  %bitcast.703.clone.1 = f32[512,4,6144]{2,1,0:T(4,128)} bitcast(%param_6.326), metadata={op_name="jit(train_step)/transpose(jvp())/transpose" stack_frame_id=0}
  %param_5.464 = f32[]{:T(128)} parameter(5)
  %div.968.clone.1 = f32[512,4,6144]{2,1,0:T(4,128)} broadcast(%param_5.464), dimensions={}, metadata={op_name="jit(train_step)/div" stack_frame_id=0}
  %div.967.clone.1 = f32[512,4,6144]{2,1,0:T(4,128)} divide(%bitcast.703.clone.1, %div.968.clone.1), metadata={op_name="jit(train_step)/div" stack_frame_id=0}
  %select_n.311.clone.1 = f32[512,4,6144]{2,1,0:T(4,128)} select(%select_n.312.clone.1, %bitcast.703.clone.1, %div.967.clone.1), metadata={op_name="jit(train_step)/select_n" stack_frame_id=0}
  %constant.1444.clone.1 = f32[]{:T(128)} constant(0.1)
  %broadcast.1037.clone.1 = f32[512,4,6144]{2,1,0:T(4,128)} broadcast(%constant.1444.clone.1), dimensions={}, metadata={op_name="broadcast.87"}
  %mul.2094.clone.1 = f32[512,4,6144]{2,1,0:T(4,128)} multiply(%select_n.311.clone.1, %broadcast.1037.clone.1), metadata={op_name="jit(train_step)/mul" stack_frame_id=0}
  %param_8.122 = f32[512,4,6144]{2,1,0:T(4,128)} parameter(8)
  %constant.1448.clone.1 = f32[]{:T(128)} constant(0.9)
  %broadcast.1036.clone.1 = f32[512,4,6144]{2,1,0:T(4,128)} broadcast(%constant.1448.clone.1), dimensions={}, metadata={op_name="broadcast.86"}
  %mul.2093.clone.1 = f32[512,4,6144]{2,1,0:T(4,128)} multiply(%param_8.122, %broadcast.1036.clone.1), metadata={op_name="jit(train_step)/mul" stack_frame_id=0}
  %add.1012.clone.1 = f32[512,4,6144]{2,1,0:T(4,128)} add(%mul.2094.clone.1, %mul.2093.clone.1), metadata={op_name="jit(train_step)/add" stack_frame_id=0}
  %param_2.1320 = f32[]{:T(128)S(6)} parameter(2)
  %div.964.clone.1 = f32[512,4,6144]{2,1,0:T(4,128)} broadcast(%param_2.1320), dimensions={}, metadata={op_name="jit(train_step)/div" stack_frame_id=0}
  %integer_pow.76.clone.1 = f32[512,4,6144]{2,1,0:T(4,128)} multiply(%select_n.311.clone.1, %select_n.311.clone.1), metadata={op_name="jit(train_step)/integer_pow" stack_frame_id=0}
  %constant.1447.clone.1 = f32[]{:T(128)} constant(0.05)
  %broadcast.1035.clone.1 = f32[512,4,6144]{2,1,0:T(4,128)} broadcast(%constant.1447.clone.1), dimensions={}, metadata={op_name="broadcast.75"}
  %mul.2092.clone.1 = f32[512,4,6144]{2,1,0:T(4,128)} multiply(%integer_pow.76.clone.1, %broadcast.1035.clone.1), metadata={op_name="jit(train_step)/mul" stack_frame_id=0}
  %param_4.520 = f32[512,4,6144]{2,1,0:T(4,128)} parameter(4)
  %constant.1446.clone.1 = f32[]{:T(128)} constant(0.95)
  %broadcast.1034.clone.1 = f32[512,4,6144]{2,1,0:T(4,128)} broadcast(%constant.1446.clone.1), dimensions={}, metadata={op_name="broadcast.74"}
  %mul.2091.clone.1 = f32[512,4,6144]{2,1,0:T(4,128)} multiply(%param_4.520, %broadcast.1034.clone.1), metadata={op_name="jit(train_step)/mul" stack_frame_id=0}
  %add.1011.clone.1 = f32[512,4,6144]{2,1,0:T(4,128)} add(%mul.2092.clone.1, %mul.2091.clone.1), metadata={op_name="jit(train_step)/add" stack_frame_id=0}
  %param_1.1714 = f32[]{:T(128)S(6)} parameter(1)
  %div.963.clone.1 = f32[512,4,6144]{2,1,0:T(4,128)} broadcast(%param_1.1714), dimensions={}, metadata={op_name="jit(train_step)/div" stack_frame_id=0}
  %div.962.clone.1 = f32[512,4,6144]{2,1,0:T(4,128)} divide(%add.1011.clone.1, %div.963.clone.1), metadata={op_name="jit(train_step)/div" stack_frame_id=0}
  %sqrt.73.clone.1 = f32[512,4,6144]{2,1,0:T(4,128)} sqrt(%div.962.clone.1), metadata={op_name="jit(train_step)/sqrt" stack_frame_id=0}
  %constant.1445.clone.1 = f32[]{:T(128)} constant(1e-08)
  %broadcast.1032.clone.1 = f32[512,4,6144]{2,1,0:T(4,128)} broadcast(%constant.1445.clone.1), dimensions={}, metadata={op_name="broadcast.67"}
  %add.1010.clone.1 = f32[512,4,6144]{2,1,0:T(4,128)} add(%sqrt.73.clone.1, %broadcast.1032.clone.1), metadata={op_name="jit(train_step)/add" stack_frame_id=0}
  %multiply.459.clone.1 = f32[512,4,6144]{2,1,0:T(4,128)} multiply(%div.964.clone.1, %add.1010.clone.1), metadata={op_name="multiply.50"}
  %div.961.clone.1 = f32[512,4,6144]{2,1,0:T(4,128)} divide(%add.1012.clone.1, %multiply.459.clone.1), metadata={op_name="jit(train_step)/div" stack_frame_id=0}
  %mul.2089.clone.1 = f32[512,4,6144]{2,1,0:T(4,128)} multiply(%param_0.1533, %broadcast.1037.clone.1), metadata={op_name="jit(train_step)/mul" stack_frame_id=0}
  %add.1009.clone.1 = f32[512,4,6144]{2,1,0:T(4,128)} add(%div.961.clone.1, %mul.2089.clone.1), metadata={op_name="jit(train_step)/add" stack_frame_id=0}
  %mul.2088.clone.1 = f32[512,4,6144]{2,1,0:T(4,128)} multiply(%mul.2090.clone.1, %add.1009.clone.1), metadata={op_name="jit(train_step)/mul" stack_frame_id=0}
  %add.1008.clone.1 = f32[512,4,6144]{2,1,0:T(4,128)} add(%param_0.1533, %mul.2088.clone.1), metadata={op_name="jit(train_step)/add" stack_frame_id=0}
  %square.223 = f32[512,4,6144]{2,1,0:T(4,128)} multiply(%add.1008.clone.1, %add.1008.clone.1), metadata={op_name="jit(train_step)/square" stack_frame_id=0}
  %constant.1477 = f32[]{:T(128)} constant(0)
  %reduce.205 = f32[]{:T(128)} reduce(%square.223, %constant.1477), dimensions={0,1,2}, to_apply=%region_58.63, metadata={op_name="jit(train_step)/reduce_sum" stack_frame_id=0}
  %reduce.208.clone.1 = f32[]{:T(128)} reduce(%integer_pow.76.clone.1, %constant.1477), dimensions={0,1,2}, to_apply=%region_43.48, metadata={op_name="jit(train_step)/reduce_sum" stack_frame_id=0}
  ROOT %tuple.152 = (f32[]{:T(128)}, f32[512,4,6144]{2,1,0:T(4,128)}, f32[512,4,6144]{2,1,0:T(4,128)}, f32[512,4,6144]{2,1,0:T(4,128)}, f32[]{:T(128)}) tuple(%reduce.205, %add.1008.clone.1, %add.1011.clone.1, %add.1012.clone.1, %reduce.208.clone.1)
}

%region_57.62 (reduce_sum.407: f32[], reduce_sum.408: f32[]) -> f32[] {
  %reduce_sum.407 = f32[]{:T(128)} parameter(0), metadata={op_name="jit(train_step)/reduce_sum"}
  %reduce_sum.408 = f32[]{:T(128)} parameter(1), metadata={op_name="jit(train_step)/reduce_sum"}
  ROOT %reduce_sum.409 = f32[]{:T(128)} add(%reduce_sum.407, %reduce_sum.408), metadata={op_name="jit(train_step)/reduce_sum" stack_frame_id=0}, backend_config={"flag_configs":[],"scoped_memory_configs":[],"used_scoped_memory_configs":[],"aliasing_operands":{"lists":[]}}
}

%region_42.47 (reduce_sum.326: f32[], reduce_sum.330: f32[]) -> f32[] {
  %reduce_sum.326 = f32[]{:T(128)} parameter(0), metadata={op_name="jit(train_step)/reduce_sum"}
  %reduce_sum.330 = f32[]{:T(128)} parameter(1), metadata={op_name="jit(train_step)/reduce_sum"}
  ROOT %reduce_sum.331 = f32[]{:T(128)} add(%reduce_sum.326, %reduce_sum.330), metadata={op_name="jit(train_step)/reduce_sum" stack_frame_id=0}, backend_config={"flag_configs":[],"scoped_memory_configs":[],"used_scoped_memory_configs":[],"aliasing_operands":{"lists":[]}}
}

%fused_computation.350 (param_0.1534: f32[512,4,6144], param_1.1715: f32[], param_2.1321: f32[], param_3.883: f32[], param_4.521: f32[512,4,6144], param_5.465: f32[], param_6.327: f32[4,512,6144], param_7.201: pred[], param_8.123: f32[512,4,6144]) -> (f32[], f32[512,4,6144], f32[512,4,6144], f32[512,4,6144], f32[]) {
  %param_0.1534 = f32[512,4,6144]{2,1,0:T(4,128)} parameter(0)
  %param_3.883 = f32[]{:T(128)S(6)} parameter(3)
  %mul.2097.clone.1 = f32[512,4,6144]{2,1,0:T(4,128)} broadcast(%param_3.883), dimensions={}, metadata={op_name="jit(train_step)/mul" stack_frame_id=0}
  %param_7.201 = pred[]{:T(512)S(6)} parameter(7)
  %select_n.316.clone.1 = pred[512,4,6144]{2,1,0:T(4,128)(4,1)} broadcast(%param_7.201), dimensions={}, metadata={op_name="jit(train_step)/select_n" stack_frame_id=0}
  %param_6.327 = f32[4,512,6144]{2,0,1:T(4,128)S(1)} parameter(6)
  %bitcast.705.clone.1 = f32[512,4,6144]{2,1,0:T(4,128)} bitcast(%param_6.327), metadata={op_name="jit(train_step)/transpose(jvp())/transpose" stack_frame_id=0}
  %param_5.465 = f32[]{:T(128)} parameter(5)
  %div.976.clone.1 = f32[512,4,6144]{2,1,0:T(4,128)} broadcast(%param_5.465), dimensions={}, metadata={op_name="jit(train_step)/div" stack_frame_id=0}
  %div.975.clone.1 = f32[512,4,6144]{2,1,0:T(4,128)} divide(%bitcast.705.clone.1, %div.976.clone.1), metadata={op_name="jit(train_step)/div" stack_frame_id=0}
  %select_n.315.clone.1 = f32[512,4,6144]{2,1,0:T(4,128)} select(%select_n.316.clone.1, %bitcast.705.clone.1, %div.975.clone.1), metadata={op_name="jit(train_step)/select_n" stack_frame_id=0}
  %constant.1450.clone.1 = f32[]{:T(128)} constant(0.1)
  %broadcast.1043.clone.1 = f32[512,4,6144]{2,1,0:T(4,128)} broadcast(%constant.1450.clone.1), dimensions={}, metadata={op_name="broadcast.87"}
  %mul.2101.clone.1 = f32[512,4,6144]{2,1,0:T(4,128)} multiply(%select_n.315.clone.1, %broadcast.1043.clone.1), metadata={op_name="jit(train_step)/mul" stack_frame_id=0}
  %param_8.123 = f32[512,4,6144]{2,1,0:T(4,128)} parameter(8)
  %constant.1454.clone.1 = f32[]{:T(128)} constant(0.9)
  %broadcast.1042.clone.1 = f32[512,4,6144]{2,1,0:T(4,128)} broadcast(%constant.1454.clone.1), dimensions={}, metadata={op_name="broadcast.86"}
  %mul.2100.clone.1 = f32[512,4,6144]{2,1,0:T(4,128)} multiply(%param_8.123, %broadcast.1042.clone.1), metadata={op_name="jit(train_step)/mul" stack_frame_id=0}
  %add.1017.clone.1 = f32[512,4,6144]{2,1,0:T(4,128)} add(%mul.2101.clone.1, %mul.2100.clone.1), metadata={op_name="jit(train_step)/add" stack_frame_id=0}
  %param_2.1321 = f32[]{:T(128)S(6)} parameter(2)
  %div.972.clone.1 = f32[512,4,6144]{2,1,0:T(4,128)} broadcast(%param_2.1321), dimensions={}, metadata={op_name="jit(train_step)/div" stack_frame_id=0}
  %integer_pow.77.clone.1 = f32[512,4,6144]{2,1,0:T(4,128)} multiply(%select_n.315.clone.1, %select_n.315.clone.1), metadata={op_name="jit(train_step)/integer_pow" stack_frame_id=0}
  %constant.1453.clone.1 = f32[]{:T(128)} constant(0.05)
  %broadcast.1041.clone.1 = f32[512,4,6144]{2,1,0:T(4,128)} broadcast(%constant.1453.clone.1), dimensions={}, metadata={op_name="broadcast.75"}
  %mul.2099.clone.1 = f32[512,4,6144]{2,1,0:T(4,128)} multiply(%integer_pow.77.clone.1, %broadcast.1041.clone.1), metadata={op_name="jit(train_step)/mul" stack_frame_id=0}
  %param_4.521 = f32[512,4,6144]{2,1,0:T(4,128)} parameter(4)
  %constant.1452.clone.1 = f32[]{:T(128)} constant(0.95)
  %broadcast.1040.clone.1 = f32[512,4,6144]{2,1,0:T(4,128)} broadcast(%constant.1452.clone.1), dimensions={}, metadata={op_name="broadcast.74"}
  %mul.2098.clone.1 = f32[512,4,6144]{2,1,0:T(4,128)} multiply(%param_4.521, %broadcast.1040.clone.1), metadata={op_name="jit(train_step)/mul" stack_frame_id=0}
  %add.1016.clone.1 = f32[512,4,6144]{2,1,0:T(4,128)} add(%mul.2099.clone.1, %mul.2098.clone.1), metadata={op_name="jit(train_step)/add" stack_frame_id=0}
  %param_1.1715 = f32[]{:T(128)S(6)} parameter(1)
  %div.971.clone.1 = f32[512,4,6144]{2,1,0:T(4,128)} broadcast(%param_1.1715), dimensions={}, metadata={op_name="jit(train_step)/div" stack_frame_id=0}
  %div.970.clone.1 = f32[512,4,6144]{2,1,0:T(4,128)} divide(%add.1016.clone.1, %div.971.clone.1), metadata={op_name="jit(train_step)/div" stack_frame_id=0}
  %sqrt.74.clone.1 = f32[512,4,6144]{2,1,0:T(4,128)} sqrt(%div.970.clone.1), metadata={op_name="jit(train_step)/sqrt" stack_frame_id=0}
  %constant.1451.clone.1 = f32[]{:T(128)} constant(1e-08)
  %broadcast.1038.clone.1 = f32[512,4,6144]{2,1,0:T(4,128)} broadcast(%constant.1451.clone.1), dimensions={}, metadata={op_name="broadcast.67"}
  %add.1015.clone.1 = f32[512,4,6144]{2,1,0:T(4,128)} add(%sqrt.74.clone.1, %broadcast.1038.clone.1), metadata={op_name="jit(train_step)/add" stack_frame_id=0}
  %multiply.460.clone.1 = f32[512,4,6144]{2,1,0:T(4,128)} multiply(%div.972.clone.1, %add.1015.clone.1), metadata={op_name="multiply.49"}
  %div.969.clone.1 = f32[512,4,6144]{2,1,0:T(4,128)} divide(%add.1017.clone.1, %multiply.460.clone.1), metadata={op_name="jit(train_step)/div" stack_frame_id=0}
  %mul.2096.clone.1 = f32[512,4,6144]{2,1,0:T(4,128)} multiply(%param_0.1534, %broadcast.1043.clone.1), metadata={op_name="jit(train_step)/mul" stack_frame_id=0}
  %add.1014.clone.1 = f32[512,4,6144]{2,1,0:T(4,128)} add(%div.969.clone.1, %mul.2096.clone.1), metadata={op_name="jit(train_step)/add" stack_frame_id=0}
  %mul.2095.clone.1 = f32[512,4,6144]{2,1,0:T(4,128)} multiply(%mul.2097.clone.1, %add.1014.clone.1), metadata={op_name="jit(train_step)/mul" stack_frame_id=0}
  %add.1013.clone.1 = f32[512,4,6144]{2,1,0:T(4,128)} add(%param_0.1534, %mul.2095.clone.1), metadata={op_name="jit(train_step)/add" stack_frame_id=0}
  %square.224 = f32[512,4,6144]{2,1,0:T(4,128)} multiply(%add.1013.clone.1, %add.1013.clone.1), metadata={op_name="jit(train_step)/square" stack_frame_id=0}
  %constant.1478 = f32[]{:T(128)} constant(0)
  %reduce.206 = f32[]{:T(128)} reduce(%square.224, %constant.1478), dimensions={0,1,2}, to_apply=%region_57.62, metadata={op_name="jit(train_step)/reduce_sum" stack_frame_id=0}
  %reduce.209.clone.1 = f32[]{:T(128)} reduce(%integer_pow.77.clone.1, %constant.1478), dimensions={0,1,2}, to_apply=%region_42.47, metadata={op_name="jit(train_step)/reduce_sum" stack_frame_id=0}
  ROOT %tuple.153 = (f32[]{:T(128)}, f32[512,4,6144]{2,1,0:T(4,128)}, f32[512,4,6144]{2,1,0:T(4,128)}, f32[512,4,6144]{2,1,0:T(4,128)}, f32[]{:T(128)}) tuple(%reduce.206, %add.1013.clone.1, %add.1016.clone.1, %add.1017.clone.1, %reduce.209.clone.1)
}

%region_36.41 (reduce_sum.302: f32[], reduce_sum.303: f32[]) -> f32[] {
  %reduce_sum.302 = f32[]{:T(128)} parameter(0), metadata={op_name="jit(train_step)/reduce_sum"}
  %reduce_sum.303 = f32[]{:T(128)} parameter(1), metadata={op_name="jit(train_step)/reduce_sum"}
  ROOT %reduce_sum.304 = f32[]{:T(128)} add(%reduce_sum.302, %reduce_sum.303), metadata={op_name="jit(train_step)/reduce_sum" stack_frame_id=0}, backend_config={"flag_configs":[],"scoped_memory_configs":[],"used_scoped_memory_configs":[],"aliasing_operands":{"lists":[]}}
}

%fused_computation.367 (param_0.1540: f32[4,512,16,128]) -> f32[] {
  %param_0.1540 = f32[4,512,16,128]{3,2,0,1:T(8,128)S(1)} parameter(0)
  %bitcast.554 = f32[512,4,16,128]{3,2,1,0:T(8,128)} bitcast(%param_0.1540), metadata={op_name="jit(train_step)/transpose(jvp())/transpose" stack_frame_id=0}
  %square.227 = f32[512,4,16,128]{3,2,1,0:T(8,128)} multiply(%bitcast.554, %bitcast.554), metadata={op_name="jit(train_step)/square" stack_frame_id=0}
  %constant.1484 = f32[]{:T(128)} constant(0)
  ROOT %reduce.210 = f32[]{:T(128)} reduce(%square.227, %constant.1484), dimensions={0,1,2,3}, to_apply=%region_36.41, metadata={op_name="jit(train_step)/reduce_sum" stack_frame_id=0}
}

%region_35.40 (reduce_sum.296: f32[], reduce_sum.297: f32[]) -> f32[] {
  %reduce_sum.296 = f32[]{:T(128)} parameter(0), metadata={op_name="jit(train_step)/reduce_sum"}
  %reduce_sum.297 = f32[]{:T(128)} parameter(1), metadata={op_name="jit(train_step)/reduce_sum"}
  ROOT %reduce_sum.298 = f32[]{:T(128)} add(%reduce_sum.296, %reduce_sum.297), metadata={op_name="jit(train_step)/reduce_sum" stack_frame_id=0}, backend_config={"flag_configs":[],"scoped_memory_configs":[],"used_scoped_memory_configs":[],"aliasing_operands":{"lists":[]}}
}

%fused_computation.369 (param_0.1541: f32[4,16,128,512]) -> f32[] {
  %param_0.1541 = f32[4,16,128,512]{3,2,0,1:T(8,128)S(1)} parameter(0)
  %bitcast.558 = f32[16,4,128,512]{3,2,1,0:T(8,128)} bitcast(%param_0.1541), metadata={op_name="jit(train_step)/transpose(jvp())/transpose" stack_frame_id=0}
  %square.230 = f32[16,4,128,512]{3,2,1,0:T(8,128)} multiply(%bitcast.558, %bitcast.558), metadata={op_name="jit(train_step)/square" stack_frame_id=0}
  %constant.1485 = f32[]{:T(128)} constant(0)
  ROOT %reduce.211 = f32[]{:T(128)} reduce(%square.230, %constant.1485), dimensions={0,1,2,3}, to_apply=%region_35.40, metadata={op_name="jit(train_step)/reduce_sum" stack_frame_id=0}
}

%fused_computation.370 (param_0.1066: f32[16,4,128,512]) -> bf16[4,16,128,512] {
  %param_0.1066 = f32[16,4,128,512]{3,2,1,0:T(8,128)S(1)} parameter(0)
  %copy.212 = bf16[16,4,128,512]{3,2,0,1:T(8,128)(2,1)} copy(%param_0.1066), sharding={devices=[1,1,1,4]<=[4]}, metadata={op_name="state[\'model\'][\'decoder\'][\'layers\'][\'self_attention\'][\'out\'][\'kernel\'].value"}
  ROOT %bitcast.559 = bf16[4,16,128,512]{3,2,1,0:T(8,128)(2,1)} bitcast(%copy.212), metadata={op_name="jit(train_step)/jvp()/transpose" stack_frame_id=0}
}

%region_65.70 (reduce_sum.449: f32[], reduce_sum.450: f32[]) -> f32[] {
  %reduce_sum.449 = f32[]{:T(128)} parameter(0), metadata={op_name="jit(train_step)/reduce_sum"}
  %reduce_sum.450 = f32[]{:T(128)} parameter(1), metadata={op_name="jit(train_step)/reduce_sum"}
  ROOT %reduce_sum.451 = f32[]{:T(128)} add(%reduce_sum.449, %reduce_sum.450), metadata={op_name="jit(train_step)/reduce_sum" stack_frame_id=0}, backend_config={"flag_configs":[],"scoped_memory_configs":[],"used_scoped_memory_configs":[],"aliasing_operands":{"lists":[]}}
}

%region_50.55 (reduce_sum.368: f32[], reduce_sum.372: f32[]) -> f32[] {
  %reduce_sum.368 = f32[]{:T(128)} parameter(0), metadata={op_name="jit(train_step)/reduce_sum"}
  %reduce_sum.372 = f32[]{:T(128)} parameter(1), metadata={op_name="jit(train_step)/reduce_sum"}
  ROOT %reduce_sum.373 = f32[]{:T(128)} add(%reduce_sum.368, %reduce_sum.372), metadata={op_name="jit(train_step)/reduce_sum" stack_frame_id=0}, backend_config={"flag_configs":[],"scoped_memory_configs":[],"used_scoped_memory_configs":[],"aliasing_operands":{"lists":[]}}
}

%fused_computation.371 (param_0.1526: f32[512,4,16,128], param_1.1707: f32[], param_2.1313: f32[], param_3.875: f32[], param_4.513: f32[512,4,16,128], param_5.457: f32[], param_6.319: f32[4,512,16,128], param_7.193: pred[], param_8.115: f32[512,4,16,128]) -> (f32[], f32[512,4,16,128], f32[512,4,16,128], f32[512,4,16,128], f32[]) {
  %param_0.1526 = f32[512,4,16,128]{3,2,1,0:T(8,128)S(1)} parameter(0)
  %param_3.875 = f32[]{:T(128)S(6)} parameter(3)
  %mul.2053.clone.1 = f32[512,4,16,128]{3,2,1,0:T(8,128)} broadcast(%param_3.875), dimensions={}, metadata={op_name="jit(train_step)/mul" stack_frame_id=0}
  %param_7.193 = pred[]{:T(512)S(6)} parameter(7)
  %select_n.296.clone.1 = pred[512,4,16,128]{3,2,1,0:T(8,128)(4,1)} broadcast(%param_7.193), dimensions={}, metadata={op_name="jit(train_step)/select_n" stack_frame_id=0}
  %param_6.319 = f32[4,512,16,128]{3,2,0,1:T(8,128)S(1)} parameter(6)
  %bitcast.695.clone.1 = f32[512,4,16,128]{3,2,1,0:T(8,128)} bitcast(%param_6.319), metadata={op_name="jit(train_step)/transpose(jvp())/transpose" stack_frame_id=0}
  %param_5.457 = f32[]{:T(128)} parameter(5)
  %div.936.clone.1 = f32[512,4,16,128]{3,2,1,0:T(8,128)} broadcast(%param_5.457), dimensions={}, metadata={op_name="jit(train_step)/div" stack_frame_id=0}
  %div.935.clone.1 = f32[512,4,16,128]{3,2,1,0:T(8,128)} divide(%bitcast.695.clone.1, %div.936.clone.1), metadata={op_name="jit(train_step)/div" stack_frame_id=0}
  %select_n.295.clone.1 = f32[512,4,16,128]{3,2,1,0:T(8,128)} select(%select_n.296.clone.1, %bitcast.695.clone.1, %div.935.clone.1), metadata={op_name="jit(train_step)/select_n" stack_frame_id=0}
  %constant.1420.clone.1 = f32[]{:T(128)} constant(0.1)
  %broadcast.1021.clone.1 = f32[512,4,16,128]{3,2,1,0:T(8,128)} broadcast(%constant.1420.clone.1), dimensions={}, metadata={op_name="broadcast.77"}
  %mul.2059.clone.1 = f32[512,4,16,128]{3,2,1,0:T(8,128)} multiply(%select_n.295.clone.1, %broadcast.1021.clone.1), metadata={op_name="jit(train_step)/mul" stack_frame_id=0}
  %param_8.115 = f32[512,4,16,128]{3,2,1,0:T(8,128)} parameter(8)
  %constant.1424.clone.1 = f32[]{:T(128)} constant(0.9)
  %mul.2060.clone.1 = f32[512,4,16,128]{3,2,1,0:T(8,128)} broadcast(%constant.1424.clone.1), dimensions={}, metadata={op_name="jit(train_step)/mul" stack_frame_id=0}
  %mul.2058.clone.1 = f32[512,4,16,128]{3,2,1,0:T(8,128)} multiply(%param_8.115, %mul.2060.clone.1), metadata={op_name="jit(train_step)/mul" stack_frame_id=0}
  %add.990.clone.1 = f32[512,4,16,128]{3,2,1,0:T(8,128)} add(%mul.2059.clone.1, %mul.2058.clone.1), metadata={op_name="jit(train_step)/add" stack_frame_id=0}
  %param_2.1313 = f32[]{:T(128)S(6)} parameter(2)
  %div.932.clone.1 = f32[512,4,16,128]{3,2,1,0:T(8,128)} broadcast(%param_2.1313), dimensions={}, metadata={op_name="jit(train_step)/div" stack_frame_id=0}
  %integer_pow.72.clone.1 = f32[512,4,16,128]{3,2,1,0:T(8,128)} multiply(%select_n.295.clone.1, %select_n.295.clone.1), metadata={op_name="jit(train_step)/integer_pow" stack_frame_id=0}
  %constant.1423.clone.1 = f32[]{:T(128)} constant(0.05)
  %mul.2057.clone.1 = f32[512,4,16,128]{3,2,1,0:T(8,128)} broadcast(%constant.1423.clone.1), dimensions={}, metadata={op_name="jit(train_step)/mul" stack_frame_id=0}
  %mul.2055.clone.1 = f32[512,4,16,128]{3,2,1,0:T(8,128)} multiply(%integer_pow.72.clone.1, %mul.2057.clone.1), metadata={op_name="jit(train_step)/mul" stack_frame_id=0}
  %param_4.513 = f32[512,4,16,128]{3,2,1,0:T(8,128)} parameter(4)
  %constant.1422.clone.1 = f32[]{:T(128)} constant(0.95)
  %mul.2056.clone.1 = f32[512,4,16,128]{3,2,1,0:T(8,128)} broadcast(%constant.1422.clone.1), dimensions={}, metadata={op_name="jit(train_step)/mul" stack_frame_id=0}
  %mul.2054.clone.1 = f32[512,4,16,128]{3,2,1,0:T(8,128)} multiply(%param_4.513, %mul.2056.clone.1), metadata={op_name="jit(train_step)/mul" stack_frame_id=0}
  %add.989.clone.1 = f32[512,4,16,128]{3,2,1,0:T(8,128)} add(%mul.2055.clone.1, %mul.2054.clone.1), metadata={op_name="jit(train_step)/add" stack_frame_id=0}
  %param_1.1707 = f32[]{:T(128)S(6)} parameter(1)
  %div.931.clone.1 = f32[512,4,16,128]{3,2,1,0:T(8,128)} broadcast(%param_1.1707), dimensions={}, metadata={op_name="jit(train_step)/div" stack_frame_id=0}
  %div.930.clone.1 = f32[512,4,16,128]{3,2,1,0:T(8,128)} divide(%add.989.clone.1, %div.931.clone.1), metadata={op_name="jit(train_step)/div" stack_frame_id=0}
  %sqrt.69.clone.1 = f32[512,4,16,128]{3,2,1,0:T(8,128)} sqrt(%div.930.clone.1), metadata={op_name="jit(train_step)/sqrt" stack_frame_id=0}
  %constant.1421.clone.1 = f32[]{:T(128)} constant(1e-08)
  %add.988.clone.1 = f32[512,4,16,128]{3,2,1,0:T(8,128)} broadcast(%constant.1421.clone.1), dimensions={}, metadata={op_name="jit(train_step)/add" stack_frame_id=0}
  %add.987.clone.1 = f32[512,4,16,128]{3,2,1,0:T(8,128)} add(%sqrt.69.clone.1, %add.988.clone.1), metadata={op_name="jit(train_step)/add" stack_frame_id=0}
  %multiply.455.clone.1 = f32[512,4,16,128]{3,2,1,0:T(8,128)} multiply(%div.932.clone.1, %add.987.clone.1), metadata={op_name="multiply.57"}
  %div.929.clone.1 = f32[512,4,16,128]{3,2,1,0:T(8,128)} divide(%add.990.clone.1, %multiply.455.clone.1), metadata={op_name="jit(train_step)/div" stack_frame_id=0}
  %mul.2052.clone.1 = f32[512,4,16,128]{3,2,1,0:T(8,128)} multiply(%param_0.1526, %broadcast.1021.clone.1), metadata={op_name="jit(train_step)/mul" stack_frame_id=0}
  %add.986.clone.1 = f32[512,4,16,128]{3,2,1,0:T(8,128)} add(%div.929.clone.1, %mul.2052.clone.1), metadata={op_name="jit(train_step)/add" stack_frame_id=0}
  %mul.2051.clone.1 = f32[512,4,16,128]{3,2,1,0:T(8,128)} multiply(%mul.2053.clone.1, %add.986.clone.1), metadata={op_name="jit(train_step)/mul" stack_frame_id=0}
  %add.985.clone.1 = f32[512,4,16,128]{3,2,1,0:T(8,128)S(1)} add(%param_0.1526, %mul.2051.clone.1), metadata={op_name="jit(train_step)/add" stack_frame_id=0}
  %square.231 = f32[512,4,16,128]{3,2,1,0:T(8,128)} multiply(%add.985.clone.1, %add.985.clone.1), metadata={op_name="jit(train_step)/square" stack_frame_id=0}
  %constant.1470 = f32[]{:T(128)} constant(0)
  %reduce.212 = f32[]{:T(128)} reduce(%square.231, %constant.1470), dimensions={0,1,2,3}, to_apply=%region_65.70, metadata={op_name="jit(train_step)/reduce_sum" stack_frame_id=0}
  %reduce.214.clone.1 = f32[]{:T(128)} reduce(%integer_pow.72.clone.1, %constant.1470), dimensions={0,1,2,3}, to_apply=%region_50.55, metadata={op_name="jit(train_step)/reduce_sum" stack_frame_id=0}
  ROOT %tuple.154 = (f32[]{:T(128)}, f32[512,4,16,128]{3,2,1,0:T(8,128)S(1)}, f32[512,4,16,128]{3,2,1,0:T(8,128)}, f32[512,4,16,128]{3,2,1,0:T(8,128)}, f32[]{:T(128)}) tuple(%reduce.212, %add.985.clone.1, %add.989.clone.1, %add.990.clone.1, %reduce.214.clone.1)
}

%region_64.69 (reduce_sum.443: f32[], reduce_sum.444: f32[]) -> f32[] {
  %reduce_sum.443 = f32[]{:T(128)} parameter(0), metadata={op_name="jit(train_step)/reduce_sum"}
  %reduce_sum.444 = f32[]{:T(128)} parameter(1), metadata={op_name="jit(train_step)/reduce_sum"}
  ROOT %reduce_sum.445 = f32[]{:T(128)} add(%reduce_sum.443, %reduce_sum.444), metadata={op_name="jit(train_step)/reduce_sum" stack_frame_id=0}, backend_config={"flag_configs":[],"scoped_memory_configs":[],"used_scoped_memory_configs":[],"aliasing_operands":{"lists":[]}}
}

%region_49.54 (reduce_sum.365: f32[], reduce_sum.366: f32[]) -> f32[] {
  %reduce_sum.365 = f32[]{:T(128)} parameter(0), metadata={op_name="jit(train_step)/reduce_sum"}
  %reduce_sum.366 = f32[]{:T(128)} parameter(1), metadata={op_name="jit(train_step)/reduce_sum"}
  ROOT %reduce_sum.367 = f32[]{:T(128)} add(%reduce_sum.365, %reduce_sum.366), metadata={op_name="jit(train_step)/reduce_sum" stack_frame_id=0}, backend_config={"flag_configs":[],"scoped_memory_configs":[],"used_scoped_memory_configs":[],"aliasing_operands":{"lists":[]}}
}

%fused_computation.372 (param_0.1527: f32[16,4,128,512], param_1.1708: f32[], param_2.1314: f32[], param_3.876: f32[], param_4.514: f32[16,4,128,512], param_5.458: f32[], param_6.320: f32[4,16,128,512], param_7.194: pred[], param_8.116: f32[16,4,128,512]) -> (f32[], f32[16,4,128,512], f32[16,4,128,512], f32[16,4,128,512], f32[]) {
  %param_0.1527 = f32[16,4,128,512]{3,2,1,0:T(8,128)} parameter(0)
  %param_3.876 = f32[]{:T(128)S(6)} parameter(3)
  %mul.2063.clone.1 = f32[16,4,128,512]{3,2,1,0:T(8,128)} broadcast(%param_3.876), dimensions={}, metadata={op_name="jit(train_step)/mul" stack_frame_id=0}
  %param_7.194 = pred[]{:T(512)S(6)} parameter(7)
  %select_n.300.clone.1 = pred[16,4,128,512]{3,2,1,0:T(8,128)(4,1)} broadcast(%param_7.194), dimensions={}, metadata={op_name="jit(train_step)/select_n" stack_frame_id=0}
  %param_6.320 = f32[4,16,128,512]{3,2,0,1:T(8,128)S(1)} parameter(6)
  %bitcast.697.clone.1 = f32[16,4,128,512]{3,2,1,0:T(8,128)} bitcast(%param_6.320), metadata={op_name="jit(train_step)/transpose(jvp())/transpose" stack_frame_id=0}
  %param_5.458 = f32[]{:T(128)} parameter(5)
  %div.944.clone.1 = f32[16,4,128,512]{3,2,1,0:T(8,128)} broadcast(%param_5.458), dimensions={}, metadata={op_name="jit(train_step)/div" stack_frame_id=0}
  %div.943.clone.1 = f32[16,4,128,512]{3,2,1,0:T(8,128)} divide(%bitcast.697.clone.1, %div.944.clone.1), metadata={op_name="jit(train_step)/div" stack_frame_id=0}
  %select_n.299.clone.1 = f32[16,4,128,512]{3,2,1,0:T(8,128)} select(%select_n.300.clone.1, %bitcast.697.clone.1, %div.943.clone.1), metadata={op_name="jit(train_step)/select_n" stack_frame_id=0}
  %constant.1426.clone.1 = f32[]{:T(128)} constant(0.1)
  %broadcast.1023.clone.1 = f32[16,4,128,512]{3,2,1,0:T(8,128)} broadcast(%constant.1426.clone.1), dimensions={}, metadata={op_name="broadcast.78"}
  %mul.2069.clone.1 = f32[16,4,128,512]{3,2,1,0:T(8,128)} multiply(%select_n.299.clone.1, %broadcast.1023.clone.1), metadata={op_name="jit(train_step)/mul" stack_frame_id=0}
  %param_8.116 = f32[16,4,128,512]{3,2,1,0:T(8,128)} parameter(8)
  %constant.1430.clone.1 = f32[]{:T(128)} constant(0.9)
  %mul.2070.clone.1 = f32[16,4,128,512]{3,2,1,0:T(8,128)} broadcast(%constant.1430.clone.1), dimensions={}, metadata={op_name="jit(train_step)/mul" stack_frame_id=0}
  %mul.2068.clone.1 = f32[16,4,128,512]{3,2,1,0:T(8,128)} multiply(%param_8.116, %mul.2070.clone.1), metadata={op_name="jit(train_step)/mul" stack_frame_id=0}
  %add.996.clone.1 = f32[16,4,128,512]{3,2,1,0:T(8,128)} add(%mul.2069.clone.1, %mul.2068.clone.1), metadata={op_name="jit(train_step)/add" stack_frame_id=0}
  %param_2.1314 = f32[]{:T(128)S(6)} parameter(2)
  %div.940.clone.1 = f32[16,4,128,512]{3,2,1,0:T(8,128)} broadcast(%param_2.1314), dimensions={}, metadata={op_name="jit(train_step)/div" stack_frame_id=0}
  %integer_pow.73.clone.1 = f32[16,4,128,512]{3,2,1,0:T(8,128)} multiply(%select_n.299.clone.1, %select_n.299.clone.1), metadata={op_name="jit(train_step)/integer_pow" stack_frame_id=0}
  %constant.1429.clone.1 = f32[]{:T(128)} constant(0.05)
  %mul.2067.clone.1 = f32[16,4,128,512]{3,2,1,0:T(8,128)} broadcast(%constant.1429.clone.1), dimensions={}, metadata={op_name="jit(train_step)/mul" stack_frame_id=0}
  %mul.2065.clone.1 = f32[16,4,128,512]{3,2,1,0:T(8,128)} multiply(%integer_pow.73.clone.1, %mul.2067.clone.1), metadata={op_name="jit(train_step)/mul" stack_frame_id=0}
  %param_4.514 = f32[16,4,128,512]{3,2,1,0:T(8,128)} parameter(4)
  %constant.1428.clone.1 = f32[]{:T(128)} constant(0.95)
  %mul.2066.clone.1 = f32[16,4,128,512]{3,2,1,0:T(8,128)} broadcast(%constant.1428.clone.1), dimensions={}, metadata={op_name="jit(train_step)/mul" stack_frame_id=0}
  %mul.2064.clone.1 = f32[16,4,128,512]{3,2,1,0:T(8,128)} multiply(%param_4.514, %mul.2066.clone.1), metadata={op_name="jit(train_step)/mul" stack_frame_id=0}
  %add.995.clone.1 = f32[16,4,128,512]{3,2,1,0:T(8,128)} add(%mul.2065.clone.1, %mul.2064.clone.1), metadata={op_name="jit(train_step)/add" stack_frame_id=0}
  %param_1.1708 = f32[]{:T(128)S(6)} parameter(1)
  %div.939.clone.1 = f32[16,4,128,512]{3,2,1,0:T(8,128)} broadcast(%param_1.1708), dimensions={}, metadata={op_name="jit(train_step)/div" stack_frame_id=0}
  %div.938.clone.1 = f32[16,4,128,512]{3,2,1,0:T(8,128)} divide(%add.995.clone.1, %div.939.clone.1), metadata={op_name="jit(train_step)/div" stack_frame_id=0}
  %sqrt.70.clone.1 = f32[16,4,128,512]{3,2,1,0:T(8,128)} sqrt(%div.938.clone.1), metadata={op_name="jit(train_step)/sqrt" stack_frame_id=0}
  %constant.1427.clone.1 = f32[]{:T(128)} constant(1e-08)
  %add.994.clone.1 = f32[16,4,128,512]{3,2,1,0:T(8,128)} broadcast(%constant.1427.clone.1), dimensions={}, metadata={op_name="jit(train_step)/add" stack_frame_id=0}
  %add.993.clone.1 = f32[16,4,128,512]{3,2,1,0:T(8,128)} add(%sqrt.70.clone.1, %add.994.clone.1), metadata={op_name="jit(train_step)/add" stack_frame_id=0}
  %multiply.456.clone.1 = f32[16,4,128,512]{3,2,1,0:T(8,128)} multiply(%div.940.clone.1, %add.993.clone.1), metadata={op_name="multiply.56"}
  %div.937.clone.1 = f32[16,4,128,512]{3,2,1,0:T(8,128)} divide(%add.996.clone.1, %multiply.456.clone.1), metadata={op_name="jit(train_step)/div" stack_frame_id=0}
  %mul.2062.clone.1 = f32[16,4,128,512]{3,2,1,0:T(8,128)} multiply(%param_0.1527, %broadcast.1023.clone.1), metadata={op_name="jit(train_step)/mul" stack_frame_id=0}
  %add.992.clone.1 = f32[16,4,128,512]{3,2,1,0:T(8,128)} add(%div.937.clone.1, %mul.2062.clone.1), metadata={op_name="jit(train_step)/add" stack_frame_id=0}
  %mul.2061.clone.1 = f32[16,4,128,512]{3,2,1,0:T(8,128)} multiply(%mul.2063.clone.1, %add.992.clone.1), metadata={op_name="jit(train_step)/mul" stack_frame_id=0}
  %add.991.clone.1 = f32[16,4,128,512]{3,2,1,0:T(8,128)} add(%param_0.1527, %mul.2061.clone.1), metadata={op_name="jit(train_step)/add" stack_frame_id=0}
  %square.232 = f32[16,4,128,512]{3,2,1,0:T(8,128)} multiply(%add.991.clone.1, %add.991.clone.1), metadata={op_name="jit(train_step)/square" stack_frame_id=0}
  %constant.1471 = f32[]{:T(128)} constant(0)
  %reduce.213 = f32[]{:T(128)} reduce(%square.232, %constant.1471), dimensions={0,1,2,3}, to_apply=%region_64.69, metadata={op_name="jit(train_step)/reduce_sum" stack_frame_id=0}
  %reduce.215.clone.1 = f32[]{:T(128)} reduce(%integer_pow.73.clone.1, %constant.1471), dimensions={0,1,2,3}, to_apply=%region_49.54, metadata={op_name="jit(train_step)/reduce_sum" stack_frame_id=0}
  ROOT %tuple.155 = (f32[]{:T(128)}, f32[16,4,128,512]{3,2,1,0:T(8,128)}, f32[16,4,128,512]{3,2,1,0:T(8,128)}, f32[16,4,128,512]{3,2,1,0:T(8,128)}, f32[]{:T(128)}) tuple(%reduce.213, %add.991.clone.1, %add.995.clone.1, %add.996.clone.1, %reduce.215.clone.1)
}

%region_38.43 (reduce_sum.311: f32[], reduce_sum.312: f32[]) -> f32[] {
  %reduce_sum.311 = f32[]{:T(128)} parameter(0), metadata={op_name="jit(train_step)/reduce_sum"}
  %reduce_sum.312 = f32[]{:T(128)} parameter(1), metadata={op_name="jit(train_step)/reduce_sum"}
  ROOT %reduce_sum.316 = f32[]{:T(128)} add(%reduce_sum.311, %reduce_sum.312), metadata={op_name="jit(train_step)/reduce_sum" stack_frame_id=0}, backend_config={"flag_configs":[],"scoped_memory_configs":[],"used_scoped_memory_configs":[],"aliasing_operands":{"lists":[]}}
}

%region_33.38 (reduce_sum.284: f32[], reduce_sum.288: f32[]) -> f32[] {
  %reduce_sum.284 = f32[]{:T(128)} parameter(0), metadata={op_name="jit(train_step)/reduce_sum"}
  %reduce_sum.288 = f32[]{:T(128)} parameter(1), metadata={op_name="jit(train_step)/reduce_sum"}
  ROOT %reduce_sum.289 = f32[]{:T(128)} add(%reduce_sum.284, %reduce_sum.288), metadata={op_name="jit(train_step)/reduce_sum" stack_frame_id=0}, backend_config={"flag_configs":[],"scoped_memory_configs":[],"used_scoped_memory_configs":[],"aliasing_operands":{"lists":[]}}
}

%fused_computation.384 (param_0.1542: f32[4,512,8,128], param_1.1719: f32[4,512,8,128]) -> (f32[], f32[]) {
  %param_0.1542 = f32[4,512,8,128]{3,2,0,1:T(8,128)S(1)} parameter(0)
  %bitcast.563 = f32[512,4,8,128]{3,2,1,0:T(8,128)} bitcast(%param_0.1542), metadata={op_name="jit(train_step)/transpose(jvp())/transpose" stack_frame_id=0}
  %square.235 = f32[512,4,8,128]{3,2,1,0:T(8,128)} multiply(%bitcast.563, %bitcast.563), metadata={op_name="jit(train_step)/square" stack_frame_id=0}
  %constant.1486 = f32[]{:T(128)} constant(0)
  %reduce.216 = f32[]{:T(128)} reduce(%square.235, %constant.1486), dimensions={0,1,2,3}, to_apply=%region_38.43, metadata={op_name="jit(train_step)/reduce_sum" stack_frame_id=0}
  %param_1.1719 = f32[4,512,8,128]{3,2,0,1:T(8,128)S(1)} parameter(1)
  %bitcast.567.clone.1 = f32[512,4,8,128]{3,2,1,0:T(8,128)} bitcast(%param_1.1719), metadata={op_name="jit(train_step)/transpose(jvp())/transpose" stack_frame_id=0}
  %square.238.clone.1 = f32[512,4,8,128]{3,2,1,0:T(8,128)} multiply(%bitcast.567.clone.1, %bitcast.567.clone.1), metadata={op_name="jit(train_step)/square" stack_frame_id=0}
  %reduce.217.clone.1 = f32[]{:T(128)} reduce(%square.238.clone.1, %constant.1486), dimensions={0,1,2,3}, to_apply=%region_33.38, metadata={op_name="jit(train_step)/reduce_sum" stack_frame_id=0}
  ROOT %tuple.174 = (f32[]{:T(128)}, f32[]{:T(128)}) tuple(%reduce.216, %reduce.217.clone.1)
}

%fused_computation.387 (param_0.1098: f32[512,4,8,128]) -> bf16[4,512,8,128] {
  %param_0.1098 = f32[512,4,8,128]{3,2,1,0:T(8,128)S(1)} parameter(0)
  %copy.213 = bf16[512,4,8,128]{3,0,2,1:T(8,128)(2,1)} copy(%param_0.1098), sharding={devices=[4,1,1,1]<=[4]}, metadata={op_name="state[\'model\'][\'decoder\'][\'layers\'][\'self_attention\'][\'value\'][\'kernel\'].value"}
  ROOT %bitcast.568 = bf16[4,512,8,128]{3,1,2,0:T(8,128)(2,1)} bitcast(%copy.213), metadata={op_name="jit(train_step)/jvp()/transpose" stack_frame_id=0}
}

%region_67.72 (reduce_sum.458: f32[], reduce_sum.459: f32[]) -> f32[] {
  %reduce_sum.458 = f32[]{:T(128)} parameter(0), metadata={op_name="jit(train_step)/reduce_sum"}
  %reduce_sum.459 = f32[]{:T(128)} parameter(1), metadata={op_name="jit(train_step)/reduce_sum"}
  ROOT %reduce_sum.463 = f32[]{:T(128)} add(%reduce_sum.458, %reduce_sum.459), metadata={op_name="jit(train_step)/reduce_sum" stack_frame_id=0}, backend_config={"flag_configs":[],"scoped_memory_configs":[],"used_scoped_memory_configs":[],"aliasing_operands":{"lists":[]}}
}

%region_52.57 (reduce_sum.380: f32[], reduce_sum.381: f32[]) -> f32[] {
  %reduce_sum.380 = f32[]{:T(128)} parameter(0), metadata={op_name="jit(train_step)/reduce_sum"}
  %reduce_sum.381 = f32[]{:T(128)} parameter(1), metadata={op_name="jit(train_step)/reduce_sum"}
  ROOT %reduce_sum.382 = f32[]{:T(128)} add(%reduce_sum.380, %reduce_sum.381), metadata={op_name="jit(train_step)/reduce_sum" stack_frame_id=0}, backend_config={"flag_configs":[],"scoped_memory_configs":[],"used_scoped_memory_configs":[],"aliasing_operands":{"lists":[]}}
}

%fused_computation.388 (param_0.1524: f32[512,4,8,128], param_1.1705: f32[], param_2.1311: f32[], param_3.873: f32[], param_4.511: f32[512,4,8,128], param_5.455: f32[], param_6.317: f32[4,512,8,128], param_7.191: pred[], param_8.113: f32[512,4,8,128]) -> (f32[], f32[512,4,8,128], f32[512,4,8,128], f32[512,4,8,128], f32[]) {
  %param_0.1524 = f32[512,4,8,128]{3,2,1,0:T(8,128)} parameter(0)
  %param_3.873 = f32[]{:T(128)S(6)} parameter(3)
  %mul.2046.clone.1 = f32[512,4,8,128]{3,2,1,0:T(8,128)} broadcast(%param_3.873), dimensions={}, metadata={op_name="jit(train_step)/mul" stack_frame_id=0}
  %param_7.191 = pred[]{:T(512)S(6)} parameter(7)
  %select_n.292.clone.1 = pred[512,4,8,128]{3,2,1,0:T(8,128)(4,1)} broadcast(%param_7.191), dimensions={}, metadata={op_name="jit(train_step)/select_n" stack_frame_id=0}
  %param_6.317 = f32[4,512,8,128]{3,2,0,1:T(8,128)S(1)} parameter(6)
  %bitcast.693.clone.1 = f32[512,4,8,128]{3,2,1,0:T(8,128)} bitcast(%param_6.317), metadata={op_name="jit(train_step)/transpose(jvp())/transpose" stack_frame_id=0}
  %param_5.455 = f32[]{:T(128)} parameter(5)
  %div.928.clone.1 = f32[512,4,8,128]{3,2,1,0:T(8,128)} broadcast(%param_5.455), dimensions={}, metadata={op_name="jit(train_step)/div" stack_frame_id=0}
  %div.927.clone.1 = f32[512,4,8,128]{3,2,1,0:T(8,128)} divide(%bitcast.693.clone.1, %div.928.clone.1), metadata={op_name="jit(train_step)/div" stack_frame_id=0}
  %select_n.291.clone.1 = f32[512,4,8,128]{3,2,1,0:T(8,128)} select(%select_n.292.clone.1, %bitcast.693.clone.1, %div.927.clone.1), metadata={op_name="jit(train_step)/select_n" stack_frame_id=0}
  %constant.1414.clone.1 = f32[]{:T(128)} constant(0.1)
  %broadcast.1019.clone.1 = f32[512,4,8,128]{3,2,1,0:T(8,128)} broadcast(%constant.1414.clone.1), dimensions={}, metadata={op_name="broadcast.82"}
  %mul.2050.clone.1 = f32[512,4,8,128]{3,2,1,0:T(8,128)} multiply(%select_n.291.clone.1, %broadcast.1019.clone.1), metadata={op_name="jit(train_step)/mul" stack_frame_id=0}
  %param_8.113 = f32[512,4,8,128]{3,2,1,0:T(8,128)} parameter(8)
  %constant.1418.clone.1 = f32[]{:T(128)} constant(0.9)
  %broadcast.1018.clone.1 = f32[512,4,8,128]{3,2,1,0:T(8,128)} broadcast(%constant.1418.clone.1), dimensions={}, metadata={op_name="broadcast.81"}
  %mul.2049.clone.1 = f32[512,4,8,128]{3,2,1,0:T(8,128)} multiply(%param_8.113, %broadcast.1018.clone.1), metadata={op_name="jit(train_step)/mul" stack_frame_id=0}
  %add.984.clone.1 = f32[512,4,8,128]{3,2,1,0:T(8,128)} add(%mul.2050.clone.1, %mul.2049.clone.1), metadata={op_name="jit(train_step)/add" stack_frame_id=0}
  %param_2.1311 = f32[]{:T(128)S(6)} parameter(2)
  %div.924.clone.1 = f32[512,4,8,128]{3,2,1,0:T(8,128)} broadcast(%param_2.1311), dimensions={}, metadata={op_name="jit(train_step)/div" stack_frame_id=0}
  %integer_pow.71.clone.1 = f32[512,4,8,128]{3,2,1,0:T(8,128)} multiply(%select_n.291.clone.1, %select_n.291.clone.1), metadata={op_name="jit(train_step)/integer_pow" stack_frame_id=0}
  %constant.1417.clone.1 = f32[]{:T(128)} constant(0.05)
  %broadcast.1017.clone.1 = f32[512,4,8,128]{3,2,1,0:T(8,128)} broadcast(%constant.1417.clone.1), dimensions={}, metadata={op_name="broadcast.71"}
  %mul.2048.clone.1 = f32[512,4,8,128]{3,2,1,0:T(8,128)} multiply(%integer_pow.71.clone.1, %broadcast.1017.clone.1), metadata={op_name="jit(train_step)/mul" stack_frame_id=0}
  %param_4.511 = f32[512,4,8,128]{3,2,1,0:T(8,128)} parameter(4)
  %constant.1416.clone.1 = f32[]{:T(128)} constant(0.95)
  %broadcast.1016.clone.1 = f32[512,4,8,128]{3,2,1,0:T(8,128)} broadcast(%constant.1416.clone.1), dimensions={}, metadata={op_name="broadcast.70"}
  %mul.2047.clone.1 = f32[512,4,8,128]{3,2,1,0:T(8,128)} multiply(%param_4.511, %broadcast.1016.clone.1), metadata={op_name="jit(train_step)/mul" stack_frame_id=0}
  %add.983.clone.1 = f32[512,4,8,128]{3,2,1,0:T(8,128)} add(%mul.2048.clone.1, %mul.2047.clone.1), metadata={op_name="jit(train_step)/add" stack_frame_id=0}
  %param_1.1705 = f32[]{:T(128)S(6)} parameter(1)
  %div.923.clone.1 = f32[512,4,8,128]{3,2,1,0:T(8,128)} broadcast(%param_1.1705), dimensions={}, metadata={op_name="jit(train_step)/div" stack_frame_id=0}
  %div.922.clone.1 = f32[512,4,8,128]{3,2,1,0:T(8,128)} divide(%add.983.clone.1, %div.923.clone.1), metadata={op_name="jit(train_step)/div" stack_frame_id=0}
  %sqrt.68.clone.1 = f32[512,4,8,128]{3,2,1,0:T(8,128)} sqrt(%div.922.clone.1), metadata={op_name="jit(train_step)/sqrt" stack_frame_id=0}
  %constant.1415.clone.1 = f32[]{:T(128)} constant(1e-08)
  %broadcast.1014.clone.1 = f32[512,4,8,128]{3,2,1,0:T(8,128)} broadcast(%constant.1415.clone.1), dimensions={}, metadata={op_name="broadcast.65"}
  %add.982.clone.1 = f32[512,4,8,128]{3,2,1,0:T(8,128)} add(%sqrt.68.clone.1, %broadcast.1014.clone.1), metadata={op_name="jit(train_step)/add" stack_frame_id=0}
  %multiply.454.clone.1 = f32[512,4,8,128]{3,2,1,0:T(8,128)} multiply(%div.924.clone.1, %add.982.clone.1), metadata={op_name="multiply.59"}
  %div.921.clone.1 = f32[512,4,8,128]{3,2,1,0:T(8,128)} divide(%add.984.clone.1, %multiply.454.clone.1), metadata={op_name="jit(train_step)/div" stack_frame_id=0}
  %mul.2045.clone.1 = f32[512,4,8,128]{3,2,1,0:T(8,128)} multiply(%param_0.1524, %broadcast.1019.clone.1), metadata={op_name="jit(train_step)/mul" stack_frame_id=0}
  %add.981.clone.1 = f32[512,4,8,128]{3,2,1,0:T(8,128)} add(%div.921.clone.1, %mul.2045.clone.1), metadata={op_name="jit(train_step)/add" stack_frame_id=0}
  %mul.2044.clone.1 = f32[512,4,8,128]{3,2,1,0:T(8,128)} multiply(%mul.2046.clone.1, %add.981.clone.1), metadata={op_name="jit(train_step)/mul" stack_frame_id=0}
  %add.980.clone.1 = f32[512,4,8,128]{3,2,1,0:T(8,128)} add(%param_0.1524, %mul.2044.clone.1), metadata={op_name="jit(train_step)/add" stack_frame_id=0}
  %square.239 = f32[512,4,8,128]{3,2,1,0:T(8,128)} multiply(%add.980.clone.1, %add.980.clone.1), metadata={op_name="jit(train_step)/square" stack_frame_id=0}
  %constant.1468 = f32[]{:T(128)} constant(0)
  %reduce.218 = f32[]{:T(128)} reduce(%square.239, %constant.1468), dimensions={0,1,2,3}, to_apply=%region_67.72, metadata={op_name="jit(train_step)/reduce_sum" stack_frame_id=0}
  %reduce.220.clone.1 = f32[]{:T(128)} reduce(%integer_pow.71.clone.1, %constant.1468), dimensions={0,1,2,3}, to_apply=%region_52.57, metadata={op_name="jit(train_step)/reduce_sum" stack_frame_id=0}
  ROOT %tuple.156 = (f32[]{:T(128)}, f32[512,4,8,128]{3,2,1,0:T(8,128)}, f32[512,4,8,128]{3,2,1,0:T(8,128)}, f32[512,4,8,128]{3,2,1,0:T(8,128)}, f32[]{:T(128)}) tuple(%reduce.218, %add.980.clone.1, %add.983.clone.1, %add.984.clone.1, %reduce.220.clone.1)
}

%region_62.67 (reduce_sum.431: f32[], reduce_sum.435: f32[]) -> f32[] {
  %reduce_sum.431 = f32[]{:T(128)} parameter(0), metadata={op_name="jit(train_step)/reduce_sum"}
  %reduce_sum.435 = f32[]{:T(128)} parameter(1), metadata={op_name="jit(train_step)/reduce_sum"}
  ROOT %reduce_sum.436 = f32[]{:T(128)} add(%reduce_sum.431, %reduce_sum.435), metadata={op_name="jit(train_step)/reduce_sum" stack_frame_id=0}, backend_config={"flag_configs":[],"scoped_memory_configs":[],"used_scoped_memory_configs":[],"aliasing_operands":{"lists":[]}}
}

%region_47.52 (reduce_sum.353: f32[], reduce_sum.354: f32[]) -> f32[] {
  %reduce_sum.353 = f32[]{:T(128)} parameter(0), metadata={op_name="jit(train_step)/reduce_sum"}
  %reduce_sum.354 = f32[]{:T(128)} parameter(1), metadata={op_name="jit(train_step)/reduce_sum"}
  ROOT %reduce_sum.358 = f32[]{:T(128)} add(%reduce_sum.353, %reduce_sum.354), metadata={op_name="jit(train_step)/reduce_sum" stack_frame_id=0}, backend_config={"flag_configs":[],"scoped_memory_configs":[],"used_scoped_memory_configs":[],"aliasing_operands":{"lists":[]}}
}

%fused_computation.389 (param_0.1529: f32[512,4,8,128], param_1.1710: f32[], param_2.1316: f32[], param_3.878: f32[], param_4.516: f32[512,4,8,128], param_5.460: f32[], param_6.322: f32[4,512,8,128], param_7.196: pred[], param_8.118: f32[512,4,8,128]) -> (f32[], f32[512,4,8,128], f32[512,4,8,128], f32[512,4,8,128], f32[]) {
  %param_0.1529 = f32[512,4,8,128]{3,2,1,0:T(8,128)} parameter(0)
  %param_3.878 = f32[]{:T(128)S(6)} parameter(3)
  %mul.2073.clone.1 = f32[512,4,8,128]{3,2,1,0:T(8,128)} broadcast(%param_3.878), dimensions={}, metadata={op_name="jit(train_step)/mul" stack_frame_id=0}
  %param_7.196 = pred[]{:T(512)S(6)} parameter(7)
  %select_n.304.clone.1 = pred[512,4,8,128]{3,2,1,0:T(8,128)(4,1)} broadcast(%param_7.196), dimensions={}, metadata={op_name="jit(train_step)/select_n" stack_frame_id=0}
  %param_6.322 = f32[4,512,8,128]{3,2,0,1:T(8,128)S(1)} parameter(6)
  %bitcast.699.clone.1 = f32[512,4,8,128]{3,2,1,0:T(8,128)} bitcast(%param_6.322), metadata={op_name="jit(train_step)/transpose(jvp())/transpose" stack_frame_id=0}
  %param_5.460 = f32[]{:T(128)} parameter(5)
  %div.952.clone.1 = f32[512,4,8,128]{3,2,1,0:T(8,128)} broadcast(%param_5.460), dimensions={}, metadata={op_name="jit(train_step)/div" stack_frame_id=0}
  %div.951.clone.1 = f32[512,4,8,128]{3,2,1,0:T(8,128)} divide(%bitcast.699.clone.1, %div.952.clone.1), metadata={op_name="jit(train_step)/div" stack_frame_id=0}
  %select_n.303.clone.1 = f32[512,4,8,128]{3,2,1,0:T(8,128)} select(%select_n.304.clone.1, %bitcast.699.clone.1, %div.951.clone.1), metadata={op_name="jit(train_step)/select_n" stack_frame_id=0}
  %constant.1432.clone.1 = f32[]{:T(128)} constant(0.1)
  %broadcast.1029.clone.1 = f32[512,4,8,128]{3,2,1,0:T(8,128)} broadcast(%constant.1432.clone.1), dimensions={}, metadata={op_name="broadcast.82"}
  %mul.2077.clone.1 = f32[512,4,8,128]{3,2,1,0:T(8,128)} multiply(%select_n.303.clone.1, %broadcast.1029.clone.1), metadata={op_name="jit(train_step)/mul" stack_frame_id=0}
  %param_8.118 = f32[512,4,8,128]{3,2,1,0:T(8,128)} parameter(8)
  %constant.1436.clone.1 = f32[]{:T(128)} constant(0.9)
  %broadcast.1028.clone.1 = f32[512,4,8,128]{3,2,1,0:T(8,128)} broadcast(%constant.1436.clone.1), dimensions={}, metadata={op_name="broadcast.81"}
  %mul.2076.clone.1 = f32[512,4,8,128]{3,2,1,0:T(8,128)} multiply(%param_8.118, %broadcast.1028.clone.1), metadata={op_name="jit(train_step)/mul" stack_frame_id=0}
  %add.1001.clone.1 = f32[512,4,8,128]{3,2,1,0:T(8,128)} add(%mul.2077.clone.1, %mul.2076.clone.1), metadata={op_name="jit(train_step)/add" stack_frame_id=0}
  %param_2.1316 = f32[]{:T(128)S(6)} parameter(2)
  %div.948.clone.1 = f32[512,4,8,128]{3,2,1,0:T(8,128)} broadcast(%param_2.1316), dimensions={}, metadata={op_name="jit(train_step)/div" stack_frame_id=0}
  %integer_pow.74.clone.1 = f32[512,4,8,128]{3,2,1,0:T(8,128)} multiply(%select_n.303.clone.1, %select_n.303.clone.1), metadata={op_name="jit(train_step)/integer_pow" stack_frame_id=0}
  %constant.1435.clone.1 = f32[]{:T(128)} constant(0.05)
  %broadcast.1027.clone.1 = f32[512,4,8,128]{3,2,1,0:T(8,128)} broadcast(%constant.1435.clone.1), dimensions={}, metadata={op_name="broadcast.71"}
  %mul.2075.clone.1 = f32[512,4,8,128]{3,2,1,0:T(8,128)} multiply(%integer_pow.74.clone.1, %broadcast.1027.clone.1), metadata={op_name="jit(train_step)/mul" stack_frame_id=0}
  %param_4.516 = f32[512,4,8,128]{3,2,1,0:T(8,128)} parameter(4)
  %constant.1434.clone.1 = f32[]{:T(128)} constant(0.95)
  %broadcast.1026.clone.1 = f32[512,4,8,128]{3,2,1,0:T(8,128)} broadcast(%constant.1434.clone.1), dimensions={}, metadata={op_name="broadcast.70"}
  %mul.2074.clone.1 = f32[512,4,8,128]{3,2,1,0:T(8,128)} multiply(%param_4.516, %broadcast.1026.clone.1), metadata={op_name="jit(train_step)/mul" stack_frame_id=0}
  %add.1000.clone.1 = f32[512,4,8,128]{3,2,1,0:T(8,128)} add(%mul.2075.clone.1, %mul.2074.clone.1), metadata={op_name="jit(train_step)/add" stack_frame_id=0}
  %param_1.1710 = f32[]{:T(128)S(6)} parameter(1)
  %div.947.clone.1 = f32[512,4,8,128]{3,2,1,0:T(8,128)} broadcast(%param_1.1710), dimensions={}, metadata={op_name="jit(train_step)/div" stack_frame_id=0}
  %div.946.clone.1 = f32[512,4,8,128]{3,2,1,0:T(8,128)} divide(%add.1000.clone.1, %div.947.clone.1), metadata={op_name="jit(train_step)/div" stack_frame_id=0}
  %sqrt.71.clone.1 = f32[512,4,8,128]{3,2,1,0:T(8,128)} sqrt(%div.946.clone.1), metadata={op_name="jit(train_step)/sqrt" stack_frame_id=0}
  %constant.1433.clone.1 = f32[]{:T(128)} constant(1e-08)
  %broadcast.1024.clone.1 = f32[512,4,8,128]{3,2,1,0:T(8,128)} broadcast(%constant.1433.clone.1), dimensions={}, metadata={op_name="broadcast.65"}
  %add.999.clone.1 = f32[512,4,8,128]{3,2,1,0:T(8,128)} add(%sqrt.71.clone.1, %broadcast.1024.clone.1), metadata={op_name="jit(train_step)/add" stack_frame_id=0}
  %multiply.457.clone.1 = f32[512,4,8,128]{3,2,1,0:T(8,128)} multiply(%div.948.clone.1, %add.999.clone.1), metadata={op_name="multiply.54"}
  %div.945.clone.1 = f32[512,4,8,128]{3,2,1,0:T(8,128)} divide(%add.1001.clone.1, %multiply.457.clone.1), metadata={op_name="jit(train_step)/div" stack_frame_id=0}
  %mul.2072.clone.1 = f32[512,4,8,128]{3,2,1,0:T(8,128)} multiply(%param_0.1529, %broadcast.1029.clone.1), metadata={op_name="jit(train_step)/mul" stack_frame_id=0}
  %add.998.clone.1 = f32[512,4,8,128]{3,2,1,0:T(8,128)} add(%div.945.clone.1, %mul.2072.clone.1), metadata={op_name="jit(train_step)/add" stack_frame_id=0}
  %mul.2071.clone.1 = f32[512,4,8,128]{3,2,1,0:T(8,128)} multiply(%mul.2073.clone.1, %add.998.clone.1), metadata={op_name="jit(train_step)/mul" stack_frame_id=0}
  %add.997.clone.1 = f32[512,4,8,128]{3,2,1,0:T(8,128)} add(%param_0.1529, %mul.2071.clone.1), metadata={op_name="jit(train_step)/add" stack_frame_id=0}
  %square.240 = f32[512,4,8,128]{3,2,1,0:T(8,128)} multiply(%add.997.clone.1, %add.997.clone.1), metadata={op_name="jit(train_step)/square" stack_frame_id=0}
  %constant.1473 = f32[]{:T(128)} constant(0)
  %reduce.219 = f32[]{:T(128)} reduce(%square.240, %constant.1473), dimensions={0,1,2,3}, to_apply=%region_62.67, metadata={op_name="jit(train_step)/reduce_sum" stack_frame_id=0}
  %reduce.221.clone.1 = f32[]{:T(128)} reduce(%integer_pow.74.clone.1, %constant.1473), dimensions={0,1,2,3}, to_apply=%region_47.52, metadata={op_name="jit(train_step)/reduce_sum" stack_frame_id=0}
  ROOT %tuple.157 = (f32[]{:T(128)}, f32[512,4,8,128]{3,2,1,0:T(8,128)}, f32[512,4,8,128]{3,2,1,0:T(8,128)}, f32[512,4,8,128]{3,2,1,0:T(8,128)}, f32[]{:T(128)}) tuple(%reduce.219, %add.997.clone.1, %add.1000.clone.1, %add.1001.clone.1, %reduce.221.clone.1)
}

%fused_computation.405 (param_0.1174: bf16[1,128,2048], param_1.1238: f32[128], param_2.804: f32[128], param_3.435: bf16[1,128,2048], param_4.244: bf16[2048]) -> bf16[1,128,2048] {
  %param_3.435 = bf16[1,128,2048]{2,1,0:T(8,128)(2,1)S(1)} parameter(3)
  %param_4.244 = bf16[2048]{0:T(1024)(128)(2,1)S(1)} parameter(4)
  %dot_general.478 = bf16[1,128,2048]{2,1,0:T(8,128)(2,1)} broadcast(%param_4.244), dimensions={2}, metadata={op_name="jit(train_step)/jvp(...k,k->...k)/dot_general" stack_frame_id=0}
  %dot_general.464 = bf16[1,128,2048]{2,1,0:T(8,128)(2,1)} multiply(%param_3.435, %dot_general.478), metadata={op_name="jit(train_step)/transpose(jvp(...k,k->...k))/dot_general" stack_frame_id=0}
  %convert_element_type.1281 = f32[1,128,2048]{2,1,0:T(8,128)} convert(%dot_general.464), metadata={op_name="jit(train_step)/transpose(jvp())/convert_element_type" stack_frame_id=0}
  %param_2.804 = f32[128]{0:T(128)S(1)} parameter(2)
  %mul.1903 = f32[1,128,2048]{2,1,0:T(8,128)} broadcast(%param_2.804), dimensions={1}, metadata={op_name="jit(train_step)/jvp()/mul" stack_frame_id=0}
  %mul.1895 = f32[1,128,2048]{2,1,0:T(8,128)} multiply(%convert_element_type.1281, %mul.1903), metadata={op_name="jit(train_step)/transpose(jvp())/mul" stack_frame_id=0}
  %param_0.1174 = bf16[1,128,2048]{2,1,0:T(8,128)(2,1)S(1)} parameter(0)
  %convert_element_type.1292 = f32[1,128,2048]{2,1,0:T(8,128)} convert(%param_0.1174), metadata={op_name="jit(train_step)/jvp()/convert_element_type" stack_frame_id=0}
  %param_1.1238 = f32[128]{0:T(128)S(1)} parameter(1)
  %mul.1902 = f32[1,128,2048]{2,1,0:T(8,128)} broadcast(%param_1.1238), dimensions={1}, metadata={op_name="jit(train_step)/transpose(jvp())/mul" stack_frame_id=0}
  %mul.1901 = f32[1,128,2048]{2,1,0:T(8,128)} multiply(%convert_element_type.1292, %mul.1902), metadata={op_name="jit(train_step)/transpose(jvp())/mul" stack_frame_id=0}
  %add_any.193 = f32[1,128,2048]{2,1,0:T(8,128)} add(%mul.1895, %mul.1901), metadata={op_name="jit(train_step)/transpose(jvp())/add_any" stack_frame_id=0}
  ROOT %convert_element_type.1279 = bf16[1,128,2048]{2,1,0:T(8,128)(2,1)} convert(%add_any.193), metadata={op_name="jit(train_step)/transpose(jvp())/convert_element_type" stack_frame_id=0}
}

%region_7.10 (reduce_sum.171: f32[], reduce_sum.184: f32[]) -> f32[] {
  %reduce_sum.171 = f32[]{:T(128)} parameter(0), metadata={op_name="jit(train_step)/jvp()/reduce_sum"}
  %reduce_sum.184 = f32[]{:T(128)} parameter(1), metadata={op_name="jit(train_step)/jvp()/reduce_sum"}
  ROOT %reduce_sum.185 = f32[]{:T(128)} add(%reduce_sum.171, %reduce_sum.184), metadata={op_name="jit(train_step)/jvp()/reduce_sum" stack_frame_id=0}, backend_config={"flag_configs":[],"scoped_memory_configs":[],"used_scoped_memory_configs":[],"aliasing_operands":{"lists":[]}}
}

%fused_computation.406 (param_0.1550: bf16[1,128,2048]) -> f32[128] {
  %param_0.1550 = bf16[1,128,2048]{2,1,0:T(8,128)(2,1)S(1)} parameter(0)
  %convert_element_type.1283 = f32[1,128,2048]{2,1,0:T(8,128)} convert(%param_0.1550), metadata={op_name="jit(train_step)/jvp()/convert_element_type" stack_frame_id=0}
  %square.243 = f32[1,128,2048]{2,1,0:T(8,128)} multiply(%convert_element_type.1283, %convert_element_type.1283), metadata={op_name="jit(train_step)/jvp()/square" stack_frame_id=0}
  %constant.1495 = f32[]{:T(128)} constant(0)
  ROOT %reduce.222 = f32[128]{0:T(128)S(1)} reduce(%square.243, %constant.1495), dimensions={0,2}, to_apply=%region_7.10, metadata={op_name="jit(train_step)/jvp()/reduce_sum" stack_frame_id=0}
}

%region_12.15 (reduce_sum.198: f32[], reduce_sum.199: f32[]) -> f32[] {
  %reduce_sum.198 = f32[]{:T(128)} parameter(0), metadata={op_name="jit(train_step)/transpose(jvp())/reduce_sum"}
  %reduce_sum.199 = f32[]{:T(128)} parameter(1), metadata={op_name="jit(train_step)/transpose(jvp())/reduce_sum"}
  ROOT %reduce_sum.200 = f32[]{:T(128)} add(%reduce_sum.198, %reduce_sum.199), metadata={op_name="jit(train_step)/transpose(jvp())/reduce_sum" stack_frame_id=0}, backend_config={"flag_configs":[],"scoped_memory_configs":[],"used_scoped_memory_configs":[],"aliasing_operands":{"lists":[]}}
}

%fused_computation.408 (param_0.1546: bf16[1,128,2048], param_1.1721: bf16[1,128,2048], param_2.1324: bf16[2048]) -> f32[128] {
  %param_0.1546 = bf16[1,128,2048]{2,1,0:T(8,128)(2,1)S(1)} parameter(0)
  %convert_element_type.1290 = f32[1,128,2048]{2,1,0:T(8,128)} convert(%param_0.1546), metadata={op_name="jit(train_step)/jvp()/convert_element_type" stack_frame_id=0}
  %param_1.1721 = bf16[1,128,2048]{2,1,0:T(8,128)(2,1)S(1)} parameter(1)
  %param_2.1324 = bf16[2048]{0:T(1024)(128)(2,1)S(1)} parameter(2)
  %dot_general.477 = bf16[1,128,2048]{2,1,0:T(8,128)(2,1)} broadcast(%param_2.1324), dimensions={2}, metadata={op_name="jit(train_step)/jvp(...k,k->...k)/dot_general" stack_frame_id=0}
  %dot_general.463 = bf16[1,128,2048]{2,1,0:T(8,128)(2,1)} multiply(%param_1.1721, %dot_general.477), metadata={op_name="jit(train_step)/transpose(jvp(...k,k->...k))/dot_general" stack_frame_id=0}
  %convert_element_type.1289 = f32[1,128,2048]{2,1,0:T(8,128)} convert(%dot_general.463), metadata={op_name="jit(train_step)/transpose(jvp())/convert_element_type" stack_frame_id=0}
  %mul.1899 = f32[1,128,2048]{2,1,0:T(8,128)} multiply(%convert_element_type.1290, %convert_element_type.1289), metadata={op_name="jit(train_step)/transpose(jvp())/mul" stack_frame_id=0}
  %constant.1490 = f32[]{:T(128)} constant(0)
  ROOT %reduce.223 = f32[128]{0:T(128)S(1)} reduce(%mul.1899, %constant.1490), dimensions={0,2}, to_apply=%region_12.15, metadata={op_name="jit(train_step)/transpose(jvp())/reduce_sum" stack_frame_id=0}
}

%fused_computation.410 (param_0.1189: bf16[2048], param_1.1256: f32[128], param_2.812: bf16[1,128,2048]) -> bf16[128,2048] {
  %param_0.1189 = bf16[2048]{0:T(1024)(128)(2,1)S(1)} parameter(0)
  %dot_general.476 = bf16[1,128,2048]{2,1,0:T(8,128)(2,1)} broadcast(%param_0.1189), dimensions={2}, metadata={op_name="jit(train_step)/jvp(...k,k->...k)/dot_general" stack_frame_id=0}
  %param_2.812 = bf16[1,128,2048]{2,1,0:T(8,128)(2,1)S(1)} parameter(2)
  %convert_element_type.1298 = f32[1,128,2048]{2,1,0:T(8,128)} convert(%param_2.812), metadata={op_name="jit(train_step)/jvp()/convert_element_type" stack_frame_id=0}
  %param_1.1256 = f32[128]{0:T(128)S(1)} parameter(1)
  %mul.1910 = f32[1,128,2048]{2,1,0:T(8,128)} broadcast(%param_1.1256), dimensions={1}, metadata={op_name="jit(train_step)/jvp()/mul" stack_frame_id=0}
  %mul.1909 = f32[1,128,2048]{2,1,0:T(8,128)} multiply(%convert_element_type.1298, %mul.1910), metadata={op_name="jit(train_step)/jvp()/mul" stack_frame_id=0}
  %convert_element_type.1297 = bf16[1,128,2048]{2,1,0:T(8,128)(2,1)} convert(%mul.1909), metadata={op_name="jit(train_step)/jvp()/convert_element_type" stack_frame_id=0}
  %dot_general.468 = bf16[1,128,2048]{2,1,0:T(8,128)(2,1)} multiply(%dot_general.476, %convert_element_type.1297), metadata={op_name="jit(train_step)/jvp(...k,k->...k)/dot_general" stack_frame_id=0}
  ROOT %bitcast.595 = bf16[128,2048]{1,0:T(8,128)(2,1)} bitcast(%dot_general.468)
}

%fused_computation.363.clone (param_0.1399: bf16[128,151936], param_1.1581: f32[128], param_2.1127: f32[128], param_3.702: bf16[128], param_4.332: s32[128], param_5.278: f32[128]) -> bf16[128,151936] {
  %param_5.278 = f32[128]{0:T(128)S(1)} parameter(5)
  %mul.1989 = f32[1,128,151936]{2,1,0:T(8,128)} broadcast(%param_5.278), dimensions={1}, metadata={op_name="jit(train_step)/transpose(jvp())/mul" stack_frame_id=0}
  %param_1.1581 = f32[128]{0:T(128)S(1)} parameter(1)
  %mul.1988 = f32[1,128,151936]{2,1,0:T(8,128)} broadcast(%param_1.1581), dimensions={1}, metadata={op_name="jit(train_step)/transpose(jvp())/mul" stack_frame_id=0}
  %param_0.1399 = bf16[128,151936]{1,0:T(8,128)(2,1)S(1)} parameter(0)
  %convert_element_type.1329 = f32[128,151936]{1,0:T(8,128)} convert(%param_0.1399), metadata={op_name="jit(train_step)/jvp()/convert_element_type" stack_frame_id=0}
  %bitcast.675 = f32[1,128,151936]{2,1,0:T(8,128)} bitcast(%convert_element_type.1329), metadata={op_name="jit(train_step)/jvp()/convert_element_type" stack_frame_id=0}
  %param_3.702 = bf16[128]{0:T(256)(128)(2,1)S(1)} parameter(3)
  %sub.103 = f32[1,128,151936]{2,1,0:T(8,128)} broadcast(%param_3.702), dimensions={1}, metadata={op_name="jit(train_step)/jvp()/sub" stack_frame_id=0}
  %sub.102 = f32[1,128,151936]{2,1,0:T(8,128)} subtract(%bitcast.675, %sub.103), metadata={op_name="jit(train_step)/jvp()/sub" stack_frame_id=0}
  %exp.62 = f32[1,128,151936]{2,1,0:T(8,128)} exponential(%sub.102), metadata={op_name="jit(train_step)/jvp()/exp" stack_frame_id=0}
  %mul.1987 = f32[1,128,151936]{2,1,0:T(8,128)} multiply(%mul.1988, %exp.62), metadata={op_name="jit(train_step)/transpose(jvp())/mul" stack_frame_id=0}
  %param_2.1127 = f32[128]{0:T(128)S(1)} parameter(2)
  %div.870 = f32[1,128,151936]{2,1,0:T(8,128)} broadcast(%param_2.1127), dimensions={1}, metadata={op_name="jit(train_step)/transpose(jvp())/div" stack_frame_id=0}
  %div.869 = f32[1,128,151936]{2,1,0:T(8,128)} divide(%mul.1987, %div.870), metadata={op_name="jit(train_step)/transpose(jvp())/div" stack_frame_id=0}
  %param_4.332 = s32[128]{0:T(128)S(1)} parameter(4)
  %eq.29 = s32[1,128,151936]{2,1,0:T(8,128)} broadcast(%param_4.332), dimensions={1}, metadata={op_name="jit(train_step)/jvp(jit(_one_hot))/eq" stack_frame_id=0}
  %iota.57 = s32[1,128,151936]{2,1,0:T(8,128)} iota(), iota_dimension=2, metadata={op_name="jit(train_step)/jvp(jit(_one_hot))/eq" stack_frame_id=0}
  %eq.28 = pred[1,128,151936]{2,1,0:T(8,128)(4,1)} compare(%eq.29, %iota.57), direction=EQ, metadata={op_name="jit(train_step)/jvp(jit(_one_hot))/eq" stack_frame_id=0}
  %convert_element_type.1328 = f32[1,128,151936]{2,1,0:T(8,128)} convert(%eq.28), metadata={op_name="jit(train_step)/jvp(jit(_one_hot))/convert_element_type" stack_frame_id=0}
  %sub.101 = f32[1,128,151936]{2,1,0:T(8,128)} subtract(%div.869, %convert_element_type.1328), metadata={op_name="jit(train_step)/transpose(jvp())/sub" stack_frame_id=0}
  %mul.1986 = f32[1,128,151936]{2,1,0:T(8,128)} multiply(%mul.1989, %sub.101), metadata={op_name="jit(train_step)/transpose(jvp())/mul" stack_frame_id=0}
  %convert_element_type.1327 = bf16[1,128,151936]{2,1,0:T(8,128)(2,1)} convert(%mul.1986), metadata={op_name="jit(train_step)/transpose(jvp())/convert_element_type" stack_frame_id=0}
  ROOT %bitcast.674 = bf16[128,151936]{1,0:T(8,128)(2,1)} bitcast(%convert_element_type.1327)
}

%fused_computation.409 (param_0.1400: bf16[2048], param_1.1582: bf16[1,128,2048], param_2.1128: f32[128], param_3.703: bf16[128,151936], param_4.333: f32[128], param_5.279: f32[128], param_6.154: bf16[128], param_7.87: s32[128], param_8.5: f32[128]) -> bf16[151936,2048] {
  %param_3.703 = bf16[128,151936]{1,0:T(8,128)(2,1)S(1)} parameter(3)
  %param_4.333 = f32[128]{0:T(128)S(1)} parameter(4)
  %param_5.279 = f32[128]{0:T(128)S(1)} parameter(5)
  %param_6.154 = bf16[128]{0:T(256)(128)(2,1)S(1)} parameter(6)
  %param_7.87 = s32[128]{0:T(128)S(1)} parameter(7)
  %param_8.5 = f32[128]{0:T(128)S(1)} parameter(8)
  %fusion.340 = bf16[128,151936]{1,0:T(8,128)(2,1)} fusion(%param_3.703, %param_4.333, %param_5.279, %param_6.154, %param_7.87, /*index=5*/%param_8.5), kind=kLoop, calls=%fused_computation.363.clone
  %param_0.1400 = bf16[2048]{0:T(1024)(128)(2,1)S(1)} parameter(0)
  %param_2.1128 = f32[128]{0:T(128)S(1)} parameter(2)
  %param_1.1582 = bf16[1,128,2048]{2,1,0:T(8,128)(2,1)S(1)} parameter(1)
  %fusion.317 = bf16[128,2048]{1,0:T(8,128)(2,1)} fusion(%param_0.1400, %param_2.1128, %param_1.1582), kind=kLoop, calls=%fused_computation.410
  ROOT %convolution.114 = bf16[151936,2048]{1,0:T(8,128)(2,1)} convolution(%fusion.340, %fusion.317), dim_labels=fb_io->bf, metadata={op_name="jit(train_step)/transpose(jvp())/dot_general" stack_frame_id=0}
}

%region_10.13 (dot_general.204: bf16[], dot_general.205: bf16[]) -> bf16[] {
  %dot_general.204 = bf16[]{:T(256)} parameter(0), metadata={op_name="jit(train_step)/transpose(jvp(...k,k->...k))/dot_general"}
  %dot_general.205 = bf16[]{:T(256)} parameter(1), metadata={op_name="jit(train_step)/transpose(jvp(...k,k->...k))/dot_general"}
  ROOT %add.416 = bf16[]{:T(256)} add(%dot_general.204, %dot_general.205), metadata={op_name="add.79"}, backend_config={"flag_configs":[],"scoped_memory_configs":[],"used_scoped_memory_configs":[],"aliasing_operands":{"lists":[]}}
}

%fused_computation.363.clone.1.clone.clone (param_0.1513: bf16[128,151936], param_1.1698: f32[128], param_2.1289: f32[128], param_3.865: bf16[128], param_4.500: s32[128], param_5.434: f32[128]) -> bf16[128,151936] {
  %param_5.434 = f32[128]{0:T(128)S(1)} parameter(5)
  %mul.2147 = f32[1,128,151936]{2,1,0:T(8,128)} broadcast(%param_5.434), dimensions={1}, metadata={op_name="jit(train_step)/transpose(jvp())/mul" stack_frame_id=0}
  %param_1.1698 = f32[128]{0:T(128)S(1)} parameter(1)
  %mul.2146 = f32[1,128,151936]{2,1,0:T(8,128)} broadcast(%param_1.1698), dimensions={1}, metadata={op_name="jit(train_step)/transpose(jvp())/mul" stack_frame_id=0}
  %param_0.1513 = bf16[128,151936]{1,0:T(8,128)(2,1)S(1)} parameter(0)
  %convert_element_type.1370 = f32[128,151936]{1,0:T(8,128)} convert(%param_0.1513), metadata={op_name="jit(train_step)/jvp()/convert_element_type" stack_frame_id=0}
  %bitcast.753 = f32[1,128,151936]{2,1,0:T(8,128)} bitcast(%convert_element_type.1370), metadata={op_name="jit(train_step)/jvp()/convert_element_type" stack_frame_id=0}
  %param_3.865 = bf16[128]{0:T(256)(128)(2,1)S(1)} parameter(3)
  %sub.114 = f32[1,128,151936]{2,1,0:T(8,128)} broadcast(%param_3.865), dimensions={1}, metadata={op_name="jit(train_step)/jvp()/sub" stack_frame_id=0}
  %sub.113 = f32[1,128,151936]{2,1,0:T(8,128)} subtract(%bitcast.753, %sub.114), metadata={op_name="jit(train_step)/jvp()/sub" stack_frame_id=0}
  %exp.67 = f32[1,128,151936]{2,1,0:T(8,128)} exponential(%sub.113), metadata={op_name="jit(train_step)/jvp()/exp" stack_frame_id=0}
  %mul.2145 = f32[1,128,151936]{2,1,0:T(8,128)} multiply(%mul.2146, %exp.67), metadata={op_name="jit(train_step)/transpose(jvp())/mul" stack_frame_id=0}
  %param_2.1289 = f32[128]{0:T(128)S(1)} parameter(2)
  %div.982 = f32[1,128,151936]{2,1,0:T(8,128)} broadcast(%param_2.1289), dimensions={1}, metadata={op_name="jit(train_step)/transpose(jvp())/div" stack_frame_id=0}
  %div.981 = f32[1,128,151936]{2,1,0:T(8,128)} divide(%mul.2145, %div.982), metadata={op_name="jit(train_step)/transpose(jvp())/div" stack_frame_id=0}
  %param_4.500 = s32[128]{0:T(128)S(1)} parameter(4)
  %eq.35 = s32[1,128,151936]{2,1,0:T(8,128)} broadcast(%param_4.500), dimensions={1}, metadata={op_name="jit(train_step)/jvp(jit(_one_hot))/eq" stack_frame_id=0}
  %iota.60 = s32[1,128,151936]{2,1,0:T(8,128)} iota(), iota_dimension=2, metadata={op_name="jit(train_step)/jvp(jit(_one_hot))/eq" stack_frame_id=0}
  %eq.34 = pred[1,128,151936]{2,1,0:T(8,128)(4,1)} compare(%eq.35, %iota.60), direction=EQ, metadata={op_name="jit(train_step)/jvp(jit(_one_hot))/eq" stack_frame_id=0}
  %convert_element_type.1369 = f32[1,128,151936]{2,1,0:T(8,128)} convert(%eq.34), metadata={op_name="jit(train_step)/jvp(jit(_one_hot))/convert_element_type" stack_frame_id=0}
  %sub.112 = f32[1,128,151936]{2,1,0:T(8,128)} subtract(%div.981, %convert_element_type.1369), metadata={op_name="jit(train_step)/transpose(jvp())/sub" stack_frame_id=0}
  %mul.2144 = f32[1,128,151936]{2,1,0:T(8,128)} multiply(%mul.2147, %sub.112), metadata={op_name="jit(train_step)/transpose(jvp())/mul" stack_frame_id=0}
  %convert_element_type.1368 = bf16[1,128,151936]{2,1,0:T(8,128)(2,1)} convert(%mul.2144), metadata={op_name="jit(train_step)/transpose(jvp())/convert_element_type" stack_frame_id=0}
  ROOT %bitcast.752 = bf16[128,151936]{1,0:T(8,128)(2,1)} bitcast(%convert_element_type.1368)
}

%bitcast_fusion.2 (bitcast_input.2: bf16[151936,2048]) -> bf16[151936,2048] {
  %bitcast_input.2 = bf16[151936,2048]{1,0:T(8,128)(2,1)} parameter(0)
  ROOT %bitcast.760 = bf16[151936,2048]{1,0:T(8,128)(2,1)} bitcast(%bitcast_input.2)
}

%fused_computation.413 (param_0.1512: f32[128], param_1.1697: bf16[1,128,2048], param_2.1290: bf16[151936,2048], param_3.866: bf16[128,151936], param_4.501: f32[128], param_5.435: f32[128], param_6.299: bf16[128], param_7.189: s32[128], param_8.111: f32[128]) -> (bf16[2048], bf16[1,128,2048]) {
  %param_3.866 = bf16[128,151936]{1,0:T(8,128)(2,1)S(1)} parameter(3)
  %param_4.501 = f32[128]{0:T(128)S(1)} parameter(4)
  %param_5.435 = f32[128]{0:T(128)S(1)} parameter(5)
  %param_6.299 = bf16[128]{0:T(256)(128)(2,1)S(1)} parameter(6)
  %param_7.189 = s32[128]{0:T(128)S(1)} parameter(7)
  %param_8.111 = f32[128]{0:T(128)S(1)} parameter(8)
  %fusion.341.clone.1 = bf16[128,151936]{1,0:T(8,128)(2,1)} fusion(%param_3.866, %param_4.501, %param_5.435, %param_6.299, %param_7.189, /*index=5*/%param_8.111), kind=kLoop, calls=%fused_computation.363.clone.1.clone.clone
  %param_2.1290 = bf16[151936,2048]{1,0:T(8,128)(2,1)} parameter(2)
  %fusion.356 = bf16[151936,2048]{1,0:T(8,128)(2,1)} fusion(%param_2.1290), kind=kLoop, calls=%bitcast_fusion.2
  %convolution.113.clone.1 = bf16[128,2048]{1,0:T(8,128)(2,1)} convolution(%fusion.341.clone.1, %fusion.356), dim_labels=bf_io->bf, metadata={op_name="jit(train_step)/transpose(jvp())/dot_general" stack_frame_id=0}
  %bitcast.593.clone.1 = bf16[1,128,2048]{2,1,0:T(8,128)(2,1)S(1)} bitcast(%convolution.113.clone.1), metadata={op_name="jit(train_step)/transpose(jvp())/dot_general" stack_frame_id=0}
  %param_1.1697 = bf16[1,128,2048]{2,1,0:T(8,128)(2,1)S(1)} parameter(1)
  %convert_element_type.1302 = f32[1,128,2048]{2,1,0:T(8,128)} convert(%param_1.1697), metadata={op_name="jit(train_step)/jvp()/convert_element_type" stack_frame_id=0}
  %param_0.1512 = f32[128]{0:T(128)S(1)} parameter(0)
  %mul.1914 = f32[1,128,2048]{2,1,0:T(8,128)} broadcast(%param_0.1512), dimensions={1}, metadata={op_name="jit(train_step)/jvp()/mul" stack_frame_id=0}
  %mul.1913 = f32[1,128,2048]{2,1,0:T(8,128)} multiply(%convert_element_type.1302, %mul.1914), metadata={op_name="jit(train_step)/jvp()/mul" stack_frame_id=0}
  %convert_element_type.1301 = bf16[1,128,2048]{2,1,0:T(8,128)(2,1)} convert(%mul.1913), metadata={op_name="jit(train_step)/jvp()/convert_element_type" stack_frame_id=0}
  %multiply.436 = bf16[1,128,2048]{2,1,0:T(8,128)(2,1)} multiply(%bitcast.593.clone.1, %convert_element_type.1301), metadata={op_name="multiply.354"}
  %constant.1318 = bf16[]{:T(256)} constant(0)
  %reduce.224 = bf16[2048]{0:T(1024)(128)(2,1)} reduce(%multiply.436, %constant.1318), dimensions={0,1}, to_apply=%region_10.13, metadata={op_name="jit(train_step)/transpose(jvp(...k,k->...k))/dot_general" stack_frame_id=0}
  ROOT %tuple.172 = (bf16[2048]{0:T(1024)(128)(2,1)}, bf16[1,128,2048]{2,1,0:T(8,128)(2,1)S(1)}) tuple(%reduce.224, %bitcast.593.clone.1)
}

%fused_computation.421 (param_0.1238: f32[128], param_1.1308: f32[64]) -> (bf16[1,128,1,64], bf16[1,128,1,64]) {
  %param_0.1238 = f32[128]{0:T(128)S(1)} parameter(0)
  %div.732 = f32[1,128,1,64]{3,1,2,0:T(8,128)} broadcast(%param_0.1238), dimensions={1}, metadata={op_name="jit(train_step)/div" stack_frame_id=0}
  %param_1.1308 = f32[64]{0:T(128)S(1)} parameter(1)
  %div.738 = f32[1,128,1,64]{3,1,2,0:T(8,128)} broadcast(%param_1.1308), dimensions={3}, metadata={op_name="jit(train_step)/div" stack_frame_id=0}
  %div.729 = f32[1,128,1,64]{3,1,2,0:T(8,128)} divide(%div.732, %div.738), metadata={op_name="jit(train_step)/div" stack_frame_id=0}
  %sin.38 = f32[1,128,1,64]{3,1,2,0:T(8,128)} sine(%div.729), metadata={op_name="jit(train_step)/sin" stack_frame_id=0}
  %convert_element_type.1310 = bf16[1,128,1,64]{3,1,2,0:T(8,128)(2,1)S(1)} convert(%sin.38), metadata={op_name="jit(train_step)/convert_element_type" stack_frame_id=0}
  %cos.41.clone.1 = f32[1,128,1,64]{3,1,2,0:T(8,128)} cosine(%div.729), metadata={op_name="jit(train_step)/cos" stack_frame_id=0}
  %convert_element_type.1309.clone.1 = bf16[1,128,1,64]{3,1,2,0:T(8,128)(2,1)S(1)} convert(%cos.41.clone.1), metadata={op_name="jit(train_step)/convert_element_type" stack_frame_id=0}
  ROOT %tuple.167 = (bf16[1,128,1,64]{3,1,2,0:T(8,128)(2,1)S(1)}, bf16[1,128,1,64]{3,1,2,0:T(8,128)(2,1)S(1)}) tuple(%convert_element_type.1310, %convert_element_type.1309.clone.1)
}

%fused_computation.424 (param_0.1209: bf16[1,128,1,64]) -> bf16[1,128,1,128] {
  %param_0.1209 = bf16[1,128,1,64]{3,1,2,0:T(8,128)(2,1)S(1)} parameter(0)
  %constant.1310 = bf16[]{:T(256)} constant(-inf)
  %pad.54 = bf16[1,128,1,128]{3,1,2,0:T(8,128)(2,1)} pad(%param_0.1209, %constant.1310), padding=0_0x0_0x0_0x0_64, metadata={op_name="jit(train_step)/concatenate" stack_frame_id=0}
  %pad.53 = bf16[1,128,1,128]{3,1,2,0:T(8,128)(2,1)} pad(%param_0.1209, %constant.1310), padding=0_0x0_0x0_0x64_0, metadata={op_name="jit(train_step)/concatenate" stack_frame_id=0}
  ROOT %maximum.46 = bf16[1,128,1,128]{3,1,2,0:T(8,128)(2,1)S(1)} maximum(%pad.54, %pad.53), metadata={op_name="jit(train_step)/concatenate" stack_frame_id=0}
}

%fused_computation.425 (param_0.1211: bf16[1,128,1,64]) -> bf16[1,128,1,128] {
  %param_0.1211 = bf16[1,128,1,64]{3,1,2,0:T(8,128)(2,1)S(1)} parameter(0)
  %constant.1309 = bf16[]{:T(256)} constant(-inf)
  %pad.56 = bf16[1,128,1,128]{3,1,2,0:T(8,128)(2,1)} pad(%param_0.1211, %constant.1309), padding=0_0x0_0x0_0x0_64, metadata={op_name="jit(train_step)/concatenate" stack_frame_id=0}
  %pad.55 = bf16[1,128,1,128]{3,1,2,0:T(8,128)(2,1)} pad(%param_0.1211, %constant.1309), padding=0_0x0_0x0_0x64_0, metadata={op_name="jit(train_step)/concatenate" stack_frame_id=0}
  ROOT %maximum.47 = bf16[1,128,1,128]{3,1,2,0:T(8,128)(2,1)S(1)} maximum(%pad.56, %pad.55), metadata={op_name="jit(train_step)/concatenate" stack_frame_id=0}
}

%region_32.37 (reduce_sum.281: f32[], reduce_sum.282: f32[]) -> f32[] {
  %reduce_sum.281 = f32[]{:T(128)} parameter(0), metadata={op_name="jit(train_step)/reduce_sum"}
  %reduce_sum.282 = f32[]{:T(128)} parameter(1), metadata={op_name="jit(train_step)/reduce_sum"}
  ROOT %reduce_sum.283 = f32[]{:T(128)} add(%reduce_sum.281, %reduce_sum.282), metadata={op_name="jit(train_step)/reduce_sum" stack_frame_id=0}, backend_config={"flag_configs":[],"scoped_memory_configs":[],"used_scoped_memory_configs":[],"aliasing_operands":{"lists":[]}}
}

%fused_computation.427 (param_0.1537: f32[4,2048]) -> f32[] {
  %param_0.1537 = f32[4,2048]{1,0:T(4,128)S(1)} parameter(0)
  %bitcast.601 = f32[2048,4]{0,1:T(4,128)} bitcast(%param_0.1537), metadata={op_name="jit(train_step)/transpose(jvp())/transpose" stack_frame_id=0}
  %square.246 = f32[2048,4]{0,1:T(4,128)} multiply(%bitcast.601, %bitcast.601), metadata={op_name="jit(train_step)/square" stack_frame_id=0}
  %constant.1481 = f32[]{:T(128)} constant(0)
  ROOT %reduce.225 = f32[]{:T(128)} reduce(%square.246, %constant.1481), dimensions={0,1}, to_apply=%region_32.37, metadata={op_name="jit(train_step)/reduce_sum" stack_frame_id=0}
}

%region_31.36 (reduce_sum.275: f32[], reduce_sum.276: f32[]) -> f32[] {
  %reduce_sum.275 = f32[]{:T(128)} parameter(0), metadata={op_name="jit(train_step)/reduce_sum"}
  %reduce_sum.276 = f32[]{:T(128)} parameter(1), metadata={op_name="jit(train_step)/reduce_sum"}
  ROOT %reduce_sum.277 = f32[]{:T(128)} add(%reduce_sum.275, %reduce_sum.276), metadata={op_name="jit(train_step)/reduce_sum" stack_frame_id=0}, backend_config={"flag_configs":[],"scoped_memory_configs":[],"used_scoped_memory_configs":[],"aliasing_operands":{"lists":[]}}
}

%fused_computation.429 (param_0.1538: f32[4,2048]) -> f32[] {
  %param_0.1538 = f32[4,2048]{1,0:T(4,128)S(1)} parameter(0)
  %bitcast.605 = f32[2048,4]{0,1:T(4,128)} bitcast(%param_0.1538), metadata={op_name="jit(train_step)/transpose(jvp())/transpose" stack_frame_id=0}
  %square.249 = f32[2048,4]{0,1:T(4,128)} multiply(%bitcast.605, %bitcast.605), metadata={op_name="jit(train_step)/square" stack_frame_id=0}
  %constant.1482 = f32[]{:T(128)} constant(0)
  ROOT %reduce.226 = f32[]{:T(128)} reduce(%square.249, %constant.1482), dimensions={0,1}, to_apply=%region_31.36, metadata={op_name="jit(train_step)/reduce_sum" stack_frame_id=0}
}

%region_61.66 (reduce_sum.428: f32[], reduce_sum.429: f32[]) -> f32[] {
  %reduce_sum.428 = f32[]{:T(128)} parameter(0), metadata={op_name="jit(train_step)/reduce_sum"}
  %reduce_sum.429 = f32[]{:T(128)} parameter(1), metadata={op_name="jit(train_step)/reduce_sum"}
  ROOT %reduce_sum.430 = f32[]{:T(128)} add(%reduce_sum.428, %reduce_sum.429), metadata={op_name="jit(train_step)/reduce_sum" stack_frame_id=0}, backend_config={"flag_configs":[],"scoped_memory_configs":[],"used_scoped_memory_configs":[],"aliasing_operands":{"lists":[]}}
}

%region_46.51 (reduce_sum.347: f32[], reduce_sum.351: f32[]) -> f32[] {
  %reduce_sum.347 = f32[]{:T(128)} parameter(0), metadata={op_name="jit(train_step)/reduce_sum"}
  %reduce_sum.351 = f32[]{:T(128)} parameter(1), metadata={op_name="jit(train_step)/reduce_sum"}
  ROOT %reduce_sum.352 = f32[]{:T(128)} add(%reduce_sum.347, %reduce_sum.351), metadata={op_name="jit(train_step)/reduce_sum" stack_frame_id=0}, backend_config={"flag_configs":[],"scoped_memory_configs":[],"used_scoped_memory_configs":[],"aliasing_operands":{"lists":[]}}
}

%fused_computation.430 (param_0.1530: f32[2048,4], param_1.1711: f32[], param_2.1317: f32[], param_3.879: f32[], param_4.517: f32[2048,4], param_5.461: f32[], param_6.323: f32[4,2048], param_7.197: pred[], param_8.119: f32[2048,4]) -> (f32[], f32[2048,4], f32[2048,4], f32[2048,4], f32[]) {
  %param_0.1530 = f32[2048,4]{0,1:T(4,128)S(1)} parameter(0)
  %param_3.879 = f32[]{:T(128)S(6)} parameter(3)
  %mul.2012.clone.1 = f32[2048,4]{0,1:T(4,128)} broadcast(%param_3.879), dimensions={}, metadata={op_name="jit(train_step)/mul" stack_frame_id=0}
  %param_7.197 = pred[]{:T(512)S(6)} parameter(7)
  %select_n.276.clone.1 = pred[2048,4]{0,1:T(4,128)(4,1)} broadcast(%param_7.197), dimensions={}, metadata={op_name="jit(train_step)/select_n" stack_frame_id=0}
  %param_6.323 = f32[4,2048]{1,0:T(4,128)S(1)} parameter(6)
  %bitcast.689.clone.1 = f32[2048,4]{0,1:T(4,128)} bitcast(%param_6.323), metadata={op_name="jit(train_step)/transpose(jvp())/transpose" stack_frame_id=0}
  %param_5.461 = f32[]{:T(128)} parameter(5)
  %div.896.clone.1 = f32[2048,4]{0,1:T(4,128)} broadcast(%param_5.461), dimensions={}, metadata={op_name="jit(train_step)/div" stack_frame_id=0}
  %div.895.clone.1 = f32[2048,4]{0,1:T(4,128)} divide(%bitcast.689.clone.1, %div.896.clone.1), metadata={op_name="jit(train_step)/div" stack_frame_id=0}
  %select_n.275.clone.1 = f32[2048,4]{0,1:T(4,128)} select(%select_n.276.clone.1, %bitcast.689.clone.1, %div.895.clone.1), metadata={op_name="jit(train_step)/select_n" stack_frame_id=0}
  %constant.1388.clone.1 = f32[]{:T(128)} constant(0.1)
  %broadcast.1003.clone.1 = f32[2048,4]{0,1:T(4,128)} broadcast(%constant.1388.clone.1), dimensions={}, metadata={op_name="broadcast.84"}
  %mul.2016.clone.1 = f32[2048,4]{0,1:T(4,128)} multiply(%select_n.275.clone.1, %broadcast.1003.clone.1), metadata={op_name="jit(train_step)/mul" stack_frame_id=0}
  %param_8.119 = f32[2048,4]{0,1:T(4,128)S(1)} parameter(8)
  %constant.1392.clone.1 = f32[]{:T(128)} constant(0.9)
  %broadcast.1002.clone.1 = f32[2048,4]{0,1:T(4,128)} broadcast(%constant.1392.clone.1), dimensions={}, metadata={op_name="broadcast.83"}
  %mul.2015.clone.1 = f32[2048,4]{0,1:T(4,128)} multiply(%param_8.119, %broadcast.1002.clone.1), metadata={op_name="jit(train_step)/mul" stack_frame_id=0}
  %add.962.clone.1 = f32[2048,4]{0,1:T(4,128)S(1)} add(%mul.2016.clone.1, %mul.2015.clone.1), metadata={op_name="jit(train_step)/add" stack_frame_id=0}
  %param_2.1317 = f32[]{:T(128)S(6)} parameter(2)
  %div.892.clone.1 = f32[2048,4]{0,1:T(4,128)} broadcast(%param_2.1317), dimensions={}, metadata={op_name="jit(train_step)/div" stack_frame_id=0}
  %integer_pow.67.clone.1 = f32[2048,4]{0,1:T(4,128)} multiply(%select_n.275.clone.1, %select_n.275.clone.1), metadata={op_name="jit(train_step)/integer_pow" stack_frame_id=0}
  %constant.1391.clone.1 = f32[]{:T(128)} constant(0.05)
  %broadcast.1001.clone.1 = f32[2048,4]{0,1:T(4,128)} broadcast(%constant.1391.clone.1), dimensions={}, metadata={op_name="broadcast.73"}
  %mul.2014.clone.1 = f32[2048,4]{0,1:T(4,128)} multiply(%integer_pow.67.clone.1, %broadcast.1001.clone.1), metadata={op_name="jit(train_step)/mul" stack_frame_id=0}
  %param_4.517 = f32[2048,4]{0,1:T(4,128)S(1)} parameter(4)
  %constant.1390.clone.1 = f32[]{:T(128)} constant(0.95)
  %broadcast.1000.clone.1 = f32[2048,4]{0,1:T(4,128)} broadcast(%constant.1390.clone.1), dimensions={}, metadata={op_name="broadcast.72"}
  %mul.2013.clone.1 = f32[2048,4]{0,1:T(4,128)} multiply(%param_4.517, %broadcast.1000.clone.1), metadata={op_name="jit(train_step)/mul" stack_frame_id=0}
  %add.961.clone.1 = f32[2048,4]{0,1:T(4,128)S(1)} add(%mul.2014.clone.1, %mul.2013.clone.1), metadata={op_name="jit(train_step)/add" stack_frame_id=0}
  %param_1.1711 = f32[]{:T(128)S(6)} parameter(1)
  %div.891.clone.1 = f32[2048,4]{0,1:T(4,128)} broadcast(%param_1.1711), dimensions={}, metadata={op_name="jit(train_step)/div" stack_frame_id=0}
  %div.890.clone.1 = f32[2048,4]{0,1:T(4,128)} divide(%add.961.clone.1, %div.891.clone.1), metadata={op_name="jit(train_step)/div" stack_frame_id=0}
  %sqrt.64.clone.1 = f32[2048,4]{0,1:T(4,128)} sqrt(%div.890.clone.1), metadata={op_name="jit(train_step)/sqrt" stack_frame_id=0}
  %constant.1389.clone.1 = f32[]{:T(128)} constant(1e-08)
  %broadcast.998.clone.1 = f32[2048,4]{0,1:T(4,128)} broadcast(%constant.1389.clone.1), dimensions={}, metadata={op_name="broadcast.66"}
  %add.960.clone.1 = f32[2048,4]{0,1:T(4,128)} add(%sqrt.64.clone.1, %broadcast.998.clone.1), metadata={op_name="jit(train_step)/add" stack_frame_id=0}
  %multiply.450.clone.1 = f32[2048,4]{0,1:T(4,128)} multiply(%div.892.clone.1, %add.960.clone.1), metadata={op_name="multiply.53"}
  %div.889.clone.1 = f32[2048,4]{0,1:T(4,128)} divide(%add.962.clone.1, %multiply.450.clone.1), metadata={op_name="jit(train_step)/div" stack_frame_id=0}
  %mul.2011.clone.1 = f32[2048,4]{0,1:T(4,128)} multiply(%param_0.1530, %broadcast.1003.clone.1), metadata={op_name="jit(train_step)/mul" stack_frame_id=0}
  %add.959.clone.1 = f32[2048,4]{0,1:T(4,128)} add(%div.889.clone.1, %mul.2011.clone.1), metadata={op_name="jit(train_step)/add" stack_frame_id=0}
  %mul.2010.clone.1 = f32[2048,4]{0,1:T(4,128)} multiply(%mul.2012.clone.1, %add.959.clone.1), metadata={op_name="jit(train_step)/mul" stack_frame_id=0}
  %add.958.clone.1 = f32[2048,4]{0,1:T(4,128)S(1)} add(%param_0.1530, %mul.2010.clone.1), metadata={op_name="jit(train_step)/add" stack_frame_id=0}
  %square.250 = f32[2048,4]{0,1:T(4,128)} multiply(%add.958.clone.1, %add.958.clone.1), metadata={op_name="jit(train_step)/square" stack_frame_id=0}
  %constant.1474 = f32[]{:T(128)} constant(0)
  %reduce.227 = f32[]{:T(128)} reduce(%square.250, %constant.1474), dimensions={0,1}, to_apply=%region_61.66, metadata={op_name="jit(train_step)/reduce_sum" stack_frame_id=0}
  %reduce.229.clone.1 = f32[]{:T(128)} reduce(%integer_pow.67.clone.1, %constant.1474), dimensions={0,1}, to_apply=%region_46.51, metadata={op_name="jit(train_step)/reduce_sum" stack_frame_id=0}
  ROOT %tuple.158 = (f32[]{:T(128)}, f32[2048,4]{0,1:T(4,128)S(1)}, f32[2048,4]{0,1:T(4,128)S(1)}, f32[2048,4]{0,1:T(4,128)S(1)}, f32[]{:T(128)}) tuple(%reduce.227, %add.958.clone.1, %add.961.clone.1, %add.962.clone.1, %reduce.229.clone.1)
}

%region_60.65 (reduce_sum.422: f32[], reduce_sum.423: f32[]) -> f32[] {
  %reduce_sum.422 = f32[]{:T(128)} parameter(0), metadata={op_name="jit(train_step)/reduce_sum"}
  %reduce_sum.423 = f32[]{:T(128)} parameter(1), metadata={op_name="jit(train_step)/reduce_sum"}
  ROOT %reduce_sum.424 = f32[]{:T(128)} add(%reduce_sum.422, %reduce_sum.423), metadata={op_name="jit(train_step)/reduce_sum" stack_frame_id=0}, backend_config={"flag_configs":[],"scoped_memory_configs":[],"used_scoped_memory_configs":[],"aliasing_operands":{"lists":[]}}
}

%region_45.50 (reduce_sum.344: f32[], reduce_sum.345: f32[]) -> f32[] {
  %reduce_sum.344 = f32[]{:T(128)} parameter(0), metadata={op_name="jit(train_step)/reduce_sum"}
  %reduce_sum.345 = f32[]{:T(128)} parameter(1), metadata={op_name="jit(train_step)/reduce_sum"}
  ROOT %reduce_sum.346 = f32[]{:T(128)} add(%reduce_sum.344, %reduce_sum.345), metadata={op_name="jit(train_step)/reduce_sum" stack_frame_id=0}, backend_config={"flag_configs":[],"scoped_memory_configs":[],"used_scoped_memory_configs":[],"aliasing_operands":{"lists":[]}}
}

%fused_computation.431 (param_0.1531: f32[2048,4], param_1.1712: f32[], param_2.1318: f32[], param_3.880: f32[], param_4.518: f32[2048,4], param_5.462: f32[], param_6.324: f32[4,2048], param_7.198: pred[], param_8.120: f32[2048,4]) -> (f32[], f32[2048,4], f32[2048,4], f32[2048,4], f32[]) {
  %param_0.1531 = f32[2048,4]{0,1:T(4,128)S(1)} parameter(0)
  %param_3.880 = f32[]{:T(128)S(6)} parameter(3)
  %mul.2019.clone.1 = f32[2048,4]{0,1:T(4,128)} broadcast(%param_3.880), dimensions={}, metadata={op_name="jit(train_step)/mul" stack_frame_id=0}
  %param_7.198 = pred[]{:T(512)S(6)} parameter(7)
  %select_n.280.clone.1 = pred[2048,4]{0,1:T(4,128)(4,1)} broadcast(%param_7.198), dimensions={}, metadata={op_name="jit(train_step)/select_n" stack_frame_id=0}
  %param_6.324 = f32[4,2048]{1,0:T(4,128)S(1)} parameter(6)
  %bitcast.691.clone.1 = f32[2048,4]{0,1:T(4,128)} bitcast(%param_6.324), metadata={op_name="jit(train_step)/transpose(jvp())/transpose" stack_frame_id=0}
  %param_5.462 = f32[]{:T(128)} parameter(5)
  %div.904.clone.1 = f32[2048,4]{0,1:T(4,128)} broadcast(%param_5.462), dimensions={}, metadata={op_name="jit(train_step)/div" stack_frame_id=0}
  %div.903.clone.1 = f32[2048,4]{0,1:T(4,128)} divide(%bitcast.691.clone.1, %div.904.clone.1), metadata={op_name="jit(train_step)/div" stack_frame_id=0}
  %select_n.279.clone.1 = f32[2048,4]{0,1:T(4,128)} select(%select_n.280.clone.1, %bitcast.691.clone.1, %div.903.clone.1), metadata={op_name="jit(train_step)/select_n" stack_frame_id=0}
  %constant.1394.clone.1 = f32[]{:T(128)} constant(0.1)
  %broadcast.1009.clone.1 = f32[2048,4]{0,1:T(4,128)} broadcast(%constant.1394.clone.1), dimensions={}, metadata={op_name="broadcast.84"}
  %mul.2023.clone.1 = f32[2048,4]{0,1:T(4,128)} multiply(%select_n.279.clone.1, %broadcast.1009.clone.1), metadata={op_name="jit(train_step)/mul" stack_frame_id=0}
  %param_8.120 = f32[2048,4]{0,1:T(4,128)S(1)} parameter(8)
  %constant.1398.clone.1 = f32[]{:T(128)} constant(0.9)
  %broadcast.1008.clone.1 = f32[2048,4]{0,1:T(4,128)} broadcast(%constant.1398.clone.1), dimensions={}, metadata={op_name="broadcast.83"}
  %mul.2022.clone.1 = f32[2048,4]{0,1:T(4,128)} multiply(%param_8.120, %broadcast.1008.clone.1), metadata={op_name="jit(train_step)/mul" stack_frame_id=0}
  %add.967.clone.1 = f32[2048,4]{0,1:T(4,128)S(1)} add(%mul.2023.clone.1, %mul.2022.clone.1), metadata={op_name="jit(train_step)/add" stack_frame_id=0}
  %param_2.1318 = f32[]{:T(128)S(6)} parameter(2)
  %div.900.clone.1 = f32[2048,4]{0,1:T(4,128)} broadcast(%param_2.1318), dimensions={}, metadata={op_name="jit(train_step)/div" stack_frame_id=0}
  %integer_pow.68.clone.1 = f32[2048,4]{0,1:T(4,128)} multiply(%select_n.279.clone.1, %select_n.279.clone.1), metadata={op_name="jit(train_step)/integer_pow" stack_frame_id=0}
  %constant.1397.clone.1 = f32[]{:T(128)} constant(0.05)
  %broadcast.1007.clone.1 = f32[2048,4]{0,1:T(4,128)} broadcast(%constant.1397.clone.1), dimensions={}, metadata={op_name="broadcast.73"}
  %mul.2021.clone.1 = f32[2048,4]{0,1:T(4,128)} multiply(%integer_pow.68.clone.1, %broadcast.1007.clone.1), metadata={op_name="jit(train_step)/mul" stack_frame_id=0}
  %param_4.518 = f32[2048,4]{0,1:T(4,128)S(1)} parameter(4)
  %constant.1396.clone.1 = f32[]{:T(128)} constant(0.95)
  %broadcast.1006.clone.1 = f32[2048,4]{0,1:T(4,128)} broadcast(%constant.1396.clone.1), dimensions={}, metadata={op_name="broadcast.72"}
  %mul.2020.clone.1 = f32[2048,4]{0,1:T(4,128)} multiply(%param_4.518, %broadcast.1006.clone.1), metadata={op_name="jit(train_step)/mul" stack_frame_id=0}
  %add.966.clone.1 = f32[2048,4]{0,1:T(4,128)S(1)} add(%mul.2021.clone.1, %mul.2020.clone.1), metadata={op_name="jit(train_step)/add" stack_frame_id=0}
  %param_1.1712 = f32[]{:T(128)S(6)} parameter(1)
  %div.899.clone.1 = f32[2048,4]{0,1:T(4,128)} broadcast(%param_1.1712), dimensions={}, metadata={op_name="jit(train_step)/div" stack_frame_id=0}
  %div.898.clone.1 = f32[2048,4]{0,1:T(4,128)} divide(%add.966.clone.1, %div.899.clone.1), metadata={op_name="jit(train_step)/div" stack_frame_id=0}
  %sqrt.65.clone.1 = f32[2048,4]{0,1:T(4,128)} sqrt(%div.898.clone.1), metadata={op_name="jit(train_step)/sqrt" stack_frame_id=0}
  %constant.1395.clone.1 = f32[]{:T(128)} constant(1e-08)
  %broadcast.1004.clone.1 = f32[2048,4]{0,1:T(4,128)} broadcast(%constant.1395.clone.1), dimensions={}, metadata={op_name="broadcast.66"}
  %add.965.clone.1 = f32[2048,4]{0,1:T(4,128)} add(%sqrt.65.clone.1, %broadcast.1004.clone.1), metadata={op_name="jit(train_step)/add" stack_frame_id=0}
  %multiply.451.clone.1 = f32[2048,4]{0,1:T(4,128)} multiply(%div.900.clone.1, %add.965.clone.1), metadata={op_name="multiply.52"}
  %div.897.clone.1 = f32[2048,4]{0,1:T(4,128)} divide(%add.967.clone.1, %multiply.451.clone.1), metadata={op_name="jit(train_step)/div" stack_frame_id=0}
  %mul.2018.clone.1 = f32[2048,4]{0,1:T(4,128)} multiply(%param_0.1531, %broadcast.1009.clone.1), metadata={op_name="jit(train_step)/mul" stack_frame_id=0}
  %add.964.clone.1 = f32[2048,4]{0,1:T(4,128)} add(%div.897.clone.1, %mul.2018.clone.1), metadata={op_name="jit(train_step)/add" stack_frame_id=0}
  %mul.2017.clone.1 = f32[2048,4]{0,1:T(4,128)} multiply(%mul.2019.clone.1, %add.964.clone.1), metadata={op_name="jit(train_step)/mul" stack_frame_id=0}
  %add.963.clone.1 = f32[2048,4]{0,1:T(4,128)S(1)} add(%param_0.1531, %mul.2017.clone.1), metadata={op_name="jit(train_step)/add" stack_frame_id=0}
  %square.251 = f32[2048,4]{0,1:T(4,128)} multiply(%add.963.clone.1, %add.963.clone.1), metadata={op_name="jit(train_step)/square" stack_frame_id=0}
  %constant.1475 = f32[]{:T(128)} constant(0)
  %reduce.228 = f32[]{:T(128)} reduce(%square.251, %constant.1475), dimensions={0,1}, to_apply=%region_60.65, metadata={op_name="jit(train_step)/reduce_sum" stack_frame_id=0}
  %reduce.230.clone.1 = f32[]{:T(128)} reduce(%integer_pow.68.clone.1, %constant.1475), dimensions={0,1}, to_apply=%region_45.50, metadata={op_name="jit(train_step)/reduce_sum" stack_frame_id=0}
  ROOT %tuple.159 = (f32[]{:T(128)}, f32[2048,4]{0,1:T(4,128)S(1)}, f32[2048,4]{0,1:T(4,128)S(1)}, f32[2048,4]{0,1:T(4,128)S(1)}, f32[]{:T(128)}) tuple(%reduce.228, %add.963.clone.1, %add.966.clone.1, %add.967.clone.1, %reduce.230.clone.1)
}

%region_11.14 (reduce_sum.192: f32[], reduce_sum.193: f32[]) -> f32[] {
  %reduce_sum.192 = f32[]{:T(128)} parameter(0), metadata={op_name="jit(train_step)/reduce_sum"}
  %reduce_sum.193 = f32[]{:T(128)} parameter(1), metadata={op_name="jit(train_step)/reduce_sum"}
  ROOT %reduce_sum.197 = f32[]{:T(128)} add(%reduce_sum.192, %reduce_sum.193), metadata={op_name="jit(train_step)/reduce_sum" stack_frame_id=0}, backend_config={"flag_configs":[],"scoped_memory_configs":[],"used_scoped_memory_configs":[],"aliasing_operands":{"lists":[]}}
}

%fused_computation.442 (param_0.1545: bf16[2048]) -> f32[] {
  %param_0.1545 = bf16[2048]{0:T(1024)(128)(2,1)S(1)} parameter(0)
  %convert_element_type.1314 = f32[2048]{0:T(1024)} convert(%param_0.1545), metadata={op_name="jit(train_step)/transpose(jvp())/convert_element_type" stack_frame_id=0}
  %square.254 = f32[2048]{0:T(1024)} multiply(%convert_element_type.1314, %convert_element_type.1314), metadata={op_name="jit(train_step)/square" stack_frame_id=0}
  %constant.1489 = f32[]{:T(128)} constant(0)
  ROOT %reduce.231 = f32[]{:T(128)} reduce(%square.254, %constant.1489), dimensions={0}, to_apply=%region_11.14, metadata={op_name="jit(train_step)/reduce_sum" stack_frame_id=0}
}

%region_56.61 (reduce_sum.401: f32[], reduce_sum.402: f32[]) -> f32[] {
  %reduce_sum.401 = f32[]{:T(128)} parameter(0), metadata={op_name="jit(train_step)/reduce_sum"}
  %reduce_sum.402 = f32[]{:T(128)} parameter(1), metadata={op_name="jit(train_step)/reduce_sum"}
  ROOT %reduce_sum.403 = f32[]{:T(128)} add(%reduce_sum.401, %reduce_sum.402), metadata={op_name="jit(train_step)/reduce_sum" stack_frame_id=0}, backend_config={"flag_configs":[],"scoped_memory_configs":[],"used_scoped_memory_configs":[],"aliasing_operands":{"lists":[]}}
}

%region_41.46 (reduce_sum.323: f32[], reduce_sum.324: f32[]) -> f32[] {
  %reduce_sum.323 = f32[]{:T(128)} parameter(0), metadata={op_name="jit(train_step)/reduce_sum"}
  %reduce_sum.324 = f32[]{:T(128)} parameter(1), metadata={op_name="jit(train_step)/reduce_sum"}
  ROOT %reduce_sum.325 = f32[]{:T(128)} add(%reduce_sum.323, %reduce_sum.324), metadata={op_name="jit(train_step)/reduce_sum" stack_frame_id=0}, backend_config={"flag_configs":[],"scoped_memory_configs":[],"used_scoped_memory_configs":[],"aliasing_operands":{"lists":[]}}
}

%fused_computation.443 (param_0.1535: f32[2048], param_1.1716: f32[], param_2.1322: f32[], param_3.884: f32[], param_4.522: f32[2048], param_5.466: f32[], param_6.328: bf16[2048], param_7.202: pred[], param_8.124: f32[2048]) -> (f32[], f32[2048], f32[2048], f32[2048], f32[]) {
  %param_0.1535 = f32[2048]{0:T(1024)S(1)} parameter(0)
  %param_3.884 = f32[]{:T(128)S(6)} parameter(3)
  %mul.2026.clone.1 = f32[2048]{0:T(1024)} broadcast(%param_3.884), dimensions={}, metadata={op_name="jit(train_step)/mul" stack_frame_id=0}
  %param_7.202 = pred[]{:T(512)S(6)} parameter(7)
  %select_n.284.clone.1 = pred[2048]{0:T(1024)(128)(4,1)} broadcast(%param_7.202), dimensions={}, metadata={op_name="jit(train_step)/select_n" stack_frame_id=0}
  %param_6.328 = bf16[2048]{0:T(1024)(128)(2,1)S(1)} parameter(6)
  %convert_element_type.1334.clone.1 = f32[2048]{0:T(1024)} convert(%param_6.328), metadata={op_name="jit(train_step)/transpose(jvp())/convert_element_type" stack_frame_id=0}
  %param_5.466 = f32[]{:T(128)} parameter(5)
  %div.912.clone.1 = f32[2048]{0:T(1024)} broadcast(%param_5.466), dimensions={}, metadata={op_name="jit(train_step)/div" stack_frame_id=0}
  %div.911.clone.1 = f32[2048]{0:T(1024)} divide(%convert_element_type.1334.clone.1, %div.912.clone.1), metadata={op_name="jit(train_step)/div" stack_frame_id=0}
  %select_n.283.clone.1 = f32[2048]{0:T(1024)} select(%select_n.284.clone.1, %convert_element_type.1334.clone.1, %div.911.clone.1), metadata={op_name="jit(train_step)/select_n" stack_frame_id=0}
  %constant.1400.clone.1 = f32[]{:T(128)} constant(0.1)
  %broadcast.1011.clone.1 = f32[2048]{0:T(1024)} broadcast(%constant.1400.clone.1), dimensions={}, metadata={op_name="broadcast.88"}
  %mul.2032.clone.1 = f32[2048]{0:T(1024)} multiply(%select_n.283.clone.1, %broadcast.1011.clone.1), metadata={op_name="jit(train_step)/mul" stack_frame_id=0}
  %param_8.124 = f32[2048]{0:T(1024)S(1)} parameter(8)
  %constant.1404.clone.1 = f32[]{:T(128)} constant(0.9)
  %mul.2033.clone.1 = f32[2048]{0:T(1024)} broadcast(%constant.1404.clone.1), dimensions={}, metadata={op_name="jit(train_step)/mul" stack_frame_id=0}
  %mul.2031.clone.1 = f32[2048]{0:T(1024)} multiply(%param_8.124, %mul.2033.clone.1), metadata={op_name="jit(train_step)/mul" stack_frame_id=0}
  %add.973.clone.1 = f32[2048]{0:T(1024)S(1)} add(%mul.2032.clone.1, %mul.2031.clone.1), metadata={op_name="jit(train_step)/add" stack_frame_id=0}
  %param_2.1322 = f32[]{:T(128)S(6)} parameter(2)
  %div.908.clone.1 = f32[2048]{0:T(1024)} broadcast(%param_2.1322), dimensions={}, metadata={op_name="jit(train_step)/div" stack_frame_id=0}
  %integer_pow.69.clone.1 = f32[2048]{0:T(1024)} multiply(%select_n.283.clone.1, %select_n.283.clone.1), metadata={op_name="jit(train_step)/integer_pow" stack_frame_id=0}
  %constant.1403.clone.1 = f32[]{:T(128)} constant(0.05)
  %mul.2030.clone.1 = f32[2048]{0:T(1024)} broadcast(%constant.1403.clone.1), dimensions={}, metadata={op_name="jit(train_step)/mul" stack_frame_id=0}
  %mul.2028.clone.1 = f32[2048]{0:T(1024)} multiply(%integer_pow.69.clone.1, %mul.2030.clone.1), metadata={op_name="jit(train_step)/mul" stack_frame_id=0}
  %param_4.522 = f32[2048]{0:T(1024)S(1)} parameter(4)
  %constant.1402.clone.1 = f32[]{:T(128)} constant(0.95)
  %mul.2029.clone.1 = f32[2048]{0:T(1024)} broadcast(%constant.1402.clone.1), dimensions={}, metadata={op_name="jit(train_step)/mul" stack_frame_id=0}
  %mul.2027.clone.1 = f32[2048]{0:T(1024)} multiply(%param_4.522, %mul.2029.clone.1), metadata={op_name="jit(train_step)/mul" stack_frame_id=0}
  %add.972.clone.1 = f32[2048]{0:T(1024)S(1)} add(%mul.2028.clone.1, %mul.2027.clone.1), metadata={op_name="jit(train_step)/add" stack_frame_id=0}
  %param_1.1716 = f32[]{:T(128)S(6)} parameter(1)
  %div.907.clone.1 = f32[2048]{0:T(1024)} broadcast(%param_1.1716), dimensions={}, metadata={op_name="jit(train_step)/div" stack_frame_id=0}
  %div.906.clone.1 = f32[2048]{0:T(1024)} divide(%add.972.clone.1, %div.907.clone.1), metadata={op_name="jit(train_step)/div" stack_frame_id=0}
  %sqrt.66.clone.1 = f32[2048]{0:T(1024)} sqrt(%div.906.clone.1), metadata={op_name="jit(train_step)/sqrt" stack_frame_id=0}
  %constant.1401.clone.1 = f32[]{:T(128)} constant(1e-08)
  %add.971.clone.1 = f32[2048]{0:T(1024)} broadcast(%constant.1401.clone.1), dimensions={}, metadata={op_name="jit(train_step)/add" stack_frame_id=0}
  %add.970.clone.1 = f32[2048]{0:T(1024)} add(%sqrt.66.clone.1, %add.971.clone.1), metadata={op_name="jit(train_step)/add" stack_frame_id=0}
  %multiply.452.clone.1 = f32[2048]{0:T(1024)} multiply(%div.908.clone.1, %add.970.clone.1), metadata={op_name="multiply.48"}
  %div.905.clone.1 = f32[2048]{0:T(1024)} divide(%add.973.clone.1, %multiply.452.clone.1), metadata={op_name="jit(train_step)/div" stack_frame_id=0}
  %mul.2025.clone.1 = f32[2048]{0:T(1024)} multiply(%param_0.1535, %broadcast.1011.clone.1), metadata={op_name="jit(train_step)/mul" stack_frame_id=0}
  %add.969.clone.1 = f32[2048]{0:T(1024)} add(%div.905.clone.1, %mul.2025.clone.1), metadata={op_name="jit(train_step)/add" stack_frame_id=0}
  %mul.2024.clone.1 = f32[2048]{0:T(1024)} multiply(%mul.2026.clone.1, %add.969.clone.1), metadata={op_name="jit(train_step)/mul" stack_frame_id=0}
  %add.968.clone.1 = f32[2048]{0:T(1024)S(1)} add(%param_0.1535, %mul.2024.clone.1), metadata={op_name="jit(train_step)/add" stack_frame_id=0}
  %square.255 = f32[2048]{0:T(1024)} multiply(%add.968.clone.1, %add.968.clone.1), metadata={op_name="jit(train_step)/square" stack_frame_id=0}
  %constant.1479 = f32[]{:T(128)} constant(0)
  %reduce.232 = f32[]{:T(128)} reduce(%square.255, %constant.1479), dimensions={0}, to_apply=%region_56.61, metadata={op_name="jit(train_step)/reduce_sum" stack_frame_id=0}
  %reduce.233.clone.1 = f32[]{:T(128)} reduce(%integer_pow.69.clone.1, %constant.1479), dimensions={0}, to_apply=%region_41.46, metadata={op_name="jit(train_step)/reduce_sum" stack_frame_id=0}
  ROOT %tuple.162 = (f32[]{:T(128)}, f32[2048]{0:T(1024)S(1)}, f32[2048]{0:T(1024)S(1)}, f32[2048]{0:T(1024)S(1)}, f32[]{:T(128)}) tuple(%reduce.232, %add.968.clone.1, %add.972.clone.1, %add.973.clone.1, %reduce.233.clone.1)
}

%fused_computation.448 (param_0.1269: s32[512]) -> s32[1024] {
  %constant.1240 = s32[] constant(0), metadata={op_name="jit(train_step)/jvp()/gather" stack_frame_id=0}
  %broadcast.952 = s32[1024]{0:T(1024)} broadcast(%constant.1240), dimensions={}, metadata={op_name="jit(train_step)/jvp()/gather" stack_frame_id=0}
  %param_0.1269 = s32[512]{0:T(512)S(1)} parameter(0)
  %constant.1241 = s32[] constant(2147483647), metadata={op_name="jit(train_step)/jvp()/gather" stack_frame_id=0}
  %pad.57 = s32[1024]{0:T(1024)} pad(%param_0.1269, %constant.1241), padding=0_512, metadata={op_name="jit(train_step)/jvp()/gather" stack_frame_id=0}
  %constant.1239 = s32[] constant(151935), metadata={op_name="jit(train_step)/jvp()/gather" stack_frame_id=0}
  %broadcast.951 = s32[1024]{0:T(1024)} broadcast(%constant.1239), dimensions={}, metadata={op_name="jit(train_step)/jvp()/gather" stack_frame_id=0}
  ROOT %clamp.3 = s32[1024]{0:T(1024)S(1)} clamp(%broadcast.952, %pad.57, %broadcast.951), metadata={op_name="jit(train_step)/jvp()/gather" stack_frame_id=0}
}

%region_37.42 (reduce_sum.305: f32[], reduce_sum.309: f32[]) -> f32[] {
  %reduce_sum.305 = f32[]{:T(128)} parameter(0), metadata={op_name="jit(train_step)/reduce_sum"}
  %reduce_sum.309 = f32[]{:T(128)} parameter(1), metadata={op_name="jit(train_step)/reduce_sum"}
  ROOT %reduce_sum.310 = f32[]{:T(128)} add(%reduce_sum.305, %reduce_sum.309), metadata={op_name="jit(train_step)/reduce_sum" stack_frame_id=0}, backend_config={"flag_configs":[],"scoped_memory_configs":[],"used_scoped_memory_configs":[],"aliasing_operands":{"lists":[]}}
}

%region_34.39 (reduce_sum.290: f32[], reduce_sum.291: f32[]) -> f32[] {
  %reduce_sum.290 = f32[]{:T(128)} parameter(0), metadata={op_name="jit(train_step)/reduce_sum"}
  %reduce_sum.291 = f32[]{:T(128)} parameter(1), metadata={op_name="jit(train_step)/reduce_sum"}
  ROOT %reduce_sum.295 = f32[]{:T(128)} add(%reduce_sum.290, %reduce_sum.291), metadata={op_name="jit(train_step)/reduce_sum" stack_frame_id=0}, backend_config={"flag_configs":[],"scoped_memory_configs":[],"used_scoped_memory_configs":[],"aliasing_operands":{"lists":[]}}
}

%fused_computation.453 (param_0.1536: bf16[4,128], param_1.1717: bf16[4,128]) -> (f32[], f32[]) {
  %param_0.1536 = bf16[4,128]{1,0:T(4,128)(2,1)S(1)} parameter(0)
  %convert.107 = f32[4,128]{1,0:T(4,128)} convert(%param_0.1536), metadata={op_name="jit(train_step)/transpose(jvp())/while" stack_frame_id=0}
  %bitcast.609 = f32[128,4]{0,1:T(4,128)} bitcast(%convert.107), metadata={op_name="jit(train_step)/transpose(jvp())/transpose" stack_frame_id=0}
  %square.258 = f32[128,4]{0,1:T(4,128)} multiply(%bitcast.609, %bitcast.609), metadata={op_name="jit(train_step)/square" stack_frame_id=0}
  %constant.1480 = f32[]{:T(128)} constant(0)
  %reduce.234 = f32[]{:T(128)} reduce(%square.258, %constant.1480), dimensions={0,1}, to_apply=%region_37.42, metadata={op_name="jit(train_step)/reduce_sum" stack_frame_id=0}
  %param_1.1717 = bf16[4,128]{1,0:T(4,128)(2,1)S(1)} parameter(1)
  %convert.111.clone.1 = f32[4,128]{1,0:T(4,128)} convert(%param_1.1717), metadata={op_name="jit(train_step)/transpose(jvp())/while" stack_frame_id=0}
  %bitcast.613.clone.1 = f32[128,4]{0,1:T(4,128)} bitcast(%convert.111.clone.1), metadata={op_name="jit(train_step)/transpose(jvp())/transpose" stack_frame_id=0}
  %square.261.clone.1 = f32[128,4]{0,1:T(4,128)} multiply(%bitcast.613.clone.1, %bitcast.613.clone.1), metadata={op_name="jit(train_step)/square" stack_frame_id=0}
  %reduce.235.clone.1 = f32[]{:T(128)} reduce(%square.261.clone.1, %constant.1480), dimensions={0,1}, to_apply=%region_34.39, metadata={op_name="jit(train_step)/reduce_sum" stack_frame_id=0}
  ROOT %tuple.175 = (f32[]{:T(128)}, f32[]{:T(128)}) tuple(%reduce.234, %reduce.235.clone.1)
}

%region_66.71 (reduce_sum.452: f32[], reduce_sum.456: f32[]) -> f32[] {
  %reduce_sum.452 = f32[]{:T(128)} parameter(0), metadata={op_name="jit(train_step)/reduce_sum"}
  %reduce_sum.456 = f32[]{:T(128)} parameter(1), metadata={op_name="jit(train_step)/reduce_sum"}
  ROOT %reduce_sum.457 = f32[]{:T(128)} add(%reduce_sum.452, %reduce_sum.456), metadata={op_name="jit(train_step)/reduce_sum" stack_frame_id=0}, backend_config={"flag_configs":[],"scoped_memory_configs":[],"used_scoped_memory_configs":[],"aliasing_operands":{"lists":[]}}
}

%region_51.56 (reduce_sum.374: f32[], reduce_sum.375: f32[]) -> f32[] {
  %reduce_sum.374 = f32[]{:T(128)} parameter(0), metadata={op_name="jit(train_step)/reduce_sum"}
  %reduce_sum.375 = f32[]{:T(128)} parameter(1), metadata={op_name="jit(train_step)/reduce_sum"}
  ROOT %reduce_sum.379 = f32[]{:T(128)} add(%reduce_sum.374, %reduce_sum.375), metadata={op_name="jit(train_step)/reduce_sum" stack_frame_id=0}, backend_config={"flag_configs":[],"scoped_memory_configs":[],"used_scoped_memory_configs":[],"aliasing_operands":{"lists":[]}}
}

%fused_computation.456 (param_0.1525: f32[128,4], param_1.1706: f32[], param_2.1312: f32[], param_3.874: f32[], param_4.512: f32[128,4], param_5.456: f32[], param_6.318: bf16[4,128], param_7.192: pred[], param_8.114: f32[128,4]) -> (f32[], f32[128,4], f32[128,4], f32[128,4], f32[]) {
  %param_0.1525 = f32[128,4]{0,1:T(4,128)S(1)} parameter(0)
  %param_3.874 = f32[]{:T(128)S(6)} parameter(3)
  %mul.1998.clone.1 = f32[128,4]{0,1:T(4,128)} broadcast(%param_3.874), dimensions={}, metadata={op_name="jit(train_step)/mul" stack_frame_id=0}
  %param_7.192 = pred[]{:T(512)S(6)} parameter(7)
  %select_n.268.clone.1 = pred[128,4]{0,1:T(4,128)(4,1)} broadcast(%param_7.192), dimensions={}, metadata={op_name="jit(train_step)/select_n" stack_frame_id=0}
  %param_6.318 = bf16[4,128]{1,0:T(4,128)(2,1)S(1)} parameter(6)
  %convert.169.clone.1 = f32[4,128]{1,0:T(4,128)} convert(%param_6.318), metadata={op_name="jit(train_step)/transpose(jvp())/while" stack_frame_id=0}
  %bitcast.685.clone.1 = f32[128,4]{0,1:T(4,128)} bitcast(%convert.169.clone.1), metadata={op_name="jit(train_step)/transpose(jvp())/transpose" stack_frame_id=0}
  %param_5.456 = f32[]{:T(128)} parameter(5)
  %div.880.clone.1 = f32[128,4]{0,1:T(4,128)} broadcast(%param_5.456), dimensions={}, metadata={op_name="jit(train_step)/div" stack_frame_id=0}
  %div.879.clone.1 = f32[128,4]{0,1:T(4,128)} divide(%bitcast.685.clone.1, %div.880.clone.1), metadata={op_name="jit(train_step)/div" stack_frame_id=0}
  %select_n.267.clone.1 = f32[128,4]{0,1:T(4,128)} select(%select_n.268.clone.1, %bitcast.685.clone.1, %div.879.clone.1), metadata={op_name="jit(train_step)/select_n" stack_frame_id=0}
  %constant.1376.clone.1 = f32[]{:T(128)} constant(0.1)
  %broadcast.991.clone.1 = f32[128,4]{0,1:T(4,128)} broadcast(%constant.1376.clone.1), dimensions={}, metadata={op_name="broadcast.80"}
  %mul.2002.clone.1 = f32[128,4]{0,1:T(4,128)} multiply(%select_n.267.clone.1, %broadcast.991.clone.1), metadata={op_name="jit(train_step)/mul" stack_frame_id=0}
  %param_8.114 = f32[128,4]{0,1:T(4,128)S(1)} parameter(8)
  %constant.1380.clone.1 = f32[]{:T(128)} constant(0.9)
  %broadcast.990.clone.1 = f32[128,4]{0,1:T(4,128)} broadcast(%constant.1380.clone.1), dimensions={}, metadata={op_name="broadcast.79"}
  %mul.2001.clone.1 = f32[128,4]{0,1:T(4,128)} multiply(%param_8.114, %broadcast.990.clone.1), metadata={op_name="jit(train_step)/mul" stack_frame_id=0}
  %add.952.clone.1 = f32[128,4]{0,1:T(4,128)S(1)} add(%mul.2002.clone.1, %mul.2001.clone.1), metadata={op_name="jit(train_step)/add" stack_frame_id=0}
  %param_2.1312 = f32[]{:T(128)S(6)} parameter(2)
  %div.876.clone.1 = f32[128,4]{0,1:T(4,128)} broadcast(%param_2.1312), dimensions={}, metadata={op_name="jit(train_step)/div" stack_frame_id=0}
  %integer_pow.65.clone.1 = f32[128,4]{0,1:T(4,128)} multiply(%select_n.267.clone.1, %select_n.267.clone.1), metadata={op_name="jit(train_step)/integer_pow" stack_frame_id=0}
  %constant.1379.clone.1 = f32[]{:T(128)} constant(0.05)
  %broadcast.989.clone.1 = f32[128,4]{0,1:T(4,128)} broadcast(%constant.1379.clone.1), dimensions={}, metadata={op_name="broadcast.69"}
  %mul.2000.clone.1 = f32[128,4]{0,1:T(4,128)} multiply(%integer_pow.65.clone.1, %broadcast.989.clone.1), metadata={op_name="jit(train_step)/mul" stack_frame_id=0}
  %param_4.512 = f32[128,4]{0,1:T(4,128)S(1)} parameter(4)
  %constant.1378.clone.1 = f32[]{:T(128)} constant(0.95)
  %broadcast.988.clone.1 = f32[128,4]{0,1:T(4,128)} broadcast(%constant.1378.clone.1), dimensions={}, metadata={op_name="broadcast.68"}
  %mul.1999.clone.1 = f32[128,4]{0,1:T(4,128)} multiply(%param_4.512, %broadcast.988.clone.1), metadata={op_name="jit(train_step)/mul" stack_frame_id=0}
  %add.951.clone.1 = f32[128,4]{0,1:T(4,128)S(1)} add(%mul.2000.clone.1, %mul.1999.clone.1), metadata={op_name="jit(train_step)/add" stack_frame_id=0}
  %param_1.1706 = f32[]{:T(128)S(6)} parameter(1)
  %div.875.clone.1 = f32[128,4]{0,1:T(4,128)} broadcast(%param_1.1706), dimensions={}, metadata={op_name="jit(train_step)/div" stack_frame_id=0}
  %div.874.clone.1 = f32[128,4]{0,1:T(4,128)} divide(%add.951.clone.1, %div.875.clone.1), metadata={op_name="jit(train_step)/div" stack_frame_id=0}
  %sqrt.62.clone.1 = f32[128,4]{0,1:T(4,128)} sqrt(%div.874.clone.1), metadata={op_name="jit(train_step)/sqrt" stack_frame_id=0}
  %constant.1377.clone.1 = f32[]{:T(128)} constant(1e-08)
  %broadcast.986.clone.1 = f32[128,4]{0,1:T(4,128)} broadcast(%constant.1377.clone.1), dimensions={}, metadata={op_name="broadcast.64"}
  %add.950.clone.1 = f32[128,4]{0,1:T(4,128)} add(%sqrt.62.clone.1, %broadcast.986.clone.1), metadata={op_name="jit(train_step)/add" stack_frame_id=0}
  %multiply.448.clone.1 = f32[128,4]{0,1:T(4,128)} multiply(%div.876.clone.1, %add.950.clone.1), metadata={op_name="multiply.58"}
  %div.873.clone.1 = f32[128,4]{0,1:T(4,128)} divide(%add.952.clone.1, %multiply.448.clone.1), metadata={op_name="jit(train_step)/div" stack_frame_id=0}
  %mul.1997.clone.1 = f32[128,4]{0,1:T(4,128)} multiply(%param_0.1525, %broadcast.991.clone.1), metadata={op_name="jit(train_step)/mul" stack_frame_id=0}
  %add.949.clone.1 = f32[128,4]{0,1:T(4,128)} add(%div.873.clone.1, %mul.1997.clone.1), metadata={op_name="jit(train_step)/add" stack_frame_id=0}
  %mul.1996.clone.1 = f32[128,4]{0,1:T(4,128)} multiply(%mul.1998.clone.1, %add.949.clone.1), metadata={op_name="jit(train_step)/mul" stack_frame_id=0}
  %add.948.clone.1 = f32[128,4]{0,1:T(4,128)S(1)} add(%param_0.1525, %mul.1996.clone.1), metadata={op_name="jit(train_step)/add" stack_frame_id=0}
  %square.262 = f32[128,4]{0,1:T(4,128)} multiply(%add.948.clone.1, %add.948.clone.1), metadata={op_name="jit(train_step)/square" stack_frame_id=0}
  %constant.1469 = f32[]{:T(128)} constant(0)
  %reduce.236 = f32[]{:T(128)} reduce(%square.262, %constant.1469), dimensions={0,1}, to_apply=%region_66.71, metadata={op_name="jit(train_step)/reduce_sum" stack_frame_id=0}
  %reduce.238.clone.1 = f32[]{:T(128)} reduce(%integer_pow.65.clone.1, %constant.1469), dimensions={0,1}, to_apply=%region_51.56, metadata={op_name="jit(train_step)/reduce_sum" stack_frame_id=0}
  ROOT %tuple.165 = (f32[]{:T(128)}, f32[128,4]{0,1:T(4,128)S(1)}, f32[128,4]{0,1:T(4,128)S(1)}, f32[128,4]{0,1:T(4,128)S(1)}, f32[]{:T(128)}) tuple(%reduce.236, %add.948.clone.1, %add.951.clone.1, %add.952.clone.1, %reduce.238.clone.1)
}

%region_63.68 (reduce_sum.437: f32[], reduce_sum.438: f32[]) -> f32[] {
…
%fused_computation.305.clone.clone (param_0.1706: bf16[4,128], param_1.1826: s32[], param_2.1397: bf16[4,128]) -> (bf16[128], bf16[128]) {
  %param_0.1706 = bf16[4,128]{1,0:T(4,128)(2,1)} parameter(0)
  %param_1.1826 = s32[]{:T(128)S(6)} parameter(1)
  %constant.1630 = s32[]{:T(128)} constant(0)
  %dynamic_slice.290 = bf16[1,128]{1,0:T(2,128)(2,1)} dynamic-slice(%param_0.1706, %param_1.1826, %constant.1630), dynamic_slice_sizes={1,128}, metadata={op_name="jit(train_step)/transpose(jvp())/while/body/dynamic_slice" stack_frame_id=0}, backend_config={"flag_configs":[],"scoped_memory_configs":[],"indices_config":{"index_known_bits":[{"zeroes":"4294967292","ones":"0","bitwidth":"32"},{"zeroes":"4294967295","ones":"0","bitwidth":"32"}],"is_index_aligned":[]},"used_scoped_memory_configs":[]}
  %bitcast.909 = bf16[128]{0:T(256)(128)(2,1)S(1)} bitcast(%dynamic_slice.290), metadata={op_name="jit(train_step)/transpose(jvp())/while/body/closed_call/checkpoint/rematted_computation/convert_element_type" stack_frame_id=0}
  %param_2.1397 = bf16[4,128]{1,0:T(4,128)(2,1)} parameter(2)
  %dynamic_slice.284.clone.3 = bf16[1,128]{1,0:T(2,128)(2,1)} dynamic-slice(%param_2.1397, %param_1.1826, %constant.1630), dynamic_slice_sizes={1,128}, metadata={op_name="jit(train_step)/transpose(jvp())/while/body/dynamic_slice" stack_frame_id=0}, backend_config={"flag_configs":[],"scoped_memory_configs":[],"indices_config":{"index_known_bits":[{"zeroes":"4294967292","ones":"0","bitwidth":"32"},{"zeroes":"4294967295","ones":"0","bitwidth":"32"}],"is_index_aligned":[]},"used_scoped_memory_configs":[]}
  %bitcast.470.clone.3 = bf16[128]{0:T(256)(128)(2,1)S(1)} bitcast(%dynamic_slice.284.clone.3), metadata={op_name="jit(train_step)/transpose(jvp())/while/body/closed_call/checkpoint/rematted_computation/convert_element_type" stack_frame_id=0}
  ROOT %tuple.217 = (bf16[128]{0:T(256)(128)(2,1)S(1)}, bf16[128]{0:T(256)(128)(2,1)S(1)}) tuple(%bitcast.909, %bitcast.470.clone.3)
}

%fused_computation.237.clone.1.clone (param_0.1723: f32[128,16], param_1.1836: bf16[128,16,128], param_2.1404: bf16[128]) -> bf16[1,128,16,128] {
  %param_2.1404 = bf16[128]{0:T(256)(128)(2,1)S(1)} parameter(2)
  %dot_general.595 = bf16[1,128,16,128]{3,1,2,0:T(8,128)(2,1)} broadcast(%param_2.1404), dimensions={3}, metadata={op_name="jit(train_step)/transpose(jvp())/while/body/closed_call/checkpoint/rematted_computation/...k,k->...k/dot_general" stack_frame_id=0}
  %param_1.1836 = bf16[128,16,128]{2,0,1:T(8,128)(2,1)S(1)} parameter(1)
  %convert_element_type.1472 = f32[128,16,128]{2,0,1:T(8,128)} convert(%param_1.1836), metadata={op_name="jit(train_step)/transpose(jvp())/while/body/closed_call/checkpoint/rematted_computation/convert_element_type" stack_frame_id=0}
  %bitcast.924 = f32[1,128,16,128]{3,1,2,0:T(8,128)} bitcast(%convert_element_type.1472), metadata={op_name="jit(train_step)/transpose(jvp())/while/body/closed_call/checkpoint/rematted_computation/convert_element_type" stack_frame_id=0}
  %param_0.1723 = f32[128,16]{0,1:T(8,128)S(1)} parameter(0)
  %mul.2312 = f32[1,128,16,128]{3,1,2,0:T(8,128)} broadcast(%param_0.1723), dimensions={1,2}, metadata={op_name="jit(train_step)/transpose(jvp())/while/body/closed_call/checkpoint/rematted_computation/mul" stack_frame_id=0}
  %mul.2311 = f32[1,128,16,128]{3,1,2,0:T(8,128)} multiply(%bitcast.924, %mul.2312), metadata={op_name="jit(train_step)/transpose(jvp())/while/body/closed_call/checkpoint/rematted_computation/mul" stack_frame_id=0}
  %convert_element_type.1471 = bf16[1,128,16,128]{3,1,2,0:T(8,128)(2,1)} convert(%mul.2311), metadata={op_name="jit(train_step)/transpose(jvp())/while/body/closed_call/checkpoint/rematted_computation/convert_element_type" stack_frame_id=0}
  ROOT %dot_general.594 = bf16[1,128,16,128]{3,1,2,0:T(8,128)(2,1)S(1)} multiply(%dot_general.595, %convert_element_type.1471), metadata={op_name="jit(train_step)/transpose(jvp())/while/body/closed_call/checkpoint/rematted_computation/...k,k->...k/dot_general" stack_frame_id=0}
}

%fused_computation.198.clone.clone (param_0.1724: bf16[1,128,16,128]) -> (bf16[1,128,16,64], bf16[1,128,16,64]) {
  %param_0.1724 = bf16[1,128,16,128]{3,1,2,0:T(8,128)(2,1)S(1)} parameter(0)
  %slice.75 = bf16[1,128,16,64]{3,1,2,0:T(8,128)(2,1)} slice(%param_0.1724), slice={[0:1], [0:128], [0:16], [64:128]}, metadata={op_name="jit(train_step)/transpose(jvp())/while/body/closed_call/checkpoint/rematted_computation/split" stack_frame_id=0}
  %neg.127 = bf16[1,128,16,64]{3,1,2,0:T(8,128)(2,1)S(1)} negate(%slice.75), metadata={op_name="jit(train_step)/transpose(jvp())/while/body/closed_call/checkpoint/rematted_computation/neg" stack_frame_id=0}
  %slice.76 = bf16[1,128,16,64]{3,1,2,0:T(8,128)(2,1)S(1)} slice(%param_0.1724), slice={[0:1], [0:128], [0:16], [0:64]}, metadata={op_name="jit(train_step)/transpose(jvp())/while/body/closed_call/checkpoint/rematted_computation/split" stack_frame_id=0}
  ROOT %tuple.224 = (bf16[1,128,16,64]{3,1,2,0:T(8,128)(2,1)S(1)}, bf16[1,128,16,64]{3,1,2,0:T(8,128)(2,1)S(1)}) tuple(%neg.127, %slice.76)
}

%fused_computation.314.clone.clone () -> f32[64] {
  %constant.1637 = f32[]{:T(128)} constant(1e+06)
  %closed_call.68 = f32[64]{0:T(128)} broadcast(%constant.1637), dimensions={}, metadata={op_name="jit(train_step)/transpose(jvp())/while/body/closed_call" stack_frame_id=0}
  %iota.65 = s32[64]{0:T(128)} iota(), iota_dimension=0, metadata={op_name="jit(train_step)/transpose(jvp())/while/body/closed_call/checkpoint/rematted_computation/iota" stack_frame_id=0}
  %constant.1636 = s32[]{:T(128)} constant(2)
  %closed_call.67 = s32[64]{0:T(128)} broadcast(%constant.1636), dimensions={}, metadata={op_name="jit(train_step)/transpose(jvp())/while/body/closed_call" stack_frame_id=0}
  %mul.2298 = s32[64]{0:T(128)} multiply(%iota.65, %closed_call.67), metadata={op_name="jit(train_step)/transpose(jvp())/while/body/closed_call/checkpoint/rematted_computation/mul" stack_frame_id=0}
  %convert_element_type.1464 = f32[64]{0:T(128)} convert(%mul.2298), metadata={op_name="jit(train_step)/transpose(jvp())/while/body/closed_call/checkpoint/rematted_computation/convert_element_type" stack_frame_id=0}
  %constant.1638 = f32[]{:T(128)} constant(0.0078125)
  %closed_call.66 = f32[64]{0:T(128)} broadcast(%constant.1638), dimensions={}, metadata={op_name="jit(train_step)/transpose(jvp())/while/body/closed_call" stack_frame_id=0}
  %div.1011 = f32[64]{0:T(128)} multiply(%convert_element_type.1464, %closed_call.66), metadata={op_name="jit(train_step)/transpose(jvp())/while/body/closed_call/checkpoint/rematted_computation/div" stack_frame_id=0}
  ROOT %pow.38 = f32[64]{0:T(128)S(1)} power(%closed_call.68, %div.1011), metadata={op_name="jit(train_step)/transpose(jvp())/while/body/closed_call/checkpoint/rematted_computation/pow" stack_frame_id=0}
}

%fused_computation.270.clone.clone (param_0.1712: f32[128], param_1.1830: f32[64]) -> (bf16[1,128,1,64], bf16[1,128,1,64]) {
  %param_0.1712 = f32[128]{0:T(128)S(1)} parameter(0)
  %div.1013 = f32[1,128,1,64]{3,1,2,0:T(8,128)} broadcast(%param_0.1712), dimensions={1}, metadata={op_name="jit(train_step)/transpose(jvp())/while/body/closed_call/checkpoint/rematted_computation/div" stack_frame_id=0}
  %param_1.1830 = f32[64]{0:T(128)S(1)} parameter(1)
  %div.1014 = f32[1,128,1,64]{3,1,2,0:T(8,128)} broadcast(%param_1.1830), dimensions={3}, metadata={op_name="jit(train_step)/transpose(jvp())/while/body/closed_call/checkpoint/rematted_computation/div" stack_frame_id=0}
  %div.1012 = f32[1,128,1,64]{3,1,2,0:T(8,128)} divide(%div.1013, %div.1014), metadata={op_name="jit(train_step)/transpose(jvp())/while/body/closed_call/checkpoint/rematted_computation/div" stack_frame_id=0}
  %cos.43 = f32[1,128,1,64]{3,1,2,0:T(8,128)} cosine(%div.1012), metadata={op_name="jit(train_step)/transpose(jvp())/while/body/closed_call/checkpoint/rematted_computation/cos" stack_frame_id=0}
  %convert_element_type.1465 = bf16[1,128,1,64]{3,1,2,0:T(8,128)(2,1)S(1)} convert(%cos.43), metadata={op_name="jit(train_step)/transpose(jvp())/while/body/closed_call/checkpoint/rematted_computation/convert_element_type" stack_frame_id=0}
  %sin.35.clone.3 = f32[1,128,1,64]{3,1,2,0:T(8,128)} sine(%div.1012), metadata={op_name="jit(train_step)/transpose(jvp())/while/body/closed_call/checkpoint/rematted_computation/sin" stack_frame_id=0}
  %convert_element_type.1140.clone.3 = bf16[1,128,1,64]{3,1,2,0:T(8,128)(2,1)S(1)} convert(%sin.35.clone.3), metadata={op_name="jit(train_step)/transpose(jvp())/while/body/closed_call/checkpoint/rematted_computation/convert_element_type" stack_frame_id=0}
  ROOT %tuple.219 = (bf16[1,128,1,64]{3,1,2,0:T(8,128)(2,1)S(1)}, bf16[1,128,1,64]{3,1,2,0:T(8,128)(2,1)S(1)}) tuple(%convert_element_type.1465, %convert_element_type.1140.clone.3)
}

%fused_computation.275.clone.clone (param_0.1714: bf16[1,128,1,64]) -> (bf16[128,128], bf16[128,128]) {
  %param_0.1714 = bf16[1,128,1,64]{3,1,2,0:T(8,128)(2,1)S(1)} parameter(0)
  %constant.1641 = bf16[]{:T(256)} constant(-inf)
  %pad.77 = bf16[1,128,1,128]{3,1,2,0:T(8,128)(2,1)} pad(%param_0.1714, %constant.1641), padding=0_0x0_0x0_0x0_64, metadata={op_name="jit(train_step)/transpose(jvp())/while/body/closed_call/checkpoint/rematted_computation/concatenate" stack_frame_id=0}
  %pad.76 = bf16[1,128,1,128]{3,1,2,0:T(8,128)(2,1)} pad(%param_0.1714, %constant.1641), padding=0_0x0_0x0_0x64_0, metadata={op_name="jit(train_step)/transpose(jvp())/while/body/closed_call/checkpoint/rematted_computation/concatenate" stack_frame_id=0}
  %maximum.57 = bf16[1,128,1,128]{3,1,2,0:T(8,128)(2,1)} maximum(%pad.77, %pad.76), metadata={op_name="jit(train_step)/transpose(jvp())/while/body/closed_call/checkpoint/rematted_computation/concatenate" stack_frame_id=0}
  %constant.1642 = bf16[]{:T(256)} constant(0.08838)
  %broadcast.1077 = bf16[1,128,1,128]{3,1,2,0:T(8,128)(2,1)} broadcast(%constant.1642), dimensions={}, metadata={op_name="jit(train_step)/transpose(jvp())/while/body/closed_call/checkpoint/mul" stack_frame_id=0}
  %mul.2300 = bf16[1,128,1,128]{3,1,2,0:T(8,128)(2,1)} multiply(%maximum.57, %broadcast.1077), metadata={op_name="jit(train_step)/transpose(jvp())/while/body/closed_call/checkpoint/mul" stack_frame_id=0}
  %bitcast.916 = bf16[128,128]{1,0:T(8,128)(2,1)} bitcast(%mul.2300), metadata={op_name="jit(train_step)/transpose(jvp())/while/body/closed_call/checkpoint/mul" stack_frame_id=0}
  %bitcast.455.clone.3 = bf16[128,128]{1,0:T(8,128)(2,1)S(1)} bitcast(%maximum.57), metadata={op_name="jit(train_step)/transpose(jvp())/while/body/closed_call/checkpoint/rematted_computation/mul" stack_frame_id=0}
  ROOT %tuple.221 = (bf16[128,128]{1,0:T(8,128)(2,1)}, bf16[128,128]{1,0:T(8,128)(2,1)S(1)}) tuple(%bitcast.916, %bitcast.455.clone.3)
}

%fused_computation.274.clone.clone (param_0.1713: bf16[1,128,1,64]) -> (bf16[128,128], bf16[128,128]) {
  %param_0.1713 = bf16[1,128,1,64]{3,1,2,0:T(8,128)(2,1)S(1)} parameter(0)
  %constant.1639 = bf16[]{:T(256)} constant(-inf)
  %pad.75 = bf16[1,128,1,128]{3,1,2,0:T(8,128)(2,1)} pad(%param_0.1713, %constant.1639), padding=0_0x0_0x0_0x0_64, metadata={op_name="jit(train_step)/transpose(jvp())/while/body/closed_call/checkpoint/rematted_computation/concatenate" stack_frame_id=0}
  %pad.74 = bf16[1,128,1,128]{3,1,2,0:T(8,128)(2,1)} pad(%param_0.1713, %constant.1639), padding=0_0x0_0x0_0x64_0, metadata={op_name="jit(train_step)/transpose(jvp())/while/body/closed_call/checkpoint/rematted_computation/concatenate" stack_frame_id=0}
  %maximum.56 = bf16[1,128,1,128]{3,1,2,0:T(8,128)(2,1)} maximum(%pad.75, %pad.74), metadata={op_name="jit(train_step)/transpose(jvp())/while/body/closed_call/checkpoint/rematted_computation/concatenate" stack_frame_id=0}
  %constant.1640 = bf16[]{:T(256)} constant(0.08838)
  %broadcast.1076 = bf16[1,128,1,128]{3,1,2,0:T(8,128)(2,1)} broadcast(%constant.1640), dimensions={}, metadata={op_name="jit(train_step)/transpose(jvp())/while/body/closed_call/checkpoint/mul" stack_frame_id=0}
  %mul.2299 = bf16[1,128,1,128]{3,1,2,0:T(8,128)(2,1)} multiply(%maximum.56, %broadcast.1076), metadata={op_name="jit(train_step)/transpose(jvp())/while/body/closed_call/checkpoint/mul" stack_frame_id=0}
  %bitcast.915 = bf16[128,128]{1,0:T(8,128)(2,1)} bitcast(%mul.2299), metadata={op_name="jit(train_step)/transpose(jvp())/while/body/closed_call/checkpoint/mul" stack_frame_id=0}
  %bitcast.456.clone.3 = bf16[128,128]{1,0:T(8,128)(2,1)S(1)} bitcast(%maximum.56), metadata={op_name="jit(train_step)/transpose(jvp())/while/body/closed_call/checkpoint/rematted_computation/mul" stack_frame_id=0}
  ROOT %tuple.220 = (bf16[128,128]{1,0:T(8,128)(2,1)}, bf16[128,128]{1,0:T(8,128)(2,1)S(1)}) tuple(%bitcast.915, %bitcast.456.clone.3)
}

%fused_computation.202.clone.clone (param_0.1725: bf16[1,128,16,64], param_1.1837: bf16[1,128,16,64], param_2.1405: bf16[128,128], param_3.930: bf16[128,128], param_4.551: f32[128,16], param_5.481: bf16[128,16,128], param_6.338: bf16[128]) -> bf16[16,128,128] {
  %param_6.338 = bf16[128]{0:T(256)(128)(2,1)S(1)} parameter(6)
  %dot_general.597 = bf16[1,128,16,128]{3,1,2,0:T(8,128)(2,1)} broadcast(%param_6.338), dimensions={3}, metadata={op_name="jit(train_step)/transpose(jvp())/while/body/closed_call/checkpoint/rematted_computation/...k,k->...k/dot_general" stack_frame_id=0}
  %param_5.481 = bf16[128,16,128]{2,0,1:T(8,128)(2,1)S(1)} parameter(5)
  %convert_element_type.1474 = f32[128,16,128]{2,0,1:T(8,128)} convert(%param_5.481), metadata={op_name="jit(train_step)/transpose(jvp())/while/body/closed_call/checkpoint/rematted_computation/convert_element_type" stack_frame_id=0}
  %bitcast.926 = f32[1,128,16,128]{3,1,2,0:T(8,128)} bitcast(%convert_element_type.1474), metadata={op_name="jit(train_step)/transpose(jvp())/while/body/closed_call/checkpoint/rematted_computation/convert_element_type" stack_frame_id=0}
  %param_4.551 = f32[128,16]{0,1:T(8,128)S(1)} parameter(4)
  %mul.2319 = f32[1,128,16,128]{3,1,2,0:T(8,128)} broadcast(%param_4.551), dimensions={1,2}, metadata={op_name="jit(train_step)/transpose(jvp())/while/body/closed_call/checkpoint/rematted_computation/mul" stack_frame_id=0}
  %mul.2318 = f32[1,128,16,128]{3,1,2,0:T(8,128)} multiply(%bitcast.926, %mul.2319), metadata={op_name="jit(train_step)/transpose(jvp())/while/body/closed_call/checkpoint/rematted_computation/mul" stack_frame_id=0}
  %convert_element_type.1473 = bf16[1,128,16,128]{3,1,2,0:T(8,128)(2,1)} convert(%mul.2318), metadata={op_name="jit(train_step)/transpose(jvp())/while/body/closed_call/checkpoint/rematted_computation/convert_element_type" stack_frame_id=0}
  %dot_general.596 = bf16[1,128,16,128]{3,1,2,0:T(8,128)(2,1)} multiply(%dot_general.597, %convert_element_type.1473), metadata={op_name="jit(train_step)/transpose(jvp())/while/body/closed_call/checkpoint/rematted_computation/...k,k->...k/dot_general" stack_frame_id=0}
  %param_3.930 = bf16[128,128]{1,0:T(8,128)(2,1)S(1)} parameter(3)
  %mul.2317 = bf16[1,128,16,128]{3,1,2,0:T(8,128)(2,1)} broadcast(%param_3.930), dimensions={1,3}, metadata={op_name="jit(train_step)/transpose(jvp())/while/body/closed_call/checkpoint/rematted_computation/mul" stack_frame_id=0}
  %mul.2315 = bf16[1,128,16,128]{3,1,2,0:T(8,128)(2,1)} multiply(%dot_general.596, %mul.2317), metadata={op_name="jit(train_step)/transpose(jvp())/while/body/closed_call/checkpoint/rematted_computation/mul" stack_frame_id=0}
  %param_1.1837 = bf16[1,128,16,64]{3,1,2,0:T(8,128)(2,1)S(1)} parameter(1)
  %constant.1649 = bf16[]{:T(256)} constant(-inf)
  %pad.81 = bf16[1,128,16,128]{3,1,2,0:T(8,128)(2,1)} pad(%param_1.1837, %constant.1649), padding=0_0x0_0x0_0x0_64, metadata={op_name="jit(train_step)/transpose(jvp())/while/body/closed_call/checkpoint/rematted_computation/concatenate" stack_frame_id=0}
  %param_0.1725 = bf16[1,128,16,64]{3,1,2,0:T(8,128)(2,1)S(1)} parameter(0)
  %pad.80 = bf16[1,128,16,128]{3,1,2,0:T(8,128)(2,1)} pad(%param_0.1725, %constant.1649), padding=0_0x0_0x0_0x64_0, metadata={op_name="jit(train_step)/transpose(jvp())/while/body/closed_call/checkpoint/rematted_computation/concatenate" stack_frame_id=0}
  %maximum.59 = bf16[1,128,16,128]{3,1,2,0:T(8,128)(2,1)} maximum(%pad.81, %pad.80), metadata={op_name="jit(train_step)/transpose(jvp())/while/body/closed_call/checkpoint/rematted_computation/concatenate" stack_frame_id=0}
  %param_2.1405 = bf16[128,128]{1,0:T(8,128)(2,1)S(1)} parameter(2)
  %mul.2316 = bf16[1,128,16,128]{3,1,2,0:T(8,128)(2,1)} broadcast(%param_2.1405), dimensions={1,3}, metadata={op_name="jit(train_step)/transpose(jvp())/while/body/closed_call/checkpoint/rematted_computation/mul" stack_frame_id=0}
  %mul.2314 = bf16[1,128,16,128]{3,1,2,0:T(8,128)(2,1)} multiply(%maximum.59, %mul.2316), metadata={op_name="jit(train_step)/transpose(jvp())/while/body/closed_call/checkpoint/rematted_computation/mul" stack_frame_id=0}
  %add.1049 = bf16[1,128,16,128]{3,1,2,0:T(8,128)(2,1)} add(%mul.2315, %mul.2314), metadata={op_name="jit(train_step)/transpose(jvp())/while/body/closed_call/checkpoint/rematted_computation/add" stack_frame_id=0}
  %constant.1650 = bf16[]{:T(256)} constant(0.08838)
  %closed_call.69 = bf16[1,128,16,128]{3,1,2,0:T(8,128)(2,1)} broadcast(%constant.1650), dimensions={}, metadata={op_name="jit(train_step)/transpose(jvp())/while/body/closed_call" stack_frame_id=0}
  %mul.2313 = bf16[1,128,16,128]{3,1,2,0:T(8,128)(2,1)} multiply(%add.1049, %closed_call.69), metadata={op_name="jit(train_step)/transpose(jvp())/while/body/closed_call/checkpoint/rematted_computation/mul" stack_frame_id=0}
  ROOT %bitcast.925 = bf16[16,128,128]{2,1,0:T(8,128)(2,1)S(1)} bitcast(%mul.2313), metadata={op_name="jit(train_step)/transpose(jvp())/while/body/closed_call/checkpoint/rematted_computation/shard_map/vmap(jit(_splash_attention))/splash_mha_fwd_segmented_residuals/splash_mha_fwd_segmented_residuals/squeeze" stack_frame_id=0}
}

%fused_computation.131.clone.clone (param_0.1707: bf16[4,512,8,128], param_1.1827: s32[]) -> bf16[1,512,8,128] {
  %param_0.1707 = bf16[4,512,8,128]{1,3,2,0:T(8,128)(2,1)} parameter(0)
  %param_1.1827 = s32[]{:T(128)S(6)} parameter(1)
  %constant.1631 = s32[]{:T(128)} constant(0)
  ROOT %dynamic-slice.187 = bf16[1,512,8,128]{1,3,2,0:T(8,128)(2,1)S(1)} dynamic-slice(%param_0.1707, %param_1.1827, %constant.1631, %constant.1631, %constant.1631), dynamic_slice_sizes={1,512,8,128}, metadata={op_name="jit(train_step)/transpose(jvp())/while/body/dynamic_slice" stack_frame_id=0}, backend_config={"flag_configs":[],"scoped_memory_configs":[],"indices_config":{"index_known_bits":[{"zeroes":"4294967292","ones":"0","bitwidth":"32"},{"zeroes":"4294967295","ones":"0","bitwidth":"32"},{"zeroes":"4294967295","ones":"0","bitwidth":"32"},{"zeroes":"4294967295","ones":"0","bitwidth":"32"}],"is_index_aligned":[]},"used_scoped_memory_configs":[]}
}

%fused_computation.288.clone.clone (param_0.1711: f32[128,8]) -> f32[128,8] {
  %param_0.1711 = f32[128,8]{0,1:T(8,128)S(1)} parameter(0)
  %constant.1634 = f32[]{:T(128)} constant(0.0078125)
  %broadcast.1075 = f32[128,8]{0,1:T(8,128)} broadcast(%constant.1634), dimensions={}, metadata={op_name="jit(train_step)/transpose(jvp())/while/body/closed_call" stack_frame_id=0}
  %div.1010 = f32[128,8]{0,1:T(8,128)} multiply(%param_0.1711, %broadcast.1075), metadata={op_name="jit(train_step)/transpose(jvp())/while/body/closed_call/checkpoint/rematted_computation/div" stack_frame_id=0}
  %constant.1635 = f32[]{:T(128)} constant(1e-06)
  %broadcast.1074 = f32[128,8]{0,1:T(8,128)} broadcast(%constant.1635), dimensions={}, metadata={op_name="jit(train_step)/transpose(jvp())/while/body/closed_call/checkpoint/rematted_computation/add" stack_frame_id=0}
  %add.1046 = f32[128,8]{0,1:T(8,128)} add(%div.1010, %broadcast.1074), metadata={op_name="jit(train_step)/transpose(jvp())/while/body/closed_call/checkpoint/rematted_computation/add" stack_frame_id=0}
  %bitcast.914 = f32[1,128,8]{1,2,0:T(8,128)} bitcast(%add.1046), metadata={op_name="jit(train_step)/transpose(jvp())/while/body/closed_call/checkpoint/rematted_computation/add" stack_frame_id=0}
  %rsqrt.215 = f32[1,128,8]{1,2,0:T(8,128)} rsqrt(%bitcast.914), metadata={op_name="jit(train_step)/transpose(jvp())/while/body/closed_call/checkpoint/rematted_computation/rsqrt" stack_frame_id=0}
  ROOT %bitcast.913 = f32[128,8]{0,1:T(8,128)S(1)} bitcast(%rsqrt.215), metadata={op_name="jit(train_step)/transpose(jvp())/while/body/closed_call/checkpoint/rematted_computation/rsqrt" stack_frame_id=0}
}

%fused_computation.267.clone.1.clone (param_0.1715: bf16[128], param_1.1831: f32[1,128,8,128], param_2.1400: f32[128,8]) -> bf16[1,128,8,128] {
  %param_0.1715 = bf16[128]{0:T(256)(128)(2,1)S(1)} parameter(0)
  %dot_general.589 = bf16[1,128,8,128]{3,1,2,0:T(8,128)(2,1)} broadcast(%param_0.1715), dimensions={3}, metadata={op_name="jit(train_step)/transpose(jvp())/while/body/closed_call/checkpoint/rematted_computation/...k,k->...k/dot_general" stack_frame_id=0}
  %param_1.1831 = f32[1,128,8,128]{3,1,2,0:T(8,128)S(1)} parameter(1)
  %param_2.1400 = f32[128,8]{0,1:T(8,128)S(1)} parameter(2)
  %mul.2302 = f32[1,128,8,128]{3,1,2,0:T(8,128)} broadcast(%param_2.1400), dimensions={1,2}, metadata={op_name="jit(train_step)/transpose(jvp())/while/body/closed_call/checkpoint/rematted_computation/mul" stack_frame_id=0}
  %mul.2301 = f32[1,128,8,128]{3,1,2,0:T(8,128)} multiply(%param_1.1831, %mul.2302), metadata={op_name="jit(train_step)/transpose(jvp())/while/body/closed_call/checkpoint/rematted_computation/mul" stack_frame_id=0}
  %convert_element_type.1466 = bf16[1,128,8,128]{3,1,2,0:T(8,128)(2,1)} convert(%mul.2301), metadata={op_name="jit(train_step)/transpose(jvp())/while/body/closed_call/checkpoint/rematted_computation/convert_element_type" stack_frame_id=0}
  ROOT %dot_general.588 = bf16[1,128,8,128]{3,1,2,0:T(8,128)(2,1)S(1)} multiply(%dot_general.589, %convert_element_type.1466), metadata={op_name="jit(train_step)/transpose(jvp())/while/body/closed_call/checkpoint/rematted_computation/...k,k->...k/dot_general" stack_frame_id=0}
}

%fused_computation.246.clone.clone (param_0.1716: bf16[1,128,8,128]) -> (bf16[1,128,8,64], bf16[1,128,8,64]) {
  %param_0.1716 = bf16[1,128,8,128]{3,1,2,0:T(8,128)(2,1)S(1)} parameter(0)
  %slice.73 = bf16[1,128,8,64]{3,1,2,0:T(8,128)(2,1)} slice(%param_0.1716), slice={[0:1], [0:128], [0:8], [64:128]}, metadata={op_name="jit(train_step)/transpose(jvp())/while/body/closed_call/checkpoint/rematted_computation/split" stack_frame_id=0}
  %neg.126 = bf16[1,128,8,64]{3,1,2,0:T(8,128)(2,1)S(1)} negate(%slice.73), metadata={op_name="jit(train_step)/transpose(jvp())/while/body/closed_call/checkpoint/rematted_computation/neg" stack_frame_id=0}
  %slice.74 = bf16[1,128,8,64]{3,1,2,0:T(8,128)(2,1)S(1)} slice(%param_0.1716), slice={[0:1], [0:128], [0:8], [0:64]}, metadata={op_name="jit(train_step)/transpose(jvp())/while/body/closed_call/checkpoint/rematted_computation/split" stack_frame_id=0}
  ROOT %tuple.222 = (bf16[1,128,8,64]{3,1,2,0:T(8,128)(2,1)S(1)}, bf16[1,128,8,64]{3,1,2,0:T(8,128)(2,1)S(1)}) tuple(%neg.126, %slice.74)
}

%fused_computation.249.clone.clone (param_0.1717: bf16[1,128,8,64], param_1.1832: bf16[1,128,8,64], param_2.1401: bf16[128,128], param_3.927: bf16[128,128], param_4.549: f32[1,128,8,128], param_5.480: f32[128,8], param_6.337: bf16[128]) -> bf16[8,128,128] {
  %param_6.337 = bf16[128]{0:T(256)(128)(2,1)S(1)} parameter(6)
  %dot_general.591 = bf16[1,128,8,128]{3,1,2,0:T(8,128)(2,1)} broadcast(%param_6.337), dimensions={3}, metadata={op_name="jit(train_step)/transpose(jvp())/while/body/closed_call/checkpoint/rematted_computation/...k,k->...k/dot_general" stack_frame_id=0}
  %param_4.549 = f32[1,128,8,128]{3,1,2,0:T(8,128)S(1)} parameter(4)
  %param_5.480 = f32[128,8]{0,1:T(8,128)S(1)} parameter(5)
  %mul.2308 = f32[1,128,8,128]{3,1,2,0:T(8,128)} broadcast(%param_5.480), dimensions={1,2}, metadata={op_name="jit(train_step)/transpose(jvp())/while/body/closed_call/checkpoint/rematted_computation/mul" stack_frame_id=0}
  %mul.2307 = f32[1,128,8,128]{3,1,2,0:T(8,128)} multiply(%param_4.549, %mul.2308), metadata={op_name="jit(train_step)/transpose(jvp())/while/body/closed_call/checkpoint/rematted_computation/mul" stack_frame_id=0}
  %convert_element_type.1467 = bf16[1,128,8,128]{3,1,2,0:T(8,128)(2,1)} convert(%mul.2307), metadata={op_name="jit(train_step)/transpose(jvp())/while/body/closed_call/checkpoint/rematted_computation/convert_element_type" stack_frame_id=0}
  %dot_general.590 = bf16[1,128,8,128]{3,1,2,0:T(8,128)(2,1)} multiply(%dot_general.591, %convert_element_type.1467), metadata={op_name="jit(train_step)/transpose(jvp())/while/body/closed_call/checkpoint/rematted_computation/...k,k->...k/dot_general" stack_frame_id=0}
  %param_3.927 = bf16[128,128]{1,0:T(8,128)(2,1)S(1)} parameter(3)
  %mul.2306 = bf16[1,128,8,128]{3,1,2,0:T(8,128)(2,1)} broadcast(%param_3.927), dimensions={1,3}, metadata={op_name="jit(train_step)/transpose(jvp())/while/body/closed_call/checkpoint/rematted_computation/mul" stack_frame_id=0}
  %mul.2304 = bf16[1,128,8,128]{3,1,2,0:T(8,128)(2,1)} multiply(%dot_general.590, %mul.2306), metadata={op_name="jit(train_step)/transpose(jvp())/while/body/closed_call/checkpoint/rematted_computation/mul" stack_frame_id=0}
  %param_1.1832 = bf16[1,128,8,64]{3,1,2,0:T(8,128)(2,1)S(1)} parameter(1)
  %constant.1643 = bf16[]{:T(256)} constant(-inf)
  %pad.79 = bf16[1,128,8,128]{3,1,2,0:T(8,128)(2,1)} pad(%param_1.1832, %constant.1643), padding=0_0x0_0x0_0x0_64, metadata={op_name="jit(train_step)/transpose(jvp())/while/body/closed_call/checkpoint/rematted_computation/concatenate" stack_frame_id=0}
  %param_0.1717 = bf16[1,128,8,64]{3,1,2,0:T(8,128)(2,1)S(1)} parameter(0)
  %pad.78 = bf16[1,128,8,128]{3,1,2,0:T(8,128)(2,1)} pad(%param_0.1717, %constant.1643), padding=0_0x0_0x0_0x64_0, metadata={op_name="jit(train_step)/transpose(jvp())/while/body/closed_call/checkpoint/rematted_computation/concatenate" stack_frame_id=0}
  %maximum.58 = bf16[1,128,8,128]{3,1,2,0:T(8,128)(2,1)} maximum(%pad.79, %pad.78), metadata={op_name="jit(train_step)/transpose(jvp())/while/body/closed_call/checkpoint/rematted_computation/concatenate" stack_frame_id=0}
  %param_2.1401 = bf16[128,128]{1,0:T(8,128)(2,1)S(1)} parameter(2)
  %mul.2305 = bf16[1,128,8,128]{3,1,2,0:T(8,128)(2,1)} broadcast(%param_2.1401), dimensions={1,3}, metadata={op_name="jit(train_step)/transpose(jvp())/while/body/closed_call/checkpoint/rematted_computation/mul" stack_frame_id=0}
  %mul.2303 = bf16[1,128,8,128]{3,1,2,0:T(8,128)(2,1)} multiply(%maximum.58, %mul.2305), metadata={op_name="jit(train_step)/transpose(jvp())/while/body/closed_call/checkpoint/rematted_computation/mul" stack_frame_id=0}
  %add.1047 = bf16[1,128,8,128]{3,1,2,0:T(8,128)(2,1)} add(%mul.2304, %mul.2303), metadata={op_name="jit(train_step)/transpose(jvp())/while/body/closed_call/checkpoint/rematted_computation/add" stack_frame_id=0}
  ROOT %bitcast.917 = bf16[8,128,128]{2,1,0:T(8,128)(2,1)S(1)} bitcast(%add.1047), metadata={op_name="jit(train_step)/transpose(jvp())/while/body/closed_call/checkpoint/rematted_computation/shard_map/vmap(jit(_splash_attention))/splash_mha_fwd_segmented_residuals/splash_mha_fwd_segmented_residuals/squeeze" stack_frame_id=0}
}

%fused_computation.488.clone.clone (param_0.1754: f32[1,16,128,128]) -> (f32[1,16,128,1], f32[16,128]) {
  %param_0.1754 = f32[1,16,128,128]{2,1,3,0:T(8,128)S(1)} parameter(0)
  %slice.77 = f32[1,16,128,1]{2,1,3,0:T(8,128)} slice(%param_0.1754), slice={[0:1], [0:16], [0:128], [0:1]}, metadata={op_name="jit(train_step)/transpose(jvp())/while/body/closed_call/checkpoint/rematted_computation/shard_map/vmap(jit(_splash_attention))/slice" stack_frame_id=0}
  %bitcast.489.clone.3 = f32[16,128]{1,0:T(8,128)S(1)} bitcast(%slice.77), metadata={op_name="jit(train_step)/transpose(jvp())/while/body/closed_call/checkpoint/shard_map/vmap(jit(_splash_attention))/broadcast_in_dim" stack_frame_id=0}
  ROOT %tuple.229 = (f32[1,16,128,1]{2,1,3,0:T(8,128)}, f32[16,128]{1,0:T(8,128)S(1)}) tuple(%slice.77, %bitcast.489.clone.3)
}

%fused_computation.120.clone.clone (param_0.1726: bf16[4,16,128,512], param_1.1838: s32[]) -> bf16[1,16,128,512] {
  %param_0.1726 = bf16[4,16,128,512]{3,2,1,0:T(8,128)(2,1)} parameter(0)
  %param_1.1838 = s32[]{:T(128)S(6)} parameter(1)
  %constant.1651 = s32[]{:T(128)} constant(0)
  ROOT %dynamic-slice.191 = bf16[1,16,128,512]{3,2,1,0:T(8,128)(2,1)S(1)} dynamic-slice(%param_0.1726, %param_1.1838, %constant.1651, %constant.1651, %constant.1651), dynamic_slice_sizes={1,16,128,512}, metadata={op_name="jit(train_step)/transpose(jvp())/while/body/dynamic_slice" stack_frame_id=0}, backend_config={"flag_configs":[],"scoped_memory_configs":[],"indices_config":{"index_known_bits":[{"zeroes":"4294967292","ones":"0","bitwidth":"32"},{"zeroes":"4294967295","ones":"0","bitwidth":"32"},{"zeroes":"4294967295","ones":"0","bitwidth":"32"},{"zeroes":"4294967295","ones":"0","bitwidth":"32"}],"is_index_aligned":[]},"used_scoped_memory_configs":[]}
}

%fused_computation.98.clone.clone (param_0.1731: bf16[4,512,6144], param_1.1840: s32[]) -> bf16[1,512,6144] {
  %param_0.1731 = bf16[4,512,6144]{2,1,0:T(8,128)(2,1)} parameter(0)
  %param_1.1840 = s32[]{:T(128)S(6)} parameter(1)
  %constant.1655 = s32[]{:T(128)} constant(0)
  ROOT %dynamic-slice.192 = bf16[1,512,6144]{2,1,0:T(8,128)(2,1)S(1)} dynamic-slice(%param_0.1731, %param_1.1840, %constant.1655, %constant.1655), dynamic_slice_sizes={1,512,6144}, metadata={op_name="jit(train_step)/transpose(jvp())/while/body/dynamic_slice" stack_frame_id=0}, backend_config={"flag_configs":[],"scoped_memory_configs":[],"indices_config":{"index_known_bits":[{"zeroes":"4294967292","ones":"0","bitwidth":"32"},{"zeroes":"4294967295","ones":"0","bitwidth":"32"},{"zeroes":"4294967295","ones":"0","bitwidth":"32"}],"is_index_aligned":[]},"used_scoped_memory_configs":[]}
}

%fused_computation.99.clone.clone (param_0.1735: bf16[4,6144,512], param_1.1843: s32[]) -> bf16[1,6144,512] {
  %param_0.1735 = bf16[4,6144,512]{2,1,0:T(8,128)(2,1)} parameter(0)
  %param_1.1843 = s32[]{:T(128)S(6)} parameter(1)
  %constant.1656 = s32[]{:T(128)} constant(0)
  ROOT %dynamic-slice.193 = bf16[1,6144,512]{2,1,0:T(8,128)(2,1)S(1)} dynamic-slice(%param_0.1735, %param_1.1843, %constant.1656, %constant.1656), dynamic_slice_sizes={1,6144,512}, metadata={op_name="jit(train_step)/transpose(jvp())/while/body/dynamic_slice" stack_frame_id=0}, backend_config={"flag_configs":[],"scoped_memory_configs":[],"indices_config":{"index_known_bits":[{"zeroes":"4294967292","ones":"0","bitwidth":"32"},{"zeroes":"4294967295","ones":"0","bitwidth":"32"},{"zeroes":"4294967295","ones":"0","bitwidth":"32"}],"is_index_aligned":[]},"used_scoped_memory_configs":[]}
}

%fused_computation.100.clone.clone (param_0.1739: bf16[4,512,6144], param_1.1845: s32[]) -> bf16[1,512,6144] {
  %param_0.1739 = bf16[4,512,6144]{2,1,0:T(8,128)(2,1)} parameter(0)
  %param_1.1845 = s32[]{:T(128)S(6)} parameter(1)
  %constant.1657 = s32[]{:T(128)} constant(0)
  ROOT %dynamic-slice.194 = bf16[1,512,6144]{2,1,0:T(8,128)(2,1)S(1)} dynamic-slice(%param_0.1739, %param_1.1845, %constant.1657, %constant.1657), dynamic_slice_sizes={1,512,6144}, metadata={op_name="jit(train_step)/transpose(jvp())/while/body/dynamic_slice" stack_frame_id=0}, backend_config={"flag_configs":[],"scoped_memory_configs":[],"indices_config":{"index_known_bits":[{"zeroes":"4294967292","ones":"0","bitwidth":"32"},{"zeroes":"4294967295","ones":"0","bitwidth":"32"},{"zeroes":"4294967295","ones":"0","bitwidth":"32"}],"is_index_aligned":[]},"used_scoped_memory_configs":[]}
}

%fused_computation.297.clone.clone (param_0.1730: f32[128]) -> f32[128] {
  %param_0.1730 = f32[128]{0:T(128)S(1)} parameter(0)
  %constant.1654 = f32[]{:T(128)} constant(0.00048828125)
  %broadcast.1081 = f32[128]{0:T(128)} broadcast(%constant.1654), dimensions={}, metadata={op_name="jit(train_step)/transpose(jvp())/while/body/closed_call" stack_frame_id=0}
  %div.1016 = f32[128]{0:T(128)} multiply(%param_0.1730, %broadcast.1081), metadata={op_name="jit(train_step)/transpose(jvp())/while/body/closed_call/checkpoint/rematted_computation/div" stack_frame_id=0}
  %constant.1653 = f32[]{:T(128)} constant(1e-06)
  %broadcast.1080 = f32[128]{0:T(128)} broadcast(%constant.1653), dimensions={}, metadata={op_name="jit(train_step)/transpose(jvp())/while/body/closed_call" stack_frame_id=0}
  %add.1050 = f32[128]{0:T(128)} add(%div.1016, %broadcast.1080), metadata={op_name="jit(train_step)/transpose(jvp())/while/body/closed_call/checkpoint/rematted_computation/add" stack_frame_id=0}
  %bitcast.930 = f32[1,128]{1,0:T(1,128)} bitcast(%add.1050), metadata={op_name="jit(train_step)/transpose(jvp())/while/body/closed_call/checkpoint/rematted_computation/add" stack_frame_id=0}
  %rsqrt.217 = f32[1,128]{1,0:T(1,128)} rsqrt(%bitcast.930), metadata={op_name="jit(train_step)/transpose(jvp())/while/body/closed_call/checkpoint/rematted_computation/rsqrt" stack_frame_id=0}
  ROOT %bitcast.929 = f32[128]{0:T(128)S(1)} bitcast(%rsqrt.217), metadata={op_name="jit(train_step)/transpose(jvp())/while/body/closed_call/checkpoint/rematted_computation/rsqrt" stack_frame_id=0}
}

%fused_computation.313.clone.clone (param_0.1749: f32[128], param_1.1852: f32[128]) -> f32[128] {
  %param_0.1749 = f32[128]{0:T(128)S(1)} parameter(0)
  %bitcast.946 = f32[1,128]{1,0:T(1,128)} bitcast(%param_0.1749), metadata={op_name="jit(train_step)/transpose(jvp())/while/body/closed_call/checkpoint/reduce_sum" stack_frame_id=0}
  %param_1.1852 = f32[128]{0:T(128)S(1)} parameter(1)
  %constant.1664 = f32[]{:T(128)} constant(0.00048828125)
  %broadcast.1083 = f32[128]{0:T(128)} broadcast(%constant.1664), dimensions={}, metadata={op_name="jit(train_step)/transpose(jvp())/while/body/closed_call" stack_frame_id=0}
  %div.1020 = f32[128]{0:T(128)} multiply(%param_1.1852, %broadcast.1083), metadata={op_name="jit(train_step)/transpose(jvp())/while/body/closed_call/checkpoint/rematted_computation/div" stack_frame_id=0}
  %constant.1663 = f32[]{:T(128)} constant(1e-06)
  %broadcast.1082 = f32[128]{0:T(128)} broadcast(%constant.1663), dimensions={}, metadata={op_name="jit(train_step)/transpose(jvp())/while/body/closed_call" stack_frame_id=0}
  %add.1053 = f32[128]{0:T(128)} add(%div.1020, %broadcast.1082), metadata={op_name="jit(train_step)/transpose(jvp())/while/body/closed_call/checkpoint/rematted_computation/add" stack_frame_id=0}
  %bitcast.945 = f32[1,128]{1,0:T(1,128)} bitcast(%add.1053), metadata={op_name="jit(train_step)/transpose(jvp())/while/body/closed_call/checkpoint/rematted_computation/add" stack_frame_id=0}
  %rsqrt.218 = f32[1,128]{1,0:T(1,128)} rsqrt(%bitcast.945), metadata={op_name="jit(train_step)/transpose(jvp())/while/body/closed_call/checkpoint/rematted_computation/rsqrt" stack_frame_id=0}
  %div.1019 = f32[1,128]{1,0:T(1,128)} divide(%rsqrt.218, %bitcast.945), metadata={op_name="jit(train_step)/transpose(jvp())/while/body/closed_call/checkpoint/rematted_computation/div" stack_frame_id=0}
  %constant.1662 = f32[]{:T(128)} constant(-0.5)
  %closed_call.70 = f32[1,128]{1,0:T(1,128)} broadcast(%constant.1662), dimensions={}, metadata={op_name="jit(train_step)/transpose(jvp())/while/body/closed_call" stack_frame_id=0}
  %mul.2334 = f32[1,128]{1,0:T(1,128)} multiply(%div.1019, %closed_call.70), metadata={op_name="jit(train_step)/transpose(jvp())/while/body/closed_call/checkpoint/rematted_computation/mul" stack_frame_id=0}
  %mul.2333 = f32[1,128]{1,0:T(1,128)} multiply(%bitcast.946, %mul.2334), metadata={op_name="jit(train_step)/transpose(jvp())/while/body/closed_call/checkpoint/mul" stack_frame_id=0}
  %constant.1661 = f32[]{:T(128)} constant(0.0009765625)
  %mul.2335 = f32[1,128]{1,0:T(1,128)} broadcast(%constant.1661), dimensions={}, metadata={op_name="jit(train_step)/transpose(jvp())/while/body/closed_call/checkpoint/mul" stack_frame_id=0}
  %mul.2332 = f32[1,128]{1,0:T(1,128)} multiply(%mul.2333, %mul.2335), metadata={op_name="jit(train_step)/transpose(jvp())/while/body/closed_call/checkpoint/mul" stack_frame_id=0}
  ROOT %bitcast.944 = f32[128]{0:T(128)S(1)} bitcast(%mul.2332), metadata={op_name="jit(train_step)/transpose(jvp())/while/body/closed_call/checkpoint/mul" stack_frame_id=0}
}

%region_23.27 (dot_general.209: bf16[], dot_general.210: bf16[]) -> bf16[] {
  %dot_general.209 = bf16[]{:T(256)} parameter(0), metadata={op_name="jit(train_step)/transpose(jvp())/while/body/closed_call/checkpoint/...k,k->...k/dot_general"}
  %dot_general.210 = bf16[]{:T(256)} parameter(1), metadata={op_name="jit(train_step)/transpose(jvp())/while/body/closed_call/checkpoint/...k,k->...k/dot_general"}
  ROOT %add.418 = bf16[]{:T(256)} add(%dot_general.209, %dot_general.210), metadata={op_name="add.70"}, backend_config={"flag_configs":[],"scoped_memory_configs":[],"used_scoped_memory_configs":[],"aliasing_operands":{"lists":[]}}
}

%fused_computation.230.clone.clone (param_0.1750: bf16[1,128,2048], param_1.1853: f32[128], param_2.1414: bf16[1,128,2048], param_3.935: bf16[1,128,2048], param_4.553: f32[128], param_5.483: bf16[2048]) -> (bf16[2048], bf16[1,128,2048]) {
  %param_0.1750 = bf16[1,128,2048]{2,1,0:T(8,128)(2,1)S(1)} parameter(0)
  %param_2.1414 = bf16[1,128,2048]{2,1,0:T(8,128)(2,1)S(1)} parameter(2)
  %convert_element_type.1483 = f32[1,128,2048]{2,1,0:T(8,128)} convert(%param_2.1414), metadata={op_name="jit(train_step)/transpose(jvp())/while/body/closed_call/checkpoint/rematted_computation/convert_element_type" stack_frame_id=0}
  %param_1.1853 = f32[128]{0:T(128)S(1)} parameter(1)
  %mul.2337 = f32[1,128,2048]{2,1,0:T(8,128)} broadcast(%param_1.1853), dimensions={1}, metadata={op_name="jit(train_step)/transpose(jvp())/while/body/closed_call/checkpoint/rematted_computation/mul" stack_frame_id=0}
  %mul.2336 = f32[1,128,2048]{2,1,0:T(8,128)} multiply(%convert_element_type.1483, %mul.2337), metadata={op_name="jit(train_step)/transpose(jvp())/while/body/closed_call/checkpoint/rematted_computation/mul" stack_frame_id=0}
  %convert_element_type.1482 = bf16[1,128,2048]{2,1,0:T(8,128)(2,1)} convert(%mul.2336), metadata={op_name="jit(train_step)/transpose(jvp())/while/body/closed_call/checkpoint/rematted_computation/convert_element_type" stack_frame_id=0}
  %multiply.470 = bf16[1,128,2048]{2,1,0:T(8,128)(2,1)} multiply(%param_0.1750, %convert_element_type.1482), metadata={op_name="multiply.352"}
  %constant.1665 = bf16[]{:T(256)} constant(0)
  %reduce.268 = bf16[2048]{0:T(1024)(128)(2,1)} reduce(%multiply.470, %constant.1665), dimensions={0,1}, to_apply=%region_23.27, metadata={op_name="jit(train_step)/transpose(jvp())/while/body/closed_call/checkpoint/...k,k->...k/dot_general" stack_frame_id=0}
  %param_3.935 = bf16[1,128,2048]{2,1,0:T(8,128)(2,1)S(1)} parameter(3)
  %param_5.483 = bf16[2048]{0:T(1024)(128)(2,1)S(1)} parameter(5)
  %dot_general.448.clone.3 = bf16[1,128,2048]{2,1,0:T(8,128)(2,1)} broadcast(%param_5.483), dimensions={2}, metadata={op_name="jit(train_step)/transpose(jvp())/while/body/closed_call/checkpoint/rematted_computation/...k,k->...k/dot_general" stack_frame_id=0}
  %dot_general.364.clone.3 = bf16[1,128,2048]{2,1,0:T(8,128)(2,1)} multiply(%param_0.1750, %dot_general.448.clone.3), metadata={op_name="jit(train_step)/transpose(jvp())/while/body/closed_call/checkpoint/...k,k->...k/dot_general" stack_frame_id=0}
  %convert_element_type.1115.clone.3 = f32[1,128,2048]{2,1,0:T(8,128)} convert(%dot_general.364.clone.3), metadata={op_name="jit(train_step)/transpose(jvp())/while/body/closed_call/checkpoint/convert_element_type" stack_frame_id=0}
  %mul.1579.clone.3 = f32[1,128,2048]{2,1,0:T(8,128)} multiply(%convert_element_type.1115.clone.3, %mul.2337), metadata={op_name="jit(train_step)/transpose(jvp())/while/body/closed_call/checkpoint/mul" stack_frame_id=0}
  %param_4.553 = f32[128]{0:T(128)S(1)} parameter(4)
  %mul.1598.clone.3 = f32[1,128,2048]{2,1,0:T(8,128)} broadcast(%param_4.553), dimensions={1}, metadata={op_name="jit(train_step)/transpose(jvp())/while/body/closed_call/checkpoint/mul" stack_frame_id=0}
  %mul.1578.clone.3 = f32[1,128,2048]{2,1,0:T(8,128)} multiply(%convert_element_type.1483, %mul.1598.clone.3), metadata={op_name="jit(train_step)/transpose(jvp())/while/body/closed_call/checkpoint/mul" stack_frame_id=0}
  %add_any.171.clone.3 = f32[1,128,2048]{2,1,0:T(8,128)} add(%mul.1579.clone.3, %mul.1578.clone.3), metadata={op_name="jit(train_step)/transpose(jvp())/while/body/closed_call/checkpoint/add_any" stack_frame_id=0}
  %convert_element_type.1113.clone.3 = bf16[1,128,2048]{2,1,0:T(8,128)(2,1)} convert(%add_any.171.clone.3), metadata={op_name="jit(train_step)/transpose(jvp())/while/body/closed_call/checkpoint/convert_element_type" stack_frame_id=0}
  %add_any.169.clone.3 = bf16[1,128,2048]{2,1,0:T(8,128)(2,1)S(1)} add(%param_3.935, %convert_element_type.1113.clone.3), metadata={op_name="jit(train_step)/transpose(jvp())/while/body/closed_call/checkpoint/add_any" stack_frame_id=0}
  ROOT %tuple.227 = (bf16[2048]{0:T(1024)(128)(2,1)}, bf16[1,128,2048]{2,1,0:T(8,128)(2,1)S(1)}) tuple(%reduce.268, %add_any.169.clone.3)
}

%fused_computation.255.clone.clone (param_0.1777: bf16[8,128,128], param_1.1871: bf16[128,128]) -> bf16[1,128,8,128] {
  %param_0.1777 = bf16[8,128,128]{2,1,0:T(8,128)(2,1)S(1)} parameter(0)
  %bitcast.973 = bf16[1,8,128,128]{3,2,1,0:T(8,128)(2,1)} bitcast(%param_0.1777), metadata={op_name="jit(train_step)/transpose(jvp())/while/body/closed_call/checkpoint/shard_map/vmap(jit(_splash_attention))/splash_mha_dkv_segmented_no_residuals/splash_mha_dkv_segmented_no_residuals/broadcast_in_dim" stack_frame_id=0}
  %param_1.1871 = bf16[128,128]{1,0:T(8,128)(2,1)S(1)} parameter(1)
  %broadcast.1087 = bf16[1,8,128,128]{3,2,1,0:T(8,128)(2,1)} broadcast(%param_1.1871), dimensions={2,3}, metadata={op_name="jit(train_step)/transpose(jvp())/while/body/closed_call/checkpoint/rematted_computation/mul" stack_frame_id=0}
  %mul.2359 = bf16[1,8,128,128]{3,2,1,0:T(8,128)(2,1)} multiply(%bitcast.973, %broadcast.1087), metadata={op_name="jit(train_step)/transpose(jvp())/while/body/closed_call/checkpoint/mul" stack_frame_id=0}
  ROOT %bitcast.972 = bf16[1,128,8,128]{3,1,2,0:T(8,128)(2,1)S(1)} bitcast(%mul.2359), metadata={op_name="jit(train_step)/transpose(jvp())/while/body/closed_call/checkpoint/mul" stack_frame_id=0}
}

%fused_computation.490.clone.clone (param_0.1778: bf16[1,128,8,128]) -> (bf16[1,128,8,64], bf16[1,128,8,64]) {
  %param_0.1778 = bf16[1,128,8,128]{3,1,2,0:T(8,128)(2,1)S(1)} parameter(0)
  %slice.79 = bf16[1,128,8,64]{3,1,2,0:T(8,128)(2,1)S(1)} slice(%param_0.1778), slice={[0:1], [0:128], [0:8], [64:128]}, metadata={op_name="jit(train_step)/transpose(jvp())/while/body/closed_call/checkpoint/split" stack_frame_id=0}
  %slice.52.clone.3 = bf16[1,128,8,64]{3,1,2,0:T(8,128)(2,1)} slice(%param_0.1778), slice={[0:1], [0:128], [0:8], [0:64]}, metadata={op_name="jit(train_step)/transpose(jvp())/while/body/closed_call/checkpoint/split" stack_frame_id=0}
  %neg.100.clone.3 = bf16[1,128,8,64]{3,1,2,0:T(8,128)(2,1)S(1)} negate(%slice.52.clone.3), metadata={op_name="jit(train_step)/transpose(jvp())/while/body/closed_call/checkpoint/neg" stack_frame_id=0}
  ROOT %tuple.234 = (bf16[1,128,8,64]{3,1,2,0:T(8,128)(2,1)S(1)}, bf16[1,128,8,64]{3,1,2,0:T(8,128)(2,1)S(1)}) tuple(%slice.79, %neg.100.clone.3)
}

%region_25.29 (dot_general.213: bf16[], dot_general.214: bf16[]) -> bf16[] {
  %dot_general.213 = bf16[]{:T(256)} parameter(0), metadata={op_name="jit(train_step)/transpose(jvp())/while/body/closed_call/checkpoint/...k,k->...k/dot_general"}
  %dot_general.214 = bf16[]{:T(256)} parameter(1), metadata={op_name="jit(train_step)/transpose(jvp())/while/body/closed_call/checkpoint/...k,k->...k/dot_general"}
  ROOT %add.420 = bf16[]{:T(256)} add(%dot_general.213, %dot_general.214), metadata={op_name="add.72"}, backend_config={"flag_configs":[],"scoped_memory_configs":[],"used_scoped_memory_configs":[],"aliasing_operands":{"lists":[]}}
}

%fused_computation.256.clone.clone (param_0.1779: f32[1,128,8,128], param_1.1872: f32[128,8], param_2.1428: bf16[128,128], param_3.943: bf16[8,128,128], param_4.559: bf16[1,128,8,64], param_5.486: bf16[1,128,8,64]) -> (bf16[128], bf16[1,128,8,128]) {
  %param_5.486 = bf16[1,128,8,64]{3,1,2,0:T(8,128)(2,1)S(1)} parameter(5)
  %constant.1375.clone.3 = bf16[]{:T(256)} constant(-inf)
  %pad.61.clone.3 = bf16[1,128,8,128]{3,1,2,0:T(8,128)(2,1)} pad(%param_5.486, %constant.1375.clone.3), padding=0_0x0_0x0_0x0_64, metadata={op_name="jit(train_step)/transpose(jvp())/while/body/closed_call/checkpoint/concatenate" stack_frame_id=0}
  %param_4.559 = bf16[1,128,8,64]{3,1,2,0:T(8,128)(2,1)S(1)} parameter(4)
  %pad.60.clone.3 = bf16[1,128,8,128]{3,1,2,0:T(8,128)(2,1)} pad(%param_4.559, %constant.1375.clone.3), padding=0_0x0_0x0_0x64_0, metadata={op_name="jit(train_step)/transpose(jvp())/while/body/closed_call/checkpoint/concatenate" stack_frame_id=0}
  %maximum.49.clone.3 = bf16[1,128,8,128]{3,1,2,0:T(8,128)(2,1)} maximum(%pad.61.clone.3, %pad.60.clone.3), metadata={op_name="jit(train_step)/transpose(jvp())/while/body/closed_call/checkpoint/concatenate" stack_frame_id=0}
  %param_3.943 = bf16[8,128,128]{2,1,0:T(8,128)(2,1)S(1)} parameter(3)
  %bitcast.683.clone.3 = bf16[1,8,128,128]{3,2,1,0:T(8,128)(2,1)} bitcast(%param_3.943), metadata={op_name="jit(train_step)/transpose(jvp())/while/body/closed_call/checkpoint/shard_map/vmap(jit(_splash_attention))/splash_mha_dkv_segmented_no_residuals/splash_mha_dkv_segmented_no_residuals/broadcast_in_dim" stack_frame_id=0}
  %param_2.1428 = bf16[128,128]{1,0:T(8,128)(2,1)S(1)} parameter(2)
  %broadcast.985.clone.3 = bf16[1,8,128,128]{3,2,1,0:T(8,128)(2,1)} broadcast(%param_2.1428), dimensions={2,3}, metadata={op_name="jit(train_step)/transpose(jvp())/while/body/closed_call/checkpoint/rematted_computation/mul" stack_frame_id=0}
  %mul.1995.clone.3 = bf16[1,8,128,128]{3,2,1,0:T(8,128)(2,1)} multiply(%bitcast.683.clone.3, %broadcast.985.clone.3), metadata={op_name="jit(train_step)/transpose(jvp())/while/body/closed_call/checkpoint/mul" stack_frame_id=0}
  %bitcast.682.clone.3 = bf16[1,128,8,128]{3,1,2,0:T(8,128)(2,1)} bitcast(%mul.1995.clone.3), metadata={op_name="jit(train_step)/transpose(jvp())/while/body/closed_call/checkpoint/mul" stack_frame_id=0}
  %add_any.195.clone.3 = bf16[1,128,8,128]{3,1,2,0:T(8,128)(2,1)S(1)} add(%maximum.49.clone.3, %bitcast.682.clone.3), metadata={op_name="jit(train_step)/transpose(jvp())/while/body/closed_call/checkpoint/add_any" stack_frame_id=0}
  %param_0.1779 = f32[1,128,8,128]{3,1,2,0:T(8,128)S(1)} parameter(0)
  %param_1.1872 = f32[128,8]{0,1:T(8,128)S(1)} parameter(1)
  %mul.2361 = f32[1,128,8,128]{3,1,2,0:T(8,128)} broadcast(%param_1.1872), dimensions={1,2}, metadata={op_name="jit(train_step)/transpose(jvp())/while/body/closed_call/checkpoint/rematted_computation/mul" stack_frame_id=0}
  %mul.2360 = f32[1,128,8,128]{3,1,2,0:T(8,128)} multiply(%param_0.1779, %mul.2361), metadata={op_name="jit(train_step)/transpose(jvp())/while/body/closed_call/checkpoint/rematted_computation/mul" stack_frame_id=0}
  %convert_element_type.1497 = bf16[1,128,8,128]{3,1,2,0:T(8,128)(2,1)} convert(%mul.2360), metadata={op_name="jit(train_step)/transpose(jvp())/while/body/closed_call/checkpoint/rematted_computation/convert_element_type" stack_frame_id=0}
  %multiply.475 = bf16[1,128,8,128]{3,1,2,0:T(8,128)(2,1)} multiply(%add_any.195.clone.3, %convert_element_type.1497), metadata={op_name="multiply.355"}
  %constant.1683 = bf16[]{:T(256)} constant(0)
  %reduce.271 = bf16[128]{0:T(256)(128)(2,1)} reduce(%multiply.475, %constant.1683), dimensions={0,1,2}, to_apply=%region_25.29, metadata={op_name="jit(train_step)/transpose(jvp())/while/body/closed_call/checkpoint/...k,k->...k/dot_general" stack_frame_id=0}
  ROOT %tuple.235 = (bf16[128]{0:T(256)(128)(2,1)}, bf16[1,128,8,128]{3,1,2,0:T(8,128)(2,1)S(1)}) tuple(%reduce.271, %add_any.195.clone.3)
}

%region_20.24 (reduce_sum.228: f32[], reduce_sum.232: f32[]) -> f32[] {
  %reduce_sum.228 = f32[]{:T(128)} parameter(0), metadata={op_name="jit(train_step)/transpose(jvp())/while/body/closed_call/checkpoint/reduce_sum"}
  %reduce_sum.232 = f32[]{:T(128)} parameter(1), metadata={op_name="jit(train_step)/transpose(jvp())/while/body/closed_call/checkpoint/reduce_sum"}
  ROOT %reduce_sum.233 = f32[]{:T(128)} add(%reduce_sum.228, %reduce_sum.232), metadata={op_name="checkpoint/reduce_sum" stack_frame_id=0}, backend_config={"flag_configs":[],"scoped_memory_configs":[],"used_scoped_memory_configs":[],"aliasing_operands":{"lists":[]}}
}

%fused_computation.193.clone.clone (param_0.1780: f32[1,128,8,128], param_1.1873: bf16[1,128,8,128], param_2.1429: bf16[128]) -> f32[128,8] {
  %param_0.1780 = f32[1,128,8,128]{3,1,2,0:T(8,128)S(1)} parameter(0)
  %param_1.1873 = bf16[1,128,8,128]{3,1,2,0:T(8,128)(2,1)S(1)} parameter(1)
  %param_2.1429 = bf16[128]{0:T(256)(128)(2,1)S(1)} parameter(2)
  %dot_general.616 = bf16[1,128,8,128]{3,1,2,0:T(8,128)(2,1)} broadcast(%param_2.1429), dimensions={3}, metadata={op_name="jit(train_step)/transpose(jvp())/while/body/closed_call/checkpoint/rematted_computation/...k,k->...k/dot_general" stack_frame_id=0}
  %dot_general.615 = bf16[1,128,8,128]{3,1,2,0:T(8,128)(2,1)} multiply(%param_1.1873, %dot_general.616), metadata={op_name="jit(train_step)/transpose(jvp())/while/body/closed_call/checkpoint/...k,k->...k/dot_general" stack_frame_id=0}
  %convert_element_type.1498 = f32[1,128,8,128]{3,1,2,0:T(8,128)} convert(%dot_general.615), metadata={op_name="jit(train_step)/transpose(jvp())/while/body/closed_call/checkpoint/convert_element_type" stack_frame_id=0}
  %mul.2362 = f32[1,128,8,128]{3,1,2,0:T(8,128)} multiply(%param_0.1780, %convert_element_type.1498), metadata={op_name="jit(train_step)/transpose(jvp())/while/body/closed_call/checkpoint/mul" stack_frame_id=0}
  %constant.1684 = f32[]{:T(128)} constant(0)
  ROOT %reduce.272 = f32[128,8]{0,1:T(8,128)S(1)} reduce(%mul.2362, %constant.1684), dimensions={0,3}, to_apply=%region_20.24, metadata={op_name="jit(train_step)/transpose(jvp())/while/body/closed_call/checkpoint/reduce_sum" stack_frame_id=0}
}

%fused_computation.292.clone.clone (param_0.1781: f32[128,8], param_1.1874: f32[128,8]) -> f32[128,8] {
  %param_0.1781 = f32[128,8]{0,1:T(8,128)S(1)} parameter(0)
