HloModule jit_train_step, is_scheduled=true, input_output_alias={ {0}: (0, {}, may-alias), {1}: (1, {}, may-alias), {2}: (2, {}, may-alias), {3}: (3, {}, may-alias), {4}: (4, {}, may-alias), {5}: (5, {}, may-alias), {6}: (6, {}, may-alias), {7}: (7, {}, may-alias), {8}: (8, {}, may-alias), {9}: (9, {}, may-alias), {10}: (10, {}, may-alias), {11}: (11, {}, may-alias), {12}: (12, {}, may-alias), {13}: (13, {}, may-alias), {14}: (14, {}, may-alias), {15}: (15, {}, may-alias), {16}: (16, {}, may-alias), {17}: (17, {}, may-alias), {18}: (18, {}, may-alias), {19}: (19, {}, may-alias), {20}: (20, {}, may-alias), {21}: (21, {}, may-alias), {22}: (22, {}, may-alias), {23}: (23, {}, may-alias), {24}: (24, {}, may-alias), {25}: (25, {}, may-alias), {26}: (26, {}, may-alias), {27}: (27, {}, may-alias), {28}: (28, {}, may-alias), {29}: (29, {}, may-alias), {30}: (30, {}, may-alias), {31}: (31, {}, may-alias), {32}: (32, {}, may-alias), {33}: (33, {}, may-alias), {34}: (34, {}, may-alias), {35}: (35, {}, may-alias), {36}: (36, {}, may-alias), {37}: (37, {}, may-alias), {38}: (38, {}, may-alias), {39}: (39, {}, may-alias), {40}: (40, {}, may-alias), {41}: (41, {}, may-alias), {42}: (42, {}, may-alias), {43}: (43, {}, may-alias), {44}: (44, {}, may-alias), {45}: (45, {}, may-alias), {46}: (46, {}, may-alias), {47}: (47, {}, may-alias), {48}: (48, {}, may-alias), {49}: (49, {}, may-alias), {50}: (50, {}, may-alias), {51}: (51, {}, may-alias), {52}: (52, {}, may-alias), {53}: (53, {}, may-alias), {54}: (54, {}, may-alias), {55}: (55, {}, may-alias), {56}: (56, {}, may-alias), {57}: (57, {}, may-alias), {58}: (58, {}, may-alias), {59}: (59, {}, may-alias), {60}: (60, {}, may-alias), {61}: (61, {}, may-alias), {62}: (62, {}, may-alias), {63}: (63, {}, may-alias), {64}: (64, {}, may-alias), {65}: (65, {}, may-alias) }, entry_computation_layout={(f32[2048]{0:T(1024)}, u32[]{:T(128)}, u32[4]{0:T(128)}, u32[]{:T(128)}, u32[4]{0:T(128)}, /*index=5*/u32[]{:T(128)}, u32[4]{0:T(128)}, u32[4]{0:T(128)}, u32[4,4]{1,0:T(4,128)}, u32[4]{0:T(128)}, /*index=10*/u32[4,4]{1,0:T(4,128)}, u32[4]{0:T(128)}, u32[4,4]{1,0:T(4,128)}, f32[512,4,6144]{2,1,0:T(4,128)}, f32[512,4,6144]{2,1,0:T(4,128)}, /*index=15*/f32[6144,4,512]{2,1,0:T(4,128)}, f32[2048,4]{0,1:T(4,128)}, f32[2048,4]{0,1:T(4,128)}, u32[4]{0:T(128)}, u32[4,4]{1,0:T(4,128)}, /*index=20*/u32[4]{0:T(128)}, u32[4,4]{1,0:T(4,128)}, u32[4]{0:T(128)}, u32[4,4]{1,0:T(4,128)}, f32[512,4,8,128]{3,2,1,0:T(8,128)}, /*index=25*/f32[128,4]{0,1:T(4,128)}, f32[16,4,128,512]{3,2,1,0:T(8,128)}, f32[512,4,16,128]{3,2,1,0:T(8,128)}, f32[128,4]{0,1:T(4,128)}, f32[512,4,8,128]{3,2,1,0:T(8,128)}, /*index=30*/u32[]{:T(128)}, u32[4]{0:T(128)}, u32[]{:T(128)}, u32[4]{0:T(128)}, u32[]{:T(128)}, /*index=35*/u32[4]{0:T(128)}, f32[151936,512]{1,0:T(8,128)}, s32[]{:T(128)}, f32[2048]{0:T(1024)}, f32[512,4,6144]{2,1,0:T(4,128)}, /*index=40*/f32[512,4,6144]{2,1,0:T(4,128)}, f32[6144,4,512]{2,1,0:T(4,128)}, f32[2048,4]{0,1:T(4,128)}, f32[2048,4]{0,1:T(4,128)}, f32[512,4,8,128]{3,2,1,0:T(8,128)}, /*index=45*/f32[128,4]{0,1:T(4,128)}, f32[16,4,128,512]{3,2,1,0:T(8,128)}, f32[512,4,16,128]{3,2,1,0:T(8,128)}, f32[128,4]{0,1:T(4,128)}, f32[512,4,8,128]{3,2,1,0:T(8,128)}, /*index=50*/f32[151936,512]{1,0:T(8,128)}, f32[2048]{0:T(1024)}, f32[512,4,6144]{2,1,0:T(4,128)}, f32[512,4,6144]{2,1,0:T(4,128)}, f32[6144,4,512]{2,1,0:T(4,128)}, /*index=55*/f32[2048,4]{0,1:T(4,128)}, f32[2048,4]{0,1:T(4,128)}, f32[512,4,8,128]{3,2,1,0:T(8,128)}, f32[128,4]{0,1:T(4,128)}, f32[16,4,128,512]{3,2,1,0:T(8,128)}, /*index=60*/f32[512,4,16,128]{3,2,1,0:T(8,128)}, f32[128,4]{0,1:T(4,128)}, f32[512,4,8,128]{3,2,1,0:T(8,128)}, f32[151936,512]{1,0:T(8,128)}, s32[]{:T(128)}, /*index=65*/u32[]{:T(128)}, s32[1,128]{1,0:T(1,128)}, s32[1,128]{1,0:T(1,128)}, s32[1,128]{1,0:T(1,128)}, s32[1,128]{1,0:T(1,128)}, /*index=70*/s32[1,128]{1,0:T(1,128)})->(f32[2048]{0:T(1024)}, u32[]{:T(128)}, u32[4]{0:T(128)}, u32[]{:T(128)}, u32[4]{0:T(128)}, /*index=5*/u32[]{:T(128)}, u32[4]{0:T(128)}, u32[4]{0:T(128)}, u32[4,4]{1,0:T(4,128)}, u32[4]{0:T(128)}, /*index=10*/u32[4,4]{1,0:T(4,128)}, u32[4]{0:T(128)}, u32[4,4]{1,0:T(4,128)}, f32[512,4,6144]{2,1,0:T(4,128)}, f32[512,4,6144]{2,1,0:T(4,128)}, /*index=15*/f32[6144,4,512]{2,1,0:T(4,128)}, f32[2048,4]{0,1:T(4,128)}, f32[2048,4]{0,1:T(4,128)}, u32[4]{0:T(128)}, u32[4,4]{1,0:T(4,128)}, /*index=20*/u32[4]{0:T(128)}, u32[4,4]{1,0:T(4,128)}, u32[4]{0:T(128)}, u32[4,4]{1,0:T(4,128)}, f32[512,4,8,128]{3,2,1,0:T(8,128)}, /*index=25*/f32[128,4]{0,1:T(4,128)}, f32[16,4,128,512]{3,2,1,0:T(8,128)}, f32[512,4,16,128]{3,2,1,0:T(8,128)}, f32[128,4]{0,1:T(4,128)}, f32[512,4,8,128]{3,2,1,0:T(8,128)}, /*index=30*/u32[]{:T(128)}, u32[4]{0:T(128)}, u32[]{:T(128)}, u32[4]{0:T(128)}, u32[]{:T(128)}, /*index=35*/u32[4]{0:T(128)}, f32[151936,512]{1,0:T(8,128)}, s32[]{:T(128)}, f32[2048]{0:T(1024)}, f32[512,4,6144]{2,1,0:T(4,128)}, /*index=40*/f32[512,4,6144]{2,1,0:T(4,128)}, f32[6144,4,512]{2,1,0:T(4,128)}, f32[2048,4]{0,1:T(4,128)}, f32[2048,4]{0,1:T(4,128)}, f32[512,4,8,128]{3,2,1,0:T(8,128)}, /*index=45*/f32[128,4]{0,1:T(4,128)}, f32[16,4,128,512]{3,2,1,0:T(8,128)}, f32[512,4,16,128]{3,2,1,0:T(8,128)}, f32[128,4]{0,1:T(4,128)}, f32[512,4,8,128]{3,2,1,0:T(8,128)}, /*index=50*/f32[151936,512]{1,0:T(8,128)}, f32[2048]{0:T(1024)}, f32[512,4,6144]{2,1,0:T(4,128)}, f32[512,4,6144]{2,1,0:T(4,128)}, f32[6144,4,512]{2,1,0:T(4,128)}, /*index=55*/f32[2048,4]{0,1:T(4,128)}, f32[2048,4]{0,1:T(4,128)}, f32[512,4,8,128]{3,2,1,0:T(8,128)}, f32[128,4]{0,1:T(4,128)}, f32[16,4,128,512]{3,2,1,0:T(8,128)}, /*index=60*/f32[512,4,16,128]{3,2,1,0:T(8,128)}, f32[128,4]{0,1:T(4,128)}, f32[512,4,8,128]{3,2,1,0:T(8,128)}, f32[151936,512]{1,0:T(8,128)}, s32[]{:T(128)}, /*index=65*/u32[]{:T(128)}, f32[]{:T(128)}, f32[]{:T(128)}, f32[]{:T(128)}, f32[]{:T(128)}, /*index=70*/f32[]{:T(128)}, f32[]{:T(128)}, f32[]{:T(128)}, f32[]{:T(128)}, f32[]{:T(128)}, /*index=75*/s32[]{:T(128)}, f32[]{:T(128)})}, allow_spmd_sharding_propagation_to_parameters={false,false,false,false,false,false,false,false,false,false,false,false,false,false,false,false,false,false,false,false,false,false,false,false,false,false,false,false,false,false,false,false,false,false,false,false,false,false,false,false,false,false,false,false,false,false,false,false,false,false,false,false,false,false,false,false,false,false,false,false,false,false,false,false,false,false,false,false,false,false,false}, allow_spmd_sharding_propagation_to_output={false,false,false,false,false,false,false,false,false,false,false,false,false,false,false,false,false,false,false,false,false,false,false,false,false,false,false,false,false,false,false,false,false,false,false,false,false,false,false,false,false,false,false,false,false,false,false,false,false,false,false,false,false,false,false,false,false,false,false,false,false,false,false,false,false,false,true,true,true,true,true,true,true,true,true,true,true}, num_partitions=4

FileNames

FunctionNames

FileLocations

StackFrames


%region_7.10.clone (reduce_sum.720: s32[], reduce_sum.721: s32[]) -> s32[] {
  %reduce_sum.720 = s32[]{:T(128)} parameter(0), metadata={op_name="jit(train_step)/jvp()/reduce_sum"}
  %reduce_sum.721 = s32[]{:T(128)} parameter(1), metadata={op_name="jit(train_step)/jvp()/reduce_sum"}
  ROOT %reduce_sum.722 = s32[]{:T(128)} add(%reduce_sum.720, %reduce_sum.721), metadata={op_name="jit(train_step)/jvp()/reduce_sum" stack_frame_id=0}, backend_config={"flag_configs":[],"scoped_memory_configs":[],"used_scoped_memory_configs":[],"aliasing_operands":{"lists":[{"indices":["0","2"]}]}}
}

%add.15.clone (x.31: bf16[], y.31: bf16[]) -> bf16[] {
  %x.31 = bf16[]{:T(256)} parameter(0)
  %y.31 = bf16[]{:T(256)} parameter(1)
  ROOT %add.585 = bf16[]{:T(256)} add(%x.31, %y.31), backend_config={"flag_configs":[],"scoped_memory_configs":[],"used_scoped_memory_configs":[],"aliasing_operands":{"lists":[]}}
}

%fused_computation (param_0.2: bf16[151936,512], param_1.7: s32[1024]) -> bf16[512,512] {
  %param_0.2 = bf16[151936,512]{1,0:T(8,128)(2,1)} parameter(0)
  %param_1.7 = s32[1024]{0:T(1024)S(1)} parameter(1)
  %custom-call.1 = s32[1024]{0:T(1024)} custom-call(%param_1.7), custom_call_target="AssumeGatherIndicesInBound", operand_layout_constraints={s32[1024]{0:T(1024)}}, metadata={op_name="jit(train_step)/jvp()/gather" stack_frame_id=0}
  %slice.34 = s32[512]{0:T(512)} slice(%custom-call.1), slice={[0:512]}, metadata={op_name="jit(train_step)/jvp()/gather" stack_frame_id=0}
  %reshape.867 = s32[4,128]{1,0:T(4,128)} reshape(%slice.34), metadata={op_name="jit(train_step)/jvp()/gather" stack_frame_id=0}
  %transpose.265 = s32[4,128]{1,0:T(4,128)} transpose(%reshape.867), dimensions={0,1}, metadata={op_name="jit(train_step)/jvp()/gather" stack_frame_id=0}
  %gather.4 = bf16[4,128,512]{2,1,0:T(8,128)(2,1)} gather(%param_0.2, %transpose.265), offset_dims={2}, collapsed_slice_dims={0}, start_index_map={0}, index_vector_dim=2, slice_sizes={1,512}, metadata={op_name="jit(train_step)/jvp()/gather" stack_frame_id=0}
  %transpose.264 = bf16[4,128,512]{2,1,0:T(8,128)(2,1)} transpose(%gather.4), dimensions={0,1,2}, metadata={op_name="jit(train_step)/jvp()/gather" stack_frame_id=0}
  ROOT %reshape.866 = bf16[512,512]{1,0:T(8,128)(2,1)S(1)} reshape(%transpose.264), metadata={op_name="jit(train_step)/jvp()/gather" stack_frame_id=0}
}

%region_39.44.clone (scatter-add.6: bf16[], scatter-add.7: bf16[]) -> bf16[] {
  %scatter-add.6 = bf16[]{:T(256)} parameter(0), metadata={op_name="jit(train_step)/transpose(jvp())/scatter-add"}
  %scatter-add.7 = bf16[]{:T(256)} parameter(1), metadata={op_name="jit(train_step)/transpose(jvp())/scatter-add"}
  ROOT %add.586 = bf16[]{:T(256)} add(%scatter-add.6, %scatter-add.7), metadata={op_name="jit(train_step)/transpose(jvp())/add" stack_frame_id=0}, backend_config={"flag_configs":[],"scoped_memory_configs":[],"used_scoped_memory_configs":[],"aliasing_operands":{"lists":[]}}
}

%fused_computation.1 (param_0.3: bf16[151936,512], param_1.5: s32[512], param_2.4: bf16[512,512]) -> bf16[151936,512] {
  %param_0.3 = bf16[151936,512]{1,0:T(8,128)(2,1)} parameter(0)
  %param_1.5 = s32[512]{0:T(512)S(1)} parameter(1)
  %reshape.874 = s32[4,128]{1,0:T(4,128)} reshape(%param_1.5), metadata={op_name="jit(train_step)/transpose(jvp())/scatter-add" stack_frame_id=0}
  %transpose.270 = s32[4,128]{1,0:T(4,128)} transpose(%reshape.874), dimensions={0,1}, metadata={op_name="jit(train_step)/transpose(jvp())/scatter-add" stack_frame_id=0}
  %param_2.4 = bf16[512,512]{1,0:T(8,128)(2,1)S(1)} parameter(2)
  %reshape.875 = bf16[4,128,512]{2,1,0:T(8,128)(2,1)} reshape(%param_2.4), metadata={op_name="jit(train_step)/transpose(jvp())/scatter-add" stack_frame_id=0}
  %transpose.271 = bf16[4,128,512]{2,1,0:T(8,128)(2,1)} transpose(%reshape.875), dimensions={0,1,2}, metadata={op_name="jit(train_step)/transpose(jvp())/scatter-add" stack_frame_id=0}
  ROOT %scatter.2 = bf16[151936,512]{1,0:T(8,128)(2,1)} scatter(%param_0.3, %transpose.270, %transpose.271), update_window_dims={2}, inserted_window_dims={0}, scatter_dims_to_operand_dims={0}, index_vector_dim=2, to_apply=%region_39.44.clone, metadata={op_name="jit(train_step)/transpose(jvp())/scatter-add" stack_frame_id=0}
}

%region_68.73 (reduce_sum.569: f32[], reduce_sum.570: f32[]) -> f32[] {
  %reduce_sum.569 = f32[]{:T(128)} parameter(0), metadata={op_name="jit(train_step)/reduce_sum"}
  %reduce_sum.570 = f32[]{:T(128)} parameter(1), metadata={op_name="jit(train_step)/reduce_sum"}
  ROOT %reduce_sum.571 = f32[]{:T(128)} add(%reduce_sum.569, %reduce_sum.570), metadata={op_name="jit(train_step)/reduce_sum" stack_frame_id=0}, backend_config={"flag_configs":[],"scoped_memory_configs":[],"used_scoped_memory_configs":[],"aliasing_operands":{"lists":[]}}
}

%region_53.58 (reduce_sum.488: f32[], reduce_sum.492: f32[]) -> f32[] {
  %reduce_sum.488 = f32[]{:T(128)} parameter(0), metadata={op_name="jit(train_step)/reduce_sum"}
  %reduce_sum.492 = f32[]{:T(128)} parameter(1), metadata={op_name="jit(train_step)/reduce_sum"}
  ROOT %reduce_sum.493 = f32[]{:T(128)} add(%reduce_sum.488, %reduce_sum.492), metadata={op_name="jit(train_step)/reduce_sum" stack_frame_id=0}, backend_config={"flag_configs":[],"scoped_memory_configs":[],"used_scoped_memory_configs":[],"aliasing_operands":{"lists":[]}}
}

%fused_computation.317 (param_0.1518: f32[151936,512], param_1.1697: f32[], param_2.1309: f32[], param_3.872: f32[], param_4.510: f32[151936,512], param_5.454: f32[], param_6.312: bf16[151936,512], param_7.190: bf16[151936,2048], param_8.112: s32[], param_9.94: pred[], param_10.90: f32[151936,512]) -> (f32[], f32[151936,512], f32[151936,512], f32[151936,512], f32[]) {
  %param_0.1518 = f32[151936,512]{1,0:T(8,128)} parameter(0)
  %param_3.872 = f32[]{:T(128)S(6)} parameter(3)
  %mul.2509.clone.1 = f32[151936,512]{1,0:T(8,128)} broadcast(%param_3.872), dimensions={}, metadata={op_name="jit(train_step)/mul" stack_frame_id=0}
  %param_9.94 = pred[]{:T(512)S(6)} parameter(9)
  %select_n.288.clone.1 = pred[151936,512]{1,0:T(8,128)(4,1)} broadcast(%param_9.94), dimensions={}, metadata={op_name="jit(train_step)/select_n" stack_frame_id=0}
  %param_7.190 = bf16[151936,2048]{1,0:T(8,128)(2,1)} parameter(7)
  %constant.1386.clone.1 = s32[]{:T(128)} constant(0)
  %param_8.112 = s32[]{:T(128)S(6)} parameter(8)
  %dynamic-slice.149.clone.1 = bf16[151936,512]{1,0:T(8,128)(2,1)} dynamic-slice(%param_7.190, %constant.1386.clone.1, %param_8.112), dynamic_slice_sizes={151936,512}, metadata={op_name="jit(train_step)/transpose(jvp())/dot_general" stack_frame_id=0}, backend_config={"flag_configs":[],"scoped_memory_configs":[],"indices_config":{"index_known_bits":[{"zeroes":"4294967295","ones":"0","bitwidth":"32"},{"zeroes":"4294965759","ones":"0","bitwidth":"32"}],"is_index_aligned":[]},"used_scoped_memory_configs":[]}
  %convert_element_type.1312.clone.1 = f32[151936,512]{1,0:T(8,128)} convert(%dynamic-slice.149.clone.1), metadata={op_name="jit(train_step)/transpose(jvp())/convert_element_type" stack_frame_id=0}
  %param_6.312 = bf16[151936,512]{1,0:T(8,128)(2,1)} parameter(6)
  %convert_element_type.1311.clone.1 = f32[151936,512]{1,0:T(8,128)} convert(%param_6.312), metadata={op_name="jit(train_step)/transpose(jvp())/convert_element_type" stack_frame_id=0}
  %add_any.197.clone.1 = f32[151936,512]{1,0:T(8,128)} add(%convert_element_type.1312.clone.1, %convert_element_type.1311.clone.1), metadata={op_name="jit(train_step)/transpose(jvp())/add_any" stack_frame_id=0}
  %param_5.454 = f32[]{:T(128)} parameter(5)
  %div.920.clone.1 = f32[151936,512]{1,0:T(8,128)} broadcast(%param_5.454), dimensions={}, metadata={op_name="jit(train_step)/div" stack_frame_id=0}
  %div.919.clone.1 = f32[151936,512]{1,0:T(8,128)} divide(%add_any.197.clone.1, %div.920.clone.1), metadata={op_name="jit(train_step)/div" stack_frame_id=0}
  %select_n.287.clone.1 = f32[151936,512]{1,0:T(8,128)} select(%select_n.288.clone.1, %add_any.197.clone.1, %div.919.clone.1), metadata={op_name="jit(train_step)/select_n" stack_frame_id=0}
  %constant.1384.clone.1 = f32[]{:T(128)} constant(0.1)
  %broadcast.906.clone.1 = f32[151936,512]{1,0:T(8,128)} broadcast(%constant.1384.clone.1), dimensions={}, metadata={op_name="broadcast.76"}
  %mul.2515.clone.1 = f32[151936,512]{1,0:T(8,128)} multiply(%select_n.287.clone.1, %broadcast.906.clone.1), metadata={op_name="jit(train_step)/mul" stack_frame_id=0}
  %param_10.90 = f32[151936,512]{1,0:T(8,128)} parameter(10)
  %constant.1390.clone.1 = f32[]{:T(128)} constant(0.9)
  %mul.2516.clone.1 = f32[151936,512]{1,0:T(8,128)} broadcast(%constant.1390.clone.1), dimensions={}, metadata={op_name="jit(train_step)/mul" stack_frame_id=0}
  %mul.2514.clone.1 = f32[151936,512]{1,0:T(8,128)} multiply(%param_10.90, %mul.2516.clone.1), metadata={op_name="jit(train_step)/mul" stack_frame_id=0}
  %add.950.clone.1 = f32[151936,512]{1,0:T(8,128)} add(%mul.2515.clone.1, %mul.2514.clone.1), metadata={op_name="jit(train_step)/add" stack_frame_id=0}
  %param_2.1309 = f32[]{:T(128)S(6)} parameter(2)
  %div.916.clone.1 = f32[151936,512]{1,0:T(8,128)} broadcast(%param_2.1309), dimensions={}, metadata={op_name="jit(train_step)/div" stack_frame_id=0}
  %integer_pow.70.clone.1 = f32[151936,512]{1,0:T(8,128)} multiply(%select_n.287.clone.1, %select_n.287.clone.1), metadata={op_name="jit(train_step)/integer_pow" stack_frame_id=0}
  %constant.1388.clone.1 = f32[]{:T(128)} constant(0.05)
  %mul.2513.clone.1 = f32[151936,512]{1,0:T(8,128)} broadcast(%constant.1388.clone.1), dimensions={}, metadata={op_name="jit(train_step)/mul" stack_frame_id=0}
  %mul.2511.clone.1 = f32[151936,512]{1,0:T(8,128)} multiply(%integer_pow.70.clone.1, %mul.2513.clone.1), metadata={op_name="jit(train_step)/mul" stack_frame_id=0}
  %param_4.510 = f32[151936,512]{1,0:T(8,128)} parameter(4)
  %constant.1387.clone.1 = f32[]{:T(128)} constant(0.95)
  %mul.2512.clone.1 = f32[151936,512]{1,0:T(8,128)} broadcast(%constant.1387.clone.1), dimensions={}, metadata={op_name="jit(train_step)/mul" stack_frame_id=0}
  %mul.2510.clone.1 = f32[151936,512]{1,0:T(8,128)} multiply(%param_4.510, %mul.2512.clone.1), metadata={op_name="jit(train_step)/mul" stack_frame_id=0}
  %add.949.clone.1 = f32[151936,512]{1,0:T(8,128)} add(%mul.2511.clone.1, %mul.2510.clone.1), metadata={op_name="jit(train_step)/add" stack_frame_id=0}
  %param_1.1697 = f32[]{:T(128)S(6)} parameter(1)
  %div.915.clone.1 = f32[151936,512]{1,0:T(8,128)} broadcast(%param_1.1697), dimensions={}, metadata={op_name="jit(train_step)/div" stack_frame_id=0}
  %div.914.clone.1 = f32[151936,512]{1,0:T(8,128)} divide(%add.949.clone.1, %div.915.clone.1), metadata={op_name="jit(train_step)/div" stack_frame_id=0}
  %sqrt.67.clone.1 = f32[151936,512]{1,0:T(8,128)} sqrt(%div.914.clone.1), metadata={op_name="jit(train_step)/sqrt" stack_frame_id=0}
  %constant.1385.clone.1 = f32[]{:T(128)} constant(1e-08)
  %add.948.clone.1 = f32[151936,512]{1,0:T(8,128)} broadcast(%constant.1385.clone.1), dimensions={}, metadata={op_name="jit(train_step)/add" stack_frame_id=0}
  %add.947.clone.1 = f32[151936,512]{1,0:T(8,128)} add(%sqrt.67.clone.1, %add.948.clone.1), metadata={op_name="jit(train_step)/add" stack_frame_id=0}
  %multiply.316.clone.1 = f32[151936,512]{1,0:T(8,128)} multiply(%div.916.clone.1, %add.947.clone.1), metadata={op_name="multiply.45"}
  %div.913.clone.1 = f32[151936,512]{1,0:T(8,128)} divide(%add.950.clone.1, %multiply.316.clone.1), metadata={op_name="jit(train_step)/div" stack_frame_id=0}
  %mul.2508.clone.1 = f32[151936,512]{1,0:T(8,128)} multiply(%param_0.1518, %broadcast.906.clone.1), metadata={op_name="jit(train_step)/mul" stack_frame_id=0}
  %add.946.clone.1 = f32[151936,512]{1,0:T(8,128)} add(%div.913.clone.1, %mul.2508.clone.1), metadata={op_name="jit(train_step)/add" stack_frame_id=0}
  %mul.2507.clone.1 = f32[151936,512]{1,0:T(8,128)} multiply(%mul.2509.clone.1, %add.946.clone.1), metadata={op_name="jit(train_step)/mul" stack_frame_id=0}
  %add.945.clone.1 = f32[151936,512]{1,0:T(8,128)} add(%param_0.1518, %mul.2507.clone.1), metadata={op_name="jit(train_step)/add" stack_frame_id=0}
  %square.211 = f32[151936,512]{1,0:T(8,128)} multiply(%add.945.clone.1, %add.945.clone.1), metadata={op_name="jit(train_step)/square" stack_frame_id=0}
  %constant.1445 = f32[]{:T(128)} constant(0)
  %reduce.125 = f32[]{:T(128)} reduce(%square.211, %constant.1445), dimensions={0,1}, to_apply=%region_68.73, metadata={op_name="jit(train_step)/reduce_sum" stack_frame_id=0}
  %reduce.127.clone.1 = f32[]{:T(128)} reduce(%integer_pow.70.clone.1, %constant.1445), dimensions={0,1}, to_apply=%region_53.58, metadata={op_name="jit(train_step)/reduce_sum" stack_frame_id=0}
  ROOT %tuple.150 = (f32[]{:T(128)}, f32[151936,512]{1,0:T(8,128)}, f32[151936,512]{1,0:T(8,128)}, f32[151936,512]{1,0:T(8,128)}, f32[]{:T(128)}) tuple(%reduce.125, %add.945.clone.1, %add.949.clone.1, %add.950.clone.1, %reduce.127.clone.1)
}

%region_40.45 (reduce_sum.422: f32[], reduce_sum.423: f32[]) -> f32[] {
  %reduce_sum.422 = f32[]{:T(128)} parameter(0), metadata={op_name="jit(train_step)/reduce_sum"}
  %reduce_sum.423 = f32[]{:T(128)} parameter(1), metadata={op_name="jit(train_step)/reduce_sum"}
  ROOT %reduce_sum.424 = f32[]{:T(128)} add(%reduce_sum.422, %reduce_sum.423), metadata={op_name="jit(train_step)/reduce_sum" stack_frame_id=0}, backend_config={"flag_configs":[],"scoped_memory_configs":[],"used_scoped_memory_configs":[],"aliasing_operands":{"lists":[]}}
}

%fused_computation.321 (param_0.1534: bf16[151936,512], param_1.1711: bf16[151936,2048], param_2.1322: s32[]) -> f32[] {
  %param_1.1711 = bf16[151936,2048]{1,0:T(8,128)(2,1)} parameter(1)
  %constant.1214 = s32[]{:T(128)} constant(0)
  %param_2.1322 = s32[]{:T(128)S(6)} parameter(2)
  %dynamic-slice.135 = bf16[151936,512]{1,0:T(8,128)(2,1)} dynamic-slice(%param_1.1711, %constant.1214, %param_2.1322), dynamic_slice_sizes={151936,512}, metadata={op_name="jit(train_step)/transpose(jvp())/dot_general" stack_frame_id=0}, backend_config={"flag_configs":[],"scoped_memory_configs":[],"indices_config":{"index_known_bits":[{"zeroes":"4294967295","ones":"0","bitwidth":"32"},{"zeroes":"4294965759","ones":"0","bitwidth":"32"}],"is_index_aligned":[]},"used_scoped_memory_configs":[]}
  %convert_element_type.1203 = f32[151936,512]{1,0:T(8,128)} convert(%dynamic-slice.135), metadata={op_name="jit(train_step)/transpose(jvp())/convert_element_type" stack_frame_id=0}
  %param_0.1534 = bf16[151936,512]{1,0:T(8,128)(2,1)} parameter(0)
  %convert_element_type.1202 = f32[151936,512]{1,0:T(8,128)} convert(%param_0.1534), metadata={op_name="jit(train_step)/transpose(jvp())/convert_element_type" stack_frame_id=0}
  %add_any.184 = f32[151936,512]{1,0:T(8,128)} add(%convert_element_type.1203, %convert_element_type.1202), metadata={op_name="jit(train_step)/transpose(jvp())/add_any" stack_frame_id=0}
  %square.212 = f32[151936,512]{1,0:T(8,128)} multiply(%add_any.184, %add_any.184), metadata={op_name="jit(train_step)/square" stack_frame_id=0}
  %constant.1461 = f32[]{:T(128)} constant(0)
  ROOT %reduce.126 = f32[]{:T(128)} reduce(%square.212, %constant.1461), dimensions={0,1}, to_apply=%region_40.45, metadata={op_name="jit(train_step)/reduce_sum" stack_frame_id=0}
}

%region_9.12 (reduce_sum.237: f32[], reduce_sum.241: f32[]) -> f32[] {
  %reduce_sum.237 = f32[]{:T(128)} parameter(0), metadata={op_name="jit(train_step)/jvp()/reduce_sum"}
  %reduce_sum.241 = f32[]{:T(128)} parameter(1), metadata={op_name="jit(train_step)/jvp()/reduce_sum"}
  ROOT %reduce_sum.262 = f32[]{:T(128)} add(%reduce_sum.237, %reduce_sum.241), metadata={op_name="jit(train_step)/jvp()/reduce_sum" stack_frame_id=0}, backend_config={"flag_configs":[],"scoped_memory_configs":[],"used_scoped_memory_configs":[],"aliasing_operands":{"lists":[]}}
}

%fused_computation.328 (param_0.1544: bf16[128,151936], param_1.1718: bf16[128]) -> f32[128] {
  %param_0.1544 = bf16[128,151936]{1,0:T(8,128)(2,1)S(1)} parameter(0)
  %convert_element_type.1224 = f32[128,151936]{1,0:T(8,128)} convert(%param_0.1544), metadata={op_name="jit(train_step)/jvp()/convert_element_type" stack_frame_id=0}
  %bitcast.520 = f32[1,128,151936]{2,1,0:T(8,128)} bitcast(%convert_element_type.1224), metadata={op_name="jit(train_step)/jvp()/convert_element_type" stack_frame_id=0}
  %param_1.1718 = bf16[128]{0:T(256)(128)(2,1)S(1)} parameter(1)
  %sub.100 = f32[1,128,151936]{2,1,0:T(8,128)} broadcast(%param_1.1718), dimensions={1}, metadata={op_name="jit(train_step)/jvp()/sub" stack_frame_id=0}
  %sub.71 = f32[1,128,151936]{2,1,0:T(8,128)} subtract(%bitcast.520, %sub.100), metadata={op_name="jit(train_step)/jvp()/sub" stack_frame_id=0}
  %exp.51 = f32[1,128,151936]{2,1,0:T(8,128)} exponential(%sub.71), metadata={op_name="jit(train_step)/jvp()/exp" stack_frame_id=0}
  %constant.1472 = f32[]{:T(128)} constant(0)
  ROOT %reduce.128 = f32[128]{0:T(128)S(1)} reduce(%exp.51, %constant.1472), dimensions={0,2}, to_apply=%region_9.12, metadata={op_name="jit(train_step)/jvp()/reduce_sum" stack_frame_id=0}
}

%region_54.59 (reduce_sum.494: f32[], reduce_sum.495: f32[]) -> f32[] {
  %reduce_sum.494 = f32[]{:T(128)} parameter(0), metadata={op_name="jit(train_step)/jvp()/reduce_sum"}
  %reduce_sum.495 = f32[]{:T(128)} parameter(1), metadata={op_name="jit(train_step)/jvp()/reduce_sum"}
  ROOT %reduce_sum.499 = f32[]{:T(128)} add(%reduce_sum.494, %reduce_sum.495), metadata={op_name="jit(train_step)/jvp()/reduce_sum" stack_frame_id=0}, backend_config={"flag_configs":[],"scoped_memory_configs":[],"used_scoped_memory_configs":[],"aliasing_operands":{"lists":[]}}
}

%fused_computation.334 (param_0.1543: bf16[128,151936], param_1.1716: f32[128], param_2.1325: bf16[128], param_3.886: s32[128]) -> f32[128] {
  %param_3.886 = s32[128]{0:T(128)S(1)} parameter(3)
  %eq.26 = s32[1,128,151936]{2,1,0:T(8,128)} broadcast(%param_3.886), dimensions={1}, metadata={op_name="jit(train_step)/jvp(jit(_one_hot))/eq" stack_frame_id=0}
  %iota.51 = s32[1,128,151936]{2,1,0:T(8,128)} iota(), iota_dimension=2, metadata={op_name="jit(train_step)/jvp(jit(_one_hot))/eq" stack_frame_id=0}
  %eq.21 = pred[1,128,151936]{2,1,0:T(8,128)(4,1)} compare(%eq.26, %iota.51), direction=EQ, metadata={op_name="jit(train_step)/jvp(jit(_one_hot))/eq" stack_frame_id=0}
  %param_0.1543 = bf16[128,151936]{1,0:T(8,128)(2,1)S(1)} parameter(0)
  %convert_element_type.1237 = f32[128,151936]{1,0:T(8,128)} convert(%param_0.1543), metadata={op_name="jit(train_step)/jvp()/convert_element_type" stack_frame_id=0}
  %bitcast.532 = f32[1,128,151936]{2,1,0:T(8,128)} bitcast(%convert_element_type.1237), metadata={op_name="jit(train_step)/jvp()/convert_element_type" stack_frame_id=0}
  %param_2.1325 = bf16[128]{0:T(256)(128)(2,1)S(1)} parameter(2)
  %sub.99 = f32[1,128,151936]{2,1,0:T(8,128)} broadcast(%param_2.1325), dimensions={1}, metadata={op_name="jit(train_step)/jvp()/sub" stack_frame_id=0}
  %sub.92 = f32[1,128,151936]{2,1,0:T(8,128)} subtract(%bitcast.532, %sub.99), metadata={op_name="jit(train_step)/jvp()/sub" stack_frame_id=0}
  %param_1.1716 = f32[128]{0:T(128)S(1)} parameter(1)
  %sub.97 = f32[1,128,151936]{2,1,0:T(8,128)} broadcast(%param_1.1716), dimensions={1}, metadata={op_name="jit(train_step)/jvp()/sub" stack_frame_id=0}
  %sub.91 = f32[1,128,151936]{2,1,0:T(8,128)} subtract(%sub.92, %sub.97), metadata={op_name="jit(train_step)/jvp()/sub" stack_frame_id=0}
  %constant.1470 = f32[]{:T(128)} constant(0)
  %broadcast.799 = f32[1,128,151936]{2,1,0:T(8,128)} broadcast(%constant.1470), dimensions={}, metadata={op_name="broadcast.120"}
  %mul.2275 = f32[1,128,151936]{2,1,0:T(8,128)} select(%eq.21, %sub.91, %broadcast.799), metadata={op_name="jit(train_step)/jvp()/mul" stack_frame_id=0}
  ROOT %reduce.129 = f32[128]{0:T(128)S(1)} reduce(%mul.2275, %constant.1470), dimensions={0,2}, to_apply=%region_54.59, metadata={op_name="jit(train_step)/jvp()/reduce_sum" stack_frame_id=0}
}

%region_30.35 (reduce_sum.374: f32[], reduce_sum.375: f32[]) -> f32[] {
  %reduce_sum.374 = f32[]{:T(128)} parameter(0), metadata={op_name="jit(train_step)/reduce_sum"}
  %reduce_sum.375 = f32[]{:T(128)} parameter(1), metadata={op_name="jit(train_step)/reduce_sum"}
  ROOT %reduce_sum.376 = f32[]{:T(128)} add(%reduce_sum.374, %reduce_sum.375), metadata={op_name="jit(train_step)/reduce_sum" stack_frame_id=0}, backend_config={"flag_configs":[],"scoped_memory_configs":[],"used_scoped_memory_configs":[],"aliasing_operands":{"lists":[]}}
}

%fused_computation.340 (param_0.1538: f32[4,6144,512]) -> f32[] {
  %param_0.1538 = f32[4,6144,512]{2,0,1:T(4,128)} parameter(0)
  %bitcast.536 = f32[6144,4,512]{2,1,0:T(4,128)} bitcast(%param_0.1538), metadata={op_name="jit(train_step)/transpose(jvp())/transpose" stack_frame_id=0}
  %square.215 = f32[6144,4,512]{2,1,0:T(4,128)} multiply(%bitcast.536, %bitcast.536), metadata={op_name="jit(train_step)/square" stack_frame_id=0}
  %constant.1465 = f32[]{:T(128)} constant(0)
  ROOT %reduce.130 = f32[]{:T(128)} reduce(%square.215, %constant.1465), dimensions={0,1,2}, to_apply=%region_30.35, metadata={op_name="jit(train_step)/reduce_sum" stack_frame_id=0}
}

%region_29.34 (reduce_sum.368: f32[], reduce_sum.369: f32[]) -> f32[] {
  %reduce_sum.368 = f32[]{:T(128)} parameter(0), metadata={op_name="jit(train_step)/reduce_sum"}
  %reduce_sum.369 = f32[]{:T(128)} parameter(1), metadata={op_name="jit(train_step)/reduce_sum"}
  ROOT %reduce_sum.373 = f32[]{:T(128)} add(%reduce_sum.368, %reduce_sum.369), metadata={op_name="jit(train_step)/reduce_sum" stack_frame_id=0}, backend_config={"flag_configs":[],"scoped_memory_configs":[],"used_scoped_memory_configs":[],"aliasing_operands":{"lists":[]}}
}

%region_28.33 (reduce_sum.362: f32[], reduce_sum.366: f32[]) -> f32[] {
  %reduce_sum.362 = f32[]{:T(128)} parameter(0), metadata={op_name="jit(train_step)/reduce_sum"}
  %reduce_sum.366 = f32[]{:T(128)} parameter(1), metadata={op_name="jit(train_step)/reduce_sum"}
  ROOT %reduce_sum.367 = f32[]{:T(128)} add(%reduce_sum.362, %reduce_sum.366), metadata={op_name="jit(train_step)/reduce_sum" stack_frame_id=0}, backend_config={"flag_configs":[],"scoped_memory_configs":[],"used_scoped_memory_configs":[],"aliasing_operands":{"lists":[]}}
}

%fused_computation.342 (param_0.1539: f32[4,512,6144], param_1.1713: f32[4,512,6144]) -> (f32[], f32[]) {
  %param_0.1539 = f32[4,512,6144]{2,0,1:T(4,128)} parameter(0)
  %bitcast.540 = f32[512,4,6144]{2,1,0:T(4,128)} bitcast(%param_0.1539), metadata={op_name="jit(train_step)/transpose(jvp())/transpose" stack_frame_id=0}
  %square.218 = f32[512,4,6144]{2,1,0:T(4,128)} multiply(%bitcast.540, %bitcast.540), metadata={op_name="jit(train_step)/square" stack_frame_id=0}
  %constant.1466 = f32[]{:T(128)} constant(0)
  %reduce.131 = f32[]{:T(128)} reduce(%square.218, %constant.1466), dimensions={0,1,2}, to_apply=%region_29.34, metadata={op_name="jit(train_step)/reduce_sum" stack_frame_id=0}
  %param_1.1713 = f32[4,512,6144]{2,0,1:T(4,128)} parameter(1)
  %bitcast.544.clone.1 = f32[512,4,6144]{2,1,0:T(4,128)} bitcast(%param_1.1713), metadata={op_name="jit(train_step)/transpose(jvp())/transpose" stack_frame_id=0}
  %square.221.clone.1 = f32[512,4,6144]{2,1,0:T(4,128)} multiply(%bitcast.544.clone.1, %bitcast.544.clone.1), metadata={op_name="jit(train_step)/square" stack_frame_id=0}
  %reduce.132.clone.1 = f32[]{:T(128)} reduce(%square.221.clone.1, %constant.1466), dimensions={0,1,2}, to_apply=%region_28.33, metadata={op_name="jit(train_step)/reduce_sum" stack_frame_id=0}
  ROOT %tuple.173 = (f32[]{:T(128)}, f32[]{:T(128)}) tuple(%reduce.131, %reduce.132.clone.1)
}

%fused_computation.345 (param_0.1010: f32[6144,4,512]) -> bf16[4,6144,512] {
  %param_0.1010 = f32[6144,4,512]{2,1,0:T(4,128)S(1)} parameter(0)
  %copy.209 = bf16[6144,4,512]{2,0,1:T(8,128)(2,1)} copy(%param_0.1010), sharding={devices=[1,1,4]<=[4]}, metadata={op_name="state[\'model\'][\'decoder\'][\'layers\'][\'mlp\'][\'wo\'][\'kernel\'].value"}
  ROOT %bitcast.545 = bf16[4,6144,512]{2,1,0:T(8,128)(2,1)} bitcast(%copy.209), metadata={op_name="jit(train_step)/jvp()/transpose" stack_frame_id=0}
}

%fused_computation.346 (param_0.1012: f32[512,4,6144]) -> bf16[4,512,6144] {
  %param_0.1012 = f32[512,4,6144]{2,1,0:T(4,128)} parameter(0)
  %copy.210 = bf16[512,4,6144]{2,0,1:T(8,128)(2,1)} copy(%param_0.1012), sharding={devices=[4,1,1]<=[4]}, metadata={op_name="state[\'model\'][\'decoder\'][\'layers\'][\'mlp\'][\'wi_1\'][\'kernel\'].value"}
  ROOT %bitcast.546 = bf16[4,512,6144]{2,1,0:T(8,128)(2,1)} bitcast(%copy.210), metadata={op_name="jit(train_step)/jvp()/transpose" stack_frame_id=0}
}

%fused_computation.347 (param_0.1014: f32[512,4,6144]) -> bf16[4,512,6144] {
  %param_0.1014 = f32[512,4,6144]{2,1,0:T(4,128)} parameter(0)
  %copy.211 = bf16[512,4,6144]{2,0,1:T(8,128)(2,1)} copy(%param_0.1014), sharding={devices=[4,1,1]<=[4]}, metadata={op_name="state[\'model\'][\'decoder\'][\'layers\'][\'mlp\'][\'wi_0\'][\'kernel\'].value"}
  ROOT %bitcast.547 = bf16[4,512,6144]{2,1,0:T(8,128)(2,1)} bitcast(%copy.211), metadata={op_name="jit(train_step)/jvp()/transpose" stack_frame_id=0}
}

%region_59.64 (reduce_sum.521: f32[], reduce_sum.522: f32[]) -> f32[] {
  %reduce_sum.521 = f32[]{:T(128)} parameter(0), metadata={op_name="jit(train_step)/reduce_sum"}
  %reduce_sum.522 = f32[]{:T(128)} parameter(1), metadata={op_name="jit(train_step)/reduce_sum"}
  ROOT %reduce_sum.523 = f32[]{:T(128)} add(%reduce_sum.521, %reduce_sum.522), metadata={op_name="jit(train_step)/reduce_sum" stack_frame_id=0}, backend_config={"flag_configs":[],"scoped_memory_configs":[],"used_scoped_memory_configs":[],"aliasing_operands":{"lists":[]}}
}

%region_44.49 (reduce_sum.443: f32[], reduce_sum.444: f32[]) -> f32[] {
  %reduce_sum.443 = f32[]{:T(128)} parameter(0), metadata={op_name="jit(train_step)/reduce_sum"}
  %reduce_sum.444 = f32[]{:T(128)} parameter(1), metadata={op_name="jit(train_step)/reduce_sum"}
  ROOT %reduce_sum.445 = f32[]{:T(128)} add(%reduce_sum.443, %reduce_sum.444), metadata={op_name="jit(train_step)/reduce_sum" stack_frame_id=0}, backend_config={"flag_configs":[],"scoped_memory_configs":[],"used_scoped_memory_configs":[],"aliasing_operands":{"lists":[]}}
}

%fused_computation.348 (param_0.1527: f32[6144,4,512], param_1.1706: f32[], param_2.1318: f32[], param_3.881: f32[], param_4.519: f32[6144,4,512], param_5.463: f32[], param_6.321: f32[4,6144,512], param_7.199: pred[], param_8.121: f32[6144,4,512]) -> (f32[], f32[6144,4,512], f32[6144,4,512], f32[6144,4,512], f32[]) {
  %param_0.1527 = f32[6144,4,512]{2,1,0:T(4,128)} parameter(0)
  %param_3.881 = f32[]{:T(128)S(6)} parameter(3)
  %mul.2553.clone.1 = f32[6144,4,512]{2,1,0:T(4,128)} broadcast(%param_3.881), dimensions={}, metadata={op_name="jit(train_step)/mul" stack_frame_id=0}
  %param_7.199 = pred[]{:T(512)S(6)} parameter(7)
  %select_n.308.clone.1 = pred[6144,4,512]{2,1,0:T(4,128)(4,1)} broadcast(%param_7.199), dimensions={}, metadata={op_name="jit(train_step)/select_n" stack_frame_id=0}
  %param_6.321 = f32[4,6144,512]{2,0,1:T(4,128)S(1)} parameter(6)
  %bitcast.701.clone.1 = f32[6144,4,512]{2,1,0:T(4,128)} bitcast(%param_6.321), metadata={op_name="jit(train_step)/transpose(jvp())/transpose" stack_frame_id=0}
  %param_5.463 = f32[]{:T(128)} parameter(5)
  %div.960.clone.1 = f32[6144,4,512]{2,1,0:T(4,128)} broadcast(%param_5.463), dimensions={}, metadata={op_name="jit(train_step)/div" stack_frame_id=0}
  %div.959.clone.1 = f32[6144,4,512]{2,1,0:T(4,128)} divide(%bitcast.701.clone.1, %div.960.clone.1), metadata={op_name="jit(train_step)/div" stack_frame_id=0}
  %select_n.307.clone.1 = f32[6144,4,512]{2,1,0:T(4,128)} select(%select_n.308.clone.1, %bitcast.701.clone.1, %div.959.clone.1), metadata={op_name="jit(train_step)/select_n" stack_frame_id=0}
  %constant.1416.clone.1 = f32[]{:T(128)} constant(0.1)
  %broadcast.924.clone.1 = f32[6144,4,512]{2,1,0:T(4,128)} broadcast(%constant.1416.clone.1), dimensions={}, metadata={op_name="broadcast.85"}
  %mul.2559.clone.1 = f32[6144,4,512]{2,1,0:T(4,128)} multiply(%select_n.307.clone.1, %broadcast.924.clone.1), metadata={op_name="jit(train_step)/mul" stack_frame_id=0}
  %param_8.121 = f32[6144,4,512]{2,1,0:T(4,128)} parameter(8)
  %constant.1420.clone.1 = f32[]{:T(128)} constant(0.9)
  %mul.2560.clone.1 = f32[6144,4,512]{2,1,0:T(4,128)} broadcast(%constant.1420.clone.1), dimensions={}, metadata={op_name="jit(train_step)/mul" stack_frame_id=0}
  %mul.2558.clone.1 = f32[6144,4,512]{2,1,0:T(4,128)} multiply(%param_8.121, %mul.2560.clone.1), metadata={op_name="jit(train_step)/mul" stack_frame_id=0}
  %add.978.clone.1 = f32[6144,4,512]{2,1,0:T(4,128)} add(%mul.2559.clone.1, %mul.2558.clone.1), metadata={op_name="jit(train_step)/add" stack_frame_id=0}
  %param_2.1318 = f32[]{:T(128)S(6)} parameter(2)
  %div.956.clone.1 = f32[6144,4,512]{2,1,0:T(4,128)} broadcast(%param_2.1318), dimensions={}, metadata={op_name="jit(train_step)/div" stack_frame_id=0}
  %integer_pow.75.clone.1 = f32[6144,4,512]{2,1,0:T(4,128)} multiply(%select_n.307.clone.1, %select_n.307.clone.1), metadata={op_name="jit(train_step)/integer_pow" stack_frame_id=0}
  %constant.1419.clone.1 = f32[]{:T(128)} constant(0.05)
  %mul.2557.clone.1 = f32[6144,4,512]{2,1,0:T(4,128)} broadcast(%constant.1419.clone.1), dimensions={}, metadata={op_name="jit(train_step)/mul" stack_frame_id=0}
  %mul.2555.clone.1 = f32[6144,4,512]{2,1,0:T(4,128)} multiply(%integer_pow.75.clone.1, %mul.2557.clone.1), metadata={op_name="jit(train_step)/mul" stack_frame_id=0}
  %param_4.519 = f32[6144,4,512]{2,1,0:T(4,128)} parameter(4)
  %constant.1418.clone.1 = f32[]{:T(128)} constant(0.95)
  %mul.2556.clone.1 = f32[6144,4,512]{2,1,0:T(4,128)} broadcast(%constant.1418.clone.1), dimensions={}, metadata={op_name="jit(train_step)/mul" stack_frame_id=0}
  %mul.2554.clone.1 = f32[6144,4,512]{2,1,0:T(4,128)} multiply(%param_4.519, %mul.2556.clone.1), metadata={op_name="jit(train_step)/mul" stack_frame_id=0}
  %add.977.clone.1 = f32[6144,4,512]{2,1,0:T(4,128)} add(%mul.2555.clone.1, %mul.2554.clone.1), metadata={op_name="jit(train_step)/add" stack_frame_id=0}
  %param_1.1706 = f32[]{:T(128)S(6)} parameter(1)
  %div.955.clone.1 = f32[6144,4,512]{2,1,0:T(4,128)} broadcast(%param_1.1706), dimensions={}, metadata={op_name="jit(train_step)/div" stack_frame_id=0}
  %div.954.clone.1 = f32[6144,4,512]{2,1,0:T(4,128)} divide(%add.977.clone.1, %div.955.clone.1), metadata={op_name="jit(train_step)/div" stack_frame_id=0}
  %sqrt.72.clone.1 = f32[6144,4,512]{2,1,0:T(4,128)} sqrt(%div.954.clone.1), metadata={op_name="jit(train_step)/sqrt" stack_frame_id=0}
  %constant.1417.clone.1 = f32[]{:T(128)} constant(1e-08)
  %add.976.clone.1 = f32[6144,4,512]{2,1,0:T(4,128)} broadcast(%constant.1417.clone.1), dimensions={}, metadata={op_name="jit(train_step)/add" stack_frame_id=0}
  %add.975.clone.1 = f32[6144,4,512]{2,1,0:T(4,128)} add(%sqrt.72.clone.1, %add.976.clone.1), metadata={op_name="jit(train_step)/add" stack_frame_id=0}
  %multiply.321.clone.1 = f32[6144,4,512]{2,1,0:T(4,128)} multiply(%div.956.clone.1, %add.975.clone.1), metadata={op_name="multiply.36"}
  %div.953.clone.1 = f32[6144,4,512]{2,1,0:T(4,128)} divide(%add.978.clone.1, %multiply.321.clone.1), metadata={op_name="jit(train_step)/div" stack_frame_id=0}
  %mul.2552.clone.1 = f32[6144,4,512]{2,1,0:T(4,128)} multiply(%param_0.1527, %broadcast.924.clone.1), metadata={op_name="jit(train_step)/mul" stack_frame_id=0}
  %add.974.clone.1 = f32[6144,4,512]{2,1,0:T(4,128)} add(%div.953.clone.1, %mul.2552.clone.1), metadata={op_name="jit(train_step)/add" stack_frame_id=0}
  %mul.2551.clone.1 = f32[6144,4,512]{2,1,0:T(4,128)} multiply(%mul.2553.clone.1, %add.974.clone.1), metadata={op_name="jit(train_step)/mul" stack_frame_id=0}
  %add.973.clone.1 = f32[6144,4,512]{2,1,0:T(4,128)} add(%param_0.1527, %mul.2551.clone.1), metadata={op_name="jit(train_step)/add" stack_frame_id=0}
  %square.222 = f32[6144,4,512]{2,1,0:T(4,128)} multiply(%add.973.clone.1, %add.973.clone.1), metadata={op_name="jit(train_step)/square" stack_frame_id=0}
  %constant.1454 = f32[]{:T(128)} constant(0)
  %reduce.133 = f32[]{:T(128)} reduce(%square.222, %constant.1454), dimensions={0,1,2}, to_apply=%region_59.64, metadata={op_name="jit(train_step)/reduce_sum" stack_frame_id=0}
  %reduce.136.clone.1 = f32[]{:T(128)} reduce(%integer_pow.75.clone.1, %constant.1454), dimensions={0,1,2}, to_apply=%region_44.49, metadata={op_name="jit(train_step)/reduce_sum" stack_frame_id=0}
  ROOT %tuple.151 = (f32[]{:T(128)}, f32[6144,4,512]{2,1,0:T(4,128)}, f32[6144,4,512]{2,1,0:T(4,128)}, f32[6144,4,512]{2,1,0:T(4,128)}, f32[]{:T(128)}) tuple(%reduce.133, %add.973.clone.1, %add.977.clone.1, %add.978.clone.1, %reduce.136.clone.1)
}

%region_58.63 (reduce_sum.515: f32[], reduce_sum.516: f32[]) -> f32[] {
  %reduce_sum.515 = f32[]{:T(128)} parameter(0), metadata={op_name="jit(train_step)/reduce_sum"}
  %reduce_sum.516 = f32[]{:T(128)} parameter(1), metadata={op_name="jit(train_step)/reduce_sum"}
  ROOT %reduce_sum.520 = f32[]{:T(128)} add(%reduce_sum.515, %reduce_sum.516), metadata={op_name="jit(train_step)/reduce_sum" stack_frame_id=0}, backend_config={"flag_configs":[],"scoped_memory_configs":[],"used_scoped_memory_configs":[],"aliasing_operands":{"lists":[]}}
}

%region_43.48 (reduce_sum.437: f32[], reduce_sum.438: f32[]) -> f32[] {
  %reduce_sum.437 = f32[]{:T(128)} parameter(0), metadata={op_name="jit(train_step)/reduce_sum"}
  %reduce_sum.438 = f32[]{:T(128)} parameter(1), metadata={op_name="jit(train_step)/reduce_sum"}
  ROOT %reduce_sum.439 = f32[]{:T(128)} add(%reduce_sum.437, %reduce_sum.438), metadata={op_name="jit(train_step)/reduce_sum" stack_frame_id=0}, backend_config={"flag_configs":[],"scoped_memory_configs":[],"used_scoped_memory_configs":[],"aliasing_operands":{"lists":[]}}
}

%fused_computation.349 (param_0.1528: f32[512,4,6144], param_1.1707: f32[], param_2.1319: f32[], param_3.882: f32[], param_4.520: f32[512,4,6144], param_5.464: f32[], param_6.322: f32[4,512,6144], param_7.200: pred[], param_8.122: f32[512,4,6144]) -> (f32[], f32[512,4,6144], f32[512,4,6144], f32[512,4,6144], f32[]) {
  %param_0.1528 = f32[512,4,6144]{2,1,0:T(4,128)} parameter(0)
  %param_3.882 = f32[]{:T(128)S(6)} parameter(3)
  %mul.2563.clone.1 = f32[512,4,6144]{2,1,0:T(4,128)} broadcast(%param_3.882), dimensions={}, metadata={op_name="jit(train_step)/mul" stack_frame_id=0}
  %param_7.200 = pred[]{:T(512)S(6)} parameter(7)
  %select_n.312.clone.1 = pred[512,4,6144]{2,1,0:T(4,128)(4,1)} broadcast(%param_7.200), dimensions={}, metadata={op_name="jit(train_step)/select_n" stack_frame_id=0}
  %param_6.322 = f32[4,512,6144]{2,0,1:T(4,128)} parameter(6)
  %bitcast.703.clone.1 = f32[512,4,6144]{2,1,0:T(4,128)} bitcast(%param_6.322), metadata={op_name="jit(train_step)/transpose(jvp())/transpose" stack_frame_id=0}
  %param_5.464 = f32[]{:T(128)} parameter(5)
  %div.968.clone.1 = f32[512,4,6144]{2,1,0:T(4,128)} broadcast(%param_5.464), dimensions={}, metadata={op_name="jit(train_step)/div" stack_frame_id=0}
  %div.967.clone.1 = f32[512,4,6144]{2,1,0:T(4,128)} divide(%bitcast.703.clone.1, %div.968.clone.1), metadata={op_name="jit(train_step)/div" stack_frame_id=0}
  %select_n.311.clone.1 = f32[512,4,6144]{2,1,0:T(4,128)} select(%select_n.312.clone.1, %bitcast.703.clone.1, %div.967.clone.1), metadata={op_name="jit(train_step)/select_n" stack_frame_id=0}
  %constant.1422.clone.1 = f32[]{:T(128)} constant(0.1)
  %broadcast.930.clone.1 = f32[512,4,6144]{2,1,0:T(4,128)} broadcast(%constant.1422.clone.1), dimensions={}, metadata={op_name="broadcast.87"}
  %mul.2567.clone.1 = f32[512,4,6144]{2,1,0:T(4,128)} multiply(%select_n.311.clone.1, %broadcast.930.clone.1), metadata={op_name="jit(train_step)/mul" stack_frame_id=0}
  %param_8.122 = f32[512,4,6144]{2,1,0:T(4,128)} parameter(8)
  %constant.1426.clone.1 = f32[]{:T(128)} constant(0.9)
  %broadcast.929.clone.1 = f32[512,4,6144]{2,1,0:T(4,128)} broadcast(%constant.1426.clone.1), dimensions={}, metadata={op_name="broadcast.86"}
  %mul.2566.clone.1 = f32[512,4,6144]{2,1,0:T(4,128)} multiply(%param_8.122, %broadcast.929.clone.1), metadata={op_name="jit(train_step)/mul" stack_frame_id=0}
  %add.983.clone.1 = f32[512,4,6144]{2,1,0:T(4,128)} add(%mul.2567.clone.1, %mul.2566.clone.1), metadata={op_name="jit(train_step)/add" stack_frame_id=0}
  %param_2.1319 = f32[]{:T(128)S(6)} parameter(2)
  %div.964.clone.1 = f32[512,4,6144]{2,1,0:T(4,128)} broadcast(%param_2.1319), dimensions={}, metadata={op_name="jit(train_step)/div" stack_frame_id=0}
  %integer_pow.76.clone.1 = f32[512,4,6144]{2,1,0:T(4,128)} multiply(%select_n.311.clone.1, %select_n.311.clone.1), metadata={op_name="jit(train_step)/integer_pow" stack_frame_id=0}
  %constant.1425.clone.1 = f32[]{:T(128)} constant(0.05)
  %broadcast.928.clone.1 = f32[512,4,6144]{2,1,0:T(4,128)} broadcast(%constant.1425.clone.1), dimensions={}, metadata={op_name="broadcast.75"}
  %mul.2565.clone.1 = f32[512,4,6144]{2,1,0:T(4,128)} multiply(%integer_pow.76.clone.1, %broadcast.928.clone.1), metadata={op_name="jit(train_step)/mul" stack_frame_id=0}
  %param_4.520 = f32[512,4,6144]{2,1,0:T(4,128)} parameter(4)
  %constant.1424.clone.1 = f32[]{:T(128)} constant(0.95)
  %broadcast.927.clone.1 = f32[512,4,6144]{2,1,0:T(4,128)} broadcast(%constant.1424.clone.1), dimensions={}, metadata={op_name="broadcast.74"}
  %mul.2564.clone.1 = f32[512,4,6144]{2,1,0:T(4,128)} multiply(%param_4.520, %broadcast.927.clone.1), metadata={op_name="jit(train_step)/mul" stack_frame_id=0}
  %add.982.clone.1 = f32[512,4,6144]{2,1,0:T(4,128)} add(%mul.2565.clone.1, %mul.2564.clone.1), metadata={op_name="jit(train_step)/add" stack_frame_id=0}
  %param_1.1707 = f32[]{:T(128)S(6)} parameter(1)
  %div.963.clone.1 = f32[512,4,6144]{2,1,0:T(4,128)} broadcast(%param_1.1707), dimensions={}, metadata={op_name="jit(train_step)/div" stack_frame_id=0}
  %div.962.clone.1 = f32[512,4,6144]{2,1,0:T(4,128)} divide(%add.982.clone.1, %div.963.clone.1), metadata={op_name="jit(train_step)/div" stack_frame_id=0}
  %sqrt.73.clone.1 = f32[512,4,6144]{2,1,0:T(4,128)} sqrt(%div.962.clone.1), metadata={op_name="jit(train_step)/sqrt" stack_frame_id=0}
  %constant.1423.clone.1 = f32[]{:T(128)} constant(1e-08)
  %broadcast.925.clone.1 = f32[512,4,6144]{2,1,0:T(4,128)} broadcast(%constant.1423.clone.1), dimensions={}, metadata={op_name="broadcast.67"}
  %add.981.clone.1 = f32[512,4,6144]{2,1,0:T(4,128)} add(%sqrt.73.clone.1, %broadcast.925.clone.1), metadata={op_name="jit(train_step)/add" stack_frame_id=0}
  %multiply.322.clone.1 = f32[512,4,6144]{2,1,0:T(4,128)} multiply(%div.964.clone.1, %add.981.clone.1), metadata={op_name="multiply.35"}
  %div.961.clone.1 = f32[512,4,6144]{2,1,0:T(4,128)} divide(%add.983.clone.1, %multiply.322.clone.1), metadata={op_name="jit(train_step)/div" stack_frame_id=0}
  %mul.2562.clone.1 = f32[512,4,6144]{2,1,0:T(4,128)} multiply(%param_0.1528, %broadcast.930.clone.1), metadata={op_name="jit(train_step)/mul" stack_frame_id=0}
  %add.980.clone.1 = f32[512,4,6144]{2,1,0:T(4,128)} add(%div.961.clone.1, %mul.2562.clone.1), metadata={op_name="jit(train_step)/add" stack_frame_id=0}
  %mul.2561.clone.1 = f32[512,4,6144]{2,1,0:T(4,128)} multiply(%mul.2563.clone.1, %add.980.clone.1), metadata={op_name="jit(train_step)/mul" stack_frame_id=0}
  %add.979.clone.1 = f32[512,4,6144]{2,1,0:T(4,128)} add(%param_0.1528, %mul.2561.clone.1), metadata={op_name="jit(train_step)/add" stack_frame_id=0}
  %square.223 = f32[512,4,6144]{2,1,0:T(4,128)} multiply(%add.979.clone.1, %add.979.clone.1), metadata={op_name="jit(train_step)/square" stack_frame_id=0}
  %constant.1455 = f32[]{:T(128)} constant(0)
  %reduce.134 = f32[]{:T(128)} reduce(%square.223, %constant.1455), dimensions={0,1,2}, to_apply=%region_58.63, metadata={op_name="jit(train_step)/reduce_sum" stack_frame_id=0}
  %reduce.137.clone.1 = f32[]{:T(128)} reduce(%integer_pow.76.clone.1, %constant.1455), dimensions={0,1,2}, to_apply=%region_43.48, metadata={op_name="jit(train_step)/reduce_sum" stack_frame_id=0}
  ROOT %tuple.152 = (f32[]{:T(128)}, f32[512,4,6144]{2,1,0:T(4,128)}, f32[512,4,6144]{2,1,0:T(4,128)}, f32[512,4,6144]{2,1,0:T(4,128)}, f32[]{:T(128)}) tuple(%reduce.134, %add.979.clone.1, %add.982.clone.1, %add.983.clone.1, %reduce.137.clone.1)
}

%region_57.62 (reduce_sum.509: f32[], reduce_sum.513: f32[]) -> f32[] {
  %reduce_sum.509 = f32[]{:T(128)} parameter(0), metadata={op_name="jit(train_step)/reduce_sum"}
  %reduce_sum.513 = f32[]{:T(128)} parameter(1), metadata={op_name="jit(train_step)/reduce_sum"}
  ROOT %reduce_sum.514 = f32[]{:T(128)} add(%reduce_sum.509, %reduce_sum.513), metadata={op_name="jit(train_step)/reduce_sum" stack_frame_id=0}, backend_config={"flag_configs":[],"scoped_memory_configs":[],"used_scoped_memory_configs":[],"aliasing_operands":{"lists":[]}}
}

%region_42.47 (reduce_sum.431: f32[], reduce_sum.432: f32[]) -> f32[] {
  %reduce_sum.431 = f32[]{:T(128)} parameter(0), metadata={op_name="jit(train_step)/reduce_sum"}
  %reduce_sum.432 = f32[]{:T(128)} parameter(1), metadata={op_name="jit(train_step)/reduce_sum"}
  ROOT %reduce_sum.436 = f32[]{:T(128)} add(%reduce_sum.431, %reduce_sum.432), metadata={op_name="jit(train_step)/reduce_sum" stack_frame_id=0}, backend_config={"flag_configs":[],"scoped_memory_configs":[],"used_scoped_memory_configs":[],"aliasing_operands":{"lists":[]}}
}

%fused_computation.350 (param_0.1529: f32[512,4,6144], param_1.1708: f32[], param_2.1320: f32[], param_3.883: f32[], param_4.521: f32[512,4,6144], param_5.465: f32[], param_6.323: f32[4,512,6144], param_7.201: pred[], param_8.123: f32[512,4,6144]) -> (f32[], f32[512,4,6144], f32[512,4,6144], f32[512,4,6144], f32[]) {
  %param_0.1529 = f32[512,4,6144]{2,1,0:T(4,128)} parameter(0)
  %param_3.883 = f32[]{:T(128)S(6)} parameter(3)
  %mul.2570.clone.1 = f32[512,4,6144]{2,1,0:T(4,128)} broadcast(%param_3.883), dimensions={}, metadata={op_name="jit(train_step)/mul" stack_frame_id=0}
  %param_7.201 = pred[]{:T(512)S(6)} parameter(7)
  %select_n.316.clone.1 = pred[512,4,6144]{2,1,0:T(4,128)(4,1)} broadcast(%param_7.201), dimensions={}, metadata={op_name="jit(train_step)/select_n" stack_frame_id=0}
  %param_6.323 = f32[4,512,6144]{2,0,1:T(4,128)S(1)} parameter(6)
  %bitcast.705.clone.1 = f32[512,4,6144]{2,1,0:T(4,128)} bitcast(%param_6.323), metadata={op_name="jit(train_step)/transpose(jvp())/transpose" stack_frame_id=0}
  %param_5.465 = f32[]{:T(128)} parameter(5)
  %div.976.clone.1 = f32[512,4,6144]{2,1,0:T(4,128)} broadcast(%param_5.465), dimensions={}, metadata={op_name="jit(train_step)/div" stack_frame_id=0}
  %div.975.clone.1 = f32[512,4,6144]{2,1,0:T(4,128)} divide(%bitcast.705.clone.1, %div.976.clone.1), metadata={op_name="jit(train_step)/div" stack_frame_id=0}
  %select_n.315.clone.1 = f32[512,4,6144]{2,1,0:T(4,128)} select(%select_n.316.clone.1, %bitcast.705.clone.1, %div.975.clone.1), metadata={op_name="jit(train_step)/select_n" stack_frame_id=0}
  %constant.1428.clone.1 = f32[]{:T(128)} constant(0.1)
  %broadcast.936.clone.1 = f32[512,4,6144]{2,1,0:T(4,128)} broadcast(%constant.1428.clone.1), dimensions={}, metadata={op_name="broadcast.87"}
  %mul.2574.clone.1 = f32[512,4,6144]{2,1,0:T(4,128)} multiply(%select_n.315.clone.1, %broadcast.936.clone.1), metadata={op_name="jit(train_step)/mul" stack_frame_id=0}
  %param_8.123 = f32[512,4,6144]{2,1,0:T(4,128)} parameter(8)
  %constant.1432.clone.1 = f32[]{:T(128)} constant(0.9)
  %broadcast.935.clone.1 = f32[512,4,6144]{2,1,0:T(4,128)} broadcast(%constant.1432.clone.1), dimensions={}, metadata={op_name="broadcast.86"}
  %mul.2573.clone.1 = f32[512,4,6144]{2,1,0:T(4,128)} multiply(%param_8.123, %broadcast.935.clone.1), metadata={op_name="jit(train_step)/mul" stack_frame_id=0}
  %add.988.clone.1 = f32[512,4,6144]{2,1,0:T(4,128)} add(%mul.2574.clone.1, %mul.2573.clone.1), metadata={op_name="jit(train_step)/add" stack_frame_id=0}
  %param_2.1320 = f32[]{:T(128)S(6)} parameter(2)
  %div.972.clone.1 = f32[512,4,6144]{2,1,0:T(4,128)} broadcast(%param_2.1320), dimensions={}, metadata={op_name="jit(train_step)/div" stack_frame_id=0}
  %integer_pow.77.clone.1 = f32[512,4,6144]{2,1,0:T(4,128)} multiply(%select_n.315.clone.1, %select_n.315.clone.1), metadata={op_name="jit(train_step)/integer_pow" stack_frame_id=0}
  %constant.1431.clone.1 = f32[]{:T(128)} constant(0.05)
  %broadcast.934.clone.1 = f32[512,4,6144]{2,1,0:T(4,128)} broadcast(%constant.1431.clone.1), dimensions={}, metadata={op_name="broadcast.75"}
  %mul.2572.clone.1 = f32[512,4,6144]{2,1,0:T(4,128)} multiply(%integer_pow.77.clone.1, %broadcast.934.clone.1), metadata={op_name="jit(train_step)/mul" stack_frame_id=0}
  %param_4.521 = f32[512,4,6144]{2,1,0:T(4,128)} parameter(4)
  %constant.1430.clone.1 = f32[]{:T(128)} constant(0.95)
  %broadcast.933.clone.1 = f32[512,4,6144]{2,1,0:T(4,128)} broadcast(%constant.1430.clone.1), dimensions={}, metadata={op_name="broadcast.74"}
  %mul.2571.clone.1 = f32[512,4,6144]{2,1,0:T(4,128)} multiply(%param_4.521, %broadcast.933.clone.1), metadata={op_name="jit(train_step)/mul" stack_frame_id=0}
  %add.987.clone.1 = f32[512,4,6144]{2,1,0:T(4,128)} add(%mul.2572.clone.1, %mul.2571.clone.1), metadata={op_name="jit(train_step)/add" stack_frame_id=0}
  %param_1.1708 = f32[]{:T(128)S(6)} parameter(1)
  %div.971.clone.1 = f32[512,4,6144]{2,1,0:T(4,128)} broadcast(%param_1.1708), dimensions={}, metadata={op_name="jit(train_step)/div" stack_frame_id=0}
  %div.970.clone.1 = f32[512,4,6144]{2,1,0:T(4,128)} divide(%add.987.clone.1, %div.971.clone.1), metadata={op_name="jit(train_step)/div" stack_frame_id=0}
  %sqrt.74.clone.1 = f32[512,4,6144]{2,1,0:T(4,128)} sqrt(%div.970.clone.1), metadata={op_name="jit(train_step)/sqrt" stack_frame_id=0}
  %constant.1429.clone.1 = f32[]{:T(128)} constant(1e-08)
  %broadcast.931.clone.1 = f32[512,4,6144]{2,1,0:T(4,128)} broadcast(%constant.1429.clone.1), dimensions={}, metadata={op_name="broadcast.67"}
  %add.986.clone.1 = f32[512,4,6144]{2,1,0:T(4,128)} add(%sqrt.74.clone.1, %broadcast.931.clone.1), metadata={op_name="jit(train_step)/add" stack_frame_id=0}
  %multiply.323.clone.1 = f32[512,4,6144]{2,1,0:T(4,128)} multiply(%div.972.clone.1, %add.986.clone.1), metadata={op_name="multiply.34"}
  %div.969.clone.1 = f32[512,4,6144]{2,1,0:T(4,128)} divide(%add.988.clone.1, %multiply.323.clone.1), metadata={op_name="jit(train_step)/div" stack_frame_id=0}
  %mul.2569.clone.1 = f32[512,4,6144]{2,1,0:T(4,128)} multiply(%param_0.1529, %broadcast.936.clone.1), metadata={op_name="jit(train_step)/mul" stack_frame_id=0}
  %add.985.clone.1 = f32[512,4,6144]{2,1,0:T(4,128)} add(%div.969.clone.1, %mul.2569.clone.1), metadata={op_name="jit(train_step)/add" stack_frame_id=0}
  %mul.2568.clone.1 = f32[512,4,6144]{2,1,0:T(4,128)} multiply(%mul.2570.clone.1, %add.985.clone.1), metadata={op_name="jit(train_step)/mul" stack_frame_id=0}
  %add.984.clone.1 = f32[512,4,6144]{2,1,0:T(4,128)} add(%param_0.1529, %mul.2568.clone.1), metadata={op_name="jit(train_step)/add" stack_frame_id=0}
  %square.224 = f32[512,4,6144]{2,1,0:T(4,128)} multiply(%add.984.clone.1, %add.984.clone.1), metadata={op_name="jit(train_step)/square" stack_frame_id=0}
  %constant.1456 = f32[]{:T(128)} constant(0)
  %reduce.135 = f32[]{:T(128)} reduce(%square.224, %constant.1456), dimensions={0,1,2}, to_apply=%region_57.62, metadata={op_name="jit(train_step)/reduce_sum" stack_frame_id=0}
  %reduce.138.clone.1 = f32[]{:T(128)} reduce(%integer_pow.77.clone.1, %constant.1456), dimensions={0,1,2}, to_apply=%region_42.47, metadata={op_name="jit(train_step)/reduce_sum" stack_frame_id=0}
  ROOT %tuple.153 = (f32[]{:T(128)}, f32[512,4,6144]{2,1,0:T(4,128)}, f32[512,4,6144]{2,1,0:T(4,128)}, f32[512,4,6144]{2,1,0:T(4,128)}, f32[]{:T(128)}) tuple(%reduce.135, %add.984.clone.1, %add.987.clone.1, %add.988.clone.1, %reduce.138.clone.1)
}

%region_36.41 (reduce_sum.404: f32[], reduce_sum.408: f32[]) -> f32[] {
  %reduce_sum.404 = f32[]{:T(128)} parameter(0), metadata={op_name="jit(train_step)/reduce_sum"}
  %reduce_sum.408 = f32[]{:T(128)} parameter(1), metadata={op_name="jit(train_step)/reduce_sum"}
  ROOT %reduce_sum.409 = f32[]{:T(128)} add(%reduce_sum.404, %reduce_sum.408), metadata={op_name="jit(train_step)/reduce_sum" stack_frame_id=0}, backend_config={"flag_configs":[],"scoped_memory_configs":[],"used_scoped_memory_configs":[],"aliasing_operands":{"lists":[]}}
}

%fused_computation.367 (param_0.1535: f32[4,512,16,128]) -> f32[] {
  %param_0.1535 = f32[4,512,16,128]{3,2,0,1:T(8,128)S(1)} parameter(0)
  %bitcast.554 = f32[512,4,16,128]{3,2,1,0:T(8,128)} bitcast(%param_0.1535), metadata={op_name="jit(train_step)/transpose(jvp())/transpose" stack_frame_id=0}
  %square.227 = f32[512,4,16,128]{3,2,1,0:T(8,128)} multiply(%bitcast.554, %bitcast.554), metadata={op_name="jit(train_step)/square" stack_frame_id=0}
  %constant.1462 = f32[]{:T(128)} constant(0)
  ROOT %reduce.139 = f32[]{:T(128)} reduce(%square.227, %constant.1462), dimensions={0,1,2,3}, to_apply=%region_36.41, metadata={op_name="jit(train_step)/reduce_sum" stack_frame_id=0}
}

%region_35.40 (reduce_sum.401: f32[], reduce_sum.402: f32[]) -> f32[] {
  %reduce_sum.401 = f32[]{:T(128)} parameter(0), metadata={op_name="jit(train_step)/reduce_sum"}
  %reduce_sum.402 = f32[]{:T(128)} parameter(1), metadata={op_name="jit(train_step)/reduce_sum"}
  ROOT %reduce_sum.403 = f32[]{:T(128)} add(%reduce_sum.401, %reduce_sum.402), metadata={op_name="jit(train_step)/reduce_sum" stack_frame_id=0}, backend_config={"flag_configs":[],"scoped_memory_configs":[],"used_scoped_memory_configs":[],"aliasing_operands":{"lists":[]}}
}

%fused_computation.369 (param_0.1536: f32[4,16,128,512]) -> f32[] {
  %param_0.1536 = f32[4,16,128,512]{3,2,0,1:T(8,128)S(1)} parameter(0)
  %bitcast.558 = f32[16,4,128,512]{3,2,1,0:T(8,128)} bitcast(%param_0.1536), metadata={op_name="jit(train_step)/transpose(jvp())/transpose" stack_frame_id=0}
  %square.230 = f32[16,4,128,512]{3,2,1,0:T(8,128)} multiply(%bitcast.558, %bitcast.558), metadata={op_name="jit(train_step)/square" stack_frame_id=0}
  %constant.1463 = f32[]{:T(128)} constant(0)
  ROOT %reduce.140 = f32[]{:T(128)} reduce(%square.230, %constant.1463), dimensions={0,1,2,3}, to_apply=%region_35.40, metadata={op_name="jit(train_step)/reduce_sum" stack_frame_id=0}
}

%fused_computation.370 (param_0.1063: f32[16,4,128,512]) -> bf16[4,16,128,512] {
  %param_0.1063 = f32[16,4,128,512]{3,2,1,0:T(8,128)S(1)} parameter(0)
  %copy.212 = bf16[16,4,128,512]{3,2,0,1:T(8,128)(2,1)} copy(%param_0.1063), sharding={devices=[1,1,1,4]<=[4]}, metadata={op_name="state[\'model\'][\'decoder\'][\'layers\'][\'self_attention\'][\'out\'][\'kernel\'].value"}
  ROOT %bitcast.559 = bf16[4,16,128,512]{3,2,1,0:T(8,128)(2,1)} bitcast(%copy.212), metadata={op_name="jit(train_step)/jvp()/transpose" stack_frame_id=0}
}

%region_65.70 (reduce_sum.551: f32[], reduce_sum.555: f32[]) -> f32[] {
  %reduce_sum.551 = f32[]{:T(128)} parameter(0), metadata={op_name="jit(train_step)/reduce_sum"}
  %reduce_sum.555 = f32[]{:T(128)} parameter(1), metadata={op_name="jit(train_step)/reduce_sum"}
  ROOT %reduce_sum.556 = f32[]{:T(128)} add(%reduce_sum.551, %reduce_sum.555), metadata={op_name="jit(train_step)/reduce_sum" stack_frame_id=0}, backend_config={"flag_configs":[],"scoped_memory_configs":[],"used_scoped_memory_configs":[],"aliasing_operands":{"lists":[]}}
}

%region_50.55 (reduce_sum.473: f32[], reduce_sum.474: f32[]) -> f32[] {
  %reduce_sum.473 = f32[]{:T(128)} parameter(0), metadata={op_name="jit(train_step)/reduce_sum"}
  %reduce_sum.474 = f32[]{:T(128)} parameter(1), metadata={op_name="jit(train_step)/reduce_sum"}
  ROOT %reduce_sum.478 = f32[]{:T(128)} add(%reduce_sum.473, %reduce_sum.474), metadata={op_name="jit(train_step)/reduce_sum" stack_frame_id=0}, backend_config={"flag_configs":[],"scoped_memory_configs":[],"used_scoped_memory_configs":[],"aliasing_operands":{"lists":[]}}
}

%fused_computation.371 (param_0.1521: f32[512,4,16,128], param_1.1700: f32[], param_2.1312: f32[], param_3.875: f32[], param_4.513: f32[512,4,16,128], param_5.457: f32[], param_6.315: f32[4,512,16,128], param_7.193: pred[], param_8.115: f32[512,4,16,128]) -> (f32[], f32[512,4,16,128], f32[512,4,16,128], f32[512,4,16,128], f32[]) {
  %param_0.1521 = f32[512,4,16,128]{3,2,1,0:T(8,128)S(1)} parameter(0)
  %param_3.875 = f32[]{:T(128)S(6)} parameter(3)
  %mul.2526.clone.1 = f32[512,4,16,128]{3,2,1,0:T(8,128)} broadcast(%param_3.875), dimensions={}, metadata={op_name="jit(train_step)/mul" stack_frame_id=0}
  %param_7.193 = pred[]{:T(512)S(6)} parameter(7)
  %select_n.296.clone.1 = pred[512,4,16,128]{3,2,1,0:T(8,128)(4,1)} broadcast(%param_7.193), dimensions={}, metadata={op_name="jit(train_step)/select_n" stack_frame_id=0}
  %param_6.315 = f32[4,512,16,128]{3,2,0,1:T(8,128)S(1)} parameter(6)
  %bitcast.695.clone.1 = f32[512,4,16,128]{3,2,1,0:T(8,128)} bitcast(%param_6.315), metadata={op_name="jit(train_step)/transpose(jvp())/transpose" stack_frame_id=0}
  %param_5.457 = f32[]{:T(128)} parameter(5)
  %div.936.clone.1 = f32[512,4,16,128]{3,2,1,0:T(8,128)} broadcast(%param_5.457), dimensions={}, metadata={op_name="jit(train_step)/div" stack_frame_id=0}
  %div.935.clone.1 = f32[512,4,16,128]{3,2,1,0:T(8,128)} divide(%bitcast.695.clone.1, %div.936.clone.1), metadata={op_name="jit(train_step)/div" stack_frame_id=0}
  %select_n.295.clone.1 = f32[512,4,16,128]{3,2,1,0:T(8,128)} select(%select_n.296.clone.1, %bitcast.695.clone.1, %div.935.clone.1), metadata={op_name="jit(train_step)/select_n" stack_frame_id=0}
  %constant.1398.clone.1 = f32[]{:T(128)} constant(0.1)
  %broadcast.914.clone.1 = f32[512,4,16,128]{3,2,1,0:T(8,128)} broadcast(%constant.1398.clone.1), dimensions={}, metadata={op_name="broadcast.77"}
  %mul.2532.clone.1 = f32[512,4,16,128]{3,2,1,0:T(8,128)} multiply(%select_n.295.clone.1, %broadcast.914.clone.1), metadata={op_name="jit(train_step)/mul" stack_frame_id=0}
  %param_8.115 = f32[512,4,16,128]{3,2,1,0:T(8,128)} parameter(8)
  %constant.1402.clone.1 = f32[]{:T(128)} constant(0.9)
  %mul.2533.clone.1 = f32[512,4,16,128]{3,2,1,0:T(8,128)} broadcast(%constant.1402.clone.1), dimensions={}, metadata={op_name="jit(train_step)/mul" stack_frame_id=0}
  %mul.2531.clone.1 = f32[512,4,16,128]{3,2,1,0:T(8,128)} multiply(%param_8.115, %mul.2533.clone.1), metadata={op_name="jit(train_step)/mul" stack_frame_id=0}
  %add.961.clone.1 = f32[512,4,16,128]{3,2,1,0:T(8,128)} add(%mul.2532.clone.1, %mul.2531.clone.1), metadata={op_name="jit(train_step)/add" stack_frame_id=0}
  %param_2.1312 = f32[]{:T(128)S(6)} parameter(2)
  %div.932.clone.1 = f32[512,4,16,128]{3,2,1,0:T(8,128)} broadcast(%param_2.1312), dimensions={}, metadata={op_name="jit(train_step)/div" stack_frame_id=0}
  %integer_pow.72.clone.1 = f32[512,4,16,128]{3,2,1,0:T(8,128)} multiply(%select_n.295.clone.1, %select_n.295.clone.1), metadata={op_name="jit(train_step)/integer_pow" stack_frame_id=0}
  %constant.1401.clone.1 = f32[]{:T(128)} constant(0.05)
  %mul.2530.clone.1 = f32[512,4,16,128]{3,2,1,0:T(8,128)} broadcast(%constant.1401.clone.1), dimensions={}, metadata={op_name="jit(train_step)/mul" stack_frame_id=0}
  %mul.2528.clone.1 = f32[512,4,16,128]{3,2,1,0:T(8,128)} multiply(%integer_pow.72.clone.1, %mul.2530.clone.1), metadata={op_name="jit(train_step)/mul" stack_frame_id=0}
  %param_4.513 = f32[512,4,16,128]{3,2,1,0:T(8,128)} parameter(4)
  %constant.1400.clone.1 = f32[]{:T(128)} constant(0.95)
  %mul.2529.clone.1 = f32[512,4,16,128]{3,2,1,0:T(8,128)} broadcast(%constant.1400.clone.1), dimensions={}, metadata={op_name="jit(train_step)/mul" stack_frame_id=0}
  %mul.2527.clone.1 = f32[512,4,16,128]{3,2,1,0:T(8,128)} multiply(%param_4.513, %mul.2529.clone.1), metadata={op_name="jit(train_step)/mul" stack_frame_id=0}
  %add.960.clone.1 = f32[512,4,16,128]{3,2,1,0:T(8,128)} add(%mul.2528.clone.1, %mul.2527.clone.1), metadata={op_name="jit(train_step)/add" stack_frame_id=0}
  %param_1.1700 = f32[]{:T(128)S(6)} parameter(1)
  %div.931.clone.1 = f32[512,4,16,128]{3,2,1,0:T(8,128)} broadcast(%param_1.1700), dimensions={}, metadata={op_name="jit(train_step)/div" stack_frame_id=0}
  %div.930.clone.1 = f32[512,4,16,128]{3,2,1,0:T(8,128)} divide(%add.960.clone.1, %div.931.clone.1), metadata={op_name="jit(train_step)/div" stack_frame_id=0}
  %sqrt.69.clone.1 = f32[512,4,16,128]{3,2,1,0:T(8,128)} sqrt(%div.930.clone.1), metadata={op_name="jit(train_step)/sqrt" stack_frame_id=0}
  %constant.1399.clone.1 = f32[]{:T(128)} constant(1e-08)
  %add.959.clone.1 = f32[512,4,16,128]{3,2,1,0:T(8,128)} broadcast(%constant.1399.clone.1), dimensions={}, metadata={op_name="jit(train_step)/add" stack_frame_id=0}
  %add.958.clone.1 = f32[512,4,16,128]{3,2,1,0:T(8,128)} add(%sqrt.69.clone.1, %add.959.clone.1), metadata={op_name="jit(train_step)/add" stack_frame_id=0}
  %multiply.318.clone.1 = f32[512,4,16,128]{3,2,1,0:T(8,128)} multiply(%div.932.clone.1, %add.958.clone.1), metadata={op_name="multiply.42"}
  %div.929.clone.1 = f32[512,4,16,128]{3,2,1,0:T(8,128)} divide(%add.961.clone.1, %multiply.318.clone.1), metadata={op_name="jit(train_step)/div" stack_frame_id=0}
  %mul.2525.clone.1 = f32[512,4,16,128]{3,2,1,0:T(8,128)} multiply(%param_0.1521, %broadcast.914.clone.1), metadata={op_name="jit(train_step)/mul" stack_frame_id=0}
  %add.957.clone.1 = f32[512,4,16,128]{3,2,1,0:T(8,128)} add(%div.929.clone.1, %mul.2525.clone.1), metadata={op_name="jit(train_step)/add" stack_frame_id=0}
  %mul.2524.clone.1 = f32[512,4,16,128]{3,2,1,0:T(8,128)} multiply(%mul.2526.clone.1, %add.957.clone.1), metadata={op_name="jit(train_step)/mul" stack_frame_id=0}
  %add.956.clone.1 = f32[512,4,16,128]{3,2,1,0:T(8,128)S(1)} add(%param_0.1521, %mul.2524.clone.1), metadata={op_name="jit(train_step)/add" stack_frame_id=0}
  %square.231 = f32[512,4,16,128]{3,2,1,0:T(8,128)} multiply(%add.956.clone.1, %add.956.clone.1), metadata={op_name="jit(train_step)/square" stack_frame_id=0}
  %constant.1448 = f32[]{:T(128)} constant(0)
  %reduce.141 = f32[]{:T(128)} reduce(%square.231, %constant.1448), dimensions={0,1,2,3}, to_apply=%region_65.70, metadata={op_name="jit(train_step)/reduce_sum" stack_frame_id=0}
  %reduce.143.clone.1 = f32[]{:T(128)} reduce(%integer_pow.72.clone.1, %constant.1448), dimensions={0,1,2,3}, to_apply=%region_50.55, metadata={op_name="jit(train_step)/reduce_sum" stack_frame_id=0}
  ROOT %tuple.154 = (f32[]{:T(128)}, f32[512,4,16,128]{3,2,1,0:T(8,128)S(1)}, f32[512,4,16,128]{3,2,1,0:T(8,128)}, f32[512,4,16,128]{3,2,1,0:T(8,128)}, f32[]{:T(128)}) tuple(%reduce.141, %add.956.clone.1, %add.960.clone.1, %add.961.clone.1, %reduce.143.clone.1)
}

%region_64.69 (reduce_sum.548: f32[], reduce_sum.549: f32[]) -> f32[] {
  %reduce_sum.548 = f32[]{:T(128)} parameter(0), metadata={op_name="jit(train_step)/reduce_sum"}
  %reduce_sum.549 = f32[]{:T(128)} parameter(1), metadata={op_name="jit(train_step)/reduce_sum"}
  ROOT %reduce_sum.550 = f32[]{:T(128)} add(%reduce_sum.548, %reduce_sum.549), metadata={op_name="jit(train_step)/reduce_sum" stack_frame_id=0}, backend_config={"flag_configs":[],"scoped_memory_configs":[],"used_scoped_memory_configs":[],"aliasing_operands":{"lists":[]}}
}

%region_49.54 (reduce_sum.467: f32[], reduce_sum.471: f32[]) -> f32[] {
  %reduce_sum.467 = f32[]{:T(128)} parameter(0), metadata={op_name="jit(train_step)/reduce_sum"}
  %reduce_sum.471 = f32[]{:T(128)} parameter(1), metadata={op_name="jit(train_step)/reduce_sum"}
  ROOT %reduce_sum.472 = f32[]{:T(128)} add(%reduce_sum.467, %reduce_sum.471), metadata={op_name="jit(train_step)/reduce_sum" stack_frame_id=0}, backend_config={"flag_configs":[],"scoped_memory_configs":[],"used_scoped_memory_configs":[],"aliasing_operands":{"lists":[]}}
}

%fused_computation.372 (param_0.1522: f32[16,4,128,512], param_1.1701: f32[], param_2.1313: f32[], param_3.876: f32[], param_4.514: f32[16,4,128,512], param_5.458: f32[], param_6.316: f32[4,16,128,512], param_7.194: pred[], param_8.116: f32[16,4,128,512]) -> (f32[], f32[16,4,128,512], f32[16,4,128,512], f32[16,4,128,512], f32[]) {
  %param_0.1522 = f32[16,4,128,512]{3,2,1,0:T(8,128)} parameter(0)
  %param_3.876 = f32[]{:T(128)S(6)} parameter(3)
  %mul.2536.clone.1 = f32[16,4,128,512]{3,2,1,0:T(8,128)} broadcast(%param_3.876), dimensions={}, metadata={op_name="jit(train_step)/mul" stack_frame_id=0}
  %param_7.194 = pred[]{:T(512)S(6)} parameter(7)
  %select_n.300.clone.1 = pred[16,4,128,512]{3,2,1,0:T(8,128)(4,1)} broadcast(%param_7.194), dimensions={}, metadata={op_name="jit(train_step)/select_n" stack_frame_id=0}
  %param_6.316 = f32[4,16,128,512]{3,2,0,1:T(8,128)S(1)} parameter(6)
  %bitcast.697.clone.1 = f32[16,4,128,512]{3,2,1,0:T(8,128)} bitcast(%param_6.316), metadata={op_name="jit(train_step)/transpose(jvp())/transpose" stack_frame_id=0}
  %param_5.458 = f32[]{:T(128)} parameter(5)
  %div.944.clone.1 = f32[16,4,128,512]{3,2,1,0:T(8,128)} broadcast(%param_5.458), dimensions={}, metadata={op_name="jit(train_step)/div" stack_frame_id=0}
  %div.943.clone.1 = f32[16,4,128,512]{3,2,1,0:T(8,128)} divide(%bitcast.697.clone.1, %div.944.clone.1), metadata={op_name="jit(train_step)/div" stack_frame_id=0}
  %select_n.299.clone.1 = f32[16,4,128,512]{3,2,1,0:T(8,128)} select(%select_n.300.clone.1, %bitcast.697.clone.1, %div.943.clone.1), metadata={op_name="jit(train_step)/select_n" stack_frame_id=0}
  %constant.1404.clone.1 = f32[]{:T(128)} constant(0.1)
  %broadcast.916.clone.1 = f32[16,4,128,512]{3,2,1,0:T(8,128)} broadcast(%constant.1404.clone.1), dimensions={}, metadata={op_name="broadcast.78"}
  %mul.2542.clone.1 = f32[16,4,128,512]{3,2,1,0:T(8,128)} multiply(%select_n.299.clone.1, %broadcast.916.clone.1), metadata={op_name="jit(train_step)/mul" stack_frame_id=0}
  %param_8.116 = f32[16,4,128,512]{3,2,1,0:T(8,128)} parameter(8)
  %constant.1408.clone.1 = f32[]{:T(128)} constant(0.9)
  %mul.2543.clone.1 = f32[16,4,128,512]{3,2,1,0:T(8,128)} broadcast(%constant.1408.clone.1), dimensions={}, metadata={op_name="jit(train_step)/mul" stack_frame_id=0}
  %mul.2541.clone.1 = f32[16,4,128,512]{3,2,1,0:T(8,128)} multiply(%param_8.116, %mul.2543.clone.1), metadata={op_name="jit(train_step)/mul" stack_frame_id=0}
  %add.967.clone.1 = f32[16,4,128,512]{3,2,1,0:T(8,128)} add(%mul.2542.clone.1, %mul.2541.clone.1), metadata={op_name="jit(train_step)/add" stack_frame_id=0}
  %param_2.1313 = f32[]{:T(128)S(6)} parameter(2)
  %div.940.clone.1 = f32[16,4,128,512]{3,2,1,0:T(8,128)} broadcast(%param_2.1313), dimensions={}, metadata={op_name="jit(train_step)/div" stack_frame_id=0}
  %integer_pow.73.clone.1 = f32[16,4,128,512]{3,2,1,0:T(8,128)} multiply(%select_n.299.clone.1, %select_n.299.clone.1), metadata={op_name="jit(train_step)/integer_pow" stack_frame_id=0}
  %constant.1407.clone.1 = f32[]{:T(128)} constant(0.05)
  %mul.2540.clone.1 = f32[16,4,128,512]{3,2,1,0:T(8,128)} broadcast(%constant.1407.clone.1), dimensions={}, metadata={op_name="jit(train_step)/mul" stack_frame_id=0}
  %mul.2538.clone.1 = f32[16,4,128,512]{3,2,1,0:T(8,128)} multiply(%integer_pow.73.clone.1, %mul.2540.clone.1), metadata={op_name="jit(train_step)/mul" stack_frame_id=0}
  %param_4.514 = f32[16,4,128,512]{3,2,1,0:T(8,128)} parameter(4)
  %constant.1406.clone.1 = f32[]{:T(128)} constant(0.95)
  %mul.2539.clone.1 = f32[16,4,128,512]{3,2,1,0:T(8,128)} broadcast(%constant.1406.clone.1), dimensions={}, metadata={op_name="jit(train_step)/mul" stack_frame_id=0}
  %mul.2537.clone.1 = f32[16,4,128,512]{3,2,1,0:T(8,128)} multiply(%param_4.514, %mul.2539.clone.1), metadata={op_name="jit(train_step)/mul" stack_frame_id=0}
  %add.966.clone.1 = f32[16,4,128,512]{3,2,1,0:T(8,128)} add(%mul.2538.clone.1, %mul.2537.clone.1), metadata={op_name="jit(train_step)/add" stack_frame_id=0}
  %param_1.1701 = f32[]{:T(128)S(6)} parameter(1)
  %div.939.clone.1 = f32[16,4,128,512]{3,2,1,0:T(8,128)} broadcast(%param_1.1701), dimensions={}, metadata={op_name="jit(train_step)/div" stack_frame_id=0}
  %div.938.clone.1 = f32[16,4,128,512]{3,2,1,0:T(8,128)} divide(%add.966.clone.1, %div.939.clone.1), metadata={op_name="jit(train_step)/div" stack_frame_id=0}
  %sqrt.70.clone.1 = f32[16,4,128,512]{3,2,1,0:T(8,128)} sqrt(%div.938.clone.1), metadata={op_name="jit(train_step)/sqrt" stack_frame_id=0}
  %constant.1405.clone.1 = f32[]{:T(128)} constant(1e-08)
  %add.965.clone.1 = f32[16,4,128,512]{3,2,1,0:T(8,128)} broadcast(%constant.1405.clone.1), dimensions={}, metadata={op_name="jit(train_step)/add" stack_frame_id=0}
  %add.964.clone.1 = f32[16,4,128,512]{3,2,1,0:T(8,128)} add(%sqrt.70.clone.1, %add.965.clone.1), metadata={op_name="jit(train_step)/add" stack_frame_id=0}
  %multiply.319.clone.1 = f32[16,4,128,512]{3,2,1,0:T(8,128)} multiply(%div.940.clone.1, %add.964.clone.1), metadata={op_name="multiply.41"}
  %div.937.clone.1 = f32[16,4,128,512]{3,2,1,0:T(8,128)} divide(%add.967.clone.1, %multiply.319.clone.1), metadata={op_name="jit(train_step)/div" stack_frame_id=0}
  %mul.2535.clone.1 = f32[16,4,128,512]{3,2,1,0:T(8,128)} multiply(%param_0.1522, %broadcast.916.clone.1), metadata={op_name="jit(train_step)/mul" stack_frame_id=0}
  %add.963.clone.1 = f32[16,4,128,512]{3,2,1,0:T(8,128)} add(%div.937.clone.1, %mul.2535.clone.1), metadata={op_name="jit(train_step)/add" stack_frame_id=0}
  %mul.2534.clone.1 = f32[16,4,128,512]{3,2,1,0:T(8,128)} multiply(%mul.2536.clone.1, %add.963.clone.1), metadata={op_name="jit(train_step)/mul" stack_frame_id=0}
  %add.962.clone.1 = f32[16,4,128,512]{3,2,1,0:T(8,128)} add(%param_0.1522, %mul.2534.clone.1), metadata={op_name="jit(train_step)/add" stack_frame_id=0}
  %square.232 = f32[16,4,128,512]{3,2,1,0:T(8,128)} multiply(%add.962.clone.1, %add.962.clone.1), metadata={op_name="jit(train_step)/square" stack_frame_id=0}
  %constant.1449 = f32[]{:T(128)} constant(0)
  %reduce.142 = f32[]{:T(128)} reduce(%square.232, %constant.1449), dimensions={0,1,2,3}, to_apply=%region_64.69, metadata={op_name="jit(train_step)/reduce_sum" stack_frame_id=0}
  %reduce.144.clone.1 = f32[]{:T(128)} reduce(%integer_pow.73.clone.1, %constant.1449), dimensions={0,1,2,3}, to_apply=%region_49.54, metadata={op_name="jit(train_step)/reduce_sum" stack_frame_id=0}
  ROOT %tuple.155 = (f32[]{:T(128)}, f32[16,4,128,512]{3,2,1,0:T(8,128)}, f32[16,4,128,512]{3,2,1,0:T(8,128)}, f32[16,4,128,512]{3,2,1,0:T(8,128)}, f32[]{:T(128)}) tuple(%reduce.142, %add.962.clone.1, %add.966.clone.1, %add.967.clone.1, %reduce.144.clone.1)
}

%region_38.43 (reduce_sum.416: f32[], reduce_sum.417: f32[]) -> f32[] {
  %reduce_sum.416 = f32[]{:T(128)} parameter(0), metadata={op_name="jit(train_step)/reduce_sum"}
  %reduce_sum.417 = f32[]{:T(128)} parameter(1), metadata={op_name="jit(train_step)/reduce_sum"}
  ROOT %reduce_sum.418 = f32[]{:T(128)} add(%reduce_sum.416, %reduce_sum.417), metadata={op_name="jit(train_step)/reduce_sum" stack_frame_id=0}, backend_config={"flag_configs":[],"scoped_memory_configs":[],"used_scoped_memory_configs":[],"aliasing_operands":{"lists":[]}}
}

%region_33.38 (reduce_sum.389: f32[], reduce_sum.390: f32[]) -> f32[] {
  %reduce_sum.389 = f32[]{:T(128)} parameter(0), metadata={op_name="jit(train_step)/reduce_sum"}
  %reduce_sum.390 = f32[]{:T(128)} parameter(1), metadata={op_name="jit(train_step)/reduce_sum"}
  ROOT %reduce_sum.394 = f32[]{:T(128)} add(%reduce_sum.389, %reduce_sum.390), metadata={op_name="jit(train_step)/reduce_sum" stack_frame_id=0}, backend_config={"flag_configs":[],"scoped_memory_configs":[],"used_scoped_memory_configs":[],"aliasing_operands":{"lists":[]}}
}

%fused_computation.384 (param_0.1537: f32[4,512,8,128], param_1.1712: f32[4,512,8,128]) -> (f32[], f32[]) {
  %param_0.1537 = f32[4,512,8,128]{3,2,0,1:T(8,128)S(1)} parameter(0)
  %bitcast.563 = f32[512,4,8,128]{3,2,1,0:T(8,128)} bitcast(%param_0.1537), metadata={op_name="jit(train_step)/transpose(jvp())/transpose" stack_frame_id=0}
  %square.235 = f32[512,4,8,128]{3,2,1,0:T(8,128)} multiply(%bitcast.563, %bitcast.563), metadata={op_name="jit(train_step)/square" stack_frame_id=0}
  %constant.1464 = f32[]{:T(128)} constant(0)
  %reduce.145 = f32[]{:T(128)} reduce(%square.235, %constant.1464), dimensions={0,1,2,3}, to_apply=%region_38.43, metadata={op_name="jit(train_step)/reduce_sum" stack_frame_id=0}
  %param_1.1712 = f32[4,512,8,128]{3,2,0,1:T(8,128)S(1)} parameter(1)
  %bitcast.567.clone.1 = f32[512,4,8,128]{3,2,1,0:T(8,128)} bitcast(%param_1.1712), metadata={op_name="jit(train_step)/transpose(jvp())/transpose" stack_frame_id=0}
  %square.238.clone.1 = f32[512,4,8,128]{3,2,1,0:T(8,128)} multiply(%bitcast.567.clone.1, %bitcast.567.clone.1), metadata={op_name="jit(train_step)/square" stack_frame_id=0}
  %reduce.146.clone.1 = f32[]{:T(128)} reduce(%square.238.clone.1, %constant.1464), dimensions={0,1,2,3}, to_apply=%region_33.38, metadata={op_name="jit(train_step)/reduce_sum" stack_frame_id=0}
  ROOT %tuple.174 = (f32[]{:T(128)}, f32[]{:T(128)}) tuple(%reduce.145, %reduce.146.clone.1)
}

%fused_computation.387 (param_0.1095: f32[512,4,8,128]) -> bf16[4,512,8,128] {
  %param_0.1095 = f32[512,4,8,128]{3,2,1,0:T(8,128)S(1)} parameter(0)
  %copy.213 = bf16[512,4,8,128]{3,0,2,1:T(8,128)(2,1)} copy(%param_0.1095), sharding={devices=[4,1,1,1]<=[4]}, metadata={op_name="state[\'model\'][\'decoder\'][\'layers\'][\'self_attention\'][\'value\'][\'kernel\'].value"}
  ROOT %bitcast.568 = bf16[4,512,8,128]{3,1,2,0:T(8,128)(2,1)} bitcast(%copy.213), metadata={op_name="jit(train_step)/jvp()/transpose" stack_frame_id=0}
}

%region_67.72 (reduce_sum.563: f32[], reduce_sum.564: f32[]) -> f32[] {
  %reduce_sum.563 = f32[]{:T(128)} parameter(0), metadata={op_name="jit(train_step)/reduce_sum"}
  %reduce_sum.564 = f32[]{:T(128)} parameter(1), metadata={op_name="jit(train_step)/reduce_sum"}
  ROOT %reduce_sum.565 = f32[]{:T(128)} add(%reduce_sum.563, %reduce_sum.564), metadata={op_name="jit(train_step)/reduce_sum" stack_frame_id=0}, backend_config={"flag_configs":[],"scoped_memory_configs":[],"used_scoped_memory_configs":[],"aliasing_operands":{"lists":[]}}
}

%region_52.57 (reduce_sum.485: f32[], reduce_sum.486: f32[]) -> f32[] {
  %reduce_sum.485 = f32[]{:T(128)} parameter(0), metadata={op_name="jit(train_step)/reduce_sum"}
  %reduce_sum.486 = f32[]{:T(128)} parameter(1), metadata={op_name="jit(train_step)/reduce_sum"}
  ROOT %reduce_sum.487 = f32[]{:T(128)} add(%reduce_sum.485, %reduce_sum.486), metadata={op_name="jit(train_step)/reduce_sum" stack_frame_id=0}, backend_config={"flag_configs":[],"scoped_memory_configs":[],"used_scoped_memory_configs":[],"aliasing_operands":{"lists":[]}}
}

%fused_computation.388 (param_0.1519: f32[512,4,8,128], param_1.1698: f32[], param_2.1310: f32[], param_3.873: f32[], param_4.511: f32[512,4,8,128], param_5.455: f32[], param_6.313: f32[4,512,8,128], param_7.191: pred[], param_8.113: f32[512,4,8,128]) -> (f32[], f32[512,4,8,128], f32[512,4,8,128], f32[512,4,8,128], f32[]) {
  %param_0.1519 = f32[512,4,8,128]{3,2,1,0:T(8,128)} parameter(0)
  %param_3.873 = f32[]{:T(128)S(6)} parameter(3)
  %mul.2519.clone.1 = f32[512,4,8,128]{3,2,1,0:T(8,128)} broadcast(%param_3.873), dimensions={}, metadata={op_name="jit(train_step)/mul" stack_frame_id=0}
  %param_7.191 = pred[]{:T(512)S(6)} parameter(7)
  %select_n.292.clone.1 = pred[512,4,8,128]{3,2,1,0:T(8,128)(4,1)} broadcast(%param_7.191), dimensions={}, metadata={op_name="jit(train_step)/select_n" stack_frame_id=0}
  %param_6.313 = f32[4,512,8,128]{3,2,0,1:T(8,128)S(1)} parameter(6)
  %bitcast.693.clone.1 = f32[512,4,8,128]{3,2,1,0:T(8,128)} bitcast(%param_6.313), metadata={op_name="jit(train_step)/transpose(jvp())/transpose" stack_frame_id=0}
  %param_5.455 = f32[]{:T(128)} parameter(5)
  %div.928.clone.1 = f32[512,4,8,128]{3,2,1,0:T(8,128)} broadcast(%param_5.455), dimensions={}, metadata={op_name="jit(train_step)/div" stack_frame_id=0}
  %div.927.clone.1 = f32[512,4,8,128]{3,2,1,0:T(8,128)} divide(%bitcast.693.clone.1, %div.928.clone.1), metadata={op_name="jit(train_step)/div" stack_frame_id=0}
  %select_n.291.clone.1 = f32[512,4,8,128]{3,2,1,0:T(8,128)} select(%select_n.292.clone.1, %bitcast.693.clone.1, %div.927.clone.1), metadata={op_name="jit(train_step)/select_n" stack_frame_id=0}
  %constant.1392.clone.1 = f32[]{:T(128)} constant(0.1)
  %broadcast.912.clone.1 = f32[512,4,8,128]{3,2,1,0:T(8,128)} broadcast(%constant.1392.clone.1), dimensions={}, metadata={op_name="broadcast.82"}
  %mul.2523.clone.1 = f32[512,4,8,128]{3,2,1,0:T(8,128)} multiply(%select_n.291.clone.1, %broadcast.912.clone.1), metadata={op_name="jit(train_step)/mul" stack_frame_id=0}
  %param_8.113 = f32[512,4,8,128]{3,2,1,0:T(8,128)} parameter(8)
  %constant.1396.clone.1 = f32[]{:T(128)} constant(0.9)
  %broadcast.911.clone.1 = f32[512,4,8,128]{3,2,1,0:T(8,128)} broadcast(%constant.1396.clone.1), dimensions={}, metadata={op_name="broadcast.81"}
  %mul.2522.clone.1 = f32[512,4,8,128]{3,2,1,0:T(8,128)} multiply(%param_8.113, %broadcast.911.clone.1), metadata={op_name="jit(train_step)/mul" stack_frame_id=0}
  %add.955.clone.1 = f32[512,4,8,128]{3,2,1,0:T(8,128)} add(%mul.2523.clone.1, %mul.2522.clone.1), metadata={op_name="jit(train_step)/add" stack_frame_id=0}
  %param_2.1310 = f32[]{:T(128)S(6)} parameter(2)
  %div.924.clone.1 = f32[512,4,8,128]{3,2,1,0:T(8,128)} broadcast(%param_2.1310), dimensions={}, metadata={op_name="jit(train_step)/div" stack_frame_id=0}
  %integer_pow.71.clone.1 = f32[512,4,8,128]{3,2,1,0:T(8,128)} multiply(%select_n.291.clone.1, %select_n.291.clone.1), metadata={op_name="jit(train_step)/integer_pow" stack_frame_id=0}
  %constant.1395.clone.1 = f32[]{:T(128)} constant(0.05)
  %broadcast.910.clone.1 = f32[512,4,8,128]{3,2,1,0:T(8,128)} broadcast(%constant.1395.clone.1), dimensions={}, metadata={op_name="broadcast.71"}
  %mul.2521.clone.1 = f32[512,4,8,128]{3,2,1,0:T(8,128)} multiply(%integer_pow.71.clone.1, %broadcast.910.clone.1), metadata={op_name="jit(train_step)/mul" stack_frame_id=0}
  %param_4.511 = f32[512,4,8,128]{3,2,1,0:T(8,128)} parameter(4)
  %constant.1394.clone.1 = f32[]{:T(128)} constant(0.95)
  %broadcast.909.clone.1 = f32[512,4,8,128]{3,2,1,0:T(8,128)} broadcast(%constant.1394.clone.1), dimensions={}, metadata={op_name="broadcast.70"}
  %mul.2520.clone.1 = f32[512,4,8,128]{3,2,1,0:T(8,128)} multiply(%param_4.511, %broadcast.909.clone.1), metadata={op_name="jit(train_step)/mul" stack_frame_id=0}
  %add.954.clone.1 = f32[512,4,8,128]{3,2,1,0:T(8,128)} add(%mul.2521.clone.1, %mul.2520.clone.1), metadata={op_name="jit(train_step)/add" stack_frame_id=0}
  %param_1.1698 = f32[]{:T(128)S(6)} parameter(1)
  %div.923.clone.1 = f32[512,4,8,128]{3,2,1,0:T(8,128)} broadcast(%param_1.1698), dimensions={}, metadata={op_name="jit(train_step)/div" stack_frame_id=0}
  %div.922.clone.1 = f32[512,4,8,128]{3,2,1,0:T(8,128)} divide(%add.954.clone.1, %div.923.clone.1), metadata={op_name="jit(train_step)/div" stack_frame_id=0}
  %sqrt.68.clone.1 = f32[512,4,8,128]{3,2,1,0:T(8,128)} sqrt(%div.922.clone.1), metadata={op_name="jit(train_step)/sqrt" stack_frame_id=0}
  %constant.1393.clone.1 = f32[]{:T(128)} constant(1e-08)
  %broadcast.907.clone.1 = f32[512,4,8,128]{3,2,1,0:T(8,128)} broadcast(%constant.1393.clone.1), dimensions={}, metadata={op_name="broadcast.65"}
  %add.953.clone.1 = f32[512,4,8,128]{3,2,1,0:T(8,128)} add(%sqrt.68.clone.1, %broadcast.907.clone.1), metadata={op_name="jit(train_step)/add" stack_frame_id=0}
  %multiply.317.clone.1 = f32[512,4,8,128]{3,2,1,0:T(8,128)} multiply(%div.924.clone.1, %add.953.clone.1), metadata={op_name="multiply.44"}
  %div.921.clone.1 = f32[512,4,8,128]{3,2,1,0:T(8,128)} divide(%add.955.clone.1, %multiply.317.clone.1), metadata={op_name="jit(train_step)/div" stack_frame_id=0}
  %mul.2518.clone.1 = f32[512,4,8,128]{3,2,1,0:T(8,128)} multiply(%param_0.1519, %broadcast.912.clone.1), metadata={op_name="jit(train_step)/mul" stack_frame_id=0}
  %add.952.clone.1 = f32[512,4,8,128]{3,2,1,0:T(8,128)} add(%div.921.clone.1, %mul.2518.clone.1), metadata={op_name="jit(train_step)/add" stack_frame_id=0}
  %mul.2517.clone.1 = f32[512,4,8,128]{3,2,1,0:T(8,128)} multiply(%mul.2519.clone.1, %add.952.clone.1), metadata={op_name="jit(train_step)/mul" stack_frame_id=0}
  %add.951.clone.1 = f32[512,4,8,128]{3,2,1,0:T(8,128)} add(%param_0.1519, %mul.2517.clone.1), metadata={op_name="jit(train_step)/add" stack_frame_id=0}
  %square.239 = f32[512,4,8,128]{3,2,1,0:T(8,128)} multiply(%add.951.clone.1, %add.951.clone.1), metadata={op_name="jit(train_step)/square" stack_frame_id=0}
  %constant.1446 = f32[]{:T(128)} constant(0)
  %reduce.147 = f32[]{:T(128)} reduce(%square.239, %constant.1446), dimensions={0,1,2,3}, to_apply=%region_67.72, metadata={op_name="jit(train_step)/reduce_sum" stack_frame_id=0}
  %reduce.149.clone.1 = f32[]{:T(128)} reduce(%integer_pow.71.clone.1, %constant.1446), dimensions={0,1,2,3}, to_apply=%region_52.57, metadata={op_name="jit(train_step)/reduce_sum" stack_frame_id=0}
  ROOT %tuple.156 = (f32[]{:T(128)}, f32[512,4,8,128]{3,2,1,0:T(8,128)}, f32[512,4,8,128]{3,2,1,0:T(8,128)}, f32[512,4,8,128]{3,2,1,0:T(8,128)}, f32[]{:T(128)}) tuple(%reduce.147, %add.951.clone.1, %add.954.clone.1, %add.955.clone.1, %reduce.149.clone.1)
}

%region_62.67 (reduce_sum.536: f32[], reduce_sum.537: f32[]) -> f32[] {
  %reduce_sum.536 = f32[]{:T(128)} parameter(0), metadata={op_name="jit(train_step)/reduce_sum"}
  %reduce_sum.537 = f32[]{:T(128)} parameter(1), metadata={op_name="jit(train_step)/reduce_sum"}
  ROOT %reduce_sum.541 = f32[]{:T(128)} add(%reduce_sum.536, %reduce_sum.537), metadata={op_name="jit(train_step)/reduce_sum" stack_frame_id=0}, backend_config={"flag_configs":[],"scoped_memory_configs":[],"used_scoped_memory_configs":[],"aliasing_operands":{"lists":[]}}
}

%region_47.52 (reduce_sum.458: f32[], reduce_sum.459: f32[]) -> f32[] {
  %reduce_sum.458 = f32[]{:T(128)} parameter(0), metadata={op_name="jit(train_step)/reduce_sum"}
  %reduce_sum.459 = f32[]{:T(128)} parameter(1), metadata={op_name="jit(train_step)/reduce_sum"}
  ROOT %reduce_sum.460 = f32[]{:T(128)} add(%reduce_sum.458, %reduce_sum.459), metadata={op_name="jit(train_step)/reduce_sum" stack_frame_id=0}, backend_config={"flag_configs":[],"scoped_memory_configs":[],"used_scoped_memory_configs":[],"aliasing_operands":{"lists":[]}}
}

%fused_computation.389 (param_0.1524: f32[512,4,8,128], param_1.1703: f32[], param_2.1315: f32[], param_3.878: f32[], param_4.516: f32[512,4,8,128], param_5.460: f32[], param_6.318: f32[4,512,8,128], param_7.196: pred[], param_8.118: f32[512,4,8,128]) -> (f32[], f32[512,4,8,128], f32[512,4,8,128], f32[512,4,8,128], f32[]) {
  %param_0.1524 = f32[512,4,8,128]{3,2,1,0:T(8,128)} parameter(0)
  %param_3.878 = f32[]{:T(128)S(6)} parameter(3)
  %mul.2546.clone.1 = f32[512,4,8,128]{3,2,1,0:T(8,128)} broadcast(%param_3.878), dimensions={}, metadata={op_name="jit(train_step)/mul" stack_frame_id=0}
  %param_7.196 = pred[]{:T(512)S(6)} parameter(7)
  %select_n.304.clone.1 = pred[512,4,8,128]{3,2,1,0:T(8,128)(4,1)} broadcast(%param_7.196), dimensions={}, metadata={op_name="jit(train_step)/select_n" stack_frame_id=0}
  %param_6.318 = f32[4,512,8,128]{3,2,0,1:T(8,128)S(1)} parameter(6)
  %bitcast.699.clone.1 = f32[512,4,8,128]{3,2,1,0:T(8,128)} bitcast(%param_6.318), metadata={op_name="jit(train_step)/transpose(jvp())/transpose" stack_frame_id=0}
  %param_5.460 = f32[]{:T(128)} parameter(5)
  %div.952.clone.1 = f32[512,4,8,128]{3,2,1,0:T(8,128)} broadcast(%param_5.460), dimensions={}, metadata={op_name="jit(train_step)/div" stack_frame_id=0}
  %div.951.clone.1 = f32[512,4,8,128]{3,2,1,0:T(8,128)} divide(%bitcast.699.clone.1, %div.952.clone.1), metadata={op_name="jit(train_step)/div" stack_frame_id=0}
  %select_n.303.clone.1 = f32[512,4,8,128]{3,2,1,0:T(8,128)} select(%select_n.304.clone.1, %bitcast.699.clone.1, %div.951.clone.1), metadata={op_name="jit(train_step)/select_n" stack_frame_id=0}
  %constant.1410.clone.1 = f32[]{:T(128)} constant(0.1)
  %broadcast.922.clone.1 = f32[512,4,8,128]{3,2,1,0:T(8,128)} broadcast(%constant.1410.clone.1), dimensions={}, metadata={op_name="broadcast.82"}
  %mul.2550.clone.1 = f32[512,4,8,128]{3,2,1,0:T(8,128)} multiply(%select_n.303.clone.1, %broadcast.922.clone.1), metadata={op_name="jit(train_step)/mul" stack_frame_id=0}
  %param_8.118 = f32[512,4,8,128]{3,2,1,0:T(8,128)} parameter(8)
  %constant.1414.clone.1 = f32[]{:T(128)} constant(0.9)
  %broadcast.921.clone.1 = f32[512,4,8,128]{3,2,1,0:T(8,128)} broadcast(%constant.1414.clone.1), dimensions={}, metadata={op_name="broadcast.81"}
  %mul.2549.clone.1 = f32[512,4,8,128]{3,2,1,0:T(8,128)} multiply(%param_8.118, %broadcast.921.clone.1), metadata={op_name="jit(train_step)/mul" stack_frame_id=0}
  %add.972.clone.1 = f32[512,4,8,128]{3,2,1,0:T(8,128)} add(%mul.2550.clone.1, %mul.2549.clone.1), metadata={op_name="jit(train_step)/add" stack_frame_id=0}
  %param_2.1315 = f32[]{:T(128)S(6)} parameter(2)
  %div.948.clone.1 = f32[512,4,8,128]{3,2,1,0:T(8,128)} broadcast(%param_2.1315), dimensions={}, metadata={op_name="jit(train_step)/div" stack_frame_id=0}
  %integer_pow.74.clone.1 = f32[512,4,8,128]{3,2,1,0:T(8,128)} multiply(%select_n.303.clone.1, %select_n.303.clone.1), metadata={op_name="jit(train_step)/integer_pow" stack_frame_id=0}
  %constant.1413.clone.1 = f32[]{:T(128)} constant(0.05)
  %broadcast.920.clone.1 = f32[512,4,8,128]{3,2,1,0:T(8,128)} broadcast(%constant.1413.clone.1), dimensions={}, metadata={op_name="broadcast.71"}
  %mul.2548.clone.1 = f32[512,4,8,128]{3,2,1,0:T(8,128)} multiply(%integer_pow.74.clone.1, %broadcast.920.clone.1), metadata={op_name="jit(train_step)/mul" stack_frame_id=0}
  %param_4.516 = f32[512,4,8,128]{3,2,1,0:T(8,128)} parameter(4)
  %constant.1412.clone.1 = f32[]{:T(128)} constant(0.95)
  %broadcast.919.clone.1 = f32[512,4,8,128]{3,2,1,0:T(8,128)} broadcast(%constant.1412.clone.1), dimensions={}, metadata={op_name="broadcast.70"}
  %mul.2547.clone.1 = f32[512,4,8,128]{3,2,1,0:T(8,128)} multiply(%param_4.516, %broadcast.919.clone.1), metadata={op_name="jit(train_step)/mul" stack_frame_id=0}
  %add.971.clone.1 = f32[512,4,8,128]{3,2,1,0:T(8,128)} add(%mul.2548.clone.1, %mul.2547.clone.1), metadata={op_name="jit(train_step)/add" stack_frame_id=0}
  %param_1.1703 = f32[]{:T(128)S(6)} parameter(1)
  %div.947.clone.1 = f32[512,4,8,128]{3,2,1,0:T(8,128)} broadcast(%param_1.1703), dimensions={}, metadata={op_name="jit(train_step)/div" stack_frame_id=0}
  %div.946.clone.1 = f32[512,4,8,128]{3,2,1,0:T(8,128)} divide(%add.971.clone.1, %div.947.clone.1), metadata={op_name="jit(train_step)/div" stack_frame_id=0}
  %sqrt.71.clone.1 = f32[512,4,8,128]{3,2,1,0:T(8,128)} sqrt(%div.946.clone.1), metadata={op_name="jit(train_step)/sqrt" stack_frame_id=0}
  %constant.1411.clone.1 = f32[]{:T(128)} constant(1e-08)
  %broadcast.917.clone.1 = f32[512,4,8,128]{3,2,1,0:T(8,128)} broadcast(%constant.1411.clone.1), dimensions={}, metadata={op_name="broadcast.65"}
  %add.970.clone.1 = f32[512,4,8,128]{3,2,1,0:T(8,128)} add(%sqrt.71.clone.1, %broadcast.917.clone.1), metadata={op_name="jit(train_step)/add" stack_frame_id=0}
  %multiply.320.clone.1 = f32[512,4,8,128]{3,2,1,0:T(8,128)} multiply(%div.948.clone.1, %add.970.clone.1), metadata={op_name="multiply.39"}
  %div.945.clone.1 = f32[512,4,8,128]{3,2,1,0:T(8,128)} divide(%add.972.clone.1, %multiply.320.clone.1), metadata={op_name="jit(train_step)/div" stack_frame_id=0}
  %mul.2545.clone.1 = f32[512,4,8,128]{3,2,1,0:T(8,128)} multiply(%param_0.1524, %broadcast.922.clone.1), metadata={op_name="jit(train_step)/mul" stack_frame_id=0}
  %add.969.clone.1 = f32[512,4,8,128]{3,2,1,0:T(8,128)} add(%div.945.clone.1, %mul.2545.clone.1), metadata={op_name="jit(train_step)/add" stack_frame_id=0}
  %mul.2544.clone.1 = f32[512,4,8,128]{3,2,1,0:T(8,128)} multiply(%mul.2546.clone.1, %add.969.clone.1), metadata={op_name="jit(train_step)/mul" stack_frame_id=0}
  %add.968.clone.1 = f32[512,4,8,128]{3,2,1,0:T(8,128)} add(%param_0.1524, %mul.2544.clone.1), metadata={op_name="jit(train_step)/add" stack_frame_id=0}
  %square.240 = f32[512,4,8,128]{3,2,1,0:T(8,128)} multiply(%add.968.clone.1, %add.968.clone.1), metadata={op_name="jit(train_step)/square" stack_frame_id=0}
  %constant.1451 = f32[]{:T(128)} constant(0)
  %reduce.148 = f32[]{:T(128)} reduce(%square.240, %constant.1451), dimensions={0,1,2,3}, to_apply=%region_62.67, metadata={op_name="jit(train_step)/reduce_sum" stack_frame_id=0}
  %reduce.150.clone.1 = f32[]{:T(128)} reduce(%integer_pow.74.clone.1, %constant.1451), dimensions={0,1,2,3}, to_apply=%region_47.52, metadata={op_name="jit(train_step)/reduce_sum" stack_frame_id=0}
  ROOT %tuple.157 = (f32[]{:T(128)}, f32[512,4,8,128]{3,2,1,0:T(8,128)}, f32[512,4,8,128]{3,2,1,0:T(8,128)}, f32[512,4,8,128]{3,2,1,0:T(8,128)}, f32[]{:T(128)}) tuple(%reduce.148, %add.968.clone.1, %add.971.clone.1, %add.972.clone.1, %reduce.150.clone.1)
}

%fused_computation.405 (param_0.1171: bf16[1,128,2048], param_1.1232: f32[128], param_2.803: f32[128], param_3.435: bf16[1,128,2048], param_4.244: bf16[2048]) -> bf16[1,128,2048] {
  %param_3.435 = bf16[1,128,2048]{2,1,0:T(8,128)(2,1)S(1)} parameter(3)
  %param_4.244 = bf16[2048]{0:T(1024)(128)(2,1)S(1)} parameter(4)
  %mul.2373 = bf16[1,128,2048]{2,1,0:T(8,128)(2,1)} broadcast(%param_4.244), dimensions={2}, metadata={op_name="jit(train_step)/jvp()/mul" stack_frame_id=0}
  %mul.2359 = bf16[1,128,2048]{2,1,0:T(8,128)(2,1)} multiply(%param_3.435, %mul.2373), metadata={op_name="jit(train_step)/transpose(jvp())/mul" stack_frame_id=0}
  %convert_element_type.1255 = f32[1,128,2048]{2,1,0:T(8,128)} convert(%mul.2359), metadata={op_name="jit(train_step)/transpose(jvp())/convert_element_type" stack_frame_id=0}
  %param_2.803 = f32[128]{0:T(128)S(1)} parameter(2)
  %mul.2355 = f32[1,128,2048]{2,1,0:T(8,128)} broadcast(%param_2.803), dimensions={1}, metadata={op_name="jit(train_step)/jvp()/mul" stack_frame_id=0}
  %mul.2347 = f32[1,128,2048]{2,1,0:T(8,128)} multiply(%convert_element_type.1255, %mul.2355), metadata={op_name="jit(train_step)/transpose(jvp())/mul" stack_frame_id=0}
  %param_0.1171 = bf16[1,128,2048]{2,1,0:T(8,128)(2,1)S(1)} parameter(0)
  %convert_element_type.1266 = f32[1,128,2048]{2,1,0:T(8,128)} convert(%param_0.1171), metadata={op_name="jit(train_step)/jvp()/convert_element_type" stack_frame_id=0}
  %param_1.1232 = f32[128]{0:T(128)S(1)} parameter(1)
  %mul.2354 = f32[1,128,2048]{2,1,0:T(8,128)} broadcast(%param_1.1232), dimensions={1}, metadata={op_name="jit(train_step)/transpose(jvp())/mul" stack_frame_id=0}
  %mul.2353 = f32[1,128,2048]{2,1,0:T(8,128)} multiply(%convert_element_type.1266, %mul.2354), metadata={op_name="jit(train_step)/transpose(jvp())/mul" stack_frame_id=0}
  %add_any.193 = f32[1,128,2048]{2,1,0:T(8,128)} add(%mul.2347, %mul.2353), metadata={op_name="jit(train_step)/transpose(jvp())/add_any" stack_frame_id=0}
  ROOT %convert_element_type.1253 = bf16[1,128,2048]{2,1,0:T(8,128)(2,1)} convert(%add_any.193), metadata={op_name="jit(train_step)/transpose(jvp())/convert_element_type" stack_frame_id=0}
}

%region_6.9 (reduce_sum.228: f32[], reduce_sum.229: f32[]) -> f32[] {
  %reduce_sum.228 = f32[]{:T(128)} parameter(0), metadata={op_name="jit(train_step)/jvp()/reduce_sum"}
  %reduce_sum.229 = f32[]{:T(128)} parameter(1), metadata={op_name="jit(train_step)/jvp()/reduce_sum"}
  ROOT %reduce_sum.230 = f32[]{:T(128)} add(%reduce_sum.228, %reduce_sum.229), metadata={op_name="jit(train_step)/jvp()/reduce_sum" stack_frame_id=0}, backend_config={"flag_configs":[],"scoped_memory_configs":[],"used_scoped_memory_configs":[],"aliasing_operands":{"lists":[]}}
}

%fused_computation.406 (param_0.1545: bf16[1,128,2048]) -> f32[128] {
  %param_0.1545 = bf16[1,128,2048]{2,1,0:T(8,128)(2,1)S(1)} parameter(0)
  %convert_element_type.1257 = f32[1,128,2048]{2,1,0:T(8,128)} convert(%param_0.1545), metadata={op_name="jit(train_step)/jvp()/convert_element_type" stack_frame_id=0}
  %square.243 = f32[1,128,2048]{2,1,0:T(8,128)} multiply(%convert_element_type.1257, %convert_element_type.1257), metadata={op_name="jit(train_step)/jvp()/square" stack_frame_id=0}
  %constant.1473 = f32[]{:T(128)} constant(0)
  ROOT %reduce.151 = f32[128]{0:T(128)S(1)} reduce(%square.243, %constant.1473), dimensions={0,2}, to_apply=%region_6.9, metadata={op_name="jit(train_step)/jvp()/reduce_sum" stack_frame_id=0}
}

%region_12.15 (reduce_sum.275: f32[], reduce_sum.276: f32[]) -> f32[] {
  %reduce_sum.275 = f32[]{:T(128)} parameter(0), metadata={op_name="jit(train_step)/transpose(jvp())/reduce_sum"}
  %reduce_sum.276 = f32[]{:T(128)} parameter(1), metadata={op_name="jit(train_step)/transpose(jvp())/reduce_sum"}
  ROOT %reduce_sum.277 = f32[]{:T(128)} add(%reduce_sum.275, %reduce_sum.276), metadata={op_name="jit(train_step)/transpose(jvp())/reduce_sum" stack_frame_id=0}, backend_config={"flag_configs":[],"scoped_memory_configs":[],"used_scoped_memory_configs":[],"aliasing_operands":{"lists":[]}}
}

%fused_computation.408 (param_0.1541: bf16[1,128,2048], param_1.1714: bf16[1,128,2048], param_2.1323: bf16[2048]) -> f32[128] {
  %param_0.1541 = bf16[1,128,2048]{2,1,0:T(8,128)(2,1)S(1)} parameter(0)
  %convert_element_type.1264 = f32[1,128,2048]{2,1,0:T(8,128)} convert(%param_0.1541), metadata={op_name="jit(train_step)/jvp()/convert_element_type" stack_frame_id=0}
  %param_1.1714 = bf16[1,128,2048]{2,1,0:T(8,128)(2,1)S(1)} parameter(1)
  %param_2.1323 = bf16[2048]{0:T(1024)(128)(2,1)S(1)} parameter(2)
  %mul.2372 = bf16[1,128,2048]{2,1,0:T(8,128)(2,1)} broadcast(%param_2.1323), dimensions={2}, metadata={op_name="jit(train_step)/jvp()/mul" stack_frame_id=0}
  %mul.2358 = bf16[1,128,2048]{2,1,0:T(8,128)(2,1)} multiply(%param_1.1714, %mul.2372), metadata={op_name="jit(train_step)/transpose(jvp())/mul" stack_frame_id=0}
  %convert_element_type.1263 = f32[1,128,2048]{2,1,0:T(8,128)} convert(%mul.2358), metadata={op_name="jit(train_step)/transpose(jvp())/convert_element_type" stack_frame_id=0}
  %mul.2351 = f32[1,128,2048]{2,1,0:T(8,128)} multiply(%convert_element_type.1264, %convert_element_type.1263), metadata={op_name="jit(train_step)/transpose(jvp())/mul" stack_frame_id=0}
  %constant.1468 = f32[]{:T(128)} constant(0)
  ROOT %reduce.152 = f32[128]{0:T(128)S(1)} reduce(%mul.2351, %constant.1468), dimensions={0,2}, to_apply=%region_12.15, metadata={op_name="jit(train_step)/transpose(jvp())/reduce_sum" stack_frame_id=0}
}

%fused_computation.410 (param_0.1184: bf16[2048], param_1.1248: f32[128], param_2.811: bf16[1,128,2048]) -> bf16[128,2048] {
  %param_2.811 = bf16[1,128,2048]{2,1,0:T(8,128)(2,1)S(1)} parameter(2)
  %convert_element_type.1272 = f32[1,128,2048]{2,1,0:T(8,128)} convert(%param_2.811), metadata={op_name="jit(train_step)/jvp()/convert_element_type" stack_frame_id=0}
  %param_1.1248 = f32[128]{0:T(128)S(1)} parameter(1)
  %mul.2383 = f32[1,128,2048]{2,1,0:T(8,128)} broadcast(%param_1.1248), dimensions={1}, metadata={op_name="jit(train_step)/jvp()/mul" stack_frame_id=0}
  %mul.2382 = f32[1,128,2048]{2,1,0:T(8,128)} multiply(%convert_element_type.1272, %mul.2383), metadata={op_name="jit(train_step)/jvp()/mul" stack_frame_id=0}
  %convert_element_type.1271 = bf16[1,128,2048]{2,1,0:T(8,128)(2,1)} convert(%mul.2382), metadata={op_name="jit(train_step)/jvp()/convert_element_type" stack_frame_id=0}
  %param_0.1184 = bf16[2048]{0:T(1024)(128)(2,1)S(1)} parameter(0)
  %mul.2371 = bf16[1,128,2048]{2,1,0:T(8,128)(2,1)} broadcast(%param_0.1184), dimensions={2}, metadata={op_name="jit(train_step)/jvp()/mul" stack_frame_id=0}
  %mul.2363 = bf16[1,128,2048]{2,1,0:T(8,128)(2,1)} multiply(%convert_element_type.1271, %mul.2371), metadata={op_name="jit(train_step)/jvp()/mul" stack_frame_id=0}
  ROOT %bitcast.595 = bf16[128,2048]{1,0:T(8,128)(2,1)} bitcast(%mul.2363)
}

%fused_computation.363.clone (param_0.1394: bf16[128,151936], param_1.1574: f32[128], param_2.1126: f32[128], param_3.702: bf16[128], param_4.332: s32[128], param_5.278: f32[128]) -> bf16[128,151936] {
  %param_5.278 = f32[128]{0:T(128)S(1)} parameter(5)
  %mul.2462 = f32[1,128,151936]{2,1,0:T(8,128)} broadcast(%param_5.278), dimensions={1}, metadata={op_name="jit(train_step)/transpose(jvp())/mul" stack_frame_id=0}
  %param_1.1574 = f32[128]{0:T(128)S(1)} parameter(1)
  %mul.2461 = f32[1,128,151936]{2,1,0:T(8,128)} broadcast(%param_1.1574), dimensions={1}, metadata={op_name="jit(train_step)/transpose(jvp())/mul" stack_frame_id=0}
  %param_0.1394 = bf16[128,151936]{1,0:T(8,128)(2,1)S(1)} parameter(0)
  %convert_element_type.1303 = f32[128,151936]{1,0:T(8,128)} convert(%param_0.1394), metadata={op_name="jit(train_step)/jvp()/convert_element_type" stack_frame_id=0}
  %bitcast.675 = f32[1,128,151936]{2,1,0:T(8,128)} bitcast(%convert_element_type.1303), metadata={op_name="jit(train_step)/jvp()/convert_element_type" stack_frame_id=0}
  %param_3.702 = bf16[128]{0:T(256)(128)(2,1)S(1)} parameter(3)
  %sub.103 = f32[1,128,151936]{2,1,0:T(8,128)} broadcast(%param_3.702), dimensions={1}, metadata={op_name="jit(train_step)/jvp()/sub" stack_frame_id=0}
  %sub.102 = f32[1,128,151936]{2,1,0:T(8,128)} subtract(%bitcast.675, %sub.103), metadata={op_name="jit(train_step)/jvp()/sub" stack_frame_id=0}
  %exp.62 = f32[1,128,151936]{2,1,0:T(8,128)} exponential(%sub.102), metadata={op_name="jit(train_step)/jvp()/exp" stack_frame_id=0}
  %mul.2460 = f32[1,128,151936]{2,1,0:T(8,128)} multiply(%mul.2461, %exp.62), metadata={op_name="jit(train_step)/transpose(jvp())/mul" stack_frame_id=0}
  %param_2.1126 = f32[128]{0:T(128)S(1)} parameter(2)
  %div.870 = f32[1,128,151936]{2,1,0:T(8,128)} broadcast(%param_2.1126), dimensions={1}, metadata={op_name="jit(train_step)/transpose(jvp())/div" stack_frame_id=0}
  %div.869 = f32[1,128,151936]{2,1,0:T(8,128)} divide(%mul.2460, %div.870), metadata={op_name="jit(train_step)/transpose(jvp())/div" stack_frame_id=0}
  %param_4.332 = s32[128]{0:T(128)S(1)} parameter(4)
  %eq.29 = s32[1,128,151936]{2,1,0:T(8,128)} broadcast(%param_4.332), dimensions={1}, metadata={op_name="jit(train_step)/jvp(jit(_one_hot))/eq" stack_frame_id=0}
  %iota.57 = s32[1,128,151936]{2,1,0:T(8,128)} iota(), iota_dimension=2, metadata={op_name="jit(train_step)/jvp(jit(_one_hot))/eq" stack_frame_id=0}
  %eq.28 = pred[1,128,151936]{2,1,0:T(8,128)(4,1)} compare(%eq.29, %iota.57), direction=EQ, metadata={op_name="jit(train_step)/jvp(jit(_one_hot))/eq" stack_frame_id=0}
  %convert_element_type.1302 = f32[1,128,151936]{2,1,0:T(8,128)} convert(%eq.28), metadata={op_name="jit(train_step)/jvp(jit(_one_hot))/convert_element_type" stack_frame_id=0}
  %sub.101 = f32[1,128,151936]{2,1,0:T(8,128)} subtract(%div.869, %convert_element_type.1302), metadata={op_name="jit(train_step)/transpose(jvp())/sub" stack_frame_id=0}
  %mul.2459 = f32[1,128,151936]{2,1,0:T(8,128)} multiply(%mul.2462, %sub.101), metadata={op_name="jit(train_step)/transpose(jvp())/mul" stack_frame_id=0}
  %convert_element_type.1301 = bf16[1,128,151936]{2,1,0:T(8,128)(2,1)} convert(%mul.2459), metadata={op_name="jit(train_step)/transpose(jvp())/convert_element_type" stack_frame_id=0}
  ROOT %bitcast.674 = bf16[128,151936]{1,0:T(8,128)(2,1)} bitcast(%convert_element_type.1301)
}

%fused_computation.409 (param_0.1395: bf16[2048], param_1.1575: bf16[1,128,2048], param_2.1127: f32[128], param_3.703: bf16[128,151936], param_4.333: f32[128], param_5.279: f32[128], param_6.154: bf16[128], param_7.87: s32[128], param_8.5: f32[128]) -> bf16[151936,2048] {
  %param_3.703 = bf16[128,151936]{1,0:T(8,128)(2,1)S(1)} parameter(3)
  %param_4.333 = f32[128]{0:T(128)S(1)} parameter(4)
  %param_5.279 = f32[128]{0:T(128)S(1)} parameter(5)
  %param_6.154 = bf16[128]{0:T(256)(128)(2,1)S(1)} parameter(6)
  %param_7.87 = s32[128]{0:T(128)S(1)} parameter(7)
  %param_8.5 = f32[128]{0:T(128)S(1)} parameter(8)
  %fusion.340 = bf16[128,151936]{1,0:T(8,128)(2,1)} fusion(%param_3.703, %param_4.333, %param_5.279, %param_6.154, %param_7.87, /*index=5*/%param_8.5), kind=kLoop, calls=%fused_computation.363.clone
  %param_0.1395 = bf16[2048]{0:T(1024)(128)(2,1)S(1)} parameter(0)
  %param_2.1127 = f32[128]{0:T(128)S(1)} parameter(2)
  %param_1.1575 = bf16[1,128,2048]{2,1,0:T(8,128)(2,1)S(1)} parameter(1)
  %fusion.317 = bf16[128,2048]{1,0:T(8,128)(2,1)} fusion(%param_0.1395, %param_2.1127, %param_1.1575), kind=kLoop, calls=%fused_computation.410
  ROOT %convolution.114 = bf16[151936,2048]{1,0:T(8,128)(2,1)} convolution(%fusion.340, %fusion.317), dim_labels=fb_io->bf, metadata={op_name="jit(train_step)/transpose(jvp())/dot_general" stack_frame_id=0}
}

%region_10.13 (reduce_sum.263: bf16[], reduce_sum.264: bf16[]) -> bf16[] {
  %reduce_sum.263 = bf16[]{:T(256)} parameter(0), metadata={op_name="jit(train_step)/transpose(jvp())/reduce_sum"}
  %reduce_sum.264 = bf16[]{:T(256)} parameter(1), metadata={op_name="jit(train_step)/transpose(jvp())/reduce_sum"}
  ROOT %reduce_sum.268 = bf16[]{:T(256)} add(%reduce_sum.263, %reduce_sum.264), metadata={op_name="jit(train_step)/transpose(jvp())/reduce_sum" stack_frame_id=0}, backend_config={"flag_configs":[],"scoped_memory_configs":[],"used_scoped_memory_configs":[],"aliasing_operands":{"lists":[]}}
}

%fused_computation.363.clone.1.clone.clone (param_0.1508: bf16[128,151936], param_1.1691: f32[128], param_2.1288: f32[128], param_3.865: bf16[128], param_4.500: s32[128], param_5.434: f32[128]) -> bf16[128,151936] {
  %param_5.434 = f32[128]{0:T(128)S(1)} parameter(5)
  %mul.2644 = f32[1,128,151936]{2,1,0:T(8,128)} broadcast(%param_5.434), dimensions={1}, metadata={op_name="jit(train_step)/transpose(jvp())/mul" stack_frame_id=0}
  %param_1.1691 = f32[128]{0:T(128)S(1)} parameter(1)
  %mul.2643 = f32[1,128,151936]{2,1,0:T(8,128)} broadcast(%param_1.1691), dimensions={1}, metadata={op_name="jit(train_step)/transpose(jvp())/mul" stack_frame_id=0}
  %param_0.1508 = bf16[128,151936]{1,0:T(8,128)(2,1)S(1)} parameter(0)
  %convert_element_type.1344 = f32[128,151936]{1,0:T(8,128)} convert(%param_0.1508), metadata={op_name="jit(train_step)/jvp()/convert_element_type" stack_frame_id=0}
  %bitcast.753 = f32[1,128,151936]{2,1,0:T(8,128)} bitcast(%convert_element_type.1344), metadata={op_name="jit(train_step)/jvp()/convert_element_type" stack_frame_id=0}
  %param_3.865 = bf16[128]{0:T(256)(128)(2,1)S(1)} parameter(3)
  %sub.114 = f32[1,128,151936]{2,1,0:T(8,128)} broadcast(%param_3.865), dimensions={1}, metadata={op_name="jit(train_step)/jvp()/sub" stack_frame_id=0}
  %sub.113 = f32[1,128,151936]{2,1,0:T(8,128)} subtract(%bitcast.753, %sub.114), metadata={op_name="jit(train_step)/jvp()/sub" stack_frame_id=0}
  %exp.67 = f32[1,128,151936]{2,1,0:T(8,128)} exponential(%sub.113), metadata={op_name="jit(train_step)/jvp()/exp" stack_frame_id=0}
  %mul.2642 = f32[1,128,151936]{2,1,0:T(8,128)} multiply(%mul.2643, %exp.67), metadata={op_name="jit(train_step)/transpose(jvp())/mul" stack_frame_id=0}
  %param_2.1288 = f32[128]{0:T(128)S(1)} parameter(2)
  %div.982 = f32[1,128,151936]{2,1,0:T(8,128)} broadcast(%param_2.1288), dimensions={1}, metadata={op_name="jit(train_step)/transpose(jvp())/div" stack_frame_id=0}
  %div.981 = f32[1,128,151936]{2,1,0:T(8,128)} divide(%mul.2642, %div.982), metadata={op_name="jit(train_step)/transpose(jvp())/div" stack_frame_id=0}
  %param_4.500 = s32[128]{0:T(128)S(1)} parameter(4)
  %eq.35 = s32[1,128,151936]{2,1,0:T(8,128)} broadcast(%param_4.500), dimensions={1}, metadata={op_name="jit(train_step)/jvp(jit(_one_hot))/eq" stack_frame_id=0}
  %iota.60 = s32[1,128,151936]{2,1,0:T(8,128)} iota(), iota_dimension=2, metadata={op_name="jit(train_step)/jvp(jit(_one_hot))/eq" stack_frame_id=0}
  %eq.34 = pred[1,128,151936]{2,1,0:T(8,128)(4,1)} compare(%eq.35, %iota.60), direction=EQ, metadata={op_name="jit(train_step)/jvp(jit(_one_hot))/eq" stack_frame_id=0}
  %convert_element_type.1343 = f32[1,128,151936]{2,1,0:T(8,128)} convert(%eq.34), metadata={op_name="jit(train_step)/jvp(jit(_one_hot))/convert_element_type" stack_frame_id=0}
  %sub.112 = f32[1,128,151936]{2,1,0:T(8,128)} subtract(%div.981, %convert_element_type.1343), metadata={op_name="jit(train_step)/transpose(jvp())/sub" stack_frame_id=0}
  %mul.2641 = f32[1,128,151936]{2,1,0:T(8,128)} multiply(%mul.2644, %sub.112), metadata={op_name="jit(train_step)/transpose(jvp())/mul" stack_frame_id=0}
  %convert_element_type.1342 = bf16[1,128,151936]{2,1,0:T(8,128)(2,1)} convert(%mul.2641), metadata={op_name="jit(train_step)/transpose(jvp())/convert_element_type" stack_frame_id=0}
  ROOT %bitcast.752 = bf16[128,151936]{1,0:T(8,128)(2,1)} bitcast(%convert_element_type.1342)
}

%bitcast_fusion.2 (bitcast_input.2: bf16[151936,2048]) -> bf16[151936,2048] {
  %bitcast_input.2 = bf16[151936,2048]{1,0:T(8,128)(2,1)} parameter(0)
  ROOT %bitcast.760 = bf16[151936,2048]{1,0:T(8,128)(2,1)} bitcast(%bitcast_input.2)
}

%fused_computation.413 (param_0.1507: f32[128], param_1.1690: bf16[1,128,2048], param_2.1289: bf16[151936,2048], param_3.866: bf16[128,151936], param_4.501: f32[128], param_5.435: f32[128], param_6.299: bf16[128], param_7.189: s32[128], param_8.111: f32[128]) -> (bf16[2048], bf16[1,128,2048]) {
  %param_1.1690 = bf16[1,128,2048]{2,1,0:T(8,128)(2,1)S(1)} parameter(1)
  %convert_element_type.1276 = f32[1,128,2048]{2,1,0:T(8,128)} convert(%param_1.1690), metadata={op_name="jit(train_step)/jvp()/convert_element_type" stack_frame_id=0}
  %param_0.1507 = f32[128]{0:T(128)S(1)} parameter(0)
  %mul.2387 = f32[1,128,2048]{2,1,0:T(8,128)} broadcast(%param_0.1507), dimensions={1}, metadata={op_name="jit(train_step)/jvp()/mul" stack_frame_id=0}
  %mul.2386 = f32[1,128,2048]{2,1,0:T(8,128)} multiply(%convert_element_type.1276, %mul.2387), metadata={op_name="jit(train_step)/jvp()/mul" stack_frame_id=0}
  %convert_element_type.1275 = bf16[1,128,2048]{2,1,0:T(8,128)(2,1)} convert(%mul.2386), metadata={op_name="jit(train_step)/jvp()/convert_element_type" stack_frame_id=0}
  %param_3.866 = bf16[128,151936]{1,0:T(8,128)(2,1)S(1)} parameter(3)
  %param_4.501 = f32[128]{0:T(128)S(1)} parameter(4)
  %param_5.435 = f32[128]{0:T(128)S(1)} parameter(5)
  %param_6.299 = bf16[128]{0:T(256)(128)(2,1)S(1)} parameter(6)
  %param_7.189 = s32[128]{0:T(128)S(1)} parameter(7)
  %param_8.111 = f32[128]{0:T(128)S(1)} parameter(8)
  %fusion.341.clone.1 = bf16[128,151936]{1,0:T(8,128)(2,1)} fusion(%param_3.866, %param_4.501, %param_5.435, %param_6.299, %param_7.189, /*index=5*/%param_8.111), kind=kLoop, calls=%fused_computation.363.clone.1.clone.clone
  %param_2.1289 = bf16[151936,2048]{1,0:T(8,128)(2,1)} parameter(2)
  %fusion.356 = bf16[151936,2048]{1,0:T(8,128)(2,1)} fusion(%param_2.1289), kind=kLoop, calls=%bitcast_fusion.2
  %convolution.113.clone.1 = bf16[128,2048]{1,0:T(8,128)(2,1)} convolution(%fusion.341.clone.1, %fusion.356), dim_labels=bf_io->bf, metadata={op_name="jit(train_step)/transpose(jvp())/dot_general" stack_frame_id=0}
  %bitcast.593.clone.1 = bf16[1,128,2048]{2,1,0:T(8,128)(2,1)S(1)} bitcast(%convolution.113.clone.1), metadata={op_name="jit(train_step)/transpose(jvp())/dot_general" stack_frame_id=0}
  %mul.2357 = bf16[1,128,2048]{2,1,0:T(8,128)(2,1)} multiply(%convert_element_type.1275, %bitcast.593.clone.1), metadata={op_name="jit(train_step)/transpose(jvp())/mul" stack_frame_id=0}
  %constant.1309 = bf16[]{:T(256)} constant(0)
  %reduce.153 = bf16[2048]{0:T(1024)(128)(2,1)} reduce(%mul.2357, %constant.1309), dimensions={0,1}, to_apply=%region_10.13, metadata={op_name="jit(train_step)/transpose(jvp())/reduce_sum" stack_frame_id=0}
  ROOT %tuple.172 = (bf16[2048]{0:T(1024)(128)(2,1)}, bf16[1,128,2048]{2,1,0:T(8,128)(2,1)S(1)}) tuple(%reduce.153, %bitcast.593.clone.1)
}

%fused_computation.421 (param_0.1233: f32[128], param_1.1301: f32[64]) -> (bf16[1,128,1,64], bf16[1,128,1,64]) {
  %param_0.1233 = f32[128]{0:T(128)S(1)} parameter(0)
  %div.732 = f32[1,128,1,64]{3,1,2,0:T(8,128)} broadcast(%param_0.1233), dimensions={1}, metadata={op_name="jit(train_step)/div" stack_frame_id=0}
  %param_1.1301 = f32[64]{0:T(128)S(1)} parameter(1)
  %div.738 = f32[1,128,1,64]{3,1,2,0:T(8,128)} broadcast(%param_1.1301), dimensions={3}, metadata={op_name="jit(train_step)/div" stack_frame_id=0}
  %div.729 = f32[1,128,1,64]{3,1,2,0:T(8,128)} divide(%div.732, %div.738), metadata={op_name="jit(train_step)/div" stack_frame_id=0}
  %sin.38 = f32[1,128,1,64]{3,1,2,0:T(8,128)} sine(%div.729), metadata={op_name="jit(train_step)/sin" stack_frame_id=0}
  %convert_element_type.1284 = bf16[1,128,1,64]{3,1,2,0:T(8,128)(2,1)S(1)} convert(%sin.38), metadata={op_name="jit(train_step)/convert_element_type" stack_frame_id=0}
  %cos.41.clone.1 = f32[1,128,1,64]{3,1,2,0:T(8,128)} cosine(%div.729), metadata={op_name="jit(train_step)/cos" stack_frame_id=0}
  %convert_element_type.1283.clone.1 = bf16[1,128,1,64]{3,1,2,0:T(8,128)(2,1)S(1)} convert(%cos.41.clone.1), metadata={op_name="jit(train_step)/convert_element_type" stack_frame_id=0}
  ROOT %tuple.167 = (bf16[1,128,1,64]{3,1,2,0:T(8,128)(2,1)S(1)}, bf16[1,128,1,64]{3,1,2,0:T(8,128)(2,1)S(1)}) tuple(%convert_element_type.1284, %convert_element_type.1283.clone.1)
}

%fused_computation.424 (param_0.1204: bf16[1,128,1,64]) -> bf16[1,128,1,128] {
  %param_0.1204 = bf16[1,128,1,64]{3,1,2,0:T(8,128)(2,1)S(1)} parameter(0)
  %constant.1288 = bf16[]{:T(256)} constant(-inf)
  %pad.54 = bf16[1,128,1,128]{3,1,2,0:T(8,128)(2,1)} pad(%param_0.1204, %constant.1288), padding=0_0x0_0x0_0x0_64, metadata={op_name="jit(train_step)/concatenate" stack_frame_id=0}
  %pad.53 = bf16[1,128,1,128]{3,1,2,0:T(8,128)(2,1)} pad(%param_0.1204, %constant.1288), padding=0_0x0_0x0_0x64_0, metadata={op_name="jit(train_step)/concatenate" stack_frame_id=0}
  ROOT %maximum.46 = bf16[1,128,1,128]{3,1,2,0:T(8,128)(2,1)S(1)} maximum(%pad.54, %pad.53), metadata={op_name="jit(train_step)/concatenate" stack_frame_id=0}
}

%fused_computation.425 (param_0.1206: bf16[1,128,1,64]) -> bf16[1,128,1,128] {
  %param_0.1206 = bf16[1,128,1,64]{3,1,2,0:T(8,128)(2,1)S(1)} parameter(0)
  %constant.1287 = bf16[]{:T(256)} constant(-inf)
  %pad.56 = bf16[1,128,1,128]{3,1,2,0:T(8,128)(2,1)} pad(%param_0.1206, %constant.1287), padding=0_0x0_0x0_0x0_64, metadata={op_name="jit(train_step)/concatenate" stack_frame_id=0}
  %pad.55 = bf16[1,128,1,128]{3,1,2,0:T(8,128)(2,1)} pad(%param_0.1206, %constant.1287), padding=0_0x0_0x0_0x64_0, metadata={op_name="jit(train_step)/concatenate" stack_frame_id=0}
  ROOT %maximum.47 = bf16[1,128,1,128]{3,1,2,0:T(8,128)(2,1)S(1)} maximum(%pad.56, %pad.55), metadata={op_name="jit(train_step)/concatenate" stack_frame_id=0}
}

%region_32.37 (reduce_sum.383: f32[], reduce_sum.387: f32[]) -> f32[] {
  %reduce_sum.383 = f32[]{:T(128)} parameter(0), metadata={op_name="jit(train_step)/reduce_sum"}
  %reduce_sum.387 = f32[]{:T(128)} parameter(1), metadata={op_name="jit(train_step)/reduce_sum"}
  ROOT %reduce_sum.388 = f32[]{:T(128)} add(%reduce_sum.383, %reduce_sum.387), metadata={op_name="jit(train_step)/reduce_sum" stack_frame_id=0}, backend_config={"flag_configs":[],"scoped_memory_configs":[],"used_scoped_memory_configs":[],"aliasing_operands":{"lists":[]}}
}

%fused_computation.427 (param_0.1532: f32[4,2048]) -> f32[] {
  %param_0.1532 = f32[4,2048]{1,0:T(4,128)S(1)} parameter(0)
  %bitcast.601 = f32[2048,4]{0,1:T(4,128)} bitcast(%param_0.1532), metadata={op_name="jit(train_step)/transpose(jvp())/transpose" stack_frame_id=0}
  %square.246 = f32[2048,4]{0,1:T(4,128)} multiply(%bitcast.601, %bitcast.601), metadata={op_name="jit(train_step)/square" stack_frame_id=0}
  %constant.1459 = f32[]{:T(128)} constant(0)
  ROOT %reduce.154 = f32[]{:T(128)} reduce(%square.246, %constant.1459), dimensions={0,1}, to_apply=%region_32.37, metadata={op_name="jit(train_step)/reduce_sum" stack_frame_id=0}
}

%region_31.36 (reduce_sum.380: f32[], reduce_sum.381: f32[]) -> f32[] {
  %reduce_sum.380 = f32[]{:T(128)} parameter(0), metadata={op_name="jit(train_step)/reduce_sum"}
  %reduce_sum.381 = f32[]{:T(128)} parameter(1), metadata={op_name="jit(train_step)/reduce_sum"}
  ROOT %reduce_sum.382 = f32[]{:T(128)} add(%reduce_sum.380, %reduce_sum.381), metadata={op_name="jit(train_step)/reduce_sum" stack_frame_id=0}, backend_config={"flag_configs":[],"scoped_memory_configs":[],"used_scoped_memory_configs":[],"aliasing_operands":{"lists":[]}}
}

%fused_computation.429 (param_0.1533: f32[4,2048]) -> f32[] {
  %param_0.1533 = f32[4,2048]{1,0:T(4,128)S(1)} parameter(0)
  %bitcast.605 = f32[2048,4]{0,1:T(4,128)} bitcast(%param_0.1533), metadata={op_name="jit(train_step)/transpose(jvp())/transpose" stack_frame_id=0}
  %square.249 = f32[2048,4]{0,1:T(4,128)} multiply(%bitcast.605, %bitcast.605), metadata={op_name="jit(train_step)/square" stack_frame_id=0}
  %constant.1460 = f32[]{:T(128)} constant(0)
  ROOT %reduce.155 = f32[]{:T(128)} reduce(%square.249, %constant.1460), dimensions={0,1}, to_apply=%region_31.36, metadata={op_name="jit(train_step)/reduce_sum" stack_frame_id=0}
}

%region_61.66 (reduce_sum.530: f32[], reduce_sum.534: f32[]) -> f32[] {
  %reduce_sum.530 = f32[]{:T(128)} parameter(0), metadata={op_name="jit(train_step)/reduce_sum"}
  %reduce_sum.534 = f32[]{:T(128)} parameter(1), metadata={op_name="jit(train_step)/reduce_sum"}
  ROOT %reduce_sum.535 = f32[]{:T(128)} add(%reduce_sum.530, %reduce_sum.534), metadata={op_name="jit(train_step)/reduce_sum" stack_frame_id=0}, backend_config={"flag_configs":[],"scoped_memory_configs":[],"used_scoped_memory_configs":[],"aliasing_operands":{"lists":[]}}
}

%region_46.51 (reduce_sum.452: f32[], reduce_sum.453: f32[]) -> f32[] {
  %reduce_sum.452 = f32[]{:T(128)} parameter(0), metadata={op_name="jit(train_step)/reduce_sum"}
  %reduce_sum.453 = f32[]{:T(128)} parameter(1), metadata={op_name="jit(train_step)/reduce_sum"}
  ROOT %reduce_sum.457 = f32[]{:T(128)} add(%reduce_sum.452, %reduce_sum.453), metadata={op_name="jit(train_step)/reduce_sum" stack_frame_id=0}, backend_config={"flag_configs":[],"scoped_memory_configs":[],"used_scoped_memory_configs":[],"aliasing_operands":{"lists":[]}}
}

%fused_computation.430 (param_0.1525: f32[2048,4], param_1.1704: f32[], param_2.1316: f32[], param_3.879: f32[], param_4.517: f32[2048,4], param_5.461: f32[], param_6.319: f32[4,2048], param_7.197: pred[], param_8.119: f32[2048,4]) -> (f32[], f32[2048,4], f32[2048,4], f32[2048,4], f32[]) {
  %param_0.1525 = f32[2048,4]{0,1:T(4,128)S(1)} parameter(0)
  %param_3.879 = f32[]{:T(128)S(6)} parameter(3)
  %mul.2485.clone.1 = f32[2048,4]{0,1:T(4,128)} broadcast(%param_3.879), dimensions={}, metadata={op_name="jit(train_step)/mul" stack_frame_id=0}
  %param_7.197 = pred[]{:T(512)S(6)} parameter(7)
  %select_n.276.clone.1 = pred[2048,4]{0,1:T(4,128)(4,1)} broadcast(%param_7.197), dimensions={}, metadata={op_name="jit(train_step)/select_n" stack_frame_id=0}
  %param_6.319 = f32[4,2048]{1,0:T(4,128)S(1)} parameter(6)
  %bitcast.689.clone.1 = f32[2048,4]{0,1:T(4,128)} bitcast(%param_6.319), metadata={op_name="jit(train_step)/transpose(jvp())/transpose" stack_frame_id=0}
  %param_5.461 = f32[]{:T(128)} parameter(5)
  %div.896.clone.1 = f32[2048,4]{0,1:T(4,128)} broadcast(%param_5.461), dimensions={}, metadata={op_name="jit(train_step)/div" stack_frame_id=0}
  %div.895.clone.1 = f32[2048,4]{0,1:T(4,128)} divide(%bitcast.689.clone.1, %div.896.clone.1), metadata={op_name="jit(train_step)/div" stack_frame_id=0}
  %select_n.275.clone.1 = f32[2048,4]{0,1:T(4,128)} select(%select_n.276.clone.1, %bitcast.689.clone.1, %div.895.clone.1), metadata={op_name="jit(train_step)/select_n" stack_frame_id=0}
  %constant.1366.clone.1 = f32[]{:T(128)} constant(0.1)
  %broadcast.896.clone.1 = f32[2048,4]{0,1:T(4,128)} broadcast(%constant.1366.clone.1), dimensions={}, metadata={op_name="broadcast.84"}
  %mul.2489.clone.1 = f32[2048,4]{0,1:T(4,128)} multiply(%select_n.275.clone.1, %broadcast.896.clone.1), metadata={op_name="jit(train_step)/mul" stack_frame_id=0}
  %param_8.119 = f32[2048,4]{0,1:T(4,128)S(1)} parameter(8)
  %constant.1370.clone.1 = f32[]{:T(128)} constant(0.9)
  %broadcast.895.clone.1 = f32[2048,4]{0,1:T(4,128)} broadcast(%constant.1370.clone.1), dimensions={}, metadata={op_name="broadcast.83"}
  %mul.2488.clone.1 = f32[2048,4]{0,1:T(4,128)} multiply(%param_8.119, %broadcast.895.clone.1), metadata={op_name="jit(train_step)/mul" stack_frame_id=0}
  %add.933.clone.1 = f32[2048,4]{0,1:T(4,128)S(1)} add(%mul.2489.clone.1, %mul.2488.clone.1), metadata={op_name="jit(train_step)/add" stack_frame_id=0}
  %param_2.1316 = f32[]{:T(128)S(6)} parameter(2)
  %div.892.clone.1 = f32[2048,4]{0,1:T(4,128)} broadcast(%param_2.1316), dimensions={}, metadata={op_name="jit(train_step)/div" stack_frame_id=0}
  %integer_pow.67.clone.1 = f32[2048,4]{0,1:T(4,128)} multiply(%select_n.275.clone.1, %select_n.275.clone.1), metadata={op_name="jit(train_step)/integer_pow" stack_frame_id=0}
  %constant.1369.clone.1 = f32[]{:T(128)} constant(0.05)
  %broadcast.894.clone.1 = f32[2048,4]{0,1:T(4,128)} broadcast(%constant.1369.clone.1), dimensions={}, metadata={op_name="broadcast.73"}
  %mul.2487.clone.1 = f32[2048,4]{0,1:T(4,128)} multiply(%integer_pow.67.clone.1, %broadcast.894.clone.1), metadata={op_name="jit(train_step)/mul" stack_frame_id=0}
  %param_4.517 = f32[2048,4]{0,1:T(4,128)S(1)} parameter(4)
  %constant.1368.clone.1 = f32[]{:T(128)} constant(0.95)
  %broadcast.893.clone.1 = f32[2048,4]{0,1:T(4,128)} broadcast(%constant.1368.clone.1), dimensions={}, metadata={op_name="broadcast.72"}
  %mul.2486.clone.1 = f32[2048,4]{0,1:T(4,128)} multiply(%param_4.517, %broadcast.893.clone.1), metadata={op_name="jit(train_step)/mul" stack_frame_id=0}
  %add.932.clone.1 = f32[2048,4]{0,1:T(4,128)S(1)} add(%mul.2487.clone.1, %mul.2486.clone.1), metadata={op_name="jit(train_step)/add" stack_frame_id=0}
  %param_1.1704 = f32[]{:T(128)S(6)} parameter(1)
  %div.891.clone.1 = f32[2048,4]{0,1:T(4,128)} broadcast(%param_1.1704), dimensions={}, metadata={op_name="jit(train_step)/div" stack_frame_id=0}
  %div.890.clone.1 = f32[2048,4]{0,1:T(4,128)} divide(%add.932.clone.1, %div.891.clone.1), metadata={op_name="jit(train_step)/div" stack_frame_id=0}
  %sqrt.64.clone.1 = f32[2048,4]{0,1:T(4,128)} sqrt(%div.890.clone.1), metadata={op_name="jit(train_step)/sqrt" stack_frame_id=0}
  %constant.1367.clone.1 = f32[]{:T(128)} constant(1e-08)
  %broadcast.891.clone.1 = f32[2048,4]{0,1:T(4,128)} broadcast(%constant.1367.clone.1), dimensions={}, metadata={op_name="broadcast.66"}
  %add.931.clone.1 = f32[2048,4]{0,1:T(4,128)} add(%sqrt.64.clone.1, %broadcast.891.clone.1), metadata={op_name="jit(train_step)/add" stack_frame_id=0}
  %multiply.313.clone.1 = f32[2048,4]{0,1:T(4,128)} multiply(%div.892.clone.1, %add.931.clone.1), metadata={op_name="multiply.38"}
  %div.889.clone.1 = f32[2048,4]{0,1:T(4,128)} divide(%add.933.clone.1, %multiply.313.clone.1), metadata={op_name="jit(train_step)/div" stack_frame_id=0}
  %mul.2484.clone.1 = f32[2048,4]{0,1:T(4,128)} multiply(%param_0.1525, %broadcast.896.clone.1), metadata={op_name="jit(train_step)/mul" stack_frame_id=0}
  %add.930.clone.1 = f32[2048,4]{0,1:T(4,128)} add(%div.889.clone.1, %mul.2484.clone.1), metadata={op_name="jit(train_step)/add" stack_frame_id=0}
  %mul.2483.clone.1 = f32[2048,4]{0,1:T(4,128)} multiply(%mul.2485.clone.1, %add.930.clone.1), metadata={op_name="jit(train_step)/mul" stack_frame_id=0}
  %add.929.clone.1 = f32[2048,4]{0,1:T(4,128)S(1)} add(%param_0.1525, %mul.2483.clone.1), metadata={op_name="jit(train_step)/add" stack_frame_id=0}
  %square.250 = f32[2048,4]{0,1:T(4,128)} multiply(%add.929.clone.1, %add.929.clone.1), metadata={op_name="jit(train_step)/square" stack_frame_id=0}
  %constant.1452 = f32[]{:T(128)} constant(0)
  %reduce.156 = f32[]{:T(128)} reduce(%square.250, %constant.1452), dimensions={0,1}, to_apply=%region_61.66, metadata={op_name="jit(train_step)/reduce_sum" stack_frame_id=0}
  %reduce.158.clone.1 = f32[]{:T(128)} reduce(%integer_pow.67.clone.1, %constant.1452), dimensions={0,1}, to_apply=%region_46.51, metadata={op_name="jit(train_step)/reduce_sum" stack_frame_id=0}
  ROOT %tuple.158 = (f32[]{:T(128)}, f32[2048,4]{0,1:T(4,128)S(1)}, f32[2048,4]{0,1:T(4,128)S(1)}, f32[2048,4]{0,1:T(4,128)S(1)}, f32[]{:T(128)}) tuple(%reduce.156, %add.929.clone.1, %add.932.clone.1, %add.933.clone.1, %reduce.158.clone.1)
}

%region_60.65 (reduce_sum.527: f32[], reduce_sum.528: f32[]) -> f32[] {
  %reduce_sum.527 = f32[]{:T(128)} parameter(0), metadata={op_name="jit(train_step)/reduce_sum"}
  %reduce_sum.528 = f32[]{:T(128)} parameter(1), metadata={op_name="jit(train_step)/reduce_sum"}
  ROOT %reduce_sum.529 = f32[]{:T(128)} add(%reduce_sum.527, %reduce_sum.528), metadata={op_name="jit(train_step)/reduce_sum" stack_frame_id=0}, backend_config={"flag_configs":[],"scoped_memory_configs":[],"used_scoped_memory_configs":[],"aliasing_operands":{"lists":[]}}
}

%region_45.50 (reduce_sum.446: f32[], reduce_sum.450: f32[]) -> f32[] {
  %reduce_sum.446 = f32[]{:T(128)} parameter(0), metadata={op_name="jit(train_step)/reduce_sum"}
  %reduce_sum.450 = f32[]{:T(128)} parameter(1), metadata={op_name="jit(train_step)/reduce_sum"}
  ROOT %reduce_sum.451 = f32[]{:T(128)} add(%reduce_sum.446, %reduce_sum.450), metadata={op_name="jit(train_step)/reduce_sum" stack_frame_id=0}, backend_config={"flag_configs":[],"scoped_memory_configs":[],"used_scoped_memory_configs":[],"aliasing_operands":{"lists":[]}}
}

%fused_computation.431 (param_0.1526: f32[2048,4], param_1.1705: f32[], param_2.1317: f32[], param_3.880: f32[], param_4.518: f32[2048,4], param_5.462: f32[], param_6.320: f32[4,2048], param_7.198: pred[], param_8.120: f32[2048,4]) -> (f32[], f32[2048,4], f32[2048,4], f32[2048,4], f32[]) {
  %param_0.1526 = f32[2048,4]{0,1:T(4,128)S(1)} parameter(0)
  %param_3.880 = f32[]{:T(128)S(6)} parameter(3)
  %mul.2492.clone.1 = f32[2048,4]{0,1:T(4,128)} broadcast(%param_3.880), dimensions={}, metadata={op_name="jit(train_step)/mul" stack_frame_id=0}
  %param_7.198 = pred[]{:T(512)S(6)} parameter(7)
  %select_n.280.clone.1 = pred[2048,4]{0,1:T(4,128)(4,1)} broadcast(%param_7.198), dimensions={}, metadata={op_name="jit(train_step)/select_n" stack_frame_id=0}
  %param_6.320 = f32[4,2048]{1,0:T(4,128)S(1)} parameter(6)
  %bitcast.691.clone.1 = f32[2048,4]{0,1:T(4,128)} bitcast(%param_6.320), metadata={op_name="jit(train_step)/transpose(jvp())/transpose" stack_frame_id=0}
  %param_5.462 = f32[]{:T(128)} parameter(5)
  %div.904.clone.1 = f32[2048,4]{0,1:T(4,128)} broadcast(%param_5.462), dimensions={}, metadata={op_name="jit(train_step)/div" stack_frame_id=0}
  %div.903.clone.1 = f32[2048,4]{0,1:T(4,128)} divide(%bitcast.691.clone.1, %div.904.clone.1), metadata={op_name="jit(train_step)/div" stack_frame_id=0}
  %select_n.279.clone.1 = f32[2048,4]{0,1:T(4,128)} select(%select_n.280.clone.1, %bitcast.691.clone.1, %div.903.clone.1), metadata={op_name="jit(train_step)/select_n" stack_frame_id=0}
  %constant.1372.clone.1 = f32[]{:T(128)} constant(0.1)
  %broadcast.902.clone.1 = f32[2048,4]{0,1:T(4,128)} broadcast(%constant.1372.clone.1), dimensions={}, metadata={op_name="broadcast.84"}
  %mul.2496.clone.1 = f32[2048,4]{0,1:T(4,128)} multiply(%select_n.279.clone.1, %broadcast.902.clone.1), metadata={op_name="jit(train_step)/mul" stack_frame_id=0}
  %param_8.120 = f32[2048,4]{0,1:T(4,128)S(1)} parameter(8)
  %constant.1376.clone.1 = f32[]{:T(128)} constant(0.9)
  %broadcast.901.clone.1 = f32[2048,4]{0,1:T(4,128)} broadcast(%constant.1376.clone.1), dimensions={}, metadata={op_name="broadcast.83"}
  %mul.2495.clone.1 = f32[2048,4]{0,1:T(4,128)} multiply(%param_8.120, %broadcast.901.clone.1), metadata={op_name="jit(train_step)/mul" stack_frame_id=0}
  %add.938.clone.1 = f32[2048,4]{0,1:T(4,128)S(1)} add(%mul.2496.clone.1, %mul.2495.clone.1), metadata={op_name="jit(train_step)/add" stack_frame_id=0}
  %param_2.1317 = f32[]{:T(128)S(6)} parameter(2)
  %div.900.clone.1 = f32[2048,4]{0,1:T(4,128)} broadcast(%param_2.1317), dimensions={}, metadata={op_name="jit(train_step)/div" stack_frame_id=0}
  %integer_pow.68.clone.1 = f32[2048,4]{0,1:T(4,128)} multiply(%select_n.279.clone.1, %select_n.279.clone.1), metadata={op_name="jit(train_step)/integer_pow" stack_frame_id=0}
  %constant.1375.clone.1 = f32[]{:T(128)} constant(0.05)
  %broadcast.900.clone.1 = f32[2048,4]{0,1:T(4,128)} broadcast(%constant.1375.clone.1), dimensions={}, metadata={op_name="broadcast.73"}
  %mul.2494.clone.1 = f32[2048,4]{0,1:T(4,128)} multiply(%integer_pow.68.clone.1, %broadcast.900.clone.1), metadata={op_name="jit(train_step)/mul" stack_frame_id=0}
  %param_4.518 = f32[2048,4]{0,1:T(4,128)S(1)} parameter(4)
  %constant.1374.clone.1 = f32[]{:T(128)} constant(0.95)
  %broadcast.899.clone.1 = f32[2048,4]{0,1:T(4,128)} broadcast(%constant.1374.clone.1), dimensions={}, metadata={op_name="broadcast.72"}
  %mul.2493.clone.1 = f32[2048,4]{0,1:T(4,128)} multiply(%param_4.518, %broadcast.899.clone.1), metadata={op_name="jit(train_step)/mul" stack_frame_id=0}
  %add.937.clone.1 = f32[2048,4]{0,1:T(4,128)S(1)} add(%mul.2494.clone.1, %mul.2493.clone.1), metadata={op_name="jit(train_step)/add" stack_frame_id=0}
  %param_1.1705 = f32[]{:T(128)S(6)} parameter(1)
  %div.899.clone.1 = f32[2048,4]{0,1:T(4,128)} broadcast(%param_1.1705), dimensions={}, metadata={op_name="jit(train_step)/div" stack_frame_id=0}
  %div.898.clone.1 = f32[2048,4]{0,1:T(4,128)} divide(%add.937.clone.1, %div.899.clone.1), metadata={op_name="jit(train_step)/div" stack_frame_id=0}
  %sqrt.65.clone.1 = f32[2048,4]{0,1:T(4,128)} sqrt(%div.898.clone.1), metadata={op_name="jit(train_step)/sqrt" stack_frame_id=0}
  %constant.1373.clone.1 = f32[]{:T(128)} constant(1e-08)
  %broadcast.897.clone.1 = f32[2048,4]{0,1:T(4,128)} broadcast(%constant.1373.clone.1), dimensions={}, metadata={op_name="broadcast.66"}
  %add.936.clone.1 = f32[2048,4]{0,1:T(4,128)} add(%sqrt.65.clone.1, %broadcast.897.clone.1), metadata={op_name="jit(train_step)/add" stack_frame_id=0}
  %multiply.314.clone.1 = f32[2048,4]{0,1:T(4,128)} multiply(%div.900.clone.1, %add.936.clone.1), metadata={op_name="multiply.37"}
  %div.897.clone.1 = f32[2048,4]{0,1:T(4,128)} divide(%add.938.clone.1, %multiply.314.clone.1), metadata={op_name="jit(train_step)/div" stack_frame_id=0}
  %mul.2491.clone.1 = f32[2048,4]{0,1:T(4,128)} multiply(%param_0.1526, %broadcast.902.clone.1), metadata={op_name="jit(train_step)/mul" stack_frame_id=0}
  %add.935.clone.1 = f32[2048,4]{0,1:T(4,128)} add(%div.897.clone.1, %mul.2491.clone.1), metadata={op_name="jit(train_step)/add" stack_frame_id=0}
  %mul.2490.clone.1 = f32[2048,4]{0,1:T(4,128)} multiply(%mul.2492.clone.1, %add.935.clone.1), metadata={op_name="jit(train_step)/mul" stack_frame_id=0}
  %add.934.clone.1 = f32[2048,4]{0,1:T(4,128)S(1)} add(%param_0.1526, %mul.2490.clone.1), metadata={op_name="jit(train_step)/add" stack_frame_id=0}
  %square.251 = f32[2048,4]{0,1:T(4,128)} multiply(%add.934.clone.1, %add.934.clone.1), metadata={op_name="jit(train_step)/square" stack_frame_id=0}
  %constant.1453 = f32[]{:T(128)} constant(0)
  %reduce.157 = f32[]{:T(128)} reduce(%square.251, %constant.1453), dimensions={0,1}, to_apply=%region_60.65, metadata={op_name="jit(train_step)/reduce_sum" stack_frame_id=0}
  %reduce.159.clone.1 = f32[]{:T(128)} reduce(%integer_pow.68.clone.1, %constant.1453), dimensions={0,1}, to_apply=%region_45.50, metadata={op_name="jit(train_step)/reduce_sum" stack_frame_id=0}
  ROOT %tuple.159 = (f32[]{:T(128)}, f32[2048,4]{0,1:T(4,128)S(1)}, f32[2048,4]{0,1:T(4,128)S(1)}, f32[2048,4]{0,1:T(4,128)S(1)}, f32[]{:T(128)}) tuple(%reduce.157, %add.934.clone.1, %add.937.clone.1, %add.938.clone.1, %reduce.159.clone.1)
}

%region_11.14 (reduce_sum.269: f32[], reduce_sum.270: f32[]) -> f32[] {
  %reduce_sum.269 = f32[]{:T(128)} parameter(0), metadata={op_name="jit(train_step)/reduce_sum"}
  %reduce_sum.270 = f32[]{:T(128)} parameter(1), metadata={op_name="jit(train_step)/reduce_sum"}
  ROOT %reduce_sum.271 = f32[]{:T(128)} add(%reduce_sum.269, %reduce_sum.270), metadata={op_name="jit(train_step)/reduce_sum" stack_frame_id=0}, backend_config={"flag_configs":[],"scoped_memory_configs":[],"used_scoped_memory_configs":[],"aliasing_operands":{"lists":[]}}
}

%fused_computation.442 (param_0.1540: bf16[2048]) -> f32[] {
  %param_0.1540 = bf16[2048]{0:T(1024)(128)(2,1)S(1)} parameter(0)
  %convert_element_type.1288 = f32[2048]{0:T(1024)} convert(%param_0.1540), metadata={op_name="jit(train_step)/transpose(jvp())/convert_element_type" stack_frame_id=0}
  %square.254 = f32[2048]{0:T(1024)} multiply(%convert_element_type.1288, %convert_element_type.1288), metadata={op_name="jit(train_step)/square" stack_frame_id=0}
  %constant.1467 = f32[]{:T(128)} constant(0)
  ROOT %reduce.160 = f32[]{:T(128)} reduce(%square.254, %constant.1467), dimensions={0}, to_apply=%region_11.14, metadata={op_name="jit(train_step)/reduce_sum" stack_frame_id=0}
}

%region_56.61 (reduce_sum.506: f32[], reduce_sum.507: f32[]) -> f32[] {
  %reduce_sum.506 = f32[]{:T(128)} parameter(0), metadata={op_name="jit(train_step)/reduce_sum"}
  %reduce_sum.507 = f32[]{:T(128)} parameter(1), metadata={op_name="jit(train_step)/reduce_sum"}
  ROOT %reduce_sum.508 = f32[]{:T(128)} add(%reduce_sum.506, %reduce_sum.507), metadata={op_name="jit(train_step)/reduce_sum" stack_frame_id=0}, backend_config={"flag_configs":[],"scoped_memory_configs":[],"used_scoped_memory_configs":[],"aliasing_operands":{"lists":[]}}
}

%region_41.46 (reduce_sum.425: f32[], reduce_sum.429: f32[]) -> f32[] {
  %reduce_sum.425 = f32[]{:T(128)} parameter(0), metadata={op_name="jit(train_step)/reduce_sum"}
  %reduce_sum.429 = f32[]{:T(128)} parameter(1), metadata={op_name="jit(train_step)/reduce_sum"}
  ROOT %reduce_sum.430 = f32[]{:T(128)} add(%reduce_sum.425, %reduce_sum.429), metadata={op_name="jit(train_step)/reduce_sum" stack_frame_id=0}, backend_config={"flag_configs":[],"scoped_memory_configs":[],"used_scoped_memory_configs":[],"aliasing_operands":{"lists":[]}}
}

%fused_computation.443 (param_0.1530: f32[2048], param_1.1709: f32[], param_2.1321: f32[], param_3.884: f32[], param_4.522: f32[2048], param_5.466: f32[], param_6.324: bf16[2048], param_7.202: pred[], param_8.124: f32[2048]) -> (f32[], f32[2048], f32[2048], f32[2048], f32[]) {
  %param_0.1530 = f32[2048]{0:T(1024)S(1)} parameter(0)
  %param_3.884 = f32[]{:T(128)S(6)} parameter(3)
  %mul.2499.clone.1 = f32[2048]{0:T(1024)} broadcast(%param_3.884), dimensions={}, metadata={op_name="jit(train_step)/mul" stack_frame_id=0}
  %param_7.202 = pred[]{:T(512)S(6)} parameter(7)
  %select_n.284.clone.1 = pred[2048]{0:T(1024)(128)(4,1)} broadcast(%param_7.202), dimensions={}, metadata={op_name="jit(train_step)/select_n" stack_frame_id=0}
  %param_6.324 = bf16[2048]{0:T(1024)(128)(2,1)S(1)} parameter(6)
  %convert_element_type.1308.clone.1 = f32[2048]{0:T(1024)} convert(%param_6.324), metadata={op_name="jit(train_step)/transpose(jvp())/convert_element_type" stack_frame_id=0}
  %param_5.466 = f32[]{:T(128)} parameter(5)
  %div.912.clone.1 = f32[2048]{0:T(1024)} broadcast(%param_5.466), dimensions={}, metadata={op_name="jit(train_step)/div" stack_frame_id=0}
  %div.911.clone.1 = f32[2048]{0:T(1024)} divide(%convert_element_type.1308.clone.1, %div.912.clone.1), metadata={op_name="jit(train_step)/div" stack_frame_id=0}
  %select_n.283.clone.1 = f32[2048]{0:T(1024)} select(%select_n.284.clone.1, %convert_element_type.1308.clone.1, %div.911.clone.1), metadata={op_name="jit(train_step)/select_n" stack_frame_id=0}
  %constant.1378.clone.1 = f32[]{:T(128)} constant(0.1)
  %broadcast.904.clone.1 = f32[2048]{0:T(1024)} broadcast(%constant.1378.clone.1), dimensions={}, metadata={op_name="broadcast.88"}
  %mul.2505.clone.1 = f32[2048]{0:T(1024)} multiply(%select_n.283.clone.1, %broadcast.904.clone.1), metadata={op_name="jit(train_step)/mul" stack_frame_id=0}
  %param_8.124 = f32[2048]{0:T(1024)S(1)} parameter(8)
  %constant.1382.clone.1 = f32[]{:T(128)} constant(0.9)
  %mul.2506.clone.1 = f32[2048]{0:T(1024)} broadcast(%constant.1382.clone.1), dimensions={}, metadata={op_name="jit(train_step)/mul" stack_frame_id=0}
  %mul.2504.clone.1 = f32[2048]{0:T(1024)} multiply(%param_8.124, %mul.2506.clone.1), metadata={op_name="jit(train_step)/mul" stack_frame_id=0}
  %add.944.clone.1 = f32[2048]{0:T(1024)S(1)} add(%mul.2505.clone.1, %mul.2504.clone.1), metadata={op_name="jit(train_step)/add" stack_frame_id=0}
  %param_2.1321 = f32[]{:T(128)S(6)} parameter(2)
  %div.908.clone.1 = f32[2048]{0:T(1024)} broadcast(%param_2.1321), dimensions={}, metadata={op_name="jit(train_step)/div" stack_frame_id=0}
  %integer_pow.69.clone.1 = f32[2048]{0:T(1024)} multiply(%select_n.283.clone.1, %select_n.283.clone.1), metadata={op_name="jit(train_step)/integer_pow" stack_frame_id=0}
  %constant.1381.clone.1 = f32[]{:T(128)} constant(0.05)
  %mul.2503.clone.1 = f32[2048]{0:T(1024)} broadcast(%constant.1381.clone.1), dimensions={}, metadata={op_name="jit(train_step)/mul" stack_frame_id=0}
  %mul.2501.clone.1 = f32[2048]{0:T(1024)} multiply(%integer_pow.69.clone.1, %mul.2503.clone.1), metadata={op_name="jit(train_step)/mul" stack_frame_id=0}
  %param_4.522 = f32[2048]{0:T(1024)S(1)} parameter(4)
  %constant.1380.clone.1 = f32[]{:T(128)} constant(0.95)
  %mul.2502.clone.1 = f32[2048]{0:T(1024)} broadcast(%constant.1380.clone.1), dimensions={}, metadata={op_name="jit(train_step)/mul" stack_frame_id=0}
  %mul.2500.clone.1 = f32[2048]{0:T(1024)} multiply(%param_4.522, %mul.2502.clone.1), metadata={op_name="jit(train_step)/mul" stack_frame_id=0}
  %add.943.clone.1 = f32[2048]{0:T(1024)S(1)} add(%mul.2501.clone.1, %mul.2500.clone.1), metadata={op_name="jit(train_step)/add" stack_frame_id=0}
  %param_1.1709 = f32[]{:T(128)S(6)} parameter(1)
  %div.907.clone.1 = f32[2048]{0:T(1024)} broadcast(%param_1.1709), dimensions={}, metadata={op_name="jit(train_step)/div" stack_frame_id=0}
  %div.906.clone.1 = f32[2048]{0:T(1024)} divide(%add.943.clone.1, %div.907.clone.1), metadata={op_name="jit(train_step)/div" stack_frame_id=0}
  %sqrt.66.clone.1 = f32[2048]{0:T(1024)} sqrt(%div.906.clone.1), metadata={op_name="jit(train_step)/sqrt" stack_frame_id=0}
  %constant.1379.clone.1 = f32[]{:T(128)} constant(1e-08)
  %add.942.clone.1 = f32[2048]{0:T(1024)} broadcast(%constant.1379.clone.1), dimensions={}, metadata={op_name="jit(train_step)/add" stack_frame_id=0}
  %add.941.clone.1 = f32[2048]{0:T(1024)} add(%sqrt.66.clone.1, %add.942.clone.1), metadata={op_name="jit(train_step)/add" stack_frame_id=0}
  %multiply.315.clone.1 = f32[2048]{0:T(1024)} multiply(%div.908.clone.1, %add.941.clone.1), metadata={op_name="multiply.33"}
  %div.905.clone.1 = f32[2048]{0:T(1024)} divide(%add.944.clone.1, %multiply.315.clone.1), metadata={op_name="jit(train_step)/div" stack_frame_id=0}
  %mul.2498.clone.1 = f32[2048]{0:T(1024)} multiply(%param_0.1530, %broadcast.904.clone.1), metadata={op_name="jit(train_step)/mul" stack_frame_id=0}
  %add.940.clone.1 = f32[2048]{0:T(1024)} add(%div.905.clone.1, %mul.2498.clone.1), metadata={op_name="jit(train_step)/add" stack_frame_id=0}
  %mul.2497.clone.1 = f32[2048]{0:T(1024)} multiply(%mul.2499.clone.1, %add.940.clone.1), metadata={op_name="jit(train_step)/mul" stack_frame_id=0}
  %add.939.clone.1 = f32[2048]{0:T(1024)S(1)} add(%param_0.1530, %mul.2497.clone.1), metadata={op_name="jit(train_step)/add" stack_frame_id=0}
  %square.255 = f32[2048]{0:T(1024)} multiply(%add.939.clone.1, %add.939.clone.1), metadata={op_name="jit(train_step)/square" stack_frame_id=0}
  %constant.1457 = f32[]{:T(128)} constant(0)
  %reduce.161 = f32[]{:T(128)} reduce(%square.255, %constant.1457), dimensions={0}, to_apply=%region_56.61, metadata={op_name="jit(train_step)/reduce_sum" stack_frame_id=0}
  %reduce.162.clone.1 = f32[]{:T(128)} reduce(%integer_pow.69.clone.1, %constant.1457), dimensions={0}, to_apply=%region_41.46, metadata={op_name="jit(train_step)/reduce_sum" stack_frame_id=0}
  ROOT %tuple.162 = (f32[]{:T(128)}, f32[2048]{0:T(1024)S(1)}, f32[2048]{0:T(1024)S(1)}, f32[2048]{0:T(1024)S(1)}, f32[]{:T(128)}) tuple(%reduce.161, %add.939.clone.1, %add.943.clone.1, %add.944.clone.1, %reduce.162.clone.1)
}

%fused_computation.448 (param_0.1264: s32[512]) -> s32[1024] {
  %constant.1218 = s32[] constant(0), metadata={op_name="jit(train_step)/jvp()/gather" stack_frame_id=0}
  %broadcast.845 = s32[1024]{0:T(1024)} broadcast(%constant.1218), dimensions={}, metadata={op_name="jit(train_step)/jvp()/gather" stack_frame_id=0}
  %param_0.1264 = s32[512]{0:T(512)S(1)} parameter(0)
  %constant.1219 = s32[] constant(2147483647), metadata={op_name="jit(train_step)/jvp()/gather" stack_frame_id=0}
  %pad.57 = s32[1024]{0:T(1024)} pad(%param_0.1264, %constant.1219), padding=0_512, metadata={op_name="jit(train_step)/jvp()/gather" stack_frame_id=0}
  %constant.1217 = s32[] constant(151935), metadata={op_name="jit(train_step)/jvp()/gather" stack_frame_id=0}
  %broadcast.844 = s32[1024]{0:T(1024)} broadcast(%constant.1217), dimensions={}, metadata={op_name="jit(train_step)/jvp()/gather" stack_frame_id=0}
  ROOT %clamp.3 = s32[1024]{0:T(1024)S(1)} clamp(%broadcast.845, %pad.57, %broadcast.844), metadata={op_name="jit(train_step)/jvp()/gather" stack_frame_id=0}
}

%region_37.42 (reduce_sum.410: f32[], reduce_sum.411: f32[]) -> f32[] {
  %reduce_sum.410 = f32[]{:T(128)} parameter(0), metadata={op_name="jit(train_step)/reduce_sum"}
  %reduce_sum.411 = f32[]{:T(128)} parameter(1), metadata={op_name="jit(train_step)/reduce_sum"}
  ROOT %reduce_sum.415 = f32[]{:T(128)} add(%reduce_sum.410, %reduce_sum.411), metadata={op_name="jit(train_step)/reduce_sum" stack_frame_id=0}, backend_config={"flag_configs":[],"scoped_memory_configs":[],"used_scoped_memory_configs":[],"aliasing_operands":{"lists":[]}}
}

%region_34.39 (reduce_sum.395: f32[], reduce_sum.396: f32[]) -> f32[] {
  %reduce_sum.395 = f32[]{:T(128)} parameter(0), metadata={op_name="jit(train_step)/reduce_sum"}
  %reduce_sum.396 = f32[]{:T(128)} parameter(1), metadata={op_name="jit(train_step)/reduce_sum"}
  ROOT %reduce_sum.397 = f32[]{:T(128)} add(%reduce_sum.395, %reduce_sum.396), metadata={op_name="jit(train_step)/reduce_sum" stack_frame_id=0}, backend_config={"flag_configs":[],"scoped_memory_configs":[],"used_scoped_memory_configs":[],"aliasing_operands":{"lists":[]}}
}

%fused_computation.453 (param_0.1531: bf16[4,128], param_1.1710: bf16[4,128]) -> (f32[], f32[]) {
  %param_0.1531 = bf16[4,128]{1,0:T(4,128)(2,1)S(1)} parameter(0)
  %convert.42 = f32[4,128]{1,0:T(4,128)} convert(%param_0.1531), metadata={op_name="jit(train_step)/transpose(jvp())/while" stack_frame_id=0}
  %bitcast.609 = f32[128,4]{0,1:T(4,128)} bitcast(%convert.42), metadata={op_name="jit(train_step)/transpose(jvp())/transpose" stack_frame_id=0}
  %square.258 = f32[128,4]{0,1:T(4,128)} multiply(%bitcast.609, %bitcast.609), metadata={op_name="jit(train_step)/square" stack_frame_id=0}
  %constant.1458 = f32[]{:T(128)} constant(0)
  %reduce.163 = f32[]{:T(128)} reduce(%square.258, %constant.1458), dimensions={0,1}, to_apply=%region_37.42, metadata={op_name="jit(train_step)/reduce_sum" stack_frame_id=0}
  %param_1.1710 = bf16[4,128]{1,0:T(4,128)(2,1)S(1)} parameter(1)
  %convert.46.clone.1 = f32[4,128]{1,0:T(4,128)} convert(%param_1.1710), metadata={op_name="jit(train_step)/transpose(jvp())/while" stack_frame_id=0}
  %bitcast.613.clone.1 = f32[128,4]{0,1:T(4,128)} bitcast(%convert.46.clone.1), metadata={op_name="jit(train_step)/transpose(jvp())/transpose" stack_frame_id=0}
  %square.261.clone.1 = f32[128,4]{0,1:T(4,128)} multiply(%bitcast.613.clone.1, %bitcast.613.clone.1), metadata={op_name="jit(train_step)/square" stack_frame_id=0}
  %reduce.164.clone.1 = f32[]{:T(128)} reduce(%square.261.clone.1, %constant.1458), dimensions={0,1}, to_apply=%region_34.39, metadata={op_name="jit(train_step)/reduce_sum" stack_frame_id=0}
  ROOT %tuple.175 = (f32[]{:T(128)}, f32[]{:T(128)}) tuple(%reduce.163, %reduce.164.clone.1)
}

%region_66.71 (reduce_sum.557: f32[], reduce_sum.558: f32[]) -> f32[] {
  %reduce_sum.557 = f32[]{:T(128)} parameter(0), metadata={op_name="jit(train_step)/reduce_sum"}
  %reduce_sum.558 = f32[]{:T(128)} parameter(1), metadata={op_name="jit(train_step)/reduce_sum"}
  ROOT %reduce_sum.562 = f32[]{:T(128)} add(%reduce_sum.557, %reduce_sum.558), metadata={op_name="jit(train_step)/reduce_sum" stack_frame_id=0}, backend_config={"flag_configs":[],"scoped_memory_configs":[],"used_scoped_memory_configs":[],"aliasing_operands":{"lists":[]}}
}

%region_51.56 (reduce_sum.479: f32[], reduce_sum.480: f32[]) -> f32[] {
  %reduce_sum.479 = f32[]{:T(128)} parameter(0), metadata={op_name="jit(train_step)/reduce_sum"}
  %reduce_sum.480 = f32[]{:T(128)} parameter(1), metadata={op_name="jit(train_step)/reduce_sum"}
  ROOT %reduce_sum.481 = f32[]{:T(128)} add(%reduce_sum.479, %reduce_sum.480), metadata={op_name="jit(train_step)/reduce_sum" stack_frame_id=0}, backend_config={"flag_configs":[],"scoped_memory_configs":[],"used_scoped_memory_configs":[],"aliasing_operands":{"lists":[]}}
}

%fused_computation.456 (param_0.1520: f32[128,4], param_1.1699: f32[], param_2.1311: f32[], param_3.874: f32[], param_4.512: f32[128,4], param_5.456: f32[], param_6.314: bf16[4,128], param_7.192: pred[], param_8.114: f32[128,4]) -> (f32[], f32[128,4], f32[128,4], f32[128,4], f32[]) {
  %param_0.1520 = f32[128,4]{0,1:T(4,128)S(1)} parameter(0)
  %param_3.874 = f32[]{:T(128)S(6)} parameter(3)
  %mul.2471.clone.1 = f32[128,4]{0,1:T(4,128)} broadcast(%param_3.874), dimensions={}, metadata={op_name="jit(train_step)/mul" stack_frame_id=0}
  %param_7.192 = pred[]{:T(512)S(6)} parameter(7)
  %select_n.268.clone.1 = pred[128,4]{0,1:T(4,128)(4,1)} broadcast(%param_7.192), dimensions={}, metadata={op_name="jit(train_step)/select_n" stack_frame_id=0}
  %param_6.314 = bf16[4,128]{1,0:T(4,128)(2,1)S(1)} parameter(6)
  %convert.104.clone.1 = f32[4,128]{1,0:T(4,128)} convert(%param_6.314), metadata={op_name="jit(train_step)/transpose(jvp())/while" stack_frame_id=0}
  %bitcast.685.clone.1 = f32[128,4]{0,1:T(4,128)} bitcast(%convert.104.clone.1), metadata={op_name="jit(train_step)/transpose(jvp())/transpose" stack_frame_id=0}
  %param_5.456 = f32[]{:T(128)} parameter(5)
  %div.880.clone.1 = f32[128,4]{0,1:T(4,128)} broadcast(%param_5.456), dimensions={}, metadata={op_name="jit(train_step)/div" stack_frame_id=0}
  %div.879.clone.1 = f32[128,4]{0,1:T(4,128)} divide(%bitcast.685.clone.1, %div.880.clone.1), metadata={op_name="jit(train_step)/div" stack_frame_id=0}
  %select_n.267.clone.1 = f32[128,4]{0,1:T(4,128)} select(%select_n.268.clone.1, %bitcast.685.clone.1, %div.879.clone.1), metadata={op_name="jit(train_step)/select_n" stack_frame_id=0}
  %constant.1354.clone.1 = f32[]{:T(128)} constant(0.1)
  %broadcast.884.clone.1 = f32[128,4]{0,1:T(4,128)} broadcast(%constant.1354.clone.1), dimensions={}, metadata={op_name="broadcast.80"}
  %mul.2475.clone.1 = f32[128,4]{0,1:T(4,128)} multiply(%select_n.267.clone.1, %broadcast.884.clone.1), metadata={op_name="jit(train_step)/mul" stack_frame_id=0}
  %param_8.114 = f32[128,4]{0,1:T(4,128)S(1)} parameter(8)
  %constant.1358.clone.1 = f32[]{:T(128)} constant(0.9)
  %broadcast.883.clone.1 = f32[128,4]{0,1:T(4,128)} broadcast(%constant.1358.clone.1), dimensions={}, metadata={op_name="broadcast.79"}
  %mul.2474.clone.1 = f32[128,4]{0,1:T(4,128)} multiply(%param_8.114, %broadcast.883.clone.1), metadata={op_name="jit(train_step)/mul" stack_frame_id=0}
  %add.923.clone.1 = f32[128,4]{0,1:T(4,128)S(1)} add(%mul.2475.clone.1, %mul.2474.clone.1), metadata={op_name="jit(train_step)/add" stack_frame_id=0}
  %param_2.1311 = f32[]{:T(128)S(6)} parameter(2)
  %div.876.clone.1 = f32[128,4]{0,1:T(4,128)} broadcast(%param_2.1311), dimensions={}, metadata={op_name="jit(train_step)/div" stack_frame_id=0}
  %integer_pow.65.clone.1 = f32[128,4]{0,1:T(4,128)} multiply(%select_n.267.clone.1, %select_n.267.clone.1), metadata={op_name="jit(train_step)/integer_pow" stack_frame_id=0}
  %constant.1357.clone.1 = f32[]{:T(128)} constant(0.05)
  %broadcast.882.clone.1 = f32[128,4]{0,1:T(4,128)} broadcast(%constant.1357.clone.1), dimensions={}, metadata={op_name="broadcast.69"}
  %mul.2473.clone.1 = f32[128,4]{0,1:T(4,128)} multiply(%integer_pow.65.clone.1, %broadcast.882.clone.1), metadata={op_name="jit(train_step)/mul" stack_frame_id=0}
  %param_4.512 = f32[128,4]{0,1:T(4,128)S(1)} parameter(4)
  %constant.1356.clone.1 = f32[]{:T(128)} constant(0.95)
  %broadcast.881.clone.1 = f32[128,4]{0,1:T(4,128)} broadcast(%constant.1356.clone.1), dimensions={}, metadata={op_name="broadcast.68"}
  %mul.2472.clone.1 = f32[128,4]{0,1:T(4,128)} multiply(%param_4.512, %broadcast.881.clone.1), metadata={op_name="jit(train_step)/mul" stack_frame_id=0}
  %add.922.clone.1 = f32[128,4]{0,1:T(4,128)S(1)} add(%mul.2473.clone.1, %mul.2472.clone.1), metadata={op_name="jit(train_step)/add" stack_frame_id=0}
  %param_1.1699 = f32[]{:T(128)S(6)} parameter(1)
  %div.875.clone.1 = f32[128,4]{0,1:T(4,128)} broadcast(%param_1.1699), dimensions={}, metadata={op_name="jit(train_step)/div" stack_frame_id=0}
  %div.874.clone.1 = f32[128,4]{0,1:T(4,128)} divide(%add.922.clone.1, %div.875.clone.1), metadata={op_name="jit(train_step)/div" stack_frame_id=0}
  %sqrt.62.clone.1 = f32[128,4]{0,1:T(4,128)} sqrt(%div.874.clone.1), metadata={op_name="jit(train_step)/sqrt" stack_frame_id=0}
  %constant.1355.clone.1 = f32[]{:T(128)} constant(1e-08)
  %broadcast.879.clone.1 = f32[128,4]{0,1:T(4,128)} broadcast(%constant.1355.clone.1), dimensions={}, metadata={op_name="broadcast.64"}
  %add.921.clone.1 = f32[128,4]{0,1:T(4,128)} add(%sqrt.62.clone.1, %broadcast.879.clone.1), metadata={op_name="jit(train_step)/add" stack_frame_id=0}
  %multiply.311.clone.1 = f32[128,4]{0,1:T(4,128)} multiply(%div.876.clone.1, %add.921.clone.1), metadata={op_name="multiply.43"}
  %div.873.clone.1 = f32[128,4]{0,1:T(4,128)} divide(%add.923.clone.1, %multiply.311.clone.1), metadata={op_name="jit(train_step)/div" stack_frame_id=0}
  %mul.2470.clone.1 = f32[128,4]{0,1:T(4,128)} multiply(%param_0.1520, %broadcast.884.clone.1), metadata={op_name="jit(train_step)/mul" stack_frame_id=0}
  %add.920.clone.1 = f32[128,4]{0,1:T(4,128)} add(%div.873.clone.1, %mul.2470.clone.1), metadata={op_name="jit(train_step)/add" stack_frame_id=0}
  %mul.2469.clone.1 = f32[128,4]{0,1:T(4,128)} multiply(%mul.2471.clone.1, %add.920.clone.1), metadata={op_name="jit(train_step)/mul" stack_frame_id=0}
  %add.919.clone.1 = f32[128,4]{0,1:T(4,128)S(1)} add(%param_0.1520, %mul.2469.clone.1), metadata={op_name="jit(train_step)/add" stack_frame_id=0}
  %square.262 = f32[128,4]{0,1:T(4,128)} multiply(%add.919.clone.1, %add.919.clone.1), metadata={op_name="jit(train_step)/square" stack_frame_id=0}
  %constant.1447 = f32[]{:T(128)} constant(0)
  %reduce.165 = f32[]{:T(128)} reduce(%square.262, %constant.1447), dimensions={0,1}, to_apply=%region_66.71, metadata={op_name="jit(train_step)/reduce_sum" stack_frame_id=0}
  %reduce.167.clone.1 = f32[]{:T(128)} reduce(%integer_pow.65.clone.1, %constant.1447), dimensions={0,1}, to_apply=%region_51.56, metadata={op_name="jit(train_step)/reduce_sum" stack_frame_id=0}
  ROOT %tuple.165 = (f32[]{:T(128)}, f32[128,4]{0,1:T(4,128)S(1)}, f32[128,4]{0,1:T(4,128)S(1)}, f32[128,4]{0,1:T(4,128)S(1)}, f32[]{:T(128)}) tuple(%reduce.165, %add.919.clone.1, %add.922.clone.1, %add.923.clone.1, %reduce.167.clone.1)
}

%region_63.68 (reduce_sum.542: f32[], reduce_sum.543: f32[]) -> f32[] {
  %reduce_sum.542 = f32[]{:T(128)} parameter(0), metadata={op_name="jit(train_step)/reduce_sum"}
  %reduce_sum.543 = f32[]{:T(128)} parameter(1), metadata={op_name="jit(train_step)/reduce_sum"}
…
  ROOT %bitcast.922 = f32[128,16]{0,1:T(8,128)S(1)} bitcast(%rsqrt.216), metadata={op_name="jit(train_step)/transpose(jvp())/while/body/closed_call/checkpoint/rematted_computation/rsqrt" stack_frame_id=0}
}

%fused_computation.305.clone.clone (param_0.1706: bf16[4,128], param_1.1822: s32[], param_2.1398: bf16[4,128]) -> (bf16[128], bf16[128]) {
  %param_0.1706 = bf16[4,128]{1,0:T(4,128)(2,1)} parameter(0)
  %param_1.1822 = s32[]{:T(128)S(6)} parameter(1)
  %constant.1613 = s32[]{:T(128)} constant(0)
  %dynamic_slice.290 = bf16[1,128]{1,0:T(2,128)(2,1)} dynamic-slice(%param_0.1706, %param_1.1822, %constant.1613), dynamic_slice_sizes={1,128}, metadata={op_name="jit(train_step)/transpose(jvp())/while/body/dynamic_slice" stack_frame_id=0}, backend_config={"flag_configs":[],"scoped_memory_configs":[],"indices_config":{"index_known_bits":[{"zeroes":"4294967292","ones":"0","bitwidth":"32"},{"zeroes":"4294967295","ones":"0","bitwidth":"32"}],"is_index_aligned":[]},"used_scoped_memory_configs":[]}
  %bitcast.914 = bf16[128]{0:T(256)(128)(2,1)S(1)} bitcast(%dynamic_slice.290), metadata={op_name="jit(train_step)/transpose(jvp())/while/body/closed_call/checkpoint/rematted_computation/convert_element_type" stack_frame_id=0}
  %param_2.1398 = bf16[4,128]{1,0:T(4,128)(2,1)} parameter(2)
  %dynamic_slice.284.clone.3 = bf16[1,128]{1,0:T(2,128)(2,1)} dynamic-slice(%param_2.1398, %param_1.1822, %constant.1613), dynamic_slice_sizes={1,128}, metadata={op_name="jit(train_step)/transpose(jvp())/while/body/dynamic_slice" stack_frame_id=0}, backend_config={"flag_configs":[],"scoped_memory_configs":[],"indices_config":{"index_known_bits":[{"zeroes":"4294967292","ones":"0","bitwidth":"32"},{"zeroes":"4294967295","ones":"0","bitwidth":"32"}],"is_index_aligned":[]},"used_scoped_memory_configs":[]}
  %bitcast.470.clone.3 = bf16[128]{0:T(256)(128)(2,1)S(1)} bitcast(%dynamic_slice.284.clone.3), metadata={op_name="jit(train_step)/transpose(jvp())/while/body/closed_call/checkpoint/rematted_computation/convert_element_type" stack_frame_id=0}
  ROOT %tuple.218 = (bf16[128]{0:T(256)(128)(2,1)S(1)}, bf16[128]{0:T(256)(128)(2,1)S(1)}) tuple(%bitcast.914, %bitcast.470.clone.3)
}

%fused_computation.237.clone.1.clone (param_0.1718: f32[128,16], param_1.1829: bf16[128,16,128], param_2.1403: bf16[128]) -> bf16[1,128,16,128] {
  %param_1.1829 = bf16[128,16,128]{2,0,1:T(8,128)(2,1)S(1)} parameter(1)
  %convert_element_type.1446 = f32[128,16,128]{2,0,1:T(8,128)} convert(%param_1.1829), metadata={op_name="jit(train_step)/transpose(jvp())/while/body/closed_call/checkpoint/rematted_computation/convert_element_type" stack_frame_id=0}
  %bitcast.924 = f32[1,128,16,128]{3,1,2,0:T(8,128)} bitcast(%convert_element_type.1446), metadata={op_name="jit(train_step)/transpose(jvp())/while/body/closed_call/checkpoint/rematted_computation/convert_element_type" stack_frame_id=0}
  %param_0.1718 = f32[128,16]{0,1:T(8,128)S(1)} parameter(0)
  %mul.2900 = f32[1,128,16,128]{3,1,2,0:T(8,128)} broadcast(%param_0.1718), dimensions={1,2}, metadata={op_name="jit(train_step)/transpose(jvp())/while/body/closed_call/checkpoint/rematted_computation/mul" stack_frame_id=0}
  %mul.2899 = f32[1,128,16,128]{3,1,2,0:T(8,128)} multiply(%bitcast.924, %mul.2900), metadata={op_name="jit(train_step)/transpose(jvp())/while/body/closed_call/checkpoint/rematted_computation/mul" stack_frame_id=0}
  %convert_element_type.1445 = bf16[1,128,16,128]{3,1,2,0:T(8,128)(2,1)} convert(%mul.2899), metadata={op_name="jit(train_step)/transpose(jvp())/while/body/closed_call/checkpoint/rematted_computation/convert_element_type" stack_frame_id=0}
  %param_2.1403 = bf16[128]{0:T(256)(128)(2,1)S(1)} parameter(2)
  %mul.2901 = bf16[1,128,16,128]{3,1,2,0:T(8,128)(2,1)} broadcast(%param_2.1403), dimensions={3}, metadata={op_name="jit(train_step)/transpose(jvp())/while/body/closed_call/checkpoint/rematted_computation/mul" stack_frame_id=0}
  ROOT %mul.2898 = bf16[1,128,16,128]{3,1,2,0:T(8,128)(2,1)S(1)} multiply(%convert_element_type.1445, %mul.2901), metadata={op_name="jit(train_step)/transpose(jvp())/while/body/closed_call/checkpoint/rematted_computation/mul" stack_frame_id=0}
}

%fused_computation.198.clone.clone (param_0.1719: bf16[1,128,16,128]) -> (bf16[1,128,16,64], bf16[1,128,16,64]) {
  %param_0.1719 = bf16[1,128,16,128]{3,1,2,0:T(8,128)(2,1)S(1)} parameter(0)
  %slice.75 = bf16[1,128,16,64]{3,1,2,0:T(8,128)(2,1)} slice(%param_0.1719), slice={[0:1], [0:128], [0:16], [64:128]}, metadata={op_name="jit(train_step)/transpose(jvp())/while/body/closed_call/checkpoint/rematted_computation/split" stack_frame_id=0}
  %neg.127 = bf16[1,128,16,64]{3,1,2,0:T(8,128)(2,1)S(1)} negate(%slice.75), metadata={op_name="jit(train_step)/transpose(jvp())/while/body/closed_call/checkpoint/rematted_computation/neg" stack_frame_id=0}
  %slice.76 = bf16[1,128,16,64]{3,1,2,0:T(8,128)(2,1)S(1)} slice(%param_0.1719), slice={[0:1], [0:128], [0:16], [0:64]}, metadata={op_name="jit(train_step)/transpose(jvp())/while/body/closed_call/checkpoint/rematted_computation/split" stack_frame_id=0}
  ROOT %tuple.224 = (bf16[1,128,16,64]{3,1,2,0:T(8,128)(2,1)S(1)}, bf16[1,128,16,64]{3,1,2,0:T(8,128)(2,1)S(1)}) tuple(%neg.127, %slice.76)
}

%fused_computation.314.clone.clone () -> f32[64] {
  %constant.1615 = f32[]{:T(128)} constant(1e+06)
  %closed_call.68 = f32[64]{0:T(128)} broadcast(%constant.1615), dimensions={}, metadata={op_name="jit(train_step)/transpose(jvp())/while/body/closed_call" stack_frame_id=0}
  %iota.65 = s32[64]{0:T(128)} iota(), iota_dimension=0, metadata={op_name="jit(train_step)/transpose(jvp())/while/body/closed_call/checkpoint/rematted_computation/iota" stack_frame_id=0}
  %constant.1614 = s32[]{:T(128)} constant(2)
  %closed_call.67 = s32[64]{0:T(128)} broadcast(%constant.1614), dimensions={}, metadata={op_name="jit(train_step)/transpose(jvp())/while/body/closed_call" stack_frame_id=0}
  %mul.2879 = s32[64]{0:T(128)} multiply(%iota.65, %closed_call.67), metadata={op_name="jit(train_step)/transpose(jvp())/while/body/closed_call/checkpoint/rematted_computation/mul" stack_frame_id=0}
  %convert_element_type.1438 = f32[64]{0:T(128)} convert(%mul.2879), metadata={op_name="jit(train_step)/transpose(jvp())/while/body/closed_call/checkpoint/rematted_computation/convert_element_type" stack_frame_id=0}
  %constant.1616 = f32[]{:T(128)} constant(0.0078125)
  %closed_call.66 = f32[64]{0:T(128)} broadcast(%constant.1616), dimensions={}, metadata={op_name="jit(train_step)/transpose(jvp())/while/body/closed_call" stack_frame_id=0}
  %div.1011 = f32[64]{0:T(128)} multiply(%convert_element_type.1438, %closed_call.66), metadata={op_name="jit(train_step)/transpose(jvp())/while/body/closed_call/checkpoint/rematted_computation/div" stack_frame_id=0}
  ROOT %pow.38 = f32[64]{0:T(128)S(1)} power(%closed_call.68, %div.1011), metadata={op_name="jit(train_step)/transpose(jvp())/while/body/closed_call/checkpoint/rematted_computation/pow" stack_frame_id=0}
}

%fused_computation.270.clone.clone (param_0.1707: f32[128], param_1.1823: f32[64]) -> (bf16[1,128,1,64], bf16[1,128,1,64]) {
  %param_0.1707 = f32[128]{0:T(128)S(1)} parameter(0)
  %div.1013 = f32[1,128,1,64]{3,1,2,0:T(8,128)} broadcast(%param_0.1707), dimensions={1}, metadata={op_name="jit(train_step)/transpose(jvp())/while/body/closed_call/checkpoint/rematted_computation/div" stack_frame_id=0}
  %param_1.1823 = f32[64]{0:T(128)S(1)} parameter(1)
  %div.1014 = f32[1,128,1,64]{3,1,2,0:T(8,128)} broadcast(%param_1.1823), dimensions={3}, metadata={op_name="jit(train_step)/transpose(jvp())/while/body/closed_call/checkpoint/rematted_computation/div" stack_frame_id=0}
  %div.1012 = f32[1,128,1,64]{3,1,2,0:T(8,128)} divide(%div.1013, %div.1014), metadata={op_name="jit(train_step)/transpose(jvp())/while/body/closed_call/checkpoint/rematted_computation/div" stack_frame_id=0}
  %cos.43 = f32[1,128,1,64]{3,1,2,0:T(8,128)} cosine(%div.1012), metadata={op_name="jit(train_step)/transpose(jvp())/while/body/closed_call/checkpoint/rematted_computation/cos" stack_frame_id=0}
  %convert_element_type.1439 = bf16[1,128,1,64]{3,1,2,0:T(8,128)(2,1)S(1)} convert(%cos.43), metadata={op_name="jit(train_step)/transpose(jvp())/while/body/closed_call/checkpoint/rematted_computation/convert_element_type" stack_frame_id=0}
  %sin.35.clone.3 = f32[1,128,1,64]{3,1,2,0:T(8,128)} sine(%div.1012), metadata={op_name="jit(train_step)/transpose(jvp())/while/body/closed_call/checkpoint/rematted_computation/sin" stack_frame_id=0}
  %convert_element_type.1114.clone.3 = bf16[1,128,1,64]{3,1,2,0:T(8,128)(2,1)S(1)} convert(%sin.35.clone.3), metadata={op_name="jit(train_step)/transpose(jvp())/while/body/closed_call/checkpoint/rematted_computation/convert_element_type" stack_frame_id=0}
  ROOT %tuple.219 = (bf16[1,128,1,64]{3,1,2,0:T(8,128)(2,1)S(1)}, bf16[1,128,1,64]{3,1,2,0:T(8,128)(2,1)S(1)}) tuple(%convert_element_type.1439, %convert_element_type.1114.clone.3)
}

%fused_computation.275.clone.clone (param_0.1709: bf16[1,128,1,64]) -> (bf16[128,128], bf16[128,128]) {
  %param_0.1709 = bf16[1,128,1,64]{3,1,2,0:T(8,128)(2,1)S(1)} parameter(0)
  %constant.1619 = bf16[]{:T(256)} constant(-inf)
  %pad.77 = bf16[1,128,1,128]{3,1,2,0:T(8,128)(2,1)} pad(%param_0.1709, %constant.1619), padding=0_0x0_0x0_0x0_64, metadata={op_name="jit(train_step)/transpose(jvp())/while/body/closed_call/checkpoint/rematted_computation/concatenate" stack_frame_id=0}
  %pad.76 = bf16[1,128,1,128]{3,1,2,0:T(8,128)(2,1)} pad(%param_0.1709, %constant.1619), padding=0_0x0_0x0_0x64_0, metadata={op_name="jit(train_step)/transpose(jvp())/while/body/closed_call/checkpoint/rematted_computation/concatenate" stack_frame_id=0}
  %maximum.57 = bf16[1,128,1,128]{3,1,2,0:T(8,128)(2,1)} maximum(%pad.77, %pad.76), metadata={op_name="jit(train_step)/transpose(jvp())/while/body/closed_call/checkpoint/rematted_computation/concatenate" stack_frame_id=0}
  %constant.1620 = bf16[]{:T(256)} constant(0.08838)
  %broadcast.970 = bf16[1,128,1,128]{3,1,2,0:T(8,128)(2,1)} broadcast(%constant.1620), dimensions={}, metadata={op_name="jit(train_step)/transpose(jvp())/while/body/closed_call/checkpoint/mul" stack_frame_id=0}
  %mul.2881 = bf16[1,128,1,128]{3,1,2,0:T(8,128)(2,1)} multiply(%maximum.57, %broadcast.970), metadata={op_name="jit(train_step)/transpose(jvp())/while/body/closed_call/checkpoint/mul" stack_frame_id=0}
  %bitcast.916 = bf16[128,128]{1,0:T(8,128)(2,1)} bitcast(%mul.2881), metadata={op_name="jit(train_step)/transpose(jvp())/while/body/closed_call/checkpoint/mul" stack_frame_id=0}
  %bitcast.455.clone.3 = bf16[128,128]{1,0:T(8,128)(2,1)S(1)} bitcast(%maximum.57), metadata={op_name="jit(train_step)/transpose(jvp())/while/body/closed_call/checkpoint/rematted_computation/mul" stack_frame_id=0}
  ROOT %tuple.221 = (bf16[128,128]{1,0:T(8,128)(2,1)}, bf16[128,128]{1,0:T(8,128)(2,1)S(1)}) tuple(%bitcast.916, %bitcast.455.clone.3)
}

%fused_computation.274.clone.clone (param_0.1708: bf16[1,128,1,64]) -> (bf16[128,128], bf16[128,128]) {
  %param_0.1708 = bf16[1,128,1,64]{3,1,2,0:T(8,128)(2,1)S(1)} parameter(0)
  %constant.1617 = bf16[]{:T(256)} constant(-inf)
  %pad.75 = bf16[1,128,1,128]{3,1,2,0:T(8,128)(2,1)} pad(%param_0.1708, %constant.1617), padding=0_0x0_0x0_0x0_64, metadata={op_name="jit(train_step)/transpose(jvp())/while/body/closed_call/checkpoint/rematted_computation/concatenate" stack_frame_id=0}
  %pad.74 = bf16[1,128,1,128]{3,1,2,0:T(8,128)(2,1)} pad(%param_0.1708, %constant.1617), padding=0_0x0_0x0_0x64_0, metadata={op_name="jit(train_step)/transpose(jvp())/while/body/closed_call/checkpoint/rematted_computation/concatenate" stack_frame_id=0}
  %maximum.56 = bf16[1,128,1,128]{3,1,2,0:T(8,128)(2,1)} maximum(%pad.75, %pad.74), metadata={op_name="jit(train_step)/transpose(jvp())/while/body/closed_call/checkpoint/rematted_computation/concatenate" stack_frame_id=0}
  %constant.1618 = bf16[]{:T(256)} constant(0.08838)
  %broadcast.969 = bf16[1,128,1,128]{3,1,2,0:T(8,128)(2,1)} broadcast(%constant.1618), dimensions={}, metadata={op_name="jit(train_step)/transpose(jvp())/while/body/closed_call/checkpoint/mul" stack_frame_id=0}
  %mul.2880 = bf16[1,128,1,128]{3,1,2,0:T(8,128)(2,1)} multiply(%maximum.56, %broadcast.969), metadata={op_name="jit(train_step)/transpose(jvp())/while/body/closed_call/checkpoint/mul" stack_frame_id=0}
  %bitcast.915 = bf16[128,128]{1,0:T(8,128)(2,1)} bitcast(%mul.2880), metadata={op_name="jit(train_step)/transpose(jvp())/while/body/closed_call/checkpoint/mul" stack_frame_id=0}
  %bitcast.456.clone.3 = bf16[128,128]{1,0:T(8,128)(2,1)S(1)} bitcast(%maximum.56), metadata={op_name="jit(train_step)/transpose(jvp())/while/body/closed_call/checkpoint/rematted_computation/mul" stack_frame_id=0}
  ROOT %tuple.220 = (bf16[128,128]{1,0:T(8,128)(2,1)}, bf16[128,128]{1,0:T(8,128)(2,1)S(1)}) tuple(%bitcast.915, %bitcast.456.clone.3)
}

%fused_computation.202.clone.clone (param_0.1720: bf16[1,128,16,64], param_1.1830: bf16[1,128,16,64], param_2.1404: bf16[128,128], param_3.930: bf16[128,128], param_4.551: bf16[128], param_5.481: f32[128,16], param_6.334: bf16[128,16,128]) -> bf16[16,128,128] {
  %param_6.334 = bf16[128,16,128]{2,0,1:T(8,128)(2,1)S(1)} parameter(6)
  %convert_element_type.1448 = f32[128,16,128]{2,0,1:T(8,128)} convert(%param_6.334), metadata={op_name="jit(train_step)/transpose(jvp())/while/body/closed_call/checkpoint/rematted_computation/convert_element_type" stack_frame_id=0}
  %bitcast.926 = f32[1,128,16,128]{3,1,2,0:T(8,128)} bitcast(%convert_element_type.1448), metadata={op_name="jit(train_step)/transpose(jvp())/while/body/closed_call/checkpoint/rematted_computation/convert_element_type" stack_frame_id=0}
  %param_5.481 = f32[128,16]{0,1:T(8,128)S(1)} parameter(5)
  %mul.2910 = f32[1,128,16,128]{3,1,2,0:T(8,128)} broadcast(%param_5.481), dimensions={1,2}, metadata={op_name="jit(train_step)/transpose(jvp())/while/body/closed_call/checkpoint/rematted_computation/mul" stack_frame_id=0}
  %mul.2909 = f32[1,128,16,128]{3,1,2,0:T(8,128)} multiply(%bitcast.926, %mul.2910), metadata={op_name="jit(train_step)/transpose(jvp())/while/body/closed_call/checkpoint/rematted_computation/mul" stack_frame_id=0}
  %convert_element_type.1447 = bf16[1,128,16,128]{3,1,2,0:T(8,128)(2,1)} convert(%mul.2909), metadata={op_name="jit(train_step)/transpose(jvp())/while/body/closed_call/checkpoint/rematted_computation/convert_element_type" stack_frame_id=0}
  %param_4.551 = bf16[128]{0:T(256)(128)(2,1)S(1)} parameter(4)
  %mul.2908 = bf16[1,128,16,128]{3,1,2,0:T(8,128)(2,1)} broadcast(%param_4.551), dimensions={3}, metadata={op_name="jit(train_step)/transpose(jvp())/while/body/closed_call/checkpoint/rematted_computation/mul" stack_frame_id=0}
  %mul.2907 = bf16[1,128,16,128]{3,1,2,0:T(8,128)(2,1)} multiply(%convert_element_type.1447, %mul.2908), metadata={op_name="jit(train_step)/transpose(jvp())/while/body/closed_call/checkpoint/rematted_computation/mul" stack_frame_id=0}
  %param_3.930 = bf16[128,128]{1,0:T(8,128)(2,1)S(1)} parameter(3)
  %mul.2906 = bf16[1,128,16,128]{3,1,2,0:T(8,128)(2,1)} broadcast(%param_3.930), dimensions={1,3}, metadata={op_name="jit(train_step)/transpose(jvp())/while/body/closed_call/checkpoint/rematted_computation/mul" stack_frame_id=0}
  %mul.2904 = bf16[1,128,16,128]{3,1,2,0:T(8,128)(2,1)} multiply(%mul.2907, %mul.2906), metadata={op_name="jit(train_step)/transpose(jvp())/while/body/closed_call/checkpoint/rematted_computation/mul" stack_frame_id=0}
  %param_1.1830 = bf16[1,128,16,64]{3,1,2,0:T(8,128)(2,1)S(1)} parameter(1)
  %constant.1627 = bf16[]{:T(256)} constant(-inf)
  %pad.81 = bf16[1,128,16,128]{3,1,2,0:T(8,128)(2,1)} pad(%param_1.1830, %constant.1627), padding=0_0x0_0x0_0x0_64, metadata={op_name="jit(train_step)/transpose(jvp())/while/body/closed_call/checkpoint/rematted_computation/concatenate" stack_frame_id=0}
  %param_0.1720 = bf16[1,128,16,64]{3,1,2,0:T(8,128)(2,1)S(1)} parameter(0)
  %pad.80 = bf16[1,128,16,128]{3,1,2,0:T(8,128)(2,1)} pad(%param_0.1720, %constant.1627), padding=0_0x0_0x0_0x64_0, metadata={op_name="jit(train_step)/transpose(jvp())/while/body/closed_call/checkpoint/rematted_computation/concatenate" stack_frame_id=0}
  %maximum.59 = bf16[1,128,16,128]{3,1,2,0:T(8,128)(2,1)} maximum(%pad.81, %pad.80), metadata={op_name="jit(train_step)/transpose(jvp())/while/body/closed_call/checkpoint/rematted_computation/concatenate" stack_frame_id=0}
  %param_2.1404 = bf16[128,128]{1,0:T(8,128)(2,1)S(1)} parameter(2)
  %mul.2905 = bf16[1,128,16,128]{3,1,2,0:T(8,128)(2,1)} broadcast(%param_2.1404), dimensions={1,3}, metadata={op_name="jit(train_step)/transpose(jvp())/while/body/closed_call/checkpoint/rematted_computation/mul" stack_frame_id=0}
  %mul.2903 = bf16[1,128,16,128]{3,1,2,0:T(8,128)(2,1)} multiply(%maximum.59, %mul.2905), metadata={op_name="jit(train_step)/transpose(jvp())/while/body/closed_call/checkpoint/rematted_computation/mul" stack_frame_id=0}
  %add.1020 = bf16[1,128,16,128]{3,1,2,0:T(8,128)(2,1)} add(%mul.2904, %mul.2903), metadata={op_name="jit(train_step)/transpose(jvp())/while/body/closed_call/checkpoint/rematted_computation/add" stack_frame_id=0}
  %constant.1628 = bf16[]{:T(256)} constant(0.08838)
  %closed_call.69 = bf16[1,128,16,128]{3,1,2,0:T(8,128)(2,1)} broadcast(%constant.1628), dimensions={}, metadata={op_name="jit(train_step)/transpose(jvp())/while/body/closed_call" stack_frame_id=0}
  %mul.2902 = bf16[1,128,16,128]{3,1,2,0:T(8,128)(2,1)} multiply(%add.1020, %closed_call.69), metadata={op_name="jit(train_step)/transpose(jvp())/while/body/closed_call/checkpoint/rematted_computation/mul" stack_frame_id=0}
  ROOT %bitcast.925 = bf16[16,128,128]{2,1,0:T(8,128)(2,1)S(1)} bitcast(%mul.2902), metadata={op_name="jit(train_step)/transpose(jvp())/while/body/closed_call/checkpoint/rematted_computation/shard_map/vmap(jit(_splash_attention))/splash_mha_fwd_segmented_residuals/splash_mha_fwd_segmented_residuals/squeeze" stack_frame_id=0}
}

%fused_computation.131.clone.clone (param_0.1701: bf16[4,512,8,128], param_1.1819: s32[]) -> bf16[1,512,8,128] {
  %param_0.1701 = bf16[4,512,8,128]{1,3,2,0:T(8,128)(2,1)} parameter(0)
  %param_1.1819 = s32[]{:T(128)S(6)} parameter(1)
  %constant.1608 = s32[]{:T(128)} constant(0)
  ROOT %dynamic-slice.187 = bf16[1,512,8,128]{1,3,2,0:T(8,128)(2,1)S(1)} dynamic-slice(%param_0.1701, %param_1.1819, %constant.1608, %constant.1608, %constant.1608), dynamic_slice_sizes={1,512,8,128}, metadata={op_name="jit(train_step)/transpose(jvp())/while/body/dynamic_slice" stack_frame_id=0}, backend_config={"flag_configs":[],"scoped_memory_configs":[],"indices_config":{"index_known_bits":[{"zeroes":"4294967292","ones":"0","bitwidth":"32"},{"zeroes":"4294967295","ones":"0","bitwidth":"32"},{"zeroes":"4294967295","ones":"0","bitwidth":"32"},{"zeroes":"4294967295","ones":"0","bitwidth":"32"}],"is_index_aligned":[]},"used_scoped_memory_configs":[]}
}

%fused_computation.288.clone.clone (param_0.1705: f32[128,8]) -> f32[128,8] {
  %param_0.1705 = f32[128,8]{0,1:T(8,128)S(1)} parameter(0)
  %constant.1611 = f32[]{:T(128)} constant(0.0078125)
  %broadcast.968 = f32[128,8]{0,1:T(8,128)} broadcast(%constant.1611), dimensions={}, metadata={op_name="jit(train_step)/transpose(jvp())/while/body/closed_call" stack_frame_id=0}
  %div.1010 = f32[128,8]{0,1:T(8,128)} multiply(%param_0.1705, %broadcast.968), metadata={op_name="jit(train_step)/transpose(jvp())/while/body/closed_call/checkpoint/rematted_computation/div" stack_frame_id=0}
  %constant.1612 = f32[]{:T(128)} constant(1e-06)
  %broadcast.967 = f32[128,8]{0,1:T(8,128)} broadcast(%constant.1612), dimensions={}, metadata={op_name="jit(train_step)/transpose(jvp())/while/body/closed_call/checkpoint/rematted_computation/add" stack_frame_id=0}
  %add.1017 = f32[128,8]{0,1:T(8,128)} add(%div.1010, %broadcast.967), metadata={op_name="jit(train_step)/transpose(jvp())/while/body/closed_call/checkpoint/rematted_computation/add" stack_frame_id=0}
  %bitcast.913 = f32[1,128,8]{1,2,0:T(8,128)} bitcast(%add.1017), metadata={op_name="jit(train_step)/transpose(jvp())/while/body/closed_call/checkpoint/rematted_computation/add" stack_frame_id=0}
  %rsqrt.215 = f32[1,128,8]{1,2,0:T(8,128)} rsqrt(%bitcast.913), metadata={op_name="jit(train_step)/transpose(jvp())/while/body/closed_call/checkpoint/rematted_computation/rsqrt" stack_frame_id=0}
  ROOT %bitcast.912 = f32[128,8]{0,1:T(8,128)S(1)} bitcast(%rsqrt.215), metadata={op_name="jit(train_step)/transpose(jvp())/while/body/closed_call/checkpoint/rematted_computation/rsqrt" stack_frame_id=0}
}

%fused_computation.267.clone.1.clone (param_0.1710: bf16[128], param_1.1824: f32[1,128,8,128], param_2.1399: f32[128,8]) -> bf16[1,128,8,128] {
  %param_1.1824 = f32[1,128,8,128]{3,1,2,0:T(8,128)S(1)} parameter(1)
  %param_2.1399 = f32[128,8]{0,1:T(8,128)S(1)} parameter(2)
  %mul.2885 = f32[1,128,8,128]{3,1,2,0:T(8,128)} broadcast(%param_2.1399), dimensions={1,2}, metadata={op_name="jit(train_step)/transpose(jvp())/while/body/closed_call/checkpoint/rematted_computation/mul" stack_frame_id=0}
  %mul.2884 = f32[1,128,8,128]{3,1,2,0:T(8,128)} multiply(%param_1.1824, %mul.2885), metadata={op_name="jit(train_step)/transpose(jvp())/while/body/closed_call/checkpoint/rematted_computation/mul" stack_frame_id=0}
  %convert_element_type.1440 = bf16[1,128,8,128]{3,1,2,0:T(8,128)(2,1)} convert(%mul.2884), metadata={op_name="jit(train_step)/transpose(jvp())/while/body/closed_call/checkpoint/rematted_computation/convert_element_type" stack_frame_id=0}
  %param_0.1710 = bf16[128]{0:T(256)(128)(2,1)S(1)} parameter(0)
  %mul.2883 = bf16[1,128,8,128]{3,1,2,0:T(8,128)(2,1)} broadcast(%param_0.1710), dimensions={3}, metadata={op_name="jit(train_step)/transpose(jvp())/while/body/closed_call/checkpoint/rematted_computation/mul" stack_frame_id=0}
  ROOT %mul.2882 = bf16[1,128,8,128]{3,1,2,0:T(8,128)(2,1)S(1)} multiply(%convert_element_type.1440, %mul.2883), metadata={op_name="jit(train_step)/transpose(jvp())/while/body/closed_call/checkpoint/rematted_computation/mul" stack_frame_id=0}
}

%fused_computation.246.clone.clone (param_0.1711: bf16[1,128,8,128]) -> (bf16[1,128,8,64], bf16[1,128,8,64]) {
  %param_0.1711 = bf16[1,128,8,128]{3,1,2,0:T(8,128)(2,1)S(1)} parameter(0)
  %slice.73 = bf16[1,128,8,64]{3,1,2,0:T(8,128)(2,1)} slice(%param_0.1711), slice={[0:1], [0:128], [0:8], [64:128]}, metadata={op_name="jit(train_step)/transpose(jvp())/while/body/closed_call/checkpoint/rematted_computation/split" stack_frame_id=0}
  %neg.126 = bf16[1,128,8,64]{3,1,2,0:T(8,128)(2,1)S(1)} negate(%slice.73), metadata={op_name="jit(train_step)/transpose(jvp())/while/body/closed_call/checkpoint/rematted_computation/neg" stack_frame_id=0}
  %slice.74 = bf16[1,128,8,64]{3,1,2,0:T(8,128)(2,1)S(1)} slice(%param_0.1711), slice={[0:1], [0:128], [0:8], [0:64]}, metadata={op_name="jit(train_step)/transpose(jvp())/while/body/closed_call/checkpoint/rematted_computation/split" stack_frame_id=0}
  ROOT %tuple.222 = (bf16[1,128,8,64]{3,1,2,0:T(8,128)(2,1)S(1)}, bf16[1,128,8,64]{3,1,2,0:T(8,128)(2,1)S(1)}) tuple(%neg.126, %slice.74)
}

%fused_computation.249.clone.clone (param_0.1712: bf16[1,128,8,64], param_1.1825: bf16[1,128,8,64], param_2.1400: bf16[128,128], param_3.927: bf16[128,128], param_4.549: bf16[128], param_5.480: f32[1,128,8,128], param_6.333: f32[128,8]) -> bf16[8,128,128] {
  %param_5.480 = f32[1,128,8,128]{3,1,2,0:T(8,128)S(1)} parameter(5)
  %param_6.333 = f32[128,8]{0,1:T(8,128)S(1)} parameter(6)
  %mul.2893 = f32[1,128,8,128]{3,1,2,0:T(8,128)} broadcast(%param_6.333), dimensions={1,2}, metadata={op_name="jit(train_step)/transpose(jvp())/while/body/closed_call/checkpoint/rematted_computation/mul" stack_frame_id=0}
  %mul.2892 = f32[1,128,8,128]{3,1,2,0:T(8,128)} multiply(%param_5.480, %mul.2893), metadata={op_name="jit(train_step)/transpose(jvp())/while/body/closed_call/checkpoint/rematted_computation/mul" stack_frame_id=0}
  %convert_element_type.1441 = bf16[1,128,8,128]{3,1,2,0:T(8,128)(2,1)} convert(%mul.2892), metadata={op_name="jit(train_step)/transpose(jvp())/while/body/closed_call/checkpoint/rematted_computation/convert_element_type" stack_frame_id=0}
  %param_4.549 = bf16[128]{0:T(256)(128)(2,1)S(1)} parameter(4)
  %mul.2891 = bf16[1,128,8,128]{3,1,2,0:T(8,128)(2,1)} broadcast(%param_4.549), dimensions={3}, metadata={op_name="jit(train_step)/transpose(jvp())/while/body/closed_call/checkpoint/rematted_computation/mul" stack_frame_id=0}
  %mul.2890 = bf16[1,128,8,128]{3,1,2,0:T(8,128)(2,1)} multiply(%convert_element_type.1441, %mul.2891), metadata={op_name="jit(train_step)/transpose(jvp())/while/body/closed_call/checkpoint/rematted_computation/mul" stack_frame_id=0}
  %param_3.927 = bf16[128,128]{1,0:T(8,128)(2,1)S(1)} parameter(3)
  %mul.2889 = bf16[1,128,8,128]{3,1,2,0:T(8,128)(2,1)} broadcast(%param_3.927), dimensions={1,3}, metadata={op_name="jit(train_step)/transpose(jvp())/while/body/closed_call/checkpoint/rematted_computation/mul" stack_frame_id=0}
  %mul.2887 = bf16[1,128,8,128]{3,1,2,0:T(8,128)(2,1)} multiply(%mul.2890, %mul.2889), metadata={op_name="jit(train_step)/transpose(jvp())/while/body/closed_call/checkpoint/rematted_computation/mul" stack_frame_id=0}
  %param_1.1825 = bf16[1,128,8,64]{3,1,2,0:T(8,128)(2,1)S(1)} parameter(1)
  %constant.1621 = bf16[]{:T(256)} constant(-inf)
  %pad.79 = bf16[1,128,8,128]{3,1,2,0:T(8,128)(2,1)} pad(%param_1.1825, %constant.1621), padding=0_0x0_0x0_0x0_64, metadata={op_name="jit(train_step)/transpose(jvp())/while/body/closed_call/checkpoint/rematted_computation/concatenate" stack_frame_id=0}
  %param_0.1712 = bf16[1,128,8,64]{3,1,2,0:T(8,128)(2,1)S(1)} parameter(0)
  %pad.78 = bf16[1,128,8,128]{3,1,2,0:T(8,128)(2,1)} pad(%param_0.1712, %constant.1621), padding=0_0x0_0x0_0x64_0, metadata={op_name="jit(train_step)/transpose(jvp())/while/body/closed_call/checkpoint/rematted_computation/concatenate" stack_frame_id=0}
  %maximum.58 = bf16[1,128,8,128]{3,1,2,0:T(8,128)(2,1)} maximum(%pad.79, %pad.78), metadata={op_name="jit(train_step)/transpose(jvp())/while/body/closed_call/checkpoint/rematted_computation/concatenate" stack_frame_id=0}
  %param_2.1400 = bf16[128,128]{1,0:T(8,128)(2,1)S(1)} parameter(2)
  %mul.2888 = bf16[1,128,8,128]{3,1,2,0:T(8,128)(2,1)} broadcast(%param_2.1400), dimensions={1,3}, metadata={op_name="jit(train_step)/transpose(jvp())/while/body/closed_call/checkpoint/rematted_computation/mul" stack_frame_id=0}
  %mul.2886 = bf16[1,128,8,128]{3,1,2,0:T(8,128)(2,1)} multiply(%maximum.58, %mul.2888), metadata={op_name="jit(train_step)/transpose(jvp())/while/body/closed_call/checkpoint/rematted_computation/mul" stack_frame_id=0}
  %add.1018 = bf16[1,128,8,128]{3,1,2,0:T(8,128)(2,1)} add(%mul.2887, %mul.2886), metadata={op_name="jit(train_step)/transpose(jvp())/while/body/closed_call/checkpoint/rematted_computation/add" stack_frame_id=0}
  ROOT %bitcast.917 = bf16[8,128,128]{2,1,0:T(8,128)(2,1)S(1)} bitcast(%add.1018), metadata={op_name="jit(train_step)/transpose(jvp())/while/body/closed_call/checkpoint/rematted_computation/shard_map/vmap(jit(_splash_attention))/splash_mha_fwd_segmented_residuals/splash_mha_fwd_segmented_residuals/squeeze" stack_frame_id=0}
}

%fused_computation.488.clone.clone (param_0.1749: f32[1,16,128,128]) -> (f32[1,16,128,1], f32[16,128]) {
  %param_0.1749 = f32[1,16,128,128]{2,1,3,0:T(8,128)S(1)} parameter(0)
  %slice.77 = f32[1,16,128,1]{2,1,3,0:T(8,128)} slice(%param_0.1749), slice={[0:1], [0:16], [0:128], [0:1]}, metadata={op_name="jit(train_step)/transpose(jvp())/while/body/closed_call/checkpoint/rematted_computation/shard_map/vmap(jit(_splash_attention))/slice" stack_frame_id=0}
  %bitcast.489.clone.3 = f32[16,128]{1,0:T(8,128)S(1)} bitcast(%slice.77), metadata={op_name="jit(train_step)/transpose(jvp())/while/body/closed_call/checkpoint/shard_map/vmap(jit(_splash_attention))/broadcast_in_dim" stack_frame_id=0}
  ROOT %tuple.229 = (f32[1,16,128,1]{2,1,3,0:T(8,128)}, f32[16,128]{1,0:T(8,128)S(1)}) tuple(%slice.77, %bitcast.489.clone.3)
}

%fused_computation.120.clone.clone (param_0.1721: bf16[4,16,128,512], param_1.1831: s32[]) -> bf16[1,16,128,512] {
  %param_0.1721 = bf16[4,16,128,512]{3,2,1,0:T(8,128)(2,1)} parameter(0)
  %param_1.1831 = s32[]{:T(128)S(6)} parameter(1)
  %constant.1629 = s32[]{:T(128)} constant(0)
  ROOT %dynamic-slice.191 = bf16[1,16,128,512]{3,2,1,0:T(8,128)(2,1)S(1)} dynamic-slice(%param_0.1721, %param_1.1831, %constant.1629, %constant.1629, %constant.1629), dynamic_slice_sizes={1,16,128,512}, metadata={op_name="jit(train_step)/transpose(jvp())/while/body/dynamic_slice" stack_frame_id=0}, backend_config={"flag_configs":[],"scoped_memory_configs":[],"indices_config":{"index_known_bits":[{"zeroes":"4294967292","ones":"0","bitwidth":"32"},{"zeroes":"4294967295","ones":"0","bitwidth":"32"},{"zeroes":"4294967295","ones":"0","bitwidth":"32"},{"zeroes":"4294967295","ones":"0","bitwidth":"32"}],"is_index_aligned":[]},"used_scoped_memory_configs":[]}
}

%fused_computation.98.clone.clone (param_0.1726: bf16[4,512,6144], param_1.1833: s32[]) -> bf16[1,512,6144] {
  %param_0.1726 = bf16[4,512,6144]{2,1,0:T(8,128)(2,1)} parameter(0)
  %param_1.1833 = s32[]{:T(128)S(6)} parameter(1)
  %constant.1633 = s32[]{:T(128)} constant(0)
  ROOT %dynamic-slice.192 = bf16[1,512,6144]{2,1,0:T(8,128)(2,1)S(1)} dynamic-slice(%param_0.1726, %param_1.1833, %constant.1633, %constant.1633), dynamic_slice_sizes={1,512,6144}, metadata={op_name="jit(train_step)/transpose(jvp())/while/body/dynamic_slice" stack_frame_id=0}, backend_config={"flag_configs":[],"scoped_memory_configs":[],"indices_config":{"index_known_bits":[{"zeroes":"4294967292","ones":"0","bitwidth":"32"},{"zeroes":"4294967295","ones":"0","bitwidth":"32"},{"zeroes":"4294967295","ones":"0","bitwidth":"32"}],"is_index_aligned":[]},"used_scoped_memory_configs":[]}
}

%fused_computation.99.clone.clone (param_0.1730: bf16[4,6144,512], param_1.1836: s32[]) -> bf16[1,6144,512] {
  %param_0.1730 = bf16[4,6144,512]{2,1,0:T(8,128)(2,1)} parameter(0)
  %param_1.1836 = s32[]{:T(128)S(6)} parameter(1)
  %constant.1634 = s32[]{:T(128)} constant(0)
  ROOT %dynamic-slice.193 = bf16[1,6144,512]{2,1,0:T(8,128)(2,1)S(1)} dynamic-slice(%param_0.1730, %param_1.1836, %constant.1634, %constant.1634), dynamic_slice_sizes={1,6144,512}, metadata={op_name="jit(train_step)/transpose(jvp())/while/body/dynamic_slice" stack_frame_id=0}, backend_config={"flag_configs":[],"scoped_memory_configs":[],"indices_config":{"index_known_bits":[{"zeroes":"4294967292","ones":"0","bitwidth":"32"},{"zeroes":"4294967295","ones":"0","bitwidth":"32"},{"zeroes":"4294967295","ones":"0","bitwidth":"32"}],"is_index_aligned":[]},"used_scoped_memory_configs":[]}
}

%fused_computation.100.clone.clone (param_0.1734: bf16[4,512,6144], param_1.1838: s32[]) -> bf16[1,512,6144] {
  %param_0.1734 = bf16[4,512,6144]{2,1,0:T(8,128)(2,1)} parameter(0)
  %param_1.1838 = s32[]{:T(128)S(6)} parameter(1)
  %constant.1635 = s32[]{:T(128)} constant(0)
  ROOT %dynamic-slice.194 = bf16[1,512,6144]{2,1,0:T(8,128)(2,1)S(1)} dynamic-slice(%param_0.1734, %param_1.1838, %constant.1635, %constant.1635), dynamic_slice_sizes={1,512,6144}, metadata={op_name="jit(train_step)/transpose(jvp())/while/body/dynamic_slice" stack_frame_id=0}, backend_config={"flag_configs":[],"scoped_memory_configs":[],"indices_config":{"index_known_bits":[{"zeroes":"4294967292","ones":"0","bitwidth":"32"},{"zeroes":"4294967295","ones":"0","bitwidth":"32"},{"zeroes":"4294967295","ones":"0","bitwidth":"32"}],"is_index_aligned":[]},"used_scoped_memory_configs":[]}
}

%fused_computation.297.clone.clone (param_0.1725: f32[128]) -> f32[128] {
  %param_0.1725 = f32[128]{0:T(128)S(1)} parameter(0)
  %constant.1632 = f32[]{:T(128)} constant(0.00048828125)
  %broadcast.974 = f32[128]{0:T(128)} broadcast(%constant.1632), dimensions={}, metadata={op_name="jit(train_step)/transpose(jvp())/while/body/closed_call" stack_frame_id=0}
  %div.1016 = f32[128]{0:T(128)} multiply(%param_0.1725, %broadcast.974), metadata={op_name="jit(train_step)/transpose(jvp())/while/body/closed_call/checkpoint/rematted_computation/div" stack_frame_id=0}
  %constant.1631 = f32[]{:T(128)} constant(1e-06)
  %broadcast.973 = f32[128]{0:T(128)} broadcast(%constant.1631), dimensions={}, metadata={op_name="jit(train_step)/transpose(jvp())/while/body/closed_call" stack_frame_id=0}
  %add.1021 = f32[128]{0:T(128)} add(%div.1016, %broadcast.973), metadata={op_name="jit(train_step)/transpose(jvp())/while/body/closed_call/checkpoint/rematted_computation/add" stack_frame_id=0}
  %bitcast.930 = f32[1,128]{1,0:T(1,128)} bitcast(%add.1021), metadata={op_name="jit(train_step)/transpose(jvp())/while/body/closed_call/checkpoint/rematted_computation/add" stack_frame_id=0}
  %rsqrt.217 = f32[1,128]{1,0:T(1,128)} rsqrt(%bitcast.930), metadata={op_name="jit(train_step)/transpose(jvp())/while/body/closed_call/checkpoint/rematted_computation/rsqrt" stack_frame_id=0}
  ROOT %bitcast.929 = f32[128]{0:T(128)S(1)} bitcast(%rsqrt.217), metadata={op_name="jit(train_step)/transpose(jvp())/while/body/closed_call/checkpoint/rematted_computation/rsqrt" stack_frame_id=0}
}

%fused_computation.313.clone.clone (param_0.1744: f32[128], param_1.1845: f32[128]) -> f32[128] {
  %param_0.1744 = f32[128]{0:T(128)S(1)} parameter(0)
  %bitcast.946 = f32[1,128]{1,0:T(1,128)} bitcast(%param_0.1744), metadata={op_name="jit(train_step)/transpose(jvp())/while/body/closed_call/checkpoint/reduce_sum" stack_frame_id=0}
  %param_1.1845 = f32[128]{0:T(128)S(1)} parameter(1)
  %constant.1642 = f32[]{:T(128)} constant(0.00048828125)
  %broadcast.976 = f32[128]{0:T(128)} broadcast(%constant.1642), dimensions={}, metadata={op_name="jit(train_step)/transpose(jvp())/while/body/closed_call" stack_frame_id=0}
  %div.1020 = f32[128]{0:T(128)} multiply(%param_1.1845, %broadcast.976), metadata={op_name="jit(train_step)/transpose(jvp())/while/body/closed_call/checkpoint/rematted_computation/div" stack_frame_id=0}
  %constant.1641 = f32[]{:T(128)} constant(1e-06)
  %broadcast.975 = f32[128]{0:T(128)} broadcast(%constant.1641), dimensions={}, metadata={op_name="jit(train_step)/transpose(jvp())/while/body/closed_call" stack_frame_id=0}
  %add.1024 = f32[128]{0:T(128)} add(%div.1020, %broadcast.975), metadata={op_name="jit(train_step)/transpose(jvp())/while/body/closed_call/checkpoint/rematted_computation/add" stack_frame_id=0}
  %bitcast.945 = f32[1,128]{1,0:T(1,128)} bitcast(%add.1024), metadata={op_name="jit(train_step)/transpose(jvp())/while/body/closed_call/checkpoint/rematted_computation/add" stack_frame_id=0}
  %rsqrt.218 = f32[1,128]{1,0:T(1,128)} rsqrt(%bitcast.945), metadata={op_name="jit(train_step)/transpose(jvp())/while/body/closed_call/checkpoint/rematted_computation/rsqrt" stack_frame_id=0}
  %div.1019 = f32[1,128]{1,0:T(1,128)} divide(%rsqrt.218, %bitcast.945), metadata={op_name="jit(train_step)/transpose(jvp())/while/body/closed_call/checkpoint/rematted_computation/div" stack_frame_id=0}
  %constant.1640 = f32[]{:T(128)} constant(-0.5)
  %closed_call.70 = f32[1,128]{1,0:T(1,128)} broadcast(%constant.1640), dimensions={}, metadata={op_name="jit(train_step)/transpose(jvp())/while/body/closed_call" stack_frame_id=0}
  %mul.2931 = f32[1,128]{1,0:T(1,128)} multiply(%div.1019, %closed_call.70), metadata={op_name="jit(train_step)/transpose(jvp())/while/body/closed_call/checkpoint/rematted_computation/mul" stack_frame_id=0}
  %mul.2930 = f32[1,128]{1,0:T(1,128)} multiply(%bitcast.946, %mul.2931), metadata={op_name="jit(train_step)/transpose(jvp())/while/body/closed_call/checkpoint/mul" stack_frame_id=0}
  %constant.1639 = f32[]{:T(128)} constant(0.0009765625)
  %mul.2932 = f32[1,128]{1,0:T(1,128)} broadcast(%constant.1639), dimensions={}, metadata={op_name="jit(train_step)/transpose(jvp())/while/body/closed_call/checkpoint/mul" stack_frame_id=0}
  %mul.2929 = f32[1,128]{1,0:T(1,128)} multiply(%mul.2930, %mul.2932), metadata={op_name="jit(train_step)/transpose(jvp())/while/body/closed_call/checkpoint/mul" stack_frame_id=0}
  ROOT %bitcast.944 = f32[128]{0:T(128)S(1)} bitcast(%mul.2929), metadata={op_name="jit(train_step)/transpose(jvp())/while/body/closed_call/checkpoint/mul" stack_frame_id=0}
}

%region_23.27 (reduce_sum.320: bf16[], reduce_sum.324: bf16[]) -> bf16[] {
  %reduce_sum.320 = bf16[]{:T(256)} parameter(0), metadata={op_name="jit(train_step)/transpose(jvp())/while/body/closed_call/checkpoint/reduce_sum"}
  %reduce_sum.324 = bf16[]{:T(256)} parameter(1), metadata={op_name="jit(train_step)/transpose(jvp())/while/body/closed_call/checkpoint/reduce_sum"}
  ROOT %reduce_sum.325 = bf16[]{:T(256)} add(%reduce_sum.320, %reduce_sum.324), metadata={op_name="checkpoint/reduce_sum" stack_frame_id=0}, backend_config={"flag_configs":[],"scoped_memory_configs":[],"used_scoped_memory_configs":[],"aliasing_operands":{"lists":[]}}
}

%fused_computation.230.clone.clone (param_0.1745: bf16[1,128,2048], param_1.1846: f32[128], param_2.1413: bf16[1,128,2048], param_3.935: bf16[1,128,2048], param_4.553: f32[128], param_5.483: bf16[2048]) -> (bf16[2048], bf16[1,128,2048]) {
  %param_2.1413 = bf16[1,128,2048]{2,1,0:T(8,128)(2,1)S(1)} parameter(2)
  %convert_element_type.1457 = f32[1,128,2048]{2,1,0:T(8,128)} convert(%param_2.1413), metadata={op_name="jit(train_step)/transpose(jvp())/while/body/closed_call/checkpoint/rematted_computation/convert_element_type" stack_frame_id=0}
  %param_1.1846 = f32[128]{0:T(128)S(1)} parameter(1)
  %mul.2935 = f32[1,128,2048]{2,1,0:T(8,128)} broadcast(%param_1.1846), dimensions={1}, metadata={op_name="jit(train_step)/transpose(jvp())/while/body/closed_call/checkpoint/rematted_computation/mul" stack_frame_id=0}
  %mul.2934 = f32[1,128,2048]{2,1,0:T(8,128)} multiply(%convert_element_type.1457, %mul.2935), metadata={op_name="jit(train_step)/transpose(jvp())/while/body/closed_call/checkpoint/rematted_computation/mul" stack_frame_id=0}
  %convert_element_type.1456 = bf16[1,128,2048]{2,1,0:T(8,128)(2,1)} convert(%mul.2934), metadata={op_name="jit(train_step)/transpose(jvp())/while/body/closed_call/checkpoint/rematted_computation/convert_element_type" stack_frame_id=0}
  %param_0.1745 = bf16[1,128,2048]{2,1,0:T(8,128)(2,1)S(1)} parameter(0)
  %mul.2933 = bf16[1,128,2048]{2,1,0:T(8,128)(2,1)} multiply(%convert_element_type.1456, %param_0.1745), metadata={op_name="jit(train_step)/transpose(jvp())/while/body/closed_call/checkpoint/mul" stack_frame_id=0}
  %constant.1643 = bf16[]{:T(256)} constant(0)
  %reduce.197 = bf16[2048]{0:T(1024)(128)(2,1)} reduce(%mul.2933, %constant.1643), dimensions={0,1}, to_apply=%region_23.27, metadata={op_name="jit(train_step)/transpose(jvp())/while/body/closed_call/checkpoint/reduce_sum" stack_frame_id=0}
  %param_3.935 = bf16[1,128,2048]{2,1,0:T(8,128)(2,1)S(1)} parameter(3)
  %param_5.483 = bf16[2048]{0:T(1024)(128)(2,1)S(1)} parameter(5)
  %mul.2044.clone.3 = bf16[1,128,2048]{2,1,0:T(8,128)(2,1)} broadcast(%param_5.483), dimensions={2}, metadata={op_name="jit(train_step)/transpose(jvp())/while/body/closed_call/checkpoint/rematted_computation/mul" stack_frame_id=0}
  %mul.1960.clone.3 = bf16[1,128,2048]{2,1,0:T(8,128)(2,1)} multiply(%param_0.1745, %mul.2044.clone.3), metadata={op_name="jit(train_step)/transpose(jvp())/while/body/closed_call/checkpoint/mul" stack_frame_id=0}
  %convert_element_type.1089.clone.3 = f32[1,128,2048]{2,1,0:T(8,128)} convert(%mul.1960.clone.3), metadata={op_name="jit(train_step)/transpose(jvp())/while/body/closed_call/checkpoint/convert_element_type" stack_frame_id=0}
  %mul.1923.clone.3 = f32[1,128,2048]{2,1,0:T(8,128)} multiply(%convert_element_type.1089.clone.3, %mul.2935), metadata={op_name="jit(train_step)/transpose(jvp())/while/body/closed_call/checkpoint/mul" stack_frame_id=0}
  %param_4.553 = f32[128]{0:T(128)S(1)} parameter(4)
  %mul.1942.clone.3 = f32[1,128,2048]{2,1,0:T(8,128)} broadcast(%param_4.553), dimensions={1}, metadata={op_name="jit(train_step)/transpose(jvp())/while/body/closed_call/checkpoint/mul" stack_frame_id=0}
  %mul.1922.clone.3 = f32[1,128,2048]{2,1,0:T(8,128)} multiply(%convert_element_type.1457, %mul.1942.clone.3), metadata={op_name="jit(train_step)/transpose(jvp())/while/body/closed_call/checkpoint/mul" stack_frame_id=0}
  %add_any.171.clone.3 = f32[1,128,2048]{2,1,0:T(8,128)} add(%mul.1923.clone.3, %mul.1922.clone.3), metadata={op_name="jit(train_step)/transpose(jvp())/while/body/closed_call/checkpoint/add_any" stack_frame_id=0}
  %convert_element_type.1087.clone.3 = bf16[1,128,2048]{2,1,0:T(8,128)(2,1)} convert(%add_any.171.clone.3), metadata={op_name="jit(train_step)/transpose(jvp())/while/body/closed_call/checkpoint/convert_element_type" stack_frame_id=0}
  %add_any.169.clone.3 = bf16[1,128,2048]{2,1,0:T(8,128)(2,1)S(1)} add(%param_3.935, %convert_element_type.1087.clone.3), metadata={op_name="jit(train_step)/transpose(jvp())/while/body/closed_call/checkpoint/add_any" stack_frame_id=0}
  ROOT %tuple.227 = (bf16[2048]{0:T(1024)(128)(2,1)}, bf16[1,128,2048]{2,1,0:T(8,128)(2,1)S(1)}) tuple(%reduce.197, %add_any.169.clone.3)
}

%fused_computation.255.clone.clone (param_0.1772: bf16[8,128,128], param_1.1864: bf16[128,128]) -> bf16[1,128,8,128] {
  %param_0.1772 = bf16[8,128,128]{2,1,0:T(8,128)(2,1)S(1)} parameter(0)
  %bitcast.973 = bf16[1,8,128,128]{3,2,1,0:T(8,128)(2,1)} bitcast(%param_0.1772), metadata={op_name="jit(train_step)/transpose(jvp())/while/body/closed_call/checkpoint/shard_map/vmap(jit(_splash_attention))/splash_mha_dkv_segmented_no_residuals/splash_mha_dkv_segmented_no_residuals/broadcast_in_dim" stack_frame_id=0}
  %param_1.1864 = bf16[128,128]{1,0:T(8,128)(2,1)S(1)} parameter(1)
  %broadcast.980 = bf16[1,8,128,128]{3,2,1,0:T(8,128)(2,1)} broadcast(%param_1.1864), dimensions={2,3}, metadata={op_name="jit(train_step)/transpose(jvp())/while/body/closed_call/checkpoint/rematted_computation/mul" stack_frame_id=0}
  %mul.2968 = bf16[1,8,128,128]{3,2,1,0:T(8,128)(2,1)} multiply(%bitcast.973, %broadcast.980), metadata={op_name="jit(train_step)/transpose(jvp())/while/body/closed_call/checkpoint/mul" stack_frame_id=0}
  ROOT %bitcast.972 = bf16[1,128,8,128]{3,1,2,0:T(8,128)(2,1)S(1)} bitcast(%mul.2968), metadata={op_name="jit(train_step)/transpose(jvp())/while/body/closed_call/checkpoint/mul" stack_frame_id=0}
}

%fused_computation.490.clone.clone (param_0.1773: bf16[1,128,8,128]) -> (bf16[1,128,8,64], bf16[1,128,8,64]) {
  %param_0.1773 = bf16[1,128,8,128]{3,1,2,0:T(8,128)(2,1)S(1)} parameter(0)
  %slice.79 = bf16[1,128,8,64]{3,1,2,0:T(8,128)(2,1)S(1)} slice(%param_0.1773), slice={[0:1], [0:128], [0:8], [64:128]}, metadata={op_name="jit(train_step)/transpose(jvp())/while/body/closed_call/checkpoint/split" stack_frame_id=0}
  %slice.52.clone.3 = bf16[1,128,8,64]{3,1,2,0:T(8,128)(2,1)} slice(%param_0.1773), slice={[0:1], [0:128], [0:8], [0:64]}, metadata={op_name="jit(train_step)/transpose(jvp())/while/body/closed_call/checkpoint/split" stack_frame_id=0}
  %neg.100.clone.3 = bf16[1,128,8,64]{3,1,2,0:T(8,128)(2,1)S(1)} negate(%slice.52.clone.3), metadata={op_name="jit(train_step)/transpose(jvp())/while/body/closed_call/checkpoint/neg" stack_frame_id=0}
  ROOT %tuple.234 = (bf16[1,128,8,64]{3,1,2,0:T(8,128)(2,1)S(1)}, bf16[1,128,8,64]{3,1,2,0:T(8,128)(2,1)S(1)}) tuple(%slice.79, %neg.100.clone.3)
}

%region_25.29 (reduce_sum.332: bf16[], reduce_sum.333: bf16[]) -> bf16[] {
  %reduce_sum.332 = bf16[]{:T(256)} parameter(0), metadata={op_name="jit(train_step)/transpose(jvp())/while/body/closed_call/checkpoint/reduce_sum"}
  %reduce_sum.333 = bf16[]{:T(256)} parameter(1), metadata={op_name="jit(train_step)/transpose(jvp())/while/body/closed_call/checkpoint/reduce_sum"}
  ROOT %reduce_sum.334 = bf16[]{:T(256)} add(%reduce_sum.332, %reduce_sum.333), metadata={op_name="checkpoint/reduce_sum" stack_frame_id=0}, backend_config={"flag_configs":[],"scoped_memory_configs":[],"used_scoped_memory_configs":[],"aliasing_operands":{"lists":[]}}
}

%fused_computation.256.clone.clone (param_0.1774: f32[1,128,8,128], param_1.1865: f32[128,8], param_2.1427: bf16[128,128], param_3.943: bf16[8,128,128], param_4.559: bf16[1,128,8,64], param_5.486: bf16[1,128,8,64]) -> (bf16[128], bf16[1,128,8,128]) {
  %param_0.1774 = f32[1,128,8,128]{3,1,2,0:T(8,128)S(1)} parameter(0)
  %param_1.1865 = f32[128,8]{0,1:T(8,128)S(1)} parameter(1)
  %mul.2971 = f32[1,128,8,128]{3,1,2,0:T(8,128)} broadcast(%param_1.1865), dimensions={1,2}, metadata={op_name="jit(train_step)/transpose(jvp())/while/body/closed_call/checkpoint/rematted_computation/mul" stack_frame_id=0}
  %mul.2970 = f32[1,128,8,128]{3,1,2,0:T(8,128)} multiply(%param_0.1774, %mul.2971), metadata={op_name="jit(train_step)/transpose(jvp())/while/body/closed_call/checkpoint/rematted_computation/mul" stack_frame_id=0}
  %convert_element_type.1471 = bf16[1,128,8,128]{3,1,2,0:T(8,128)(2,1)} convert(%mul.2970), metadata={op_name="jit(train_step)/transpose(jvp())/while/body/closed_call/checkpoint/rematted_computation/convert_element_type" stack_frame_id=0}
  %param_5.486 = bf16[1,128,8,64]{3,1,2,0:T(8,128)(2,1)S(1)} parameter(5)
  %constant.1353.clone.3 = bf16[]{:T(256)} constant(-inf)
  %pad.61.clone.3 = bf16[1,128,8,128]{3,1,2,0:T(8,128)(2,1)} pad(%param_5.486, %constant.1353.clone.3), padding=0_0x0_0x0_0x0_64, metadata={op_name="jit(train_step)/transpose(jvp())/while/body/closed_call/checkpoint/concatenate" stack_frame_id=0}
  %param_4.559 = bf16[1,128,8,64]{3,1,2,0:T(8,128)(2,1)S(1)} parameter(4)
  %pad.60.clone.3 = bf16[1,128,8,128]{3,1,2,0:T(8,128)(2,1)} pad(%param_4.559, %constant.1353.clone.3), padding=0_0x0_0x0_0x64_0, metadata={op_name="jit(train_step)/transpose(jvp())/while/body/closed_call/checkpoint/concatenate" stack_frame_id=0}
  %maximum.49.clone.3 = bf16[1,128,8,128]{3,1,2,0:T(8,128)(2,1)} maximum(%pad.61.clone.3, %pad.60.clone.3), metadata={op_name="jit(train_step)/transpose(jvp())/while/body/closed_call/checkpoint/concatenate" stack_frame_id=0}
  %param_3.943 = bf16[8,128,128]{2,1,0:T(8,128)(2,1)S(1)} parameter(3)
  %bitcast.683.clone.3 = bf16[1,8,128,128]{3,2,1,0:T(8,128)(2,1)} bitcast(%param_3.943), metadata={op_name="jit(train_step)/transpose(jvp())/while/body/closed_call/checkpoint/shard_map/vmap(jit(_splash_attention))/splash_mha_dkv_segmented_no_residuals/splash_mha_dkv_segmented_no_residuals/broadcast_in_dim" stack_frame_id=0}
  %param_2.1427 = bf16[128,128]{1,0:T(8,128)(2,1)S(1)} parameter(2)
  %broadcast.878.clone.3 = bf16[1,8,128,128]{3,2,1,0:T(8,128)(2,1)} broadcast(%param_2.1427), dimensions={2,3}, metadata={op_name="jit(train_step)/transpose(jvp())/while/body/closed_call/checkpoint/rematted_computation/mul" stack_frame_id=0}
  %mul.2468.clone.3 = bf16[1,8,128,128]{3,2,1,0:T(8,128)(2,1)} multiply(%bitcast.683.clone.3, %broadcast.878.clone.3), metadata={op_name="jit(train_step)/transpose(jvp())/while/body/closed_call/checkpoint/mul" stack_frame_id=0}
  %bitcast.682.clone.3 = bf16[1,128,8,128]{3,1,2,0:T(8,128)(2,1)} bitcast(%mul.2468.clone.3), metadata={op_name="jit(train_step)/transpose(jvp())/while/body/closed_call/checkpoint/mul" stack_frame_id=0}
  %add_any.195.clone.3 = bf16[1,128,8,128]{3,1,2,0:T(8,128)(2,1)S(1)} add(%maximum.49.clone.3, %bitcast.682.clone.3), metadata={op_name="jit(train_step)/transpose(jvp())/while/body/closed_call/checkpoint/add_any" stack_frame_id=0}
  %mul.2969 = bf16[1,128,8,128]{3,1,2,0:T(8,128)(2,1)} multiply(%convert_element_type.1471, %add_any.195.clone.3), metadata={op_name="jit(train_step)/transpose(jvp())/while/body/closed_call/checkpoint/mul" stack_frame_id=0}
  %constant.1661 = bf16[]{:T(256)} constant(0)
  %reduce.200 = bf16[128]{0:T(256)(128)(2,1)} reduce(%mul.2969, %constant.1661), dimensions={0,1,2}, to_apply=%region_25.29, metadata={op_name="jit(train_step)/transpose(jvp())/while/body/closed_call/checkpoint/reduce_sum" stack_frame_id=0}
  ROOT %tuple.235 = (bf16[128]{0:T(256)(128)(2,1)}, bf16[1,128,8,128]{3,1,2,0:T(8,128)(2,1)S(1)}) tuple(%reduce.200, %add_any.195.clone.3)
}

%region_20.24 (reduce_sum.305: f32[], reduce_sum.306: f32[]) -> f32[] {
  %reduce_sum.305 = f32[]{:T(128)} parameter(0), metadata={op_name="jit(train_step)/transpose(jvp())/while/body/closed_call/checkpoint/reduce_sum"}
  %reduce_sum.306 = f32[]{:T(128)} parameter(1), metadata={op_name="jit(train_step)/transpose(jvp())/while/body/closed_call/checkpoint/reduce_sum"}
  ROOT %reduce_sum.310 = f32[]{:T(128)} add(%reduce_sum.305, %reduce_sum.306), metadata={op_name="checkpoint/reduce_sum" stack_frame_id=0}, backend_config={"flag_configs":[],"scoped_memory_configs":[],"used_scoped_memory_configs":[],"aliasing_operands":{"lists":[]}}
}

%fused_computation.193.clone.clone (param_0.1775: f32[1,128,8,128], param_1.1866: bf16[1,128,8,128], param_2.1428: bf16[128]) -> f32[128,8] {
  %param_0.1775 = f32[1,128,8,128]{3,1,2,0:T(8,128)S(1)} parameter(0)
  %param_1.1866 = bf16[1,128,8,128]{3,1,2,0:T(8,128)(2,1)S(1)} parameter(1)
  %param_2.1428 = bf16[128]{0:T(256)(128)(2,1)S(1)} parameter(2)
  %mul.2974 = bf16[1,128,8,128]{3,1,2,0:T(8,128)(2,1)} broadcast(%param_2.1428), dimensions={3}, metadata={op_name="jit(train_step)/transpose(jvp())/while/body/closed_call/checkpoint/rematted_computation/mul" stack_frame_id=0}
  %mul.2973 = bf16[1,128,8,128]{3,1,2,0:T(8,128)(2,1)} multiply(%param_1.1866, %mul.2974), metadata={op_name="jit(train_step)/transpose(jvp())/while/body/closed_call/checkpoint/mul" stack_frame_id=0}
  %convert_element_type.1472 = f32[1,128,8,128]{3,1,2,0:T(8,128)} convert(%mul.2973), metadata={op_name="jit(train_step)/transpose(jvp())/while/body/closed_call/checkpoint/convert_element_type" stack_frame_id=0}
  %mul.2972 = f32[1,128,8,128]{3,1,2,0:T(8,128)} multiply(%param_0.1775, %convert_element_type.1472), metadata={op_name="jit(train_step)/transpose(jvp())/while/body/closed_call/checkpoint/mul" stack_frame_id=0}
  %constant.1662 = f32[]{:T(128)} constant(0)
  ROOT %reduce.201 = f32[128,8]{0,1:T(8,128)S(1)} reduce(%mul.2972, %constant.1662), dimensions={0,3}, to_apply=%region_20.24, metadata={op_name="jit(train_step)/transpose(jvp())/while/body/closed_call/checkpoint/reduce_sum" stack_frame_id=0}
}

%fused_computation.292.clone.clone (param_0.1776: f32[128,8], param_1.1867: f32[128,8]) -> f32[128,8] {
  %param_0.1776 = f32[128,8]{0,1:T(8,128)S(1)} parameter(0)
